…
I0403 19:34:06.733429  9396 net.cpp:313] The NetState phase (1) differed from the phase (0) specified by a rule in layer data
I0403 19:34:06.734594  9396 net.cpp:49] Initializing net from parameters: 
state {
  phase: TEST
}
layer {
  name: "data"
  type: "Data"
  top: "data"
  top: "label"
  include {
    phase: TEST
  }
  transform_param {
    mirror: false
    crop_size: 224
    mean_file: "/home/mohanty/data/final_dataset/lmdb/color-50-50/mean.binaryproto"
  }
  data_param {
    source: "/home/mohanty/data/final_dataset/lmdb/color-50-50/test_db"
    batch_size: 24
    backend: LMDB
  }
}
layer {
  name: "conv1/7x7_s2"
  type: "Convolution"
  bottom: "data"
  top: "conv1/7x7_s2"
  param {
    lr_mult: 1
    decay_mult: 1
  }
  param {
    lr_mult: 2
    decay_mult: 0
  }
  convolution_param {
    num_output: 64
    pad: 3
    kernel_size: 7
    stride: 2
    weight_filler {
      type: "xavier"
      std: 0.1
    }
    bias_filler {
      type: "constant"
      value: 0.2
    }
  }
}
layer {
  name: "conv1/relu_7x7"
  type: "ReLU"
  bottom: "conv1/7x7_s2"
  top: "conv1/7x7_s2"
}
layer {
  name: "pool1/3x3_s2"
  type: "Pooling"
  bottom: "conv1/7x7_s2"
  top: "pool1/3x3_s2"
  pooling_param {
    pool: MAX
    kernel_size: 3
    stride: 2
  }
}
layer {
  name: "pool1/norm1"
  type: "LRN"
  bottom: "pool1/3x3_s2"
  top: "pool1/norm1"
  lrn_param {
    local_size: 5
    alpha: 0.0001
    beta: 0.75
  }
}
layer {
  name: "conv2/3x3_reduce"
  type: "Convolution"
  bottom: "pool1/norm1"
  top: "conv2/3x3_reduce"
  param {
    lr_mult: 1
    decay_mult: 1
  }
  param {
    lr_mult: 2
    decay_mult: 0
  }
  convolution_param {
    num_output: 64
    kernel_size: 1
    weight_filler {
      type: "xavier"
      std: 0.1
    }
    bias_filler {
      type: "constant"
      value: 0.2
    }
  }
}
layer {
  name: "conv2/relu_3x3_reduce"
  type: "ReLU"
  bottom: "conv2/3x3_reduce"
  top: "conv2/3x3_reduce"
}
layer {
  name: "conv2/3x3"
  type: "Convolution"
  bottom: "conv2/3x3_reduce"
  top: "conv2/3x3"
  param {
    lr_mult: 1
    decay_mult: 1
  }
  param {
    lr_mult: 2
    decay_mult: 0
  }
  convolution_param {
    num_output: 192
    pad: 1
    kernel_size: 3
    weight_filler {
      type: "xavier"
      std: 0.03
    }
    bias_filler {
      type: "constant"
      value: 0.2
    }
  }
}
layer {
  name: "conv2/relu_3x3"
  type: "ReLU"
  bottom: "conv2/3x3"
  top: "conv2/3x3"
}
layer {
  name: "conv2/norm2"
  type: "LRN"
  bottom: "conv2/3x3"
  top: "conv2/norm2"
  lrn_param {
    local_size: 5
    alpha: 0.0001
    beta: 0.75
  }
}
layer {
  name: "pool2/3x3_s2"
  type: "Pooling"
  bottom: "conv2/norm2"
  top: "pool2/3x3_s2"
  pooling_param {
    pool: MAX
    kernel_size: 3
    stride: 2
  }
}
layer {
  name: "inception_3a/1x1"
  type: "Convolution"
  bottom: "pool2/3x3_s2"
  top: "inception_3a/1x1"
  param {
    lr_mult: 1
    decay_mult: 1
  }
  param {
    lr_mult: 2
    decay_mult: 0
  }
  convolution_param {
    num_output: 64
    kernel_size: 1
    weight_filler {
      type: "xavier"
      std: 0.03
    }
    bias_filler {
      type: "constant"
      value: 0.2
    }
  }
}
layer {
  name: "inception_3a/relu_1x1"
  type: "ReLU"
  bottom: "inception_3a/1x1"
  top: "inception_3a/1x1"
}
layer {
  name: "inception_3a/3x3_reduce"
  type: "Convolution"
  bottom: "pool2/3x3_s2"
  top: "inception_3a/3x3_reduce"
  param {
    lr_mult: 1
    decay_mult: 1
  }
  param {
    lr_mult: 2
    decay_mult: 0
  }
  convolution_param {
    num_output: 96
    kernel_size: 1
    weight_filler {
      type: "xavier"
      std: 0.09
    }
    bias_filler {
      type: "constant"
      value: 0.2
    }
  }
}
layer {
  name: "inception_3a/relu_3x3_reduce"
  type: "ReLU"
  bottom: "inception_3a/3x3_reduce"
  top: "inception_3a/3x3_reduce"
}
layer {
  name: "inception_3a/3x3"
  type: "Convolution"
  bottom: "inception_3a/3x3_reduce"
  top: "inception_3a/3x3"
  param {
    lr_mult: 1
    decay_mult: 1
  }
  param {
    lr_mult: 2
    decay_mult: 0
  }
  convolution_param {
    num_output: 128
    pad: 1
    kernel_size: 3
    weight_filler {
      type: "xavier"
      std: 0.03
    }
    bias_filler {
      type: "constant"
      value: 0.2
    }
  }
}
layer {
  name: "inception_3a/relu_3x3"
  type: "ReLU"
  bottom: "inception_3a/3x3"
  top: "inception_3a/3x3"
}
layer {
  name: "inception_3a/5x5_reduce"
  type: "Convolution"
  bottom: "pool2/3x3_s2"
  top: "inception_3a/5x5_reduce"
  param {
    lr_mult: 1
    decay_mult: 1
  }
  param {
    lr_mult: 2
    decay_mult: 0
  }
  convolution_param {
    num_output: 16
    kernel_size: 1
    weight_filler {
      type: "xavier"
      std: 0.2
    }
    bias_filler {
      type: "constant"
      value: 0.2
    }
  }
}
layer {
  name: "inception_3a/relu_5x5_reduce"
  type: "ReLU"
  bottom: "inception_3a/5x5_reduce"
  top: "inception_3a/5x5_reduce"
}
layer {
  name: "inception_3a/5x5"
  type: "Convolution"
  bottom: "inception_3a/5x5_reduce"
  top: "inception_3a/5x5"
  param {
    lr_mult: 1
    decay_mult: 1
  }
  param {
    lr_mult: 2
    decay_mult: 0
  }
  convolution_param {
    num_output: 32
    pad: 2
    kernel_size: 5
    weight_filler {
      type: "xavier"
      std: 0.03
    }
    bias_filler {
      type: "constant"
      value: 0.2
    }
  }
}
layer {
  name: "inception_3a/relu_5x5"
  type: "ReLU"
  bottom: "inception_3a/5x5"
  top: "inception_3a/5x5"
}
layer {
  name: "inception_3a/pool"
  type: "Pooling"
  bottom: "pool2/3x3_s2"
  top: "inception_3a/pool"
  pooling_param {
    pool: MAX
    kernel_size: 3
    stride: 1
    pad: 1
  }
}
layer {
  name: "inception_3a/pool_proj"
  type: "Convolution"
  bottom: "inception_3a/pool"
  top: "inception_3a/pool_proj"
  param {
    lr_mult: 1
    decay_mult: 1
  }
  param {
    lr_mult: 2
    decay_mult: 0
  }
  convolution_param {
    num_output: 32
    kernel_size: 1
    weight_filler {
      type: "xavier"
      std: 0.1
    }
    bias_filler {
      type: "constant"
      value: 0.2
    }
  }
}
layer {
  name: "inception_3a/relu_pool_proj"
  type: "ReLU"
  bottom: "inception_3a/pool_proj"
  top: "inception_3a/pool_proj"
}
layer {
  name: "inception_3a/output"
  type: "Concat"
  bottom: "inception_3a/1x1"
  bottom: "inception_3a/3x3"
  bottom: "inception_3a/5x5"
  bottom: "inception_3a/pool_proj"
  top: "inception_3a/output"
}
layer {
  name: "inception_3b/1x1"
  type: "Convolution"
  bottom: "inception_3a/output"
  top: "inception_3b/1x1"
  param {
    lr_mult: 1
    decay_mult: 1
  }
  param {
    lr_mult: 2
    decay_mult: 0
  }
  convolution_param {
    num_output: 128
    kernel_size: 1
    weight_filler {
      type: "xavier"
      std: 0.03
    }
    bias_filler {
      type: "constant"
      value: 0.2
    }
  }
}
layer {
  name: "inception_3b/relu_1x1"
  type: "ReLU"
  bottom: "inception_3b/1x1"
  top: "inception_3b/1x1"
}
layer {
  name: "inception_3b/3x3_reduce"
  type: "Convolution"
  bottom: "inception_3a/output"
  top: "inception_3b/3x3_reduce"
  param {
    lr_mult: 1
    decay_mult: 1
  }
  param {
    lr_mult: 2
    decay_mult: 0
  }
  convolution_param {
    num_output: 128
    kernel_size: 1
    weight_filler {
      type: "xavier"
      std: 0.09
    }
    bias_filler {
      type: "constant"
      value: 0.2
    }
  }
}
layer {
  name: "inception_3b/relu_3x3_reduce"
  type: "ReLU"
  bottom: "inception_3b/3x3_reduce"
  top: "inception_3b/3x3_reduce"
}
layer {
  name: "inception_3b/3x3"
  type: "Convolution"
  bottom: "inception_3b/3x3_reduce"
  top: "inception_3b/3x3"
  param {
    lr_mult: 1
    decay_mult: 1
  }
  param {
    lr_mult: 2
    decay_mult: 0
  }
  convolution_param {
    num_output: 192
    pad: 1
    kernel_size: 3
    weight_filler {
      type: "xavier"
      std: 0.03
    }
    bias_filler {
      type: "constant"
      value: 0.2
    }
  }
}
layer {
  name: "inception_3b/relu_3x3"
  type: "ReLU"
  bottom: "inception_3b/3x3"
  top: "inception_3b/3x3"
}
layer {
  name: "inception_3b/5x5_reduce"
  type: "Convolution"
  bottom: "inception_3a/output"
  top: "inception_3b/5x5_reduce"
  param {
    lr_mult: 1
    decay_mult: 1
  }
  param {
    lr_mult: 2
    decay_mult: 0
  }
  convolution_param {
    num_output: 32
    kernel_size: 1
    weight_filler {
      type: "xavier"
      std: 0.2
    }
    bias_filler {
      type: "constant"
      value: 0.2
    }
  }
}
layer {
  name: "inception_3b/relu_5x5_reduce"
  type: "ReLU"
  bottom: "inception_3b/5x5_reduce"
  top: "inception_3b/5x5_reduce"
}
layer {
  name: "inception_3b/5x5"
  type: "Convolution"
  bottom: "inception_3b/5x5_reduce"
  top: "inception_3b/5x5"
  param {
    lr_mult: 1
    decay_mult: 1
  }
  param {
    lr_mult: 2
    decay_mult: 0
  }
  convolution_param {
    num_output: 96
    pad: 2
    kernel_size: 5
    weight_filler {
      type: "xavier"
      std: 0.03
    }
    bias_filler {
      type: "constant"
      value: 0.2
    }
  }
}
layer {
  name: "inception_3b/relu_5x5"
  type: "ReLU"
  bottom: "inception_3b/5x5"
  top: "inception_3b/5x5"
}
layer {
  name: "inception_3b/pool"
  type: "Pooling"
  bottom: "inception_3a/output"
  top: "inception_3b/pool"
  pooling_param {
    pool: MAX
    kernel_size: 3
    stride: 1
    pad: 1
  }
}
layer {
  name: "inception_3b/pool_proj"
  type: "Convolution"
  bottom: "inception_3b/pool"
  top: "inception_3b/pool_proj"
  param {
    lr_mult: 1
    decay_mult: 1
  }
  param {
    lr_mult: 2
    decay_mult: 0
  }
  convolution_param {
    num_output: 64
    kernel_size: 1
    weight_filler {
      type: "xavier"
      std: 0.1
    }
    bias_filler {
      type: "constant"
      value: 0.2
    }
  }
}
layer {
  name: "inception_3b/relu_pool_proj"
  type: "ReLU"
  bottom: "inception_3b/pool_proj"
  top: "inception_3b/pool_proj"
}
layer {
  name: "inception_3b/output"
  type: "Concat"
  bottom: "inception_3b/1x1"
  bottom: "inception_3b/3x3"
  bottom: "inception_3b/5x5"
  bottom: "inception_3b/pool_proj"
  top: "inception_3b/output"
}
layer {
  name: "pool3/3x3_s2"
  type: "Pooling"
  bottom: "inception_3b/output"
  top: "pool3/3x3_s2"
  pooling_param {
    pool: MAX
    kernel_size: 3
    stride: 2
  }
}
layer {
  name: "inception_4a/1x1"
  type: "Convolution"
  bottom: "pool3/3x3_s2"
  top: "inception_4a/1x1"
  param {
    lr_mult: 1
    decay_mult: 1
  }
  param {
    lr_mult: 2
    decay_mult: 0
  }
  convolution_param {
    num_output: 192
    kernel_size: 1
    weight_filler {
      type: "xavier"
      std: 0.03
    }
    bias_filler {
      type: "constant"
      value: 0.2
    }
  }
}
layer {
  name: "inception_4a/relu_1x1"
  type: "ReLU"
  bottom: "inception_4a/1x1"
  top: "inception_4a/1x1"
}
layer {
  name: "inception_4a/3x3_reduce"
  type: "Convolution"
  bottom: "pool3/3x3_s2"
  top: "inception_4a/3x3_reduce"
  param {
    lr_mult: 1
    decay_mult: 1
  }
  param {
    lr_mult: 2
    decay_mult: 0
  }
  convolution_param {
    num_output: 96
    kernel_size: 1
    weight_filler {
      type: "xavier"
      std: 0.09
    }
    bias_filler {
      type: "constant"
      value: 0.2
    }
  }
}
layer {
  name: "inception_4a/relu_3x3_reduce"
  type: "ReLU"
  bottom: "inception_4a/3x3_reduce"
  top: "inception_4a/3x3_reduce"
}
layer {
  name: "inception_4a/3x3"
  type: "Convolution"
  bottom: "inception_4a/3x3_reduce"
  top: "inception_4a/3x3"
  param {
    lr_mult: 1
    decay_mult: 1
  }
  param {
    lr_mult: 2
    decay_mult: 0
  }
  convolution_param {
    num_output: 208
    pad: 1
    kernel_size: 3
    weight_filler {
      type: "xavier"
      std: 0.03
    }
    bias_filler {
      type: "constant"
      value: 0.2
    }
  }
}
layer {
  name: "inception_4a/relu_3x3"
  type: "ReLU"
  bottom: "inception_4a/3x3"
  top: "inception_4a/3x3"
}
layer {
  name: "inception_4a/5x5_reduce"
  type: "Convolution"
  bottom: "pool3/3x3_s2"
  top: "inception_4a/5x5_reduce"
  param {
    lr_mult: 1
    decay_mult: 1
  }
  param {
    lr_mult: 2
    decay_mult: 0
  }
  convolution_param {
    num_output: 16
    kernel_size: 1
    weight_filler {
      type: "xavier"
      std: 0.2
    }
    bias_filler {
      type: "constant"
      value: 0.2
    }
  }
}
layer {
  name: "inception_4a/relu_5x5_reduce"
  type: "ReLU"
  bottom: "inception_4a/5x5_reduce"
  top: "inception_4a/5x5_reduce"
}
layer {
  name: "inception_4a/5x5"
  type: "Convolution"
  bottom: "inception_4a/5x5_reduce"
  top: "inception_4a/5x5"
  param {
    lr_mult: 1
    decay_mult: 1
  }
  param {
    lr_mult: 2
    decay_mult: 0
  }
  convolution_param {
    num_output: 48
    pad: 2
    kernel_size: 5
    weight_filler {
      type: "xavier"
      std: 0.03
    }
    bias_filler {
      type: "constant"
      value: 0.2
    }
  }
}
layer {
  name: "inception_4a/relu_5x5"
  type: "ReLU"
  bottom: "inception_4a/5x5"
  top: "inception_4a/5x5"
}
layer {
  name: "inception_4a/pool"
  type: "Pooling"
  bottom: "pool3/3x3_s2"
  top: "inception_4a/pool"
  pooling_param {
    pool: MAX
    kernel_size: 3
    stride: 1
    pad: 1
  }
}
layer {
  name: "inception_4a/pool_proj"
  type: "Convolution"
  bottom: "inception_4a/pool"
  top: "inception_4a/pool_proj"
  param {
    lr_mult: 1
    decay_mult: 1
  }
  param {
    lr_mult: 2
    decay_mult: 0
  }
  convolution_param {
    num_output: 64
    kernel_size: 1
    weight_filler {
      type: "xavier"
      std: 0.1
    }
    bias_filler {
      type: "constant"
      value: 0.2
    }
  }
}
layer {
  name: "inception_4a/relu_pool_proj"
  type: "ReLU"
  bottom: "inception_4a/pool_proj"
  top: "inception_4a/pool_proj"
}
layer {
  name: "inception_4a/output"
  type: "Concat"
  bottom: "inception_4a/1x1"
  bottom: "inception_4a/3x3"
  bottom: "inception_4a/5x5"
  bottom: "inception_4a/pool_proj"
  top: "inception_4a/output"
}
layer {
  name: "loss1/ave_pool"
  type: "Pooling"
  bottom: "inception_4a/output"
  top: "loss1/ave_pool"
  pooling_param {
    pool: AVE
    kernel_size: 5
    stride: 3
  }
}
layer {
  name: "loss1/conv"
  type: "Convolution"
  bottom: "loss1/ave_pool"
  top: "loss1/conv"
  param {
    lr_mult: 1
    decay_mult: 1
  }
  param {
    lr_mult: 2
    decay_mult: 0
  }
  convolution_param {
    num_output: 128
    kernel_size: 1
    weight_filler {
      type: "xavier"
      std: 0.08
    }
    bias_filler {
      type: "constant"
      value: 0.2
    }
  }
}
layer {
  name: "loss1/relu_conv"
  type: "ReLU"
  bottom: "loss1/conv"
  top: "loss1/conv"
}
layer {
  name: "loss1/fc"
  type: "InnerProduct"
  bottom: "loss1/conv"
  top: "loss1/fc"
  param {
    lr_mult: 1
    decay_mult: 1
  }
  param {
    lr_mult: 2
    decay_mult: 0
  }
  inner_product_param {
    num_output: 1024
    weight_filler {
      type: "xavier"
      std: 0.02
    }
    bias_filler {
      type: "constant"
      value: 0.2
    }
  }
}
layer {
  name: "loss1/relu_fc"
  type: "ReLU"
  bottom: "loss1/fc"
  top: "loss1/fc"
}
layer {
  name: "loss1/drop_fc"
  type: "Dropout"
  bottom: "loss1/fc"
  top: "loss1/fc"
  dropout_param {
    dropout_ratio: 0.7
  }
}
layer {
  name: "loss1/classifier_plantvillage"
  type: "InnerProduct"
  bottom: "loss1/fc"
  top: "loss1/classifier_plantvillage"
  param {
    lr_mult: 1
    decay_mult: 1
  }
  param {
    lr_mult: 2
    decay_mult: 0
  }
  inner_product_param {
    num_output: 38
    weight_filler {
      type: "xavier"
      std: 0.0009765625
    }
    bias_filler {
      type: "constant"
      value: 0
    }
  }
}
layer {
  name: "inception_4b/1x1"
  type: "Convolution"
  bottom: "inception_4a/output"
  top: "inception_4b/1x1"
  param {
    lr_mult: 1
    decay_mult: 1
  }
  param {
    lr_mult: 2
    decay_mult: 0
  }
  convolution_param {
    num_output: 160
    kernel_size: 1
    weight_filler {
      type: "xavier"
      std: 0.03
    }
    bias_filler {
      type: "constant"
      value: 0.2
    }
  }
}
layer {
  name: "inception_4b/relu_1x1"
  type: "ReLU"
  bottom: "inception_4b/1x1"
  top: "inception_4b/1x1"
}
layer {
  name: "inception_4b/3x3_reduce"
  type: "Convolution"
  bottom: "inception_4a/output"
  top: "inception_4b/3x3_reduce"
  param {
    lr_mult: 1
    decay_mult: 1
  }
  param {
    lr_mult: 2
    decay_mult: 0
  }
  convolution_param {
    num_output: 112
    kernel_size: 1
    weight_filler {
      type: "xavier"
      std: 0.09
    }
    bias_filler {
      type: "constant"
      value: 0.2
    }
  }
}
layer {
  name: "inception_4b/relu_3x3_reduce"
  type: "ReLU"
  bottom: "inception_4b/3x3_reduce"
  top: "inception_4b/3x3_reduce"
}
layer {
  name: "inception_4b/3x3"
  type: "Convolution"
  bottom: "inception_4b/3x3_reduce"
  top: "inception_4b/3x3"
  param {
    lr_mult: 1
    decay_mult: 1
  }
  param {
    lr_mult: 2
    decay_mult: 0
  }
  convolution_param {
    num_output: 224
    pad: 1
    kernel_size: 3
    weight_filler {
      type: "xavier"
      std: 0.03
    }
    bias_filler {
      type: "constant"
      value: 0.2
    }
  }
}
layer {
  name: "inception_4b/relu_3x3"
  type: "ReLU"
  bottom: "inception_4b/3x3"
  top: "inception_4b/3x3"
}
layer {
  name: "inception_4b/5x5_reduce"
  type: "Convolution"
  bottom: "inception_4a/output"
  top: "inception_4b/5x5_reduce"
  param {
    lr_mult: 1
    decay_mult: 1
  }
  param {
    lr_mult: 2
    decay_mult: 0
  }
  convolution_param {
    num_output: 24
    kernel_size: 1
    weight_filler {
      type: "xavier"
      std: 0.2
    }
    bias_filler {
      type: "constant"
      value: 0.2
    }
  }
}
layer {
  name: "inception_4b/relu_5x5_reduce"
  type: "ReLU"
  bottom: "inception_4b/5x5_reduce"
  top: "inception_4b/5x5_reduce"
}
layer {
  name: "inception_4b/5x5"
  type: "Convolution"
  bottom: "inception_4b/5x5_reduce"
  top: "inception_4b/5x5"
  param {
    lr_mult: 1
    decay_mult: 1
  }
  param {
    lr_mult: 2
    decay_mult: 0
  }
  convolution_param {
    num_output: 64
    pad: 2
    kernel_size: 5
    weight_filler {
      type: "xavier"
      std: 0.03
    }
    bias_filler {
      type: "constant"
      value: 0.2
    }
  }
}
layer {
  name: "inception_4b/relu_5x5"
  type: "ReLU"
  bottom: "inception_4b/5x5"
  top: "inception_4b/5x5"
}
layer {
  name: "inception_4b/pool"
  type: "Pooling"
  bottom: "inception_4a/output"
  top: "inception_4b/pool"
  pooling_param {
    pool: MAX
    kernel_size: 3
    stride: 1
    pad: 1
  }
}
layer {
  name: "inception_4b/pool_proj"
  type: "Convolution"
  bottom: "inception_4b/pool"
  top: "inception_4b/pool_proj"
  param {
    lr_mult: 1
    decay_mult: 1
  }
  param {
    lr_mult: 2
    decay_mult: 0
  }
  convolution_param {
    num_output: 64
    kernel_size: 1
    weight_filler {
      type: "xavier"
      std: 0.1
    }
    bias_filler {
      type: "constant"
      value: 0.2
    }
  }
}
layer {
  name: "inception_4b/relu_pool_proj"
  type: "ReLU"
  bottom: "inception_4b/pool_proj"
  top: "inception_4b/pool_proj"
}
layer {
  name: "inception_4b/output"
  type: "Concat"
  bottom: "inception_4b/1x1"
  bottom: "inception_4b/3x3"
  bottom: "inception_4b/5x5"
  bottom: "inception_4b/pool_proj"
  top: "inception_4b/output"
}
layer {
  name: "inception_4c/1x1"
  type: "Convolution"
  bottom: "inception_4b/output"
  top: "inception_4c/1x1"
  param {
    lr_mult: 1
    decay_mult: 1
  }
  param {
    lr_mult: 2
    decay_mult: 0
  }
  convolution_param {
    num_output: 128
    kernel_size: 1
    weight_filler {
      type: "xavier"
      std: 0.03
    }
    bias_filler {
      type: "constant"
      value: 0.2
    }
  }
}
layer {
  name: "inception_4c/relu_1x1"
  type: "ReLU"
  bottom: "inception_4c/1x1"
  top: "inception_4c/1x1"
}
layer {
  name: "inception_4c/3x3_reduce"
  type: "Convolution"
  bottom: "inception_4b/output"
  top: "inception_4c/3x3_reduce"
  param {
    lr_mult: 1
    decay_mult: 1
  }
  param {
    lr_mult: 2
    decay_mult: 0
  }
  convolution_param {
    num_output: 128
    kernel_size: 1
    weight_filler {
      type: "xavier"
      std: 0.09
    }
    bias_filler {
      type: "constant"
      value: 0.2
    }
  }
}
layer {
  name: "inception_4c/relu_3x3_reduce"
  type: "ReLU"
  bottom: "inception_4c/3x3_reduce"
  top: "inception_4c/3x3_reduce"
}
layer {
  name: "inception_4c/3x3"
  type: "Convolution"
  bottom: "inception_4c/3x3_reduce"
  top: "inception_4c/3x3"
  param {
    lr_mult: 1
    decay_mult: 1
  }
  param {
    lr_mult: 2
    decay_mult: 0
  }
  convolution_param {
    num_output: 256
    pad: 1
    kernel_size: 3
    weight_filler {
      type: "xavier"
      std: 0.03
    }
    bias_filler {
      type: "constant"
      value: 0.2
    }
  }
}
layer {
  name: "inception_4c/relu_3x3"
  type: "ReLU"
  bottom: "inception_4c/3x3"
  top: "inception_4c/3x3"
}
layer {
  name: "inception_4c/5x5_reduce"
  type: "Convolution"
  bottom: "inception_4b/output"
  top: "inception_4c/5x5_reduce"
  param {
    lr_mult: 1
    decay_mult: 1
  }
  param {
    lr_mult: 2
    decay_mult: 0
  }
  convolution_param {
    num_output: 24
    kernel_size: 1
    weight_filler {
      type: "xavier"
      std: 0.2
    }
    bias_filler {
      type: "constant"
      value: 0.2
    }
  }
}
layer {
  name: "inception_4c/relu_5x5_reduce"
  type: "ReLU"
  bottom: "inception_4c/5x5_reduce"
  top: "inception_4c/5x5_reduce"
}
layer {
  name: "inception_4c/5x5"
  type: "Convolution"
  bottom: "inception_4c/5x5_reduce"
  top: "inception_4c/5x5"
  param {
    lr_mult: 1
    decay_mult: 1
  }
  param {
    lr_mult: 2
    decay_mult: 0
  }
  convolution_param {
    num_output: 64
    pad: 2
    kernel_size: 5
    weight_filler {
      type: "xavier"
      std: 0.03
    }
    bias_filler {
      type: "constant"
      value: 0.2
    }
  }
}
layer {
  name: "inception_4c/relu_5x5"
  type: "ReLU"
  bottom: "inception_4c/5x5"
  top: "inception_4c/5x5"
}
layer {
  name: "inception_4c/pool"
  type: "Pooling"
  bottom: "inception_4b/output"
  top: "inception_4c/pool"
  pooling_param {
    pool: MAX
    kernel_size: 3
    stride: 1
    pad: 1
  }
}
layer {
  name: "inception_4c/pool_proj"
  type: "Convolution"
  bottom: "inception_4c/pool"
  top: "inception_4c/pool_proj"
  param {
    lr_mult: 1
    decay_mult: 1
  }
  param {
    lr_mult: 2
    decay_mult: 0
  }
  convolution_param {
    num_output: 64
    kernel_size: 1
    weight_filler {
      type: "xavier"
      std: 0.1
    }
    bias_filler {
      type: "constant"
      value: 0.2
    }
  }
}
layer {
  name: "inception_4c/relu_pool_proj"
  type: "ReLU"
  bottom: "inception_4c/pool_proj"
  top: "inception_4c/pool_proj"
}
layer {
  name: "inception_4c/output"
  type: "Concat"
  bottom: "inception_4c/1x1"
  bottom: "inception_4c/3x3"
  bottom: "inception_4c/5x5"
  bottom: "inception_4c/pool_proj"
  top: "inception_4c/output"
}
layer {
  name: "inception_4d/1x1"
  type: "Convolution"
  bottom: "inception_4c/output"
  top: "inception_4d/1x1"
  param {
    lr_mult: 1
    decay_mult: 1
  }
  param {
    lr_mult: 2
    decay_mult: 0
  }
  convolution_param {
    num_output: 112
    kernel_size: 1
    weight_filler {
      type: "xavier"
      std: 0.03
    }
    bias_filler {
      type: "constant"
      value: 0.2
    }
  }
}
layer {
  name: "inception_4d/relu_1x1"
  type: "ReLU"
  bottom: "inception_4d/1x1"
  top: "inception_4d/1x1"
}
layer {
  name: "inception_4d/3x3_reduce"
  type: "Convolution"
  bottom: "inception_4c/output"
  top: "inception_4d/3x3_reduce"
  param {
    lr_mult: 1
    decay_mult: 1
  }
  param {
    lr_mult: 2
    decay_mult: 0
  }
  convolution_param {
    num_output: 144
    kernel_size: 1
    weight_filler {
      type: "xavier"
      std: 0.09
    }
    bias_filler {
      type: "constant"
      value: 0.2
    }
  }
}
layer {
  name: "inception_4d/relu_3x3_reduce"
  type: "ReLU"
  bottom: "inception_4d/3x3_reduce"
  top: "inception_4d/3x3_reduce"
}
layer {
  name: "inception_4d/3x3"
  type: "Convolution"
  bottom: "inception_4d/3x3_reduce"
  top: "inception_4d/3x3"
  param {
    lr_mult: 1
    decay_mult: 1
  }
  param {
    lr_mult: 2
    decay_mult: 0
  }
  convolution_param {
    num_output: 288
    pad: 1
    kernel_size: 3
    weight_filler {
      type: "xavier"
      std: 0.03
    }
    bias_filler {
      type: "constant"
      value: 0.2
    }
  }
}
layer {
  name: "inception_4d/relu_3x3"
  type: "ReLU"
  bottom: "inception_4d/3x3"
  top: "inception_4d/3x3"
}
layer {
  name: "inception_4d/5x5_reduce"
  type: "Convolution"
  bottom: "inception_4c/output"
  top: "inception_4d/5x5_reduce"
  param {
    lr_mult: 1
    decay_mult: 1
  }
  param {
    lr_mult: 2
    decay_mult: 0
  }
  convolution_param {
    num_output: 32
    kernel_size: 1
    weight_filler {
      type: "xavier"
      std: 0.2
    }
    bias_filler {
      type: "constant"
      value: 0.2
    }
  }
}
layer {
  name: "inception_4d/relu_5x5_reduce"
  type: "ReLU"
  bottom: "inception_4d/5x5_reduce"
  top: "inception_4d/5x5_reduce"
}
layer {
  name: "inception_4d/5x5"
  type: "Convolution"
  bottom: "inception_4d/5x5_reduce"
  top: "inception_4d/5x5"
  param {
    lr_mult: 1
    decay_mult: 1
  }
  param {
    lr_mult: 2
    decay_mult: 0
  }
  convolution_param {
    num_output: 64
    pad: 2
    kernel_size: 5
    weight_filler {
      type: "xavier"
      std: 0.03
    }
    bias_filler {
      type: "constant"
      value: 0.2
    }
  }
}
layer {
  name: "inception_4d/relu_5x5"
  type: "ReLU"
  bottom: "inception_4d/5x5"
  top: "inception_4d/5x5"
}
layer {
  name: "inception_4d/pool"
  type: "Pooling"
  bottom: "inception_4c/output"
  top: "inception_4d/pool"
  pooling_param {
    pool: MAX
    kernel_size: 3
    stride: 1
    pad: 1
  }
}
layer {
  name: "inception_4d/pool_proj"
  type: "Convolution"
  bottom: "inception_4d/pool"
  top: "inception_4d/pool_proj"
  param {
    lr_mult: 1
    decay_mult: 1
  }
  param {
    lr_mult: 2
    decay_mult: 0
  }
  convolution_param {
    num_output: 64
    kernel_size: 1
    weight_filler {
      type: "xavier"
      std: 0.1
    }
    bias_filler {
      type: "constant"
      value: 0.2
    }
  }
}
layer {
  name: "inception_4d/relu_pool_proj"
  type: "ReLU"
  bottom: "inception_4d/pool_proj"
  top: "inception_4d/pool_proj"
}
layer {
  name: "inception_4d/output"
  type: "Concat"
  bottom: "inception_4d/1x1"
  bottom: "inception_4d/3x3"
  bottom: "inception_4d/5x5"
  bottom: "inception_4d/pool_proj"
  top: "inception_4d/output"
}
layer {
  name: "loss2/ave_pool"
  type: "Pooling"
  bottom: "inception_4d/output"
  top: "loss2/ave_pool"
  pooling_param {
    pool: AVE
    kernel_size: 5
    stride: 3
  }
}
layer {
  name: "loss2/conv"
  type: "Convolution"
  bottom: "loss2/ave_pool"
  top: "loss2/conv"
  param {
    lr_mult: 1
    decay_mult: 1
  }
  param {
    lr_mult: 2
    decay_mult: 0
  }
  convolution_param {
    num_output: 128
    kernel_size: 1
    weight_filler {
      type: "xavier"
      std: 0.08
    }
    bias_filler {
      type: "constant"
      value: 0.2
    }
  }
}
layer {
  name: "loss2/relu_conv"
  type: "ReLU"
  bottom: "loss2/conv"
  top: "loss2/conv"
}
layer {
  name: "loss2/fc"
  type: "InnerProduct"
  bottom: "loss2/conv"
  top: "loss2/fc"
  param {
    lr_mult: 1
    decay_mult: 1
  }
  param {
    lr_mult: 2
    decay_mult: 0
  }
  inner_product_param {
    num_output: 1024
    weight_filler {
      type: "xavier"
      std: 0.02
    }
    bias_filler {
      type: "constant"
      value: 0.2
    }
  }
}
layer {
  name: "loss2/relu_fc"
  type: "ReLU"
  bottom: "loss2/fc"
  top: "loss2/fc"
}
layer {
  name: "loss2/drop_fc"
  type: "Dropout"
  bottom: "loss2/fc"
  top: "loss2/fc"
  dropout_param {
    dropout_ratio: 0.7
  }
}
layer {
  name: "loss2/classifier_plantvillage"
  type: "InnerProduct"
  bottom: "loss2/fc"
  top: "loss2/classifier_plantvillage"
  param {
    lr_mult: 1
    decay_mult: 1
  }
  param {
    lr_mult: 2
    decay_mult: 0
  }
  inner_product_param {
    num_output: 38
    weight_filler {
      type: "xavier"
      std: 0.0009765625
    }
    bias_filler {
      type: "constant"
      value: 0
    }
  }
}
layer {
  name: "inception_4e/1x1"
  type: "Convolution"
  bottom: "inception_4d/output"
  top: "inception_4e/1x1"
  param {
    lr_mult: 1
    decay_mult: 1
  }
  param {
    lr_mult: 2
    decay_mult: 0
  }
  convolution_param {
    num_output: 256
    kernel_size: 1
    weight_filler {
      type: "xavier"
      std: 0.03
    }
    bias_filler {
      type: "constant"
      value: 0.2
    }
  }
}
layer {
  name: "inception_4e/relu_1x1"
  type: "ReLU"
  bottom: "inception_4e/1x1"
  top: "inception_4e/1x1"
}
layer {
  name: "inception_4e/3x3_reduce"
  type: "Convolution"
  bottom: "inception_4d/output"
  top: "inception_4e/3x3_reduce"
  param {
    lr_mult: 1
    decay_mult: 1
  }
  param {
    lr_mult: 2
    decay_mult: 0
  }
  convolution_param {
    num_output: 160
    kernel_size: 1
    weight_filler {
      type: "xavier"
      std: 0.09
    }
    bias_filler {
      type: "constant"
      value: 0.2
    }
  }
}
layer {
  name: "inception_4e/relu_3x3_reduce"
  type: "ReLU"
  bottom: "inception_4e/3x3_reduce"
  top: "inception_4e/3x3_reduce"
}
layer {
  name: "inception_4e/3x3"
  type: "Convolution"
  bottom: "inception_4e/3x3_reduce"
  top: "inception_4e/3x3"
  param {
    lr_mult: 1
    decay_mult: 1
  }
  param {
    lr_mult: 2
    decay_mult: 0
  }
  convolution_param {
    num_output: 320
    pad: 1
    kernel_size: 3
    weight_filler {
      type: "xavier"
      std: 0.03
    }
    bias_filler {
      type: "constant"
      value: 0.2
    }
  }
}
layer {
  name: "inception_4e/relu_3x3"
  type: "ReLU"
  bottom: "inception_4e/3x3"
  top: "inception_4e/3x3"
}
layer {
  name: "inception_4e/5x5_reduce"
  type: "Convolution"
  bottom: "inception_4d/output"
  top: "inception_4e/5x5_reduce"
  param {
    lr_mult: 1
    decay_mult: 1
  }
  param {
    lr_mult: 2
    decay_mult: 0
  }
  convolution_param {
    num_output: 32
    kernel_size: 1
    weight_filler {
      type: "xavier"
      std: 0.2
    }
    bias_filler {
      type: "constant"
      value: 0.2
    }
  }
}
layer {
  name: "inception_4e/relu_5x5_reduce"
  type: "ReLU"
  bottom: "inception_4e/5x5_reduce"
  top: "inception_4e/5x5_reduce"
}
layer {
  name: "inception_4e/5x5"
  type: "Convolution"
  bottom: "inception_4e/5x5_reduce"
  top: "inception_4e/5x5"
  p
I0403 19:34:06.736043  9396 layer_factory.hpp:77] Creating layer data
I0403 19:34:06.736645  9396 net.cpp:91] Creating Layer data
I0403 19:34:06.736676  9396 net.cpp:399] data -> data
I0403 19:34:06.736726  9396 net.cpp:399] data -> label
I0403 19:34:06.736765  9396 data_transformer.cpp:25] Loading mean file from: /home/mohanty/data/final_dataset/lmdb/color-50-50/mean.binaryproto
I0403 19:34:06.737859  9402 db_lmdb.cpp:38] Opened lmdb /home/mohanty/data/final_dataset/lmdb/color-50-50/test_db
I0403 19:34:06.749930  9396 data_layer.cpp:41] output data size: 24,3,224,224
I0403 19:34:06.777482  9396 net.cpp:141] Setting up data
I0403 19:34:06.777578  9396 net.cpp:148] Top shape: 24 3 224 224 (3612672)
I0403 19:34:06.777603  9396 net.cpp:148] Top shape: 24 (24)
I0403 19:34:06.777619  9396 net.cpp:156] Memory required for data: 14450784
I0403 19:34:06.777649  9396 layer_factory.hpp:77] Creating layer label_data_1_split
I0403 19:34:06.777678  9396 net.cpp:91] Creating Layer label_data_1_split
I0403 19:34:06.777698  9396 net.cpp:425] label_data_1_split <- label
I0403 19:34:06.777730  9396 net.cpp:399] label_data_1_split -> label_data_1_split_0
I0403 19:34:06.777760  9396 net.cpp:399] label_data_1_split -> label_data_1_split_1
I0403 19:34:06.777783  9396 net.cpp:399] label_data_1_split -> label_data_1_split_2
I0403 19:34:06.777806  9396 net.cpp:399] label_data_1_split -> label_data_1_split_3
I0403 19:34:06.777827  9396 net.cpp:399] label_data_1_split -> label_data_1_split_4
I0403 19:34:06.777848  9396 net.cpp:399] label_data_1_split -> label_data_1_split_5
I0403 19:34:06.777869  9396 net.cpp:399] label_data_1_split -> label_data_1_split_6
I0403 19:34:06.777890  9396 net.cpp:399] label_data_1_split -> label_data_1_split_7
I0403 19:34:06.777910  9396 net.cpp:399] label_data_1_split -> label_data_1_split_8
I0403 19:34:06.777931  9396 net.cpp:399] label_data_1_split -> label_data_1_split_9
I0403 19:34:06.778053  9396 net.cpp:141] Setting up label_data_1_split
I0403 19:34:06.778079  9396 net.cpp:148] Top shape: 24 (24)
I0403 19:34:06.778097  9396 net.cpp:148] Top shape: 24 (24)
I0403 19:34:06.778113  9396 net.cpp:148] Top shape: 24 (24)
I0403 19:34:06.778131  9396 net.cpp:148] Top shape: 24 (24)
I0403 19:34:06.778146  9396 net.cpp:148] Top shape: 24 (24)
I0403 19:34:06.778162  9396 net.cpp:148] Top shape: 24 (24)
I0403 19:34:06.778178  9396 net.cpp:148] Top shape: 24 (24)
I0403 19:34:06.778194  9396 net.cpp:148] Top shape: 24 (24)
I0403 19:34:06.778210  9396 net.cpp:148] Top shape: 24 (24)
I0403 19:34:06.778228  9396 net.cpp:148] Top shape: 24 (24)
I0403 19:34:06.778276  9396 net.cpp:156] Memory required for data: 14451744
I0403 19:34:06.778295  9396 layer_factory.hpp:77] Creating layer conv1/7x7_s2
I0403 19:34:06.778328  9396 net.cpp:91] Creating Layer conv1/7x7_s2
I0403 19:34:06.778347  9396 net.cpp:425] conv1/7x7_s2 <- data
I0403 19:34:06.778368  9396 net.cpp:399] conv1/7x7_s2 -> conv1/7x7_s2
I0403 19:34:06.916162  9396 net.cpp:141] Setting up conv1/7x7_s2
I0403 19:34:06.916242  9396 net.cpp:148] Top shape: 24 64 112 112 (19267584)
I0403 19:34:06.916260  9396 net.cpp:156] Memory required for data: 91522080
I0403 19:34:06.916296  9396 layer_factory.hpp:77] Creating layer conv1/relu_7x7
I0403 19:34:06.916324  9396 net.cpp:91] Creating Layer conv1/relu_7x7
I0403 19:34:06.916342  9396 net.cpp:425] conv1/relu_7x7 <- conv1/7x7_s2
I0403 19:34:06.916363  9396 net.cpp:386] conv1/relu_7x7 -> conv1/7x7_s2 (in-place)
I0403 19:34:06.916631  9396 net.cpp:141] Setting up conv1/relu_7x7
I0403 19:34:06.916659  9396 net.cpp:148] Top shape: 24 64 112 112 (19267584)
I0403 19:34:06.916676  9396 net.cpp:156] Memory required for data: 168592416
I0403 19:34:06.916692  9396 layer_factory.hpp:77] Creating layer pool1/3x3_s2
I0403 19:34:06.916719  9396 net.cpp:91] Creating Layer pool1/3x3_s2
I0403 19:34:06.916738  9396 net.cpp:425] pool1/3x3_s2 <- conv1/7x7_s2
I0403 19:34:06.916756  9396 net.cpp:399] pool1/3x3_s2 -> pool1/3x3_s2
I0403 19:34:06.916837  9396 net.cpp:141] Setting up pool1/3x3_s2
I0403 19:34:06.916862  9396 net.cpp:148] Top shape: 24 64 56 56 (4816896)
I0403 19:34:06.916878  9396 net.cpp:156] Memory required for data: 187860000
I0403 19:34:06.916893  9396 layer_factory.hpp:77] Creating layer pool1/norm1
I0403 19:34:06.916918  9396 net.cpp:91] Creating Layer pool1/norm1
I0403 19:34:06.916936  9396 net.cpp:425] pool1/norm1 <- pool1/3x3_s2
I0403 19:34:06.916960  9396 net.cpp:399] pool1/norm1 -> pool1/norm1
I0403 19:34:06.917275  9396 net.cpp:141] Setting up pool1/norm1
I0403 19:34:06.917304  9396 net.cpp:148] Top shape: 24 64 56 56 (4816896)
I0403 19:34:06.917320  9396 net.cpp:156] Memory required for data: 207127584
I0403 19:34:06.917335  9396 layer_factory.hpp:77] Creating layer conv2/3x3_reduce
I0403 19:34:06.917362  9396 net.cpp:91] Creating Layer conv2/3x3_reduce
I0403 19:34:06.917379  9396 net.cpp:425] conv2/3x3_reduce <- pool1/norm1
I0403 19:34:06.917400  9396 net.cpp:399] conv2/3x3_reduce -> conv2/3x3_reduce
I0403 19:34:06.918802  9396 net.cpp:141] Setting up conv2/3x3_reduce
I0403 19:34:06.918839  9396 net.cpp:148] Top shape: 24 64 56 56 (4816896)
I0403 19:34:06.918858  9396 net.cpp:156] Memory required for data: 226395168
I0403 19:34:06.918880  9396 layer_factory.hpp:77] Creating layer conv2/relu_3x3_reduce
I0403 19:34:06.918898  9396 net.cpp:91] Creating Layer conv2/relu_3x3_reduce
I0403 19:34:06.918915  9396 net.cpp:425] conv2/relu_3x3_reduce <- conv2/3x3_reduce
I0403 19:34:06.918934  9396 net.cpp:386] conv2/relu_3x3_reduce -> conv2/3x3_reduce (in-place)
I0403 19:34:06.919224  9396 net.cpp:141] Setting up conv2/relu_3x3_reduce
I0403 19:34:06.919256  9396 net.cpp:148] Top shape: 24 64 56 56 (4816896)
I0403 19:34:06.919281  9396 net.cpp:156] Memory required for data: 245662752
I0403 19:34:06.919319  9396 layer_factory.hpp:77] Creating layer conv2/3x3
I0403 19:34:06.919344  9396 net.cpp:91] Creating Layer conv2/3x3
I0403 19:34:06.919363  9396 net.cpp:425] conv2/3x3 <- conv2/3x3_reduce
I0403 19:34:06.919381  9396 net.cpp:399] conv2/3x3 -> conv2/3x3
I0403 19:34:06.921752  9396 net.cpp:141] Setting up conv2/3x3
I0403 19:34:06.921787  9396 net.cpp:148] Top shape: 24 192 56 56 (14450688)
I0403 19:34:06.921807  9396 net.cpp:156] Memory required for data: 303465504
I0403 19:34:06.921829  9396 layer_factory.hpp:77] Creating layer conv2/relu_3x3
I0403 19:34:06.921849  9396 net.cpp:91] Creating Layer conv2/relu_3x3
I0403 19:34:06.921865  9396 net.cpp:425] conv2/relu_3x3 <- conv2/3x3
I0403 19:34:06.921887  9396 net.cpp:386] conv2/relu_3x3 -> conv2/3x3 (in-place)
I0403 19:34:06.922080  9396 net.cpp:141] Setting up conv2/relu_3x3
I0403 19:34:06.922106  9396 net.cpp:148] Top shape: 24 192 56 56 (14450688)
I0403 19:34:06.922152  9396 net.cpp:156] Memory required for data: 361268256
I0403 19:34:06.922169  9396 layer_factory.hpp:77] Creating layer conv2/norm2
I0403 19:34:06.922193  9396 net.cpp:91] Creating Layer conv2/norm2
I0403 19:34:06.922209  9396 net.cpp:425] conv2/norm2 <- conv2/3x3
I0403 19:34:06.922229  9396 net.cpp:399] conv2/norm2 -> conv2/norm2
I0403 19:34:06.922556  9396 net.cpp:141] Setting up conv2/norm2
I0403 19:34:06.922585  9396 net.cpp:148] Top shape: 24 192 56 56 (14450688)
I0403 19:34:06.922600  9396 net.cpp:156] Memory required for data: 419071008
I0403 19:34:06.922616  9396 layer_factory.hpp:77] Creating layer pool2/3x3_s2
I0403 19:34:06.922636  9396 net.cpp:91] Creating Layer pool2/3x3_s2
I0403 19:34:06.922652  9396 net.cpp:425] pool2/3x3_s2 <- conv2/norm2
I0403 19:34:06.922669  9396 net.cpp:399] pool2/3x3_s2 -> pool2/3x3_s2
I0403 19:34:06.922724  9396 net.cpp:141] Setting up pool2/3x3_s2
I0403 19:34:06.922749  9396 net.cpp:148] Top shape: 24 192 28 28 (3612672)
I0403 19:34:06.922763  9396 net.cpp:156] Memory required for data: 433521696
I0403 19:34:06.922778  9396 layer_factory.hpp:77] Creating layer pool2/3x3_s2_pool2/3x3_s2_0_split
I0403 19:34:06.922798  9396 net.cpp:91] Creating Layer pool2/3x3_s2_pool2/3x3_s2_0_split
I0403 19:34:06.922814  9396 net.cpp:425] pool2/3x3_s2_pool2/3x3_s2_0_split <- pool2/3x3_s2
I0403 19:34:06.922832  9396 net.cpp:399] pool2/3x3_s2_pool2/3x3_s2_0_split -> pool2/3x3_s2_pool2/3x3_s2_0_split_0
I0403 19:34:06.922852  9396 net.cpp:399] pool2/3x3_s2_pool2/3x3_s2_0_split -> pool2/3x3_s2_pool2/3x3_s2_0_split_1
I0403 19:34:06.922871  9396 net.cpp:399] pool2/3x3_s2_pool2/3x3_s2_0_split -> pool2/3x3_s2_pool2/3x3_s2_0_split_2
I0403 19:34:06.922890  9396 net.cpp:399] pool2/3x3_s2_pool2/3x3_s2_0_split -> pool2/3x3_s2_pool2/3x3_s2_0_split_3
I0403 19:34:06.922963  9396 net.cpp:141] Setting up pool2/3x3_s2_pool2/3x3_s2_0_split
I0403 19:34:06.922987  9396 net.cpp:148] Top shape: 24 192 28 28 (3612672)
I0403 19:34:06.923003  9396 net.cpp:148] Top shape: 24 192 28 28 (3612672)
I0403 19:34:06.923019  9396 net.cpp:148] Top shape: 24 192 28 28 (3612672)
I0403 19:34:06.923035  9396 net.cpp:148] Top shape: 24 192 28 28 (3612672)
I0403 19:34:06.923048  9396 net.cpp:156] Memory required for data: 491324448
I0403 19:34:06.923063  9396 layer_factory.hpp:77] Creating layer inception_3a/1x1
I0403 19:34:06.923085  9396 net.cpp:91] Creating Layer inception_3a/1x1
I0403 19:34:06.923104  9396 net.cpp:425] inception_3a/1x1 <- pool2/3x3_s2_pool2/3x3_s2_0_split_0
I0403 19:34:06.923125  9396 net.cpp:399] inception_3a/1x1 -> inception_3a/1x1
I0403 19:34:06.924720  9396 net.cpp:141] Setting up inception_3a/1x1
I0403 19:34:06.924753  9396 net.cpp:148] Top shape: 24 64 28 28 (1204224)
I0403 19:34:06.924774  9396 net.cpp:156] Memory required for data: 496141344
I0403 19:34:06.924796  9396 layer_factory.hpp:77] Creating layer inception_3a/relu_1x1
I0403 19:34:06.924815  9396 net.cpp:91] Creating Layer inception_3a/relu_1x1
I0403 19:34:06.924831  9396 net.cpp:425] inception_3a/relu_1x1 <- inception_3a/1x1
I0403 19:34:06.924849  9396 net.cpp:386] inception_3a/relu_1x1 -> inception_3a/1x1 (in-place)
I0403 19:34:06.925030  9396 net.cpp:141] Setting up inception_3a/relu_1x1
I0403 19:34:06.925056  9396 net.cpp:148] Top shape: 24 64 28 28 (1204224)
I0403 19:34:06.925071  9396 net.cpp:156] Memory required for data: 500958240
I0403 19:34:06.925086  9396 layer_factory.hpp:77] Creating layer inception_3a/3x3_reduce
I0403 19:34:06.925110  9396 net.cpp:91] Creating Layer inception_3a/3x3_reduce
I0403 19:34:06.925128  9396 net.cpp:425] inception_3a/3x3_reduce <- pool2/3x3_s2_pool2/3x3_s2_0_split_1
I0403 19:34:06.925150  9396 net.cpp:399] inception_3a/3x3_reduce -> inception_3a/3x3_reduce
I0403 19:34:06.926916  9396 net.cpp:141] Setting up inception_3a/3x3_reduce
I0403 19:34:06.926950  9396 net.cpp:148] Top shape: 24 96 28 28 (1806336)
I0403 19:34:06.926967  9396 net.cpp:156] Memory required for data: 508183584
I0403 19:34:06.926990  9396 layer_factory.hpp:77] Creating layer inception_3a/relu_3x3_reduce
I0403 19:34:06.927031  9396 net.cpp:91] Creating Layer inception_3a/relu_3x3_reduce
I0403 19:34:06.927049  9396 net.cpp:425] inception_3a/relu_3x3_reduce <- inception_3a/3x3_reduce
I0403 19:34:06.927068  9396 net.cpp:386] inception_3a/relu_3x3_reduce -> inception_3a/3x3_reduce (in-place)
I0403 19:34:06.927260  9396 net.cpp:141] Setting up inception_3a/relu_3x3_reduce
I0403 19:34:06.927291  9396 net.cpp:148] Top shape: 24 96 28 28 (1806336)
I0403 19:34:06.927307  9396 net.cpp:156] Memory required for data: 515408928
I0403 19:34:06.927323  9396 layer_factory.hpp:77] Creating layer inception_3a/3x3
I0403 19:34:06.927348  9396 net.cpp:91] Creating Layer inception_3a/3x3
I0403 19:34:06.927367  9396 net.cpp:425] inception_3a/3x3 <- inception_3a/3x3_reduce
I0403 19:34:06.927386  9396 net.cpp:399] inception_3a/3x3 -> inception_3a/3x3
I0403 19:34:06.929128  9396 net.cpp:141] Setting up inception_3a/3x3
I0403 19:34:06.929159  9396 net.cpp:148] Top shape: 24 128 28 28 (2408448)
I0403 19:34:06.929177  9396 net.cpp:156] Memory required for data: 525042720
I0403 19:34:06.929198  9396 layer_factory.hpp:77] Creating layer inception_3a/relu_3x3
I0403 19:34:06.929216  9396 net.cpp:91] Creating Layer inception_3a/relu_3x3
I0403 19:34:06.929234  9396 net.cpp:425] inception_3a/relu_3x3 <- inception_3a/3x3
I0403 19:34:06.929256  9396 net.cpp:386] inception_3a/relu_3x3 -> inception_3a/3x3 (in-place)
I0403 19:34:06.929564  9396 net.cpp:141] Setting up inception_3a/relu_3x3
I0403 19:34:06.929592  9396 net.cpp:148] Top shape: 24 128 28 28 (2408448)
I0403 19:34:06.929608  9396 net.cpp:156] Memory required for data: 534676512
I0403 19:34:06.929625  9396 layer_factory.hpp:77] Creating layer inception_3a/5x5_reduce
I0403 19:34:06.929648  9396 net.cpp:91] Creating Layer inception_3a/5x5_reduce
I0403 19:34:06.929667  9396 net.cpp:425] inception_3a/5x5_reduce <- pool2/3x3_s2_pool2/3x3_s2_0_split_2
I0403 19:34:06.929689  9396 net.cpp:399] inception_3a/5x5_reduce -> inception_3a/5x5_reduce
I0403 19:34:06.930701  9396 net.cpp:141] Setting up inception_3a/5x5_reduce
I0403 19:34:06.930732  9396 net.cpp:148] Top shape: 24 16 28 28 (301056)
I0403 19:34:06.930747  9396 net.cpp:156] Memory required for data: 535880736
I0403 19:34:06.930768  9396 layer_factory.hpp:77] Creating layer inception_3a/relu_5x5_reduce
I0403 19:34:06.930788  9396 net.cpp:91] Creating Layer inception_3a/relu_5x5_reduce
I0403 19:34:06.930804  9396 net.cpp:425] inception_3a/relu_5x5_reduce <- inception_3a/5x5_reduce
I0403 19:34:06.930824  9396 net.cpp:386] inception_3a/relu_5x5_reduce -> inception_3a/5x5_reduce (in-place)
I0403 19:34:06.931151  9396 net.cpp:141] Setting up inception_3a/relu_5x5_reduce
I0403 19:34:06.931180  9396 net.cpp:148] Top shape: 24 16 28 28 (301056)
I0403 19:34:06.931198  9396 net.cpp:156] Memory required for data: 537084960
I0403 19:34:06.931216  9396 layer_factory.hpp:77] Creating layer inception_3a/5x5
I0403 19:34:06.931241  9396 net.cpp:91] Creating Layer inception_3a/5x5
I0403 19:34:06.931260  9396 net.cpp:425] inception_3a/5x5 <- inception_3a/5x5_reduce
I0403 19:34:06.931289  9396 net.cpp:399] inception_3a/5x5 -> inception_3a/5x5
I0403 19:34:06.932368  9396 net.cpp:141] Setting up inception_3a/5x5
I0403 19:34:06.932402  9396 net.cpp:148] Top shape: 24 32 28 28 (602112)
I0403 19:34:06.932420  9396 net.cpp:156] Memory required for data: 539493408
I0403 19:34:06.932440  9396 layer_factory.hpp:77] Creating layer inception_3a/relu_5x5
I0403 19:34:06.932459  9396 net.cpp:91] Creating Layer inception_3a/relu_5x5
I0403 19:34:06.932477  9396 net.cpp:425] inception_3a/relu_5x5 <- inception_3a/5x5
I0403 19:34:06.932498  9396 net.cpp:386] inception_3a/relu_5x5 -> inception_3a/5x5 (in-place)
I0403 19:34:06.932684  9396 net.cpp:141] Setting up inception_3a/relu_5x5
I0403 19:34:06.932713  9396 net.cpp:148] Top shape: 24 32 28 28 (602112)
I0403 19:34:06.932729  9396 net.cpp:156] Memory required for data: 541901856
I0403 19:34:06.932744  9396 layer_factory.hpp:77] Creating layer inception_3a/pool
I0403 19:34:06.932765  9396 net.cpp:91] Creating Layer inception_3a/pool
I0403 19:34:06.932798  9396 net.cpp:425] inception_3a/pool <- pool2/3x3_s2_pool2/3x3_s2_0_split_3
I0403 19:34:06.932832  9396 net.cpp:399] inception_3a/pool -> inception_3a/pool
I0403 19:34:06.932893  9396 net.cpp:141] Setting up inception_3a/pool
I0403 19:34:06.932919  9396 net.cpp:148] Top shape: 24 192 28 28 (3612672)
I0403 19:34:06.932935  9396 net.cpp:156] Memory required for data: 556352544
I0403 19:34:06.932950  9396 layer_factory.hpp:77] Creating layer inception_3a/pool_proj
I0403 19:34:06.932974  9396 net.cpp:91] Creating Layer inception_3a/pool_proj
I0403 19:34:06.932994  9396 net.cpp:425] inception_3a/pool_proj <- inception_3a/pool
I0403 19:34:06.933017  9396 net.cpp:399] inception_3a/pool_proj -> inception_3a/pool_proj
I0403 19:34:06.934005  9396 net.cpp:141] Setting up inception_3a/pool_proj
I0403 19:34:06.934038  9396 net.cpp:148] Top shape: 24 32 28 28 (602112)
I0403 19:34:06.934056  9396 net.cpp:156] Memory required for data: 558760992
I0403 19:34:06.934082  9396 layer_factory.hpp:77] Creating layer inception_3a/relu_pool_proj
I0403 19:34:06.934103  9396 net.cpp:91] Creating Layer inception_3a/relu_pool_proj
I0403 19:34:06.934121  9396 net.cpp:425] inception_3a/relu_pool_proj <- inception_3a/pool_proj
I0403 19:34:06.934154  9396 net.cpp:386] inception_3a/relu_pool_proj -> inception_3a/pool_proj (in-place)
I0403 19:34:06.934437  9396 net.cpp:141] Setting up inception_3a/relu_pool_proj
I0403 19:34:06.934465  9396 net.cpp:148] Top shape: 24 32 28 28 (602112)
I0403 19:34:06.934481  9396 net.cpp:156] Memory required for data: 561169440
I0403 19:34:06.934499  9396 layer_factory.hpp:77] Creating layer inception_3a/output
I0403 19:34:06.934516  9396 net.cpp:91] Creating Layer inception_3a/output
I0403 19:34:06.934531  9396 net.cpp:425] inception_3a/output <- inception_3a/1x1
I0403 19:34:06.934548  9396 net.cpp:425] inception_3a/output <- inception_3a/3x3
I0403 19:34:06.934564  9396 net.cpp:425] inception_3a/output <- inception_3a/5x5
I0403 19:34:06.934581  9396 net.cpp:425] inception_3a/output <- inception_3a/pool_proj
I0403 19:34:06.934602  9396 net.cpp:399] inception_3a/output -> inception_3a/output
I0403 19:34:06.934648  9396 net.cpp:141] Setting up inception_3a/output
I0403 19:34:06.934674  9396 net.cpp:148] Top shape: 24 256 28 28 (4816896)
I0403 19:34:06.934690  9396 net.cpp:156] Memory required for data: 580437024
I0403 19:34:06.934706  9396 layer_factory.hpp:77] Creating layer inception_3a/output_inception_3a/output_0_split
I0403 19:34:06.934725  9396 net.cpp:91] Creating Layer inception_3a/output_inception_3a/output_0_split
I0403 19:34:06.934739  9396 net.cpp:425] inception_3a/output_inception_3a/output_0_split <- inception_3a/output
I0403 19:34:06.934758  9396 net.cpp:399] inception_3a/output_inception_3a/output_0_split -> inception_3a/output_inception_3a/output_0_split_0
I0403 19:34:06.934777  9396 net.cpp:399] inception_3a/output_inception_3a/output_0_split -> inception_3a/output_inception_3a/output_0_split_1
I0403 19:34:06.934803  9396 net.cpp:399] inception_3a/output_inception_3a/output_0_split -> inception_3a/output_inception_3a/output_0_split_2
I0403 19:34:06.934825  9396 net.cpp:399] inception_3a/output_inception_3a/output_0_split -> inception_3a/output_inception_3a/output_0_split_3
I0403 19:34:06.934900  9396 net.cpp:141] Setting up inception_3a/output_inception_3a/output_0_split
I0403 19:34:06.934926  9396 net.cpp:148] Top shape: 24 256 28 28 (4816896)
I0403 19:34:06.934945  9396 net.cpp:148] Top shape: 24 256 28 28 (4816896)
I0403 19:34:06.934962  9396 net.cpp:148] Top shape: 24 256 28 28 (4816896)
I0403 19:34:06.934978  9396 net.cpp:148] Top shape: 24 256 28 28 (4816896)
I0403 19:34:06.934990  9396 net.cpp:156] Memory required for data: 657507360
I0403 19:34:06.935005  9396 layer_factory.hpp:77] Creating layer inception_3b/1x1
I0403 19:34:06.935029  9396 net.cpp:91] Creating Layer inception_3b/1x1
I0403 19:34:06.935046  9396 net.cpp:425] inception_3b/1x1 <- inception_3a/output_inception_3a/output_0_split_0
I0403 19:34:06.935065  9396 net.cpp:399] inception_3b/1x1 -> inception_3b/1x1
I0403 19:34:06.936265  9396 net.cpp:141] Setting up inception_3b/1x1
I0403 19:34:06.936313  9396 net.cpp:148] Top shape: 24 128 28 28 (2408448)
I0403 19:34:06.936331  9396 net.cpp:156] Memory required for data: 667141152
I0403 19:34:06.936352  9396 layer_factory.hpp:77] Creating layer inception_3b/relu_1x1
I0403 19:34:06.936372  9396 net.cpp:91] Creating Layer inception_3b/relu_1x1
I0403 19:34:06.936389  9396 net.cpp:425] inception_3b/relu_1x1 <- inception_3b/1x1
I0403 19:34:06.936419  9396 net.cpp:386] inception_3b/relu_1x1 -> inception_3b/1x1 (in-place)
I0403 19:34:06.936600  9396 net.cpp:141] Setting up inception_3b/relu_1x1
I0403 19:34:06.936625  9396 net.cpp:148] Top shape: 24 128 28 28 (2408448)
I0403 19:34:06.936640  9396 net.cpp:156] Memory required for data: 676774944
I0403 19:34:06.936655  9396 layer_factory.hpp:77] Creating layer inception_3b/3x3_reduce
I0403 19:34:06.936678  9396 net.cpp:91] Creating Layer inception_3b/3x3_reduce
I0403 19:34:06.936696  9396 net.cpp:425] inception_3b/3x3_reduce <- inception_3a/output_inception_3a/output_0_split_1
I0403 19:34:06.936718  9396 net.cpp:399] inception_3b/3x3_reduce -> inception_3b/3x3_reduce
I0403 19:34:06.937912  9396 net.cpp:141] Setting up inception_3b/3x3_reduce
I0403 19:34:06.937947  9396 net.cpp:148] Top shape: 24 128 28 28 (2408448)
I0403 19:34:06.937964  9396 net.cpp:156] Memory required for data: 686408736
I0403 19:34:06.937983  9396 layer_factory.hpp:77] Creating layer inception_3b/relu_3x3_reduce
I0403 19:34:06.938002  9396 net.cpp:91] Creating Layer inception_3b/relu_3x3_reduce
I0403 19:34:06.938019  9396 net.cpp:425] inception_3b/relu_3x3_reduce <- inception_3b/3x3_reduce
I0403 19:34:06.938036  9396 net.cpp:386] inception_3b/relu_3x3_reduce -> inception_3b/3x3_reduce (in-place)
I0403 19:34:06.938216  9396 net.cpp:141] Setting up inception_3b/relu_3x3_reduce
I0403 19:34:06.938242  9396 net.cpp:148] Top shape: 24 128 28 28 (2408448)
I0403 19:34:06.938257  9396 net.cpp:156] Memory required for data: 696042528
I0403 19:34:06.938277  9396 layer_factory.hpp:77] Creating layer inception_3b/3x3
I0403 19:34:06.938303  9396 net.cpp:91] Creating Layer inception_3b/3x3
I0403 19:34:06.938323  9396 net.cpp:425] inception_3b/3x3 <- inception_3b/3x3_reduce
I0403 19:34:06.938344  9396 net.cpp:399] inception_3b/3x3 -> inception_3b/3x3
I0403 19:34:06.941365  9396 net.cpp:141] Setting up inception_3b/3x3
I0403 19:34:06.941396  9396 net.cpp:148] Top shape: 24 192 28 28 (3612672)
I0403 19:34:06.941412  9396 net.cpp:156] Memory required for data: 710493216
I0403 19:34:06.941431  9396 layer_factory.hpp:77] Creating layer inception_3b/relu_3x3
I0403 19:34:06.941450  9396 net.cpp:91] Creating Layer inception_3b/relu_3x3
I0403 19:34:06.941468  9396 net.cpp:425] inception_3b/relu_3x3 <- inception_3b/3x3
I0403 19:34:06.941489  9396 net.cpp:386] inception_3b/relu_3x3 -> inception_3b/3x3 (in-place)
I0403 19:34:06.941776  9396 net.cpp:141] Setting up inception_3b/relu_3x3
I0403 19:34:06.941803  9396 net.cpp:148] Top shape: 24 192 28 28 (3612672)
I0403 19:34:06.941819  9396 net.cpp:156] Memory required for data: 724943904
I0403 19:34:06.941834  9396 layer_factory.hpp:77] Creating layer inception_3b/5x5_reduce
I0403 19:34:06.941859  9396 net.cpp:91] Creating Layer inception_3b/5x5_reduce
I0403 19:34:06.941876  9396 net.cpp:425] inception_3b/5x5_reduce <- inception_3a/output_inception_3a/output_0_split_2
I0403 19:34:06.941900  9396 net.cpp:399] inception_3b/5x5_reduce -> inception_3b/5x5_reduce
I0403 19:34:06.942953  9396 net.cpp:141] Setting up inception_3b/5x5_reduce
I0403 19:34:06.942983  9396 net.cpp:148] Top shape: 24 32 28 28 (602112)
I0403 19:34:06.942999  9396 net.cpp:156] Memory required for data: 727352352
I0403 19:34:06.943018  9396 layer_factory.hpp:77] Creating layer inception_3b/relu_5x5_reduce
I0403 19:34:06.943037  9396 net.cpp:91] Creating Layer inception_3b/relu_5x5_reduce
I0403 19:34:06.943054  9396 net.cpp:425] inception_3b/relu_5x5_reduce <- inception_3b/5x5_reduce
I0403 19:34:06.943075  9396 net.cpp:386] inception_3b/relu_5x5_reduce -> inception_3b/5x5_reduce (in-place)
I0403 19:34:06.943267  9396 net.cpp:141] Setting up inception_3b/relu_5x5_reduce
I0403 19:34:06.943312  9396 net.cpp:148] Top shape: 24 32 28 28 (602112)
I0403 19:34:06.943331  9396 net.cpp:156] Memory required for data: 729760800
I0403 19:34:06.943346  9396 layer_factory.hpp:77] Creating layer inception_3b/5x5
I0403 19:34:06.943369  9396 net.cpp:91] Creating Layer inception_3b/5x5
I0403 19:34:06.943389  9396 net.cpp:425] inception_3b/5x5 <- inception_3b/5x5_reduce
I0403 19:34:06.943413  9396 net.cpp:399] inception_3b/5x5 -> inception_3b/5x5
I0403 19:34:06.945448  9396 net.cpp:141] Setting up inception_3b/5x5
I0403 19:34:06.945482  9396 net.cpp:148] Top shape: 24 96 28 28 (1806336)
I0403 19:34:06.945500  9396 net.cpp:156] Memory required for data: 736986144
I0403 19:34:06.945533  9396 layer_factory.hpp:77] Creating layer inception_3b/relu_5x5
I0403 19:34:06.945552  9396 net.cpp:91] Creating Layer inception_3b/relu_5x5
I0403 19:34:06.945569  9396 net.cpp:425] inception_3b/relu_5x5 <- inception_3b/5x5
I0403 19:34:06.945586  9396 net.cpp:386] inception_3b/relu_5x5 -> inception_3b/5x5 (in-place)
I0403 19:34:06.945781  9396 net.cpp:141] Setting up inception_3b/relu_5x5
I0403 19:34:06.945808  9396 net.cpp:148] Top shape: 24 96 28 28 (1806336)
I0403 19:34:06.945824  9396 net.cpp:156] Memory required for data: 744211488
I0403 19:34:06.945840  9396 layer_factory.hpp:77] Creating layer inception_3b/pool
I0403 19:34:06.945858  9396 net.cpp:91] Creating Layer inception_3b/pool
I0403 19:34:06.945875  9396 net.cpp:425] inception_3b/pool <- inception_3a/output_inception_3a/output_0_split_3
I0403 19:34:06.945894  9396 net.cpp:399] inception_3b/pool -> inception_3b/pool
I0403 19:34:06.945951  9396 net.cpp:141] Setting up inception_3b/pool
I0403 19:34:06.945978  9396 net.cpp:148] Top shape: 24 256 28 28 (4816896)
I0403 19:34:06.945993  9396 net.cpp:156] Memory required for data: 763479072
I0403 19:34:06.946007  9396 layer_factory.hpp:77] Creating layer inception_3b/pool_proj
I0403 19:34:06.946030  9396 net.cpp:91] Creating Layer inception_3b/pool_proj
I0403 19:34:06.946048  9396 net.cpp:425] inception_3b/pool_proj <- inception_3b/pool
I0403 19:34:06.946079  9396 net.cpp:399] inception_3b/pool_proj -> inception_3b/pool_proj
I0403 19:34:06.947187  9396 net.cpp:141] Setting up inception_3b/pool_proj
I0403 19:34:06.947217  9396 net.cpp:148] Top shape: 24 64 28 28 (1204224)
I0403 19:34:06.947234  9396 net.cpp:156] Memory required for data: 768295968
I0403 19:34:06.947252  9396 layer_factory.hpp:77] Creating layer inception_3b/relu_pool_proj
I0403 19:34:06.947276  9396 net.cpp:91] Creating Layer inception_3b/relu_pool_proj
I0403 19:34:06.947295  9396 net.cpp:425] inception_3b/relu_pool_proj <- inception_3b/pool_proj
I0403 19:34:06.947314  9396 net.cpp:386] inception_3b/relu_pool_proj -> inception_3b/pool_proj (in-place)
I0403 19:34:06.947707  9396 net.cpp:141] Setting up inception_3b/relu_pool_proj
I0403 19:34:06.947734  9396 net.cpp:148] Top shape: 24 64 28 28 (1204224)
I0403 19:34:06.947749  9396 net.cpp:156] Memory required for data: 773112864
I0403 19:34:06.947764  9396 layer_factory.hpp:77] Creating layer inception_3b/output
I0403 19:34:06.947782  9396 net.cpp:91] Creating Layer inception_3b/output
I0403 19:34:06.947798  9396 net.cpp:425] inception_3b/output <- inception_3b/1x1
I0403 19:34:06.947815  9396 net.cpp:425] inception_3b/output <- inception_3b/3x3
I0403 19:34:06.947832  9396 net.cpp:425] inception_3b/output <- inception_3b/5x5
I0403 19:34:06.947849  9396 net.cpp:425] inception_3b/output <- inception_3b/pool_proj
I0403 19:34:06.947868  9396 net.cpp:399] inception_3b/output -> inception_3b/output
I0403 19:34:06.947912  9396 net.cpp:141] Setting up inception_3b/output
I0403 19:34:06.947938  9396 net.cpp:148] Top shape: 24 480 28 28 (9031680)
I0403 19:34:06.947954  9396 net.cpp:156] Memory required for data: 809239584
I0403 19:34:06.947969  9396 layer_factory.hpp:77] Creating layer pool3/3x3_s2
I0403 19:34:06.947988  9396 net.cpp:91] Creating Layer pool3/3x3_s2
I0403 19:34:06.948004  9396 net.cpp:425] pool3/3x3_s2 <- inception_3b/output
I0403 19:34:06.948024  9396 net.cpp:399] pool3/3x3_s2 -> pool3/3x3_s2
I0403 19:34:06.948097  9396 net.cpp:141] Setting up pool3/3x3_s2
I0403 19:34:06.948122  9396 net.cpp:148] Top shape: 24 480 14 14 (2257920)
I0403 19:34:06.948137  9396 net.cpp:156] Memory required for data: 818271264
I0403 19:34:06.948151  9396 layer_factory.hpp:77] Creating layer pool3/3x3_s2_pool3/3x3_s2_0_split
I0403 19:34:06.948171  9396 net.cpp:91] Creating Layer pool3/3x3_s2_pool3/3x3_s2_0_split
I0403 19:34:06.948189  9396 net.cpp:425] pool3/3x3_s2_pool3/3x3_s2_0_split <- pool3/3x3_s2
I0403 19:34:06.948206  9396 net.cpp:399] pool3/3x3_s2_pool3/3x3_s2_0_split -> pool3/3x3_s2_pool3/3x3_s2_0_split_0
I0403 19:34:06.948226  9396 net.cpp:399] pool3/3x3_s2_pool3/3x3_s2_0_split -> pool3/3x3_s2_pool3/3x3_s2_0_split_1
I0403 19:34:06.948249  9396 net.cpp:399] pool3/3x3_s2_pool3/3x3_s2_0_split -> pool3/3x3_s2_pool3/3x3_s2_0_split_2
I0403 19:34:06.948274  9396 net.cpp:399] pool3/3x3_s2_pool3/3x3_s2_0_split -> pool3/3x3_s2_pool3/3x3_s2_0_split_3
I0403 19:34:06.948354  9396 net.cpp:141] Setting up pool3/3x3_s2_pool3/3x3_s2_0_split
I0403 19:34:06.948377  9396 net.cpp:148] Top shape: 24 480 14 14 (2257920)
I0403 19:34:06.948395  9396 net.cpp:148] Top shape: 24 480 14 14 (2257920)
I0403 19:34:06.948410  9396 net.cpp:148] Top shape: 24 480 14 14 (2257920)
I0403 19:34:06.948426  9396 net.cpp:148] Top shape: 24 480 14 14 (2257920)
I0403 19:34:06.948441  9396 net.cpp:156] Memory required for data: 854397984
I0403 19:34:06.948457  9396 layer_factory.hpp:77] Creating layer inception_4a/1x1
I0403 19:34:06.948479  9396 net.cpp:91] Creating Layer inception_4a/1x1
I0403 19:34:06.948498  9396 net.cpp:425] inception_4a/1x1 <- pool3/3x3_s2_pool3/3x3_s2_0_split_0
I0403 19:34:06.948518  9396 net.cpp:399] inception_4a/1x1 -> inception_4a/1x1
I0403 19:34:06.950194  9396 net.cpp:141] Setting up inception_4a/1x1
I0403 19:34:06.950237  9396 net.cpp:148] Top shape: 24 192 14 14 (903168)
I0403 19:34:06.950253  9396 net.cpp:156] Memory required for data: 858010656
I0403 19:34:06.950278  9396 layer_factory.hpp:77] Creating layer inception_4a/relu_1x1
I0403 19:34:06.950302  9396 net.cpp:91] Creating Layer inception_4a/relu_1x1
I0403 19:34:06.950321  9396 net.cpp:425] inception_4a/relu_1x1 <- inception_4a/1x1
I0403 19:34:06.950340  9396 net.cpp:386] inception_4a/relu_1x1 -> inception_4a/1x1 (in-place)
I0403 19:34:06.950539  9396 net.cpp:141] Setting up inception_4a/relu_1x1
I0403 19:34:06.950568  9396 net.cpp:148] Top shape: 24 192 14 14 (903168)
I0403 19:34:06.950584  9396 net.cpp:156] Memory required for data: 861623328
I0403 19:34:06.950600  9396 layer_factory.hpp:77] Creating layer inception_4a/3x3_reduce
I0403 19:34:06.950625  9396 net.cpp:91] Creating Layer inception_4a/3x3_reduce
I0403 19:34:06.950644  9396 net.cpp:425] inception_4a/3x3_reduce <- pool3/3x3_s2_pool3/3x3_s2_0_split_1
I0403 19:34:06.950664  9396 net.cpp:399] inception_4a/3x3_reduce -> inception_4a/3x3_reduce
I0403 19:34:06.952028  9396 net.cpp:141] Setting up inception_4a/3x3_reduce
I0403 19:34:06.952056  9396 net.cpp:148] Top shape: 24 96 14 14 (451584)
I0403 19:34:06.952074  9396 net.cpp:156] Memory required for data: 863429664
I0403 19:34:06.952100  9396 layer_factory.hpp:77] Creating layer inception_4a/relu_3x3_reduce
I0403 19:34:06.952123  9396 net.cpp:91] Creating Layer inception_4a/relu_3x3_reduce
I0403 19:34:06.952143  9396 net.cpp:425] inception_4a/relu_3x3_reduce <- inception_4a/3x3_reduce
I0403 19:34:06.952163  9396 net.cpp:386] inception_4a/relu_3x3_reduce -> inception_4a/3x3_reduce (in-place)
I0403 19:34:06.952354  9396 net.cpp:141] Setting up inception_4a/relu_3x3_reduce
I0403 19:34:06.952383  9396 net.cpp:148] Top shape: 24 96 14 14 (451584)
I0403 19:34:06.952397  9396 net.cpp:156] Memory required for data: 865236000
I0403 19:34:06.952414  9396 layer_factory.hpp:77] Creating layer inception_4a/3x3
I0403 19:34:06.952438  9396 net.cpp:91] Creating Layer inception_4a/3x3
I0403 19:34:06.952457  9396 net.cpp:425] inception_4a/3x3 <- inception_4a/3x3_reduce
I0403 19:34:06.952478  9396 net.cpp:399] inception_4a/3x3 -> inception_4a/3x3
I0403 19:34:06.955307  9396 net.cpp:141] Setting up inception_4a/3x3
I0403 19:34:06.955339  9396 net.cpp:148] Top shape: 24 208 14 14 (978432)
I0403 19:34:06.955358  9396 net.cpp:156] Memory required for data: 869149728
I0403 19:34:06.955379  9396 layer_factory.hpp:77] Creating layer inception_4a/relu_3x3
I0403 19:34:06.955397  9396 net.cpp:91] Creating Layer inception_4a/relu_3x3
I0403 19:34:06.955415  9396 net.cpp:425] inception_4a/relu_3x3 <- inception_4a/3x3
I0403 19:34:06.955433  9396 net.cpp:386] inception_4a/relu_3x3 -> inception_4a/3x3 (in-place)
I0403 19:34:06.955720  9396 net.cpp:141] Setting up inception_4a/relu_3x3
I0403 19:34:06.955750  9396 net.cpp:148] Top shape: 24 208 14 14 (978432)
I0403 19:34:06.955767  9396 net.cpp:156] Memory required for data: 873063456
I0403 19:34:06.955783  9396 layer_factory.hpp:77] Creating layer inception_4a/5x5_reduce
I0403 19:34:06.955806  9396 net.cpp:91] Creating Layer inception_4a/5x5_reduce
I0403 19:34:06.955826  9396 net.cpp:425] inception_4a/5x5_reduce <- pool3/3x3_s2_pool3/3x3_s2_0_split_2
I0403 19:34:06.955847  9396 net.cpp:399] inception_4a/5x5_reduce -> inception_4a/5x5_reduce
I0403 19:34:06.956904  9396 net.cpp:141] Setting up inception_4a/5x5_reduce
I0403 19:34:06.956938  9396 net.cpp:148] Top shape: 24 16 14 14 (75264)
I0403 19:34:06.956955  9396 net.cpp:156] Memory required for data: 873364512
I0403 19:34:06.956974  9396 layer_factory.hpp:77] Creating layer inception_4a/relu_5x5_reduce
I0403 19:34:06.956993  9396 net.cpp:91] Creating Layer inception_4a/relu_5x5_reduce
I0403 19:34:06.957010  9396 net.cpp:425] inception_4a/relu_5x5_reduce <- inception_4a/5x5_reduce
I0403 19:34:06.957031  9396 net.cpp:386] inception_4a/relu_5x5_reduce -> inception_4a/5x5_reduce (in-place)
I0403 19:34:06.957226  9396 net.cpp:141] Setting up inception_4a/relu_5x5_reduce
I0403 19:34:06.957253  9396 net.cpp:148] Top shape: 24 16 14 14 (75264)
I0403 19:34:06.957268  9396 net.cpp:156] Memory required for data: 873665568
I0403 19:34:06.957289  9396 layer_factory.hpp:77] Creating layer inception_4a/5x5
I0403 19:34:06.957314  9396 net.cpp:91] Creating Layer inception_4a/5x5
I0403 19:34:06.957332  9396 net.cpp:425] inception_4a/5x5 <- inception_4a/5x5_reduce
I0403 19:34:06.957355  9396 net.cpp:399] inception_4a/5x5 -> inception_4a/5x5
I0403 19:34:06.958490  9396 net.cpp:141] Setting up inception_4a/5x5
I0403 19:34:06.958544  9396 net.cpp:148] Top shape: 24 48 14 14 (225792)
I0403 19:34:06.958559  9396 net.cpp:156] Memory required for data: 874568736
I0403 19:34:06.958578  9396 layer_factory.hpp:77] Creating layer inception_4a/relu_5x5
I0403 19:34:06.958613  9396 net.cpp:91] Creating Layer inception_4a/relu_5x5
I0403 19:34:06.958632  9396 net.cpp:425] inception_4a/relu_5x5 <- inception_4a/5x5
I0403 19:34:06.958670  9396 net.cpp:386] inception_4a/relu_5x5 -> inception_4a/5x5 (in-place)
I0403 19:34:06.958853  9396 net.cpp:141] Setting up inception_4a/relu_5x5
I0403 19:34:06.958894  9396 net.cpp:148] Top shape: 24 48 14 14 (225792)
I0403 19:34:06.958932  9396 net.cpp:156] Memory required for data: 875471904
I0403 19:34:06.958964  9396 layer_factory.hpp:77] Creating layer inception_4a/pool
I0403 19:34:06.959002  9396 net.cpp:91] Creating Layer inception_4a/pool
I0403 19:34:06.959043  9396 net.cpp:425] inception_4a/pool <- pool3/3x3_s2_pool3/3x3_s2_0_split_3
I0403 19:34:06.959084  9396 net.cpp:399] inception_4a/pool -> inception_4a/pool
I0403 19:34:06.959170  9396 net.cpp:141] Setting up inception_4a/pool
I0403 19:34:06.959197  9396 net.cpp:148] Top shape: 24 480 14 14 (2257920)
I0403 19:34:06.959210  9396 net.cpp:156] Memory required for data: 884503584
I0403 19:34:06.959226  9396 layer_factory.hpp:77] Creating layer inception_4a/pool_proj
I0403 19:34:06.959249  9396 net.cpp:91] Creating Layer inception_4a/pool_proj
I0403 19:34:06.959266  9396 net.cpp:425] inception_4a/pool_proj <- inception_4a/pool
I0403 19:34:06.959292  9396 net.cpp:399] inception_4a/pool_proj -> inception_4a/pool_proj
I0403 19:34:06.960503  9396 net.cpp:141] Setting up inception_4a/pool_proj
I0403 19:34:06.960546  9396 net.cpp:148] Top shape: 24 64 14 14 (301056)
I0403 19:34:06.960579  9396 net.cpp:156] Memory required for data: 885707808
I0403 19:34:06.960600  9396 layer_factory.hpp:77] Creating layer inception_4a/relu_pool_proj
I0403 19:34:06.960623  9396 net.cpp:91] Creating Layer inception_4a/relu_pool_proj
I0403 19:34:06.960643  9396 net.cpp:425] inception_4a/relu_pool_proj <- inception_4a/pool_proj
I0403 19:34:06.960662  9396 net.cpp:386] inception_4a/relu_pool_proj -> inception_4a/pool_proj (in-place)
I0403 19:34:06.960970  9396 net.cpp:141] Setting up inception_4a/relu_pool_proj
I0403 19:34:06.960999  9396 net.cpp:148] Top shape: 24 64 14 14 (301056)
I0403 19:34:06.961014  9396 net.cpp:156] Memory required for data: 886912032
I0403 19:34:06.961031  9396 layer_factory.hpp:77] Creating layer inception_4a/output
I0403 19:34:06.961062  9396 net.cpp:91] Creating Layer inception_4a/output
I0403 19:34:06.961078  9396 net.cpp:425] inception_4a/output <- inception_4a/1x1
I0403 19:34:06.961098  9396 net.cpp:425] inception_4a/output <- inception_4a/3x3
I0403 19:34:06.961117  9396 net.cpp:425] inception_4a/output <- inception_4a/5x5
I0403 19:34:06.961133  9396 net.cpp:425] inception_4a/output <- inception_4a/pool_proj
I0403 19:34:06.961151  9396 net.cpp:399] inception_4a/output -> inception_4a/output
I0403 19:34:06.961201  9396 net.cpp:141] Setting up inception_4a/output
I0403 19:34:06.961226  9396 net.cpp:148] Top shape: 24 512 14 14 (2408448)
I0403 19:34:06.961242  9396 net.cpp:156] Memory required for data: 896545824
I0403 19:34:06.961257  9396 layer_factory.hpp:77] Creating layer inception_4a/output_inception_4a/output_0_split
I0403 19:34:06.961280  9396 net.cpp:91] Creating Layer inception_4a/output_inception_4a/output_0_split
I0403 19:34:06.961298  9396 net.cpp:425] inception_4a/output_inception_4a/output_0_split <- inception_4a/output
I0403 19:34:06.961319  9396 net.cpp:399] inception_4a/output_inception_4a/output_0_split -> inception_4a/output_inception_4a/output_0_split_0
I0403 19:34:06.961341  9396 net.cpp:399] inception_4a/output_inception_4a/output_0_split -> inception_4a/output_inception_4a/output_0_split_1
I0403 19:34:06.961365  9396 net.cpp:399] inception_4a/output_inception_4a/output_0_split -> inception_4a/output_inception_4a/output_0_split_2
I0403 19:34:06.961386  9396 net.cpp:399] inception_4a/output_inception_4a/output_0_split -> inception_4a/output_inception_4a/output_0_split_3
I0403 19:34:06.961407  9396 net.cpp:399] inception_4a/output_inception_4a/output_0_split -> inception_4a/output_inception_4a/output_0_split_4
I0403 19:34:06.961518  9396 net.cpp:141] Setting up inception_4a/output_inception_4a/output_0_split
I0403 19:34:06.961541  9396 net.cpp:148] Top shape: 24 512 14 14 (2408448)
I0403 19:34:06.961560  9396 net.cpp:148] Top shape: 24 512 14 14 (2408448)
I0403 19:34:06.961576  9396 net.cpp:148] Top shape: 24 512 14 14 (2408448)
I0403 19:34:06.961592  9396 net.cpp:148] Top shape: 24 512 14 14 (2408448)
I0403 19:34:06.961608  9396 net.cpp:148] Top shape: 24 512 14 14 (2408448)
I0403 19:34:06.961622  9396 net.cpp:156] Memory required for data: 944714784
I0403 19:34:06.961637  9396 layer_factory.hpp:77] Creating layer loss1/ave_pool
I0403 19:34:06.961657  9396 net.cpp:91] Creating Layer loss1/ave_pool
I0403 19:34:06.961673  9396 net.cpp:425] loss1/ave_pool <- inception_4a/output_inception_4a/output_0_split_0
I0403 19:34:06.961694  9396 net.cpp:399] loss1/ave_pool -> loss1/ave_pool
I0403 19:34:06.961908  9396 net.cpp:141] Setting up loss1/ave_pool
I0403 19:34:06.961935  9396 net.cpp:148] Top shape: 24 512 4 4 (196608)
I0403 19:34:06.961951  9396 net.cpp:156] Memory required for data: 945501216
I0403 19:34:06.961966  9396 layer_factory.hpp:77] Creating layer loss1/conv
I0403 19:34:06.961988  9396 net.cpp:91] Creating Layer loss1/conv
I0403 19:34:06.962007  9396 net.cpp:425] loss1/conv <- loss1/ave_pool
I0403 19:34:06.962028  9396 net.cpp:399] loss1/conv -> loss1/conv
I0403 19:34:06.963543  9396 net.cpp:141] Setting up loss1/conv
I0403 19:34:06.963577  9396 net.cpp:148] Top shape: 24 128 4 4 (49152)
I0403 19:34:06.963594  9396 net.cpp:156] Memory required for data: 945697824
I0403 19:34:06.963629  9396 layer_factory.hpp:77] Creating layer loss1/relu_conv
I0403 19:34:06.963650  9396 net.cpp:91] Creating Layer loss1/relu_conv
I0403 19:34:06.963666  9396 net.cpp:425] loss1/relu_conv <- loss1/conv
I0403 19:34:06.963685  9396 net.cpp:386] loss1/relu_conv -> loss1/conv (in-place)
I0403 19:34:06.963980  9396 net.cpp:141] Setting up loss1/relu_conv
I0403 19:34:06.964010  9396 net.cpp:148] Top shape: 24 128 4 4 (49152)
I0403 19:34:06.964026  9396 net.cpp:156] Memory required for data: 945894432
I0403 19:34:06.964042  9396 layer_factory.hpp:77] Creating layer loss1/fc
I0403 19:34:06.964066  9396 net.cpp:91] Creating Layer loss1/fc
I0403 19:34:06.964084  9396 net.cpp:425] loss1/fc <- loss1/conv
I0403 19:34:06.964107  9396 net.cpp:399] loss1/fc -> loss1/fc
I0403 19:34:06.982406  9396 net.cpp:141] Setting up loss1/fc
I0403 19:34:06.982450  9396 net.cpp:148] Top shape: 24 1024 (24576)
I0403 19:34:06.982466  9396 net.cpp:156] Memory required for data: 945992736
I0403 19:34:06.982486  9396 layer_factory.hpp:77] Creating layer loss1/relu_fc
I0403 19:34:06.982506  9396 net.cpp:91] Creating Layer loss1/relu_fc
I0403 19:34:06.982522  9396 net.cpp:425] loss1/relu_fc <- loss1/fc
I0403 19:34:06.982542  9396 net.cpp:386] loss1/relu_fc -> loss1/fc (in-place)
I0403 19:34:06.982734  9396 net.cpp:141] Setting up loss1/relu_fc
I0403 19:34:06.982761  9396 net.cpp:148] Top shape: 24 1024 (24576)
I0403 19:34:06.982776  9396 net.cpp:156] Memory required for data: 946091040
I0403 19:34:06.982791  9396 layer_factory.hpp:77] Creating layer loss1/drop_fc
I0403 19:34:06.982818  9396 net.cpp:91] Creating Layer loss1/drop_fc
I0403 19:34:06.982836  9396 net.cpp:425] loss1/drop_fc <- loss1/fc
I0403 19:34:06.982854  9396 net.cpp:386] loss1/drop_fc -> loss1/fc (in-place)
I0403 19:34:06.982906  9396 net.cpp:141] Setting up loss1/drop_fc
I0403 19:34:06.982930  9396 net.cpp:148] Top shape: 24 1024 (24576)
I0403 19:34:06.982944  9396 net.cpp:156] Memory required for data: 946189344
I0403 19:34:06.982959  9396 layer_factory.hpp:77] Creating layer loss1/classifier_plantvillage
I0403 19:34:06.982980  9396 net.cpp:91] Creating Layer loss1/classifier_plantvillage
I0403 19:34:06.982997  9396 net.cpp:425] loss1/classifier_plantvillage <- loss1/fc
I0403 19:34:06.983016  9396 net.cpp:399] loss1/classifier_plantvillage -> loss1/classifier_plantvillage
I0403 19:34:06.983947  9396 net.cpp:141] Setting up loss1/classifier_plantvillage
I0403 19:34:06.983978  9396 net.cpp:148] Top shape: 24 38 (912)
I0403 19:34:06.983995  9396 net.cpp:156] Memory required for data: 946192992
I0403 19:34:06.984014  9396 layer_factory.hpp:77] Creating layer loss1/classifier_plantvillage_loss1/classifier_plantvillage_0_split
I0403 19:34:06.984033  9396 net.cpp:91] Creating Layer loss1/classifier_plantvillage_loss1/classifier_plantvillage_0_split
I0403 19:34:06.984050  9396 net.cpp:425] loss1/classifier_plantvillage_loss1/classifier_plantvillage_0_split <- loss1/classifier_plantvillage
I0403 19:34:06.984067  9396 net.cpp:399] loss1/classifier_plantvillage_loss1/classifier_plantvillage_0_split -> loss1/classifier_plantvillage_loss1/classifier_plantvillage_0_split_0
I0403 19:34:06.984087  9396 net.cpp:399] loss1/classifier_plantvillage_loss1/classifier_plantvillage_0_split -> loss1/classifier_plantvillage_loss1/classifier_plantvillage_0_split_1
I0403 19:34:06.984107  9396 net.cpp:399] loss1/classifier_plantvillage_loss1/classifier_plantvillage_0_split -> loss1/classifier_plantvillage_loss1/classifier_plantvillage_0_split_2
I0403 19:34:06.984172  9396 net.cpp:141] Setting up loss1/classifier_plantvillage_loss1/classifier_plantvillage_0_split
I0403 19:34:06.984196  9396 net.cpp:148] Top shape: 24 38 (912)
I0403 19:34:06.984212  9396 net.cpp:148] Top shape: 24 38 (912)
I0403 19:34:06.984227  9396 net.cpp:148] Top shape: 24 38 (912)
I0403 19:34:06.984241  9396 net.cpp:156] Memory required for data: 946203936
I0403 19:34:06.984256  9396 layer_factory.hpp:77] Creating layer inception_4b/1x1
I0403 19:34:06.984280  9396 net.cpp:91] Creating Layer inception_4b/1x1
I0403 19:34:06.984316  9396 net.cpp:425] inception_4b/1x1 <- inception_4a/output_inception_4a/output_0_split_1
I0403 19:34:06.984339  9396 net.cpp:399] inception_4b/1x1 -> inception_4b/1x1
I0403 19:34:06.986052  9396 net.cpp:141] Setting up inception_4b/1x1
I0403 19:34:06.986084  9396 net.cpp:148] Top shape: 24 160 14 14 (752640)
I0403 19:34:06.986101  9396 net.cpp:156] Memory required for data: 949214496
I0403 19:34:06.986120  9396 layer_factory.hpp:77] Creating layer inception_4b/relu_1x1
I0403 19:34:06.986138  9396 net.cpp:91] Creating Layer inception_4b/relu_1x1
I0403 19:34:06.986155  9396 net.cpp:425] inception_4b/relu_1x1 <- inception_4b/1x1
I0403 19:34:06.986176  9396 net.cpp:386] inception_4b/relu_1x1 -> inception_4b/1x1 (in-place)
I0403 19:34:06.986361  9396 net.cpp:141] Setting up inception_4b/relu_1x1
I0403 19:34:06.986387  9396 net.cpp:148] Top shape: 24 160 14 14 (752640)
I0403 19:34:06.986402  9396 net.cpp:156] Memory required for data: 952225056
I0403 19:34:06.986418  9396 layer_factory.hpp:77] Creating layer inception_4b/3x3_reduce
I0403 19:34:06.986440  9396 net.cpp:91] Creating Layer inception_4b/3x3_reduce
I0403 19:34:06.986457  9396 net.cpp:425] inception_4b/3x3_reduce <- inception_4a/output_inception_4a/output_0_split_2
I0403 19:34:06.986479  9396 net.cpp:399] inception_4b/3x3_reduce -> inception_4b/3x3_reduce
I0403 19:34:06.987900  9396 net.cpp:141] Setting up inception_4b/3x3_reduce
I0403 19:34:06.987931  9396 net.cpp:148] Top shape: 24 112 14 14 (526848)
I0403 19:34:06.987946  9396 net.cpp:156] Memory required for data: 954332448
I0403 19:34:06.987967  9396 layer_factory.hpp:77] Creating layer inception_4b/relu_3x3_reduce
I0403 19:34:06.987988  9396 net.cpp:91] Creating Layer inception_4b/relu_3x3_reduce
I0403 19:34:06.988004  9396 net.cpp:425] inception_4b/relu_3x3_reduce <- inception_4b/3x3_reduce
I0403 19:34:06.988021  9396 net.cpp:386] inception_4b/relu_3x3_reduce -> inception_4b/3x3_reduce (in-place)
I0403 19:34:06.988324  9396 net.cpp:141] Setting up inception_4b/relu_3x3_reduce
I0403 19:34:06.988353  9396 net.cpp:148] Top shape: 24 112 14 14 (526848)
I0403 19:34:06.988368  9396 net.cpp:156] Memory required for data: 956439840
I0403 19:34:06.988384  9396 layer_factory.hpp:77] Creating layer inception_4b/3x3
I0403 19:34:06.988405  9396 net.cpp:91] Creating Layer inception_4b/3x3
I0403 19:34:06.988425  9396 net.cpp:425] inception_4b/3x3 <- inception_4b/3x3_reduce
I0403 19:34:06.988447  9396 net.cpp:399] inception_4b/3x3 -> inception_4b/3x3
I0403 19:34:06.991518  9396 net.cpp:141] Setting up inception_4b/3x3
I0403 19:34:06.991549  9396 net.cpp:148] Top shape: 24 224 14 14 (1053696)
I0403 19:34:06.991577  9396 net.cpp:156] Memory required for data: 960654624
I0403 19:34:06.991597  9396 layer_factory.hpp:77] Creating layer inception_4b/relu_3x3
I0403 19:34:06.991617  9396 net.cpp:91] Creating Layer inception_4b/relu_3x3
I0403 19:34:06.991636  9396 net.cpp:425] inception_4b/relu_3x3 <- inception_4b/3x3
I0403 19:34:06.991654  9396 net.cpp:386] inception_4b/relu_3x3 -> inception_4b/3x3 (in-place)
I0403 19:34:06.991835  9396 net.cpp:141] Setting up inception_4b/relu_3x3
I0403 19:34:06.991864  9396 net.cpp:148] Top shape: 24 224 14 14 (1053696)
I0403 19:34:06.991880  9396 net.cpp:156] Memory required for data: 964869408
I0403 19:34:06.991896  9396 layer_factory.hpp:77] Creating layer inception_4b/5x5_reduce
I0403 19:34:06.991919  9396 net.cpp:91] Creating Layer inception_4b/5x5_reduce
I0403 19:34:06.991935  9396 net.cpp:425] inception_4b/5x5_reduce <- inception_4a/output_inception_4a/output_0_split_3
I0403 19:34:06.991953  9396 net.cpp:399] inception_4b/5x5_reduce -> inception_4b/5x5_reduce
I0403 19:34:06.993100  9396 net.cpp:141] Setting up inception_4b/5x5_reduce
I0403 19:34:06.993130  9396 net.cpp:148] Top shape: 24 24 14 14 (112896)
I0403 19:34:06.993147  9396 net.cpp:156] Memory required for data: 965320992
I0403 19:34:06.993165  9396 layer_factory.hpp:77] Creating layer inception_4b/relu_5x5_reduce
I0403 19:34:06.993186  9396 net.cpp:91] Creating Layer inception_4b/relu_5x5_reduce
I0403 19:34:06.993217  9396 net.cpp:425] inception_4b/relu_5x5_reduce <- inception_4b/5x5_reduce
I0403 19:34:06.993238  9396 net.cpp:386] inception_4b/relu_5x5_reduce -> inception_4b/5x5_reduce (in-place)
I0403 19:34:06.993422  9396 net.cpp:141] Setting up inception_4b/relu_5x5_reduce
I0403 19:34:06.993446  9396 net.cpp:148] Top shape: 24 24 14 14 (112896)
I0403 19:34:06.993461  9396 net.cpp:156] Memory required for data: 965772576
I0403 19:34:06.993476  9396 layer_factory.hpp:77] Creating layer inception_4b/5x5
I0403 19:34:06.993499  9396 net.cpp:91] Creating Layer inception_4b/5x5
I0403 19:34:06.993516  9396 net.cpp:425] inception_4b/5x5 <- inception_4b/5x5_reduce
I0403 19:34:06.993537  9396 net.cpp:399] inception_4b/5x5 -> inception_4b/5x5
I0403 19:34:06.994786  9396 net.cpp:141] Setting up inception_4b/5x5
I0403 19:34:06.994818  9396 net.cpp:148] Top shape: 24 64 14 14 (301056)
I0403 19:34:06.994835  9396 net.cpp:156] Memory required for data: 966976800
I0403 19:34:06.994855  9396 layer_factory.hpp:77] Creating layer inception_4b/relu_5x5
I0403 19:34:06.994874  9396 net.cpp:91] Creating Layer inception_4b/relu_5x5
I0403 19:34:06.994889  9396 net.cpp:425] inception_4b/relu_5x5 <- inception_4b/5x5
I0403 19:34:06.994909  9396 net.cpp:386] inception_4b/relu_5x5 -> inception_4b/5x5 (in-place)
I0403 19:34:06.995194  9396 net.cpp:141] Setting up inception_4b/relu_5x5
I0403 19:34:06.995223  9396 net.cpp:148] Top shape: 24 64 14 14 (301056)
I0403 19:34:06.995239  9396 net.cpp:156] Memory required for data: 968181024
I0403 19:34:06.995254  9396 layer_factory.hpp:77] Creating layer inception_4b/pool
I0403 19:34:06.995276  9396 net.cpp:91] Creating Layer inception_4b/pool
I0403 19:34:06.995306  9396 net.cpp:425] inception_4b/pool <- inception_4a/output_inception_4a/output_0_split_4
I0403 19:34:06.995329  9396 net.cpp:399] inception_4b/pool -> inception_4b/pool
I0403 19:34:06.995396  9396 net.cpp:141] Setting up inception_4b/pool
I0403 19:34:06.995421  9396 net.cpp:148] Top shape: 24 512 14 14 (2408448)
I0403 19:34:06.995436  9396 net.cpp:156] Memory required for data: 977814816
I0403 19:34:06.995451  9396 layer_factory.hpp:77] Creating layer inception_4b/pool_proj
I0403 19:34:06.995476  9396 net.cpp:91] Creating Layer inception_4b/pool_proj
I0403 19:34:06.995493  9396 net.cpp:425] inception_4b/pool_proj <- inception_4b/pool
I0403 19:34:06.995513  9396 net.cpp:399] inception_4b/pool_proj -> inception_4b/pool_proj
I0403 19:34:06.996759  9396 net.cpp:141] Setting up inception_4b/pool_proj
I0403 19:34:06.996788  9396 net.cpp:148] Top shape: 24 64 14 14 (301056)
I0403 19:34:06.996803  9396 net.cpp:156] Memory required for data: 979019040
I0403 19:34:06.996821  9396 layer_factory.hpp:77] Creating layer inception_4b/relu_pool_proj
I0403 19:34:06.996839  9396 net.cpp:91] Creating Layer inception_4b/relu_pool_proj
I0403 19:34:06.996855  9396 net.cpp:425] inception_4b/relu_pool_proj <- inception_4b/pool_proj
I0403 19:34:06.996875  9396 net.cpp:386] inception_4b/relu_pool_proj -> inception_4b/pool_proj (in-place)
I0403 19:34:06.997054  9396 net.cpp:141] Setting up inception_4b/relu_pool_proj
I0403 19:34:06.997079  9396 net.cpp:148] Top shape: 24 64 14 14 (301056)
I0403 19:34:06.997093  9396 net.cpp:156] Memory required for data: 980223264
I0403 19:34:06.997108  9396 layer_factory.hpp:77] Creating layer inception_4b/output
I0403 19:34:06.997128  9396 net.cpp:91] Creating Layer inception_4b/output
I0403 19:34:06.997144  9396 net.cpp:425] inception_4b/output <- inception_4b/1x1
I0403 19:34:06.997160  9396 net.cpp:425] inception_4b/output <- inception_4b/3x3
I0403 19:34:06.997176  9396 net.cpp:425] inception_4b/output <- inception_4b/5x5
I0403 19:34:06.997195  9396 net.cpp:425] inception_4b/output <- inception_4b/pool_proj
I0403 19:34:06.997211  9396 net.cpp:399] inception_4b/output -> inception_4b/output
I0403 19:34:06.997256  9396 net.cpp:141] Setting up inception_4b/output
I0403 19:34:06.997285  9396 net.cpp:148] Top shape: 24 512 14 14 (2408448)
I0403 19:34:06.997303  9396 net.cpp:156] Memory required for data: 989857056
I0403 19:34:06.997330  9396 layer_factory.hpp:77] Creating layer inception_4b/output_inception_4b/output_0_split
I0403 19:34:06.997347  9396 net.cpp:91] Creating Layer inception_4b/output_inception_4b/output_0_split
I0403 19:34:06.997364  9396 net.cpp:425] inception_4b/output_inception_4b/output_0_split <- inception_4b/output
I0403 19:34:06.997383  9396 net.cpp:399] inception_4b/output_inception_4b/output_0_split -> inception_4b/output_inception_4b/output_0_split_0
I0403 19:34:06.997406  9396 net.cpp:399] inception_4b/output_inception_4b/output_0_split -> inception_4b/output_inception_4b/output_0_split_1
I0403 19:34:06.997426  9396 net.cpp:399] inception_4b/output_inception_4b/output_0_split -> inception_4b/output_inception_4b/output_0_split_2
I0403 19:34:06.997445  9396 net.cpp:399] inception_4b/output_inception_4b/output_0_split -> inception_4b/output_inception_4b/output_0_split_3
I0403 19:34:06.997527  9396 net.cpp:141] Setting up inception_4b/output_inception_4b/output_0_split
I0403 19:34:06.997555  9396 net.cpp:148] Top shape: 24 512 14 14 (2408448)
I0403 19:34:06.997571  9396 net.cpp:148] Top shape: 24 512 14 14 (2408448)
I0403 19:34:06.997587  9396 net.cpp:148] Top shape: 24 512 14 14 (2408448)
I0403 19:34:06.997603  9396 net.cpp:148] Top shape: 24 512 14 14 (2408448)
I0403 19:34:06.997617  9396 net.cpp:156] Memory required for data: 1028392224
I0403 19:34:06.997632  9396 layer_factory.hpp:77] Creating layer inception_4c/1x1
I0403 19:34:06.997654  9396 net.cpp:91] Creating Layer inception_4c/1x1
I0403 19:34:06.997689  9396 net.cpp:425] inception_4c/1x1 <- inception_4b/output_inception_4b/output_0_split_0
I0403 19:34:06.997707  9396 net.cpp:399] inception_4c/1x1 -> inception_4c/1x1
I0403 19:34:06.999234  9396 net.cpp:141] Setting up inception_4c/1x1
I0403 19:34:06.999280  9396 net.cpp:148] Top shape: 24 128 14 14 (602112)
I0403 19:34:06.999300  9396 net.cpp:156] Memory required for data: 1030800672
I0403 19:34:06.999331  9396 layer_factory.hpp:77] Creating layer inception_4c/relu_1x1
I0403 19:34:06.999353  9396 net.cpp:91] Creating Layer inception_4c/relu_1x1
I0403 19:34:06.999372  9396 net.cpp:425] inception_4c/relu_1x1 <- inception_4c/1x1
I0403 19:34:06.999392  9396 net.cpp:386] inception_4c/relu_1x1 -> inception_4c/1x1 (in-place)
I0403 19:34:06.999575  9396 net.cpp:141] Setting up inception_4c/relu_1x1
I0403 19:34:06.999617  9396 net.cpp:148] Top shape: 24 128 14 14 (602112)
I0403 19:34:06.999634  9396 net.cpp:156] Memory required for data: 1033209120
I0403 19:34:06.999649  9396 layer_factory.hpp:77] Creating layer inception_4c/3x3_reduce
I0403 19:34:06.999670  9396 net.cpp:91] Creating Layer inception_4c/3x3_reduce
I0403 19:34:06.999691  9396 net.cpp:425] inception_4c/3x3_reduce <- inception_4b/output_inception_4b/output_0_split_1
I0403 19:34:06.999709  9396 net.cpp:399] inception_4c/3x3_reduce -> inception_4c/3x3_reduce
I0403 19:34:07.001669  9396 net.cpp:141] Setting up inception_4c/3x3_reduce
I0403 19:34:07.001703  9396 net.cpp:148] Top shape: 24 128 14 14 (602112)
I0403 19:34:07.001719  9396 net.cpp:156] Memory required for data: 1035617568
I0403 19:34:07.001739  9396 layer_factory.hpp:77] Creating layer inception_4c/relu_3x3_reduce
I0403 19:34:07.001756  9396 net.cpp:91] Creating Layer inception_4c/relu_3x3_reduce
I0403 19:34:07.001773  9396 net.cpp:425] inception_4c/relu_3x3_reduce <- inception_4c/3x3_reduce
I0403 19:34:07.001793  9396 net.cpp:386] inception_4c/relu_3x3_reduce -> inception_4c/3x3_reduce (in-place)
I0403 19:34:07.002084  9396 net.cpp:141] Setting up inception_4c/relu_3x3_reduce
I0403 19:34:07.002112  9396 net.cpp:148] Top shape: 24 128 14 14 (602112)
I0403 19:34:07.002130  9396 net.cpp:156] Memory required for data: 1038026016
I0403 19:34:07.002143  9396 layer_factory.hpp:77] Creating layer inception_4c/3x3
I0403 19:34:07.002167  9396 net.cpp:91] Creating Layer inception_4c/3x3
I0403 19:34:07.002185  9396 net.cpp:425] inception_4c/3x3 <- inception_4c/3x3_reduce
I0403 19:34:07.002205  9396 net.cpp:399] inception_4c/3x3 -> inception_4c/3x3
I0403 19:34:07.006067  9396 net.cpp:141] Setting up inception_4c/3x3
I0403 19:34:07.006109  9396 net.cpp:148] Top shape: 24 256 14 14 (1204224)
I0403 19:34:07.006125  9396 net.cpp:156] Memory required for data: 1042842912
I0403 19:34:07.006157  9396 layer_factory.hpp:77] Creating layer inception_4c/relu_3x3
I0403 19:34:07.006180  9396 net.cpp:91] Creating Layer inception_4c/relu_3x3
I0403 19:34:07.006196  9396 net.cpp:425] inception_4c/relu_3x3 <- inception_4c/3x3
I0403 19:34:07.006216  9396 net.cpp:386] inception_4c/relu_3x3 -> inception_4c/3x3 (in-place)
I0403 19:34:07.006422  9396 net.cpp:141] Setting up inception_4c/relu_3x3
I0403 19:34:07.006448  9396 net.cpp:148] Top shape: 24 256 14 14 (1204224)
I0403 19:34:07.006463  9396 net.cpp:156] Memory required for data: 1047659808
I0403 19:34:07.006479  9396 layer_factory.hpp:77] Creating layer inception_4c/5x5_reduce
I0403 19:34:07.006502  9396 net.cpp:91] Creating Layer inception_4c/5x5_reduce
I0403 19:34:07.006521  9396 net.cpp:425] inception_4c/5x5_reduce <- inception_4b/output_inception_4b/output_0_split_2
I0403 19:34:07.006542  9396 net.cpp:399] inception_4c/5x5_reduce -> inception_4c/5x5_reduce
I0403 19:34:07.007750  9396 net.cpp:141] Setting up inception_4c/5x5_reduce
I0403 19:34:07.007781  9396 net.cpp:148] Top shape: 24 24 14 14 (112896)
I0403 19:34:07.007798  9396 net.cpp:156] Memory required for data: 1048111392
I0403 19:34:07.007817  9396 layer_factory.hpp:77] Creating layer inception_4c/relu_5x5_reduce
I0403 19:34:07.007835  9396 net.cpp:91] Creating Layer inception_4c/relu_5x5_reduce
I0403 19:34:07.007853  9396 net.cpp:425] inception_4c/relu_5x5_reduce <- inception_4c/5x5_reduce
I0403 19:34:07.007874  9396 net.cpp:386] inception_4c/relu_5x5_reduce -> inception_4c/5x5_reduce (in-place)
I0403 19:34:07.008059  9396 net.cpp:141] Setting up inception_4c/relu_5x5_reduce
I0403 19:34:07.008083  9396 net.cpp:148] Top shape: 24 24 14 14 (112896)
I0403 19:34:07.008097  9396 net.cpp:156] Memory required for data: 1048562976
I0403 19:34:07.008112  9396 layer_factory.hpp:77] Creating layer inception_4c/5x5
I0403 19:34:07.008134  9396 net.cpp:91] Creating Layer inception_4c/5x5
I0403 19:34:07.008152  9396 net.cpp:425] inception_4c/5x5 <- inception_4c/5x5_reduce
I0403 19:34:07.008185  9396 net.cpp:399] inception_4c/5x5 -> inception_4c/5x5
I0403 19:34:07.009485  9396 net.cpp:141] Setting up inception_4c/5x5
I0403 19:34:07.009513  9396 net.cpp:148] Top shape: 24 64 14 14 (301056)
I0403 19:34:07.009529  9396 net.cpp:156] Memory required for data: 1049767200
I0403 19:34:07.009548  9396 layer_factory.hpp:77] Creating layer inception_4c/relu_5x5
I0403 19:34:07.009569  9396 net.cpp:91] Creating Layer inception_4c/relu_5x5
I0403 19:34:07.009598  9396 net.cpp:425] inception_4c/relu_5x5 <- inception_4c/5x5
I0403 19:34:07.009615  9396 net.cpp:386] inception_4c/relu_5x5 -> inception_4c/5x5 (in-place)
I0403 19:34:07.009901  9396 net.cpp:141] Setting up inception_4c/relu_5x5
I0403 19:34:07.009927  9396 net.cpp:148] Top shape: 24 64 14 14 (301056)
I0403 19:34:07.009941  9396 net.cpp:156] Memory required for data: 1050971424
I0403 19:34:07.009956  9396 layer_factory.hpp:77] Creating layer inception_4c/pool
I0403 19:34:07.009976  9396 net.cpp:91] Creating Layer inception_4c/pool
I0403 19:34:07.009992  9396 net.cpp:425] inception_4c/pool <- inception_4b/output_inception_4b/output_0_split_3
I0403 19:34:07.010010  9396 net.cpp:399] inception_4c/pool -> inception_4c/pool
I0403 19:34:07.010076  9396 net.cpp:141] Setting up inception_4c/pool
I0403 19:34:07.010102  9396 net.cpp:148] Top shape: 24 512 14 14 (2408448)
I0403 19:34:07.010115  9396 net.cpp:156] Memory required for data: 1060605216
I0403 19:34:07.010129  9396 layer_factory.hpp:77] Creating layer inception_4c/pool_proj
I0403 19:34:07.010154  9396 net.cpp:91] Creating Layer inception_4c/pool_proj
I0403 19:34:07.010171  9396 net.cpp:425] inception_4c/pool_proj <- inception_4c/pool
I0403 19:34:07.010193  9396 net.cpp:399] inception_4c/pool_proj -> inception_4c/pool_proj
I0403 19:34:07.011473  9396 net.cpp:141] Setting up inception_4c/pool_proj
I0403 19:34:07.011503  9396 net.cpp:148] Top shape: 24 64 14 14 (301056)
I0403 19:34:07.011535  9396 net.cpp:156] Memory required for data: 1061809440
I0403 19:34:07.011555  9396 layer_factory.hpp:77] Creating layer inception_4c/relu_pool_proj
I0403 19:34:07.011586  9396 net.cpp:91] Creating Layer inception_4c/relu_pool_proj
I0403 19:34:07.011602  9396 net.cpp:425] inception_4c/relu_pool_proj <- inception_4c/pool_proj
I0403 19:34:07.011623  9396 net.cpp:386] inception_4c/relu_pool_proj -> inception_4c/pool_proj (in-place)
I0403 19:34:07.011834  9396 net.cpp:141] Setting up inception_4c/relu_pool_proj
I0403 19:34:07.011862  9396 net.cpp:148] Top shape: 24 64 14 14 (301056)
I0403 19:34:07.011876  9396 net.cpp:156] Memory required for data: 1063013664
I0403 19:34:07.011891  9396 layer_factory.hpp:77] Creating layer inception_4c/output
I0403 19:34:07.011909  9396 net.cpp:91] Creating Layer inception_4c/output
I0403 19:34:07.011929  9396 net.cpp:425] inception_4c/output <- inception_4c/1x1
I0403 19:34:07.011947  9396 net.cpp:425] inception_4c/output <- inception_4c/3x3
I0403 19:34:07.011976  9396 net.cpp:425] inception_4c/output <- inception_4c/5x5
I0403 19:34:07.011991  9396 net.cpp:425] inception_4c/output <- inception_4c/pool_proj
I0403 19:34:07.012008  9396 net.cpp:399] inception_4c/output -> inception_4c/output
I0403 19:34:07.012055  9396 net.cpp:141] Setting up inception_4c/output
I0403 19:34:07.012094  9396 net.cpp:148] Top shape: 24 512 14 14 (2408448)
I0403 19:34:07.012109  9396 net.cpp:156] Memory required for data: 1072647456
I0403 19:34:07.012123  9396 layer_factory.hpp:77] Creating layer inception_4c/output_inception_4c/output_0_split
I0403 19:34:07.012140  9396 net.cpp:91] Creating Layer inception_4c/output_inception_4c/output_0_split
I0403 19:34:07.012156  9396 net.cpp:425] inception_4c/output_inception_4c/output_0_split <- inception_4c/output
I0403 19:34:07.012176  9396 net.cpp:399] inception_4c/output_inception_4c/output_0_split -> inception_4c/output_inception_4c/output_0_split_0
I0403 19:34:07.012197  9396 net.cpp:399] inception_4c/output_inception_4c/output_0_split -> inception_4c/output_inception_4c/output_0_split_1
I0403 19:34:07.012215  9396 net.cpp:399] inception_4c/output_inception_4c/output_0_split -> inception_4c/output_inception_4c/output_0_split_2
I0403 19:34:07.012235  9396 net.cpp:399] inception_4c/output_inception_4c/output_0_split -> inception_4c/output_inception_4c/output_0_split_3
I0403 19:34:07.012331  9396 net.cpp:141] Setting up inception_4c/output_inception_4c/output_0_split
I0403 19:34:07.012359  9396 net.cpp:148] Top shape: 24 512 14 14 (2408448)
I0403 19:34:07.012377  9396 net.cpp:148] Top shape: 24 512 14 14 (2408448)
I0403 19:34:07.012392  9396 net.cpp:148] Top shape: 24 512 14 14 (2408448)
I0403 19:34:07.012408  9396 net.cpp:148] Top shape: 24 512 14 14 (2408448)
I0403 19:34:07.012423  9396 net.cpp:156] Memory required for data: 1111182624
I0403 19:34:07.012436  9396 layer_factory.hpp:77] Creating layer inception_4d/1x1
I0403 19:34:07.012459  9396 net.cpp:91] Creating Layer inception_4d/1x1
I0403 19:34:07.012477  9396 net.cpp:425] inception_4d/1x1 <- inception_4c/output_inception_4c/output_0_split_0
I0403 19:34:07.012495  9396 net.cpp:399] inception_4d/1x1 -> inception_4d/1x1
I0403 19:34:07.013921  9396 net.cpp:141] Setting up inception_4d/1x1
I0403 19:34:07.013952  9396 net.cpp:148] Top shape: 24 112 14 14 (526848)
I0403 19:34:07.013968  9396 net.cpp:156] Memory required for data: 1113290016
I0403 19:34:07.013986  9396 layer_factory.hpp:77] Creating layer inception_4d/relu_1x1
I0403 19:34:07.014004  9396 net.cpp:91] Creating Layer inception_4d/relu_1x1
I0403 19:34:07.014020  9396 net.cpp:425] inception_4d/relu_1x1 <- inception_4d/1x1
I0403 19:34:07.014039  9396 net.cpp:386] inception_4d/relu_1x1 -> inception_4d/1x1 (in-place)
I0403 19:34:07.014238  9396 net.cpp:141] Setting up inception_4d/relu_1x1
I0403 19:34:07.014266  9396 net.cpp:148] Top shape: 24 112 14 14 (526848)
I0403 19:34:07.014286  9396 net.cpp:156] Memory required for data: 1115397408
I0403 19:34:07.014302  9396 layer_factory.hpp:77] Creating layer inception_4d/3x3_reduce
I0403 19:34:07.014343  9396 net.cpp:91] Creating Layer inception_4d/3x3_reduce
I0403 19:34:07.014361  9396 net.cpp:425] inception_4d/3x3_reduce <- inception_4c/output_inception_4c/output_0_split_1
I0403 19:34:07.014380  9396 net.cpp:399] inception_4d/3x3_reduce -> inception_4d/3x3_reduce
I0403 19:34:07.015970  9396 net.cpp:141] Setting up inception_4d/3x3_reduce
I0403 19:34:07.016000  9396 net.cpp:148] Top shape: 24 144 14 14 (677376)
I0403 19:34:07.016017  9396 net.cpp:156] Memory required for data: 1118106912
I0403 19:34:07.016037  9396 layer_factory.hpp:77] Creating layer inception_4d/relu_3x3_reduce
I0403 19:34:07.016058  9396 net.cpp:91] Creating Layer inception_4d/relu_3x3_reduce
I0403 19:34:07.016075  9396 net.cpp:425] inception_4d/relu_3x3_reduce <- inception_4d/3x3_reduce
I0403 19:34:07.016103  9396 net.cpp:386] inception_4d/relu_3x3_reduce -> inception_4d/3x3_reduce (in-place)
I0403 19:34:07.016427  9396 net.cpp:141] Setting up inception_4d/relu_3x3_reduce
I0403 19:34:07.016455  9396 net.cpp:148] Top shape: 24 144 14 14 (677376)
I0403 19:34:07.016471  9396 net.cpp:156] Memory required for data: 1120816416
I0403 19:34:07.016486  9396 layer_factory.hpp:77] Creating layer inception_4d/3x3
I0403 19:34:07.016510  9396 net.cpp:91] Creating Layer inception_4d/3x3
I0403 19:34:07.016530  9396 net.cpp:425] inception_4d/3x3 <- inception_4d/3x3_reduce
I0403 19:34:07.016551  9396 net.cpp:399] inception_4d/3x3 -> inception_4d/3x3
I0403 19:34:07.021092  9396 net.cpp:141] Setting up inception_4d/3x3
I0403 19:34:07.021122  9396 net.cpp:148] Top shape: 24 288 14 14 (1354752)
I0403 19:34:07.021139  9396 net.cpp:156] Memory required for data: 1126235424
I0403 19:34:07.021159  9396 layer_factory.hpp:77] Creating layer inception_4d/relu_3x3
I0403 19:34:07.021183  9396 net.cpp:91] Creating Layer inception_4d/relu_3x3
I0403 19:34:07.021201  9396 net.cpp:425] inception_4d/relu_3x3 <- inception_4d/3x3
I0403 19:34:07.021220  9396 net.cpp:386] inception_4d/relu_3x3 -> inception_4d/3x3 (in-place)
I0403 19:34:07.021414  9396 net.cpp:141] Setting up inception_4d/relu_3x3
I0403 19:34:07.021442  9396 net.cpp:148] Top shape: 24 288 14 14 (1354752)
I0403 19:34:07.021457  9396 net.cpp:156] Memory required for data: 1131654432
I0403 19:34:07.021472  9396 layer_factory.hpp:77] Creating layer inception_4d/5x5_reduce
I0403 19:34:07.021497  9396 net.cpp:91] Creating Layer inception_4d/5x5_reduce
I0403 19:34:07.021515  9396 net.cpp:425] inception_4d/5x5_reduce <- inception_4c/output_inception_4c/output_0_split_2
I0403 19:34:07.021550  9396 net.cpp:399] inception_4d/5x5_reduce -> inception_4d/5x5_reduce
I0403 19:34:07.022760  9396 net.cpp:141] Setting up inception_4d/5x5_reduce
I0403 19:34:07.022805  9396 net.cpp:148] Top shape: 24 32 14 14 (150528)
I0403 19:34:07.022824  9396 net.cpp:156] Memory required for data: 1132256544
I0403 19:34:07.022843  9396 layer_factory.hpp:77] Creating layer inception_4d/relu_5x5_reduce
I0403 19:34:07.022861  9396 net.cpp:91] Creating Layer inception_4d/relu_5x5_reduce
I0403 19:34:07.022879  9396 net.cpp:425] inception_4d/relu_5x5_reduce <- inception_4d/5x5_reduce
I0403 19:34:07.022897  9396 net.cpp:386] inception_4d/relu_5x5_reduce -> inception_4d/5x5_reduce (in-place)
I0403 19:34:07.023109  9396 net.cpp:141] Setting up inception_4d/relu_5x5_reduce
I0403 19:34:07.023138  9396 net.cpp:148] Top shape: 24 32 14 14 (150528)
I0403 19:34:07.023154  9396 net.cpp:156] Memory required for data: 1132858656
I0403 19:34:07.023169  9396 layer_factory.hpp:77] Creating layer inception_4d/5x5
I0403 19:34:07.023192  9396 net.cpp:91] Creating Layer inception_4d/5x5
I0403 19:34:07.023211  9396 net.cpp:425] inception_4d/5x5 <- inception_4d/5x5_reduce
I0403 19:34:07.023232  9396 net.cpp:399] inception_4d/5x5 -> inception_4d/5x5
I0403 19:34:07.024821  9396 net.cpp:141] Setting up inception_4d/5x5
I0403 19:34:07.024852  9396 net.cpp:148] Top shape: 24 64 14 14 (301056)
I0403 19:34:07.024868  9396 net.cpp:156] Memory required for data: 1134062880
I0403 19:34:07.024888  9396 layer_factory.hpp:77] Creating layer inception_4d/relu_5x5
I0403 19:34:07.024925  9396 net.cpp:91] Creating Layer inception_4d/relu_5x5
I0403 19:34:07.024945  9396 net.cpp:425] inception_4d/relu_5x5 <- inception_4d/5x5
I0403 19:34:07.024963  9396 net.cpp:386] inception_4d/relu_5x5 -> inception_4d/5x5 (in-place)
I0403 19:34:07.025269  9396 net.cpp:141] Setting up inception_4d/relu_5x5
I0403 19:34:07.025302  9396 net.cpp:148] Top shape: 24 64 14 14 (301056)
I0403 19:34:07.025320  9396 net.cpp:156] Memory required for data: 1135267104
I0403 19:34:07.025334  9396 layer_factory.hpp:77] Creating layer inception_4d/pool
I0403 19:34:07.025353  9396 net.cpp:91] Creating Layer inception_4d/pool
I0403 19:34:07.025369  9396 net.cpp:425] inception_4d/pool <- inception_4c/output_inception_4c/output_0_split_3
I0403 19:34:07.025390  9396 net.cpp:399] inception_4d/pool -> inception_4d/pool
I0403 19:34:07.025460  9396 net.cpp:141] Setting up inception_4d/pool
I0403 19:34:07.025487  9396 net.cpp:148] Top shape: 24 512 14 14 (2408448)
I0403 19:34:07.025502  9396 net.cpp:156] Memory required for data: 1144900896
I0403 19:34:07.025517  9396 layer_factory.hpp:77] Creating layer inception_4d/pool_proj
I0403 19:34:07.025540  9396 net.cpp:91] Creating Layer inception_4d/pool_proj
I0403 19:34:07.025558  9396 net.cpp:425] inception_4d/pool_proj <- inception_4d/pool
I0403 19:34:07.025578  9396 net.cpp:399] inception_4d/pool_proj -> inception_4d/pool_proj
I0403 19:34:07.027401  9396 net.cpp:141] Setting up inception_4d/pool_proj
I0403 19:34:07.027433  9396 net.cpp:148] Top shape: 24 64 14 14 (301056)
I0403 19:34:07.027451  9396 net.cpp:156] Memory required for data: 1146105120
I0403 19:34:07.027474  9396 layer_factory.hpp:77] Creating layer inception_4d/relu_pool_proj
I0403 19:34:07.027497  9396 net.cpp:91] Creating Layer inception_4d/relu_pool_proj
I0403 19:34:07.027514  9396 net.cpp:425] inception_4d/relu_pool_proj <- inception_4d/pool_proj
I0403 19:34:07.027534  9396 net.cpp:386] inception_4d/relu_pool_proj -> inception_4d/pool_proj (in-place)
I0403 19:34:07.027741  9396 net.cpp:141] Setting up inception_4d/relu_pool_proj
I0403 19:34:07.027770  9396 net.cpp:148] Top shape: 24 64 14 14 (301056)
I0403 19:34:07.027783  9396 net.cpp:156] Memory required for data: 1147309344
I0403 19:34:07.027798  9396 layer_factory.hpp:77] Creating layer inception_4d/output
I0403 19:34:07.027817  9396 net.cpp:91] Creating Layer inception_4d/output
I0403 19:34:07.027832  9396 net.cpp:425] inception_4d/output <- inception_4d/1x1
I0403 19:34:07.027849  9396 net.cpp:425] inception_4d/output <- inception_4d/3x3
I0403 19:34:07.027865  9396 net.cpp:425] inception_4d/output <- inception_4d/5x5
I0403 19:34:07.027881  9396 net.cpp:425] inception_4d/output <- inception_4d/pool_proj
I0403 19:34:07.027901  9396 net.cpp:399] inception_4d/output -> inception_4d/output
I0403 19:34:07.027951  9396 net.cpp:141] Setting up inception_4d/output
I0403 19:34:07.027977  9396 net.cpp:148] Top shape: 24 528 14 14 (2483712)
I0403 19:34:07.027993  9396 net.cpp:156] Memory required for data: 1157244192
I0403 19:34:07.028008  9396 layer_factory.hpp:77] Creating layer inception_4d/output_inception_4d/output_0_split
I0403 19:34:07.028028  9396 net.cpp:91] Creating Layer inception_4d/output_inception_4d/output_0_split
I0403 19:34:07.028043  9396 net.cpp:425] inception_4d/output_inception_4d/output_0_split <- inception_4d/output
I0403 19:34:07.028060  9396 net.cpp:399] inception_4d/output_inception_4d/output_0_split -> inception_4d/output_inception_4d/output_0_split_0
I0403 19:34:07.028084  9396 net.cpp:399] inception_4d/output_inception_4d/output_0_split -> inception_4d/output_inception_4d/output_0_split_1
I0403 19:34:07.028107  9396 net.cpp:399] inception_4d/output_inception_4d/output_0_split -> inception_4d/output_inception_4d/output_0_split_2
I0403 19:34:07.028128  9396 net.cpp:399] inception_4d/output_inception_4d/output_0_split -> inception_4d/output_inception_4d/output_0_split_3
I0403 19:34:07.028151  9396 net.cpp:399] inception_4d/output_inception_4d/output_0_split -> inception_4d/output_inception_4d/output_0_split_4
I0403 19:34:07.028256  9396 net.cpp:141] Setting up inception_4d/output_inception_4d/output_0_split
I0403 19:34:07.028297  9396 net.cpp:148] Top shape: 24 528 14 14 (2483712)
I0403 19:34:07.028316  9396 net.cpp:148] Top shape: 24 528 14 14 (2483712)
I0403 19:34:07.028331  9396 net.cpp:148] Top shape: 24 528 14 14 (2483712)
I0403 19:34:07.028348  9396 net.cpp:148] Top shape: 24 528 14 14 (2483712)
I0403 19:34:07.028364  9396 net.cpp:148] Top shape: 24 528 14 14 (2483712)
I0403 19:34:07.028378  9396 net.cpp:156] Memory required for data: 1206918432
I0403 19:34:07.028395  9396 layer_factory.hpp:77] Creating layer loss2/ave_pool
I0403 19:34:07.028417  9396 net.cpp:91] Creating Layer loss2/ave_pool
I0403 19:34:07.028434  9396 net.cpp:425] loss2/ave_pool <- inception_4d/output_inception_4d/output_0_split_0
I0403 19:34:07.028452  9396 net.cpp:399] loss2/ave_pool -> loss2/ave_pool
I0403 19:34:07.028774  9396 net.cpp:141] Setting up loss2/ave_pool
I0403 19:34:07.028803  9396 net.cpp:148] Top shape: 24 528 4 4 (202752)
I0403 19:34:07.028820  9396 net.cpp:156] Memory required for data: 1207729440
I0403 19:34:07.028836  9396 layer_factory.hpp:77] Creating layer loss2/conv
I0403 19:34:07.028858  9396 net.cpp:91] Creating Layer loss2/conv
I0403 19:34:07.028877  9396 net.cpp:425] loss2/conv <- loss2/ave_pool
I0403 19:34:07.028895  9396 net.cpp:399] loss2/conv -> loss2/conv
I0403 19:34:07.030869  9396 net.cpp:141] Setting up loss2/conv
I0403 19:34:07.030899  9396 net.cpp:148] Top shape: 24 128 4 4 (49152)
I0403 19:34:07.030915  9396 net.cpp:156] Memory required for data: 1207926048
I0403 19:34:07.030936  9396 layer_factory.hpp:77] Creating layer loss2/relu_conv
I0403 19:34:07.030956  9396 net.cpp:91] Creating Layer loss2/relu_conv
I0403 19:34:07.030972  9396 net.cpp:425] loss2/relu_conv <- loss2/conv
I0403 19:34:07.030993  9396 net.cpp:386] loss2/relu_conv -> loss2/conv (in-place)
I0403 19:34:07.031307  9396 net.cpp:141] Setting up loss2/relu_conv
I0403 19:34:07.031335  9396 net.cpp:148] Top shape: 24 128 4 4 (49152)
I0403 19:34:07.031352  9396 net.cpp:156] Memory required for data: 1208122656
I0403 19:34:07.031368  9396 layer_factory.hpp:77] Creating layer loss2/fc
I0403 19:34:07.031388  9396 net.cpp:91] Creating Layer loss2/fc
I0403 19:34:07.031404  9396 net.cpp:425] loss2/fc <- loss2/conv
I0403 19:34:07.031426  9396 net.cpp:399] loss2/fc -> loss2/fc
I0403 19:34:07.050030  9396 net.cpp:141] Setting up loss2/fc
I0403 19:34:07.050086  9396 net.cpp:148] Top shape: 24 1024 (24576)
I0403 19:34:07.050102  9396 net.cpp:156] Memory required for data: 1208220960
I0403 19:34:07.050127  9396 layer_factory.hpp:77] Creating layer loss2/relu_fc
I0403 19:34:07.050148  9396 net.cpp:91] Creating Layer loss2/relu_fc
I0403 19:34:07.050165  9396 net.cpp:425] loss2/relu_fc <- loss2/fc
I0403 19:34:07.050185  9396 net.cpp:386] loss2/relu_fc -> loss2/fc (in-place)
I0403 19:34:07.050545  9396 net.cpp:141] Setting up loss2/relu_fc
I0403 19:34:07.050575  9396 net.cpp:148] Top shape: 24 1024 (24576)
I0403 19:34:07.050592  9396 net.cpp:156] Memory required for data: 1208319264
I0403 19:34:07.050608  9396 layer_factory.hpp:77] Creating layer loss2/drop_fc
I0403 19:34:07.050628  9396 net.cpp:91] Creating Layer loss2/drop_fc
I0403 19:34:07.050643  9396 net.cpp:425] loss2/drop_fc <- loss2/fc
I0403 19:34:07.050660  9396 net.cpp:386] loss2/drop_fc -> loss2/fc (in-place)
I0403 19:34:07.050727  9396 net.cpp:141] Setting up loss2/drop_fc
I0403 19:34:07.050753  9396 net.cpp:148] Top shape: 24 1024 (24576)
I0403 19:34:07.050768  9396 net.cpp:156] Memory required for data: 1208417568
I0403 19:34:07.050784  9396 layer_factory.hpp:77] Creating layer loss2/classifier_plantvillage
I0403 19:34:07.050807  9396 net.cpp:91] Creating Layer loss2/classifier_plantvillage
I0403 19:34:07.050824  9396 net.cpp:425] loss2/classifier_plantvillage <- loss2/fc
I0403 19:34:07.050844  9396 net.cpp:399] loss2/classifier_plantvillage -> loss2/classifier_plantvillage
I0403 19:34:07.051311  9396 net.cpp:141] Setting up loss2/classifier_plantvillage
I0403 19:34:07.051338  9396 net.cpp:148] Top shape: 24 38 (912)
I0403 19:34:07.051363  9396 net.cpp:156] Memory required for data: 1208421216
I0403 19:34:07.051409  9396 layer_factory.hpp:77] Creating layer loss2/classifier_plantvillage_loss2/classifier_plantvillage_0_split
I0403 19:34:07.051429  9396 net.cpp:91] Creating Layer loss2/classifier_plantvillage_loss2/classifier_plantvillage_0_split
I0403 19:34:07.051446  9396 net.cpp:425] loss2/classifier_plantvillage_loss2/classifier_plantvillage_0_split <- loss2/classifier_plantvillage
I0403 19:34:07.051467  9396 net.cpp:399] loss2/classifier_plantvillage_loss2/classifier_plantvillage_0_split -> loss2/classifier_plantvillage_loss2/classifier_plantvillage_0_split_0
I0403 19:34:07.051491  9396 net.cpp:399] loss2/classifier_plantvillage_loss2/classifier_plantvillage_0_split -> loss2/classifier_plantvillage_loss2/classifier_plantvillage_0_split_1
I0403 19:34:07.051512  9396 net.cpp:399] loss2/classifier_plantvillage_loss2/classifier_plantvillage_0_split -> loss2/classifier_plantvillage_loss2/classifier_plantvillage_0_split_2
I0403 19:34:07.051599  9396 net.cpp:141] Setting up loss2/classifier_plantvillage_loss2/classifier_plantvillage_0_split
I0403 19:34:07.051625  9396 net.cpp:148] Top shape: 24 38 (912)
I0403 19:34:07.051653  9396 net.cpp:148] Top shape: 24 38 (912)
I0403 19:34:07.051668  9396 net.cpp:148] Top shape: 24 38 (912)
I0403 19:34:07.051682  9396 net.cpp:156] Memory required for data: 1208432160
I0403 19:34:07.051697  9396 layer_factory.hpp:77] Creating layer inception_4e/1x1
I0403 19:34:07.051722  9396 net.cpp:91] Creating Layer inception_4e/1x1
I0403 19:34:07.051740  9396 net.cpp:425] inception_4e/1x1 <- inception_4d/output_inception_4d/output_0_split_1
I0403 19:34:07.051759  9396 net.cpp:399] inception_4e/1x1 -> inception_4e/1x1
I0403 19:34:07.053711  9396 net.cpp:141] Setting up inception_4e/1x1
I0403 19:34:07.053740  9396 net.cpp:148] Top shape: 24 256 14 14 (1204224)
I0403 19:34:07.053757  9396 net.cpp:156] Memory required for data: 1213249056
I0403 19:34:07.053776  9396 layer_factory.hpp:77] Creating layer inception_4e/relu_1x1
I0403 19:34:07.053797  9396 net.cpp:91] Creating Layer inception_4e/relu_1x1
I0403 19:34:07.053813  9396 net.cpp:425] inception_4e/relu_1x1 <- inception_4e/1x1
I0403 19:34:07.053831  9396 net.cpp:386] inception_4e/relu_1x1 -> inception_4e/1x1 (in-place)
I0403 19:34:07.054137  9396 net.cpp:141] Setting up inception_4e/relu_1x1
I0403 19:34:07.054164  9396 net.cpp:148] Top shape: 24 256 14 14 (1204224)
I0403 19:34:07.054179  9396 net.cpp:156] Memory required for data: 1218065952
I0403 19:34:07.054195  9396 layer_factory.hpp:77] Creating layer inception_4e/3x3_reduce
I0403 19:34:07.054219  9396 net.cpp:91] Creating Layer inception_4e/3x3_reduce
I0403 19:34:07.054235  9396 net.cpp:425] inception_4e/3x3_reduce <- inception_4d/output_inception_4d/output_0_split_2
I0403 19:34:07.054257  9396 net.cpp:399] inception_4e/3x3_reduce -> inception_4e/3x3_reduce
I0403 19:34:07.056476  9396 net.cpp:141] Setting up inception_4e/3x3_reduce
I0403 19:34:07.056509  9396 net.cpp:148] Top shape: 24 160 14 14 (752640)
I0403 19:34:07.056525  9396 net.cpp:156] Memory required for data: 1221076512
I0403 19:34:07.056546  9396 layer_factory.hpp:77] Creating layer inception_4e/relu_3x3_reduce
I0403 19:34:07.056566  9396 net.cpp:91] Creating Layer inception_4e/relu_3x3_reduce
I0403 19:34:07.056583  9396 net.cpp:425] inception_4e/relu_3x3_reduce <- inception_4e/3x3_reduce
I0403 19:34:07.056605  9396 net.cpp:386] inception_4e/relu_3x3_reduce -> inception_4e/3x3_reduce (in-place)
I0403 19:34:07.056813  9396 net.cpp:141] Setting up inception_4e/relu_3x3_reduce
I0403 19:34:07.056840  9396 net.cpp:148] Top shape: 24 160 14 14 (752640)
I0403 19:34:07.056856  9396 net.cpp:156] Memory required for data: 1224087072
I0403 19:34:07.056871  9396 layer_factory.hpp:77] Creating layer inception_4e/3x3
I0403 19:34:07.056895  9396 net.cpp:91] Creating Layer inception_4e/3x3
I0403 19:34:07.056915  9396 net.cpp:425] inception_4e/3x3 <- inception_4e/3x3_reduce
I0403 19:34:07.056937  9396 net.cpp:399] inception_4e/3x3 -> inception_4e/3x3
I0403 19:34:07.062140  9396 net.cpp:141] Setting up inception_4e/3x3
I0403 19:34:07.062186  9396 net.cpp:148] Top shape: 24 320 14 14 (1505280)
I0403 19:34:07.062203  9396 net.cpp:156] Memory required for data: 1230108192
I0403 19:34:07.062222  9396 layer_factory.hpp:77] Creating layer inception_4e/relu_3x3
I0403 19:34:07.062244  9396 net.cpp:91] Creating Layer inception_4e/relu_3x3
I0403 19:34:07.062261  9396 net.cpp:425] inception_4e/relu_3x3 <- inception_4e/3x3
I0403 19:34:07.062291  9396 net.cpp:386] inception_4e/relu_3x3 -> inception_4e/3x3 (in-place)
I0403 19:34:07.062607  9396 net.cpp:141] Setting up inception_4e/relu_3x3
I0403 19:34:07.062636  9396 net.cpp:148] Top shape: 24 320 14 14 (1505280)
I0403 19:34:07.062654  9396 net.cpp:156] Memory required for data: 1236129312
I0403 19:34:07.062669  9396 layer_factory.hpp:77] Creating layer inception_4e/5x5_reduce
I0403 19:34:07.062690  9396 net.cpp:91] Creating Layer inception_4e/5x5_reduce
I0403 19:34:07.062706  9396 net.cpp:425] inception_4e/5x5_reduce <- inception_4d/output_inception_4d/output_0_split_3
I0403 19:34:07.062729  9396 net.cpp:399] inception_4e/5x5_reduce -> inception_4e/5x5_reduce
I0403 19:34:07.063881  9396 net.cpp:141] Setting up inception_4e/5x5_reduce
I0403 19:34:07.063912  9396 net.cpp:148] Top shape: 24 32 14 14 (150528)
I0403 19:34:07.063927  9396 net.cpp:156] Memory required for data: 1236731424
I0403 19:34:07.063946  9396 layer_factory.hpp:77] Creating layer inception_4e/relu_5x5_reduce
I0403 19:34:07.063967  9396 net.cpp:91] Creating Layer inception_4e/relu_5x5_reduce
I0403 19:34:07.063985  9396 net.cpp:425] inception_4e/relu_5x5_reduce <- inception_4e/5x5_reduce
I0403 19:34:07.064004  9396 net.cpp:386] inception_4e/relu_5x5_reduce -> inception_4e/5x5_reduce (in-place)
I0403 19:34:07.064316  9396 net.cpp:141] Setting up inception_4e/relu_5x5_reduce
I0403 19:34:07.064342  9396 net.cpp:148] Top shape: 24 32 14 14 (150528)
I0403 19:34:07.064358  9396 net.cpp:156] Memory required for data: 1237333536
I0403 19:34:07.064373  9396 layer_factory.hpp:77] Creating layer inception_4e/5x5
I0403 19:34:07.064417  9396 net.cpp:91] Creating Layer inception_4e/5x5
I0403 19:34:07.064437  9396 net.cpp:425] inception_4e/5x5 <- inception_4e/5x5_reduce
I0403 19:34:07.064457  9396 net.cpp:399] inception_4e/5x5 -> inception_4e/5x5
I0403 19:34:07.066388  9396 net.cpp:141] Setting up inception_4e/5x5
I0403 19:34:07.066422  9396 net.cpp:148] Top shape: 24 128 14 14 (602112)
I0403 19:34:07.066440  9396 net.cpp:156] Memory required for data: 1239741984
I0403 19:34:07.066462  9396 layer_factory.hpp:77] Creating layer inception_4e/relu_5x5
I0403 19:34:07.066483  9396 net.cpp:91] Creating Layer inception_4e/relu_5x5
I0403 19:34:07.066500  9396 net.cpp:425] inception_4e/relu_5x5 <- inception_4e/5x5
I0403 19:34:07.066520  9396 net.cpp:386] inception_4e/relu_5x5 -> inception_4e/5x5 (in-place)
I0403 19:34:07.066737  9396 net.cpp:141] Setting up inception_4e/relu_5x5
I0403 19:34:07.066764  9396 net.cpp:148] Top shape: 24 128 14 14 (602112)
I0403 19:34:07.066781  9396 net.cpp:156] Memory required for data: 1242150432
I0403 19:34:07.066797  9396 layer_factory.hpp:77] Creating layer inception_4e/pool
I0403 19:34:07.066815  9396 net.cpp:91] Creating Layer inception_4e/pool
I0403 19:34:07.066833  9396 net.cpp:425] inception_4e/pool <- inception_4d/output_inception_4d/output_0_split_4
I0403 19:34:07.066854  9396 net.cpp:399] inception_4e/pool -> inception_4e/pool
I0403 19:34:07.066931  9396 net.cpp:141] Setting up inception_4e/pool
I0403 19:34:07.066957  9396 net.cpp:148] Top shape: 24 528 14 14 (2483712)
I0403 19:34:07.066973  9396 net.cpp:156] Memory required for data: 1252085280
I0403 19:34:07.066989  9396 layer_factory.hpp:77] Creating layer inception_4e/pool_proj
I0403 19:34:07.067015  9396 net.cpp:91] Creating Layer inception_4e/pool_proj
I0403 19:34:07.067034  9396 net.cpp:425] inception_4e/pool_proj <- inception_4e/pool
I0403 19:34:07.067054  9396 net.cpp:399] inception_4e/pool_proj -> inception_4e/pool_proj
I0403 19:34:07.068646  9396 net.cpp:141] Setting up inception_4e/pool_proj
I0403 19:34:07.068678  9396 net.cpp:148] Top shape: 24 128 14 14 (602112)
I0403 19:34:07.068708  9396 net.cpp:156] Memory required for data: 1254493728
I0403 19:34:07.068728  9396 layer_factory.hpp:77] Creating layer inception_4e/relu_pool_proj
I0403 19:34:07.068747  9396 net.cpp:91] Creating Layer inception_4e/relu_pool_proj
I0403 19:34:07.068763  9396 net.cpp:425] inception_4e/relu_pool_proj <- inception_4e/pool_proj
I0403 19:34:07.068783  9396 net.cpp:386] inception_4e/relu_pool_proj -> inception_4e/pool_proj (in-place)
I0403 19:34:07.069098  9396 net.cpp:141] Setting up inception_4e/relu_pool_proj
I0403 19:34:07.069129  9396 net.cpp:148] Top shape: 24 128 14 14 (602112)
I0403 19:34:07.069146  9396 net.cpp:156] Memory required for data: 1256902176
I0403 19:34:07.069164  9396 layer_factory.hpp:77] Creating layer inception_4e/output
I0403 19:34:07.069182  9396 net.cpp:91] Creating Layer inception_4e/output
I0403 19:34:07.069198  9396 net.cpp:425] inception_4e/output <- inception_4e/1x1
I0403 19:34:07.069216  9396 net.cpp:425] inception_4e/output <- inception_4e/3x3
I0403 19:34:07.069242  9396 net.cpp:425] inception_4e/output <- inception_4e/5x5
I0403 19:34:07.069259  9396 net.cpp:425] inception_4e/output <- inception_4e/pool_proj
I0403 19:34:07.069283  9396 net.cpp:399] inception_4e/output -> inception_4e/output
I0403 19:34:07.069342  9396 net.cpp:141] Setting up inception_4e/output
I0403 19:34:07.069367  9396 net.cpp:148] Top shape: 24 832 14 14 (3913728)
I0403 19:34:07.069382  9396 net.cpp:156] Memory required for data: 1272557088
I0403 19:34:07.069398  9396 layer_factory.hpp:77] Creating layer pool4/3x3_s2
I0403 19:34:07.069419  9396 net.cpp:91] Creating Layer pool4/3x3_s2
I0403 19:34:07.069449  9396 net.cpp:425] pool4/3x3_s2 <- inception_4e/output
I0403 19:34:07.069468  9396 net.cpp:399] pool4/3x3_s2 -> pool4/3x3_s2
I0403 19:34:07.069545  9396 net.cpp:141] Setting up pool4/3x3_s2
I0403 19:34:07.069568  9396 net.cpp:148] Top shape: 24 832 7 7 (978432)
I0403 19:34:07.069583  9396 net.cpp:156] Memory required for data: 1276470816
I0403 19:34:07.069598  9396 layer_factory.hpp:77] Creating layer pool4/3x3_s2_pool4/3x3_s2_0_split
I0403 19:34:07.069622  9396 net.cpp:91] Creating Layer pool4/3x3_s2_pool4/3x3_s2_0_split
I0403 19:34:07.069638  9396 net.cpp:425] pool4/3x3_s2_pool4/3x3_s2_0_split <- pool4/3x3_s2
I0403 19:34:07.069658  9396 net.cpp:399] pool4/3x3_s2_pool4/3x3_s2_0_split -> pool4/3x3_s2_pool4/3x3_s2_0_split_0
I0403 19:34:07.069680  9396 net.cpp:399] pool4/3x3_s2_pool4/3x3_s2_0_split -> pool4/3x3_s2_pool4/3x3_s2_0_split_1
I0403 19:34:07.069701  9396 net.cpp:399] pool4/3x3_s2_pool4/3x3_s2_0_split -> pool4/3x3_s2_pool4/3x3_s2_0_split_2
I0403 19:34:07.069721  9396 net.cpp:399] pool4/3x3_s2_pool4/3x3_s2_0_split -> pool4/3x3_s2_pool4/3x3_s2_0_split_3
I0403 19:34:07.069825  9396 net.cpp:141] Setting up pool4/3x3_s2_pool4/3x3_s2_0_split
I0403 19:34:07.069852  9396 net.cpp:148] Top shape: 24 832 7 7 (978432)
I0403 19:34:07.069869  9396 net.cpp:148] Top shape: 24 832 7 7 (978432)
I0403 19:34:07.069885  9396 net.cpp:148] Top shape: 24 832 7 7 (978432)
I0403 19:34:07.069901  9396 net.cpp:148] Top shape: 24 832 7 7 (978432)
I0403 19:34:07.069916  9396 net.cpp:156] Memory required for data: 1292125728
I0403 19:34:07.069931  9396 layer_factory.hpp:77] Creating layer inception_5a/1x1
I0403 19:34:07.069952  9396 net.cpp:91] Creating Layer inception_5a/1x1
I0403 19:34:07.069970  9396 net.cpp:425] inception_5a/1x1 <- pool4/3x3_s2_pool4/3x3_s2_0_split_0
I0403 19:34:07.069989  9396 net.cpp:399] inception_5a/1x1 -> inception_5a/1x1
I0403 19:34:07.072973  9396 net.cpp:141] Setting up inception_5a/1x1
I0403 19:34:07.073004  9396 net.cpp:148] Top shape: 24 256 7 7 (301056)
I0403 19:34:07.073020  9396 net.cpp:156] Memory required for data: 1293329952
I0403 19:34:07.073040  9396 layer_factory.hpp:77] Creating layer inception_5a/relu_1x1
I0403 19:34:07.073060  9396 net.cpp:91] Creating Layer inception_5a/relu_1x1
I0403 19:34:07.073076  9396 net.cpp:425] inception_5a/relu_1x1 <- inception_5a/1x1
I0403 19:34:07.073098  9396 net.cpp:386] inception_5a/relu_1x1 -> inception_5a/1x1 (in-place)
I0403 19:34:07.073441  9396 net.cpp:141] Setting up inception_5a/relu_1x1
I0403 19:34:07.073470  9396 net.cpp:148] Top shape: 24 256 7 7 (301056)
I0403 19:34:07.073485  9396 net.cpp:156] Memory required for data: 1294534176
I0403 19:34:07.073501  9396 layer_factory.hpp:77] Creating layer inception_5a/3x3_reduce
I0403 19:34:07.073525  9396 net.cpp:91] Creating Layer inception_5a/3x3_reduce
I0403 19:34:07.073544  9396 net.cpp:425] inception_5a/3x3_reduce <- pool4/3x3_s2_pool4/3x3_s2_0_split_1
I0403 19:34:07.073567  9396 net.cpp:399] inception_5a/3x3_reduce -> inception_5a/3x3_reduce
I0403 19:34:07.076197  9396 net.cpp:141] Setting up inception_5a/3x3_reduce
I0403 19:34:07.076231  9396 net.cpp:148] Top shape: 24 160 7 7 (188160)
I0403 19:34:07.076246  9396 net.cpp:156] Memory required for data: 1295286816
I0403 19:34:07.076267  9396 layer_factory.hpp:77] Creating layer inception_5a/relu_3x3_reduce
I0403 19:34:07.076294  9396 net.cpp:91] Creating Layer inception_5a/relu_3x3_reduce
I0403 19:34:07.076314  9396 net.cpp:425] inception_5a/relu_3x3_reduce <- inception_5a/3x3_reduce
I0403 19:34:07.076333  9396 net.cpp:386] inception_5a/relu_3x3_reduce -> inception_5a/3x3_reduce (in-place)
I0403 19:34:07.076532  9396 net.cpp:141] Setting up inception_5a/relu_3x3_reduce
I0403 19:34:07.076560  9396 net.cpp:148] Top shape: 24 160 7 7 (188160)
I0403 19:34:07.076575  9396 net.cpp:156] Memory required for data: 1296039456
I0403 19:34:07.076591  9396 layer_factory.hpp:77] Creating layer inception_5a/3x3
I0403 19:34:07.076617  9396 net.cpp:91] Creating Layer inception_5a/3x3
I0403 19:34:07.076635  9396 net.cpp:425] inception_5a/3x3 <- inception_5a/3x3_reduce
I0403 19:34:07.076658  9396 net.cpp:399] inception_5a/3x3 -> inception_5a/3x3
I0403 19:34:07.082013  9396 net.cpp:141] Setting up inception_5a/3x3
I0403 19:34:07.082046  9396 net.cpp:148] Top shape: 24 320 7 7 (376320)
I0403 19:34:07.082062  9396 net.cpp:156] Memory required for data: 1297544736
I0403 19:34:07.082082  9396 layer_factory.hpp:77] Creating layer inception_5a/relu_3x3
I0403 19:34:07.082099  9396 net.cpp:91] Creating Layer inception_5a/relu_3x3
I0403 19:34:07.082115  9396 net.cpp:425] inception_5a/relu_3x3 <- inception_5a/3x3
I0403 19:34:07.082135  9396 net.cpp:386] inception_5a/relu_3x3 -> inception_5a/3x3 (in-place)
I0403 19:34:07.082438  9396 net.cpp:141] Setting up inception_5a/relu_3x3
I0403 19:34:07.082468  9396 net.cpp:148] Top shape: 24 320 7 7 (376320)
I0403 19:34:07.082484  9396 net.cpp:156] Memory required for data: 1299050016
I0403 19:34:07.082510  9396 layer_factory.hpp:77] Creating layer inception_5a/5x5_reduce
I0403 19:34:07.082535  9396 net.cpp:91] Creating Layer inception_5a/5x5_reduce
I0403 19:34:07.082553  9396 net.cpp:425] inception_5a/5x5_reduce <- pool4/3x3_s2_pool4/3x3_s2_0_split_2
I0403 19:34:07.082574  9396 net.cpp:399] inception_5a/5x5_reduce -> inception_5a/5x5_reduce
I0403 19:34:07.083772  9396 net.cpp:141] Setting up inception_5a/5x5_reduce
I0403 19:34:07.083802  9396 net.cpp:148] Top shape: 24 32 7 7 (37632)
I0403 19:34:07.083818  9396 net.cpp:156] Memory required for data: 1299200544
I0403 19:34:07.083837  9396 layer_factory.hpp:77] Creating layer inception_5a/relu_5x5_reduce
I0403 19:34:07.083856  9396 net.cpp:91] Creating Layer inception_5a/relu_5x5_reduce
I0403 19:34:07.083873  9396 net.cpp:425] inception_5a/relu_5x5_reduce <- inception_5a/5x5_reduce
I0403 19:34:07.083892  9396 net.cpp:386] inception_5a/relu_5x5_reduce -> inception_5a/5x5_reduce (in-place)
I0403 19:34:07.084194  9396 net.cpp:141] Setting up inception_5a/relu_5x5_reduce
I0403 19:34:07.084220  9396 net.cpp:148] Top shape: 24 32 7 7 (37632)
I0403 19:34:07.084236  9396 net.cpp:156] Memory required for data: 1299351072
I0403 19:34:07.084250  9396 layer_factory.hpp:77] Creating layer inception_5a/5x5
I0403 19:34:07.084276  9396 net.cpp:91] Creating Layer inception_5a/5x5
I0403 19:34:07.084296  9396 net.cpp:425] inception_5a/5x5 <- inception_5a/5x5_reduce
I0403 19:34:07.084317  9396 net.cpp:399] inception_5a/5x5 -> inception_5a/5x5
I0403 19:34:07.086158  9396 net.cpp:141] Setting up inception_5a/5x5
I0403 19:34:07.086201  9396 net.cpp:148] Top shape: 24 128 7 7 (150528)
I0403 19:34:07.086218  9396 net.cpp:156] Memory required for data: 1299953184
I0403 19:34:07.086237  9396 layer_factory.hpp:77] Creating layer inception_5a/relu_5x5
I0403 19:34:07.086256  9396 net.cpp:91] Creating Layer inception_5a/relu_5x5
I0403 19:34:07.086275  9396 net.cpp:425] inception_5a/relu_5x5 <- inception_5a/5x5
I0403 19:34:07.086297  9396 net.cpp:386] inception_5a/relu_5x5 -> inception_5a/5x5 (in-place)
I0403 19:34:07.086485  9396 net.cpp:141] Setting up inception_5a/relu_5x5
I0403 19:34:07.086511  9396 net.cpp:148] Top shape: 24 128 7 7 (150528)
I0403 19:34:07.086525  9396 net.cpp:156] Memory required for data: 1300555296
I0403 19:34:07.086552  9396 layer_factory.hpp:77] Creating layer inception_5a/pool
I0403 19:34:07.086570  9396 net.cpp:91] Creating Layer inception_5a/pool
I0403 19:34:07.086587  9396 net.cpp:425] inception_5a/pool <- pool4/3x3_s2_pool4/3x3_s2_0_split_3
I0403 19:34:07.086612  9396 net.cpp:399] inception_5a/pool -> inception_5a/pool
I0403 19:34:07.086686  9396 net.cpp:141] Setting up inception_5a/pool
I0403 19:34:07.086711  9396 net.cpp:148] Top shape: 24 832 7 7 (978432)
I0403 19:34:07.086726  9396 net.cpp:156] Memory required for data: 1304469024
I0403 19:34:07.086741  9396 layer_factory.hpp:77] Creating layer inception_5a/pool_proj
I0403 19:34:07.086766  9396 net.cpp:91] Creating Layer inception_5a/pool_proj
I0403 19:34:07.086784  9396 net.cpp:425] inception_5a/pool_proj <- inception_5a/pool
I0403 19:34:07.086804  9396 net.cpp:399] inception_5a/pool_proj -> inception_5a/pool_proj
I0403 19:34:07.089109  9396 net.cpp:141] Setting up inception_5a/pool_proj
I0403 19:34:07.089144  9396 net.cpp:148] Top shape: 24 128 7 7 (150528)
I0403 19:34:07.089161  9396 net.cpp:156] Memory required for data: 1305071136
I0403 19:34:07.089180  9396 layer_factory.hpp:77] Creating layer inception_5a/relu_pool_proj
I0403 19:34:07.089210  9396 net.cpp:91] Creating Layer inception_5a/relu_pool_proj
I0403 19:34:07.089227  9396 net.cpp:425] inception_5a/relu_pool_proj <- inception_5a/pool_proj
I0403 19:34:07.089246  9396 net.cpp:386] inception_5a/relu_pool_proj -> inception_5a/pool_proj (in-place)
I0403 19:34:07.089587  9396 net.cpp:141] Setting up inception_5a/relu_pool_proj
I0403 19:34:07.089617  9396 net.cpp:148] Top shape: 24 128 7 7 (150528)
I0403 19:34:07.089632  9396 net.cpp:156] Memory required for data: 1305673248
I0403 19:34:07.089648  9396 layer_factory.hpp:77] Creating layer inception_5a/output
I0403 19:34:07.089665  9396 net.cpp:91] Creating Layer inception_5a/output
I0403 19:34:07.089681  9396 net.cpp:425] inception_5a/output <- inception_5a/1x1
I0403 19:34:07.089699  9396 net.cpp:425] inception_5a/output <- inception_5a/3x3
I0403 19:34:07.089715  9396 net.cpp:425] inception_5a/output <- inception_5a/5x5
I0403 19:34:07.089730  9396 net.cpp:425] inception_5a/output <- inception_5a/pool_proj
I0403 19:34:07.089746  9396 net.cpp:399] inception_5a/output -> inception_5a/output
I0403 19:34:07.089798  9396 net.cpp:141] Setting up inception_5a/output
I0403 19:34:07.089823  9396 net.cpp:148] Top shape: 24 832 7 7 (978432)
I0403 19:34:07.089838  9396 net.cpp:156] Memory required for data: 1309586976
I0403 19:34:07.089851  9396 layer_factory.hpp:77] Creating layer inception_5a/output_inception_5a/output_0_split
I0403 19:34:07.089870  9396 net.cpp:91] Creating Layer inception_5a/output_inception_5a/output_0_split
I0403 19:34:07.089892  9396 net.cpp:425] inception_5a/output_inception_5a/output_0_split <- inception_5a/output
I0403 19:34:07.089911  9396 net.cpp:399] inception_5a/output_inception_5a/output_0_split -> inception_5a/output_inception_5a/output_0_split_0
I0403 19:34:07.089931  9396 net.cpp:399] inception_5a/output_inception_5a/output_0_split -> inception_5a/output_inception_5a/output_0_split_1
I0403 19:34:07.089951  9396 net.cpp:399] inception_5a/output_inception_5a/output_0_split -> inception_5a/output_inception_5a/output_0_split_2
I0403 19:34:07.089970  9396 net.cpp:399] inception_5a/output_inception_5a/output_0_split -> inception_5a/output_inception_5a/output_0_split_3
I0403 19:34:07.090085  9396 net.cpp:141] Setting up inception_5a/output_inception_5a/output_0_split
I0403 19:34:07.090109  9396 net.cpp:148] Top shape: 24 832 7 7 (978432)
I0403 19:34:07.090126  9396 net.cpp:148] Top shape: 24 832 7 7 (978432)
I0403 19:34:07.090140  9396 net.cpp:148] Top shape: 24 832 7 7 (978432)
I0403 19:34:07.090155  9396 net.cpp:148] Top shape: 24 832 7 7 (978432)
I0403 19:34:07.090169  9396 net.cpp:156] Memory required for data: 1325241888
I0403 19:34:07.090189  9396 layer_factory.hpp:77] Creating layer inception_5b/1x1
I0403 19:34:07.090211  9396 net.cpp:91] Creating Layer inception_5b/1x1
I0403 19:34:07.090229  9396 net.cpp:425] inception_5b/1x1 <- inception_5a/output_inception_5a/output_0_split_0
I0403 19:34:07.090250  9396 net.cpp:399] inception_5b/1x1 -> inception_5b/1x1
I0403 19:34:07.094141  9396 net.cpp:141] Setting up inception_5b/1x1
I0403 19:34:07.094172  9396 net.cpp:148] Top shape: 24 384 7 7 (451584)
I0403 19:34:07.094192  9396 net.cpp:156] Memory required for data: 1327048224
I0403 19:34:07.094211  9396 layer_factory.hpp:77] Creating layer inception_5b/relu_1x1
I0403 19:34:07.094233  9396 net.cpp:91] Creating Layer inception_5b/relu_1x1
I0403 19:34:07.094251  9396 net.cpp:425] inception_5b/relu_1x1 <- inception_5b/1x1
I0403 19:34:07.094269  9396 net.cpp:386] inception_5b/relu_1x1 -> inception_5b/1x1 (in-place)
I0403 19:34:07.094604  9396 net.cpp:141] Setting up inception_5b/relu_1x1
I0403 19:34:07.094630  9396 net.cpp:148] Top shape: 24 384 7 7 (451584)
I0403 19:34:07.094645  9396 net.cpp:156] Memory required for data: 1328854560
I0403 19:34:07.094660  9396 layer_factory.hpp:77] Creating layer inception_5b/3x3_reduce
I0403 19:34:07.094687  9396 net.cpp:91] Creating Layer inception_5b/3x3_reduce
I0403 19:34:07.094705  9396 net.cpp:425] inception_5b/3x3_reduce <- inception_5a/output_inception_5a/output_0_split_1
I0403 19:34:07.094724  9396 net.cpp:399] inception_5b/3x3_reduce -> inception_5b/3x3_reduce
I0403 19:34:07.097481  9396 net.cpp:141] Setting up inception_5b/3x3_reduce
I0403 19:34:07.097517  9396 net.cpp:148] Top shape: 24 192 7 7 (225792)
I0403 19:34:07.097534  9396 net.cpp:156] Memory required for data: 1329757728
I0403 19:34:07.097555  9396 layer_factory.hpp:77] Creating layer inception_5b/relu_3x3_reduce
I0403 19:34:07.097586  9396 net.cpp:91] Creating Layer inception_5b/relu_3x3_reduce
I0403 19:34:07.097602  9396 net.cpp:425] inception_5b/relu_3x3_reduce <- inception_5b/3x3_reduce
I0403 19:34:07.097620  9396 net.cpp:386] inception_5b/relu_3x3_reduce -> inception_5b/3x3_reduce (in-place)
I0403 19:34:07.097821  9396 net.cpp:141] Setting up inception_5b/relu_3x3_reduce
I0403 19:34:07.097849  9396 net.cpp:148] Top shape: 24 192 7 7 (225792)
I0403 19:34:07.097877  9396 net.cpp:156] Memory required for data: 1330660896
I0403 19:34:07.097894  9396 layer_factory.hpp:77] Creating layer inception_5b/3x3
I0403 19:34:07.097918  9396 net.cpp:91] Creating Layer inception_5b/3x3
I0403 19:34:07.097937  9396 net.cpp:425] inception_5b/3x3 <- inception_5b/3x3_reduce
I0403 19:34:07.097961  9396 net.cpp:399] inception_5b/3x3 -> inception_5b/3x3
I0403 19:34:07.105060  9396 net.cpp:141] Setting up inception_5b/3x3
I0403 19:34:07.105093  9396 net.cpp:148] Top shape: 24 384 7 7 (451584)
I0403 19:34:07.105111  9396 net.cpp:156] Memory required for data: 1332467232
I0403 19:34:07.105131  9396 layer_factory.hpp:77] Creating layer inception_5b/relu_3x3
I0403 19:34:07.105151  9396 net.cpp:91] Creating Layer inception_5b/relu_3x3
I0403 19:34:07.105170  9396 net.cpp:425] inception_5b/relu_3x3 <- inception_5b/3x3
I0403 19:34:07.105192  9396 net.cpp:386] inception_5b/relu_3x3 -> inception_5b/3x3 (in-place)
I0403 19:34:07.105525  9396 net.cpp:141] Setting up inception_5b/relu_3x3
I0403 19:34:07.105557  9396 net.cpp:148] Top shape: 24 384 7 7 (451584)
I0403 19:34:07.105587  9396 net.cpp:156] Memory required for data: 1334273568
I0403 19:34:07.105602  9396 layer_factory.hpp:77] Creating layer inception_5b/5x5_reduce
I0403 19:34:07.105641  9396 net.cpp:91] Creating Layer inception_5b/5x5_reduce
I0403 19:34:07.105660  9396 net.cpp:425] inception_5b/5x5_reduce <- inception_5a/output_inception_5a/output_0_split_2
I0403 19:34:07.105680  9396 net.cpp:399] inception_5b/5x5_reduce -> inception_5b/5x5_reduce
I0403 19:34:07.106999  9396 net.cpp:141] Setting up inception_5b/5x5_reduce
I0403 19:34:07.107031  9396 net.cpp:148] Top shape: 24 48 7 7 (56448)
I0403 19:34:07.107049  9396 net.cpp:156] Memory required for data: 1334499360
I0403 19:34:07.107069  9396 layer_factory.hpp:77] Creating layer inception_5b/relu_5x5_reduce
I0403 19:34:07.107089  9396 net.cpp:91] Creating Layer inception_5b/relu_5x5_reduce
I0403 19:34:07.107107  9396 net.cpp:425] inception_5b/relu_5x5_reduce <- inception_5b/5x5_reduce
I0403 19:34:07.107128  9396 net.cpp:386] inception_5b/relu_5x5_reduce -> inception_5b/5x5_reduce (in-place)
I0403 19:34:07.107517  9396 net.cpp:141] Setting up inception_5b/relu_5x5_reduce
I0403 19:34:07.107545  9396 net.cpp:148] Top shape: 24 48 7 7 (56448)
I0403 19:34:07.107560  9396 net.cpp:156] Memory required for data: 1334725152
I0403 19:34:07.107575  9396 layer_factory.hpp:77] Creating layer inception_5b/5x5
I0403 19:34:07.107596  9396 net.cpp:91] Creating Layer inception_5b/5x5
I0403 19:34:07.107614  9396 net.cpp:425] inception_5b/5x5 <- inception_5b/5x5_reduce
I0403 19:34:07.107633  9396 net.cpp:399] inception_5b/5x5 -> inception_5b/5x5
I0403 19:34:07.109884  9396 net.cpp:141] Setting up inception_5b/5x5
I0403 19:34:07.109915  9396 net.cpp:148] Top shape: 24 128 7 7 (150528)
I0403 19:34:07.109931  9396 net.cpp:156] Memory required for data: 1335327264
I0403 19:34:07.109951  9396 layer_factory.hpp:77] Creating layer inception_5b/relu_5x5
I0403 19:34:07.109968  9396 net.cpp:91] Creating Layer inception_5b/relu_5x5
I0403 19:34:07.109985  9396 net.cpp:425] inception_5b/relu_5x5 <- inception_5b/5x5
I0403 19:34:07.110007  9396 net.cpp:386] inception_5b/relu_5x5 -> inception_5b/5x5 (in-place)
I0403 19:34:07.110208  9396 net.cpp:141] Setting up inception_5b/relu_5x5
I0403 19:34:07.110234  9396 net.cpp:148] Top shape: 24 128 7 7 (150528)
I0403 19:34:07.110249  9396 net.cpp:156] Memory required for data: 1335929376
I0403 19:34:07.110263  9396 layer_factory.hpp:77] Creating layer inception_5b/pool
I0403 19:34:07.110290  9396 net.cpp:91] Creating Layer inception_5b/pool
I0403 19:34:07.110308  9396 net.cpp:425] inception_5b/pool <- inception_5a/output_inception_5a/output_0_split_3
I0403 19:34:07.110327  9396 net.cpp:399] inception_5b/pool -> inception_5b/pool
I0403 19:34:07.110405  9396 net.cpp:141] Setting up inception_5b/pool
I0403 19:34:07.110431  9396 net.cpp:148] Top shape: 24 832 7 7 (978432)
I0403 19:34:07.110446  9396 net.cpp:156] Memory required for data: 1339843104
I0403 19:34:07.110461  9396 layer_factory.hpp:77] Creating layer inception_5b/pool_proj
I0403 19:34:07.110484  9396 net.cpp:91] Creating Layer inception_5b/pool_proj
I0403 19:34:07.110502  9396 net.cpp:425] inception_5b/pool_proj <- inception_5b/pool
I0403 19:34:07.110524  9396 net.cpp:399] inception_5b/pool_proj -> inception_5b/pool_proj
I0403 19:34:07.112988  9396 net.cpp:141] Setting up inception_5b/pool_proj
I0403 19:34:07.113023  9396 net.cpp:148] Top shape: 24 128 7 7 (150528)
I0403 19:34:07.113041  9396 net.cpp:156] Memory required for data: 1340445216
I0403 19:34:07.113061  9396 layer_factory.hpp:77] Creating layer inception_5b/relu_pool_proj
I0403 19:34:07.113080  9396 net.cpp:91] Creating Layer inception_5b/relu_pool_proj
I0403 19:34:07.113097  9396 net.cpp:425] inception_5b/relu_pool_proj <- inception_5b/pool_proj
I0403 19:34:07.113117  9396 net.cpp:386] inception_5b/relu_pool_proj -> inception_5b/pool_proj (in-place)
I0403 19:34:07.113446  9396 net.cpp:141] Setting up inception_5b/relu_pool_proj
I0403 19:34:07.113477  9396 net.cpp:148] Top shape: 24 128 7 7 (150528)
I0403 19:34:07.113494  9396 net.cpp:156] Memory required for data: 1341047328
I0403 19:34:07.113510  9396 layer_factory.hpp:77] Creating layer inception_5b/output
I0403 19:34:07.113529  9396 net.cpp:91] Creating Layer inception_5b/output
I0403 19:34:07.113562  9396 net.cpp:425] inception_5b/output <- inception_5b/1x1
I0403 19:34:07.113592  9396 net.cpp:425] inception_5b/output <- inception_5b/3x3
I0403 19:34:07.113610  9396 net.cpp:425] inception_5b/output <- inception_5b/5x5
I0403 19:34:07.113626  9396 net.cpp:425] inception_5b/output <- inception_5b/pool_proj
I0403 19:34:07.113646  9396 net.cpp:399] inception_5b/output -> inception_5b/output
I0403 19:34:07.113699  9396 net.cpp:141] Setting up inception_5b/output
I0403 19:34:07.113724  9396 net.cpp:148] Top shape: 24 1024 7 7 (1204224)
I0403 19:34:07.113739  9396 net.cpp:156] Memory required for data: 1345864224
I0403 19:34:07.113754  9396 layer_factory.hpp:77] Creating layer pool5/7x7_s1
I0403 19:34:07.113775  9396 net.cpp:91] Creating Layer pool5/7x7_s1
I0403 19:34:07.113793  9396 net.cpp:425] pool5/7x7_s1 <- inception_5b/output
I0403 19:34:07.113812  9396 net.cpp:399] pool5/7x7_s1 -> pool5/7x7_s1
I0403 19:34:07.114034  9396 net.cpp:141] Setting up pool5/7x7_s1
I0403 19:34:07.114063  9396 net.cpp:148] Top shape: 24 1024 1 1 (24576)
I0403 19:34:07.114079  9396 net.cpp:156] Memory required for data: 1345962528
I0403 19:34:07.114094  9396 layer_factory.hpp:77] Creating layer pool5/drop_7x7_s1
I0403 19:34:07.114114  9396 net.cpp:91] Creating Layer pool5/drop_7x7_s1
I0403 19:34:07.114130  9396 net.cpp:425] pool5/drop_7x7_s1 <- pool5/7x7_s1
I0403 19:34:07.114150  9396 net.cpp:386] pool5/drop_7x7_s1 -> pool5/7x7_s1 (in-place)
I0403 19:34:07.114202  9396 net.cpp:141] Setting up pool5/drop_7x7_s1
I0403 19:34:07.114225  9396 net.cpp:148] Top shape: 24 1024 1 1 (24576)
I0403 19:34:07.114240  9396 net.cpp:156] Memory required for data: 1346060832
I0403 19:34:07.114255  9396 layer_factory.hpp:77] Creating layer loss3/classifier_plantvillage
I0403 19:34:07.114281  9396 net.cpp:91] Creating Layer loss3/classifier_plantvillage
I0403 19:34:07.114300  9396 net.cpp:425] loss3/classifier_plantvillage <- pool5/7x7_s1
I0403 19:34:07.114323  9396 net.cpp:399] loss3/classifier_plantvillage -> loss3/classifier_plantvillage
I0403 19:34:07.114766  9396 net.cpp:141] Setting up loss3/classifier_plantvillage
I0403 19:34:07.114792  9396 net.cpp:148] Top shape: 24 38 (912)
I0403 19:34:07.114809  9396 net.cpp:156] Memory required for data: 1346064480
I0403 19:34:07.114827  9396 layer_factory.hpp:77] Creating layer loss3/classifier_plantvillage_loss3/classifier_plantvillage_0_split
I0403 19:34:07.114848  9396 net.cpp:91] Creating Layer loss3/classifier_plantvillage_loss3/classifier_plantvillage_0_split
I0403 19:34:07.114864  9396 net.cpp:425] loss3/classifier_plantvillage_loss3/classifier_plantvillage_0_split <- loss3/classifier_plantvillage
I0403 19:34:07.114883  9396 net.cpp:399] loss3/classifier_plantvillage_loss3/classifier_plantvillage_0_split -> loss3/classifier_plantvillage_loss3/classifier_plantvillage_0_split_0
I0403 19:34:07.114904  9396 net.cpp:399] loss3/classifier_plantvillage_loss3/classifier_plantvillage_0_split -> loss3/classifier_plantvillage_loss3/classifier_plantvillage_0_split_1
I0403 19:34:07.114924  9396 net.cpp:399] loss3/classifier_plantvillage_loss3/classifier_plantvillage_0_split -> loss3/classifier_plantvillage_loss3/classifier_plantvillage_0_split_2
I0403 19:34:07.114945  9396 net.cpp:399] loss3/classifier_plantvillage_loss3/classifier_plantvillage_0_split -> loss3/classifier_plantvillage_loss3/classifier_plantvillage_0_split_3
I0403 19:34:07.115051  9396 net.cpp:141] Setting up loss3/classifier_plantvillage_loss3/classifier_plantvillage_0_split
I0403 19:34:07.115075  9396 net.cpp:148] Top shape: 24 38 (912)
I0403 19:34:07.115092  9396 net.cpp:148] Top shape: 24 38 (912)
I0403 19:34:07.115108  9396 net.cpp:148] Top shape: 24 38 (912)
I0403 19:34:07.115123  9396 net.cpp:148] Top shape: 24 38 (912)
I0403 19:34:07.115139  9396 net.cpp:156] Memory required for data: 1346079072
I0403 19:34:07.115152  9396 layer_factory.hpp:77] Creating layer loss1/loss
I0403 19:34:07.115175  9396 net.cpp:91] Creating Layer loss1/loss
I0403 19:34:07.115192  9396 net.cpp:425] loss1/loss <- loss1/classifier_plantvillage_loss1/classifier_plantvillage_0_split_0
I0403 19:34:07.115224  9396 net.cpp:425] loss1/loss <- label_data_1_split_0
…
