…
I0403 19:58:47.164546 10115 net.cpp:313] The NetState phase (1) differed from the phase (0) specified by a rule in layer data
I0403 19:58:47.165936 10115 net.cpp:49] Initializing net from parameters: 
state {
  phase: TEST
}
layer {
  name: "data"
  type: "Data"
  top: "data"
  top: "label"
  include {
    phase: TEST
  }
  transform_param {
    mirror: false
    crop_size: 224
    mean_file: "/home/mohanty/data/final_dataset/lmdb/color-50-50/mean.binaryproto"
  }
  data_param {
    source: "/home/mohanty/data/final_dataset/lmdb/color-50-50/test_db"
    batch_size: 24
    backend: LMDB
  }
}
layer {
  name: "conv1/7x7_s2"
  type: "Convolution"
  bottom: "data"
  top: "conv1/7x7_s2"
  param {
    lr_mult: 1
    decay_mult: 1
  }
  param {
    lr_mult: 2
    decay_mult: 0
  }
  convolution_param {
    num_output: 64
    pad: 3
    kernel_size: 7
    stride: 2
    weight_filler {
      type: "xavier"
      std: 0.1
    }
    bias_filler {
      type: "constant"
      value: 0.2
    }
  }
}
layer {
  name: "conv1/relu_7x7"
  type: "ReLU"
  bottom: "conv1/7x7_s2"
  top: "conv1/7x7_s2"
}
layer {
  name: "pool1/3x3_s2"
  type: "Pooling"
  bottom: "conv1/7x7_s2"
  top: "pool1/3x3_s2"
  pooling_param {
    pool: MAX
    kernel_size: 3
    stride: 2
  }
}
layer {
  name: "pool1/norm1"
  type: "LRN"
  bottom: "pool1/3x3_s2"
  top: "pool1/norm1"
  lrn_param {
    local_size: 5
    alpha: 0.0001
    beta: 0.75
  }
}
layer {
  name: "conv2/3x3_reduce"
  type: "Convolution"
  bottom: "pool1/norm1"
  top: "conv2/3x3_reduce"
  param {
    lr_mult: 1
    decay_mult: 1
  }
  param {
    lr_mult: 2
    decay_mult: 0
  }
  convolution_param {
    num_output: 64
    kernel_size: 1
    weight_filler {
      type: "xavier"
      std: 0.1
    }
    bias_filler {
      type: "constant"
      value: 0.2
    }
  }
}
layer {
  name: "conv2/relu_3x3_reduce"
  type: "ReLU"
  bottom: "conv2/3x3_reduce"
  top: "conv2/3x3_reduce"
}
layer {
  name: "conv2/3x3"
  type: "Convolution"
  bottom: "conv2/3x3_reduce"
  top: "conv2/3x3"
  param {
    lr_mult: 1
    decay_mult: 1
  }
  param {
    lr_mult: 2
    decay_mult: 0
  }
  convolution_param {
    num_output: 192
    pad: 1
    kernel_size: 3
    weight_filler {
      type: "xavier"
      std: 0.03
    }
    bias_filler {
      type: "constant"
      value: 0.2
    }
  }
}
layer {
  name: "conv2/relu_3x3"
  type: "ReLU"
  bottom: "conv2/3x3"
  top: "conv2/3x3"
}
layer {
  name: "conv2/norm2"
  type: "LRN"
  bottom: "conv2/3x3"
  top: "conv2/norm2"
  lrn_param {
    local_size: 5
    alpha: 0.0001
    beta: 0.75
  }
}
layer {
  name: "pool2/3x3_s2"
  type: "Pooling"
  bottom: "conv2/norm2"
  top: "pool2/3x3_s2"
  pooling_param {
    pool: MAX
    kernel_size: 3
    stride: 2
  }
}
layer {
  name: "inception_3a/1x1"
  type: "Convolution"
  bottom: "pool2/3x3_s2"
  top: "inception_3a/1x1"
  param {
    lr_mult: 1
    decay_mult: 1
  }
  param {
    lr_mult: 2
    decay_mult: 0
  }
  convolution_param {
    num_output: 64
    kernel_size: 1
    weight_filler {
      type: "xavier"
      std: 0.03
    }
    bias_filler {
      type: "constant"
      value: 0.2
    }
  }
}
layer {
  name: "inception_3a/relu_1x1"
  type: "ReLU"
  bottom: "inception_3a/1x1"
  top: "inception_3a/1x1"
}
layer {
  name: "inception_3a/3x3_reduce"
  type: "Convolution"
  bottom: "pool2/3x3_s2"
  top: "inception_3a/3x3_reduce"
  param {
    lr_mult: 1
    decay_mult: 1
  }
  param {
    lr_mult: 2
    decay_mult: 0
  }
  convolution_param {
    num_output: 96
    kernel_size: 1
    weight_filler {
      type: "xavier"
      std: 0.09
    }
    bias_filler {
      type: "constant"
      value: 0.2
    }
  }
}
layer {
  name: "inception_3a/relu_3x3_reduce"
  type: "ReLU"
  bottom: "inception_3a/3x3_reduce"
  top: "inception_3a/3x3_reduce"
}
layer {
  name: "inception_3a/3x3"
  type: "Convolution"
  bottom: "inception_3a/3x3_reduce"
  top: "inception_3a/3x3"
  param {
    lr_mult: 1
    decay_mult: 1
  }
  param {
    lr_mult: 2
    decay_mult: 0
  }
  convolution_param {
    num_output: 128
    pad: 1
    kernel_size: 3
    weight_filler {
      type: "xavier"
      std: 0.03
    }
    bias_filler {
      type: "constant"
      value: 0.2
    }
  }
}
layer {
  name: "inception_3a/relu_3x3"
  type: "ReLU"
  bottom: "inception_3a/3x3"
  top: "inception_3a/3x3"
}
layer {
  name: "inception_3a/5x5_reduce"
  type: "Convolution"
  bottom: "pool2/3x3_s2"
  top: "inception_3a/5x5_reduce"
  param {
    lr_mult: 1
    decay_mult: 1
  }
  param {
    lr_mult: 2
    decay_mult: 0
  }
  convolution_param {
    num_output: 16
    kernel_size: 1
    weight_filler {
      type: "xavier"
      std: 0.2
    }
    bias_filler {
      type: "constant"
      value: 0.2
    }
  }
}
layer {
  name: "inception_3a/relu_5x5_reduce"
  type: "ReLU"
  bottom: "inception_3a/5x5_reduce"
  top: "inception_3a/5x5_reduce"
}
layer {
  name: "inception_3a/5x5"
  type: "Convolution"
  bottom: "inception_3a/5x5_reduce"
  top: "inception_3a/5x5"
  param {
    lr_mult: 1
    decay_mult: 1
  }
  param {
    lr_mult: 2
    decay_mult: 0
  }
  convolution_param {
    num_output: 32
    pad: 2
    kernel_size: 5
    weight_filler {
      type: "xavier"
      std: 0.03
    }
    bias_filler {
      type: "constant"
      value: 0.2
    }
  }
}
layer {
  name: "inception_3a/relu_5x5"
  type: "ReLU"
  bottom: "inception_3a/5x5"
  top: "inception_3a/5x5"
}
layer {
  name: "inception_3a/pool"
  type: "Pooling"
  bottom: "pool2/3x3_s2"
  top: "inception_3a/pool"
  pooling_param {
    pool: MAX
    kernel_size: 3
    stride: 1
    pad: 1
  }
}
layer {
  name: "inception_3a/pool_proj"
  type: "Convolution"
  bottom: "inception_3a/pool"
  top: "inception_3a/pool_proj"
  param {
    lr_mult: 1
    decay_mult: 1
  }
  param {
    lr_mult: 2
    decay_mult: 0
  }
  convolution_param {
    num_output: 32
    kernel_size: 1
    weight_filler {
      type: "xavier"
      std: 0.1
    }
    bias_filler {
      type: "constant"
      value: 0.2
    }
  }
}
layer {
  name: "inception_3a/relu_pool_proj"
  type: "ReLU"
  bottom: "inception_3a/pool_proj"
  top: "inception_3a/pool_proj"
}
layer {
  name: "inception_3a/output"
  type: "Concat"
  bottom: "inception_3a/1x1"
  bottom: "inception_3a/3x3"
  bottom: "inception_3a/5x5"
  bottom: "inception_3a/pool_proj"
  top: "inception_3a/output"
}
layer {
  name: "inception_3b/1x1"
  type: "Convolution"
  bottom: "inception_3a/output"
  top: "inception_3b/1x1"
  param {
    lr_mult: 1
    decay_mult: 1
  }
  param {
    lr_mult: 2
    decay_mult: 0
  }
  convolution_param {
    num_output: 128
    kernel_size: 1
    weight_filler {
      type: "xavier"
      std: 0.03
    }
    bias_filler {
      type: "constant"
      value: 0.2
    }
  }
}
layer {
  name: "inception_3b/relu_1x1"
  type: "ReLU"
  bottom: "inception_3b/1x1"
  top: "inception_3b/1x1"
}
layer {
  name: "inception_3b/3x3_reduce"
  type: "Convolution"
  bottom: "inception_3a/output"
  top: "inception_3b/3x3_reduce"
  param {
    lr_mult: 1
    decay_mult: 1
  }
  param {
    lr_mult: 2
    decay_mult: 0
  }
  convolution_param {
    num_output: 128
    kernel_size: 1
    weight_filler {
      type: "xavier"
      std: 0.09
    }
    bias_filler {
      type: "constant"
      value: 0.2
    }
  }
}
layer {
  name: "inception_3b/relu_3x3_reduce"
  type: "ReLU"
  bottom: "inception_3b/3x3_reduce"
  top: "inception_3b/3x3_reduce"
}
layer {
  name: "inception_3b/3x3"
  type: "Convolution"
  bottom: "inception_3b/3x3_reduce"
  top: "inception_3b/3x3"
  param {
    lr_mult: 1
    decay_mult: 1
  }
  param {
    lr_mult: 2
    decay_mult: 0
  }
  convolution_param {
    num_output: 192
    pad: 1
    kernel_size: 3
    weight_filler {
      type: "xavier"
      std: 0.03
    }
    bias_filler {
      type: "constant"
      value: 0.2
    }
  }
}
layer {
  name: "inception_3b/relu_3x3"
  type: "ReLU"
  bottom: "inception_3b/3x3"
  top: "inception_3b/3x3"
}
layer {
  name: "inception_3b/5x5_reduce"
  type: "Convolution"
  bottom: "inception_3a/output"
  top: "inception_3b/5x5_reduce"
  param {
    lr_mult: 1
    decay_mult: 1
  }
  param {
    lr_mult: 2
    decay_mult: 0
  }
  convolution_param {
    num_output: 32
    kernel_size: 1
    weight_filler {
      type: "xavier"
      std: 0.2
    }
    bias_filler {
      type: "constant"
      value: 0.2
    }
  }
}
layer {
  name: "inception_3b/relu_5x5_reduce"
  type: "ReLU"
  bottom: "inception_3b/5x5_reduce"
  top: "inception_3b/5x5_reduce"
}
layer {
  name: "inception_3b/5x5"
  type: "Convolution"
  bottom: "inception_3b/5x5_reduce"
  top: "inception_3b/5x5"
  param {
    lr_mult: 1
    decay_mult: 1
  }
  param {
    lr_mult: 2
    decay_mult: 0
  }
  convolution_param {
    num_output: 96
    pad: 2
    kernel_size: 5
    weight_filler {
      type: "xavier"
      std: 0.03
    }
    bias_filler {
      type: "constant"
      value: 0.2
    }
  }
}
layer {
  name: "inception_3b/relu_5x5"
  type: "ReLU"
  bottom: "inception_3b/5x5"
  top: "inception_3b/5x5"
}
layer {
  name: "inception_3b/pool"
  type: "Pooling"
  bottom: "inception_3a/output"
  top: "inception_3b/pool"
  pooling_param {
    pool: MAX
    kernel_size: 3
    stride: 1
    pad: 1
  }
}
layer {
  name: "inception_3b/pool_proj"
  type: "Convolution"
  bottom: "inception_3b/pool"
  top: "inception_3b/pool_proj"
  param {
    lr_mult: 1
    decay_mult: 1
  }
  param {
    lr_mult: 2
    decay_mult: 0
  }
  convolution_param {
    num_output: 64
    kernel_size: 1
    weight_filler {
      type: "xavier"
      std: 0.1
    }
    bias_filler {
      type: "constant"
      value: 0.2
    }
  }
}
layer {
  name: "inception_3b/relu_pool_proj"
  type: "ReLU"
  bottom: "inception_3b/pool_proj"
  top: "inception_3b/pool_proj"
}
layer {
  name: "inception_3b/output"
  type: "Concat"
  bottom: "inception_3b/1x1"
  bottom: "inception_3b/3x3"
  bottom: "inception_3b/5x5"
  bottom: "inception_3b/pool_proj"
  top: "inception_3b/output"
}
layer {
  name: "pool3/3x3_s2"
  type: "Pooling"
  bottom: "inception_3b/output"
  top: "pool3/3x3_s2"
  pooling_param {
    pool: MAX
    kernel_size: 3
    stride: 2
  }
}
layer {
  name: "inception_4a/1x1"
  type: "Convolution"
  bottom: "pool3/3x3_s2"
  top: "inception_4a/1x1"
  param {
    lr_mult: 1
    decay_mult: 1
  }
  param {
    lr_mult: 2
    decay_mult: 0
  }
  convolution_param {
    num_output: 192
    kernel_size: 1
    weight_filler {
      type: "xavier"
      std: 0.03
    }
    bias_filler {
      type: "constant"
      value: 0.2
    }
  }
}
layer {
  name: "inception_4a/relu_1x1"
  type: "ReLU"
  bottom: "inception_4a/1x1"
  top: "inception_4a/1x1"
}
layer {
  name: "inception_4a/3x3_reduce"
  type: "Convolution"
  bottom: "pool3/3x3_s2"
  top: "inception_4a/3x3_reduce"
  param {
    lr_mult: 1
    decay_mult: 1
  }
  param {
    lr_mult: 2
    decay_mult: 0
  }
  convolution_param {
    num_output: 96
    kernel_size: 1
    weight_filler {
      type: "xavier"
      std: 0.09
    }
    bias_filler {
      type: "constant"
      value: 0.2
    }
  }
}
layer {
  name: "inception_4a/relu_3x3_reduce"
  type: "ReLU"
  bottom: "inception_4a/3x3_reduce"
  top: "inception_4a/3x3_reduce"
}
layer {
  name: "inception_4a/3x3"
  type: "Convolution"
  bottom: "inception_4a/3x3_reduce"
  top: "inception_4a/3x3"
  param {
    lr_mult: 1
    decay_mult: 1
  }
  param {
    lr_mult: 2
    decay_mult: 0
  }
  convolution_param {
    num_output: 208
    pad: 1
    kernel_size: 3
    weight_filler {
      type: "xavier"
      std: 0.03
    }
    bias_filler {
      type: "constant"
      value: 0.2
    }
  }
}
layer {
  name: "inception_4a/relu_3x3"
  type: "ReLU"
  bottom: "inception_4a/3x3"
  top: "inception_4a/3x3"
}
layer {
  name: "inception_4a/5x5_reduce"
  type: "Convolution"
  bottom: "pool3/3x3_s2"
  top: "inception_4a/5x5_reduce"
  param {
    lr_mult: 1
    decay_mult: 1
  }
  param {
    lr_mult: 2
    decay_mult: 0
  }
  convolution_param {
    num_output: 16
    kernel_size: 1
    weight_filler {
      type: "xavier"
      std: 0.2
    }
    bias_filler {
      type: "constant"
      value: 0.2
    }
  }
}
layer {
  name: "inception_4a/relu_5x5_reduce"
  type: "ReLU"
  bottom: "inception_4a/5x5_reduce"
  top: "inception_4a/5x5_reduce"
}
layer {
  name: "inception_4a/5x5"
  type: "Convolution"
  bottom: "inception_4a/5x5_reduce"
  top: "inception_4a/5x5"
  param {
    lr_mult: 1
    decay_mult: 1
  }
  param {
    lr_mult: 2
    decay_mult: 0
  }
  convolution_param {
    num_output: 48
    pad: 2
    kernel_size: 5
    weight_filler {
      type: "xavier"
      std: 0.03
    }
    bias_filler {
      type: "constant"
      value: 0.2
    }
  }
}
layer {
  name: "inception_4a/relu_5x5"
  type: "ReLU"
  bottom: "inception_4a/5x5"
  top: "inception_4a/5x5"
}
layer {
  name: "inception_4a/pool"
  type: "Pooling"
  bottom: "pool3/3x3_s2"
  top: "inception_4a/pool"
  pooling_param {
    pool: MAX
    kernel_size: 3
    stride: 1
    pad: 1
  }
}
layer {
  name: "inception_4a/pool_proj"
  type: "Convolution"
  bottom: "inception_4a/pool"
  top: "inception_4a/pool_proj"
  param {
    lr_mult: 1
    decay_mult: 1
  }
  param {
    lr_mult: 2
    decay_mult: 0
  }
  convolution_param {
    num_output: 64
    kernel_size: 1
    weight_filler {
      type: "xavier"
      std: 0.1
    }
    bias_filler {
      type: "constant"
      value: 0.2
    }
  }
}
layer {
  name: "inception_4a/relu_pool_proj"
  type: "ReLU"
  bottom: "inception_4a/pool_proj"
  top: "inception_4a/pool_proj"
}
layer {
  name: "inception_4a/output"
  type: "Concat"
  bottom: "inception_4a/1x1"
  bottom: "inception_4a/3x3"
  bottom: "inception_4a/5x5"
  bottom: "inception_4a/pool_proj"
  top: "inception_4a/output"
}
layer {
  name: "loss1/ave_pool"
  type: "Pooling"
  bottom: "inception_4a/output"
  top: "loss1/ave_pool"
  pooling_param {
    pool: AVE
    kernel_size: 5
    stride: 3
  }
}
layer {
  name: "loss1/conv"
  type: "Convolution"
  bottom: "loss1/ave_pool"
  top: "loss1/conv"
  param {
    lr_mult: 1
    decay_mult: 1
  }
  param {
    lr_mult: 2
    decay_mult: 0
  }
  convolution_param {
    num_output: 128
    kernel_size: 1
    weight_filler {
      type: "xavier"
      std: 0.08
    }
    bias_filler {
      type: "constant"
      value: 0.2
    }
  }
}
layer {
  name: "loss1/relu_conv"
  type: "ReLU"
  bottom: "loss1/conv"
  top: "loss1/conv"
}
layer {
  name: "loss1/fc"
  type: "InnerProduct"
  bottom: "loss1/conv"
  top: "loss1/fc"
  param {
    lr_mult: 1
    decay_mult: 1
  }
  param {
    lr_mult: 2
    decay_mult: 0
  }
  inner_product_param {
    num_output: 1024
    weight_filler {
      type: "xavier"
      std: 0.02
    }
    bias_filler {
      type: "constant"
      value: 0.2
    }
  }
}
layer {
  name: "loss1/relu_fc"
  type: "ReLU"
  bottom: "loss1/fc"
  top: "loss1/fc"
}
layer {
  name: "loss1/drop_fc"
  type: "Dropout"
  bottom: "loss1/fc"
  top: "loss1/fc"
  dropout_param {
    dropout_ratio: 0.7
  }
}
layer {
  name: "loss1/classifier_plantvillage"
  type: "InnerProduct"
  bottom: "loss1/fc"
  top: "loss1/classifier_plantvillage"
  param {
    lr_mult: 1
    decay_mult: 1
  }
  param {
    lr_mult: 2
    decay_mult: 0
  }
  inner_product_param {
    num_output: 38
    weight_filler {
      type: "xavier"
      std: 0.0009765625
    }
    bias_filler {
      type: "constant"
      value: 0
    }
  }
}
layer {
  name: "inception_4b/1x1"
  type: "Convolution"
  bottom: "inception_4a/output"
  top: "inception_4b/1x1"
  param {
    lr_mult: 1
    decay_mult: 1
  }
  param {
    lr_mult: 2
    decay_mult: 0
  }
  convolution_param {
    num_output: 160
    kernel_size: 1
    weight_filler {
      type: "xavier"
      std: 0.03
    }
    bias_filler {
      type: "constant"
      value: 0.2
    }
  }
}
layer {
  name: "inception_4b/relu_1x1"
  type: "ReLU"
  bottom: "inception_4b/1x1"
  top: "inception_4b/1x1"
}
layer {
  name: "inception_4b/3x3_reduce"
  type: "Convolution"
  bottom: "inception_4a/output"
  top: "inception_4b/3x3_reduce"
  param {
    lr_mult: 1
    decay_mult: 1
  }
  param {
    lr_mult: 2
    decay_mult: 0
  }
  convolution_param {
    num_output: 112
    kernel_size: 1
    weight_filler {
      type: "xavier"
      std: 0.09
    }
    bias_filler {
      type: "constant"
      value: 0.2
    }
  }
}
layer {
  name: "inception_4b/relu_3x3_reduce"
  type: "ReLU"
  bottom: "inception_4b/3x3_reduce"
  top: "inception_4b/3x3_reduce"
}
layer {
  name: "inception_4b/3x3"
  type: "Convolution"
  bottom: "inception_4b/3x3_reduce"
  top: "inception_4b/3x3"
  param {
    lr_mult: 1
    decay_mult: 1
  }
  param {
    lr_mult: 2
    decay_mult: 0
  }
  convolution_param {
    num_output: 224
    pad: 1
    kernel_size: 3
    weight_filler {
      type: "xavier"
      std: 0.03
    }
    bias_filler {
      type: "constant"
      value: 0.2
    }
  }
}
layer {
  name: "inception_4b/relu_3x3"
  type: "ReLU"
  bottom: "inception_4b/3x3"
  top: "inception_4b/3x3"
}
layer {
  name: "inception_4b/5x5_reduce"
  type: "Convolution"
  bottom: "inception_4a/output"
  top: "inception_4b/5x5_reduce"
  param {
    lr_mult: 1
    decay_mult: 1
  }
  param {
    lr_mult: 2
    decay_mult: 0
  }
  convolution_param {
    num_output: 24
    kernel_size: 1
    weight_filler {
      type: "xavier"
      std: 0.2
    }
    bias_filler {
      type: "constant"
      value: 0.2
    }
  }
}
layer {
  name: "inception_4b/relu_5x5_reduce"
  type: "ReLU"
  bottom: "inception_4b/5x5_reduce"
  top: "inception_4b/5x5_reduce"
}
layer {
  name: "inception_4b/5x5"
  type: "Convolution"
  bottom: "inception_4b/5x5_reduce"
  top: "inception_4b/5x5"
  param {
    lr_mult: 1
    decay_mult: 1
  }
  param {
    lr_mult: 2
    decay_mult: 0
  }
  convolution_param {
    num_output: 64
    pad: 2
    kernel_size: 5
    weight_filler {
      type: "xavier"
      std: 0.03
    }
    bias_filler {
      type: "constant"
      value: 0.2
    }
  }
}
layer {
  name: "inception_4b/relu_5x5"
  type: "ReLU"
  bottom: "inception_4b/5x5"
  top: "inception_4b/5x5"
}
layer {
  name: "inception_4b/pool"
  type: "Pooling"
  bottom: "inception_4a/output"
  top: "inception_4b/pool"
  pooling_param {
    pool: MAX
    kernel_size: 3
    stride: 1
    pad: 1
  }
}
layer {
  name: "inception_4b/pool_proj"
  type: "Convolution"
  bottom: "inception_4b/pool"
  top: "inception_4b/pool_proj"
  param {
    lr_mult: 1
    decay_mult: 1
  }
  param {
    lr_mult: 2
    decay_mult: 0
  }
  convolution_param {
    num_output: 64
    kernel_size: 1
    weight_filler {
      type: "xavier"
      std: 0.1
    }
    bias_filler {
      type: "constant"
      value: 0.2
    }
  }
}
layer {
  name: "inception_4b/relu_pool_proj"
  type: "ReLU"
  bottom: "inception_4b/pool_proj"
  top: "inception_4b/pool_proj"
}
layer {
  name: "inception_4b/output"
  type: "Concat"
  bottom: "inception_4b/1x1"
  bottom: "inception_4b/3x3"
  bottom: "inception_4b/5x5"
  bottom: "inception_4b/pool_proj"
  top: "inception_4b/output"
}
layer {
  name: "inception_4c/1x1"
  type: "Convolution"
  bottom: "inception_4b/output"
  top: "inception_4c/1x1"
  param {
    lr_mult: 1
    decay_mult: 1
  }
  param {
    lr_mult: 2
    decay_mult: 0
  }
  convolution_param {
    num_output: 128
    kernel_size: 1
    weight_filler {
      type: "xavier"
      std: 0.03
    }
    bias_filler {
      type: "constant"
      value: 0.2
    }
  }
}
layer {
  name: "inception_4c/relu_1x1"
  type: "ReLU"
  bottom: "inception_4c/1x1"
  top: "inception_4c/1x1"
}
layer {
  name: "inception_4c/3x3_reduce"
  type: "Convolution"
  bottom: "inception_4b/output"
  top: "inception_4c/3x3_reduce"
  param {
    lr_mult: 1
    decay_mult: 1
  }
  param {
    lr_mult: 2
    decay_mult: 0
  }
  convolution_param {
    num_output: 128
    kernel_size: 1
    weight_filler {
      type: "xavier"
      std: 0.09
    }
    bias_filler {
      type: "constant"
      value: 0.2
    }
  }
}
layer {
  name: "inception_4c/relu_3x3_reduce"
  type: "ReLU"
  bottom: "inception_4c/3x3_reduce"
  top: "inception_4c/3x3_reduce"
}
layer {
  name: "inception_4c/3x3"
  type: "Convolution"
  bottom: "inception_4c/3x3_reduce"
  top: "inception_4c/3x3"
  param {
    lr_mult: 1
    decay_mult: 1
  }
  param {
    lr_mult: 2
    decay_mult: 0
  }
  convolution_param {
    num_output: 256
    pad: 1
    kernel_size: 3
    weight_filler {
      type: "xavier"
      std: 0.03
    }
    bias_filler {
      type: "constant"
      value: 0.2
    }
  }
}
layer {
  name: "inception_4c/relu_3x3"
  type: "ReLU"
  bottom: "inception_4c/3x3"
  top: "inception_4c/3x3"
}
layer {
  name: "inception_4c/5x5_reduce"
  type: "Convolution"
  bottom: "inception_4b/output"
  top: "inception_4c/5x5_reduce"
  param {
    lr_mult: 1
    decay_mult: 1
  }
  param {
    lr_mult: 2
    decay_mult: 0
  }
  convolution_param {
    num_output: 24
    kernel_size: 1
    weight_filler {
      type: "xavier"
      std: 0.2
    }
    bias_filler {
      type: "constant"
      value: 0.2
    }
  }
}
layer {
  name: "inception_4c/relu_5x5_reduce"
  type: "ReLU"
  bottom: "inception_4c/5x5_reduce"
  top: "inception_4c/5x5_reduce"
}
layer {
  name: "inception_4c/5x5"
  type: "Convolution"
  bottom: "inception_4c/5x5_reduce"
  top: "inception_4c/5x5"
  param {
    lr_mult: 1
    decay_mult: 1
  }
  param {
    lr_mult: 2
    decay_mult: 0
  }
  convolution_param {
    num_output: 64
    pad: 2
    kernel_size: 5
    weight_filler {
      type: "xavier"
      std: 0.03
    }
    bias_filler {
      type: "constant"
      value: 0.2
    }
  }
}
layer {
  name: "inception_4c/relu_5x5"
  type: "ReLU"
  bottom: "inception_4c/5x5"
  top: "inception_4c/5x5"
}
layer {
  name: "inception_4c/pool"
  type: "Pooling"
  bottom: "inception_4b/output"
  top: "inception_4c/pool"
  pooling_param {
    pool: MAX
    kernel_size: 3
    stride: 1
    pad: 1
  }
}
layer {
  name: "inception_4c/pool_proj"
  type: "Convolution"
  bottom: "inception_4c/pool"
  top: "inception_4c/pool_proj"
  param {
    lr_mult: 1
    decay_mult: 1
  }
  param {
    lr_mult: 2
    decay_mult: 0
  }
  convolution_param {
    num_output: 64
    kernel_size: 1
    weight_filler {
      type: "xavier"
      std: 0.1
    }
    bias_filler {
      type: "constant"
      value: 0.2
    }
  }
}
layer {
  name: "inception_4c/relu_pool_proj"
  type: "ReLU"
  bottom: "inception_4c/pool_proj"
  top: "inception_4c/pool_proj"
}
layer {
  name: "inception_4c/output"
  type: "Concat"
  bottom: "inception_4c/1x1"
  bottom: "inception_4c/3x3"
  bottom: "inception_4c/5x5"
  bottom: "inception_4c/pool_proj"
  top: "inception_4c/output"
}
layer {
  name: "inception_4d/1x1"
  type: "Convolution"
  bottom: "inception_4c/output"
  top: "inception_4d/1x1"
  param {
    lr_mult: 1
    decay_mult: 1
  }
  param {
    lr_mult: 2
    decay_mult: 0
  }
  convolution_param {
    num_output: 112
    kernel_size: 1
    weight_filler {
      type: "xavier"
      std: 0.03
    }
    bias_filler {
      type: "constant"
      value: 0.2
    }
  }
}
layer {
  name: "inception_4d/relu_1x1"
  type: "ReLU"
  bottom: "inception_4d/1x1"
  top: "inception_4d/1x1"
}
layer {
  name: "inception_4d/3x3_reduce"
  type: "Convolution"
  bottom: "inception_4c/output"
  top: "inception_4d/3x3_reduce"
  param {
    lr_mult: 1
    decay_mult: 1
  }
  param {
    lr_mult: 2
    decay_mult: 0
  }
  convolution_param {
    num_output: 144
    kernel_size: 1
    weight_filler {
      type: "xavier"
      std: 0.09
    }
    bias_filler {
      type: "constant"
      value: 0.2
    }
  }
}
layer {
  name: "inception_4d/relu_3x3_reduce"
  type: "ReLU"
  bottom: "inception_4d/3x3_reduce"
  top: "inception_4d/3x3_reduce"
}
layer {
  name: "inception_4d/3x3"
  type: "Convolution"
  bottom: "inception_4d/3x3_reduce"
  top: "inception_4d/3x3"
  param {
    lr_mult: 1
    decay_mult: 1
  }
  param {
    lr_mult: 2
    decay_mult: 0
  }
  convolution_param {
    num_output: 288
    pad: 1
    kernel_size: 3
    weight_filler {
      type: "xavier"
      std: 0.03
    }
    bias_filler {
      type: "constant"
      value: 0.2
    }
  }
}
layer {
  name: "inception_4d/relu_3x3"
  type: "ReLU"
  bottom: "inception_4d/3x3"
  top: "inception_4d/3x3"
}
layer {
  name: "inception_4d/5x5_reduce"
  type: "Convolution"
  bottom: "inception_4c/output"
  top: "inception_4d/5x5_reduce"
  param {
    lr_mult: 1
    decay_mult: 1
  }
  param {
    lr_mult: 2
    decay_mult: 0
  }
  convolution_param {
    num_output: 32
    kernel_size: 1
    weight_filler {
      type: "xavier"
      std: 0.2
    }
    bias_filler {
      type: "constant"
      value: 0.2
    }
  }
}
layer {
  name: "inception_4d/relu_5x5_reduce"
  type: "ReLU"
  bottom: "inception_4d/5x5_reduce"
  top: "inception_4d/5x5_reduce"
}
layer {
  name: "inception_4d/5x5"
  type: "Convolution"
  bottom: "inception_4d/5x5_reduce"
  top: "inception_4d/5x5"
  param {
    lr_mult: 1
    decay_mult: 1
  }
  param {
    lr_mult: 2
    decay_mult: 0
  }
  convolution_param {
    num_output: 64
    pad: 2
    kernel_size: 5
    weight_filler {
      type: "xavier"
      std: 0.03
    }
    bias_filler {
      type: "constant"
      value: 0.2
    }
  }
}
layer {
  name: "inception_4d/relu_5x5"
  type: "ReLU"
  bottom: "inception_4d/5x5"
  top: "inception_4d/5x5"
}
layer {
  name: "inception_4d/pool"
  type: "Pooling"
  bottom: "inception_4c/output"
  top: "inception_4d/pool"
  pooling_param {
    pool: MAX
    kernel_size: 3
    stride: 1
    pad: 1
  }
}
layer {
  name: "inception_4d/pool_proj"
  type: "Convolution"
  bottom: "inception_4d/pool"
  top: "inception_4d/pool_proj"
  param {
    lr_mult: 1
    decay_mult: 1
  }
  param {
    lr_mult: 2
    decay_mult: 0
  }
  convolution_param {
    num_output: 64
    kernel_size: 1
    weight_filler {
      type: "xavier"
      std: 0.1
    }
    bias_filler {
      type: "constant"
      value: 0.2
    }
  }
}
layer {
  name: "inception_4d/relu_pool_proj"
  type: "ReLU"
  bottom: "inception_4d/pool_proj"
  top: "inception_4d/pool_proj"
}
layer {
  name: "inception_4d/output"
  type: "Concat"
  bottom: "inception_4d/1x1"
  bottom: "inception_4d/3x3"
  bottom: "inception_4d/5x5"
  bottom: "inception_4d/pool_proj"
  top: "inception_4d/output"
}
layer {
  name: "loss2/ave_pool"
  type: "Pooling"
  bottom: "inception_4d/output"
  top: "loss2/ave_pool"
  pooling_param {
    pool: AVE
    kernel_size: 5
    stride: 3
  }
}
layer {
  name: "loss2/conv"
  type: "Convolution"
  bottom: "loss2/ave_pool"
  top: "loss2/conv"
  param {
    lr_mult: 1
    decay_mult: 1
  }
  param {
    lr_mult: 2
    decay_mult: 0
  }
  convolution_param {
    num_output: 128
    kernel_size: 1
    weight_filler {
      type: "xavier"
      std: 0.08
    }
    bias_filler {
      type: "constant"
      value: 0.2
    }
  }
}
layer {
  name: "loss2/relu_conv"
  type: "ReLU"
  bottom: "loss2/conv"
  top: "loss2/conv"
}
layer {
  name: "loss2/fc"
  type: "InnerProduct"
  bottom: "loss2/conv"
  top: "loss2/fc"
  param {
    lr_mult: 1
    decay_mult: 1
  }
  param {
    lr_mult: 2
    decay_mult: 0
  }
  inner_product_param {
    num_output: 1024
    weight_filler {
      type: "xavier"
      std: 0.02
    }
    bias_filler {
      type: "constant"
      value: 0.2
    }
  }
}
layer {
  name: "loss2/relu_fc"
  type: "ReLU"
  bottom: "loss2/fc"
  top: "loss2/fc"
}
layer {
  name: "loss2/drop_fc"
  type: "Dropout"
  bottom: "loss2/fc"
  top: "loss2/fc"
  dropout_param {
    dropout_ratio: 0.7
  }
}
layer {
  name: "loss2/classifier_plantvillage"
  type: "InnerProduct"
  bottom: "loss2/fc"
  top: "loss2/classifier_plantvillage"
  param {
    lr_mult: 1
    decay_mult: 1
  }
  param {
    lr_mult: 2
    decay_mult: 0
  }
  inner_product_param {
    num_output: 38
    weight_filler {
      type: "xavier"
      std: 0.0009765625
    }
    bias_filler {
      type: "constant"
      value: 0
    }
  }
}
layer {
  name: "inception_4e/1x1"
  type: "Convolution"
  bottom: "inception_4d/output"
  top: "inception_4e/1x1"
  param {
    lr_mult: 1
    decay_mult: 1
  }
  param {
    lr_mult: 2
    decay_mult: 0
  }
  convolution_param {
    num_output: 256
    kernel_size: 1
    weight_filler {
      type: "xavier"
      std: 0.03
    }
    bias_filler {
      type: "constant"
      value: 0.2
    }
  }
}
layer {
  name: "inception_4e/relu_1x1"
  type: "ReLU"
  bottom: "inception_4e/1x1"
  top: "inception_4e/1x1"
}
layer {
  name: "inception_4e/3x3_reduce"
  type: "Convolution"
  bottom: "inception_4d/output"
  top: "inception_4e/3x3_reduce"
  param {
    lr_mult: 1
    decay_mult: 1
  }
  param {
    lr_mult: 2
    decay_mult: 0
  }
  convolution_param {
    num_output: 160
    kernel_size: 1
    weight_filler {
      type: "xavier"
      std: 0.09
    }
    bias_filler {
      type: "constant"
      value: 0.2
    }
  }
}
layer {
  name: "inception_4e/relu_3x3_reduce"
  type: "ReLU"
  bottom: "inception_4e/3x3_reduce"
  top: "inception_4e/3x3_reduce"
}
layer {
  name: "inception_4e/3x3"
  type: "Convolution"
  bottom: "inception_4e/3x3_reduce"
  top: "inception_4e/3x3"
  param {
    lr_mult: 1
    decay_mult: 1
  }
  param {
    lr_mult: 2
    decay_mult: 0
  }
  convolution_param {
    num_output: 320
    pad: 1
    kernel_size: 3
    weight_filler {
      type: "xavier"
      std: 0.03
    }
    bias_filler {
      type: "constant"
      value: 0.2
    }
  }
}
layer {
  name: "inception_4e/relu_3x3"
  type: "ReLU"
  bottom: "inception_4e/3x3"
  top: "inception_4e/3x3"
}
layer {
  name: "inception_4e/5x5_reduce"
  type: "Convolution"
  bottom: "inception_4d/output"
  top: "inception_4e/5x5_reduce"
  param {
    lr_mult: 1
    decay_mult: 1
  }
  param {
    lr_mult: 2
    decay_mult: 0
  }
  convolution_param {
    num_output: 32
    kernel_size: 1
    weight_filler {
      type: "xavier"
      std: 0.2
    }
    bias_filler {
      type: "constant"
      value: 0.2
    }
  }
}
layer {
  name: "inception_4e/relu_5x5_reduce"
  type: "ReLU"
  bottom: "inception_4e/5x5_reduce"
  top: "inception_4e/5x5_reduce"
}
layer {
  name: "inception_4e/5x5"
  type: "Convolution"
  bottom: "inception_4e/5x5_reduce"
  top: "inception_4e/5x5"
  p
I0403 19:58:47.168074 10115 layer_factory.hpp:77] Creating layer data
I0403 19:58:47.168810 10115 net.cpp:91] Creating Layer data
I0403 19:58:47.168846 10115 net.cpp:399] data -> data
I0403 19:58:47.168910 10115 net.cpp:399] data -> label
I0403 19:58:47.168952 10115 data_transformer.cpp:25] Loading mean file from: /home/mohanty/data/final_dataset/lmdb/color-50-50/mean.binaryproto
I0403 19:58:47.170159 10120 db_lmdb.cpp:38] Opened lmdb /home/mohanty/data/final_dataset/lmdb/color-50-50/test_db
I0403 19:58:47.185390 10115 data_layer.cpp:41] output data size: 24,3,224,224
I0403 19:58:47.217226 10115 net.cpp:141] Setting up data
I0403 19:58:47.217321 10115 net.cpp:148] Top shape: 24 3 224 224 (3612672)
I0403 19:58:47.217350 10115 net.cpp:148] Top shape: 24 (24)
I0403 19:58:47.217368 10115 net.cpp:156] Memory required for data: 14450784
I0403 19:58:47.217401 10115 layer_factory.hpp:77] Creating layer label_data_1_split
I0403 19:58:47.217432 10115 net.cpp:91] Creating Layer label_data_1_split
I0403 19:58:47.217455 10115 net.cpp:425] label_data_1_split <- label
I0403 19:58:47.217494 10115 net.cpp:399] label_data_1_split -> label_data_1_split_0
I0403 19:58:47.217527 10115 net.cpp:399] label_data_1_split -> label_data_1_split_1
I0403 19:58:47.217555 10115 net.cpp:399] label_data_1_split -> label_data_1_split_2
I0403 19:58:47.217581 10115 net.cpp:399] label_data_1_split -> label_data_1_split_3
I0403 19:58:47.217605 10115 net.cpp:399] label_data_1_split -> label_data_1_split_4
I0403 19:58:47.217629 10115 net.cpp:399] label_data_1_split -> label_data_1_split_5
I0403 19:58:47.217653 10115 net.cpp:399] label_data_1_split -> label_data_1_split_6
I0403 19:58:47.217679 10115 net.cpp:399] label_data_1_split -> label_data_1_split_7
I0403 19:58:47.217702 10115 net.cpp:399] label_data_1_split -> label_data_1_split_8
I0403 19:58:47.217727 10115 net.cpp:399] label_data_1_split -> label_data_1_split_9
I0403 19:58:47.217866 10115 net.cpp:141] Setting up label_data_1_split
I0403 19:58:47.217895 10115 net.cpp:148] Top shape: 24 (24)
I0403 19:58:47.217916 10115 net.cpp:148] Top shape: 24 (24)
I0403 19:58:47.217936 10115 net.cpp:148] Top shape: 24 (24)
I0403 19:58:47.217957 10115 net.cpp:148] Top shape: 24 (24)
I0403 19:58:47.217975 10115 net.cpp:148] Top shape: 24 (24)
I0403 19:58:47.217994 10115 net.cpp:148] Top shape: 24 (24)
I0403 19:58:47.218014 10115 net.cpp:148] Top shape: 24 (24)
I0403 19:58:47.218032 10115 net.cpp:148] Top shape: 24 (24)
I0403 19:58:47.218051 10115 net.cpp:148] Top shape: 24 (24)
I0403 19:58:47.218071 10115 net.cpp:148] Top shape: 24 (24)
I0403 19:58:47.218122 10115 net.cpp:156] Memory required for data: 14451744
I0403 19:58:47.218142 10115 layer_factory.hpp:77] Creating layer conv1/7x7_s2
I0403 19:58:47.218191 10115 net.cpp:91] Creating Layer conv1/7x7_s2
I0403 19:58:47.218217 10115 net.cpp:425] conv1/7x7_s2 <- data
I0403 19:58:47.218240 10115 net.cpp:399] conv1/7x7_s2 -> conv1/7x7_s2
I0403 19:58:47.381554 10115 net.cpp:141] Setting up conv1/7x7_s2
I0403 19:58:47.381644 10115 net.cpp:148] Top shape: 24 64 112 112 (19267584)
I0403 19:58:47.381665 10115 net.cpp:156] Memory required for data: 91522080
I0403 19:58:47.381702 10115 layer_factory.hpp:77] Creating layer conv1/relu_7x7
I0403 19:58:47.381736 10115 net.cpp:91] Creating Layer conv1/relu_7x7
I0403 19:58:47.381757 10115 net.cpp:425] conv1/relu_7x7 <- conv1/7x7_s2
I0403 19:58:47.381780 10115 net.cpp:386] conv1/relu_7x7 -> conv1/7x7_s2 (in-place)
I0403 19:58:47.382096 10115 net.cpp:141] Setting up conv1/relu_7x7
I0403 19:58:47.382128 10115 net.cpp:148] Top shape: 24 64 112 112 (19267584)
I0403 19:58:47.382148 10115 net.cpp:156] Memory required for data: 168592416
I0403 19:58:47.382167 10115 layer_factory.hpp:77] Creating layer pool1/3x3_s2
I0403 19:58:47.382199 10115 net.cpp:91] Creating Layer pool1/3x3_s2
I0403 19:58:47.382220 10115 net.cpp:425] pool1/3x3_s2 <- conv1/7x7_s2
I0403 19:58:47.382242 10115 net.cpp:399] pool1/3x3_s2 -> pool1/3x3_s2
I0403 19:58:47.382338 10115 net.cpp:141] Setting up pool1/3x3_s2
I0403 19:58:47.382369 10115 net.cpp:148] Top shape: 24 64 56 56 (4816896)
I0403 19:58:47.382386 10115 net.cpp:156] Memory required for data: 187860000
I0403 19:58:47.382405 10115 layer_factory.hpp:77] Creating layer pool1/norm1
I0403 19:58:47.382436 10115 net.cpp:91] Creating Layer pool1/norm1
I0403 19:58:47.382457 10115 net.cpp:425] pool1/norm1 <- pool1/3x3_s2
I0403 19:58:47.382478 10115 net.cpp:399] pool1/norm1 -> pool1/norm1
I0403 19:58:47.382848 10115 net.cpp:141] Setting up pool1/norm1
I0403 19:58:47.382884 10115 net.cpp:148] Top shape: 24 64 56 56 (4816896)
I0403 19:58:47.382904 10115 net.cpp:156] Memory required for data: 207127584
I0403 19:58:47.382922 10115 layer_factory.hpp:77] Creating layer conv2/3x3_reduce
I0403 19:58:47.382956 10115 net.cpp:91] Creating Layer conv2/3x3_reduce
I0403 19:58:47.382977 10115 net.cpp:425] conv2/3x3_reduce <- pool1/norm1
I0403 19:58:47.383002 10115 net.cpp:399] conv2/3x3_reduce -> conv2/3x3_reduce
I0403 19:58:47.384693 10115 net.cpp:141] Setting up conv2/3x3_reduce
I0403 19:58:47.384730 10115 net.cpp:148] Top shape: 24 64 56 56 (4816896)
I0403 19:58:47.384750 10115 net.cpp:156] Memory required for data: 226395168
I0403 19:58:47.384776 10115 layer_factory.hpp:77] Creating layer conv2/relu_3x3_reduce
I0403 19:58:47.384804 10115 net.cpp:91] Creating Layer conv2/relu_3x3_reduce
I0403 19:58:47.384824 10115 net.cpp:425] conv2/relu_3x3_reduce <- conv2/3x3_reduce
I0403 19:58:47.384846 10115 net.cpp:386] conv2/relu_3x3_reduce -> conv2/3x3_reduce (in-place)
I0403 19:58:47.385164 10115 net.cpp:141] Setting up conv2/relu_3x3_reduce
I0403 19:58:47.385196 10115 net.cpp:148] Top shape: 24 64 56 56 (4816896)
I0403 19:58:47.385216 10115 net.cpp:156] Memory required for data: 245662752
I0403 19:58:47.385236 10115 layer_factory.hpp:77] Creating layer conv2/3x3
I0403 19:58:47.385268 10115 net.cpp:91] Creating Layer conv2/3x3
I0403 19:58:47.385298 10115 net.cpp:425] conv2/3x3 <- conv2/3x3_reduce
I0403 19:58:47.385321 10115 net.cpp:399] conv2/3x3 -> conv2/3x3
I0403 19:58:47.388041 10115 net.cpp:141] Setting up conv2/3x3
I0403 19:58:47.388079 10115 net.cpp:148] Top shape: 24 192 56 56 (14450688)
I0403 19:58:47.388101 10115 net.cpp:156] Memory required for data: 303465504
I0403 19:58:47.388131 10115 layer_factory.hpp:77] Creating layer conv2/relu_3x3
I0403 19:58:47.388157 10115 net.cpp:91] Creating Layer conv2/relu_3x3
I0403 19:58:47.388178 10115 net.cpp:425] conv2/relu_3x3 <- conv2/3x3
I0403 19:58:47.388203 10115 net.cpp:386] conv2/relu_3x3 -> conv2/3x3 (in-place)
I0403 19:58:47.388430 10115 net.cpp:141] Setting up conv2/relu_3x3
I0403 19:58:47.388468 10115 net.cpp:148] Top shape: 24 192 56 56 (14450688)
I0403 19:58:47.388520 10115 net.cpp:156] Memory required for data: 361268256
I0403 19:58:47.388541 10115 layer_factory.hpp:77] Creating layer conv2/norm2
I0403 19:58:47.388564 10115 net.cpp:91] Creating Layer conv2/norm2
I0403 19:58:47.388583 10115 net.cpp:425] conv2/norm2 <- conv2/3x3
I0403 19:58:47.388608 10115 net.cpp:399] conv2/norm2 -> conv2/norm2
I0403 19:58:47.388973 10115 net.cpp:141] Setting up conv2/norm2
I0403 19:58:47.389006 10115 net.cpp:148] Top shape: 24 192 56 56 (14450688)
I0403 19:58:47.389025 10115 net.cpp:156] Memory required for data: 419071008
I0403 19:58:47.389045 10115 layer_factory.hpp:77] Creating layer pool2/3x3_s2
I0403 19:58:47.389067 10115 net.cpp:91] Creating Layer pool2/3x3_s2
I0403 19:58:47.389086 10115 net.cpp:425] pool2/3x3_s2 <- conv2/norm2
I0403 19:58:47.389113 10115 net.cpp:399] pool2/3x3_s2 -> pool2/3x3_s2
I0403 19:58:47.389178 10115 net.cpp:141] Setting up pool2/3x3_s2
I0403 19:58:47.389205 10115 net.cpp:148] Top shape: 24 192 28 28 (3612672)
I0403 19:58:47.389224 10115 net.cpp:156] Memory required for data: 433521696
I0403 19:58:47.389242 10115 layer_factory.hpp:77] Creating layer pool2/3x3_s2_pool2/3x3_s2_0_split
I0403 19:58:47.389266 10115 net.cpp:91] Creating Layer pool2/3x3_s2_pool2/3x3_s2_0_split
I0403 19:58:47.389293 10115 net.cpp:425] pool2/3x3_s2_pool2/3x3_s2_0_split <- pool2/3x3_s2
I0403 19:58:47.389318 10115 net.cpp:399] pool2/3x3_s2_pool2/3x3_s2_0_split -> pool2/3x3_s2_pool2/3x3_s2_0_split_0
I0403 19:58:47.389344 10115 net.cpp:399] pool2/3x3_s2_pool2/3x3_s2_0_split -> pool2/3x3_s2_pool2/3x3_s2_0_split_1
I0403 19:58:47.389369 10115 net.cpp:399] pool2/3x3_s2_pool2/3x3_s2_0_split -> pool2/3x3_s2_pool2/3x3_s2_0_split_2
I0403 19:58:47.389394 10115 net.cpp:399] pool2/3x3_s2_pool2/3x3_s2_0_split -> pool2/3x3_s2_pool2/3x3_s2_0_split_3
I0403 19:58:47.389478 10115 net.cpp:141] Setting up pool2/3x3_s2_pool2/3x3_s2_0_split
I0403 19:58:47.389509 10115 net.cpp:148] Top shape: 24 192 28 28 (3612672)
I0403 19:58:47.389530 10115 net.cpp:148] Top shape: 24 192 28 28 (3612672)
I0403 19:58:47.389550 10115 net.cpp:148] Top shape: 24 192 28 28 (3612672)
I0403 19:58:47.389570 10115 net.cpp:148] Top shape: 24 192 28 28 (3612672)
I0403 19:58:47.389587 10115 net.cpp:156] Memory required for data: 491324448
I0403 19:58:47.389605 10115 layer_factory.hpp:77] Creating layer inception_3a/1x1
I0403 19:58:47.389633 10115 net.cpp:91] Creating Layer inception_3a/1x1
I0403 19:58:47.389655 10115 net.cpp:425] inception_3a/1x1 <- pool2/3x3_s2_pool2/3x3_s2_0_split_0
I0403 19:58:47.389678 10115 net.cpp:399] inception_3a/1x1 -> inception_3a/1x1
I0403 19:58:47.391505 10115 net.cpp:141] Setting up inception_3a/1x1
I0403 19:58:47.391541 10115 net.cpp:148] Top shape: 24 64 28 28 (1204224)
I0403 19:58:47.391559 10115 net.cpp:156] Memory required for data: 496141344
I0403 19:58:47.391582 10115 layer_factory.hpp:77] Creating layer inception_3a/relu_1x1
I0403 19:58:47.391607 10115 net.cpp:91] Creating Layer inception_3a/relu_1x1
I0403 19:58:47.391629 10115 net.cpp:425] inception_3a/relu_1x1 <- inception_3a/1x1
I0403 19:58:47.391650 10115 net.cpp:386] inception_3a/relu_1x1 -> inception_3a/1x1 (in-place)
I0403 19:58:47.391861 10115 net.cpp:141] Setting up inception_3a/relu_1x1
I0403 19:58:47.391894 10115 net.cpp:148] Top shape: 24 64 28 28 (1204224)
I0403 19:58:47.391913 10115 net.cpp:156] Memory required for data: 500958240
I0403 19:58:47.391932 10115 layer_factory.hpp:77] Creating layer inception_3a/3x3_reduce
I0403 19:58:47.391959 10115 net.cpp:91] Creating Layer inception_3a/3x3_reduce
I0403 19:58:47.391979 10115 net.cpp:425] inception_3a/3x3_reduce <- pool2/3x3_s2_pool2/3x3_s2_0_split_1
I0403 19:58:47.392002 10115 net.cpp:399] inception_3a/3x3_reduce -> inception_3a/3x3_reduce
I0403 19:58:47.394028 10115 net.cpp:141] Setting up inception_3a/3x3_reduce
I0403 19:58:47.394065 10115 net.cpp:148] Top shape: 24 96 28 28 (1806336)
I0403 19:58:47.394084 10115 net.cpp:156] Memory required for data: 508183584
I0403 19:58:47.394114 10115 layer_factory.hpp:77] Creating layer inception_3a/relu_3x3_reduce
I0403 19:58:47.394168 10115 net.cpp:91] Creating Layer inception_3a/relu_3x3_reduce
I0403 19:58:47.394193 10115 net.cpp:425] inception_3a/relu_3x3_reduce <- inception_3a/3x3_reduce
I0403 19:58:47.394222 10115 net.cpp:386] inception_3a/relu_3x3_reduce -> inception_3a/3x3_reduce (in-place)
I0403 19:58:47.394448 10115 net.cpp:141] Setting up inception_3a/relu_3x3_reduce
I0403 19:58:47.394480 10115 net.cpp:148] Top shape: 24 96 28 28 (1806336)
I0403 19:58:47.394500 10115 net.cpp:156] Memory required for data: 515408928
I0403 19:58:47.394517 10115 layer_factory.hpp:77] Creating layer inception_3a/3x3
I0403 19:58:47.394546 10115 net.cpp:91] Creating Layer inception_3a/3x3
I0403 19:58:47.394568 10115 net.cpp:425] inception_3a/3x3 <- inception_3a/3x3_reduce
I0403 19:58:47.394595 10115 net.cpp:399] inception_3a/3x3 -> inception_3a/3x3
I0403 19:58:47.396642 10115 net.cpp:141] Setting up inception_3a/3x3
I0403 19:58:47.396679 10115 net.cpp:148] Top shape: 24 128 28 28 (2408448)
I0403 19:58:47.396699 10115 net.cpp:156] Memory required for data: 525042720
I0403 19:58:47.396723 10115 layer_factory.hpp:77] Creating layer inception_3a/relu_3x3
I0403 19:58:47.396744 10115 net.cpp:91] Creating Layer inception_3a/relu_3x3
I0403 19:58:47.396764 10115 net.cpp:425] inception_3a/relu_3x3 <- inception_3a/3x3
I0403 19:58:47.396785 10115 net.cpp:386] inception_3a/relu_3x3 -> inception_3a/3x3 (in-place)
I0403 19:58:47.397114 10115 net.cpp:141] Setting up inception_3a/relu_3x3
I0403 19:58:47.397150 10115 net.cpp:148] Top shape: 24 128 28 28 (2408448)
I0403 19:58:47.397169 10115 net.cpp:156] Memory required for data: 534676512
I0403 19:58:47.397187 10115 layer_factory.hpp:77] Creating layer inception_3a/5x5_reduce
I0403 19:58:47.397212 10115 net.cpp:91] Creating Layer inception_3a/5x5_reduce
I0403 19:58:47.397233 10115 net.cpp:425] inception_3a/5x5_reduce <- pool2/3x3_s2_pool2/3x3_s2_0_split_2
I0403 19:58:47.397258 10115 net.cpp:399] inception_3a/5x5_reduce -> inception_3a/5x5_reduce
I0403 19:58:47.398438 10115 net.cpp:141] Setting up inception_3a/5x5_reduce
I0403 19:58:47.398476 10115 net.cpp:148] Top shape: 24 16 28 28 (301056)
I0403 19:58:47.398496 10115 net.cpp:156] Memory required for data: 535880736
I0403 19:58:47.398519 10115 layer_factory.hpp:77] Creating layer inception_3a/relu_5x5_reduce
I0403 19:58:47.398542 10115 net.cpp:91] Creating Layer inception_3a/relu_5x5_reduce
I0403 19:58:47.398562 10115 net.cpp:425] inception_3a/relu_5x5_reduce <- inception_3a/5x5_reduce
I0403 19:58:47.398586 10115 net.cpp:386] inception_3a/relu_5x5_reduce -> inception_3a/5x5_reduce (in-place)
I0403 19:58:47.398934 10115 net.cpp:141] Setting up inception_3a/relu_5x5_reduce
I0403 19:58:47.398965 10115 net.cpp:148] Top shape: 24 16 28 28 (301056)
I0403 19:58:47.398984 10115 net.cpp:156] Memory required for data: 537084960
I0403 19:58:47.399003 10115 layer_factory.hpp:77] Creating layer inception_3a/5x5
I0403 19:58:47.399030 10115 net.cpp:91] Creating Layer inception_3a/5x5
I0403 19:58:47.399051 10115 net.cpp:425] inception_3a/5x5 <- inception_3a/5x5_reduce
I0403 19:58:47.399077 10115 net.cpp:399] inception_3a/5x5 -> inception_3a/5x5
I0403 19:58:47.400303 10115 net.cpp:141] Setting up inception_3a/5x5
I0403 19:58:47.400338 10115 net.cpp:148] Top shape: 24 32 28 28 (602112)
I0403 19:58:47.400358 10115 net.cpp:156] Memory required for data: 539493408
I0403 19:58:47.400382 10115 layer_factory.hpp:77] Creating layer inception_3a/relu_5x5
I0403 19:58:47.400408 10115 net.cpp:91] Creating Layer inception_3a/relu_5x5
I0403 19:58:47.400429 10115 net.cpp:425] inception_3a/relu_5x5 <- inception_3a/5x5
I0403 19:58:47.400450 10115 net.cpp:386] inception_3a/relu_5x5 -> inception_3a/5x5 (in-place)
I0403 19:58:47.400660 10115 net.cpp:141] Setting up inception_3a/relu_5x5
I0403 19:58:47.400693 10115 net.cpp:148] Top shape: 24 32 28 28 (602112)
I0403 19:58:47.400713 10115 net.cpp:156] Memory required for data: 541901856
I0403 19:58:47.400732 10115 layer_factory.hpp:77] Creating layer inception_3a/pool
I0403 19:58:47.400753 10115 net.cpp:91] Creating Layer inception_3a/pool
I0403 19:58:47.400774 10115 net.cpp:425] inception_3a/pool <- pool2/3x3_s2_pool2/3x3_s2_0_split_3
I0403 19:58:47.400816 10115 net.cpp:399] inception_3a/pool -> inception_3a/pool
I0403 19:58:47.400888 10115 net.cpp:141] Setting up inception_3a/pool
I0403 19:58:47.400918 10115 net.cpp:148] Top shape: 24 192 28 28 (3612672)
I0403 19:58:47.400936 10115 net.cpp:156] Memory required for data: 556352544
I0403 19:58:47.400954 10115 layer_factory.hpp:77] Creating layer inception_3a/pool_proj
I0403 19:58:47.400980 10115 net.cpp:91] Creating Layer inception_3a/pool_proj
I0403 19:58:47.401002 10115 net.cpp:425] inception_3a/pool_proj <- inception_3a/pool
I0403 19:58:47.401031 10115 net.cpp:399] inception_3a/pool_proj -> inception_3a/pool_proj
I0403 19:58:47.402189 10115 net.cpp:141] Setting up inception_3a/pool_proj
I0403 19:58:47.402225 10115 net.cpp:148] Top shape: 24 32 28 28 (602112)
I0403 19:58:47.402245 10115 net.cpp:156] Memory required for data: 558760992
I0403 19:58:47.402279 10115 layer_factory.hpp:77] Creating layer inception_3a/relu_pool_proj
I0403 19:58:47.402305 10115 net.cpp:91] Creating Layer inception_3a/relu_pool_proj
I0403 19:58:47.402325 10115 net.cpp:425] inception_3a/relu_pool_proj <- inception_3a/pool_proj
I0403 19:58:47.402348 10115 net.cpp:386] inception_3a/relu_pool_proj -> inception_3a/pool_proj (in-place)
I0403 19:58:47.402683 10115 net.cpp:141] Setting up inception_3a/relu_pool_proj
I0403 19:58:47.402719 10115 net.cpp:148] Top shape: 24 32 28 28 (602112)
I0403 19:58:47.402739 10115 net.cpp:156] Memory required for data: 561169440
I0403 19:58:47.402756 10115 layer_factory.hpp:77] Creating layer inception_3a/output
I0403 19:58:47.402779 10115 net.cpp:91] Creating Layer inception_3a/output
I0403 19:58:47.402798 10115 net.cpp:425] inception_3a/output <- inception_3a/1x1
I0403 19:58:47.402819 10115 net.cpp:425] inception_3a/output <- inception_3a/3x3
I0403 19:58:47.402840 10115 net.cpp:425] inception_3a/output <- inception_3a/5x5
I0403 19:58:47.402860 10115 net.cpp:425] inception_3a/output <- inception_3a/pool_proj
I0403 19:58:47.402880 10115 net.cpp:399] inception_3a/output -> inception_3a/output
I0403 19:58:47.402940 10115 net.cpp:141] Setting up inception_3a/output
I0403 19:58:47.402967 10115 net.cpp:148] Top shape: 24 256 28 28 (4816896)
I0403 19:58:47.402987 10115 net.cpp:156] Memory required for data: 580437024
I0403 19:58:47.403007 10115 layer_factory.hpp:77] Creating layer inception_3a/output_inception_3a/output_0_split
I0403 19:58:47.403028 10115 net.cpp:91] Creating Layer inception_3a/output_inception_3a/output_0_split
I0403 19:58:47.403046 10115 net.cpp:425] inception_3a/output_inception_3a/output_0_split <- inception_3a/output
I0403 19:58:47.403070 10115 net.cpp:399] inception_3a/output_inception_3a/output_0_split -> inception_3a/output_inception_3a/output_0_split_0
I0403 19:58:47.403095 10115 net.cpp:399] inception_3a/output_inception_3a/output_0_split -> inception_3a/output_inception_3a/output_0_split_1
I0403 19:58:47.403126 10115 net.cpp:399] inception_3a/output_inception_3a/output_0_split -> inception_3a/output_inception_3a/output_0_split_2
I0403 19:58:47.403154 10115 net.cpp:399] inception_3a/output_inception_3a/output_0_split -> inception_3a/output_inception_3a/output_0_split_3
I0403 19:58:47.403244 10115 net.cpp:141] Setting up inception_3a/output_inception_3a/output_0_split
I0403 19:58:47.403287 10115 net.cpp:148] Top shape: 24 256 28 28 (4816896)
I0403 19:58:47.403314 10115 net.cpp:148] Top shape: 24 256 28 28 (4816896)
I0403 19:58:47.403336 10115 net.cpp:148] Top shape: 24 256 28 28 (4816896)
I0403 19:58:47.403365 10115 net.cpp:148] Top shape: 24 256 28 28 (4816896)
I0403 19:58:47.403383 10115 net.cpp:156] Memory required for data: 657507360
I0403 19:58:47.403401 10115 layer_factory.hpp:77] Creating layer inception_3b/1x1
I0403 19:58:47.403429 10115 net.cpp:91] Creating Layer inception_3b/1x1
I0403 19:58:47.403450 10115 net.cpp:425] inception_3b/1x1 <- inception_3a/output_inception_3a/output_0_split_0
I0403 19:58:47.403477 10115 net.cpp:399] inception_3b/1x1 -> inception_3b/1x1
I0403 19:58:47.404865 10115 net.cpp:141] Setting up inception_3b/1x1
I0403 19:58:47.404914 10115 net.cpp:148] Top shape: 24 128 28 28 (2408448)
I0403 19:58:47.404934 10115 net.cpp:156] Memory required for data: 667141152
I0403 19:58:47.404958 10115 layer_factory.hpp:77] Creating layer inception_3b/relu_1x1
I0403 19:58:47.404983 10115 net.cpp:91] Creating Layer inception_3b/relu_1x1
I0403 19:58:47.405004 10115 net.cpp:425] inception_3b/relu_1x1 <- inception_3b/1x1
I0403 19:58:47.405025 10115 net.cpp:386] inception_3b/relu_1x1 -> inception_3b/1x1 (in-place)
I0403 19:58:47.405236 10115 net.cpp:141] Setting up inception_3b/relu_1x1
I0403 19:58:47.405275 10115 net.cpp:148] Top shape: 24 128 28 28 (2408448)
I0403 19:58:47.405297 10115 net.cpp:156] Memory required for data: 676774944
I0403 19:58:47.405315 10115 layer_factory.hpp:77] Creating layer inception_3b/3x3_reduce
I0403 19:58:47.405340 10115 net.cpp:91] Creating Layer inception_3b/3x3_reduce
I0403 19:58:47.405360 10115 net.cpp:425] inception_3b/3x3_reduce <- inception_3a/output_inception_3a/output_0_split_1
I0403 19:58:47.405386 10115 net.cpp:399] inception_3b/3x3_reduce -> inception_3b/3x3_reduce
I0403 19:58:47.406755 10115 net.cpp:141] Setting up inception_3b/3x3_reduce
I0403 19:58:47.406790 10115 net.cpp:148] Top shape: 24 128 28 28 (2408448)
I0403 19:58:47.406810 10115 net.cpp:156] Memory required for data: 686408736
I0403 19:58:47.406833 10115 layer_factory.hpp:77] Creating layer inception_3b/relu_3x3_reduce
I0403 19:58:47.406858 10115 net.cpp:91] Creating Layer inception_3b/relu_3x3_reduce
I0403 19:58:47.406878 10115 net.cpp:425] inception_3b/relu_3x3_reduce <- inception_3b/3x3_reduce
I0403 19:58:47.406900 10115 net.cpp:386] inception_3b/relu_3x3_reduce -> inception_3b/3x3_reduce (in-place)
I0403 19:58:47.407115 10115 net.cpp:141] Setting up inception_3b/relu_3x3_reduce
I0403 19:58:47.407146 10115 net.cpp:148] Top shape: 24 128 28 28 (2408448)
I0403 19:58:47.407166 10115 net.cpp:156] Memory required for data: 696042528
I0403 19:58:47.407183 10115 layer_factory.hpp:77] Creating layer inception_3b/3x3
I0403 19:58:47.407215 10115 net.cpp:91] Creating Layer inception_3b/3x3
I0403 19:58:47.407238 10115 net.cpp:425] inception_3b/3x3 <- inception_3b/3x3_reduce
I0403 19:58:47.407264 10115 net.cpp:399] inception_3b/3x3 -> inception_3b/3x3
I0403 19:58:47.410778 10115 net.cpp:141] Setting up inception_3b/3x3
I0403 19:58:47.410815 10115 net.cpp:148] Top shape: 24 192 28 28 (3612672)
I0403 19:58:47.410837 10115 net.cpp:156] Memory required for data: 710493216
I0403 19:58:47.410861 10115 layer_factory.hpp:77] Creating layer inception_3b/relu_3x3
I0403 19:58:47.410883 10115 net.cpp:91] Creating Layer inception_3b/relu_3x3
I0403 19:58:47.410904 10115 net.cpp:425] inception_3b/relu_3x3 <- inception_3b/3x3
I0403 19:58:47.410925 10115 net.cpp:386] inception_3b/relu_3x3 -> inception_3b/3x3 (in-place)
I0403 19:58:47.411262 10115 net.cpp:141] Setting up inception_3b/relu_3x3
I0403 19:58:47.411306 10115 net.cpp:148] Top shape: 24 192 28 28 (3612672)
I0403 19:58:47.411327 10115 net.cpp:156] Memory required for data: 724943904
I0403 19:58:47.411347 10115 layer_factory.hpp:77] Creating layer inception_3b/5x5_reduce
I0403 19:58:47.411381 10115 net.cpp:91] Creating Layer inception_3b/5x5_reduce
I0403 19:58:47.411403 10115 net.cpp:425] inception_3b/5x5_reduce <- inception_3a/output_inception_3a/output_0_split_2
I0403 19:58:47.411430 10115 net.cpp:399] inception_3b/5x5_reduce -> inception_3b/5x5_reduce
I0403 19:58:47.412631 10115 net.cpp:141] Setting up inception_3b/5x5_reduce
I0403 19:58:47.412667 10115 net.cpp:148] Top shape: 24 32 28 28 (602112)
I0403 19:58:47.412685 10115 net.cpp:156] Memory required for data: 727352352
I0403 19:58:47.412708 10115 layer_factory.hpp:77] Creating layer inception_3b/relu_5x5_reduce
I0403 19:58:47.412734 10115 net.cpp:91] Creating Layer inception_3b/relu_5x5_reduce
I0403 19:58:47.412755 10115 net.cpp:425] inception_3b/relu_5x5_reduce <- inception_3b/5x5_reduce
I0403 19:58:47.412775 10115 net.cpp:386] inception_3b/relu_5x5_reduce -> inception_3b/5x5_reduce (in-place)
I0403 19:58:47.412992 10115 net.cpp:141] Setting up inception_3b/relu_5x5_reduce
I0403 19:58:47.413039 10115 net.cpp:148] Top shape: 24 32 28 28 (602112)
I0403 19:58:47.413060 10115 net.cpp:156] Memory required for data: 729760800
I0403 19:58:47.413079 10115 layer_factory.hpp:77] Creating layer inception_3b/5x5
I0403 19:58:47.413107 10115 net.cpp:91] Creating Layer inception_3b/5x5
I0403 19:58:47.413130 10115 net.cpp:425] inception_3b/5x5 <- inception_3b/5x5_reduce
I0403 19:58:47.413154 10115 net.cpp:399] inception_3b/5x5 -> inception_3b/5x5
I0403 19:58:47.415521 10115 net.cpp:141] Setting up inception_3b/5x5
I0403 19:58:47.415561 10115 net.cpp:148] Top shape: 24 96 28 28 (1806336)
I0403 19:58:47.415582 10115 net.cpp:156] Memory required for data: 736986144
I0403 19:58:47.415606 10115 layer_factory.hpp:77] Creating layer inception_3b/relu_5x5
I0403 19:58:47.415632 10115 net.cpp:91] Creating Layer inception_3b/relu_5x5
I0403 19:58:47.415652 10115 net.cpp:425] inception_3b/relu_5x5 <- inception_3b/5x5
I0403 19:58:47.415674 10115 net.cpp:386] inception_3b/relu_5x5 -> inception_3b/5x5 (in-place)
I0403 19:58:47.415911 10115 net.cpp:141] Setting up inception_3b/relu_5x5
I0403 19:58:47.415946 10115 net.cpp:148] Top shape: 24 96 28 28 (1806336)
I0403 19:58:47.415963 10115 net.cpp:156] Memory required for data: 744211488
I0403 19:58:47.415982 10115 layer_factory.hpp:77] Creating layer inception_3b/pool
I0403 19:58:47.416004 10115 net.cpp:91] Creating Layer inception_3b/pool
I0403 19:58:47.416025 10115 net.cpp:425] inception_3b/pool <- inception_3a/output_inception_3a/output_0_split_3
I0403 19:58:47.416048 10115 net.cpp:399] inception_3b/pool -> inception_3b/pool
I0403 19:58:47.416117 10115 net.cpp:141] Setting up inception_3b/pool
I0403 19:58:47.416146 10115 net.cpp:148] Top shape: 24 256 28 28 (4816896)
I0403 19:58:47.416164 10115 net.cpp:156] Memory required for data: 763479072
I0403 19:58:47.416182 10115 layer_factory.hpp:77] Creating layer inception_3b/pool_proj
I0403 19:58:47.416208 10115 net.cpp:91] Creating Layer inception_3b/pool_proj
I0403 19:58:47.416230 10115 net.cpp:425] inception_3b/pool_proj <- inception_3b/pool
I0403 19:58:47.416256 10115 net.cpp:399] inception_3b/pool_proj -> inception_3b/pool_proj
I0403 19:58:47.417538 10115 net.cpp:141] Setting up inception_3b/pool_proj
I0403 19:58:47.417577 10115 net.cpp:148] Top shape: 24 64 28 28 (1204224)
I0403 19:58:47.417596 10115 net.cpp:156] Memory required for data: 768295968
I0403 19:58:47.417619 10115 layer_factory.hpp:77] Creating layer inception_3b/relu_pool_proj
I0403 19:58:47.417641 10115 net.cpp:91] Creating Layer inception_3b/relu_pool_proj
I0403 19:58:47.417662 10115 net.cpp:425] inception_3b/relu_pool_proj <- inception_3b/pool_proj
I0403 19:58:47.417688 10115 net.cpp:386] inception_3b/relu_pool_proj -> inception_3b/pool_proj (in-place)
I0403 19:58:47.418128 10115 net.cpp:141] Setting up inception_3b/relu_pool_proj
I0403 19:58:47.418164 10115 net.cpp:148] Top shape: 24 64 28 28 (1204224)
I0403 19:58:47.418184 10115 net.cpp:156] Memory required for data: 773112864
I0403 19:58:47.418202 10115 layer_factory.hpp:77] Creating layer inception_3b/output
I0403 19:58:47.418223 10115 net.cpp:91] Creating Layer inception_3b/output
I0403 19:58:47.418244 10115 net.cpp:425] inception_3b/output <- inception_3b/1x1
I0403 19:58:47.418265 10115 net.cpp:425] inception_3b/output <- inception_3b/3x3
I0403 19:58:47.418290 10115 net.cpp:425] inception_3b/output <- inception_3b/5x5
I0403 19:58:47.418311 10115 net.cpp:425] inception_3b/output <- inception_3b/pool_proj
I0403 19:58:47.418332 10115 net.cpp:399] inception_3b/output -> inception_3b/output
I0403 19:58:47.418388 10115 net.cpp:141] Setting up inception_3b/output
I0403 19:58:47.418418 10115 net.cpp:148] Top shape: 24 480 28 28 (9031680)
I0403 19:58:47.418438 10115 net.cpp:156] Memory required for data: 809239584
I0403 19:58:47.418457 10115 layer_factory.hpp:77] Creating layer pool3/3x3_s2
I0403 19:58:47.418483 10115 net.cpp:91] Creating Layer pool3/3x3_s2
I0403 19:58:47.418503 10115 net.cpp:425] pool3/3x3_s2 <- inception_3b/output
I0403 19:58:47.418525 10115 net.cpp:399] pool3/3x3_s2 -> pool3/3x3_s2
I0403 19:58:47.418620 10115 net.cpp:141] Setting up pool3/3x3_s2
I0403 19:58:47.418651 10115 net.cpp:148] Top shape: 24 480 14 14 (2257920)
I0403 19:58:47.418670 10115 net.cpp:156] Memory required for data: 818271264
I0403 19:58:47.418689 10115 layer_factory.hpp:77] Creating layer pool3/3x3_s2_pool3/3x3_s2_0_split
I0403 19:58:47.418710 10115 net.cpp:91] Creating Layer pool3/3x3_s2_pool3/3x3_s2_0_split
I0403 19:58:47.418731 10115 net.cpp:425] pool3/3x3_s2_pool3/3x3_s2_0_split <- pool3/3x3_s2
I0403 19:58:47.418756 10115 net.cpp:399] pool3/3x3_s2_pool3/3x3_s2_0_split -> pool3/3x3_s2_pool3/3x3_s2_0_split_0
I0403 19:58:47.418781 10115 net.cpp:399] pool3/3x3_s2_pool3/3x3_s2_0_split -> pool3/3x3_s2_pool3/3x3_s2_0_split_1
I0403 19:58:47.418807 10115 net.cpp:399] pool3/3x3_s2_pool3/3x3_s2_0_split -> pool3/3x3_s2_pool3/3x3_s2_0_split_2
I0403 19:58:47.418831 10115 net.cpp:399] pool3/3x3_s2_pool3/3x3_s2_0_split -> pool3/3x3_s2_pool3/3x3_s2_0_split_3
I0403 19:58:47.418926 10115 net.cpp:141] Setting up pool3/3x3_s2_pool3/3x3_s2_0_split
I0403 19:58:47.418957 10115 net.cpp:148] Top shape: 24 480 14 14 (2257920)
I0403 19:58:47.418978 10115 net.cpp:148] Top shape: 24 480 14 14 (2257920)
I0403 19:58:47.418999 10115 net.cpp:148] Top shape: 24 480 14 14 (2257920)
I0403 19:58:47.419020 10115 net.cpp:148] Top shape: 24 480 14 14 (2257920)
I0403 19:58:47.419039 10115 net.cpp:156] Memory required for data: 854397984
I0403 19:58:47.419059 10115 layer_factory.hpp:77] Creating layer inception_4a/1x1
I0403 19:58:47.419086 10115 net.cpp:91] Creating Layer inception_4a/1x1
I0403 19:58:47.419107 10115 net.cpp:425] inception_4a/1x1 <- pool3/3x3_s2_pool3/3x3_s2_0_split_0
I0403 19:58:47.419131 10115 net.cpp:399] inception_4a/1x1 -> inception_4a/1x1
I0403 19:58:47.421038 10115 net.cpp:141] Setting up inception_4a/1x1
I0403 19:58:47.421072 10115 net.cpp:148] Top shape: 24 192 14 14 (903168)
I0403 19:58:47.421103 10115 net.cpp:156] Memory required for data: 858010656
I0403 19:58:47.421125 10115 layer_factory.hpp:77] Creating layer inception_4a/relu_1x1
I0403 19:58:47.421149 10115 net.cpp:91] Creating Layer inception_4a/relu_1x1
I0403 19:58:47.421169 10115 net.cpp:425] inception_4a/relu_1x1 <- inception_4a/1x1
I0403 19:58:47.421195 10115 net.cpp:386] inception_4a/relu_1x1 -> inception_4a/1x1 (in-place)
I0403 19:58:47.421414 10115 net.cpp:141] Setting up inception_4a/relu_1x1
I0403 19:58:47.421445 10115 net.cpp:148] Top shape: 24 192 14 14 (903168)
I0403 19:58:47.421464 10115 net.cpp:156] Memory required for data: 861623328
I0403 19:58:47.421484 10115 layer_factory.hpp:77] Creating layer inception_4a/3x3_reduce
I0403 19:58:47.421512 10115 net.cpp:91] Creating Layer inception_4a/3x3_reduce
I0403 19:58:47.421535 10115 net.cpp:425] inception_4a/3x3_reduce <- pool3/3x3_s2_pool3/3x3_s2_0_split_1
I0403 19:58:47.421561 10115 net.cpp:399] inception_4a/3x3_reduce -> inception_4a/3x3_reduce
I0403 19:58:47.423104 10115 net.cpp:141] Setting up inception_4a/3x3_reduce
I0403 19:58:47.423138 10115 net.cpp:148] Top shape: 24 96 14 14 (451584)
I0403 19:58:47.423163 10115 net.cpp:156] Memory required for data: 863429664
I0403 19:58:47.423194 10115 layer_factory.hpp:77] Creating layer inception_4a/relu_3x3_reduce
I0403 19:58:47.423219 10115 net.cpp:91] Creating Layer inception_4a/relu_3x3_reduce
I0403 19:58:47.423240 10115 net.cpp:425] inception_4a/relu_3x3_reduce <- inception_4a/3x3_reduce
I0403 19:58:47.423265 10115 net.cpp:386] inception_4a/relu_3x3_reduce -> inception_4a/3x3_reduce (in-place)
I0403 19:58:47.423485 10115 net.cpp:141] Setting up inception_4a/relu_3x3_reduce
I0403 19:58:47.423518 10115 net.cpp:148] Top shape: 24 96 14 14 (451584)
I0403 19:58:47.423538 10115 net.cpp:156] Memory required for data: 865236000
I0403 19:58:47.423557 10115 layer_factory.hpp:77] Creating layer inception_4a/3x3
I0403 19:58:47.423583 10115 net.cpp:91] Creating Layer inception_4a/3x3
I0403 19:58:47.423606 10115 net.cpp:425] inception_4a/3x3 <- inception_4a/3x3_reduce
I0403 19:58:47.423638 10115 net.cpp:399] inception_4a/3x3 -> inception_4a/3x3
I0403 19:58:47.426872 10115 net.cpp:141] Setting up inception_4a/3x3
I0403 19:58:47.426908 10115 net.cpp:148] Top shape: 24 208 14 14 (978432)
I0403 19:58:47.426928 10115 net.cpp:156] Memory required for data: 869149728
I0403 19:58:47.426951 10115 layer_factory.hpp:77] Creating layer inception_4a/relu_3x3
I0403 19:58:47.426977 10115 net.cpp:91] Creating Layer inception_4a/relu_3x3
I0403 19:58:47.426998 10115 net.cpp:425] inception_4a/relu_3x3 <- inception_4a/3x3
I0403 19:58:47.427021 10115 net.cpp:386] inception_4a/relu_3x3 -> inception_4a/3x3 (in-place)
I0403 19:58:47.427363 10115 net.cpp:141] Setting up inception_4a/relu_3x3
I0403 19:58:47.427397 10115 net.cpp:148] Top shape: 24 208 14 14 (978432)
I0403 19:58:47.427417 10115 net.cpp:156] Memory required for data: 873063456
I0403 19:58:47.427438 10115 layer_factory.hpp:77] Creating layer inception_4a/5x5_reduce
I0403 19:58:47.427466 10115 net.cpp:91] Creating Layer inception_4a/5x5_reduce
I0403 19:58:47.427489 10115 net.cpp:425] inception_4a/5x5_reduce <- pool3/3x3_s2_pool3/3x3_s2_0_split_2
I0403 19:58:47.427515 10115 net.cpp:399] inception_4a/5x5_reduce -> inception_4a/5x5_reduce
I0403 19:58:47.428766 10115 net.cpp:141] Setting up inception_4a/5x5_reduce
I0403 19:58:47.428800 10115 net.cpp:148] Top shape: 24 16 14 14 (75264)
I0403 19:58:47.428820 10115 net.cpp:156] Memory required for data: 873364512
I0403 19:58:47.428843 10115 layer_factory.hpp:77] Creating layer inception_4a/relu_5x5_reduce
I0403 19:58:47.428869 10115 net.cpp:91] Creating Layer inception_4a/relu_5x5_reduce
I0403 19:58:47.428890 10115 net.cpp:425] inception_4a/relu_5x5_reduce <- inception_4a/5x5_reduce
I0403 19:58:47.428912 10115 net.cpp:386] inception_4a/relu_5x5_reduce -> inception_4a/5x5_reduce (in-place)
I0403 19:58:47.429136 10115 net.cpp:141] Setting up inception_4a/relu_5x5_reduce
I0403 19:58:47.429168 10115 net.cpp:148] Top shape: 24 16 14 14 (75264)
I0403 19:58:47.429188 10115 net.cpp:156] Memory required for data: 873665568
I0403 19:58:47.429205 10115 layer_factory.hpp:77] Creating layer inception_4a/5x5
I0403 19:58:47.429232 10115 net.cpp:91] Creating Layer inception_4a/5x5
I0403 19:58:47.429255 10115 net.cpp:425] inception_4a/5x5 <- inception_4a/5x5_reduce
I0403 19:58:47.429283 10115 net.cpp:399] inception_4a/5x5 -> inception_4a/5x5
I0403 19:58:47.430595 10115 net.cpp:141] Setting up inception_4a/5x5
I0403 19:58:47.430634 10115 net.cpp:148] Top shape: 24 48 14 14 (225792)
I0403 19:58:47.430655 10115 net.cpp:156] Memory required for data: 874568736
I0403 19:58:47.430677 10115 layer_factory.hpp:77] Creating layer inception_4a/relu_5x5
I0403 19:58:47.430699 10115 net.cpp:91] Creating Layer inception_4a/relu_5x5
I0403 19:58:47.430719 10115 net.cpp:425] inception_4a/relu_5x5 <- inception_4a/5x5
I0403 19:58:47.430743 10115 net.cpp:386] inception_4a/relu_5x5 -> inception_4a/5x5 (in-place)
I0403 19:58:47.430968 10115 net.cpp:141] Setting up inception_4a/relu_5x5
I0403 19:58:47.431001 10115 net.cpp:148] Top shape: 24 48 14 14 (225792)
I0403 19:58:47.431020 10115 net.cpp:156] Memory required for data: 875471904
I0403 19:58:47.431040 10115 layer_factory.hpp:77] Creating layer inception_4a/pool
I0403 19:58:47.431062 10115 net.cpp:91] Creating Layer inception_4a/pool
I0403 19:58:47.431082 10115 net.cpp:425] inception_4a/pool <- pool3/3x3_s2_pool3/3x3_s2_0_split_3
I0403 19:58:47.431108 10115 net.cpp:399] inception_4a/pool -> inception_4a/pool
I0403 19:58:47.431185 10115 net.cpp:141] Setting up inception_4a/pool
I0403 19:58:47.431215 10115 net.cpp:148] Top shape: 24 480 14 14 (2257920)
I0403 19:58:47.431233 10115 net.cpp:156] Memory required for data: 884503584
I0403 19:58:47.431252 10115 layer_factory.hpp:77] Creating layer inception_4a/pool_proj
I0403 19:58:47.431284 10115 net.cpp:91] Creating Layer inception_4a/pool_proj
I0403 19:58:47.431308 10115 net.cpp:425] inception_4a/pool_proj <- inception_4a/pool
I0403 19:58:47.431335 10115 net.cpp:399] inception_4a/pool_proj -> inception_4a/pool_proj
I0403 19:58:47.432744 10115 net.cpp:141] Setting up inception_4a/pool_proj
I0403 19:58:47.432778 10115 net.cpp:148] Top shape: 24 64 14 14 (301056)
I0403 19:58:47.432816 10115 net.cpp:156] Memory required for data: 885707808
I0403 19:58:47.432839 10115 layer_factory.hpp:77] Creating layer inception_4a/relu_pool_proj
I0403 19:58:47.432862 10115 net.cpp:91] Creating Layer inception_4a/relu_pool_proj
I0403 19:58:47.432883 10115 net.cpp:425] inception_4a/relu_pool_proj <- inception_4a/pool_proj
I0403 19:58:47.432909 10115 net.cpp:386] inception_4a/relu_pool_proj -> inception_4a/pool_proj (in-place)
I0403 19:58:47.433254 10115 net.cpp:141] Setting up inception_4a/relu_pool_proj
I0403 19:58:47.433300 10115 net.cpp:148] Top shape: 24 64 14 14 (301056)
I0403 19:58:47.433321 10115 net.cpp:156] Memory required for data: 886912032
I0403 19:58:47.433341 10115 layer_factory.hpp:77] Creating layer inception_4a/output
I0403 19:58:47.433362 10115 net.cpp:91] Creating Layer inception_4a/output
I0403 19:58:47.433382 10115 net.cpp:425] inception_4a/output <- inception_4a/1x1
I0403 19:58:47.433403 10115 net.cpp:425] inception_4a/output <- inception_4a/3x3
I0403 19:58:47.433423 10115 net.cpp:425] inception_4a/output <- inception_4a/5x5
I0403 19:58:47.433444 10115 net.cpp:425] inception_4a/output <- inception_4a/pool_proj
I0403 19:58:47.433467 10115 net.cpp:399] inception_4a/output -> inception_4a/output
I0403 19:58:47.433523 10115 net.cpp:141] Setting up inception_4a/output
I0403 19:58:47.433555 10115 net.cpp:148] Top shape: 24 512 14 14 (2408448)
I0403 19:58:47.433574 10115 net.cpp:156] Memory required for data: 896545824
I0403 19:58:47.433593 10115 layer_factory.hpp:77] Creating layer inception_4a/output_inception_4a/output_0_split
I0403 19:58:47.433615 10115 net.cpp:91] Creating Layer inception_4a/output_inception_4a/output_0_split
I0403 19:58:47.433635 10115 net.cpp:425] inception_4a/output_inception_4a/output_0_split <- inception_4a/output
I0403 19:58:47.433657 10115 net.cpp:399] inception_4a/output_inception_4a/output_0_split -> inception_4a/output_inception_4a/output_0_split_0
I0403 19:58:47.433684 10115 net.cpp:399] inception_4a/output_inception_4a/output_0_split -> inception_4a/output_inception_4a/output_0_split_1
I0403 19:58:47.433712 10115 net.cpp:399] inception_4a/output_inception_4a/output_0_split -> inception_4a/output_inception_4a/output_0_split_2
I0403 19:58:47.433737 10115 net.cpp:399] inception_4a/output_inception_4a/output_0_split -> inception_4a/output_inception_4a/output_0_split_3
I0403 19:58:47.433763 10115 net.cpp:399] inception_4a/output_inception_4a/output_0_split -> inception_4a/output_inception_4a/output_0_split_4
I0403 19:58:47.433876 10115 net.cpp:141] Setting up inception_4a/output_inception_4a/output_0_split
I0403 19:58:47.433904 10115 net.cpp:148] Top shape: 24 512 14 14 (2408448)
I0403 19:58:47.433925 10115 net.cpp:148] Top shape: 24 512 14 14 (2408448)
I0403 19:58:47.433944 10115 net.cpp:148] Top shape: 24 512 14 14 (2408448)
I0403 19:58:47.433964 10115 net.cpp:148] Top shape: 24 512 14 14 (2408448)
I0403 19:58:47.433984 10115 net.cpp:148] Top shape: 24 512 14 14 (2408448)
I0403 19:58:47.434002 10115 net.cpp:156] Memory required for data: 944714784
I0403 19:58:47.434022 10115 layer_factory.hpp:77] Creating layer loss1/ave_pool
I0403 19:58:47.434046 10115 net.cpp:91] Creating Layer loss1/ave_pool
I0403 19:58:47.434067 10115 net.cpp:425] loss1/ave_pool <- inception_4a/output_inception_4a/output_0_split_0
I0403 19:58:47.434089 10115 net.cpp:399] loss1/ave_pool -> loss1/ave_pool
I0403 19:58:47.434346 10115 net.cpp:141] Setting up loss1/ave_pool
I0403 19:58:47.434379 10115 net.cpp:148] Top shape: 24 512 4 4 (196608)
I0403 19:58:47.434399 10115 net.cpp:156] Memory required for data: 945501216
I0403 19:58:47.434417 10115 layer_factory.hpp:77] Creating layer loss1/conv
I0403 19:58:47.434445 10115 net.cpp:91] Creating Layer loss1/conv
I0403 19:58:47.434468 10115 net.cpp:425] loss1/conv <- loss1/ave_pool
I0403 19:58:47.434494 10115 net.cpp:399] loss1/conv -> loss1/conv
I0403 19:58:47.436199 10115 net.cpp:141] Setting up loss1/conv
I0403 19:58:47.436235 10115 net.cpp:148] Top shape: 24 128 4 4 (49152)
I0403 19:58:47.436255 10115 net.cpp:156] Memory required for data: 945697824
I0403 19:58:47.436302 10115 layer_factory.hpp:77] Creating layer loss1/relu_conv
I0403 19:58:47.436329 10115 net.cpp:91] Creating Layer loss1/relu_conv
I0403 19:58:47.436352 10115 net.cpp:425] loss1/relu_conv <- loss1/conv
I0403 19:58:47.436372 10115 net.cpp:386] loss1/relu_conv -> loss1/conv (in-place)
I0403 19:58:47.436718 10115 net.cpp:141] Setting up loss1/relu_conv
I0403 19:58:47.436751 10115 net.cpp:148] Top shape: 24 128 4 4 (49152)
I0403 19:58:47.436770 10115 net.cpp:156] Memory required for data: 945894432
I0403 19:58:47.436789 10115 layer_factory.hpp:77] Creating layer loss1/fc
I0403 19:58:47.436821 10115 net.cpp:91] Creating Layer loss1/fc
I0403 19:58:47.436844 10115 net.cpp:425] loss1/fc <- loss1/conv
I0403 19:58:47.436867 10115 net.cpp:399] loss1/fc -> loss1/fc
I0403 19:58:47.458811 10115 net.cpp:141] Setting up loss1/fc
I0403 19:58:47.458853 10115 net.cpp:148] Top shape: 24 1024 (24576)
I0403 19:58:47.458874 10115 net.cpp:156] Memory required for data: 945992736
I0403 19:58:47.458899 10115 layer_factory.hpp:77] Creating layer loss1/relu_fc
I0403 19:58:47.458921 10115 net.cpp:91] Creating Layer loss1/relu_fc
I0403 19:58:47.458941 10115 net.cpp:425] loss1/relu_fc <- loss1/fc
I0403 19:58:47.458966 10115 net.cpp:386] loss1/relu_fc -> loss1/fc (in-place)
I0403 19:58:47.459203 10115 net.cpp:141] Setting up loss1/relu_fc
I0403 19:58:47.459234 10115 net.cpp:148] Top shape: 24 1024 (24576)
I0403 19:58:47.459252 10115 net.cpp:156] Memory required for data: 946091040
I0403 19:58:47.459277 10115 layer_factory.hpp:77] Creating layer loss1/drop_fc
I0403 19:58:47.459313 10115 net.cpp:91] Creating Layer loss1/drop_fc
I0403 19:58:47.459336 10115 net.cpp:425] loss1/drop_fc <- loss1/fc
I0403 19:58:47.459358 10115 net.cpp:386] loss1/drop_fc -> loss1/fc (in-place)
I0403 19:58:47.459420 10115 net.cpp:141] Setting up loss1/drop_fc
I0403 19:58:47.459455 10115 net.cpp:148] Top shape: 24 1024 (24576)
I0403 19:58:47.459473 10115 net.cpp:156] Memory required for data: 946189344
I0403 19:58:47.459492 10115 layer_factory.hpp:77] Creating layer loss1/classifier_plantvillage
I0403 19:58:47.459514 10115 net.cpp:91] Creating Layer loss1/classifier_plantvillage
I0403 19:58:47.459533 10115 net.cpp:425] loss1/classifier_plantvillage <- loss1/fc
I0403 19:58:47.459558 10115 net.cpp:399] loss1/classifier_plantvillage -> loss1/classifier_plantvillage
I0403 19:58:47.460649 10115 net.cpp:141] Setting up loss1/classifier_plantvillage
I0403 19:58:47.460685 10115 net.cpp:148] Top shape: 24 38 (912)
I0403 19:58:47.460705 10115 net.cpp:156] Memory required for data: 946192992
I0403 19:58:47.460728 10115 layer_factory.hpp:77] Creating layer loss1/classifier_plantvillage_loss1/classifier_plantvillage_0_split
I0403 19:58:47.460752 10115 net.cpp:91] Creating Layer loss1/classifier_plantvillage_loss1/classifier_plantvillage_0_split
I0403 19:58:47.460773 10115 net.cpp:425] loss1/classifier_plantvillage_loss1/classifier_plantvillage_0_split <- loss1/classifier_plantvillage
I0403 19:58:47.460795 10115 net.cpp:399] loss1/classifier_plantvillage_loss1/classifier_plantvillage_0_split -> loss1/classifier_plantvillage_loss1/classifier_plantvillage_0_split_0
I0403 19:58:47.460819 10115 net.cpp:399] loss1/classifier_plantvillage_loss1/classifier_plantvillage_0_split -> loss1/classifier_plantvillage_loss1/classifier_plantvillage_0_split_1
I0403 19:58:47.460844 10115 net.cpp:399] loss1/classifier_plantvillage_loss1/classifier_plantvillage_0_split -> loss1/classifier_plantvillage_loss1/classifier_plantvillage_0_split_2
I0403 19:58:47.460927 10115 net.cpp:141] Setting up loss1/classifier_plantvillage_loss1/classifier_plantvillage_0_split
I0403 19:58:47.460958 10115 net.cpp:148] Top shape: 24 38 (912)
I0403 19:58:47.460986 10115 net.cpp:148] Top shape: 24 38 (912)
I0403 19:58:47.461006 10115 net.cpp:148] Top shape: 24 38 (912)
I0403 19:58:47.461024 10115 net.cpp:156] Memory required for data: 946203936
I0403 19:58:47.461042 10115 layer_factory.hpp:77] Creating layer inception_4b/1x1
I0403 19:58:47.461067 10115 net.cpp:91] Creating Layer inception_4b/1x1
I0403 19:58:47.461107 10115 net.cpp:425] inception_4b/1x1 <- inception_4a/output_inception_4a/output_0_split_1
I0403 19:58:47.461132 10115 net.cpp:399] inception_4b/1x1 -> inception_4b/1x1
I0403 19:58:47.463105 10115 net.cpp:141] Setting up inception_4b/1x1
I0403 19:58:47.463140 10115 net.cpp:148] Top shape: 24 160 14 14 (752640)
I0403 19:58:47.463160 10115 net.cpp:156] Memory required for data: 949214496
I0403 19:58:47.463182 10115 layer_factory.hpp:77] Creating layer inception_4b/relu_1x1
I0403 19:58:47.463207 10115 net.cpp:91] Creating Layer inception_4b/relu_1x1
I0403 19:58:47.463228 10115 net.cpp:425] inception_4b/relu_1x1 <- inception_4b/1x1
I0403 19:58:47.463250 10115 net.cpp:386] inception_4b/relu_1x1 -> inception_4b/1x1 (in-place)
I0403 19:58:47.463484 10115 net.cpp:141] Setting up inception_4b/relu_1x1
I0403 19:58:47.463520 10115 net.cpp:148] Top shape: 24 160 14 14 (752640)
I0403 19:58:47.463538 10115 net.cpp:156] Memory required for data: 952225056
I0403 19:58:47.463557 10115 layer_factory.hpp:77] Creating layer inception_4b/3x3_reduce
I0403 19:58:47.463585 10115 net.cpp:91] Creating Layer inception_4b/3x3_reduce
I0403 19:58:47.463608 10115 net.cpp:425] inception_4b/3x3_reduce <- inception_4a/output_inception_4a/output_0_split_2
I0403 19:58:47.463631 10115 net.cpp:399] inception_4b/3x3_reduce -> inception_4b/3x3_reduce
I0403 19:58:47.465281 10115 net.cpp:141] Setting up inception_4b/3x3_reduce
I0403 19:58:47.465322 10115 net.cpp:148] Top shape: 24 112 14 14 (526848)
I0403 19:58:47.465342 10115 net.cpp:156] Memory required for data: 954332448
I0403 19:58:47.465364 10115 layer_factory.hpp:77] Creating layer inception_4b/relu_3x3_reduce
I0403 19:58:47.465387 10115 net.cpp:91] Creating Layer inception_4b/relu_3x3_reduce
I0403 19:58:47.465407 10115 net.cpp:425] inception_4b/relu_3x3_reduce <- inception_4b/3x3_reduce
I0403 19:58:47.465431 10115 net.cpp:386] inception_4b/relu_3x3_reduce -> inception_4b/3x3_reduce (in-place)
I0403 19:58:47.465770 10115 net.cpp:141] Setting up inception_4b/relu_3x3_reduce
I0403 19:58:47.465806 10115 net.cpp:148] Top shape: 24 112 14 14 (526848)
I0403 19:58:47.465826 10115 net.cpp:156] Memory required for data: 956439840
I0403 19:58:47.465844 10115 layer_factory.hpp:77] Creating layer inception_4b/3x3
I0403 19:58:47.465875 10115 net.cpp:91] Creating Layer inception_4b/3x3
I0403 19:58:47.465898 10115 net.cpp:425] inception_4b/3x3 <- inception_4b/3x3_reduce
I0403 19:58:47.465921 10115 net.cpp:399] inception_4b/3x3 -> inception_4b/3x3
I0403 19:58:47.469535 10115 net.cpp:141] Setting up inception_4b/3x3
I0403 19:58:47.469571 10115 net.cpp:148] Top shape: 24 224 14 14 (1053696)
I0403 19:58:47.469591 10115 net.cpp:156] Memory required for data: 960654624
I0403 19:58:47.469614 10115 layer_factory.hpp:77] Creating layer inception_4b/relu_3x3
I0403 19:58:47.469640 10115 net.cpp:91] Creating Layer inception_4b/relu_3x3
I0403 19:58:47.469661 10115 net.cpp:425] inception_4b/relu_3x3 <- inception_4b/3x3
I0403 19:58:47.469683 10115 net.cpp:386] inception_4b/relu_3x3 -> inception_4b/3x3 (in-place)
I0403 19:58:47.469904 10115 net.cpp:141] Setting up inception_4b/relu_3x3
I0403 19:58:47.469935 10115 net.cpp:148] Top shape: 24 224 14 14 (1053696)
I0403 19:58:47.469955 10115 net.cpp:156] Memory required for data: 964869408
I0403 19:58:47.469974 10115 layer_factory.hpp:77] Creating layer inception_4b/5x5_reduce
I0403 19:58:47.470001 10115 net.cpp:91] Creating Layer inception_4b/5x5_reduce
I0403 19:58:47.470022 10115 net.cpp:425] inception_4b/5x5_reduce <- inception_4a/output_inception_4a/output_0_split_3
I0403 19:58:47.470049 10115 net.cpp:399] inception_4b/5x5_reduce -> inception_4b/5x5_reduce
I0403 19:58:47.471385 10115 net.cpp:141] Setting up inception_4b/5x5_reduce
I0403 19:58:47.471420 10115 net.cpp:148] Top shape: 24 24 14 14 (112896)
I0403 19:58:47.471438 10115 net.cpp:156] Memory required for data: 965320992
I0403 19:58:47.471462 10115 layer_factory.hpp:77] Creating layer inception_4b/relu_5x5_reduce
I0403 19:58:47.471498 10115 net.cpp:91] Creating Layer inception_4b/relu_5x5_reduce
I0403 19:58:47.471535 10115 net.cpp:425] inception_4b/relu_5x5_reduce <- inception_4b/5x5_reduce
I0403 19:58:47.471559 10115 net.cpp:386] inception_4b/relu_5x5_reduce -> inception_4b/5x5_reduce (in-place)
I0403 19:58:47.471789 10115 net.cpp:141] Setting up inception_4b/relu_5x5_reduce
I0403 19:58:47.471820 10115 net.cpp:148] Top shape: 24 24 14 14 (112896)
I0403 19:58:47.471839 10115 net.cpp:156] Memory required for data: 965772576
I0403 19:58:47.471858 10115 layer_factory.hpp:77] Creating layer inception_4b/5x5
I0403 19:58:47.471884 10115 net.cpp:91] Creating Layer inception_4b/5x5
I0403 19:58:47.471906 10115 net.cpp:425] inception_4b/5x5 <- inception_4b/5x5_reduce
I0403 19:58:47.471932 10115 net.cpp:399] inception_4b/5x5 -> inception_4b/5x5
I0403 19:58:47.473453 10115 net.cpp:141] Setting up inception_4b/5x5
I0403 19:58:47.473489 10115 net.cpp:148] Top shape: 24 64 14 14 (301056)
I0403 19:58:47.473507 10115 net.cpp:156] Memory required for data: 966976800
I0403 19:58:47.473531 10115 layer_factory.hpp:77] Creating layer inception_4b/relu_5x5
I0403 19:58:47.473556 10115 net.cpp:91] Creating Layer inception_4b/relu_5x5
I0403 19:58:47.473578 10115 net.cpp:425] inception_4b/relu_5x5 <- inception_4b/5x5
I0403 19:58:47.473600 10115 net.cpp:386] inception_4b/relu_5x5 -> inception_4b/5x5 (in-place)
I0403 19:58:47.473950 10115 net.cpp:141] Setting up inception_4b/relu_5x5
I0403 19:58:47.473983 10115 net.cpp:148] Top shape: 24 64 14 14 (301056)
I0403 19:58:47.474001 10115 net.cpp:156] Memory required for data: 968181024
I0403 19:58:47.474020 10115 layer_factory.hpp:77] Creating layer inception_4b/pool
I0403 19:58:47.474045 10115 net.cpp:91] Creating Layer inception_4b/pool
I0403 19:58:47.474067 10115 net.cpp:425] inception_4b/pool <- inception_4a/output_inception_4a/output_0_split_4
I0403 19:58:47.474089 10115 net.cpp:399] inception_4b/pool -> inception_4b/pool
I0403 19:58:47.474170 10115 net.cpp:141] Setting up inception_4b/pool
I0403 19:58:47.474200 10115 net.cpp:148] Top shape: 24 512 14 14 (2408448)
I0403 19:58:47.474218 10115 net.cpp:156] Memory required for data: 977814816
I0403 19:58:47.474238 10115 layer_factory.hpp:77] Creating layer inception_4b/pool_proj
I0403 19:58:47.474267 10115 net.cpp:91] Creating Layer inception_4b/pool_proj
I0403 19:58:47.474294 10115 net.cpp:425] inception_4b/pool_proj <- inception_4b/pool
I0403 19:58:47.474323 10115 net.cpp:399] inception_4b/pool_proj -> inception_4b/pool_proj
I0403 19:58:47.475788 10115 net.cpp:141] Setting up inception_4b/pool_proj
I0403 19:58:47.475823 10115 net.cpp:148] Top shape: 24 64 14 14 (301056)
I0403 19:58:47.475848 10115 net.cpp:156] Memory required for data: 979019040
I0403 19:58:47.475872 10115 layer_factory.hpp:77] Creating layer inception_4b/relu_pool_proj
I0403 19:58:47.475894 10115 net.cpp:91] Creating Layer inception_4b/relu_pool_proj
I0403 19:58:47.475915 10115 net.cpp:425] inception_4b/relu_pool_proj <- inception_4b/pool_proj
I0403 19:58:47.475936 10115 net.cpp:386] inception_4b/relu_pool_proj -> inception_4b/pool_proj (in-place)
I0403 19:58:47.476166 10115 net.cpp:141] Setting up inception_4b/relu_pool_proj
I0403 19:58:47.476199 10115 net.cpp:148] Top shape: 24 64 14 14 (301056)
I0403 19:58:47.476219 10115 net.cpp:156] Memory required for data: 980223264
I0403 19:58:47.476238 10115 layer_factory.hpp:77] Creating layer inception_4b/output
I0403 19:58:47.476259 10115 net.cpp:91] Creating Layer inception_4b/output
I0403 19:58:47.476285 10115 net.cpp:425] inception_4b/output <- inception_4b/1x1
I0403 19:58:47.476307 10115 net.cpp:425] inception_4b/output <- inception_4b/3x3
I0403 19:58:47.476328 10115 net.cpp:425] inception_4b/output <- inception_4b/5x5
I0403 19:58:47.476348 10115 net.cpp:425] inception_4b/output <- inception_4b/pool_proj
I0403 19:58:47.476377 10115 net.cpp:399] inception_4b/output -> inception_4b/output
I0403 19:58:47.476433 10115 net.cpp:141] Setting up inception_4b/output
I0403 19:58:47.476460 10115 net.cpp:148] Top shape: 24 512 14 14 (2408448)
I0403 19:58:47.476480 10115 net.cpp:156] Memory required for data: 989857056
I0403 19:58:47.476514 10115 layer_factory.hpp:77] Creating layer inception_4b/output_inception_4b/output_0_split
I0403 19:58:47.476539 10115 net.cpp:91] Creating Layer inception_4b/output_inception_4b/output_0_split
I0403 19:58:47.476562 10115 net.cpp:425] inception_4b/output_inception_4b/output_0_split <- inception_4b/output
I0403 19:58:47.476583 10115 net.cpp:399] inception_4b/output_inception_4b/output_0_split -> inception_4b/output_inception_4b/output_0_split_0
I0403 19:58:47.476608 10115 net.cpp:399] inception_4b/output_inception_4b/output_0_split -> inception_4b/output_inception_4b/output_0_split_1
I0403 19:58:47.476639 10115 net.cpp:399] inception_4b/output_inception_4b/output_0_split -> inception_4b/output_inception_4b/output_0_split_2
I0403 19:58:47.476665 10115 net.cpp:399] inception_4b/output_inception_4b/output_0_split -> inception_4b/output_inception_4b/output_0_split_3
I0403 19:58:47.476765 10115 net.cpp:141] Setting up inception_4b/output_inception_4b/output_0_split
I0403 19:58:47.476794 10115 net.cpp:148] Top shape: 24 512 14 14 (2408448)
I0403 19:58:47.476815 10115 net.cpp:148] Top shape: 24 512 14 14 (2408448)
I0403 19:58:47.476835 10115 net.cpp:148] Top shape: 24 512 14 14 (2408448)
I0403 19:58:47.476855 10115 net.cpp:148] Top shape: 24 512 14 14 (2408448)
I0403 19:58:47.476871 10115 net.cpp:156] Memory required for data: 1028392224
I0403 19:58:47.476889 10115 layer_factory.hpp:77] Creating layer inception_4c/1x1
I0403 19:58:47.476917 10115 net.cpp:91] Creating Layer inception_4c/1x1
I0403 19:58:47.476938 10115 net.cpp:425] inception_4c/1x1 <- inception_4b/output_inception_4b/output_0_split_0
I0403 19:58:47.476964 10115 net.cpp:399] inception_4c/1x1 -> inception_4c/1x1
I0403 19:58:47.478718 10115 net.cpp:141] Setting up inception_4c/1x1
I0403 19:58:47.478766 10115 net.cpp:148] Top shape: 24 128 14 14 (602112)
I0403 19:58:47.478786 10115 net.cpp:156] Memory required for data: 1030800672
I0403 19:58:47.478809 10115 layer_factory.hpp:77] Creating layer inception_4c/relu_1x1
I0403 19:58:47.478832 10115 net.cpp:91] Creating Layer inception_4c/relu_1x1
I0403 19:58:47.478852 10115 net.cpp:425] inception_4c/relu_1x1 <- inception_4c/1x1
I0403 19:58:47.478875 10115 net.cpp:386] inception_4c/relu_1x1 -> inception_4c/1x1 (in-place)
I0403 19:58:47.479096 10115 net.cpp:141] Setting up inception_4c/relu_1x1
I0403 19:58:47.479126 10115 net.cpp:148] Top shape: 24 128 14 14 (602112)
I0403 19:58:47.479145 10115 net.cpp:156] Memory required for data: 1033209120
I0403 19:58:47.479163 10115 layer_factory.hpp:77] Creating layer inception_4c/3x3_reduce
I0403 19:58:47.479190 10115 net.cpp:91] Creating Layer inception_4c/3x3_reduce
I0403 19:58:47.479212 10115 net.cpp:425] inception_4c/3x3_reduce <- inception_4b/output_inception_4b/output_0_split_1
I0403 19:58:47.479243 10115 net.cpp:399] inception_4c/3x3_reduce -> inception_4c/3x3_reduce
I0403 19:58:47.481601 10115 net.cpp:141] Setting up inception_4c/3x3_reduce
I0403 19:58:47.481637 10115 net.cpp:148] Top shape: 24 128 14 14 (602112)
I0403 19:58:47.481657 10115 net.cpp:156] Memory required for data: 1035617568
I0403 19:58:47.481680 10115 layer_factory.hpp:77] Creating layer inception_4c/relu_3x3_reduce
I0403 19:58:47.481706 10115 net.cpp:91] Creating Layer inception_4c/relu_3x3_reduce
I0403 19:58:47.481727 10115 net.cpp:425] inception_4c/relu_3x3_reduce <- inception_4c/3x3_reduce
I0403 19:58:47.481748 10115 net.cpp:386] inception_4c/relu_3x3_reduce -> inception_4c/3x3_reduce (in-place)
I0403 19:58:47.482095 10115 net.cpp:141] Setting up inception_4c/relu_3x3_reduce
I0403 19:58:47.482127 10115 net.cpp:148] Top shape: 24 128 14 14 (602112)
I0403 19:58:47.482146 10115 net.cpp:156] Memory required for data: 1038026016
I0403 19:58:47.482164 10115 layer_factory.hpp:77] Creating layer inception_4c/3x3
I0403 19:58:47.482192 10115 net.cpp:91] Creating Layer inception_4c/3x3
I0403 19:58:47.482214 10115 net.cpp:425] inception_4c/3x3 <- inception_4c/3x3_reduce
I0403 19:58:47.482241 10115 net.cpp:399] inception_4c/3x3 -> inception_4c/3x3
I0403 19:58:47.486631 10115 net.cpp:141] Setting up inception_4c/3x3
I0403 19:58:47.486682 10115 net.cpp:148] Top shape: 24 256 14 14 (1204224)
I0403 19:58:47.486703 10115 net.cpp:156] Memory required for data: 1042842912
I0403 19:58:47.486742 10115 layer_factory.hpp:77] Creating layer inception_4c/relu_3x3
I0403 19:58:47.486769 10115 net.cpp:91] Creating Layer inception_4c/relu_3x3
I0403 19:58:47.486790 10115 net.cpp:425] inception_4c/relu_3x3 <- inception_4c/3x3
I0403 19:58:47.486811 10115 net.cpp:386] inception_4c/relu_3x3 -> inception_4c/3x3 (in-place)
I0403 19:58:47.487037 10115 net.cpp:141] Setting up inception_4c/relu_3x3
I0403 19:58:47.487068 10115 net.cpp:148] Top shape: 24 256 14 14 (1204224)
I0403 19:58:47.487087 10115 net.cpp:156] Memory required for data: 1047659808
I0403 19:58:47.487104 10115 layer_factory.hpp:77] Creating layer inception_4c/5x5_reduce
I0403 19:58:47.487135 10115 net.cpp:91] Creating Layer inception_4c/5x5_reduce
I0403 19:58:47.487159 10115 net.cpp:425] inception_4c/5x5_reduce <- inception_4b/output_inception_4b/output_0_split_2
I0403 19:58:47.487182 10115 net.cpp:399] inception_4c/5x5_reduce -> inception_4c/5x5_reduce
I0403 19:58:47.488529 10115 net.cpp:141] Setting up inception_4c/5x5_reduce
I0403 19:58:47.488564 10115 net.cpp:148] Top shape: 24 24 14 14 (112896)
I0403 19:58:47.488584 10115 net.cpp:156] Memory required for data: 1048111392
I0403 19:58:47.488605 10115 layer_factory.hpp:77] Creating layer inception_4c/relu_5x5_reduce
I0403 19:58:47.488631 10115 net.cpp:91] Creating Layer inception_4c/relu_5x5_reduce
I0403 19:58:47.488651 10115 net.cpp:425] inception_4c/relu_5x5_reduce <- inception_4c/5x5_reduce
I0403 19:58:47.488673 10115 net.cpp:386] inception_4c/relu_5x5_reduce -> inception_4c/5x5_reduce (in-place)
I0403 19:58:47.488898 10115 net.cpp:141] Setting up inception_4c/relu_5x5_reduce
I0403 19:58:47.488930 10115 net.cpp:148] Top shape: 24 24 14 14 (112896)
I0403 19:58:47.488950 10115 net.cpp:156] Memory required for data: 1048562976
I0403 19:58:47.488968 10115 layer_factory.hpp:77] Creating layer inception_4c/5x5
I0403 19:58:47.488996 10115 net.cpp:91] Creating Layer inception_4c/5x5
I0403 19:58:47.489018 10115 net.cpp:425] inception_4c/5x5 <- inception_4c/5x5_reduce
I0403 19:58:47.489049 10115 net.cpp:399] inception_4c/5x5 -> inception_4c/5x5
I0403 19:58:47.490578 10115 net.cpp:141] Setting up inception_4c/5x5
I0403 19:58:47.490615 10115 net.cpp:148] Top shape: 24 64 14 14 (301056)
I0403 19:58:47.490635 10115 net.cpp:156] Memory required for data: 1049767200
I0403 19:58:47.490659 10115 layer_factory.hpp:77] Creating layer inception_4c/relu_5x5
I0403 19:58:47.490682 10115 net.cpp:91] Creating Layer inception_4c/relu_5x5
I0403 19:58:47.490703 10115 net.cpp:425] inception_4c/relu_5x5 <- inception_4c/5x5
I0403 19:58:47.490727 10115 net.cpp:386] inception_4c/relu_5x5 -> inception_4c/5x5 (in-place)
I0403 19:58:47.491073 10115 net.cpp:141] Setting up inception_4c/relu_5x5
I0403 19:58:47.491108 10115 net.cpp:148] Top shape: 24 64 14 14 (301056)
I0403 19:58:47.491128 10115 net.cpp:156] Memory required for data: 1050971424
I0403 19:58:47.491147 10115 layer_factory.hpp:77] Creating layer inception_4c/pool
I0403 19:58:47.491170 10115 net.cpp:91] Creating Layer inception_4c/pool
I0403 19:58:47.491191 10115 net.cpp:425] inception_4c/pool <- inception_4b/output_inception_4b/output_0_split_3
I0403 19:58:47.491216 10115 net.cpp:399] inception_4c/pool -> inception_4c/pool
I0403 19:58:47.491303 10115 net.cpp:141] Setting up inception_4c/pool
I0403 19:58:47.491336 10115 net.cpp:148] Top shape: 24 512 14 14 (2408448)
I0403 19:58:47.491364 10115 net.cpp:156] Memory required for data: 1060605216
I0403 19:58:47.491382 10115 layer_factory.hpp:77] Creating layer inception_4c/pool_proj
I0403 19:58:47.491406 10115 net.cpp:91] Creating Layer inception_4c/pool_proj
I0403 19:58:47.491425 10115 net.cpp:425] inception_4c/pool_proj <- inception_4c/pool
I0403 19:58:47.491451 10115 net.cpp:399] inception_4c/pool_proj -> inception_4c/pool_proj
I0403 19:58:47.492962 10115 net.cpp:141] Setting up inception_4c/pool_proj
I0403 19:58:47.492998 10115 net.cpp:148] Top shape: 24 64 14 14 (301056)
I0403 19:58:47.493033 10115 net.cpp:156] Memory required for data: 1061809440
I0403 19:58:47.493058 10115 layer_factory.hpp:77] Creating layer inception_4c/relu_pool_proj
I0403 19:58:47.493086 10115 net.cpp:91] Creating Layer inception_4c/relu_pool_proj
I0403 19:58:47.493108 10115 net.cpp:425] inception_4c/relu_pool_proj <- inception_4c/pool_proj
I0403 19:58:47.493129 10115 net.cpp:386] inception_4c/relu_pool_proj -> inception_4c/pool_proj (in-place)
I0403 19:58:47.493360 10115 net.cpp:141] Setting up inception_4c/relu_pool_proj
I0403 19:58:47.493392 10115 net.cpp:148] Top shape: 24 64 14 14 (301056)
I0403 19:58:47.493412 10115 net.cpp:156] Memory required for data: 1063013664
I0403 19:58:47.493430 10115 layer_factory.hpp:77] Creating layer inception_4c/output
I0403 19:58:47.493453 10115 net.cpp:91] Creating Layer inception_4c/output
I0403 19:58:47.493474 10115 net.cpp:425] inception_4c/output <- inception_4c/1x1
I0403 19:58:47.493494 10115 net.cpp:425] inception_4c/output <- inception_4c/3x3
I0403 19:58:47.493513 10115 net.cpp:425] inception_4c/output <- inception_4c/5x5
I0403 19:58:47.493533 10115 net.cpp:425] inception_4c/output <- inception_4c/pool_proj
I0403 19:58:47.493557 10115 net.cpp:399] inception_4c/output -> inception_4c/output
I0403 19:58:47.493614 10115 net.cpp:141] Setting up inception_4c/output
I0403 19:58:47.493643 10115 net.cpp:148] Top shape: 24 512 14 14 (2408448)
I0403 19:58:47.493660 10115 net.cpp:156] Memory required for data: 1072647456
I0403 19:58:47.493679 10115 layer_factory.hpp:77] Creating layer inception_4c/output_inception_4c/output_0_split
I0403 19:58:47.493706 10115 net.cpp:91] Creating Layer inception_4c/output_inception_4c/output_0_split
I0403 19:58:47.493726 10115 net.cpp:425] inception_4c/output_inception_4c/output_0_split <- inception_4c/output
I0403 19:58:47.493747 10115 net.cpp:399] inception_4c/output_inception_4c/output_0_split -> inception_4c/output_inception_4c/output_0_split_0
I0403 19:58:47.493772 10115 net.cpp:399] inception_4c/output_inception_4c/output_0_split -> inception_4c/output_inception_4c/output_0_split_1
I0403 19:58:47.493799 10115 net.cpp:399] inception_4c/output_inception_4c/output_0_split -> inception_4c/output_inception_4c/output_0_split_2
I0403 19:58:47.493824 10115 net.cpp:399] inception_4c/output_inception_4c/output_0_split -> inception_4c/output_inception_4c/output_0_split_3
I0403 19:58:47.493929 10115 net.cpp:141] Setting up inception_4c/output_inception_4c/output_0_split
I0403 19:58:47.493957 10115 net.cpp:148] Top shape: 24 512 14 14 (2408448)
I0403 19:58:47.493978 10115 net.cpp:148] Top shape: 24 512 14 14 (2408448)
I0403 19:58:47.493998 10115 net.cpp:148] Top shape: 24 512 14 14 (2408448)
I0403 19:58:47.494016 10115 net.cpp:148] Top shape: 24 512 14 14 (2408448)
I0403 19:58:47.494034 10115 net.cpp:156] Memory required for data: 1111182624
I0403 19:58:47.494051 10115 layer_factory.hpp:77] Creating layer inception_4d/1x1
I0403 19:58:47.494077 10115 net.cpp:91] Creating Layer inception_4d/1x1
I0403 19:58:47.494099 10115 net.cpp:425] inception_4d/1x1 <- inception_4c/output_inception_4c/output_0_split_0
I0403 19:58:47.494125 10115 net.cpp:399] inception_4d/1x1 -> inception_4d/1x1
I0403 19:58:47.495816 10115 net.cpp:141] Setting up inception_4d/1x1
I0403 19:58:47.495851 10115 net.cpp:148] Top shape: 24 112 14 14 (526848)
I0403 19:58:47.495870 10115 net.cpp:156] Memory required for data: 1113290016
I0403 19:58:47.495893 10115 layer_factory.hpp:77] Creating layer inception_4d/relu_1x1
I0403 19:58:47.495918 10115 net.cpp:91] Creating Layer inception_4d/relu_1x1
I0403 19:58:47.495939 10115 net.cpp:425] inception_4d/relu_1x1 <- inception_4d/1x1
I0403 19:58:47.495960 10115 net.cpp:386] inception_4d/relu_1x1 -> inception_4d/1x1 (in-place)
I0403 19:58:47.496184 10115 net.cpp:141] Setting up inception_4d/relu_1x1
I0403 19:58:47.496215 10115 net.cpp:148] Top shape: 24 112 14 14 (526848)
I0403 19:58:47.496233 10115 net.cpp:156] Memory required for data: 1115397408
I0403 19:58:47.496251 10115 layer_factory.hpp:77] Creating layer inception_4d/3x3_reduce
I0403 19:58:47.496304 10115 net.cpp:91] Creating Layer inception_4d/3x3_reduce
I0403 19:58:47.496326 10115 net.cpp:425] inception_4d/3x3_reduce <- inception_4c/output_inception_4c/output_0_split_1
I0403 19:58:47.496351 10115 net.cpp:399] inception_4d/3x3_reduce -> inception_4d/3x3_reduce
I0403 19:58:47.498180 10115 net.cpp:141] Setting up inception_4d/3x3_reduce
I0403 19:58:47.498214 10115 net.cpp:148] Top shape: 24 144 14 14 (677376)
I0403 19:58:47.498234 10115 net.cpp:156] Memory required for data: 1118106912
I0403 19:58:47.498255 10115 layer_factory.hpp:77] Creating layer inception_4d/relu_3x3_reduce
I0403 19:58:47.498283 10115 net.cpp:91] Creating Layer inception_4d/relu_3x3_reduce
I0403 19:58:47.498304 10115 net.cpp:425] inception_4d/relu_3x3_reduce <- inception_4d/3x3_reduce
I0403 19:58:47.498329 10115 net.cpp:386] inception_4d/relu_3x3_reduce -> inception_4d/3x3_reduce (in-place)
I0403 19:58:47.498677 10115 net.cpp:141] Setting up inception_4d/relu_3x3_reduce
I0403 19:58:47.498708 10115 net.cpp:148] Top shape: 24 144 14 14 (677376)
I0403 19:58:47.498728 10115 net.cpp:156] Memory required for data: 1120816416
I0403 19:58:47.498746 10115 layer_factory.hpp:77] Creating layer inception_4d/3x3
I0403 19:58:47.498778 10115 net.cpp:91] Creating Layer inception_4d/3x3
I0403 19:58:47.498800 10115 net.cpp:425] inception_4d/3x3 <- inception_4d/3x3_reduce
I0403 19:58:47.498826 10115 net.cpp:399] inception_4d/3x3 -> inception_4d/3x3
I0403 19:58:47.504082 10115 net.cpp:141] Setting up inception_4d/3x3
I0403 19:58:47.504119 10115 net.cpp:148] Top shape: 24 288 14 14 (1354752)
I0403 19:58:47.504139 10115 net.cpp:156] Memory required for data: 1126235424
I0403 19:58:47.504163 10115 layer_factory.hpp:77] Creating layer inception_4d/relu_3x3
I0403 19:58:47.504186 10115 net.cpp:91] Creating Layer inception_4d/relu_3x3
I0403 19:58:47.504207 10115 net.cpp:425] inception_4d/relu_3x3 <- inception_4d/3x3
I0403 19:58:47.504230 10115 net.cpp:386] inception_4d/relu_3x3 -> inception_4d/3x3 (in-place)
I0403 19:58:47.504464 10115 net.cpp:141] Setting up inception_4d/relu_3x3
I0403 19:58:47.504499 10115 net.cpp:148] Top shape: 24 288 14 14 (1354752)
I0403 19:58:47.504518 10115 net.cpp:156] Memory required for data: 1131654432
I0403 19:58:47.504537 10115 layer_factory.hpp:77] Creating layer inception_4d/5x5_reduce
I0403 19:58:47.504561 10115 net.cpp:91] Creating Layer inception_4d/5x5_reduce
I0403 19:58:47.504582 10115 net.cpp:425] inception_4d/5x5_reduce <- inception_4c/output_inception_4c/output_0_split_2
I0403 19:58:47.504608 10115 net.cpp:399] inception_4d/5x5_reduce -> inception_4d/5x5_reduce
I0403 19:58:47.506007 10115 net.cpp:141] Setting up inception_4d/5x5_reduce
I0403 19:58:47.506042 10115 net.cpp:148] Top shape: 24 32 14 14 (150528)
I0403 19:58:47.506062 10115 net.cpp:156] Memory required for data: 1132256544
I0403 19:58:47.506083 10115 layer_factory.hpp:77] Creating layer inception_4d/relu_5x5_reduce
I0403 19:58:47.506108 10115 net.cpp:91] Creating Layer inception_4d/relu_5x5_reduce
I0403 19:58:47.506129 10115 net.cpp:425] inception_4d/relu_5x5_reduce <- inception_4d/5x5_reduce
I0403 19:58:47.506152 10115 net.cpp:386] inception_4d/relu_5x5_reduce -> inception_4d/5x5_reduce (in-place)
I0403 19:58:47.506400 10115 net.cpp:141] Setting up inception_4d/relu_5x5_reduce
I0403 19:58:47.506431 10115 net.cpp:148] Top shape: 24 32 14 14 (150528)
I0403 19:58:47.506450 10115 net.cpp:156] Memory required for data: 1132858656
I0403 19:58:47.506469 10115 layer_factory.hpp:77] Creating layer inception_4d/5x5
I0403 19:58:47.506499 10115 net.cpp:91] Creating Layer inception_4d/5x5
I0403 19:58:47.506520 10115 net.cpp:425] inception_4d/5x5 <- inception_4d/5x5_reduce
I0403 19:58:47.506543 10115 net.cpp:399] inception_4d/5x5 -> inception_4d/5x5
I0403 19:58:47.508318 10115 net.cpp:141] Setting up inception_4d/5x5
I0403 19:58:47.508357 10115 net.cpp:148] Top shape: 24 64 14 14 (301056)
I0403 19:58:47.508378 10115 net.cpp:156] Memory required for data: 1134062880
I0403 19:58:47.508400 10115 layer_factory.hpp:77] Creating layer inception_4d/relu_5x5
I0403 19:58:47.508442 10115 net.cpp:91] Creating Layer inception_4d/relu_5x5
I0403 19:58:47.508463 10115 net.cpp:425] inception_4d/relu_5x5 <- inception_4d/5x5
I0403 19:58:47.508488 10115 net.cpp:386] inception_4d/relu_5x5 -> inception_4d/5x5 (in-place)
I0403 19:58:47.508857 10115 net.cpp:141] Setting up inception_4d/relu_5x5
I0403 19:58:47.508891 10115 net.cpp:148] Top shape: 24 64 14 14 (301056)
I0403 19:58:47.508913 10115 net.cpp:156] Memory required for data: 1135267104
I0403 19:58:47.508930 10115 layer_factory.hpp:77] Creating layer inception_4d/pool
I0403 19:58:47.508951 10115 net.cpp:91] Creating Layer inception_4d/pool
I0403 19:58:47.508972 10115 net.cpp:425] inception_4d/pool <- inception_4c/output_inception_4c/output_0_split_3
I0403 19:58:47.508997 10115 net.cpp:399] inception_4d/pool -> inception_4d/pool
I0403 19:58:47.509078 10115 net.cpp:141] Setting up inception_4d/pool
I0403 19:58:47.509109 10115 net.cpp:148] Top shape: 24 512 14 14 (2408448)
I0403 19:58:47.509127 10115 net.cpp:156] Memory required for data: 1144900896
I0403 19:58:47.509145 10115 layer_factory.hpp:77] Creating layer inception_4d/pool_proj
I0403 19:58:47.509172 10115 net.cpp:91] Creating Layer inception_4d/pool_proj
I0403 19:58:47.509194 10115 net.cpp:425] inception_4d/pool_proj <- inception_4d/pool
I0403 19:58:47.509220 10115 net.cpp:399] inception_4d/pool_proj -> inception_4d/pool_proj
I0403 19:58:47.511353 10115 net.cpp:141] Setting up inception_4d/pool_proj
I0403 19:58:47.511389 10115 net.cpp:148] Top shape: 24 64 14 14 (301056)
I0403 19:58:47.511409 10115 net.cpp:156] Memory required for data: 1146105120
I0403 19:58:47.511432 10115 layer_factory.hpp:77] Creating layer inception_4d/relu_pool_proj
I0403 19:58:47.511456 10115 net.cpp:91] Creating Layer inception_4d/relu_pool_proj
I0403 19:58:47.511478 10115 net.cpp:425] inception_4d/relu_pool_proj <- inception_4d/pool_proj
I0403 19:58:47.511499 10115 net.cpp:386] inception_4d/relu_pool_proj -> inception_4d/pool_proj (in-place)
I0403 19:58:47.511725 10115 net.cpp:141] Setting up inception_4d/relu_pool_proj
I0403 19:58:47.511759 10115 net.cpp:148] Top shape: 24 64 14 14 (301056)
I0403 19:58:47.511780 10115 net.cpp:156] Memory required for data: 1147309344
I0403 19:58:47.511798 10115 layer_factory.hpp:77] Creating layer inception_4d/output
I0403 19:58:47.511819 10115 net.cpp:91] Creating Layer inception_4d/output
I0403 19:58:47.511839 10115 net.cpp:425] inception_4d/output <- inception_4d/1x1
I0403 19:58:47.511860 10115 net.cpp:425] inception_4d/output <- inception_4d/3x3
I0403 19:58:47.511880 10115 net.cpp:425] inception_4d/output <- inception_4d/5x5
I0403 19:58:47.511900 10115 net.cpp:425] inception_4d/output <- inception_4d/pool_proj
I0403 19:58:47.511920 10115 net.cpp:399] inception_4d/output -> inception_4d/output
I0403 19:58:47.511981 10115 net.cpp:141] Setting up inception_4d/output
I0403 19:58:47.512009 10115 net.cpp:148] Top shape: 24 528 14 14 (2483712)
I0403 19:58:47.512027 10115 net.cpp:156] Memory required for data: 1157244192
I0403 19:58:47.512044 10115 layer_factory.hpp:77] Creating layer inception_4d/output_inception_4d/output_0_split
I0403 19:58:47.512069 10115 net.cpp:91] Creating Layer inception_4d/output_inception_4d/output_0_split
I0403 19:58:47.512089 10115 net.cpp:425] inception_4d/output_inception_4d/output_0_split <- inception_4d/output
I0403 19:58:47.512112 10115 net.cpp:399] inception_4d/output_inception_4d/output_0_split -> inception_4d/output_inception_4d/output_0_split_0
I0403 19:58:47.512136 10115 net.cpp:399] inception_4d/output_inception_4d/output_0_split -> inception_4d/output_inception_4d/output_0_split_1
I0403 19:58:47.512162 10115 net.cpp:399] inception_4d/output_inception_4d/output_0_split -> inception_4d/output_inception_4d/output_0_split_2
I0403 19:58:47.512188 10115 net.cpp:399] inception_4d/output_inception_4d/output_0_split -> inception_4d/output_inception_4d/output_0_split_3
I0403 19:58:47.512220 10115 net.cpp:399] inception_4d/output_inception_4d/output_0_split -> inception_4d/output_inception_4d/output_0_split_4
I0403 19:58:47.512357 10115 net.cpp:141] Setting up inception_4d/output_inception_4d/output_0_split
I0403 19:58:47.512403 10115 net.cpp:148] Top shape: 24 528 14 14 (2483712)
I0403 19:58:47.512424 10115 net.cpp:148] Top shape: 24 528 14 14 (2483712)
I0403 19:58:47.512444 10115 net.cpp:148] Top shape: 24 528 14 14 (2483712)
I0403 19:58:47.512465 10115 net.cpp:148] Top shape: 24 528 14 14 (2483712)
I0403 19:58:47.512483 10115 net.cpp:148] Top shape: 24 528 14 14 (2483712)
I0403 19:58:47.512501 10115 net.cpp:156] Memory required for data: 1206918432
I0403 19:58:47.512521 10115 layer_factory.hpp:77] Creating layer loss2/ave_pool
I0403 19:58:47.512542 10115 net.cpp:91] Creating Layer loss2/ave_pool
I0403 19:58:47.512562 10115 net.cpp:425] loss2/ave_pool <- inception_4d/output_inception_4d/output_0_split_0
I0403 19:58:47.512588 10115 net.cpp:399] loss2/ave_pool -> loss2/ave_pool
I0403 19:58:47.512960 10115 net.cpp:141] Setting up loss2/ave_pool
I0403 19:58:47.512994 10115 net.cpp:148] Top shape: 24 528 4 4 (202752)
I0403 19:58:47.513012 10115 net.cpp:156] Memory required for data: 1207729440
I0403 19:58:47.513031 10115 layer_factory.hpp:77] Creating layer loss2/conv
I0403 19:58:47.513057 10115 net.cpp:91] Creating Layer loss2/conv
I0403 19:58:47.513080 10115 net.cpp:425] loss2/conv <- loss2/ave_pool
I0403 19:58:47.513108 10115 net.cpp:399] loss2/conv -> loss2/conv
I0403 19:58:47.515406 10115 net.cpp:141] Setting up loss2/conv
I0403 19:58:47.515447 10115 net.cpp:148] Top shape: 24 128 4 4 (49152)
I0403 19:58:47.515467 10115 net.cpp:156] Memory required for data: 1207926048
I0403 19:58:47.515491 10115 layer_factory.hpp:77] Creating layer loss2/relu_conv
I0403 19:58:47.515512 10115 net.cpp:91] Creating Layer loss2/relu_conv
I0403 19:58:47.515532 10115 net.cpp:425] loss2/relu_conv <- loss2/conv
I0403 19:58:47.515554 10115 net.cpp:386] loss2/relu_conv -> loss2/conv (in-place)
I0403 19:58:47.515902 10115 net.cpp:141] Setting up loss2/relu_conv
I0403 19:58:47.515938 10115 net.cpp:148] Top shape: 24 128 4 4 (49152)
I0403 19:58:47.515957 10115 net.cpp:156] Memory required for data: 1208122656
I0403 19:58:47.515976 10115 layer_factory.hpp:77] Creating layer loss2/fc
I0403 19:58:47.516000 10115 net.cpp:91] Creating Layer loss2/fc
I0403 19:58:47.516019 10115 net.cpp:425] loss2/fc <- loss2/conv
I0403 19:58:47.516044 10115 net.cpp:399] loss2/fc -> loss2/fc
I0403 19:58:47.538005 10115 net.cpp:141] Setting up loss2/fc
I0403 19:58:47.538046 10115 net.cpp:148] Top shape: 24 1024 (24576)
I0403 19:58:47.538066 10115 net.cpp:156] Memory required for data: 1208220960
I0403 19:58:47.538091 10115 layer_factory.hpp:77] Creating layer loss2/relu_fc
I0403 19:58:47.538117 10115 net.cpp:91] Creating Layer loss2/relu_fc
I0403 19:58:47.538139 10115 net.cpp:425] loss2/relu_fc <- loss2/fc
I0403 19:58:47.538161 10115 net.cpp:386] loss2/relu_fc -> loss2/fc (in-place)
I0403 19:58:47.538544 10115 net.cpp:141] Setting up loss2/relu_fc
I0403 19:58:47.538578 10115 net.cpp:148] Top shape: 24 1024 (24576)
I0403 19:58:47.538596 10115 net.cpp:156] Memory required for data: 1208319264
I0403 19:58:47.538615 10115 layer_factory.hpp:77] Creating layer loss2/drop_fc
I0403 19:58:47.538640 10115 net.cpp:91] Creating Layer loss2/drop_fc
I0403 19:58:47.538662 10115 net.cpp:425] loss2/drop_fc <- loss2/fc
I0403 19:58:47.538684 10115 net.cpp:386] loss2/drop_fc -> loss2/fc (in-place)
I0403 19:58:47.538748 10115 net.cpp:141] Setting up loss2/drop_fc
I0403 19:58:47.538775 10115 net.cpp:148] Top shape: 24 1024 (24576)
I0403 19:58:47.538794 10115 net.cpp:156] Memory required for data: 1208417568
I0403 19:58:47.538813 10115 layer_factory.hpp:77] Creating layer loss2/classifier_plantvillage
I0403 19:58:47.538835 10115 net.cpp:91] Creating Layer loss2/classifier_plantvillage
I0403 19:58:47.538857 10115 net.cpp:425] loss2/classifier_plantvillage <- loss2/fc
I0403 19:58:47.538880 10115 net.cpp:399] loss2/classifier_plantvillage -> loss2/classifier_plantvillage
I0403 19:58:47.539381 10115 net.cpp:141] Setting up loss2/classifier_plantvillage
I0403 19:58:47.539412 10115 net.cpp:148] Top shape: 24 38 (912)
I0403 19:58:47.539430 10115 net.cpp:156] Memory required for data: 1208421216
I0403 19:58:47.539474 10115 layer_factory.hpp:77] Creating layer loss2/classifier_plantvillage_loss2/classifier_plantvillage_0_split
I0403 19:58:47.539497 10115 net.cpp:91] Creating Layer loss2/classifier_plantvillage_loss2/classifier_plantvillage_0_split
I0403 19:58:47.539517 10115 net.cpp:425] loss2/classifier_plantvillage_loss2/classifier_plantvillage_0_split <- loss2/classifier_plantvillage
I0403 19:58:47.539542 10115 net.cpp:399] loss2/classifier_plantvillage_loss2/classifier_plantvillage_0_split -> loss2/classifier_plantvillage_loss2/classifier_plantvillage_0_split_0
I0403 19:58:47.539568 10115 net.cpp:399] loss2/classifier_plantvillage_loss2/classifier_plantvillage_0_split -> loss2/classifier_plantvillage_loss2/classifier_plantvillage_0_split_1
I0403 19:58:47.539594 10115 net.cpp:399] loss2/classifier_plantvillage_loss2/classifier_plantvillage_0_split -> loss2/classifier_plantvillage_loss2/classifier_plantvillage_0_split_2
I0403 19:58:47.539688 10115 net.cpp:141] Setting up loss2/classifier_plantvillage_loss2/classifier_plantvillage_0_split
I0403 19:58:47.539721 10115 net.cpp:148] Top shape: 24 38 (912)
I0403 19:58:47.539741 10115 net.cpp:148] Top shape: 24 38 (912)
I0403 19:58:47.539760 10115 net.cpp:148] Top shape: 24 38 (912)
I0403 19:58:47.539778 10115 net.cpp:156] Memory required for data: 1208432160
I0403 19:58:47.539796 10115 layer_factory.hpp:77] Creating layer inception_4e/1x1
I0403 19:58:47.539824 10115 net.cpp:91] Creating Layer inception_4e/1x1
I0403 19:58:47.539845 10115 net.cpp:425] inception_4e/1x1 <- inception_4d/output_inception_4d/output_0_split_1
I0403 19:58:47.539868 10115 net.cpp:399] inception_4e/1x1 -> inception_4e/1x1
I0403 19:58:47.542101 10115 net.cpp:141] Setting up inception_4e/1x1
I0403 19:58:47.542140 10115 net.cpp:148] Top shape: 24 256 14 14 (1204224)
I0403 19:58:47.542160 10115 net.cpp:156] Memory required for data: 1213249056
I0403 19:58:47.542181 10115 layer_factory.hpp:77] Creating layer inception_4e/relu_1x1
I0403 19:58:47.542204 10115 net.cpp:91] Creating Layer inception_4e/relu_1x1
I0403 19:58:47.542224 10115 net.cpp:425] inception_4e/relu_1x1 <- inception_4e/1x1
I0403 19:58:47.542253 10115 net.cpp:386] inception_4e/relu_1x1 -> inception_4e/1x1 (in-place)
I0403 19:58:47.542615 10115 net.cpp:141] Setting up inception_4e/relu_1x1
I0403 19:58:47.542649 10115 net.cpp:148] Top shape: 24 256 14 14 (1204224)
I0403 19:58:47.542670 10115 net.cpp:156] Memory required for data: 1218065952
I0403 19:58:47.542687 10115 layer_factory.hpp:77] Creating layer inception_4e/3x3_reduce
I0403 19:58:47.542714 10115 net.cpp:91] Creating Layer inception_4e/3x3_reduce
I0403 19:58:47.542737 10115 net.cpp:425] inception_4e/3x3_reduce <- inception_4d/output_inception_4d/output_0_split_2
I0403 19:58:47.542760 10115 net.cpp:399] inception_4e/3x3_reduce -> inception_4e/3x3_reduce
I0403 19:58:47.545334 10115 net.cpp:141] Setting up inception_4e/3x3_reduce
I0403 19:58:47.545373 10115 net.cpp:148] Top shape: 24 160 14 14 (752640)
I0403 19:58:47.545394 10115 net.cpp:156] Memory required for data: 1221076512
I0403 19:58:47.545416 10115 layer_factory.hpp:77] Creating layer inception_4e/relu_3x3_reduce
I0403 19:58:47.545439 10115 net.cpp:91] Creating Layer inception_4e/relu_3x3_reduce
I0403 19:58:47.545459 10115 net.cpp:425] inception_4e/relu_3x3_reduce <- inception_4e/3x3_reduce
I0403 19:58:47.545480 10115 net.cpp:386] inception_4e/relu_3x3_reduce -> inception_4e/3x3_reduce (in-place)
I0403 19:58:47.545708 10115 net.cpp:141] Setting up inception_4e/relu_3x3_reduce
I0403 19:58:47.545742 10115 net.cpp:148] Top shape: 24 160 14 14 (752640)
I0403 19:58:47.545761 10115 net.cpp:156] Memory required for data: 1224087072
I0403 19:58:47.545779 10115 layer_factory.hpp:77] Creating layer inception_4e/3x3
I0403 19:58:47.545810 10115 net.cpp:91] Creating Layer inception_4e/3x3
I0403 19:58:47.545832 10115 net.cpp:425] inception_4e/3x3 <- inception_4e/3x3_reduce
I0403 19:58:47.545861 10115 net.cpp:399] inception_4e/3x3 -> inception_4e/3x3
I0403 19:58:47.552045 10115 net.cpp:141] Setting up inception_4e/3x3
I0403 19:58:47.552096 10115 net.cpp:148] Top shape: 24 320 14 14 (1505280)
I0403 19:58:47.552117 10115 net.cpp:156] Memory required for data: 1230108192
I0403 19:58:47.552140 10115 layer_factory.hpp:77] Creating layer inception_4e/relu_3x3
I0403 19:58:47.552162 10115 net.cpp:91] Creating Layer inception_4e/relu_3x3
I0403 19:58:47.552181 10115 net.cpp:425] inception_4e/relu_3x3 <- inception_4e/3x3
I0403 19:58:47.552206 10115 net.cpp:386] inception_4e/relu_3x3 -> inception_4e/3x3 (in-place)
I0403 19:58:47.552577 10115 net.cpp:141] Setting up inception_4e/relu_3x3
I0403 19:58:47.552610 10115 net.cpp:148] Top shape: 24 320 14 14 (1505280)
I0403 19:58:47.552629 10115 net.cpp:156] Memory required for data: 1236129312
I0403 19:58:47.552647 10115 layer_factory.hpp:77] Creating layer inception_4e/5x5_reduce
I0403 19:58:47.552675 10115 net.cpp:91] Creating Layer inception_4e/5x5_reduce
I0403 19:58:47.552696 10115 net.cpp:425] inception_4e/5x5_reduce <- inception_4d/output_inception_4d/output_0_split_3
I0403 19:58:47.552724 10115 net.cpp:399] inception_4e/5x5_reduce -> inception_4e/5x5_reduce
I0403 19:58:47.554045 10115 net.cpp:141] Setting up inception_4e/5x5_reduce
I0403 19:58:47.554082 10115 net.cpp:148] Top shape: 24 32 14 14 (150528)
I0403 19:58:47.554102 10115 net.cpp:156] Memory required for data: 1236731424
I0403 19:58:47.554124 10115 layer_factory.hpp:77] Creating layer inception_4e/relu_5x5_reduce
I0403 19:58:47.554147 10115 net.cpp:91] Creating Layer inception_4e/relu_5x5_reduce
I0403 19:58:47.554167 10115 net.cpp:425] inception_4e/relu_5x5_reduce <- inception_4e/5x5_reduce
I0403 19:58:47.554193 10115 net.cpp:386] inception_4e/relu_5x5_reduce -> inception_4e/5x5_reduce (in-place)
I0403 19:58:47.554555 10115 net.cpp:141] Setting up inception_4e/relu_5x5_reduce
I0403 19:58:47.554590 10115 net.cpp:148] Top shape: 24 32 14 14 (150528)
I0403 19:58:47.554610 10115 net.cpp:156] Memory required for data: 1237333536
I0403 19:58:47.554628 10115 layer_factory.hpp:77] Creating layer inception_4e/5x5
I0403 19:58:47.554674 10115 net.cpp:91] Creating Layer inception_4e/5x5
I0403 19:58:47.554698 10115 net.cpp:425] inception_4e/5x5 <- inception_4e/5x5_reduce
I0403 19:58:47.554723 10115 net.cpp:399] inception_4e/5x5 -> inception_4e/5x5
I0403 19:58:47.556951 10115 net.cpp:141] Setting up inception_4e/5x5
I0403 19:58:47.556985 10115 net.cpp:148] Top shape: 24 128 14 14 (602112)
I0403 19:58:47.557004 10115 net.cpp:156] Memory required for data: 1239741984
I0403 19:58:47.557029 10115 layer_factory.hpp:77] Creating layer inception_4e/relu_5x5
I0403 19:58:47.557054 10115 net.cpp:91] Creating Layer inception_4e/relu_5x5
I0403 19:58:47.557075 10115 net.cpp:425] inception_4e/relu_5x5 <- inception_4e/5x5
I0403 19:58:47.557096 10115 net.cpp:386] inception_4e/relu_5x5 -> inception_4e/5x5 (in-place)
I0403 19:58:47.557343 10115 net.cpp:141] Setting up inception_4e/relu_5x5
I0403 19:58:47.557377 10115 net.cpp:148] Top shape: 24 128 14 14 (602112)
I0403 19:58:47.557396 10115 net.cpp:156] Memory required for data: 1242150432
I0403 19:58:47.557415 10115 layer_factory.hpp:77] Creating layer inception_4e/pool
I0403 19:58:47.557436 10115 net.cpp:91] Creating Layer inception_4e/pool
I0403 19:58:47.557456 10115 net.cpp:425] inception_4e/pool <- inception_4d/output_inception_4d/output_0_split_4
I0403 19:58:47.557481 10115 net.cpp:399] inception_4e/pool -> inception_4e/pool
I0403 19:58:47.557570 10115 net.cpp:141] Setting up inception_4e/pool
I0403 19:58:47.557600 10115 net.cpp:148] Top shape: 24 528 14 14 (2483712)
I0403 19:58:47.557616 10115 net.cpp:156] Memory required for data: 1252085280
I0403 19:58:47.557634 10115 layer_factory.hpp:77] Creating layer inception_4e/pool_proj
I0403 19:58:47.557662 10115 net.cpp:91] Creating Layer inception_4e/pool_proj
I0403 19:58:47.557682 10115 net.cpp:425] inception_4e/pool_proj <- inception_4e/pool
I0403 19:58:47.557708 10115 net.cpp:399] inception_4e/pool_proj -> inception_4e/pool_proj
I0403 19:58:47.559550 10115 net.cpp:141] Setting up inception_4e/pool_proj
I0403 19:58:47.559583 10115 net.cpp:148] Top shape: 24 128 14 14 (602112)
I0403 19:58:47.559619 10115 net.cpp:156] Memory required for data: 1254493728
I0403 19:58:47.559643 10115 layer_factory.hpp:77] Creating layer inception_4e/relu_pool_proj
I0403 19:58:47.559669 10115 net.cpp:91] Creating Layer inception_4e/relu_pool_proj
I0403 19:58:47.559689 10115 net.cpp:425] inception_4e/relu_pool_proj <- inception_4e/pool_proj
I0403 19:58:47.559710 10115 net.cpp:386] inception_4e/relu_pool_proj -> inception_4e/pool_proj (in-place)
I0403 19:58:47.560065 10115 net.cpp:141] Setting up inception_4e/relu_pool_proj
I0403 19:58:47.560097 10115 net.cpp:148] Top shape: 24 128 14 14 (602112)
I0403 19:58:47.560117 10115 net.cpp:156] Memory required for data: 1256902176
I0403 19:58:47.560135 10115 layer_factory.hpp:77] Creating layer inception_4e/output
I0403 19:58:47.560158 10115 net.cpp:91] Creating Layer inception_4e/output
I0403 19:58:47.560176 10115 net.cpp:425] inception_4e/output <- inception_4e/1x1
I0403 19:58:47.560196 10115 net.cpp:425] inception_4e/output <- inception_4e/3x3
I0403 19:58:47.560216 10115 net.cpp:425] inception_4e/output <- inception_4e/5x5
I0403 19:58:47.560236 10115 net.cpp:425] inception_4e/output <- inception_4e/pool_proj
I0403 19:58:47.560261 10115 net.cpp:399] inception_4e/output -> inception_4e/output
I0403 19:58:47.560331 10115 net.cpp:141] Setting up inception_4e/output
I0403 19:58:47.560360 10115 net.cpp:148] Top shape: 24 832 14 14 (3913728)
I0403 19:58:47.560379 10115 net.cpp:156] Memory required for data: 1272557088
I0403 19:58:47.560396 10115 layer_factory.hpp:77] Creating layer pool4/3x3_s2
I0403 19:58:47.560417 10115 net.cpp:91] Creating Layer pool4/3x3_s2
I0403 19:58:47.560437 10115 net.cpp:425] pool4/3x3_s2 <- inception_4e/output
I0403 19:58:47.560462 10115 net.cpp:399] pool4/3x3_s2 -> pool4/3x3_s2
I0403 19:58:47.560544 10115 net.cpp:141] Setting up pool4/3x3_s2
I0403 19:58:47.560572 10115 net.cpp:148] Top shape: 24 832 7 7 (978432)
I0403 19:58:47.560590 10115 net.cpp:156] Memory required for data: 1276470816
I0403 19:58:47.560607 10115 layer_factory.hpp:77] Creating layer pool4/3x3_s2_pool4/3x3_s2_0_split
I0403 19:58:47.560632 10115 net.cpp:91] Creating Layer pool4/3x3_s2_pool4/3x3_s2_0_split
I0403 19:58:47.560653 10115 net.cpp:425] pool4/3x3_s2_pool4/3x3_s2_0_split <- pool4/3x3_s2
I0403 19:58:47.560674 10115 net.cpp:399] pool4/3x3_s2_pool4/3x3_s2_0_split -> pool4/3x3_s2_pool4/3x3_s2_0_split_0
I0403 19:58:47.560701 10115 net.cpp:399] pool4/3x3_s2_pool4/3x3_s2_0_split -> pool4/3x3_s2_pool4/3x3_s2_0_split_1
I0403 19:58:47.560726 10115 net.cpp:399] pool4/3x3_s2_pool4/3x3_s2_0_split -> pool4/3x3_s2_pool4/3x3_s2_0_split_2
I0403 19:58:47.560752 10115 net.cpp:399] pool4/3x3_s2_pool4/3x3_s2_0_split -> pool4/3x3_s2_pool4/3x3_s2_0_split_3
I0403 19:58:47.560863 10115 net.cpp:141] Setting up pool4/3x3_s2_pool4/3x3_s2_0_split
I0403 19:58:47.560891 10115 net.cpp:148] Top shape: 24 832 7 7 (978432)
I0403 19:58:47.560912 10115 net.cpp:148] Top shape: 24 832 7 7 (978432)
I0403 19:58:47.560931 10115 net.cpp:148] Top shape: 24 832 7 7 (978432)
I0403 19:58:47.560950 10115 net.cpp:148] Top shape: 24 832 7 7 (978432)
I0403 19:58:47.560967 10115 net.cpp:156] Memory required for data: 1292125728
I0403 19:58:47.560984 10115 layer_factory.hpp:77] Creating layer inception_5a/1x1
I0403 19:58:47.561012 10115 net.cpp:91] Creating Layer inception_5a/1x1
I0403 19:58:47.561033 10115 net.cpp:425] inception_5a/1x1 <- pool4/3x3_s2_pool4/3x3_s2_0_split_0
I0403 19:58:47.561058 10115 net.cpp:399] inception_5a/1x1 -> inception_5a/1x1
I0403 19:58:47.564591 10115 net.cpp:141] Setting up inception_5a/1x1
I0403 19:58:47.564627 10115 net.cpp:148] Top shape: 24 256 7 7 (301056)
I0403 19:58:47.564651 10115 net.cpp:156] Memory required for data: 1293329952
I0403 19:58:47.564672 10115 layer_factory.hpp:77] Creating layer inception_5a/relu_1x1
I0403 19:58:47.564694 10115 net.cpp:91] Creating Layer inception_5a/relu_1x1
I0403 19:58:47.564714 10115 net.cpp:425] inception_5a/relu_1x1 <- inception_5a/1x1
I0403 19:58:47.564736 10115 net.cpp:386] inception_5a/relu_1x1 -> inception_5a/1x1 (in-place)
I0403 19:58:47.565115 10115 net.cpp:141] Setting up inception_5a/relu_1x1
I0403 19:58:47.565147 10115 net.cpp:148] Top shape: 24 256 7 7 (301056)
I0403 19:58:47.565171 10115 net.cpp:156] Memory required for data: 1294534176
I0403 19:58:47.565188 10115 layer_factory.hpp:77] Creating layer inception_5a/3x3_reduce
I0403 19:58:47.565213 10115 net.cpp:91] Creating Layer inception_5a/3x3_reduce
I0403 19:58:47.565234 10115 net.cpp:425] inception_5a/3x3_reduce <- pool4/3x3_s2_pool4/3x3_s2_0_split_1
I0403 19:58:47.565260 10115 net.cpp:399] inception_5a/3x3_reduce -> inception_5a/3x3_reduce
I0403 19:58:47.568259 10115 net.cpp:141] Setting up inception_5a/3x3_reduce
I0403 19:58:47.568300 10115 net.cpp:148] Top shape: 24 160 7 7 (188160)
I0403 19:58:47.568320 10115 net.cpp:156] Memory required for data: 1295286816
I0403 19:58:47.568343 10115 layer_factory.hpp:77] Creating layer inception_5a/relu_3x3_reduce
I0403 19:58:47.568366 10115 net.cpp:91] Creating Layer inception_5a/relu_3x3_reduce
I0403 19:58:47.568384 10115 net.cpp:425] inception_5a/relu_3x3_reduce <- inception_5a/3x3_reduce
I0403 19:58:47.568408 10115 net.cpp:386] inception_5a/relu_3x3_reduce -> inception_5a/3x3_reduce (in-place)
I0403 19:58:47.568645 10115 net.cpp:141] Setting up inception_5a/relu_3x3_reduce
I0403 19:58:47.568676 10115 net.cpp:148] Top shape: 24 160 7 7 (188160)
I0403 19:58:47.568694 10115 net.cpp:156] Memory required for data: 1296039456
I0403 19:58:47.568713 10115 layer_factory.hpp:77] Creating layer inception_5a/3x3
I0403 19:58:47.568740 10115 net.cpp:91] Creating Layer inception_5a/3x3
I0403 19:58:47.568763 10115 net.cpp:425] inception_5a/3x3 <- inception_5a/3x3_reduce
I0403 19:58:47.568789 10115 net.cpp:399] inception_5a/3x3 -> inception_5a/3x3
I0403 19:58:47.575028 10115 net.cpp:141] Setting up inception_5a/3x3
I0403 19:58:47.575067 10115 net.cpp:148] Top shape: 24 320 7 7 (376320)
I0403 19:58:47.575086 10115 net.cpp:156] Memory required for data: 1297544736
I0403 19:58:47.575110 10115 layer_factory.hpp:77] Creating layer inception_5a/relu_3x3
I0403 19:58:47.575135 10115 net.cpp:91] Creating Layer inception_5a/relu_3x3
I0403 19:58:47.575156 10115 net.cpp:425] inception_5a/relu_3x3 <- inception_5a/3x3
I0403 19:58:47.575178 10115 net.cpp:386] inception_5a/relu_3x3 -> inception_5a/3x3 (in-place)
I0403 19:58:47.575548 10115 net.cpp:141] Setting up inception_5a/relu_3x3
I0403 19:58:47.575580 10115 net.cpp:148] Top shape: 24 320 7 7 (376320)
I0403 19:58:47.575598 10115 net.cpp:156] Memory required for data: 1299050016
I0403 19:58:47.575618 10115 layer_factory.hpp:77] Creating layer inception_5a/5x5_reduce
I0403 19:58:47.575649 10115 net.cpp:91] Creating Layer inception_5a/5x5_reduce
I0403 19:58:47.575670 10115 net.cpp:425] inception_5a/5x5_reduce <- pool4/3x3_s2_pool4/3x3_s2_0_split_2
I0403 19:58:47.575695 10115 net.cpp:399] inception_5a/5x5_reduce -> inception_5a/5x5_reduce
I0403 19:58:47.577155 10115 net.cpp:141] Setting up inception_5a/5x5_reduce
I0403 19:58:47.577193 10115 net.cpp:148] Top shape: 24 32 7 7 (37632)
I0403 19:58:47.577214 10115 net.cpp:156] Memory required for data: 1299200544
I0403 19:58:47.577236 10115 layer_factory.hpp:77] Creating layer inception_5a/relu_5x5_reduce
I0403 19:58:47.577258 10115 net.cpp:91] Creating Layer inception_5a/relu_5x5_reduce
I0403 19:58:47.577285 10115 net.cpp:425] inception_5a/relu_5x5_reduce <- inception_5a/5x5_reduce
I0403 19:58:47.577307 10115 net.cpp:386] inception_5a/relu_5x5_reduce -> inception_5a/5x5_reduce (in-place)
I0403 19:58:47.577677 10115 net.cpp:141] Setting up inception_5a/relu_5x5_reduce
I0403 19:58:47.577711 10115 net.cpp:148] Top shape: 24 32 7 7 (37632)
I0403 19:58:47.577730 10115 net.cpp:156] Memory required for data: 1299351072
I0403 19:58:47.577749 10115 layer_factory.hpp:77] Creating layer inception_5a/5x5
I0403 19:58:47.577777 10115 net.cpp:91] Creating Layer inception_5a/5x5
I0403 19:58:47.577800 10115 net.cpp:425] inception_5a/5x5 <- inception_5a/5x5_reduce
I0403 19:58:47.577822 10115 net.cpp:399] inception_5a/5x5 -> inception_5a/5x5
I0403 19:58:47.579952 10115 net.cpp:141] Setting up inception_5a/5x5
I0403 19:58:47.580001 10115 net.cpp:148] Top shape: 24 128 7 7 (150528)
I0403 19:58:47.580021 10115 net.cpp:156] Memory required for data: 1299953184
I0403 19:58:47.580044 10115 layer_factory.hpp:77] Creating layer inception_5a/relu_5x5
I0403 19:58:47.580068 10115 net.cpp:91] Creating Layer inception_5a/relu_5x5
I0403 19:58:47.580090 10115 net.cpp:425] inception_5a/relu_5x5 <- inception_5a/5x5
I0403 19:58:47.580111 10115 net.cpp:386] inception_5a/relu_5x5 -> inception_5a/5x5 (in-place)
I0403 19:58:47.580356 10115 net.cpp:141] Setting up inception_5a/relu_5x5
I0403 19:58:47.580391 10115 net.cpp:148] Top shape: 24 128 7 7 (150528)
I0403 19:58:47.580410 10115 net.cpp:156] Memory required for data: 1300555296
I0403 19:58:47.580428 10115 layer_factory.hpp:77] Creating layer inception_5a/pool
I0403 19:58:47.580451 10115 net.cpp:91] Creating Layer inception_5a/pool
I0403 19:58:47.580471 10115 net.cpp:425] inception_5a/pool <- pool4/3x3_s2_pool4/3x3_s2_0_split_3
I0403 19:58:47.580497 10115 net.cpp:399] inception_5a/pool -> inception_5a/pool
I0403 19:58:47.580584 10115 net.cpp:141] Setting up inception_5a/pool
I0403 19:58:47.580613 10115 net.cpp:148] Top shape: 24 832 7 7 (978432)
I0403 19:58:47.580631 10115 net.cpp:156] Memory required for data: 1304469024
I0403 19:58:47.580648 10115 layer_factory.hpp:77] Creating layer inception_5a/pool_proj
I0403 19:58:47.580677 10115 net.cpp:91] Creating Layer inception_5a/pool_proj
I0403 19:58:47.580698 10115 net.cpp:425] inception_5a/pool_proj <- inception_5a/pool
I0403 19:58:47.580721 10115 net.cpp:399] inception_5a/pool_proj -> inception_5a/pool_proj
I0403 19:58:47.583516 10115 net.cpp:141] Setting up inception_5a/pool_proj
I0403 19:58:47.583554 10115 net.cpp:148] Top shape: 24 128 7 7 (150528)
I0403 19:58:47.583572 10115 net.cpp:156] Memory required for data: 1305071136
I0403 19:58:47.583596 10115 layer_factory.hpp:77] Creating layer inception_5a/relu_pool_proj
I0403 19:58:47.583621 10115 net.cpp:91] Creating Layer inception_5a/relu_pool_proj
I0403 19:58:47.583642 10115 net.cpp:425] inception_5a/relu_pool_proj <- inception_5a/pool_proj
I0403 19:58:47.583663 10115 net.cpp:386] inception_5a/relu_pool_proj -> inception_5a/pool_proj (in-place)
I0403 19:58:47.584024 10115 net.cpp:141] Setting up inception_5a/relu_pool_proj
I0403 19:58:47.584056 10115 net.cpp:148] Top shape: 24 128 7 7 (150528)
I0403 19:58:47.584075 10115 net.cpp:156] Memory required for data: 1305673248
I0403 19:58:47.584095 10115 layer_factory.hpp:77] Creating layer inception_5a/output
I0403 19:58:47.584118 10115 net.cpp:91] Creating Layer inception_5a/output
I0403 19:58:47.584139 10115 net.cpp:425] inception_5a/output <- inception_5a/1x1
I0403 19:58:47.584159 10115 net.cpp:425] inception_5a/output <- inception_5a/3x3
I0403 19:58:47.584179 10115 net.cpp:425] inception_5a/output <- inception_5a/5x5
I0403 19:58:47.584199 10115 net.cpp:425] inception_5a/output <- inception_5a/pool_proj
I0403 19:58:47.584219 10115 net.cpp:399] inception_5a/output -> inception_5a/output
I0403 19:58:47.584288 10115 net.cpp:141] Setting up inception_5a/output
I0403 19:58:47.584318 10115 net.cpp:148] Top shape: 24 832 7 7 (978432)
I0403 19:58:47.584336 10115 net.cpp:156] Memory required for data: 1309586976
I0403 19:58:47.584354 10115 layer_factory.hpp:77] Creating layer inception_5a/output_inception_5a/output_0_split
I0403 19:58:47.584375 10115 net.cpp:91] Creating Layer inception_5a/output_inception_5a/output_0_split
I0403 19:58:47.584394 10115 net.cpp:425] inception_5a/output_inception_5a/output_0_split <- inception_5a/output
I0403 19:58:47.584419 10115 net.cpp:399] inception_5a/output_inception_5a/output_0_split -> inception_5a/output_inception_5a/output_0_split_0
I0403 19:58:47.584445 10115 net.cpp:399] inception_5a/output_inception_5a/output_0_split -> inception_5a/output_inception_5a/output_0_split_1
I0403 19:58:47.584470 10115 net.cpp:399] inception_5a/output_inception_5a/output_0_split -> inception_5a/output_inception_5a/output_0_split_2
I0403 19:58:47.584496 10115 net.cpp:399] inception_5a/output_inception_5a/output_0_split -> inception_5a/output_inception_5a/output_0_split_3
I0403 19:58:47.584635 10115 net.cpp:141] Setting up inception_5a/output_inception_5a/output_0_split
I0403 19:58:47.584671 10115 net.cpp:148] Top shape: 24 832 7 7 (978432)
I0403 19:58:47.584692 10115 net.cpp:148] Top shape: 24 832 7 7 (978432)
I0403 19:58:47.584712 10115 net.cpp:148] Top shape: 24 832 7 7 (978432)
I0403 19:58:47.584731 10115 net.cpp:148] Top shape: 24 832 7 7 (978432)
I0403 19:58:47.584748 10115 net.cpp:156] Memory required for data: 1325241888
I0403 19:58:47.584766 10115 layer_factory.hpp:77] Creating layer inception_5b/1x1
I0403 19:58:47.584794 10115 net.cpp:91] Creating Layer inception_5b/1x1
I0403 19:58:47.584815 10115 net.cpp:425] inception_5b/1x1 <- inception_5a/output_inception_5a/output_0_split_0
I0403 19:58:47.584838 10115 net.cpp:399] inception_5b/1x1 -> inception_5b/1x1
I0403 19:58:47.589443 10115 net.cpp:141] Setting up inception_5b/1x1
I0403 19:58:47.589483 10115 net.cpp:148] Top shape: 24 384 7 7 (451584)
I0403 19:58:47.589501 10115 net.cpp:156] Memory required for data: 1327048224
I0403 19:58:47.589525 10115 layer_factory.hpp:77] Creating layer inception_5b/relu_1x1
I0403 19:58:47.589547 10115 net.cpp:91] Creating Layer inception_5b/relu_1x1
I0403 19:58:47.589567 10115 net.cpp:425] inception_5b/relu_1x1 <- inception_5b/1x1
I0403 19:58:47.589591 10115 net.cpp:386] inception_5b/relu_1x1 -> inception_5b/1x1 (in-place)
I0403 19:58:47.589963 10115 net.cpp:141] Setting up inception_5b/relu_1x1
I0403 19:58:47.589995 10115 net.cpp:148] Top shape: 24 384 7 7 (451584)
I0403 19:58:47.590014 10115 net.cpp:156] Memory required for data: 1328854560
I0403 19:58:47.590034 10115 layer_factory.hpp:77] Creating layer inception_5b/3x3_reduce
I0403 19:58:47.590061 10115 net.cpp:91] Creating Layer inception_5b/3x3_reduce
I0403 19:58:47.590083 10115 net.cpp:425] inception_5b/3x3_reduce <- inception_5a/output_inception_5a/output_0_split_1
I0403 19:58:47.590111 10115 net.cpp:399] inception_5b/3x3_reduce -> inception_5b/3x3_reduce
I0403 19:58:47.593397 10115 net.cpp:141] Setting up inception_5b/3x3_reduce
I0403 19:58:47.593435 10115 net.cpp:148] Top shape: 24 192 7 7 (225792)
I0403 19:58:47.593453 10115 net.cpp:156] Memory required for data: 1329757728
I0403 19:58:47.593477 10115 layer_factory.hpp:77] Creating layer inception_5b/relu_3x3_reduce
I0403 19:58:47.593502 10115 net.cpp:91] Creating Layer inception_5b/relu_3x3_reduce
I0403 19:58:47.593533 10115 net.cpp:425] inception_5b/relu_3x3_reduce <- inception_5b/3x3_reduce
I0403 19:58:47.593556 10115 net.cpp:386] inception_5b/relu_3x3_reduce -> inception_5b/3x3_reduce (in-place)
I0403 19:58:47.593806 10115 net.cpp:141] Setting up inception_5b/relu_3x3_reduce
I0403 19:58:47.593837 10115 net.cpp:148] Top shape: 24 192 7 7 (225792)
I0403 19:58:47.593855 10115 net.cpp:156] Memory required for data: 1330660896
I0403 19:58:47.593873 10115 layer_factory.hpp:77] Creating layer inception_5b/3x3
I0403 19:58:47.593902 10115 net.cpp:91] Creating Layer inception_5b/3x3
I0403 19:58:47.593924 10115 net.cpp:425] inception_5b/3x3 <- inception_5b/3x3_reduce
I0403 19:58:47.593947 10115 net.cpp:399] inception_5b/3x3 -> inception_5b/3x3
I0403 19:58:47.602332 10115 net.cpp:141] Setting up inception_5b/3x3
I0403 19:58:47.602368 10115 net.cpp:148] Top shape: 24 384 7 7 (451584)
I0403 19:58:47.602387 10115 net.cpp:156] Memory required for data: 1332467232
I0403 19:58:47.602409 10115 layer_factory.hpp:77] Creating layer inception_5b/relu_3x3
I0403 19:58:47.602434 10115 net.cpp:91] Creating Layer inception_5b/relu_3x3
I0403 19:58:47.602455 10115 net.cpp:425] inception_5b/relu_3x3 <- inception_5b/3x3
I0403 19:58:47.602478 10115 net.cpp:386] inception_5b/relu_3x3 -> inception_5b/3x3 (in-place)
I0403 19:58:47.602841 10115 net.cpp:141] Setting up inception_5b/relu_3x3
I0403 19:58:47.602874 10115 net.cpp:148] Top shape: 24 384 7 7 (451584)
I0403 19:58:47.602891 10115 net.cpp:156] Memory required for data: 1334273568
I0403 19:58:47.602910 10115 layer_factory.hpp:77] Creating layer inception_5b/5x5_reduce
I0403 19:58:47.602957 10115 net.cpp:91] Creating Layer inception_5b/5x5_reduce
I0403 19:58:47.602980 10115 net.cpp:425] inception_5b/5x5_reduce <- inception_5a/output_inception_5a/output_0_split_2
I0403 19:58:47.603008 10115 net.cpp:399] inception_5b/5x5_reduce -> inception_5b/5x5_reduce
I0403 19:58:47.604611 10115 net.cpp:141] Setting up inception_5b/5x5_reduce
I0403 19:58:47.604646 10115 net.cpp:148] Top shape: 24 48 7 7 (56448)
I0403 19:58:47.604665 10115 net.cpp:156] Memory required for data: 1334499360
I0403 19:58:47.604687 10115 layer_factory.hpp:77] Creating layer inception_5b/relu_5x5_reduce
I0403 19:58:47.604712 10115 net.cpp:91] Creating Layer inception_5b/relu_5x5_reduce
I0403 19:58:47.604732 10115 net.cpp:425] inception_5b/relu_5x5_reduce <- inception_5b/5x5_reduce
I0403 19:58:47.604754 10115 net.cpp:386] inception_5b/relu_5x5_reduce -> inception_5b/5x5_reduce (in-place)
I0403 19:58:47.605213 10115 net.cpp:141] Setting up inception_5b/relu_5x5_reduce
I0403 19:58:47.605245 10115 net.cpp:148] Top shape: 24 48 7 7 (56448)
I0403 19:58:47.605263 10115 net.cpp:156] Memory required for data: 1334725152
I0403 19:58:47.605288 10115 layer_factory.hpp:77] Creating layer inception_5b/5x5
I0403 19:58:47.605314 10115 net.cpp:91] Creating Layer inception_5b/5x5
I0403 19:58:47.605334 10115 net.cpp:425] inception_5b/5x5 <- inception_5b/5x5_reduce
I0403 19:58:47.605357 10115 net.cpp:399] inception_5b/5x5 -> inception_5b/5x5
I0403 19:58:47.607897 10115 net.cpp:141] Setting up inception_5b/5x5
I0403 19:58:47.607930 10115 net.cpp:148] Top shape: 24 128 7 7 (150528)
I0403 19:58:47.607954 10115 net.cpp:156] Memory required for data: 1335327264
I0403 19:58:47.607976 10115 layer_factory.hpp:77] Creating layer inception_5b/relu_5x5
I0403 19:58:47.608007 10115 net.cpp:91] Creating Layer inception_5b/relu_5x5
I0403 19:58:47.608027 10115 net.cpp:425] inception_5b/relu_5x5 <- inception_5b/5x5
I0403 19:58:47.608048 10115 net.cpp:386] inception_5b/relu_5x5 -> inception_5b/5x5 (in-place)
I0403 19:58:47.608300 10115 net.cpp:141] Setting up inception_5b/relu_5x5
I0403 19:58:47.608335 10115 net.cpp:148] Top shape: 24 128 7 7 (150528)
I0403 19:58:47.608353 10115 net.cpp:156] Memory required for data: 1335929376
I0403 19:58:47.608372 10115 layer_factory.hpp:77] Creating layer inception_5b/pool
I0403 19:58:47.608393 10115 net.cpp:91] Creating Layer inception_5b/pool
I0403 19:58:47.608413 10115 net.cpp:425] inception_5b/pool <- inception_5a/output_inception_5a/output_0_split_3
I0403 19:58:47.608438 10115 net.cpp:399] inception_5b/pool -> inception_5b/pool
I0403 19:58:47.608530 10115 net.cpp:141] Setting up inception_5b/pool
I0403 19:58:47.608561 10115 net.cpp:148] Top shape: 24 832 7 7 (978432)
I0403 19:58:47.608579 10115 net.cpp:156] Memory required for data: 1339843104
I0403 19:58:47.608597 10115 layer_factory.hpp:77] Creating layer inception_5b/pool_proj
I0403 19:58:47.608621 10115 net.cpp:91] Creating Layer inception_5b/pool_proj
I0403 19:58:47.608641 10115 net.cpp:425] inception_5b/pool_proj <- inception_5b/pool
I0403 19:58:47.608667 10115 net.cpp:399] inception_5b/pool_proj -> inception_5b/pool_proj
I0403 19:58:47.611517 10115 net.cpp:141] Setting up inception_5b/pool_proj
I0403 19:58:47.611553 10115 net.cpp:148] Top shape: 24 128 7 7 (150528)
I0403 19:58:47.611572 10115 net.cpp:156] Memory required for data: 1340445216
I0403 19:58:47.611594 10115 layer_factory.hpp:77] Creating layer inception_5b/relu_pool_proj
I0403 19:58:47.611619 10115 net.cpp:91] Creating Layer inception_5b/relu_pool_proj
I0403 19:58:47.611640 10115 net.cpp:425] inception_5b/relu_pool_proj <- inception_5b/pool_proj
I0403 19:58:47.611662 10115 net.cpp:386] inception_5b/relu_pool_proj -> inception_5b/pool_proj (in-place)
I0403 19:58:47.612026 10115 net.cpp:141] Setting up inception_5b/relu_pool_proj
I0403 19:58:47.612058 10115 net.cpp:148] Top shape: 24 128 7 7 (150528)
I0403 19:58:47.612077 10115 net.cpp:156] Memory required for data: 1341047328
I0403 19:58:47.612097 10115 layer_factory.hpp:77] Creating layer inception_5b/output
I0403 19:58:47.612120 10115 net.cpp:91] Creating Layer inception_5b/output
I0403 19:58:47.612159 10115 net.cpp:425] inception_5b/output <- inception_5b/1x1
I0403 19:58:47.612180 10115 net.cpp:425] inception_5b/output <- inception_5b/3x3
I0403 19:58:47.612200 10115 net.cpp:425] inception_5b/output <- inception_5b/5x5
I0403 19:58:47.612221 10115 net.cpp:425] inception_5b/output <- inception_5b/pool_proj
I0403 19:58:47.612241 10115 net.cpp:399] inception_5b/output -> inception_5b/output
I0403 19:58:47.612313 10115 net.cpp:141] Setting up inception_5b/output
I0403 19:58:47.612341 10115 net.cpp:148] Top shape: 24 1024 7 7 (1204224)
I0403 19:58:47.612360 10115 net.cpp:156] Memory required for data: 1345864224
I0403 19:58:47.612376 10115 layer_factory.hpp:77] Creating layer pool5/7x7_s1
I0403 19:58:47.612397 10115 net.cpp:91] Creating Layer pool5/7x7_s1
I0403 19:58:47.612417 10115 net.cpp:425] pool5/7x7_s1 <- inception_5b/output
I0403 19:58:47.612443 10115 net.cpp:399] pool5/7x7_s1 -> pool5/7x7_s1
I0403 19:58:47.612718 10115 net.cpp:141] Setting up pool5/7x7_s1
I0403 19:58:47.612749 10115 net.cpp:148] Top shape: 24 1024 1 1 (24576)
I0403 19:58:47.612767 10115 net.cpp:156] Memory required for data: 1345962528
I0403 19:58:47.612785 10115 layer_factory.hpp:77] Creating layer pool5/drop_7x7_s1
I0403 19:58:47.612809 10115 net.cpp:91] Creating Layer pool5/drop_7x7_s1
I0403 19:58:47.612829 10115 net.cpp:425] pool5/drop_7x7_s1 <- pool5/7x7_s1
I0403 19:58:47.612850 10115 net.cpp:386] pool5/drop_7x7_s1 -> pool5/7x7_s1 (in-place)
I0403 19:58:47.612915 10115 net.cpp:141] Setting up pool5/drop_7x7_s1
I0403 19:58:47.612942 10115 net.cpp:148] Top shape: 24 1024 1 1 (24576)
I0403 19:58:47.612960 10115 net.cpp:156] Memory required for data: 1346060832
I0403 19:58:47.612979 10115 layer_factory.hpp:77] Creating layer loss3/classifier_plantvillage
I0403 19:58:47.613001 10115 net.cpp:91] Creating Layer loss3/classifier_plantvillage
I0403 19:58:47.613020 10115 net.cpp:425] loss3/classifier_plantvillage <- pool5/7x7_s1
I0403 19:58:47.613046 10115 net.cpp:399] loss3/classifier_plantvillage -> loss3/classifier_plantvillage
I0403 19:58:47.613593 10115 net.cpp:141] Setting up loss3/classifier_plantvillage
I0403 19:58:47.613625 10115 net.cpp:148] Top shape: 24 38 (912)
I0403 19:58:47.613642 10115 net.cpp:156] Memory required for data: 1346064480
I0403 19:58:47.613665 10115 layer_factory.hpp:77] Creating layer loss3/classifier_plantvillage_loss3/classifier_plantvillage_0_split
I0403 19:58:47.613687 10115 net.cpp:91] Creating Layer loss3/classifier_plantvillage_loss3/classifier_plantvillage_0_split
I0403 19:58:47.613705 10115 net.cpp:425] loss3/classifier_plantvillage_loss3/classifier_plantvillage_0_split <- loss3/classifier_plantvillage
I0403 19:58:47.613729 10115 net.cpp:399] loss3/classifier_plantvillage_loss3/classifier_plantvillage_0_split -> loss3/classifier_plantvillage_loss3/classifier_plantvillage_0_split_0
I0403 19:58:47.613754 10115 net.cpp:399] loss3/classifier_plantvillage_loss3/classifier_plantvillage_0_split -> loss3/classifier_plantvillage_loss3/classifier_plantvillage_0_split_1
I0403 19:58:47.613780 10115 net.cpp:399] loss3/classifier_plantvillage_loss3/classifier_plantvillage_0_split -> loss3/classifier_plantvillage_loss3/classifier_plantvillage_0_split_2
I0403 19:58:47.613806 10115 net.cpp:399] loss3/classifier_plantvillage_loss3/classifier_plantvillage_0_split -> loss3/classifier_plantvillage_loss3/classifier_plantvillage_0_split_3
I0403 19:58:47.613930 10115 net.cpp:141] Setting up loss3/classifier_plantvillage_loss3/classifier_plantvillage_0_split
I0403 19:58:47.613958 10115 net.cpp:148] Top shape: 24 38 (912)
I0403 19:58:47.613978 10115 net.cpp:148] Top shape: 24 38 (912)
I0403 19:58:47.613997 10115 net.cpp:148] Top shape: 24 38 (912)
I0403 19:58:47.614017 10115 net.cpp:148] Top shape: 24 38 (912)
I0403 19:58:47.614033 10115 net.cpp:156] Memory required for data: 1346079072
I0403 19:58:47.614053 10115 layer_factory.hpp:77] Creating layer loss1/loss
I0403 19:58:47.614078 10115 net.cpp:91] Creating Layer loss1/loss
I0403 19:58:47.614100 10115 net.cpp:425] loss1/loss <- loss1/classifier_plantvillage_loss1/classifier_plantvillage_0_split_0
I0403 19:58:47.614138 10115 net.cpp:425] loss1/loss <- label_data_1_split_0
…
