…
I0403 20:05:45.034930 10502 net.cpp:313] The NetState phase (1) differed from the phase (0) specified by a rule in layer data
I0403 20:05:45.036061 10502 net.cpp:49] Initializing net from parameters: 
state {
  phase: TEST
}
layer {
  name: "data"
  type: "Data"
  top: "data"
  top: "label"
  include {
    phase: TEST
  }
  transform_param {
    mirror: false
    crop_size: 224
    mean_file: "/home/mohanty/data/final_dataset/lmdb/color-50-50/mean.binaryproto"
  }
  data_param {
    source: "/home/mohanty/data/final_dataset/lmdb/color-50-50/test_db"
    batch_size: 24
    backend: LMDB
  }
}
layer {
  name: "conv1/7x7_s2"
  type: "Convolution"
  bottom: "data"
  top: "conv1/7x7_s2"
  param {
    lr_mult: 1
    decay_mult: 1
  }
  param {
    lr_mult: 2
    decay_mult: 0
  }
  convolution_param {
    num_output: 64
    pad: 3
    kernel_size: 7
    stride: 2
    weight_filler {
      type: "xavier"
      std: 0.1
    }
    bias_filler {
      type: "constant"
      value: 0.2
    }
  }
}
layer {
  name: "conv1/relu_7x7"
  type: "ReLU"
  bottom: "conv1/7x7_s2"
  top: "conv1/7x7_s2"
}
layer {
  name: "pool1/3x3_s2"
  type: "Pooling"
  bottom: "conv1/7x7_s2"
  top: "pool1/3x3_s2"
  pooling_param {
    pool: MAX
    kernel_size: 3
    stride: 2
  }
}
layer {
  name: "pool1/norm1"
  type: "LRN"
  bottom: "pool1/3x3_s2"
  top: "pool1/norm1"
  lrn_param {
    local_size: 5
    alpha: 0.0001
    beta: 0.75
  }
}
layer {
  name: "conv2/3x3_reduce"
  type: "Convolution"
  bottom: "pool1/norm1"
  top: "conv2/3x3_reduce"
  param {
    lr_mult: 1
    decay_mult: 1
  }
  param {
    lr_mult: 2
    decay_mult: 0
  }
  convolution_param {
    num_output: 64
    kernel_size: 1
    weight_filler {
      type: "xavier"
      std: 0.1
    }
    bias_filler {
      type: "constant"
      value: 0.2
    }
  }
}
layer {
  name: "conv2/relu_3x3_reduce"
  type: "ReLU"
  bottom: "conv2/3x3_reduce"
  top: "conv2/3x3_reduce"
}
layer {
  name: "conv2/3x3"
  type: "Convolution"
  bottom: "conv2/3x3_reduce"
  top: "conv2/3x3"
  param {
    lr_mult: 1
    decay_mult: 1
  }
  param {
    lr_mult: 2
    decay_mult: 0
  }
  convolution_param {
    num_output: 192
    pad: 1
    kernel_size: 3
    weight_filler {
      type: "xavier"
      std: 0.03
    }
    bias_filler {
      type: "constant"
      value: 0.2
    }
  }
}
layer {
  name: "conv2/relu_3x3"
  type: "ReLU"
  bottom: "conv2/3x3"
  top: "conv2/3x3"
}
layer {
  name: "conv2/norm2"
  type: "LRN"
  bottom: "conv2/3x3"
  top: "conv2/norm2"
  lrn_param {
    local_size: 5
    alpha: 0.0001
    beta: 0.75
  }
}
layer {
  name: "pool2/3x3_s2"
  type: "Pooling"
  bottom: "conv2/norm2"
  top: "pool2/3x3_s2"
  pooling_param {
    pool: MAX
    kernel_size: 3
    stride: 2
  }
}
layer {
  name: "inception_3a/1x1"
  type: "Convolution"
  bottom: "pool2/3x3_s2"
  top: "inception_3a/1x1"
  param {
    lr_mult: 1
    decay_mult: 1
  }
  param {
    lr_mult: 2
    decay_mult: 0
  }
  convolution_param {
    num_output: 64
    kernel_size: 1
    weight_filler {
      type: "xavier"
      std: 0.03
    }
    bias_filler {
      type: "constant"
      value: 0.2
    }
  }
}
layer {
  name: "inception_3a/relu_1x1"
  type: "ReLU"
  bottom: "inception_3a/1x1"
  top: "inception_3a/1x1"
}
layer {
  name: "inception_3a/3x3_reduce"
  type: "Convolution"
  bottom: "pool2/3x3_s2"
  top: "inception_3a/3x3_reduce"
  param {
    lr_mult: 1
    decay_mult: 1
  }
  param {
    lr_mult: 2
    decay_mult: 0
  }
  convolution_param {
    num_output: 96
    kernel_size: 1
    weight_filler {
      type: "xavier"
      std: 0.09
    }
    bias_filler {
      type: "constant"
      value: 0.2
    }
  }
}
layer {
  name: "inception_3a/relu_3x3_reduce"
  type: "ReLU"
  bottom: "inception_3a/3x3_reduce"
  top: "inception_3a/3x3_reduce"
}
layer {
  name: "inception_3a/3x3"
  type: "Convolution"
  bottom: "inception_3a/3x3_reduce"
  top: "inception_3a/3x3"
  param {
    lr_mult: 1
    decay_mult: 1
  }
  param {
    lr_mult: 2
    decay_mult: 0
  }
  convolution_param {
    num_output: 128
    pad: 1
    kernel_size: 3
    weight_filler {
      type: "xavier"
      std: 0.03
    }
    bias_filler {
      type: "constant"
      value: 0.2
    }
  }
}
layer {
  name: "inception_3a/relu_3x3"
  type: "ReLU"
  bottom: "inception_3a/3x3"
  top: "inception_3a/3x3"
}
layer {
  name: "inception_3a/5x5_reduce"
  type: "Convolution"
  bottom: "pool2/3x3_s2"
  top: "inception_3a/5x5_reduce"
  param {
    lr_mult: 1
    decay_mult: 1
  }
  param {
    lr_mult: 2
    decay_mult: 0
  }
  convolution_param {
    num_output: 16
    kernel_size: 1
    weight_filler {
      type: "xavier"
      std: 0.2
    }
    bias_filler {
      type: "constant"
      value: 0.2
    }
  }
}
layer {
  name: "inception_3a/relu_5x5_reduce"
  type: "ReLU"
  bottom: "inception_3a/5x5_reduce"
  top: "inception_3a/5x5_reduce"
}
layer {
  name: "inception_3a/5x5"
  type: "Convolution"
  bottom: "inception_3a/5x5_reduce"
  top: "inception_3a/5x5"
  param {
    lr_mult: 1
    decay_mult: 1
  }
  param {
    lr_mult: 2
    decay_mult: 0
  }
  convolution_param {
    num_output: 32
    pad: 2
    kernel_size: 5
    weight_filler {
      type: "xavier"
      std: 0.03
    }
    bias_filler {
      type: "constant"
      value: 0.2
    }
  }
}
layer {
  name: "inception_3a/relu_5x5"
  type: "ReLU"
  bottom: "inception_3a/5x5"
  top: "inception_3a/5x5"
}
layer {
  name: "inception_3a/pool"
  type: "Pooling"
  bottom: "pool2/3x3_s2"
  top: "inception_3a/pool"
  pooling_param {
    pool: MAX
    kernel_size: 3
    stride: 1
    pad: 1
  }
}
layer {
  name: "inception_3a/pool_proj"
  type: "Convolution"
  bottom: "inception_3a/pool"
  top: "inception_3a/pool_proj"
  param {
    lr_mult: 1
    decay_mult: 1
  }
  param {
    lr_mult: 2
    decay_mult: 0
  }
  convolution_param {
    num_output: 32
    kernel_size: 1
    weight_filler {
      type: "xavier"
      std: 0.1
    }
    bias_filler {
      type: "constant"
      value: 0.2
    }
  }
}
layer {
  name: "inception_3a/relu_pool_proj"
  type: "ReLU"
  bottom: "inception_3a/pool_proj"
  top: "inception_3a/pool_proj"
}
layer {
  name: "inception_3a/output"
  type: "Concat"
  bottom: "inception_3a/1x1"
  bottom: "inception_3a/3x3"
  bottom: "inception_3a/5x5"
  bottom: "inception_3a/pool_proj"
  top: "inception_3a/output"
}
layer {
  name: "inception_3b/1x1"
  type: "Convolution"
  bottom: "inception_3a/output"
  top: "inception_3b/1x1"
  param {
    lr_mult: 1
    decay_mult: 1
  }
  param {
    lr_mult: 2
    decay_mult: 0
  }
  convolution_param {
    num_output: 128
    kernel_size: 1
    weight_filler {
      type: "xavier"
      std: 0.03
    }
    bias_filler {
      type: "constant"
      value: 0.2
    }
  }
}
layer {
  name: "inception_3b/relu_1x1"
  type: "ReLU"
  bottom: "inception_3b/1x1"
  top: "inception_3b/1x1"
}
layer {
  name: "inception_3b/3x3_reduce"
  type: "Convolution"
  bottom: "inception_3a/output"
  top: "inception_3b/3x3_reduce"
  param {
    lr_mult: 1
    decay_mult: 1
  }
  param {
    lr_mult: 2
    decay_mult: 0
  }
  convolution_param {
    num_output: 128
    kernel_size: 1
    weight_filler {
      type: "xavier"
      std: 0.09
    }
    bias_filler {
      type: "constant"
      value: 0.2
    }
  }
}
layer {
  name: "inception_3b/relu_3x3_reduce"
  type: "ReLU"
  bottom: "inception_3b/3x3_reduce"
  top: "inception_3b/3x3_reduce"
}
layer {
  name: "inception_3b/3x3"
  type: "Convolution"
  bottom: "inception_3b/3x3_reduce"
  top: "inception_3b/3x3"
  param {
    lr_mult: 1
    decay_mult: 1
  }
  param {
    lr_mult: 2
    decay_mult: 0
  }
  convolution_param {
    num_output: 192
    pad: 1
    kernel_size: 3
    weight_filler {
      type: "xavier"
      std: 0.03
    }
    bias_filler {
      type: "constant"
      value: 0.2
    }
  }
}
layer {
  name: "inception_3b/relu_3x3"
  type: "ReLU"
  bottom: "inception_3b/3x3"
  top: "inception_3b/3x3"
}
layer {
  name: "inception_3b/5x5_reduce"
  type: "Convolution"
  bottom: "inception_3a/output"
  top: "inception_3b/5x5_reduce"
  param {
    lr_mult: 1
    decay_mult: 1
  }
  param {
    lr_mult: 2
    decay_mult: 0
  }
  convolution_param {
    num_output: 32
    kernel_size: 1
    weight_filler {
      type: "xavier"
      std: 0.2
    }
    bias_filler {
      type: "constant"
      value: 0.2
    }
  }
}
layer {
  name: "inception_3b/relu_5x5_reduce"
  type: "ReLU"
  bottom: "inception_3b/5x5_reduce"
  top: "inception_3b/5x5_reduce"
}
layer {
  name: "inception_3b/5x5"
  type: "Convolution"
  bottom: "inception_3b/5x5_reduce"
  top: "inception_3b/5x5"
  param {
    lr_mult: 1
    decay_mult: 1
  }
  param {
    lr_mult: 2
    decay_mult: 0
  }
  convolution_param {
    num_output: 96
    pad: 2
    kernel_size: 5
    weight_filler {
      type: "xavier"
      std: 0.03
    }
    bias_filler {
      type: "constant"
      value: 0.2
    }
  }
}
layer {
  name: "inception_3b/relu_5x5"
  type: "ReLU"
  bottom: "inception_3b/5x5"
  top: "inception_3b/5x5"
}
layer {
  name: "inception_3b/pool"
  type: "Pooling"
  bottom: "inception_3a/output"
  top: "inception_3b/pool"
  pooling_param {
    pool: MAX
    kernel_size: 3
    stride: 1
    pad: 1
  }
}
layer {
  name: "inception_3b/pool_proj"
  type: "Convolution"
  bottom: "inception_3b/pool"
  top: "inception_3b/pool_proj"
  param {
    lr_mult: 1
    decay_mult: 1
  }
  param {
    lr_mult: 2
    decay_mult: 0
  }
  convolution_param {
    num_output: 64
    kernel_size: 1
    weight_filler {
      type: "xavier"
      std: 0.1
    }
    bias_filler {
      type: "constant"
      value: 0.2
    }
  }
}
layer {
  name: "inception_3b/relu_pool_proj"
  type: "ReLU"
  bottom: "inception_3b/pool_proj"
  top: "inception_3b/pool_proj"
}
layer {
  name: "inception_3b/output"
  type: "Concat"
  bottom: "inception_3b/1x1"
  bottom: "inception_3b/3x3"
  bottom: "inception_3b/5x5"
  bottom: "inception_3b/pool_proj"
  top: "inception_3b/output"
}
layer {
  name: "pool3/3x3_s2"
  type: "Pooling"
  bottom: "inception_3b/output"
  top: "pool3/3x3_s2"
  pooling_param {
    pool: MAX
    kernel_size: 3
    stride: 2
  }
}
layer {
  name: "inception_4a/1x1"
  type: "Convolution"
  bottom: "pool3/3x3_s2"
  top: "inception_4a/1x1"
  param {
    lr_mult: 1
    decay_mult: 1
  }
  param {
    lr_mult: 2
    decay_mult: 0
  }
  convolution_param {
    num_output: 192
    kernel_size: 1
    weight_filler {
      type: "xavier"
      std: 0.03
    }
    bias_filler {
      type: "constant"
      value: 0.2
    }
  }
}
layer {
  name: "inception_4a/relu_1x1"
  type: "ReLU"
  bottom: "inception_4a/1x1"
  top: "inception_4a/1x1"
}
layer {
  name: "inception_4a/3x3_reduce"
  type: "Convolution"
  bottom: "pool3/3x3_s2"
  top: "inception_4a/3x3_reduce"
  param {
    lr_mult: 1
    decay_mult: 1
  }
  param {
    lr_mult: 2
    decay_mult: 0
  }
  convolution_param {
    num_output: 96
    kernel_size: 1
    weight_filler {
      type: "xavier"
      std: 0.09
    }
    bias_filler {
      type: "constant"
      value: 0.2
    }
  }
}
layer {
  name: "inception_4a/relu_3x3_reduce"
  type: "ReLU"
  bottom: "inception_4a/3x3_reduce"
  top: "inception_4a/3x3_reduce"
}
layer {
  name: "inception_4a/3x3"
  type: "Convolution"
  bottom: "inception_4a/3x3_reduce"
  top: "inception_4a/3x3"
  param {
    lr_mult: 1
    decay_mult: 1
  }
  param {
    lr_mult: 2
    decay_mult: 0
  }
  convolution_param {
    num_output: 208
    pad: 1
    kernel_size: 3
    weight_filler {
      type: "xavier"
      std: 0.03
    }
    bias_filler {
      type: "constant"
      value: 0.2
    }
  }
}
layer {
  name: "inception_4a/relu_3x3"
  type: "ReLU"
  bottom: "inception_4a/3x3"
  top: "inception_4a/3x3"
}
layer {
  name: "inception_4a/5x5_reduce"
  type: "Convolution"
  bottom: "pool3/3x3_s2"
  top: "inception_4a/5x5_reduce"
  param {
    lr_mult: 1
    decay_mult: 1
  }
  param {
    lr_mult: 2
    decay_mult: 0
  }
  convolution_param {
    num_output: 16
    kernel_size: 1
    weight_filler {
      type: "xavier"
      std: 0.2
    }
    bias_filler {
      type: "constant"
      value: 0.2
    }
  }
}
layer {
  name: "inception_4a/relu_5x5_reduce"
  type: "ReLU"
  bottom: "inception_4a/5x5_reduce"
  top: "inception_4a/5x5_reduce"
}
layer {
  name: "inception_4a/5x5"
  type: "Convolution"
  bottom: "inception_4a/5x5_reduce"
  top: "inception_4a/5x5"
  param {
    lr_mult: 1
    decay_mult: 1
  }
  param {
    lr_mult: 2
    decay_mult: 0
  }
  convolution_param {
    num_output: 48
    pad: 2
    kernel_size: 5
    weight_filler {
      type: "xavier"
      std: 0.03
    }
    bias_filler {
      type: "constant"
      value: 0.2
    }
  }
}
layer {
  name: "inception_4a/relu_5x5"
  type: "ReLU"
  bottom: "inception_4a/5x5"
  top: "inception_4a/5x5"
}
layer {
  name: "inception_4a/pool"
  type: "Pooling"
  bottom: "pool3/3x3_s2"
  top: "inception_4a/pool"
  pooling_param {
    pool: MAX
    kernel_size: 3
    stride: 1
    pad: 1
  }
}
layer {
  name: "inception_4a/pool_proj"
  type: "Convolution"
  bottom: "inception_4a/pool"
  top: "inception_4a/pool_proj"
  param {
    lr_mult: 1
    decay_mult: 1
  }
  param {
    lr_mult: 2
    decay_mult: 0
  }
  convolution_param {
    num_output: 64
    kernel_size: 1
    weight_filler {
      type: "xavier"
      std: 0.1
    }
    bias_filler {
      type: "constant"
      value: 0.2
    }
  }
}
layer {
  name: "inception_4a/relu_pool_proj"
  type: "ReLU"
  bottom: "inception_4a/pool_proj"
  top: "inception_4a/pool_proj"
}
layer {
  name: "inception_4a/output"
  type: "Concat"
  bottom: "inception_4a/1x1"
  bottom: "inception_4a/3x3"
  bottom: "inception_4a/5x5"
  bottom: "inception_4a/pool_proj"
  top: "inception_4a/output"
}
layer {
  name: "loss1/ave_pool"
  type: "Pooling"
  bottom: "inception_4a/output"
  top: "loss1/ave_pool"
  pooling_param {
    pool: AVE
    kernel_size: 5
    stride: 3
  }
}
layer {
  name: "loss1/conv"
  type: "Convolution"
  bottom: "loss1/ave_pool"
  top: "loss1/conv"
  param {
    lr_mult: 1
    decay_mult: 1
  }
  param {
    lr_mult: 2
    decay_mult: 0
  }
  convolution_param {
    num_output: 128
    kernel_size: 1
    weight_filler {
      type: "xavier"
      std: 0.08
    }
    bias_filler {
      type: "constant"
      value: 0.2
    }
  }
}
layer {
  name: "loss1/relu_conv"
  type: "ReLU"
  bottom: "loss1/conv"
  top: "loss1/conv"
}
layer {
  name: "loss1/fc"
  type: "InnerProduct"
  bottom: "loss1/conv"
  top: "loss1/fc"
  param {
    lr_mult: 1
    decay_mult: 1
  }
  param {
    lr_mult: 2
    decay_mult: 0
  }
  inner_product_param {
    num_output: 1024
    weight_filler {
      type: "xavier"
      std: 0.02
    }
    bias_filler {
      type: "constant"
      value: 0.2
    }
  }
}
layer {
  name: "loss1/relu_fc"
  type: "ReLU"
  bottom: "loss1/fc"
  top: "loss1/fc"
}
layer {
  name: "loss1/drop_fc"
  type: "Dropout"
  bottom: "loss1/fc"
  top: "loss1/fc"
  dropout_param {
    dropout_ratio: 0.7
  }
}
layer {
  name: "loss1/classifier_plantvillage"
  type: "InnerProduct"
  bottom: "loss1/fc"
  top: "loss1/classifier_plantvillage"
  param {
    lr_mult: 1
    decay_mult: 1
  }
  param {
    lr_mult: 2
    decay_mult: 0
  }
  inner_product_param {
    num_output: 38
    weight_filler {
      type: "xavier"
      std: 0.0009765625
    }
    bias_filler {
      type: "constant"
      value: 0
    }
  }
}
layer {
  name: "inception_4b/1x1"
  type: "Convolution"
  bottom: "inception_4a/output"
  top: "inception_4b/1x1"
  param {
    lr_mult: 1
    decay_mult: 1
  }
  param {
    lr_mult: 2
    decay_mult: 0
  }
  convolution_param {
    num_output: 160
    kernel_size: 1
    weight_filler {
      type: "xavier"
      std: 0.03
    }
    bias_filler {
      type: "constant"
      value: 0.2
    }
  }
}
layer {
  name: "inception_4b/relu_1x1"
  type: "ReLU"
  bottom: "inception_4b/1x1"
  top: "inception_4b/1x1"
}
layer {
  name: "inception_4b/3x3_reduce"
  type: "Convolution"
  bottom: "inception_4a/output"
  top: "inception_4b/3x3_reduce"
  param {
    lr_mult: 1
    decay_mult: 1
  }
  param {
    lr_mult: 2
    decay_mult: 0
  }
  convolution_param {
    num_output: 112
    kernel_size: 1
    weight_filler {
      type: "xavier"
      std: 0.09
    }
    bias_filler {
      type: "constant"
      value: 0.2
    }
  }
}
layer {
  name: "inception_4b/relu_3x3_reduce"
  type: "ReLU"
  bottom: "inception_4b/3x3_reduce"
  top: "inception_4b/3x3_reduce"
}
layer {
  name: "inception_4b/3x3"
  type: "Convolution"
  bottom: "inception_4b/3x3_reduce"
  top: "inception_4b/3x3"
  param {
    lr_mult: 1
    decay_mult: 1
  }
  param {
    lr_mult: 2
    decay_mult: 0
  }
  convolution_param {
    num_output: 224
    pad: 1
    kernel_size: 3
    weight_filler {
      type: "xavier"
      std: 0.03
    }
    bias_filler {
      type: "constant"
      value: 0.2
    }
  }
}
layer {
  name: "inception_4b/relu_3x3"
  type: "ReLU"
  bottom: "inception_4b/3x3"
  top: "inception_4b/3x3"
}
layer {
  name: "inception_4b/5x5_reduce"
  type: "Convolution"
  bottom: "inception_4a/output"
  top: "inception_4b/5x5_reduce"
  param {
    lr_mult: 1
    decay_mult: 1
  }
  param {
    lr_mult: 2
    decay_mult: 0
  }
  convolution_param {
    num_output: 24
    kernel_size: 1
    weight_filler {
      type: "xavier"
      std: 0.2
    }
    bias_filler {
      type: "constant"
      value: 0.2
    }
  }
}
layer {
  name: "inception_4b/relu_5x5_reduce"
  type: "ReLU"
  bottom: "inception_4b/5x5_reduce"
  top: "inception_4b/5x5_reduce"
}
layer {
  name: "inception_4b/5x5"
  type: "Convolution"
  bottom: "inception_4b/5x5_reduce"
  top: "inception_4b/5x5"
  param {
    lr_mult: 1
    decay_mult: 1
  }
  param {
    lr_mult: 2
    decay_mult: 0
  }
  convolution_param {
    num_output: 64
    pad: 2
    kernel_size: 5
    weight_filler {
      type: "xavier"
      std: 0.03
    }
    bias_filler {
      type: "constant"
      value: 0.2
    }
  }
}
layer {
  name: "inception_4b/relu_5x5"
  type: "ReLU"
  bottom: "inception_4b/5x5"
  top: "inception_4b/5x5"
}
layer {
  name: "inception_4b/pool"
  type: "Pooling"
  bottom: "inception_4a/output"
  top: "inception_4b/pool"
  pooling_param {
    pool: MAX
    kernel_size: 3
    stride: 1
    pad: 1
  }
}
layer {
  name: "inception_4b/pool_proj"
  type: "Convolution"
  bottom: "inception_4b/pool"
  top: "inception_4b/pool_proj"
  param {
    lr_mult: 1
    decay_mult: 1
  }
  param {
    lr_mult: 2
    decay_mult: 0
  }
  convolution_param {
    num_output: 64
    kernel_size: 1
    weight_filler {
      type: "xavier"
      std: 0.1
    }
    bias_filler {
      type: "constant"
      value: 0.2
    }
  }
}
layer {
  name: "inception_4b/relu_pool_proj"
  type: "ReLU"
  bottom: "inception_4b/pool_proj"
  top: "inception_4b/pool_proj"
}
layer {
  name: "inception_4b/output"
  type: "Concat"
  bottom: "inception_4b/1x1"
  bottom: "inception_4b/3x3"
  bottom: "inception_4b/5x5"
  bottom: "inception_4b/pool_proj"
  top: "inception_4b/output"
}
layer {
  name: "inception_4c/1x1"
  type: "Convolution"
  bottom: "inception_4b/output"
  top: "inception_4c/1x1"
  param {
    lr_mult: 1
    decay_mult: 1
  }
  param {
    lr_mult: 2
    decay_mult: 0
  }
  convolution_param {
    num_output: 128
    kernel_size: 1
    weight_filler {
      type: "xavier"
      std: 0.03
    }
    bias_filler {
      type: "constant"
      value: 0.2
    }
  }
}
layer {
  name: "inception_4c/relu_1x1"
  type: "ReLU"
  bottom: "inception_4c/1x1"
  top: "inception_4c/1x1"
}
layer {
  name: "inception_4c/3x3_reduce"
  type: "Convolution"
  bottom: "inception_4b/output"
  top: "inception_4c/3x3_reduce"
  param {
    lr_mult: 1
    decay_mult: 1
  }
  param {
    lr_mult: 2
    decay_mult: 0
  }
  convolution_param {
    num_output: 128
    kernel_size: 1
    weight_filler {
      type: "xavier"
      std: 0.09
    }
    bias_filler {
      type: "constant"
      value: 0.2
    }
  }
}
layer {
  name: "inception_4c/relu_3x3_reduce"
  type: "ReLU"
  bottom: "inception_4c/3x3_reduce"
  top: "inception_4c/3x3_reduce"
}
layer {
  name: "inception_4c/3x3"
  type: "Convolution"
  bottom: "inception_4c/3x3_reduce"
  top: "inception_4c/3x3"
  param {
    lr_mult: 1
    decay_mult: 1
  }
  param {
    lr_mult: 2
    decay_mult: 0
  }
  convolution_param {
    num_output: 256
    pad: 1
    kernel_size: 3
    weight_filler {
      type: "xavier"
      std: 0.03
    }
    bias_filler {
      type: "constant"
      value: 0.2
    }
  }
}
layer {
  name: "inception_4c/relu_3x3"
  type: "ReLU"
  bottom: "inception_4c/3x3"
  top: "inception_4c/3x3"
}
layer {
  name: "inception_4c/5x5_reduce"
  type: "Convolution"
  bottom: "inception_4b/output"
  top: "inception_4c/5x5_reduce"
  param {
    lr_mult: 1
    decay_mult: 1
  }
  param {
    lr_mult: 2
    decay_mult: 0
  }
  convolution_param {
    num_output: 24
    kernel_size: 1
    weight_filler {
      type: "xavier"
      std: 0.2
    }
    bias_filler {
      type: "constant"
      value: 0.2
    }
  }
}
layer {
  name: "inception_4c/relu_5x5_reduce"
  type: "ReLU"
  bottom: "inception_4c/5x5_reduce"
  top: "inception_4c/5x5_reduce"
}
layer {
  name: "inception_4c/5x5"
  type: "Convolution"
  bottom: "inception_4c/5x5_reduce"
  top: "inception_4c/5x5"
  param {
    lr_mult: 1
    decay_mult: 1
  }
  param {
    lr_mult: 2
    decay_mult: 0
  }
  convolution_param {
    num_output: 64
    pad: 2
    kernel_size: 5
    weight_filler {
      type: "xavier"
      std: 0.03
    }
    bias_filler {
      type: "constant"
      value: 0.2
    }
  }
}
layer {
  name: "inception_4c/relu_5x5"
  type: "ReLU"
  bottom: "inception_4c/5x5"
  top: "inception_4c/5x5"
}
layer {
  name: "inception_4c/pool"
  type: "Pooling"
  bottom: "inception_4b/output"
  top: "inception_4c/pool"
  pooling_param {
    pool: MAX
    kernel_size: 3
    stride: 1
    pad: 1
  }
}
layer {
  name: "inception_4c/pool_proj"
  type: "Convolution"
  bottom: "inception_4c/pool"
  top: "inception_4c/pool_proj"
  param {
    lr_mult: 1
    decay_mult: 1
  }
  param {
    lr_mult: 2
    decay_mult: 0
  }
  convolution_param {
    num_output: 64
    kernel_size: 1
    weight_filler {
      type: "xavier"
      std: 0.1
    }
    bias_filler {
      type: "constant"
      value: 0.2
    }
  }
}
layer {
  name: "inception_4c/relu_pool_proj"
  type: "ReLU"
  bottom: "inception_4c/pool_proj"
  top: "inception_4c/pool_proj"
}
layer {
  name: "inception_4c/output"
  type: "Concat"
  bottom: "inception_4c/1x1"
  bottom: "inception_4c/3x3"
  bottom: "inception_4c/5x5"
  bottom: "inception_4c/pool_proj"
  top: "inception_4c/output"
}
layer {
  name: "inception_4d/1x1"
  type: "Convolution"
  bottom: "inception_4c/output"
  top: "inception_4d/1x1"
  param {
    lr_mult: 1
    decay_mult: 1
  }
  param {
    lr_mult: 2
    decay_mult: 0
  }
  convolution_param {
    num_output: 112
    kernel_size: 1
    weight_filler {
      type: "xavier"
      std: 0.03
    }
    bias_filler {
      type: "constant"
      value: 0.2
    }
  }
}
layer {
  name: "inception_4d/relu_1x1"
  type: "ReLU"
  bottom: "inception_4d/1x1"
  top: "inception_4d/1x1"
}
layer {
  name: "inception_4d/3x3_reduce"
  type: "Convolution"
  bottom: "inception_4c/output"
  top: "inception_4d/3x3_reduce"
  param {
    lr_mult: 1
    decay_mult: 1
  }
  param {
    lr_mult: 2
    decay_mult: 0
  }
  convolution_param {
    num_output: 144
    kernel_size: 1
    weight_filler {
      type: "xavier"
      std: 0.09
    }
    bias_filler {
      type: "constant"
      value: 0.2
    }
  }
}
layer {
  name: "inception_4d/relu_3x3_reduce"
  type: "ReLU"
  bottom: "inception_4d/3x3_reduce"
  top: "inception_4d/3x3_reduce"
}
layer {
  name: "inception_4d/3x3"
  type: "Convolution"
  bottom: "inception_4d/3x3_reduce"
  top: "inception_4d/3x3"
  param {
    lr_mult: 1
    decay_mult: 1
  }
  param {
    lr_mult: 2
    decay_mult: 0
  }
  convolution_param {
    num_output: 288
    pad: 1
    kernel_size: 3
    weight_filler {
      type: "xavier"
      std: 0.03
    }
    bias_filler {
      type: "constant"
      value: 0.2
    }
  }
}
layer {
  name: "inception_4d/relu_3x3"
  type: "ReLU"
  bottom: "inception_4d/3x3"
  top: "inception_4d/3x3"
}
layer {
  name: "inception_4d/5x5_reduce"
  type: "Convolution"
  bottom: "inception_4c/output"
  top: "inception_4d/5x5_reduce"
  param {
    lr_mult: 1
    decay_mult: 1
  }
  param {
    lr_mult: 2
    decay_mult: 0
  }
  convolution_param {
    num_output: 32
    kernel_size: 1
    weight_filler {
      type: "xavier"
      std: 0.2
    }
    bias_filler {
      type: "constant"
      value: 0.2
    }
  }
}
layer {
  name: "inception_4d/relu_5x5_reduce"
  type: "ReLU"
  bottom: "inception_4d/5x5_reduce"
  top: "inception_4d/5x5_reduce"
}
layer {
  name: "inception_4d/5x5"
  type: "Convolution"
  bottom: "inception_4d/5x5_reduce"
  top: "inception_4d/5x5"
  param {
    lr_mult: 1
    decay_mult: 1
  }
  param {
    lr_mult: 2
    decay_mult: 0
  }
  convolution_param {
    num_output: 64
    pad: 2
    kernel_size: 5
    weight_filler {
      type: "xavier"
      std: 0.03
    }
    bias_filler {
      type: "constant"
      value: 0.2
    }
  }
}
layer {
  name: "inception_4d/relu_5x5"
  type: "ReLU"
  bottom: "inception_4d/5x5"
  top: "inception_4d/5x5"
}
layer {
  name: "inception_4d/pool"
  type: "Pooling"
  bottom: "inception_4c/output"
  top: "inception_4d/pool"
  pooling_param {
    pool: MAX
    kernel_size: 3
    stride: 1
    pad: 1
  }
}
layer {
  name: "inception_4d/pool_proj"
  type: "Convolution"
  bottom: "inception_4d/pool"
  top: "inception_4d/pool_proj"
  param {
    lr_mult: 1
    decay_mult: 1
  }
  param {
    lr_mult: 2
    decay_mult: 0
  }
  convolution_param {
    num_output: 64
    kernel_size: 1
    weight_filler {
      type: "xavier"
      std: 0.1
    }
    bias_filler {
      type: "constant"
      value: 0.2
    }
  }
}
layer {
  name: "inception_4d/relu_pool_proj"
  type: "ReLU"
  bottom: "inception_4d/pool_proj"
  top: "inception_4d/pool_proj"
}
layer {
  name: "inception_4d/output"
  type: "Concat"
  bottom: "inception_4d/1x1"
  bottom: "inception_4d/3x3"
  bottom: "inception_4d/5x5"
  bottom: "inception_4d/pool_proj"
  top: "inception_4d/output"
}
layer {
  name: "loss2/ave_pool"
  type: "Pooling"
  bottom: "inception_4d/output"
  top: "loss2/ave_pool"
  pooling_param {
    pool: AVE
    kernel_size: 5
    stride: 3
  }
}
layer {
  name: "loss2/conv"
  type: "Convolution"
  bottom: "loss2/ave_pool"
  top: "loss2/conv"
  param {
    lr_mult: 1
    decay_mult: 1
  }
  param {
    lr_mult: 2
    decay_mult: 0
  }
  convolution_param {
    num_output: 128
    kernel_size: 1
    weight_filler {
      type: "xavier"
      std: 0.08
    }
    bias_filler {
      type: "constant"
      value: 0.2
    }
  }
}
layer {
  name: "loss2/relu_conv"
  type: "ReLU"
  bottom: "loss2/conv"
  top: "loss2/conv"
}
layer {
  name: "loss2/fc"
  type: "InnerProduct"
  bottom: "loss2/conv"
  top: "loss2/fc"
  param {
    lr_mult: 1
    decay_mult: 1
  }
  param {
    lr_mult: 2
    decay_mult: 0
  }
  inner_product_param {
    num_output: 1024
    weight_filler {
      type: "xavier"
      std: 0.02
    }
    bias_filler {
      type: "constant"
      value: 0.2
    }
  }
}
layer {
  name: "loss2/relu_fc"
  type: "ReLU"
  bottom: "loss2/fc"
  top: "loss2/fc"
}
layer {
  name: "loss2/drop_fc"
  type: "Dropout"
  bottom: "loss2/fc"
  top: "loss2/fc"
  dropout_param {
    dropout_ratio: 0.7
  }
}
layer {
  name: "loss2/classifier_plantvillage"
  type: "InnerProduct"
  bottom: "loss2/fc"
  top: "loss2/classifier_plantvillage"
  param {
    lr_mult: 1
    decay_mult: 1
  }
  param {
    lr_mult: 2
    decay_mult: 0
  }
  inner_product_param {
    num_output: 38
    weight_filler {
      type: "xavier"
      std: 0.0009765625
    }
    bias_filler {
      type: "constant"
      value: 0
    }
  }
}
layer {
  name: "inception_4e/1x1"
  type: "Convolution"
  bottom: "inception_4d/output"
  top: "inception_4e/1x1"
  param {
    lr_mult: 1
    decay_mult: 1
  }
  param {
    lr_mult: 2
    decay_mult: 0
  }
  convolution_param {
    num_output: 256
    kernel_size: 1
    weight_filler {
      type: "xavier"
      std: 0.03
    }
    bias_filler {
      type: "constant"
      value: 0.2
    }
  }
}
layer {
  name: "inception_4e/relu_1x1"
  type: "ReLU"
  bottom: "inception_4e/1x1"
  top: "inception_4e/1x1"
}
layer {
  name: "inception_4e/3x3_reduce"
  type: "Convolution"
  bottom: "inception_4d/output"
  top: "inception_4e/3x3_reduce"
  param {
    lr_mult: 1
    decay_mult: 1
  }
  param {
    lr_mult: 2
    decay_mult: 0
  }
  convolution_param {
    num_output: 160
    kernel_size: 1
    weight_filler {
      type: "xavier"
      std: 0.09
    }
    bias_filler {
      type: "constant"
      value: 0.2
    }
  }
}
layer {
  name: "inception_4e/relu_3x3_reduce"
  type: "ReLU"
  bottom: "inception_4e/3x3_reduce"
  top: "inception_4e/3x3_reduce"
}
layer {
  name: "inception_4e/3x3"
  type: "Convolution"
  bottom: "inception_4e/3x3_reduce"
  top: "inception_4e/3x3"
  param {
    lr_mult: 1
    decay_mult: 1
  }
  param {
    lr_mult: 2
    decay_mult: 0
  }
  convolution_param {
    num_output: 320
    pad: 1
    kernel_size: 3
    weight_filler {
      type: "xavier"
      std: 0.03
    }
    bias_filler {
      type: "constant"
      value: 0.2
    }
  }
}
layer {
  name: "inception_4e/relu_3x3"
  type: "ReLU"
  bottom: "inception_4e/3x3"
  top: "inception_4e/3x3"
}
layer {
  name: "inception_4e/5x5_reduce"
  type: "Convolution"
  bottom: "inception_4d/output"
  top: "inception_4e/5x5_reduce"
  param {
    lr_mult: 1
    decay_mult: 1
  }
  param {
    lr_mult: 2
    decay_mult: 0
  }
  convolution_param {
    num_output: 32
    kernel_size: 1
    weight_filler {
      type: "xavier"
      std: 0.2
    }
    bias_filler {
      type: "constant"
      value: 0.2
    }
  }
}
layer {
  name: "inception_4e/relu_5x5_reduce"
  type: "ReLU"
  bottom: "inception_4e/5x5_reduce"
  top: "inception_4e/5x5_reduce"
}
layer {
  name: "inception_4e/5x5"
  type: "Convolution"
  bottom: "inception_4e/5x5_reduce"
  top: "inception_4e/5x5"
  p
I0403 20:05:45.038288 10502 layer_factory.hpp:77] Creating layer data
I0403 20:05:45.038877 10502 net.cpp:91] Creating Layer data
I0403 20:05:45.038907 10502 net.cpp:399] data -> data
I0403 20:05:45.038959 10502 net.cpp:399] data -> label
I0403 20:05:45.038995 10502 data_transformer.cpp:25] Loading mean file from: /home/mohanty/data/final_dataset/lmdb/color-50-50/mean.binaryproto
I0403 20:05:45.040226 10505 db_lmdb.cpp:38] Opened lmdb /home/mohanty/data/final_dataset/lmdb/color-50-50/test_db
I0403 20:05:45.052883 10502 data_layer.cpp:41] output data size: 24,3,224,224
I0403 20:05:45.081306 10502 net.cpp:141] Setting up data
I0403 20:05:45.081403 10502 net.cpp:148] Top shape: 24 3 224 224 (3612672)
I0403 20:05:45.081426 10502 net.cpp:148] Top shape: 24 (24)
I0403 20:05:45.081444 10502 net.cpp:156] Memory required for data: 14450784
I0403 20:05:45.081470 10502 layer_factory.hpp:77] Creating layer label_data_1_split
I0403 20:05:45.081498 10502 net.cpp:91] Creating Layer label_data_1_split
I0403 20:05:45.081516 10502 net.cpp:425] label_data_1_split <- label
I0403 20:05:45.081548 10502 net.cpp:399] label_data_1_split -> label_data_1_split_0
I0403 20:05:45.081575 10502 net.cpp:399] label_data_1_split -> label_data_1_split_1
I0403 20:05:45.081596 10502 net.cpp:399] label_data_1_split -> label_data_1_split_2
I0403 20:05:45.081619 10502 net.cpp:399] label_data_1_split -> label_data_1_split_3
I0403 20:05:45.081639 10502 net.cpp:399] label_data_1_split -> label_data_1_split_4
I0403 20:05:45.081658 10502 net.cpp:399] label_data_1_split -> label_data_1_split_5
I0403 20:05:45.081678 10502 net.cpp:399] label_data_1_split -> label_data_1_split_6
I0403 20:05:45.081699 10502 net.cpp:399] label_data_1_split -> label_data_1_split_7
I0403 20:05:45.081719 10502 net.cpp:399] label_data_1_split -> label_data_1_split_8
I0403 20:05:45.081738 10502 net.cpp:399] label_data_1_split -> label_data_1_split_9
I0403 20:05:45.081851 10502 net.cpp:141] Setting up label_data_1_split
I0403 20:05:45.081874 10502 net.cpp:148] Top shape: 24 (24)
I0403 20:05:45.081890 10502 net.cpp:148] Top shape: 24 (24)
I0403 20:05:45.081907 10502 net.cpp:148] Top shape: 24 (24)
I0403 20:05:45.081923 10502 net.cpp:148] Top shape: 24 (24)
I0403 20:05:45.081938 10502 net.cpp:148] Top shape: 24 (24)
I0403 20:05:45.081954 10502 net.cpp:148] Top shape: 24 (24)
I0403 20:05:45.081969 10502 net.cpp:148] Top shape: 24 (24)
I0403 20:05:45.081984 10502 net.cpp:148] Top shape: 24 (24)
I0403 20:05:45.082000 10502 net.cpp:148] Top shape: 24 (24)
I0403 20:05:45.082015 10502 net.cpp:148] Top shape: 24 (24)
I0403 20:05:45.082061 10502 net.cpp:156] Memory required for data: 14451744
I0403 20:05:45.082077 10502 layer_factory.hpp:77] Creating layer conv1/7x7_s2
I0403 20:05:45.082110 10502 net.cpp:91] Creating Layer conv1/7x7_s2
I0403 20:05:45.082129 10502 net.cpp:425] conv1/7x7_s2 <- data
I0403 20:05:45.082147 10502 net.cpp:399] conv1/7x7_s2 -> conv1/7x7_s2
I0403 20:05:45.223630 10502 net.cpp:141] Setting up conv1/7x7_s2
I0403 20:05:45.223737 10502 net.cpp:148] Top shape: 24 64 112 112 (19267584)
I0403 20:05:45.223753 10502 net.cpp:156] Memory required for data: 91522080
I0403 20:05:45.223783 10502 layer_factory.hpp:77] Creating layer conv1/relu_7x7
I0403 20:05:45.223811 10502 net.cpp:91] Creating Layer conv1/relu_7x7
I0403 20:05:45.223829 10502 net.cpp:425] conv1/relu_7x7 <- conv1/7x7_s2
I0403 20:05:45.223848 10502 net.cpp:386] conv1/relu_7x7 -> conv1/7x7_s2 (in-place)
I0403 20:05:45.224102 10502 net.cpp:141] Setting up conv1/relu_7x7
I0403 20:05:45.224128 10502 net.cpp:148] Top shape: 24 64 112 112 (19267584)
I0403 20:05:45.224143 10502 net.cpp:156] Memory required for data: 168592416
I0403 20:05:45.224158 10502 layer_factory.hpp:77] Creating layer pool1/3x3_s2
I0403 20:05:45.224182 10502 net.cpp:91] Creating Layer pool1/3x3_s2
I0403 20:05:45.224200 10502 net.cpp:425] pool1/3x3_s2 <- conv1/7x7_s2
I0403 20:05:45.224218 10502 net.cpp:399] pool1/3x3_s2 -> pool1/3x3_s2
I0403 20:05:45.224294 10502 net.cpp:141] Setting up pool1/3x3_s2
I0403 20:05:45.224319 10502 net.cpp:148] Top shape: 24 64 56 56 (4816896)
I0403 20:05:45.224334 10502 net.cpp:156] Memory required for data: 187860000
I0403 20:05:45.224349 10502 layer_factory.hpp:77] Creating layer pool1/norm1
I0403 20:05:45.224372 10502 net.cpp:91] Creating Layer pool1/norm1
I0403 20:05:45.224390 10502 net.cpp:425] pool1/norm1 <- pool1/3x3_s2
I0403 20:05:45.224406 10502 net.cpp:399] pool1/norm1 -> pool1/norm1
I0403 20:05:45.224674 10502 net.cpp:141] Setting up pool1/norm1
I0403 20:05:45.224701 10502 net.cpp:148] Top shape: 24 64 56 56 (4816896)
I0403 20:05:45.224716 10502 net.cpp:156] Memory required for data: 207127584
I0403 20:05:45.224731 10502 layer_factory.hpp:77] Creating layer conv2/3x3_reduce
I0403 20:05:45.224755 10502 net.cpp:91] Creating Layer conv2/3x3_reduce
I0403 20:05:45.224771 10502 net.cpp:425] conv2/3x3_reduce <- pool1/norm1
I0403 20:05:45.224788 10502 net.cpp:399] conv2/3x3_reduce -> conv2/3x3_reduce
I0403 20:05:45.226097 10502 net.cpp:141] Setting up conv2/3x3_reduce
I0403 20:05:45.226125 10502 net.cpp:148] Top shape: 24 64 56 56 (4816896)
I0403 20:05:45.226141 10502 net.cpp:156] Memory required for data: 226395168
I0403 20:05:45.226162 10502 layer_factory.hpp:77] Creating layer conv2/relu_3x3_reduce
I0403 20:05:45.226181 10502 net.cpp:91] Creating Layer conv2/relu_3x3_reduce
I0403 20:05:45.226197 10502 net.cpp:425] conv2/relu_3x3_reduce <- conv2/3x3_reduce
I0403 20:05:45.226213 10502 net.cpp:386] conv2/relu_3x3_reduce -> conv2/3x3_reduce (in-place)
I0403 20:05:45.226464 10502 net.cpp:141] Setting up conv2/relu_3x3_reduce
I0403 20:05:45.226490 10502 net.cpp:148] Top shape: 24 64 56 56 (4816896)
I0403 20:05:45.226506 10502 net.cpp:156] Memory required for data: 245662752
I0403 20:05:45.226521 10502 layer_factory.hpp:77] Creating layer conv2/3x3
I0403 20:05:45.226542 10502 net.cpp:91] Creating Layer conv2/3x3
I0403 20:05:45.226559 10502 net.cpp:425] conv2/3x3 <- conv2/3x3_reduce
I0403 20:05:45.226577 10502 net.cpp:399] conv2/3x3 -> conv2/3x3
I0403 20:05:45.228837 10502 net.cpp:141] Setting up conv2/3x3
I0403 20:05:45.228870 10502 net.cpp:148] Top shape: 24 192 56 56 (14450688)
I0403 20:05:45.228890 10502 net.cpp:156] Memory required for data: 303465504
I0403 20:05:45.228911 10502 layer_factory.hpp:77] Creating layer conv2/relu_3x3
I0403 20:05:45.228930 10502 net.cpp:91] Creating Layer conv2/relu_3x3
I0403 20:05:45.228947 10502 net.cpp:425] conv2/relu_3x3 <- conv2/3x3
I0403 20:05:45.228968 10502 net.cpp:386] conv2/relu_3x3 -> conv2/3x3 (in-place)
I0403 20:05:45.229138 10502 net.cpp:141] Setting up conv2/relu_3x3
I0403 20:05:45.229163 10502 net.cpp:148] Top shape: 24 192 56 56 (14450688)
I0403 20:05:45.229212 10502 net.cpp:156] Memory required for data: 361268256
I0403 20:05:45.229228 10502 layer_factory.hpp:77] Creating layer conv2/norm2
I0403 20:05:45.229252 10502 net.cpp:91] Creating Layer conv2/norm2
I0403 20:05:45.229269 10502 net.cpp:425] conv2/norm2 <- conv2/3x3
I0403 20:05:45.229296 10502 net.cpp:399] conv2/norm2 -> conv2/norm2
I0403 20:05:45.229591 10502 net.cpp:141] Setting up conv2/norm2
I0403 20:05:45.229620 10502 net.cpp:148] Top shape: 24 192 56 56 (14450688)
I0403 20:05:45.229635 10502 net.cpp:156] Memory required for data: 419071008
I0403 20:05:45.229650 10502 layer_factory.hpp:77] Creating layer pool2/3x3_s2
I0403 20:05:45.229668 10502 net.cpp:91] Creating Layer pool2/3x3_s2
I0403 20:05:45.229683 10502 net.cpp:425] pool2/3x3_s2 <- conv2/norm2
I0403 20:05:45.229703 10502 net.cpp:399] pool2/3x3_s2 -> pool2/3x3_s2
I0403 20:05:45.229753 10502 net.cpp:141] Setting up pool2/3x3_s2
I0403 20:05:45.229776 10502 net.cpp:148] Top shape: 24 192 28 28 (3612672)
I0403 20:05:45.229790 10502 net.cpp:156] Memory required for data: 433521696
I0403 20:05:45.229805 10502 layer_factory.hpp:77] Creating layer pool2/3x3_s2_pool2/3x3_s2_0_split
I0403 20:05:45.229825 10502 net.cpp:91] Creating Layer pool2/3x3_s2_pool2/3x3_s2_0_split
I0403 20:05:45.229840 10502 net.cpp:425] pool2/3x3_s2_pool2/3x3_s2_0_split <- pool2/3x3_s2
I0403 20:05:45.229856 10502 net.cpp:399] pool2/3x3_s2_pool2/3x3_s2_0_split -> pool2/3x3_s2_pool2/3x3_s2_0_split_0
I0403 20:05:45.229876 10502 net.cpp:399] pool2/3x3_s2_pool2/3x3_s2_0_split -> pool2/3x3_s2_pool2/3x3_s2_0_split_1
I0403 20:05:45.229894 10502 net.cpp:399] pool2/3x3_s2_pool2/3x3_s2_0_split -> pool2/3x3_s2_pool2/3x3_s2_0_split_2
I0403 20:05:45.229914 10502 net.cpp:399] pool2/3x3_s2_pool2/3x3_s2_0_split -> pool2/3x3_s2_pool2/3x3_s2_0_split_3
I0403 20:05:45.229984 10502 net.cpp:141] Setting up pool2/3x3_s2_pool2/3x3_s2_0_split
I0403 20:05:45.230006 10502 net.cpp:148] Top shape: 24 192 28 28 (3612672)
I0403 20:05:45.230022 10502 net.cpp:148] Top shape: 24 192 28 28 (3612672)
I0403 20:05:45.230036 10502 net.cpp:148] Top shape: 24 192 28 28 (3612672)
I0403 20:05:45.230052 10502 net.cpp:148] Top shape: 24 192 28 28 (3612672)
I0403 20:05:45.230065 10502 net.cpp:156] Memory required for data: 491324448
I0403 20:05:45.230079 10502 layer_factory.hpp:77] Creating layer inception_3a/1x1
I0403 20:05:45.230100 10502 net.cpp:91] Creating Layer inception_3a/1x1
I0403 20:05:45.230118 10502 net.cpp:425] inception_3a/1x1 <- pool2/3x3_s2_pool2/3x3_s2_0_split_0
I0403 20:05:45.230139 10502 net.cpp:399] inception_3a/1x1 -> inception_3a/1x1
I0403 20:05:45.231644 10502 net.cpp:141] Setting up inception_3a/1x1
I0403 20:05:45.231675 10502 net.cpp:148] Top shape: 24 64 28 28 (1204224)
I0403 20:05:45.231691 10502 net.cpp:156] Memory required for data: 496141344
I0403 20:05:45.231709 10502 layer_factory.hpp:77] Creating layer inception_3a/relu_1x1
I0403 20:05:45.231727 10502 net.cpp:91] Creating Layer inception_3a/relu_1x1
I0403 20:05:45.231744 10502 net.cpp:425] inception_3a/relu_1x1 <- inception_3a/1x1
I0403 20:05:45.231762 10502 net.cpp:386] inception_3a/relu_1x1 -> inception_3a/1x1 (in-place)
I0403 20:05:45.231935 10502 net.cpp:141] Setting up inception_3a/relu_1x1
I0403 20:05:45.231959 10502 net.cpp:148] Top shape: 24 64 28 28 (1204224)
I0403 20:05:45.231974 10502 net.cpp:156] Memory required for data: 500958240
I0403 20:05:45.231988 10502 layer_factory.hpp:77] Creating layer inception_3a/3x3_reduce
I0403 20:05:45.232012 10502 net.cpp:91] Creating Layer inception_3a/3x3_reduce
I0403 20:05:45.232028 10502 net.cpp:425] inception_3a/3x3_reduce <- pool2/3x3_s2_pool2/3x3_s2_0_split_1
I0403 20:05:45.232049 10502 net.cpp:399] inception_3a/3x3_reduce -> inception_3a/3x3_reduce
I0403 20:05:45.233723 10502 net.cpp:141] Setting up inception_3a/3x3_reduce
I0403 20:05:45.233754 10502 net.cpp:148] Top shape: 24 96 28 28 (1806336)
I0403 20:05:45.233770 10502 net.cpp:156] Memory required for data: 508183584
I0403 20:05:45.233791 10502 layer_factory.hpp:77] Creating layer inception_3a/relu_3x3_reduce
I0403 20:05:45.233829 10502 net.cpp:91] Creating Layer inception_3a/relu_3x3_reduce
I0403 20:05:45.233846 10502 net.cpp:425] inception_3a/relu_3x3_reduce <- inception_3a/3x3_reduce
I0403 20:05:45.233865 10502 net.cpp:386] inception_3a/relu_3x3_reduce -> inception_3a/3x3_reduce (in-place)
I0403 20:05:45.234036 10502 net.cpp:141] Setting up inception_3a/relu_3x3_reduce
I0403 20:05:45.234063 10502 net.cpp:148] Top shape: 24 96 28 28 (1806336)
I0403 20:05:45.234079 10502 net.cpp:156] Memory required for data: 515408928
I0403 20:05:45.234093 10502 layer_factory.hpp:77] Creating layer inception_3a/3x3
I0403 20:05:45.234118 10502 net.cpp:91] Creating Layer inception_3a/3x3
I0403 20:05:45.234136 10502 net.cpp:425] inception_3a/3x3 <- inception_3a/3x3_reduce
I0403 20:05:45.234154 10502 net.cpp:399] inception_3a/3x3 -> inception_3a/3x3
I0403 20:05:45.235739 10502 net.cpp:141] Setting up inception_3a/3x3
I0403 20:05:45.235767 10502 net.cpp:148] Top shape: 24 128 28 28 (2408448)
I0403 20:05:45.235782 10502 net.cpp:156] Memory required for data: 525042720
I0403 20:05:45.235801 10502 layer_factory.hpp:77] Creating layer inception_3a/relu_3x3
I0403 20:05:45.235818 10502 net.cpp:91] Creating Layer inception_3a/relu_3x3
I0403 20:05:45.235833 10502 net.cpp:425] inception_3a/relu_3x3 <- inception_3a/3x3
I0403 20:05:45.235852 10502 net.cpp:386] inception_3a/relu_3x3 -> inception_3a/3x3 (in-place)
I0403 20:05:45.236114 10502 net.cpp:141] Setting up inception_3a/relu_3x3
I0403 20:05:45.236140 10502 net.cpp:148] Top shape: 24 128 28 28 (2408448)
I0403 20:05:45.236155 10502 net.cpp:156] Memory required for data: 534676512
I0403 20:05:45.236168 10502 layer_factory.hpp:77] Creating layer inception_3a/5x5_reduce
I0403 20:05:45.236191 10502 net.cpp:91] Creating Layer inception_3a/5x5_reduce
I0403 20:05:45.236207 10502 net.cpp:425] inception_3a/5x5_reduce <- pool2/3x3_s2_pool2/3x3_s2_0_split_2
I0403 20:05:45.236228 10502 net.cpp:399] inception_3a/5x5_reduce -> inception_3a/5x5_reduce
I0403 20:05:45.237151 10502 net.cpp:141] Setting up inception_3a/5x5_reduce
I0403 20:05:45.237177 10502 net.cpp:148] Top shape: 24 16 28 28 (301056)
I0403 20:05:45.237193 10502 net.cpp:156] Memory required for data: 535880736
I0403 20:05:45.237210 10502 layer_factory.hpp:77] Creating layer inception_3a/relu_5x5_reduce
I0403 20:05:45.237231 10502 net.cpp:91] Creating Layer inception_3a/relu_5x5_reduce
I0403 20:05:45.237247 10502 net.cpp:425] inception_3a/relu_5x5_reduce <- inception_3a/5x5_reduce
I0403 20:05:45.237264 10502 net.cpp:386] inception_3a/relu_5x5_reduce -> inception_3a/5x5_reduce (in-place)
I0403 20:05:45.237537 10502 net.cpp:141] Setting up inception_3a/relu_5x5_reduce
I0403 20:05:45.237563 10502 net.cpp:148] Top shape: 24 16 28 28 (301056)
I0403 20:05:45.237578 10502 net.cpp:156] Memory required for data: 537084960
I0403 20:05:45.237592 10502 layer_factory.hpp:77] Creating layer inception_3a/5x5
I0403 20:05:45.237613 10502 net.cpp:91] Creating Layer inception_3a/5x5
I0403 20:05:45.237630 10502 net.cpp:425] inception_3a/5x5 <- inception_3a/5x5_reduce
I0403 20:05:45.237655 10502 net.cpp:399] inception_3a/5x5 -> inception_3a/5x5
I0403 20:05:45.238628 10502 net.cpp:141] Setting up inception_3a/5x5
I0403 20:05:45.238656 10502 net.cpp:148] Top shape: 24 32 28 28 (602112)
I0403 20:05:45.238670 10502 net.cpp:156] Memory required for data: 539493408
I0403 20:05:45.238688 10502 layer_factory.hpp:77] Creating layer inception_3a/relu_5x5
I0403 20:05:45.238705 10502 net.cpp:91] Creating Layer inception_3a/relu_5x5
I0403 20:05:45.238721 10502 net.cpp:425] inception_3a/relu_5x5 <- inception_3a/5x5
I0403 20:05:45.238741 10502 net.cpp:386] inception_3a/relu_5x5 -> inception_3a/5x5 (in-place)
I0403 20:05:45.238908 10502 net.cpp:141] Setting up inception_3a/relu_5x5
I0403 20:05:45.238931 10502 net.cpp:148] Top shape: 24 32 28 28 (602112)
I0403 20:05:45.238946 10502 net.cpp:156] Memory required for data: 541901856
I0403 20:05:45.238960 10502 layer_factory.hpp:77] Creating layer inception_3a/pool
I0403 20:05:45.238979 10502 net.cpp:91] Creating Layer inception_3a/pool
I0403 20:05:45.238996 10502 net.cpp:425] inception_3a/pool <- pool2/3x3_s2_pool2/3x3_s2_0_split_3
I0403 20:05:45.239028 10502 net.cpp:399] inception_3a/pool -> inception_3a/pool
I0403 20:05:45.239085 10502 net.cpp:141] Setting up inception_3a/pool
I0403 20:05:45.239109 10502 net.cpp:148] Top shape: 24 192 28 28 (3612672)
I0403 20:05:45.239122 10502 net.cpp:156] Memory required for data: 556352544
I0403 20:05:45.239136 10502 layer_factory.hpp:77] Creating layer inception_3a/pool_proj
I0403 20:05:45.239158 10502 net.cpp:91] Creating Layer inception_3a/pool_proj
I0403 20:05:45.239176 10502 net.cpp:425] inception_3a/pool_proj <- inception_3a/pool
I0403 20:05:45.239197 10502 net.cpp:399] inception_3a/pool_proj -> inception_3a/pool_proj
I0403 20:05:45.240124 10502 net.cpp:141] Setting up inception_3a/pool_proj
I0403 20:05:45.240154 10502 net.cpp:148] Top shape: 24 32 28 28 (602112)
I0403 20:05:45.240170 10502 net.cpp:156] Memory required for data: 558760992
I0403 20:05:45.240192 10502 layer_factory.hpp:77] Creating layer inception_3a/relu_pool_proj
I0403 20:05:45.240212 10502 net.cpp:91] Creating Layer inception_3a/relu_pool_proj
I0403 20:05:45.240231 10502 net.cpp:425] inception_3a/relu_pool_proj <- inception_3a/pool_proj
I0403 20:05:45.240247 10502 net.cpp:386] inception_3a/relu_pool_proj -> inception_3a/pool_proj (in-place)
I0403 20:05:45.240515 10502 net.cpp:141] Setting up inception_3a/relu_pool_proj
I0403 20:05:45.240541 10502 net.cpp:148] Top shape: 24 32 28 28 (602112)
I0403 20:05:45.240556 10502 net.cpp:156] Memory required for data: 561169440
I0403 20:05:45.240571 10502 layer_factory.hpp:77] Creating layer inception_3a/output
I0403 20:05:45.240589 10502 net.cpp:91] Creating Layer inception_3a/output
I0403 20:05:45.240604 10502 net.cpp:425] inception_3a/output <- inception_3a/1x1
I0403 20:05:45.240620 10502 net.cpp:425] inception_3a/output <- inception_3a/3x3
I0403 20:05:45.240636 10502 net.cpp:425] inception_3a/output <- inception_3a/5x5
I0403 20:05:45.240653 10502 net.cpp:425] inception_3a/output <- inception_3a/pool_proj
I0403 20:05:45.240671 10502 net.cpp:399] inception_3a/output -> inception_3a/output
I0403 20:05:45.240716 10502 net.cpp:141] Setting up inception_3a/output
I0403 20:05:45.240746 10502 net.cpp:148] Top shape: 24 256 28 28 (4816896)
I0403 20:05:45.240761 10502 net.cpp:156] Memory required for data: 580437024
I0403 20:05:45.240775 10502 layer_factory.hpp:77] Creating layer inception_3a/output_inception_3a/output_0_split
I0403 20:05:45.240792 10502 net.cpp:91] Creating Layer inception_3a/output_inception_3a/output_0_split
I0403 20:05:45.240808 10502 net.cpp:425] inception_3a/output_inception_3a/output_0_split <- inception_3a/output
I0403 20:05:45.240825 10502 net.cpp:399] inception_3a/output_inception_3a/output_0_split -> inception_3a/output_inception_3a/output_0_split_0
I0403 20:05:45.240844 10502 net.cpp:399] inception_3a/output_inception_3a/output_0_split -> inception_3a/output_inception_3a/output_0_split_1
I0403 20:05:45.240869 10502 net.cpp:399] inception_3a/output_inception_3a/output_0_split -> inception_3a/output_inception_3a/output_0_split_2
I0403 20:05:45.240890 10502 net.cpp:399] inception_3a/output_inception_3a/output_0_split -> inception_3a/output_inception_3a/output_0_split_3
I0403 20:05:45.240962 10502 net.cpp:141] Setting up inception_3a/output_inception_3a/output_0_split
I0403 20:05:45.240988 10502 net.cpp:148] Top shape: 24 256 28 28 (4816896)
I0403 20:05:45.241005 10502 net.cpp:148] Top shape: 24 256 28 28 (4816896)
I0403 20:05:45.241020 10502 net.cpp:148] Top shape: 24 256 28 28 (4816896)
I0403 20:05:45.241035 10502 net.cpp:148] Top shape: 24 256 28 28 (4816896)
I0403 20:05:45.241049 10502 net.cpp:156] Memory required for data: 657507360
I0403 20:05:45.241062 10502 layer_factory.hpp:77] Creating layer inception_3b/1x1
I0403 20:05:45.241083 10502 net.cpp:91] Creating Layer inception_3b/1x1
I0403 20:05:45.241101 10502 net.cpp:425] inception_3b/1x1 <- inception_3a/output_inception_3a/output_0_split_0
I0403 20:05:45.241118 10502 net.cpp:399] inception_3b/1x1 -> inception_3b/1x1
I0403 20:05:45.242213 10502 net.cpp:141] Setting up inception_3b/1x1
I0403 20:05:45.242252 10502 net.cpp:148] Top shape: 24 128 28 28 (2408448)
I0403 20:05:45.242269 10502 net.cpp:156] Memory required for data: 667141152
I0403 20:05:45.242301 10502 layer_factory.hpp:77] Creating layer inception_3b/relu_1x1
I0403 20:05:45.242321 10502 net.cpp:91] Creating Layer inception_3b/relu_1x1
I0403 20:05:45.242336 10502 net.cpp:425] inception_3b/relu_1x1 <- inception_3b/1x1
I0403 20:05:45.242355 10502 net.cpp:386] inception_3b/relu_1x1 -> inception_3b/1x1 (in-place)
I0403 20:05:45.242525 10502 net.cpp:141] Setting up inception_3b/relu_1x1
I0403 20:05:45.242549 10502 net.cpp:148] Top shape: 24 128 28 28 (2408448)
I0403 20:05:45.242564 10502 net.cpp:156] Memory required for data: 676774944
I0403 20:05:45.242579 10502 layer_factory.hpp:77] Creating layer inception_3b/3x3_reduce
I0403 20:05:45.242600 10502 net.cpp:91] Creating Layer inception_3b/3x3_reduce
I0403 20:05:45.242617 10502 net.cpp:425] inception_3b/3x3_reduce <- inception_3a/output_inception_3a/output_0_split_1
I0403 20:05:45.242638 10502 net.cpp:399] inception_3b/3x3_reduce -> inception_3b/3x3_reduce
I0403 20:05:45.243727 10502 net.cpp:141] Setting up inception_3b/3x3_reduce
I0403 20:05:45.243757 10502 net.cpp:148] Top shape: 24 128 28 28 (2408448)
I0403 20:05:45.243774 10502 net.cpp:156] Memory required for data: 686408736
I0403 20:05:45.243793 10502 layer_factory.hpp:77] Creating layer inception_3b/relu_3x3_reduce
I0403 20:05:45.243809 10502 net.cpp:91] Creating Layer inception_3b/relu_3x3_reduce
I0403 20:05:45.243824 10502 net.cpp:425] inception_3b/relu_3x3_reduce <- inception_3b/3x3_reduce
I0403 20:05:45.243840 10502 net.cpp:386] inception_3b/relu_3x3_reduce -> inception_3b/3x3_reduce (in-place)
I0403 20:05:45.244009 10502 net.cpp:141] Setting up inception_3b/relu_3x3_reduce
I0403 20:05:45.244034 10502 net.cpp:148] Top shape: 24 128 28 28 (2408448)
I0403 20:05:45.244048 10502 net.cpp:156] Memory required for data: 696042528
I0403 20:05:45.244063 10502 layer_factory.hpp:77] Creating layer inception_3b/3x3
I0403 20:05:45.244091 10502 net.cpp:91] Creating Layer inception_3b/3x3
I0403 20:05:45.244108 10502 net.cpp:425] inception_3b/3x3 <- inception_3b/3x3_reduce
I0403 20:05:45.244129 10502 net.cpp:399] inception_3b/3x3 -> inception_3b/3x3
I0403 20:05:45.246971 10502 net.cpp:141] Setting up inception_3b/3x3
I0403 20:05:45.246999 10502 net.cpp:148] Top shape: 24 192 28 28 (3612672)
I0403 20:05:45.247015 10502 net.cpp:156] Memory required for data: 710493216
I0403 20:05:45.247033 10502 layer_factory.hpp:77] Creating layer inception_3b/relu_3x3
I0403 20:05:45.247051 10502 net.cpp:91] Creating Layer inception_3b/relu_3x3
I0403 20:05:45.247066 10502 net.cpp:425] inception_3b/relu_3x3 <- inception_3b/3x3
I0403 20:05:45.247086 10502 net.cpp:386] inception_3b/relu_3x3 -> inception_3b/3x3 (in-place)
I0403 20:05:45.247355 10502 net.cpp:141] Setting up inception_3b/relu_3x3
I0403 20:05:45.247380 10502 net.cpp:148] Top shape: 24 192 28 28 (3612672)
I0403 20:05:45.247395 10502 net.cpp:156] Memory required for data: 724943904
I0403 20:05:45.247409 10502 layer_factory.hpp:77] Creating layer inception_3b/5x5_reduce
I0403 20:05:45.247431 10502 net.cpp:91] Creating Layer inception_3b/5x5_reduce
I0403 20:05:45.247448 10502 net.cpp:425] inception_3b/5x5_reduce <- inception_3a/output_inception_3a/output_0_split_2
I0403 20:05:45.247472 10502 net.cpp:399] inception_3b/5x5_reduce -> inception_3b/5x5_reduce
I0403 20:05:45.248426 10502 net.cpp:141] Setting up inception_3b/5x5_reduce
I0403 20:05:45.248455 10502 net.cpp:148] Top shape: 24 32 28 28 (602112)
I0403 20:05:45.248471 10502 net.cpp:156] Memory required for data: 727352352
I0403 20:05:45.248487 10502 layer_factory.hpp:77] Creating layer inception_3b/relu_5x5_reduce
I0403 20:05:45.248505 10502 net.cpp:91] Creating Layer inception_3b/relu_5x5_reduce
I0403 20:05:45.248522 10502 net.cpp:425] inception_3b/relu_5x5_reduce <- inception_3b/5x5_reduce
I0403 20:05:45.248540 10502 net.cpp:386] inception_3b/relu_5x5_reduce -> inception_3b/5x5_reduce (in-place)
I0403 20:05:45.248714 10502 net.cpp:141] Setting up inception_3b/relu_5x5_reduce
I0403 20:05:45.248751 10502 net.cpp:148] Top shape: 24 32 28 28 (602112)
I0403 20:05:45.248767 10502 net.cpp:156] Memory required for data: 729760800
I0403 20:05:45.248782 10502 layer_factory.hpp:77] Creating layer inception_3b/5x5
I0403 20:05:45.248805 10502 net.cpp:91] Creating Layer inception_3b/5x5
I0403 20:05:45.248821 10502 net.cpp:425] inception_3b/5x5 <- inception_3b/5x5_reduce
I0403 20:05:45.248843 10502 net.cpp:399] inception_3b/5x5 -> inception_3b/5x5
I0403 20:05:45.250834 10502 net.cpp:141] Setting up inception_3b/5x5
I0403 20:05:45.250866 10502 net.cpp:148] Top shape: 24 96 28 28 (1806336)
I0403 20:05:45.250883 10502 net.cpp:156] Memory required for data: 736986144
I0403 20:05:45.250901 10502 layer_factory.hpp:77] Creating layer inception_3b/relu_5x5
I0403 20:05:45.250921 10502 net.cpp:91] Creating Layer inception_3b/relu_5x5
I0403 20:05:45.250937 10502 net.cpp:425] inception_3b/relu_5x5 <- inception_3b/5x5
I0403 20:05:45.250954 10502 net.cpp:386] inception_3b/relu_5x5 -> inception_3b/5x5 (in-place)
I0403 20:05:45.251147 10502 net.cpp:141] Setting up inception_3b/relu_5x5
I0403 20:05:45.251173 10502 net.cpp:148] Top shape: 24 96 28 28 (1806336)
I0403 20:05:45.251188 10502 net.cpp:156] Memory required for data: 744211488
I0403 20:05:45.251204 10502 layer_factory.hpp:77] Creating layer inception_3b/pool
I0403 20:05:45.251220 10502 net.cpp:91] Creating Layer inception_3b/pool
I0403 20:05:45.251236 10502 net.cpp:425] inception_3b/pool <- inception_3a/output_inception_3a/output_0_split_3
I0403 20:05:45.251255 10502 net.cpp:399] inception_3b/pool -> inception_3b/pool
I0403 20:05:45.251314 10502 net.cpp:141] Setting up inception_3b/pool
I0403 20:05:45.251341 10502 net.cpp:148] Top shape: 24 256 28 28 (4816896)
I0403 20:05:45.251358 10502 net.cpp:156] Memory required for data: 763479072
I0403 20:05:45.251373 10502 layer_factory.hpp:77] Creating layer inception_3b/pool_proj
I0403 20:05:45.251394 10502 net.cpp:91] Creating Layer inception_3b/pool_proj
I0403 20:05:45.251412 10502 net.cpp:425] inception_3b/pool_proj <- inception_3b/pool
I0403 20:05:45.251431 10502 net.cpp:399] inception_3b/pool_proj -> inception_3b/pool_proj
I0403 20:05:45.252490 10502 net.cpp:141] Setting up inception_3b/pool_proj
I0403 20:05:45.252519 10502 net.cpp:148] Top shape: 24 64 28 28 (1204224)
I0403 20:05:45.252535 10502 net.cpp:156] Memory required for data: 768295968
I0403 20:05:45.252554 10502 layer_factory.hpp:77] Creating layer inception_3b/relu_pool_proj
I0403 20:05:45.252575 10502 net.cpp:91] Creating Layer inception_3b/relu_pool_proj
I0403 20:05:45.252591 10502 net.cpp:425] inception_3b/relu_pool_proj <- inception_3b/pool_proj
I0403 20:05:45.252609 10502 net.cpp:386] inception_3b/relu_pool_proj -> inception_3b/pool_proj (in-place)
I0403 20:05:45.252980 10502 net.cpp:141] Setting up inception_3b/relu_pool_proj
I0403 20:05:45.253006 10502 net.cpp:148] Top shape: 24 64 28 28 (1204224)
I0403 20:05:45.253022 10502 net.cpp:156] Memory required for data: 773112864
I0403 20:05:45.253037 10502 layer_factory.hpp:77] Creating layer inception_3b/output
I0403 20:05:45.253054 10502 net.cpp:91] Creating Layer inception_3b/output
I0403 20:05:45.253070 10502 net.cpp:425] inception_3b/output <- inception_3b/1x1
I0403 20:05:45.253087 10502 net.cpp:425] inception_3b/output <- inception_3b/3x3
I0403 20:05:45.253103 10502 net.cpp:425] inception_3b/output <- inception_3b/5x5
I0403 20:05:45.253120 10502 net.cpp:425] inception_3b/output <- inception_3b/pool_proj
I0403 20:05:45.253140 10502 net.cpp:399] inception_3b/output -> inception_3b/output
I0403 20:05:45.253186 10502 net.cpp:141] Setting up inception_3b/output
I0403 20:05:45.253209 10502 net.cpp:148] Top shape: 24 480 28 28 (9031680)
I0403 20:05:45.253224 10502 net.cpp:156] Memory required for data: 809239584
I0403 20:05:45.253239 10502 layer_factory.hpp:77] Creating layer pool3/3x3_s2
I0403 20:05:45.253255 10502 net.cpp:91] Creating Layer pool3/3x3_s2
I0403 20:05:45.253275 10502 net.cpp:425] pool3/3x3_s2 <- inception_3b/output
I0403 20:05:45.253298 10502 net.cpp:399] pool3/3x3_s2 -> pool3/3x3_s2
I0403 20:05:45.253371 10502 net.cpp:141] Setting up pool3/3x3_s2
I0403 20:05:45.253394 10502 net.cpp:148] Top shape: 24 480 14 14 (2257920)
I0403 20:05:45.253409 10502 net.cpp:156] Memory required for data: 818271264
I0403 20:05:45.253424 10502 layer_factory.hpp:77] Creating layer pool3/3x3_s2_pool3/3x3_s2_0_split
I0403 20:05:45.253444 10502 net.cpp:91] Creating Layer pool3/3x3_s2_pool3/3x3_s2_0_split
I0403 20:05:45.253459 10502 net.cpp:425] pool3/3x3_s2_pool3/3x3_s2_0_split <- pool3/3x3_s2
I0403 20:05:45.253476 10502 net.cpp:399] pool3/3x3_s2_pool3/3x3_s2_0_split -> pool3/3x3_s2_pool3/3x3_s2_0_split_0
I0403 20:05:45.253496 10502 net.cpp:399] pool3/3x3_s2_pool3/3x3_s2_0_split -> pool3/3x3_s2_pool3/3x3_s2_0_split_1
I0403 20:05:45.253520 10502 net.cpp:399] pool3/3x3_s2_pool3/3x3_s2_0_split -> pool3/3x3_s2_pool3/3x3_s2_0_split_2
I0403 20:05:45.253540 10502 net.cpp:399] pool3/3x3_s2_pool3/3x3_s2_0_split -> pool3/3x3_s2_pool3/3x3_s2_0_split_3
I0403 20:05:45.253614 10502 net.cpp:141] Setting up pool3/3x3_s2_pool3/3x3_s2_0_split
I0403 20:05:45.253638 10502 net.cpp:148] Top shape: 24 480 14 14 (2257920)
I0403 20:05:45.253654 10502 net.cpp:148] Top shape: 24 480 14 14 (2257920)
I0403 20:05:45.253669 10502 net.cpp:148] Top shape: 24 480 14 14 (2257920)
I0403 20:05:45.253684 10502 net.cpp:148] Top shape: 24 480 14 14 (2257920)
I0403 20:05:45.253697 10502 net.cpp:156] Memory required for data: 854397984
I0403 20:05:45.253711 10502 layer_factory.hpp:77] Creating layer inception_4a/1x1
I0403 20:05:45.253733 10502 net.cpp:91] Creating Layer inception_4a/1x1
I0403 20:05:45.253751 10502 net.cpp:425] inception_4a/1x1 <- pool3/3x3_s2_pool3/3x3_s2_0_split_0
I0403 20:05:45.253772 10502 net.cpp:399] inception_4a/1x1 -> inception_4a/1x1
I0403 20:05:45.255332 10502 net.cpp:141] Setting up inception_4a/1x1
I0403 20:05:45.255360 10502 net.cpp:148] Top shape: 24 192 14 14 (903168)
I0403 20:05:45.255375 10502 net.cpp:156] Memory required for data: 858010656
I0403 20:05:45.255394 10502 layer_factory.hpp:77] Creating layer inception_4a/relu_1x1
I0403 20:05:45.255414 10502 net.cpp:91] Creating Layer inception_4a/relu_1x1
I0403 20:05:45.255431 10502 net.cpp:425] inception_4a/relu_1x1 <- inception_4a/1x1
I0403 20:05:45.255448 10502 net.cpp:386] inception_4a/relu_1x1 -> inception_4a/1x1 (in-place)
I0403 20:05:45.255630 10502 net.cpp:141] Setting up inception_4a/relu_1x1
I0403 20:05:45.255657 10502 net.cpp:148] Top shape: 24 192 14 14 (903168)
I0403 20:05:45.255672 10502 net.cpp:156] Memory required for data: 861623328
I0403 20:05:45.255687 10502 layer_factory.hpp:77] Creating layer inception_4a/3x3_reduce
I0403 20:05:45.255709 10502 net.cpp:91] Creating Layer inception_4a/3x3_reduce
I0403 20:05:45.255725 10502 net.cpp:425] inception_4a/3x3_reduce <- pool3/3x3_s2_pool3/3x3_s2_0_split_1
I0403 20:05:45.255744 10502 net.cpp:399] inception_4a/3x3_reduce -> inception_4a/3x3_reduce
I0403 20:05:45.257012 10502 net.cpp:141] Setting up inception_4a/3x3_reduce
I0403 20:05:45.257040 10502 net.cpp:148] Top shape: 24 96 14 14 (451584)
I0403 20:05:45.257055 10502 net.cpp:156] Memory required for data: 863429664
I0403 20:05:45.257081 10502 layer_factory.hpp:77] Creating layer inception_4a/relu_3x3_reduce
I0403 20:05:45.257103 10502 net.cpp:91] Creating Layer inception_4a/relu_3x3_reduce
I0403 20:05:45.257120 10502 net.cpp:425] inception_4a/relu_3x3_reduce <- inception_4a/3x3_reduce
I0403 20:05:45.257138 10502 net.cpp:386] inception_4a/relu_3x3_reduce -> inception_4a/3x3_reduce (in-place)
I0403 20:05:45.257318 10502 net.cpp:141] Setting up inception_4a/relu_3x3_reduce
I0403 20:05:45.257347 10502 net.cpp:148] Top shape: 24 96 14 14 (451584)
I0403 20:05:45.257364 10502 net.cpp:156] Memory required for data: 865236000
I0403 20:05:45.257380 10502 layer_factory.hpp:77] Creating layer inception_4a/3x3
I0403 20:05:45.257401 10502 net.cpp:91] Creating Layer inception_4a/3x3
I0403 20:05:45.257418 10502 net.cpp:425] inception_4a/3x3 <- inception_4a/3x3_reduce
I0403 20:05:45.257438 10502 net.cpp:399] inception_4a/3x3 -> inception_4a/3x3
I0403 20:05:45.260131 10502 net.cpp:141] Setting up inception_4a/3x3
I0403 20:05:45.260162 10502 net.cpp:148] Top shape: 24 208 14 14 (978432)
I0403 20:05:45.260179 10502 net.cpp:156] Memory required for data: 869149728
I0403 20:05:45.260198 10502 layer_factory.hpp:77] Creating layer inception_4a/relu_3x3
I0403 20:05:45.260216 10502 net.cpp:91] Creating Layer inception_4a/relu_3x3
I0403 20:05:45.260232 10502 net.cpp:425] inception_4a/relu_3x3 <- inception_4a/3x3
I0403 20:05:45.260249 10502 net.cpp:386] inception_4a/relu_3x3 -> inception_4a/3x3 (in-place)
I0403 20:05:45.260536 10502 net.cpp:141] Setting up inception_4a/relu_3x3
I0403 20:05:45.260565 10502 net.cpp:148] Top shape: 24 208 14 14 (978432)
I0403 20:05:45.260581 10502 net.cpp:156] Memory required for data: 873063456
I0403 20:05:45.260596 10502 layer_factory.hpp:77] Creating layer inception_4a/5x5_reduce
I0403 20:05:45.260617 10502 net.cpp:91] Creating Layer inception_4a/5x5_reduce
I0403 20:05:45.260635 10502 net.cpp:425] inception_4a/5x5_reduce <- pool3/3x3_s2_pool3/3x3_s2_0_split_2
I0403 20:05:45.260654 10502 net.cpp:399] inception_4a/5x5_reduce -> inception_4a/5x5_reduce
I0403 20:05:45.261668 10502 net.cpp:141] Setting up inception_4a/5x5_reduce
I0403 20:05:45.261696 10502 net.cpp:148] Top shape: 24 16 14 14 (75264)
I0403 20:05:45.261711 10502 net.cpp:156] Memory required for data: 873364512
I0403 20:05:45.261729 10502 layer_factory.hpp:77] Creating layer inception_4a/relu_5x5_reduce
I0403 20:05:45.261747 10502 net.cpp:91] Creating Layer inception_4a/relu_5x5_reduce
I0403 20:05:45.261764 10502 net.cpp:425] inception_4a/relu_5x5_reduce <- inception_4a/5x5_reduce
I0403 20:05:45.261783 10502 net.cpp:386] inception_4a/relu_5x5_reduce -> inception_4a/5x5_reduce (in-place)
I0403 20:05:45.261960 10502 net.cpp:141] Setting up inception_4a/relu_5x5_reduce
I0403 20:05:45.261986 10502 net.cpp:148] Top shape: 24 16 14 14 (75264)
I0403 20:05:45.262001 10502 net.cpp:156] Memory required for data: 873665568
I0403 20:05:45.262015 10502 layer_factory.hpp:77] Creating layer inception_4a/5x5
I0403 20:05:45.262037 10502 net.cpp:91] Creating Layer inception_4a/5x5
I0403 20:05:45.262055 10502 net.cpp:425] inception_4a/5x5 <- inception_4a/5x5_reduce
I0403 20:05:45.262076 10502 net.cpp:399] inception_4a/5x5 -> inception_4a/5x5
I0403 20:05:45.263167 10502 net.cpp:141] Setting up inception_4a/5x5
I0403 20:05:45.263195 10502 net.cpp:148] Top shape: 24 48 14 14 (225792)
I0403 20:05:45.263211 10502 net.cpp:156] Memory required for data: 874568736
I0403 20:05:45.263229 10502 layer_factory.hpp:77] Creating layer inception_4a/relu_5x5
I0403 20:05:45.263250 10502 net.cpp:91] Creating Layer inception_4a/relu_5x5
I0403 20:05:45.263267 10502 net.cpp:425] inception_4a/relu_5x5 <- inception_4a/5x5
I0403 20:05:45.263290 10502 net.cpp:386] inception_4a/relu_5x5 -> inception_4a/5x5 (in-place)
I0403 20:05:45.263468 10502 net.cpp:141] Setting up inception_4a/relu_5x5
I0403 20:05:45.263496 10502 net.cpp:148] Top shape: 24 48 14 14 (225792)
I0403 20:05:45.263511 10502 net.cpp:156] Memory required for data: 875471904
I0403 20:05:45.263526 10502 layer_factory.hpp:77] Creating layer inception_4a/pool
I0403 20:05:45.263545 10502 net.cpp:91] Creating Layer inception_4a/pool
I0403 20:05:45.263561 10502 net.cpp:425] inception_4a/pool <- pool3/3x3_s2_pool3/3x3_s2_0_split_3
I0403 20:05:45.263577 10502 net.cpp:399] inception_4a/pool -> inception_4a/pool
I0403 20:05:45.263639 10502 net.cpp:141] Setting up inception_4a/pool
I0403 20:05:45.263664 10502 net.cpp:148] Top shape: 24 480 14 14 (2257920)
I0403 20:05:45.263679 10502 net.cpp:156] Memory required for data: 884503584
I0403 20:05:45.263694 10502 layer_factory.hpp:77] Creating layer inception_4a/pool_proj
I0403 20:05:45.263716 10502 net.cpp:91] Creating Layer inception_4a/pool_proj
I0403 20:05:45.263733 10502 net.cpp:425] inception_4a/pool_proj <- inception_4a/pool
I0403 20:05:45.263754 10502 net.cpp:399] inception_4a/pool_proj -> inception_4a/pool_proj
I0403 20:05:45.264911 10502 net.cpp:141] Setting up inception_4a/pool_proj
I0403 20:05:45.264941 10502 net.cpp:148] Top shape: 24 64 14 14 (301056)
I0403 20:05:45.264974 10502 net.cpp:156] Memory required for data: 885707808
I0403 20:05:45.264994 10502 layer_factory.hpp:77] Creating layer inception_4a/relu_pool_proj
I0403 20:05:45.265015 10502 net.cpp:91] Creating Layer inception_4a/relu_pool_proj
I0403 20:05:45.265033 10502 net.cpp:425] inception_4a/relu_pool_proj <- inception_4a/pool_proj
I0403 20:05:45.265050 10502 net.cpp:386] inception_4a/relu_pool_proj -> inception_4a/pool_proj (in-place)
I0403 20:05:45.265332 10502 net.cpp:141] Setting up inception_4a/relu_pool_proj
I0403 20:05:45.265359 10502 net.cpp:148] Top shape: 24 64 14 14 (301056)
I0403 20:05:45.265374 10502 net.cpp:156] Memory required for data: 886912032
I0403 20:05:45.265389 10502 layer_factory.hpp:77] Creating layer inception_4a/output
I0403 20:05:45.265408 10502 net.cpp:91] Creating Layer inception_4a/output
I0403 20:05:45.265424 10502 net.cpp:425] inception_4a/output <- inception_4a/1x1
I0403 20:05:45.265440 10502 net.cpp:425] inception_4a/output <- inception_4a/3x3
I0403 20:05:45.265456 10502 net.cpp:425] inception_4a/output <- inception_4a/5x5
I0403 20:05:45.265472 10502 net.cpp:425] inception_4a/output <- inception_4a/pool_proj
I0403 20:05:45.265489 10502 net.cpp:399] inception_4a/output -> inception_4a/output
I0403 20:05:45.265535 10502 net.cpp:141] Setting up inception_4a/output
I0403 20:05:45.265558 10502 net.cpp:148] Top shape: 24 512 14 14 (2408448)
I0403 20:05:45.265573 10502 net.cpp:156] Memory required for data: 896545824
I0403 20:05:45.265588 10502 layer_factory.hpp:77] Creating layer inception_4a/output_inception_4a/output_0_split
I0403 20:05:45.265605 10502 net.cpp:91] Creating Layer inception_4a/output_inception_4a/output_0_split
I0403 20:05:45.265620 10502 net.cpp:425] inception_4a/output_inception_4a/output_0_split <- inception_4a/output
I0403 20:05:45.265640 10502 net.cpp:399] inception_4a/output_inception_4a/output_0_split -> inception_4a/output_inception_4a/output_0_split_0
I0403 20:05:45.265661 10502 net.cpp:399] inception_4a/output_inception_4a/output_0_split -> inception_4a/output_inception_4a/output_0_split_1
I0403 20:05:45.265681 10502 net.cpp:399] inception_4a/output_inception_4a/output_0_split -> inception_4a/output_inception_4a/output_0_split_2
I0403 20:05:45.265702 10502 net.cpp:399] inception_4a/output_inception_4a/output_0_split -> inception_4a/output_inception_4a/output_0_split_3
I0403 20:05:45.265722 10502 net.cpp:399] inception_4a/output_inception_4a/output_0_split -> inception_4a/output_inception_4a/output_0_split_4
I0403 20:05:45.265821 10502 net.cpp:141] Setting up inception_4a/output_inception_4a/output_0_split
I0403 20:05:45.265844 10502 net.cpp:148] Top shape: 24 512 14 14 (2408448)
I0403 20:05:45.265861 10502 net.cpp:148] Top shape: 24 512 14 14 (2408448)
I0403 20:05:45.265877 10502 net.cpp:148] Top shape: 24 512 14 14 (2408448)
I0403 20:05:45.265892 10502 net.cpp:148] Top shape: 24 512 14 14 (2408448)
I0403 20:05:45.265908 10502 net.cpp:148] Top shape: 24 512 14 14 (2408448)
I0403 20:05:45.265921 10502 net.cpp:156] Memory required for data: 944714784
I0403 20:05:45.265936 10502 layer_factory.hpp:77] Creating layer loss1/ave_pool
I0403 20:05:45.265954 10502 net.cpp:91] Creating Layer loss1/ave_pool
I0403 20:05:45.265969 10502 net.cpp:425] loss1/ave_pool <- inception_4a/output_inception_4a/output_0_split_0
I0403 20:05:45.265988 10502 net.cpp:399] loss1/ave_pool -> loss1/ave_pool
I0403 20:05:45.266192 10502 net.cpp:141] Setting up loss1/ave_pool
I0403 20:05:45.266218 10502 net.cpp:148] Top shape: 24 512 4 4 (196608)
I0403 20:05:45.266233 10502 net.cpp:156] Memory required for data: 945501216
I0403 20:05:45.266248 10502 layer_factory.hpp:77] Creating layer loss1/conv
I0403 20:05:45.266274 10502 net.cpp:91] Creating Layer loss1/conv
I0403 20:05:45.266294 10502 net.cpp:425] loss1/conv <- loss1/ave_pool
I0403 20:05:45.266316 10502 net.cpp:399] loss1/conv -> loss1/conv
I0403 20:05:45.267741 10502 net.cpp:141] Setting up loss1/conv
I0403 20:05:45.267771 10502 net.cpp:148] Top shape: 24 128 4 4 (49152)
I0403 20:05:45.267786 10502 net.cpp:156] Memory required for data: 945697824
I0403 20:05:45.267820 10502 layer_factory.hpp:77] Creating layer loss1/relu_conv
I0403 20:05:45.267838 10502 net.cpp:91] Creating Layer loss1/relu_conv
I0403 20:05:45.267854 10502 net.cpp:425] loss1/relu_conv <- loss1/conv
I0403 20:05:45.267874 10502 net.cpp:386] loss1/relu_conv -> loss1/conv (in-place)
I0403 20:05:45.268142 10502 net.cpp:141] Setting up loss1/relu_conv
I0403 20:05:45.268170 10502 net.cpp:148] Top shape: 24 128 4 4 (49152)
I0403 20:05:45.268187 10502 net.cpp:156] Memory required for data: 945894432
I0403 20:05:45.268200 10502 layer_factory.hpp:77] Creating layer loss1/fc
I0403 20:05:45.268224 10502 net.cpp:91] Creating Layer loss1/fc
I0403 20:05:45.268241 10502 net.cpp:425] loss1/fc <- loss1/conv
I0403 20:05:45.268261 10502 net.cpp:399] loss1/fc -> loss1/fc
I0403 20:05:45.285998 10502 net.cpp:141] Setting up loss1/fc
I0403 20:05:45.286037 10502 net.cpp:148] Top shape: 24 1024 (24576)
I0403 20:05:45.286054 10502 net.cpp:156] Memory required for data: 945992736
I0403 20:05:45.286072 10502 layer_factory.hpp:77] Creating layer loss1/relu_fc
I0403 20:05:45.286090 10502 net.cpp:91] Creating Layer loss1/relu_fc
I0403 20:05:45.286106 10502 net.cpp:425] loss1/relu_fc <- loss1/fc
I0403 20:05:45.286123 10502 net.cpp:386] loss1/relu_fc -> loss1/fc (in-place)
I0403 20:05:45.286315 10502 net.cpp:141] Setting up loss1/relu_fc
I0403 20:05:45.286341 10502 net.cpp:148] Top shape: 24 1024 (24576)
I0403 20:05:45.286357 10502 net.cpp:156] Memory required for data: 946091040
I0403 20:05:45.286372 10502 layer_factory.hpp:77] Creating layer loss1/drop_fc
I0403 20:05:45.286398 10502 net.cpp:91] Creating Layer loss1/drop_fc
I0403 20:05:45.286414 10502 net.cpp:425] loss1/drop_fc <- loss1/fc
I0403 20:05:45.286432 10502 net.cpp:386] loss1/drop_fc -> loss1/fc (in-place)
I0403 20:05:45.286485 10502 net.cpp:141] Setting up loss1/drop_fc
I0403 20:05:45.286509 10502 net.cpp:148] Top shape: 24 1024 (24576)
I0403 20:05:45.286522 10502 net.cpp:156] Memory required for data: 946189344
I0403 20:05:45.286537 10502 layer_factory.hpp:77] Creating layer loss1/classifier_plantvillage
I0403 20:05:45.286558 10502 net.cpp:91] Creating Layer loss1/classifier_plantvillage
I0403 20:05:45.286576 10502 net.cpp:425] loss1/classifier_plantvillage <- loss1/fc
I0403 20:05:45.286593 10502 net.cpp:399] loss1/classifier_plantvillage -> loss1/classifier_plantvillage
I0403 20:05:45.287513 10502 net.cpp:141] Setting up loss1/classifier_plantvillage
I0403 20:05:45.287542 10502 net.cpp:148] Top shape: 24 38 (912)
I0403 20:05:45.287557 10502 net.cpp:156] Memory required for data: 946192992
I0403 20:05:45.287575 10502 layer_factory.hpp:77] Creating layer loss1/classifier_plantvillage_loss1/classifier_plantvillage_0_split
I0403 20:05:45.287593 10502 net.cpp:91] Creating Layer loss1/classifier_plantvillage_loss1/classifier_plantvillage_0_split
I0403 20:05:45.287608 10502 net.cpp:425] loss1/classifier_plantvillage_loss1/classifier_plantvillage_0_split <- loss1/classifier_plantvillage
I0403 20:05:45.287626 10502 net.cpp:399] loss1/classifier_plantvillage_loss1/classifier_plantvillage_0_split -> loss1/classifier_plantvillage_loss1/classifier_plantvillage_0_split_0
I0403 20:05:45.287644 10502 net.cpp:399] loss1/classifier_plantvillage_loss1/classifier_plantvillage_0_split -> loss1/classifier_plantvillage_loss1/classifier_plantvillage_0_split_1
I0403 20:05:45.287667 10502 net.cpp:399] loss1/classifier_plantvillage_loss1/classifier_plantvillage_0_split -> loss1/classifier_plantvillage_loss1/classifier_plantvillage_0_split_2
I0403 20:05:45.287731 10502 net.cpp:141] Setting up loss1/classifier_plantvillage_loss1/classifier_plantvillage_0_split
I0403 20:05:45.287755 10502 net.cpp:148] Top shape: 24 38 (912)
I0403 20:05:45.287770 10502 net.cpp:148] Top shape: 24 38 (912)
I0403 20:05:45.287786 10502 net.cpp:148] Top shape: 24 38 (912)
I0403 20:05:45.287798 10502 net.cpp:156] Memory required for data: 946203936
I0403 20:05:45.287812 10502 layer_factory.hpp:77] Creating layer inception_4b/1x1
I0403 20:05:45.287832 10502 net.cpp:91] Creating Layer inception_4b/1x1
I0403 20:05:45.287863 10502 net.cpp:425] inception_4b/1x1 <- inception_4a/output_inception_4a/output_0_split_1
I0403 20:05:45.287886 10502 net.cpp:399] inception_4b/1x1 -> inception_4b/1x1
I0403 20:05:45.289469 10502 net.cpp:141] Setting up inception_4b/1x1
I0403 20:05:45.289496 10502 net.cpp:148] Top shape: 24 160 14 14 (752640)
I0403 20:05:45.289511 10502 net.cpp:156] Memory required for data: 949214496
I0403 20:05:45.289530 10502 layer_factory.hpp:77] Creating layer inception_4b/relu_1x1
I0403 20:05:45.289546 10502 net.cpp:91] Creating Layer inception_4b/relu_1x1
I0403 20:05:45.289561 10502 net.cpp:425] inception_4b/relu_1x1 <- inception_4b/1x1
I0403 20:05:45.289580 10502 net.cpp:386] inception_4b/relu_1x1 -> inception_4b/1x1 (in-place)
I0403 20:05:45.289765 10502 net.cpp:141] Setting up inception_4b/relu_1x1
I0403 20:05:45.289789 10502 net.cpp:148] Top shape: 24 160 14 14 (752640)
I0403 20:05:45.289804 10502 net.cpp:156] Memory required for data: 952225056
I0403 20:05:45.289819 10502 layer_factory.hpp:77] Creating layer inception_4b/3x3_reduce
I0403 20:05:45.289839 10502 net.cpp:91] Creating Layer inception_4b/3x3_reduce
I0403 20:05:45.289855 10502 net.cpp:425] inception_4b/3x3_reduce <- inception_4a/output_inception_4a/output_0_split_2
I0403 20:05:45.289875 10502 net.cpp:399] inception_4b/3x3_reduce -> inception_4b/3x3_reduce
I0403 20:05:45.291157 10502 net.cpp:141] Setting up inception_4b/3x3_reduce
I0403 20:05:45.291183 10502 net.cpp:148] Top shape: 24 112 14 14 (526848)
I0403 20:05:45.291198 10502 net.cpp:156] Memory required for data: 954332448
I0403 20:05:45.291216 10502 layer_factory.hpp:77] Creating layer inception_4b/relu_3x3_reduce
I0403 20:05:45.291236 10502 net.cpp:91] Creating Layer inception_4b/relu_3x3_reduce
I0403 20:05:45.291252 10502 net.cpp:425] inception_4b/relu_3x3_reduce <- inception_4b/3x3_reduce
I0403 20:05:45.291268 10502 net.cpp:386] inception_4b/relu_3x3_reduce -> inception_4b/3x3_reduce (in-place)
I0403 20:05:45.291539 10502 net.cpp:141] Setting up inception_4b/relu_3x3_reduce
I0403 20:05:45.291564 10502 net.cpp:148] Top shape: 24 112 14 14 (526848)
I0403 20:05:45.291579 10502 net.cpp:156] Memory required for data: 956439840
I0403 20:05:45.291594 10502 layer_factory.hpp:77] Creating layer inception_4b/3x3
I0403 20:05:45.291615 10502 net.cpp:91] Creating Layer inception_4b/3x3
I0403 20:05:45.291630 10502 net.cpp:425] inception_4b/3x3 <- inception_4b/3x3_reduce
I0403 20:05:45.291652 10502 net.cpp:399] inception_4b/3x3 -> inception_4b/3x3
I0403 20:05:45.294500 10502 net.cpp:141] Setting up inception_4b/3x3
I0403 20:05:45.294528 10502 net.cpp:148] Top shape: 24 224 14 14 (1053696)
I0403 20:05:45.294546 10502 net.cpp:156] Memory required for data: 960654624
I0403 20:05:45.294564 10502 layer_factory.hpp:77] Creating layer inception_4b/relu_3x3
I0403 20:05:45.294580 10502 net.cpp:91] Creating Layer inception_4b/relu_3x3
I0403 20:05:45.294595 10502 net.cpp:425] inception_4b/relu_3x3 <- inception_4b/3x3
I0403 20:05:45.294611 10502 net.cpp:386] inception_4b/relu_3x3 -> inception_4b/3x3 (in-place)
I0403 20:05:45.294781 10502 net.cpp:141] Setting up inception_4b/relu_3x3
I0403 20:05:45.294808 10502 net.cpp:148] Top shape: 24 224 14 14 (1053696)
I0403 20:05:45.294822 10502 net.cpp:156] Memory required for data: 964869408
I0403 20:05:45.294836 10502 layer_factory.hpp:77] Creating layer inception_4b/5x5_reduce
I0403 20:05:45.294857 10502 net.cpp:91] Creating Layer inception_4b/5x5_reduce
I0403 20:05:45.294873 10502 net.cpp:425] inception_4b/5x5_reduce <- inception_4a/output_inception_4a/output_0_split_3
I0403 20:05:45.294891 10502 net.cpp:399] inception_4b/5x5_reduce -> inception_4b/5x5_reduce
I0403 20:05:45.295913 10502 net.cpp:141] Setting up inception_4b/5x5_reduce
I0403 20:05:45.295938 10502 net.cpp:148] Top shape: 24 24 14 14 (112896)
I0403 20:05:45.295953 10502 net.cpp:156] Memory required for data: 965320992
I0403 20:05:45.295969 10502 layer_factory.hpp:77] Creating layer inception_4b/relu_5x5_reduce
I0403 20:05:45.295987 10502 net.cpp:91] Creating Layer inception_4b/relu_5x5_reduce
I0403 20:05:45.296017 10502 net.cpp:425] inception_4b/relu_5x5_reduce <- inception_4b/5x5_reduce
I0403 20:05:45.296038 10502 net.cpp:386] inception_4b/relu_5x5_reduce -> inception_4b/5x5_reduce (in-place)
I0403 20:05:45.296211 10502 net.cpp:141] Setting up inception_4b/relu_5x5_reduce
I0403 20:05:45.296236 10502 net.cpp:148] Top shape: 24 24 14 14 (112896)
I0403 20:05:45.296250 10502 net.cpp:156] Memory required for data: 965772576
I0403 20:05:45.296264 10502 layer_factory.hpp:77] Creating layer inception_4b/5x5
I0403 20:05:45.296305 10502 net.cpp:91] Creating Layer inception_4b/5x5
I0403 20:05:45.296324 10502 net.cpp:425] inception_4b/5x5 <- inception_4b/5x5_reduce
I0403 20:05:45.296345 10502 net.cpp:399] inception_4b/5x5 -> inception_4b/5x5
I0403 20:05:45.297540 10502 net.cpp:141] Setting up inception_4b/5x5
I0403 20:05:45.297567 10502 net.cpp:148] Top shape: 24 64 14 14 (301056)
I0403 20:05:45.297582 10502 net.cpp:156] Memory required for data: 966976800
I0403 20:05:45.297600 10502 layer_factory.hpp:77] Creating layer inception_4b/relu_5x5
I0403 20:05:45.297618 10502 net.cpp:91] Creating Layer inception_4b/relu_5x5
I0403 20:05:45.297634 10502 net.cpp:425] inception_4b/relu_5x5 <- inception_4b/5x5
I0403 20:05:45.297654 10502 net.cpp:386] inception_4b/relu_5x5 -> inception_4b/5x5 (in-place)
I0403 20:05:45.297930 10502 net.cpp:141] Setting up inception_4b/relu_5x5
I0403 20:05:45.297956 10502 net.cpp:148] Top shape: 24 64 14 14 (301056)
I0403 20:05:45.297971 10502 net.cpp:156] Memory required for data: 968181024
I0403 20:05:45.297986 10502 layer_factory.hpp:77] Creating layer inception_4b/pool
I0403 20:05:45.298002 10502 net.cpp:91] Creating Layer inception_4b/pool
I0403 20:05:45.298018 10502 net.cpp:425] inception_4b/pool <- inception_4a/output_inception_4a/output_0_split_4
I0403 20:05:45.298040 10502 net.cpp:399] inception_4b/pool -> inception_4b/pool
I0403 20:05:45.298102 10502 net.cpp:141] Setting up inception_4b/pool
I0403 20:05:45.298126 10502 net.cpp:148] Top shape: 24 512 14 14 (2408448)
I0403 20:05:45.298141 10502 net.cpp:156] Memory required for data: 977814816
I0403 20:05:45.298156 10502 layer_factory.hpp:77] Creating layer inception_4b/pool_proj
I0403 20:05:45.298178 10502 net.cpp:91] Creating Layer inception_4b/pool_proj
I0403 20:05:45.298195 10502 net.cpp:425] inception_4b/pool_proj <- inception_4b/pool
I0403 20:05:45.298213 10502 net.cpp:399] inception_4b/pool_proj -> inception_4b/pool_proj
I0403 20:05:45.299382 10502 net.cpp:141] Setting up inception_4b/pool_proj
I0403 20:05:45.299409 10502 net.cpp:148] Top shape: 24 64 14 14 (301056)
I0403 20:05:45.299424 10502 net.cpp:156] Memory required for data: 979019040
I0403 20:05:45.299443 10502 layer_factory.hpp:77] Creating layer inception_4b/relu_pool_proj
I0403 20:05:45.299460 10502 net.cpp:91] Creating Layer inception_4b/relu_pool_proj
I0403 20:05:45.299476 10502 net.cpp:425] inception_4b/relu_pool_proj <- inception_4b/pool_proj
I0403 20:05:45.299495 10502 net.cpp:386] inception_4b/relu_pool_proj -> inception_4b/pool_proj (in-place)
I0403 20:05:45.299674 10502 net.cpp:141] Setting up inception_4b/relu_pool_proj
I0403 20:05:45.299698 10502 net.cpp:148] Top shape: 24 64 14 14 (301056)
I0403 20:05:45.299712 10502 net.cpp:156] Memory required for data: 980223264
I0403 20:05:45.299728 10502 layer_factory.hpp:77] Creating layer inception_4b/output
I0403 20:05:45.299747 10502 net.cpp:91] Creating Layer inception_4b/output
I0403 20:05:45.299762 10502 net.cpp:425] inception_4b/output <- inception_4b/1x1
I0403 20:05:45.299778 10502 net.cpp:425] inception_4b/output <- inception_4b/3x3
I0403 20:05:45.299794 10502 net.cpp:425] inception_4b/output <- inception_4b/5x5
I0403 20:05:45.299809 10502 net.cpp:425] inception_4b/output <- inception_4b/pool_proj
I0403 20:05:45.299826 10502 net.cpp:399] inception_4b/output -> inception_4b/output
I0403 20:05:45.299871 10502 net.cpp:141] Setting up inception_4b/output
I0403 20:05:45.299895 10502 net.cpp:148] Top shape: 24 512 14 14 (2408448)
I0403 20:05:45.299908 10502 net.cpp:156] Memory required for data: 989857056
I0403 20:05:45.299937 10502 layer_factory.hpp:77] Creating layer inception_4b/output_inception_4b/output_0_split
I0403 20:05:45.299955 10502 net.cpp:91] Creating Layer inception_4b/output_inception_4b/output_0_split
I0403 20:05:45.299970 10502 net.cpp:425] inception_4b/output_inception_4b/output_0_split <- inception_4b/output
I0403 20:05:45.299990 10502 net.cpp:399] inception_4b/output_inception_4b/output_0_split -> inception_4b/output_inception_4b/output_0_split_0
I0403 20:05:45.300010 10502 net.cpp:399] inception_4b/output_inception_4b/output_0_split -> inception_4b/output_inception_4b/output_0_split_1
I0403 20:05:45.300031 10502 net.cpp:399] inception_4b/output_inception_4b/output_0_split -> inception_4b/output_inception_4b/output_0_split_2
I0403 20:05:45.300050 10502 net.cpp:399] inception_4b/output_inception_4b/output_0_split -> inception_4b/output_inception_4b/output_0_split_3
I0403 20:05:45.300133 10502 net.cpp:141] Setting up inception_4b/output_inception_4b/output_0_split
I0403 20:05:45.300159 10502 net.cpp:148] Top shape: 24 512 14 14 (2408448)
I0403 20:05:45.300176 10502 net.cpp:148] Top shape: 24 512 14 14 (2408448)
I0403 20:05:45.300191 10502 net.cpp:148] Top shape: 24 512 14 14 (2408448)
I0403 20:05:45.300206 10502 net.cpp:148] Top shape: 24 512 14 14 (2408448)
I0403 20:05:45.300220 10502 net.cpp:156] Memory required for data: 1028392224
I0403 20:05:45.300235 10502 layer_factory.hpp:77] Creating layer inception_4c/1x1
I0403 20:05:45.300258 10502 net.cpp:91] Creating Layer inception_4c/1x1
I0403 20:05:45.300281 10502 net.cpp:425] inception_4c/1x1 <- inception_4b/output_inception_4b/output_0_split_0
I0403 20:05:45.300300 10502 net.cpp:399] inception_4c/1x1 -> inception_4c/1x1
I0403 20:05:45.301692 10502 net.cpp:141] Setting up inception_4c/1x1
I0403 20:05:45.301719 10502 net.cpp:148] Top shape: 24 128 14 14 (602112)
I0403 20:05:45.301734 10502 net.cpp:156] Memory required for data: 1030800672
I0403 20:05:45.301753 10502 layer_factory.hpp:77] Creating layer inception_4c/relu_1x1
I0403 20:05:45.301772 10502 net.cpp:91] Creating Layer inception_4c/relu_1x1
I0403 20:05:45.301789 10502 net.cpp:425] inception_4c/relu_1x1 <- inception_4c/1x1
I0403 20:05:45.301805 10502 net.cpp:386] inception_4c/relu_1x1 -> inception_4c/1x1 (in-place)
I0403 20:05:45.301982 10502 net.cpp:141] Setting up inception_4c/relu_1x1
I0403 20:05:45.302009 10502 net.cpp:148] Top shape: 24 128 14 14 (602112)
I0403 20:05:45.302026 10502 net.cpp:156] Memory required for data: 1033209120
I0403 20:05:45.302039 10502 layer_factory.hpp:77] Creating layer inception_4c/3x3_reduce
I0403 20:05:45.302062 10502 net.cpp:91] Creating Layer inception_4c/3x3_reduce
I0403 20:05:45.302078 10502 net.cpp:425] inception_4c/3x3_reduce <- inception_4b/output_inception_4b/output_0_split_1
I0403 20:05:45.302095 10502 net.cpp:399] inception_4c/3x3_reduce -> inception_4c/3x3_reduce
I0403 20:05:45.304044 10502 net.cpp:141] Setting up inception_4c/3x3_reduce
I0403 20:05:45.304075 10502 net.cpp:148] Top shape: 24 128 14 14 (602112)
I0403 20:05:45.304091 10502 net.cpp:156] Memory required for data: 1035617568
I0403 20:05:45.304111 10502 layer_factory.hpp:77] Creating layer inception_4c/relu_3x3_reduce
I0403 20:05:45.304127 10502 net.cpp:91] Creating Layer inception_4c/relu_3x3_reduce
I0403 20:05:45.304142 10502 net.cpp:425] inception_4c/relu_3x3_reduce <- inception_4c/3x3_reduce
I0403 20:05:45.304160 10502 net.cpp:386] inception_4c/relu_3x3_reduce -> inception_4c/3x3_reduce (in-place)
I0403 20:05:45.304443 10502 net.cpp:141] Setting up inception_4c/relu_3x3_reduce
I0403 20:05:45.304473 10502 net.cpp:148] Top shape: 24 128 14 14 (602112)
I0403 20:05:45.304488 10502 net.cpp:156] Memory required for data: 1038026016
I0403 20:05:45.304503 10502 layer_factory.hpp:77] Creating layer inception_4c/3x3
I0403 20:05:45.304527 10502 net.cpp:91] Creating Layer inception_4c/3x3
I0403 20:05:45.304545 10502 net.cpp:425] inception_4c/3x3 <- inception_4c/3x3_reduce
I0403 20:05:45.304564 10502 net.cpp:399] inception_4c/3x3 -> inception_4c/3x3
I0403 20:05:45.308090 10502 net.cpp:141] Setting up inception_4c/3x3
I0403 20:05:45.308132 10502 net.cpp:148] Top shape: 24 256 14 14 (1204224)
I0403 20:05:45.308148 10502 net.cpp:156] Memory required for data: 1042842912
I0403 20:05:45.308181 10502 layer_factory.hpp:77] Creating layer inception_4c/relu_3x3
I0403 20:05:45.308202 10502 net.cpp:91] Creating Layer inception_4c/relu_3x3
I0403 20:05:45.308218 10502 net.cpp:425] inception_4c/relu_3x3 <- inception_4c/3x3
I0403 20:05:45.308240 10502 net.cpp:386] inception_4c/relu_3x3 -> inception_4c/3x3 (in-place)
I0403 20:05:45.308425 10502 net.cpp:141] Setting up inception_4c/relu_3x3
I0403 20:05:45.308451 10502 net.cpp:148] Top shape: 24 256 14 14 (1204224)
I0403 20:05:45.308466 10502 net.cpp:156] Memory required for data: 1047659808
I0403 20:05:45.308480 10502 layer_factory.hpp:77] Creating layer inception_4c/5x5_reduce
I0403 20:05:45.308503 10502 net.cpp:91] Creating Layer inception_4c/5x5_reduce
I0403 20:05:45.308521 10502 net.cpp:425] inception_4c/5x5_reduce <- inception_4b/output_inception_4b/output_0_split_2
I0403 20:05:45.308542 10502 net.cpp:399] inception_4c/5x5_reduce -> inception_4c/5x5_reduce
I0403 20:05:45.309598 10502 net.cpp:141] Setting up inception_4c/5x5_reduce
I0403 20:05:45.309625 10502 net.cpp:148] Top shape: 24 24 14 14 (112896)
I0403 20:05:45.309641 10502 net.cpp:156] Memory required for data: 1048111392
I0403 20:05:45.309659 10502 layer_factory.hpp:77] Creating layer inception_4c/relu_5x5_reduce
I0403 20:05:45.309676 10502 net.cpp:91] Creating Layer inception_4c/relu_5x5_reduce
I0403 20:05:45.309694 10502 net.cpp:425] inception_4c/relu_5x5_reduce <- inception_4c/5x5_reduce
I0403 20:05:45.309712 10502 net.cpp:386] inception_4c/relu_5x5_reduce -> inception_4c/5x5_reduce (in-place)
I0403 20:05:45.309891 10502 net.cpp:141] Setting up inception_4c/relu_5x5_reduce
I0403 20:05:45.309916 10502 net.cpp:148] Top shape: 24 24 14 14 (112896)
I0403 20:05:45.309931 10502 net.cpp:156] Memory required for data: 1048562976
I0403 20:05:45.309945 10502 layer_factory.hpp:77] Creating layer inception_4c/5x5
I0403 20:05:45.309967 10502 net.cpp:91] Creating Layer inception_4c/5x5
I0403 20:05:45.309983 10502 net.cpp:425] inception_4c/5x5 <- inception_4c/5x5_reduce
I0403 20:05:45.310003 10502 net.cpp:399] inception_4c/5x5 -> inception_4c/5x5
I0403 20:05:45.311208 10502 net.cpp:141] Setting up inception_4c/5x5
I0403 20:05:45.311235 10502 net.cpp:148] Top shape: 24 64 14 14 (301056)
I0403 20:05:45.311250 10502 net.cpp:156] Memory required for data: 1049767200
I0403 20:05:45.311269 10502 layer_factory.hpp:77] Creating layer inception_4c/relu_5x5
I0403 20:05:45.311295 10502 net.cpp:91] Creating Layer inception_4c/relu_5x5
I0403 20:05:45.311311 10502 net.cpp:425] inception_4c/relu_5x5 <- inception_4c/5x5
I0403 20:05:45.311328 10502 net.cpp:386] inception_4c/relu_5x5 -> inception_4c/5x5 (in-place)
I0403 20:05:45.311611 10502 net.cpp:141] Setting up inception_4c/relu_5x5
I0403 20:05:45.311636 10502 net.cpp:148] Top shape: 24 64 14 14 (301056)
I0403 20:05:45.311652 10502 net.cpp:156] Memory required for data: 1050971424
I0403 20:05:45.311666 10502 layer_factory.hpp:77] Creating layer inception_4c/pool
I0403 20:05:45.311686 10502 net.cpp:91] Creating Layer inception_4c/pool
I0403 20:05:45.311702 10502 net.cpp:425] inception_4c/pool <- inception_4b/output_inception_4b/output_0_split_3
I0403 20:05:45.311720 10502 net.cpp:399] inception_4c/pool -> inception_4c/pool
I0403 20:05:45.311784 10502 net.cpp:141] Setting up inception_4c/pool
I0403 20:05:45.311807 10502 net.cpp:148] Top shape: 24 512 14 14 (2408448)
I0403 20:05:45.311822 10502 net.cpp:156] Memory required for data: 1060605216
I0403 20:05:45.311837 10502 layer_factory.hpp:77] Creating layer inception_4c/pool_proj
I0403 20:05:45.311858 10502 net.cpp:91] Creating Layer inception_4c/pool_proj
I0403 20:05:45.311875 10502 net.cpp:425] inception_4c/pool_proj <- inception_4c/pool
I0403 20:05:45.311895 10502 net.cpp:399] inception_4c/pool_proj -> inception_4c/pool_proj
I0403 20:05:45.313089 10502 net.cpp:141] Setting up inception_4c/pool_proj
I0403 20:05:45.313117 10502 net.cpp:148] Top shape: 24 64 14 14 (301056)
I0403 20:05:45.313146 10502 net.cpp:156] Memory required for data: 1061809440
I0403 20:05:45.313165 10502 layer_factory.hpp:77] Creating layer inception_4c/relu_pool_proj
I0403 20:05:45.313182 10502 net.cpp:91] Creating Layer inception_4c/relu_pool_proj
I0403 20:05:45.313199 10502 net.cpp:425] inception_4c/relu_pool_proj <- inception_4c/pool_proj
I0403 20:05:45.313218 10502 net.cpp:386] inception_4c/relu_pool_proj -> inception_4c/pool_proj (in-place)
I0403 20:05:45.313401 10502 net.cpp:141] Setting up inception_4c/relu_pool_proj
I0403 20:05:45.313426 10502 net.cpp:148] Top shape: 24 64 14 14 (301056)
I0403 20:05:45.313441 10502 net.cpp:156] Memory required for data: 1063013664
I0403 20:05:45.313455 10502 layer_factory.hpp:77] Creating layer inception_4c/output
I0403 20:05:45.313475 10502 net.cpp:91] Creating Layer inception_4c/output
I0403 20:05:45.313491 10502 net.cpp:425] inception_4c/output <- inception_4c/1x1
I0403 20:05:45.313508 10502 net.cpp:425] inception_4c/output <- inception_4c/3x3
I0403 20:05:45.313524 10502 net.cpp:425] inception_4c/output <- inception_4c/5x5
I0403 20:05:45.313540 10502 net.cpp:425] inception_4c/output <- inception_4c/pool_proj
I0403 20:05:45.313556 10502 net.cpp:399] inception_4c/output -> inception_4c/output
I0403 20:05:45.313603 10502 net.cpp:141] Setting up inception_4c/output
I0403 20:05:45.313637 10502 net.cpp:148] Top shape: 24 512 14 14 (2408448)
I0403 20:05:45.313652 10502 net.cpp:156] Memory required for data: 1072647456
I0403 20:05:45.313678 10502 layer_factory.hpp:77] Creating layer inception_4c/output_inception_4c/output_0_split
I0403 20:05:45.313694 10502 net.cpp:91] Creating Layer inception_4c/output_inception_4c/output_0_split
I0403 20:05:45.313709 10502 net.cpp:425] inception_4c/output_inception_4c/output_0_split <- inception_4c/output
I0403 20:05:45.313730 10502 net.cpp:399] inception_4c/output_inception_4c/output_0_split -> inception_4c/output_inception_4c/output_0_split_0
I0403 20:05:45.313750 10502 net.cpp:399] inception_4c/output_inception_4c/output_0_split -> inception_4c/output_inception_4c/output_0_split_1
I0403 20:05:45.313769 10502 net.cpp:399] inception_4c/output_inception_4c/output_0_split -> inception_4c/output_inception_4c/output_0_split_2
I0403 20:05:45.313789 10502 net.cpp:399] inception_4c/output_inception_4c/output_0_split -> inception_4c/output_inception_4c/output_0_split_3
I0403 20:05:45.313871 10502 net.cpp:141] Setting up inception_4c/output_inception_4c/output_0_split
I0403 20:05:45.313897 10502 net.cpp:148] Top shape: 24 512 14 14 (2408448)
I0403 20:05:45.313915 10502 net.cpp:148] Top shape: 24 512 14 14 (2408448)
I0403 20:05:45.313931 10502 net.cpp:148] Top shape: 24 512 14 14 (2408448)
I0403 20:05:45.313946 10502 net.cpp:148] Top shape: 24 512 14 14 (2408448)
I0403 20:05:45.313972 10502 net.cpp:156] Memory required for data: 1111182624
I0403 20:05:45.313987 10502 layer_factory.hpp:77] Creating layer inception_4d/1x1
I0403 20:05:45.314007 10502 net.cpp:91] Creating Layer inception_4d/1x1
I0403 20:05:45.314024 10502 net.cpp:425] inception_4d/1x1 <- inception_4c/output_inception_4c/output_0_split_0
I0403 20:05:45.314041 10502 net.cpp:399] inception_4d/1x1 -> inception_4d/1x1
I0403 20:05:45.315353 10502 net.cpp:141] Setting up inception_4d/1x1
I0403 20:05:45.315382 10502 net.cpp:148] Top shape: 24 112 14 14 (526848)
I0403 20:05:45.315397 10502 net.cpp:156] Memory required for data: 1113290016
I0403 20:05:45.315414 10502 layer_factory.hpp:77] Creating layer inception_4d/relu_1x1
I0403 20:05:45.315430 10502 net.cpp:91] Creating Layer inception_4d/relu_1x1
I0403 20:05:45.315446 10502 net.cpp:425] inception_4d/relu_1x1 <- inception_4d/1x1
I0403 20:05:45.315462 10502 net.cpp:386] inception_4d/relu_1x1 -> inception_4d/1x1 (in-place)
I0403 20:05:45.315644 10502 net.cpp:141] Setting up inception_4d/relu_1x1
I0403 20:05:45.315668 10502 net.cpp:148] Top shape: 24 112 14 14 (526848)
I0403 20:05:45.315681 10502 net.cpp:156] Memory required for data: 1115397408
I0403 20:05:45.315696 10502 layer_factory.hpp:77] Creating layer inception_4d/3x3_reduce
I0403 20:05:45.315732 10502 net.cpp:91] Creating Layer inception_4d/3x3_reduce
I0403 20:05:45.315749 10502 net.cpp:425] inception_4d/3x3_reduce <- inception_4c/output_inception_4c/output_0_split_1
I0403 20:05:45.315770 10502 net.cpp:399] inception_4d/3x3_reduce -> inception_4d/3x3_reduce
I0403 20:05:45.317231 10502 net.cpp:141] Setting up inception_4d/3x3_reduce
I0403 20:05:45.317257 10502 net.cpp:148] Top shape: 24 144 14 14 (677376)
I0403 20:05:45.317276 10502 net.cpp:156] Memory required for data: 1118106912
I0403 20:05:45.317296 10502 layer_factory.hpp:77] Creating layer inception_4d/relu_3x3_reduce
I0403 20:05:45.317314 10502 net.cpp:91] Creating Layer inception_4d/relu_3x3_reduce
I0403 20:05:45.317330 10502 net.cpp:425] inception_4d/relu_3x3_reduce <- inception_4d/3x3_reduce
I0403 20:05:45.317348 10502 net.cpp:386] inception_4d/relu_3x3_reduce -> inception_4d/3x3_reduce (in-place)
I0403 20:05:45.317626 10502 net.cpp:141] Setting up inception_4d/relu_3x3_reduce
I0403 20:05:45.317651 10502 net.cpp:148] Top shape: 24 144 14 14 (677376)
I0403 20:05:45.317665 10502 net.cpp:156] Memory required for data: 1120816416
I0403 20:05:45.317679 10502 layer_factory.hpp:77] Creating layer inception_4d/3x3
I0403 20:05:45.317700 10502 net.cpp:91] Creating Layer inception_4d/3x3
I0403 20:05:45.317718 10502 net.cpp:425] inception_4d/3x3 <- inception_4d/3x3_reduce
I0403 20:05:45.317739 10502 net.cpp:399] inception_4d/3x3 -> inception_4d/3x3
I0403 20:05:45.321831 10502 net.cpp:141] Setting up inception_4d/3x3
I0403 20:05:45.321861 10502 net.cpp:148] Top shape: 24 288 14 14 (1354752)
I0403 20:05:45.321877 10502 net.cpp:156] Memory required for data: 1126235424
I0403 20:05:45.321894 10502 layer_factory.hpp:77] Creating layer inception_4d/relu_3x3
I0403 20:05:45.321912 10502 net.cpp:91] Creating Layer inception_4d/relu_3x3
I0403 20:05:45.321928 10502 net.cpp:425] inception_4d/relu_3x3 <- inception_4d/3x3
I0403 20:05:45.321946 10502 net.cpp:386] inception_4d/relu_3x3 -> inception_4d/3x3 (in-place)
I0403 20:05:45.322119 10502 net.cpp:141] Setting up inception_4d/relu_3x3
I0403 20:05:45.322142 10502 net.cpp:148] Top shape: 24 288 14 14 (1354752)
I0403 20:05:45.322156 10502 net.cpp:156] Memory required for data: 1131654432
I0403 20:05:45.322170 10502 layer_factory.hpp:77] Creating layer inception_4d/5x5_reduce
I0403 20:05:45.322190 10502 net.cpp:91] Creating Layer inception_4d/5x5_reduce
I0403 20:05:45.322206 10502 net.cpp:425] inception_4d/5x5_reduce <- inception_4c/output_inception_4c/output_0_split_2
I0403 20:05:45.322227 10502 net.cpp:399] inception_4d/5x5_reduce -> inception_4d/5x5_reduce
I0403 20:05:45.323324 10502 net.cpp:141] Setting up inception_4d/5x5_reduce
I0403 20:05:45.323354 10502 net.cpp:148] Top shape: 24 32 14 14 (150528)
I0403 20:05:45.323369 10502 net.cpp:156] Memory required for data: 1132256544
I0403 20:05:45.323387 10502 layer_factory.hpp:77] Creating layer inception_4d/relu_5x5_reduce
I0403 20:05:45.323405 10502 net.cpp:91] Creating Layer inception_4d/relu_5x5_reduce
I0403 20:05:45.323421 10502 net.cpp:425] inception_4d/relu_5x5_reduce <- inception_4d/5x5_reduce
I0403 20:05:45.323436 10502 net.cpp:386] inception_4d/relu_5x5_reduce -> inception_4d/5x5_reduce (in-place)
I0403 20:05:45.323616 10502 net.cpp:141] Setting up inception_4d/relu_5x5_reduce
I0403 20:05:45.323640 10502 net.cpp:148] Top shape: 24 32 14 14 (150528)
I0403 20:05:45.323654 10502 net.cpp:156] Memory required for data: 1132858656
I0403 20:05:45.323668 10502 layer_factory.hpp:77] Creating layer inception_4d/5x5
I0403 20:05:45.323689 10502 net.cpp:91] Creating Layer inception_4d/5x5
I0403 20:05:45.323706 10502 net.cpp:425] inception_4d/5x5 <- inception_4d/5x5_reduce
I0403 20:05:45.323726 10502 net.cpp:399] inception_4d/5x5 -> inception_4d/5x5
I0403 20:05:45.325098 10502 net.cpp:141] Setting up inception_4d/5x5
I0403 20:05:45.325124 10502 net.cpp:148] Top shape: 24 64 14 14 (301056)
I0403 20:05:45.325140 10502 net.cpp:156] Memory required for data: 1134062880
I0403 20:05:45.325160 10502 layer_factory.hpp:77] Creating layer inception_4d/relu_5x5
I0403 20:05:45.325192 10502 net.cpp:91] Creating Layer inception_4d/relu_5x5
I0403 20:05:45.325211 10502 net.cpp:425] inception_4d/relu_5x5 <- inception_4d/5x5
I0403 20:05:45.325227 10502 net.cpp:386] inception_4d/relu_5x5 -> inception_4d/5x5 (in-place)
I0403 20:05:45.325515 10502 net.cpp:141] Setting up inception_4d/relu_5x5
I0403 20:05:45.325539 10502 net.cpp:148] Top shape: 24 64 14 14 (301056)
I0403 20:05:45.325554 10502 net.cpp:156] Memory required for data: 1135267104
I0403 20:05:45.325568 10502 layer_factory.hpp:77] Creating layer inception_4d/pool
I0403 20:05:45.325584 10502 net.cpp:91] Creating Layer inception_4d/pool
I0403 20:05:45.325603 10502 net.cpp:425] inception_4d/pool <- inception_4c/output_inception_4c/output_0_split_3
I0403 20:05:45.325620 10502 net.cpp:399] inception_4d/pool -> inception_4d/pool
I0403 20:05:45.325685 10502 net.cpp:141] Setting up inception_4d/pool
I0403 20:05:45.325707 10502 net.cpp:148] Top shape: 24 512 14 14 (2408448)
I0403 20:05:45.325721 10502 net.cpp:156] Memory required for data: 1144900896
I0403 20:05:45.325736 10502 layer_factory.hpp:77] Creating layer inception_4d/pool_proj
I0403 20:05:45.325760 10502 net.cpp:91] Creating Layer inception_4d/pool_proj
I0403 20:05:45.325778 10502 net.cpp:425] inception_4d/pool_proj <- inception_4d/pool
I0403 20:05:45.325798 10502 net.cpp:399] inception_4d/pool_proj -> inception_4d/pool_proj
I0403 20:05:45.327499 10502 net.cpp:141] Setting up inception_4d/pool_proj
I0403 20:05:45.327528 10502 net.cpp:148] Top shape: 24 64 14 14 (301056)
I0403 20:05:45.327544 10502 net.cpp:156] Memory required for data: 1146105120
I0403 20:05:45.327563 10502 layer_factory.hpp:77] Creating layer inception_4d/relu_pool_proj
I0403 20:05:45.327579 10502 net.cpp:91] Creating Layer inception_4d/relu_pool_proj
I0403 20:05:45.327594 10502 net.cpp:425] inception_4d/relu_pool_proj <- inception_4d/pool_proj
I0403 20:05:45.327613 10502 net.cpp:386] inception_4d/relu_pool_proj -> inception_4d/pool_proj (in-place)
I0403 20:05:45.327788 10502 net.cpp:141] Setting up inception_4d/relu_pool_proj
I0403 20:05:45.327812 10502 net.cpp:148] Top shape: 24 64 14 14 (301056)
I0403 20:05:45.327826 10502 net.cpp:156] Memory required for data: 1147309344
I0403 20:05:45.327841 10502 layer_factory.hpp:77] Creating layer inception_4d/output
I0403 20:05:45.327857 10502 net.cpp:91] Creating Layer inception_4d/output
I0403 20:05:45.327872 10502 net.cpp:425] inception_4d/output <- inception_4d/1x1
I0403 20:05:45.327888 10502 net.cpp:425] inception_4d/output <- inception_4d/3x3
I0403 20:05:45.327903 10502 net.cpp:425] inception_4d/output <- inception_4d/5x5
I0403 20:05:45.327919 10502 net.cpp:425] inception_4d/output <- inception_4d/pool_proj
I0403 20:05:45.327936 10502 net.cpp:399] inception_4d/output -> inception_4d/output
I0403 20:05:45.327981 10502 net.cpp:141] Setting up inception_4d/output
I0403 20:05:45.328006 10502 net.cpp:148] Top shape: 24 528 14 14 (2483712)
I0403 20:05:45.328021 10502 net.cpp:156] Memory required for data: 1157244192
I0403 20:05:45.328034 10502 layer_factory.hpp:77] Creating layer inception_4d/output_inception_4d/output_0_split
I0403 20:05:45.328050 10502 net.cpp:91] Creating Layer inception_4d/output_inception_4d/output_0_split
I0403 20:05:45.328064 10502 net.cpp:425] inception_4d/output_inception_4d/output_0_split <- inception_4d/output
I0403 20:05:45.328081 10502 net.cpp:399] inception_4d/output_inception_4d/output_0_split -> inception_4d/output_inception_4d/output_0_split_0
I0403 20:05:45.328102 10502 net.cpp:399] inception_4d/output_inception_4d/output_0_split -> inception_4d/output_inception_4d/output_0_split_1
I0403 20:05:45.328125 10502 net.cpp:399] inception_4d/output_inception_4d/output_0_split -> inception_4d/output_inception_4d/output_0_split_2
I0403 20:05:45.328143 10502 net.cpp:399] inception_4d/output_inception_4d/output_0_split -> inception_4d/output_inception_4d/output_0_split_3
I0403 20:05:45.328162 10502 net.cpp:399] inception_4d/output_inception_4d/output_0_split -> inception_4d/output_inception_4d/output_0_split_4
I0403 20:05:45.328259 10502 net.cpp:141] Setting up inception_4d/output_inception_4d/output_0_split
I0403 20:05:45.328300 10502 net.cpp:148] Top shape: 24 528 14 14 (2483712)
I0403 20:05:45.328317 10502 net.cpp:148] Top shape: 24 528 14 14 (2483712)
I0403 20:05:45.328332 10502 net.cpp:148] Top shape: 24 528 14 14 (2483712)
I0403 20:05:45.328347 10502 net.cpp:148] Top shape: 24 528 14 14 (2483712)
I0403 20:05:45.328362 10502 net.cpp:148] Top shape: 24 528 14 14 (2483712)
I0403 20:05:45.328374 10502 net.cpp:156] Memory required for data: 1206918432
I0403 20:05:45.328388 10502 layer_factory.hpp:77] Creating layer loss2/ave_pool
I0403 20:05:45.328404 10502 net.cpp:91] Creating Layer loss2/ave_pool
I0403 20:05:45.328419 10502 net.cpp:425] loss2/ave_pool <- inception_4d/output_inception_4d/output_0_split_0
I0403 20:05:45.328436 10502 net.cpp:399] loss2/ave_pool -> loss2/ave_pool
I0403 20:05:45.328734 10502 net.cpp:141] Setting up loss2/ave_pool
I0403 20:05:45.328761 10502 net.cpp:148] Top shape: 24 528 4 4 (202752)
I0403 20:05:45.328776 10502 net.cpp:156] Memory required for data: 1207729440
I0403 20:05:45.328791 10502 layer_factory.hpp:77] Creating layer loss2/conv
I0403 20:05:45.328812 10502 net.cpp:91] Creating Layer loss2/conv
I0403 20:05:45.328830 10502 net.cpp:425] loss2/conv <- loss2/ave_pool
I0403 20:05:45.328847 10502 net.cpp:399] loss2/conv -> loss2/conv
I0403 20:05:45.330680 10502 net.cpp:141] Setting up loss2/conv
I0403 20:05:45.330708 10502 net.cpp:148] Top shape: 24 128 4 4 (49152)
I0403 20:05:45.330723 10502 net.cpp:156] Memory required for data: 1207926048
I0403 20:05:45.330740 10502 layer_factory.hpp:77] Creating layer loss2/relu_conv
I0403 20:05:45.330761 10502 net.cpp:91] Creating Layer loss2/relu_conv
I0403 20:05:45.330780 10502 net.cpp:425] loss2/relu_conv <- loss2/conv
I0403 20:05:45.330796 10502 net.cpp:386] loss2/relu_conv -> loss2/conv (in-place)
I0403 20:05:45.331064 10502 net.cpp:141] Setting up loss2/relu_conv
I0403 20:05:45.331090 10502 net.cpp:148] Top shape: 24 128 4 4 (49152)
I0403 20:05:45.331104 10502 net.cpp:156] Memory required for data: 1208122656
I0403 20:05:45.331118 10502 layer_factory.hpp:77] Creating layer loss2/fc
I0403 20:05:45.331140 10502 net.cpp:91] Creating Layer loss2/fc
I0403 20:05:45.331156 10502 net.cpp:425] loss2/fc <- loss2/conv
I0403 20:05:45.331173 10502 net.cpp:399] loss2/fc -> loss2/fc
I0403 20:05:45.348803 10502 net.cpp:141] Setting up loss2/fc
I0403 20:05:45.348840 10502 net.cpp:148] Top shape: 24 1024 (24576)
I0403 20:05:45.348855 10502 net.cpp:156] Memory required for data: 1208220960
I0403 20:05:45.348873 10502 layer_factory.hpp:77] Creating layer loss2/relu_fc
I0403 20:05:45.348891 10502 net.cpp:91] Creating Layer loss2/relu_fc
I0403 20:05:45.348906 10502 net.cpp:425] loss2/relu_fc <- loss2/fc
I0403 20:05:45.348924 10502 net.cpp:386] loss2/relu_fc -> loss2/fc (in-place)
I0403 20:05:45.349218 10502 net.cpp:141] Setting up loss2/relu_fc
I0403 20:05:45.349244 10502 net.cpp:148] Top shape: 24 1024 (24576)
I0403 20:05:45.349259 10502 net.cpp:156] Memory required for data: 1208319264
I0403 20:05:45.349279 10502 layer_factory.hpp:77] Creating layer loss2/drop_fc
I0403 20:05:45.349298 10502 net.cpp:91] Creating Layer loss2/drop_fc
I0403 20:05:45.349314 10502 net.cpp:425] loss2/drop_fc <- loss2/fc
I0403 20:05:45.349334 10502 net.cpp:386] loss2/drop_fc -> loss2/fc (in-place)
I0403 20:05:45.349380 10502 net.cpp:141] Setting up loss2/drop_fc
I0403 20:05:45.349402 10502 net.cpp:148] Top shape: 24 1024 (24576)
I0403 20:05:45.349416 10502 net.cpp:156] Memory required for data: 1208417568
I0403 20:05:45.349431 10502 layer_factory.hpp:77] Creating layer loss2/classifier_plantvillage
I0403 20:05:45.349449 10502 net.cpp:91] Creating Layer loss2/classifier_plantvillage
I0403 20:05:45.349465 10502 net.cpp:425] loss2/classifier_plantvillage <- loss2/fc
I0403 20:05:45.349486 10502 net.cpp:399] loss2/classifier_plantvillage -> loss2/classifier_plantvillage
I0403 20:05:45.349865 10502 net.cpp:141] Setting up loss2/classifier_plantvillage
I0403 20:05:45.349889 10502 net.cpp:148] Top shape: 24 38 (912)
I0403 20:05:45.349903 10502 net.cpp:156] Memory required for data: 1208421216
I0403 20:05:45.349937 10502 layer_factory.hpp:77] Creating layer loss2/classifier_plantvillage_loss2/classifier_plantvillage_0_split
I0403 20:05:45.349956 10502 net.cpp:91] Creating Layer loss2/classifier_plantvillage_loss2/classifier_plantvillage_0_split
I0403 20:05:45.349970 10502 net.cpp:425] loss2/classifier_plantvillage_loss2/classifier_plantvillage_0_split <- loss2/classifier_plantvillage
I0403 20:05:45.349989 10502 net.cpp:399] loss2/classifier_plantvillage_loss2/classifier_plantvillage_0_split -> loss2/classifier_plantvillage_loss2/classifier_plantvillage_0_split_0
I0403 20:05:45.350011 10502 net.cpp:399] loss2/classifier_plantvillage_loss2/classifier_plantvillage_0_split -> loss2/classifier_plantvillage_loss2/classifier_plantvillage_0_split_1
I0403 20:05:45.350031 10502 net.cpp:399] loss2/classifier_plantvillage_loss2/classifier_plantvillage_0_split -> loss2/classifier_plantvillage_loss2/classifier_plantvillage_0_split_2
I0403 20:05:45.350105 10502 net.cpp:141] Setting up loss2/classifier_plantvillage_loss2/classifier_plantvillage_0_split
I0403 20:05:45.350127 10502 net.cpp:148] Top shape: 24 38 (912)
I0403 20:05:45.350142 10502 net.cpp:148] Top shape: 24 38 (912)
I0403 20:05:45.350157 10502 net.cpp:148] Top shape: 24 38 (912)
I0403 20:05:45.350170 10502 net.cpp:156] Memory required for data: 1208432160
I0403 20:05:45.350184 10502 layer_factory.hpp:77] Creating layer inception_4e/1x1
I0403 20:05:45.350205 10502 net.cpp:91] Creating Layer inception_4e/1x1
I0403 20:05:45.350220 10502 net.cpp:425] inception_4e/1x1 <- inception_4d/output_inception_4d/output_0_split_1
I0403 20:05:45.350239 10502 net.cpp:399] inception_4e/1x1 -> inception_4e/1x1
I0403 20:05:45.351953 10502 net.cpp:141] Setting up inception_4e/1x1
I0403 20:05:45.351979 10502 net.cpp:148] Top shape: 24 256 14 14 (1204224)
I0403 20:05:45.351994 10502 net.cpp:156] Memory required for data: 1213249056
I0403 20:05:45.352012 10502 layer_factory.hpp:77] Creating layer inception_4e/relu_1x1
I0403 20:05:45.352031 10502 net.cpp:91] Creating Layer inception_4e/relu_1x1
I0403 20:05:45.352047 10502 net.cpp:425] inception_4e/relu_1x1 <- inception_4e/1x1
I0403 20:05:45.352064 10502 net.cpp:386] inception_4e/relu_1x1 -> inception_4e/1x1 (in-place)
I0403 20:05:45.352355 10502 net.cpp:141] Setting up inception_4e/relu_1x1
I0403 20:05:45.352380 10502 net.cpp:148] Top shape: 24 256 14 14 (1204224)
I0403 20:05:45.352396 10502 net.cpp:156] Memory required for data: 1218065952
I0403 20:05:45.352409 10502 layer_factory.hpp:77] Creating layer inception_4e/3x3_reduce
I0403 20:05:45.352432 10502 net.cpp:91] Creating Layer inception_4e/3x3_reduce
I0403 20:05:45.352448 10502 net.cpp:425] inception_4e/3x3_reduce <- inception_4d/output_inception_4d/output_0_split_2
I0403 20:05:45.352473 10502 net.cpp:399] inception_4e/3x3_reduce -> inception_4e/3x3_reduce
I0403 20:05:45.354516 10502 net.cpp:141] Setting up inception_4e/3x3_reduce
I0403 20:05:45.354545 10502 net.cpp:148] Top shape: 24 160 14 14 (752640)
I0403 20:05:45.354562 10502 net.cpp:156] Memory required for data: 1221076512
I0403 20:05:45.354578 10502 layer_factory.hpp:77] Creating layer inception_4e/relu_3x3_reduce
I0403 20:05:45.354595 10502 net.cpp:91] Creating Layer inception_4e/relu_3x3_reduce
I0403 20:05:45.354610 10502 net.cpp:425] inception_4e/relu_3x3_reduce <- inception_4e/3x3_reduce
I0403 20:05:45.354629 10502 net.cpp:386] inception_4e/relu_3x3_reduce -> inception_4e/3x3_reduce (in-place)
I0403 20:05:45.354807 10502 net.cpp:141] Setting up inception_4e/relu_3x3_reduce
I0403 20:05:45.354832 10502 net.cpp:148] Top shape: 24 160 14 14 (752640)
I0403 20:05:45.354846 10502 net.cpp:156] Memory required for data: 1224087072
I0403 20:05:45.354861 10502 layer_factory.hpp:77] Creating layer inception_4e/3x3
I0403 20:05:45.354882 10502 net.cpp:91] Creating Layer inception_4e/3x3
I0403 20:05:45.354898 10502 net.cpp:425] inception_4e/3x3 <- inception_4e/3x3_reduce
I0403 20:05:45.354918 10502 net.cpp:399] inception_4e/3x3 -> inception_4e/3x3
I0403 20:05:45.359748 10502 net.cpp:141] Setting up inception_4e/3x3
I0403 20:05:45.359799 10502 net.cpp:148] Top shape: 24 320 14 14 (1505280)
I0403 20:05:45.359815 10502 net.cpp:156] Memory required for data: 1230108192
I0403 20:05:45.359833 10502 layer_factory.hpp:77] Creating layer inception_4e/relu_3x3
I0403 20:05:45.359853 10502 net.cpp:91] Creating Layer inception_4e/relu_3x3
I0403 20:05:45.359870 10502 net.cpp:425] inception_4e/relu_3x3 <- inception_4e/3x3
I0403 20:05:45.359886 10502 net.cpp:386] inception_4e/relu_3x3 -> inception_4e/3x3 (in-place)
I0403 20:05:45.360169 10502 net.cpp:141] Setting up inception_4e/relu_3x3
I0403 20:05:45.360198 10502 net.cpp:148] Top shape: 24 320 14 14 (1505280)
I0403 20:05:45.360211 10502 net.cpp:156] Memory required for data: 1236129312
I0403 20:05:45.360225 10502 layer_factory.hpp:77] Creating layer inception_4e/5x5_reduce
I0403 20:05:45.360247 10502 net.cpp:91] Creating Layer inception_4e/5x5_reduce
I0403 20:05:45.360266 10502 net.cpp:425] inception_4e/5x5_reduce <- inception_4d/output_inception_4d/output_0_split_3
I0403 20:05:45.360290 10502 net.cpp:399] inception_4e/5x5_reduce -> inception_4e/5x5_reduce
I0403 20:05:45.361310 10502 net.cpp:141] Setting up inception_4e/5x5_reduce
I0403 20:05:45.361335 10502 net.cpp:148] Top shape: 24 32 14 14 (150528)
I0403 20:05:45.361351 10502 net.cpp:156] Memory required for data: 1236731424
I0403 20:05:45.361367 10502 layer_factory.hpp:77] Creating layer inception_4e/relu_5x5_reduce
I0403 20:05:45.361387 10502 net.cpp:91] Creating Layer inception_4e/relu_5x5_reduce
I0403 20:05:45.361403 10502 net.cpp:425] inception_4e/relu_5x5_reduce <- inception_4e/5x5_reduce
I0403 20:05:45.361419 10502 net.cpp:386] inception_4e/relu_5x5_reduce -> inception_4e/5x5_reduce (in-place)
I0403 20:05:45.361706 10502 net.cpp:141] Setting up inception_4e/relu_5x5_reduce
I0403 20:05:45.361732 10502 net.cpp:148] Top shape: 24 32 14 14 (150528)
I0403 20:05:45.361745 10502 net.cpp:156] Memory required for data: 1237333536
I0403 20:05:45.361760 10502 layer_factory.hpp:77] Creating layer inception_4e/5x5
I0403 20:05:45.361799 10502 net.cpp:91] Creating Layer inception_4e/5x5
I0403 20:05:45.361817 10502 net.cpp:425] inception_4e/5x5 <- inception_4e/5x5_reduce
I0403 20:05:45.361835 10502 net.cpp:399] inception_4e/5x5 -> inception_4e/5x5
I0403 20:05:45.363586 10502 net.cpp:141] Setting up inception_4e/5x5
I0403 20:05:45.363615 10502 net.cpp:148] Top shape: 24 128 14 14 (602112)
I0403 20:05:45.363631 10502 net.cpp:156] Memory required for data: 1239741984
I0403 20:05:45.363651 10502 layer_factory.hpp:77] Creating layer inception_4e/relu_5x5
I0403 20:05:45.363667 10502 net.cpp:91] Creating Layer inception_4e/relu_5x5
I0403 20:05:45.363682 10502 net.cpp:425] inception_4e/relu_5x5 <- inception_4e/5x5
I0403 20:05:45.363703 10502 net.cpp:386] inception_4e/relu_5x5 -> inception_4e/5x5 (in-place)
I0403 20:05:45.363888 10502 net.cpp:141] Setting up inception_4e/relu_5x5
I0403 20:05:45.363912 10502 net.cpp:148] Top shape: 24 128 14 14 (602112)
I0403 20:05:45.363927 10502 net.cpp:156] Memory required for data: 1242150432
I0403 20:05:45.363941 10502 layer_factory.hpp:77] Creating layer inception_4e/pool
I0403 20:05:45.363957 10502 net.cpp:91] Creating Layer inception_4e/pool
I0403 20:05:45.363972 10502 net.cpp:425] inception_4e/pool <- inception_4d/output_inception_4d/output_0_split_4
I0403 20:05:45.363992 10502 net.cpp:399] inception_4e/pool -> inception_4e/pool
I0403 20:05:45.364058 10502 net.cpp:141] Setting up inception_4e/pool
I0403 20:05:45.364080 10502 net.cpp:148] Top shape: 24 528 14 14 (2483712)
I0403 20:05:45.364094 10502 net.cpp:156] Memory required for data: 1252085280
I0403 20:05:45.364107 10502 layer_factory.hpp:77] Creating layer inception_4e/pool_proj
I0403 20:05:45.364130 10502 net.cpp:91] Creating Layer inception_4e/pool_proj
I0403 20:05:45.364146 10502 net.cpp:425] inception_4e/pool_proj <- inception_4e/pool
I0403 20:05:45.364166 10502 net.cpp:399] inception_4e/pool_proj -> inception_4e/pool_proj
I0403 20:05:45.365597 10502 net.cpp:141] Setting up inception_4e/pool_proj
I0403 20:05:45.365625 10502 net.cpp:148] Top shape: 24 128 14 14 (602112)
I0403 20:05:45.365653 10502 net.cpp:156] Memory required for data: 1254493728
I0403 20:05:45.365672 10502 layer_factory.hpp:77] Creating layer inception_4e/relu_pool_proj
I0403 20:05:45.365690 10502 net.cpp:91] Creating Layer inception_4e/relu_pool_proj
I0403 20:05:45.365705 10502 net.cpp:425] inception_4e/relu_pool_proj <- inception_4e/pool_proj
I0403 20:05:45.365725 10502 net.cpp:386] inception_4e/relu_pool_proj -> inception_4e/pool_proj (in-place)
I0403 20:05:45.366008 10502 net.cpp:141] Setting up inception_4e/relu_pool_proj
I0403 20:05:45.366035 10502 net.cpp:148] Top shape: 24 128 14 14 (602112)
I0403 20:05:45.366050 10502 net.cpp:156] Memory required for data: 1256902176
I0403 20:05:45.366065 10502 layer_factory.hpp:77] Creating layer inception_4e/output
I0403 20:05:45.366081 10502 net.cpp:91] Creating Layer inception_4e/output
I0403 20:05:45.366096 10502 net.cpp:425] inception_4e/output <- inception_4e/1x1
I0403 20:05:45.366112 10502 net.cpp:425] inception_4e/output <- inception_4e/3x3
I0403 20:05:45.366127 10502 net.cpp:425] inception_4e/output <- inception_4e/5x5
I0403 20:05:45.366142 10502 net.cpp:425] inception_4e/output <- inception_4e/pool_proj
I0403 20:05:45.366159 10502 net.cpp:399] inception_4e/output -> inception_4e/output
I0403 20:05:45.366205 10502 net.cpp:141] Setting up inception_4e/output
I0403 20:05:45.366227 10502 net.cpp:148] Top shape: 24 832 14 14 (3913728)
I0403 20:05:45.366242 10502 net.cpp:156] Memory required for data: 1272557088
I0403 20:05:45.366256 10502 layer_factory.hpp:77] Creating layer pool4/3x3_s2
I0403 20:05:45.366279 10502 net.cpp:91] Creating Layer pool4/3x3_s2
I0403 20:05:45.366297 10502 net.cpp:425] pool4/3x3_s2 <- inception_4e/output
I0403 20:05:45.366313 10502 net.cpp:399] pool4/3x3_s2 -> pool4/3x3_s2
I0403 20:05:45.366379 10502 net.cpp:141] Setting up pool4/3x3_s2
I0403 20:05:45.366403 10502 net.cpp:148] Top shape: 24 832 7 7 (978432)
I0403 20:05:45.366416 10502 net.cpp:156] Memory required for data: 1276470816
I0403 20:05:45.366430 10502 layer_factory.hpp:77] Creating layer pool4/3x3_s2_pool4/3x3_s2_0_split
I0403 20:05:45.366446 10502 net.cpp:91] Creating Layer pool4/3x3_s2_pool4/3x3_s2_0_split
I0403 20:05:45.366461 10502 net.cpp:425] pool4/3x3_s2_pool4/3x3_s2_0_split <- pool4/3x3_s2
I0403 20:05:45.366479 10502 net.cpp:399] pool4/3x3_s2_pool4/3x3_s2_0_split -> pool4/3x3_s2_pool4/3x3_s2_0_split_0
I0403 20:05:45.366499 10502 net.cpp:399] pool4/3x3_s2_pool4/3x3_s2_0_split -> pool4/3x3_s2_pool4/3x3_s2_0_split_1
I0403 20:05:45.366518 10502 net.cpp:399] pool4/3x3_s2_pool4/3x3_s2_0_split -> pool4/3x3_s2_pool4/3x3_s2_0_split_2
I0403 20:05:45.366538 10502 net.cpp:399] pool4/3x3_s2_pool4/3x3_s2_0_split -> pool4/3x3_s2_pool4/3x3_s2_0_split_3
I0403 20:05:45.366622 10502 net.cpp:141] Setting up pool4/3x3_s2_pool4/3x3_s2_0_split
I0403 20:05:45.366646 10502 net.cpp:148] Top shape: 24 832 7 7 (978432)
I0403 20:05:45.366660 10502 net.cpp:148] Top shape: 24 832 7 7 (978432)
I0403 20:05:45.366677 10502 net.cpp:148] Top shape: 24 832 7 7 (978432)
I0403 20:05:45.366691 10502 net.cpp:148] Top shape: 24 832 7 7 (978432)
I0403 20:05:45.366704 10502 net.cpp:156] Memory required for data: 1292125728
I0403 20:05:45.366717 10502 layer_factory.hpp:77] Creating layer inception_5a/1x1
I0403 20:05:45.366739 10502 net.cpp:91] Creating Layer inception_5a/1x1
I0403 20:05:45.366755 10502 net.cpp:425] inception_5a/1x1 <- pool4/3x3_s2_pool4/3x3_s2_0_split_0
I0403 20:05:45.366776 10502 net.cpp:399] inception_5a/1x1 -> inception_5a/1x1
I0403 20:05:45.369516 10502 net.cpp:141] Setting up inception_5a/1x1
I0403 20:05:45.369544 10502 net.cpp:148] Top shape: 24 256 7 7 (301056)
I0403 20:05:45.369559 10502 net.cpp:156] Memory required for data: 1293329952
I0403 20:05:45.369576 10502 layer_factory.hpp:77] Creating layer inception_5a/relu_1x1
I0403 20:05:45.369593 10502 net.cpp:91] Creating Layer inception_5a/relu_1x1
I0403 20:05:45.369609 10502 net.cpp:425] inception_5a/relu_1x1 <- inception_5a/1x1
I0403 20:05:45.369628 10502 net.cpp:386] inception_5a/relu_1x1 -> inception_5a/1x1 (in-place)
I0403 20:05:45.369930 10502 net.cpp:141] Setting up inception_5a/relu_1x1
I0403 20:05:45.369954 10502 net.cpp:148] Top shape: 24 256 7 7 (301056)
I0403 20:05:45.369968 10502 net.cpp:156] Memory required for data: 1294534176
I0403 20:05:45.369982 10502 layer_factory.hpp:77] Creating layer inception_5a/3x3_reduce
I0403 20:05:45.370003 10502 net.cpp:91] Creating Layer inception_5a/3x3_reduce
I0403 20:05:45.370020 10502 net.cpp:425] inception_5a/3x3_reduce <- pool4/3x3_s2_pool4/3x3_s2_0_split_1
I0403 20:05:45.370041 10502 net.cpp:399] inception_5a/3x3_reduce -> inception_5a/3x3_reduce
I0403 20:05:45.372414 10502 net.cpp:141] Setting up inception_5a/3x3_reduce
I0403 20:05:45.372442 10502 net.cpp:148] Top shape: 24 160 7 7 (188160)
I0403 20:05:45.372457 10502 net.cpp:156] Memory required for data: 1295286816
I0403 20:05:45.372474 10502 layer_factory.hpp:77] Creating layer inception_5a/relu_3x3_reduce
I0403 20:05:45.372494 10502 net.cpp:91] Creating Layer inception_5a/relu_3x3_reduce
I0403 20:05:45.372511 10502 net.cpp:425] inception_5a/relu_3x3_reduce <- inception_5a/3x3_reduce
I0403 20:05:45.372527 10502 net.cpp:386] inception_5a/relu_3x3_reduce -> inception_5a/3x3_reduce (in-place)
I0403 20:05:45.372706 10502 net.cpp:141] Setting up inception_5a/relu_3x3_reduce
I0403 20:05:45.372730 10502 net.cpp:148] Top shape: 24 160 7 7 (188160)
I0403 20:05:45.372745 10502 net.cpp:156] Memory required for data: 1296039456
I0403 20:05:45.372758 10502 layer_factory.hpp:77] Creating layer inception_5a/3x3
I0403 20:05:45.372781 10502 net.cpp:91] Creating Layer inception_5a/3x3
I0403 20:05:45.372798 10502 net.cpp:425] inception_5a/3x3 <- inception_5a/3x3_reduce
I0403 20:05:45.372818 10502 net.cpp:399] inception_5a/3x3 -> inception_5a/3x3
I0403 20:05:45.377681 10502 net.cpp:141] Setting up inception_5a/3x3
I0403 20:05:45.377710 10502 net.cpp:148] Top shape: 24 320 7 7 (376320)
I0403 20:05:45.377727 10502 net.cpp:156] Memory required for data: 1297544736
I0403 20:05:45.377744 10502 layer_factory.hpp:77] Creating layer inception_5a/relu_3x3
I0403 20:05:45.377763 10502 net.cpp:91] Creating Layer inception_5a/relu_3x3
I0403 20:05:45.377779 10502 net.cpp:425] inception_5a/relu_3x3 <- inception_5a/3x3
I0403 20:05:45.377796 10502 net.cpp:386] inception_5a/relu_3x3 -> inception_5a/3x3 (in-place)
I0403 20:05:45.378079 10502 net.cpp:141] Setting up inception_5a/relu_3x3
I0403 20:05:45.378106 10502 net.cpp:148] Top shape: 24 320 7 7 (376320)
I0403 20:05:45.378123 10502 net.cpp:156] Memory required for data: 1299050016
I0403 20:05:45.378137 10502 layer_factory.hpp:77] Creating layer inception_5a/5x5_reduce
I0403 20:05:45.378159 10502 net.cpp:91] Creating Layer inception_5a/5x5_reduce
I0403 20:05:45.378176 10502 net.cpp:425] inception_5a/5x5_reduce <- pool4/3x3_s2_pool4/3x3_s2_0_split_2
I0403 20:05:45.378197 10502 net.cpp:399] inception_5a/5x5_reduce -> inception_5a/5x5_reduce
I0403 20:05:45.379320 10502 net.cpp:141] Setting up inception_5a/5x5_reduce
I0403 20:05:45.379346 10502 net.cpp:148] Top shape: 24 32 7 7 (37632)
I0403 20:05:45.379361 10502 net.cpp:156] Memory required for data: 1299200544
I0403 20:05:45.379379 10502 layer_factory.hpp:77] Creating layer inception_5a/relu_5x5_reduce
I0403 20:05:45.379396 10502 net.cpp:91] Creating Layer inception_5a/relu_5x5_reduce
I0403 20:05:45.379411 10502 net.cpp:425] inception_5a/relu_5x5_reduce <- inception_5a/5x5_reduce
I0403 20:05:45.379433 10502 net.cpp:386] inception_5a/relu_5x5_reduce -> inception_5a/5x5_reduce (in-place)
I0403 20:05:45.379719 10502 net.cpp:141] Setting up inception_5a/relu_5x5_reduce
I0403 20:05:45.379745 10502 net.cpp:148] Top shape: 24 32 7 7 (37632)
I0403 20:05:45.379760 10502 net.cpp:156] Memory required for data: 1299351072
I0403 20:05:45.379772 10502 layer_factory.hpp:77] Creating layer inception_5a/5x5
I0403 20:05:45.379793 10502 net.cpp:91] Creating Layer inception_5a/5x5
I0403 20:05:45.379812 10502 net.cpp:425] inception_5a/5x5 <- inception_5a/5x5_reduce
I0403 20:05:45.379832 10502 net.cpp:399] inception_5a/5x5 -> inception_5a/5x5
I0403 20:05:45.381470 10502 net.cpp:141] Setting up inception_5a/5x5
I0403 20:05:45.381511 10502 net.cpp:148] Top shape: 24 128 7 7 (150528)
I0403 20:05:45.381528 10502 net.cpp:156] Memory required for data: 1299953184
I0403 20:05:45.381546 10502 layer_factory.hpp:77] Creating layer inception_5a/relu_5x5
I0403 20:05:45.381563 10502 net.cpp:91] Creating Layer inception_5a/relu_5x5
I0403 20:05:45.381579 10502 net.cpp:425] inception_5a/relu_5x5 <- inception_5a/5x5
I0403 20:05:45.381597 10502 net.cpp:386] inception_5a/relu_5x5 -> inception_5a/5x5 (in-place)
I0403 20:05:45.381780 10502 net.cpp:141] Setting up inception_5a/relu_5x5
I0403 20:05:45.381804 10502 net.cpp:148] Top shape: 24 128 7 7 (150528)
I0403 20:05:45.381819 10502 net.cpp:156] Memory required for data: 1300555296
I0403 20:05:45.381834 10502 layer_factory.hpp:77] Creating layer inception_5a/pool
I0403 20:05:45.381850 10502 net.cpp:91] Creating Layer inception_5a/pool
I0403 20:05:45.381865 10502 net.cpp:425] inception_5a/pool <- pool4/3x3_s2_pool4/3x3_s2_0_split_3
I0403 20:05:45.381885 10502 net.cpp:399] inception_5a/pool -> inception_5a/pool
I0403 20:05:45.381953 10502 net.cpp:141] Setting up inception_5a/pool
I0403 20:05:45.381975 10502 net.cpp:148] Top shape: 24 832 7 7 (978432)
I0403 20:05:45.381989 10502 net.cpp:156] Memory required for data: 1304469024
I0403 20:05:45.382004 10502 layer_factory.hpp:77] Creating layer inception_5a/pool_proj
I0403 20:05:45.382024 10502 net.cpp:91] Creating Layer inception_5a/pool_proj
I0403 20:05:45.382040 10502 net.cpp:425] inception_5a/pool_proj <- inception_5a/pool
I0403 20:05:45.382061 10502 net.cpp:399] inception_5a/pool_proj -> inception_5a/pool_proj
I0403 20:05:45.384268 10502 net.cpp:141] Setting up inception_5a/pool_proj
I0403 20:05:45.384304 10502 net.cpp:148] Top shape: 24 128 7 7 (150528)
I0403 20:05:45.384320 10502 net.cpp:156] Memory required for data: 1305071136
I0403 20:05:45.384337 10502 layer_factory.hpp:77] Creating layer inception_5a/relu_pool_proj
I0403 20:05:45.384354 10502 net.cpp:91] Creating Layer inception_5a/relu_pool_proj
I0403 20:05:45.384371 10502 net.cpp:425] inception_5a/relu_pool_proj <- inception_5a/pool_proj
I0403 20:05:45.384389 10502 net.cpp:386] inception_5a/relu_pool_proj -> inception_5a/pool_proj (in-place)
I0403 20:05:45.384668 10502 net.cpp:141] Setting up inception_5a/relu_pool_proj
I0403 20:05:45.384696 10502 net.cpp:148] Top shape: 24 128 7 7 (150528)
I0403 20:05:45.384711 10502 net.cpp:156] Memory required for data: 1305673248
I0403 20:05:45.384724 10502 layer_factory.hpp:77] Creating layer inception_5a/output
I0403 20:05:45.384742 10502 net.cpp:91] Creating Layer inception_5a/output
I0403 20:05:45.384757 10502 net.cpp:425] inception_5a/output <- inception_5a/1x1
I0403 20:05:45.384771 10502 net.cpp:425] inception_5a/output <- inception_5a/3x3
I0403 20:05:45.384788 10502 net.cpp:425] inception_5a/output <- inception_5a/5x5
I0403 20:05:45.384802 10502 net.cpp:425] inception_5a/output <- inception_5a/pool_proj
I0403 20:05:45.384819 10502 net.cpp:399] inception_5a/output -> inception_5a/output
I0403 20:05:45.384867 10502 net.cpp:141] Setting up inception_5a/output
I0403 20:05:45.384891 10502 net.cpp:148] Top shape: 24 832 7 7 (978432)
I0403 20:05:45.384904 10502 net.cpp:156] Memory required for data: 1309586976
I0403 20:05:45.384918 10502 layer_factory.hpp:77] Creating layer inception_5a/output_inception_5a/output_0_split
I0403 20:05:45.384937 10502 net.cpp:91] Creating Layer inception_5a/output_inception_5a/output_0_split
I0403 20:05:45.384953 10502 net.cpp:425] inception_5a/output_inception_5a/output_0_split <- inception_5a/output
I0403 20:05:45.384969 10502 net.cpp:399] inception_5a/output_inception_5a/output_0_split -> inception_5a/output_inception_5a/output_0_split_0
I0403 20:05:45.384989 10502 net.cpp:399] inception_5a/output_inception_5a/output_0_split -> inception_5a/output_inception_5a/output_0_split_1
I0403 20:05:45.385007 10502 net.cpp:399] inception_5a/output_inception_5a/output_0_split -> inception_5a/output_inception_5a/output_0_split_2
I0403 20:05:45.385028 10502 net.cpp:399] inception_5a/output_inception_5a/output_0_split -> inception_5a/output_inception_5a/output_0_split_3
I0403 20:05:45.385136 10502 net.cpp:141] Setting up inception_5a/output_inception_5a/output_0_split
I0403 20:05:45.385159 10502 net.cpp:148] Top shape: 24 832 7 7 (978432)
I0403 20:05:45.385176 10502 net.cpp:148] Top shape: 24 832 7 7 (978432)
I0403 20:05:45.385192 10502 net.cpp:148] Top shape: 24 832 7 7 (978432)
I0403 20:05:45.385206 10502 net.cpp:148] Top shape: 24 832 7 7 (978432)
I0403 20:05:45.385220 10502 net.cpp:156] Memory required for data: 1325241888
I0403 20:05:45.385232 10502 layer_factory.hpp:77] Creating layer inception_5b/1x1
I0403 20:05:45.385253 10502 net.cpp:91] Creating Layer inception_5b/1x1
I0403 20:05:45.385274 10502 net.cpp:425] inception_5b/1x1 <- inception_5a/output_inception_5a/output_0_split_0
I0403 20:05:45.385295 10502 net.cpp:399] inception_5b/1x1 -> inception_5b/1x1
I0403 20:05:45.388887 10502 net.cpp:141] Setting up inception_5b/1x1
I0403 20:05:45.388916 10502 net.cpp:148] Top shape: 24 384 7 7 (451584)
I0403 20:05:45.388931 10502 net.cpp:156] Memory required for data: 1327048224
I0403 20:05:45.388948 10502 layer_factory.hpp:77] Creating layer inception_5b/relu_1x1
I0403 20:05:45.388969 10502 net.cpp:91] Creating Layer inception_5b/relu_1x1
I0403 20:05:45.388986 10502 net.cpp:425] inception_5b/relu_1x1 <- inception_5b/1x1
I0403 20:05:45.389003 10502 net.cpp:386] inception_5b/relu_1x1 -> inception_5b/1x1 (in-place)
I0403 20:05:45.389302 10502 net.cpp:141] Setting up inception_5b/relu_1x1
I0403 20:05:45.389327 10502 net.cpp:148] Top shape: 24 384 7 7 (451584)
I0403 20:05:45.389341 10502 net.cpp:156] Memory required for data: 1328854560
I0403 20:05:45.389356 10502 layer_factory.hpp:77] Creating layer inception_5b/3x3_reduce
I0403 20:05:45.389379 10502 net.cpp:91] Creating Layer inception_5b/3x3_reduce
I0403 20:05:45.389396 10502 net.cpp:425] inception_5b/3x3_reduce <- inception_5a/output_inception_5a/output_0_split_1
I0403 20:05:45.389415 10502 net.cpp:399] inception_5b/3x3_reduce -> inception_5b/3x3_reduce
I0403 20:05:45.392010 10502 net.cpp:141] Setting up inception_5b/3x3_reduce
I0403 20:05:45.392045 10502 net.cpp:148] Top shape: 24 192 7 7 (225792)
I0403 20:05:45.392060 10502 net.cpp:156] Memory required for data: 1329757728
I0403 20:05:45.392079 10502 layer_factory.hpp:77] Creating layer inception_5b/relu_3x3_reduce
I0403 20:05:45.392096 10502 net.cpp:91] Creating Layer inception_5b/relu_3x3_reduce
I0403 20:05:45.392112 10502 net.cpp:425] inception_5b/relu_3x3_reduce <- inception_5b/3x3_reduce
I0403 20:05:45.392129 10502 net.cpp:386] inception_5b/relu_3x3_reduce -> inception_5b/3x3_reduce (in-place)
I0403 20:05:45.392340 10502 net.cpp:141] Setting up inception_5b/relu_3x3_reduce
I0403 20:05:45.392366 10502 net.cpp:148] Top shape: 24 192 7 7 (225792)
I0403 20:05:45.392381 10502 net.cpp:156] Memory required for data: 1330660896
I0403 20:05:45.392396 10502 layer_factory.hpp:77] Creating layer inception_5b/3x3
I0403 20:05:45.392418 10502 net.cpp:91] Creating Layer inception_5b/3x3
I0403 20:05:45.392436 10502 net.cpp:425] inception_5b/3x3 <- inception_5b/3x3_reduce
I0403 20:05:45.392462 10502 net.cpp:399] inception_5b/3x3 -> inception_5b/3x3
I0403 20:05:45.399128 10502 net.cpp:141] Setting up inception_5b/3x3
I0403 20:05:45.399163 10502 net.cpp:148] Top shape: 24 384 7 7 (451584)
I0403 20:05:45.399179 10502 net.cpp:156] Memory required for data: 1332467232
I0403 20:05:45.399197 10502 layer_factory.hpp:77] Creating layer inception_5b/relu_3x3
I0403 20:05:45.399214 10502 net.cpp:91] Creating Layer inception_5b/relu_3x3
I0403 20:05:45.399230 10502 net.cpp:425] inception_5b/relu_3x3 <- inception_5b/3x3
I0403 20:05:45.399250 10502 net.cpp:386] inception_5b/relu_3x3 -> inception_5b/3x3 (in-place)
I0403 20:05:45.399543 10502 net.cpp:141] Setting up inception_5b/relu_3x3
I0403 20:05:45.399571 10502 net.cpp:148] Top shape: 24 384 7 7 (451584)
I0403 20:05:45.399587 10502 net.cpp:156] Memory required for data: 1334273568
I0403 20:05:45.399602 10502 layer_factory.hpp:77] Creating layer inception_5b/5x5_reduce
I0403 20:05:45.399639 10502 net.cpp:91] Creating Layer inception_5b/5x5_reduce
I0403 20:05:45.399658 10502 net.cpp:425] inception_5b/5x5_reduce <- inception_5a/output_inception_5a/output_0_split_2
I0403 20:05:45.399677 10502 net.cpp:399] inception_5b/5x5_reduce -> inception_5b/5x5_reduce
I0403 20:05:45.400923 10502 net.cpp:141] Setting up inception_5b/5x5_reduce
I0403 20:05:45.400952 10502 net.cpp:148] Top shape: 24 48 7 7 (56448)
I0403 20:05:45.400969 10502 net.cpp:156] Memory required for data: 1334499360
I0403 20:05:45.400987 10502 layer_factory.hpp:77] Creating layer inception_5b/relu_5x5_reduce
I0403 20:05:45.401005 10502 net.cpp:91] Creating Layer inception_5b/relu_5x5_reduce
I0403 20:05:45.401021 10502 net.cpp:425] inception_5b/relu_5x5_reduce <- inception_5b/5x5_reduce
I0403 20:05:45.401041 10502 net.cpp:386] inception_5b/relu_5x5_reduce -> inception_5b/5x5_reduce (in-place)
I0403 20:05:45.401415 10502 net.cpp:141] Setting up inception_5b/relu_5x5_reduce
I0403 20:05:45.401442 10502 net.cpp:148] Top shape: 24 48 7 7 (56448)
I0403 20:05:45.401456 10502 net.cpp:156] Memory required for data: 1334725152
I0403 20:05:45.401471 10502 layer_factory.hpp:77] Creating layer inception_5b/5x5
I0403 20:05:45.401490 10502 net.cpp:91] Creating Layer inception_5b/5x5
I0403 20:05:45.401507 10502 net.cpp:425] inception_5b/5x5 <- inception_5b/5x5_reduce
I0403 20:05:45.401526 10502 net.cpp:399] inception_5b/5x5 -> inception_5b/5x5
I0403 20:05:45.403530 10502 net.cpp:141] Setting up inception_5b/5x5
I0403 20:05:45.403558 10502 net.cpp:148] Top shape: 24 128 7 7 (150528)
I0403 20:05:45.403573 10502 net.cpp:156] Memory required for data: 1335327264
I0403 20:05:45.403591 10502 layer_factory.hpp:77] Creating layer inception_5b/relu_5x5
I0403 20:05:45.403609 10502 net.cpp:91] Creating Layer inception_5b/relu_5x5
I0403 20:05:45.403625 10502 net.cpp:425] inception_5b/relu_5x5 <- inception_5b/5x5
I0403 20:05:45.403645 10502 net.cpp:386] inception_5b/relu_5x5 -> inception_5b/5x5 (in-place)
I0403 20:05:45.403836 10502 net.cpp:141] Setting up inception_5b/relu_5x5
I0403 20:05:45.403861 10502 net.cpp:148] Top shape: 24 128 7 7 (150528)
I0403 20:05:45.403875 10502 net.cpp:156] Memory required for data: 1335929376
I0403 20:05:45.403889 10502 layer_factory.hpp:77] Creating layer inception_5b/pool
I0403 20:05:45.403909 10502 net.cpp:91] Creating Layer inception_5b/pool
I0403 20:05:45.403926 10502 net.cpp:425] inception_5b/pool <- inception_5a/output_inception_5a/output_0_split_3
I0403 20:05:45.403944 10502 net.cpp:399] inception_5b/pool -> inception_5b/pool
I0403 20:05:45.404016 10502 net.cpp:141] Setting up inception_5b/pool
I0403 20:05:45.404038 10502 net.cpp:148] Top shape: 24 832 7 7 (978432)
I0403 20:05:45.404052 10502 net.cpp:156] Memory required for data: 1339843104
I0403 20:05:45.404067 10502 layer_factory.hpp:77] Creating layer inception_5b/pool_proj
I0403 20:05:45.404088 10502 net.cpp:91] Creating Layer inception_5b/pool_proj
I0403 20:05:45.404105 10502 net.cpp:425] inception_5b/pool_proj <- inception_5b/pool
I0403 20:05:45.404126 10502 net.cpp:399] inception_5b/pool_proj -> inception_5b/pool_proj
I0403 20:05:45.406429 10502 net.cpp:141] Setting up inception_5b/pool_proj
I0403 20:05:45.406458 10502 net.cpp:148] Top shape: 24 128 7 7 (150528)
I0403 20:05:45.406476 10502 net.cpp:156] Memory required for data: 1340445216
I0403 20:05:45.406493 10502 layer_factory.hpp:77] Creating layer inception_5b/relu_pool_proj
I0403 20:05:45.406512 10502 net.cpp:91] Creating Layer inception_5b/relu_pool_proj
I0403 20:05:45.406527 10502 net.cpp:425] inception_5b/relu_pool_proj <- inception_5b/pool_proj
I0403 20:05:45.406545 10502 net.cpp:386] inception_5b/relu_pool_proj -> inception_5b/pool_proj (in-place)
I0403 20:05:45.406836 10502 net.cpp:141] Setting up inception_5b/relu_pool_proj
I0403 20:05:45.406863 10502 net.cpp:148] Top shape: 24 128 7 7 (150528)
I0403 20:05:45.406879 10502 net.cpp:156] Memory required for data: 1341047328
I0403 20:05:45.406894 10502 layer_factory.hpp:77] Creating layer inception_5b/output
I0403 20:05:45.406911 10502 net.cpp:91] Creating Layer inception_5b/output
I0403 20:05:45.406941 10502 net.cpp:425] inception_5b/output <- inception_5b/1x1
I0403 20:05:45.406960 10502 net.cpp:425] inception_5b/output <- inception_5b/3x3
I0403 20:05:45.406976 10502 net.cpp:425] inception_5b/output <- inception_5b/5x5
I0403 20:05:45.406992 10502 net.cpp:425] inception_5b/output <- inception_5b/pool_proj
I0403 20:05:45.407012 10502 net.cpp:399] inception_5b/output -> inception_5b/output
I0403 20:05:45.407063 10502 net.cpp:141] Setting up inception_5b/output
I0403 20:05:45.407086 10502 net.cpp:148] Top shape: 24 1024 7 7 (1204224)
I0403 20:05:45.407101 10502 net.cpp:156] Memory required for data: 1345864224
I0403 20:05:45.407115 10502 layer_factory.hpp:77] Creating layer pool5/7x7_s1
I0403 20:05:45.407136 10502 net.cpp:91] Creating Layer pool5/7x7_s1
I0403 20:05:45.407153 10502 net.cpp:425] pool5/7x7_s1 <- inception_5b/output
I0403 20:05:45.407171 10502 net.cpp:399] pool5/7x7_s1 -> pool5/7x7_s1
I0403 20:05:45.407408 10502 net.cpp:141] Setting up pool5/7x7_s1
I0403 20:05:45.407434 10502 net.cpp:148] Top shape: 24 1024 1 1 (24576)
I0403 20:05:45.407449 10502 net.cpp:156] Memory required for data: 1345962528
I0403 20:05:45.407464 10502 layer_factory.hpp:77] Creating layer pool5/drop_7x7_s1
I0403 20:05:45.407483 10502 net.cpp:91] Creating Layer pool5/drop_7x7_s1
I0403 20:05:45.407500 10502 net.cpp:425] pool5/drop_7x7_s1 <- pool5/7x7_s1
I0403 20:05:45.407531 10502 net.cpp:386] pool5/drop_7x7_s1 -> pool5/7x7_s1 (in-place)
I0403 20:05:45.407579 10502 net.cpp:141] Setting up pool5/drop_7x7_s1
I0403 20:05:45.407603 10502 net.cpp:148] Top shape: 24 1024 1 1 (24576)
I0403 20:05:45.407618 10502 net.cpp:156] Memory required for data: 1346060832
I0403 20:05:45.407632 10502 layer_factory.hpp:77] Creating layer loss3/classifier_plantvillage
I0403 20:05:45.407652 10502 net.cpp:91] Creating Layer loss3/classifier_plantvillage
I0403 20:05:45.407670 10502 net.cpp:425] loss3/classifier_plantvillage <- pool5/7x7_s1
I0403 20:05:45.407691 10502 net.cpp:399] loss3/classifier_plantvillage -> loss3/classifier_plantvillage
I0403 20:05:45.408108 10502 net.cpp:141] Setting up loss3/classifier_plantvillage
I0403 20:05:45.408135 10502 net.cpp:148] Top shape: 24 38 (912)
I0403 20:05:45.408151 10502 net.cpp:156] Memory required for data: 1346064480
I0403 20:05:45.408169 10502 layer_factory.hpp:77] Creating layer loss3/classifier_plantvillage_loss3/classifier_plantvillage_0_split
I0403 20:05:45.408186 10502 net.cpp:91] Creating Layer loss3/classifier_plantvillage_loss3/classifier_plantvillage_0_split
I0403 20:05:45.408202 10502 net.cpp:425] loss3/classifier_plantvillage_loss3/classifier_plantvillage_0_split <- loss3/classifier_plantvillage
I0403 20:05:45.408220 10502 net.cpp:399] loss3/classifier_plantvillage_loss3/classifier_plantvillage_0_split -> loss3/classifier_plantvillage_loss3/classifier_plantvillage_0_split_0
I0403 20:05:45.408239 10502 net.cpp:399] loss3/classifier_plantvillage_loss3/classifier_plantvillage_0_split -> loss3/classifier_plantvillage_loss3/classifier_plantvillage_0_split_1
I0403 20:05:45.408260 10502 net.cpp:399] loss3/classifier_plantvillage_loss3/classifier_plantvillage_0_split -> loss3/classifier_plantvillage_loss3/classifier_plantvillage_0_split_2
I0403 20:05:45.408288 10502 net.cpp:399] loss3/classifier_plantvillage_loss3/classifier_plantvillage_0_split -> loss3/classifier_plantvillage_loss3/classifier_plantvillage_0_split_3
I0403 20:05:45.408388 10502 net.cpp:141] Setting up loss3/classifier_plantvillage_loss3/classifier_plantvillage_0_split
I0403 20:05:45.408411 10502 net.cpp:148] Top shape: 24 38 (912)
I0403 20:05:45.408427 10502 net.cpp:148] Top shape: 24 38 (912)
I0403 20:05:45.408443 10502 net.cpp:148] Top shape: 24 38 (912)
I0403 20:05:45.408458 10502 net.cpp:148] Top shape: 24 38 (912)
I0403 20:05:45.408471 10502 net.cpp:156] Memory required for data: 1346079072
I0403 20:05:45.408486 10502 layer_factory.hpp:77] Creating layer loss1/loss
I0403 20:05:45.408509 10502 net.cpp:91] Creating Layer loss1/loss
I0403 20:05:45.408524 10502 net.cpp:425] loss1/loss <- loss1/classifier_plantvillage_loss1/classifier_plantvillage_0_split_0
I0403 20:05:45.408555 10502 net.cpp:425] loss1/loss <- label_data_1_split_0
…
