…
I0403 19:21:54.466688  9154 net.cpp:313] The NetState phase (1) differed from the phase (0) specified by a rule in layer data
I0403 19:21:54.467910  9154 net.cpp:49] Initializing net from parameters: 
state {
  phase: TEST
}
layer {
  name: "data"
  type: "Data"
  top: "data"
  top: "label"
  include {
    phase: TEST
  }
  transform_param {
    mirror: false
    crop_size: 224
    mean_file: "/home/mohanty/data/final_dataset/lmdb/color-50-50/mean.binaryproto"
  }
  data_param {
    source: "/home/mohanty/data/final_dataset/lmdb/color-50-50/test_db"
    batch_size: 24
    backend: LMDB
  }
}
layer {
  name: "conv1/7x7_s2"
  type: "Convolution"
  bottom: "data"
  top: "conv1/7x7_s2"
  param {
    lr_mult: 1
    decay_mult: 1
  }
  param {
    lr_mult: 2
    decay_mult: 0
  }
  convolution_param {
    num_output: 64
    pad: 3
    kernel_size: 7
    stride: 2
    weight_filler {
      type: "xavier"
      std: 0.1
    }
    bias_filler {
      type: "constant"
      value: 0.2
    }
  }
}
layer {
  name: "conv1/relu_7x7"
  type: "ReLU"
  bottom: "conv1/7x7_s2"
  top: "conv1/7x7_s2"
}
layer {
  name: "pool1/3x3_s2"
  type: "Pooling"
  bottom: "conv1/7x7_s2"
  top: "pool1/3x3_s2"
  pooling_param {
    pool: MAX
    kernel_size: 3
    stride: 2
  }
}
layer {
  name: "pool1/norm1"
  type: "LRN"
  bottom: "pool1/3x3_s2"
  top: "pool1/norm1"
  lrn_param {
    local_size: 5
    alpha: 0.0001
    beta: 0.75
  }
}
layer {
  name: "conv2/3x3_reduce"
  type: "Convolution"
  bottom: "pool1/norm1"
  top: "conv2/3x3_reduce"
  param {
    lr_mult: 1
    decay_mult: 1
  }
  param {
    lr_mult: 2
    decay_mult: 0
  }
  convolution_param {
    num_output: 64
    kernel_size: 1
    weight_filler {
      type: "xavier"
      std: 0.1
    }
    bias_filler {
      type: "constant"
      value: 0.2
    }
  }
}
layer {
  name: "conv2/relu_3x3_reduce"
  type: "ReLU"
  bottom: "conv2/3x3_reduce"
  top: "conv2/3x3_reduce"
}
layer {
  name: "conv2/3x3"
  type: "Convolution"
  bottom: "conv2/3x3_reduce"
  top: "conv2/3x3"
  param {
    lr_mult: 1
    decay_mult: 1
  }
  param {
    lr_mult: 2
    decay_mult: 0
  }
  convolution_param {
    num_output: 192
    pad: 1
    kernel_size: 3
    weight_filler {
      type: "xavier"
      std: 0.03
    }
    bias_filler {
      type: "constant"
      value: 0.2
    }
  }
}
layer {
  name: "conv2/relu_3x3"
  type: "ReLU"
  bottom: "conv2/3x3"
  top: "conv2/3x3"
}
layer {
  name: "conv2/norm2"
  type: "LRN"
  bottom: "conv2/3x3"
  top: "conv2/norm2"
  lrn_param {
    local_size: 5
    alpha: 0.0001
    beta: 0.75
  }
}
layer {
  name: "pool2/3x3_s2"
  type: "Pooling"
  bottom: "conv2/norm2"
  top: "pool2/3x3_s2"
  pooling_param {
    pool: MAX
    kernel_size: 3
    stride: 2
  }
}
layer {
  name: "inception_3a/1x1"
  type: "Convolution"
  bottom: "pool2/3x3_s2"
  top: "inception_3a/1x1"
  param {
    lr_mult: 1
    decay_mult: 1
  }
  param {
    lr_mult: 2
    decay_mult: 0
  }
  convolution_param {
    num_output: 64
    kernel_size: 1
    weight_filler {
      type: "xavier"
      std: 0.03
    }
    bias_filler {
      type: "constant"
      value: 0.2
    }
  }
}
layer {
  name: "inception_3a/relu_1x1"
  type: "ReLU"
  bottom: "inception_3a/1x1"
  top: "inception_3a/1x1"
}
layer {
  name: "inception_3a/3x3_reduce"
  type: "Convolution"
  bottom: "pool2/3x3_s2"
  top: "inception_3a/3x3_reduce"
  param {
    lr_mult: 1
    decay_mult: 1
  }
  param {
    lr_mult: 2
    decay_mult: 0
  }
  convolution_param {
    num_output: 96
    kernel_size: 1
    weight_filler {
      type: "xavier"
      std: 0.09
    }
    bias_filler {
      type: "constant"
      value: 0.2
    }
  }
}
layer {
  name: "inception_3a/relu_3x3_reduce"
  type: "ReLU"
  bottom: "inception_3a/3x3_reduce"
  top: "inception_3a/3x3_reduce"
}
layer {
  name: "inception_3a/3x3"
  type: "Convolution"
  bottom: "inception_3a/3x3_reduce"
  top: "inception_3a/3x3"
  param {
    lr_mult: 1
    decay_mult: 1
  }
  param {
    lr_mult: 2
    decay_mult: 0
  }
  convolution_param {
    num_output: 128
    pad: 1
    kernel_size: 3
    weight_filler {
      type: "xavier"
      std: 0.03
    }
    bias_filler {
      type: "constant"
      value: 0.2
    }
  }
}
layer {
  name: "inception_3a/relu_3x3"
  type: "ReLU"
  bottom: "inception_3a/3x3"
  top: "inception_3a/3x3"
}
layer {
  name: "inception_3a/5x5_reduce"
  type: "Convolution"
  bottom: "pool2/3x3_s2"
  top: "inception_3a/5x5_reduce"
  param {
    lr_mult: 1
    decay_mult: 1
  }
  param {
    lr_mult: 2
    decay_mult: 0
  }
  convolution_param {
    num_output: 16
    kernel_size: 1
    weight_filler {
      type: "xavier"
      std: 0.2
    }
    bias_filler {
      type: "constant"
      value: 0.2
    }
  }
}
layer {
  name: "inception_3a/relu_5x5_reduce"
  type: "ReLU"
  bottom: "inception_3a/5x5_reduce"
  top: "inception_3a/5x5_reduce"
}
layer {
  name: "inception_3a/5x5"
  type: "Convolution"
  bottom: "inception_3a/5x5_reduce"
  top: "inception_3a/5x5"
  param {
    lr_mult: 1
    decay_mult: 1
  }
  param {
    lr_mult: 2
    decay_mult: 0
  }
  convolution_param {
    num_output: 32
    pad: 2
    kernel_size: 5
    weight_filler {
      type: "xavier"
      std: 0.03
    }
    bias_filler {
      type: "constant"
      value: 0.2
    }
  }
}
layer {
  name: "inception_3a/relu_5x5"
  type: "ReLU"
  bottom: "inception_3a/5x5"
  top: "inception_3a/5x5"
}
layer {
  name: "inception_3a/pool"
  type: "Pooling"
  bottom: "pool2/3x3_s2"
  top: "inception_3a/pool"
  pooling_param {
    pool: MAX
    kernel_size: 3
    stride: 1
    pad: 1
  }
}
layer {
  name: "inception_3a/pool_proj"
  type: "Convolution"
  bottom: "inception_3a/pool"
  top: "inception_3a/pool_proj"
  param {
    lr_mult: 1
    decay_mult: 1
  }
  param {
    lr_mult: 2
    decay_mult: 0
  }
  convolution_param {
    num_output: 32
    kernel_size: 1
    weight_filler {
      type: "xavier"
      std: 0.1
    }
    bias_filler {
      type: "constant"
      value: 0.2
    }
  }
}
layer {
  name: "inception_3a/relu_pool_proj"
  type: "ReLU"
  bottom: "inception_3a/pool_proj"
  top: "inception_3a/pool_proj"
}
layer {
  name: "inception_3a/output"
  type: "Concat"
  bottom: "inception_3a/1x1"
  bottom: "inception_3a/3x3"
  bottom: "inception_3a/5x5"
  bottom: "inception_3a/pool_proj"
  top: "inception_3a/output"
}
layer {
  name: "inception_3b/1x1"
  type: "Convolution"
  bottom: "inception_3a/output"
  top: "inception_3b/1x1"
  param {
    lr_mult: 1
    decay_mult: 1
  }
  param {
    lr_mult: 2
    decay_mult: 0
  }
  convolution_param {
    num_output: 128
    kernel_size: 1
    weight_filler {
      type: "xavier"
      std: 0.03
    }
    bias_filler {
      type: "constant"
      value: 0.2
    }
  }
}
layer {
  name: "inception_3b/relu_1x1"
  type: "ReLU"
  bottom: "inception_3b/1x1"
  top: "inception_3b/1x1"
}
layer {
  name: "inception_3b/3x3_reduce"
  type: "Convolution"
  bottom: "inception_3a/output"
  top: "inception_3b/3x3_reduce"
  param {
    lr_mult: 1
    decay_mult: 1
  }
  param {
    lr_mult: 2
    decay_mult: 0
  }
  convolution_param {
    num_output: 128
    kernel_size: 1
    weight_filler {
      type: "xavier"
      std: 0.09
    }
    bias_filler {
      type: "constant"
      value: 0.2
    }
  }
}
layer {
  name: "inception_3b/relu_3x3_reduce"
  type: "ReLU"
  bottom: "inception_3b/3x3_reduce"
  top: "inception_3b/3x3_reduce"
}
layer {
  name: "inception_3b/3x3"
  type: "Convolution"
  bottom: "inception_3b/3x3_reduce"
  top: "inception_3b/3x3"
  param {
    lr_mult: 1
    decay_mult: 1
  }
  param {
    lr_mult: 2
    decay_mult: 0
  }
  convolution_param {
    num_output: 192
    pad: 1
    kernel_size: 3
    weight_filler {
      type: "xavier"
      std: 0.03
    }
    bias_filler {
      type: "constant"
      value: 0.2
    }
  }
}
layer {
  name: "inception_3b/relu_3x3"
  type: "ReLU"
  bottom: "inception_3b/3x3"
  top: "inception_3b/3x3"
}
layer {
  name: "inception_3b/5x5_reduce"
  type: "Convolution"
  bottom: "inception_3a/output"
  top: "inception_3b/5x5_reduce"
  param {
    lr_mult: 1
    decay_mult: 1
  }
  param {
    lr_mult: 2
    decay_mult: 0
  }
  convolution_param {
    num_output: 32
    kernel_size: 1
    weight_filler {
      type: "xavier"
      std: 0.2
    }
    bias_filler {
      type: "constant"
      value: 0.2
    }
  }
}
layer {
  name: "inception_3b/relu_5x5_reduce"
  type: "ReLU"
  bottom: "inception_3b/5x5_reduce"
  top: "inception_3b/5x5_reduce"
}
layer {
  name: "inception_3b/5x5"
  type: "Convolution"
  bottom: "inception_3b/5x5_reduce"
  top: "inception_3b/5x5"
  param {
    lr_mult: 1
    decay_mult: 1
  }
  param {
    lr_mult: 2
    decay_mult: 0
  }
  convolution_param {
    num_output: 96
    pad: 2
    kernel_size: 5
    weight_filler {
      type: "xavier"
      std: 0.03
    }
    bias_filler {
      type: "constant"
      value: 0.2
    }
  }
}
layer {
  name: "inception_3b/relu_5x5"
  type: "ReLU"
  bottom: "inception_3b/5x5"
  top: "inception_3b/5x5"
}
layer {
  name: "inception_3b/pool"
  type: "Pooling"
  bottom: "inception_3a/output"
  top: "inception_3b/pool"
  pooling_param {
    pool: MAX
    kernel_size: 3
    stride: 1
    pad: 1
  }
}
layer {
  name: "inception_3b/pool_proj"
  type: "Convolution"
  bottom: "inception_3b/pool"
  top: "inception_3b/pool_proj"
  param {
    lr_mult: 1
    decay_mult: 1
  }
  param {
    lr_mult: 2
    decay_mult: 0
  }
  convolution_param {
    num_output: 64
    kernel_size: 1
    weight_filler {
      type: "xavier"
      std: 0.1
    }
    bias_filler {
      type: "constant"
      value: 0.2
    }
  }
}
layer {
  name: "inception_3b/relu_pool_proj"
  type: "ReLU"
  bottom: "inception_3b/pool_proj"
  top: "inception_3b/pool_proj"
}
layer {
  name: "inception_3b/output"
  type: "Concat"
  bottom: "inception_3b/1x1"
  bottom: "inception_3b/3x3"
  bottom: "inception_3b/5x5"
  bottom: "inception_3b/pool_proj"
  top: "inception_3b/output"
}
layer {
  name: "pool3/3x3_s2"
  type: "Pooling"
  bottom: "inception_3b/output"
  top: "pool3/3x3_s2"
  pooling_param {
    pool: MAX
    kernel_size: 3
    stride: 2
  }
}
layer {
  name: "inception_4a/1x1"
  type: "Convolution"
  bottom: "pool3/3x3_s2"
  top: "inception_4a/1x1"
  param {
    lr_mult: 1
    decay_mult: 1
  }
  param {
    lr_mult: 2
    decay_mult: 0
  }
  convolution_param {
    num_output: 192
    kernel_size: 1
    weight_filler {
      type: "xavier"
      std: 0.03
    }
    bias_filler {
      type: "constant"
      value: 0.2
    }
  }
}
layer {
  name: "inception_4a/relu_1x1"
  type: "ReLU"
  bottom: "inception_4a/1x1"
  top: "inception_4a/1x1"
}
layer {
  name: "inception_4a/3x3_reduce"
  type: "Convolution"
  bottom: "pool3/3x3_s2"
  top: "inception_4a/3x3_reduce"
  param {
    lr_mult: 1
    decay_mult: 1
  }
  param {
    lr_mult: 2
    decay_mult: 0
  }
  convolution_param {
    num_output: 96
    kernel_size: 1
    weight_filler {
      type: "xavier"
      std: 0.09
    }
    bias_filler {
      type: "constant"
      value: 0.2
    }
  }
}
layer {
  name: "inception_4a/relu_3x3_reduce"
  type: "ReLU"
  bottom: "inception_4a/3x3_reduce"
  top: "inception_4a/3x3_reduce"
}
layer {
  name: "inception_4a/3x3"
  type: "Convolution"
  bottom: "inception_4a/3x3_reduce"
  top: "inception_4a/3x3"
  param {
    lr_mult: 1
    decay_mult: 1
  }
  param {
    lr_mult: 2
    decay_mult: 0
  }
  convolution_param {
    num_output: 208
    pad: 1
    kernel_size: 3
    weight_filler {
      type: "xavier"
      std: 0.03
    }
    bias_filler {
      type: "constant"
      value: 0.2
    }
  }
}
layer {
  name: "inception_4a/relu_3x3"
  type: "ReLU"
  bottom: "inception_4a/3x3"
  top: "inception_4a/3x3"
}
layer {
  name: "inception_4a/5x5_reduce"
  type: "Convolution"
  bottom: "pool3/3x3_s2"
  top: "inception_4a/5x5_reduce"
  param {
    lr_mult: 1
    decay_mult: 1
  }
  param {
    lr_mult: 2
    decay_mult: 0
  }
  convolution_param {
    num_output: 16
    kernel_size: 1
    weight_filler {
      type: "xavier"
      std: 0.2
    }
    bias_filler {
      type: "constant"
      value: 0.2
    }
  }
}
layer {
  name: "inception_4a/relu_5x5_reduce"
  type: "ReLU"
  bottom: "inception_4a/5x5_reduce"
  top: "inception_4a/5x5_reduce"
}
layer {
  name: "inception_4a/5x5"
  type: "Convolution"
  bottom: "inception_4a/5x5_reduce"
  top: "inception_4a/5x5"
  param {
    lr_mult: 1
    decay_mult: 1
  }
  param {
    lr_mult: 2
    decay_mult: 0
  }
  convolution_param {
    num_output: 48
    pad: 2
    kernel_size: 5
    weight_filler {
      type: "xavier"
      std: 0.03
    }
    bias_filler {
      type: "constant"
      value: 0.2
    }
  }
}
layer {
  name: "inception_4a/relu_5x5"
  type: "ReLU"
  bottom: "inception_4a/5x5"
  top: "inception_4a/5x5"
}
layer {
  name: "inception_4a/pool"
  type: "Pooling"
  bottom: "pool3/3x3_s2"
  top: "inception_4a/pool"
  pooling_param {
    pool: MAX
    kernel_size: 3
    stride: 1
    pad: 1
  }
}
layer {
  name: "inception_4a/pool_proj"
  type: "Convolution"
  bottom: "inception_4a/pool"
  top: "inception_4a/pool_proj"
  param {
    lr_mult: 1
    decay_mult: 1
  }
  param {
    lr_mult: 2
    decay_mult: 0
  }
  convolution_param {
    num_output: 64
    kernel_size: 1
    weight_filler {
      type: "xavier"
      std: 0.1
    }
    bias_filler {
      type: "constant"
      value: 0.2
    }
  }
}
layer {
  name: "inception_4a/relu_pool_proj"
  type: "ReLU"
  bottom: "inception_4a/pool_proj"
  top: "inception_4a/pool_proj"
}
layer {
  name: "inception_4a/output"
  type: "Concat"
  bottom: "inception_4a/1x1"
  bottom: "inception_4a/3x3"
  bottom: "inception_4a/5x5"
  bottom: "inception_4a/pool_proj"
  top: "inception_4a/output"
}
layer {
  name: "loss1/ave_pool"
  type: "Pooling"
  bottom: "inception_4a/output"
  top: "loss1/ave_pool"
  pooling_param {
    pool: AVE
    kernel_size: 5
    stride: 3
  }
}
layer {
  name: "loss1/conv"
  type: "Convolution"
  bottom: "loss1/ave_pool"
  top: "loss1/conv"
  param {
    lr_mult: 1
    decay_mult: 1
  }
  param {
    lr_mult: 2
    decay_mult: 0
  }
  convolution_param {
    num_output: 128
    kernel_size: 1
    weight_filler {
      type: "xavier"
      std: 0.08
    }
    bias_filler {
      type: "constant"
      value: 0.2
    }
  }
}
layer {
  name: "loss1/relu_conv"
  type: "ReLU"
  bottom: "loss1/conv"
  top: "loss1/conv"
}
layer {
  name: "loss1/fc"
  type: "InnerProduct"
  bottom: "loss1/conv"
  top: "loss1/fc"
  param {
    lr_mult: 1
    decay_mult: 1
  }
  param {
    lr_mult: 2
    decay_mult: 0
  }
  inner_product_param {
    num_output: 1024
    weight_filler {
      type: "xavier"
      std: 0.02
    }
    bias_filler {
      type: "constant"
      value: 0.2
    }
  }
}
layer {
  name: "loss1/relu_fc"
  type: "ReLU"
  bottom: "loss1/fc"
  top: "loss1/fc"
}
layer {
  name: "loss1/drop_fc"
  type: "Dropout"
  bottom: "loss1/fc"
  top: "loss1/fc"
  dropout_param {
    dropout_ratio: 0.7
  }
}
layer {
  name: "loss1/classifier_plantvillage"
  type: "InnerProduct"
  bottom: "loss1/fc"
  top: "loss1/classifier_plantvillage"
  param {
    lr_mult: 1
    decay_mult: 1
  }
  param {
    lr_mult: 2
    decay_mult: 0
  }
  inner_product_param {
    num_output: 38
    weight_filler {
      type: "xavier"
      std: 0.0009765625
    }
    bias_filler {
      type: "constant"
      value: 0
    }
  }
}
layer {
  name: "inception_4b/1x1"
  type: "Convolution"
  bottom: "inception_4a/output"
  top: "inception_4b/1x1"
  param {
    lr_mult: 1
    decay_mult: 1
  }
  param {
    lr_mult: 2
    decay_mult: 0
  }
  convolution_param {
    num_output: 160
    kernel_size: 1
    weight_filler {
      type: "xavier"
      std: 0.03
    }
    bias_filler {
      type: "constant"
      value: 0.2
    }
  }
}
layer {
  name: "inception_4b/relu_1x1"
  type: "ReLU"
  bottom: "inception_4b/1x1"
  top: "inception_4b/1x1"
}
layer {
  name: "inception_4b/3x3_reduce"
  type: "Convolution"
  bottom: "inception_4a/output"
  top: "inception_4b/3x3_reduce"
  param {
    lr_mult: 1
    decay_mult: 1
  }
  param {
    lr_mult: 2
    decay_mult: 0
  }
  convolution_param {
    num_output: 112
    kernel_size: 1
    weight_filler {
      type: "xavier"
      std: 0.09
    }
    bias_filler {
      type: "constant"
      value: 0.2
    }
  }
}
layer {
  name: "inception_4b/relu_3x3_reduce"
  type: "ReLU"
  bottom: "inception_4b/3x3_reduce"
  top: "inception_4b/3x3_reduce"
}
layer {
  name: "inception_4b/3x3"
  type: "Convolution"
  bottom: "inception_4b/3x3_reduce"
  top: "inception_4b/3x3"
  param {
    lr_mult: 1
    decay_mult: 1
  }
  param {
    lr_mult: 2
    decay_mult: 0
  }
  convolution_param {
    num_output: 224
    pad: 1
    kernel_size: 3
    weight_filler {
      type: "xavier"
      std: 0.03
    }
    bias_filler {
      type: "constant"
      value: 0.2
    }
  }
}
layer {
  name: "inception_4b/relu_3x3"
  type: "ReLU"
  bottom: "inception_4b/3x3"
  top: "inception_4b/3x3"
}
layer {
  name: "inception_4b/5x5_reduce"
  type: "Convolution"
  bottom: "inception_4a/output"
  top: "inception_4b/5x5_reduce"
  param {
    lr_mult: 1
    decay_mult: 1
  }
  param {
    lr_mult: 2
    decay_mult: 0
  }
  convolution_param {
    num_output: 24
    kernel_size: 1
    weight_filler {
      type: "xavier"
      std: 0.2
    }
    bias_filler {
      type: "constant"
      value: 0.2
    }
  }
}
layer {
  name: "inception_4b/relu_5x5_reduce"
  type: "ReLU"
  bottom: "inception_4b/5x5_reduce"
  top: "inception_4b/5x5_reduce"
}
layer {
  name: "inception_4b/5x5"
  type: "Convolution"
  bottom: "inception_4b/5x5_reduce"
  top: "inception_4b/5x5"
  param {
    lr_mult: 1
    decay_mult: 1
  }
  param {
    lr_mult: 2
    decay_mult: 0
  }
  convolution_param {
    num_output: 64
    pad: 2
    kernel_size: 5
    weight_filler {
      type: "xavier"
      std: 0.03
    }
    bias_filler {
      type: "constant"
      value: 0.2
    }
  }
}
layer {
  name: "inception_4b/relu_5x5"
  type: "ReLU"
  bottom: "inception_4b/5x5"
  top: "inception_4b/5x5"
}
layer {
  name: "inception_4b/pool"
  type: "Pooling"
  bottom: "inception_4a/output"
  top: "inception_4b/pool"
  pooling_param {
    pool: MAX
    kernel_size: 3
    stride: 1
    pad: 1
  }
}
layer {
  name: "inception_4b/pool_proj"
  type: "Convolution"
  bottom: "inception_4b/pool"
  top: "inception_4b/pool_proj"
  param {
    lr_mult: 1
    decay_mult: 1
  }
  param {
    lr_mult: 2
    decay_mult: 0
  }
  convolution_param {
    num_output: 64
    kernel_size: 1
    weight_filler {
      type: "xavier"
      std: 0.1
    }
    bias_filler {
      type: "constant"
      value: 0.2
    }
  }
}
layer {
  name: "inception_4b/relu_pool_proj"
  type: "ReLU"
  bottom: "inception_4b/pool_proj"
  top: "inception_4b/pool_proj"
}
layer {
  name: "inception_4b/output"
  type: "Concat"
  bottom: "inception_4b/1x1"
  bottom: "inception_4b/3x3"
  bottom: "inception_4b/5x5"
  bottom: "inception_4b/pool_proj"
  top: "inception_4b/output"
}
layer {
  name: "inception_4c/1x1"
  type: "Convolution"
  bottom: "inception_4b/output"
  top: "inception_4c/1x1"
  param {
    lr_mult: 1
    decay_mult: 1
  }
  param {
    lr_mult: 2
    decay_mult: 0
  }
  convolution_param {
    num_output: 128
    kernel_size: 1
    weight_filler {
      type: "xavier"
      std: 0.03
    }
    bias_filler {
      type: "constant"
      value: 0.2
    }
  }
}
layer {
  name: "inception_4c/relu_1x1"
  type: "ReLU"
  bottom: "inception_4c/1x1"
  top: "inception_4c/1x1"
}
layer {
  name: "inception_4c/3x3_reduce"
  type: "Convolution"
  bottom: "inception_4b/output"
  top: "inception_4c/3x3_reduce"
  param {
    lr_mult: 1
    decay_mult: 1
  }
  param {
    lr_mult: 2
    decay_mult: 0
  }
  convolution_param {
    num_output: 128
    kernel_size: 1
    weight_filler {
      type: "xavier"
      std: 0.09
    }
    bias_filler {
      type: "constant"
      value: 0.2
    }
  }
}
layer {
  name: "inception_4c/relu_3x3_reduce"
  type: "ReLU"
  bottom: "inception_4c/3x3_reduce"
  top: "inception_4c/3x3_reduce"
}
layer {
  name: "inception_4c/3x3"
  type: "Convolution"
  bottom: "inception_4c/3x3_reduce"
  top: "inception_4c/3x3"
  param {
    lr_mult: 1
    decay_mult: 1
  }
  param {
    lr_mult: 2
    decay_mult: 0
  }
  convolution_param {
    num_output: 256
    pad: 1
    kernel_size: 3
    weight_filler {
      type: "xavier"
      std: 0.03
    }
    bias_filler {
      type: "constant"
      value: 0.2
    }
  }
}
layer {
  name: "inception_4c/relu_3x3"
  type: "ReLU"
  bottom: "inception_4c/3x3"
  top: "inception_4c/3x3"
}
layer {
  name: "inception_4c/5x5_reduce"
  type: "Convolution"
  bottom: "inception_4b/output"
  top: "inception_4c/5x5_reduce"
  param {
    lr_mult: 1
    decay_mult: 1
  }
  param {
    lr_mult: 2
    decay_mult: 0
  }
  convolution_param {
    num_output: 24
    kernel_size: 1
    weight_filler {
      type: "xavier"
      std: 0.2
    }
    bias_filler {
      type: "constant"
      value: 0.2
    }
  }
}
layer {
  name: "inception_4c/relu_5x5_reduce"
  type: "ReLU"
  bottom: "inception_4c/5x5_reduce"
  top: "inception_4c/5x5_reduce"
}
layer {
  name: "inception_4c/5x5"
  type: "Convolution"
  bottom: "inception_4c/5x5_reduce"
  top: "inception_4c/5x5"
  param {
    lr_mult: 1
    decay_mult: 1
  }
  param {
    lr_mult: 2
    decay_mult: 0
  }
  convolution_param {
    num_output: 64
    pad: 2
    kernel_size: 5
    weight_filler {
      type: "xavier"
      std: 0.03
    }
    bias_filler {
      type: "constant"
      value: 0.2
    }
  }
}
layer {
  name: "inception_4c/relu_5x5"
  type: "ReLU"
  bottom: "inception_4c/5x5"
  top: "inception_4c/5x5"
}
layer {
  name: "inception_4c/pool"
  type: "Pooling"
  bottom: "inception_4b/output"
  top: "inception_4c/pool"
  pooling_param {
    pool: MAX
    kernel_size: 3
    stride: 1
    pad: 1
  }
}
layer {
  name: "inception_4c/pool_proj"
  type: "Convolution"
  bottom: "inception_4c/pool"
  top: "inception_4c/pool_proj"
  param {
    lr_mult: 1
    decay_mult: 1
  }
  param {
    lr_mult: 2
    decay_mult: 0
  }
  convolution_param {
    num_output: 64
    kernel_size: 1
    weight_filler {
      type: "xavier"
      std: 0.1
    }
    bias_filler {
      type: "constant"
      value: 0.2
    }
  }
}
layer {
  name: "inception_4c/relu_pool_proj"
  type: "ReLU"
  bottom: "inception_4c/pool_proj"
  top: "inception_4c/pool_proj"
}
layer {
  name: "inception_4c/output"
  type: "Concat"
  bottom: "inception_4c/1x1"
  bottom: "inception_4c/3x3"
  bottom: "inception_4c/5x5"
  bottom: "inception_4c/pool_proj"
  top: "inception_4c/output"
}
layer {
  name: "inception_4d/1x1"
  type: "Convolution"
  bottom: "inception_4c/output"
  top: "inception_4d/1x1"
  param {
    lr_mult: 1
    decay_mult: 1
  }
  param {
    lr_mult: 2
    decay_mult: 0
  }
  convolution_param {
    num_output: 112
    kernel_size: 1
    weight_filler {
      type: "xavier"
      std: 0.03
    }
    bias_filler {
      type: "constant"
      value: 0.2
    }
  }
}
layer {
  name: "inception_4d/relu_1x1"
  type: "ReLU"
  bottom: "inception_4d/1x1"
  top: "inception_4d/1x1"
}
layer {
  name: "inception_4d/3x3_reduce"
  type: "Convolution"
  bottom: "inception_4c/output"
  top: "inception_4d/3x3_reduce"
  param {
    lr_mult: 1
    decay_mult: 1
  }
  param {
    lr_mult: 2
    decay_mult: 0
  }
  convolution_param {
    num_output: 144
    kernel_size: 1
    weight_filler {
      type: "xavier"
      std: 0.09
    }
    bias_filler {
      type: "constant"
      value: 0.2
    }
  }
}
layer {
  name: "inception_4d/relu_3x3_reduce"
  type: "ReLU"
  bottom: "inception_4d/3x3_reduce"
  top: "inception_4d/3x3_reduce"
}
layer {
  name: "inception_4d/3x3"
  type: "Convolution"
  bottom: "inception_4d/3x3_reduce"
  top: "inception_4d/3x3"
  param {
    lr_mult: 1
    decay_mult: 1
  }
  param {
    lr_mult: 2
    decay_mult: 0
  }
  convolution_param {
    num_output: 288
    pad: 1
    kernel_size: 3
    weight_filler {
      type: "xavier"
      std: 0.03
    }
    bias_filler {
      type: "constant"
      value: 0.2
    }
  }
}
layer {
  name: "inception_4d/relu_3x3"
  type: "ReLU"
  bottom: "inception_4d/3x3"
  top: "inception_4d/3x3"
}
layer {
  name: "inception_4d/5x5_reduce"
  type: "Convolution"
  bottom: "inception_4c/output"
  top: "inception_4d/5x5_reduce"
  param {
    lr_mult: 1
    decay_mult: 1
  }
  param {
    lr_mult: 2
    decay_mult: 0
  }
  convolution_param {
    num_output: 32
    kernel_size: 1
    weight_filler {
      type: "xavier"
      std: 0.2
    }
    bias_filler {
      type: "constant"
      value: 0.2
    }
  }
}
layer {
  name: "inception_4d/relu_5x5_reduce"
  type: "ReLU"
  bottom: "inception_4d/5x5_reduce"
  top: "inception_4d/5x5_reduce"
}
layer {
  name: "inception_4d/5x5"
  type: "Convolution"
  bottom: "inception_4d/5x5_reduce"
  top: "inception_4d/5x5"
  param {
    lr_mult: 1
    decay_mult: 1
  }
  param {
    lr_mult: 2
    decay_mult: 0
  }
  convolution_param {
    num_output: 64
    pad: 2
    kernel_size: 5
    weight_filler {
      type: "xavier"
      std: 0.03
    }
    bias_filler {
      type: "constant"
      value: 0.2
    }
  }
}
layer {
  name: "inception_4d/relu_5x5"
  type: "ReLU"
  bottom: "inception_4d/5x5"
  top: "inception_4d/5x5"
}
layer {
  name: "inception_4d/pool"
  type: "Pooling"
  bottom: "inception_4c/output"
  top: "inception_4d/pool"
  pooling_param {
    pool: MAX
    kernel_size: 3
    stride: 1
    pad: 1
  }
}
layer {
  name: "inception_4d/pool_proj"
  type: "Convolution"
  bottom: "inception_4d/pool"
  top: "inception_4d/pool_proj"
  param {
    lr_mult: 1
    decay_mult: 1
  }
  param {
    lr_mult: 2
    decay_mult: 0
  }
  convolution_param {
    num_output: 64
    kernel_size: 1
    weight_filler {
      type: "xavier"
      std: 0.1
    }
    bias_filler {
      type: "constant"
      value: 0.2
    }
  }
}
layer {
  name: "inception_4d/relu_pool_proj"
  type: "ReLU"
  bottom: "inception_4d/pool_proj"
  top: "inception_4d/pool_proj"
}
layer {
  name: "inception_4d/output"
  type: "Concat"
  bottom: "inception_4d/1x1"
  bottom: "inception_4d/3x3"
  bottom: "inception_4d/5x5"
  bottom: "inception_4d/pool_proj"
  top: "inception_4d/output"
}
layer {
  name: "loss2/ave_pool"
  type: "Pooling"
  bottom: "inception_4d/output"
  top: "loss2/ave_pool"
  pooling_param {
    pool: AVE
    kernel_size: 5
    stride: 3
  }
}
layer {
  name: "loss2/conv"
  type: "Convolution"
  bottom: "loss2/ave_pool"
  top: "loss2/conv"
  param {
    lr_mult: 1
    decay_mult: 1
  }
  param {
    lr_mult: 2
    decay_mult: 0
  }
  convolution_param {
    num_output: 128
    kernel_size: 1
    weight_filler {
      type: "xavier"
      std: 0.08
    }
    bias_filler {
      type: "constant"
      value: 0.2
    }
  }
}
layer {
  name: "loss2/relu_conv"
  type: "ReLU"
  bottom: "loss2/conv"
  top: "loss2/conv"
}
layer {
  name: "loss2/fc"
  type: "InnerProduct"
  bottom: "loss2/conv"
  top: "loss2/fc"
  param {
    lr_mult: 1
    decay_mult: 1
  }
  param {
    lr_mult: 2
    decay_mult: 0
  }
  inner_product_param {
    num_output: 1024
    weight_filler {
      type: "xavier"
      std: 0.02
    }
    bias_filler {
      type: "constant"
      value: 0.2
    }
  }
}
layer {
  name: "loss2/relu_fc"
  type: "ReLU"
  bottom: "loss2/fc"
  top: "loss2/fc"
}
layer {
  name: "loss2/drop_fc"
  type: "Dropout"
  bottom: "loss2/fc"
  top: "loss2/fc"
  dropout_param {
    dropout_ratio: 0.7
  }
}
layer {
  name: "loss2/classifier_plantvillage"
  type: "InnerProduct"
  bottom: "loss2/fc"
  top: "loss2/classifier_plantvillage"
  param {
    lr_mult: 1
    decay_mult: 1
  }
  param {
    lr_mult: 2
    decay_mult: 0
  }
  inner_product_param {
    num_output: 38
    weight_filler {
      type: "xavier"
      std: 0.0009765625
    }
    bias_filler {
      type: "constant"
      value: 0
    }
  }
}
layer {
  name: "inception_4e/1x1"
  type: "Convolution"
  bottom: "inception_4d/output"
  top: "inception_4e/1x1"
  param {
    lr_mult: 1
    decay_mult: 1
  }
  param {
    lr_mult: 2
    decay_mult: 0
  }
  convolution_param {
    num_output: 256
    kernel_size: 1
    weight_filler {
      type: "xavier"
      std: 0.03
    }
    bias_filler {
      type: "constant"
      value: 0.2
    }
  }
}
layer {
  name: "inception_4e/relu_1x1"
  type: "ReLU"
  bottom: "inception_4e/1x1"
  top: "inception_4e/1x1"
}
layer {
  name: "inception_4e/3x3_reduce"
  type: "Convolution"
  bottom: "inception_4d/output"
  top: "inception_4e/3x3_reduce"
  param {
    lr_mult: 1
    decay_mult: 1
  }
  param {
    lr_mult: 2
    decay_mult: 0
  }
  convolution_param {
    num_output: 160
    kernel_size: 1
    weight_filler {
      type: "xavier"
      std: 0.09
    }
    bias_filler {
      type: "constant"
      value: 0.2
    }
  }
}
layer {
  name: "inception_4e/relu_3x3_reduce"
  type: "ReLU"
  bottom: "inception_4e/3x3_reduce"
  top: "inception_4e/3x3_reduce"
}
layer {
  name: "inception_4e/3x3"
  type: "Convolution"
  bottom: "inception_4e/3x3_reduce"
  top: "inception_4e/3x3"
  param {
    lr_mult: 1
    decay_mult: 1
  }
  param {
    lr_mult: 2
    decay_mult: 0
  }
  convolution_param {
    num_output: 320
    pad: 1
    kernel_size: 3
    weight_filler {
      type: "xavier"
      std: 0.03
    }
    bias_filler {
      type: "constant"
      value: 0.2
    }
  }
}
layer {
  name: "inception_4e/relu_3x3"
  type: "ReLU"
  bottom: "inception_4e/3x3"
  top: "inception_4e/3x3"
}
layer {
  name: "inception_4e/5x5_reduce"
  type: "Convolution"
  bottom: "inception_4d/output"
  top: "inception_4e/5x5_reduce"
  param {
    lr_mult: 1
    decay_mult: 1
  }
  param {
    lr_mult: 2
    decay_mult: 0
  }
  convolution_param {
    num_output: 32
    kernel_size: 1
    weight_filler {
      type: "xavier"
      std: 0.2
    }
    bias_filler {
      type: "constant"
      value: 0.2
    }
  }
}
layer {
  name: "inception_4e/relu_5x5_reduce"
  type: "ReLU"
  bottom: "inception_4e/5x5_reduce"
  top: "inception_4e/5x5_reduce"
}
layer {
  name: "inception_4e/5x5"
  type: "Convolution"
  bottom: "inception_4e/5x5_reduce"
  top: "inception_4e/5x5"
  p
I0403 19:21:54.469521  9154 layer_factory.hpp:77] Creating layer data
I0403 19:21:54.470150  9154 net.cpp:91] Creating Layer data
I0403 19:21:54.470186  9154 net.cpp:399] data -> data
I0403 19:21:54.470242  9154 net.cpp:399] data -> label
I0403 19:21:54.470283  9154 data_transformer.cpp:25] Loading mean file from: /home/mohanty/data/final_dataset/lmdb/color-50-50/mean.binaryproto
I0403 19:21:54.471477  9156 db_lmdb.cpp:38] Opened lmdb /home/mohanty/data/final_dataset/lmdb/color-50-50/test_db
I0403 19:21:54.483835  9154 data_layer.cpp:41] output data size: 24,3,224,224
I0403 19:21:54.511111  9154 net.cpp:141] Setting up data
I0403 19:21:54.511201  9154 net.cpp:148] Top shape: 24 3 224 224 (3612672)
I0403 19:21:54.511224  9154 net.cpp:148] Top shape: 24 (24)
I0403 19:21:54.511240  9154 net.cpp:156] Memory required for data: 14450784
I0403 19:21:54.511268  9154 layer_factory.hpp:77] Creating layer label_data_1_split
I0403 19:21:54.511312  9154 net.cpp:91] Creating Layer label_data_1_split
I0403 19:21:54.511330  9154 net.cpp:425] label_data_1_split <- label
I0403 19:21:54.511363  9154 net.cpp:399] label_data_1_split -> label_data_1_split_0
I0403 19:21:54.511391  9154 net.cpp:399] label_data_1_split -> label_data_1_split_1
I0403 19:21:54.511412  9154 net.cpp:399] label_data_1_split -> label_data_1_split_2
I0403 19:21:54.511433  9154 net.cpp:399] label_data_1_split -> label_data_1_split_3
I0403 19:21:54.511453  9154 net.cpp:399] label_data_1_split -> label_data_1_split_4
I0403 19:21:54.511485  9154 net.cpp:399] label_data_1_split -> label_data_1_split_5
I0403 19:21:54.511504  9154 net.cpp:399] label_data_1_split -> label_data_1_split_6
I0403 19:21:54.511524  9154 net.cpp:399] label_data_1_split -> label_data_1_split_7
I0403 19:21:54.511543  9154 net.cpp:399] label_data_1_split -> label_data_1_split_8
I0403 19:21:54.511564  9154 net.cpp:399] label_data_1_split -> label_data_1_split_9
I0403 19:21:54.511692  9154 net.cpp:141] Setting up label_data_1_split
I0403 19:21:54.511715  9154 net.cpp:148] Top shape: 24 (24)
I0403 19:21:54.511732  9154 net.cpp:148] Top shape: 24 (24)
I0403 19:21:54.511749  9154 net.cpp:148] Top shape: 24 (24)
I0403 19:21:54.511765  9154 net.cpp:148] Top shape: 24 (24)
I0403 19:21:54.511780  9154 net.cpp:148] Top shape: 24 (24)
I0403 19:21:54.511795  9154 net.cpp:148] Top shape: 24 (24)
I0403 19:21:54.511811  9154 net.cpp:148] Top shape: 24 (24)
I0403 19:21:54.511827  9154 net.cpp:148] Top shape: 24 (24)
I0403 19:21:54.511842  9154 net.cpp:148] Top shape: 24 (24)
I0403 19:21:54.511858  9154 net.cpp:148] Top shape: 24 (24)
I0403 19:21:54.511904  9154 net.cpp:156] Memory required for data: 14451744
I0403 19:21:54.511919  9154 layer_factory.hpp:77] Creating layer conv1/7x7_s2
I0403 19:21:54.511952  9154 net.cpp:91] Creating Layer conv1/7x7_s2
I0403 19:21:54.511970  9154 net.cpp:425] conv1/7x7_s2 <- data
I0403 19:21:54.511988  9154 net.cpp:399] conv1/7x7_s2 -> conv1/7x7_s2
I0403 19:21:54.651558  9154 net.cpp:141] Setting up conv1/7x7_s2
I0403 19:21:54.651625  9154 net.cpp:148] Top shape: 24 64 112 112 (19267584)
I0403 19:21:54.651643  9154 net.cpp:156] Memory required for data: 91522080
I0403 19:21:54.651674  9154 layer_factory.hpp:77] Creating layer conv1/relu_7x7
I0403 19:21:54.651701  9154 net.cpp:91] Creating Layer conv1/relu_7x7
I0403 19:21:54.651721  9154 net.cpp:425] conv1/relu_7x7 <- conv1/7x7_s2
I0403 19:21:54.651741  9154 net.cpp:386] conv1/relu_7x7 -> conv1/7x7_s2 (in-place)
I0403 19:21:54.652025  9154 net.cpp:141] Setting up conv1/relu_7x7
I0403 19:21:54.652055  9154 net.cpp:148] Top shape: 24 64 112 112 (19267584)
I0403 19:21:54.652070  9154 net.cpp:156] Memory required for data: 168592416
I0403 19:21:54.652086  9154 layer_factory.hpp:77] Creating layer pool1/3x3_s2
I0403 19:21:54.652112  9154 net.cpp:91] Creating Layer pool1/3x3_s2
I0403 19:21:54.652130  9154 net.cpp:425] pool1/3x3_s2 <- conv1/7x7_s2
I0403 19:21:54.652153  9154 net.cpp:399] pool1/3x3_s2 -> pool1/3x3_s2
I0403 19:21:54.652232  9154 net.cpp:141] Setting up pool1/3x3_s2
I0403 19:21:54.652257  9154 net.cpp:148] Top shape: 24 64 56 56 (4816896)
I0403 19:21:54.652284  9154 net.cpp:156] Memory required for data: 187860000
I0403 19:21:54.652303  9154 layer_factory.hpp:77] Creating layer pool1/norm1
I0403 19:21:54.652334  9154 net.cpp:91] Creating Layer pool1/norm1
I0403 19:21:54.652354  9154 net.cpp:425] pool1/norm1 <- pool1/3x3_s2
I0403 19:21:54.652374  9154 net.cpp:399] pool1/norm1 -> pool1/norm1
I0403 19:21:54.652690  9154 net.cpp:141] Setting up pool1/norm1
I0403 19:21:54.652719  9154 net.cpp:148] Top shape: 24 64 56 56 (4816896)
I0403 19:21:54.652734  9154 net.cpp:156] Memory required for data: 207127584
I0403 19:21:54.652750  9154 layer_factory.hpp:77] Creating layer conv2/3x3_reduce
I0403 19:21:54.652776  9154 net.cpp:91] Creating Layer conv2/3x3_reduce
I0403 19:21:54.652855  9154 net.cpp:425] conv2/3x3_reduce <- pool1/norm1
I0403 19:21:54.652883  9154 net.cpp:399] conv2/3x3_reduce -> conv2/3x3_reduce
I0403 19:21:54.654345  9154 net.cpp:141] Setting up conv2/3x3_reduce
I0403 19:21:54.654376  9154 net.cpp:148] Top shape: 24 64 56 56 (4816896)
I0403 19:21:54.654392  9154 net.cpp:156] Memory required for data: 226395168
I0403 19:21:54.654417  9154 layer_factory.hpp:77] Creating layer conv2/relu_3x3_reduce
I0403 19:21:54.654438  9154 net.cpp:91] Creating Layer conv2/relu_3x3_reduce
I0403 19:21:54.654454  9154 net.cpp:425] conv2/relu_3x3_reduce <- conv2/3x3_reduce
I0403 19:21:54.654472  9154 net.cpp:386] conv2/relu_3x3_reduce -> conv2/3x3_reduce (in-place)
I0403 19:21:54.654803  9154 net.cpp:141] Setting up conv2/relu_3x3_reduce
I0403 19:21:54.654832  9154 net.cpp:148] Top shape: 24 64 56 56 (4816896)
I0403 19:21:54.654849  9154 net.cpp:156] Memory required for data: 245662752
I0403 19:21:54.654865  9154 layer_factory.hpp:77] Creating layer conv2/3x3
I0403 19:21:54.654889  9154 net.cpp:91] Creating Layer conv2/3x3
I0403 19:21:54.654909  9154 net.cpp:425] conv2/3x3 <- conv2/3x3_reduce
I0403 19:21:54.654932  9154 net.cpp:399] conv2/3x3 -> conv2/3x3
I0403 19:21:54.657402  9154 net.cpp:141] Setting up conv2/3x3
I0403 19:21:54.657433  9154 net.cpp:148] Top shape: 24 192 56 56 (14450688)
I0403 19:21:54.657450  9154 net.cpp:156] Memory required for data: 303465504
I0403 19:21:54.657476  9154 layer_factory.hpp:77] Creating layer conv2/relu_3x3
I0403 19:21:54.657497  9154 net.cpp:91] Creating Layer conv2/relu_3x3
I0403 19:21:54.657515  9154 net.cpp:425] conv2/relu_3x3 <- conv2/3x3
I0403 19:21:54.657532  9154 net.cpp:386] conv2/relu_3x3 -> conv2/3x3 (in-place)
I0403 19:21:54.657724  9154 net.cpp:141] Setting up conv2/relu_3x3
I0403 19:21:54.657753  9154 net.cpp:148] Top shape: 24 192 56 56 (14450688)
I0403 19:21:54.657800  9154 net.cpp:156] Memory required for data: 361268256
I0403 19:21:54.657817  9154 layer_factory.hpp:77] Creating layer conv2/norm2
I0403 19:21:54.657836  9154 net.cpp:91] Creating Layer conv2/norm2
I0403 19:21:54.657853  9154 net.cpp:425] conv2/norm2 <- conv2/3x3
I0403 19:21:54.657874  9154 net.cpp:399] conv2/norm2 -> conv2/norm2
I0403 19:21:54.658288  9154 net.cpp:141] Setting up conv2/norm2
I0403 19:21:54.658318  9154 net.cpp:148] Top shape: 24 192 56 56 (14450688)
I0403 19:21:54.658334  9154 net.cpp:156] Memory required for data: 419071008
I0403 19:21:54.658349  9154 layer_factory.hpp:77] Creating layer pool2/3x3_s2
I0403 19:21:54.658367  9154 net.cpp:91] Creating Layer pool2/3x3_s2
I0403 19:21:54.658383  9154 net.cpp:425] pool2/3x3_s2 <- conv2/norm2
I0403 19:21:54.658404  9154 net.cpp:399] pool2/3x3_s2 -> pool2/3x3_s2
I0403 19:21:54.658463  9154 net.cpp:141] Setting up pool2/3x3_s2
I0403 19:21:54.658488  9154 net.cpp:148] Top shape: 24 192 28 28 (3612672)
I0403 19:21:54.658504  9154 net.cpp:156] Memory required for data: 433521696
I0403 19:21:54.658519  9154 layer_factory.hpp:77] Creating layer pool2/3x3_s2_pool2/3x3_s2_0_split
I0403 19:21:54.658536  9154 net.cpp:91] Creating Layer pool2/3x3_s2_pool2/3x3_s2_0_split
I0403 19:21:54.658555  9154 net.cpp:425] pool2/3x3_s2_pool2/3x3_s2_0_split <- pool2/3x3_s2
I0403 19:21:54.658573  9154 net.cpp:399] pool2/3x3_s2_pool2/3x3_s2_0_split -> pool2/3x3_s2_pool2/3x3_s2_0_split_0
I0403 19:21:54.658596  9154 net.cpp:399] pool2/3x3_s2_pool2/3x3_s2_0_split -> pool2/3x3_s2_pool2/3x3_s2_0_split_1
I0403 19:21:54.658618  9154 net.cpp:399] pool2/3x3_s2_pool2/3x3_s2_0_split -> pool2/3x3_s2_pool2/3x3_s2_0_split_2
I0403 19:21:54.658638  9154 net.cpp:399] pool2/3x3_s2_pool2/3x3_s2_0_split -> pool2/3x3_s2_pool2/3x3_s2_0_split_3
I0403 19:21:54.658712  9154 net.cpp:141] Setting up pool2/3x3_s2_pool2/3x3_s2_0_split
I0403 19:21:54.658735  9154 net.cpp:148] Top shape: 24 192 28 28 (3612672)
I0403 19:21:54.658752  9154 net.cpp:148] Top shape: 24 192 28 28 (3612672)
I0403 19:21:54.658769  9154 net.cpp:148] Top shape: 24 192 28 28 (3612672)
I0403 19:21:54.658785  9154 net.cpp:148] Top shape: 24 192 28 28 (3612672)
I0403 19:21:54.658800  9154 net.cpp:156] Memory required for data: 491324448
I0403 19:21:54.658815  9154 layer_factory.hpp:77] Creating layer inception_3a/1x1
I0403 19:21:54.658840  9154 net.cpp:91] Creating Layer inception_3a/1x1
I0403 19:21:54.658859  9154 net.cpp:425] inception_3a/1x1 <- pool2/3x3_s2_pool2/3x3_s2_0_split_0
I0403 19:21:54.658879  9154 net.cpp:399] inception_3a/1x1 -> inception_3a/1x1
I0403 19:21:54.660589  9154 net.cpp:141] Setting up inception_3a/1x1
I0403 19:21:54.660621  9154 net.cpp:148] Top shape: 24 64 28 28 (1204224)
I0403 19:21:54.660637  9154 net.cpp:156] Memory required for data: 496141344
I0403 19:21:54.660655  9154 layer_factory.hpp:77] Creating layer inception_3a/relu_1x1
I0403 19:21:54.660676  9154 net.cpp:91] Creating Layer inception_3a/relu_1x1
I0403 19:21:54.660693  9154 net.cpp:425] inception_3a/relu_1x1 <- inception_3a/1x1
I0403 19:21:54.660712  9154 net.cpp:386] inception_3a/relu_1x1 -> inception_3a/1x1 (in-place)
I0403 19:21:54.660889  9154 net.cpp:141] Setting up inception_3a/relu_1x1
I0403 19:21:54.660917  9154 net.cpp:148] Top shape: 24 64 28 28 (1204224)
I0403 19:21:54.660933  9154 net.cpp:156] Memory required for data: 500958240
I0403 19:21:54.660948  9154 layer_factory.hpp:77] Creating layer inception_3a/3x3_reduce
I0403 19:21:54.660971  9154 net.cpp:91] Creating Layer inception_3a/3x3_reduce
I0403 19:21:54.660990  9154 net.cpp:425] inception_3a/3x3_reduce <- pool2/3x3_s2_pool2/3x3_s2_0_split_1
I0403 19:21:54.661010  9154 net.cpp:399] inception_3a/3x3_reduce -> inception_3a/3x3_reduce
I0403 19:21:54.662786  9154 net.cpp:141] Setting up inception_3a/3x3_reduce
I0403 19:21:54.662817  9154 net.cpp:148] Top shape: 24 96 28 28 (1806336)
I0403 19:21:54.662838  9154 net.cpp:156] Memory required for data: 508183584
I0403 19:21:54.662863  9154 layer_factory.hpp:77] Creating layer inception_3a/relu_3x3_reduce
I0403 19:21:54.662900  9154 net.cpp:91] Creating Layer inception_3a/relu_3x3_reduce
I0403 19:21:54.662919  9154 net.cpp:425] inception_3a/relu_3x3_reduce <- inception_3a/3x3_reduce
I0403 19:21:54.662937  9154 net.cpp:386] inception_3a/relu_3x3_reduce -> inception_3a/3x3_reduce (in-place)
I0403 19:21:54.663130  9154 net.cpp:141] Setting up inception_3a/relu_3x3_reduce
I0403 19:21:54.663154  9154 net.cpp:148] Top shape: 24 96 28 28 (1806336)
I0403 19:21:54.663171  9154 net.cpp:156] Memory required for data: 515408928
I0403 19:21:54.663185  9154 layer_factory.hpp:77] Creating layer inception_3a/3x3
I0403 19:21:54.663249  9154 net.cpp:91] Creating Layer inception_3a/3x3
I0403 19:21:54.663275  9154 net.cpp:425] inception_3a/3x3 <- inception_3a/3x3_reduce
I0403 19:21:54.663297  9154 net.cpp:399] inception_3a/3x3 -> inception_3a/3x3
I0403 19:21:54.665017  9154 net.cpp:141] Setting up inception_3a/3x3
I0403 19:21:54.665047  9154 net.cpp:148] Top shape: 24 128 28 28 (2408448)
I0403 19:21:54.665063  9154 net.cpp:156] Memory required for data: 525042720
I0403 19:21:54.665083  9154 layer_factory.hpp:77] Creating layer inception_3a/relu_3x3
I0403 19:21:54.665103  9154 net.cpp:91] Creating Layer inception_3a/relu_3x3
I0403 19:21:54.665120  9154 net.cpp:425] inception_3a/relu_3x3 <- inception_3a/3x3
I0403 19:21:54.665138  9154 net.cpp:386] inception_3a/relu_3x3 -> inception_3a/3x3 (in-place)
I0403 19:21:54.665424  9154 net.cpp:141] Setting up inception_3a/relu_3x3
I0403 19:21:54.665452  9154 net.cpp:148] Top shape: 24 128 28 28 (2408448)
I0403 19:21:54.665467  9154 net.cpp:156] Memory required for data: 534676512
I0403 19:21:54.665484  9154 layer_factory.hpp:77] Creating layer inception_3a/5x5_reduce
I0403 19:21:54.665508  9154 net.cpp:91] Creating Layer inception_3a/5x5_reduce
I0403 19:21:54.665526  9154 net.cpp:425] inception_3a/5x5_reduce <- pool2/3x3_s2_pool2/3x3_s2_0_split_2
I0403 19:21:54.665552  9154 net.cpp:399] inception_3a/5x5_reduce -> inception_3a/5x5_reduce
I0403 19:21:54.666549  9154 net.cpp:141] Setting up inception_3a/5x5_reduce
I0403 19:21:54.666579  9154 net.cpp:148] Top shape: 24 16 28 28 (301056)
I0403 19:21:54.666594  9154 net.cpp:156] Memory required for data: 535880736
I0403 19:21:54.666630  9154 layer_factory.hpp:77] Creating layer inception_3a/relu_5x5_reduce
I0403 19:21:54.666678  9154 net.cpp:91] Creating Layer inception_3a/relu_5x5_reduce
I0403 19:21:54.666697  9154 net.cpp:425] inception_3a/relu_5x5_reduce <- inception_3a/5x5_reduce
I0403 19:21:54.666714  9154 net.cpp:386] inception_3a/relu_5x5_reduce -> inception_3a/5x5_reduce (in-place)
I0403 19:21:54.667016  9154 net.cpp:141] Setting up inception_3a/relu_5x5_reduce
I0403 19:21:54.667047  9154 net.cpp:148] Top shape: 24 16 28 28 (301056)
I0403 19:21:54.667063  9154 net.cpp:156] Memory required for data: 537084960
I0403 19:21:54.667078  9154 layer_factory.hpp:77] Creating layer inception_3a/5x5
I0403 19:21:54.667100  9154 net.cpp:91] Creating Layer inception_3a/5x5
I0403 19:21:54.667119  9154 net.cpp:425] inception_3a/5x5 <- inception_3a/5x5_reduce
I0403 19:21:54.667137  9154 net.cpp:399] inception_3a/5x5 -> inception_3a/5x5
I0403 19:21:54.668174  9154 net.cpp:141] Setting up inception_3a/5x5
I0403 19:21:54.668203  9154 net.cpp:148] Top shape: 24 32 28 28 (602112)
I0403 19:21:54.668220  9154 net.cpp:156] Memory required for data: 539493408
I0403 19:21:54.668239  9154 layer_factory.hpp:77] Creating layer inception_3a/relu_5x5
I0403 19:21:54.668289  9154 net.cpp:91] Creating Layer inception_3a/relu_5x5
I0403 19:21:54.668311  9154 net.cpp:425] inception_3a/relu_5x5 <- inception_3a/5x5
I0403 19:21:54.668330  9154 net.cpp:386] inception_3a/relu_5x5 -> inception_3a/5x5 (in-place)
I0403 19:21:54.668519  9154 net.cpp:141] Setting up inception_3a/relu_5x5
I0403 19:21:54.668548  9154 net.cpp:148] Top shape: 24 32 28 28 (602112)
I0403 19:21:54.668565  9154 net.cpp:156] Memory required for data: 541901856
I0403 19:21:54.668579  9154 layer_factory.hpp:77] Creating layer inception_3a/pool
I0403 19:21:54.668596  9154 net.cpp:91] Creating Layer inception_3a/pool
I0403 19:21:54.668612  9154 net.cpp:425] inception_3a/pool <- pool2/3x3_s2_pool2/3x3_s2_0_split_3
I0403 19:21:54.668647  9154 net.cpp:399] inception_3a/pool -> inception_3a/pool
I0403 19:21:54.668705  9154 net.cpp:141] Setting up inception_3a/pool
I0403 19:21:54.668730  9154 net.cpp:148] Top shape: 24 192 28 28 (3612672)
I0403 19:21:54.668745  9154 net.cpp:156] Memory required for data: 556352544
I0403 19:21:54.668758  9154 layer_factory.hpp:77] Creating layer inception_3a/pool_proj
I0403 19:21:54.668779  9154 net.cpp:91] Creating Layer inception_3a/pool_proj
I0403 19:21:54.668797  9154 net.cpp:425] inception_3a/pool_proj <- inception_3a/pool
I0403 19:21:54.668818  9154 net.cpp:399] inception_3a/pool_proj -> inception_3a/pool_proj
I0403 19:21:54.669778  9154 net.cpp:141] Setting up inception_3a/pool_proj
I0403 19:21:54.669806  9154 net.cpp:148] Top shape: 24 32 28 28 (602112)
I0403 19:21:54.669821  9154 net.cpp:156] Memory required for data: 558760992
I0403 19:21:54.669843  9154 layer_factory.hpp:77] Creating layer inception_3a/relu_pool_proj
I0403 19:21:54.669864  9154 net.cpp:91] Creating Layer inception_3a/relu_pool_proj
I0403 19:21:54.669880  9154 net.cpp:425] inception_3a/relu_pool_proj <- inception_3a/pool_proj
I0403 19:21:54.669898  9154 net.cpp:386] inception_3a/relu_pool_proj -> inception_3a/pool_proj (in-place)
I0403 19:21:54.670172  9154 net.cpp:141] Setting up inception_3a/relu_pool_proj
I0403 19:21:54.670198  9154 net.cpp:148] Top shape: 24 32 28 28 (602112)
I0403 19:21:54.670214  9154 net.cpp:156] Memory required for data: 561169440
I0403 19:21:54.670228  9154 layer_factory.hpp:77] Creating layer inception_3a/output
I0403 19:21:54.670248  9154 net.cpp:91] Creating Layer inception_3a/output
I0403 19:21:54.670264  9154 net.cpp:425] inception_3a/output <- inception_3a/1x1
I0403 19:21:54.670295  9154 net.cpp:425] inception_3a/output <- inception_3a/3x3
I0403 19:21:54.670312  9154 net.cpp:425] inception_3a/output <- inception_3a/5x5
I0403 19:21:54.670327  9154 net.cpp:425] inception_3a/output <- inception_3a/pool_proj
I0403 19:21:54.670346  9154 net.cpp:399] inception_3a/output -> inception_3a/output
I0403 19:21:54.670393  9154 net.cpp:141] Setting up inception_3a/output
I0403 19:21:54.670415  9154 net.cpp:148] Top shape: 24 256 28 28 (4816896)
I0403 19:21:54.670430  9154 net.cpp:156] Memory required for data: 580437024
I0403 19:21:54.670444  9154 layer_factory.hpp:77] Creating layer inception_3a/output_inception_3a/output_0_split
I0403 19:21:54.670461  9154 net.cpp:91] Creating Layer inception_3a/output_inception_3a/output_0_split
I0403 19:21:54.670477  9154 net.cpp:425] inception_3a/output_inception_3a/output_0_split <- inception_3a/output
I0403 19:21:54.670496  9154 net.cpp:399] inception_3a/output_inception_3a/output_0_split -> inception_3a/output_inception_3a/output_0_split_0
I0403 19:21:54.670516  9154 net.cpp:399] inception_3a/output_inception_3a/output_0_split -> inception_3a/output_inception_3a/output_0_split_1
I0403 19:21:54.670542  9154 net.cpp:399] inception_3a/output_inception_3a/output_0_split -> inception_3a/output_inception_3a/output_0_split_2
I0403 19:21:54.670564  9154 net.cpp:399] inception_3a/output_inception_3a/output_0_split -> inception_3a/output_inception_3a/output_0_split_3
I0403 19:21:54.670636  9154 net.cpp:141] Setting up inception_3a/output_inception_3a/output_0_split
I0403 19:21:54.670660  9154 net.cpp:148] Top shape: 24 256 28 28 (4816896)
I0403 19:21:54.670675  9154 net.cpp:148] Top shape: 24 256 28 28 (4816896)
I0403 19:21:54.670691  9154 net.cpp:148] Top shape: 24 256 28 28 (4816896)
I0403 19:21:54.670707  9154 net.cpp:148] Top shape: 24 256 28 28 (4816896)
I0403 19:21:54.670722  9154 net.cpp:156] Memory required for data: 657507360
I0403 19:21:54.670735  9154 layer_factory.hpp:77] Creating layer inception_3b/1x1
I0403 19:21:54.670758  9154 net.cpp:91] Creating Layer inception_3b/1x1
I0403 19:21:54.670774  9154 net.cpp:425] inception_3b/1x1 <- inception_3a/output_inception_3a/output_0_split_0
I0403 19:21:54.670795  9154 net.cpp:399] inception_3b/1x1 -> inception_3b/1x1
I0403 19:21:54.671933  9154 net.cpp:141] Setting up inception_3b/1x1
I0403 19:21:54.671972  9154 net.cpp:148] Top shape: 24 128 28 28 (2408448)
I0403 19:21:54.671988  9154 net.cpp:156] Memory required for data: 667141152
I0403 19:21:54.672008  9154 layer_factory.hpp:77] Creating layer inception_3b/relu_1x1
I0403 19:21:54.672029  9154 net.cpp:91] Creating Layer inception_3b/relu_1x1
I0403 19:21:54.672044  9154 net.cpp:425] inception_3b/relu_1x1 <- inception_3b/1x1
I0403 19:21:54.672062  9154 net.cpp:386] inception_3b/relu_1x1 -> inception_3b/1x1 (in-place)
I0403 19:21:54.672237  9154 net.cpp:141] Setting up inception_3b/relu_1x1
I0403 19:21:54.672261  9154 net.cpp:148] Top shape: 24 128 28 28 (2408448)
I0403 19:21:54.672288  9154 net.cpp:156] Memory required for data: 676774944
I0403 19:21:54.672305  9154 layer_factory.hpp:77] Creating layer inception_3b/3x3_reduce
I0403 19:21:54.672329  9154 net.cpp:91] Creating Layer inception_3b/3x3_reduce
I0403 19:21:54.672346  9154 net.cpp:425] inception_3b/3x3_reduce <- inception_3a/output_inception_3a/output_0_split_1
I0403 19:21:54.672365  9154 net.cpp:399] inception_3b/3x3_reduce -> inception_3b/3x3_reduce
I0403 19:21:54.673488  9154 net.cpp:141] Setting up inception_3b/3x3_reduce
I0403 19:21:54.673516  9154 net.cpp:148] Top shape: 24 128 28 28 (2408448)
I0403 19:21:54.673532  9154 net.cpp:156] Memory required for data: 686408736
I0403 19:21:54.673550  9154 layer_factory.hpp:77] Creating layer inception_3b/relu_3x3_reduce
I0403 19:21:54.673568  9154 net.cpp:91] Creating Layer inception_3b/relu_3x3_reduce
I0403 19:21:54.673583  9154 net.cpp:425] inception_3b/relu_3x3_reduce <- inception_3b/3x3_reduce
I0403 19:21:54.673602  9154 net.cpp:386] inception_3b/relu_3x3_reduce -> inception_3b/3x3_reduce (in-place)
I0403 19:21:54.673773  9154 net.cpp:141] Setting up inception_3b/relu_3x3_reduce
I0403 19:21:54.673797  9154 net.cpp:148] Top shape: 24 128 28 28 (2408448)
I0403 19:21:54.673812  9154 net.cpp:156] Memory required for data: 696042528
I0403 19:21:54.673827  9154 layer_factory.hpp:77] Creating layer inception_3b/3x3
I0403 19:21:54.673853  9154 net.cpp:91] Creating Layer inception_3b/3x3
I0403 19:21:54.673871  9154 net.cpp:425] inception_3b/3x3 <- inception_3b/3x3_reduce
I0403 19:21:54.673892  9154 net.cpp:399] inception_3b/3x3 -> inception_3b/3x3
I0403 19:21:54.676812  9154 net.cpp:141] Setting up inception_3b/3x3
I0403 19:21:54.676841  9154 net.cpp:148] Top shape: 24 192 28 28 (3612672)
I0403 19:21:54.676856  9154 net.cpp:156] Memory required for data: 710493216
I0403 19:21:54.676874  9154 layer_factory.hpp:77] Creating layer inception_3b/relu_3x3
I0403 19:21:54.676894  9154 net.cpp:91] Creating Layer inception_3b/relu_3x3
I0403 19:21:54.676911  9154 net.cpp:425] inception_3b/relu_3x3 <- inception_3b/3x3
I0403 19:21:54.676928  9154 net.cpp:386] inception_3b/relu_3x3 -> inception_3b/3x3 (in-place)
I0403 19:21:54.677201  9154 net.cpp:141] Setting up inception_3b/relu_3x3
I0403 19:21:54.677230  9154 net.cpp:148] Top shape: 24 192 28 28 (3612672)
I0403 19:21:54.677247  9154 net.cpp:156] Memory required for data: 724943904
I0403 19:21:54.677263  9154 layer_factory.hpp:77] Creating layer inception_3b/5x5_reduce
I0403 19:21:54.677289  9154 net.cpp:91] Creating Layer inception_3b/5x5_reduce
I0403 19:21:54.677309  9154 net.cpp:425] inception_3b/5x5_reduce <- inception_3a/output_inception_3a/output_0_split_2
I0403 19:21:54.677330  9154 net.cpp:399] inception_3b/5x5_reduce -> inception_3b/5x5_reduce
I0403 19:21:54.678313  9154 net.cpp:141] Setting up inception_3b/5x5_reduce
I0403 19:21:54.678341  9154 net.cpp:148] Top shape: 24 32 28 28 (602112)
I0403 19:21:54.678357  9154 net.cpp:156] Memory required for data: 727352352
I0403 19:21:54.678375  9154 layer_factory.hpp:77] Creating layer inception_3b/relu_5x5_reduce
I0403 19:21:54.678395  9154 net.cpp:91] Creating Layer inception_3b/relu_5x5_reduce
I0403 19:21:54.678412  9154 net.cpp:425] inception_3b/relu_5x5_reduce <- inception_3b/5x5_reduce
I0403 19:21:54.678431  9154 net.cpp:386] inception_3b/relu_5x5_reduce -> inception_3b/5x5_reduce (in-place)
I0403 19:21:54.678613  9154 net.cpp:141] Setting up inception_3b/relu_5x5_reduce
I0403 19:21:54.678654  9154 net.cpp:148] Top shape: 24 32 28 28 (602112)
I0403 19:21:54.678671  9154 net.cpp:156] Memory required for data: 729760800
I0403 19:21:54.678688  9154 layer_factory.hpp:77] Creating layer inception_3b/5x5
I0403 19:21:54.678710  9154 net.cpp:91] Creating Layer inception_3b/5x5
I0403 19:21:54.678727  9154 net.cpp:425] inception_3b/5x5 <- inception_3b/5x5_reduce
I0403 19:21:54.678746  9154 net.cpp:399] inception_3b/5x5 -> inception_3b/5x5
I0403 19:21:54.680692  9154 net.cpp:141] Setting up inception_3b/5x5
I0403 19:21:54.680721  9154 net.cpp:148] Top shape: 24 96 28 28 (1806336)
I0403 19:21:54.680737  9154 net.cpp:156] Memory required for data: 736986144
I0403 19:21:54.680757  9154 layer_factory.hpp:77] Creating layer inception_3b/relu_5x5
I0403 19:21:54.680774  9154 net.cpp:91] Creating Layer inception_3b/relu_5x5
I0403 19:21:54.680790  9154 net.cpp:425] inception_3b/relu_5x5 <- inception_3b/5x5
I0403 19:21:54.680810  9154 net.cpp:386] inception_3b/relu_5x5 -> inception_3b/5x5 (in-place)
I0403 19:21:54.681000  9154 net.cpp:141] Setting up inception_3b/relu_5x5
I0403 19:21:54.681025  9154 net.cpp:148] Top shape: 24 96 28 28 (1806336)
I0403 19:21:54.681040  9154 net.cpp:156] Memory required for data: 744211488
I0403 19:21:54.681056  9154 layer_factory.hpp:77] Creating layer inception_3b/pool
I0403 19:21:54.681072  9154 net.cpp:91] Creating Layer inception_3b/pool
I0403 19:21:54.681090  9154 net.cpp:425] inception_3b/pool <- inception_3a/output_inception_3a/output_0_split_3
I0403 19:21:54.681108  9154 net.cpp:399] inception_3b/pool -> inception_3b/pool
I0403 19:21:54.681164  9154 net.cpp:141] Setting up inception_3b/pool
I0403 19:21:54.681186  9154 net.cpp:148] Top shape: 24 256 28 28 (4816896)
I0403 19:21:54.681201  9154 net.cpp:156] Memory required for data: 763479072
I0403 19:21:54.681218  9154 layer_factory.hpp:77] Creating layer inception_3b/pool_proj
I0403 19:21:54.681241  9154 net.cpp:91] Creating Layer inception_3b/pool_proj
I0403 19:21:54.681257  9154 net.cpp:425] inception_3b/pool_proj <- inception_3b/pool
I0403 19:21:54.681295  9154 net.cpp:399] inception_3b/pool_proj -> inception_3b/pool_proj
I0403 19:21:54.682411  9154 net.cpp:141] Setting up inception_3b/pool_proj
I0403 19:21:54.682443  9154 net.cpp:148] Top shape: 24 64 28 28 (1204224)
I0403 19:21:54.682459  9154 net.cpp:156] Memory required for data: 768295968
I0403 19:21:54.682478  9154 layer_factory.hpp:77] Creating layer inception_3b/relu_pool_proj
I0403 19:21:54.682497  9154 net.cpp:91] Creating Layer inception_3b/relu_pool_proj
I0403 19:21:54.682513  9154 net.cpp:425] inception_3b/relu_pool_proj <- inception_3b/pool_proj
I0403 19:21:54.682534  9154 net.cpp:386] inception_3b/relu_pool_proj -> inception_3b/pool_proj (in-place)
I0403 19:21:54.682937  9154 net.cpp:141] Setting up inception_3b/relu_pool_proj
I0403 19:21:54.682966  9154 net.cpp:148] Top shape: 24 64 28 28 (1204224)
I0403 19:21:54.682982  9154 net.cpp:156] Memory required for data: 773112864
I0403 19:21:54.682997  9154 layer_factory.hpp:77] Creating layer inception_3b/output
I0403 19:21:54.683015  9154 net.cpp:91] Creating Layer inception_3b/output
I0403 19:21:54.683032  9154 net.cpp:425] inception_3b/output <- inception_3b/1x1
I0403 19:21:54.683048  9154 net.cpp:425] inception_3b/output <- inception_3b/3x3
I0403 19:21:54.683064  9154 net.cpp:425] inception_3b/output <- inception_3b/5x5
I0403 19:21:54.683080  9154 net.cpp:425] inception_3b/output <- inception_3b/pool_proj
I0403 19:21:54.683097  9154 net.cpp:399] inception_3b/output -> inception_3b/output
I0403 19:21:54.683143  9154 net.cpp:141] Setting up inception_3b/output
I0403 19:21:54.683166  9154 net.cpp:148] Top shape: 24 480 28 28 (9031680)
I0403 19:21:54.683182  9154 net.cpp:156] Memory required for data: 809239584
I0403 19:21:54.683197  9154 layer_factory.hpp:77] Creating layer pool3/3x3_s2
I0403 19:21:54.683215  9154 net.cpp:91] Creating Layer pool3/3x3_s2
I0403 19:21:54.683233  9154 net.cpp:425] pool3/3x3_s2 <- inception_3b/output
I0403 19:21:54.683251  9154 net.cpp:399] pool3/3x3_s2 -> pool3/3x3_s2
I0403 19:21:54.683331  9154 net.cpp:141] Setting up pool3/3x3_s2
I0403 19:21:54.683356  9154 net.cpp:148] Top shape: 24 480 14 14 (2257920)
I0403 19:21:54.683370  9154 net.cpp:156] Memory required for data: 818271264
I0403 19:21:54.683385  9154 layer_factory.hpp:77] Creating layer pool3/3x3_s2_pool3/3x3_s2_0_split
I0403 19:21:54.683403  9154 net.cpp:91] Creating Layer pool3/3x3_s2_pool3/3x3_s2_0_split
I0403 19:21:54.683418  9154 net.cpp:425] pool3/3x3_s2_pool3/3x3_s2_0_split <- pool3/3x3_s2
I0403 19:21:54.683439  9154 net.cpp:399] pool3/3x3_s2_pool3/3x3_s2_0_split -> pool3/3x3_s2_pool3/3x3_s2_0_split_0
I0403 19:21:54.683459  9154 net.cpp:399] pool3/3x3_s2_pool3/3x3_s2_0_split -> pool3/3x3_s2_pool3/3x3_s2_0_split_1
I0403 19:21:54.683480  9154 net.cpp:399] pool3/3x3_s2_pool3/3x3_s2_0_split -> pool3/3x3_s2_pool3/3x3_s2_0_split_2
I0403 19:21:54.683500  9154 net.cpp:399] pool3/3x3_s2_pool3/3x3_s2_0_split -> pool3/3x3_s2_pool3/3x3_s2_0_split_3
I0403 19:21:54.683578  9154 net.cpp:141] Setting up pool3/3x3_s2_pool3/3x3_s2_0_split
I0403 19:21:54.683603  9154 net.cpp:148] Top shape: 24 480 14 14 (2257920)
I0403 19:21:54.683620  9154 net.cpp:148] Top shape: 24 480 14 14 (2257920)
I0403 19:21:54.683636  9154 net.cpp:148] Top shape: 24 480 14 14 (2257920)
I0403 19:21:54.683651  9154 net.cpp:148] Top shape: 24 480 14 14 (2257920)
I0403 19:21:54.683665  9154 net.cpp:156] Memory required for data: 854397984
I0403 19:21:54.683681  9154 layer_factory.hpp:77] Creating layer inception_4a/1x1
I0403 19:21:54.683703  9154 net.cpp:91] Creating Layer inception_4a/1x1
I0403 19:21:54.683722  9154 net.cpp:425] inception_4a/1x1 <- pool3/3x3_s2_pool3/3x3_s2_0_split_0
I0403 19:21:54.683740  9154 net.cpp:399] inception_4a/1x1 -> inception_4a/1x1
I0403 19:21:54.685374  9154 net.cpp:141] Setting up inception_4a/1x1
I0403 19:21:54.685402  9154 net.cpp:148] Top shape: 24 192 14 14 (903168)
I0403 19:21:54.685418  9154 net.cpp:156] Memory required for data: 858010656
I0403 19:21:54.685437  9154 layer_factory.hpp:77] Creating layer inception_4a/relu_1x1
I0403 19:21:54.685456  9154 net.cpp:91] Creating Layer inception_4a/relu_1x1
I0403 19:21:54.685473  9154 net.cpp:425] inception_4a/relu_1x1 <- inception_4a/1x1
I0403 19:21:54.685494  9154 net.cpp:386] inception_4a/relu_1x1 -> inception_4a/1x1 (in-place)
I0403 19:21:54.685683  9154 net.cpp:141] Setting up inception_4a/relu_1x1
I0403 19:21:54.685721  9154 net.cpp:148] Top shape: 24 192 14 14 (903168)
I0403 19:21:54.685736  9154 net.cpp:156] Memory required for data: 861623328
I0403 19:21:54.685751  9154 layer_factory.hpp:77] Creating layer inception_4a/3x3_reduce
I0403 19:21:54.685786  9154 net.cpp:91] Creating Layer inception_4a/3x3_reduce
I0403 19:21:54.685804  9154 net.cpp:425] inception_4a/3x3_reduce <- pool3/3x3_s2_pool3/3x3_s2_0_split_1
I0403 19:21:54.685827  9154 net.cpp:399] inception_4a/3x3_reduce -> inception_4a/3x3_reduce
I0403 19:21:54.687183  9154 net.cpp:141] Setting up inception_4a/3x3_reduce
I0403 19:21:54.687213  9154 net.cpp:148] Top shape: 24 96 14 14 (451584)
I0403 19:21:54.687230  9154 net.cpp:156] Memory required for data: 863429664
I0403 19:21:54.687258  9154 layer_factory.hpp:77] Creating layer inception_4a/relu_3x3_reduce
I0403 19:21:54.687283  9154 net.cpp:91] Creating Layer inception_4a/relu_3x3_reduce
I0403 19:21:54.687300  9154 net.cpp:425] inception_4a/relu_3x3_reduce <- inception_4a/3x3_reduce
I0403 19:21:54.687319  9154 net.cpp:386] inception_4a/relu_3x3_reduce -> inception_4a/3x3_reduce (in-place)
I0403 19:21:54.687499  9154 net.cpp:141] Setting up inception_4a/relu_3x3_reduce
I0403 19:21:54.687525  9154 net.cpp:148] Top shape: 24 96 14 14 (451584)
I0403 19:21:54.687539  9154 net.cpp:156] Memory required for data: 865236000
I0403 19:21:54.687554  9154 layer_factory.hpp:77] Creating layer inception_4a/3x3
I0403 19:21:54.687577  9154 net.cpp:91] Creating Layer inception_4a/3x3
I0403 19:21:54.687594  9154 net.cpp:425] inception_4a/3x3 <- inception_4a/3x3_reduce
I0403 19:21:54.687616  9154 net.cpp:399] inception_4a/3x3 -> inception_4a/3x3
I0403 19:21:54.690361  9154 net.cpp:141] Setting up inception_4a/3x3
I0403 19:21:54.690392  9154 net.cpp:148] Top shape: 24 208 14 14 (978432)
I0403 19:21:54.690407  9154 net.cpp:156] Memory required for data: 869149728
I0403 19:21:54.690426  9154 layer_factory.hpp:77] Creating layer inception_4a/relu_3x3
I0403 19:21:54.690449  9154 net.cpp:91] Creating Layer inception_4a/relu_3x3
I0403 19:21:54.690466  9154 net.cpp:425] inception_4a/relu_3x3 <- inception_4a/3x3
I0403 19:21:54.690485  9154 net.cpp:386] inception_4a/relu_3x3 -> inception_4a/3x3 (in-place)
I0403 19:21:54.690773  9154 net.cpp:141] Setting up inception_4a/relu_3x3
I0403 19:21:54.690801  9154 net.cpp:148] Top shape: 24 208 14 14 (978432)
I0403 19:21:54.690816  9154 net.cpp:156] Memory required for data: 873063456
I0403 19:21:54.690831  9154 layer_factory.hpp:77] Creating layer inception_4a/5x5_reduce
I0403 19:21:54.690855  9154 net.cpp:91] Creating Layer inception_4a/5x5_reduce
I0403 19:21:54.690872  9154 net.cpp:425] inception_4a/5x5_reduce <- pool3/3x3_s2_pool3/3x3_s2_0_split_2
I0403 19:21:54.690894  9154 net.cpp:399] inception_4a/5x5_reduce -> inception_4a/5x5_reduce
I0403 19:21:54.691938  9154 net.cpp:141] Setting up inception_4a/5x5_reduce
I0403 19:21:54.691967  9154 net.cpp:148] Top shape: 24 16 14 14 (75264)
I0403 19:21:54.691982  9154 net.cpp:156] Memory required for data: 873364512
I0403 19:21:54.692003  9154 layer_factory.hpp:77] Creating layer inception_4a/relu_5x5_reduce
I0403 19:21:54.692023  9154 net.cpp:91] Creating Layer inception_4a/relu_5x5_reduce
I0403 19:21:54.692040  9154 net.cpp:425] inception_4a/relu_5x5_reduce <- inception_4a/5x5_reduce
I0403 19:21:54.692059  9154 net.cpp:386] inception_4a/relu_5x5_reduce -> inception_4a/5x5_reduce (in-place)
I0403 19:21:54.692237  9154 net.cpp:141] Setting up inception_4a/relu_5x5_reduce
I0403 19:21:54.692266  9154 net.cpp:148] Top shape: 24 16 14 14 (75264)
I0403 19:21:54.692294  9154 net.cpp:156] Memory required for data: 873665568
I0403 19:21:54.692311  9154 layer_factory.hpp:77] Creating layer inception_4a/5x5
I0403 19:21:54.692333  9154 net.cpp:91] Creating Layer inception_4a/5x5
I0403 19:21:54.692351  9154 net.cpp:425] inception_4a/5x5 <- inception_4a/5x5_reduce
I0403 19:21:54.692370  9154 net.cpp:399] inception_4a/5x5 -> inception_4a/5x5
I0403 19:21:54.693495  9154 net.cpp:141] Setting up inception_4a/5x5
I0403 19:21:54.693526  9154 net.cpp:148] Top shape: 24 48 14 14 (225792)
I0403 19:21:54.693544  9154 net.cpp:156] Memory required for data: 874568736
I0403 19:21:54.693563  9154 layer_factory.hpp:77] Creating layer inception_4a/relu_5x5
I0403 19:21:54.693581  9154 net.cpp:91] Creating Layer inception_4a/relu_5x5
I0403 19:21:54.693598  9154 net.cpp:425] inception_4a/relu_5x5 <- inception_4a/5x5
I0403 19:21:54.693619  9154 net.cpp:386] inception_4a/relu_5x5 -> inception_4a/5x5 (in-place)
I0403 19:21:54.693809  9154 net.cpp:141] Setting up inception_4a/relu_5x5
I0403 19:21:54.693835  9154 net.cpp:148] Top shape: 24 48 14 14 (225792)
I0403 19:21:54.693851  9154 net.cpp:156] Memory required for data: 875471904
I0403 19:21:54.693866  9154 layer_factory.hpp:77] Creating layer inception_4a/pool
I0403 19:21:54.693884  9154 net.cpp:91] Creating Layer inception_4a/pool
I0403 19:21:54.693902  9154 net.cpp:425] inception_4a/pool <- pool3/3x3_s2_pool3/3x3_s2_0_split_3
I0403 19:21:54.693922  9154 net.cpp:399] inception_4a/pool -> inception_4a/pool
I0403 19:21:54.693987  9154 net.cpp:141] Setting up inception_4a/pool
I0403 19:21:54.694012  9154 net.cpp:148] Top shape: 24 480 14 14 (2257920)
I0403 19:21:54.694028  9154 net.cpp:156] Memory required for data: 884503584
I0403 19:21:54.694044  9154 layer_factory.hpp:77] Creating layer inception_4a/pool_proj
I0403 19:21:54.694070  9154 net.cpp:91] Creating Layer inception_4a/pool_proj
I0403 19:21:54.694089  9154 net.cpp:425] inception_4a/pool_proj <- inception_4a/pool
I0403 19:21:54.694108  9154 net.cpp:399] inception_4a/pool_proj -> inception_4a/pool_proj
I0403 19:21:54.695339  9154 net.cpp:141] Setting up inception_4a/pool_proj
I0403 19:21:54.695371  9154 net.cpp:148] Top shape: 24 64 14 14 (301056)
I0403 19:21:54.695404  9154 net.cpp:156] Memory required for data: 885707808
I0403 19:21:54.695425  9154 layer_factory.hpp:77] Creating layer inception_4a/relu_pool_proj
I0403 19:21:54.695443  9154 net.cpp:91] Creating Layer inception_4a/relu_pool_proj
I0403 19:21:54.695461  9154 net.cpp:425] inception_4a/relu_pool_proj <- inception_4a/pool_proj
I0403 19:21:54.695482  9154 net.cpp:386] inception_4a/relu_pool_proj -> inception_4a/pool_proj (in-place)
I0403 19:21:54.695778  9154 net.cpp:141] Setting up inception_4a/relu_pool_proj
I0403 19:21:54.695808  9154 net.cpp:148] Top shape: 24 64 14 14 (301056)
I0403 19:21:54.695825  9154 net.cpp:156] Memory required for data: 886912032
I0403 19:21:54.695840  9154 layer_factory.hpp:77] Creating layer inception_4a/output
I0403 19:21:54.695858  9154 net.cpp:91] Creating Layer inception_4a/output
I0403 19:21:54.695875  9154 net.cpp:425] inception_4a/output <- inception_4a/1x1
I0403 19:21:54.695893  9154 net.cpp:425] inception_4a/output <- inception_4a/3x3
I0403 19:21:54.695909  9154 net.cpp:425] inception_4a/output <- inception_4a/5x5
I0403 19:21:54.695926  9154 net.cpp:425] inception_4a/output <- inception_4a/pool_proj
I0403 19:21:54.695946  9154 net.cpp:399] inception_4a/output -> inception_4a/output
I0403 19:21:54.695993  9154 net.cpp:141] Setting up inception_4a/output
I0403 19:21:54.696017  9154 net.cpp:148] Top shape: 24 512 14 14 (2408448)
I0403 19:21:54.696033  9154 net.cpp:156] Memory required for data: 896545824
I0403 19:21:54.696048  9154 layer_factory.hpp:77] Creating layer inception_4a/output_inception_4a/output_0_split
I0403 19:21:54.696069  9154 net.cpp:91] Creating Layer inception_4a/output_inception_4a/output_0_split
I0403 19:21:54.696086  9154 net.cpp:425] inception_4a/output_inception_4a/output_0_split <- inception_4a/output
I0403 19:21:54.696105  9154 net.cpp:399] inception_4a/output_inception_4a/output_0_split -> inception_4a/output_inception_4a/output_0_split_0
I0403 19:21:54.696128  9154 net.cpp:399] inception_4a/output_inception_4a/output_0_split -> inception_4a/output_inception_4a/output_0_split_1
I0403 19:21:54.696151  9154 net.cpp:399] inception_4a/output_inception_4a/output_0_split -> inception_4a/output_inception_4a/output_0_split_2
I0403 19:21:54.696171  9154 net.cpp:399] inception_4a/output_inception_4a/output_0_split -> inception_4a/output_inception_4a/output_0_split_3
I0403 19:21:54.696192  9154 net.cpp:399] inception_4a/output_inception_4a/output_0_split -> inception_4a/output_inception_4a/output_0_split_4
I0403 19:21:54.696295  9154 net.cpp:141] Setting up inception_4a/output_inception_4a/output_0_split
I0403 19:21:54.696321  9154 net.cpp:148] Top shape: 24 512 14 14 (2408448)
I0403 19:21:54.696337  9154 net.cpp:148] Top shape: 24 512 14 14 (2408448)
I0403 19:21:54.696354  9154 net.cpp:148] Top shape: 24 512 14 14 (2408448)
I0403 19:21:54.696370  9154 net.cpp:148] Top shape: 24 512 14 14 (2408448)
I0403 19:21:54.696388  9154 net.cpp:148] Top shape: 24 512 14 14 (2408448)
I0403 19:21:54.696403  9154 net.cpp:156] Memory required for data: 944714784
I0403 19:21:54.696419  9154 layer_factory.hpp:77] Creating layer loss1/ave_pool
I0403 19:21:54.696439  9154 net.cpp:91] Creating Layer loss1/ave_pool
I0403 19:21:54.696456  9154 net.cpp:425] loss1/ave_pool <- inception_4a/output_inception_4a/output_0_split_0
I0403 19:21:54.696475  9154 net.cpp:399] loss1/ave_pool -> loss1/ave_pool
I0403 19:21:54.696691  9154 net.cpp:141] Setting up loss1/ave_pool
I0403 19:21:54.696720  9154 net.cpp:148] Top shape: 24 512 4 4 (196608)
I0403 19:21:54.696738  9154 net.cpp:156] Memory required for data: 945501216
I0403 19:21:54.696753  9154 layer_factory.hpp:77] Creating layer loss1/conv
I0403 19:21:54.696776  9154 net.cpp:91] Creating Layer loss1/conv
I0403 19:21:54.696794  9154 net.cpp:425] loss1/conv <- loss1/ave_pool
I0403 19:21:54.696813  9154 net.cpp:399] loss1/conv -> loss1/conv
I0403 19:21:54.698305  9154 net.cpp:141] Setting up loss1/conv
I0403 19:21:54.698335  9154 net.cpp:148] Top shape: 24 128 4 4 (49152)
I0403 19:21:54.698351  9154 net.cpp:156] Memory required for data: 945697824
I0403 19:21:54.698386  9154 layer_factory.hpp:77] Creating layer loss1/relu_conv
I0403 19:21:54.698408  9154 net.cpp:91] Creating Layer loss1/relu_conv
I0403 19:21:54.698428  9154 net.cpp:425] loss1/relu_conv <- loss1/conv
I0403 19:21:54.698447  9154 net.cpp:386] loss1/relu_conv -> loss1/conv (in-place)
I0403 19:21:54.698740  9154 net.cpp:141] Setting up loss1/relu_conv
I0403 19:21:54.698768  9154 net.cpp:148] Top shape: 24 128 4 4 (49152)
I0403 19:21:54.698784  9154 net.cpp:156] Memory required for data: 945894432
I0403 19:21:54.698799  9154 layer_factory.hpp:77] Creating layer loss1/fc
I0403 19:21:54.698827  9154 net.cpp:91] Creating Layer loss1/fc
I0403 19:21:54.698846  9154 net.cpp:425] loss1/fc <- loss1/conv
I0403 19:21:54.698865  9154 net.cpp:399] loss1/fc -> loss1/fc
I0403 19:21:54.717133  9154 net.cpp:141] Setting up loss1/fc
I0403 19:21:54.717191  9154 net.cpp:148] Top shape: 24 1024 (24576)
I0403 19:21:54.717207  9154 net.cpp:156] Memory required for data: 945992736
I0403 19:21:54.717229  9154 layer_factory.hpp:77] Creating layer loss1/relu_fc
I0403 19:21:54.717249  9154 net.cpp:91] Creating Layer loss1/relu_fc
I0403 19:21:54.717267  9154 net.cpp:425] loss1/relu_fc <- loss1/fc
I0403 19:21:54.717293  9154 net.cpp:386] loss1/relu_fc -> loss1/fc (in-place)
I0403 19:21:54.717506  9154 net.cpp:141] Setting up loss1/relu_fc
I0403 19:21:54.717532  9154 net.cpp:148] Top shape: 24 1024 (24576)
I0403 19:21:54.717547  9154 net.cpp:156] Memory required for data: 946091040
I0403 19:21:54.717562  9154 layer_factory.hpp:77] Creating layer loss1/drop_fc
I0403 19:21:54.717592  9154 net.cpp:91] Creating Layer loss1/drop_fc
I0403 19:21:54.717609  9154 net.cpp:425] loss1/drop_fc <- loss1/fc
I0403 19:21:54.717629  9154 net.cpp:386] loss1/drop_fc -> loss1/fc (in-place)
I0403 19:21:54.717684  9154 net.cpp:141] Setting up loss1/drop_fc
I0403 19:21:54.717710  9154 net.cpp:148] Top shape: 24 1024 (24576)
I0403 19:21:54.717725  9154 net.cpp:156] Memory required for data: 946189344
I0403 19:21:54.717741  9154 layer_factory.hpp:77] Creating layer loss1/classifier_plantvillage
I0403 19:21:54.717761  9154 net.cpp:91] Creating Layer loss1/classifier_plantvillage
I0403 19:21:54.717777  9154 net.cpp:425] loss1/classifier_plantvillage <- loss1/fc
I0403 19:21:54.717799  9154 net.cpp:399] loss1/classifier_plantvillage -> loss1/classifier_plantvillage
I0403 19:21:54.718760  9154 net.cpp:141] Setting up loss1/classifier_plantvillage
I0403 19:21:54.718788  9154 net.cpp:148] Top shape: 24 38 (912)
I0403 19:21:54.718804  9154 net.cpp:156] Memory required for data: 946192992
I0403 19:21:54.718822  9154 layer_factory.hpp:77] Creating layer loss1/classifier_plantvillage_loss1/classifier_plantvillage_0_split
I0403 19:21:54.718842  9154 net.cpp:91] Creating Layer loss1/classifier_plantvillage_loss1/classifier_plantvillage_0_split
I0403 19:21:54.718858  9154 net.cpp:425] loss1/classifier_plantvillage_loss1/classifier_plantvillage_0_split <- loss1/classifier_plantvillage
I0403 19:21:54.718878  9154 net.cpp:399] loss1/classifier_plantvillage_loss1/classifier_plantvillage_0_split -> loss1/classifier_plantvillage_loss1/classifier_plantvillage_0_split_0
I0403 19:21:54.718899  9154 net.cpp:399] loss1/classifier_plantvillage_loss1/classifier_plantvillage_0_split -> loss1/classifier_plantvillage_loss1/classifier_plantvillage_0_split_1
I0403 19:21:54.718919  9154 net.cpp:399] loss1/classifier_plantvillage_loss1/classifier_plantvillage_0_split -> loss1/classifier_plantvillage_loss1/classifier_plantvillage_0_split_2
I0403 19:21:54.718989  9154 net.cpp:141] Setting up loss1/classifier_plantvillage_loss1/classifier_plantvillage_0_split
I0403 19:21:54.719012  9154 net.cpp:148] Top shape: 24 38 (912)
I0403 19:21:54.719028  9154 net.cpp:148] Top shape: 24 38 (912)
I0403 19:21:54.719044  9154 net.cpp:148] Top shape: 24 38 (912)
I0403 19:21:54.719059  9154 net.cpp:156] Memory required for data: 946203936
I0403 19:21:54.719074  9154 layer_factory.hpp:77] Creating layer inception_4b/1x1
I0403 19:21:54.719097  9154 net.cpp:91] Creating Layer inception_4b/1x1
I0403 19:21:54.719137  9154 net.cpp:425] inception_4b/1x1 <- inception_4a/output_inception_4a/output_0_split_1
I0403 19:21:54.719158  9154 net.cpp:399] inception_4b/1x1 -> inception_4b/1x1
I0403 19:21:54.720880  9154 net.cpp:141] Setting up inception_4b/1x1
I0403 19:21:54.720908  9154 net.cpp:148] Top shape: 24 160 14 14 (752640)
I0403 19:21:54.720924  9154 net.cpp:156] Memory required for data: 949214496
I0403 19:21:54.720942  9154 layer_factory.hpp:77] Creating layer inception_4b/relu_1x1
I0403 19:21:54.720963  9154 net.cpp:91] Creating Layer inception_4b/relu_1x1
I0403 19:21:54.720980  9154 net.cpp:425] inception_4b/relu_1x1 <- inception_4b/1x1
I0403 19:21:54.720999  9154 net.cpp:386] inception_4b/relu_1x1 -> inception_4b/1x1 (in-place)
I0403 19:21:54.721180  9154 net.cpp:141] Setting up inception_4b/relu_1x1
I0403 19:21:54.721209  9154 net.cpp:148] Top shape: 24 160 14 14 (752640)
I0403 19:21:54.721225  9154 net.cpp:156] Memory required for data: 952225056
I0403 19:21:54.721240  9154 layer_factory.hpp:77] Creating layer inception_4b/3x3_reduce
I0403 19:21:54.721262  9154 net.cpp:91] Creating Layer inception_4b/3x3_reduce
I0403 19:21:54.721285  9154 net.cpp:425] inception_4b/3x3_reduce <- inception_4a/output_inception_4a/output_0_split_2
I0403 19:21:54.721305  9154 net.cpp:399] inception_4b/3x3_reduce -> inception_4b/3x3_reduce
I0403 19:21:54.722702  9154 net.cpp:141] Setting up inception_4b/3x3_reduce
I0403 19:21:54.722733  9154 net.cpp:148] Top shape: 24 112 14 14 (526848)
I0403 19:21:54.722750  9154 net.cpp:156] Memory required for data: 954332448
I0403 19:21:54.722769  9154 layer_factory.hpp:77] Creating layer inception_4b/relu_3x3_reduce
I0403 19:21:54.722787  9154 net.cpp:91] Creating Layer inception_4b/relu_3x3_reduce
I0403 19:21:54.722803  9154 net.cpp:425] inception_4b/relu_3x3_reduce <- inception_4b/3x3_reduce
I0403 19:21:54.722820  9154 net.cpp:386] inception_4b/relu_3x3_reduce -> inception_4b/3x3_reduce (in-place)
I0403 19:21:54.723112  9154 net.cpp:141] Setting up inception_4b/relu_3x3_reduce
I0403 19:21:54.723141  9154 net.cpp:148] Top shape: 24 112 14 14 (526848)
I0403 19:21:54.723157  9154 net.cpp:156] Memory required for data: 956439840
I0403 19:21:54.723173  9154 layer_factory.hpp:77] Creating layer inception_4b/3x3
I0403 19:21:54.723196  9154 net.cpp:91] Creating Layer inception_4b/3x3
I0403 19:21:54.723217  9154 net.cpp:425] inception_4b/3x3 <- inception_4b/3x3_reduce
I0403 19:21:54.723235  9154 net.cpp:399] inception_4b/3x3 -> inception_4b/3x3
I0403 19:21:54.726456  9154 net.cpp:141] Setting up inception_4b/3x3
I0403 19:21:54.726487  9154 net.cpp:148] Top shape: 24 224 14 14 (1053696)
I0403 19:21:54.726523  9154 net.cpp:156] Memory required for data: 960654624
I0403 19:21:54.726543  9154 layer_factory.hpp:77] Creating layer inception_4b/relu_3x3
I0403 19:21:54.726560  9154 net.cpp:91] Creating Layer inception_4b/relu_3x3
I0403 19:21:54.726618  9154 net.cpp:425] inception_4b/relu_3x3 <- inception_4b/3x3
I0403 19:21:54.726639  9154 net.cpp:386] inception_4b/relu_3x3 -> inception_4b/3x3 (in-place)
I0403 19:21:54.726821  9154 net.cpp:141] Setting up inception_4b/relu_3x3
I0403 19:21:54.726846  9154 net.cpp:148] Top shape: 24 224 14 14 (1053696)
I0403 19:21:54.726871  9154 net.cpp:156] Memory required for data: 964869408
I0403 19:21:54.726912  9154 layer_factory.hpp:77] Creating layer inception_4b/5x5_reduce
I0403 19:21:54.726963  9154 net.cpp:91] Creating Layer inception_4b/5x5_reduce
I0403 19:21:54.726989  9154 net.cpp:425] inception_4b/5x5_reduce <- inception_4a/output_inception_4a/output_0_split_3
I0403 19:21:54.727021  9154 net.cpp:399] inception_4b/5x5_reduce -> inception_4b/5x5_reduce
I0403 19:21:54.728129  9154 net.cpp:141] Setting up inception_4b/5x5_reduce
I0403 19:21:54.728157  9154 net.cpp:148] Top shape: 24 24 14 14 (112896)
I0403 19:21:54.728173  9154 net.cpp:156] Memory required for data: 965320992
I0403 19:21:54.728190  9154 layer_factory.hpp:77] Creating layer inception_4b/relu_5x5_reduce
I0403 19:21:54.728211  9154 net.cpp:91] Creating Layer inception_4b/relu_5x5_reduce
I0403 19:21:54.728242  9154 net.cpp:425] inception_4b/relu_5x5_reduce <- inception_4b/5x5_reduce
I0403 19:21:54.728260  9154 net.cpp:386] inception_4b/relu_5x5_reduce -> inception_4b/5x5_reduce (in-place)
I0403 19:21:54.728447  9154 net.cpp:141] Setting up inception_4b/relu_5x5_reduce
I0403 19:21:54.728476  9154 net.cpp:148] Top shape: 24 24 14 14 (112896)
I0403 19:21:54.728492  9154 net.cpp:156] Memory required for data: 965772576
I0403 19:21:54.728505  9154 layer_factory.hpp:77] Creating layer inception_4b/5x5
I0403 19:21:54.728528  9154 net.cpp:91] Creating Layer inception_4b/5x5
I0403 19:21:54.728544  9154 net.cpp:425] inception_4b/5x5 <- inception_4b/5x5_reduce
I0403 19:21:54.728562  9154 net.cpp:399] inception_4b/5x5 -> inception_4b/5x5
I0403 19:21:54.729784  9154 net.cpp:141] Setting up inception_4b/5x5
I0403 19:21:54.729815  9154 net.cpp:148] Top shape: 24 64 14 14 (301056)
I0403 19:21:54.729830  9154 net.cpp:156] Memory required for data: 966976800
I0403 19:21:54.729847  9154 layer_factory.hpp:77] Creating layer inception_4b/relu_5x5
I0403 19:21:54.729867  9154 net.cpp:91] Creating Layer inception_4b/relu_5x5
I0403 19:21:54.729884  9154 net.cpp:425] inception_4b/relu_5x5 <- inception_4b/5x5
I0403 19:21:54.729902  9154 net.cpp:386] inception_4b/relu_5x5 -> inception_4b/5x5 (in-place)
I0403 19:21:54.730185  9154 net.cpp:141] Setting up inception_4b/relu_5x5
I0403 19:21:54.730212  9154 net.cpp:148] Top shape: 24 64 14 14 (301056)
I0403 19:21:54.730239  9154 net.cpp:156] Memory required for data: 968181024
I0403 19:21:54.730254  9154 layer_factory.hpp:77] Creating layer inception_4b/pool
I0403 19:21:54.730291  9154 net.cpp:91] Creating Layer inception_4b/pool
I0403 19:21:54.730310  9154 net.cpp:425] inception_4b/pool <- inception_4a/output_inception_4a/output_0_split_4
I0403 19:21:54.730329  9154 net.cpp:399] inception_4b/pool -> inception_4b/pool
I0403 19:21:54.730399  9154 net.cpp:141] Setting up inception_4b/pool
I0403 19:21:54.730423  9154 net.cpp:148] Top shape: 24 512 14 14 (2408448)
I0403 19:21:54.730439  9154 net.cpp:156] Memory required for data: 977814816
I0403 19:21:54.730455  9154 layer_factory.hpp:77] Creating layer inception_4b/pool_proj
I0403 19:21:54.730481  9154 net.cpp:91] Creating Layer inception_4b/pool_proj
I0403 19:21:54.730499  9154 net.cpp:425] inception_4b/pool_proj <- inception_4b/pool
I0403 19:21:54.730520  9154 net.cpp:399] inception_4b/pool_proj -> inception_4b/pool_proj
I0403 19:21:54.731783  9154 net.cpp:141] Setting up inception_4b/pool_proj
I0403 19:21:54.731812  9154 net.cpp:148] Top shape: 24 64 14 14 (301056)
I0403 19:21:54.731827  9154 net.cpp:156] Memory required for data: 979019040
I0403 19:21:54.731845  9154 layer_factory.hpp:77] Creating layer inception_4b/relu_pool_proj
I0403 19:21:54.731865  9154 net.cpp:91] Creating Layer inception_4b/relu_pool_proj
I0403 19:21:54.731884  9154 net.cpp:425] inception_4b/relu_pool_proj <- inception_4b/pool_proj
I0403 19:21:54.731900  9154 net.cpp:386] inception_4b/relu_pool_proj -> inception_4b/pool_proj (in-place)
I0403 19:21:54.732084  9154 net.cpp:141] Setting up inception_4b/relu_pool_proj
I0403 19:21:54.732112  9154 net.cpp:148] Top shape: 24 64 14 14 (301056)
I0403 19:21:54.732127  9154 net.cpp:156] Memory required for data: 980223264
I0403 19:21:54.732142  9154 layer_factory.hpp:77] Creating layer inception_4b/output
I0403 19:21:54.732161  9154 net.cpp:91] Creating Layer inception_4b/output
I0403 19:21:54.732177  9154 net.cpp:425] inception_4b/output <- inception_4b/1x1
I0403 19:21:54.732192  9154 net.cpp:425] inception_4b/output <- inception_4b/3x3
I0403 19:21:54.732218  9154 net.cpp:425] inception_4b/output <- inception_4b/5x5
I0403 19:21:54.732234  9154 net.cpp:425] inception_4b/output <- inception_4b/pool_proj
I0403 19:21:54.732250  9154 net.cpp:399] inception_4b/output -> inception_4b/output
I0403 19:21:54.732309  9154 net.cpp:141] Setting up inception_4b/output
I0403 19:21:54.732334  9154 net.cpp:148] Top shape: 24 512 14 14 (2408448)
I0403 19:21:54.732349  9154 net.cpp:156] Memory required for data: 989857056
I0403 19:21:54.732379  9154 layer_factory.hpp:77] Creating layer inception_4b/output_inception_4b/output_0_split
I0403 19:21:54.732400  9154 net.cpp:91] Creating Layer inception_4b/output_inception_4b/output_0_split
I0403 19:21:54.732416  9154 net.cpp:425] inception_4b/output_inception_4b/output_0_split <- inception_4b/output
I0403 19:21:54.732434  9154 net.cpp:399] inception_4b/output_inception_4b/output_0_split -> inception_4b/output_inception_4b/output_0_split_0
I0403 19:21:54.732455  9154 net.cpp:399] inception_4b/output_inception_4b/output_0_split -> inception_4b/output_inception_4b/output_0_split_1
I0403 19:21:54.732476  9154 net.cpp:399] inception_4b/output_inception_4b/output_0_split -> inception_4b/output_inception_4b/output_0_split_2
I0403 19:21:54.732499  9154 net.cpp:399] inception_4b/output_inception_4b/output_0_split -> inception_4b/output_inception_4b/output_0_split_3
I0403 19:21:54.732588  9154 net.cpp:141] Setting up inception_4b/output_inception_4b/output_0_split
I0403 19:21:54.732610  9154 net.cpp:148] Top shape: 24 512 14 14 (2408448)
I0403 19:21:54.732627  9154 net.cpp:148] Top shape: 24 512 14 14 (2408448)
I0403 19:21:54.732643  9154 net.cpp:148] Top shape: 24 512 14 14 (2408448)
I0403 19:21:54.732659  9154 net.cpp:148] Top shape: 24 512 14 14 (2408448)
I0403 19:21:54.732673  9154 net.cpp:156] Memory required for data: 1028392224
I0403 19:21:54.732687  9154 layer_factory.hpp:77] Creating layer inception_4c/1x1
I0403 19:21:54.732710  9154 net.cpp:91] Creating Layer inception_4c/1x1
I0403 19:21:54.732728  9154 net.cpp:425] inception_4c/1x1 <- inception_4b/output_inception_4b/output_0_split_0
I0403 19:21:54.732749  9154 net.cpp:399] inception_4c/1x1 -> inception_4c/1x1
I0403 19:21:54.734237  9154 net.cpp:141] Setting up inception_4c/1x1
I0403 19:21:54.734268  9154 net.cpp:148] Top shape: 24 128 14 14 (602112)
I0403 19:21:54.734294  9154 net.cpp:156] Memory required for data: 1030800672
I0403 19:21:54.734314  9154 layer_factory.hpp:77] Creating layer inception_4c/relu_1x1
I0403 19:21:54.734333  9154 net.cpp:91] Creating Layer inception_4c/relu_1x1
I0403 19:21:54.734349  9154 net.cpp:425] inception_4c/relu_1x1 <- inception_4c/1x1
I0403 19:21:54.734371  9154 net.cpp:386] inception_4c/relu_1x1 -> inception_4c/1x1 (in-place)
I0403 19:21:54.734557  9154 net.cpp:141] Setting up inception_4c/relu_1x1
I0403 19:21:54.734586  9154 net.cpp:148] Top shape: 24 128 14 14 (602112)
I0403 19:21:54.734601  9154 net.cpp:156] Memory required for data: 1033209120
I0403 19:21:54.734616  9154 layer_factory.hpp:77] Creating layer inception_4c/3x3_reduce
I0403 19:21:54.734637  9154 net.cpp:91] Creating Layer inception_4c/3x3_reduce
I0403 19:21:54.734655  9154 net.cpp:425] inception_4c/3x3_reduce <- inception_4b/output_inception_4b/output_0_split_1
I0403 19:21:54.734679  9154 net.cpp:399] inception_4c/3x3_reduce -> inception_4c/3x3_reduce
I0403 19:21:54.736666  9154 net.cpp:141] Setting up inception_4c/3x3_reduce
I0403 19:21:54.736696  9154 net.cpp:148] Top shape: 24 128 14 14 (602112)
I0403 19:21:54.736712  9154 net.cpp:156] Memory required for data: 1035617568
I0403 19:21:54.736731  9154 layer_factory.hpp:77] Creating layer inception_4c/relu_3x3_reduce
I0403 19:21:54.736752  9154 net.cpp:91] Creating Layer inception_4c/relu_3x3_reduce
I0403 19:21:54.736768  9154 net.cpp:425] inception_4c/relu_3x3_reduce <- inception_4c/3x3_reduce
I0403 19:21:54.736786  9154 net.cpp:386] inception_4c/relu_3x3_reduce -> inception_4c/3x3_reduce (in-place)
I0403 19:21:54.737078  9154 net.cpp:141] Setting up inception_4c/relu_3x3_reduce
I0403 19:21:54.737107  9154 net.cpp:148] Top shape: 24 128 14 14 (602112)
I0403 19:21:54.737121  9154 net.cpp:156] Memory required for data: 1038026016
I0403 19:21:54.737138  9154 layer_factory.hpp:77] Creating layer inception_4c/3x3
I0403 19:21:54.737162  9154 net.cpp:91] Creating Layer inception_4c/3x3
I0403 19:21:54.737184  9154 net.cpp:425] inception_4c/3x3 <- inception_4c/3x3_reduce
I0403 19:21:54.737205  9154 net.cpp:399] inception_4c/3x3 -> inception_4c/3x3
I0403 19:21:54.740844  9154 net.cpp:141] Setting up inception_4c/3x3
I0403 19:21:54.740886  9154 net.cpp:148] Top shape: 24 256 14 14 (1204224)
I0403 19:21:54.740903  9154 net.cpp:156] Memory required for data: 1042842912
I0403 19:21:54.740936  9154 layer_factory.hpp:77] Creating layer inception_4c/relu_3x3
I0403 19:21:54.740958  9154 net.cpp:91] Creating Layer inception_4c/relu_3x3
I0403 19:21:54.740977  9154 net.cpp:425] inception_4c/relu_3x3 <- inception_4c/3x3
I0403 19:21:54.740994  9154 net.cpp:386] inception_4c/relu_3x3 -> inception_4c/3x3 (in-place)
I0403 19:21:54.741173  9154 net.cpp:141] Setting up inception_4c/relu_3x3
I0403 19:21:54.741199  9154 net.cpp:148] Top shape: 24 256 14 14 (1204224)
I0403 19:21:54.741216  9154 net.cpp:156] Memory required for data: 1047659808
I0403 19:21:54.741230  9154 layer_factory.hpp:77] Creating layer inception_4c/5x5_reduce
I0403 19:21:54.741252  9154 net.cpp:91] Creating Layer inception_4c/5x5_reduce
I0403 19:21:54.741273  9154 net.cpp:425] inception_4c/5x5_reduce <- inception_4b/output_inception_4b/output_0_split_2
I0403 19:21:54.741297  9154 net.cpp:399] inception_4c/5x5_reduce -> inception_4c/5x5_reduce
I0403 19:21:54.742393  9154 net.cpp:141] Setting up inception_4c/5x5_reduce
I0403 19:21:54.742420  9154 net.cpp:148] Top shape: 24 24 14 14 (112896)
I0403 19:21:54.742435  9154 net.cpp:156] Memory required for data: 1048111392
I0403 19:21:54.742454  9154 layer_factory.hpp:77] Creating layer inception_4c/relu_5x5_reduce
I0403 19:21:54.742473  9154 net.cpp:91] Creating Layer inception_4c/relu_5x5_reduce
I0403 19:21:54.742491  9154 net.cpp:425] inception_4c/relu_5x5_reduce <- inception_4c/5x5_reduce
I0403 19:21:54.742508  9154 net.cpp:386] inception_4c/relu_5x5_reduce -> inception_4c/5x5_reduce (in-place)
I0403 19:21:54.742693  9154 net.cpp:141] Setting up inception_4c/relu_5x5_reduce
I0403 19:21:54.742720  9154 net.cpp:148] Top shape: 24 24 14 14 (112896)
I0403 19:21:54.742735  9154 net.cpp:156] Memory required for data: 1048562976
I0403 19:21:54.742750  9154 layer_factory.hpp:77] Creating layer inception_4c/5x5
I0403 19:21:54.742772  9154 net.cpp:91] Creating Layer inception_4c/5x5
I0403 19:21:54.742789  9154 net.cpp:425] inception_4c/5x5 <- inception_4c/5x5_reduce
I0403 19:21:54.742808  9154 net.cpp:399] inception_4c/5x5 -> inception_4c/5x5
I0403 19:21:54.744047  9154 net.cpp:141] Setting up inception_4c/5x5
I0403 19:21:54.744077  9154 net.cpp:148] Top shape: 24 64 14 14 (301056)
I0403 19:21:54.744094  9154 net.cpp:156] Memory required for data: 1049767200
I0403 19:21:54.744112  9154 layer_factory.hpp:77] Creating layer inception_4c/relu_5x5
I0403 19:21:54.744129  9154 net.cpp:91] Creating Layer inception_4c/relu_5x5
I0403 19:21:54.744145  9154 net.cpp:425] inception_4c/relu_5x5 <- inception_4c/5x5
I0403 19:21:54.744165  9154 net.cpp:386] inception_4c/relu_5x5 -> inception_4c/5x5 (in-place)
I0403 19:21:54.744475  9154 net.cpp:141] Setting up inception_4c/relu_5x5
I0403 19:21:54.744505  9154 net.cpp:148] Top shape: 24 64 14 14 (301056)
I0403 19:21:54.744521  9154 net.cpp:156] Memory required for data: 1050971424
I0403 19:21:54.744536  9154 layer_factory.hpp:77] Creating layer inception_4c/pool
I0403 19:21:54.744566  9154 net.cpp:91] Creating Layer inception_4c/pool
I0403 19:21:54.744582  9154 net.cpp:425] inception_4c/pool <- inception_4b/output_inception_4b/output_0_split_3
I0403 19:21:54.744602  9154 net.cpp:399] inception_4c/pool -> inception_4c/pool
I0403 19:21:54.744669  9154 net.cpp:141] Setting up inception_4c/pool
I0403 19:21:54.744693  9154 net.cpp:148] Top shape: 24 512 14 14 (2408448)
I0403 19:21:54.744707  9154 net.cpp:156] Memory required for data: 1060605216
I0403 19:21:54.744721  9154 layer_factory.hpp:77] Creating layer inception_4c/pool_proj
I0403 19:21:54.744743  9154 net.cpp:91] Creating Layer inception_4c/pool_proj
I0403 19:21:54.744762  9154 net.cpp:425] inception_4c/pool_proj <- inception_4c/pool
I0403 19:21:54.744781  9154 net.cpp:399] inception_4c/pool_proj -> inception_4c/pool_proj
I0403 19:21:54.745998  9154 net.cpp:141] Setting up inception_4c/pool_proj
I0403 19:21:54.746026  9154 net.cpp:148] Top shape: 24 64 14 14 (301056)
I0403 19:21:54.746055  9154 net.cpp:156] Memory required for data: 1061809440
I0403 19:21:54.746074  9154 layer_factory.hpp:77] Creating layer inception_4c/relu_pool_proj
I0403 19:21:54.746095  9154 net.cpp:91] Creating Layer inception_4c/relu_pool_proj
I0403 19:21:54.746112  9154 net.cpp:425] inception_4c/relu_pool_proj <- inception_4c/pool_proj
I0403 19:21:54.746129  9154 net.cpp:386] inception_4c/relu_pool_proj -> inception_4c/pool_proj (in-place)
I0403 19:21:54.746323  9154 net.cpp:141] Setting up inception_4c/relu_pool_proj
I0403 19:21:54.746351  9154 net.cpp:148] Top shape: 24 64 14 14 (301056)
I0403 19:21:54.746366  9154 net.cpp:156] Memory required for data: 1063013664
I0403 19:21:54.746381  9154 layer_factory.hpp:77] Creating layer inception_4c/output
I0403 19:21:54.746398  9154 net.cpp:91] Creating Layer inception_4c/output
I0403 19:21:54.746413  9154 net.cpp:425] inception_4c/output <- inception_4c/1x1
I0403 19:21:54.746429  9154 net.cpp:425] inception_4c/output <- inception_4c/3x3
I0403 19:21:54.746445  9154 net.cpp:425] inception_4c/output <- inception_4c/5x5
I0403 19:21:54.746461  9154 net.cpp:425] inception_4c/output <- inception_4c/pool_proj
I0403 19:21:54.746477  9154 net.cpp:399] inception_4c/output -> inception_4c/output
I0403 19:21:54.746526  9154 net.cpp:141] Setting up inception_4c/output
I0403 19:21:54.746547  9154 net.cpp:148] Top shape: 24 512 14 14 (2408448)
I0403 19:21:54.746562  9154 net.cpp:156] Memory required for data: 1072647456
I0403 19:21:54.746584  9154 layer_factory.hpp:77] Creating layer inception_4c/output_inception_4c/output_0_split
I0403 19:21:54.746603  9154 net.cpp:91] Creating Layer inception_4c/output_inception_4c/output_0_split
I0403 19:21:54.746619  9154 net.cpp:425] inception_4c/output_inception_4c/output_0_split <- inception_4c/output
I0403 19:21:54.746636  9154 net.cpp:399] inception_4c/output_inception_4c/output_0_split -> inception_4c/output_inception_4c/output_0_split_0
I0403 19:21:54.746656  9154 net.cpp:399] inception_4c/output_inception_4c/output_0_split -> inception_4c/output_inception_4c/output_0_split_1
I0403 19:21:54.746675  9154 net.cpp:399] inception_4c/output_inception_4c/output_0_split -> inception_4c/output_inception_4c/output_0_split_2
I0403 19:21:54.746695  9154 net.cpp:399] inception_4c/output_inception_4c/output_0_split -> inception_4c/output_inception_4c/output_0_split_3
I0403 19:21:54.746780  9154 net.cpp:141] Setting up inception_4c/output_inception_4c/output_0_split
I0403 19:21:54.746803  9154 net.cpp:148] Top shape: 24 512 14 14 (2408448)
I0403 19:21:54.746820  9154 net.cpp:148] Top shape: 24 512 14 14 (2408448)
I0403 19:21:54.746835  9154 net.cpp:148] Top shape: 24 512 14 14 (2408448)
I0403 19:21:54.746851  9154 net.cpp:148] Top shape: 24 512 14 14 (2408448)
I0403 19:21:54.746865  9154 net.cpp:156] Memory required for data: 1111182624
I0403 19:21:54.746879  9154 layer_factory.hpp:77] Creating layer inception_4d/1x1
I0403 19:21:54.746901  9154 net.cpp:91] Creating Layer inception_4d/1x1
I0403 19:21:54.746918  9154 net.cpp:425] inception_4d/1x1 <- inception_4c/output_inception_4c/output_0_split_0
I0403 19:21:54.746939  9154 net.cpp:399] inception_4d/1x1 -> inception_4d/1x1
I0403 19:21:54.748337  9154 net.cpp:141] Setting up inception_4d/1x1
I0403 19:21:54.748366  9154 net.cpp:148] Top shape: 24 112 14 14 (526848)
I0403 19:21:54.748381  9154 net.cpp:156] Memory required for data: 1113290016
I0403 19:21:54.748399  9154 layer_factory.hpp:77] Creating layer inception_4d/relu_1x1
I0403 19:21:54.748416  9154 net.cpp:91] Creating Layer inception_4d/relu_1x1
I0403 19:21:54.748432  9154 net.cpp:425] inception_4d/relu_1x1 <- inception_4d/1x1
I0403 19:21:54.748452  9154 net.cpp:386] inception_4d/relu_1x1 -> inception_4d/1x1 (in-place)
I0403 19:21:54.748641  9154 net.cpp:141] Setting up inception_4d/relu_1x1
I0403 19:21:54.748667  9154 net.cpp:148] Top shape: 24 112 14 14 (526848)
I0403 19:21:54.748680  9154 net.cpp:156] Memory required for data: 1115397408
I0403 19:21:54.748695  9154 layer_factory.hpp:77] Creating layer inception_4d/3x3_reduce
I0403 19:21:54.748731  9154 net.cpp:91] Creating Layer inception_4d/3x3_reduce
I0403 19:21:54.748750  9154 net.cpp:425] inception_4d/3x3_reduce <- inception_4c/output_inception_4c/output_0_split_1
I0403 19:21:54.748772  9154 net.cpp:399] inception_4d/3x3_reduce -> inception_4d/3x3_reduce
I0403 19:21:54.750268  9154 net.cpp:141] Setting up inception_4d/3x3_reduce
I0403 19:21:54.750311  9154 net.cpp:148] Top shape: 24 144 14 14 (677376)
I0403 19:21:54.750327  9154 net.cpp:156] Memory required for data: 1118106912
I0403 19:21:54.750345  9154 layer_factory.hpp:77] Creating layer inception_4d/relu_3x3_reduce
I0403 19:21:54.750362  9154 net.cpp:91] Creating Layer inception_4d/relu_3x3_reduce
I0403 19:21:54.750377  9154 net.cpp:425] inception_4d/relu_3x3_reduce <- inception_4d/3x3_reduce
I0403 19:21:54.750396  9154 net.cpp:386] inception_4d/relu_3x3_reduce -> inception_4d/3x3_reduce (in-place)
I0403 19:21:54.750684  9154 net.cpp:141] Setting up inception_4d/relu_3x3_reduce
I0403 19:21:54.750711  9154 net.cpp:148] Top shape: 24 144 14 14 (677376)
I0403 19:21:54.750726  9154 net.cpp:156] Memory required for data: 1120816416
I0403 19:21:54.750741  9154 layer_factory.hpp:77] Creating layer inception_4d/3x3
I0403 19:21:54.750762  9154 net.cpp:91] Creating Layer inception_4d/3x3
I0403 19:21:54.750778  9154 net.cpp:425] inception_4d/3x3 <- inception_4d/3x3_reduce
I0403 19:21:54.750797  9154 net.cpp:399] inception_4d/3x3 -> inception_4d/3x3
I0403 19:21:54.754962  9154 net.cpp:141] Setting up inception_4d/3x3
I0403 19:21:54.754990  9154 net.cpp:148] Top shape: 24 288 14 14 (1354752)
I0403 19:21:54.755005  9154 net.cpp:156] Memory required for data: 1126235424
I0403 19:21:54.755023  9154 layer_factory.hpp:77] Creating layer inception_4d/relu_3x3
I0403 19:21:54.755043  9154 net.cpp:91] Creating Layer inception_4d/relu_3x3
I0403 19:21:54.755058  9154 net.cpp:425] inception_4d/relu_3x3 <- inception_4d/3x3
I0403 19:21:54.755074  9154 net.cpp:386] inception_4d/relu_3x3 -> inception_4d/3x3 (in-place)
I0403 19:21:54.755251  9154 net.cpp:141] Setting up inception_4d/relu_3x3
I0403 19:21:54.755278  9154 net.cpp:148] Top shape: 24 288 14 14 (1354752)
I0403 19:21:54.755295  9154 net.cpp:156] Memory required for data: 1131654432
I0403 19:21:54.755308  9154 layer_factory.hpp:77] Creating layer inception_4d/5x5_reduce
I0403 19:21:54.755331  9154 net.cpp:91] Creating Layer inception_4d/5x5_reduce
I0403 19:21:54.755348  9154 net.cpp:425] inception_4d/5x5_reduce <- inception_4c/output_inception_4c/output_0_split_2
I0403 19:21:54.755367  9154 net.cpp:399] inception_4d/5x5_reduce -> inception_4d/5x5_reduce
I0403 19:21:54.756481  9154 net.cpp:141] Setting up inception_4d/5x5_reduce
I0403 19:21:54.756508  9154 net.cpp:148] Top shape: 24 32 14 14 (150528)
I0403 19:21:54.756523  9154 net.cpp:156] Memory required for data: 1132256544
I0403 19:21:54.756541  9154 layer_factory.hpp:77] Creating layer inception_4d/relu_5x5_reduce
I0403 19:21:54.756557  9154 net.cpp:91] Creating Layer inception_4d/relu_5x5_reduce
I0403 19:21:54.756572  9154 net.cpp:425] inception_4d/relu_5x5_reduce <- inception_4d/5x5_reduce
I0403 19:21:54.756592  9154 net.cpp:386] inception_4d/relu_5x5_reduce -> inception_4d/5x5_reduce (in-place)
I0403 19:21:54.756774  9154 net.cpp:141] Setting up inception_4d/relu_5x5_reduce
I0403 19:21:54.756798  9154 net.cpp:148] Top shape: 24 32 14 14 (150528)
I0403 19:21:54.756813  9154 net.cpp:156] Memory required for data: 1132858656
I0403 19:21:54.756827  9154 layer_factory.hpp:77] Creating layer inception_4d/5x5
I0403 19:21:54.756850  9154 net.cpp:91] Creating Layer inception_4d/5x5
I0403 19:21:54.756865  9154 net.cpp:425] inception_4d/5x5 <- inception_4d/5x5_reduce
I0403 19:21:54.756887  9154 net.cpp:399] inception_4d/5x5 -> inception_4d/5x5
I0403 19:21:54.758327  9154 net.cpp:141] Setting up inception_4d/5x5
I0403 19:21:54.758357  9154 net.cpp:148] Top shape: 24 64 14 14 (301056)
I0403 19:21:54.758373  9154 net.cpp:156] Memory required for data: 1134062880
I0403 19:21:54.758391  9154 layer_factory.hpp:77] Creating layer inception_4d/relu_5x5
I0403 19:21:54.758422  9154 net.cpp:91] Creating Layer inception_4d/relu_5x5
I0403 19:21:54.758438  9154 net.cpp:425] inception_4d/relu_5x5 <- inception_4d/5x5
I0403 19:21:54.758455  9154 net.cpp:386] inception_4d/relu_5x5 -> inception_4d/5x5 (in-place)
I0403 19:21:54.758749  9154 net.cpp:141] Setting up inception_4d/relu_5x5
I0403 19:21:54.758776  9154 net.cpp:148] Top shape: 24 64 14 14 (301056)
I0403 19:21:54.758792  9154 net.cpp:156] Memory required for data: 1135267104
I0403 19:21:54.758806  9154 layer_factory.hpp:77] Creating layer inception_4d/pool
I0403 19:21:54.758823  9154 net.cpp:91] Creating Layer inception_4d/pool
I0403 19:21:54.758839  9154 net.cpp:425] inception_4d/pool <- inception_4c/output_inception_4c/output_0_split_3
I0403 19:21:54.758857  9154 net.cpp:399] inception_4d/pool -> inception_4d/pool
I0403 19:21:54.758921  9154 net.cpp:141] Setting up inception_4d/pool
I0403 19:21:54.758944  9154 net.cpp:148] Top shape: 24 512 14 14 (2408448)
I0403 19:21:54.758958  9154 net.cpp:156] Memory required for data: 1144900896
I0403 19:21:54.758972  9154 layer_factory.hpp:77] Creating layer inception_4d/pool_proj
I0403 19:21:54.758992  9154 net.cpp:91] Creating Layer inception_4d/pool_proj
I0403 19:21:54.759011  9154 net.cpp:425] inception_4d/pool_proj <- inception_4d/pool
I0403 19:21:54.759030  9154 net.cpp:399] inception_4d/pool_proj -> inception_4d/pool_proj
I0403 19:21:54.760748  9154 net.cpp:141] Setting up inception_4d/pool_proj
I0403 19:21:54.760778  9154 net.cpp:148] Top shape: 24 64 14 14 (301056)
I0403 19:21:54.760793  9154 net.cpp:156] Memory required for data: 1146105120
I0403 19:21:54.760812  9154 layer_factory.hpp:77] Creating layer inception_4d/relu_pool_proj
I0403 19:21:54.760830  9154 net.cpp:91] Creating Layer inception_4d/relu_pool_proj
I0403 19:21:54.760846  9154 net.cpp:425] inception_4d/relu_pool_proj <- inception_4d/pool_proj
I0403 19:21:54.760864  9154 net.cpp:386] inception_4d/relu_pool_proj -> inception_4d/pool_proj (in-place)
I0403 19:21:54.761045  9154 net.cpp:141] Setting up inception_4d/relu_pool_proj
I0403 19:21:54.761070  9154 net.cpp:148] Top shape: 24 64 14 14 (301056)
I0403 19:21:54.761083  9154 net.cpp:156] Memory required for data: 1147309344
I0403 19:21:54.761098  9154 layer_factory.hpp:77] Creating layer inception_4d/output
I0403 19:21:54.761122  9154 net.cpp:91] Creating Layer inception_4d/output
I0403 19:21:54.761138  9154 net.cpp:425] inception_4d/output <- inception_4d/1x1
I0403 19:21:54.761154  9154 net.cpp:425] inception_4d/output <- inception_4d/3x3
I0403 19:21:54.761169  9154 net.cpp:425] inception_4d/output <- inception_4d/5x5
I0403 19:21:54.761185  9154 net.cpp:425] inception_4d/output <- inception_4d/pool_proj
I0403 19:21:54.761201  9154 net.cpp:399] inception_4d/output -> inception_4d/output
I0403 19:21:54.761251  9154 net.cpp:141] Setting up inception_4d/output
I0403 19:21:54.761277  9154 net.cpp:148] Top shape: 24 528 14 14 (2483712)
I0403 19:21:54.761296  9154 net.cpp:156] Memory required for data: 1157244192
I0403 19:21:54.761309  9154 layer_factory.hpp:77] Creating layer inception_4d/output_inception_4d/output_0_split
I0403 19:21:54.761327  9154 net.cpp:91] Creating Layer inception_4d/output_inception_4d/output_0_split
I0403 19:21:54.761342  9154 net.cpp:425] inception_4d/output_inception_4d/output_0_split <- inception_4d/output
I0403 19:21:54.761361  9154 net.cpp:399] inception_4d/output_inception_4d/output_0_split -> inception_4d/output_inception_4d/output_0_split_0
I0403 19:21:54.761381  9154 net.cpp:399] inception_4d/output_inception_4d/output_0_split -> inception_4d/output_inception_4d/output_0_split_1
I0403 19:21:54.761401  9154 net.cpp:399] inception_4d/output_inception_4d/output_0_split -> inception_4d/output_inception_4d/output_0_split_2
I0403 19:21:54.761421  9154 net.cpp:399] inception_4d/output_inception_4d/output_0_split -> inception_4d/output_inception_4d/output_0_split_3
I0403 19:21:54.761445  9154 net.cpp:399] inception_4d/output_inception_4d/output_0_split -> inception_4d/output_inception_4d/output_0_split_4
I0403 19:21:54.761544  9154 net.cpp:141] Setting up inception_4d/output_inception_4d/output_0_split
I0403 19:21:54.761579  9154 net.cpp:148] Top shape: 24 528 14 14 (2483712)
I0403 19:21:54.761595  9154 net.cpp:148] Top shape: 24 528 14 14 (2483712)
I0403 19:21:54.761610  9154 net.cpp:148] Top shape: 24 528 14 14 (2483712)
I0403 19:21:54.761625  9154 net.cpp:148] Top shape: 24 528 14 14 (2483712)
I0403 19:21:54.761641  9154 net.cpp:148] Top shape: 24 528 14 14 (2483712)
I0403 19:21:54.761653  9154 net.cpp:156] Memory required for data: 1206918432
I0403 19:21:54.761667  9154 layer_factory.hpp:77] Creating layer loss2/ave_pool
I0403 19:21:54.761685  9154 net.cpp:91] Creating Layer loss2/ave_pool
I0403 19:21:54.761701  9154 net.cpp:425] loss2/ave_pool <- inception_4d/output_inception_4d/output_0_split_0
I0403 19:21:54.761721  9154 net.cpp:399] loss2/ave_pool -> loss2/ave_pool
I0403 19:21:54.762025  9154 net.cpp:141] Setting up loss2/ave_pool
I0403 19:21:54.762051  9154 net.cpp:148] Top shape: 24 528 4 4 (202752)
I0403 19:21:54.762065  9154 net.cpp:156] Memory required for data: 1207729440
I0403 19:21:54.762080  9154 layer_factory.hpp:77] Creating layer loss2/conv
I0403 19:21:54.762101  9154 net.cpp:91] Creating Layer loss2/conv
I0403 19:21:54.762118  9154 net.cpp:425] loss2/conv <- loss2/ave_pool
I0403 19:21:54.762138  9154 net.cpp:399] loss2/conv -> loss2/conv
I0403 19:21:54.764073  9154 net.cpp:141] Setting up loss2/conv
I0403 19:21:54.764103  9154 net.cpp:148] Top shape: 24 128 4 4 (49152)
I0403 19:21:54.764118  9154 net.cpp:156] Memory required for data: 1207926048
I0403 19:21:54.764137  9154 layer_factory.hpp:77] Creating layer loss2/relu_conv
I0403 19:21:54.764158  9154 net.cpp:91] Creating Layer loss2/relu_conv
I0403 19:21:54.764175  9154 net.cpp:425] loss2/relu_conv <- loss2/conv
I0403 19:21:54.764192  9154 net.cpp:386] loss2/relu_conv -> loss2/conv (in-place)
I0403 19:21:54.764482  9154 net.cpp:141] Setting up loss2/relu_conv
I0403 19:21:54.764508  9154 net.cpp:148] Top shape: 24 128 4 4 (49152)
I0403 19:21:54.764523  9154 net.cpp:156] Memory required for data: 1208122656
I0403 19:21:54.764539  9154 layer_factory.hpp:77] Creating layer loss2/fc
I0403 19:21:54.764571  9154 net.cpp:91] Creating Layer loss2/fc
I0403 19:21:54.764588  9154 net.cpp:425] loss2/fc <- loss2/conv
I0403 19:21:54.764608  9154 net.cpp:399] loss2/fc -> loss2/fc
I0403 19:21:54.782171  9154 net.cpp:141] Setting up loss2/fc
I0403 19:21:54.782218  9154 net.cpp:148] Top shape: 24 1024 (24576)
I0403 19:21:54.782233  9154 net.cpp:156] Memory required for data: 1208220960
I0403 19:21:54.782251  9154 layer_factory.hpp:77] Creating layer loss2/relu_fc
I0403 19:21:54.782269  9154 net.cpp:91] Creating Layer loss2/relu_fc
I0403 19:21:54.782296  9154 net.cpp:425] loss2/relu_fc <- loss2/fc
I0403 19:21:54.782316  9154 net.cpp:386] loss2/relu_fc -> loss2/fc (in-place)
I0403 19:21:54.782618  9154 net.cpp:141] Setting up loss2/relu_fc
I0403 19:21:54.782645  9154 net.cpp:148] Top shape: 24 1024 (24576)
I0403 19:21:54.782660  9154 net.cpp:156] Memory required for data: 1208319264
I0403 19:21:54.782675  9154 layer_factory.hpp:77] Creating layer loss2/drop_fc
I0403 19:21:54.782693  9154 net.cpp:91] Creating Layer loss2/drop_fc
I0403 19:21:54.782708  9154 net.cpp:425] loss2/drop_fc <- loss2/fc
I0403 19:21:54.782727  9154 net.cpp:386] loss2/drop_fc -> loss2/fc (in-place)
I0403 19:21:54.782778  9154 net.cpp:141] Setting up loss2/drop_fc
I0403 19:21:54.782800  9154 net.cpp:148] Top shape: 24 1024 (24576)
I0403 19:21:54.782815  9154 net.cpp:156] Memory required for data: 1208417568
I0403 19:21:54.782830  9154 layer_factory.hpp:77] Creating layer loss2/classifier_plantvillage
I0403 19:21:54.782847  9154 net.cpp:91] Creating Layer loss2/classifier_plantvillage
I0403 19:21:54.782863  9154 net.cpp:425] loss2/classifier_plantvillage <- loss2/fc
I0403 19:21:54.782886  9154 net.cpp:399] loss2/classifier_plantvillage -> loss2/classifier_plantvillage
I0403 19:21:54.783298  9154 net.cpp:141] Setting up loss2/classifier_plantvillage
I0403 19:21:54.783323  9154 net.cpp:148] Top shape: 24 38 (912)
I0403 19:21:54.783337  9154 net.cpp:156] Memory required for data: 1208421216
I0403 19:21:54.783373  9154 layer_factory.hpp:77] Creating layer loss2/classifier_plantvillage_loss2/classifier_plantvillage_0_split
I0403 19:21:54.783395  9154 net.cpp:91] Creating Layer loss2/classifier_plantvillage_loss2/classifier_plantvillage_0_split
I0403 19:21:54.783411  9154 net.cpp:425] loss2/classifier_plantvillage_loss2/classifier_plantvillage_0_split <- loss2/classifier_plantvillage
I0403 19:21:54.783432  9154 net.cpp:399] loss2/classifier_plantvillage_loss2/classifier_plantvillage_0_split -> loss2/classifier_plantvillage_loss2/classifier_plantvillage_0_split_0
I0403 19:21:54.783452  9154 net.cpp:399] loss2/classifier_plantvillage_loss2/classifier_plantvillage_0_split -> loss2/classifier_plantvillage_loss2/classifier_plantvillage_0_split_1
I0403 19:21:54.783473  9154 net.cpp:399] loss2/classifier_plantvillage_loss2/classifier_plantvillage_0_split -> loss2/classifier_plantvillage_loss2/classifier_plantvillage_0_split_2
I0403 19:21:54.783548  9154 net.cpp:141] Setting up loss2/classifier_plantvillage_loss2/classifier_plantvillage_0_split
I0403 19:21:54.783572  9154 net.cpp:148] Top shape: 24 38 (912)
I0403 19:21:54.783589  9154 net.cpp:148] Top shape: 24 38 (912)
I0403 19:21:54.783604  9154 net.cpp:148] Top shape: 24 38 (912)
I0403 19:21:54.783618  9154 net.cpp:156] Memory required for data: 1208432160
I0403 19:21:54.783632  9154 layer_factory.hpp:77] Creating layer inception_4e/1x1
I0403 19:21:54.783653  9154 net.cpp:91] Creating Layer inception_4e/1x1
I0403 19:21:54.783671  9154 net.cpp:425] inception_4e/1x1 <- inception_4d/output_inception_4d/output_0_split_1
I0403 19:21:54.783690  9154 net.cpp:399] inception_4e/1x1 -> inception_4e/1x1
I0403 19:21:54.785526  9154 net.cpp:141] Setting up inception_4e/1x1
I0403 19:21:54.785557  9154 net.cpp:148] Top shape: 24 256 14 14 (1204224)
I0403 19:21:54.785573  9154 net.cpp:156] Memory required for data: 1213249056
I0403 19:21:54.785591  9154 layer_factory.hpp:77] Creating layer inception_4e/relu_1x1
I0403 19:21:54.785609  9154 net.cpp:91] Creating Layer inception_4e/relu_1x1
I0403 19:21:54.785624  9154 net.cpp:425] inception_4e/relu_1x1 <- inception_4e/1x1
I0403 19:21:54.785642  9154 net.cpp:386] inception_4e/relu_1x1 -> inception_4e/1x1 (in-place)
I0403 19:21:54.785939  9154 net.cpp:141] Setting up inception_4e/relu_1x1
I0403 19:21:54.785969  9154 net.cpp:148] Top shape: 24 256 14 14 (1204224)
I0403 19:21:54.785985  9154 net.cpp:156] Memory required for data: 1218065952
I0403 19:21:54.786000  9154 layer_factory.hpp:77] Creating layer inception_4e/3x3_reduce
I0403 19:21:54.786022  9154 net.cpp:91] Creating Layer inception_4e/3x3_reduce
I0403 19:21:54.786041  9154 net.cpp:425] inception_4e/3x3_reduce <- inception_4d/output_inception_4d/output_0_split_2
I0403 19:21:54.786059  9154 net.cpp:399] inception_4e/3x3_reduce -> inception_4e/3x3_reduce
I0403 19:21:54.788192  9154 net.cpp:141] Setting up inception_4e/3x3_reduce
I0403 19:21:54.788223  9154 net.cpp:148] Top shape: 24 160 14 14 (752640)
I0403 19:21:54.788238  9154 net.cpp:156] Memory required for data: 1221076512
I0403 19:21:54.788255  9154 layer_factory.hpp:77] Creating layer inception_4e/relu_3x3_reduce
I0403 19:21:54.788281  9154 net.cpp:91] Creating Layer inception_4e/relu_3x3_reduce
I0403 19:21:54.788300  9154 net.cpp:425] inception_4e/relu_3x3_reduce <- inception_4e/3x3_reduce
I0403 19:21:54.788317  9154 net.cpp:386] inception_4e/relu_3x3_reduce -> inception_4e/3x3_reduce (in-place)
I0403 19:21:54.788512  9154 net.cpp:141] Setting up inception_4e/relu_3x3_reduce
I0403 19:21:54.788537  9154 net.cpp:148] Top shape: 24 160 14 14 (752640)
I0403 19:21:54.788552  9154 net.cpp:156] Memory required for data: 1224087072
I0403 19:21:54.788566  9154 layer_factory.hpp:77] Creating layer inception_4e/3x3
I0403 19:21:54.788589  9154 net.cpp:91] Creating Layer inception_4e/3x3
I0403 19:21:54.788605  9154 net.cpp:425] inception_4e/3x3 <- inception_4e/3x3_reduce
I0403 19:21:54.788628  9154 net.cpp:399] inception_4e/3x3 -> inception_4e/3x3
I0403 19:21:54.793670  9154 net.cpp:141] Setting up inception_4e/3x3
I0403 19:21:54.793716  9154 net.cpp:148] Top shape: 24 320 14 14 (1505280)
I0403 19:21:54.793732  9154 net.cpp:156] Memory required for data: 1230108192
I0403 19:21:54.793751  9154 layer_factory.hpp:77] Creating layer inception_4e/relu_3x3
I0403 19:21:54.793768  9154 net.cpp:91] Creating Layer inception_4e/relu_3x3
I0403 19:21:54.793784  9154 net.cpp:425] inception_4e/relu_3x3 <- inception_4e/3x3
I0403 19:21:54.793804  9154 net.cpp:386] inception_4e/relu_3x3 -> inception_4e/3x3 (in-place)
I0403 19:21:54.794111  9154 net.cpp:141] Setting up inception_4e/relu_3x3
I0403 19:21:54.794137  9154 net.cpp:148] Top shape: 24 320 14 14 (1505280)
I0403 19:21:54.794153  9154 net.cpp:156] Memory required for data: 1236129312
I0403 19:21:54.794167  9154 layer_factory.hpp:77] Creating layer inception_4e/5x5_reduce
I0403 19:21:54.794190  9154 net.cpp:91] Creating Layer inception_4e/5x5_reduce
I0403 19:21:54.794209  9154 net.cpp:425] inception_4e/5x5_reduce <- inception_4d/output_inception_4d/output_0_split_3
I0403 19:21:54.794229  9154 net.cpp:399] inception_4e/5x5_reduce -> inception_4e/5x5_reduce
I0403 19:21:54.795325  9154 net.cpp:141] Setting up inception_4e/5x5_reduce
I0403 19:21:54.795353  9154 net.cpp:148] Top shape: 24 32 14 14 (150528)
I0403 19:21:54.795369  9154 net.cpp:156] Memory required for data: 1236731424
I0403 19:21:54.795387  9154 layer_factory.hpp:77] Creating layer inception_4e/relu_5x5_reduce
I0403 19:21:54.795405  9154 net.cpp:91] Creating Layer inception_4e/relu_5x5_reduce
I0403 19:21:54.795421  9154 net.cpp:425] inception_4e/relu_5x5_reduce <- inception_4e/5x5_reduce
I0403 19:21:54.795439  9154 net.cpp:386] inception_4e/relu_5x5_reduce -> inception_4e/5x5_reduce (in-place)
I0403 19:21:54.795744  9154 net.cpp:141] Setting up inception_4e/relu_5x5_reduce
I0403 19:21:54.795773  9154 net.cpp:148] Top shape: 24 32 14 14 (150528)
I0403 19:21:54.795789  9154 net.cpp:156] Memory required for data: 1237333536
I0403 19:21:54.795804  9154 layer_factory.hpp:77] Creating layer inception_4e/5x5
I0403 19:21:54.795840  9154 net.cpp:91] Creating Layer inception_4e/5x5
I0403 19:21:54.795858  9154 net.cpp:425] inception_4e/5x5 <- inception_4e/5x5_reduce
I0403 19:21:54.795881  9154 net.cpp:399] inception_4e/5x5 -> inception_4e/5x5
I0403 19:21:54.797744  9154 net.cpp:141] Setting up inception_4e/5x5
I0403 19:21:54.797771  9154 net.cpp:148] Top shape: 24 128 14 14 (602112)
I0403 19:21:54.797787  9154 net.cpp:156] Memory required for data: 1239741984
I0403 19:21:54.797806  9154 layer_factory.hpp:77] Creating layer inception_4e/relu_5x5
I0403 19:21:54.797827  9154 net.cpp:91] Creating Layer inception_4e/relu_5x5
I0403 19:21:54.797842  9154 net.cpp:425] inception_4e/relu_5x5 <- inception_4e/5x5
I0403 19:21:54.797859  9154 net.cpp:386] inception_4e/relu_5x5 -> inception_4e/5x5 (in-place)
I0403 19:21:54.798060  9154 net.cpp:141] Setting up inception_4e/relu_5x5
I0403 19:21:54.798085  9154 net.cpp:148] Top shape: 24 128 14 14 (602112)
I0403 19:21:54.798099  9154 net.cpp:156] Memory required for data: 1242150432
I0403 19:21:54.798115  9154 layer_factory.hpp:77] Creating layer inception_4e/pool
I0403 19:21:54.798135  9154 net.cpp:91] Creating Layer inception_4e/pool
I0403 19:21:54.798151  9154 net.cpp:425] inception_4e/pool <- inception_4d/output_inception_4d/output_0_split_4
I0403 19:21:54.798171  9154 net.cpp:399] inception_4e/pool -> inception_4e/pool
I0403 19:21:54.798243  9154 net.cpp:141] Setting up inception_4e/pool
I0403 19:21:54.798265  9154 net.cpp:148] Top shape: 24 528 14 14 (2483712)
I0403 19:21:54.798286  9154 net.cpp:156] Memory required for data: 1252085280
I0403 19:21:54.798301  9154 layer_factory.hpp:77] Creating layer inception_4e/pool_proj
I0403 19:21:54.798326  9154 net.cpp:91] Creating Layer inception_4e/pool_proj
I0403 19:21:54.798343  9154 net.cpp:425] inception_4e/pool_proj <- inception_4e/pool
I0403 19:21:54.798363  9154 net.cpp:399] inception_4e/pool_proj -> inception_4e/pool_proj
I0403 19:21:54.799875  9154 net.cpp:141] Setting up inception_4e/pool_proj
I0403 19:21:54.799902  9154 net.cpp:148] Top shape: 24 128 14 14 (602112)
I0403 19:21:54.799932  9154 net.cpp:156] Memory required for data: 1254493728
I0403 19:21:54.799950  9154 layer_factory.hpp:77] Creating layer inception_4e/relu_pool_proj
I0403 19:21:54.799971  9154 net.cpp:91] Creating Layer inception_4e/relu_pool_proj
I0403 19:21:54.799988  9154 net.cpp:425] inception_4e/relu_pool_proj <- inception_4e/pool_proj
I0403 19:21:54.800005  9154 net.cpp:386] inception_4e/relu_pool_proj -> inception_4e/pool_proj (in-place)
I0403 19:21:54.800310  9154 net.cpp:141] Setting up inception_4e/relu_pool_proj
I0403 19:21:54.800338  9154 net.cpp:148] Top shape: 24 128 14 14 (602112)
I0403 19:21:54.800353  9154 net.cpp:156] Memory required for data: 1256902176
I0403 19:21:54.800366  9154 layer_factory.hpp:77] Creating layer inception_4e/output
I0403 19:21:54.800384  9154 net.cpp:91] Creating Layer inception_4e/output
I0403 19:21:54.800400  9154 net.cpp:425] inception_4e/output <- inception_4e/1x1
I0403 19:21:54.800420  9154 net.cpp:425] inception_4e/output <- inception_4e/3x3
I0403 19:21:54.800436  9154 net.cpp:425] inception_4e/output <- inception_4e/5x5
I0403 19:21:54.800452  9154 net.cpp:425] inception_4e/output <- inception_4e/pool_proj
I0403 19:21:54.800468  9154 net.cpp:399] inception_4e/output -> inception_4e/output
I0403 19:21:54.800518  9154 net.cpp:141] Setting up inception_4e/output
I0403 19:21:54.800545  9154 net.cpp:148] Top shape: 24 832 14 14 (3913728)
I0403 19:21:54.800561  9154 net.cpp:156] Memory required for data: 1272557088
I0403 19:21:54.800577  9154 layer_factory.hpp:77] Creating layer pool4/3x3_s2
I0403 19:21:54.800595  9154 net.cpp:91] Creating Layer pool4/3x3_s2
I0403 19:21:54.800611  9154 net.cpp:425] pool4/3x3_s2 <- inception_4e/output
I0403 19:21:54.800631  9154 net.cpp:399] pool4/3x3_s2 -> pool4/3x3_s2
I0403 19:21:54.800699  9154 net.cpp:141] Setting up pool4/3x3_s2
I0403 19:21:54.800725  9154 net.cpp:148] Top shape: 24 832 7 7 (978432)
I0403 19:21:54.800740  9154 net.cpp:156] Memory required for data: 1276470816
I0403 19:21:54.800755  9154 layer_factory.hpp:77] Creating layer pool4/3x3_s2_pool4/3x3_s2_0_split
I0403 19:21:54.800772  9154 net.cpp:91] Creating Layer pool4/3x3_s2_pool4/3x3_s2_0_split
I0403 19:21:54.800788  9154 net.cpp:425] pool4/3x3_s2_pool4/3x3_s2_0_split <- pool4/3x3_s2
I0403 19:21:54.800806  9154 net.cpp:399] pool4/3x3_s2_pool4/3x3_s2_0_split -> pool4/3x3_s2_pool4/3x3_s2_0_split_0
I0403 19:21:54.800825  9154 net.cpp:399] pool4/3x3_s2_pool4/3x3_s2_0_split -> pool4/3x3_s2_pool4/3x3_s2_0_split_1
I0403 19:21:54.800845  9154 net.cpp:399] pool4/3x3_s2_pool4/3x3_s2_0_split -> pool4/3x3_s2_pool4/3x3_s2_0_split_2
I0403 19:21:54.800868  9154 net.cpp:399] pool4/3x3_s2_pool4/3x3_s2_0_split -> pool4/3x3_s2_pool4/3x3_s2_0_split_3
I0403 19:21:54.800961  9154 net.cpp:141] Setting up pool4/3x3_s2_pool4/3x3_s2_0_split
I0403 19:21:54.800986  9154 net.cpp:148] Top shape: 24 832 7 7 (978432)
I0403 19:21:54.801002  9154 net.cpp:148] Top shape: 24 832 7 7 (978432)
I0403 19:21:54.801017  9154 net.cpp:148] Top shape: 24 832 7 7 (978432)
I0403 19:21:54.801031  9154 net.cpp:148] Top shape: 24 832 7 7 (978432)
I0403 19:21:54.801045  9154 net.cpp:156] Memory required for data: 1292125728
I0403 19:21:54.801059  9154 layer_factory.hpp:77] Creating layer inception_5a/1x1
I0403 19:21:54.801081  9154 net.cpp:91] Creating Layer inception_5a/1x1
I0403 19:21:54.801098  9154 net.cpp:425] inception_5a/1x1 <- pool4/3x3_s2_pool4/3x3_s2_0_split_0
I0403 19:21:54.801120  9154 net.cpp:399] inception_5a/1x1 -> inception_5a/1x1
I0403 19:21:54.803998  9154 net.cpp:141] Setting up inception_5a/1x1
I0403 19:21:54.804028  9154 net.cpp:148] Top shape: 24 256 7 7 (301056)
I0403 19:21:54.804044  9154 net.cpp:156] Memory required for data: 1293329952
I0403 19:21:54.804061  9154 layer_factory.hpp:77] Creating layer inception_5a/relu_1x1
I0403 19:21:54.804082  9154 net.cpp:91] Creating Layer inception_5a/relu_1x1
I0403 19:21:54.804098  9154 net.cpp:425] inception_5a/relu_1x1 <- inception_5a/1x1
I0403 19:21:54.804116  9154 net.cpp:386] inception_5a/relu_1x1 -> inception_5a/1x1 (in-place)
I0403 19:21:54.804438  9154 net.cpp:141] Setting up inception_5a/relu_1x1
I0403 19:21:54.804464  9154 net.cpp:148] Top shape: 24 256 7 7 (301056)
I0403 19:21:54.804481  9154 net.cpp:156] Memory required for data: 1294534176
I0403 19:21:54.804494  9154 layer_factory.hpp:77] Creating layer inception_5a/3x3_reduce
I0403 19:21:54.804517  9154 net.cpp:91] Creating Layer inception_5a/3x3_reduce
I0403 19:21:54.804535  9154 net.cpp:425] inception_5a/3x3_reduce <- pool4/3x3_s2_pool4/3x3_s2_0_split_1
I0403 19:21:54.804556  9154 net.cpp:399] inception_5a/3x3_reduce -> inception_5a/3x3_reduce
I0403 19:21:54.807036  9154 net.cpp:141] Setting up inception_5a/3x3_reduce
I0403 19:21:54.807065  9154 net.cpp:148] Top shape: 24 160 7 7 (188160)
I0403 19:21:54.807081  9154 net.cpp:156] Memory required for data: 1295286816
I0403 19:21:54.807099  9154 layer_factory.hpp:77] Creating layer inception_5a/relu_3x3_reduce
I0403 19:21:54.807117  9154 net.cpp:91] Creating Layer inception_5a/relu_3x3_reduce
I0403 19:21:54.807137  9154 net.cpp:425] inception_5a/relu_3x3_reduce <- inception_5a/3x3_reduce
I0403 19:21:54.807153  9154 net.cpp:386] inception_5a/relu_3x3_reduce -> inception_5a/3x3_reduce (in-place)
I0403 19:21:54.807348  9154 net.cpp:141] Setting up inception_5a/relu_3x3_reduce
I0403 19:21:54.807374  9154 net.cpp:148] Top shape: 24 160 7 7 (188160)
I0403 19:21:54.807389  9154 net.cpp:156] Memory required for data: 1296039456
I0403 19:21:54.807402  9154 layer_factory.hpp:77] Creating layer inception_5a/3x3
I0403 19:21:54.807425  9154 net.cpp:91] Creating Layer inception_5a/3x3
I0403 19:21:54.807442  9154 net.cpp:425] inception_5a/3x3 <- inception_5a/3x3_reduce
I0403 19:21:54.807464  9154 net.cpp:399] inception_5a/3x3 -> inception_5a/3x3
I0403 19:21:54.812546  9154 net.cpp:141] Setting up inception_5a/3x3
I0403 19:21:54.812577  9154 net.cpp:148] Top shape: 24 320 7 7 (376320)
I0403 19:21:54.812592  9154 net.cpp:156] Memory required for data: 1297544736
I0403 19:21:54.812611  9154 layer_factory.hpp:77] Creating layer inception_5a/relu_3x3
I0403 19:21:54.812631  9154 net.cpp:91] Creating Layer inception_5a/relu_3x3
I0403 19:21:54.812647  9154 net.cpp:425] inception_5a/relu_3x3 <- inception_5a/3x3
I0403 19:21:54.812665  9154 net.cpp:386] inception_5a/relu_3x3 -> inception_5a/3x3 (in-place)
I0403 19:21:54.812963  9154 net.cpp:141] Setting up inception_5a/relu_3x3
I0403 19:21:54.812988  9154 net.cpp:148] Top shape: 24 320 7 7 (376320)
I0403 19:21:54.813004  9154 net.cpp:156] Memory required for data: 1299050016
I0403 19:21:54.813019  9154 layer_factory.hpp:77] Creating layer inception_5a/5x5_reduce
I0403 19:21:54.813040  9154 net.cpp:91] Creating Layer inception_5a/5x5_reduce
I0403 19:21:54.813058  9154 net.cpp:425] inception_5a/5x5_reduce <- pool4/3x3_s2_pool4/3x3_s2_0_split_2
I0403 19:21:54.813079  9154 net.cpp:399] inception_5a/5x5_reduce -> inception_5a/5x5_reduce
I0403 19:21:54.814285  9154 net.cpp:141] Setting up inception_5a/5x5_reduce
I0403 19:21:54.814314  9154 net.cpp:148] Top shape: 24 32 7 7 (37632)
I0403 19:21:54.814330  9154 net.cpp:156] Memory required for data: 1299200544
I0403 19:21:54.814349  9154 layer_factory.hpp:77] Creating layer inception_5a/relu_5x5_reduce
I0403 19:21:54.814370  9154 net.cpp:91] Creating Layer inception_5a/relu_5x5_reduce
I0403 19:21:54.814388  9154 net.cpp:425] inception_5a/relu_5x5_reduce <- inception_5a/5x5_reduce
I0403 19:21:54.814405  9154 net.cpp:386] inception_5a/relu_5x5_reduce -> inception_5a/5x5_reduce (in-place)
I0403 19:21:54.814721  9154 net.cpp:141] Setting up inception_5a/relu_5x5_reduce
I0403 19:21:54.814748  9154 net.cpp:148] Top shape: 24 32 7 7 (37632)
I0403 19:21:54.814770  9154 net.cpp:156] Memory required for data: 1299351072
I0403 19:21:54.814791  9154 layer_factory.hpp:77] Creating layer inception_5a/5x5
I0403 19:21:54.814823  9154 net.cpp:91] Creating Layer inception_5a/5x5
I0403 19:21:54.814842  9154 net.cpp:425] inception_5a/5x5 <- inception_5a/5x5_reduce
I0403 19:21:54.814862  9154 net.cpp:399] inception_5a/5x5 -> inception_5a/5x5
I0403 19:21:54.816598  9154 net.cpp:141] Setting up inception_5a/5x5
I0403 19:21:54.816640  9154 net.cpp:148] Top shape: 24 128 7 7 (150528)
I0403 19:21:54.816656  9154 net.cpp:156] Memory required for data: 1299953184
I0403 19:21:54.816674  9154 layer_factory.hpp:77] Creating layer inception_5a/relu_5x5
I0403 19:21:54.816694  9154 net.cpp:91] Creating Layer inception_5a/relu_5x5
I0403 19:21:54.816711  9154 net.cpp:425] inception_5a/relu_5x5 <- inception_5a/5x5
I0403 19:21:54.816728  9154 net.cpp:386] inception_5a/relu_5x5 -> inception_5a/5x5 (in-place)
I0403 19:21:54.816920  9154 net.cpp:141] Setting up inception_5a/relu_5x5
I0403 19:21:54.816947  9154 net.cpp:148] Top shape: 24 128 7 7 (150528)
I0403 19:21:54.816962  9154 net.cpp:156] Memory required for data: 1300555296
I0403 19:21:54.816977  9154 layer_factory.hpp:77] Creating layer inception_5a/pool
I0403 19:21:54.816994  9154 net.cpp:91] Creating Layer inception_5a/pool
I0403 19:21:54.817010  9154 net.cpp:425] inception_5a/pool <- pool4/3x3_s2_pool4/3x3_s2_0_split_3
I0403 19:21:54.817030  9154 net.cpp:399] inception_5a/pool -> inception_5a/pool
I0403 19:21:54.817102  9154 net.cpp:141] Setting up inception_5a/pool
I0403 19:21:54.817126  9154 net.cpp:148] Top shape: 24 832 7 7 (978432)
I0403 19:21:54.817139  9154 net.cpp:156] Memory required for data: 1304469024
I0403 19:21:54.817153  9154 layer_factory.hpp:77] Creating layer inception_5a/pool_proj
I0403 19:21:54.817188  9154 net.cpp:91] Creating Layer inception_5a/pool_proj
I0403 19:21:54.817208  9154 net.cpp:425] inception_5a/pool_proj <- inception_5a/pool
I0403 19:21:54.817229  9154 net.cpp:399] inception_5a/pool_proj -> inception_5a/pool_proj
I0403 19:21:54.819541  9154 net.cpp:141] Setting up inception_5a/pool_proj
I0403 19:21:54.819571  9154 net.cpp:148] Top shape: 24 128 7 7 (150528)
I0403 19:21:54.819586  9154 net.cpp:156] Memory required for data: 1305071136
I0403 19:21:54.819605  9154 layer_factory.hpp:77] Creating layer inception_5a/relu_pool_proj
I0403 19:21:54.819625  9154 net.cpp:91] Creating Layer inception_5a/relu_pool_proj
I0403 19:21:54.819643  9154 net.cpp:425] inception_5a/relu_pool_proj <- inception_5a/pool_proj
I0403 19:21:54.819659  9154 net.cpp:386] inception_5a/relu_pool_proj -> inception_5a/pool_proj (in-place)
I0403 19:21:54.819957  9154 net.cpp:141] Setting up inception_5a/relu_pool_proj
I0403 19:21:54.819983  9154 net.cpp:148] Top shape: 24 128 7 7 (150528)
I0403 19:21:54.819998  9154 net.cpp:156] Memory required for data: 1305673248
I0403 19:21:54.820014  9154 layer_factory.hpp:77] Creating layer inception_5a/output
I0403 19:21:54.820032  9154 net.cpp:91] Creating Layer inception_5a/output
I0403 19:21:54.820049  9154 net.cpp:425] inception_5a/output <- inception_5a/1x1
I0403 19:21:54.820065  9154 net.cpp:425] inception_5a/output <- inception_5a/3x3
I0403 19:21:54.820080  9154 net.cpp:425] inception_5a/output <- inception_5a/5x5
I0403 19:21:54.820096  9154 net.cpp:425] inception_5a/output <- inception_5a/pool_proj
I0403 19:21:54.820116  9154 net.cpp:399] inception_5a/output -> inception_5a/output
I0403 19:21:54.820168  9154 net.cpp:141] Setting up inception_5a/output
I0403 19:21:54.820193  9154 net.cpp:148] Top shape: 24 832 7 7 (978432)
I0403 19:21:54.820207  9154 net.cpp:156] Memory required for data: 1309586976
I0403 19:21:54.820221  9154 layer_factory.hpp:77] Creating layer inception_5a/output_inception_5a/output_0_split
I0403 19:21:54.820238  9154 net.cpp:91] Creating Layer inception_5a/output_inception_5a/output_0_split
I0403 19:21:54.820255  9154 net.cpp:425] inception_5a/output_inception_5a/output_0_split <- inception_5a/output
I0403 19:21:54.820293  9154 net.cpp:399] inception_5a/output_inception_5a/output_0_split -> inception_5a/output_inception_5a/output_0_split_0
I0403 19:21:54.820318  9154 net.cpp:399] inception_5a/output_inception_5a/output_0_split -> inception_5a/output_inception_5a/output_0_split_1
I0403 19:21:54.820348  9154 net.cpp:399] inception_5a/output_inception_5a/output_0_split -> inception_5a/output_inception_5a/output_0_split_2
I0403 19:21:54.820369  9154 net.cpp:399] inception_5a/output_inception_5a/output_0_split -> inception_5a/output_inception_5a/output_0_split_3
I0403 19:21:54.820489  9154 net.cpp:141] Setting up inception_5a/output_inception_5a/output_0_split
I0403 19:21:54.820520  9154 net.cpp:148] Top shape: 24 832 7 7 (978432)
I0403 19:21:54.820538  9154 net.cpp:148] Top shape: 24 832 7 7 (978432)
I0403 19:21:54.820554  9154 net.cpp:148] Top shape: 24 832 7 7 (978432)
I0403 19:21:54.820569  9154 net.cpp:148] Top shape: 24 832 7 7 (978432)
I0403 19:21:54.820583  9154 net.cpp:156] Memory required for data: 1325241888
I0403 19:21:54.820598  9154 layer_factory.hpp:77] Creating layer inception_5b/1x1
I0403 19:21:54.820628  9154 net.cpp:91] Creating Layer inception_5b/1x1
I0403 19:21:54.820647  9154 net.cpp:425] inception_5b/1x1 <- inception_5a/output_inception_5a/output_0_split_0
I0403 19:21:54.820667  9154 net.cpp:399] inception_5b/1x1 -> inception_5b/1x1
I0403 19:21:54.824614  9154 net.cpp:141] Setting up inception_5b/1x1
I0403 19:21:54.824645  9154 net.cpp:148] Top shape: 24 384 7 7 (451584)
I0403 19:21:54.824661  9154 net.cpp:156] Memory required for data: 1327048224
I0403 19:21:54.824681  9154 layer_factory.hpp:77] Creating layer inception_5b/relu_1x1
I0403 19:21:54.824698  9154 net.cpp:91] Creating Layer inception_5b/relu_1x1
I0403 19:21:54.824718  9154 net.cpp:425] inception_5b/relu_1x1 <- inception_5b/1x1
I0403 19:21:54.824736  9154 net.cpp:386] inception_5b/relu_1x1 -> inception_5b/1x1 (in-place)
I0403 19:21:54.825073  9154 net.cpp:141] Setting up inception_5b/relu_1x1
I0403 19:21:54.825101  9154 net.cpp:148] Top shape: 24 384 7 7 (451584)
I0403 19:21:54.825117  9154 net.cpp:156] Memory required for data: 1328854560
I0403 19:21:54.825134  9154 layer_factory.hpp:77] Creating layer inception_5b/3x3_reduce
I0403 19:21:54.825157  9154 net.cpp:91] Creating Layer inception_5b/3x3_reduce
I0403 19:21:54.825176  9154 net.cpp:425] inception_5b/3x3_reduce <- inception_5a/output_inception_5a/output_0_split_1
I0403 19:21:54.825201  9154 net.cpp:399] inception_5b/3x3_reduce -> inception_5b/3x3_reduce
I0403 19:21:54.828032  9154 net.cpp:141] Setting up inception_5b/3x3_reduce
I0403 19:21:54.828063  9154 net.cpp:148] Top shape: 24 192 7 7 (225792)
I0403 19:21:54.828079  9154 net.cpp:156] Memory required for data: 1329757728
I0403 19:21:54.828097  9154 layer_factory.hpp:77] Creating layer inception_5b/relu_3x3_reduce
I0403 19:21:54.828116  9154 net.cpp:91] Creating Layer inception_5b/relu_3x3_reduce
I0403 19:21:54.828132  9154 net.cpp:425] inception_5b/relu_3x3_reduce <- inception_5b/3x3_reduce
I0403 19:21:54.828153  9154 net.cpp:386] inception_5b/relu_3x3_reduce -> inception_5b/3x3_reduce (in-place)
I0403 19:21:54.828357  9154 net.cpp:141] Setting up inception_5b/relu_3x3_reduce
I0403 19:21:54.828383  9154 net.cpp:148] Top shape: 24 192 7 7 (225792)
I0403 19:21:54.828398  9154 net.cpp:156] Memory required for data: 1330660896
I0403 19:21:54.828413  9154 layer_factory.hpp:77] Creating layer inception_5b/3x3
I0403 19:21:54.828435  9154 net.cpp:91] Creating Layer inception_5b/3x3
I0403 19:21:54.828454  9154 net.cpp:425] inception_5b/3x3 <- inception_5b/3x3_reduce
I0403 19:21:54.828475  9154 net.cpp:399] inception_5b/3x3 -> inception_5b/3x3
I0403 19:21:54.835419  9154 net.cpp:141] Setting up inception_5b/3x3
I0403 19:21:54.835449  9154 net.cpp:148] Top shape: 24 384 7 7 (451584)
I0403 19:21:54.835465  9154 net.cpp:156] Memory required for data: 1332467232
I0403 19:21:54.835484  9154 layer_factory.hpp:77] Creating layer inception_5b/relu_3x3
I0403 19:21:54.835505  9154 net.cpp:91] Creating Layer inception_5b/relu_3x3
I0403 19:21:54.835522  9154 net.cpp:425] inception_5b/relu_3x3 <- inception_5b/3x3
I0403 19:21:54.835541  9154 net.cpp:386] inception_5b/relu_3x3 -> inception_5b/3x3 (in-place)
I0403 19:21:54.835849  9154 net.cpp:141] Setting up inception_5b/relu_3x3
I0403 19:21:54.835875  9154 net.cpp:148] Top shape: 24 384 7 7 (451584)
I0403 19:21:54.835891  9154 net.cpp:156] Memory required for data: 1334273568
I0403 19:21:54.835906  9154 layer_factory.hpp:77] Creating layer inception_5b/5x5_reduce
I0403 19:21:54.835945  9154 net.cpp:91] Creating Layer inception_5b/5x5_reduce
I0403 19:21:54.835964  9154 net.cpp:425] inception_5b/5x5_reduce <- inception_5a/output_inception_5a/output_0_split_2
I0403 19:21:54.835988  9154 net.cpp:399] inception_5b/5x5_reduce -> inception_5b/5x5_reduce
I0403 19:21:54.837329  9154 net.cpp:141] Setting up inception_5b/5x5_reduce
I0403 19:21:54.837357  9154 net.cpp:148] Top shape: 24 48 7 7 (56448)
I0403 19:21:54.837373  9154 net.cpp:156] Memory required for data: 1334499360
I0403 19:21:54.837393  9154 layer_factory.hpp:77] Creating layer inception_5b/relu_5x5_reduce
I0403 19:21:54.837414  9154 net.cpp:91] Creating Layer inception_5b/relu_5x5_reduce
I0403 19:21:54.837431  9154 net.cpp:425] inception_5b/relu_5x5_reduce <- inception_5b/5x5_reduce
I0403 19:21:54.837450  9154 net.cpp:386] inception_5b/relu_5x5_reduce -> inception_5b/5x5_reduce (in-place)
I0403 19:21:54.837834  9154 net.cpp:141] Setting up inception_5b/relu_5x5_reduce
I0403 19:21:54.837862  9154 net.cpp:148] Top shape: 24 48 7 7 (56448)
I0403 19:21:54.837877  9154 net.cpp:156] Memory required for data: 1334725152
I0403 19:21:54.837893  9154 layer_factory.hpp:77] Creating layer inception_5b/5x5
I0403 19:21:54.837913  9154 net.cpp:91] Creating Layer inception_5b/5x5
I0403 19:21:54.837929  9154 net.cpp:425] inception_5b/5x5 <- inception_5b/5x5_reduce
I0403 19:21:54.837949  9154 net.cpp:399] inception_5b/5x5 -> inception_5b/5x5
I0403 19:21:54.840085  9154 net.cpp:141] Setting up inception_5b/5x5
I0403 19:21:54.840111  9154 net.cpp:148] Top shape: 24 128 7 7 (150528)
I0403 19:21:54.840126  9154 net.cpp:156] Memory required for data: 1335327264
I0403 19:21:54.840144  9154 layer_factory.hpp:77] Creating layer inception_5b/relu_5x5
I0403 19:21:54.840162  9154 net.cpp:91] Creating Layer inception_5b/relu_5x5
I0403 19:21:54.840179  9154 net.cpp:425] inception_5b/relu_5x5 <- inception_5b/5x5
I0403 19:21:54.840195  9154 net.cpp:386] inception_5b/relu_5x5 -> inception_5b/5x5 (in-place)
I0403 19:21:54.840391  9154 net.cpp:141] Setting up inception_5b/relu_5x5
I0403 19:21:54.840417  9154 net.cpp:148] Top shape: 24 128 7 7 (150528)
I0403 19:21:54.840432  9154 net.cpp:156] Memory required for data: 1335929376
I0403 19:21:54.840447  9154 layer_factory.hpp:77] Creating layer inception_5b/pool
I0403 19:21:54.840464  9154 net.cpp:91] Creating Layer inception_5b/pool
I0403 19:21:54.840479  9154 net.cpp:425] inception_5b/pool <- inception_5a/output_inception_5a/output_0_split_3
I0403 19:21:54.840498  9154 net.cpp:399] inception_5b/pool -> inception_5b/pool
I0403 19:21:54.840570  9154 net.cpp:141] Setting up inception_5b/pool
I0403 19:21:54.840593  9154 net.cpp:148] Top shape: 24 832 7 7 (978432)
I0403 19:21:54.840607  9154 net.cpp:156] Memory required for data: 1339843104
I0403 19:21:54.840621  9154 layer_factory.hpp:77] Creating layer inception_5b/pool_proj
I0403 19:21:54.840641  9154 net.cpp:91] Creating Layer inception_5b/pool_proj
I0403 19:21:54.840661  9154 net.cpp:425] inception_5b/pool_proj <- inception_5b/pool
I0403 19:21:54.840678  9154 net.cpp:399] inception_5b/pool_proj -> inception_5b/pool_proj
I0403 19:21:54.842943  9154 net.cpp:141] Setting up inception_5b/pool_proj
I0403 19:21:54.842972  9154 net.cpp:148] Top shape: 24 128 7 7 (150528)
I0403 19:21:54.842988  9154 net.cpp:156] Memory required for data: 1340445216
I0403 19:21:54.843006  9154 layer_factory.hpp:77] Creating layer inception_5b/relu_pool_proj
I0403 19:21:54.843025  9154 net.cpp:91] Creating Layer inception_5b/relu_pool_proj
I0403 19:21:54.843041  9154 net.cpp:425] inception_5b/relu_pool_proj <- inception_5b/pool_proj
I0403 19:21:54.843058  9154 net.cpp:386] inception_5b/relu_pool_proj -> inception_5b/pool_proj (in-place)
I0403 19:21:54.843359  9154 net.cpp:141] Setting up inception_5b/relu_pool_proj
I0403 19:21:54.843385  9154 net.cpp:148] Top shape: 24 128 7 7 (150528)
I0403 19:21:54.843400  9154 net.cpp:156] Memory required for data: 1341047328
I0403 19:21:54.843415  9154 layer_factory.hpp:77] Creating layer inception_5b/output
I0403 19:21:54.843433  9154 net.cpp:91] Creating Layer inception_5b/output
I0403 19:21:54.843463  9154 net.cpp:425] inception_5b/output <- inception_5b/1x1
I0403 19:21:54.843482  9154 net.cpp:425] inception_5b/output <- inception_5b/3x3
I0403 19:21:54.843497  9154 net.cpp:425] inception_5b/output <- inception_5b/5x5
I0403 19:21:54.843513  9154 net.cpp:425] inception_5b/output <- inception_5b/pool_proj
I0403 19:21:54.843529  9154 net.cpp:399] inception_5b/output -> inception_5b/output
I0403 19:21:54.843580  9154 net.cpp:141] Setting up inception_5b/output
I0403 19:21:54.843605  9154 net.cpp:148] Top shape: 24 1024 7 7 (1204224)
I0403 19:21:54.843618  9154 net.cpp:156] Memory required for data: 1345864224
I0403 19:21:54.843632  9154 layer_factory.hpp:77] Creating layer pool5/7x7_s1
I0403 19:21:54.843649  9154 net.cpp:91] Creating Layer pool5/7x7_s1
I0403 19:21:54.843665  9154 net.cpp:425] pool5/7x7_s1 <- inception_5b/output
I0403 19:21:54.843684  9154 net.cpp:399] pool5/7x7_s1 -> pool5/7x7_s1
I0403 19:21:54.843895  9154 net.cpp:141] Setting up pool5/7x7_s1
I0403 19:21:54.843920  9154 net.cpp:148] Top shape: 24 1024 1 1 (24576)
I0403 19:21:54.843935  9154 net.cpp:156] Memory required for data: 1345962528
I0403 19:21:54.843950  9154 layer_factory.hpp:77] Creating layer pool5/drop_7x7_s1
I0403 19:21:54.843968  9154 net.cpp:91] Creating Layer pool5/drop_7x7_s1
I0403 19:21:54.843984  9154 net.cpp:425] pool5/drop_7x7_s1 <- pool5/7x7_s1
I0403 19:21:54.844002  9154 net.cpp:386] pool5/drop_7x7_s1 -> pool5/7x7_s1 (in-place)
I0403 19:21:54.844053  9154 net.cpp:141] Setting up pool5/drop_7x7_s1
I0403 19:21:54.844074  9154 net.cpp:148] Top shape: 24 1024 1 1 (24576)
I0403 19:21:54.844089  9154 net.cpp:156] Memory required for data: 1346060832
I0403 19:21:54.844102  9154 layer_factory.hpp:77] Creating layer loss3/classifier_plantvillage
I0403 19:21:54.844121  9154 net.cpp:91] Creating Layer loss3/classifier_plantvillage
I0403 19:21:54.844140  9154 net.cpp:425] loss3/classifier_plantvillage <- pool5/7x7_s1
I0403 19:21:54.844157  9154 net.cpp:399] loss3/classifier_plantvillage -> loss3/classifier_plantvillage
I0403 19:21:54.844579  9154 net.cpp:141] Setting up loss3/classifier_plantvillage
I0403 19:21:54.844604  9154 net.cpp:148] Top shape: 24 38 (912)
I0403 19:21:54.844617  9154 net.cpp:156] Memory required for data: 1346064480
I0403 19:21:54.844635  9154 layer_factory.hpp:77] Creating layer loss3/classifier_plantvillage_loss3/classifier_plantvillage_0_split
I0403 19:21:54.844652  9154 net.cpp:91] Creating Layer loss3/classifier_plantvillage_loss3/classifier_plantvillage_0_split
I0403 19:21:54.844667  9154 net.cpp:425] loss3/classifier_plantvillage_loss3/classifier_plantvillage_0_split <- loss3/classifier_plantvillage
I0403 19:21:54.844687  9154 net.cpp:399] loss3/classifier_plantvillage_loss3/classifier_plantvillage_0_split -> loss3/classifier_plantvillage_loss3/classifier_plantvillage_0_split_0
I0403 19:21:54.844708  9154 net.cpp:399] loss3/classifier_plantvillage_loss3/classifier_plantvillage_0_split -> loss3/classifier_plantvillage_loss3/classifier_plantvillage_0_split_1
I0403 19:21:54.844727  9154 net.cpp:399] loss3/classifier_plantvillage_loss3/classifier_plantvillage_0_split -> loss3/classifier_plantvillage_loss3/classifier_plantvillage_0_split_2
I0403 19:21:54.844748  9154 net.cpp:399] loss3/classifier_plantvillage_loss3/classifier_plantvillage_0_split -> loss3/classifier_plantvillage_loss3/classifier_plantvillage_0_split_3
I0403 19:21:54.844847  9154 net.cpp:141] Setting up loss3/classifier_plantvillage_loss3/classifier_plantvillage_0_split
I0403 19:21:54.844869  9154 net.cpp:148] Top shape: 24 38 (912)
I0403 19:21:54.844885  9154 net.cpp:148] Top shape: 24 38 (912)
I0403 19:21:54.844900  9154 net.cpp:148] Top shape: 24 38 (912)
I0403 19:21:54.844915  9154 net.cpp:148] Top shape: 24 38 (912)
I0403 19:21:54.844928  9154 net.cpp:156] Memory required for data: 1346079072
I0403 19:21:54.844943  9154 layer_factory.hpp:77] Creating layer loss1/loss
I0403 19:21:54.844966  9154 net.cpp:91] Creating Layer loss1/loss
I0403 19:21:54.844983  9154 net.cpp:425] loss1/loss <- loss1/classifier_plantvillage_loss1/classifier_plantvillage_0_split_0
I0403 19:21:54.845012  9154 net.cpp:425] loss1/loss <- label_data_1_split_0
…
