…
I0403 19:25:24.668510  9219 net.cpp:313] The NetState phase (1) differed from the phase (0) specified by a rule in layer data
I0403 19:25:24.669692  9219 net.cpp:49] Initializing net from parameters: 
state {
  phase: TEST
}
layer {
  name: "data"
  type: "Data"
  top: "data"
  top: "label"
  include {
    phase: TEST
  }
  transform_param {
    mirror: false
    crop_size: 224
    mean_file: "/home/mohanty/data/final_dataset/lmdb/color-50-50/mean.binaryproto"
  }
  data_param {
    source: "/home/mohanty/data/final_dataset/lmdb/color-50-50/test_db"
    batch_size: 24
    backend: LMDB
  }
}
layer {
  name: "conv1/7x7_s2"
  type: "Convolution"
  bottom: "data"
  top: "conv1/7x7_s2"
  param {
    lr_mult: 1
    decay_mult: 1
  }
  param {
    lr_mult: 2
    decay_mult: 0
  }
  convolution_param {
    num_output: 64
    pad: 3
    kernel_size: 7
    stride: 2
    weight_filler {
      type: "xavier"
      std: 0.1
    }
    bias_filler {
      type: "constant"
      value: 0.2
    }
  }
}
layer {
  name: "conv1/relu_7x7"
  type: "ReLU"
  bottom: "conv1/7x7_s2"
  top: "conv1/7x7_s2"
}
layer {
  name: "pool1/3x3_s2"
  type: "Pooling"
  bottom: "conv1/7x7_s2"
  top: "pool1/3x3_s2"
  pooling_param {
    pool: MAX
    kernel_size: 3
    stride: 2
  }
}
layer {
  name: "pool1/norm1"
  type: "LRN"
  bottom: "pool1/3x3_s2"
  top: "pool1/norm1"
  lrn_param {
    local_size: 5
    alpha: 0.0001
    beta: 0.75
  }
}
layer {
  name: "conv2/3x3_reduce"
  type: "Convolution"
  bottom: "pool1/norm1"
  top: "conv2/3x3_reduce"
  param {
    lr_mult: 1
    decay_mult: 1
  }
  param {
    lr_mult: 2
    decay_mult: 0
  }
  convolution_param {
    num_output: 64
    kernel_size: 1
    weight_filler {
      type: "xavier"
      std: 0.1
    }
    bias_filler {
      type: "constant"
      value: 0.2
    }
  }
}
layer {
  name: "conv2/relu_3x3_reduce"
  type: "ReLU"
  bottom: "conv2/3x3_reduce"
  top: "conv2/3x3_reduce"
}
layer {
  name: "conv2/3x3"
  type: "Convolution"
  bottom: "conv2/3x3_reduce"
  top: "conv2/3x3"
  param {
    lr_mult: 1
    decay_mult: 1
  }
  param {
    lr_mult: 2
    decay_mult: 0
  }
  convolution_param {
    num_output: 192
    pad: 1
    kernel_size: 3
    weight_filler {
      type: "xavier"
      std: 0.03
    }
    bias_filler {
      type: "constant"
      value: 0.2
    }
  }
}
layer {
  name: "conv2/relu_3x3"
  type: "ReLU"
  bottom: "conv2/3x3"
  top: "conv2/3x3"
}
layer {
  name: "conv2/norm2"
  type: "LRN"
  bottom: "conv2/3x3"
  top: "conv2/norm2"
  lrn_param {
    local_size: 5
    alpha: 0.0001
    beta: 0.75
  }
}
layer {
  name: "pool2/3x3_s2"
  type: "Pooling"
  bottom: "conv2/norm2"
  top: "pool2/3x3_s2"
  pooling_param {
    pool: MAX
    kernel_size: 3
    stride: 2
  }
}
layer {
  name: "inception_3a/1x1"
  type: "Convolution"
  bottom: "pool2/3x3_s2"
  top: "inception_3a/1x1"
  param {
    lr_mult: 1
    decay_mult: 1
  }
  param {
    lr_mult: 2
    decay_mult: 0
  }
  convolution_param {
    num_output: 64
    kernel_size: 1
    weight_filler {
      type: "xavier"
      std: 0.03
    }
    bias_filler {
      type: "constant"
      value: 0.2
    }
  }
}
layer {
  name: "inception_3a/relu_1x1"
  type: "ReLU"
  bottom: "inception_3a/1x1"
  top: "inception_3a/1x1"
}
layer {
  name: "inception_3a/3x3_reduce"
  type: "Convolution"
  bottom: "pool2/3x3_s2"
  top: "inception_3a/3x3_reduce"
  param {
    lr_mult: 1
    decay_mult: 1
  }
  param {
    lr_mult: 2
    decay_mult: 0
  }
  convolution_param {
    num_output: 96
    kernel_size: 1
    weight_filler {
      type: "xavier"
      std: 0.09
    }
    bias_filler {
      type: "constant"
      value: 0.2
    }
  }
}
layer {
  name: "inception_3a/relu_3x3_reduce"
  type: "ReLU"
  bottom: "inception_3a/3x3_reduce"
  top: "inception_3a/3x3_reduce"
}
layer {
  name: "inception_3a/3x3"
  type: "Convolution"
  bottom: "inception_3a/3x3_reduce"
  top: "inception_3a/3x3"
  param {
    lr_mult: 1
    decay_mult: 1
  }
  param {
    lr_mult: 2
    decay_mult: 0
  }
  convolution_param {
    num_output: 128
    pad: 1
    kernel_size: 3
    weight_filler {
      type: "xavier"
      std: 0.03
    }
    bias_filler {
      type: "constant"
      value: 0.2
    }
  }
}
layer {
  name: "inception_3a/relu_3x3"
  type: "ReLU"
  bottom: "inception_3a/3x3"
  top: "inception_3a/3x3"
}
layer {
  name: "inception_3a/5x5_reduce"
  type: "Convolution"
  bottom: "pool2/3x3_s2"
  top: "inception_3a/5x5_reduce"
  param {
    lr_mult: 1
    decay_mult: 1
  }
  param {
    lr_mult: 2
    decay_mult: 0
  }
  convolution_param {
    num_output: 16
    kernel_size: 1
    weight_filler {
      type: "xavier"
      std: 0.2
    }
    bias_filler {
      type: "constant"
      value: 0.2
    }
  }
}
layer {
  name: "inception_3a/relu_5x5_reduce"
  type: "ReLU"
  bottom: "inception_3a/5x5_reduce"
  top: "inception_3a/5x5_reduce"
}
layer {
  name: "inception_3a/5x5"
  type: "Convolution"
  bottom: "inception_3a/5x5_reduce"
  top: "inception_3a/5x5"
  param {
    lr_mult: 1
    decay_mult: 1
  }
  param {
    lr_mult: 2
    decay_mult: 0
  }
  convolution_param {
    num_output: 32
    pad: 2
    kernel_size: 5
    weight_filler {
      type: "xavier"
      std: 0.03
    }
    bias_filler {
      type: "constant"
      value: 0.2
    }
  }
}
layer {
  name: "inception_3a/relu_5x5"
  type: "ReLU"
  bottom: "inception_3a/5x5"
  top: "inception_3a/5x5"
}
layer {
  name: "inception_3a/pool"
  type: "Pooling"
  bottom: "pool2/3x3_s2"
  top: "inception_3a/pool"
  pooling_param {
    pool: MAX
    kernel_size: 3
    stride: 1
    pad: 1
  }
}
layer {
  name: "inception_3a/pool_proj"
  type: "Convolution"
  bottom: "inception_3a/pool"
  top: "inception_3a/pool_proj"
  param {
    lr_mult: 1
    decay_mult: 1
  }
  param {
    lr_mult: 2
    decay_mult: 0
  }
  convolution_param {
    num_output: 32
    kernel_size: 1
    weight_filler {
      type: "xavier"
      std: 0.1
    }
    bias_filler {
      type: "constant"
      value: 0.2
    }
  }
}
layer {
  name: "inception_3a/relu_pool_proj"
  type: "ReLU"
  bottom: "inception_3a/pool_proj"
  top: "inception_3a/pool_proj"
}
layer {
  name: "inception_3a/output"
  type: "Concat"
  bottom: "inception_3a/1x1"
  bottom: "inception_3a/3x3"
  bottom: "inception_3a/5x5"
  bottom: "inception_3a/pool_proj"
  top: "inception_3a/output"
}
layer {
  name: "inception_3b/1x1"
  type: "Convolution"
  bottom: "inception_3a/output"
  top: "inception_3b/1x1"
  param {
    lr_mult: 1
    decay_mult: 1
  }
  param {
    lr_mult: 2
    decay_mult: 0
  }
  convolution_param {
    num_output: 128
    kernel_size: 1
    weight_filler {
      type: "xavier"
      std: 0.03
    }
    bias_filler {
      type: "constant"
      value: 0.2
    }
  }
}
layer {
  name: "inception_3b/relu_1x1"
  type: "ReLU"
  bottom: "inception_3b/1x1"
  top: "inception_3b/1x1"
}
layer {
  name: "inception_3b/3x3_reduce"
  type: "Convolution"
  bottom: "inception_3a/output"
  top: "inception_3b/3x3_reduce"
  param {
    lr_mult: 1
    decay_mult: 1
  }
  param {
    lr_mult: 2
    decay_mult: 0
  }
  convolution_param {
    num_output: 128
    kernel_size: 1
    weight_filler {
      type: "xavier"
      std: 0.09
    }
    bias_filler {
      type: "constant"
      value: 0.2
    }
  }
}
layer {
  name: "inception_3b/relu_3x3_reduce"
  type: "ReLU"
  bottom: "inception_3b/3x3_reduce"
  top: "inception_3b/3x3_reduce"
}
layer {
  name: "inception_3b/3x3"
  type: "Convolution"
  bottom: "inception_3b/3x3_reduce"
  top: "inception_3b/3x3"
  param {
    lr_mult: 1
    decay_mult: 1
  }
  param {
    lr_mult: 2
    decay_mult: 0
  }
  convolution_param {
    num_output: 192
    pad: 1
    kernel_size: 3
    weight_filler {
      type: "xavier"
      std: 0.03
    }
    bias_filler {
      type: "constant"
      value: 0.2
    }
  }
}
layer {
  name: "inception_3b/relu_3x3"
  type: "ReLU"
  bottom: "inception_3b/3x3"
  top: "inception_3b/3x3"
}
layer {
  name: "inception_3b/5x5_reduce"
  type: "Convolution"
  bottom: "inception_3a/output"
  top: "inception_3b/5x5_reduce"
  param {
    lr_mult: 1
    decay_mult: 1
  }
  param {
    lr_mult: 2
    decay_mult: 0
  }
  convolution_param {
    num_output: 32
    kernel_size: 1
    weight_filler {
      type: "xavier"
      std: 0.2
    }
    bias_filler {
      type: "constant"
      value: 0.2
    }
  }
}
layer {
  name: "inception_3b/relu_5x5_reduce"
  type: "ReLU"
  bottom: "inception_3b/5x5_reduce"
  top: "inception_3b/5x5_reduce"
}
layer {
  name: "inception_3b/5x5"
  type: "Convolution"
  bottom: "inception_3b/5x5_reduce"
  top: "inception_3b/5x5"
  param {
    lr_mult: 1
    decay_mult: 1
  }
  param {
    lr_mult: 2
    decay_mult: 0
  }
  convolution_param {
    num_output: 96
    pad: 2
    kernel_size: 5
    weight_filler {
      type: "xavier"
      std: 0.03
    }
    bias_filler {
      type: "constant"
      value: 0.2
    }
  }
}
layer {
  name: "inception_3b/relu_5x5"
  type: "ReLU"
  bottom: "inception_3b/5x5"
  top: "inception_3b/5x5"
}
layer {
  name: "inception_3b/pool"
  type: "Pooling"
  bottom: "inception_3a/output"
  top: "inception_3b/pool"
  pooling_param {
    pool: MAX
    kernel_size: 3
    stride: 1
    pad: 1
  }
}
layer {
  name: "inception_3b/pool_proj"
  type: "Convolution"
  bottom: "inception_3b/pool"
  top: "inception_3b/pool_proj"
  param {
    lr_mult: 1
    decay_mult: 1
  }
  param {
    lr_mult: 2
    decay_mult: 0
  }
  convolution_param {
    num_output: 64
    kernel_size: 1
    weight_filler {
      type: "xavier"
      std: 0.1
    }
    bias_filler {
      type: "constant"
      value: 0.2
    }
  }
}
layer {
  name: "inception_3b/relu_pool_proj"
  type: "ReLU"
  bottom: "inception_3b/pool_proj"
  top: "inception_3b/pool_proj"
}
layer {
  name: "inception_3b/output"
  type: "Concat"
  bottom: "inception_3b/1x1"
  bottom: "inception_3b/3x3"
  bottom: "inception_3b/5x5"
  bottom: "inception_3b/pool_proj"
  top: "inception_3b/output"
}
layer {
  name: "pool3/3x3_s2"
  type: "Pooling"
  bottom: "inception_3b/output"
  top: "pool3/3x3_s2"
  pooling_param {
    pool: MAX
    kernel_size: 3
    stride: 2
  }
}
layer {
  name: "inception_4a/1x1"
  type: "Convolution"
  bottom: "pool3/3x3_s2"
  top: "inception_4a/1x1"
  param {
    lr_mult: 1
    decay_mult: 1
  }
  param {
    lr_mult: 2
    decay_mult: 0
  }
  convolution_param {
    num_output: 192
    kernel_size: 1
    weight_filler {
      type: "xavier"
      std: 0.03
    }
    bias_filler {
      type: "constant"
      value: 0.2
    }
  }
}
layer {
  name: "inception_4a/relu_1x1"
  type: "ReLU"
  bottom: "inception_4a/1x1"
  top: "inception_4a/1x1"
}
layer {
  name: "inception_4a/3x3_reduce"
  type: "Convolution"
  bottom: "pool3/3x3_s2"
  top: "inception_4a/3x3_reduce"
  param {
    lr_mult: 1
    decay_mult: 1
  }
  param {
    lr_mult: 2
    decay_mult: 0
  }
  convolution_param {
    num_output: 96
    kernel_size: 1
    weight_filler {
      type: "xavier"
      std: 0.09
    }
    bias_filler {
      type: "constant"
      value: 0.2
    }
  }
}
layer {
  name: "inception_4a/relu_3x3_reduce"
  type: "ReLU"
  bottom: "inception_4a/3x3_reduce"
  top: "inception_4a/3x3_reduce"
}
layer {
  name: "inception_4a/3x3"
  type: "Convolution"
  bottom: "inception_4a/3x3_reduce"
  top: "inception_4a/3x3"
  param {
    lr_mult: 1
    decay_mult: 1
  }
  param {
    lr_mult: 2
    decay_mult: 0
  }
  convolution_param {
    num_output: 208
    pad: 1
    kernel_size: 3
    weight_filler {
      type: "xavier"
      std: 0.03
    }
    bias_filler {
      type: "constant"
      value: 0.2
    }
  }
}
layer {
  name: "inception_4a/relu_3x3"
  type: "ReLU"
  bottom: "inception_4a/3x3"
  top: "inception_4a/3x3"
}
layer {
  name: "inception_4a/5x5_reduce"
  type: "Convolution"
  bottom: "pool3/3x3_s2"
  top: "inception_4a/5x5_reduce"
  param {
    lr_mult: 1
    decay_mult: 1
  }
  param {
    lr_mult: 2
    decay_mult: 0
  }
  convolution_param {
    num_output: 16
    kernel_size: 1
    weight_filler {
      type: "xavier"
      std: 0.2
    }
    bias_filler {
      type: "constant"
      value: 0.2
    }
  }
}
layer {
  name: "inception_4a/relu_5x5_reduce"
  type: "ReLU"
  bottom: "inception_4a/5x5_reduce"
  top: "inception_4a/5x5_reduce"
}
layer {
  name: "inception_4a/5x5"
  type: "Convolution"
  bottom: "inception_4a/5x5_reduce"
  top: "inception_4a/5x5"
  param {
    lr_mult: 1
    decay_mult: 1
  }
  param {
    lr_mult: 2
    decay_mult: 0
  }
  convolution_param {
    num_output: 48
    pad: 2
    kernel_size: 5
    weight_filler {
      type: "xavier"
      std: 0.03
    }
    bias_filler {
      type: "constant"
      value: 0.2
    }
  }
}
layer {
  name: "inception_4a/relu_5x5"
  type: "ReLU"
  bottom: "inception_4a/5x5"
  top: "inception_4a/5x5"
}
layer {
  name: "inception_4a/pool"
  type: "Pooling"
  bottom: "pool3/3x3_s2"
  top: "inception_4a/pool"
  pooling_param {
    pool: MAX
    kernel_size: 3
    stride: 1
    pad: 1
  }
}
layer {
  name: "inception_4a/pool_proj"
  type: "Convolution"
  bottom: "inception_4a/pool"
  top: "inception_4a/pool_proj"
  param {
    lr_mult: 1
    decay_mult: 1
  }
  param {
    lr_mult: 2
    decay_mult: 0
  }
  convolution_param {
    num_output: 64
    kernel_size: 1
    weight_filler {
      type: "xavier"
      std: 0.1
    }
    bias_filler {
      type: "constant"
      value: 0.2
    }
  }
}
layer {
  name: "inception_4a/relu_pool_proj"
  type: "ReLU"
  bottom: "inception_4a/pool_proj"
  top: "inception_4a/pool_proj"
}
layer {
  name: "inception_4a/output"
  type: "Concat"
  bottom: "inception_4a/1x1"
  bottom: "inception_4a/3x3"
  bottom: "inception_4a/5x5"
  bottom: "inception_4a/pool_proj"
  top: "inception_4a/output"
}
layer {
  name: "loss1/ave_pool"
  type: "Pooling"
  bottom: "inception_4a/output"
  top: "loss1/ave_pool"
  pooling_param {
    pool: AVE
    kernel_size: 5
    stride: 3
  }
}
layer {
  name: "loss1/conv"
  type: "Convolution"
  bottom: "loss1/ave_pool"
  top: "loss1/conv"
  param {
    lr_mult: 1
    decay_mult: 1
  }
  param {
    lr_mult: 2
    decay_mult: 0
  }
  convolution_param {
    num_output: 128
    kernel_size: 1
    weight_filler {
      type: "xavier"
      std: 0.08
    }
    bias_filler {
      type: "constant"
      value: 0.2
    }
  }
}
layer {
  name: "loss1/relu_conv"
  type: "ReLU"
  bottom: "loss1/conv"
  top: "loss1/conv"
}
layer {
  name: "loss1/fc"
  type: "InnerProduct"
  bottom: "loss1/conv"
  top: "loss1/fc"
  param {
    lr_mult: 1
    decay_mult: 1
  }
  param {
    lr_mult: 2
    decay_mult: 0
  }
  inner_product_param {
    num_output: 1024
    weight_filler {
      type: "xavier"
      std: 0.02
    }
    bias_filler {
      type: "constant"
      value: 0.2
    }
  }
}
layer {
  name: "loss1/relu_fc"
  type: "ReLU"
  bottom: "loss1/fc"
  top: "loss1/fc"
}
layer {
  name: "loss1/drop_fc"
  type: "Dropout"
  bottom: "loss1/fc"
  top: "loss1/fc"
  dropout_param {
    dropout_ratio: 0.7
  }
}
layer {
  name: "loss1/classifier_plantvillage"
  type: "InnerProduct"
  bottom: "loss1/fc"
  top: "loss1/classifier_plantvillage"
  param {
    lr_mult: 1
    decay_mult: 1
  }
  param {
    lr_mult: 2
    decay_mult: 0
  }
  inner_product_param {
    num_output: 38
    weight_filler {
      type: "xavier"
      std: 0.0009765625
    }
    bias_filler {
      type: "constant"
      value: 0
    }
  }
}
layer {
  name: "inception_4b/1x1"
  type: "Convolution"
  bottom: "inception_4a/output"
  top: "inception_4b/1x1"
  param {
    lr_mult: 1
    decay_mult: 1
  }
  param {
    lr_mult: 2
    decay_mult: 0
  }
  convolution_param {
    num_output: 160
    kernel_size: 1
    weight_filler {
      type: "xavier"
      std: 0.03
    }
    bias_filler {
      type: "constant"
      value: 0.2
    }
  }
}
layer {
  name: "inception_4b/relu_1x1"
  type: "ReLU"
  bottom: "inception_4b/1x1"
  top: "inception_4b/1x1"
}
layer {
  name: "inception_4b/3x3_reduce"
  type: "Convolution"
  bottom: "inception_4a/output"
  top: "inception_4b/3x3_reduce"
  param {
    lr_mult: 1
    decay_mult: 1
  }
  param {
    lr_mult: 2
    decay_mult: 0
  }
  convolution_param {
    num_output: 112
    kernel_size: 1
    weight_filler {
      type: "xavier"
      std: 0.09
    }
    bias_filler {
      type: "constant"
      value: 0.2
    }
  }
}
layer {
  name: "inception_4b/relu_3x3_reduce"
  type: "ReLU"
  bottom: "inception_4b/3x3_reduce"
  top: "inception_4b/3x3_reduce"
}
layer {
  name: "inception_4b/3x3"
  type: "Convolution"
  bottom: "inception_4b/3x3_reduce"
  top: "inception_4b/3x3"
  param {
    lr_mult: 1
    decay_mult: 1
  }
  param {
    lr_mult: 2
    decay_mult: 0
  }
  convolution_param {
    num_output: 224
    pad: 1
    kernel_size: 3
    weight_filler {
      type: "xavier"
      std: 0.03
    }
    bias_filler {
      type: "constant"
      value: 0.2
    }
  }
}
layer {
  name: "inception_4b/relu_3x3"
  type: "ReLU"
  bottom: "inception_4b/3x3"
  top: "inception_4b/3x3"
}
layer {
  name: "inception_4b/5x5_reduce"
  type: "Convolution"
  bottom: "inception_4a/output"
  top: "inception_4b/5x5_reduce"
  param {
    lr_mult: 1
    decay_mult: 1
  }
  param {
    lr_mult: 2
    decay_mult: 0
  }
  convolution_param {
    num_output: 24
    kernel_size: 1
    weight_filler {
      type: "xavier"
      std: 0.2
    }
    bias_filler {
      type: "constant"
      value: 0.2
    }
  }
}
layer {
  name: "inception_4b/relu_5x5_reduce"
  type: "ReLU"
  bottom: "inception_4b/5x5_reduce"
  top: "inception_4b/5x5_reduce"
}
layer {
  name: "inception_4b/5x5"
  type: "Convolution"
  bottom: "inception_4b/5x5_reduce"
  top: "inception_4b/5x5"
  param {
    lr_mult: 1
    decay_mult: 1
  }
  param {
    lr_mult: 2
    decay_mult: 0
  }
  convolution_param {
    num_output: 64
    pad: 2
    kernel_size: 5
    weight_filler {
      type: "xavier"
      std: 0.03
    }
    bias_filler {
      type: "constant"
      value: 0.2
    }
  }
}
layer {
  name: "inception_4b/relu_5x5"
  type: "ReLU"
  bottom: "inception_4b/5x5"
  top: "inception_4b/5x5"
}
layer {
  name: "inception_4b/pool"
  type: "Pooling"
  bottom: "inception_4a/output"
  top: "inception_4b/pool"
  pooling_param {
    pool: MAX
    kernel_size: 3
    stride: 1
    pad: 1
  }
}
layer {
  name: "inception_4b/pool_proj"
  type: "Convolution"
  bottom: "inception_4b/pool"
  top: "inception_4b/pool_proj"
  param {
    lr_mult: 1
    decay_mult: 1
  }
  param {
    lr_mult: 2
    decay_mult: 0
  }
  convolution_param {
    num_output: 64
    kernel_size: 1
    weight_filler {
      type: "xavier"
      std: 0.1
    }
    bias_filler {
      type: "constant"
      value: 0.2
    }
  }
}
layer {
  name: "inception_4b/relu_pool_proj"
  type: "ReLU"
  bottom: "inception_4b/pool_proj"
  top: "inception_4b/pool_proj"
}
layer {
  name: "inception_4b/output"
  type: "Concat"
  bottom: "inception_4b/1x1"
  bottom: "inception_4b/3x3"
  bottom: "inception_4b/5x5"
  bottom: "inception_4b/pool_proj"
  top: "inception_4b/output"
}
layer {
  name: "inception_4c/1x1"
  type: "Convolution"
  bottom: "inception_4b/output"
  top: "inception_4c/1x1"
  param {
    lr_mult: 1
    decay_mult: 1
  }
  param {
    lr_mult: 2
    decay_mult: 0
  }
  convolution_param {
    num_output: 128
    kernel_size: 1
    weight_filler {
      type: "xavier"
      std: 0.03
    }
    bias_filler {
      type: "constant"
      value: 0.2
    }
  }
}
layer {
  name: "inception_4c/relu_1x1"
  type: "ReLU"
  bottom: "inception_4c/1x1"
  top: "inception_4c/1x1"
}
layer {
  name: "inception_4c/3x3_reduce"
  type: "Convolution"
  bottom: "inception_4b/output"
  top: "inception_4c/3x3_reduce"
  param {
    lr_mult: 1
    decay_mult: 1
  }
  param {
    lr_mult: 2
    decay_mult: 0
  }
  convolution_param {
    num_output: 128
    kernel_size: 1
    weight_filler {
      type: "xavier"
      std: 0.09
    }
    bias_filler {
      type: "constant"
      value: 0.2
    }
  }
}
layer {
  name: "inception_4c/relu_3x3_reduce"
  type: "ReLU"
  bottom: "inception_4c/3x3_reduce"
  top: "inception_4c/3x3_reduce"
}
layer {
  name: "inception_4c/3x3"
  type: "Convolution"
  bottom: "inception_4c/3x3_reduce"
  top: "inception_4c/3x3"
  param {
    lr_mult: 1
    decay_mult: 1
  }
  param {
    lr_mult: 2
    decay_mult: 0
  }
  convolution_param {
    num_output: 256
    pad: 1
    kernel_size: 3
    weight_filler {
      type: "xavier"
      std: 0.03
    }
    bias_filler {
      type: "constant"
      value: 0.2
    }
  }
}
layer {
  name: "inception_4c/relu_3x3"
  type: "ReLU"
  bottom: "inception_4c/3x3"
  top: "inception_4c/3x3"
}
layer {
  name: "inception_4c/5x5_reduce"
  type: "Convolution"
  bottom: "inception_4b/output"
  top: "inception_4c/5x5_reduce"
  param {
    lr_mult: 1
    decay_mult: 1
  }
  param {
    lr_mult: 2
    decay_mult: 0
  }
  convolution_param {
    num_output: 24
    kernel_size: 1
    weight_filler {
      type: "xavier"
      std: 0.2
    }
    bias_filler {
      type: "constant"
      value: 0.2
    }
  }
}
layer {
  name: "inception_4c/relu_5x5_reduce"
  type: "ReLU"
  bottom: "inception_4c/5x5_reduce"
  top: "inception_4c/5x5_reduce"
}
layer {
  name: "inception_4c/5x5"
  type: "Convolution"
  bottom: "inception_4c/5x5_reduce"
  top: "inception_4c/5x5"
  param {
    lr_mult: 1
    decay_mult: 1
  }
  param {
    lr_mult: 2
    decay_mult: 0
  }
  convolution_param {
    num_output: 64
    pad: 2
    kernel_size: 5
    weight_filler {
      type: "xavier"
      std: 0.03
    }
    bias_filler {
      type: "constant"
      value: 0.2
    }
  }
}
layer {
  name: "inception_4c/relu_5x5"
  type: "ReLU"
  bottom: "inception_4c/5x5"
  top: "inception_4c/5x5"
}
layer {
  name: "inception_4c/pool"
  type: "Pooling"
  bottom: "inception_4b/output"
  top: "inception_4c/pool"
  pooling_param {
    pool: MAX
    kernel_size: 3
    stride: 1
    pad: 1
  }
}
layer {
  name: "inception_4c/pool_proj"
  type: "Convolution"
  bottom: "inception_4c/pool"
  top: "inception_4c/pool_proj"
  param {
    lr_mult: 1
    decay_mult: 1
  }
  param {
    lr_mult: 2
    decay_mult: 0
  }
  convolution_param {
    num_output: 64
    kernel_size: 1
    weight_filler {
      type: "xavier"
      std: 0.1
    }
    bias_filler {
      type: "constant"
      value: 0.2
    }
  }
}
layer {
  name: "inception_4c/relu_pool_proj"
  type: "ReLU"
  bottom: "inception_4c/pool_proj"
  top: "inception_4c/pool_proj"
}
layer {
  name: "inception_4c/output"
  type: "Concat"
  bottom: "inception_4c/1x1"
  bottom: "inception_4c/3x3"
  bottom: "inception_4c/5x5"
  bottom: "inception_4c/pool_proj"
  top: "inception_4c/output"
}
layer {
  name: "inception_4d/1x1"
  type: "Convolution"
  bottom: "inception_4c/output"
  top: "inception_4d/1x1"
  param {
    lr_mult: 1
    decay_mult: 1
  }
  param {
    lr_mult: 2
    decay_mult: 0
  }
  convolution_param {
    num_output: 112
    kernel_size: 1
    weight_filler {
      type: "xavier"
      std: 0.03
    }
    bias_filler {
      type: "constant"
      value: 0.2
    }
  }
}
layer {
  name: "inception_4d/relu_1x1"
  type: "ReLU"
  bottom: "inception_4d/1x1"
  top: "inception_4d/1x1"
}
layer {
  name: "inception_4d/3x3_reduce"
  type: "Convolution"
  bottom: "inception_4c/output"
  top: "inception_4d/3x3_reduce"
  param {
    lr_mult: 1
    decay_mult: 1
  }
  param {
    lr_mult: 2
    decay_mult: 0
  }
  convolution_param {
    num_output: 144
    kernel_size: 1
    weight_filler {
      type: "xavier"
      std: 0.09
    }
    bias_filler {
      type: "constant"
      value: 0.2
    }
  }
}
layer {
  name: "inception_4d/relu_3x3_reduce"
  type: "ReLU"
  bottom: "inception_4d/3x3_reduce"
  top: "inception_4d/3x3_reduce"
}
layer {
  name: "inception_4d/3x3"
  type: "Convolution"
  bottom: "inception_4d/3x3_reduce"
  top: "inception_4d/3x3"
  param {
    lr_mult: 1
    decay_mult: 1
  }
  param {
    lr_mult: 2
    decay_mult: 0
  }
  convolution_param {
    num_output: 288
    pad: 1
    kernel_size: 3
    weight_filler {
      type: "xavier"
      std: 0.03
    }
    bias_filler {
      type: "constant"
      value: 0.2
    }
  }
}
layer {
  name: "inception_4d/relu_3x3"
  type: "ReLU"
  bottom: "inception_4d/3x3"
  top: "inception_4d/3x3"
}
layer {
  name: "inception_4d/5x5_reduce"
  type: "Convolution"
  bottom: "inception_4c/output"
  top: "inception_4d/5x5_reduce"
  param {
    lr_mult: 1
    decay_mult: 1
  }
  param {
    lr_mult: 2
    decay_mult: 0
  }
  convolution_param {
    num_output: 32
    kernel_size: 1
    weight_filler {
      type: "xavier"
      std: 0.2
    }
    bias_filler {
      type: "constant"
      value: 0.2
    }
  }
}
layer {
  name: "inception_4d/relu_5x5_reduce"
  type: "ReLU"
  bottom: "inception_4d/5x5_reduce"
  top: "inception_4d/5x5_reduce"
}
layer {
  name: "inception_4d/5x5"
  type: "Convolution"
  bottom: "inception_4d/5x5_reduce"
  top: "inception_4d/5x5"
  param {
    lr_mult: 1
    decay_mult: 1
  }
  param {
    lr_mult: 2
    decay_mult: 0
  }
  convolution_param {
    num_output: 64
    pad: 2
    kernel_size: 5
    weight_filler {
      type: "xavier"
      std: 0.03
    }
    bias_filler {
      type: "constant"
      value: 0.2
    }
  }
}
layer {
  name: "inception_4d/relu_5x5"
  type: "ReLU"
  bottom: "inception_4d/5x5"
  top: "inception_4d/5x5"
}
layer {
  name: "inception_4d/pool"
  type: "Pooling"
  bottom: "inception_4c/output"
  top: "inception_4d/pool"
  pooling_param {
    pool: MAX
    kernel_size: 3
    stride: 1
    pad: 1
  }
}
layer {
  name: "inception_4d/pool_proj"
  type: "Convolution"
  bottom: "inception_4d/pool"
  top: "inception_4d/pool_proj"
  param {
    lr_mult: 1
    decay_mult: 1
  }
  param {
    lr_mult: 2
    decay_mult: 0
  }
  convolution_param {
    num_output: 64
    kernel_size: 1
    weight_filler {
      type: "xavier"
      std: 0.1
    }
    bias_filler {
      type: "constant"
      value: 0.2
    }
  }
}
layer {
  name: "inception_4d/relu_pool_proj"
  type: "ReLU"
  bottom: "inception_4d/pool_proj"
  top: "inception_4d/pool_proj"
}
layer {
  name: "inception_4d/output"
  type: "Concat"
  bottom: "inception_4d/1x1"
  bottom: "inception_4d/3x3"
  bottom: "inception_4d/5x5"
  bottom: "inception_4d/pool_proj"
  top: "inception_4d/output"
}
layer {
  name: "loss2/ave_pool"
  type: "Pooling"
  bottom: "inception_4d/output"
  top: "loss2/ave_pool"
  pooling_param {
    pool: AVE
    kernel_size: 5
    stride: 3
  }
}
layer {
  name: "loss2/conv"
  type: "Convolution"
  bottom: "loss2/ave_pool"
  top: "loss2/conv"
  param {
    lr_mult: 1
    decay_mult: 1
  }
  param {
    lr_mult: 2
    decay_mult: 0
  }
  convolution_param {
    num_output: 128
    kernel_size: 1
    weight_filler {
      type: "xavier"
      std: 0.08
    }
    bias_filler {
      type: "constant"
      value: 0.2
    }
  }
}
layer {
  name: "loss2/relu_conv"
  type: "ReLU"
  bottom: "loss2/conv"
  top: "loss2/conv"
}
layer {
  name: "loss2/fc"
  type: "InnerProduct"
  bottom: "loss2/conv"
  top: "loss2/fc"
  param {
    lr_mult: 1
    decay_mult: 1
  }
  param {
    lr_mult: 2
    decay_mult: 0
  }
  inner_product_param {
    num_output: 1024
    weight_filler {
      type: "xavier"
      std: 0.02
    }
    bias_filler {
      type: "constant"
      value: 0.2
    }
  }
}
layer {
  name: "loss2/relu_fc"
  type: "ReLU"
  bottom: "loss2/fc"
  top: "loss2/fc"
}
layer {
  name: "loss2/drop_fc"
  type: "Dropout"
  bottom: "loss2/fc"
  top: "loss2/fc"
  dropout_param {
    dropout_ratio: 0.7
  }
}
layer {
  name: "loss2/classifier_plantvillage"
  type: "InnerProduct"
  bottom: "loss2/fc"
  top: "loss2/classifier_plantvillage"
  param {
    lr_mult: 1
    decay_mult: 1
  }
  param {
    lr_mult: 2
    decay_mult: 0
  }
  inner_product_param {
    num_output: 38
    weight_filler {
      type: "xavier"
      std: 0.0009765625
    }
    bias_filler {
      type: "constant"
      value: 0
    }
  }
}
layer {
  name: "inception_4e/1x1"
  type: "Convolution"
  bottom: "inception_4d/output"
  top: "inception_4e/1x1"
  param {
    lr_mult: 1
    decay_mult: 1
  }
  param {
    lr_mult: 2
    decay_mult: 0
  }
  convolution_param {
    num_output: 256
    kernel_size: 1
    weight_filler {
      type: "xavier"
      std: 0.03
    }
    bias_filler {
      type: "constant"
      value: 0.2
    }
  }
}
layer {
  name: "inception_4e/relu_1x1"
  type: "ReLU"
  bottom: "inception_4e/1x1"
  top: "inception_4e/1x1"
}
layer {
  name: "inception_4e/3x3_reduce"
  type: "Convolution"
  bottom: "inception_4d/output"
  top: "inception_4e/3x3_reduce"
  param {
    lr_mult: 1
    decay_mult: 1
  }
  param {
    lr_mult: 2
    decay_mult: 0
  }
  convolution_param {
    num_output: 160
    kernel_size: 1
    weight_filler {
      type: "xavier"
      std: 0.09
    }
    bias_filler {
      type: "constant"
      value: 0.2
    }
  }
}
layer {
  name: "inception_4e/relu_3x3_reduce"
  type: "ReLU"
  bottom: "inception_4e/3x3_reduce"
  top: "inception_4e/3x3_reduce"
}
layer {
  name: "inception_4e/3x3"
  type: "Convolution"
  bottom: "inception_4e/3x3_reduce"
  top: "inception_4e/3x3"
  param {
    lr_mult: 1
    decay_mult: 1
  }
  param {
    lr_mult: 2
    decay_mult: 0
  }
  convolution_param {
    num_output: 320
    pad: 1
    kernel_size: 3
    weight_filler {
      type: "xavier"
      std: 0.03
    }
    bias_filler {
      type: "constant"
      value: 0.2
    }
  }
}
layer {
  name: "inception_4e/relu_3x3"
  type: "ReLU"
  bottom: "inception_4e/3x3"
  top: "inception_4e/3x3"
}
layer {
  name: "inception_4e/5x5_reduce"
  type: "Convolution"
  bottom: "inception_4d/output"
  top: "inception_4e/5x5_reduce"
  param {
    lr_mult: 1
    decay_mult: 1
  }
  param {
    lr_mult: 2
    decay_mult: 0
  }
  convolution_param {
    num_output: 32
    kernel_size: 1
    weight_filler {
      type: "xavier"
      std: 0.2
    }
    bias_filler {
      type: "constant"
      value: 0.2
    }
  }
}
layer {
  name: "inception_4e/relu_5x5_reduce"
  type: "ReLU"
  bottom: "inception_4e/5x5_reduce"
  top: "inception_4e/5x5_reduce"
}
layer {
  name: "inception_4e/5x5"
  type: "Convolution"
  bottom: "inception_4e/5x5_reduce"
  top: "inception_4e/5x5"
  p
I0403 19:25:24.671226  9219 layer_factory.hpp:77] Creating layer data
I0403 19:25:24.671860  9219 net.cpp:91] Creating Layer data
I0403 19:25:24.671891  9219 net.cpp:399] data -> data
I0403 19:25:24.671943  9219 net.cpp:399] data -> label
I0403 19:25:24.671983  9219 data_transformer.cpp:25] Loading mean file from: /home/mohanty/data/final_dataset/lmdb/color-50-50/mean.binaryproto
I0403 19:25:24.673185  9221 db_lmdb.cpp:38] Opened lmdb /home/mohanty/data/final_dataset/lmdb/color-50-50/test_db
I0403 19:25:24.685158  9219 data_layer.cpp:41] output data size: 24,3,224,224
I0403 19:25:24.711268  9219 net.cpp:141] Setting up data
I0403 19:25:24.711347  9219 net.cpp:148] Top shape: 24 3 224 224 (3612672)
I0403 19:25:24.711371  9219 net.cpp:148] Top shape: 24 (24)
I0403 19:25:24.711387  9219 net.cpp:156] Memory required for data: 14450784
I0403 19:25:24.711415  9219 layer_factory.hpp:77] Creating layer label_data_1_split
I0403 19:25:24.711441  9219 net.cpp:91] Creating Layer label_data_1_split
I0403 19:25:24.711460  9219 net.cpp:425] label_data_1_split <- label
I0403 19:25:24.711493  9219 net.cpp:399] label_data_1_split -> label_data_1_split_0
I0403 19:25:24.711519  9219 net.cpp:399] label_data_1_split -> label_data_1_split_1
I0403 19:25:24.711541  9219 net.cpp:399] label_data_1_split -> label_data_1_split_2
I0403 19:25:24.711563  9219 net.cpp:399] label_data_1_split -> label_data_1_split_3
I0403 19:25:24.711585  9219 net.cpp:399] label_data_1_split -> label_data_1_split_4
I0403 19:25:24.711606  9219 net.cpp:399] label_data_1_split -> label_data_1_split_5
I0403 19:25:24.711626  9219 net.cpp:399] label_data_1_split -> label_data_1_split_6
I0403 19:25:24.711647  9219 net.cpp:399] label_data_1_split -> label_data_1_split_7
I0403 19:25:24.711666  9219 net.cpp:399] label_data_1_split -> label_data_1_split_8
I0403 19:25:24.711686  9219 net.cpp:399] label_data_1_split -> label_data_1_split_9
I0403 19:25:24.711798  9219 net.cpp:141] Setting up label_data_1_split
I0403 19:25:24.711824  9219 net.cpp:148] Top shape: 24 (24)
I0403 19:25:24.711843  9219 net.cpp:148] Top shape: 24 (24)
I0403 19:25:24.711858  9219 net.cpp:148] Top shape: 24 (24)
I0403 19:25:24.711874  9219 net.cpp:148] Top shape: 24 (24)
I0403 19:25:24.711889  9219 net.cpp:148] Top shape: 24 (24)
I0403 19:25:24.711905  9219 net.cpp:148] Top shape: 24 (24)
I0403 19:25:24.711920  9219 net.cpp:148] Top shape: 24 (24)
I0403 19:25:24.711935  9219 net.cpp:148] Top shape: 24 (24)
I0403 19:25:24.711951  9219 net.cpp:148] Top shape: 24 (24)
I0403 19:25:24.711966  9219 net.cpp:148] Top shape: 24 (24)
I0403 19:25:24.712008  9219 net.cpp:156] Memory required for data: 14451744
I0403 19:25:24.712024  9219 layer_factory.hpp:77] Creating layer conv1/7x7_s2
I0403 19:25:24.712055  9219 net.cpp:91] Creating Layer conv1/7x7_s2
I0403 19:25:24.712074  9219 net.cpp:425] conv1/7x7_s2 <- data
I0403 19:25:24.712093  9219 net.cpp:399] conv1/7x7_s2 -> conv1/7x7_s2
I0403 19:25:24.848635  9219 net.cpp:141] Setting up conv1/7x7_s2
I0403 19:25:24.848713  9219 net.cpp:148] Top shape: 24 64 112 112 (19267584)
I0403 19:25:24.848732  9219 net.cpp:156] Memory required for data: 91522080
I0403 19:25:24.848764  9219 layer_factory.hpp:77] Creating layer conv1/relu_7x7
I0403 19:25:24.848793  9219 net.cpp:91] Creating Layer conv1/relu_7x7
I0403 19:25:24.848811  9219 net.cpp:425] conv1/relu_7x7 <- conv1/7x7_s2
I0403 19:25:24.848834  9219 net.cpp:386] conv1/relu_7x7 -> conv1/7x7_s2 (in-place)
I0403 19:25:24.849112  9219 net.cpp:141] Setting up conv1/relu_7x7
I0403 19:25:24.849139  9219 net.cpp:148] Top shape: 24 64 112 112 (19267584)
I0403 19:25:24.849155  9219 net.cpp:156] Memory required for data: 168592416
I0403 19:25:24.849172  9219 layer_factory.hpp:77] Creating layer pool1/3x3_s2
I0403 19:25:24.849201  9219 net.cpp:91] Creating Layer pool1/3x3_s2
I0403 19:25:24.849220  9219 net.cpp:425] pool1/3x3_s2 <- conv1/7x7_s2
I0403 19:25:24.849243  9219 net.cpp:399] pool1/3x3_s2 -> pool1/3x3_s2
I0403 19:25:24.849324  9219 net.cpp:141] Setting up pool1/3x3_s2
I0403 19:25:24.849349  9219 net.cpp:148] Top shape: 24 64 56 56 (4816896)
I0403 19:25:24.849365  9219 net.cpp:156] Memory required for data: 187860000
I0403 19:25:24.849380  9219 layer_factory.hpp:77] Creating layer pool1/norm1
I0403 19:25:24.849406  9219 net.cpp:91] Creating Layer pool1/norm1
I0403 19:25:24.849423  9219 net.cpp:425] pool1/norm1 <- pool1/3x3_s2
I0403 19:25:24.849444  9219 net.cpp:399] pool1/norm1 -> pool1/norm1
I0403 19:25:24.849756  9219 net.cpp:141] Setting up pool1/norm1
I0403 19:25:24.849783  9219 net.cpp:148] Top shape: 24 64 56 56 (4816896)
I0403 19:25:24.849799  9219 net.cpp:156] Memory required for data: 207127584
I0403 19:25:24.849817  9219 layer_factory.hpp:77] Creating layer conv2/3x3_reduce
I0403 19:25:24.849843  9219 net.cpp:91] Creating Layer conv2/3x3_reduce
I0403 19:25:24.849861  9219 net.cpp:425] conv2/3x3_reduce <- pool1/norm1
I0403 19:25:24.849884  9219 net.cpp:399] conv2/3x3_reduce -> conv2/3x3_reduce
I0403 19:25:24.851306  9219 net.cpp:141] Setting up conv2/3x3_reduce
I0403 19:25:24.851342  9219 net.cpp:148] Top shape: 24 64 56 56 (4816896)
I0403 19:25:24.851366  9219 net.cpp:156] Memory required for data: 226395168
I0403 19:25:24.851389  9219 layer_factory.hpp:77] Creating layer conv2/relu_3x3_reduce
I0403 19:25:24.851408  9219 net.cpp:91] Creating Layer conv2/relu_3x3_reduce
I0403 19:25:24.851424  9219 net.cpp:425] conv2/relu_3x3_reduce <- conv2/3x3_reduce
I0403 19:25:24.851444  9219 net.cpp:386] conv2/relu_3x3_reduce -> conv2/3x3_reduce (in-place)
I0403 19:25:24.851714  9219 net.cpp:141] Setting up conv2/relu_3x3_reduce
I0403 19:25:24.851745  9219 net.cpp:148] Top shape: 24 64 56 56 (4816896)
I0403 19:25:24.851763  9219 net.cpp:156] Memory required for data: 245662752
I0403 19:25:24.851779  9219 layer_factory.hpp:77] Creating layer conv2/3x3
I0403 19:25:24.851804  9219 net.cpp:91] Creating Layer conv2/3x3
I0403 19:25:24.851821  9219 net.cpp:425] conv2/3x3 <- conv2/3x3_reduce
I0403 19:25:24.851841  9219 net.cpp:399] conv2/3x3 -> conv2/3x3
I0403 19:25:24.854182  9219 net.cpp:141] Setting up conv2/3x3
I0403 19:25:24.854231  9219 net.cpp:148] Top shape: 24 192 56 56 (14450688)
I0403 19:25:24.854256  9219 net.cpp:156] Memory required for data: 303465504
I0403 19:25:24.854281  9219 layer_factory.hpp:77] Creating layer conv2/relu_3x3
I0403 19:25:24.854301  9219 net.cpp:91] Creating Layer conv2/relu_3x3
I0403 19:25:24.854320  9219 net.cpp:425] conv2/relu_3x3 <- conv2/3x3
I0403 19:25:24.854341  9219 net.cpp:386] conv2/relu_3x3 -> conv2/3x3 (in-place)
I0403 19:25:24.854537  9219 net.cpp:141] Setting up conv2/relu_3x3
I0403 19:25:24.854565  9219 net.cpp:148] Top shape: 24 192 56 56 (14450688)
I0403 19:25:24.854614  9219 net.cpp:156] Memory required for data: 361268256
I0403 19:25:24.854630  9219 layer_factory.hpp:77] Creating layer conv2/norm2
I0403 19:25:24.854651  9219 net.cpp:91] Creating Layer conv2/norm2
I0403 19:25:24.854670  9219 net.cpp:425] conv2/norm2 <- conv2/3x3
I0403 19:25:24.854689  9219 net.cpp:399] conv2/norm2 -> conv2/norm2
I0403 19:25:24.855008  9219 net.cpp:141] Setting up conv2/norm2
I0403 19:25:24.855036  9219 net.cpp:148] Top shape: 24 192 56 56 (14450688)
I0403 19:25:24.855051  9219 net.cpp:156] Memory required for data: 419071008
I0403 19:25:24.855067  9219 layer_factory.hpp:77] Creating layer pool2/3x3_s2
I0403 19:25:24.855088  9219 net.cpp:91] Creating Layer pool2/3x3_s2
I0403 19:25:24.855105  9219 net.cpp:425] pool2/3x3_s2 <- conv2/norm2
I0403 19:25:24.855123  9219 net.cpp:399] pool2/3x3_s2 -> pool2/3x3_s2
I0403 19:25:24.855178  9219 net.cpp:141] Setting up pool2/3x3_s2
I0403 19:25:24.855202  9219 net.cpp:148] Top shape: 24 192 28 28 (3612672)
I0403 19:25:24.855217  9219 net.cpp:156] Memory required for data: 433521696
I0403 19:25:24.855232  9219 layer_factory.hpp:77] Creating layer pool2/3x3_s2_pool2/3x3_s2_0_split
I0403 19:25:24.855255  9219 net.cpp:91] Creating Layer pool2/3x3_s2_pool2/3x3_s2_0_split
I0403 19:25:24.855275  9219 net.cpp:425] pool2/3x3_s2_pool2/3x3_s2_0_split <- pool2/3x3_s2
I0403 19:25:24.855293  9219 net.cpp:399] pool2/3x3_s2_pool2/3x3_s2_0_split -> pool2/3x3_s2_pool2/3x3_s2_0_split_0
I0403 19:25:24.855314  9219 net.cpp:399] pool2/3x3_s2_pool2/3x3_s2_0_split -> pool2/3x3_s2_pool2/3x3_s2_0_split_1
I0403 19:25:24.855334  9219 net.cpp:399] pool2/3x3_s2_pool2/3x3_s2_0_split -> pool2/3x3_s2_pool2/3x3_s2_0_split_2
I0403 19:25:24.855353  9219 net.cpp:399] pool2/3x3_s2_pool2/3x3_s2_0_split -> pool2/3x3_s2_pool2/3x3_s2_0_split_3
I0403 19:25:24.855427  9219 net.cpp:141] Setting up pool2/3x3_s2_pool2/3x3_s2_0_split
I0403 19:25:24.855450  9219 net.cpp:148] Top shape: 24 192 28 28 (3612672)
I0403 19:25:24.855468  9219 net.cpp:148] Top shape: 24 192 28 28 (3612672)
I0403 19:25:24.855484  9219 net.cpp:148] Top shape: 24 192 28 28 (3612672)
I0403 19:25:24.855500  9219 net.cpp:148] Top shape: 24 192 28 28 (3612672)
I0403 19:25:24.855515  9219 net.cpp:156] Memory required for data: 491324448
I0403 19:25:24.855530  9219 layer_factory.hpp:77] Creating layer inception_3a/1x1
I0403 19:25:24.855552  9219 net.cpp:91] Creating Layer inception_3a/1x1
I0403 19:25:24.855569  9219 net.cpp:425] inception_3a/1x1 <- pool2/3x3_s2_pool2/3x3_s2_0_split_0
I0403 19:25:24.855592  9219 net.cpp:399] inception_3a/1x1 -> inception_3a/1x1
I0403 19:25:24.857144  9219 net.cpp:141] Setting up inception_3a/1x1
I0403 19:25:24.857178  9219 net.cpp:148] Top shape: 24 64 28 28 (1204224)
I0403 19:25:24.857197  9219 net.cpp:156] Memory required for data: 496141344
I0403 19:25:24.857218  9219 layer_factory.hpp:77] Creating layer inception_3a/relu_1x1
I0403 19:25:24.857239  9219 net.cpp:91] Creating Layer inception_3a/relu_1x1
I0403 19:25:24.857261  9219 net.cpp:425] inception_3a/relu_1x1 <- inception_3a/1x1
I0403 19:25:24.857280  9219 net.cpp:386] inception_3a/relu_1x1 -> inception_3a/1x1 (in-place)
I0403 19:25:24.857463  9219 net.cpp:141] Setting up inception_3a/relu_1x1
I0403 19:25:24.857489  9219 net.cpp:148] Top shape: 24 64 28 28 (1204224)
I0403 19:25:24.857506  9219 net.cpp:156] Memory required for data: 500958240
I0403 19:25:24.857522  9219 layer_factory.hpp:77] Creating layer inception_3a/3x3_reduce
I0403 19:25:24.857545  9219 net.cpp:91] Creating Layer inception_3a/3x3_reduce
I0403 19:25:24.857563  9219 net.cpp:425] inception_3a/3x3_reduce <- pool2/3x3_s2_pool2/3x3_s2_0_split_1
I0403 19:25:24.857585  9219 net.cpp:399] inception_3a/3x3_reduce -> inception_3a/3x3_reduce
I0403 19:25:24.859321  9219 net.cpp:141] Setting up inception_3a/3x3_reduce
I0403 19:25:24.859354  9219 net.cpp:148] Top shape: 24 96 28 28 (1806336)
I0403 19:25:24.859376  9219 net.cpp:156] Memory required for data: 508183584
I0403 19:25:24.859405  9219 layer_factory.hpp:77] Creating layer inception_3a/relu_3x3_reduce
I0403 19:25:24.859447  9219 net.cpp:91] Creating Layer inception_3a/relu_3x3_reduce
I0403 19:25:24.859477  9219 net.cpp:425] inception_3a/relu_3x3_reduce <- inception_3a/3x3_reduce
I0403 19:25:24.859495  9219 net.cpp:386] inception_3a/relu_3x3_reduce -> inception_3a/3x3_reduce (in-place)
I0403 19:25:24.859696  9219 net.cpp:141] Setting up inception_3a/relu_3x3_reduce
I0403 19:25:24.859724  9219 net.cpp:148] Top shape: 24 96 28 28 (1806336)
I0403 19:25:24.859740  9219 net.cpp:156] Memory required for data: 515408928
I0403 19:25:24.859755  9219 layer_factory.hpp:77] Creating layer inception_3a/3x3
I0403 19:25:24.859778  9219 net.cpp:91] Creating Layer inception_3a/3x3
I0403 19:25:24.859797  9219 net.cpp:425] inception_3a/3x3 <- inception_3a/3x3_reduce
I0403 19:25:24.859817  9219 net.cpp:399] inception_3a/3x3 -> inception_3a/3x3
I0403 19:25:24.861532  9219 net.cpp:141] Setting up inception_3a/3x3
I0403 19:25:24.861562  9219 net.cpp:148] Top shape: 24 128 28 28 (2408448)
I0403 19:25:24.861578  9219 net.cpp:156] Memory required for data: 525042720
I0403 19:25:24.861599  9219 layer_factory.hpp:77] Creating layer inception_3a/relu_3x3
I0403 19:25:24.861618  9219 net.cpp:91] Creating Layer inception_3a/relu_3x3
I0403 19:25:24.861635  9219 net.cpp:425] inception_3a/relu_3x3 <- inception_3a/3x3
I0403 19:25:24.861656  9219 net.cpp:386] inception_3a/relu_3x3 -> inception_3a/3x3 (in-place)
I0403 19:25:24.861945  9219 net.cpp:141] Setting up inception_3a/relu_3x3
I0403 19:25:24.861974  9219 net.cpp:148] Top shape: 24 128 28 28 (2408448)
I0403 19:25:24.861991  9219 net.cpp:156] Memory required for data: 534676512
I0403 19:25:24.862007  9219 layer_factory.hpp:77] Creating layer inception_3a/5x5_reduce
I0403 19:25:24.862030  9219 net.cpp:91] Creating Layer inception_3a/5x5_reduce
I0403 19:25:24.862051  9219 net.cpp:425] inception_3a/5x5_reduce <- pool2/3x3_s2_pool2/3x3_s2_0_split_2
I0403 19:25:24.862073  9219 net.cpp:399] inception_3a/5x5_reduce -> inception_3a/5x5_reduce
I0403 19:25:24.863075  9219 net.cpp:141] Setting up inception_3a/5x5_reduce
I0403 19:25:24.863106  9219 net.cpp:148] Top shape: 24 16 28 28 (301056)
I0403 19:25:24.863123  9219 net.cpp:156] Memory required for data: 535880736
I0403 19:25:24.863144  9219 layer_factory.hpp:77] Creating layer inception_3a/relu_5x5_reduce
I0403 19:25:24.863162  9219 net.cpp:91] Creating Layer inception_3a/relu_5x5_reduce
I0403 19:25:24.863179  9219 net.cpp:425] inception_3a/relu_5x5_reduce <- inception_3a/5x5_reduce
I0403 19:25:24.863214  9219 net.cpp:386] inception_3a/relu_5x5_reduce -> inception_3a/5x5_reduce (in-place)
I0403 19:25:24.863510  9219 net.cpp:141] Setting up inception_3a/relu_5x5_reduce
I0403 19:25:24.863538  9219 net.cpp:148] Top shape: 24 16 28 28 (301056)
I0403 19:25:24.863554  9219 net.cpp:156] Memory required for data: 537084960
I0403 19:25:24.863569  9219 layer_factory.hpp:77] Creating layer inception_3a/5x5
I0403 19:25:24.863593  9219 net.cpp:91] Creating Layer inception_3a/5x5
I0403 19:25:24.863610  9219 net.cpp:425] inception_3a/5x5 <- inception_3a/5x5_reduce
I0403 19:25:24.863631  9219 net.cpp:399] inception_3a/5x5 -> inception_3a/5x5
I0403 19:25:24.864661  9219 net.cpp:141] Setting up inception_3a/5x5
I0403 19:25:24.864693  9219 net.cpp:148] Top shape: 24 32 28 28 (602112)
I0403 19:25:24.864711  9219 net.cpp:156] Memory required for data: 539493408
I0403 19:25:24.864730  9219 layer_factory.hpp:77] Creating layer inception_3a/relu_5x5
I0403 19:25:24.864749  9219 net.cpp:91] Creating Layer inception_3a/relu_5x5
I0403 19:25:24.864765  9219 net.cpp:425] inception_3a/relu_5x5 <- inception_3a/5x5
I0403 19:25:24.864785  9219 net.cpp:386] inception_3a/relu_5x5 -> inception_3a/5x5 (in-place)
I0403 19:25:24.864956  9219 net.cpp:141] Setting up inception_3a/relu_5x5
I0403 19:25:24.864984  9219 net.cpp:148] Top shape: 24 32 28 28 (602112)
I0403 19:25:24.865000  9219 net.cpp:156] Memory required for data: 541901856
I0403 19:25:24.865015  9219 layer_factory.hpp:77] Creating layer inception_3a/pool
I0403 19:25:24.865032  9219 net.cpp:91] Creating Layer inception_3a/pool
I0403 19:25:24.865048  9219 net.cpp:425] inception_3a/pool <- pool2/3x3_s2_pool2/3x3_s2_0_split_3
I0403 19:25:24.865082  9219 net.cpp:399] inception_3a/pool -> inception_3a/pool
I0403 19:25:24.865141  9219 net.cpp:141] Setting up inception_3a/pool
I0403 19:25:24.865165  9219 net.cpp:148] Top shape: 24 192 28 28 (3612672)
I0403 19:25:24.865182  9219 net.cpp:156] Memory required for data: 556352544
I0403 19:25:24.865197  9219 layer_factory.hpp:77] Creating layer inception_3a/pool_proj
I0403 19:25:24.865219  9219 net.cpp:91] Creating Layer inception_3a/pool_proj
I0403 19:25:24.865237  9219 net.cpp:425] inception_3a/pool_proj <- inception_3a/pool
I0403 19:25:24.865264  9219 net.cpp:399] inception_3a/pool_proj -> inception_3a/pool_proj
I0403 19:25:24.866210  9219 net.cpp:141] Setting up inception_3a/pool_proj
I0403 19:25:24.866238  9219 net.cpp:148] Top shape: 24 32 28 28 (602112)
I0403 19:25:24.866258  9219 net.cpp:156] Memory required for data: 558760992
I0403 19:25:24.866283  9219 layer_factory.hpp:77] Creating layer inception_3a/relu_pool_proj
I0403 19:25:24.866303  9219 net.cpp:91] Creating Layer inception_3a/relu_pool_proj
I0403 19:25:24.866318  9219 net.cpp:425] inception_3a/relu_pool_proj <- inception_3a/pool_proj
I0403 19:25:24.866340  9219 net.cpp:386] inception_3a/relu_pool_proj -> inception_3a/pool_proj (in-place)
I0403 19:25:24.866612  9219 net.cpp:141] Setting up inception_3a/relu_pool_proj
I0403 19:25:24.866639  9219 net.cpp:148] Top shape: 24 32 28 28 (602112)
I0403 19:25:24.866654  9219 net.cpp:156] Memory required for data: 561169440
I0403 19:25:24.866669  9219 layer_factory.hpp:77] Creating layer inception_3a/output
I0403 19:25:24.866688  9219 net.cpp:91] Creating Layer inception_3a/output
I0403 19:25:24.866703  9219 net.cpp:425] inception_3a/output <- inception_3a/1x1
I0403 19:25:24.866720  9219 net.cpp:425] inception_3a/output <- inception_3a/3x3
I0403 19:25:24.866735  9219 net.cpp:425] inception_3a/output <- inception_3a/5x5
I0403 19:25:24.866751  9219 net.cpp:425] inception_3a/output <- inception_3a/pool_proj
I0403 19:25:24.866771  9219 net.cpp:399] inception_3a/output -> inception_3a/output
I0403 19:25:24.866818  9219 net.cpp:141] Setting up inception_3a/output
I0403 19:25:24.866844  9219 net.cpp:148] Top shape: 24 256 28 28 (4816896)
I0403 19:25:24.866859  9219 net.cpp:156] Memory required for data: 580437024
I0403 19:25:24.866874  9219 layer_factory.hpp:77] Creating layer inception_3a/output_inception_3a/output_0_split
I0403 19:25:24.866891  9219 net.cpp:91] Creating Layer inception_3a/output_inception_3a/output_0_split
I0403 19:25:24.866907  9219 net.cpp:425] inception_3a/output_inception_3a/output_0_split <- inception_3a/output
I0403 19:25:24.866925  9219 net.cpp:399] inception_3a/output_inception_3a/output_0_split -> inception_3a/output_inception_3a/output_0_split_0
I0403 19:25:24.866945  9219 net.cpp:399] inception_3a/output_inception_3a/output_0_split -> inception_3a/output_inception_3a/output_0_split_1
I0403 19:25:24.866968  9219 net.cpp:399] inception_3a/output_inception_3a/output_0_split -> inception_3a/output_inception_3a/output_0_split_2
I0403 19:25:24.866991  9219 net.cpp:399] inception_3a/output_inception_3a/output_0_split -> inception_3a/output_inception_3a/output_0_split_3
I0403 19:25:24.867064  9219 net.cpp:141] Setting up inception_3a/output_inception_3a/output_0_split
I0403 19:25:24.867089  9219 net.cpp:148] Top shape: 24 256 28 28 (4816896)
I0403 19:25:24.867106  9219 net.cpp:148] Top shape: 24 256 28 28 (4816896)
I0403 19:25:24.867122  9219 net.cpp:148] Top shape: 24 256 28 28 (4816896)
I0403 19:25:24.867138  9219 net.cpp:148] Top shape: 24 256 28 28 (4816896)
I0403 19:25:24.867152  9219 net.cpp:156] Memory required for data: 657507360
I0403 19:25:24.867166  9219 layer_factory.hpp:77] Creating layer inception_3b/1x1
I0403 19:25:24.867190  9219 net.cpp:91] Creating Layer inception_3b/1x1
I0403 19:25:24.867208  9219 net.cpp:425] inception_3b/1x1 <- inception_3a/output_inception_3a/output_0_split_0
I0403 19:25:24.867228  9219 net.cpp:399] inception_3b/1x1 -> inception_3b/1x1
I0403 19:25:24.868358  9219 net.cpp:141] Setting up inception_3b/1x1
I0403 19:25:24.868401  9219 net.cpp:148] Top shape: 24 128 28 28 (2408448)
I0403 19:25:24.868418  9219 net.cpp:156] Memory required for data: 667141152
I0403 19:25:24.868438  9219 layer_factory.hpp:77] Creating layer inception_3b/relu_1x1
I0403 19:25:24.868458  9219 net.cpp:91] Creating Layer inception_3b/relu_1x1
I0403 19:25:24.868477  9219 net.cpp:425] inception_3b/relu_1x1 <- inception_3b/1x1
I0403 19:25:24.868496  9219 net.cpp:386] inception_3b/relu_1x1 -> inception_3b/1x1 (in-place)
I0403 19:25:24.868671  9219 net.cpp:141] Setting up inception_3b/relu_1x1
I0403 19:25:24.868697  9219 net.cpp:148] Top shape: 24 128 28 28 (2408448)
I0403 19:25:24.868712  9219 net.cpp:156] Memory required for data: 676774944
I0403 19:25:24.868726  9219 layer_factory.hpp:77] Creating layer inception_3b/3x3_reduce
I0403 19:25:24.868749  9219 net.cpp:91] Creating Layer inception_3b/3x3_reduce
I0403 19:25:24.868767  9219 net.cpp:425] inception_3b/3x3_reduce <- inception_3a/output_inception_3a/output_0_split_1
I0403 19:25:24.868789  9219 net.cpp:399] inception_3b/3x3_reduce -> inception_3b/3x3_reduce
I0403 19:25:24.869887  9219 net.cpp:141] Setting up inception_3b/3x3_reduce
I0403 19:25:24.869920  9219 net.cpp:148] Top shape: 24 128 28 28 (2408448)
I0403 19:25:24.869938  9219 net.cpp:156] Memory required for data: 686408736
I0403 19:25:24.869957  9219 layer_factory.hpp:77] Creating layer inception_3b/relu_3x3_reduce
I0403 19:25:24.869976  9219 net.cpp:91] Creating Layer inception_3b/relu_3x3_reduce
I0403 19:25:24.869992  9219 net.cpp:425] inception_3b/relu_3x3_reduce <- inception_3b/3x3_reduce
I0403 19:25:24.870009  9219 net.cpp:386] inception_3b/relu_3x3_reduce -> inception_3b/3x3_reduce (in-place)
I0403 19:25:24.870174  9219 net.cpp:141] Setting up inception_3b/relu_3x3_reduce
I0403 19:25:24.870200  9219 net.cpp:148] Top shape: 24 128 28 28 (2408448)
I0403 19:25:24.870216  9219 net.cpp:156] Memory required for data: 696042528
I0403 19:25:24.870230  9219 layer_factory.hpp:77] Creating layer inception_3b/3x3
I0403 19:25:24.870272  9219 net.cpp:91] Creating Layer inception_3b/3x3
I0403 19:25:24.870291  9219 net.cpp:425] inception_3b/3x3 <- inception_3b/3x3_reduce
I0403 19:25:24.870312  9219 net.cpp:399] inception_3b/3x3 -> inception_3b/3x3
I0403 19:25:24.873126  9219 net.cpp:141] Setting up inception_3b/3x3
I0403 19:25:24.873155  9219 net.cpp:148] Top shape: 24 192 28 28 (3612672)
I0403 19:25:24.873178  9219 net.cpp:156] Memory required for data: 710493216
I0403 19:25:24.873198  9219 layer_factory.hpp:77] Creating layer inception_3b/relu_3x3
I0403 19:25:24.873219  9219 net.cpp:91] Creating Layer inception_3b/relu_3x3
I0403 19:25:24.873235  9219 net.cpp:425] inception_3b/relu_3x3 <- inception_3b/3x3
I0403 19:25:24.873260  9219 net.cpp:386] inception_3b/relu_3x3 -> inception_3b/3x3 (in-place)
I0403 19:25:24.873538  9219 net.cpp:141] Setting up inception_3b/relu_3x3
I0403 19:25:24.873564  9219 net.cpp:148] Top shape: 24 192 28 28 (3612672)
I0403 19:25:24.873579  9219 net.cpp:156] Memory required for data: 724943904
I0403 19:25:24.873594  9219 layer_factory.hpp:77] Creating layer inception_3b/5x5_reduce
I0403 19:25:24.873615  9219 net.cpp:91] Creating Layer inception_3b/5x5_reduce
I0403 19:25:24.873632  9219 net.cpp:425] inception_3b/5x5_reduce <- inception_3a/output_inception_3a/output_0_split_2
I0403 19:25:24.873654  9219 net.cpp:399] inception_3b/5x5_reduce -> inception_3b/5x5_reduce
I0403 19:25:24.874639  9219 net.cpp:141] Setting up inception_3b/5x5_reduce
I0403 19:25:24.874668  9219 net.cpp:148] Top shape: 24 32 28 28 (602112)
I0403 19:25:24.874686  9219 net.cpp:156] Memory required for data: 727352352
I0403 19:25:24.874704  9219 layer_factory.hpp:77] Creating layer inception_3b/relu_5x5_reduce
I0403 19:25:24.874722  9219 net.cpp:91] Creating Layer inception_3b/relu_5x5_reduce
I0403 19:25:24.874738  9219 net.cpp:425] inception_3b/relu_5x5_reduce <- inception_3b/5x5_reduce
I0403 19:25:24.874757  9219 net.cpp:386] inception_3b/relu_5x5_reduce -> inception_3b/5x5_reduce (in-place)
I0403 19:25:24.874928  9219 net.cpp:141] Setting up inception_3b/relu_5x5_reduce
I0403 19:25:24.874964  9219 net.cpp:148] Top shape: 24 32 28 28 (602112)
I0403 19:25:24.874980  9219 net.cpp:156] Memory required for data: 729760800
I0403 19:25:24.874995  9219 layer_factory.hpp:77] Creating layer inception_3b/5x5
I0403 19:25:24.875016  9219 net.cpp:91] Creating Layer inception_3b/5x5
I0403 19:25:24.875033  9219 net.cpp:425] inception_3b/5x5 <- inception_3b/5x5_reduce
I0403 19:25:24.875054  9219 net.cpp:399] inception_3b/5x5 -> inception_3b/5x5
I0403 19:25:24.876955  9219 net.cpp:141] Setting up inception_3b/5x5
I0403 19:25:24.876984  9219 net.cpp:148] Top shape: 24 96 28 28 (1806336)
I0403 19:25:24.877004  9219 net.cpp:156] Memory required for data: 736986144
I0403 19:25:24.877023  9219 layer_factory.hpp:77] Creating layer inception_3b/relu_5x5
I0403 19:25:24.877041  9219 net.cpp:91] Creating Layer inception_3b/relu_5x5
I0403 19:25:24.877056  9219 net.cpp:425] inception_3b/relu_5x5 <- inception_3b/5x5
I0403 19:25:24.877074  9219 net.cpp:386] inception_3b/relu_5x5 -> inception_3b/5x5 (in-place)
I0403 19:25:24.877267  9219 net.cpp:141] Setting up inception_3b/relu_5x5
I0403 19:25:24.877292  9219 net.cpp:148] Top shape: 24 96 28 28 (1806336)
I0403 19:25:24.877306  9219 net.cpp:156] Memory required for data: 744211488
I0403 19:25:24.877321  9219 layer_factory.hpp:77] Creating layer inception_3b/pool
I0403 19:25:24.877338  9219 net.cpp:91] Creating Layer inception_3b/pool
I0403 19:25:24.877354  9219 net.cpp:425] inception_3b/pool <- inception_3a/output_inception_3a/output_0_split_3
I0403 19:25:24.877372  9219 net.cpp:399] inception_3b/pool -> inception_3b/pool
I0403 19:25:24.877425  9219 net.cpp:141] Setting up inception_3b/pool
I0403 19:25:24.877451  9219 net.cpp:148] Top shape: 24 256 28 28 (4816896)
I0403 19:25:24.877476  9219 net.cpp:156] Memory required for data: 763479072
I0403 19:25:24.877491  9219 layer_factory.hpp:77] Creating layer inception_3b/pool_proj
I0403 19:25:24.877509  9219 net.cpp:91] Creating Layer inception_3b/pool_proj
I0403 19:25:24.877526  9219 net.cpp:425] inception_3b/pool_proj <- inception_3b/pool
I0403 19:25:24.877547  9219 net.cpp:399] inception_3b/pool_proj -> inception_3b/pool_proj
I0403 19:25:24.878574  9219 net.cpp:141] Setting up inception_3b/pool_proj
I0403 19:25:24.878603  9219 net.cpp:148] Top shape: 24 64 28 28 (1204224)
I0403 19:25:24.878618  9219 net.cpp:156] Memory required for data: 768295968
I0403 19:25:24.878638  9219 layer_factory.hpp:77] Creating layer inception_3b/relu_pool_proj
I0403 19:25:24.878657  9219 net.cpp:91] Creating Layer inception_3b/relu_pool_proj
I0403 19:25:24.878676  9219 net.cpp:425] inception_3b/relu_pool_proj <- inception_3b/pool_proj
I0403 19:25:24.878695  9219 net.cpp:386] inception_3b/relu_pool_proj -> inception_3b/pool_proj (in-place)
I0403 19:25:24.879071  9219 net.cpp:141] Setting up inception_3b/relu_pool_proj
I0403 19:25:24.879098  9219 net.cpp:148] Top shape: 24 64 28 28 (1204224)
I0403 19:25:24.879113  9219 net.cpp:156] Memory required for data: 773112864
I0403 19:25:24.879129  9219 layer_factory.hpp:77] Creating layer inception_3b/output
I0403 19:25:24.879148  9219 net.cpp:91] Creating Layer inception_3b/output
I0403 19:25:24.879163  9219 net.cpp:425] inception_3b/output <- inception_3b/1x1
I0403 19:25:24.879179  9219 net.cpp:425] inception_3b/output <- inception_3b/3x3
I0403 19:25:24.879194  9219 net.cpp:425] inception_3b/output <- inception_3b/5x5
I0403 19:25:24.879209  9219 net.cpp:425] inception_3b/output <- inception_3b/pool_proj
I0403 19:25:24.879228  9219 net.cpp:399] inception_3b/output -> inception_3b/output
I0403 19:25:24.879276  9219 net.cpp:141] Setting up inception_3b/output
I0403 19:25:24.879302  9219 net.cpp:148] Top shape: 24 480 28 28 (9031680)
I0403 19:25:24.879317  9219 net.cpp:156] Memory required for data: 809239584
I0403 19:25:24.879331  9219 layer_factory.hpp:77] Creating layer pool3/3x3_s2
I0403 19:25:24.879348  9219 net.cpp:91] Creating Layer pool3/3x3_s2
I0403 19:25:24.879364  9219 net.cpp:425] pool3/3x3_s2 <- inception_3b/output
I0403 19:25:24.879384  9219 net.cpp:399] pool3/3x3_s2 -> pool3/3x3_s2
I0403 19:25:24.879456  9219 net.cpp:141] Setting up pool3/3x3_s2
I0403 19:25:24.879478  9219 net.cpp:148] Top shape: 24 480 14 14 (2257920)
I0403 19:25:24.879492  9219 net.cpp:156] Memory required for data: 818271264
I0403 19:25:24.879506  9219 layer_factory.hpp:77] Creating layer pool3/3x3_s2_pool3/3x3_s2_0_split
I0403 19:25:24.879525  9219 net.cpp:91] Creating Layer pool3/3x3_s2_pool3/3x3_s2_0_split
I0403 19:25:24.879541  9219 net.cpp:425] pool3/3x3_s2_pool3/3x3_s2_0_split <- pool3/3x3_s2
I0403 19:25:24.879559  9219 net.cpp:399] pool3/3x3_s2_pool3/3x3_s2_0_split -> pool3/3x3_s2_pool3/3x3_s2_0_split_0
I0403 19:25:24.879577  9219 net.cpp:399] pool3/3x3_s2_pool3/3x3_s2_0_split -> pool3/3x3_s2_pool3/3x3_s2_0_split_1
I0403 19:25:24.879596  9219 net.cpp:399] pool3/3x3_s2_pool3/3x3_s2_0_split -> pool3/3x3_s2_pool3/3x3_s2_0_split_2
I0403 19:25:24.879619  9219 net.cpp:399] pool3/3x3_s2_pool3/3x3_s2_0_split -> pool3/3x3_s2_pool3/3x3_s2_0_split_3
I0403 19:25:24.879693  9219 net.cpp:141] Setting up pool3/3x3_s2_pool3/3x3_s2_0_split
I0403 19:25:24.879714  9219 net.cpp:148] Top shape: 24 480 14 14 (2257920)
I0403 19:25:24.879731  9219 net.cpp:148] Top shape: 24 480 14 14 (2257920)
I0403 19:25:24.879746  9219 net.cpp:148] Top shape: 24 480 14 14 (2257920)
I0403 19:25:24.879762  9219 net.cpp:148] Top shape: 24 480 14 14 (2257920)
I0403 19:25:24.879776  9219 net.cpp:156] Memory required for data: 854397984
I0403 19:25:24.879791  9219 layer_factory.hpp:77] Creating layer inception_4a/1x1
I0403 19:25:24.879812  9219 net.cpp:91] Creating Layer inception_4a/1x1
I0403 19:25:24.879829  9219 net.cpp:425] inception_4a/1x1 <- pool3/3x3_s2_pool3/3x3_s2_0_split_0
I0403 19:25:24.879850  9219 net.cpp:399] inception_4a/1x1 -> inception_4a/1x1
I0403 19:25:24.881368  9219 net.cpp:141] Setting up inception_4a/1x1
I0403 19:25:24.881397  9219 net.cpp:148] Top shape: 24 192 14 14 (903168)
I0403 19:25:24.881412  9219 net.cpp:156] Memory required for data: 858010656
I0403 19:25:24.881431  9219 layer_factory.hpp:77] Creating layer inception_4a/relu_1x1
I0403 19:25:24.881453  9219 net.cpp:91] Creating Layer inception_4a/relu_1x1
I0403 19:25:24.881469  9219 net.cpp:425] inception_4a/relu_1x1 <- inception_4a/1x1
I0403 19:25:24.881489  9219 net.cpp:386] inception_4a/relu_1x1 -> inception_4a/1x1 (in-place)
I0403 19:25:24.881659  9219 net.cpp:141] Setting up inception_4a/relu_1x1
I0403 19:25:24.881686  9219 net.cpp:148] Top shape: 24 192 14 14 (903168)
I0403 19:25:24.881702  9219 net.cpp:156] Memory required for data: 861623328
I0403 19:25:24.881717  9219 layer_factory.hpp:77] Creating layer inception_4a/3x3_reduce
I0403 19:25:24.881738  9219 net.cpp:91] Creating Layer inception_4a/3x3_reduce
I0403 19:25:24.881755  9219 net.cpp:425] inception_4a/3x3_reduce <- pool3/3x3_s2_pool3/3x3_s2_0_split_1
I0403 19:25:24.881774  9219 net.cpp:399] inception_4a/3x3_reduce -> inception_4a/3x3_reduce
I0403 19:25:24.883008  9219 net.cpp:141] Setting up inception_4a/3x3_reduce
I0403 19:25:24.883036  9219 net.cpp:148] Top shape: 24 96 14 14 (451584)
I0403 19:25:24.883051  9219 net.cpp:156] Memory required for data: 863429664
I0403 19:25:24.883075  9219 layer_factory.hpp:77] Creating layer inception_4a/relu_3x3_reduce
I0403 19:25:24.883097  9219 net.cpp:91] Creating Layer inception_4a/relu_3x3_reduce
I0403 19:25:24.883116  9219 net.cpp:425] inception_4a/relu_3x3_reduce <- inception_4a/3x3_reduce
I0403 19:25:24.883132  9219 net.cpp:386] inception_4a/relu_3x3_reduce -> inception_4a/3x3_reduce (in-place)
I0403 19:25:24.883306  9219 net.cpp:141] Setting up inception_4a/relu_3x3_reduce
I0403 19:25:24.883330  9219 net.cpp:148] Top shape: 24 96 14 14 (451584)
I0403 19:25:24.883345  9219 net.cpp:156] Memory required for data: 865236000
I0403 19:25:24.883359  9219 layer_factory.hpp:77] Creating layer inception_4a/3x3
I0403 19:25:24.883384  9219 net.cpp:91] Creating Layer inception_4a/3x3
I0403 19:25:24.883402  9219 net.cpp:425] inception_4a/3x3 <- inception_4a/3x3_reduce
I0403 19:25:24.883421  9219 net.cpp:399] inception_4a/3x3 -> inception_4a/3x3
I0403 19:25:24.886020  9219 net.cpp:141] Setting up inception_4a/3x3
I0403 19:25:24.886051  9219 net.cpp:148] Top shape: 24 208 14 14 (978432)
I0403 19:25:24.886070  9219 net.cpp:156] Memory required for data: 869149728
I0403 19:25:24.886087  9219 layer_factory.hpp:77] Creating layer inception_4a/relu_3x3
I0403 19:25:24.886104  9219 net.cpp:91] Creating Layer inception_4a/relu_3x3
I0403 19:25:24.886121  9219 net.cpp:425] inception_4a/relu_3x3 <- inception_4a/3x3
I0403 19:25:24.886137  9219 net.cpp:386] inception_4a/relu_3x3 -> inception_4a/3x3 (in-place)
I0403 19:25:24.886428  9219 net.cpp:141] Setting up inception_4a/relu_3x3
I0403 19:25:24.886456  9219 net.cpp:148] Top shape: 24 208 14 14 (978432)
I0403 19:25:24.886473  9219 net.cpp:156] Memory required for data: 873063456
I0403 19:25:24.886488  9219 layer_factory.hpp:77] Creating layer inception_4a/5x5_reduce
I0403 19:25:24.886510  9219 net.cpp:91] Creating Layer inception_4a/5x5_reduce
I0403 19:25:24.886528  9219 net.cpp:425] inception_4a/5x5_reduce <- pool3/3x3_s2_pool3/3x3_s2_0_split_2
I0403 19:25:24.886551  9219 net.cpp:399] inception_4a/5x5_reduce -> inception_4a/5x5_reduce
I0403 19:25:24.887547  9219 net.cpp:141] Setting up inception_4a/5x5_reduce
I0403 19:25:24.887578  9219 net.cpp:148] Top shape: 24 16 14 14 (75264)
I0403 19:25:24.887593  9219 net.cpp:156] Memory required for data: 873364512
I0403 19:25:24.887611  9219 layer_factory.hpp:77] Creating layer inception_4a/relu_5x5_reduce
I0403 19:25:24.887629  9219 net.cpp:91] Creating Layer inception_4a/relu_5x5_reduce
I0403 19:25:24.887645  9219 net.cpp:425] inception_4a/relu_5x5_reduce <- inception_4a/5x5_reduce
I0403 19:25:24.887663  9219 net.cpp:386] inception_4a/relu_5x5_reduce -> inception_4a/5x5_reduce (in-place)
I0403 19:25:24.887841  9219 net.cpp:141] Setting up inception_4a/relu_5x5_reduce
I0403 19:25:24.887867  9219 net.cpp:148] Top shape: 24 16 14 14 (75264)
I0403 19:25:24.887882  9219 net.cpp:156] Memory required for data: 873665568
I0403 19:25:24.887897  9219 layer_factory.hpp:77] Creating layer inception_4a/5x5
I0403 19:25:24.887918  9219 net.cpp:91] Creating Layer inception_4a/5x5
I0403 19:25:24.887935  9219 net.cpp:425] inception_4a/5x5 <- inception_4a/5x5_reduce
I0403 19:25:24.887956  9219 net.cpp:399] inception_4a/5x5 -> inception_4a/5x5
I0403 19:25:24.889008  9219 net.cpp:141] Setting up inception_4a/5x5
I0403 19:25:24.889035  9219 net.cpp:148] Top shape: 24 48 14 14 (225792)
I0403 19:25:24.889051  9219 net.cpp:156] Memory required for data: 874568736
I0403 19:25:24.889068  9219 layer_factory.hpp:77] Creating layer inception_4a/relu_5x5
I0403 19:25:24.889086  9219 net.cpp:91] Creating Layer inception_4a/relu_5x5
I0403 19:25:24.889103  9219 net.cpp:425] inception_4a/relu_5x5 <- inception_4a/5x5
I0403 19:25:24.889123  9219 net.cpp:386] inception_4a/relu_5x5 -> inception_4a/5x5 (in-place)
I0403 19:25:24.889300  9219 net.cpp:141] Setting up inception_4a/relu_5x5
I0403 19:25:24.889327  9219 net.cpp:148] Top shape: 24 48 14 14 (225792)
I0403 19:25:24.889341  9219 net.cpp:156] Memory required for data: 875471904
I0403 19:25:24.889355  9219 layer_factory.hpp:77] Creating layer inception_4a/pool
I0403 19:25:24.889374  9219 net.cpp:91] Creating Layer inception_4a/pool
I0403 19:25:24.889391  9219 net.cpp:425] inception_4a/pool <- pool3/3x3_s2_pool3/3x3_s2_0_split_3
I0403 19:25:24.889410  9219 net.cpp:399] inception_4a/pool -> inception_4a/pool
I0403 19:25:24.889468  9219 net.cpp:141] Setting up inception_4a/pool
I0403 19:25:24.889490  9219 net.cpp:148] Top shape: 24 480 14 14 (2257920)
I0403 19:25:24.889505  9219 net.cpp:156] Memory required for data: 884503584
I0403 19:25:24.889519  9219 layer_factory.hpp:77] Creating layer inception_4a/pool_proj
I0403 19:25:24.889540  9219 net.cpp:91] Creating Layer inception_4a/pool_proj
I0403 19:25:24.889559  9219 net.cpp:425] inception_4a/pool_proj <- inception_4a/pool
I0403 19:25:24.889578  9219 net.cpp:399] inception_4a/pool_proj -> inception_4a/pool_proj
I0403 19:25:24.890724  9219 net.cpp:141] Setting up inception_4a/pool_proj
I0403 19:25:24.890753  9219 net.cpp:148] Top shape: 24 64 14 14 (301056)
I0403 19:25:24.890785  9219 net.cpp:156] Memory required for data: 885707808
I0403 19:25:24.890805  9219 layer_factory.hpp:77] Creating layer inception_4a/relu_pool_proj
I0403 19:25:24.890827  9219 net.cpp:91] Creating Layer inception_4a/relu_pool_proj
I0403 19:25:24.890846  9219 net.cpp:425] inception_4a/relu_pool_proj <- inception_4a/pool_proj
I0403 19:25:24.890864  9219 net.cpp:386] inception_4a/relu_pool_proj -> inception_4a/pool_proj (in-place)
I0403 19:25:24.891144  9219 net.cpp:141] Setting up inception_4a/relu_pool_proj
I0403 19:25:24.891170  9219 net.cpp:148] Top shape: 24 64 14 14 (301056)
I0403 19:25:24.891185  9219 net.cpp:156] Memory required for data: 886912032
I0403 19:25:24.891201  9219 layer_factory.hpp:77] Creating layer inception_4a/output
I0403 19:25:24.891217  9219 net.cpp:91] Creating Layer inception_4a/output
I0403 19:25:24.891232  9219 net.cpp:425] inception_4a/output <- inception_4a/1x1
I0403 19:25:24.891266  9219 net.cpp:425] inception_4a/output <- inception_4a/3x3
I0403 19:25:24.891283  9219 net.cpp:425] inception_4a/output <- inception_4a/5x5
I0403 19:25:24.891300  9219 net.cpp:425] inception_4a/output <- inception_4a/pool_proj
I0403 19:25:24.891320  9219 net.cpp:399] inception_4a/output -> inception_4a/output
I0403 19:25:24.891367  9219 net.cpp:141] Setting up inception_4a/output
I0403 19:25:24.891391  9219 net.cpp:148] Top shape: 24 512 14 14 (2408448)
I0403 19:25:24.891404  9219 net.cpp:156] Memory required for data: 896545824
I0403 19:25:24.891418  9219 layer_factory.hpp:77] Creating layer inception_4a/output_inception_4a/output_0_split
I0403 19:25:24.891436  9219 net.cpp:91] Creating Layer inception_4a/output_inception_4a/output_0_split
I0403 19:25:24.891451  9219 net.cpp:425] inception_4a/output_inception_4a/output_0_split <- inception_4a/output
I0403 19:25:24.891472  9219 net.cpp:399] inception_4a/output_inception_4a/output_0_split -> inception_4a/output_inception_4a/output_0_split_0
I0403 19:25:24.891492  9219 net.cpp:399] inception_4a/output_inception_4a/output_0_split -> inception_4a/output_inception_4a/output_0_split_1
I0403 19:25:24.891513  9219 net.cpp:399] inception_4a/output_inception_4a/output_0_split -> inception_4a/output_inception_4a/output_0_split_2
I0403 19:25:24.891544  9219 net.cpp:399] inception_4a/output_inception_4a/output_0_split -> inception_4a/output_inception_4a/output_0_split_3
I0403 19:25:24.891563  9219 net.cpp:399] inception_4a/output_inception_4a/output_0_split -> inception_4a/output_inception_4a/output_0_split_4
I0403 19:25:24.891651  9219 net.cpp:141] Setting up inception_4a/output_inception_4a/output_0_split
I0403 19:25:24.891675  9219 net.cpp:148] Top shape: 24 512 14 14 (2408448)
I0403 19:25:24.891691  9219 net.cpp:148] Top shape: 24 512 14 14 (2408448)
I0403 19:25:24.891707  9219 net.cpp:148] Top shape: 24 512 14 14 (2408448)
I0403 19:25:24.891722  9219 net.cpp:148] Top shape: 24 512 14 14 (2408448)
I0403 19:25:24.891737  9219 net.cpp:148] Top shape: 24 512 14 14 (2408448)
I0403 19:25:24.891751  9219 net.cpp:156] Memory required for data: 944714784
I0403 19:25:24.891764  9219 layer_factory.hpp:77] Creating layer loss1/ave_pool
I0403 19:25:24.891782  9219 net.cpp:91] Creating Layer loss1/ave_pool
I0403 19:25:24.891798  9219 net.cpp:425] loss1/ave_pool <- inception_4a/output_inception_4a/output_0_split_0
I0403 19:25:24.891818  9219 net.cpp:399] loss1/ave_pool -> loss1/ave_pool
I0403 19:25:24.892017  9219 net.cpp:141] Setting up loss1/ave_pool
I0403 19:25:24.892041  9219 net.cpp:148] Top shape: 24 512 4 4 (196608)
I0403 19:25:24.892056  9219 net.cpp:156] Memory required for data: 945501216
I0403 19:25:24.892071  9219 layer_factory.hpp:77] Creating layer loss1/conv
I0403 19:25:24.892092  9219 net.cpp:91] Creating Layer loss1/conv
I0403 19:25:24.892109  9219 net.cpp:425] loss1/conv <- loss1/ave_pool
I0403 19:25:24.892132  9219 net.cpp:399] loss1/conv -> loss1/conv
I0403 19:25:24.893529  9219 net.cpp:141] Setting up loss1/conv
I0403 19:25:24.893559  9219 net.cpp:148] Top shape: 24 128 4 4 (49152)
I0403 19:25:24.893575  9219 net.cpp:156] Memory required for data: 945697824
I0403 19:25:24.893607  9219 layer_factory.hpp:77] Creating layer loss1/relu_conv
I0403 19:25:24.893625  9219 net.cpp:91] Creating Layer loss1/relu_conv
I0403 19:25:24.893641  9219 net.cpp:425] loss1/relu_conv <- loss1/conv
I0403 19:25:24.893659  9219 net.cpp:386] loss1/relu_conv -> loss1/conv (in-place)
I0403 19:25:24.893934  9219 net.cpp:141] Setting up loss1/relu_conv
I0403 19:25:24.893961  9219 net.cpp:148] Top shape: 24 128 4 4 (49152)
I0403 19:25:24.893977  9219 net.cpp:156] Memory required for data: 945894432
I0403 19:25:24.893992  9219 layer_factory.hpp:77] Creating layer loss1/fc
I0403 19:25:24.894016  9219 net.cpp:91] Creating Layer loss1/fc
I0403 19:25:24.894032  9219 net.cpp:425] loss1/fc <- loss1/conv
I0403 19:25:24.894053  9219 net.cpp:399] loss1/fc -> loss1/fc
I0403 19:25:24.911381  9219 net.cpp:141] Setting up loss1/fc
I0403 19:25:24.911413  9219 net.cpp:148] Top shape: 24 1024 (24576)
I0403 19:25:24.911429  9219 net.cpp:156] Memory required for data: 945992736
I0403 19:25:24.911448  9219 layer_factory.hpp:77] Creating layer loss1/relu_fc
I0403 19:25:24.911468  9219 net.cpp:91] Creating Layer loss1/relu_fc
I0403 19:25:24.911486  9219 net.cpp:425] loss1/relu_fc <- loss1/fc
I0403 19:25:24.911504  9219 net.cpp:386] loss1/relu_fc -> loss1/fc (in-place)
I0403 19:25:24.911684  9219 net.cpp:141] Setting up loss1/relu_fc
I0403 19:25:24.911711  9219 net.cpp:148] Top shape: 24 1024 (24576)
I0403 19:25:24.911728  9219 net.cpp:156] Memory required for data: 946091040
I0403 19:25:24.911744  9219 layer_factory.hpp:77] Creating layer loss1/drop_fc
I0403 19:25:24.911768  9219 net.cpp:91] Creating Layer loss1/drop_fc
I0403 19:25:24.911798  9219 net.cpp:425] loss1/drop_fc <- loss1/fc
I0403 19:25:24.911815  9219 net.cpp:386] loss1/drop_fc -> loss1/fc (in-place)
I0403 19:25:24.911869  9219 net.cpp:141] Setting up loss1/drop_fc
I0403 19:25:24.911891  9219 net.cpp:148] Top shape: 24 1024 (24576)
I0403 19:25:24.911906  9219 net.cpp:156] Memory required for data: 946189344
I0403 19:25:24.911921  9219 layer_factory.hpp:77] Creating layer loss1/classifier_plantvillage
I0403 19:25:24.911943  9219 net.cpp:91] Creating Layer loss1/classifier_plantvillage
I0403 19:25:24.911960  9219 net.cpp:425] loss1/classifier_plantvillage <- loss1/fc
I0403 19:25:24.911978  9219 net.cpp:399] loss1/classifier_plantvillage -> loss1/classifier_plantvillage
I0403 19:25:24.912879  9219 net.cpp:141] Setting up loss1/classifier_plantvillage
I0403 19:25:24.912910  9219 net.cpp:148] Top shape: 24 38 (912)
I0403 19:25:24.912927  9219 net.cpp:156] Memory required for data: 946192992
I0403 19:25:24.912947  9219 layer_factory.hpp:77] Creating layer loss1/classifier_plantvillage_loss1/classifier_plantvillage_0_split
I0403 19:25:24.912966  9219 net.cpp:91] Creating Layer loss1/classifier_plantvillage_loss1/classifier_plantvillage_0_split
I0403 19:25:24.912983  9219 net.cpp:425] loss1/classifier_plantvillage_loss1/classifier_plantvillage_0_split <- loss1/classifier_plantvillage
I0403 19:25:24.913000  9219 net.cpp:399] loss1/classifier_plantvillage_loss1/classifier_plantvillage_0_split -> loss1/classifier_plantvillage_loss1/classifier_plantvillage_0_split_0
I0403 19:25:24.913023  9219 net.cpp:399] loss1/classifier_plantvillage_loss1/classifier_plantvillage_0_split -> loss1/classifier_plantvillage_loss1/classifier_plantvillage_0_split_1
I0403 19:25:24.913044  9219 net.cpp:399] loss1/classifier_plantvillage_loss1/classifier_plantvillage_0_split -> loss1/classifier_plantvillage_loss1/classifier_plantvillage_0_split_2
I0403 19:25:24.913112  9219 net.cpp:141] Setting up loss1/classifier_plantvillage_loss1/classifier_plantvillage_0_split
I0403 19:25:24.913137  9219 net.cpp:148] Top shape: 24 38 (912)
I0403 19:25:24.913154  9219 net.cpp:148] Top shape: 24 38 (912)
I0403 19:25:24.913172  9219 net.cpp:148] Top shape: 24 38 (912)
I0403 19:25:24.913187  9219 net.cpp:156] Memory required for data: 946203936
I0403 19:25:24.913203  9219 layer_factory.hpp:77] Creating layer inception_4b/1x1
I0403 19:25:24.913223  9219 net.cpp:91] Creating Layer inception_4b/1x1
I0403 19:25:24.913260  9219 net.cpp:425] inception_4b/1x1 <- inception_4a/output_inception_4a/output_0_split_1
I0403 19:25:24.913283  9219 net.cpp:399] inception_4b/1x1 -> inception_4b/1x1
I0403 19:25:24.914913  9219 net.cpp:141] Setting up inception_4b/1x1
I0403 19:25:24.914943  9219 net.cpp:148] Top shape: 24 160 14 14 (752640)
I0403 19:25:24.914960  9219 net.cpp:156] Memory required for data: 949214496
I0403 19:25:24.914978  9219 layer_factory.hpp:77] Creating layer inception_4b/relu_1x1
I0403 19:25:24.914997  9219 net.cpp:91] Creating Layer inception_4b/relu_1x1
I0403 19:25:24.915014  9219 net.cpp:425] inception_4b/relu_1x1 <- inception_4b/1x1
I0403 19:25:24.915030  9219 net.cpp:386] inception_4b/relu_1x1 -> inception_4b/1x1 (in-place)
I0403 19:25:24.915212  9219 net.cpp:141] Setting up inception_4b/relu_1x1
I0403 19:25:24.915237  9219 net.cpp:148] Top shape: 24 160 14 14 (752640)
I0403 19:25:24.915257  9219 net.cpp:156] Memory required for data: 952225056
I0403 19:25:24.915272  9219 layer_factory.hpp:77] Creating layer inception_4b/3x3_reduce
I0403 19:25:24.915295  9219 net.cpp:91] Creating Layer inception_4b/3x3_reduce
I0403 19:25:24.915313  9219 net.cpp:425] inception_4b/3x3_reduce <- inception_4a/output_inception_4a/output_0_split_2
I0403 19:25:24.915334  9219 net.cpp:399] inception_4b/3x3_reduce -> inception_4b/3x3_reduce
I0403 19:25:24.916687  9219 net.cpp:141] Setting up inception_4b/3x3_reduce
I0403 19:25:24.916715  9219 net.cpp:148] Top shape: 24 112 14 14 (526848)
I0403 19:25:24.916733  9219 net.cpp:156] Memory required for data: 954332448
I0403 19:25:24.916751  9219 layer_factory.hpp:77] Creating layer inception_4b/relu_3x3_reduce
I0403 19:25:24.916769  9219 net.cpp:91] Creating Layer inception_4b/relu_3x3_reduce
I0403 19:25:24.916786  9219 net.cpp:425] inception_4b/relu_3x3_reduce <- inception_4b/3x3_reduce
I0403 19:25:24.916810  9219 net.cpp:386] inception_4b/relu_3x3_reduce -> inception_4b/3x3_reduce (in-place)
I0403 19:25:24.917096  9219 net.cpp:141] Setting up inception_4b/relu_3x3_reduce
I0403 19:25:24.917124  9219 net.cpp:148] Top shape: 24 112 14 14 (526848)
I0403 19:25:24.917140  9219 net.cpp:156] Memory required for data: 956439840
I0403 19:25:24.917156  9219 layer_factory.hpp:77] Creating layer inception_4b/3x3
I0403 19:25:24.917179  9219 net.cpp:91] Creating Layer inception_4b/3x3
I0403 19:25:24.917196  9219 net.cpp:425] inception_4b/3x3 <- inception_4b/3x3_reduce
I0403 19:25:24.917220  9219 net.cpp:399] inception_4b/3x3 -> inception_4b/3x3
I0403 19:25:24.920244  9219 net.cpp:141] Setting up inception_4b/3x3
I0403 19:25:24.920274  9219 net.cpp:148] Top shape: 24 224 14 14 (1053696)
I0403 19:25:24.920291  9219 net.cpp:156] Memory required for data: 960654624
I0403 19:25:24.920310  9219 layer_factory.hpp:77] Creating layer inception_4b/relu_3x3
I0403 19:25:24.920331  9219 net.cpp:91] Creating Layer inception_4b/relu_3x3
I0403 19:25:24.920351  9219 net.cpp:425] inception_4b/relu_3x3 <- inception_4b/3x3
I0403 19:25:24.920370  9219 net.cpp:386] inception_4b/relu_3x3 -> inception_4b/3x3 (in-place)
I0403 19:25:24.920552  9219 net.cpp:141] Setting up inception_4b/relu_3x3
I0403 19:25:24.920579  9219 net.cpp:148] Top shape: 24 224 14 14 (1053696)
I0403 19:25:24.920595  9219 net.cpp:156] Memory required for data: 964869408
I0403 19:25:24.920610  9219 layer_factory.hpp:77] Creating layer inception_4b/5x5_reduce
I0403 19:25:24.920632  9219 net.cpp:91] Creating Layer inception_4b/5x5_reduce
I0403 19:25:24.920650  9219 net.cpp:425] inception_4b/5x5_reduce <- inception_4a/output_inception_4a/output_0_split_3
I0403 19:25:24.920670  9219 net.cpp:399] inception_4b/5x5_reduce -> inception_4b/5x5_reduce
I0403 19:25:24.921762  9219 net.cpp:141] Setting up inception_4b/5x5_reduce
I0403 19:25:24.921793  9219 net.cpp:148] Top shape: 24 24 14 14 (112896)
I0403 19:25:24.921811  9219 net.cpp:156] Memory required for data: 965320992
I0403 19:25:24.921830  9219 layer_factory.hpp:77] Creating layer inception_4b/relu_5x5_reduce
I0403 19:25:24.921849  9219 net.cpp:91] Creating Layer inception_4b/relu_5x5_reduce
I0403 19:25:24.921883  9219 net.cpp:425] inception_4b/relu_5x5_reduce <- inception_4b/5x5_reduce
I0403 19:25:24.921905  9219 net.cpp:386] inception_4b/relu_5x5_reduce -> inception_4b/5x5_reduce (in-place)
I0403 19:25:24.922091  9219 net.cpp:141] Setting up inception_4b/relu_5x5_reduce
I0403 19:25:24.922118  9219 net.cpp:148] Top shape: 24 24 14 14 (112896)
I0403 19:25:24.922134  9219 net.cpp:156] Memory required for data: 965772576
I0403 19:25:24.922149  9219 layer_factory.hpp:77] Creating layer inception_4b/5x5
I0403 19:25:24.922173  9219 net.cpp:91] Creating Layer inception_4b/5x5
I0403 19:25:24.922194  9219 net.cpp:425] inception_4b/5x5 <- inception_4b/5x5_reduce
I0403 19:25:24.922217  9219 net.cpp:399] inception_4b/5x5 -> inception_4b/5x5
I0403 19:25:24.923485  9219 net.cpp:141] Setting up inception_4b/5x5
I0403 19:25:24.923517  9219 net.cpp:148] Top shape: 24 64 14 14 (301056)
I0403 19:25:24.923548  9219 net.cpp:156] Memory required for data: 966976800
I0403 19:25:24.923568  9219 layer_factory.hpp:77] Creating layer inception_4b/relu_5x5
I0403 19:25:24.923585  9219 net.cpp:91] Creating Layer inception_4b/relu_5x5
I0403 19:25:24.923601  9219 net.cpp:425] inception_4b/relu_5x5 <- inception_4b/5x5
I0403 19:25:24.923619  9219 net.cpp:386] inception_4b/relu_5x5 -> inception_4b/5x5 (in-place)
I0403 19:25:24.923902  9219 net.cpp:141] Setting up inception_4b/relu_5x5
I0403 19:25:24.923931  9219 net.cpp:148] Top shape: 24 64 14 14 (301056)
I0403 19:25:24.923949  9219 net.cpp:156] Memory required for data: 968181024
I0403 19:25:24.923964  9219 layer_factory.hpp:77] Creating layer inception_4b/pool
I0403 19:25:24.923981  9219 net.cpp:91] Creating Layer inception_4b/pool
I0403 19:25:24.923998  9219 net.cpp:425] inception_4b/pool <- inception_4a/output_inception_4a/output_0_split_4
I0403 19:25:24.924021  9219 net.cpp:399] inception_4b/pool -> inception_4b/pool
I0403 19:25:24.924088  9219 net.cpp:141] Setting up inception_4b/pool
I0403 19:25:24.924113  9219 net.cpp:148] Top shape: 24 512 14 14 (2408448)
I0403 19:25:24.924127  9219 net.cpp:156] Memory required for data: 977814816
I0403 19:25:24.924141  9219 layer_factory.hpp:77] Creating layer inception_4b/pool_proj
I0403 19:25:24.924165  9219 net.cpp:91] Creating Layer inception_4b/pool_proj
I0403 19:25:24.924185  9219 net.cpp:425] inception_4b/pool_proj <- inception_4b/pool
I0403 19:25:24.924206  9219 net.cpp:399] inception_4b/pool_proj -> inception_4b/pool_proj
I0403 19:25:24.925434  9219 net.cpp:141] Setting up inception_4b/pool_proj
I0403 19:25:24.925462  9219 net.cpp:148] Top shape: 24 64 14 14 (301056)
I0403 19:25:24.925479  9219 net.cpp:156] Memory required for data: 979019040
I0403 19:25:24.925498  9219 layer_factory.hpp:77] Creating layer inception_4b/relu_pool_proj
I0403 19:25:24.925518  9219 net.cpp:91] Creating Layer inception_4b/relu_pool_proj
I0403 19:25:24.925534  9219 net.cpp:425] inception_4b/relu_pool_proj <- inception_4b/pool_proj
I0403 19:25:24.925554  9219 net.cpp:386] inception_4b/relu_pool_proj -> inception_4b/pool_proj (in-place)
I0403 19:25:24.925739  9219 net.cpp:141] Setting up inception_4b/relu_pool_proj
I0403 19:25:24.925765  9219 net.cpp:148] Top shape: 24 64 14 14 (301056)
I0403 19:25:24.925778  9219 net.cpp:156] Memory required for data: 980223264
I0403 19:25:24.925793  9219 layer_factory.hpp:77] Creating layer inception_4b/output
I0403 19:25:24.925811  9219 net.cpp:91] Creating Layer inception_4b/output
I0403 19:25:24.925827  9219 net.cpp:425] inception_4b/output <- inception_4b/1x1
I0403 19:25:24.925845  9219 net.cpp:425] inception_4b/output <- inception_4b/3x3
I0403 19:25:24.925863  9219 net.cpp:425] inception_4b/output <- inception_4b/5x5
I0403 19:25:24.925879  9219 net.cpp:425] inception_4b/output <- inception_4b/pool_proj
I0403 19:25:24.925895  9219 net.cpp:399] inception_4b/output -> inception_4b/output
I0403 19:25:24.925940  9219 net.cpp:141] Setting up inception_4b/output
I0403 19:25:24.925966  9219 net.cpp:148] Top shape: 24 512 14 14 (2408448)
I0403 19:25:24.925981  9219 net.cpp:156] Memory required for data: 989857056
I0403 19:25:24.926010  9219 layer_factory.hpp:77] Creating layer inception_4b/output_inception_4b/output_0_split
I0403 19:25:24.926028  9219 net.cpp:91] Creating Layer inception_4b/output_inception_4b/output_0_split
I0403 19:25:24.926044  9219 net.cpp:425] inception_4b/output_inception_4b/output_0_split <- inception_4b/output
I0403 19:25:24.926064  9219 net.cpp:399] inception_4b/output_inception_4b/output_0_split -> inception_4b/output_inception_4b/output_0_split_0
I0403 19:25:24.926084  9219 net.cpp:399] inception_4b/output_inception_4b/output_0_split -> inception_4b/output_inception_4b/output_0_split_1
I0403 19:25:24.926105  9219 net.cpp:399] inception_4b/output_inception_4b/output_0_split -> inception_4b/output_inception_4b/output_0_split_2
I0403 19:25:24.926126  9219 net.cpp:399] inception_4b/output_inception_4b/output_0_split -> inception_4b/output_inception_4b/output_0_split_3
I0403 19:25:24.926208  9219 net.cpp:141] Setting up inception_4b/output_inception_4b/output_0_split
I0403 19:25:24.926234  9219 net.cpp:148] Top shape: 24 512 14 14 (2408448)
I0403 19:25:24.926259  9219 net.cpp:148] Top shape: 24 512 14 14 (2408448)
I0403 19:25:24.926275  9219 net.cpp:148] Top shape: 24 512 14 14 (2408448)
I0403 19:25:24.926290  9219 net.cpp:148] Top shape: 24 512 14 14 (2408448)
I0403 19:25:24.926303  9219 net.cpp:156] Memory required for data: 1028392224
I0403 19:25:24.926317  9219 layer_factory.hpp:77] Creating layer inception_4c/1x1
I0403 19:25:24.926342  9219 net.cpp:91] Creating Layer inception_4c/1x1
I0403 19:25:24.926359  9219 net.cpp:425] inception_4c/1x1 <- inception_4b/output_inception_4b/output_0_split_0
I0403 19:25:24.926378  9219 net.cpp:399] inception_4c/1x1 -> inception_4c/1x1
I0403 19:25:24.927825  9219 net.cpp:141] Setting up inception_4c/1x1
I0403 19:25:24.927855  9219 net.cpp:148] Top shape: 24 128 14 14 (602112)
I0403 19:25:24.927871  9219 net.cpp:156] Memory required for data: 1030800672
I0403 19:25:24.927891  9219 layer_factory.hpp:77] Creating layer inception_4c/relu_1x1
I0403 19:25:24.927913  9219 net.cpp:91] Creating Layer inception_4c/relu_1x1
I0403 19:25:24.927932  9219 net.cpp:425] inception_4c/relu_1x1 <- inception_4c/1x1
I0403 19:25:24.927949  9219 net.cpp:386] inception_4c/relu_1x1 -> inception_4c/1x1 (in-place)
I0403 19:25:24.928134  9219 net.cpp:141] Setting up inception_4c/relu_1x1
I0403 19:25:24.928161  9219 net.cpp:148] Top shape: 24 128 14 14 (602112)
I0403 19:25:24.928177  9219 net.cpp:156] Memory required for data: 1033209120
I0403 19:25:24.928194  9219 layer_factory.hpp:77] Creating layer inception_4c/3x3_reduce
I0403 19:25:24.928220  9219 net.cpp:91] Creating Layer inception_4c/3x3_reduce
I0403 19:25:24.928243  9219 net.cpp:425] inception_4c/3x3_reduce <- inception_4b/output_inception_4b/output_0_split_1
I0403 19:25:24.928278  9219 net.cpp:399] inception_4c/3x3_reduce -> inception_4c/3x3_reduce
I0403 19:25:24.930230  9219 net.cpp:141] Setting up inception_4c/3x3_reduce
I0403 19:25:24.930269  9219 net.cpp:148] Top shape: 24 128 14 14 (602112)
I0403 19:25:24.930286  9219 net.cpp:156] Memory required for data: 1035617568
I0403 19:25:24.930305  9219 layer_factory.hpp:77] Creating layer inception_4c/relu_3x3_reduce
I0403 19:25:24.930323  9219 net.cpp:91] Creating Layer inception_4c/relu_3x3_reduce
I0403 19:25:24.930340  9219 net.cpp:425] inception_4c/relu_3x3_reduce <- inception_4c/3x3_reduce
I0403 19:25:24.930359  9219 net.cpp:386] inception_4c/relu_3x3_reduce -> inception_4c/3x3_reduce (in-place)
I0403 19:25:24.930647  9219 net.cpp:141] Setting up inception_4c/relu_3x3_reduce
I0403 19:25:24.930675  9219 net.cpp:148] Top shape: 24 128 14 14 (602112)
I0403 19:25:24.930691  9219 net.cpp:156] Memory required for data: 1038026016
I0403 19:25:24.930707  9219 layer_factory.hpp:77] Creating layer inception_4c/3x3
I0403 19:25:24.930732  9219 net.cpp:91] Creating Layer inception_4c/3x3
I0403 19:25:24.930748  9219 net.cpp:425] inception_4c/3x3 <- inception_4c/3x3_reduce
I0403 19:25:24.930768  9219 net.cpp:399] inception_4c/3x3 -> inception_4c/3x3
I0403 19:25:24.934423  9219 net.cpp:141] Setting up inception_4c/3x3
I0403 19:25:24.934469  9219 net.cpp:148] Top shape: 24 256 14 14 (1204224)
I0403 19:25:24.934487  9219 net.cpp:156] Memory required for data: 1042842912
I0403 19:25:24.934522  9219 layer_factory.hpp:77] Creating layer inception_4c/relu_3x3
I0403 19:25:24.934556  9219 net.cpp:91] Creating Layer inception_4c/relu_3x3
I0403 19:25:24.934574  9219 net.cpp:425] inception_4c/relu_3x3 <- inception_4c/3x3
I0403 19:25:24.934595  9219 net.cpp:386] inception_4c/relu_3x3 -> inception_4c/3x3 (in-place)
I0403 19:25:24.934790  9219 net.cpp:141] Setting up inception_4c/relu_3x3
I0403 19:25:24.934820  9219 net.cpp:148] Top shape: 24 256 14 14 (1204224)
I0403 19:25:24.934837  9219 net.cpp:156] Memory required for data: 1047659808
I0403 19:25:24.934852  9219 layer_factory.hpp:77] Creating layer inception_4c/5x5_reduce
I0403 19:25:24.934875  9219 net.cpp:91] Creating Layer inception_4c/5x5_reduce
I0403 19:25:24.934895  9219 net.cpp:425] inception_4c/5x5_reduce <- inception_4b/output_inception_4b/output_0_split_2
I0403 19:25:24.934916  9219 net.cpp:399] inception_4c/5x5_reduce -> inception_4c/5x5_reduce
I0403 19:25:24.936033  9219 net.cpp:141] Setting up inception_4c/5x5_reduce
I0403 19:25:24.936064  9219 net.cpp:148] Top shape: 24 24 14 14 (112896)
I0403 19:25:24.936080  9219 net.cpp:156] Memory required for data: 1048111392
I0403 19:25:24.936100  9219 layer_factory.hpp:77] Creating layer inception_4c/relu_5x5_reduce
I0403 19:25:24.936120  9219 net.cpp:91] Creating Layer inception_4c/relu_5x5_reduce
I0403 19:25:24.936137  9219 net.cpp:425] inception_4c/relu_5x5_reduce <- inception_4c/5x5_reduce
I0403 19:25:24.936157  9219 net.cpp:386] inception_4c/relu_5x5_reduce -> inception_4c/5x5_reduce (in-place)
I0403 19:25:24.936350  9219 net.cpp:141] Setting up inception_4c/relu_5x5_reduce
I0403 19:25:24.936377  9219 net.cpp:148] Top shape: 24 24 14 14 (112896)
I0403 19:25:24.936393  9219 net.cpp:156] Memory required for data: 1048562976
I0403 19:25:24.936408  9219 layer_factory.hpp:77] Creating layer inception_4c/5x5
I0403 19:25:24.936434  9219 net.cpp:91] Creating Layer inception_4c/5x5
I0403 19:25:24.936453  9219 net.cpp:425] inception_4c/5x5 <- inception_4c/5x5_reduce
I0403 19:25:24.936477  9219 net.cpp:399] inception_4c/5x5 -> inception_4c/5x5
I0403 19:25:24.937736  9219 net.cpp:141] Setting up inception_4c/5x5
I0403 19:25:24.937764  9219 net.cpp:148] Top shape: 24 64 14 14 (301056)
I0403 19:25:24.937780  9219 net.cpp:156] Memory required for data: 1049767200
I0403 19:25:24.937799  9219 layer_factory.hpp:77] Creating layer inception_4c/relu_5x5
I0403 19:25:24.937822  9219 net.cpp:91] Creating Layer inception_4c/relu_5x5
I0403 19:25:24.937840  9219 net.cpp:425] inception_4c/relu_5x5 <- inception_4c/5x5
I0403 19:25:24.937860  9219 net.cpp:386] inception_4c/relu_5x5 -> inception_4c/5x5 (in-place)
I0403 19:25:24.938153  9219 net.cpp:141] Setting up inception_4c/relu_5x5
I0403 19:25:24.938180  9219 net.cpp:148] Top shape: 24 64 14 14 (301056)
I0403 19:25:24.938195  9219 net.cpp:156] Memory required for data: 1050971424
I0403 19:25:24.938210  9219 layer_factory.hpp:77] Creating layer inception_4c/pool
I0403 19:25:24.938230  9219 net.cpp:91] Creating Layer inception_4c/pool
I0403 19:25:24.938252  9219 net.cpp:425] inception_4c/pool <- inception_4b/output_inception_4b/output_0_split_3
I0403 19:25:24.938272  9219 net.cpp:399] inception_4c/pool -> inception_4c/pool
I0403 19:25:24.938338  9219 net.cpp:141] Setting up inception_4c/pool
I0403 19:25:24.938361  9219 net.cpp:148] Top shape: 24 512 14 14 (2408448)
I0403 19:25:24.938376  9219 net.cpp:156] Memory required for data: 1060605216
I0403 19:25:24.938390  9219 layer_factory.hpp:77] Creating layer inception_4c/pool_proj
I0403 19:25:24.938413  9219 net.cpp:91] Creating Layer inception_4c/pool_proj
I0403 19:25:24.938431  9219 net.cpp:425] inception_4c/pool_proj <- inception_4c/pool
I0403 19:25:24.938452  9219 net.cpp:399] inception_4c/pool_proj -> inception_4c/pool_proj
I0403 19:25:24.939679  9219 net.cpp:141] Setting up inception_4c/pool_proj
I0403 19:25:24.939710  9219 net.cpp:148] Top shape: 24 64 14 14 (301056)
I0403 19:25:24.939743  9219 net.cpp:156] Memory required for data: 1061809440
I0403 19:25:24.939762  9219 layer_factory.hpp:77] Creating layer inception_4c/relu_pool_proj
I0403 19:25:24.939781  9219 net.cpp:91] Creating Layer inception_4c/relu_pool_proj
I0403 19:25:24.939800  9219 net.cpp:425] inception_4c/relu_pool_proj <- inception_4c/pool_proj
I0403 19:25:24.939821  9219 net.cpp:386] inception_4c/relu_pool_proj -> inception_4c/pool_proj (in-place)
I0403 19:25:24.940006  9219 net.cpp:141] Setting up inception_4c/relu_pool_proj
I0403 19:25:24.940033  9219 net.cpp:148] Top shape: 24 64 14 14 (301056)
I0403 19:25:24.940048  9219 net.cpp:156] Memory required for data: 1063013664
I0403 19:25:24.940064  9219 layer_factory.hpp:77] Creating layer inception_4c/output
I0403 19:25:24.940083  9219 net.cpp:91] Creating Layer inception_4c/output
I0403 19:25:24.940099  9219 net.cpp:425] inception_4c/output <- inception_4c/1x1
I0403 19:25:24.940115  9219 net.cpp:425] inception_4c/output <- inception_4c/3x3
I0403 19:25:24.940137  9219 net.cpp:425] inception_4c/output <- inception_4c/5x5
I0403 19:25:24.940153  9219 net.cpp:425] inception_4c/output <- inception_4c/pool_proj
I0403 19:25:24.940171  9219 net.cpp:399] inception_4c/output -> inception_4c/output
I0403 19:25:24.940218  9219 net.cpp:141] Setting up inception_4c/output
I0403 19:25:24.940248  9219 net.cpp:148] Top shape: 24 512 14 14 (2408448)
I0403 19:25:24.940266  9219 net.cpp:156] Memory required for data: 1072647456
I0403 19:25:24.940280  9219 layer_factory.hpp:77] Creating layer inception_4c/output_inception_4c/output_0_split
I0403 19:25:24.940297  9219 net.cpp:91] Creating Layer inception_4c/output_inception_4c/output_0_split
I0403 19:25:24.940312  9219 net.cpp:425] inception_4c/output_inception_4c/output_0_split <- inception_4c/output
I0403 19:25:24.940332  9219 net.cpp:399] inception_4c/output_inception_4c/output_0_split -> inception_4c/output_inception_4c/output_0_split_0
I0403 19:25:24.940353  9219 net.cpp:399] inception_4c/output_inception_4c/output_0_split -> inception_4c/output_inception_4c/output_0_split_1
I0403 19:25:24.940373  9219 net.cpp:399] inception_4c/output_inception_4c/output_0_split -> inception_4c/output_inception_4c/output_0_split_2
I0403 19:25:24.940393  9219 net.cpp:399] inception_4c/output_inception_4c/output_0_split -> inception_4c/output_inception_4c/output_0_split_3
I0403 19:25:24.940479  9219 net.cpp:141] Setting up inception_4c/output_inception_4c/output_0_split
I0403 19:25:24.940503  9219 net.cpp:148] Top shape: 24 512 14 14 (2408448)
I0403 19:25:24.940521  9219 net.cpp:148] Top shape: 24 512 14 14 (2408448)
I0403 19:25:24.940536  9219 net.cpp:148] Top shape: 24 512 14 14 (2408448)
I0403 19:25:24.940552  9219 net.cpp:148] Top shape: 24 512 14 14 (2408448)
I0403 19:25:24.940565  9219 net.cpp:156] Memory required for data: 1111182624
I0403 19:25:24.940580  9219 layer_factory.hpp:77] Creating layer inception_4d/1x1
I0403 19:25:24.940600  9219 net.cpp:91] Creating Layer inception_4d/1x1
I0403 19:25:24.940618  9219 net.cpp:425] inception_4d/1x1 <- inception_4c/output_inception_4c/output_0_split_0
I0403 19:25:24.940639  9219 net.cpp:399] inception_4d/1x1 -> inception_4d/1x1
I0403 19:25:24.942028  9219 net.cpp:141] Setting up inception_4d/1x1
I0403 19:25:24.942056  9219 net.cpp:148] Top shape: 24 112 14 14 (526848)
I0403 19:25:24.942075  9219 net.cpp:156] Memory required for data: 1113290016
I0403 19:25:24.942093  9219 layer_factory.hpp:77] Creating layer inception_4d/relu_1x1
I0403 19:25:24.942116  9219 net.cpp:91] Creating Layer inception_4d/relu_1x1
I0403 19:25:24.942131  9219 net.cpp:425] inception_4d/relu_1x1 <- inception_4d/1x1
I0403 19:25:24.942148  9219 net.cpp:386] inception_4d/relu_1x1 -> inception_4d/1x1 (in-place)
I0403 19:25:24.942348  9219 net.cpp:141] Setting up inception_4d/relu_1x1
I0403 19:25:24.942375  9219 net.cpp:148] Top shape: 24 112 14 14 (526848)
I0403 19:25:24.942391  9219 net.cpp:156] Memory required for data: 1115397408
I0403 19:25:24.942407  9219 layer_factory.hpp:77] Creating layer inception_4d/3x3_reduce
I0403 19:25:24.942443  9219 net.cpp:91] Creating Layer inception_4d/3x3_reduce
I0403 19:25:24.942461  9219 net.cpp:425] inception_4d/3x3_reduce <- inception_4c/output_inception_4c/output_0_split_1
I0403 19:25:24.942481  9219 net.cpp:399] inception_4d/3x3_reduce -> inception_4d/3x3_reduce
I0403 19:25:24.943994  9219 net.cpp:141] Setting up inception_4d/3x3_reduce
I0403 19:25:24.944025  9219 net.cpp:148] Top shape: 24 144 14 14 (677376)
I0403 19:25:24.944041  9219 net.cpp:156] Memory required for data: 1118106912
I0403 19:25:24.944059  9219 layer_factory.hpp:77] Creating layer inception_4d/relu_3x3_reduce
I0403 19:25:24.944080  9219 net.cpp:91] Creating Layer inception_4d/relu_3x3_reduce
I0403 19:25:24.944098  9219 net.cpp:425] inception_4d/relu_3x3_reduce <- inception_4d/3x3_reduce
I0403 19:25:24.944116  9219 net.cpp:386] inception_4d/relu_3x3_reduce -> inception_4d/3x3_reduce (in-place)
I0403 19:25:24.944414  9219 net.cpp:141] Setting up inception_4d/relu_3x3_reduce
I0403 19:25:24.944442  9219 net.cpp:148] Top shape: 24 144 14 14 (677376)
I0403 19:25:24.944458  9219 net.cpp:156] Memory required for data: 1120816416
I0403 19:25:24.944473  9219 layer_factory.hpp:77] Creating layer inception_4d/3x3
I0403 19:25:24.944497  9219 net.cpp:91] Creating Layer inception_4d/3x3
I0403 19:25:24.944517  9219 net.cpp:425] inception_4d/3x3 <- inception_4d/3x3_reduce
I0403 19:25:24.944540  9219 net.cpp:399] inception_4d/3x3 -> inception_4d/3x3
I0403 19:25:24.948797  9219 net.cpp:141] Setting up inception_4d/3x3
I0403 19:25:24.948827  9219 net.cpp:148] Top shape: 24 288 14 14 (1354752)
I0403 19:25:24.948843  9219 net.cpp:156] Memory required for data: 1126235424
I0403 19:25:24.948861  9219 layer_factory.hpp:77] Creating layer inception_4d/relu_3x3
I0403 19:25:24.948881  9219 net.cpp:91] Creating Layer inception_4d/relu_3x3
I0403 19:25:24.948899  9219 net.cpp:425] inception_4d/relu_3x3 <- inception_4d/3x3
I0403 19:25:24.948916  9219 net.cpp:386] inception_4d/relu_3x3 -> inception_4d/3x3 (in-place)
I0403 19:25:24.949105  9219 net.cpp:141] Setting up inception_4d/relu_3x3
I0403 19:25:24.949131  9219 net.cpp:148] Top shape: 24 288 14 14 (1354752)
I0403 19:25:24.949146  9219 net.cpp:156] Memory required for data: 1131654432
I0403 19:25:24.949161  9219 layer_factory.hpp:77] Creating layer inception_4d/5x5_reduce
I0403 19:25:24.949183  9219 net.cpp:91] Creating Layer inception_4d/5x5_reduce
I0403 19:25:24.949201  9219 net.cpp:425] inception_4d/5x5_reduce <- inception_4c/output_inception_4c/output_0_split_2
I0403 19:25:24.949223  9219 net.cpp:399] inception_4d/5x5_reduce -> inception_4d/5x5_reduce
I0403 19:25:24.950397  9219 net.cpp:141] Setting up inception_4d/5x5_reduce
I0403 19:25:24.950428  9219 net.cpp:148] Top shape: 24 32 14 14 (150528)
I0403 19:25:24.950446  9219 net.cpp:156] Memory required for data: 1132256544
I0403 19:25:24.950465  9219 layer_factory.hpp:77] Creating layer inception_4d/relu_5x5_reduce
I0403 19:25:24.950484  9219 net.cpp:91] Creating Layer inception_4d/relu_5x5_reduce
I0403 19:25:24.950501  9219 net.cpp:425] inception_4d/relu_5x5_reduce <- inception_4d/5x5_reduce
I0403 19:25:24.950518  9219 net.cpp:386] inception_4d/relu_5x5_reduce -> inception_4d/5x5_reduce (in-place)
I0403 19:25:24.950713  9219 net.cpp:141] Setting up inception_4d/relu_5x5_reduce
I0403 19:25:24.950742  9219 net.cpp:148] Top shape: 24 32 14 14 (150528)
I0403 19:25:24.950758  9219 net.cpp:156] Memory required for data: 1132858656
I0403 19:25:24.950773  9219 layer_factory.hpp:77] Creating layer inception_4d/5x5
I0403 19:25:24.950795  9219 net.cpp:91] Creating Layer inception_4d/5x5
I0403 19:25:24.950812  9219 net.cpp:425] inception_4d/5x5 <- inception_4d/5x5_reduce
I0403 19:25:24.950832  9219 net.cpp:399] inception_4d/5x5 -> inception_4d/5x5
I0403 19:25:24.952348  9219 net.cpp:141] Setting up inception_4d/5x5
I0403 19:25:24.952376  9219 net.cpp:148] Top shape: 24 64 14 14 (301056)
I0403 19:25:24.952394  9219 net.cpp:156] Memory required for data: 1134062880
I0403 19:25:24.952414  9219 layer_factory.hpp:77] Creating layer inception_4d/relu_5x5
I0403 19:25:24.952448  9219 net.cpp:91] Creating Layer inception_4d/relu_5x5
I0403 19:25:24.952466  9219 net.cpp:425] inception_4d/relu_5x5 <- inception_4d/5x5
I0403 19:25:24.952486  9219 net.cpp:386] inception_4d/relu_5x5 -> inception_4d/5x5 (in-place)
I0403 19:25:24.952795  9219 net.cpp:141] Setting up inception_4d/relu_5x5
I0403 19:25:24.952822  9219 net.cpp:148] Top shape: 24 64 14 14 (301056)
I0403 19:25:24.952837  9219 net.cpp:156] Memory required for data: 1135267104
I0403 19:25:24.952852  9219 layer_factory.hpp:77] Creating layer inception_4d/pool
I0403 19:25:24.952870  9219 net.cpp:91] Creating Layer inception_4d/pool
I0403 19:25:24.952886  9219 net.cpp:425] inception_4d/pool <- inception_4c/output_inception_4c/output_0_split_3
I0403 19:25:24.952906  9219 net.cpp:399] inception_4d/pool -> inception_4d/pool
I0403 19:25:24.952973  9219 net.cpp:141] Setting up inception_4d/pool
I0403 19:25:24.952999  9219 net.cpp:148] Top shape: 24 512 14 14 (2408448)
I0403 19:25:24.953016  9219 net.cpp:156] Memory required for data: 1144900896
I0403 19:25:24.953030  9219 layer_factory.hpp:77] Creating layer inception_4d/pool_proj
I0403 19:25:24.953052  9219 net.cpp:91] Creating Layer inception_4d/pool_proj
I0403 19:25:24.953070  9219 net.cpp:425] inception_4d/pool_proj <- inception_4d/pool
I0403 19:25:24.953088  9219 net.cpp:399] inception_4d/pool_proj -> inception_4d/pool_proj
I0403 19:25:24.954882  9219 net.cpp:141] Setting up inception_4d/pool_proj
I0403 19:25:24.954912  9219 net.cpp:148] Top shape: 24 64 14 14 (301056)
I0403 19:25:24.954929  9219 net.cpp:156] Memory required for data: 1146105120
I0403 19:25:24.954949  9219 layer_factory.hpp:77] Creating layer inception_4d/relu_pool_proj
I0403 19:25:24.954970  9219 net.cpp:91] Creating Layer inception_4d/relu_pool_proj
I0403 19:25:24.954988  9219 net.cpp:425] inception_4d/relu_pool_proj <- inception_4d/pool_proj
I0403 19:25:24.955008  9219 net.cpp:386] inception_4d/relu_pool_proj -> inception_4d/pool_proj (in-place)
I0403 19:25:24.955196  9219 net.cpp:141] Setting up inception_4d/relu_pool_proj
I0403 19:25:24.955221  9219 net.cpp:148] Top shape: 24 64 14 14 (301056)
I0403 19:25:24.955236  9219 net.cpp:156] Memory required for data: 1147309344
I0403 19:25:24.955268  9219 layer_factory.hpp:77] Creating layer inception_4d/output
I0403 19:25:24.955287  9219 net.cpp:91] Creating Layer inception_4d/output
I0403 19:25:24.955303  9219 net.cpp:425] inception_4d/output <- inception_4d/1x1
I0403 19:25:24.955320  9219 net.cpp:425] inception_4d/output <- inception_4d/3x3
I0403 19:25:24.955338  9219 net.cpp:425] inception_4d/output <- inception_4d/5x5
I0403 19:25:24.955354  9219 net.cpp:425] inception_4d/output <- inception_4d/pool_proj
I0403 19:25:24.955374  9219 net.cpp:399] inception_4d/output -> inception_4d/output
I0403 19:25:24.955423  9219 net.cpp:141] Setting up inception_4d/output
I0403 19:25:24.955453  9219 net.cpp:148] Top shape: 24 528 14 14 (2483712)
I0403 19:25:24.955469  9219 net.cpp:156] Memory required for data: 1157244192
I0403 19:25:24.955485  9219 layer_factory.hpp:77] Creating layer inception_4d/output_inception_4d/output_0_split
I0403 19:25:24.955503  9219 net.cpp:91] Creating Layer inception_4d/output_inception_4d/output_0_split
I0403 19:25:24.955520  9219 net.cpp:425] inception_4d/output_inception_4d/output_0_split <- inception_4d/output
I0403 19:25:24.955551  9219 net.cpp:399] inception_4d/output_inception_4d/output_0_split -> inception_4d/output_inception_4d/output_0_split_0
I0403 19:25:24.955572  9219 net.cpp:399] inception_4d/output_inception_4d/output_0_split -> inception_4d/output_inception_4d/output_0_split_1
I0403 19:25:24.955597  9219 net.cpp:399] inception_4d/output_inception_4d/output_0_split -> inception_4d/output_inception_4d/output_0_split_2
I0403 19:25:24.955620  9219 net.cpp:399] inception_4d/output_inception_4d/output_0_split -> inception_4d/output_inception_4d/output_0_split_3
I0403 19:25:24.955639  9219 net.cpp:399] inception_4d/output_inception_4d/output_0_split -> inception_4d/output_inception_4d/output_0_split_4
I0403 19:25:24.955741  9219 net.cpp:141] Setting up inception_4d/output_inception_4d/output_0_split
I0403 19:25:24.955788  9219 net.cpp:148] Top shape: 24 528 14 14 (2483712)
I0403 19:25:24.955806  9219 net.cpp:148] Top shape: 24 528 14 14 (2483712)
I0403 19:25:24.955822  9219 net.cpp:148] Top shape: 24 528 14 14 (2483712)
I0403 19:25:24.955837  9219 net.cpp:148] Top shape: 24 528 14 14 (2483712)
I0403 19:25:24.955852  9219 net.cpp:148] Top shape: 24 528 14 14 (2483712)
I0403 19:25:24.955867  9219 net.cpp:156] Memory required for data: 1206918432
I0403 19:25:24.955881  9219 layer_factory.hpp:77] Creating layer loss2/ave_pool
I0403 19:25:24.955900  9219 net.cpp:91] Creating Layer loss2/ave_pool
I0403 19:25:24.955917  9219 net.cpp:425] loss2/ave_pool <- inception_4d/output_inception_4d/output_0_split_0
I0403 19:25:24.955935  9219 net.cpp:399] loss2/ave_pool -> loss2/ave_pool
I0403 19:25:24.956243  9219 net.cpp:141] Setting up loss2/ave_pool
I0403 19:25:24.956269  9219 net.cpp:148] Top shape: 24 528 4 4 (202752)
I0403 19:25:24.956285  9219 net.cpp:156] Memory required for data: 1207729440
I0403 19:25:24.956300  9219 layer_factory.hpp:77] Creating layer loss2/conv
I0403 19:25:24.956323  9219 net.cpp:91] Creating Layer loss2/conv
I0403 19:25:24.956341  9219 net.cpp:425] loss2/conv <- loss2/ave_pool
I0403 19:25:24.956359  9219 net.cpp:399] loss2/conv -> loss2/conv
I0403 19:25:24.958197  9219 net.cpp:141] Setting up loss2/conv
I0403 19:25:24.958226  9219 net.cpp:148] Top shape: 24 128 4 4 (49152)
I0403 19:25:24.958246  9219 net.cpp:156] Memory required for data: 1207926048
I0403 19:25:24.958268  9219 layer_factory.hpp:77] Creating layer loss2/relu_conv
I0403 19:25:24.958287  9219 net.cpp:91] Creating Layer loss2/relu_conv
I0403 19:25:24.958303  9219 net.cpp:425] loss2/relu_conv <- loss2/conv
I0403 19:25:24.958323  9219 net.cpp:386] loss2/relu_conv -> loss2/conv (in-place)
I0403 19:25:24.958605  9219 net.cpp:141] Setting up loss2/relu_conv
I0403 19:25:24.958629  9219 net.cpp:148] Top shape: 24 128 4 4 (49152)
I0403 19:25:24.958644  9219 net.cpp:156] Memory required for data: 1208122656
I0403 19:25:24.958659  9219 layer_factory.hpp:77] Creating layer loss2/fc
I0403 19:25:24.958678  9219 net.cpp:91] Creating Layer loss2/fc
I0403 19:25:24.958694  9219 net.cpp:425] loss2/fc <- loss2/conv
I0403 19:25:24.958715  9219 net.cpp:399] loss2/fc -> loss2/fc
I0403 19:25:24.975898  9219 net.cpp:141] Setting up loss2/fc
I0403 19:25:24.975931  9219 net.cpp:148] Top shape: 24 1024 (24576)
I0403 19:25:24.975947  9219 net.cpp:156] Memory required for data: 1208220960
I0403 19:25:24.975966  9219 layer_factory.hpp:77] Creating layer loss2/relu_fc
I0403 19:25:24.975985  9219 net.cpp:91] Creating Layer loss2/relu_fc
I0403 19:25:24.976001  9219 net.cpp:425] loss2/relu_fc <- loss2/fc
I0403 19:25:24.976019  9219 net.cpp:386] loss2/relu_fc -> loss2/fc (in-place)
I0403 19:25:24.976316  9219 net.cpp:141] Setting up loss2/relu_fc
I0403 19:25:24.976346  9219 net.cpp:148] Top shape: 24 1024 (24576)
I0403 19:25:24.976362  9219 net.cpp:156] Memory required for data: 1208319264
I0403 19:25:24.976377  9219 layer_factory.hpp:77] Creating layer loss2/drop_fc
I0403 19:25:24.976397  9219 net.cpp:91] Creating Layer loss2/drop_fc
I0403 19:25:24.976413  9219 net.cpp:425] loss2/drop_fc <- loss2/fc
I0403 19:25:24.976431  9219 net.cpp:386] loss2/drop_fc -> loss2/fc (in-place)
I0403 19:25:24.976482  9219 net.cpp:141] Setting up loss2/drop_fc
I0403 19:25:24.976505  9219 net.cpp:148] Top shape: 24 1024 (24576)
I0403 19:25:24.976519  9219 net.cpp:156] Memory required for data: 1208417568
I0403 19:25:24.976534  9219 layer_factory.hpp:77] Creating layer loss2/classifier_plantvillage
I0403 19:25:24.976553  9219 net.cpp:91] Creating Layer loss2/classifier_plantvillage
I0403 19:25:24.976570  9219 net.cpp:425] loss2/classifier_plantvillage <- loss2/fc
I0403 19:25:24.976589  9219 net.cpp:399] loss2/classifier_plantvillage -> loss2/classifier_plantvillage
I0403 19:25:24.976982  9219 net.cpp:141] Setting up loss2/classifier_plantvillage
I0403 19:25:24.977007  9219 net.cpp:148] Top shape: 24 38 (912)
I0403 19:25:24.977022  9219 net.cpp:156] Memory required for data: 1208421216
I0403 19:25:24.977056  9219 layer_factory.hpp:77] Creating layer loss2/classifier_plantvillage_loss2/classifier_plantvillage_0_split
I0403 19:25:24.977074  9219 net.cpp:91] Creating Layer loss2/classifier_plantvillage_loss2/classifier_plantvillage_0_split
I0403 19:25:24.977092  9219 net.cpp:425] loss2/classifier_plantvillage_loss2/classifier_plantvillage_0_split <- loss2/classifier_plantvillage
I0403 19:25:24.977111  9219 net.cpp:399] loss2/classifier_plantvillage_loss2/classifier_plantvillage_0_split -> loss2/classifier_plantvillage_loss2/classifier_plantvillage_0_split_0
I0403 19:25:24.977133  9219 net.cpp:399] loss2/classifier_plantvillage_loss2/classifier_plantvillage_0_split -> loss2/classifier_plantvillage_loss2/classifier_plantvillage_0_split_1
I0403 19:25:24.977152  9219 net.cpp:399] loss2/classifier_plantvillage_loss2/classifier_plantvillage_0_split -> loss2/classifier_plantvillage_loss2/classifier_plantvillage_0_split_2
I0403 19:25:24.977228  9219 net.cpp:141] Setting up loss2/classifier_plantvillage_loss2/classifier_plantvillage_0_split
I0403 19:25:24.977255  9219 net.cpp:148] Top shape: 24 38 (912)
I0403 19:25:24.977272  9219 net.cpp:148] Top shape: 24 38 (912)
I0403 19:25:24.977288  9219 net.cpp:148] Top shape: 24 38 (912)
I0403 19:25:24.977303  9219 net.cpp:156] Memory required for data: 1208432160
I0403 19:25:24.977316  9219 layer_factory.hpp:77] Creating layer inception_4e/1x1
I0403 19:25:24.977340  9219 net.cpp:91] Creating Layer inception_4e/1x1
I0403 19:25:24.977358  9219 net.cpp:425] inception_4e/1x1 <- inception_4d/output_inception_4d/output_0_split_1
I0403 19:25:24.977377  9219 net.cpp:399] inception_4e/1x1 -> inception_4e/1x1
I0403 19:25:24.979146  9219 net.cpp:141] Setting up inception_4e/1x1
I0403 19:25:24.979174  9219 net.cpp:148] Top shape: 24 256 14 14 (1204224)
I0403 19:25:24.979192  9219 net.cpp:156] Memory required for data: 1213249056
I0403 19:25:24.979210  9219 layer_factory.hpp:77] Creating layer inception_4e/relu_1x1
I0403 19:25:24.979230  9219 net.cpp:91] Creating Layer inception_4e/relu_1x1
I0403 19:25:24.979254  9219 net.cpp:425] inception_4e/relu_1x1 <- inception_4e/1x1
I0403 19:25:24.979272  9219 net.cpp:386] inception_4e/relu_1x1 -> inception_4e/1x1 (in-place)
I0403 19:25:24.979564  9219 net.cpp:141] Setting up inception_4e/relu_1x1
I0403 19:25:24.979596  9219 net.cpp:148] Top shape: 24 256 14 14 (1204224)
I0403 19:25:24.979611  9219 net.cpp:156] Memory required for data: 1218065952
I0403 19:25:24.979626  9219 layer_factory.hpp:77] Creating layer inception_4e/3x3_reduce
I0403 19:25:24.979648  9219 net.cpp:91] Creating Layer inception_4e/3x3_reduce
I0403 19:25:24.979666  9219 net.cpp:425] inception_4e/3x3_reduce <- inception_4d/output_inception_4d/output_0_split_2
I0403 19:25:24.979688  9219 net.cpp:399] inception_4e/3x3_reduce -> inception_4e/3x3_reduce
I0403 19:25:24.981755  9219 net.cpp:141] Setting up inception_4e/3x3_reduce
I0403 19:25:24.981784  9219 net.cpp:148] Top shape: 24 160 14 14 (752640)
I0403 19:25:24.981801  9219 net.cpp:156] Memory required for data: 1221076512
I0403 19:25:24.981818  9219 layer_factory.hpp:77] Creating layer inception_4e/relu_3x3_reduce
I0403 19:25:24.981837  9219 net.cpp:91] Creating Layer inception_4e/relu_3x3_reduce
I0403 19:25:24.981853  9219 net.cpp:425] inception_4e/relu_3x3_reduce <- inception_4e/3x3_reduce
I0403 19:25:24.981873  9219 net.cpp:386] inception_4e/relu_3x3_reduce -> inception_4e/3x3_reduce (in-place)
I0403 19:25:24.982054  9219 net.cpp:141] Setting up inception_4e/relu_3x3_reduce
I0403 19:25:24.982079  9219 net.cpp:148] Top shape: 24 160 14 14 (752640)
I0403 19:25:24.982094  9219 net.cpp:156] Memory required for data: 1224087072
I0403 19:25:24.982107  9219 layer_factory.hpp:77] Creating layer inception_4e/3x3
I0403 19:25:24.982131  9219 net.cpp:91] Creating Layer inception_4e/3x3
I0403 19:25:24.982149  9219 net.cpp:425] inception_4e/3x3 <- inception_4e/3x3_reduce
I0403 19:25:24.982169  9219 net.cpp:399] inception_4e/3x3 -> inception_4e/3x3
I0403 19:25:24.987066  9219 net.cpp:141] Setting up inception_4e/3x3
I0403 19:25:24.987107  9219 net.cpp:148] Top shape: 24 320 14 14 (1505280)
I0403 19:25:24.987123  9219 net.cpp:156] Memory required for data: 1230108192
I0403 19:25:24.987143  9219 layer_factory.hpp:77] Creating layer inception_4e/relu_3x3
I0403 19:25:24.987162  9219 net.cpp:91] Creating Layer inception_4e/relu_3x3
I0403 19:25:24.987179  9219 net.cpp:425] inception_4e/relu_3x3 <- inception_4e/3x3
I0403 19:25:24.987196  9219 net.cpp:386] inception_4e/relu_3x3 -> inception_4e/3x3 (in-place)
I0403 19:25:24.987514  9219 net.cpp:141] Setting up inception_4e/relu_3x3
I0403 19:25:24.987552  9219 net.cpp:148] Top shape: 24 320 14 14 (1505280)
I0403 19:25:24.987571  9219 net.cpp:156] Memory required for data: 1236129312
I0403 19:25:24.987586  9219 layer_factory.hpp:77] Creating layer inception_4e/5x5_reduce
I0403 19:25:24.987606  9219 net.cpp:91] Creating Layer inception_4e/5x5_reduce
I0403 19:25:24.987623  9219 net.cpp:425] inception_4e/5x5_reduce <- inception_4d/output_inception_4d/output_0_split_3
I0403 19:25:24.987645  9219 net.cpp:399] inception_4e/5x5_reduce -> inception_4e/5x5_reduce
I0403 19:25:24.988690  9219 net.cpp:141] Setting up inception_4e/5x5_reduce
I0403 19:25:24.988719  9219 net.cpp:148] Top shape: 24 32 14 14 (150528)
I0403 19:25:24.988735  9219 net.cpp:156] Memory required for data: 1236731424
I0403 19:25:24.988754  9219 layer_factory.hpp:77] Creating layer inception_4e/relu_5x5_reduce
I0403 19:25:24.988773  9219 net.cpp:91] Creating Layer inception_4e/relu_5x5_reduce
I0403 19:25:24.988790  9219 net.cpp:425] inception_4e/relu_5x5_reduce <- inception_4e/5x5_reduce
I0403 19:25:24.988808  9219 net.cpp:386] inception_4e/relu_5x5_reduce -> inception_4e/5x5_reduce (in-place)
I0403 19:25:24.989099  9219 net.cpp:141] Setting up inception_4e/relu_5x5_reduce
I0403 19:25:24.989125  9219 net.cpp:148] Top shape: 24 32 14 14 (150528)
I0403 19:25:24.989140  9219 net.cpp:156] Memory required for data: 1237333536
I0403 19:25:24.989156  9219 layer_factory.hpp:77] Creating layer inception_4e/5x5
I0403 19:25:24.989194  9219 net.cpp:91] Creating Layer inception_4e/5x5
I0403 19:25:24.989213  9219 net.cpp:425] inception_4e/5x5 <- inception_4e/5x5_reduce
I0403 19:25:24.989233  9219 net.cpp:399] inception_4e/5x5 -> inception_4e/5x5
I0403 19:25:24.991024  9219 net.cpp:141] Setting up inception_4e/5x5
I0403 19:25:24.991055  9219 net.cpp:148] Top shape: 24 128 14 14 (602112)
I0403 19:25:24.991071  9219 net.cpp:156] Memory required for data: 1239741984
I0403 19:25:24.991091  9219 layer_factory.hpp:77] Creating layer inception_4e/relu_5x5
I0403 19:25:24.991111  9219 net.cpp:91] Creating Layer inception_4e/relu_5x5
I0403 19:25:24.991127  9219 net.cpp:425] inception_4e/relu_5x5 <- inception_4e/5x5
I0403 19:25:24.991147  9219 net.cpp:386] inception_4e/relu_5x5 -> inception_4e/5x5 (in-place)
I0403 19:25:24.991344  9219 net.cpp:141] Setting up inception_4e/relu_5x5
I0403 19:25:24.991369  9219 net.cpp:148] Top shape: 24 128 14 14 (602112)
I0403 19:25:24.991384  9219 net.cpp:156] Memory required for data: 1242150432
I0403 19:25:24.991399  9219 layer_factory.hpp:77] Creating layer inception_4e/pool
I0403 19:25:24.991416  9219 net.cpp:91] Creating Layer inception_4e/pool
I0403 19:25:24.991432  9219 net.cpp:425] inception_4e/pool <- inception_4d/output_inception_4d/output_0_split_4
I0403 19:25:24.991453  9219 net.cpp:399] inception_4e/pool -> inception_4e/pool
I0403 19:25:24.991523  9219 net.cpp:141] Setting up inception_4e/pool
I0403 19:25:24.991547  9219 net.cpp:148] Top shape: 24 528 14 14 (2483712)
I0403 19:25:24.991561  9219 net.cpp:156] Memory required for data: 1252085280
I0403 19:25:24.991576  9219 layer_factory.hpp:77] Creating layer inception_4e/pool_proj
I0403 19:25:24.991600  9219 net.cpp:91] Creating Layer inception_4e/pool_proj
I0403 19:25:24.991616  9219 net.cpp:425] inception_4e/pool_proj <- inception_4e/pool
I0403 19:25:24.991634  9219 net.cpp:399] inception_4e/pool_proj -> inception_4e/pool_proj
I0403 19:25:24.993136  9219 net.cpp:141] Setting up inception_4e/pool_proj
I0403 19:25:24.993165  9219 net.cpp:148] Top shape: 24 128 14 14 (602112)
I0403 19:25:24.993196  9219 net.cpp:156] Memory required for data: 1254493728
I0403 19:25:24.993216  9219 layer_factory.hpp:77] Creating layer inception_4e/relu_pool_proj
I0403 19:25:24.993237  9219 net.cpp:91] Creating Layer inception_4e/relu_pool_proj
I0403 19:25:24.993260  9219 net.cpp:425] inception_4e/relu_pool_proj <- inception_4e/pool_proj
I0403 19:25:24.993278  9219 net.cpp:386] inception_4e/relu_pool_proj -> inception_4e/pool_proj (in-place)
I0403 19:25:24.993566  9219 net.cpp:141] Setting up inception_4e/relu_pool_proj
I0403 19:25:24.993592  9219 net.cpp:148] Top shape: 24 128 14 14 (602112)
I0403 19:25:24.993607  9219 net.cpp:156] Memory required for data: 1256902176
I0403 19:25:24.993621  9219 layer_factory.hpp:77] Creating layer inception_4e/output
I0403 19:25:24.993641  9219 net.cpp:91] Creating Layer inception_4e/output
I0403 19:25:24.993657  9219 net.cpp:425] inception_4e/output <- inception_4e/1x1
I0403 19:25:24.993674  9219 net.cpp:425] inception_4e/output <- inception_4e/3x3
I0403 19:25:24.993690  9219 net.cpp:425] inception_4e/output <- inception_4e/5x5
I0403 19:25:24.993705  9219 net.cpp:425] inception_4e/output <- inception_4e/pool_proj
I0403 19:25:24.993721  9219 net.cpp:399] inception_4e/output -> inception_4e/output
I0403 19:25:24.993772  9219 net.cpp:141] Setting up inception_4e/output
I0403 19:25:24.993794  9219 net.cpp:148] Top shape: 24 832 14 14 (3913728)
I0403 19:25:24.993809  9219 net.cpp:156] Memory required for data: 1272557088
I0403 19:25:24.993824  9219 layer_factory.hpp:77] Creating layer pool4/3x3_s2
I0403 19:25:24.993844  9219 net.cpp:91] Creating Layer pool4/3x3_s2
I0403 19:25:24.993860  9219 net.cpp:425] pool4/3x3_s2 <- inception_4e/output
I0403 19:25:24.993877  9219 net.cpp:399] pool4/3x3_s2 -> pool4/3x3_s2
I0403 19:25:24.993947  9219 net.cpp:141] Setting up pool4/3x3_s2
I0403 19:25:24.993969  9219 net.cpp:148] Top shape: 24 832 7 7 (978432)
I0403 19:25:24.993984  9219 net.cpp:156] Memory required for data: 1276470816
I0403 19:25:24.993999  9219 layer_factory.hpp:77] Creating layer pool4/3x3_s2_pool4/3x3_s2_0_split
I0403 19:25:24.994016  9219 net.cpp:91] Creating Layer pool4/3x3_s2_pool4/3x3_s2_0_split
I0403 19:25:24.994031  9219 net.cpp:425] pool4/3x3_s2_pool4/3x3_s2_0_split <- pool4/3x3_s2
I0403 19:25:24.994050  9219 net.cpp:399] pool4/3x3_s2_pool4/3x3_s2_0_split -> pool4/3x3_s2_pool4/3x3_s2_0_split_0
I0403 19:25:24.994071  9219 net.cpp:399] pool4/3x3_s2_pool4/3x3_s2_0_split -> pool4/3x3_s2_pool4/3x3_s2_0_split_1
I0403 19:25:24.994091  9219 net.cpp:399] pool4/3x3_s2_pool4/3x3_s2_0_split -> pool4/3x3_s2_pool4/3x3_s2_0_split_2
I0403 19:25:24.994110  9219 net.cpp:399] pool4/3x3_s2_pool4/3x3_s2_0_split -> pool4/3x3_s2_pool4/3x3_s2_0_split_3
I0403 19:25:24.994199  9219 net.cpp:141] Setting up pool4/3x3_s2_pool4/3x3_s2_0_split
I0403 19:25:24.994223  9219 net.cpp:148] Top shape: 24 832 7 7 (978432)
I0403 19:25:24.994245  9219 net.cpp:148] Top shape: 24 832 7 7 (978432)
I0403 19:25:24.994261  9219 net.cpp:148] Top shape: 24 832 7 7 (978432)
I0403 19:25:24.994277  9219 net.cpp:148] Top shape: 24 832 7 7 (978432)
I0403 19:25:24.994290  9219 net.cpp:156] Memory required for data: 1292125728
I0403 19:25:24.994304  9219 layer_factory.hpp:77] Creating layer inception_5a/1x1
I0403 19:25:24.994325  9219 net.cpp:91] Creating Layer inception_5a/1x1
I0403 19:25:24.994343  9219 net.cpp:425] inception_5a/1x1 <- pool4/3x3_s2_pool4/3x3_s2_0_split_0
I0403 19:25:24.994364  9219 net.cpp:399] inception_5a/1x1 -> inception_5a/1x1
I0403 19:25:24.997148  9219 net.cpp:141] Setting up inception_5a/1x1
I0403 19:25:24.997176  9219 net.cpp:148] Top shape: 24 256 7 7 (301056)
I0403 19:25:24.997192  9219 net.cpp:156] Memory required for data: 1293329952
I0403 19:25:24.997210  9219 layer_factory.hpp:77] Creating layer inception_5a/relu_1x1
I0403 19:25:24.997227  9219 net.cpp:91] Creating Layer inception_5a/relu_1x1
I0403 19:25:24.997247  9219 net.cpp:425] inception_5a/relu_1x1 <- inception_5a/1x1
I0403 19:25:24.997267  9219 net.cpp:386] inception_5a/relu_1x1 -> inception_5a/1x1 (in-place)
I0403 19:25:24.997575  9219 net.cpp:141] Setting up inception_5a/relu_1x1
I0403 19:25:24.997601  9219 net.cpp:148] Top shape: 24 256 7 7 (301056)
I0403 19:25:24.997614  9219 net.cpp:156] Memory required for data: 1294534176
I0403 19:25:24.997629  9219 layer_factory.hpp:77] Creating layer inception_5a/3x3_reduce
I0403 19:25:24.997651  9219 net.cpp:91] Creating Layer inception_5a/3x3_reduce
I0403 19:25:24.997669  9219 net.cpp:425] inception_5a/3x3_reduce <- pool4/3x3_s2_pool4/3x3_s2_0_split_1
I0403 19:25:24.997690  9219 net.cpp:399] inception_5a/3x3_reduce -> inception_5a/3x3_reduce
I0403 19:25:25.000103  9219 net.cpp:141] Setting up inception_5a/3x3_reduce
I0403 19:25:25.000135  9219 net.cpp:148] Top shape: 24 160 7 7 (188160)
I0403 19:25:25.000152  9219 net.cpp:156] Memory required for data: 1295286816
I0403 19:25:25.000171  9219 layer_factory.hpp:77] Creating layer inception_5a/relu_3x3_reduce
I0403 19:25:25.000195  9219 net.cpp:91] Creating Layer inception_5a/relu_3x3_reduce
I0403 19:25:25.000211  9219 net.cpp:425] inception_5a/relu_3x3_reduce <- inception_5a/3x3_reduce
I0403 19:25:25.000228  9219 net.cpp:386] inception_5a/relu_3x3_reduce -> inception_5a/3x3_reduce (in-place)
I0403 19:25:25.000418  9219 net.cpp:141] Setting up inception_5a/relu_3x3_reduce
I0403 19:25:25.000444  9219 net.cpp:148] Top shape: 24 160 7 7 (188160)
I0403 19:25:25.000460  9219 net.cpp:156] Memory required for data: 1296039456
I0403 19:25:25.000474  9219 layer_factory.hpp:77] Creating layer inception_5a/3x3
I0403 19:25:25.000497  9219 net.cpp:91] Creating Layer inception_5a/3x3
I0403 19:25:25.000514  9219 net.cpp:425] inception_5a/3x3 <- inception_5a/3x3_reduce
I0403 19:25:25.000533  9219 net.cpp:399] inception_5a/3x3 -> inception_5a/3x3
I0403 19:25:25.005594  9219 net.cpp:141] Setting up inception_5a/3x3
I0403 19:25:25.005626  9219 net.cpp:148] Top shape: 24 320 7 7 (376320)
I0403 19:25:25.005642  9219 net.cpp:156] Memory required for data: 1297544736
I0403 19:25:25.005661  9219 layer_factory.hpp:77] Creating layer inception_5a/relu_3x3
I0403 19:25:25.005679  9219 net.cpp:91] Creating Layer inception_5a/relu_3x3
I0403 19:25:25.005697  9219 net.cpp:425] inception_5a/relu_3x3 <- inception_5a/3x3
I0403 19:25:25.005717  9219 net.cpp:386] inception_5a/relu_3x3 -> inception_5a/3x3 (in-place)
I0403 19:25:25.006014  9219 net.cpp:141] Setting up inception_5a/relu_3x3
I0403 19:25:25.006043  9219 net.cpp:148] Top shape: 24 320 7 7 (376320)
I0403 19:25:25.006059  9219 net.cpp:156] Memory required for data: 1299050016
I0403 19:25:25.006075  9219 layer_factory.hpp:77] Creating layer inception_5a/5x5_reduce
I0403 19:25:25.006099  9219 net.cpp:91] Creating Layer inception_5a/5x5_reduce
I0403 19:25:25.006117  9219 net.cpp:425] inception_5a/5x5_reduce <- pool4/3x3_s2_pool4/3x3_s2_0_split_2
I0403 19:25:25.006139  9219 net.cpp:399] inception_5a/5x5_reduce -> inception_5a/5x5_reduce
I0403 19:25:25.007323  9219 net.cpp:141] Setting up inception_5a/5x5_reduce
I0403 19:25:25.007354  9219 net.cpp:148] Top shape: 24 32 7 7 (37632)
I0403 19:25:25.007372  9219 net.cpp:156] Memory required for data: 1299200544
I0403 19:25:25.007392  9219 layer_factory.hpp:77] Creating layer inception_5a/relu_5x5_reduce
I0403 19:25:25.007411  9219 net.cpp:91] Creating Layer inception_5a/relu_5x5_reduce
I0403 19:25:25.007428  9219 net.cpp:425] inception_5a/relu_5x5_reduce <- inception_5a/5x5_reduce
I0403 19:25:25.007449  9219 net.cpp:386] inception_5a/relu_5x5_reduce -> inception_5a/5x5_reduce (in-place)
I0403 19:25:25.007751  9219 net.cpp:141] Setting up inception_5a/relu_5x5_reduce
I0403 19:25:25.007778  9219 net.cpp:148] Top shape: 24 32 7 7 (37632)
I0403 19:25:25.007794  9219 net.cpp:156] Memory required for data: 1299351072
I0403 19:25:25.007810  9219 layer_factory.hpp:77] Creating layer inception_5a/5x5
I0403 19:25:25.007833  9219 net.cpp:91] Creating Layer inception_5a/5x5
I0403 19:25:25.007850  9219 net.cpp:425] inception_5a/5x5 <- inception_5a/5x5_reduce
I0403 19:25:25.007871  9219 net.cpp:399] inception_5a/5x5 -> inception_5a/5x5
I0403 19:25:25.009641  9219 net.cpp:141] Setting up inception_5a/5x5
I0403 19:25:25.009685  9219 net.cpp:148] Top shape: 24 128 7 7 (150528)
I0403 19:25:25.009703  9219 net.cpp:156] Memory required for data: 1299953184
I0403 19:25:25.009722  9219 layer_factory.hpp:77] Creating layer inception_5a/relu_5x5
I0403 19:25:25.009742  9219 net.cpp:91] Creating Layer inception_5a/relu_5x5
I0403 19:25:25.009760  9219 net.cpp:425] inception_5a/relu_5x5 <- inception_5a/5x5
I0403 19:25:25.009780  9219 net.cpp:386] inception_5a/relu_5x5 -> inception_5a/5x5 (in-place)
I0403 19:25:25.009979  9219 net.cpp:141] Setting up inception_5a/relu_5x5
I0403 19:25:25.010005  9219 net.cpp:148] Top shape: 24 128 7 7 (150528)
I0403 19:25:25.010021  9219 net.cpp:156] Memory required for data: 1300555296
I0403 19:25:25.010037  9219 layer_factory.hpp:77] Creating layer inception_5a/pool
I0403 19:25:25.010056  9219 net.cpp:91] Creating Layer inception_5a/pool
I0403 19:25:25.010073  9219 net.cpp:425] inception_5a/pool <- pool4/3x3_s2_pool4/3x3_s2_0_split_3
I0403 19:25:25.010094  9219 net.cpp:399] inception_5a/pool -> inception_5a/pool
I0403 19:25:25.010167  9219 net.cpp:141] Setting up inception_5a/pool
I0403 19:25:25.010195  9219 net.cpp:148] Top shape: 24 832 7 7 (978432)
I0403 19:25:25.010210  9219 net.cpp:156] Memory required for data: 1304469024
I0403 19:25:25.010223  9219 layer_factory.hpp:77] Creating layer inception_5a/pool_proj
I0403 19:25:25.010263  9219 net.cpp:91] Creating Layer inception_5a/pool_proj
I0403 19:25:25.010283  9219 net.cpp:425] inception_5a/pool_proj <- inception_5a/pool
I0403 19:25:25.010303  9219 net.cpp:399] inception_5a/pool_proj -> inception_5a/pool_proj
I0403 19:25:25.012622  9219 net.cpp:141] Setting up inception_5a/pool_proj
I0403 19:25:25.012656  9219 net.cpp:148] Top shape: 24 128 7 7 (150528)
I0403 19:25:25.012675  9219 net.cpp:156] Memory required for data: 1305071136
I0403 19:25:25.012692  9219 layer_factory.hpp:77] Creating layer inception_5a/relu_pool_proj
I0403 19:25:25.012712  9219 net.cpp:91] Creating Layer inception_5a/relu_pool_proj
I0403 19:25:25.012728  9219 net.cpp:425] inception_5a/relu_pool_proj <- inception_5a/pool_proj
I0403 19:25:25.012747  9219 net.cpp:386] inception_5a/relu_pool_proj -> inception_5a/pool_proj (in-place)
I0403 19:25:25.013051  9219 net.cpp:141] Setting up inception_5a/relu_pool_proj
I0403 19:25:25.013079  9219 net.cpp:148] Top shape: 24 128 7 7 (150528)
I0403 19:25:25.013095  9219 net.cpp:156] Memory required for data: 1305673248
I0403 19:25:25.013111  9219 layer_factory.hpp:77] Creating layer inception_5a/output
I0403 19:25:25.013128  9219 net.cpp:91] Creating Layer inception_5a/output
I0403 19:25:25.013145  9219 net.cpp:425] inception_5a/output <- inception_5a/1x1
I0403 19:25:25.013162  9219 net.cpp:425] inception_5a/output <- inception_5a/3x3
I0403 19:25:25.013180  9219 net.cpp:425] inception_5a/output <- inception_5a/5x5
I0403 19:25:25.013195  9219 net.cpp:425] inception_5a/output <- inception_5a/pool_proj
I0403 19:25:25.013213  9219 net.cpp:399] inception_5a/output -> inception_5a/output
I0403 19:25:25.013268  9219 net.cpp:141] Setting up inception_5a/output
I0403 19:25:25.013293  9219 net.cpp:148] Top shape: 24 832 7 7 (978432)
I0403 19:25:25.013308  9219 net.cpp:156] Memory required for data: 1309586976
I0403 19:25:25.013322  9219 layer_factory.hpp:77] Creating layer inception_5a/output_inception_5a/output_0_split
I0403 19:25:25.013342  9219 net.cpp:91] Creating Layer inception_5a/output_inception_5a/output_0_split
I0403 19:25:25.013360  9219 net.cpp:425] inception_5a/output_inception_5a/output_0_split <- inception_5a/output
I0403 19:25:25.013377  9219 net.cpp:399] inception_5a/output_inception_5a/output_0_split -> inception_5a/output_inception_5a/output_0_split_0
I0403 19:25:25.013397  9219 net.cpp:399] inception_5a/output_inception_5a/output_0_split -> inception_5a/output_inception_5a/output_0_split_1
I0403 19:25:25.013417  9219 net.cpp:399] inception_5a/output_inception_5a/output_0_split -> inception_5a/output_inception_5a/output_0_split_2
I0403 19:25:25.013438  9219 net.cpp:399] inception_5a/output_inception_5a/output_0_split -> inception_5a/output_inception_5a/output_0_split_3
I0403 19:25:25.013555  9219 net.cpp:141] Setting up inception_5a/output_inception_5a/output_0_split
I0403 19:25:25.013578  9219 net.cpp:148] Top shape: 24 832 7 7 (978432)
I0403 19:25:25.013595  9219 net.cpp:148] Top shape: 24 832 7 7 (978432)
I0403 19:25:25.013612  9219 net.cpp:148] Top shape: 24 832 7 7 (978432)
I0403 19:25:25.013628  9219 net.cpp:148] Top shape: 24 832 7 7 (978432)
I0403 19:25:25.013640  9219 net.cpp:156] Memory required for data: 1325241888
I0403 19:25:25.013655  9219 layer_factory.hpp:77] Creating layer inception_5b/1x1
I0403 19:25:25.013679  9219 net.cpp:91] Creating Layer inception_5b/1x1
I0403 19:25:25.013695  9219 net.cpp:425] inception_5b/1x1 <- inception_5a/output_inception_5a/output_0_split_0
I0403 19:25:25.013717  9219 net.cpp:399] inception_5b/1x1 -> inception_5b/1x1
I0403 19:25:25.017485  9219 net.cpp:141] Setting up inception_5b/1x1
I0403 19:25:25.017518  9219 net.cpp:148] Top shape: 24 384 7 7 (451584)
I0403 19:25:25.017534  9219 net.cpp:156] Memory required for data: 1327048224
I0403 19:25:25.017554  9219 layer_factory.hpp:77] Creating layer inception_5b/relu_1x1
I0403 19:25:25.017575  9219 net.cpp:91] Creating Layer inception_5b/relu_1x1
I0403 19:25:25.017592  9219 net.cpp:425] inception_5b/relu_1x1 <- inception_5b/1x1
I0403 19:25:25.017612  9219 net.cpp:386] inception_5b/relu_1x1 -> inception_5b/1x1 (in-place)
I0403 19:25:25.017920  9219 net.cpp:141] Setting up inception_5b/relu_1x1
I0403 19:25:25.017947  9219 net.cpp:148] Top shape: 24 384 7 7 (451584)
I0403 19:25:25.017974  9219 net.cpp:156] Memory required for data: 1328854560
I0403 19:25:25.017989  9219 layer_factory.hpp:77] Creating layer inception_5b/3x3_reduce
I0403 19:25:25.018013  9219 net.cpp:91] Creating Layer inception_5b/3x3_reduce
I0403 19:25:25.018036  9219 net.cpp:425] inception_5b/3x3_reduce <- inception_5a/output_inception_5a/output_0_split_1
I0403 19:25:25.018057  9219 net.cpp:399] inception_5b/3x3_reduce -> inception_5b/3x3_reduce
I0403 19:25:25.020758  9219 net.cpp:141] Setting up inception_5b/3x3_reduce
I0403 19:25:25.020792  9219 net.cpp:148] Top shape: 24 192 7 7 (225792)
I0403 19:25:25.020809  9219 net.cpp:156] Memory required for data: 1329757728
I0403 19:25:25.020829  9219 layer_factory.hpp:77] Creating layer inception_5b/relu_3x3_reduce
I0403 19:25:25.020848  9219 net.cpp:91] Creating Layer inception_5b/relu_3x3_reduce
I0403 19:25:25.020864  9219 net.cpp:425] inception_5b/relu_3x3_reduce <- inception_5b/3x3_reduce
I0403 19:25:25.020881  9219 net.cpp:386] inception_5b/relu_3x3_reduce -> inception_5b/3x3_reduce (in-place)
I0403 19:25:25.021076  9219 net.cpp:141] Setting up inception_5b/relu_3x3_reduce
I0403 19:25:25.021105  9219 net.cpp:148] Top shape: 24 192 7 7 (225792)
I0403 19:25:25.021119  9219 net.cpp:156] Memory required for data: 1330660896
I0403 19:25:25.021136  9219 layer_factory.hpp:77] Creating layer inception_5b/3x3
I0403 19:25:25.021158  9219 net.cpp:91] Creating Layer inception_5b/3x3
I0403 19:25:25.021175  9219 net.cpp:425] inception_5b/3x3 <- inception_5b/3x3_reduce
I0403 19:25:25.021195  9219 net.cpp:399] inception_5b/3x3 -> inception_5b/3x3
I0403 19:25:25.027957  9219 net.cpp:141] Setting up inception_5b/3x3
I0403 19:25:25.027989  9219 net.cpp:148] Top shape: 24 384 7 7 (451584)
I0403 19:25:25.028007  9219 net.cpp:156] Memory required for data: 1332467232
I0403 19:25:25.028025  9219 layer_factory.hpp:77] Creating layer inception_5b/relu_3x3
I0403 19:25:25.028053  9219 net.cpp:91] Creating Layer inception_5b/relu_3x3
I0403 19:25:25.028069  9219 net.cpp:425] inception_5b/relu_3x3 <- inception_5b/3x3
I0403 19:25:25.028087  9219 net.cpp:386] inception_5b/relu_3x3 -> inception_5b/3x3 (in-place)
I0403 19:25:25.028404  9219 net.cpp:141] Setting up inception_5b/relu_3x3
I0403 19:25:25.028434  9219 net.cpp:148] Top shape: 24 384 7 7 (451584)
I0403 19:25:25.028450  9219 net.cpp:156] Memory required for data: 1334273568
I0403 19:25:25.028465  9219 layer_factory.hpp:77] Creating layer inception_5b/5x5_reduce
I0403 19:25:25.028506  9219 net.cpp:91] Creating Layer inception_5b/5x5_reduce
I0403 19:25:25.028527  9219 net.cpp:425] inception_5b/5x5_reduce <- inception_5a/output_inception_5a/output_0_split_2
I0403 19:25:25.028545  9219 net.cpp:399] inception_5b/5x5_reduce -> inception_5b/5x5_reduce
I0403 19:25:25.029840  9219 net.cpp:141] Setting up inception_5b/5x5_reduce
I0403 19:25:25.029870  9219 net.cpp:148] Top shape: 24 48 7 7 (56448)
I0403 19:25:25.029886  9219 net.cpp:156] Memory required for data: 1334499360
I0403 19:25:25.029906  9219 layer_factory.hpp:77] Creating layer inception_5b/relu_5x5_reduce
I0403 19:25:25.029927  9219 net.cpp:91] Creating Layer inception_5b/relu_5x5_reduce
I0403 19:25:25.029943  9219 net.cpp:425] inception_5b/relu_5x5_reduce <- inception_5b/5x5_reduce
I0403 19:25:25.029963  9219 net.cpp:386] inception_5b/relu_5x5_reduce -> inception_5b/5x5_reduce (in-place)
I0403 19:25:25.030362  9219 net.cpp:141] Setting up inception_5b/relu_5x5_reduce
I0403 19:25:25.030390  9219 net.cpp:148] Top shape: 24 48 7 7 (56448)
I0403 19:25:25.030406  9219 net.cpp:156] Memory required for data: 1334725152
I0403 19:25:25.030422  9219 layer_factory.hpp:77] Creating layer inception_5b/5x5
I0403 19:25:25.030443  9219 net.cpp:91] Creating Layer inception_5b/5x5
I0403 19:25:25.030462  9219 net.cpp:425] inception_5b/5x5 <- inception_5b/5x5_reduce
I0403 19:25:25.030483  9219 net.cpp:399] inception_5b/5x5 -> inception_5b/5x5
I0403 19:25:25.032593  9219 net.cpp:141] Setting up inception_5b/5x5
I0403 19:25:25.032621  9219 net.cpp:148] Top shape: 24 128 7 7 (150528)
I0403 19:25:25.032639  9219 net.cpp:156] Memory required for data: 1335327264
I0403 19:25:25.032657  9219 layer_factory.hpp:77] Creating layer inception_5b/relu_5x5
I0403 19:25:25.032677  9219 net.cpp:91] Creating Layer inception_5b/relu_5x5
I0403 19:25:25.032694  9219 net.cpp:425] inception_5b/relu_5x5 <- inception_5b/5x5
I0403 19:25:25.032716  9219 net.cpp:386] inception_5b/relu_5x5 -> inception_5b/5x5 (in-place)
I0403 19:25:25.032917  9219 net.cpp:141] Setting up inception_5b/relu_5x5
I0403 19:25:25.032943  9219 net.cpp:148] Top shape: 24 128 7 7 (150528)
I0403 19:25:25.032959  9219 net.cpp:156] Memory required for data: 1335929376
I0403 19:25:25.032974  9219 layer_factory.hpp:77] Creating layer inception_5b/pool
I0403 19:25:25.032994  9219 net.cpp:91] Creating Layer inception_5b/pool
I0403 19:25:25.033011  9219 net.cpp:425] inception_5b/pool <- inception_5a/output_inception_5a/output_0_split_3
I0403 19:25:25.033030  9219 net.cpp:399] inception_5b/pool -> inception_5b/pool
I0403 19:25:25.033104  9219 net.cpp:141] Setting up inception_5b/pool
I0403 19:25:25.033129  9219 net.cpp:148] Top shape: 24 832 7 7 (978432)
I0403 19:25:25.033144  9219 net.cpp:156] Memory required for data: 1339843104
I0403 19:25:25.033159  9219 layer_factory.hpp:77] Creating layer inception_5b/pool_proj
I0403 19:25:25.033181  9219 net.cpp:91] Creating Layer inception_5b/pool_proj
I0403 19:25:25.033200  9219 net.cpp:425] inception_5b/pool_proj <- inception_5b/pool
I0403 19:25:25.033222  9219 net.cpp:399] inception_5b/pool_proj -> inception_5b/pool_proj
I0403 19:25:25.035543  9219 net.cpp:141] Setting up inception_5b/pool_proj
I0403 19:25:25.035575  9219 net.cpp:148] Top shape: 24 128 7 7 (150528)
I0403 19:25:25.035594  9219 net.cpp:156] Memory required for data: 1340445216
I0403 19:25:25.035614  9219 layer_factory.hpp:77] Creating layer inception_5b/relu_pool_proj
I0403 19:25:25.035632  9219 net.cpp:91] Creating Layer inception_5b/relu_pool_proj
I0403 19:25:25.035651  9219 net.cpp:425] inception_5b/relu_pool_proj <- inception_5b/pool_proj
I0403 19:25:25.035672  9219 net.cpp:386] inception_5b/relu_pool_proj -> inception_5b/pool_proj (in-place)
I0403 19:25:25.035974  9219 net.cpp:141] Setting up inception_5b/relu_pool_proj
I0403 19:25:25.036005  9219 net.cpp:148] Top shape: 24 128 7 7 (150528)
I0403 19:25:25.036020  9219 net.cpp:156] Memory required for data: 1341047328
I0403 19:25:25.036036  9219 layer_factory.hpp:77] Creating layer inception_5b/output
I0403 19:25:25.036052  9219 net.cpp:91] Creating Layer inception_5b/output
I0403 19:25:25.036083  9219 net.cpp:425] inception_5b/output <- inception_5b/1x1
I0403 19:25:25.036101  9219 net.cpp:425] inception_5b/output <- inception_5b/3x3
I0403 19:25:25.036118  9219 net.cpp:425] inception_5b/output <- inception_5b/5x5
I0403 19:25:25.036135  9219 net.cpp:425] inception_5b/output <- inception_5b/pool_proj
I0403 19:25:25.036152  9219 net.cpp:399] inception_5b/output -> inception_5b/output
I0403 19:25:25.036206  9219 net.cpp:141] Setting up inception_5b/output
I0403 19:25:25.036231  9219 net.cpp:148] Top shape: 24 1024 7 7 (1204224)
I0403 19:25:25.036249  9219 net.cpp:156] Memory required for data: 1345864224
I0403 19:25:25.036267  9219 layer_factory.hpp:77] Creating layer pool5/7x7_s1
I0403 19:25:25.036286  9219 net.cpp:91] Creating Layer pool5/7x7_s1
I0403 19:25:25.036303  9219 net.cpp:425] pool5/7x7_s1 <- inception_5b/output
I0403 19:25:25.036321  9219 net.cpp:399] pool5/7x7_s1 -> pool5/7x7_s1
I0403 19:25:25.036542  9219 net.cpp:141] Setting up pool5/7x7_s1
I0403 19:25:25.036571  9219 net.cpp:148] Top shape: 24 1024 1 1 (24576)
I0403 19:25:25.036586  9219 net.cpp:156] Memory required for data: 1345962528
I0403 19:25:25.036602  9219 layer_factory.hpp:77] Creating layer pool5/drop_7x7_s1
I0403 19:25:25.036619  9219 net.cpp:91] Creating Layer pool5/drop_7x7_s1
I0403 19:25:25.036635  9219 net.cpp:425] pool5/drop_7x7_s1 <- pool5/7x7_s1
I0403 19:25:25.036662  9219 net.cpp:386] pool5/drop_7x7_s1 -> pool5/7x7_s1 (in-place)
I0403 19:25:25.036713  9219 net.cpp:141] Setting up pool5/drop_7x7_s1
I0403 19:25:25.036738  9219 net.cpp:148] Top shape: 24 1024 1 1 (24576)
I0403 19:25:25.036757  9219 net.cpp:156] Memory required for data: 1346060832
I0403 19:25:25.036773  9219 layer_factory.hpp:77] Creating layer loss3/classifier_plantvillage
I0403 19:25:25.036795  9219 net.cpp:91] Creating Layer loss3/classifier_plantvillage
I0403 19:25:25.036813  9219 net.cpp:425] loss3/classifier_plantvillage <- pool5/7x7_s1
I0403 19:25:25.036834  9219 net.cpp:399] loss3/classifier_plantvillage -> loss3/classifier_plantvillage
I0403 19:25:25.037266  9219 net.cpp:141] Setting up loss3/classifier_plantvillage
I0403 19:25:25.037292  9219 net.cpp:148] Top shape: 24 38 (912)
I0403 19:25:25.037307  9219 net.cpp:156] Memory required for data: 1346064480
I0403 19:25:25.037324  9219 layer_factory.hpp:77] Creating layer loss3/classifier_plantvillage_loss3/classifier_plantvillage_0_split
I0403 19:25:25.037348  9219 net.cpp:91] Creating Layer loss3/classifier_plantvillage_loss3/classifier_plantvillage_0_split
I0403 19:25:25.037364  9219 net.cpp:425] loss3/classifier_plantvillage_loss3/classifier_plantvillage_0_split <- loss3/classifier_plantvillage
I0403 19:25:25.037382  9219 net.cpp:399] loss3/classifier_plantvillage_loss3/classifier_plantvillage_0_split -> loss3/classifier_plantvillage_loss3/classifier_plantvillage_0_split_0
I0403 19:25:25.037405  9219 net.cpp:399] loss3/classifier_plantvillage_loss3/classifier_plantvillage_0_split -> loss3/classifier_plantvillage_loss3/classifier_plantvillage_0_split_1
I0403 19:25:25.037425  9219 net.cpp:399] loss3/classifier_plantvillage_loss3/classifier_plantvillage_0_split -> loss3/classifier_plantvillage_loss3/classifier_plantvillage_0_split_2
I0403 19:25:25.037446  9219 net.cpp:399] loss3/classifier_plantvillage_loss3/classifier_plantvillage_0_split -> loss3/classifier_plantvillage_loss3/classifier_plantvillage_0_split_3
I0403 19:25:25.037547  9219 net.cpp:141] Setting up loss3/classifier_plantvillage_loss3/classifier_plantvillage_0_split
I0403 19:25:25.037572  9219 net.cpp:148] Top shape: 24 38 (912)
I0403 19:25:25.037588  9219 net.cpp:148] Top shape: 24 38 (912)
I0403 19:25:25.037605  9219 net.cpp:148] Top shape: 24 38 (912)
I0403 19:25:25.037619  9219 net.cpp:148] Top shape: 24 38 (912)
I0403 19:25:25.037633  9219 net.cpp:156] Memory required for data: 1346079072
I0403 19:25:25.037648  9219 layer_factory.hpp:77] Creating layer loss1/loss
I0403 19:25:25.037670  9219 net.cpp:91] Creating Layer loss1/loss
I0403 19:25:25.037688  9219 net.cpp:425] loss1/loss <- loss1/classifier_plantvillage_loss1/classifier_plantvillage_0_split_0
I0403 19:25:25.037719  9219 net.cpp:425] loss1/loss <- label_data_1_split_0
…
