…
I0403 19:27:09.047698  9261 net.cpp:313] The NetState phase (1) differed from the phase (0) specified by a rule in layer data
I0403 19:27:09.048856  9261 net.cpp:49] Initializing net from parameters: 
state {
  phase: TEST
}
layer {
  name: "data"
  type: "Data"
  top: "data"
  top: "label"
  include {
    phase: TEST
  }
  transform_param {
    mirror: false
    crop_size: 224
    mean_file: "/home/mohanty/data/final_dataset/lmdb/color-50-50/mean.binaryproto"
  }
  data_param {
    source: "/home/mohanty/data/final_dataset/lmdb/color-50-50/test_db"
    batch_size: 24
    backend: LMDB
  }
}
layer {
  name: "conv1/7x7_s2"
  type: "Convolution"
  bottom: "data"
  top: "conv1/7x7_s2"
  param {
    lr_mult: 1
    decay_mult: 1
  }
  param {
    lr_mult: 2
    decay_mult: 0
  }
  convolution_param {
    num_output: 64
    pad: 3
    kernel_size: 7
    stride: 2
    weight_filler {
      type: "xavier"
      std: 0.1
    }
    bias_filler {
      type: "constant"
      value: 0.2
    }
  }
}
layer {
  name: "conv1/relu_7x7"
  type: "ReLU"
  bottom: "conv1/7x7_s2"
  top: "conv1/7x7_s2"
}
layer {
  name: "pool1/3x3_s2"
  type: "Pooling"
  bottom: "conv1/7x7_s2"
  top: "pool1/3x3_s2"
  pooling_param {
    pool: MAX
    kernel_size: 3
    stride: 2
  }
}
layer {
  name: "pool1/norm1"
  type: "LRN"
  bottom: "pool1/3x3_s2"
  top: "pool1/norm1"
  lrn_param {
    local_size: 5
    alpha: 0.0001
    beta: 0.75
  }
}
layer {
  name: "conv2/3x3_reduce"
  type: "Convolution"
  bottom: "pool1/norm1"
  top: "conv2/3x3_reduce"
  param {
    lr_mult: 1
    decay_mult: 1
  }
  param {
    lr_mult: 2
    decay_mult: 0
  }
  convolution_param {
    num_output: 64
    kernel_size: 1
    weight_filler {
      type: "xavier"
      std: 0.1
    }
    bias_filler {
      type: "constant"
      value: 0.2
    }
  }
}
layer {
  name: "conv2/relu_3x3_reduce"
  type: "ReLU"
  bottom: "conv2/3x3_reduce"
  top: "conv2/3x3_reduce"
}
layer {
  name: "conv2/3x3"
  type: "Convolution"
  bottom: "conv2/3x3_reduce"
  top: "conv2/3x3"
  param {
    lr_mult: 1
    decay_mult: 1
  }
  param {
    lr_mult: 2
    decay_mult: 0
  }
  convolution_param {
    num_output: 192
    pad: 1
    kernel_size: 3
    weight_filler {
      type: "xavier"
      std: 0.03
    }
    bias_filler {
      type: "constant"
      value: 0.2
    }
  }
}
layer {
  name: "conv2/relu_3x3"
  type: "ReLU"
  bottom: "conv2/3x3"
  top: "conv2/3x3"
}
layer {
  name: "conv2/norm2"
  type: "LRN"
  bottom: "conv2/3x3"
  top: "conv2/norm2"
  lrn_param {
    local_size: 5
    alpha: 0.0001
    beta: 0.75
  }
}
layer {
  name: "pool2/3x3_s2"
  type: "Pooling"
  bottom: "conv2/norm2"
  top: "pool2/3x3_s2"
  pooling_param {
    pool: MAX
    kernel_size: 3
    stride: 2
  }
}
layer {
  name: "inception_3a/1x1"
  type: "Convolution"
  bottom: "pool2/3x3_s2"
  top: "inception_3a/1x1"
  param {
    lr_mult: 1
    decay_mult: 1
  }
  param {
    lr_mult: 2
    decay_mult: 0
  }
  convolution_param {
    num_output: 64
    kernel_size: 1
    weight_filler {
      type: "xavier"
      std: 0.03
    }
    bias_filler {
      type: "constant"
      value: 0.2
    }
  }
}
layer {
  name: "inception_3a/relu_1x1"
  type: "ReLU"
  bottom: "inception_3a/1x1"
  top: "inception_3a/1x1"
}
layer {
  name: "inception_3a/3x3_reduce"
  type: "Convolution"
  bottom: "pool2/3x3_s2"
  top: "inception_3a/3x3_reduce"
  param {
    lr_mult: 1
    decay_mult: 1
  }
  param {
    lr_mult: 2
    decay_mult: 0
  }
  convolution_param {
    num_output: 96
    kernel_size: 1
    weight_filler {
      type: "xavier"
      std: 0.09
    }
    bias_filler {
      type: "constant"
      value: 0.2
    }
  }
}
layer {
  name: "inception_3a/relu_3x3_reduce"
  type: "ReLU"
  bottom: "inception_3a/3x3_reduce"
  top: "inception_3a/3x3_reduce"
}
layer {
  name: "inception_3a/3x3"
  type: "Convolution"
  bottom: "inception_3a/3x3_reduce"
  top: "inception_3a/3x3"
  param {
    lr_mult: 1
    decay_mult: 1
  }
  param {
    lr_mult: 2
    decay_mult: 0
  }
  convolution_param {
    num_output: 128
    pad: 1
    kernel_size: 3
    weight_filler {
      type: "xavier"
      std: 0.03
    }
    bias_filler {
      type: "constant"
      value: 0.2
    }
  }
}
layer {
  name: "inception_3a/relu_3x3"
  type: "ReLU"
  bottom: "inception_3a/3x3"
  top: "inception_3a/3x3"
}
layer {
  name: "inception_3a/5x5_reduce"
  type: "Convolution"
  bottom: "pool2/3x3_s2"
  top: "inception_3a/5x5_reduce"
  param {
    lr_mult: 1
    decay_mult: 1
  }
  param {
    lr_mult: 2
    decay_mult: 0
  }
  convolution_param {
    num_output: 16
    kernel_size: 1
    weight_filler {
      type: "xavier"
      std: 0.2
    }
    bias_filler {
      type: "constant"
      value: 0.2
    }
  }
}
layer {
  name: "inception_3a/relu_5x5_reduce"
  type: "ReLU"
  bottom: "inception_3a/5x5_reduce"
  top: "inception_3a/5x5_reduce"
}
layer {
  name: "inception_3a/5x5"
  type: "Convolution"
  bottom: "inception_3a/5x5_reduce"
  top: "inception_3a/5x5"
  param {
    lr_mult: 1
    decay_mult: 1
  }
  param {
    lr_mult: 2
    decay_mult: 0
  }
  convolution_param {
    num_output: 32
    pad: 2
    kernel_size: 5
    weight_filler {
      type: "xavier"
      std: 0.03
    }
    bias_filler {
      type: "constant"
      value: 0.2
    }
  }
}
layer {
  name: "inception_3a/relu_5x5"
  type: "ReLU"
  bottom: "inception_3a/5x5"
  top: "inception_3a/5x5"
}
layer {
  name: "inception_3a/pool"
  type: "Pooling"
  bottom: "pool2/3x3_s2"
  top: "inception_3a/pool"
  pooling_param {
    pool: MAX
    kernel_size: 3
    stride: 1
    pad: 1
  }
}
layer {
  name: "inception_3a/pool_proj"
  type: "Convolution"
  bottom: "inception_3a/pool"
  top: "inception_3a/pool_proj"
  param {
    lr_mult: 1
    decay_mult: 1
  }
  param {
    lr_mult: 2
    decay_mult: 0
  }
  convolution_param {
    num_output: 32
    kernel_size: 1
    weight_filler {
      type: "xavier"
      std: 0.1
    }
    bias_filler {
      type: "constant"
      value: 0.2
    }
  }
}
layer {
  name: "inception_3a/relu_pool_proj"
  type: "ReLU"
  bottom: "inception_3a/pool_proj"
  top: "inception_3a/pool_proj"
}
layer {
  name: "inception_3a/output"
  type: "Concat"
  bottom: "inception_3a/1x1"
  bottom: "inception_3a/3x3"
  bottom: "inception_3a/5x5"
  bottom: "inception_3a/pool_proj"
  top: "inception_3a/output"
}
layer {
  name: "inception_3b/1x1"
  type: "Convolution"
  bottom: "inception_3a/output"
  top: "inception_3b/1x1"
  param {
    lr_mult: 1
    decay_mult: 1
  }
  param {
    lr_mult: 2
    decay_mult: 0
  }
  convolution_param {
    num_output: 128
    kernel_size: 1
    weight_filler {
      type: "xavier"
      std: 0.03
    }
    bias_filler {
      type: "constant"
      value: 0.2
    }
  }
}
layer {
  name: "inception_3b/relu_1x1"
  type: "ReLU"
  bottom: "inception_3b/1x1"
  top: "inception_3b/1x1"
}
layer {
  name: "inception_3b/3x3_reduce"
  type: "Convolution"
  bottom: "inception_3a/output"
  top: "inception_3b/3x3_reduce"
  param {
    lr_mult: 1
    decay_mult: 1
  }
  param {
    lr_mult: 2
    decay_mult: 0
  }
  convolution_param {
    num_output: 128
    kernel_size: 1
    weight_filler {
      type: "xavier"
      std: 0.09
    }
    bias_filler {
      type: "constant"
      value: 0.2
    }
  }
}
layer {
  name: "inception_3b/relu_3x3_reduce"
  type: "ReLU"
  bottom: "inception_3b/3x3_reduce"
  top: "inception_3b/3x3_reduce"
}
layer {
  name: "inception_3b/3x3"
  type: "Convolution"
  bottom: "inception_3b/3x3_reduce"
  top: "inception_3b/3x3"
  param {
    lr_mult: 1
    decay_mult: 1
  }
  param {
    lr_mult: 2
    decay_mult: 0
  }
  convolution_param {
    num_output: 192
    pad: 1
    kernel_size: 3
    weight_filler {
      type: "xavier"
      std: 0.03
    }
    bias_filler {
      type: "constant"
      value: 0.2
    }
  }
}
layer {
  name: "inception_3b/relu_3x3"
  type: "ReLU"
  bottom: "inception_3b/3x3"
  top: "inception_3b/3x3"
}
layer {
  name: "inception_3b/5x5_reduce"
  type: "Convolution"
  bottom: "inception_3a/output"
  top: "inception_3b/5x5_reduce"
  param {
    lr_mult: 1
    decay_mult: 1
  }
  param {
    lr_mult: 2
    decay_mult: 0
  }
  convolution_param {
    num_output: 32
    kernel_size: 1
    weight_filler {
      type: "xavier"
      std: 0.2
    }
    bias_filler {
      type: "constant"
      value: 0.2
    }
  }
}
layer {
  name: "inception_3b/relu_5x5_reduce"
  type: "ReLU"
  bottom: "inception_3b/5x5_reduce"
  top: "inception_3b/5x5_reduce"
}
layer {
  name: "inception_3b/5x5"
  type: "Convolution"
  bottom: "inception_3b/5x5_reduce"
  top: "inception_3b/5x5"
  param {
    lr_mult: 1
    decay_mult: 1
  }
  param {
    lr_mult: 2
    decay_mult: 0
  }
  convolution_param {
    num_output: 96
    pad: 2
    kernel_size: 5
    weight_filler {
      type: "xavier"
      std: 0.03
    }
    bias_filler {
      type: "constant"
      value: 0.2
    }
  }
}
layer {
  name: "inception_3b/relu_5x5"
  type: "ReLU"
  bottom: "inception_3b/5x5"
  top: "inception_3b/5x5"
}
layer {
  name: "inception_3b/pool"
  type: "Pooling"
  bottom: "inception_3a/output"
  top: "inception_3b/pool"
  pooling_param {
    pool: MAX
    kernel_size: 3
    stride: 1
    pad: 1
  }
}
layer {
  name: "inception_3b/pool_proj"
  type: "Convolution"
  bottom: "inception_3b/pool"
  top: "inception_3b/pool_proj"
  param {
    lr_mult: 1
    decay_mult: 1
  }
  param {
    lr_mult: 2
    decay_mult: 0
  }
  convolution_param {
    num_output: 64
    kernel_size: 1
    weight_filler {
      type: "xavier"
      std: 0.1
    }
    bias_filler {
      type: "constant"
      value: 0.2
    }
  }
}
layer {
  name: "inception_3b/relu_pool_proj"
  type: "ReLU"
  bottom: "inception_3b/pool_proj"
  top: "inception_3b/pool_proj"
}
layer {
  name: "inception_3b/output"
  type: "Concat"
  bottom: "inception_3b/1x1"
  bottom: "inception_3b/3x3"
  bottom: "inception_3b/5x5"
  bottom: "inception_3b/pool_proj"
  top: "inception_3b/output"
}
layer {
  name: "pool3/3x3_s2"
  type: "Pooling"
  bottom: "inception_3b/output"
  top: "pool3/3x3_s2"
  pooling_param {
    pool: MAX
    kernel_size: 3
    stride: 2
  }
}
layer {
  name: "inception_4a/1x1"
  type: "Convolution"
  bottom: "pool3/3x3_s2"
  top: "inception_4a/1x1"
  param {
    lr_mult: 1
    decay_mult: 1
  }
  param {
    lr_mult: 2
    decay_mult: 0
  }
  convolution_param {
    num_output: 192
    kernel_size: 1
    weight_filler {
      type: "xavier"
      std: 0.03
    }
    bias_filler {
      type: "constant"
      value: 0.2
    }
  }
}
layer {
  name: "inception_4a/relu_1x1"
  type: "ReLU"
  bottom: "inception_4a/1x1"
  top: "inception_4a/1x1"
}
layer {
  name: "inception_4a/3x3_reduce"
  type: "Convolution"
  bottom: "pool3/3x3_s2"
  top: "inception_4a/3x3_reduce"
  param {
    lr_mult: 1
    decay_mult: 1
  }
  param {
    lr_mult: 2
    decay_mult: 0
  }
  convolution_param {
    num_output: 96
    kernel_size: 1
    weight_filler {
      type: "xavier"
      std: 0.09
    }
    bias_filler {
      type: "constant"
      value: 0.2
    }
  }
}
layer {
  name: "inception_4a/relu_3x3_reduce"
  type: "ReLU"
  bottom: "inception_4a/3x3_reduce"
  top: "inception_4a/3x3_reduce"
}
layer {
  name: "inception_4a/3x3"
  type: "Convolution"
  bottom: "inception_4a/3x3_reduce"
  top: "inception_4a/3x3"
  param {
    lr_mult: 1
    decay_mult: 1
  }
  param {
    lr_mult: 2
    decay_mult: 0
  }
  convolution_param {
    num_output: 208
    pad: 1
    kernel_size: 3
    weight_filler {
      type: "xavier"
      std: 0.03
    }
    bias_filler {
      type: "constant"
      value: 0.2
    }
  }
}
layer {
  name: "inception_4a/relu_3x3"
  type: "ReLU"
  bottom: "inception_4a/3x3"
  top: "inception_4a/3x3"
}
layer {
  name: "inception_4a/5x5_reduce"
  type: "Convolution"
  bottom: "pool3/3x3_s2"
  top: "inception_4a/5x5_reduce"
  param {
    lr_mult: 1
    decay_mult: 1
  }
  param {
    lr_mult: 2
    decay_mult: 0
  }
  convolution_param {
    num_output: 16
    kernel_size: 1
    weight_filler {
      type: "xavier"
      std: 0.2
    }
    bias_filler {
      type: "constant"
      value: 0.2
    }
  }
}
layer {
  name: "inception_4a/relu_5x5_reduce"
  type: "ReLU"
  bottom: "inception_4a/5x5_reduce"
  top: "inception_4a/5x5_reduce"
}
layer {
  name: "inception_4a/5x5"
  type: "Convolution"
  bottom: "inception_4a/5x5_reduce"
  top: "inception_4a/5x5"
  param {
    lr_mult: 1
    decay_mult: 1
  }
  param {
    lr_mult: 2
    decay_mult: 0
  }
  convolution_param {
    num_output: 48
    pad: 2
    kernel_size: 5
    weight_filler {
      type: "xavier"
      std: 0.03
    }
    bias_filler {
      type: "constant"
      value: 0.2
    }
  }
}
layer {
  name: "inception_4a/relu_5x5"
  type: "ReLU"
  bottom: "inception_4a/5x5"
  top: "inception_4a/5x5"
}
layer {
  name: "inception_4a/pool"
  type: "Pooling"
  bottom: "pool3/3x3_s2"
  top: "inception_4a/pool"
  pooling_param {
    pool: MAX
    kernel_size: 3
    stride: 1
    pad: 1
  }
}
layer {
  name: "inception_4a/pool_proj"
  type: "Convolution"
  bottom: "inception_4a/pool"
  top: "inception_4a/pool_proj"
  param {
    lr_mult: 1
    decay_mult: 1
  }
  param {
    lr_mult: 2
    decay_mult: 0
  }
  convolution_param {
    num_output: 64
    kernel_size: 1
    weight_filler {
      type: "xavier"
      std: 0.1
    }
    bias_filler {
      type: "constant"
      value: 0.2
    }
  }
}
layer {
  name: "inception_4a/relu_pool_proj"
  type: "ReLU"
  bottom: "inception_4a/pool_proj"
  top: "inception_4a/pool_proj"
}
layer {
  name: "inception_4a/output"
  type: "Concat"
  bottom: "inception_4a/1x1"
  bottom: "inception_4a/3x3"
  bottom: "inception_4a/5x5"
  bottom: "inception_4a/pool_proj"
  top: "inception_4a/output"
}
layer {
  name: "loss1/ave_pool"
  type: "Pooling"
  bottom: "inception_4a/output"
  top: "loss1/ave_pool"
  pooling_param {
    pool: AVE
    kernel_size: 5
    stride: 3
  }
}
layer {
  name: "loss1/conv"
  type: "Convolution"
  bottom: "loss1/ave_pool"
  top: "loss1/conv"
  param {
    lr_mult: 1
    decay_mult: 1
  }
  param {
    lr_mult: 2
    decay_mult: 0
  }
  convolution_param {
    num_output: 128
    kernel_size: 1
    weight_filler {
      type: "xavier"
      std: 0.08
    }
    bias_filler {
      type: "constant"
      value: 0.2
    }
  }
}
layer {
  name: "loss1/relu_conv"
  type: "ReLU"
  bottom: "loss1/conv"
  top: "loss1/conv"
}
layer {
  name: "loss1/fc"
  type: "InnerProduct"
  bottom: "loss1/conv"
  top: "loss1/fc"
  param {
    lr_mult: 1
    decay_mult: 1
  }
  param {
    lr_mult: 2
    decay_mult: 0
  }
  inner_product_param {
    num_output: 1024
    weight_filler {
      type: "xavier"
      std: 0.02
    }
    bias_filler {
      type: "constant"
      value: 0.2
    }
  }
}
layer {
  name: "loss1/relu_fc"
  type: "ReLU"
  bottom: "loss1/fc"
  top: "loss1/fc"
}
layer {
  name: "loss1/drop_fc"
  type: "Dropout"
  bottom: "loss1/fc"
  top: "loss1/fc"
  dropout_param {
    dropout_ratio: 0.7
  }
}
layer {
  name: "loss1/classifier_plantvillage"
  type: "InnerProduct"
  bottom: "loss1/fc"
  top: "loss1/classifier_plantvillage"
  param {
    lr_mult: 1
    decay_mult: 1
  }
  param {
    lr_mult: 2
    decay_mult: 0
  }
  inner_product_param {
    num_output: 38
    weight_filler {
      type: "xavier"
      std: 0.0009765625
    }
    bias_filler {
      type: "constant"
      value: 0
    }
  }
}
layer {
  name: "inception_4b/1x1"
  type: "Convolution"
  bottom: "inception_4a/output"
  top: "inception_4b/1x1"
  param {
    lr_mult: 1
    decay_mult: 1
  }
  param {
    lr_mult: 2
    decay_mult: 0
  }
  convolution_param {
    num_output: 160
    kernel_size: 1
    weight_filler {
      type: "xavier"
      std: 0.03
    }
    bias_filler {
      type: "constant"
      value: 0.2
    }
  }
}
layer {
  name: "inception_4b/relu_1x1"
  type: "ReLU"
  bottom: "inception_4b/1x1"
  top: "inception_4b/1x1"
}
layer {
  name: "inception_4b/3x3_reduce"
  type: "Convolution"
  bottom: "inception_4a/output"
  top: "inception_4b/3x3_reduce"
  param {
    lr_mult: 1
    decay_mult: 1
  }
  param {
    lr_mult: 2
    decay_mult: 0
  }
  convolution_param {
    num_output: 112
    kernel_size: 1
    weight_filler {
      type: "xavier"
      std: 0.09
    }
    bias_filler {
      type: "constant"
      value: 0.2
    }
  }
}
layer {
  name: "inception_4b/relu_3x3_reduce"
  type: "ReLU"
  bottom: "inception_4b/3x3_reduce"
  top: "inception_4b/3x3_reduce"
}
layer {
  name: "inception_4b/3x3"
  type: "Convolution"
  bottom: "inception_4b/3x3_reduce"
  top: "inception_4b/3x3"
  param {
    lr_mult: 1
    decay_mult: 1
  }
  param {
    lr_mult: 2
    decay_mult: 0
  }
  convolution_param {
    num_output: 224
    pad: 1
    kernel_size: 3
    weight_filler {
      type: "xavier"
      std: 0.03
    }
    bias_filler {
      type: "constant"
      value: 0.2
    }
  }
}
layer {
  name: "inception_4b/relu_3x3"
  type: "ReLU"
  bottom: "inception_4b/3x3"
  top: "inception_4b/3x3"
}
layer {
  name: "inception_4b/5x5_reduce"
  type: "Convolution"
  bottom: "inception_4a/output"
  top: "inception_4b/5x5_reduce"
  param {
    lr_mult: 1
    decay_mult: 1
  }
  param {
    lr_mult: 2
    decay_mult: 0
  }
  convolution_param {
    num_output: 24
    kernel_size: 1
    weight_filler {
      type: "xavier"
      std: 0.2
    }
    bias_filler {
      type: "constant"
      value: 0.2
    }
  }
}
layer {
  name: "inception_4b/relu_5x5_reduce"
  type: "ReLU"
  bottom: "inception_4b/5x5_reduce"
  top: "inception_4b/5x5_reduce"
}
layer {
  name: "inception_4b/5x5"
  type: "Convolution"
  bottom: "inception_4b/5x5_reduce"
  top: "inception_4b/5x5"
  param {
    lr_mult: 1
    decay_mult: 1
  }
  param {
    lr_mult: 2
    decay_mult: 0
  }
  convolution_param {
    num_output: 64
    pad: 2
    kernel_size: 5
    weight_filler {
      type: "xavier"
      std: 0.03
    }
    bias_filler {
      type: "constant"
      value: 0.2
    }
  }
}
layer {
  name: "inception_4b/relu_5x5"
  type: "ReLU"
  bottom: "inception_4b/5x5"
  top: "inception_4b/5x5"
}
layer {
  name: "inception_4b/pool"
  type: "Pooling"
  bottom: "inception_4a/output"
  top: "inception_4b/pool"
  pooling_param {
    pool: MAX
    kernel_size: 3
    stride: 1
    pad: 1
  }
}
layer {
  name: "inception_4b/pool_proj"
  type: "Convolution"
  bottom: "inception_4b/pool"
  top: "inception_4b/pool_proj"
  param {
    lr_mult: 1
    decay_mult: 1
  }
  param {
    lr_mult: 2
    decay_mult: 0
  }
  convolution_param {
    num_output: 64
    kernel_size: 1
    weight_filler {
      type: "xavier"
      std: 0.1
    }
    bias_filler {
      type: "constant"
      value: 0.2
    }
  }
}
layer {
  name: "inception_4b/relu_pool_proj"
  type: "ReLU"
  bottom: "inception_4b/pool_proj"
  top: "inception_4b/pool_proj"
}
layer {
  name: "inception_4b/output"
  type: "Concat"
  bottom: "inception_4b/1x1"
  bottom: "inception_4b/3x3"
  bottom: "inception_4b/5x5"
  bottom: "inception_4b/pool_proj"
  top: "inception_4b/output"
}
layer {
  name: "inception_4c/1x1"
  type: "Convolution"
  bottom: "inception_4b/output"
  top: "inception_4c/1x1"
  param {
    lr_mult: 1
    decay_mult: 1
  }
  param {
    lr_mult: 2
    decay_mult: 0
  }
  convolution_param {
    num_output: 128
    kernel_size: 1
    weight_filler {
      type: "xavier"
      std: 0.03
    }
    bias_filler {
      type: "constant"
      value: 0.2
    }
  }
}
layer {
  name: "inception_4c/relu_1x1"
  type: "ReLU"
  bottom: "inception_4c/1x1"
  top: "inception_4c/1x1"
}
layer {
  name: "inception_4c/3x3_reduce"
  type: "Convolution"
  bottom: "inception_4b/output"
  top: "inception_4c/3x3_reduce"
  param {
    lr_mult: 1
    decay_mult: 1
  }
  param {
    lr_mult: 2
    decay_mult: 0
  }
  convolution_param {
    num_output: 128
    kernel_size: 1
    weight_filler {
      type: "xavier"
      std: 0.09
    }
    bias_filler {
      type: "constant"
      value: 0.2
    }
  }
}
layer {
  name: "inception_4c/relu_3x3_reduce"
  type: "ReLU"
  bottom: "inception_4c/3x3_reduce"
  top: "inception_4c/3x3_reduce"
}
layer {
  name: "inception_4c/3x3"
  type: "Convolution"
  bottom: "inception_4c/3x3_reduce"
  top: "inception_4c/3x3"
  param {
    lr_mult: 1
    decay_mult: 1
  }
  param {
    lr_mult: 2
    decay_mult: 0
  }
  convolution_param {
    num_output: 256
    pad: 1
    kernel_size: 3
    weight_filler {
      type: "xavier"
      std: 0.03
    }
    bias_filler {
      type: "constant"
      value: 0.2
    }
  }
}
layer {
  name: "inception_4c/relu_3x3"
  type: "ReLU"
  bottom: "inception_4c/3x3"
  top: "inception_4c/3x3"
}
layer {
  name: "inception_4c/5x5_reduce"
  type: "Convolution"
  bottom: "inception_4b/output"
  top: "inception_4c/5x5_reduce"
  param {
    lr_mult: 1
    decay_mult: 1
  }
  param {
    lr_mult: 2
    decay_mult: 0
  }
  convolution_param {
    num_output: 24
    kernel_size: 1
    weight_filler {
      type: "xavier"
      std: 0.2
    }
    bias_filler {
      type: "constant"
      value: 0.2
    }
  }
}
layer {
  name: "inception_4c/relu_5x5_reduce"
  type: "ReLU"
  bottom: "inception_4c/5x5_reduce"
  top: "inception_4c/5x5_reduce"
}
layer {
  name: "inception_4c/5x5"
  type: "Convolution"
  bottom: "inception_4c/5x5_reduce"
  top: "inception_4c/5x5"
  param {
    lr_mult: 1
    decay_mult: 1
  }
  param {
    lr_mult: 2
    decay_mult: 0
  }
  convolution_param {
    num_output: 64
    pad: 2
    kernel_size: 5
    weight_filler {
      type: "xavier"
      std: 0.03
    }
    bias_filler {
      type: "constant"
      value: 0.2
    }
  }
}
layer {
  name: "inception_4c/relu_5x5"
  type: "ReLU"
  bottom: "inception_4c/5x5"
  top: "inception_4c/5x5"
}
layer {
  name: "inception_4c/pool"
  type: "Pooling"
  bottom: "inception_4b/output"
  top: "inception_4c/pool"
  pooling_param {
    pool: MAX
    kernel_size: 3
    stride: 1
    pad: 1
  }
}
layer {
  name: "inception_4c/pool_proj"
  type: "Convolution"
  bottom: "inception_4c/pool"
  top: "inception_4c/pool_proj"
  param {
    lr_mult: 1
    decay_mult: 1
  }
  param {
    lr_mult: 2
    decay_mult: 0
  }
  convolution_param {
    num_output: 64
    kernel_size: 1
    weight_filler {
      type: "xavier"
      std: 0.1
    }
    bias_filler {
      type: "constant"
      value: 0.2
    }
  }
}
layer {
  name: "inception_4c/relu_pool_proj"
  type: "ReLU"
  bottom: "inception_4c/pool_proj"
  top: "inception_4c/pool_proj"
}
layer {
  name: "inception_4c/output"
  type: "Concat"
  bottom: "inception_4c/1x1"
  bottom: "inception_4c/3x3"
  bottom: "inception_4c/5x5"
  bottom: "inception_4c/pool_proj"
  top: "inception_4c/output"
}
layer {
  name: "inception_4d/1x1"
  type: "Convolution"
  bottom: "inception_4c/output"
  top: "inception_4d/1x1"
  param {
    lr_mult: 1
    decay_mult: 1
  }
  param {
    lr_mult: 2
    decay_mult: 0
  }
  convolution_param {
    num_output: 112
    kernel_size: 1
    weight_filler {
      type: "xavier"
      std: 0.03
    }
    bias_filler {
      type: "constant"
      value: 0.2
    }
  }
}
layer {
  name: "inception_4d/relu_1x1"
  type: "ReLU"
  bottom: "inception_4d/1x1"
  top: "inception_4d/1x1"
}
layer {
  name: "inception_4d/3x3_reduce"
  type: "Convolution"
  bottom: "inception_4c/output"
  top: "inception_4d/3x3_reduce"
  param {
    lr_mult: 1
    decay_mult: 1
  }
  param {
    lr_mult: 2
    decay_mult: 0
  }
  convolution_param {
    num_output: 144
    kernel_size: 1
    weight_filler {
      type: "xavier"
      std: 0.09
    }
    bias_filler {
      type: "constant"
      value: 0.2
    }
  }
}
layer {
  name: "inception_4d/relu_3x3_reduce"
  type: "ReLU"
  bottom: "inception_4d/3x3_reduce"
  top: "inception_4d/3x3_reduce"
}
layer {
  name: "inception_4d/3x3"
  type: "Convolution"
  bottom: "inception_4d/3x3_reduce"
  top: "inception_4d/3x3"
  param {
    lr_mult: 1
    decay_mult: 1
  }
  param {
    lr_mult: 2
    decay_mult: 0
  }
  convolution_param {
    num_output: 288
    pad: 1
    kernel_size: 3
    weight_filler {
      type: "xavier"
      std: 0.03
    }
    bias_filler {
      type: "constant"
      value: 0.2
    }
  }
}
layer {
  name: "inception_4d/relu_3x3"
  type: "ReLU"
  bottom: "inception_4d/3x3"
  top: "inception_4d/3x3"
}
layer {
  name: "inception_4d/5x5_reduce"
  type: "Convolution"
  bottom: "inception_4c/output"
  top: "inception_4d/5x5_reduce"
  param {
    lr_mult: 1
    decay_mult: 1
  }
  param {
    lr_mult: 2
    decay_mult: 0
  }
  convolution_param {
    num_output: 32
    kernel_size: 1
    weight_filler {
      type: "xavier"
      std: 0.2
    }
    bias_filler {
      type: "constant"
      value: 0.2
    }
  }
}
layer {
  name: "inception_4d/relu_5x5_reduce"
  type: "ReLU"
  bottom: "inception_4d/5x5_reduce"
  top: "inception_4d/5x5_reduce"
}
layer {
  name: "inception_4d/5x5"
  type: "Convolution"
  bottom: "inception_4d/5x5_reduce"
  top: "inception_4d/5x5"
  param {
    lr_mult: 1
    decay_mult: 1
  }
  param {
    lr_mult: 2
    decay_mult: 0
  }
  convolution_param {
    num_output: 64
    pad: 2
    kernel_size: 5
    weight_filler {
      type: "xavier"
      std: 0.03
    }
    bias_filler {
      type: "constant"
      value: 0.2
    }
  }
}
layer {
  name: "inception_4d/relu_5x5"
  type: "ReLU"
  bottom: "inception_4d/5x5"
  top: "inception_4d/5x5"
}
layer {
  name: "inception_4d/pool"
  type: "Pooling"
  bottom: "inception_4c/output"
  top: "inception_4d/pool"
  pooling_param {
    pool: MAX
    kernel_size: 3
    stride: 1
    pad: 1
  }
}
layer {
  name: "inception_4d/pool_proj"
  type: "Convolution"
  bottom: "inception_4d/pool"
  top: "inception_4d/pool_proj"
  param {
    lr_mult: 1
    decay_mult: 1
  }
  param {
    lr_mult: 2
    decay_mult: 0
  }
  convolution_param {
    num_output: 64
    kernel_size: 1
    weight_filler {
      type: "xavier"
      std: 0.1
    }
    bias_filler {
      type: "constant"
      value: 0.2
    }
  }
}
layer {
  name: "inception_4d/relu_pool_proj"
  type: "ReLU"
  bottom: "inception_4d/pool_proj"
  top: "inception_4d/pool_proj"
}
layer {
  name: "inception_4d/output"
  type: "Concat"
  bottom: "inception_4d/1x1"
  bottom: "inception_4d/3x3"
  bottom: "inception_4d/5x5"
  bottom: "inception_4d/pool_proj"
  top: "inception_4d/output"
}
layer {
  name: "loss2/ave_pool"
  type: "Pooling"
  bottom: "inception_4d/output"
  top: "loss2/ave_pool"
  pooling_param {
    pool: AVE
    kernel_size: 5
    stride: 3
  }
}
layer {
  name: "loss2/conv"
  type: "Convolution"
  bottom: "loss2/ave_pool"
  top: "loss2/conv"
  param {
    lr_mult: 1
    decay_mult: 1
  }
  param {
    lr_mult: 2
    decay_mult: 0
  }
  convolution_param {
    num_output: 128
    kernel_size: 1
    weight_filler {
      type: "xavier"
      std: 0.08
    }
    bias_filler {
      type: "constant"
      value: 0.2
    }
  }
}
layer {
  name: "loss2/relu_conv"
  type: "ReLU"
  bottom: "loss2/conv"
  top: "loss2/conv"
}
layer {
  name: "loss2/fc"
  type: "InnerProduct"
  bottom: "loss2/conv"
  top: "loss2/fc"
  param {
    lr_mult: 1
    decay_mult: 1
  }
  param {
    lr_mult: 2
    decay_mult: 0
  }
  inner_product_param {
    num_output: 1024
    weight_filler {
      type: "xavier"
      std: 0.02
    }
    bias_filler {
      type: "constant"
      value: 0.2
    }
  }
}
layer {
  name: "loss2/relu_fc"
  type: "ReLU"
  bottom: "loss2/fc"
  top: "loss2/fc"
}
layer {
  name: "loss2/drop_fc"
  type: "Dropout"
  bottom: "loss2/fc"
  top: "loss2/fc"
  dropout_param {
    dropout_ratio: 0.7
  }
}
layer {
  name: "loss2/classifier_plantvillage"
  type: "InnerProduct"
  bottom: "loss2/fc"
  top: "loss2/classifier_plantvillage"
  param {
    lr_mult: 1
    decay_mult: 1
  }
  param {
    lr_mult: 2
    decay_mult: 0
  }
  inner_product_param {
    num_output: 38
    weight_filler {
      type: "xavier"
      std: 0.0009765625
    }
    bias_filler {
      type: "constant"
      value: 0
    }
  }
}
layer {
  name: "inception_4e/1x1"
  type: "Convolution"
  bottom: "inception_4d/output"
  top: "inception_4e/1x1"
  param {
    lr_mult: 1
    decay_mult: 1
  }
  param {
    lr_mult: 2
    decay_mult: 0
  }
  convolution_param {
    num_output: 256
    kernel_size: 1
    weight_filler {
      type: "xavier"
      std: 0.03
    }
    bias_filler {
      type: "constant"
      value: 0.2
    }
  }
}
layer {
  name: "inception_4e/relu_1x1"
  type: "ReLU"
  bottom: "inception_4e/1x1"
  top: "inception_4e/1x1"
}
layer {
  name: "inception_4e/3x3_reduce"
  type: "Convolution"
  bottom: "inception_4d/output"
  top: "inception_4e/3x3_reduce"
  param {
    lr_mult: 1
    decay_mult: 1
  }
  param {
    lr_mult: 2
    decay_mult: 0
  }
  convolution_param {
    num_output: 160
    kernel_size: 1
    weight_filler {
      type: "xavier"
      std: 0.09
    }
    bias_filler {
      type: "constant"
      value: 0.2
    }
  }
}
layer {
  name: "inception_4e/relu_3x3_reduce"
  type: "ReLU"
  bottom: "inception_4e/3x3_reduce"
  top: "inception_4e/3x3_reduce"
}
layer {
  name: "inception_4e/3x3"
  type: "Convolution"
  bottom: "inception_4e/3x3_reduce"
  top: "inception_4e/3x3"
  param {
    lr_mult: 1
    decay_mult: 1
  }
  param {
    lr_mult: 2
    decay_mult: 0
  }
  convolution_param {
    num_output: 320
    pad: 1
    kernel_size: 3
    weight_filler {
      type: "xavier"
      std: 0.03
    }
    bias_filler {
      type: "constant"
      value: 0.2
    }
  }
}
layer {
  name: "inception_4e/relu_3x3"
  type: "ReLU"
  bottom: "inception_4e/3x3"
  top: "inception_4e/3x3"
}
layer {
  name: "inception_4e/5x5_reduce"
  type: "Convolution"
  bottom: "inception_4d/output"
  top: "inception_4e/5x5_reduce"
  param {
    lr_mult: 1
    decay_mult: 1
  }
  param {
    lr_mult: 2
    decay_mult: 0
  }
  convolution_param {
    num_output: 32
    kernel_size: 1
    weight_filler {
      type: "xavier"
      std: 0.2
    }
    bias_filler {
      type: "constant"
      value: 0.2
    }
  }
}
layer {
  name: "inception_4e/relu_5x5_reduce"
  type: "ReLU"
  bottom: "inception_4e/5x5_reduce"
  top: "inception_4e/5x5_reduce"
}
layer {
  name: "inception_4e/5x5"
  type: "Convolution"
  bottom: "inception_4e/5x5_reduce"
  top: "inception_4e/5x5"
  p
I0403 19:27:09.050494  9261 layer_factory.hpp:77] Creating layer data
I0403 19:27:09.051090  9261 net.cpp:91] Creating Layer data
I0403 19:27:09.051120  9261 net.cpp:399] data -> data
I0403 19:27:09.051172  9261 net.cpp:399] data -> label
I0403 19:27:09.051208  9261 data_transformer.cpp:25] Loading mean file from: /home/mohanty/data/final_dataset/lmdb/color-50-50/mean.binaryproto
I0403 19:27:09.052367  9264 db_lmdb.cpp:38] Opened lmdb /home/mohanty/data/final_dataset/lmdb/color-50-50/test_db
I0403 19:27:09.064767  9261 data_layer.cpp:41] output data size: 24,3,224,224
I0403 19:27:09.091841  9261 net.cpp:141] Setting up data
I0403 19:27:09.091899  9261 net.cpp:148] Top shape: 24 3 224 224 (3612672)
I0403 19:27:09.091923  9261 net.cpp:148] Top shape: 24 (24)
I0403 19:27:09.091939  9261 net.cpp:156] Memory required for data: 14450784
I0403 19:27:09.091966  9261 layer_factory.hpp:77] Creating layer label_data_1_split
I0403 19:27:09.091994  9261 net.cpp:91] Creating Layer label_data_1_split
I0403 19:27:09.092012  9261 net.cpp:425] label_data_1_split <- label
I0403 19:27:09.092046  9261 net.cpp:399] label_data_1_split -> label_data_1_split_0
I0403 19:27:09.092074  9261 net.cpp:399] label_data_1_split -> label_data_1_split_1
I0403 19:27:09.092097  9261 net.cpp:399] label_data_1_split -> label_data_1_split_2
I0403 19:27:09.092116  9261 net.cpp:399] label_data_1_split -> label_data_1_split_3
I0403 19:27:09.092141  9261 net.cpp:399] label_data_1_split -> label_data_1_split_4
I0403 19:27:09.092162  9261 net.cpp:399] label_data_1_split -> label_data_1_split_5
I0403 19:27:09.092183  9261 net.cpp:399] label_data_1_split -> label_data_1_split_6
I0403 19:27:09.092206  9261 net.cpp:399] label_data_1_split -> label_data_1_split_7
I0403 19:27:09.092227  9261 net.cpp:399] label_data_1_split -> label_data_1_split_8
I0403 19:27:09.092260  9261 net.cpp:399] label_data_1_split -> label_data_1_split_9
I0403 19:27:09.092381  9261 net.cpp:141] Setting up label_data_1_split
I0403 19:27:09.092406  9261 net.cpp:148] Top shape: 24 (24)
I0403 19:27:09.092422  9261 net.cpp:148] Top shape: 24 (24)
I0403 19:27:09.092439  9261 net.cpp:148] Top shape: 24 (24)
I0403 19:27:09.092456  9261 net.cpp:148] Top shape: 24 (24)
I0403 19:27:09.092473  9261 net.cpp:148] Top shape: 24 (24)
I0403 19:27:09.092489  9261 net.cpp:148] Top shape: 24 (24)
I0403 19:27:09.092506  9261 net.cpp:148] Top shape: 24 (24)
I0403 19:27:09.092524  9261 net.cpp:148] Top shape: 24 (24)
I0403 19:27:09.092540  9261 net.cpp:148] Top shape: 24 (24)
I0403 19:27:09.092557  9261 net.cpp:148] Top shape: 24 (24)
I0403 19:27:09.092604  9261 net.cpp:156] Memory required for data: 14451744
I0403 19:27:09.092620  9261 layer_factory.hpp:77] Creating layer conv1/7x7_s2
I0403 19:27:09.092653  9261 net.cpp:91] Creating Layer conv1/7x7_s2
I0403 19:27:09.092672  9261 net.cpp:425] conv1/7x7_s2 <- data
I0403 19:27:09.092694  9261 net.cpp:399] conv1/7x7_s2 -> conv1/7x7_s2
I0403 19:27:09.238183  9261 net.cpp:141] Setting up conv1/7x7_s2
I0403 19:27:09.238328  9261 net.cpp:148] Top shape: 24 64 112 112 (19267584)
I0403 19:27:09.238349  9261 net.cpp:156] Memory required for data: 91522080
I0403 19:27:09.238381  9261 layer_factory.hpp:77] Creating layer conv1/relu_7x7
I0403 19:27:09.238409  9261 net.cpp:91] Creating Layer conv1/relu_7x7
I0403 19:27:09.238427  9261 net.cpp:425] conv1/relu_7x7 <- conv1/7x7_s2
I0403 19:27:09.238446  9261 net.cpp:386] conv1/relu_7x7 -> conv1/7x7_s2 (in-place)
I0403 19:27:09.238711  9261 net.cpp:141] Setting up conv1/relu_7x7
I0403 19:27:09.238739  9261 net.cpp:148] Top shape: 24 64 112 112 (19267584)
I0403 19:27:09.238755  9261 net.cpp:156] Memory required for data: 168592416
I0403 19:27:09.238771  9261 layer_factory.hpp:77] Creating layer pool1/3x3_s2
I0403 19:27:09.238796  9261 net.cpp:91] Creating Layer pool1/3x3_s2
I0403 19:27:09.238814  9261 net.cpp:425] pool1/3x3_s2 <- conv1/7x7_s2
I0403 19:27:09.238833  9261 net.cpp:399] pool1/3x3_s2 -> pool1/3x3_s2
I0403 19:27:09.238908  9261 net.cpp:141] Setting up pool1/3x3_s2
I0403 19:27:09.238931  9261 net.cpp:148] Top shape: 24 64 56 56 (4816896)
I0403 19:27:09.238946  9261 net.cpp:156] Memory required for data: 187860000
I0403 19:27:09.238961  9261 layer_factory.hpp:77] Creating layer pool1/norm1
I0403 19:27:09.238986  9261 net.cpp:91] Creating Layer pool1/norm1
I0403 19:27:09.239004  9261 net.cpp:425] pool1/norm1 <- pool1/3x3_s2
I0403 19:27:09.239022  9261 net.cpp:399] pool1/norm1 -> pool1/norm1
I0403 19:27:09.239321  9261 net.cpp:141] Setting up pool1/norm1
I0403 19:27:09.239349  9261 net.cpp:148] Top shape: 24 64 56 56 (4816896)
I0403 19:27:09.239365  9261 net.cpp:156] Memory required for data: 207127584
I0403 19:27:09.239380  9261 layer_factory.hpp:77] Creating layer conv2/3x3_reduce
I0403 19:27:09.239405  9261 net.cpp:91] Creating Layer conv2/3x3_reduce
I0403 19:27:09.239423  9261 net.cpp:425] conv2/3x3_reduce <- pool1/norm1
I0403 19:27:09.239441  9261 net.cpp:399] conv2/3x3_reduce -> conv2/3x3_reduce
I0403 19:27:09.240824  9261 net.cpp:141] Setting up conv2/3x3_reduce
I0403 19:27:09.240854  9261 net.cpp:148] Top shape: 24 64 56 56 (4816896)
I0403 19:27:09.240869  9261 net.cpp:156] Memory required for data: 226395168
I0403 19:27:09.240891  9261 layer_factory.hpp:77] Creating layer conv2/relu_3x3_reduce
I0403 19:27:09.240911  9261 net.cpp:91] Creating Layer conv2/relu_3x3_reduce
I0403 19:27:09.240927  9261 net.cpp:425] conv2/relu_3x3_reduce <- conv2/3x3_reduce
I0403 19:27:09.240944  9261 net.cpp:386] conv2/relu_3x3_reduce -> conv2/3x3_reduce (in-place)
I0403 19:27:09.241199  9261 net.cpp:141] Setting up conv2/relu_3x3_reduce
I0403 19:27:09.241227  9261 net.cpp:148] Top shape: 24 64 56 56 (4816896)
I0403 19:27:09.241260  9261 net.cpp:156] Memory required for data: 245662752
I0403 19:27:09.241276  9261 layer_factory.hpp:77] Creating layer conv2/3x3
I0403 19:27:09.241300  9261 net.cpp:91] Creating Layer conv2/3x3
I0403 19:27:09.241318  9261 net.cpp:425] conv2/3x3 <- conv2/3x3_reduce
I0403 19:27:09.241338  9261 net.cpp:399] conv2/3x3 -> conv2/3x3
I0403 19:27:09.243752  9261 net.cpp:141] Setting up conv2/3x3
I0403 19:27:09.243799  9261 net.cpp:148] Top shape: 24 192 56 56 (14450688)
I0403 19:27:09.243852  9261 net.cpp:156] Memory required for data: 303465504
I0403 19:27:09.243908  9261 layer_factory.hpp:77] Creating layer conv2/relu_3x3
I0403 19:27:09.243950  9261 net.cpp:91] Creating Layer conv2/relu_3x3
I0403 19:27:09.243978  9261 net.cpp:425] conv2/relu_3x3 <- conv2/3x3
I0403 19:27:09.244022  9261 net.cpp:386] conv2/relu_3x3 -> conv2/3x3 (in-place)
I0403 19:27:09.244201  9261 net.cpp:141] Setting up conv2/relu_3x3
I0403 19:27:09.244230  9261 net.cpp:148] Top shape: 24 192 56 56 (14450688)
I0403 19:27:09.244279  9261 net.cpp:156] Memory required for data: 361268256
I0403 19:27:09.244297  9261 layer_factory.hpp:77] Creating layer conv2/norm2
I0403 19:27:09.244314  9261 net.cpp:91] Creating Layer conv2/norm2
I0403 19:27:09.244334  9261 net.cpp:425] conv2/norm2 <- conv2/3x3
I0403 19:27:09.244352  9261 net.cpp:399] conv2/norm2 -> conv2/norm2
I0403 19:27:09.244663  9261 net.cpp:141] Setting up conv2/norm2
I0403 19:27:09.244690  9261 net.cpp:148] Top shape: 24 192 56 56 (14450688)
I0403 19:27:09.244705  9261 net.cpp:156] Memory required for data: 419071008
I0403 19:27:09.244720  9261 layer_factory.hpp:77] Creating layer pool2/3x3_s2
I0403 19:27:09.244740  9261 net.cpp:91] Creating Layer pool2/3x3_s2
I0403 19:27:09.244760  9261 net.cpp:425] pool2/3x3_s2 <- conv2/norm2
I0403 19:27:09.244777  9261 net.cpp:399] pool2/3x3_s2 -> pool2/3x3_s2
I0403 19:27:09.244835  9261 net.cpp:141] Setting up pool2/3x3_s2
I0403 19:27:09.244858  9261 net.cpp:148] Top shape: 24 192 28 28 (3612672)
I0403 19:27:09.244874  9261 net.cpp:156] Memory required for data: 433521696
I0403 19:27:09.244889  9261 layer_factory.hpp:77] Creating layer pool2/3x3_s2_pool2/3x3_s2_0_split
I0403 19:27:09.244906  9261 net.cpp:91] Creating Layer pool2/3x3_s2_pool2/3x3_s2_0_split
I0403 19:27:09.244922  9261 net.cpp:425] pool2/3x3_s2_pool2/3x3_s2_0_split <- pool2/3x3_s2
I0403 19:27:09.244941  9261 net.cpp:399] pool2/3x3_s2_pool2/3x3_s2_0_split -> pool2/3x3_s2_pool2/3x3_s2_0_split_0
I0403 19:27:09.244963  9261 net.cpp:399] pool2/3x3_s2_pool2/3x3_s2_0_split -> pool2/3x3_s2_pool2/3x3_s2_0_split_1
I0403 19:27:09.244983  9261 net.cpp:399] pool2/3x3_s2_pool2/3x3_s2_0_split -> pool2/3x3_s2_pool2/3x3_s2_0_split_2
I0403 19:27:09.245003  9261 net.cpp:399] pool2/3x3_s2_pool2/3x3_s2_0_split -> pool2/3x3_s2_pool2/3x3_s2_0_split_3
I0403 19:27:09.245077  9261 net.cpp:141] Setting up pool2/3x3_s2_pool2/3x3_s2_0_split
I0403 19:27:09.245100  9261 net.cpp:148] Top shape: 24 192 28 28 (3612672)
I0403 19:27:09.245117  9261 net.cpp:148] Top shape: 24 192 28 28 (3612672)
I0403 19:27:09.245134  9261 net.cpp:148] Top shape: 24 192 28 28 (3612672)
I0403 19:27:09.245149  9261 net.cpp:148] Top shape: 24 192 28 28 (3612672)
I0403 19:27:09.245163  9261 net.cpp:156] Memory required for data: 491324448
I0403 19:27:09.245178  9261 layer_factory.hpp:77] Creating layer inception_3a/1x1
I0403 19:27:09.245267  9261 net.cpp:91] Creating Layer inception_3a/1x1
I0403 19:27:09.245291  9261 net.cpp:425] inception_3a/1x1 <- pool2/3x3_s2_pool2/3x3_s2_0_split_0
I0403 19:27:09.245312  9261 net.cpp:399] inception_3a/1x1 -> inception_3a/1x1
I0403 19:27:09.246891  9261 net.cpp:141] Setting up inception_3a/1x1
I0403 19:27:09.246961  9261 net.cpp:148] Top shape: 24 64 28 28 (1204224)
I0403 19:27:09.246984  9261 net.cpp:156] Memory required for data: 496141344
I0403 19:27:09.247004  9261 layer_factory.hpp:77] Creating layer inception_3a/relu_1x1
I0403 19:27:09.247027  9261 net.cpp:91] Creating Layer inception_3a/relu_1x1
I0403 19:27:09.247046  9261 net.cpp:425] inception_3a/relu_1x1 <- inception_3a/1x1
I0403 19:27:09.247066  9261 net.cpp:386] inception_3a/relu_1x1 -> inception_3a/1x1 (in-place)
I0403 19:27:09.247248  9261 net.cpp:141] Setting up inception_3a/relu_1x1
I0403 19:27:09.247277  9261 net.cpp:148] Top shape: 24 64 28 28 (1204224)
I0403 19:27:09.247292  9261 net.cpp:156] Memory required for data: 500958240
I0403 19:27:09.247308  9261 layer_factory.hpp:77] Creating layer inception_3a/3x3_reduce
I0403 19:27:09.247329  9261 net.cpp:91] Creating Layer inception_3a/3x3_reduce
I0403 19:27:09.247346  9261 net.cpp:425] inception_3a/3x3_reduce <- pool2/3x3_s2_pool2/3x3_s2_0_split_1
I0403 19:27:09.247365  9261 net.cpp:399] inception_3a/3x3_reduce -> inception_3a/3x3_reduce
I0403 19:27:09.249150  9261 net.cpp:141] Setting up inception_3a/3x3_reduce
I0403 19:27:09.249182  9261 net.cpp:148] Top shape: 24 96 28 28 (1806336)
I0403 19:27:09.249199  9261 net.cpp:156] Memory required for data: 508183584
I0403 19:27:09.249229  9261 layer_factory.hpp:77] Creating layer inception_3a/relu_3x3_reduce
I0403 19:27:09.249271  9261 net.cpp:91] Creating Layer inception_3a/relu_3x3_reduce
I0403 19:27:09.249291  9261 net.cpp:425] inception_3a/relu_3x3_reduce <- inception_3a/3x3_reduce
I0403 19:27:09.249310  9261 net.cpp:386] inception_3a/relu_3x3_reduce -> inception_3a/3x3_reduce (in-place)
I0403 19:27:09.249500  9261 net.cpp:141] Setting up inception_3a/relu_3x3_reduce
I0403 19:27:09.249527  9261 net.cpp:148] Top shape: 24 96 28 28 (1806336)
I0403 19:27:09.249543  9261 net.cpp:156] Memory required for data: 515408928
I0403 19:27:09.249558  9261 layer_factory.hpp:77] Creating layer inception_3a/3x3
I0403 19:27:09.249583  9261 net.cpp:91] Creating Layer inception_3a/3x3
I0403 19:27:09.249601  9261 net.cpp:425] inception_3a/3x3 <- inception_3a/3x3_reduce
I0403 19:27:09.249624  9261 net.cpp:399] inception_3a/3x3 -> inception_3a/3x3
I0403 19:27:09.251312  9261 net.cpp:141] Setting up inception_3a/3x3
I0403 19:27:09.251340  9261 net.cpp:148] Top shape: 24 128 28 28 (2408448)
I0403 19:27:09.251356  9261 net.cpp:156] Memory required for data: 525042720
I0403 19:27:09.251375  9261 layer_factory.hpp:77] Creating layer inception_3a/relu_3x3
I0403 19:27:09.251399  9261 net.cpp:91] Creating Layer inception_3a/relu_3x3
I0403 19:27:09.251417  9261 net.cpp:425] inception_3a/relu_3x3 <- inception_3a/3x3
I0403 19:27:09.251435  9261 net.cpp:386] inception_3a/relu_3x3 -> inception_3a/3x3 (in-place)
I0403 19:27:09.251713  9261 net.cpp:141] Setting up inception_3a/relu_3x3
I0403 19:27:09.251739  9261 net.cpp:148] Top shape: 24 128 28 28 (2408448)
I0403 19:27:09.251755  9261 net.cpp:156] Memory required for data: 534676512
I0403 19:27:09.251770  9261 layer_factory.hpp:77] Creating layer inception_3a/5x5_reduce
I0403 19:27:09.251794  9261 net.cpp:91] Creating Layer inception_3a/5x5_reduce
I0403 19:27:09.251812  9261 net.cpp:425] inception_3a/5x5_reduce <- pool2/3x3_s2_pool2/3x3_s2_0_split_2
I0403 19:27:09.251832  9261 net.cpp:399] inception_3a/5x5_reduce -> inception_3a/5x5_reduce
I0403 19:27:09.252825  9261 net.cpp:141] Setting up inception_3a/5x5_reduce
I0403 19:27:09.252857  9261 net.cpp:148] Top shape: 24 16 28 28 (301056)
I0403 19:27:09.252874  9261 net.cpp:156] Memory required for data: 535880736
I0403 19:27:09.252893  9261 layer_factory.hpp:77] Creating layer inception_3a/relu_5x5_reduce
I0403 19:27:09.252912  9261 net.cpp:91] Creating Layer inception_3a/relu_5x5_reduce
I0403 19:27:09.252928  9261 net.cpp:425] inception_3a/relu_5x5_reduce <- inception_3a/5x5_reduce
I0403 19:27:09.252949  9261 net.cpp:386] inception_3a/relu_5x5_reduce -> inception_3a/5x5_reduce (in-place)
I0403 19:27:09.253265  9261 net.cpp:141] Setting up inception_3a/relu_5x5_reduce
I0403 19:27:09.253295  9261 net.cpp:148] Top shape: 24 16 28 28 (301056)
I0403 19:27:09.253312  9261 net.cpp:156] Memory required for data: 537084960
I0403 19:27:09.253329  9261 layer_factory.hpp:77] Creating layer inception_3a/5x5
I0403 19:27:09.253351  9261 net.cpp:91] Creating Layer inception_3a/5x5
I0403 19:27:09.253370  9261 net.cpp:425] inception_3a/5x5 <- inception_3a/5x5_reduce
I0403 19:27:09.253389  9261 net.cpp:399] inception_3a/5x5 -> inception_3a/5x5
I0403 19:27:09.254444  9261 net.cpp:141] Setting up inception_3a/5x5
I0403 19:27:09.254474  9261 net.cpp:148] Top shape: 24 32 28 28 (602112)
I0403 19:27:09.254490  9261 net.cpp:156] Memory required for data: 539493408
I0403 19:27:09.254509  9261 layer_factory.hpp:77] Creating layer inception_3a/relu_5x5
I0403 19:27:09.254531  9261 net.cpp:91] Creating Layer inception_3a/relu_5x5
I0403 19:27:09.254554  9261 net.cpp:425] inception_3a/relu_5x5 <- inception_3a/5x5
I0403 19:27:09.254571  9261 net.cpp:386] inception_3a/relu_5x5 -> inception_3a/5x5 (in-place)
I0403 19:27:09.254750  9261 net.cpp:141] Setting up inception_3a/relu_5x5
I0403 19:27:09.254778  9261 net.cpp:148] Top shape: 24 32 28 28 (602112)
I0403 19:27:09.254796  9261 net.cpp:156] Memory required for data: 541901856
I0403 19:27:09.254812  9261 layer_factory.hpp:77] Creating layer inception_3a/pool
I0403 19:27:09.254830  9261 net.cpp:91] Creating Layer inception_3a/pool
I0403 19:27:09.254847  9261 net.cpp:425] inception_3a/pool <- pool2/3x3_s2_pool2/3x3_s2_0_split_3
I0403 19:27:09.254881  9261 net.cpp:399] inception_3a/pool -> inception_3a/pool
I0403 19:27:09.254940  9261 net.cpp:141] Setting up inception_3a/pool
I0403 19:27:09.254964  9261 net.cpp:148] Top shape: 24 192 28 28 (3612672)
I0403 19:27:09.254979  9261 net.cpp:156] Memory required for data: 556352544
I0403 19:27:09.254994  9261 layer_factory.hpp:77] Creating layer inception_3a/pool_proj
I0403 19:27:09.255017  9261 net.cpp:91] Creating Layer inception_3a/pool_proj
I0403 19:27:09.255033  9261 net.cpp:425] inception_3a/pool_proj <- inception_3a/pool
I0403 19:27:09.255059  9261 net.cpp:399] inception_3a/pool_proj -> inception_3a/pool_proj
I0403 19:27:09.256048  9261 net.cpp:141] Setting up inception_3a/pool_proj
I0403 19:27:09.256077  9261 net.cpp:148] Top shape: 24 32 28 28 (602112)
I0403 19:27:09.256093  9261 net.cpp:156] Memory required for data: 558760992
I0403 19:27:09.256116  9261 layer_factory.hpp:77] Creating layer inception_3a/relu_pool_proj
I0403 19:27:09.256137  9261 net.cpp:91] Creating Layer inception_3a/relu_pool_proj
I0403 19:27:09.256153  9261 net.cpp:425] inception_3a/relu_pool_proj <- inception_3a/pool_proj
I0403 19:27:09.256186  9261 net.cpp:386] inception_3a/relu_pool_proj -> inception_3a/pool_proj (in-place)
I0403 19:27:09.256487  9261 net.cpp:141] Setting up inception_3a/relu_pool_proj
I0403 19:27:09.256515  9261 net.cpp:148] Top shape: 24 32 28 28 (602112)
I0403 19:27:09.256531  9261 net.cpp:156] Memory required for data: 561169440
I0403 19:27:09.256546  9261 layer_factory.hpp:77] Creating layer inception_3a/output
I0403 19:27:09.256567  9261 net.cpp:91] Creating Layer inception_3a/output
I0403 19:27:09.256583  9261 net.cpp:425] inception_3a/output <- inception_3a/1x1
I0403 19:27:09.256600  9261 net.cpp:425] inception_3a/output <- inception_3a/3x3
I0403 19:27:09.256618  9261 net.cpp:425] inception_3a/output <- inception_3a/5x5
I0403 19:27:09.256633  9261 net.cpp:425] inception_3a/output <- inception_3a/pool_proj
I0403 19:27:09.256650  9261 net.cpp:399] inception_3a/output -> inception_3a/output
I0403 19:27:09.256700  9261 net.cpp:141] Setting up inception_3a/output
I0403 19:27:09.256723  9261 net.cpp:148] Top shape: 24 256 28 28 (4816896)
I0403 19:27:09.256738  9261 net.cpp:156] Memory required for data: 580437024
I0403 19:27:09.256753  9261 layer_factory.hpp:77] Creating layer inception_3a/output_inception_3a/output_0_split
I0403 19:27:09.256770  9261 net.cpp:91] Creating Layer inception_3a/output_inception_3a/output_0_split
I0403 19:27:09.256791  9261 net.cpp:425] inception_3a/output_inception_3a/output_0_split <- inception_3a/output
I0403 19:27:09.256811  9261 net.cpp:399] inception_3a/output_inception_3a/output_0_split -> inception_3a/output_inception_3a/output_0_split_0
I0403 19:27:09.256832  9261 net.cpp:399] inception_3a/output_inception_3a/output_0_split -> inception_3a/output_inception_3a/output_0_split_1
I0403 19:27:09.256857  9261 net.cpp:399] inception_3a/output_inception_3a/output_0_split -> inception_3a/output_inception_3a/output_0_split_2
I0403 19:27:09.256880  9261 net.cpp:399] inception_3a/output_inception_3a/output_0_split -> inception_3a/output_inception_3a/output_0_split_3
I0403 19:27:09.256953  9261 net.cpp:141] Setting up inception_3a/output_inception_3a/output_0_split
I0403 19:27:09.256976  9261 net.cpp:148] Top shape: 24 256 28 28 (4816896)
I0403 19:27:09.256996  9261 net.cpp:148] Top shape: 24 256 28 28 (4816896)
I0403 19:27:09.257012  9261 net.cpp:148] Top shape: 24 256 28 28 (4816896)
I0403 19:27:09.257030  9261 net.cpp:148] Top shape: 24 256 28 28 (4816896)
I0403 19:27:09.257043  9261 net.cpp:156] Memory required for data: 657507360
I0403 19:27:09.257060  9261 layer_factory.hpp:77] Creating layer inception_3b/1x1
I0403 19:27:09.257079  9261 net.cpp:91] Creating Layer inception_3b/1x1
I0403 19:27:09.257097  9261 net.cpp:425] inception_3b/1x1 <- inception_3a/output_inception_3a/output_0_split_0
I0403 19:27:09.257117  9261 net.cpp:399] inception_3b/1x1 -> inception_3b/1x1
I0403 19:27:09.258281  9261 net.cpp:141] Setting up inception_3b/1x1
I0403 19:27:09.258323  9261 net.cpp:148] Top shape: 24 128 28 28 (2408448)
I0403 19:27:09.258340  9261 net.cpp:156] Memory required for data: 667141152
I0403 19:27:09.258359  9261 layer_factory.hpp:77] Creating layer inception_3b/relu_1x1
I0403 19:27:09.258383  9261 net.cpp:91] Creating Layer inception_3b/relu_1x1
I0403 19:27:09.258399  9261 net.cpp:425] inception_3b/relu_1x1 <- inception_3b/1x1
I0403 19:27:09.258417  9261 net.cpp:386] inception_3b/relu_1x1 -> inception_3b/1x1 (in-place)
I0403 19:27:09.258596  9261 net.cpp:141] Setting up inception_3b/relu_1x1
I0403 19:27:09.258621  9261 net.cpp:148] Top shape: 24 128 28 28 (2408448)
I0403 19:27:09.258636  9261 net.cpp:156] Memory required for data: 676774944
I0403 19:27:09.258651  9261 layer_factory.hpp:77] Creating layer inception_3b/3x3_reduce
I0403 19:27:09.258677  9261 net.cpp:91] Creating Layer inception_3b/3x3_reduce
I0403 19:27:09.258695  9261 net.cpp:425] inception_3b/3x3_reduce <- inception_3a/output_inception_3a/output_0_split_1
I0403 19:27:09.258714  9261 net.cpp:399] inception_3b/3x3_reduce -> inception_3b/3x3_reduce
I0403 19:27:09.259865  9261 net.cpp:141] Setting up inception_3b/3x3_reduce
I0403 19:27:09.259896  9261 net.cpp:148] Top shape: 24 128 28 28 (2408448)
I0403 19:27:09.259912  9261 net.cpp:156] Memory required for data: 686408736
I0403 19:27:09.259930  9261 layer_factory.hpp:77] Creating layer inception_3b/relu_3x3_reduce
I0403 19:27:09.259951  9261 net.cpp:91] Creating Layer inception_3b/relu_3x3_reduce
I0403 19:27:09.259968  9261 net.cpp:425] inception_3b/relu_3x3_reduce <- inception_3b/3x3_reduce
I0403 19:27:09.259986  9261 net.cpp:386] inception_3b/relu_3x3_reduce -> inception_3b/3x3_reduce (in-place)
I0403 19:27:09.260160  9261 net.cpp:141] Setting up inception_3b/relu_3x3_reduce
I0403 19:27:09.260187  9261 net.cpp:148] Top shape: 24 128 28 28 (2408448)
I0403 19:27:09.260203  9261 net.cpp:156] Memory required for data: 696042528
I0403 19:27:09.260221  9261 layer_factory.hpp:77] Creating layer inception_3b/3x3
I0403 19:27:09.260249  9261 net.cpp:91] Creating Layer inception_3b/3x3
I0403 19:27:09.260268  9261 net.cpp:425] inception_3b/3x3 <- inception_3b/3x3_reduce
I0403 19:27:09.260291  9261 net.cpp:399] inception_3b/3x3 -> inception_3b/3x3
I0403 19:27:09.263319  9261 net.cpp:141] Setting up inception_3b/3x3
I0403 19:27:09.263348  9261 net.cpp:148] Top shape: 24 192 28 28 (3612672)
I0403 19:27:09.263366  9261 net.cpp:156] Memory required for data: 710493216
I0403 19:27:09.263386  9261 layer_factory.hpp:77] Creating layer inception_3b/relu_3x3
I0403 19:27:09.263406  9261 net.cpp:91] Creating Layer inception_3b/relu_3x3
I0403 19:27:09.263422  9261 net.cpp:425] inception_3b/relu_3x3 <- inception_3b/3x3
I0403 19:27:09.263440  9261 net.cpp:386] inception_3b/relu_3x3 -> inception_3b/3x3 (in-place)
I0403 19:27:09.263722  9261 net.cpp:141] Setting up inception_3b/relu_3x3
I0403 19:27:09.263749  9261 net.cpp:148] Top shape: 24 192 28 28 (3612672)
I0403 19:27:09.263766  9261 net.cpp:156] Memory required for data: 724943904
I0403 19:27:09.263782  9261 layer_factory.hpp:77] Creating layer inception_3b/5x5_reduce
I0403 19:27:09.263806  9261 net.cpp:91] Creating Layer inception_3b/5x5_reduce
I0403 19:27:09.263824  9261 net.cpp:425] inception_3b/5x5_reduce <- inception_3a/output_inception_3a/output_0_split_2
I0403 19:27:09.263844  9261 net.cpp:399] inception_3b/5x5_reduce -> inception_3b/5x5_reduce
I0403 19:27:09.264853  9261 net.cpp:141] Setting up inception_3b/5x5_reduce
I0403 19:27:09.264883  9261 net.cpp:148] Top shape: 24 32 28 28 (602112)
I0403 19:27:09.264899  9261 net.cpp:156] Memory required for data: 727352352
I0403 19:27:09.264919  9261 layer_factory.hpp:77] Creating layer inception_3b/relu_5x5_reduce
I0403 19:27:09.264940  9261 net.cpp:91] Creating Layer inception_3b/relu_5x5_reduce
I0403 19:27:09.264956  9261 net.cpp:425] inception_3b/relu_5x5_reduce <- inception_3b/5x5_reduce
I0403 19:27:09.264974  9261 net.cpp:386] inception_3b/relu_5x5_reduce -> inception_3b/5x5_reduce (in-place)
I0403 19:27:09.265152  9261 net.cpp:141] Setting up inception_3b/relu_5x5_reduce
I0403 19:27:09.265193  9261 net.cpp:148] Top shape: 24 32 28 28 (602112)
I0403 19:27:09.265209  9261 net.cpp:156] Memory required for data: 729760800
I0403 19:27:09.265224  9261 layer_factory.hpp:77] Creating layer inception_3b/5x5
I0403 19:27:09.265250  9261 net.cpp:91] Creating Layer inception_3b/5x5
I0403 19:27:09.265269  9261 net.cpp:425] inception_3b/5x5 <- inception_3b/5x5_reduce
I0403 19:27:09.265290  9261 net.cpp:399] inception_3b/5x5 -> inception_3b/5x5
I0403 19:27:09.267287  9261 net.cpp:141] Setting up inception_3b/5x5
I0403 19:27:09.267316  9261 net.cpp:148] Top shape: 24 96 28 28 (1806336)
I0403 19:27:09.267333  9261 net.cpp:156] Memory required for data: 736986144
I0403 19:27:09.267351  9261 layer_factory.hpp:77] Creating layer inception_3b/relu_5x5
I0403 19:27:09.267372  9261 net.cpp:91] Creating Layer inception_3b/relu_5x5
I0403 19:27:09.267388  9261 net.cpp:425] inception_3b/relu_5x5 <- inception_3b/5x5
I0403 19:27:09.267406  9261 net.cpp:386] inception_3b/relu_5x5 -> inception_3b/5x5 (in-place)
I0403 19:27:09.267603  9261 net.cpp:141] Setting up inception_3b/relu_5x5
I0403 19:27:09.267628  9261 net.cpp:148] Top shape: 24 96 28 28 (1806336)
I0403 19:27:09.267644  9261 net.cpp:156] Memory required for data: 744211488
I0403 19:27:09.267660  9261 layer_factory.hpp:77] Creating layer inception_3b/pool
I0403 19:27:09.267679  9261 net.cpp:91] Creating Layer inception_3b/pool
I0403 19:27:09.267695  9261 net.cpp:425] inception_3b/pool <- inception_3a/output_inception_3a/output_0_split_3
I0403 19:27:09.267714  9261 net.cpp:399] inception_3b/pool -> inception_3b/pool
I0403 19:27:09.267770  9261 net.cpp:141] Setting up inception_3b/pool
I0403 19:27:09.267793  9261 net.cpp:148] Top shape: 24 256 28 28 (4816896)
I0403 19:27:09.267809  9261 net.cpp:156] Memory required for data: 763479072
I0403 19:27:09.267823  9261 layer_factory.hpp:77] Creating layer inception_3b/pool_proj
I0403 19:27:09.267846  9261 net.cpp:91] Creating Layer inception_3b/pool_proj
I0403 19:27:09.267864  9261 net.cpp:425] inception_3b/pool_proj <- inception_3b/pool
I0403 19:27:09.267885  9261 net.cpp:399] inception_3b/pool_proj -> inception_3b/pool_proj
I0403 19:27:09.268983  9261 net.cpp:141] Setting up inception_3b/pool_proj
I0403 19:27:09.269012  9261 net.cpp:148] Top shape: 24 64 28 28 (1204224)
I0403 19:27:09.269029  9261 net.cpp:156] Memory required for data: 768295968
I0403 19:27:09.269048  9261 layer_factory.hpp:77] Creating layer inception_3b/relu_pool_proj
I0403 19:27:09.269068  9261 net.cpp:91] Creating Layer inception_3b/relu_pool_proj
I0403 19:27:09.269083  9261 net.cpp:425] inception_3b/relu_pool_proj <- inception_3b/pool_proj
I0403 19:27:09.269104  9261 net.cpp:386] inception_3b/relu_pool_proj -> inception_3b/pool_proj (in-place)
I0403 19:27:09.269529  9261 net.cpp:141] Setting up inception_3b/relu_pool_proj
I0403 19:27:09.269561  9261 net.cpp:148] Top shape: 24 64 28 28 (1204224)
I0403 19:27:09.269577  9261 net.cpp:156] Memory required for data: 773112864
I0403 19:27:09.269593  9261 layer_factory.hpp:77] Creating layer inception_3b/output
I0403 19:27:09.269611  9261 net.cpp:91] Creating Layer inception_3b/output
I0403 19:27:09.269628  9261 net.cpp:425] inception_3b/output <- inception_3b/1x1
I0403 19:27:09.269645  9261 net.cpp:425] inception_3b/output <- inception_3b/3x3
I0403 19:27:09.269661  9261 net.cpp:425] inception_3b/output <- inception_3b/5x5
I0403 19:27:09.269678  9261 net.cpp:425] inception_3b/output <- inception_3b/pool_proj
I0403 19:27:09.269695  9261 net.cpp:399] inception_3b/output -> inception_3b/output
I0403 19:27:09.269743  9261 net.cpp:141] Setting up inception_3b/output
I0403 19:27:09.269767  9261 net.cpp:148] Top shape: 24 480 28 28 (9031680)
I0403 19:27:09.269783  9261 net.cpp:156] Memory required for data: 809239584
I0403 19:27:09.269798  9261 layer_factory.hpp:77] Creating layer pool3/3x3_s2
I0403 19:27:09.269819  9261 net.cpp:91] Creating Layer pool3/3x3_s2
I0403 19:27:09.269835  9261 net.cpp:425] pool3/3x3_s2 <- inception_3b/output
I0403 19:27:09.269855  9261 net.cpp:399] pool3/3x3_s2 -> pool3/3x3_s2
I0403 19:27:09.269932  9261 net.cpp:141] Setting up pool3/3x3_s2
I0403 19:27:09.269956  9261 net.cpp:148] Top shape: 24 480 14 14 (2257920)
I0403 19:27:09.269973  9261 net.cpp:156] Memory required for data: 818271264
I0403 19:27:09.269987  9261 layer_factory.hpp:77] Creating layer pool3/3x3_s2_pool3/3x3_s2_0_split
I0403 19:27:09.270006  9261 net.cpp:91] Creating Layer pool3/3x3_s2_pool3/3x3_s2_0_split
I0403 19:27:09.270022  9261 net.cpp:425] pool3/3x3_s2_pool3/3x3_s2_0_split <- pool3/3x3_s2
I0403 19:27:09.270042  9261 net.cpp:399] pool3/3x3_s2_pool3/3x3_s2_0_split -> pool3/3x3_s2_pool3/3x3_s2_0_split_0
I0403 19:27:09.270063  9261 net.cpp:399] pool3/3x3_s2_pool3/3x3_s2_0_split -> pool3/3x3_s2_pool3/3x3_s2_0_split_1
I0403 19:27:09.270083  9261 net.cpp:399] pool3/3x3_s2_pool3/3x3_s2_0_split -> pool3/3x3_s2_pool3/3x3_s2_0_split_2
I0403 19:27:09.270103  9261 net.cpp:399] pool3/3x3_s2_pool3/3x3_s2_0_split -> pool3/3x3_s2_pool3/3x3_s2_0_split_3
I0403 19:27:09.270182  9261 net.cpp:141] Setting up pool3/3x3_s2_pool3/3x3_s2_0_split
I0403 19:27:09.270208  9261 net.cpp:148] Top shape: 24 480 14 14 (2257920)
I0403 19:27:09.270226  9261 net.cpp:148] Top shape: 24 480 14 14 (2257920)
I0403 19:27:09.270246  9261 net.cpp:148] Top shape: 24 480 14 14 (2257920)
I0403 19:27:09.270264  9261 net.cpp:148] Top shape: 24 480 14 14 (2257920)
I0403 19:27:09.270278  9261 net.cpp:156] Memory required for data: 854397984
I0403 19:27:09.270294  9261 layer_factory.hpp:77] Creating layer inception_4a/1x1
I0403 19:27:09.270318  9261 net.cpp:91] Creating Layer inception_4a/1x1
I0403 19:27:09.270334  9261 net.cpp:425] inception_4a/1x1 <- pool3/3x3_s2_pool3/3x3_s2_0_split_0
I0403 19:27:09.270356  9261 net.cpp:399] inception_4a/1x1 -> inception_4a/1x1
I0403 19:27:09.271999  9261 net.cpp:141] Setting up inception_4a/1x1
I0403 19:27:09.272030  9261 net.cpp:148] Top shape: 24 192 14 14 (903168)
I0403 19:27:09.272047  9261 net.cpp:156] Memory required for data: 858010656
I0403 19:27:09.272069  9261 layer_factory.hpp:77] Creating layer inception_4a/relu_1x1
I0403 19:27:09.272089  9261 net.cpp:91] Creating Layer inception_4a/relu_1x1
I0403 19:27:09.272107  9261 net.cpp:425] inception_4a/relu_1x1 <- inception_4a/1x1
I0403 19:27:09.272130  9261 net.cpp:386] inception_4a/relu_1x1 -> inception_4a/1x1 (in-place)
I0403 19:27:09.272328  9261 net.cpp:141] Setting up inception_4a/relu_1x1
I0403 19:27:09.272356  9261 net.cpp:148] Top shape: 24 192 14 14 (903168)
I0403 19:27:09.272372  9261 net.cpp:156] Memory required for data: 861623328
I0403 19:27:09.272389  9261 layer_factory.hpp:77] Creating layer inception_4a/3x3_reduce
I0403 19:27:09.272413  9261 net.cpp:91] Creating Layer inception_4a/3x3_reduce
I0403 19:27:09.272433  9261 net.cpp:425] inception_4a/3x3_reduce <- pool3/3x3_s2_pool3/3x3_s2_0_split_1
I0403 19:27:09.272456  9261 net.cpp:399] inception_4a/3x3_reduce -> inception_4a/3x3_reduce
I0403 19:27:09.273784  9261 net.cpp:141] Setting up inception_4a/3x3_reduce
I0403 19:27:09.273818  9261 net.cpp:148] Top shape: 24 96 14 14 (451584)
I0403 19:27:09.273835  9261 net.cpp:156] Memory required for data: 863429664
I0403 19:27:09.273862  9261 layer_factory.hpp:77] Creating layer inception_4a/relu_3x3_reduce
I0403 19:27:09.273883  9261 net.cpp:91] Creating Layer inception_4a/relu_3x3_reduce
I0403 19:27:09.273901  9261 net.cpp:425] inception_4a/relu_3x3_reduce <- inception_4a/3x3_reduce
I0403 19:27:09.273919  9261 net.cpp:386] inception_4a/relu_3x3_reduce -> inception_4a/3x3_reduce (in-place)
I0403 19:27:09.274108  9261 net.cpp:141] Setting up inception_4a/relu_3x3_reduce
I0403 19:27:09.274134  9261 net.cpp:148] Top shape: 24 96 14 14 (451584)
I0403 19:27:09.274150  9261 net.cpp:156] Memory required for data: 865236000
I0403 19:27:09.274166  9261 layer_factory.hpp:77] Creating layer inception_4a/3x3
I0403 19:27:09.274193  9261 net.cpp:91] Creating Layer inception_4a/3x3
I0403 19:27:09.274209  9261 net.cpp:425] inception_4a/3x3 <- inception_4a/3x3_reduce
I0403 19:27:09.274232  9261 net.cpp:399] inception_4a/3x3 -> inception_4a/3x3
I0403 19:27:09.277032  9261 net.cpp:141] Setting up inception_4a/3x3
I0403 19:27:09.277065  9261 net.cpp:148] Top shape: 24 208 14 14 (978432)
I0403 19:27:09.277082  9261 net.cpp:156] Memory required for data: 869149728
I0403 19:27:09.277103  9261 layer_factory.hpp:77] Creating layer inception_4a/relu_3x3
I0403 19:27:09.277125  9261 net.cpp:91] Creating Layer inception_4a/relu_3x3
I0403 19:27:09.277143  9261 net.cpp:425] inception_4a/relu_3x3 <- inception_4a/3x3
I0403 19:27:09.277164  9261 net.cpp:386] inception_4a/relu_3x3 -> inception_4a/3x3 (in-place)
I0403 19:27:09.277461  9261 net.cpp:141] Setting up inception_4a/relu_3x3
I0403 19:27:09.277490  9261 net.cpp:148] Top shape: 24 208 14 14 (978432)
I0403 19:27:09.277506  9261 net.cpp:156] Memory required for data: 873063456
I0403 19:27:09.277523  9261 layer_factory.hpp:77] Creating layer inception_4a/5x5_reduce
I0403 19:27:09.277546  9261 net.cpp:91] Creating Layer inception_4a/5x5_reduce
I0403 19:27:09.277565  9261 net.cpp:425] inception_4a/5x5_reduce <- pool3/3x3_s2_pool3/3x3_s2_0_split_2
I0403 19:27:09.277586  9261 net.cpp:399] inception_4a/5x5_reduce -> inception_4a/5x5_reduce
I0403 19:27:09.278657  9261 net.cpp:141] Setting up inception_4a/5x5_reduce
I0403 19:27:09.278688  9261 net.cpp:148] Top shape: 24 16 14 14 (75264)
I0403 19:27:09.278707  9261 net.cpp:156] Memory required for data: 873364512
I0403 19:27:09.278728  9261 layer_factory.hpp:77] Creating layer inception_4a/relu_5x5_reduce
I0403 19:27:09.278748  9261 net.cpp:91] Creating Layer inception_4a/relu_5x5_reduce
I0403 19:27:09.278765  9261 net.cpp:425] inception_4a/relu_5x5_reduce <- inception_4a/5x5_reduce
I0403 19:27:09.278785  9261 net.cpp:386] inception_4a/relu_5x5_reduce -> inception_4a/5x5_reduce (in-place)
I0403 19:27:09.278975  9261 net.cpp:141] Setting up inception_4a/relu_5x5_reduce
I0403 19:27:09.279006  9261 net.cpp:148] Top shape: 24 16 14 14 (75264)
I0403 19:27:09.279023  9261 net.cpp:156] Memory required for data: 873665568
I0403 19:27:09.279042  9261 layer_factory.hpp:77] Creating layer inception_4a/5x5
I0403 19:27:09.279064  9261 net.cpp:91] Creating Layer inception_4a/5x5
I0403 19:27:09.279083  9261 net.cpp:425] inception_4a/5x5 <- inception_4a/5x5_reduce
I0403 19:27:09.279103  9261 net.cpp:399] inception_4a/5x5 -> inception_4a/5x5
I0403 19:27:09.280252  9261 net.cpp:141] Setting up inception_4a/5x5
I0403 19:27:09.280290  9261 net.cpp:148] Top shape: 24 48 14 14 (225792)
I0403 19:27:09.280308  9261 net.cpp:156] Memory required for data: 874568736
I0403 19:27:09.280328  9261 layer_factory.hpp:77] Creating layer inception_4a/relu_5x5
I0403 19:27:09.280346  9261 net.cpp:91] Creating Layer inception_4a/relu_5x5
I0403 19:27:09.280364  9261 net.cpp:425] inception_4a/relu_5x5 <- inception_4a/5x5
I0403 19:27:09.280383  9261 net.cpp:386] inception_4a/relu_5x5 -> inception_4a/5x5 (in-place)
I0403 19:27:09.280572  9261 net.cpp:141] Setting up inception_4a/relu_5x5
I0403 19:27:09.280598  9261 net.cpp:148] Top shape: 24 48 14 14 (225792)
I0403 19:27:09.280614  9261 net.cpp:156] Memory required for data: 875471904
I0403 19:27:09.280630  9261 layer_factory.hpp:77] Creating layer inception_4a/pool
I0403 19:27:09.280648  9261 net.cpp:91] Creating Layer inception_4a/pool
I0403 19:27:09.280665  9261 net.cpp:425] inception_4a/pool <- pool3/3x3_s2_pool3/3x3_s2_0_split_3
I0403 19:27:09.280688  9261 net.cpp:399] inception_4a/pool -> inception_4a/pool
I0403 19:27:09.280751  9261 net.cpp:141] Setting up inception_4a/pool
I0403 19:27:09.280776  9261 net.cpp:148] Top shape: 24 480 14 14 (2257920)
I0403 19:27:09.280792  9261 net.cpp:156] Memory required for data: 884503584
I0403 19:27:09.280807  9261 layer_factory.hpp:77] Creating layer inception_4a/pool_proj
I0403 19:27:09.280833  9261 net.cpp:91] Creating Layer inception_4a/pool_proj
I0403 19:27:09.280849  9261 net.cpp:425] inception_4a/pool_proj <- inception_4a/pool
I0403 19:27:09.280869  9261 net.cpp:399] inception_4a/pool_proj -> inception_4a/pool_proj
I0403 19:27:09.282096  9261 net.cpp:141] Setting up inception_4a/pool_proj
I0403 19:27:09.282131  9261 net.cpp:148] Top shape: 24 64 14 14 (301056)
I0403 19:27:09.282166  9261 net.cpp:156] Memory required for data: 885707808
I0403 19:27:09.282189  9261 layer_factory.hpp:77] Creating layer inception_4a/relu_pool_proj
I0403 19:27:09.282209  9261 net.cpp:91] Creating Layer inception_4a/relu_pool_proj
I0403 19:27:09.282227  9261 net.cpp:425] inception_4a/relu_pool_proj <- inception_4a/pool_proj
I0403 19:27:09.282263  9261 net.cpp:386] inception_4a/relu_pool_proj -> inception_4a/pool_proj (in-place)
I0403 19:27:09.282569  9261 net.cpp:141] Setting up inception_4a/relu_pool_proj
I0403 19:27:09.282601  9261 net.cpp:148] Top shape: 24 64 14 14 (301056)
I0403 19:27:09.282619  9261 net.cpp:156] Memory required for data: 886912032
I0403 19:27:09.282635  9261 layer_factory.hpp:77] Creating layer inception_4a/output
I0403 19:27:09.282655  9261 net.cpp:91] Creating Layer inception_4a/output
I0403 19:27:09.282670  9261 net.cpp:425] inception_4a/output <- inception_4a/1x1
I0403 19:27:09.282687  9261 net.cpp:425] inception_4a/output <- inception_4a/3x3
I0403 19:27:09.282704  9261 net.cpp:425] inception_4a/output <- inception_4a/5x5
I0403 19:27:09.282721  9261 net.cpp:425] inception_4a/output <- inception_4a/pool_proj
I0403 19:27:09.282740  9261 net.cpp:399] inception_4a/output -> inception_4a/output
I0403 19:27:09.282788  9261 net.cpp:141] Setting up inception_4a/output
I0403 19:27:09.282812  9261 net.cpp:148] Top shape: 24 512 14 14 (2408448)
I0403 19:27:09.282827  9261 net.cpp:156] Memory required for data: 896545824
I0403 19:27:09.282843  9261 layer_factory.hpp:77] Creating layer inception_4a/output_inception_4a/output_0_split
I0403 19:27:09.282865  9261 net.cpp:91] Creating Layer inception_4a/output_inception_4a/output_0_split
I0403 19:27:09.282881  9261 net.cpp:425] inception_4a/output_inception_4a/output_0_split <- inception_4a/output
I0403 19:27:09.282901  9261 net.cpp:399] inception_4a/output_inception_4a/output_0_split -> inception_4a/output_inception_4a/output_0_split_0
I0403 19:27:09.282924  9261 net.cpp:399] inception_4a/output_inception_4a/output_0_split -> inception_4a/output_inception_4a/output_0_split_1
I0403 19:27:09.282946  9261 net.cpp:399] inception_4a/output_inception_4a/output_0_split -> inception_4a/output_inception_4a/output_0_split_2
I0403 19:27:09.282968  9261 net.cpp:399] inception_4a/output_inception_4a/output_0_split -> inception_4a/output_inception_4a/output_0_split_3
I0403 19:27:09.282989  9261 net.cpp:399] inception_4a/output_inception_4a/output_0_split -> inception_4a/output_inception_4a/output_0_split_4
I0403 19:27:09.283084  9261 net.cpp:141] Setting up inception_4a/output_inception_4a/output_0_split
I0403 19:27:09.283109  9261 net.cpp:148] Top shape: 24 512 14 14 (2408448)
I0403 19:27:09.283126  9261 net.cpp:148] Top shape: 24 512 14 14 (2408448)
I0403 19:27:09.283143  9261 net.cpp:148] Top shape: 24 512 14 14 (2408448)
I0403 19:27:09.283159  9261 net.cpp:148] Top shape: 24 512 14 14 (2408448)
I0403 19:27:09.283176  9261 net.cpp:148] Top shape: 24 512 14 14 (2408448)
I0403 19:27:09.283192  9261 net.cpp:156] Memory required for data: 944714784
I0403 19:27:09.283207  9261 layer_factory.hpp:77] Creating layer loss1/ave_pool
I0403 19:27:09.283229  9261 net.cpp:91] Creating Layer loss1/ave_pool
I0403 19:27:09.283252  9261 net.cpp:425] loss1/ave_pool <- inception_4a/output_inception_4a/output_0_split_0
I0403 19:27:09.283270  9261 net.cpp:399] loss1/ave_pool -> loss1/ave_pool
I0403 19:27:09.283489  9261 net.cpp:141] Setting up loss1/ave_pool
I0403 19:27:09.283517  9261 net.cpp:148] Top shape: 24 512 4 4 (196608)
I0403 19:27:09.283534  9261 net.cpp:156] Memory required for data: 945501216
I0403 19:27:09.283548  9261 layer_factory.hpp:77] Creating layer loss1/conv
I0403 19:27:09.283572  9261 net.cpp:91] Creating Layer loss1/conv
I0403 19:27:09.283591  9261 net.cpp:425] loss1/conv <- loss1/ave_pool
I0403 19:27:09.283612  9261 net.cpp:399] loss1/conv -> loss1/conv
I0403 19:27:09.285104  9261 net.cpp:141] Setting up loss1/conv
I0403 19:27:09.285135  9261 net.cpp:148] Top shape: 24 128 4 4 (49152)
I0403 19:27:09.285153  9261 net.cpp:156] Memory required for data: 945697824
I0403 19:27:09.285192  9261 layer_factory.hpp:77] Creating layer loss1/relu_conv
I0403 19:27:09.285214  9261 net.cpp:91] Creating Layer loss1/relu_conv
I0403 19:27:09.285233  9261 net.cpp:425] loss1/relu_conv <- loss1/conv
I0403 19:27:09.285255  9261 net.cpp:386] loss1/relu_conv -> loss1/conv (in-place)
I0403 19:27:09.285560  9261 net.cpp:141] Setting up loss1/relu_conv
I0403 19:27:09.285590  9261 net.cpp:148] Top shape: 24 128 4 4 (49152)
I0403 19:27:09.285606  9261 net.cpp:156] Memory required for data: 945894432
I0403 19:27:09.285622  9261 layer_factory.hpp:77] Creating layer loss1/fc
I0403 19:27:09.285650  9261 net.cpp:91] Creating Layer loss1/fc
I0403 19:27:09.285670  9261 net.cpp:425] loss1/fc <- loss1/conv
I0403 19:27:09.285691  9261 net.cpp:399] loss1/fc -> loss1/fc
I0403 19:27:09.304488  9261 net.cpp:141] Setting up loss1/fc
I0403 19:27:09.304549  9261 net.cpp:148] Top shape: 24 1024 (24576)
I0403 19:27:09.304566  9261 net.cpp:156] Memory required for data: 945992736
I0403 19:27:09.304589  9261 layer_factory.hpp:77] Creating layer loss1/relu_fc
I0403 19:27:09.304610  9261 net.cpp:91] Creating Layer loss1/relu_fc
I0403 19:27:09.304630  9261 net.cpp:425] loss1/relu_fc <- loss1/fc
I0403 19:27:09.304652  9261 net.cpp:386] loss1/relu_fc -> loss1/fc (in-place)
I0403 19:27:09.304870  9261 net.cpp:141] Setting up loss1/relu_fc
I0403 19:27:09.304896  9261 net.cpp:148] Top shape: 24 1024 (24576)
I0403 19:27:09.304913  9261 net.cpp:156] Memory required for data: 946091040
I0403 19:27:09.304929  9261 layer_factory.hpp:77] Creating layer loss1/drop_fc
I0403 19:27:09.304960  9261 net.cpp:91] Creating Layer loss1/drop_fc
I0403 19:27:09.304978  9261 net.cpp:425] loss1/drop_fc <- loss1/fc
I0403 19:27:09.304997  9261 net.cpp:386] loss1/drop_fc -> loss1/fc (in-place)
I0403 19:27:09.305052  9261 net.cpp:141] Setting up loss1/drop_fc
I0403 19:27:09.305078  9261 net.cpp:148] Top shape: 24 1024 (24576)
I0403 19:27:09.305094  9261 net.cpp:156] Memory required for data: 946189344
I0403 19:27:09.305110  9261 layer_factory.hpp:77] Creating layer loss1/classifier_plantvillage
I0403 19:27:09.305130  9261 net.cpp:91] Creating Layer loss1/classifier_plantvillage
I0403 19:27:09.305147  9261 net.cpp:425] loss1/classifier_plantvillage <- loss1/fc
I0403 19:27:09.305171  9261 net.cpp:399] loss1/classifier_plantvillage -> loss1/classifier_plantvillage
I0403 19:27:09.306139  9261 net.cpp:141] Setting up loss1/classifier_plantvillage
I0403 19:27:09.306171  9261 net.cpp:148] Top shape: 24 38 (912)
I0403 19:27:09.306188  9261 net.cpp:156] Memory required for data: 946192992
I0403 19:27:09.306208  9261 layer_factory.hpp:77] Creating layer loss1/classifier_plantvillage_loss1/classifier_plantvillage_0_split
I0403 19:27:09.306228  9261 net.cpp:91] Creating Layer loss1/classifier_plantvillage_loss1/classifier_plantvillage_0_split
I0403 19:27:09.306255  9261 net.cpp:425] loss1/classifier_plantvillage_loss1/classifier_plantvillage_0_split <- loss1/classifier_plantvillage
I0403 19:27:09.306280  9261 net.cpp:399] loss1/classifier_plantvillage_loss1/classifier_plantvillage_0_split -> loss1/classifier_plantvillage_loss1/classifier_plantvillage_0_split_0
I0403 19:27:09.306303  9261 net.cpp:399] loss1/classifier_plantvillage_loss1/classifier_plantvillage_0_split -> loss1/classifier_plantvillage_loss1/classifier_plantvillage_0_split_1
I0403 19:27:09.306324  9261 net.cpp:399] loss1/classifier_plantvillage_loss1/classifier_plantvillage_0_split -> loss1/classifier_plantvillage_loss1/classifier_plantvillage_0_split_2
I0403 19:27:09.306396  9261 net.cpp:141] Setting up loss1/classifier_plantvillage_loss1/classifier_plantvillage_0_split
I0403 19:27:09.306421  9261 net.cpp:148] Top shape: 24 38 (912)
I0403 19:27:09.306438  9261 net.cpp:148] Top shape: 24 38 (912)
I0403 19:27:09.306455  9261 net.cpp:148] Top shape: 24 38 (912)
I0403 19:27:09.306470  9261 net.cpp:156] Memory required for data: 946203936
I0403 19:27:09.306485  9261 layer_factory.hpp:77] Creating layer inception_4b/1x1
I0403 19:27:09.306510  9261 net.cpp:91] Creating Layer inception_4b/1x1
I0403 19:27:09.306552  9261 net.cpp:425] inception_4b/1x1 <- inception_4a/output_inception_4a/output_0_split_1
I0403 19:27:09.306574  9261 net.cpp:399] inception_4b/1x1 -> inception_4b/1x1
I0403 19:27:09.308344  9261 net.cpp:141] Setting up inception_4b/1x1
I0403 19:27:09.308375  9261 net.cpp:148] Top shape: 24 160 14 14 (752640)
I0403 19:27:09.308393  9261 net.cpp:156] Memory required for data: 949214496
I0403 19:27:09.308413  9261 layer_factory.hpp:77] Creating layer inception_4b/relu_1x1
I0403 19:27:09.308434  9261 net.cpp:91] Creating Layer inception_4b/relu_1x1
I0403 19:27:09.308451  9261 net.cpp:425] inception_4b/relu_1x1 <- inception_4b/1x1
I0403 19:27:09.308470  9261 net.cpp:386] inception_4b/relu_1x1 -> inception_4b/1x1 (in-place)
I0403 19:27:09.308665  9261 net.cpp:141] Setting up inception_4b/relu_1x1
I0403 19:27:09.308694  9261 net.cpp:148] Top shape: 24 160 14 14 (752640)
I0403 19:27:09.308712  9261 net.cpp:156] Memory required for data: 952225056
I0403 19:27:09.308727  9261 layer_factory.hpp:77] Creating layer inception_4b/3x3_reduce
I0403 19:27:09.308753  9261 net.cpp:91] Creating Layer inception_4b/3x3_reduce
I0403 19:27:09.308771  9261 net.cpp:425] inception_4b/3x3_reduce <- inception_4a/output_inception_4a/output_0_split_2
I0403 19:27:09.308791  9261 net.cpp:399] inception_4b/3x3_reduce -> inception_4b/3x3_reduce
I0403 19:27:09.310216  9261 net.cpp:141] Setting up inception_4b/3x3_reduce
I0403 19:27:09.310253  9261 net.cpp:148] Top shape: 24 112 14 14 (526848)
I0403 19:27:09.310273  9261 net.cpp:156] Memory required for data: 954332448
I0403 19:27:09.310294  9261 layer_factory.hpp:77] Creating layer inception_4b/relu_3x3_reduce
I0403 19:27:09.310313  9261 net.cpp:91] Creating Layer inception_4b/relu_3x3_reduce
I0403 19:27:09.310329  9261 net.cpp:425] inception_4b/relu_3x3_reduce <- inception_4b/3x3_reduce
I0403 19:27:09.310346  9261 net.cpp:386] inception_4b/relu_3x3_reduce -> inception_4b/3x3_reduce (in-place)
I0403 19:27:09.310639  9261 net.cpp:141] Setting up inception_4b/relu_3x3_reduce
I0403 19:27:09.310669  9261 net.cpp:148] Top shape: 24 112 14 14 (526848)
I0403 19:27:09.310685  9261 net.cpp:156] Memory required for data: 956439840
I0403 19:27:09.310701  9261 layer_factory.hpp:77] Creating layer inception_4b/3x3
I0403 19:27:09.310724  9261 net.cpp:91] Creating Layer inception_4b/3x3
I0403 19:27:09.310742  9261 net.cpp:425] inception_4b/3x3 <- inception_4b/3x3_reduce
I0403 19:27:09.310761  9261 net.cpp:399] inception_4b/3x3 -> inception_4b/3x3
I0403 19:27:09.313869  9261 net.cpp:141] Setting up inception_4b/3x3
I0403 19:27:09.313900  9261 net.cpp:148] Top shape: 24 224 14 14 (1053696)
I0403 19:27:09.313916  9261 net.cpp:156] Memory required for data: 960654624
I0403 19:27:09.313936  9261 layer_factory.hpp:77] Creating layer inception_4b/relu_3x3
I0403 19:27:09.313954  9261 net.cpp:91] Creating Layer inception_4b/relu_3x3
I0403 19:27:09.313972  9261 net.cpp:425] inception_4b/relu_3x3 <- inception_4b/3x3
I0403 19:27:09.313992  9261 net.cpp:386] inception_4b/relu_3x3 -> inception_4b/3x3 (in-place)
I0403 19:27:09.314172  9261 net.cpp:141] Setting up inception_4b/relu_3x3
I0403 19:27:09.314199  9261 net.cpp:148] Top shape: 24 224 14 14 (1053696)
I0403 19:27:09.314214  9261 net.cpp:156] Memory required for data: 964869408
I0403 19:27:09.314232  9261 layer_factory.hpp:77] Creating layer inception_4b/5x5_reduce
I0403 19:27:09.314260  9261 net.cpp:91] Creating Layer inception_4b/5x5_reduce
I0403 19:27:09.314280  9261 net.cpp:425] inception_4b/5x5_reduce <- inception_4a/output_inception_4a/output_0_split_3
I0403 19:27:09.314303  9261 net.cpp:399] inception_4b/5x5_reduce -> inception_4b/5x5_reduce
I0403 19:27:09.315398  9261 net.cpp:141] Setting up inception_4b/5x5_reduce
I0403 19:27:09.315428  9261 net.cpp:148] Top shape: 24 24 14 14 (112896)
I0403 19:27:09.315444  9261 net.cpp:156] Memory required for data: 965320992
I0403 19:27:09.315464  9261 layer_factory.hpp:77] Creating layer inception_4b/relu_5x5_reduce
I0403 19:27:09.315486  9261 net.cpp:91] Creating Layer inception_4b/relu_5x5_reduce
I0403 19:27:09.315517  9261 net.cpp:425] inception_4b/relu_5x5_reduce <- inception_4b/5x5_reduce
I0403 19:27:09.315536  9261 net.cpp:386] inception_4b/relu_5x5_reduce -> inception_4b/5x5_reduce (in-place)
I0403 19:27:09.315721  9261 net.cpp:141] Setting up inception_4b/relu_5x5_reduce
I0403 19:27:09.315748  9261 net.cpp:148] Top shape: 24 24 14 14 (112896)
I0403 19:27:09.315764  9261 net.cpp:156] Memory required for data: 965772576
I0403 19:27:09.315780  9261 layer_factory.hpp:77] Creating layer inception_4b/5x5
I0403 19:27:09.315803  9261 net.cpp:91] Creating Layer inception_4b/5x5
I0403 19:27:09.315820  9261 net.cpp:425] inception_4b/5x5 <- inception_4b/5x5_reduce
I0403 19:27:09.315839  9261 net.cpp:399] inception_4b/5x5 -> inception_4b/5x5
I0403 19:27:09.317059  9261 net.cpp:141] Setting up inception_4b/5x5
I0403 19:27:09.317088  9261 net.cpp:148] Top shape: 24 64 14 14 (301056)
I0403 19:27:09.317103  9261 net.cpp:156] Memory required for data: 966976800
I0403 19:27:09.317121  9261 layer_factory.hpp:77] Creating layer inception_4b/relu_5x5
I0403 19:27:09.317142  9261 net.cpp:91] Creating Layer inception_4b/relu_5x5
I0403 19:27:09.317159  9261 net.cpp:425] inception_4b/relu_5x5 <- inception_4b/5x5
I0403 19:27:09.317176  9261 net.cpp:386] inception_4b/relu_5x5 -> inception_4b/5x5 (in-place)
I0403 19:27:09.317461  9261 net.cpp:141] Setting up inception_4b/relu_5x5
I0403 19:27:09.317487  9261 net.cpp:148] Top shape: 24 64 14 14 (301056)
I0403 19:27:09.317502  9261 net.cpp:156] Memory required for data: 968181024
I0403 19:27:09.317517  9261 layer_factory.hpp:77] Creating layer inception_4b/pool
I0403 19:27:09.317538  9261 net.cpp:91] Creating Layer inception_4b/pool
I0403 19:27:09.317555  9261 net.cpp:425] inception_4b/pool <- inception_4a/output_inception_4a/output_0_split_4
I0403 19:27:09.317574  9261 net.cpp:399] inception_4b/pool -> inception_4b/pool
I0403 19:27:09.317638  9261 net.cpp:141] Setting up inception_4b/pool
I0403 19:27:09.317662  9261 net.cpp:148] Top shape: 24 512 14 14 (2408448)
I0403 19:27:09.317677  9261 net.cpp:156] Memory required for data: 977814816
I0403 19:27:09.317692  9261 layer_factory.hpp:77] Creating layer inception_4b/pool_proj
I0403 19:27:09.317713  9261 net.cpp:91] Creating Layer inception_4b/pool_proj
I0403 19:27:09.317729  9261 net.cpp:425] inception_4b/pool_proj <- inception_4b/pool
I0403 19:27:09.317751  9261 net.cpp:399] inception_4b/pool_proj -> inception_4b/pool_proj
I0403 19:27:09.319010  9261 net.cpp:141] Setting up inception_4b/pool_proj
I0403 19:27:09.319039  9261 net.cpp:148] Top shape: 24 64 14 14 (301056)
I0403 19:27:09.319056  9261 net.cpp:156] Memory required for data: 979019040
I0403 19:27:09.319075  9261 layer_factory.hpp:77] Creating layer inception_4b/relu_pool_proj
I0403 19:27:09.319097  9261 net.cpp:91] Creating Layer inception_4b/relu_pool_proj
I0403 19:27:09.319115  9261 net.cpp:425] inception_4b/relu_pool_proj <- inception_4b/pool_proj
I0403 19:27:09.319134  9261 net.cpp:386] inception_4b/relu_pool_proj -> inception_4b/pool_proj (in-place)
I0403 19:27:09.319317  9261 net.cpp:141] Setting up inception_4b/relu_pool_proj
I0403 19:27:09.319346  9261 net.cpp:148] Top shape: 24 64 14 14 (301056)
I0403 19:27:09.319362  9261 net.cpp:156] Memory required for data: 980223264
I0403 19:27:09.319378  9261 layer_factory.hpp:77] Creating layer inception_4b/output
I0403 19:27:09.319396  9261 net.cpp:91] Creating Layer inception_4b/output
I0403 19:27:09.319413  9261 net.cpp:425] inception_4b/output <- inception_4b/1x1
I0403 19:27:09.319429  9261 net.cpp:425] inception_4b/output <- inception_4b/3x3
I0403 19:27:09.319445  9261 net.cpp:425] inception_4b/output <- inception_4b/5x5
I0403 19:27:09.319463  9261 net.cpp:425] inception_4b/output <- inception_4b/pool_proj
I0403 19:27:09.319479  9261 net.cpp:399] inception_4b/output -> inception_4b/output
I0403 19:27:09.319525  9261 net.cpp:141] Setting up inception_4b/output
I0403 19:27:09.319550  9261 net.cpp:148] Top shape: 24 512 14 14 (2408448)
I0403 19:27:09.319564  9261 net.cpp:156] Memory required for data: 989857056
I0403 19:27:09.319592  9261 layer_factory.hpp:77] Creating layer inception_4b/output_inception_4b/output_0_split
I0403 19:27:09.319613  9261 net.cpp:91] Creating Layer inception_4b/output_inception_4b/output_0_split
I0403 19:27:09.319630  9261 net.cpp:425] inception_4b/output_inception_4b/output_0_split <- inception_4b/output
I0403 19:27:09.319649  9261 net.cpp:399] inception_4b/output_inception_4b/output_0_split -> inception_4b/output_inception_4b/output_0_split_0
I0403 19:27:09.319669  9261 net.cpp:399] inception_4b/output_inception_4b/output_0_split -> inception_4b/output_inception_4b/output_0_split_1
I0403 19:27:09.319689  9261 net.cpp:399] inception_4b/output_inception_4b/output_0_split -> inception_4b/output_inception_4b/output_0_split_2
I0403 19:27:09.319710  9261 net.cpp:399] inception_4b/output_inception_4b/output_0_split -> inception_4b/output_inception_4b/output_0_split_3
I0403 19:27:09.319795  9261 net.cpp:141] Setting up inception_4b/output_inception_4b/output_0_split
I0403 19:27:09.319818  9261 net.cpp:148] Top shape: 24 512 14 14 (2408448)
I0403 19:27:09.319834  9261 net.cpp:148] Top shape: 24 512 14 14 (2408448)
I0403 19:27:09.319850  9261 net.cpp:148] Top shape: 24 512 14 14 (2408448)
I0403 19:27:09.319866  9261 net.cpp:148] Top shape: 24 512 14 14 (2408448)
I0403 19:27:09.319880  9261 net.cpp:156] Memory required for data: 1028392224
I0403 19:27:09.319895  9261 layer_factory.hpp:77] Creating layer inception_4c/1x1
I0403 19:27:09.319916  9261 net.cpp:91] Creating Layer inception_4c/1x1
I0403 19:27:09.319933  9261 net.cpp:425] inception_4c/1x1 <- inception_4b/output_inception_4b/output_0_split_0
I0403 19:27:09.319953  9261 net.cpp:399] inception_4c/1x1 -> inception_4c/1x1
I0403 19:27:09.321436  9261 net.cpp:141] Setting up inception_4c/1x1
I0403 19:27:09.321466  9261 net.cpp:148] Top shape: 24 128 14 14 (602112)
I0403 19:27:09.321483  9261 net.cpp:156] Memory required for data: 1030800672
I0403 19:27:09.321503  9261 layer_factory.hpp:77] Creating layer inception_4c/relu_1x1
I0403 19:27:09.321521  9261 net.cpp:91] Creating Layer inception_4c/relu_1x1
I0403 19:27:09.321539  9261 net.cpp:425] inception_4c/relu_1x1 <- inception_4c/1x1
I0403 19:27:09.321560  9261 net.cpp:386] inception_4c/relu_1x1 -> inception_4c/1x1 (in-place)
I0403 19:27:09.321748  9261 net.cpp:141] Setting up inception_4c/relu_1x1
I0403 19:27:09.321774  9261 net.cpp:148] Top shape: 24 128 14 14 (602112)
I0403 19:27:09.321790  9261 net.cpp:156] Memory required for data: 1033209120
I0403 19:27:09.321806  9261 layer_factory.hpp:77] Creating layer inception_4c/3x3_reduce
I0403 19:27:09.321830  9261 net.cpp:91] Creating Layer inception_4c/3x3_reduce
I0403 19:27:09.321848  9261 net.cpp:425] inception_4c/3x3_reduce <- inception_4b/output_inception_4b/output_0_split_1
I0403 19:27:09.321871  9261 net.cpp:399] inception_4c/3x3_reduce -> inception_4c/3x3_reduce
I0403 19:27:09.323863  9261 net.cpp:141] Setting up inception_4c/3x3_reduce
I0403 19:27:09.323892  9261 net.cpp:148] Top shape: 24 128 14 14 (602112)
I0403 19:27:09.323909  9261 net.cpp:156] Memory required for data: 1035617568
I0403 19:27:09.323928  9261 layer_factory.hpp:77] Creating layer inception_4c/relu_3x3_reduce
I0403 19:27:09.323950  9261 net.cpp:91] Creating Layer inception_4c/relu_3x3_reduce
I0403 19:27:09.323966  9261 net.cpp:425] inception_4c/relu_3x3_reduce <- inception_4c/3x3_reduce
I0403 19:27:09.323983  9261 net.cpp:386] inception_4c/relu_3x3_reduce -> inception_4c/3x3_reduce (in-place)
I0403 19:27:09.324275  9261 net.cpp:141] Setting up inception_4c/relu_3x3_reduce
I0403 19:27:09.324301  9261 net.cpp:148] Top shape: 24 128 14 14 (602112)
I0403 19:27:09.324316  9261 net.cpp:156] Memory required for data: 1038026016
I0403 19:27:09.324331  9261 layer_factory.hpp:77] Creating layer inception_4c/3x3
I0403 19:27:09.324353  9261 net.cpp:91] Creating Layer inception_4c/3x3
I0403 19:27:09.324370  9261 net.cpp:425] inception_4c/3x3 <- inception_4c/3x3_reduce
I0403 19:27:09.324391  9261 net.cpp:399] inception_4c/3x3 -> inception_4c/3x3
I0403 19:27:09.328029  9261 net.cpp:141] Setting up inception_4c/3x3
I0403 19:27:09.328073  9261 net.cpp:148] Top shape: 24 256 14 14 (1204224)
I0403 19:27:09.328089  9261 net.cpp:156] Memory required for data: 1042842912
I0403 19:27:09.328122  9261 layer_factory.hpp:77] Creating layer inception_4c/relu_3x3
I0403 19:27:09.328145  9261 net.cpp:91] Creating Layer inception_4c/relu_3x3
I0403 19:27:09.328163  9261 net.cpp:425] inception_4c/relu_3x3 <- inception_4c/3x3
I0403 19:27:09.328181  9261 net.cpp:386] inception_4c/relu_3x3 -> inception_4c/3x3 (in-place)
I0403 19:27:09.328382  9261 net.cpp:141] Setting up inception_4c/relu_3x3
I0403 19:27:09.328408  9261 net.cpp:148] Top shape: 24 256 14 14 (1204224)
I0403 19:27:09.328426  9261 net.cpp:156] Memory required for data: 1047659808
I0403 19:27:09.328443  9261 layer_factory.hpp:77] Creating layer inception_4c/5x5_reduce
I0403 19:27:09.328464  9261 net.cpp:91] Creating Layer inception_4c/5x5_reduce
I0403 19:27:09.328480  9261 net.cpp:425] inception_4c/5x5_reduce <- inception_4b/output_inception_4b/output_0_split_2
I0403 19:27:09.328502  9261 net.cpp:399] inception_4c/5x5_reduce -> inception_4c/5x5_reduce
I0403 19:27:09.329643  9261 net.cpp:141] Setting up inception_4c/5x5_reduce
I0403 19:27:09.329670  9261 net.cpp:148] Top shape: 24 24 14 14 (112896)
I0403 19:27:09.329686  9261 net.cpp:156] Memory required for data: 1048111392
I0403 19:27:09.329704  9261 layer_factory.hpp:77] Creating layer inception_4c/relu_5x5_reduce
I0403 19:27:09.329725  9261 net.cpp:91] Creating Layer inception_4c/relu_5x5_reduce
I0403 19:27:09.329741  9261 net.cpp:425] inception_4c/relu_5x5_reduce <- inception_4c/5x5_reduce
I0403 19:27:09.329758  9261 net.cpp:386] inception_4c/relu_5x5_reduce -> inception_4c/5x5_reduce (in-place)
I0403 19:27:09.329943  9261 net.cpp:141] Setting up inception_4c/relu_5x5_reduce
I0403 19:27:09.329969  9261 net.cpp:148] Top shape: 24 24 14 14 (112896)
I0403 19:27:09.329985  9261 net.cpp:156] Memory required for data: 1048562976
I0403 19:27:09.329999  9261 layer_factory.hpp:77] Creating layer inception_4c/5x5
I0403 19:27:09.330021  9261 net.cpp:91] Creating Layer inception_4c/5x5
I0403 19:27:09.330039  9261 net.cpp:425] inception_4c/5x5 <- inception_4c/5x5_reduce
I0403 19:27:09.330057  9261 net.cpp:399] inception_4c/5x5 -> inception_4c/5x5
I0403 19:27:09.331344  9261 net.cpp:141] Setting up inception_4c/5x5
I0403 19:27:09.331377  9261 net.cpp:148] Top shape: 24 64 14 14 (301056)
I0403 19:27:09.331410  9261 net.cpp:156] Memory required for data: 1049767200
I0403 19:27:09.331429  9261 layer_factory.hpp:77] Creating layer inception_4c/relu_5x5
I0403 19:27:09.331449  9261 net.cpp:91] Creating Layer inception_4c/relu_5x5
I0403 19:27:09.331483  9261 net.cpp:425] inception_4c/relu_5x5 <- inception_4c/5x5
I0403 19:27:09.331507  9261 net.cpp:386] inception_4c/relu_5x5 -> inception_4c/5x5 (in-place)
I0403 19:27:09.331809  9261 net.cpp:141] Setting up inception_4c/relu_5x5
I0403 19:27:09.331848  9261 net.cpp:148] Top shape: 24 64 14 14 (301056)
I0403 19:27:09.331876  9261 net.cpp:156] Memory required for data: 1050971424
I0403 19:27:09.331893  9261 layer_factory.hpp:77] Creating layer inception_4c/pool
I0403 19:27:09.331930  9261 net.cpp:91] Creating Layer inception_4c/pool
I0403 19:27:09.331969  9261 net.cpp:425] inception_4c/pool <- inception_4b/output_inception_4b/output_0_split_3
I0403 19:27:09.332021  9261 net.cpp:399] inception_4c/pool -> inception_4c/pool
I0403 19:27:09.332108  9261 net.cpp:141] Setting up inception_4c/pool
I0403 19:27:09.332132  9261 net.cpp:148] Top shape: 24 512 14 14 (2408448)
I0403 19:27:09.332147  9261 net.cpp:156] Memory required for data: 1060605216
I0403 19:27:09.332162  9261 layer_factory.hpp:77] Creating layer inception_4c/pool_proj
I0403 19:27:09.332185  9261 net.cpp:91] Creating Layer inception_4c/pool_proj
I0403 19:27:09.332202  9261 net.cpp:425] inception_4c/pool_proj <- inception_4c/pool
I0403 19:27:09.332221  9261 net.cpp:399] inception_4c/pool_proj -> inception_4c/pool_proj
I0403 19:27:09.333493  9261 net.cpp:141] Setting up inception_4c/pool_proj
I0403 19:27:09.333523  9261 net.cpp:148] Top shape: 24 64 14 14 (301056)
I0403 19:27:09.333552  9261 net.cpp:156] Memory required for data: 1061809440
I0403 19:27:09.333575  9261 layer_factory.hpp:77] Creating layer inception_4c/relu_pool_proj
I0403 19:27:09.333593  9261 net.cpp:91] Creating Layer inception_4c/relu_pool_proj
I0403 19:27:09.333611  9261 net.cpp:425] inception_4c/relu_pool_proj <- inception_4c/pool_proj
I0403 19:27:09.333627  9261 net.cpp:386] inception_4c/relu_pool_proj -> inception_4c/pool_proj (in-place)
I0403 19:27:09.333812  9261 net.cpp:141] Setting up inception_4c/relu_pool_proj
I0403 19:27:09.333838  9261 net.cpp:148] Top shape: 24 64 14 14 (301056)
I0403 19:27:09.333854  9261 net.cpp:156] Memory required for data: 1063013664
I0403 19:27:09.333869  9261 layer_factory.hpp:77] Creating layer inception_4c/output
I0403 19:27:09.333886  9261 net.cpp:91] Creating Layer inception_4c/output
I0403 19:27:09.333901  9261 net.cpp:425] inception_4c/output <- inception_4c/1x1
I0403 19:27:09.333919  9261 net.cpp:425] inception_4c/output <- inception_4c/3x3
I0403 19:27:09.333933  9261 net.cpp:425] inception_4c/output <- inception_4c/5x5
I0403 19:27:09.333950  9261 net.cpp:425] inception_4c/output <- inception_4c/pool_proj
I0403 19:27:09.333966  9261 net.cpp:399] inception_4c/output -> inception_4c/output
I0403 19:27:09.334014  9261 net.cpp:141] Setting up inception_4c/output
I0403 19:27:09.334036  9261 net.cpp:148] Top shape: 24 512 14 14 (2408448)
I0403 19:27:09.334051  9261 net.cpp:156] Memory required for data: 1072647456
I0403 19:27:09.334065  9261 layer_factory.hpp:77] Creating layer inception_4c/output_inception_4c/output_0_split
I0403 19:27:09.334084  9261 net.cpp:91] Creating Layer inception_4c/output_inception_4c/output_0_split
I0403 19:27:09.334101  9261 net.cpp:425] inception_4c/output_inception_4c/output_0_split <- inception_4c/output
I0403 19:27:09.334120  9261 net.cpp:399] inception_4c/output_inception_4c/output_0_split -> inception_4c/output_inception_4c/output_0_split_0
I0403 19:27:09.334138  9261 net.cpp:399] inception_4c/output_inception_4c/output_0_split -> inception_4c/output_inception_4c/output_0_split_1
I0403 19:27:09.334158  9261 net.cpp:399] inception_4c/output_inception_4c/output_0_split -> inception_4c/output_inception_4c/output_0_split_2
I0403 19:27:09.334179  9261 net.cpp:399] inception_4c/output_inception_4c/output_0_split -> inception_4c/output_inception_4c/output_0_split_3
I0403 19:27:09.334275  9261 net.cpp:141] Setting up inception_4c/output_inception_4c/output_0_split
I0403 19:27:09.334300  9261 net.cpp:148] Top shape: 24 512 14 14 (2408448)
I0403 19:27:09.334316  9261 net.cpp:148] Top shape: 24 512 14 14 (2408448)
I0403 19:27:09.334331  9261 net.cpp:148] Top shape: 24 512 14 14 (2408448)
I0403 19:27:09.334347  9261 net.cpp:148] Top shape: 24 512 14 14 (2408448)
I0403 19:27:09.334362  9261 net.cpp:156] Memory required for data: 1111182624
I0403 19:27:09.334377  9261 layer_factory.hpp:77] Creating layer inception_4d/1x1
I0403 19:27:09.334398  9261 net.cpp:91] Creating Layer inception_4d/1x1
I0403 19:27:09.334415  9261 net.cpp:425] inception_4d/1x1 <- inception_4c/output_inception_4c/output_0_split_0
I0403 19:27:09.334437  9261 net.cpp:399] inception_4d/1x1 -> inception_4d/1x1
I0403 19:27:09.335822  9261 net.cpp:141] Setting up inception_4d/1x1
I0403 19:27:09.335851  9261 net.cpp:148] Top shape: 24 112 14 14 (526848)
I0403 19:27:09.335867  9261 net.cpp:156] Memory required for data: 1113290016
I0403 19:27:09.335887  9261 layer_factory.hpp:77] Creating layer inception_4d/relu_1x1
I0403 19:27:09.335906  9261 net.cpp:91] Creating Layer inception_4d/relu_1x1
I0403 19:27:09.335921  9261 net.cpp:425] inception_4d/relu_1x1 <- inception_4d/1x1
I0403 19:27:09.335939  9261 net.cpp:386] inception_4d/relu_1x1 -> inception_4d/1x1 (in-place)
I0403 19:27:09.336124  9261 net.cpp:141] Setting up inception_4d/relu_1x1
I0403 19:27:09.336149  9261 net.cpp:148] Top shape: 24 112 14 14 (526848)
I0403 19:27:09.336163  9261 net.cpp:156] Memory required for data: 1115397408
I0403 19:27:09.336179  9261 layer_factory.hpp:77] Creating layer inception_4d/3x3_reduce
I0403 19:27:09.336213  9261 net.cpp:91] Creating Layer inception_4d/3x3_reduce
I0403 19:27:09.336231  9261 net.cpp:425] inception_4d/3x3_reduce <- inception_4c/output_inception_4c/output_0_split_1
I0403 19:27:09.336258  9261 net.cpp:399] inception_4d/3x3_reduce -> inception_4d/3x3_reduce
I0403 19:27:09.337801  9261 net.cpp:141] Setting up inception_4d/3x3_reduce
I0403 19:27:09.337832  9261 net.cpp:148] Top shape: 24 144 14 14 (677376)
I0403 19:27:09.337851  9261 net.cpp:156] Memory required for data: 1118106912
I0403 19:27:09.337870  9261 layer_factory.hpp:77] Creating layer inception_4d/relu_3x3_reduce
I0403 19:27:09.337888  9261 net.cpp:91] Creating Layer inception_4d/relu_3x3_reduce
I0403 19:27:09.337905  9261 net.cpp:425] inception_4d/relu_3x3_reduce <- inception_4d/3x3_reduce
I0403 19:27:09.337925  9261 net.cpp:386] inception_4d/relu_3x3_reduce -> inception_4d/3x3_reduce (in-place)
I0403 19:27:09.338214  9261 net.cpp:141] Setting up inception_4d/relu_3x3_reduce
I0403 19:27:09.338246  9261 net.cpp:148] Top shape: 24 144 14 14 (677376)
I0403 19:27:09.338263  9261 net.cpp:156] Memory required for data: 1120816416
I0403 19:27:09.338287  9261 layer_factory.hpp:77] Creating layer inception_4d/3x3
I0403 19:27:09.338310  9261 net.cpp:91] Creating Layer inception_4d/3x3
I0403 19:27:09.338327  9261 net.cpp:425] inception_4d/3x3 <- inception_4d/3x3_reduce
I0403 19:27:09.338346  9261 net.cpp:399] inception_4d/3x3 -> inception_4d/3x3
I0403 19:27:09.342648  9261 net.cpp:141] Setting up inception_4d/3x3
I0403 19:27:09.342679  9261 net.cpp:148] Top shape: 24 288 14 14 (1354752)
I0403 19:27:09.342694  9261 net.cpp:156] Memory required for data: 1126235424
I0403 19:27:09.342715  9261 layer_factory.hpp:77] Creating layer inception_4d/relu_3x3
I0403 19:27:09.342735  9261 net.cpp:91] Creating Layer inception_4d/relu_3x3
I0403 19:27:09.342751  9261 net.cpp:425] inception_4d/relu_3x3 <- inception_4d/3x3
I0403 19:27:09.342769  9261 net.cpp:386] inception_4d/relu_3x3 -> inception_4d/3x3 (in-place)
I0403 19:27:09.342952  9261 net.cpp:141] Setting up inception_4d/relu_3x3
I0403 19:27:09.342978  9261 net.cpp:148] Top shape: 24 288 14 14 (1354752)
I0403 19:27:09.342994  9261 net.cpp:156] Memory required for data: 1131654432
I0403 19:27:09.343009  9261 layer_factory.hpp:77] Creating layer inception_4d/5x5_reduce
I0403 19:27:09.343034  9261 net.cpp:91] Creating Layer inception_4d/5x5_reduce
I0403 19:27:09.343050  9261 net.cpp:425] inception_4d/5x5_reduce <- inception_4c/output_inception_4c/output_0_split_2
I0403 19:27:09.343070  9261 net.cpp:399] inception_4d/5x5_reduce -> inception_4d/5x5_reduce
I0403 19:27:09.344235  9261 net.cpp:141] Setting up inception_4d/5x5_reduce
I0403 19:27:09.344269  9261 net.cpp:148] Top shape: 24 32 14 14 (150528)
I0403 19:27:09.344286  9261 net.cpp:156] Memory required for data: 1132256544
I0403 19:27:09.344305  9261 layer_factory.hpp:77] Creating layer inception_4d/relu_5x5_reduce
I0403 19:27:09.344326  9261 net.cpp:91] Creating Layer inception_4d/relu_5x5_reduce
I0403 19:27:09.344346  9261 net.cpp:425] inception_4d/relu_5x5_reduce <- inception_4d/5x5_reduce
I0403 19:27:09.344363  9261 net.cpp:386] inception_4d/relu_5x5_reduce -> inception_4d/5x5_reduce (in-place)
I0403 19:27:09.344550  9261 net.cpp:141] Setting up inception_4d/relu_5x5_reduce
I0403 19:27:09.344575  9261 net.cpp:148] Top shape: 24 32 14 14 (150528)
I0403 19:27:09.344590  9261 net.cpp:156] Memory required for data: 1132858656
I0403 19:27:09.344605  9261 layer_factory.hpp:77] Creating layer inception_4d/5x5
I0403 19:27:09.344629  9261 net.cpp:91] Creating Layer inception_4d/5x5
I0403 19:27:09.344646  9261 net.cpp:425] inception_4d/5x5 <- inception_4d/5x5_reduce
I0403 19:27:09.344669  9261 net.cpp:399] inception_4d/5x5 -> inception_4d/5x5
I0403 19:27:09.346153  9261 net.cpp:141] Setting up inception_4d/5x5
I0403 19:27:09.346186  9261 net.cpp:148] Top shape: 24 64 14 14 (301056)
I0403 19:27:09.346204  9261 net.cpp:156] Memory required for data: 1134062880
I0403 19:27:09.346222  9261 layer_factory.hpp:77] Creating layer inception_4d/relu_5x5
I0403 19:27:09.346259  9261 net.cpp:91] Creating Layer inception_4d/relu_5x5
I0403 19:27:09.346276  9261 net.cpp:425] inception_4d/relu_5x5 <- inception_4d/5x5
I0403 19:27:09.346294  9261 net.cpp:386] inception_4d/relu_5x5 -> inception_4d/5x5 (in-place)
I0403 19:27:09.346596  9261 net.cpp:141] Setting up inception_4d/relu_5x5
I0403 19:27:09.346626  9261 net.cpp:148] Top shape: 24 64 14 14 (301056)
I0403 19:27:09.346642  9261 net.cpp:156] Memory required for data: 1135267104
I0403 19:27:09.346657  9261 layer_factory.hpp:77] Creating layer inception_4d/pool
I0403 19:27:09.346674  9261 net.cpp:91] Creating Layer inception_4d/pool
I0403 19:27:09.346689  9261 net.cpp:425] inception_4d/pool <- inception_4c/output_inception_4c/output_0_split_3
I0403 19:27:09.346709  9261 net.cpp:399] inception_4d/pool -> inception_4d/pool
I0403 19:27:09.346776  9261 net.cpp:141] Setting up inception_4d/pool
I0403 19:27:09.346798  9261 net.cpp:148] Top shape: 24 512 14 14 (2408448)
I0403 19:27:09.346813  9261 net.cpp:156] Memory required for data: 1144900896
I0403 19:27:09.346827  9261 layer_factory.hpp:77] Creating layer inception_4d/pool_proj
I0403 19:27:09.346849  9261 net.cpp:91] Creating Layer inception_4d/pool_proj
I0403 19:27:09.346866  9261 net.cpp:425] inception_4d/pool_proj <- inception_4d/pool
I0403 19:27:09.346889  9261 net.cpp:399] inception_4d/pool_proj -> inception_4d/pool_proj
I0403 19:27:09.348675  9261 net.cpp:141] Setting up inception_4d/pool_proj
I0403 19:27:09.348704  9261 net.cpp:148] Top shape: 24 64 14 14 (301056)
I0403 19:27:09.348721  9261 net.cpp:156] Memory required for data: 1146105120
I0403 19:27:09.348738  9261 layer_factory.hpp:77] Creating layer inception_4d/relu_pool_proj
I0403 19:27:09.348758  9261 net.cpp:91] Creating Layer inception_4d/relu_pool_proj
I0403 19:27:09.348774  9261 net.cpp:425] inception_4d/relu_pool_proj <- inception_4d/pool_proj
I0403 19:27:09.348791  9261 net.cpp:386] inception_4d/relu_pool_proj -> inception_4d/pool_proj (in-place)
I0403 19:27:09.348973  9261 net.cpp:141] Setting up inception_4d/relu_pool_proj
I0403 19:27:09.348997  9261 net.cpp:148] Top shape: 24 64 14 14 (301056)
I0403 19:27:09.349011  9261 net.cpp:156] Memory required for data: 1147309344
I0403 19:27:09.349025  9261 layer_factory.hpp:77] Creating layer inception_4d/output
I0403 19:27:09.349045  9261 net.cpp:91] Creating Layer inception_4d/output
I0403 19:27:09.349061  9261 net.cpp:425] inception_4d/output <- inception_4d/1x1
I0403 19:27:09.349076  9261 net.cpp:425] inception_4d/output <- inception_4d/3x3
I0403 19:27:09.349092  9261 net.cpp:425] inception_4d/output <- inception_4d/5x5
I0403 19:27:09.349107  9261 net.cpp:425] inception_4d/output <- inception_4d/pool_proj
I0403 19:27:09.349123  9261 net.cpp:399] inception_4d/output -> inception_4d/output
I0403 19:27:09.349171  9261 net.cpp:141] Setting up inception_4d/output
I0403 19:27:09.349194  9261 net.cpp:148] Top shape: 24 528 14 14 (2483712)
I0403 19:27:09.349208  9261 net.cpp:156] Memory required for data: 1157244192
I0403 19:27:09.349222  9261 layer_factory.hpp:77] Creating layer inception_4d/output_inception_4d/output_0_split
I0403 19:27:09.349242  9261 net.cpp:91] Creating Layer inception_4d/output_inception_4d/output_0_split
I0403 19:27:09.349258  9261 net.cpp:425] inception_4d/output_inception_4d/output_0_split <- inception_4d/output
I0403 19:27:09.349278  9261 net.cpp:399] inception_4d/output_inception_4d/output_0_split -> inception_4d/output_inception_4d/output_0_split_0
I0403 19:27:09.349299  9261 net.cpp:399] inception_4d/output_inception_4d/output_0_split -> inception_4d/output_inception_4d/output_0_split_1
I0403 19:27:09.349319  9261 net.cpp:399] inception_4d/output_inception_4d/output_0_split -> inception_4d/output_inception_4d/output_0_split_2
I0403 19:27:09.349342  9261 net.cpp:399] inception_4d/output_inception_4d/output_0_split -> inception_4d/output_inception_4d/output_0_split_3
I0403 19:27:09.349365  9261 net.cpp:399] inception_4d/output_inception_4d/output_0_split -> inception_4d/output_inception_4d/output_0_split_4
I0403 19:27:09.349467  9261 net.cpp:141] Setting up inception_4d/output_inception_4d/output_0_split
I0403 19:27:09.349500  9261 net.cpp:148] Top shape: 24 528 14 14 (2483712)
I0403 19:27:09.349517  9261 net.cpp:148] Top shape: 24 528 14 14 (2483712)
I0403 19:27:09.349532  9261 net.cpp:148] Top shape: 24 528 14 14 (2483712)
I0403 19:27:09.349548  9261 net.cpp:148] Top shape: 24 528 14 14 (2483712)
I0403 19:27:09.349563  9261 net.cpp:148] Top shape: 24 528 14 14 (2483712)
I0403 19:27:09.349577  9261 net.cpp:156] Memory required for data: 1206918432
I0403 19:27:09.349592  9261 layer_factory.hpp:77] Creating layer loss2/ave_pool
I0403 19:27:09.349609  9261 net.cpp:91] Creating Layer loss2/ave_pool
I0403 19:27:09.349624  9261 net.cpp:425] loss2/ave_pool <- inception_4d/output_inception_4d/output_0_split_0
I0403 19:27:09.349644  9261 net.cpp:399] loss2/ave_pool -> loss2/ave_pool
I0403 19:27:09.349948  9261 net.cpp:141] Setting up loss2/ave_pool
I0403 19:27:09.349975  9261 net.cpp:148] Top shape: 24 528 4 4 (202752)
I0403 19:27:09.349990  9261 net.cpp:156] Memory required for data: 1207729440
I0403 19:27:09.350004  9261 layer_factory.hpp:77] Creating layer loss2/conv
I0403 19:27:09.350026  9261 net.cpp:91] Creating Layer loss2/conv
I0403 19:27:09.350044  9261 net.cpp:425] loss2/conv <- loss2/ave_pool
I0403 19:27:09.350064  9261 net.cpp:399] loss2/conv -> loss2/conv
I0403 19:27:09.351907  9261 net.cpp:141] Setting up loss2/conv
I0403 19:27:09.351936  9261 net.cpp:148] Top shape: 24 128 4 4 (49152)
I0403 19:27:09.351953  9261 net.cpp:156] Memory required for data: 1207926048
I0403 19:27:09.351975  9261 layer_factory.hpp:77] Creating layer loss2/relu_conv
I0403 19:27:09.351994  9261 net.cpp:91] Creating Layer loss2/relu_conv
I0403 19:27:09.352010  9261 net.cpp:425] loss2/relu_conv <- loss2/conv
I0403 19:27:09.352027  9261 net.cpp:386] loss2/relu_conv -> loss2/conv (in-place)
I0403 19:27:09.352310  9261 net.cpp:141] Setting up loss2/relu_conv
I0403 19:27:09.352339  9261 net.cpp:148] Top shape: 24 128 4 4 (49152)
I0403 19:27:09.352354  9261 net.cpp:156] Memory required for data: 1208122656
I0403 19:27:09.352370  9261 layer_factory.hpp:77] Creating layer loss2/fc
I0403 19:27:09.352387  9261 net.cpp:91] Creating Layer loss2/fc
I0403 19:27:09.352403  9261 net.cpp:425] loss2/fc <- loss2/conv
I0403 19:27:09.352424  9261 net.cpp:399] loss2/fc -> loss2/fc
I0403 19:27:09.370141  9261 net.cpp:141] Setting up loss2/fc
I0403 19:27:09.370179  9261 net.cpp:148] Top shape: 24 1024 (24576)
I0403 19:27:09.370195  9261 net.cpp:156] Memory required for data: 1208220960
I0403 19:27:09.370216  9261 layer_factory.hpp:77] Creating layer loss2/relu_fc
I0403 19:27:09.370239  9261 net.cpp:91] Creating Layer loss2/relu_fc
I0403 19:27:09.370261  9261 net.cpp:425] loss2/relu_fc <- loss2/fc
I0403 19:27:09.370280  9261 net.cpp:386] loss2/relu_fc -> loss2/fc (in-place)
I0403 19:27:09.370615  9261 net.cpp:141] Setting up loss2/relu_fc
I0403 19:27:09.370643  9261 net.cpp:148] Top shape: 24 1024 (24576)
I0403 19:27:09.370658  9261 net.cpp:156] Memory required for data: 1208319264
I0403 19:27:09.370682  9261 layer_factory.hpp:77] Creating layer loss2/drop_fc
I0403 19:27:09.370702  9261 net.cpp:91] Creating Layer loss2/drop_fc
I0403 19:27:09.370719  9261 net.cpp:425] loss2/drop_fc <- loss2/fc
I0403 19:27:09.370738  9261 net.cpp:386] loss2/drop_fc -> loss2/fc (in-place)
I0403 19:27:09.370789  9261 net.cpp:141] Setting up loss2/drop_fc
I0403 19:27:09.370811  9261 net.cpp:148] Top shape: 24 1024 (24576)
I0403 19:27:09.370826  9261 net.cpp:156] Memory required for data: 1208417568
I0403 19:27:09.370841  9261 layer_factory.hpp:77] Creating layer loss2/classifier_plantvillage
I0403 19:27:09.370859  9261 net.cpp:91] Creating Layer loss2/classifier_plantvillage
I0403 19:27:09.370874  9261 net.cpp:425] loss2/classifier_plantvillage <- loss2/fc
I0403 19:27:09.370896  9261 net.cpp:399] loss2/classifier_plantvillage -> loss2/classifier_plantvillage
I0403 19:27:09.371311  9261 net.cpp:141] Setting up loss2/classifier_plantvillage
I0403 19:27:09.371336  9261 net.cpp:148] Top shape: 24 38 (912)
I0403 19:27:09.371351  9261 net.cpp:156] Memory required for data: 1208421216
I0403 19:27:09.371393  9261 layer_factory.hpp:77] Creating layer loss2/classifier_plantvillage_loss2/classifier_plantvillage_0_split
I0403 19:27:09.371415  9261 net.cpp:91] Creating Layer loss2/classifier_plantvillage_loss2/classifier_plantvillage_0_split
I0403 19:27:09.371433  9261 net.cpp:425] loss2/classifier_plantvillage_loss2/classifier_plantvillage_0_split <- loss2/classifier_plantvillage
I0403 19:27:09.371454  9261 net.cpp:399] loss2/classifier_plantvillage_loss2/classifier_plantvillage_0_split -> loss2/classifier_plantvillage_loss2/classifier_plantvillage_0_split_0
I0403 19:27:09.371474  9261 net.cpp:399] loss2/classifier_plantvillage_loss2/classifier_plantvillage_0_split -> loss2/classifier_plantvillage_loss2/classifier_plantvillage_0_split_1
I0403 19:27:09.371495  9261 net.cpp:399] loss2/classifier_plantvillage_loss2/classifier_plantvillage_0_split -> loss2/classifier_plantvillage_loss2/classifier_plantvillage_0_split_2
I0403 19:27:09.371572  9261 net.cpp:141] Setting up loss2/classifier_plantvillage_loss2/classifier_plantvillage_0_split
I0403 19:27:09.371594  9261 net.cpp:148] Top shape: 24 38 (912)
I0403 19:27:09.371610  9261 net.cpp:148] Top shape: 24 38 (912)
I0403 19:27:09.371626  9261 net.cpp:148] Top shape: 24 38 (912)
I0403 19:27:09.371640  9261 net.cpp:156] Memory required for data: 1208432160
I0403 19:27:09.371654  9261 layer_factory.hpp:77] Creating layer inception_4e/1x1
I0403 19:27:09.371677  9261 net.cpp:91] Creating Layer inception_4e/1x1
I0403 19:27:09.371695  9261 net.cpp:425] inception_4e/1x1 <- inception_4d/output_inception_4d/output_0_split_1
I0403 19:27:09.371714  9261 net.cpp:399] inception_4e/1x1 -> inception_4e/1x1
I0403 19:27:09.373582  9261 net.cpp:141] Setting up inception_4e/1x1
I0403 19:27:09.373615  9261 net.cpp:148] Top shape: 24 256 14 14 (1204224)
I0403 19:27:09.373632  9261 net.cpp:156] Memory required for data: 1213249056
I0403 19:27:09.373651  9261 layer_factory.hpp:77] Creating layer inception_4e/relu_1x1
I0403 19:27:09.373670  9261 net.cpp:91] Creating Layer inception_4e/relu_1x1
I0403 19:27:09.373687  9261 net.cpp:425] inception_4e/relu_1x1 <- inception_4e/1x1
I0403 19:27:09.373706  9261 net.cpp:386] inception_4e/relu_1x1 -> inception_4e/1x1 (in-place)
I0403 19:27:09.374009  9261 net.cpp:141] Setting up inception_4e/relu_1x1
I0403 19:27:09.374038  9261 net.cpp:148] Top shape: 24 256 14 14 (1204224)
I0403 19:27:09.374056  9261 net.cpp:156] Memory required for data: 1218065952
I0403 19:27:09.374073  9261 layer_factory.hpp:77] Creating layer inception_4e/3x3_reduce
I0403 19:27:09.374095  9261 net.cpp:91] Creating Layer inception_4e/3x3_reduce
I0403 19:27:09.374114  9261 net.cpp:425] inception_4e/3x3_reduce <- inception_4d/output_inception_4d/output_0_split_2
I0403 19:27:09.374135  9261 net.cpp:399] inception_4e/3x3_reduce -> inception_4e/3x3_reduce
I0403 19:27:09.376291  9261 net.cpp:141] Setting up inception_4e/3x3_reduce
I0403 19:27:09.376320  9261 net.cpp:148] Top shape: 24 160 14 14 (752640)
I0403 19:27:09.376338  9261 net.cpp:156] Memory required for data: 1221076512
I0403 19:27:09.376358  9261 layer_factory.hpp:77] Creating layer inception_4e/relu_3x3_reduce
I0403 19:27:09.376379  9261 net.cpp:91] Creating Layer inception_4e/relu_3x3_reduce
I0403 19:27:09.376394  9261 net.cpp:425] inception_4e/relu_3x3_reduce <- inception_4e/3x3_reduce
I0403 19:27:09.376413  9261 net.cpp:386] inception_4e/relu_3x3_reduce -> inception_4e/3x3_reduce (in-place)
I0403 19:27:09.376603  9261 net.cpp:141] Setting up inception_4e/relu_3x3_reduce
I0403 19:27:09.376629  9261 net.cpp:148] Top shape: 24 160 14 14 (752640)
I0403 19:27:09.376646  9261 net.cpp:156] Memory required for data: 1224087072
I0403 19:27:09.376660  9261 layer_factory.hpp:77] Creating layer inception_4e/3x3
I0403 19:27:09.376683  9261 net.cpp:91] Creating Layer inception_4e/3x3
I0403 19:27:09.376700  9261 net.cpp:425] inception_4e/3x3 <- inception_4e/3x3_reduce
I0403 19:27:09.376724  9261 net.cpp:399] inception_4e/3x3 -> inception_4e/3x3
I0403 19:27:09.381742  9261 net.cpp:141] Setting up inception_4e/3x3
I0403 19:27:09.381785  9261 net.cpp:148] Top shape: 24 320 14 14 (1505280)
I0403 19:27:09.381803  9261 net.cpp:156] Memory required for data: 1230108192
I0403 19:27:09.381821  9261 layer_factory.hpp:77] Creating layer inception_4e/relu_3x3
I0403 19:27:09.381840  9261 net.cpp:91] Creating Layer inception_4e/relu_3x3
I0403 19:27:09.381856  9261 net.cpp:425] inception_4e/relu_3x3 <- inception_4e/3x3
I0403 19:27:09.381875  9261 net.cpp:386] inception_4e/relu_3x3 -> inception_4e/3x3 (in-place)
I0403 19:27:09.382181  9261 net.cpp:141] Setting up inception_4e/relu_3x3
I0403 19:27:09.382210  9261 net.cpp:148] Top shape: 24 320 14 14 (1505280)
I0403 19:27:09.382225  9261 net.cpp:156] Memory required for data: 1236129312
I0403 19:27:09.382244  9261 layer_factory.hpp:77] Creating layer inception_4e/5x5_reduce
I0403 19:27:09.382271  9261 net.cpp:91] Creating Layer inception_4e/5x5_reduce
I0403 19:27:09.382290  9261 net.cpp:425] inception_4e/5x5_reduce <- inception_4d/output_inception_4d/output_0_split_3
I0403 19:27:09.382313  9261 net.cpp:399] inception_4e/5x5_reduce -> inception_4e/5x5_reduce
I0403 19:27:09.383399  9261 net.cpp:141] Setting up inception_4e/5x5_reduce
I0403 19:27:09.383431  9261 net.cpp:148] Top shape: 24 32 14 14 (150528)
I0403 19:27:09.383448  9261 net.cpp:156] Memory required for data: 1236731424
I0403 19:27:09.383468  9261 layer_factory.hpp:77] Creating layer inception_4e/relu_5x5_reduce
I0403 19:27:09.383487  9261 net.cpp:91] Creating Layer inception_4e/relu_5x5_reduce
I0403 19:27:09.383505  9261 net.cpp:425] inception_4e/relu_5x5_reduce <- inception_4e/5x5_reduce
I0403 19:27:09.383524  9261 net.cpp:386] inception_4e/relu_5x5_reduce -> inception_4e/5x5_reduce (in-place)
I0403 19:27:09.383822  9261 net.cpp:141] Setting up inception_4e/relu_5x5_reduce
I0403 19:27:09.383852  9261 net.cpp:148] Top shape: 24 32 14 14 (150528)
I0403 19:27:09.383869  9261 net.cpp:156] Memory required for data: 1237333536
I0403 19:27:09.383885  9261 layer_factory.hpp:77] Creating layer inception_4e/5x5
I0403 19:27:09.383926  9261 net.cpp:91] Creating Layer inception_4e/5x5
I0403 19:27:09.383945  9261 net.cpp:425] inception_4e/5x5 <- inception_4e/5x5_reduce
I0403 19:27:09.383965  9261 net.cpp:399] inception_4e/5x5 -> inception_4e/5x5
I0403 19:27:09.385813  9261 net.cpp:141] Setting up inception_4e/5x5
I0403 19:27:09.385843  9261 net.cpp:148] Top shape: 24 128 14 14 (602112)
I0403 19:27:09.385860  9261 net.cpp:156] Memory required for data: 1239741984
I0403 19:27:09.385881  9261 layer_factory.hpp:77] Creating layer inception_4e/relu_5x5
I0403 19:27:09.385901  9261 net.cpp:91] Creating Layer inception_4e/relu_5x5
I0403 19:27:09.385920  9261 net.cpp:425] inception_4e/relu_5x5 <- inception_4e/5x5
I0403 19:27:09.385937  9261 net.cpp:386] inception_4e/relu_5x5 -> inception_4e/5x5 (in-place)
I0403 19:27:09.386137  9261 net.cpp:141] Setting up inception_4e/relu_5x5
I0403 19:27:09.386165  9261 net.cpp:148] Top shape: 24 128 14 14 (602112)
I0403 19:27:09.386183  9261 net.cpp:156] Memory required for data: 1242150432
I0403 19:27:09.386199  9261 layer_factory.hpp:77] Creating layer inception_4e/pool
I0403 19:27:09.386219  9261 net.cpp:91] Creating Layer inception_4e/pool
I0403 19:27:09.386235  9261 net.cpp:425] inception_4e/pool <- inception_4d/output_inception_4d/output_0_split_4
I0403 19:27:09.386261  9261 net.cpp:399] inception_4e/pool -> inception_4e/pool
I0403 19:27:09.386334  9261 net.cpp:141] Setting up inception_4e/pool
I0403 19:27:09.386359  9261 net.cpp:148] Top shape: 24 528 14 14 (2483712)
I0403 19:27:09.386374  9261 net.cpp:156] Memory required for data: 1252085280
I0403 19:27:09.386389  9261 layer_factory.hpp:77] Creating layer inception_4e/pool_proj
I0403 19:27:09.386412  9261 net.cpp:91] Creating Layer inception_4e/pool_proj
I0403 19:27:09.386430  9261 net.cpp:425] inception_4e/pool_proj <- inception_4e/pool
I0403 19:27:09.386452  9261 net.cpp:399] inception_4e/pool_proj -> inception_4e/pool_proj
I0403 19:27:09.387960  9261 net.cpp:141] Setting up inception_4e/pool_proj
I0403 19:27:09.387989  9261 net.cpp:148] Top shape: 24 128 14 14 (602112)
I0403 19:27:09.388020  9261 net.cpp:156] Memory required for data: 1254493728
I0403 19:27:09.388041  9261 layer_factory.hpp:77] Creating layer inception_4e/relu_pool_proj
I0403 19:27:09.388061  9261 net.cpp:91] Creating Layer inception_4e/relu_pool_proj
I0403 19:27:09.388078  9261 net.cpp:425] inception_4e/relu_pool_proj <- inception_4e/pool_proj
I0403 19:27:09.388097  9261 net.cpp:386] inception_4e/relu_pool_proj -> inception_4e/pool_proj (in-place)
I0403 19:27:09.388396  9261 net.cpp:141] Setting up inception_4e/relu_pool_proj
I0403 19:27:09.388423  9261 net.cpp:148] Top shape: 24 128 14 14 (602112)
I0403 19:27:09.388439  9261 net.cpp:156] Memory required for data: 1256902176
I0403 19:27:09.388454  9261 layer_factory.hpp:77] Creating layer inception_4e/output
I0403 19:27:09.388473  9261 net.cpp:91] Creating Layer inception_4e/output
I0403 19:27:09.388492  9261 net.cpp:425] inception_4e/output <- inception_4e/1x1
I0403 19:27:09.388509  9261 net.cpp:425] inception_4e/output <- inception_4e/3x3
I0403 19:27:09.388525  9261 net.cpp:425] inception_4e/output <- inception_4e/5x5
I0403 19:27:09.388541  9261 net.cpp:425] inception_4e/output <- inception_4e/pool_proj
I0403 19:27:09.388558  9261 net.cpp:399] inception_4e/output -> inception_4e/output
I0403 19:27:09.388607  9261 net.cpp:141] Setting up inception_4e/output
I0403 19:27:09.388633  9261 net.cpp:148] Top shape: 24 832 14 14 (3913728)
I0403 19:27:09.388648  9261 net.cpp:156] Memory required for data: 1272557088
I0403 19:27:09.388664  9261 layer_factory.hpp:77] Creating layer pool4/3x3_s2
I0403 19:27:09.388681  9261 net.cpp:91] Creating Layer pool4/3x3_s2
I0403 19:27:09.388697  9261 net.cpp:425] pool4/3x3_s2 <- inception_4e/output
I0403 19:27:09.388717  9261 net.cpp:399] pool4/3x3_s2 -> pool4/3x3_s2
I0403 19:27:09.388785  9261 net.cpp:141] Setting up pool4/3x3_s2
I0403 19:27:09.388811  9261 net.cpp:148] Top shape: 24 832 7 7 (978432)
I0403 19:27:09.388826  9261 net.cpp:156] Memory required for data: 1276470816
I0403 19:27:09.388841  9261 layer_factory.hpp:77] Creating layer pool4/3x3_s2_pool4/3x3_s2_0_split
I0403 19:27:09.388860  9261 net.cpp:91] Creating Layer pool4/3x3_s2_pool4/3x3_s2_0_split
I0403 19:27:09.388875  9261 net.cpp:425] pool4/3x3_s2_pool4/3x3_s2_0_split <- pool4/3x3_s2
I0403 19:27:09.388893  9261 net.cpp:399] pool4/3x3_s2_pool4/3x3_s2_0_split -> pool4/3x3_s2_pool4/3x3_s2_0_split_0
I0403 19:27:09.388913  9261 net.cpp:399] pool4/3x3_s2_pool4/3x3_s2_0_split -> pool4/3x3_s2_pool4/3x3_s2_0_split_1
I0403 19:27:09.388936  9261 net.cpp:399] pool4/3x3_s2_pool4/3x3_s2_0_split -> pool4/3x3_s2_pool4/3x3_s2_0_split_2
I0403 19:27:09.388957  9261 net.cpp:399] pool4/3x3_s2_pool4/3x3_s2_0_split -> pool4/3x3_s2_pool4/3x3_s2_0_split_3
I0403 19:27:09.389048  9261 net.cpp:141] Setting up pool4/3x3_s2_pool4/3x3_s2_0_split
I0403 19:27:09.389072  9261 net.cpp:148] Top shape: 24 832 7 7 (978432)
I0403 19:27:09.389088  9261 net.cpp:148] Top shape: 24 832 7 7 (978432)
I0403 19:27:09.389103  9261 net.cpp:148] Top shape: 24 832 7 7 (978432)
I0403 19:27:09.389119  9261 net.cpp:148] Top shape: 24 832 7 7 (978432)
I0403 19:27:09.389133  9261 net.cpp:156] Memory required for data: 1292125728
I0403 19:27:09.389147  9261 layer_factory.hpp:77] Creating layer inception_5a/1x1
I0403 19:27:09.389170  9261 net.cpp:91] Creating Layer inception_5a/1x1
I0403 19:27:09.389188  9261 net.cpp:425] inception_5a/1x1 <- pool4/3x3_s2_pool4/3x3_s2_0_split_0
I0403 19:27:09.389207  9261 net.cpp:399] inception_5a/1x1 -> inception_5a/1x1
I0403 19:27:09.392120  9261 net.cpp:141] Setting up inception_5a/1x1
I0403 19:27:09.392151  9261 net.cpp:148] Top shape: 24 256 7 7 (301056)
I0403 19:27:09.392168  9261 net.cpp:156] Memory required for data: 1293329952
I0403 19:27:09.392186  9261 layer_factory.hpp:77] Creating layer inception_5a/relu_1x1
I0403 19:27:09.392207  9261 net.cpp:91] Creating Layer inception_5a/relu_1x1
I0403 19:27:09.392225  9261 net.cpp:425] inception_5a/relu_1x1 <- inception_5a/1x1
I0403 19:27:09.392261  9261 net.cpp:386] inception_5a/relu_1x1 -> inception_5a/1x1 (in-place)
I0403 19:27:09.392596  9261 net.cpp:141] Setting up inception_5a/relu_1x1
I0403 19:27:09.392623  9261 net.cpp:148] Top shape: 24 256 7 7 (301056)
I0403 19:27:09.392638  9261 net.cpp:156] Memory required for data: 1294534176
I0403 19:27:09.392653  9261 layer_factory.hpp:77] Creating layer inception_5a/3x3_reduce
I0403 19:27:09.392675  9261 net.cpp:91] Creating Layer inception_5a/3x3_reduce
I0403 19:27:09.392695  9261 net.cpp:425] inception_5a/3x3_reduce <- pool4/3x3_s2_pool4/3x3_s2_0_split_1
I0403 19:27:09.392714  9261 net.cpp:399] inception_5a/3x3_reduce -> inception_5a/3x3_reduce
I0403 19:27:09.395181  9261 net.cpp:141] Setting up inception_5a/3x3_reduce
I0403 19:27:09.395211  9261 net.cpp:148] Top shape: 24 160 7 7 (188160)
I0403 19:27:09.395228  9261 net.cpp:156] Memory required for data: 1295286816
I0403 19:27:09.395252  9261 layer_factory.hpp:77] Creating layer inception_5a/relu_3x3_reduce
I0403 19:27:09.395275  9261 net.cpp:91] Creating Layer inception_5a/relu_3x3_reduce
I0403 19:27:09.395293  9261 net.cpp:425] inception_5a/relu_3x3_reduce <- inception_5a/3x3_reduce
I0403 19:27:09.395311  9261 net.cpp:386] inception_5a/relu_3x3_reduce -> inception_5a/3x3_reduce (in-place)
I0403 19:27:09.395499  9261 net.cpp:141] Setting up inception_5a/relu_3x3_reduce
I0403 19:27:09.395525  9261 net.cpp:148] Top shape: 24 160 7 7 (188160)
I0403 19:27:09.395542  9261 net.cpp:156] Memory required for data: 1296039456
I0403 19:27:09.395558  9261 layer_factory.hpp:77] Creating layer inception_5a/3x3
I0403 19:27:09.395581  9261 net.cpp:91] Creating Layer inception_5a/3x3
I0403 19:27:09.395599  9261 net.cpp:425] inception_5a/3x3 <- inception_5a/3x3_reduce
I0403 19:27:09.395623  9261 net.cpp:399] inception_5a/3x3 -> inception_5a/3x3
I0403 19:27:09.400723  9261 net.cpp:141] Setting up inception_5a/3x3
I0403 19:27:09.400754  9261 net.cpp:148] Top shape: 24 320 7 7 (376320)
I0403 19:27:09.400782  9261 net.cpp:156] Memory required for data: 1297544736
I0403 19:27:09.400804  9261 layer_factory.hpp:77] Creating layer inception_5a/relu_3x3
I0403 19:27:09.400823  9261 net.cpp:91] Creating Layer inception_5a/relu_3x3
I0403 19:27:09.400840  9261 net.cpp:425] inception_5a/relu_3x3 <- inception_5a/3x3
I0403 19:27:09.400856  9261 net.cpp:386] inception_5a/relu_3x3 -> inception_5a/3x3 (in-place)
I0403 19:27:09.401146  9261 net.cpp:141] Setting up inception_5a/relu_3x3
I0403 19:27:09.401171  9261 net.cpp:148] Top shape: 24 320 7 7 (376320)
I0403 19:27:09.401186  9261 net.cpp:156] Memory required for data: 1299050016
I0403 19:27:09.401201  9261 layer_factory.hpp:77] Creating layer inception_5a/5x5_reduce
I0403 19:27:09.401223  9261 net.cpp:91] Creating Layer inception_5a/5x5_reduce
I0403 19:27:09.401243  9261 net.cpp:425] inception_5a/5x5_reduce <- pool4/3x3_s2_pool4/3x3_s2_0_split_2
I0403 19:27:09.401267  9261 net.cpp:399] inception_5a/5x5_reduce -> inception_5a/5x5_reduce
I0403 19:27:09.402436  9261 net.cpp:141] Setting up inception_5a/5x5_reduce
I0403 19:27:09.402467  9261 net.cpp:148] Top shape: 24 32 7 7 (37632)
I0403 19:27:09.402482  9261 net.cpp:156] Memory required for data: 1299200544
I0403 19:27:09.402503  9261 layer_factory.hpp:77] Creating layer inception_5a/relu_5x5_reduce
I0403 19:27:09.402523  9261 net.cpp:91] Creating Layer inception_5a/relu_5x5_reduce
I0403 19:27:09.402550  9261 net.cpp:425] inception_5a/relu_5x5_reduce <- inception_5a/5x5_reduce
I0403 19:27:09.402567  9261 net.cpp:386] inception_5a/relu_5x5_reduce -> inception_5a/5x5_reduce (in-place)
I0403 19:27:09.402859  9261 net.cpp:141] Setting up inception_5a/relu_5x5_reduce
I0403 19:27:09.402886  9261 net.cpp:148] Top shape: 24 32 7 7 (37632)
I0403 19:27:09.402902  9261 net.cpp:156] Memory required for data: 1299351072
I0403 19:27:09.402916  9261 layer_factory.hpp:77] Creating layer inception_5a/5x5
I0403 19:27:09.402938  9261 net.cpp:91] Creating Layer inception_5a/5x5
I0403 19:27:09.402956  9261 net.cpp:425] inception_5a/5x5 <- inception_5a/5x5_reduce
I0403 19:27:09.402974  9261 net.cpp:399] inception_5a/5x5 -> inception_5a/5x5
I0403 19:27:09.404665  9261 net.cpp:141] Setting up inception_5a/5x5
I0403 19:27:09.404706  9261 net.cpp:148] Top shape: 24 128 7 7 (150528)
I0403 19:27:09.404721  9261 net.cpp:156] Memory required for data: 1299953184
I0403 19:27:09.404739  9261 layer_factory.hpp:77] Creating layer inception_5a/relu_5x5
I0403 19:27:09.404760  9261 net.cpp:91] Creating Layer inception_5a/relu_5x5
I0403 19:27:09.404778  9261 net.cpp:425] inception_5a/relu_5x5 <- inception_5a/5x5
I0403 19:27:09.404795  9261 net.cpp:386] inception_5a/relu_5x5 -> inception_5a/5x5 (in-place)
I0403 19:27:09.404984  9261 net.cpp:141] Setting up inception_5a/relu_5x5
I0403 19:27:09.405011  9261 net.cpp:148] Top shape: 24 128 7 7 (150528)
I0403 19:27:09.405026  9261 net.cpp:156] Memory required for data: 1300555296
I0403 19:27:09.405040  9261 layer_factory.hpp:77] Creating layer inception_5a/pool
I0403 19:27:09.405057  9261 net.cpp:91] Creating Layer inception_5a/pool
I0403 19:27:09.405073  9261 net.cpp:425] inception_5a/pool <- pool4/3x3_s2_pool4/3x3_s2_0_split_3
I0403 19:27:09.405093  9261 net.cpp:399] inception_5a/pool -> inception_5a/pool
I0403 19:27:09.405174  9261 net.cpp:141] Setting up inception_5a/pool
I0403 19:27:09.405200  9261 net.cpp:148] Top shape: 24 832 7 7 (978432)
I0403 19:27:09.405213  9261 net.cpp:156] Memory required for data: 1304469024
I0403 19:27:09.405228  9261 layer_factory.hpp:77] Creating layer inception_5a/pool_proj
I0403 19:27:09.405267  9261 net.cpp:91] Creating Layer inception_5a/pool_proj
I0403 19:27:09.405287  9261 net.cpp:425] inception_5a/pool_proj <- inception_5a/pool
I0403 19:27:09.405308  9261 net.cpp:399] inception_5a/pool_proj -> inception_5a/pool_proj
I0403 19:27:09.407580  9261 net.cpp:141] Setting up inception_5a/pool_proj
I0403 19:27:09.407610  9261 net.cpp:148] Top shape: 24 128 7 7 (150528)
I0403 19:27:09.407626  9261 net.cpp:156] Memory required for data: 1305071136
I0403 19:27:09.407644  9261 layer_factory.hpp:77] Creating layer inception_5a/relu_pool_proj
I0403 19:27:09.407665  9261 net.cpp:91] Creating Layer inception_5a/relu_pool_proj
I0403 19:27:09.407681  9261 net.cpp:425] inception_5a/relu_pool_proj <- inception_5a/pool_proj
I0403 19:27:09.407698  9261 net.cpp:386] inception_5a/relu_pool_proj -> inception_5a/pool_proj (in-place)
I0403 19:27:09.407984  9261 net.cpp:141] Setting up inception_5a/relu_pool_proj
I0403 19:27:09.408010  9261 net.cpp:148] Top shape: 24 128 7 7 (150528)
I0403 19:27:09.408025  9261 net.cpp:156] Memory required for data: 1305673248
I0403 19:27:09.408041  9261 layer_factory.hpp:77] Creating layer inception_5a/output
I0403 19:27:09.408057  9261 net.cpp:91] Creating Layer inception_5a/output
I0403 19:27:09.408071  9261 net.cpp:425] inception_5a/output <- inception_5a/1x1
I0403 19:27:09.408087  9261 net.cpp:425] inception_5a/output <- inception_5a/3x3
I0403 19:27:09.408103  9261 net.cpp:425] inception_5a/output <- inception_5a/5x5
I0403 19:27:09.408118  9261 net.cpp:425] inception_5a/output <- inception_5a/pool_proj
I0403 19:27:09.408139  9261 net.cpp:399] inception_5a/output -> inception_5a/output
I0403 19:27:09.408191  9261 net.cpp:141] Setting up inception_5a/output
I0403 19:27:09.408216  9261 net.cpp:148] Top shape: 24 832 7 7 (978432)
I0403 19:27:09.408229  9261 net.cpp:156] Memory required for data: 1309586976
I0403 19:27:09.408247  9261 layer_factory.hpp:77] Creating layer inception_5a/output_inception_5a/output_0_split
I0403 19:27:09.408265  9261 net.cpp:91] Creating Layer inception_5a/output_inception_5a/output_0_split
I0403 19:27:09.408280  9261 net.cpp:425] inception_5a/output_inception_5a/output_0_split <- inception_5a/output
I0403 19:27:09.408300  9261 net.cpp:399] inception_5a/output_inception_5a/output_0_split -> inception_5a/output_inception_5a/output_0_split_0
I0403 19:27:09.408320  9261 net.cpp:399] inception_5a/output_inception_5a/output_0_split -> inception_5a/output_inception_5a/output_0_split_1
I0403 19:27:09.408339  9261 net.cpp:399] inception_5a/output_inception_5a/output_0_split -> inception_5a/output_inception_5a/output_0_split_2
I0403 19:27:09.408359  9261 net.cpp:399] inception_5a/output_inception_5a/output_0_split -> inception_5a/output_inception_5a/output_0_split_3
I0403 19:27:09.408468  9261 net.cpp:141] Setting up inception_5a/output_inception_5a/output_0_split
I0403 19:27:09.408491  9261 net.cpp:148] Top shape: 24 832 7 7 (978432)
I0403 19:27:09.408507  9261 net.cpp:148] Top shape: 24 832 7 7 (978432)
I0403 19:27:09.408524  9261 net.cpp:148] Top shape: 24 832 7 7 (978432)
I0403 19:27:09.408538  9261 net.cpp:148] Top shape: 24 832 7 7 (978432)
I0403 19:27:09.408552  9261 net.cpp:156] Memory required for data: 1325241888
I0403 19:27:09.408566  9261 layer_factory.hpp:77] Creating layer inception_5b/1x1
I0403 19:27:09.408589  9261 net.cpp:91] Creating Layer inception_5b/1x1
I0403 19:27:09.408607  9261 net.cpp:425] inception_5b/1x1 <- inception_5a/output_inception_5a/output_0_split_0
I0403 19:27:09.408624  9261 net.cpp:399] inception_5b/1x1 -> inception_5b/1x1
I0403 19:27:09.412480  9261 net.cpp:141] Setting up inception_5b/1x1
I0403 19:27:09.412509  9261 net.cpp:148] Top shape: 24 384 7 7 (451584)
I0403 19:27:09.412525  9261 net.cpp:156] Memory required for data: 1327048224
I0403 19:27:09.412544  9261 layer_factory.hpp:77] Creating layer inception_5b/relu_1x1
I0403 19:27:09.412564  9261 net.cpp:91] Creating Layer inception_5b/relu_1x1
I0403 19:27:09.412583  9261 net.cpp:425] inception_5b/relu_1x1 <- inception_5b/1x1
I0403 19:27:09.412600  9261 net.cpp:386] inception_5b/relu_1x1 -> inception_5b/1x1 (in-place)
I0403 19:27:09.412899  9261 net.cpp:141] Setting up inception_5b/relu_1x1
I0403 19:27:09.412925  9261 net.cpp:148] Top shape: 24 384 7 7 (451584)
I0403 19:27:09.412938  9261 net.cpp:156] Memory required for data: 1328854560
I0403 19:27:09.412952  9261 layer_factory.hpp:77] Creating layer inception_5b/3x3_reduce
I0403 19:27:09.412974  9261 net.cpp:91] Creating Layer inception_5b/3x3_reduce
I0403 19:27:09.412992  9261 net.cpp:425] inception_5b/3x3_reduce <- inception_5a/output_inception_5a/output_0_split_1
I0403 19:27:09.413012  9261 net.cpp:399] inception_5b/3x3_reduce -> inception_5b/3x3_reduce
I0403 19:27:09.415647  9261 net.cpp:141] Setting up inception_5b/3x3_reduce
I0403 19:27:09.415676  9261 net.cpp:148] Top shape: 24 192 7 7 (225792)
I0403 19:27:09.415693  9261 net.cpp:156] Memory required for data: 1329757728
I0403 19:27:09.415712  9261 layer_factory.hpp:77] Creating layer inception_5b/relu_3x3_reduce
I0403 19:27:09.415732  9261 net.cpp:91] Creating Layer inception_5b/relu_3x3_reduce
I0403 19:27:09.415750  9261 net.cpp:425] inception_5b/relu_3x3_reduce <- inception_5b/3x3_reduce
I0403 19:27:09.415767  9261 net.cpp:386] inception_5b/relu_3x3_reduce -> inception_5b/3x3_reduce (in-place)
I0403 19:27:09.415954  9261 net.cpp:141] Setting up inception_5b/relu_3x3_reduce
I0403 19:27:09.415979  9261 net.cpp:148] Top shape: 24 192 7 7 (225792)
I0403 19:27:09.415997  9261 net.cpp:156] Memory required for data: 1330660896
I0403 19:27:09.416013  9261 layer_factory.hpp:77] Creating layer inception_5b/3x3
I0403 19:27:09.416031  9261 net.cpp:91] Creating Layer inception_5b/3x3
I0403 19:27:09.416048  9261 net.cpp:425] inception_5b/3x3 <- inception_5b/3x3_reduce
I0403 19:27:09.416067  9261 net.cpp:399] inception_5b/3x3 -> inception_5b/3x3
I0403 19:27:09.422793  9261 net.cpp:141] Setting up inception_5b/3x3
I0403 19:27:09.422824  9261 net.cpp:148] Top shape: 24 384 7 7 (451584)
I0403 19:27:09.422842  9261 net.cpp:156] Memory required for data: 1332467232
I0403 19:27:09.422863  9261 layer_factory.hpp:77] Creating layer inception_5b/relu_3x3
I0403 19:27:09.422883  9261 net.cpp:91] Creating Layer inception_5b/relu_3x3
I0403 19:27:09.422899  9261 net.cpp:425] inception_5b/relu_3x3 <- inception_5b/3x3
I0403 19:27:09.422915  9261 net.cpp:386] inception_5b/relu_3x3 -> inception_5b/3x3 (in-place)
I0403 19:27:09.423207  9261 net.cpp:141] Setting up inception_5b/relu_3x3
I0403 19:27:09.423234  9261 net.cpp:148] Top shape: 24 384 7 7 (451584)
I0403 19:27:09.423252  9261 net.cpp:156] Memory required for data: 1334273568
I0403 19:27:09.423269  9261 layer_factory.hpp:77] Creating layer inception_5b/5x5_reduce
I0403 19:27:09.423305  9261 net.cpp:91] Creating Layer inception_5b/5x5_reduce
I0403 19:27:09.423322  9261 net.cpp:425] inception_5b/5x5_reduce <- inception_5a/output_inception_5a/output_0_split_2
I0403 19:27:09.423344  9261 net.cpp:399] inception_5b/5x5_reduce -> inception_5b/5x5_reduce
I0403 19:27:09.424625  9261 net.cpp:141] Setting up inception_5b/5x5_reduce
I0403 19:27:09.424654  9261 net.cpp:148] Top shape: 24 48 7 7 (56448)
I0403 19:27:09.424670  9261 net.cpp:156] Memory required for data: 1334499360
I0403 19:27:09.424690  9261 layer_factory.hpp:77] Creating layer inception_5b/relu_5x5_reduce
I0403 19:27:09.424710  9261 net.cpp:91] Creating Layer inception_5b/relu_5x5_reduce
I0403 19:27:09.424726  9261 net.cpp:425] inception_5b/relu_5x5_reduce <- inception_5b/5x5_reduce
I0403 19:27:09.424744  9261 net.cpp:386] inception_5b/relu_5x5_reduce -> inception_5b/5x5_reduce (in-place)
I0403 19:27:09.425110  9261 net.cpp:141] Setting up inception_5b/relu_5x5_reduce
I0403 19:27:09.425137  9261 net.cpp:148] Top shape: 24 48 7 7 (56448)
I0403 19:27:09.425151  9261 net.cpp:156] Memory required for data: 1334725152
I0403 19:27:09.425166  9261 layer_factory.hpp:77] Creating layer inception_5b/5x5
I0403 19:27:09.425185  9261 net.cpp:91] Creating Layer inception_5b/5x5
I0403 19:27:09.425201  9261 net.cpp:425] inception_5b/5x5 <- inception_5b/5x5_reduce
I0403 19:27:09.425221  9261 net.cpp:399] inception_5b/5x5 -> inception_5b/5x5
I0403 19:27:09.427227  9261 net.cpp:141] Setting up inception_5b/5x5
I0403 19:27:09.427260  9261 net.cpp:148] Top shape: 24 128 7 7 (150528)
I0403 19:27:09.427276  9261 net.cpp:156] Memory required for data: 1335327264
I0403 19:27:09.427296  9261 layer_factory.hpp:77] Creating layer inception_5b/relu_5x5
I0403 19:27:09.427317  9261 net.cpp:91] Creating Layer inception_5b/relu_5x5
I0403 19:27:09.427335  9261 net.cpp:425] inception_5b/relu_5x5 <- inception_5b/5x5
I0403 19:27:09.427351  9261 net.cpp:386] inception_5b/relu_5x5 -> inception_5b/5x5 (in-place)
I0403 19:27:09.427542  9261 net.cpp:141] Setting up inception_5b/relu_5x5
I0403 19:27:09.427570  9261 net.cpp:148] Top shape: 24 128 7 7 (150528)
I0403 19:27:09.427585  9261 net.cpp:156] Memory required for data: 1335929376
I0403 19:27:09.427600  9261 layer_factory.hpp:77] Creating layer inception_5b/pool
I0403 19:27:09.427618  9261 net.cpp:91] Creating Layer inception_5b/pool
I0403 19:27:09.427634  9261 net.cpp:425] inception_5b/pool <- inception_5a/output_inception_5a/output_0_split_3
I0403 19:27:09.427654  9261 net.cpp:399] inception_5b/pool -> inception_5b/pool
I0403 19:27:09.427723  9261 net.cpp:141] Setting up inception_5b/pool
I0403 19:27:09.427747  9261 net.cpp:148] Top shape: 24 832 7 7 (978432)
I0403 19:27:09.427762  9261 net.cpp:156] Memory required for data: 1339843104
I0403 19:27:09.427775  9261 layer_factory.hpp:77] Creating layer inception_5b/pool_proj
I0403 19:27:09.427798  9261 net.cpp:91] Creating Layer inception_5b/pool_proj
I0403 19:27:09.427815  9261 net.cpp:425] inception_5b/pool_proj <- inception_5b/pool
I0403 19:27:09.427834  9261 net.cpp:399] inception_5b/pool_proj -> inception_5b/pool_proj
I0403 19:27:09.430148  9261 net.cpp:141] Setting up inception_5b/pool_proj
I0403 19:27:09.430177  9261 net.cpp:148] Top shape: 24 128 7 7 (150528)
I0403 19:27:09.430193  9261 net.cpp:156] Memory required for data: 1340445216
I0403 19:27:09.430212  9261 layer_factory.hpp:77] Creating layer inception_5b/relu_pool_proj
I0403 19:27:09.430233  9261 net.cpp:91] Creating Layer inception_5b/relu_pool_proj
I0403 19:27:09.430253  9261 net.cpp:425] inception_5b/relu_pool_proj <- inception_5b/pool_proj
I0403 19:27:09.430271  9261 net.cpp:386] inception_5b/relu_pool_proj -> inception_5b/pool_proj (in-place)
I0403 19:27:09.430562  9261 net.cpp:141] Setting up inception_5b/relu_pool_proj
I0403 19:27:09.430588  9261 net.cpp:148] Top shape: 24 128 7 7 (150528)
I0403 19:27:09.430603  9261 net.cpp:156] Memory required for data: 1341047328
I0403 19:27:09.430618  9261 layer_factory.hpp:77] Creating layer inception_5b/output
I0403 19:27:09.430636  9261 net.cpp:91] Creating Layer inception_5b/output
I0403 19:27:09.430668  9261 net.cpp:425] inception_5b/output <- inception_5b/1x1
I0403 19:27:09.430685  9261 net.cpp:425] inception_5b/output <- inception_5b/3x3
I0403 19:27:09.430701  9261 net.cpp:425] inception_5b/output <- inception_5b/5x5
I0403 19:27:09.430716  9261 net.cpp:425] inception_5b/output <- inception_5b/pool_proj
I0403 19:27:09.430733  9261 net.cpp:399] inception_5b/output -> inception_5b/output
I0403 19:27:09.430785  9261 net.cpp:141] Setting up inception_5b/output
I0403 19:27:09.430807  9261 net.cpp:148] Top shape: 24 1024 7 7 (1204224)
I0403 19:27:09.430822  9261 net.cpp:156] Memory required for data: 1345864224
I0403 19:27:09.430836  9261 layer_factory.hpp:77] Creating layer pool5/7x7_s1
I0403 19:27:09.430853  9261 net.cpp:91] Creating Layer pool5/7x7_s1
I0403 19:27:09.430868  9261 net.cpp:425] pool5/7x7_s1 <- inception_5b/output
I0403 19:27:09.430888  9261 net.cpp:399] pool5/7x7_s1 -> pool5/7x7_s1
I0403 19:27:09.431098  9261 net.cpp:141] Setting up pool5/7x7_s1
I0403 19:27:09.431123  9261 net.cpp:148] Top shape: 24 1024 1 1 (24576)
I0403 19:27:09.431140  9261 net.cpp:156] Memory required for data: 1345962528
I0403 19:27:09.431155  9261 layer_factory.hpp:77] Creating layer pool5/drop_7x7_s1
I0403 19:27:09.431175  9261 net.cpp:91] Creating Layer pool5/drop_7x7_s1
I0403 19:27:09.431191  9261 net.cpp:425] pool5/drop_7x7_s1 <- pool5/7x7_s1
I0403 19:27:09.431208  9261 net.cpp:386] pool5/drop_7x7_s1 -> pool5/7x7_s1 (in-place)
I0403 19:27:09.431262  9261 net.cpp:141] Setting up pool5/drop_7x7_s1
I0403 19:27:09.431284  9261 net.cpp:148] Top shape: 24 1024 1 1 (24576)
I0403 19:27:09.431298  9261 net.cpp:156] Memory required for data: 1346060832
I0403 19:27:09.431313  9261 layer_factory.hpp:77] Creating layer loss3/classifier_plantvillage
I0403 19:27:09.431334  9261 net.cpp:91] Creating Layer loss3/classifier_plantvillage
I0403 19:27:09.431350  9261 net.cpp:425] loss3/classifier_plantvillage <- pool5/7x7_s1
I0403 19:27:09.431367  9261 net.cpp:399] loss3/classifier_plantvillage -> loss3/classifier_plantvillage
I0403 19:27:09.431784  9261 net.cpp:141] Setting up loss3/classifier_plantvillage
I0403 19:27:09.431807  9261 net.cpp:148] Top shape: 24 38 (912)
I0403 19:27:09.431823  9261 net.cpp:156] Memory required for data: 1346064480
I0403 19:27:09.431839  9261 layer_factory.hpp:77] Creating layer loss3/classifier_plantvillage_loss3/classifier_plantvillage_0_split
I0403 19:27:09.431856  9261 net.cpp:91] Creating Layer loss3/classifier_plantvillage_loss3/classifier_plantvillage_0_split
I0403 19:27:09.431871  9261 net.cpp:425] loss3/classifier_plantvillage_loss3/classifier_plantvillage_0_split <- loss3/classifier_plantvillage
I0403 19:27:09.431892  9261 net.cpp:399] loss3/classifier_plantvillage_loss3/classifier_plantvillage_0_split -> loss3/classifier_plantvillage_loss3/classifier_plantvillage_0_split_0
I0403 19:27:09.431913  9261 net.cpp:399] loss3/classifier_plantvillage_loss3/classifier_plantvillage_0_split -> loss3/classifier_plantvillage_loss3/classifier_plantvillage_0_split_1
I0403 19:27:09.431933  9261 net.cpp:399] loss3/classifier_plantvillage_loss3/classifier_plantvillage_0_split -> loss3/classifier_plantvillage_loss3/classifier_plantvillage_0_split_2
I0403 19:27:09.431953  9261 net.cpp:399] loss3/classifier_plantvillage_loss3/classifier_plantvillage_0_split -> loss3/classifier_plantvillage_loss3/classifier_plantvillage_0_split_3
I0403 19:27:09.432052  9261 net.cpp:141] Setting up loss3/classifier_plantvillage_loss3/classifier_plantvillage_0_split
I0403 19:27:09.432077  9261 net.cpp:148] Top shape: 24 38 (912)
I0403 19:27:09.432093  9261 net.cpp:148] Top shape: 24 38 (912)
I0403 19:27:09.432108  9261 net.cpp:148] Top shape: 24 38 (912)
I0403 19:27:09.432124  9261 net.cpp:148] Top shape: 24 38 (912)
I0403 19:27:09.432137  9261 net.cpp:156] Memory required for data: 1346079072
I0403 19:27:09.432152  9261 layer_factory.hpp:77] Creating layer loss1/loss
I0403 19:27:09.432173  9261 net.cpp:91] Creating Layer loss1/loss
I0403 19:27:09.432190  9261 net.cpp:425] loss1/loss <- loss1/classifier_plantvillage_loss1/classifier_plantvillage_0_split_0
I0403 19:27:09.432221  9261 net.cpp:425] loss1/loss <- label_data_1_split_0
…
