…
I0403 19:51:49.250057  9771 net.cpp:313] The NetState phase (1) differed from the phase (0) specified by a rule in layer data
I0403 19:51:49.251302  9771 net.cpp:49] Initializing net from parameters: 
state {
  phase: TEST
}
layer {
  name: "data"
  type: "Data"
  top: "data"
  top: "label"
  include {
    phase: TEST
  }
  transform_param {
    mirror: false
    crop_size: 224
    mean_file: "/home/mohanty/data/final_dataset/lmdb/color-50-50/mean.binaryproto"
  }
  data_param {
    source: "/home/mohanty/data/final_dataset/lmdb/color-50-50/test_db"
    batch_size: 24
    backend: LMDB
  }
}
layer {
  name: "conv1/7x7_s2"
  type: "Convolution"
  bottom: "data"
  top: "conv1/7x7_s2"
  param {
    lr_mult: 1
    decay_mult: 1
  }
  param {
    lr_mult: 2
    decay_mult: 0
  }
  convolution_param {
    num_output: 64
    pad: 3
    kernel_size: 7
    stride: 2
    weight_filler {
      type: "xavier"
      std: 0.1
    }
    bias_filler {
      type: "constant"
      value: 0.2
    }
  }
}
layer {
  name: "conv1/relu_7x7"
  type: "ReLU"
  bottom: "conv1/7x7_s2"
  top: "conv1/7x7_s2"
}
layer {
  name: "pool1/3x3_s2"
  type: "Pooling"
  bottom: "conv1/7x7_s2"
  top: "pool1/3x3_s2"
  pooling_param {
    pool: MAX
    kernel_size: 3
    stride: 2
  }
}
layer {
  name: "pool1/norm1"
  type: "LRN"
  bottom: "pool1/3x3_s2"
  top: "pool1/norm1"
  lrn_param {
    local_size: 5
    alpha: 0.0001
    beta: 0.75
  }
}
layer {
  name: "conv2/3x3_reduce"
  type: "Convolution"
  bottom: "pool1/norm1"
  top: "conv2/3x3_reduce"
  param {
    lr_mult: 1
    decay_mult: 1
  }
  param {
    lr_mult: 2
    decay_mult: 0
  }
  convolution_param {
    num_output: 64
    kernel_size: 1
    weight_filler {
      type: "xavier"
      std: 0.1
    }
    bias_filler {
      type: "constant"
      value: 0.2
    }
  }
}
layer {
  name: "conv2/relu_3x3_reduce"
  type: "ReLU"
  bottom: "conv2/3x3_reduce"
  top: "conv2/3x3_reduce"
}
layer {
  name: "conv2/3x3"
  type: "Convolution"
  bottom: "conv2/3x3_reduce"
  top: "conv2/3x3"
  param {
    lr_mult: 1
    decay_mult: 1
  }
  param {
    lr_mult: 2
    decay_mult: 0
  }
  convolution_param {
    num_output: 192
    pad: 1
    kernel_size: 3
    weight_filler {
      type: "xavier"
      std: 0.03
    }
    bias_filler {
      type: "constant"
      value: 0.2
    }
  }
}
layer {
  name: "conv2/relu_3x3"
  type: "ReLU"
  bottom: "conv2/3x3"
  top: "conv2/3x3"
}
layer {
  name: "conv2/norm2"
  type: "LRN"
  bottom: "conv2/3x3"
  top: "conv2/norm2"
  lrn_param {
    local_size: 5
    alpha: 0.0001
    beta: 0.75
  }
}
layer {
  name: "pool2/3x3_s2"
  type: "Pooling"
  bottom: "conv2/norm2"
  top: "pool2/3x3_s2"
  pooling_param {
    pool: MAX
    kernel_size: 3
    stride: 2
  }
}
layer {
  name: "inception_3a/1x1"
  type: "Convolution"
  bottom: "pool2/3x3_s2"
  top: "inception_3a/1x1"
  param {
    lr_mult: 1
    decay_mult: 1
  }
  param {
    lr_mult: 2
    decay_mult: 0
  }
  convolution_param {
    num_output: 64
    kernel_size: 1
    weight_filler {
      type: "xavier"
      std: 0.03
    }
    bias_filler {
      type: "constant"
      value: 0.2
    }
  }
}
layer {
  name: "inception_3a/relu_1x1"
  type: "ReLU"
  bottom: "inception_3a/1x1"
  top: "inception_3a/1x1"
}
layer {
  name: "inception_3a/3x3_reduce"
  type: "Convolution"
  bottom: "pool2/3x3_s2"
  top: "inception_3a/3x3_reduce"
  param {
    lr_mult: 1
    decay_mult: 1
  }
  param {
    lr_mult: 2
    decay_mult: 0
  }
  convolution_param {
    num_output: 96
    kernel_size: 1
    weight_filler {
      type: "xavier"
      std: 0.09
    }
    bias_filler {
      type: "constant"
      value: 0.2
    }
  }
}
layer {
  name: "inception_3a/relu_3x3_reduce"
  type: "ReLU"
  bottom: "inception_3a/3x3_reduce"
  top: "inception_3a/3x3_reduce"
}
layer {
  name: "inception_3a/3x3"
  type: "Convolution"
  bottom: "inception_3a/3x3_reduce"
  top: "inception_3a/3x3"
  param {
    lr_mult: 1
    decay_mult: 1
  }
  param {
    lr_mult: 2
    decay_mult: 0
  }
  convolution_param {
    num_output: 128
    pad: 1
    kernel_size: 3
    weight_filler {
      type: "xavier"
      std: 0.03
    }
    bias_filler {
      type: "constant"
      value: 0.2
    }
  }
}
layer {
  name: "inception_3a/relu_3x3"
  type: "ReLU"
  bottom: "inception_3a/3x3"
  top: "inception_3a/3x3"
}
layer {
  name: "inception_3a/5x5_reduce"
  type: "Convolution"
  bottom: "pool2/3x3_s2"
  top: "inception_3a/5x5_reduce"
  param {
    lr_mult: 1
    decay_mult: 1
  }
  param {
    lr_mult: 2
    decay_mult: 0
  }
  convolution_param {
    num_output: 16
    kernel_size: 1
    weight_filler {
      type: "xavier"
      std: 0.2
    }
    bias_filler {
      type: "constant"
      value: 0.2
    }
  }
}
layer {
  name: "inception_3a/relu_5x5_reduce"
  type: "ReLU"
  bottom: "inception_3a/5x5_reduce"
  top: "inception_3a/5x5_reduce"
}
layer {
  name: "inception_3a/5x5"
  type: "Convolution"
  bottom: "inception_3a/5x5_reduce"
  top: "inception_3a/5x5"
  param {
    lr_mult: 1
    decay_mult: 1
  }
  param {
    lr_mult: 2
    decay_mult: 0
  }
  convolution_param {
    num_output: 32
    pad: 2
    kernel_size: 5
    weight_filler {
      type: "xavier"
      std: 0.03
    }
    bias_filler {
      type: "constant"
      value: 0.2
    }
  }
}
layer {
  name: "inception_3a/relu_5x5"
  type: "ReLU"
  bottom: "inception_3a/5x5"
  top: "inception_3a/5x5"
}
layer {
  name: "inception_3a/pool"
  type: "Pooling"
  bottom: "pool2/3x3_s2"
  top: "inception_3a/pool"
  pooling_param {
    pool: MAX
    kernel_size: 3
    stride: 1
    pad: 1
  }
}
layer {
  name: "inception_3a/pool_proj"
  type: "Convolution"
  bottom: "inception_3a/pool"
  top: "inception_3a/pool_proj"
  param {
    lr_mult: 1
    decay_mult: 1
  }
  param {
    lr_mult: 2
    decay_mult: 0
  }
  convolution_param {
    num_output: 32
    kernel_size: 1
    weight_filler {
      type: "xavier"
      std: 0.1
    }
    bias_filler {
      type: "constant"
      value: 0.2
    }
  }
}
layer {
  name: "inception_3a/relu_pool_proj"
  type: "ReLU"
  bottom: "inception_3a/pool_proj"
  top: "inception_3a/pool_proj"
}
layer {
  name: "inception_3a/output"
  type: "Concat"
  bottom: "inception_3a/1x1"
  bottom: "inception_3a/3x3"
  bottom: "inception_3a/5x5"
  bottom: "inception_3a/pool_proj"
  top: "inception_3a/output"
}
layer {
  name: "inception_3b/1x1"
  type: "Convolution"
  bottom: "inception_3a/output"
  top: "inception_3b/1x1"
  param {
    lr_mult: 1
    decay_mult: 1
  }
  param {
    lr_mult: 2
    decay_mult: 0
  }
  convolution_param {
    num_output: 128
    kernel_size: 1
    weight_filler {
      type: "xavier"
      std: 0.03
    }
    bias_filler {
      type: "constant"
      value: 0.2
    }
  }
}
layer {
  name: "inception_3b/relu_1x1"
  type: "ReLU"
  bottom: "inception_3b/1x1"
  top: "inception_3b/1x1"
}
layer {
  name: "inception_3b/3x3_reduce"
  type: "Convolution"
  bottom: "inception_3a/output"
  top: "inception_3b/3x3_reduce"
  param {
    lr_mult: 1
    decay_mult: 1
  }
  param {
    lr_mult: 2
    decay_mult: 0
  }
  convolution_param {
    num_output: 128
    kernel_size: 1
    weight_filler {
      type: "xavier"
      std: 0.09
    }
    bias_filler {
      type: "constant"
      value: 0.2
    }
  }
}
layer {
  name: "inception_3b/relu_3x3_reduce"
  type: "ReLU"
  bottom: "inception_3b/3x3_reduce"
  top: "inception_3b/3x3_reduce"
}
layer {
  name: "inception_3b/3x3"
  type: "Convolution"
  bottom: "inception_3b/3x3_reduce"
  top: "inception_3b/3x3"
  param {
    lr_mult: 1
    decay_mult: 1
  }
  param {
    lr_mult: 2
    decay_mult: 0
  }
  convolution_param {
    num_output: 192
    pad: 1
    kernel_size: 3
    weight_filler {
      type: "xavier"
      std: 0.03
    }
    bias_filler {
      type: "constant"
      value: 0.2
    }
  }
}
layer {
  name: "inception_3b/relu_3x3"
  type: "ReLU"
  bottom: "inception_3b/3x3"
  top: "inception_3b/3x3"
}
layer {
  name: "inception_3b/5x5_reduce"
  type: "Convolution"
  bottom: "inception_3a/output"
  top: "inception_3b/5x5_reduce"
  param {
    lr_mult: 1
    decay_mult: 1
  }
  param {
    lr_mult: 2
    decay_mult: 0
  }
  convolution_param {
    num_output: 32
    kernel_size: 1
    weight_filler {
      type: "xavier"
      std: 0.2
    }
    bias_filler {
      type: "constant"
      value: 0.2
    }
  }
}
layer {
  name: "inception_3b/relu_5x5_reduce"
  type: "ReLU"
  bottom: "inception_3b/5x5_reduce"
  top: "inception_3b/5x5_reduce"
}
layer {
  name: "inception_3b/5x5"
  type: "Convolution"
  bottom: "inception_3b/5x5_reduce"
  top: "inception_3b/5x5"
  param {
    lr_mult: 1
    decay_mult: 1
  }
  param {
    lr_mult: 2
    decay_mult: 0
  }
  convolution_param {
    num_output: 96
    pad: 2
    kernel_size: 5
    weight_filler {
      type: "xavier"
      std: 0.03
    }
    bias_filler {
      type: "constant"
      value: 0.2
    }
  }
}
layer {
  name: "inception_3b/relu_5x5"
  type: "ReLU"
  bottom: "inception_3b/5x5"
  top: "inception_3b/5x5"
}
layer {
  name: "inception_3b/pool"
  type: "Pooling"
  bottom: "inception_3a/output"
  top: "inception_3b/pool"
  pooling_param {
    pool: MAX
    kernel_size: 3
    stride: 1
    pad: 1
  }
}
layer {
  name: "inception_3b/pool_proj"
  type: "Convolution"
  bottom: "inception_3b/pool"
  top: "inception_3b/pool_proj"
  param {
    lr_mult: 1
    decay_mult: 1
  }
  param {
    lr_mult: 2
    decay_mult: 0
  }
  convolution_param {
    num_output: 64
    kernel_size: 1
    weight_filler {
      type: "xavier"
      std: 0.1
    }
    bias_filler {
      type: "constant"
      value: 0.2
    }
  }
}
layer {
  name: "inception_3b/relu_pool_proj"
  type: "ReLU"
  bottom: "inception_3b/pool_proj"
  top: "inception_3b/pool_proj"
}
layer {
  name: "inception_3b/output"
  type: "Concat"
  bottom: "inception_3b/1x1"
  bottom: "inception_3b/3x3"
  bottom: "inception_3b/5x5"
  bottom: "inception_3b/pool_proj"
  top: "inception_3b/output"
}
layer {
  name: "pool3/3x3_s2"
  type: "Pooling"
  bottom: "inception_3b/output"
  top: "pool3/3x3_s2"
  pooling_param {
    pool: MAX
    kernel_size: 3
    stride: 2
  }
}
layer {
  name: "inception_4a/1x1"
  type: "Convolution"
  bottom: "pool3/3x3_s2"
  top: "inception_4a/1x1"
  param {
    lr_mult: 1
    decay_mult: 1
  }
  param {
    lr_mult: 2
    decay_mult: 0
  }
  convolution_param {
    num_output: 192
    kernel_size: 1
    weight_filler {
      type: "xavier"
      std: 0.03
    }
    bias_filler {
      type: "constant"
      value: 0.2
    }
  }
}
layer {
  name: "inception_4a/relu_1x1"
  type: "ReLU"
  bottom: "inception_4a/1x1"
  top: "inception_4a/1x1"
}
layer {
  name: "inception_4a/3x3_reduce"
  type: "Convolution"
  bottom: "pool3/3x3_s2"
  top: "inception_4a/3x3_reduce"
  param {
    lr_mult: 1
    decay_mult: 1
  }
  param {
    lr_mult: 2
    decay_mult: 0
  }
  convolution_param {
    num_output: 96
    kernel_size: 1
    weight_filler {
      type: "xavier"
      std: 0.09
    }
    bias_filler {
      type: "constant"
      value: 0.2
    }
  }
}
layer {
  name: "inception_4a/relu_3x3_reduce"
  type: "ReLU"
  bottom: "inception_4a/3x3_reduce"
  top: "inception_4a/3x3_reduce"
}
layer {
  name: "inception_4a/3x3"
  type: "Convolution"
  bottom: "inception_4a/3x3_reduce"
  top: "inception_4a/3x3"
  param {
    lr_mult: 1
    decay_mult: 1
  }
  param {
    lr_mult: 2
    decay_mult: 0
  }
  convolution_param {
    num_output: 208
    pad: 1
    kernel_size: 3
    weight_filler {
      type: "xavier"
      std: 0.03
    }
    bias_filler {
      type: "constant"
      value: 0.2
    }
  }
}
layer {
  name: "inception_4a/relu_3x3"
  type: "ReLU"
  bottom: "inception_4a/3x3"
  top: "inception_4a/3x3"
}
layer {
  name: "inception_4a/5x5_reduce"
  type: "Convolution"
  bottom: "pool3/3x3_s2"
  top: "inception_4a/5x5_reduce"
  param {
    lr_mult: 1
    decay_mult: 1
  }
  param {
    lr_mult: 2
    decay_mult: 0
  }
  convolution_param {
    num_output: 16
    kernel_size: 1
    weight_filler {
      type: "xavier"
      std: 0.2
    }
    bias_filler {
      type: "constant"
      value: 0.2
    }
  }
}
layer {
  name: "inception_4a/relu_5x5_reduce"
  type: "ReLU"
  bottom: "inception_4a/5x5_reduce"
  top: "inception_4a/5x5_reduce"
}
layer {
  name: "inception_4a/5x5"
  type: "Convolution"
  bottom: "inception_4a/5x5_reduce"
  top: "inception_4a/5x5"
  param {
    lr_mult: 1
    decay_mult: 1
  }
  param {
    lr_mult: 2
    decay_mult: 0
  }
  convolution_param {
    num_output: 48
    pad: 2
    kernel_size: 5
    weight_filler {
      type: "xavier"
      std: 0.03
    }
    bias_filler {
      type: "constant"
      value: 0.2
    }
  }
}
layer {
  name: "inception_4a/relu_5x5"
  type: "ReLU"
  bottom: "inception_4a/5x5"
  top: "inception_4a/5x5"
}
layer {
  name: "inception_4a/pool"
  type: "Pooling"
  bottom: "pool3/3x3_s2"
  top: "inception_4a/pool"
  pooling_param {
    pool: MAX
    kernel_size: 3
    stride: 1
    pad: 1
  }
}
layer {
  name: "inception_4a/pool_proj"
  type: "Convolution"
  bottom: "inception_4a/pool"
  top: "inception_4a/pool_proj"
  param {
    lr_mult: 1
    decay_mult: 1
  }
  param {
    lr_mult: 2
    decay_mult: 0
  }
  convolution_param {
    num_output: 64
    kernel_size: 1
    weight_filler {
      type: "xavier"
      std: 0.1
    }
    bias_filler {
      type: "constant"
      value: 0.2
    }
  }
}
layer {
  name: "inception_4a/relu_pool_proj"
  type: "ReLU"
  bottom: "inception_4a/pool_proj"
  top: "inception_4a/pool_proj"
}
layer {
  name: "inception_4a/output"
  type: "Concat"
  bottom: "inception_4a/1x1"
  bottom: "inception_4a/3x3"
  bottom: "inception_4a/5x5"
  bottom: "inception_4a/pool_proj"
  top: "inception_4a/output"
}
layer {
  name: "loss1/ave_pool"
  type: "Pooling"
  bottom: "inception_4a/output"
  top: "loss1/ave_pool"
  pooling_param {
    pool: AVE
    kernel_size: 5
    stride: 3
  }
}
layer {
  name: "loss1/conv"
  type: "Convolution"
  bottom: "loss1/ave_pool"
  top: "loss1/conv"
  param {
    lr_mult: 1
    decay_mult: 1
  }
  param {
    lr_mult: 2
    decay_mult: 0
  }
  convolution_param {
    num_output: 128
    kernel_size: 1
    weight_filler {
      type: "xavier"
      std: 0.08
    }
    bias_filler {
      type: "constant"
      value: 0.2
    }
  }
}
layer {
  name: "loss1/relu_conv"
  type: "ReLU"
  bottom: "loss1/conv"
  top: "loss1/conv"
}
layer {
  name: "loss1/fc"
  type: "InnerProduct"
  bottom: "loss1/conv"
  top: "loss1/fc"
  param {
    lr_mult: 1
    decay_mult: 1
  }
  param {
    lr_mult: 2
    decay_mult: 0
  }
  inner_product_param {
    num_output: 1024
    weight_filler {
      type: "xavier"
      std: 0.02
    }
    bias_filler {
      type: "constant"
      value: 0.2
    }
  }
}
layer {
  name: "loss1/relu_fc"
  type: "ReLU"
  bottom: "loss1/fc"
  top: "loss1/fc"
}
layer {
  name: "loss1/drop_fc"
  type: "Dropout"
  bottom: "loss1/fc"
  top: "loss1/fc"
  dropout_param {
    dropout_ratio: 0.7
  }
}
layer {
  name: "loss1/classifier_plantvillage"
  type: "InnerProduct"
  bottom: "loss1/fc"
  top: "loss1/classifier_plantvillage"
  param {
    lr_mult: 1
    decay_mult: 1
  }
  param {
    lr_mult: 2
    decay_mult: 0
  }
  inner_product_param {
    num_output: 38
    weight_filler {
      type: "xavier"
      std: 0.0009765625
    }
    bias_filler {
      type: "constant"
      value: 0
    }
  }
}
layer {
  name: "inception_4b/1x1"
  type: "Convolution"
  bottom: "inception_4a/output"
  top: "inception_4b/1x1"
  param {
    lr_mult: 1
    decay_mult: 1
  }
  param {
    lr_mult: 2
    decay_mult: 0
  }
  convolution_param {
    num_output: 160
    kernel_size: 1
    weight_filler {
      type: "xavier"
      std: 0.03
    }
    bias_filler {
      type: "constant"
      value: 0.2
    }
  }
}
layer {
  name: "inception_4b/relu_1x1"
  type: "ReLU"
  bottom: "inception_4b/1x1"
  top: "inception_4b/1x1"
}
layer {
  name: "inception_4b/3x3_reduce"
  type: "Convolution"
  bottom: "inception_4a/output"
  top: "inception_4b/3x3_reduce"
  param {
    lr_mult: 1
    decay_mult: 1
  }
  param {
    lr_mult: 2
    decay_mult: 0
  }
  convolution_param {
    num_output: 112
    kernel_size: 1
    weight_filler {
      type: "xavier"
      std: 0.09
    }
    bias_filler {
      type: "constant"
      value: 0.2
    }
  }
}
layer {
  name: "inception_4b/relu_3x3_reduce"
  type: "ReLU"
  bottom: "inception_4b/3x3_reduce"
  top: "inception_4b/3x3_reduce"
}
layer {
  name: "inception_4b/3x3"
  type: "Convolution"
  bottom: "inception_4b/3x3_reduce"
  top: "inception_4b/3x3"
  param {
    lr_mult: 1
    decay_mult: 1
  }
  param {
    lr_mult: 2
    decay_mult: 0
  }
  convolution_param {
    num_output: 224
    pad: 1
    kernel_size: 3
    weight_filler {
      type: "xavier"
      std: 0.03
    }
    bias_filler {
      type: "constant"
      value: 0.2
    }
  }
}
layer {
  name: "inception_4b/relu_3x3"
  type: "ReLU"
  bottom: "inception_4b/3x3"
  top: "inception_4b/3x3"
}
layer {
  name: "inception_4b/5x5_reduce"
  type: "Convolution"
  bottom: "inception_4a/output"
  top: "inception_4b/5x5_reduce"
  param {
    lr_mult: 1
    decay_mult: 1
  }
  param {
    lr_mult: 2
    decay_mult: 0
  }
  convolution_param {
    num_output: 24
    kernel_size: 1
    weight_filler {
      type: "xavier"
      std: 0.2
    }
    bias_filler {
      type: "constant"
      value: 0.2
    }
  }
}
layer {
  name: "inception_4b/relu_5x5_reduce"
  type: "ReLU"
  bottom: "inception_4b/5x5_reduce"
  top: "inception_4b/5x5_reduce"
}
layer {
  name: "inception_4b/5x5"
  type: "Convolution"
  bottom: "inception_4b/5x5_reduce"
  top: "inception_4b/5x5"
  param {
    lr_mult: 1
    decay_mult: 1
  }
  param {
    lr_mult: 2
    decay_mult: 0
  }
  convolution_param {
    num_output: 64
    pad: 2
    kernel_size: 5
    weight_filler {
      type: "xavier"
      std: 0.03
    }
    bias_filler {
      type: "constant"
      value: 0.2
    }
  }
}
layer {
  name: "inception_4b/relu_5x5"
  type: "ReLU"
  bottom: "inception_4b/5x5"
  top: "inception_4b/5x5"
}
layer {
  name: "inception_4b/pool"
  type: "Pooling"
  bottom: "inception_4a/output"
  top: "inception_4b/pool"
  pooling_param {
    pool: MAX
    kernel_size: 3
    stride: 1
    pad: 1
  }
}
layer {
  name: "inception_4b/pool_proj"
  type: "Convolution"
  bottom: "inception_4b/pool"
  top: "inception_4b/pool_proj"
  param {
    lr_mult: 1
    decay_mult: 1
  }
  param {
    lr_mult: 2
    decay_mult: 0
  }
  convolution_param {
    num_output: 64
    kernel_size: 1
    weight_filler {
      type: "xavier"
      std: 0.1
    }
    bias_filler {
      type: "constant"
      value: 0.2
    }
  }
}
layer {
  name: "inception_4b/relu_pool_proj"
  type: "ReLU"
  bottom: "inception_4b/pool_proj"
  top: "inception_4b/pool_proj"
}
layer {
  name: "inception_4b/output"
  type: "Concat"
  bottom: "inception_4b/1x1"
  bottom: "inception_4b/3x3"
  bottom: "inception_4b/5x5"
  bottom: "inception_4b/pool_proj"
  top: "inception_4b/output"
}
layer {
  name: "inception_4c/1x1"
  type: "Convolution"
  bottom: "inception_4b/output"
  top: "inception_4c/1x1"
  param {
    lr_mult: 1
    decay_mult: 1
  }
  param {
    lr_mult: 2
    decay_mult: 0
  }
  convolution_param {
    num_output: 128
    kernel_size: 1
    weight_filler {
      type: "xavier"
      std: 0.03
    }
    bias_filler {
      type: "constant"
      value: 0.2
    }
  }
}
layer {
  name: "inception_4c/relu_1x1"
  type: "ReLU"
  bottom: "inception_4c/1x1"
  top: "inception_4c/1x1"
}
layer {
  name: "inception_4c/3x3_reduce"
  type: "Convolution"
  bottom: "inception_4b/output"
  top: "inception_4c/3x3_reduce"
  param {
    lr_mult: 1
    decay_mult: 1
  }
  param {
    lr_mult: 2
    decay_mult: 0
  }
  convolution_param {
    num_output: 128
    kernel_size: 1
    weight_filler {
      type: "xavier"
      std: 0.09
    }
    bias_filler {
      type: "constant"
      value: 0.2
    }
  }
}
layer {
  name: "inception_4c/relu_3x3_reduce"
  type: "ReLU"
  bottom: "inception_4c/3x3_reduce"
  top: "inception_4c/3x3_reduce"
}
layer {
  name: "inception_4c/3x3"
  type: "Convolution"
  bottom: "inception_4c/3x3_reduce"
  top: "inception_4c/3x3"
  param {
    lr_mult: 1
    decay_mult: 1
  }
  param {
    lr_mult: 2
    decay_mult: 0
  }
  convolution_param {
    num_output: 256
    pad: 1
    kernel_size: 3
    weight_filler {
      type: "xavier"
      std: 0.03
    }
    bias_filler {
      type: "constant"
      value: 0.2
    }
  }
}
layer {
  name: "inception_4c/relu_3x3"
  type: "ReLU"
  bottom: "inception_4c/3x3"
  top: "inception_4c/3x3"
}
layer {
  name: "inception_4c/5x5_reduce"
  type: "Convolution"
  bottom: "inception_4b/output"
  top: "inception_4c/5x5_reduce"
  param {
    lr_mult: 1
    decay_mult: 1
  }
  param {
    lr_mult: 2
    decay_mult: 0
  }
  convolution_param {
    num_output: 24
    kernel_size: 1
    weight_filler {
      type: "xavier"
      std: 0.2
    }
    bias_filler {
      type: "constant"
      value: 0.2
    }
  }
}
layer {
  name: "inception_4c/relu_5x5_reduce"
  type: "ReLU"
  bottom: "inception_4c/5x5_reduce"
  top: "inception_4c/5x5_reduce"
}
layer {
  name: "inception_4c/5x5"
  type: "Convolution"
  bottom: "inception_4c/5x5_reduce"
  top: "inception_4c/5x5"
  param {
    lr_mult: 1
    decay_mult: 1
  }
  param {
    lr_mult: 2
    decay_mult: 0
  }
  convolution_param {
    num_output: 64
    pad: 2
    kernel_size: 5
    weight_filler {
      type: "xavier"
      std: 0.03
    }
    bias_filler {
      type: "constant"
      value: 0.2
    }
  }
}
layer {
  name: "inception_4c/relu_5x5"
  type: "ReLU"
  bottom: "inception_4c/5x5"
  top: "inception_4c/5x5"
}
layer {
  name: "inception_4c/pool"
  type: "Pooling"
  bottom: "inception_4b/output"
  top: "inception_4c/pool"
  pooling_param {
    pool: MAX
    kernel_size: 3
    stride: 1
    pad: 1
  }
}
layer {
  name: "inception_4c/pool_proj"
  type: "Convolution"
  bottom: "inception_4c/pool"
  top: "inception_4c/pool_proj"
  param {
    lr_mult: 1
    decay_mult: 1
  }
  param {
    lr_mult: 2
    decay_mult: 0
  }
  convolution_param {
    num_output: 64
    kernel_size: 1
    weight_filler {
      type: "xavier"
      std: 0.1
    }
    bias_filler {
      type: "constant"
      value: 0.2
    }
  }
}
layer {
  name: "inception_4c/relu_pool_proj"
  type: "ReLU"
  bottom: "inception_4c/pool_proj"
  top: "inception_4c/pool_proj"
}
layer {
  name: "inception_4c/output"
  type: "Concat"
  bottom: "inception_4c/1x1"
  bottom: "inception_4c/3x3"
  bottom: "inception_4c/5x5"
  bottom: "inception_4c/pool_proj"
  top: "inception_4c/output"
}
layer {
  name: "inception_4d/1x1"
  type: "Convolution"
  bottom: "inception_4c/output"
  top: "inception_4d/1x1"
  param {
    lr_mult: 1
    decay_mult: 1
  }
  param {
    lr_mult: 2
    decay_mult: 0
  }
  convolution_param {
    num_output: 112
    kernel_size: 1
    weight_filler {
      type: "xavier"
      std: 0.03
    }
    bias_filler {
      type: "constant"
      value: 0.2
    }
  }
}
layer {
  name: "inception_4d/relu_1x1"
  type: "ReLU"
  bottom: "inception_4d/1x1"
  top: "inception_4d/1x1"
}
layer {
  name: "inception_4d/3x3_reduce"
  type: "Convolution"
  bottom: "inception_4c/output"
  top: "inception_4d/3x3_reduce"
  param {
    lr_mult: 1
    decay_mult: 1
  }
  param {
    lr_mult: 2
    decay_mult: 0
  }
  convolution_param {
    num_output: 144
    kernel_size: 1
    weight_filler {
      type: "xavier"
      std: 0.09
    }
    bias_filler {
      type: "constant"
      value: 0.2
    }
  }
}
layer {
  name: "inception_4d/relu_3x3_reduce"
  type: "ReLU"
  bottom: "inception_4d/3x3_reduce"
  top: "inception_4d/3x3_reduce"
}
layer {
  name: "inception_4d/3x3"
  type: "Convolution"
  bottom: "inception_4d/3x3_reduce"
  top: "inception_4d/3x3"
  param {
    lr_mult: 1
    decay_mult: 1
  }
  param {
    lr_mult: 2
    decay_mult: 0
  }
  convolution_param {
    num_output: 288
    pad: 1
    kernel_size: 3
    weight_filler {
      type: "xavier"
      std: 0.03
    }
    bias_filler {
      type: "constant"
      value: 0.2
    }
  }
}
layer {
  name: "inception_4d/relu_3x3"
  type: "ReLU"
  bottom: "inception_4d/3x3"
  top: "inception_4d/3x3"
}
layer {
  name: "inception_4d/5x5_reduce"
  type: "Convolution"
  bottom: "inception_4c/output"
  top: "inception_4d/5x5_reduce"
  param {
    lr_mult: 1
    decay_mult: 1
  }
  param {
    lr_mult: 2
    decay_mult: 0
  }
  convolution_param {
    num_output: 32
    kernel_size: 1
    weight_filler {
      type: "xavier"
      std: 0.2
    }
    bias_filler {
      type: "constant"
      value: 0.2
    }
  }
}
layer {
  name: "inception_4d/relu_5x5_reduce"
  type: "ReLU"
  bottom: "inception_4d/5x5_reduce"
  top: "inception_4d/5x5_reduce"
}
layer {
  name: "inception_4d/5x5"
  type: "Convolution"
  bottom: "inception_4d/5x5_reduce"
  top: "inception_4d/5x5"
  param {
    lr_mult: 1
    decay_mult: 1
  }
  param {
    lr_mult: 2
    decay_mult: 0
  }
  convolution_param {
    num_output: 64
    pad: 2
    kernel_size: 5
    weight_filler {
      type: "xavier"
      std: 0.03
    }
    bias_filler {
      type: "constant"
      value: 0.2
    }
  }
}
layer {
  name: "inception_4d/relu_5x5"
  type: "ReLU"
  bottom: "inception_4d/5x5"
  top: "inception_4d/5x5"
}
layer {
  name: "inception_4d/pool"
  type: "Pooling"
  bottom: "inception_4c/output"
  top: "inception_4d/pool"
  pooling_param {
    pool: MAX
    kernel_size: 3
    stride: 1
    pad: 1
  }
}
layer {
  name: "inception_4d/pool_proj"
  type: "Convolution"
  bottom: "inception_4d/pool"
  top: "inception_4d/pool_proj"
  param {
    lr_mult: 1
    decay_mult: 1
  }
  param {
    lr_mult: 2
    decay_mult: 0
  }
  convolution_param {
    num_output: 64
    kernel_size: 1
    weight_filler {
      type: "xavier"
      std: 0.1
    }
    bias_filler {
      type: "constant"
      value: 0.2
    }
  }
}
layer {
  name: "inception_4d/relu_pool_proj"
  type: "ReLU"
  bottom: "inception_4d/pool_proj"
  top: "inception_4d/pool_proj"
}
layer {
  name: "inception_4d/output"
  type: "Concat"
  bottom: "inception_4d/1x1"
  bottom: "inception_4d/3x3"
  bottom: "inception_4d/5x5"
  bottom: "inception_4d/pool_proj"
  top: "inception_4d/output"
}
layer {
  name: "loss2/ave_pool"
  type: "Pooling"
  bottom: "inception_4d/output"
  top: "loss2/ave_pool"
  pooling_param {
    pool: AVE
    kernel_size: 5
    stride: 3
  }
}
layer {
  name: "loss2/conv"
  type: "Convolution"
  bottom: "loss2/ave_pool"
  top: "loss2/conv"
  param {
    lr_mult: 1
    decay_mult: 1
  }
  param {
    lr_mult: 2
    decay_mult: 0
  }
  convolution_param {
    num_output: 128
    kernel_size: 1
    weight_filler {
      type: "xavier"
      std: 0.08
    }
    bias_filler {
      type: "constant"
      value: 0.2
    }
  }
}
layer {
  name: "loss2/relu_conv"
  type: "ReLU"
  bottom: "loss2/conv"
  top: "loss2/conv"
}
layer {
  name: "loss2/fc"
  type: "InnerProduct"
  bottom: "loss2/conv"
  top: "loss2/fc"
  param {
    lr_mult: 1
    decay_mult: 1
  }
  param {
    lr_mult: 2
    decay_mult: 0
  }
  inner_product_param {
    num_output: 1024
    weight_filler {
      type: "xavier"
      std: 0.02
    }
    bias_filler {
      type: "constant"
      value: 0.2
    }
  }
}
layer {
  name: "loss2/relu_fc"
  type: "ReLU"
  bottom: "loss2/fc"
  top: "loss2/fc"
}
layer {
  name: "loss2/drop_fc"
  type: "Dropout"
  bottom: "loss2/fc"
  top: "loss2/fc"
  dropout_param {
    dropout_ratio: 0.7
  }
}
layer {
  name: "loss2/classifier_plantvillage"
  type: "InnerProduct"
  bottom: "loss2/fc"
  top: "loss2/classifier_plantvillage"
  param {
    lr_mult: 1
    decay_mult: 1
  }
  param {
    lr_mult: 2
    decay_mult: 0
  }
  inner_product_param {
    num_output: 38
    weight_filler {
      type: "xavier"
      std: 0.0009765625
    }
    bias_filler {
      type: "constant"
      value: 0
    }
  }
}
layer {
  name: "inception_4e/1x1"
  type: "Convolution"
  bottom: "inception_4d/output"
  top: "inception_4e/1x1"
  param {
    lr_mult: 1
    decay_mult: 1
  }
  param {
    lr_mult: 2
    decay_mult: 0
  }
  convolution_param {
    num_output: 256
    kernel_size: 1
    weight_filler {
      type: "xavier"
      std: 0.03
    }
    bias_filler {
      type: "constant"
      value: 0.2
    }
  }
}
layer {
  name: "inception_4e/relu_1x1"
  type: "ReLU"
  bottom: "inception_4e/1x1"
  top: "inception_4e/1x1"
}
layer {
  name: "inception_4e/3x3_reduce"
  type: "Convolution"
  bottom: "inception_4d/output"
  top: "inception_4e/3x3_reduce"
  param {
    lr_mult: 1
    decay_mult: 1
  }
  param {
    lr_mult: 2
    decay_mult: 0
  }
  convolution_param {
    num_output: 160
    kernel_size: 1
    weight_filler {
      type: "xavier"
      std: 0.09
    }
    bias_filler {
      type: "constant"
      value: 0.2
    }
  }
}
layer {
  name: "inception_4e/relu_3x3_reduce"
  type: "ReLU"
  bottom: "inception_4e/3x3_reduce"
  top: "inception_4e/3x3_reduce"
}
layer {
  name: "inception_4e/3x3"
  type: "Convolution"
  bottom: "inception_4e/3x3_reduce"
  top: "inception_4e/3x3"
  param {
    lr_mult: 1
    decay_mult: 1
  }
  param {
    lr_mult: 2
    decay_mult: 0
  }
  convolution_param {
    num_output: 320
    pad: 1
    kernel_size: 3
    weight_filler {
      type: "xavier"
      std: 0.03
    }
    bias_filler {
      type: "constant"
      value: 0.2
    }
  }
}
layer {
  name: "inception_4e/relu_3x3"
  type: "ReLU"
  bottom: "inception_4e/3x3"
  top: "inception_4e/3x3"
}
layer {
  name: "inception_4e/5x5_reduce"
  type: "Convolution"
  bottom: "inception_4d/output"
  top: "inception_4e/5x5_reduce"
  param {
    lr_mult: 1
    decay_mult: 1
  }
  param {
    lr_mult: 2
    decay_mult: 0
  }
  convolution_param {
    num_output: 32
    kernel_size: 1
    weight_filler {
      type: "xavier"
      std: 0.2
    }
    bias_filler {
      type: "constant"
      value: 0.2
    }
  }
}
layer {
  name: "inception_4e/relu_5x5_reduce"
  type: "ReLU"
  bottom: "inception_4e/5x5_reduce"
  top: "inception_4e/5x5_reduce"
}
layer {
  name: "inception_4e/5x5"
  type: "Convolution"
  bottom: "inception_4e/5x5_reduce"
  top: "inception_4e/5x5"
  p
I0403 19:51:49.252929  9771 layer_factory.hpp:77] Creating layer data
I0403 19:51:49.253561  9771 net.cpp:91] Creating Layer data
I0403 19:51:49.253592  9771 net.cpp:399] data -> data
I0403 19:51:49.253646  9771 net.cpp:399] data -> label
I0403 19:51:49.253684  9771 data_transformer.cpp:25] Loading mean file from: /home/mohanty/data/final_dataset/lmdb/color-50-50/mean.binaryproto
I0403 19:51:49.255563  9776 db_lmdb.cpp:38] Opened lmdb /home/mohanty/data/final_dataset/lmdb/color-50-50/test_db
I0403 19:51:49.267706  9771 data_layer.cpp:41] output data size: 24,3,224,224
I0403 19:51:49.296586  9771 net.cpp:141] Setting up data
I0403 19:51:49.296665  9771 net.cpp:148] Top shape: 24 3 224 224 (3612672)
I0403 19:51:49.296689  9771 net.cpp:148] Top shape: 24 (24)
I0403 19:51:49.296705  9771 net.cpp:156] Memory required for data: 14450784
I0403 19:51:49.296732  9771 layer_factory.hpp:77] Creating layer label_data_1_split
I0403 19:51:49.296761  9771 net.cpp:91] Creating Layer label_data_1_split
I0403 19:51:49.296779  9771 net.cpp:425] label_data_1_split <- label
I0403 19:51:49.296811  9771 net.cpp:399] label_data_1_split -> label_data_1_split_0
I0403 19:51:49.296840  9771 net.cpp:399] label_data_1_split -> label_data_1_split_1
I0403 19:51:49.296861  9771 net.cpp:399] label_data_1_split -> label_data_1_split_2
I0403 19:51:49.296883  9771 net.cpp:399] label_data_1_split -> label_data_1_split_3
I0403 19:51:49.296903  9771 net.cpp:399] label_data_1_split -> label_data_1_split_4
I0403 19:51:49.296923  9771 net.cpp:399] label_data_1_split -> label_data_1_split_5
I0403 19:51:49.296942  9771 net.cpp:399] label_data_1_split -> label_data_1_split_6
I0403 19:51:49.296963  9771 net.cpp:399] label_data_1_split -> label_data_1_split_7
I0403 19:51:49.296983  9771 net.cpp:399] label_data_1_split -> label_data_1_split_8
I0403 19:51:49.297003  9771 net.cpp:399] label_data_1_split -> label_data_1_split_9
I0403 19:51:49.297122  9771 net.cpp:141] Setting up label_data_1_split
I0403 19:51:49.297147  9771 net.cpp:148] Top shape: 24 (24)
I0403 19:51:49.297164  9771 net.cpp:148] Top shape: 24 (24)
I0403 19:51:49.297183  9771 net.cpp:148] Top shape: 24 (24)
I0403 19:51:49.297199  9771 net.cpp:148] Top shape: 24 (24)
I0403 19:51:49.297215  9771 net.cpp:148] Top shape: 24 (24)
I0403 19:51:49.297231  9771 net.cpp:148] Top shape: 24 (24)
I0403 19:51:49.297255  9771 net.cpp:148] Top shape: 24 (24)
I0403 19:51:49.297272  9771 net.cpp:148] Top shape: 24 (24)
I0403 19:51:49.297289  9771 net.cpp:148] Top shape: 24 (24)
I0403 19:51:49.297307  9771 net.cpp:148] Top shape: 24 (24)
I0403 19:51:49.297353  9771 net.cpp:156] Memory required for data: 14451744
I0403 19:51:49.297371  9771 layer_factory.hpp:77] Creating layer conv1/7x7_s2
I0403 19:51:49.297405  9771 net.cpp:91] Creating Layer conv1/7x7_s2
I0403 19:51:49.297423  9771 net.cpp:425] conv1/7x7_s2 <- data
I0403 19:51:49.297442  9771 net.cpp:399] conv1/7x7_s2 -> conv1/7x7_s2
I0403 19:51:49.442055  9771 net.cpp:141] Setting up conv1/7x7_s2
I0403 19:51:49.442126  9771 net.cpp:148] Top shape: 24 64 112 112 (19267584)
I0403 19:51:49.442143  9771 net.cpp:156] Memory required for data: 91522080
I0403 19:51:49.442178  9771 layer_factory.hpp:77] Creating layer conv1/relu_7x7
I0403 19:51:49.442209  9771 net.cpp:91] Creating Layer conv1/relu_7x7
I0403 19:51:49.442229  9771 net.cpp:425] conv1/relu_7x7 <- conv1/7x7_s2
I0403 19:51:49.442260  9771 net.cpp:386] conv1/relu_7x7 -> conv1/7x7_s2 (in-place)
I0403 19:51:49.442543  9771 net.cpp:141] Setting up conv1/relu_7x7
I0403 19:51:49.442572  9771 net.cpp:148] Top shape: 24 64 112 112 (19267584)
I0403 19:51:49.442589  9771 net.cpp:156] Memory required for data: 168592416
I0403 19:51:49.442606  9771 layer_factory.hpp:77] Creating layer pool1/3x3_s2
I0403 19:51:49.442633  9771 net.cpp:91] Creating Layer pool1/3x3_s2
I0403 19:51:49.442654  9771 net.cpp:425] pool1/3x3_s2 <- conv1/7x7_s2
I0403 19:51:49.442674  9771 net.cpp:399] pool1/3x3_s2 -> pool1/3x3_s2
I0403 19:51:49.442752  9771 net.cpp:141] Setting up pool1/3x3_s2
I0403 19:51:49.442780  9771 net.cpp:148] Top shape: 24 64 56 56 (4816896)
I0403 19:51:49.442795  9771 net.cpp:156] Memory required for data: 187860000
I0403 19:51:49.442811  9771 layer_factory.hpp:77] Creating layer pool1/norm1
I0403 19:51:49.442838  9771 net.cpp:91] Creating Layer pool1/norm1
I0403 19:51:49.442858  9771 net.cpp:425] pool1/norm1 <- pool1/3x3_s2
I0403 19:51:49.442878  9771 net.cpp:399] pool1/norm1 -> pool1/norm1
I0403 19:51:49.443191  9771 net.cpp:141] Setting up pool1/norm1
I0403 19:51:49.443228  9771 net.cpp:148] Top shape: 24 64 56 56 (4816896)
I0403 19:51:49.443253  9771 net.cpp:156] Memory required for data: 207127584
I0403 19:51:49.443271  9771 layer_factory.hpp:77] Creating layer conv2/3x3_reduce
I0403 19:51:49.443297  9771 net.cpp:91] Creating Layer conv2/3x3_reduce
I0403 19:51:49.443315  9771 net.cpp:425] conv2/3x3_reduce <- pool1/norm1
I0403 19:51:49.443336  9771 net.cpp:399] conv2/3x3_reduce -> conv2/3x3_reduce
I0403 19:51:49.444900  9771 net.cpp:141] Setting up conv2/3x3_reduce
I0403 19:51:49.444941  9771 net.cpp:148] Top shape: 24 64 56 56 (4816896)
I0403 19:51:49.444962  9771 net.cpp:156] Memory required for data: 226395168
I0403 19:51:49.444989  9771 layer_factory.hpp:77] Creating layer conv2/relu_3x3_reduce
I0403 19:51:49.445015  9771 net.cpp:91] Creating Layer conv2/relu_3x3_reduce
I0403 19:51:49.445036  9771 net.cpp:425] conv2/relu_3x3_reduce <- conv2/3x3_reduce
I0403 19:51:49.445060  9771 net.cpp:386] conv2/relu_3x3_reduce -> conv2/3x3_reduce (in-place)
I0403 19:51:49.445379  9771 net.cpp:141] Setting up conv2/relu_3x3_reduce
I0403 19:51:49.445412  9771 net.cpp:148] Top shape: 24 64 56 56 (4816896)
I0403 19:51:49.445433  9771 net.cpp:156] Memory required for data: 245662752
I0403 19:51:49.445454  9771 layer_factory.hpp:77] Creating layer conv2/3x3
I0403 19:51:49.445484  9771 net.cpp:91] Creating Layer conv2/3x3
I0403 19:51:49.445508  9771 net.cpp:425] conv2/3x3 <- conv2/3x3_reduce
I0403 19:51:49.445534  9771 net.cpp:399] conv2/3x3 -> conv2/3x3
I0403 19:51:49.447974  9771 net.cpp:141] Setting up conv2/3x3
I0403 19:51:49.448016  9771 net.cpp:148] Top shape: 24 192 56 56 (14450688)
I0403 19:51:49.448034  9771 net.cpp:156] Memory required for data: 303465504
I0403 19:51:49.448056  9771 layer_factory.hpp:77] Creating layer conv2/relu_3x3
I0403 19:51:49.448091  9771 net.cpp:91] Creating Layer conv2/relu_3x3
I0403 19:51:49.448109  9771 net.cpp:425] conv2/relu_3x3 <- conv2/3x3
I0403 19:51:49.448129  9771 net.cpp:386] conv2/relu_3x3 -> conv2/3x3 (in-place)
I0403 19:51:49.448318  9771 net.cpp:141] Setting up conv2/relu_3x3
I0403 19:51:49.448346  9771 net.cpp:148] Top shape: 24 192 56 56 (14450688)
I0403 19:51:49.448396  9771 net.cpp:156] Memory required for data: 361268256
I0403 19:51:49.448424  9771 layer_factory.hpp:77] Creating layer conv2/norm2
I0403 19:51:49.448444  9771 net.cpp:91] Creating Layer conv2/norm2
I0403 19:51:49.448463  9771 net.cpp:425] conv2/norm2 <- conv2/3x3
I0403 19:51:49.448487  9771 net.cpp:399] conv2/norm2 -> conv2/norm2
I0403 19:51:49.448796  9771 net.cpp:141] Setting up conv2/norm2
I0403 19:51:49.448832  9771 net.cpp:148] Top shape: 24 192 56 56 (14450688)
I0403 19:51:49.448850  9771 net.cpp:156] Memory required for data: 419071008
I0403 19:51:49.448869  9771 layer_factory.hpp:77] Creating layer pool2/3x3_s2
I0403 19:51:49.448889  9771 net.cpp:91] Creating Layer pool2/3x3_s2
I0403 19:51:49.448910  9771 net.cpp:425] pool2/3x3_s2 <- conv2/norm2
I0403 19:51:49.448938  9771 net.cpp:399] pool2/3x3_s2 -> pool2/3x3_s2
I0403 19:51:49.448995  9771 net.cpp:141] Setting up pool2/3x3_s2
I0403 19:51:49.449033  9771 net.cpp:148] Top shape: 24 192 28 28 (3612672)
I0403 19:51:49.449053  9771 net.cpp:156] Memory required for data: 433521696
I0403 19:51:49.449069  9771 layer_factory.hpp:77] Creating layer pool2/3x3_s2_pool2/3x3_s2_0_split
I0403 19:51:49.449103  9771 net.cpp:91] Creating Layer pool2/3x3_s2_pool2/3x3_s2_0_split
I0403 19:51:49.449131  9771 net.cpp:425] pool2/3x3_s2_pool2/3x3_s2_0_split <- pool2/3x3_s2
I0403 19:51:49.449149  9771 net.cpp:399] pool2/3x3_s2_pool2/3x3_s2_0_split -> pool2/3x3_s2_pool2/3x3_s2_0_split_0
I0403 19:51:49.449170  9771 net.cpp:399] pool2/3x3_s2_pool2/3x3_s2_0_split -> pool2/3x3_s2_pool2/3x3_s2_0_split_1
I0403 19:51:49.449193  9771 net.cpp:399] pool2/3x3_s2_pool2/3x3_s2_0_split -> pool2/3x3_s2_pool2/3x3_s2_0_split_2
I0403 19:51:49.449213  9771 net.cpp:399] pool2/3x3_s2_pool2/3x3_s2_0_split -> pool2/3x3_s2_pool2/3x3_s2_0_split_3
I0403 19:51:49.449291  9771 net.cpp:141] Setting up pool2/3x3_s2_pool2/3x3_s2_0_split
I0403 19:51:49.449329  9771 net.cpp:148] Top shape: 24 192 28 28 (3612672)
I0403 19:51:49.449347  9771 net.cpp:148] Top shape: 24 192 28 28 (3612672)
I0403 19:51:49.449373  9771 net.cpp:148] Top shape: 24 192 28 28 (3612672)
I0403 19:51:49.449390  9771 net.cpp:148] Top shape: 24 192 28 28 (3612672)
I0403 19:51:49.449414  9771 net.cpp:156] Memory required for data: 491324448
I0403 19:51:49.449429  9771 layer_factory.hpp:77] Creating layer inception_3a/1x1
I0403 19:51:49.449461  9771 net.cpp:91] Creating Layer inception_3a/1x1
I0403 19:51:49.449481  9771 net.cpp:425] inception_3a/1x1 <- pool2/3x3_s2_pool2/3x3_s2_0_split_0
I0403 19:51:49.449512  9771 net.cpp:399] inception_3a/1x1 -> inception_3a/1x1
I0403 19:51:49.451201  9771 net.cpp:141] Setting up inception_3a/1x1
I0403 19:51:49.451247  9771 net.cpp:148] Top shape: 24 64 28 28 (1204224)
I0403 19:51:49.451267  9771 net.cpp:156] Memory required for data: 496141344
I0403 19:51:49.451299  9771 layer_factory.hpp:77] Creating layer inception_3a/relu_1x1
I0403 19:51:49.451328  9771 net.cpp:91] Creating Layer inception_3a/relu_1x1
I0403 19:51:49.451349  9771 net.cpp:425] inception_3a/relu_1x1 <- inception_3a/1x1
I0403 19:51:49.451380  9771 net.cpp:386] inception_3a/relu_1x1 -> inception_3a/1x1 (in-place)
I0403 19:51:49.451570  9771 net.cpp:141] Setting up inception_3a/relu_1x1
I0403 19:51:49.451598  9771 net.cpp:148] Top shape: 24 64 28 28 (1204224)
I0403 19:51:49.451623  9771 net.cpp:156] Memory required for data: 500958240
I0403 19:51:49.451639  9771 layer_factory.hpp:77] Creating layer inception_3a/3x3_reduce
I0403 19:51:49.451665  9771 net.cpp:91] Creating Layer inception_3a/3x3_reduce
I0403 19:51:49.451692  9771 net.cpp:425] inception_3a/3x3_reduce <- pool2/3x3_s2_pool2/3x3_s2_0_split_1
I0403 19:51:49.451715  9771 net.cpp:399] inception_3a/3x3_reduce -> inception_3a/3x3_reduce
I0403 19:51:49.453574  9771 net.cpp:141] Setting up inception_3a/3x3_reduce
I0403 19:51:49.453614  9771 net.cpp:148] Top shape: 24 96 28 28 (1806336)
I0403 19:51:49.453634  9771 net.cpp:156] Memory required for data: 508183584
I0403 19:51:49.453657  9771 layer_factory.hpp:77] Creating layer inception_3a/relu_3x3_reduce
I0403 19:51:49.453701  9771 net.cpp:91] Creating Layer inception_3a/relu_3x3_reduce
I0403 19:51:49.453728  9771 net.cpp:425] inception_3a/relu_3x3_reduce <- inception_3a/3x3_reduce
I0403 19:51:49.453752  9771 net.cpp:386] inception_3a/relu_3x3_reduce -> inception_3a/3x3_reduce (in-place)
I0403 19:51:49.453946  9771 net.cpp:141] Setting up inception_3a/relu_3x3_reduce
I0403 19:51:49.453975  9771 net.cpp:148] Top shape: 24 96 28 28 (1806336)
I0403 19:51:49.453992  9771 net.cpp:156] Memory required for data: 515408928
I0403 19:51:49.454008  9771 layer_factory.hpp:77] Creating layer inception_3a/3x3
I0403 19:51:49.454032  9771 net.cpp:91] Creating Layer inception_3a/3x3
I0403 19:51:49.454051  9771 net.cpp:425] inception_3a/3x3 <- inception_3a/3x3_reduce
I0403 19:51:49.454071  9771 net.cpp:399] inception_3a/3x3 -> inception_3a/3x3
I0403 19:51:49.455814  9771 net.cpp:141] Setting up inception_3a/3x3
I0403 19:51:49.455853  9771 net.cpp:148] Top shape: 24 128 28 28 (2408448)
I0403 19:51:49.455876  9771 net.cpp:156] Memory required for data: 525042720
I0403 19:51:49.455906  9771 layer_factory.hpp:77] Creating layer inception_3a/relu_3x3
I0403 19:51:49.455925  9771 net.cpp:91] Creating Layer inception_3a/relu_3x3
I0403 19:51:49.455942  9771 net.cpp:425] inception_3a/relu_3x3 <- inception_3a/3x3
I0403 19:51:49.455963  9771 net.cpp:386] inception_3a/relu_3x3 -> inception_3a/3x3 (in-place)
I0403 19:51:49.456261  9771 net.cpp:141] Setting up inception_3a/relu_3x3
I0403 19:51:49.456290  9771 net.cpp:148] Top shape: 24 128 28 28 (2408448)
I0403 19:51:49.456306  9771 net.cpp:156] Memory required for data: 534676512
I0403 19:51:49.456322  9771 layer_factory.hpp:77] Creating layer inception_3a/5x5_reduce
I0403 19:51:49.456346  9771 net.cpp:91] Creating Layer inception_3a/5x5_reduce
I0403 19:51:49.456364  9771 net.cpp:425] inception_3a/5x5_reduce <- pool2/3x3_s2_pool2/3x3_s2_0_split_2
I0403 19:51:49.456387  9771 net.cpp:399] inception_3a/5x5_reduce -> inception_3a/5x5_reduce
I0403 19:51:49.457406  9771 net.cpp:141] Setting up inception_3a/5x5_reduce
I0403 19:51:49.457439  9771 net.cpp:148] Top shape: 24 16 28 28 (301056)
I0403 19:51:49.457458  9771 net.cpp:156] Memory required for data: 535880736
I0403 19:51:49.457478  9771 layer_factory.hpp:77] Creating layer inception_3a/relu_5x5_reduce
I0403 19:51:49.457500  9771 net.cpp:91] Creating Layer inception_3a/relu_5x5_reduce
I0403 19:51:49.457525  9771 net.cpp:425] inception_3a/relu_5x5_reduce <- inception_3a/5x5_reduce
I0403 19:51:49.457552  9771 net.cpp:386] inception_3a/relu_5x5_reduce -> inception_3a/5x5_reduce (in-place)
I0403 19:51:49.457859  9771 net.cpp:141] Setting up inception_3a/relu_5x5_reduce
I0403 19:51:49.457891  9771 net.cpp:148] Top shape: 24 16 28 28 (301056)
I0403 19:51:49.457916  9771 net.cpp:156] Memory required for data: 537084960
I0403 19:51:49.457940  9771 layer_factory.hpp:77] Creating layer inception_3a/5x5
I0403 19:51:49.457972  9771 net.cpp:91] Creating Layer inception_3a/5x5
I0403 19:51:49.457990  9771 net.cpp:425] inception_3a/5x5 <- inception_3a/5x5_reduce
I0403 19:51:49.458014  9771 net.cpp:399] inception_3a/5x5 -> inception_3a/5x5
I0403 19:51:49.459133  9771 net.cpp:141] Setting up inception_3a/5x5
I0403 19:51:49.459172  9771 net.cpp:148] Top shape: 24 32 28 28 (602112)
I0403 19:51:49.459189  9771 net.cpp:156] Memory required for data: 539493408
I0403 19:51:49.459213  9771 layer_factory.hpp:77] Creating layer inception_3a/relu_5x5
I0403 19:51:49.459238  9771 net.cpp:91] Creating Layer inception_3a/relu_5x5
I0403 19:51:49.459260  9771 net.cpp:425] inception_3a/relu_5x5 <- inception_3a/5x5
I0403 19:51:49.459283  9771 net.cpp:386] inception_3a/relu_5x5 -> inception_3a/5x5 (in-place)
I0403 19:51:49.459476  9771 net.cpp:141] Setting up inception_3a/relu_5x5
I0403 19:51:49.459514  9771 net.cpp:148] Top shape: 24 32 28 28 (602112)
I0403 19:51:49.459555  9771 net.cpp:156] Memory required for data: 541901856
I0403 19:51:49.459573  9771 layer_factory.hpp:77] Creating layer inception_3a/pool
I0403 19:51:49.459594  9771 net.cpp:91] Creating Layer inception_3a/pool
I0403 19:51:49.459619  9771 net.cpp:425] inception_3a/pool <- pool2/3x3_s2_pool2/3x3_s2_0_split_3
I0403 19:51:49.459671  9771 net.cpp:399] inception_3a/pool -> inception_3a/pool
I0403 19:51:49.459739  9771 net.cpp:141] Setting up inception_3a/pool
I0403 19:51:49.459766  9771 net.cpp:148] Top shape: 24 192 28 28 (3612672)
I0403 19:51:49.459782  9771 net.cpp:156] Memory required for data: 556352544
I0403 19:51:49.459802  9771 layer_factory.hpp:77] Creating layer inception_3a/pool_proj
I0403 19:51:49.459826  9771 net.cpp:91] Creating Layer inception_3a/pool_proj
I0403 19:51:49.459844  9771 net.cpp:425] inception_3a/pool_proj <- inception_3a/pool
I0403 19:51:49.459867  9771 net.cpp:399] inception_3a/pool_proj -> inception_3a/pool_proj
I0403 19:51:49.460878  9771 net.cpp:141] Setting up inception_3a/pool_proj
I0403 19:51:49.460911  9771 net.cpp:148] Top shape: 24 32 28 28 (602112)
I0403 19:51:49.460929  9771 net.cpp:156] Memory required for data: 558760992
I0403 19:51:49.460953  9771 layer_factory.hpp:77] Creating layer inception_3a/relu_pool_proj
I0403 19:51:49.460976  9771 net.cpp:91] Creating Layer inception_3a/relu_pool_proj
I0403 19:51:49.460996  9771 net.cpp:425] inception_3a/relu_pool_proj <- inception_3a/pool_proj
I0403 19:51:49.461015  9771 net.cpp:386] inception_3a/relu_pool_proj -> inception_3a/pool_proj (in-place)
I0403 19:51:49.461309  9771 net.cpp:141] Setting up inception_3a/relu_pool_proj
I0403 19:51:49.461338  9771 net.cpp:148] Top shape: 24 32 28 28 (602112)
I0403 19:51:49.461355  9771 net.cpp:156] Memory required for data: 561169440
I0403 19:51:49.461371  9771 layer_factory.hpp:77] Creating layer inception_3a/output
I0403 19:51:49.461392  9771 net.cpp:91] Creating Layer inception_3a/output
I0403 19:51:49.461410  9771 net.cpp:425] inception_3a/output <- inception_3a/1x1
I0403 19:51:49.461428  9771 net.cpp:425] inception_3a/output <- inception_3a/3x3
I0403 19:51:49.461446  9771 net.cpp:425] inception_3a/output <- inception_3a/5x5
I0403 19:51:49.461462  9771 net.cpp:425] inception_3a/output <- inception_3a/pool_proj
I0403 19:51:49.461484  9771 net.cpp:399] inception_3a/output -> inception_3a/output
I0403 19:51:49.461536  9771 net.cpp:141] Setting up inception_3a/output
I0403 19:51:49.461566  9771 net.cpp:148] Top shape: 24 256 28 28 (4816896)
I0403 19:51:49.461583  9771 net.cpp:156] Memory required for data: 580437024
I0403 19:51:49.461598  9771 layer_factory.hpp:77] Creating layer inception_3a/output_inception_3a/output_0_split
I0403 19:51:49.461616  9771 net.cpp:91] Creating Layer inception_3a/output_inception_3a/output_0_split
I0403 19:51:49.461633  9771 net.cpp:425] inception_3a/output_inception_3a/output_0_split <- inception_3a/output
I0403 19:51:49.461653  9771 net.cpp:399] inception_3a/output_inception_3a/output_0_split -> inception_3a/output_inception_3a/output_0_split_0
I0403 19:51:49.461676  9771 net.cpp:399] inception_3a/output_inception_3a/output_0_split -> inception_3a/output_inception_3a/output_0_split_1
I0403 19:51:49.461704  9771 net.cpp:399] inception_3a/output_inception_3a/output_0_split -> inception_3a/output_inception_3a/output_0_split_2
I0403 19:51:49.461730  9771 net.cpp:399] inception_3a/output_inception_3a/output_0_split -> inception_3a/output_inception_3a/output_0_split_3
I0403 19:51:49.461810  9771 net.cpp:141] Setting up inception_3a/output_inception_3a/output_0_split
I0403 19:51:49.461836  9771 net.cpp:148] Top shape: 24 256 28 28 (4816896)
I0403 19:51:49.461856  9771 net.cpp:148] Top shape: 24 256 28 28 (4816896)
I0403 19:51:49.461874  9771 net.cpp:148] Top shape: 24 256 28 28 (4816896)
I0403 19:51:49.461891  9771 net.cpp:148] Top shape: 24 256 28 28 (4816896)
I0403 19:51:49.461907  9771 net.cpp:156] Memory required for data: 657507360
I0403 19:51:49.461923  9771 layer_factory.hpp:77] Creating layer inception_3b/1x1
I0403 19:51:49.461946  9771 net.cpp:91] Creating Layer inception_3b/1x1
I0403 19:51:49.461966  9771 net.cpp:425] inception_3b/1x1 <- inception_3a/output_inception_3a/output_0_split_0
I0403 19:51:49.461985  9771 net.cpp:399] inception_3b/1x1 -> inception_3b/1x1
I0403 19:51:49.463186  9771 net.cpp:141] Setting up inception_3b/1x1
I0403 19:51:49.463230  9771 net.cpp:148] Top shape: 24 128 28 28 (2408448)
I0403 19:51:49.463255  9771 net.cpp:156] Memory required for data: 667141152
I0403 19:51:49.463275  9771 layer_factory.hpp:77] Creating layer inception_3b/relu_1x1
I0403 19:51:49.463295  9771 net.cpp:91] Creating Layer inception_3b/relu_1x1
I0403 19:51:49.463312  9771 net.cpp:425] inception_3b/relu_1x1 <- inception_3b/1x1
I0403 19:51:49.463335  9771 net.cpp:386] inception_3b/relu_1x1 -> inception_3b/1x1 (in-place)
I0403 19:51:49.463518  9771 net.cpp:141] Setting up inception_3b/relu_1x1
I0403 19:51:49.463546  9771 net.cpp:148] Top shape: 24 128 28 28 (2408448)
I0403 19:51:49.463562  9771 net.cpp:156] Memory required for data: 676774944
I0403 19:51:49.463578  9771 layer_factory.hpp:77] Creating layer inception_3b/3x3_reduce
I0403 19:51:49.463603  9771 net.cpp:91] Creating Layer inception_3b/3x3_reduce
I0403 19:51:49.463620  9771 net.cpp:425] inception_3b/3x3_reduce <- inception_3a/output_inception_3a/output_0_split_1
I0403 19:51:49.463644  9771 net.cpp:399] inception_3b/3x3_reduce -> inception_3b/3x3_reduce
I0403 19:51:49.464835  9771 net.cpp:141] Setting up inception_3b/3x3_reduce
I0403 19:51:49.464869  9771 net.cpp:148] Top shape: 24 128 28 28 (2408448)
I0403 19:51:49.464895  9771 net.cpp:156] Memory required for data: 686408736
I0403 19:51:49.464915  9771 layer_factory.hpp:77] Creating layer inception_3b/relu_3x3_reduce
I0403 19:51:49.464934  9771 net.cpp:91] Creating Layer inception_3b/relu_3x3_reduce
I0403 19:51:49.464952  9771 net.cpp:425] inception_3b/relu_3x3_reduce <- inception_3b/3x3_reduce
I0403 19:51:49.464977  9771 net.cpp:386] inception_3b/relu_3x3_reduce -> inception_3b/3x3_reduce (in-place)
I0403 19:51:49.465167  9771 net.cpp:141] Setting up inception_3b/relu_3x3_reduce
I0403 19:51:49.465194  9771 net.cpp:148] Top shape: 24 128 28 28 (2408448)
I0403 19:51:49.465210  9771 net.cpp:156] Memory required for data: 696042528
I0403 19:51:49.465226  9771 layer_factory.hpp:77] Creating layer inception_3b/3x3
I0403 19:51:49.465256  9771 net.cpp:91] Creating Layer inception_3b/3x3
I0403 19:51:49.465277  9771 net.cpp:425] inception_3b/3x3 <- inception_3b/3x3_reduce
I0403 19:51:49.465301  9771 net.cpp:399] inception_3b/3x3 -> inception_3b/3x3
I0403 19:51:49.468395  9771 net.cpp:141] Setting up inception_3b/3x3
I0403 19:51:49.468426  9771 net.cpp:148] Top shape: 24 192 28 28 (3612672)
I0403 19:51:49.468443  9771 net.cpp:156] Memory required for data: 710493216
I0403 19:51:49.468463  9771 layer_factory.hpp:77] Creating layer inception_3b/relu_3x3
I0403 19:51:49.468484  9771 net.cpp:91] Creating Layer inception_3b/relu_3x3
I0403 19:51:49.468502  9771 net.cpp:425] inception_3b/relu_3x3 <- inception_3b/3x3
I0403 19:51:49.468523  9771 net.cpp:386] inception_3b/relu_3x3 -> inception_3b/3x3 (in-place)
I0403 19:51:49.468817  9771 net.cpp:141] Setting up inception_3b/relu_3x3
I0403 19:51:49.468847  9771 net.cpp:148] Top shape: 24 192 28 28 (3612672)
I0403 19:51:49.468863  9771 net.cpp:156] Memory required for data: 724943904
I0403 19:51:49.468879  9771 layer_factory.hpp:77] Creating layer inception_3b/5x5_reduce
I0403 19:51:49.468906  9771 net.cpp:91] Creating Layer inception_3b/5x5_reduce
I0403 19:51:49.468925  9771 net.cpp:425] inception_3b/5x5_reduce <- inception_3a/output_inception_3a/output_0_split_2
I0403 19:51:49.468948  9771 net.cpp:399] inception_3b/5x5_reduce -> inception_3b/5x5_reduce
I0403 19:51:49.469997  9771 net.cpp:141] Setting up inception_3b/5x5_reduce
I0403 19:51:49.470028  9771 net.cpp:148] Top shape: 24 32 28 28 (602112)
I0403 19:51:49.470046  9771 net.cpp:156] Memory required for data: 727352352
I0403 19:51:49.470067  9771 layer_factory.hpp:77] Creating layer inception_3b/relu_5x5_reduce
I0403 19:51:49.470085  9771 net.cpp:91] Creating Layer inception_3b/relu_5x5_reduce
I0403 19:51:49.470103  9771 net.cpp:425] inception_3b/relu_5x5_reduce <- inception_3b/5x5_reduce
I0403 19:51:49.470124  9771 net.cpp:386] inception_3b/relu_5x5_reduce -> inception_3b/5x5_reduce (in-place)
I0403 19:51:49.470312  9771 net.cpp:141] Setting up inception_3b/relu_5x5_reduce
I0403 19:51:49.470352  9771 net.cpp:148] Top shape: 24 32 28 28 (602112)
I0403 19:51:49.470369  9771 net.cpp:156] Memory required for data: 729760800
I0403 19:51:49.470386  9771 layer_factory.hpp:77] Creating layer inception_3b/5x5
I0403 19:51:49.470410  9771 net.cpp:91] Creating Layer inception_3b/5x5
I0403 19:51:49.470428  9771 net.cpp:425] inception_3b/5x5 <- inception_3b/5x5_reduce
I0403 19:51:49.470451  9771 net.cpp:399] inception_3b/5x5 -> inception_3b/5x5
I0403 19:51:49.477336  9771 net.cpp:141] Setting up inception_3b/5x5
I0403 19:51:49.477375  9771 net.cpp:148] Top shape: 24 96 28 28 (1806336)
I0403 19:51:49.477401  9771 net.cpp:156] Memory required for data: 736986144
I0403 19:51:49.477429  9771 layer_factory.hpp:77] Creating layer inception_3b/relu_5x5
I0403 19:51:49.477452  9771 net.cpp:91] Creating Layer inception_3b/relu_5x5
I0403 19:51:49.477478  9771 net.cpp:425] inception_3b/relu_5x5 <- inception_3b/5x5
I0403 19:51:49.477504  9771 net.cpp:386] inception_3b/relu_5x5 -> inception_3b/5x5 (in-place)
I0403 19:51:49.477720  9771 net.cpp:141] Setting up inception_3b/relu_5x5
I0403 19:51:49.477754  9771 net.cpp:148] Top shape: 24 96 28 28 (1806336)
I0403 19:51:49.477772  9771 net.cpp:156] Memory required for data: 744211488
I0403 19:51:49.477789  9771 layer_factory.hpp:77] Creating layer inception_3b/pool
I0403 19:51:49.477820  9771 net.cpp:91] Creating Layer inception_3b/pool
I0403 19:51:49.477846  9771 net.cpp:425] inception_3b/pool <- inception_3a/output_inception_3a/output_0_split_3
I0403 19:51:49.477866  9771 net.cpp:399] inception_3b/pool -> inception_3b/pool
I0403 19:51:49.477932  9771 net.cpp:141] Setting up inception_3b/pool
I0403 19:51:49.477960  9771 net.cpp:148] Top shape: 24 256 28 28 (4816896)
I0403 19:51:49.477978  9771 net.cpp:156] Memory required for data: 763479072
I0403 19:51:49.477999  9771 layer_factory.hpp:77] Creating layer inception_3b/pool_proj
I0403 19:51:49.478031  9771 net.cpp:91] Creating Layer inception_3b/pool_proj
I0403 19:51:49.478060  9771 net.cpp:425] inception_3b/pool_proj <- inception_3b/pool
I0403 19:51:49.478080  9771 net.cpp:399] inception_3b/pool_proj -> inception_3b/pool_proj
I0403 19:51:49.479215  9771 net.cpp:141] Setting up inception_3b/pool_proj
I0403 19:51:49.479250  9771 net.cpp:148] Top shape: 24 64 28 28 (1204224)
I0403 19:51:49.479269  9771 net.cpp:156] Memory required for data: 768295968
I0403 19:51:49.479288  9771 layer_factory.hpp:77] Creating layer inception_3b/relu_pool_proj
I0403 19:51:49.479311  9771 net.cpp:91] Creating Layer inception_3b/relu_pool_proj
I0403 19:51:49.479329  9771 net.cpp:425] inception_3b/relu_pool_proj <- inception_3b/pool_proj
I0403 19:51:49.479349  9771 net.cpp:386] inception_3b/relu_pool_proj -> inception_3b/pool_proj (in-place)
I0403 19:51:49.479801  9771 net.cpp:141] Setting up inception_3b/relu_pool_proj
I0403 19:51:49.479833  9771 net.cpp:148] Top shape: 24 64 28 28 (1204224)
I0403 19:51:49.479857  9771 net.cpp:156] Memory required for data: 773112864
I0403 19:51:49.479893  9771 layer_factory.hpp:77] Creating layer inception_3b/output
I0403 19:51:49.479923  9771 net.cpp:91] Creating Layer inception_3b/output
I0403 19:51:49.479946  9771 net.cpp:425] inception_3b/output <- inception_3b/1x1
I0403 19:51:49.479971  9771 net.cpp:425] inception_3b/output <- inception_3b/3x3
I0403 19:51:49.480008  9771 net.cpp:425] inception_3b/output <- inception_3b/5x5
I0403 19:51:49.480036  9771 net.cpp:425] inception_3b/output <- inception_3b/pool_proj
I0403 19:51:49.480063  9771 net.cpp:399] inception_3b/output -> inception_3b/output
I0403 19:51:49.480126  9771 net.cpp:141] Setting up inception_3b/output
I0403 19:51:49.480159  9771 net.cpp:148] Top shape: 24 480 28 28 (9031680)
I0403 19:51:49.480196  9771 net.cpp:156] Memory required for data: 809239584
I0403 19:51:49.480228  9771 layer_factory.hpp:77] Creating layer pool3/3x3_s2
I0403 19:51:49.480258  9771 net.cpp:91] Creating Layer pool3/3x3_s2
I0403 19:51:49.480283  9771 net.cpp:425] pool3/3x3_s2 <- inception_3b/output
I0403 19:51:49.480324  9771 net.cpp:399] pool3/3x3_s2 -> pool3/3x3_s2
I0403 19:51:49.480420  9771 net.cpp:141] Setting up pool3/3x3_s2
I0403 19:51:49.480460  9771 net.cpp:148] Top shape: 24 480 14 14 (2257920)
I0403 19:51:49.480479  9771 net.cpp:156] Memory required for data: 818271264
I0403 19:51:49.480515  9771 layer_factory.hpp:77] Creating layer pool3/3x3_s2_pool3/3x3_s2_0_split
I0403 19:51:49.480545  9771 net.cpp:91] Creating Layer pool3/3x3_s2_pool3/3x3_s2_0_split
I0403 19:51:49.480564  9771 net.cpp:425] pool3/3x3_s2_pool3/3x3_s2_0_split <- pool3/3x3_s2
I0403 19:51:49.480602  9771 net.cpp:399] pool3/3x3_s2_pool3/3x3_s2_0_split -> pool3/3x3_s2_pool3/3x3_s2_0_split_0
I0403 19:51:49.480634  9771 net.cpp:399] pool3/3x3_s2_pool3/3x3_s2_0_split -> pool3/3x3_s2_pool3/3x3_s2_0_split_1
I0403 19:51:49.480665  9771 net.cpp:399] pool3/3x3_s2_pool3/3x3_s2_0_split -> pool3/3x3_s2_pool3/3x3_s2_0_split_2
I0403 19:51:49.480692  9771 net.cpp:399] pool3/3x3_s2_pool3/3x3_s2_0_split -> pool3/3x3_s2_pool3/3x3_s2_0_split_3
I0403 19:51:49.480792  9771 net.cpp:141] Setting up pool3/3x3_s2_pool3/3x3_s2_0_split
I0403 19:51:49.480820  9771 net.cpp:148] Top shape: 24 480 14 14 (2257920)
I0403 19:51:49.480844  9771 net.cpp:148] Top shape: 24 480 14 14 (2257920)
I0403 19:51:49.480865  9771 net.cpp:148] Top shape: 24 480 14 14 (2257920)
I0403 19:51:49.480883  9771 net.cpp:148] Top shape: 24 480 14 14 (2257920)
I0403 19:51:49.480901  9771 net.cpp:156] Memory required for data: 854397984
I0403 19:51:49.480918  9771 layer_factory.hpp:77] Creating layer inception_4a/1x1
I0403 19:51:49.480947  9771 net.cpp:91] Creating Layer inception_4a/1x1
I0403 19:51:49.480972  9771 net.cpp:425] inception_4a/1x1 <- pool3/3x3_s2_pool3/3x3_s2_0_split_0
I0403 19:51:49.480998  9771 net.cpp:399] inception_4a/1x1 -> inception_4a/1x1
I0403 19:51:49.482722  9771 net.cpp:141] Setting up inception_4a/1x1
I0403 19:51:49.482758  9771 net.cpp:148] Top shape: 24 192 14 14 (903168)
I0403 19:51:49.482779  9771 net.cpp:156] Memory required for data: 858010656
I0403 19:51:49.482805  9771 layer_factory.hpp:77] Creating layer inception_4a/relu_1x1
I0403 19:51:49.482828  9771 net.cpp:91] Creating Layer inception_4a/relu_1x1
I0403 19:51:49.482856  9771 net.cpp:425] inception_4a/relu_1x1 <- inception_4a/1x1
I0403 19:51:49.482880  9771 net.cpp:386] inception_4a/relu_1x1 -> inception_4a/1x1 (in-place)
I0403 19:51:49.483067  9771 net.cpp:141] Setting up inception_4a/relu_1x1
I0403 19:51:49.483096  9771 net.cpp:148] Top shape: 24 192 14 14 (903168)
I0403 19:51:49.483113  9771 net.cpp:156] Memory required for data: 861623328
I0403 19:51:49.483129  9771 layer_factory.hpp:77] Creating layer inception_4a/3x3_reduce
I0403 19:51:49.483152  9771 net.cpp:91] Creating Layer inception_4a/3x3_reduce
I0403 19:51:49.483171  9771 net.cpp:425] inception_4a/3x3_reduce <- pool3/3x3_s2_pool3/3x3_s2_0_split_1
I0403 19:51:49.483192  9771 net.cpp:399] inception_4a/3x3_reduce -> inception_4a/3x3_reduce
I0403 19:51:49.484535  9771 net.cpp:141] Setting up inception_4a/3x3_reduce
I0403 19:51:49.484570  9771 net.cpp:148] Top shape: 24 96 14 14 (451584)
I0403 19:51:49.484591  9771 net.cpp:156] Memory required for data: 863429664
I0403 19:51:49.484624  9771 layer_factory.hpp:77] Creating layer inception_4a/relu_3x3_reduce
I0403 19:51:49.484658  9771 net.cpp:91] Creating Layer inception_4a/relu_3x3_reduce
I0403 19:51:49.484675  9771 net.cpp:425] inception_4a/relu_3x3_reduce <- inception_4a/3x3_reduce
I0403 19:51:49.484695  9771 net.cpp:386] inception_4a/relu_3x3_reduce -> inception_4a/3x3_reduce (in-place)
I0403 19:51:49.484889  9771 net.cpp:141] Setting up inception_4a/relu_3x3_reduce
I0403 19:51:49.484922  9771 net.cpp:148] Top shape: 24 96 14 14 (451584)
I0403 19:51:49.484941  9771 net.cpp:156] Memory required for data: 865236000
I0403 19:51:49.484958  9771 layer_factory.hpp:77] Creating layer inception_4a/3x3
I0403 19:51:49.484983  9771 net.cpp:91] Creating Layer inception_4a/3x3
I0403 19:51:49.485008  9771 net.cpp:425] inception_4a/3x3 <- inception_4a/3x3_reduce
I0403 19:51:49.485040  9771 net.cpp:399] inception_4a/3x3 -> inception_4a/3x3
I0403 19:51:49.487874  9771 net.cpp:141] Setting up inception_4a/3x3
I0403 19:51:49.487907  9771 net.cpp:148] Top shape: 24 208 14 14 (978432)
I0403 19:51:49.487933  9771 net.cpp:156] Memory required for data: 869149728
I0403 19:51:49.487958  9771 layer_factory.hpp:77] Creating layer inception_4a/relu_3x3
I0403 19:51:49.487984  9771 net.cpp:91] Creating Layer inception_4a/relu_3x3
I0403 19:51:49.488011  9771 net.cpp:425] inception_4a/relu_3x3 <- inception_4a/3x3
I0403 19:51:49.488034  9771 net.cpp:386] inception_4a/relu_3x3 -> inception_4a/3x3 (in-place)
I0403 19:51:49.488330  9771 net.cpp:141] Setting up inception_4a/relu_3x3
I0403 19:51:49.488366  9771 net.cpp:148] Top shape: 24 208 14 14 (978432)
I0403 19:51:49.488392  9771 net.cpp:156] Memory required for data: 873063456
I0403 19:51:49.488415  9771 layer_factory.hpp:77] Creating layer inception_4a/5x5_reduce
I0403 19:51:49.488445  9771 net.cpp:91] Creating Layer inception_4a/5x5_reduce
I0403 19:51:49.488476  9771 net.cpp:425] inception_4a/5x5_reduce <- pool3/3x3_s2_pool3/3x3_s2_0_split_2
I0403 19:51:49.488505  9771 net.cpp:399] inception_4a/5x5_reduce -> inception_4a/5x5_reduce
I0403 19:51:49.489576  9771 net.cpp:141] Setting up inception_4a/5x5_reduce
I0403 19:51:49.489612  9771 net.cpp:148] Top shape: 24 16 14 14 (75264)
I0403 19:51:49.489629  9771 net.cpp:156] Memory required for data: 873364512
I0403 19:51:49.489650  9771 layer_factory.hpp:77] Creating layer inception_4a/relu_5x5_reduce
I0403 19:51:49.489678  9771 net.cpp:91] Creating Layer inception_4a/relu_5x5_reduce
I0403 19:51:49.489701  9771 net.cpp:425] inception_4a/relu_5x5_reduce <- inception_4a/5x5_reduce
I0403 19:51:49.489727  9771 net.cpp:386] inception_4a/relu_5x5_reduce -> inception_4a/5x5_reduce (in-place)
I0403 19:51:49.489920  9771 net.cpp:141] Setting up inception_4a/relu_5x5_reduce
I0403 19:51:49.489953  9771 net.cpp:148] Top shape: 24 16 14 14 (75264)
I0403 19:51:49.489970  9771 net.cpp:156] Memory required for data: 873665568
I0403 19:51:49.489986  9771 layer_factory.hpp:77] Creating layer inception_4a/5x5
I0403 19:51:49.490011  9771 net.cpp:91] Creating Layer inception_4a/5x5
I0403 19:51:49.490041  9771 net.cpp:425] inception_4a/5x5 <- inception_4a/5x5_reduce
I0403 19:51:49.490068  9771 net.cpp:399] inception_4a/5x5 -> inception_4a/5x5
I0403 19:51:49.491212  9771 net.cpp:141] Setting up inception_4a/5x5
I0403 19:51:49.491246  9771 net.cpp:148] Top shape: 24 48 14 14 (225792)
I0403 19:51:49.491266  9771 net.cpp:156] Memory required for data: 874568736
I0403 19:51:49.491284  9771 layer_factory.hpp:77] Creating layer inception_4a/relu_5x5
I0403 19:51:49.491307  9771 net.cpp:91] Creating Layer inception_4a/relu_5x5
I0403 19:51:49.491323  9771 net.cpp:425] inception_4a/relu_5x5 <- inception_4a/5x5
I0403 19:51:49.491343  9771 net.cpp:386] inception_4a/relu_5x5 -> inception_4a/5x5 (in-place)
I0403 19:51:49.491530  9771 net.cpp:141] Setting up inception_4a/relu_5x5
I0403 19:51:49.491559  9771 net.cpp:148] Top shape: 24 48 14 14 (225792)
I0403 19:51:49.491576  9771 net.cpp:156] Memory required for data: 875471904
I0403 19:51:49.491592  9771 layer_factory.hpp:77] Creating layer inception_4a/pool
I0403 19:51:49.491611  9771 net.cpp:91] Creating Layer inception_4a/pool
I0403 19:51:49.491627  9771 net.cpp:425] inception_4a/pool <- pool3/3x3_s2_pool3/3x3_s2_0_split_3
I0403 19:51:49.491647  9771 net.cpp:399] inception_4a/pool -> inception_4a/pool
I0403 19:51:49.491710  9771 net.cpp:141] Setting up inception_4a/pool
I0403 19:51:49.491736  9771 net.cpp:148] Top shape: 24 480 14 14 (2257920)
I0403 19:51:49.491751  9771 net.cpp:156] Memory required for data: 884503584
I0403 19:51:49.491767  9771 layer_factory.hpp:77] Creating layer inception_4a/pool_proj
I0403 19:51:49.491791  9771 net.cpp:91] Creating Layer inception_4a/pool_proj
I0403 19:51:49.491808  9771 net.cpp:425] inception_4a/pool_proj <- inception_4a/pool
I0403 19:51:49.491830  9771 net.cpp:399] inception_4a/pool_proj -> inception_4a/pool_proj
I0403 19:51:49.493059  9771 net.cpp:141] Setting up inception_4a/pool_proj
I0403 19:51:49.493098  9771 net.cpp:148] Top shape: 24 64 14 14 (301056)
I0403 19:51:49.493141  9771 net.cpp:156] Memory required for data: 885707808
I0403 19:51:49.493171  9771 layer_factory.hpp:77] Creating layer inception_4a/relu_pool_proj
I0403 19:51:49.493202  9771 net.cpp:91] Creating Layer inception_4a/relu_pool_proj
I0403 19:51:49.493228  9771 net.cpp:425] inception_4a/relu_pool_proj <- inception_4a/pool_proj
I0403 19:51:49.493260  9771 net.cpp:386] inception_4a/relu_pool_proj -> inception_4a/pool_proj (in-place)
I0403 19:51:49.493561  9771 net.cpp:141] Setting up inception_4a/relu_pool_proj
I0403 19:51:49.493589  9771 net.cpp:148] Top shape: 24 64 14 14 (301056)
I0403 19:51:49.493605  9771 net.cpp:156] Memory required for data: 886912032
I0403 19:51:49.493623  9771 layer_factory.hpp:77] Creating layer inception_4a/output
I0403 19:51:49.493643  9771 net.cpp:91] Creating Layer inception_4a/output
I0403 19:51:49.493669  9771 net.cpp:425] inception_4a/output <- inception_4a/1x1
I0403 19:51:49.493688  9771 net.cpp:425] inception_4a/output <- inception_4a/3x3
I0403 19:51:49.493713  9771 net.cpp:425] inception_4a/output <- inception_4a/5x5
I0403 19:51:49.493736  9771 net.cpp:425] inception_4a/output <- inception_4a/pool_proj
I0403 19:51:49.493757  9771 net.cpp:399] inception_4a/output -> inception_4a/output
I0403 19:51:49.493814  9771 net.cpp:141] Setting up inception_4a/output
I0403 19:51:49.493845  9771 net.cpp:148] Top shape: 24 512 14 14 (2408448)
I0403 19:51:49.493868  9771 net.cpp:156] Memory required for data: 896545824
I0403 19:51:49.493887  9771 layer_factory.hpp:77] Creating layer inception_4a/output_inception_4a/output_0_split
I0403 19:51:49.493911  9771 net.cpp:91] Creating Layer inception_4a/output_inception_4a/output_0_split
I0403 19:51:49.493934  9771 net.cpp:425] inception_4a/output_inception_4a/output_0_split <- inception_4a/output
I0403 19:51:49.493957  9771 net.cpp:399] inception_4a/output_inception_4a/output_0_split -> inception_4a/output_inception_4a/output_0_split_0
I0403 19:51:49.493986  9771 net.cpp:399] inception_4a/output_inception_4a/output_0_split -> inception_4a/output_inception_4a/output_0_split_1
I0403 19:51:49.494017  9771 net.cpp:399] inception_4a/output_inception_4a/output_0_split -> inception_4a/output_inception_4a/output_0_split_2
I0403 19:51:49.494046  9771 net.cpp:399] inception_4a/output_inception_4a/output_0_split -> inception_4a/output_inception_4a/output_0_split_3
I0403 19:51:49.494073  9771 net.cpp:399] inception_4a/output_inception_4a/output_0_split -> inception_4a/output_inception_4a/output_0_split_4
I0403 19:51:49.494181  9771 net.cpp:141] Setting up inception_4a/output_inception_4a/output_0_split
I0403 19:51:49.494212  9771 net.cpp:148] Top shape: 24 512 14 14 (2408448)
I0403 19:51:49.494235  9771 net.cpp:148] Top shape: 24 512 14 14 (2408448)
I0403 19:51:49.494268  9771 net.cpp:148] Top shape: 24 512 14 14 (2408448)
I0403 19:51:49.494287  9771 net.cpp:148] Top shape: 24 512 14 14 (2408448)
I0403 19:51:49.494309  9771 net.cpp:148] Top shape: 24 512 14 14 (2408448)
I0403 19:51:49.494334  9771 net.cpp:156] Memory required for data: 944714784
I0403 19:51:49.494355  9771 layer_factory.hpp:77] Creating layer loss1/ave_pool
I0403 19:51:49.494379  9771 net.cpp:91] Creating Layer loss1/ave_pool
I0403 19:51:49.494405  9771 net.cpp:425] loss1/ave_pool <- inception_4a/output_inception_4a/output_0_split_0
I0403 19:51:49.494427  9771 net.cpp:399] loss1/ave_pool -> loss1/ave_pool
I0403 19:51:49.494655  9771 net.cpp:141] Setting up loss1/ave_pool
I0403 19:51:49.494693  9771 net.cpp:148] Top shape: 24 512 4 4 (196608)
I0403 19:51:49.494714  9771 net.cpp:156] Memory required for data: 945501216
I0403 19:51:49.494738  9771 layer_factory.hpp:77] Creating layer loss1/conv
I0403 19:51:49.494765  9771 net.cpp:91] Creating Layer loss1/conv
I0403 19:51:49.494791  9771 net.cpp:425] loss1/conv <- loss1/ave_pool
I0403 19:51:49.494818  9771 net.cpp:399] loss1/conv -> loss1/conv
I0403 19:51:49.496312  9771 net.cpp:141] Setting up loss1/conv
I0403 19:51:49.496366  9771 net.cpp:148] Top shape: 24 128 4 4 (49152)
I0403 19:51:49.496413  9771 net.cpp:156] Memory required for data: 945697824
I0403 19:51:49.496449  9771 layer_factory.hpp:77] Creating layer loss1/relu_conv
I0403 19:51:49.496472  9771 net.cpp:91] Creating Layer loss1/relu_conv
I0403 19:51:49.496495  9771 net.cpp:425] loss1/relu_conv <- loss1/conv
I0403 19:51:49.496518  9771 net.cpp:386] loss1/relu_conv -> loss1/conv (in-place)
I0403 19:51:49.496836  9771 net.cpp:141] Setting up loss1/relu_conv
I0403 19:51:49.496866  9771 net.cpp:148] Top shape: 24 128 4 4 (49152)
I0403 19:51:49.496884  9771 net.cpp:156] Memory required for data: 945894432
I0403 19:51:49.496901  9771 layer_factory.hpp:77] Creating layer loss1/fc
I0403 19:51:49.496925  9771 net.cpp:91] Creating Layer loss1/fc
I0403 19:51:49.496945  9771 net.cpp:425] loss1/fc <- loss1/conv
I0403 19:51:49.496968  9771 net.cpp:399] loss1/fc -> loss1/fc
I0403 19:51:49.516824  9771 net.cpp:141] Setting up loss1/fc
I0403 19:51:49.516897  9771 net.cpp:148] Top shape: 24 1024 (24576)
I0403 19:51:49.516916  9771 net.cpp:156] Memory required for data: 945992736
I0403 19:51:49.516949  9771 layer_factory.hpp:77] Creating layer loss1/relu_fc
I0403 19:51:49.516979  9771 net.cpp:91] Creating Layer loss1/relu_fc
I0403 19:51:49.517000  9771 net.cpp:425] loss1/relu_fc <- loss1/fc
I0403 19:51:49.517021  9771 net.cpp:386] loss1/relu_fc -> loss1/fc (in-place)
I0403 19:51:49.517276  9771 net.cpp:141] Setting up loss1/relu_fc
I0403 19:51:49.517305  9771 net.cpp:148] Top shape: 24 1024 (24576)
I0403 19:51:49.517324  9771 net.cpp:156] Memory required for data: 946091040
I0403 19:51:49.517349  9771 layer_factory.hpp:77] Creating layer loss1/drop_fc
I0403 19:51:49.517381  9771 net.cpp:91] Creating Layer loss1/drop_fc
I0403 19:51:49.517402  9771 net.cpp:425] loss1/drop_fc <- loss1/fc
I0403 19:51:49.517433  9771 net.cpp:386] loss1/drop_fc -> loss1/fc (in-place)
I0403 19:51:49.517494  9771 net.cpp:141] Setting up loss1/drop_fc
I0403 19:51:49.517519  9771 net.cpp:148] Top shape: 24 1024 (24576)
I0403 19:51:49.517545  9771 net.cpp:156] Memory required for data: 946189344
I0403 19:51:49.517561  9771 layer_factory.hpp:77] Creating layer loss1/classifier_plantvillage
I0403 19:51:49.517596  9771 net.cpp:91] Creating Layer loss1/classifier_plantvillage
I0403 19:51:49.517628  9771 net.cpp:425] loss1/classifier_plantvillage <- loss1/fc
I0403 19:51:49.517647  9771 net.cpp:399] loss1/classifier_plantvillage -> loss1/classifier_plantvillage
I0403 19:51:49.518779  9771 net.cpp:141] Setting up loss1/classifier_plantvillage
I0403 19:51:49.518818  9771 net.cpp:148] Top shape: 24 38 (912)
I0403 19:51:49.518846  9771 net.cpp:156] Memory required for data: 946192992
I0403 19:51:49.518867  9771 layer_factory.hpp:77] Creating layer loss1/classifier_plantvillage_loss1/classifier_plantvillage_0_split
I0403 19:51:49.518889  9771 net.cpp:91] Creating Layer loss1/classifier_plantvillage_loss1/classifier_plantvillage_0_split
I0403 19:51:49.518913  9771 net.cpp:425] loss1/classifier_plantvillage_loss1/classifier_plantvillage_0_split <- loss1/classifier_plantvillage
I0403 19:51:49.518932  9771 net.cpp:399] loss1/classifier_plantvillage_loss1/classifier_plantvillage_0_split -> loss1/classifier_plantvillage_loss1/classifier_plantvillage_0_split_0
I0403 19:51:49.518966  9771 net.cpp:399] loss1/classifier_plantvillage_loss1/classifier_plantvillage_0_split -> loss1/classifier_plantvillage_loss1/classifier_plantvillage_0_split_1
I0403 19:51:49.518991  9771 net.cpp:399] loss1/classifier_plantvillage_loss1/classifier_plantvillage_0_split -> loss1/classifier_plantvillage_loss1/classifier_plantvillage_0_split_2
I0403 19:51:49.519064  9771 net.cpp:141] Setting up loss1/classifier_plantvillage_loss1/classifier_plantvillage_0_split
I0403 19:51:49.519096  9771 net.cpp:148] Top shape: 24 38 (912)
I0403 19:51:49.519116  9771 net.cpp:148] Top shape: 24 38 (912)
I0403 19:51:49.519141  9771 net.cpp:148] Top shape: 24 38 (912)
I0403 19:51:49.519156  9771 net.cpp:156] Memory required for data: 946203936
I0403 19:51:49.519181  9771 layer_factory.hpp:77] Creating layer inception_4b/1x1
I0403 19:51:49.519204  9771 net.cpp:91] Creating Layer inception_4b/1x1
I0403 19:51:49.519263  9771 net.cpp:425] inception_4b/1x1 <- inception_4a/output_inception_4a/output_0_split_1
I0403 19:51:49.519300  9771 net.cpp:399] inception_4b/1x1 -> inception_4b/1x1
I0403 19:51:49.521106  9771 net.cpp:141] Setting up inception_4b/1x1
I0403 19:51:49.521148  9771 net.cpp:148] Top shape: 24 160 14 14 (752640)
I0403 19:51:49.521173  9771 net.cpp:156] Memory required for data: 949214496
I0403 19:51:49.521194  9771 layer_factory.hpp:77] Creating layer inception_4b/relu_1x1
I0403 19:51:49.521225  9771 net.cpp:91] Creating Layer inception_4b/relu_1x1
I0403 19:51:49.521248  9771 net.cpp:425] inception_4b/relu_1x1 <- inception_4b/1x1
I0403 19:51:49.521272  9771 net.cpp:386] inception_4b/relu_1x1 -> inception_4b/1x1 (in-place)
I0403 19:51:49.521472  9771 net.cpp:141] Setting up inception_4b/relu_1x1
I0403 19:51:49.521507  9771 net.cpp:148] Top shape: 24 160 14 14 (752640)
I0403 19:51:49.521530  9771 net.cpp:156] Memory required for data: 952225056
I0403 19:51:49.521548  9771 layer_factory.hpp:77] Creating layer inception_4b/3x3_reduce
I0403 19:51:49.521585  9771 net.cpp:91] Creating Layer inception_4b/3x3_reduce
I0403 19:51:49.521612  9771 net.cpp:425] inception_4b/3x3_reduce <- inception_4a/output_inception_4a/output_0_split_2
I0403 19:51:49.521638  9771 net.cpp:399] inception_4b/3x3_reduce -> inception_4b/3x3_reduce
I0403 19:51:49.523094  9771 net.cpp:141] Setting up inception_4b/3x3_reduce
I0403 19:51:49.523133  9771 net.cpp:148] Top shape: 24 112 14 14 (526848)
I0403 19:51:49.523156  9771 net.cpp:156] Memory required for data: 954332448
I0403 19:51:49.523183  9771 layer_factory.hpp:77] Creating layer inception_4b/relu_3x3_reduce
I0403 19:51:49.523212  9771 net.cpp:91] Creating Layer inception_4b/relu_3x3_reduce
I0403 19:51:49.523231  9771 net.cpp:425] inception_4b/relu_3x3_reduce <- inception_4b/3x3_reduce
I0403 19:51:49.523263  9771 net.cpp:386] inception_4b/relu_3x3_reduce -> inception_4b/3x3_reduce (in-place)
I0403 19:51:49.523562  9771 net.cpp:141] Setting up inception_4b/relu_3x3_reduce
I0403 19:51:49.523597  9771 net.cpp:148] Top shape: 24 112 14 14 (526848)
I0403 19:51:49.523619  9771 net.cpp:156] Memory required for data: 956439840
I0403 19:51:49.523636  9771 layer_factory.hpp:77] Creating layer inception_4b/3x3
I0403 19:51:49.523663  9771 net.cpp:91] Creating Layer inception_4b/3x3
I0403 19:51:49.523686  9771 net.cpp:425] inception_4b/3x3 <- inception_4b/3x3_reduce
I0403 19:51:49.523718  9771 net.cpp:399] inception_4b/3x3 -> inception_4b/3x3
I0403 19:51:49.526875  9771 net.cpp:141] Setting up inception_4b/3x3
I0403 19:51:49.526911  9771 net.cpp:148] Top shape: 24 224 14 14 (1053696)
I0403 19:51:49.526937  9771 net.cpp:156] Memory required for data: 960654624
I0403 19:51:49.526963  9771 layer_factory.hpp:77] Creating layer inception_4b/relu_3x3
I0403 19:51:49.526989  9771 net.cpp:91] Creating Layer inception_4b/relu_3x3
I0403 19:51:49.527009  9771 net.cpp:425] inception_4b/relu_3x3 <- inception_4b/3x3
I0403 19:51:49.527029  9771 net.cpp:386] inception_4b/relu_3x3 -> inception_4b/3x3 (in-place)
I0403 19:51:49.527222  9771 net.cpp:141] Setting up inception_4b/relu_3x3
I0403 19:51:49.527263  9771 net.cpp:148] Top shape: 24 224 14 14 (1053696)
I0403 19:51:49.527283  9771 net.cpp:156] Memory required for data: 964869408
I0403 19:51:49.527305  9771 layer_factory.hpp:77] Creating layer inception_4b/5x5_reduce
I0403 19:51:49.527333  9771 net.cpp:91] Creating Layer inception_4b/5x5_reduce
I0403 19:51:49.527354  9771 net.cpp:425] inception_4b/5x5_reduce <- inception_4a/output_inception_4a/output_0_split_3
I0403 19:51:49.527382  9771 net.cpp:399] inception_4b/5x5_reduce -> inception_4b/5x5_reduce
I0403 19:51:49.528602  9771 net.cpp:141] Setting up inception_4b/5x5_reduce
I0403 19:51:49.528648  9771 net.cpp:148] Top shape: 24 24 14 14 (112896)
I0403 19:51:49.528666  9771 net.cpp:156] Memory required for data: 965320992
I0403 19:51:49.528686  9771 layer_factory.hpp:77] Creating layer inception_4b/relu_5x5_reduce
I0403 19:51:49.528714  9771 net.cpp:91] Creating Layer inception_4b/relu_5x5_reduce
I0403 19:51:49.528761  9771 net.cpp:425] inception_4b/relu_5x5_reduce <- inception_4b/5x5_reduce
I0403 19:51:49.528789  9771 net.cpp:386] inception_4b/relu_5x5_reduce -> inception_4b/5x5_reduce (in-place)
I0403 19:51:49.529021  9771 net.cpp:141] Setting up inception_4b/relu_5x5_reduce
I0403 19:51:49.529052  9771 net.cpp:148] Top shape: 24 24 14 14 (112896)
I0403 19:51:49.529081  9771 net.cpp:156] Memory required for data: 965772576
I0403 19:51:49.529109  9771 layer_factory.hpp:77] Creating layer inception_4b/5x5
I0403 19:51:49.529146  9771 net.cpp:91] Creating Layer inception_4b/5x5
I0403 19:51:49.529181  9771 net.cpp:425] inception_4b/5x5 <- inception_4b/5x5_reduce
I0403 19:51:49.529211  9771 net.cpp:399] inception_4b/5x5 -> inception_4b/5x5
I0403 19:51:49.530625  9771 net.cpp:141] Setting up inception_4b/5x5
I0403 19:51:49.530663  9771 net.cpp:148] Top shape: 24 64 14 14 (301056)
I0403 19:51:49.530681  9771 net.cpp:156] Memory required for data: 966976800
I0403 19:51:49.530704  9771 layer_factory.hpp:77] Creating layer inception_4b/relu_5x5
I0403 19:51:49.530724  9771 net.cpp:91] Creating Layer inception_4b/relu_5x5
I0403 19:51:49.530745  9771 net.cpp:425] inception_4b/relu_5x5 <- inception_4b/5x5
I0403 19:51:49.530778  9771 net.cpp:386] inception_4b/relu_5x5 -> inception_4b/5x5 (in-place)
I0403 19:51:49.531086  9771 net.cpp:141] Setting up inception_4b/relu_5x5
I0403 19:51:49.531123  9771 net.cpp:148] Top shape: 24 64 14 14 (301056)
I0403 19:51:49.531139  9771 net.cpp:156] Memory required for data: 968181024
I0403 19:51:49.531163  9771 layer_factory.hpp:77] Creating layer inception_4b/pool
I0403 19:51:49.531188  9771 net.cpp:91] Creating Layer inception_4b/pool
I0403 19:51:49.531206  9771 net.cpp:425] inception_4b/pool <- inception_4a/output_inception_4a/output_0_split_4
I0403 19:51:49.531232  9771 net.cpp:399] inception_4b/pool -> inception_4b/pool
I0403 19:51:49.531309  9771 net.cpp:141] Setting up inception_4b/pool
I0403 19:51:49.531388  9771 net.cpp:148] Top shape: 24 512 14 14 (2408448)
I0403 19:51:49.531440  9771 net.cpp:156] Memory required for data: 977814816
I0403 19:51:49.531471  9771 layer_factory.hpp:77] Creating layer inception_4b/pool_proj
I0403 19:51:49.531512  9771 net.cpp:91] Creating Layer inception_4b/pool_proj
I0403 19:51:49.531549  9771 net.cpp:425] inception_4b/pool_proj <- inception_4b/pool
I0403 19:51:49.531615  9771 net.cpp:399] inception_4b/pool_proj -> inception_4b/pool_proj
I0403 19:51:49.532945  9771 net.cpp:141] Setting up inception_4b/pool_proj
I0403 19:51:49.532985  9771 net.cpp:148] Top shape: 24 64 14 14 (301056)
I0403 19:51:49.533004  9771 net.cpp:156] Memory required for data: 979019040
I0403 19:51:49.533030  9771 layer_factory.hpp:77] Creating layer inception_4b/relu_pool_proj
I0403 19:51:49.533051  9771 net.cpp:91] Creating Layer inception_4b/relu_pool_proj
I0403 19:51:49.533078  9771 net.cpp:425] inception_4b/relu_pool_proj <- inception_4b/pool_proj
I0403 19:51:49.533107  9771 net.cpp:386] inception_4b/relu_pool_proj -> inception_4b/pool_proj (in-place)
I0403 19:51:49.533318  9771 net.cpp:141] Setting up inception_4b/relu_pool_proj
I0403 19:51:49.533350  9771 net.cpp:148] Top shape: 24 64 14 14 (301056)
I0403 19:51:49.533373  9771 net.cpp:156] Memory required for data: 980223264
I0403 19:51:49.533398  9771 layer_factory.hpp:77] Creating layer inception_4b/output
I0403 19:51:49.533428  9771 net.cpp:91] Creating Layer inception_4b/output
I0403 19:51:49.533448  9771 net.cpp:425] inception_4b/output <- inception_4b/1x1
I0403 19:51:49.533468  9771 net.cpp:425] inception_4b/output <- inception_4b/3x3
I0403 19:51:49.533491  9771 net.cpp:425] inception_4b/output <- inception_4b/5x5
I0403 19:51:49.533511  9771 net.cpp:425] inception_4b/output <- inception_4b/pool_proj
I0403 19:51:49.533531  9771 net.cpp:399] inception_4b/output -> inception_4b/output
I0403 19:51:49.533586  9771 net.cpp:141] Setting up inception_4b/output
I0403 19:51:49.533615  9771 net.cpp:148] Top shape: 24 512 14 14 (2408448)
I0403 19:51:49.533643  9771 net.cpp:156] Memory required for data: 989857056
I0403 19:51:49.533679  9771 layer_factory.hpp:77] Creating layer inception_4b/output_inception_4b/output_0_split
I0403 19:51:49.533707  9771 net.cpp:91] Creating Layer inception_4b/output_inception_4b/output_0_split
I0403 19:51:49.533731  9771 net.cpp:425] inception_4b/output_inception_4b/output_0_split <- inception_4b/output
I0403 19:51:49.533761  9771 net.cpp:399] inception_4b/output_inception_4b/output_0_split -> inception_4b/output_inception_4b/output_0_split_0
I0403 19:51:49.533784  9771 net.cpp:399] inception_4b/output_inception_4b/output_0_split -> inception_4b/output_inception_4b/output_0_split_1
I0403 19:51:49.533812  9771 net.cpp:399] inception_4b/output_inception_4b/output_0_split -> inception_4b/output_inception_4b/output_0_split_2
I0403 19:51:49.533836  9771 net.cpp:399] inception_4b/output_inception_4b/output_0_split -> inception_4b/output_inception_4b/output_0_split_3
I0403 19:51:49.533926  9771 net.cpp:141] Setting up inception_4b/output_inception_4b/output_0_split
I0403 19:51:49.533953  9771 net.cpp:148] Top shape: 24 512 14 14 (2408448)
I0403 19:51:49.533972  9771 net.cpp:148] Top shape: 24 512 14 14 (2408448)
I0403 19:51:49.533989  9771 net.cpp:148] Top shape: 24 512 14 14 (2408448)
I0403 19:51:49.534006  9771 net.cpp:148] Top shape: 24 512 14 14 (2408448)
I0403 19:51:49.534021  9771 net.cpp:156] Memory required for data: 1028392224
I0403 19:51:49.534037  9771 layer_factory.hpp:77] Creating layer inception_4c/1x1
I0403 19:51:49.534061  9771 net.cpp:91] Creating Layer inception_4c/1x1
I0403 19:51:49.534080  9771 net.cpp:425] inception_4c/1x1 <- inception_4b/output_inception_4b/output_0_split_0
I0403 19:51:49.534101  9771 net.cpp:399] inception_4c/1x1 -> inception_4c/1x1
I0403 19:51:49.535643  9771 net.cpp:141] Setting up inception_4c/1x1
I0403 19:51:49.535673  9771 net.cpp:148] Top shape: 24 128 14 14 (602112)
I0403 19:51:49.535689  9771 net.cpp:156] Memory required for data: 1030800672
I0403 19:51:49.535709  9771 layer_factory.hpp:77] Creating layer inception_4c/relu_1x1
I0403 19:51:49.535732  9771 net.cpp:91] Creating Layer inception_4c/relu_1x1
I0403 19:51:49.535748  9771 net.cpp:425] inception_4c/relu_1x1 <- inception_4c/1x1
I0403 19:51:49.535768  9771 net.cpp:386] inception_4c/relu_1x1 -> inception_4c/1x1 (in-place)
I0403 19:51:49.535961  9771 net.cpp:141] Setting up inception_4c/relu_1x1
I0403 19:51:49.535998  9771 net.cpp:148] Top shape: 24 128 14 14 (602112)
I0403 19:51:49.536016  9771 net.cpp:156] Memory required for data: 1033209120
I0403 19:51:49.536038  9771 layer_factory.hpp:77] Creating layer inception_4c/3x3_reduce
I0403 19:51:49.536067  9771 net.cpp:91] Creating Layer inception_4c/3x3_reduce
I0403 19:51:49.536093  9771 net.cpp:425] inception_4c/3x3_reduce <- inception_4b/output_inception_4b/output_0_split_1
I0403 19:51:49.536118  9771 net.cpp:399] inception_4c/3x3_reduce -> inception_4c/3x3_reduce
I0403 19:51:49.538291  9771 net.cpp:141] Setting up inception_4c/3x3_reduce
I0403 19:51:49.538343  9771 net.cpp:148] Top shape: 24 128 14 14 (602112)
I0403 19:51:49.538388  9771 net.cpp:156] Memory required for data: 1035617568
I0403 19:51:49.538424  9771 layer_factory.hpp:77] Creating layer inception_4c/relu_3x3_reduce
I0403 19:51:49.538460  9771 net.cpp:91] Creating Layer inception_4c/relu_3x3_reduce
I0403 19:51:49.538482  9771 net.cpp:425] inception_4c/relu_3x3_reduce <- inception_4c/3x3_reduce
I0403 19:51:49.538513  9771 net.cpp:386] inception_4c/relu_3x3_reduce -> inception_4c/3x3_reduce (in-place)
I0403 19:51:49.538851  9771 net.cpp:141] Setting up inception_4c/relu_3x3_reduce
I0403 19:51:49.538897  9771 net.cpp:148] Top shape: 24 128 14 14 (602112)
I0403 19:51:49.538933  9771 net.cpp:156] Memory required for data: 1038026016
I0403 19:51:49.538960  9771 layer_factory.hpp:77] Creating layer inception_4c/3x3
I0403 19:51:49.539011  9771 net.cpp:91] Creating Layer inception_4c/3x3
I0403 19:51:49.539033  9771 net.cpp:425] inception_4c/3x3 <- inception_4c/3x3_reduce
I0403 19:51:49.539062  9771 net.cpp:399] inception_4c/3x3 -> inception_4c/3x3
I0403 19:51:49.543143  9771 net.cpp:141] Setting up inception_4c/3x3
I0403 19:51:49.543218  9771 net.cpp:148] Top shape: 24 256 14 14 (1204224)
I0403 19:51:49.543262  9771 net.cpp:156] Memory required for data: 1042842912
I0403 19:51:49.543315  9771 layer_factory.hpp:77] Creating layer inception_4c/relu_3x3
I0403 19:51:49.543356  9771 net.cpp:91] Creating Layer inception_4c/relu_3x3
I0403 19:51:49.543386  9771 net.cpp:425] inception_4c/relu_3x3 <- inception_4c/3x3
I0403 19:51:49.543417  9771 net.cpp:386] inception_4c/relu_3x3 -> inception_4c/3x3 (in-place)
I0403 19:51:49.543637  9771 net.cpp:141] Setting up inception_4c/relu_3x3
I0403 19:51:49.543665  9771 net.cpp:148] Top shape: 24 256 14 14 (1204224)
I0403 19:51:49.543681  9771 net.cpp:156] Memory required for data: 1047659808
I0403 19:51:49.543697  9771 layer_factory.hpp:77] Creating layer inception_4c/5x5_reduce
I0403 19:51:49.543725  9771 net.cpp:91] Creating Layer inception_4c/5x5_reduce
I0403 19:51:49.543745  9771 net.cpp:425] inception_4c/5x5_reduce <- inception_4b/output_inception_4b/output_0_split_2
I0403 19:51:49.543768  9771 net.cpp:399] inception_4c/5x5_reduce -> inception_4c/5x5_reduce
I0403 19:51:49.544939  9771 net.cpp:141] Setting up inception_4c/5x5_reduce
I0403 19:51:49.544980  9771 net.cpp:148] Top shape: 24 24 14 14 (112896)
I0403 19:51:49.544997  9771 net.cpp:156] Memory required for data: 1048111392
I0403 19:51:49.545017  9771 layer_factory.hpp:77] Creating layer inception_4c/relu_5x5_reduce
I0403 19:51:49.545035  9771 net.cpp:91] Creating Layer inception_4c/relu_5x5_reduce
I0403 19:51:49.545053  9771 net.cpp:425] inception_4c/relu_5x5_reduce <- inception_4c/5x5_reduce
I0403 19:51:49.545073  9771 net.cpp:386] inception_4c/relu_5x5_reduce -> inception_4c/5x5_reduce (in-place)
I0403 19:51:49.545274  9771 net.cpp:141] Setting up inception_4c/relu_5x5_reduce
I0403 19:51:49.545300  9771 net.cpp:148] Top shape: 24 24 14 14 (112896)
I0403 19:51:49.545315  9771 net.cpp:156] Memory required for data: 1048562976
I0403 19:51:49.545331  9771 layer_factory.hpp:77] Creating layer inception_4c/5x5
I0403 19:51:49.545354  9771 net.cpp:91] Creating Layer inception_4c/5x5
I0403 19:51:49.545373  9771 net.cpp:425] inception_4c/5x5 <- inception_4c/5x5_reduce
I0403 19:51:49.545397  9771 net.cpp:399] inception_4c/5x5 -> inception_4c/5x5
I0403 19:51:49.546753  9771 net.cpp:141] Setting up inception_4c/5x5
I0403 19:51:49.546787  9771 net.cpp:148] Top shape: 24 64 14 14 (301056)
I0403 19:51:49.546813  9771 net.cpp:156] Memory required for data: 1049767200
I0403 19:51:49.546834  9771 layer_factory.hpp:77] Creating layer inception_4c/relu_5x5
I0403 19:51:49.546862  9771 net.cpp:91] Creating Layer inception_4c/relu_5x5
I0403 19:51:49.546886  9771 net.cpp:425] inception_4c/relu_5x5 <- inception_4c/5x5
I0403 19:51:49.546913  9771 net.cpp:386] inception_4c/relu_5x5 -> inception_4c/5x5 (in-place)
I0403 19:51:49.547230  9771 net.cpp:141] Setting up inception_4c/relu_5x5
I0403 19:51:49.547268  9771 net.cpp:148] Top shape: 24 64 14 14 (301056)
I0403 19:51:49.547291  9771 net.cpp:156] Memory required for data: 1050971424
I0403 19:51:49.547312  9771 layer_factory.hpp:77] Creating layer inception_4c/pool
I0403 19:51:49.547338  9771 net.cpp:91] Creating Layer inception_4c/pool
I0403 19:51:49.547363  9771 net.cpp:425] inception_4c/pool <- inception_4b/output_inception_4b/output_0_split_3
I0403 19:51:49.547384  9771 net.cpp:399] inception_4c/pool -> inception_4c/pool
I0403 19:51:49.547464  9771 net.cpp:141] Setting up inception_4c/pool
I0403 19:51:49.547497  9771 net.cpp:148] Top shape: 24 512 14 14 (2408448)
I0403 19:51:49.547518  9771 net.cpp:156] Memory required for data: 1060605216
I0403 19:51:49.547534  9771 layer_factory.hpp:77] Creating layer inception_4c/pool_proj
I0403 19:51:49.547559  9771 net.cpp:91] Creating Layer inception_4c/pool_proj
I0403 19:51:49.547580  9771 net.cpp:425] inception_4c/pool_proj <- inception_4c/pool
I0403 19:51:49.547613  9771 net.cpp:399] inception_4c/pool_proj -> inception_4c/pool_proj
I0403 19:51:49.548923  9771 net.cpp:141] Setting up inception_4c/pool_proj
I0403 19:51:49.548954  9771 net.cpp:148] Top shape: 24 64 14 14 (301056)
I0403 19:51:49.548985  9771 net.cpp:156] Memory required for data: 1061809440
I0403 19:51:49.549006  9771 layer_factory.hpp:77] Creating layer inception_4c/relu_pool_proj
I0403 19:51:49.549026  9771 net.cpp:91] Creating Layer inception_4c/relu_pool_proj
I0403 19:51:49.549042  9771 net.cpp:425] inception_4c/relu_pool_proj <- inception_4c/pool_proj
I0403 19:51:49.549063  9771 net.cpp:386] inception_4c/relu_pool_proj -> inception_4c/pool_proj (in-place)
I0403 19:51:49.549263  9771 net.cpp:141] Setting up inception_4c/relu_pool_proj
I0403 19:51:49.549289  9771 net.cpp:148] Top shape: 24 64 14 14 (301056)
I0403 19:51:49.549306  9771 net.cpp:156] Memory required for data: 1063013664
I0403 19:51:49.549322  9771 layer_factory.hpp:77] Creating layer inception_4c/output
I0403 19:51:49.549345  9771 net.cpp:91] Creating Layer inception_4c/output
I0403 19:51:49.549361  9771 net.cpp:425] inception_4c/output <- inception_4c/1x1
I0403 19:51:49.549379  9771 net.cpp:425] inception_4c/output <- inception_4c/3x3
I0403 19:51:49.549396  9771 net.cpp:425] inception_4c/output <- inception_4c/5x5
I0403 19:51:49.549413  9771 net.cpp:425] inception_4c/output <- inception_4c/pool_proj
I0403 19:51:49.549432  9771 net.cpp:399] inception_4c/output -> inception_4c/output
I0403 19:51:49.549481  9771 net.cpp:141] Setting up inception_4c/output
I0403 19:51:49.549509  9771 net.cpp:148] Top shape: 24 512 14 14 (2408448)
I0403 19:51:49.549525  9771 net.cpp:156] Memory required for data: 1072647456
I0403 19:51:49.549540  9771 layer_factory.hpp:77] Creating layer inception_4c/output_inception_4c/output_0_split
I0403 19:51:49.549559  9771 net.cpp:91] Creating Layer inception_4c/output_inception_4c/output_0_split
I0403 19:51:49.549576  9771 net.cpp:425] inception_4c/output_inception_4c/output_0_split <- inception_4c/output
I0403 19:51:49.549597  9771 net.cpp:399] inception_4c/output_inception_4c/output_0_split -> inception_4c/output_inception_4c/output_0_split_0
I0403 19:51:49.549619  9771 net.cpp:399] inception_4c/output_inception_4c/output_0_split -> inception_4c/output_inception_4c/output_0_split_1
I0403 19:51:49.549640  9771 net.cpp:399] inception_4c/output_inception_4c/output_0_split -> inception_4c/output_inception_4c/output_0_split_2
I0403 19:51:49.549661  9771 net.cpp:399] inception_4c/output_inception_4c/output_0_split -> inception_4c/output_inception_4c/output_0_split_3
I0403 19:51:49.549754  9771 net.cpp:141] Setting up inception_4c/output_inception_4c/output_0_split
I0403 19:51:49.549784  9771 net.cpp:148] Top shape: 24 512 14 14 (2408448)
I0403 19:51:49.549803  9771 net.cpp:148] Top shape: 24 512 14 14 (2408448)
I0403 19:51:49.549820  9771 net.cpp:148] Top shape: 24 512 14 14 (2408448)
I0403 19:51:49.549837  9771 net.cpp:148] Top shape: 24 512 14 14 (2408448)
I0403 19:51:49.549852  9771 net.cpp:156] Memory required for data: 1111182624
I0403 19:51:49.549867  9771 layer_factory.hpp:77] Creating layer inception_4d/1x1
I0403 19:51:49.549891  9771 net.cpp:91] Creating Layer inception_4d/1x1
I0403 19:51:49.549909  9771 net.cpp:425] inception_4d/1x1 <- inception_4c/output_inception_4c/output_0_split_0
I0403 19:51:49.549929  9771 net.cpp:399] inception_4d/1x1 -> inception_4d/1x1
I0403 19:51:49.551429  9771 net.cpp:141] Setting up inception_4d/1x1
I0403 19:51:49.551467  9771 net.cpp:148] Top shape: 24 112 14 14 (526848)
I0403 19:51:49.551489  9771 net.cpp:156] Memory required for data: 1113290016
I0403 19:51:49.551509  9771 layer_factory.hpp:77] Creating layer inception_4d/relu_1x1
I0403 19:51:49.551537  9771 net.cpp:91] Creating Layer inception_4d/relu_1x1
I0403 19:51:49.551563  9771 net.cpp:425] inception_4d/relu_1x1 <- inception_4d/1x1
I0403 19:51:49.551587  9771 net.cpp:386] inception_4d/relu_1x1 -> inception_4d/1x1 (in-place)
I0403 19:51:49.551789  9771 net.cpp:141] Setting up inception_4d/relu_1x1
I0403 19:51:49.551823  9771 net.cpp:148] Top shape: 24 112 14 14 (526848)
I0403 19:51:49.551844  9771 net.cpp:156] Memory required for data: 1115397408
I0403 19:51:49.551869  9771 layer_factory.hpp:77] Creating layer inception_4d/3x3_reduce
I0403 19:51:49.551914  9771 net.cpp:91] Creating Layer inception_4d/3x3_reduce
I0403 19:51:49.551939  9771 net.cpp:425] inception_4d/3x3_reduce <- inception_4c/output_inception_4c/output_0_split_1
I0403 19:51:49.551966  9771 net.cpp:399] inception_4d/3x3_reduce -> inception_4d/3x3_reduce
I0403 19:51:49.553719  9771 net.cpp:141] Setting up inception_4d/3x3_reduce
I0403 19:51:49.553762  9771 net.cpp:148] Top shape: 24 144 14 14 (677376)
I0403 19:51:49.553794  9771 net.cpp:156] Memory required for data: 1118106912
I0403 19:51:49.553828  9771 layer_factory.hpp:77] Creating layer inception_4d/relu_3x3_reduce
I0403 19:51:49.553865  9771 net.cpp:91] Creating Layer inception_4d/relu_3x3_reduce
I0403 19:51:49.553899  9771 net.cpp:425] inception_4d/relu_3x3_reduce <- inception_4d/3x3_reduce
I0403 19:51:49.553930  9771 net.cpp:386] inception_4d/relu_3x3_reduce -> inception_4d/3x3_reduce (in-place)
I0403 19:51:49.554292  9771 net.cpp:141] Setting up inception_4d/relu_3x3_reduce
I0403 19:51:49.554335  9771 net.cpp:148] Top shape: 24 144 14 14 (677376)
I0403 19:51:49.554366  9771 net.cpp:156] Memory required for data: 1120816416
I0403 19:51:49.554391  9771 layer_factory.hpp:77] Creating layer inception_4d/3x3
I0403 19:51:49.554432  9771 net.cpp:91] Creating Layer inception_4d/3x3
I0403 19:51:49.554469  9771 net.cpp:425] inception_4d/3x3 <- inception_4d/3x3_reduce
I0403 19:51:49.554512  9771 net.cpp:399] inception_4d/3x3 -> inception_4d/3x3
I0403 19:51:49.559139  9771 net.cpp:141] Setting up inception_4d/3x3
I0403 19:51:49.559177  9771 net.cpp:148] Top shape: 24 288 14 14 (1354752)
I0403 19:51:49.559196  9771 net.cpp:156] Memory required for data: 1126235424
I0403 19:51:49.559216  9771 layer_factory.hpp:77] Creating layer inception_4d/relu_3x3
I0403 19:51:49.559247  9771 net.cpp:91] Creating Layer inception_4d/relu_3x3
I0403 19:51:49.559270  9771 net.cpp:425] inception_4d/relu_3x3 <- inception_4d/3x3
I0403 19:51:49.559301  9771 net.cpp:386] inception_4d/relu_3x3 -> inception_4d/3x3 (in-place)
I0403 19:51:49.559510  9771 net.cpp:141] Setting up inception_4d/relu_3x3
I0403 19:51:49.559545  9771 net.cpp:148] Top shape: 24 288 14 14 (1354752)
I0403 19:51:49.559562  9771 net.cpp:156] Memory required for data: 1131654432
I0403 19:51:49.559583  9771 layer_factory.hpp:77] Creating layer inception_4d/5x5_reduce
I0403 19:51:49.559615  9771 net.cpp:91] Creating Layer inception_4d/5x5_reduce
I0403 19:51:49.559641  9771 net.cpp:425] inception_4d/5x5_reduce <- inception_4c/output_inception_4c/output_0_split_2
I0403 19:51:49.559669  9771 net.cpp:399] inception_4d/5x5_reduce -> inception_4d/5x5_reduce
I0403 19:51:49.560911  9771 net.cpp:141] Setting up inception_4d/5x5_reduce
I0403 19:51:49.560948  9771 net.cpp:148] Top shape: 24 32 14 14 (150528)
I0403 19:51:49.560974  9771 net.cpp:156] Memory required for data: 1132256544
I0403 19:51:49.560995  9771 layer_factory.hpp:77] Creating layer inception_4d/relu_5x5_reduce
I0403 19:51:49.561023  9771 net.cpp:91] Creating Layer inception_4d/relu_5x5_reduce
I0403 19:51:49.561043  9771 net.cpp:425] inception_4d/relu_5x5_reduce <- inception_4d/5x5_reduce
I0403 19:51:49.561065  9771 net.cpp:386] inception_4d/relu_5x5_reduce -> inception_4d/5x5_reduce (in-place)
I0403 19:51:49.561281  9771 net.cpp:141] Setting up inception_4d/relu_5x5_reduce
I0403 19:51:49.561311  9771 net.cpp:148] Top shape: 24 32 14 14 (150528)
I0403 19:51:49.561328  9771 net.cpp:156] Memory required for data: 1132858656
I0403 19:51:49.561350  9771 layer_factory.hpp:77] Creating layer inception_4d/5x5
I0403 19:51:49.561383  9771 net.cpp:91] Creating Layer inception_4d/5x5
I0403 19:51:49.561408  9771 net.cpp:425] inception_4d/5x5 <- inception_4d/5x5_reduce
I0403 19:51:49.561430  9771 net.cpp:399] inception_4d/5x5 -> inception_4d/5x5
I0403 19:51:49.563022  9771 net.cpp:141] Setting up inception_4d/5x5
I0403 19:51:49.563058  9771 net.cpp:148] Top shape: 24 64 14 14 (301056)
I0403 19:51:49.563083  9771 net.cpp:156] Memory required for data: 1134062880
I0403 19:51:49.563107  9771 layer_factory.hpp:77] Creating layer inception_4d/relu_5x5
I0403 19:51:49.563153  9771 net.cpp:91] Creating Layer inception_4d/relu_5x5
I0403 19:51:49.563177  9771 net.cpp:425] inception_4d/relu_5x5 <- inception_4d/5x5
I0403 19:51:49.563197  9771 net.cpp:386] inception_4d/relu_5x5 -> inception_4d/5x5 (in-place)
I0403 19:51:49.563532  9771 net.cpp:141] Setting up inception_4d/relu_5x5
I0403 19:51:49.563565  9771 net.cpp:148] Top shape: 24 64 14 14 (301056)
I0403 19:51:49.563591  9771 net.cpp:156] Memory required for data: 1135267104
I0403 19:51:49.563609  9771 layer_factory.hpp:77] Creating layer inception_4d/pool
I0403 19:51:49.563634  9771 net.cpp:91] Creating Layer inception_4d/pool
I0403 19:51:49.563659  9771 net.cpp:425] inception_4d/pool <- inception_4c/output_inception_4c/output_0_split_3
I0403 19:51:49.563688  9771 net.cpp:399] inception_4d/pool -> inception_4d/pool
I0403 19:51:49.563761  9771 net.cpp:141] Setting up inception_4d/pool
I0403 19:51:49.563792  9771 net.cpp:148] Top shape: 24 512 14 14 (2408448)
I0403 19:51:49.563815  9771 net.cpp:156] Memory required for data: 1144900896
I0403 19:51:49.563830  9771 layer_factory.hpp:77] Creating layer inception_4d/pool_proj
I0403 19:51:49.563858  9771 net.cpp:91] Creating Layer inception_4d/pool_proj
I0403 19:51:49.563881  9771 net.cpp:425] inception_4d/pool_proj <- inception_4d/pool
I0403 19:51:49.563913  9771 net.cpp:399] inception_4d/pool_proj -> inception_4d/pool_proj
I0403 19:51:49.565800  9771 net.cpp:141] Setting up inception_4d/pool_proj
I0403 19:51:49.565840  9771 net.cpp:148] Top shape: 24 64 14 14 (301056)
I0403 19:51:49.565863  9771 net.cpp:156] Memory required for data: 1146105120
I0403 19:51:49.565888  9771 layer_factory.hpp:77] Creating layer inception_4d/relu_pool_proj
I0403 19:51:49.565917  9771 net.cpp:91] Creating Layer inception_4d/relu_pool_proj
I0403 19:51:49.565937  9771 net.cpp:425] inception_4d/relu_pool_proj <- inception_4d/pool_proj
I0403 19:51:49.565966  9771 net.cpp:386] inception_4d/relu_pool_proj -> inception_4d/pool_proj (in-place)
I0403 19:51:49.566167  9771 net.cpp:141] Setting up inception_4d/relu_pool_proj
I0403 19:51:49.566195  9771 net.cpp:148] Top shape: 24 64 14 14 (301056)
I0403 19:51:49.566210  9771 net.cpp:156] Memory required for data: 1147309344
I0403 19:51:49.566231  9771 layer_factory.hpp:77] Creating layer inception_4d/output
I0403 19:51:49.566262  9771 net.cpp:91] Creating Layer inception_4d/output
I0403 19:51:49.566285  9771 net.cpp:425] inception_4d/output <- inception_4d/1x1
I0403 19:51:49.566315  9771 net.cpp:425] inception_4d/output <- inception_4d/3x3
I0403 19:51:49.566334  9771 net.cpp:425] inception_4d/output <- inception_4d/5x5
I0403 19:51:49.566359  9771 net.cpp:425] inception_4d/output <- inception_4d/pool_proj
I0403 19:51:49.566383  9771 net.cpp:399] inception_4d/output -> inception_4d/output
I0403 19:51:49.566442  9771 net.cpp:141] Setting up inception_4d/output
I0403 19:51:49.566475  9771 net.cpp:148] Top shape: 24 528 14 14 (2483712)
I0403 19:51:49.566500  9771 net.cpp:156] Memory required for data: 1157244192
I0403 19:51:49.566524  9771 layer_factory.hpp:77] Creating layer inception_4d/output_inception_4d/output_0_split
I0403 19:51:49.566545  9771 net.cpp:91] Creating Layer inception_4d/output_inception_4d/output_0_split
I0403 19:51:49.566570  9771 net.cpp:425] inception_4d/output_inception_4d/output_0_split <- inception_4d/output
I0403 19:51:49.566591  9771 net.cpp:399] inception_4d/output_inception_4d/output_0_split -> inception_4d/output_inception_4d/output_0_split_0
I0403 19:51:49.566627  9771 net.cpp:399] inception_4d/output_inception_4d/output_0_split -> inception_4d/output_inception_4d/output_0_split_1
I0403 19:51:49.566658  9771 net.cpp:399] inception_4d/output_inception_4d/output_0_split -> inception_4d/output_inception_4d/output_0_split_2
I0403 19:51:49.566689  9771 net.cpp:399] inception_4d/output_inception_4d/output_0_split -> inception_4d/output_inception_4d/output_0_split_3
I0403 19:51:49.566720  9771 net.cpp:399] inception_4d/output_inception_4d/output_0_split -> inception_4d/output_inception_4d/output_0_split_4
I0403 19:51:49.566839  9771 net.cpp:141] Setting up inception_4d/output_inception_4d/output_0_split
I0403 19:51:49.566886  9771 net.cpp:148] Top shape: 24 528 14 14 (2483712)
I0403 19:51:49.566907  9771 net.cpp:148] Top shape: 24 528 14 14 (2483712)
I0403 19:51:49.566931  9771 net.cpp:148] Top shape: 24 528 14 14 (2483712)
I0403 19:51:49.566957  9771 net.cpp:148] Top shape: 24 528 14 14 (2483712)
I0403 19:51:49.566975  9771 net.cpp:148] Top shape: 24 528 14 14 (2483712)
I0403 19:51:49.566999  9771 net.cpp:156] Memory required for data: 1206918432
I0403 19:51:49.567021  9771 layer_factory.hpp:77] Creating layer loss2/ave_pool
I0403 19:51:49.567049  9771 net.cpp:91] Creating Layer loss2/ave_pool
I0403 19:51:49.567068  9771 net.cpp:425] loss2/ave_pool <- inception_4d/output_inception_4d/output_0_split_0
I0403 19:51:49.567095  9771 net.cpp:399] loss2/ave_pool -> loss2/ave_pool
I0403 19:51:49.567440  9771 net.cpp:141] Setting up loss2/ave_pool
I0403 19:51:49.567476  9771 net.cpp:148] Top shape: 24 528 4 4 (202752)
I0403 19:51:49.567500  9771 net.cpp:156] Memory required for data: 1207729440
I0403 19:51:49.567523  9771 layer_factory.hpp:77] Creating layer loss2/conv
I0403 19:51:49.567553  9771 net.cpp:91] Creating Layer loss2/conv
I0403 19:51:49.567579  9771 net.cpp:425] loss2/conv <- loss2/ave_pool
I0403 19:51:49.567601  9771 net.cpp:399] loss2/conv -> loss2/conv
I0403 19:51:49.569629  9771 net.cpp:141] Setting up loss2/conv
I0403 19:51:49.569671  9771 net.cpp:148] Top shape: 24 128 4 4 (49152)
I0403 19:51:49.569690  9771 net.cpp:156] Memory required for data: 1207926048
I0403 19:51:49.569711  9771 layer_factory.hpp:77] Creating layer loss2/relu_conv
I0403 19:51:49.569739  9771 net.cpp:91] Creating Layer loss2/relu_conv
I0403 19:51:49.569761  9771 net.cpp:425] loss2/relu_conv <- loss2/conv
I0403 19:51:49.569787  9771 net.cpp:386] loss2/relu_conv -> loss2/conv (in-place)
I0403 19:51:49.570094  9771 net.cpp:141] Setting up loss2/relu_conv
I0403 19:51:49.570132  9771 net.cpp:148] Top shape: 24 128 4 4 (49152)
I0403 19:51:49.570147  9771 net.cpp:156] Memory required for data: 1208122656
I0403 19:51:49.570164  9771 layer_factory.hpp:77] Creating layer loss2/fc
I0403 19:51:49.570189  9771 net.cpp:91] Creating Layer loss2/fc
I0403 19:51:49.570220  9771 net.cpp:425] loss2/fc <- loss2/conv
I0403 19:51:49.570247  9771 net.cpp:399] loss2/fc -> loss2/fc
I0403 19:51:49.589128  9771 net.cpp:141] Setting up loss2/fc
I0403 19:51:49.599292  9771 net.cpp:148] Top shape: 24 1024 (24576)
I0403 19:51:49.599313  9771 net.cpp:156] Memory required for data: 1208220960
I0403 19:51:49.599335  9771 layer_factory.hpp:77] Creating layer loss2/relu_fc
I0403 19:51:49.599366  9771 net.cpp:91] Creating Layer loss2/relu_fc
I0403 19:51:49.599392  9771 net.cpp:425] loss2/relu_fc <- loss2/fc
I0403 19:51:49.599419  9771 net.cpp:386] loss2/relu_fc -> loss2/fc (in-place)
I0403 19:51:49.599812  9771 net.cpp:141] Setting up loss2/relu_fc
I0403 19:51:49.599851  9771 net.cpp:148] Top shape: 24 1024 (24576)
I0403 19:51:49.599876  9771 net.cpp:156] Memory required for data: 1208319264
I0403 19:51:49.599894  9771 layer_factory.hpp:77] Creating layer loss2/drop_fc
I0403 19:51:49.599931  9771 net.cpp:91] Creating Layer loss2/drop_fc
I0403 19:51:49.599961  9771 net.cpp:425] loss2/drop_fc <- loss2/fc
I0403 19:51:49.599989  9771 net.cpp:386] loss2/drop_fc -> loss2/fc (in-place)
I0403 19:51:49.600047  9771 net.cpp:141] Setting up loss2/drop_fc
I0403 19:51:49.600085  9771 net.cpp:148] Top shape: 24 1024 (24576)
I0403 19:51:49.600100  9771 net.cpp:156] Memory required for data: 1208417568
I0403 19:51:49.600126  9771 layer_factory.hpp:77] Creating layer loss2/classifier_plantvillage
I0403 19:51:49.600150  9771 net.cpp:91] Creating Layer loss2/classifier_plantvillage
I0403 19:51:49.600169  9771 net.cpp:425] loss2/classifier_plantvillage <- loss2/fc
I0403 19:51:49.600206  9771 net.cpp:399] loss2/classifier_plantvillage -> loss2/classifier_plantvillage
I0403 19:51:49.600675  9771 net.cpp:141] Setting up loss2/classifier_plantvillage
I0403 19:51:49.600711  9771 net.cpp:148] Top shape: 24 38 (912)
I0403 19:51:49.600728  9771 net.cpp:156] Memory required for data: 1208421216
I0403 19:51:49.600782  9771 layer_factory.hpp:77] Creating layer loss2/classifier_plantvillage_loss2/classifier_plantvillage_0_split
I0403 19:51:49.600812  9771 net.cpp:91] Creating Layer loss2/classifier_plantvillage_loss2/classifier_plantvillage_0_split
I0403 19:51:49.600847  9771 net.cpp:425] loss2/classifier_plantvillage_loss2/classifier_plantvillage_0_split <- loss2/classifier_plantvillage
I0403 19:51:49.600868  9771 net.cpp:399] loss2/classifier_plantvillage_loss2/classifier_plantvillage_0_split -> loss2/classifier_plantvillage_loss2/classifier_plantvillage_0_split_0
I0403 19:51:49.600894  9771 net.cpp:399] loss2/classifier_plantvillage_loss2/classifier_plantvillage_0_split -> loss2/classifier_plantvillage_loss2/classifier_plantvillage_0_split_1
I0403 19:51:49.600916  9771 net.cpp:399] loss2/classifier_plantvillage_loss2/classifier_plantvillage_0_split -> loss2/classifier_plantvillage_loss2/classifier_plantvillage_0_split_2
I0403 19:51:49.601001  9771 net.cpp:141] Setting up loss2/classifier_plantvillage_loss2/classifier_plantvillage_0_split
I0403 19:51:49.601029  9771 net.cpp:148] Top shape: 24 38 (912)
I0403 19:51:49.601054  9771 net.cpp:148] Top shape: 24 38 (912)
I0403 19:51:49.601079  9771 net.cpp:148] Top shape: 24 38 (912)
I0403 19:51:49.601095  9771 net.cpp:156] Memory required for data: 1208432160
I0403 19:51:49.601122  9771 layer_factory.hpp:77] Creating layer inception_4e/1x1
I0403 19:51:49.601146  9771 net.cpp:91] Creating Layer inception_4e/1x1
I0403 19:51:49.601183  9771 net.cpp:425] inception_4e/1x1 <- inception_4d/output_inception_4d/output_0_split_1
I0403 19:51:49.601205  9771 net.cpp:399] inception_4e/1x1 -> inception_4e/1x1
I0403 19:51:49.603214  9771 net.cpp:141] Setting up inception_4e/1x1
I0403 19:51:49.603253  9771 net.cpp:148] Top shape: 24 256 14 14 (1204224)
I0403 19:51:49.603273  9771 net.cpp:156] Memory required for data: 1213249056
I0403 19:51:49.603297  9771 layer_factory.hpp:77] Creating layer inception_4e/relu_1x1
I0403 19:51:49.603327  9771 net.cpp:91] Creating Layer inception_4e/relu_1x1
I0403 19:51:49.603348  9771 net.cpp:425] inception_4e/relu_1x1 <- inception_4e/1x1
I0403 19:51:49.603373  9771 net.cpp:386] inception_4e/relu_1x1 -> inception_4e/1x1 (in-place)
I0403 19:51:49.603703  9771 net.cpp:141] Setting up inception_4e/relu_1x1
I0403 19:51:49.603731  9771 net.cpp:148] Top shape: 24 256 14 14 (1204224)
I0403 19:51:49.603747  9771 net.cpp:156] Memory required for data: 1218065952
I0403 19:51:49.603762  9771 layer_factory.hpp:77] Creating layer inception_4e/3x3_reduce
I0403 19:51:49.603785  9771 net.cpp:91] Creating Layer inception_4e/3x3_reduce
I0403 19:51:49.603804  9771 net.cpp:425] inception_4e/3x3_reduce <- inception_4d/output_inception_4d/output_0_split_2
I0403 19:51:49.603827  9771 net.cpp:399] inception_4e/3x3_reduce -> inception_4e/3x3_reduce
I0403 19:51:49.606115  9771 net.cpp:141] Setting up inception_4e/3x3_reduce
I0403 19:51:49.606147  9771 net.cpp:148] Top shape: 24 160 14 14 (752640)
I0403 19:51:49.606163  9771 net.cpp:156] Memory required for data: 1221076512
I0403 19:51:49.606184  9771 layer_factory.hpp:77] Creating layer inception_4e/relu_3x3_reduce
I0403 19:51:49.606202  9771 net.cpp:91] Creating Layer inception_4e/relu_3x3_reduce
I0403 19:51:49.606220  9771 net.cpp:425] inception_4e/relu_3x3_reduce <- inception_4e/3x3_reduce
I0403 19:51:49.606243  9771 net.cpp:386] inception_4e/relu_3x3_reduce -> inception_4e/3x3_reduce (in-place)
I0403 19:51:49.606446  9771 net.cpp:141] Setting up inception_4e/relu_3x3_reduce
I0403 19:51:49.606473  9771 net.cpp:148] Top shape: 24 160 14 14 (752640)
I0403 19:51:49.606488  9771 net.cpp:156] Memory required for data: 1224087072
I0403 19:51:49.606504  9771 layer_factory.hpp:77] Creating layer inception_4e/3x3
I0403 19:51:49.606528  9771 net.cpp:91] Creating Layer inception_4e/3x3
I0403 19:51:49.606545  9771 net.cpp:425] inception_4e/3x3 <- inception_4e/3x3_reduce
I0403 19:51:49.606569  9771 net.cpp:399] inception_4e/3x3 -> inception_4e/3x3
I0403 19:51:49.611923  9771 net.cpp:141] Setting up inception_4e/3x3
I0403 19:51:49.611971  9771 net.cpp:148] Top shape: 24 320 14 14 (1505280)
I0403 19:51:49.611989  9771 net.cpp:156] Memory required for data: 1230108192
I0403 19:51:49.612010  9771 layer_factory.hpp:77] Creating layer inception_4e/relu_3x3
I0403 19:51:49.612031  9771 net.cpp:91] Creating Layer inception_4e/relu_3x3
I0403 19:51:49.612049  9771 net.cpp:425] inception_4e/relu_3x3 <- inception_4e/3x3
I0403 19:51:49.612069  9771 net.cpp:386] inception_4e/relu_3x3 -> inception_4e/3x3 (in-place)
I0403 19:51:49.612402  9771 net.cpp:141] Setting up inception_4e/relu_3x3
I0403 19:51:49.612434  9771 net.cpp:148] Top shape: 24 320 14 14 (1505280)
I0403 19:51:49.612452  9771 net.cpp:156] Memory required for data: 1236129312
I0403 19:51:49.612468  9771 layer_factory.hpp:77] Creating layer inception_4e/5x5_reduce
I0403 19:51:49.612495  9771 net.cpp:91] Creating Layer inception_4e/5x5_reduce
I0403 19:51:49.612514  9771 net.cpp:425] inception_4e/5x5_reduce <- inception_4d/output_inception_4d/output_0_split_3
I0403 19:51:49.612535  9771 net.cpp:399] inception_4e/5x5_reduce -> inception_4e/5x5_reduce
I0403 19:51:49.613682  9771 net.cpp:141] Setting up inception_4e/5x5_reduce
I0403 19:51:49.613713  9771 net.cpp:148] Top shape: 24 32 14 14 (150528)
I0403 19:51:49.613737  9771 net.cpp:156] Memory required for data: 1236731424
I0403 19:51:49.613764  9771 layer_factory.hpp:77] Creating layer inception_4e/relu_5x5_reduce
I0403 19:51:49.613787  9771 net.cpp:91] Creating Layer inception_4e/relu_5x5_reduce
I0403 19:51:49.613806  9771 net.cpp:425] inception_4e/relu_5x5_reduce <- inception_4e/5x5_reduce
I0403 19:51:49.613824  9771 net.cpp:386] inception_4e/relu_5x5_reduce -> inception_4e/5x5_reduce (in-place)
I0403 19:51:49.614320  9771 net.cpp:141] Setting up inception_4e/relu_5x5_reduce
I0403 19:51:49.614348  9771 net.cpp:148] Top shape: 24 32 14 14 (150528)
I0403 19:51:49.614364  9771 net.cpp:156] Memory required for data: 1237333536
I0403 19:51:49.614380  9771 layer_factory.hpp:77] Creating layer inception_4e/5x5
I0403 19:51:49.614425  9771 net.cpp:91] Creating Layer inception_4e/5x5
I0403 19:51:49.614445  9771 net.cpp:425] inception_4e/5x5 <- inception_4e/5x5_reduce
I0403 19:51:49.614466  9771 net.cpp:399] inception_4e/5x5 -> inception_4e/5x5
I0403 19:51:49.616427  9771 net.cpp:141] Setting up inception_4e/5x5
I0403 19:51:49.616459  9771 net.cpp:148] Top shape: 24 128 14 14 (602112)
I0403 19:51:49.616479  9771 net.cpp:156] Memory required for data: 1239741984
I0403 19:51:49.616500  9771 layer_factory.hpp:77] Creating layer inception_4e/relu_5x5
I0403 19:51:49.616519  9771 net.cpp:91] Creating Layer inception_4e/relu_5x5
I0403 19:51:49.616536  9771 net.cpp:425] inception_4e/relu_5x5 <- inception_4e/5x5
I0403 19:51:49.616557  9771 net.cpp:386] inception_4e/relu_5x5 -> inception_4e/5x5 (in-place)
I0403 19:51:49.616770  9771 net.cpp:141] Setting up inception_4e/relu_5x5
I0403 19:51:49.616797  9771 net.cpp:148] Top shape: 24 128 14 14 (602112)
I0403 19:51:49.616813  9771 net.cpp:156] Memory required for data: 1242150432
I0403 19:51:49.616829  9771 layer_factory.hpp:77] Creating layer inception_4e/pool
I0403 19:51:49.616849  9771 net.cpp:91] Creating Layer inception_4e/pool
I0403 19:51:49.616868  9771 net.cpp:425] inception_4e/pool <- inception_4d/output_inception_4d/output_0_split_4
I0403 19:51:49.616890  9771 net.cpp:399] inception_4e/pool -> inception_4e/pool
I0403 19:51:49.616969  9771 net.cpp:141] Setting up inception_4e/pool
I0403 19:51:49.616997  9771 net.cpp:148] Top shape: 24 528 14 14 (2483712)
I0403 19:51:49.617012  9771 net.cpp:156] Memory required for data: 1252085280
I0403 19:51:49.617027  9771 layer_factory.hpp:77] Creating layer inception_4e/pool_proj
I0403 19:51:49.617055  9771 net.cpp:91] Creating Layer inception_4e/pool_proj
I0403 19:51:49.617074  9771 net.cpp:425] inception_4e/pool_proj <- inception_4e/pool
I0403 19:51:49.617094  9771 net.cpp:399] inception_4e/pool_proj -> inception_4e/pool_proj
I0403 19:51:49.618702  9771 net.cpp:141] Setting up inception_4e/pool_proj
I0403 19:51:49.618736  9771 net.cpp:148] Top shape: 24 128 14 14 (602112)
I0403 19:51:49.618767  9771 net.cpp:156] Memory required for data: 1254493728
I0403 19:51:49.618789  9771 layer_factory.hpp:77] Creating layer inception_4e/relu_pool_proj
I0403 19:51:49.618808  9771 net.cpp:91] Creating Layer inception_4e/relu_pool_proj
I0403 19:51:49.618825  9771 net.cpp:425] inception_4e/relu_pool_proj <- inception_4e/pool_proj
I0403 19:51:49.618845  9771 net.cpp:386] inception_4e/relu_pool_proj -> inception_4e/pool_proj (in-place)
I0403 19:51:49.619163  9771 net.cpp:141] Setting up inception_4e/relu_pool_proj
I0403 19:51:49.619196  9771 net.cpp:148] Top shape: 24 128 14 14 (602112)
I0403 19:51:49.619213  9771 net.cpp:156] Memory required for data: 1256902176
I0403 19:51:49.619230  9771 layer_factory.hpp:77] Creating layer inception_4e/output
I0403 19:51:49.619254  9771 net.cpp:91] Creating Layer inception_4e/output
I0403 19:51:49.619271  9771 net.cpp:425] inception_4e/output <- inception_4e/1x1
I0403 19:51:49.619289  9771 net.cpp:425] inception_4e/output <- inception_4e/3x3
I0403 19:51:49.619307  9771 net.cpp:425] inception_4e/output <- inception_4e/5x5
I0403 19:51:49.619323  9771 net.cpp:425] inception_4e/output <- inception_4e/pool_proj
I0403 19:51:49.619341  9771 net.cpp:399] inception_4e/output -> inception_4e/output
I0403 19:51:49.619400  9771 net.cpp:141] Setting up inception_4e/output
I0403 19:51:49.619424  9771 net.cpp:148] Top shape: 24 832 14 14 (3913728)
I0403 19:51:49.619441  9771 net.cpp:156] Memory required for data: 1272557088
I0403 19:51:49.619457  9771 layer_factory.hpp:77] Creating layer pool4/3x3_s2
I0403 19:51:49.619477  9771 net.cpp:91] Creating Layer pool4/3x3_s2
I0403 19:51:49.619496  9771 net.cpp:425] pool4/3x3_s2 <- inception_4e/output
I0403 19:51:49.619515  9771 net.cpp:399] pool4/3x3_s2 -> pool4/3x3_s2
I0403 19:51:49.619590  9771 net.cpp:141] Setting up pool4/3x3_s2
I0403 19:51:49.619616  9771 net.cpp:148] Top shape: 24 832 7 7 (978432)
I0403 19:51:49.619632  9771 net.cpp:156] Memory required for data: 1276470816
I0403 19:51:49.619648  9771 layer_factory.hpp:77] Creating layer pool4/3x3_s2_pool4/3x3_s2_0_split
I0403 19:51:49.619666  9771 net.cpp:91] Creating Layer pool4/3x3_s2_pool4/3x3_s2_0_split
I0403 19:51:49.619683  9771 net.cpp:425] pool4/3x3_s2_pool4/3x3_s2_0_split <- pool4/3x3_s2
I0403 19:51:49.619704  9771 net.cpp:399] pool4/3x3_s2_pool4/3x3_s2_0_split -> pool4/3x3_s2_pool4/3x3_s2_0_split_0
I0403 19:51:49.619726  9771 net.cpp:399] pool4/3x3_s2_pool4/3x3_s2_0_split -> pool4/3x3_s2_pool4/3x3_s2_0_split_1
I0403 19:51:49.619747  9771 net.cpp:399] pool4/3x3_s2_pool4/3x3_s2_0_split -> pool4/3x3_s2_pool4/3x3_s2_0_split_2
I0403 19:51:49.619777  9771 net.cpp:399] pool4/3x3_s2_pool4/3x3_s2_0_split -> pool4/3x3_s2_pool4/3x3_s2_0_split_3
I0403 19:51:49.619874  9771 net.cpp:141] Setting up pool4/3x3_s2_pool4/3x3_s2_0_split
I0403 19:51:49.619901  9771 net.cpp:148] Top shape: 24 832 7 7 (978432)
I0403 19:51:49.619920  9771 net.cpp:148] Top shape: 24 832 7 7 (978432)
I0403 19:51:49.619937  9771 net.cpp:148] Top shape: 24 832 7 7 (978432)
I0403 19:51:49.619954  9771 net.cpp:148] Top shape: 24 832 7 7 (978432)
I0403 19:51:49.619969  9771 net.cpp:156] Memory required for data: 1292125728
I0403 19:51:49.619984  9771 layer_factory.hpp:77] Creating layer inception_5a/1x1
I0403 19:51:49.620007  9771 net.cpp:91] Creating Layer inception_5a/1x1
I0403 19:51:49.620026  9771 net.cpp:425] inception_5a/1x1 <- pool4/3x3_s2_pool4/3x3_s2_0_split_0
I0403 19:51:49.620049  9771 net.cpp:399] inception_5a/1x1 -> inception_5a/1x1
I0403 19:51:49.623111  9771 net.cpp:141] Setting up inception_5a/1x1
I0403 19:51:49.623142  9771 net.cpp:148] Top shape: 24 256 7 7 (301056)
I0403 19:51:49.623159  9771 net.cpp:156] Memory required for data: 1293329952
I0403 19:51:49.623179  9771 layer_factory.hpp:77] Creating layer inception_5a/relu_1x1
I0403 19:51:49.623198  9771 net.cpp:91] Creating Layer inception_5a/relu_1x1
I0403 19:51:49.623215  9771 net.cpp:425] inception_5a/relu_1x1 <- inception_5a/1x1
I0403 19:51:49.623236  9771 net.cpp:386] inception_5a/relu_1x1 -> inception_5a/1x1 (in-place)
I0403 19:51:49.623574  9771 net.cpp:141] Setting up inception_5a/relu_1x1
I0403 19:51:49.623603  9771 net.cpp:148] Top shape: 24 256 7 7 (301056)
I0403 19:51:49.623620  9771 net.cpp:156] Memory required for data: 1294534176
I0403 19:51:49.623636  9771 layer_factory.hpp:77] Creating layer inception_5a/3x3_reduce
I0403 19:51:49.623659  9771 net.cpp:91] Creating Layer inception_5a/3x3_reduce
I0403 19:51:49.623678  9771 net.cpp:425] inception_5a/3x3_reduce <- pool4/3x3_s2_pool4/3x3_s2_0_split_1
I0403 19:51:49.623702  9771 net.cpp:399] inception_5a/3x3_reduce -> inception_5a/3x3_reduce
I0403 19:51:49.626335  9771 net.cpp:141] Setting up inception_5a/3x3_reduce
I0403 19:51:49.626366  9771 net.cpp:148] Top shape: 24 160 7 7 (188160)
I0403 19:51:49.626384  9771 net.cpp:156] Memory required for data: 1295286816
I0403 19:51:49.626402  9771 layer_factory.hpp:77] Creating layer inception_5a/relu_3x3_reduce
I0403 19:51:49.626423  9771 net.cpp:91] Creating Layer inception_5a/relu_3x3_reduce
I0403 19:51:49.626441  9771 net.cpp:425] inception_5a/relu_3x3_reduce <- inception_5a/3x3_reduce
I0403 19:51:49.626459  9771 net.cpp:386] inception_5a/relu_3x3_reduce -> inception_5a/3x3_reduce (in-place)
I0403 19:51:49.626660  9771 net.cpp:141] Setting up inception_5a/relu_3x3_reduce
I0403 19:51:49.626688  9771 net.cpp:148] Top shape: 24 160 7 7 (188160)
I0403 19:51:49.626703  9771 net.cpp:156] Memory required for data: 1296039456
I0403 19:51:49.626718  9771 layer_factory.hpp:77] Creating layer inception_5a/3x3
I0403 19:51:49.626741  9771 net.cpp:91] Creating Layer inception_5a/3x3
I0403 19:51:49.626760  9771 net.cpp:425] inception_5a/3x3 <- inception_5a/3x3_reduce
I0403 19:51:49.626782  9771 net.cpp:399] inception_5a/3x3 -> inception_5a/3x3
I0403 19:51:49.632125  9771 net.cpp:141] Setting up inception_5a/3x3
I0403 19:51:49.632158  9771 net.cpp:148] Top shape: 24 320 7 7 (376320)
I0403 19:51:49.632176  9771 net.cpp:156] Memory required for data: 1297544736
I0403 19:51:49.632208  9771 layer_factory.hpp:77] Creating layer inception_5a/relu_3x3
I0403 19:51:49.632228  9771 net.cpp:91] Creating Layer inception_5a/relu_3x3
I0403 19:51:49.632257  9771 net.cpp:425] inception_5a/relu_3x3 <- inception_5a/3x3
I0403 19:51:49.632282  9771 net.cpp:386] inception_5a/relu_3x3 -> inception_5a/3x3 (in-place)
I0403 19:51:49.632606  9771 net.cpp:141] Setting up inception_5a/relu_3x3
I0403 19:51:49.632637  9771 net.cpp:148] Top shape: 24 320 7 7 (376320)
I0403 19:51:49.632652  9771 net.cpp:156] Memory required for data: 1299050016
I0403 19:51:49.632668  9771 layer_factory.hpp:77] Creating layer inception_5a/5x5_reduce
I0403 19:51:49.632694  9771 net.cpp:91] Creating Layer inception_5a/5x5_reduce
I0403 19:51:49.632712  9771 net.cpp:425] inception_5a/5x5_reduce <- pool4/3x3_s2_pool4/3x3_s2_0_split_2
I0403 19:51:49.632735  9771 net.cpp:399] inception_5a/5x5_reduce -> inception_5a/5x5_reduce
I0403 19:51:49.633983  9771 net.cpp:141] Setting up inception_5a/5x5_reduce
I0403 19:51:49.634013  9771 net.cpp:148] Top shape: 24 32 7 7 (37632)
I0403 19:51:49.634029  9771 net.cpp:156] Memory required for data: 1299200544
I0403 19:51:49.634048  9771 layer_factory.hpp:77] Creating layer inception_5a/relu_5x5_reduce
I0403 19:51:49.634066  9771 net.cpp:91] Creating Layer inception_5a/relu_5x5_reduce
I0403 19:51:49.634084  9771 net.cpp:425] inception_5a/relu_5x5_reduce <- inception_5a/5x5_reduce
I0403 19:51:49.634104  9771 net.cpp:386] inception_5a/relu_5x5_reduce -> inception_5a/5x5_reduce (in-place)
I0403 19:51:49.634441  9771 net.cpp:141] Setting up inception_5a/relu_5x5_reduce
I0403 19:51:49.634469  9771 net.cpp:148] Top shape: 24 32 7 7 (37632)
I0403 19:51:49.634502  9771 net.cpp:156] Memory required for data: 1299351072
I0403 19:51:49.634518  9771 layer_factory.hpp:77] Creating layer inception_5a/5x5
I0403 19:51:49.634542  9771 net.cpp:91] Creating Layer inception_5a/5x5
I0403 19:51:49.634572  9771 net.cpp:425] inception_5a/5x5 <- inception_5a/5x5_reduce
I0403 19:51:49.634594  9771 net.cpp:399] inception_5a/5x5 -> inception_5a/5x5
I0403 19:51:49.636386  9771 net.cpp:141] Setting up inception_5a/5x5
I0403 19:51:49.636431  9771 net.cpp:148] Top shape: 24 128 7 7 (150528)
I0403 19:51:49.636450  9771 net.cpp:156] Memory required for data: 1299953184
I0403 19:51:49.636468  9771 layer_factory.hpp:77] Creating layer inception_5a/relu_5x5
I0403 19:51:49.636500  9771 net.cpp:91] Creating Layer inception_5a/relu_5x5
I0403 19:51:49.636518  9771 net.cpp:425] inception_5a/relu_5x5 <- inception_5a/5x5
I0403 19:51:49.636536  9771 net.cpp:386] inception_5a/relu_5x5 -> inception_5a/5x5 (in-place)
I0403 19:51:49.636730  9771 net.cpp:141] Setting up inception_5a/relu_5x5
I0403 19:51:49.636756  9771 net.cpp:148] Top shape: 24 128 7 7 (150528)
I0403 19:51:49.636771  9771 net.cpp:156] Memory required for data: 1300555296
I0403 19:51:49.636786  9771 layer_factory.hpp:77] Creating layer inception_5a/pool
I0403 19:51:49.636806  9771 net.cpp:91] Creating Layer inception_5a/pool
I0403 19:51:49.636821  9771 net.cpp:425] inception_5a/pool <- pool4/3x3_s2_pool4/3x3_s2_0_split_3
I0403 19:51:49.636843  9771 net.cpp:399] inception_5a/pool -> inception_5a/pool
I0403 19:51:49.636917  9771 net.cpp:141] Setting up inception_5a/pool
I0403 19:51:49.636941  9771 net.cpp:148] Top shape: 24 832 7 7 (978432)
I0403 19:51:49.636956  9771 net.cpp:156] Memory required for data: 1304469024
I0403 19:51:49.636971  9771 layer_factory.hpp:77] Creating layer inception_5a/pool_proj
I0403 19:51:49.636996  9771 net.cpp:91] Creating Layer inception_5a/pool_proj
I0403 19:51:49.637013  9771 net.cpp:425] inception_5a/pool_proj <- inception_5a/pool
I0403 19:51:49.637034  9771 net.cpp:399] inception_5a/pool_proj -> inception_5a/pool_proj
I0403 19:51:49.639420  9771 net.cpp:141] Setting up inception_5a/pool_proj
I0403 19:51:49.639453  9771 net.cpp:148] Top shape: 24 128 7 7 (150528)
I0403 19:51:49.639472  9771 net.cpp:156] Memory required for data: 1305071136
I0403 19:51:49.639492  9771 layer_factory.hpp:77] Creating layer inception_5a/relu_pool_proj
I0403 19:51:49.639510  9771 net.cpp:91] Creating Layer inception_5a/relu_pool_proj
I0403 19:51:49.639528  9771 net.cpp:425] inception_5a/relu_pool_proj <- inception_5a/pool_proj
I0403 19:51:49.639545  9771 net.cpp:386] inception_5a/relu_pool_proj -> inception_5a/pool_proj (in-place)
I0403 19:51:49.639853  9771 net.cpp:141] Setting up inception_5a/relu_pool_proj
I0403 19:51:49.639883  9771 net.cpp:148] Top shape: 24 128 7 7 (150528)
I0403 19:51:49.639900  9771 net.cpp:156] Memory required for data: 1305673248
I0403 19:51:49.639916  9771 layer_factory.hpp:77] Creating layer inception_5a/output
I0403 19:51:49.639935  9771 net.cpp:91] Creating Layer inception_5a/output
I0403 19:51:49.639953  9771 net.cpp:425] inception_5a/output <- inception_5a/1x1
I0403 19:51:49.639971  9771 net.cpp:425] inception_5a/output <- inception_5a/3x3
I0403 19:51:49.639988  9771 net.cpp:425] inception_5a/output <- inception_5a/5x5
I0403 19:51:49.640005  9771 net.cpp:425] inception_5a/output <- inception_5a/pool_proj
I0403 19:51:49.640022  9771 net.cpp:399] inception_5a/output -> inception_5a/output
I0403 19:51:49.640076  9771 net.cpp:141] Setting up inception_5a/output
I0403 19:51:49.640102  9771 net.cpp:148] Top shape: 24 832 7 7 (978432)
I0403 19:51:49.640116  9771 net.cpp:156] Memory required for data: 1309586976
I0403 19:51:49.640132  9771 layer_factory.hpp:77] Creating layer inception_5a/output_inception_5a/output_0_split
I0403 19:51:49.640152  9771 net.cpp:91] Creating Layer inception_5a/output_inception_5a/output_0_split
I0403 19:51:49.640169  9771 net.cpp:425] inception_5a/output_inception_5a/output_0_split <- inception_5a/output
I0403 19:51:49.640190  9771 net.cpp:399] inception_5a/output_inception_5a/output_0_split -> inception_5a/output_inception_5a/output_0_split_0
I0403 19:51:49.640211  9771 net.cpp:399] inception_5a/output_inception_5a/output_0_split -> inception_5a/output_inception_5a/output_0_split_1
I0403 19:51:49.640233  9771 net.cpp:399] inception_5a/output_inception_5a/output_0_split -> inception_5a/output_inception_5a/output_0_split_2
I0403 19:51:49.640259  9771 net.cpp:399] inception_5a/output_inception_5a/output_0_split -> inception_5a/output_inception_5a/output_0_split_3
I0403 19:51:49.640379  9771 net.cpp:141] Setting up inception_5a/output_inception_5a/output_0_split
I0403 19:51:49.640404  9771 net.cpp:148] Top shape: 24 832 7 7 (978432)
I0403 19:51:49.640421  9771 net.cpp:148] Top shape: 24 832 7 7 (978432)
I0403 19:51:49.640437  9771 net.cpp:148] Top shape: 24 832 7 7 (978432)
I0403 19:51:49.640455  9771 net.cpp:148] Top shape: 24 832 7 7 (978432)
I0403 19:51:49.640468  9771 net.cpp:156] Memory required for data: 1325241888
I0403 19:51:49.640483  9771 layer_factory.hpp:77] Creating layer inception_5b/1x1
I0403 19:51:49.640509  9771 net.cpp:91] Creating Layer inception_5b/1x1
I0403 19:51:49.640527  9771 net.cpp:425] inception_5b/1x1 <- inception_5a/output_inception_5a/output_0_split_0
I0403 19:51:49.640550  9771 net.cpp:399] inception_5b/1x1 -> inception_5b/1x1
I0403 19:51:49.644465  9771 net.cpp:141] Setting up inception_5b/1x1
I0403 19:51:49.644496  9771 net.cpp:148] Top shape: 24 384 7 7 (451584)
I0403 19:51:49.644513  9771 net.cpp:156] Memory required for data: 1327048224
I0403 19:51:49.644532  9771 layer_factory.hpp:77] Creating layer inception_5b/relu_1x1
I0403 19:51:49.644553  9771 net.cpp:91] Creating Layer inception_5b/relu_1x1
I0403 19:51:49.644572  9771 net.cpp:425] inception_5b/relu_1x1 <- inception_5b/1x1
I0403 19:51:49.644589  9771 net.cpp:386] inception_5b/relu_1x1 -> inception_5b/1x1 (in-place)
I0403 19:51:49.644906  9771 net.cpp:141] Setting up inception_5b/relu_1x1
I0403 19:51:49.644933  9771 net.cpp:148] Top shape: 24 384 7 7 (451584)
I0403 19:51:49.644949  9771 net.cpp:156] Memory required for data: 1328854560
I0403 19:51:49.644965  9771 layer_factory.hpp:77] Creating layer inception_5b/3x3_reduce
I0403 19:51:49.644994  9771 net.cpp:91] Creating Layer inception_5b/3x3_reduce
I0403 19:51:49.645012  9771 net.cpp:425] inception_5b/3x3_reduce <- inception_5a/output_inception_5a/output_0_split_1
I0403 19:51:49.645033  9771 net.cpp:399] inception_5b/3x3_reduce -> inception_5b/3x3_reduce
I0403 19:51:49.647800  9771 net.cpp:141] Setting up inception_5b/3x3_reduce
I0403 19:51:49.647836  9771 net.cpp:148] Top shape: 24 192 7 7 (225792)
I0403 19:51:49.647856  9771 net.cpp:156] Memory required for data: 1329757728
I0403 19:51:49.647876  9771 layer_factory.hpp:77] Creating layer inception_5b/relu_3x3_reduce
I0403 19:51:49.647896  9771 net.cpp:91] Creating Layer inception_5b/relu_3x3_reduce
I0403 19:51:49.647913  9771 net.cpp:425] inception_5b/relu_3x3_reduce <- inception_5b/3x3_reduce
I0403 19:51:49.647933  9771 net.cpp:386] inception_5b/relu_3x3_reduce -> inception_5b/3x3_reduce (in-place)
I0403 19:51:49.648134  9771 net.cpp:141] Setting up inception_5b/relu_3x3_reduce
I0403 19:51:49.648161  9771 net.cpp:148] Top shape: 24 192 7 7 (225792)
I0403 19:51:49.648178  9771 net.cpp:156] Memory required for data: 1330660896
I0403 19:51:49.648195  9771 layer_factory.hpp:77] Creating layer inception_5b/3x3
I0403 19:51:49.648218  9771 net.cpp:91] Creating Layer inception_5b/3x3
I0403 19:51:49.648237  9771 net.cpp:425] inception_5b/3x3 <- inception_5b/3x3_reduce
I0403 19:51:49.648267  9771 net.cpp:399] inception_5b/3x3 -> inception_5b/3x3
I0403 19:51:49.655339  9771 net.cpp:141] Setting up inception_5b/3x3
I0403 19:51:49.655374  9771 net.cpp:148] Top shape: 24 384 7 7 (451584)
I0403 19:51:49.655391  9771 net.cpp:156] Memory required for data: 1332467232
I0403 19:51:49.655412  9771 layer_factory.hpp:77] Creating layer inception_5b/relu_3x3
I0403 19:51:49.655432  9771 net.cpp:91] Creating Layer inception_5b/relu_3x3
I0403 19:51:49.655449  9771 net.cpp:425] inception_5b/relu_3x3 <- inception_5b/3x3
I0403 19:51:49.655468  9771 net.cpp:386] inception_5b/relu_3x3 -> inception_5b/3x3 (in-place)
I0403 19:51:49.655787  9771 net.cpp:141] Setting up inception_5b/relu_3x3
I0403 19:51:49.655818  9771 net.cpp:148] Top shape: 24 384 7 7 (451584)
I0403 19:51:49.655836  9771 net.cpp:156] Memory required for data: 1334273568
I0403 19:51:49.655853  9771 layer_factory.hpp:77] Creating layer inception_5b/5x5_reduce
I0403 19:51:49.655900  9771 net.cpp:91] Creating Layer inception_5b/5x5_reduce
I0403 19:51:49.655920  9771 net.cpp:425] inception_5b/5x5_reduce <- inception_5a/output_inception_5a/output_0_split_2
I0403 19:51:49.655941  9771 net.cpp:399] inception_5b/5x5_reduce -> inception_5b/5x5_reduce
I0403 19:51:49.657292  9771 net.cpp:141] Setting up inception_5b/5x5_reduce
I0403 19:51:49.657323  9771 net.cpp:148] Top shape: 24 48 7 7 (56448)
I0403 19:51:49.657341  9771 net.cpp:156] Memory required for data: 1334499360
I0403 19:51:49.657361  9771 layer_factory.hpp:77] Creating layer inception_5b/relu_5x5_reduce
I0403 19:51:49.657379  9771 net.cpp:91] Creating Layer inception_5b/relu_5x5_reduce
I0403 19:51:49.657397  9771 net.cpp:425] inception_5b/relu_5x5_reduce <- inception_5b/5x5_reduce
I0403 19:51:49.657420  9771 net.cpp:386] inception_5b/relu_5x5_reduce -> inception_5b/5x5_reduce (in-place)
I0403 19:51:49.657809  9771 net.cpp:141] Setting up inception_5b/relu_5x5_reduce
I0403 19:51:49.657837  9771 net.cpp:148] Top shape: 24 48 7 7 (56448)
I0403 19:51:49.657855  9771 net.cpp:156] Memory required for data: 1334725152
I0403 19:51:49.657871  9771 layer_factory.hpp:77] Creating layer inception_5b/5x5
I0403 19:51:49.657893  9771 net.cpp:91] Creating Layer inception_5b/5x5
I0403 19:51:49.657925  9771 net.cpp:425] inception_5b/5x5 <- inception_5b/5x5_reduce
I0403 19:51:49.657945  9771 net.cpp:399] inception_5b/5x5 -> inception_5b/5x5
I0403 19:51:49.660084  9771 net.cpp:141] Setting up inception_5b/5x5
I0403 19:51:49.660115  9771 net.cpp:148] Top shape: 24 128 7 7 (150528)
I0403 19:51:49.660130  9771 net.cpp:156] Memory required for data: 1335327264
I0403 19:51:49.660150  9771 layer_factory.hpp:77] Creating layer inception_5b/relu_5x5
I0403 19:51:49.660167  9771 net.cpp:91] Creating Layer inception_5b/relu_5x5
I0403 19:51:49.660187  9771 net.cpp:425] inception_5b/relu_5x5 <- inception_5b/5x5
I0403 19:51:49.660207  9771 net.cpp:386] inception_5b/relu_5x5 -> inception_5b/5x5 (in-place)
I0403 19:51:49.660419  9771 net.cpp:141] Setting up inception_5b/relu_5x5
I0403 19:51:49.660445  9771 net.cpp:148] Top shape: 24 128 7 7 (150528)
I0403 19:51:49.660461  9771 net.cpp:156] Memory required for data: 1335929376
I0403 19:51:49.660477  9771 layer_factory.hpp:77] Creating layer inception_5b/pool
I0403 19:51:49.660501  9771 net.cpp:91] Creating Layer inception_5b/pool
I0403 19:51:49.660518  9771 net.cpp:425] inception_5b/pool <- inception_5a/output_inception_5a/output_0_split_3
I0403 19:51:49.660537  9771 net.cpp:399] inception_5b/pool -> inception_5b/pool
I0403 19:51:49.660614  9771 net.cpp:141] Setting up inception_5b/pool
I0403 19:51:49.660640  9771 net.cpp:148] Top shape: 24 832 7 7 (978432)
I0403 19:51:49.660655  9771 net.cpp:156] Memory required for data: 1339843104
I0403 19:51:49.660670  9771 layer_factory.hpp:77] Creating layer inception_5b/pool_proj
I0403 19:51:49.660693  9771 net.cpp:91] Creating Layer inception_5b/pool_proj
I0403 19:51:49.660712  9771 net.cpp:425] inception_5b/pool_proj <- inception_5b/pool
I0403 19:51:49.660734  9771 net.cpp:399] inception_5b/pool_proj -> inception_5b/pool_proj
I0403 19:51:49.663168  9771 net.cpp:141] Setting up inception_5b/pool_proj
I0403 19:51:49.663203  9771 net.cpp:148] Top shape: 24 128 7 7 (150528)
I0403 19:51:49.663220  9771 net.cpp:156] Memory required for data: 1340445216
I0403 19:51:49.663245  9771 layer_factory.hpp:77] Creating layer inception_5b/relu_pool_proj
I0403 19:51:49.663266  9771 net.cpp:91] Creating Layer inception_5b/relu_pool_proj
I0403 19:51:49.663285  9771 net.cpp:425] inception_5b/relu_pool_proj <- inception_5b/pool_proj
I0403 19:51:49.663307  9771 net.cpp:386] inception_5b/relu_pool_proj -> inception_5b/pool_proj (in-place)
I0403 19:51:49.663620  9771 net.cpp:141] Setting up inception_5b/relu_pool_proj
I0403 19:51:49.663650  9771 net.cpp:148] Top shape: 24 128 7 7 (150528)
I0403 19:51:49.663667  9771 net.cpp:156] Memory required for data: 1341047328
I0403 19:51:49.663683  9771 layer_factory.hpp:77] Creating layer inception_5b/output
I0403 19:51:49.663702  9771 net.cpp:91] Creating Layer inception_5b/output
I0403 19:51:49.663733  9771 net.cpp:425] inception_5b/output <- inception_5b/1x1
I0403 19:51:49.663751  9771 net.cpp:425] inception_5b/output <- inception_5b/3x3
I0403 19:51:49.663769  9771 net.cpp:425] inception_5b/output <- inception_5b/5x5
I0403 19:51:49.663785  9771 net.cpp:425] inception_5b/output <- inception_5b/pool_proj
I0403 19:51:49.663805  9771 net.cpp:399] inception_5b/output -> inception_5b/output
I0403 19:51:49.663859  9771 net.cpp:141] Setting up inception_5b/output
I0403 19:51:49.663884  9771 net.cpp:148] Top shape: 24 1024 7 7 (1204224)
I0403 19:51:49.663899  9771 net.cpp:156] Memory required for data: 1345864224
I0403 19:51:49.663915  9771 layer_factory.hpp:77] Creating layer pool5/7x7_s1
I0403 19:51:49.663938  9771 net.cpp:91] Creating Layer pool5/7x7_s1
I0403 19:51:49.663964  9771 net.cpp:425] pool5/7x7_s1 <- inception_5b/output
I0403 19:51:49.663985  9771 net.cpp:399] pool5/7x7_s1 -> pool5/7x7_s1
I0403 19:51:49.664213  9771 net.cpp:141] Setting up pool5/7x7_s1
I0403 19:51:49.664244  9771 net.cpp:148] Top shape: 24 1024 1 1 (24576)
I0403 19:51:49.664260  9771 net.cpp:156] Memory required for data: 1345962528
I0403 19:51:49.664276  9771 layer_factory.hpp:77] Creating layer pool5/drop_7x7_s1
I0403 19:51:49.664294  9771 net.cpp:91] Creating Layer pool5/drop_7x7_s1
I0403 19:51:49.664311  9771 net.cpp:425] pool5/drop_7x7_s1 <- pool5/7x7_s1
I0403 19:51:49.664331  9771 net.cpp:386] pool5/drop_7x7_s1 -> pool5/7x7_s1 (in-place)
I0403 19:51:49.664383  9771 net.cpp:141] Setting up pool5/drop_7x7_s1
I0403 19:51:49.664407  9771 net.cpp:148] Top shape: 24 1024 1 1 (24576)
I0403 19:51:49.664422  9771 net.cpp:156] Memory required for data: 1346060832
I0403 19:51:49.664438  9771 layer_factory.hpp:77] Creating layer loss3/classifier_plantvillage
I0403 19:51:49.664460  9771 net.cpp:91] Creating Layer loss3/classifier_plantvillage
I0403 19:51:49.664479  9771 net.cpp:425] loss3/classifier_plantvillage <- pool5/7x7_s1
I0403 19:51:49.664499  9771 net.cpp:399] loss3/classifier_plantvillage -> loss3/classifier_plantvillage
I0403 19:51:49.664942  9771 net.cpp:141] Setting up loss3/classifier_plantvillage
I0403 19:51:49.664968  9771 net.cpp:148] Top shape: 24 38 (912)
I0403 19:51:49.664983  9771 net.cpp:156] Memory required for data: 1346064480
I0403 19:51:49.665001  9771 layer_factory.hpp:77] Creating layer loss3/classifier_plantvillage_loss3/classifier_plantvillage_0_split
I0403 19:51:49.665022  9771 net.cpp:91] Creating Layer loss3/classifier_plantvillage_loss3/classifier_plantvillage_0_split
I0403 19:51:49.665040  9771 net.cpp:425] loss3/classifier_plantvillage_loss3/classifier_plantvillage_0_split <- loss3/classifier_plantvillage
I0403 19:51:49.665060  9771 net.cpp:399] loss3/classifier_plantvillage_loss3/classifier_plantvillage_0_split -> loss3/classifier_plantvillage_loss3/classifier_plantvillage_0_split_0
I0403 19:51:49.665079  9771 net.cpp:399] loss3/classifier_plantvillage_loss3/classifier_plantvillage_0_split -> loss3/classifier_plantvillage_loss3/classifier_plantvillage_0_split_1
I0403 19:51:49.665101  9771 net.cpp:399] loss3/classifier_plantvillage_loss3/classifier_plantvillage_0_split -> loss3/classifier_plantvillage_loss3/classifier_plantvillage_0_split_2
I0403 19:51:49.665124  9771 net.cpp:399] loss3/classifier_plantvillage_loss3/classifier_plantvillage_0_split -> loss3/classifier_plantvillage_loss3/classifier_plantvillage_0_split_3
I0403 19:51:49.665230  9771 net.cpp:141] Setting up loss3/classifier_plantvillage_loss3/classifier_plantvillage_0_split
I0403 19:51:49.665258  9771 net.cpp:148] Top shape: 24 38 (912)
I0403 19:51:49.665277  9771 net.cpp:148] Top shape: 24 38 (912)
I0403 19:51:49.665292  9771 net.cpp:148] Top shape: 24 38 (912)
I0403 19:51:49.665308  9771 net.cpp:148] Top shape: 24 38 (912)
I0403 19:51:49.665323  9771 net.cpp:156] Memory required for data: 1346079072
I0403 19:51:49.665338  9771 layer_factory.hpp:77] Creating layer loss1/loss
I0403 19:51:49.665360  9771 net.cpp:91] Creating Layer loss1/loss
I0403 19:51:49.665379  9771 net.cpp:425] loss1/loss <- loss1/classifier_plantvillage_loss1/classifier_plantvillage_0_split_0
I0403 19:51:49.665410  9771 net.cpp:425] loss1/loss <- label_data_1_split_0
…
