…
I0403 19:41:09.687922  9549 net.cpp:313] The NetState phase (1) differed from the phase (0) specified by a rule in layer data
I0403 19:41:09.689108  9549 net.cpp:49] Initializing net from parameters: 
state {
  phase: TEST
}
layer {
  name: "data"
  type: "Data"
  top: "data"
  top: "label"
  include {
    phase: TEST
  }
  transform_param {
    mirror: false
    crop_size: 224
    mean_file: "/home/mohanty/data/final_dataset/lmdb/color-50-50/mean.binaryproto"
  }
  data_param {
    source: "/home/mohanty/data/final_dataset/lmdb/color-50-50/test_db"
    batch_size: 24
    backend: LMDB
  }
}
layer {
  name: "conv1/7x7_s2"
  type: "Convolution"
  bottom: "data"
  top: "conv1/7x7_s2"
  param {
    lr_mult: 1
    decay_mult: 1
  }
  param {
    lr_mult: 2
    decay_mult: 0
  }
  convolution_param {
    num_output: 64
    pad: 3
    kernel_size: 7
    stride: 2
    weight_filler {
      type: "xavier"
      std: 0.1
    }
    bias_filler {
      type: "constant"
      value: 0.2
    }
  }
}
layer {
  name: "conv1/relu_7x7"
  type: "ReLU"
  bottom: "conv1/7x7_s2"
  top: "conv1/7x7_s2"
}
layer {
  name: "pool1/3x3_s2"
  type: "Pooling"
  bottom: "conv1/7x7_s2"
  top: "pool1/3x3_s2"
  pooling_param {
    pool: MAX
    kernel_size: 3
    stride: 2
  }
}
layer {
  name: "pool1/norm1"
  type: "LRN"
  bottom: "pool1/3x3_s2"
  top: "pool1/norm1"
  lrn_param {
    local_size: 5
    alpha: 0.0001
    beta: 0.75
  }
}
layer {
  name: "conv2/3x3_reduce"
  type: "Convolution"
  bottom: "pool1/norm1"
  top: "conv2/3x3_reduce"
  param {
    lr_mult: 1
    decay_mult: 1
  }
  param {
    lr_mult: 2
    decay_mult: 0
  }
  convolution_param {
    num_output: 64
    kernel_size: 1
    weight_filler {
      type: "xavier"
      std: 0.1
    }
    bias_filler {
      type: "constant"
      value: 0.2
    }
  }
}
layer {
  name: "conv2/relu_3x3_reduce"
  type: "ReLU"
  bottom: "conv2/3x3_reduce"
  top: "conv2/3x3_reduce"
}
layer {
  name: "conv2/3x3"
  type: "Convolution"
  bottom: "conv2/3x3_reduce"
  top: "conv2/3x3"
  param {
    lr_mult: 1
    decay_mult: 1
  }
  param {
    lr_mult: 2
    decay_mult: 0
  }
  convolution_param {
    num_output: 192
    pad: 1
    kernel_size: 3
    weight_filler {
      type: "xavier"
      std: 0.03
    }
    bias_filler {
      type: "constant"
      value: 0.2
    }
  }
}
layer {
  name: "conv2/relu_3x3"
  type: "ReLU"
  bottom: "conv2/3x3"
  top: "conv2/3x3"
}
layer {
  name: "conv2/norm2"
  type: "LRN"
  bottom: "conv2/3x3"
  top: "conv2/norm2"
  lrn_param {
    local_size: 5
    alpha: 0.0001
    beta: 0.75
  }
}
layer {
  name: "pool2/3x3_s2"
  type: "Pooling"
  bottom: "conv2/norm2"
  top: "pool2/3x3_s2"
  pooling_param {
    pool: MAX
    kernel_size: 3
    stride: 2
  }
}
layer {
  name: "inception_3a/1x1"
  type: "Convolution"
  bottom: "pool2/3x3_s2"
  top: "inception_3a/1x1"
  param {
    lr_mult: 1
    decay_mult: 1
  }
  param {
    lr_mult: 2
    decay_mult: 0
  }
  convolution_param {
    num_output: 64
    kernel_size: 1
    weight_filler {
      type: "xavier"
      std: 0.03
    }
    bias_filler {
      type: "constant"
      value: 0.2
    }
  }
}
layer {
  name: "inception_3a/relu_1x1"
  type: "ReLU"
  bottom: "inception_3a/1x1"
  top: "inception_3a/1x1"
}
layer {
  name: "inception_3a/3x3_reduce"
  type: "Convolution"
  bottom: "pool2/3x3_s2"
  top: "inception_3a/3x3_reduce"
  param {
    lr_mult: 1
    decay_mult: 1
  }
  param {
    lr_mult: 2
    decay_mult: 0
  }
  convolution_param {
    num_output: 96
    kernel_size: 1
    weight_filler {
      type: "xavier"
      std: 0.09
    }
    bias_filler {
      type: "constant"
      value: 0.2
    }
  }
}
layer {
  name: "inception_3a/relu_3x3_reduce"
  type: "ReLU"
  bottom: "inception_3a/3x3_reduce"
  top: "inception_3a/3x3_reduce"
}
layer {
  name: "inception_3a/3x3"
  type: "Convolution"
  bottom: "inception_3a/3x3_reduce"
  top: "inception_3a/3x3"
  param {
    lr_mult: 1
    decay_mult: 1
  }
  param {
    lr_mult: 2
    decay_mult: 0
  }
  convolution_param {
    num_output: 128
    pad: 1
    kernel_size: 3
    weight_filler {
      type: "xavier"
      std: 0.03
    }
    bias_filler {
      type: "constant"
      value: 0.2
    }
  }
}
layer {
  name: "inception_3a/relu_3x3"
  type: "ReLU"
  bottom: "inception_3a/3x3"
  top: "inception_3a/3x3"
}
layer {
  name: "inception_3a/5x5_reduce"
  type: "Convolution"
  bottom: "pool2/3x3_s2"
  top: "inception_3a/5x5_reduce"
  param {
    lr_mult: 1
    decay_mult: 1
  }
  param {
    lr_mult: 2
    decay_mult: 0
  }
  convolution_param {
    num_output: 16
    kernel_size: 1
    weight_filler {
      type: "xavier"
      std: 0.2
    }
    bias_filler {
      type: "constant"
      value: 0.2
    }
  }
}
layer {
  name: "inception_3a/relu_5x5_reduce"
  type: "ReLU"
  bottom: "inception_3a/5x5_reduce"
  top: "inception_3a/5x5_reduce"
}
layer {
  name: "inception_3a/5x5"
  type: "Convolution"
  bottom: "inception_3a/5x5_reduce"
  top: "inception_3a/5x5"
  param {
    lr_mult: 1
    decay_mult: 1
  }
  param {
    lr_mult: 2
    decay_mult: 0
  }
  convolution_param {
    num_output: 32
    pad: 2
    kernel_size: 5
    weight_filler {
      type: "xavier"
      std: 0.03
    }
    bias_filler {
      type: "constant"
      value: 0.2
    }
  }
}
layer {
  name: "inception_3a/relu_5x5"
  type: "ReLU"
  bottom: "inception_3a/5x5"
  top: "inception_3a/5x5"
}
layer {
  name: "inception_3a/pool"
  type: "Pooling"
  bottom: "pool2/3x3_s2"
  top: "inception_3a/pool"
  pooling_param {
    pool: MAX
    kernel_size: 3
    stride: 1
    pad: 1
  }
}
layer {
  name: "inception_3a/pool_proj"
  type: "Convolution"
  bottom: "inception_3a/pool"
  top: "inception_3a/pool_proj"
  param {
    lr_mult: 1
    decay_mult: 1
  }
  param {
    lr_mult: 2
    decay_mult: 0
  }
  convolution_param {
    num_output: 32
    kernel_size: 1
    weight_filler {
      type: "xavier"
      std: 0.1
    }
    bias_filler {
      type: "constant"
      value: 0.2
    }
  }
}
layer {
  name: "inception_3a/relu_pool_proj"
  type: "ReLU"
  bottom: "inception_3a/pool_proj"
  top: "inception_3a/pool_proj"
}
layer {
  name: "inception_3a/output"
  type: "Concat"
  bottom: "inception_3a/1x1"
  bottom: "inception_3a/3x3"
  bottom: "inception_3a/5x5"
  bottom: "inception_3a/pool_proj"
  top: "inception_3a/output"
}
layer {
  name: "inception_3b/1x1"
  type: "Convolution"
  bottom: "inception_3a/output"
  top: "inception_3b/1x1"
  param {
    lr_mult: 1
    decay_mult: 1
  }
  param {
    lr_mult: 2
    decay_mult: 0
  }
  convolution_param {
    num_output: 128
    kernel_size: 1
    weight_filler {
      type: "xavier"
      std: 0.03
    }
    bias_filler {
      type: "constant"
      value: 0.2
    }
  }
}
layer {
  name: "inception_3b/relu_1x1"
  type: "ReLU"
  bottom: "inception_3b/1x1"
  top: "inception_3b/1x1"
}
layer {
  name: "inception_3b/3x3_reduce"
  type: "Convolution"
  bottom: "inception_3a/output"
  top: "inception_3b/3x3_reduce"
  param {
    lr_mult: 1
    decay_mult: 1
  }
  param {
    lr_mult: 2
    decay_mult: 0
  }
  convolution_param {
    num_output: 128
    kernel_size: 1
    weight_filler {
      type: "xavier"
      std: 0.09
    }
    bias_filler {
      type: "constant"
      value: 0.2
    }
  }
}
layer {
  name: "inception_3b/relu_3x3_reduce"
  type: "ReLU"
  bottom: "inception_3b/3x3_reduce"
  top: "inception_3b/3x3_reduce"
}
layer {
  name: "inception_3b/3x3"
  type: "Convolution"
  bottom: "inception_3b/3x3_reduce"
  top: "inception_3b/3x3"
  param {
    lr_mult: 1
    decay_mult: 1
  }
  param {
    lr_mult: 2
    decay_mult: 0
  }
  convolution_param {
    num_output: 192
    pad: 1
    kernel_size: 3
    weight_filler {
      type: "xavier"
      std: 0.03
    }
    bias_filler {
      type: "constant"
      value: 0.2
    }
  }
}
layer {
  name: "inception_3b/relu_3x3"
  type: "ReLU"
  bottom: "inception_3b/3x3"
  top: "inception_3b/3x3"
}
layer {
  name: "inception_3b/5x5_reduce"
  type: "Convolution"
  bottom: "inception_3a/output"
  top: "inception_3b/5x5_reduce"
  param {
    lr_mult: 1
    decay_mult: 1
  }
  param {
    lr_mult: 2
    decay_mult: 0
  }
  convolution_param {
    num_output: 32
    kernel_size: 1
    weight_filler {
      type: "xavier"
      std: 0.2
    }
    bias_filler {
      type: "constant"
      value: 0.2
    }
  }
}
layer {
  name: "inception_3b/relu_5x5_reduce"
  type: "ReLU"
  bottom: "inception_3b/5x5_reduce"
  top: "inception_3b/5x5_reduce"
}
layer {
  name: "inception_3b/5x5"
  type: "Convolution"
  bottom: "inception_3b/5x5_reduce"
  top: "inception_3b/5x5"
  param {
    lr_mult: 1
    decay_mult: 1
  }
  param {
    lr_mult: 2
    decay_mult: 0
  }
  convolution_param {
    num_output: 96
    pad: 2
    kernel_size: 5
    weight_filler {
      type: "xavier"
      std: 0.03
    }
    bias_filler {
      type: "constant"
      value: 0.2
    }
  }
}
layer {
  name: "inception_3b/relu_5x5"
  type: "ReLU"
  bottom: "inception_3b/5x5"
  top: "inception_3b/5x5"
}
layer {
  name: "inception_3b/pool"
  type: "Pooling"
  bottom: "inception_3a/output"
  top: "inception_3b/pool"
  pooling_param {
    pool: MAX
    kernel_size: 3
    stride: 1
    pad: 1
  }
}
layer {
  name: "inception_3b/pool_proj"
  type: "Convolution"
  bottom: "inception_3b/pool"
  top: "inception_3b/pool_proj"
  param {
    lr_mult: 1
    decay_mult: 1
  }
  param {
    lr_mult: 2
    decay_mult: 0
  }
  convolution_param {
    num_output: 64
    kernel_size: 1
    weight_filler {
      type: "xavier"
      std: 0.1
    }
    bias_filler {
      type: "constant"
      value: 0.2
    }
  }
}
layer {
  name: "inception_3b/relu_pool_proj"
  type: "ReLU"
  bottom: "inception_3b/pool_proj"
  top: "inception_3b/pool_proj"
}
layer {
  name: "inception_3b/output"
  type: "Concat"
  bottom: "inception_3b/1x1"
  bottom: "inception_3b/3x3"
  bottom: "inception_3b/5x5"
  bottom: "inception_3b/pool_proj"
  top: "inception_3b/output"
}
layer {
  name: "pool3/3x3_s2"
  type: "Pooling"
  bottom: "inception_3b/output"
  top: "pool3/3x3_s2"
  pooling_param {
    pool: MAX
    kernel_size: 3
    stride: 2
  }
}
layer {
  name: "inception_4a/1x1"
  type: "Convolution"
  bottom: "pool3/3x3_s2"
  top: "inception_4a/1x1"
  param {
    lr_mult: 1
    decay_mult: 1
  }
  param {
    lr_mult: 2
    decay_mult: 0
  }
  convolution_param {
    num_output: 192
    kernel_size: 1
    weight_filler {
      type: "xavier"
      std: 0.03
    }
    bias_filler {
      type: "constant"
      value: 0.2
    }
  }
}
layer {
  name: "inception_4a/relu_1x1"
  type: "ReLU"
  bottom: "inception_4a/1x1"
  top: "inception_4a/1x1"
}
layer {
  name: "inception_4a/3x3_reduce"
  type: "Convolution"
  bottom: "pool3/3x3_s2"
  top: "inception_4a/3x3_reduce"
  param {
    lr_mult: 1
    decay_mult: 1
  }
  param {
    lr_mult: 2
    decay_mult: 0
  }
  convolution_param {
    num_output: 96
    kernel_size: 1
    weight_filler {
      type: "xavier"
      std: 0.09
    }
    bias_filler {
      type: "constant"
      value: 0.2
    }
  }
}
layer {
  name: "inception_4a/relu_3x3_reduce"
  type: "ReLU"
  bottom: "inception_4a/3x3_reduce"
  top: "inception_4a/3x3_reduce"
}
layer {
  name: "inception_4a/3x3"
  type: "Convolution"
  bottom: "inception_4a/3x3_reduce"
  top: "inception_4a/3x3"
  param {
    lr_mult: 1
    decay_mult: 1
  }
  param {
    lr_mult: 2
    decay_mult: 0
  }
  convolution_param {
    num_output: 208
    pad: 1
    kernel_size: 3
    weight_filler {
      type: "xavier"
      std: 0.03
    }
    bias_filler {
      type: "constant"
      value: 0.2
    }
  }
}
layer {
  name: "inception_4a/relu_3x3"
  type: "ReLU"
  bottom: "inception_4a/3x3"
  top: "inception_4a/3x3"
}
layer {
  name: "inception_4a/5x5_reduce"
  type: "Convolution"
  bottom: "pool3/3x3_s2"
  top: "inception_4a/5x5_reduce"
  param {
    lr_mult: 1
    decay_mult: 1
  }
  param {
    lr_mult: 2
    decay_mult: 0
  }
  convolution_param {
    num_output: 16
    kernel_size: 1
    weight_filler {
      type: "xavier"
      std: 0.2
    }
    bias_filler {
      type: "constant"
      value: 0.2
    }
  }
}
layer {
  name: "inception_4a/relu_5x5_reduce"
  type: "ReLU"
  bottom: "inception_4a/5x5_reduce"
  top: "inception_4a/5x5_reduce"
}
layer {
  name: "inception_4a/5x5"
  type: "Convolution"
  bottom: "inception_4a/5x5_reduce"
  top: "inception_4a/5x5"
  param {
    lr_mult: 1
    decay_mult: 1
  }
  param {
    lr_mult: 2
    decay_mult: 0
  }
  convolution_param {
    num_output: 48
    pad: 2
    kernel_size: 5
    weight_filler {
      type: "xavier"
      std: 0.03
    }
    bias_filler {
      type: "constant"
      value: 0.2
    }
  }
}
layer {
  name: "inception_4a/relu_5x5"
  type: "ReLU"
  bottom: "inception_4a/5x5"
  top: "inception_4a/5x5"
}
layer {
  name: "inception_4a/pool"
  type: "Pooling"
  bottom: "pool3/3x3_s2"
  top: "inception_4a/pool"
  pooling_param {
    pool: MAX
    kernel_size: 3
    stride: 1
    pad: 1
  }
}
layer {
  name: "inception_4a/pool_proj"
  type: "Convolution"
  bottom: "inception_4a/pool"
  top: "inception_4a/pool_proj"
  param {
    lr_mult: 1
    decay_mult: 1
  }
  param {
    lr_mult: 2
    decay_mult: 0
  }
  convolution_param {
    num_output: 64
    kernel_size: 1
    weight_filler {
      type: "xavier"
      std: 0.1
    }
    bias_filler {
      type: "constant"
      value: 0.2
    }
  }
}
layer {
  name: "inception_4a/relu_pool_proj"
  type: "ReLU"
  bottom: "inception_4a/pool_proj"
  top: "inception_4a/pool_proj"
}
layer {
  name: "inception_4a/output"
  type: "Concat"
  bottom: "inception_4a/1x1"
  bottom: "inception_4a/3x3"
  bottom: "inception_4a/5x5"
  bottom: "inception_4a/pool_proj"
  top: "inception_4a/output"
}
layer {
  name: "loss1/ave_pool"
  type: "Pooling"
  bottom: "inception_4a/output"
  top: "loss1/ave_pool"
  pooling_param {
    pool: AVE
    kernel_size: 5
    stride: 3
  }
}
layer {
  name: "loss1/conv"
  type: "Convolution"
  bottom: "loss1/ave_pool"
  top: "loss1/conv"
  param {
    lr_mult: 1
    decay_mult: 1
  }
  param {
    lr_mult: 2
    decay_mult: 0
  }
  convolution_param {
    num_output: 128
    kernel_size: 1
    weight_filler {
      type: "xavier"
      std: 0.08
    }
    bias_filler {
      type: "constant"
      value: 0.2
    }
  }
}
layer {
  name: "loss1/relu_conv"
  type: "ReLU"
  bottom: "loss1/conv"
  top: "loss1/conv"
}
layer {
  name: "loss1/fc"
  type: "InnerProduct"
  bottom: "loss1/conv"
  top: "loss1/fc"
  param {
    lr_mult: 1
    decay_mult: 1
  }
  param {
    lr_mult: 2
    decay_mult: 0
  }
  inner_product_param {
    num_output: 1024
    weight_filler {
      type: "xavier"
      std: 0.02
    }
    bias_filler {
      type: "constant"
      value: 0.2
    }
  }
}
layer {
  name: "loss1/relu_fc"
  type: "ReLU"
  bottom: "loss1/fc"
  top: "loss1/fc"
}
layer {
  name: "loss1/drop_fc"
  type: "Dropout"
  bottom: "loss1/fc"
  top: "loss1/fc"
  dropout_param {
    dropout_ratio: 0.7
  }
}
layer {
  name: "loss1/classifier_plantvillage"
  type: "InnerProduct"
  bottom: "loss1/fc"
  top: "loss1/classifier_plantvillage"
  param {
    lr_mult: 1
    decay_mult: 1
  }
  param {
    lr_mult: 2
    decay_mult: 0
  }
  inner_product_param {
    num_output: 38
    weight_filler {
      type: "xavier"
      std: 0.0009765625
    }
    bias_filler {
      type: "constant"
      value: 0
    }
  }
}
layer {
  name: "inception_4b/1x1"
  type: "Convolution"
  bottom: "inception_4a/output"
  top: "inception_4b/1x1"
  param {
    lr_mult: 1
    decay_mult: 1
  }
  param {
    lr_mult: 2
    decay_mult: 0
  }
  convolution_param {
    num_output: 160
    kernel_size: 1
    weight_filler {
      type: "xavier"
      std: 0.03
    }
    bias_filler {
      type: "constant"
      value: 0.2
    }
  }
}
layer {
  name: "inception_4b/relu_1x1"
  type: "ReLU"
  bottom: "inception_4b/1x1"
  top: "inception_4b/1x1"
}
layer {
  name: "inception_4b/3x3_reduce"
  type: "Convolution"
  bottom: "inception_4a/output"
  top: "inception_4b/3x3_reduce"
  param {
    lr_mult: 1
    decay_mult: 1
  }
  param {
    lr_mult: 2
    decay_mult: 0
  }
  convolution_param {
    num_output: 112
    kernel_size: 1
    weight_filler {
      type: "xavier"
      std: 0.09
    }
    bias_filler {
      type: "constant"
      value: 0.2
    }
  }
}
layer {
  name: "inception_4b/relu_3x3_reduce"
  type: "ReLU"
  bottom: "inception_4b/3x3_reduce"
  top: "inception_4b/3x3_reduce"
}
layer {
  name: "inception_4b/3x3"
  type: "Convolution"
  bottom: "inception_4b/3x3_reduce"
  top: "inception_4b/3x3"
  param {
    lr_mult: 1
    decay_mult: 1
  }
  param {
    lr_mult: 2
    decay_mult: 0
  }
  convolution_param {
    num_output: 224
    pad: 1
    kernel_size: 3
    weight_filler {
      type: "xavier"
      std: 0.03
    }
    bias_filler {
      type: "constant"
      value: 0.2
    }
  }
}
layer {
  name: "inception_4b/relu_3x3"
  type: "ReLU"
  bottom: "inception_4b/3x3"
  top: "inception_4b/3x3"
}
layer {
  name: "inception_4b/5x5_reduce"
  type: "Convolution"
  bottom: "inception_4a/output"
  top: "inception_4b/5x5_reduce"
  param {
    lr_mult: 1
    decay_mult: 1
  }
  param {
    lr_mult: 2
    decay_mult: 0
  }
  convolution_param {
    num_output: 24
    kernel_size: 1
    weight_filler {
      type: "xavier"
      std: 0.2
    }
    bias_filler {
      type: "constant"
      value: 0.2
    }
  }
}
layer {
  name: "inception_4b/relu_5x5_reduce"
  type: "ReLU"
  bottom: "inception_4b/5x5_reduce"
  top: "inception_4b/5x5_reduce"
}
layer {
  name: "inception_4b/5x5"
  type: "Convolution"
  bottom: "inception_4b/5x5_reduce"
  top: "inception_4b/5x5"
  param {
    lr_mult: 1
    decay_mult: 1
  }
  param {
    lr_mult: 2
    decay_mult: 0
  }
  convolution_param {
    num_output: 64
    pad: 2
    kernel_size: 5
    weight_filler {
      type: "xavier"
      std: 0.03
    }
    bias_filler {
      type: "constant"
      value: 0.2
    }
  }
}
layer {
  name: "inception_4b/relu_5x5"
  type: "ReLU"
  bottom: "inception_4b/5x5"
  top: "inception_4b/5x5"
}
layer {
  name: "inception_4b/pool"
  type: "Pooling"
  bottom: "inception_4a/output"
  top: "inception_4b/pool"
  pooling_param {
    pool: MAX
    kernel_size: 3
    stride: 1
    pad: 1
  }
}
layer {
  name: "inception_4b/pool_proj"
  type: "Convolution"
  bottom: "inception_4b/pool"
  top: "inception_4b/pool_proj"
  param {
    lr_mult: 1
    decay_mult: 1
  }
  param {
    lr_mult: 2
    decay_mult: 0
  }
  convolution_param {
    num_output: 64
    kernel_size: 1
    weight_filler {
      type: "xavier"
      std: 0.1
    }
    bias_filler {
      type: "constant"
      value: 0.2
    }
  }
}
layer {
  name: "inception_4b/relu_pool_proj"
  type: "ReLU"
  bottom: "inception_4b/pool_proj"
  top: "inception_4b/pool_proj"
}
layer {
  name: "inception_4b/output"
  type: "Concat"
  bottom: "inception_4b/1x1"
  bottom: "inception_4b/3x3"
  bottom: "inception_4b/5x5"
  bottom: "inception_4b/pool_proj"
  top: "inception_4b/output"
}
layer {
  name: "inception_4c/1x1"
  type: "Convolution"
  bottom: "inception_4b/output"
  top: "inception_4c/1x1"
  param {
    lr_mult: 1
    decay_mult: 1
  }
  param {
    lr_mult: 2
    decay_mult: 0
  }
  convolution_param {
    num_output: 128
    kernel_size: 1
    weight_filler {
      type: "xavier"
      std: 0.03
    }
    bias_filler {
      type: "constant"
      value: 0.2
    }
  }
}
layer {
  name: "inception_4c/relu_1x1"
  type: "ReLU"
  bottom: "inception_4c/1x1"
  top: "inception_4c/1x1"
}
layer {
  name: "inception_4c/3x3_reduce"
  type: "Convolution"
  bottom: "inception_4b/output"
  top: "inception_4c/3x3_reduce"
  param {
    lr_mult: 1
    decay_mult: 1
  }
  param {
    lr_mult: 2
    decay_mult: 0
  }
  convolution_param {
    num_output: 128
    kernel_size: 1
    weight_filler {
      type: "xavier"
      std: 0.09
    }
    bias_filler {
      type: "constant"
      value: 0.2
    }
  }
}
layer {
  name: "inception_4c/relu_3x3_reduce"
  type: "ReLU"
  bottom: "inception_4c/3x3_reduce"
  top: "inception_4c/3x3_reduce"
}
layer {
  name: "inception_4c/3x3"
  type: "Convolution"
  bottom: "inception_4c/3x3_reduce"
  top: "inception_4c/3x3"
  param {
    lr_mult: 1
    decay_mult: 1
  }
  param {
    lr_mult: 2
    decay_mult: 0
  }
  convolution_param {
    num_output: 256
    pad: 1
    kernel_size: 3
    weight_filler {
      type: "xavier"
      std: 0.03
    }
    bias_filler {
      type: "constant"
      value: 0.2
    }
  }
}
layer {
  name: "inception_4c/relu_3x3"
  type: "ReLU"
  bottom: "inception_4c/3x3"
  top: "inception_4c/3x3"
}
layer {
  name: "inception_4c/5x5_reduce"
  type: "Convolution"
  bottom: "inception_4b/output"
  top: "inception_4c/5x5_reduce"
  param {
    lr_mult: 1
    decay_mult: 1
  }
  param {
    lr_mult: 2
    decay_mult: 0
  }
  convolution_param {
    num_output: 24
    kernel_size: 1
    weight_filler {
      type: "xavier"
      std: 0.2
    }
    bias_filler {
      type: "constant"
      value: 0.2
    }
  }
}
layer {
  name: "inception_4c/relu_5x5_reduce"
  type: "ReLU"
  bottom: "inception_4c/5x5_reduce"
  top: "inception_4c/5x5_reduce"
}
layer {
  name: "inception_4c/5x5"
  type: "Convolution"
  bottom: "inception_4c/5x5_reduce"
  top: "inception_4c/5x5"
  param {
    lr_mult: 1
    decay_mult: 1
  }
  param {
    lr_mult: 2
    decay_mult: 0
  }
  convolution_param {
    num_output: 64
    pad: 2
    kernel_size: 5
    weight_filler {
      type: "xavier"
      std: 0.03
    }
    bias_filler {
      type: "constant"
      value: 0.2
    }
  }
}
layer {
  name: "inception_4c/relu_5x5"
  type: "ReLU"
  bottom: "inception_4c/5x5"
  top: "inception_4c/5x5"
}
layer {
  name: "inception_4c/pool"
  type: "Pooling"
  bottom: "inception_4b/output"
  top: "inception_4c/pool"
  pooling_param {
    pool: MAX
    kernel_size: 3
    stride: 1
    pad: 1
  }
}
layer {
  name: "inception_4c/pool_proj"
  type: "Convolution"
  bottom: "inception_4c/pool"
  top: "inception_4c/pool_proj"
  param {
    lr_mult: 1
    decay_mult: 1
  }
  param {
    lr_mult: 2
    decay_mult: 0
  }
  convolution_param {
    num_output: 64
    kernel_size: 1
    weight_filler {
      type: "xavier"
      std: 0.1
    }
    bias_filler {
      type: "constant"
      value: 0.2
    }
  }
}
layer {
  name: "inception_4c/relu_pool_proj"
  type: "ReLU"
  bottom: "inception_4c/pool_proj"
  top: "inception_4c/pool_proj"
}
layer {
  name: "inception_4c/output"
  type: "Concat"
  bottom: "inception_4c/1x1"
  bottom: "inception_4c/3x3"
  bottom: "inception_4c/5x5"
  bottom: "inception_4c/pool_proj"
  top: "inception_4c/output"
}
layer {
  name: "inception_4d/1x1"
  type: "Convolution"
  bottom: "inception_4c/output"
  top: "inception_4d/1x1"
  param {
    lr_mult: 1
    decay_mult: 1
  }
  param {
    lr_mult: 2
    decay_mult: 0
  }
  convolution_param {
    num_output: 112
    kernel_size: 1
    weight_filler {
      type: "xavier"
      std: 0.03
    }
    bias_filler {
      type: "constant"
      value: 0.2
    }
  }
}
layer {
  name: "inception_4d/relu_1x1"
  type: "ReLU"
  bottom: "inception_4d/1x1"
  top: "inception_4d/1x1"
}
layer {
  name: "inception_4d/3x3_reduce"
  type: "Convolution"
  bottom: "inception_4c/output"
  top: "inception_4d/3x3_reduce"
  param {
    lr_mult: 1
    decay_mult: 1
  }
  param {
    lr_mult: 2
    decay_mult: 0
  }
  convolution_param {
    num_output: 144
    kernel_size: 1
    weight_filler {
      type: "xavier"
      std: 0.09
    }
    bias_filler {
      type: "constant"
      value: 0.2
    }
  }
}
layer {
  name: "inception_4d/relu_3x3_reduce"
  type: "ReLU"
  bottom: "inception_4d/3x3_reduce"
  top: "inception_4d/3x3_reduce"
}
layer {
  name: "inception_4d/3x3"
  type: "Convolution"
  bottom: "inception_4d/3x3_reduce"
  top: "inception_4d/3x3"
  param {
    lr_mult: 1
    decay_mult: 1
  }
  param {
    lr_mult: 2
    decay_mult: 0
  }
  convolution_param {
    num_output: 288
    pad: 1
    kernel_size: 3
    weight_filler {
      type: "xavier"
      std: 0.03
    }
    bias_filler {
      type: "constant"
      value: 0.2
    }
  }
}
layer {
  name: "inception_4d/relu_3x3"
  type: "ReLU"
  bottom: "inception_4d/3x3"
  top: "inception_4d/3x3"
}
layer {
  name: "inception_4d/5x5_reduce"
  type: "Convolution"
  bottom: "inception_4c/output"
  top: "inception_4d/5x5_reduce"
  param {
    lr_mult: 1
    decay_mult: 1
  }
  param {
    lr_mult: 2
    decay_mult: 0
  }
  convolution_param {
    num_output: 32
    kernel_size: 1
    weight_filler {
      type: "xavier"
      std: 0.2
    }
    bias_filler {
      type: "constant"
      value: 0.2
    }
  }
}
layer {
  name: "inception_4d/relu_5x5_reduce"
  type: "ReLU"
  bottom: "inception_4d/5x5_reduce"
  top: "inception_4d/5x5_reduce"
}
layer {
  name: "inception_4d/5x5"
  type: "Convolution"
  bottom: "inception_4d/5x5_reduce"
  top: "inception_4d/5x5"
  param {
    lr_mult: 1
    decay_mult: 1
  }
  param {
    lr_mult: 2
    decay_mult: 0
  }
  convolution_param {
    num_output: 64
    pad: 2
    kernel_size: 5
    weight_filler {
      type: "xavier"
      std: 0.03
    }
    bias_filler {
      type: "constant"
      value: 0.2
    }
  }
}
layer {
  name: "inception_4d/relu_5x5"
  type: "ReLU"
  bottom: "inception_4d/5x5"
  top: "inception_4d/5x5"
}
layer {
  name: "inception_4d/pool"
  type: "Pooling"
  bottom: "inception_4c/output"
  top: "inception_4d/pool"
  pooling_param {
    pool: MAX
    kernel_size: 3
    stride: 1
    pad: 1
  }
}
layer {
  name: "inception_4d/pool_proj"
  type: "Convolution"
  bottom: "inception_4d/pool"
  top: "inception_4d/pool_proj"
  param {
    lr_mult: 1
    decay_mult: 1
  }
  param {
    lr_mult: 2
    decay_mult: 0
  }
  convolution_param {
    num_output: 64
    kernel_size: 1
    weight_filler {
      type: "xavier"
      std: 0.1
    }
    bias_filler {
      type: "constant"
      value: 0.2
    }
  }
}
layer {
  name: "inception_4d/relu_pool_proj"
  type: "ReLU"
  bottom: "inception_4d/pool_proj"
  top: "inception_4d/pool_proj"
}
layer {
  name: "inception_4d/output"
  type: "Concat"
  bottom: "inception_4d/1x1"
  bottom: "inception_4d/3x3"
  bottom: "inception_4d/5x5"
  bottom: "inception_4d/pool_proj"
  top: "inception_4d/output"
}
layer {
  name: "loss2/ave_pool"
  type: "Pooling"
  bottom: "inception_4d/output"
  top: "loss2/ave_pool"
  pooling_param {
    pool: AVE
    kernel_size: 5
    stride: 3
  }
}
layer {
  name: "loss2/conv"
  type: "Convolution"
  bottom: "loss2/ave_pool"
  top: "loss2/conv"
  param {
    lr_mult: 1
    decay_mult: 1
  }
  param {
    lr_mult: 2
    decay_mult: 0
  }
  convolution_param {
    num_output: 128
    kernel_size: 1
    weight_filler {
      type: "xavier"
      std: 0.08
    }
    bias_filler {
      type: "constant"
      value: 0.2
    }
  }
}
layer {
  name: "loss2/relu_conv"
  type: "ReLU"
  bottom: "loss2/conv"
  top: "loss2/conv"
}
layer {
  name: "loss2/fc"
  type: "InnerProduct"
  bottom: "loss2/conv"
  top: "loss2/fc"
  param {
    lr_mult: 1
    decay_mult: 1
  }
  param {
    lr_mult: 2
    decay_mult: 0
  }
  inner_product_param {
    num_output: 1024
    weight_filler {
      type: "xavier"
      std: 0.02
    }
    bias_filler {
      type: "constant"
      value: 0.2
    }
  }
}
layer {
  name: "loss2/relu_fc"
  type: "ReLU"
  bottom: "loss2/fc"
  top: "loss2/fc"
}
layer {
  name: "loss2/drop_fc"
  type: "Dropout"
  bottom: "loss2/fc"
  top: "loss2/fc"
  dropout_param {
    dropout_ratio: 0.7
  }
}
layer {
  name: "loss2/classifier_plantvillage"
  type: "InnerProduct"
  bottom: "loss2/fc"
  top: "loss2/classifier_plantvillage"
  param {
    lr_mult: 1
    decay_mult: 1
  }
  param {
    lr_mult: 2
    decay_mult: 0
  }
  inner_product_param {
    num_output: 38
    weight_filler {
      type: "xavier"
      std: 0.0009765625
    }
    bias_filler {
      type: "constant"
      value: 0
    }
  }
}
layer {
  name: "inception_4e/1x1"
  type: "Convolution"
  bottom: "inception_4d/output"
  top: "inception_4e/1x1"
  param {
    lr_mult: 1
    decay_mult: 1
  }
  param {
    lr_mult: 2
    decay_mult: 0
  }
  convolution_param {
    num_output: 256
    kernel_size: 1
    weight_filler {
      type: "xavier"
      std: 0.03
    }
    bias_filler {
      type: "constant"
      value: 0.2
    }
  }
}
layer {
  name: "inception_4e/relu_1x1"
  type: "ReLU"
  bottom: "inception_4e/1x1"
  top: "inception_4e/1x1"
}
layer {
  name: "inception_4e/3x3_reduce"
  type: "Convolution"
  bottom: "inception_4d/output"
  top: "inception_4e/3x3_reduce"
  param {
    lr_mult: 1
    decay_mult: 1
  }
  param {
    lr_mult: 2
    decay_mult: 0
  }
  convolution_param {
    num_output: 160
    kernel_size: 1
    weight_filler {
      type: "xavier"
      std: 0.09
    }
    bias_filler {
      type: "constant"
      value: 0.2
    }
  }
}
layer {
  name: "inception_4e/relu_3x3_reduce"
  type: "ReLU"
  bottom: "inception_4e/3x3_reduce"
  top: "inception_4e/3x3_reduce"
}
layer {
  name: "inception_4e/3x3"
  type: "Convolution"
  bottom: "inception_4e/3x3_reduce"
  top: "inception_4e/3x3"
  param {
    lr_mult: 1
    decay_mult: 1
  }
  param {
    lr_mult: 2
    decay_mult: 0
  }
  convolution_param {
    num_output: 320
    pad: 1
    kernel_size: 3
    weight_filler {
      type: "xavier"
      std: 0.03
    }
    bias_filler {
      type: "constant"
      value: 0.2
    }
  }
}
layer {
  name: "inception_4e/relu_3x3"
  type: "ReLU"
  bottom: "inception_4e/3x3"
  top: "inception_4e/3x3"
}
layer {
  name: "inception_4e/5x5_reduce"
  type: "Convolution"
  bottom: "inception_4d/output"
  top: "inception_4e/5x5_reduce"
  param {
    lr_mult: 1
    decay_mult: 1
  }
  param {
    lr_mult: 2
    decay_mult: 0
  }
  convolution_param {
    num_output: 32
    kernel_size: 1
    weight_filler {
      type: "xavier"
      std: 0.2
    }
    bias_filler {
      type: "constant"
      value: 0.2
    }
  }
}
layer {
  name: "inception_4e/relu_5x5_reduce"
  type: "ReLU"
  bottom: "inception_4e/5x5_reduce"
  top: "inception_4e/5x5_reduce"
}
layer {
  name: "inception_4e/5x5"
  type: "Convolution"
  bottom: "inception_4e/5x5_reduce"
  top: "inception_4e/5x5"
  p
I0403 19:41:09.690618  9549 layer_factory.hpp:77] Creating layer data
I0403 19:41:09.691223  9549 net.cpp:91] Creating Layer data
I0403 19:41:09.691254  9549 net.cpp:399] data -> data
I0403 19:41:09.691308  9549 net.cpp:399] data -> label
I0403 19:41:09.691345  9549 data_transformer.cpp:25] Loading mean file from: /home/mohanty/data/final_dataset/lmdb/color-50-50/mean.binaryproto
I0403 19:41:09.692392  9553 db_lmdb.cpp:38] Opened lmdb /home/mohanty/data/final_dataset/lmdb/color-50-50/test_db
I0403 19:41:09.704959  9549 data_layer.cpp:41] output data size: 24,3,224,224
I0403 19:41:09.732419  9549 net.cpp:141] Setting up data
I0403 19:41:09.732522  9549 net.cpp:148] Top shape: 24 3 224 224 (3612672)
I0403 19:41:09.732545  9549 net.cpp:148] Top shape: 24 (24)
I0403 19:41:09.732560  9549 net.cpp:156] Memory required for data: 14450784
I0403 19:41:09.732588  9549 layer_factory.hpp:77] Creating layer label_data_1_split
I0403 19:41:09.732614  9549 net.cpp:91] Creating Layer label_data_1_split
I0403 19:41:09.732631  9549 net.cpp:425] label_data_1_split <- label
I0403 19:41:09.732662  9549 net.cpp:399] label_data_1_split -> label_data_1_split_0
I0403 19:41:09.732691  9549 net.cpp:399] label_data_1_split -> label_data_1_split_1
I0403 19:41:09.732712  9549 net.cpp:399] label_data_1_split -> label_data_1_split_2
I0403 19:41:09.732733  9549 net.cpp:399] label_data_1_split -> label_data_1_split_3
I0403 19:41:09.732753  9549 net.cpp:399] label_data_1_split -> label_data_1_split_4
I0403 19:41:09.732774  9549 net.cpp:399] label_data_1_split -> label_data_1_split_5
I0403 19:41:09.732794  9549 net.cpp:399] label_data_1_split -> label_data_1_split_6
I0403 19:41:09.732813  9549 net.cpp:399] label_data_1_split -> label_data_1_split_7
I0403 19:41:09.732833  9549 net.cpp:399] label_data_1_split -> label_data_1_split_8
I0403 19:41:09.732853  9549 net.cpp:399] label_data_1_split -> label_data_1_split_9
I0403 19:41:09.732969  9549 net.cpp:141] Setting up label_data_1_split
I0403 19:41:09.732991  9549 net.cpp:148] Top shape: 24 (24)
I0403 19:41:09.733009  9549 net.cpp:148] Top shape: 24 (24)
I0403 19:41:09.733026  9549 net.cpp:148] Top shape: 24 (24)
I0403 19:41:09.733042  9549 net.cpp:148] Top shape: 24 (24)
I0403 19:41:09.733057  9549 net.cpp:148] Top shape: 24 (24)
I0403 19:41:09.733073  9549 net.cpp:148] Top shape: 24 (24)
I0403 19:41:09.733089  9549 net.cpp:148] Top shape: 24 (24)
I0403 19:41:09.733105  9549 net.cpp:148] Top shape: 24 (24)
I0403 19:41:09.733121  9549 net.cpp:148] Top shape: 24 (24)
I0403 19:41:09.733139  9549 net.cpp:148] Top shape: 24 (24)
I0403 19:41:09.733186  9549 net.cpp:156] Memory required for data: 14451744
I0403 19:41:09.733204  9549 layer_factory.hpp:77] Creating layer conv1/7x7_s2
I0403 19:41:09.733237  9549 net.cpp:91] Creating Layer conv1/7x7_s2
I0403 19:41:09.733255  9549 net.cpp:425] conv1/7x7_s2 <- data
I0403 19:41:09.733278  9549 net.cpp:399] conv1/7x7_s2 -> conv1/7x7_s2
I0403 19:41:11.963618  9549 net.cpp:141] Setting up conv1/7x7_s2
I0403 19:41:11.963718  9549 net.cpp:148] Top shape: 24 64 112 112 (19267584)
I0403 19:41:11.963738  9549 net.cpp:156] Memory required for data: 91522080
I0403 19:41:11.963771  9549 layer_factory.hpp:77] Creating layer conv1/relu_7x7
I0403 19:41:11.963800  9549 net.cpp:91] Creating Layer conv1/relu_7x7
I0403 19:41:11.963819  9549 net.cpp:425] conv1/relu_7x7 <- conv1/7x7_s2
I0403 19:41:11.963845  9549 net.cpp:386] conv1/relu_7x7 -> conv1/7x7_s2 (in-place)
I0403 19:41:11.964133  9549 net.cpp:141] Setting up conv1/relu_7x7
I0403 19:41:11.964161  9549 net.cpp:148] Top shape: 24 64 112 112 (19267584)
I0403 19:41:11.964177  9549 net.cpp:156] Memory required for data: 168592416
I0403 19:41:11.964195  9549 layer_factory.hpp:77] Creating layer pool1/3x3_s2
I0403 19:41:11.964221  9549 net.cpp:91] Creating Layer pool1/3x3_s2
I0403 19:41:11.964239  9549 net.cpp:425] pool1/3x3_s2 <- conv1/7x7_s2
I0403 19:41:11.964262  9549 net.cpp:399] pool1/3x3_s2 -> pool1/3x3_s2
I0403 19:41:11.964354  9549 net.cpp:141] Setting up pool1/3x3_s2
I0403 19:41:11.964380  9549 net.cpp:148] Top shape: 24 64 56 56 (4816896)
I0403 19:41:11.964395  9549 net.cpp:156] Memory required for data: 187860000
I0403 19:41:11.964413  9549 layer_factory.hpp:77] Creating layer pool1/norm1
I0403 19:41:11.964442  9549 net.cpp:91] Creating Layer pool1/norm1
I0403 19:41:11.964462  9549 net.cpp:425] pool1/norm1 <- pool1/3x3_s2
I0403 19:41:11.964480  9549 net.cpp:399] pool1/norm1 -> pool1/norm1
I0403 19:41:11.964792  9549 net.cpp:141] Setting up pool1/norm1
I0403 19:41:11.964823  9549 net.cpp:148] Top shape: 24 64 56 56 (4816896)
I0403 19:41:11.964840  9549 net.cpp:156] Memory required for data: 207127584
I0403 19:41:11.964856  9549 layer_factory.hpp:77] Creating layer conv2/3x3_reduce
I0403 19:41:11.964884  9549 net.cpp:91] Creating Layer conv2/3x3_reduce
I0403 19:41:11.964902  9549 net.cpp:425] conv2/3x3_reduce <- pool1/norm1
I0403 19:41:11.964926  9549 net.cpp:399] conv2/3x3_reduce -> conv2/3x3_reduce
I0403 19:41:11.966413  9549 net.cpp:141] Setting up conv2/3x3_reduce
I0403 19:41:11.966446  9549 net.cpp:148] Top shape: 24 64 56 56 (4816896)
I0403 19:41:11.966464  9549 net.cpp:156] Memory required for data: 226395168
I0403 19:41:11.966486  9549 layer_factory.hpp:77] Creating layer conv2/relu_3x3_reduce
I0403 19:41:11.966506  9549 net.cpp:91] Creating Layer conv2/relu_3x3_reduce
I0403 19:41:11.966522  9549 net.cpp:425] conv2/relu_3x3_reduce <- conv2/3x3_reduce
I0403 19:41:11.966543  9549 net.cpp:386] conv2/relu_3x3_reduce -> conv2/3x3_reduce (in-place)
I0403 19:41:11.966820  9549 net.cpp:141] Setting up conv2/relu_3x3_reduce
I0403 19:41:11.966855  9549 net.cpp:148] Top shape: 24 64 56 56 (4816896)
I0403 19:41:11.966871  9549 net.cpp:156] Memory required for data: 245662752
I0403 19:41:11.966887  9549 layer_factory.hpp:77] Creating layer conv2/3x3
I0403 19:41:11.966914  9549 net.cpp:91] Creating Layer conv2/3x3
I0403 19:41:11.966933  9549 net.cpp:425] conv2/3x3 <- conv2/3x3_reduce
I0403 19:41:11.966958  9549 net.cpp:399] conv2/3x3 -> conv2/3x3
I0403 19:41:11.969535  9549 net.cpp:141] Setting up conv2/3x3
I0403 19:41:11.969569  9549 net.cpp:148] Top shape: 24 192 56 56 (14450688)
I0403 19:41:11.969588  9549 net.cpp:156] Memory required for data: 303465504
I0403 19:41:11.969611  9549 layer_factory.hpp:77] Creating layer conv2/relu_3x3
I0403 19:41:11.969631  9549 net.cpp:91] Creating Layer conv2/relu_3x3
I0403 19:41:11.969647  9549 net.cpp:425] conv2/relu_3x3 <- conv2/3x3
I0403 19:41:11.969667  9549 net.cpp:386] conv2/relu_3x3 -> conv2/3x3 (in-place)
I0403 19:41:11.969852  9549 net.cpp:141] Setting up conv2/relu_3x3
I0403 19:41:11.969879  9549 net.cpp:148] Top shape: 24 192 56 56 (14450688)
I0403 19:41:11.969929  9549 net.cpp:156] Memory required for data: 361268256
I0403 19:41:11.969946  9549 layer_factory.hpp:77] Creating layer conv2/norm2
I0403 19:41:11.969969  9549 net.cpp:91] Creating Layer conv2/norm2
I0403 19:41:11.969986  9549 net.cpp:425] conv2/norm2 <- conv2/3x3
I0403 19:41:11.970005  9549 net.cpp:399] conv2/norm2 -> conv2/norm2
I0403 19:41:11.970335  9549 net.cpp:141] Setting up conv2/norm2
I0403 19:41:11.970366  9549 net.cpp:148] Top shape: 24 192 56 56 (14450688)
I0403 19:41:11.970383  9549 net.cpp:156] Memory required for data: 419071008
I0403 19:41:11.970399  9549 layer_factory.hpp:77] Creating layer pool2/3x3_s2
I0403 19:41:11.970418  9549 net.cpp:91] Creating Layer pool2/3x3_s2
I0403 19:41:11.970437  9549 net.cpp:425] pool2/3x3_s2 <- conv2/norm2
I0403 19:41:11.970454  9549 net.cpp:399] pool2/3x3_s2 -> pool2/3x3_s2
I0403 19:41:11.970511  9549 net.cpp:141] Setting up pool2/3x3_s2
I0403 19:41:11.970535  9549 net.cpp:148] Top shape: 24 192 28 28 (3612672)
I0403 19:41:11.970551  9549 net.cpp:156] Memory required for data: 433521696
I0403 19:41:11.970567  9549 layer_factory.hpp:77] Creating layer pool2/3x3_s2_pool2/3x3_s2_0_split
I0403 19:41:11.970585  9549 net.cpp:91] Creating Layer pool2/3x3_s2_pool2/3x3_s2_0_split
I0403 19:41:11.970602  9549 net.cpp:425] pool2/3x3_s2_pool2/3x3_s2_0_split <- pool2/3x3_s2
I0403 19:41:11.970623  9549 net.cpp:399] pool2/3x3_s2_pool2/3x3_s2_0_split -> pool2/3x3_s2_pool2/3x3_s2_0_split_0
I0403 19:41:11.970643  9549 net.cpp:399] pool2/3x3_s2_pool2/3x3_s2_0_split -> pool2/3x3_s2_pool2/3x3_s2_0_split_1
I0403 19:41:11.970665  9549 net.cpp:399] pool2/3x3_s2_pool2/3x3_s2_0_split -> pool2/3x3_s2_pool2/3x3_s2_0_split_2
I0403 19:41:11.970685  9549 net.cpp:399] pool2/3x3_s2_pool2/3x3_s2_0_split -> pool2/3x3_s2_pool2/3x3_s2_0_split_3
I0403 19:41:11.970763  9549 net.cpp:141] Setting up pool2/3x3_s2_pool2/3x3_s2_0_split
I0403 19:41:11.970788  9549 net.cpp:148] Top shape: 24 192 28 28 (3612672)
I0403 19:41:11.970805  9549 net.cpp:148] Top shape: 24 192 28 28 (3612672)
I0403 19:41:11.970823  9549 net.cpp:148] Top shape: 24 192 28 28 (3612672)
I0403 19:41:11.970839  9549 net.cpp:148] Top shape: 24 192 28 28 (3612672)
I0403 19:41:11.970854  9549 net.cpp:156] Memory required for data: 491324448
I0403 19:41:11.970870  9549 layer_factory.hpp:77] Creating layer inception_3a/1x1
I0403 19:41:11.970893  9549 net.cpp:91] Creating Layer inception_3a/1x1
I0403 19:41:11.970911  9549 net.cpp:425] inception_3a/1x1 <- pool2/3x3_s2_pool2/3x3_s2_0_split_0
I0403 19:41:11.970933  9549 net.cpp:399] inception_3a/1x1 -> inception_3a/1x1
I0403 19:41:11.972568  9549 net.cpp:141] Setting up inception_3a/1x1
I0403 19:41:11.972600  9549 net.cpp:148] Top shape: 24 64 28 28 (1204224)
I0403 19:41:11.972618  9549 net.cpp:156] Memory required for data: 496141344
I0403 19:41:11.972637  9549 layer_factory.hpp:77] Creating layer inception_3a/relu_1x1
I0403 19:41:11.972656  9549 net.cpp:91] Creating Layer inception_3a/relu_1x1
I0403 19:41:11.972674  9549 net.cpp:425] inception_3a/relu_1x1 <- inception_3a/1x1
I0403 19:41:11.972695  9549 net.cpp:386] inception_3a/relu_1x1 -> inception_3a/1x1 (in-place)
I0403 19:41:11.972880  9549 net.cpp:141] Setting up inception_3a/relu_1x1
I0403 19:41:11.972906  9549 net.cpp:148] Top shape: 24 64 28 28 (1204224)
I0403 19:41:11.972923  9549 net.cpp:156] Memory required for data: 500958240
I0403 19:41:11.972939  9549 layer_factory.hpp:77] Creating layer inception_3a/3x3_reduce
I0403 19:41:11.972967  9549 net.cpp:91] Creating Layer inception_3a/3x3_reduce
I0403 19:41:11.972985  9549 net.cpp:425] inception_3a/3x3_reduce <- pool2/3x3_s2_pool2/3x3_s2_0_split_1
I0403 19:41:11.973008  9549 net.cpp:399] inception_3a/3x3_reduce -> inception_3a/3x3_reduce
I0403 19:41:11.974831  9549 net.cpp:141] Setting up inception_3a/3x3_reduce
I0403 19:41:11.974865  9549 net.cpp:148] Top shape: 24 96 28 28 (1806336)
I0403 19:41:11.974884  9549 net.cpp:156] Memory required for data: 508183584
I0403 19:41:11.974906  9549 layer_factory.hpp:77] Creating layer inception_3a/relu_3x3_reduce
I0403 19:41:11.974946  9549 net.cpp:91] Creating Layer inception_3a/relu_3x3_reduce
I0403 19:41:11.974966  9549 net.cpp:425] inception_3a/relu_3x3_reduce <- inception_3a/3x3_reduce
I0403 19:41:11.974987  9549 net.cpp:386] inception_3a/relu_3x3_reduce -> inception_3a/3x3_reduce (in-place)
I0403 19:41:11.975178  9549 net.cpp:141] Setting up inception_3a/relu_3x3_reduce
I0403 19:41:11.975208  9549 net.cpp:148] Top shape: 24 96 28 28 (1806336)
I0403 19:41:11.975225  9549 net.cpp:156] Memory required for data: 515408928
I0403 19:41:11.975241  9549 layer_factory.hpp:77] Creating layer inception_3a/3x3
I0403 19:41:11.975265  9549 net.cpp:91] Creating Layer inception_3a/3x3
I0403 19:41:11.975288  9549 net.cpp:425] inception_3a/3x3 <- inception_3a/3x3_reduce
I0403 19:41:11.975308  9549 net.cpp:399] inception_3a/3x3 -> inception_3a/3x3
I0403 19:41:11.977043  9549 net.cpp:141] Setting up inception_3a/3x3
I0403 19:41:11.977077  9549 net.cpp:148] Top shape: 24 128 28 28 (2408448)
I0403 19:41:11.977095  9549 net.cpp:156] Memory required for data: 525042720
I0403 19:41:11.977115  9549 layer_factory.hpp:77] Creating layer inception_3a/relu_3x3
I0403 19:41:11.977134  9549 net.cpp:91] Creating Layer inception_3a/relu_3x3
I0403 19:41:11.977150  9549 net.cpp:425] inception_3a/relu_3x3 <- inception_3a/3x3
I0403 19:41:11.977171  9549 net.cpp:386] inception_3a/relu_3x3 -> inception_3a/3x3 (in-place)
I0403 19:41:11.977473  9549 net.cpp:141] Setting up inception_3a/relu_3x3
I0403 19:41:11.977502  9549 net.cpp:148] Top shape: 24 128 28 28 (2408448)
I0403 19:41:11.977519  9549 net.cpp:156] Memory required for data: 534676512
I0403 19:41:11.977535  9549 layer_factory.hpp:77] Creating layer inception_3a/5x5_reduce
I0403 19:41:11.977558  9549 net.cpp:91] Creating Layer inception_3a/5x5_reduce
I0403 19:41:11.977577  9549 net.cpp:425] inception_3a/5x5_reduce <- pool2/3x3_s2_pool2/3x3_s2_0_split_2
I0403 19:41:11.977599  9549 net.cpp:399] inception_3a/5x5_reduce -> inception_3a/5x5_reduce
I0403 19:41:11.978610  9549 net.cpp:141] Setting up inception_3a/5x5_reduce
I0403 19:41:11.978638  9549 net.cpp:148] Top shape: 24 16 28 28 (301056)
I0403 19:41:11.978655  9549 net.cpp:156] Memory required for data: 535880736
I0403 19:41:11.978674  9549 layer_factory.hpp:77] Creating layer inception_3a/relu_5x5_reduce
I0403 19:41:11.978696  9549 net.cpp:91] Creating Layer inception_3a/relu_5x5_reduce
I0403 19:41:11.978714  9549 net.cpp:425] inception_3a/relu_5x5_reduce <- inception_3a/5x5_reduce
I0403 19:41:11.978732  9549 net.cpp:386] inception_3a/relu_5x5_reduce -> inception_3a/5x5_reduce (in-place)
I0403 19:41:11.979033  9549 net.cpp:141] Setting up inception_3a/relu_5x5_reduce
I0403 19:41:11.979061  9549 net.cpp:148] Top shape: 24 16 28 28 (301056)
I0403 19:41:11.979079  9549 net.cpp:156] Memory required for data: 537084960
I0403 19:41:11.979095  9549 layer_factory.hpp:77] Creating layer inception_3a/5x5
I0403 19:41:11.979120  9549 net.cpp:91] Creating Layer inception_3a/5x5
I0403 19:41:11.979140  9549 net.cpp:425] inception_3a/5x5 <- inception_3a/5x5_reduce
I0403 19:41:11.979161  9549 net.cpp:399] inception_3a/5x5 -> inception_3a/5x5
I0403 19:41:11.980224  9549 net.cpp:141] Setting up inception_3a/5x5
I0403 19:41:11.980255  9549 net.cpp:148] Top shape: 24 32 28 28 (602112)
I0403 19:41:11.980278  9549 net.cpp:156] Memory required for data: 539493408
I0403 19:41:11.980298  9549 layer_factory.hpp:77] Creating layer inception_3a/relu_5x5
I0403 19:41:11.980319  9549 net.cpp:91] Creating Layer inception_3a/relu_5x5
I0403 19:41:11.980336  9549 net.cpp:425] inception_3a/relu_5x5 <- inception_3a/5x5
I0403 19:41:11.980357  9549 net.cpp:386] inception_3a/relu_5x5 -> inception_3a/5x5 (in-place)
I0403 19:41:11.980542  9549 net.cpp:141] Setting up inception_3a/relu_5x5
I0403 19:41:11.980569  9549 net.cpp:148] Top shape: 24 32 28 28 (602112)
I0403 19:41:11.980586  9549 net.cpp:156] Memory required for data: 541901856
I0403 19:41:11.980602  9549 layer_factory.hpp:77] Creating layer inception_3a/pool
I0403 19:41:11.980619  9549 net.cpp:91] Creating Layer inception_3a/pool
I0403 19:41:11.980636  9549 net.cpp:425] inception_3a/pool <- pool2/3x3_s2_pool2/3x3_s2_0_split_3
I0403 19:41:11.980676  9549 net.cpp:399] inception_3a/pool -> inception_3a/pool
I0403 19:41:11.980744  9549 net.cpp:141] Setting up inception_3a/pool
I0403 19:41:11.980770  9549 net.cpp:148] Top shape: 24 192 28 28 (3612672)
I0403 19:41:11.980789  9549 net.cpp:156] Memory required for data: 556352544
I0403 19:41:11.980805  9549 layer_factory.hpp:77] Creating layer inception_3a/pool_proj
I0403 19:41:11.980830  9549 net.cpp:91] Creating Layer inception_3a/pool_proj
I0403 19:41:11.980849  9549 net.cpp:425] inception_3a/pool_proj <- inception_3a/pool
I0403 19:41:11.980870  9549 net.cpp:399] inception_3a/pool_proj -> inception_3a/pool_proj
I0403 19:41:11.981890  9549 net.cpp:141] Setting up inception_3a/pool_proj
I0403 19:41:11.981920  9549 net.cpp:148] Top shape: 24 32 28 28 (602112)
I0403 19:41:11.981937  9549 net.cpp:156] Memory required for data: 558760992
I0403 19:41:11.981964  9549 layer_factory.hpp:77] Creating layer inception_3a/relu_pool_proj
I0403 19:41:11.981988  9549 net.cpp:91] Creating Layer inception_3a/relu_pool_proj
I0403 19:41:11.982007  9549 net.cpp:425] inception_3a/relu_pool_proj <- inception_3a/pool_proj
I0403 19:41:11.982024  9549 net.cpp:386] inception_3a/relu_pool_proj -> inception_3a/pool_proj (in-place)
I0403 19:41:11.982313  9549 net.cpp:141] Setting up inception_3a/relu_pool_proj
I0403 19:41:11.982344  9549 net.cpp:148] Top shape: 24 32 28 28 (602112)
I0403 19:41:11.982362  9549 net.cpp:156] Memory required for data: 561169440
I0403 19:41:11.982378  9549 layer_factory.hpp:77] Creating layer inception_3a/output
I0403 19:41:11.982396  9549 net.cpp:91] Creating Layer inception_3a/output
I0403 19:41:11.982414  9549 net.cpp:425] inception_3a/output <- inception_3a/1x1
I0403 19:41:11.982431  9549 net.cpp:425] inception_3a/output <- inception_3a/3x3
I0403 19:41:11.982448  9549 net.cpp:425] inception_3a/output <- inception_3a/5x5
I0403 19:41:11.982465  9549 net.cpp:425] inception_3a/output <- inception_3a/pool_proj
I0403 19:41:11.982487  9549 net.cpp:399] inception_3a/output -> inception_3a/output
I0403 19:41:11.982538  9549 net.cpp:141] Setting up inception_3a/output
I0403 19:41:11.982563  9549 net.cpp:148] Top shape: 24 256 28 28 (4816896)
I0403 19:41:11.982579  9549 net.cpp:156] Memory required for data: 580437024
I0403 19:41:11.982595  9549 layer_factory.hpp:77] Creating layer inception_3a/output_inception_3a/output_0_split
I0403 19:41:11.982616  9549 net.cpp:91] Creating Layer inception_3a/output_inception_3a/output_0_split
I0403 19:41:11.982635  9549 net.cpp:425] inception_3a/output_inception_3a/output_0_split <- inception_3a/output
I0403 19:41:11.982652  9549 net.cpp:399] inception_3a/output_inception_3a/output_0_split -> inception_3a/output_inception_3a/output_0_split_0
I0403 19:41:11.982676  9549 net.cpp:399] inception_3a/output_inception_3a/output_0_split -> inception_3a/output_inception_3a/output_0_split_1
I0403 19:41:11.982702  9549 net.cpp:399] inception_3a/output_inception_3a/output_0_split -> inception_3a/output_inception_3a/output_0_split_2
I0403 19:41:11.982724  9549 net.cpp:399] inception_3a/output_inception_3a/output_0_split -> inception_3a/output_inception_3a/output_0_split_3
I0403 19:41:11.982802  9549 net.cpp:141] Setting up inception_3a/output_inception_3a/output_0_split
I0403 19:41:11.982830  9549 net.cpp:148] Top shape: 24 256 28 28 (4816896)
I0403 19:41:11.982848  9549 net.cpp:148] Top shape: 24 256 28 28 (4816896)
I0403 19:41:11.982867  9549 net.cpp:148] Top shape: 24 256 28 28 (4816896)
I0403 19:41:11.982882  9549 net.cpp:148] Top shape: 24 256 28 28 (4816896)
I0403 19:41:11.982897  9549 net.cpp:156] Memory required for data: 657507360
I0403 19:41:11.982913  9549 layer_factory.hpp:77] Creating layer inception_3b/1x1
I0403 19:41:11.982938  9549 net.cpp:91] Creating Layer inception_3b/1x1
I0403 19:41:11.982956  9549 net.cpp:425] inception_3b/1x1 <- inception_3a/output_inception_3a/output_0_split_0
I0403 19:41:11.982975  9549 net.cpp:399] inception_3b/1x1 -> inception_3b/1x1
I0403 19:41:11.984179  9549 net.cpp:141] Setting up inception_3b/1x1
I0403 19:41:11.984227  9549 net.cpp:148] Top shape: 24 128 28 28 (2408448)
I0403 19:41:11.984246  9549 net.cpp:156] Memory required for data: 667141152
I0403 19:41:11.984266  9549 layer_factory.hpp:77] Creating layer inception_3b/relu_1x1
I0403 19:41:11.984288  9549 net.cpp:91] Creating Layer inception_3b/relu_1x1
I0403 19:41:11.984308  9549 net.cpp:425] inception_3b/relu_1x1 <- inception_3b/1x1
I0403 19:41:11.984326  9549 net.cpp:386] inception_3b/relu_1x1 -> inception_3b/1x1 (in-place)
I0403 19:41:11.984518  9549 net.cpp:141] Setting up inception_3b/relu_1x1
I0403 19:41:11.984544  9549 net.cpp:148] Top shape: 24 128 28 28 (2408448)
I0403 19:41:11.984560  9549 net.cpp:156] Memory required for data: 676774944
I0403 19:41:11.984575  9549 layer_factory.hpp:77] Creating layer inception_3b/3x3_reduce
I0403 19:41:11.984599  9549 net.cpp:91] Creating Layer inception_3b/3x3_reduce
I0403 19:41:11.984619  9549 net.cpp:425] inception_3b/3x3_reduce <- inception_3a/output_inception_3a/output_0_split_1
I0403 19:41:11.984642  9549 net.cpp:399] inception_3b/3x3_reduce -> inception_3b/3x3_reduce
I0403 19:41:11.985841  9549 net.cpp:141] Setting up inception_3b/3x3_reduce
I0403 19:41:11.985870  9549 net.cpp:148] Top shape: 24 128 28 28 (2408448)
I0403 19:41:11.985888  9549 net.cpp:156] Memory required for data: 686408736
I0403 19:41:11.985908  9549 layer_factory.hpp:77] Creating layer inception_3b/relu_3x3_reduce
I0403 19:41:11.985929  9549 net.cpp:91] Creating Layer inception_3b/relu_3x3_reduce
I0403 19:41:11.985946  9549 net.cpp:425] inception_3b/relu_3x3_reduce <- inception_3b/3x3_reduce
I0403 19:41:11.985965  9549 net.cpp:386] inception_3b/relu_3x3_reduce -> inception_3b/3x3_reduce (in-place)
I0403 19:41:11.986148  9549 net.cpp:141] Setting up inception_3b/relu_3x3_reduce
I0403 19:41:11.986176  9549 net.cpp:148] Top shape: 24 128 28 28 (2408448)
I0403 19:41:11.986191  9549 net.cpp:156] Memory required for data: 696042528
I0403 19:41:11.986207  9549 layer_factory.hpp:77] Creating layer inception_3b/3x3
I0403 19:41:11.986234  9549 net.cpp:91] Creating Layer inception_3b/3x3
I0403 19:41:11.986254  9549 net.cpp:425] inception_3b/3x3 <- inception_3b/3x3_reduce
I0403 19:41:11.986279  9549 net.cpp:399] inception_3b/3x3 -> inception_3b/3x3
I0403 19:41:11.989369  9549 net.cpp:141] Setting up inception_3b/3x3
I0403 19:41:11.989403  9549 net.cpp:148] Top shape: 24 192 28 28 (3612672)
I0403 19:41:11.989420  9549 net.cpp:156] Memory required for data: 710493216
I0403 19:41:11.989439  9549 layer_factory.hpp:77] Creating layer inception_3b/relu_3x3
I0403 19:41:11.989459  9549 net.cpp:91] Creating Layer inception_3b/relu_3x3
I0403 19:41:11.989476  9549 net.cpp:425] inception_3b/relu_3x3 <- inception_3b/3x3
I0403 19:41:11.989497  9549 net.cpp:386] inception_3b/relu_3x3 -> inception_3b/3x3 (in-place)
I0403 19:41:11.989783  9549 net.cpp:141] Setting up inception_3b/relu_3x3
I0403 19:41:11.989814  9549 net.cpp:148] Top shape: 24 192 28 28 (3612672)
I0403 19:41:11.989830  9549 net.cpp:156] Memory required for data: 724943904
I0403 19:41:11.989846  9549 layer_factory.hpp:77] Creating layer inception_3b/5x5_reduce
I0403 19:41:11.989871  9549 net.cpp:91] Creating Layer inception_3b/5x5_reduce
I0403 19:41:11.989891  9549 net.cpp:425] inception_3b/5x5_reduce <- inception_3a/output_inception_3a/output_0_split_2
I0403 19:41:11.989913  9549 net.cpp:399] inception_3b/5x5_reduce -> inception_3b/5x5_reduce
I0403 19:41:11.990949  9549 net.cpp:141] Setting up inception_3b/5x5_reduce
I0403 19:41:11.990981  9549 net.cpp:148] Top shape: 24 32 28 28 (602112)
I0403 19:41:11.990999  9549 net.cpp:156] Memory required for data: 727352352
I0403 19:41:11.991019  9549 layer_factory.hpp:77] Creating layer inception_3b/relu_5x5_reduce
I0403 19:41:11.991039  9549 net.cpp:91] Creating Layer inception_3b/relu_5x5_reduce
I0403 19:41:11.991055  9549 net.cpp:425] inception_3b/relu_5x5_reduce <- inception_3b/5x5_reduce
I0403 19:41:11.991075  9549 net.cpp:386] inception_3b/relu_5x5_reduce -> inception_3b/5x5_reduce (in-place)
I0403 19:41:11.991262  9549 net.cpp:141] Setting up inception_3b/relu_5x5_reduce
I0403 19:41:11.991307  9549 net.cpp:148] Top shape: 24 32 28 28 (602112)
I0403 19:41:11.991323  9549 net.cpp:156] Memory required for data: 729760800
I0403 19:41:11.991340  9549 layer_factory.hpp:77] Creating layer inception_3b/5x5
I0403 19:41:11.991369  9549 net.cpp:91] Creating Layer inception_3b/5x5
I0403 19:41:11.991389  9549 net.cpp:425] inception_3b/5x5 <- inception_3b/5x5_reduce
I0403 19:41:11.991411  9549 net.cpp:399] inception_3b/5x5 -> inception_3b/5x5
I0403 19:41:11.993499  9549 net.cpp:141] Setting up inception_3b/5x5
I0403 19:41:11.993530  9549 net.cpp:148] Top shape: 24 96 28 28 (1806336)
I0403 19:41:11.993546  9549 net.cpp:156] Memory required for data: 736986144
I0403 19:41:11.993566  9549 layer_factory.hpp:77] Creating layer inception_3b/relu_5x5
I0403 19:41:11.993587  9549 net.cpp:91] Creating Layer inception_3b/relu_5x5
I0403 19:41:11.993607  9549 net.cpp:425] inception_3b/relu_5x5 <- inception_3b/5x5
I0403 19:41:11.993625  9549 net.cpp:386] inception_3b/relu_5x5 -> inception_3b/5x5 (in-place)
I0403 19:41:11.993829  9549 net.cpp:141] Setting up inception_3b/relu_5x5
I0403 19:41:11.993855  9549 net.cpp:148] Top shape: 24 96 28 28 (1806336)
I0403 19:41:11.993871  9549 net.cpp:156] Memory required for data: 744211488
I0403 19:41:11.993886  9549 layer_factory.hpp:77] Creating layer inception_3b/pool
I0403 19:41:11.993906  9549 net.cpp:91] Creating Layer inception_3b/pool
I0403 19:41:11.993923  9549 net.cpp:425] inception_3b/pool <- inception_3a/output_inception_3a/output_0_split_3
I0403 19:41:11.993942  9549 net.cpp:399] inception_3b/pool -> inception_3b/pool
I0403 19:41:11.994001  9549 net.cpp:141] Setting up inception_3b/pool
I0403 19:41:11.994025  9549 net.cpp:148] Top shape: 24 256 28 28 (4816896)
I0403 19:41:11.994041  9549 net.cpp:156] Memory required for data: 763479072
I0403 19:41:11.994057  9549 layer_factory.hpp:77] Creating layer inception_3b/pool_proj
I0403 19:41:11.994082  9549 net.cpp:91] Creating Layer inception_3b/pool_proj
I0403 19:41:11.994101  9549 net.cpp:425] inception_3b/pool_proj <- inception_3b/pool
I0403 19:41:11.994120  9549 net.cpp:399] inception_3b/pool_proj -> inception_3b/pool_proj
I0403 19:41:11.995234  9549 net.cpp:141] Setting up inception_3b/pool_proj
I0403 19:41:11.995263  9549 net.cpp:148] Top shape: 24 64 28 28 (1204224)
I0403 19:41:11.995285  9549 net.cpp:156] Memory required for data: 768295968
I0403 19:41:11.995306  9549 layer_factory.hpp:77] Creating layer inception_3b/relu_pool_proj
I0403 19:41:11.995326  9549 net.cpp:91] Creating Layer inception_3b/relu_pool_proj
I0403 19:41:11.995347  9549 net.cpp:425] inception_3b/relu_pool_proj <- inception_3b/pool_proj
I0403 19:41:11.995365  9549 net.cpp:386] inception_3b/relu_pool_proj -> inception_3b/pool_proj (in-place)
I0403 19:41:11.995774  9549 net.cpp:141] Setting up inception_3b/relu_pool_proj
I0403 19:41:11.995802  9549 net.cpp:148] Top shape: 24 64 28 28 (1204224)
I0403 19:41:11.995820  9549 net.cpp:156] Memory required for data: 773112864
I0403 19:41:11.995836  9549 layer_factory.hpp:77] Creating layer inception_3b/output
I0403 19:41:11.995853  9549 net.cpp:91] Creating Layer inception_3b/output
I0403 19:41:11.995869  9549 net.cpp:425] inception_3b/output <- inception_3b/1x1
I0403 19:41:11.995887  9549 net.cpp:425] inception_3b/output <- inception_3b/3x3
I0403 19:41:11.995905  9549 net.cpp:425] inception_3b/output <- inception_3b/5x5
I0403 19:41:11.995921  9549 net.cpp:425] inception_3b/output <- inception_3b/pool_proj
I0403 19:41:11.995942  9549 net.cpp:399] inception_3b/output -> inception_3b/output
I0403 19:41:11.995988  9549 net.cpp:141] Setting up inception_3b/output
I0403 19:41:11.996016  9549 net.cpp:148] Top shape: 24 480 28 28 (9031680)
I0403 19:41:11.996031  9549 net.cpp:156] Memory required for data: 809239584
I0403 19:41:11.996047  9549 layer_factory.hpp:77] Creating layer pool3/3x3_s2
I0403 19:41:11.996064  9549 net.cpp:91] Creating Layer pool3/3x3_s2
I0403 19:41:11.996080  9549 net.cpp:425] pool3/3x3_s2 <- inception_3b/output
I0403 19:41:11.996103  9549 net.cpp:399] pool3/3x3_s2 -> pool3/3x3_s2
I0403 19:41:11.996178  9549 net.cpp:141] Setting up pool3/3x3_s2
I0403 19:41:11.996203  9549 net.cpp:148] Top shape: 24 480 14 14 (2257920)
I0403 19:41:11.996218  9549 net.cpp:156] Memory required for data: 818271264
I0403 19:41:11.996233  9549 layer_factory.hpp:77] Creating layer pool3/3x3_s2_pool3/3x3_s2_0_split
I0403 19:41:11.996254  9549 net.cpp:91] Creating Layer pool3/3x3_s2_pool3/3x3_s2_0_split
I0403 19:41:11.996275  9549 net.cpp:425] pool3/3x3_s2_pool3/3x3_s2_0_split <- pool3/3x3_s2
I0403 19:41:11.996295  9549 net.cpp:399] pool3/3x3_s2_pool3/3x3_s2_0_split -> pool3/3x3_s2_pool3/3x3_s2_0_split_0
I0403 19:41:11.996316  9549 net.cpp:399] pool3/3x3_s2_pool3/3x3_s2_0_split -> pool3/3x3_s2_pool3/3x3_s2_0_split_1
I0403 19:41:11.996338  9549 net.cpp:399] pool3/3x3_s2_pool3/3x3_s2_0_split -> pool3/3x3_s2_pool3/3x3_s2_0_split_2
I0403 19:41:11.996361  9549 net.cpp:399] pool3/3x3_s2_pool3/3x3_s2_0_split -> pool3/3x3_s2_pool3/3x3_s2_0_split_3
I0403 19:41:11.996444  9549 net.cpp:141] Setting up pool3/3x3_s2_pool3/3x3_s2_0_split
I0403 19:41:11.996469  9549 net.cpp:148] Top shape: 24 480 14 14 (2257920)
I0403 19:41:11.996485  9549 net.cpp:148] Top shape: 24 480 14 14 (2257920)
I0403 19:41:11.996502  9549 net.cpp:148] Top shape: 24 480 14 14 (2257920)
I0403 19:41:11.996518  9549 net.cpp:148] Top shape: 24 480 14 14 (2257920)
I0403 19:41:11.996534  9549 net.cpp:156] Memory required for data: 854397984
I0403 19:41:11.996549  9549 layer_factory.hpp:77] Creating layer inception_4a/1x1
I0403 19:41:11.996573  9549 net.cpp:91] Creating Layer inception_4a/1x1
I0403 19:41:11.996592  9549 net.cpp:425] inception_4a/1x1 <- pool3/3x3_s2_pool3/3x3_s2_0_split_0
I0403 19:41:11.996614  9549 net.cpp:399] inception_4a/1x1 -> inception_4a/1x1
I0403 19:41:11.998340  9549 net.cpp:141] Setting up inception_4a/1x1
I0403 19:41:11.998369  9549 net.cpp:148] Top shape: 24 192 14 14 (903168)
I0403 19:41:11.998389  9549 net.cpp:156] Memory required for data: 858010656
I0403 19:41:11.998407  9549 layer_factory.hpp:77] Creating layer inception_4a/relu_1x1
I0403 19:41:11.998430  9549 net.cpp:91] Creating Layer inception_4a/relu_1x1
I0403 19:41:11.998447  9549 net.cpp:425] inception_4a/relu_1x1 <- inception_4a/1x1
I0403 19:41:11.998466  9549 net.cpp:386] inception_4a/relu_1x1 -> inception_4a/1x1 (in-place)
I0403 19:41:11.998649  9549 net.cpp:141] Setting up inception_4a/relu_1x1
I0403 19:41:11.998679  9549 net.cpp:148] Top shape: 24 192 14 14 (903168)
I0403 19:41:11.998697  9549 net.cpp:156] Memory required for data: 861623328
I0403 19:41:11.998713  9549 layer_factory.hpp:77] Creating layer inception_4a/3x3_reduce
I0403 19:41:11.998739  9549 net.cpp:91] Creating Layer inception_4a/3x3_reduce
I0403 19:41:11.998756  9549 net.cpp:425] inception_4a/3x3_reduce <- pool3/3x3_s2_pool3/3x3_s2_0_split_1
I0403 19:41:11.998777  9549 net.cpp:399] inception_4a/3x3_reduce -> inception_4a/3x3_reduce
I0403 19:41:12.000133  9549 net.cpp:141] Setting up inception_4a/3x3_reduce
I0403 19:41:12.000162  9549 net.cpp:148] Top shape: 24 96 14 14 (451584)
I0403 19:41:12.000180  9549 net.cpp:156] Memory required for data: 863429664
I0403 19:41:12.000208  9549 layer_factory.hpp:77] Creating layer inception_4a/relu_3x3_reduce
I0403 19:41:12.000229  9549 net.cpp:91] Creating Layer inception_4a/relu_3x3_reduce
I0403 19:41:12.000247  9549 net.cpp:425] inception_4a/relu_3x3_reduce <- inception_4a/3x3_reduce
I0403 19:41:12.000269  9549 net.cpp:386] inception_4a/relu_3x3_reduce -> inception_4a/3x3_reduce (in-place)
I0403 19:41:12.000461  9549 net.cpp:141] Setting up inception_4a/relu_3x3_reduce
I0403 19:41:12.000491  9549 net.cpp:148] Top shape: 24 96 14 14 (451584)
I0403 19:41:12.000509  9549 net.cpp:156] Memory required for data: 865236000
I0403 19:41:12.000525  9549 layer_factory.hpp:77] Creating layer inception_4a/3x3
I0403 19:41:12.000548  9549 net.cpp:91] Creating Layer inception_4a/3x3
I0403 19:41:12.000567  9549 net.cpp:425] inception_4a/3x3 <- inception_4a/3x3_reduce
I0403 19:41:12.000588  9549 net.cpp:399] inception_4a/3x3 -> inception_4a/3x3
I0403 19:41:12.003444  9549 net.cpp:141] Setting up inception_4a/3x3
I0403 19:41:12.003479  9549 net.cpp:148] Top shape: 24 208 14 14 (978432)
I0403 19:41:12.003496  9549 net.cpp:156] Memory required for data: 869149728
I0403 19:41:12.003516  9549 layer_factory.hpp:77] Creating layer inception_4a/relu_3x3
I0403 19:41:12.003535  9549 net.cpp:91] Creating Layer inception_4a/relu_3x3
I0403 19:41:12.003552  9549 net.cpp:425] inception_4a/relu_3x3 <- inception_4a/3x3
I0403 19:41:12.003574  9549 net.cpp:386] inception_4a/relu_3x3 -> inception_4a/3x3 (in-place)
I0403 19:41:12.003875  9549 net.cpp:141] Setting up inception_4a/relu_3x3
I0403 19:41:12.003906  9549 net.cpp:148] Top shape: 24 208 14 14 (978432)
I0403 19:41:12.003922  9549 net.cpp:156] Memory required for data: 873063456
I0403 19:41:12.003939  9549 layer_factory.hpp:77] Creating layer inception_4a/5x5_reduce
I0403 19:41:12.003964  9549 net.cpp:91] Creating Layer inception_4a/5x5_reduce
I0403 19:41:12.003983  9549 net.cpp:425] inception_4a/5x5_reduce <- pool3/3x3_s2_pool3/3x3_s2_0_split_2
I0403 19:41:12.004004  9549 net.cpp:399] inception_4a/5x5_reduce -> inception_4a/5x5_reduce
I0403 19:41:12.005074  9549 net.cpp:141] Setting up inception_4a/5x5_reduce
I0403 19:41:12.005105  9549 net.cpp:148] Top shape: 24 16 14 14 (75264)
I0403 19:41:12.005123  9549 net.cpp:156] Memory required for data: 873364512
I0403 19:41:12.005142  9549 layer_factory.hpp:77] Creating layer inception_4a/relu_5x5_reduce
I0403 19:41:12.005162  9549 net.cpp:91] Creating Layer inception_4a/relu_5x5_reduce
I0403 19:41:12.005178  9549 net.cpp:425] inception_4a/relu_5x5_reduce <- inception_4a/5x5_reduce
I0403 19:41:12.005199  9549 net.cpp:386] inception_4a/relu_5x5_reduce -> inception_4a/5x5_reduce (in-place)
I0403 19:41:12.005393  9549 net.cpp:141] Setting up inception_4a/relu_5x5_reduce
I0403 19:41:12.005420  9549 net.cpp:148] Top shape: 24 16 14 14 (75264)
I0403 19:41:12.005436  9549 net.cpp:156] Memory required for data: 873665568
I0403 19:41:12.005452  9549 layer_factory.hpp:77] Creating layer inception_4a/5x5
I0403 19:41:12.005476  9549 net.cpp:91] Creating Layer inception_4a/5x5
I0403 19:41:12.005496  9549 net.cpp:425] inception_4a/5x5 <- inception_4a/5x5_reduce
I0403 19:41:12.005518  9549 net.cpp:399] inception_4a/5x5 -> inception_4a/5x5
I0403 19:41:12.006666  9549 net.cpp:141] Setting up inception_4a/5x5
I0403 19:41:12.006695  9549 net.cpp:148] Top shape: 24 48 14 14 (225792)
I0403 19:41:12.006711  9549 net.cpp:156] Memory required for data: 874568736
I0403 19:41:12.006731  9549 layer_factory.hpp:77] Creating layer inception_4a/relu_5x5
I0403 19:41:12.006752  9549 net.cpp:91] Creating Layer inception_4a/relu_5x5
I0403 19:41:12.006770  9549 net.cpp:425] inception_4a/relu_5x5 <- inception_4a/5x5
I0403 19:41:12.006789  9549 net.cpp:386] inception_4a/relu_5x5 -> inception_4a/5x5 (in-place)
I0403 19:41:12.006981  9549 net.cpp:141] Setting up inception_4a/relu_5x5
I0403 19:41:12.007009  9549 net.cpp:148] Top shape: 24 48 14 14 (225792)
I0403 19:41:12.007025  9549 net.cpp:156] Memory required for data: 875471904
I0403 19:41:12.007041  9549 layer_factory.hpp:77] Creating layer inception_4a/pool
I0403 19:41:12.007063  9549 net.cpp:91] Creating Layer inception_4a/pool
I0403 19:41:12.007081  9549 net.cpp:425] inception_4a/pool <- pool3/3x3_s2_pool3/3x3_s2_0_split_3
I0403 19:41:12.007099  9549 net.cpp:399] inception_4a/pool -> inception_4a/pool
I0403 19:41:12.007165  9549 net.cpp:141] Setting up inception_4a/pool
I0403 19:41:12.007190  9549 net.cpp:148] Top shape: 24 480 14 14 (2257920)
I0403 19:41:12.007208  9549 net.cpp:156] Memory required for data: 884503584
I0403 19:41:12.007225  9549 layer_factory.hpp:77] Creating layer inception_4a/pool_proj
I0403 19:41:12.007248  9549 net.cpp:91] Creating Layer inception_4a/pool_proj
I0403 19:41:12.007267  9549 net.cpp:425] inception_4a/pool_proj <- inception_4a/pool
I0403 19:41:12.007294  9549 net.cpp:399] inception_4a/pool_proj -> inception_4a/pool_proj
I0403 19:41:12.008543  9549 net.cpp:141] Setting up inception_4a/pool_proj
I0403 19:41:12.008572  9549 net.cpp:148] Top shape: 24 64 14 14 (301056)
I0403 19:41:12.008605  9549 net.cpp:156] Memory required for data: 885707808
I0403 19:41:12.008626  9549 layer_factory.hpp:77] Creating layer inception_4a/relu_pool_proj
I0403 19:41:12.008651  9549 net.cpp:91] Creating Layer inception_4a/relu_pool_proj
I0403 19:41:12.008668  9549 net.cpp:425] inception_4a/relu_pool_proj <- inception_4a/pool_proj
I0403 19:41:12.008687  9549 net.cpp:386] inception_4a/relu_pool_proj -> inception_4a/pool_proj (in-place)
I0403 19:41:12.008986  9549 net.cpp:141] Setting up inception_4a/relu_pool_proj
I0403 19:41:12.009013  9549 net.cpp:148] Top shape: 24 64 14 14 (301056)
I0403 19:41:12.009030  9549 net.cpp:156] Memory required for data: 886912032
I0403 19:41:12.009045  9549 layer_factory.hpp:77] Creating layer inception_4a/output
I0403 19:41:12.009066  9549 net.cpp:91] Creating Layer inception_4a/output
I0403 19:41:12.009084  9549 net.cpp:425] inception_4a/output <- inception_4a/1x1
I0403 19:41:12.009102  9549 net.cpp:425] inception_4a/output <- inception_4a/3x3
I0403 19:41:12.009120  9549 net.cpp:425] inception_4a/output <- inception_4a/5x5
I0403 19:41:12.009137  9549 net.cpp:425] inception_4a/output <- inception_4a/pool_proj
I0403 19:41:12.009155  9549 net.cpp:399] inception_4a/output -> inception_4a/output
I0403 19:41:12.009203  9549 net.cpp:141] Setting up inception_4a/output
I0403 19:41:12.009228  9549 net.cpp:148] Top shape: 24 512 14 14 (2408448)
I0403 19:41:12.009244  9549 net.cpp:156] Memory required for data: 896545824
I0403 19:41:12.009260  9549 layer_factory.hpp:77] Creating layer inception_4a/output_inception_4a/output_0_split
I0403 19:41:12.009284  9549 net.cpp:91] Creating Layer inception_4a/output_inception_4a/output_0_split
I0403 19:41:12.009302  9549 net.cpp:425] inception_4a/output_inception_4a/output_0_split <- inception_4a/output
I0403 19:41:12.009323  9549 net.cpp:399] inception_4a/output_inception_4a/output_0_split -> inception_4a/output_inception_4a/output_0_split_0
I0403 19:41:12.009349  9549 net.cpp:399] inception_4a/output_inception_4a/output_0_split -> inception_4a/output_inception_4a/output_0_split_1
I0403 19:41:12.009372  9549 net.cpp:399] inception_4a/output_inception_4a/output_0_split -> inception_4a/output_inception_4a/output_0_split_2
I0403 19:41:12.009394  9549 net.cpp:399] inception_4a/output_inception_4a/output_0_split -> inception_4a/output_inception_4a/output_0_split_3
I0403 19:41:12.009416  9549 net.cpp:399] inception_4a/output_inception_4a/output_0_split -> inception_4a/output_inception_4a/output_0_split_4
I0403 19:41:12.009512  9549 net.cpp:141] Setting up inception_4a/output_inception_4a/output_0_split
I0403 19:41:12.009537  9549 net.cpp:148] Top shape: 24 512 14 14 (2408448)
I0403 19:41:12.009558  9549 net.cpp:148] Top shape: 24 512 14 14 (2408448)
I0403 19:41:12.009575  9549 net.cpp:148] Top shape: 24 512 14 14 (2408448)
I0403 19:41:12.009593  9549 net.cpp:148] Top shape: 24 512 14 14 (2408448)
I0403 19:41:12.009610  9549 net.cpp:148] Top shape: 24 512 14 14 (2408448)
I0403 19:41:12.009625  9549 net.cpp:156] Memory required for data: 944714784
I0403 19:41:12.009640  9549 layer_factory.hpp:77] Creating layer loss1/ave_pool
I0403 19:41:12.009660  9549 net.cpp:91] Creating Layer loss1/ave_pool
I0403 19:41:12.009676  9549 net.cpp:425] loss1/ave_pool <- inception_4a/output_inception_4a/output_0_split_0
I0403 19:41:12.009698  9549 net.cpp:399] loss1/ave_pool -> loss1/ave_pool
I0403 19:41:12.009923  9549 net.cpp:141] Setting up loss1/ave_pool
I0403 19:41:12.009950  9549 net.cpp:148] Top shape: 24 512 4 4 (196608)
I0403 19:41:12.009968  9549 net.cpp:156] Memory required for data: 945501216
I0403 19:41:12.009982  9549 layer_factory.hpp:77] Creating layer loss1/conv
I0403 19:41:12.010006  9549 net.cpp:91] Creating Layer loss1/conv
I0403 19:41:12.010025  9549 net.cpp:425] loss1/conv <- loss1/ave_pool
I0403 19:41:12.010046  9549 net.cpp:399] loss1/conv -> loss1/conv
I0403 19:41:12.011549  9549 net.cpp:141] Setting up loss1/conv
I0403 19:41:12.011582  9549 net.cpp:148] Top shape: 24 128 4 4 (49152)
I0403 19:41:12.011600  9549 net.cpp:156] Memory required for data: 945697824
I0403 19:41:12.011634  9549 layer_factory.hpp:77] Creating layer loss1/relu_conv
I0403 19:41:12.011654  9549 net.cpp:91] Creating Layer loss1/relu_conv
I0403 19:41:12.011672  9549 net.cpp:425] loss1/relu_conv <- loss1/conv
I0403 19:41:12.011693  9549 net.cpp:386] loss1/relu_conv -> loss1/conv (in-place)
I0403 19:41:12.011984  9549 net.cpp:141] Setting up loss1/relu_conv
I0403 19:41:12.012015  9549 net.cpp:148] Top shape: 24 128 4 4 (49152)
I0403 19:41:12.012032  9549 net.cpp:156] Memory required for data: 945894432
I0403 19:41:12.012048  9549 layer_factory.hpp:77] Creating layer loss1/fc
I0403 19:41:12.012073  9549 net.cpp:91] Creating Layer loss1/fc
I0403 19:41:12.012091  9549 net.cpp:425] loss1/fc <- loss1/conv
I0403 19:41:12.012114  9549 net.cpp:399] loss1/fc -> loss1/fc
I0403 19:41:12.031245  9549 net.cpp:141] Setting up loss1/fc
I0403 19:41:12.031325  9549 net.cpp:148] Top shape: 24 1024 (24576)
I0403 19:41:12.031343  9549 net.cpp:156] Memory required for data: 945992736
I0403 19:41:12.031366  9549 layer_factory.hpp:77] Creating layer loss1/relu_fc
I0403 19:41:12.031391  9549 net.cpp:91] Creating Layer loss1/relu_fc
I0403 19:41:12.031410  9549 net.cpp:425] loss1/relu_fc <- loss1/fc
I0403 19:41:12.031431  9549 net.cpp:386] loss1/relu_fc -> loss1/fc (in-place)
I0403 19:41:12.031672  9549 net.cpp:141] Setting up loss1/relu_fc
I0403 19:41:12.031702  9549 net.cpp:148] Top shape: 24 1024 (24576)
I0403 19:41:12.031718  9549 net.cpp:156] Memory required for data: 946091040
I0403 19:41:12.031734  9549 layer_factory.hpp:77] Creating layer loss1/drop_fc
I0403 19:41:12.031766  9549 net.cpp:91] Creating Layer loss1/drop_fc
I0403 19:41:12.031785  9549 net.cpp:425] loss1/drop_fc <- loss1/fc
I0403 19:41:12.031803  9549 net.cpp:386] loss1/drop_fc -> loss1/fc (in-place)
I0403 19:41:12.031862  9549 net.cpp:141] Setting up loss1/drop_fc
I0403 19:41:12.031896  9549 net.cpp:148] Top shape: 24 1024 (24576)
I0403 19:41:12.031911  9549 net.cpp:156] Memory required for data: 946189344
I0403 19:41:12.031927  9549 layer_factory.hpp:77] Creating layer loss1/classifier_plantvillage
I0403 19:41:12.031949  9549 net.cpp:91] Creating Layer loss1/classifier_plantvillage
I0403 19:41:12.031965  9549 net.cpp:425] loss1/classifier_plantvillage <- loss1/fc
I0403 19:41:12.031987  9549 net.cpp:399] loss1/classifier_plantvillage -> loss1/classifier_plantvillage
I0403 19:41:12.033000  9549 net.cpp:141] Setting up loss1/classifier_plantvillage
I0403 19:41:12.033030  9549 net.cpp:148] Top shape: 24 38 (912)
I0403 19:41:12.033047  9549 net.cpp:156] Memory required for data: 946192992
I0403 19:41:12.033066  9549 layer_factory.hpp:77] Creating layer loss1/classifier_plantvillage_loss1/classifier_plantvillage_0_split
I0403 19:41:12.033088  9549 net.cpp:91] Creating Layer loss1/classifier_plantvillage_loss1/classifier_plantvillage_0_split
I0403 19:41:12.033107  9549 net.cpp:425] loss1/classifier_plantvillage_loss1/classifier_plantvillage_0_split <- loss1/classifier_plantvillage
I0403 19:41:12.033126  9549 net.cpp:399] loss1/classifier_plantvillage_loss1/classifier_plantvillage_0_split -> loss1/classifier_plantvillage_loss1/classifier_plantvillage_0_split_0
I0403 19:41:12.033149  9549 net.cpp:399] loss1/classifier_plantvillage_loss1/classifier_plantvillage_0_split -> loss1/classifier_plantvillage_loss1/classifier_plantvillage_0_split_1
I0403 19:41:12.033175  9549 net.cpp:399] loss1/classifier_plantvillage_loss1/classifier_plantvillage_0_split -> loss1/classifier_plantvillage_loss1/classifier_plantvillage_0_split_2
I0403 19:41:12.033246  9549 net.cpp:141] Setting up loss1/classifier_plantvillage_loss1/classifier_plantvillage_0_split
I0403 19:41:12.033275  9549 net.cpp:148] Top shape: 24 38 (912)
I0403 19:41:12.033294  9549 net.cpp:148] Top shape: 24 38 (912)
I0403 19:41:12.033311  9549 net.cpp:148] Top shape: 24 38 (912)
I0403 19:41:12.033326  9549 net.cpp:156] Memory required for data: 946203936
I0403 19:41:12.033342  9549 layer_factory.hpp:77] Creating layer inception_4b/1x1
I0403 19:41:12.033368  9549 net.cpp:91] Creating Layer inception_4b/1x1
I0403 19:41:12.033417  9549 net.cpp:425] inception_4b/1x1 <- inception_4a/output_inception_4a/output_0_split_1
I0403 19:41:12.033439  9549 net.cpp:399] inception_4b/1x1 -> inception_4b/1x1
I0403 19:41:12.035215  9549 net.cpp:141] Setting up inception_4b/1x1
I0403 19:41:12.035248  9549 net.cpp:148] Top shape: 24 160 14 14 (752640)
I0403 19:41:12.035265  9549 net.cpp:156] Memory required for data: 949214496
I0403 19:41:12.035290  9549 layer_factory.hpp:77] Creating layer inception_4b/relu_1x1
I0403 19:41:12.035310  9549 net.cpp:91] Creating Layer inception_4b/relu_1x1
I0403 19:41:12.035326  9549 net.cpp:425] inception_4b/relu_1x1 <- inception_4b/1x1
I0403 19:41:12.035346  9549 net.cpp:386] inception_4b/relu_1x1 -> inception_4b/1x1 (in-place)
I0403 19:41:12.035542  9549 net.cpp:141] Setting up inception_4b/relu_1x1
I0403 19:41:12.035569  9549 net.cpp:148] Top shape: 24 160 14 14 (752640)
I0403 19:41:12.035585  9549 net.cpp:156] Memory required for data: 952225056
I0403 19:41:12.035601  9549 layer_factory.hpp:77] Creating layer inception_4b/3x3_reduce
I0403 19:41:12.035625  9549 net.cpp:91] Creating Layer inception_4b/3x3_reduce
I0403 19:41:12.035645  9549 net.cpp:425] inception_4b/3x3_reduce <- inception_4a/output_inception_4a/output_0_split_2
I0403 19:41:12.035667  9549 net.cpp:399] inception_4b/3x3_reduce -> inception_4b/3x3_reduce
I0403 19:41:12.037094  9549 net.cpp:141] Setting up inception_4b/3x3_reduce
I0403 19:41:12.037123  9549 net.cpp:148] Top shape: 24 112 14 14 (526848)
I0403 19:41:12.037142  9549 net.cpp:156] Memory required for data: 954332448
I0403 19:41:12.037160  9549 layer_factory.hpp:77] Creating layer inception_4b/relu_3x3_reduce
I0403 19:41:12.037180  9549 net.cpp:91] Creating Layer inception_4b/relu_3x3_reduce
I0403 19:41:12.037197  9549 net.cpp:425] inception_4b/relu_3x3_reduce <- inception_4b/3x3_reduce
I0403 19:41:12.037219  9549 net.cpp:386] inception_4b/relu_3x3_reduce -> inception_4b/3x3_reduce (in-place)
I0403 19:41:12.037518  9549 net.cpp:141] Setting up inception_4b/relu_3x3_reduce
I0403 19:41:12.037546  9549 net.cpp:148] Top shape: 24 112 14 14 (526848)
I0403 19:41:12.037562  9549 net.cpp:156] Memory required for data: 956439840
I0403 19:41:12.037578  9549 layer_factory.hpp:77] Creating layer inception_4b/3x3
I0403 19:41:12.037602  9549 net.cpp:91] Creating Layer inception_4b/3x3
I0403 19:41:12.037621  9549 net.cpp:425] inception_4b/3x3 <- inception_4b/3x3_reduce
I0403 19:41:12.037643  9549 net.cpp:399] inception_4b/3x3 -> inception_4b/3x3
I0403 19:41:12.040797  9549 net.cpp:141] Setting up inception_4b/3x3
I0403 19:41:12.040828  9549 net.cpp:148] Top shape: 24 224 14 14 (1053696)
I0403 19:41:12.040844  9549 net.cpp:156] Memory required for data: 960654624
I0403 19:41:12.040863  9549 layer_factory.hpp:77] Creating layer inception_4b/relu_3x3
I0403 19:41:12.040885  9549 net.cpp:91] Creating Layer inception_4b/relu_3x3
I0403 19:41:12.040904  9549 net.cpp:425] inception_4b/relu_3x3 <- inception_4b/3x3
I0403 19:41:12.040922  9549 net.cpp:386] inception_4b/relu_3x3 -> inception_4b/3x3 (in-place)
I0403 19:41:12.041116  9549 net.cpp:141] Setting up inception_4b/relu_3x3
I0403 19:41:12.041146  9549 net.cpp:148] Top shape: 24 224 14 14 (1053696)
I0403 19:41:12.041163  9549 net.cpp:156] Memory required for data: 964869408
I0403 19:41:12.041179  9549 layer_factory.hpp:77] Creating layer inception_4b/5x5_reduce
I0403 19:41:12.041203  9549 net.cpp:91] Creating Layer inception_4b/5x5_reduce
I0403 19:41:12.041221  9549 net.cpp:425] inception_4b/5x5_reduce <- inception_4a/output_inception_4a/output_0_split_3
I0403 19:41:12.041242  9549 net.cpp:399] inception_4b/5x5_reduce -> inception_4b/5x5_reduce
I0403 19:41:12.042397  9549 net.cpp:141] Setting up inception_4b/5x5_reduce
I0403 19:41:12.042428  9549 net.cpp:148] Top shape: 24 24 14 14 (112896)
I0403 19:41:12.042443  9549 net.cpp:156] Memory required for data: 965320992
I0403 19:41:12.042464  9549 layer_factory.hpp:77] Creating layer inception_4b/relu_5x5_reduce
I0403 19:41:12.042484  9549 net.cpp:91] Creating Layer inception_4b/relu_5x5_reduce
I0403 19:41:12.042516  9549 net.cpp:425] inception_4b/relu_5x5_reduce <- inception_4b/5x5_reduce
I0403 19:41:12.042539  9549 net.cpp:386] inception_4b/relu_5x5_reduce -> inception_4b/5x5_reduce (in-place)
I0403 19:41:12.042733  9549 net.cpp:141] Setting up inception_4b/relu_5x5_reduce
I0403 19:41:12.042760  9549 net.cpp:148] Top shape: 24 24 14 14 (112896)
I0403 19:41:12.042776  9549 net.cpp:156] Memory required for data: 965772576
I0403 19:41:12.042793  9549 layer_factory.hpp:77] Creating layer inception_4b/5x5
I0403 19:41:12.042819  9549 net.cpp:91] Creating Layer inception_4b/5x5
I0403 19:41:12.042837  9549 net.cpp:425] inception_4b/5x5 <- inception_4b/5x5_reduce
I0403 19:41:12.042860  9549 net.cpp:399] inception_4b/5x5 -> inception_4b/5x5
I0403 19:41:12.044159  9549 net.cpp:141] Setting up inception_4b/5x5
I0403 19:41:12.044193  9549 net.cpp:148] Top shape: 24 64 14 14 (301056)
I0403 19:41:12.044209  9549 net.cpp:156] Memory required for data: 966976800
I0403 19:41:12.044229  9549 layer_factory.hpp:77] Creating layer inception_4b/relu_5x5
I0403 19:41:12.044248  9549 net.cpp:91] Creating Layer inception_4b/relu_5x5
I0403 19:41:12.044265  9549 net.cpp:425] inception_4b/relu_5x5 <- inception_4b/5x5
I0403 19:41:12.044292  9549 net.cpp:386] inception_4b/relu_5x5 -> inception_4b/5x5 (in-place)
I0403 19:41:12.044595  9549 net.cpp:141] Setting up inception_4b/relu_5x5
I0403 19:41:12.044627  9549 net.cpp:148] Top shape: 24 64 14 14 (301056)
I0403 19:41:12.044646  9549 net.cpp:156] Memory required for data: 968181024
I0403 19:41:12.044661  9549 layer_factory.hpp:77] Creating layer inception_4b/pool
I0403 19:41:12.044682  9549 net.cpp:91] Creating Layer inception_4b/pool
I0403 19:41:12.044699  9549 net.cpp:425] inception_4b/pool <- inception_4a/output_inception_4a/output_0_split_4
I0403 19:41:12.044721  9549 net.cpp:399] inception_4b/pool -> inception_4b/pool
I0403 19:41:12.044790  9549 net.cpp:141] Setting up inception_4b/pool
I0403 19:41:12.044816  9549 net.cpp:148] Top shape: 24 512 14 14 (2408448)
I0403 19:41:12.044831  9549 net.cpp:156] Memory required for data: 977814816
I0403 19:41:12.044847  9549 layer_factory.hpp:77] Creating layer inception_4b/pool_proj
I0403 19:41:12.044870  9549 net.cpp:91] Creating Layer inception_4b/pool_proj
I0403 19:41:12.044888  9549 net.cpp:425] inception_4b/pool_proj <- inception_4b/pool
I0403 19:41:12.044911  9549 net.cpp:399] inception_4b/pool_proj -> inception_4b/pool_proj
I0403 19:41:12.046186  9549 net.cpp:141] Setting up inception_4b/pool_proj
I0403 19:41:12.046219  9549 net.cpp:148] Top shape: 24 64 14 14 (301056)
I0403 19:41:12.046236  9549 net.cpp:156] Memory required for data: 979019040
I0403 19:41:12.046257  9549 layer_factory.hpp:77] Creating layer inception_4b/relu_pool_proj
I0403 19:41:12.046279  9549 net.cpp:91] Creating Layer inception_4b/relu_pool_proj
I0403 19:41:12.046298  9549 net.cpp:425] inception_4b/relu_pool_proj <- inception_4b/pool_proj
I0403 19:41:12.046319  9549 net.cpp:386] inception_4b/relu_pool_proj -> inception_4b/pool_proj (in-place)
I0403 19:41:12.046514  9549 net.cpp:141] Setting up inception_4b/relu_pool_proj
I0403 19:41:12.046540  9549 net.cpp:148] Top shape: 24 64 14 14 (301056)
I0403 19:41:12.046556  9549 net.cpp:156] Memory required for data: 980223264
I0403 19:41:12.046572  9549 layer_factory.hpp:77] Creating layer inception_4b/output
I0403 19:41:12.046591  9549 net.cpp:91] Creating Layer inception_4b/output
I0403 19:41:12.046608  9549 net.cpp:425] inception_4b/output <- inception_4b/1x1
I0403 19:41:12.046625  9549 net.cpp:425] inception_4b/output <- inception_4b/3x3
I0403 19:41:12.046643  9549 net.cpp:425] inception_4b/output <- inception_4b/5x5
I0403 19:41:12.046660  9549 net.cpp:425] inception_4b/output <- inception_4b/pool_proj
I0403 19:41:12.046682  9549 net.cpp:399] inception_4b/output -> inception_4b/output
I0403 19:41:12.046733  9549 net.cpp:141] Setting up inception_4b/output
I0403 19:41:12.046759  9549 net.cpp:148] Top shape: 24 512 14 14 (2408448)
I0403 19:41:12.046775  9549 net.cpp:156] Memory required for data: 989857056
I0403 19:41:12.046805  9549 layer_factory.hpp:77] Creating layer inception_4b/output_inception_4b/output_0_split
I0403 19:41:12.046824  9549 net.cpp:91] Creating Layer inception_4b/output_inception_4b/output_0_split
I0403 19:41:12.046841  9549 net.cpp:425] inception_4b/output_inception_4b/output_0_split <- inception_4b/output
I0403 19:41:12.046864  9549 net.cpp:399] inception_4b/output_inception_4b/output_0_split -> inception_4b/output_inception_4b/output_0_split_0
I0403 19:41:12.046887  9549 net.cpp:399] inception_4b/output_inception_4b/output_0_split -> inception_4b/output_inception_4b/output_0_split_1
I0403 19:41:12.046911  9549 net.cpp:399] inception_4b/output_inception_4b/output_0_split -> inception_4b/output_inception_4b/output_0_split_2
I0403 19:41:12.046933  9549 net.cpp:399] inception_4b/output_inception_4b/output_0_split -> inception_4b/output_inception_4b/output_0_split_3
I0403 19:41:12.047022  9549 net.cpp:141] Setting up inception_4b/output_inception_4b/output_0_split
I0403 19:41:12.047049  9549 net.cpp:148] Top shape: 24 512 14 14 (2408448)
I0403 19:41:12.047067  9549 net.cpp:148] Top shape: 24 512 14 14 (2408448)
I0403 19:41:12.047085  9549 net.cpp:148] Top shape: 24 512 14 14 (2408448)
I0403 19:41:12.047101  9549 net.cpp:148] Top shape: 24 512 14 14 (2408448)
I0403 19:41:12.047116  9549 net.cpp:156] Memory required for data: 1028392224
I0403 19:41:12.047132  9549 layer_factory.hpp:77] Creating layer inception_4c/1x1
I0403 19:41:12.047155  9549 net.cpp:91] Creating Layer inception_4c/1x1
I0403 19:41:12.047174  9549 net.cpp:425] inception_4c/1x1 <- inception_4b/output_inception_4b/output_0_split_0
I0403 19:41:12.047195  9549 net.cpp:399] inception_4c/1x1 -> inception_4c/1x1
I0403 19:41:12.048727  9549 net.cpp:141] Setting up inception_4c/1x1
I0403 19:41:12.048755  9549 net.cpp:148] Top shape: 24 128 14 14 (602112)
I0403 19:41:12.048773  9549 net.cpp:156] Memory required for data: 1030800672
I0403 19:41:12.048791  9549 layer_factory.hpp:77] Creating layer inception_4c/relu_1x1
I0403 19:41:12.048815  9549 net.cpp:91] Creating Layer inception_4c/relu_1x1
I0403 19:41:12.048833  9549 net.cpp:425] inception_4c/relu_1x1 <- inception_4c/1x1
I0403 19:41:12.048852  9549 net.cpp:386] inception_4c/relu_1x1 -> inception_4c/1x1 (in-place)
I0403 19:41:12.049041  9549 net.cpp:141] Setting up inception_4c/relu_1x1
I0403 19:41:12.049070  9549 net.cpp:148] Top shape: 24 128 14 14 (602112)
I0403 19:41:12.049087  9549 net.cpp:156] Memory required for data: 1033209120
I0403 19:41:12.049103  9549 layer_factory.hpp:77] Creating layer inception_4c/3x3_reduce
I0403 19:41:12.049127  9549 net.cpp:91] Creating Layer inception_4c/3x3_reduce
I0403 19:41:12.049147  9549 net.cpp:425] inception_4c/3x3_reduce <- inception_4b/output_inception_4b/output_0_split_1
I0403 19:41:12.049168  9549 net.cpp:399] inception_4c/3x3_reduce -> inception_4c/3x3_reduce
I0403 19:41:12.051234  9549 net.cpp:141] Setting up inception_4c/3x3_reduce
I0403 19:41:12.051265  9549 net.cpp:148] Top shape: 24 128 14 14 (602112)
I0403 19:41:12.051288  9549 net.cpp:156] Memory required for data: 1035617568
I0403 19:41:12.051309  9549 layer_factory.hpp:77] Creating layer inception_4c/relu_3x3_reduce
I0403 19:41:12.051329  9549 net.cpp:91] Creating Layer inception_4c/relu_3x3_reduce
I0403 19:41:12.051347  9549 net.cpp:425] inception_4c/relu_3x3_reduce <- inception_4c/3x3_reduce
I0403 19:41:12.051365  9549 net.cpp:386] inception_4c/relu_3x3_reduce -> inception_4c/3x3_reduce (in-place)
I0403 19:41:12.051713  9549 net.cpp:141] Setting up inception_4c/relu_3x3_reduce
I0403 19:41:12.051744  9549 net.cpp:148] Top shape: 24 128 14 14 (602112)
I0403 19:41:12.051761  9549 net.cpp:156] Memory required for data: 1038026016
I0403 19:41:12.051777  9549 layer_factory.hpp:77] Creating layer inception_4c/3x3
I0403 19:41:12.051803  9549 net.cpp:91] Creating Layer inception_4c/3x3
I0403 19:41:12.051822  9549 net.cpp:425] inception_4c/3x3 <- inception_4c/3x3_reduce
I0403 19:41:12.051842  9549 net.cpp:399] inception_4c/3x3 -> inception_4c/3x3
I0403 19:41:12.055728  9549 net.cpp:141] Setting up inception_4c/3x3
I0403 19:41:12.055776  9549 net.cpp:148] Top shape: 24 256 14 14 (1204224)
I0403 19:41:12.055794  9549 net.cpp:156] Memory required for data: 1042842912
I0403 19:41:12.055830  9549 layer_factory.hpp:77] Creating layer inception_4c/relu_3x3
I0403 19:41:12.055852  9549 net.cpp:91] Creating Layer inception_4c/relu_3x3
I0403 19:41:12.055869  9549 net.cpp:425] inception_4c/relu_3x3 <- inception_4c/3x3
I0403 19:41:12.055891  9549 net.cpp:386] inception_4c/relu_3x3 -> inception_4c/3x3 (in-place)
I0403 19:41:12.056084  9549 net.cpp:141] Setting up inception_4c/relu_3x3
I0403 19:41:12.056110  9549 net.cpp:148] Top shape: 24 256 14 14 (1204224)
I0403 19:41:12.056126  9549 net.cpp:156] Memory required for data: 1047659808
I0403 19:41:12.056143  9549 layer_factory.hpp:77] Creating layer inception_4c/5x5_reduce
I0403 19:41:12.056167  9549 net.cpp:91] Creating Layer inception_4c/5x5_reduce
I0403 19:41:12.056188  9549 net.cpp:425] inception_4c/5x5_reduce <- inception_4b/output_inception_4b/output_0_split_2
I0403 19:41:12.056211  9549 net.cpp:399] inception_4c/5x5_reduce -> inception_4c/5x5_reduce
I0403 19:41:12.057370  9549 net.cpp:141] Setting up inception_4c/5x5_reduce
I0403 19:41:12.057400  9549 net.cpp:148] Top shape: 24 24 14 14 (112896)
I0403 19:41:12.057416  9549 net.cpp:156] Memory required for data: 1048111392
I0403 19:41:12.057436  9549 layer_factory.hpp:77] Creating layer inception_4c/relu_5x5_reduce
I0403 19:41:12.057456  9549 net.cpp:91] Creating Layer inception_4c/relu_5x5_reduce
I0403 19:41:12.057471  9549 net.cpp:425] inception_4c/relu_5x5_reduce <- inception_4c/5x5_reduce
I0403 19:41:12.057492  9549 net.cpp:386] inception_4c/relu_5x5_reduce -> inception_4c/5x5_reduce (in-place)
I0403 19:41:12.057689  9549 net.cpp:141] Setting up inception_4c/relu_5x5_reduce
I0403 19:41:12.057716  9549 net.cpp:148] Top shape: 24 24 14 14 (112896)
I0403 19:41:12.057732  9549 net.cpp:156] Memory required for data: 1048562976
I0403 19:41:12.057749  9549 layer_factory.hpp:77] Creating layer inception_4c/5x5
I0403 19:41:12.057772  9549 net.cpp:91] Creating Layer inception_4c/5x5
I0403 19:41:12.057790  9549 net.cpp:425] inception_4c/5x5 <- inception_4c/5x5_reduce
I0403 19:41:12.057813  9549 net.cpp:399] inception_4c/5x5 -> inception_4c/5x5
I0403 19:41:12.059130  9549 net.cpp:141] Setting up inception_4c/5x5
I0403 19:41:12.059160  9549 net.cpp:148] Top shape: 24 64 14 14 (301056)
I0403 19:41:12.059176  9549 net.cpp:156] Memory required for data: 1049767200
I0403 19:41:12.059195  9549 layer_factory.hpp:77] Creating layer inception_4c/relu_5x5
I0403 19:41:12.059217  9549 net.cpp:91] Creating Layer inception_4c/relu_5x5
I0403 19:41:12.059234  9549 net.cpp:425] inception_4c/relu_5x5 <- inception_4c/5x5
I0403 19:41:12.059253  9549 net.cpp:386] inception_4c/relu_5x5 -> inception_4c/5x5 (in-place)
I0403 19:41:12.059561  9549 net.cpp:141] Setting up inception_4c/relu_5x5
I0403 19:41:12.059588  9549 net.cpp:148] Top shape: 24 64 14 14 (301056)
I0403 19:41:12.059605  9549 net.cpp:156] Memory required for data: 1050971424
I0403 19:41:12.059622  9549 layer_factory.hpp:77] Creating layer inception_4c/pool
I0403 19:41:12.059640  9549 net.cpp:91] Creating Layer inception_4c/pool
I0403 19:41:12.059659  9549 net.cpp:425] inception_4c/pool <- inception_4b/output_inception_4b/output_0_split_3
I0403 19:41:12.059680  9549 net.cpp:399] inception_4c/pool -> inception_4c/pool
I0403 19:41:12.059756  9549 net.cpp:141] Setting up inception_4c/pool
I0403 19:41:12.059782  9549 net.cpp:148] Top shape: 24 512 14 14 (2408448)
I0403 19:41:12.059798  9549 net.cpp:156] Memory required for data: 1060605216
I0403 19:41:12.059814  9549 layer_factory.hpp:77] Creating layer inception_4c/pool_proj
I0403 19:41:12.059839  9549 net.cpp:91] Creating Layer inception_4c/pool_proj
I0403 19:41:12.059856  9549 net.cpp:425] inception_4c/pool_proj <- inception_4c/pool
I0403 19:41:12.059878  9549 net.cpp:399] inception_4c/pool_proj -> inception_4c/pool_proj
I0403 19:41:12.061174  9549 net.cpp:141] Setting up inception_4c/pool_proj
I0403 19:41:12.061208  9549 net.cpp:148] Top shape: 24 64 14 14 (301056)
I0403 19:41:12.061239  9549 net.cpp:156] Memory required for data: 1061809440
I0403 19:41:12.061260  9549 layer_factory.hpp:77] Creating layer inception_4c/relu_pool_proj
I0403 19:41:12.061285  9549 net.cpp:91] Creating Layer inception_4c/relu_pool_proj
I0403 19:41:12.061303  9549 net.cpp:425] inception_4c/relu_pool_proj <- inception_4c/pool_proj
I0403 19:41:12.061326  9549 net.cpp:386] inception_4c/relu_pool_proj -> inception_4c/pool_proj (in-place)
I0403 19:41:12.061523  9549 net.cpp:141] Setting up inception_4c/relu_pool_proj
I0403 19:41:12.061552  9549 net.cpp:148] Top shape: 24 64 14 14 (301056)
I0403 19:41:12.061569  9549 net.cpp:156] Memory required for data: 1063013664
I0403 19:41:12.061589  9549 layer_factory.hpp:77] Creating layer inception_4c/output
I0403 19:41:12.061609  9549 net.cpp:91] Creating Layer inception_4c/output
I0403 19:41:12.061627  9549 net.cpp:425] inception_4c/output <- inception_4c/1x1
I0403 19:41:12.061646  9549 net.cpp:425] inception_4c/output <- inception_4c/3x3
I0403 19:41:12.061666  9549 net.cpp:425] inception_4c/output <- inception_4c/5x5
I0403 19:41:12.061684  9549 net.cpp:425] inception_4c/output <- inception_4c/pool_proj
I0403 19:41:12.061704  9549 net.cpp:399] inception_4c/output -> inception_4c/output
I0403 19:41:12.061756  9549 net.cpp:141] Setting up inception_4c/output
I0403 19:41:12.061782  9549 net.cpp:148] Top shape: 24 512 14 14 (2408448)
I0403 19:41:12.061797  9549 net.cpp:156] Memory required for data: 1072647456
I0403 19:41:12.061813  9549 layer_factory.hpp:77] Creating layer inception_4c/output_inception_4c/output_0_split
I0403 19:41:12.061831  9549 net.cpp:91] Creating Layer inception_4c/output_inception_4c/output_0_split
I0403 19:41:12.061847  9549 net.cpp:425] inception_4c/output_inception_4c/output_0_split <- inception_4c/output
I0403 19:41:12.061868  9549 net.cpp:399] inception_4c/output_inception_4c/output_0_split -> inception_4c/output_inception_4c/output_0_split_0
I0403 19:41:12.061892  9549 net.cpp:399] inception_4c/output_inception_4c/output_0_split -> inception_4c/output_inception_4c/output_0_split_1
I0403 19:41:12.061913  9549 net.cpp:399] inception_4c/output_inception_4c/output_0_split -> inception_4c/output_inception_4c/output_0_split_2
I0403 19:41:12.061935  9549 net.cpp:399] inception_4c/output_inception_4c/output_0_split -> inception_4c/output_inception_4c/output_0_split_3
I0403 19:41:12.062027  9549 net.cpp:141] Setting up inception_4c/output_inception_4c/output_0_split
I0403 19:41:12.062052  9549 net.cpp:148] Top shape: 24 512 14 14 (2408448)
I0403 19:41:12.062070  9549 net.cpp:148] Top shape: 24 512 14 14 (2408448)
I0403 19:41:12.062086  9549 net.cpp:148] Top shape: 24 512 14 14 (2408448)
I0403 19:41:12.062103  9549 net.cpp:148] Top shape: 24 512 14 14 (2408448)
I0403 19:41:12.062119  9549 net.cpp:156] Memory required for data: 1111182624
I0403 19:41:12.062134  9549 layer_factory.hpp:77] Creating layer inception_4d/1x1
I0403 19:41:12.062158  9549 net.cpp:91] Creating Layer inception_4d/1x1
I0403 19:41:12.062176  9549 net.cpp:425] inception_4d/1x1 <- inception_4c/output_inception_4c/output_0_split_0
I0403 19:41:12.062199  9549 net.cpp:399] inception_4d/1x1 -> inception_4d/1x1
I0403 19:41:12.063699  9549 net.cpp:141] Setting up inception_4d/1x1
I0403 19:41:12.063729  9549 net.cpp:148] Top shape: 24 112 14 14 (526848)
I0403 19:41:12.063745  9549 net.cpp:156] Memory required for data: 1113290016
I0403 19:41:12.063765  9549 layer_factory.hpp:77] Creating layer inception_4d/relu_1x1
I0403 19:41:12.063786  9549 net.cpp:91] Creating Layer inception_4d/relu_1x1
I0403 19:41:12.063804  9549 net.cpp:425] inception_4d/relu_1x1 <- inception_4d/1x1
I0403 19:41:12.063823  9549 net.cpp:386] inception_4d/relu_1x1 -> inception_4d/1x1 (in-place)
I0403 19:41:12.064018  9549 net.cpp:141] Setting up inception_4d/relu_1x1
I0403 19:41:12.064045  9549 net.cpp:148] Top shape: 24 112 14 14 (526848)
I0403 19:41:12.064061  9549 net.cpp:156] Memory required for data: 1115397408
I0403 19:41:12.064076  9549 layer_factory.hpp:77] Creating layer inception_4d/3x3_reduce
I0403 19:41:12.064117  9549 net.cpp:91] Creating Layer inception_4d/3x3_reduce
I0403 19:41:12.064138  9549 net.cpp:425] inception_4d/3x3_reduce <- inception_4c/output_inception_4c/output_0_split_1
I0403 19:41:12.064162  9549 net.cpp:399] inception_4d/3x3_reduce -> inception_4d/3x3_reduce
I0403 19:41:12.065768  9549 net.cpp:141] Setting up inception_4d/3x3_reduce
I0403 19:41:12.065798  9549 net.cpp:148] Top shape: 24 144 14 14 (677376)
I0403 19:41:12.065814  9549 net.cpp:156] Memory required for data: 1118106912
I0403 19:41:12.065834  9549 layer_factory.hpp:77] Creating layer inception_4d/relu_3x3_reduce
I0403 19:41:12.065855  9549 net.cpp:91] Creating Layer inception_4d/relu_3x3_reduce
I0403 19:41:12.065872  9549 net.cpp:425] inception_4d/relu_3x3_reduce <- inception_4d/3x3_reduce
I0403 19:41:12.065889  9549 net.cpp:386] inception_4d/relu_3x3_reduce -> inception_4d/3x3_reduce (in-place)
I0403 19:41:12.066195  9549 net.cpp:141] Setting up inception_4d/relu_3x3_reduce
I0403 19:41:12.066223  9549 net.cpp:148] Top shape: 24 144 14 14 (677376)
I0403 19:41:12.066239  9549 net.cpp:156] Memory required for data: 1120816416
I0403 19:41:12.066256  9549 layer_factory.hpp:77] Creating layer inception_4d/3x3
I0403 19:41:12.066287  9549 net.cpp:91] Creating Layer inception_4d/3x3
I0403 19:41:12.066308  9549 net.cpp:425] inception_4d/3x3 <- inception_4d/3x3_reduce
I0403 19:41:12.066330  9549 net.cpp:399] inception_4d/3x3 -> inception_4d/3x3
I0403 19:41:12.070859  9549 net.cpp:141] Setting up inception_4d/3x3
I0403 19:41:12.070894  9549 net.cpp:148] Top shape: 24 288 14 14 (1354752)
I0403 19:41:12.070910  9549 net.cpp:156] Memory required for data: 1126235424
I0403 19:41:12.070930  9549 layer_factory.hpp:77] Creating layer inception_4d/relu_3x3
I0403 19:41:12.070950  9549 net.cpp:91] Creating Layer inception_4d/relu_3x3
I0403 19:41:12.070966  9549 net.cpp:425] inception_4d/relu_3x3 <- inception_4d/3x3
I0403 19:41:12.070986  9549 net.cpp:386] inception_4d/relu_3x3 -> inception_4d/3x3 (in-place)
I0403 19:41:12.071183  9549 net.cpp:141] Setting up inception_4d/relu_3x3
I0403 19:41:12.071210  9549 net.cpp:148] Top shape: 24 288 14 14 (1354752)
I0403 19:41:12.071225  9549 net.cpp:156] Memory required for data: 1131654432
I0403 19:41:12.071241  9549 layer_factory.hpp:77] Creating layer inception_4d/5x5_reduce
I0403 19:41:12.071265  9549 net.cpp:91] Creating Layer inception_4d/5x5_reduce
I0403 19:41:12.071292  9549 net.cpp:425] inception_4d/5x5_reduce <- inception_4c/output_inception_4c/output_0_split_2
I0403 19:41:12.071317  9549 net.cpp:399] inception_4d/5x5_reduce -> inception_4d/5x5_reduce
I0403 19:41:12.072547  9549 net.cpp:141] Setting up inception_4d/5x5_reduce
I0403 19:41:12.072577  9549 net.cpp:148] Top shape: 24 32 14 14 (150528)
I0403 19:41:12.072594  9549 net.cpp:156] Memory required for data: 1132256544
I0403 19:41:12.072615  9549 layer_factory.hpp:77] Creating layer inception_4d/relu_5x5_reduce
I0403 19:41:12.072638  9549 net.cpp:91] Creating Layer inception_4d/relu_5x5_reduce
I0403 19:41:12.072656  9549 net.cpp:425] inception_4d/relu_5x5_reduce <- inception_4d/5x5_reduce
I0403 19:41:12.072675  9549 net.cpp:386] inception_4d/relu_5x5_reduce -> inception_4d/5x5_reduce (in-place)
I0403 19:41:12.072880  9549 net.cpp:141] Setting up inception_4d/relu_5x5_reduce
I0403 19:41:12.072906  9549 net.cpp:148] Top shape: 24 32 14 14 (150528)
I0403 19:41:12.072922  9549 net.cpp:156] Memory required for data: 1132858656
I0403 19:41:12.072938  9549 layer_factory.hpp:77] Creating layer inception_4d/5x5
I0403 19:41:12.072962  9549 net.cpp:91] Creating Layer inception_4d/5x5
I0403 19:41:12.072980  9549 net.cpp:425] inception_4d/5x5 <- inception_4d/5x5_reduce
I0403 19:41:12.073004  9549 net.cpp:399] inception_4d/5x5 -> inception_4d/5x5
I0403 19:41:12.074579  9549 net.cpp:141] Setting up inception_4d/5x5
I0403 19:41:12.074609  9549 net.cpp:148] Top shape: 24 64 14 14 (301056)
I0403 19:41:12.074625  9549 net.cpp:156] Memory required for data: 1134062880
I0403 19:41:12.074645  9549 layer_factory.hpp:77] Creating layer inception_4d/relu_5x5
I0403 19:41:12.074681  9549 net.cpp:91] Creating Layer inception_4d/relu_5x5
I0403 19:41:12.074698  9549 net.cpp:425] inception_4d/relu_5x5 <- inception_4d/5x5
I0403 19:41:12.074720  9549 net.cpp:386] inception_4d/relu_5x5 -> inception_4d/5x5 (in-place)
I0403 19:41:12.075039  9549 net.cpp:141] Setting up inception_4d/relu_5x5
I0403 19:41:12.075068  9549 net.cpp:148] Top shape: 24 64 14 14 (301056)
I0403 19:41:12.075084  9549 net.cpp:156] Memory required for data: 1135267104
I0403 19:41:12.075099  9549 layer_factory.hpp:77] Creating layer inception_4d/pool
I0403 19:41:12.075119  9549 net.cpp:91] Creating Layer inception_4d/pool
I0403 19:41:12.075136  9549 net.cpp:425] inception_4d/pool <- inception_4c/output_inception_4c/output_0_split_3
I0403 19:41:12.075158  9549 net.cpp:399] inception_4d/pool -> inception_4d/pool
I0403 19:41:12.075230  9549 net.cpp:141] Setting up inception_4d/pool
I0403 19:41:12.075256  9549 net.cpp:148] Top shape: 24 512 14 14 (2408448)
I0403 19:41:12.075278  9549 net.cpp:156] Memory required for data: 1144900896
I0403 19:41:12.075295  9549 layer_factory.hpp:77] Creating layer inception_4d/pool_proj
I0403 19:41:12.075321  9549 net.cpp:91] Creating Layer inception_4d/pool_proj
I0403 19:41:12.075340  9549 net.cpp:425] inception_4d/pool_proj <- inception_4d/pool
I0403 19:41:12.075361  9549 net.cpp:399] inception_4d/pool_proj -> inception_4d/pool_proj
I0403 19:41:12.077235  9549 net.cpp:141] Setting up inception_4d/pool_proj
I0403 19:41:12.077270  9549 net.cpp:148] Top shape: 24 64 14 14 (301056)
I0403 19:41:12.077293  9549 net.cpp:156] Memory required for data: 1146105120
I0403 19:41:12.077314  9549 layer_factory.hpp:77] Creating layer inception_4d/relu_pool_proj
I0403 19:41:12.077333  9549 net.cpp:91] Creating Layer inception_4d/relu_pool_proj
I0403 19:41:12.077352  9549 net.cpp:425] inception_4d/relu_pool_proj <- inception_4d/pool_proj
I0403 19:41:12.077369  9549 net.cpp:386] inception_4d/relu_pool_proj -> inception_4d/pool_proj (in-place)
I0403 19:41:12.077569  9549 net.cpp:141] Setting up inception_4d/relu_pool_proj
I0403 19:41:12.077596  9549 net.cpp:148] Top shape: 24 64 14 14 (301056)
I0403 19:41:12.077611  9549 net.cpp:156] Memory required for data: 1147309344
I0403 19:41:12.077627  9549 layer_factory.hpp:77] Creating layer inception_4d/output
I0403 19:41:12.077646  9549 net.cpp:91] Creating Layer inception_4d/output
I0403 19:41:12.077663  9549 net.cpp:425] inception_4d/output <- inception_4d/1x1
I0403 19:41:12.077680  9549 net.cpp:425] inception_4d/output <- inception_4d/3x3
I0403 19:41:12.077697  9549 net.cpp:425] inception_4d/output <- inception_4d/5x5
I0403 19:41:12.077714  9549 net.cpp:425] inception_4d/output <- inception_4d/pool_proj
I0403 19:41:12.077736  9549 net.cpp:399] inception_4d/output -> inception_4d/output
I0403 19:41:12.077786  9549 net.cpp:141] Setting up inception_4d/output
I0403 19:41:12.077811  9549 net.cpp:148] Top shape: 24 528 14 14 (2483712)
I0403 19:41:12.077827  9549 net.cpp:156] Memory required for data: 1157244192
I0403 19:41:12.077846  9549 layer_factory.hpp:77] Creating layer inception_4d/output_inception_4d/output_0_split
I0403 19:41:12.077867  9549 net.cpp:91] Creating Layer inception_4d/output_inception_4d/output_0_split
I0403 19:41:12.077884  9549 net.cpp:425] inception_4d/output_inception_4d/output_0_split <- inception_4d/output
I0403 19:41:12.077908  9549 net.cpp:399] inception_4d/output_inception_4d/output_0_split -> inception_4d/output_inception_4d/output_0_split_0
I0403 19:41:12.077931  9549 net.cpp:399] inception_4d/output_inception_4d/output_0_split -> inception_4d/output_inception_4d/output_0_split_1
I0403 19:41:12.077955  9549 net.cpp:399] inception_4d/output_inception_4d/output_0_split -> inception_4d/output_inception_4d/output_0_split_2
I0403 19:41:12.077976  9549 net.cpp:399] inception_4d/output_inception_4d/output_0_split -> inception_4d/output_inception_4d/output_0_split_3
I0403 19:41:12.077998  9549 net.cpp:399] inception_4d/output_inception_4d/output_0_split -> inception_4d/output_inception_4d/output_0_split_4
I0403 19:41:12.078109  9549 net.cpp:141] Setting up inception_4d/output_inception_4d/output_0_split
I0403 19:41:12.078146  9549 net.cpp:148] Top shape: 24 528 14 14 (2483712)
I0403 19:41:12.078164  9549 net.cpp:148] Top shape: 24 528 14 14 (2483712)
I0403 19:41:12.078181  9549 net.cpp:148] Top shape: 24 528 14 14 (2483712)
I0403 19:41:12.078198  9549 net.cpp:148] Top shape: 24 528 14 14 (2483712)
I0403 19:41:12.078215  9549 net.cpp:148] Top shape: 24 528 14 14 (2483712)
I0403 19:41:12.078230  9549 net.cpp:156] Memory required for data: 1206918432
I0403 19:41:12.078245  9549 layer_factory.hpp:77] Creating layer loss2/ave_pool
I0403 19:41:12.078269  9549 net.cpp:91] Creating Layer loss2/ave_pool
I0403 19:41:12.078294  9549 net.cpp:425] loss2/ave_pool <- inception_4d/output_inception_4d/output_0_split_0
I0403 19:41:12.078315  9549 net.cpp:399] loss2/ave_pool -> loss2/ave_pool
I0403 19:41:12.078649  9549 net.cpp:141] Setting up loss2/ave_pool
I0403 19:41:12.078681  9549 net.cpp:148] Top shape: 24 528 4 4 (202752)
I0403 19:41:12.078701  9549 net.cpp:156] Memory required for data: 1207729440
I0403 19:41:12.078717  9549 layer_factory.hpp:77] Creating layer loss2/conv
I0403 19:41:12.078742  9549 net.cpp:91] Creating Layer loss2/conv
I0403 19:41:12.078760  9549 net.cpp:425] loss2/conv <- loss2/ave_pool
I0403 19:41:12.078781  9549 net.cpp:399] loss2/conv -> loss2/conv
I0403 19:41:12.080796  9549 net.cpp:141] Setting up loss2/conv
I0403 19:41:12.080826  9549 net.cpp:148] Top shape: 24 128 4 4 (49152)
I0403 19:41:12.080842  9549 net.cpp:156] Memory required for data: 1207926048
I0403 19:41:12.080862  9549 layer_factory.hpp:77] Creating layer loss2/relu_conv
I0403 19:41:12.080884  9549 net.cpp:91] Creating Layer loss2/relu_conv
I0403 19:41:12.080904  9549 net.cpp:425] loss2/relu_conv <- loss2/conv
I0403 19:41:12.080922  9549 net.cpp:386] loss2/relu_conv -> loss2/conv (in-place)
I0403 19:41:12.081225  9549 net.cpp:141] Setting up loss2/relu_conv
I0403 19:41:12.081254  9549 net.cpp:148] Top shape: 24 128 4 4 (49152)
I0403 19:41:12.081275  9549 net.cpp:156] Memory required for data: 1208122656
I0403 19:41:12.081295  9549 layer_factory.hpp:77] Creating layer loss2/fc
I0403 19:41:12.081318  9549 net.cpp:91] Creating Layer loss2/fc
I0403 19:41:12.081337  9549 net.cpp:425] loss2/fc <- loss2/conv
I0403 19:41:12.081357  9549 net.cpp:399] loss2/fc -> loss2/fc
I0403 19:41:12.100385  9549 net.cpp:141] Setting up loss2/fc
I0403 19:41:12.100427  9549 net.cpp:148] Top shape: 24 1024 (24576)
I0403 19:41:12.100445  9549 net.cpp:156] Memory required for data: 1208220960
I0403 19:41:12.100467  9549 layer_factory.hpp:77] Creating layer loss2/relu_fc
I0403 19:41:12.100492  9549 net.cpp:91] Creating Layer loss2/relu_fc
I0403 19:41:12.100512  9549 net.cpp:425] loss2/relu_fc <- loss2/fc
I0403 19:41:12.100536  9549 net.cpp:386] loss2/relu_fc -> loss2/fc (in-place)
I0403 19:41:12.100944  9549 net.cpp:141] Setting up loss2/relu_fc
I0403 19:41:12.100975  9549 net.cpp:148] Top shape: 24 1024 (24576)
I0403 19:41:12.100991  9549 net.cpp:156] Memory required for data: 1208319264
I0403 19:41:12.101007  9549 layer_factory.hpp:77] Creating layer loss2/drop_fc
I0403 19:41:12.101027  9549 net.cpp:91] Creating Layer loss2/drop_fc
I0403 19:41:12.101044  9549 net.cpp:425] loss2/drop_fc <- loss2/fc
I0403 19:41:12.101066  9549 net.cpp:386] loss2/drop_fc -> loss2/fc (in-place)
I0403 19:41:12.101120  9549 net.cpp:141] Setting up loss2/drop_fc
I0403 19:41:12.101145  9549 net.cpp:148] Top shape: 24 1024 (24576)
I0403 19:41:12.101162  9549 net.cpp:156] Memory required for data: 1208417568
I0403 19:41:12.101177  9549 layer_factory.hpp:77] Creating layer loss2/classifier_plantvillage
I0403 19:41:12.101202  9549 net.cpp:91] Creating Layer loss2/classifier_plantvillage
I0403 19:41:12.101220  9549 net.cpp:425] loss2/classifier_plantvillage <- loss2/fc
I0403 19:41:12.101243  9549 net.cpp:399] loss2/classifier_plantvillage -> loss2/classifier_plantvillage
I0403 19:41:12.101704  9549 net.cpp:141] Setting up loss2/classifier_plantvillage
I0403 19:41:12.101732  9549 net.cpp:148] Top shape: 24 38 (912)
I0403 19:41:12.101748  9549 net.cpp:156] Memory required for data: 1208421216
I0403 19:41:12.101799  9549 layer_factory.hpp:77] Creating layer loss2/classifier_plantvillage_loss2/classifier_plantvillage_0_split
I0403 19:41:12.101824  9549 net.cpp:91] Creating Layer loss2/classifier_plantvillage_loss2/classifier_plantvillage_0_split
I0403 19:41:12.101841  9549 net.cpp:425] loss2/classifier_plantvillage_loss2/classifier_plantvillage_0_split <- loss2/classifier_plantvillage
I0403 19:41:12.101861  9549 net.cpp:399] loss2/classifier_plantvillage_loss2/classifier_plantvillage_0_split -> loss2/classifier_plantvillage_loss2/classifier_plantvillage_0_split_0
I0403 19:41:12.101882  9549 net.cpp:399] loss2/classifier_plantvillage_loss2/classifier_plantvillage_0_split -> loss2/classifier_plantvillage_loss2/classifier_plantvillage_0_split_1
I0403 19:41:12.101905  9549 net.cpp:399] loss2/classifier_plantvillage_loss2/classifier_plantvillage_0_split -> loss2/classifier_plantvillage_loss2/classifier_plantvillage_0_split_2
I0403 19:41:12.101990  9549 net.cpp:141] Setting up loss2/classifier_plantvillage_loss2/classifier_plantvillage_0_split
I0403 19:41:12.102015  9549 net.cpp:148] Top shape: 24 38 (912)
I0403 19:41:12.102032  9549 net.cpp:148] Top shape: 24 38 (912)
I0403 19:41:12.102049  9549 net.cpp:148] Top shape: 24 38 (912)
I0403 19:41:12.102068  9549 net.cpp:156] Memory required for data: 1208432160
I0403 19:41:12.102084  9549 layer_factory.hpp:77] Creating layer inception_4e/1x1
I0403 19:41:12.102108  9549 net.cpp:91] Creating Layer inception_4e/1x1
I0403 19:41:12.102128  9549 net.cpp:425] inception_4e/1x1 <- inception_4d/output_inception_4d/output_0_split_1
I0403 19:41:12.102151  9549 net.cpp:399] inception_4e/1x1 -> inception_4e/1x1
I0403 19:41:12.104171  9549 net.cpp:141] Setting up inception_4e/1x1
I0403 19:41:12.104202  9549 net.cpp:148] Top shape: 24 256 14 14 (1204224)
I0403 19:41:12.104219  9549 net.cpp:156] Memory required for data: 1213249056
I0403 19:41:12.104239  9549 layer_factory.hpp:77] Creating layer inception_4e/relu_1x1
I0403 19:41:12.104261  9549 net.cpp:91] Creating Layer inception_4e/relu_1x1
I0403 19:41:12.104287  9549 net.cpp:425] inception_4e/relu_1x1 <- inception_4e/1x1
I0403 19:41:12.104307  9549 net.cpp:386] inception_4e/relu_1x1 -> inception_4e/1x1 (in-place)
I0403 19:41:12.104621  9549 net.cpp:141] Setting up inception_4e/relu_1x1
I0403 19:41:12.104650  9549 net.cpp:148] Top shape: 24 256 14 14 (1204224)
I0403 19:41:12.104665  9549 net.cpp:156] Memory required for data: 1218065952
I0403 19:41:12.104681  9549 layer_factory.hpp:77] Creating layer inception_4e/3x3_reduce
I0403 19:41:12.104707  9549 net.cpp:91] Creating Layer inception_4e/3x3_reduce
I0403 19:41:12.104725  9549 net.cpp:425] inception_4e/3x3_reduce <- inception_4d/output_inception_4d/output_0_split_2
I0403 19:41:12.104748  9549 net.cpp:399] inception_4e/3x3_reduce -> inception_4e/3x3_reduce
I0403 19:41:12.107022  9549 net.cpp:141] Setting up inception_4e/3x3_reduce
I0403 19:41:12.107053  9549 net.cpp:148] Top shape: 24 160 14 14 (752640)
I0403 19:41:12.107069  9549 net.cpp:156] Memory required for data: 1221076512
I0403 19:41:12.107089  9549 layer_factory.hpp:77] Creating layer inception_4e/relu_3x3_reduce
I0403 19:41:12.107108  9549 net.cpp:91] Creating Layer inception_4e/relu_3x3_reduce
I0403 19:41:12.107125  9549 net.cpp:425] inception_4e/relu_3x3_reduce <- inception_4e/3x3_reduce
I0403 19:41:12.107147  9549 net.cpp:386] inception_4e/relu_3x3_reduce -> inception_4e/3x3_reduce (in-place)
I0403 19:41:12.107354  9549 net.cpp:141] Setting up inception_4e/relu_3x3_reduce
I0403 19:41:12.107381  9549 net.cpp:148] Top shape: 24 160 14 14 (752640)
I0403 19:41:12.107396  9549 net.cpp:156] Memory required for data: 1224087072
I0403 19:41:12.107412  9549 layer_factory.hpp:77] Creating layer inception_4e/3x3
I0403 19:41:12.107437  9549 net.cpp:91] Creating Layer inception_4e/3x3
I0403 19:41:12.107455  9549 net.cpp:425] inception_4e/3x3 <- inception_4e/3x3_reduce
I0403 19:41:12.107477  9549 net.cpp:399] inception_4e/3x3 -> inception_4e/3x3
I0403 19:41:12.113265  9549 net.cpp:141] Setting up inception_4e/3x3
I0403 19:41:12.113337  9549 net.cpp:148] Top shape: 24 320 14 14 (1505280)
I0403 19:41:12.113355  9549 net.cpp:156] Memory required for data: 1230108192
I0403 19:41:12.113376  9549 layer_factory.hpp:77] Creating layer inception_4e/relu_3x3
I0403 19:41:12.113399  9549 net.cpp:91] Creating Layer inception_4e/relu_3x3
I0403 19:41:12.113417  9549 net.cpp:425] inception_4e/relu_3x3 <- inception_4e/3x3
I0403 19:41:12.113437  9549 net.cpp:386] inception_4e/relu_3x3 -> inception_4e/3x3 (in-place)
I0403 19:41:12.113760  9549 net.cpp:141] Setting up inception_4e/relu_3x3
I0403 19:41:12.113790  9549 net.cpp:148] Top shape: 24 320 14 14 (1505280)
I0403 19:41:12.113806  9549 net.cpp:156] Memory required for data: 1236129312
I0403 19:41:12.113821  9549 layer_factory.hpp:77] Creating layer inception_4e/5x5_reduce
I0403 19:41:12.113849  9549 net.cpp:91] Creating Layer inception_4e/5x5_reduce
I0403 19:41:12.113869  9549 net.cpp:425] inception_4e/5x5_reduce <- inception_4d/output_inception_4d/output_0_split_3
I0403 19:41:12.113890  9549 net.cpp:399] inception_4e/5x5_reduce -> inception_4e/5x5_reduce
I0403 19:41:12.115044  9549 net.cpp:141] Setting up inception_4e/5x5_reduce
I0403 19:41:12.115075  9549 net.cpp:148] Top shape: 24 32 14 14 (150528)
I0403 19:41:12.115092  9549 net.cpp:156] Memory required for data: 1236731424
I0403 19:41:12.115113  9549 layer_factory.hpp:77] Creating layer inception_4e/relu_5x5_reduce
I0403 19:41:12.115131  9549 net.cpp:91] Creating Layer inception_4e/relu_5x5_reduce
I0403 19:41:12.115149  9549 net.cpp:425] inception_4e/relu_5x5_reduce <- inception_4e/5x5_reduce
I0403 19:41:12.115170  9549 net.cpp:386] inception_4e/relu_5x5_reduce -> inception_4e/5x5_reduce (in-place)
I0403 19:41:12.115494  9549 net.cpp:141] Setting up inception_4e/relu_5x5_reduce
I0403 19:41:12.115522  9549 net.cpp:148] Top shape: 24 32 14 14 (150528)
I0403 19:41:12.115538  9549 net.cpp:156] Memory required for data: 1237333536
I0403 19:41:12.115555  9549 layer_factory.hpp:77] Creating layer inception_4e/5x5
I0403 19:41:12.115599  9549 net.cpp:91] Creating Layer inception_4e/5x5
I0403 19:41:12.115620  9549 net.cpp:425] inception_4e/5x5 <- inception_4e/5x5_reduce
I0403 19:41:12.115643  9549 net.cpp:399] inception_4e/5x5 -> inception_4e/5x5
I0403 19:41:12.117625  9549 net.cpp:141] Setting up inception_4e/5x5
I0403 19:41:12.117658  9549 net.cpp:148] Top shape: 24 128 14 14 (602112)
I0403 19:41:12.117676  9549 net.cpp:156] Memory required for data: 1239741984
I0403 19:41:12.117697  9549 layer_factory.hpp:77] Creating layer inception_4e/relu_5x5
I0403 19:41:12.117717  9549 net.cpp:91] Creating Layer inception_4e/relu_5x5
I0403 19:41:12.117733  9549 net.cpp:425] inception_4e/relu_5x5 <- inception_4e/5x5
I0403 19:41:12.117754  9549 net.cpp:386] inception_4e/relu_5x5 -> inception_4e/5x5 (in-place)
I0403 19:41:12.117964  9549 net.cpp:141] Setting up inception_4e/relu_5x5
I0403 19:41:12.117991  9549 net.cpp:148] Top shape: 24 128 14 14 (602112)
I0403 19:41:12.118007  9549 net.cpp:156] Memory required for data: 1242150432
I0403 19:41:12.118023  9549 layer_factory.hpp:77] Creating layer inception_4e/pool
I0403 19:41:12.118042  9549 net.cpp:91] Creating Layer inception_4e/pool
I0403 19:41:12.118059  9549 net.cpp:425] inception_4e/pool <- inception_4d/output_inception_4d/output_0_split_4
I0403 19:41:12.118083  9549 net.cpp:399] inception_4e/pool -> inception_4e/pool
I0403 19:41:12.118160  9549 net.cpp:141] Setting up inception_4e/pool
I0403 19:41:12.118187  9549 net.cpp:148] Top shape: 24 528 14 14 (2483712)
I0403 19:41:12.118202  9549 net.cpp:156] Memory required for data: 1252085280
I0403 19:41:12.118218  9549 layer_factory.hpp:77] Creating layer inception_4e/pool_proj
I0403 19:41:12.118242  9549 net.cpp:91] Creating Layer inception_4e/pool_proj
I0403 19:41:12.118260  9549 net.cpp:425] inception_4e/pool_proj <- inception_4e/pool
I0403 19:41:12.118291  9549 net.cpp:399] inception_4e/pool_proj -> inception_4e/pool_proj
I0403 19:41:12.119909  9549 net.cpp:141] Setting up inception_4e/pool_proj
I0403 19:41:12.119942  9549 net.cpp:148] Top shape: 24 128 14 14 (602112)
I0403 19:41:12.119976  9549 net.cpp:156] Memory required for data: 1254493728
I0403 19:41:12.119997  9549 layer_factory.hpp:77] Creating layer inception_4e/relu_pool_proj
I0403 19:41:12.120017  9549 net.cpp:91] Creating Layer inception_4e/relu_pool_proj
I0403 19:41:12.120033  9549 net.cpp:425] inception_4e/relu_pool_proj <- inception_4e/pool_proj
I0403 19:41:12.120053  9549 net.cpp:386] inception_4e/relu_pool_proj -> inception_4e/pool_proj (in-place)
I0403 19:41:12.120764  9549 net.cpp:141] Setting up inception_4e/relu_pool_proj
I0403 19:41:12.120802  9549 net.cpp:148] Top shape: 24 128 14 14 (602112)
I0403 19:41:12.120821  9549 net.cpp:156] Memory required for data: 1256902176
I0403 19:41:12.120837  9549 layer_factory.hpp:77] Creating layer inception_4e/output
I0403 19:41:12.120857  9549 net.cpp:91] Creating Layer inception_4e/output
I0403 19:41:12.120874  9549 net.cpp:425] inception_4e/output <- inception_4e/1x1
I0403 19:41:12.120893  9549 net.cpp:425] inception_4e/output <- inception_4e/3x3
I0403 19:41:12.120910  9549 net.cpp:425] inception_4e/output <- inception_4e/5x5
I0403 19:41:12.120929  9549 net.cpp:425] inception_4e/output <- inception_4e/pool_proj
I0403 19:41:12.120946  9549 net.cpp:399] inception_4e/output -> inception_4e/output
I0403 19:41:12.121007  9549 net.cpp:141] Setting up inception_4e/output
I0403 19:41:12.121032  9549 net.cpp:148] Top shape: 24 832 14 14 (3913728)
I0403 19:41:12.121048  9549 net.cpp:156] Memory required for data: 1272557088
I0403 19:41:12.121064  9549 layer_factory.hpp:77] Creating layer pool4/3x3_s2
I0403 19:41:12.121086  9549 net.cpp:91] Creating Layer pool4/3x3_s2
I0403 19:41:12.121104  9549 net.cpp:425] pool4/3x3_s2 <- inception_4e/output
I0403 19:41:12.121124  9549 net.cpp:399] pool4/3x3_s2 -> pool4/3x3_s2
I0403 19:41:12.121198  9549 net.cpp:141] Setting up pool4/3x3_s2
I0403 19:41:12.121224  9549 net.cpp:148] Top shape: 24 832 7 7 (978432)
I0403 19:41:12.121240  9549 net.cpp:156] Memory required for data: 1276470816
I0403 19:41:12.121255  9549 layer_factory.hpp:77] Creating layer pool4/3x3_s2_pool4/3x3_s2_0_split
I0403 19:41:12.121280  9549 net.cpp:91] Creating Layer pool4/3x3_s2_pool4/3x3_s2_0_split
I0403 19:41:12.121299  9549 net.cpp:425] pool4/3x3_s2_pool4/3x3_s2_0_split <- pool4/3x3_s2
I0403 19:41:12.121321  9549 net.cpp:399] pool4/3x3_s2_pool4/3x3_s2_0_split -> pool4/3x3_s2_pool4/3x3_s2_0_split_0
I0403 19:41:12.121345  9549 net.cpp:399] pool4/3x3_s2_pool4/3x3_s2_0_split -> pool4/3x3_s2_pool4/3x3_s2_0_split_1
I0403 19:41:12.121368  9549 net.cpp:399] pool4/3x3_s2_pool4/3x3_s2_0_split -> pool4/3x3_s2_pool4/3x3_s2_0_split_2
I0403 19:41:12.121390  9549 net.cpp:399] pool4/3x3_s2_pool4/3x3_s2_0_split -> pool4/3x3_s2_pool4/3x3_s2_0_split_3
I0403 19:41:12.121490  9549 net.cpp:141] Setting up pool4/3x3_s2_pool4/3x3_s2_0_split
I0403 19:41:12.121517  9549 net.cpp:148] Top shape: 24 832 7 7 (978432)
I0403 19:41:12.121536  9549 net.cpp:148] Top shape: 24 832 7 7 (978432)
I0403 19:41:12.121553  9549 net.cpp:148] Top shape: 24 832 7 7 (978432)
I0403 19:41:12.121570  9549 net.cpp:148] Top shape: 24 832 7 7 (978432)
I0403 19:41:12.121585  9549 net.cpp:156] Memory required for data: 1292125728
I0403 19:41:12.121600  9549 layer_factory.hpp:77] Creating layer inception_5a/1x1
I0403 19:41:12.121625  9549 net.cpp:91] Creating Layer inception_5a/1x1
I0403 19:41:12.121644  9549 net.cpp:425] inception_5a/1x1 <- pool4/3x3_s2_pool4/3x3_s2_0_split_0
I0403 19:41:12.121665  9549 net.cpp:399] inception_5a/1x1 -> inception_5a/1x1
I0403 19:41:12.124810  9549 net.cpp:141] Setting up inception_5a/1x1
I0403 19:41:12.124847  9549 net.cpp:148] Top shape: 24 256 7 7 (301056)
I0403 19:41:12.124866  9549 net.cpp:156] Memory required for data: 1293329952
I0403 19:41:12.124886  9549 layer_factory.hpp:77] Creating layer inception_5a/relu_1x1
I0403 19:41:12.124905  9549 net.cpp:91] Creating Layer inception_5a/relu_1x1
I0403 19:41:12.124922  9549 net.cpp:425] inception_5a/relu_1x1 <- inception_5a/1x1
I0403 19:41:12.124943  9549 net.cpp:386] inception_5a/relu_1x1 -> inception_5a/1x1 (in-place)
I0403 19:41:12.125284  9549 net.cpp:141] Setting up inception_5a/relu_1x1
I0403 19:41:12.125315  9549 net.cpp:148] Top shape: 24 256 7 7 (301056)
I0403 19:41:12.125334  9549 net.cpp:156] Memory required for data: 1294534176
I0403 19:41:12.125349  9549 layer_factory.hpp:77] Creating layer inception_5a/3x3_reduce
I0403 19:41:12.125373  9549 net.cpp:91] Creating Layer inception_5a/3x3_reduce
I0403 19:41:12.125392  9549 net.cpp:425] inception_5a/3x3_reduce <- pool4/3x3_s2_pool4/3x3_s2_0_split_1
I0403 19:41:12.125416  9549 net.cpp:399] inception_5a/3x3_reduce -> inception_5a/3x3_reduce
I0403 19:41:12.128087  9549 net.cpp:141] Setting up inception_5a/3x3_reduce
I0403 19:41:12.128123  9549 net.cpp:148] Top shape: 24 160 7 7 (188160)
I0403 19:41:12.128141  9549 net.cpp:156] Memory required for data: 1295286816
I0403 19:41:12.128165  9549 layer_factory.hpp:77] Creating layer inception_5a/relu_3x3_reduce
I0403 19:41:12.128199  9549 net.cpp:91] Creating Layer inception_5a/relu_3x3_reduce
I0403 19:41:12.128224  9549 net.cpp:425] inception_5a/relu_3x3_reduce <- inception_5a/3x3_reduce
I0403 19:41:12.128245  9549 net.cpp:386] inception_5a/relu_3x3_reduce -> inception_5a/3x3_reduce (in-place)
I0403 19:41:12.128450  9549 net.cpp:141] Setting up inception_5a/relu_3x3_reduce
I0403 19:41:12.128480  9549 net.cpp:148] Top shape: 24 160 7 7 (188160)
I0403 19:41:12.128497  9549 net.cpp:156] Memory required for data: 1296039456
I0403 19:41:12.128514  9549 layer_factory.hpp:77] Creating layer inception_5a/3x3
I0403 19:41:12.128537  9549 net.cpp:91] Creating Layer inception_5a/3x3
I0403 19:41:12.128556  9549 net.cpp:425] inception_5a/3x3 <- inception_5a/3x3_reduce
I0403 19:41:12.128576  9549 net.cpp:399] inception_5a/3x3 -> inception_5a/3x3
I0403 19:41:12.134035  9549 net.cpp:141] Setting up inception_5a/3x3
I0403 19:41:12.134076  9549 net.cpp:148] Top shape: 24 320 7 7 (376320)
I0403 19:41:12.134093  9549 net.cpp:156] Memory required for data: 1297544736
I0403 19:41:12.134112  9549 layer_factory.hpp:77] Creating layer inception_5a/relu_3x3
I0403 19:41:12.134135  9549 net.cpp:91] Creating Layer inception_5a/relu_3x3
I0403 19:41:12.134151  9549 net.cpp:425] inception_5a/relu_3x3 <- inception_5a/3x3
I0403 19:41:12.134173  9549 net.cpp:386] inception_5a/relu_3x3 -> inception_5a/3x3 (in-place)
I0403 19:41:12.134495  9549 net.cpp:141] Setting up inception_5a/relu_3x3
I0403 19:41:12.134524  9549 net.cpp:148] Top shape: 24 320 7 7 (376320)
I0403 19:41:12.134541  9549 net.cpp:156] Memory required for data: 1299050016
I0403 19:41:12.134557  9549 layer_factory.hpp:77] Creating layer inception_5a/5x5_reduce
I0403 19:41:12.134582  9549 net.cpp:91] Creating Layer inception_5a/5x5_reduce
I0403 19:41:12.134601  9549 net.cpp:425] inception_5a/5x5_reduce <- pool4/3x3_s2_pool4/3x3_s2_0_split_2
I0403 19:41:12.134626  9549 net.cpp:399] inception_5a/5x5_reduce -> inception_5a/5x5_reduce
I0403 19:41:12.135880  9549 net.cpp:141] Setting up inception_5a/5x5_reduce
I0403 19:41:12.135915  9549 net.cpp:148] Top shape: 24 32 7 7 (37632)
I0403 19:41:12.135932  9549 net.cpp:156] Memory required for data: 1299200544
I0403 19:41:12.135952  9549 layer_factory.hpp:77] Creating layer inception_5a/relu_5x5_reduce
I0403 19:41:12.135974  9549 net.cpp:91] Creating Layer inception_5a/relu_5x5_reduce
I0403 19:41:12.135993  9549 net.cpp:425] inception_5a/relu_5x5_reduce <- inception_5a/5x5_reduce
I0403 19:41:12.136011  9549 net.cpp:386] inception_5a/relu_5x5_reduce -> inception_5a/5x5_reduce (in-place)
I0403 19:41:12.136337  9549 net.cpp:141] Setting up inception_5a/relu_5x5_reduce
I0403 19:41:12.136365  9549 net.cpp:148] Top shape: 24 32 7 7 (37632)
I0403 19:41:12.136381  9549 net.cpp:156] Memory required for data: 1299351072
I0403 19:41:12.136397  9549 layer_factory.hpp:77] Creating layer inception_5a/5x5
I0403 19:41:12.136422  9549 net.cpp:91] Creating Layer inception_5a/5x5
I0403 19:41:12.136441  9549 net.cpp:425] inception_5a/5x5 <- inception_5a/5x5_reduce
I0403 19:41:12.136463  9549 net.cpp:399] inception_5a/5x5 -> inception_5a/5x5
I0403 19:41:12.138317  9549 net.cpp:141] Setting up inception_5a/5x5
I0403 19:41:12.138367  9549 net.cpp:148] Top shape: 24 128 7 7 (150528)
I0403 19:41:12.138386  9549 net.cpp:156] Memory required for data: 1299953184
I0403 19:41:12.138406  9549 layer_factory.hpp:77] Creating layer inception_5a/relu_5x5
I0403 19:41:12.138424  9549 net.cpp:91] Creating Layer inception_5a/relu_5x5
I0403 19:41:12.138442  9549 net.cpp:425] inception_5a/relu_5x5 <- inception_5a/5x5
I0403 19:41:12.138463  9549 net.cpp:386] inception_5a/relu_5x5 -> inception_5a/5x5 (in-place)
I0403 19:41:12.138672  9549 net.cpp:141] Setting up inception_5a/relu_5x5
I0403 19:41:12.138700  9549 net.cpp:148] Top shape: 24 128 7 7 (150528)
I0403 19:41:12.138715  9549 net.cpp:156] Memory required for data: 1300555296
I0403 19:41:12.138731  9549 layer_factory.hpp:77] Creating layer inception_5a/pool
I0403 19:41:12.138753  9549 net.cpp:91] Creating Layer inception_5a/pool
I0403 19:41:12.138772  9549 net.cpp:425] inception_5a/pool <- pool4/3x3_s2_pool4/3x3_s2_0_split_3
I0403 19:41:12.138792  9549 net.cpp:399] inception_5a/pool -> inception_5a/pool
I0403 19:41:12.138869  9549 net.cpp:141] Setting up inception_5a/pool
I0403 19:41:12.138893  9549 net.cpp:148] Top shape: 24 832 7 7 (978432)
I0403 19:41:12.138908  9549 net.cpp:156] Memory required for data: 1304469024
I0403 19:41:12.138924  9549 layer_factory.hpp:77] Creating layer inception_5a/pool_proj
I0403 19:41:12.138947  9549 net.cpp:91] Creating Layer inception_5a/pool_proj
I0403 19:41:12.138967  9549 net.cpp:425] inception_5a/pool_proj <- inception_5a/pool
I0403 19:41:12.138990  9549 net.cpp:399] inception_5a/pool_proj -> inception_5a/pool_proj
I0403 19:41:12.141506  9549 net.cpp:141] Setting up inception_5a/pool_proj
I0403 19:41:12.141541  9549 net.cpp:148] Top shape: 24 128 7 7 (150528)
I0403 19:41:12.141558  9549 net.cpp:156] Memory required for data: 1305071136
I0403 19:41:12.141579  9549 layer_factory.hpp:77] Creating layer inception_5a/relu_pool_proj
I0403 19:41:12.141599  9549 net.cpp:91] Creating Layer inception_5a/relu_pool_proj
I0403 19:41:12.141618  9549 net.cpp:425] inception_5a/relu_pool_proj <- inception_5a/pool_proj
I0403 19:41:12.141639  9549 net.cpp:386] inception_5a/relu_pool_proj -> inception_5a/pool_proj (in-place)
I0403 19:41:12.141952  9549 net.cpp:141] Setting up inception_5a/relu_pool_proj
I0403 19:41:12.141983  9549 net.cpp:148] Top shape: 24 128 7 7 (150528)
I0403 19:41:12.141999  9549 net.cpp:156] Memory required for data: 1305673248
I0403 19:41:12.142015  9549 layer_factory.hpp:77] Creating layer inception_5a/output
I0403 19:41:12.142035  9549 net.cpp:91] Creating Layer inception_5a/output
I0403 19:41:12.142051  9549 net.cpp:425] inception_5a/output <- inception_5a/1x1
I0403 19:41:12.142069  9549 net.cpp:425] inception_5a/output <- inception_5a/3x3
I0403 19:41:12.142087  9549 net.cpp:425] inception_5a/output <- inception_5a/5x5
I0403 19:41:12.142104  9549 net.cpp:425] inception_5a/output <- inception_5a/pool_proj
I0403 19:41:12.142123  9549 net.cpp:399] inception_5a/output -> inception_5a/output
I0403 19:41:12.142179  9549 net.cpp:141] Setting up inception_5a/output
I0403 19:41:12.142204  9549 net.cpp:148] Top shape: 24 832 7 7 (978432)
I0403 19:41:12.142221  9549 net.cpp:156] Memory required for data: 1309586976
I0403 19:41:12.142236  9549 layer_factory.hpp:77] Creating layer inception_5a/output_inception_5a/output_0_split
I0403 19:41:12.142256  9549 net.cpp:91] Creating Layer inception_5a/output_inception_5a/output_0_split
I0403 19:41:12.142283  9549 net.cpp:425] inception_5a/output_inception_5a/output_0_split <- inception_5a/output
I0403 19:41:12.142308  9549 net.cpp:399] inception_5a/output_inception_5a/output_0_split -> inception_5a/output_inception_5a/output_0_split_0
I0403 19:41:12.142331  9549 net.cpp:399] inception_5a/output_inception_5a/output_0_split -> inception_5a/output_inception_5a/output_0_split_1
I0403 19:41:12.142354  9549 net.cpp:399] inception_5a/output_inception_5a/output_0_split -> inception_5a/output_inception_5a/output_0_split_2
I0403 19:41:12.142379  9549 net.cpp:399] inception_5a/output_inception_5a/output_0_split -> inception_5a/output_inception_5a/output_0_split_3
I0403 19:41:12.142500  9549 net.cpp:141] Setting up inception_5a/output_inception_5a/output_0_split
I0403 19:41:12.142526  9549 net.cpp:148] Top shape: 24 832 7 7 (978432)
I0403 19:41:12.142544  9549 net.cpp:148] Top shape: 24 832 7 7 (978432)
I0403 19:41:12.142560  9549 net.cpp:148] Top shape: 24 832 7 7 (978432)
I0403 19:41:12.142577  9549 net.cpp:148] Top shape: 24 832 7 7 (978432)
I0403 19:41:12.142591  9549 net.cpp:156] Memory required for data: 1325241888
I0403 19:41:12.142607  9549 layer_factory.hpp:77] Creating layer inception_5b/1x1
I0403 19:41:12.142632  9549 net.cpp:91] Creating Layer inception_5b/1x1
I0403 19:41:12.142650  9549 net.cpp:425] inception_5b/1x1 <- inception_5a/output_inception_5a/output_0_split_0
I0403 19:41:12.142673  9549 net.cpp:399] inception_5b/1x1 -> inception_5b/1x1
I0403 19:41:12.146745  9549 net.cpp:141] Setting up inception_5b/1x1
I0403 19:41:12.146782  9549 net.cpp:148] Top shape: 24 384 7 7 (451584)
I0403 19:41:12.146803  9549 net.cpp:156] Memory required for data: 1327048224
I0403 19:41:12.146823  9549 layer_factory.hpp:77] Creating layer inception_5b/relu_1x1
I0403 19:41:12.146843  9549 net.cpp:91] Creating Layer inception_5b/relu_1x1
I0403 19:41:12.146862  9549 net.cpp:425] inception_5b/relu_1x1 <- inception_5b/1x1
I0403 19:41:12.146880  9549 net.cpp:386] inception_5b/relu_1x1 -> inception_5b/1x1 (in-place)
I0403 19:41:12.147208  9549 net.cpp:141] Setting up inception_5b/relu_1x1
I0403 19:41:12.147238  9549 net.cpp:148] Top shape: 24 384 7 7 (451584)
I0403 19:41:12.147260  9549 net.cpp:156] Memory required for data: 1328854560
I0403 19:41:12.147280  9549 layer_factory.hpp:77] Creating layer inception_5b/3x3_reduce
I0403 19:41:12.147303  9549 net.cpp:91] Creating Layer inception_5b/3x3_reduce
I0403 19:41:12.147322  9549 net.cpp:425] inception_5b/3x3_reduce <- inception_5a/output_inception_5a/output_0_split_1
I0403 19:41:12.147346  9549 net.cpp:399] inception_5b/3x3_reduce -> inception_5b/3x3_reduce
I0403 19:41:12.150199  9549 net.cpp:141] Setting up inception_5b/3x3_reduce
I0403 19:41:12.150233  9549 net.cpp:148] Top shape: 24 192 7 7 (225792)
I0403 19:41:12.150250  9549 net.cpp:156] Memory required for data: 1329757728
I0403 19:41:12.150275  9549 layer_factory.hpp:77] Creating layer inception_5b/relu_3x3_reduce
I0403 19:41:12.150298  9549 net.cpp:91] Creating Layer inception_5b/relu_3x3_reduce
I0403 19:41:12.150317  9549 net.cpp:425] inception_5b/relu_3x3_reduce <- inception_5b/3x3_reduce
I0403 19:41:12.150336  9549 net.cpp:386] inception_5b/relu_3x3_reduce -> inception_5b/3x3_reduce (in-place)
I0403 19:41:12.150542  9549 net.cpp:141] Setting up inception_5b/relu_3x3_reduce
I0403 19:41:12.150569  9549 net.cpp:148] Top shape: 24 192 7 7 (225792)
I0403 19:41:12.150586  9549 net.cpp:156] Memory required for data: 1330660896
I0403 19:41:12.150602  9549 layer_factory.hpp:77] Creating layer inception_5b/3x3
I0403 19:41:12.150626  9549 net.cpp:91] Creating Layer inception_5b/3x3
I0403 19:41:12.150646  9549 net.cpp:425] inception_5b/3x3 <- inception_5b/3x3_reduce
I0403 19:41:12.150672  9549 net.cpp:399] inception_5b/3x3 -> inception_5b/3x3
I0403 19:41:12.157951  9549 net.cpp:141] Setting up inception_5b/3x3
I0403 19:41:12.157997  9549 net.cpp:148] Top shape: 24 384 7 7 (451584)
I0403 19:41:12.158015  9549 net.cpp:156] Memory required for data: 1332467232
I0403 19:41:12.158036  9549 layer_factory.hpp:77] Creating layer inception_5b/relu_3x3
I0403 19:41:12.158056  9549 net.cpp:91] Creating Layer inception_5b/relu_3x3
I0403 19:41:12.158076  9549 net.cpp:425] inception_5b/relu_3x3 <- inception_5b/3x3
I0403 19:41:12.158097  9549 net.cpp:386] inception_5b/relu_3x3 -> inception_5b/3x3 (in-place)
I0403 19:41:12.158422  9549 net.cpp:141] Setting up inception_5b/relu_3x3
I0403 19:41:12.158453  9549 net.cpp:148] Top shape: 24 384 7 7 (451584)
I0403 19:41:12.158471  9549 net.cpp:156] Memory required for data: 1334273568
I0403 19:41:12.158488  9549 layer_factory.hpp:77] Creating layer inception_5b/5x5_reduce
I0403 19:41:12.158546  9549 net.cpp:91] Creating Layer inception_5b/5x5_reduce
I0403 19:41:12.158566  9549 net.cpp:425] inception_5b/5x5_reduce <- inception_5a/output_inception_5a/output_0_split_2
I0403 19:41:12.158586  9549 net.cpp:399] inception_5b/5x5_reduce -> inception_5b/5x5_reduce
I0403 19:41:12.159960  9549 net.cpp:141] Setting up inception_5b/5x5_reduce
I0403 19:41:12.159992  9549 net.cpp:148] Top shape: 24 48 7 7 (56448)
I0403 19:41:12.160011  9549 net.cpp:156] Memory required for data: 1334499360
I0403 19:41:12.160030  9549 layer_factory.hpp:77] Creating layer inception_5b/relu_5x5_reduce
I0403 19:41:12.160049  9549 net.cpp:91] Creating Layer inception_5b/relu_5x5_reduce
I0403 19:41:12.160066  9549 net.cpp:425] inception_5b/relu_5x5_reduce <- inception_5b/5x5_reduce
I0403 19:41:12.160084  9549 net.cpp:386] inception_5b/relu_5x5_reduce -> inception_5b/5x5_reduce (in-place)
I0403 19:41:12.160488  9549 net.cpp:141] Setting up inception_5b/relu_5x5_reduce
I0403 19:41:12.160518  9549 net.cpp:148] Top shape: 24 48 7 7 (56448)
I0403 19:41:12.160536  9549 net.cpp:156] Memory required for data: 1334725152
I0403 19:41:12.160552  9549 layer_factory.hpp:77] Creating layer inception_5b/5x5
I0403 19:41:12.160573  9549 net.cpp:91] Creating Layer inception_5b/5x5
I0403 19:41:12.160593  9549 net.cpp:425] inception_5b/5x5 <- inception_5b/5x5_reduce
I0403 19:41:12.160612  9549 net.cpp:399] inception_5b/5x5 -> inception_5b/5x5
I0403 19:41:12.162859  9549 net.cpp:141] Setting up inception_5b/5x5
I0403 19:41:12.162892  9549 net.cpp:148] Top shape: 24 128 7 7 (150528)
I0403 19:41:12.162910  9549 net.cpp:156] Memory required for data: 1335327264
I0403 19:41:12.162930  9549 layer_factory.hpp:77] Creating layer inception_5b/relu_5x5
I0403 19:41:12.162950  9549 net.cpp:91] Creating Layer inception_5b/relu_5x5
I0403 19:41:12.162968  9549 net.cpp:425] inception_5b/relu_5x5 <- inception_5b/5x5
I0403 19:41:12.162991  9549 net.cpp:386] inception_5b/relu_5x5 -> inception_5b/5x5 (in-place)
I0403 19:41:12.163200  9549 net.cpp:141] Setting up inception_5b/relu_5x5
I0403 19:41:12.163228  9549 net.cpp:148] Top shape: 24 128 7 7 (150528)
I0403 19:41:12.163245  9549 net.cpp:156] Memory required for data: 1335929376
I0403 19:41:12.163261  9549 layer_factory.hpp:77] Creating layer inception_5b/pool
I0403 19:41:12.163287  9549 net.cpp:91] Creating Layer inception_5b/pool
I0403 19:41:12.163305  9549 net.cpp:425] inception_5b/pool <- inception_5a/output_inception_5a/output_0_split_3
I0403 19:41:12.163328  9549 net.cpp:399] inception_5b/pool -> inception_5b/pool
I0403 19:41:12.163413  9549 net.cpp:141] Setting up inception_5b/pool
I0403 19:41:12.163439  9549 net.cpp:148] Top shape: 24 832 7 7 (978432)
I0403 19:41:12.163455  9549 net.cpp:156] Memory required for data: 1339843104
I0403 19:41:12.163472  9549 layer_factory.hpp:77] Creating layer inception_5b/pool_proj
I0403 19:41:12.163497  9549 net.cpp:91] Creating Layer inception_5b/pool_proj
I0403 19:41:12.163517  9549 net.cpp:425] inception_5b/pool_proj <- inception_5b/pool
I0403 19:41:12.163540  9549 net.cpp:399] inception_5b/pool_proj -> inception_5b/pool_proj
I0403 19:41:12.166035  9549 net.cpp:141] Setting up inception_5b/pool_proj
I0403 19:41:12.166072  9549 net.cpp:148] Top shape: 24 128 7 7 (150528)
I0403 19:41:12.166090  9549 net.cpp:156] Memory required for data: 1340445216
I0403 19:41:12.166110  9549 layer_factory.hpp:77] Creating layer inception_5b/relu_pool_proj
I0403 19:41:12.166129  9549 net.cpp:91] Creating Layer inception_5b/relu_pool_proj
I0403 19:41:12.166157  9549 net.cpp:425] inception_5b/relu_pool_proj <- inception_5b/pool_proj
I0403 19:41:12.166175  9549 net.cpp:386] inception_5b/relu_pool_proj -> inception_5b/pool_proj (in-place)
I0403 19:41:12.166558  9549 net.cpp:141] Setting up inception_5b/relu_pool_proj
I0403 19:41:12.166590  9549 net.cpp:148] Top shape: 24 128 7 7 (150528)
I0403 19:41:12.166607  9549 net.cpp:156] Memory required for data: 1341047328
I0403 19:41:12.166623  9549 layer_factory.hpp:77] Creating layer inception_5b/output
I0403 19:41:12.166642  9549 net.cpp:91] Creating Layer inception_5b/output
I0403 19:41:12.166682  9549 net.cpp:425] inception_5b/output <- inception_5b/1x1
I0403 19:41:12.166702  9549 net.cpp:425] inception_5b/output <- inception_5b/3x3
I0403 19:41:12.166720  9549 net.cpp:425] inception_5b/output <- inception_5b/5x5
I0403 19:41:12.166738  9549 net.cpp:425] inception_5b/output <- inception_5b/pool_proj
I0403 19:41:12.166755  9549 net.cpp:399] inception_5b/output -> inception_5b/output
I0403 19:41:12.166813  9549 net.cpp:141] Setting up inception_5b/output
I0403 19:41:12.166839  9549 net.cpp:148] Top shape: 24 1024 7 7 (1204224)
I0403 19:41:12.166856  9549 net.cpp:156] Memory required for data: 1345864224
I0403 19:41:12.166872  9549 layer_factory.hpp:77] Creating layer pool5/7x7_s1
I0403 19:41:12.166893  9549 net.cpp:91] Creating Layer pool5/7x7_s1
I0403 19:41:12.166911  9549 net.cpp:425] pool5/7x7_s1 <- inception_5b/output
I0403 19:41:12.166931  9549 net.cpp:399] pool5/7x7_s1 -> pool5/7x7_s1
I0403 19:41:12.167166  9549 net.cpp:141] Setting up pool5/7x7_s1
I0403 19:41:12.167194  9549 net.cpp:148] Top shape: 24 1024 1 1 (24576)
I0403 19:41:12.167210  9549 net.cpp:156] Memory required for data: 1345962528
I0403 19:41:12.167227  9549 layer_factory.hpp:77] Creating layer pool5/drop_7x7_s1
I0403 19:41:12.167246  9549 net.cpp:91] Creating Layer pool5/drop_7x7_s1
I0403 19:41:12.167263  9549 net.cpp:425] pool5/drop_7x7_s1 <- pool5/7x7_s1
I0403 19:41:12.167289  9549 net.cpp:386] pool5/drop_7x7_s1 -> pool5/7x7_s1 (in-place)
I0403 19:41:12.167345  9549 net.cpp:141] Setting up pool5/drop_7x7_s1
I0403 19:41:12.167369  9549 net.cpp:148] Top shape: 24 1024 1 1 (24576)
I0403 19:41:12.167388  9549 net.cpp:156] Memory required for data: 1346060832
I0403 19:41:12.167405  9549 layer_factory.hpp:77] Creating layer loss3/classifier_plantvillage
I0403 19:41:12.167426  9549 net.cpp:91] Creating Layer loss3/classifier_plantvillage
I0403 19:41:12.167444  9549 net.cpp:425] loss3/classifier_plantvillage <- pool5/7x7_s1
I0403 19:41:12.167467  9549 net.cpp:399] loss3/classifier_plantvillage -> loss3/classifier_plantvillage
I0403 19:41:12.167927  9549 net.cpp:141] Setting up loss3/classifier_plantvillage
I0403 19:41:12.167954  9549 net.cpp:148] Top shape: 24 38 (912)
I0403 19:41:12.167969  9549 net.cpp:156] Memory required for data: 1346064480
I0403 19:41:12.167989  9549 layer_factory.hpp:77] Creating layer loss3/classifier_plantvillage_loss3/classifier_plantvillage_0_split
I0403 19:41:12.168012  9549 net.cpp:91] Creating Layer loss3/classifier_plantvillage_loss3/classifier_plantvillage_0_split
I0403 19:41:12.168030  9549 net.cpp:425] loss3/classifier_plantvillage_loss3/classifier_plantvillage_0_split <- loss3/classifier_plantvillage
I0403 19:41:12.168048  9549 net.cpp:399] loss3/classifier_plantvillage_loss3/classifier_plantvillage_0_split -> loss3/classifier_plantvillage_loss3/classifier_plantvillage_0_split_0
I0403 19:41:12.168071  9549 net.cpp:399] loss3/classifier_plantvillage_loss3/classifier_plantvillage_0_split -> loss3/classifier_plantvillage_loss3/classifier_plantvillage_0_split_1
I0403 19:41:12.168093  9549 net.cpp:399] loss3/classifier_plantvillage_loss3/classifier_plantvillage_0_split -> loss3/classifier_plantvillage_loss3/classifier_plantvillage_0_split_2
I0403 19:41:12.168118  9549 net.cpp:399] loss3/classifier_plantvillage_loss3/classifier_plantvillage_0_split -> loss3/classifier_plantvillage_loss3/classifier_plantvillage_0_split_3
I0403 19:41:12.168234  9549 net.cpp:141] Setting up loss3/classifier_plantvillage_loss3/classifier_plantvillage_0_split
I0403 19:41:12.168259  9549 net.cpp:148] Top shape: 24 38 (912)
I0403 19:41:12.168282  9549 net.cpp:148] Top shape: 24 38 (912)
I0403 19:41:12.168299  9549 net.cpp:148] Top shape: 24 38 (912)
I0403 19:41:12.168316  9549 net.cpp:148] Top shape: 24 38 (912)
I0403 19:41:12.168331  9549 net.cpp:156] Memory required for data: 1346079072
I0403 19:41:12.168346  9549 layer_factory.hpp:77] Creating layer loss1/loss
I0403 19:41:12.168370  9549 net.cpp:91] Creating Layer loss1/loss
I0403 19:41:12.168391  9549 net.cpp:425] loss1/loss <- loss1/classifier_plantvillage_loss1/classifier_plantvillage_0_split_0
I0403 19:41:12.168426  9549 net.cpp:425] loss1/loss <- label_data_1_split_0
…
