…
I0403 20:00:31.534551 10142 net.cpp:313] The NetState phase (1) differed from the phase (0) specified by a rule in layer data
I0403 20:00:31.535698 10142 net.cpp:49] Initializing net from parameters: 
state {
  phase: TEST
}
layer {
  name: "data"
  type: "Data"
  top: "data"
  top: "label"
  include {
    phase: TEST
  }
  transform_param {
    mirror: false
    crop_size: 224
    mean_file: "/home/mohanty/data/final_dataset/lmdb/color-50-50/mean.binaryproto"
  }
  data_param {
    source: "/home/mohanty/data/final_dataset/lmdb/color-50-50/test_db"
    batch_size: 24
    backend: LMDB
  }
}
layer {
  name: "conv1/7x7_s2"
  type: "Convolution"
  bottom: "data"
  top: "conv1/7x7_s2"
  param {
    lr_mult: 1
    decay_mult: 1
  }
  param {
    lr_mult: 2
    decay_mult: 0
  }
  convolution_param {
    num_output: 64
    pad: 3
    kernel_size: 7
    stride: 2
    weight_filler {
      type: "xavier"
      std: 0.1
    }
    bias_filler {
      type: "constant"
      value: 0.2
    }
  }
}
layer {
  name: "conv1/relu_7x7"
  type: "ReLU"
  bottom: "conv1/7x7_s2"
  top: "conv1/7x7_s2"
}
layer {
  name: "pool1/3x3_s2"
  type: "Pooling"
  bottom: "conv1/7x7_s2"
  top: "pool1/3x3_s2"
  pooling_param {
    pool: MAX
    kernel_size: 3
    stride: 2
  }
}
layer {
  name: "pool1/norm1"
  type: "LRN"
  bottom: "pool1/3x3_s2"
  top: "pool1/norm1"
  lrn_param {
    local_size: 5
    alpha: 0.0001
    beta: 0.75
  }
}
layer {
  name: "conv2/3x3_reduce"
  type: "Convolution"
  bottom: "pool1/norm1"
  top: "conv2/3x3_reduce"
  param {
    lr_mult: 1
    decay_mult: 1
  }
  param {
    lr_mult: 2
    decay_mult: 0
  }
  convolution_param {
    num_output: 64
    kernel_size: 1
    weight_filler {
      type: "xavier"
      std: 0.1
    }
    bias_filler {
      type: "constant"
      value: 0.2
    }
  }
}
layer {
  name: "conv2/relu_3x3_reduce"
  type: "ReLU"
  bottom: "conv2/3x3_reduce"
  top: "conv2/3x3_reduce"
}
layer {
  name: "conv2/3x3"
  type: "Convolution"
  bottom: "conv2/3x3_reduce"
  top: "conv2/3x3"
  param {
    lr_mult: 1
    decay_mult: 1
  }
  param {
    lr_mult: 2
    decay_mult: 0
  }
  convolution_param {
    num_output: 192
    pad: 1
    kernel_size: 3
    weight_filler {
      type: "xavier"
      std: 0.03
    }
    bias_filler {
      type: "constant"
      value: 0.2
    }
  }
}
layer {
  name: "conv2/relu_3x3"
  type: "ReLU"
  bottom: "conv2/3x3"
  top: "conv2/3x3"
}
layer {
  name: "conv2/norm2"
  type: "LRN"
  bottom: "conv2/3x3"
  top: "conv2/norm2"
  lrn_param {
    local_size: 5
    alpha: 0.0001
    beta: 0.75
  }
}
layer {
  name: "pool2/3x3_s2"
  type: "Pooling"
  bottom: "conv2/norm2"
  top: "pool2/3x3_s2"
  pooling_param {
    pool: MAX
    kernel_size: 3
    stride: 2
  }
}
layer {
  name: "inception_3a/1x1"
  type: "Convolution"
  bottom: "pool2/3x3_s2"
  top: "inception_3a/1x1"
  param {
    lr_mult: 1
    decay_mult: 1
  }
  param {
    lr_mult: 2
    decay_mult: 0
  }
  convolution_param {
    num_output: 64
    kernel_size: 1
    weight_filler {
      type: "xavier"
      std: 0.03
    }
    bias_filler {
      type: "constant"
      value: 0.2
    }
  }
}
layer {
  name: "inception_3a/relu_1x1"
  type: "ReLU"
  bottom: "inception_3a/1x1"
  top: "inception_3a/1x1"
}
layer {
  name: "inception_3a/3x3_reduce"
  type: "Convolution"
  bottom: "pool2/3x3_s2"
  top: "inception_3a/3x3_reduce"
  param {
    lr_mult: 1
    decay_mult: 1
  }
  param {
    lr_mult: 2
    decay_mult: 0
  }
  convolution_param {
    num_output: 96
    kernel_size: 1
    weight_filler {
      type: "xavier"
      std: 0.09
    }
    bias_filler {
      type: "constant"
      value: 0.2
    }
  }
}
layer {
  name: "inception_3a/relu_3x3_reduce"
  type: "ReLU"
  bottom: "inception_3a/3x3_reduce"
  top: "inception_3a/3x3_reduce"
}
layer {
  name: "inception_3a/3x3"
  type: "Convolution"
  bottom: "inception_3a/3x3_reduce"
  top: "inception_3a/3x3"
  param {
    lr_mult: 1
    decay_mult: 1
  }
  param {
    lr_mult: 2
    decay_mult: 0
  }
  convolution_param {
    num_output: 128
    pad: 1
    kernel_size: 3
    weight_filler {
      type: "xavier"
      std: 0.03
    }
    bias_filler {
      type: "constant"
      value: 0.2
    }
  }
}
layer {
  name: "inception_3a/relu_3x3"
  type: "ReLU"
  bottom: "inception_3a/3x3"
  top: "inception_3a/3x3"
}
layer {
  name: "inception_3a/5x5_reduce"
  type: "Convolution"
  bottom: "pool2/3x3_s2"
  top: "inception_3a/5x5_reduce"
  param {
    lr_mult: 1
    decay_mult: 1
  }
  param {
    lr_mult: 2
    decay_mult: 0
  }
  convolution_param {
    num_output: 16
    kernel_size: 1
    weight_filler {
      type: "xavier"
      std: 0.2
    }
    bias_filler {
      type: "constant"
      value: 0.2
    }
  }
}
layer {
  name: "inception_3a/relu_5x5_reduce"
  type: "ReLU"
  bottom: "inception_3a/5x5_reduce"
  top: "inception_3a/5x5_reduce"
}
layer {
  name: "inception_3a/5x5"
  type: "Convolution"
  bottom: "inception_3a/5x5_reduce"
  top: "inception_3a/5x5"
  param {
    lr_mult: 1
    decay_mult: 1
  }
  param {
    lr_mult: 2
    decay_mult: 0
  }
  convolution_param {
    num_output: 32
    pad: 2
    kernel_size: 5
    weight_filler {
      type: "xavier"
      std: 0.03
    }
    bias_filler {
      type: "constant"
      value: 0.2
    }
  }
}
layer {
  name: "inception_3a/relu_5x5"
  type: "ReLU"
  bottom: "inception_3a/5x5"
  top: "inception_3a/5x5"
}
layer {
  name: "inception_3a/pool"
  type: "Pooling"
  bottom: "pool2/3x3_s2"
  top: "inception_3a/pool"
  pooling_param {
    pool: MAX
    kernel_size: 3
    stride: 1
    pad: 1
  }
}
layer {
  name: "inception_3a/pool_proj"
  type: "Convolution"
  bottom: "inception_3a/pool"
  top: "inception_3a/pool_proj"
  param {
    lr_mult: 1
    decay_mult: 1
  }
  param {
    lr_mult: 2
    decay_mult: 0
  }
  convolution_param {
    num_output: 32
    kernel_size: 1
    weight_filler {
      type: "xavier"
      std: 0.1
    }
    bias_filler {
      type: "constant"
      value: 0.2
    }
  }
}
layer {
  name: "inception_3a/relu_pool_proj"
  type: "ReLU"
  bottom: "inception_3a/pool_proj"
  top: "inception_3a/pool_proj"
}
layer {
  name: "inception_3a/output"
  type: "Concat"
  bottom: "inception_3a/1x1"
  bottom: "inception_3a/3x3"
  bottom: "inception_3a/5x5"
  bottom: "inception_3a/pool_proj"
  top: "inception_3a/output"
}
layer {
  name: "inception_3b/1x1"
  type: "Convolution"
  bottom: "inception_3a/output"
  top: "inception_3b/1x1"
  param {
    lr_mult: 1
    decay_mult: 1
  }
  param {
    lr_mult: 2
    decay_mult: 0
  }
  convolution_param {
    num_output: 128
    kernel_size: 1
    weight_filler {
      type: "xavier"
      std: 0.03
    }
    bias_filler {
      type: "constant"
      value: 0.2
    }
  }
}
layer {
  name: "inception_3b/relu_1x1"
  type: "ReLU"
  bottom: "inception_3b/1x1"
  top: "inception_3b/1x1"
}
layer {
  name: "inception_3b/3x3_reduce"
  type: "Convolution"
  bottom: "inception_3a/output"
  top: "inception_3b/3x3_reduce"
  param {
    lr_mult: 1
    decay_mult: 1
  }
  param {
    lr_mult: 2
    decay_mult: 0
  }
  convolution_param {
    num_output: 128
    kernel_size: 1
    weight_filler {
      type: "xavier"
      std: 0.09
    }
    bias_filler {
      type: "constant"
      value: 0.2
    }
  }
}
layer {
  name: "inception_3b/relu_3x3_reduce"
  type: "ReLU"
  bottom: "inception_3b/3x3_reduce"
  top: "inception_3b/3x3_reduce"
}
layer {
  name: "inception_3b/3x3"
  type: "Convolution"
  bottom: "inception_3b/3x3_reduce"
  top: "inception_3b/3x3"
  param {
    lr_mult: 1
    decay_mult: 1
  }
  param {
    lr_mult: 2
    decay_mult: 0
  }
  convolution_param {
    num_output: 192
    pad: 1
    kernel_size: 3
    weight_filler {
      type: "xavier"
      std: 0.03
    }
    bias_filler {
      type: "constant"
      value: 0.2
    }
  }
}
layer {
  name: "inception_3b/relu_3x3"
  type: "ReLU"
  bottom: "inception_3b/3x3"
  top: "inception_3b/3x3"
}
layer {
  name: "inception_3b/5x5_reduce"
  type: "Convolution"
  bottom: "inception_3a/output"
  top: "inception_3b/5x5_reduce"
  param {
    lr_mult: 1
    decay_mult: 1
  }
  param {
    lr_mult: 2
    decay_mult: 0
  }
  convolution_param {
    num_output: 32
    kernel_size: 1
    weight_filler {
      type: "xavier"
      std: 0.2
    }
    bias_filler {
      type: "constant"
      value: 0.2
    }
  }
}
layer {
  name: "inception_3b/relu_5x5_reduce"
  type: "ReLU"
  bottom: "inception_3b/5x5_reduce"
  top: "inception_3b/5x5_reduce"
}
layer {
  name: "inception_3b/5x5"
  type: "Convolution"
  bottom: "inception_3b/5x5_reduce"
  top: "inception_3b/5x5"
  param {
    lr_mult: 1
    decay_mult: 1
  }
  param {
    lr_mult: 2
    decay_mult: 0
  }
  convolution_param {
    num_output: 96
    pad: 2
    kernel_size: 5
    weight_filler {
      type: "xavier"
      std: 0.03
    }
    bias_filler {
      type: "constant"
      value: 0.2
    }
  }
}
layer {
  name: "inception_3b/relu_5x5"
  type: "ReLU"
  bottom: "inception_3b/5x5"
  top: "inception_3b/5x5"
}
layer {
  name: "inception_3b/pool"
  type: "Pooling"
  bottom: "inception_3a/output"
  top: "inception_3b/pool"
  pooling_param {
    pool: MAX
    kernel_size: 3
    stride: 1
    pad: 1
  }
}
layer {
  name: "inception_3b/pool_proj"
  type: "Convolution"
  bottom: "inception_3b/pool"
  top: "inception_3b/pool_proj"
  param {
    lr_mult: 1
    decay_mult: 1
  }
  param {
    lr_mult: 2
    decay_mult: 0
  }
  convolution_param {
    num_output: 64
    kernel_size: 1
    weight_filler {
      type: "xavier"
      std: 0.1
    }
    bias_filler {
      type: "constant"
      value: 0.2
    }
  }
}
layer {
  name: "inception_3b/relu_pool_proj"
  type: "ReLU"
  bottom: "inception_3b/pool_proj"
  top: "inception_3b/pool_proj"
}
layer {
  name: "inception_3b/output"
  type: "Concat"
  bottom: "inception_3b/1x1"
  bottom: "inception_3b/3x3"
  bottom: "inception_3b/5x5"
  bottom: "inception_3b/pool_proj"
  top: "inception_3b/output"
}
layer {
  name: "pool3/3x3_s2"
  type: "Pooling"
  bottom: "inception_3b/output"
  top: "pool3/3x3_s2"
  pooling_param {
    pool: MAX
    kernel_size: 3
    stride: 2
  }
}
layer {
  name: "inception_4a/1x1"
  type: "Convolution"
  bottom: "pool3/3x3_s2"
  top: "inception_4a/1x1"
  param {
    lr_mult: 1
    decay_mult: 1
  }
  param {
    lr_mult: 2
    decay_mult: 0
  }
  convolution_param {
    num_output: 192
    kernel_size: 1
    weight_filler {
      type: "xavier"
      std: 0.03
    }
    bias_filler {
      type: "constant"
      value: 0.2
    }
  }
}
layer {
  name: "inception_4a/relu_1x1"
  type: "ReLU"
  bottom: "inception_4a/1x1"
  top: "inception_4a/1x1"
}
layer {
  name: "inception_4a/3x3_reduce"
  type: "Convolution"
  bottom: "pool3/3x3_s2"
  top: "inception_4a/3x3_reduce"
  param {
    lr_mult: 1
    decay_mult: 1
  }
  param {
    lr_mult: 2
    decay_mult: 0
  }
  convolution_param {
    num_output: 96
    kernel_size: 1
    weight_filler {
      type: "xavier"
      std: 0.09
    }
    bias_filler {
      type: "constant"
      value: 0.2
    }
  }
}
layer {
  name: "inception_4a/relu_3x3_reduce"
  type: "ReLU"
  bottom: "inception_4a/3x3_reduce"
  top: "inception_4a/3x3_reduce"
}
layer {
  name: "inception_4a/3x3"
  type: "Convolution"
  bottom: "inception_4a/3x3_reduce"
  top: "inception_4a/3x3"
  param {
    lr_mult: 1
    decay_mult: 1
  }
  param {
    lr_mult: 2
    decay_mult: 0
  }
  convolution_param {
    num_output: 208
    pad: 1
    kernel_size: 3
    weight_filler {
      type: "xavier"
      std: 0.03
    }
    bias_filler {
      type: "constant"
      value: 0.2
    }
  }
}
layer {
  name: "inception_4a/relu_3x3"
  type: "ReLU"
  bottom: "inception_4a/3x3"
  top: "inception_4a/3x3"
}
layer {
  name: "inception_4a/5x5_reduce"
  type: "Convolution"
  bottom: "pool3/3x3_s2"
  top: "inception_4a/5x5_reduce"
  param {
    lr_mult: 1
    decay_mult: 1
  }
  param {
    lr_mult: 2
    decay_mult: 0
  }
  convolution_param {
    num_output: 16
    kernel_size: 1
    weight_filler {
      type: "xavier"
      std: 0.2
    }
    bias_filler {
      type: "constant"
      value: 0.2
    }
  }
}
layer {
  name: "inception_4a/relu_5x5_reduce"
  type: "ReLU"
  bottom: "inception_4a/5x5_reduce"
  top: "inception_4a/5x5_reduce"
}
layer {
  name: "inception_4a/5x5"
  type: "Convolution"
  bottom: "inception_4a/5x5_reduce"
  top: "inception_4a/5x5"
  param {
    lr_mult: 1
    decay_mult: 1
  }
  param {
    lr_mult: 2
    decay_mult: 0
  }
  convolution_param {
    num_output: 48
    pad: 2
    kernel_size: 5
    weight_filler {
      type: "xavier"
      std: 0.03
    }
    bias_filler {
      type: "constant"
      value: 0.2
    }
  }
}
layer {
  name: "inception_4a/relu_5x5"
  type: "ReLU"
  bottom: "inception_4a/5x5"
  top: "inception_4a/5x5"
}
layer {
  name: "inception_4a/pool"
  type: "Pooling"
  bottom: "pool3/3x3_s2"
  top: "inception_4a/pool"
  pooling_param {
    pool: MAX
    kernel_size: 3
    stride: 1
    pad: 1
  }
}
layer {
  name: "inception_4a/pool_proj"
  type: "Convolution"
  bottom: "inception_4a/pool"
  top: "inception_4a/pool_proj"
  param {
    lr_mult: 1
    decay_mult: 1
  }
  param {
    lr_mult: 2
    decay_mult: 0
  }
  convolution_param {
    num_output: 64
    kernel_size: 1
    weight_filler {
      type: "xavier"
      std: 0.1
    }
    bias_filler {
      type: "constant"
      value: 0.2
    }
  }
}
layer {
  name: "inception_4a/relu_pool_proj"
  type: "ReLU"
  bottom: "inception_4a/pool_proj"
  top: "inception_4a/pool_proj"
}
layer {
  name: "inception_4a/output"
  type: "Concat"
  bottom: "inception_4a/1x1"
  bottom: "inception_4a/3x3"
  bottom: "inception_4a/5x5"
  bottom: "inception_4a/pool_proj"
  top: "inception_4a/output"
}
layer {
  name: "loss1/ave_pool"
  type: "Pooling"
  bottom: "inception_4a/output"
  top: "loss1/ave_pool"
  pooling_param {
    pool: AVE
    kernel_size: 5
    stride: 3
  }
}
layer {
  name: "loss1/conv"
  type: "Convolution"
  bottom: "loss1/ave_pool"
  top: "loss1/conv"
  param {
    lr_mult: 1
    decay_mult: 1
  }
  param {
    lr_mult: 2
    decay_mult: 0
  }
  convolution_param {
    num_output: 128
    kernel_size: 1
    weight_filler {
      type: "xavier"
      std: 0.08
    }
    bias_filler {
      type: "constant"
      value: 0.2
    }
  }
}
layer {
  name: "loss1/relu_conv"
  type: "ReLU"
  bottom: "loss1/conv"
  top: "loss1/conv"
}
layer {
  name: "loss1/fc"
  type: "InnerProduct"
  bottom: "loss1/conv"
  top: "loss1/fc"
  param {
    lr_mult: 1
    decay_mult: 1
  }
  param {
    lr_mult: 2
    decay_mult: 0
  }
  inner_product_param {
    num_output: 1024
    weight_filler {
      type: "xavier"
      std: 0.02
    }
    bias_filler {
      type: "constant"
      value: 0.2
    }
  }
}
layer {
  name: "loss1/relu_fc"
  type: "ReLU"
  bottom: "loss1/fc"
  top: "loss1/fc"
}
layer {
  name: "loss1/drop_fc"
  type: "Dropout"
  bottom: "loss1/fc"
  top: "loss1/fc"
  dropout_param {
    dropout_ratio: 0.7
  }
}
layer {
  name: "loss1/classifier_plantvillage"
  type: "InnerProduct"
  bottom: "loss1/fc"
  top: "loss1/classifier_plantvillage"
  param {
    lr_mult: 1
    decay_mult: 1
  }
  param {
    lr_mult: 2
    decay_mult: 0
  }
  inner_product_param {
    num_output: 38
    weight_filler {
      type: "xavier"
      std: 0.0009765625
    }
    bias_filler {
      type: "constant"
      value: 0
    }
  }
}
layer {
  name: "inception_4b/1x1"
  type: "Convolution"
  bottom: "inception_4a/output"
  top: "inception_4b/1x1"
  param {
    lr_mult: 1
    decay_mult: 1
  }
  param {
    lr_mult: 2
    decay_mult: 0
  }
  convolution_param {
    num_output: 160
    kernel_size: 1
    weight_filler {
      type: "xavier"
      std: 0.03
    }
    bias_filler {
      type: "constant"
      value: 0.2
    }
  }
}
layer {
  name: "inception_4b/relu_1x1"
  type: "ReLU"
  bottom: "inception_4b/1x1"
  top: "inception_4b/1x1"
}
layer {
  name: "inception_4b/3x3_reduce"
  type: "Convolution"
  bottom: "inception_4a/output"
  top: "inception_4b/3x3_reduce"
  param {
    lr_mult: 1
    decay_mult: 1
  }
  param {
    lr_mult: 2
    decay_mult: 0
  }
  convolution_param {
    num_output: 112
    kernel_size: 1
    weight_filler {
      type: "xavier"
      std: 0.09
    }
    bias_filler {
      type: "constant"
      value: 0.2
    }
  }
}
layer {
  name: "inception_4b/relu_3x3_reduce"
  type: "ReLU"
  bottom: "inception_4b/3x3_reduce"
  top: "inception_4b/3x3_reduce"
}
layer {
  name: "inception_4b/3x3"
  type: "Convolution"
  bottom: "inception_4b/3x3_reduce"
  top: "inception_4b/3x3"
  param {
    lr_mult: 1
    decay_mult: 1
  }
  param {
    lr_mult: 2
    decay_mult: 0
  }
  convolution_param {
    num_output: 224
    pad: 1
    kernel_size: 3
    weight_filler {
      type: "xavier"
      std: 0.03
    }
    bias_filler {
      type: "constant"
      value: 0.2
    }
  }
}
layer {
  name: "inception_4b/relu_3x3"
  type: "ReLU"
  bottom: "inception_4b/3x3"
  top: "inception_4b/3x3"
}
layer {
  name: "inception_4b/5x5_reduce"
  type: "Convolution"
  bottom: "inception_4a/output"
  top: "inception_4b/5x5_reduce"
  param {
    lr_mult: 1
    decay_mult: 1
  }
  param {
    lr_mult: 2
    decay_mult: 0
  }
  convolution_param {
    num_output: 24
    kernel_size: 1
    weight_filler {
      type: "xavier"
      std: 0.2
    }
    bias_filler {
      type: "constant"
      value: 0.2
    }
  }
}
layer {
  name: "inception_4b/relu_5x5_reduce"
  type: "ReLU"
  bottom: "inception_4b/5x5_reduce"
  top: "inception_4b/5x5_reduce"
}
layer {
  name: "inception_4b/5x5"
  type: "Convolution"
  bottom: "inception_4b/5x5_reduce"
  top: "inception_4b/5x5"
  param {
    lr_mult: 1
    decay_mult: 1
  }
  param {
    lr_mult: 2
    decay_mult: 0
  }
  convolution_param {
    num_output: 64
    pad: 2
    kernel_size: 5
    weight_filler {
      type: "xavier"
      std: 0.03
    }
    bias_filler {
      type: "constant"
      value: 0.2
    }
  }
}
layer {
  name: "inception_4b/relu_5x5"
  type: "ReLU"
  bottom: "inception_4b/5x5"
  top: "inception_4b/5x5"
}
layer {
  name: "inception_4b/pool"
  type: "Pooling"
  bottom: "inception_4a/output"
  top: "inception_4b/pool"
  pooling_param {
    pool: MAX
    kernel_size: 3
    stride: 1
    pad: 1
  }
}
layer {
  name: "inception_4b/pool_proj"
  type: "Convolution"
  bottom: "inception_4b/pool"
  top: "inception_4b/pool_proj"
  param {
    lr_mult: 1
    decay_mult: 1
  }
  param {
    lr_mult: 2
    decay_mult: 0
  }
  convolution_param {
    num_output: 64
    kernel_size: 1
    weight_filler {
      type: "xavier"
      std: 0.1
    }
    bias_filler {
      type: "constant"
      value: 0.2
    }
  }
}
layer {
  name: "inception_4b/relu_pool_proj"
  type: "ReLU"
  bottom: "inception_4b/pool_proj"
  top: "inception_4b/pool_proj"
}
layer {
  name: "inception_4b/output"
  type: "Concat"
  bottom: "inception_4b/1x1"
  bottom: "inception_4b/3x3"
  bottom: "inception_4b/5x5"
  bottom: "inception_4b/pool_proj"
  top: "inception_4b/output"
}
layer {
  name: "inception_4c/1x1"
  type: "Convolution"
  bottom: "inception_4b/output"
  top: "inception_4c/1x1"
  param {
    lr_mult: 1
    decay_mult: 1
  }
  param {
    lr_mult: 2
    decay_mult: 0
  }
  convolution_param {
    num_output: 128
    kernel_size: 1
    weight_filler {
      type: "xavier"
      std: 0.03
    }
    bias_filler {
      type: "constant"
      value: 0.2
    }
  }
}
layer {
  name: "inception_4c/relu_1x1"
  type: "ReLU"
  bottom: "inception_4c/1x1"
  top: "inception_4c/1x1"
}
layer {
  name: "inception_4c/3x3_reduce"
  type: "Convolution"
  bottom: "inception_4b/output"
  top: "inception_4c/3x3_reduce"
  param {
    lr_mult: 1
    decay_mult: 1
  }
  param {
    lr_mult: 2
    decay_mult: 0
  }
  convolution_param {
    num_output: 128
    kernel_size: 1
    weight_filler {
      type: "xavier"
      std: 0.09
    }
    bias_filler {
      type: "constant"
      value: 0.2
    }
  }
}
layer {
  name: "inception_4c/relu_3x3_reduce"
  type: "ReLU"
  bottom: "inception_4c/3x3_reduce"
  top: "inception_4c/3x3_reduce"
}
layer {
  name: "inception_4c/3x3"
  type: "Convolution"
  bottom: "inception_4c/3x3_reduce"
  top: "inception_4c/3x3"
  param {
    lr_mult: 1
    decay_mult: 1
  }
  param {
    lr_mult: 2
    decay_mult: 0
  }
  convolution_param {
    num_output: 256
    pad: 1
    kernel_size: 3
    weight_filler {
      type: "xavier"
      std: 0.03
    }
    bias_filler {
      type: "constant"
      value: 0.2
    }
  }
}
layer {
  name: "inception_4c/relu_3x3"
  type: "ReLU"
  bottom: "inception_4c/3x3"
  top: "inception_4c/3x3"
}
layer {
  name: "inception_4c/5x5_reduce"
  type: "Convolution"
  bottom: "inception_4b/output"
  top: "inception_4c/5x5_reduce"
  param {
    lr_mult: 1
    decay_mult: 1
  }
  param {
    lr_mult: 2
    decay_mult: 0
  }
  convolution_param {
    num_output: 24
    kernel_size: 1
    weight_filler {
      type: "xavier"
      std: 0.2
    }
    bias_filler {
      type: "constant"
      value: 0.2
    }
  }
}
layer {
  name: "inception_4c/relu_5x5_reduce"
  type: "ReLU"
  bottom: "inception_4c/5x5_reduce"
  top: "inception_4c/5x5_reduce"
}
layer {
  name: "inception_4c/5x5"
  type: "Convolution"
  bottom: "inception_4c/5x5_reduce"
  top: "inception_4c/5x5"
  param {
    lr_mult: 1
    decay_mult: 1
  }
  param {
    lr_mult: 2
    decay_mult: 0
  }
  convolution_param {
    num_output: 64
    pad: 2
    kernel_size: 5
    weight_filler {
      type: "xavier"
      std: 0.03
    }
    bias_filler {
      type: "constant"
      value: 0.2
    }
  }
}
layer {
  name: "inception_4c/relu_5x5"
  type: "ReLU"
  bottom: "inception_4c/5x5"
  top: "inception_4c/5x5"
}
layer {
  name: "inception_4c/pool"
  type: "Pooling"
  bottom: "inception_4b/output"
  top: "inception_4c/pool"
  pooling_param {
    pool: MAX
    kernel_size: 3
    stride: 1
    pad: 1
  }
}
layer {
  name: "inception_4c/pool_proj"
  type: "Convolution"
  bottom: "inception_4c/pool"
  top: "inception_4c/pool_proj"
  param {
    lr_mult: 1
    decay_mult: 1
  }
  param {
    lr_mult: 2
    decay_mult: 0
  }
  convolution_param {
    num_output: 64
    kernel_size: 1
    weight_filler {
      type: "xavier"
      std: 0.1
    }
    bias_filler {
      type: "constant"
      value: 0.2
    }
  }
}
layer {
  name: "inception_4c/relu_pool_proj"
  type: "ReLU"
  bottom: "inception_4c/pool_proj"
  top: "inception_4c/pool_proj"
}
layer {
  name: "inception_4c/output"
  type: "Concat"
  bottom: "inception_4c/1x1"
  bottom: "inception_4c/3x3"
  bottom: "inception_4c/5x5"
  bottom: "inception_4c/pool_proj"
  top: "inception_4c/output"
}
layer {
  name: "inception_4d/1x1"
  type: "Convolution"
  bottom: "inception_4c/output"
  top: "inception_4d/1x1"
  param {
    lr_mult: 1
    decay_mult: 1
  }
  param {
    lr_mult: 2
    decay_mult: 0
  }
  convolution_param {
    num_output: 112
    kernel_size: 1
    weight_filler {
      type: "xavier"
      std: 0.03
    }
    bias_filler {
      type: "constant"
      value: 0.2
    }
  }
}
layer {
  name: "inception_4d/relu_1x1"
  type: "ReLU"
  bottom: "inception_4d/1x1"
  top: "inception_4d/1x1"
}
layer {
  name: "inception_4d/3x3_reduce"
  type: "Convolution"
  bottom: "inception_4c/output"
  top: "inception_4d/3x3_reduce"
  param {
    lr_mult: 1
    decay_mult: 1
  }
  param {
    lr_mult: 2
    decay_mult: 0
  }
  convolution_param {
    num_output: 144
    kernel_size: 1
    weight_filler {
      type: "xavier"
      std: 0.09
    }
    bias_filler {
      type: "constant"
      value: 0.2
    }
  }
}
layer {
  name: "inception_4d/relu_3x3_reduce"
  type: "ReLU"
  bottom: "inception_4d/3x3_reduce"
  top: "inception_4d/3x3_reduce"
}
layer {
  name: "inception_4d/3x3"
  type: "Convolution"
  bottom: "inception_4d/3x3_reduce"
  top: "inception_4d/3x3"
  param {
    lr_mult: 1
    decay_mult: 1
  }
  param {
    lr_mult: 2
    decay_mult: 0
  }
  convolution_param {
    num_output: 288
    pad: 1
    kernel_size: 3
    weight_filler {
      type: "xavier"
      std: 0.03
    }
    bias_filler {
      type: "constant"
      value: 0.2
    }
  }
}
layer {
  name: "inception_4d/relu_3x3"
  type: "ReLU"
  bottom: "inception_4d/3x3"
  top: "inception_4d/3x3"
}
layer {
  name: "inception_4d/5x5_reduce"
  type: "Convolution"
  bottom: "inception_4c/output"
  top: "inception_4d/5x5_reduce"
  param {
    lr_mult: 1
    decay_mult: 1
  }
  param {
    lr_mult: 2
    decay_mult: 0
  }
  convolution_param {
    num_output: 32
    kernel_size: 1
    weight_filler {
      type: "xavier"
      std: 0.2
    }
    bias_filler {
      type: "constant"
      value: 0.2
    }
  }
}
layer {
  name: "inception_4d/relu_5x5_reduce"
  type: "ReLU"
  bottom: "inception_4d/5x5_reduce"
  top: "inception_4d/5x5_reduce"
}
layer {
  name: "inception_4d/5x5"
  type: "Convolution"
  bottom: "inception_4d/5x5_reduce"
  top: "inception_4d/5x5"
  param {
    lr_mult: 1
    decay_mult: 1
  }
  param {
    lr_mult: 2
    decay_mult: 0
  }
  convolution_param {
    num_output: 64
    pad: 2
    kernel_size: 5
    weight_filler {
      type: "xavier"
      std: 0.03
    }
    bias_filler {
      type: "constant"
      value: 0.2
    }
  }
}
layer {
  name: "inception_4d/relu_5x5"
  type: "ReLU"
  bottom: "inception_4d/5x5"
  top: "inception_4d/5x5"
}
layer {
  name: "inception_4d/pool"
  type: "Pooling"
  bottom: "inception_4c/output"
  top: "inception_4d/pool"
  pooling_param {
    pool: MAX
    kernel_size: 3
    stride: 1
    pad: 1
  }
}
layer {
  name: "inception_4d/pool_proj"
  type: "Convolution"
  bottom: "inception_4d/pool"
  top: "inception_4d/pool_proj"
  param {
    lr_mult: 1
    decay_mult: 1
  }
  param {
    lr_mult: 2
    decay_mult: 0
  }
  convolution_param {
    num_output: 64
    kernel_size: 1
    weight_filler {
      type: "xavier"
      std: 0.1
    }
    bias_filler {
      type: "constant"
      value: 0.2
    }
  }
}
layer {
  name: "inception_4d/relu_pool_proj"
  type: "ReLU"
  bottom: "inception_4d/pool_proj"
  top: "inception_4d/pool_proj"
}
layer {
  name: "inception_4d/output"
  type: "Concat"
  bottom: "inception_4d/1x1"
  bottom: "inception_4d/3x3"
  bottom: "inception_4d/5x5"
  bottom: "inception_4d/pool_proj"
  top: "inception_4d/output"
}
layer {
  name: "loss2/ave_pool"
  type: "Pooling"
  bottom: "inception_4d/output"
  top: "loss2/ave_pool"
  pooling_param {
    pool: AVE
    kernel_size: 5
    stride: 3
  }
}
layer {
  name: "loss2/conv"
  type: "Convolution"
  bottom: "loss2/ave_pool"
  top: "loss2/conv"
  param {
    lr_mult: 1
    decay_mult: 1
  }
  param {
    lr_mult: 2
    decay_mult: 0
  }
  convolution_param {
    num_output: 128
    kernel_size: 1
    weight_filler {
      type: "xavier"
      std: 0.08
    }
    bias_filler {
      type: "constant"
      value: 0.2
    }
  }
}
layer {
  name: "loss2/relu_conv"
  type: "ReLU"
  bottom: "loss2/conv"
  top: "loss2/conv"
}
layer {
  name: "loss2/fc"
  type: "InnerProduct"
  bottom: "loss2/conv"
  top: "loss2/fc"
  param {
    lr_mult: 1
    decay_mult: 1
  }
  param {
    lr_mult: 2
    decay_mult: 0
  }
  inner_product_param {
    num_output: 1024
    weight_filler {
      type: "xavier"
      std: 0.02
    }
    bias_filler {
      type: "constant"
      value: 0.2
    }
  }
}
layer {
  name: "loss2/relu_fc"
  type: "ReLU"
  bottom: "loss2/fc"
  top: "loss2/fc"
}
layer {
  name: "loss2/drop_fc"
  type: "Dropout"
  bottom: "loss2/fc"
  top: "loss2/fc"
  dropout_param {
    dropout_ratio: 0.7
  }
}
layer {
  name: "loss2/classifier_plantvillage"
  type: "InnerProduct"
  bottom: "loss2/fc"
  top: "loss2/classifier_plantvillage"
  param {
    lr_mult: 1
    decay_mult: 1
  }
  param {
    lr_mult: 2
    decay_mult: 0
  }
  inner_product_param {
    num_output: 38
    weight_filler {
      type: "xavier"
      std: 0.0009765625
    }
    bias_filler {
      type: "constant"
      value: 0
    }
  }
}
layer {
  name: "inception_4e/1x1"
  type: "Convolution"
  bottom: "inception_4d/output"
  top: "inception_4e/1x1"
  param {
    lr_mult: 1
    decay_mult: 1
  }
  param {
    lr_mult: 2
    decay_mult: 0
  }
  convolution_param {
    num_output: 256
    kernel_size: 1
    weight_filler {
      type: "xavier"
      std: 0.03
    }
    bias_filler {
      type: "constant"
      value: 0.2
    }
  }
}
layer {
  name: "inception_4e/relu_1x1"
  type: "ReLU"
  bottom: "inception_4e/1x1"
  top: "inception_4e/1x1"
}
layer {
  name: "inception_4e/3x3_reduce"
  type: "Convolution"
  bottom: "inception_4d/output"
  top: "inception_4e/3x3_reduce"
  param {
    lr_mult: 1
    decay_mult: 1
  }
  param {
    lr_mult: 2
    decay_mult: 0
  }
  convolution_param {
    num_output: 160
    kernel_size: 1
    weight_filler {
      type: "xavier"
      std: 0.09
    }
    bias_filler {
      type: "constant"
      value: 0.2
    }
  }
}
layer {
  name: "inception_4e/relu_3x3_reduce"
  type: "ReLU"
  bottom: "inception_4e/3x3_reduce"
  top: "inception_4e/3x3_reduce"
}
layer {
  name: "inception_4e/3x3"
  type: "Convolution"
  bottom: "inception_4e/3x3_reduce"
  top: "inception_4e/3x3"
  param {
    lr_mult: 1
    decay_mult: 1
  }
  param {
    lr_mult: 2
    decay_mult: 0
  }
  convolution_param {
    num_output: 320
    pad: 1
    kernel_size: 3
    weight_filler {
      type: "xavier"
      std: 0.03
    }
    bias_filler {
      type: "constant"
      value: 0.2
    }
  }
}
layer {
  name: "inception_4e/relu_3x3"
  type: "ReLU"
  bottom: "inception_4e/3x3"
  top: "inception_4e/3x3"
}
layer {
  name: "inception_4e/5x5_reduce"
  type: "Convolution"
  bottom: "inception_4d/output"
  top: "inception_4e/5x5_reduce"
  param {
    lr_mult: 1
    decay_mult: 1
  }
  param {
    lr_mult: 2
    decay_mult: 0
  }
  convolution_param {
    num_output: 32
    kernel_size: 1
    weight_filler {
      type: "xavier"
      std: 0.2
    }
    bias_filler {
      type: "constant"
      value: 0.2
    }
  }
}
layer {
  name: "inception_4e/relu_5x5_reduce"
  type: "ReLU"
  bottom: "inception_4e/5x5_reduce"
  top: "inception_4e/5x5_reduce"
}
layer {
  name: "inception_4e/5x5"
  type: "Convolution"
  bottom: "inception_4e/5x5_reduce"
  top: "inception_4e/5x5"
  p
I0403 20:00:31.537087 10142 layer_factory.hpp:77] Creating layer data
I0403 20:00:31.537678 10142 net.cpp:91] Creating Layer data
I0403 20:00:31.537710 10142 net.cpp:399] data -> data
I0403 20:00:31.537761 10142 net.cpp:399] data -> label
I0403 20:00:31.537796 10142 data_transformer.cpp:25] Loading mean file from: /home/mohanty/data/final_dataset/lmdb/color-50-50/mean.binaryproto
I0403 20:00:31.538874 10145 db_lmdb.cpp:38] Opened lmdb /home/mohanty/data/final_dataset/lmdb/color-50-50/test_db
I0403 20:00:31.550849 10142 data_layer.cpp:41] output data size: 24,3,224,224
I0403 20:00:31.577487 10142 net.cpp:141] Setting up data
I0403 20:00:31.577569 10142 net.cpp:148] Top shape: 24 3 224 224 (3612672)
I0403 20:00:31.577590 10142 net.cpp:148] Top shape: 24 (24)
I0403 20:00:31.577605 10142 net.cpp:156] Memory required for data: 14450784
I0403 20:00:31.577630 10142 layer_factory.hpp:77] Creating layer label_data_1_split
I0403 20:00:31.577656 10142 net.cpp:91] Creating Layer label_data_1_split
I0403 20:00:31.577674 10142 net.cpp:425] label_data_1_split <- label
I0403 20:00:31.577705 10142 net.cpp:399] label_data_1_split -> label_data_1_split_0
I0403 20:00:31.577731 10142 net.cpp:399] label_data_1_split -> label_data_1_split_1
I0403 20:00:31.577752 10142 net.cpp:399] label_data_1_split -> label_data_1_split_2
I0403 20:00:31.577772 10142 net.cpp:399] label_data_1_split -> label_data_1_split_3
I0403 20:00:31.577791 10142 net.cpp:399] label_data_1_split -> label_data_1_split_4
I0403 20:00:31.577811 10142 net.cpp:399] label_data_1_split -> label_data_1_split_5
I0403 20:00:31.577829 10142 net.cpp:399] label_data_1_split -> label_data_1_split_6
I0403 20:00:31.577850 10142 net.cpp:399] label_data_1_split -> label_data_1_split_7
I0403 20:00:31.577868 10142 net.cpp:399] label_data_1_split -> label_data_1_split_8
I0403 20:00:31.577888 10142 net.cpp:399] label_data_1_split -> label_data_1_split_9
I0403 20:00:31.578001 10142 net.cpp:141] Setting up label_data_1_split
I0403 20:00:31.578024 10142 net.cpp:148] Top shape: 24 (24)
I0403 20:00:31.578040 10142 net.cpp:148] Top shape: 24 (24)
I0403 20:00:31.578057 10142 net.cpp:148] Top shape: 24 (24)
I0403 20:00:31.578071 10142 net.cpp:148] Top shape: 24 (24)
I0403 20:00:31.578086 10142 net.cpp:148] Top shape: 24 (24)
I0403 20:00:31.578101 10142 net.cpp:148] Top shape: 24 (24)
I0403 20:00:31.578116 10142 net.cpp:148] Top shape: 24 (24)
I0403 20:00:31.578132 10142 net.cpp:148] Top shape: 24 (24)
I0403 20:00:31.578148 10142 net.cpp:148] Top shape: 24 (24)
I0403 20:00:31.578164 10142 net.cpp:148] Top shape: 24 (24)
I0403 20:00:31.578207 10142 net.cpp:156] Memory required for data: 14451744
I0403 20:00:31.578222 10142 layer_factory.hpp:77] Creating layer conv1/7x7_s2
I0403 20:00:31.578259 10142 net.cpp:91] Creating Layer conv1/7x7_s2
I0403 20:00:31.578279 10142 net.cpp:425] conv1/7x7_s2 <- data
I0403 20:00:31.578299 10142 net.cpp:399] conv1/7x7_s2 -> conv1/7x7_s2
I0403 20:00:31.713523 10142 net.cpp:141] Setting up conv1/7x7_s2
I0403 20:00:31.713608 10142 net.cpp:148] Top shape: 24 64 112 112 (19267584)
I0403 20:00:31.713624 10142 net.cpp:156] Memory required for data: 91522080
I0403 20:00:31.713655 10142 layer_factory.hpp:77] Creating layer conv1/relu_7x7
I0403 20:00:31.713682 10142 net.cpp:91] Creating Layer conv1/relu_7x7
I0403 20:00:31.713701 10142 net.cpp:425] conv1/relu_7x7 <- conv1/7x7_s2
I0403 20:00:31.713721 10142 net.cpp:386] conv1/relu_7x7 -> conv1/7x7_s2 (in-place)
I0403 20:00:31.713975 10142 net.cpp:141] Setting up conv1/relu_7x7
I0403 20:00:31.714002 10142 net.cpp:148] Top shape: 24 64 112 112 (19267584)
I0403 20:00:31.714017 10142 net.cpp:156] Memory required for data: 168592416
I0403 20:00:31.714032 10142 layer_factory.hpp:77] Creating layer pool1/3x3_s2
I0403 20:00:31.714057 10142 net.cpp:91] Creating Layer pool1/3x3_s2
I0403 20:00:31.714076 10142 net.cpp:425] pool1/3x3_s2 <- conv1/7x7_s2
I0403 20:00:31.714092 10142 net.cpp:399] pool1/3x3_s2 -> pool1/3x3_s2
I0403 20:00:31.714165 10142 net.cpp:141] Setting up pool1/3x3_s2
I0403 20:00:31.714190 10142 net.cpp:148] Top shape: 24 64 56 56 (4816896)
I0403 20:00:31.714205 10142 net.cpp:156] Memory required for data: 187860000
I0403 20:00:31.714220 10142 layer_factory.hpp:77] Creating layer pool1/norm1
I0403 20:00:31.714247 10142 net.cpp:91] Creating Layer pool1/norm1
I0403 20:00:31.714267 10142 net.cpp:425] pool1/norm1 <- pool1/3x3_s2
I0403 20:00:31.714283 10142 net.cpp:399] pool1/norm1 -> pool1/norm1
I0403 20:00:31.714565 10142 net.cpp:141] Setting up pool1/norm1
I0403 20:00:31.714591 10142 net.cpp:148] Top shape: 24 64 56 56 (4816896)
I0403 20:00:31.714607 10142 net.cpp:156] Memory required for data: 207127584
I0403 20:00:31.714622 10142 layer_factory.hpp:77] Creating layer conv2/3x3_reduce
I0403 20:00:31.714645 10142 net.cpp:91] Creating Layer conv2/3x3_reduce
I0403 20:00:31.714663 10142 net.cpp:425] conv2/3x3_reduce <- pool1/norm1
I0403 20:00:31.714680 10142 net.cpp:399] conv2/3x3_reduce -> conv2/3x3_reduce
I0403 20:00:31.716006 10142 net.cpp:141] Setting up conv2/3x3_reduce
I0403 20:00:31.716035 10142 net.cpp:148] Top shape: 24 64 56 56 (4816896)
I0403 20:00:31.716051 10142 net.cpp:156] Memory required for data: 226395168
I0403 20:00:31.716073 10142 layer_factory.hpp:77] Creating layer conv2/relu_3x3_reduce
I0403 20:00:31.716091 10142 net.cpp:91] Creating Layer conv2/relu_3x3_reduce
I0403 20:00:31.716107 10142 net.cpp:425] conv2/relu_3x3_reduce <- conv2/3x3_reduce
I0403 20:00:31.716125 10142 net.cpp:386] conv2/relu_3x3_reduce -> conv2/3x3_reduce (in-place)
I0403 20:00:31.716389 10142 net.cpp:141] Setting up conv2/relu_3x3_reduce
I0403 20:00:31.716416 10142 net.cpp:148] Top shape: 24 64 56 56 (4816896)
I0403 20:00:31.716434 10142 net.cpp:156] Memory required for data: 245662752
I0403 20:00:31.716447 10142 layer_factory.hpp:77] Creating layer conv2/3x3
I0403 20:00:31.716480 10142 net.cpp:91] Creating Layer conv2/3x3
I0403 20:00:31.716498 10142 net.cpp:425] conv2/3x3 <- conv2/3x3_reduce
I0403 20:00:31.716517 10142 net.cpp:399] conv2/3x3 -> conv2/3x3
I0403 20:00:31.718791 10142 net.cpp:141] Setting up conv2/3x3
I0403 20:00:31.718822 10142 net.cpp:148] Top shape: 24 192 56 56 (14450688)
I0403 20:00:31.718838 10142 net.cpp:156] Memory required for data: 303465504
I0403 20:00:31.718859 10142 layer_factory.hpp:77] Creating layer conv2/relu_3x3
I0403 20:00:31.718880 10142 net.cpp:91] Creating Layer conv2/relu_3x3
I0403 20:00:31.718897 10142 net.cpp:425] conv2/relu_3x3 <- conv2/3x3
I0403 20:00:31.718915 10142 net.cpp:386] conv2/relu_3x3 -> conv2/3x3 (in-place)
I0403 20:00:31.719094 10142 net.cpp:141] Setting up conv2/relu_3x3
I0403 20:00:31.719118 10142 net.cpp:148] Top shape: 24 192 56 56 (14450688)
I0403 20:00:31.719164 10142 net.cpp:156] Memory required for data: 361268256
I0403 20:00:31.719179 10142 layer_factory.hpp:77] Creating layer conv2/norm2
I0403 20:00:31.719197 10142 net.cpp:91] Creating Layer conv2/norm2
I0403 20:00:31.719213 10142 net.cpp:425] conv2/norm2 <- conv2/3x3
I0403 20:00:31.719233 10142 net.cpp:399] conv2/norm2 -> conv2/norm2
I0403 20:00:31.719542 10142 net.cpp:141] Setting up conv2/norm2
I0403 20:00:31.719568 10142 net.cpp:148] Top shape: 24 192 56 56 (14450688)
I0403 20:00:31.719583 10142 net.cpp:156] Memory required for data: 419071008
I0403 20:00:31.719597 10142 layer_factory.hpp:77] Creating layer pool2/3x3_s2
I0403 20:00:31.719614 10142 net.cpp:91] Creating Layer pool2/3x3_s2
I0403 20:00:31.719630 10142 net.cpp:425] pool2/3x3_s2 <- conv2/norm2
I0403 20:00:31.719650 10142 net.cpp:399] pool2/3x3_s2 -> pool2/3x3_s2
I0403 20:00:31.719703 10142 net.cpp:141] Setting up pool2/3x3_s2
I0403 20:00:31.719725 10142 net.cpp:148] Top shape: 24 192 28 28 (3612672)
I0403 20:00:31.719740 10142 net.cpp:156] Memory required for data: 433521696
I0403 20:00:31.719754 10142 layer_factory.hpp:77] Creating layer pool2/3x3_s2_pool2/3x3_s2_0_split
I0403 20:00:31.719774 10142 net.cpp:91] Creating Layer pool2/3x3_s2_pool2/3x3_s2_0_split
I0403 20:00:31.719790 10142 net.cpp:425] pool2/3x3_s2_pool2/3x3_s2_0_split <- pool2/3x3_s2
I0403 20:00:31.719810 10142 net.cpp:399] pool2/3x3_s2_pool2/3x3_s2_0_split -> pool2/3x3_s2_pool2/3x3_s2_0_split_0
I0403 20:00:31.719830 10142 net.cpp:399] pool2/3x3_s2_pool2/3x3_s2_0_split -> pool2/3x3_s2_pool2/3x3_s2_0_split_1
I0403 20:00:31.719849 10142 net.cpp:399] pool2/3x3_s2_pool2/3x3_s2_0_split -> pool2/3x3_s2_pool2/3x3_s2_0_split_2
I0403 20:00:31.719869 10142 net.cpp:399] pool2/3x3_s2_pool2/3x3_s2_0_split -> pool2/3x3_s2_pool2/3x3_s2_0_split_3
I0403 20:00:31.719939 10142 net.cpp:141] Setting up pool2/3x3_s2_pool2/3x3_s2_0_split
I0403 20:00:31.719964 10142 net.cpp:148] Top shape: 24 192 28 28 (3612672)
I0403 20:00:31.719980 10142 net.cpp:148] Top shape: 24 192 28 28 (3612672)
I0403 20:00:31.719996 10142 net.cpp:148] Top shape: 24 192 28 28 (3612672)
I0403 20:00:31.720011 10142 net.cpp:148] Top shape: 24 192 28 28 (3612672)
I0403 20:00:31.720024 10142 net.cpp:156] Memory required for data: 491324448
I0403 20:00:31.720038 10142 layer_factory.hpp:77] Creating layer inception_3a/1x1
I0403 20:00:31.720060 10142 net.cpp:91] Creating Layer inception_3a/1x1
I0403 20:00:31.720077 10142 net.cpp:425] inception_3a/1x1 <- pool2/3x3_s2_pool2/3x3_s2_0_split_0
I0403 20:00:31.720096 10142 net.cpp:399] inception_3a/1x1 -> inception_3a/1x1
I0403 20:00:31.721648 10142 net.cpp:141] Setting up inception_3a/1x1
I0403 20:00:31.721678 10142 net.cpp:148] Top shape: 24 64 28 28 (1204224)
I0403 20:00:31.721693 10142 net.cpp:156] Memory required for data: 496141344
I0403 20:00:31.721711 10142 layer_factory.hpp:77] Creating layer inception_3a/relu_1x1
I0403 20:00:31.721735 10142 net.cpp:91] Creating Layer inception_3a/relu_1x1
I0403 20:00:31.721752 10142 net.cpp:425] inception_3a/relu_1x1 <- inception_3a/1x1
I0403 20:00:31.721771 10142 net.cpp:386] inception_3a/relu_1x1 -> inception_3a/1x1 (in-place)
I0403 20:00:31.721954 10142 net.cpp:141] Setting up inception_3a/relu_1x1
I0403 20:00:31.721982 10142 net.cpp:148] Top shape: 24 64 28 28 (1204224)
I0403 20:00:31.722002 10142 net.cpp:156] Memory required for data: 500958240
I0403 20:00:31.722018 10142 layer_factory.hpp:77] Creating layer inception_3a/3x3_reduce
I0403 20:00:31.722039 10142 net.cpp:91] Creating Layer inception_3a/3x3_reduce
I0403 20:00:31.722055 10142 net.cpp:425] inception_3a/3x3_reduce <- pool2/3x3_s2_pool2/3x3_s2_0_split_1
I0403 20:00:31.722074 10142 net.cpp:399] inception_3a/3x3_reduce -> inception_3a/3x3_reduce
I0403 20:00:31.723788 10142 net.cpp:141] Setting up inception_3a/3x3_reduce
I0403 20:00:31.723819 10142 net.cpp:148] Top shape: 24 96 28 28 (1806336)
I0403 20:00:31.723834 10142 net.cpp:156] Memory required for data: 508183584
I0403 20:00:31.723857 10142 layer_factory.hpp:77] Creating layer inception_3a/relu_3x3_reduce
I0403 20:00:31.723896 10142 net.cpp:91] Creating Layer inception_3a/relu_3x3_reduce
I0403 20:00:31.723917 10142 net.cpp:425] inception_3a/relu_3x3_reduce <- inception_3a/3x3_reduce
I0403 20:00:31.723937 10142 net.cpp:386] inception_3a/relu_3x3_reduce -> inception_3a/3x3_reduce (in-place)
I0403 20:00:31.724122 10142 net.cpp:141] Setting up inception_3a/relu_3x3_reduce
I0403 20:00:31.724148 10142 net.cpp:148] Top shape: 24 96 28 28 (1806336)
I0403 20:00:31.724164 10142 net.cpp:156] Memory required for data: 515408928
I0403 20:00:31.724185 10142 layer_factory.hpp:77] Creating layer inception_3a/3x3
I0403 20:00:31.724210 10142 net.cpp:91] Creating Layer inception_3a/3x3
I0403 20:00:31.724228 10142 net.cpp:425] inception_3a/3x3 <- inception_3a/3x3_reduce
I0403 20:00:31.724256 10142 net.cpp:399] inception_3a/3x3 -> inception_3a/3x3
I0403 20:00:31.725884 10142 net.cpp:141] Setting up inception_3a/3x3
I0403 20:00:31.725914 10142 net.cpp:148] Top shape: 24 128 28 28 (2408448)
I0403 20:00:31.725930 10142 net.cpp:156] Memory required for data: 525042720
I0403 20:00:31.725947 10142 layer_factory.hpp:77] Creating layer inception_3a/relu_3x3
I0403 20:00:31.725965 10142 net.cpp:91] Creating Layer inception_3a/relu_3x3
I0403 20:00:31.725980 10142 net.cpp:425] inception_3a/relu_3x3 <- inception_3a/3x3
I0403 20:00:31.725997 10142 net.cpp:386] inception_3a/relu_3x3 -> inception_3a/3x3 (in-place)
I0403 20:00:31.726261 10142 net.cpp:141] Setting up inception_3a/relu_3x3
I0403 20:00:31.726289 10142 net.cpp:148] Top shape: 24 128 28 28 (2408448)
I0403 20:00:31.726303 10142 net.cpp:156] Memory required for data: 534676512
I0403 20:00:31.726318 10142 layer_factory.hpp:77] Creating layer inception_3a/5x5_reduce
I0403 20:00:31.726337 10142 net.cpp:91] Creating Layer inception_3a/5x5_reduce
I0403 20:00:31.726353 10142 net.cpp:425] inception_3a/5x5_reduce <- pool2/3x3_s2_pool2/3x3_s2_0_split_2
I0403 20:00:31.726374 10142 net.cpp:399] inception_3a/5x5_reduce -> inception_3a/5x5_reduce
I0403 20:00:31.727295 10142 net.cpp:141] Setting up inception_3a/5x5_reduce
I0403 20:00:31.727325 10142 net.cpp:148] Top shape: 24 16 28 28 (301056)
I0403 20:00:31.727341 10142 net.cpp:156] Memory required for data: 535880736
I0403 20:00:31.727360 10142 layer_factory.hpp:77] Creating layer inception_3a/relu_5x5_reduce
I0403 20:00:31.727377 10142 net.cpp:91] Creating Layer inception_3a/relu_5x5_reduce
I0403 20:00:31.727393 10142 net.cpp:425] inception_3a/relu_5x5_reduce <- inception_3a/5x5_reduce
I0403 20:00:31.727411 10142 net.cpp:386] inception_3a/relu_5x5_reduce -> inception_3a/5x5_reduce (in-place)
I0403 20:00:31.727681 10142 net.cpp:141] Setting up inception_3a/relu_5x5_reduce
I0403 20:00:31.727706 10142 net.cpp:148] Top shape: 24 16 28 28 (301056)
I0403 20:00:31.727720 10142 net.cpp:156] Memory required for data: 537084960
I0403 20:00:31.727735 10142 layer_factory.hpp:77] Creating layer inception_3a/5x5
I0403 20:00:31.727757 10142 net.cpp:91] Creating Layer inception_3a/5x5
I0403 20:00:31.727774 10142 net.cpp:425] inception_3a/5x5 <- inception_3a/5x5_reduce
I0403 20:00:31.727794 10142 net.cpp:399] inception_3a/5x5 -> inception_3a/5x5
I0403 20:00:31.728765 10142 net.cpp:141] Setting up inception_3a/5x5
I0403 20:00:31.728792 10142 net.cpp:148] Top shape: 24 32 28 28 (602112)
I0403 20:00:31.728807 10142 net.cpp:156] Memory required for data: 539493408
I0403 20:00:31.728824 10142 layer_factory.hpp:77] Creating layer inception_3a/relu_5x5
I0403 20:00:31.728845 10142 net.cpp:91] Creating Layer inception_3a/relu_5x5
I0403 20:00:31.728862 10142 net.cpp:425] inception_3a/relu_5x5 <- inception_3a/5x5
I0403 20:00:31.728879 10142 net.cpp:386] inception_3a/relu_5x5 -> inception_3a/5x5 (in-place)
I0403 20:00:31.729048 10142 net.cpp:141] Setting up inception_3a/relu_5x5
I0403 20:00:31.729073 10142 net.cpp:148] Top shape: 24 32 28 28 (602112)
I0403 20:00:31.729087 10142 net.cpp:156] Memory required for data: 541901856
I0403 20:00:31.729102 10142 layer_factory.hpp:77] Creating layer inception_3a/pool
I0403 20:00:31.729120 10142 net.cpp:91] Creating Layer inception_3a/pool
I0403 20:00:31.729135 10142 net.cpp:425] inception_3a/pool <- pool2/3x3_s2_pool2/3x3_s2_0_split_3
I0403 20:00:31.729169 10142 net.cpp:399] inception_3a/pool -> inception_3a/pool
I0403 20:00:31.729225 10142 net.cpp:141] Setting up inception_3a/pool
I0403 20:00:31.729251 10142 net.cpp:148] Top shape: 24 192 28 28 (3612672)
I0403 20:00:31.729266 10142 net.cpp:156] Memory required for data: 556352544
I0403 20:00:31.729280 10142 layer_factory.hpp:77] Creating layer inception_3a/pool_proj
I0403 20:00:31.729302 10142 net.cpp:91] Creating Layer inception_3a/pool_proj
I0403 20:00:31.729320 10142 net.cpp:425] inception_3a/pool_proj <- inception_3a/pool
I0403 20:00:31.729341 10142 net.cpp:399] inception_3a/pool_proj -> inception_3a/pool_proj
I0403 20:00:31.730271 10142 net.cpp:141] Setting up inception_3a/pool_proj
I0403 20:00:31.730299 10142 net.cpp:148] Top shape: 24 32 28 28 (602112)
I0403 20:00:31.730314 10142 net.cpp:156] Memory required for data: 558760992
I0403 20:00:31.730337 10142 layer_factory.hpp:77] Creating layer inception_3a/relu_pool_proj
I0403 20:00:31.730356 10142 net.cpp:91] Creating Layer inception_3a/relu_pool_proj
I0403 20:00:31.730372 10142 net.cpp:425] inception_3a/relu_pool_proj <- inception_3a/pool_proj
I0403 20:00:31.730389 10142 net.cpp:386] inception_3a/relu_pool_proj -> inception_3a/pool_proj (in-place)
I0403 20:00:31.730654 10142 net.cpp:141] Setting up inception_3a/relu_pool_proj
I0403 20:00:31.730680 10142 net.cpp:148] Top shape: 24 32 28 28 (602112)
I0403 20:00:31.730695 10142 net.cpp:156] Memory required for data: 561169440
I0403 20:00:31.730710 10142 layer_factory.hpp:77] Creating layer inception_3a/output
I0403 20:00:31.730727 10142 net.cpp:91] Creating Layer inception_3a/output
I0403 20:00:31.730742 10142 net.cpp:425] inception_3a/output <- inception_3a/1x1
I0403 20:00:31.730758 10142 net.cpp:425] inception_3a/output <- inception_3a/3x3
I0403 20:00:31.730773 10142 net.cpp:425] inception_3a/output <- inception_3a/5x5
I0403 20:00:31.730788 10142 net.cpp:425] inception_3a/output <- inception_3a/pool_proj
I0403 20:00:31.730804 10142 net.cpp:399] inception_3a/output -> inception_3a/output
I0403 20:00:31.730850 10142 net.cpp:141] Setting up inception_3a/output
I0403 20:00:31.730873 10142 net.cpp:148] Top shape: 24 256 28 28 (4816896)
I0403 20:00:31.730886 10142 net.cpp:156] Memory required for data: 580437024
I0403 20:00:31.730901 10142 layer_factory.hpp:77] Creating layer inception_3a/output_inception_3a/output_0_split
I0403 20:00:31.730916 10142 net.cpp:91] Creating Layer inception_3a/output_inception_3a/output_0_split
I0403 20:00:31.730931 10142 net.cpp:425] inception_3a/output_inception_3a/output_0_split <- inception_3a/output
I0403 20:00:31.730949 10142 net.cpp:399] inception_3a/output_inception_3a/output_0_split -> inception_3a/output_inception_3a/output_0_split_0
I0403 20:00:31.730969 10142 net.cpp:399] inception_3a/output_inception_3a/output_0_split -> inception_3a/output_inception_3a/output_0_split_1
I0403 20:00:31.730993 10142 net.cpp:399] inception_3a/output_inception_3a/output_0_split -> inception_3a/output_inception_3a/output_0_split_2
I0403 20:00:31.731014 10142 net.cpp:399] inception_3a/output_inception_3a/output_0_split -> inception_3a/output_inception_3a/output_0_split_3
I0403 20:00:31.731086 10142 net.cpp:141] Setting up inception_3a/output_inception_3a/output_0_split
I0403 20:00:31.731107 10142 net.cpp:148] Top shape: 24 256 28 28 (4816896)
I0403 20:00:31.731123 10142 net.cpp:148] Top shape: 24 256 28 28 (4816896)
I0403 20:00:31.731139 10142 net.cpp:148] Top shape: 24 256 28 28 (4816896)
I0403 20:00:31.731154 10142 net.cpp:148] Top shape: 24 256 28 28 (4816896)
I0403 20:00:31.731168 10142 net.cpp:156] Memory required for data: 657507360
I0403 20:00:31.731181 10142 layer_factory.hpp:77] Creating layer inception_3b/1x1
I0403 20:00:31.731204 10142 net.cpp:91] Creating Layer inception_3b/1x1
I0403 20:00:31.731220 10142 net.cpp:425] inception_3b/1x1 <- inception_3a/output_inception_3a/output_0_split_0
I0403 20:00:31.731245 10142 net.cpp:399] inception_3b/1x1 -> inception_3b/1x1
I0403 20:00:31.732337 10142 net.cpp:141] Setting up inception_3b/1x1
I0403 20:00:31.732377 10142 net.cpp:148] Top shape: 24 128 28 28 (2408448)
I0403 20:00:31.732391 10142 net.cpp:156] Memory required for data: 667141152
I0403 20:00:31.732409 10142 layer_factory.hpp:77] Creating layer inception_3b/relu_1x1
I0403 20:00:31.732429 10142 net.cpp:91] Creating Layer inception_3b/relu_1x1
I0403 20:00:31.732446 10142 net.cpp:425] inception_3b/relu_1x1 <- inception_3b/1x1
I0403 20:00:31.732462 10142 net.cpp:386] inception_3b/relu_1x1 -> inception_3b/1x1 (in-place)
I0403 20:00:31.732630 10142 net.cpp:141] Setting up inception_3b/relu_1x1
I0403 20:00:31.732656 10142 net.cpp:148] Top shape: 24 128 28 28 (2408448)
I0403 20:00:31.732671 10142 net.cpp:156] Memory required for data: 676774944
I0403 20:00:31.732684 10142 layer_factory.hpp:77] Creating layer inception_3b/3x3_reduce
I0403 20:00:31.732703 10142 net.cpp:91] Creating Layer inception_3b/3x3_reduce
I0403 20:00:31.732719 10142 net.cpp:425] inception_3b/3x3_reduce <- inception_3a/output_inception_3a/output_0_split_1
I0403 20:00:31.732739 10142 net.cpp:399] inception_3b/3x3_reduce -> inception_3b/3x3_reduce
I0403 20:00:31.733840 10142 net.cpp:141] Setting up inception_3b/3x3_reduce
I0403 20:00:31.733867 10142 net.cpp:148] Top shape: 24 128 28 28 (2408448)
I0403 20:00:31.733883 10142 net.cpp:156] Memory required for data: 686408736
I0403 20:00:31.733901 10142 layer_factory.hpp:77] Creating layer inception_3b/relu_3x3_reduce
I0403 20:00:31.733921 10142 net.cpp:91] Creating Layer inception_3b/relu_3x3_reduce
I0403 20:00:31.733937 10142 net.cpp:425] inception_3b/relu_3x3_reduce <- inception_3b/3x3_reduce
I0403 20:00:31.733953 10142 net.cpp:386] inception_3b/relu_3x3_reduce -> inception_3b/3x3_reduce (in-place)
I0403 20:00:31.734127 10142 net.cpp:141] Setting up inception_3b/relu_3x3_reduce
I0403 20:00:31.734150 10142 net.cpp:148] Top shape: 24 128 28 28 (2408448)
I0403 20:00:31.734176 10142 net.cpp:156] Memory required for data: 696042528
I0403 20:00:31.734191 10142 layer_factory.hpp:77] Creating layer inception_3b/3x3
I0403 20:00:31.734217 10142 net.cpp:91] Creating Layer inception_3b/3x3
I0403 20:00:31.734236 10142 net.cpp:425] inception_3b/3x3 <- inception_3b/3x3_reduce
I0403 20:00:31.734262 10142 net.cpp:399] inception_3b/3x3 -> inception_3b/3x3
I0403 20:00:31.737078 10142 net.cpp:141] Setting up inception_3b/3x3
I0403 20:00:31.737105 10142 net.cpp:148] Top shape: 24 192 28 28 (3612672)
I0403 20:00:31.737124 10142 net.cpp:156] Memory required for data: 710493216
I0403 20:00:31.737143 10142 layer_factory.hpp:77] Creating layer inception_3b/relu_3x3
I0403 20:00:31.737160 10142 net.cpp:91] Creating Layer inception_3b/relu_3x3
I0403 20:00:31.737176 10142 net.cpp:425] inception_3b/relu_3x3 <- inception_3b/3x3
I0403 20:00:31.737193 10142 net.cpp:386] inception_3b/relu_3x3 -> inception_3b/3x3 (in-place)
I0403 20:00:31.737468 10142 net.cpp:141] Setting up inception_3b/relu_3x3
I0403 20:00:31.737494 10142 net.cpp:148] Top shape: 24 192 28 28 (3612672)
I0403 20:00:31.737510 10142 net.cpp:156] Memory required for data: 724943904
I0403 20:00:31.737525 10142 layer_factory.hpp:77] Creating layer inception_3b/5x5_reduce
I0403 20:00:31.737545 10142 net.cpp:91] Creating Layer inception_3b/5x5_reduce
I0403 20:00:31.737561 10142 net.cpp:425] inception_3b/5x5_reduce <- inception_3a/output_inception_3a/output_0_split_2
I0403 20:00:31.737581 10142 net.cpp:399] inception_3b/5x5_reduce -> inception_3b/5x5_reduce
I0403 20:00:31.738549 10142 net.cpp:141] Setting up inception_3b/5x5_reduce
I0403 20:00:31.738576 10142 net.cpp:148] Top shape: 24 32 28 28 (602112)
I0403 20:00:31.738592 10142 net.cpp:156] Memory required for data: 727352352
I0403 20:00:31.738610 10142 layer_factory.hpp:77] Creating layer inception_3b/relu_5x5_reduce
I0403 20:00:31.738629 10142 net.cpp:91] Creating Layer inception_3b/relu_5x5_reduce
I0403 20:00:31.738646 10142 net.cpp:425] inception_3b/relu_5x5_reduce <- inception_3b/5x5_reduce
I0403 20:00:31.738662 10142 net.cpp:386] inception_3b/relu_5x5_reduce -> inception_3b/5x5_reduce (in-place)
I0403 20:00:31.738836 10142 net.cpp:141] Setting up inception_3b/relu_5x5_reduce
I0403 20:00:31.738873 10142 net.cpp:148] Top shape: 24 32 28 28 (602112)
I0403 20:00:31.738889 10142 net.cpp:156] Memory required for data: 729760800
I0403 20:00:31.738904 10142 layer_factory.hpp:77] Creating layer inception_3b/5x5
I0403 20:00:31.738925 10142 net.cpp:91] Creating Layer inception_3b/5x5
I0403 20:00:31.738943 10142 net.cpp:425] inception_3b/5x5 <- inception_3b/5x5_reduce
I0403 20:00:31.738962 10142 net.cpp:399] inception_3b/5x5 -> inception_3b/5x5
I0403 20:00:31.740900 10142 net.cpp:141] Setting up inception_3b/5x5
I0403 20:00:31.740929 10142 net.cpp:148] Top shape: 24 96 28 28 (1806336)
I0403 20:00:31.740944 10142 net.cpp:156] Memory required for data: 736986144
I0403 20:00:31.740962 10142 layer_factory.hpp:77] Creating layer inception_3b/relu_5x5
I0403 20:00:31.740981 10142 net.cpp:91] Creating Layer inception_3b/relu_5x5
I0403 20:00:31.740998 10142 net.cpp:425] inception_3b/relu_5x5 <- inception_3b/5x5
I0403 20:00:31.741014 10142 net.cpp:386] inception_3b/relu_5x5 -> inception_3b/5x5 (in-place)
I0403 20:00:31.741204 10142 net.cpp:141] Setting up inception_3b/relu_5x5
I0403 20:00:31.741228 10142 net.cpp:148] Top shape: 24 96 28 28 (1806336)
I0403 20:00:31.741246 10142 net.cpp:156] Memory required for data: 744211488
I0403 20:00:31.741261 10142 layer_factory.hpp:77] Creating layer inception_3b/pool
I0403 20:00:31.741279 10142 net.cpp:91] Creating Layer inception_3b/pool
I0403 20:00:31.741294 10142 net.cpp:425] inception_3b/pool <- inception_3a/output_inception_3a/output_0_split_3
I0403 20:00:31.741312 10142 net.cpp:399] inception_3b/pool -> inception_3b/pool
I0403 20:00:31.741366 10142 net.cpp:141] Setting up inception_3b/pool
I0403 20:00:31.741389 10142 net.cpp:148] Top shape: 24 256 28 28 (4816896)
I0403 20:00:31.741402 10142 net.cpp:156] Memory required for data: 763479072
I0403 20:00:31.741416 10142 layer_factory.hpp:77] Creating layer inception_3b/pool_proj
I0403 20:00:31.741438 10142 net.cpp:91] Creating Layer inception_3b/pool_proj
I0403 20:00:31.741456 10142 net.cpp:425] inception_3b/pool_proj <- inception_3b/pool
I0403 20:00:31.741475 10142 net.cpp:399] inception_3b/pool_proj -> inception_3b/pool_proj
I0403 20:00:31.742493 10142 net.cpp:141] Setting up inception_3b/pool_proj
I0403 20:00:31.742522 10142 net.cpp:148] Top shape: 24 64 28 28 (1204224)
I0403 20:00:31.742537 10142 net.cpp:156] Memory required for data: 768295968
I0403 20:00:31.742555 10142 layer_factory.hpp:77] Creating layer inception_3b/relu_pool_proj
I0403 20:00:31.742573 10142 net.cpp:91] Creating Layer inception_3b/relu_pool_proj
I0403 20:00:31.742588 10142 net.cpp:425] inception_3b/relu_pool_proj <- inception_3b/pool_proj
I0403 20:00:31.742606 10142 net.cpp:386] inception_3b/relu_pool_proj -> inception_3b/pool_proj (in-place)
I0403 20:00:31.742964 10142 net.cpp:141] Setting up inception_3b/relu_pool_proj
I0403 20:00:31.742992 10142 net.cpp:148] Top shape: 24 64 28 28 (1204224)
I0403 20:00:31.743007 10142 net.cpp:156] Memory required for data: 773112864
I0403 20:00:31.743021 10142 layer_factory.hpp:77] Creating layer inception_3b/output
I0403 20:00:31.743038 10142 net.cpp:91] Creating Layer inception_3b/output
I0403 20:00:31.743053 10142 net.cpp:425] inception_3b/output <- inception_3b/1x1
I0403 20:00:31.743069 10142 net.cpp:425] inception_3b/output <- inception_3b/3x3
I0403 20:00:31.743085 10142 net.cpp:425] inception_3b/output <- inception_3b/5x5
I0403 20:00:31.743100 10142 net.cpp:425] inception_3b/output <- inception_3b/pool_proj
I0403 20:00:31.743118 10142 net.cpp:399] inception_3b/output -> inception_3b/output
I0403 20:00:31.743173 10142 net.cpp:141] Setting up inception_3b/output
I0403 20:00:31.743196 10142 net.cpp:148] Top shape: 24 480 28 28 (9031680)
I0403 20:00:31.743209 10142 net.cpp:156] Memory required for data: 809239584
I0403 20:00:31.743226 10142 layer_factory.hpp:77] Creating layer pool3/3x3_s2
I0403 20:00:31.743254 10142 net.cpp:91] Creating Layer pool3/3x3_s2
I0403 20:00:31.743273 10142 net.cpp:425] pool3/3x3_s2 <- inception_3b/output
I0403 20:00:31.743290 10142 net.cpp:399] pool3/3x3_s2 -> pool3/3x3_s2
I0403 20:00:31.743365 10142 net.cpp:141] Setting up pool3/3x3_s2
I0403 20:00:31.743387 10142 net.cpp:148] Top shape: 24 480 14 14 (2257920)
I0403 20:00:31.743402 10142 net.cpp:156] Memory required for data: 818271264
I0403 20:00:31.743415 10142 layer_factory.hpp:77] Creating layer pool3/3x3_s2_pool3/3x3_s2_0_split
I0403 20:00:31.743432 10142 net.cpp:91] Creating Layer pool3/3x3_s2_pool3/3x3_s2_0_split
I0403 20:00:31.743448 10142 net.cpp:425] pool3/3x3_s2_pool3/3x3_s2_0_split <- pool3/3x3_s2
I0403 20:00:31.743479 10142 net.cpp:399] pool3/3x3_s2_pool3/3x3_s2_0_split -> pool3/3x3_s2_pool3/3x3_s2_0_split_0
I0403 20:00:31.743499 10142 net.cpp:399] pool3/3x3_s2_pool3/3x3_s2_0_split -> pool3/3x3_s2_pool3/3x3_s2_0_split_1
I0403 20:00:31.743517 10142 net.cpp:399] pool3/3x3_s2_pool3/3x3_s2_0_split -> pool3/3x3_s2_pool3/3x3_s2_0_split_2
I0403 20:00:31.743535 10142 net.cpp:399] pool3/3x3_s2_pool3/3x3_s2_0_split -> pool3/3x3_s2_pool3/3x3_s2_0_split_3
I0403 20:00:31.743610 10142 net.cpp:141] Setting up pool3/3x3_s2_pool3/3x3_s2_0_split
I0403 20:00:31.743633 10142 net.cpp:148] Top shape: 24 480 14 14 (2257920)
I0403 20:00:31.743650 10142 net.cpp:148] Top shape: 24 480 14 14 (2257920)
I0403 20:00:31.743665 10142 net.cpp:148] Top shape: 24 480 14 14 (2257920)
I0403 20:00:31.743680 10142 net.cpp:148] Top shape: 24 480 14 14 (2257920)
I0403 20:00:31.743693 10142 net.cpp:156] Memory required for data: 854397984
I0403 20:00:31.743707 10142 layer_factory.hpp:77] Creating layer inception_4a/1x1
I0403 20:00:31.743731 10142 net.cpp:91] Creating Layer inception_4a/1x1
I0403 20:00:31.743748 10142 net.cpp:425] inception_4a/1x1 <- pool3/3x3_s2_pool3/3x3_s2_0_split_0
I0403 20:00:31.743767 10142 net.cpp:399] inception_4a/1x1 -> inception_4a/1x1
I0403 20:00:31.745313 10142 net.cpp:141] Setting up inception_4a/1x1
I0403 20:00:31.745342 10142 net.cpp:148] Top shape: 24 192 14 14 (903168)
I0403 20:00:31.745357 10142 net.cpp:156] Memory required for data: 858010656
I0403 20:00:31.745373 10142 layer_factory.hpp:77] Creating layer inception_4a/relu_1x1
I0403 20:00:31.745391 10142 net.cpp:91] Creating Layer inception_4a/relu_1x1
I0403 20:00:31.745407 10142 net.cpp:425] inception_4a/relu_1x1 <- inception_4a/1x1
I0403 20:00:31.745426 10142 net.cpp:386] inception_4a/relu_1x1 -> inception_4a/1x1 (in-place)
I0403 20:00:31.745597 10142 net.cpp:141] Setting up inception_4a/relu_1x1
I0403 20:00:31.745621 10142 net.cpp:148] Top shape: 24 192 14 14 (903168)
I0403 20:00:31.745635 10142 net.cpp:156] Memory required for data: 861623328
I0403 20:00:31.745650 10142 layer_factory.hpp:77] Creating layer inception_4a/3x3_reduce
I0403 20:00:31.745671 10142 net.cpp:91] Creating Layer inception_4a/3x3_reduce
I0403 20:00:31.745687 10142 net.cpp:425] inception_4a/3x3_reduce <- pool3/3x3_s2_pool3/3x3_s2_0_split_1
I0403 20:00:31.745708 10142 net.cpp:399] inception_4a/3x3_reduce -> inception_4a/3x3_reduce
I0403 20:00:31.746932 10142 net.cpp:141] Setting up inception_4a/3x3_reduce
I0403 20:00:31.746959 10142 net.cpp:148] Top shape: 24 96 14 14 (451584)
I0403 20:00:31.746973 10142 net.cpp:156] Memory required for data: 863429664
I0403 20:00:31.746997 10142 layer_factory.hpp:77] Creating layer inception_4a/relu_3x3_reduce
I0403 20:00:31.747017 10142 net.cpp:91] Creating Layer inception_4a/relu_3x3_reduce
I0403 20:00:31.747033 10142 net.cpp:425] inception_4a/relu_3x3_reduce <- inception_4a/3x3_reduce
I0403 20:00:31.747051 10142 net.cpp:386] inception_4a/relu_3x3_reduce -> inception_4a/3x3_reduce (in-place)
I0403 20:00:31.747221 10142 net.cpp:141] Setting up inception_4a/relu_3x3_reduce
I0403 20:00:31.747249 10142 net.cpp:148] Top shape: 24 96 14 14 (451584)
I0403 20:00:31.747264 10142 net.cpp:156] Memory required for data: 865236000
I0403 20:00:31.747279 10142 layer_factory.hpp:77] Creating layer inception_4a/3x3
I0403 20:00:31.747300 10142 net.cpp:91] Creating Layer inception_4a/3x3
I0403 20:00:31.747318 10142 net.cpp:425] inception_4a/3x3 <- inception_4a/3x3_reduce
I0403 20:00:31.747337 10142 net.cpp:399] inception_4a/3x3 -> inception_4a/3x3
I0403 20:00:31.749912 10142 net.cpp:141] Setting up inception_4a/3x3
I0403 20:00:31.749938 10142 net.cpp:148] Top shape: 24 208 14 14 (978432)
I0403 20:00:31.749954 10142 net.cpp:156] Memory required for data: 869149728
I0403 20:00:31.749971 10142 layer_factory.hpp:77] Creating layer inception_4a/relu_3x3
I0403 20:00:31.749991 10142 net.cpp:91] Creating Layer inception_4a/relu_3x3
I0403 20:00:31.750008 10142 net.cpp:425] inception_4a/relu_3x3 <- inception_4a/3x3
I0403 20:00:31.750025 10142 net.cpp:386] inception_4a/relu_3x3 -> inception_4a/3x3 (in-place)
I0403 20:00:31.750299 10142 net.cpp:141] Setting up inception_4a/relu_3x3
I0403 20:00:31.750325 10142 net.cpp:148] Top shape: 24 208 14 14 (978432)
I0403 20:00:31.750339 10142 net.cpp:156] Memory required for data: 873063456
I0403 20:00:31.750354 10142 layer_factory.hpp:77] Creating layer inception_4a/5x5_reduce
I0403 20:00:31.750375 10142 net.cpp:91] Creating Layer inception_4a/5x5_reduce
I0403 20:00:31.750392 10142 net.cpp:425] inception_4a/5x5_reduce <- pool3/3x3_s2_pool3/3x3_s2_0_split_2
I0403 20:00:31.750413 10142 net.cpp:399] inception_4a/5x5_reduce -> inception_4a/5x5_reduce
I0403 20:00:31.751407 10142 net.cpp:141] Setting up inception_4a/5x5_reduce
I0403 20:00:31.751435 10142 net.cpp:148] Top shape: 24 16 14 14 (75264)
I0403 20:00:31.751451 10142 net.cpp:156] Memory required for data: 873364512
I0403 20:00:31.751468 10142 layer_factory.hpp:77] Creating layer inception_4a/relu_5x5_reduce
I0403 20:00:31.751487 10142 net.cpp:91] Creating Layer inception_4a/relu_5x5_reduce
I0403 20:00:31.751504 10142 net.cpp:425] inception_4a/relu_5x5_reduce <- inception_4a/5x5_reduce
I0403 20:00:31.751521 10142 net.cpp:386] inception_4a/relu_5x5_reduce -> inception_4a/5x5_reduce (in-place)
I0403 20:00:31.751691 10142 net.cpp:141] Setting up inception_4a/relu_5x5_reduce
I0403 20:00:31.751718 10142 net.cpp:148] Top shape: 24 16 14 14 (75264)
I0403 20:00:31.751732 10142 net.cpp:156] Memory required for data: 873665568
I0403 20:00:31.751749 10142 layer_factory.hpp:77] Creating layer inception_4a/5x5
I0403 20:00:31.751772 10142 net.cpp:91] Creating Layer inception_4a/5x5
I0403 20:00:31.751791 10142 net.cpp:425] inception_4a/5x5 <- inception_4a/5x5_reduce
I0403 20:00:31.751808 10142 net.cpp:399] inception_4a/5x5 -> inception_4a/5x5
I0403 20:00:31.752851 10142 net.cpp:141] Setting up inception_4a/5x5
I0403 20:00:31.752882 10142 net.cpp:148] Top shape: 24 48 14 14 (225792)
I0403 20:00:31.752897 10142 net.cpp:156] Memory required for data: 874568736
I0403 20:00:31.752915 10142 layer_factory.hpp:77] Creating layer inception_4a/relu_5x5
I0403 20:00:31.752933 10142 net.cpp:91] Creating Layer inception_4a/relu_5x5
I0403 20:00:31.752948 10142 net.cpp:425] inception_4a/relu_5x5 <- inception_4a/5x5
I0403 20:00:31.752965 10142 net.cpp:386] inception_4a/relu_5x5 -> inception_4a/5x5 (in-place)
I0403 20:00:31.753139 10142 net.cpp:141] Setting up inception_4a/relu_5x5
I0403 20:00:31.753162 10142 net.cpp:148] Top shape: 24 48 14 14 (225792)
I0403 20:00:31.753177 10142 net.cpp:156] Memory required for data: 875471904
I0403 20:00:31.753190 10142 layer_factory.hpp:77] Creating layer inception_4a/pool
I0403 20:00:31.753207 10142 net.cpp:91] Creating Layer inception_4a/pool
I0403 20:00:31.753222 10142 net.cpp:425] inception_4a/pool <- pool3/3x3_s2_pool3/3x3_s2_0_split_3
I0403 20:00:31.753253 10142 net.cpp:399] inception_4a/pool -> inception_4a/pool
I0403 20:00:31.753321 10142 net.cpp:141] Setting up inception_4a/pool
I0403 20:00:31.753345 10142 net.cpp:148] Top shape: 24 480 14 14 (2257920)
I0403 20:00:31.753358 10142 net.cpp:156] Memory required for data: 884503584
I0403 20:00:31.753372 10142 layer_factory.hpp:77] Creating layer inception_4a/pool_proj
I0403 20:00:31.753393 10142 net.cpp:91] Creating Layer inception_4a/pool_proj
I0403 20:00:31.753410 10142 net.cpp:425] inception_4a/pool_proj <- inception_4a/pool
I0403 20:00:31.753432 10142 net.cpp:399] inception_4a/pool_proj -> inception_4a/pool_proj
I0403 20:00:31.754554 10142 net.cpp:141] Setting up inception_4a/pool_proj
I0403 20:00:31.754580 10142 net.cpp:148] Top shape: 24 64 14 14 (301056)
I0403 20:00:31.754608 10142 net.cpp:156] Memory required for data: 885707808
I0403 20:00:31.754627 10142 layer_factory.hpp:77] Creating layer inception_4a/relu_pool_proj
I0403 20:00:31.754644 10142 net.cpp:91] Creating Layer inception_4a/relu_pool_proj
I0403 20:00:31.754662 10142 net.cpp:425] inception_4a/relu_pool_proj <- inception_4a/pool_proj
I0403 20:00:31.754681 10142 net.cpp:386] inception_4a/relu_pool_proj -> inception_4a/pool_proj (in-place)
I0403 20:00:31.754953 10142 net.cpp:141] Setting up inception_4a/relu_pool_proj
I0403 20:00:31.754978 10142 net.cpp:148] Top shape: 24 64 14 14 (301056)
I0403 20:00:31.754993 10142 net.cpp:156] Memory required for data: 886912032
I0403 20:00:31.755007 10142 layer_factory.hpp:77] Creating layer inception_4a/output
I0403 20:00:31.755024 10142 net.cpp:91] Creating Layer inception_4a/output
I0403 20:00:31.755039 10142 net.cpp:425] inception_4a/output <- inception_4a/1x1
I0403 20:00:31.755055 10142 net.cpp:425] inception_4a/output <- inception_4a/3x3
I0403 20:00:31.755070 10142 net.cpp:425] inception_4a/output <- inception_4a/5x5
I0403 20:00:31.755085 10142 net.cpp:425] inception_4a/output <- inception_4a/pool_proj
I0403 20:00:31.755103 10142 net.cpp:399] inception_4a/output -> inception_4a/output
I0403 20:00:31.755146 10142 net.cpp:141] Setting up inception_4a/output
I0403 20:00:31.755174 10142 net.cpp:148] Top shape: 24 512 14 14 (2408448)
I0403 20:00:31.755190 10142 net.cpp:156] Memory required for data: 896545824
I0403 20:00:31.755204 10142 layer_factory.hpp:77] Creating layer inception_4a/output_inception_4a/output_0_split
I0403 20:00:31.755221 10142 net.cpp:91] Creating Layer inception_4a/output_inception_4a/output_0_split
I0403 20:00:31.755236 10142 net.cpp:425] inception_4a/output_inception_4a/output_0_split <- inception_4a/output
I0403 20:00:31.755259 10142 net.cpp:399] inception_4a/output_inception_4a/output_0_split -> inception_4a/output_inception_4a/output_0_split_0
I0403 20:00:31.755280 10142 net.cpp:399] inception_4a/output_inception_4a/output_0_split -> inception_4a/output_inception_4a/output_0_split_1
I0403 20:00:31.755301 10142 net.cpp:399] inception_4a/output_inception_4a/output_0_split -> inception_4a/output_inception_4a/output_0_split_2
I0403 20:00:31.755321 10142 net.cpp:399] inception_4a/output_inception_4a/output_0_split -> inception_4a/output_inception_4a/output_0_split_3
I0403 20:00:31.755341 10142 net.cpp:399] inception_4a/output_inception_4a/output_0_split -> inception_4a/output_inception_4a/output_0_split_4
I0403 20:00:31.755429 10142 net.cpp:141] Setting up inception_4a/output_inception_4a/output_0_split
I0403 20:00:31.755450 10142 net.cpp:148] Top shape: 24 512 14 14 (2408448)
I0403 20:00:31.755466 10142 net.cpp:148] Top shape: 24 512 14 14 (2408448)
I0403 20:00:31.755482 10142 net.cpp:148] Top shape: 24 512 14 14 (2408448)
I0403 20:00:31.755497 10142 net.cpp:148] Top shape: 24 512 14 14 (2408448)
I0403 20:00:31.755511 10142 net.cpp:148] Top shape: 24 512 14 14 (2408448)
I0403 20:00:31.755525 10142 net.cpp:156] Memory required for data: 944714784
I0403 20:00:31.755539 10142 layer_factory.hpp:77] Creating layer loss1/ave_pool
I0403 20:00:31.755558 10142 net.cpp:91] Creating Layer loss1/ave_pool
I0403 20:00:31.755574 10142 net.cpp:425] loss1/ave_pool <- inception_4a/output_inception_4a/output_0_split_0
I0403 20:00:31.755590 10142 net.cpp:399] loss1/ave_pool -> loss1/ave_pool
I0403 20:00:31.755787 10142 net.cpp:141] Setting up loss1/ave_pool
I0403 20:00:31.755812 10142 net.cpp:148] Top shape: 24 512 4 4 (196608)
I0403 20:00:31.755827 10142 net.cpp:156] Memory required for data: 945501216
I0403 20:00:31.755841 10142 layer_factory.hpp:77] Creating layer loss1/conv
I0403 20:00:31.755862 10142 net.cpp:91] Creating Layer loss1/conv
I0403 20:00:31.755880 10142 net.cpp:425] loss1/conv <- loss1/ave_pool
I0403 20:00:31.755900 10142 net.cpp:399] loss1/conv -> loss1/conv
I0403 20:00:31.757253 10142 net.cpp:141] Setting up loss1/conv
I0403 20:00:31.757280 10142 net.cpp:148] Top shape: 24 128 4 4 (49152)
I0403 20:00:31.757295 10142 net.cpp:156] Memory required for data: 945697824
I0403 20:00:31.757328 10142 layer_factory.hpp:77] Creating layer loss1/relu_conv
I0403 20:00:31.757349 10142 net.cpp:91] Creating Layer loss1/relu_conv
I0403 20:00:31.757364 10142 net.cpp:425] loss1/relu_conv <- loss1/conv
I0403 20:00:31.757381 10142 net.cpp:386] loss1/relu_conv -> loss1/conv (in-place)
I0403 20:00:31.757653 10142 net.cpp:141] Setting up loss1/relu_conv
I0403 20:00:31.757678 10142 net.cpp:148] Top shape: 24 128 4 4 (49152)
I0403 20:00:31.757694 10142 net.cpp:156] Memory required for data: 945894432
I0403 20:00:31.757707 10142 layer_factory.hpp:77] Creating layer loss1/fc
I0403 20:00:31.757732 10142 net.cpp:91] Creating Layer loss1/fc
I0403 20:00:31.757750 10142 net.cpp:425] loss1/fc <- loss1/conv
I0403 20:00:31.757768 10142 net.cpp:399] loss1/fc -> loss1/fc
I0403 20:00:31.775060 10142 net.cpp:141] Setting up loss1/fc
I0403 20:00:31.775094 10142 net.cpp:148] Top shape: 24 1024 (24576)
I0403 20:00:31.775110 10142 net.cpp:156] Memory required for data: 945992736
I0403 20:00:31.775127 10142 layer_factory.hpp:77] Creating layer loss1/relu_fc
I0403 20:00:31.775146 10142 net.cpp:91] Creating Layer loss1/relu_fc
I0403 20:00:31.775161 10142 net.cpp:425] loss1/relu_fc <- loss1/fc
I0403 20:00:31.775179 10142 net.cpp:386] loss1/relu_fc -> loss1/fc (in-place)
I0403 20:00:31.775364 10142 net.cpp:141] Setting up loss1/relu_fc
I0403 20:00:31.775388 10142 net.cpp:148] Top shape: 24 1024 (24576)
I0403 20:00:31.775403 10142 net.cpp:156] Memory required for data: 946091040
I0403 20:00:31.775418 10142 layer_factory.hpp:77] Creating layer loss1/drop_fc
I0403 20:00:31.775444 10142 net.cpp:91] Creating Layer loss1/drop_fc
I0403 20:00:31.775461 10142 net.cpp:425] loss1/drop_fc <- loss1/fc
I0403 20:00:31.775480 10142 net.cpp:386] loss1/drop_fc -> loss1/fc (in-place)
I0403 20:00:31.775527 10142 net.cpp:141] Setting up loss1/drop_fc
I0403 20:00:31.775552 10142 net.cpp:148] Top shape: 24 1024 (24576)
I0403 20:00:31.775568 10142 net.cpp:156] Memory required for data: 946189344
I0403 20:00:31.775583 10142 layer_factory.hpp:77] Creating layer loss1/classifier_plantvillage
I0403 20:00:31.775600 10142 net.cpp:91] Creating Layer loss1/classifier_plantvillage
I0403 20:00:31.775616 10142 net.cpp:425] loss1/classifier_plantvillage <- loss1/fc
I0403 20:00:31.775636 10142 net.cpp:399] loss1/classifier_plantvillage -> loss1/classifier_plantvillage
I0403 20:00:31.776507 10142 net.cpp:141] Setting up loss1/classifier_plantvillage
I0403 20:00:31.776535 10142 net.cpp:148] Top shape: 24 38 (912)
I0403 20:00:31.776549 10142 net.cpp:156] Memory required for data: 946192992
I0403 20:00:31.776567 10142 layer_factory.hpp:77] Creating layer loss1/classifier_plantvillage_loss1/classifier_plantvillage_0_split
I0403 20:00:31.776587 10142 net.cpp:91] Creating Layer loss1/classifier_plantvillage_loss1/classifier_plantvillage_0_split
I0403 20:00:31.776602 10142 net.cpp:425] loss1/classifier_plantvillage_loss1/classifier_plantvillage_0_split <- loss1/classifier_plantvillage
I0403 20:00:31.776619 10142 net.cpp:399] loss1/classifier_plantvillage_loss1/classifier_plantvillage_0_split -> loss1/classifier_plantvillage_loss1/classifier_plantvillage_0_split_0
I0403 20:00:31.776639 10142 net.cpp:399] loss1/classifier_plantvillage_loss1/classifier_plantvillage_0_split -> loss1/classifier_plantvillage_loss1/classifier_plantvillage_0_split_1
I0403 20:00:31.776659 10142 net.cpp:399] loss1/classifier_plantvillage_loss1/classifier_plantvillage_0_split -> loss1/classifier_plantvillage_loss1/classifier_plantvillage_0_split_2
I0403 20:00:31.776723 10142 net.cpp:141] Setting up loss1/classifier_plantvillage_loss1/classifier_plantvillage_0_split
I0403 20:00:31.776747 10142 net.cpp:148] Top shape: 24 38 (912)
I0403 20:00:31.776763 10142 net.cpp:148] Top shape: 24 38 (912)
I0403 20:00:31.776778 10142 net.cpp:148] Top shape: 24 38 (912)
I0403 20:00:31.776792 10142 net.cpp:156] Memory required for data: 946203936
I0403 20:00:31.776806 10142 layer_factory.hpp:77] Creating layer inception_4b/1x1
I0403 20:00:31.776825 10142 net.cpp:91] Creating Layer inception_4b/1x1
I0403 20:00:31.776860 10142 net.cpp:425] inception_4b/1x1 <- inception_4a/output_inception_4a/output_0_split_1
I0403 20:00:31.776880 10142 net.cpp:399] inception_4b/1x1 -> inception_4b/1x1
I0403 20:00:31.778439 10142 net.cpp:141] Setting up inception_4b/1x1
I0403 20:00:31.778465 10142 net.cpp:148] Top shape: 24 160 14 14 (752640)
I0403 20:00:31.778481 10142 net.cpp:156] Memory required for data: 949214496
I0403 20:00:31.778499 10142 layer_factory.hpp:77] Creating layer inception_4b/relu_1x1
I0403 20:00:31.778519 10142 net.cpp:91] Creating Layer inception_4b/relu_1x1
I0403 20:00:31.778537 10142 net.cpp:425] inception_4b/relu_1x1 <- inception_4b/1x1
I0403 20:00:31.778553 10142 net.cpp:386] inception_4b/relu_1x1 -> inception_4b/1x1 (in-place)
I0403 20:00:31.778726 10142 net.cpp:141] Setting up inception_4b/relu_1x1
I0403 20:00:31.778751 10142 net.cpp:148] Top shape: 24 160 14 14 (752640)
I0403 20:00:31.778767 10142 net.cpp:156] Memory required for data: 952225056
I0403 20:00:31.778781 10142 layer_factory.hpp:77] Creating layer inception_4b/3x3_reduce
I0403 20:00:31.778802 10142 net.cpp:91] Creating Layer inception_4b/3x3_reduce
I0403 20:00:31.778818 10142 net.cpp:425] inception_4b/3x3_reduce <- inception_4a/output_inception_4a/output_0_split_2
I0403 20:00:31.778837 10142 net.cpp:399] inception_4b/3x3_reduce -> inception_4b/3x3_reduce
I0403 20:00:31.780136 10142 net.cpp:141] Setting up inception_4b/3x3_reduce
I0403 20:00:31.780166 10142 net.cpp:148] Top shape: 24 112 14 14 (526848)
I0403 20:00:31.780184 10142 net.cpp:156] Memory required for data: 954332448
I0403 20:00:31.780201 10142 layer_factory.hpp:77] Creating layer inception_4b/relu_3x3_reduce
I0403 20:00:31.780218 10142 net.cpp:91] Creating Layer inception_4b/relu_3x3_reduce
I0403 20:00:31.780235 10142 net.cpp:425] inception_4b/relu_3x3_reduce <- inception_4b/3x3_reduce
I0403 20:00:31.780258 10142 net.cpp:386] inception_4b/relu_3x3_reduce -> inception_4b/3x3_reduce (in-place)
I0403 20:00:31.780530 10142 net.cpp:141] Setting up inception_4b/relu_3x3_reduce
I0403 20:00:31.780557 10142 net.cpp:148] Top shape: 24 112 14 14 (526848)
I0403 20:00:31.780573 10142 net.cpp:156] Memory required for data: 956439840
I0403 20:00:31.780587 10142 layer_factory.hpp:77] Creating layer inception_4b/3x3
I0403 20:00:31.780609 10142 net.cpp:91] Creating Layer inception_4b/3x3
I0403 20:00:31.780627 10142 net.cpp:425] inception_4b/3x3 <- inception_4b/3x3_reduce
I0403 20:00:31.780644 10142 net.cpp:399] inception_4b/3x3 -> inception_4b/3x3
I0403 20:00:31.783529 10142 net.cpp:141] Setting up inception_4b/3x3
I0403 20:00:31.783558 10142 net.cpp:148] Top shape: 24 224 14 14 (1053696)
I0403 20:00:31.783573 10142 net.cpp:156] Memory required for data: 960654624
I0403 20:00:31.783591 10142 layer_factory.hpp:77] Creating layer inception_4b/relu_3x3
I0403 20:00:31.783609 10142 net.cpp:91] Creating Layer inception_4b/relu_3x3
I0403 20:00:31.783628 10142 net.cpp:425] inception_4b/relu_3x3 <- inception_4b/3x3
I0403 20:00:31.783645 10142 net.cpp:386] inception_4b/relu_3x3 -> inception_4b/3x3 (in-place)
I0403 20:00:31.783818 10142 net.cpp:141] Setting up inception_4b/relu_3x3
I0403 20:00:31.783843 10142 net.cpp:148] Top shape: 24 224 14 14 (1053696)
I0403 20:00:31.783856 10142 net.cpp:156] Memory required for data: 964869408
I0403 20:00:31.783870 10142 layer_factory.hpp:77] Creating layer inception_4b/5x5_reduce
I0403 20:00:31.783891 10142 net.cpp:91] Creating Layer inception_4b/5x5_reduce
I0403 20:00:31.783908 10142 net.cpp:425] inception_4b/5x5_reduce <- inception_4a/output_inception_4a/output_0_split_3
I0403 20:00:31.783931 10142 net.cpp:399] inception_4b/5x5_reduce -> inception_4b/5x5_reduce
I0403 20:00:31.784986 10142 net.cpp:141] Setting up inception_4b/5x5_reduce
I0403 20:00:31.785012 10142 net.cpp:148] Top shape: 24 24 14 14 (112896)
I0403 20:00:31.785027 10142 net.cpp:156] Memory required for data: 965320992
I0403 20:00:31.785045 10142 layer_factory.hpp:77] Creating layer inception_4b/relu_5x5_reduce
I0403 20:00:31.785066 10142 net.cpp:91] Creating Layer inception_4b/relu_5x5_reduce
I0403 20:00:31.785095 10142 net.cpp:425] inception_4b/relu_5x5_reduce <- inception_4b/5x5_reduce
I0403 20:00:31.785114 10142 net.cpp:386] inception_4b/relu_5x5_reduce -> inception_4b/5x5_reduce (in-place)
I0403 20:00:31.785295 10142 net.cpp:141] Setting up inception_4b/relu_5x5_reduce
I0403 20:00:31.785318 10142 net.cpp:148] Top shape: 24 24 14 14 (112896)
I0403 20:00:31.785332 10142 net.cpp:156] Memory required for data: 965772576
I0403 20:00:31.785346 10142 layer_factory.hpp:77] Creating layer inception_4b/5x5
I0403 20:00:31.785372 10142 net.cpp:91] Creating Layer inception_4b/5x5
I0403 20:00:31.785389 10142 net.cpp:425] inception_4b/5x5 <- inception_4b/5x5_reduce
I0403 20:00:31.785410 10142 net.cpp:399] inception_4b/5x5 -> inception_4b/5x5
I0403 20:00:31.786598 10142 net.cpp:141] Setting up inception_4b/5x5
I0403 20:00:31.786625 10142 net.cpp:148] Top shape: 24 64 14 14 (301056)
I0403 20:00:31.786640 10142 net.cpp:156] Memory required for data: 966976800
I0403 20:00:31.786658 10142 layer_factory.hpp:77] Creating layer inception_4b/relu_5x5
I0403 20:00:31.786677 10142 net.cpp:91] Creating Layer inception_4b/relu_5x5
I0403 20:00:31.786695 10142 net.cpp:425] inception_4b/relu_5x5 <- inception_4b/5x5
I0403 20:00:31.786711 10142 net.cpp:386] inception_4b/relu_5x5 -> inception_4b/5x5 (in-place)
I0403 20:00:31.786984 10142 net.cpp:141] Setting up inception_4b/relu_5x5
I0403 20:00:31.787010 10142 net.cpp:148] Top shape: 24 64 14 14 (301056)
I0403 20:00:31.787024 10142 net.cpp:156] Memory required for data: 968181024
I0403 20:00:31.787039 10142 layer_factory.hpp:77] Creating layer inception_4b/pool
I0403 20:00:31.787060 10142 net.cpp:91] Creating Layer inception_4b/pool
I0403 20:00:31.787075 10142 net.cpp:425] inception_4b/pool <- inception_4a/output_inception_4a/output_0_split_4
I0403 20:00:31.787093 10142 net.cpp:399] inception_4b/pool -> inception_4b/pool
I0403 20:00:31.787156 10142 net.cpp:141] Setting up inception_4b/pool
I0403 20:00:31.787180 10142 net.cpp:148] Top shape: 24 512 14 14 (2408448)
I0403 20:00:31.787194 10142 net.cpp:156] Memory required for data: 977814816
I0403 20:00:31.787209 10142 layer_factory.hpp:77] Creating layer inception_4b/pool_proj
I0403 20:00:31.787230 10142 net.cpp:91] Creating Layer inception_4b/pool_proj
I0403 20:00:31.787252 10142 net.cpp:425] inception_4b/pool_proj <- inception_4b/pool
I0403 20:00:31.787273 10142 net.cpp:399] inception_4b/pool_proj -> inception_4b/pool_proj
I0403 20:00:31.788436 10142 net.cpp:141] Setting up inception_4b/pool_proj
I0403 20:00:31.788463 10142 net.cpp:148] Top shape: 24 64 14 14 (301056)
I0403 20:00:31.788483 10142 net.cpp:156] Memory required for data: 979019040
I0403 20:00:31.788501 10142 layer_factory.hpp:77] Creating layer inception_4b/relu_pool_proj
I0403 20:00:31.788518 10142 net.cpp:91] Creating Layer inception_4b/relu_pool_proj
I0403 20:00:31.788534 10142 net.cpp:425] inception_4b/relu_pool_proj <- inception_4b/pool_proj
I0403 20:00:31.788552 10142 net.cpp:386] inception_4b/relu_pool_proj -> inception_4b/pool_proj (in-place)
I0403 20:00:31.788725 10142 net.cpp:141] Setting up inception_4b/relu_pool_proj
I0403 20:00:31.788751 10142 net.cpp:148] Top shape: 24 64 14 14 (301056)
I0403 20:00:31.788765 10142 net.cpp:156] Memory required for data: 980223264
I0403 20:00:31.788780 10142 layer_factory.hpp:77] Creating layer inception_4b/output
I0403 20:00:31.788797 10142 net.cpp:91] Creating Layer inception_4b/output
I0403 20:00:31.788812 10142 net.cpp:425] inception_4b/output <- inception_4b/1x1
I0403 20:00:31.788828 10142 net.cpp:425] inception_4b/output <- inception_4b/3x3
I0403 20:00:31.788843 10142 net.cpp:425] inception_4b/output <- inception_4b/5x5
I0403 20:00:31.788858 10142 net.cpp:425] inception_4b/output <- inception_4b/pool_proj
I0403 20:00:31.788877 10142 net.cpp:399] inception_4b/output -> inception_4b/output
I0403 20:00:31.788919 10142 net.cpp:141] Setting up inception_4b/output
I0403 20:00:31.788943 10142 net.cpp:148] Top shape: 24 512 14 14 (2408448)
I0403 20:00:31.788956 10142 net.cpp:156] Memory required for data: 989857056
I0403 20:00:31.788987 10142 layer_factory.hpp:77] Creating layer inception_4b/output_inception_4b/output_0_split
I0403 20:00:31.789007 10142 net.cpp:91] Creating Layer inception_4b/output_inception_4b/output_0_split
I0403 20:00:31.789023 10142 net.cpp:425] inception_4b/output_inception_4b/output_0_split <- inception_4b/output
I0403 20:00:31.789041 10142 net.cpp:399] inception_4b/output_inception_4b/output_0_split -> inception_4b/output_inception_4b/output_0_split_0
I0403 20:00:31.789059 10142 net.cpp:399] inception_4b/output_inception_4b/output_0_split -> inception_4b/output_inception_4b/output_0_split_1
I0403 20:00:31.789083 10142 net.cpp:399] inception_4b/output_inception_4b/output_0_split -> inception_4b/output_inception_4b/output_0_split_2
I0403 20:00:31.789103 10142 net.cpp:399] inception_4b/output_inception_4b/output_0_split -> inception_4b/output_inception_4b/output_0_split_3
I0403 20:00:31.789182 10142 net.cpp:141] Setting up inception_4b/output_inception_4b/output_0_split
I0403 20:00:31.789206 10142 net.cpp:148] Top shape: 24 512 14 14 (2408448)
I0403 20:00:31.789222 10142 net.cpp:148] Top shape: 24 512 14 14 (2408448)
I0403 20:00:31.789237 10142 net.cpp:148] Top shape: 24 512 14 14 (2408448)
I0403 20:00:31.789257 10142 net.cpp:148] Top shape: 24 512 14 14 (2408448)
I0403 20:00:31.789270 10142 net.cpp:156] Memory required for data: 1028392224
I0403 20:00:31.789283 10142 layer_factory.hpp:77] Creating layer inception_4c/1x1
I0403 20:00:31.789305 10142 net.cpp:91] Creating Layer inception_4c/1x1
I0403 20:00:31.789322 10142 net.cpp:425] inception_4c/1x1 <- inception_4b/output_inception_4b/output_0_split_0
I0403 20:00:31.789343 10142 net.cpp:399] inception_4c/1x1 -> inception_4c/1x1
I0403 20:00:31.790730 10142 net.cpp:141] Setting up inception_4c/1x1
I0403 20:00:31.790760 10142 net.cpp:148] Top shape: 24 128 14 14 (602112)
I0403 20:00:31.790776 10142 net.cpp:156] Memory required for data: 1030800672
I0403 20:00:31.790794 10142 layer_factory.hpp:77] Creating layer inception_4c/relu_1x1
I0403 20:00:31.790812 10142 net.cpp:91] Creating Layer inception_4c/relu_1x1
I0403 20:00:31.790828 10142 net.cpp:425] inception_4c/relu_1x1 <- inception_4c/1x1
I0403 20:00:31.790848 10142 net.cpp:386] inception_4c/relu_1x1 -> inception_4c/1x1 (in-place)
I0403 20:00:31.791025 10142 net.cpp:141] Setting up inception_4c/relu_1x1
I0403 20:00:31.791049 10142 net.cpp:148] Top shape: 24 128 14 14 (602112)
I0403 20:00:31.791064 10142 net.cpp:156] Memory required for data: 1033209120
I0403 20:00:31.791079 10142 layer_factory.hpp:77] Creating layer inception_4c/3x3_reduce
I0403 20:00:31.791098 10142 net.cpp:91] Creating Layer inception_4c/3x3_reduce
I0403 20:00:31.791115 10142 net.cpp:425] inception_4c/3x3_reduce <- inception_4b/output_inception_4b/output_0_split_1
I0403 20:00:31.791136 10142 net.cpp:399] inception_4c/3x3_reduce -> inception_4c/3x3_reduce
I0403 20:00:31.793018 10142 net.cpp:141] Setting up inception_4c/3x3_reduce
I0403 20:00:31.793047 10142 net.cpp:148] Top shape: 24 128 14 14 (602112)
I0403 20:00:31.793063 10142 net.cpp:156] Memory required for data: 1035617568
I0403 20:00:31.793081 10142 layer_factory.hpp:77] Creating layer inception_4c/relu_3x3_reduce
I0403 20:00:31.793100 10142 net.cpp:91] Creating Layer inception_4c/relu_3x3_reduce
I0403 20:00:31.793118 10142 net.cpp:425] inception_4c/relu_3x3_reduce <- inception_4c/3x3_reduce
I0403 20:00:31.793134 10142 net.cpp:386] inception_4c/relu_3x3_reduce -> inception_4c/3x3_reduce (in-place)
I0403 20:00:31.793421 10142 net.cpp:141] Setting up inception_4c/relu_3x3_reduce
I0403 20:00:31.793448 10142 net.cpp:148] Top shape: 24 128 14 14 (602112)
I0403 20:00:31.793463 10142 net.cpp:156] Memory required for data: 1038026016
I0403 20:00:31.793478 10142 layer_factory.hpp:77] Creating layer inception_4c/3x3
I0403 20:00:31.793498 10142 net.cpp:91] Creating Layer inception_4c/3x3
I0403 20:00:31.793516 10142 net.cpp:425] inception_4c/3x3 <- inception_4c/3x3_reduce
I0403 20:00:31.793537 10142 net.cpp:399] inception_4c/3x3 -> inception_4c/3x3
I0403 20:00:31.797029 10142 net.cpp:141] Setting up inception_4c/3x3
I0403 20:00:31.797068 10142 net.cpp:148] Top shape: 24 256 14 14 (1204224)
I0403 20:00:31.797085 10142 net.cpp:156] Memory required for data: 1042842912
I0403 20:00:31.797117 10142 layer_factory.hpp:77] Creating layer inception_4c/relu_3x3
I0403 20:00:31.797139 10142 net.cpp:91] Creating Layer inception_4c/relu_3x3
I0403 20:00:31.797157 10142 net.cpp:425] inception_4c/relu_3x3 <- inception_4c/3x3
I0403 20:00:31.797173 10142 net.cpp:386] inception_4c/relu_3x3 -> inception_4c/3x3 (in-place)
I0403 20:00:31.797355 10142 net.cpp:141] Setting up inception_4c/relu_3x3
I0403 20:00:31.797379 10142 net.cpp:148] Top shape: 24 256 14 14 (1204224)
I0403 20:00:31.797394 10142 net.cpp:156] Memory required for data: 1047659808
I0403 20:00:31.797408 10142 layer_factory.hpp:77] Creating layer inception_4c/5x5_reduce
I0403 20:00:31.797432 10142 net.cpp:91] Creating Layer inception_4c/5x5_reduce
I0403 20:00:31.797451 10142 net.cpp:425] inception_4c/5x5_reduce <- inception_4b/output_inception_4b/output_0_split_2
I0403 20:00:31.797469 10142 net.cpp:399] inception_4c/5x5_reduce -> inception_4c/5x5_reduce
I0403 20:00:31.798537 10142 net.cpp:141] Setting up inception_4c/5x5_reduce
I0403 20:00:31.798564 10142 net.cpp:148] Top shape: 24 24 14 14 (112896)
I0403 20:00:31.798579 10142 net.cpp:156] Memory required for data: 1048111392
I0403 20:00:31.798598 10142 layer_factory.hpp:77] Creating layer inception_4c/relu_5x5_reduce
I0403 20:00:31.798617 10142 net.cpp:91] Creating Layer inception_4c/relu_5x5_reduce
I0403 20:00:31.798635 10142 net.cpp:425] inception_4c/relu_5x5_reduce <- inception_4c/5x5_reduce
I0403 20:00:31.798651 10142 net.cpp:386] inception_4c/relu_5x5_reduce -> inception_4c/5x5_reduce (in-place)
I0403 20:00:31.798827 10142 net.cpp:141] Setting up inception_4c/relu_5x5_reduce
I0403 20:00:31.798853 10142 net.cpp:148] Top shape: 24 24 14 14 (112896)
I0403 20:00:31.798867 10142 net.cpp:156] Memory required for data: 1048562976
I0403 20:00:31.798882 10142 layer_factory.hpp:77] Creating layer inception_4c/5x5
I0403 20:00:31.798903 10142 net.cpp:91] Creating Layer inception_4c/5x5
I0403 20:00:31.798919 10142 net.cpp:425] inception_4c/5x5 <- inception_4c/5x5_reduce
I0403 20:00:31.798940 10142 net.cpp:399] inception_4c/5x5 -> inception_4c/5x5
I0403 20:00:31.800191 10142 net.cpp:141] Setting up inception_4c/5x5
I0403 20:00:31.800220 10142 net.cpp:148] Top shape: 24 64 14 14 (301056)
I0403 20:00:31.800236 10142 net.cpp:156] Memory required for data: 1049767200
I0403 20:00:31.800259 10142 layer_factory.hpp:77] Creating layer inception_4c/relu_5x5
I0403 20:00:31.800277 10142 net.cpp:91] Creating Layer inception_4c/relu_5x5
I0403 20:00:31.800293 10142 net.cpp:425] inception_4c/relu_5x5 <- inception_4c/5x5
I0403 20:00:31.800312 10142 net.cpp:386] inception_4c/relu_5x5 -> inception_4c/5x5 (in-place)
I0403 20:00:31.800597 10142 net.cpp:141] Setting up inception_4c/relu_5x5
I0403 20:00:31.800624 10142 net.cpp:148] Top shape: 24 64 14 14 (301056)
I0403 20:00:31.800639 10142 net.cpp:156] Memory required for data: 1050971424
I0403 20:00:31.800654 10142 layer_factory.hpp:77] Creating layer inception_4c/pool
I0403 20:00:31.800671 10142 net.cpp:91] Creating Layer inception_4c/pool
I0403 20:00:31.800686 10142 net.cpp:425] inception_4c/pool <- inception_4b/output_inception_4b/output_0_split_3
I0403 20:00:31.800706 10142 net.cpp:399] inception_4c/pool -> inception_4c/pool
I0403 20:00:31.800770 10142 net.cpp:141] Setting up inception_4c/pool
I0403 20:00:31.800793 10142 net.cpp:148] Top shape: 24 512 14 14 (2408448)
I0403 20:00:31.800807 10142 net.cpp:156] Memory required for data: 1060605216
I0403 20:00:31.800822 10142 layer_factory.hpp:77] Creating layer inception_4c/pool_proj
I0403 20:00:31.800843 10142 net.cpp:91] Creating Layer inception_4c/pool_proj
I0403 20:00:31.800859 10142 net.cpp:425] inception_4c/pool_proj <- inception_4c/pool
I0403 20:00:31.800879 10142 net.cpp:399] inception_4c/pool_proj -> inception_4c/pool_proj
I0403 20:00:31.802067 10142 net.cpp:141] Setting up inception_4c/pool_proj
I0403 20:00:31.802094 10142 net.cpp:148] Top shape: 24 64 14 14 (301056)
I0403 20:00:31.802122 10142 net.cpp:156] Memory required for data: 1061809440
I0403 20:00:31.802140 10142 layer_factory.hpp:77] Creating layer inception_4c/relu_pool_proj
I0403 20:00:31.802161 10142 net.cpp:91] Creating Layer inception_4c/relu_pool_proj
I0403 20:00:31.802180 10142 net.cpp:425] inception_4c/relu_pool_proj <- inception_4c/pool_proj
I0403 20:00:31.802204 10142 net.cpp:386] inception_4c/relu_pool_proj -> inception_4c/pool_proj (in-place)
I0403 20:00:31.802393 10142 net.cpp:141] Setting up inception_4c/relu_pool_proj
I0403 20:00:31.802420 10142 net.cpp:148] Top shape: 24 64 14 14 (301056)
I0403 20:00:31.802436 10142 net.cpp:156] Memory required for data: 1063013664
I0403 20:00:31.802450 10142 layer_factory.hpp:77] Creating layer inception_4c/output
I0403 20:00:31.802466 10142 net.cpp:91] Creating Layer inception_4c/output
I0403 20:00:31.802481 10142 net.cpp:425] inception_4c/output <- inception_4c/1x1
I0403 20:00:31.802497 10142 net.cpp:425] inception_4c/output <- inception_4c/3x3
I0403 20:00:31.802512 10142 net.cpp:425] inception_4c/output <- inception_4c/5x5
I0403 20:00:31.802536 10142 net.cpp:425] inception_4c/output <- inception_4c/pool_proj
I0403 20:00:31.802554 10142 net.cpp:399] inception_4c/output -> inception_4c/output
I0403 20:00:31.802598 10142 net.cpp:141] Setting up inception_4c/output
I0403 20:00:31.802620 10142 net.cpp:148] Top shape: 24 512 14 14 (2408448)
I0403 20:00:31.802634 10142 net.cpp:156] Memory required for data: 1072647456
I0403 20:00:31.802649 10142 layer_factory.hpp:77] Creating layer inception_4c/output_inception_4c/output_0_split
I0403 20:00:31.802667 10142 net.cpp:91] Creating Layer inception_4c/output_inception_4c/output_0_split
I0403 20:00:31.802682 10142 net.cpp:425] inception_4c/output_inception_4c/output_0_split <- inception_4c/output
I0403 20:00:31.802700 10142 net.cpp:399] inception_4c/output_inception_4c/output_0_split -> inception_4c/output_inception_4c/output_0_split_0
I0403 20:00:31.802719 10142 net.cpp:399] inception_4c/output_inception_4c/output_0_split -> inception_4c/output_inception_4c/output_0_split_1
I0403 20:00:31.802741 10142 net.cpp:399] inception_4c/output_inception_4c/output_0_split -> inception_4c/output_inception_4c/output_0_split_2
I0403 20:00:31.802762 10142 net.cpp:399] inception_4c/output_inception_4c/output_0_split -> inception_4c/output_inception_4c/output_0_split_3
I0403 20:00:31.802845 10142 net.cpp:141] Setting up inception_4c/output_inception_4c/output_0_split
I0403 20:00:31.802868 10142 net.cpp:148] Top shape: 24 512 14 14 (2408448)
I0403 20:00:31.802883 10142 net.cpp:148] Top shape: 24 512 14 14 (2408448)
I0403 20:00:31.802898 10142 net.cpp:148] Top shape: 24 512 14 14 (2408448)
I0403 20:00:31.802913 10142 net.cpp:148] Top shape: 24 512 14 14 (2408448)
I0403 20:00:31.802927 10142 net.cpp:156] Memory required for data: 1111182624
I0403 20:00:31.802940 10142 layer_factory.hpp:77] Creating layer inception_4d/1x1
I0403 20:00:31.802961 10142 net.cpp:91] Creating Layer inception_4d/1x1
I0403 20:00:31.802979 10142 net.cpp:425] inception_4d/1x1 <- inception_4c/output_inception_4c/output_0_split_0
I0403 20:00:31.803002 10142 net.cpp:399] inception_4d/1x1 -> inception_4d/1x1
I0403 20:00:31.804344 10142 net.cpp:141] Setting up inception_4d/1x1
I0403 20:00:31.804373 10142 net.cpp:148] Top shape: 24 112 14 14 (526848)
I0403 20:00:31.804388 10142 net.cpp:156] Memory required for data: 1113290016
I0403 20:00:31.804404 10142 layer_factory.hpp:77] Creating layer inception_4d/relu_1x1
I0403 20:00:31.804425 10142 net.cpp:91] Creating Layer inception_4d/relu_1x1
I0403 20:00:31.804442 10142 net.cpp:425] inception_4d/relu_1x1 <- inception_4d/1x1
I0403 20:00:31.804460 10142 net.cpp:386] inception_4d/relu_1x1 -> inception_4d/1x1 (in-place)
I0403 20:00:31.804637 10142 net.cpp:141] Setting up inception_4d/relu_1x1
I0403 20:00:31.804661 10142 net.cpp:148] Top shape: 24 112 14 14 (526848)
I0403 20:00:31.804674 10142 net.cpp:156] Memory required for data: 1115397408
I0403 20:00:31.804689 10142 layer_factory.hpp:77] Creating layer inception_4d/3x3_reduce
I0403 20:00:31.804723 10142 net.cpp:91] Creating Layer inception_4d/3x3_reduce
I0403 20:00:31.804744 10142 net.cpp:425] inception_4d/3x3_reduce <- inception_4c/output_inception_4c/output_0_split_1
I0403 20:00:31.804762 10142 net.cpp:399] inception_4d/3x3_reduce -> inception_4d/3x3_reduce
I0403 20:00:31.806226 10142 net.cpp:141] Setting up inception_4d/3x3_reduce
I0403 20:00:31.806257 10142 net.cpp:148] Top shape: 24 144 14 14 (677376)
I0403 20:00:31.806272 10142 net.cpp:156] Memory required for data: 1118106912
I0403 20:00:31.806290 10142 layer_factory.hpp:77] Creating layer inception_4d/relu_3x3_reduce
I0403 20:00:31.806308 10142 net.cpp:91] Creating Layer inception_4d/relu_3x3_reduce
I0403 20:00:31.806324 10142 net.cpp:425] inception_4d/relu_3x3_reduce <- inception_4d/3x3_reduce
I0403 20:00:31.806342 10142 net.cpp:386] inception_4d/relu_3x3_reduce -> inception_4d/3x3_reduce (in-place)
I0403 20:00:31.806622 10142 net.cpp:141] Setting up inception_4d/relu_3x3_reduce
I0403 20:00:31.806648 10142 net.cpp:148] Top shape: 24 144 14 14 (677376)
I0403 20:00:31.806661 10142 net.cpp:156] Memory required for data: 1120816416
I0403 20:00:31.806675 10142 layer_factory.hpp:77] Creating layer inception_4d/3x3
I0403 20:00:31.806697 10142 net.cpp:91] Creating Layer inception_4d/3x3
I0403 20:00:31.806715 10142 net.cpp:425] inception_4d/3x3 <- inception_4d/3x3_reduce
I0403 20:00:31.806735 10142 net.cpp:399] inception_4d/3x3 -> inception_4d/3x3
I0403 20:00:31.810874 10142 net.cpp:141] Setting up inception_4d/3x3
I0403 20:00:31.810904 10142 net.cpp:148] Top shape: 24 288 14 14 (1354752)
I0403 20:00:31.810920 10142 net.cpp:156] Memory required for data: 1126235424
I0403 20:00:31.810938 10142 layer_factory.hpp:77] Creating layer inception_4d/relu_3x3
I0403 20:00:31.810958 10142 net.cpp:91] Creating Layer inception_4d/relu_3x3
I0403 20:00:31.810977 10142 net.cpp:425] inception_4d/relu_3x3 <- inception_4d/3x3
I0403 20:00:31.810995 10142 net.cpp:386] inception_4d/relu_3x3 -> inception_4d/3x3 (in-place)
I0403 20:00:31.811180 10142 net.cpp:141] Setting up inception_4d/relu_3x3
I0403 20:00:31.811210 10142 net.cpp:148] Top shape: 24 288 14 14 (1354752)
I0403 20:00:31.811226 10142 net.cpp:156] Memory required for data: 1131654432
I0403 20:00:31.811244 10142 layer_factory.hpp:77] Creating layer inception_4d/5x5_reduce
I0403 20:00:31.811264 10142 net.cpp:91] Creating Layer inception_4d/5x5_reduce
I0403 20:00:31.811281 10142 net.cpp:425] inception_4d/5x5_reduce <- inception_4c/output_inception_4c/output_0_split_2
I0403 20:00:31.811303 10142 net.cpp:399] inception_4d/5x5_reduce -> inception_4d/5x5_reduce
I0403 20:00:31.812417 10142 net.cpp:141] Setting up inception_4d/5x5_reduce
I0403 20:00:31.812443 10142 net.cpp:148] Top shape: 24 32 14 14 (150528)
I0403 20:00:31.812458 10142 net.cpp:156] Memory required for data: 1132256544
I0403 20:00:31.812475 10142 layer_factory.hpp:77] Creating layer inception_4d/relu_5x5_reduce
I0403 20:00:31.812495 10142 net.cpp:91] Creating Layer inception_4d/relu_5x5_reduce
I0403 20:00:31.812511 10142 net.cpp:425] inception_4d/relu_5x5_reduce <- inception_4d/5x5_reduce
I0403 20:00:31.812528 10142 net.cpp:386] inception_4d/relu_5x5_reduce -> inception_4d/5x5_reduce (in-place)
I0403 20:00:31.812703 10142 net.cpp:141] Setting up inception_4d/relu_5x5_reduce
I0403 20:00:31.812726 10142 net.cpp:148] Top shape: 24 32 14 14 (150528)
I0403 20:00:31.812741 10142 net.cpp:156] Memory required for data: 1132858656
I0403 20:00:31.812754 10142 layer_factory.hpp:77] Creating layer inception_4d/5x5
I0403 20:00:31.812777 10142 net.cpp:91] Creating Layer inception_4d/5x5
I0403 20:00:31.812793 10142 net.cpp:425] inception_4d/5x5 <- inception_4d/5x5_reduce
I0403 20:00:31.812810 10142 net.cpp:399] inception_4d/5x5 -> inception_4d/5x5
I0403 20:00:31.814193 10142 net.cpp:141] Setting up inception_4d/5x5
I0403 20:00:31.814218 10142 net.cpp:148] Top shape: 24 64 14 14 (301056)
I0403 20:00:31.814234 10142 net.cpp:156] Memory required for data: 1134062880
I0403 20:00:31.814259 10142 layer_factory.hpp:77] Creating layer inception_4d/relu_5x5
I0403 20:00:31.814290 10142 net.cpp:91] Creating Layer inception_4d/relu_5x5
I0403 20:00:31.814306 10142 net.cpp:425] inception_4d/relu_5x5 <- inception_4d/5x5
I0403 20:00:31.814321 10142 net.cpp:386] inception_4d/relu_5x5 -> inception_4d/5x5 (in-place)
I0403 20:00:31.814611 10142 net.cpp:141] Setting up inception_4d/relu_5x5
I0403 20:00:31.814636 10142 net.cpp:148] Top shape: 24 64 14 14 (301056)
I0403 20:00:31.814651 10142 net.cpp:156] Memory required for data: 1135267104
I0403 20:00:31.814664 10142 layer_factory.hpp:77] Creating layer inception_4d/pool
I0403 20:00:31.814682 10142 net.cpp:91] Creating Layer inception_4d/pool
I0403 20:00:31.814698 10142 net.cpp:425] inception_4d/pool <- inception_4c/output_inception_4c/output_0_split_3
I0403 20:00:31.814721 10142 net.cpp:399] inception_4d/pool -> inception_4d/pool
I0403 20:00:31.814785 10142 net.cpp:141] Setting up inception_4d/pool
I0403 20:00:31.814807 10142 net.cpp:148] Top shape: 24 512 14 14 (2408448)
I0403 20:00:31.814821 10142 net.cpp:156] Memory required for data: 1144900896
I0403 20:00:31.814834 10142 layer_factory.hpp:77] Creating layer inception_4d/pool_proj
I0403 20:00:31.814856 10142 net.cpp:91] Creating Layer inception_4d/pool_proj
I0403 20:00:31.814872 10142 net.cpp:425] inception_4d/pool_proj <- inception_4d/pool
I0403 20:00:31.814893 10142 net.cpp:399] inception_4d/pool_proj -> inception_4d/pool_proj
I0403 20:00:31.816550 10142 net.cpp:141] Setting up inception_4d/pool_proj
I0403 20:00:31.816576 10142 net.cpp:148] Top shape: 24 64 14 14 (301056)
I0403 20:00:31.816591 10142 net.cpp:156] Memory required for data: 1146105120
I0403 20:00:31.816608 10142 layer_factory.hpp:77] Creating layer inception_4d/relu_pool_proj
I0403 20:00:31.816627 10142 net.cpp:91] Creating Layer inception_4d/relu_pool_proj
I0403 20:00:31.816644 10142 net.cpp:425] inception_4d/relu_pool_proj <- inception_4d/pool_proj
I0403 20:00:31.816661 10142 net.cpp:386] inception_4d/relu_pool_proj -> inception_4d/pool_proj (in-place)
I0403 20:00:31.816834 10142 net.cpp:141] Setting up inception_4d/relu_pool_proj
I0403 20:00:31.816859 10142 net.cpp:148] Top shape: 24 64 14 14 (301056)
I0403 20:00:31.816874 10142 net.cpp:156] Memory required for data: 1147309344
I0403 20:00:31.816889 10142 layer_factory.hpp:77] Creating layer inception_4d/output
I0403 20:00:31.816905 10142 net.cpp:91] Creating Layer inception_4d/output
I0403 20:00:31.816920 10142 net.cpp:425] inception_4d/output <- inception_4d/1x1
I0403 20:00:31.816936 10142 net.cpp:425] inception_4d/output <- inception_4d/3x3
I0403 20:00:31.816951 10142 net.cpp:425] inception_4d/output <- inception_4d/5x5
I0403 20:00:31.816965 10142 net.cpp:425] inception_4d/output <- inception_4d/pool_proj
I0403 20:00:31.816980 10142 net.cpp:399] inception_4d/output -> inception_4d/output
I0403 20:00:31.817028 10142 net.cpp:141] Setting up inception_4d/output
I0403 20:00:31.817049 10142 net.cpp:148] Top shape: 24 528 14 14 (2483712)
I0403 20:00:31.817062 10142 net.cpp:156] Memory required for data: 1157244192
I0403 20:00:31.817075 10142 layer_factory.hpp:77] Creating layer inception_4d/output_inception_4d/output_0_split
I0403 20:00:31.817092 10142 net.cpp:91] Creating Layer inception_4d/output_inception_4d/output_0_split
I0403 20:00:31.817111 10142 net.cpp:425] inception_4d/output_inception_4d/output_0_split <- inception_4d/output
I0403 20:00:31.817127 10142 net.cpp:399] inception_4d/output_inception_4d/output_0_split -> inception_4d/output_inception_4d/output_0_split_0
I0403 20:00:31.817147 10142 net.cpp:399] inception_4d/output_inception_4d/output_0_split -> inception_4d/output_inception_4d/output_0_split_1
I0403 20:00:31.817165 10142 net.cpp:399] inception_4d/output_inception_4d/output_0_split -> inception_4d/output_inception_4d/output_0_split_2
I0403 20:00:31.817184 10142 net.cpp:399] inception_4d/output_inception_4d/output_0_split -> inception_4d/output_inception_4d/output_0_split_3
I0403 20:00:31.817206 10142 net.cpp:399] inception_4d/output_inception_4d/output_0_split -> inception_4d/output_inception_4d/output_0_split_4
I0403 20:00:31.817311 10142 net.cpp:141] Setting up inception_4d/output_inception_4d/output_0_split
I0403 20:00:31.817344 10142 net.cpp:148] Top shape: 24 528 14 14 (2483712)
I0403 20:00:31.817360 10142 net.cpp:148] Top shape: 24 528 14 14 (2483712)
I0403 20:00:31.817375 10142 net.cpp:148] Top shape: 24 528 14 14 (2483712)
I0403 20:00:31.817389 10142 net.cpp:148] Top shape: 24 528 14 14 (2483712)
I0403 20:00:31.817404 10142 net.cpp:148] Top shape: 24 528 14 14 (2483712)
I0403 20:00:31.817416 10142 net.cpp:156] Memory required for data: 1206918432
I0403 20:00:31.817430 10142 layer_factory.hpp:77] Creating layer loss2/ave_pool
I0403 20:00:31.817446 10142 net.cpp:91] Creating Layer loss2/ave_pool
I0403 20:00:31.817461 10142 net.cpp:425] loss2/ave_pool <- inception_4d/output_inception_4d/output_0_split_0
I0403 20:00:31.817484 10142 net.cpp:399] loss2/ave_pool -> loss2/ave_pool
I0403 20:00:31.817776 10142 net.cpp:141] Setting up loss2/ave_pool
I0403 20:00:31.817801 10142 net.cpp:148] Top shape: 24 528 4 4 (202752)
I0403 20:00:31.817816 10142 net.cpp:156] Memory required for data: 1207729440
I0403 20:00:31.817829 10142 layer_factory.hpp:77] Creating layer loss2/conv
I0403 20:00:31.817850 10142 net.cpp:91] Creating Layer loss2/conv
I0403 20:00:31.817867 10142 net.cpp:425] loss2/conv <- loss2/ave_pool
I0403 20:00:31.817886 10142 net.cpp:399] loss2/conv -> loss2/conv
I0403 20:00:31.819700 10142 net.cpp:141] Setting up loss2/conv
I0403 20:00:31.819730 10142 net.cpp:148] Top shape: 24 128 4 4 (49152)
I0403 20:00:31.819746 10142 net.cpp:156] Memory required for data: 1207926048
I0403 20:00:31.819762 10142 layer_factory.hpp:77] Creating layer loss2/relu_conv
I0403 20:00:31.819780 10142 net.cpp:91] Creating Layer loss2/relu_conv
I0403 20:00:31.819797 10142 net.cpp:425] loss2/relu_conv <- loss2/conv
I0403 20:00:31.819813 10142 net.cpp:386] loss2/relu_conv -> loss2/conv (in-place)
I0403 20:00:31.820080 10142 net.cpp:141] Setting up loss2/relu_conv
I0403 20:00:31.820107 10142 net.cpp:148] Top shape: 24 128 4 4 (49152)
I0403 20:00:31.820122 10142 net.cpp:156] Memory required for data: 1208122656
I0403 20:00:31.820137 10142 layer_factory.hpp:77] Creating layer loss2/fc
I0403 20:00:31.820155 10142 net.cpp:91] Creating Layer loss2/fc
I0403 20:00:31.820183 10142 net.cpp:425] loss2/fc <- loss2/conv
I0403 20:00:31.820204 10142 net.cpp:399] loss2/fc -> loss2/fc
I0403 20:00:31.837019 10142 net.cpp:141] Setting up loss2/fc
I0403 20:00:31.837051 10142 net.cpp:148] Top shape: 24 1024 (24576)
I0403 20:00:31.837066 10142 net.cpp:156] Memory required for data: 1208220960
I0403 20:00:31.837085 10142 layer_factory.hpp:77] Creating layer loss2/relu_fc
I0403 20:00:31.837103 10142 net.cpp:91] Creating Layer loss2/relu_fc
I0403 20:00:31.837121 10142 net.cpp:425] loss2/relu_fc <- loss2/fc
I0403 20:00:31.837136 10142 net.cpp:386] loss2/relu_fc -> loss2/fc (in-place)
I0403 20:00:31.837421 10142 net.cpp:141] Setting up loss2/relu_fc
I0403 20:00:31.837447 10142 net.cpp:148] Top shape: 24 1024 (24576)
I0403 20:00:31.837461 10142 net.cpp:156] Memory required for data: 1208319264
I0403 20:00:31.837476 10142 layer_factory.hpp:77] Creating layer loss2/drop_fc
I0403 20:00:31.837494 10142 net.cpp:91] Creating Layer loss2/drop_fc
I0403 20:00:31.837510 10142 net.cpp:425] loss2/drop_fc <- loss2/fc
I0403 20:00:31.837527 10142 net.cpp:386] loss2/drop_fc -> loss2/fc (in-place)
I0403 20:00:31.837574 10142 net.cpp:141] Setting up loss2/drop_fc
I0403 20:00:31.837596 10142 net.cpp:148] Top shape: 24 1024 (24576)
I0403 20:00:31.837610 10142 net.cpp:156] Memory required for data: 1208417568
I0403 20:00:31.837623 10142 layer_factory.hpp:77] Creating layer loss2/classifier_plantvillage
I0403 20:00:31.837641 10142 net.cpp:91] Creating Layer loss2/classifier_plantvillage
I0403 20:00:31.837656 10142 net.cpp:425] loss2/classifier_plantvillage <- loss2/fc
I0403 20:00:31.837676 10142 net.cpp:399] loss2/classifier_plantvillage -> loss2/classifier_plantvillage
I0403 20:00:31.838055 10142 net.cpp:141] Setting up loss2/classifier_plantvillage
I0403 20:00:31.838078 10142 net.cpp:148] Top shape: 24 38 (912)
I0403 20:00:31.838093 10142 net.cpp:156] Memory required for data: 1208421216
I0403 20:00:31.838125 10142 layer_factory.hpp:77] Creating layer loss2/classifier_plantvillage_loss2/classifier_plantvillage_0_split
I0403 20:00:31.838142 10142 net.cpp:91] Creating Layer loss2/classifier_plantvillage_loss2/classifier_plantvillage_0_split
I0403 20:00:31.838158 10142 net.cpp:425] loss2/classifier_plantvillage_loss2/classifier_plantvillage_0_split <- loss2/classifier_plantvillage
I0403 20:00:31.838177 10142 net.cpp:399] loss2/classifier_plantvillage_loss2/classifier_plantvillage_0_split -> loss2/classifier_plantvillage_loss2/classifier_plantvillage_0_split_0
I0403 20:00:31.838197 10142 net.cpp:399] loss2/classifier_plantvillage_loss2/classifier_plantvillage_0_split -> loss2/classifier_plantvillage_loss2/classifier_plantvillage_0_split_1
I0403 20:00:31.838217 10142 net.cpp:399] loss2/classifier_plantvillage_loss2/classifier_plantvillage_0_split -> loss2/classifier_plantvillage_loss2/classifier_plantvillage_0_split_2
I0403 20:00:31.838294 10142 net.cpp:141] Setting up loss2/classifier_plantvillage_loss2/classifier_plantvillage_0_split
I0403 20:00:31.838320 10142 net.cpp:148] Top shape: 24 38 (912)
I0403 20:00:31.838335 10142 net.cpp:148] Top shape: 24 38 (912)
I0403 20:00:31.838349 10142 net.cpp:148] Top shape: 24 38 (912)
I0403 20:00:31.838362 10142 net.cpp:156] Memory required for data: 1208432160
I0403 20:00:31.838376 10142 layer_factory.hpp:77] Creating layer inception_4e/1x1
I0403 20:00:31.838395 10142 net.cpp:91] Creating Layer inception_4e/1x1
I0403 20:00:31.838410 10142 net.cpp:425] inception_4e/1x1 <- inception_4d/output_inception_4d/output_0_split_1
I0403 20:00:31.838430 10142 net.cpp:399] inception_4e/1x1 -> inception_4e/1x1
I0403 20:00:31.840145 10142 net.cpp:141] Setting up inception_4e/1x1
I0403 20:00:31.840174 10142 net.cpp:148] Top shape: 24 256 14 14 (1204224)
I0403 20:00:31.840189 10142 net.cpp:156] Memory required for data: 1213249056
I0403 20:00:31.840206 10142 layer_factory.hpp:77] Creating layer inception_4e/relu_1x1
I0403 20:00:31.840224 10142 net.cpp:91] Creating Layer inception_4e/relu_1x1
I0403 20:00:31.840243 10142 net.cpp:425] inception_4e/relu_1x1 <- inception_4e/1x1
I0403 20:00:31.840263 10142 net.cpp:386] inception_4e/relu_1x1 -> inception_4e/1x1 (in-place)
I0403 20:00:31.840543 10142 net.cpp:141] Setting up inception_4e/relu_1x1
I0403 20:00:31.840570 10142 net.cpp:148] Top shape: 24 256 14 14 (1204224)
I0403 20:00:31.840585 10142 net.cpp:156] Memory required for data: 1218065952
I0403 20:00:31.840600 10142 layer_factory.hpp:77] Creating layer inception_4e/3x3_reduce
I0403 20:00:31.840620 10142 net.cpp:91] Creating Layer inception_4e/3x3_reduce
I0403 20:00:31.840637 10142 net.cpp:425] inception_4e/3x3_reduce <- inception_4d/output_inception_4d/output_0_split_2
I0403 20:00:31.840656 10142 net.cpp:399] inception_4e/3x3_reduce -> inception_4e/3x3_reduce
I0403 20:00:31.842658 10142 net.cpp:141] Setting up inception_4e/3x3_reduce
I0403 20:00:31.842689 10142 net.cpp:148] Top shape: 24 160 14 14 (752640)
I0403 20:00:31.842705 10142 net.cpp:156] Memory required for data: 1221076512
I0403 20:00:31.842721 10142 layer_factory.hpp:77] Creating layer inception_4e/relu_3x3_reduce
I0403 20:00:31.842738 10142 net.cpp:91] Creating Layer inception_4e/relu_3x3_reduce
I0403 20:00:31.842753 10142 net.cpp:425] inception_4e/relu_3x3_reduce <- inception_4e/3x3_reduce
I0403 20:00:31.842770 10142 net.cpp:386] inception_4e/relu_3x3_reduce -> inception_4e/3x3_reduce (in-place)
I0403 20:00:31.842946 10142 net.cpp:141] Setting up inception_4e/relu_3x3_reduce
I0403 20:00:31.842970 10142 net.cpp:148] Top shape: 24 160 14 14 (752640)
I0403 20:00:31.842985 10142 net.cpp:156] Memory required for data: 1224087072
I0403 20:00:31.842999 10142 layer_factory.hpp:77] Creating layer inception_4e/3x3
I0403 20:00:31.843020 10142 net.cpp:91] Creating Layer inception_4e/3x3
I0403 20:00:31.843037 10142 net.cpp:425] inception_4e/3x3 <- inception_4e/3x3_reduce
I0403 20:00:31.843058 10142 net.cpp:399] inception_4e/3x3 -> inception_4e/3x3
I0403 20:00:31.847802 10142 net.cpp:141] Setting up inception_4e/3x3
I0403 20:00:31.847844 10142 net.cpp:148] Top shape: 24 320 14 14 (1505280)
I0403 20:00:31.847861 10142 net.cpp:156] Memory required for data: 1230108192
I0403 20:00:31.847878 10142 layer_factory.hpp:77] Creating layer inception_4e/relu_3x3
I0403 20:00:31.847894 10142 net.cpp:91] Creating Layer inception_4e/relu_3x3
I0403 20:00:31.847910 10142 net.cpp:425] inception_4e/relu_3x3 <- inception_4e/3x3
I0403 20:00:31.847929 10142 net.cpp:386] inception_4e/relu_3x3 -> inception_4e/3x3 (in-place)
I0403 20:00:31.848209 10142 net.cpp:141] Setting up inception_4e/relu_3x3
I0403 20:00:31.848234 10142 net.cpp:148] Top shape: 24 320 14 14 (1505280)
I0403 20:00:31.848253 10142 net.cpp:156] Memory required for data: 1236129312
I0403 20:00:31.848268 10142 layer_factory.hpp:77] Creating layer inception_4e/5x5_reduce
I0403 20:00:31.848289 10142 net.cpp:91] Creating Layer inception_4e/5x5_reduce
I0403 20:00:31.848304 10142 net.cpp:425] inception_4e/5x5_reduce <- inception_4d/output_inception_4d/output_0_split_3
I0403 20:00:31.848326 10142 net.cpp:399] inception_4e/5x5_reduce -> inception_4e/5x5_reduce
I0403 20:00:31.849337 10142 net.cpp:141] Setting up inception_4e/5x5_reduce
I0403 20:00:31.849364 10142 net.cpp:148] Top shape: 24 32 14 14 (150528)
I0403 20:00:31.849378 10142 net.cpp:156] Memory required for data: 1236731424
I0403 20:00:31.849396 10142 layer_factory.hpp:77] Creating layer inception_4e/relu_5x5_reduce
I0403 20:00:31.849414 10142 net.cpp:91] Creating Layer inception_4e/relu_5x5_reduce
I0403 20:00:31.849431 10142 net.cpp:425] inception_4e/relu_5x5_reduce <- inception_4e/5x5_reduce
I0403 20:00:31.849447 10142 net.cpp:386] inception_4e/relu_5x5_reduce -> inception_4e/5x5_reduce (in-place)
I0403 20:00:31.849731 10142 net.cpp:141] Setting up inception_4e/relu_5x5_reduce
I0403 20:00:31.849756 10142 net.cpp:148] Top shape: 24 32 14 14 (150528)
I0403 20:00:31.849769 10142 net.cpp:156] Memory required for data: 1237333536
I0403 20:00:31.849782 10142 layer_factory.hpp:77] Creating layer inception_4e/5x5
I0403 20:00:31.849818 10142 net.cpp:91] Creating Layer inception_4e/5x5
I0403 20:00:31.849843 10142 net.cpp:425] inception_4e/5x5 <- inception_4e/5x5_reduce
I0403 20:00:31.849861 10142 net.cpp:399] inception_4e/5x5 -> inception_4e/5x5
I0403 20:00:31.851590 10142 net.cpp:141] Setting up inception_4e/5x5
I0403 20:00:31.851618 10142 net.cpp:148] Top shape: 24 128 14 14 (602112)
I0403 20:00:31.851632 10142 net.cpp:156] Memory required for data: 1239741984
I0403 20:00:31.851650 10142 layer_factory.hpp:77] Creating layer inception_4e/relu_5x5
I0403 20:00:31.851670 10142 net.cpp:91] Creating Layer inception_4e/relu_5x5
I0403 20:00:31.851686 10142 net.cpp:425] inception_4e/relu_5x5 <- inception_4e/5x5
I0403 20:00:31.851702 10142 net.cpp:386] inception_4e/relu_5x5 -> inception_4e/5x5 (in-place)
I0403 20:00:31.851887 10142 net.cpp:141] Setting up inception_4e/relu_5x5
I0403 20:00:31.851913 10142 net.cpp:148] Top shape: 24 128 14 14 (602112)
I0403 20:00:31.851928 10142 net.cpp:156] Memory required for data: 1242150432
I0403 20:00:31.851943 10142 layer_factory.hpp:77] Creating layer inception_4e/pool
I0403 20:00:31.851958 10142 net.cpp:91] Creating Layer inception_4e/pool
I0403 20:00:31.851974 10142 net.cpp:425] inception_4e/pool <- inception_4d/output_inception_4d/output_0_split_4
I0403 20:00:31.851990 10142 net.cpp:399] inception_4e/pool -> inception_4e/pool
I0403 20:00:31.852056 10142 net.cpp:141] Setting up inception_4e/pool
I0403 20:00:31.852078 10142 net.cpp:148] Top shape: 24 528 14 14 (2483712)
I0403 20:00:31.852092 10142 net.cpp:156] Memory required for data: 1252085280
I0403 20:00:31.852107 10142 layer_factory.hpp:77] Creating layer inception_4e/pool_proj
I0403 20:00:31.852126 10142 net.cpp:91] Creating Layer inception_4e/pool_proj
I0403 20:00:31.852143 10142 net.cpp:425] inception_4e/pool_proj <- inception_4e/pool
I0403 20:00:31.852162 10142 net.cpp:399] inception_4e/pool_proj -> inception_4e/pool_proj
I0403 20:00:31.853606 10142 net.cpp:141] Setting up inception_4e/pool_proj
I0403 20:00:31.853634 10142 net.cpp:148] Top shape: 24 128 14 14 (602112)
I0403 20:00:31.853662 10142 net.cpp:156] Memory required for data: 1254493728
I0403 20:00:31.853679 10142 layer_factory.hpp:77] Creating layer inception_4e/relu_pool_proj
I0403 20:00:31.853703 10142 net.cpp:91] Creating Layer inception_4e/relu_pool_proj
I0403 20:00:31.853720 10142 net.cpp:425] inception_4e/relu_pool_proj <- inception_4e/pool_proj
I0403 20:00:31.853737 10142 net.cpp:386] inception_4e/relu_pool_proj -> inception_4e/pool_proj (in-place)
I0403 20:00:31.854014 10142 net.cpp:141] Setting up inception_4e/relu_pool_proj
I0403 20:00:31.854039 10142 net.cpp:148] Top shape: 24 128 14 14 (602112)
I0403 20:00:31.854053 10142 net.cpp:156] Memory required for data: 1256902176
I0403 20:00:31.854068 10142 layer_factory.hpp:77] Creating layer inception_4e/output
I0403 20:00:31.854084 10142 net.cpp:91] Creating Layer inception_4e/output
I0403 20:00:31.854099 10142 net.cpp:425] inception_4e/output <- inception_4e/1x1
I0403 20:00:31.854115 10142 net.cpp:425] inception_4e/output <- inception_4e/3x3
I0403 20:00:31.854130 10142 net.cpp:425] inception_4e/output <- inception_4e/5x5
I0403 20:00:31.854145 10142 net.cpp:425] inception_4e/output <- inception_4e/pool_proj
I0403 20:00:31.854162 10142 net.cpp:399] inception_4e/output -> inception_4e/output
I0403 20:00:31.854212 10142 net.cpp:141] Setting up inception_4e/output
I0403 20:00:31.854234 10142 net.cpp:148] Top shape: 24 832 14 14 (3913728)
I0403 20:00:31.854252 10142 net.cpp:156] Memory required for data: 1272557088
I0403 20:00:31.854267 10142 layer_factory.hpp:77] Creating layer pool4/3x3_s2
I0403 20:00:31.854284 10142 net.cpp:91] Creating Layer pool4/3x3_s2
I0403 20:00:31.854298 10142 net.cpp:425] pool4/3x3_s2 <- inception_4e/output
I0403 20:00:31.854318 10142 net.cpp:399] pool4/3x3_s2 -> pool4/3x3_s2
I0403 20:00:31.854382 10142 net.cpp:141] Setting up pool4/3x3_s2
I0403 20:00:31.854404 10142 net.cpp:148] Top shape: 24 832 7 7 (978432)
I0403 20:00:31.854418 10142 net.cpp:156] Memory required for data: 1276470816
I0403 20:00:31.854434 10142 layer_factory.hpp:77] Creating layer pool4/3x3_s2_pool4/3x3_s2_0_split
I0403 20:00:31.854452 10142 net.cpp:91] Creating Layer pool4/3x3_s2_pool4/3x3_s2_0_split
I0403 20:00:31.854470 10142 net.cpp:425] pool4/3x3_s2_pool4/3x3_s2_0_split <- pool4/3x3_s2
I0403 20:00:31.854486 10142 net.cpp:399] pool4/3x3_s2_pool4/3x3_s2_0_split -> pool4/3x3_s2_pool4/3x3_s2_0_split_0
I0403 20:00:31.854507 10142 net.cpp:399] pool4/3x3_s2_pool4/3x3_s2_0_split -> pool4/3x3_s2_pool4/3x3_s2_0_split_1
I0403 20:00:31.854527 10142 net.cpp:399] pool4/3x3_s2_pool4/3x3_s2_0_split -> pool4/3x3_s2_pool4/3x3_s2_0_split_2
I0403 20:00:31.854547 10142 net.cpp:399] pool4/3x3_s2_pool4/3x3_s2_0_split -> pool4/3x3_s2_pool4/3x3_s2_0_split_3
I0403 20:00:31.854630 10142 net.cpp:141] Setting up pool4/3x3_s2_pool4/3x3_s2_0_split
I0403 20:00:31.854652 10142 net.cpp:148] Top shape: 24 832 7 7 (978432)
I0403 20:00:31.854667 10142 net.cpp:148] Top shape: 24 832 7 7 (978432)
I0403 20:00:31.854682 10142 net.cpp:148] Top shape: 24 832 7 7 (978432)
I0403 20:00:31.854696 10142 net.cpp:148] Top shape: 24 832 7 7 (978432)
I0403 20:00:31.854709 10142 net.cpp:156] Memory required for data: 1292125728
I0403 20:00:31.854723 10142 layer_factory.hpp:77] Creating layer inception_5a/1x1
I0403 20:00:31.854744 10142 net.cpp:91] Creating Layer inception_5a/1x1
I0403 20:00:31.854761 10142 net.cpp:425] inception_5a/1x1 <- pool4/3x3_s2_pool4/3x3_s2_0_split_0
I0403 20:00:31.854781 10142 net.cpp:399] inception_5a/1x1 -> inception_5a/1x1
I0403 20:00:31.857487 10142 net.cpp:141] Setting up inception_5a/1x1
I0403 20:00:31.857514 10142 net.cpp:148] Top shape: 24 256 7 7 (301056)
I0403 20:00:31.857529 10142 net.cpp:156] Memory required for data: 1293329952
I0403 20:00:31.857547 10142 layer_factory.hpp:77] Creating layer inception_5a/relu_1x1
I0403 20:00:31.857568 10142 net.cpp:91] Creating Layer inception_5a/relu_1x1
I0403 20:00:31.857586 10142 net.cpp:425] inception_5a/relu_1x1 <- inception_5a/1x1
I0403 20:00:31.857604 10142 net.cpp:386] inception_5a/relu_1x1 -> inception_5a/1x1 (in-place)
I0403 20:00:31.857908 10142 net.cpp:141] Setting up inception_5a/relu_1x1
I0403 20:00:31.857933 10142 net.cpp:148] Top shape: 24 256 7 7 (301056)
I0403 20:00:31.857949 10142 net.cpp:156] Memory required for data: 1294534176
I0403 20:00:31.857962 10142 layer_factory.hpp:77] Creating layer inception_5a/3x3_reduce
I0403 20:00:31.857983 10142 net.cpp:91] Creating Layer inception_5a/3x3_reduce
I0403 20:00:31.858001 10142 net.cpp:425] inception_5a/3x3_reduce <- pool4/3x3_s2_pool4/3x3_s2_0_split_1
I0403 20:00:31.858021 10142 net.cpp:399] inception_5a/3x3_reduce -> inception_5a/3x3_reduce
I0403 20:00:31.860366 10142 net.cpp:141] Setting up inception_5a/3x3_reduce
I0403 20:00:31.860394 10142 net.cpp:148] Top shape: 24 160 7 7 (188160)
I0403 20:00:31.860410 10142 net.cpp:156] Memory required for data: 1295286816
I0403 20:00:31.860427 10142 layer_factory.hpp:77] Creating layer inception_5a/relu_3x3_reduce
I0403 20:00:31.860445 10142 net.cpp:91] Creating Layer inception_5a/relu_3x3_reduce
I0403 20:00:31.860460 10142 net.cpp:425] inception_5a/relu_3x3_reduce <- inception_5a/3x3_reduce
I0403 20:00:31.860479 10142 net.cpp:386] inception_5a/relu_3x3_reduce -> inception_5a/3x3_reduce (in-place)
I0403 20:00:31.860657 10142 net.cpp:141] Setting up inception_5a/relu_3x3_reduce
I0403 20:00:31.860680 10142 net.cpp:148] Top shape: 24 160 7 7 (188160)
I0403 20:00:31.860695 10142 net.cpp:156] Memory required for data: 1296039456
I0403 20:00:31.860709 10142 layer_factory.hpp:77] Creating layer inception_5a/3x3
I0403 20:00:31.860730 10142 net.cpp:91] Creating Layer inception_5a/3x3
I0403 20:00:31.860748 10142 net.cpp:425] inception_5a/3x3 <- inception_5a/3x3_reduce
I0403 20:00:31.860769 10142 net.cpp:399] inception_5a/3x3 -> inception_5a/3x3
I0403 20:00:31.865594 10142 net.cpp:141] Setting up inception_5a/3x3
I0403 20:00:31.865623 10142 net.cpp:148] Top shape: 24 320 7 7 (376320)
I0403 20:00:31.865638 10142 net.cpp:156] Memory required for data: 1297544736
I0403 20:00:31.865656 10142 layer_factory.hpp:77] Creating layer inception_5a/relu_3x3
I0403 20:00:31.865676 10142 net.cpp:91] Creating Layer inception_5a/relu_3x3
I0403 20:00:31.865697 10142 net.cpp:425] inception_5a/relu_3x3 <- inception_5a/3x3
I0403 20:00:31.865715 10142 net.cpp:386] inception_5a/relu_3x3 -> inception_5a/3x3 (in-place)
I0403 20:00:31.865993 10142 net.cpp:141] Setting up inception_5a/relu_3x3
I0403 20:00:31.866016 10142 net.cpp:148] Top shape: 24 320 7 7 (376320)
I0403 20:00:31.866030 10142 net.cpp:156] Memory required for data: 1299050016
I0403 20:00:31.866044 10142 layer_factory.hpp:77] Creating layer inception_5a/5x5_reduce
I0403 20:00:31.866066 10142 net.cpp:91] Creating Layer inception_5a/5x5_reduce
I0403 20:00:31.866086 10142 net.cpp:425] inception_5a/5x5_reduce <- pool4/3x3_s2_pool4/3x3_s2_0_split_2
I0403 20:00:31.866106 10142 net.cpp:399] inception_5a/5x5_reduce -> inception_5a/5x5_reduce
I0403 20:00:31.867219 10142 net.cpp:141] Setting up inception_5a/5x5_reduce
I0403 20:00:31.867252 10142 net.cpp:148] Top shape: 24 32 7 7 (37632)
I0403 20:00:31.867269 10142 net.cpp:156] Memory required for data: 1299200544
I0403 20:00:31.867287 10142 layer_factory.hpp:77] Creating layer inception_5a/relu_5x5_reduce
I0403 20:00:31.867305 10142 net.cpp:91] Creating Layer inception_5a/relu_5x5_reduce
I0403 20:00:31.867321 10142 net.cpp:425] inception_5a/relu_5x5_reduce <- inception_5a/5x5_reduce
I0403 20:00:31.867336 10142 net.cpp:386] inception_5a/relu_5x5_reduce -> inception_5a/5x5_reduce (in-place)
I0403 20:00:31.867616 10142 net.cpp:141] Setting up inception_5a/relu_5x5_reduce
I0403 20:00:31.867643 10142 net.cpp:148] Top shape: 24 32 7 7 (37632)
I0403 20:00:31.867658 10142 net.cpp:156] Memory required for data: 1299351072
I0403 20:00:31.867672 10142 layer_factory.hpp:77] Creating layer inception_5a/5x5
I0403 20:00:31.867694 10142 net.cpp:91] Creating Layer inception_5a/5x5
I0403 20:00:31.867712 10142 net.cpp:425] inception_5a/5x5 <- inception_5a/5x5_reduce
I0403 20:00:31.867730 10142 net.cpp:399] inception_5a/5x5 -> inception_5a/5x5
I0403 20:00:31.869360 10142 net.cpp:141] Setting up inception_5a/5x5
I0403 20:00:31.869398 10142 net.cpp:148] Top shape: 24 128 7 7 (150528)
I0403 20:00:31.869413 10142 net.cpp:156] Memory required for data: 1299953184
I0403 20:00:31.869431 10142 layer_factory.hpp:77] Creating layer inception_5a/relu_5x5
I0403 20:00:31.869451 10142 net.cpp:91] Creating Layer inception_5a/relu_5x5
I0403 20:00:31.869468 10142 net.cpp:425] inception_5a/relu_5x5 <- inception_5a/5x5
I0403 20:00:31.869484 10142 net.cpp:386] inception_5a/relu_5x5 -> inception_5a/5x5 (in-place)
I0403 20:00:31.869663 10142 net.cpp:141] Setting up inception_5a/relu_5x5
I0403 20:00:31.869688 10142 net.cpp:148] Top shape: 24 128 7 7 (150528)
I0403 20:00:31.869704 10142 net.cpp:156] Memory required for data: 1300555296
I0403 20:00:31.869717 10142 layer_factory.hpp:77] Creating layer inception_5a/pool
I0403 20:00:31.869734 10142 net.cpp:91] Creating Layer inception_5a/pool
I0403 20:00:31.869750 10142 net.cpp:425] inception_5a/pool <- pool4/3x3_s2_pool4/3x3_s2_0_split_3
I0403 20:00:31.869771 10142 net.cpp:399] inception_5a/pool -> inception_5a/pool
I0403 20:00:31.869837 10142 net.cpp:141] Setting up inception_5a/pool
I0403 20:00:31.869858 10142 net.cpp:148] Top shape: 24 832 7 7 (978432)
I0403 20:00:31.869873 10142 net.cpp:156] Memory required for data: 1304469024
I0403 20:00:31.869886 10142 layer_factory.hpp:77] Creating layer inception_5a/pool_proj
I0403 20:00:31.869907 10142 net.cpp:91] Creating Layer inception_5a/pool_proj
I0403 20:00:31.869926 10142 net.cpp:425] inception_5a/pool_proj <- inception_5a/pool
I0403 20:00:31.869945 10142 net.cpp:399] inception_5a/pool_proj -> inception_5a/pool_proj
I0403 20:00:31.872146 10142 net.cpp:141] Setting up inception_5a/pool_proj
I0403 20:00:31.872174 10142 net.cpp:148] Top shape: 24 128 7 7 (150528)
I0403 20:00:31.872187 10142 net.cpp:156] Memory required for data: 1305071136
I0403 20:00:31.872205 10142 layer_factory.hpp:77] Creating layer inception_5a/relu_pool_proj
I0403 20:00:31.872225 10142 net.cpp:91] Creating Layer inception_5a/relu_pool_proj
I0403 20:00:31.872244 10142 net.cpp:425] inception_5a/relu_pool_proj <- inception_5a/pool_proj
I0403 20:00:31.872262 10142 net.cpp:386] inception_5a/relu_pool_proj -> inception_5a/pool_proj (in-place)
I0403 20:00:31.872548 10142 net.cpp:141] Setting up inception_5a/relu_pool_proj
I0403 20:00:31.872572 10142 net.cpp:148] Top shape: 24 128 7 7 (150528)
I0403 20:00:31.872587 10142 net.cpp:156] Memory required for data: 1305673248
I0403 20:00:31.872601 10142 layer_factory.hpp:77] Creating layer inception_5a/output
I0403 20:00:31.872619 10142 net.cpp:91] Creating Layer inception_5a/output
I0403 20:00:31.872635 10142 net.cpp:425] inception_5a/output <- inception_5a/1x1
I0403 20:00:31.872651 10142 net.cpp:425] inception_5a/output <- inception_5a/3x3
I0403 20:00:31.872666 10142 net.cpp:425] inception_5a/output <- inception_5a/5x5
I0403 20:00:31.872681 10142 net.cpp:425] inception_5a/output <- inception_5a/pool_proj
I0403 20:00:31.872696 10142 net.cpp:399] inception_5a/output -> inception_5a/output
I0403 20:00:31.872742 10142 net.cpp:141] Setting up inception_5a/output
I0403 20:00:31.872766 10142 net.cpp:148] Top shape: 24 832 7 7 (978432)
I0403 20:00:31.872781 10142 net.cpp:156] Memory required for data: 1309586976
I0403 20:00:31.872794 10142 layer_factory.hpp:77] Creating layer inception_5a/output_inception_5a/output_0_split
I0403 20:00:31.872809 10142 net.cpp:91] Creating Layer inception_5a/output_inception_5a/output_0_split
I0403 20:00:31.872824 10142 net.cpp:425] inception_5a/output_inception_5a/output_0_split <- inception_5a/output
I0403 20:00:31.872843 10142 net.cpp:399] inception_5a/output_inception_5a/output_0_split -> inception_5a/output_inception_5a/output_0_split_0
I0403 20:00:31.872864 10142 net.cpp:399] inception_5a/output_inception_5a/output_0_split -> inception_5a/output_inception_5a/output_0_split_1
I0403 20:00:31.872882 10142 net.cpp:399] inception_5a/output_inception_5a/output_0_split -> inception_5a/output_inception_5a/output_0_split_2
I0403 20:00:31.872901 10142 net.cpp:399] inception_5a/output_inception_5a/output_0_split -> inception_5a/output_inception_5a/output_0_split_3
I0403 20:00:31.873005 10142 net.cpp:141] Setting up inception_5a/output_inception_5a/output_0_split
I0403 20:00:31.873030 10142 net.cpp:148] Top shape: 24 832 7 7 (978432)
I0403 20:00:31.873046 10142 net.cpp:148] Top shape: 24 832 7 7 (978432)
I0403 20:00:31.873061 10142 net.cpp:148] Top shape: 24 832 7 7 (978432)
I0403 20:00:31.873075 10142 net.cpp:148] Top shape: 24 832 7 7 (978432)
I0403 20:00:31.873088 10142 net.cpp:156] Memory required for data: 1325241888
I0403 20:00:31.873102 10142 layer_factory.hpp:77] Creating layer inception_5b/1x1
I0403 20:00:31.873123 10142 net.cpp:91] Creating Layer inception_5b/1x1
I0403 20:00:31.873141 10142 net.cpp:425] inception_5b/1x1 <- inception_5a/output_inception_5a/output_0_split_0
I0403 20:00:31.873158 10142 net.cpp:399] inception_5b/1x1 -> inception_5b/1x1
I0403 20:00:31.876724 10142 net.cpp:141] Setting up inception_5b/1x1
I0403 20:00:31.876754 10142 net.cpp:148] Top shape: 24 384 7 7 (451584)
I0403 20:00:31.876770 10142 net.cpp:156] Memory required for data: 1327048224
I0403 20:00:31.876787 10142 layer_factory.hpp:77] Creating layer inception_5b/relu_1x1
I0403 20:00:31.876804 10142 net.cpp:91] Creating Layer inception_5b/relu_1x1
I0403 20:00:31.876821 10142 net.cpp:425] inception_5b/relu_1x1 <- inception_5b/1x1
I0403 20:00:31.876839 10142 net.cpp:386] inception_5b/relu_1x1 -> inception_5b/1x1 (in-place)
I0403 20:00:31.877127 10142 net.cpp:141] Setting up inception_5b/relu_1x1
I0403 20:00:31.877152 10142 net.cpp:148] Top shape: 24 384 7 7 (451584)
I0403 20:00:31.877167 10142 net.cpp:156] Memory required for data: 1328854560
I0403 20:00:31.877182 10142 layer_factory.hpp:77] Creating layer inception_5b/3x3_reduce
I0403 20:00:31.877202 10142 net.cpp:91] Creating Layer inception_5b/3x3_reduce
I0403 20:00:31.877219 10142 net.cpp:425] inception_5b/3x3_reduce <- inception_5a/output_inception_5a/output_0_split_1
I0403 20:00:31.877244 10142 net.cpp:399] inception_5b/3x3_reduce -> inception_5b/3x3_reduce
I0403 20:00:31.879760 10142 net.cpp:141] Setting up inception_5b/3x3_reduce
I0403 20:00:31.879788 10142 net.cpp:148] Top shape: 24 192 7 7 (225792)
I0403 20:00:31.879802 10142 net.cpp:156] Memory required for data: 1329757728
I0403 20:00:31.879820 10142 layer_factory.hpp:77] Creating layer inception_5b/relu_3x3_reduce
I0403 20:00:31.879839 10142 net.cpp:91] Creating Layer inception_5b/relu_3x3_reduce
I0403 20:00:31.879856 10142 net.cpp:425] inception_5b/relu_3x3_reduce <- inception_5b/3x3_reduce
I0403 20:00:31.879873 10142 net.cpp:386] inception_5b/relu_3x3_reduce -> inception_5b/3x3_reduce (in-place)
I0403 20:00:31.880056 10142 net.cpp:141] Setting up inception_5b/relu_3x3_reduce
I0403 20:00:31.880079 10142 net.cpp:148] Top shape: 24 192 7 7 (225792)
I0403 20:00:31.880094 10142 net.cpp:156] Memory required for data: 1330660896
I0403 20:00:31.880107 10142 layer_factory.hpp:77] Creating layer inception_5b/3x3
I0403 20:00:31.880130 10142 net.cpp:91] Creating Layer inception_5b/3x3
I0403 20:00:31.880146 10142 net.cpp:425] inception_5b/3x3 <- inception_5b/3x3_reduce
I0403 20:00:31.880163 10142 net.cpp:399] inception_5b/3x3 -> inception_5b/3x3
I0403 20:00:31.886555 10142 net.cpp:141] Setting up inception_5b/3x3
I0403 20:00:31.886584 10142 net.cpp:148] Top shape: 24 384 7 7 (451584)
I0403 20:00:31.886600 10142 net.cpp:156] Memory required for data: 1332467232
I0403 20:00:31.886616 10142 layer_factory.hpp:77] Creating layer inception_5b/relu_3x3
I0403 20:00:31.886636 10142 net.cpp:91] Creating Layer inception_5b/relu_3x3
I0403 20:00:31.886652 10142 net.cpp:425] inception_5b/relu_3x3 <- inception_5b/3x3
I0403 20:00:31.886669 10142 net.cpp:386] inception_5b/relu_3x3 -> inception_5b/3x3 (in-place)
I0403 20:00:31.886955 10142 net.cpp:141] Setting up inception_5b/relu_3x3
I0403 20:00:31.886981 10142 net.cpp:148] Top shape: 24 384 7 7 (451584)
I0403 20:00:31.886994 10142 net.cpp:156] Memory required for data: 1334273568
I0403 20:00:31.887008 10142 layer_factory.hpp:77] Creating layer inception_5b/5x5_reduce
I0403 20:00:31.887043 10142 net.cpp:91] Creating Layer inception_5b/5x5_reduce
I0403 20:00:31.887061 10142 net.cpp:425] inception_5b/5x5_reduce <- inception_5a/output_inception_5a/output_0_split_2
I0403 20:00:31.887081 10142 net.cpp:399] inception_5b/5x5_reduce -> inception_5b/5x5_reduce
I0403 20:00:31.888301 10142 net.cpp:141] Setting up inception_5b/5x5_reduce
I0403 20:00:31.888329 10142 net.cpp:148] Top shape: 24 48 7 7 (56448)
I0403 20:00:31.888342 10142 net.cpp:156] Memory required for data: 1334499360
I0403 20:00:31.888360 10142 layer_factory.hpp:77] Creating layer inception_5b/relu_5x5_reduce
I0403 20:00:31.888378 10142 net.cpp:91] Creating Layer inception_5b/relu_5x5_reduce
I0403 20:00:31.888396 10142 net.cpp:425] inception_5b/relu_5x5_reduce <- inception_5b/5x5_reduce
I0403 20:00:31.888411 10142 net.cpp:386] inception_5b/relu_5x5_reduce -> inception_5b/5x5_reduce (in-place)
I0403 20:00:31.888773 10142 net.cpp:141] Setting up inception_5b/relu_5x5_reduce
I0403 20:00:31.888798 10142 net.cpp:148] Top shape: 24 48 7 7 (56448)
I0403 20:00:31.888813 10142 net.cpp:156] Memory required for data: 1334725152
I0403 20:00:31.888826 10142 layer_factory.hpp:77] Creating layer inception_5b/5x5
I0403 20:00:31.888846 10142 net.cpp:91] Creating Layer inception_5b/5x5
I0403 20:00:31.888862 10142 net.cpp:425] inception_5b/5x5 <- inception_5b/5x5_reduce
I0403 20:00:31.888880 10142 net.cpp:399] inception_5b/5x5 -> inception_5b/5x5
I0403 20:00:31.890830 10142 net.cpp:141] Setting up inception_5b/5x5
I0403 20:00:31.890856 10142 net.cpp:148] Top shape: 24 128 7 7 (150528)
I0403 20:00:31.890871 10142 net.cpp:156] Memory required for data: 1335327264
I0403 20:00:31.890887 10142 layer_factory.hpp:77] Creating layer inception_5b/relu_5x5
I0403 20:00:31.890908 10142 net.cpp:91] Creating Layer inception_5b/relu_5x5
I0403 20:00:31.890923 10142 net.cpp:425] inception_5b/relu_5x5 <- inception_5b/5x5
I0403 20:00:31.890939 10142 net.cpp:386] inception_5b/relu_5x5 -> inception_5b/5x5 (in-place)
I0403 20:00:31.891124 10142 net.cpp:141] Setting up inception_5b/relu_5x5
I0403 20:00:31.891149 10142 net.cpp:148] Top shape: 24 128 7 7 (150528)
I0403 20:00:31.891162 10142 net.cpp:156] Memory required for data: 1335929376
I0403 20:00:31.891176 10142 layer_factory.hpp:77] Creating layer inception_5b/pool
I0403 20:00:31.891194 10142 net.cpp:91] Creating Layer inception_5b/pool
I0403 20:00:31.891209 10142 net.cpp:425] inception_5b/pool <- inception_5a/output_inception_5a/output_0_split_3
I0403 20:00:31.891228 10142 net.cpp:399] inception_5b/pool -> inception_5b/pool
I0403 20:00:31.891300 10142 net.cpp:141] Setting up inception_5b/pool
I0403 20:00:31.891324 10142 net.cpp:148] Top shape: 24 832 7 7 (978432)
I0403 20:00:31.891336 10142 net.cpp:156] Memory required for data: 1339843104
I0403 20:00:31.891350 10142 layer_factory.hpp:77] Creating layer inception_5b/pool_proj
I0403 20:00:31.891371 10142 net.cpp:91] Creating Layer inception_5b/pool_proj
I0403 20:00:31.891387 10142 net.cpp:425] inception_5b/pool_proj <- inception_5b/pool
I0403 20:00:31.891407 10142 net.cpp:399] inception_5b/pool_proj -> inception_5b/pool_proj
I0403 20:00:31.893592 10142 net.cpp:141] Setting up inception_5b/pool_proj
I0403 20:00:31.893620 10142 net.cpp:148] Top shape: 24 128 7 7 (150528)
I0403 20:00:31.893635 10142 net.cpp:156] Memory required for data: 1340445216
I0403 20:00:31.893652 10142 layer_factory.hpp:77] Creating layer inception_5b/relu_pool_proj
I0403 20:00:31.893671 10142 net.cpp:91] Creating Layer inception_5b/relu_pool_proj
I0403 20:00:31.893688 10142 net.cpp:425] inception_5b/relu_pool_proj <- inception_5b/pool_proj
I0403 20:00:31.893705 10142 net.cpp:386] inception_5b/relu_pool_proj -> inception_5b/pool_proj (in-place)
I0403 20:00:31.893990 10142 net.cpp:141] Setting up inception_5b/relu_pool_proj
I0403 20:00:31.894016 10142 net.cpp:148] Top shape: 24 128 7 7 (150528)
I0403 20:00:31.894029 10142 net.cpp:156] Memory required for data: 1341047328
I0403 20:00:31.894043 10142 layer_factory.hpp:77] Creating layer inception_5b/output
I0403 20:00:31.894060 10142 net.cpp:91] Creating Layer inception_5b/output
I0403 20:00:31.894088 10142 net.cpp:425] inception_5b/output <- inception_5b/1x1
I0403 20:00:31.894106 10142 net.cpp:425] inception_5b/output <- inception_5b/3x3
I0403 20:00:31.894122 10142 net.cpp:425] inception_5b/output <- inception_5b/5x5
I0403 20:00:31.894139 10142 net.cpp:425] inception_5b/output <- inception_5b/pool_proj
I0403 20:00:31.894155 10142 net.cpp:399] inception_5b/output -> inception_5b/output
I0403 20:00:31.894206 10142 net.cpp:141] Setting up inception_5b/output
I0403 20:00:31.894227 10142 net.cpp:148] Top shape: 24 1024 7 7 (1204224)
I0403 20:00:31.894245 10142 net.cpp:156] Memory required for data: 1345864224
I0403 20:00:31.894260 10142 layer_factory.hpp:77] Creating layer pool5/7x7_s1
I0403 20:00:31.894276 10142 net.cpp:91] Creating Layer pool5/7x7_s1
I0403 20:00:31.894291 10142 net.cpp:425] pool5/7x7_s1 <- inception_5b/output
I0403 20:00:31.894311 10142 net.cpp:399] pool5/7x7_s1 -> pool5/7x7_s1
I0403 20:00:31.894516 10142 net.cpp:141] Setting up pool5/7x7_s1
I0403 20:00:31.894539 10142 net.cpp:148] Top shape: 24 1024 1 1 (24576)
I0403 20:00:31.894553 10142 net.cpp:156] Memory required for data: 1345962528
I0403 20:00:31.894567 10142 layer_factory.hpp:77] Creating layer pool5/drop_7x7_s1
I0403 20:00:31.894585 10142 net.cpp:91] Creating Layer pool5/drop_7x7_s1
I0403 20:00:31.894603 10142 net.cpp:425] pool5/drop_7x7_s1 <- pool5/7x7_s1
I0403 20:00:31.894618 10142 net.cpp:386] pool5/drop_7x7_s1 -> pool5/7x7_s1 (in-place)
I0403 20:00:31.894670 10142 net.cpp:141] Setting up pool5/drop_7x7_s1
I0403 20:00:31.894691 10142 net.cpp:148] Top shape: 24 1024 1 1 (24576)
I0403 20:00:31.894706 10142 net.cpp:156] Memory required for data: 1346060832
I0403 20:00:31.894718 10142 layer_factory.hpp:77] Creating layer loss3/classifier_plantvillage
I0403 20:00:31.894736 10142 net.cpp:91] Creating Layer loss3/classifier_plantvillage
I0403 20:00:31.894750 10142 net.cpp:425] loss3/classifier_plantvillage <- pool5/7x7_s1
I0403 20:00:31.894770 10142 net.cpp:399] loss3/classifier_plantvillage -> loss3/classifier_plantvillage
I0403 20:00:31.895174 10142 net.cpp:141] Setting up loss3/classifier_plantvillage
I0403 20:00:31.895197 10142 net.cpp:148] Top shape: 24 38 (912)
I0403 20:00:31.895210 10142 net.cpp:156] Memory required for data: 1346064480
I0403 20:00:31.895227 10142 layer_factory.hpp:77] Creating layer loss3/classifier_plantvillage_loss3/classifier_plantvillage_0_split
I0403 20:00:31.895248 10142 net.cpp:91] Creating Layer loss3/classifier_plantvillage_loss3/classifier_plantvillage_0_split
I0403 20:00:31.895264 10142 net.cpp:425] loss3/classifier_plantvillage_loss3/classifier_plantvillage_0_split <- loss3/classifier_plantvillage
I0403 20:00:31.895284 10142 net.cpp:399] loss3/classifier_plantvillage_loss3/classifier_plantvillage_0_split -> loss3/classifier_plantvillage_loss3/classifier_plantvillage_0_split_0
I0403 20:00:31.895304 10142 net.cpp:399] loss3/classifier_plantvillage_loss3/classifier_plantvillage_0_split -> loss3/classifier_plantvillage_loss3/classifier_plantvillage_0_split_1
I0403 20:00:31.895323 10142 net.cpp:399] loss3/classifier_plantvillage_loss3/classifier_plantvillage_0_split -> loss3/classifier_plantvillage_loss3/classifier_plantvillage_0_split_2
I0403 20:00:31.895342 10142 net.cpp:399] loss3/classifier_plantvillage_loss3/classifier_plantvillage_0_split -> loss3/classifier_plantvillage_loss3/classifier_plantvillage_0_split_3
I0403 20:00:31.895437 10142 net.cpp:141] Setting up loss3/classifier_plantvillage_loss3/classifier_plantvillage_0_split
I0403 20:00:31.895459 10142 net.cpp:148] Top shape: 24 38 (912)
I0403 20:00:31.895474 10142 net.cpp:148] Top shape: 24 38 (912)
I0403 20:00:31.895489 10142 net.cpp:148] Top shape: 24 38 (912)
I0403 20:00:31.895503 10142 net.cpp:148] Top shape: 24 38 (912)
I0403 20:00:31.895516 10142 net.cpp:156] Memory required for data: 1346079072
I0403 20:00:31.895530 10142 layer_factory.hpp:77] Creating layer loss1/loss
I0403 20:00:31.895550 10142 net.cpp:91] Creating Layer loss1/loss
I0403 20:00:31.895566 10142 net.cpp:425] loss1/loss <- loss1/classifier_plantvillage_loss1/classifier_plantvillage_0_split_0
I0403 20:00:31.895596 10142 net.cpp:425] loss1/loss <- label_data_1_split_0
…
