…
I0403 19:42:56.513090  9578 net.cpp:313] The NetState phase (1) differed from the phase (0) specified by a rule in layer data
I0403 19:42:56.514286  9578 net.cpp:49] Initializing net from parameters: 
state {
  phase: TEST
}
layer {
  name: "data"
  type: "Data"
  top: "data"
  top: "label"
  include {
    phase: TEST
  }
  transform_param {
    mirror: false
    crop_size: 224
    mean_file: "/home/mohanty/data/final_dataset/lmdb/color-50-50/mean.binaryproto"
  }
  data_param {
    source: "/home/mohanty/data/final_dataset/lmdb/color-50-50/test_db"
    batch_size: 24
    backend: LMDB
  }
}
layer {
  name: "conv1/7x7_s2"
  type: "Convolution"
  bottom: "data"
  top: "conv1/7x7_s2"
  param {
    lr_mult: 1
    decay_mult: 1
  }
  param {
    lr_mult: 2
    decay_mult: 0
  }
  convolution_param {
    num_output: 64
    pad: 3
    kernel_size: 7
    stride: 2
    weight_filler {
      type: "xavier"
      std: 0.1
    }
    bias_filler {
      type: "constant"
      value: 0.2
    }
  }
}
layer {
  name: "conv1/relu_7x7"
  type: "ReLU"
  bottom: "conv1/7x7_s2"
  top: "conv1/7x7_s2"
}
layer {
  name: "pool1/3x3_s2"
  type: "Pooling"
  bottom: "conv1/7x7_s2"
  top: "pool1/3x3_s2"
  pooling_param {
    pool: MAX
    kernel_size: 3
    stride: 2
  }
}
layer {
  name: "pool1/norm1"
  type: "LRN"
  bottom: "pool1/3x3_s2"
  top: "pool1/norm1"
  lrn_param {
    local_size: 5
    alpha: 0.0001
    beta: 0.75
  }
}
layer {
  name: "conv2/3x3_reduce"
  type: "Convolution"
  bottom: "pool1/norm1"
  top: "conv2/3x3_reduce"
  param {
    lr_mult: 1
    decay_mult: 1
  }
  param {
    lr_mult: 2
    decay_mult: 0
  }
  convolution_param {
    num_output: 64
    kernel_size: 1
    weight_filler {
      type: "xavier"
      std: 0.1
    }
    bias_filler {
      type: "constant"
      value: 0.2
    }
  }
}
layer {
  name: "conv2/relu_3x3_reduce"
  type: "ReLU"
  bottom: "conv2/3x3_reduce"
  top: "conv2/3x3_reduce"
}
layer {
  name: "conv2/3x3"
  type: "Convolution"
  bottom: "conv2/3x3_reduce"
  top: "conv2/3x3"
  param {
    lr_mult: 1
    decay_mult: 1
  }
  param {
    lr_mult: 2
    decay_mult: 0
  }
  convolution_param {
    num_output: 192
    pad: 1
    kernel_size: 3
    weight_filler {
      type: "xavier"
      std: 0.03
    }
    bias_filler {
      type: "constant"
      value: 0.2
    }
  }
}
layer {
  name: "conv2/relu_3x3"
  type: "ReLU"
  bottom: "conv2/3x3"
  top: "conv2/3x3"
}
layer {
  name: "conv2/norm2"
  type: "LRN"
  bottom: "conv2/3x3"
  top: "conv2/norm2"
  lrn_param {
    local_size: 5
    alpha: 0.0001
    beta: 0.75
  }
}
layer {
  name: "pool2/3x3_s2"
  type: "Pooling"
  bottom: "conv2/norm2"
  top: "pool2/3x3_s2"
  pooling_param {
    pool: MAX
    kernel_size: 3
    stride: 2
  }
}
layer {
  name: "inception_3a/1x1"
  type: "Convolution"
  bottom: "pool2/3x3_s2"
  top: "inception_3a/1x1"
  param {
    lr_mult: 1
    decay_mult: 1
  }
  param {
    lr_mult: 2
    decay_mult: 0
  }
  convolution_param {
    num_output: 64
    kernel_size: 1
    weight_filler {
      type: "xavier"
      std: 0.03
    }
    bias_filler {
      type: "constant"
      value: 0.2
    }
  }
}
layer {
  name: "inception_3a/relu_1x1"
  type: "ReLU"
  bottom: "inception_3a/1x1"
  top: "inception_3a/1x1"
}
layer {
  name: "inception_3a/3x3_reduce"
  type: "Convolution"
  bottom: "pool2/3x3_s2"
  top: "inception_3a/3x3_reduce"
  param {
    lr_mult: 1
    decay_mult: 1
  }
  param {
    lr_mult: 2
    decay_mult: 0
  }
  convolution_param {
    num_output: 96
    kernel_size: 1
    weight_filler {
      type: "xavier"
      std: 0.09
    }
    bias_filler {
      type: "constant"
      value: 0.2
    }
  }
}
layer {
  name: "inception_3a/relu_3x3_reduce"
  type: "ReLU"
  bottom: "inception_3a/3x3_reduce"
  top: "inception_3a/3x3_reduce"
}
layer {
  name: "inception_3a/3x3"
  type: "Convolution"
  bottom: "inception_3a/3x3_reduce"
  top: "inception_3a/3x3"
  param {
    lr_mult: 1
    decay_mult: 1
  }
  param {
    lr_mult: 2
    decay_mult: 0
  }
  convolution_param {
    num_output: 128
    pad: 1
    kernel_size: 3
    weight_filler {
      type: "xavier"
      std: 0.03
    }
    bias_filler {
      type: "constant"
      value: 0.2
    }
  }
}
layer {
  name: "inception_3a/relu_3x3"
  type: "ReLU"
  bottom: "inception_3a/3x3"
  top: "inception_3a/3x3"
}
layer {
  name: "inception_3a/5x5_reduce"
  type: "Convolution"
  bottom: "pool2/3x3_s2"
  top: "inception_3a/5x5_reduce"
  param {
    lr_mult: 1
    decay_mult: 1
  }
  param {
    lr_mult: 2
    decay_mult: 0
  }
  convolution_param {
    num_output: 16
    kernel_size: 1
    weight_filler {
      type: "xavier"
      std: 0.2
    }
    bias_filler {
      type: "constant"
      value: 0.2
    }
  }
}
layer {
  name: "inception_3a/relu_5x5_reduce"
  type: "ReLU"
  bottom: "inception_3a/5x5_reduce"
  top: "inception_3a/5x5_reduce"
}
layer {
  name: "inception_3a/5x5"
  type: "Convolution"
  bottom: "inception_3a/5x5_reduce"
  top: "inception_3a/5x5"
  param {
    lr_mult: 1
    decay_mult: 1
  }
  param {
    lr_mult: 2
    decay_mult: 0
  }
  convolution_param {
    num_output: 32
    pad: 2
    kernel_size: 5
    weight_filler {
      type: "xavier"
      std: 0.03
    }
    bias_filler {
      type: "constant"
      value: 0.2
    }
  }
}
layer {
  name: "inception_3a/relu_5x5"
  type: "ReLU"
  bottom: "inception_3a/5x5"
  top: "inception_3a/5x5"
}
layer {
  name: "inception_3a/pool"
  type: "Pooling"
  bottom: "pool2/3x3_s2"
  top: "inception_3a/pool"
  pooling_param {
    pool: MAX
    kernel_size: 3
    stride: 1
    pad: 1
  }
}
layer {
  name: "inception_3a/pool_proj"
  type: "Convolution"
  bottom: "inception_3a/pool"
  top: "inception_3a/pool_proj"
  param {
    lr_mult: 1
    decay_mult: 1
  }
  param {
    lr_mult: 2
    decay_mult: 0
  }
  convolution_param {
    num_output: 32
    kernel_size: 1
    weight_filler {
      type: "xavier"
      std: 0.1
    }
    bias_filler {
      type: "constant"
      value: 0.2
    }
  }
}
layer {
  name: "inception_3a/relu_pool_proj"
  type: "ReLU"
  bottom: "inception_3a/pool_proj"
  top: "inception_3a/pool_proj"
}
layer {
  name: "inception_3a/output"
  type: "Concat"
  bottom: "inception_3a/1x1"
  bottom: "inception_3a/3x3"
  bottom: "inception_3a/5x5"
  bottom: "inception_3a/pool_proj"
  top: "inception_3a/output"
}
layer {
  name: "inception_3b/1x1"
  type: "Convolution"
  bottom: "inception_3a/output"
  top: "inception_3b/1x1"
  param {
    lr_mult: 1
    decay_mult: 1
  }
  param {
    lr_mult: 2
    decay_mult: 0
  }
  convolution_param {
    num_output: 128
    kernel_size: 1
    weight_filler {
      type: "xavier"
      std: 0.03
    }
    bias_filler {
      type: "constant"
      value: 0.2
    }
  }
}
layer {
  name: "inception_3b/relu_1x1"
  type: "ReLU"
  bottom: "inception_3b/1x1"
  top: "inception_3b/1x1"
}
layer {
  name: "inception_3b/3x3_reduce"
  type: "Convolution"
  bottom: "inception_3a/output"
  top: "inception_3b/3x3_reduce"
  param {
    lr_mult: 1
    decay_mult: 1
  }
  param {
    lr_mult: 2
    decay_mult: 0
  }
  convolution_param {
    num_output: 128
    kernel_size: 1
    weight_filler {
      type: "xavier"
      std: 0.09
    }
    bias_filler {
      type: "constant"
      value: 0.2
    }
  }
}
layer {
  name: "inception_3b/relu_3x3_reduce"
  type: "ReLU"
  bottom: "inception_3b/3x3_reduce"
  top: "inception_3b/3x3_reduce"
}
layer {
  name: "inception_3b/3x3"
  type: "Convolution"
  bottom: "inception_3b/3x3_reduce"
  top: "inception_3b/3x3"
  param {
    lr_mult: 1
    decay_mult: 1
  }
  param {
    lr_mult: 2
    decay_mult: 0
  }
  convolution_param {
    num_output: 192
    pad: 1
    kernel_size: 3
    weight_filler {
      type: "xavier"
      std: 0.03
    }
    bias_filler {
      type: "constant"
      value: 0.2
    }
  }
}
layer {
  name: "inception_3b/relu_3x3"
  type: "ReLU"
  bottom: "inception_3b/3x3"
  top: "inception_3b/3x3"
}
layer {
  name: "inception_3b/5x5_reduce"
  type: "Convolution"
  bottom: "inception_3a/output"
  top: "inception_3b/5x5_reduce"
  param {
    lr_mult: 1
    decay_mult: 1
  }
  param {
    lr_mult: 2
    decay_mult: 0
  }
  convolution_param {
    num_output: 32
    kernel_size: 1
    weight_filler {
      type: "xavier"
      std: 0.2
    }
    bias_filler {
      type: "constant"
      value: 0.2
    }
  }
}
layer {
  name: "inception_3b/relu_5x5_reduce"
  type: "ReLU"
  bottom: "inception_3b/5x5_reduce"
  top: "inception_3b/5x5_reduce"
}
layer {
  name: "inception_3b/5x5"
  type: "Convolution"
  bottom: "inception_3b/5x5_reduce"
  top: "inception_3b/5x5"
  param {
    lr_mult: 1
    decay_mult: 1
  }
  param {
    lr_mult: 2
    decay_mult: 0
  }
  convolution_param {
    num_output: 96
    pad: 2
    kernel_size: 5
    weight_filler {
      type: "xavier"
      std: 0.03
    }
    bias_filler {
      type: "constant"
      value: 0.2
    }
  }
}
layer {
  name: "inception_3b/relu_5x5"
  type: "ReLU"
  bottom: "inception_3b/5x5"
  top: "inception_3b/5x5"
}
layer {
  name: "inception_3b/pool"
  type: "Pooling"
  bottom: "inception_3a/output"
  top: "inception_3b/pool"
  pooling_param {
    pool: MAX
    kernel_size: 3
    stride: 1
    pad: 1
  }
}
layer {
  name: "inception_3b/pool_proj"
  type: "Convolution"
  bottom: "inception_3b/pool"
  top: "inception_3b/pool_proj"
  param {
    lr_mult: 1
    decay_mult: 1
  }
  param {
    lr_mult: 2
    decay_mult: 0
  }
  convolution_param {
    num_output: 64
    kernel_size: 1
    weight_filler {
      type: "xavier"
      std: 0.1
    }
    bias_filler {
      type: "constant"
      value: 0.2
    }
  }
}
layer {
  name: "inception_3b/relu_pool_proj"
  type: "ReLU"
  bottom: "inception_3b/pool_proj"
  top: "inception_3b/pool_proj"
}
layer {
  name: "inception_3b/output"
  type: "Concat"
  bottom: "inception_3b/1x1"
  bottom: "inception_3b/3x3"
  bottom: "inception_3b/5x5"
  bottom: "inception_3b/pool_proj"
  top: "inception_3b/output"
}
layer {
  name: "pool3/3x3_s2"
  type: "Pooling"
  bottom: "inception_3b/output"
  top: "pool3/3x3_s2"
  pooling_param {
    pool: MAX
    kernel_size: 3
    stride: 2
  }
}
layer {
  name: "inception_4a/1x1"
  type: "Convolution"
  bottom: "pool3/3x3_s2"
  top: "inception_4a/1x1"
  param {
    lr_mult: 1
    decay_mult: 1
  }
  param {
    lr_mult: 2
    decay_mult: 0
  }
  convolution_param {
    num_output: 192
    kernel_size: 1
    weight_filler {
      type: "xavier"
      std: 0.03
    }
    bias_filler {
      type: "constant"
      value: 0.2
    }
  }
}
layer {
  name: "inception_4a/relu_1x1"
  type: "ReLU"
  bottom: "inception_4a/1x1"
  top: "inception_4a/1x1"
}
layer {
  name: "inception_4a/3x3_reduce"
  type: "Convolution"
  bottom: "pool3/3x3_s2"
  top: "inception_4a/3x3_reduce"
  param {
    lr_mult: 1
    decay_mult: 1
  }
  param {
    lr_mult: 2
    decay_mult: 0
  }
  convolution_param {
    num_output: 96
    kernel_size: 1
    weight_filler {
      type: "xavier"
      std: 0.09
    }
    bias_filler {
      type: "constant"
      value: 0.2
    }
  }
}
layer {
  name: "inception_4a/relu_3x3_reduce"
  type: "ReLU"
  bottom: "inception_4a/3x3_reduce"
  top: "inception_4a/3x3_reduce"
}
layer {
  name: "inception_4a/3x3"
  type: "Convolution"
  bottom: "inception_4a/3x3_reduce"
  top: "inception_4a/3x3"
  param {
    lr_mult: 1
    decay_mult: 1
  }
  param {
    lr_mult: 2
    decay_mult: 0
  }
  convolution_param {
    num_output: 208
    pad: 1
    kernel_size: 3
    weight_filler {
      type: "xavier"
      std: 0.03
    }
    bias_filler {
      type: "constant"
      value: 0.2
    }
  }
}
layer {
  name: "inception_4a/relu_3x3"
  type: "ReLU"
  bottom: "inception_4a/3x3"
  top: "inception_4a/3x3"
}
layer {
  name: "inception_4a/5x5_reduce"
  type: "Convolution"
  bottom: "pool3/3x3_s2"
  top: "inception_4a/5x5_reduce"
  param {
    lr_mult: 1
    decay_mult: 1
  }
  param {
    lr_mult: 2
    decay_mult: 0
  }
  convolution_param {
    num_output: 16
    kernel_size: 1
    weight_filler {
      type: "xavier"
      std: 0.2
    }
    bias_filler {
      type: "constant"
      value: 0.2
    }
  }
}
layer {
  name: "inception_4a/relu_5x5_reduce"
  type: "ReLU"
  bottom: "inception_4a/5x5_reduce"
  top: "inception_4a/5x5_reduce"
}
layer {
  name: "inception_4a/5x5"
  type: "Convolution"
  bottom: "inception_4a/5x5_reduce"
  top: "inception_4a/5x5"
  param {
    lr_mult: 1
    decay_mult: 1
  }
  param {
    lr_mult: 2
    decay_mult: 0
  }
  convolution_param {
    num_output: 48
    pad: 2
    kernel_size: 5
    weight_filler {
      type: "xavier"
      std: 0.03
    }
    bias_filler {
      type: "constant"
      value: 0.2
    }
  }
}
layer {
  name: "inception_4a/relu_5x5"
  type: "ReLU"
  bottom: "inception_4a/5x5"
  top: "inception_4a/5x5"
}
layer {
  name: "inception_4a/pool"
  type: "Pooling"
  bottom: "pool3/3x3_s2"
  top: "inception_4a/pool"
  pooling_param {
    pool: MAX
    kernel_size: 3
    stride: 1
    pad: 1
  }
}
layer {
  name: "inception_4a/pool_proj"
  type: "Convolution"
  bottom: "inception_4a/pool"
  top: "inception_4a/pool_proj"
  param {
    lr_mult: 1
    decay_mult: 1
  }
  param {
    lr_mult: 2
    decay_mult: 0
  }
  convolution_param {
    num_output: 64
    kernel_size: 1
    weight_filler {
      type: "xavier"
      std: 0.1
    }
    bias_filler {
      type: "constant"
      value: 0.2
    }
  }
}
layer {
  name: "inception_4a/relu_pool_proj"
  type: "ReLU"
  bottom: "inception_4a/pool_proj"
  top: "inception_4a/pool_proj"
}
layer {
  name: "inception_4a/output"
  type: "Concat"
  bottom: "inception_4a/1x1"
  bottom: "inception_4a/3x3"
  bottom: "inception_4a/5x5"
  bottom: "inception_4a/pool_proj"
  top: "inception_4a/output"
}
layer {
  name: "loss1/ave_pool"
  type: "Pooling"
  bottom: "inception_4a/output"
  top: "loss1/ave_pool"
  pooling_param {
    pool: AVE
    kernel_size: 5
    stride: 3
  }
}
layer {
  name: "loss1/conv"
  type: "Convolution"
  bottom: "loss1/ave_pool"
  top: "loss1/conv"
  param {
    lr_mult: 1
    decay_mult: 1
  }
  param {
    lr_mult: 2
    decay_mult: 0
  }
  convolution_param {
    num_output: 128
    kernel_size: 1
    weight_filler {
      type: "xavier"
      std: 0.08
    }
    bias_filler {
      type: "constant"
      value: 0.2
    }
  }
}
layer {
  name: "loss1/relu_conv"
  type: "ReLU"
  bottom: "loss1/conv"
  top: "loss1/conv"
}
layer {
  name: "loss1/fc"
  type: "InnerProduct"
  bottom: "loss1/conv"
  top: "loss1/fc"
  param {
    lr_mult: 1
    decay_mult: 1
  }
  param {
    lr_mult: 2
    decay_mult: 0
  }
  inner_product_param {
    num_output: 1024
    weight_filler {
      type: "xavier"
      std: 0.02
    }
    bias_filler {
      type: "constant"
      value: 0.2
    }
  }
}
layer {
  name: "loss1/relu_fc"
  type: "ReLU"
  bottom: "loss1/fc"
  top: "loss1/fc"
}
layer {
  name: "loss1/drop_fc"
  type: "Dropout"
  bottom: "loss1/fc"
  top: "loss1/fc"
  dropout_param {
    dropout_ratio: 0.7
  }
}
layer {
  name: "loss1/classifier_plantvillage"
  type: "InnerProduct"
  bottom: "loss1/fc"
  top: "loss1/classifier_plantvillage"
  param {
    lr_mult: 1
    decay_mult: 1
  }
  param {
    lr_mult: 2
    decay_mult: 0
  }
  inner_product_param {
    num_output: 38
    weight_filler {
      type: "xavier"
      std: 0.0009765625
    }
    bias_filler {
      type: "constant"
      value: 0
    }
  }
}
layer {
  name: "inception_4b/1x1"
  type: "Convolution"
  bottom: "inception_4a/output"
  top: "inception_4b/1x1"
  param {
    lr_mult: 1
    decay_mult: 1
  }
  param {
    lr_mult: 2
    decay_mult: 0
  }
  convolution_param {
    num_output: 160
    kernel_size: 1
    weight_filler {
      type: "xavier"
      std: 0.03
    }
    bias_filler {
      type: "constant"
      value: 0.2
    }
  }
}
layer {
  name: "inception_4b/relu_1x1"
  type: "ReLU"
  bottom: "inception_4b/1x1"
  top: "inception_4b/1x1"
}
layer {
  name: "inception_4b/3x3_reduce"
  type: "Convolution"
  bottom: "inception_4a/output"
  top: "inception_4b/3x3_reduce"
  param {
    lr_mult: 1
    decay_mult: 1
  }
  param {
    lr_mult: 2
    decay_mult: 0
  }
  convolution_param {
    num_output: 112
    kernel_size: 1
    weight_filler {
      type: "xavier"
      std: 0.09
    }
    bias_filler {
      type: "constant"
      value: 0.2
    }
  }
}
layer {
  name: "inception_4b/relu_3x3_reduce"
  type: "ReLU"
  bottom: "inception_4b/3x3_reduce"
  top: "inception_4b/3x3_reduce"
}
layer {
  name: "inception_4b/3x3"
  type: "Convolution"
  bottom: "inception_4b/3x3_reduce"
  top: "inception_4b/3x3"
  param {
    lr_mult: 1
    decay_mult: 1
  }
  param {
    lr_mult: 2
    decay_mult: 0
  }
  convolution_param {
    num_output: 224
    pad: 1
    kernel_size: 3
    weight_filler {
      type: "xavier"
      std: 0.03
    }
    bias_filler {
      type: "constant"
      value: 0.2
    }
  }
}
layer {
  name: "inception_4b/relu_3x3"
  type: "ReLU"
  bottom: "inception_4b/3x3"
  top: "inception_4b/3x3"
}
layer {
  name: "inception_4b/5x5_reduce"
  type: "Convolution"
  bottom: "inception_4a/output"
  top: "inception_4b/5x5_reduce"
  param {
    lr_mult: 1
    decay_mult: 1
  }
  param {
    lr_mult: 2
    decay_mult: 0
  }
  convolution_param {
    num_output: 24
    kernel_size: 1
    weight_filler {
      type: "xavier"
      std: 0.2
    }
    bias_filler {
      type: "constant"
      value: 0.2
    }
  }
}
layer {
  name: "inception_4b/relu_5x5_reduce"
  type: "ReLU"
  bottom: "inception_4b/5x5_reduce"
  top: "inception_4b/5x5_reduce"
}
layer {
  name: "inception_4b/5x5"
  type: "Convolution"
  bottom: "inception_4b/5x5_reduce"
  top: "inception_4b/5x5"
  param {
    lr_mult: 1
    decay_mult: 1
  }
  param {
    lr_mult: 2
    decay_mult: 0
  }
  convolution_param {
    num_output: 64
    pad: 2
    kernel_size: 5
    weight_filler {
      type: "xavier"
      std: 0.03
    }
    bias_filler {
      type: "constant"
      value: 0.2
    }
  }
}
layer {
  name: "inception_4b/relu_5x5"
  type: "ReLU"
  bottom: "inception_4b/5x5"
  top: "inception_4b/5x5"
}
layer {
  name: "inception_4b/pool"
  type: "Pooling"
  bottom: "inception_4a/output"
  top: "inception_4b/pool"
  pooling_param {
    pool: MAX
    kernel_size: 3
    stride: 1
    pad: 1
  }
}
layer {
  name: "inception_4b/pool_proj"
  type: "Convolution"
  bottom: "inception_4b/pool"
  top: "inception_4b/pool_proj"
  param {
    lr_mult: 1
    decay_mult: 1
  }
  param {
    lr_mult: 2
    decay_mult: 0
  }
  convolution_param {
    num_output: 64
    kernel_size: 1
    weight_filler {
      type: "xavier"
      std: 0.1
    }
    bias_filler {
      type: "constant"
      value: 0.2
    }
  }
}
layer {
  name: "inception_4b/relu_pool_proj"
  type: "ReLU"
  bottom: "inception_4b/pool_proj"
  top: "inception_4b/pool_proj"
}
layer {
  name: "inception_4b/output"
  type: "Concat"
  bottom: "inception_4b/1x1"
  bottom: "inception_4b/3x3"
  bottom: "inception_4b/5x5"
  bottom: "inception_4b/pool_proj"
  top: "inception_4b/output"
}
layer {
  name: "inception_4c/1x1"
  type: "Convolution"
  bottom: "inception_4b/output"
  top: "inception_4c/1x1"
  param {
    lr_mult: 1
    decay_mult: 1
  }
  param {
    lr_mult: 2
    decay_mult: 0
  }
  convolution_param {
    num_output: 128
    kernel_size: 1
    weight_filler {
      type: "xavier"
      std: 0.03
    }
    bias_filler {
      type: "constant"
      value: 0.2
    }
  }
}
layer {
  name: "inception_4c/relu_1x1"
  type: "ReLU"
  bottom: "inception_4c/1x1"
  top: "inception_4c/1x1"
}
layer {
  name: "inception_4c/3x3_reduce"
  type: "Convolution"
  bottom: "inception_4b/output"
  top: "inception_4c/3x3_reduce"
  param {
    lr_mult: 1
    decay_mult: 1
  }
  param {
    lr_mult: 2
    decay_mult: 0
  }
  convolution_param {
    num_output: 128
    kernel_size: 1
    weight_filler {
      type: "xavier"
      std: 0.09
    }
    bias_filler {
      type: "constant"
      value: 0.2
    }
  }
}
layer {
  name: "inception_4c/relu_3x3_reduce"
  type: "ReLU"
  bottom: "inception_4c/3x3_reduce"
  top: "inception_4c/3x3_reduce"
}
layer {
  name: "inception_4c/3x3"
  type: "Convolution"
  bottom: "inception_4c/3x3_reduce"
  top: "inception_4c/3x3"
  param {
    lr_mult: 1
    decay_mult: 1
  }
  param {
    lr_mult: 2
    decay_mult: 0
  }
  convolution_param {
    num_output: 256
    pad: 1
    kernel_size: 3
    weight_filler {
      type: "xavier"
      std: 0.03
    }
    bias_filler {
      type: "constant"
      value: 0.2
    }
  }
}
layer {
  name: "inception_4c/relu_3x3"
  type: "ReLU"
  bottom: "inception_4c/3x3"
  top: "inception_4c/3x3"
}
layer {
  name: "inception_4c/5x5_reduce"
  type: "Convolution"
  bottom: "inception_4b/output"
  top: "inception_4c/5x5_reduce"
  param {
    lr_mult: 1
    decay_mult: 1
  }
  param {
    lr_mult: 2
    decay_mult: 0
  }
  convolution_param {
    num_output: 24
    kernel_size: 1
    weight_filler {
      type: "xavier"
      std: 0.2
    }
    bias_filler {
      type: "constant"
      value: 0.2
    }
  }
}
layer {
  name: "inception_4c/relu_5x5_reduce"
  type: "ReLU"
  bottom: "inception_4c/5x5_reduce"
  top: "inception_4c/5x5_reduce"
}
layer {
  name: "inception_4c/5x5"
  type: "Convolution"
  bottom: "inception_4c/5x5_reduce"
  top: "inception_4c/5x5"
  param {
    lr_mult: 1
    decay_mult: 1
  }
  param {
    lr_mult: 2
    decay_mult: 0
  }
  convolution_param {
    num_output: 64
    pad: 2
    kernel_size: 5
    weight_filler {
      type: "xavier"
      std: 0.03
    }
    bias_filler {
      type: "constant"
      value: 0.2
    }
  }
}
layer {
  name: "inception_4c/relu_5x5"
  type: "ReLU"
  bottom: "inception_4c/5x5"
  top: "inception_4c/5x5"
}
layer {
  name: "inception_4c/pool"
  type: "Pooling"
  bottom: "inception_4b/output"
  top: "inception_4c/pool"
  pooling_param {
    pool: MAX
    kernel_size: 3
    stride: 1
    pad: 1
  }
}
layer {
  name: "inception_4c/pool_proj"
  type: "Convolution"
  bottom: "inception_4c/pool"
  top: "inception_4c/pool_proj"
  param {
    lr_mult: 1
    decay_mult: 1
  }
  param {
    lr_mult: 2
    decay_mult: 0
  }
  convolution_param {
    num_output: 64
    kernel_size: 1
    weight_filler {
      type: "xavier"
      std: 0.1
    }
    bias_filler {
      type: "constant"
      value: 0.2
    }
  }
}
layer {
  name: "inception_4c/relu_pool_proj"
  type: "ReLU"
  bottom: "inception_4c/pool_proj"
  top: "inception_4c/pool_proj"
}
layer {
  name: "inception_4c/output"
  type: "Concat"
  bottom: "inception_4c/1x1"
  bottom: "inception_4c/3x3"
  bottom: "inception_4c/5x5"
  bottom: "inception_4c/pool_proj"
  top: "inception_4c/output"
}
layer {
  name: "inception_4d/1x1"
  type: "Convolution"
  bottom: "inception_4c/output"
  top: "inception_4d/1x1"
  param {
    lr_mult: 1
    decay_mult: 1
  }
  param {
    lr_mult: 2
    decay_mult: 0
  }
  convolution_param {
    num_output: 112
    kernel_size: 1
    weight_filler {
      type: "xavier"
      std: 0.03
    }
    bias_filler {
      type: "constant"
      value: 0.2
    }
  }
}
layer {
  name: "inception_4d/relu_1x1"
  type: "ReLU"
  bottom: "inception_4d/1x1"
  top: "inception_4d/1x1"
}
layer {
  name: "inception_4d/3x3_reduce"
  type: "Convolution"
  bottom: "inception_4c/output"
  top: "inception_4d/3x3_reduce"
  param {
    lr_mult: 1
    decay_mult: 1
  }
  param {
    lr_mult: 2
    decay_mult: 0
  }
  convolution_param {
    num_output: 144
    kernel_size: 1
    weight_filler {
      type: "xavier"
      std: 0.09
    }
    bias_filler {
      type: "constant"
      value: 0.2
    }
  }
}
layer {
  name: "inception_4d/relu_3x3_reduce"
  type: "ReLU"
  bottom: "inception_4d/3x3_reduce"
  top: "inception_4d/3x3_reduce"
}
layer {
  name: "inception_4d/3x3"
  type: "Convolution"
  bottom: "inception_4d/3x3_reduce"
  top: "inception_4d/3x3"
  param {
    lr_mult: 1
    decay_mult: 1
  }
  param {
    lr_mult: 2
    decay_mult: 0
  }
  convolution_param {
    num_output: 288
    pad: 1
    kernel_size: 3
    weight_filler {
      type: "xavier"
      std: 0.03
    }
    bias_filler {
      type: "constant"
      value: 0.2
    }
  }
}
layer {
  name: "inception_4d/relu_3x3"
  type: "ReLU"
  bottom: "inception_4d/3x3"
  top: "inception_4d/3x3"
}
layer {
  name: "inception_4d/5x5_reduce"
  type: "Convolution"
  bottom: "inception_4c/output"
  top: "inception_4d/5x5_reduce"
  param {
    lr_mult: 1
    decay_mult: 1
  }
  param {
    lr_mult: 2
    decay_mult: 0
  }
  convolution_param {
    num_output: 32
    kernel_size: 1
    weight_filler {
      type: "xavier"
      std: 0.2
    }
    bias_filler {
      type: "constant"
      value: 0.2
    }
  }
}
layer {
  name: "inception_4d/relu_5x5_reduce"
  type: "ReLU"
  bottom: "inception_4d/5x5_reduce"
  top: "inception_4d/5x5_reduce"
}
layer {
  name: "inception_4d/5x5"
  type: "Convolution"
  bottom: "inception_4d/5x5_reduce"
  top: "inception_4d/5x5"
  param {
    lr_mult: 1
    decay_mult: 1
  }
  param {
    lr_mult: 2
    decay_mult: 0
  }
  convolution_param {
    num_output: 64
    pad: 2
    kernel_size: 5
    weight_filler {
      type: "xavier"
      std: 0.03
    }
    bias_filler {
      type: "constant"
      value: 0.2
    }
  }
}
layer {
  name: "inception_4d/relu_5x5"
  type: "ReLU"
  bottom: "inception_4d/5x5"
  top: "inception_4d/5x5"
}
layer {
  name: "inception_4d/pool"
  type: "Pooling"
  bottom: "inception_4c/output"
  top: "inception_4d/pool"
  pooling_param {
    pool: MAX
    kernel_size: 3
    stride: 1
    pad: 1
  }
}
layer {
  name: "inception_4d/pool_proj"
  type: "Convolution"
  bottom: "inception_4d/pool"
  top: "inception_4d/pool_proj"
  param {
    lr_mult: 1
    decay_mult: 1
  }
  param {
    lr_mult: 2
    decay_mult: 0
  }
  convolution_param {
    num_output: 64
    kernel_size: 1
    weight_filler {
      type: "xavier"
      std: 0.1
    }
    bias_filler {
      type: "constant"
      value: 0.2
    }
  }
}
layer {
  name: "inception_4d/relu_pool_proj"
  type: "ReLU"
  bottom: "inception_4d/pool_proj"
  top: "inception_4d/pool_proj"
}
layer {
  name: "inception_4d/output"
  type: "Concat"
  bottom: "inception_4d/1x1"
  bottom: "inception_4d/3x3"
  bottom: "inception_4d/5x5"
  bottom: "inception_4d/pool_proj"
  top: "inception_4d/output"
}
layer {
  name: "loss2/ave_pool"
  type: "Pooling"
  bottom: "inception_4d/output"
  top: "loss2/ave_pool"
  pooling_param {
    pool: AVE
    kernel_size: 5
    stride: 3
  }
}
layer {
  name: "loss2/conv"
  type: "Convolution"
  bottom: "loss2/ave_pool"
  top: "loss2/conv"
  param {
    lr_mult: 1
    decay_mult: 1
  }
  param {
    lr_mult: 2
    decay_mult: 0
  }
  convolution_param {
    num_output: 128
    kernel_size: 1
    weight_filler {
      type: "xavier"
      std: 0.08
    }
    bias_filler {
      type: "constant"
      value: 0.2
    }
  }
}
layer {
  name: "loss2/relu_conv"
  type: "ReLU"
  bottom: "loss2/conv"
  top: "loss2/conv"
}
layer {
  name: "loss2/fc"
  type: "InnerProduct"
  bottom: "loss2/conv"
  top: "loss2/fc"
  param {
    lr_mult: 1
    decay_mult: 1
  }
  param {
    lr_mult: 2
    decay_mult: 0
  }
  inner_product_param {
    num_output: 1024
    weight_filler {
      type: "xavier"
      std: 0.02
    }
    bias_filler {
      type: "constant"
      value: 0.2
    }
  }
}
layer {
  name: "loss2/relu_fc"
  type: "ReLU"
  bottom: "loss2/fc"
  top: "loss2/fc"
}
layer {
  name: "loss2/drop_fc"
  type: "Dropout"
  bottom: "loss2/fc"
  top: "loss2/fc"
  dropout_param {
    dropout_ratio: 0.7
  }
}
layer {
  name: "loss2/classifier_plantvillage"
  type: "InnerProduct"
  bottom: "loss2/fc"
  top: "loss2/classifier_plantvillage"
  param {
    lr_mult: 1
    decay_mult: 1
  }
  param {
    lr_mult: 2
    decay_mult: 0
  }
  inner_product_param {
    num_output: 38
    weight_filler {
      type: "xavier"
      std: 0.0009765625
    }
    bias_filler {
      type: "constant"
      value: 0
    }
  }
}
layer {
  name: "inception_4e/1x1"
  type: "Convolution"
  bottom: "inception_4d/output"
  top: "inception_4e/1x1"
  param {
    lr_mult: 1
    decay_mult: 1
  }
  param {
    lr_mult: 2
    decay_mult: 0
  }
  convolution_param {
    num_output: 256
    kernel_size: 1
    weight_filler {
      type: "xavier"
      std: 0.03
    }
    bias_filler {
      type: "constant"
      value: 0.2
    }
  }
}
layer {
  name: "inception_4e/relu_1x1"
  type: "ReLU"
  bottom: "inception_4e/1x1"
  top: "inception_4e/1x1"
}
layer {
  name: "inception_4e/3x3_reduce"
  type: "Convolution"
  bottom: "inception_4d/output"
  top: "inception_4e/3x3_reduce"
  param {
    lr_mult: 1
    decay_mult: 1
  }
  param {
    lr_mult: 2
    decay_mult: 0
  }
  convolution_param {
    num_output: 160
    kernel_size: 1
    weight_filler {
      type: "xavier"
      std: 0.09
    }
    bias_filler {
      type: "constant"
      value: 0.2
    }
  }
}
layer {
  name: "inception_4e/relu_3x3_reduce"
  type: "ReLU"
  bottom: "inception_4e/3x3_reduce"
  top: "inception_4e/3x3_reduce"
}
layer {
  name: "inception_4e/3x3"
  type: "Convolution"
  bottom: "inception_4e/3x3_reduce"
  top: "inception_4e/3x3"
  param {
    lr_mult: 1
    decay_mult: 1
  }
  param {
    lr_mult: 2
    decay_mult: 0
  }
  convolution_param {
    num_output: 320
    pad: 1
    kernel_size: 3
    weight_filler {
      type: "xavier"
      std: 0.03
    }
    bias_filler {
      type: "constant"
      value: 0.2
    }
  }
}
layer {
  name: "inception_4e/relu_3x3"
  type: "ReLU"
  bottom: "inception_4e/3x3"
  top: "inception_4e/3x3"
}
layer {
  name: "inception_4e/5x5_reduce"
  type: "Convolution"
  bottom: "inception_4d/output"
  top: "inception_4e/5x5_reduce"
  param {
    lr_mult: 1
    decay_mult: 1
  }
  param {
    lr_mult: 2
    decay_mult: 0
  }
  convolution_param {
    num_output: 32
    kernel_size: 1
    weight_filler {
      type: "xavier"
      std: 0.2
    }
    bias_filler {
      type: "constant"
      value: 0.2
    }
  }
}
layer {
  name: "inception_4e/relu_5x5_reduce"
  type: "ReLU"
  bottom: "inception_4e/5x5_reduce"
  top: "inception_4e/5x5_reduce"
}
layer {
  name: "inception_4e/5x5"
  type: "Convolution"
  bottom: "inception_4e/5x5_reduce"
  top: "inception_4e/5x5"
  p
I0403 19:42:56.516350  9578 layer_factory.hpp:77] Creating layer data
I0403 19:42:56.516933  9578 net.cpp:91] Creating Layer data
I0403 19:42:56.516963  9578 net.cpp:399] data -> data
I0403 19:42:56.517009  9578 net.cpp:399] data -> label
I0403 19:42:56.517042  9578 data_transformer.cpp:25] Loading mean file from: /home/mohanty/data/final_dataset/lmdb/color-50-50/mean.binaryproto
I0403 19:42:56.518172  9582 db_lmdb.cpp:38] Opened lmdb /home/mohanty/data/final_dataset/lmdb/color-50-50/test_db
I0403 19:42:56.530635  9578 data_layer.cpp:41] output data size: 24,3,224,224
I0403 19:42:56.558509  9578 net.cpp:141] Setting up data
I0403 19:42:56.558593  9578 net.cpp:148] Top shape: 24 3 224 224 (3612672)
I0403 19:42:56.558616  9578 net.cpp:148] Top shape: 24 (24)
I0403 19:42:56.558634  9578 net.cpp:156] Memory required for data: 14450784
I0403 19:42:56.558660  9578 layer_factory.hpp:77] Creating layer label_data_1_split
I0403 19:42:56.558687  9578 net.cpp:91] Creating Layer label_data_1_split
I0403 19:42:56.558706  9578 net.cpp:425] label_data_1_split <- label
I0403 19:42:56.558737  9578 net.cpp:399] label_data_1_split -> label_data_1_split_0
I0403 19:42:56.558765  9578 net.cpp:399] label_data_1_split -> label_data_1_split_1
I0403 19:42:56.558786  9578 net.cpp:399] label_data_1_split -> label_data_1_split_2
I0403 19:42:56.558807  9578 net.cpp:399] label_data_1_split -> label_data_1_split_3
I0403 19:42:56.558826  9578 net.cpp:399] label_data_1_split -> label_data_1_split_4
I0403 19:42:56.558845  9578 net.cpp:399] label_data_1_split -> label_data_1_split_5
I0403 19:42:56.558866  9578 net.cpp:399] label_data_1_split -> label_data_1_split_6
I0403 19:42:56.558884  9578 net.cpp:399] label_data_1_split -> label_data_1_split_7
I0403 19:42:56.558904  9578 net.cpp:399] label_data_1_split -> label_data_1_split_8
I0403 19:42:56.558923  9578 net.cpp:399] label_data_1_split -> label_data_1_split_9
I0403 19:42:56.559042  9578 net.cpp:141] Setting up label_data_1_split
I0403 19:42:56.559065  9578 net.cpp:148] Top shape: 24 (24)
I0403 19:42:56.559082  9578 net.cpp:148] Top shape: 24 (24)
I0403 19:42:56.559099  9578 net.cpp:148] Top shape: 24 (24)
I0403 19:42:56.559115  9578 net.cpp:148] Top shape: 24 (24)
I0403 19:42:56.559133  9578 net.cpp:148] Top shape: 24 (24)
I0403 19:42:56.559157  9578 net.cpp:148] Top shape: 24 (24)
I0403 19:42:56.559173  9578 net.cpp:148] Top shape: 24 (24)
I0403 19:42:56.559190  9578 net.cpp:148] Top shape: 24 (24)
I0403 19:42:56.559206  9578 net.cpp:148] Top shape: 24 (24)
I0403 19:42:56.559222  9578 net.cpp:148] Top shape: 24 (24)
I0403 19:42:56.559272  9578 net.cpp:156] Memory required for data: 14451744
I0403 19:42:56.559288  9578 layer_factory.hpp:77] Creating layer conv1/7x7_s2
I0403 19:42:56.559321  9578 net.cpp:91] Creating Layer conv1/7x7_s2
I0403 19:42:56.559340  9578 net.cpp:425] conv1/7x7_s2 <- data
I0403 19:42:56.559360  9578 net.cpp:399] conv1/7x7_s2 -> conv1/7x7_s2
I0403 19:42:58.851807  9578 net.cpp:141] Setting up conv1/7x7_s2
I0403 19:42:58.851902  9578 net.cpp:148] Top shape: 24 64 112 112 (19267584)
I0403 19:42:58.851920  9578 net.cpp:156] Memory required for data: 91522080
I0403 19:42:58.851950  9578 layer_factory.hpp:77] Creating layer conv1/relu_7x7
I0403 19:42:58.851976  9578 net.cpp:91] Creating Layer conv1/relu_7x7
I0403 19:42:58.851994  9578 net.cpp:425] conv1/relu_7x7 <- conv1/7x7_s2
I0403 19:42:58.852012  9578 net.cpp:386] conv1/relu_7x7 -> conv1/7x7_s2 (in-place)
I0403 19:42:58.852293  9578 net.cpp:141] Setting up conv1/relu_7x7
I0403 19:42:58.852321  9578 net.cpp:148] Top shape: 24 64 112 112 (19267584)
I0403 19:42:58.852336  9578 net.cpp:156] Memory required for data: 168592416
I0403 19:42:58.852350  9578 layer_factory.hpp:77] Creating layer pool1/3x3_s2
I0403 19:42:58.852375  9578 net.cpp:91] Creating Layer pool1/3x3_s2
I0403 19:42:58.852393  9578 net.cpp:425] pool1/3x3_s2 <- conv1/7x7_s2
I0403 19:42:58.852413  9578 net.cpp:399] pool1/3x3_s2 -> pool1/3x3_s2
I0403 19:42:58.852488  9578 net.cpp:141] Setting up pool1/3x3_s2
I0403 19:42:58.852511  9578 net.cpp:148] Top shape: 24 64 56 56 (4816896)
I0403 19:42:58.852525  9578 net.cpp:156] Memory required for data: 187860000
I0403 19:42:58.852540  9578 layer_factory.hpp:77] Creating layer pool1/norm1
I0403 19:42:58.852566  9578 net.cpp:91] Creating Layer pool1/norm1
I0403 19:42:58.852583  9578 net.cpp:425] pool1/norm1 <- pool1/3x3_s2
I0403 19:42:58.852602  9578 net.cpp:399] pool1/norm1 -> pool1/norm1
I0403 19:42:58.852891  9578 net.cpp:141] Setting up pool1/norm1
I0403 19:42:58.852921  9578 net.cpp:148] Top shape: 24 64 56 56 (4816896)
I0403 19:42:58.852936  9578 net.cpp:156] Memory required for data: 207127584
I0403 19:42:58.852952  9578 layer_factory.hpp:77] Creating layer conv2/3x3_reduce
I0403 19:42:58.852977  9578 net.cpp:91] Creating Layer conv2/3x3_reduce
I0403 19:42:58.852994  9578 net.cpp:425] conv2/3x3_reduce <- pool1/norm1
I0403 19:42:58.853013  9578 net.cpp:399] conv2/3x3_reduce -> conv2/3x3_reduce
I0403 19:42:58.854372  9578 net.cpp:141] Setting up conv2/3x3_reduce
I0403 19:42:58.854401  9578 net.cpp:148] Top shape: 24 64 56 56 (4816896)
I0403 19:42:58.854418  9578 net.cpp:156] Memory required for data: 226395168
I0403 19:42:58.854440  9578 layer_factory.hpp:77] Creating layer conv2/relu_3x3_reduce
I0403 19:42:58.854460  9578 net.cpp:91] Creating Layer conv2/relu_3x3_reduce
I0403 19:42:58.854485  9578 net.cpp:425] conv2/relu_3x3_reduce <- conv2/3x3_reduce
I0403 19:42:58.854501  9578 net.cpp:386] conv2/relu_3x3_reduce -> conv2/3x3_reduce (in-place)
I0403 19:42:58.854763  9578 net.cpp:141] Setting up conv2/relu_3x3_reduce
I0403 19:42:58.854789  9578 net.cpp:148] Top shape: 24 64 56 56 (4816896)
I0403 19:42:58.854805  9578 net.cpp:156] Memory required for data: 245662752
I0403 19:42:58.854820  9578 layer_factory.hpp:77] Creating layer conv2/3x3
I0403 19:42:58.854843  9578 net.cpp:91] Creating Layer conv2/3x3
I0403 19:42:58.854861  9578 net.cpp:425] conv2/3x3 <- conv2/3x3_reduce
I0403 19:42:58.854882  9578 net.cpp:399] conv2/3x3 -> conv2/3x3
I0403 19:42:58.857096  9578 net.cpp:141] Setting up conv2/3x3
I0403 19:42:58.857125  9578 net.cpp:148] Top shape: 24 192 56 56 (14450688)
I0403 19:42:58.857144  9578 net.cpp:156] Memory required for data: 303465504
I0403 19:42:58.857166  9578 layer_factory.hpp:77] Creating layer conv2/relu_3x3
I0403 19:42:58.857184  9578 net.cpp:91] Creating Layer conv2/relu_3x3
I0403 19:42:58.857199  9578 net.cpp:425] conv2/relu_3x3 <- conv2/3x3
I0403 19:42:58.857218  9578 net.cpp:386] conv2/relu_3x3 -> conv2/3x3 (in-place)
I0403 19:42:58.857394  9578 net.cpp:141] Setting up conv2/relu_3x3
I0403 19:42:58.857421  9578 net.cpp:148] Top shape: 24 192 56 56 (14450688)
I0403 19:42:58.857466  9578 net.cpp:156] Memory required for data: 361268256
I0403 19:42:58.857481  9578 layer_factory.hpp:77] Creating layer conv2/norm2
I0403 19:42:58.857502  9578 net.cpp:91] Creating Layer conv2/norm2
I0403 19:42:58.857519  9578 net.cpp:425] conv2/norm2 <- conv2/3x3
I0403 19:42:58.857537  9578 net.cpp:399] conv2/norm2 -> conv2/norm2
I0403 19:42:58.857826  9578 net.cpp:141] Setting up conv2/norm2
I0403 19:42:58.857852  9578 net.cpp:148] Top shape: 24 192 56 56 (14450688)
I0403 19:42:58.857867  9578 net.cpp:156] Memory required for data: 419071008
I0403 19:42:58.857882  9578 layer_factory.hpp:77] Creating layer pool2/3x3_s2
I0403 19:42:58.857902  9578 net.cpp:91] Creating Layer pool2/3x3_s2
I0403 19:42:58.857916  9578 net.cpp:425] pool2/3x3_s2 <- conv2/norm2
I0403 19:42:58.857933  9578 net.cpp:399] pool2/3x3_s2 -> pool2/3x3_s2
I0403 19:42:58.857983  9578 net.cpp:141] Setting up pool2/3x3_s2
I0403 19:42:58.858006  9578 net.cpp:148] Top shape: 24 192 28 28 (3612672)
I0403 19:42:58.858019  9578 net.cpp:156] Memory required for data: 433521696
I0403 19:42:58.858033  9578 layer_factory.hpp:77] Creating layer pool2/3x3_s2_pool2/3x3_s2_0_split
I0403 19:42:58.858049  9578 net.cpp:91] Creating Layer pool2/3x3_s2_pool2/3x3_s2_0_split
I0403 19:42:58.858063  9578 net.cpp:425] pool2/3x3_s2_pool2/3x3_s2_0_split <- pool2/3x3_s2
I0403 19:42:58.858084  9578 net.cpp:399] pool2/3x3_s2_pool2/3x3_s2_0_split -> pool2/3x3_s2_pool2/3x3_s2_0_split_0
I0403 19:42:58.858104  9578 net.cpp:399] pool2/3x3_s2_pool2/3x3_s2_0_split -> pool2/3x3_s2_pool2/3x3_s2_0_split_1
I0403 19:42:58.858124  9578 net.cpp:399] pool2/3x3_s2_pool2/3x3_s2_0_split -> pool2/3x3_s2_pool2/3x3_s2_0_split_2
I0403 19:42:58.858144  9578 net.cpp:399] pool2/3x3_s2_pool2/3x3_s2_0_split -> pool2/3x3_s2_pool2/3x3_s2_0_split_3
I0403 19:42:58.858211  9578 net.cpp:141] Setting up pool2/3x3_s2_pool2/3x3_s2_0_split
I0403 19:42:58.858235  9578 net.cpp:148] Top shape: 24 192 28 28 (3612672)
I0403 19:42:58.858258  9578 net.cpp:148] Top shape: 24 192 28 28 (3612672)
I0403 19:42:58.858274  9578 net.cpp:148] Top shape: 24 192 28 28 (3612672)
I0403 19:42:58.858289  9578 net.cpp:148] Top shape: 24 192 28 28 (3612672)
I0403 19:42:58.858302  9578 net.cpp:156] Memory required for data: 491324448
I0403 19:42:58.858316  9578 layer_factory.hpp:77] Creating layer inception_3a/1x1
I0403 19:42:58.858338  9578 net.cpp:91] Creating Layer inception_3a/1x1
I0403 19:42:58.858355  9578 net.cpp:425] inception_3a/1x1 <- pool2/3x3_s2_pool2/3x3_s2_0_split_0
I0403 19:42:58.858374  9578 net.cpp:399] inception_3a/1x1 -> inception_3a/1x1
I0403 19:42:58.859865  9578 net.cpp:141] Setting up inception_3a/1x1
I0403 19:42:58.859894  9578 net.cpp:148] Top shape: 24 64 28 28 (1204224)
I0403 19:42:58.859910  9578 net.cpp:156] Memory required for data: 496141344
I0403 19:42:58.859928  9578 layer_factory.hpp:77] Creating layer inception_3a/relu_1x1
I0403 19:42:58.859947  9578 net.cpp:91] Creating Layer inception_3a/relu_1x1
I0403 19:42:58.859963  9578 net.cpp:425] inception_3a/relu_1x1 <- inception_3a/1x1
I0403 19:42:58.859982  9578 net.cpp:386] inception_3a/relu_1x1 -> inception_3a/1x1 (in-place)
I0403 19:42:58.860146  9578 net.cpp:141] Setting up inception_3a/relu_1x1
I0403 19:42:58.860173  9578 net.cpp:148] Top shape: 24 64 28 28 (1204224)
I0403 19:42:58.860188  9578 net.cpp:156] Memory required for data: 500958240
I0403 19:42:58.860203  9578 layer_factory.hpp:77] Creating layer inception_3a/3x3_reduce
I0403 19:42:58.860226  9578 net.cpp:91] Creating Layer inception_3a/3x3_reduce
I0403 19:42:58.860246  9578 net.cpp:425] inception_3a/3x3_reduce <- pool2/3x3_s2_pool2/3x3_s2_0_split_1
I0403 19:42:58.860267  9578 net.cpp:399] inception_3a/3x3_reduce -> inception_3a/3x3_reduce
I0403 19:42:58.861913  9578 net.cpp:141] Setting up inception_3a/3x3_reduce
I0403 19:42:58.861943  9578 net.cpp:148] Top shape: 24 96 28 28 (1806336)
I0403 19:42:58.861958  9578 net.cpp:156] Memory required for data: 508183584
I0403 19:42:58.861980  9578 layer_factory.hpp:77] Creating layer inception_3a/relu_3x3_reduce
I0403 19:42:58.862015  9578 net.cpp:91] Creating Layer inception_3a/relu_3x3_reduce
I0403 19:42:58.862032  9578 net.cpp:425] inception_3a/relu_3x3_reduce <- inception_3a/3x3_reduce
I0403 19:42:58.862051  9578 net.cpp:386] inception_3a/relu_3x3_reduce -> inception_3a/3x3_reduce (in-place)
I0403 19:42:58.862226  9578 net.cpp:141] Setting up inception_3a/relu_3x3_reduce
I0403 19:42:58.862262  9578 net.cpp:148] Top shape: 24 96 28 28 (1806336)
I0403 19:42:58.862278  9578 net.cpp:156] Memory required for data: 515408928
I0403 19:42:58.862293  9578 layer_factory.hpp:77] Creating layer inception_3a/3x3
I0403 19:42:58.862315  9578 net.cpp:91] Creating Layer inception_3a/3x3
I0403 19:42:58.862331  9578 net.cpp:425] inception_3a/3x3 <- inception_3a/3x3_reduce
I0403 19:42:58.862354  9578 net.cpp:399] inception_3a/3x3 -> inception_3a/3x3
I0403 19:42:58.863970  9578 net.cpp:141] Setting up inception_3a/3x3
I0403 19:42:58.863996  9578 net.cpp:148] Top shape: 24 128 28 28 (2408448)
I0403 19:42:58.864014  9578 net.cpp:156] Memory required for data: 525042720
I0403 19:42:58.864032  9578 layer_factory.hpp:77] Creating layer inception_3a/relu_3x3
I0403 19:42:58.864051  9578 net.cpp:91] Creating Layer inception_3a/relu_3x3
I0403 19:42:58.864068  9578 net.cpp:425] inception_3a/relu_3x3 <- inception_3a/3x3
I0403 19:42:58.864084  9578 net.cpp:386] inception_3a/relu_3x3 -> inception_3a/3x3 (in-place)
I0403 19:42:58.864352  9578 net.cpp:141] Setting up inception_3a/relu_3x3
I0403 19:42:58.864377  9578 net.cpp:148] Top shape: 24 128 28 28 (2408448)
I0403 19:42:58.864392  9578 net.cpp:156] Memory required for data: 534676512
I0403 19:42:58.864408  9578 layer_factory.hpp:77] Creating layer inception_3a/5x5_reduce
I0403 19:42:58.864430  9578 net.cpp:91] Creating Layer inception_3a/5x5_reduce
I0403 19:42:58.864446  9578 net.cpp:425] inception_3a/5x5_reduce <- pool2/3x3_s2_pool2/3x3_s2_0_split_2
I0403 19:42:58.864465  9578 net.cpp:399] inception_3a/5x5_reduce -> inception_3a/5x5_reduce
I0403 19:42:58.865383  9578 net.cpp:141] Setting up inception_3a/5x5_reduce
I0403 19:42:58.865412  9578 net.cpp:148] Top shape: 24 16 28 28 (301056)
I0403 19:42:58.865428  9578 net.cpp:156] Memory required for data: 535880736
I0403 19:42:58.865447  9578 layer_factory.hpp:77] Creating layer inception_3a/relu_5x5_reduce
I0403 19:42:58.865464  9578 net.cpp:91] Creating Layer inception_3a/relu_5x5_reduce
I0403 19:42:58.865479  9578 net.cpp:425] inception_3a/relu_5x5_reduce <- inception_3a/5x5_reduce
I0403 19:42:58.865500  9578 net.cpp:386] inception_3a/relu_5x5_reduce -> inception_3a/5x5_reduce (in-place)
I0403 19:42:58.865782  9578 net.cpp:141] Setting up inception_3a/relu_5x5_reduce
I0403 19:42:58.865806  9578 net.cpp:148] Top shape: 24 16 28 28 (301056)
I0403 19:42:58.865820  9578 net.cpp:156] Memory required for data: 537084960
I0403 19:42:58.865835  9578 layer_factory.hpp:77] Creating layer inception_3a/5x5
I0403 19:42:58.865856  9578 net.cpp:91] Creating Layer inception_3a/5x5
I0403 19:42:58.865874  9578 net.cpp:425] inception_3a/5x5 <- inception_3a/5x5_reduce
I0403 19:42:58.865893  9578 net.cpp:399] inception_3a/5x5 -> inception_3a/5x5
I0403 19:42:58.866878  9578 net.cpp:141] Setting up inception_3a/5x5
I0403 19:42:58.866905  9578 net.cpp:148] Top shape: 24 32 28 28 (602112)
I0403 19:42:58.866920  9578 net.cpp:156] Memory required for data: 539493408
I0403 19:42:58.866937  9578 layer_factory.hpp:77] Creating layer inception_3a/relu_5x5
I0403 19:42:58.866957  9578 net.cpp:91] Creating Layer inception_3a/relu_5x5
I0403 19:42:58.866973  9578 net.cpp:425] inception_3a/relu_5x5 <- inception_3a/5x5
I0403 19:42:58.866991  9578 net.cpp:386] inception_3a/relu_5x5 -> inception_3a/5x5 (in-place)
I0403 19:42:58.867154  9578 net.cpp:141] Setting up inception_3a/relu_5x5
I0403 19:42:58.867180  9578 net.cpp:148] Top shape: 24 32 28 28 (602112)
I0403 19:42:58.867194  9578 net.cpp:156] Memory required for data: 541901856
I0403 19:42:58.867209  9578 layer_factory.hpp:77] Creating layer inception_3a/pool
I0403 19:42:58.867228  9578 net.cpp:91] Creating Layer inception_3a/pool
I0403 19:42:58.867245  9578 net.cpp:425] inception_3a/pool <- pool2/3x3_s2_pool2/3x3_s2_0_split_3
I0403 19:42:58.867280  9578 net.cpp:399] inception_3a/pool -> inception_3a/pool
I0403 19:42:58.867337  9578 net.cpp:141] Setting up inception_3a/pool
I0403 19:42:58.867359  9578 net.cpp:148] Top shape: 24 192 28 28 (3612672)
I0403 19:42:58.867375  9578 net.cpp:156] Memory required for data: 556352544
I0403 19:42:58.867390  9578 layer_factory.hpp:77] Creating layer inception_3a/pool_proj
I0403 19:42:58.867414  9578 net.cpp:91] Creating Layer inception_3a/pool_proj
I0403 19:42:58.867432  9578 net.cpp:425] inception_3a/pool_proj <- inception_3a/pool
I0403 19:42:58.867450  9578 net.cpp:399] inception_3a/pool_proj -> inception_3a/pool_proj
I0403 19:42:58.868378  9578 net.cpp:141] Setting up inception_3a/pool_proj
I0403 19:42:58.868407  9578 net.cpp:148] Top shape: 24 32 28 28 (602112)
I0403 19:42:58.868422  9578 net.cpp:156] Memory required for data: 558760992
I0403 19:42:58.868444  9578 layer_factory.hpp:77] Creating layer inception_3a/relu_pool_proj
I0403 19:42:58.868463  9578 net.cpp:91] Creating Layer inception_3a/relu_pool_proj
I0403 19:42:58.868479  9578 net.cpp:425] inception_3a/relu_pool_proj <- inception_3a/pool_proj
I0403 19:42:58.868499  9578 net.cpp:386] inception_3a/relu_pool_proj -> inception_3a/pool_proj (in-place)
I0403 19:42:58.868765  9578 net.cpp:141] Setting up inception_3a/relu_pool_proj
I0403 19:42:58.868791  9578 net.cpp:148] Top shape: 24 32 28 28 (602112)
I0403 19:42:58.868806  9578 net.cpp:156] Memory required for data: 561169440
I0403 19:42:58.868820  9578 layer_factory.hpp:77] Creating layer inception_3a/output
I0403 19:42:58.868839  9578 net.cpp:91] Creating Layer inception_3a/output
I0403 19:42:58.868856  9578 net.cpp:425] inception_3a/output <- inception_3a/1x1
I0403 19:42:58.868872  9578 net.cpp:425] inception_3a/output <- inception_3a/3x3
I0403 19:42:58.868887  9578 net.cpp:425] inception_3a/output <- inception_3a/5x5
I0403 19:42:58.868912  9578 net.cpp:425] inception_3a/output <- inception_3a/pool_proj
I0403 19:42:58.868928  9578 net.cpp:399] inception_3a/output -> inception_3a/output
I0403 19:42:58.868975  9578 net.cpp:141] Setting up inception_3a/output
I0403 19:42:58.868999  9578 net.cpp:148] Top shape: 24 256 28 28 (4816896)
I0403 19:42:58.869012  9578 net.cpp:156] Memory required for data: 580437024
I0403 19:42:58.869026  9578 layer_factory.hpp:77] Creating layer inception_3a/output_inception_3a/output_0_split
I0403 19:42:58.869043  9578 net.cpp:91] Creating Layer inception_3a/output_inception_3a/output_0_split
I0403 19:42:58.869058  9578 net.cpp:425] inception_3a/output_inception_3a/output_0_split <- inception_3a/output
I0403 19:42:58.869077  9578 net.cpp:399] inception_3a/output_inception_3a/output_0_split -> inception_3a/output_inception_3a/output_0_split_0
I0403 19:42:58.869098  9578 net.cpp:399] inception_3a/output_inception_3a/output_0_split -> inception_3a/output_inception_3a/output_0_split_1
I0403 19:42:58.869122  9578 net.cpp:399] inception_3a/output_inception_3a/output_0_split -> inception_3a/output_inception_3a/output_0_split_2
I0403 19:42:58.869144  9578 net.cpp:399] inception_3a/output_inception_3a/output_0_split -> inception_3a/output_inception_3a/output_0_split_3
I0403 19:42:58.869215  9578 net.cpp:141] Setting up inception_3a/output_inception_3a/output_0_split
I0403 19:42:58.869237  9578 net.cpp:148] Top shape: 24 256 28 28 (4816896)
I0403 19:42:58.869262  9578 net.cpp:148] Top shape: 24 256 28 28 (4816896)
I0403 19:42:58.869278  9578 net.cpp:148] Top shape: 24 256 28 28 (4816896)
I0403 19:42:58.869293  9578 net.cpp:148] Top shape: 24 256 28 28 (4816896)
I0403 19:42:58.869307  9578 net.cpp:156] Memory required for data: 657507360
I0403 19:42:58.869320  9578 layer_factory.hpp:77] Creating layer inception_3b/1x1
I0403 19:42:58.869340  9578 net.cpp:91] Creating Layer inception_3b/1x1
I0403 19:42:58.869356  9578 net.cpp:425] inception_3b/1x1 <- inception_3a/output_inception_3a/output_0_split_0
I0403 19:42:58.869377  9578 net.cpp:399] inception_3b/1x1 -> inception_3b/1x1
I0403 19:42:58.870478  9578 net.cpp:141] Setting up inception_3b/1x1
I0403 19:42:58.870517  9578 net.cpp:148] Top shape: 24 128 28 28 (2408448)
I0403 19:42:58.870532  9578 net.cpp:156] Memory required for data: 667141152
I0403 19:42:58.870559  9578 layer_factory.hpp:77] Creating layer inception_3b/relu_1x1
I0403 19:42:58.870579  9578 net.cpp:91] Creating Layer inception_3b/relu_1x1
I0403 19:42:58.870595  9578 net.cpp:425] inception_3b/relu_1x1 <- inception_3b/1x1
I0403 19:42:58.870612  9578 net.cpp:386] inception_3b/relu_1x1 -> inception_3b/1x1 (in-place)
I0403 19:42:58.870781  9578 net.cpp:141] Setting up inception_3b/relu_1x1
I0403 19:42:58.870806  9578 net.cpp:148] Top shape: 24 128 28 28 (2408448)
I0403 19:42:58.870820  9578 net.cpp:156] Memory required for data: 676774944
I0403 19:42:58.870834  9578 layer_factory.hpp:77] Creating layer inception_3b/3x3_reduce
I0403 19:42:58.870857  9578 net.cpp:91] Creating Layer inception_3b/3x3_reduce
I0403 19:42:58.870874  9578 net.cpp:425] inception_3b/3x3_reduce <- inception_3a/output_inception_3a/output_0_split_1
I0403 19:42:58.870893  9578 net.cpp:399] inception_3b/3x3_reduce -> inception_3b/3x3_reduce
I0403 19:42:58.872110  9578 net.cpp:141] Setting up inception_3b/3x3_reduce
I0403 19:42:58.872138  9578 net.cpp:148] Top shape: 24 128 28 28 (2408448)
I0403 19:42:58.872153  9578 net.cpp:156] Memory required for data: 686408736
I0403 19:42:58.872172  9578 layer_factory.hpp:77] Creating layer inception_3b/relu_3x3_reduce
I0403 19:42:58.872192  9578 net.cpp:91] Creating Layer inception_3b/relu_3x3_reduce
I0403 19:42:58.872208  9578 net.cpp:425] inception_3b/relu_3x3_reduce <- inception_3b/3x3_reduce
I0403 19:42:58.872227  9578 net.cpp:386] inception_3b/relu_3x3_reduce -> inception_3b/3x3_reduce (in-place)
I0403 19:42:58.872411  9578 net.cpp:141] Setting up inception_3b/relu_3x3_reduce
I0403 19:42:58.872439  9578 net.cpp:148] Top shape: 24 128 28 28 (2408448)
I0403 19:42:58.872454  9578 net.cpp:156] Memory required for data: 696042528
I0403 19:42:58.872469  9578 layer_factory.hpp:77] Creating layer inception_3b/3x3
I0403 19:42:58.872494  9578 net.cpp:91] Creating Layer inception_3b/3x3
I0403 19:42:58.872511  9578 net.cpp:425] inception_3b/3x3 <- inception_3b/3x3_reduce
I0403 19:42:58.872532  9578 net.cpp:399] inception_3b/3x3 -> inception_3b/3x3
I0403 19:42:58.875517  9578 net.cpp:141] Setting up inception_3b/3x3
I0403 19:42:58.875546  9578 net.cpp:148] Top shape: 24 192 28 28 (3612672)
I0403 19:42:58.875561  9578 net.cpp:156] Memory required for data: 710493216
I0403 19:42:58.875581  9578 layer_factory.hpp:77] Creating layer inception_3b/relu_3x3
I0403 19:42:58.875600  9578 net.cpp:91] Creating Layer inception_3b/relu_3x3
I0403 19:42:58.875617  9578 net.cpp:425] inception_3b/relu_3x3 <- inception_3b/3x3
I0403 19:42:58.875634  9578 net.cpp:386] inception_3b/relu_3x3 -> inception_3b/3x3 (in-place)
I0403 19:42:58.875922  9578 net.cpp:141] Setting up inception_3b/relu_3x3
I0403 19:42:58.875947  9578 net.cpp:148] Top shape: 24 192 28 28 (3612672)
I0403 19:42:58.875962  9578 net.cpp:156] Memory required for data: 724943904
I0403 19:42:58.875977  9578 layer_factory.hpp:77] Creating layer inception_3b/5x5_reduce
I0403 19:42:58.876000  9578 net.cpp:91] Creating Layer inception_3b/5x5_reduce
I0403 19:42:58.876018  9578 net.cpp:425] inception_3b/5x5_reduce <- inception_3a/output_inception_3a/output_0_split_2
I0403 19:42:58.876035  9578 net.cpp:399] inception_3b/5x5_reduce -> inception_3b/5x5_reduce
I0403 19:42:58.877001  9578 net.cpp:141] Setting up inception_3b/5x5_reduce
I0403 19:42:58.877027  9578 net.cpp:148] Top shape: 24 32 28 28 (602112)
I0403 19:42:58.877043  9578 net.cpp:156] Memory required for data: 727352352
I0403 19:42:58.877060  9578 layer_factory.hpp:77] Creating layer inception_3b/relu_5x5_reduce
I0403 19:42:58.877084  9578 net.cpp:91] Creating Layer inception_3b/relu_5x5_reduce
I0403 19:42:58.877100  9578 net.cpp:425] inception_3b/relu_5x5_reduce <- inception_3b/5x5_reduce
I0403 19:42:58.877116  9578 net.cpp:386] inception_3b/relu_5x5_reduce -> inception_3b/5x5_reduce (in-place)
I0403 19:42:58.877291  9578 net.cpp:141] Setting up inception_3b/relu_5x5_reduce
I0403 19:42:58.877328  9578 net.cpp:148] Top shape: 24 32 28 28 (602112)
I0403 19:42:58.877343  9578 net.cpp:156] Memory required for data: 729760800
I0403 19:42:58.877357  9578 layer_factory.hpp:77] Creating layer inception_3b/5x5
I0403 19:42:58.877379  9578 net.cpp:91] Creating Layer inception_3b/5x5
I0403 19:42:58.877398  9578 net.cpp:425] inception_3b/5x5 <- inception_3b/5x5_reduce
I0403 19:42:58.877418  9578 net.cpp:399] inception_3b/5x5 -> inception_3b/5x5
I0403 19:42:58.879343  9578 net.cpp:141] Setting up inception_3b/5x5
I0403 19:42:58.879372  9578 net.cpp:148] Top shape: 24 96 28 28 (1806336)
I0403 19:42:58.879389  9578 net.cpp:156] Memory required for data: 736986144
I0403 19:42:58.879405  9578 layer_factory.hpp:77] Creating layer inception_3b/relu_5x5
I0403 19:42:58.879426  9578 net.cpp:91] Creating Layer inception_3b/relu_5x5
I0403 19:42:58.879441  9578 net.cpp:425] inception_3b/relu_5x5 <- inception_3b/5x5
I0403 19:42:58.879457  9578 net.cpp:386] inception_3b/relu_5x5 -> inception_3b/5x5 (in-place)
I0403 19:42:58.879647  9578 net.cpp:141] Setting up inception_3b/relu_5x5
I0403 19:42:58.879673  9578 net.cpp:148] Top shape: 24 96 28 28 (1806336)
I0403 19:42:58.879686  9578 net.cpp:156] Memory required for data: 744211488
I0403 19:42:58.879701  9578 layer_factory.hpp:77] Creating layer inception_3b/pool
I0403 19:42:58.879719  9578 net.cpp:91] Creating Layer inception_3b/pool
I0403 19:42:58.879734  9578 net.cpp:425] inception_3b/pool <- inception_3a/output_inception_3a/output_0_split_3
I0403 19:42:58.879750  9578 net.cpp:399] inception_3b/pool -> inception_3b/pool
I0403 19:42:58.879803  9578 net.cpp:141] Setting up inception_3b/pool
I0403 19:42:58.879825  9578 net.cpp:148] Top shape: 24 256 28 28 (4816896)
I0403 19:42:58.879839  9578 net.cpp:156] Memory required for data: 763479072
I0403 19:42:58.879854  9578 layer_factory.hpp:77] Creating layer inception_3b/pool_proj
I0403 19:42:58.879875  9578 net.cpp:91] Creating Layer inception_3b/pool_proj
I0403 19:42:58.879892  9578 net.cpp:425] inception_3b/pool_proj <- inception_3b/pool
I0403 19:42:58.879911  9578 net.cpp:399] inception_3b/pool_proj -> inception_3b/pool_proj
I0403 19:42:58.881047  9578 net.cpp:141] Setting up inception_3b/pool_proj
I0403 19:42:58.881074  9578 net.cpp:148] Top shape: 24 64 28 28 (1204224)
I0403 19:42:58.881089  9578 net.cpp:156] Memory required for data: 768295968
I0403 19:42:58.881108  9578 layer_factory.hpp:77] Creating layer inception_3b/relu_pool_proj
I0403 19:42:58.881124  9578 net.cpp:91] Creating Layer inception_3b/relu_pool_proj
I0403 19:42:58.881140  9578 net.cpp:425] inception_3b/relu_pool_proj <- inception_3b/pool_proj
I0403 19:42:58.881160  9578 net.cpp:386] inception_3b/relu_pool_proj -> inception_3b/pool_proj (in-place)
I0403 19:42:58.881594  9578 net.cpp:141] Setting up inception_3b/relu_pool_proj
I0403 19:42:58.881624  9578 net.cpp:148] Top shape: 24 64 28 28 (1204224)
I0403 19:42:58.881641  9578 net.cpp:156] Memory required for data: 773112864
I0403 19:42:58.881656  9578 layer_factory.hpp:77] Creating layer inception_3b/output
I0403 19:42:58.881680  9578 net.cpp:91] Creating Layer inception_3b/output
I0403 19:42:58.881695  9578 net.cpp:425] inception_3b/output <- inception_3b/1x1
I0403 19:42:58.881712  9578 net.cpp:425] inception_3b/output <- inception_3b/3x3
I0403 19:42:58.881729  9578 net.cpp:425] inception_3b/output <- inception_3b/5x5
I0403 19:42:58.881745  9578 net.cpp:425] inception_3b/output <- inception_3b/pool_proj
I0403 19:42:58.881765  9578 net.cpp:399] inception_3b/output -> inception_3b/output
I0403 19:42:58.881822  9578 net.cpp:141] Setting up inception_3b/output
I0403 19:42:58.881858  9578 net.cpp:148] Top shape: 24 480 28 28 (9031680)
I0403 19:42:58.881880  9578 net.cpp:156] Memory required for data: 809239584
I0403 19:42:58.881906  9578 layer_factory.hpp:77] Creating layer pool3/3x3_s2
I0403 19:42:58.881930  9578 net.cpp:91] Creating Layer pool3/3x3_s2
I0403 19:42:58.881954  9578 net.cpp:425] pool3/3x3_s2 <- inception_3b/output
I0403 19:42:58.881974  9578 net.cpp:399] pool3/3x3_s2 -> pool3/3x3_s2
I0403 19:42:58.882050  9578 net.cpp:141] Setting up pool3/3x3_s2
I0403 19:42:58.882076  9578 net.cpp:148] Top shape: 24 480 14 14 (2257920)
I0403 19:42:58.882093  9578 net.cpp:156] Memory required for data: 818271264
I0403 19:42:58.882118  9578 layer_factory.hpp:77] Creating layer pool3/3x3_s2_pool3/3x3_s2_0_split
I0403 19:42:58.882136  9578 net.cpp:91] Creating Layer pool3/3x3_s2_pool3/3x3_s2_0_split
I0403 19:42:58.882164  9578 net.cpp:425] pool3/3x3_s2_pool3/3x3_s2_0_split <- pool3/3x3_s2
I0403 19:42:58.882207  9578 net.cpp:399] pool3/3x3_s2_pool3/3x3_s2_0_split -> pool3/3x3_s2_pool3/3x3_s2_0_split_0
I0403 19:42:58.882228  9578 net.cpp:399] pool3/3x3_s2_pool3/3x3_s2_0_split -> pool3/3x3_s2_pool3/3x3_s2_0_split_1
I0403 19:42:58.882266  9578 net.cpp:399] pool3/3x3_s2_pool3/3x3_s2_0_split -> pool3/3x3_s2_pool3/3x3_s2_0_split_2
I0403 19:42:58.882297  9578 net.cpp:399] pool3/3x3_s2_pool3/3x3_s2_0_split -> pool3/3x3_s2_pool3/3x3_s2_0_split_3
I0403 19:42:58.882386  9578 net.cpp:141] Setting up pool3/3x3_s2_pool3/3x3_s2_0_split
I0403 19:42:58.882408  9578 net.cpp:148] Top shape: 24 480 14 14 (2257920)
I0403 19:42:58.882424  9578 net.cpp:148] Top shape: 24 480 14 14 (2257920)
I0403 19:42:58.882439  9578 net.cpp:148] Top shape: 24 480 14 14 (2257920)
I0403 19:42:58.882455  9578 net.cpp:148] Top shape: 24 480 14 14 (2257920)
I0403 19:42:58.882469  9578 net.cpp:156] Memory required for data: 854397984
I0403 19:42:58.882483  9578 layer_factory.hpp:77] Creating layer inception_4a/1x1
I0403 19:42:58.882508  9578 net.cpp:91] Creating Layer inception_4a/1x1
I0403 19:42:58.882524  9578 net.cpp:425] inception_4a/1x1 <- pool3/3x3_s2_pool3/3x3_s2_0_split_0
I0403 19:42:58.882566  9578 net.cpp:399] inception_4a/1x1 -> inception_4a/1x1
I0403 19:42:58.884395  9578 net.cpp:141] Setting up inception_4a/1x1
I0403 19:42:58.884424  9578 net.cpp:148] Top shape: 24 192 14 14 (903168)
I0403 19:42:58.884439  9578 net.cpp:156] Memory required for data: 858010656
I0403 19:42:58.884457  9578 layer_factory.hpp:77] Creating layer inception_4a/relu_1x1
I0403 19:42:58.884475  9578 net.cpp:91] Creating Layer inception_4a/relu_1x1
I0403 19:42:58.884491  9578 net.cpp:425] inception_4a/relu_1x1 <- inception_4a/1x1
I0403 19:42:58.884522  9578 net.cpp:386] inception_4a/relu_1x1 -> inception_4a/1x1 (in-place)
I0403 19:42:58.884698  9578 net.cpp:141] Setting up inception_4a/relu_1x1
I0403 19:42:58.884723  9578 net.cpp:148] Top shape: 24 192 14 14 (903168)
I0403 19:42:58.884738  9578 net.cpp:156] Memory required for data: 861623328
I0403 19:42:58.884752  9578 layer_factory.hpp:77] Creating layer inception_4a/3x3_reduce
I0403 19:42:58.884775  9578 net.cpp:91] Creating Layer inception_4a/3x3_reduce
I0403 19:42:58.884793  9578 net.cpp:425] inception_4a/3x3_reduce <- pool3/3x3_s2_pool3/3x3_s2_0_split_1
I0403 19:42:58.884814  9578 net.cpp:399] inception_4a/3x3_reduce -> inception_4a/3x3_reduce
I0403 19:42:58.886119  9578 net.cpp:141] Setting up inception_4a/3x3_reduce
I0403 19:42:58.886147  9578 net.cpp:148] Top shape: 24 96 14 14 (451584)
I0403 19:42:58.886163  9578 net.cpp:156] Memory required for data: 863429664
I0403 19:42:58.886188  9578 layer_factory.hpp:77] Creating layer inception_4a/relu_3x3_reduce
I0403 19:42:58.886209  9578 net.cpp:91] Creating Layer inception_4a/relu_3x3_reduce
I0403 19:42:58.886225  9578 net.cpp:425] inception_4a/relu_3x3_reduce <- inception_4a/3x3_reduce
I0403 19:42:58.886258  9578 net.cpp:386] inception_4a/relu_3x3_reduce -> inception_4a/3x3_reduce (in-place)
I0403 19:42:58.886428  9578 net.cpp:141] Setting up inception_4a/relu_3x3_reduce
I0403 19:42:58.886452  9578 net.cpp:148] Top shape: 24 96 14 14 (451584)
I0403 19:42:58.886466  9578 net.cpp:156] Memory required for data: 865236000
I0403 19:42:58.886481  9578 layer_factory.hpp:77] Creating layer inception_4a/3x3
I0403 19:42:58.886502  9578 net.cpp:91] Creating Layer inception_4a/3x3
I0403 19:42:58.886519  9578 net.cpp:425] inception_4a/3x3 <- inception_4a/3x3_reduce
I0403 19:42:58.886548  9578 net.cpp:399] inception_4a/3x3 -> inception_4a/3x3
I0403 19:42:58.889153  9578 net.cpp:141] Setting up inception_4a/3x3
I0403 19:42:58.889180  9578 net.cpp:148] Top shape: 24 208 14 14 (978432)
I0403 19:42:58.889196  9578 net.cpp:156] Memory required for data: 869149728
I0403 19:42:58.889214  9578 layer_factory.hpp:77] Creating layer inception_4a/relu_3x3
I0403 19:42:58.889233  9578 net.cpp:91] Creating Layer inception_4a/relu_3x3
I0403 19:42:58.889253  9578 net.cpp:425] inception_4a/relu_3x3 <- inception_4a/3x3
I0403 19:42:58.889271  9578 net.cpp:386] inception_4a/relu_3x3 -> inception_4a/3x3 (in-place)
I0403 19:42:58.889539  9578 net.cpp:141] Setting up inception_4a/relu_3x3
I0403 19:42:58.889564  9578 net.cpp:148] Top shape: 24 208 14 14 (978432)
I0403 19:42:58.889580  9578 net.cpp:156] Memory required for data: 873063456
I0403 19:42:58.889595  9578 layer_factory.hpp:77] Creating layer inception_4a/5x5_reduce
I0403 19:42:58.889616  9578 net.cpp:91] Creating Layer inception_4a/5x5_reduce
I0403 19:42:58.889633  9578 net.cpp:425] inception_4a/5x5_reduce <- pool3/3x3_s2_pool3/3x3_s2_0_split_2
I0403 19:42:58.889655  9578 net.cpp:399] inception_4a/5x5_reduce -> inception_4a/5x5_reduce
I0403 19:42:58.890645  9578 net.cpp:141] Setting up inception_4a/5x5_reduce
I0403 19:42:58.890677  9578 net.cpp:148] Top shape: 24 16 14 14 (75264)
I0403 19:42:58.890693  9578 net.cpp:156] Memory required for data: 873364512
I0403 19:42:58.890712  9578 layer_factory.hpp:77] Creating layer inception_4a/relu_5x5_reduce
I0403 19:42:58.890730  9578 net.cpp:91] Creating Layer inception_4a/relu_5x5_reduce
I0403 19:42:58.890746  9578 net.cpp:425] inception_4a/relu_5x5_reduce <- inception_4a/5x5_reduce
I0403 19:42:58.890763  9578 net.cpp:386] inception_4a/relu_5x5_reduce -> inception_4a/5x5_reduce (in-place)
I0403 19:42:58.890935  9578 net.cpp:141] Setting up inception_4a/relu_5x5_reduce
I0403 19:42:58.890960  9578 net.cpp:148] Top shape: 24 16 14 14 (75264)
I0403 19:42:58.890975  9578 net.cpp:156] Memory required for data: 873665568
I0403 19:42:58.890990  9578 layer_factory.hpp:77] Creating layer inception_4a/5x5
I0403 19:42:58.891015  9578 net.cpp:91] Creating Layer inception_4a/5x5
I0403 19:42:58.891032  9578 net.cpp:425] inception_4a/5x5 <- inception_4a/5x5_reduce
I0403 19:42:58.891052  9578 net.cpp:399] inception_4a/5x5 -> inception_4a/5x5
I0403 19:42:58.892112  9578 net.cpp:141] Setting up inception_4a/5x5
I0403 19:42:58.892141  9578 net.cpp:148] Top shape: 24 48 14 14 (225792)
I0403 19:42:58.892158  9578 net.cpp:156] Memory required for data: 874568736
I0403 19:42:58.892175  9578 layer_factory.hpp:77] Creating layer inception_4a/relu_5x5
I0403 19:42:58.892194  9578 net.cpp:91] Creating Layer inception_4a/relu_5x5
I0403 19:42:58.892209  9578 net.cpp:425] inception_4a/relu_5x5 <- inception_4a/5x5
I0403 19:42:58.892228  9578 net.cpp:386] inception_4a/relu_5x5 -> inception_4a/5x5 (in-place)
I0403 19:42:58.892412  9578 net.cpp:141] Setting up inception_4a/relu_5x5
I0403 19:42:58.892436  9578 net.cpp:148] Top shape: 24 48 14 14 (225792)
I0403 19:42:58.892451  9578 net.cpp:156] Memory required for data: 875471904
I0403 19:42:58.892465  9578 layer_factory.hpp:77] Creating layer inception_4a/pool
I0403 19:42:58.892482  9578 net.cpp:91] Creating Layer inception_4a/pool
I0403 19:42:58.892498  9578 net.cpp:425] inception_4a/pool <- pool3/3x3_s2_pool3/3x3_s2_0_split_3
I0403 19:42:58.892518  9578 net.cpp:399] inception_4a/pool -> inception_4a/pool
I0403 19:42:58.892576  9578 net.cpp:141] Setting up inception_4a/pool
I0403 19:42:58.892599  9578 net.cpp:148] Top shape: 24 480 14 14 (2257920)
I0403 19:42:58.892613  9578 net.cpp:156] Memory required for data: 884503584
I0403 19:42:58.892628  9578 layer_factory.hpp:77] Creating layer inception_4a/pool_proj
I0403 19:42:58.892652  9578 net.cpp:91] Creating Layer inception_4a/pool_proj
I0403 19:42:58.892668  9578 net.cpp:425] inception_4a/pool_proj <- inception_4a/pool
I0403 19:42:58.892686  9578 net.cpp:399] inception_4a/pool_proj -> inception_4a/pool_proj
I0403 19:42:58.893859  9578 net.cpp:141] Setting up inception_4a/pool_proj
I0403 19:42:58.893887  9578 net.cpp:148] Top shape: 24 64 14 14 (301056)
I0403 19:42:58.893916  9578 net.cpp:156] Memory required for data: 885707808
I0403 19:42:58.893934  9578 layer_factory.hpp:77] Creating layer inception_4a/relu_pool_proj
I0403 19:42:58.893952  9578 net.cpp:91] Creating Layer inception_4a/relu_pool_proj
I0403 19:42:58.893970  9578 net.cpp:425] inception_4a/relu_pool_proj <- inception_4a/pool_proj
I0403 19:42:58.893988  9578 net.cpp:386] inception_4a/relu_pool_proj -> inception_4a/pool_proj (in-place)
I0403 19:42:58.894273  9578 net.cpp:141] Setting up inception_4a/relu_pool_proj
I0403 19:42:58.894299  9578 net.cpp:148] Top shape: 24 64 14 14 (301056)
I0403 19:42:58.894314  9578 net.cpp:156] Memory required for data: 886912032
I0403 19:42:58.894327  9578 layer_factory.hpp:77] Creating layer inception_4a/output
I0403 19:42:58.894345  9578 net.cpp:91] Creating Layer inception_4a/output
I0403 19:42:58.894361  9578 net.cpp:425] inception_4a/output <- inception_4a/1x1
I0403 19:42:58.894376  9578 net.cpp:425] inception_4a/output <- inception_4a/3x3
I0403 19:42:58.894392  9578 net.cpp:425] inception_4a/output <- inception_4a/5x5
I0403 19:42:58.894407  9578 net.cpp:425] inception_4a/output <- inception_4a/pool_proj
I0403 19:42:58.894428  9578 net.cpp:399] inception_4a/output -> inception_4a/output
I0403 19:42:58.894471  9578 net.cpp:141] Setting up inception_4a/output
I0403 19:42:58.894496  9578 net.cpp:148] Top shape: 24 512 14 14 (2408448)
I0403 19:42:58.894510  9578 net.cpp:156] Memory required for data: 896545824
I0403 19:42:58.894526  9578 layer_factory.hpp:77] Creating layer inception_4a/output_inception_4a/output_0_split
I0403 19:42:58.894551  9578 net.cpp:91] Creating Layer inception_4a/output_inception_4a/output_0_split
I0403 19:42:58.894565  9578 net.cpp:425] inception_4a/output_inception_4a/output_0_split <- inception_4a/output
I0403 19:42:58.894585  9578 net.cpp:399] inception_4a/output_inception_4a/output_0_split -> inception_4a/output_inception_4a/output_0_split_0
I0403 19:42:58.894605  9578 net.cpp:399] inception_4a/output_inception_4a/output_0_split -> inception_4a/output_inception_4a/output_0_split_1
I0403 19:42:58.894624  9578 net.cpp:399] inception_4a/output_inception_4a/output_0_split -> inception_4a/output_inception_4a/output_0_split_2
I0403 19:42:58.894644  9578 net.cpp:399] inception_4a/output_inception_4a/output_0_split -> inception_4a/output_inception_4a/output_0_split_3
I0403 19:42:58.894664  9578 net.cpp:399] inception_4a/output_inception_4a/output_0_split -> inception_4a/output_inception_4a/output_0_split_4
I0403 19:42:58.894752  9578 net.cpp:141] Setting up inception_4a/output_inception_4a/output_0_split
I0403 19:42:58.894774  9578 net.cpp:148] Top shape: 24 512 14 14 (2408448)
I0403 19:42:58.894789  9578 net.cpp:148] Top shape: 24 512 14 14 (2408448)
I0403 19:42:58.894805  9578 net.cpp:148] Top shape: 24 512 14 14 (2408448)
I0403 19:42:58.894820  9578 net.cpp:148] Top shape: 24 512 14 14 (2408448)
I0403 19:42:58.894836  9578 net.cpp:148] Top shape: 24 512 14 14 (2408448)
I0403 19:42:58.894850  9578 net.cpp:156] Memory required for data: 944714784
I0403 19:42:58.894865  9578 layer_factory.hpp:77] Creating layer loss1/ave_pool
I0403 19:42:58.894882  9578 net.cpp:91] Creating Layer loss1/ave_pool
I0403 19:42:58.894898  9578 net.cpp:425] loss1/ave_pool <- inception_4a/output_inception_4a/output_0_split_0
I0403 19:42:58.894928  9578 net.cpp:399] loss1/ave_pool -> loss1/ave_pool
I0403 19:42:58.895134  9578 net.cpp:141] Setting up loss1/ave_pool
I0403 19:42:58.895160  9578 net.cpp:148] Top shape: 24 512 4 4 (196608)
I0403 19:42:58.895174  9578 net.cpp:156] Memory required for data: 945501216
I0403 19:42:58.895190  9578 layer_factory.hpp:77] Creating layer loss1/conv
I0403 19:42:58.895223  9578 net.cpp:91] Creating Layer loss1/conv
I0403 19:42:58.895244  9578 net.cpp:425] loss1/conv <- loss1/ave_pool
I0403 19:42:58.895265  9578 net.cpp:399] loss1/conv -> loss1/conv
I0403 19:42:58.896631  9578 net.cpp:141] Setting up loss1/conv
I0403 19:42:58.896657  9578 net.cpp:148] Top shape: 24 128 4 4 (49152)
I0403 19:42:58.896673  9578 net.cpp:156] Memory required for data: 945697824
I0403 19:42:58.896704  9578 layer_factory.hpp:77] Creating layer loss1/relu_conv
I0403 19:42:58.896724  9578 net.cpp:91] Creating Layer loss1/relu_conv
I0403 19:42:58.896740  9578 net.cpp:425] loss1/relu_conv <- loss1/conv
I0403 19:42:58.896759  9578 net.cpp:386] loss1/relu_conv -> loss1/conv (in-place)
I0403 19:42:58.897028  9578 net.cpp:141] Setting up loss1/relu_conv
I0403 19:42:58.897054  9578 net.cpp:148] Top shape: 24 128 4 4 (49152)
I0403 19:42:58.897068  9578 net.cpp:156] Memory required for data: 945894432
I0403 19:42:58.897083  9578 layer_factory.hpp:77] Creating layer loss1/fc
I0403 19:42:58.897109  9578 net.cpp:91] Creating Layer loss1/fc
I0403 19:42:58.897126  9578 net.cpp:425] loss1/fc <- loss1/conv
I0403 19:42:58.897147  9578 net.cpp:399] loss1/fc -> loss1/fc
I0403 19:42:58.914809  9578 net.cpp:141] Setting up loss1/fc
I0403 19:42:58.914882  9578 net.cpp:148] Top shape: 24 1024 (24576)
I0403 19:42:58.914897  9578 net.cpp:156] Memory required for data: 945992736
I0403 19:42:58.914918  9578 layer_factory.hpp:77] Creating layer loss1/relu_fc
I0403 19:42:58.914938  9578 net.cpp:91] Creating Layer loss1/relu_fc
I0403 19:42:58.914955  9578 net.cpp:425] loss1/relu_fc <- loss1/fc
I0403 19:42:58.914976  9578 net.cpp:386] loss1/relu_fc -> loss1/fc (in-place)
I0403 19:42:58.915197  9578 net.cpp:141] Setting up loss1/relu_fc
I0403 19:42:58.915225  9578 net.cpp:148] Top shape: 24 1024 (24576)
I0403 19:42:58.915243  9578 net.cpp:156] Memory required for data: 946091040
I0403 19:42:58.915259  9578 layer_factory.hpp:77] Creating layer loss1/drop_fc
I0403 19:42:58.915292  9578 net.cpp:91] Creating Layer loss1/drop_fc
I0403 19:42:58.915308  9578 net.cpp:425] loss1/drop_fc <- loss1/fc
I0403 19:42:58.915326  9578 net.cpp:386] loss1/drop_fc -> loss1/fc (in-place)
I0403 19:42:58.915377  9578 net.cpp:141] Setting up loss1/drop_fc
I0403 19:42:58.915403  9578 net.cpp:148] Top shape: 24 1024 (24576)
I0403 19:42:58.915418  9578 net.cpp:156] Memory required for data: 946189344
I0403 19:42:58.915433  9578 layer_factory.hpp:77] Creating layer loss1/classifier_plantvillage
I0403 19:42:58.915452  9578 net.cpp:91] Creating Layer loss1/classifier_plantvillage
I0403 19:42:58.915467  9578 net.cpp:425] loss1/classifier_plantvillage <- loss1/fc
I0403 19:42:58.915488  9578 net.cpp:399] loss1/classifier_plantvillage -> loss1/classifier_plantvillage
I0403 19:42:58.916422  9578 net.cpp:141] Setting up loss1/classifier_plantvillage
I0403 19:42:58.916450  9578 net.cpp:148] Top shape: 24 38 (912)
I0403 19:42:58.916465  9578 net.cpp:156] Memory required for data: 946192992
I0403 19:42:58.916482  9578 layer_factory.hpp:77] Creating layer loss1/classifier_plantvillage_loss1/classifier_plantvillage_0_split
I0403 19:42:58.916501  9578 net.cpp:91] Creating Layer loss1/classifier_plantvillage_loss1/classifier_plantvillage_0_split
I0403 19:42:58.916517  9578 net.cpp:425] loss1/classifier_plantvillage_loss1/classifier_plantvillage_0_split <- loss1/classifier_plantvillage
I0403 19:42:58.916535  9578 net.cpp:399] loss1/classifier_plantvillage_loss1/classifier_plantvillage_0_split -> loss1/classifier_plantvillage_loss1/classifier_plantvillage_0_split_0
I0403 19:42:58.916555  9578 net.cpp:399] loss1/classifier_plantvillage_loss1/classifier_plantvillage_0_split -> loss1/classifier_plantvillage_loss1/classifier_plantvillage_0_split_1
I0403 19:42:58.916574  9578 net.cpp:399] loss1/classifier_plantvillage_loss1/classifier_plantvillage_0_split -> loss1/classifier_plantvillage_loss1/classifier_plantvillage_0_split_2
I0403 19:42:58.916640  9578 net.cpp:141] Setting up loss1/classifier_plantvillage_loss1/classifier_plantvillage_0_split
I0403 19:42:58.916663  9578 net.cpp:148] Top shape: 24 38 (912)
I0403 19:42:58.916679  9578 net.cpp:148] Top shape: 24 38 (912)
I0403 19:42:58.916694  9578 net.cpp:148] Top shape: 24 38 (912)
I0403 19:42:58.916707  9578 net.cpp:156] Memory required for data: 946203936
I0403 19:42:58.916721  9578 layer_factory.hpp:77] Creating layer inception_4b/1x1
I0403 19:42:58.916748  9578 net.cpp:91] Creating Layer inception_4b/1x1
I0403 19:42:58.916790  9578 net.cpp:425] inception_4b/1x1 <- inception_4a/output_inception_4a/output_0_split_1
I0403 19:42:58.916810  9578 net.cpp:399] inception_4b/1x1 -> inception_4b/1x1
I0403 19:42:58.918448  9578 net.cpp:141] Setting up inception_4b/1x1
I0403 19:42:58.918476  9578 net.cpp:148] Top shape: 24 160 14 14 (752640)
I0403 19:42:58.918493  9578 net.cpp:156] Memory required for data: 949214496
I0403 19:42:58.918512  9578 layer_factory.hpp:77] Creating layer inception_4b/relu_1x1
I0403 19:42:58.918531  9578 net.cpp:91] Creating Layer inception_4b/relu_1x1
I0403 19:42:58.918555  9578 net.cpp:425] inception_4b/relu_1x1 <- inception_4b/1x1
I0403 19:42:58.918571  9578 net.cpp:386] inception_4b/relu_1x1 -> inception_4b/1x1 (in-place)
I0403 19:42:58.918745  9578 net.cpp:141] Setting up inception_4b/relu_1x1
I0403 19:42:58.918772  9578 net.cpp:148] Top shape: 24 160 14 14 (752640)
I0403 19:42:58.918788  9578 net.cpp:156] Memory required for data: 952225056
I0403 19:42:58.918803  9578 layer_factory.hpp:77] Creating layer inception_4b/3x3_reduce
I0403 19:42:58.918828  9578 net.cpp:91] Creating Layer inception_4b/3x3_reduce
I0403 19:42:58.918845  9578 net.cpp:425] inception_4b/3x3_reduce <- inception_4a/output_inception_4a/output_0_split_2
I0403 19:42:58.918864  9578 net.cpp:399] inception_4b/3x3_reduce -> inception_4b/3x3_reduce
I0403 19:42:58.920193  9578 net.cpp:141] Setting up inception_4b/3x3_reduce
I0403 19:42:58.920224  9578 net.cpp:148] Top shape: 24 112 14 14 (526848)
I0403 19:42:58.920244  9578 net.cpp:156] Memory required for data: 954332448
I0403 19:42:58.920265  9578 layer_factory.hpp:77] Creating layer inception_4b/relu_3x3_reduce
I0403 19:42:58.920284  9578 net.cpp:91] Creating Layer inception_4b/relu_3x3_reduce
I0403 19:42:58.920300  9578 net.cpp:425] inception_4b/relu_3x3_reduce <- inception_4b/3x3_reduce
I0403 19:42:58.920317  9578 net.cpp:386] inception_4b/relu_3x3_reduce -> inception_4b/3x3_reduce (in-place)
I0403 19:42:58.920613  9578 net.cpp:141] Setting up inception_4b/relu_3x3_reduce
I0403 19:42:58.920640  9578 net.cpp:148] Top shape: 24 112 14 14 (526848)
I0403 19:42:58.920655  9578 net.cpp:156] Memory required for data: 956439840
I0403 19:42:58.920670  9578 layer_factory.hpp:77] Creating layer inception_4b/3x3
I0403 19:42:58.920692  9578 net.cpp:91] Creating Layer inception_4b/3x3
I0403 19:42:58.920709  9578 net.cpp:425] inception_4b/3x3 <- inception_4b/3x3_reduce
I0403 19:42:58.920727  9578 net.cpp:399] inception_4b/3x3 -> inception_4b/3x3
I0403 19:42:58.923681  9578 net.cpp:141] Setting up inception_4b/3x3
I0403 19:42:58.923710  9578 net.cpp:148] Top shape: 24 224 14 14 (1053696)
I0403 19:42:58.923725  9578 net.cpp:156] Memory required for data: 960654624
I0403 19:42:58.923743  9578 layer_factory.hpp:77] Creating layer inception_4b/relu_3x3
I0403 19:42:58.923760  9578 net.cpp:91] Creating Layer inception_4b/relu_3x3
I0403 19:42:58.923776  9578 net.cpp:425] inception_4b/relu_3x3 <- inception_4b/3x3
I0403 19:42:58.923794  9578 net.cpp:386] inception_4b/relu_3x3 -> inception_4b/3x3 (in-place)
I0403 19:42:58.923969  9578 net.cpp:141] Setting up inception_4b/relu_3x3
I0403 19:42:58.923993  9578 net.cpp:148] Top shape: 24 224 14 14 (1053696)
I0403 19:42:58.924008  9578 net.cpp:156] Memory required for data: 964869408
I0403 19:42:58.924022  9578 layer_factory.hpp:77] Creating layer inception_4b/5x5_reduce
I0403 19:42:58.924044  9578 net.cpp:91] Creating Layer inception_4b/5x5_reduce
I0403 19:42:58.924062  9578 net.cpp:425] inception_4b/5x5_reduce <- inception_4a/output_inception_4a/output_0_split_3
I0403 19:42:58.924082  9578 net.cpp:399] inception_4b/5x5_reduce -> inception_4b/5x5_reduce
I0403 19:42:58.925140  9578 net.cpp:141] Setting up inception_4b/5x5_reduce
I0403 19:42:58.925169  9578 net.cpp:148] Top shape: 24 24 14 14 (112896)
I0403 19:42:58.925184  9578 net.cpp:156] Memory required for data: 965320992
I0403 19:42:58.925202  9578 layer_factory.hpp:77] Creating layer inception_4b/relu_5x5_reduce
I0403 19:42:58.925222  9578 net.cpp:91] Creating Layer inception_4b/relu_5x5_reduce
I0403 19:42:58.925256  9578 net.cpp:425] inception_4b/relu_5x5_reduce <- inception_4b/5x5_reduce
I0403 19:42:58.925276  9578 net.cpp:386] inception_4b/relu_5x5_reduce -> inception_4b/5x5_reduce (in-place)
I0403 19:42:58.925454  9578 net.cpp:141] Setting up inception_4b/relu_5x5_reduce
I0403 19:42:58.925483  9578 net.cpp:148] Top shape: 24 24 14 14 (112896)
I0403 19:42:58.925498  9578 net.cpp:156] Memory required for data: 965772576
I0403 19:42:58.925513  9578 layer_factory.hpp:77] Creating layer inception_4b/5x5
I0403 19:42:58.925534  9578 net.cpp:91] Creating Layer inception_4b/5x5
I0403 19:42:58.925552  9578 net.cpp:425] inception_4b/5x5 <- inception_4b/5x5_reduce
I0403 19:42:58.925572  9578 net.cpp:399] inception_4b/5x5 -> inception_4b/5x5
I0403 19:42:58.926808  9578 net.cpp:141] Setting up inception_4b/5x5
I0403 19:42:58.926836  9578 net.cpp:148] Top shape: 24 64 14 14 (301056)
I0403 19:42:58.926851  9578 net.cpp:156] Memory required for data: 966976800
I0403 19:42:58.926868  9578 layer_factory.hpp:77] Creating layer inception_4b/relu_5x5
I0403 19:42:58.926887  9578 net.cpp:91] Creating Layer inception_4b/relu_5x5
I0403 19:42:58.926904  9578 net.cpp:425] inception_4b/relu_5x5 <- inception_4b/5x5
I0403 19:42:58.926921  9578 net.cpp:386] inception_4b/relu_5x5 -> inception_4b/5x5 (in-place)
I0403 19:42:58.927232  9578 net.cpp:141] Setting up inception_4b/relu_5x5
I0403 19:42:58.927263  9578 net.cpp:148] Top shape: 24 64 14 14 (301056)
I0403 19:42:58.927276  9578 net.cpp:156] Memory required for data: 968181024
I0403 19:42:58.927291  9578 layer_factory.hpp:77] Creating layer inception_4b/pool
I0403 19:42:58.927312  9578 net.cpp:91] Creating Layer inception_4b/pool
I0403 19:42:58.927330  9578 net.cpp:425] inception_4b/pool <- inception_4a/output_inception_4a/output_0_split_4
I0403 19:42:58.927346  9578 net.cpp:399] inception_4b/pool -> inception_4b/pool
I0403 19:42:58.927410  9578 net.cpp:141] Setting up inception_4b/pool
I0403 19:42:58.927434  9578 net.cpp:148] Top shape: 24 512 14 14 (2408448)
I0403 19:42:58.927449  9578 net.cpp:156] Memory required for data: 977814816
I0403 19:42:58.927467  9578 layer_factory.hpp:77] Creating layer inception_4b/pool_proj
I0403 19:42:58.927489  9578 net.cpp:91] Creating Layer inception_4b/pool_proj
I0403 19:42:58.927506  9578 net.cpp:425] inception_4b/pool_proj <- inception_4b/pool
I0403 19:42:58.927528  9578 net.cpp:399] inception_4b/pool_proj -> inception_4b/pool_proj
I0403 19:42:58.928735  9578 net.cpp:141] Setting up inception_4b/pool_proj
I0403 19:42:58.928761  9578 net.cpp:148] Top shape: 24 64 14 14 (301056)
I0403 19:42:58.928776  9578 net.cpp:156] Memory required for data: 979019040
I0403 19:42:58.928794  9578 layer_factory.hpp:77] Creating layer inception_4b/relu_pool_proj
I0403 19:42:58.928813  9578 net.cpp:91] Creating Layer inception_4b/relu_pool_proj
I0403 19:42:58.928830  9578 net.cpp:425] inception_4b/relu_pool_proj <- inception_4b/pool_proj
I0403 19:42:58.928846  9578 net.cpp:386] inception_4b/relu_pool_proj -> inception_4b/pool_proj (in-place)
I0403 19:42:58.929020  9578 net.cpp:141] Setting up inception_4b/relu_pool_proj
I0403 19:42:58.929044  9578 net.cpp:148] Top shape: 24 64 14 14 (301056)
I0403 19:42:58.929059  9578 net.cpp:156] Memory required for data: 980223264
I0403 19:42:58.929072  9578 layer_factory.hpp:77] Creating layer inception_4b/output
I0403 19:42:58.929090  9578 net.cpp:91] Creating Layer inception_4b/output
I0403 19:42:58.929105  9578 net.cpp:425] inception_4b/output <- inception_4b/1x1
I0403 19:42:58.929121  9578 net.cpp:425] inception_4b/output <- inception_4b/3x3
I0403 19:42:58.929136  9578 net.cpp:425] inception_4b/output <- inception_4b/5x5
I0403 19:42:58.929152  9578 net.cpp:425] inception_4b/output <- inception_4b/pool_proj
I0403 19:42:58.929169  9578 net.cpp:399] inception_4b/output -> inception_4b/output
I0403 19:42:58.929214  9578 net.cpp:141] Setting up inception_4b/output
I0403 19:42:58.929244  9578 net.cpp:148] Top shape: 24 512 14 14 (2408448)
I0403 19:42:58.929261  9578 net.cpp:156] Memory required for data: 989857056
I0403 19:42:58.929289  9578 layer_factory.hpp:77] Creating layer inception_4b/output_inception_4b/output_0_split
I0403 19:42:58.929306  9578 net.cpp:91] Creating Layer inception_4b/output_inception_4b/output_0_split
I0403 19:42:58.929322  9578 net.cpp:425] inception_4b/output_inception_4b/output_0_split <- inception_4b/output
I0403 19:42:58.929338  9578 net.cpp:399] inception_4b/output_inception_4b/output_0_split -> inception_4b/output_inception_4b/output_0_split_0
I0403 19:42:58.929358  9578 net.cpp:399] inception_4b/output_inception_4b/output_0_split -> inception_4b/output_inception_4b/output_0_split_1
I0403 19:42:58.929380  9578 net.cpp:399] inception_4b/output_inception_4b/output_0_split -> inception_4b/output_inception_4b/output_0_split_2
I0403 19:42:58.929401  9578 net.cpp:399] inception_4b/output_inception_4b/output_0_split -> inception_4b/output_inception_4b/output_0_split_3
I0403 19:42:58.929484  9578 net.cpp:141] Setting up inception_4b/output_inception_4b/output_0_split
I0403 19:42:58.929507  9578 net.cpp:148] Top shape: 24 512 14 14 (2408448)
I0403 19:42:58.929523  9578 net.cpp:148] Top shape: 24 512 14 14 (2408448)
I0403 19:42:58.929538  9578 net.cpp:148] Top shape: 24 512 14 14 (2408448)
I0403 19:42:58.929554  9578 net.cpp:148] Top shape: 24 512 14 14 (2408448)
I0403 19:42:58.929568  9578 net.cpp:156] Memory required for data: 1028392224
I0403 19:42:58.929581  9578 layer_factory.hpp:77] Creating layer inception_4c/1x1
I0403 19:42:58.929602  9578 net.cpp:91] Creating Layer inception_4c/1x1
I0403 19:42:58.929620  9578 net.cpp:425] inception_4c/1x1 <- inception_4b/output_inception_4b/output_0_split_0
I0403 19:42:58.929639  9578 net.cpp:399] inception_4c/1x1 -> inception_4c/1x1
I0403 19:42:58.931102  9578 net.cpp:141] Setting up inception_4c/1x1
I0403 19:42:58.931129  9578 net.cpp:148] Top shape: 24 128 14 14 (602112)
I0403 19:42:58.931144  9578 net.cpp:156] Memory required for data: 1030800672
I0403 19:42:58.931161  9578 layer_factory.hpp:77] Creating layer inception_4c/relu_1x1
I0403 19:42:58.931179  9578 net.cpp:91] Creating Layer inception_4c/relu_1x1
I0403 19:42:58.931195  9578 net.cpp:425] inception_4c/relu_1x1 <- inception_4c/1x1
I0403 19:42:58.931213  9578 net.cpp:386] inception_4c/relu_1x1 -> inception_4c/1x1 (in-place)
I0403 19:42:58.931392  9578 net.cpp:141] Setting up inception_4c/relu_1x1
I0403 19:42:58.931416  9578 net.cpp:148] Top shape: 24 128 14 14 (602112)
I0403 19:42:58.931430  9578 net.cpp:156] Memory required for data: 1033209120
I0403 19:42:58.931445  9578 layer_factory.hpp:77] Creating layer inception_4c/3x3_reduce
I0403 19:42:58.931466  9578 net.cpp:91] Creating Layer inception_4c/3x3_reduce
I0403 19:42:58.931483  9578 net.cpp:425] inception_4c/3x3_reduce <- inception_4b/output_inception_4b/output_0_split_1
I0403 19:42:58.931504  9578 net.cpp:399] inception_4c/3x3_reduce -> inception_4c/3x3_reduce
I0403 19:42:58.933406  9578 net.cpp:141] Setting up inception_4c/3x3_reduce
I0403 19:42:58.933434  9578 net.cpp:148] Top shape: 24 128 14 14 (602112)
I0403 19:42:58.933449  9578 net.cpp:156] Memory required for data: 1035617568
I0403 19:42:58.933467  9578 layer_factory.hpp:77] Creating layer inception_4c/relu_3x3_reduce
I0403 19:42:58.933487  9578 net.cpp:91] Creating Layer inception_4c/relu_3x3_reduce
I0403 19:42:58.933503  9578 net.cpp:425] inception_4c/relu_3x3_reduce <- inception_4c/3x3_reduce
I0403 19:42:58.933521  9578 net.cpp:386] inception_4c/relu_3x3_reduce -> inception_4c/3x3_reduce (in-place)
I0403 19:42:58.933799  9578 net.cpp:141] Setting up inception_4c/relu_3x3_reduce
I0403 19:42:58.933823  9578 net.cpp:148] Top shape: 24 128 14 14 (602112)
I0403 19:42:58.933837  9578 net.cpp:156] Memory required for data: 1038026016
I0403 19:42:58.933852  9578 layer_factory.hpp:77] Creating layer inception_4c/3x3
I0403 19:42:58.933874  9578 net.cpp:91] Creating Layer inception_4c/3x3
I0403 19:42:58.933892  9578 net.cpp:425] inception_4c/3x3 <- inception_4c/3x3_reduce
I0403 19:42:58.933913  9578 net.cpp:399] inception_4c/3x3 -> inception_4c/3x3
I0403 19:42:58.937734  9578 net.cpp:141] Setting up inception_4c/3x3
I0403 19:42:58.937777  9578 net.cpp:148] Top shape: 24 256 14 14 (1204224)
I0403 19:42:58.937793  9578 net.cpp:156] Memory required for data: 1042842912
I0403 19:42:58.937825  9578 layer_factory.hpp:77] Creating layer inception_4c/relu_3x3
I0403 19:42:58.937847  9578 net.cpp:91] Creating Layer inception_4c/relu_3x3
I0403 19:42:58.937863  9578 net.cpp:425] inception_4c/relu_3x3 <- inception_4c/3x3
I0403 19:42:58.937880  9578 net.cpp:386] inception_4c/relu_3x3 -> inception_4c/3x3 (in-place)
I0403 19:42:58.938056  9578 net.cpp:141] Setting up inception_4c/relu_3x3
I0403 19:42:58.938083  9578 net.cpp:148] Top shape: 24 256 14 14 (1204224)
I0403 19:42:58.938098  9578 net.cpp:156] Memory required for data: 1047659808
I0403 19:42:58.938113  9578 layer_factory.hpp:77] Creating layer inception_4c/5x5_reduce
I0403 19:42:58.938136  9578 net.cpp:91] Creating Layer inception_4c/5x5_reduce
I0403 19:42:58.938153  9578 net.cpp:425] inception_4c/5x5_reduce <- inception_4b/output_inception_4b/output_0_split_2
I0403 19:42:58.938172  9578 net.cpp:399] inception_4c/5x5_reduce -> inception_4c/5x5_reduce
I0403 19:42:58.939394  9578 net.cpp:141] Setting up inception_4c/5x5_reduce
I0403 19:42:58.939425  9578 net.cpp:148] Top shape: 24 24 14 14 (112896)
I0403 19:42:58.939446  9578 net.cpp:156] Memory required for data: 1048111392
I0403 19:42:58.939467  9578 layer_factory.hpp:77] Creating layer inception_4c/relu_5x5_reduce
I0403 19:42:58.939489  9578 net.cpp:91] Creating Layer inception_4c/relu_5x5_reduce
I0403 19:42:58.939507  9578 net.cpp:425] inception_4c/relu_5x5_reduce <- inception_4c/5x5_reduce
I0403 19:42:58.939527  9578 net.cpp:386] inception_4c/relu_5x5_reduce -> inception_4c/5x5_reduce (in-place)
I0403 19:42:58.939754  9578 net.cpp:141] Setting up inception_4c/relu_5x5_reduce
I0403 19:42:58.939792  9578 net.cpp:148] Top shape: 24 24 14 14 (112896)
I0403 19:42:58.939806  9578 net.cpp:156] Memory required for data: 1048562976
I0403 19:42:58.939821  9578 layer_factory.hpp:77] Creating layer inception_4c/5x5
I0403 19:42:58.939856  9578 net.cpp:91] Creating Layer inception_4c/5x5
I0403 19:42:58.939874  9578 net.cpp:425] inception_4c/5x5 <- inception_4c/5x5_reduce
I0403 19:42:58.939908  9578 net.cpp:399] inception_4c/5x5 -> inception_4c/5x5
I0403 19:42:58.941339  9578 net.cpp:141] Setting up inception_4c/5x5
I0403 19:42:58.941380  9578 net.cpp:148] Top shape: 24 64 14 14 (301056)
I0403 19:42:58.941395  9578 net.cpp:156] Memory required for data: 1049767200
I0403 19:42:58.941424  9578 layer_factory.hpp:77] Creating layer inception_4c/relu_5x5
I0403 19:42:58.941442  9578 net.cpp:91] Creating Layer inception_4c/relu_5x5
I0403 19:42:58.941457  9578 net.cpp:425] inception_4c/relu_5x5 <- inception_4c/5x5
I0403 19:42:58.941476  9578 net.cpp:386] inception_4c/relu_5x5 -> inception_4c/5x5 (in-place)
I0403 19:42:58.941823  9578 net.cpp:141] Setting up inception_4c/relu_5x5
I0403 19:42:58.941853  9578 net.cpp:148] Top shape: 24 64 14 14 (301056)
I0403 19:42:58.941869  9578 net.cpp:156] Memory required for data: 1050971424
I0403 19:42:58.941895  9578 layer_factory.hpp:77] Creating layer inception_4c/pool
I0403 19:42:58.941913  9578 net.cpp:91] Creating Layer inception_4c/pool
I0403 19:42:58.941929  9578 net.cpp:425] inception_4c/pool <- inception_4b/output_inception_4b/output_0_split_3
I0403 19:42:58.941962  9578 net.cpp:399] inception_4c/pool -> inception_4c/pool
I0403 19:42:58.942067  9578 net.cpp:141] Setting up inception_4c/pool
I0403 19:42:58.942113  9578 net.cpp:148] Top shape: 24 512 14 14 (2408448)
I0403 19:42:58.942129  9578 net.cpp:156] Memory required for data: 1060605216
I0403 19:42:58.942145  9578 layer_factory.hpp:77] Creating layer inception_4c/pool_proj
I0403 19:42:58.942170  9578 net.cpp:91] Creating Layer inception_4c/pool_proj
I0403 19:42:58.942188  9578 net.cpp:425] inception_4c/pool_proj <- inception_4c/pool
I0403 19:42:58.942209  9578 net.cpp:399] inception_4c/pool_proj -> inception_4c/pool_proj
I0403 19:42:58.943761  9578 net.cpp:141] Setting up inception_4c/pool_proj
I0403 19:42:58.943792  9578 net.cpp:148] Top shape: 24 64 14 14 (301056)
I0403 19:42:58.943825  9578 net.cpp:156] Memory required for data: 1061809440
I0403 19:42:58.943845  9578 layer_factory.hpp:77] Creating layer inception_4c/relu_pool_proj
I0403 19:42:58.943867  9578 net.cpp:91] Creating Layer inception_4c/relu_pool_proj
I0403 19:42:58.943884  9578 net.cpp:425] inception_4c/relu_pool_proj <- inception_4c/pool_proj
I0403 19:42:58.943903  9578 net.cpp:386] inception_4c/relu_pool_proj -> inception_4c/pool_proj (in-place)
I0403 19:42:58.944138  9578 net.cpp:141] Setting up inception_4c/relu_pool_proj
I0403 19:42:58.944175  9578 net.cpp:148] Top shape: 24 64 14 14 (301056)
I0403 19:42:58.944195  9578 net.cpp:156] Memory required for data: 1063013664
I0403 19:42:58.944211  9578 layer_factory.hpp:77] Creating layer inception_4c/output
I0403 19:42:58.944229  9578 net.cpp:91] Creating Layer inception_4c/output
I0403 19:42:58.944250  9578 net.cpp:425] inception_4c/output <- inception_4c/1x1
I0403 19:42:58.944279  9578 net.cpp:425] inception_4c/output <- inception_4c/3x3
I0403 19:42:58.944314  9578 net.cpp:425] inception_4c/output <- inception_4c/5x5
I0403 19:42:58.944330  9578 net.cpp:425] inception_4c/output <- inception_4c/pool_proj
I0403 19:42:58.944351  9578 net.cpp:399] inception_4c/output -> inception_4c/output
I0403 19:42:58.944401  9578 net.cpp:141] Setting up inception_4c/output
I0403 19:42:58.944438  9578 net.cpp:148] Top shape: 24 512 14 14 (2408448)
I0403 19:42:58.944458  9578 net.cpp:156] Memory required for data: 1072647456
I0403 19:42:58.944485  9578 layer_factory.hpp:77] Creating layer inception_4c/output_inception_4c/output_0_split
I0403 19:42:58.944501  9578 net.cpp:91] Creating Layer inception_4c/output_inception_4c/output_0_split
I0403 19:42:58.944525  9578 net.cpp:425] inception_4c/output_inception_4c/output_0_split <- inception_4c/output
I0403 19:42:58.944557  9578 net.cpp:399] inception_4c/output_inception_4c/output_0_split -> inception_4c/output_inception_4c/output_0_split_0
I0403 19:42:58.944578  9578 net.cpp:399] inception_4c/output_inception_4c/output_0_split -> inception_4c/output_inception_4c/output_0_split_1
I0403 19:42:58.944609  9578 net.cpp:399] inception_4c/output_inception_4c/output_0_split -> inception_4c/output_inception_4c/output_0_split_2
I0403 19:42:58.944646  9578 net.cpp:399] inception_4c/output_inception_4c/output_0_split -> inception_4c/output_inception_4c/output_0_split_3
I0403 19:42:58.944766  9578 net.cpp:141] Setting up inception_4c/output_inception_4c/output_0_split
I0403 19:42:58.944805  9578 net.cpp:148] Top shape: 24 512 14 14 (2408448)
I0403 19:42:58.944825  9578 net.cpp:148] Top shape: 24 512 14 14 (2408448)
I0403 19:42:58.944842  9578 net.cpp:148] Top shape: 24 512 14 14 (2408448)
I0403 19:42:58.944861  9578 net.cpp:148] Top shape: 24 512 14 14 (2408448)
I0403 19:42:58.944877  9578 net.cpp:156] Memory required for data: 1111182624
I0403 19:42:58.944893  9578 layer_factory.hpp:77] Creating layer inception_4d/1x1
I0403 19:42:58.944918  9578 net.cpp:91] Creating Layer inception_4d/1x1
I0403 19:42:58.944937  9578 net.cpp:425] inception_4d/1x1 <- inception_4c/output_inception_4c/output_0_split_0
I0403 19:42:58.944973  9578 net.cpp:399] inception_4d/1x1 -> inception_4d/1x1
I0403 19:42:58.946666  9578 net.cpp:141] Setting up inception_4d/1x1
I0403 19:42:58.946698  9578 net.cpp:148] Top shape: 24 112 14 14 (526848)
I0403 19:42:58.946714  9578 net.cpp:156] Memory required for data: 1113290016
I0403 19:42:58.946734  9578 layer_factory.hpp:77] Creating layer inception_4d/relu_1x1
I0403 19:42:58.946756  9578 net.cpp:91] Creating Layer inception_4d/relu_1x1
I0403 19:42:58.946784  9578 net.cpp:425] inception_4d/relu_1x1 <- inception_4d/1x1
I0403 19:42:58.946810  9578 net.cpp:386] inception_4d/relu_1x1 -> inception_4d/1x1 (in-place)
I0403 19:42:58.947048  9578 net.cpp:141] Setting up inception_4d/relu_1x1
I0403 19:42:58.947082  9578 net.cpp:148] Top shape: 24 112 14 14 (526848)
I0403 19:42:58.947101  9578 net.cpp:156] Memory required for data: 1115397408
I0403 19:42:58.947118  9578 layer_factory.hpp:77] Creating layer inception_4d/3x3_reduce
I0403 19:42:58.947154  9578 net.cpp:91] Creating Layer inception_4d/3x3_reduce
I0403 19:42:58.947172  9578 net.cpp:425] inception_4d/3x3_reduce <- inception_4c/output_inception_4c/output_0_split_1
I0403 19:42:58.947196  9578 net.cpp:399] inception_4d/3x3_reduce -> inception_4d/3x3_reduce
I0403 19:42:58.949009  9578 net.cpp:141] Setting up inception_4d/3x3_reduce
I0403 19:42:58.949053  9578 net.cpp:148] Top shape: 24 144 14 14 (677376)
I0403 19:42:58.949074  9578 net.cpp:156] Memory required for data: 1118106912
I0403 19:42:58.949093  9578 layer_factory.hpp:77] Creating layer inception_4d/relu_3x3_reduce
I0403 19:42:58.949112  9578 net.cpp:91] Creating Layer inception_4d/relu_3x3_reduce
I0403 19:42:58.949129  9578 net.cpp:425] inception_4d/relu_3x3_reduce <- inception_4d/3x3_reduce
I0403 19:42:58.949151  9578 net.cpp:386] inception_4d/relu_3x3_reduce -> inception_4d/3x3_reduce (in-place)
I0403 19:42:58.949528  9578 net.cpp:141] Setting up inception_4d/relu_3x3_reduce
I0403 19:42:58.949558  9578 net.cpp:148] Top shape: 24 144 14 14 (677376)
I0403 19:42:58.949573  9578 net.cpp:156] Memory required for data: 1120816416
I0403 19:42:58.949614  9578 layer_factory.hpp:77] Creating layer inception_4d/3x3
I0403 19:42:58.949642  9578 net.cpp:91] Creating Layer inception_4d/3x3
I0403 19:42:58.949662  9578 net.cpp:425] inception_4d/3x3 <- inception_4d/3x3_reduce
I0403 19:42:58.949692  9578 net.cpp:399] inception_4d/3x3 -> inception_4d/3x3
I0403 19:42:58.954856  9578 net.cpp:141] Setting up inception_4d/3x3
I0403 19:42:58.954896  9578 net.cpp:148] Top shape: 24 288 14 14 (1354752)
I0403 19:42:58.954926  9578 net.cpp:156] Memory required for data: 1126235424
I0403 19:42:58.954953  9578 layer_factory.hpp:77] Creating layer inception_4d/relu_3x3
I0403 19:42:58.954977  9578 net.cpp:91] Creating Layer inception_4d/relu_3x3
I0403 19:42:58.954998  9578 net.cpp:425] inception_4d/relu_3x3 <- inception_4d/3x3
I0403 19:42:58.955018  9578 net.cpp:386] inception_4d/relu_3x3 -> inception_4d/3x3 (in-place)
I0403 19:42:58.955237  9578 net.cpp:141] Setting up inception_4d/relu_3x3
I0403 19:42:58.955271  9578 net.cpp:148] Top shape: 24 288 14 14 (1354752)
I0403 19:42:58.955288  9578 net.cpp:156] Memory required for data: 1131654432
I0403 19:42:58.955304  9578 layer_factory.hpp:77] Creating layer inception_4d/5x5_reduce
I0403 19:42:58.955333  9578 net.cpp:91] Creating Layer inception_4d/5x5_reduce
I0403 19:42:58.955353  9578 net.cpp:425] inception_4d/5x5_reduce <- inception_4c/output_inception_4c/output_0_split_2
I0403 19:42:58.955374  9578 net.cpp:399] inception_4d/5x5_reduce -> inception_4d/5x5_reduce
I0403 19:42:58.956637  9578 net.cpp:141] Setting up inception_4d/5x5_reduce
I0403 19:42:58.956668  9578 net.cpp:148] Top shape: 24 32 14 14 (150528)
I0403 19:42:58.956686  9578 net.cpp:156] Memory required for data: 1132256544
I0403 19:42:58.956706  9578 layer_factory.hpp:77] Creating layer inception_4d/relu_5x5_reduce
I0403 19:42:58.956727  9578 net.cpp:91] Creating Layer inception_4d/relu_5x5_reduce
I0403 19:42:58.956744  9578 net.cpp:425] inception_4d/relu_5x5_reduce <- inception_4d/5x5_reduce
I0403 19:42:58.956784  9578 net.cpp:386] inception_4d/relu_5x5_reduce -> inception_4d/5x5_reduce (in-place)
I0403 19:42:58.957010  9578 net.cpp:141] Setting up inception_4d/relu_5x5_reduce
I0403 19:42:58.957041  9578 net.cpp:148] Top shape: 24 32 14 14 (150528)
I0403 19:42:58.957057  9578 net.cpp:156] Memory required for data: 1132858656
I0403 19:42:58.957072  9578 layer_factory.hpp:77] Creating layer inception_4d/5x5
I0403 19:42:58.957095  9578 net.cpp:91] Creating Layer inception_4d/5x5
I0403 19:42:58.957114  9578 net.cpp:425] inception_4d/5x5 <- inception_4d/5x5_reduce
I0403 19:42:58.957135  9578 net.cpp:399] inception_4d/5x5 -> inception_4d/5x5
I0403 19:42:58.958849  9578 net.cpp:141] Setting up inception_4d/5x5
I0403 19:42:58.958883  9578 net.cpp:148] Top shape: 24 64 14 14 (301056)
I0403 19:42:58.958919  9578 net.cpp:156] Memory required for data: 1134062880
I0403 19:42:58.958942  9578 layer_factory.hpp:77] Creating layer inception_4d/relu_5x5
I0403 19:42:58.958977  9578 net.cpp:91] Creating Layer inception_4d/relu_5x5
I0403 19:42:58.958995  9578 net.cpp:425] inception_4d/relu_5x5 <- inception_4d/5x5
I0403 19:42:58.959014  9578 net.cpp:386] inception_4d/relu_5x5 -> inception_4d/5x5 (in-place)
I0403 19:42:58.959363  9578 net.cpp:141] Setting up inception_4d/relu_5x5
I0403 19:42:58.959394  9578 net.cpp:148] Top shape: 24 64 14 14 (301056)
I0403 19:42:58.959424  9578 net.cpp:156] Memory required for data: 1135267104
I0403 19:42:58.959449  9578 layer_factory.hpp:77] Creating layer inception_4d/pool
I0403 19:42:58.959470  9578 net.cpp:91] Creating Layer inception_4d/pool
I0403 19:42:58.959487  9578 net.cpp:425] inception_4d/pool <- inception_4c/output_inception_4c/output_0_split_3
I0403 19:42:58.959518  9578 net.cpp:399] inception_4d/pool -> inception_4d/pool
I0403 19:42:58.959612  9578 net.cpp:141] Setting up inception_4d/pool
I0403 19:42:58.959638  9578 net.cpp:148] Top shape: 24 512 14 14 (2408448)
I0403 19:42:58.959655  9578 net.cpp:156] Memory required for data: 1144900896
I0403 19:42:58.959669  9578 layer_factory.hpp:77] Creating layer inception_4d/pool_proj
I0403 19:42:58.959692  9578 net.cpp:91] Creating Layer inception_4d/pool_proj
I0403 19:42:58.959712  9578 net.cpp:425] inception_4d/pool_proj <- inception_4d/pool
I0403 19:42:58.959734  9578 net.cpp:399] inception_4d/pool_proj -> inception_4d/pool_proj
I0403 19:42:58.961823  9578 net.cpp:141] Setting up inception_4d/pool_proj
I0403 19:42:58.961864  9578 net.cpp:148] Top shape: 24 64 14 14 (301056)
I0403 19:42:58.961915  9578 net.cpp:156] Memory required for data: 1146105120
I0403 19:42:58.961941  9578 layer_factory.hpp:77] Creating layer inception_4d/relu_pool_proj
I0403 19:42:58.961971  9578 net.cpp:91] Creating Layer inception_4d/relu_pool_proj
I0403 19:42:58.962003  9578 net.cpp:425] inception_4d/relu_pool_proj <- inception_4d/pool_proj
I0403 19:42:58.962028  9578 net.cpp:386] inception_4d/relu_pool_proj -> inception_4d/pool_proj (in-place)
I0403 19:42:58.962270  9578 net.cpp:141] Setting up inception_4d/relu_pool_proj
I0403 19:42:58.962301  9578 net.cpp:148] Top shape: 24 64 14 14 (301056)
I0403 19:42:58.962327  9578 net.cpp:156] Memory required for data: 1147309344
I0403 19:42:58.962350  9578 layer_factory.hpp:77] Creating layer inception_4d/output
I0403 19:42:58.962378  9578 net.cpp:91] Creating Layer inception_4d/output
I0403 19:42:58.962399  9578 net.cpp:425] inception_4d/output <- inception_4d/1x1
I0403 19:42:58.962417  9578 net.cpp:425] inception_4d/output <- inception_4d/3x3
I0403 19:42:58.962435  9578 net.cpp:425] inception_4d/output <- inception_4d/5x5
I0403 19:42:58.962450  9578 net.cpp:425] inception_4d/output <- inception_4d/pool_proj
I0403 19:42:58.962496  9578 net.cpp:399] inception_4d/output -> inception_4d/output
I0403 19:42:58.962566  9578 net.cpp:141] Setting up inception_4d/output
I0403 19:42:58.962594  9578 net.cpp:148] Top shape: 24 528 14 14 (2483712)
I0403 19:42:58.962611  9578 net.cpp:156] Memory required for data: 1157244192
I0403 19:42:58.962627  9578 layer_factory.hpp:77] Creating layer inception_4d/output_inception_4d/output_0_split
I0403 19:42:58.962646  9578 net.cpp:91] Creating Layer inception_4d/output_inception_4d/output_0_split
I0403 19:42:58.962679  9578 net.cpp:425] inception_4d/output_inception_4d/output_0_split <- inception_4d/output
I0403 19:42:58.962705  9578 net.cpp:399] inception_4d/output_inception_4d/output_0_split -> inception_4d/output_inception_4d/output_0_split_0
I0403 19:42:58.962729  9578 net.cpp:399] inception_4d/output_inception_4d/output_0_split -> inception_4d/output_inception_4d/output_0_split_1
I0403 19:42:58.962752  9578 net.cpp:399] inception_4d/output_inception_4d/output_0_split -> inception_4d/output_inception_4d/output_0_split_2
I0403 19:42:58.962780  9578 net.cpp:399] inception_4d/output_inception_4d/output_0_split -> inception_4d/output_inception_4d/output_0_split_3
I0403 19:42:58.962801  9578 net.cpp:399] inception_4d/output_inception_4d/output_0_split -> inception_4d/output_inception_4d/output_0_split_4
I0403 19:42:58.962929  9578 net.cpp:141] Setting up inception_4d/output_inception_4d/output_0_split
I0403 19:42:58.962980  9578 net.cpp:148] Top shape: 24 528 14 14 (2483712)
I0403 19:42:58.963004  9578 net.cpp:148] Top shape: 24 528 14 14 (2483712)
I0403 19:42:58.963024  9578 net.cpp:148] Top shape: 24 528 14 14 (2483712)
I0403 19:42:58.963043  9578 net.cpp:148] Top shape: 24 528 14 14 (2483712)
I0403 19:42:58.963059  9578 net.cpp:148] Top shape: 24 528 14 14 (2483712)
I0403 19:42:58.963083  9578 net.cpp:156] Memory required for data: 1206918432
I0403 19:42:58.963098  9578 layer_factory.hpp:77] Creating layer loss2/ave_pool
I0403 19:42:58.963125  9578 net.cpp:91] Creating Layer loss2/ave_pool
I0403 19:42:58.963158  9578 net.cpp:425] loss2/ave_pool <- inception_4d/output_inception_4d/output_0_split_0
I0403 19:42:58.963184  9578 net.cpp:399] loss2/ave_pool -> loss2/ave_pool
I0403 19:42:58.963572  9578 net.cpp:141] Setting up loss2/ave_pool
I0403 19:42:58.963599  9578 net.cpp:148] Top shape: 24 528 4 4 (202752)
I0403 19:42:58.963616  9578 net.cpp:156] Memory required for data: 1207729440
I0403 19:42:58.963634  9578 layer_factory.hpp:77] Creating layer loss2/conv
I0403 19:42:58.963659  9578 net.cpp:91] Creating Layer loss2/conv
I0403 19:42:58.963690  9578 net.cpp:425] loss2/conv <- loss2/ave_pool
I0403 19:42:58.963719  9578 net.cpp:399] loss2/conv -> loss2/conv
I0403 19:42:58.965831  9578 net.cpp:141] Setting up loss2/conv
I0403 19:42:58.965864  9578 net.cpp:148] Top shape: 24 128 4 4 (49152)
I0403 19:42:58.965883  9578 net.cpp:156] Memory required for data: 1207926048
I0403 19:42:58.965909  9578 layer_factory.hpp:77] Creating layer loss2/relu_conv
I0403 19:42:58.965930  9578 net.cpp:91] Creating Layer loss2/relu_conv
I0403 19:42:58.965948  9578 net.cpp:425] loss2/relu_conv <- loss2/conv
I0403 19:42:58.965970  9578 net.cpp:386] loss2/relu_conv -> loss2/conv (in-place)
I0403 19:42:58.966289  9578 net.cpp:141] Setting up loss2/relu_conv
I0403 19:42:58.966320  9578 net.cpp:148] Top shape: 24 128 4 4 (49152)
I0403 19:42:58.966337  9578 net.cpp:156] Memory required for data: 1208122656
I0403 19:42:58.966353  9578 layer_factory.hpp:77] Creating layer loss2/fc
I0403 19:42:58.966373  9578 net.cpp:91] Creating Layer loss2/fc
I0403 19:42:58.966392  9578 net.cpp:425] loss2/fc <- loss2/conv
I0403 19:42:58.966414  9578 net.cpp:399] loss2/fc -> loss2/fc
I0403 19:42:58.986728  9578 net.cpp:141] Setting up loss2/fc
I0403 19:42:58.986800  9578 net.cpp:148] Top shape: 24 1024 (24576)
I0403 19:42:58.986831  9578 net.cpp:156] Memory required for data: 1208220960
I0403 19:42:58.986860  9578 layer_factory.hpp:77] Creating layer loss2/relu_fc
I0403 19:42:58.986886  9578 net.cpp:91] Creating Layer loss2/relu_fc
I0403 19:42:58.986929  9578 net.cpp:425] loss2/relu_fc <- loss2/fc
I0403 19:42:58.986959  9578 net.cpp:386] loss2/relu_fc -> loss2/fc (in-place)
I0403 19:42:58.987661  9578 net.cpp:141] Setting up loss2/relu_fc
I0403 19:42:58.987690  9578 net.cpp:148] Top shape: 24 1024 (24576)
I0403 19:42:58.987715  9578 net.cpp:156] Memory required for data: 1208319264
I0403 19:42:58.987740  9578 layer_factory.hpp:77] Creating layer loss2/drop_fc
I0403 19:42:58.987766  9578 net.cpp:91] Creating Layer loss2/drop_fc
I0403 19:42:58.987792  9578 net.cpp:425] loss2/drop_fc <- loss2/fc
I0403 19:42:58.987817  9578 net.cpp:386] loss2/drop_fc -> loss2/fc (in-place)
I0403 19:42:58.987895  9578 net.cpp:141] Setting up loss2/drop_fc
I0403 19:42:58.987931  9578 net.cpp:148] Top shape: 24 1024 (24576)
I0403 19:42:58.987962  9578 net.cpp:156] Memory required for data: 1208417568
I0403 19:42:58.987990  9578 layer_factory.hpp:77] Creating layer loss2/classifier_plantvillage
I0403 19:42:58.988028  9578 net.cpp:91] Creating Layer loss2/classifier_plantvillage
I0403 19:42:58.988046  9578 net.cpp:425] loss2/classifier_plantvillage <- loss2/fc
I0403 19:42:58.988075  9578 net.cpp:399] loss2/classifier_plantvillage -> loss2/classifier_plantvillage
I0403 19:42:58.988770  9578 net.cpp:141] Setting up loss2/classifier_plantvillage
I0403 19:42:58.988798  9578 net.cpp:148] Top shape: 24 38 (912)
I0403 19:42:58.988814  9578 net.cpp:156] Memory required for data: 1208421216
I0403 19:42:58.988932  9578 layer_factory.hpp:77] Creating layer loss2/classifier_plantvillage_loss2/classifier_plantvillage_0_split
I0403 19:42:58.988970  9578 net.cpp:91] Creating Layer loss2/classifier_plantvillage_loss2/classifier_plantvillage_0_split
I0403 19:42:58.989006  9578 net.cpp:425] loss2/classifier_plantvillage_loss2/classifier_plantvillage_0_split <- loss2/classifier_plantvillage
I0403 19:42:58.989033  9578 net.cpp:399] loss2/classifier_plantvillage_loss2/classifier_plantvillage_0_split -> loss2/classifier_plantvillage_loss2/classifier_plantvillage_0_split_0
I0403 19:42:58.989058  9578 net.cpp:399] loss2/classifier_plantvillage_loss2/classifier_plantvillage_0_split -> loss2/classifier_plantvillage_loss2/classifier_plantvillage_0_split_1
I0403 19:42:58.989083  9578 net.cpp:399] loss2/classifier_plantvillage_loss2/classifier_plantvillage_0_split -> loss2/classifier_plantvillage_loss2/classifier_plantvillage_0_split_2
I0403 19:42:58.989169  9578 net.cpp:141] Setting up loss2/classifier_plantvillage_loss2/classifier_plantvillage_0_split
I0403 19:42:58.989199  9578 net.cpp:148] Top shape: 24 38 (912)
I0403 19:42:58.989264  9578 net.cpp:148] Top shape: 24 38 (912)
I0403 19:42:58.989315  9578 net.cpp:148] Top shape: 24 38 (912)
I0403 19:42:58.989338  9578 net.cpp:156] Memory required for data: 1208432160
I0403 19:42:58.989373  9578 layer_factory.hpp:77] Creating layer inception_4e/1x1
I0403 19:42:58.989405  9578 net.cpp:91] Creating Layer inception_4e/1x1
I0403 19:42:58.989429  9578 net.cpp:425] inception_4e/1x1 <- inception_4d/output_inception_4d/output_0_split_1
I0403 19:42:58.989451  9578 net.cpp:399] inception_4e/1x1 -> inception_4e/1x1
I0403 19:42:58.992000  9578 net.cpp:141] Setting up inception_4e/1x1
I0403 19:42:58.992043  9578 net.cpp:148] Top shape: 24 256 14 14 (1204224)
I0403 19:42:58.992063  9578 net.cpp:156] Memory required for data: 1213249056
I0403 19:42:58.992094  9578 layer_factory.hpp:77] Creating layer inception_4e/relu_1x1
I0403 19:42:58.992135  9578 net.cpp:91] Creating Layer inception_4e/relu_1x1
I0403 19:42:58.992154  9578 net.cpp:425] inception_4e/relu_1x1 <- inception_4e/1x1
I0403 19:42:58.992175  9578 net.cpp:386] inception_4e/relu_1x1 -> inception_4e/1x1 (in-place)
I0403 19:42:58.992523  9578 net.cpp:141] Setting up inception_4e/relu_1x1
I0403 19:42:58.992557  9578 net.cpp:148] Top shape: 24 256 14 14 (1204224)
I0403 19:42:58.992573  9578 net.cpp:156] Memory required for data: 1218065952
I0403 19:42:58.992589  9578 layer_factory.hpp:77] Creating layer inception_4e/3x3_reduce
I0403 19:42:58.992612  9578 net.cpp:91] Creating Layer inception_4e/3x3_reduce
I0403 19:42:58.992642  9578 net.cpp:425] inception_4e/3x3_reduce <- inception_4d/output_inception_4d/output_0_split_2
I0403 19:42:58.992686  9578 net.cpp:399] inception_4e/3x3_reduce -> inception_4e/3x3_reduce
I0403 19:42:58.995242  9578 net.cpp:141] Setting up inception_4e/3x3_reduce
I0403 19:42:58.995276  9578 net.cpp:148] Top shape: 24 160 14 14 (752640)
I0403 19:42:58.995295  9578 net.cpp:156] Memory required for data: 1221076512
I0403 19:42:58.995313  9578 layer_factory.hpp:77] Creating layer inception_4e/relu_3x3_reduce
I0403 19:42:58.995347  9578 net.cpp:91] Creating Layer inception_4e/relu_3x3_reduce
I0403 19:42:58.995370  9578 net.cpp:425] inception_4e/relu_3x3_reduce <- inception_4e/3x3_reduce
I0403 19:42:58.995390  9578 net.cpp:386] inception_4e/relu_3x3_reduce -> inception_4e/3x3_reduce (in-place)
I0403 19:42:58.995616  9578 net.cpp:141] Setting up inception_4e/relu_3x3_reduce
I0403 19:42:58.995645  9578 net.cpp:148] Top shape: 24 160 14 14 (752640)
I0403 19:42:58.995671  9578 net.cpp:156] Memory required for data: 1224087072
I0403 19:42:58.995695  9578 layer_factory.hpp:77] Creating layer inception_4e/3x3
I0403 19:42:58.995723  9578 net.cpp:91] Creating Layer inception_4e/3x3
I0403 19:42:58.995756  9578 net.cpp:425] inception_4e/3x3 <- inception_4e/3x3_reduce
I0403 19:42:58.995792  9578 net.cpp:399] inception_4e/3x3 -> inception_4e/3x3
I0403 19:42:59.001672  9578 net.cpp:141] Setting up inception_4e/3x3
I0403 19:42:59.001744  9578 net.cpp:148] Top shape: 24 320 14 14 (1505280)
I0403 19:42:59.001765  9578 net.cpp:156] Memory required for data: 1230108192
I0403 19:42:59.001786  9578 layer_factory.hpp:77] Creating layer inception_4e/relu_3x3
I0403 19:42:59.001808  9578 net.cpp:91] Creating Layer inception_4e/relu_3x3
I0403 19:42:59.001829  9578 net.cpp:425] inception_4e/relu_3x3 <- inception_4e/3x3
I0403 19:42:59.001860  9578 net.cpp:386] inception_4e/relu_3x3 -> inception_4e/3x3 (in-place)
I0403 19:42:59.002192  9578 net.cpp:141] Setting up inception_4e/relu_3x3
I0403 19:42:59.002224  9578 net.cpp:148] Top shape: 24 320 14 14 (1505280)
I0403 19:42:59.002252  9578 net.cpp:156] Memory required for data: 1236129312
I0403 19:42:59.002272  9578 layer_factory.hpp:77] Creating layer inception_4e/5x5_reduce
I0403 19:42:59.002297  9578 net.cpp:91] Creating Layer inception_4e/5x5_reduce
I0403 19:42:59.002318  9578 net.cpp:425] inception_4e/5x5_reduce <- inception_4d/output_inception_4d/output_0_split_3
I0403 19:42:59.002348  9578 net.cpp:399] inception_4e/5x5_reduce -> inception_4e/5x5_reduce
I0403 19:42:59.003813  9578 net.cpp:141] Setting up inception_4e/5x5_reduce
I0403 19:42:59.003852  9578 net.cpp:148] Top shape: 24 32 14 14 (150528)
I0403 19:42:59.003883  9578 net.cpp:156] Memory required for data: 1236731424
I0403 19:42:59.003913  9578 layer_factory.hpp:77] Creating layer inception_4e/relu_5x5_reduce
I0403 19:42:59.003933  9578 net.cpp:91] Creating Layer inception_4e/relu_5x5_reduce
I0403 19:42:59.003950  9578 net.cpp:425] inception_4e/relu_5x5_reduce <- inception_4e/5x5_reduce
I0403 19:42:59.003969  9578 net.cpp:386] inception_4e/relu_5x5_reduce -> inception_4e/5x5_reduce (in-place)
I0403 19:42:59.004330  9578 net.cpp:141] Setting up inception_4e/relu_5x5_reduce
I0403 19:42:59.004395  9578 net.cpp:148] Top shape: 24 32 14 14 (150528)
I0403 19:42:59.004415  9578 net.cpp:156] Memory required for data: 1237333536
I0403 19:42:59.004431  9578 layer_factory.hpp:77] Creating layer inception_4e/5x5
I0403 19:42:59.004484  9578 net.cpp:91] Creating Layer inception_4e/5x5
I0403 19:42:59.004521  9578 net.cpp:425] inception_4e/5x5 <- inception_4e/5x5_reduce
I0403 19:42:59.004549  9578 net.cpp:399] inception_4e/5x5 -> inception_4e/5x5
I0403 19:42:59.006717  9578 net.cpp:141] Setting up inception_4e/5x5
I0403 19:42:59.006749  9578 net.cpp:148] Top shape: 24 128 14 14 (602112)
I0403 19:42:59.006767  9578 net.cpp:156] Memory required for data: 1239741984
I0403 19:42:59.006789  9578 layer_factory.hpp:77] Creating layer inception_4e/relu_5x5
I0403 19:42:59.006811  9578 net.cpp:91] Creating Layer inception_4e/relu_5x5
I0403 19:42:59.006832  9578 net.cpp:425] inception_4e/relu_5x5 <- inception_4e/5x5
I0403 19:42:59.006851  9578 net.cpp:386] inception_4e/relu_5x5 -> inception_4e/5x5 (in-place)
I0403 19:42:59.007086  9578 net.cpp:141] Setting up inception_4e/relu_5x5
I0403 19:42:59.007117  9578 net.cpp:148] Top shape: 24 128 14 14 (602112)
I0403 19:42:59.007134  9578 net.cpp:156] Memory required for data: 1242150432
I0403 19:42:59.007150  9578 layer_factory.hpp:77] Creating layer inception_4e/pool
I0403 19:42:59.007170  9578 net.cpp:91] Creating Layer inception_4e/pool
I0403 19:42:59.007187  9578 net.cpp:425] inception_4e/pool <- inception_4d/output_inception_4d/output_0_split_4
I0403 19:42:59.007210  9578 net.cpp:399] inception_4e/pool -> inception_4e/pool
I0403 19:42:59.007307  9578 net.cpp:141] Setting up inception_4e/pool
I0403 19:42:59.007334  9578 net.cpp:148] Top shape: 24 528 14 14 (2483712)
I0403 19:42:59.007351  9578 net.cpp:156] Memory required for data: 1252085280
I0403 19:42:59.007369  9578 layer_factory.hpp:77] Creating layer inception_4e/pool_proj
I0403 19:42:59.007393  9578 net.cpp:91] Creating Layer inception_4e/pool_proj
I0403 19:42:59.007413  9578 net.cpp:425] inception_4e/pool_proj <- inception_4e/pool
I0403 19:42:59.007436  9578 net.cpp:399] inception_4e/pool_proj -> inception_4e/pool_proj
I0403 19:42:59.009167  9578 net.cpp:141] Setting up inception_4e/pool_proj
I0403 19:42:59.009212  9578 net.cpp:148] Top shape: 24 128 14 14 (602112)
I0403 19:42:59.009250  9578 net.cpp:156] Memory required for data: 1254493728
I0403 19:42:59.009274  9578 layer_factory.hpp:77] Creating layer inception_4e/relu_pool_proj
I0403 19:42:59.009299  9578 net.cpp:91] Creating Layer inception_4e/relu_pool_proj
I0403 19:42:59.009320  9578 net.cpp:425] inception_4e/relu_pool_proj <- inception_4e/pool_proj
I0403 19:42:59.009351  9578 net.cpp:386] inception_4e/relu_pool_proj -> inception_4e/pool_proj (in-place)
I0403 19:42:59.009709  9578 net.cpp:141] Setting up inception_4e/relu_pool_proj
I0403 19:42:59.009760  9578 net.cpp:148] Top shape: 24 128 14 14 (602112)
I0403 19:42:59.009779  9578 net.cpp:156] Memory required for data: 1256902176
I0403 19:42:59.009798  9578 layer_factory.hpp:77] Creating layer inception_4e/output
I0403 19:42:59.009820  9578 net.cpp:91] Creating Layer inception_4e/output
I0403 19:42:59.009840  9578 net.cpp:425] inception_4e/output <- inception_4e/1x1
I0403 19:42:59.009860  9578 net.cpp:425] inception_4e/output <- inception_4e/3x3
I0403 19:42:59.009910  9578 net.cpp:425] inception_4e/output <- inception_4e/5x5
I0403 19:42:59.009937  9578 net.cpp:425] inception_4e/output <- inception_4e/pool_proj
I0403 19:42:59.009960  9578 net.cpp:399] inception_4e/output -> inception_4e/output
I0403 19:42:59.010027  9578 net.cpp:141] Setting up inception_4e/output
I0403 19:42:59.010066  9578 net.cpp:148] Top shape: 24 832 14 14 (3913728)
I0403 19:42:59.010087  9578 net.cpp:156] Memory required for data: 1272557088
I0403 19:42:59.010113  9578 layer_factory.hpp:77] Creating layer pool4/3x3_s2
I0403 19:42:59.010150  9578 net.cpp:91] Creating Layer pool4/3x3_s2
I0403 19:42:59.010177  9578 net.cpp:425] pool4/3x3_s2 <- inception_4e/output
I0403 19:42:59.010202  9578 net.cpp:399] pool4/3x3_s2 -> pool4/3x3_s2
I0403 19:42:59.010300  9578 net.cpp:141] Setting up pool4/3x3_s2
I0403 19:42:59.010332  9578 net.cpp:148] Top shape: 24 832 7 7 (978432)
I0403 19:42:59.010350  9578 net.cpp:156] Memory required for data: 1276470816
I0403 19:42:59.010367  9578 layer_factory.hpp:77] Creating layer pool4/3x3_s2_pool4/3x3_s2_0_split
I0403 19:42:59.010385  9578 net.cpp:91] Creating Layer pool4/3x3_s2_pool4/3x3_s2_0_split
I0403 19:42:59.010403  9578 net.cpp:425] pool4/3x3_s2_pool4/3x3_s2_0_split <- pool4/3x3_s2
I0403 19:42:59.010433  9578 net.cpp:399] pool4/3x3_s2_pool4/3x3_s2_0_split -> pool4/3x3_s2_pool4/3x3_s2_0_split_0
I0403 19:42:59.010473  9578 net.cpp:399] pool4/3x3_s2_pool4/3x3_s2_0_split -> pool4/3x3_s2_pool4/3x3_s2_0_split_1
I0403 19:42:59.010499  9578 net.cpp:399] pool4/3x3_s2_pool4/3x3_s2_0_split -> pool4/3x3_s2_pool4/3x3_s2_0_split_2
I0403 19:42:59.010524  9578 net.cpp:399] pool4/3x3_s2_pool4/3x3_s2_0_split -> pool4/3x3_s2_pool4/3x3_s2_0_split_3
I0403 19:42:59.010655  9578 net.cpp:141] Setting up pool4/3x3_s2_pool4/3x3_s2_0_split
I0403 19:42:59.010686  9578 net.cpp:148] Top shape: 24 832 7 7 (978432)
I0403 19:42:59.010717  9578 net.cpp:148] Top shape: 24 832 7 7 (978432)
I0403 19:42:59.010743  9578 net.cpp:148] Top shape: 24 832 7 7 (978432)
I0403 19:42:59.010761  9578 net.cpp:148] Top shape: 24 832 7 7 (978432)
I0403 19:42:59.010793  9578 net.cpp:156] Memory required for data: 1292125728
I0403 19:42:59.010823  9578 layer_factory.hpp:77] Creating layer inception_5a/1x1
I0403 19:42:59.010850  9578 net.cpp:91] Creating Layer inception_5a/1x1
I0403 19:42:59.010872  9578 net.cpp:425] inception_5a/1x1 <- pool4/3x3_s2_pool4/3x3_s2_0_split_0
I0403 19:42:59.010905  9578 net.cpp:399] inception_5a/1x1 -> inception_5a/1x1
I0403 19:42:59.014281  9578 net.cpp:141] Setting up inception_5a/1x1
I0403 19:42:59.014320  9578 net.cpp:148] Top shape: 24 256 7 7 (301056)
I0403 19:42:59.014338  9578 net.cpp:156] Memory required for data: 1293329952
I0403 19:42:59.014358  9578 layer_factory.hpp:77] Creating layer inception_5a/relu_1x1
I0403 19:42:59.014390  9578 net.cpp:91] Creating Layer inception_5a/relu_1x1
I0403 19:42:59.014448  9578 net.cpp:425] inception_5a/relu_1x1 <- inception_5a/1x1
I0403 19:42:59.014478  9578 net.cpp:386] inception_5a/relu_1x1 -> inception_5a/1x1 (in-place)
I0403 19:42:59.014886  9578 net.cpp:141] Setting up inception_5a/relu_1x1
I0403 19:42:59.014917  9578 net.cpp:148] Top shape: 24 256 7 7 (301056)
I0403 19:42:59.014933  9578 net.cpp:156] Memory required for data: 1294534176
I0403 19:42:59.014952  9578 layer_factory.hpp:77] Creating layer inception_5a/3x3_reduce
I0403 19:42:59.014991  9578 net.cpp:91] Creating Layer inception_5a/3x3_reduce
I0403 19:42:59.015012  9578 net.cpp:425] inception_5a/3x3_reduce <- pool4/3x3_s2_pool4/3x3_s2_0_split_1
I0403 19:42:59.015036  9578 net.cpp:399] inception_5a/3x3_reduce -> inception_5a/3x3_reduce
I0403 19:42:59.017932  9578 net.cpp:141] Setting up inception_5a/3x3_reduce
I0403 19:42:59.017966  9578 net.cpp:148] Top shape: 24 160 7 7 (188160)
I0403 19:42:59.017983  9578 net.cpp:156] Memory required for data: 1295286816
I0403 19:42:59.018003  9578 layer_factory.hpp:77] Creating layer inception_5a/relu_3x3_reduce
I0403 19:42:59.018035  9578 net.cpp:91] Creating Layer inception_5a/relu_3x3_reduce
I0403 19:42:59.018074  9578 net.cpp:425] inception_5a/relu_3x3_reduce <- inception_5a/3x3_reduce
I0403 19:42:59.018095  9578 net.cpp:386] inception_5a/relu_3x3_reduce -> inception_5a/3x3_reduce (in-place)
I0403 19:42:59.018321  9578 net.cpp:141] Setting up inception_5a/relu_3x3_reduce
I0403 19:42:59.018363  9578 net.cpp:148] Top shape: 24 160 7 7 (188160)
I0403 19:42:59.018383  9578 net.cpp:156] Memory required for data: 1296039456
I0403 19:42:59.018399  9578 layer_factory.hpp:77] Creating layer inception_5a/3x3
I0403 19:42:59.018435  9578 net.cpp:91] Creating Layer inception_5a/3x3
I0403 19:42:59.018458  9578 net.cpp:425] inception_5a/3x3 <- inception_5a/3x3_reduce
I0403 19:42:59.018481  9578 net.cpp:399] inception_5a/3x3 -> inception_5a/3x3
I0403 19:42:59.024375  9578 net.cpp:141] Setting up inception_5a/3x3
I0403 19:42:59.024420  9578 net.cpp:148] Top shape: 24 320 7 7 (376320)
I0403 19:42:59.024461  9578 net.cpp:156] Memory required for data: 1297544736
I0403 19:42:59.024493  9578 layer_factory.hpp:77] Creating layer inception_5a/relu_3x3
I0403 19:42:59.024518  9578 net.cpp:91] Creating Layer inception_5a/relu_3x3
I0403 19:42:59.024535  9578 net.cpp:425] inception_5a/relu_3x3 <- inception_5a/3x3
I0403 19:42:59.024564  9578 net.cpp:386] inception_5a/relu_3x3 -> inception_5a/3x3 (in-place)
I0403 19:42:59.024917  9578 net.cpp:141] Setting up inception_5a/relu_3x3
I0403 19:42:59.024960  9578 net.cpp:148] Top shape: 24 320 7 7 (376320)
I0403 19:42:59.024981  9578 net.cpp:156] Memory required for data: 1299050016
I0403 19:42:59.024997  9578 layer_factory.hpp:77] Creating layer inception_5a/5x5_reduce
I0403 19:42:59.025038  9578 net.cpp:91] Creating Layer inception_5a/5x5_reduce
I0403 19:42:59.025065  9578 net.cpp:425] inception_5a/5x5_reduce <- pool4/3x3_s2_pool4/3x3_s2_0_split_2
I0403 19:42:59.025089  9578 net.cpp:399] inception_5a/5x5_reduce -> inception_5a/5x5_reduce
I0403 19:42:59.026504  9578 net.cpp:141] Setting up inception_5a/5x5_reduce
I0403 19:42:59.026551  9578 net.cpp:148] Top shape: 24 32 7 7 (37632)
I0403 19:42:59.026577  9578 net.cpp:156] Memory required for data: 1299200544
I0403 19:42:59.026598  9578 layer_factory.hpp:77] Creating layer inception_5a/relu_5x5_reduce
I0403 19:42:59.026618  9578 net.cpp:91] Creating Layer inception_5a/relu_5x5_reduce
I0403 19:42:59.026635  9578 net.cpp:425] inception_5a/relu_5x5_reduce <- inception_5a/5x5_reduce
I0403 19:42:59.026676  9578 net.cpp:386] inception_5a/relu_5x5_reduce -> inception_5a/5x5_reduce (in-place)
I0403 19:42:59.027040  9578 net.cpp:141] Setting up inception_5a/relu_5x5_reduce
I0403 19:42:59.027083  9578 net.cpp:148] Top shape: 24 32 7 7 (37632)
I0403 19:42:59.027106  9578 net.cpp:156] Memory required for data: 1299351072
I0403 19:42:59.027125  9578 layer_factory.hpp:77] Creating layer inception_5a/5x5
I0403 19:42:59.027149  9578 net.cpp:91] Creating Layer inception_5a/5x5
I0403 19:42:59.027169  9578 net.cpp:425] inception_5a/5x5 <- inception_5a/5x5_reduce
I0403 19:42:59.027191  9578 net.cpp:399] inception_5a/5x5 -> inception_5a/5x5
I0403 19:42:59.029294  9578 net.cpp:141] Setting up inception_5a/5x5
I0403 19:42:59.029346  9578 net.cpp:148] Top shape: 24 128 7 7 (150528)
I0403 19:42:59.029376  9578 net.cpp:156] Memory required for data: 1299953184
I0403 19:42:59.029405  9578 layer_factory.hpp:77] Creating layer inception_5a/relu_5x5
I0403 19:42:59.029429  9578 net.cpp:91] Creating Layer inception_5a/relu_5x5
I0403 19:42:59.029449  9578 net.cpp:425] inception_5a/relu_5x5 <- inception_5a/5x5
I0403 19:42:59.029471  9578 net.cpp:386] inception_5a/relu_5x5 -> inception_5a/5x5 (in-place)
I0403 19:42:59.029713  9578 net.cpp:141] Setting up inception_5a/relu_5x5
I0403 19:42:59.029754  9578 net.cpp:148] Top shape: 24 128 7 7 (150528)
I0403 19:42:59.029781  9578 net.cpp:156] Memory required for data: 1300555296
I0403 19:42:59.029798  9578 layer_factory.hpp:77] Creating layer inception_5a/pool
I0403 19:42:59.029819  9578 net.cpp:91] Creating Layer inception_5a/pool
I0403 19:42:59.029836  9578 net.cpp:425] inception_5a/pool <- pool4/3x3_s2_pool4/3x3_s2_0_split_3
I0403 19:42:59.029858  9578 net.cpp:399] inception_5a/pool -> inception_5a/pool
I0403 19:42:59.029949  9578 net.cpp:141] Setting up inception_5a/pool
I0403 19:42:59.029990  9578 net.cpp:148] Top shape: 24 832 7 7 (978432)
I0403 19:42:59.030021  9578 net.cpp:156] Memory required for data: 1304469024
I0403 19:42:59.030038  9578 layer_factory.hpp:77] Creating layer inception_5a/pool_proj
I0403 19:42:59.030064  9578 net.cpp:91] Creating Layer inception_5a/pool_proj
I0403 19:42:59.030086  9578 net.cpp:425] inception_5a/pool_proj <- inception_5a/pool
I0403 19:42:59.030113  9578 net.cpp:399] inception_5a/pool_proj -> inception_5a/pool_proj
I0403 19:42:59.032866  9578 net.cpp:141] Setting up inception_5a/pool_proj
I0403 19:42:59.032907  9578 net.cpp:148] Top shape: 24 128 7 7 (150528)
I0403 19:42:59.032932  9578 net.cpp:156] Memory required for data: 1305071136
I0403 19:42:59.032963  9578 layer_factory.hpp:77] Creating layer inception_5a/relu_pool_proj
I0403 19:42:59.032987  9578 net.cpp:91] Creating Layer inception_5a/relu_pool_proj
I0403 19:42:59.033007  9578 net.cpp:425] inception_5a/relu_pool_proj <- inception_5a/pool_proj
I0403 19:42:59.033026  9578 net.cpp:386] inception_5a/relu_pool_proj -> inception_5a/pool_proj (in-place)
I0403 19:42:59.033387  9578 net.cpp:141] Setting up inception_5a/relu_pool_proj
I0403 19:42:59.033422  9578 net.cpp:148] Top shape: 24 128 7 7 (150528)
I0403 19:42:59.033439  9578 net.cpp:156] Memory required for data: 1305673248
I0403 19:42:59.033470  9578 layer_factory.hpp:77] Creating layer inception_5a/output
I0403 19:42:59.033496  9578 net.cpp:91] Creating Layer inception_5a/output
I0403 19:42:59.033514  9578 net.cpp:425] inception_5a/output <- inception_5a/1x1
I0403 19:42:59.033535  9578 net.cpp:425] inception_5a/output <- inception_5a/3x3
I0403 19:42:59.033565  9578 net.cpp:425] inception_5a/output <- inception_5a/5x5
I0403 19:42:59.033584  9578 net.cpp:425] inception_5a/output <- inception_5a/pool_proj
I0403 19:42:59.033602  9578 net.cpp:399] inception_5a/output -> inception_5a/output
I0403 19:42:59.033660  9578 net.cpp:141] Setting up inception_5a/output
I0403 19:42:59.033689  9578 net.cpp:148] Top shape: 24 832 7 7 (978432)
I0403 19:42:59.033718  9578 net.cpp:156] Memory required for data: 1309586976
I0403 19:42:59.033736  9578 layer_factory.hpp:77] Creating layer inception_5a/output_inception_5a/output_0_split
I0403 19:42:59.033756  9578 net.cpp:91] Creating Layer inception_5a/output_inception_5a/output_0_split
I0403 19:42:59.033773  9578 net.cpp:425] inception_5a/output_inception_5a/output_0_split <- inception_5a/output
I0403 19:42:59.033810  9578 net.cpp:399] inception_5a/output_inception_5a/output_0_split -> inception_5a/output_inception_5a/output_0_split_0
I0403 19:42:59.033838  9578 net.cpp:399] inception_5a/output_inception_5a/output_0_split -> inception_5a/output_inception_5a/output_0_split_1
I0403 19:42:59.033860  9578 net.cpp:399] inception_5a/output_inception_5a/output_0_split -> inception_5a/output_inception_5a/output_0_split_2
I0403 19:42:59.033881  9578 net.cpp:399] inception_5a/output_inception_5a/output_0_split -> inception_5a/output_inception_5a/output_0_split_3
I0403 19:42:59.034039  9578 net.cpp:141] Setting up inception_5a/output_inception_5a/output_0_split
I0403 19:42:59.034073  9578 net.cpp:148] Top shape: 24 832 7 7 (978432)
I0403 19:42:59.034111  9578 net.cpp:148] Top shape: 24 832 7 7 (978432)
I0403 19:42:59.034132  9578 net.cpp:148] Top shape: 24 832 7 7 (978432)
I0403 19:42:59.034148  9578 net.cpp:148] Top shape: 24 832 7 7 (978432)
I0403 19:42:59.034164  9578 net.cpp:156] Memory required for data: 1325241888
I0403 19:42:59.034180  9578 layer_factory.hpp:77] Creating layer inception_5b/1x1
I0403 19:42:59.034204  9578 net.cpp:91] Creating Layer inception_5b/1x1
I0403 19:42:59.034224  9578 net.cpp:425] inception_5b/1x1 <- inception_5a/output_inception_5a/output_0_split_0
I0403 19:42:59.034255  9578 net.cpp:399] inception_5b/1x1 -> inception_5b/1x1
I0403 19:42:59.038749  9578 net.cpp:141] Setting up inception_5b/1x1
I0403 19:42:59.038815  9578 net.cpp:148] Top shape: 24 384 7 7 (451584)
I0403 19:42:59.038838  9578 net.cpp:156] Memory required for data: 1327048224
I0403 19:42:59.038869  9578 layer_factory.hpp:77] Creating layer inception_5b/relu_1x1
I0403 19:42:59.038902  9578 net.cpp:91] Creating Layer inception_5b/relu_1x1
I0403 19:42:59.038923  9578 net.cpp:425] inception_5b/relu_1x1 <- inception_5b/1x1
I0403 19:42:59.038941  9578 net.cpp:386] inception_5b/relu_1x1 -> inception_5b/1x1 (in-place)
I0403 19:42:59.039324  9578 net.cpp:141] Setting up inception_5b/relu_1x1
I0403 19:42:59.039355  9578 net.cpp:148] Top shape: 24 384 7 7 (451584)
I0403 19:42:59.039371  9578 net.cpp:156] Memory required for data: 1328854560
I0403 19:42:59.039403  9578 layer_factory.hpp:77] Creating layer inception_5b/3x3_reduce
I0403 19:42:59.039429  9578 net.cpp:91] Creating Layer inception_5b/3x3_reduce
I0403 19:42:59.039470  9578 net.cpp:425] inception_5b/3x3_reduce <- inception_5a/output_inception_5a/output_0_split_1
I0403 19:42:59.039510  9578 net.cpp:399] inception_5b/3x3_reduce -> inception_5b/3x3_reduce
I0403 19:42:59.042915  9578 net.cpp:141] Setting up inception_5b/3x3_reduce
I0403 19:42:59.042950  9578 net.cpp:148] Top shape: 24 192 7 7 (225792)
I0403 19:42:59.042968  9578 net.cpp:156] Memory required for data: 1329757728
I0403 19:42:59.043001  9578 layer_factory.hpp:77] Creating layer inception_5b/relu_3x3_reduce
I0403 19:42:59.043041  9578 net.cpp:91] Creating Layer inception_5b/relu_3x3_reduce
I0403 19:42:59.043069  9578 net.cpp:425] inception_5b/relu_3x3_reduce <- inception_5b/3x3_reduce
I0403 19:42:59.043097  9578 net.cpp:386] inception_5b/relu_3x3_reduce -> inception_5b/3x3_reduce (in-place)
I0403 19:42:59.043354  9578 net.cpp:141] Setting up inception_5b/relu_3x3_reduce
I0403 19:42:59.043385  9578 net.cpp:148] Top shape: 24 192 7 7 (225792)
I0403 19:42:59.043402  9578 net.cpp:156] Memory required for data: 1330660896
I0403 19:42:59.043434  9578 layer_factory.hpp:77] Creating layer inception_5b/3x3
I0403 19:42:59.043462  9578 net.cpp:91] Creating Layer inception_5b/3x3
I0403 19:42:59.043484  9578 net.cpp:425] inception_5b/3x3 <- inception_5b/3x3_reduce
I0403 19:42:59.043509  9578 net.cpp:399] inception_5b/3x3 -> inception_5b/3x3
I0403 19:42:59.051450  9578 net.cpp:141] Setting up inception_5b/3x3
I0403 19:42:59.051514  9578 net.cpp:148] Top shape: 24 384 7 7 (451584)
I0403 19:42:59.051533  9578 net.cpp:156] Memory required for data: 1332467232
I0403 19:42:59.051558  9578 layer_factory.hpp:77] Creating layer inception_5b/relu_3x3
I0403 19:42:59.051584  9578 net.cpp:91] Creating Layer inception_5b/relu_3x3
I0403 19:42:59.051602  9578 net.cpp:425] inception_5b/relu_3x3 <- inception_5b/3x3
I0403 19:42:59.051621  9578 net.cpp:386] inception_5b/relu_3x3 -> inception_5b/3x3 (in-place)
I0403 19:42:59.051942  9578 net.cpp:141] Setting up inception_5b/relu_3x3
I0403 19:42:59.051970  9578 net.cpp:148] Top shape: 24 384 7 7 (451584)
I0403 19:42:59.051986  9578 net.cpp:156] Memory required for data: 1334273568
I0403 19:42:59.052002  9578 layer_factory.hpp:77] Creating layer inception_5b/5x5_reduce
I0403 19:42:59.052059  9578 net.cpp:91] Creating Layer inception_5b/5x5_reduce
I0403 19:42:59.052080  9578 net.cpp:425] inception_5b/5x5_reduce <- inception_5a/output_inception_5a/output_0_split_2
I0403 19:42:59.052104  9578 net.cpp:399] inception_5b/5x5_reduce -> inception_5b/5x5_reduce
I0403 19:42:59.053509  9578 net.cpp:141] Setting up inception_5b/5x5_reduce
I0403 19:42:59.053539  9578 net.cpp:148] Top shape: 24 48 7 7 (56448)
I0403 19:42:59.053556  9578 net.cpp:156] Memory required for data: 1334499360
I0403 19:42:59.053575  9578 layer_factory.hpp:77] Creating layer inception_5b/relu_5x5_reduce
I0403 19:42:59.053596  9578 net.cpp:91] Creating Layer inception_5b/relu_5x5_reduce
I0403 19:42:59.053616  9578 net.cpp:425] inception_5b/relu_5x5_reduce <- inception_5b/5x5_reduce
I0403 19:42:59.053633  9578 net.cpp:386] inception_5b/relu_5x5_reduce -> inception_5b/5x5_reduce (in-place)
I0403 19:42:59.054034  9578 net.cpp:141] Setting up inception_5b/relu_5x5_reduce
I0403 19:42:59.054064  9578 net.cpp:148] Top shape: 24 48 7 7 (56448)
I0403 19:42:59.054080  9578 net.cpp:156] Memory required for data: 1334725152
I0403 19:42:59.054095  9578 layer_factory.hpp:77] Creating layer inception_5b/5x5
I0403 19:42:59.054117  9578 net.cpp:91] Creating Layer inception_5b/5x5
I0403 19:42:59.054136  9578 net.cpp:425] inception_5b/5x5 <- inception_5b/5x5_reduce
I0403 19:42:59.054155  9578 net.cpp:399] inception_5b/5x5 -> inception_5b/5x5
I0403 19:42:59.056401  9578 net.cpp:141] Setting up inception_5b/5x5
I0403 19:42:59.056430  9578 net.cpp:148] Top shape: 24 128 7 7 (150528)
I0403 19:42:59.056447  9578 net.cpp:156] Memory required for data: 1335327264
I0403 19:42:59.056468  9578 layer_factory.hpp:77] Creating layer inception_5b/relu_5x5
I0403 19:42:59.056489  9578 net.cpp:91] Creating Layer inception_5b/relu_5x5
I0403 19:42:59.056507  9578 net.cpp:425] inception_5b/relu_5x5 <- inception_5b/5x5
I0403 19:42:59.056525  9578 net.cpp:386] inception_5b/relu_5x5 -> inception_5b/5x5 (in-place)
I0403 19:42:59.056741  9578 net.cpp:141] Setting up inception_5b/relu_5x5
I0403 19:42:59.056767  9578 net.cpp:148] Top shape: 24 128 7 7 (150528)
I0403 19:42:59.056783  9578 net.cpp:156] Memory required for data: 1335929376
I0403 19:42:59.056799  9578 layer_factory.hpp:77] Creating layer inception_5b/pool
I0403 19:42:59.056818  9578 net.cpp:91] Creating Layer inception_5b/pool
I0403 19:42:59.056838  9578 net.cpp:425] inception_5b/pool <- inception_5a/output_inception_5a/output_0_split_3
I0403 19:42:59.056860  9578 net.cpp:399] inception_5b/pool -> inception_5b/pool
I0403 19:42:59.056939  9578 net.cpp:141] Setting up inception_5b/pool
I0403 19:42:59.056964  9578 net.cpp:148] Top shape: 24 832 7 7 (978432)
I0403 19:42:59.056980  9578 net.cpp:156] Memory required for data: 1339843104
I0403 19:42:59.056995  9578 layer_factory.hpp:77] Creating layer inception_5b/pool_proj
I0403 19:42:59.057019  9578 net.cpp:91] Creating Layer inception_5b/pool_proj
I0403 19:42:59.057039  9578 net.cpp:425] inception_5b/pool_proj <- inception_5b/pool
I0403 19:42:59.057060  9578 net.cpp:399] inception_5b/pool_proj -> inception_5b/pool_proj
I0403 19:42:59.059569  9578 net.cpp:141] Setting up inception_5b/pool_proj
I0403 19:42:59.059603  9578 net.cpp:148] Top shape: 24 128 7 7 (150528)
I0403 19:42:59.059619  9578 net.cpp:156] Memory required for data: 1340445216
I0403 19:42:59.059639  9578 layer_factory.hpp:77] Creating layer inception_5b/relu_pool_proj
I0403 19:42:59.059661  9578 net.cpp:91] Creating Layer inception_5b/relu_pool_proj
I0403 19:42:59.059680  9578 net.cpp:425] inception_5b/relu_pool_proj <- inception_5b/pool_proj
I0403 19:42:59.059700  9578 net.cpp:386] inception_5b/relu_pool_proj -> inception_5b/pool_proj (in-place)
I0403 19:42:59.060021  9578 net.cpp:141] Setting up inception_5b/relu_pool_proj
I0403 19:42:59.060050  9578 net.cpp:148] Top shape: 24 128 7 7 (150528)
I0403 19:42:59.060066  9578 net.cpp:156] Memory required for data: 1341047328
I0403 19:42:59.060082  9578 layer_factory.hpp:77] Creating layer inception_5b/output
I0403 19:42:59.060103  9578 net.cpp:91] Creating Layer inception_5b/output
I0403 19:42:59.060143  9578 net.cpp:425] inception_5b/output <- inception_5b/1x1
I0403 19:42:59.060161  9578 net.cpp:425] inception_5b/output <- inception_5b/3x3
I0403 19:42:59.060179  9578 net.cpp:425] inception_5b/output <- inception_5b/5x5
I0403 19:42:59.060196  9578 net.cpp:425] inception_5b/output <- inception_5b/pool_proj
I0403 19:42:59.060214  9578 net.cpp:399] inception_5b/output -> inception_5b/output
I0403 19:42:59.060278  9578 net.cpp:141] Setting up inception_5b/output
I0403 19:42:59.060304  9578 net.cpp:148] Top shape: 24 1024 7 7 (1204224)
I0403 19:42:59.060320  9578 net.cpp:156] Memory required for data: 1345864224
I0403 19:42:59.060335  9578 layer_factory.hpp:77] Creating layer pool5/7x7_s1
I0403 19:42:59.060353  9578 net.cpp:91] Creating Layer pool5/7x7_s1
I0403 19:42:59.060370  9578 net.cpp:425] pool5/7x7_s1 <- inception_5b/output
I0403 19:42:59.060395  9578 net.cpp:399] pool5/7x7_s1 -> pool5/7x7_s1
I0403 19:42:59.060631  9578 net.cpp:141] Setting up pool5/7x7_s1
I0403 19:42:59.060662  9578 net.cpp:148] Top shape: 24 1024 1 1 (24576)
I0403 19:42:59.060679  9578 net.cpp:156] Memory required for data: 1345962528
I0403 19:42:59.060703  9578 layer_factory.hpp:77] Creating layer pool5/drop_7x7_s1
I0403 19:42:59.060722  9578 net.cpp:91] Creating Layer pool5/drop_7x7_s1
I0403 19:42:59.060739  9578 net.cpp:425] pool5/drop_7x7_s1 <- pool5/7x7_s1
I0403 19:42:59.060760  9578 net.cpp:386] pool5/drop_7x7_s1 -> pool5/7x7_s1 (in-place)
I0403 19:42:59.060816  9578 net.cpp:141] Setting up pool5/drop_7x7_s1
I0403 19:42:59.060842  9578 net.cpp:148] Top shape: 24 1024 1 1 (24576)
I0403 19:42:59.060858  9578 net.cpp:156] Memory required for data: 1346060832
I0403 19:42:59.060875  9578 layer_factory.hpp:77] Creating layer loss3/classifier_plantvillage
I0403 19:42:59.060899  9578 net.cpp:91] Creating Layer loss3/classifier_plantvillage
I0403 19:42:59.060919  9578 net.cpp:425] loss3/classifier_plantvillage <- pool5/7x7_s1
I0403 19:42:59.060940  9578 net.cpp:399] loss3/classifier_plantvillage -> loss3/classifier_plantvillage
I0403 19:42:59.061404  9578 net.cpp:141] Setting up loss3/classifier_plantvillage
I0403 19:42:59.061432  9578 net.cpp:148] Top shape: 24 38 (912)
I0403 19:42:59.061450  9578 net.cpp:156] Memory required for data: 1346064480
I0403 19:42:59.061470  9578 layer_factory.hpp:77] Creating layer loss3/classifier_plantvillage_loss3/classifier_plantvillage_0_split
I0403 19:42:59.061489  9578 net.cpp:91] Creating Layer loss3/classifier_plantvillage_loss3/classifier_plantvillage_0_split
I0403 19:42:59.061507  9578 net.cpp:425] loss3/classifier_plantvillage_loss3/classifier_plantvillage_0_split <- loss3/classifier_plantvillage
I0403 19:42:59.061532  9578 net.cpp:399] loss3/classifier_plantvillage_loss3/classifier_plantvillage_0_split -> loss3/classifier_plantvillage_loss3/classifier_plantvillage_0_split_0
I0403 19:42:59.061555  9578 net.cpp:399] loss3/classifier_plantvillage_loss3/classifier_plantvillage_0_split -> loss3/classifier_plantvillage_loss3/classifier_plantvillage_0_split_1
I0403 19:42:59.061581  9578 net.cpp:399] loss3/classifier_plantvillage_loss3/classifier_plantvillage_0_split -> loss3/classifier_plantvillage_loss3/classifier_plantvillage_0_split_2
I0403 19:42:59.061605  9578 net.cpp:399] loss3/classifier_plantvillage_loss3/classifier_plantvillage_0_split -> loss3/classifier_plantvillage_loss3/classifier_plantvillage_0_split_3
I0403 19:42:59.061717  9578 net.cpp:141] Setting up loss3/classifier_plantvillage_loss3/classifier_plantvillage_0_split
I0403 19:42:59.061745  9578 net.cpp:148] Top shape: 24 38 (912)
I0403 19:42:59.061764  9578 net.cpp:148] Top shape: 24 38 (912)
I0403 19:42:59.061780  9578 net.cpp:148] Top shape: 24 38 (912)
I0403 19:42:59.061797  9578 net.cpp:148] Top shape: 24 38 (912)
I0403 19:42:59.061812  9578 net.cpp:156] Memory required for data: 1346079072
I0403 19:42:59.061828  9578 layer_factory.hpp:77] Creating layer loss1/loss
I0403 19:42:59.061851  9578 net.cpp:91] Creating Layer loss1/loss
I0403 19:42:59.061871  9578 net.cpp:425] loss1/loss <- loss1/classifier_plantvillage_loss1/classifier_plantvillage_0_split_0
I0403 19:42:59.061903  9578 net.cpp:425] loss1/loss <- label_data_1_split_0
…
