…
I0403 19:57:03.004346 10094 net.cpp:313] The NetState phase (1) differed from the phase (0) specified by a rule in layer data
I0403 19:57:03.005816 10094 net.cpp:49] Initializing net from parameters: 
state {
  phase: TEST
}
layer {
  name: "data"
  type: "Data"
  top: "data"
  top: "label"
  include {
    phase: TEST
  }
  transform_param {
    mirror: false
    crop_size: 224
    mean_file: "/home/mohanty/data/final_dataset/lmdb/color-50-50/mean.binaryproto"
  }
  data_param {
    source: "/home/mohanty/data/final_dataset/lmdb/color-50-50/test_db"
    batch_size: 24
    backend: LMDB
  }
}
layer {
  name: "conv1/7x7_s2"
  type: "Convolution"
  bottom: "data"
  top: "conv1/7x7_s2"
  param {
    lr_mult: 1
    decay_mult: 1
  }
  param {
    lr_mult: 2
    decay_mult: 0
  }
  convolution_param {
    num_output: 64
    pad: 3
    kernel_size: 7
    stride: 2
    weight_filler {
      type: "xavier"
      std: 0.1
    }
    bias_filler {
      type: "constant"
      value: 0.2
    }
  }
}
layer {
  name: "conv1/relu_7x7"
  type: "ReLU"
  bottom: "conv1/7x7_s2"
  top: "conv1/7x7_s2"
}
layer {
  name: "pool1/3x3_s2"
  type: "Pooling"
  bottom: "conv1/7x7_s2"
  top: "pool1/3x3_s2"
  pooling_param {
    pool: MAX
    kernel_size: 3
    stride: 2
  }
}
layer {
  name: "pool1/norm1"
  type: "LRN"
  bottom: "pool1/3x3_s2"
  top: "pool1/norm1"
  lrn_param {
    local_size: 5
    alpha: 0.0001
    beta: 0.75
  }
}
layer {
  name: "conv2/3x3_reduce"
  type: "Convolution"
  bottom: "pool1/norm1"
  top: "conv2/3x3_reduce"
  param {
    lr_mult: 1
    decay_mult: 1
  }
  param {
    lr_mult: 2
    decay_mult: 0
  }
  convolution_param {
    num_output: 64
    kernel_size: 1
    weight_filler {
      type: "xavier"
      std: 0.1
    }
    bias_filler {
      type: "constant"
      value: 0.2
    }
  }
}
layer {
  name: "conv2/relu_3x3_reduce"
  type: "ReLU"
  bottom: "conv2/3x3_reduce"
  top: "conv2/3x3_reduce"
}
layer {
  name: "conv2/3x3"
  type: "Convolution"
  bottom: "conv2/3x3_reduce"
  top: "conv2/3x3"
  param {
    lr_mult: 1
    decay_mult: 1
  }
  param {
    lr_mult: 2
    decay_mult: 0
  }
  convolution_param {
    num_output: 192
    pad: 1
    kernel_size: 3
    weight_filler {
      type: "xavier"
      std: 0.03
    }
    bias_filler {
      type: "constant"
      value: 0.2
    }
  }
}
layer {
  name: "conv2/relu_3x3"
  type: "ReLU"
  bottom: "conv2/3x3"
  top: "conv2/3x3"
}
layer {
  name: "conv2/norm2"
  type: "LRN"
  bottom: "conv2/3x3"
  top: "conv2/norm2"
  lrn_param {
    local_size: 5
    alpha: 0.0001
    beta: 0.75
  }
}
layer {
  name: "pool2/3x3_s2"
  type: "Pooling"
  bottom: "conv2/norm2"
  top: "pool2/3x3_s2"
  pooling_param {
    pool: MAX
    kernel_size: 3
    stride: 2
  }
}
layer {
  name: "inception_3a/1x1"
  type: "Convolution"
  bottom: "pool2/3x3_s2"
  top: "inception_3a/1x1"
  param {
    lr_mult: 1
    decay_mult: 1
  }
  param {
    lr_mult: 2
    decay_mult: 0
  }
  convolution_param {
    num_output: 64
    kernel_size: 1
    weight_filler {
      type: "xavier"
      std: 0.03
    }
    bias_filler {
      type: "constant"
      value: 0.2
    }
  }
}
layer {
  name: "inception_3a/relu_1x1"
  type: "ReLU"
  bottom: "inception_3a/1x1"
  top: "inception_3a/1x1"
}
layer {
  name: "inception_3a/3x3_reduce"
  type: "Convolution"
  bottom: "pool2/3x3_s2"
  top: "inception_3a/3x3_reduce"
  param {
    lr_mult: 1
    decay_mult: 1
  }
  param {
    lr_mult: 2
    decay_mult: 0
  }
  convolution_param {
    num_output: 96
    kernel_size: 1
    weight_filler {
      type: "xavier"
      std: 0.09
    }
    bias_filler {
      type: "constant"
      value: 0.2
    }
  }
}
layer {
  name: "inception_3a/relu_3x3_reduce"
  type: "ReLU"
  bottom: "inception_3a/3x3_reduce"
  top: "inception_3a/3x3_reduce"
}
layer {
  name: "inception_3a/3x3"
  type: "Convolution"
  bottom: "inception_3a/3x3_reduce"
  top: "inception_3a/3x3"
  param {
    lr_mult: 1
    decay_mult: 1
  }
  param {
    lr_mult: 2
    decay_mult: 0
  }
  convolution_param {
    num_output: 128
    pad: 1
    kernel_size: 3
    weight_filler {
      type: "xavier"
      std: 0.03
    }
    bias_filler {
      type: "constant"
      value: 0.2
    }
  }
}
layer {
  name: "inception_3a/relu_3x3"
  type: "ReLU"
  bottom: "inception_3a/3x3"
  top: "inception_3a/3x3"
}
layer {
  name: "inception_3a/5x5_reduce"
  type: "Convolution"
  bottom: "pool2/3x3_s2"
  top: "inception_3a/5x5_reduce"
  param {
    lr_mult: 1
    decay_mult: 1
  }
  param {
    lr_mult: 2
    decay_mult: 0
  }
  convolution_param {
    num_output: 16
    kernel_size: 1
    weight_filler {
      type: "xavier"
      std: 0.2
    }
    bias_filler {
      type: "constant"
      value: 0.2
    }
  }
}
layer {
  name: "inception_3a/relu_5x5_reduce"
  type: "ReLU"
  bottom: "inception_3a/5x5_reduce"
  top: "inception_3a/5x5_reduce"
}
layer {
  name: "inception_3a/5x5"
  type: "Convolution"
  bottom: "inception_3a/5x5_reduce"
  top: "inception_3a/5x5"
  param {
    lr_mult: 1
    decay_mult: 1
  }
  param {
    lr_mult: 2
    decay_mult: 0
  }
  convolution_param {
    num_output: 32
    pad: 2
    kernel_size: 5
    weight_filler {
      type: "xavier"
      std: 0.03
    }
    bias_filler {
      type: "constant"
      value: 0.2
    }
  }
}
layer {
  name: "inception_3a/relu_5x5"
  type: "ReLU"
  bottom: "inception_3a/5x5"
  top: "inception_3a/5x5"
}
layer {
  name: "inception_3a/pool"
  type: "Pooling"
  bottom: "pool2/3x3_s2"
  top: "inception_3a/pool"
  pooling_param {
    pool: MAX
    kernel_size: 3
    stride: 1
    pad: 1
  }
}
layer {
  name: "inception_3a/pool_proj"
  type: "Convolution"
  bottom: "inception_3a/pool"
  top: "inception_3a/pool_proj"
  param {
    lr_mult: 1
    decay_mult: 1
  }
  param {
    lr_mult: 2
    decay_mult: 0
  }
  convolution_param {
    num_output: 32
    kernel_size: 1
    weight_filler {
      type: "xavier"
      std: 0.1
    }
    bias_filler {
      type: "constant"
      value: 0.2
    }
  }
}
layer {
  name: "inception_3a/relu_pool_proj"
  type: "ReLU"
  bottom: "inception_3a/pool_proj"
  top: "inception_3a/pool_proj"
}
layer {
  name: "inception_3a/output"
  type: "Concat"
  bottom: "inception_3a/1x1"
  bottom: "inception_3a/3x3"
  bottom: "inception_3a/5x5"
  bottom: "inception_3a/pool_proj"
  top: "inception_3a/output"
}
layer {
  name: "inception_3b/1x1"
  type: "Convolution"
  bottom: "inception_3a/output"
  top: "inception_3b/1x1"
  param {
    lr_mult: 1
    decay_mult: 1
  }
  param {
    lr_mult: 2
    decay_mult: 0
  }
  convolution_param {
    num_output: 128
    kernel_size: 1
    weight_filler {
      type: "xavier"
      std: 0.03
    }
    bias_filler {
      type: "constant"
      value: 0.2
    }
  }
}
layer {
  name: "inception_3b/relu_1x1"
  type: "ReLU"
  bottom: "inception_3b/1x1"
  top: "inception_3b/1x1"
}
layer {
  name: "inception_3b/3x3_reduce"
  type: "Convolution"
  bottom: "inception_3a/output"
  top: "inception_3b/3x3_reduce"
  param {
    lr_mult: 1
    decay_mult: 1
  }
  param {
    lr_mult: 2
    decay_mult: 0
  }
  convolution_param {
    num_output: 128
    kernel_size: 1
    weight_filler {
      type: "xavier"
      std: 0.09
    }
    bias_filler {
      type: "constant"
      value: 0.2
    }
  }
}
layer {
  name: "inception_3b/relu_3x3_reduce"
  type: "ReLU"
  bottom: "inception_3b/3x3_reduce"
  top: "inception_3b/3x3_reduce"
}
layer {
  name: "inception_3b/3x3"
  type: "Convolution"
  bottom: "inception_3b/3x3_reduce"
  top: "inception_3b/3x3"
  param {
    lr_mult: 1
    decay_mult: 1
  }
  param {
    lr_mult: 2
    decay_mult: 0
  }
  convolution_param {
    num_output: 192
    pad: 1
    kernel_size: 3
    weight_filler {
      type: "xavier"
      std: 0.03
    }
    bias_filler {
      type: "constant"
      value: 0.2
    }
  }
}
layer {
  name: "inception_3b/relu_3x3"
  type: "ReLU"
  bottom: "inception_3b/3x3"
  top: "inception_3b/3x3"
}
layer {
  name: "inception_3b/5x5_reduce"
  type: "Convolution"
  bottom: "inception_3a/output"
  top: "inception_3b/5x5_reduce"
  param {
    lr_mult: 1
    decay_mult: 1
  }
  param {
    lr_mult: 2
    decay_mult: 0
  }
  convolution_param {
    num_output: 32
    kernel_size: 1
    weight_filler {
      type: "xavier"
      std: 0.2
    }
    bias_filler {
      type: "constant"
      value: 0.2
    }
  }
}
layer {
  name: "inception_3b/relu_5x5_reduce"
  type: "ReLU"
  bottom: "inception_3b/5x5_reduce"
  top: "inception_3b/5x5_reduce"
}
layer {
  name: "inception_3b/5x5"
  type: "Convolution"
  bottom: "inception_3b/5x5_reduce"
  top: "inception_3b/5x5"
  param {
    lr_mult: 1
    decay_mult: 1
  }
  param {
    lr_mult: 2
    decay_mult: 0
  }
  convolution_param {
    num_output: 96
    pad: 2
    kernel_size: 5
    weight_filler {
      type: "xavier"
      std: 0.03
    }
    bias_filler {
      type: "constant"
      value: 0.2
    }
  }
}
layer {
  name: "inception_3b/relu_5x5"
  type: "ReLU"
  bottom: "inception_3b/5x5"
  top: "inception_3b/5x5"
}
layer {
  name: "inception_3b/pool"
  type: "Pooling"
  bottom: "inception_3a/output"
  top: "inception_3b/pool"
  pooling_param {
    pool: MAX
    kernel_size: 3
    stride: 1
    pad: 1
  }
}
layer {
  name: "inception_3b/pool_proj"
  type: "Convolution"
  bottom: "inception_3b/pool"
  top: "inception_3b/pool_proj"
  param {
    lr_mult: 1
    decay_mult: 1
  }
  param {
    lr_mult: 2
    decay_mult: 0
  }
  convolution_param {
    num_output: 64
    kernel_size: 1
    weight_filler {
      type: "xavier"
      std: 0.1
    }
    bias_filler {
      type: "constant"
      value: 0.2
    }
  }
}
layer {
  name: "inception_3b/relu_pool_proj"
  type: "ReLU"
  bottom: "inception_3b/pool_proj"
  top: "inception_3b/pool_proj"
}
layer {
  name: "inception_3b/output"
  type: "Concat"
  bottom: "inception_3b/1x1"
  bottom: "inception_3b/3x3"
  bottom: "inception_3b/5x5"
  bottom: "inception_3b/pool_proj"
  top: "inception_3b/output"
}
layer {
  name: "pool3/3x3_s2"
  type: "Pooling"
  bottom: "inception_3b/output"
  top: "pool3/3x3_s2"
  pooling_param {
    pool: MAX
    kernel_size: 3
    stride: 2
  }
}
layer {
  name: "inception_4a/1x1"
  type: "Convolution"
  bottom: "pool3/3x3_s2"
  top: "inception_4a/1x1"
  param {
    lr_mult: 1
    decay_mult: 1
  }
  param {
    lr_mult: 2
    decay_mult: 0
  }
  convolution_param {
    num_output: 192
    kernel_size: 1
    weight_filler {
      type: "xavier"
      std: 0.03
    }
    bias_filler {
      type: "constant"
      value: 0.2
    }
  }
}
layer {
  name: "inception_4a/relu_1x1"
  type: "ReLU"
  bottom: "inception_4a/1x1"
  top: "inception_4a/1x1"
}
layer {
  name: "inception_4a/3x3_reduce"
  type: "Convolution"
  bottom: "pool3/3x3_s2"
  top: "inception_4a/3x3_reduce"
  param {
    lr_mult: 1
    decay_mult: 1
  }
  param {
    lr_mult: 2
    decay_mult: 0
  }
  convolution_param {
    num_output: 96
    kernel_size: 1
    weight_filler {
      type: "xavier"
      std: 0.09
    }
    bias_filler {
      type: "constant"
      value: 0.2
    }
  }
}
layer {
  name: "inception_4a/relu_3x3_reduce"
  type: "ReLU"
  bottom: "inception_4a/3x3_reduce"
  top: "inception_4a/3x3_reduce"
}
layer {
  name: "inception_4a/3x3"
  type: "Convolution"
  bottom: "inception_4a/3x3_reduce"
  top: "inception_4a/3x3"
  param {
    lr_mult: 1
    decay_mult: 1
  }
  param {
    lr_mult: 2
    decay_mult: 0
  }
  convolution_param {
    num_output: 208
    pad: 1
    kernel_size: 3
    weight_filler {
      type: "xavier"
      std: 0.03
    }
    bias_filler {
      type: "constant"
      value: 0.2
    }
  }
}
layer {
  name: "inception_4a/relu_3x3"
  type: "ReLU"
  bottom: "inception_4a/3x3"
  top: "inception_4a/3x3"
}
layer {
  name: "inception_4a/5x5_reduce"
  type: "Convolution"
  bottom: "pool3/3x3_s2"
  top: "inception_4a/5x5_reduce"
  param {
    lr_mult: 1
    decay_mult: 1
  }
  param {
    lr_mult: 2
    decay_mult: 0
  }
  convolution_param {
    num_output: 16
    kernel_size: 1
    weight_filler {
      type: "xavier"
      std: 0.2
    }
    bias_filler {
      type: "constant"
      value: 0.2
    }
  }
}
layer {
  name: "inception_4a/relu_5x5_reduce"
  type: "ReLU"
  bottom: "inception_4a/5x5_reduce"
  top: "inception_4a/5x5_reduce"
}
layer {
  name: "inception_4a/5x5"
  type: "Convolution"
  bottom: "inception_4a/5x5_reduce"
  top: "inception_4a/5x5"
  param {
    lr_mult: 1
    decay_mult: 1
  }
  param {
    lr_mult: 2
    decay_mult: 0
  }
  convolution_param {
    num_output: 48
    pad: 2
    kernel_size: 5
    weight_filler {
      type: "xavier"
      std: 0.03
    }
    bias_filler {
      type: "constant"
      value: 0.2
    }
  }
}
layer {
  name: "inception_4a/relu_5x5"
  type: "ReLU"
  bottom: "inception_4a/5x5"
  top: "inception_4a/5x5"
}
layer {
  name: "inception_4a/pool"
  type: "Pooling"
  bottom: "pool3/3x3_s2"
  top: "inception_4a/pool"
  pooling_param {
    pool: MAX
    kernel_size: 3
    stride: 1
    pad: 1
  }
}
layer {
  name: "inception_4a/pool_proj"
  type: "Convolution"
  bottom: "inception_4a/pool"
  top: "inception_4a/pool_proj"
  param {
    lr_mult: 1
    decay_mult: 1
  }
  param {
    lr_mult: 2
    decay_mult: 0
  }
  convolution_param {
    num_output: 64
    kernel_size: 1
    weight_filler {
      type: "xavier"
      std: 0.1
    }
    bias_filler {
      type: "constant"
      value: 0.2
    }
  }
}
layer {
  name: "inception_4a/relu_pool_proj"
  type: "ReLU"
  bottom: "inception_4a/pool_proj"
  top: "inception_4a/pool_proj"
}
layer {
  name: "inception_4a/output"
  type: "Concat"
  bottom: "inception_4a/1x1"
  bottom: "inception_4a/3x3"
  bottom: "inception_4a/5x5"
  bottom: "inception_4a/pool_proj"
  top: "inception_4a/output"
}
layer {
  name: "loss1/ave_pool"
  type: "Pooling"
  bottom: "inception_4a/output"
  top: "loss1/ave_pool"
  pooling_param {
    pool: AVE
    kernel_size: 5
    stride: 3
  }
}
layer {
  name: "loss1/conv"
  type: "Convolution"
  bottom: "loss1/ave_pool"
  top: "loss1/conv"
  param {
    lr_mult: 1
    decay_mult: 1
  }
  param {
    lr_mult: 2
    decay_mult: 0
  }
  convolution_param {
    num_output: 128
    kernel_size: 1
    weight_filler {
      type: "xavier"
      std: 0.08
    }
    bias_filler {
      type: "constant"
      value: 0.2
    }
  }
}
layer {
  name: "loss1/relu_conv"
  type: "ReLU"
  bottom: "loss1/conv"
  top: "loss1/conv"
}
layer {
  name: "loss1/fc"
  type: "InnerProduct"
  bottom: "loss1/conv"
  top: "loss1/fc"
  param {
    lr_mult: 1
    decay_mult: 1
  }
  param {
    lr_mult: 2
    decay_mult: 0
  }
  inner_product_param {
    num_output: 1024
    weight_filler {
      type: "xavier"
      std: 0.02
    }
    bias_filler {
      type: "constant"
      value: 0.2
    }
  }
}
layer {
  name: "loss1/relu_fc"
  type: "ReLU"
  bottom: "loss1/fc"
  top: "loss1/fc"
}
layer {
  name: "loss1/drop_fc"
  type: "Dropout"
  bottom: "loss1/fc"
  top: "loss1/fc"
  dropout_param {
    dropout_ratio: 0.7
  }
}
layer {
  name: "loss1/classifier_plantvillage"
  type: "InnerProduct"
  bottom: "loss1/fc"
  top: "loss1/classifier_plantvillage"
  param {
    lr_mult: 1
    decay_mult: 1
  }
  param {
    lr_mult: 2
    decay_mult: 0
  }
  inner_product_param {
    num_output: 38
    weight_filler {
      type: "xavier"
      std: 0.0009765625
    }
    bias_filler {
      type: "constant"
      value: 0
    }
  }
}
layer {
  name: "inception_4b/1x1"
  type: "Convolution"
  bottom: "inception_4a/output"
  top: "inception_4b/1x1"
  param {
    lr_mult: 1
    decay_mult: 1
  }
  param {
    lr_mult: 2
    decay_mult: 0
  }
  convolution_param {
    num_output: 160
    kernel_size: 1
    weight_filler {
      type: "xavier"
      std: 0.03
    }
    bias_filler {
      type: "constant"
      value: 0.2
    }
  }
}
layer {
  name: "inception_4b/relu_1x1"
  type: "ReLU"
  bottom: "inception_4b/1x1"
  top: "inception_4b/1x1"
}
layer {
  name: "inception_4b/3x3_reduce"
  type: "Convolution"
  bottom: "inception_4a/output"
  top: "inception_4b/3x3_reduce"
  param {
    lr_mult: 1
    decay_mult: 1
  }
  param {
    lr_mult: 2
    decay_mult: 0
  }
  convolution_param {
    num_output: 112
    kernel_size: 1
    weight_filler {
      type: "xavier"
      std: 0.09
    }
    bias_filler {
      type: "constant"
      value: 0.2
    }
  }
}
layer {
  name: "inception_4b/relu_3x3_reduce"
  type: "ReLU"
  bottom: "inception_4b/3x3_reduce"
  top: "inception_4b/3x3_reduce"
}
layer {
  name: "inception_4b/3x3"
  type: "Convolution"
  bottom: "inception_4b/3x3_reduce"
  top: "inception_4b/3x3"
  param {
    lr_mult: 1
    decay_mult: 1
  }
  param {
    lr_mult: 2
    decay_mult: 0
  }
  convolution_param {
    num_output: 224
    pad: 1
    kernel_size: 3
    weight_filler {
      type: "xavier"
      std: 0.03
    }
    bias_filler {
      type: "constant"
      value: 0.2
    }
  }
}
layer {
  name: "inception_4b/relu_3x3"
  type: "ReLU"
  bottom: "inception_4b/3x3"
  top: "inception_4b/3x3"
}
layer {
  name: "inception_4b/5x5_reduce"
  type: "Convolution"
  bottom: "inception_4a/output"
  top: "inception_4b/5x5_reduce"
  param {
    lr_mult: 1
    decay_mult: 1
  }
  param {
    lr_mult: 2
    decay_mult: 0
  }
  convolution_param {
    num_output: 24
    kernel_size: 1
    weight_filler {
      type: "xavier"
      std: 0.2
    }
    bias_filler {
      type: "constant"
      value: 0.2
    }
  }
}
layer {
  name: "inception_4b/relu_5x5_reduce"
  type: "ReLU"
  bottom: "inception_4b/5x5_reduce"
  top: "inception_4b/5x5_reduce"
}
layer {
  name: "inception_4b/5x5"
  type: "Convolution"
  bottom: "inception_4b/5x5_reduce"
  top: "inception_4b/5x5"
  param {
    lr_mult: 1
    decay_mult: 1
  }
  param {
    lr_mult: 2
    decay_mult: 0
  }
  convolution_param {
    num_output: 64
    pad: 2
    kernel_size: 5
    weight_filler {
      type: "xavier"
      std: 0.03
    }
    bias_filler {
      type: "constant"
      value: 0.2
    }
  }
}
layer {
  name: "inception_4b/relu_5x5"
  type: "ReLU"
  bottom: "inception_4b/5x5"
  top: "inception_4b/5x5"
}
layer {
  name: "inception_4b/pool"
  type: "Pooling"
  bottom: "inception_4a/output"
  top: "inception_4b/pool"
  pooling_param {
    pool: MAX
    kernel_size: 3
    stride: 1
    pad: 1
  }
}
layer {
  name: "inception_4b/pool_proj"
  type: "Convolution"
  bottom: "inception_4b/pool"
  top: "inception_4b/pool_proj"
  param {
    lr_mult: 1
    decay_mult: 1
  }
  param {
    lr_mult: 2
    decay_mult: 0
  }
  convolution_param {
    num_output: 64
    kernel_size: 1
    weight_filler {
      type: "xavier"
      std: 0.1
    }
    bias_filler {
      type: "constant"
      value: 0.2
    }
  }
}
layer {
  name: "inception_4b/relu_pool_proj"
  type: "ReLU"
  bottom: "inception_4b/pool_proj"
  top: "inception_4b/pool_proj"
}
layer {
  name: "inception_4b/output"
  type: "Concat"
  bottom: "inception_4b/1x1"
  bottom: "inception_4b/3x3"
  bottom: "inception_4b/5x5"
  bottom: "inception_4b/pool_proj"
  top: "inception_4b/output"
}
layer {
  name: "inception_4c/1x1"
  type: "Convolution"
  bottom: "inception_4b/output"
  top: "inception_4c/1x1"
  param {
    lr_mult: 1
    decay_mult: 1
  }
  param {
    lr_mult: 2
    decay_mult: 0
  }
  convolution_param {
    num_output: 128
    kernel_size: 1
    weight_filler {
      type: "xavier"
      std: 0.03
    }
    bias_filler {
      type: "constant"
      value: 0.2
    }
  }
}
layer {
  name: "inception_4c/relu_1x1"
  type: "ReLU"
  bottom: "inception_4c/1x1"
  top: "inception_4c/1x1"
}
layer {
  name: "inception_4c/3x3_reduce"
  type: "Convolution"
  bottom: "inception_4b/output"
  top: "inception_4c/3x3_reduce"
  param {
    lr_mult: 1
    decay_mult: 1
  }
  param {
    lr_mult: 2
    decay_mult: 0
  }
  convolution_param {
    num_output: 128
    kernel_size: 1
    weight_filler {
      type: "xavier"
      std: 0.09
    }
    bias_filler {
      type: "constant"
      value: 0.2
    }
  }
}
layer {
  name: "inception_4c/relu_3x3_reduce"
  type: "ReLU"
  bottom: "inception_4c/3x3_reduce"
  top: "inception_4c/3x3_reduce"
}
layer {
  name: "inception_4c/3x3"
  type: "Convolution"
  bottom: "inception_4c/3x3_reduce"
  top: "inception_4c/3x3"
  param {
    lr_mult: 1
    decay_mult: 1
  }
  param {
    lr_mult: 2
    decay_mult: 0
  }
  convolution_param {
    num_output: 256
    pad: 1
    kernel_size: 3
    weight_filler {
      type: "xavier"
      std: 0.03
    }
    bias_filler {
      type: "constant"
      value: 0.2
    }
  }
}
layer {
  name: "inception_4c/relu_3x3"
  type: "ReLU"
  bottom: "inception_4c/3x3"
  top: "inception_4c/3x3"
}
layer {
  name: "inception_4c/5x5_reduce"
  type: "Convolution"
  bottom: "inception_4b/output"
  top: "inception_4c/5x5_reduce"
  param {
    lr_mult: 1
    decay_mult: 1
  }
  param {
    lr_mult: 2
    decay_mult: 0
  }
  convolution_param {
    num_output: 24
    kernel_size: 1
    weight_filler {
      type: "xavier"
      std: 0.2
    }
    bias_filler {
      type: "constant"
      value: 0.2
    }
  }
}
layer {
  name: "inception_4c/relu_5x5_reduce"
  type: "ReLU"
  bottom: "inception_4c/5x5_reduce"
  top: "inception_4c/5x5_reduce"
}
layer {
  name: "inception_4c/5x5"
  type: "Convolution"
  bottom: "inception_4c/5x5_reduce"
  top: "inception_4c/5x5"
  param {
    lr_mult: 1
    decay_mult: 1
  }
  param {
    lr_mult: 2
    decay_mult: 0
  }
  convolution_param {
    num_output: 64
    pad: 2
    kernel_size: 5
    weight_filler {
      type: "xavier"
      std: 0.03
    }
    bias_filler {
      type: "constant"
      value: 0.2
    }
  }
}
layer {
  name: "inception_4c/relu_5x5"
  type: "ReLU"
  bottom: "inception_4c/5x5"
  top: "inception_4c/5x5"
}
layer {
  name: "inception_4c/pool"
  type: "Pooling"
  bottom: "inception_4b/output"
  top: "inception_4c/pool"
  pooling_param {
    pool: MAX
    kernel_size: 3
    stride: 1
    pad: 1
  }
}
layer {
  name: "inception_4c/pool_proj"
  type: "Convolution"
  bottom: "inception_4c/pool"
  top: "inception_4c/pool_proj"
  param {
    lr_mult: 1
    decay_mult: 1
  }
  param {
    lr_mult: 2
    decay_mult: 0
  }
  convolution_param {
    num_output: 64
    kernel_size: 1
    weight_filler {
      type: "xavier"
      std: 0.1
    }
    bias_filler {
      type: "constant"
      value: 0.2
    }
  }
}
layer {
  name: "inception_4c/relu_pool_proj"
  type: "ReLU"
  bottom: "inception_4c/pool_proj"
  top: "inception_4c/pool_proj"
}
layer {
  name: "inception_4c/output"
  type: "Concat"
  bottom: "inception_4c/1x1"
  bottom: "inception_4c/3x3"
  bottom: "inception_4c/5x5"
  bottom: "inception_4c/pool_proj"
  top: "inception_4c/output"
}
layer {
  name: "inception_4d/1x1"
  type: "Convolution"
  bottom: "inception_4c/output"
  top: "inception_4d/1x1"
  param {
    lr_mult: 1
    decay_mult: 1
  }
  param {
    lr_mult: 2
    decay_mult: 0
  }
  convolution_param {
    num_output: 112
    kernel_size: 1
    weight_filler {
      type: "xavier"
      std: 0.03
    }
    bias_filler {
      type: "constant"
      value: 0.2
    }
  }
}
layer {
  name: "inception_4d/relu_1x1"
  type: "ReLU"
  bottom: "inception_4d/1x1"
  top: "inception_4d/1x1"
}
layer {
  name: "inception_4d/3x3_reduce"
  type: "Convolution"
  bottom: "inception_4c/output"
  top: "inception_4d/3x3_reduce"
  param {
    lr_mult: 1
    decay_mult: 1
  }
  param {
    lr_mult: 2
    decay_mult: 0
  }
  convolution_param {
    num_output: 144
    kernel_size: 1
    weight_filler {
      type: "xavier"
      std: 0.09
    }
    bias_filler {
      type: "constant"
      value: 0.2
    }
  }
}
layer {
  name: "inception_4d/relu_3x3_reduce"
  type: "ReLU"
  bottom: "inception_4d/3x3_reduce"
  top: "inception_4d/3x3_reduce"
}
layer {
  name: "inception_4d/3x3"
  type: "Convolution"
  bottom: "inception_4d/3x3_reduce"
  top: "inception_4d/3x3"
  param {
    lr_mult: 1
    decay_mult: 1
  }
  param {
    lr_mult: 2
    decay_mult: 0
  }
  convolution_param {
    num_output: 288
    pad: 1
    kernel_size: 3
    weight_filler {
      type: "xavier"
      std: 0.03
    }
    bias_filler {
      type: "constant"
      value: 0.2
    }
  }
}
layer {
  name: "inception_4d/relu_3x3"
  type: "ReLU"
  bottom: "inception_4d/3x3"
  top: "inception_4d/3x3"
}
layer {
  name: "inception_4d/5x5_reduce"
  type: "Convolution"
  bottom: "inception_4c/output"
  top: "inception_4d/5x5_reduce"
  param {
    lr_mult: 1
    decay_mult: 1
  }
  param {
    lr_mult: 2
    decay_mult: 0
  }
  convolution_param {
    num_output: 32
    kernel_size: 1
    weight_filler {
      type: "xavier"
      std: 0.2
    }
    bias_filler {
      type: "constant"
      value: 0.2
    }
  }
}
layer {
  name: "inception_4d/relu_5x5_reduce"
  type: "ReLU"
  bottom: "inception_4d/5x5_reduce"
  top: "inception_4d/5x5_reduce"
}
layer {
  name: "inception_4d/5x5"
  type: "Convolution"
  bottom: "inception_4d/5x5_reduce"
  top: "inception_4d/5x5"
  param {
    lr_mult: 1
    decay_mult: 1
  }
  param {
    lr_mult: 2
    decay_mult: 0
  }
  convolution_param {
    num_output: 64
    pad: 2
    kernel_size: 5
    weight_filler {
      type: "xavier"
      std: 0.03
    }
    bias_filler {
      type: "constant"
      value: 0.2
    }
  }
}
layer {
  name: "inception_4d/relu_5x5"
  type: "ReLU"
  bottom: "inception_4d/5x5"
  top: "inception_4d/5x5"
}
layer {
  name: "inception_4d/pool"
  type: "Pooling"
  bottom: "inception_4c/output"
  top: "inception_4d/pool"
  pooling_param {
    pool: MAX
    kernel_size: 3
    stride: 1
    pad: 1
  }
}
layer {
  name: "inception_4d/pool_proj"
  type: "Convolution"
  bottom: "inception_4d/pool"
  top: "inception_4d/pool_proj"
  param {
    lr_mult: 1
    decay_mult: 1
  }
  param {
    lr_mult: 2
    decay_mult: 0
  }
  convolution_param {
    num_output: 64
    kernel_size: 1
    weight_filler {
      type: "xavier"
      std: 0.1
    }
    bias_filler {
      type: "constant"
      value: 0.2
    }
  }
}
layer {
  name: "inception_4d/relu_pool_proj"
  type: "ReLU"
  bottom: "inception_4d/pool_proj"
  top: "inception_4d/pool_proj"
}
layer {
  name: "inception_4d/output"
  type: "Concat"
  bottom: "inception_4d/1x1"
  bottom: "inception_4d/3x3"
  bottom: "inception_4d/5x5"
  bottom: "inception_4d/pool_proj"
  top: "inception_4d/output"
}
layer {
  name: "loss2/ave_pool"
  type: "Pooling"
  bottom: "inception_4d/output"
  top: "loss2/ave_pool"
  pooling_param {
    pool: AVE
    kernel_size: 5
    stride: 3
  }
}
layer {
  name: "loss2/conv"
  type: "Convolution"
  bottom: "loss2/ave_pool"
  top: "loss2/conv"
  param {
    lr_mult: 1
    decay_mult: 1
  }
  param {
    lr_mult: 2
    decay_mult: 0
  }
  convolution_param {
    num_output: 128
    kernel_size: 1
    weight_filler {
      type: "xavier"
      std: 0.08
    }
    bias_filler {
      type: "constant"
      value: 0.2
    }
  }
}
layer {
  name: "loss2/relu_conv"
  type: "ReLU"
  bottom: "loss2/conv"
  top: "loss2/conv"
}
layer {
  name: "loss2/fc"
  type: "InnerProduct"
  bottom: "loss2/conv"
  top: "loss2/fc"
  param {
    lr_mult: 1
    decay_mult: 1
  }
  param {
    lr_mult: 2
    decay_mult: 0
  }
  inner_product_param {
    num_output: 1024
    weight_filler {
      type: "xavier"
      std: 0.02
    }
    bias_filler {
      type: "constant"
      value: 0.2
    }
  }
}
layer {
  name: "loss2/relu_fc"
  type: "ReLU"
  bottom: "loss2/fc"
  top: "loss2/fc"
}
layer {
  name: "loss2/drop_fc"
  type: "Dropout"
  bottom: "loss2/fc"
  top: "loss2/fc"
  dropout_param {
    dropout_ratio: 0.7
  }
}
layer {
  name: "loss2/classifier_plantvillage"
  type: "InnerProduct"
  bottom: "loss2/fc"
  top: "loss2/classifier_plantvillage"
  param {
    lr_mult: 1
    decay_mult: 1
  }
  param {
    lr_mult: 2
    decay_mult: 0
  }
  inner_product_param {
    num_output: 38
    weight_filler {
      type: "xavier"
      std: 0.0009765625
    }
    bias_filler {
      type: "constant"
      value: 0
    }
  }
}
layer {
  name: "inception_4e/1x1"
  type: "Convolution"
  bottom: "inception_4d/output"
  top: "inception_4e/1x1"
  param {
    lr_mult: 1
    decay_mult: 1
  }
  param {
    lr_mult: 2
    decay_mult: 0
  }
  convolution_param {
    num_output: 256
    kernel_size: 1
    weight_filler {
      type: "xavier"
      std: 0.03
    }
    bias_filler {
      type: "constant"
      value: 0.2
    }
  }
}
layer {
  name: "inception_4e/relu_1x1"
  type: "ReLU"
  bottom: "inception_4e/1x1"
  top: "inception_4e/1x1"
}
layer {
  name: "inception_4e/3x3_reduce"
  type: "Convolution"
  bottom: "inception_4d/output"
  top: "inception_4e/3x3_reduce"
  param {
    lr_mult: 1
    decay_mult: 1
  }
  param {
    lr_mult: 2
    decay_mult: 0
  }
  convolution_param {
    num_output: 160
    kernel_size: 1
    weight_filler {
      type: "xavier"
      std: 0.09
    }
    bias_filler {
      type: "constant"
      value: 0.2
    }
  }
}
layer {
  name: "inception_4e/relu_3x3_reduce"
  type: "ReLU"
  bottom: "inception_4e/3x3_reduce"
  top: "inception_4e/3x3_reduce"
}
layer {
  name: "inception_4e/3x3"
  type: "Convolution"
  bottom: "inception_4e/3x3_reduce"
  top: "inception_4e/3x3"
  param {
    lr_mult: 1
    decay_mult: 1
  }
  param {
    lr_mult: 2
    decay_mult: 0
  }
  convolution_param {
    num_output: 320
    pad: 1
    kernel_size: 3
    weight_filler {
      type: "xavier"
      std: 0.03
    }
    bias_filler {
      type: "constant"
      value: 0.2
    }
  }
}
layer {
  name: "inception_4e/relu_3x3"
  type: "ReLU"
  bottom: "inception_4e/3x3"
  top: "inception_4e/3x3"
}
layer {
  name: "inception_4e/5x5_reduce"
  type: "Convolution"
  bottom: "inception_4d/output"
  top: "inception_4e/5x5_reduce"
  param {
    lr_mult: 1
    decay_mult: 1
  }
  param {
    lr_mult: 2
    decay_mult: 0
  }
  convolution_param {
    num_output: 32
    kernel_size: 1
    weight_filler {
      type: "xavier"
      std: 0.2
    }
    bias_filler {
      type: "constant"
      value: 0.2
    }
  }
}
layer {
  name: "inception_4e/relu_5x5_reduce"
  type: "ReLU"
  bottom: "inception_4e/5x5_reduce"
  top: "inception_4e/5x5_reduce"
}
layer {
  name: "inception_4e/5x5"
  type: "Convolution"
  bottom: "inception_4e/5x5_reduce"
  top: "inception_4e/5x5"
  p
I0403 19:57:03.008021 10094 layer_factory.hpp:77] Creating layer data
I0403 19:57:03.008731 10094 net.cpp:91] Creating Layer data
I0403 19:57:03.008769 10094 net.cpp:399] data -> data
I0403 19:57:03.008831 10094 net.cpp:399] data -> label
I0403 19:57:03.008880 10094 data_transformer.cpp:25] Loading mean file from: /home/mohanty/data/final_dataset/lmdb/color-50-50/mean.binaryproto
I0403 19:57:03.010114 10099 db_lmdb.cpp:38] Opened lmdb /home/mohanty/data/final_dataset/lmdb/color-50-50/test_db
I0403 19:57:03.025205 10094 data_layer.cpp:41] output data size: 24,3,224,224
I0403 19:57:03.056928 10094 net.cpp:141] Setting up data
I0403 19:57:03.057023 10094 net.cpp:148] Top shape: 24 3 224 224 (3612672)
I0403 19:57:03.057051 10094 net.cpp:148] Top shape: 24 (24)
I0403 19:57:03.057071 10094 net.cpp:156] Memory required for data: 14450784
I0403 19:57:03.057106 10094 layer_factory.hpp:77] Creating layer label_data_1_split
I0403 19:57:03.057139 10094 net.cpp:91] Creating Layer label_data_1_split
I0403 19:57:03.057163 10094 net.cpp:425] label_data_1_split <- label
I0403 19:57:03.057202 10094 net.cpp:399] label_data_1_split -> label_data_1_split_0
I0403 19:57:03.057236 10094 net.cpp:399] label_data_1_split -> label_data_1_split_1
I0403 19:57:03.057270 10094 net.cpp:399] label_data_1_split -> label_data_1_split_2
I0403 19:57:03.057296 10094 net.cpp:399] label_data_1_split -> label_data_1_split_3
I0403 19:57:03.057318 10094 net.cpp:399] label_data_1_split -> label_data_1_split_4
I0403 19:57:03.057343 10094 net.cpp:399] label_data_1_split -> label_data_1_split_5
I0403 19:57:03.057368 10094 net.cpp:399] label_data_1_split -> label_data_1_split_6
I0403 19:57:03.057394 10094 net.cpp:399] label_data_1_split -> label_data_1_split_7
I0403 19:57:03.057416 10094 net.cpp:399] label_data_1_split -> label_data_1_split_8
I0403 19:57:03.057440 10094 net.cpp:399] label_data_1_split -> label_data_1_split_9
I0403 19:57:03.057582 10094 net.cpp:141] Setting up label_data_1_split
I0403 19:57:03.057610 10094 net.cpp:148] Top shape: 24 (24)
I0403 19:57:03.057632 10094 net.cpp:148] Top shape: 24 (24)
I0403 19:57:03.057652 10094 net.cpp:148] Top shape: 24 (24)
I0403 19:57:03.057672 10094 net.cpp:148] Top shape: 24 (24)
I0403 19:57:03.057690 10094 net.cpp:148] Top shape: 24 (24)
I0403 19:57:03.057708 10094 net.cpp:148] Top shape: 24 (24)
I0403 19:57:03.057729 10094 net.cpp:148] Top shape: 24 (24)
I0403 19:57:03.057747 10094 net.cpp:148] Top shape: 24 (24)
I0403 19:57:03.057766 10094 net.cpp:148] Top shape: 24 (24)
I0403 19:57:03.057785 10094 net.cpp:148] Top shape: 24 (24)
I0403 19:57:03.057837 10094 net.cpp:156] Memory required for data: 14451744
I0403 19:57:03.057857 10094 layer_factory.hpp:77] Creating layer conv1/7x7_s2
I0403 19:57:03.057896 10094 net.cpp:91] Creating Layer conv1/7x7_s2
I0403 19:57:03.057919 10094 net.cpp:425] conv1/7x7_s2 <- data
I0403 19:57:03.057942 10094 net.cpp:399] conv1/7x7_s2 -> conv1/7x7_s2
I0403 19:57:03.236800 10094 net.cpp:141] Setting up conv1/7x7_s2
I0403 19:57:03.236893 10094 net.cpp:148] Top shape: 24 64 112 112 (19267584)
I0403 19:57:03.236915 10094 net.cpp:156] Memory required for data: 91522080
I0403 19:57:03.236958 10094 layer_factory.hpp:77] Creating layer conv1/relu_7x7
I0403 19:57:03.236992 10094 net.cpp:91] Creating Layer conv1/relu_7x7
I0403 19:57:03.237015 10094 net.cpp:425] conv1/relu_7x7 <- conv1/7x7_s2
I0403 19:57:03.237040 10094 net.cpp:386] conv1/relu_7x7 -> conv1/7x7_s2 (in-place)
I0403 19:57:03.237370 10094 net.cpp:141] Setting up conv1/relu_7x7
I0403 19:57:03.237406 10094 net.cpp:148] Top shape: 24 64 112 112 (19267584)
I0403 19:57:03.237428 10094 net.cpp:156] Memory required for data: 168592416
I0403 19:57:03.237448 10094 layer_factory.hpp:77] Creating layer pool1/3x3_s2
I0403 19:57:03.237481 10094 net.cpp:91] Creating Layer pool1/3x3_s2
I0403 19:57:03.237505 10094 net.cpp:425] pool1/3x3_s2 <- conv1/7x7_s2
I0403 19:57:03.237529 10094 net.cpp:399] pool1/3x3_s2 -> pool1/3x3_s2
I0403 19:57:03.237625 10094 net.cpp:141] Setting up pool1/3x3_s2
I0403 19:57:03.237655 10094 net.cpp:148] Top shape: 24 64 56 56 (4816896)
I0403 19:57:03.237673 10094 net.cpp:156] Memory required for data: 187860000
I0403 19:57:03.237692 10094 layer_factory.hpp:77] Creating layer pool1/norm1
I0403 19:57:03.237723 10094 net.cpp:91] Creating Layer pool1/norm1
I0403 19:57:03.237746 10094 net.cpp:425] pool1/norm1 <- pool1/3x3_s2
I0403 19:57:03.237768 10094 net.cpp:399] pool1/norm1 -> pool1/norm1
I0403 19:57:03.238133 10094 net.cpp:141] Setting up pool1/norm1
I0403 19:57:03.238168 10094 net.cpp:148] Top shape: 24 64 56 56 (4816896)
I0403 19:57:03.238186 10094 net.cpp:156] Memory required for data: 207127584
I0403 19:57:03.238204 10094 layer_factory.hpp:77] Creating layer conv2/3x3_reduce
I0403 19:57:03.238237 10094 net.cpp:91] Creating Layer conv2/3x3_reduce
I0403 19:57:03.238260 10094 net.cpp:425] conv2/3x3_reduce <- pool1/norm1
I0403 19:57:03.238287 10094 net.cpp:399] conv2/3x3_reduce -> conv2/3x3_reduce
I0403 19:57:03.239853 10094 net.cpp:141] Setting up conv2/3x3_reduce
I0403 19:57:03.239889 10094 net.cpp:148] Top shape: 24 64 56 56 (4816896)
I0403 19:57:03.239908 10094 net.cpp:156] Memory required for data: 226395168
I0403 19:57:03.239934 10094 layer_factory.hpp:77] Creating layer conv2/relu_3x3_reduce
I0403 19:57:03.239959 10094 net.cpp:91] Creating Layer conv2/relu_3x3_reduce
I0403 19:57:03.239980 10094 net.cpp:425] conv2/relu_3x3_reduce <- conv2/3x3_reduce
I0403 19:57:03.240001 10094 net.cpp:386] conv2/relu_3x3_reduce -> conv2/3x3_reduce (in-place)
I0403 19:57:03.240336 10094 net.cpp:141] Setting up conv2/relu_3x3_reduce
I0403 19:57:03.240370 10094 net.cpp:148] Top shape: 24 64 56 56 (4816896)
I0403 19:57:03.240389 10094 net.cpp:156] Memory required for data: 245662752
I0403 19:57:03.240407 10094 layer_factory.hpp:77] Creating layer conv2/3x3
I0403 19:57:03.240437 10094 net.cpp:91] Creating Layer conv2/3x3
I0403 19:57:03.240461 10094 net.cpp:425] conv2/3x3 <- conv2/3x3_reduce
I0403 19:57:03.240489 10094 net.cpp:399] conv2/3x3 -> conv2/3x3
I0403 19:57:03.243232 10094 net.cpp:141] Setting up conv2/3x3
I0403 19:57:03.243269 10094 net.cpp:148] Top shape: 24 192 56 56 (14450688)
I0403 19:57:03.243304 10094 net.cpp:156] Memory required for data: 303465504
I0403 19:57:03.243332 10094 layer_factory.hpp:77] Creating layer conv2/relu_3x3
I0403 19:57:03.243360 10094 net.cpp:91] Creating Layer conv2/relu_3x3
I0403 19:57:03.243379 10094 net.cpp:425] conv2/relu_3x3 <- conv2/3x3
I0403 19:57:03.243401 10094 net.cpp:386] conv2/relu_3x3 -> conv2/3x3 (in-place)
I0403 19:57:03.243618 10094 net.cpp:141] Setting up conv2/relu_3x3
I0403 19:57:03.243650 10094 net.cpp:148] Top shape: 24 192 56 56 (14450688)
I0403 19:57:03.243703 10094 net.cpp:156] Memory required for data: 361268256
I0403 19:57:03.243723 10094 layer_factory.hpp:77] Creating layer conv2/norm2
I0403 19:57:03.243746 10094 net.cpp:91] Creating Layer conv2/norm2
I0403 19:57:03.243765 10094 net.cpp:425] conv2/norm2 <- conv2/3x3
I0403 19:57:03.243789 10094 net.cpp:399] conv2/norm2 -> conv2/norm2
I0403 19:57:03.244159 10094 net.cpp:141] Setting up conv2/norm2
I0403 19:57:03.244194 10094 net.cpp:148] Top shape: 24 192 56 56 (14450688)
I0403 19:57:03.244212 10094 net.cpp:156] Memory required for data: 419071008
I0403 19:57:03.244231 10094 layer_factory.hpp:77] Creating layer pool2/3x3_s2
I0403 19:57:03.244253 10094 net.cpp:91] Creating Layer pool2/3x3_s2
I0403 19:57:03.244277 10094 net.cpp:425] pool2/3x3_s2 <- conv2/norm2
I0403 19:57:03.244304 10094 net.cpp:399] pool2/3x3_s2 -> pool2/3x3_s2
I0403 19:57:03.244369 10094 net.cpp:141] Setting up pool2/3x3_s2
I0403 19:57:03.244400 10094 net.cpp:148] Top shape: 24 192 28 28 (3612672)
I0403 19:57:03.244421 10094 net.cpp:156] Memory required for data: 433521696
I0403 19:57:03.244438 10094 layer_factory.hpp:77] Creating layer pool2/3x3_s2_pool2/3x3_s2_0_split
I0403 19:57:03.244459 10094 net.cpp:91] Creating Layer pool2/3x3_s2_pool2/3x3_s2_0_split
I0403 19:57:03.244478 10094 net.cpp:425] pool2/3x3_s2_pool2/3x3_s2_0_split <- pool2/3x3_s2
I0403 19:57:03.244499 10094 net.cpp:399] pool2/3x3_s2_pool2/3x3_s2_0_split -> pool2/3x3_s2_pool2/3x3_s2_0_split_0
I0403 19:57:03.244524 10094 net.cpp:399] pool2/3x3_s2_pool2/3x3_s2_0_split -> pool2/3x3_s2_pool2/3x3_s2_0_split_1
I0403 19:57:03.244551 10094 net.cpp:399] pool2/3x3_s2_pool2/3x3_s2_0_split -> pool2/3x3_s2_pool2/3x3_s2_0_split_2
I0403 19:57:03.244577 10094 net.cpp:399] pool2/3x3_s2_pool2/3x3_s2_0_split -> pool2/3x3_s2_pool2/3x3_s2_0_split_3
I0403 19:57:03.244664 10094 net.cpp:141] Setting up pool2/3x3_s2_pool2/3x3_s2_0_split
I0403 19:57:03.244693 10094 net.cpp:148] Top shape: 24 192 28 28 (3612672)
I0403 19:57:03.244711 10094 net.cpp:148] Top shape: 24 192 28 28 (3612672)
I0403 19:57:03.244730 10094 net.cpp:148] Top shape: 24 192 28 28 (3612672)
I0403 19:57:03.244751 10094 net.cpp:148] Top shape: 24 192 28 28 (3612672)
I0403 19:57:03.244768 10094 net.cpp:156] Memory required for data: 491324448
I0403 19:57:03.244786 10094 layer_factory.hpp:77] Creating layer inception_3a/1x1
I0403 19:57:03.244812 10094 net.cpp:91] Creating Layer inception_3a/1x1
I0403 19:57:03.244832 10094 net.cpp:425] inception_3a/1x1 <- pool2/3x3_s2_pool2/3x3_s2_0_split_0
I0403 19:57:03.244858 10094 net.cpp:399] inception_3a/1x1 -> inception_3a/1x1
I0403 19:57:03.246681 10094 net.cpp:141] Setting up inception_3a/1x1
I0403 19:57:03.246718 10094 net.cpp:148] Top shape: 24 64 28 28 (1204224)
I0403 19:57:03.246738 10094 net.cpp:156] Memory required for data: 496141344
I0403 19:57:03.246762 10094 layer_factory.hpp:77] Creating layer inception_3a/relu_1x1
I0403 19:57:03.246785 10094 net.cpp:91] Creating Layer inception_3a/relu_1x1
I0403 19:57:03.246806 10094 net.cpp:425] inception_3a/relu_1x1 <- inception_3a/1x1
I0403 19:57:03.246830 10094 net.cpp:386] inception_3a/relu_1x1 -> inception_3a/1x1 (in-place)
I0403 19:57:03.247046 10094 net.cpp:141] Setting up inception_3a/relu_1x1
I0403 19:57:03.247077 10094 net.cpp:148] Top shape: 24 64 28 28 (1204224)
I0403 19:57:03.247095 10094 net.cpp:156] Memory required for data: 500958240
I0403 19:57:03.247112 10094 layer_factory.hpp:77] Creating layer inception_3a/3x3_reduce
I0403 19:57:03.247140 10094 net.cpp:91] Creating Layer inception_3a/3x3_reduce
I0403 19:57:03.247164 10094 net.cpp:425] inception_3a/3x3_reduce <- pool2/3x3_s2_pool2/3x3_s2_0_split_1
I0403 19:57:03.247189 10094 net.cpp:399] inception_3a/3x3_reduce -> inception_3a/3x3_reduce
I0403 19:57:03.249194 10094 net.cpp:141] Setting up inception_3a/3x3_reduce
I0403 19:57:03.249231 10094 net.cpp:148] Top shape: 24 96 28 28 (1806336)
I0403 19:57:03.249250 10094 net.cpp:156] Memory required for data: 508183584
I0403 19:57:03.249282 10094 layer_factory.hpp:77] Creating layer inception_3a/relu_3x3_reduce
I0403 19:57:03.249330 10094 net.cpp:91] Creating Layer inception_3a/relu_3x3_reduce
I0403 19:57:03.249352 10094 net.cpp:425] inception_3a/relu_3x3_reduce <- inception_3a/3x3_reduce
I0403 19:57:03.249374 10094 net.cpp:386] inception_3a/relu_3x3_reduce -> inception_3a/3x3_reduce (in-place)
I0403 19:57:03.249598 10094 net.cpp:141] Setting up inception_3a/relu_3x3_reduce
I0403 19:57:03.249630 10094 net.cpp:148] Top shape: 24 96 28 28 (1806336)
I0403 19:57:03.249652 10094 net.cpp:156] Memory required for data: 515408928
I0403 19:57:03.249671 10094 layer_factory.hpp:77] Creating layer inception_3a/3x3
I0403 19:57:03.249701 10094 net.cpp:91] Creating Layer inception_3a/3x3
I0403 19:57:03.249722 10094 net.cpp:425] inception_3a/3x3 <- inception_3a/3x3_reduce
I0403 19:57:03.249748 10094 net.cpp:399] inception_3a/3x3 -> inception_3a/3x3
I0403 19:57:03.251751 10094 net.cpp:141] Setting up inception_3a/3x3
I0403 19:57:03.251787 10094 net.cpp:148] Top shape: 24 128 28 28 (2408448)
I0403 19:57:03.251806 10094 net.cpp:156] Memory required for data: 525042720
I0403 19:57:03.251827 10094 layer_factory.hpp:77] Creating layer inception_3a/relu_3x3
I0403 19:57:03.251852 10094 net.cpp:91] Creating Layer inception_3a/relu_3x3
I0403 19:57:03.251873 10094 net.cpp:425] inception_3a/relu_3x3 <- inception_3a/3x3
I0403 19:57:03.251894 10094 net.cpp:386] inception_3a/relu_3x3 -> inception_3a/3x3 (in-place)
I0403 19:57:03.252228 10094 net.cpp:141] Setting up inception_3a/relu_3x3
I0403 19:57:03.252260 10094 net.cpp:148] Top shape: 24 128 28 28 (2408448)
I0403 19:57:03.252285 10094 net.cpp:156] Memory required for data: 534676512
I0403 19:57:03.252305 10094 layer_factory.hpp:77] Creating layer inception_3a/5x5_reduce
I0403 19:57:03.252331 10094 net.cpp:91] Creating Layer inception_3a/5x5_reduce
I0403 19:57:03.252354 10094 net.cpp:425] inception_3a/5x5_reduce <- pool2/3x3_s2_pool2/3x3_s2_0_split_2
I0403 19:57:03.252380 10094 net.cpp:399] inception_3a/5x5_reduce -> inception_3a/5x5_reduce
I0403 19:57:03.253564 10094 net.cpp:141] Setting up inception_3a/5x5_reduce
I0403 19:57:03.253600 10094 net.cpp:148] Top shape: 24 16 28 28 (301056)
I0403 19:57:03.253620 10094 net.cpp:156] Memory required for data: 535880736
I0403 19:57:03.253643 10094 layer_factory.hpp:77] Creating layer inception_3a/relu_5x5_reduce
I0403 19:57:03.253669 10094 net.cpp:91] Creating Layer inception_3a/relu_5x5_reduce
I0403 19:57:03.253690 10094 net.cpp:425] inception_3a/relu_5x5_reduce <- inception_3a/5x5_reduce
I0403 19:57:03.253710 10094 net.cpp:386] inception_3a/relu_5x5_reduce -> inception_3a/5x5_reduce (in-place)
I0403 19:57:03.254052 10094 net.cpp:141] Setting up inception_3a/relu_5x5_reduce
I0403 19:57:03.254087 10094 net.cpp:148] Top shape: 24 16 28 28 (301056)
I0403 19:57:03.254109 10094 net.cpp:156] Memory required for data: 537084960
I0403 19:57:03.254128 10094 layer_factory.hpp:77] Creating layer inception_3a/5x5
I0403 19:57:03.254155 10094 net.cpp:91] Creating Layer inception_3a/5x5
I0403 19:57:03.254178 10094 net.cpp:425] inception_3a/5x5 <- inception_3a/5x5_reduce
I0403 19:57:03.254201 10094 net.cpp:399] inception_3a/5x5 -> inception_3a/5x5
I0403 19:57:03.255441 10094 net.cpp:141] Setting up inception_3a/5x5
I0403 19:57:03.255476 10094 net.cpp:148] Top shape: 24 32 28 28 (602112)
I0403 19:57:03.255496 10094 net.cpp:156] Memory required for data: 539493408
I0403 19:57:03.255519 10094 layer_factory.hpp:77] Creating layer inception_3a/relu_5x5
I0403 19:57:03.255544 10094 net.cpp:91] Creating Layer inception_3a/relu_5x5
I0403 19:57:03.255565 10094 net.cpp:425] inception_3a/relu_5x5 <- inception_3a/5x5
I0403 19:57:03.255586 10094 net.cpp:386] inception_3a/relu_5x5 -> inception_3a/5x5 (in-place)
I0403 19:57:03.255802 10094 net.cpp:141] Setting up inception_3a/relu_5x5
I0403 19:57:03.255833 10094 net.cpp:148] Top shape: 24 32 28 28 (602112)
I0403 19:57:03.255856 10094 net.cpp:156] Memory required for data: 541901856
I0403 19:57:03.255873 10094 layer_factory.hpp:77] Creating layer inception_3a/pool
I0403 19:57:03.255895 10094 net.cpp:91] Creating Layer inception_3a/pool
I0403 19:57:03.255916 10094 net.cpp:425] inception_3a/pool <- pool2/3x3_s2_pool2/3x3_s2_0_split_3
I0403 19:57:03.255956 10094 net.cpp:399] inception_3a/pool -> inception_3a/pool
I0403 19:57:03.256029 10094 net.cpp:141] Setting up inception_3a/pool
I0403 19:57:03.256058 10094 net.cpp:148] Top shape: 24 192 28 28 (3612672)
I0403 19:57:03.256077 10094 net.cpp:156] Memory required for data: 556352544
I0403 19:57:03.256093 10094 layer_factory.hpp:77] Creating layer inception_3a/pool_proj
I0403 19:57:03.256121 10094 net.cpp:91] Creating Layer inception_3a/pool_proj
I0403 19:57:03.256144 10094 net.cpp:425] inception_3a/pool_proj <- inception_3a/pool
I0403 19:57:03.256170 10094 net.cpp:399] inception_3a/pool_proj -> inception_3a/pool_proj
I0403 19:57:03.257351 10094 net.cpp:141] Setting up inception_3a/pool_proj
I0403 19:57:03.257385 10094 net.cpp:148] Top shape: 24 32 28 28 (602112)
I0403 19:57:03.257405 10094 net.cpp:156] Memory required for data: 558760992
I0403 19:57:03.257431 10094 layer_factory.hpp:77] Creating layer inception_3a/relu_pool_proj
I0403 19:57:03.257457 10094 net.cpp:91] Creating Layer inception_3a/relu_pool_proj
I0403 19:57:03.257477 10094 net.cpp:425] inception_3a/relu_pool_proj <- inception_3a/pool_proj
I0403 19:57:03.257499 10094 net.cpp:386] inception_3a/relu_pool_proj -> inception_3a/pool_proj (in-place)
I0403 19:57:03.257830 10094 net.cpp:141] Setting up inception_3a/relu_pool_proj
I0403 19:57:03.257863 10094 net.cpp:148] Top shape: 24 32 28 28 (602112)
I0403 19:57:03.257882 10094 net.cpp:156] Memory required for data: 561169440
I0403 19:57:03.257900 10094 layer_factory.hpp:77] Creating layer inception_3a/output
I0403 19:57:03.257922 10094 net.cpp:91] Creating Layer inception_3a/output
I0403 19:57:03.257942 10094 net.cpp:425] inception_3a/output <- inception_3a/1x1
I0403 19:57:03.257962 10094 net.cpp:425] inception_3a/output <- inception_3a/3x3
I0403 19:57:03.257983 10094 net.cpp:425] inception_3a/output <- inception_3a/5x5
I0403 19:57:03.258003 10094 net.cpp:425] inception_3a/output <- inception_3a/pool_proj
I0403 19:57:03.258028 10094 net.cpp:399] inception_3a/output -> inception_3a/output
I0403 19:57:03.258088 10094 net.cpp:141] Setting up inception_3a/output
I0403 19:57:03.258116 10094 net.cpp:148] Top shape: 24 256 28 28 (4816896)
I0403 19:57:03.258136 10094 net.cpp:156] Memory required for data: 580437024
I0403 19:57:03.258153 10094 layer_factory.hpp:77] Creating layer inception_3a/output_inception_3a/output_0_split
I0403 19:57:03.258175 10094 net.cpp:91] Creating Layer inception_3a/output_inception_3a/output_0_split
I0403 19:57:03.258195 10094 net.cpp:425] inception_3a/output_inception_3a/output_0_split <- inception_3a/output
I0403 19:57:03.258226 10094 net.cpp:399] inception_3a/output_inception_3a/output_0_split -> inception_3a/output_inception_3a/output_0_split_0
I0403 19:57:03.258254 10094 net.cpp:399] inception_3a/output_inception_3a/output_0_split -> inception_3a/output_inception_3a/output_0_split_1
I0403 19:57:03.258286 10094 net.cpp:399] inception_3a/output_inception_3a/output_0_split -> inception_3a/output_inception_3a/output_0_split_2
I0403 19:57:03.258318 10094 net.cpp:399] inception_3a/output_inception_3a/output_0_split -> inception_3a/output_inception_3a/output_0_split_3
I0403 19:57:03.258409 10094 net.cpp:141] Setting up inception_3a/output_inception_3a/output_0_split
I0403 19:57:03.258436 10094 net.cpp:148] Top shape: 24 256 28 28 (4816896)
I0403 19:57:03.258457 10094 net.cpp:148] Top shape: 24 256 28 28 (4816896)
I0403 19:57:03.258477 10094 net.cpp:148] Top shape: 24 256 28 28 (4816896)
I0403 19:57:03.258496 10094 net.cpp:148] Top shape: 24 256 28 28 (4816896)
I0403 19:57:03.258513 10094 net.cpp:156] Memory required for data: 657507360
I0403 19:57:03.258532 10094 layer_factory.hpp:77] Creating layer inception_3b/1x1
I0403 19:57:03.258558 10094 net.cpp:91] Creating Layer inception_3b/1x1
I0403 19:57:03.258579 10094 net.cpp:425] inception_3b/1x1 <- inception_3a/output_inception_3a/output_0_split_0
I0403 19:57:03.258605 10094 net.cpp:399] inception_3b/1x1 -> inception_3b/1x1
I0403 19:57:03.259979 10094 net.cpp:141] Setting up inception_3b/1x1
I0403 19:57:03.260030 10094 net.cpp:148] Top shape: 24 128 28 28 (2408448)
I0403 19:57:03.260048 10094 net.cpp:156] Memory required for data: 667141152
I0403 19:57:03.260071 10094 layer_factory.hpp:77] Creating layer inception_3b/relu_1x1
I0403 19:57:03.260093 10094 net.cpp:91] Creating Layer inception_3b/relu_1x1
I0403 19:57:03.260114 10094 net.cpp:425] inception_3b/relu_1x1 <- inception_3b/1x1
I0403 19:57:03.260140 10094 net.cpp:386] inception_3b/relu_1x1 -> inception_3b/1x1 (in-place)
I0403 19:57:03.260370 10094 net.cpp:141] Setting up inception_3b/relu_1x1
I0403 19:57:03.260401 10094 net.cpp:148] Top shape: 24 128 28 28 (2408448)
I0403 19:57:03.260418 10094 net.cpp:156] Memory required for data: 676774944
I0403 19:57:03.260437 10094 layer_factory.hpp:77] Creating layer inception_3b/3x3_reduce
I0403 19:57:03.260465 10094 net.cpp:91] Creating Layer inception_3b/3x3_reduce
I0403 19:57:03.260488 10094 net.cpp:425] inception_3b/3x3_reduce <- inception_3a/output_inception_3a/output_0_split_1
I0403 19:57:03.260524 10094 net.cpp:399] inception_3b/3x3_reduce -> inception_3b/3x3_reduce
I0403 19:57:03.262193 10094 net.cpp:141] Setting up inception_3b/3x3_reduce
I0403 19:57:03.262228 10094 net.cpp:148] Top shape: 24 128 28 28 (2408448)
I0403 19:57:03.262248 10094 net.cpp:156] Memory required for data: 686408736
I0403 19:57:03.262274 10094 layer_factory.hpp:77] Creating layer inception_3b/relu_3x3_reduce
I0403 19:57:03.262300 10094 net.cpp:91] Creating Layer inception_3b/relu_3x3_reduce
I0403 19:57:03.262320 10094 net.cpp:425] inception_3b/relu_3x3_reduce <- inception_3b/3x3_reduce
I0403 19:57:03.262344 10094 net.cpp:386] inception_3b/relu_3x3_reduce -> inception_3b/3x3_reduce (in-place)
I0403 19:57:03.262557 10094 net.cpp:141] Setting up inception_3b/relu_3x3_reduce
I0403 19:57:03.262588 10094 net.cpp:148] Top shape: 24 128 28 28 (2408448)
I0403 19:57:03.262605 10094 net.cpp:156] Memory required for data: 696042528
I0403 19:57:03.262624 10094 layer_factory.hpp:77] Creating layer inception_3b/3x3
I0403 19:57:03.262656 10094 net.cpp:91] Creating Layer inception_3b/3x3
I0403 19:57:03.262681 10094 net.cpp:425] inception_3b/3x3 <- inception_3b/3x3_reduce
I0403 19:57:03.262703 10094 net.cpp:399] inception_3b/3x3 -> inception_3b/3x3
I0403 19:57:03.266228 10094 net.cpp:141] Setting up inception_3b/3x3
I0403 19:57:03.266265 10094 net.cpp:148] Top shape: 24 192 28 28 (3612672)
I0403 19:57:03.266293 10094 net.cpp:156] Memory required for data: 710493216
I0403 19:57:03.266315 10094 layer_factory.hpp:77] Creating layer inception_3b/relu_3x3
I0403 19:57:03.266341 10094 net.cpp:91] Creating Layer inception_3b/relu_3x3
I0403 19:57:03.266365 10094 net.cpp:425] inception_3b/relu_3x3 <- inception_3b/3x3
I0403 19:57:03.266386 10094 net.cpp:386] inception_3b/relu_3x3 -> inception_3b/3x3 (in-place)
I0403 19:57:03.266716 10094 net.cpp:141] Setting up inception_3b/relu_3x3
I0403 19:57:03.266749 10094 net.cpp:148] Top shape: 24 192 28 28 (3612672)
I0403 19:57:03.266768 10094 net.cpp:156] Memory required for data: 724943904
I0403 19:57:03.266787 10094 layer_factory.hpp:77] Creating layer inception_3b/5x5_reduce
I0403 19:57:03.266816 10094 net.cpp:91] Creating Layer inception_3b/5x5_reduce
I0403 19:57:03.266839 10094 net.cpp:425] inception_3b/5x5_reduce <- inception_3a/output_inception_3a/output_0_split_2
I0403 19:57:03.266865 10094 net.cpp:399] inception_3b/5x5_reduce -> inception_3b/5x5_reduce
I0403 19:57:03.268081 10094 net.cpp:141] Setting up inception_3b/5x5_reduce
I0403 19:57:03.268116 10094 net.cpp:148] Top shape: 24 32 28 28 (602112)
I0403 19:57:03.268134 10094 net.cpp:156] Memory required for data: 727352352
I0403 19:57:03.268157 10094 layer_factory.hpp:77] Creating layer inception_3b/relu_5x5_reduce
I0403 19:57:03.268182 10094 net.cpp:91] Creating Layer inception_3b/relu_5x5_reduce
I0403 19:57:03.268201 10094 net.cpp:425] inception_3b/relu_5x5_reduce <- inception_3b/5x5_reduce
I0403 19:57:03.268224 10094 net.cpp:386] inception_3b/relu_5x5_reduce -> inception_3b/5x5_reduce (in-place)
I0403 19:57:03.268445 10094 net.cpp:141] Setting up inception_3b/relu_5x5_reduce
I0403 19:57:03.268494 10094 net.cpp:148] Top shape: 24 32 28 28 (602112)
I0403 19:57:03.268514 10094 net.cpp:156] Memory required for data: 729760800
I0403 19:57:03.268532 10094 layer_factory.hpp:77] Creating layer inception_3b/5x5
I0403 19:57:03.268556 10094 net.cpp:91] Creating Layer inception_3b/5x5
I0403 19:57:03.268584 10094 net.cpp:425] inception_3b/5x5 <- inception_3b/5x5_reduce
I0403 19:57:03.268610 10094 net.cpp:399] inception_3b/5x5 -> inception_3b/5x5
I0403 19:57:03.270998 10094 net.cpp:141] Setting up inception_3b/5x5
I0403 19:57:03.271034 10094 net.cpp:148] Top shape: 24 96 28 28 (1806336)
I0403 19:57:03.271054 10094 net.cpp:156] Memory required for data: 736986144
I0403 19:57:03.271078 10094 layer_factory.hpp:77] Creating layer inception_3b/relu_5x5
I0403 19:57:03.271100 10094 net.cpp:91] Creating Layer inception_3b/relu_5x5
I0403 19:57:03.271118 10094 net.cpp:425] inception_3b/relu_5x5 <- inception_3b/5x5
I0403 19:57:03.271142 10094 net.cpp:386] inception_3b/relu_5x5 -> inception_3b/5x5 (in-place)
I0403 19:57:03.271383 10094 net.cpp:141] Setting up inception_3b/relu_5x5
I0403 19:57:03.271415 10094 net.cpp:148] Top shape: 24 96 28 28 (1806336)
I0403 19:57:03.271433 10094 net.cpp:156] Memory required for data: 744211488
I0403 19:57:03.271452 10094 layer_factory.hpp:77] Creating layer inception_3b/pool
I0403 19:57:03.271474 10094 net.cpp:91] Creating Layer inception_3b/pool
I0403 19:57:03.271495 10094 net.cpp:425] inception_3b/pool <- inception_3a/output_inception_3a/output_0_split_3
I0403 19:57:03.271518 10094 net.cpp:399] inception_3b/pool -> inception_3b/pool
I0403 19:57:03.271587 10094 net.cpp:141] Setting up inception_3b/pool
I0403 19:57:03.271615 10094 net.cpp:148] Top shape: 24 256 28 28 (4816896)
I0403 19:57:03.271634 10094 net.cpp:156] Memory required for data: 763479072
I0403 19:57:03.271652 10094 layer_factory.hpp:77] Creating layer inception_3b/pool_proj
I0403 19:57:03.271679 10094 net.cpp:91] Creating Layer inception_3b/pool_proj
I0403 19:57:03.271702 10094 net.cpp:425] inception_3b/pool_proj <- inception_3b/pool
I0403 19:57:03.271728 10094 net.cpp:399] inception_3b/pool_proj -> inception_3b/pool_proj
I0403 19:57:03.273025 10094 net.cpp:141] Setting up inception_3b/pool_proj
I0403 19:57:03.273062 10094 net.cpp:148] Top shape: 24 64 28 28 (1204224)
I0403 19:57:03.273082 10094 net.cpp:156] Memory required for data: 768295968
I0403 19:57:03.273104 10094 layer_factory.hpp:77] Creating layer inception_3b/relu_pool_proj
I0403 19:57:03.273126 10094 net.cpp:91] Creating Layer inception_3b/relu_pool_proj
I0403 19:57:03.273146 10094 net.cpp:425] inception_3b/relu_pool_proj <- inception_3b/pool_proj
I0403 19:57:03.273167 10094 net.cpp:386] inception_3b/relu_pool_proj -> inception_3b/pool_proj (in-place)
I0403 19:57:03.273633 10094 net.cpp:141] Setting up inception_3b/relu_pool_proj
I0403 19:57:03.273666 10094 net.cpp:148] Top shape: 24 64 28 28 (1204224)
I0403 19:57:03.273685 10094 net.cpp:156] Memory required for data: 773112864
I0403 19:57:03.273705 10094 layer_factory.hpp:77] Creating layer inception_3b/output
I0403 19:57:03.273730 10094 net.cpp:91] Creating Layer inception_3b/output
I0403 19:57:03.273751 10094 net.cpp:425] inception_3b/output <- inception_3b/1x1
I0403 19:57:03.273771 10094 net.cpp:425] inception_3b/output <- inception_3b/3x3
I0403 19:57:03.273789 10094 net.cpp:425] inception_3b/output <- inception_3b/5x5
I0403 19:57:03.273809 10094 net.cpp:425] inception_3b/output <- inception_3b/pool_proj
I0403 19:57:03.273831 10094 net.cpp:399] inception_3b/output -> inception_3b/output
I0403 19:57:03.273886 10094 net.cpp:141] Setting up inception_3b/output
I0403 19:57:03.273916 10094 net.cpp:148] Top shape: 24 480 28 28 (9031680)
I0403 19:57:03.273934 10094 net.cpp:156] Memory required for data: 809239584
I0403 19:57:03.273952 10094 layer_factory.hpp:77] Creating layer pool3/3x3_s2
I0403 19:57:03.273974 10094 net.cpp:91] Creating Layer pool3/3x3_s2
I0403 19:57:03.273994 10094 net.cpp:425] pool3/3x3_s2 <- inception_3b/output
I0403 19:57:03.274020 10094 net.cpp:399] pool3/3x3_s2 -> pool3/3x3_s2
I0403 19:57:03.274108 10094 net.cpp:141] Setting up pool3/3x3_s2
I0403 19:57:03.274137 10094 net.cpp:148] Top shape: 24 480 14 14 (2257920)
I0403 19:57:03.274155 10094 net.cpp:156] Memory required for data: 818271264
I0403 19:57:03.274173 10094 layer_factory.hpp:77] Creating layer pool3/3x3_s2_pool3/3x3_s2_0_split
I0403 19:57:03.274197 10094 net.cpp:91] Creating Layer pool3/3x3_s2_pool3/3x3_s2_0_split
I0403 19:57:03.274217 10094 net.cpp:425] pool3/3x3_s2_pool3/3x3_s2_0_split <- pool3/3x3_s2
I0403 19:57:03.274242 10094 net.cpp:399] pool3/3x3_s2_pool3/3x3_s2_0_split -> pool3/3x3_s2_pool3/3x3_s2_0_split_0
I0403 19:57:03.274268 10094 net.cpp:399] pool3/3x3_s2_pool3/3x3_s2_0_split -> pool3/3x3_s2_pool3/3x3_s2_0_split_1
I0403 19:57:03.274301 10094 net.cpp:399] pool3/3x3_s2_pool3/3x3_s2_0_split -> pool3/3x3_s2_pool3/3x3_s2_0_split_2
I0403 19:57:03.274325 10094 net.cpp:399] pool3/3x3_s2_pool3/3x3_s2_0_split -> pool3/3x3_s2_pool3/3x3_s2_0_split_3
I0403 19:57:03.274417 10094 net.cpp:141] Setting up pool3/3x3_s2_pool3/3x3_s2_0_split
I0403 19:57:03.274448 10094 net.cpp:148] Top shape: 24 480 14 14 (2257920)
I0403 19:57:03.274471 10094 net.cpp:148] Top shape: 24 480 14 14 (2257920)
I0403 19:57:03.274492 10094 net.cpp:148] Top shape: 24 480 14 14 (2257920)
I0403 19:57:03.274510 10094 net.cpp:148] Top shape: 24 480 14 14 (2257920)
I0403 19:57:03.274528 10094 net.cpp:156] Memory required for data: 854397984
I0403 19:57:03.274546 10094 layer_factory.hpp:77] Creating layer inception_4a/1x1
I0403 19:57:03.274574 10094 net.cpp:91] Creating Layer inception_4a/1x1
I0403 19:57:03.274596 10094 net.cpp:425] inception_4a/1x1 <- pool3/3x3_s2_pool3/3x3_s2_0_split_0
I0403 19:57:03.274619 10094 net.cpp:399] inception_4a/1x1 -> inception_4a/1x1
I0403 19:57:03.276546 10094 net.cpp:141] Setting up inception_4a/1x1
I0403 19:57:03.276582 10094 net.cpp:148] Top shape: 24 192 14 14 (903168)
I0403 19:57:03.276603 10094 net.cpp:156] Memory required for data: 858010656
I0403 19:57:03.276626 10094 layer_factory.hpp:77] Creating layer inception_4a/relu_1x1
I0403 19:57:03.276648 10094 net.cpp:91] Creating Layer inception_4a/relu_1x1
I0403 19:57:03.276669 10094 net.cpp:425] inception_4a/relu_1x1 <- inception_4a/1x1
I0403 19:57:03.276690 10094 net.cpp:386] inception_4a/relu_1x1 -> inception_4a/1x1 (in-place)
I0403 19:57:03.276914 10094 net.cpp:141] Setting up inception_4a/relu_1x1
I0403 19:57:03.276944 10094 net.cpp:148] Top shape: 24 192 14 14 (903168)
I0403 19:57:03.276963 10094 net.cpp:156] Memory required for data: 861623328
I0403 19:57:03.276981 10094 layer_factory.hpp:77] Creating layer inception_4a/3x3_reduce
I0403 19:57:03.277009 10094 net.cpp:91] Creating Layer inception_4a/3x3_reduce
I0403 19:57:03.277029 10094 net.cpp:425] inception_4a/3x3_reduce <- pool3/3x3_s2_pool3/3x3_s2_0_split_1
I0403 19:57:03.277055 10094 net.cpp:399] inception_4a/3x3_reduce -> inception_4a/3x3_reduce
I0403 19:57:03.278611 10094 net.cpp:141] Setting up inception_4a/3x3_reduce
I0403 19:57:03.278650 10094 net.cpp:148] Top shape: 24 96 14 14 (451584)
I0403 19:57:03.278668 10094 net.cpp:156] Memory required for data: 863429664
I0403 19:57:03.278698 10094 layer_factory.hpp:77] Creating layer inception_4a/relu_3x3_reduce
I0403 19:57:03.278723 10094 net.cpp:91] Creating Layer inception_4a/relu_3x3_reduce
I0403 19:57:03.278743 10094 net.cpp:425] inception_4a/relu_3x3_reduce <- inception_4a/3x3_reduce
I0403 19:57:03.278765 10094 net.cpp:386] inception_4a/relu_3x3_reduce -> inception_4a/3x3_reduce (in-place)
I0403 19:57:03.278978 10094 net.cpp:141] Setting up inception_4a/relu_3x3_reduce
I0403 19:57:03.279012 10094 net.cpp:148] Top shape: 24 96 14 14 (451584)
I0403 19:57:03.279031 10094 net.cpp:156] Memory required for data: 865236000
I0403 19:57:03.279050 10094 layer_factory.hpp:77] Creating layer inception_4a/3x3
I0403 19:57:03.279078 10094 net.cpp:91] Creating Layer inception_4a/3x3
I0403 19:57:03.279100 10094 net.cpp:425] inception_4a/3x3 <- inception_4a/3x3_reduce
I0403 19:57:03.279126 10094 net.cpp:399] inception_4a/3x3 -> inception_4a/3x3
I0403 19:57:03.282356 10094 net.cpp:141] Setting up inception_4a/3x3
I0403 19:57:03.282390 10094 net.cpp:148] Top shape: 24 208 14 14 (978432)
I0403 19:57:03.282410 10094 net.cpp:156] Memory required for data: 869149728
I0403 19:57:03.282434 10094 layer_factory.hpp:77] Creating layer inception_4a/relu_3x3
I0403 19:57:03.282457 10094 net.cpp:91] Creating Layer inception_4a/relu_3x3
I0403 19:57:03.282477 10094 net.cpp:425] inception_4a/relu_3x3 <- inception_4a/3x3
I0403 19:57:03.282501 10094 net.cpp:386] inception_4a/relu_3x3 -> inception_4a/3x3 (in-place)
I0403 19:57:03.282845 10094 net.cpp:141] Setting up inception_4a/relu_3x3
I0403 19:57:03.282878 10094 net.cpp:148] Top shape: 24 208 14 14 (978432)
I0403 19:57:03.282897 10094 net.cpp:156] Memory required for data: 873063456
I0403 19:57:03.282917 10094 layer_factory.hpp:77] Creating layer inception_4a/5x5_reduce
I0403 19:57:03.282944 10094 net.cpp:91] Creating Layer inception_4a/5x5_reduce
I0403 19:57:03.282968 10094 net.cpp:425] inception_4a/5x5_reduce <- pool3/3x3_s2_pool3/3x3_s2_0_split_2
I0403 19:57:03.282994 10094 net.cpp:399] inception_4a/5x5_reduce -> inception_4a/5x5_reduce
I0403 19:57:03.284245 10094 net.cpp:141] Setting up inception_4a/5x5_reduce
I0403 19:57:03.284286 10094 net.cpp:148] Top shape: 24 16 14 14 (75264)
I0403 19:57:03.284306 10094 net.cpp:156] Memory required for data: 873364512
I0403 19:57:03.284330 10094 layer_factory.hpp:77] Creating layer inception_4a/relu_5x5_reduce
I0403 19:57:03.284354 10094 net.cpp:91] Creating Layer inception_4a/relu_5x5_reduce
I0403 19:57:03.284373 10094 net.cpp:425] inception_4a/relu_5x5_reduce <- inception_4a/5x5_reduce
I0403 19:57:03.284395 10094 net.cpp:386] inception_4a/relu_5x5_reduce -> inception_4a/5x5_reduce (in-place)
I0403 19:57:03.284615 10094 net.cpp:141] Setting up inception_4a/relu_5x5_reduce
I0403 19:57:03.284646 10094 net.cpp:148] Top shape: 24 16 14 14 (75264)
I0403 19:57:03.284667 10094 net.cpp:156] Memory required for data: 873665568
I0403 19:57:03.284687 10094 layer_factory.hpp:77] Creating layer inception_4a/5x5
I0403 19:57:03.284713 10094 net.cpp:91] Creating Layer inception_4a/5x5
I0403 19:57:03.284732 10094 net.cpp:425] inception_4a/5x5 <- inception_4a/5x5_reduce
I0403 19:57:03.284759 10094 net.cpp:399] inception_4a/5x5 -> inception_4a/5x5
I0403 19:57:03.286098 10094 net.cpp:141] Setting up inception_4a/5x5
I0403 19:57:03.286133 10094 net.cpp:148] Top shape: 24 48 14 14 (225792)
I0403 19:57:03.286151 10094 net.cpp:156] Memory required for data: 874568736
I0403 19:57:03.286175 10094 layer_factory.hpp:77] Creating layer inception_4a/relu_5x5
I0403 19:57:03.286200 10094 net.cpp:91] Creating Layer inception_4a/relu_5x5
I0403 19:57:03.286219 10094 net.cpp:425] inception_4a/relu_5x5 <- inception_4a/5x5
I0403 19:57:03.286242 10094 net.cpp:386] inception_4a/relu_5x5 -> inception_4a/5x5 (in-place)
I0403 19:57:03.286470 10094 net.cpp:141] Setting up inception_4a/relu_5x5
I0403 19:57:03.286501 10094 net.cpp:148] Top shape: 24 48 14 14 (225792)
I0403 19:57:03.286520 10094 net.cpp:156] Memory required for data: 875471904
I0403 19:57:03.286540 10094 layer_factory.hpp:77] Creating layer inception_4a/pool
I0403 19:57:03.286561 10094 net.cpp:91] Creating Layer inception_4a/pool
I0403 19:57:03.286581 10094 net.cpp:425] inception_4a/pool <- pool3/3x3_s2_pool3/3x3_s2_0_split_3
I0403 19:57:03.286604 10094 net.cpp:399] inception_4a/pool -> inception_4a/pool
I0403 19:57:03.286679 10094 net.cpp:141] Setting up inception_4a/pool
I0403 19:57:03.286708 10094 net.cpp:148] Top shape: 24 480 14 14 (2257920)
I0403 19:57:03.286727 10094 net.cpp:156] Memory required for data: 884503584
I0403 19:57:03.286746 10094 layer_factory.hpp:77] Creating layer inception_4a/pool_proj
I0403 19:57:03.286774 10094 net.cpp:91] Creating Layer inception_4a/pool_proj
I0403 19:57:03.286795 10094 net.cpp:425] inception_4a/pool_proj <- inception_4a/pool
I0403 19:57:03.286818 10094 net.cpp:399] inception_4a/pool_proj -> inception_4a/pool_proj
I0403 19:57:03.288225 10094 net.cpp:141] Setting up inception_4a/pool_proj
I0403 19:57:03.288264 10094 net.cpp:148] Top shape: 24 64 14 14 (301056)
I0403 19:57:03.288306 10094 net.cpp:156] Memory required for data: 885707808
I0403 19:57:03.288331 10094 layer_factory.hpp:77] Creating layer inception_4a/relu_pool_proj
I0403 19:57:03.288355 10094 net.cpp:91] Creating Layer inception_4a/relu_pool_proj
I0403 19:57:03.288375 10094 net.cpp:425] inception_4a/relu_pool_proj <- inception_4a/pool_proj
I0403 19:57:03.288401 10094 net.cpp:386] inception_4a/relu_pool_proj -> inception_4a/pool_proj (in-place)
I0403 19:57:03.288739 10094 net.cpp:141] Setting up inception_4a/relu_pool_proj
I0403 19:57:03.288774 10094 net.cpp:148] Top shape: 24 64 14 14 (301056)
I0403 19:57:03.288794 10094 net.cpp:156] Memory required for data: 886912032
I0403 19:57:03.288813 10094 layer_factory.hpp:77] Creating layer inception_4a/output
I0403 19:57:03.288835 10094 net.cpp:91] Creating Layer inception_4a/output
I0403 19:57:03.288853 10094 net.cpp:425] inception_4a/output <- inception_4a/1x1
I0403 19:57:03.288874 10094 net.cpp:425] inception_4a/output <- inception_4a/3x3
I0403 19:57:03.288893 10094 net.cpp:425] inception_4a/output <- inception_4a/5x5
I0403 19:57:03.288913 10094 net.cpp:425] inception_4a/output <- inception_4a/pool_proj
I0403 19:57:03.288934 10094 net.cpp:399] inception_4a/output -> inception_4a/output
I0403 19:57:03.288992 10094 net.cpp:141] Setting up inception_4a/output
I0403 19:57:03.289022 10094 net.cpp:148] Top shape: 24 512 14 14 (2408448)
I0403 19:57:03.289041 10094 net.cpp:156] Memory required for data: 896545824
I0403 19:57:03.289058 10094 layer_factory.hpp:77] Creating layer inception_4a/output_inception_4a/output_0_split
I0403 19:57:03.289083 10094 net.cpp:91] Creating Layer inception_4a/output_inception_4a/output_0_split
I0403 19:57:03.289103 10094 net.cpp:425] inception_4a/output_inception_4a/output_0_split <- inception_4a/output
I0403 19:57:03.289126 10094 net.cpp:399] inception_4a/output_inception_4a/output_0_split -> inception_4a/output_inception_4a/output_0_split_0
I0403 19:57:03.289151 10094 net.cpp:399] inception_4a/output_inception_4a/output_0_split -> inception_4a/output_inception_4a/output_0_split_1
I0403 19:57:03.289180 10094 net.cpp:399] inception_4a/output_inception_4a/output_0_split -> inception_4a/output_inception_4a/output_0_split_2
I0403 19:57:03.289206 10094 net.cpp:399] inception_4a/output_inception_4a/output_0_split -> inception_4a/output_inception_4a/output_0_split_3
I0403 19:57:03.289232 10094 net.cpp:399] inception_4a/output_inception_4a/output_0_split -> inception_4a/output_inception_4a/output_0_split_4
I0403 19:57:03.289348 10094 net.cpp:141] Setting up inception_4a/output_inception_4a/output_0_split
I0403 19:57:03.289378 10094 net.cpp:148] Top shape: 24 512 14 14 (2408448)
I0403 19:57:03.289399 10094 net.cpp:148] Top shape: 24 512 14 14 (2408448)
I0403 19:57:03.289418 10094 net.cpp:148] Top shape: 24 512 14 14 (2408448)
I0403 19:57:03.289438 10094 net.cpp:148] Top shape: 24 512 14 14 (2408448)
I0403 19:57:03.289456 10094 net.cpp:148] Top shape: 24 512 14 14 (2408448)
I0403 19:57:03.289474 10094 net.cpp:156] Memory required for data: 944714784
I0403 19:57:03.289492 10094 layer_factory.hpp:77] Creating layer loss1/ave_pool
I0403 19:57:03.289515 10094 net.cpp:91] Creating Layer loss1/ave_pool
I0403 19:57:03.289535 10094 net.cpp:425] loss1/ave_pool <- inception_4a/output_inception_4a/output_0_split_0
I0403 19:57:03.289561 10094 net.cpp:399] loss1/ave_pool -> loss1/ave_pool
I0403 19:57:03.289811 10094 net.cpp:141] Setting up loss1/ave_pool
I0403 19:57:03.289846 10094 net.cpp:148] Top shape: 24 512 4 4 (196608)
I0403 19:57:03.289866 10094 net.cpp:156] Memory required for data: 945501216
I0403 19:57:03.289885 10094 layer_factory.hpp:77] Creating layer loss1/conv
I0403 19:57:03.289916 10094 net.cpp:91] Creating Layer loss1/conv
I0403 19:57:03.289937 10094 net.cpp:425] loss1/conv <- loss1/ave_pool
I0403 19:57:03.289960 10094 net.cpp:399] loss1/conv -> loss1/conv
I0403 19:57:03.291677 10094 net.cpp:141] Setting up loss1/conv
I0403 19:57:03.291712 10094 net.cpp:148] Top shape: 24 128 4 4 (49152)
I0403 19:57:03.291733 10094 net.cpp:156] Memory required for data: 945697824
I0403 19:57:03.291774 10094 layer_factory.hpp:77] Creating layer loss1/relu_conv
I0403 19:57:03.291797 10094 net.cpp:91] Creating Layer loss1/relu_conv
I0403 19:57:03.291817 10094 net.cpp:425] loss1/relu_conv <- loss1/conv
I0403 19:57:03.291841 10094 net.cpp:386] loss1/relu_conv -> loss1/conv (in-place)
I0403 19:57:03.292178 10094 net.cpp:141] Setting up loss1/relu_conv
I0403 19:57:03.292212 10094 net.cpp:148] Top shape: 24 128 4 4 (49152)
I0403 19:57:03.292230 10094 net.cpp:156] Memory required for data: 945894432
I0403 19:57:03.292250 10094 layer_factory.hpp:77] Creating layer loss1/fc
I0403 19:57:03.292291 10094 net.cpp:91] Creating Layer loss1/fc
I0403 19:57:03.292316 10094 net.cpp:425] loss1/fc <- loss1/conv
I0403 19:57:03.292343 10094 net.cpp:399] loss1/fc -> loss1/fc
I0403 19:57:03.314334 10094 net.cpp:141] Setting up loss1/fc
I0403 19:57:03.314378 10094 net.cpp:148] Top shape: 24 1024 (24576)
I0403 19:57:03.314399 10094 net.cpp:156] Memory required for data: 945992736
I0403 19:57:03.314421 10094 layer_factory.hpp:77] Creating layer loss1/relu_fc
I0403 19:57:03.314452 10094 net.cpp:91] Creating Layer loss1/relu_fc
I0403 19:57:03.314473 10094 net.cpp:425] loss1/relu_fc <- loss1/fc
I0403 19:57:03.314494 10094 net.cpp:386] loss1/relu_fc -> loss1/fc (in-place)
I0403 19:57:03.314725 10094 net.cpp:141] Setting up loss1/relu_fc
I0403 19:57:03.314756 10094 net.cpp:148] Top shape: 24 1024 (24576)
I0403 19:57:03.314774 10094 net.cpp:156] Memory required for data: 946091040
I0403 19:57:03.314795 10094 layer_factory.hpp:77] Creating layer loss1/drop_fc
I0403 19:57:03.314824 10094 net.cpp:91] Creating Layer loss1/drop_fc
I0403 19:57:03.314846 10094 net.cpp:425] loss1/drop_fc <- loss1/fc
I0403 19:57:03.314874 10094 net.cpp:386] loss1/drop_fc -> loss1/fc (in-place)
I0403 19:57:03.314939 10094 net.cpp:141] Setting up loss1/drop_fc
I0403 19:57:03.314966 10094 net.cpp:148] Top shape: 24 1024 (24576)
I0403 19:57:03.314985 10094 net.cpp:156] Memory required for data: 946189344
I0403 19:57:03.315004 10094 layer_factory.hpp:77] Creating layer loss1/classifier_plantvillage
I0403 19:57:03.315033 10094 net.cpp:91] Creating Layer loss1/classifier_plantvillage
I0403 19:57:03.315054 10094 net.cpp:425] loss1/classifier_plantvillage <- loss1/fc
I0403 19:57:03.315079 10094 net.cpp:399] loss1/classifier_plantvillage -> loss1/classifier_plantvillage
I0403 19:57:03.316162 10094 net.cpp:141] Setting up loss1/classifier_plantvillage
I0403 19:57:03.316196 10094 net.cpp:148] Top shape: 24 38 (912)
I0403 19:57:03.316215 10094 net.cpp:156] Memory required for data: 946192992
I0403 19:57:03.316237 10094 layer_factory.hpp:77] Creating layer loss1/classifier_plantvillage_loss1/classifier_plantvillage_0_split
I0403 19:57:03.316261 10094 net.cpp:91] Creating Layer loss1/classifier_plantvillage_loss1/classifier_plantvillage_0_split
I0403 19:57:03.316287 10094 net.cpp:425] loss1/classifier_plantvillage_loss1/classifier_plantvillage_0_split <- loss1/classifier_plantvillage
I0403 19:57:03.316313 10094 net.cpp:399] loss1/classifier_plantvillage_loss1/classifier_plantvillage_0_split -> loss1/classifier_plantvillage_loss1/classifier_plantvillage_0_split_0
I0403 19:57:03.316339 10094 net.cpp:399] loss1/classifier_plantvillage_loss1/classifier_plantvillage_0_split -> loss1/classifier_plantvillage_loss1/classifier_plantvillage_0_split_1
I0403 19:57:03.316365 10094 net.cpp:399] loss1/classifier_plantvillage_loss1/classifier_plantvillage_0_split -> loss1/classifier_plantvillage_loss1/classifier_plantvillage_0_split_2
I0403 19:57:03.316447 10094 net.cpp:141] Setting up loss1/classifier_plantvillage_loss1/classifier_plantvillage_0_split
I0403 19:57:03.316475 10094 net.cpp:148] Top shape: 24 38 (912)
I0403 19:57:03.316496 10094 net.cpp:148] Top shape: 24 38 (912)
I0403 19:57:03.316516 10094 net.cpp:148] Top shape: 24 38 (912)
I0403 19:57:03.316534 10094 net.cpp:156] Memory required for data: 946203936
I0403 19:57:03.316551 10094 layer_factory.hpp:77] Creating layer inception_4b/1x1
I0403 19:57:03.316577 10094 net.cpp:91] Creating Layer inception_4b/1x1
I0403 19:57:03.316619 10094 net.cpp:425] inception_4b/1x1 <- inception_4a/output_inception_4a/output_0_split_1
I0403 19:57:03.316644 10094 net.cpp:399] inception_4b/1x1 -> inception_4b/1x1
I0403 19:57:03.318625 10094 net.cpp:141] Setting up inception_4b/1x1
I0403 19:57:03.318660 10094 net.cpp:148] Top shape: 24 160 14 14 (752640)
I0403 19:57:03.318681 10094 net.cpp:156] Memory required for data: 949214496
I0403 19:57:03.318703 10094 layer_factory.hpp:77] Creating layer inception_4b/relu_1x1
I0403 19:57:03.318727 10094 net.cpp:91] Creating Layer inception_4b/relu_1x1
I0403 19:57:03.318747 10094 net.cpp:425] inception_4b/relu_1x1 <- inception_4b/1x1
I0403 19:57:03.318770 10094 net.cpp:386] inception_4b/relu_1x1 -> inception_4b/1x1 (in-place)
I0403 19:57:03.318991 10094 net.cpp:141] Setting up inception_4b/relu_1x1
I0403 19:57:03.319023 10094 net.cpp:148] Top shape: 24 160 14 14 (752640)
I0403 19:57:03.319042 10094 net.cpp:156] Memory required for data: 952225056
I0403 19:57:03.319061 10094 layer_factory.hpp:77] Creating layer inception_4b/3x3_reduce
I0403 19:57:03.319087 10094 net.cpp:91] Creating Layer inception_4b/3x3_reduce
I0403 19:57:03.319110 10094 net.cpp:425] inception_4b/3x3_reduce <- inception_4a/output_inception_4a/output_0_split_2
I0403 19:57:03.319138 10094 net.cpp:399] inception_4b/3x3_reduce -> inception_4b/3x3_reduce
I0403 19:57:03.320792 10094 net.cpp:141] Setting up inception_4b/3x3_reduce
I0403 19:57:03.320827 10094 net.cpp:148] Top shape: 24 112 14 14 (526848)
I0403 19:57:03.320847 10094 net.cpp:156] Memory required for data: 954332448
I0403 19:57:03.320870 10094 layer_factory.hpp:77] Creating layer inception_4b/relu_3x3_reduce
I0403 19:57:03.320894 10094 net.cpp:91] Creating Layer inception_4b/relu_3x3_reduce
I0403 19:57:03.320915 10094 net.cpp:425] inception_4b/relu_3x3_reduce <- inception_4b/3x3_reduce
I0403 19:57:03.320937 10094 net.cpp:386] inception_4b/relu_3x3_reduce -> inception_4b/3x3_reduce (in-place)
I0403 19:57:03.321280 10094 net.cpp:141] Setting up inception_4b/relu_3x3_reduce
I0403 19:57:03.321315 10094 net.cpp:148] Top shape: 24 112 14 14 (526848)
I0403 19:57:03.321333 10094 net.cpp:156] Memory required for data: 956439840
I0403 19:57:03.321352 10094 layer_factory.hpp:77] Creating layer inception_4b/3x3
I0403 19:57:03.321380 10094 net.cpp:91] Creating Layer inception_4b/3x3
I0403 19:57:03.321401 10094 net.cpp:425] inception_4b/3x3 <- inception_4b/3x3_reduce
I0403 19:57:03.321427 10094 net.cpp:399] inception_4b/3x3 -> inception_4b/3x3
I0403 19:57:03.325047 10094 net.cpp:141] Setting up inception_4b/3x3
I0403 19:57:03.325085 10094 net.cpp:148] Top shape: 24 224 14 14 (1053696)
I0403 19:57:03.325105 10094 net.cpp:156] Memory required for data: 960654624
I0403 19:57:03.325129 10094 layer_factory.hpp:77] Creating layer inception_4b/relu_3x3
I0403 19:57:03.325152 10094 net.cpp:91] Creating Layer inception_4b/relu_3x3
I0403 19:57:03.325172 10094 net.cpp:425] inception_4b/relu_3x3 <- inception_4b/3x3
I0403 19:57:03.325196 10094 net.cpp:386] inception_4b/relu_3x3 -> inception_4b/3x3 (in-place)
I0403 19:57:03.325433 10094 net.cpp:141] Setting up inception_4b/relu_3x3
I0403 19:57:03.325464 10094 net.cpp:148] Top shape: 24 224 14 14 (1053696)
I0403 19:57:03.325482 10094 net.cpp:156] Memory required for data: 964869408
I0403 19:57:03.325501 10094 layer_factory.hpp:77] Creating layer inception_4b/5x5_reduce
I0403 19:57:03.325530 10094 net.cpp:91] Creating Layer inception_4b/5x5_reduce
I0403 19:57:03.325552 10094 net.cpp:425] inception_4b/5x5_reduce <- inception_4a/output_inception_4a/output_0_split_3
I0403 19:57:03.325578 10094 net.cpp:399] inception_4b/5x5_reduce -> inception_4b/5x5_reduce
I0403 19:57:03.326891 10094 net.cpp:141] Setting up inception_4b/5x5_reduce
I0403 19:57:03.326926 10094 net.cpp:148] Top shape: 24 24 14 14 (112896)
I0403 19:57:03.326946 10094 net.cpp:156] Memory required for data: 965320992
I0403 19:57:03.326968 10094 layer_factory.hpp:77] Creating layer inception_4b/relu_5x5_reduce
I0403 19:57:03.326993 10094 net.cpp:91] Creating Layer inception_4b/relu_5x5_reduce
I0403 19:57:03.327031 10094 net.cpp:425] inception_4b/relu_5x5_reduce <- inception_4b/5x5_reduce
I0403 19:57:03.327054 10094 net.cpp:386] inception_4b/relu_5x5_reduce -> inception_4b/5x5_reduce (in-place)
I0403 19:57:03.327287 10094 net.cpp:141] Setting up inception_4b/relu_5x5_reduce
I0403 19:57:03.327319 10094 net.cpp:148] Top shape: 24 24 14 14 (112896)
I0403 19:57:03.327337 10094 net.cpp:156] Memory required for data: 965772576
I0403 19:57:03.327356 10094 layer_factory.hpp:77] Creating layer inception_4b/5x5
I0403 19:57:03.327386 10094 net.cpp:91] Creating Layer inception_4b/5x5
I0403 19:57:03.327409 10094 net.cpp:425] inception_4b/5x5 <- inception_4b/5x5_reduce
I0403 19:57:03.327430 10094 net.cpp:399] inception_4b/5x5 -> inception_4b/5x5
I0403 19:57:03.328928 10094 net.cpp:141] Setting up inception_4b/5x5
I0403 19:57:03.328963 10094 net.cpp:148] Top shape: 24 64 14 14 (301056)
I0403 19:57:03.328982 10094 net.cpp:156] Memory required for data: 966976800
I0403 19:57:03.329005 10094 layer_factory.hpp:77] Creating layer inception_4b/relu_5x5
I0403 19:57:03.329026 10094 net.cpp:91] Creating Layer inception_4b/relu_5x5
I0403 19:57:03.329046 10094 net.cpp:425] inception_4b/relu_5x5 <- inception_4b/5x5
I0403 19:57:03.329071 10094 net.cpp:386] inception_4b/relu_5x5 -> inception_4b/5x5 (in-place)
I0403 19:57:03.329426 10094 net.cpp:141] Setting up inception_4b/relu_5x5
I0403 19:57:03.329457 10094 net.cpp:148] Top shape: 24 64 14 14 (301056)
I0403 19:57:03.329478 10094 net.cpp:156] Memory required for data: 968181024
I0403 19:57:03.329495 10094 layer_factory.hpp:77] Creating layer inception_4b/pool
I0403 19:57:03.329517 10094 net.cpp:91] Creating Layer inception_4b/pool
I0403 19:57:03.329536 10094 net.cpp:425] inception_4b/pool <- inception_4a/output_inception_4a/output_0_split_4
I0403 19:57:03.329563 10094 net.cpp:399] inception_4b/pool -> inception_4b/pool
I0403 19:57:03.329643 10094 net.cpp:141] Setting up inception_4b/pool
I0403 19:57:03.329671 10094 net.cpp:148] Top shape: 24 512 14 14 (2408448)
I0403 19:57:03.329689 10094 net.cpp:156] Memory required for data: 977814816
I0403 19:57:03.329707 10094 layer_factory.hpp:77] Creating layer inception_4b/pool_proj
I0403 19:57:03.329735 10094 net.cpp:91] Creating Layer inception_4b/pool_proj
I0403 19:57:03.329756 10094 net.cpp:425] inception_4b/pool_proj <- inception_4b/pool
I0403 19:57:03.329778 10094 net.cpp:399] inception_4b/pool_proj -> inception_4b/pool_proj
I0403 19:57:03.331253 10094 net.cpp:141] Setting up inception_4b/pool_proj
I0403 19:57:03.331291 10094 net.cpp:148] Top shape: 24 64 14 14 (301056)
I0403 19:57:03.331310 10094 net.cpp:156] Memory required for data: 979019040
I0403 19:57:03.331333 10094 layer_factory.hpp:77] Creating layer inception_4b/relu_pool_proj
I0403 19:57:03.331358 10094 net.cpp:91] Creating Layer inception_4b/relu_pool_proj
I0403 19:57:03.331387 10094 net.cpp:425] inception_4b/relu_pool_proj <- inception_4b/pool_proj
I0403 19:57:03.331408 10094 net.cpp:386] inception_4b/relu_pool_proj -> inception_4b/pool_proj (in-place)
I0403 19:57:03.331626 10094 net.cpp:141] Setting up inception_4b/relu_pool_proj
I0403 19:57:03.331660 10094 net.cpp:148] Top shape: 24 64 14 14 (301056)
I0403 19:57:03.331678 10094 net.cpp:156] Memory required for data: 980223264
I0403 19:57:03.331696 10094 layer_factory.hpp:77] Creating layer inception_4b/output
I0403 19:57:03.331717 10094 net.cpp:91] Creating Layer inception_4b/output
I0403 19:57:03.331737 10094 net.cpp:425] inception_4b/output <- inception_4b/1x1
I0403 19:57:03.331756 10094 net.cpp:425] inception_4b/output <- inception_4b/3x3
I0403 19:57:03.331775 10094 net.cpp:425] inception_4b/output <- inception_4b/5x5
I0403 19:57:03.331794 10094 net.cpp:425] inception_4b/output <- inception_4b/pool_proj
I0403 19:57:03.331815 10094 net.cpp:399] inception_4b/output -> inception_4b/output
I0403 19:57:03.331872 10094 net.cpp:141] Setting up inception_4b/output
I0403 19:57:03.331900 10094 net.cpp:148] Top shape: 24 512 14 14 (2408448)
I0403 19:57:03.331918 10094 net.cpp:156] Memory required for data: 989857056
I0403 19:57:03.331953 10094 layer_factory.hpp:77] Creating layer inception_4b/output_inception_4b/output_0_split
I0403 19:57:03.331976 10094 net.cpp:91] Creating Layer inception_4b/output_inception_4b/output_0_split
I0403 19:57:03.331996 10094 net.cpp:425] inception_4b/output_inception_4b/output_0_split <- inception_4b/output
I0403 19:57:03.332017 10094 net.cpp:399] inception_4b/output_inception_4b/output_0_split -> inception_4b/output_inception_4b/output_0_split_0
I0403 19:57:03.332042 10094 net.cpp:399] inception_4b/output_inception_4b/output_0_split -> inception_4b/output_inception_4b/output_0_split_1
I0403 19:57:03.332067 10094 net.cpp:399] inception_4b/output_inception_4b/output_0_split -> inception_4b/output_inception_4b/output_0_split_2
I0403 19:57:03.332093 10094 net.cpp:399] inception_4b/output_inception_4b/output_0_split -> inception_4b/output_inception_4b/output_0_split_3
I0403 19:57:03.332203 10094 net.cpp:141] Setting up inception_4b/output_inception_4b/output_0_split
I0403 19:57:03.332232 10094 net.cpp:148] Top shape: 24 512 14 14 (2408448)
I0403 19:57:03.332252 10094 net.cpp:148] Top shape: 24 512 14 14 (2408448)
I0403 19:57:03.332283 10094 net.cpp:148] Top shape: 24 512 14 14 (2408448)
I0403 19:57:03.332309 10094 net.cpp:148] Top shape: 24 512 14 14 (2408448)
I0403 19:57:03.332325 10094 net.cpp:156] Memory required for data: 1028392224
I0403 19:57:03.332342 10094 layer_factory.hpp:77] Creating layer inception_4c/1x1
I0403 19:57:03.332370 10094 net.cpp:91] Creating Layer inception_4c/1x1
I0403 19:57:03.332391 10094 net.cpp:425] inception_4c/1x1 <- inception_4b/output_inception_4b/output_0_split_0
I0403 19:57:03.332417 10094 net.cpp:399] inception_4c/1x1 -> inception_4c/1x1
I0403 19:57:03.334173 10094 net.cpp:141] Setting up inception_4c/1x1
I0403 19:57:03.334211 10094 net.cpp:148] Top shape: 24 128 14 14 (602112)
I0403 19:57:03.334230 10094 net.cpp:156] Memory required for data: 1030800672
I0403 19:57:03.334254 10094 layer_factory.hpp:77] Creating layer inception_4c/relu_1x1
I0403 19:57:03.334280 10094 net.cpp:91] Creating Layer inception_4c/relu_1x1
I0403 19:57:03.334300 10094 net.cpp:425] inception_4c/relu_1x1 <- inception_4c/1x1
I0403 19:57:03.334321 10094 net.cpp:386] inception_4c/relu_1x1 -> inception_4c/1x1 (in-place)
I0403 19:57:03.334547 10094 net.cpp:141] Setting up inception_4c/relu_1x1
I0403 19:57:03.334576 10094 net.cpp:148] Top shape: 24 128 14 14 (602112)
I0403 19:57:03.334594 10094 net.cpp:156] Memory required for data: 1033209120
I0403 19:57:03.334611 10094 layer_factory.hpp:77] Creating layer inception_4c/3x3_reduce
I0403 19:57:03.334638 10094 net.cpp:91] Creating Layer inception_4c/3x3_reduce
I0403 19:57:03.334659 10094 net.cpp:425] inception_4c/3x3_reduce <- inception_4b/output_inception_4b/output_0_split_1
I0403 19:57:03.334688 10094 net.cpp:399] inception_4c/3x3_reduce -> inception_4c/3x3_reduce
I0403 19:57:03.337043 10094 net.cpp:141] Setting up inception_4c/3x3_reduce
I0403 19:57:03.337077 10094 net.cpp:148] Top shape: 24 128 14 14 (602112)
I0403 19:57:03.337096 10094 net.cpp:156] Memory required for data: 1035617568
I0403 19:57:03.337119 10094 layer_factory.hpp:77] Creating layer inception_4c/relu_3x3_reduce
I0403 19:57:03.337143 10094 net.cpp:91] Creating Layer inception_4c/relu_3x3_reduce
I0403 19:57:03.337164 10094 net.cpp:425] inception_4c/relu_3x3_reduce <- inception_4c/3x3_reduce
I0403 19:57:03.337185 10094 net.cpp:386] inception_4c/relu_3x3_reduce -> inception_4c/3x3_reduce (in-place)
I0403 19:57:03.337538 10094 net.cpp:141] Setting up inception_4c/relu_3x3_reduce
I0403 19:57:03.337569 10094 net.cpp:148] Top shape: 24 128 14 14 (602112)
I0403 19:57:03.337587 10094 net.cpp:156] Memory required for data: 1038026016
I0403 19:57:03.337605 10094 layer_factory.hpp:77] Creating layer inception_4c/3x3
I0403 19:57:03.337632 10094 net.cpp:91] Creating Layer inception_4c/3x3
I0403 19:57:03.337654 10094 net.cpp:425] inception_4c/3x3 <- inception_4c/3x3_reduce
I0403 19:57:03.337682 10094 net.cpp:399] inception_4c/3x3 -> inception_4c/3x3
I0403 19:57:03.342037 10094 net.cpp:141] Setting up inception_4c/3x3
I0403 19:57:03.342090 10094 net.cpp:148] Top shape: 24 256 14 14 (1204224)
I0403 19:57:03.342110 10094 net.cpp:156] Memory required for data: 1042842912
I0403 19:57:03.342147 10094 layer_factory.hpp:77] Creating layer inception_4c/relu_3x3
I0403 19:57:03.342175 10094 net.cpp:91] Creating Layer inception_4c/relu_3x3
I0403 19:57:03.342195 10094 net.cpp:425] inception_4c/relu_3x3 <- inception_4c/3x3
I0403 19:57:03.342216 10094 net.cpp:386] inception_4c/relu_3x3 -> inception_4c/3x3 (in-place)
I0403 19:57:03.342447 10094 net.cpp:141] Setting up inception_4c/relu_3x3
I0403 19:57:03.342478 10094 net.cpp:148] Top shape: 24 256 14 14 (1204224)
I0403 19:57:03.342495 10094 net.cpp:156] Memory required for data: 1047659808
I0403 19:57:03.342514 10094 layer_factory.hpp:77] Creating layer inception_4c/5x5_reduce
I0403 19:57:03.342540 10094 net.cpp:91] Creating Layer inception_4c/5x5_reduce
I0403 19:57:03.342562 10094 net.cpp:425] inception_4c/5x5_reduce <- inception_4b/output_inception_4b/output_0_split_2
I0403 19:57:03.342587 10094 net.cpp:399] inception_4c/5x5_reduce -> inception_4c/5x5_reduce
I0403 19:57:03.343940 10094 net.cpp:141] Setting up inception_4c/5x5_reduce
I0403 19:57:03.343976 10094 net.cpp:148] Top shape: 24 24 14 14 (112896)
I0403 19:57:03.343994 10094 net.cpp:156] Memory required for data: 1048111392
I0403 19:57:03.344017 10094 layer_factory.hpp:77] Creating layer inception_4c/relu_5x5_reduce
I0403 19:57:03.344041 10094 net.cpp:91] Creating Layer inception_4c/relu_5x5_reduce
I0403 19:57:03.344063 10094 net.cpp:425] inception_4c/relu_5x5_reduce <- inception_4c/5x5_reduce
I0403 19:57:03.344084 10094 net.cpp:386] inception_4c/relu_5x5_reduce -> inception_4c/5x5_reduce (in-place)
I0403 19:57:03.344318 10094 net.cpp:141] Setting up inception_4c/relu_5x5_reduce
I0403 19:57:03.344348 10094 net.cpp:148] Top shape: 24 24 14 14 (112896)
I0403 19:57:03.344367 10094 net.cpp:156] Memory required for data: 1048562976
I0403 19:57:03.344384 10094 layer_factory.hpp:77] Creating layer inception_4c/5x5
I0403 19:57:03.344413 10094 net.cpp:91] Creating Layer inception_4c/5x5
I0403 19:57:03.344434 10094 net.cpp:425] inception_4c/5x5 <- inception_4c/5x5_reduce
I0403 19:57:03.344457 10094 net.cpp:399] inception_4c/5x5 -> inception_4c/5x5
I0403 19:57:03.345984 10094 net.cpp:141] Setting up inception_4c/5x5
I0403 19:57:03.346020 10094 net.cpp:148] Top shape: 24 64 14 14 (301056)
I0403 19:57:03.346041 10094 net.cpp:156] Memory required for data: 1049767200
I0403 19:57:03.346063 10094 layer_factory.hpp:77] Creating layer inception_4c/relu_5x5
I0403 19:57:03.346086 10094 net.cpp:91] Creating Layer inception_4c/relu_5x5
I0403 19:57:03.346106 10094 net.cpp:425] inception_4c/relu_5x5 <- inception_4c/5x5
I0403 19:57:03.346125 10094 net.cpp:386] inception_4c/relu_5x5 -> inception_4c/5x5 (in-place)
I0403 19:57:03.346493 10094 net.cpp:141] Setting up inception_4c/relu_5x5
I0403 19:57:03.346529 10094 net.cpp:148] Top shape: 24 64 14 14 (301056)
I0403 19:57:03.346552 10094 net.cpp:156] Memory required for data: 1050971424
I0403 19:57:03.346570 10094 layer_factory.hpp:77] Creating layer inception_4c/pool
I0403 19:57:03.346592 10094 net.cpp:91] Creating Layer inception_4c/pool
I0403 19:57:03.346612 10094 net.cpp:425] inception_4c/pool <- inception_4b/output_inception_4b/output_0_split_3
I0403 19:57:03.346633 10094 net.cpp:399] inception_4c/pool -> inception_4c/pool
I0403 19:57:03.346714 10094 net.cpp:141] Setting up inception_4c/pool
I0403 19:57:03.346743 10094 net.cpp:148] Top shape: 24 512 14 14 (2408448)
I0403 19:57:03.346761 10094 net.cpp:156] Memory required for data: 1060605216
I0403 19:57:03.346779 10094 layer_factory.hpp:77] Creating layer inception_4c/pool_proj
I0403 19:57:03.346806 10094 net.cpp:91] Creating Layer inception_4c/pool_proj
I0403 19:57:03.346828 10094 net.cpp:425] inception_4c/pool_proj <- inception_4c/pool
I0403 19:57:03.346854 10094 net.cpp:399] inception_4c/pool_proj -> inception_4c/pool_proj
I0403 19:57:03.348367 10094 net.cpp:141] Setting up inception_4c/pool_proj
I0403 19:57:03.348402 10094 net.cpp:148] Top shape: 24 64 14 14 (301056)
I0403 19:57:03.348438 10094 net.cpp:156] Memory required for data: 1061809440
I0403 19:57:03.348461 10094 layer_factory.hpp:77] Creating layer inception_4c/relu_pool_proj
I0403 19:57:03.348487 10094 net.cpp:91] Creating Layer inception_4c/relu_pool_proj
I0403 19:57:03.348510 10094 net.cpp:425] inception_4c/relu_pool_proj <- inception_4c/pool_proj
I0403 19:57:03.348531 10094 net.cpp:386] inception_4c/relu_pool_proj -> inception_4c/pool_proj (in-place)
I0403 19:57:03.348755 10094 net.cpp:141] Setting up inception_4c/relu_pool_proj
I0403 19:57:03.348788 10094 net.cpp:148] Top shape: 24 64 14 14 (301056)
I0403 19:57:03.348806 10094 net.cpp:156] Memory required for data: 1063013664
I0403 19:57:03.348825 10094 layer_factory.hpp:77] Creating layer inception_4c/output
I0403 19:57:03.348846 10094 net.cpp:91] Creating Layer inception_4c/output
I0403 19:57:03.348866 10094 net.cpp:425] inception_4c/output <- inception_4c/1x1
I0403 19:57:03.348886 10094 net.cpp:425] inception_4c/output <- inception_4c/3x3
I0403 19:57:03.348906 10094 net.cpp:425] inception_4c/output <- inception_4c/5x5
I0403 19:57:03.348924 10094 net.cpp:425] inception_4c/output <- inception_4c/pool_proj
I0403 19:57:03.348944 10094 net.cpp:399] inception_4c/output -> inception_4c/output
I0403 19:57:03.349004 10094 net.cpp:141] Setting up inception_4c/output
I0403 19:57:03.349031 10094 net.cpp:148] Top shape: 24 512 14 14 (2408448)
I0403 19:57:03.349048 10094 net.cpp:156] Memory required for data: 1072647456
I0403 19:57:03.349066 10094 layer_factory.hpp:77] Creating layer inception_4c/output_inception_4c/output_0_split
I0403 19:57:03.349086 10094 net.cpp:91] Creating Layer inception_4c/output_inception_4c/output_0_split
I0403 19:57:03.349109 10094 net.cpp:425] inception_4c/output_inception_4c/output_0_split <- inception_4c/output
I0403 19:57:03.349131 10094 net.cpp:399] inception_4c/output_inception_4c/output_0_split -> inception_4c/output_inception_4c/output_0_split_0
I0403 19:57:03.349155 10094 net.cpp:399] inception_4c/output_inception_4c/output_0_split -> inception_4c/output_inception_4c/output_0_split_1
I0403 19:57:03.349180 10094 net.cpp:399] inception_4c/output_inception_4c/output_0_split -> inception_4c/output_inception_4c/output_0_split_2
I0403 19:57:03.349205 10094 net.cpp:399] inception_4c/output_inception_4c/output_0_split -> inception_4c/output_inception_4c/output_0_split_3
I0403 19:57:03.349316 10094 net.cpp:141] Setting up inception_4c/output_inception_4c/output_0_split
I0403 19:57:03.349344 10094 net.cpp:148] Top shape: 24 512 14 14 (2408448)
I0403 19:57:03.349364 10094 net.cpp:148] Top shape: 24 512 14 14 (2408448)
I0403 19:57:03.349383 10094 net.cpp:148] Top shape: 24 512 14 14 (2408448)
I0403 19:57:03.349402 10094 net.cpp:148] Top shape: 24 512 14 14 (2408448)
I0403 19:57:03.349419 10094 net.cpp:156] Memory required for data: 1111182624
I0403 19:57:03.349437 10094 layer_factory.hpp:77] Creating layer inception_4d/1x1
I0403 19:57:03.349465 10094 net.cpp:91] Creating Layer inception_4d/1x1
I0403 19:57:03.349488 10094 net.cpp:425] inception_4d/1x1 <- inception_4c/output_inception_4c/output_0_split_0
I0403 19:57:03.349514 10094 net.cpp:399] inception_4d/1x1 -> inception_4d/1x1
I0403 19:57:03.351208 10094 net.cpp:141] Setting up inception_4d/1x1
I0403 19:57:03.351243 10094 net.cpp:148] Top shape: 24 112 14 14 (526848)
I0403 19:57:03.351261 10094 net.cpp:156] Memory required for data: 1113290016
I0403 19:57:03.351290 10094 layer_factory.hpp:77] Creating layer inception_4d/relu_1x1
I0403 19:57:03.351315 10094 net.cpp:91] Creating Layer inception_4d/relu_1x1
I0403 19:57:03.351335 10094 net.cpp:425] inception_4d/relu_1x1 <- inception_4d/1x1
I0403 19:57:03.351358 10094 net.cpp:386] inception_4d/relu_1x1 -> inception_4d/1x1 (in-place)
I0403 19:57:03.351586 10094 net.cpp:141] Setting up inception_4d/relu_1x1
I0403 19:57:03.351615 10094 net.cpp:148] Top shape: 24 112 14 14 (526848)
I0403 19:57:03.351634 10094 net.cpp:156] Memory required for data: 1115397408
I0403 19:57:03.351651 10094 layer_factory.hpp:77] Creating layer inception_4d/3x3_reduce
I0403 19:57:03.351696 10094 net.cpp:91] Creating Layer inception_4d/3x3_reduce
I0403 19:57:03.351719 10094 net.cpp:425] inception_4d/3x3_reduce <- inception_4c/output_inception_4c/output_0_split_1
I0403 19:57:03.351745 10094 net.cpp:399] inception_4d/3x3_reduce -> inception_4d/3x3_reduce
I0403 19:57:03.353615 10094 net.cpp:141] Setting up inception_4d/3x3_reduce
I0403 19:57:03.353655 10094 net.cpp:148] Top shape: 24 144 14 14 (677376)
I0403 19:57:03.353678 10094 net.cpp:156] Memory required for data: 1118106912
I0403 19:57:03.353703 10094 layer_factory.hpp:77] Creating layer inception_4d/relu_3x3_reduce
I0403 19:57:03.353725 10094 net.cpp:91] Creating Layer inception_4d/relu_3x3_reduce
I0403 19:57:03.353747 10094 net.cpp:425] inception_4d/relu_3x3_reduce <- inception_4d/3x3_reduce
I0403 19:57:03.353772 10094 net.cpp:386] inception_4d/relu_3x3_reduce -> inception_4d/3x3_reduce (in-place)
I0403 19:57:03.354126 10094 net.cpp:141] Setting up inception_4d/relu_3x3_reduce
I0403 19:57:03.354161 10094 net.cpp:148] Top shape: 24 144 14 14 (677376)
I0403 19:57:03.354181 10094 net.cpp:156] Memory required for data: 1120816416
I0403 19:57:03.354198 10094 layer_factory.hpp:77] Creating layer inception_4d/3x3
I0403 19:57:03.354225 10094 net.cpp:91] Creating Layer inception_4d/3x3
I0403 19:57:03.354246 10094 net.cpp:425] inception_4d/3x3 <- inception_4d/3x3_reduce
I0403 19:57:03.354269 10094 net.cpp:399] inception_4d/3x3 -> inception_4d/3x3
I0403 19:57:03.359542 10094 net.cpp:141] Setting up inception_4d/3x3
I0403 19:57:03.359577 10094 net.cpp:148] Top shape: 24 288 14 14 (1354752)
I0403 19:57:03.359596 10094 net.cpp:156] Memory required for data: 1126235424
I0403 19:57:03.359619 10094 layer_factory.hpp:77] Creating layer inception_4d/relu_3x3
I0403 19:57:03.359642 10094 net.cpp:91] Creating Layer inception_4d/relu_3x3
I0403 19:57:03.359660 10094 net.cpp:425] inception_4d/relu_3x3 <- inception_4d/3x3
I0403 19:57:03.359685 10094 net.cpp:386] inception_4d/relu_3x3 -> inception_4d/3x3 (in-place)
I0403 19:57:03.359915 10094 net.cpp:141] Setting up inception_4d/relu_3x3
I0403 19:57:03.359946 10094 net.cpp:148] Top shape: 24 288 14 14 (1354752)
I0403 19:57:03.359962 10094 net.cpp:156] Memory required for data: 1131654432
I0403 19:57:03.359980 10094 layer_factory.hpp:77] Creating layer inception_4d/5x5_reduce
I0403 19:57:03.360007 10094 net.cpp:91] Creating Layer inception_4d/5x5_reduce
I0403 19:57:03.360028 10094 net.cpp:425] inception_4d/5x5_reduce <- inception_4c/output_inception_4c/output_0_split_2
I0403 19:57:03.360054 10094 net.cpp:399] inception_4d/5x5_reduce -> inception_4d/5x5_reduce
I0403 19:57:03.361477 10094 net.cpp:141] Setting up inception_4d/5x5_reduce
I0403 19:57:03.361511 10094 net.cpp:148] Top shape: 24 32 14 14 (150528)
I0403 19:57:03.361531 10094 net.cpp:156] Memory required for data: 1132256544
I0403 19:57:03.361552 10094 layer_factory.hpp:77] Creating layer inception_4d/relu_5x5_reduce
I0403 19:57:03.361573 10094 net.cpp:91] Creating Layer inception_4d/relu_5x5_reduce
I0403 19:57:03.361593 10094 net.cpp:425] inception_4d/relu_5x5_reduce <- inception_4d/5x5_reduce
I0403 19:57:03.361616 10094 net.cpp:386] inception_4d/relu_5x5_reduce -> inception_4d/5x5_reduce (in-place)
I0403 19:57:03.361853 10094 net.cpp:141] Setting up inception_4d/relu_5x5_reduce
I0403 19:57:03.361883 10094 net.cpp:148] Top shape: 24 32 14 14 (150528)
I0403 19:57:03.361901 10094 net.cpp:156] Memory required for data: 1132858656
I0403 19:57:03.361918 10094 layer_factory.hpp:77] Creating layer inception_4d/5x5
I0403 19:57:03.361945 10094 net.cpp:91] Creating Layer inception_4d/5x5
I0403 19:57:03.361968 10094 net.cpp:425] inception_4d/5x5 <- inception_4d/5x5_reduce
I0403 19:57:03.361996 10094 net.cpp:399] inception_4d/5x5 -> inception_4d/5x5
I0403 19:57:03.363791 10094 net.cpp:141] Setting up inception_4d/5x5
I0403 19:57:03.363826 10094 net.cpp:148] Top shape: 24 64 14 14 (301056)
I0403 19:57:03.363844 10094 net.cpp:156] Memory required for data: 1134062880
I0403 19:57:03.363868 10094 layer_factory.hpp:77] Creating layer inception_4d/relu_5x5
I0403 19:57:03.363910 10094 net.cpp:91] Creating Layer inception_4d/relu_5x5
I0403 19:57:03.363932 10094 net.cpp:425] inception_4d/relu_5x5 <- inception_4d/5x5
I0403 19:57:03.363953 10094 net.cpp:386] inception_4d/relu_5x5 -> inception_4d/5x5 (in-place)
I0403 19:57:03.364323 10094 net.cpp:141] Setting up inception_4d/relu_5x5
I0403 19:57:03.364356 10094 net.cpp:148] Top shape: 24 64 14 14 (301056)
I0403 19:57:03.364374 10094 net.cpp:156] Memory required for data: 1135267104
I0403 19:57:03.364392 10094 layer_factory.hpp:77] Creating layer inception_4d/pool
I0403 19:57:03.364415 10094 net.cpp:91] Creating Layer inception_4d/pool
I0403 19:57:03.364436 10094 net.cpp:425] inception_4d/pool <- inception_4c/output_inception_4c/output_0_split_3
I0403 19:57:03.364459 10094 net.cpp:399] inception_4d/pool -> inception_4d/pool
I0403 19:57:03.364542 10094 net.cpp:141] Setting up inception_4d/pool
I0403 19:57:03.364570 10094 net.cpp:148] Top shape: 24 512 14 14 (2408448)
I0403 19:57:03.364588 10094 net.cpp:156] Memory required for data: 1144900896
I0403 19:57:03.364605 10094 layer_factory.hpp:77] Creating layer inception_4d/pool_proj
I0403 19:57:03.364632 10094 net.cpp:91] Creating Layer inception_4d/pool_proj
I0403 19:57:03.364653 10094 net.cpp:425] inception_4d/pool_proj <- inception_4d/pool
I0403 19:57:03.364680 10094 net.cpp:399] inception_4d/pool_proj -> inception_4d/pool_proj
I0403 19:57:03.366811 10094 net.cpp:141] Setting up inception_4d/pool_proj
I0403 19:57:03.366847 10094 net.cpp:148] Top shape: 24 64 14 14 (301056)
I0403 19:57:03.366865 10094 net.cpp:156] Memory required for data: 1146105120
I0403 19:57:03.366888 10094 layer_factory.hpp:77] Creating layer inception_4d/relu_pool_proj
I0403 19:57:03.366909 10094 net.cpp:91] Creating Layer inception_4d/relu_pool_proj
I0403 19:57:03.366930 10094 net.cpp:425] inception_4d/relu_pool_proj <- inception_4d/pool_proj
I0403 19:57:03.366952 10094 net.cpp:386] inception_4d/relu_pool_proj -> inception_4d/pool_proj (in-place)
I0403 19:57:03.367180 10094 net.cpp:141] Setting up inception_4d/relu_pool_proj
I0403 19:57:03.367210 10094 net.cpp:148] Top shape: 24 64 14 14 (301056)
I0403 19:57:03.367228 10094 net.cpp:156] Memory required for data: 1147309344
I0403 19:57:03.367245 10094 layer_factory.hpp:77] Creating layer inception_4d/output
I0403 19:57:03.367266 10094 net.cpp:91] Creating Layer inception_4d/output
I0403 19:57:03.367290 10094 net.cpp:425] inception_4d/output <- inception_4d/1x1
I0403 19:57:03.367314 10094 net.cpp:425] inception_4d/output <- inception_4d/3x3
I0403 19:57:03.367336 10094 net.cpp:425] inception_4d/output <- inception_4d/5x5
I0403 19:57:03.367355 10094 net.cpp:425] inception_4d/output <- inception_4d/pool_proj
I0403 19:57:03.367377 10094 net.cpp:399] inception_4d/output -> inception_4d/output
I0403 19:57:03.367435 10094 net.cpp:141] Setting up inception_4d/output
I0403 19:57:03.367463 10094 net.cpp:148] Top shape: 24 528 14 14 (2483712)
I0403 19:57:03.367480 10094 net.cpp:156] Memory required for data: 1157244192
I0403 19:57:03.367498 10094 layer_factory.hpp:77] Creating layer inception_4d/output_inception_4d/output_0_split
I0403 19:57:03.367519 10094 net.cpp:91] Creating Layer inception_4d/output_inception_4d/output_0_split
I0403 19:57:03.367538 10094 net.cpp:425] inception_4d/output_inception_4d/output_0_split <- inception_4d/output
I0403 19:57:03.367563 10094 net.cpp:399] inception_4d/output_inception_4d/output_0_split -> inception_4d/output_inception_4d/output_0_split_0
I0403 19:57:03.367588 10094 net.cpp:399] inception_4d/output_inception_4d/output_0_split -> inception_4d/output_inception_4d/output_0_split_1
I0403 19:57:03.367614 10094 net.cpp:399] inception_4d/output_inception_4d/output_0_split -> inception_4d/output_inception_4d/output_0_split_2
I0403 19:57:03.367638 10094 net.cpp:399] inception_4d/output_inception_4d/output_0_split -> inception_4d/output_inception_4d/output_0_split_3
I0403 19:57:03.367662 10094 net.cpp:399] inception_4d/output_inception_4d/output_0_split -> inception_4d/output_inception_4d/output_0_split_4
I0403 19:57:03.367790 10094 net.cpp:141] Setting up inception_4d/output_inception_4d/output_0_split
I0403 19:57:03.367833 10094 net.cpp:148] Top shape: 24 528 14 14 (2483712)
I0403 19:57:03.367854 10094 net.cpp:148] Top shape: 24 528 14 14 (2483712)
I0403 19:57:03.367873 10094 net.cpp:148] Top shape: 24 528 14 14 (2483712)
I0403 19:57:03.367892 10094 net.cpp:148] Top shape: 24 528 14 14 (2483712)
I0403 19:57:03.367911 10094 net.cpp:148] Top shape: 24 528 14 14 (2483712)
I0403 19:57:03.367928 10094 net.cpp:156] Memory required for data: 1206918432
I0403 19:57:03.367946 10094 layer_factory.hpp:77] Creating layer loss2/ave_pool
I0403 19:57:03.367967 10094 net.cpp:91] Creating Layer loss2/ave_pool
I0403 19:57:03.367986 10094 net.cpp:425] loss2/ave_pool <- inception_4d/output_inception_4d/output_0_split_0
I0403 19:57:03.368011 10094 net.cpp:399] loss2/ave_pool -> loss2/ave_pool
I0403 19:57:03.368396 10094 net.cpp:141] Setting up loss2/ave_pool
I0403 19:57:03.368428 10094 net.cpp:148] Top shape: 24 528 4 4 (202752)
I0403 19:57:03.368446 10094 net.cpp:156] Memory required for data: 1207729440
I0403 19:57:03.368466 10094 layer_factory.hpp:77] Creating layer loss2/conv
I0403 19:57:03.368492 10094 net.cpp:91] Creating Layer loss2/conv
I0403 19:57:03.368513 10094 net.cpp:425] loss2/conv <- loss2/ave_pool
I0403 19:57:03.368540 10094 net.cpp:399] loss2/conv -> loss2/conv
I0403 19:57:03.370844 10094 net.cpp:141] Setting up loss2/conv
I0403 19:57:03.370878 10094 net.cpp:148] Top shape: 24 128 4 4 (49152)
I0403 19:57:03.370898 10094 net.cpp:156] Memory required for data: 1207926048
I0403 19:57:03.370921 10094 layer_factory.hpp:77] Creating layer loss2/relu_conv
I0403 19:57:03.370947 10094 net.cpp:91] Creating Layer loss2/relu_conv
I0403 19:57:03.370968 10094 net.cpp:425] loss2/relu_conv <- loss2/conv
I0403 19:57:03.370990 10094 net.cpp:386] loss2/relu_conv -> loss2/conv (in-place)
I0403 19:57:03.371340 10094 net.cpp:141] Setting up loss2/relu_conv
I0403 19:57:03.371372 10094 net.cpp:148] Top shape: 24 128 4 4 (49152)
I0403 19:57:03.371390 10094 net.cpp:156] Memory required for data: 1208122656
I0403 19:57:03.371408 10094 layer_factory.hpp:77] Creating layer loss2/fc
I0403 19:57:03.371434 10094 net.cpp:91] Creating Layer loss2/fc
I0403 19:57:03.371454 10094 net.cpp:425] loss2/fc <- loss2/conv
I0403 19:57:03.371480 10094 net.cpp:399] loss2/fc -> loss2/fc
I0403 19:57:03.393517 10094 net.cpp:141] Setting up loss2/fc
I0403 19:57:03.393554 10094 net.cpp:148] Top shape: 24 1024 (24576)
I0403 19:57:03.393573 10094 net.cpp:156] Memory required for data: 1208220960
I0403 19:57:03.393600 10094 layer_factory.hpp:77] Creating layer loss2/relu_fc
I0403 19:57:03.393621 10094 net.cpp:91] Creating Layer loss2/relu_fc
I0403 19:57:03.393641 10094 net.cpp:425] loss2/relu_fc <- loss2/fc
I0403 19:57:03.393666 10094 net.cpp:386] loss2/relu_fc -> loss2/fc (in-place)
I0403 19:57:03.394023 10094 net.cpp:141] Setting up loss2/relu_fc
I0403 19:57:03.394055 10094 net.cpp:148] Top shape: 24 1024 (24576)
I0403 19:57:03.394073 10094 net.cpp:156] Memory required for data: 1208319264
I0403 19:57:03.394091 10094 layer_factory.hpp:77] Creating layer loss2/drop_fc
I0403 19:57:03.394112 10094 net.cpp:91] Creating Layer loss2/drop_fc
I0403 19:57:03.394131 10094 net.cpp:425] loss2/drop_fc <- loss2/fc
I0403 19:57:03.394160 10094 net.cpp:386] loss2/drop_fc -> loss2/fc (in-place)
I0403 19:57:03.394219 10094 net.cpp:141] Setting up loss2/drop_fc
I0403 19:57:03.394249 10094 net.cpp:148] Top shape: 24 1024 (24576)
I0403 19:57:03.394268 10094 net.cpp:156] Memory required for data: 1208417568
I0403 19:57:03.394291 10094 layer_factory.hpp:77] Creating layer loss2/classifier_plantvillage
I0403 19:57:03.394315 10094 net.cpp:91] Creating Layer loss2/classifier_plantvillage
I0403 19:57:03.394333 10094 net.cpp:425] loss2/classifier_plantvillage <- loss2/fc
I0403 19:57:03.394359 10094 net.cpp:399] loss2/classifier_plantvillage -> loss2/classifier_plantvillage
I0403 19:57:03.394855 10094 net.cpp:141] Setting up loss2/classifier_plantvillage
I0403 19:57:03.394884 10094 net.cpp:148] Top shape: 24 38 (912)
I0403 19:57:03.394902 10094 net.cpp:156] Memory required for data: 1208421216
I0403 19:57:03.394943 10094 layer_factory.hpp:77] Creating layer loss2/classifier_plantvillage_loss2/classifier_plantvillage_0_split
I0403 19:57:03.394968 10094 net.cpp:91] Creating Layer loss2/classifier_plantvillage_loss2/classifier_plantvillage_0_split
I0403 19:57:03.394989 10094 net.cpp:425] loss2/classifier_plantvillage_loss2/classifier_plantvillage_0_split <- loss2/classifier_plantvillage
I0403 19:57:03.395010 10094 net.cpp:399] loss2/classifier_plantvillage_loss2/classifier_plantvillage_0_split -> loss2/classifier_plantvillage_loss2/classifier_plantvillage_0_split_0
I0403 19:57:03.395037 10094 net.cpp:399] loss2/classifier_plantvillage_loss2/classifier_plantvillage_0_split -> loss2/classifier_plantvillage_loss2/classifier_plantvillage_0_split_1
I0403 19:57:03.395064 10094 net.cpp:399] loss2/classifier_plantvillage_loss2/classifier_plantvillage_0_split -> loss2/classifier_plantvillage_loss2/classifier_plantvillage_0_split_2
I0403 19:57:03.395159 10094 net.cpp:141] Setting up loss2/classifier_plantvillage_loss2/classifier_plantvillage_0_split
I0403 19:57:03.395186 10094 net.cpp:148] Top shape: 24 38 (912)
I0403 19:57:03.395206 10094 net.cpp:148] Top shape: 24 38 (912)
I0403 19:57:03.395226 10094 net.cpp:148] Top shape: 24 38 (912)
I0403 19:57:03.395241 10094 net.cpp:156] Memory required for data: 1208432160
I0403 19:57:03.395259 10094 layer_factory.hpp:77] Creating layer inception_4e/1x1
I0403 19:57:03.395292 10094 net.cpp:91] Creating Layer inception_4e/1x1
I0403 19:57:03.395314 10094 net.cpp:425] inception_4e/1x1 <- inception_4d/output_inception_4d/output_0_split_1
I0403 19:57:03.395336 10094 net.cpp:399] inception_4e/1x1 -> inception_4e/1x1
I0403 19:57:03.397574 10094 net.cpp:141] Setting up inception_4e/1x1
I0403 19:57:03.397611 10094 net.cpp:148] Top shape: 24 256 14 14 (1204224)
I0403 19:57:03.397630 10094 net.cpp:156] Memory required for data: 1213249056
I0403 19:57:03.397653 10094 layer_factory.hpp:77] Creating layer inception_4e/relu_1x1
I0403 19:57:03.397675 10094 net.cpp:91] Creating Layer inception_4e/relu_1x1
I0403 19:57:03.397694 10094 net.cpp:425] inception_4e/relu_1x1 <- inception_4e/1x1
I0403 19:57:03.397716 10094 net.cpp:386] inception_4e/relu_1x1 -> inception_4e/1x1 (in-place)
I0403 19:57:03.398073 10094 net.cpp:141] Setting up inception_4e/relu_1x1
I0403 19:57:03.398108 10094 net.cpp:148] Top shape: 24 256 14 14 (1204224)
I0403 19:57:03.398126 10094 net.cpp:156] Memory required for data: 1218065952
I0403 19:57:03.398144 10094 layer_factory.hpp:77] Creating layer inception_4e/3x3_reduce
I0403 19:57:03.398169 10094 net.cpp:91] Creating Layer inception_4e/3x3_reduce
I0403 19:57:03.398188 10094 net.cpp:425] inception_4e/3x3_reduce <- inception_4d/output_inception_4d/output_0_split_2
I0403 19:57:03.398216 10094 net.cpp:399] inception_4e/3x3_reduce -> inception_4e/3x3_reduce
I0403 19:57:03.400797 10094 net.cpp:141] Setting up inception_4e/3x3_reduce
I0403 19:57:03.400831 10094 net.cpp:148] Top shape: 24 160 14 14 (752640)
I0403 19:57:03.400851 10094 net.cpp:156] Memory required for data: 1221076512
I0403 19:57:03.400872 10094 layer_factory.hpp:77] Creating layer inception_4e/relu_3x3_reduce
I0403 19:57:03.400897 10094 net.cpp:91] Creating Layer inception_4e/relu_3x3_reduce
I0403 19:57:03.400918 10094 net.cpp:425] inception_4e/relu_3x3_reduce <- inception_4e/3x3_reduce
I0403 19:57:03.400938 10094 net.cpp:386] inception_4e/relu_3x3_reduce -> inception_4e/3x3_reduce (in-place)
I0403 19:57:03.401170 10094 net.cpp:141] Setting up inception_4e/relu_3x3_reduce
I0403 19:57:03.401202 10094 net.cpp:148] Top shape: 24 160 14 14 (752640)
I0403 19:57:03.401221 10094 net.cpp:156] Memory required for data: 1224087072
I0403 19:57:03.401239 10094 layer_factory.hpp:77] Creating layer inception_4e/3x3
I0403 19:57:03.401265 10094 net.cpp:91] Creating Layer inception_4e/3x3
I0403 19:57:03.401293 10094 net.cpp:425] inception_4e/3x3 <- inception_4e/3x3_reduce
I0403 19:57:03.401315 10094 net.cpp:399] inception_4e/3x3 -> inception_4e/3x3
I0403 19:57:03.407531 10094 net.cpp:141] Setting up inception_4e/3x3
I0403 19:57:03.407584 10094 net.cpp:148] Top shape: 24 320 14 14 (1505280)
I0403 19:57:03.407605 10094 net.cpp:156] Memory required for data: 1230108192
I0403 19:57:03.407629 10094 layer_factory.hpp:77] Creating layer inception_4e/relu_3x3
I0403 19:57:03.407651 10094 net.cpp:91] Creating Layer inception_4e/relu_3x3
I0403 19:57:03.407671 10094 net.cpp:425] inception_4e/relu_3x3 <- inception_4e/3x3
I0403 19:57:03.407692 10094 net.cpp:386] inception_4e/relu_3x3 -> inception_4e/3x3 (in-place)
I0403 19:57:03.408059 10094 net.cpp:141] Setting up inception_4e/relu_3x3
I0403 19:57:03.408092 10094 net.cpp:148] Top shape: 24 320 14 14 (1505280)
I0403 19:57:03.408109 10094 net.cpp:156] Memory required for data: 1236129312
I0403 19:57:03.408128 10094 layer_factory.hpp:77] Creating layer inception_4e/5x5_reduce
I0403 19:57:03.408159 10094 net.cpp:91] Creating Layer inception_4e/5x5_reduce
I0403 19:57:03.408179 10094 net.cpp:425] inception_4e/5x5_reduce <- inception_4d/output_inception_4d/output_0_split_3
I0403 19:57:03.408206 10094 net.cpp:399] inception_4e/5x5_reduce -> inception_4e/5x5_reduce
I0403 19:57:03.409541 10094 net.cpp:141] Setting up inception_4e/5x5_reduce
I0403 19:57:03.409575 10094 net.cpp:148] Top shape: 24 32 14 14 (150528)
I0403 19:57:03.409595 10094 net.cpp:156] Memory required for data: 1236731424
I0403 19:57:03.409616 10094 layer_factory.hpp:77] Creating layer inception_4e/relu_5x5_reduce
I0403 19:57:03.409641 10094 net.cpp:91] Creating Layer inception_4e/relu_5x5_reduce
I0403 19:57:03.409662 10094 net.cpp:425] inception_4e/relu_5x5_reduce <- inception_4e/5x5_reduce
I0403 19:57:03.409682 10094 net.cpp:386] inception_4e/relu_5x5_reduce -> inception_4e/5x5_reduce (in-place)
I0403 19:57:03.410046 10094 net.cpp:141] Setting up inception_4e/relu_5x5_reduce
I0403 19:57:03.410079 10094 net.cpp:148] Top shape: 24 32 14 14 (150528)
I0403 19:57:03.410096 10094 net.cpp:156] Memory required for data: 1237333536
I0403 19:57:03.410115 10094 layer_factory.hpp:77] Creating layer inception_4e/5x5
I0403 19:57:03.410161 10094 net.cpp:91] Creating Layer inception_4e/5x5
I0403 19:57:03.410183 10094 net.cpp:425] inception_4e/5x5 <- inception_4e/5x5_reduce
I0403 19:57:03.410210 10094 net.cpp:399] inception_4e/5x5 -> inception_4e/5x5
I0403 19:57:03.412467 10094 net.cpp:141] Setting up inception_4e/5x5
I0403 19:57:03.412500 10094 net.cpp:148] Top shape: 24 128 14 14 (602112)
I0403 19:57:03.412519 10094 net.cpp:156] Memory required for data: 1239741984
I0403 19:57:03.412544 10094 layer_factory.hpp:77] Creating layer inception_4e/relu_5x5
I0403 19:57:03.412567 10094 net.cpp:91] Creating Layer inception_4e/relu_5x5
I0403 19:57:03.412588 10094 net.cpp:425] inception_4e/relu_5x5 <- inception_4e/5x5
I0403 19:57:03.412609 10094 net.cpp:386] inception_4e/relu_5x5 -> inception_4e/5x5 (in-place)
I0403 19:57:03.412853 10094 net.cpp:141] Setting up inception_4e/relu_5x5
I0403 19:57:03.412883 10094 net.cpp:148] Top shape: 24 128 14 14 (602112)
I0403 19:57:03.412900 10094 net.cpp:156] Memory required for data: 1242150432
I0403 19:57:03.412919 10094 layer_factory.hpp:77] Creating layer inception_4e/pool
I0403 19:57:03.412942 10094 net.cpp:91] Creating Layer inception_4e/pool
I0403 19:57:03.412963 10094 net.cpp:425] inception_4e/pool <- inception_4d/output_inception_4d/output_0_split_4
I0403 19:57:03.412986 10094 net.cpp:399] inception_4e/pool -> inception_4e/pool
I0403 19:57:03.413074 10094 net.cpp:141] Setting up inception_4e/pool
I0403 19:57:03.413101 10094 net.cpp:148] Top shape: 24 528 14 14 (2483712)
I0403 19:57:03.413120 10094 net.cpp:156] Memory required for data: 1252085280
I0403 19:57:03.413136 10094 layer_factory.hpp:77] Creating layer inception_4e/pool_proj
I0403 19:57:03.413162 10094 net.cpp:91] Creating Layer inception_4e/pool_proj
I0403 19:57:03.413183 10094 net.cpp:425] inception_4e/pool_proj <- inception_4e/pool
I0403 19:57:03.413208 10094 net.cpp:399] inception_4e/pool_proj -> inception_4e/pool_proj
I0403 19:57:03.415079 10094 net.cpp:141] Setting up inception_4e/pool_proj
I0403 19:57:03.415114 10094 net.cpp:148] Top shape: 24 128 14 14 (602112)
I0403 19:57:03.415151 10094 net.cpp:156] Memory required for data: 1254493728
I0403 19:57:03.415176 10094 layer_factory.hpp:77] Creating layer inception_4e/relu_pool_proj
I0403 19:57:03.415199 10094 net.cpp:91] Creating Layer inception_4e/relu_pool_proj
I0403 19:57:03.415221 10094 net.cpp:425] inception_4e/relu_pool_proj <- inception_4e/pool_proj
I0403 19:57:03.415243 10094 net.cpp:386] inception_4e/relu_pool_proj -> inception_4e/pool_proj (in-place)
I0403 19:57:03.415602 10094 net.cpp:141] Setting up inception_4e/relu_pool_proj
I0403 19:57:03.415635 10094 net.cpp:148] Top shape: 24 128 14 14 (602112)
I0403 19:57:03.415653 10094 net.cpp:156] Memory required for data: 1256902176
I0403 19:57:03.415671 10094 layer_factory.hpp:77] Creating layer inception_4e/output
I0403 19:57:03.415693 10094 net.cpp:91] Creating Layer inception_4e/output
I0403 19:57:03.415710 10094 net.cpp:425] inception_4e/output <- inception_4e/1x1
I0403 19:57:03.415730 10094 net.cpp:425] inception_4e/output <- inception_4e/3x3
I0403 19:57:03.415750 10094 net.cpp:425] inception_4e/output <- inception_4e/5x5
I0403 19:57:03.415768 10094 net.cpp:425] inception_4e/output <- inception_4e/pool_proj
I0403 19:57:03.415796 10094 net.cpp:399] inception_4e/output -> inception_4e/output
I0403 19:57:03.415858 10094 net.cpp:141] Setting up inception_4e/output
I0403 19:57:03.415887 10094 net.cpp:148] Top shape: 24 832 14 14 (3913728)
I0403 19:57:03.415906 10094 net.cpp:156] Memory required for data: 1272557088
I0403 19:57:03.415923 10094 layer_factory.hpp:77] Creating layer pool4/3x3_s2
I0403 19:57:03.415946 10094 net.cpp:91] Creating Layer pool4/3x3_s2
I0403 19:57:03.415964 10094 net.cpp:425] pool4/3x3_s2 <- inception_4e/output
I0403 19:57:03.415990 10094 net.cpp:399] pool4/3x3_s2 -> pool4/3x3_s2
I0403 19:57:03.416076 10094 net.cpp:141] Setting up pool4/3x3_s2
I0403 19:57:03.416105 10094 net.cpp:148] Top shape: 24 832 7 7 (978432)
I0403 19:57:03.416123 10094 net.cpp:156] Memory required for data: 1276470816
I0403 19:57:03.416141 10094 layer_factory.hpp:77] Creating layer pool4/3x3_s2_pool4/3x3_s2_0_split
I0403 19:57:03.416163 10094 net.cpp:91] Creating Layer pool4/3x3_s2_pool4/3x3_s2_0_split
I0403 19:57:03.416183 10094 net.cpp:425] pool4/3x3_s2_pool4/3x3_s2_0_split <- pool4/3x3_s2
I0403 19:57:03.416205 10094 net.cpp:399] pool4/3x3_s2_pool4/3x3_s2_0_split -> pool4/3x3_s2_pool4/3x3_s2_0_split_0
I0403 19:57:03.416229 10094 net.cpp:399] pool4/3x3_s2_pool4/3x3_s2_0_split -> pool4/3x3_s2_pool4/3x3_s2_0_split_1
I0403 19:57:03.416254 10094 net.cpp:399] pool4/3x3_s2_pool4/3x3_s2_0_split -> pool4/3x3_s2_pool4/3x3_s2_0_split_2
I0403 19:57:03.416282 10094 net.cpp:399] pool4/3x3_s2_pool4/3x3_s2_0_split -> pool4/3x3_s2_pool4/3x3_s2_0_split_3
I0403 19:57:03.416398 10094 net.cpp:141] Setting up pool4/3x3_s2_pool4/3x3_s2_0_split
I0403 19:57:03.416425 10094 net.cpp:148] Top shape: 24 832 7 7 (978432)
I0403 19:57:03.416445 10094 net.cpp:148] Top shape: 24 832 7 7 (978432)
I0403 19:57:03.416463 10094 net.cpp:148] Top shape: 24 832 7 7 (978432)
I0403 19:57:03.416482 10094 net.cpp:148] Top shape: 24 832 7 7 (978432)
I0403 19:57:03.416499 10094 net.cpp:156] Memory required for data: 1292125728
I0403 19:57:03.416517 10094 layer_factory.hpp:77] Creating layer inception_5a/1x1
I0403 19:57:03.416543 10094 net.cpp:91] Creating Layer inception_5a/1x1
I0403 19:57:03.416565 10094 net.cpp:425] inception_5a/1x1 <- pool4/3x3_s2_pool4/3x3_s2_0_split_0
I0403 19:57:03.416590 10094 net.cpp:399] inception_5a/1x1 -> inception_5a/1x1
I0403 19:57:03.420090 10094 net.cpp:141] Setting up inception_5a/1x1
I0403 19:57:03.420126 10094 net.cpp:148] Top shape: 24 256 7 7 (301056)
I0403 19:57:03.420145 10094 net.cpp:156] Memory required for data: 1293329952
I0403 19:57:03.420167 10094 layer_factory.hpp:77] Creating layer inception_5a/relu_1x1
I0403 19:57:03.420192 10094 net.cpp:91] Creating Layer inception_5a/relu_1x1
I0403 19:57:03.420212 10094 net.cpp:425] inception_5a/relu_1x1 <- inception_5a/1x1
I0403 19:57:03.420233 10094 net.cpp:386] inception_5a/relu_1x1 -> inception_5a/1x1 (in-place)
I0403 19:57:03.420624 10094 net.cpp:141] Setting up inception_5a/relu_1x1
I0403 19:57:03.420655 10094 net.cpp:148] Top shape: 24 256 7 7 (301056)
I0403 19:57:03.420673 10094 net.cpp:156] Memory required for data: 1294534176
I0403 19:57:03.420691 10094 layer_factory.hpp:77] Creating layer inception_5a/3x3_reduce
I0403 19:57:03.420717 10094 net.cpp:91] Creating Layer inception_5a/3x3_reduce
I0403 19:57:03.420739 10094 net.cpp:425] inception_5a/3x3_reduce <- pool4/3x3_s2_pool4/3x3_s2_0_split_1
I0403 19:57:03.420765 10094 net.cpp:399] inception_5a/3x3_reduce -> inception_5a/3x3_reduce
I0403 19:57:03.423787 10094 net.cpp:141] Setting up inception_5a/3x3_reduce
I0403 19:57:03.423826 10094 net.cpp:148] Top shape: 24 160 7 7 (188160)
I0403 19:57:03.423846 10094 net.cpp:156] Memory required for data: 1295286816
I0403 19:57:03.423869 10094 layer_factory.hpp:77] Creating layer inception_5a/relu_3x3_reduce
I0403 19:57:03.423890 10094 net.cpp:91] Creating Layer inception_5a/relu_3x3_reduce
I0403 19:57:03.423909 10094 net.cpp:425] inception_5a/relu_3x3_reduce <- inception_5a/3x3_reduce
I0403 19:57:03.423933 10094 net.cpp:386] inception_5a/relu_3x3_reduce -> inception_5a/3x3_reduce (in-place)
I0403 19:57:03.424168 10094 net.cpp:141] Setting up inception_5a/relu_3x3_reduce
I0403 19:57:03.424198 10094 net.cpp:148] Top shape: 24 160 7 7 (188160)
I0403 19:57:03.424216 10094 net.cpp:156] Memory required for data: 1296039456
I0403 19:57:03.424234 10094 layer_factory.hpp:77] Creating layer inception_5a/3x3
I0403 19:57:03.424260 10094 net.cpp:91] Creating Layer inception_5a/3x3
I0403 19:57:03.424288 10094 net.cpp:425] inception_5a/3x3 <- inception_5a/3x3_reduce
I0403 19:57:03.424315 10094 net.cpp:399] inception_5a/3x3 -> inception_5a/3x3
I0403 19:57:03.430564 10094 net.cpp:141] Setting up inception_5a/3x3
I0403 19:57:03.430600 10094 net.cpp:148] Top shape: 24 320 7 7 (376320)
I0403 19:57:03.430619 10094 net.cpp:156] Memory required for data: 1297544736
I0403 19:57:03.430642 10094 layer_factory.hpp:77] Creating layer inception_5a/relu_3x3
I0403 19:57:03.430667 10094 net.cpp:91] Creating Layer inception_5a/relu_3x3
I0403 19:57:03.430692 10094 net.cpp:425] inception_5a/relu_3x3 <- inception_5a/3x3
I0403 19:57:03.430714 10094 net.cpp:386] inception_5a/relu_3x3 -> inception_5a/3x3 (in-place)
I0403 19:57:03.431071 10094 net.cpp:141] Setting up inception_5a/relu_3x3
I0403 19:57:03.431103 10094 net.cpp:148] Top shape: 24 320 7 7 (376320)
I0403 19:57:03.431121 10094 net.cpp:156] Memory required for data: 1299050016
I0403 19:57:03.431139 10094 layer_factory.hpp:77] Creating layer inception_5a/5x5_reduce
I0403 19:57:03.431166 10094 net.cpp:91] Creating Layer inception_5a/5x5_reduce
I0403 19:57:03.431188 10094 net.cpp:425] inception_5a/5x5_reduce <- pool4/3x3_s2_pool4/3x3_s2_0_split_2
I0403 19:57:03.431213 10094 net.cpp:399] inception_5a/5x5_reduce -> inception_5a/5x5_reduce
I0403 19:57:03.432672 10094 net.cpp:141] Setting up inception_5a/5x5_reduce
I0403 19:57:03.432708 10094 net.cpp:148] Top shape: 24 32 7 7 (37632)
I0403 19:57:03.432726 10094 net.cpp:156] Memory required for data: 1299200544
I0403 19:57:03.432749 10094 layer_factory.hpp:77] Creating layer inception_5a/relu_5x5_reduce
I0403 19:57:03.432773 10094 net.cpp:91] Creating Layer inception_5a/relu_5x5_reduce
I0403 19:57:03.432795 10094 net.cpp:425] inception_5a/relu_5x5_reduce <- inception_5a/5x5_reduce
I0403 19:57:03.432814 10094 net.cpp:386] inception_5a/relu_5x5_reduce -> inception_5a/5x5_reduce (in-place)
I0403 19:57:03.433179 10094 net.cpp:141] Setting up inception_5a/relu_5x5_reduce
I0403 19:57:03.433210 10094 net.cpp:148] Top shape: 24 32 7 7 (37632)
I0403 19:57:03.433229 10094 net.cpp:156] Memory required for data: 1299351072
I0403 19:57:03.433248 10094 layer_factory.hpp:77] Creating layer inception_5a/5x5
I0403 19:57:03.433285 10094 net.cpp:91] Creating Layer inception_5a/5x5
I0403 19:57:03.433318 10094 net.cpp:425] inception_5a/5x5 <- inception_5a/5x5_reduce
I0403 19:57:03.433343 10094 net.cpp:399] inception_5a/5x5 -> inception_5a/5x5
I0403 19:57:03.435483 10094 net.cpp:141] Setting up inception_5a/5x5
I0403 19:57:03.435533 10094 net.cpp:148] Top shape: 24 128 7 7 (150528)
I0403 19:57:03.435552 10094 net.cpp:156] Memory required for data: 1299953184
I0403 19:57:03.435575 10094 layer_factory.hpp:77] Creating layer inception_5a/relu_5x5
I0403 19:57:03.435600 10094 net.cpp:91] Creating Layer inception_5a/relu_5x5
I0403 19:57:03.435619 10094 net.cpp:425] inception_5a/relu_5x5 <- inception_5a/5x5
I0403 19:57:03.435641 10094 net.cpp:386] inception_5a/relu_5x5 -> inception_5a/5x5 (in-place)
I0403 19:57:03.435879 10094 net.cpp:141] Setting up inception_5a/relu_5x5
I0403 19:57:03.435909 10094 net.cpp:148] Top shape: 24 128 7 7 (150528)
I0403 19:57:03.435926 10094 net.cpp:156] Memory required for data: 1300555296
I0403 19:57:03.435945 10094 layer_factory.hpp:77] Creating layer inception_5a/pool
I0403 19:57:03.435967 10094 net.cpp:91] Creating Layer inception_5a/pool
I0403 19:57:03.435988 10094 net.cpp:425] inception_5a/pool <- pool4/3x3_s2_pool4/3x3_s2_0_split_3
I0403 19:57:03.436012 10094 net.cpp:399] inception_5a/pool -> inception_5a/pool
I0403 19:57:03.436100 10094 net.cpp:141] Setting up inception_5a/pool
I0403 19:57:03.436127 10094 net.cpp:148] Top shape: 24 832 7 7 (978432)
I0403 19:57:03.436144 10094 net.cpp:156] Memory required for data: 1304469024
I0403 19:57:03.436162 10094 layer_factory.hpp:77] Creating layer inception_5a/pool_proj
I0403 19:57:03.436188 10094 net.cpp:91] Creating Layer inception_5a/pool_proj
I0403 19:57:03.436210 10094 net.cpp:425] inception_5a/pool_proj <- inception_5a/pool
I0403 19:57:03.436235 10094 net.cpp:399] inception_5a/pool_proj -> inception_5a/pool_proj
I0403 19:57:03.439041 10094 net.cpp:141] Setting up inception_5a/pool_proj
I0403 19:57:03.439079 10094 net.cpp:148] Top shape: 24 128 7 7 (150528)
I0403 19:57:03.439098 10094 net.cpp:156] Memory required for data: 1305071136
I0403 19:57:03.439121 10094 layer_factory.hpp:77] Creating layer inception_5a/relu_pool_proj
I0403 19:57:03.439141 10094 net.cpp:91] Creating Layer inception_5a/relu_pool_proj
I0403 19:57:03.439162 10094 net.cpp:425] inception_5a/relu_pool_proj <- inception_5a/pool_proj
I0403 19:57:03.439185 10094 net.cpp:386] inception_5a/relu_pool_proj -> inception_5a/pool_proj (in-place)
I0403 19:57:03.439558 10094 net.cpp:141] Setting up inception_5a/relu_pool_proj
I0403 19:57:03.439590 10094 net.cpp:148] Top shape: 24 128 7 7 (150528)
I0403 19:57:03.439609 10094 net.cpp:156] Memory required for data: 1305673248
I0403 19:57:03.439626 10094 layer_factory.hpp:77] Creating layer inception_5a/output
I0403 19:57:03.439647 10094 net.cpp:91] Creating Layer inception_5a/output
I0403 19:57:03.439666 10094 net.cpp:425] inception_5a/output <- inception_5a/1x1
I0403 19:57:03.439687 10094 net.cpp:425] inception_5a/output <- inception_5a/3x3
I0403 19:57:03.439705 10094 net.cpp:425] inception_5a/output <- inception_5a/5x5
I0403 19:57:03.439724 10094 net.cpp:425] inception_5a/output <- inception_5a/pool_proj
I0403 19:57:03.439748 10094 net.cpp:399] inception_5a/output -> inception_5a/output
I0403 19:57:03.439810 10094 net.cpp:141] Setting up inception_5a/output
I0403 19:57:03.439839 10094 net.cpp:148] Top shape: 24 832 7 7 (978432)
I0403 19:57:03.439858 10094 net.cpp:156] Memory required for data: 1309586976
I0403 19:57:03.439875 10094 layer_factory.hpp:77] Creating layer inception_5a/output_inception_5a/output_0_split
I0403 19:57:03.439896 10094 net.cpp:91] Creating Layer inception_5a/output_inception_5a/output_0_split
I0403 19:57:03.439915 10094 net.cpp:425] inception_5a/output_inception_5a/output_0_split <- inception_5a/output
I0403 19:57:03.439936 10094 net.cpp:399] inception_5a/output_inception_5a/output_0_split -> inception_5a/output_inception_5a/output_0_split_0
I0403 19:57:03.439963 10094 net.cpp:399] inception_5a/output_inception_5a/output_0_split -> inception_5a/output_inception_5a/output_0_split_1
I0403 19:57:03.439988 10094 net.cpp:399] inception_5a/output_inception_5a/output_0_split -> inception_5a/output_inception_5a/output_0_split_2
I0403 19:57:03.440013 10094 net.cpp:399] inception_5a/output_inception_5a/output_0_split -> inception_5a/output_inception_5a/output_0_split_3
I0403 19:57:03.440155 10094 net.cpp:141] Setting up inception_5a/output_inception_5a/output_0_split
I0403 19:57:03.440184 10094 net.cpp:148] Top shape: 24 832 7 7 (978432)
I0403 19:57:03.440203 10094 net.cpp:148] Top shape: 24 832 7 7 (978432)
I0403 19:57:03.440222 10094 net.cpp:148] Top shape: 24 832 7 7 (978432)
I0403 19:57:03.440242 10094 net.cpp:148] Top shape: 24 832 7 7 (978432)
I0403 19:57:03.440258 10094 net.cpp:156] Memory required for data: 1325241888
I0403 19:57:03.440280 10094 layer_factory.hpp:77] Creating layer inception_5b/1x1
I0403 19:57:03.440309 10094 net.cpp:91] Creating Layer inception_5b/1x1
I0403 19:57:03.440331 10094 net.cpp:425] inception_5b/1x1 <- inception_5a/output_inception_5a/output_0_split_0
I0403 19:57:03.440357 10094 net.cpp:399] inception_5b/1x1 -> inception_5b/1x1
I0403 19:57:03.444972 10094 net.cpp:141] Setting up inception_5b/1x1
I0403 19:57:03.445011 10094 net.cpp:148] Top shape: 24 384 7 7 (451584)
I0403 19:57:03.445031 10094 net.cpp:156] Memory required for data: 1327048224
I0403 19:57:03.445053 10094 layer_factory.hpp:77] Creating layer inception_5b/relu_1x1
I0403 19:57:03.445075 10094 net.cpp:91] Creating Layer inception_5b/relu_1x1
I0403 19:57:03.445094 10094 net.cpp:425] inception_5b/relu_1x1 <- inception_5b/1x1
I0403 19:57:03.445118 10094 net.cpp:386] inception_5b/relu_1x1 -> inception_5b/1x1 (in-place)
I0403 19:57:03.445497 10094 net.cpp:141] Setting up inception_5b/relu_1x1
I0403 19:57:03.445530 10094 net.cpp:148] Top shape: 24 384 7 7 (451584)
I0403 19:57:03.445550 10094 net.cpp:156] Memory required for data: 1328854560
I0403 19:57:03.445569 10094 layer_factory.hpp:77] Creating layer inception_5b/3x3_reduce
I0403 19:57:03.445596 10094 net.cpp:91] Creating Layer inception_5b/3x3_reduce
I0403 19:57:03.445618 10094 net.cpp:425] inception_5b/3x3_reduce <- inception_5a/output_inception_5a/output_0_split_1
I0403 19:57:03.445641 10094 net.cpp:399] inception_5b/3x3_reduce -> inception_5b/3x3_reduce
I0403 19:57:03.448947 10094 net.cpp:141] Setting up inception_5b/3x3_reduce
I0403 19:57:03.448984 10094 net.cpp:148] Top shape: 24 192 7 7 (225792)
I0403 19:57:03.449003 10094 net.cpp:156] Memory required for data: 1329757728
I0403 19:57:03.449026 10094 layer_factory.hpp:77] Creating layer inception_5b/relu_3x3_reduce
I0403 19:57:03.449048 10094 net.cpp:91] Creating Layer inception_5b/relu_3x3_reduce
I0403 19:57:03.449069 10094 net.cpp:425] inception_5b/relu_3x3_reduce <- inception_5b/3x3_reduce
I0403 19:57:03.449092 10094 net.cpp:386] inception_5b/relu_3x3_reduce -> inception_5b/3x3_reduce (in-place)
I0403 19:57:03.449337 10094 net.cpp:141] Setting up inception_5b/relu_3x3_reduce
I0403 19:57:03.449368 10094 net.cpp:148] Top shape: 24 192 7 7 (225792)
I0403 19:57:03.449386 10094 net.cpp:156] Memory required for data: 1330660896
I0403 19:57:03.449404 10094 layer_factory.hpp:77] Creating layer inception_5b/3x3
I0403 19:57:03.449431 10094 net.cpp:91] Creating Layer inception_5b/3x3
I0403 19:57:03.449452 10094 net.cpp:425] inception_5b/3x3 <- inception_5b/3x3_reduce
I0403 19:57:03.449479 10094 net.cpp:399] inception_5b/3x3 -> inception_5b/3x3
I0403 19:57:03.457861 10094 net.cpp:141] Setting up inception_5b/3x3
I0403 19:57:03.457897 10094 net.cpp:148] Top shape: 24 384 7 7 (451584)
I0403 19:57:03.457916 10094 net.cpp:156] Memory required for data: 1332467232
I0403 19:57:03.457939 10094 layer_factory.hpp:77] Creating layer inception_5b/relu_3x3
I0403 19:57:03.457962 10094 net.cpp:91] Creating Layer inception_5b/relu_3x3
I0403 19:57:03.457981 10094 net.cpp:425] inception_5b/relu_3x3 <- inception_5b/3x3
I0403 19:57:03.458008 10094 net.cpp:386] inception_5b/relu_3x3 -> inception_5b/3x3 (in-place)
I0403 19:57:03.458376 10094 net.cpp:141] Setting up inception_5b/relu_3x3
I0403 19:57:03.458408 10094 net.cpp:148] Top shape: 24 384 7 7 (451584)
I0403 19:57:03.458426 10094 net.cpp:156] Memory required for data: 1334273568
I0403 19:57:03.458446 10094 layer_factory.hpp:77] Creating layer inception_5b/5x5_reduce
I0403 19:57:03.458495 10094 net.cpp:91] Creating Layer inception_5b/5x5_reduce
I0403 19:57:03.458519 10094 net.cpp:425] inception_5b/5x5_reduce <- inception_5a/output_inception_5a/output_0_split_2
I0403 19:57:03.458547 10094 net.cpp:399] inception_5b/5x5_reduce -> inception_5b/5x5_reduce
I0403 19:57:03.460132 10094 net.cpp:141] Setting up inception_5b/5x5_reduce
I0403 19:57:03.460167 10094 net.cpp:148] Top shape: 24 48 7 7 (56448)
I0403 19:57:03.460186 10094 net.cpp:156] Memory required for data: 1334499360
I0403 19:57:03.460208 10094 layer_factory.hpp:77] Creating layer inception_5b/relu_5x5_reduce
I0403 19:57:03.460230 10094 net.cpp:91] Creating Layer inception_5b/relu_5x5_reduce
I0403 19:57:03.460254 10094 net.cpp:425] inception_5b/relu_5x5_reduce <- inception_5b/5x5_reduce
I0403 19:57:03.460280 10094 net.cpp:386] inception_5b/relu_5x5_reduce -> inception_5b/5x5_reduce (in-place)
I0403 19:57:03.460747 10094 net.cpp:141] Setting up inception_5b/relu_5x5_reduce
I0403 19:57:03.460779 10094 net.cpp:148] Top shape: 24 48 7 7 (56448)
I0403 19:57:03.460798 10094 net.cpp:156] Memory required for data: 1334725152
I0403 19:57:03.460816 10094 layer_factory.hpp:77] Creating layer inception_5b/5x5
I0403 19:57:03.460840 10094 net.cpp:91] Creating Layer inception_5b/5x5
I0403 19:57:03.460860 10094 net.cpp:425] inception_5b/5x5 <- inception_5b/5x5_reduce
I0403 19:57:03.460883 10094 net.cpp:399] inception_5b/5x5 -> inception_5b/5x5
I0403 19:57:03.463439 10094 net.cpp:141] Setting up inception_5b/5x5
I0403 19:57:03.463475 10094 net.cpp:148] Top shape: 24 128 7 7 (150528)
I0403 19:57:03.463495 10094 net.cpp:156] Memory required for data: 1335327264
I0403 19:57:03.463516 10094 layer_factory.hpp:77] Creating layer inception_5b/relu_5x5
I0403 19:57:03.463541 10094 net.cpp:91] Creating Layer inception_5b/relu_5x5
I0403 19:57:03.463562 10094 net.cpp:425] inception_5b/relu_5x5 <- inception_5b/5x5
I0403 19:57:03.463584 10094 net.cpp:386] inception_5b/relu_5x5 -> inception_5b/5x5 (in-place)
I0403 19:57:03.463829 10094 net.cpp:141] Setting up inception_5b/relu_5x5
I0403 19:57:03.463861 10094 net.cpp:148] Top shape: 24 128 7 7 (150528)
I0403 19:57:03.463879 10094 net.cpp:156] Memory required for data: 1335929376
I0403 19:57:03.463898 10094 layer_factory.hpp:77] Creating layer inception_5b/pool
I0403 19:57:03.463919 10094 net.cpp:91] Creating Layer inception_5b/pool
I0403 19:57:03.463939 10094 net.cpp:425] inception_5b/pool <- inception_5a/output_inception_5a/output_0_split_3
I0403 19:57:03.463961 10094 net.cpp:399] inception_5b/pool -> inception_5b/pool
I0403 19:57:03.464051 10094 net.cpp:141] Setting up inception_5b/pool
I0403 19:57:03.464081 10094 net.cpp:148] Top shape: 24 832 7 7 (978432)
I0403 19:57:03.464097 10094 net.cpp:156] Memory required for data: 1339843104
I0403 19:57:03.464115 10094 layer_factory.hpp:77] Creating layer inception_5b/pool_proj
I0403 19:57:03.464141 10094 net.cpp:91] Creating Layer inception_5b/pool_proj
I0403 19:57:03.464164 10094 net.cpp:425] inception_5b/pool_proj <- inception_5b/pool
I0403 19:57:03.464189 10094 net.cpp:399] inception_5b/pool_proj -> inception_5b/pool_proj
I0403 19:57:03.467036 10094 net.cpp:141] Setting up inception_5b/pool_proj
I0403 19:57:03.467072 10094 net.cpp:148] Top shape: 24 128 7 7 (150528)
I0403 19:57:03.467092 10094 net.cpp:156] Memory required for data: 1340445216
I0403 19:57:03.467114 10094 layer_factory.hpp:77] Creating layer inception_5b/relu_pool_proj
I0403 19:57:03.467139 10094 net.cpp:91] Creating Layer inception_5b/relu_pool_proj
I0403 19:57:03.467159 10094 net.cpp:425] inception_5b/relu_pool_proj <- inception_5b/pool_proj
I0403 19:57:03.467180 10094 net.cpp:386] inception_5b/relu_pool_proj -> inception_5b/pool_proj (in-place)
I0403 19:57:03.467558 10094 net.cpp:141] Setting up inception_5b/relu_pool_proj
I0403 19:57:03.467591 10094 net.cpp:148] Top shape: 24 128 7 7 (150528)
I0403 19:57:03.467608 10094 net.cpp:156] Memory required for data: 1341047328
I0403 19:57:03.467627 10094 layer_factory.hpp:77] Creating layer inception_5b/output
I0403 19:57:03.467648 10094 net.cpp:91] Creating Layer inception_5b/output
I0403 19:57:03.467684 10094 net.cpp:425] inception_5b/output <- inception_5b/1x1
I0403 19:57:03.467706 10094 net.cpp:425] inception_5b/output <- inception_5b/3x3
I0403 19:57:03.467726 10094 net.cpp:425] inception_5b/output <- inception_5b/5x5
I0403 19:57:03.467746 10094 net.cpp:425] inception_5b/output <- inception_5b/pool_proj
I0403 19:57:03.467769 10094 net.cpp:399] inception_5b/output -> inception_5b/output
I0403 19:57:03.467833 10094 net.cpp:141] Setting up inception_5b/output
I0403 19:57:03.467864 10094 net.cpp:148] Top shape: 24 1024 7 7 (1204224)
I0403 19:57:03.467883 10094 net.cpp:156] Memory required for data: 1345864224
I0403 19:57:03.467901 10094 layer_factory.hpp:77] Creating layer pool5/7x7_s1
I0403 19:57:03.467922 10094 net.cpp:91] Creating Layer pool5/7x7_s1
I0403 19:57:03.467941 10094 net.cpp:425] pool5/7x7_s1 <- inception_5b/output
I0403 19:57:03.467967 10094 net.cpp:399] pool5/7x7_s1 -> pool5/7x7_s1
I0403 19:57:03.468235 10094 net.cpp:141] Setting up pool5/7x7_s1
I0403 19:57:03.468266 10094 net.cpp:148] Top shape: 24 1024 1 1 (24576)
I0403 19:57:03.468289 10094 net.cpp:156] Memory required for data: 1345962528
I0403 19:57:03.468307 10094 layer_factory.hpp:77] Creating layer pool5/drop_7x7_s1
I0403 19:57:03.468332 10094 net.cpp:91] Creating Layer pool5/drop_7x7_s1
I0403 19:57:03.468353 10094 net.cpp:425] pool5/drop_7x7_s1 <- pool5/7x7_s1
I0403 19:57:03.468374 10094 net.cpp:386] pool5/drop_7x7_s1 -> pool5/7x7_s1 (in-place)
I0403 19:57:03.468435 10094 net.cpp:141] Setting up pool5/drop_7x7_s1
I0403 19:57:03.468464 10094 net.cpp:148] Top shape: 24 1024 1 1 (24576)
I0403 19:57:03.468482 10094 net.cpp:156] Memory required for data: 1346060832
I0403 19:57:03.468500 10094 layer_factory.hpp:77] Creating layer loss3/classifier_plantvillage
I0403 19:57:03.468523 10094 net.cpp:91] Creating Layer loss3/classifier_plantvillage
I0403 19:57:03.468544 10094 net.cpp:425] loss3/classifier_plantvillage <- pool5/7x7_s1
I0403 19:57:03.468569 10094 net.cpp:399] loss3/classifier_plantvillage -> loss3/classifier_plantvillage
I0403 19:57:03.469094 10094 net.cpp:141] Setting up loss3/classifier_plantvillage
I0403 19:57:03.469123 10094 net.cpp:148] Top shape: 24 38 (912)
I0403 19:57:03.469141 10094 net.cpp:156] Memory required for data: 1346064480
I0403 19:57:03.469162 10094 layer_factory.hpp:77] Creating layer loss3/classifier_plantvillage_loss3/classifier_plantvillage_0_split
I0403 19:57:03.469184 10094 net.cpp:91] Creating Layer loss3/classifier_plantvillage_loss3/classifier_plantvillage_0_split
I0403 19:57:03.469204 10094 net.cpp:425] loss3/classifier_plantvillage_loss3/classifier_plantvillage_0_split <- loss3/classifier_plantvillage
I0403 19:57:03.469233 10094 net.cpp:399] loss3/classifier_plantvillage_loss3/classifier_plantvillage_0_split -> loss3/classifier_plantvillage_loss3/classifier_plantvillage_0_split_0
I0403 19:57:03.469262 10094 net.cpp:399] loss3/classifier_plantvillage_loss3/classifier_plantvillage_0_split -> loss3/classifier_plantvillage_loss3/classifier_plantvillage_0_split_1
I0403 19:57:03.469295 10094 net.cpp:399] loss3/classifier_plantvillage_loss3/classifier_plantvillage_0_split -> loss3/classifier_plantvillage_loss3/classifier_plantvillage_0_split_2
I0403 19:57:03.469321 10094 net.cpp:399] loss3/classifier_plantvillage_loss3/classifier_plantvillage_0_split -> loss3/classifier_plantvillage_loss3/classifier_plantvillage_0_split_3
I0403 19:57:03.469449 10094 net.cpp:141] Setting up loss3/classifier_plantvillage_loss3/classifier_plantvillage_0_split
I0403 19:57:03.469485 10094 net.cpp:148] Top shape: 24 38 (912)
I0403 19:57:03.469504 10094 net.cpp:148] Top shape: 24 38 (912)
I0403 19:57:03.469522 10094 net.cpp:148] Top shape: 24 38 (912)
I0403 19:57:03.469542 10094 net.cpp:148] Top shape: 24 38 (912)
I0403 19:57:03.469558 10094 net.cpp:156] Memory required for data: 1346079072
I0403 19:57:03.469576 10094 layer_factory.hpp:77] Creating layer loss1/loss
I0403 19:57:03.469604 10094 net.cpp:91] Creating Layer loss1/loss
I0403 19:57:03.469626 10094 net.cpp:425] loss1/loss <- loss1/classifier_plantvillage_loss1/classifier_plantvillage_0_split_0
I0403 19:57:03.469663 10094 net.cpp:425] loss1/loss <- label_data_1_split_0
…
