…
I0403 19:39:22.954227  9501 net.cpp:313] The NetState phase (1) differed from the phase (0) specified by a rule in layer data
I0403 19:39:22.955380  9501 net.cpp:49] Initializing net from parameters: 
state {
  phase: TEST
}
layer {
  name: "data"
  type: "Data"
  top: "data"
  top: "label"
  include {
    phase: TEST
  }
  transform_param {
    mirror: false
    crop_size: 224
    mean_file: "/home/mohanty/data/final_dataset/lmdb/color-50-50/mean.binaryproto"
  }
  data_param {
    source: "/home/mohanty/data/final_dataset/lmdb/color-50-50/test_db"
    batch_size: 24
    backend: LMDB
  }
}
layer {
  name: "conv1/7x7_s2"
  type: "Convolution"
  bottom: "data"
  top: "conv1/7x7_s2"
  param {
    lr_mult: 1
    decay_mult: 1
  }
  param {
    lr_mult: 2
    decay_mult: 0
  }
  convolution_param {
    num_output: 64
    pad: 3
    kernel_size: 7
    stride: 2
    weight_filler {
      type: "xavier"
      std: 0.1
    }
    bias_filler {
      type: "constant"
      value: 0.2
    }
  }
}
layer {
  name: "conv1/relu_7x7"
  type: "ReLU"
  bottom: "conv1/7x7_s2"
  top: "conv1/7x7_s2"
}
layer {
  name: "pool1/3x3_s2"
  type: "Pooling"
  bottom: "conv1/7x7_s2"
  top: "pool1/3x3_s2"
  pooling_param {
    pool: MAX
    kernel_size: 3
    stride: 2
  }
}
layer {
  name: "pool1/norm1"
  type: "LRN"
  bottom: "pool1/3x3_s2"
  top: "pool1/norm1"
  lrn_param {
    local_size: 5
    alpha: 0.0001
    beta: 0.75
  }
}
layer {
  name: "conv2/3x3_reduce"
  type: "Convolution"
  bottom: "pool1/norm1"
  top: "conv2/3x3_reduce"
  param {
    lr_mult: 1
    decay_mult: 1
  }
  param {
    lr_mult: 2
    decay_mult: 0
  }
  convolution_param {
    num_output: 64
    kernel_size: 1
    weight_filler {
      type: "xavier"
      std: 0.1
    }
    bias_filler {
      type: "constant"
      value: 0.2
    }
  }
}
layer {
  name: "conv2/relu_3x3_reduce"
  type: "ReLU"
  bottom: "conv2/3x3_reduce"
  top: "conv2/3x3_reduce"
}
layer {
  name: "conv2/3x3"
  type: "Convolution"
  bottom: "conv2/3x3_reduce"
  top: "conv2/3x3"
  param {
    lr_mult: 1
    decay_mult: 1
  }
  param {
    lr_mult: 2
    decay_mult: 0
  }
  convolution_param {
    num_output: 192
    pad: 1
    kernel_size: 3
    weight_filler {
      type: "xavier"
      std: 0.03
    }
    bias_filler {
      type: "constant"
      value: 0.2
    }
  }
}
layer {
  name: "conv2/relu_3x3"
  type: "ReLU"
  bottom: "conv2/3x3"
  top: "conv2/3x3"
}
layer {
  name: "conv2/norm2"
  type: "LRN"
  bottom: "conv2/3x3"
  top: "conv2/norm2"
  lrn_param {
    local_size: 5
    alpha: 0.0001
    beta: 0.75
  }
}
layer {
  name: "pool2/3x3_s2"
  type: "Pooling"
  bottom: "conv2/norm2"
  top: "pool2/3x3_s2"
  pooling_param {
    pool: MAX
    kernel_size: 3
    stride: 2
  }
}
layer {
  name: "inception_3a/1x1"
  type: "Convolution"
  bottom: "pool2/3x3_s2"
  top: "inception_3a/1x1"
  param {
    lr_mult: 1
    decay_mult: 1
  }
  param {
    lr_mult: 2
    decay_mult: 0
  }
  convolution_param {
    num_output: 64
    kernel_size: 1
    weight_filler {
      type: "xavier"
      std: 0.03
    }
    bias_filler {
      type: "constant"
      value: 0.2
    }
  }
}
layer {
  name: "inception_3a/relu_1x1"
  type: "ReLU"
  bottom: "inception_3a/1x1"
  top: "inception_3a/1x1"
}
layer {
  name: "inception_3a/3x3_reduce"
  type: "Convolution"
  bottom: "pool2/3x3_s2"
  top: "inception_3a/3x3_reduce"
  param {
    lr_mult: 1
    decay_mult: 1
  }
  param {
    lr_mult: 2
    decay_mult: 0
  }
  convolution_param {
    num_output: 96
    kernel_size: 1
    weight_filler {
      type: "xavier"
      std: 0.09
    }
    bias_filler {
      type: "constant"
      value: 0.2
    }
  }
}
layer {
  name: "inception_3a/relu_3x3_reduce"
  type: "ReLU"
  bottom: "inception_3a/3x3_reduce"
  top: "inception_3a/3x3_reduce"
}
layer {
  name: "inception_3a/3x3"
  type: "Convolution"
  bottom: "inception_3a/3x3_reduce"
  top: "inception_3a/3x3"
  param {
    lr_mult: 1
    decay_mult: 1
  }
  param {
    lr_mult: 2
    decay_mult: 0
  }
  convolution_param {
    num_output: 128
    pad: 1
    kernel_size: 3
    weight_filler {
      type: "xavier"
      std: 0.03
    }
    bias_filler {
      type: "constant"
      value: 0.2
    }
  }
}
layer {
  name: "inception_3a/relu_3x3"
  type: "ReLU"
  bottom: "inception_3a/3x3"
  top: "inception_3a/3x3"
}
layer {
  name: "inception_3a/5x5_reduce"
  type: "Convolution"
  bottom: "pool2/3x3_s2"
  top: "inception_3a/5x5_reduce"
  param {
    lr_mult: 1
    decay_mult: 1
  }
  param {
    lr_mult: 2
    decay_mult: 0
  }
  convolution_param {
    num_output: 16
    kernel_size: 1
    weight_filler {
      type: "xavier"
      std: 0.2
    }
    bias_filler {
      type: "constant"
      value: 0.2
    }
  }
}
layer {
  name: "inception_3a/relu_5x5_reduce"
  type: "ReLU"
  bottom: "inception_3a/5x5_reduce"
  top: "inception_3a/5x5_reduce"
}
layer {
  name: "inception_3a/5x5"
  type: "Convolution"
  bottom: "inception_3a/5x5_reduce"
  top: "inception_3a/5x5"
  param {
    lr_mult: 1
    decay_mult: 1
  }
  param {
    lr_mult: 2
    decay_mult: 0
  }
  convolution_param {
    num_output: 32
    pad: 2
    kernel_size: 5
    weight_filler {
      type: "xavier"
      std: 0.03
    }
    bias_filler {
      type: "constant"
      value: 0.2
    }
  }
}
layer {
  name: "inception_3a/relu_5x5"
  type: "ReLU"
  bottom: "inception_3a/5x5"
  top: "inception_3a/5x5"
}
layer {
  name: "inception_3a/pool"
  type: "Pooling"
  bottom: "pool2/3x3_s2"
  top: "inception_3a/pool"
  pooling_param {
    pool: MAX
    kernel_size: 3
    stride: 1
    pad: 1
  }
}
layer {
  name: "inception_3a/pool_proj"
  type: "Convolution"
  bottom: "inception_3a/pool"
  top: "inception_3a/pool_proj"
  param {
    lr_mult: 1
    decay_mult: 1
  }
  param {
    lr_mult: 2
    decay_mult: 0
  }
  convolution_param {
    num_output: 32
    kernel_size: 1
    weight_filler {
      type: "xavier"
      std: 0.1
    }
    bias_filler {
      type: "constant"
      value: 0.2
    }
  }
}
layer {
  name: "inception_3a/relu_pool_proj"
  type: "ReLU"
  bottom: "inception_3a/pool_proj"
  top: "inception_3a/pool_proj"
}
layer {
  name: "inception_3a/output"
  type: "Concat"
  bottom: "inception_3a/1x1"
  bottom: "inception_3a/3x3"
  bottom: "inception_3a/5x5"
  bottom: "inception_3a/pool_proj"
  top: "inception_3a/output"
}
layer {
  name: "inception_3b/1x1"
  type: "Convolution"
  bottom: "inception_3a/output"
  top: "inception_3b/1x1"
  param {
    lr_mult: 1
    decay_mult: 1
  }
  param {
    lr_mult: 2
    decay_mult: 0
  }
  convolution_param {
    num_output: 128
    kernel_size: 1
    weight_filler {
      type: "xavier"
      std: 0.03
    }
    bias_filler {
      type: "constant"
      value: 0.2
    }
  }
}
layer {
  name: "inception_3b/relu_1x1"
  type: "ReLU"
  bottom: "inception_3b/1x1"
  top: "inception_3b/1x1"
}
layer {
  name: "inception_3b/3x3_reduce"
  type: "Convolution"
  bottom: "inception_3a/output"
  top: "inception_3b/3x3_reduce"
  param {
    lr_mult: 1
    decay_mult: 1
  }
  param {
    lr_mult: 2
    decay_mult: 0
  }
  convolution_param {
    num_output: 128
    kernel_size: 1
    weight_filler {
      type: "xavier"
      std: 0.09
    }
    bias_filler {
      type: "constant"
      value: 0.2
    }
  }
}
layer {
  name: "inception_3b/relu_3x3_reduce"
  type: "ReLU"
  bottom: "inception_3b/3x3_reduce"
  top: "inception_3b/3x3_reduce"
}
layer {
  name: "inception_3b/3x3"
  type: "Convolution"
  bottom: "inception_3b/3x3_reduce"
  top: "inception_3b/3x3"
  param {
    lr_mult: 1
    decay_mult: 1
  }
  param {
    lr_mult: 2
    decay_mult: 0
  }
  convolution_param {
    num_output: 192
    pad: 1
    kernel_size: 3
    weight_filler {
      type: "xavier"
      std: 0.03
    }
    bias_filler {
      type: "constant"
      value: 0.2
    }
  }
}
layer {
  name: "inception_3b/relu_3x3"
  type: "ReLU"
  bottom: "inception_3b/3x3"
  top: "inception_3b/3x3"
}
layer {
  name: "inception_3b/5x5_reduce"
  type: "Convolution"
  bottom: "inception_3a/output"
  top: "inception_3b/5x5_reduce"
  param {
    lr_mult: 1
    decay_mult: 1
  }
  param {
    lr_mult: 2
    decay_mult: 0
  }
  convolution_param {
    num_output: 32
    kernel_size: 1
    weight_filler {
      type: "xavier"
      std: 0.2
    }
    bias_filler {
      type: "constant"
      value: 0.2
    }
  }
}
layer {
  name: "inception_3b/relu_5x5_reduce"
  type: "ReLU"
  bottom: "inception_3b/5x5_reduce"
  top: "inception_3b/5x5_reduce"
}
layer {
  name: "inception_3b/5x5"
  type: "Convolution"
  bottom: "inception_3b/5x5_reduce"
  top: "inception_3b/5x5"
  param {
    lr_mult: 1
    decay_mult: 1
  }
  param {
    lr_mult: 2
    decay_mult: 0
  }
  convolution_param {
    num_output: 96
    pad: 2
    kernel_size: 5
    weight_filler {
      type: "xavier"
      std: 0.03
    }
    bias_filler {
      type: "constant"
      value: 0.2
    }
  }
}
layer {
  name: "inception_3b/relu_5x5"
  type: "ReLU"
  bottom: "inception_3b/5x5"
  top: "inception_3b/5x5"
}
layer {
  name: "inception_3b/pool"
  type: "Pooling"
  bottom: "inception_3a/output"
  top: "inception_3b/pool"
  pooling_param {
    pool: MAX
    kernel_size: 3
    stride: 1
    pad: 1
  }
}
layer {
  name: "inception_3b/pool_proj"
  type: "Convolution"
  bottom: "inception_3b/pool"
  top: "inception_3b/pool_proj"
  param {
    lr_mult: 1
    decay_mult: 1
  }
  param {
    lr_mult: 2
    decay_mult: 0
  }
  convolution_param {
    num_output: 64
    kernel_size: 1
    weight_filler {
      type: "xavier"
      std: 0.1
    }
    bias_filler {
      type: "constant"
      value: 0.2
    }
  }
}
layer {
  name: "inception_3b/relu_pool_proj"
  type: "ReLU"
  bottom: "inception_3b/pool_proj"
  top: "inception_3b/pool_proj"
}
layer {
  name: "inception_3b/output"
  type: "Concat"
  bottom: "inception_3b/1x1"
  bottom: "inception_3b/3x3"
  bottom: "inception_3b/5x5"
  bottom: "inception_3b/pool_proj"
  top: "inception_3b/output"
}
layer {
  name: "pool3/3x3_s2"
  type: "Pooling"
  bottom: "inception_3b/output"
  top: "pool3/3x3_s2"
  pooling_param {
    pool: MAX
    kernel_size: 3
    stride: 2
  }
}
layer {
  name: "inception_4a/1x1"
  type: "Convolution"
  bottom: "pool3/3x3_s2"
  top: "inception_4a/1x1"
  param {
    lr_mult: 1
    decay_mult: 1
  }
  param {
    lr_mult: 2
    decay_mult: 0
  }
  convolution_param {
    num_output: 192
    kernel_size: 1
    weight_filler {
      type: "xavier"
      std: 0.03
    }
    bias_filler {
      type: "constant"
      value: 0.2
    }
  }
}
layer {
  name: "inception_4a/relu_1x1"
  type: "ReLU"
  bottom: "inception_4a/1x1"
  top: "inception_4a/1x1"
}
layer {
  name: "inception_4a/3x3_reduce"
  type: "Convolution"
  bottom: "pool3/3x3_s2"
  top: "inception_4a/3x3_reduce"
  param {
    lr_mult: 1
    decay_mult: 1
  }
  param {
    lr_mult: 2
    decay_mult: 0
  }
  convolution_param {
    num_output: 96
    kernel_size: 1
    weight_filler {
      type: "xavier"
      std: 0.09
    }
    bias_filler {
      type: "constant"
      value: 0.2
    }
  }
}
layer {
  name: "inception_4a/relu_3x3_reduce"
  type: "ReLU"
  bottom: "inception_4a/3x3_reduce"
  top: "inception_4a/3x3_reduce"
}
layer {
  name: "inception_4a/3x3"
  type: "Convolution"
  bottom: "inception_4a/3x3_reduce"
  top: "inception_4a/3x3"
  param {
    lr_mult: 1
    decay_mult: 1
  }
  param {
    lr_mult: 2
    decay_mult: 0
  }
  convolution_param {
    num_output: 208
    pad: 1
    kernel_size: 3
    weight_filler {
      type: "xavier"
      std: 0.03
    }
    bias_filler {
      type: "constant"
      value: 0.2
    }
  }
}
layer {
  name: "inception_4a/relu_3x3"
  type: "ReLU"
  bottom: "inception_4a/3x3"
  top: "inception_4a/3x3"
}
layer {
  name: "inception_4a/5x5_reduce"
  type: "Convolution"
  bottom: "pool3/3x3_s2"
  top: "inception_4a/5x5_reduce"
  param {
    lr_mult: 1
    decay_mult: 1
  }
  param {
    lr_mult: 2
    decay_mult: 0
  }
  convolution_param {
    num_output: 16
    kernel_size: 1
    weight_filler {
      type: "xavier"
      std: 0.2
    }
    bias_filler {
      type: "constant"
      value: 0.2
    }
  }
}
layer {
  name: "inception_4a/relu_5x5_reduce"
  type: "ReLU"
  bottom: "inception_4a/5x5_reduce"
  top: "inception_4a/5x5_reduce"
}
layer {
  name: "inception_4a/5x5"
  type: "Convolution"
  bottom: "inception_4a/5x5_reduce"
  top: "inception_4a/5x5"
  param {
    lr_mult: 1
    decay_mult: 1
  }
  param {
    lr_mult: 2
    decay_mult: 0
  }
  convolution_param {
    num_output: 48
    pad: 2
    kernel_size: 5
    weight_filler {
      type: "xavier"
      std: 0.03
    }
    bias_filler {
      type: "constant"
      value: 0.2
    }
  }
}
layer {
  name: "inception_4a/relu_5x5"
  type: "ReLU"
  bottom: "inception_4a/5x5"
  top: "inception_4a/5x5"
}
layer {
  name: "inception_4a/pool"
  type: "Pooling"
  bottom: "pool3/3x3_s2"
  top: "inception_4a/pool"
  pooling_param {
    pool: MAX
    kernel_size: 3
    stride: 1
    pad: 1
  }
}
layer {
  name: "inception_4a/pool_proj"
  type: "Convolution"
  bottom: "inception_4a/pool"
  top: "inception_4a/pool_proj"
  param {
    lr_mult: 1
    decay_mult: 1
  }
  param {
    lr_mult: 2
    decay_mult: 0
  }
  convolution_param {
    num_output: 64
    kernel_size: 1
    weight_filler {
      type: "xavier"
      std: 0.1
    }
    bias_filler {
      type: "constant"
      value: 0.2
    }
  }
}
layer {
  name: "inception_4a/relu_pool_proj"
  type: "ReLU"
  bottom: "inception_4a/pool_proj"
  top: "inception_4a/pool_proj"
}
layer {
  name: "inception_4a/output"
  type: "Concat"
  bottom: "inception_4a/1x1"
  bottom: "inception_4a/3x3"
  bottom: "inception_4a/5x5"
  bottom: "inception_4a/pool_proj"
  top: "inception_4a/output"
}
layer {
  name: "loss1/ave_pool"
  type: "Pooling"
  bottom: "inception_4a/output"
  top: "loss1/ave_pool"
  pooling_param {
    pool: AVE
    kernel_size: 5
    stride: 3
  }
}
layer {
  name: "loss1/conv"
  type: "Convolution"
  bottom: "loss1/ave_pool"
  top: "loss1/conv"
  param {
    lr_mult: 1
    decay_mult: 1
  }
  param {
    lr_mult: 2
    decay_mult: 0
  }
  convolution_param {
    num_output: 128
    kernel_size: 1
    weight_filler {
      type: "xavier"
      std: 0.08
    }
    bias_filler {
      type: "constant"
      value: 0.2
    }
  }
}
layer {
  name: "loss1/relu_conv"
  type: "ReLU"
  bottom: "loss1/conv"
  top: "loss1/conv"
}
layer {
  name: "loss1/fc"
  type: "InnerProduct"
  bottom: "loss1/conv"
  top: "loss1/fc"
  param {
    lr_mult: 1
    decay_mult: 1
  }
  param {
    lr_mult: 2
    decay_mult: 0
  }
  inner_product_param {
    num_output: 1024
    weight_filler {
      type: "xavier"
      std: 0.02
    }
    bias_filler {
      type: "constant"
      value: 0.2
    }
  }
}
layer {
  name: "loss1/relu_fc"
  type: "ReLU"
  bottom: "loss1/fc"
  top: "loss1/fc"
}
layer {
  name: "loss1/drop_fc"
  type: "Dropout"
  bottom: "loss1/fc"
  top: "loss1/fc"
  dropout_param {
    dropout_ratio: 0.7
  }
}
layer {
  name: "loss1/classifier_plantvillage"
  type: "InnerProduct"
  bottom: "loss1/fc"
  top: "loss1/classifier_plantvillage"
  param {
    lr_mult: 1
    decay_mult: 1
  }
  param {
    lr_mult: 2
    decay_mult: 0
  }
  inner_product_param {
    num_output: 38
    weight_filler {
      type: "xavier"
      std: 0.0009765625
    }
    bias_filler {
      type: "constant"
      value: 0
    }
  }
}
layer {
  name: "inception_4b/1x1"
  type: "Convolution"
  bottom: "inception_4a/output"
  top: "inception_4b/1x1"
  param {
    lr_mult: 1
    decay_mult: 1
  }
  param {
    lr_mult: 2
    decay_mult: 0
  }
  convolution_param {
    num_output: 160
    kernel_size: 1
    weight_filler {
      type: "xavier"
      std: 0.03
    }
    bias_filler {
      type: "constant"
      value: 0.2
    }
  }
}
layer {
  name: "inception_4b/relu_1x1"
  type: "ReLU"
  bottom: "inception_4b/1x1"
  top: "inception_4b/1x1"
}
layer {
  name: "inception_4b/3x3_reduce"
  type: "Convolution"
  bottom: "inception_4a/output"
  top: "inception_4b/3x3_reduce"
  param {
    lr_mult: 1
    decay_mult: 1
  }
  param {
    lr_mult: 2
    decay_mult: 0
  }
  convolution_param {
    num_output: 112
    kernel_size: 1
    weight_filler {
      type: "xavier"
      std: 0.09
    }
    bias_filler {
      type: "constant"
      value: 0.2
    }
  }
}
layer {
  name: "inception_4b/relu_3x3_reduce"
  type: "ReLU"
  bottom: "inception_4b/3x3_reduce"
  top: "inception_4b/3x3_reduce"
}
layer {
  name: "inception_4b/3x3"
  type: "Convolution"
  bottom: "inception_4b/3x3_reduce"
  top: "inception_4b/3x3"
  param {
    lr_mult: 1
    decay_mult: 1
  }
  param {
    lr_mult: 2
    decay_mult: 0
  }
  convolution_param {
    num_output: 224
    pad: 1
    kernel_size: 3
    weight_filler {
      type: "xavier"
      std: 0.03
    }
    bias_filler {
      type: "constant"
      value: 0.2
    }
  }
}
layer {
  name: "inception_4b/relu_3x3"
  type: "ReLU"
  bottom: "inception_4b/3x3"
  top: "inception_4b/3x3"
}
layer {
  name: "inception_4b/5x5_reduce"
  type: "Convolution"
  bottom: "inception_4a/output"
  top: "inception_4b/5x5_reduce"
  param {
    lr_mult: 1
    decay_mult: 1
  }
  param {
    lr_mult: 2
    decay_mult: 0
  }
  convolution_param {
    num_output: 24
    kernel_size: 1
    weight_filler {
      type: "xavier"
      std: 0.2
    }
    bias_filler {
      type: "constant"
      value: 0.2
    }
  }
}
layer {
  name: "inception_4b/relu_5x5_reduce"
  type: "ReLU"
  bottom: "inception_4b/5x5_reduce"
  top: "inception_4b/5x5_reduce"
}
layer {
  name: "inception_4b/5x5"
  type: "Convolution"
  bottom: "inception_4b/5x5_reduce"
  top: "inception_4b/5x5"
  param {
    lr_mult: 1
    decay_mult: 1
  }
  param {
    lr_mult: 2
    decay_mult: 0
  }
  convolution_param {
    num_output: 64
    pad: 2
    kernel_size: 5
    weight_filler {
      type: "xavier"
      std: 0.03
    }
    bias_filler {
      type: "constant"
      value: 0.2
    }
  }
}
layer {
  name: "inception_4b/relu_5x5"
  type: "ReLU"
  bottom: "inception_4b/5x5"
  top: "inception_4b/5x5"
}
layer {
  name: "inception_4b/pool"
  type: "Pooling"
  bottom: "inception_4a/output"
  top: "inception_4b/pool"
  pooling_param {
    pool: MAX
    kernel_size: 3
    stride: 1
    pad: 1
  }
}
layer {
  name: "inception_4b/pool_proj"
  type: "Convolution"
  bottom: "inception_4b/pool"
  top: "inception_4b/pool_proj"
  param {
    lr_mult: 1
    decay_mult: 1
  }
  param {
    lr_mult: 2
    decay_mult: 0
  }
  convolution_param {
    num_output: 64
    kernel_size: 1
    weight_filler {
      type: "xavier"
      std: 0.1
    }
    bias_filler {
      type: "constant"
      value: 0.2
    }
  }
}
layer {
  name: "inception_4b/relu_pool_proj"
  type: "ReLU"
  bottom: "inception_4b/pool_proj"
  top: "inception_4b/pool_proj"
}
layer {
  name: "inception_4b/output"
  type: "Concat"
  bottom: "inception_4b/1x1"
  bottom: "inception_4b/3x3"
  bottom: "inception_4b/5x5"
  bottom: "inception_4b/pool_proj"
  top: "inception_4b/output"
}
layer {
  name: "inception_4c/1x1"
  type: "Convolution"
  bottom: "inception_4b/output"
  top: "inception_4c/1x1"
  param {
    lr_mult: 1
    decay_mult: 1
  }
  param {
    lr_mult: 2
    decay_mult: 0
  }
  convolution_param {
    num_output: 128
    kernel_size: 1
    weight_filler {
      type: "xavier"
      std: 0.03
    }
    bias_filler {
      type: "constant"
      value: 0.2
    }
  }
}
layer {
  name: "inception_4c/relu_1x1"
  type: "ReLU"
  bottom: "inception_4c/1x1"
  top: "inception_4c/1x1"
}
layer {
  name: "inception_4c/3x3_reduce"
  type: "Convolution"
  bottom: "inception_4b/output"
  top: "inception_4c/3x3_reduce"
  param {
    lr_mult: 1
    decay_mult: 1
  }
  param {
    lr_mult: 2
    decay_mult: 0
  }
  convolution_param {
    num_output: 128
    kernel_size: 1
    weight_filler {
      type: "xavier"
      std: 0.09
    }
    bias_filler {
      type: "constant"
      value: 0.2
    }
  }
}
layer {
  name: "inception_4c/relu_3x3_reduce"
  type: "ReLU"
  bottom: "inception_4c/3x3_reduce"
  top: "inception_4c/3x3_reduce"
}
layer {
  name: "inception_4c/3x3"
  type: "Convolution"
  bottom: "inception_4c/3x3_reduce"
  top: "inception_4c/3x3"
  param {
    lr_mult: 1
    decay_mult: 1
  }
  param {
    lr_mult: 2
    decay_mult: 0
  }
  convolution_param {
    num_output: 256
    pad: 1
    kernel_size: 3
    weight_filler {
      type: "xavier"
      std: 0.03
    }
    bias_filler {
      type: "constant"
      value: 0.2
    }
  }
}
layer {
  name: "inception_4c/relu_3x3"
  type: "ReLU"
  bottom: "inception_4c/3x3"
  top: "inception_4c/3x3"
}
layer {
  name: "inception_4c/5x5_reduce"
  type: "Convolution"
  bottom: "inception_4b/output"
  top: "inception_4c/5x5_reduce"
  param {
    lr_mult: 1
    decay_mult: 1
  }
  param {
    lr_mult: 2
    decay_mult: 0
  }
  convolution_param {
    num_output: 24
    kernel_size: 1
    weight_filler {
      type: "xavier"
      std: 0.2
    }
    bias_filler {
      type: "constant"
      value: 0.2
    }
  }
}
layer {
  name: "inception_4c/relu_5x5_reduce"
  type: "ReLU"
  bottom: "inception_4c/5x5_reduce"
  top: "inception_4c/5x5_reduce"
}
layer {
  name: "inception_4c/5x5"
  type: "Convolution"
  bottom: "inception_4c/5x5_reduce"
  top: "inception_4c/5x5"
  param {
    lr_mult: 1
    decay_mult: 1
  }
  param {
    lr_mult: 2
    decay_mult: 0
  }
  convolution_param {
    num_output: 64
    pad: 2
    kernel_size: 5
    weight_filler {
      type: "xavier"
      std: 0.03
    }
    bias_filler {
      type: "constant"
      value: 0.2
    }
  }
}
layer {
  name: "inception_4c/relu_5x5"
  type: "ReLU"
  bottom: "inception_4c/5x5"
  top: "inception_4c/5x5"
}
layer {
  name: "inception_4c/pool"
  type: "Pooling"
  bottom: "inception_4b/output"
  top: "inception_4c/pool"
  pooling_param {
    pool: MAX
    kernel_size: 3
    stride: 1
    pad: 1
  }
}
layer {
  name: "inception_4c/pool_proj"
  type: "Convolution"
  bottom: "inception_4c/pool"
  top: "inception_4c/pool_proj"
  param {
    lr_mult: 1
    decay_mult: 1
  }
  param {
    lr_mult: 2
    decay_mult: 0
  }
  convolution_param {
    num_output: 64
    kernel_size: 1
    weight_filler {
      type: "xavier"
      std: 0.1
    }
    bias_filler {
      type: "constant"
      value: 0.2
    }
  }
}
layer {
  name: "inception_4c/relu_pool_proj"
  type: "ReLU"
  bottom: "inception_4c/pool_proj"
  top: "inception_4c/pool_proj"
}
layer {
  name: "inception_4c/output"
  type: "Concat"
  bottom: "inception_4c/1x1"
  bottom: "inception_4c/3x3"
  bottom: "inception_4c/5x5"
  bottom: "inception_4c/pool_proj"
  top: "inception_4c/output"
}
layer {
  name: "inception_4d/1x1"
  type: "Convolution"
  bottom: "inception_4c/output"
  top: "inception_4d/1x1"
  param {
    lr_mult: 1
    decay_mult: 1
  }
  param {
    lr_mult: 2
    decay_mult: 0
  }
  convolution_param {
    num_output: 112
    kernel_size: 1
    weight_filler {
      type: "xavier"
      std: 0.03
    }
    bias_filler {
      type: "constant"
      value: 0.2
    }
  }
}
layer {
  name: "inception_4d/relu_1x1"
  type: "ReLU"
  bottom: "inception_4d/1x1"
  top: "inception_4d/1x1"
}
layer {
  name: "inception_4d/3x3_reduce"
  type: "Convolution"
  bottom: "inception_4c/output"
  top: "inception_4d/3x3_reduce"
  param {
    lr_mult: 1
    decay_mult: 1
  }
  param {
    lr_mult: 2
    decay_mult: 0
  }
  convolution_param {
    num_output: 144
    kernel_size: 1
    weight_filler {
      type: "xavier"
      std: 0.09
    }
    bias_filler {
      type: "constant"
      value: 0.2
    }
  }
}
layer {
  name: "inception_4d/relu_3x3_reduce"
  type: "ReLU"
  bottom: "inception_4d/3x3_reduce"
  top: "inception_4d/3x3_reduce"
}
layer {
  name: "inception_4d/3x3"
  type: "Convolution"
  bottom: "inception_4d/3x3_reduce"
  top: "inception_4d/3x3"
  param {
    lr_mult: 1
    decay_mult: 1
  }
  param {
    lr_mult: 2
    decay_mult: 0
  }
  convolution_param {
    num_output: 288
    pad: 1
    kernel_size: 3
    weight_filler {
      type: "xavier"
      std: 0.03
    }
    bias_filler {
      type: "constant"
      value: 0.2
    }
  }
}
layer {
  name: "inception_4d/relu_3x3"
  type: "ReLU"
  bottom: "inception_4d/3x3"
  top: "inception_4d/3x3"
}
layer {
  name: "inception_4d/5x5_reduce"
  type: "Convolution"
  bottom: "inception_4c/output"
  top: "inception_4d/5x5_reduce"
  param {
    lr_mult: 1
    decay_mult: 1
  }
  param {
    lr_mult: 2
    decay_mult: 0
  }
  convolution_param {
    num_output: 32
    kernel_size: 1
    weight_filler {
      type: "xavier"
      std: 0.2
    }
    bias_filler {
      type: "constant"
      value: 0.2
    }
  }
}
layer {
  name: "inception_4d/relu_5x5_reduce"
  type: "ReLU"
  bottom: "inception_4d/5x5_reduce"
  top: "inception_4d/5x5_reduce"
}
layer {
  name: "inception_4d/5x5"
  type: "Convolution"
  bottom: "inception_4d/5x5_reduce"
  top: "inception_4d/5x5"
  param {
    lr_mult: 1
    decay_mult: 1
  }
  param {
    lr_mult: 2
    decay_mult: 0
  }
  convolution_param {
    num_output: 64
    pad: 2
    kernel_size: 5
    weight_filler {
      type: "xavier"
      std: 0.03
    }
    bias_filler {
      type: "constant"
      value: 0.2
    }
  }
}
layer {
  name: "inception_4d/relu_5x5"
  type: "ReLU"
  bottom: "inception_4d/5x5"
  top: "inception_4d/5x5"
}
layer {
  name: "inception_4d/pool"
  type: "Pooling"
  bottom: "inception_4c/output"
  top: "inception_4d/pool"
  pooling_param {
    pool: MAX
    kernel_size: 3
    stride: 1
    pad: 1
  }
}
layer {
  name: "inception_4d/pool_proj"
  type: "Convolution"
  bottom: "inception_4d/pool"
  top: "inception_4d/pool_proj"
  param {
    lr_mult: 1
    decay_mult: 1
  }
  param {
    lr_mult: 2
    decay_mult: 0
  }
  convolution_param {
    num_output: 64
    kernel_size: 1
    weight_filler {
      type: "xavier"
      std: 0.1
    }
    bias_filler {
      type: "constant"
      value: 0.2
    }
  }
}
layer {
  name: "inception_4d/relu_pool_proj"
  type: "ReLU"
  bottom: "inception_4d/pool_proj"
  top: "inception_4d/pool_proj"
}
layer {
  name: "inception_4d/output"
  type: "Concat"
  bottom: "inception_4d/1x1"
  bottom: "inception_4d/3x3"
  bottom: "inception_4d/5x5"
  bottom: "inception_4d/pool_proj"
  top: "inception_4d/output"
}
layer {
  name: "loss2/ave_pool"
  type: "Pooling"
  bottom: "inception_4d/output"
  top: "loss2/ave_pool"
  pooling_param {
    pool: AVE
    kernel_size: 5
    stride: 3
  }
}
layer {
  name: "loss2/conv"
  type: "Convolution"
  bottom: "loss2/ave_pool"
  top: "loss2/conv"
  param {
    lr_mult: 1
    decay_mult: 1
  }
  param {
    lr_mult: 2
    decay_mult: 0
  }
  convolution_param {
    num_output: 128
    kernel_size: 1
    weight_filler {
      type: "xavier"
      std: 0.08
    }
    bias_filler {
      type: "constant"
      value: 0.2
    }
  }
}
layer {
  name: "loss2/relu_conv"
  type: "ReLU"
  bottom: "loss2/conv"
  top: "loss2/conv"
}
layer {
  name: "loss2/fc"
  type: "InnerProduct"
  bottom: "loss2/conv"
  top: "loss2/fc"
  param {
    lr_mult: 1
    decay_mult: 1
  }
  param {
    lr_mult: 2
    decay_mult: 0
  }
  inner_product_param {
    num_output: 1024
    weight_filler {
      type: "xavier"
      std: 0.02
    }
    bias_filler {
      type: "constant"
      value: 0.2
    }
  }
}
layer {
  name: "loss2/relu_fc"
  type: "ReLU"
  bottom: "loss2/fc"
  top: "loss2/fc"
}
layer {
  name: "loss2/drop_fc"
  type: "Dropout"
  bottom: "loss2/fc"
  top: "loss2/fc"
  dropout_param {
    dropout_ratio: 0.7
  }
}
layer {
  name: "loss2/classifier_plantvillage"
  type: "InnerProduct"
  bottom: "loss2/fc"
  top: "loss2/classifier_plantvillage"
  param {
    lr_mult: 1
    decay_mult: 1
  }
  param {
    lr_mult: 2
    decay_mult: 0
  }
  inner_product_param {
    num_output: 38
    weight_filler {
      type: "xavier"
      std: 0.0009765625
    }
    bias_filler {
      type: "constant"
      value: 0
    }
  }
}
layer {
  name: "inception_4e/1x1"
  type: "Convolution"
  bottom: "inception_4d/output"
  top: "inception_4e/1x1"
  param {
    lr_mult: 1
    decay_mult: 1
  }
  param {
    lr_mult: 2
    decay_mult: 0
  }
  convolution_param {
    num_output: 256
    kernel_size: 1
    weight_filler {
      type: "xavier"
      std: 0.03
    }
    bias_filler {
      type: "constant"
      value: 0.2
    }
  }
}
layer {
  name: "inception_4e/relu_1x1"
  type: "ReLU"
  bottom: "inception_4e/1x1"
  top: "inception_4e/1x1"
}
layer {
  name: "inception_4e/3x3_reduce"
  type: "Convolution"
  bottom: "inception_4d/output"
  top: "inception_4e/3x3_reduce"
  param {
    lr_mult: 1
    decay_mult: 1
  }
  param {
    lr_mult: 2
    decay_mult: 0
  }
  convolution_param {
    num_output: 160
    kernel_size: 1
    weight_filler {
      type: "xavier"
      std: 0.09
    }
    bias_filler {
      type: "constant"
      value: 0.2
    }
  }
}
layer {
  name: "inception_4e/relu_3x3_reduce"
  type: "ReLU"
  bottom: "inception_4e/3x3_reduce"
  top: "inception_4e/3x3_reduce"
}
layer {
  name: "inception_4e/3x3"
  type: "Convolution"
  bottom: "inception_4e/3x3_reduce"
  top: "inception_4e/3x3"
  param {
    lr_mult: 1
    decay_mult: 1
  }
  param {
    lr_mult: 2
    decay_mult: 0
  }
  convolution_param {
    num_output: 320
    pad: 1
    kernel_size: 3
    weight_filler {
      type: "xavier"
      std: 0.03
    }
    bias_filler {
      type: "constant"
      value: 0.2
    }
  }
}
layer {
  name: "inception_4e/relu_3x3"
  type: "ReLU"
  bottom: "inception_4e/3x3"
  top: "inception_4e/3x3"
}
layer {
  name: "inception_4e/5x5_reduce"
  type: "Convolution"
  bottom: "inception_4d/output"
  top: "inception_4e/5x5_reduce"
  param {
    lr_mult: 1
    decay_mult: 1
  }
  param {
    lr_mult: 2
    decay_mult: 0
  }
  convolution_param {
    num_output: 32
    kernel_size: 1
    weight_filler {
      type: "xavier"
      std: 0.2
    }
    bias_filler {
      type: "constant"
      value: 0.2
    }
  }
}
layer {
  name: "inception_4e/relu_5x5_reduce"
  type: "ReLU"
  bottom: "inception_4e/5x5_reduce"
  top: "inception_4e/5x5_reduce"
}
layer {
  name: "inception_4e/5x5"
  type: "Convolution"
  bottom: "inception_4e/5x5_reduce"
  top: "inception_4e/5x5"
  p
I0403 19:39:22.956877  9501 layer_factory.hpp:77] Creating layer data
I0403 19:39:22.957489  9501 net.cpp:91] Creating Layer data
I0403 19:39:22.957522  9501 net.cpp:399] data -> data
I0403 19:39:22.957569  9501 net.cpp:399] data -> label
I0403 19:39:22.957604  9501 data_transformer.cpp:25] Loading mean file from: /home/mohanty/data/final_dataset/lmdb/color-50-50/mean.binaryproto
I0403 19:39:22.958827  9505 db_lmdb.cpp:38] Opened lmdb /home/mohanty/data/final_dataset/lmdb/color-50-50/test_db
I0403 19:39:22.978843  9501 data_layer.cpp:41] output data size: 24,3,224,224
I0403 19:39:23.007145  9501 net.cpp:141] Setting up data
I0403 19:39:23.007237  9501 net.cpp:148] Top shape: 24 3 224 224 (3612672)
I0403 19:39:23.007266  9501 net.cpp:148] Top shape: 24 (24)
I0403 19:39:23.007284  9501 net.cpp:156] Memory required for data: 14450784
I0403 19:39:23.007313  9501 layer_factory.hpp:77] Creating layer label_data_1_split
I0403 19:39:23.007341  9501 net.cpp:91] Creating Layer label_data_1_split
I0403 19:39:23.007362  9501 net.cpp:425] label_data_1_split <- label
I0403 19:39:23.007395  9501 net.cpp:399] label_data_1_split -> label_data_1_split_0
I0403 19:39:23.007423  9501 net.cpp:399] label_data_1_split -> label_data_1_split_1
I0403 19:39:23.007447  9501 net.cpp:399] label_data_1_split -> label_data_1_split_2
I0403 19:39:23.007468  9501 net.cpp:399] label_data_1_split -> label_data_1_split_3
I0403 19:39:23.007489  9501 net.cpp:399] label_data_1_split -> label_data_1_split_4
I0403 19:39:23.007511  9501 net.cpp:399] label_data_1_split -> label_data_1_split_5
I0403 19:39:23.007534  9501 net.cpp:399] label_data_1_split -> label_data_1_split_6
I0403 19:39:23.007555  9501 net.cpp:399] label_data_1_split -> label_data_1_split_7
I0403 19:39:23.007573  9501 net.cpp:399] label_data_1_split -> label_data_1_split_8
I0403 19:39:23.007592  9501 net.cpp:399] label_data_1_split -> label_data_1_split_9
I0403 19:39:23.007715  9501 net.cpp:141] Setting up label_data_1_split
I0403 19:39:23.007740  9501 net.cpp:148] Top shape: 24 (24)
I0403 19:39:23.007756  9501 net.cpp:148] Top shape: 24 (24)
I0403 19:39:23.007773  9501 net.cpp:148] Top shape: 24 (24)
I0403 19:39:23.007789  9501 net.cpp:148] Top shape: 24 (24)
I0403 19:39:23.007805  9501 net.cpp:148] Top shape: 24 (24)
I0403 19:39:23.007822  9501 net.cpp:148] Top shape: 24 (24)
I0403 19:39:23.007838  9501 net.cpp:148] Top shape: 24 (24)
I0403 19:39:23.007854  9501 net.cpp:148] Top shape: 24 (24)
I0403 19:39:23.007869  9501 net.cpp:148] Top shape: 24 (24)
I0403 19:39:23.007886  9501 net.cpp:148] Top shape: 24 (24)
I0403 19:39:23.007925  9501 net.cpp:156] Memory required for data: 14451744
I0403 19:39:23.007942  9501 layer_factory.hpp:77] Creating layer conv1/7x7_s2
I0403 19:39:23.007974  9501 net.cpp:91] Creating Layer conv1/7x7_s2
I0403 19:39:23.007994  9501 net.cpp:425] conv1/7x7_s2 <- data
I0403 19:39:23.008013  9501 net.cpp:399] conv1/7x7_s2 -> conv1/7x7_s2
I0403 19:39:25.238497  9501 net.cpp:141] Setting up conv1/7x7_s2
I0403 19:39:25.238592  9501 net.cpp:148] Top shape: 24 64 112 112 (19267584)
I0403 19:39:25.238610  9501 net.cpp:156] Memory required for data: 91522080
I0403 19:39:25.238641  9501 layer_factory.hpp:77] Creating layer conv1/relu_7x7
I0403 19:39:25.238667  9501 net.cpp:91] Creating Layer conv1/relu_7x7
I0403 19:39:25.238683  9501 net.cpp:425] conv1/relu_7x7 <- conv1/7x7_s2
I0403 19:39:25.238704  9501 net.cpp:386] conv1/relu_7x7 -> conv1/7x7_s2 (in-place)
I0403 19:39:25.238968  9501 net.cpp:141] Setting up conv1/relu_7x7
I0403 19:39:25.238996  9501 net.cpp:148] Top shape: 24 64 112 112 (19267584)
I0403 19:39:25.239012  9501 net.cpp:156] Memory required for data: 168592416
I0403 19:39:25.239025  9501 layer_factory.hpp:77] Creating layer pool1/3x3_s2
I0403 19:39:25.239049  9501 net.cpp:91] Creating Layer pool1/3x3_s2
I0403 19:39:25.239068  9501 net.cpp:425] pool1/3x3_s2 <- conv1/7x7_s2
I0403 19:39:25.239089  9501 net.cpp:399] pool1/3x3_s2 -> pool1/3x3_s2
I0403 19:39:25.239161  9501 net.cpp:141] Setting up pool1/3x3_s2
I0403 19:39:25.239187  9501 net.cpp:148] Top shape: 24 64 56 56 (4816896)
I0403 19:39:25.239202  9501 net.cpp:156] Memory required for data: 187860000
I0403 19:39:25.239217  9501 layer_factory.hpp:77] Creating layer pool1/norm1
I0403 19:39:25.239245  9501 net.cpp:91] Creating Layer pool1/norm1
I0403 19:39:25.239264  9501 net.cpp:425] pool1/norm1 <- pool1/3x3_s2
I0403 19:39:25.239284  9501 net.cpp:399] pool1/norm1 -> pool1/norm1
I0403 19:39:25.239573  9501 net.cpp:141] Setting up pool1/norm1
I0403 19:39:25.239598  9501 net.cpp:148] Top shape: 24 64 56 56 (4816896)
I0403 19:39:25.239614  9501 net.cpp:156] Memory required for data: 207127584
I0403 19:39:25.239627  9501 layer_factory.hpp:77] Creating layer conv2/3x3_reduce
I0403 19:39:25.239653  9501 net.cpp:91] Creating Layer conv2/3x3_reduce
I0403 19:39:25.239672  9501 net.cpp:425] conv2/3x3_reduce <- pool1/norm1
I0403 19:39:25.239692  9501 net.cpp:399] conv2/3x3_reduce -> conv2/3x3_reduce
I0403 19:39:25.241050  9501 net.cpp:141] Setting up conv2/3x3_reduce
I0403 19:39:25.241077  9501 net.cpp:148] Top shape: 24 64 56 56 (4816896)
I0403 19:39:25.241092  9501 net.cpp:156] Memory required for data: 226395168
I0403 19:39:25.241113  9501 layer_factory.hpp:77] Creating layer conv2/relu_3x3_reduce
I0403 19:39:25.241133  9501 net.cpp:91] Creating Layer conv2/relu_3x3_reduce
I0403 19:39:25.241148  9501 net.cpp:425] conv2/relu_3x3_reduce <- conv2/3x3_reduce
I0403 19:39:25.241165  9501 net.cpp:386] conv2/relu_3x3_reduce -> conv2/3x3_reduce (in-place)
I0403 19:39:25.241430  9501 net.cpp:141] Setting up conv2/relu_3x3_reduce
I0403 19:39:25.241454  9501 net.cpp:148] Top shape: 24 64 56 56 (4816896)
I0403 19:39:25.241468  9501 net.cpp:156] Memory required for data: 245662752
I0403 19:39:25.241482  9501 layer_factory.hpp:77] Creating layer conv2/3x3
I0403 19:39:25.241508  9501 net.cpp:91] Creating Layer conv2/3x3
I0403 19:39:25.241524  9501 net.cpp:425] conv2/3x3 <- conv2/3x3_reduce
I0403 19:39:25.241542  9501 net.cpp:399] conv2/3x3 -> conv2/3x3
I0403 19:39:25.243782  9501 net.cpp:141] Setting up conv2/3x3
I0403 19:39:25.243811  9501 net.cpp:148] Top shape: 24 192 56 56 (14450688)
I0403 19:39:25.243827  9501 net.cpp:156] Memory required for data: 303465504
I0403 19:39:25.243847  9501 layer_factory.hpp:77] Creating layer conv2/relu_3x3
I0403 19:39:25.243868  9501 net.cpp:91] Creating Layer conv2/relu_3x3
I0403 19:39:25.243883  9501 net.cpp:425] conv2/relu_3x3 <- conv2/3x3
I0403 19:39:25.243899  9501 net.cpp:386] conv2/relu_3x3 -> conv2/3x3 (in-place)
I0403 19:39:25.244073  9501 net.cpp:141] Setting up conv2/relu_3x3
I0403 19:39:25.244097  9501 net.cpp:148] Top shape: 24 192 56 56 (14450688)
I0403 19:39:25.244143  9501 net.cpp:156] Memory required for data: 361268256
I0403 19:39:25.244158  9501 layer_factory.hpp:77] Creating layer conv2/norm2
I0403 19:39:25.244174  9501 net.cpp:91] Creating Layer conv2/norm2
I0403 19:39:25.244189  9501 net.cpp:425] conv2/norm2 <- conv2/3x3
I0403 19:39:25.244209  9501 net.cpp:399] conv2/norm2 -> conv2/norm2
I0403 19:39:25.244510  9501 net.cpp:141] Setting up conv2/norm2
I0403 19:39:25.244536  9501 net.cpp:148] Top shape: 24 192 56 56 (14450688)
I0403 19:39:25.244550  9501 net.cpp:156] Memory required for data: 419071008
I0403 19:39:25.244565  9501 layer_factory.hpp:77] Creating layer pool2/3x3_s2
I0403 19:39:25.244581  9501 net.cpp:91] Creating Layer pool2/3x3_s2
I0403 19:39:25.244596  9501 net.cpp:425] pool2/3x3_s2 <- conv2/norm2
I0403 19:39:25.244616  9501 net.cpp:399] pool2/3x3_s2 -> pool2/3x3_s2
I0403 19:39:25.244670  9501 net.cpp:141] Setting up pool2/3x3_s2
I0403 19:39:25.244693  9501 net.cpp:148] Top shape: 24 192 28 28 (3612672)
I0403 19:39:25.244705  9501 net.cpp:156] Memory required for data: 433521696
I0403 19:39:25.244719  9501 layer_factory.hpp:77] Creating layer pool2/3x3_s2_pool2/3x3_s2_0_split
I0403 19:39:25.244736  9501 net.cpp:91] Creating Layer pool2/3x3_s2_pool2/3x3_s2_0_split
I0403 19:39:25.244750  9501 net.cpp:425] pool2/3x3_s2_pool2/3x3_s2_0_split <- pool2/3x3_s2
I0403 19:39:25.244770  9501 net.cpp:399] pool2/3x3_s2_pool2/3x3_s2_0_split -> pool2/3x3_s2_pool2/3x3_s2_0_split_0
I0403 19:39:25.244789  9501 net.cpp:399] pool2/3x3_s2_pool2/3x3_s2_0_split -> pool2/3x3_s2_pool2/3x3_s2_0_split_1
I0403 19:39:25.244807  9501 net.cpp:399] pool2/3x3_s2_pool2/3x3_s2_0_split -> pool2/3x3_s2_pool2/3x3_s2_0_split_2
I0403 19:39:25.244824  9501 net.cpp:399] pool2/3x3_s2_pool2/3x3_s2_0_split -> pool2/3x3_s2_pool2/3x3_s2_0_split_3
I0403 19:39:25.244892  9501 net.cpp:141] Setting up pool2/3x3_s2_pool2/3x3_s2_0_split
I0403 19:39:25.244916  9501 net.cpp:148] Top shape: 24 192 28 28 (3612672)
I0403 19:39:25.244933  9501 net.cpp:148] Top shape: 24 192 28 28 (3612672)
I0403 19:39:25.244948  9501 net.cpp:148] Top shape: 24 192 28 28 (3612672)
I0403 19:39:25.244963  9501 net.cpp:148] Top shape: 24 192 28 28 (3612672)
I0403 19:39:25.244976  9501 net.cpp:156] Memory required for data: 491324448
I0403 19:39:25.244989  9501 layer_factory.hpp:77] Creating layer inception_3a/1x1
I0403 19:39:25.245010  9501 net.cpp:91] Creating Layer inception_3a/1x1
I0403 19:39:25.245028  9501 net.cpp:425] inception_3a/1x1 <- pool2/3x3_s2_pool2/3x3_s2_0_split_0
I0403 19:39:25.245045  9501 net.cpp:399] inception_3a/1x1 -> inception_3a/1x1
I0403 19:39:25.246517  9501 net.cpp:141] Setting up inception_3a/1x1
I0403 19:39:25.246546  9501 net.cpp:148] Top shape: 24 64 28 28 (1204224)
I0403 19:39:25.246562  9501 net.cpp:156] Memory required for data: 496141344
I0403 19:39:25.246579  9501 layer_factory.hpp:77] Creating layer inception_3a/relu_1x1
I0403 19:39:25.246599  9501 net.cpp:91] Creating Layer inception_3a/relu_1x1
I0403 19:39:25.246615  9501 net.cpp:425] inception_3a/relu_1x1 <- inception_3a/1x1
I0403 19:39:25.246631  9501 net.cpp:386] inception_3a/relu_1x1 -> inception_3a/1x1 (in-place)
I0403 19:39:25.246795  9501 net.cpp:141] Setting up inception_3a/relu_1x1
I0403 19:39:25.246821  9501 net.cpp:148] Top shape: 24 64 28 28 (1204224)
I0403 19:39:25.246836  9501 net.cpp:156] Memory required for data: 500958240
I0403 19:39:25.246850  9501 layer_factory.hpp:77] Creating layer inception_3a/3x3_reduce
I0403 19:39:25.246871  9501 net.cpp:91] Creating Layer inception_3a/3x3_reduce
I0403 19:39:25.246887  9501 net.cpp:425] inception_3a/3x3_reduce <- pool2/3x3_s2_pool2/3x3_s2_0_split_1
I0403 19:39:25.246906  9501 net.cpp:399] inception_3a/3x3_reduce -> inception_3a/3x3_reduce
I0403 19:39:25.248533  9501 net.cpp:141] Setting up inception_3a/3x3_reduce
I0403 19:39:25.248560  9501 net.cpp:148] Top shape: 24 96 28 28 (1806336)
I0403 19:39:25.248575  9501 net.cpp:156] Memory required for data: 508183584
I0403 19:39:25.248595  9501 layer_factory.hpp:77] Creating layer inception_3a/relu_3x3_reduce
I0403 19:39:25.248631  9501 net.cpp:91] Creating Layer inception_3a/relu_3x3_reduce
I0403 19:39:25.248648  9501 net.cpp:425] inception_3a/relu_3x3_reduce <- inception_3a/3x3_reduce
I0403 19:39:25.248667  9501 net.cpp:386] inception_3a/relu_3x3_reduce -> inception_3a/3x3_reduce (in-place)
I0403 19:39:25.248845  9501 net.cpp:141] Setting up inception_3a/relu_3x3_reduce
I0403 19:39:25.248869  9501 net.cpp:148] Top shape: 24 96 28 28 (1806336)
I0403 19:39:25.248883  9501 net.cpp:156] Memory required for data: 515408928
I0403 19:39:25.248898  9501 layer_factory.hpp:77] Creating layer inception_3a/3x3
I0403 19:39:25.248919  9501 net.cpp:91] Creating Layer inception_3a/3x3
I0403 19:39:25.248936  9501 net.cpp:425] inception_3a/3x3 <- inception_3a/3x3_reduce
I0403 19:39:25.248956  9501 net.cpp:399] inception_3a/3x3 -> inception_3a/3x3
I0403 19:39:25.250547  9501 net.cpp:141] Setting up inception_3a/3x3
I0403 19:39:25.250577  9501 net.cpp:148] Top shape: 24 128 28 28 (2408448)
I0403 19:39:25.250593  9501 net.cpp:156] Memory required for data: 525042720
I0403 19:39:25.250612  9501 layer_factory.hpp:77] Creating layer inception_3a/relu_3x3
I0403 19:39:25.250628  9501 net.cpp:91] Creating Layer inception_3a/relu_3x3
I0403 19:39:25.250643  9501 net.cpp:425] inception_3a/relu_3x3 <- inception_3a/3x3
I0403 19:39:25.250658  9501 net.cpp:386] inception_3a/relu_3x3 -> inception_3a/3x3 (in-place)
I0403 19:39:25.250918  9501 net.cpp:141] Setting up inception_3a/relu_3x3
I0403 19:39:25.250946  9501 net.cpp:148] Top shape: 24 128 28 28 (2408448)
I0403 19:39:25.250962  9501 net.cpp:156] Memory required for data: 534676512
I0403 19:39:25.250977  9501 layer_factory.hpp:77] Creating layer inception_3a/5x5_reduce
I0403 19:39:25.250998  9501 net.cpp:91] Creating Layer inception_3a/5x5_reduce
I0403 19:39:25.251014  9501 net.cpp:425] inception_3a/5x5_reduce <- pool2/3x3_s2_pool2/3x3_s2_0_split_2
I0403 19:39:25.251032  9501 net.cpp:399] inception_3a/5x5_reduce -> inception_3a/5x5_reduce
I0403 19:39:25.251988  9501 net.cpp:141] Setting up inception_3a/5x5_reduce
I0403 19:39:25.252017  9501 net.cpp:148] Top shape: 24 16 28 28 (301056)
I0403 19:39:25.252032  9501 net.cpp:156] Memory required for data: 535880736
I0403 19:39:25.252050  9501 layer_factory.hpp:77] Creating layer inception_3a/relu_5x5_reduce
I0403 19:39:25.252068  9501 net.cpp:91] Creating Layer inception_3a/relu_5x5_reduce
I0403 19:39:25.252082  9501 net.cpp:425] inception_3a/relu_5x5_reduce <- inception_3a/5x5_reduce
I0403 19:39:25.252099  9501 net.cpp:386] inception_3a/relu_5x5_reduce -> inception_3a/5x5_reduce (in-place)
I0403 19:39:25.252388  9501 net.cpp:141] Setting up inception_3a/relu_5x5_reduce
I0403 19:39:25.252413  9501 net.cpp:148] Top shape: 24 16 28 28 (301056)
I0403 19:39:25.252429  9501 net.cpp:156] Memory required for data: 537084960
I0403 19:39:25.252444  9501 layer_factory.hpp:77] Creating layer inception_3a/5x5
I0403 19:39:25.252465  9501 net.cpp:91] Creating Layer inception_3a/5x5
I0403 19:39:25.252482  9501 net.cpp:425] inception_3a/5x5 <- inception_3a/5x5_reduce
I0403 19:39:25.252502  9501 net.cpp:399] inception_3a/5x5 -> inception_3a/5x5
I0403 19:39:25.253481  9501 net.cpp:141] Setting up inception_3a/5x5
I0403 19:39:25.253507  9501 net.cpp:148] Top shape: 24 32 28 28 (602112)
I0403 19:39:25.253522  9501 net.cpp:156] Memory required for data: 539493408
I0403 19:39:25.253540  9501 layer_factory.hpp:77] Creating layer inception_3a/relu_5x5
I0403 19:39:25.253559  9501 net.cpp:91] Creating Layer inception_3a/relu_5x5
I0403 19:39:25.253576  9501 net.cpp:425] inception_3a/relu_5x5 <- inception_3a/5x5
I0403 19:39:25.253592  9501 net.cpp:386] inception_3a/relu_5x5 -> inception_3a/5x5 (in-place)
I0403 19:39:25.253754  9501 net.cpp:141] Setting up inception_3a/relu_5x5
I0403 19:39:25.253779  9501 net.cpp:148] Top shape: 24 32 28 28 (602112)
I0403 19:39:25.253794  9501 net.cpp:156] Memory required for data: 541901856
I0403 19:39:25.253808  9501 layer_factory.hpp:77] Creating layer inception_3a/pool
I0403 19:39:25.253825  9501 net.cpp:91] Creating Layer inception_3a/pool
I0403 19:39:25.253840  9501 net.cpp:425] inception_3a/pool <- pool2/3x3_s2_pool2/3x3_s2_0_split_3
I0403 19:39:25.253875  9501 net.cpp:399] inception_3a/pool -> inception_3a/pool
I0403 19:39:25.253931  9501 net.cpp:141] Setting up inception_3a/pool
I0403 19:39:25.253953  9501 net.cpp:148] Top shape: 24 192 28 28 (3612672)
I0403 19:39:25.253968  9501 net.cpp:156] Memory required for data: 556352544
I0403 19:39:25.253981  9501 layer_factory.hpp:77] Creating layer inception_3a/pool_proj
I0403 19:39:25.254003  9501 net.cpp:91] Creating Layer inception_3a/pool_proj
I0403 19:39:25.254019  9501 net.cpp:425] inception_3a/pool_proj <- inception_3a/pool
I0403 19:39:25.254040  9501 net.cpp:399] inception_3a/pool_proj -> inception_3a/pool_proj
I0403 19:39:25.255007  9501 net.cpp:141] Setting up inception_3a/pool_proj
I0403 19:39:25.255038  9501 net.cpp:148] Top shape: 24 32 28 28 (602112)
I0403 19:39:25.255053  9501 net.cpp:156] Memory required for data: 558760992
I0403 19:39:25.255079  9501 layer_factory.hpp:77] Creating layer inception_3a/relu_pool_proj
I0403 19:39:25.255097  9501 net.cpp:91] Creating Layer inception_3a/relu_pool_proj
I0403 19:39:25.255113  9501 net.cpp:425] inception_3a/relu_pool_proj <- inception_3a/pool_proj
I0403 19:39:25.255131  9501 net.cpp:386] inception_3a/relu_pool_proj -> inception_3a/pool_proj (in-place)
I0403 19:39:25.255408  9501 net.cpp:141] Setting up inception_3a/relu_pool_proj
I0403 19:39:25.255437  9501 net.cpp:148] Top shape: 24 32 28 28 (602112)
I0403 19:39:25.255452  9501 net.cpp:156] Memory required for data: 561169440
I0403 19:39:25.255470  9501 layer_factory.hpp:77] Creating layer inception_3a/output
I0403 19:39:25.255487  9501 net.cpp:91] Creating Layer inception_3a/output
I0403 19:39:25.255503  9501 net.cpp:425] inception_3a/output <- inception_3a/1x1
I0403 19:39:25.255519  9501 net.cpp:425] inception_3a/output <- inception_3a/3x3
I0403 19:39:25.255537  9501 net.cpp:425] inception_3a/output <- inception_3a/5x5
I0403 19:39:25.255551  9501 net.cpp:425] inception_3a/output <- inception_3a/pool_proj
I0403 19:39:25.255568  9501 net.cpp:399] inception_3a/output -> inception_3a/output
I0403 19:39:25.255616  9501 net.cpp:141] Setting up inception_3a/output
I0403 19:39:25.255640  9501 net.cpp:148] Top shape: 24 256 28 28 (4816896)
I0403 19:39:25.255655  9501 net.cpp:156] Memory required for data: 580437024
I0403 19:39:25.255669  9501 layer_factory.hpp:77] Creating layer inception_3a/output_inception_3a/output_0_split
I0403 19:39:25.255686  9501 net.cpp:91] Creating Layer inception_3a/output_inception_3a/output_0_split
I0403 19:39:25.255704  9501 net.cpp:425] inception_3a/output_inception_3a/output_0_split <- inception_3a/output
I0403 19:39:25.255720  9501 net.cpp:399] inception_3a/output_inception_3a/output_0_split -> inception_3a/output_inception_3a/output_0_split_0
I0403 19:39:25.255739  9501 net.cpp:399] inception_3a/output_inception_3a/output_0_split -> inception_3a/output_inception_3a/output_0_split_1
I0403 19:39:25.255764  9501 net.cpp:399] inception_3a/output_inception_3a/output_0_split -> inception_3a/output_inception_3a/output_0_split_2
I0403 19:39:25.255784  9501 net.cpp:399] inception_3a/output_inception_3a/output_0_split -> inception_3a/output_inception_3a/output_0_split_3
I0403 19:39:25.255861  9501 net.cpp:141] Setting up inception_3a/output_inception_3a/output_0_split
I0403 19:39:25.255882  9501 net.cpp:148] Top shape: 24 256 28 28 (4816896)
I0403 19:39:25.255899  9501 net.cpp:148] Top shape: 24 256 28 28 (4816896)
I0403 19:39:25.255915  9501 net.cpp:148] Top shape: 24 256 28 28 (4816896)
I0403 19:39:25.255930  9501 net.cpp:148] Top shape: 24 256 28 28 (4816896)
I0403 19:39:25.255944  9501 net.cpp:156] Memory required for data: 657507360
I0403 19:39:25.255959  9501 layer_factory.hpp:77] Creating layer inception_3b/1x1
I0403 19:39:25.255980  9501 net.cpp:91] Creating Layer inception_3b/1x1
I0403 19:39:25.255997  9501 net.cpp:425] inception_3b/1x1 <- inception_3a/output_inception_3a/output_0_split_0
I0403 19:39:25.256017  9501 net.cpp:399] inception_3b/1x1 -> inception_3b/1x1
I0403 19:39:25.257205  9501 net.cpp:141] Setting up inception_3b/1x1
I0403 19:39:25.257249  9501 net.cpp:148] Top shape: 24 128 28 28 (2408448)
I0403 19:39:25.257268  9501 net.cpp:156] Memory required for data: 667141152
I0403 19:39:25.257287  9501 layer_factory.hpp:77] Creating layer inception_3b/relu_1x1
I0403 19:39:25.257308  9501 net.cpp:91] Creating Layer inception_3b/relu_1x1
I0403 19:39:25.257324  9501 net.cpp:425] inception_3b/relu_1x1 <- inception_3b/1x1
I0403 19:39:25.257342  9501 net.cpp:386] inception_3b/relu_1x1 -> inception_3b/1x1 (in-place)
I0403 19:39:25.257532  9501 net.cpp:141] Setting up inception_3b/relu_1x1
I0403 19:39:25.257558  9501 net.cpp:148] Top shape: 24 128 28 28 (2408448)
I0403 19:39:25.257573  9501 net.cpp:156] Memory required for data: 676774944
I0403 19:39:25.257588  9501 layer_factory.hpp:77] Creating layer inception_3b/3x3_reduce
I0403 19:39:25.257611  9501 net.cpp:91] Creating Layer inception_3b/3x3_reduce
I0403 19:39:25.257627  9501 net.cpp:425] inception_3b/3x3_reduce <- inception_3a/output_inception_3a/output_0_split_1
I0403 19:39:25.257647  9501 net.cpp:399] inception_3b/3x3_reduce -> inception_3b/3x3_reduce
I0403 19:39:25.258783  9501 net.cpp:141] Setting up inception_3b/3x3_reduce
I0403 19:39:25.258811  9501 net.cpp:148] Top shape: 24 128 28 28 (2408448)
I0403 19:39:25.258826  9501 net.cpp:156] Memory required for data: 686408736
I0403 19:39:25.258844  9501 layer_factory.hpp:77] Creating layer inception_3b/relu_3x3_reduce
I0403 19:39:25.258865  9501 net.cpp:91] Creating Layer inception_3b/relu_3x3_reduce
I0403 19:39:25.258882  9501 net.cpp:425] inception_3b/relu_3x3_reduce <- inception_3b/3x3_reduce
I0403 19:39:25.258899  9501 net.cpp:386] inception_3b/relu_3x3_reduce -> inception_3b/3x3_reduce (in-place)
I0403 19:39:25.259071  9501 net.cpp:141] Setting up inception_3b/relu_3x3_reduce
I0403 19:39:25.259096  9501 net.cpp:148] Top shape: 24 128 28 28 (2408448)
I0403 19:39:25.259111  9501 net.cpp:156] Memory required for data: 696042528
I0403 19:39:25.259125  9501 layer_factory.hpp:77] Creating layer inception_3b/3x3
I0403 19:39:25.259151  9501 net.cpp:91] Creating Layer inception_3b/3x3
I0403 19:39:25.259169  9501 net.cpp:425] inception_3b/3x3 <- inception_3b/3x3_reduce
I0403 19:39:25.259191  9501 net.cpp:399] inception_3b/3x3 -> inception_3b/3x3
I0403 19:39:25.262099  9501 net.cpp:141] Setting up inception_3b/3x3
I0403 19:39:25.262130  9501 net.cpp:148] Top shape: 24 192 28 28 (3612672)
I0403 19:39:25.262145  9501 net.cpp:156] Memory required for data: 710493216
I0403 19:39:25.262164  9501 layer_factory.hpp:77] Creating layer inception_3b/relu_3x3
I0403 19:39:25.262181  9501 net.cpp:91] Creating Layer inception_3b/relu_3x3
I0403 19:39:25.262197  9501 net.cpp:425] inception_3b/relu_3x3 <- inception_3b/3x3
I0403 19:39:25.262213  9501 net.cpp:386] inception_3b/relu_3x3 -> inception_3b/3x3 (in-place)
I0403 19:39:25.262490  9501 net.cpp:141] Setting up inception_3b/relu_3x3
I0403 19:39:25.262517  9501 net.cpp:148] Top shape: 24 192 28 28 (3612672)
I0403 19:39:25.262533  9501 net.cpp:156] Memory required for data: 724943904
I0403 19:39:25.262547  9501 layer_factory.hpp:77] Creating layer inception_3b/5x5_reduce
I0403 19:39:25.262567  9501 net.cpp:91] Creating Layer inception_3b/5x5_reduce
I0403 19:39:25.262584  9501 net.cpp:425] inception_3b/5x5_reduce <- inception_3a/output_inception_3a/output_0_split_2
I0403 19:39:25.262608  9501 net.cpp:399] inception_3b/5x5_reduce -> inception_3b/5x5_reduce
I0403 19:39:25.263602  9501 net.cpp:141] Setting up inception_3b/5x5_reduce
I0403 19:39:25.263630  9501 net.cpp:148] Top shape: 24 32 28 28 (602112)
I0403 19:39:25.263648  9501 net.cpp:156] Memory required for data: 727352352
I0403 19:39:25.263666  9501 layer_factory.hpp:77] Creating layer inception_3b/relu_5x5_reduce
I0403 19:39:25.263684  9501 net.cpp:91] Creating Layer inception_3b/relu_5x5_reduce
I0403 19:39:25.263700  9501 net.cpp:425] inception_3b/relu_5x5_reduce <- inception_3b/5x5_reduce
I0403 19:39:25.263716  9501 net.cpp:386] inception_3b/relu_5x5_reduce -> inception_3b/5x5_reduce (in-place)
I0403 19:39:25.263890  9501 net.cpp:141] Setting up inception_3b/relu_5x5_reduce
I0403 19:39:25.263931  9501 net.cpp:148] Top shape: 24 32 28 28 (602112)
I0403 19:39:25.263947  9501 net.cpp:156] Memory required for data: 729760800
I0403 19:39:25.263960  9501 layer_factory.hpp:77] Creating layer inception_3b/5x5
I0403 19:39:25.263983  9501 net.cpp:91] Creating Layer inception_3b/5x5
I0403 19:39:25.263999  9501 net.cpp:425] inception_3b/5x5 <- inception_3b/5x5_reduce
I0403 19:39:25.264019  9501 net.cpp:399] inception_3b/5x5 -> inception_3b/5x5
I0403 19:39:25.265972  9501 net.cpp:141] Setting up inception_3b/5x5
I0403 19:39:25.266001  9501 net.cpp:148] Top shape: 24 96 28 28 (1806336)
I0403 19:39:25.266016  9501 net.cpp:156] Memory required for data: 736986144
I0403 19:39:25.266034  9501 layer_factory.hpp:77] Creating layer inception_3b/relu_5x5
I0403 19:39:25.266054  9501 net.cpp:91] Creating Layer inception_3b/relu_5x5
I0403 19:39:25.266072  9501 net.cpp:425] inception_3b/relu_5x5 <- inception_3b/5x5
I0403 19:39:25.266088  9501 net.cpp:386] inception_3b/relu_5x5 -> inception_3b/5x5 (in-place)
I0403 19:39:25.266286  9501 net.cpp:141] Setting up inception_3b/relu_5x5
I0403 19:39:25.266312  9501 net.cpp:148] Top shape: 24 96 28 28 (1806336)
I0403 19:39:25.266327  9501 net.cpp:156] Memory required for data: 744211488
I0403 19:39:25.266341  9501 layer_factory.hpp:77] Creating layer inception_3b/pool
I0403 19:39:25.266360  9501 net.cpp:91] Creating Layer inception_3b/pool
I0403 19:39:25.266374  9501 net.cpp:425] inception_3b/pool <- inception_3a/output_inception_3a/output_0_split_3
I0403 19:39:25.266392  9501 net.cpp:399] inception_3b/pool -> inception_3b/pool
I0403 19:39:25.266446  9501 net.cpp:141] Setting up inception_3b/pool
I0403 19:39:25.266469  9501 net.cpp:148] Top shape: 24 256 28 28 (4816896)
I0403 19:39:25.266484  9501 net.cpp:156] Memory required for data: 763479072
I0403 19:39:25.266499  9501 layer_factory.hpp:77] Creating layer inception_3b/pool_proj
I0403 19:39:25.266520  9501 net.cpp:91] Creating Layer inception_3b/pool_proj
I0403 19:39:25.266538  9501 net.cpp:425] inception_3b/pool_proj <- inception_3b/pool
I0403 19:39:25.266558  9501 net.cpp:399] inception_3b/pool_proj -> inception_3b/pool_proj
I0403 19:39:25.267611  9501 net.cpp:141] Setting up inception_3b/pool_proj
I0403 19:39:25.267642  9501 net.cpp:148] Top shape: 24 64 28 28 (1204224)
I0403 19:39:25.267657  9501 net.cpp:156] Memory required for data: 768295968
I0403 19:39:25.267675  9501 layer_factory.hpp:77] Creating layer inception_3b/relu_pool_proj
I0403 19:39:25.267693  9501 net.cpp:91] Creating Layer inception_3b/relu_pool_proj
I0403 19:39:25.267709  9501 net.cpp:425] inception_3b/relu_pool_proj <- inception_3b/pool_proj
I0403 19:39:25.267729  9501 net.cpp:386] inception_3b/relu_pool_proj -> inception_3b/pool_proj (in-place)
I0403 19:39:25.268111  9501 net.cpp:141] Setting up inception_3b/relu_pool_proj
I0403 19:39:25.268139  9501 net.cpp:148] Top shape: 24 64 28 28 (1204224)
I0403 19:39:25.268156  9501 net.cpp:156] Memory required for data: 773112864
I0403 19:39:25.268169  9501 layer_factory.hpp:77] Creating layer inception_3b/output
I0403 19:39:25.268187  9501 net.cpp:91] Creating Layer inception_3b/output
I0403 19:39:25.268201  9501 net.cpp:425] inception_3b/output <- inception_3b/1x1
I0403 19:39:25.268218  9501 net.cpp:425] inception_3b/output <- inception_3b/3x3
I0403 19:39:25.268234  9501 net.cpp:425] inception_3b/output <- inception_3b/5x5
I0403 19:39:25.268254  9501 net.cpp:425] inception_3b/output <- inception_3b/pool_proj
I0403 19:39:25.268271  9501 net.cpp:399] inception_3b/output -> inception_3b/output
I0403 19:39:25.268316  9501 net.cpp:141] Setting up inception_3b/output
I0403 19:39:25.268339  9501 net.cpp:148] Top shape: 24 480 28 28 (9031680)
I0403 19:39:25.268353  9501 net.cpp:156] Memory required for data: 809239584
I0403 19:39:25.268368  9501 layer_factory.hpp:77] Creating layer pool3/3x3_s2
I0403 19:39:25.268386  9501 net.cpp:91] Creating Layer pool3/3x3_s2
I0403 19:39:25.268402  9501 net.cpp:425] pool3/3x3_s2 <- inception_3b/output
I0403 19:39:25.268420  9501 net.cpp:399] pool3/3x3_s2 -> pool3/3x3_s2
I0403 19:39:25.268493  9501 net.cpp:141] Setting up pool3/3x3_s2
I0403 19:39:25.268517  9501 net.cpp:148] Top shape: 24 480 14 14 (2257920)
I0403 19:39:25.268532  9501 net.cpp:156] Memory required for data: 818271264
I0403 19:39:25.268544  9501 layer_factory.hpp:77] Creating layer pool3/3x3_s2_pool3/3x3_s2_0_split
I0403 19:39:25.268561  9501 net.cpp:91] Creating Layer pool3/3x3_s2_pool3/3x3_s2_0_split
I0403 19:39:25.268575  9501 net.cpp:425] pool3/3x3_s2_pool3/3x3_s2_0_split <- pool3/3x3_s2
I0403 19:39:25.268597  9501 net.cpp:399] pool3/3x3_s2_pool3/3x3_s2_0_split -> pool3/3x3_s2_pool3/3x3_s2_0_split_0
I0403 19:39:25.268617  9501 net.cpp:399] pool3/3x3_s2_pool3/3x3_s2_0_split -> pool3/3x3_s2_pool3/3x3_s2_0_split_1
I0403 19:39:25.268635  9501 net.cpp:399] pool3/3x3_s2_pool3/3x3_s2_0_split -> pool3/3x3_s2_pool3/3x3_s2_0_split_2
I0403 19:39:25.268654  9501 net.cpp:399] pool3/3x3_s2_pool3/3x3_s2_0_split -> pool3/3x3_s2_pool3/3x3_s2_0_split_3
I0403 19:39:25.268729  9501 net.cpp:141] Setting up pool3/3x3_s2_pool3/3x3_s2_0_split
I0403 19:39:25.268754  9501 net.cpp:148] Top shape: 24 480 14 14 (2257920)
I0403 19:39:25.268771  9501 net.cpp:148] Top shape: 24 480 14 14 (2257920)
I0403 19:39:25.268786  9501 net.cpp:148] Top shape: 24 480 14 14 (2257920)
I0403 19:39:25.268802  9501 net.cpp:148] Top shape: 24 480 14 14 (2257920)
I0403 19:39:25.268816  9501 net.cpp:156] Memory required for data: 854397984
I0403 19:39:25.268831  9501 layer_factory.hpp:77] Creating layer inception_4a/1x1
I0403 19:39:25.268851  9501 net.cpp:91] Creating Layer inception_4a/1x1
I0403 19:39:25.268868  9501 net.cpp:425] inception_4a/1x1 <- pool3/3x3_s2_pool3/3x3_s2_0_split_0
I0403 19:39:25.268887  9501 net.cpp:399] inception_4a/1x1 -> inception_4a/1x1
I0403 19:39:25.270478  9501 net.cpp:141] Setting up inception_4a/1x1
I0403 19:39:25.270505  9501 net.cpp:148] Top shape: 24 192 14 14 (903168)
I0403 19:39:25.270521  9501 net.cpp:156] Memory required for data: 858010656
I0403 19:39:25.270539  9501 layer_factory.hpp:77] Creating layer inception_4a/relu_1x1
I0403 19:39:25.270557  9501 net.cpp:91] Creating Layer inception_4a/relu_1x1
I0403 19:39:25.270576  9501 net.cpp:425] inception_4a/relu_1x1 <- inception_4a/1x1
I0403 19:39:25.270592  9501 net.cpp:386] inception_4a/relu_1x1 -> inception_4a/1x1 (in-place)
I0403 19:39:25.270764  9501 net.cpp:141] Setting up inception_4a/relu_1x1
I0403 19:39:25.270790  9501 net.cpp:148] Top shape: 24 192 14 14 (903168)
I0403 19:39:25.270804  9501 net.cpp:156] Memory required for data: 861623328
I0403 19:39:25.270818  9501 layer_factory.hpp:77] Creating layer inception_4a/3x3_reduce
I0403 19:39:25.270840  9501 net.cpp:91] Creating Layer inception_4a/3x3_reduce
I0403 19:39:25.270858  9501 net.cpp:425] inception_4a/3x3_reduce <- pool3/3x3_s2_pool3/3x3_s2_0_split_1
I0403 19:39:25.270879  9501 net.cpp:399] inception_4a/3x3_reduce -> inception_4a/3x3_reduce
I0403 19:39:25.272152  9501 net.cpp:141] Setting up inception_4a/3x3_reduce
I0403 19:39:25.272184  9501 net.cpp:148] Top shape: 24 96 14 14 (451584)
I0403 19:39:25.272214  9501 net.cpp:156] Memory required for data: 863429664
I0403 19:39:25.272243  9501 layer_factory.hpp:77] Creating layer inception_4a/relu_3x3_reduce
I0403 19:39:25.272272  9501 net.cpp:91] Creating Layer inception_4a/relu_3x3_reduce
I0403 19:39:25.272290  9501 net.cpp:425] inception_4a/relu_3x3_reduce <- inception_4a/3x3_reduce
I0403 19:39:25.272331  9501 net.cpp:386] inception_4a/relu_3x3_reduce -> inception_4a/3x3_reduce (in-place)
I0403 19:39:25.272511  9501 net.cpp:141] Setting up inception_4a/relu_3x3_reduce
I0403 19:39:25.272536  9501 net.cpp:148] Top shape: 24 96 14 14 (451584)
I0403 19:39:25.272552  9501 net.cpp:156] Memory required for data: 865236000
I0403 19:39:25.272588  9501 layer_factory.hpp:77] Creating layer inception_4a/3x3
I0403 19:39:25.272620  9501 net.cpp:91] Creating Layer inception_4a/3x3
I0403 19:39:25.272675  9501 net.cpp:425] inception_4a/3x3 <- inception_4a/3x3_reduce
I0403 19:39:25.272724  9501 net.cpp:399] inception_4a/3x3 -> inception_4a/3x3
I0403 19:39:25.275391  9501 net.cpp:141] Setting up inception_4a/3x3
I0403 19:39:25.275420  9501 net.cpp:148] Top shape: 24 208 14 14 (978432)
I0403 19:39:25.275436  9501 net.cpp:156] Memory required for data: 869149728
I0403 19:39:25.275454  9501 layer_factory.hpp:77] Creating layer inception_4a/relu_3x3
I0403 19:39:25.275475  9501 net.cpp:91] Creating Layer inception_4a/relu_3x3
I0403 19:39:25.275492  9501 net.cpp:425] inception_4a/relu_3x3 <- inception_4a/3x3
I0403 19:39:25.275509  9501 net.cpp:386] inception_4a/relu_3x3 -> inception_4a/3x3 (in-place)
I0403 19:39:25.275791  9501 net.cpp:141] Setting up inception_4a/relu_3x3
I0403 19:39:25.275816  9501 net.cpp:148] Top shape: 24 208 14 14 (978432)
I0403 19:39:25.275831  9501 net.cpp:156] Memory required for data: 873063456
I0403 19:39:25.275846  9501 layer_factory.hpp:77] Creating layer inception_4a/5x5_reduce
I0403 19:39:25.275867  9501 net.cpp:91] Creating Layer inception_4a/5x5_reduce
I0403 19:39:25.275885  9501 net.cpp:425] inception_4a/5x5_reduce <- pool3/3x3_s2_pool3/3x3_s2_0_split_2
I0403 19:39:25.275905  9501 net.cpp:399] inception_4a/5x5_reduce -> inception_4a/5x5_reduce
I0403 19:39:25.276895  9501 net.cpp:141] Setting up inception_4a/5x5_reduce
I0403 19:39:25.276921  9501 net.cpp:148] Top shape: 24 16 14 14 (75264)
I0403 19:39:25.276935  9501 net.cpp:156] Memory required for data: 873364512
I0403 19:39:25.276952  9501 layer_factory.hpp:77] Creating layer inception_4a/relu_5x5_reduce
I0403 19:39:25.276973  9501 net.cpp:91] Creating Layer inception_4a/relu_5x5_reduce
I0403 19:39:25.276988  9501 net.cpp:425] inception_4a/relu_5x5_reduce <- inception_4a/5x5_reduce
I0403 19:39:25.277005  9501 net.cpp:386] inception_4a/relu_5x5_reduce -> inception_4a/5x5_reduce (in-place)
I0403 19:39:25.277178  9501 net.cpp:141] Setting up inception_4a/relu_5x5_reduce
I0403 19:39:25.277209  9501 net.cpp:148] Top shape: 24 16 14 14 (75264)
I0403 19:39:25.277223  9501 net.cpp:156] Memory required for data: 873665568
I0403 19:39:25.277237  9501 layer_factory.hpp:77] Creating layer inception_4a/5x5
I0403 19:39:25.277276  9501 net.cpp:91] Creating Layer inception_4a/5x5
I0403 19:39:25.277294  9501 net.cpp:425] inception_4a/5x5 <- inception_4a/5x5_reduce
I0403 19:39:25.277312  9501 net.cpp:399] inception_4a/5x5 -> inception_4a/5x5
I0403 19:39:25.278380  9501 net.cpp:141] Setting up inception_4a/5x5
I0403 19:39:25.278409  9501 net.cpp:148] Top shape: 24 48 14 14 (225792)
I0403 19:39:25.278424  9501 net.cpp:156] Memory required for data: 874568736
I0403 19:39:25.278441  9501 layer_factory.hpp:77] Creating layer inception_4a/relu_5x5
I0403 19:39:25.278458  9501 net.cpp:91] Creating Layer inception_4a/relu_5x5
I0403 19:39:25.278475  9501 net.cpp:425] inception_4a/relu_5x5 <- inception_4a/5x5
I0403 19:39:25.278492  9501 net.cpp:386] inception_4a/relu_5x5 -> inception_4a/5x5 (in-place)
I0403 19:39:25.278663  9501 net.cpp:141] Setting up inception_4a/relu_5x5
I0403 19:39:25.278687  9501 net.cpp:148] Top shape: 24 48 14 14 (225792)
I0403 19:39:25.278700  9501 net.cpp:156] Memory required for data: 875471904
I0403 19:39:25.278714  9501 layer_factory.hpp:77] Creating layer inception_4a/pool
I0403 19:39:25.278731  9501 net.cpp:91] Creating Layer inception_4a/pool
I0403 19:39:25.278749  9501 net.cpp:425] inception_4a/pool <- pool3/3x3_s2_pool3/3x3_s2_0_split_3
I0403 19:39:25.278766  9501 net.cpp:399] inception_4a/pool -> inception_4a/pool
I0403 19:39:25.278826  9501 net.cpp:141] Setting up inception_4a/pool
I0403 19:39:25.278851  9501 net.cpp:148] Top shape: 24 480 14 14 (2257920)
I0403 19:39:25.278866  9501 net.cpp:156] Memory required for data: 884503584
I0403 19:39:25.278878  9501 layer_factory.hpp:77] Creating layer inception_4a/pool_proj
I0403 19:39:25.278899  9501 net.cpp:91] Creating Layer inception_4a/pool_proj
I0403 19:39:25.278915  9501 net.cpp:425] inception_4a/pool_proj <- inception_4a/pool
I0403 19:39:25.278935  9501 net.cpp:399] inception_4a/pool_proj -> inception_4a/pool_proj
I0403 19:39:25.280093  9501 net.cpp:141] Setting up inception_4a/pool_proj
I0403 19:39:25.280120  9501 net.cpp:148] Top shape: 24 64 14 14 (301056)
I0403 19:39:25.280150  9501 net.cpp:156] Memory required for data: 885707808
I0403 19:39:25.280169  9501 layer_factory.hpp:77] Creating layer inception_4a/relu_pool_proj
I0403 19:39:25.280189  9501 net.cpp:91] Creating Layer inception_4a/relu_pool_proj
I0403 19:39:25.280205  9501 net.cpp:425] inception_4a/relu_pool_proj <- inception_4a/pool_proj
I0403 19:39:25.280223  9501 net.cpp:386] inception_4a/relu_pool_proj -> inception_4a/pool_proj (in-place)
I0403 19:39:25.280501  9501 net.cpp:141] Setting up inception_4a/relu_pool_proj
I0403 19:39:25.280526  9501 net.cpp:148] Top shape: 24 64 14 14 (301056)
I0403 19:39:25.280541  9501 net.cpp:156] Memory required for data: 886912032
I0403 19:39:25.280556  9501 layer_factory.hpp:77] Creating layer inception_4a/output
I0403 19:39:25.280573  9501 net.cpp:91] Creating Layer inception_4a/output
I0403 19:39:25.280592  9501 net.cpp:425] inception_4a/output <- inception_4a/1x1
I0403 19:39:25.280608  9501 net.cpp:425] inception_4a/output <- inception_4a/3x3
I0403 19:39:25.280623  9501 net.cpp:425] inception_4a/output <- inception_4a/5x5
I0403 19:39:25.280638  9501 net.cpp:425] inception_4a/output <- inception_4a/pool_proj
I0403 19:39:25.280658  9501 net.cpp:399] inception_4a/output -> inception_4a/output
I0403 19:39:25.280700  9501 net.cpp:141] Setting up inception_4a/output
I0403 19:39:25.280726  9501 net.cpp:148] Top shape: 24 512 14 14 (2408448)
I0403 19:39:25.280741  9501 net.cpp:156] Memory required for data: 896545824
I0403 19:39:25.280755  9501 layer_factory.hpp:77] Creating layer inception_4a/output_inception_4a/output_0_split
I0403 19:39:25.280771  9501 net.cpp:91] Creating Layer inception_4a/output_inception_4a/output_0_split
I0403 19:39:25.280786  9501 net.cpp:425] inception_4a/output_inception_4a/output_0_split <- inception_4a/output
I0403 19:39:25.280803  9501 net.cpp:399] inception_4a/output_inception_4a/output_0_split -> inception_4a/output_inception_4a/output_0_split_0
I0403 19:39:25.280824  9501 net.cpp:399] inception_4a/output_inception_4a/output_0_split -> inception_4a/output_inception_4a/output_0_split_1
I0403 19:39:25.280844  9501 net.cpp:399] inception_4a/output_inception_4a/output_0_split -> inception_4a/output_inception_4a/output_0_split_2
I0403 19:39:25.280864  9501 net.cpp:399] inception_4a/output_inception_4a/output_0_split -> inception_4a/output_inception_4a/output_0_split_3
I0403 19:39:25.280881  9501 net.cpp:399] inception_4a/output_inception_4a/output_0_split -> inception_4a/output_inception_4a/output_0_split_4
I0403 19:39:25.280972  9501 net.cpp:141] Setting up inception_4a/output_inception_4a/output_0_split
I0403 19:39:25.280994  9501 net.cpp:148] Top shape: 24 512 14 14 (2408448)
I0403 19:39:25.281010  9501 net.cpp:148] Top shape: 24 512 14 14 (2408448)
I0403 19:39:25.281029  9501 net.cpp:148] Top shape: 24 512 14 14 (2408448)
I0403 19:39:25.281044  9501 net.cpp:148] Top shape: 24 512 14 14 (2408448)
I0403 19:39:25.281059  9501 net.cpp:148] Top shape: 24 512 14 14 (2408448)
I0403 19:39:25.281071  9501 net.cpp:156] Memory required for data: 944714784
I0403 19:39:25.281085  9501 layer_factory.hpp:77] Creating layer loss1/ave_pool
I0403 19:39:25.281101  9501 net.cpp:91] Creating Layer loss1/ave_pool
I0403 19:39:25.281116  9501 net.cpp:425] loss1/ave_pool <- inception_4a/output_inception_4a/output_0_split_0
I0403 19:39:25.281133  9501 net.cpp:399] loss1/ave_pool -> loss1/ave_pool
I0403 19:39:25.281355  9501 net.cpp:141] Setting up loss1/ave_pool
I0403 19:39:25.281383  9501 net.cpp:148] Top shape: 24 512 4 4 (196608)
I0403 19:39:25.281397  9501 net.cpp:156] Memory required for data: 945501216
I0403 19:39:25.281411  9501 layer_factory.hpp:77] Creating layer loss1/conv
I0403 19:39:25.281435  9501 net.cpp:91] Creating Layer loss1/conv
I0403 19:39:25.281451  9501 net.cpp:425] loss1/conv <- loss1/ave_pool
I0403 19:39:25.281471  9501 net.cpp:399] loss1/conv -> loss1/conv
I0403 19:39:25.282891  9501 net.cpp:141] Setting up loss1/conv
I0403 19:39:25.282919  9501 net.cpp:148] Top shape: 24 128 4 4 (49152)
I0403 19:39:25.282934  9501 net.cpp:156] Memory required for data: 945697824
I0403 19:39:25.282970  9501 layer_factory.hpp:77] Creating layer loss1/relu_conv
I0403 19:39:25.282992  9501 net.cpp:91] Creating Layer loss1/relu_conv
I0403 19:39:25.283009  9501 net.cpp:425] loss1/relu_conv <- loss1/conv
I0403 19:39:25.283025  9501 net.cpp:386] loss1/relu_conv -> loss1/conv (in-place)
I0403 19:39:25.283326  9501 net.cpp:141] Setting up loss1/relu_conv
I0403 19:39:25.283354  9501 net.cpp:148] Top shape: 24 128 4 4 (49152)
I0403 19:39:25.283370  9501 net.cpp:156] Memory required for data: 945894432
I0403 19:39:25.283385  9501 layer_factory.hpp:77] Creating layer loss1/fc
I0403 19:39:25.283411  9501 net.cpp:91] Creating Layer loss1/fc
I0403 19:39:25.283430  9501 net.cpp:425] loss1/fc <- loss1/conv
I0403 19:39:25.283448  9501 net.cpp:399] loss1/fc -> loss1/fc
I0403 19:39:25.301591  9501 net.cpp:141] Setting up loss1/fc
I0403 19:39:25.301647  9501 net.cpp:148] Top shape: 24 1024 (24576)
I0403 19:39:25.301661  9501 net.cpp:156] Memory required for data: 945992736
I0403 19:39:25.301681  9501 layer_factory.hpp:77] Creating layer loss1/relu_fc
I0403 19:39:25.301700  9501 net.cpp:91] Creating Layer loss1/relu_fc
I0403 19:39:25.301717  9501 net.cpp:425] loss1/relu_fc <- loss1/fc
I0403 19:39:25.301738  9501 net.cpp:386] loss1/relu_fc -> loss1/fc (in-place)
I0403 19:39:25.301946  9501 net.cpp:141] Setting up loss1/relu_fc
I0403 19:39:25.301970  9501 net.cpp:148] Top shape: 24 1024 (24576)
I0403 19:39:25.301983  9501 net.cpp:156] Memory required for data: 946091040
I0403 19:39:25.301997  9501 layer_factory.hpp:77] Creating layer loss1/drop_fc
I0403 19:39:25.302027  9501 net.cpp:91] Creating Layer loss1/drop_fc
I0403 19:39:25.302043  9501 net.cpp:425] loss1/drop_fc <- loss1/fc
I0403 19:39:25.302059  9501 net.cpp:386] loss1/drop_fc -> loss1/fc (in-place)
I0403 19:39:25.302109  9501 net.cpp:141] Setting up loss1/drop_fc
I0403 19:39:25.302134  9501 net.cpp:148] Top shape: 24 1024 (24576)
I0403 19:39:25.302148  9501 net.cpp:156] Memory required for data: 946189344
I0403 19:39:25.302162  9501 layer_factory.hpp:77] Creating layer loss1/classifier_plantvillage
I0403 19:39:25.302181  9501 net.cpp:91] Creating Layer loss1/classifier_plantvillage
I0403 19:39:25.302196  9501 net.cpp:425] loss1/classifier_plantvillage <- loss1/fc
I0403 19:39:25.302218  9501 net.cpp:399] loss1/classifier_plantvillage -> loss1/classifier_plantvillage
I0403 19:39:25.303160  9501 net.cpp:141] Setting up loss1/classifier_plantvillage
I0403 19:39:25.303186  9501 net.cpp:148] Top shape: 24 38 (912)
I0403 19:39:25.303200  9501 net.cpp:156] Memory required for data: 946192992
I0403 19:39:25.303218  9501 layer_factory.hpp:77] Creating layer loss1/classifier_plantvillage_loss1/classifier_plantvillage_0_split
I0403 19:39:25.303238  9501 net.cpp:91] Creating Layer loss1/classifier_plantvillage_loss1/classifier_plantvillage_0_split
I0403 19:39:25.303261  9501 net.cpp:425] loss1/classifier_plantvillage_loss1/classifier_plantvillage_0_split <- loss1/classifier_plantvillage
I0403 19:39:25.303278  9501 net.cpp:399] loss1/classifier_plantvillage_loss1/classifier_plantvillage_0_split -> loss1/classifier_plantvillage_loss1/classifier_plantvillage_0_split_0
I0403 19:39:25.303297  9501 net.cpp:399] loss1/classifier_plantvillage_loss1/classifier_plantvillage_0_split -> loss1/classifier_plantvillage_loss1/classifier_plantvillage_0_split_1
I0403 19:39:25.303315  9501 net.cpp:399] loss1/classifier_plantvillage_loss1/classifier_plantvillage_0_split -> loss1/classifier_plantvillage_loss1/classifier_plantvillage_0_split_2
I0403 19:39:25.303378  9501 net.cpp:141] Setting up loss1/classifier_plantvillage_loss1/classifier_plantvillage_0_split
I0403 19:39:25.303402  9501 net.cpp:148] Top shape: 24 38 (912)
I0403 19:39:25.303418  9501 net.cpp:148] Top shape: 24 38 (912)
I0403 19:39:25.303432  9501 net.cpp:148] Top shape: 24 38 (912)
I0403 19:39:25.303445  9501 net.cpp:156] Memory required for data: 946203936
I0403 19:39:25.303458  9501 layer_factory.hpp:77] Creating layer inception_4b/1x1
I0403 19:39:25.303479  9501 net.cpp:91] Creating Layer inception_4b/1x1
I0403 19:39:25.303522  9501 net.cpp:425] inception_4b/1x1 <- inception_4a/output_inception_4a/output_0_split_1
I0403 19:39:25.303541  9501 net.cpp:399] inception_4b/1x1 -> inception_4b/1x1
I0403 19:39:25.305150  9501 net.cpp:141] Setting up inception_4b/1x1
I0403 19:39:25.305177  9501 net.cpp:148] Top shape: 24 160 14 14 (752640)
I0403 19:39:25.305191  9501 net.cpp:156] Memory required for data: 949214496
I0403 19:39:25.305208  9501 layer_factory.hpp:77] Creating layer inception_4b/relu_1x1
I0403 19:39:25.305227  9501 net.cpp:91] Creating Layer inception_4b/relu_1x1
I0403 19:39:25.305248  9501 net.cpp:425] inception_4b/relu_1x1 <- inception_4b/1x1
I0403 19:39:25.305266  9501 net.cpp:386] inception_4b/relu_1x1 -> inception_4b/1x1 (in-place)
I0403 19:39:25.305447  9501 net.cpp:141] Setting up inception_4b/relu_1x1
I0403 19:39:25.305474  9501 net.cpp:148] Top shape: 24 160 14 14 (752640)
I0403 19:39:25.305488  9501 net.cpp:156] Memory required for data: 952225056
I0403 19:39:25.305502  9501 layer_factory.hpp:77] Creating layer inception_4b/3x3_reduce
I0403 19:39:25.305523  9501 net.cpp:91] Creating Layer inception_4b/3x3_reduce
I0403 19:39:25.305541  9501 net.cpp:425] inception_4b/3x3_reduce <- inception_4a/output_inception_4a/output_0_split_2
I0403 19:39:25.305558  9501 net.cpp:399] inception_4b/3x3_reduce -> inception_4b/3x3_reduce
I0403 19:39:25.306852  9501 net.cpp:141] Setting up inception_4b/3x3_reduce
I0403 19:39:25.306881  9501 net.cpp:148] Top shape: 24 112 14 14 (526848)
I0403 19:39:25.306897  9501 net.cpp:156] Memory required for data: 954332448
I0403 19:39:25.306915  9501 layer_factory.hpp:77] Creating layer inception_4b/relu_3x3_reduce
I0403 19:39:25.306931  9501 net.cpp:91] Creating Layer inception_4b/relu_3x3_reduce
I0403 19:39:25.306946  9501 net.cpp:425] inception_4b/relu_3x3_reduce <- inception_4b/3x3_reduce
I0403 19:39:25.306964  9501 net.cpp:386] inception_4b/relu_3x3_reduce -> inception_4b/3x3_reduce (in-place)
I0403 19:39:25.307226  9501 net.cpp:141] Setting up inception_4b/relu_3x3_reduce
I0403 19:39:25.307260  9501 net.cpp:148] Top shape: 24 112 14 14 (526848)
I0403 19:39:25.307277  9501 net.cpp:156] Memory required for data: 956439840
I0403 19:39:25.307293  9501 layer_factory.hpp:77] Creating layer inception_4b/3x3
I0403 19:39:25.307314  9501 net.cpp:91] Creating Layer inception_4b/3x3
I0403 19:39:25.307330  9501 net.cpp:425] inception_4b/3x3 <- inception_4b/3x3_reduce
I0403 19:39:25.307348  9501 net.cpp:399] inception_4b/3x3 -> inception_4b/3x3
I0403 19:39:25.310185  9501 net.cpp:141] Setting up inception_4b/3x3
I0403 19:39:25.310212  9501 net.cpp:148] Top shape: 24 224 14 14 (1053696)
I0403 19:39:25.310227  9501 net.cpp:156] Memory required for data: 960654624
I0403 19:39:25.310250  9501 layer_factory.hpp:77] Creating layer inception_4b/relu_3x3
I0403 19:39:25.310271  9501 net.cpp:91] Creating Layer inception_4b/relu_3x3
I0403 19:39:25.310286  9501 net.cpp:425] inception_4b/relu_3x3 <- inception_4b/3x3
I0403 19:39:25.310303  9501 net.cpp:386] inception_4b/relu_3x3 -> inception_4b/3x3 (in-place)
I0403 19:39:25.310470  9501 net.cpp:141] Setting up inception_4b/relu_3x3
I0403 19:39:25.310494  9501 net.cpp:148] Top shape: 24 224 14 14 (1053696)
I0403 19:39:25.310508  9501 net.cpp:156] Memory required for data: 964869408
I0403 19:39:25.310521  9501 layer_factory.hpp:77] Creating layer inception_4b/5x5_reduce
I0403 19:39:25.310542  9501 net.cpp:91] Creating Layer inception_4b/5x5_reduce
I0403 19:39:25.310559  9501 net.cpp:425] inception_4b/5x5_reduce <- inception_4a/output_inception_4a/output_0_split_3
I0403 19:39:25.310580  9501 net.cpp:399] inception_4b/5x5_reduce -> inception_4b/5x5_reduce
I0403 19:39:25.311620  9501 net.cpp:141] Setting up inception_4b/5x5_reduce
I0403 19:39:25.311646  9501 net.cpp:148] Top shape: 24 24 14 14 (112896)
I0403 19:39:25.311661  9501 net.cpp:156] Memory required for data: 965320992
I0403 19:39:25.311679  9501 layer_factory.hpp:77] Creating layer inception_4b/relu_5x5_reduce
I0403 19:39:25.311698  9501 net.cpp:91] Creating Layer inception_4b/relu_5x5_reduce
I0403 19:39:25.311739  9501 net.cpp:425] inception_4b/relu_5x5_reduce <- inception_4b/5x5_reduce
I0403 19:39:25.311756  9501 net.cpp:386] inception_4b/relu_5x5_reduce -> inception_4b/5x5_reduce (in-place)
I0403 19:39:25.311929  9501 net.cpp:141] Setting up inception_4b/relu_5x5_reduce
I0403 19:39:25.311952  9501 net.cpp:148] Top shape: 24 24 14 14 (112896)
I0403 19:39:25.311966  9501 net.cpp:156] Memory required for data: 965772576
I0403 19:39:25.311980  9501 layer_factory.hpp:77] Creating layer inception_4b/5x5
I0403 19:39:25.312000  9501 net.cpp:91] Creating Layer inception_4b/5x5
I0403 19:39:25.312017  9501 net.cpp:425] inception_4b/5x5 <- inception_4b/5x5_reduce
I0403 19:39:25.312036  9501 net.cpp:399] inception_4b/5x5 -> inception_4b/5x5
I0403 19:39:25.313196  9501 net.cpp:141] Setting up inception_4b/5x5
I0403 19:39:25.313222  9501 net.cpp:148] Top shape: 24 64 14 14 (301056)
I0403 19:39:25.313237  9501 net.cpp:156] Memory required for data: 966976800
I0403 19:39:25.313261  9501 layer_factory.hpp:77] Creating layer inception_4b/relu_5x5
I0403 19:39:25.313282  9501 net.cpp:91] Creating Layer inception_4b/relu_5x5
I0403 19:39:25.313297  9501 net.cpp:425] inception_4b/relu_5x5 <- inception_4b/5x5
I0403 19:39:25.313313  9501 net.cpp:386] inception_4b/relu_5x5 -> inception_4b/5x5 (in-place)
I0403 19:39:25.313580  9501 net.cpp:141] Setting up inception_4b/relu_5x5
I0403 19:39:25.313603  9501 net.cpp:148] Top shape: 24 64 14 14 (301056)
I0403 19:39:25.313617  9501 net.cpp:156] Memory required for data: 968181024
I0403 19:39:25.313632  9501 layer_factory.hpp:77] Creating layer inception_4b/pool
I0403 19:39:25.313650  9501 net.cpp:91] Creating Layer inception_4b/pool
I0403 19:39:25.313666  9501 net.cpp:425] inception_4b/pool <- inception_4a/output_inception_4a/output_0_split_4
I0403 19:39:25.313683  9501 net.cpp:399] inception_4b/pool -> inception_4b/pool
I0403 19:39:25.313747  9501 net.cpp:141] Setting up inception_4b/pool
I0403 19:39:25.313769  9501 net.cpp:148] Top shape: 24 512 14 14 (2408448)
I0403 19:39:25.313783  9501 net.cpp:156] Memory required for data: 977814816
I0403 19:39:25.313797  9501 layer_factory.hpp:77] Creating layer inception_4b/pool_proj
I0403 19:39:25.313817  9501 net.cpp:91] Creating Layer inception_4b/pool_proj
I0403 19:39:25.313833  9501 net.cpp:425] inception_4b/pool_proj <- inception_4b/pool
I0403 19:39:25.313853  9501 net.cpp:399] inception_4b/pool_proj -> inception_4b/pool_proj
I0403 19:39:25.314985  9501 net.cpp:141] Setting up inception_4b/pool_proj
I0403 19:39:25.315014  9501 net.cpp:148] Top shape: 24 64 14 14 (301056)
I0403 19:39:25.315031  9501 net.cpp:156] Memory required for data: 979019040
I0403 19:39:25.315047  9501 layer_factory.hpp:77] Creating layer inception_4b/relu_pool_proj
I0403 19:39:25.315064  9501 net.cpp:91] Creating Layer inception_4b/relu_pool_proj
I0403 19:39:25.315078  9501 net.cpp:425] inception_4b/relu_pool_proj <- inception_4b/pool_proj
I0403 19:39:25.315094  9501 net.cpp:386] inception_4b/relu_pool_proj -> inception_4b/pool_proj (in-place)
I0403 19:39:25.315273  9501 net.cpp:141] Setting up inception_4b/relu_pool_proj
I0403 19:39:25.315297  9501 net.cpp:148] Top shape: 24 64 14 14 (301056)
I0403 19:39:25.315312  9501 net.cpp:156] Memory required for data: 980223264
I0403 19:39:25.315326  9501 layer_factory.hpp:77] Creating layer inception_4b/output
I0403 19:39:25.315342  9501 net.cpp:91] Creating Layer inception_4b/output
I0403 19:39:25.315356  9501 net.cpp:425] inception_4b/output <- inception_4b/1x1
I0403 19:39:25.315371  9501 net.cpp:425] inception_4b/output <- inception_4b/3x3
I0403 19:39:25.315387  9501 net.cpp:425] inception_4b/output <- inception_4b/5x5
I0403 19:39:25.315402  9501 net.cpp:425] inception_4b/output <- inception_4b/pool_proj
I0403 19:39:25.315419  9501 net.cpp:399] inception_4b/output -> inception_4b/output
I0403 19:39:25.315474  9501 net.cpp:141] Setting up inception_4b/output
I0403 19:39:25.315496  9501 net.cpp:148] Top shape: 24 512 14 14 (2408448)
I0403 19:39:25.315510  9501 net.cpp:156] Memory required for data: 989857056
I0403 19:39:25.315538  9501 layer_factory.hpp:77] Creating layer inception_4b/output_inception_4b/output_0_split
I0403 19:39:25.315558  9501 net.cpp:91] Creating Layer inception_4b/output_inception_4b/output_0_split
I0403 19:39:25.315575  9501 net.cpp:425] inception_4b/output_inception_4b/output_0_split <- inception_4b/output
I0403 19:39:25.315592  9501 net.cpp:399] inception_4b/output_inception_4b/output_0_split -> inception_4b/output_inception_4b/output_0_split_0
I0403 19:39:25.315610  9501 net.cpp:399] inception_4b/output_inception_4b/output_0_split -> inception_4b/output_inception_4b/output_0_split_1
I0403 19:39:25.315632  9501 net.cpp:399] inception_4b/output_inception_4b/output_0_split -> inception_4b/output_inception_4b/output_0_split_2
I0403 19:39:25.315651  9501 net.cpp:399] inception_4b/output_inception_4b/output_0_split -> inception_4b/output_inception_4b/output_0_split_3
I0403 19:39:25.315743  9501 net.cpp:141] Setting up inception_4b/output_inception_4b/output_0_split
I0403 19:39:25.315765  9501 net.cpp:148] Top shape: 24 512 14 14 (2408448)
I0403 19:39:25.315780  9501 net.cpp:148] Top shape: 24 512 14 14 (2408448)
I0403 19:39:25.315794  9501 net.cpp:148] Top shape: 24 512 14 14 (2408448)
I0403 19:39:25.315809  9501 net.cpp:148] Top shape: 24 512 14 14 (2408448)
I0403 19:39:25.315821  9501 net.cpp:156] Memory required for data: 1028392224
I0403 19:39:25.315835  9501 layer_factory.hpp:77] Creating layer inception_4c/1x1
I0403 19:39:25.315855  9501 net.cpp:91] Creating Layer inception_4c/1x1
I0403 19:39:25.315871  9501 net.cpp:425] inception_4c/1x1 <- inception_4b/output_inception_4b/output_0_split_0
I0403 19:39:25.315891  9501 net.cpp:399] inception_4c/1x1 -> inception_4c/1x1
I0403 19:39:25.317248  9501 net.cpp:141] Setting up inception_4c/1x1
I0403 19:39:25.317275  9501 net.cpp:148] Top shape: 24 128 14 14 (602112)
I0403 19:39:25.317289  9501 net.cpp:156] Memory required for data: 1030800672
I0403 19:39:25.317306  9501 layer_factory.hpp:77] Creating layer inception_4c/relu_1x1
I0403 19:39:25.317323  9501 net.cpp:91] Creating Layer inception_4c/relu_1x1
I0403 19:39:25.317338  9501 net.cpp:425] inception_4c/relu_1x1 <- inception_4c/1x1
I0403 19:39:25.317356  9501 net.cpp:386] inception_4c/relu_1x1 -> inception_4c/1x1 (in-place)
I0403 19:39:25.317524  9501 net.cpp:141] Setting up inception_4c/relu_1x1
I0403 19:39:25.317548  9501 net.cpp:148] Top shape: 24 128 14 14 (602112)
I0403 19:39:25.317562  9501 net.cpp:156] Memory required for data: 1033209120
I0403 19:39:25.317576  9501 layer_factory.hpp:77] Creating layer inception_4c/3x3_reduce
I0403 19:39:25.317597  9501 net.cpp:91] Creating Layer inception_4c/3x3_reduce
I0403 19:39:25.317613  9501 net.cpp:425] inception_4c/3x3_reduce <- inception_4b/output_inception_4b/output_0_split_1
I0403 19:39:25.317633  9501 net.cpp:399] inception_4c/3x3_reduce -> inception_4c/3x3_reduce
I0403 19:39:25.319486  9501 net.cpp:141] Setting up inception_4c/3x3_reduce
I0403 19:39:25.319512  9501 net.cpp:148] Top shape: 24 128 14 14 (602112)
I0403 19:39:25.319527  9501 net.cpp:156] Memory required for data: 1035617568
I0403 19:39:25.319545  9501 layer_factory.hpp:77] Creating layer inception_4c/relu_3x3_reduce
I0403 19:39:25.319563  9501 net.cpp:91] Creating Layer inception_4c/relu_3x3_reduce
I0403 19:39:25.319578  9501 net.cpp:425] inception_4c/relu_3x3_reduce <- inception_4c/3x3_reduce
I0403 19:39:25.319596  9501 net.cpp:386] inception_4c/relu_3x3_reduce -> inception_4c/3x3_reduce (in-place)
I0403 19:39:25.319869  9501 net.cpp:141] Setting up inception_4c/relu_3x3_reduce
I0403 19:39:25.319893  9501 net.cpp:148] Top shape: 24 128 14 14 (602112)
I0403 19:39:25.319907  9501 net.cpp:156] Memory required for data: 1038026016
I0403 19:39:25.319921  9501 layer_factory.hpp:77] Creating layer inception_4c/3x3
I0403 19:39:25.319941  9501 net.cpp:91] Creating Layer inception_4c/3x3
I0403 19:39:25.319957  9501 net.cpp:425] inception_4c/3x3 <- inception_4c/3x3_reduce
I0403 19:39:25.319978  9501 net.cpp:399] inception_4c/3x3 -> inception_4c/3x3
I0403 19:39:25.323415  9501 net.cpp:141] Setting up inception_4c/3x3
I0403 19:39:25.323454  9501 net.cpp:148] Top shape: 24 256 14 14 (1204224)
I0403 19:39:25.323472  9501 net.cpp:156] Memory required for data: 1042842912
I0403 19:39:25.323503  9501 layer_factory.hpp:77] Creating layer inception_4c/relu_3x3
I0403 19:39:25.323521  9501 net.cpp:91] Creating Layer inception_4c/relu_3x3
I0403 19:39:25.323536  9501 net.cpp:425] inception_4c/relu_3x3 <- inception_4c/3x3
I0403 19:39:25.323552  9501 net.cpp:386] inception_4c/relu_3x3 -> inception_4c/3x3 (in-place)
I0403 19:39:25.323724  9501 net.cpp:141] Setting up inception_4c/relu_3x3
I0403 19:39:25.323748  9501 net.cpp:148] Top shape: 24 256 14 14 (1204224)
I0403 19:39:25.323761  9501 net.cpp:156] Memory required for data: 1047659808
I0403 19:39:25.323775  9501 layer_factory.hpp:77] Creating layer inception_4c/5x5_reduce
I0403 19:39:25.323797  9501 net.cpp:91] Creating Layer inception_4c/5x5_reduce
I0403 19:39:25.323814  9501 net.cpp:425] inception_4c/5x5_reduce <- inception_4b/output_inception_4b/output_0_split_2
I0403 19:39:25.323832  9501 net.cpp:399] inception_4c/5x5_reduce -> inception_4c/5x5_reduce
I0403 19:39:25.324863  9501 net.cpp:141] Setting up inception_4c/5x5_reduce
I0403 19:39:25.324889  9501 net.cpp:148] Top shape: 24 24 14 14 (112896)
I0403 19:39:25.324903  9501 net.cpp:156] Memory required for data: 1048111392
I0403 19:39:25.324920  9501 layer_factory.hpp:77] Creating layer inception_4c/relu_5x5_reduce
I0403 19:39:25.324939  9501 net.cpp:91] Creating Layer inception_4c/relu_5x5_reduce
I0403 19:39:25.324955  9501 net.cpp:425] inception_4c/relu_5x5_reduce <- inception_4c/5x5_reduce
I0403 19:39:25.324972  9501 net.cpp:386] inception_4c/relu_5x5_reduce -> inception_4c/5x5_reduce (in-place)
I0403 19:39:25.325144  9501 net.cpp:141] Setting up inception_4c/relu_5x5_reduce
I0403 19:39:25.325167  9501 net.cpp:148] Top shape: 24 24 14 14 (112896)
I0403 19:39:25.325181  9501 net.cpp:156] Memory required for data: 1048562976
I0403 19:39:25.325194  9501 layer_factory.hpp:77] Creating layer inception_4c/5x5
I0403 19:39:25.325215  9501 net.cpp:91] Creating Layer inception_4c/5x5
I0403 19:39:25.325232  9501 net.cpp:425] inception_4c/5x5 <- inception_4c/5x5_reduce
I0403 19:39:25.325258  9501 net.cpp:399] inception_4c/5x5 -> inception_4c/5x5
I0403 19:39:25.326498  9501 net.cpp:141] Setting up inception_4c/5x5
I0403 19:39:25.326540  9501 net.cpp:148] Top shape: 24 64 14 14 (301056)
I0403 19:39:25.326557  9501 net.cpp:156] Memory required for data: 1049767200
I0403 19:39:25.326575  9501 layer_factory.hpp:77] Creating layer inception_4c/relu_5x5
I0403 19:39:25.326606  9501 net.cpp:91] Creating Layer inception_4c/relu_5x5
I0403 19:39:25.326622  9501 net.cpp:425] inception_4c/relu_5x5 <- inception_4c/5x5
I0403 19:39:25.326642  9501 net.cpp:386] inception_4c/relu_5x5 -> inception_4c/5x5 (in-place)
I0403 19:39:25.326975  9501 net.cpp:141] Setting up inception_4c/relu_5x5
I0403 19:39:25.327004  9501 net.cpp:148] Top shape: 24 64 14 14 (301056)
I0403 19:39:25.327019  9501 net.cpp:156] Memory required for data: 1050971424
I0403 19:39:25.327035  9501 layer_factory.hpp:77] Creating layer inception_4c/pool
I0403 19:39:25.327052  9501 net.cpp:91] Creating Layer inception_4c/pool
I0403 19:39:25.327069  9501 net.cpp:425] inception_4c/pool <- inception_4b/output_inception_4b/output_0_split_3
I0403 19:39:25.327100  9501 net.cpp:399] inception_4c/pool -> inception_4c/pool
I0403 19:39:25.327174  9501 net.cpp:141] Setting up inception_4c/pool
I0403 19:39:25.327206  9501 net.cpp:148] Top shape: 24 512 14 14 (2408448)
I0403 19:39:25.327232  9501 net.cpp:156] Memory required for data: 1060605216
I0403 19:39:25.327255  9501 layer_factory.hpp:77] Creating layer inception_4c/pool_proj
I0403 19:39:25.327277  9501 net.cpp:91] Creating Layer inception_4c/pool_proj
I0403 19:39:25.327306  9501 net.cpp:425] inception_4c/pool_proj <- inception_4c/pool
I0403 19:39:25.327327  9501 net.cpp:399] inception_4c/pool_proj -> inception_4c/pool_proj
I0403 19:39:25.328641  9501 net.cpp:141] Setting up inception_4c/pool_proj
I0403 19:39:25.328670  9501 net.cpp:148] Top shape: 24 64 14 14 (301056)
I0403 19:39:25.328702  9501 net.cpp:156] Memory required for data: 1061809440
I0403 19:39:25.328722  9501 layer_factory.hpp:77] Creating layer inception_4c/relu_pool_proj
I0403 19:39:25.328738  9501 net.cpp:91] Creating Layer inception_4c/relu_pool_proj
I0403 19:39:25.328753  9501 net.cpp:425] inception_4c/relu_pool_proj <- inception_4c/pool_proj
I0403 19:39:25.328770  9501 net.cpp:386] inception_4c/relu_pool_proj -> inception_4c/pool_proj (in-place)
I0403 19:39:25.328951  9501 net.cpp:141] Setting up inception_4c/relu_pool_proj
I0403 19:39:25.328979  9501 net.cpp:148] Top shape: 24 64 14 14 (301056)
I0403 19:39:25.328995  9501 net.cpp:156] Memory required for data: 1063013664
I0403 19:39:25.329011  9501 layer_factory.hpp:77] Creating layer inception_4c/output
I0403 19:39:25.329027  9501 net.cpp:91] Creating Layer inception_4c/output
I0403 19:39:25.329042  9501 net.cpp:425] inception_4c/output <- inception_4c/1x1
I0403 19:39:25.329058  9501 net.cpp:425] inception_4c/output <- inception_4c/3x3
I0403 19:39:25.329074  9501 net.cpp:425] inception_4c/output <- inception_4c/5x5
I0403 19:39:25.329090  9501 net.cpp:425] inception_4c/output <- inception_4c/pool_proj
I0403 19:39:25.329109  9501 net.cpp:399] inception_4c/output -> inception_4c/output
I0403 19:39:25.329154  9501 net.cpp:141] Setting up inception_4c/output
I0403 19:39:25.329177  9501 net.cpp:148] Top shape: 24 512 14 14 (2408448)
I0403 19:39:25.329192  9501 net.cpp:156] Memory required for data: 1072647456
I0403 19:39:25.329206  9501 layer_factory.hpp:77] Creating layer inception_4c/output_inception_4c/output_0_split
I0403 19:39:25.329226  9501 net.cpp:91] Creating Layer inception_4c/output_inception_4c/output_0_split
I0403 19:39:25.329247  9501 net.cpp:425] inception_4c/output_inception_4c/output_0_split <- inception_4c/output
I0403 19:39:25.329267  9501 net.cpp:399] inception_4c/output_inception_4c/output_0_split -> inception_4c/output_inception_4c/output_0_split_0
I0403 19:39:25.329288  9501 net.cpp:399] inception_4c/output_inception_4c/output_0_split -> inception_4c/output_inception_4c/output_0_split_1
I0403 19:39:25.329326  9501 net.cpp:399] inception_4c/output_inception_4c/output_0_split -> inception_4c/output_inception_4c/output_0_split_2
I0403 19:39:25.329346  9501 net.cpp:399] inception_4c/output_inception_4c/output_0_split -> inception_4c/output_inception_4c/output_0_split_3
I0403 19:39:25.329438  9501 net.cpp:141] Setting up inception_4c/output_inception_4c/output_0_split
I0403 19:39:25.329465  9501 net.cpp:148] Top shape: 24 512 14 14 (2408448)
I0403 19:39:25.329490  9501 net.cpp:148] Top shape: 24 512 14 14 (2408448)
I0403 19:39:25.329510  9501 net.cpp:148] Top shape: 24 512 14 14 (2408448)
I0403 19:39:25.329538  9501 net.cpp:148] Top shape: 24 512 14 14 (2408448)
I0403 19:39:25.329596  9501 net.cpp:156] Memory required for data: 1111182624
I0403 19:39:25.329638  9501 layer_factory.hpp:77] Creating layer inception_4d/1x1
I0403 19:39:25.329677  9501 net.cpp:91] Creating Layer inception_4d/1x1
I0403 19:39:25.329715  9501 net.cpp:425] inception_4d/1x1 <- inception_4c/output_inception_4c/output_0_split_0
I0403 19:39:25.329771  9501 net.cpp:399] inception_4d/1x1 -> inception_4d/1x1
I0403 19:39:25.331145  9501 net.cpp:141] Setting up inception_4d/1x1
I0403 19:39:25.331171  9501 net.cpp:148] Top shape: 24 112 14 14 (526848)
I0403 19:39:25.331185  9501 net.cpp:156] Memory required for data: 1113290016
I0403 19:39:25.331203  9501 layer_factory.hpp:77] Creating layer inception_4d/relu_1x1
I0403 19:39:25.331223  9501 net.cpp:91] Creating Layer inception_4d/relu_1x1
I0403 19:39:25.331245  9501 net.cpp:425] inception_4d/relu_1x1 <- inception_4d/1x1
I0403 19:39:25.331264  9501 net.cpp:386] inception_4d/relu_1x1 -> inception_4d/1x1 (in-place)
I0403 19:39:25.331440  9501 net.cpp:141] Setting up inception_4d/relu_1x1
I0403 19:39:25.331465  9501 net.cpp:148] Top shape: 24 112 14 14 (526848)
I0403 19:39:25.331478  9501 net.cpp:156] Memory required for data: 1115397408
I0403 19:39:25.331493  9501 layer_factory.hpp:77] Creating layer inception_4d/3x3_reduce
I0403 19:39:25.331529  9501 net.cpp:91] Creating Layer inception_4d/3x3_reduce
I0403 19:39:25.331547  9501 net.cpp:425] inception_4d/3x3_reduce <- inception_4c/output_inception_4c/output_0_split_1
I0403 19:39:25.331567  9501 net.cpp:399] inception_4d/3x3_reduce -> inception_4d/3x3_reduce
I0403 19:39:25.333045  9501 net.cpp:141] Setting up inception_4d/3x3_reduce
I0403 19:39:25.333072  9501 net.cpp:148] Top shape: 24 144 14 14 (677376)
I0403 19:39:25.333086  9501 net.cpp:156] Memory required for data: 1118106912
I0403 19:39:25.333104  9501 layer_factory.hpp:77] Creating layer inception_4d/relu_3x3_reduce
I0403 19:39:25.333122  9501 net.cpp:91] Creating Layer inception_4d/relu_3x3_reduce
I0403 19:39:25.333137  9501 net.cpp:425] inception_4d/relu_3x3_reduce <- inception_4d/3x3_reduce
I0403 19:39:25.333156  9501 net.cpp:386] inception_4d/relu_3x3_reduce -> inception_4d/3x3_reduce (in-place)
I0403 19:39:25.333447  9501 net.cpp:141] Setting up inception_4d/relu_3x3_reduce
I0403 19:39:25.333472  9501 net.cpp:148] Top shape: 24 144 14 14 (677376)
I0403 19:39:25.333487  9501 net.cpp:156] Memory required for data: 1120816416
I0403 19:39:25.333501  9501 layer_factory.hpp:77] Creating layer inception_4d/3x3
I0403 19:39:25.333523  9501 net.cpp:91] Creating Layer inception_4d/3x3
I0403 19:39:25.333539  9501 net.cpp:425] inception_4d/3x3 <- inception_4d/3x3_reduce
I0403 19:39:25.333561  9501 net.cpp:399] inception_4d/3x3 -> inception_4d/3x3
I0403 19:39:25.337715  9501 net.cpp:141] Setting up inception_4d/3x3
I0403 19:39:25.337745  9501 net.cpp:148] Top shape: 24 288 14 14 (1354752)
I0403 19:39:25.337759  9501 net.cpp:156] Memory required for data: 1126235424
I0403 19:39:25.337777  9501 layer_factory.hpp:77] Creating layer inception_4d/relu_3x3
I0403 19:39:25.337796  9501 net.cpp:91] Creating Layer inception_4d/relu_3x3
I0403 19:39:25.337813  9501 net.cpp:425] inception_4d/relu_3x3 <- inception_4d/3x3
I0403 19:39:25.337831  9501 net.cpp:386] inception_4d/relu_3x3 -> inception_4d/3x3 (in-place)
I0403 19:39:25.338007  9501 net.cpp:141] Setting up inception_4d/relu_3x3
I0403 19:39:25.338033  9501 net.cpp:148] Top shape: 24 288 14 14 (1354752)
I0403 19:39:25.338047  9501 net.cpp:156] Memory required for data: 1131654432
I0403 19:39:25.338062  9501 layer_factory.hpp:77] Creating layer inception_4d/5x5_reduce
I0403 19:39:25.338083  9501 net.cpp:91] Creating Layer inception_4d/5x5_reduce
I0403 19:39:25.338099  9501 net.cpp:425] inception_4d/5x5_reduce <- inception_4c/output_inception_4c/output_0_split_2
I0403 19:39:25.338119  9501 net.cpp:399] inception_4d/5x5_reduce -> inception_4d/5x5_reduce
I0403 19:39:25.339233  9501 net.cpp:141] Setting up inception_4d/5x5_reduce
I0403 19:39:25.339267  9501 net.cpp:148] Top shape: 24 32 14 14 (150528)
I0403 19:39:25.339282  9501 net.cpp:156] Memory required for data: 1132256544
I0403 19:39:25.339299  9501 layer_factory.hpp:77] Creating layer inception_4d/relu_5x5_reduce
I0403 19:39:25.339330  9501 net.cpp:91] Creating Layer inception_4d/relu_5x5_reduce
I0403 19:39:25.339347  9501 net.cpp:425] inception_4d/relu_5x5_reduce <- inception_4d/5x5_reduce
I0403 19:39:25.339365  9501 net.cpp:386] inception_4d/relu_5x5_reduce -> inception_4d/5x5_reduce (in-place)
I0403 19:39:25.339591  9501 net.cpp:141] Setting up inception_4d/relu_5x5_reduce
I0403 19:39:25.339617  9501 net.cpp:148] Top shape: 24 32 14 14 (150528)
I0403 19:39:25.339632  9501 net.cpp:156] Memory required for data: 1132858656
I0403 19:39:25.339648  9501 layer_factory.hpp:77] Creating layer inception_4d/5x5
I0403 19:39:25.339687  9501 net.cpp:91] Creating Layer inception_4d/5x5
I0403 19:39:25.339706  9501 net.cpp:425] inception_4d/5x5 <- inception_4d/5x5_reduce
I0403 19:39:25.339738  9501 net.cpp:399] inception_4d/5x5 -> inception_4d/5x5
I0403 19:39:25.341362  9501 net.cpp:141] Setting up inception_4d/5x5
I0403 19:39:25.341393  9501 net.cpp:148] Top shape: 24 64 14 14 (301056)
I0403 19:39:25.341409  9501 net.cpp:156] Memory required for data: 1134062880
I0403 19:39:25.341429  9501 layer_factory.hpp:77] Creating layer inception_4d/relu_5x5
I0403 19:39:25.341464  9501 net.cpp:91] Creating Layer inception_4d/relu_5x5
I0403 19:39:25.341481  9501 net.cpp:425] inception_4d/relu_5x5 <- inception_4d/5x5
I0403 19:39:25.341502  9501 net.cpp:386] inception_4d/relu_5x5 -> inception_4d/5x5 (in-place)
I0403 19:39:25.341816  9501 net.cpp:141] Setting up inception_4d/relu_5x5
I0403 19:39:25.341845  9501 net.cpp:148] Top shape: 24 64 14 14 (301056)
I0403 19:39:25.341861  9501 net.cpp:156] Memory required for data: 1135267104
I0403 19:39:25.341876  9501 layer_factory.hpp:77] Creating layer inception_4d/pool
I0403 19:39:25.341892  9501 net.cpp:91] Creating Layer inception_4d/pool
I0403 19:39:25.341909  9501 net.cpp:425] inception_4d/pool <- inception_4c/output_inception_4c/output_0_split_3
I0403 19:39:25.341929  9501 net.cpp:399] inception_4d/pool -> inception_4d/pool
I0403 19:39:25.341997  9501 net.cpp:141] Setting up inception_4d/pool
I0403 19:39:25.342021  9501 net.cpp:148] Top shape: 24 512 14 14 (2408448)
I0403 19:39:25.342036  9501 net.cpp:156] Memory required for data: 1144900896
I0403 19:39:25.342051  9501 layer_factory.hpp:77] Creating layer inception_4d/pool_proj
I0403 19:39:25.342072  9501 net.cpp:91] Creating Layer inception_4d/pool_proj
I0403 19:39:25.342090  9501 net.cpp:425] inception_4d/pool_proj <- inception_4d/pool
I0403 19:39:25.342111  9501 net.cpp:399] inception_4d/pool_proj -> inception_4d/pool_proj
I0403 19:39:25.343879  9501 net.cpp:141] Setting up inception_4d/pool_proj
I0403 19:39:25.343909  9501 net.cpp:148] Top shape: 24 64 14 14 (301056)
I0403 19:39:25.343926  9501 net.cpp:156] Memory required for data: 1146105120
I0403 19:39:25.343945  9501 layer_factory.hpp:77] Creating layer inception_4d/relu_pool_proj
I0403 19:39:25.343966  9501 net.cpp:91] Creating Layer inception_4d/relu_pool_proj
I0403 19:39:25.343982  9501 net.cpp:425] inception_4d/relu_pool_proj <- inception_4d/pool_proj
I0403 19:39:25.343999  9501 net.cpp:386] inception_4d/relu_pool_proj -> inception_4d/pool_proj (in-place)
I0403 19:39:25.344182  9501 net.cpp:141] Setting up inception_4d/relu_pool_proj
I0403 19:39:25.344211  9501 net.cpp:148] Top shape: 24 64 14 14 (301056)
I0403 19:39:25.344228  9501 net.cpp:156] Memory required for data: 1147309344
I0403 19:39:25.344247  9501 layer_factory.hpp:77] Creating layer inception_4d/output
I0403 19:39:25.344266  9501 net.cpp:91] Creating Layer inception_4d/output
I0403 19:39:25.344282  9501 net.cpp:425] inception_4d/output <- inception_4d/1x1
I0403 19:39:25.344300  9501 net.cpp:425] inception_4d/output <- inception_4d/3x3
I0403 19:39:25.344316  9501 net.cpp:425] inception_4d/output <- inception_4d/5x5
I0403 19:39:25.344331  9501 net.cpp:425] inception_4d/output <- inception_4d/pool_proj
I0403 19:39:25.344349  9501 net.cpp:399] inception_4d/output -> inception_4d/output
I0403 19:39:25.344398  9501 net.cpp:141] Setting up inception_4d/output
I0403 19:39:25.344421  9501 net.cpp:148] Top shape: 24 528 14 14 (2483712)
I0403 19:39:25.344436  9501 net.cpp:156] Memory required for data: 1157244192
I0403 19:39:25.344450  9501 layer_factory.hpp:77] Creating layer inception_4d/output_inception_4d/output_0_split
I0403 19:39:25.344471  9501 net.cpp:91] Creating Layer inception_4d/output_inception_4d/output_0_split
I0403 19:39:25.344487  9501 net.cpp:425] inception_4d/output_inception_4d/output_0_split <- inception_4d/output
I0403 19:39:25.344504  9501 net.cpp:399] inception_4d/output_inception_4d/output_0_split -> inception_4d/output_inception_4d/output_0_split_0
I0403 19:39:25.344526  9501 net.cpp:399] inception_4d/output_inception_4d/output_0_split -> inception_4d/output_inception_4d/output_0_split_1
I0403 19:39:25.344545  9501 net.cpp:399] inception_4d/output_inception_4d/output_0_split -> inception_4d/output_inception_4d/output_0_split_2
I0403 19:39:25.344565  9501 net.cpp:399] inception_4d/output_inception_4d/output_0_split -> inception_4d/output_inception_4d/output_0_split_3
I0403 19:39:25.344588  9501 net.cpp:399] inception_4d/output_inception_4d/output_0_split -> inception_4d/output_inception_4d/output_0_split_4
I0403 19:39:25.344697  9501 net.cpp:141] Setting up inception_4d/output_inception_4d/output_0_split
I0403 19:39:25.344732  9501 net.cpp:148] Top shape: 24 528 14 14 (2483712)
I0403 19:39:25.344749  9501 net.cpp:148] Top shape: 24 528 14 14 (2483712)
I0403 19:39:25.344765  9501 net.cpp:148] Top shape: 24 528 14 14 (2483712)
I0403 19:39:25.344780  9501 net.cpp:148] Top shape: 24 528 14 14 (2483712)
I0403 19:39:25.344795  9501 net.cpp:148] Top shape: 24 528 14 14 (2483712)
I0403 19:39:25.344808  9501 net.cpp:156] Memory required for data: 1206918432
I0403 19:39:25.344823  9501 layer_factory.hpp:77] Creating layer loss2/ave_pool
I0403 19:39:25.344841  9501 net.cpp:91] Creating Layer loss2/ave_pool
I0403 19:39:25.344859  9501 net.cpp:425] loss2/ave_pool <- inception_4d/output_inception_4d/output_0_split_0
I0403 19:39:25.344877  9501 net.cpp:399] loss2/ave_pool -> loss2/ave_pool
I0403 19:39:25.345190  9501 net.cpp:141] Setting up loss2/ave_pool
I0403 19:39:25.345216  9501 net.cpp:148] Top shape: 24 528 4 4 (202752)
I0403 19:39:25.345232  9501 net.cpp:156] Memory required for data: 1207729440
I0403 19:39:25.345252  9501 layer_factory.hpp:77] Creating layer loss2/conv
I0403 19:39:25.345274  9501 net.cpp:91] Creating Layer loss2/conv
I0403 19:39:25.345293  9501 net.cpp:425] loss2/conv <- loss2/ave_pool
I0403 19:39:25.345314  9501 net.cpp:399] loss2/conv -> loss2/conv
I0403 19:39:25.347173  9501 net.cpp:141] Setting up loss2/conv
I0403 19:39:25.347203  9501 net.cpp:148] Top shape: 24 128 4 4 (49152)
I0403 19:39:25.347218  9501 net.cpp:156] Memory required for data: 1207926048
I0403 19:39:25.347236  9501 layer_factory.hpp:77] Creating layer loss2/relu_conv
I0403 19:39:25.347264  9501 net.cpp:91] Creating Layer loss2/relu_conv
I0403 19:39:25.347290  9501 net.cpp:425] loss2/relu_conv <- loss2/conv
I0403 19:39:25.347307  9501 net.cpp:386] loss2/relu_conv -> loss2/conv (in-place)
I0403 19:39:25.347623  9501 net.cpp:141] Setting up loss2/relu_conv
I0403 19:39:25.347654  9501 net.cpp:148] Top shape: 24 128 4 4 (49152)
I0403 19:39:25.347671  9501 net.cpp:156] Memory required for data: 1208122656
I0403 19:39:25.347687  9501 layer_factory.hpp:77] Creating layer loss2/fc
I0403 19:39:25.347705  9501 net.cpp:91] Creating Layer loss2/fc
I0403 19:39:25.347738  9501 net.cpp:425] loss2/fc <- loss2/conv
I0403 19:39:25.347760  9501 net.cpp:399] loss2/fc -> loss2/fc
I0403 19:39:25.366179  9501 net.cpp:141] Setting up loss2/fc
I0403 19:39:25.366235  9501 net.cpp:148] Top shape: 24 1024 (24576)
I0403 19:39:25.366258  9501 net.cpp:156] Memory required for data: 1208220960
I0403 19:39:25.366281  9501 layer_factory.hpp:77] Creating layer loss2/relu_fc
I0403 19:39:25.366303  9501 net.cpp:91] Creating Layer loss2/relu_fc
I0403 19:39:25.366322  9501 net.cpp:425] loss2/relu_fc <- loss2/fc
I0403 19:39:25.366341  9501 net.cpp:386] loss2/relu_fc -> loss2/fc (in-place)
I0403 19:39:25.366750  9501 net.cpp:141] Setting up loss2/relu_fc
I0403 19:39:25.366777  9501 net.cpp:148] Top shape: 24 1024 (24576)
I0403 19:39:25.366792  9501 net.cpp:156] Memory required for data: 1208319264
I0403 19:39:25.366808  9501 layer_factory.hpp:77] Creating layer loss2/drop_fc
I0403 19:39:25.366829  9501 net.cpp:91] Creating Layer loss2/drop_fc
I0403 19:39:25.366847  9501 net.cpp:425] loss2/drop_fc <- loss2/fc
I0403 19:39:25.366863  9501 net.cpp:386] loss2/drop_fc -> loss2/fc (in-place)
I0403 19:39:25.366917  9501 net.cpp:141] Setting up loss2/drop_fc
I0403 19:39:25.366940  9501 net.cpp:148] Top shape: 24 1024 (24576)
I0403 19:39:25.366955  9501 net.cpp:156] Memory required for data: 1208417568
I0403 19:39:25.366969  9501 layer_factory.hpp:77] Creating layer loss2/classifier_plantvillage
I0403 19:39:25.366991  9501 net.cpp:91] Creating Layer loss2/classifier_plantvillage
I0403 19:39:25.367008  9501 net.cpp:425] loss2/classifier_plantvillage <- loss2/fc
I0403 19:39:25.367027  9501 net.cpp:399] loss2/classifier_plantvillage -> loss2/classifier_plantvillage
I0403 19:39:25.367468  9501 net.cpp:141] Setting up loss2/classifier_plantvillage
I0403 19:39:25.367493  9501 net.cpp:148] Top shape: 24 38 (912)
I0403 19:39:25.367509  9501 net.cpp:156] Memory required for data: 1208421216
I0403 19:39:25.367559  9501 layer_factory.hpp:77] Creating layer loss2/classifier_plantvillage_loss2/classifier_plantvillage_0_split
I0403 19:39:25.367578  9501 net.cpp:91] Creating Layer loss2/classifier_plantvillage_loss2/classifier_plantvillage_0_split
I0403 19:39:25.367594  9501 net.cpp:425] loss2/classifier_plantvillage_loss2/classifier_plantvillage_0_split <- loss2/classifier_plantvillage
I0403 19:39:25.367614  9501 net.cpp:399] loss2/classifier_plantvillage_loss2/classifier_plantvillage_0_split -> loss2/classifier_plantvillage_loss2/classifier_plantvillage_0_split_0
I0403 19:39:25.367636  9501 net.cpp:399] loss2/classifier_plantvillage_loss2/classifier_plantvillage_0_split -> loss2/classifier_plantvillage_loss2/classifier_plantvillage_0_split_1
I0403 19:39:25.367661  9501 net.cpp:399] loss2/classifier_plantvillage_loss2/classifier_plantvillage_0_split -> loss2/classifier_plantvillage_loss2/classifier_plantvillage_0_split_2
I0403 19:39:25.367740  9501 net.cpp:141] Setting up loss2/classifier_plantvillage_loss2/classifier_plantvillage_0_split
I0403 19:39:25.367766  9501 net.cpp:148] Top shape: 24 38 (912)
I0403 19:39:25.367784  9501 net.cpp:148] Top shape: 24 38 (912)
I0403 19:39:25.367799  9501 net.cpp:148] Top shape: 24 38 (912)
I0403 19:39:25.367812  9501 net.cpp:156] Memory required for data: 1208432160
I0403 19:39:25.367827  9501 layer_factory.hpp:77] Creating layer inception_4e/1x1
I0403 19:39:25.367852  9501 net.cpp:91] Creating Layer inception_4e/1x1
I0403 19:39:25.367871  9501 net.cpp:425] inception_4e/1x1 <- inception_4d/output_inception_4d/output_0_split_1
I0403 19:39:25.367889  9501 net.cpp:399] inception_4e/1x1 -> inception_4e/1x1
I0403 19:39:25.369798  9501 net.cpp:141] Setting up inception_4e/1x1
I0403 19:39:25.369828  9501 net.cpp:148] Top shape: 24 256 14 14 (1204224)
I0403 19:39:25.369844  9501 net.cpp:156] Memory required for data: 1213249056
I0403 19:39:25.369863  9501 layer_factory.hpp:77] Creating layer inception_4e/relu_1x1
I0403 19:39:25.369881  9501 net.cpp:91] Creating Layer inception_4e/relu_1x1
I0403 19:39:25.369897  9501 net.cpp:425] inception_4e/relu_1x1 <- inception_4e/1x1
I0403 19:39:25.369916  9501 net.cpp:386] inception_4e/relu_1x1 -> inception_4e/1x1 (in-place)
I0403 19:39:25.370211  9501 net.cpp:141] Setting up inception_4e/relu_1x1
I0403 19:39:25.370245  9501 net.cpp:148] Top shape: 24 256 14 14 (1204224)
I0403 19:39:25.370262  9501 net.cpp:156] Memory required for data: 1218065952
I0403 19:39:25.370277  9501 layer_factory.hpp:77] Creating layer inception_4e/3x3_reduce
I0403 19:39:25.370299  9501 net.cpp:91] Creating Layer inception_4e/3x3_reduce
I0403 19:39:25.370316  9501 net.cpp:425] inception_4e/3x3_reduce <- inception_4d/output_inception_4d/output_0_split_2
I0403 19:39:25.370334  9501 net.cpp:399] inception_4e/3x3_reduce -> inception_4e/3x3_reduce
I0403 19:39:25.372486  9501 net.cpp:141] Setting up inception_4e/3x3_reduce
I0403 19:39:25.372520  9501 net.cpp:148] Top shape: 24 160 14 14 (752640)
I0403 19:39:25.372536  9501 net.cpp:156] Memory required for data: 1221076512
I0403 19:39:25.372555  9501 layer_factory.hpp:77] Creating layer inception_4e/relu_3x3_reduce
I0403 19:39:25.372573  9501 net.cpp:91] Creating Layer inception_4e/relu_3x3_reduce
I0403 19:39:25.372589  9501 net.cpp:425] inception_4e/relu_3x3_reduce <- inception_4e/3x3_reduce
I0403 19:39:25.372606  9501 net.cpp:386] inception_4e/relu_3x3_reduce -> inception_4e/3x3_reduce (in-place)
I0403 19:39:25.372793  9501 net.cpp:141] Setting up inception_4e/relu_3x3_reduce
I0403 19:39:25.372818  9501 net.cpp:148] Top shape: 24 160 14 14 (752640)
I0403 19:39:25.372833  9501 net.cpp:156] Memory required for data: 1224087072
I0403 19:39:25.372848  9501 layer_factory.hpp:77] Creating layer inception_4e/3x3
I0403 19:39:25.372876  9501 net.cpp:91] Creating Layer inception_4e/3x3
I0403 19:39:25.372895  9501 net.cpp:425] inception_4e/3x3 <- inception_4e/3x3_reduce
I0403 19:39:25.372920  9501 net.cpp:399] inception_4e/3x3 -> inception_4e/3x3
I0403 19:39:25.377957  9501 net.cpp:141] Setting up inception_4e/3x3
I0403 19:39:25.378005  9501 net.cpp:148] Top shape: 24 320 14 14 (1505280)
I0403 19:39:25.378021  9501 net.cpp:156] Memory required for data: 1230108192
I0403 19:39:25.378038  9501 layer_factory.hpp:77] Creating layer inception_4e/relu_3x3
I0403 19:39:25.378056  9501 net.cpp:91] Creating Layer inception_4e/relu_3x3
I0403 19:39:25.378072  9501 net.cpp:425] inception_4e/relu_3x3 <- inception_4e/3x3
I0403 19:39:25.378089  9501 net.cpp:386] inception_4e/relu_3x3 -> inception_4e/3x3 (in-place)
I0403 19:39:25.378387  9501 net.cpp:141] Setting up inception_4e/relu_3x3
I0403 19:39:25.378413  9501 net.cpp:148] Top shape: 24 320 14 14 (1505280)
I0403 19:39:25.378427  9501 net.cpp:156] Memory required for data: 1236129312
I0403 19:39:25.378443  9501 layer_factory.hpp:77] Creating layer inception_4e/5x5_reduce
I0403 19:39:25.378465  9501 net.cpp:91] Creating Layer inception_4e/5x5_reduce
I0403 19:39:25.378482  9501 net.cpp:425] inception_4e/5x5_reduce <- inception_4d/output_inception_4d/output_0_split_3
I0403 19:39:25.378505  9501 net.cpp:399] inception_4e/5x5_reduce -> inception_4e/5x5_reduce
I0403 19:39:25.379590  9501 net.cpp:141] Setting up inception_4e/5x5_reduce
I0403 19:39:25.379619  9501 net.cpp:148] Top shape: 24 32 14 14 (150528)
I0403 19:39:25.379636  9501 net.cpp:156] Memory required for data: 1236731424
I0403 19:39:25.379654  9501 layer_factory.hpp:77] Creating layer inception_4e/relu_5x5_reduce
I0403 19:39:25.379672  9501 net.cpp:91] Creating Layer inception_4e/relu_5x5_reduce
I0403 19:39:25.379688  9501 net.cpp:425] inception_4e/relu_5x5_reduce <- inception_4e/5x5_reduce
I0403 19:39:25.379708  9501 net.cpp:386] inception_4e/relu_5x5_reduce -> inception_4e/5x5_reduce (in-place)
I0403 19:39:25.380010  9501 net.cpp:141] Setting up inception_4e/relu_5x5_reduce
I0403 19:39:25.380038  9501 net.cpp:148] Top shape: 24 32 14 14 (150528)
I0403 19:39:25.380053  9501 net.cpp:156] Memory required for data: 1237333536
I0403 19:39:25.380067  9501 layer_factory.hpp:77] Creating layer inception_4e/5x5
I0403 19:39:25.380108  9501 net.cpp:91] Creating Layer inception_4e/5x5
I0403 19:39:25.380126  9501 net.cpp:425] inception_4e/5x5 <- inception_4e/5x5_reduce
I0403 19:39:25.380146  9501 net.cpp:399] inception_4e/5x5 -> inception_4e/5x5
I0403 19:39:25.382006  9501 net.cpp:141] Setting up inception_4e/5x5
I0403 19:39:25.382035  9501 net.cpp:148] Top shape: 24 128 14 14 (602112)
I0403 19:39:25.382050  9501 net.cpp:156] Memory required for data: 1239741984
I0403 19:39:25.382068  9501 layer_factory.hpp:77] Creating layer inception_4e/relu_5x5
I0403 19:39:25.382088  9501 net.cpp:91] Creating Layer inception_4e/relu_5x5
I0403 19:39:25.382105  9501 net.cpp:425] inception_4e/relu_5x5 <- inception_4e/5x5
I0403 19:39:25.382122  9501 net.cpp:386] inception_4e/relu_5x5 -> inception_4e/5x5 (in-place)
I0403 19:39:25.382326  9501 net.cpp:141] Setting up inception_4e/relu_5x5
I0403 19:39:25.382354  9501 net.cpp:148] Top shape: 24 128 14 14 (602112)
I0403 19:39:25.382369  9501 net.cpp:156] Memory required for data: 1242150432
I0403 19:39:25.382383  9501 layer_factory.hpp:77] Creating layer inception_4e/pool
I0403 19:39:25.382401  9501 net.cpp:91] Creating Layer inception_4e/pool
I0403 19:39:25.382417  9501 net.cpp:425] inception_4e/pool <- inception_4d/output_inception_4d/output_0_split_4
I0403 19:39:25.382436  9501 net.cpp:399] inception_4e/pool -> inception_4e/pool
I0403 19:39:25.382506  9501 net.cpp:141] Setting up inception_4e/pool
I0403 19:39:25.382529  9501 net.cpp:148] Top shape: 24 528 14 14 (2483712)
I0403 19:39:25.382544  9501 net.cpp:156] Memory required for data: 1252085280
I0403 19:39:25.382557  9501 layer_factory.hpp:77] Creating layer inception_4e/pool_proj
I0403 19:39:25.382581  9501 net.cpp:91] Creating Layer inception_4e/pool_proj
I0403 19:39:25.382601  9501 net.cpp:425] inception_4e/pool_proj <- inception_4e/pool
I0403 19:39:25.382618  9501 net.cpp:399] inception_4e/pool_proj -> inception_4e/pool_proj
I0403 19:39:25.384093  9501 net.cpp:141] Setting up inception_4e/pool_proj
I0403 19:39:25.384120  9501 net.cpp:148] Top shape: 24 128 14 14 (602112)
I0403 19:39:25.384150  9501 net.cpp:156] Memory required for data: 1254493728
I0403 19:39:25.384168  9501 layer_factory.hpp:77] Creating layer inception_4e/relu_pool_proj
I0403 19:39:25.384188  9501 net.cpp:91] Creating Layer inception_4e/relu_pool_proj
I0403 19:39:25.384204  9501 net.cpp:425] inception_4e/relu_pool_proj <- inception_4e/pool_proj
I0403 19:39:25.384222  9501 net.cpp:386] inception_4e/relu_pool_proj -> inception_4e/pool_proj (in-place)
I0403 19:39:25.384557  9501 net.cpp:141] Setting up inception_4e/relu_pool_proj
I0403 19:39:25.384582  9501 net.cpp:148] Top shape: 24 128 14 14 (602112)
I0403 19:39:25.384598  9501 net.cpp:156] Memory required for data: 1256902176
I0403 19:39:25.384611  9501 layer_factory.hpp:77] Creating layer inception_4e/output
I0403 19:39:25.384629  9501 net.cpp:91] Creating Layer inception_4e/output
I0403 19:39:25.384644  9501 net.cpp:425] inception_4e/output <- inception_4e/1x1
I0403 19:39:25.384661  9501 net.cpp:425] inception_4e/output <- inception_4e/3x3
I0403 19:39:25.384677  9501 net.cpp:425] inception_4e/output <- inception_4e/5x5
I0403 19:39:25.384692  9501 net.cpp:425] inception_4e/output <- inception_4e/pool_proj
I0403 19:39:25.384709  9501 net.cpp:399] inception_4e/output -> inception_4e/output
I0403 19:39:25.384758  9501 net.cpp:141] Setting up inception_4e/output
I0403 19:39:25.384780  9501 net.cpp:148] Top shape: 24 832 14 14 (3913728)
I0403 19:39:25.384794  9501 net.cpp:156] Memory required for data: 1272557088
I0403 19:39:25.384809  9501 layer_factory.hpp:77] Creating layer pool4/3x3_s2
I0403 19:39:25.384825  9501 net.cpp:91] Creating Layer pool4/3x3_s2
I0403 19:39:25.384841  9501 net.cpp:425] pool4/3x3_s2 <- inception_4e/output
I0403 19:39:25.384860  9501 net.cpp:399] pool4/3x3_s2 -> pool4/3x3_s2
I0403 19:39:25.384925  9501 net.cpp:141] Setting up pool4/3x3_s2
I0403 19:39:25.384948  9501 net.cpp:148] Top shape: 24 832 7 7 (978432)
I0403 19:39:25.384963  9501 net.cpp:156] Memory required for data: 1276470816
I0403 19:39:25.384976  9501 layer_factory.hpp:77] Creating layer pool4/3x3_s2_pool4/3x3_s2_0_split
I0403 19:39:25.384996  9501 net.cpp:91] Creating Layer pool4/3x3_s2_pool4/3x3_s2_0_split
I0403 19:39:25.385012  9501 net.cpp:425] pool4/3x3_s2_pool4/3x3_s2_0_split <- pool4/3x3_s2
I0403 19:39:25.385030  9501 net.cpp:399] pool4/3x3_s2_pool4/3x3_s2_0_split -> pool4/3x3_s2_pool4/3x3_s2_0_split_0
I0403 19:39:25.385051  9501 net.cpp:399] pool4/3x3_s2_pool4/3x3_s2_0_split -> pool4/3x3_s2_pool4/3x3_s2_0_split_1
I0403 19:39:25.385071  9501 net.cpp:399] pool4/3x3_s2_pool4/3x3_s2_0_split -> pool4/3x3_s2_pool4/3x3_s2_0_split_2
I0403 19:39:25.385089  9501 net.cpp:399] pool4/3x3_s2_pool4/3x3_s2_0_split -> pool4/3x3_s2_pool4/3x3_s2_0_split_3
I0403 19:39:25.385177  9501 net.cpp:141] Setting up pool4/3x3_s2_pool4/3x3_s2_0_split
I0403 19:39:25.385200  9501 net.cpp:148] Top shape: 24 832 7 7 (978432)
I0403 19:39:25.385215  9501 net.cpp:148] Top shape: 24 832 7 7 (978432)
I0403 19:39:25.385231  9501 net.cpp:148] Top shape: 24 832 7 7 (978432)
I0403 19:39:25.385249  9501 net.cpp:148] Top shape: 24 832 7 7 (978432)
I0403 19:39:25.385263  9501 net.cpp:156] Memory required for data: 1292125728
I0403 19:39:25.385277  9501 layer_factory.hpp:77] Creating layer inception_5a/1x1
I0403 19:39:25.385303  9501 net.cpp:91] Creating Layer inception_5a/1x1
I0403 19:39:25.385319  9501 net.cpp:425] inception_5a/1x1 <- pool4/3x3_s2_pool4/3x3_s2_0_split_0
I0403 19:39:25.385339  9501 net.cpp:399] inception_5a/1x1 -> inception_5a/1x1
I0403 19:39:25.388298  9501 net.cpp:141] Setting up inception_5a/1x1
I0403 19:39:25.388330  9501 net.cpp:148] Top shape: 24 256 7 7 (301056)
I0403 19:39:25.388347  9501 net.cpp:156] Memory required for data: 1293329952
I0403 19:39:25.388366  9501 layer_factory.hpp:77] Creating layer inception_5a/relu_1x1
I0403 19:39:25.388383  9501 net.cpp:91] Creating Layer inception_5a/relu_1x1
I0403 19:39:25.388399  9501 net.cpp:425] inception_5a/relu_1x1 <- inception_5a/1x1
I0403 19:39:25.388417  9501 net.cpp:386] inception_5a/relu_1x1 -> inception_5a/1x1 (in-place)
I0403 19:39:25.388727  9501 net.cpp:141] Setting up inception_5a/relu_1x1
I0403 19:39:25.388758  9501 net.cpp:148] Top shape: 24 256 7 7 (301056)
I0403 19:39:25.388773  9501 net.cpp:156] Memory required for data: 1294534176
I0403 19:39:25.388788  9501 layer_factory.hpp:77] Creating layer inception_5a/3x3_reduce
I0403 19:39:25.388809  9501 net.cpp:91] Creating Layer inception_5a/3x3_reduce
I0403 19:39:25.388826  9501 net.cpp:425] inception_5a/3x3_reduce <- pool4/3x3_s2_pool4/3x3_s2_0_split_1
I0403 19:39:25.388847  9501 net.cpp:399] inception_5a/3x3_reduce -> inception_5a/3x3_reduce
I0403 19:39:25.391392  9501 net.cpp:141] Setting up inception_5a/3x3_reduce
I0403 19:39:25.391422  9501 net.cpp:148] Top shape: 24 160 7 7 (188160)
I0403 19:39:25.391438  9501 net.cpp:156] Memory required for data: 1295286816
I0403 19:39:25.391455  9501 layer_factory.hpp:77] Creating layer inception_5a/relu_3x3_reduce
I0403 19:39:25.391485  9501 net.cpp:91] Creating Layer inception_5a/relu_3x3_reduce
I0403 19:39:25.391500  9501 net.cpp:425] inception_5a/relu_3x3_reduce <- inception_5a/3x3_reduce
I0403 19:39:25.391520  9501 net.cpp:386] inception_5a/relu_3x3_reduce -> inception_5a/3x3_reduce (in-place)
I0403 19:39:25.391703  9501 net.cpp:141] Setting up inception_5a/relu_3x3_reduce
I0403 19:39:25.391727  9501 net.cpp:148] Top shape: 24 160 7 7 (188160)
I0403 19:39:25.391742  9501 net.cpp:156] Memory required for data: 1296039456
I0403 19:39:25.391757  9501 layer_factory.hpp:77] Creating layer inception_5a/3x3
I0403 19:39:25.391778  9501 net.cpp:91] Creating Layer inception_5a/3x3
I0403 19:39:25.391795  9501 net.cpp:425] inception_5a/3x3 <- inception_5a/3x3_reduce
I0403 19:39:25.391816  9501 net.cpp:399] inception_5a/3x3 -> inception_5a/3x3
I0403 19:39:25.396919  9501 net.cpp:141] Setting up inception_5a/3x3
I0403 19:39:25.396955  9501 net.cpp:148] Top shape: 24 320 7 7 (376320)
I0403 19:39:25.396972  9501 net.cpp:156] Memory required for data: 1297544736
I0403 19:39:25.396991  9501 layer_factory.hpp:77] Creating layer inception_5a/relu_3x3
I0403 19:39:25.397012  9501 net.cpp:91] Creating Layer inception_5a/relu_3x3
I0403 19:39:25.397030  9501 net.cpp:425] inception_5a/relu_3x3 <- inception_5a/3x3
I0403 19:39:25.397047  9501 net.cpp:386] inception_5a/relu_3x3 -> inception_5a/3x3 (in-place)
I0403 19:39:25.397348  9501 net.cpp:141] Setting up inception_5a/relu_3x3
I0403 19:39:25.397374  9501 net.cpp:148] Top shape: 24 320 7 7 (376320)
I0403 19:39:25.397389  9501 net.cpp:156] Memory required for data: 1299050016
I0403 19:39:25.397404  9501 layer_factory.hpp:77] Creating layer inception_5a/5x5_reduce
I0403 19:39:25.397429  9501 net.cpp:91] Creating Layer inception_5a/5x5_reduce
I0403 19:39:25.397449  9501 net.cpp:425] inception_5a/5x5_reduce <- pool4/3x3_s2_pool4/3x3_s2_0_split_2
I0403 19:39:25.397469  9501 net.cpp:399] inception_5a/5x5_reduce -> inception_5a/5x5_reduce
I0403 19:39:25.398646  9501 net.cpp:141] Setting up inception_5a/5x5_reduce
I0403 19:39:25.398677  9501 net.cpp:148] Top shape: 24 32 7 7 (37632)
I0403 19:39:25.398694  9501 net.cpp:156] Memory required for data: 1299200544
I0403 19:39:25.398712  9501 layer_factory.hpp:77] Creating layer inception_5a/relu_5x5_reduce
I0403 19:39:25.398730  9501 net.cpp:91] Creating Layer inception_5a/relu_5x5_reduce
I0403 19:39:25.398746  9501 net.cpp:425] inception_5a/relu_5x5_reduce <- inception_5a/5x5_reduce
I0403 19:39:25.398762  9501 net.cpp:386] inception_5a/relu_5x5_reduce -> inception_5a/5x5_reduce (in-place)
I0403 19:39:25.399061  9501 net.cpp:141] Setting up inception_5a/relu_5x5_reduce
I0403 19:39:25.399091  9501 net.cpp:148] Top shape: 24 32 7 7 (37632)
I0403 19:39:25.399106  9501 net.cpp:156] Memory required for data: 1299351072
I0403 19:39:25.399121  9501 layer_factory.hpp:77] Creating layer inception_5a/5x5
I0403 19:39:25.399142  9501 net.cpp:91] Creating Layer inception_5a/5x5
I0403 19:39:25.399159  9501 net.cpp:425] inception_5a/5x5 <- inception_5a/5x5_reduce
I0403 19:39:25.399178  9501 net.cpp:399] inception_5a/5x5 -> inception_5a/5x5
I0403 19:39:25.400923  9501 net.cpp:141] Setting up inception_5a/5x5
I0403 19:39:25.400971  9501 net.cpp:148] Top shape: 24 128 7 7 (150528)
I0403 19:39:25.400993  9501 net.cpp:156] Memory required for data: 1299953184
I0403 19:39:25.401015  9501 layer_factory.hpp:77] Creating layer inception_5a/relu_5x5
I0403 19:39:25.401034  9501 net.cpp:91] Creating Layer inception_5a/relu_5x5
I0403 19:39:25.401051  9501 net.cpp:425] inception_5a/relu_5x5 <- inception_5a/5x5
I0403 19:39:25.401069  9501 net.cpp:386] inception_5a/relu_5x5 -> inception_5a/5x5 (in-place)
I0403 19:39:25.401267  9501 net.cpp:141] Setting up inception_5a/relu_5x5
I0403 19:39:25.401296  9501 net.cpp:148] Top shape: 24 128 7 7 (150528)
I0403 19:39:25.401311  9501 net.cpp:156] Memory required for data: 1300555296
I0403 19:39:25.401325  9501 layer_factory.hpp:77] Creating layer inception_5a/pool
I0403 19:39:25.401343  9501 net.cpp:91] Creating Layer inception_5a/pool
I0403 19:39:25.401360  9501 net.cpp:425] inception_5a/pool <- pool4/3x3_s2_pool4/3x3_s2_0_split_3
I0403 19:39:25.401379  9501 net.cpp:399] inception_5a/pool -> inception_5a/pool
I0403 19:39:25.401451  9501 net.cpp:141] Setting up inception_5a/pool
I0403 19:39:25.401476  9501 net.cpp:148] Top shape: 24 832 7 7 (978432)
I0403 19:39:25.401491  9501 net.cpp:156] Memory required for data: 1304469024
I0403 19:39:25.401506  9501 layer_factory.hpp:77] Creating layer inception_5a/pool_proj
I0403 19:39:25.401530  9501 net.cpp:91] Creating Layer inception_5a/pool_proj
I0403 19:39:25.401548  9501 net.cpp:425] inception_5a/pool_proj <- inception_5a/pool
I0403 19:39:25.401566  9501 net.cpp:399] inception_5a/pool_proj -> inception_5a/pool_proj
I0403 19:39:25.403985  9501 net.cpp:141] Setting up inception_5a/pool_proj
I0403 19:39:25.404016  9501 net.cpp:148] Top shape: 24 128 7 7 (150528)
I0403 19:39:25.404031  9501 net.cpp:156] Memory required for data: 1305071136
I0403 19:39:25.404052  9501 layer_factory.hpp:77] Creating layer inception_5a/relu_pool_proj
I0403 19:39:25.404072  9501 net.cpp:91] Creating Layer inception_5a/relu_pool_proj
I0403 19:39:25.404089  9501 net.cpp:425] inception_5a/relu_pool_proj <- inception_5a/pool_proj
I0403 19:39:25.404106  9501 net.cpp:386] inception_5a/relu_pool_proj -> inception_5a/pool_proj (in-place)
I0403 19:39:25.404412  9501 net.cpp:141] Setting up inception_5a/relu_pool_proj
I0403 19:39:25.404441  9501 net.cpp:148] Top shape: 24 128 7 7 (150528)
I0403 19:39:25.404458  9501 net.cpp:156] Memory required for data: 1305673248
I0403 19:39:25.404474  9501 layer_factory.hpp:77] Creating layer inception_5a/output
I0403 19:39:25.404495  9501 net.cpp:91] Creating Layer inception_5a/output
I0403 19:39:25.404511  9501 net.cpp:425] inception_5a/output <- inception_5a/1x1
I0403 19:39:25.404528  9501 net.cpp:425] inception_5a/output <- inception_5a/3x3
I0403 19:39:25.404549  9501 net.cpp:425] inception_5a/output <- inception_5a/5x5
I0403 19:39:25.404567  9501 net.cpp:425] inception_5a/output <- inception_5a/pool_proj
I0403 19:39:25.404583  9501 net.cpp:399] inception_5a/output -> inception_5a/output
I0403 19:39:25.404638  9501 net.cpp:141] Setting up inception_5a/output
I0403 19:39:25.404662  9501 net.cpp:148] Top shape: 24 832 7 7 (978432)
I0403 19:39:25.404676  9501 net.cpp:156] Memory required for data: 1309586976
I0403 19:39:25.404692  9501 layer_factory.hpp:77] Creating layer inception_5a/output_inception_5a/output_0_split
I0403 19:39:25.404709  9501 net.cpp:91] Creating Layer inception_5a/output_inception_5a/output_0_split
I0403 19:39:25.404726  9501 net.cpp:425] inception_5a/output_inception_5a/output_0_split <- inception_5a/output
I0403 19:39:25.404747  9501 net.cpp:399] inception_5a/output_inception_5a/output_0_split -> inception_5a/output_inception_5a/output_0_split_0
I0403 19:39:25.404768  9501 net.cpp:399] inception_5a/output_inception_5a/output_0_split -> inception_5a/output_inception_5a/output_0_split_1
I0403 19:39:25.404788  9501 net.cpp:399] inception_5a/output_inception_5a/output_0_split -> inception_5a/output_inception_5a/output_0_split_2
I0403 19:39:25.404816  9501 net.cpp:399] inception_5a/output_inception_5a/output_0_split -> inception_5a/output_inception_5a/output_0_split_3
I0403 19:39:25.404937  9501 net.cpp:141] Setting up inception_5a/output_inception_5a/output_0_split
I0403 19:39:25.404964  9501 net.cpp:148] Top shape: 24 832 7 7 (978432)
I0403 19:39:25.404983  9501 net.cpp:148] Top shape: 24 832 7 7 (978432)
I0403 19:39:25.404999  9501 net.cpp:148] Top shape: 24 832 7 7 (978432)
I0403 19:39:25.405014  9501 net.cpp:148] Top shape: 24 832 7 7 (978432)
I0403 19:39:25.405028  9501 net.cpp:156] Memory required for data: 1325241888
I0403 19:39:25.405043  9501 layer_factory.hpp:77] Creating layer inception_5b/1x1
I0403 19:39:25.405069  9501 net.cpp:91] Creating Layer inception_5b/1x1
I0403 19:39:25.405088  9501 net.cpp:425] inception_5b/1x1 <- inception_5a/output_inception_5a/output_0_split_0
I0403 19:39:25.405107  9501 net.cpp:399] inception_5b/1x1 -> inception_5b/1x1
I0403 19:39:25.409071  9501 net.cpp:141] Setting up inception_5b/1x1
I0403 19:39:25.409104  9501 net.cpp:148] Top shape: 24 384 7 7 (451584)
I0403 19:39:25.409121  9501 net.cpp:156] Memory required for data: 1327048224
I0403 19:39:25.409139  9501 layer_factory.hpp:77] Creating layer inception_5b/relu_1x1
I0403 19:39:25.409160  9501 net.cpp:91] Creating Layer inception_5b/relu_1x1
I0403 19:39:25.409178  9501 net.cpp:425] inception_5b/relu_1x1 <- inception_5b/1x1
I0403 19:39:25.409195  9501 net.cpp:386] inception_5b/relu_1x1 -> inception_5b/1x1 (in-place)
I0403 19:39:25.409514  9501 net.cpp:141] Setting up inception_5b/relu_1x1
I0403 19:39:25.409541  9501 net.cpp:148] Top shape: 24 384 7 7 (451584)
I0403 19:39:25.409557  9501 net.cpp:156] Memory required for data: 1328854560
I0403 19:39:25.409572  9501 layer_factory.hpp:77] Creating layer inception_5b/3x3_reduce
I0403 19:39:25.409595  9501 net.cpp:91] Creating Layer inception_5b/3x3_reduce
I0403 19:39:25.409613  9501 net.cpp:425] inception_5b/3x3_reduce <- inception_5a/output_inception_5a/output_0_split_1
I0403 19:39:25.409636  9501 net.cpp:399] inception_5b/3x3_reduce -> inception_5b/3x3_reduce
I0403 19:39:25.412437  9501 net.cpp:141] Setting up inception_5b/3x3_reduce
I0403 19:39:25.412468  9501 net.cpp:148] Top shape: 24 192 7 7 (225792)
I0403 19:39:25.412497  9501 net.cpp:156] Memory required for data: 1329757728
I0403 19:39:25.412516  9501 layer_factory.hpp:77] Creating layer inception_5b/relu_3x3_reduce
I0403 19:39:25.412536  9501 net.cpp:91] Creating Layer inception_5b/relu_3x3_reduce
I0403 19:39:25.412554  9501 net.cpp:425] inception_5b/relu_3x3_reduce <- inception_5b/3x3_reduce
I0403 19:39:25.412572  9501 net.cpp:386] inception_5b/relu_3x3_reduce -> inception_5b/3x3_reduce (in-place)
I0403 19:39:25.412772  9501 net.cpp:141] Setting up inception_5b/relu_3x3_reduce
I0403 19:39:25.412798  9501 net.cpp:148] Top shape: 24 192 7 7 (225792)
I0403 19:39:25.412816  9501 net.cpp:156] Memory required for data: 1330660896
I0403 19:39:25.412830  9501 layer_factory.hpp:77] Creating layer inception_5b/3x3
I0403 19:39:25.412855  9501 net.cpp:91] Creating Layer inception_5b/3x3
I0403 19:39:25.412874  9501 net.cpp:425] inception_5b/3x3 <- inception_5b/3x3_reduce
I0403 19:39:25.412894  9501 net.cpp:399] inception_5b/3x3 -> inception_5b/3x3
I0403 19:39:25.419956  9501 net.cpp:141] Setting up inception_5b/3x3
I0403 19:39:25.419999  9501 net.cpp:148] Top shape: 24 384 7 7 (451584)
I0403 19:39:25.420016  9501 net.cpp:156] Memory required for data: 1332467232
I0403 19:39:25.420034  9501 layer_factory.hpp:77] Creating layer inception_5b/relu_3x3
I0403 19:39:25.420056  9501 net.cpp:91] Creating Layer inception_5b/relu_3x3
I0403 19:39:25.420074  9501 net.cpp:425] inception_5b/relu_3x3 <- inception_5b/3x3
I0403 19:39:25.420094  9501 net.cpp:386] inception_5b/relu_3x3 -> inception_5b/3x3 (in-place)
I0403 19:39:25.420405  9501 net.cpp:141] Setting up inception_5b/relu_3x3
I0403 19:39:25.420433  9501 net.cpp:148] Top shape: 24 384 7 7 (451584)
I0403 19:39:25.420447  9501 net.cpp:156] Memory required for data: 1334273568
I0403 19:39:25.420464  9501 layer_factory.hpp:77] Creating layer inception_5b/5x5_reduce
I0403 19:39:25.420518  9501 net.cpp:91] Creating Layer inception_5b/5x5_reduce
I0403 19:39:25.420539  9501 net.cpp:425] inception_5b/5x5_reduce <- inception_5a/output_inception_5a/output_0_split_2
I0403 19:39:25.420562  9501 net.cpp:399] inception_5b/5x5_reduce -> inception_5b/5x5_reduce
I0403 19:39:25.421928  9501 net.cpp:141] Setting up inception_5b/5x5_reduce
I0403 19:39:25.421955  9501 net.cpp:148] Top shape: 24 48 7 7 (56448)
I0403 19:39:25.421972  9501 net.cpp:156] Memory required for data: 1334499360
I0403 19:39:25.421989  9501 layer_factory.hpp:77] Creating layer inception_5b/relu_5x5_reduce
I0403 19:39:25.422008  9501 net.cpp:91] Creating Layer inception_5b/relu_5x5_reduce
I0403 19:39:25.422024  9501 net.cpp:425] inception_5b/relu_5x5_reduce <- inception_5b/5x5_reduce
I0403 19:39:25.422042  9501 net.cpp:386] inception_5b/relu_5x5_reduce -> inception_5b/5x5_reduce (in-place)
I0403 19:39:25.422430  9501 net.cpp:141] Setting up inception_5b/relu_5x5_reduce
I0403 19:39:25.422457  9501 net.cpp:148] Top shape: 24 48 7 7 (56448)
I0403 19:39:25.422473  9501 net.cpp:156] Memory required for data: 1334725152
I0403 19:39:25.422488  9501 layer_factory.hpp:77] Creating layer inception_5b/5x5
I0403 19:39:25.422509  9501 net.cpp:91] Creating Layer inception_5b/5x5
I0403 19:39:25.422526  9501 net.cpp:425] inception_5b/5x5 <- inception_5b/5x5_reduce
I0403 19:39:25.422544  9501 net.cpp:399] inception_5b/5x5 -> inception_5b/5x5
I0403 19:39:25.424666  9501 net.cpp:141] Setting up inception_5b/5x5
I0403 19:39:25.424696  9501 net.cpp:148] Top shape: 24 128 7 7 (150528)
I0403 19:39:25.424712  9501 net.cpp:156] Memory required for data: 1335327264
I0403 19:39:25.424731  9501 layer_factory.hpp:77] Creating layer inception_5b/relu_5x5
I0403 19:39:25.424748  9501 net.cpp:91] Creating Layer inception_5b/relu_5x5
I0403 19:39:25.424765  9501 net.cpp:425] inception_5b/relu_5x5 <- inception_5b/5x5
I0403 19:39:25.424782  9501 net.cpp:386] inception_5b/relu_5x5 -> inception_5b/5x5 (in-place)
I0403 19:39:25.424976  9501 net.cpp:141] Setting up inception_5b/relu_5x5
I0403 19:39:25.425005  9501 net.cpp:148] Top shape: 24 128 7 7 (150528)
I0403 19:39:25.425021  9501 net.cpp:156] Memory required for data: 1335929376
I0403 19:39:25.425036  9501 layer_factory.hpp:77] Creating layer inception_5b/pool
I0403 19:39:25.425055  9501 net.cpp:91] Creating Layer inception_5b/pool
I0403 19:39:25.425071  9501 net.cpp:425] inception_5b/pool <- inception_5a/output_inception_5a/output_0_split_3
I0403 19:39:25.425092  9501 net.cpp:399] inception_5b/pool -> inception_5b/pool
I0403 19:39:25.425168  9501 net.cpp:141] Setting up inception_5b/pool
I0403 19:39:25.425195  9501 net.cpp:148] Top shape: 24 832 7 7 (978432)
I0403 19:39:25.425210  9501 net.cpp:156] Memory required for data: 1339843104
I0403 19:39:25.425225  9501 layer_factory.hpp:77] Creating layer inception_5b/pool_proj
I0403 19:39:25.425248  9501 net.cpp:91] Creating Layer inception_5b/pool_proj
I0403 19:39:25.425266  9501 net.cpp:425] inception_5b/pool_proj <- inception_5b/pool
I0403 19:39:25.425287  9501 net.cpp:399] inception_5b/pool_proj -> inception_5b/pool_proj
I0403 19:39:25.427646  9501 net.cpp:141] Setting up inception_5b/pool_proj
I0403 19:39:25.427676  9501 net.cpp:148] Top shape: 24 128 7 7 (150528)
I0403 19:39:25.427692  9501 net.cpp:156] Memory required for data: 1340445216
I0403 19:39:25.427713  9501 layer_factory.hpp:77] Creating layer inception_5b/relu_pool_proj
I0403 19:39:25.427733  9501 net.cpp:91] Creating Layer inception_5b/relu_pool_proj
I0403 19:39:25.427750  9501 net.cpp:425] inception_5b/relu_pool_proj <- inception_5b/pool_proj
I0403 19:39:25.427768  9501 net.cpp:386] inception_5b/relu_pool_proj -> inception_5b/pool_proj (in-place)
I0403 19:39:25.428066  9501 net.cpp:141] Setting up inception_5b/relu_pool_proj
I0403 19:39:25.428093  9501 net.cpp:148] Top shape: 24 128 7 7 (150528)
I0403 19:39:25.428108  9501 net.cpp:156] Memory required for data: 1341047328
I0403 19:39:25.428122  9501 layer_factory.hpp:77] Creating layer inception_5b/output
I0403 19:39:25.428143  9501 net.cpp:91] Creating Layer inception_5b/output
I0403 19:39:25.428180  9501 net.cpp:425] inception_5b/output <- inception_5b/1x1
I0403 19:39:25.428200  9501 net.cpp:425] inception_5b/output <- inception_5b/3x3
I0403 19:39:25.428216  9501 net.cpp:425] inception_5b/output <- inception_5b/5x5
I0403 19:39:25.428233  9501 net.cpp:425] inception_5b/output <- inception_5b/pool_proj
I0403 19:39:25.428256  9501 net.cpp:399] inception_5b/output -> inception_5b/output
I0403 19:39:25.428311  9501 net.cpp:141] Setting up inception_5b/output
I0403 19:39:25.428335  9501 net.cpp:148] Top shape: 24 1024 7 7 (1204224)
I0403 19:39:25.428350  9501 net.cpp:156] Memory required for data: 1345864224
I0403 19:39:25.428364  9501 layer_factory.hpp:77] Creating layer pool5/7x7_s1
I0403 19:39:25.428381  9501 net.cpp:91] Creating Layer pool5/7x7_s1
I0403 19:39:25.428397  9501 net.cpp:425] pool5/7x7_s1 <- inception_5b/output
I0403 19:39:25.428419  9501 net.cpp:399] pool5/7x7_s1 -> pool5/7x7_s1
I0403 19:39:25.428645  9501 net.cpp:141] Setting up pool5/7x7_s1
I0403 19:39:25.428671  9501 net.cpp:148] Top shape: 24 1024 1 1 (24576)
I0403 19:39:25.428685  9501 net.cpp:156] Memory required for data: 1345962528
I0403 19:39:25.428699  9501 layer_factory.hpp:77] Creating layer pool5/drop_7x7_s1
I0403 19:39:25.428719  9501 net.cpp:91] Creating Layer pool5/drop_7x7_s1
I0403 19:39:25.428736  9501 net.cpp:425] pool5/drop_7x7_s1 <- pool5/7x7_s1
I0403 19:39:25.428753  9501 net.cpp:386] pool5/drop_7x7_s1 -> pool5/7x7_s1 (in-place)
I0403 19:39:25.428805  9501 net.cpp:141] Setting up pool5/drop_7x7_s1
I0403 19:39:25.428828  9501 net.cpp:148] Top shape: 24 1024 1 1 (24576)
I0403 19:39:25.428843  9501 net.cpp:156] Memory required for data: 1346060832
I0403 19:39:25.428858  9501 layer_factory.hpp:77] Creating layer loss3/classifier_plantvillage
I0403 19:39:25.428879  9501 net.cpp:91] Creating Layer loss3/classifier_plantvillage
I0403 19:39:25.428896  9501 net.cpp:425] loss3/classifier_plantvillage <- pool5/7x7_s1
I0403 19:39:25.428915  9501 net.cpp:399] loss3/classifier_plantvillage -> loss3/classifier_plantvillage
I0403 19:39:25.429357  9501 net.cpp:141] Setting up loss3/classifier_plantvillage
I0403 19:39:25.429380  9501 net.cpp:148] Top shape: 24 38 (912)
I0403 19:39:25.429395  9501 net.cpp:156] Memory required for data: 1346064480
I0403 19:39:25.429417  9501 layer_factory.hpp:77] Creating layer loss3/classifier_plantvillage_loss3/classifier_plantvillage_0_split
I0403 19:39:25.429436  9501 net.cpp:91] Creating Layer loss3/classifier_plantvillage_loss3/classifier_plantvillage_0_split
I0403 19:39:25.429452  9501 net.cpp:425] loss3/classifier_plantvillage_loss3/classifier_plantvillage_0_split <- loss3/classifier_plantvillage
I0403 19:39:25.429472  9501 net.cpp:399] loss3/classifier_plantvillage_loss3/classifier_plantvillage_0_split -> loss3/classifier_plantvillage_loss3/classifier_plantvillage_0_split_0
I0403 19:39:25.429494  9501 net.cpp:399] loss3/classifier_plantvillage_loss3/classifier_plantvillage_0_split -> loss3/classifier_plantvillage_loss3/classifier_plantvillage_0_split_1
I0403 19:39:25.429514  9501 net.cpp:399] loss3/classifier_plantvillage_loss3/classifier_plantvillage_0_split -> loss3/classifier_plantvillage_loss3/classifier_plantvillage_0_split_2
I0403 19:39:25.429534  9501 net.cpp:399] loss3/classifier_plantvillage_loss3/classifier_plantvillage_0_split -> loss3/classifier_plantvillage_loss3/classifier_plantvillage_0_split_3
I0403 19:39:25.429636  9501 net.cpp:141] Setting up loss3/classifier_plantvillage_loss3/classifier_plantvillage_0_split
I0403 19:39:25.429659  9501 net.cpp:148] Top shape: 24 38 (912)
I0403 19:39:25.429675  9501 net.cpp:148] Top shape: 24 38 (912)
I0403 19:39:25.429692  9501 net.cpp:148] Top shape: 24 38 (912)
I0403 19:39:25.429707  9501 net.cpp:148] Top shape: 24 38 (912)
I0403 19:39:25.429719  9501 net.cpp:156] Memory required for data: 1346079072
I0403 19:39:25.429733  9501 layer_factory.hpp:77] Creating layer loss1/loss
I0403 19:39:25.429755  9501 net.cpp:91] Creating Layer loss1/loss
I0403 19:39:25.429772  9501 net.cpp:425] loss1/loss <- loss1/classifier_plantvillage_loss1/classifier_plantvillage_0_split_0
I0403 19:39:25.429803  9501 net.cpp:425] loss1/loss <- label_data_1_split_0
…
