…
I0403 19:46:31.835609  9656 net.cpp:313] The NetState phase (1) differed from the phase (0) specified by a rule in layer data
I0403 19:46:31.836810  9656 net.cpp:49] Initializing net from parameters: 
state {
  phase: TEST
}
layer {
  name: "data"
  type: "Data"
  top: "data"
  top: "label"
  include {
    phase: TEST
  }
  transform_param {
    mirror: false
    crop_size: 224
    mean_file: "/home/mohanty/data/final_dataset/lmdb/color-50-50/mean.binaryproto"
  }
  data_param {
    source: "/home/mohanty/data/final_dataset/lmdb/color-50-50/test_db"
    batch_size: 24
    backend: LMDB
  }
}
layer {
  name: "conv1/7x7_s2"
  type: "Convolution"
  bottom: "data"
  top: "conv1/7x7_s2"
  param {
    lr_mult: 1
    decay_mult: 1
  }
  param {
    lr_mult: 2
    decay_mult: 0
  }
  convolution_param {
    num_output: 64
    pad: 3
    kernel_size: 7
    stride: 2
    weight_filler {
      type: "xavier"
      std: 0.1
    }
    bias_filler {
      type: "constant"
      value: 0.2
    }
  }
}
layer {
  name: "conv1/relu_7x7"
  type: "ReLU"
  bottom: "conv1/7x7_s2"
  top: "conv1/7x7_s2"
}
layer {
  name: "pool1/3x3_s2"
  type: "Pooling"
  bottom: "conv1/7x7_s2"
  top: "pool1/3x3_s2"
  pooling_param {
    pool: MAX
    kernel_size: 3
    stride: 2
  }
}
layer {
  name: "pool1/norm1"
  type: "LRN"
  bottom: "pool1/3x3_s2"
  top: "pool1/norm1"
  lrn_param {
    local_size: 5
    alpha: 0.0001
    beta: 0.75
  }
}
layer {
  name: "conv2/3x3_reduce"
  type: "Convolution"
  bottom: "pool1/norm1"
  top: "conv2/3x3_reduce"
  param {
    lr_mult: 1
    decay_mult: 1
  }
  param {
    lr_mult: 2
    decay_mult: 0
  }
  convolution_param {
    num_output: 64
    kernel_size: 1
    weight_filler {
      type: "xavier"
      std: 0.1
    }
    bias_filler {
      type: "constant"
      value: 0.2
    }
  }
}
layer {
  name: "conv2/relu_3x3_reduce"
  type: "ReLU"
  bottom: "conv2/3x3_reduce"
  top: "conv2/3x3_reduce"
}
layer {
  name: "conv2/3x3"
  type: "Convolution"
  bottom: "conv2/3x3_reduce"
  top: "conv2/3x3"
  param {
    lr_mult: 1
    decay_mult: 1
  }
  param {
    lr_mult: 2
    decay_mult: 0
  }
  convolution_param {
    num_output: 192
    pad: 1
    kernel_size: 3
    weight_filler {
      type: "xavier"
      std: 0.03
    }
    bias_filler {
      type: "constant"
      value: 0.2
    }
  }
}
layer {
  name: "conv2/relu_3x3"
  type: "ReLU"
  bottom: "conv2/3x3"
  top: "conv2/3x3"
}
layer {
  name: "conv2/norm2"
  type: "LRN"
  bottom: "conv2/3x3"
  top: "conv2/norm2"
  lrn_param {
    local_size: 5
    alpha: 0.0001
    beta: 0.75
  }
}
layer {
  name: "pool2/3x3_s2"
  type: "Pooling"
  bottom: "conv2/norm2"
  top: "pool2/3x3_s2"
  pooling_param {
    pool: MAX
    kernel_size: 3
    stride: 2
  }
}
layer {
  name: "inception_3a/1x1"
  type: "Convolution"
  bottom: "pool2/3x3_s2"
  top: "inception_3a/1x1"
  param {
    lr_mult: 1
    decay_mult: 1
  }
  param {
    lr_mult: 2
    decay_mult: 0
  }
  convolution_param {
    num_output: 64
    kernel_size: 1
    weight_filler {
      type: "xavier"
      std: 0.03
    }
    bias_filler {
      type: "constant"
      value: 0.2
    }
  }
}
layer {
  name: "inception_3a/relu_1x1"
  type: "ReLU"
  bottom: "inception_3a/1x1"
  top: "inception_3a/1x1"
}
layer {
  name: "inception_3a/3x3_reduce"
  type: "Convolution"
  bottom: "pool2/3x3_s2"
  top: "inception_3a/3x3_reduce"
  param {
    lr_mult: 1
    decay_mult: 1
  }
  param {
    lr_mult: 2
    decay_mult: 0
  }
  convolution_param {
    num_output: 96
    kernel_size: 1
    weight_filler {
      type: "xavier"
      std: 0.09
    }
    bias_filler {
      type: "constant"
      value: 0.2
    }
  }
}
layer {
  name: "inception_3a/relu_3x3_reduce"
  type: "ReLU"
  bottom: "inception_3a/3x3_reduce"
  top: "inception_3a/3x3_reduce"
}
layer {
  name: "inception_3a/3x3"
  type: "Convolution"
  bottom: "inception_3a/3x3_reduce"
  top: "inception_3a/3x3"
  param {
    lr_mult: 1
    decay_mult: 1
  }
  param {
    lr_mult: 2
    decay_mult: 0
  }
  convolution_param {
    num_output: 128
    pad: 1
    kernel_size: 3
    weight_filler {
      type: "xavier"
      std: 0.03
    }
    bias_filler {
      type: "constant"
      value: 0.2
    }
  }
}
layer {
  name: "inception_3a/relu_3x3"
  type: "ReLU"
  bottom: "inception_3a/3x3"
  top: "inception_3a/3x3"
}
layer {
  name: "inception_3a/5x5_reduce"
  type: "Convolution"
  bottom: "pool2/3x3_s2"
  top: "inception_3a/5x5_reduce"
  param {
    lr_mult: 1
    decay_mult: 1
  }
  param {
    lr_mult: 2
    decay_mult: 0
  }
  convolution_param {
    num_output: 16
    kernel_size: 1
    weight_filler {
      type: "xavier"
      std: 0.2
    }
    bias_filler {
      type: "constant"
      value: 0.2
    }
  }
}
layer {
  name: "inception_3a/relu_5x5_reduce"
  type: "ReLU"
  bottom: "inception_3a/5x5_reduce"
  top: "inception_3a/5x5_reduce"
}
layer {
  name: "inception_3a/5x5"
  type: "Convolution"
  bottom: "inception_3a/5x5_reduce"
  top: "inception_3a/5x5"
  param {
    lr_mult: 1
    decay_mult: 1
  }
  param {
    lr_mult: 2
    decay_mult: 0
  }
  convolution_param {
    num_output: 32
    pad: 2
    kernel_size: 5
    weight_filler {
      type: "xavier"
      std: 0.03
    }
    bias_filler {
      type: "constant"
      value: 0.2
    }
  }
}
layer {
  name: "inception_3a/relu_5x5"
  type: "ReLU"
  bottom: "inception_3a/5x5"
  top: "inception_3a/5x5"
}
layer {
  name: "inception_3a/pool"
  type: "Pooling"
  bottom: "pool2/3x3_s2"
  top: "inception_3a/pool"
  pooling_param {
    pool: MAX
    kernel_size: 3
    stride: 1
    pad: 1
  }
}
layer {
  name: "inception_3a/pool_proj"
  type: "Convolution"
  bottom: "inception_3a/pool"
  top: "inception_3a/pool_proj"
  param {
    lr_mult: 1
    decay_mult: 1
  }
  param {
    lr_mult: 2
    decay_mult: 0
  }
  convolution_param {
    num_output: 32
    kernel_size: 1
    weight_filler {
      type: "xavier"
      std: 0.1
    }
    bias_filler {
      type: "constant"
      value: 0.2
    }
  }
}
layer {
  name: "inception_3a/relu_pool_proj"
  type: "ReLU"
  bottom: "inception_3a/pool_proj"
  top: "inception_3a/pool_proj"
}
layer {
  name: "inception_3a/output"
  type: "Concat"
  bottom: "inception_3a/1x1"
  bottom: "inception_3a/3x3"
  bottom: "inception_3a/5x5"
  bottom: "inception_3a/pool_proj"
  top: "inception_3a/output"
}
layer {
  name: "inception_3b/1x1"
  type: "Convolution"
  bottom: "inception_3a/output"
  top: "inception_3b/1x1"
  param {
    lr_mult: 1
    decay_mult: 1
  }
  param {
    lr_mult: 2
    decay_mult: 0
  }
  convolution_param {
    num_output: 128
    kernel_size: 1
    weight_filler {
      type: "xavier"
      std: 0.03
    }
    bias_filler {
      type: "constant"
      value: 0.2
    }
  }
}
layer {
  name: "inception_3b/relu_1x1"
  type: "ReLU"
  bottom: "inception_3b/1x1"
  top: "inception_3b/1x1"
}
layer {
  name: "inception_3b/3x3_reduce"
  type: "Convolution"
  bottom: "inception_3a/output"
  top: "inception_3b/3x3_reduce"
  param {
    lr_mult: 1
    decay_mult: 1
  }
  param {
    lr_mult: 2
    decay_mult: 0
  }
  convolution_param {
    num_output: 128
    kernel_size: 1
    weight_filler {
      type: "xavier"
      std: 0.09
    }
    bias_filler {
      type: "constant"
      value: 0.2
    }
  }
}
layer {
  name: "inception_3b/relu_3x3_reduce"
  type: "ReLU"
  bottom: "inception_3b/3x3_reduce"
  top: "inception_3b/3x3_reduce"
}
layer {
  name: "inception_3b/3x3"
  type: "Convolution"
  bottom: "inception_3b/3x3_reduce"
  top: "inception_3b/3x3"
  param {
    lr_mult: 1
    decay_mult: 1
  }
  param {
    lr_mult: 2
    decay_mult: 0
  }
  convolution_param {
    num_output: 192
    pad: 1
    kernel_size: 3
    weight_filler {
      type: "xavier"
      std: 0.03
    }
    bias_filler {
      type: "constant"
      value: 0.2
    }
  }
}
layer {
  name: "inception_3b/relu_3x3"
  type: "ReLU"
  bottom: "inception_3b/3x3"
  top: "inception_3b/3x3"
}
layer {
  name: "inception_3b/5x5_reduce"
  type: "Convolution"
  bottom: "inception_3a/output"
  top: "inception_3b/5x5_reduce"
  param {
    lr_mult: 1
    decay_mult: 1
  }
  param {
    lr_mult: 2
    decay_mult: 0
  }
  convolution_param {
    num_output: 32
    kernel_size: 1
    weight_filler {
      type: "xavier"
      std: 0.2
    }
    bias_filler {
      type: "constant"
      value: 0.2
    }
  }
}
layer {
  name: "inception_3b/relu_5x5_reduce"
  type: "ReLU"
  bottom: "inception_3b/5x5_reduce"
  top: "inception_3b/5x5_reduce"
}
layer {
  name: "inception_3b/5x5"
  type: "Convolution"
  bottom: "inception_3b/5x5_reduce"
  top: "inception_3b/5x5"
  param {
    lr_mult: 1
    decay_mult: 1
  }
  param {
    lr_mult: 2
    decay_mult: 0
  }
  convolution_param {
    num_output: 96
    pad: 2
    kernel_size: 5
    weight_filler {
      type: "xavier"
      std: 0.03
    }
    bias_filler {
      type: "constant"
      value: 0.2
    }
  }
}
layer {
  name: "inception_3b/relu_5x5"
  type: "ReLU"
  bottom: "inception_3b/5x5"
  top: "inception_3b/5x5"
}
layer {
  name: "inception_3b/pool"
  type: "Pooling"
  bottom: "inception_3a/output"
  top: "inception_3b/pool"
  pooling_param {
    pool: MAX
    kernel_size: 3
    stride: 1
    pad: 1
  }
}
layer {
  name: "inception_3b/pool_proj"
  type: "Convolution"
  bottom: "inception_3b/pool"
  top: "inception_3b/pool_proj"
  param {
    lr_mult: 1
    decay_mult: 1
  }
  param {
    lr_mult: 2
    decay_mult: 0
  }
  convolution_param {
    num_output: 64
    kernel_size: 1
    weight_filler {
      type: "xavier"
      std: 0.1
    }
    bias_filler {
      type: "constant"
      value: 0.2
    }
  }
}
layer {
  name: "inception_3b/relu_pool_proj"
  type: "ReLU"
  bottom: "inception_3b/pool_proj"
  top: "inception_3b/pool_proj"
}
layer {
  name: "inception_3b/output"
  type: "Concat"
  bottom: "inception_3b/1x1"
  bottom: "inception_3b/3x3"
  bottom: "inception_3b/5x5"
  bottom: "inception_3b/pool_proj"
  top: "inception_3b/output"
}
layer {
  name: "pool3/3x3_s2"
  type: "Pooling"
  bottom: "inception_3b/output"
  top: "pool3/3x3_s2"
  pooling_param {
    pool: MAX
    kernel_size: 3
    stride: 2
  }
}
layer {
  name: "inception_4a/1x1"
  type: "Convolution"
  bottom: "pool3/3x3_s2"
  top: "inception_4a/1x1"
  param {
    lr_mult: 1
    decay_mult: 1
  }
  param {
    lr_mult: 2
    decay_mult: 0
  }
  convolution_param {
    num_output: 192
    kernel_size: 1
    weight_filler {
      type: "xavier"
      std: 0.03
    }
    bias_filler {
      type: "constant"
      value: 0.2
    }
  }
}
layer {
  name: "inception_4a/relu_1x1"
  type: "ReLU"
  bottom: "inception_4a/1x1"
  top: "inception_4a/1x1"
}
layer {
  name: "inception_4a/3x3_reduce"
  type: "Convolution"
  bottom: "pool3/3x3_s2"
  top: "inception_4a/3x3_reduce"
  param {
    lr_mult: 1
    decay_mult: 1
  }
  param {
    lr_mult: 2
    decay_mult: 0
  }
  convolution_param {
    num_output: 96
    kernel_size: 1
    weight_filler {
      type: "xavier"
      std: 0.09
    }
    bias_filler {
      type: "constant"
      value: 0.2
    }
  }
}
layer {
  name: "inception_4a/relu_3x3_reduce"
  type: "ReLU"
  bottom: "inception_4a/3x3_reduce"
  top: "inception_4a/3x3_reduce"
}
layer {
  name: "inception_4a/3x3"
  type: "Convolution"
  bottom: "inception_4a/3x3_reduce"
  top: "inception_4a/3x3"
  param {
    lr_mult: 1
    decay_mult: 1
  }
  param {
    lr_mult: 2
    decay_mult: 0
  }
  convolution_param {
    num_output: 208
    pad: 1
    kernel_size: 3
    weight_filler {
      type: "xavier"
      std: 0.03
    }
    bias_filler {
      type: "constant"
      value: 0.2
    }
  }
}
layer {
  name: "inception_4a/relu_3x3"
  type: "ReLU"
  bottom: "inception_4a/3x3"
  top: "inception_4a/3x3"
}
layer {
  name: "inception_4a/5x5_reduce"
  type: "Convolution"
  bottom: "pool3/3x3_s2"
  top: "inception_4a/5x5_reduce"
  param {
    lr_mult: 1
    decay_mult: 1
  }
  param {
    lr_mult: 2
    decay_mult: 0
  }
  convolution_param {
    num_output: 16
    kernel_size: 1
    weight_filler {
      type: "xavier"
      std: 0.2
    }
    bias_filler {
      type: "constant"
      value: 0.2
    }
  }
}
layer {
  name: "inception_4a/relu_5x5_reduce"
  type: "ReLU"
  bottom: "inception_4a/5x5_reduce"
  top: "inception_4a/5x5_reduce"
}
layer {
  name: "inception_4a/5x5"
  type: "Convolution"
  bottom: "inception_4a/5x5_reduce"
  top: "inception_4a/5x5"
  param {
    lr_mult: 1
    decay_mult: 1
  }
  param {
    lr_mult: 2
    decay_mult: 0
  }
  convolution_param {
    num_output: 48
    pad: 2
    kernel_size: 5
    weight_filler {
      type: "xavier"
      std: 0.03
    }
    bias_filler {
      type: "constant"
      value: 0.2
    }
  }
}
layer {
  name: "inception_4a/relu_5x5"
  type: "ReLU"
  bottom: "inception_4a/5x5"
  top: "inception_4a/5x5"
}
layer {
  name: "inception_4a/pool"
  type: "Pooling"
  bottom: "pool3/3x3_s2"
  top: "inception_4a/pool"
  pooling_param {
    pool: MAX
    kernel_size: 3
    stride: 1
    pad: 1
  }
}
layer {
  name: "inception_4a/pool_proj"
  type: "Convolution"
  bottom: "inception_4a/pool"
  top: "inception_4a/pool_proj"
  param {
    lr_mult: 1
    decay_mult: 1
  }
  param {
    lr_mult: 2
    decay_mult: 0
  }
  convolution_param {
    num_output: 64
    kernel_size: 1
    weight_filler {
      type: "xavier"
      std: 0.1
    }
    bias_filler {
      type: "constant"
      value: 0.2
    }
  }
}
layer {
  name: "inception_4a/relu_pool_proj"
  type: "ReLU"
  bottom: "inception_4a/pool_proj"
  top: "inception_4a/pool_proj"
}
layer {
  name: "inception_4a/output"
  type: "Concat"
  bottom: "inception_4a/1x1"
  bottom: "inception_4a/3x3"
  bottom: "inception_4a/5x5"
  bottom: "inception_4a/pool_proj"
  top: "inception_4a/output"
}
layer {
  name: "loss1/ave_pool"
  type: "Pooling"
  bottom: "inception_4a/output"
  top: "loss1/ave_pool"
  pooling_param {
    pool: AVE
    kernel_size: 5
    stride: 3
  }
}
layer {
  name: "loss1/conv"
  type: "Convolution"
  bottom: "loss1/ave_pool"
  top: "loss1/conv"
  param {
    lr_mult: 1
    decay_mult: 1
  }
  param {
    lr_mult: 2
    decay_mult: 0
  }
  convolution_param {
    num_output: 128
    kernel_size: 1
    weight_filler {
      type: "xavier"
      std: 0.08
    }
    bias_filler {
      type: "constant"
      value: 0.2
    }
  }
}
layer {
  name: "loss1/relu_conv"
  type: "ReLU"
  bottom: "loss1/conv"
  top: "loss1/conv"
}
layer {
  name: "loss1/fc"
  type: "InnerProduct"
  bottom: "loss1/conv"
  top: "loss1/fc"
  param {
    lr_mult: 1
    decay_mult: 1
  }
  param {
    lr_mult: 2
    decay_mult: 0
  }
  inner_product_param {
    num_output: 1024
    weight_filler {
      type: "xavier"
      std: 0.02
    }
    bias_filler {
      type: "constant"
      value: 0.2
    }
  }
}
layer {
  name: "loss1/relu_fc"
  type: "ReLU"
  bottom: "loss1/fc"
  top: "loss1/fc"
}
layer {
  name: "loss1/drop_fc"
  type: "Dropout"
  bottom: "loss1/fc"
  top: "loss1/fc"
  dropout_param {
    dropout_ratio: 0.7
  }
}
layer {
  name: "loss1/classifier_plantvillage"
  type: "InnerProduct"
  bottom: "loss1/fc"
  top: "loss1/classifier_plantvillage"
  param {
    lr_mult: 1
    decay_mult: 1
  }
  param {
    lr_mult: 2
    decay_mult: 0
  }
  inner_product_param {
    num_output: 38
    weight_filler {
      type: "xavier"
      std: 0.0009765625
    }
    bias_filler {
      type: "constant"
      value: 0
    }
  }
}
layer {
  name: "inception_4b/1x1"
  type: "Convolution"
  bottom: "inception_4a/output"
  top: "inception_4b/1x1"
  param {
    lr_mult: 1
    decay_mult: 1
  }
  param {
    lr_mult: 2
    decay_mult: 0
  }
  convolution_param {
    num_output: 160
    kernel_size: 1
    weight_filler {
      type: "xavier"
      std: 0.03
    }
    bias_filler {
      type: "constant"
      value: 0.2
    }
  }
}
layer {
  name: "inception_4b/relu_1x1"
  type: "ReLU"
  bottom: "inception_4b/1x1"
  top: "inception_4b/1x1"
}
layer {
  name: "inception_4b/3x3_reduce"
  type: "Convolution"
  bottom: "inception_4a/output"
  top: "inception_4b/3x3_reduce"
  param {
    lr_mult: 1
    decay_mult: 1
  }
  param {
    lr_mult: 2
    decay_mult: 0
  }
  convolution_param {
    num_output: 112
    kernel_size: 1
    weight_filler {
      type: "xavier"
      std: 0.09
    }
    bias_filler {
      type: "constant"
      value: 0.2
    }
  }
}
layer {
  name: "inception_4b/relu_3x3_reduce"
  type: "ReLU"
  bottom: "inception_4b/3x3_reduce"
  top: "inception_4b/3x3_reduce"
}
layer {
  name: "inception_4b/3x3"
  type: "Convolution"
  bottom: "inception_4b/3x3_reduce"
  top: "inception_4b/3x3"
  param {
    lr_mult: 1
    decay_mult: 1
  }
  param {
    lr_mult: 2
    decay_mult: 0
  }
  convolution_param {
    num_output: 224
    pad: 1
    kernel_size: 3
    weight_filler {
      type: "xavier"
      std: 0.03
    }
    bias_filler {
      type: "constant"
      value: 0.2
    }
  }
}
layer {
  name: "inception_4b/relu_3x3"
  type: "ReLU"
  bottom: "inception_4b/3x3"
  top: "inception_4b/3x3"
}
layer {
  name: "inception_4b/5x5_reduce"
  type: "Convolution"
  bottom: "inception_4a/output"
  top: "inception_4b/5x5_reduce"
  param {
    lr_mult: 1
    decay_mult: 1
  }
  param {
    lr_mult: 2
    decay_mult: 0
  }
  convolution_param {
    num_output: 24
    kernel_size: 1
    weight_filler {
      type: "xavier"
      std: 0.2
    }
    bias_filler {
      type: "constant"
      value: 0.2
    }
  }
}
layer {
  name: "inception_4b/relu_5x5_reduce"
  type: "ReLU"
  bottom: "inception_4b/5x5_reduce"
  top: "inception_4b/5x5_reduce"
}
layer {
  name: "inception_4b/5x5"
  type: "Convolution"
  bottom: "inception_4b/5x5_reduce"
  top: "inception_4b/5x5"
  param {
    lr_mult: 1
    decay_mult: 1
  }
  param {
    lr_mult: 2
    decay_mult: 0
  }
  convolution_param {
    num_output: 64
    pad: 2
    kernel_size: 5
    weight_filler {
      type: "xavier"
      std: 0.03
    }
    bias_filler {
      type: "constant"
      value: 0.2
    }
  }
}
layer {
  name: "inception_4b/relu_5x5"
  type: "ReLU"
  bottom: "inception_4b/5x5"
  top: "inception_4b/5x5"
}
layer {
  name: "inception_4b/pool"
  type: "Pooling"
  bottom: "inception_4a/output"
  top: "inception_4b/pool"
  pooling_param {
    pool: MAX
    kernel_size: 3
    stride: 1
    pad: 1
  }
}
layer {
  name: "inception_4b/pool_proj"
  type: "Convolution"
  bottom: "inception_4b/pool"
  top: "inception_4b/pool_proj"
  param {
    lr_mult: 1
    decay_mult: 1
  }
  param {
    lr_mult: 2
    decay_mult: 0
  }
  convolution_param {
    num_output: 64
    kernel_size: 1
    weight_filler {
      type: "xavier"
      std: 0.1
    }
    bias_filler {
      type: "constant"
      value: 0.2
    }
  }
}
layer {
  name: "inception_4b/relu_pool_proj"
  type: "ReLU"
  bottom: "inception_4b/pool_proj"
  top: "inception_4b/pool_proj"
}
layer {
  name: "inception_4b/output"
  type: "Concat"
  bottom: "inception_4b/1x1"
  bottom: "inception_4b/3x3"
  bottom: "inception_4b/5x5"
  bottom: "inception_4b/pool_proj"
  top: "inception_4b/output"
}
layer {
  name: "inception_4c/1x1"
  type: "Convolution"
  bottom: "inception_4b/output"
  top: "inception_4c/1x1"
  param {
    lr_mult: 1
    decay_mult: 1
  }
  param {
    lr_mult: 2
    decay_mult: 0
  }
  convolution_param {
    num_output: 128
    kernel_size: 1
    weight_filler {
      type: "xavier"
      std: 0.03
    }
    bias_filler {
      type: "constant"
      value: 0.2
    }
  }
}
layer {
  name: "inception_4c/relu_1x1"
  type: "ReLU"
  bottom: "inception_4c/1x1"
  top: "inception_4c/1x1"
}
layer {
  name: "inception_4c/3x3_reduce"
  type: "Convolution"
  bottom: "inception_4b/output"
  top: "inception_4c/3x3_reduce"
  param {
    lr_mult: 1
    decay_mult: 1
  }
  param {
    lr_mult: 2
    decay_mult: 0
  }
  convolution_param {
    num_output: 128
    kernel_size: 1
    weight_filler {
      type: "xavier"
      std: 0.09
    }
    bias_filler {
      type: "constant"
      value: 0.2
    }
  }
}
layer {
  name: "inception_4c/relu_3x3_reduce"
  type: "ReLU"
  bottom: "inception_4c/3x3_reduce"
  top: "inception_4c/3x3_reduce"
}
layer {
  name: "inception_4c/3x3"
  type: "Convolution"
  bottom: "inception_4c/3x3_reduce"
  top: "inception_4c/3x3"
  param {
    lr_mult: 1
    decay_mult: 1
  }
  param {
    lr_mult: 2
    decay_mult: 0
  }
  convolution_param {
    num_output: 256
    pad: 1
    kernel_size: 3
    weight_filler {
      type: "xavier"
      std: 0.03
    }
    bias_filler {
      type: "constant"
      value: 0.2
    }
  }
}
layer {
  name: "inception_4c/relu_3x3"
  type: "ReLU"
  bottom: "inception_4c/3x3"
  top: "inception_4c/3x3"
}
layer {
  name: "inception_4c/5x5_reduce"
  type: "Convolution"
  bottom: "inception_4b/output"
  top: "inception_4c/5x5_reduce"
  param {
    lr_mult: 1
    decay_mult: 1
  }
  param {
    lr_mult: 2
    decay_mult: 0
  }
  convolution_param {
    num_output: 24
    kernel_size: 1
    weight_filler {
      type: "xavier"
      std: 0.2
    }
    bias_filler {
      type: "constant"
      value: 0.2
    }
  }
}
layer {
  name: "inception_4c/relu_5x5_reduce"
  type: "ReLU"
  bottom: "inception_4c/5x5_reduce"
  top: "inception_4c/5x5_reduce"
}
layer {
  name: "inception_4c/5x5"
  type: "Convolution"
  bottom: "inception_4c/5x5_reduce"
  top: "inception_4c/5x5"
  param {
    lr_mult: 1
    decay_mult: 1
  }
  param {
    lr_mult: 2
    decay_mult: 0
  }
  convolution_param {
    num_output: 64
    pad: 2
    kernel_size: 5
    weight_filler {
      type: "xavier"
      std: 0.03
    }
    bias_filler {
      type: "constant"
      value: 0.2
    }
  }
}
layer {
  name: "inception_4c/relu_5x5"
  type: "ReLU"
  bottom: "inception_4c/5x5"
  top: "inception_4c/5x5"
}
layer {
  name: "inception_4c/pool"
  type: "Pooling"
  bottom: "inception_4b/output"
  top: "inception_4c/pool"
  pooling_param {
    pool: MAX
    kernel_size: 3
    stride: 1
    pad: 1
  }
}
layer {
  name: "inception_4c/pool_proj"
  type: "Convolution"
  bottom: "inception_4c/pool"
  top: "inception_4c/pool_proj"
  param {
    lr_mult: 1
    decay_mult: 1
  }
  param {
    lr_mult: 2
    decay_mult: 0
  }
  convolution_param {
    num_output: 64
    kernel_size: 1
    weight_filler {
      type: "xavier"
      std: 0.1
    }
    bias_filler {
      type: "constant"
      value: 0.2
    }
  }
}
layer {
  name: "inception_4c/relu_pool_proj"
  type: "ReLU"
  bottom: "inception_4c/pool_proj"
  top: "inception_4c/pool_proj"
}
layer {
  name: "inception_4c/output"
  type: "Concat"
  bottom: "inception_4c/1x1"
  bottom: "inception_4c/3x3"
  bottom: "inception_4c/5x5"
  bottom: "inception_4c/pool_proj"
  top: "inception_4c/output"
}
layer {
  name: "inception_4d/1x1"
  type: "Convolution"
  bottom: "inception_4c/output"
  top: "inception_4d/1x1"
  param {
    lr_mult: 1
    decay_mult: 1
  }
  param {
    lr_mult: 2
    decay_mult: 0
  }
  convolution_param {
    num_output: 112
    kernel_size: 1
    weight_filler {
      type: "xavier"
      std: 0.03
    }
    bias_filler {
      type: "constant"
      value: 0.2
    }
  }
}
layer {
  name: "inception_4d/relu_1x1"
  type: "ReLU"
  bottom: "inception_4d/1x1"
  top: "inception_4d/1x1"
}
layer {
  name: "inception_4d/3x3_reduce"
  type: "Convolution"
  bottom: "inception_4c/output"
  top: "inception_4d/3x3_reduce"
  param {
    lr_mult: 1
    decay_mult: 1
  }
  param {
    lr_mult: 2
    decay_mult: 0
  }
  convolution_param {
    num_output: 144
    kernel_size: 1
    weight_filler {
      type: "xavier"
      std: 0.09
    }
    bias_filler {
      type: "constant"
      value: 0.2
    }
  }
}
layer {
  name: "inception_4d/relu_3x3_reduce"
  type: "ReLU"
  bottom: "inception_4d/3x3_reduce"
  top: "inception_4d/3x3_reduce"
}
layer {
  name: "inception_4d/3x3"
  type: "Convolution"
  bottom: "inception_4d/3x3_reduce"
  top: "inception_4d/3x3"
  param {
    lr_mult: 1
    decay_mult: 1
  }
  param {
    lr_mult: 2
    decay_mult: 0
  }
  convolution_param {
    num_output: 288
    pad: 1
    kernel_size: 3
    weight_filler {
      type: "xavier"
      std: 0.03
    }
    bias_filler {
      type: "constant"
      value: 0.2
    }
  }
}
layer {
  name: "inception_4d/relu_3x3"
  type: "ReLU"
  bottom: "inception_4d/3x3"
  top: "inception_4d/3x3"
}
layer {
  name: "inception_4d/5x5_reduce"
  type: "Convolution"
  bottom: "inception_4c/output"
  top: "inception_4d/5x5_reduce"
  param {
    lr_mult: 1
    decay_mult: 1
  }
  param {
    lr_mult: 2
    decay_mult: 0
  }
  convolution_param {
    num_output: 32
    kernel_size: 1
    weight_filler {
      type: "xavier"
      std: 0.2
    }
    bias_filler {
      type: "constant"
      value: 0.2
    }
  }
}
layer {
  name: "inception_4d/relu_5x5_reduce"
  type: "ReLU"
  bottom: "inception_4d/5x5_reduce"
  top: "inception_4d/5x5_reduce"
}
layer {
  name: "inception_4d/5x5"
  type: "Convolution"
  bottom: "inception_4d/5x5_reduce"
  top: "inception_4d/5x5"
  param {
    lr_mult: 1
    decay_mult: 1
  }
  param {
    lr_mult: 2
    decay_mult: 0
  }
  convolution_param {
    num_output: 64
    pad: 2
    kernel_size: 5
    weight_filler {
      type: "xavier"
      std: 0.03
    }
    bias_filler {
      type: "constant"
      value: 0.2
    }
  }
}
layer {
  name: "inception_4d/relu_5x5"
  type: "ReLU"
  bottom: "inception_4d/5x5"
  top: "inception_4d/5x5"
}
layer {
  name: "inception_4d/pool"
  type: "Pooling"
  bottom: "inception_4c/output"
  top: "inception_4d/pool"
  pooling_param {
    pool: MAX
    kernel_size: 3
    stride: 1
    pad: 1
  }
}
layer {
  name: "inception_4d/pool_proj"
  type: "Convolution"
  bottom: "inception_4d/pool"
  top: "inception_4d/pool_proj"
  param {
    lr_mult: 1
    decay_mult: 1
  }
  param {
    lr_mult: 2
    decay_mult: 0
  }
  convolution_param {
    num_output: 64
    kernel_size: 1
    weight_filler {
      type: "xavier"
      std: 0.1
    }
    bias_filler {
      type: "constant"
      value: 0.2
    }
  }
}
layer {
  name: "inception_4d/relu_pool_proj"
  type: "ReLU"
  bottom: "inception_4d/pool_proj"
  top: "inception_4d/pool_proj"
}
layer {
  name: "inception_4d/output"
  type: "Concat"
  bottom: "inception_4d/1x1"
  bottom: "inception_4d/3x3"
  bottom: "inception_4d/5x5"
  bottom: "inception_4d/pool_proj"
  top: "inception_4d/output"
}
layer {
  name: "loss2/ave_pool"
  type: "Pooling"
  bottom: "inception_4d/output"
  top: "loss2/ave_pool"
  pooling_param {
    pool: AVE
    kernel_size: 5
    stride: 3
  }
}
layer {
  name: "loss2/conv"
  type: "Convolution"
  bottom: "loss2/ave_pool"
  top: "loss2/conv"
  param {
    lr_mult: 1
    decay_mult: 1
  }
  param {
    lr_mult: 2
    decay_mult: 0
  }
  convolution_param {
    num_output: 128
    kernel_size: 1
    weight_filler {
      type: "xavier"
      std: 0.08
    }
    bias_filler {
      type: "constant"
      value: 0.2
    }
  }
}
layer {
  name: "loss2/relu_conv"
  type: "ReLU"
  bottom: "loss2/conv"
  top: "loss2/conv"
}
layer {
  name: "loss2/fc"
  type: "InnerProduct"
  bottom: "loss2/conv"
  top: "loss2/fc"
  param {
    lr_mult: 1
    decay_mult: 1
  }
  param {
    lr_mult: 2
    decay_mult: 0
  }
  inner_product_param {
    num_output: 1024
    weight_filler {
      type: "xavier"
      std: 0.02
    }
    bias_filler {
      type: "constant"
      value: 0.2
    }
  }
}
layer {
  name: "loss2/relu_fc"
  type: "ReLU"
  bottom: "loss2/fc"
  top: "loss2/fc"
}
layer {
  name: "loss2/drop_fc"
  type: "Dropout"
  bottom: "loss2/fc"
  top: "loss2/fc"
  dropout_param {
    dropout_ratio: 0.7
  }
}
layer {
  name: "loss2/classifier_plantvillage"
  type: "InnerProduct"
  bottom: "loss2/fc"
  top: "loss2/classifier_plantvillage"
  param {
    lr_mult: 1
    decay_mult: 1
  }
  param {
    lr_mult: 2
    decay_mult: 0
  }
  inner_product_param {
    num_output: 38
    weight_filler {
      type: "xavier"
      std: 0.0009765625
    }
    bias_filler {
      type: "constant"
      value: 0
    }
  }
}
layer {
  name: "inception_4e/1x1"
  type: "Convolution"
  bottom: "inception_4d/output"
  top: "inception_4e/1x1"
  param {
    lr_mult: 1
    decay_mult: 1
  }
  param {
    lr_mult: 2
    decay_mult: 0
  }
  convolution_param {
    num_output: 256
    kernel_size: 1
    weight_filler {
      type: "xavier"
      std: 0.03
    }
    bias_filler {
      type: "constant"
      value: 0.2
    }
  }
}
layer {
  name: "inception_4e/relu_1x1"
  type: "ReLU"
  bottom: "inception_4e/1x1"
  top: "inception_4e/1x1"
}
layer {
  name: "inception_4e/3x3_reduce"
  type: "Convolution"
  bottom: "inception_4d/output"
  top: "inception_4e/3x3_reduce"
  param {
    lr_mult: 1
    decay_mult: 1
  }
  param {
    lr_mult: 2
    decay_mult: 0
  }
  convolution_param {
    num_output: 160
    kernel_size: 1
    weight_filler {
      type: "xavier"
      std: 0.09
    }
    bias_filler {
      type: "constant"
      value: 0.2
    }
  }
}
layer {
  name: "inception_4e/relu_3x3_reduce"
  type: "ReLU"
  bottom: "inception_4e/3x3_reduce"
  top: "inception_4e/3x3_reduce"
}
layer {
  name: "inception_4e/3x3"
  type: "Convolution"
  bottom: "inception_4e/3x3_reduce"
  top: "inception_4e/3x3"
  param {
    lr_mult: 1
    decay_mult: 1
  }
  param {
    lr_mult: 2
    decay_mult: 0
  }
  convolution_param {
    num_output: 320
    pad: 1
    kernel_size: 3
    weight_filler {
      type: "xavier"
      std: 0.03
    }
    bias_filler {
      type: "constant"
      value: 0.2
    }
  }
}
layer {
  name: "inception_4e/relu_3x3"
  type: "ReLU"
  bottom: "inception_4e/3x3"
  top: "inception_4e/3x3"
}
layer {
  name: "inception_4e/5x5_reduce"
  type: "Convolution"
  bottom: "inception_4d/output"
  top: "inception_4e/5x5_reduce"
  param {
    lr_mult: 1
    decay_mult: 1
  }
  param {
    lr_mult: 2
    decay_mult: 0
  }
  convolution_param {
    num_output: 32
    kernel_size: 1
    weight_filler {
      type: "xavier"
      std: 0.2
    }
    bias_filler {
      type: "constant"
      value: 0.2
    }
  }
}
layer {
  name: "inception_4e/relu_5x5_reduce"
  type: "ReLU"
  bottom: "inception_4e/5x5_reduce"
  top: "inception_4e/5x5_reduce"
}
layer {
  name: "inception_4e/5x5"
  type: "Convolution"
  bottom: "inception_4e/5x5_reduce"
  top: "inception_4e/5x5"
  p
I0403 19:46:31.838471  9656 layer_factory.hpp:77] Creating layer data
I0403 19:46:31.839087  9656 net.cpp:91] Creating Layer data
I0403 19:46:31.839118  9656 net.cpp:399] data -> data
I0403 19:46:31.839165  9656 net.cpp:399] data -> label
I0403 19:46:31.839203  9656 data_transformer.cpp:25] Loading mean file from: /home/mohanty/data/final_dataset/lmdb/color-50-50/mean.binaryproto
I0403 19:46:31.840281  9661 db_lmdb.cpp:38] Opened lmdb /home/mohanty/data/final_dataset/lmdb/color-50-50/test_db
I0403 19:46:31.852854  9656 data_layer.cpp:41] output data size: 24,3,224,224
I0403 19:46:31.880787  9656 net.cpp:141] Setting up data
I0403 19:46:31.880867  9656 net.cpp:148] Top shape: 24 3 224 224 (3612672)
I0403 19:46:31.880890  9656 net.cpp:148] Top shape: 24 (24)
I0403 19:46:31.880905  9656 net.cpp:156] Memory required for data: 14450784
I0403 19:46:31.880934  9656 layer_factory.hpp:77] Creating layer label_data_1_split
I0403 19:46:31.880960  9656 net.cpp:91] Creating Layer label_data_1_split
I0403 19:46:31.880980  9656 net.cpp:425] label_data_1_split <- label
I0403 19:46:31.881011  9656 net.cpp:399] label_data_1_split -> label_data_1_split_0
I0403 19:46:31.881039  9656 net.cpp:399] label_data_1_split -> label_data_1_split_1
I0403 19:46:31.881060  9656 net.cpp:399] label_data_1_split -> label_data_1_split_2
I0403 19:46:31.881081  9656 net.cpp:399] label_data_1_split -> label_data_1_split_3
I0403 19:46:31.881101  9656 net.cpp:399] label_data_1_split -> label_data_1_split_4
I0403 19:46:31.881122  9656 net.cpp:399] label_data_1_split -> label_data_1_split_5
I0403 19:46:31.881145  9656 net.cpp:399] label_data_1_split -> label_data_1_split_6
I0403 19:46:31.881167  9656 net.cpp:399] label_data_1_split -> label_data_1_split_7
I0403 19:46:31.881187  9656 net.cpp:399] label_data_1_split -> label_data_1_split_8
I0403 19:46:31.881206  9656 net.cpp:399] label_data_1_split -> label_data_1_split_9
I0403 19:46:31.881333  9656 net.cpp:141] Setting up label_data_1_split
I0403 19:46:31.881358  9656 net.cpp:148] Top shape: 24 (24)
I0403 19:46:31.881376  9656 net.cpp:148] Top shape: 24 (24)
I0403 19:46:31.881392  9656 net.cpp:148] Top shape: 24 (24)
I0403 19:46:31.881409  9656 net.cpp:148] Top shape: 24 (24)
I0403 19:46:31.881425  9656 net.cpp:148] Top shape: 24 (24)
I0403 19:46:31.881441  9656 net.cpp:148] Top shape: 24 (24)
I0403 19:46:31.881458  9656 net.cpp:148] Top shape: 24 (24)
I0403 19:46:31.881474  9656 net.cpp:148] Top shape: 24 (24)
I0403 19:46:31.881489  9656 net.cpp:148] Top shape: 24 (24)
I0403 19:46:31.881506  9656 net.cpp:148] Top shape: 24 (24)
I0403 19:46:31.881551  9656 net.cpp:156] Memory required for data: 14451744
I0403 19:46:31.881567  9656 layer_factory.hpp:77] Creating layer conv1/7x7_s2
I0403 19:46:31.881599  9656 net.cpp:91] Creating Layer conv1/7x7_s2
I0403 19:46:31.881618  9656 net.cpp:425] conv1/7x7_s2 <- data
I0403 19:46:31.881638  9656 net.cpp:399] conv1/7x7_s2 -> conv1/7x7_s2
I0403 19:46:34.111394  9656 net.cpp:141] Setting up conv1/7x7_s2
I0403 19:46:34.111485  9656 net.cpp:148] Top shape: 24 64 112 112 (19267584)
I0403 19:46:34.111501  9656 net.cpp:156] Memory required for data: 91522080
I0403 19:46:34.111531  9656 layer_factory.hpp:77] Creating layer conv1/relu_7x7
I0403 19:46:34.111557  9656 net.cpp:91] Creating Layer conv1/relu_7x7
I0403 19:46:34.111575  9656 net.cpp:425] conv1/relu_7x7 <- conv1/7x7_s2
I0403 19:46:34.111593  9656 net.cpp:386] conv1/relu_7x7 -> conv1/7x7_s2 (in-place)
I0403 19:46:34.111848  9656 net.cpp:141] Setting up conv1/relu_7x7
I0403 19:46:34.111874  9656 net.cpp:148] Top shape: 24 64 112 112 (19267584)
I0403 19:46:34.111891  9656 net.cpp:156] Memory required for data: 168592416
I0403 19:46:34.111904  9656 layer_factory.hpp:77] Creating layer pool1/3x3_s2
I0403 19:46:34.111928  9656 net.cpp:91] Creating Layer pool1/3x3_s2
I0403 19:46:34.111945  9656 net.cpp:425] pool1/3x3_s2 <- conv1/7x7_s2
I0403 19:46:34.111963  9656 net.cpp:399] pool1/3x3_s2 -> pool1/3x3_s2
I0403 19:46:34.112031  9656 net.cpp:141] Setting up pool1/3x3_s2
I0403 19:46:34.112054  9656 net.cpp:148] Top shape: 24 64 56 56 (4816896)
I0403 19:46:34.112069  9656 net.cpp:156] Memory required for data: 187860000
I0403 19:46:34.112083  9656 layer_factory.hpp:77] Creating layer pool1/norm1
I0403 19:46:34.112105  9656 net.cpp:91] Creating Layer pool1/norm1
I0403 19:46:34.112123  9656 net.cpp:425] pool1/norm1 <- pool1/3x3_s2
I0403 19:46:34.112139  9656 net.cpp:399] pool1/norm1 -> pool1/norm1
I0403 19:46:34.112431  9656 net.cpp:141] Setting up pool1/norm1
I0403 19:46:34.112457  9656 net.cpp:148] Top shape: 24 64 56 56 (4816896)
I0403 19:46:34.112473  9656 net.cpp:156] Memory required for data: 207127584
I0403 19:46:34.112488  9656 layer_factory.hpp:77] Creating layer conv2/3x3_reduce
I0403 19:46:34.112511  9656 net.cpp:91] Creating Layer conv2/3x3_reduce
I0403 19:46:34.112526  9656 net.cpp:425] conv2/3x3_reduce <- pool1/norm1
I0403 19:46:34.112543  9656 net.cpp:399] conv2/3x3_reduce -> conv2/3x3_reduce
I0403 19:46:34.113832  9656 net.cpp:141] Setting up conv2/3x3_reduce
I0403 19:46:34.113862  9656 net.cpp:148] Top shape: 24 64 56 56 (4816896)
I0403 19:46:34.113876  9656 net.cpp:156] Memory required for data: 226395168
I0403 19:46:34.113896  9656 layer_factory.hpp:77] Creating layer conv2/relu_3x3_reduce
I0403 19:46:34.113915  9656 net.cpp:91] Creating Layer conv2/relu_3x3_reduce
I0403 19:46:34.113929  9656 net.cpp:425] conv2/relu_3x3_reduce <- conv2/3x3_reduce
I0403 19:46:34.113945  9656 net.cpp:386] conv2/relu_3x3_reduce -> conv2/3x3_reduce (in-place)
I0403 19:46:34.114199  9656 net.cpp:141] Setting up conv2/relu_3x3_reduce
I0403 19:46:34.114226  9656 net.cpp:148] Top shape: 24 64 56 56 (4816896)
I0403 19:46:34.114240  9656 net.cpp:156] Memory required for data: 245662752
I0403 19:46:34.114255  9656 layer_factory.hpp:77] Creating layer conv2/3x3
I0403 19:46:34.114284  9656 net.cpp:91] Creating Layer conv2/3x3
I0403 19:46:34.114302  9656 net.cpp:425] conv2/3x3 <- conv2/3x3_reduce
I0403 19:46:34.114320  9656 net.cpp:399] conv2/3x3 -> conv2/3x3
I0403 19:46:34.116536  9656 net.cpp:141] Setting up conv2/3x3
I0403 19:46:34.116567  9656 net.cpp:148] Top shape: 24 192 56 56 (14450688)
I0403 19:46:34.116583  9656 net.cpp:156] Memory required for data: 303465504
I0403 19:46:34.116605  9656 layer_factory.hpp:77] Creating layer conv2/relu_3x3
I0403 19:46:34.116623  9656 net.cpp:91] Creating Layer conv2/relu_3x3
I0403 19:46:34.116639  9656 net.cpp:425] conv2/relu_3x3 <- conv2/3x3
I0403 19:46:34.116657  9656 net.cpp:386] conv2/relu_3x3 -> conv2/3x3 (in-place)
I0403 19:46:34.116822  9656 net.cpp:141] Setting up conv2/relu_3x3
I0403 19:46:34.116847  9656 net.cpp:148] Top shape: 24 192 56 56 (14450688)
I0403 19:46:34.116893  9656 net.cpp:156] Memory required for data: 361268256
I0403 19:46:34.116909  9656 layer_factory.hpp:77] Creating layer conv2/norm2
I0403 19:46:34.116927  9656 net.cpp:91] Creating Layer conv2/norm2
I0403 19:46:34.116942  9656 net.cpp:425] conv2/norm2 <- conv2/3x3
I0403 19:46:34.116960  9656 net.cpp:399] conv2/norm2 -> conv2/norm2
I0403 19:46:34.117246  9656 net.cpp:141] Setting up conv2/norm2
I0403 19:46:34.117276  9656 net.cpp:148] Top shape: 24 192 56 56 (14450688)
I0403 19:46:34.117292  9656 net.cpp:156] Memory required for data: 419071008
I0403 19:46:34.117306  9656 layer_factory.hpp:77] Creating layer pool2/3x3_s2
I0403 19:46:34.117326  9656 net.cpp:91] Creating Layer pool2/3x3_s2
I0403 19:46:34.117342  9656 net.cpp:425] pool2/3x3_s2 <- conv2/norm2
I0403 19:46:34.117358  9656 net.cpp:399] pool2/3x3_s2 -> pool2/3x3_s2
I0403 19:46:34.117416  9656 net.cpp:141] Setting up pool2/3x3_s2
I0403 19:46:34.117439  9656 net.cpp:148] Top shape: 24 192 28 28 (3612672)
I0403 19:46:34.117452  9656 net.cpp:156] Memory required for data: 433521696
I0403 19:46:34.117467  9656 layer_factory.hpp:77] Creating layer pool2/3x3_s2_pool2/3x3_s2_0_split
I0403 19:46:34.117485  9656 net.cpp:91] Creating Layer pool2/3x3_s2_pool2/3x3_s2_0_split
I0403 19:46:34.117499  9656 net.cpp:425] pool2/3x3_s2_pool2/3x3_s2_0_split <- pool2/3x3_s2
I0403 19:46:34.117518  9656 net.cpp:399] pool2/3x3_s2_pool2/3x3_s2_0_split -> pool2/3x3_s2_pool2/3x3_s2_0_split_0
I0403 19:46:34.117537  9656 net.cpp:399] pool2/3x3_s2_pool2/3x3_s2_0_split -> pool2/3x3_s2_pool2/3x3_s2_0_split_1
I0403 19:46:34.117557  9656 net.cpp:399] pool2/3x3_s2_pool2/3x3_s2_0_split -> pool2/3x3_s2_pool2/3x3_s2_0_split_2
I0403 19:46:34.117575  9656 net.cpp:399] pool2/3x3_s2_pool2/3x3_s2_0_split -> pool2/3x3_s2_pool2/3x3_s2_0_split_3
I0403 19:46:34.117642  9656 net.cpp:141] Setting up pool2/3x3_s2_pool2/3x3_s2_0_split
I0403 19:46:34.117665  9656 net.cpp:148] Top shape: 24 192 28 28 (3612672)
I0403 19:46:34.117681  9656 net.cpp:148] Top shape: 24 192 28 28 (3612672)
I0403 19:46:34.117696  9656 net.cpp:148] Top shape: 24 192 28 28 (3612672)
I0403 19:46:34.117710  9656 net.cpp:148] Top shape: 24 192 28 28 (3612672)
I0403 19:46:34.117723  9656 net.cpp:156] Memory required for data: 491324448
I0403 19:46:34.117738  9656 layer_factory.hpp:77] Creating layer inception_3a/1x1
I0403 19:46:34.117760  9656 net.cpp:91] Creating Layer inception_3a/1x1
I0403 19:46:34.117777  9656 net.cpp:425] inception_3a/1x1 <- pool2/3x3_s2_pool2/3x3_s2_0_split_0
I0403 19:46:34.117797  9656 net.cpp:399] inception_3a/1x1 -> inception_3a/1x1
I0403 19:46:34.119290  9656 net.cpp:141] Setting up inception_3a/1x1
I0403 19:46:34.119321  9656 net.cpp:148] Top shape: 24 64 28 28 (1204224)
I0403 19:46:34.119338  9656 net.cpp:156] Memory required for data: 496141344
I0403 19:46:34.119355  9656 layer_factory.hpp:77] Creating layer inception_3a/relu_1x1
I0403 19:46:34.119374  9656 net.cpp:91] Creating Layer inception_3a/relu_1x1
I0403 19:46:34.119388  9656 net.cpp:425] inception_3a/relu_1x1 <- inception_3a/1x1
I0403 19:46:34.119405  9656 net.cpp:386] inception_3a/relu_1x1 -> inception_3a/1x1 (in-place)
I0403 19:46:34.119575  9656 net.cpp:141] Setting up inception_3a/relu_1x1
I0403 19:46:34.119601  9656 net.cpp:148] Top shape: 24 64 28 28 (1204224)
I0403 19:46:34.119616  9656 net.cpp:156] Memory required for data: 500958240
I0403 19:46:34.119629  9656 layer_factory.hpp:77] Creating layer inception_3a/3x3_reduce
I0403 19:46:34.119650  9656 net.cpp:91] Creating Layer inception_3a/3x3_reduce
I0403 19:46:34.119666  9656 net.cpp:425] inception_3a/3x3_reduce <- pool2/3x3_s2_pool2/3x3_s2_0_split_1
I0403 19:46:34.119684  9656 net.cpp:399] inception_3a/3x3_reduce -> inception_3a/3x3_reduce
I0403 19:46:34.121361  9656 net.cpp:141] Setting up inception_3a/3x3_reduce
I0403 19:46:34.121389  9656 net.cpp:148] Top shape: 24 96 28 28 (1806336)
I0403 19:46:34.121404  9656 net.cpp:156] Memory required for data: 508183584
I0403 19:46:34.121428  9656 layer_factory.hpp:77] Creating layer inception_3a/relu_3x3_reduce
I0403 19:46:34.121462  9656 net.cpp:91] Creating Layer inception_3a/relu_3x3_reduce
I0403 19:46:34.121479  9656 net.cpp:425] inception_3a/relu_3x3_reduce <- inception_3a/3x3_reduce
I0403 19:46:34.121497  9656 net.cpp:386] inception_3a/relu_3x3_reduce -> inception_3a/3x3_reduce (in-place)
I0403 19:46:34.121672  9656 net.cpp:141] Setting up inception_3a/relu_3x3_reduce
I0403 19:46:34.121697  9656 net.cpp:148] Top shape: 24 96 28 28 (1806336)
I0403 19:46:34.121711  9656 net.cpp:156] Memory required for data: 515408928
I0403 19:46:34.121726  9656 layer_factory.hpp:77] Creating layer inception_3a/3x3
I0403 19:46:34.121747  9656 net.cpp:91] Creating Layer inception_3a/3x3
I0403 19:46:34.121763  9656 net.cpp:425] inception_3a/3x3 <- inception_3a/3x3_reduce
I0403 19:46:34.121784  9656 net.cpp:399] inception_3a/3x3 -> inception_3a/3x3
I0403 19:46:34.123392  9656 net.cpp:141] Setting up inception_3a/3x3
I0403 19:46:34.123422  9656 net.cpp:148] Top shape: 24 128 28 28 (2408448)
I0403 19:46:34.123438  9656 net.cpp:156] Memory required for data: 525042720
I0403 19:46:34.123456  9656 layer_factory.hpp:77] Creating layer inception_3a/relu_3x3
I0403 19:46:34.123473  9656 net.cpp:91] Creating Layer inception_3a/relu_3x3
I0403 19:46:34.123488  9656 net.cpp:425] inception_3a/relu_3x3 <- inception_3a/3x3
I0403 19:46:34.123507  9656 net.cpp:386] inception_3a/relu_3x3 -> inception_3a/3x3 (in-place)
I0403 19:46:34.123776  9656 net.cpp:141] Setting up inception_3a/relu_3x3
I0403 19:46:34.123805  9656 net.cpp:148] Top shape: 24 128 28 28 (2408448)
I0403 19:46:34.123821  9656 net.cpp:156] Memory required for data: 534676512
I0403 19:46:34.123836  9656 layer_factory.hpp:77] Creating layer inception_3a/5x5_reduce
I0403 19:46:34.123857  9656 net.cpp:91] Creating Layer inception_3a/5x5_reduce
I0403 19:46:34.123872  9656 net.cpp:425] inception_3a/5x5_reduce <- pool2/3x3_s2_pool2/3x3_s2_0_split_2
I0403 19:46:34.123890  9656 net.cpp:399] inception_3a/5x5_reduce -> inception_3a/5x5_reduce
I0403 19:46:34.124866  9656 net.cpp:141] Setting up inception_3a/5x5_reduce
I0403 19:46:34.124893  9656 net.cpp:148] Top shape: 24 16 28 28 (301056)
I0403 19:46:34.124908  9656 net.cpp:156] Memory required for data: 535880736
I0403 19:46:34.124927  9656 layer_factory.hpp:77] Creating layer inception_3a/relu_5x5_reduce
I0403 19:46:34.124943  9656 net.cpp:91] Creating Layer inception_3a/relu_5x5_reduce
I0403 19:46:34.124958  9656 net.cpp:425] inception_3a/relu_5x5_reduce <- inception_3a/5x5_reduce
I0403 19:46:34.124977  9656 net.cpp:386] inception_3a/relu_5x5_reduce -> inception_3a/5x5_reduce (in-place)
I0403 19:46:34.125268  9656 net.cpp:141] Setting up inception_3a/relu_5x5_reduce
I0403 19:46:34.125298  9656 net.cpp:148] Top shape: 24 16 28 28 (301056)
I0403 19:46:34.125313  9656 net.cpp:156] Memory required for data: 537084960
I0403 19:46:34.125327  9656 layer_factory.hpp:77] Creating layer inception_3a/5x5
I0403 19:46:34.125349  9656 net.cpp:91] Creating Layer inception_3a/5x5
I0403 19:46:34.125365  9656 net.cpp:425] inception_3a/5x5 <- inception_3a/5x5_reduce
I0403 19:46:34.125385  9656 net.cpp:399] inception_3a/5x5 -> inception_3a/5x5
I0403 19:46:34.126380  9656 net.cpp:141] Setting up inception_3a/5x5
I0403 19:46:34.126410  9656 net.cpp:148] Top shape: 24 32 28 28 (602112)
I0403 19:46:34.126425  9656 net.cpp:156] Memory required for data: 539493408
I0403 19:46:34.126443  9656 layer_factory.hpp:77] Creating layer inception_3a/relu_5x5
I0403 19:46:34.126461  9656 net.cpp:91] Creating Layer inception_3a/relu_5x5
I0403 19:46:34.126476  9656 net.cpp:425] inception_3a/relu_5x5 <- inception_3a/5x5
I0403 19:46:34.126492  9656 net.cpp:386] inception_3a/relu_5x5 -> inception_3a/5x5 (in-place)
I0403 19:46:34.126665  9656 net.cpp:141] Setting up inception_3a/relu_5x5
I0403 19:46:34.126689  9656 net.cpp:148] Top shape: 24 32 28 28 (602112)
I0403 19:46:34.126703  9656 net.cpp:156] Memory required for data: 541901856
I0403 19:46:34.126718  9656 layer_factory.hpp:77] Creating layer inception_3a/pool
I0403 19:46:34.126735  9656 net.cpp:91] Creating Layer inception_3a/pool
I0403 19:46:34.126750  9656 net.cpp:425] inception_3a/pool <- pool2/3x3_s2_pool2/3x3_s2_0_split_3
I0403 19:46:34.126783  9656 net.cpp:399] inception_3a/pool -> inception_3a/pool
I0403 19:46:34.126840  9656 net.cpp:141] Setting up inception_3a/pool
I0403 19:46:34.126865  9656 net.cpp:148] Top shape: 24 192 28 28 (3612672)
I0403 19:46:34.126880  9656 net.cpp:156] Memory required for data: 556352544
I0403 19:46:34.126894  9656 layer_factory.hpp:77] Creating layer inception_3a/pool_proj
I0403 19:46:34.126916  9656 net.cpp:91] Creating Layer inception_3a/pool_proj
I0403 19:46:34.126932  9656 net.cpp:425] inception_3a/pool_proj <- inception_3a/pool
I0403 19:46:34.126950  9656 net.cpp:399] inception_3a/pool_proj -> inception_3a/pool_proj
I0403 19:46:34.127897  9656 net.cpp:141] Setting up inception_3a/pool_proj
I0403 19:46:34.127923  9656 net.cpp:148] Top shape: 24 32 28 28 (602112)
I0403 19:46:34.127938  9656 net.cpp:156] Memory required for data: 558760992
I0403 19:46:34.127964  9656 layer_factory.hpp:77] Creating layer inception_3a/relu_pool_proj
I0403 19:46:34.127982  9656 net.cpp:91] Creating Layer inception_3a/relu_pool_proj
I0403 19:46:34.127997  9656 net.cpp:425] inception_3a/relu_pool_proj <- inception_3a/pool_proj
I0403 19:46:34.128016  9656 net.cpp:386] inception_3a/relu_pool_proj -> inception_3a/pool_proj (in-place)
I0403 19:46:34.128291  9656 net.cpp:141] Setting up inception_3a/relu_pool_proj
I0403 19:46:34.128319  9656 net.cpp:148] Top shape: 24 32 28 28 (602112)
I0403 19:46:34.128335  9656 net.cpp:156] Memory required for data: 561169440
I0403 19:46:34.128350  9656 layer_factory.hpp:77] Creating layer inception_3a/output
I0403 19:46:34.128367  9656 net.cpp:91] Creating Layer inception_3a/output
I0403 19:46:34.128382  9656 net.cpp:425] inception_3a/output <- inception_3a/1x1
I0403 19:46:34.128398  9656 net.cpp:425] inception_3a/output <- inception_3a/3x3
I0403 19:46:34.128413  9656 net.cpp:425] inception_3a/output <- inception_3a/5x5
I0403 19:46:34.128428  9656 net.cpp:425] inception_3a/output <- inception_3a/pool_proj
I0403 19:46:34.128444  9656 net.cpp:399] inception_3a/output -> inception_3a/output
I0403 19:46:34.128491  9656 net.cpp:141] Setting up inception_3a/output
I0403 19:46:34.128514  9656 net.cpp:148] Top shape: 24 256 28 28 (4816896)
I0403 19:46:34.128528  9656 net.cpp:156] Memory required for data: 580437024
I0403 19:46:34.128542  9656 layer_factory.hpp:77] Creating layer inception_3a/output_inception_3a/output_0_split
I0403 19:46:34.128561  9656 net.cpp:91] Creating Layer inception_3a/output_inception_3a/output_0_split
I0403 19:46:34.128576  9656 net.cpp:425] inception_3a/output_inception_3a/output_0_split <- inception_3a/output
I0403 19:46:34.128592  9656 net.cpp:399] inception_3a/output_inception_3a/output_0_split -> inception_3a/output_inception_3a/output_0_split_0
I0403 19:46:34.128612  9656 net.cpp:399] inception_3a/output_inception_3a/output_0_split -> inception_3a/output_inception_3a/output_0_split_1
I0403 19:46:34.128634  9656 net.cpp:399] inception_3a/output_inception_3a/output_0_split -> inception_3a/output_inception_3a/output_0_split_2
I0403 19:46:34.128655  9656 net.cpp:399] inception_3a/output_inception_3a/output_0_split -> inception_3a/output_inception_3a/output_0_split_3
I0403 19:46:34.128727  9656 net.cpp:141] Setting up inception_3a/output_inception_3a/output_0_split
I0403 19:46:34.128748  9656 net.cpp:148] Top shape: 24 256 28 28 (4816896)
I0403 19:46:34.128764  9656 net.cpp:148] Top shape: 24 256 28 28 (4816896)
I0403 19:46:34.128779  9656 net.cpp:148] Top shape: 24 256 28 28 (4816896)
I0403 19:46:34.128794  9656 net.cpp:148] Top shape: 24 256 28 28 (4816896)
I0403 19:46:34.128808  9656 net.cpp:156] Memory required for data: 657507360
I0403 19:46:34.128821  9656 layer_factory.hpp:77] Creating layer inception_3b/1x1
I0403 19:46:34.128844  9656 net.cpp:91] Creating Layer inception_3b/1x1
I0403 19:46:34.128860  9656 net.cpp:425] inception_3b/1x1 <- inception_3a/output_inception_3a/output_0_split_0
I0403 19:46:34.128878  9656 net.cpp:399] inception_3b/1x1 -> inception_3b/1x1
I0403 19:46:34.129987  9656 net.cpp:141] Setting up inception_3b/1x1
I0403 19:46:34.130024  9656 net.cpp:148] Top shape: 24 128 28 28 (2408448)
I0403 19:46:34.130040  9656 net.cpp:156] Memory required for data: 667141152
I0403 19:46:34.130059  9656 layer_factory.hpp:77] Creating layer inception_3b/relu_1x1
I0403 19:46:34.130077  9656 net.cpp:91] Creating Layer inception_3b/relu_1x1
I0403 19:46:34.130094  9656 net.cpp:425] inception_3b/relu_1x1 <- inception_3b/1x1
I0403 19:46:34.130110  9656 net.cpp:386] inception_3b/relu_1x1 -> inception_3b/1x1 (in-place)
I0403 19:46:34.130287  9656 net.cpp:141] Setting up inception_3b/relu_1x1
I0403 19:46:34.130316  9656 net.cpp:148] Top shape: 24 128 28 28 (2408448)
I0403 19:46:34.130331  9656 net.cpp:156] Memory required for data: 676774944
I0403 19:46:34.130344  9656 layer_factory.hpp:77] Creating layer inception_3b/3x3_reduce
I0403 19:46:34.130365  9656 net.cpp:91] Creating Layer inception_3b/3x3_reduce
I0403 19:46:34.130381  9656 net.cpp:425] inception_3b/3x3_reduce <- inception_3a/output_inception_3a/output_0_split_1
I0403 19:46:34.130401  9656 net.cpp:399] inception_3b/3x3_reduce -> inception_3b/3x3_reduce
I0403 19:46:34.131505  9656 net.cpp:141] Setting up inception_3b/3x3_reduce
I0403 19:46:34.131533  9656 net.cpp:148] Top shape: 24 128 28 28 (2408448)
I0403 19:46:34.131548  9656 net.cpp:156] Memory required for data: 686408736
I0403 19:46:34.131566  9656 layer_factory.hpp:77] Creating layer inception_3b/relu_3x3_reduce
I0403 19:46:34.131585  9656 net.cpp:91] Creating Layer inception_3b/relu_3x3_reduce
I0403 19:46:34.131602  9656 net.cpp:425] inception_3b/relu_3x3_reduce <- inception_3b/3x3_reduce
I0403 19:46:34.131618  9656 net.cpp:386] inception_3b/relu_3x3_reduce -> inception_3b/3x3_reduce (in-place)
I0403 19:46:34.131788  9656 net.cpp:141] Setting up inception_3b/relu_3x3_reduce
I0403 19:46:34.131814  9656 net.cpp:148] Top shape: 24 128 28 28 (2408448)
I0403 19:46:34.131829  9656 net.cpp:156] Memory required for data: 696042528
I0403 19:46:34.131842  9656 layer_factory.hpp:77] Creating layer inception_3b/3x3
I0403 19:46:34.131865  9656 net.cpp:91] Creating Layer inception_3b/3x3
I0403 19:46:34.131882  9656 net.cpp:425] inception_3b/3x3 <- inception_3b/3x3_reduce
I0403 19:46:34.131902  9656 net.cpp:399] inception_3b/3x3 -> inception_3b/3x3
I0403 19:46:34.134846  9656 net.cpp:141] Setting up inception_3b/3x3
I0403 19:46:34.134878  9656 net.cpp:148] Top shape: 24 192 28 28 (3612672)
I0403 19:46:34.134896  9656 net.cpp:156] Memory required for data: 710493216
I0403 19:46:34.134913  9656 layer_factory.hpp:77] Creating layer inception_3b/relu_3x3
I0403 19:46:34.134930  9656 net.cpp:91] Creating Layer inception_3b/relu_3x3
I0403 19:46:34.134946  9656 net.cpp:425] inception_3b/relu_3x3 <- inception_3b/3x3
I0403 19:46:34.134964  9656 net.cpp:386] inception_3b/relu_3x3 -> inception_3b/3x3 (in-place)
I0403 19:46:34.135242  9656 net.cpp:141] Setting up inception_3b/relu_3x3
I0403 19:46:34.135274  9656 net.cpp:148] Top shape: 24 192 28 28 (3612672)
I0403 19:46:34.135293  9656 net.cpp:156] Memory required for data: 724943904
I0403 19:46:34.135308  9656 layer_factory.hpp:77] Creating layer inception_3b/5x5_reduce
I0403 19:46:34.135331  9656 net.cpp:91] Creating Layer inception_3b/5x5_reduce
I0403 19:46:34.135349  9656 net.cpp:425] inception_3b/5x5_reduce <- inception_3a/output_inception_3a/output_0_split_2
I0403 19:46:34.135367  9656 net.cpp:399] inception_3b/5x5_reduce -> inception_3b/5x5_reduce
I0403 19:46:34.136370  9656 net.cpp:141] Setting up inception_3b/5x5_reduce
I0403 19:46:34.136400  9656 net.cpp:148] Top shape: 24 32 28 28 (602112)
I0403 19:46:34.136417  9656 net.cpp:156] Memory required for data: 727352352
I0403 19:46:34.136435  9656 layer_factory.hpp:77] Creating layer inception_3b/relu_5x5_reduce
I0403 19:46:34.136453  9656 net.cpp:91] Creating Layer inception_3b/relu_5x5_reduce
I0403 19:46:34.136469  9656 net.cpp:425] inception_3b/relu_5x5_reduce <- inception_3b/5x5_reduce
I0403 19:46:34.136487  9656 net.cpp:386] inception_3b/relu_5x5_reduce -> inception_3b/5x5_reduce (in-place)
I0403 19:46:34.136667  9656 net.cpp:141] Setting up inception_3b/relu_5x5_reduce
I0403 19:46:34.136703  9656 net.cpp:148] Top shape: 24 32 28 28 (602112)
I0403 19:46:34.136718  9656 net.cpp:156] Memory required for data: 729760800
I0403 19:46:34.136734  9656 layer_factory.hpp:77] Creating layer inception_3b/5x5
I0403 19:46:34.136755  9656 net.cpp:91] Creating Layer inception_3b/5x5
I0403 19:46:34.136772  9656 net.cpp:425] inception_3b/5x5 <- inception_3b/5x5_reduce
I0403 19:46:34.136793  9656 net.cpp:399] inception_3b/5x5 -> inception_3b/5x5
I0403 19:46:34.138790  9656 net.cpp:141] Setting up inception_3b/5x5
I0403 19:46:34.138820  9656 net.cpp:148] Top shape: 24 96 28 28 (1806336)
I0403 19:46:34.138835  9656 net.cpp:156] Memory required for data: 736986144
I0403 19:46:34.138854  9656 layer_factory.hpp:77] Creating layer inception_3b/relu_5x5
I0403 19:46:34.138875  9656 net.cpp:91] Creating Layer inception_3b/relu_5x5
I0403 19:46:34.138891  9656 net.cpp:425] inception_3b/relu_5x5 <- inception_3b/5x5
I0403 19:46:34.138909  9656 net.cpp:386] inception_3b/relu_5x5 -> inception_3b/5x5 (in-place)
I0403 19:46:34.139111  9656 net.cpp:141] Setting up inception_3b/relu_5x5
I0403 19:46:34.139137  9656 net.cpp:148] Top shape: 24 96 28 28 (1806336)
I0403 19:46:34.139153  9656 net.cpp:156] Memory required for data: 744211488
I0403 19:46:34.139180  9656 layer_factory.hpp:77] Creating layer inception_3b/pool
I0403 19:46:34.139197  9656 net.cpp:91] Creating Layer inception_3b/pool
I0403 19:46:34.139215  9656 net.cpp:425] inception_3b/pool <- inception_3a/output_inception_3a/output_0_split_3
I0403 19:46:34.139233  9656 net.cpp:399] inception_3b/pool -> inception_3b/pool
I0403 19:46:34.139293  9656 net.cpp:141] Setting up inception_3b/pool
I0403 19:46:34.139317  9656 net.cpp:148] Top shape: 24 256 28 28 (4816896)
I0403 19:46:34.139331  9656 net.cpp:156] Memory required for data: 763479072
I0403 19:46:34.139345  9656 layer_factory.hpp:77] Creating layer inception_3b/pool_proj
I0403 19:46:34.139367  9656 net.cpp:91] Creating Layer inception_3b/pool_proj
I0403 19:46:34.139384  9656 net.cpp:425] inception_3b/pool_proj <- inception_3b/pool
I0403 19:46:34.139405  9656 net.cpp:399] inception_3b/pool_proj -> inception_3b/pool_proj
I0403 19:46:34.140491  9656 net.cpp:141] Setting up inception_3b/pool_proj
I0403 19:46:34.140519  9656 net.cpp:148] Top shape: 24 64 28 28 (1204224)
I0403 19:46:34.140535  9656 net.cpp:156] Memory required for data: 768295968
I0403 19:46:34.140554  9656 layer_factory.hpp:77] Creating layer inception_3b/relu_pool_proj
I0403 19:46:34.140576  9656 net.cpp:91] Creating Layer inception_3b/relu_pool_proj
I0403 19:46:34.140593  9656 net.cpp:425] inception_3b/relu_pool_proj <- inception_3b/pool_proj
I0403 19:46:34.140610  9656 net.cpp:386] inception_3b/relu_pool_proj -> inception_3b/pool_proj (in-place)
I0403 19:46:34.141017  9656 net.cpp:141] Setting up inception_3b/relu_pool_proj
I0403 19:46:34.141043  9656 net.cpp:148] Top shape: 24 64 28 28 (1204224)
I0403 19:46:34.141058  9656 net.cpp:156] Memory required for data: 773112864
I0403 19:46:34.141073  9656 layer_factory.hpp:77] Creating layer inception_3b/output
I0403 19:46:34.141090  9656 net.cpp:91] Creating Layer inception_3b/output
I0403 19:46:34.141105  9656 net.cpp:425] inception_3b/output <- inception_3b/1x1
I0403 19:46:34.141122  9656 net.cpp:425] inception_3b/output <- inception_3b/3x3
I0403 19:46:34.141137  9656 net.cpp:425] inception_3b/output <- inception_3b/5x5
I0403 19:46:34.141154  9656 net.cpp:425] inception_3b/output <- inception_3b/pool_proj
I0403 19:46:34.141171  9656 net.cpp:399] inception_3b/output -> inception_3b/output
I0403 19:46:34.141216  9656 net.cpp:141] Setting up inception_3b/output
I0403 19:46:34.141240  9656 net.cpp:148] Top shape: 24 480 28 28 (9031680)
I0403 19:46:34.141255  9656 net.cpp:156] Memory required for data: 809239584
I0403 19:46:34.141274  9656 layer_factory.hpp:77] Creating layer pool3/3x3_s2
I0403 19:46:34.141294  9656 net.cpp:91] Creating Layer pool3/3x3_s2
I0403 19:46:34.141309  9656 net.cpp:425] pool3/3x3_s2 <- inception_3b/output
I0403 19:46:34.141325  9656 net.cpp:399] pool3/3x3_s2 -> pool3/3x3_s2
I0403 19:46:34.141398  9656 net.cpp:141] Setting up pool3/3x3_s2
I0403 19:46:34.141422  9656 net.cpp:148] Top shape: 24 480 14 14 (2257920)
I0403 19:46:34.141435  9656 net.cpp:156] Memory required for data: 818271264
I0403 19:46:34.141450  9656 layer_factory.hpp:77] Creating layer pool3/3x3_s2_pool3/3x3_s2_0_split
I0403 19:46:34.141468  9656 net.cpp:91] Creating Layer pool3/3x3_s2_pool3/3x3_s2_0_split
I0403 19:46:34.141481  9656 net.cpp:425] pool3/3x3_s2_pool3/3x3_s2_0_split <- pool3/3x3_s2
I0403 19:46:34.141500  9656 net.cpp:399] pool3/3x3_s2_pool3/3x3_s2_0_split -> pool3/3x3_s2_pool3/3x3_s2_0_split_0
I0403 19:46:34.141520  9656 net.cpp:399] pool3/3x3_s2_pool3/3x3_s2_0_split -> pool3/3x3_s2_pool3/3x3_s2_0_split_1
I0403 19:46:34.141541  9656 net.cpp:399] pool3/3x3_s2_pool3/3x3_s2_0_split -> pool3/3x3_s2_pool3/3x3_s2_0_split_2
I0403 19:46:34.141561  9656 net.cpp:399] pool3/3x3_s2_pool3/3x3_s2_0_split -> pool3/3x3_s2_pool3/3x3_s2_0_split_3
I0403 19:46:34.141638  9656 net.cpp:141] Setting up pool3/3x3_s2_pool3/3x3_s2_0_split
I0403 19:46:34.141660  9656 net.cpp:148] Top shape: 24 480 14 14 (2257920)
I0403 19:46:34.141677  9656 net.cpp:148] Top shape: 24 480 14 14 (2257920)
I0403 19:46:34.141692  9656 net.cpp:148] Top shape: 24 480 14 14 (2257920)
I0403 19:46:34.141707  9656 net.cpp:148] Top shape: 24 480 14 14 (2257920)
I0403 19:46:34.141721  9656 net.cpp:156] Memory required for data: 854397984
I0403 19:46:34.141734  9656 layer_factory.hpp:77] Creating layer inception_4a/1x1
I0403 19:46:34.141757  9656 net.cpp:91] Creating Layer inception_4a/1x1
I0403 19:46:34.141773  9656 net.cpp:425] inception_4a/1x1 <- pool3/3x3_s2_pool3/3x3_s2_0_split_0
I0403 19:46:34.141794  9656 net.cpp:399] inception_4a/1x1 -> inception_4a/1x1
I0403 19:46:34.143385  9656 net.cpp:141] Setting up inception_4a/1x1
I0403 19:46:34.143415  9656 net.cpp:148] Top shape: 24 192 14 14 (903168)
I0403 19:46:34.143430  9656 net.cpp:156] Memory required for data: 858010656
I0403 19:46:34.143447  9656 layer_factory.hpp:77] Creating layer inception_4a/relu_1x1
I0403 19:46:34.143467  9656 net.cpp:91] Creating Layer inception_4a/relu_1x1
I0403 19:46:34.143483  9656 net.cpp:425] inception_4a/relu_1x1 <- inception_4a/1x1
I0403 19:46:34.143501  9656 net.cpp:386] inception_4a/relu_1x1 -> inception_4a/1x1 (in-place)
I0403 19:46:34.143681  9656 net.cpp:141] Setting up inception_4a/relu_1x1
I0403 19:46:34.143723  9656 net.cpp:148] Top shape: 24 192 14 14 (903168)
I0403 19:46:34.143748  9656 net.cpp:156] Memory required for data: 861623328
I0403 19:46:34.143784  9656 layer_factory.hpp:77] Creating layer inception_4a/3x3_reduce
I0403 19:46:34.143831  9656 net.cpp:91] Creating Layer inception_4a/3x3_reduce
I0403 19:46:34.143849  9656 net.cpp:425] inception_4a/3x3_reduce <- pool3/3x3_s2_pool3/3x3_s2_0_split_1
I0403 19:46:34.143868  9656 net.cpp:399] inception_4a/3x3_reduce -> inception_4a/3x3_reduce
I0403 19:46:34.145164  9656 net.cpp:141] Setting up inception_4a/3x3_reduce
I0403 19:46:34.145191  9656 net.cpp:148] Top shape: 24 96 14 14 (451584)
I0403 19:46:34.145207  9656 net.cpp:156] Memory required for data: 863429664
I0403 19:46:34.145237  9656 layer_factory.hpp:77] Creating layer inception_4a/relu_3x3_reduce
I0403 19:46:34.145256  9656 net.cpp:91] Creating Layer inception_4a/relu_3x3_reduce
I0403 19:46:34.145275  9656 net.cpp:425] inception_4a/relu_3x3_reduce <- inception_4a/3x3_reduce
I0403 19:46:34.145297  9656 net.cpp:386] inception_4a/relu_3x3_reduce -> inception_4a/3x3_reduce (in-place)
I0403 19:46:34.145473  9656 net.cpp:141] Setting up inception_4a/relu_3x3_reduce
I0403 19:46:34.145498  9656 net.cpp:148] Top shape: 24 96 14 14 (451584)
I0403 19:46:34.145512  9656 net.cpp:156] Memory required for data: 865236000
I0403 19:46:34.145527  9656 layer_factory.hpp:77] Creating layer inception_4a/3x3
I0403 19:46:34.145550  9656 net.cpp:91] Creating Layer inception_4a/3x3
I0403 19:46:34.145566  9656 net.cpp:425] inception_4a/3x3 <- inception_4a/3x3_reduce
I0403 19:46:34.145587  9656 net.cpp:399] inception_4a/3x3 -> inception_4a/3x3
I0403 19:46:34.148280  9656 net.cpp:141] Setting up inception_4a/3x3
I0403 19:46:34.148308  9656 net.cpp:148] Top shape: 24 208 14 14 (978432)
I0403 19:46:34.148324  9656 net.cpp:156] Memory required for data: 869149728
I0403 19:46:34.148342  9656 layer_factory.hpp:77] Creating layer inception_4a/relu_3x3
I0403 19:46:34.148363  9656 net.cpp:91] Creating Layer inception_4a/relu_3x3
I0403 19:46:34.148380  9656 net.cpp:425] inception_4a/relu_3x3 <- inception_4a/3x3
I0403 19:46:34.148396  9656 net.cpp:386] inception_4a/relu_3x3 -> inception_4a/3x3 (in-place)
I0403 19:46:34.148681  9656 net.cpp:141] Setting up inception_4a/relu_3x3
I0403 19:46:34.148710  9656 net.cpp:148] Top shape: 24 208 14 14 (978432)
I0403 19:46:34.148725  9656 net.cpp:156] Memory required for data: 873063456
I0403 19:46:34.148739  9656 layer_factory.hpp:77] Creating layer inception_4a/5x5_reduce
I0403 19:46:34.148762  9656 net.cpp:91] Creating Layer inception_4a/5x5_reduce
I0403 19:46:34.148778  9656 net.cpp:425] inception_4a/5x5_reduce <- pool3/3x3_s2_pool3/3x3_s2_0_split_2
I0403 19:46:34.148799  9656 net.cpp:399] inception_4a/5x5_reduce -> inception_4a/5x5_reduce
I0403 19:46:34.149824  9656 net.cpp:141] Setting up inception_4a/5x5_reduce
I0403 19:46:34.149854  9656 net.cpp:148] Top shape: 24 16 14 14 (75264)
I0403 19:46:34.149871  9656 net.cpp:156] Memory required for data: 873364512
I0403 19:46:34.149890  9656 layer_factory.hpp:77] Creating layer inception_4a/relu_5x5_reduce
I0403 19:46:34.149909  9656 net.cpp:91] Creating Layer inception_4a/relu_5x5_reduce
I0403 19:46:34.149924  9656 net.cpp:425] inception_4a/relu_5x5_reduce <- inception_4a/5x5_reduce
I0403 19:46:34.149940  9656 net.cpp:386] inception_4a/relu_5x5_reduce -> inception_4a/5x5_reduce (in-place)
I0403 19:46:34.150121  9656 net.cpp:141] Setting up inception_4a/relu_5x5_reduce
I0403 19:46:34.150147  9656 net.cpp:148] Top shape: 24 16 14 14 (75264)
I0403 19:46:34.150161  9656 net.cpp:156] Memory required for data: 873665568
I0403 19:46:34.150177  9656 layer_factory.hpp:77] Creating layer inception_4a/5x5
I0403 19:46:34.150198  9656 net.cpp:91] Creating Layer inception_4a/5x5
I0403 19:46:34.150216  9656 net.cpp:425] inception_4a/5x5 <- inception_4a/5x5_reduce
I0403 19:46:34.150238  9656 net.cpp:399] inception_4a/5x5 -> inception_4a/5x5
I0403 19:46:34.151386  9656 net.cpp:141] Setting up inception_4a/5x5
I0403 19:46:34.151412  9656 net.cpp:148] Top shape: 24 48 14 14 (225792)
I0403 19:46:34.151429  9656 net.cpp:156] Memory required for data: 874568736
I0403 19:46:34.151448  9656 layer_factory.hpp:77] Creating layer inception_4a/relu_5x5
I0403 19:46:34.151464  9656 net.cpp:91] Creating Layer inception_4a/relu_5x5
I0403 19:46:34.151479  9656 net.cpp:425] inception_4a/relu_5x5 <- inception_4a/5x5
I0403 19:46:34.151496  9656 net.cpp:386] inception_4a/relu_5x5 -> inception_4a/5x5 (in-place)
I0403 19:46:34.151672  9656 net.cpp:141] Setting up inception_4a/relu_5x5
I0403 19:46:34.151696  9656 net.cpp:148] Top shape: 24 48 14 14 (225792)
I0403 19:46:34.151721  9656 net.cpp:156] Memory required for data: 875471904
I0403 19:46:34.151736  9656 layer_factory.hpp:77] Creating layer inception_4a/pool
I0403 19:46:34.151754  9656 net.cpp:91] Creating Layer inception_4a/pool
I0403 19:46:34.151770  9656 net.cpp:425] inception_4a/pool <- pool3/3x3_s2_pool3/3x3_s2_0_split_3
I0403 19:46:34.151787  9656 net.cpp:399] inception_4a/pool -> inception_4a/pool
I0403 19:46:34.151849  9656 net.cpp:141] Setting up inception_4a/pool
I0403 19:46:34.151872  9656 net.cpp:148] Top shape: 24 480 14 14 (2257920)
I0403 19:46:34.151886  9656 net.cpp:156] Memory required for data: 884503584
I0403 19:46:34.151901  9656 layer_factory.hpp:77] Creating layer inception_4a/pool_proj
I0403 19:46:34.151921  9656 net.cpp:91] Creating Layer inception_4a/pool_proj
I0403 19:46:34.151938  9656 net.cpp:425] inception_4a/pool_proj <- inception_4a/pool
I0403 19:46:34.151958  9656 net.cpp:399] inception_4a/pool_proj -> inception_4a/pool_proj
I0403 19:46:34.153111  9656 net.cpp:141] Setting up inception_4a/pool_proj
I0403 19:46:34.153139  9656 net.cpp:148] Top shape: 24 64 14 14 (301056)
I0403 19:46:34.153172  9656 net.cpp:156] Memory required for data: 885707808
I0403 19:46:34.153190  9656 layer_factory.hpp:77] Creating layer inception_4a/relu_pool_proj
I0403 19:46:34.153210  9656 net.cpp:91] Creating Layer inception_4a/relu_pool_proj
I0403 19:46:34.153228  9656 net.cpp:425] inception_4a/relu_pool_proj <- inception_4a/pool_proj
I0403 19:46:34.153244  9656 net.cpp:386] inception_4a/relu_pool_proj -> inception_4a/pool_proj (in-place)
I0403 19:46:34.153522  9656 net.cpp:141] Setting up inception_4a/relu_pool_proj
I0403 19:46:34.153548  9656 net.cpp:148] Top shape: 24 64 14 14 (301056)
I0403 19:46:34.153563  9656 net.cpp:156] Memory required for data: 886912032
I0403 19:46:34.153576  9656 layer_factory.hpp:77] Creating layer inception_4a/output
I0403 19:46:34.153594  9656 net.cpp:91] Creating Layer inception_4a/output
I0403 19:46:34.153607  9656 net.cpp:425] inception_4a/output <- inception_4a/1x1
I0403 19:46:34.153623  9656 net.cpp:425] inception_4a/output <- inception_4a/3x3
I0403 19:46:34.153638  9656 net.cpp:425] inception_4a/output <- inception_4a/5x5
I0403 19:46:34.153652  9656 net.cpp:425] inception_4a/output <- inception_4a/pool_proj
I0403 19:46:34.153671  9656 net.cpp:399] inception_4a/output -> inception_4a/output
I0403 19:46:34.153713  9656 net.cpp:141] Setting up inception_4a/output
I0403 19:46:34.153739  9656 net.cpp:148] Top shape: 24 512 14 14 (2408448)
I0403 19:46:34.153753  9656 net.cpp:156] Memory required for data: 896545824
I0403 19:46:34.153766  9656 layer_factory.hpp:77] Creating layer inception_4a/output_inception_4a/output_0_split
I0403 19:46:34.153784  9656 net.cpp:91] Creating Layer inception_4a/output_inception_4a/output_0_split
I0403 19:46:34.153798  9656 net.cpp:425] inception_4a/output_inception_4a/output_0_split <- inception_4a/output
I0403 19:46:34.153817  9656 net.cpp:399] inception_4a/output_inception_4a/output_0_split -> inception_4a/output_inception_4a/output_0_split_0
I0403 19:46:34.153837  9656 net.cpp:399] inception_4a/output_inception_4a/output_0_split -> inception_4a/output_inception_4a/output_0_split_1
I0403 19:46:34.153858  9656 net.cpp:399] inception_4a/output_inception_4a/output_0_split -> inception_4a/output_inception_4a/output_0_split_2
I0403 19:46:34.153877  9656 net.cpp:399] inception_4a/output_inception_4a/output_0_split -> inception_4a/output_inception_4a/output_0_split_3
I0403 19:46:34.153897  9656 net.cpp:399] inception_4a/output_inception_4a/output_0_split -> inception_4a/output_inception_4a/output_0_split_4
I0403 19:46:34.153983  9656 net.cpp:141] Setting up inception_4a/output_inception_4a/output_0_split
I0403 19:46:34.154009  9656 net.cpp:148] Top shape: 24 512 14 14 (2408448)
I0403 19:46:34.154026  9656 net.cpp:148] Top shape: 24 512 14 14 (2408448)
I0403 19:46:34.154042  9656 net.cpp:148] Top shape: 24 512 14 14 (2408448)
I0403 19:46:34.154057  9656 net.cpp:148] Top shape: 24 512 14 14 (2408448)
I0403 19:46:34.154072  9656 net.cpp:148] Top shape: 24 512 14 14 (2408448)
I0403 19:46:34.154085  9656 net.cpp:156] Memory required for data: 944714784
I0403 19:46:34.154100  9656 layer_factory.hpp:77] Creating layer loss1/ave_pool
I0403 19:46:34.154119  9656 net.cpp:91] Creating Layer loss1/ave_pool
I0403 19:46:34.154134  9656 net.cpp:425] loss1/ave_pool <- inception_4a/output_inception_4a/output_0_split_0
I0403 19:46:34.154150  9656 net.cpp:399] loss1/ave_pool -> loss1/ave_pool
I0403 19:46:34.154359  9656 net.cpp:141] Setting up loss1/ave_pool
I0403 19:46:34.154384  9656 net.cpp:148] Top shape: 24 512 4 4 (196608)
I0403 19:46:34.154398  9656 net.cpp:156] Memory required for data: 945501216
I0403 19:46:34.154413  9656 layer_factory.hpp:77] Creating layer loss1/conv
I0403 19:46:34.154435  9656 net.cpp:91] Creating Layer loss1/conv
I0403 19:46:34.154453  9656 net.cpp:425] loss1/conv <- loss1/ave_pool
I0403 19:46:34.154472  9656 net.cpp:399] loss1/conv -> loss1/conv
I0403 19:46:34.155870  9656 net.cpp:141] Setting up loss1/conv
I0403 19:46:34.155900  9656 net.cpp:148] Top shape: 24 128 4 4 (49152)
I0403 19:46:34.155915  9656 net.cpp:156] Memory required for data: 945697824
I0403 19:46:34.155946  9656 layer_factory.hpp:77] Creating layer loss1/relu_conv
I0403 19:46:34.155964  9656 net.cpp:91] Creating Layer loss1/relu_conv
I0403 19:46:34.155979  9656 net.cpp:425] loss1/relu_conv <- loss1/conv
I0403 19:46:34.155995  9656 net.cpp:386] loss1/relu_conv -> loss1/conv (in-place)
I0403 19:46:34.156280  9656 net.cpp:141] Setting up loss1/relu_conv
I0403 19:46:34.156307  9656 net.cpp:148] Top shape: 24 128 4 4 (49152)
I0403 19:46:34.156323  9656 net.cpp:156] Memory required for data: 945894432
I0403 19:46:34.156337  9656 layer_factory.hpp:77] Creating layer loss1/fc
I0403 19:46:34.156359  9656 net.cpp:91] Creating Layer loss1/fc
I0403 19:46:34.156375  9656 net.cpp:425] loss1/fc <- loss1/conv
I0403 19:46:34.156396  9656 net.cpp:399] loss1/fc -> loss1/fc
I0403 19:46:34.173876  9656 net.cpp:141] Setting up loss1/fc
I0403 19:46:34.173941  9656 net.cpp:148] Top shape: 24 1024 (24576)
I0403 19:46:34.173956  9656 net.cpp:156] Memory required for data: 945992736
I0403 19:46:34.173976  9656 layer_factory.hpp:77] Creating layer loss1/relu_fc
I0403 19:46:34.174000  9656 net.cpp:91] Creating Layer loss1/relu_fc
I0403 19:46:34.174017  9656 net.cpp:425] loss1/relu_fc <- loss1/fc
I0403 19:46:34.174036  9656 net.cpp:386] loss1/relu_fc -> loss1/fc (in-place)
I0403 19:46:34.174254  9656 net.cpp:141] Setting up loss1/relu_fc
I0403 19:46:34.174284  9656 net.cpp:148] Top shape: 24 1024 (24576)
I0403 19:46:34.174300  9656 net.cpp:156] Memory required for data: 946091040
I0403 19:46:34.174314  9656 layer_factory.hpp:77] Creating layer loss1/drop_fc
I0403 19:46:34.174346  9656 net.cpp:91] Creating Layer loss1/drop_fc
I0403 19:46:34.174362  9656 net.cpp:425] loss1/drop_fc <- loss1/fc
I0403 19:46:34.174379  9656 net.cpp:386] loss1/drop_fc -> loss1/fc (in-place)
I0403 19:46:34.174435  9656 net.cpp:141] Setting up loss1/drop_fc
I0403 19:46:34.174458  9656 net.cpp:148] Top shape: 24 1024 (24576)
I0403 19:46:34.174471  9656 net.cpp:156] Memory required for data: 946189344
I0403 19:46:34.174485  9656 layer_factory.hpp:77] Creating layer loss1/classifier_plantvillage
I0403 19:46:34.174504  9656 net.cpp:91] Creating Layer loss1/classifier_plantvillage
I0403 19:46:34.174520  9656 net.cpp:425] loss1/classifier_plantvillage <- loss1/fc
I0403 19:46:34.174540  9656 net.cpp:399] loss1/classifier_plantvillage -> loss1/classifier_plantvillage
I0403 19:46:34.175498  9656 net.cpp:141] Setting up loss1/classifier_plantvillage
I0403 19:46:34.175529  9656 net.cpp:148] Top shape: 24 38 (912)
I0403 19:46:34.175545  9656 net.cpp:156] Memory required for data: 946192992
I0403 19:46:34.175565  9656 layer_factory.hpp:77] Creating layer loss1/classifier_plantvillage_loss1/classifier_plantvillage_0_split
I0403 19:46:34.175582  9656 net.cpp:91] Creating Layer loss1/classifier_plantvillage_loss1/classifier_plantvillage_0_split
I0403 19:46:34.175597  9656 net.cpp:425] loss1/classifier_plantvillage_loss1/classifier_plantvillage_0_split <- loss1/classifier_plantvillage
I0403 19:46:34.175616  9656 net.cpp:399] loss1/classifier_plantvillage_loss1/classifier_plantvillage_0_split -> loss1/classifier_plantvillage_loss1/classifier_plantvillage_0_split_0
I0403 19:46:34.175639  9656 net.cpp:399] loss1/classifier_plantvillage_loss1/classifier_plantvillage_0_split -> loss1/classifier_plantvillage_loss1/classifier_plantvillage_0_split_1
I0403 19:46:34.175658  9656 net.cpp:399] loss1/classifier_plantvillage_loss1/classifier_plantvillage_0_split -> loss1/classifier_plantvillage_loss1/classifier_plantvillage_0_split_2
I0403 19:46:34.175725  9656 net.cpp:141] Setting up loss1/classifier_plantvillage_loss1/classifier_plantvillage_0_split
I0403 19:46:34.175748  9656 net.cpp:148] Top shape: 24 38 (912)
I0403 19:46:34.175765  9656 net.cpp:148] Top shape: 24 38 (912)
I0403 19:46:34.175779  9656 net.cpp:148] Top shape: 24 38 (912)
I0403 19:46:34.175793  9656 net.cpp:156] Memory required for data: 946203936
I0403 19:46:34.175807  9656 layer_factory.hpp:77] Creating layer inception_4b/1x1
I0403 19:46:34.175829  9656 net.cpp:91] Creating Layer inception_4b/1x1
I0403 19:46:34.175874  9656 net.cpp:425] inception_4b/1x1 <- inception_4a/output_inception_4a/output_0_split_1
I0403 19:46:34.175897  9656 net.cpp:399] inception_4b/1x1 -> inception_4b/1x1
I0403 19:46:34.177592  9656 net.cpp:141] Setting up inception_4b/1x1
I0403 19:46:34.177623  9656 net.cpp:148] Top shape: 24 160 14 14 (752640)
I0403 19:46:34.177639  9656 net.cpp:156] Memory required for data: 949214496
I0403 19:46:34.177657  9656 layer_factory.hpp:77] Creating layer inception_4b/relu_1x1
I0403 19:46:34.177675  9656 net.cpp:91] Creating Layer inception_4b/relu_1x1
I0403 19:46:34.177690  9656 net.cpp:425] inception_4b/relu_1x1 <- inception_4b/1x1
I0403 19:46:34.177708  9656 net.cpp:386] inception_4b/relu_1x1 -> inception_4b/1x1 (in-place)
I0403 19:46:34.177893  9656 net.cpp:141] Setting up inception_4b/relu_1x1
I0403 19:46:34.177919  9656 net.cpp:148] Top shape: 24 160 14 14 (752640)
I0403 19:46:34.177935  9656 net.cpp:156] Memory required for data: 952225056
I0403 19:46:34.177950  9656 layer_factory.hpp:77] Creating layer inception_4b/3x3_reduce
I0403 19:46:34.177973  9656 net.cpp:91] Creating Layer inception_4b/3x3_reduce
I0403 19:46:34.177990  9656 net.cpp:425] inception_4b/3x3_reduce <- inception_4a/output_inception_4a/output_0_split_2
I0403 19:46:34.178014  9656 net.cpp:399] inception_4b/3x3_reduce -> inception_4b/3x3_reduce
I0403 19:46:34.179388  9656 net.cpp:141] Setting up inception_4b/3x3_reduce
I0403 19:46:34.179421  9656 net.cpp:148] Top shape: 24 112 14 14 (526848)
I0403 19:46:34.179438  9656 net.cpp:156] Memory required for data: 954332448
I0403 19:46:34.179456  9656 layer_factory.hpp:77] Creating layer inception_4b/relu_3x3_reduce
I0403 19:46:34.179473  9656 net.cpp:91] Creating Layer inception_4b/relu_3x3_reduce
I0403 19:46:34.179489  9656 net.cpp:425] inception_4b/relu_3x3_reduce <- inception_4b/3x3_reduce
I0403 19:46:34.179509  9656 net.cpp:386] inception_4b/relu_3x3_reduce -> inception_4b/3x3_reduce (in-place)
I0403 19:46:34.179791  9656 net.cpp:141] Setting up inception_4b/relu_3x3_reduce
I0403 19:46:34.179821  9656 net.cpp:148] Top shape: 24 112 14 14 (526848)
I0403 19:46:34.179836  9656 net.cpp:156] Memory required for data: 956439840
I0403 19:46:34.179850  9656 layer_factory.hpp:77] Creating layer inception_4b/3x3
I0403 19:46:34.179872  9656 net.cpp:91] Creating Layer inception_4b/3x3
I0403 19:46:34.179888  9656 net.cpp:425] inception_4b/3x3 <- inception_4b/3x3_reduce
I0403 19:46:34.179906  9656 net.cpp:399] inception_4b/3x3 -> inception_4b/3x3
I0403 19:46:34.182941  9656 net.cpp:141] Setting up inception_4b/3x3
I0403 19:46:34.182971  9656 net.cpp:148] Top shape: 24 224 14 14 (1053696)
I0403 19:46:34.182987  9656 net.cpp:156] Memory required for data: 960654624
I0403 19:46:34.183006  9656 layer_factory.hpp:77] Creating layer inception_4b/relu_3x3
I0403 19:46:34.183025  9656 net.cpp:91] Creating Layer inception_4b/relu_3x3
I0403 19:46:34.183040  9656 net.cpp:425] inception_4b/relu_3x3 <- inception_4b/3x3
I0403 19:46:34.183058  9656 net.cpp:386] inception_4b/relu_3x3 -> inception_4b/3x3 (in-place)
I0403 19:46:34.183248  9656 net.cpp:141] Setting up inception_4b/relu_3x3
I0403 19:46:34.183276  9656 net.cpp:148] Top shape: 24 224 14 14 (1053696)
I0403 19:46:34.183292  9656 net.cpp:156] Memory required for data: 964869408
I0403 19:46:34.183306  9656 layer_factory.hpp:77] Creating layer inception_4b/5x5_reduce
I0403 19:46:34.183331  9656 net.cpp:91] Creating Layer inception_4b/5x5_reduce
I0403 19:46:34.183349  9656 net.cpp:425] inception_4b/5x5_reduce <- inception_4a/output_inception_4a/output_0_split_3
I0403 19:46:34.183369  9656 net.cpp:399] inception_4b/5x5_reduce -> inception_4b/5x5_reduce
I0403 19:46:34.184479  9656 net.cpp:141] Setting up inception_4b/5x5_reduce
I0403 19:46:34.184509  9656 net.cpp:148] Top shape: 24 24 14 14 (112896)
I0403 19:46:34.184525  9656 net.cpp:156] Memory required for data: 965320992
I0403 19:46:34.184545  9656 layer_factory.hpp:77] Creating layer inception_4b/relu_5x5_reduce
I0403 19:46:34.184562  9656 net.cpp:91] Creating Layer inception_4b/relu_5x5_reduce
I0403 19:46:34.184593  9656 net.cpp:425] inception_4b/relu_5x5_reduce <- inception_4b/5x5_reduce
I0403 19:46:34.184614  9656 net.cpp:386] inception_4b/relu_5x5_reduce -> inception_4b/5x5_reduce (in-place)
I0403 19:46:34.184803  9656 net.cpp:141] Setting up inception_4b/relu_5x5_reduce
I0403 19:46:34.184828  9656 net.cpp:148] Top shape: 24 24 14 14 (112896)
I0403 19:46:34.184842  9656 net.cpp:156] Memory required for data: 965772576
I0403 19:46:34.184859  9656 layer_factory.hpp:77] Creating layer inception_4b/5x5
I0403 19:46:34.184880  9656 net.cpp:91] Creating Layer inception_4b/5x5
I0403 19:46:34.184897  9656 net.cpp:425] inception_4b/5x5 <- inception_4b/5x5_reduce
I0403 19:46:34.184918  9656 net.cpp:399] inception_4b/5x5 -> inception_4b/5x5
I0403 19:46:34.186179  9656 net.cpp:141] Setting up inception_4b/5x5
I0403 19:46:34.186210  9656 net.cpp:148] Top shape: 24 64 14 14 (301056)
I0403 19:46:34.186228  9656 net.cpp:156] Memory required for data: 966976800
I0403 19:46:34.186246  9656 layer_factory.hpp:77] Creating layer inception_4b/relu_5x5
I0403 19:46:34.186264  9656 net.cpp:91] Creating Layer inception_4b/relu_5x5
I0403 19:46:34.186285  9656 net.cpp:425] inception_4b/relu_5x5 <- inception_4b/5x5
I0403 19:46:34.186302  9656 net.cpp:386] inception_4b/relu_5x5 -> inception_4b/5x5 (in-place)
I0403 19:46:34.186594  9656 net.cpp:141] Setting up inception_4b/relu_5x5
I0403 19:46:34.186622  9656 net.cpp:148] Top shape: 24 64 14 14 (301056)
I0403 19:46:34.186638  9656 net.cpp:156] Memory required for data: 968181024
I0403 19:46:34.186653  9656 layer_factory.hpp:77] Creating layer inception_4b/pool
I0403 19:46:34.186672  9656 net.cpp:91] Creating Layer inception_4b/pool
I0403 19:46:34.186687  9656 net.cpp:425] inception_4b/pool <- inception_4a/output_inception_4a/output_0_split_4
I0403 19:46:34.186707  9656 net.cpp:399] inception_4b/pool -> inception_4b/pool
I0403 19:46:34.186779  9656 net.cpp:141] Setting up inception_4b/pool
I0403 19:46:34.186802  9656 net.cpp:148] Top shape: 24 512 14 14 (2408448)
I0403 19:46:34.186816  9656 net.cpp:156] Memory required for data: 977814816
I0403 19:46:34.186830  9656 layer_factory.hpp:77] Creating layer inception_4b/pool_proj
I0403 19:46:34.186852  9656 net.cpp:91] Creating Layer inception_4b/pool_proj
I0403 19:46:34.186871  9656 net.cpp:425] inception_4b/pool_proj <- inception_4b/pool
I0403 19:46:34.186892  9656 net.cpp:399] inception_4b/pool_proj -> inception_4b/pool_proj
I0403 19:46:34.188122  9656 net.cpp:141] Setting up inception_4b/pool_proj
I0403 19:46:34.188153  9656 net.cpp:148] Top shape: 24 64 14 14 (301056)
I0403 19:46:34.188169  9656 net.cpp:156] Memory required for data: 979019040
I0403 19:46:34.188187  9656 layer_factory.hpp:77] Creating layer inception_4b/relu_pool_proj
I0403 19:46:34.188205  9656 net.cpp:91] Creating Layer inception_4b/relu_pool_proj
I0403 19:46:34.188222  9656 net.cpp:425] inception_4b/relu_pool_proj <- inception_4b/pool_proj
I0403 19:46:34.188240  9656 net.cpp:386] inception_4b/relu_pool_proj -> inception_4b/pool_proj (in-place)
I0403 19:46:34.188429  9656 net.cpp:141] Setting up inception_4b/relu_pool_proj
I0403 19:46:34.188454  9656 net.cpp:148] Top shape: 24 64 14 14 (301056)
I0403 19:46:34.188469  9656 net.cpp:156] Memory required for data: 980223264
I0403 19:46:34.188483  9656 layer_factory.hpp:77] Creating layer inception_4b/output
I0403 19:46:34.188501  9656 net.cpp:91] Creating Layer inception_4b/output
I0403 19:46:34.188516  9656 net.cpp:425] inception_4b/output <- inception_4b/1x1
I0403 19:46:34.188532  9656 net.cpp:425] inception_4b/output <- inception_4b/3x3
I0403 19:46:34.188549  9656 net.cpp:425] inception_4b/output <- inception_4b/5x5
I0403 19:46:34.188563  9656 net.cpp:425] inception_4b/output <- inception_4b/pool_proj
I0403 19:46:34.188582  9656 net.cpp:399] inception_4b/output -> inception_4b/output
I0403 19:46:34.188628  9656 net.cpp:141] Setting up inception_4b/output
I0403 19:46:34.188653  9656 net.cpp:148] Top shape: 24 512 14 14 (2408448)
I0403 19:46:34.188668  9656 net.cpp:156] Memory required for data: 989857056
I0403 19:46:34.188697  9656 layer_factory.hpp:77] Creating layer inception_4b/output_inception_4b/output_0_split
I0403 19:46:34.188715  9656 net.cpp:91] Creating Layer inception_4b/output_inception_4b/output_0_split
I0403 19:46:34.188730  9656 net.cpp:425] inception_4b/output_inception_4b/output_0_split <- inception_4b/output
I0403 19:46:34.188750  9656 net.cpp:399] inception_4b/output_inception_4b/output_0_split -> inception_4b/output_inception_4b/output_0_split_0
I0403 19:46:34.188771  9656 net.cpp:399] inception_4b/output_inception_4b/output_0_split -> inception_4b/output_inception_4b/output_0_split_1
I0403 19:46:34.188789  9656 net.cpp:399] inception_4b/output_inception_4b/output_0_split -> inception_4b/output_inception_4b/output_0_split_2
I0403 19:46:34.188809  9656 net.cpp:399] inception_4b/output_inception_4b/output_0_split -> inception_4b/output_inception_4b/output_0_split_3
I0403 19:46:34.188892  9656 net.cpp:141] Setting up inception_4b/output_inception_4b/output_0_split
I0403 19:46:34.188915  9656 net.cpp:148] Top shape: 24 512 14 14 (2408448)
I0403 19:46:34.188931  9656 net.cpp:148] Top shape: 24 512 14 14 (2408448)
I0403 19:46:34.188946  9656 net.cpp:148] Top shape: 24 512 14 14 (2408448)
I0403 19:46:34.188961  9656 net.cpp:148] Top shape: 24 512 14 14 (2408448)
I0403 19:46:34.188974  9656 net.cpp:156] Memory required for data: 1028392224
I0403 19:46:34.188989  9656 layer_factory.hpp:77] Creating layer inception_4c/1x1
I0403 19:46:34.189010  9656 net.cpp:91] Creating Layer inception_4c/1x1
I0403 19:46:34.189028  9656 net.cpp:425] inception_4c/1x1 <- inception_4b/output_inception_4b/output_0_split_0
I0403 19:46:34.189049  9656 net.cpp:399] inception_4c/1x1 -> inception_4c/1x1
I0403 19:46:34.190513  9656 net.cpp:141] Setting up inception_4c/1x1
I0403 19:46:34.190541  9656 net.cpp:148] Top shape: 24 128 14 14 (602112)
I0403 19:46:34.190557  9656 net.cpp:156] Memory required for data: 1030800672
I0403 19:46:34.190577  9656 layer_factory.hpp:77] Creating layer inception_4c/relu_1x1
I0403 19:46:34.190595  9656 net.cpp:91] Creating Layer inception_4c/relu_1x1
I0403 19:46:34.190613  9656 net.cpp:425] inception_4c/relu_1x1 <- inception_4c/1x1
I0403 19:46:34.190629  9656 net.cpp:386] inception_4c/relu_1x1 -> inception_4c/1x1 (in-place)
I0403 19:46:34.190811  9656 net.cpp:141] Setting up inception_4c/relu_1x1
I0403 19:46:34.190836  9656 net.cpp:148] Top shape: 24 128 14 14 (602112)
I0403 19:46:34.190851  9656 net.cpp:156] Memory required for data: 1033209120
I0403 19:46:34.190866  9656 layer_factory.hpp:77] Creating layer inception_4c/3x3_reduce
I0403 19:46:34.190888  9656 net.cpp:91] Creating Layer inception_4c/3x3_reduce
I0403 19:46:34.190907  9656 net.cpp:425] inception_4c/3x3_reduce <- inception_4b/output_inception_4b/output_0_split_1
I0403 19:46:34.190925  9656 net.cpp:399] inception_4c/3x3_reduce -> inception_4c/3x3_reduce
I0403 19:46:34.192893  9656 net.cpp:141] Setting up inception_4c/3x3_reduce
I0403 19:46:34.192922  9656 net.cpp:148] Top shape: 24 128 14 14 (602112)
I0403 19:46:34.192939  9656 net.cpp:156] Memory required for data: 1035617568
I0403 19:46:34.192956  9656 layer_factory.hpp:77] Creating layer inception_4c/relu_3x3_reduce
I0403 19:46:34.192976  9656 net.cpp:91] Creating Layer inception_4c/relu_3x3_reduce
I0403 19:46:34.192994  9656 net.cpp:425] inception_4c/relu_3x3_reduce <- inception_4c/3x3_reduce
I0403 19:46:34.193012  9656 net.cpp:386] inception_4c/relu_3x3_reduce -> inception_4c/3x3_reduce (in-place)
I0403 19:46:34.193307  9656 net.cpp:141] Setting up inception_4c/relu_3x3_reduce
I0403 19:46:34.193334  9656 net.cpp:148] Top shape: 24 128 14 14 (602112)
I0403 19:46:34.193349  9656 net.cpp:156] Memory required for data: 1038026016
I0403 19:46:34.193363  9656 layer_factory.hpp:77] Creating layer inception_4c/3x3
I0403 19:46:34.193388  9656 net.cpp:91] Creating Layer inception_4c/3x3
I0403 19:46:34.193405  9656 net.cpp:425] inception_4c/3x3 <- inception_4c/3x3_reduce
I0403 19:46:34.193424  9656 net.cpp:399] inception_4c/3x3 -> inception_4c/3x3
I0403 19:46:34.197165  9656 net.cpp:141] Setting up inception_4c/3x3
I0403 19:46:34.197207  9656 net.cpp:148] Top shape: 24 256 14 14 (1204224)
I0403 19:46:34.197223  9656 net.cpp:156] Memory required for data: 1042842912
I0403 19:46:34.197255  9656 layer_factory.hpp:77] Creating layer inception_4c/relu_3x3
I0403 19:46:34.197281  9656 net.cpp:91] Creating Layer inception_4c/relu_3x3
I0403 19:46:34.197299  9656 net.cpp:425] inception_4c/relu_3x3 <- inception_4c/3x3
I0403 19:46:34.197316  9656 net.cpp:386] inception_4c/relu_3x3 -> inception_4c/3x3 (in-place)
I0403 19:46:34.197499  9656 net.cpp:141] Setting up inception_4c/relu_3x3
I0403 19:46:34.197537  9656 net.cpp:148] Top shape: 24 256 14 14 (1204224)
I0403 19:46:34.197554  9656 net.cpp:156] Memory required for data: 1047659808
I0403 19:46:34.197569  9656 layer_factory.hpp:77] Creating layer inception_4c/5x5_reduce
I0403 19:46:34.197592  9656 net.cpp:91] Creating Layer inception_4c/5x5_reduce
I0403 19:46:34.197612  9656 net.cpp:425] inception_4c/5x5_reduce <- inception_4b/output_inception_4b/output_0_split_2
I0403 19:46:34.197630  9656 net.cpp:399] inception_4c/5x5_reduce -> inception_4c/5x5_reduce
I0403 19:46:34.198707  9656 net.cpp:141] Setting up inception_4c/5x5_reduce
I0403 19:46:34.198740  9656 net.cpp:148] Top shape: 24 24 14 14 (112896)
I0403 19:46:34.198756  9656 net.cpp:156] Memory required for data: 1048111392
I0403 19:46:34.198775  9656 layer_factory.hpp:77] Creating layer inception_4c/relu_5x5_reduce
I0403 19:46:34.198791  9656 net.cpp:91] Creating Layer inception_4c/relu_5x5_reduce
I0403 19:46:34.198807  9656 net.cpp:425] inception_4c/relu_5x5_reduce <- inception_4c/5x5_reduce
I0403 19:46:34.198825  9656 net.cpp:386] inception_4c/relu_5x5_reduce -> inception_4c/5x5_reduce (in-place)
I0403 19:46:34.199007  9656 net.cpp:141] Setting up inception_4c/relu_5x5_reduce
I0403 19:46:34.199030  9656 net.cpp:148] Top shape: 24 24 14 14 (112896)
I0403 19:46:34.199044  9656 net.cpp:156] Memory required for data: 1048562976
I0403 19:46:34.199059  9656 layer_factory.hpp:77] Creating layer inception_4c/5x5
I0403 19:46:34.199080  9656 net.cpp:91] Creating Layer inception_4c/5x5
I0403 19:46:34.199096  9656 net.cpp:425] inception_4c/5x5 <- inception_4c/5x5_reduce
I0403 19:46:34.199117  9656 net.cpp:399] inception_4c/5x5 -> inception_4c/5x5
I0403 19:46:34.200350  9656 net.cpp:141] Setting up inception_4c/5x5
I0403 19:46:34.200377  9656 net.cpp:148] Top shape: 24 64 14 14 (301056)
I0403 19:46:34.200392  9656 net.cpp:156] Memory required for data: 1049767200
I0403 19:46:34.200410  9656 layer_factory.hpp:77] Creating layer inception_4c/relu_5x5
I0403 19:46:34.200430  9656 net.cpp:91] Creating Layer inception_4c/relu_5x5
I0403 19:46:34.200446  9656 net.cpp:425] inception_4c/relu_5x5 <- inception_4c/5x5
I0403 19:46:34.200464  9656 net.cpp:386] inception_4c/relu_5x5 -> inception_4c/5x5 (in-place)
I0403 19:46:34.200769  9656 net.cpp:141] Setting up inception_4c/relu_5x5
I0403 19:46:34.200795  9656 net.cpp:148] Top shape: 24 64 14 14 (301056)
I0403 19:46:34.200809  9656 net.cpp:156] Memory required for data: 1050971424
I0403 19:46:34.200824  9656 layer_factory.hpp:77] Creating layer inception_4c/pool
I0403 19:46:34.200841  9656 net.cpp:91] Creating Layer inception_4c/pool
I0403 19:46:34.200856  9656 net.cpp:425] inception_4c/pool <- inception_4b/output_inception_4b/output_0_split_3
I0403 19:46:34.200875  9656 net.cpp:399] inception_4c/pool -> inception_4c/pool
I0403 19:46:34.200940  9656 net.cpp:141] Setting up inception_4c/pool
I0403 19:46:34.200965  9656 net.cpp:148] Top shape: 24 512 14 14 (2408448)
I0403 19:46:34.200980  9656 net.cpp:156] Memory required for data: 1060605216
I0403 19:46:34.200994  9656 layer_factory.hpp:77] Creating layer inception_4c/pool_proj
I0403 19:46:34.201015  9656 net.cpp:91] Creating Layer inception_4c/pool_proj
I0403 19:46:34.201031  9656 net.cpp:425] inception_4c/pool_proj <- inception_4c/pool
I0403 19:46:34.201048  9656 net.cpp:399] inception_4c/pool_proj -> inception_4c/pool_proj
I0403 19:46:34.202262  9656 net.cpp:141] Setting up inception_4c/pool_proj
I0403 19:46:34.202303  9656 net.cpp:148] Top shape: 24 64 14 14 (301056)
I0403 19:46:34.202332  9656 net.cpp:156] Memory required for data: 1061809440
I0403 19:46:34.202352  9656 layer_factory.hpp:77] Creating layer inception_4c/relu_pool_proj
I0403 19:46:34.202368  9656 net.cpp:91] Creating Layer inception_4c/relu_pool_proj
I0403 19:46:34.202383  9656 net.cpp:425] inception_4c/relu_pool_proj <- inception_4c/pool_proj
I0403 19:46:34.202399  9656 net.cpp:386] inception_4c/relu_pool_proj -> inception_4c/pool_proj (in-place)
I0403 19:46:34.202584  9656 net.cpp:141] Setting up inception_4c/relu_pool_proj
I0403 19:46:34.202610  9656 net.cpp:148] Top shape: 24 64 14 14 (301056)
I0403 19:46:34.202623  9656 net.cpp:156] Memory required for data: 1063013664
I0403 19:46:34.202638  9656 layer_factory.hpp:77] Creating layer inception_4c/output
I0403 19:46:34.202654  9656 net.cpp:91] Creating Layer inception_4c/output
I0403 19:46:34.202671  9656 net.cpp:425] inception_4c/output <- inception_4c/1x1
I0403 19:46:34.202687  9656 net.cpp:425] inception_4c/output <- inception_4c/3x3
I0403 19:46:34.202702  9656 net.cpp:425] inception_4c/output <- inception_4c/5x5
I0403 19:46:34.202731  9656 net.cpp:425] inception_4c/output <- inception_4c/pool_proj
I0403 19:46:34.202751  9656 net.cpp:399] inception_4c/output -> inception_4c/output
I0403 19:46:34.202800  9656 net.cpp:141] Setting up inception_4c/output
I0403 19:46:34.202826  9656 net.cpp:148] Top shape: 24 512 14 14 (2408448)
I0403 19:46:34.202842  9656 net.cpp:156] Memory required for data: 1072647456
I0403 19:46:34.202857  9656 layer_factory.hpp:77] Creating layer inception_4c/output_inception_4c/output_0_split
I0403 19:46:34.202875  9656 net.cpp:91] Creating Layer inception_4c/output_inception_4c/output_0_split
I0403 19:46:34.202891  9656 net.cpp:425] inception_4c/output_inception_4c/output_0_split <- inception_4c/output
I0403 19:46:34.202908  9656 net.cpp:399] inception_4c/output_inception_4c/output_0_split -> inception_4c/output_inception_4c/output_0_split_0
I0403 19:46:34.202934  9656 net.cpp:399] inception_4c/output_inception_4c/output_0_split -> inception_4c/output_inception_4c/output_0_split_1
I0403 19:46:34.202955  9656 net.cpp:399] inception_4c/output_inception_4c/output_0_split -> inception_4c/output_inception_4c/output_0_split_2
I0403 19:46:34.202973  9656 net.cpp:399] inception_4c/output_inception_4c/output_0_split -> inception_4c/output_inception_4c/output_0_split_3
I0403 19:46:34.203060  9656 net.cpp:141] Setting up inception_4c/output_inception_4c/output_0_split
I0403 19:46:34.203083  9656 net.cpp:148] Top shape: 24 512 14 14 (2408448)
I0403 19:46:34.203099  9656 net.cpp:148] Top shape: 24 512 14 14 (2408448)
I0403 19:46:34.203114  9656 net.cpp:148] Top shape: 24 512 14 14 (2408448)
I0403 19:46:34.203130  9656 net.cpp:148] Top shape: 24 512 14 14 (2408448)
I0403 19:46:34.203143  9656 net.cpp:156] Memory required for data: 1111182624
I0403 19:46:34.203157  9656 layer_factory.hpp:77] Creating layer inception_4d/1x1
I0403 19:46:34.203179  9656 net.cpp:91] Creating Layer inception_4d/1x1
I0403 19:46:34.203197  9656 net.cpp:425] inception_4d/1x1 <- inception_4c/output_inception_4c/output_0_split_0
I0403 19:46:34.203217  9656 net.cpp:399] inception_4d/1x1 -> inception_4d/1x1
I0403 19:46:34.204682  9656 net.cpp:141] Setting up inception_4d/1x1
I0403 19:46:34.204712  9656 net.cpp:148] Top shape: 24 112 14 14 (526848)
I0403 19:46:34.204733  9656 net.cpp:156] Memory required for data: 1113290016
I0403 19:46:34.204753  9656 layer_factory.hpp:77] Creating layer inception_4d/relu_1x1
I0403 19:46:34.204776  9656 net.cpp:91] Creating Layer inception_4d/relu_1x1
I0403 19:46:34.204794  9656 net.cpp:425] inception_4d/relu_1x1 <- inception_4d/1x1
I0403 19:46:34.204814  9656 net.cpp:386] inception_4d/relu_1x1 -> inception_4d/1x1 (in-place)
I0403 19:46:34.205024  9656 net.cpp:141] Setting up inception_4d/relu_1x1
I0403 19:46:34.205052  9656 net.cpp:148] Top shape: 24 112 14 14 (526848)
I0403 19:46:34.205068  9656 net.cpp:156] Memory required for data: 1115397408
I0403 19:46:34.205085  9656 layer_factory.hpp:77] Creating layer inception_4d/3x3_reduce
I0403 19:46:34.205132  9656 net.cpp:91] Creating Layer inception_4d/3x3_reduce
I0403 19:46:34.205152  9656 net.cpp:425] inception_4d/3x3_reduce <- inception_4c/output_inception_4c/output_0_split_1
I0403 19:46:34.205176  9656 net.cpp:399] inception_4d/3x3_reduce -> inception_4d/3x3_reduce
I0403 19:46:34.206859  9656 net.cpp:141] Setting up inception_4d/3x3_reduce
I0403 19:46:34.206888  9656 net.cpp:148] Top shape: 24 144 14 14 (677376)
I0403 19:46:34.206904  9656 net.cpp:156] Memory required for data: 1118106912
I0403 19:46:34.206923  9656 layer_factory.hpp:77] Creating layer inception_4d/relu_3x3_reduce
I0403 19:46:34.206943  9656 net.cpp:91] Creating Layer inception_4d/relu_3x3_reduce
I0403 19:46:34.206959  9656 net.cpp:425] inception_4d/relu_3x3_reduce <- inception_4d/3x3_reduce
I0403 19:46:34.206979  9656 net.cpp:386] inception_4d/relu_3x3_reduce -> inception_4d/3x3_reduce (in-place)
I0403 19:46:34.207290  9656 net.cpp:141] Setting up inception_4d/relu_3x3_reduce
I0403 19:46:34.207319  9656 net.cpp:148] Top shape: 24 144 14 14 (677376)
I0403 19:46:34.207334  9656 net.cpp:156] Memory required for data: 1120816416
I0403 19:46:34.207350  9656 layer_factory.hpp:77] Creating layer inception_4d/3x3
I0403 19:46:34.207373  9656 net.cpp:91] Creating Layer inception_4d/3x3
I0403 19:46:34.207391  9656 net.cpp:425] inception_4d/3x3 <- inception_4d/3x3_reduce
I0403 19:46:34.207414  9656 net.cpp:399] inception_4d/3x3 -> inception_4d/3x3
I0403 19:46:34.211886  9656 net.cpp:141] Setting up inception_4d/3x3
I0403 19:46:34.211917  9656 net.cpp:148] Top shape: 24 288 14 14 (1354752)
I0403 19:46:34.211935  9656 net.cpp:156] Memory required for data: 1126235424
I0403 19:46:34.211953  9656 layer_factory.hpp:77] Creating layer inception_4d/relu_3x3
I0403 19:46:34.211974  9656 net.cpp:91] Creating Layer inception_4d/relu_3x3
I0403 19:46:34.211993  9656 net.cpp:425] inception_4d/relu_3x3 <- inception_4d/3x3
I0403 19:46:34.212012  9656 net.cpp:386] inception_4d/relu_3x3 -> inception_4d/3x3 (in-place)
I0403 19:46:34.212201  9656 net.cpp:141] Setting up inception_4d/relu_3x3
I0403 19:46:34.212229  9656 net.cpp:148] Top shape: 24 288 14 14 (1354752)
I0403 19:46:34.212244  9656 net.cpp:156] Memory required for data: 1131654432
I0403 19:46:34.212260  9656 layer_factory.hpp:77] Creating layer inception_4d/5x5_reduce
I0403 19:46:34.212297  9656 net.cpp:91] Creating Layer inception_4d/5x5_reduce
I0403 19:46:34.212318  9656 net.cpp:425] inception_4d/5x5_reduce <- inception_4c/output_inception_4c/output_0_split_2
I0403 19:46:34.212338  9656 net.cpp:399] inception_4d/5x5_reduce -> inception_4d/5x5_reduce
I0403 19:46:34.213543  9656 net.cpp:141] Setting up inception_4d/5x5_reduce
I0403 19:46:34.213572  9656 net.cpp:148] Top shape: 24 32 14 14 (150528)
I0403 19:46:34.213587  9656 net.cpp:156] Memory required for data: 1132256544
I0403 19:46:34.213606  9656 layer_factory.hpp:77] Creating layer inception_4d/relu_5x5_reduce
I0403 19:46:34.213626  9656 net.cpp:91] Creating Layer inception_4d/relu_5x5_reduce
I0403 19:46:34.213644  9656 net.cpp:425] inception_4d/relu_5x5_reduce <- inception_4d/5x5_reduce
I0403 19:46:34.213661  9656 net.cpp:386] inception_4d/relu_5x5_reduce -> inception_4d/5x5_reduce (in-place)
I0403 19:46:34.213858  9656 net.cpp:141] Setting up inception_4d/relu_5x5_reduce
I0403 19:46:34.213889  9656 net.cpp:148] Top shape: 24 32 14 14 (150528)
I0403 19:46:34.213906  9656 net.cpp:156] Memory required for data: 1132858656
I0403 19:46:34.213922  9656 layer_factory.hpp:77] Creating layer inception_4d/5x5
I0403 19:46:34.213943  9656 net.cpp:91] Creating Layer inception_4d/5x5
I0403 19:46:34.213960  9656 net.cpp:425] inception_4d/5x5 <- inception_4d/5x5_reduce
I0403 19:46:34.213979  9656 net.cpp:399] inception_4d/5x5 -> inception_4d/5x5
I0403 19:46:34.215525  9656 net.cpp:141] Setting up inception_4d/5x5
I0403 19:46:34.215558  9656 net.cpp:148] Top shape: 24 64 14 14 (301056)
I0403 19:46:34.215574  9656 net.cpp:156] Memory required for data: 1134062880
I0403 19:46:34.215595  9656 layer_factory.hpp:77] Creating layer inception_4d/relu_5x5
I0403 19:46:34.215626  9656 net.cpp:91] Creating Layer inception_4d/relu_5x5
I0403 19:46:34.215644  9656 net.cpp:425] inception_4d/relu_5x5 <- inception_4d/5x5
I0403 19:46:34.215664  9656 net.cpp:386] inception_4d/relu_5x5 -> inception_4d/5x5 (in-place)
I0403 19:46:34.215977  9656 net.cpp:141] Setting up inception_4d/relu_5x5
I0403 19:46:34.216007  9656 net.cpp:148] Top shape: 24 64 14 14 (301056)
I0403 19:46:34.216024  9656 net.cpp:156] Memory required for data: 1135267104
I0403 19:46:34.216039  9656 layer_factory.hpp:77] Creating layer inception_4d/pool
I0403 19:46:34.216058  9656 net.cpp:91] Creating Layer inception_4d/pool
I0403 19:46:34.216074  9656 net.cpp:425] inception_4d/pool <- inception_4c/output_inception_4c/output_0_split_3
I0403 19:46:34.216095  9656 net.cpp:399] inception_4d/pool -> inception_4d/pool
I0403 19:46:34.216166  9656 net.cpp:141] Setting up inception_4d/pool
I0403 19:46:34.216192  9656 net.cpp:148] Top shape: 24 512 14 14 (2408448)
I0403 19:46:34.216207  9656 net.cpp:156] Memory required for data: 1144900896
I0403 19:46:34.216222  9656 layer_factory.hpp:77] Creating layer inception_4d/pool_proj
I0403 19:46:34.216241  9656 net.cpp:91] Creating Layer inception_4d/pool_proj
I0403 19:46:34.216259  9656 net.cpp:425] inception_4d/pool_proj <- inception_4d/pool
I0403 19:46:34.216287  9656 net.cpp:399] inception_4d/pool_proj -> inception_4d/pool_proj
I0403 19:46:34.218140  9656 net.cpp:141] Setting up inception_4d/pool_proj
I0403 19:46:34.218171  9656 net.cpp:148] Top shape: 24 64 14 14 (301056)
I0403 19:46:34.218189  9656 net.cpp:156] Memory required for data: 1146105120
I0403 19:46:34.218209  9656 layer_factory.hpp:77] Creating layer inception_4d/relu_pool_proj
I0403 19:46:34.218230  9656 net.cpp:91] Creating Layer inception_4d/relu_pool_proj
I0403 19:46:34.218247  9656 net.cpp:425] inception_4d/relu_pool_proj <- inception_4d/pool_proj
I0403 19:46:34.218264  9656 net.cpp:386] inception_4d/relu_pool_proj -> inception_4d/pool_proj (in-place)
I0403 19:46:34.218474  9656 net.cpp:141] Setting up inception_4d/relu_pool_proj
I0403 19:46:34.218503  9656 net.cpp:148] Top shape: 24 64 14 14 (301056)
I0403 19:46:34.218521  9656 net.cpp:156] Memory required for data: 1147309344
I0403 19:46:34.218538  9656 layer_factory.hpp:77] Creating layer inception_4d/output
I0403 19:46:34.218555  9656 net.cpp:91] Creating Layer inception_4d/output
I0403 19:46:34.218571  9656 net.cpp:425] inception_4d/output <- inception_4d/1x1
I0403 19:46:34.218588  9656 net.cpp:425] inception_4d/output <- inception_4d/3x3
I0403 19:46:34.218605  9656 net.cpp:425] inception_4d/output <- inception_4d/5x5
I0403 19:46:34.218621  9656 net.cpp:425] inception_4d/output <- inception_4d/pool_proj
I0403 19:46:34.218639  9656 net.cpp:399] inception_4d/output -> inception_4d/output
I0403 19:46:34.218693  9656 net.cpp:141] Setting up inception_4d/output
I0403 19:46:34.218716  9656 net.cpp:148] Top shape: 24 528 14 14 (2483712)
I0403 19:46:34.218731  9656 net.cpp:156] Memory required for data: 1157244192
I0403 19:46:34.218746  9656 layer_factory.hpp:77] Creating layer inception_4d/output_inception_4d/output_0_split
I0403 19:46:34.218768  9656 net.cpp:91] Creating Layer inception_4d/output_inception_4d/output_0_split
I0403 19:46:34.218786  9656 net.cpp:425] inception_4d/output_inception_4d/output_0_split <- inception_4d/output
I0403 19:46:34.218804  9656 net.cpp:399] inception_4d/output_inception_4d/output_0_split -> inception_4d/output_inception_4d/output_0_split_0
I0403 19:46:34.218825  9656 net.cpp:399] inception_4d/output_inception_4d/output_0_split -> inception_4d/output_inception_4d/output_0_split_1
I0403 19:46:34.218845  9656 net.cpp:399] inception_4d/output_inception_4d/output_0_split -> inception_4d/output_inception_4d/output_0_split_2
I0403 19:46:34.218869  9656 net.cpp:399] inception_4d/output_inception_4d/output_0_split -> inception_4d/output_inception_4d/output_0_split_3
I0403 19:46:34.218894  9656 net.cpp:399] inception_4d/output_inception_4d/output_0_split -> inception_4d/output_inception_4d/output_0_split_4
I0403 19:46:34.219005  9656 net.cpp:141] Setting up inception_4d/output_inception_4d/output_0_split
I0403 19:46:34.219044  9656 net.cpp:148] Top shape: 24 528 14 14 (2483712)
I0403 19:46:34.219061  9656 net.cpp:148] Top shape: 24 528 14 14 (2483712)
I0403 19:46:34.219079  9656 net.cpp:148] Top shape: 24 528 14 14 (2483712)
I0403 19:46:34.219095  9656 net.cpp:148] Top shape: 24 528 14 14 (2483712)
I0403 19:46:34.219111  9656 net.cpp:148] Top shape: 24 528 14 14 (2483712)
I0403 19:46:34.219125  9656 net.cpp:156] Memory required for data: 1206918432
I0403 19:46:34.219141  9656 layer_factory.hpp:77] Creating layer loss2/ave_pool
I0403 19:46:34.219161  9656 net.cpp:91] Creating Layer loss2/ave_pool
I0403 19:46:34.219179  9656 net.cpp:425] loss2/ave_pool <- inception_4d/output_inception_4d/output_0_split_0
I0403 19:46:34.219199  9656 net.cpp:399] loss2/ave_pool -> loss2/ave_pool
I0403 19:46:34.219545  9656 net.cpp:141] Setting up loss2/ave_pool
I0403 19:46:34.219573  9656 net.cpp:148] Top shape: 24 528 4 4 (202752)
I0403 19:46:34.219589  9656 net.cpp:156] Memory required for data: 1207729440
I0403 19:46:34.219605  9656 layer_factory.hpp:77] Creating layer loss2/conv
I0403 19:46:34.219631  9656 net.cpp:91] Creating Layer loss2/conv
I0403 19:46:34.219651  9656 net.cpp:425] loss2/conv <- loss2/ave_pool
I0403 19:46:34.219671  9656 net.cpp:399] loss2/conv -> loss2/conv
I0403 19:46:34.221700  9656 net.cpp:141] Setting up loss2/conv
I0403 19:46:34.221730  9656 net.cpp:148] Top shape: 24 128 4 4 (49152)
I0403 19:46:34.221747  9656 net.cpp:156] Memory required for data: 1207926048
I0403 19:46:34.221767  9656 layer_factory.hpp:77] Creating layer loss2/relu_conv
I0403 19:46:34.221786  9656 net.cpp:91] Creating Layer loss2/relu_conv
I0403 19:46:34.221802  9656 net.cpp:425] loss2/relu_conv <- loss2/conv
I0403 19:46:34.221822  9656 net.cpp:386] loss2/relu_conv -> loss2/conv (in-place)
I0403 19:46:34.222128  9656 net.cpp:141] Setting up loss2/relu_conv
I0403 19:46:34.222157  9656 net.cpp:148] Top shape: 24 128 4 4 (49152)
I0403 19:46:34.222173  9656 net.cpp:156] Memory required for data: 1208122656
I0403 19:46:34.222188  9656 layer_factory.hpp:77] Creating layer loss2/fc
I0403 19:46:34.222208  9656 net.cpp:91] Creating Layer loss2/fc
I0403 19:46:34.222225  9656 net.cpp:425] loss2/fc <- loss2/conv
I0403 19:46:34.222247  9656 net.cpp:399] loss2/fc -> loss2/fc
I0403 19:46:34.241142  9656 net.cpp:141] Setting up loss2/fc
I0403 19:46:34.241186  9656 net.cpp:148] Top shape: 24 1024 (24576)
I0403 19:46:34.241202  9656 net.cpp:156] Memory required for data: 1208220960
I0403 19:46:34.241225  9656 layer_factory.hpp:77] Creating layer loss2/relu_fc
I0403 19:46:34.241245  9656 net.cpp:91] Creating Layer loss2/relu_fc
I0403 19:46:34.241264  9656 net.cpp:425] loss2/relu_fc <- loss2/fc
I0403 19:46:34.241291  9656 net.cpp:386] loss2/relu_fc -> loss2/fc (in-place)
I0403 19:46:34.241699  9656 net.cpp:141] Setting up loss2/relu_fc
I0403 19:46:34.241729  9656 net.cpp:148] Top shape: 24 1024 (24576)
I0403 19:46:34.241745  9656 net.cpp:156] Memory required for data: 1208319264
I0403 19:46:34.241761  9656 layer_factory.hpp:77] Creating layer loss2/drop_fc
I0403 19:46:34.241780  9656 net.cpp:91] Creating Layer loss2/drop_fc
I0403 19:46:34.241796  9656 net.cpp:425] loss2/drop_fc <- loss2/fc
I0403 19:46:34.241813  9656 net.cpp:386] loss2/drop_fc -> loss2/fc (in-place)
I0403 19:46:34.241868  9656 net.cpp:141] Setting up loss2/drop_fc
I0403 19:46:34.241891  9656 net.cpp:148] Top shape: 24 1024 (24576)
I0403 19:46:34.241906  9656 net.cpp:156] Memory required for data: 1208417568
I0403 19:46:34.241920  9656 layer_factory.hpp:77] Creating layer loss2/classifier_plantvillage
I0403 19:46:34.241942  9656 net.cpp:91] Creating Layer loss2/classifier_plantvillage
I0403 19:46:34.241961  9656 net.cpp:425] loss2/classifier_plantvillage <- loss2/fc
I0403 19:46:34.241979  9656 net.cpp:399] loss2/classifier_plantvillage -> loss2/classifier_plantvillage
I0403 19:46:34.242434  9656 net.cpp:141] Setting up loss2/classifier_plantvillage
I0403 19:46:34.242460  9656 net.cpp:148] Top shape: 24 38 (912)
I0403 19:46:34.242476  9656 net.cpp:156] Memory required for data: 1208421216
I0403 19:46:34.242525  9656 layer_factory.hpp:77] Creating layer loss2/classifier_plantvillage_loss2/classifier_plantvillage_0_split
I0403 19:46:34.242547  9656 net.cpp:91] Creating Layer loss2/classifier_plantvillage_loss2/classifier_plantvillage_0_split
I0403 19:46:34.242563  9656 net.cpp:425] loss2/classifier_plantvillage_loss2/classifier_plantvillage_0_split <- loss2/classifier_plantvillage
I0403 19:46:34.242584  9656 net.cpp:399] loss2/classifier_plantvillage_loss2/classifier_plantvillage_0_split -> loss2/classifier_plantvillage_loss2/classifier_plantvillage_0_split_0
I0403 19:46:34.242606  9656 net.cpp:399] loss2/classifier_plantvillage_loss2/classifier_plantvillage_0_split -> loss2/classifier_plantvillage_loss2/classifier_plantvillage_0_split_1
I0403 19:46:34.242629  9656 net.cpp:399] loss2/classifier_plantvillage_loss2/classifier_plantvillage_0_split -> loss2/classifier_plantvillage_loss2/classifier_plantvillage_0_split_2
I0403 19:46:34.242708  9656 net.cpp:141] Setting up loss2/classifier_plantvillage_loss2/classifier_plantvillage_0_split
I0403 19:46:34.242734  9656 net.cpp:148] Top shape: 24 38 (912)
I0403 19:46:34.242750  9656 net.cpp:148] Top shape: 24 38 (912)
I0403 19:46:34.242766  9656 net.cpp:148] Top shape: 24 38 (912)
I0403 19:46:34.242780  9656 net.cpp:156] Memory required for data: 1208432160
I0403 19:46:34.242795  9656 layer_factory.hpp:77] Creating layer inception_4e/1x1
I0403 19:46:34.242820  9656 net.cpp:91] Creating Layer inception_4e/1x1
I0403 19:46:34.242840  9656 net.cpp:425] inception_4e/1x1 <- inception_4d/output_inception_4d/output_0_split_1
I0403 19:46:34.242859  9656 net.cpp:399] inception_4e/1x1 -> inception_4e/1x1
I0403 19:46:34.244931  9656 net.cpp:141] Setting up inception_4e/1x1
I0403 19:46:34.244962  9656 net.cpp:148] Top shape: 24 256 14 14 (1204224)
I0403 19:46:34.244978  9656 net.cpp:156] Memory required for data: 1213249056
I0403 19:46:34.244998  9656 layer_factory.hpp:77] Creating layer inception_4e/relu_1x1
I0403 19:46:34.245018  9656 net.cpp:91] Creating Layer inception_4e/relu_1x1
I0403 19:46:34.245033  9656 net.cpp:425] inception_4e/relu_1x1 <- inception_4e/1x1
I0403 19:46:34.245054  9656 net.cpp:386] inception_4e/relu_1x1 -> inception_4e/1x1 (in-place)
I0403 19:46:34.245376  9656 net.cpp:141] Setting up inception_4e/relu_1x1
I0403 19:46:34.245405  9656 net.cpp:148] Top shape: 24 256 14 14 (1204224)
I0403 19:46:34.245421  9656 net.cpp:156] Memory required for data: 1218065952
I0403 19:46:34.245436  9656 layer_factory.hpp:77] Creating layer inception_4e/3x3_reduce
I0403 19:46:34.245460  9656 net.cpp:91] Creating Layer inception_4e/3x3_reduce
I0403 19:46:34.245478  9656 net.cpp:425] inception_4e/3x3_reduce <- inception_4d/output_inception_4d/output_0_split_2
I0403 19:46:34.245512  9656 net.cpp:399] inception_4e/3x3_reduce -> inception_4e/3x3_reduce
I0403 19:46:34.247783  9656 net.cpp:141] Setting up inception_4e/3x3_reduce
I0403 19:46:34.247819  9656 net.cpp:148] Top shape: 24 160 14 14 (752640)
I0403 19:46:34.247835  9656 net.cpp:156] Memory required for data: 1221076512
I0403 19:46:34.247854  9656 layer_factory.hpp:77] Creating layer inception_4e/relu_3x3_reduce
I0403 19:46:34.247872  9656 net.cpp:91] Creating Layer inception_4e/relu_3x3_reduce
I0403 19:46:34.247889  9656 net.cpp:425] inception_4e/relu_3x3_reduce <- inception_4e/3x3_reduce
I0403 19:46:34.247910  9656 net.cpp:386] inception_4e/relu_3x3_reduce -> inception_4e/3x3_reduce (in-place)
I0403 19:46:34.248106  9656 net.cpp:141] Setting up inception_4e/relu_3x3_reduce
I0403 19:46:34.248132  9656 net.cpp:148] Top shape: 24 160 14 14 (752640)
I0403 19:46:34.248147  9656 net.cpp:156] Memory required for data: 1224087072
I0403 19:46:34.248162  9656 layer_factory.hpp:77] Creating layer inception_4e/3x3
I0403 19:46:34.248184  9656 net.cpp:91] Creating Layer inception_4e/3x3
I0403 19:46:34.248203  9656 net.cpp:425] inception_4e/3x3 <- inception_4e/3x3_reduce
I0403 19:46:34.248224  9656 net.cpp:399] inception_4e/3x3 -> inception_4e/3x3
I0403 19:46:34.253499  9656 net.cpp:141] Setting up inception_4e/3x3
I0403 19:46:34.253557  9656 net.cpp:148] Top shape: 24 320 14 14 (1505280)
I0403 19:46:34.253574  9656 net.cpp:156] Memory required for data: 1230108192
I0403 19:46:34.253593  9656 layer_factory.hpp:77] Creating layer inception_4e/relu_3x3
I0403 19:46:34.253614  9656 net.cpp:91] Creating Layer inception_4e/relu_3x3
I0403 19:46:34.253633  9656 net.cpp:425] inception_4e/relu_3x3 <- inception_4e/3x3
I0403 19:46:34.253651  9656 net.cpp:386] inception_4e/relu_3x3 -> inception_4e/3x3 (in-place)
I0403 19:46:34.253965  9656 net.cpp:141] Setting up inception_4e/relu_3x3
I0403 19:46:34.253993  9656 net.cpp:148] Top shape: 24 320 14 14 (1505280)
I0403 19:46:34.254009  9656 net.cpp:156] Memory required for data: 1236129312
I0403 19:46:34.254024  9656 layer_factory.hpp:77] Creating layer inception_4e/5x5_reduce
I0403 19:46:34.254048  9656 net.cpp:91] Creating Layer inception_4e/5x5_reduce
I0403 19:46:34.254065  9656 net.cpp:425] inception_4e/5x5_reduce <- inception_4d/output_inception_4d/output_0_split_3
I0403 19:46:34.254087  9656 net.cpp:399] inception_4e/5x5_reduce -> inception_4e/5x5_reduce
I0403 19:46:34.255223  9656 net.cpp:141] Setting up inception_4e/5x5_reduce
I0403 19:46:34.255254  9656 net.cpp:148] Top shape: 24 32 14 14 (150528)
I0403 19:46:34.255275  9656 net.cpp:156] Memory required for data: 1236731424
I0403 19:46:34.255295  9656 layer_factory.hpp:77] Creating layer inception_4e/relu_5x5_reduce
I0403 19:46:34.255314  9656 net.cpp:91] Creating Layer inception_4e/relu_5x5_reduce
I0403 19:46:34.255331  9656 net.cpp:425] inception_4e/relu_5x5_reduce <- inception_4e/5x5_reduce
I0403 19:46:34.255352  9656 net.cpp:386] inception_4e/relu_5x5_reduce -> inception_4e/5x5_reduce (in-place)
I0403 19:46:34.255661  9656 net.cpp:141] Setting up inception_4e/relu_5x5_reduce
I0403 19:46:34.255691  9656 net.cpp:148] Top shape: 24 32 14 14 (150528)
I0403 19:46:34.255707  9656 net.cpp:156] Memory required for data: 1237333536
I0403 19:46:34.255722  9656 layer_factory.hpp:77] Creating layer inception_4e/5x5
I0403 19:46:34.255762  9656 net.cpp:91] Creating Layer inception_4e/5x5
I0403 19:46:34.255782  9656 net.cpp:425] inception_4e/5x5 <- inception_4e/5x5_reduce
I0403 19:46:34.255802  9656 net.cpp:399] inception_4e/5x5 -> inception_4e/5x5
I0403 19:46:34.257732  9656 net.cpp:141] Setting up inception_4e/5x5
I0403 19:46:34.257762  9656 net.cpp:148] Top shape: 24 128 14 14 (602112)
I0403 19:46:34.257778  9656 net.cpp:156] Memory required for data: 1239741984
I0403 19:46:34.257798  9656 layer_factory.hpp:77] Creating layer inception_4e/relu_5x5
I0403 19:46:34.257822  9656 net.cpp:91] Creating Layer inception_4e/relu_5x5
I0403 19:46:34.257839  9656 net.cpp:425] inception_4e/relu_5x5 <- inception_4e/5x5
I0403 19:46:34.257858  9656 net.cpp:386] inception_4e/relu_5x5 -> inception_4e/5x5 (in-place)
I0403 19:46:34.258066  9656 net.cpp:141] Setting up inception_4e/relu_5x5
I0403 19:46:34.258092  9656 net.cpp:148] Top shape: 24 128 14 14 (602112)
I0403 19:46:34.258107  9656 net.cpp:156] Memory required for data: 1242150432
I0403 19:46:34.258122  9656 layer_factory.hpp:77] Creating layer inception_4e/pool
I0403 19:46:34.258141  9656 net.cpp:91] Creating Layer inception_4e/pool
I0403 19:46:34.258158  9656 net.cpp:425] inception_4e/pool <- inception_4d/output_inception_4d/output_0_split_4
I0403 19:46:34.258178  9656 net.cpp:399] inception_4e/pool -> inception_4e/pool
I0403 19:46:34.258251  9656 net.cpp:141] Setting up inception_4e/pool
I0403 19:46:34.258285  9656 net.cpp:148] Top shape: 24 528 14 14 (2483712)
I0403 19:46:34.258302  9656 net.cpp:156] Memory required for data: 1252085280
I0403 19:46:34.258316  9656 layer_factory.hpp:77] Creating layer inception_4e/pool_proj
I0403 19:46:34.258340  9656 net.cpp:91] Creating Layer inception_4e/pool_proj
I0403 19:46:34.258358  9656 net.cpp:425] inception_4e/pool_proj <- inception_4e/pool
I0403 19:46:34.258378  9656 net.cpp:399] inception_4e/pool_proj -> inception_4e/pool_proj
I0403 19:46:34.259958  9656 net.cpp:141] Setting up inception_4e/pool_proj
I0403 19:46:34.259987  9656 net.cpp:148] Top shape: 24 128 14 14 (602112)
I0403 19:46:34.260020  9656 net.cpp:156] Memory required for data: 1254493728
I0403 19:46:34.260040  9656 layer_factory.hpp:77] Creating layer inception_4e/relu_pool_proj
I0403 19:46:34.260061  9656 net.cpp:91] Creating Layer inception_4e/relu_pool_proj
I0403 19:46:34.260077  9656 net.cpp:425] inception_4e/relu_pool_proj <- inception_4e/pool_proj
I0403 19:46:34.260095  9656 net.cpp:386] inception_4e/relu_pool_proj -> inception_4e/pool_proj (in-place)
I0403 19:46:34.260409  9656 net.cpp:141] Setting up inception_4e/relu_pool_proj
I0403 19:46:34.260437  9656 net.cpp:148] Top shape: 24 128 14 14 (602112)
I0403 19:46:34.260452  9656 net.cpp:156] Memory required for data: 1256902176
I0403 19:46:34.260468  9656 layer_factory.hpp:77] Creating layer inception_4e/output
I0403 19:46:34.260488  9656 net.cpp:91] Creating Layer inception_4e/output
I0403 19:46:34.260505  9656 net.cpp:425] inception_4e/output <- inception_4e/1x1
I0403 19:46:34.260522  9656 net.cpp:425] inception_4e/output <- inception_4e/3x3
I0403 19:46:34.260540  9656 net.cpp:425] inception_4e/output <- inception_4e/5x5
I0403 19:46:34.260555  9656 net.cpp:425] inception_4e/output <- inception_4e/pool_proj
I0403 19:46:34.260571  9656 net.cpp:399] inception_4e/output -> inception_4e/output
I0403 19:46:34.260625  9656 net.cpp:141] Setting up inception_4e/output
I0403 19:46:34.260650  9656 net.cpp:148] Top shape: 24 832 14 14 (3913728)
I0403 19:46:34.260665  9656 net.cpp:156] Memory required for data: 1272557088
I0403 19:46:34.260679  9656 layer_factory.hpp:77] Creating layer pool4/3x3_s2
I0403 19:46:34.260699  9656 net.cpp:91] Creating Layer pool4/3x3_s2
I0403 19:46:34.260713  9656 net.cpp:425] pool4/3x3_s2 <- inception_4e/output
I0403 19:46:34.260735  9656 net.cpp:399] pool4/3x3_s2 -> pool4/3x3_s2
I0403 19:46:34.260804  9656 net.cpp:141] Setting up pool4/3x3_s2
I0403 19:46:34.260829  9656 net.cpp:148] Top shape: 24 832 7 7 (978432)
I0403 19:46:34.260844  9656 net.cpp:156] Memory required for data: 1276470816
I0403 19:46:34.260860  9656 layer_factory.hpp:77] Creating layer pool4/3x3_s2_pool4/3x3_s2_0_split
I0403 19:46:34.260880  9656 net.cpp:91] Creating Layer pool4/3x3_s2_pool4/3x3_s2_0_split
I0403 19:46:34.260898  9656 net.cpp:425] pool4/3x3_s2_pool4/3x3_s2_0_split <- pool4/3x3_s2
I0403 19:46:34.260917  9656 net.cpp:399] pool4/3x3_s2_pool4/3x3_s2_0_split -> pool4/3x3_s2_pool4/3x3_s2_0_split_0
I0403 19:46:34.260938  9656 net.cpp:399] pool4/3x3_s2_pool4/3x3_s2_0_split -> pool4/3x3_s2_pool4/3x3_s2_0_split_1
I0403 19:46:34.260959  9656 net.cpp:399] pool4/3x3_s2_pool4/3x3_s2_0_split -> pool4/3x3_s2_pool4/3x3_s2_0_split_2
I0403 19:46:34.260980  9656 net.cpp:399] pool4/3x3_s2_pool4/3x3_s2_0_split -> pool4/3x3_s2_pool4/3x3_s2_0_split_3
I0403 19:46:34.261075  9656 net.cpp:141] Setting up pool4/3x3_s2_pool4/3x3_s2_0_split
I0403 19:46:34.261102  9656 net.cpp:148] Top shape: 24 832 7 7 (978432)
I0403 19:46:34.261119  9656 net.cpp:148] Top shape: 24 832 7 7 (978432)
I0403 19:46:34.261135  9656 net.cpp:148] Top shape: 24 832 7 7 (978432)
I0403 19:46:34.261152  9656 net.cpp:148] Top shape: 24 832 7 7 (978432)
I0403 19:46:34.261165  9656 net.cpp:156] Memory required for data: 1292125728
I0403 19:46:34.261180  9656 layer_factory.hpp:77] Creating layer inception_5a/1x1
I0403 19:46:34.261200  9656 net.cpp:91] Creating Layer inception_5a/1x1
I0403 19:46:34.261217  9656 net.cpp:425] inception_5a/1x1 <- pool4/3x3_s2_pool4/3x3_s2_0_split_0
I0403 19:46:34.261239  9656 net.cpp:399] inception_5a/1x1 -> inception_5a/1x1
I0403 19:46:34.264319  9656 net.cpp:141] Setting up inception_5a/1x1
I0403 19:46:34.264353  9656 net.cpp:148] Top shape: 24 256 7 7 (301056)
I0403 19:46:34.264369  9656 net.cpp:156] Memory required for data: 1293329952
I0403 19:46:34.264387  9656 layer_factory.hpp:77] Creating layer inception_5a/relu_1x1
I0403 19:46:34.264406  9656 net.cpp:91] Creating Layer inception_5a/relu_1x1
I0403 19:46:34.264422  9656 net.cpp:425] inception_5a/relu_1x1 <- inception_5a/1x1
I0403 19:46:34.264441  9656 net.cpp:386] inception_5a/relu_1x1 -> inception_5a/1x1 (in-place)
I0403 19:46:34.264771  9656 net.cpp:141] Setting up inception_5a/relu_1x1
I0403 19:46:34.264801  9656 net.cpp:148] Top shape: 24 256 7 7 (301056)
I0403 19:46:34.264827  9656 net.cpp:156] Memory required for data: 1294534176
I0403 19:46:34.264843  9656 layer_factory.hpp:77] Creating layer inception_5a/3x3_reduce
I0403 19:46:34.264865  9656 net.cpp:91] Creating Layer inception_5a/3x3_reduce
I0403 19:46:34.264883  9656 net.cpp:425] inception_5a/3x3_reduce <- pool4/3x3_s2_pool4/3x3_s2_0_split_1
I0403 19:46:34.264904  9656 net.cpp:399] inception_5a/3x3_reduce -> inception_5a/3x3_reduce
I0403 19:46:34.267498  9656 net.cpp:141] Setting up inception_5a/3x3_reduce
I0403 19:46:34.267547  9656 net.cpp:148] Top shape: 24 160 7 7 (188160)
I0403 19:46:34.267563  9656 net.cpp:156] Memory required for data: 1295286816
I0403 19:46:34.267587  9656 layer_factory.hpp:77] Creating layer inception_5a/relu_3x3_reduce
I0403 19:46:34.267617  9656 net.cpp:91] Creating Layer inception_5a/relu_3x3_reduce
I0403 19:46:34.267643  9656 net.cpp:425] inception_5a/relu_3x3_reduce <- inception_5a/3x3_reduce
I0403 19:46:34.267668  9656 net.cpp:386] inception_5a/relu_3x3_reduce -> inception_5a/3x3_reduce (in-place)
I0403 19:46:34.267873  9656 net.cpp:141] Setting up inception_5a/relu_3x3_reduce
I0403 19:46:34.267901  9656 net.cpp:148] Top shape: 24 160 7 7 (188160)
I0403 19:46:34.267921  9656 net.cpp:156] Memory required for data: 1296039456
I0403 19:46:34.267945  9656 layer_factory.hpp:77] Creating layer inception_5a/3x3
I0403 19:46:34.267973  9656 net.cpp:91] Creating Layer inception_5a/3x3
I0403 19:46:34.267993  9656 net.cpp:425] inception_5a/3x3 <- inception_5a/3x3_reduce
I0403 19:46:34.268014  9656 net.cpp:399] inception_5a/3x3 -> inception_5a/3x3
I0403 19:46:34.273383  9656 net.cpp:141] Setting up inception_5a/3x3
I0403 19:46:34.273417  9656 net.cpp:148] Top shape: 24 320 7 7 (376320)
I0403 19:46:34.273434  9656 net.cpp:156] Memory required for data: 1297544736
I0403 19:46:34.273453  9656 layer_factory.hpp:77] Creating layer inception_5a/relu_3x3
I0403 19:46:34.273483  9656 net.cpp:91] Creating Layer inception_5a/relu_3x3
I0403 19:46:34.273499  9656 net.cpp:425] inception_5a/relu_3x3 <- inception_5a/3x3
I0403 19:46:34.273519  9656 net.cpp:386] inception_5a/relu_3x3 -> inception_5a/3x3 (in-place)
I0403 19:46:34.273816  9656 net.cpp:141] Setting up inception_5a/relu_3x3
I0403 19:46:34.273845  9656 net.cpp:148] Top shape: 24 320 7 7 (376320)
I0403 19:46:34.273861  9656 net.cpp:156] Memory required for data: 1299050016
I0403 19:46:34.273876  9656 layer_factory.hpp:77] Creating layer inception_5a/5x5_reduce
I0403 19:46:34.273900  9656 net.cpp:91] Creating Layer inception_5a/5x5_reduce
I0403 19:46:34.273917  9656 net.cpp:425] inception_5a/5x5_reduce <- pool4/3x3_s2_pool4/3x3_s2_0_split_2
I0403 19:46:34.273936  9656 net.cpp:399] inception_5a/5x5_reduce -> inception_5a/5x5_reduce
I0403 19:46:34.275133  9656 net.cpp:141] Setting up inception_5a/5x5_reduce
I0403 19:46:34.275164  9656 net.cpp:148] Top shape: 24 32 7 7 (37632)
I0403 19:46:34.275180  9656 net.cpp:156] Memory required for data: 1299200544
I0403 19:46:34.275198  9656 layer_factory.hpp:77] Creating layer inception_5a/relu_5x5_reduce
I0403 19:46:34.275218  9656 net.cpp:91] Creating Layer inception_5a/relu_5x5_reduce
I0403 19:46:34.275233  9656 net.cpp:425] inception_5a/relu_5x5_reduce <- inception_5a/5x5_reduce
I0403 19:46:34.275252  9656 net.cpp:386] inception_5a/relu_5x5_reduce -> inception_5a/5x5_reduce (in-place)
I0403 19:46:34.275562  9656 net.cpp:141] Setting up inception_5a/relu_5x5_reduce
I0403 19:46:34.275588  9656 net.cpp:148] Top shape: 24 32 7 7 (37632)
I0403 19:46:34.275602  9656 net.cpp:156] Memory required for data: 1299351072
I0403 19:46:34.275617  9656 layer_factory.hpp:77] Creating layer inception_5a/5x5
I0403 19:46:34.275638  9656 net.cpp:91] Creating Layer inception_5a/5x5
I0403 19:46:34.275655  9656 net.cpp:425] inception_5a/5x5 <- inception_5a/5x5_reduce
I0403 19:46:34.275676  9656 net.cpp:399] inception_5a/5x5 -> inception_5a/5x5
I0403 19:46:34.277501  9656 net.cpp:141] Setting up inception_5a/5x5
I0403 19:46:34.277551  9656 net.cpp:148] Top shape: 24 128 7 7 (150528)
I0403 19:46:34.277567  9656 net.cpp:156] Memory required for data: 1299953184
I0403 19:46:34.277590  9656 layer_factory.hpp:77] Creating layer inception_5a/relu_5x5
I0403 19:46:34.277608  9656 net.cpp:91] Creating Layer inception_5a/relu_5x5
I0403 19:46:34.277626  9656 net.cpp:425] inception_5a/relu_5x5 <- inception_5a/5x5
I0403 19:46:34.277643  9656 net.cpp:386] inception_5a/relu_5x5 -> inception_5a/5x5 (in-place)
I0403 19:46:34.277847  9656 net.cpp:141] Setting up inception_5a/relu_5x5
I0403 19:46:34.277873  9656 net.cpp:148] Top shape: 24 128 7 7 (150528)
I0403 19:46:34.277887  9656 net.cpp:156] Memory required for data: 1300555296
I0403 19:46:34.277901  9656 layer_factory.hpp:77] Creating layer inception_5a/pool
I0403 19:46:34.277920  9656 net.cpp:91] Creating Layer inception_5a/pool
I0403 19:46:34.277935  9656 net.cpp:425] inception_5a/pool <- pool4/3x3_s2_pool4/3x3_s2_0_split_3
I0403 19:46:34.277956  9656 net.cpp:399] inception_5a/pool -> inception_5a/pool
I0403 19:46:34.278028  9656 net.cpp:141] Setting up inception_5a/pool
I0403 19:46:34.278053  9656 net.cpp:148] Top shape: 24 832 7 7 (978432)
I0403 19:46:34.278067  9656 net.cpp:156] Memory required for data: 1304469024
I0403 19:46:34.278082  9656 layer_factory.hpp:77] Creating layer inception_5a/pool_proj
I0403 19:46:34.278118  9656 net.cpp:91] Creating Layer inception_5a/pool_proj
I0403 19:46:34.278136  9656 net.cpp:425] inception_5a/pool_proj <- inception_5a/pool
I0403 19:46:34.278156  9656 net.cpp:399] inception_5a/pool_proj -> inception_5a/pool_proj
I0403 19:46:34.280553  9656 net.cpp:141] Setting up inception_5a/pool_proj
I0403 19:46:34.280585  9656 net.cpp:148] Top shape: 24 128 7 7 (150528)
I0403 19:46:34.280599  9656 net.cpp:156] Memory required for data: 1305071136
I0403 19:46:34.280618  9656 layer_factory.hpp:77] Creating layer inception_5a/relu_pool_proj
I0403 19:46:34.280640  9656 net.cpp:91] Creating Layer inception_5a/relu_pool_proj
I0403 19:46:34.280658  9656 net.cpp:425] inception_5a/relu_pool_proj <- inception_5a/pool_proj
I0403 19:46:34.280674  9656 net.cpp:386] inception_5a/relu_pool_proj -> inception_5a/pool_proj (in-place)
I0403 19:46:34.280987  9656 net.cpp:141] Setting up inception_5a/relu_pool_proj
I0403 19:46:34.281014  9656 net.cpp:148] Top shape: 24 128 7 7 (150528)
I0403 19:46:34.281029  9656 net.cpp:156] Memory required for data: 1305673248
I0403 19:46:34.281044  9656 layer_factory.hpp:77] Creating layer inception_5a/output
I0403 19:46:34.281065  9656 net.cpp:91] Creating Layer inception_5a/output
I0403 19:46:34.281082  9656 net.cpp:425] inception_5a/output <- inception_5a/1x1
I0403 19:46:34.281100  9656 net.cpp:425] inception_5a/output <- inception_5a/3x3
I0403 19:46:34.281116  9656 net.cpp:425] inception_5a/output <- inception_5a/5x5
I0403 19:46:34.281131  9656 net.cpp:425] inception_5a/output <- inception_5a/pool_proj
I0403 19:46:34.281149  9656 net.cpp:399] inception_5a/output -> inception_5a/output
I0403 19:46:34.281203  9656 net.cpp:141] Setting up inception_5a/output
I0403 19:46:34.281227  9656 net.cpp:148] Top shape: 24 832 7 7 (978432)
I0403 19:46:34.281242  9656 net.cpp:156] Memory required for data: 1309586976
I0403 19:46:34.281257  9656 layer_factory.hpp:77] Creating layer inception_5a/output_inception_5a/output_0_split
I0403 19:46:34.281280  9656 net.cpp:91] Creating Layer inception_5a/output_inception_5a/output_0_split
I0403 19:46:34.281297  9656 net.cpp:425] inception_5a/output_inception_5a/output_0_split <- inception_5a/output
I0403 19:46:34.281318  9656 net.cpp:399] inception_5a/output_inception_5a/output_0_split -> inception_5a/output_inception_5a/output_0_split_0
I0403 19:46:34.281339  9656 net.cpp:399] inception_5a/output_inception_5a/output_0_split -> inception_5a/output_inception_5a/output_0_split_1
I0403 19:46:34.281360  9656 net.cpp:399] inception_5a/output_inception_5a/output_0_split -> inception_5a/output_inception_5a/output_0_split_2
I0403 19:46:34.281381  9656 net.cpp:399] inception_5a/output_inception_5a/output_0_split -> inception_5a/output_inception_5a/output_0_split_3
I0403 19:46:34.281498  9656 net.cpp:141] Setting up inception_5a/output_inception_5a/output_0_split
I0403 19:46:34.281523  9656 net.cpp:148] Top shape: 24 832 7 7 (978432)
I0403 19:46:34.281540  9656 net.cpp:148] Top shape: 24 832 7 7 (978432)
I0403 19:46:34.281555  9656 net.cpp:148] Top shape: 24 832 7 7 (978432)
I0403 19:46:34.281571  9656 net.cpp:148] Top shape: 24 832 7 7 (978432)
I0403 19:46:34.281585  9656 net.cpp:156] Memory required for data: 1325241888
I0403 19:46:34.281599  9656 layer_factory.hpp:77] Creating layer inception_5b/1x1
I0403 19:46:34.281622  9656 net.cpp:91] Creating Layer inception_5b/1x1
I0403 19:46:34.281640  9656 net.cpp:425] inception_5b/1x1 <- inception_5a/output_inception_5a/output_0_split_0
I0403 19:46:34.281661  9656 net.cpp:399] inception_5b/1x1 -> inception_5b/1x1
I0403 19:46:34.285630  9656 net.cpp:141] Setting up inception_5b/1x1
I0403 19:46:34.285665  9656 net.cpp:148] Top shape: 24 384 7 7 (451584)
I0403 19:46:34.285682  9656 net.cpp:156] Memory required for data: 1327048224
I0403 19:46:34.285701  9656 layer_factory.hpp:77] Creating layer inception_5b/relu_1x1
I0403 19:46:34.285723  9656 net.cpp:91] Creating Layer inception_5b/relu_1x1
I0403 19:46:34.285740  9656 net.cpp:425] inception_5b/relu_1x1 <- inception_5b/1x1
I0403 19:46:34.285759  9656 net.cpp:386] inception_5b/relu_1x1 -> inception_5b/1x1 (in-place)
I0403 19:46:34.286088  9656 net.cpp:141] Setting up inception_5b/relu_1x1
I0403 19:46:34.286118  9656 net.cpp:148] Top shape: 24 384 7 7 (451584)
I0403 19:46:34.286133  9656 net.cpp:156] Memory required for data: 1328854560
I0403 19:46:34.286149  9656 layer_factory.hpp:77] Creating layer inception_5b/3x3_reduce
I0403 19:46:34.286171  9656 net.cpp:91] Creating Layer inception_5b/3x3_reduce
I0403 19:46:34.286200  9656 net.cpp:425] inception_5b/3x3_reduce <- inception_5a/output_inception_5a/output_0_split_1
I0403 19:46:34.286223  9656 net.cpp:399] inception_5b/3x3_reduce -> inception_5b/3x3_reduce
I0403 19:46:34.289093  9656 net.cpp:141] Setting up inception_5b/3x3_reduce
I0403 19:46:34.289129  9656 net.cpp:148] Top shape: 24 192 7 7 (225792)
I0403 19:46:34.289145  9656 net.cpp:156] Memory required for data: 1329757728
I0403 19:46:34.289165  9656 layer_factory.hpp:77] Creating layer inception_5b/relu_3x3_reduce
I0403 19:46:34.289189  9656 net.cpp:91] Creating Layer inception_5b/relu_3x3_reduce
I0403 19:46:34.289207  9656 net.cpp:425] inception_5b/relu_3x3_reduce <- inception_5b/3x3_reduce
I0403 19:46:34.289227  9656 net.cpp:386] inception_5b/relu_3x3_reduce -> inception_5b/3x3_reduce (in-place)
I0403 19:46:34.289443  9656 net.cpp:141] Setting up inception_5b/relu_3x3_reduce
I0403 19:46:34.289471  9656 net.cpp:148] Top shape: 24 192 7 7 (225792)
I0403 19:46:34.289487  9656 net.cpp:156] Memory required for data: 1330660896
I0403 19:46:34.289505  9656 layer_factory.hpp:77] Creating layer inception_5b/3x3
I0403 19:46:34.289527  9656 net.cpp:91] Creating Layer inception_5b/3x3
I0403 19:46:34.289546  9656 net.cpp:425] inception_5b/3x3 <- inception_5b/3x3_reduce
I0403 19:46:34.289566  9656 net.cpp:399] inception_5b/3x3 -> inception_5b/3x3
I0403 19:46:34.296835  9656 net.cpp:141] Setting up inception_5b/3x3
I0403 19:46:34.296885  9656 net.cpp:148] Top shape: 24 384 7 7 (451584)
I0403 19:46:34.296902  9656 net.cpp:156] Memory required for data: 1332467232
I0403 19:46:34.296922  9656 layer_factory.hpp:77] Creating layer inception_5b/relu_3x3
I0403 19:46:34.296946  9656 net.cpp:91] Creating Layer inception_5b/relu_3x3
I0403 19:46:34.296965  9656 net.cpp:425] inception_5b/relu_3x3 <- inception_5b/3x3
I0403 19:46:34.296984  9656 net.cpp:386] inception_5b/relu_3x3 -> inception_5b/3x3 (in-place)
I0403 19:46:34.297317  9656 net.cpp:141] Setting up inception_5b/relu_3x3
I0403 19:46:34.297346  9656 net.cpp:148] Top shape: 24 384 7 7 (451584)
I0403 19:46:34.297363  9656 net.cpp:156] Memory required for data: 1334273568
I0403 19:46:34.297377  9656 layer_factory.hpp:77] Creating layer inception_5b/5x5_reduce
I0403 19:46:34.297433  9656 net.cpp:91] Creating Layer inception_5b/5x5_reduce
I0403 19:46:34.297454  9656 net.cpp:425] inception_5b/5x5_reduce <- inception_5a/output_inception_5a/output_0_split_2
I0403 19:46:34.297477  9656 net.cpp:399] inception_5b/5x5_reduce -> inception_5b/5x5_reduce
I0403 19:46:34.298871  9656 net.cpp:141] Setting up inception_5b/5x5_reduce
I0403 19:46:34.298902  9656 net.cpp:148] Top shape: 24 48 7 7 (56448)
I0403 19:46:34.298918  9656 net.cpp:156] Memory required for data: 1334499360
I0403 19:46:34.298938  9656 layer_factory.hpp:77] Creating layer inception_5b/relu_5x5_reduce
I0403 19:46:34.298959  9656 net.cpp:91] Creating Layer inception_5b/relu_5x5_reduce
I0403 19:46:34.298976  9656 net.cpp:425] inception_5b/relu_5x5_reduce <- inception_5b/5x5_reduce
I0403 19:46:34.298995  9656 net.cpp:386] inception_5b/relu_5x5_reduce -> inception_5b/5x5_reduce (in-place)
I0403 19:46:34.299402  9656 net.cpp:141] Setting up inception_5b/relu_5x5_reduce
I0403 19:46:34.299432  9656 net.cpp:148] Top shape: 24 48 7 7 (56448)
I0403 19:46:34.299448  9656 net.cpp:156] Memory required for data: 1334725152
I0403 19:46:34.299463  9656 layer_factory.hpp:77] Creating layer inception_5b/5x5
I0403 19:46:34.299484  9656 net.cpp:91] Creating Layer inception_5b/5x5
I0403 19:46:34.299501  9656 net.cpp:425] inception_5b/5x5 <- inception_5b/5x5_reduce
I0403 19:46:34.299521  9656 net.cpp:399] inception_5b/5x5 -> inception_5b/5x5
I0403 19:46:34.301779  9656 net.cpp:141] Setting up inception_5b/5x5
I0403 19:46:34.301811  9656 net.cpp:148] Top shape: 24 128 7 7 (150528)
I0403 19:46:34.301828  9656 net.cpp:156] Memory required for data: 1335327264
I0403 19:46:34.301848  9656 layer_factory.hpp:77] Creating layer inception_5b/relu_5x5
I0403 19:46:34.301868  9656 net.cpp:91] Creating Layer inception_5b/relu_5x5
I0403 19:46:34.301885  9656 net.cpp:425] inception_5b/relu_5x5 <- inception_5b/5x5
I0403 19:46:34.301903  9656 net.cpp:386] inception_5b/relu_5x5 -> inception_5b/5x5 (in-place)
I0403 19:46:34.302119  9656 net.cpp:141] Setting up inception_5b/relu_5x5
I0403 19:46:34.302145  9656 net.cpp:148] Top shape: 24 128 7 7 (150528)
I0403 19:46:34.302161  9656 net.cpp:156] Memory required for data: 1335929376
I0403 19:46:34.302176  9656 layer_factory.hpp:77] Creating layer inception_5b/pool
I0403 19:46:34.302196  9656 net.cpp:91] Creating Layer inception_5b/pool
I0403 19:46:34.302213  9656 net.cpp:425] inception_5b/pool <- inception_5a/output_inception_5a/output_0_split_3
I0403 19:46:34.302235  9656 net.cpp:399] inception_5b/pool -> inception_5b/pool
I0403 19:46:34.302328  9656 net.cpp:141] Setting up inception_5b/pool
I0403 19:46:34.302357  9656 net.cpp:148] Top shape: 24 832 7 7 (978432)
I0403 19:46:34.302374  9656 net.cpp:156] Memory required for data: 1339843104
I0403 19:46:34.302389  9656 layer_factory.hpp:77] Creating layer inception_5b/pool_proj
I0403 19:46:34.302412  9656 net.cpp:91] Creating Layer inception_5b/pool_proj
I0403 19:46:34.302431  9656 net.cpp:425] inception_5b/pool_proj <- inception_5b/pool
I0403 19:46:34.302451  9656 net.cpp:399] inception_5b/pool_proj -> inception_5b/pool_proj
I0403 19:46:34.304970  9656 net.cpp:141] Setting up inception_5b/pool_proj
I0403 19:46:34.305014  9656 net.cpp:148] Top shape: 24 128 7 7 (150528)
I0403 19:46:34.305037  9656 net.cpp:156] Memory required for data: 1340445216
I0403 19:46:34.305055  9656 layer_factory.hpp:77] Creating layer inception_5b/relu_pool_proj
I0403 19:46:34.305078  9656 net.cpp:91] Creating Layer inception_5b/relu_pool_proj
I0403 19:46:34.305094  9656 net.cpp:425] inception_5b/relu_pool_proj <- inception_5b/pool_proj
I0403 19:46:34.305112  9656 net.cpp:386] inception_5b/relu_pool_proj -> inception_5b/pool_proj (in-place)
I0403 19:46:34.305443  9656 net.cpp:141] Setting up inception_5b/relu_pool_proj
I0403 19:46:34.305469  9656 net.cpp:148] Top shape: 24 128 7 7 (150528)
I0403 19:46:34.305485  9656 net.cpp:156] Memory required for data: 1341047328
I0403 19:46:34.305500  9656 layer_factory.hpp:77] Creating layer inception_5b/output
I0403 19:46:34.305521  9656 net.cpp:91] Creating Layer inception_5b/output
I0403 19:46:34.305557  9656 net.cpp:425] inception_5b/output <- inception_5b/1x1
I0403 19:46:34.305575  9656 net.cpp:425] inception_5b/output <- inception_5b/3x3
I0403 19:46:34.305593  9656 net.cpp:425] inception_5b/output <- inception_5b/5x5
I0403 19:46:34.305609  9656 net.cpp:425] inception_5b/output <- inception_5b/pool_proj
I0403 19:46:34.305627  9656 net.cpp:399] inception_5b/output -> inception_5b/output
I0403 19:46:34.305683  9656 net.cpp:141] Setting up inception_5b/output
I0403 19:46:34.305708  9656 net.cpp:148] Top shape: 24 1024 7 7 (1204224)
I0403 19:46:34.305722  9656 net.cpp:156] Memory required for data: 1345864224
I0403 19:46:34.305738  9656 layer_factory.hpp:77] Creating layer pool5/7x7_s1
I0403 19:46:34.305757  9656 net.cpp:91] Creating Layer pool5/7x7_s1
I0403 19:46:34.305773  9656 net.cpp:425] pool5/7x7_s1 <- inception_5b/output
I0403 19:46:34.305794  9656 net.cpp:399] pool5/7x7_s1 -> pool5/7x7_s1
I0403 19:46:34.306026  9656 net.cpp:141] Setting up pool5/7x7_s1
I0403 19:46:34.306056  9656 net.cpp:148] Top shape: 24 1024 1 1 (24576)
I0403 19:46:34.306073  9656 net.cpp:156] Memory required for data: 1345962528
I0403 19:46:34.306088  9656 layer_factory.hpp:77] Creating layer pool5/drop_7x7_s1
I0403 19:46:34.306107  9656 net.cpp:91] Creating Layer pool5/drop_7x7_s1
I0403 19:46:34.306123  9656 net.cpp:425] pool5/drop_7x7_s1 <- pool5/7x7_s1
I0403 19:46:34.306140  9656 net.cpp:386] pool5/drop_7x7_s1 -> pool5/7x7_s1 (in-place)
I0403 19:46:34.306195  9656 net.cpp:141] Setting up pool5/drop_7x7_s1
I0403 19:46:34.306221  9656 net.cpp:148] Top shape: 24 1024 1 1 (24576)
I0403 19:46:34.306236  9656 net.cpp:156] Memory required for data: 1346060832
I0403 19:46:34.306249  9656 layer_factory.hpp:77] Creating layer loss3/classifier_plantvillage
I0403 19:46:34.306277  9656 net.cpp:91] Creating Layer loss3/classifier_plantvillage
I0403 19:46:34.306295  9656 net.cpp:425] loss3/classifier_plantvillage <- pool5/7x7_s1
I0403 19:46:34.306314  9656 net.cpp:399] loss3/classifier_plantvillage -> loss3/classifier_plantvillage
I0403 19:46:34.306761  9656 net.cpp:141] Setting up loss3/classifier_plantvillage
I0403 19:46:34.306787  9656 net.cpp:148] Top shape: 24 38 (912)
I0403 19:46:34.306802  9656 net.cpp:156] Memory required for data: 1346064480
I0403 19:46:34.306819  9656 layer_factory.hpp:77] Creating layer loss3/classifier_plantvillage_loss3/classifier_plantvillage_0_split
I0403 19:46:34.306838  9656 net.cpp:91] Creating Layer loss3/classifier_plantvillage_loss3/classifier_plantvillage_0_split
I0403 19:46:34.306854  9656 net.cpp:425] loss3/classifier_plantvillage_loss3/classifier_plantvillage_0_split <- loss3/classifier_plantvillage
I0403 19:46:34.306875  9656 net.cpp:399] loss3/classifier_plantvillage_loss3/classifier_plantvillage_0_split -> loss3/classifier_plantvillage_loss3/classifier_plantvillage_0_split_0
I0403 19:46:34.306897  9656 net.cpp:399] loss3/classifier_plantvillage_loss3/classifier_plantvillage_0_split -> loss3/classifier_plantvillage_loss3/classifier_plantvillage_0_split_1
I0403 19:46:34.306918  9656 net.cpp:399] loss3/classifier_plantvillage_loss3/classifier_plantvillage_0_split -> loss3/classifier_plantvillage_loss3/classifier_plantvillage_0_split_2
I0403 19:46:34.306938  9656 net.cpp:399] loss3/classifier_plantvillage_loss3/classifier_plantvillage_0_split -> loss3/classifier_plantvillage_loss3/classifier_plantvillage_0_split_3
I0403 19:46:34.307044  9656 net.cpp:141] Setting up loss3/classifier_plantvillage_loss3/classifier_plantvillage_0_split
I0403 19:46:34.307067  9656 net.cpp:148] Top shape: 24 38 (912)
I0403 19:46:34.307083  9656 net.cpp:148] Top shape: 24 38 (912)
I0403 19:46:34.307099  9656 net.cpp:148] Top shape: 24 38 (912)
I0403 19:46:34.307114  9656 net.cpp:148] Top shape: 24 38 (912)
I0403 19:46:34.307129  9656 net.cpp:156] Memory required for data: 1346079072
I0403 19:46:34.307144  9656 layer_factory.hpp:77] Creating layer loss1/loss
I0403 19:46:34.307166  9656 net.cpp:91] Creating Layer loss1/loss
I0403 19:46:34.307186  9656 net.cpp:425] loss1/loss <- loss1/classifier_plantvillage_loss1/classifier_plantvillage_0_split_0
I0403 19:46:34.307219  9656 net.cpp:425] loss1/loss <- label_data_1_split_0
…
