…
I0403 19:50:02.874089  9718 net.cpp:313] The NetState phase (1) differed from the phase (0) specified by a rule in layer data
I0403 19:50:02.875327  9718 net.cpp:49] Initializing net from parameters: 
state {
  phase: TEST
}
layer {
  name: "data"
  type: "Data"
  top: "data"
  top: "label"
  include {
    phase: TEST
  }
  transform_param {
    mirror: false
    crop_size: 224
    mean_file: "/home/mohanty/data/final_dataset/lmdb/color-50-50/mean.binaryproto"
  }
  data_param {
    source: "/home/mohanty/data/final_dataset/lmdb/color-50-50/test_db"
    batch_size: 24
    backend: LMDB
  }
}
layer {
  name: "conv1/7x7_s2"
  type: "Convolution"
  bottom: "data"
  top: "conv1/7x7_s2"
  param {
    lr_mult: 1
    decay_mult: 1
  }
  param {
    lr_mult: 2
    decay_mult: 0
  }
  convolution_param {
    num_output: 64
    pad: 3
    kernel_size: 7
    stride: 2
    weight_filler {
      type: "xavier"
      std: 0.1
    }
    bias_filler {
      type: "constant"
      value: 0.2
    }
  }
}
layer {
  name: "conv1/relu_7x7"
  type: "ReLU"
  bottom: "conv1/7x7_s2"
  top: "conv1/7x7_s2"
}
layer {
  name: "pool1/3x3_s2"
  type: "Pooling"
  bottom: "conv1/7x7_s2"
  top: "pool1/3x3_s2"
  pooling_param {
    pool: MAX
    kernel_size: 3
    stride: 2
  }
}
layer {
  name: "pool1/norm1"
  type: "LRN"
  bottom: "pool1/3x3_s2"
  top: "pool1/norm1"
  lrn_param {
    local_size: 5
    alpha: 0.0001
    beta: 0.75
  }
}
layer {
  name: "conv2/3x3_reduce"
  type: "Convolution"
  bottom: "pool1/norm1"
  top: "conv2/3x3_reduce"
  param {
    lr_mult: 1
    decay_mult: 1
  }
  param {
    lr_mult: 2
    decay_mult: 0
  }
  convolution_param {
    num_output: 64
    kernel_size: 1
    weight_filler {
      type: "xavier"
      std: 0.1
    }
    bias_filler {
      type: "constant"
      value: 0.2
    }
  }
}
layer {
  name: "conv2/relu_3x3_reduce"
  type: "ReLU"
  bottom: "conv2/3x3_reduce"
  top: "conv2/3x3_reduce"
}
layer {
  name: "conv2/3x3"
  type: "Convolution"
  bottom: "conv2/3x3_reduce"
  top: "conv2/3x3"
  param {
    lr_mult: 1
    decay_mult: 1
  }
  param {
    lr_mult: 2
    decay_mult: 0
  }
  convolution_param {
    num_output: 192
    pad: 1
    kernel_size: 3
    weight_filler {
      type: "xavier"
      std: 0.03
    }
    bias_filler {
      type: "constant"
      value: 0.2
    }
  }
}
layer {
  name: "conv2/relu_3x3"
  type: "ReLU"
  bottom: "conv2/3x3"
  top: "conv2/3x3"
}
layer {
  name: "conv2/norm2"
  type: "LRN"
  bottom: "conv2/3x3"
  top: "conv2/norm2"
  lrn_param {
    local_size: 5
    alpha: 0.0001
    beta: 0.75
  }
}
layer {
  name: "pool2/3x3_s2"
  type: "Pooling"
  bottom: "conv2/norm2"
  top: "pool2/3x3_s2"
  pooling_param {
    pool: MAX
    kernel_size: 3
    stride: 2
  }
}
layer {
  name: "inception_3a/1x1"
  type: "Convolution"
  bottom: "pool2/3x3_s2"
  top: "inception_3a/1x1"
  param {
    lr_mult: 1
    decay_mult: 1
  }
  param {
    lr_mult: 2
    decay_mult: 0
  }
  convolution_param {
    num_output: 64
    kernel_size: 1
    weight_filler {
      type: "xavier"
      std: 0.03
    }
    bias_filler {
      type: "constant"
      value: 0.2
    }
  }
}
layer {
  name: "inception_3a/relu_1x1"
  type: "ReLU"
  bottom: "inception_3a/1x1"
  top: "inception_3a/1x1"
}
layer {
  name: "inception_3a/3x3_reduce"
  type: "Convolution"
  bottom: "pool2/3x3_s2"
  top: "inception_3a/3x3_reduce"
  param {
    lr_mult: 1
    decay_mult: 1
  }
  param {
    lr_mult: 2
    decay_mult: 0
  }
  convolution_param {
    num_output: 96
    kernel_size: 1
    weight_filler {
      type: "xavier"
      std: 0.09
    }
    bias_filler {
      type: "constant"
      value: 0.2
    }
  }
}
layer {
  name: "inception_3a/relu_3x3_reduce"
  type: "ReLU"
  bottom: "inception_3a/3x3_reduce"
  top: "inception_3a/3x3_reduce"
}
layer {
  name: "inception_3a/3x3"
  type: "Convolution"
  bottom: "inception_3a/3x3_reduce"
  top: "inception_3a/3x3"
  param {
    lr_mult: 1
    decay_mult: 1
  }
  param {
    lr_mult: 2
    decay_mult: 0
  }
  convolution_param {
    num_output: 128
    pad: 1
    kernel_size: 3
    weight_filler {
      type: "xavier"
      std: 0.03
    }
    bias_filler {
      type: "constant"
      value: 0.2
    }
  }
}
layer {
  name: "inception_3a/relu_3x3"
  type: "ReLU"
  bottom: "inception_3a/3x3"
  top: "inception_3a/3x3"
}
layer {
  name: "inception_3a/5x5_reduce"
  type: "Convolution"
  bottom: "pool2/3x3_s2"
  top: "inception_3a/5x5_reduce"
  param {
    lr_mult: 1
    decay_mult: 1
  }
  param {
    lr_mult: 2
    decay_mult: 0
  }
  convolution_param {
    num_output: 16
    kernel_size: 1
    weight_filler {
      type: "xavier"
      std: 0.2
    }
    bias_filler {
      type: "constant"
      value: 0.2
    }
  }
}
layer {
  name: "inception_3a/relu_5x5_reduce"
  type: "ReLU"
  bottom: "inception_3a/5x5_reduce"
  top: "inception_3a/5x5_reduce"
}
layer {
  name: "inception_3a/5x5"
  type: "Convolution"
  bottom: "inception_3a/5x5_reduce"
  top: "inception_3a/5x5"
  param {
    lr_mult: 1
    decay_mult: 1
  }
  param {
    lr_mult: 2
    decay_mult: 0
  }
  convolution_param {
    num_output: 32
    pad: 2
    kernel_size: 5
    weight_filler {
      type: "xavier"
      std: 0.03
    }
    bias_filler {
      type: "constant"
      value: 0.2
    }
  }
}
layer {
  name: "inception_3a/relu_5x5"
  type: "ReLU"
  bottom: "inception_3a/5x5"
  top: "inception_3a/5x5"
}
layer {
  name: "inception_3a/pool"
  type: "Pooling"
  bottom: "pool2/3x3_s2"
  top: "inception_3a/pool"
  pooling_param {
    pool: MAX
    kernel_size: 3
    stride: 1
    pad: 1
  }
}
layer {
  name: "inception_3a/pool_proj"
  type: "Convolution"
  bottom: "inception_3a/pool"
  top: "inception_3a/pool_proj"
  param {
    lr_mult: 1
    decay_mult: 1
  }
  param {
    lr_mult: 2
    decay_mult: 0
  }
  convolution_param {
    num_output: 32
    kernel_size: 1
    weight_filler {
      type: "xavier"
      std: 0.1
    }
    bias_filler {
      type: "constant"
      value: 0.2
    }
  }
}
layer {
  name: "inception_3a/relu_pool_proj"
  type: "ReLU"
  bottom: "inception_3a/pool_proj"
  top: "inception_3a/pool_proj"
}
layer {
  name: "inception_3a/output"
  type: "Concat"
  bottom: "inception_3a/1x1"
  bottom: "inception_3a/3x3"
  bottom: "inception_3a/5x5"
  bottom: "inception_3a/pool_proj"
  top: "inception_3a/output"
}
layer {
  name: "inception_3b/1x1"
  type: "Convolution"
  bottom: "inception_3a/output"
  top: "inception_3b/1x1"
  param {
    lr_mult: 1
    decay_mult: 1
  }
  param {
    lr_mult: 2
    decay_mult: 0
  }
  convolution_param {
    num_output: 128
    kernel_size: 1
    weight_filler {
      type: "xavier"
      std: 0.03
    }
    bias_filler {
      type: "constant"
      value: 0.2
    }
  }
}
layer {
  name: "inception_3b/relu_1x1"
  type: "ReLU"
  bottom: "inception_3b/1x1"
  top: "inception_3b/1x1"
}
layer {
  name: "inception_3b/3x3_reduce"
  type: "Convolution"
  bottom: "inception_3a/output"
  top: "inception_3b/3x3_reduce"
  param {
    lr_mult: 1
    decay_mult: 1
  }
  param {
    lr_mult: 2
    decay_mult: 0
  }
  convolution_param {
    num_output: 128
    kernel_size: 1
    weight_filler {
      type: "xavier"
      std: 0.09
    }
    bias_filler {
      type: "constant"
      value: 0.2
    }
  }
}
layer {
  name: "inception_3b/relu_3x3_reduce"
  type: "ReLU"
  bottom: "inception_3b/3x3_reduce"
  top: "inception_3b/3x3_reduce"
}
layer {
  name: "inception_3b/3x3"
  type: "Convolution"
  bottom: "inception_3b/3x3_reduce"
  top: "inception_3b/3x3"
  param {
    lr_mult: 1
    decay_mult: 1
  }
  param {
    lr_mult: 2
    decay_mult: 0
  }
  convolution_param {
    num_output: 192
    pad: 1
    kernel_size: 3
    weight_filler {
      type: "xavier"
      std: 0.03
    }
    bias_filler {
      type: "constant"
      value: 0.2
    }
  }
}
layer {
  name: "inception_3b/relu_3x3"
  type: "ReLU"
  bottom: "inception_3b/3x3"
  top: "inception_3b/3x3"
}
layer {
  name: "inception_3b/5x5_reduce"
  type: "Convolution"
  bottom: "inception_3a/output"
  top: "inception_3b/5x5_reduce"
  param {
    lr_mult: 1
    decay_mult: 1
  }
  param {
    lr_mult: 2
    decay_mult: 0
  }
  convolution_param {
    num_output: 32
    kernel_size: 1
    weight_filler {
      type: "xavier"
      std: 0.2
    }
    bias_filler {
      type: "constant"
      value: 0.2
    }
  }
}
layer {
  name: "inception_3b/relu_5x5_reduce"
  type: "ReLU"
  bottom: "inception_3b/5x5_reduce"
  top: "inception_3b/5x5_reduce"
}
layer {
  name: "inception_3b/5x5"
  type: "Convolution"
  bottom: "inception_3b/5x5_reduce"
  top: "inception_3b/5x5"
  param {
    lr_mult: 1
    decay_mult: 1
  }
  param {
    lr_mult: 2
    decay_mult: 0
  }
  convolution_param {
    num_output: 96
    pad: 2
    kernel_size: 5
    weight_filler {
      type: "xavier"
      std: 0.03
    }
    bias_filler {
      type: "constant"
      value: 0.2
    }
  }
}
layer {
  name: "inception_3b/relu_5x5"
  type: "ReLU"
  bottom: "inception_3b/5x5"
  top: "inception_3b/5x5"
}
layer {
  name: "inception_3b/pool"
  type: "Pooling"
  bottom: "inception_3a/output"
  top: "inception_3b/pool"
  pooling_param {
    pool: MAX
    kernel_size: 3
    stride: 1
    pad: 1
  }
}
layer {
  name: "inception_3b/pool_proj"
  type: "Convolution"
  bottom: "inception_3b/pool"
  top: "inception_3b/pool_proj"
  param {
    lr_mult: 1
    decay_mult: 1
  }
  param {
    lr_mult: 2
    decay_mult: 0
  }
  convolution_param {
    num_output: 64
    kernel_size: 1
    weight_filler {
      type: "xavier"
      std: 0.1
    }
    bias_filler {
      type: "constant"
      value: 0.2
    }
  }
}
layer {
  name: "inception_3b/relu_pool_proj"
  type: "ReLU"
  bottom: "inception_3b/pool_proj"
  top: "inception_3b/pool_proj"
}
layer {
  name: "inception_3b/output"
  type: "Concat"
  bottom: "inception_3b/1x1"
  bottom: "inception_3b/3x3"
  bottom: "inception_3b/5x5"
  bottom: "inception_3b/pool_proj"
  top: "inception_3b/output"
}
layer {
  name: "pool3/3x3_s2"
  type: "Pooling"
  bottom: "inception_3b/output"
  top: "pool3/3x3_s2"
  pooling_param {
    pool: MAX
    kernel_size: 3
    stride: 2
  }
}
layer {
  name: "inception_4a/1x1"
  type: "Convolution"
  bottom: "pool3/3x3_s2"
  top: "inception_4a/1x1"
  param {
    lr_mult: 1
    decay_mult: 1
  }
  param {
    lr_mult: 2
    decay_mult: 0
  }
  convolution_param {
    num_output: 192
    kernel_size: 1
    weight_filler {
      type: "xavier"
      std: 0.03
    }
    bias_filler {
      type: "constant"
      value: 0.2
    }
  }
}
layer {
  name: "inception_4a/relu_1x1"
  type: "ReLU"
  bottom: "inception_4a/1x1"
  top: "inception_4a/1x1"
}
layer {
  name: "inception_4a/3x3_reduce"
  type: "Convolution"
  bottom: "pool3/3x3_s2"
  top: "inception_4a/3x3_reduce"
  param {
    lr_mult: 1
    decay_mult: 1
  }
  param {
    lr_mult: 2
    decay_mult: 0
  }
  convolution_param {
    num_output: 96
    kernel_size: 1
    weight_filler {
      type: "xavier"
      std: 0.09
    }
    bias_filler {
      type: "constant"
      value: 0.2
    }
  }
}
layer {
  name: "inception_4a/relu_3x3_reduce"
  type: "ReLU"
  bottom: "inception_4a/3x3_reduce"
  top: "inception_4a/3x3_reduce"
}
layer {
  name: "inception_4a/3x3"
  type: "Convolution"
  bottom: "inception_4a/3x3_reduce"
  top: "inception_4a/3x3"
  param {
    lr_mult: 1
    decay_mult: 1
  }
  param {
    lr_mult: 2
    decay_mult: 0
  }
  convolution_param {
    num_output: 208
    pad: 1
    kernel_size: 3
    weight_filler {
      type: "xavier"
      std: 0.03
    }
    bias_filler {
      type: "constant"
      value: 0.2
    }
  }
}
layer {
  name: "inception_4a/relu_3x3"
  type: "ReLU"
  bottom: "inception_4a/3x3"
  top: "inception_4a/3x3"
}
layer {
  name: "inception_4a/5x5_reduce"
  type: "Convolution"
  bottom: "pool3/3x3_s2"
  top: "inception_4a/5x5_reduce"
  param {
    lr_mult: 1
    decay_mult: 1
  }
  param {
    lr_mult: 2
    decay_mult: 0
  }
  convolution_param {
    num_output: 16
    kernel_size: 1
    weight_filler {
      type: "xavier"
      std: 0.2
    }
    bias_filler {
      type: "constant"
      value: 0.2
    }
  }
}
layer {
  name: "inception_4a/relu_5x5_reduce"
  type: "ReLU"
  bottom: "inception_4a/5x5_reduce"
  top: "inception_4a/5x5_reduce"
}
layer {
  name: "inception_4a/5x5"
  type: "Convolution"
  bottom: "inception_4a/5x5_reduce"
  top: "inception_4a/5x5"
  param {
    lr_mult: 1
    decay_mult: 1
  }
  param {
    lr_mult: 2
    decay_mult: 0
  }
  convolution_param {
    num_output: 48
    pad: 2
    kernel_size: 5
    weight_filler {
      type: "xavier"
      std: 0.03
    }
    bias_filler {
      type: "constant"
      value: 0.2
    }
  }
}
layer {
  name: "inception_4a/relu_5x5"
  type: "ReLU"
  bottom: "inception_4a/5x5"
  top: "inception_4a/5x5"
}
layer {
  name: "inception_4a/pool"
  type: "Pooling"
  bottom: "pool3/3x3_s2"
  top: "inception_4a/pool"
  pooling_param {
    pool: MAX
    kernel_size: 3
    stride: 1
    pad: 1
  }
}
layer {
  name: "inception_4a/pool_proj"
  type: "Convolution"
  bottom: "inception_4a/pool"
  top: "inception_4a/pool_proj"
  param {
    lr_mult: 1
    decay_mult: 1
  }
  param {
    lr_mult: 2
    decay_mult: 0
  }
  convolution_param {
    num_output: 64
    kernel_size: 1
    weight_filler {
      type: "xavier"
      std: 0.1
    }
    bias_filler {
      type: "constant"
      value: 0.2
    }
  }
}
layer {
  name: "inception_4a/relu_pool_proj"
  type: "ReLU"
  bottom: "inception_4a/pool_proj"
  top: "inception_4a/pool_proj"
}
layer {
  name: "inception_4a/output"
  type: "Concat"
  bottom: "inception_4a/1x1"
  bottom: "inception_4a/3x3"
  bottom: "inception_4a/5x5"
  bottom: "inception_4a/pool_proj"
  top: "inception_4a/output"
}
layer {
  name: "loss1/ave_pool"
  type: "Pooling"
  bottom: "inception_4a/output"
  top: "loss1/ave_pool"
  pooling_param {
    pool: AVE
    kernel_size: 5
    stride: 3
  }
}
layer {
  name: "loss1/conv"
  type: "Convolution"
  bottom: "loss1/ave_pool"
  top: "loss1/conv"
  param {
    lr_mult: 1
    decay_mult: 1
  }
  param {
    lr_mult: 2
    decay_mult: 0
  }
  convolution_param {
    num_output: 128
    kernel_size: 1
    weight_filler {
      type: "xavier"
      std: 0.08
    }
    bias_filler {
      type: "constant"
      value: 0.2
    }
  }
}
layer {
  name: "loss1/relu_conv"
  type: "ReLU"
  bottom: "loss1/conv"
  top: "loss1/conv"
}
layer {
  name: "loss1/fc"
  type: "InnerProduct"
  bottom: "loss1/conv"
  top: "loss1/fc"
  param {
    lr_mult: 1
    decay_mult: 1
  }
  param {
    lr_mult: 2
    decay_mult: 0
  }
  inner_product_param {
    num_output: 1024
    weight_filler {
      type: "xavier"
      std: 0.02
    }
    bias_filler {
      type: "constant"
      value: 0.2
    }
  }
}
layer {
  name: "loss1/relu_fc"
  type: "ReLU"
  bottom: "loss1/fc"
  top: "loss1/fc"
}
layer {
  name: "loss1/drop_fc"
  type: "Dropout"
  bottom: "loss1/fc"
  top: "loss1/fc"
  dropout_param {
    dropout_ratio: 0.7
  }
}
layer {
  name: "loss1/classifier_plantvillage"
  type: "InnerProduct"
  bottom: "loss1/fc"
  top: "loss1/classifier_plantvillage"
  param {
    lr_mult: 1
    decay_mult: 1
  }
  param {
    lr_mult: 2
    decay_mult: 0
  }
  inner_product_param {
    num_output: 38
    weight_filler {
      type: "xavier"
      std: 0.0009765625
    }
    bias_filler {
      type: "constant"
      value: 0
    }
  }
}
layer {
  name: "inception_4b/1x1"
  type: "Convolution"
  bottom: "inception_4a/output"
  top: "inception_4b/1x1"
  param {
    lr_mult: 1
    decay_mult: 1
  }
  param {
    lr_mult: 2
    decay_mult: 0
  }
  convolution_param {
    num_output: 160
    kernel_size: 1
    weight_filler {
      type: "xavier"
      std: 0.03
    }
    bias_filler {
      type: "constant"
      value: 0.2
    }
  }
}
layer {
  name: "inception_4b/relu_1x1"
  type: "ReLU"
  bottom: "inception_4b/1x1"
  top: "inception_4b/1x1"
}
layer {
  name: "inception_4b/3x3_reduce"
  type: "Convolution"
  bottom: "inception_4a/output"
  top: "inception_4b/3x3_reduce"
  param {
    lr_mult: 1
    decay_mult: 1
  }
  param {
    lr_mult: 2
    decay_mult: 0
  }
  convolution_param {
    num_output: 112
    kernel_size: 1
    weight_filler {
      type: "xavier"
      std: 0.09
    }
    bias_filler {
      type: "constant"
      value: 0.2
    }
  }
}
layer {
  name: "inception_4b/relu_3x3_reduce"
  type: "ReLU"
  bottom: "inception_4b/3x3_reduce"
  top: "inception_4b/3x3_reduce"
}
layer {
  name: "inception_4b/3x3"
  type: "Convolution"
  bottom: "inception_4b/3x3_reduce"
  top: "inception_4b/3x3"
  param {
    lr_mult: 1
    decay_mult: 1
  }
  param {
    lr_mult: 2
    decay_mult: 0
  }
  convolution_param {
    num_output: 224
    pad: 1
    kernel_size: 3
    weight_filler {
      type: "xavier"
      std: 0.03
    }
    bias_filler {
      type: "constant"
      value: 0.2
    }
  }
}
layer {
  name: "inception_4b/relu_3x3"
  type: "ReLU"
  bottom: "inception_4b/3x3"
  top: "inception_4b/3x3"
}
layer {
  name: "inception_4b/5x5_reduce"
  type: "Convolution"
  bottom: "inception_4a/output"
  top: "inception_4b/5x5_reduce"
  param {
    lr_mult: 1
    decay_mult: 1
  }
  param {
    lr_mult: 2
    decay_mult: 0
  }
  convolution_param {
    num_output: 24
    kernel_size: 1
    weight_filler {
      type: "xavier"
      std: 0.2
    }
    bias_filler {
      type: "constant"
      value: 0.2
    }
  }
}
layer {
  name: "inception_4b/relu_5x5_reduce"
  type: "ReLU"
  bottom: "inception_4b/5x5_reduce"
  top: "inception_4b/5x5_reduce"
}
layer {
  name: "inception_4b/5x5"
  type: "Convolution"
  bottom: "inception_4b/5x5_reduce"
  top: "inception_4b/5x5"
  param {
    lr_mult: 1
    decay_mult: 1
  }
  param {
    lr_mult: 2
    decay_mult: 0
  }
  convolution_param {
    num_output: 64
    pad: 2
    kernel_size: 5
    weight_filler {
      type: "xavier"
      std: 0.03
    }
    bias_filler {
      type: "constant"
      value: 0.2
    }
  }
}
layer {
  name: "inception_4b/relu_5x5"
  type: "ReLU"
  bottom: "inception_4b/5x5"
  top: "inception_4b/5x5"
}
layer {
  name: "inception_4b/pool"
  type: "Pooling"
  bottom: "inception_4a/output"
  top: "inception_4b/pool"
  pooling_param {
    pool: MAX
    kernel_size: 3
    stride: 1
    pad: 1
  }
}
layer {
  name: "inception_4b/pool_proj"
  type: "Convolution"
  bottom: "inception_4b/pool"
  top: "inception_4b/pool_proj"
  param {
    lr_mult: 1
    decay_mult: 1
  }
  param {
    lr_mult: 2
    decay_mult: 0
  }
  convolution_param {
    num_output: 64
    kernel_size: 1
    weight_filler {
      type: "xavier"
      std: 0.1
    }
    bias_filler {
      type: "constant"
      value: 0.2
    }
  }
}
layer {
  name: "inception_4b/relu_pool_proj"
  type: "ReLU"
  bottom: "inception_4b/pool_proj"
  top: "inception_4b/pool_proj"
}
layer {
  name: "inception_4b/output"
  type: "Concat"
  bottom: "inception_4b/1x1"
  bottom: "inception_4b/3x3"
  bottom: "inception_4b/5x5"
  bottom: "inception_4b/pool_proj"
  top: "inception_4b/output"
}
layer {
  name: "inception_4c/1x1"
  type: "Convolution"
  bottom: "inception_4b/output"
  top: "inception_4c/1x1"
  param {
    lr_mult: 1
    decay_mult: 1
  }
  param {
    lr_mult: 2
    decay_mult: 0
  }
  convolution_param {
    num_output: 128
    kernel_size: 1
    weight_filler {
      type: "xavier"
      std: 0.03
    }
    bias_filler {
      type: "constant"
      value: 0.2
    }
  }
}
layer {
  name: "inception_4c/relu_1x1"
  type: "ReLU"
  bottom: "inception_4c/1x1"
  top: "inception_4c/1x1"
}
layer {
  name: "inception_4c/3x3_reduce"
  type: "Convolution"
  bottom: "inception_4b/output"
  top: "inception_4c/3x3_reduce"
  param {
    lr_mult: 1
    decay_mult: 1
  }
  param {
    lr_mult: 2
    decay_mult: 0
  }
  convolution_param {
    num_output: 128
    kernel_size: 1
    weight_filler {
      type: "xavier"
      std: 0.09
    }
    bias_filler {
      type: "constant"
      value: 0.2
    }
  }
}
layer {
  name: "inception_4c/relu_3x3_reduce"
  type: "ReLU"
  bottom: "inception_4c/3x3_reduce"
  top: "inception_4c/3x3_reduce"
}
layer {
  name: "inception_4c/3x3"
  type: "Convolution"
  bottom: "inception_4c/3x3_reduce"
  top: "inception_4c/3x3"
  param {
    lr_mult: 1
    decay_mult: 1
  }
  param {
    lr_mult: 2
    decay_mult: 0
  }
  convolution_param {
    num_output: 256
    pad: 1
    kernel_size: 3
    weight_filler {
      type: "xavier"
      std: 0.03
    }
    bias_filler {
      type: "constant"
      value: 0.2
    }
  }
}
layer {
  name: "inception_4c/relu_3x3"
  type: "ReLU"
  bottom: "inception_4c/3x3"
  top: "inception_4c/3x3"
}
layer {
  name: "inception_4c/5x5_reduce"
  type: "Convolution"
  bottom: "inception_4b/output"
  top: "inception_4c/5x5_reduce"
  param {
    lr_mult: 1
    decay_mult: 1
  }
  param {
    lr_mult: 2
    decay_mult: 0
  }
  convolution_param {
    num_output: 24
    kernel_size: 1
    weight_filler {
      type: "xavier"
      std: 0.2
    }
    bias_filler {
      type: "constant"
      value: 0.2
    }
  }
}
layer {
  name: "inception_4c/relu_5x5_reduce"
  type: "ReLU"
  bottom: "inception_4c/5x5_reduce"
  top: "inception_4c/5x5_reduce"
}
layer {
  name: "inception_4c/5x5"
  type: "Convolution"
  bottom: "inception_4c/5x5_reduce"
  top: "inception_4c/5x5"
  param {
    lr_mult: 1
    decay_mult: 1
  }
  param {
    lr_mult: 2
    decay_mult: 0
  }
  convolution_param {
    num_output: 64
    pad: 2
    kernel_size: 5
    weight_filler {
      type: "xavier"
      std: 0.03
    }
    bias_filler {
      type: "constant"
      value: 0.2
    }
  }
}
layer {
  name: "inception_4c/relu_5x5"
  type: "ReLU"
  bottom: "inception_4c/5x5"
  top: "inception_4c/5x5"
}
layer {
  name: "inception_4c/pool"
  type: "Pooling"
  bottom: "inception_4b/output"
  top: "inception_4c/pool"
  pooling_param {
    pool: MAX
    kernel_size: 3
    stride: 1
    pad: 1
  }
}
layer {
  name: "inception_4c/pool_proj"
  type: "Convolution"
  bottom: "inception_4c/pool"
  top: "inception_4c/pool_proj"
  param {
    lr_mult: 1
    decay_mult: 1
  }
  param {
    lr_mult: 2
    decay_mult: 0
  }
  convolution_param {
    num_output: 64
    kernel_size: 1
    weight_filler {
      type: "xavier"
      std: 0.1
    }
    bias_filler {
      type: "constant"
      value: 0.2
    }
  }
}
layer {
  name: "inception_4c/relu_pool_proj"
  type: "ReLU"
  bottom: "inception_4c/pool_proj"
  top: "inception_4c/pool_proj"
}
layer {
  name: "inception_4c/output"
  type: "Concat"
  bottom: "inception_4c/1x1"
  bottom: "inception_4c/3x3"
  bottom: "inception_4c/5x5"
  bottom: "inception_4c/pool_proj"
  top: "inception_4c/output"
}
layer {
  name: "inception_4d/1x1"
  type: "Convolution"
  bottom: "inception_4c/output"
  top: "inception_4d/1x1"
  param {
    lr_mult: 1
    decay_mult: 1
  }
  param {
    lr_mult: 2
    decay_mult: 0
  }
  convolution_param {
    num_output: 112
    kernel_size: 1
    weight_filler {
      type: "xavier"
      std: 0.03
    }
    bias_filler {
      type: "constant"
      value: 0.2
    }
  }
}
layer {
  name: "inception_4d/relu_1x1"
  type: "ReLU"
  bottom: "inception_4d/1x1"
  top: "inception_4d/1x1"
}
layer {
  name: "inception_4d/3x3_reduce"
  type: "Convolution"
  bottom: "inception_4c/output"
  top: "inception_4d/3x3_reduce"
  param {
    lr_mult: 1
    decay_mult: 1
  }
  param {
    lr_mult: 2
    decay_mult: 0
  }
  convolution_param {
    num_output: 144
    kernel_size: 1
    weight_filler {
      type: "xavier"
      std: 0.09
    }
    bias_filler {
      type: "constant"
      value: 0.2
    }
  }
}
layer {
  name: "inception_4d/relu_3x3_reduce"
  type: "ReLU"
  bottom: "inception_4d/3x3_reduce"
  top: "inception_4d/3x3_reduce"
}
layer {
  name: "inception_4d/3x3"
  type: "Convolution"
  bottom: "inception_4d/3x3_reduce"
  top: "inception_4d/3x3"
  param {
    lr_mult: 1
    decay_mult: 1
  }
  param {
    lr_mult: 2
    decay_mult: 0
  }
  convolution_param {
    num_output: 288
    pad: 1
    kernel_size: 3
    weight_filler {
      type: "xavier"
      std: 0.03
    }
    bias_filler {
      type: "constant"
      value: 0.2
    }
  }
}
layer {
  name: "inception_4d/relu_3x3"
  type: "ReLU"
  bottom: "inception_4d/3x3"
  top: "inception_4d/3x3"
}
layer {
  name: "inception_4d/5x5_reduce"
  type: "Convolution"
  bottom: "inception_4c/output"
  top: "inception_4d/5x5_reduce"
  param {
    lr_mult: 1
    decay_mult: 1
  }
  param {
    lr_mult: 2
    decay_mult: 0
  }
  convolution_param {
    num_output: 32
    kernel_size: 1
    weight_filler {
      type: "xavier"
      std: 0.2
    }
    bias_filler {
      type: "constant"
      value: 0.2
    }
  }
}
layer {
  name: "inception_4d/relu_5x5_reduce"
  type: "ReLU"
  bottom: "inception_4d/5x5_reduce"
  top: "inception_4d/5x5_reduce"
}
layer {
  name: "inception_4d/5x5"
  type: "Convolution"
  bottom: "inception_4d/5x5_reduce"
  top: "inception_4d/5x5"
  param {
    lr_mult: 1
    decay_mult: 1
  }
  param {
    lr_mult: 2
    decay_mult: 0
  }
  convolution_param {
    num_output: 64
    pad: 2
    kernel_size: 5
    weight_filler {
      type: "xavier"
      std: 0.03
    }
    bias_filler {
      type: "constant"
      value: 0.2
    }
  }
}
layer {
  name: "inception_4d/relu_5x5"
  type: "ReLU"
  bottom: "inception_4d/5x5"
  top: "inception_4d/5x5"
}
layer {
  name: "inception_4d/pool"
  type: "Pooling"
  bottom: "inception_4c/output"
  top: "inception_4d/pool"
  pooling_param {
    pool: MAX
    kernel_size: 3
    stride: 1
    pad: 1
  }
}
layer {
  name: "inception_4d/pool_proj"
  type: "Convolution"
  bottom: "inception_4d/pool"
  top: "inception_4d/pool_proj"
  param {
    lr_mult: 1
    decay_mult: 1
  }
  param {
    lr_mult: 2
    decay_mult: 0
  }
  convolution_param {
    num_output: 64
    kernel_size: 1
    weight_filler {
      type: "xavier"
      std: 0.1
    }
    bias_filler {
      type: "constant"
      value: 0.2
    }
  }
}
layer {
  name: "inception_4d/relu_pool_proj"
  type: "ReLU"
  bottom: "inception_4d/pool_proj"
  top: "inception_4d/pool_proj"
}
layer {
  name: "inception_4d/output"
  type: "Concat"
  bottom: "inception_4d/1x1"
  bottom: "inception_4d/3x3"
  bottom: "inception_4d/5x5"
  bottom: "inception_4d/pool_proj"
  top: "inception_4d/output"
}
layer {
  name: "loss2/ave_pool"
  type: "Pooling"
  bottom: "inception_4d/output"
  top: "loss2/ave_pool"
  pooling_param {
    pool: AVE
    kernel_size: 5
    stride: 3
  }
}
layer {
  name: "loss2/conv"
  type: "Convolution"
  bottom: "loss2/ave_pool"
  top: "loss2/conv"
  param {
    lr_mult: 1
    decay_mult: 1
  }
  param {
    lr_mult: 2
    decay_mult: 0
  }
  convolution_param {
    num_output: 128
    kernel_size: 1
    weight_filler {
      type: "xavier"
      std: 0.08
    }
    bias_filler {
      type: "constant"
      value: 0.2
    }
  }
}
layer {
  name: "loss2/relu_conv"
  type: "ReLU"
  bottom: "loss2/conv"
  top: "loss2/conv"
}
layer {
  name: "loss2/fc"
  type: "InnerProduct"
  bottom: "loss2/conv"
  top: "loss2/fc"
  param {
    lr_mult: 1
    decay_mult: 1
  }
  param {
    lr_mult: 2
    decay_mult: 0
  }
  inner_product_param {
    num_output: 1024
    weight_filler {
      type: "xavier"
      std: 0.02
    }
    bias_filler {
      type: "constant"
      value: 0.2
    }
  }
}
layer {
  name: "loss2/relu_fc"
  type: "ReLU"
  bottom: "loss2/fc"
  top: "loss2/fc"
}
layer {
  name: "loss2/drop_fc"
  type: "Dropout"
  bottom: "loss2/fc"
  top: "loss2/fc"
  dropout_param {
    dropout_ratio: 0.7
  }
}
layer {
  name: "loss2/classifier_plantvillage"
  type: "InnerProduct"
  bottom: "loss2/fc"
  top: "loss2/classifier_plantvillage"
  param {
    lr_mult: 1
    decay_mult: 1
  }
  param {
    lr_mult: 2
    decay_mult: 0
  }
  inner_product_param {
    num_output: 38
    weight_filler {
      type: "xavier"
      std: 0.0009765625
    }
    bias_filler {
      type: "constant"
      value: 0
    }
  }
}
layer {
  name: "inception_4e/1x1"
  type: "Convolution"
  bottom: "inception_4d/output"
  top: "inception_4e/1x1"
  param {
    lr_mult: 1
    decay_mult: 1
  }
  param {
    lr_mult: 2
    decay_mult: 0
  }
  convolution_param {
    num_output: 256
    kernel_size: 1
    weight_filler {
      type: "xavier"
      std: 0.03
    }
    bias_filler {
      type: "constant"
      value: 0.2
    }
  }
}
layer {
  name: "inception_4e/relu_1x1"
  type: "ReLU"
  bottom: "inception_4e/1x1"
  top: "inception_4e/1x1"
}
layer {
  name: "inception_4e/3x3_reduce"
  type: "Convolution"
  bottom: "inception_4d/output"
  top: "inception_4e/3x3_reduce"
  param {
    lr_mult: 1
    decay_mult: 1
  }
  param {
    lr_mult: 2
    decay_mult: 0
  }
  convolution_param {
    num_output: 160
    kernel_size: 1
    weight_filler {
      type: "xavier"
      std: 0.09
    }
    bias_filler {
      type: "constant"
      value: 0.2
    }
  }
}
layer {
  name: "inception_4e/relu_3x3_reduce"
  type: "ReLU"
  bottom: "inception_4e/3x3_reduce"
  top: "inception_4e/3x3_reduce"
}
layer {
  name: "inception_4e/3x3"
  type: "Convolution"
  bottom: "inception_4e/3x3_reduce"
  top: "inception_4e/3x3"
  param {
    lr_mult: 1
    decay_mult: 1
  }
  param {
    lr_mult: 2
    decay_mult: 0
  }
  convolution_param {
    num_output: 320
    pad: 1
    kernel_size: 3
    weight_filler {
      type: "xavier"
      std: 0.03
    }
    bias_filler {
      type: "constant"
      value: 0.2
    }
  }
}
layer {
  name: "inception_4e/relu_3x3"
  type: "ReLU"
  bottom: "inception_4e/3x3"
  top: "inception_4e/3x3"
}
layer {
  name: "inception_4e/5x5_reduce"
  type: "Convolution"
  bottom: "inception_4d/output"
  top: "inception_4e/5x5_reduce"
  param {
    lr_mult: 1
    decay_mult: 1
  }
  param {
    lr_mult: 2
    decay_mult: 0
  }
  convolution_param {
    num_output: 32
    kernel_size: 1
    weight_filler {
      type: "xavier"
      std: 0.2
    }
    bias_filler {
      type: "constant"
      value: 0.2
    }
  }
}
layer {
  name: "inception_4e/relu_5x5_reduce"
  type: "ReLU"
  bottom: "inception_4e/5x5_reduce"
  top: "inception_4e/5x5_reduce"
}
layer {
  name: "inception_4e/5x5"
  type: "Convolution"
  bottom: "inception_4e/5x5_reduce"
  top: "inception_4e/5x5"
  p
I0403 19:50:02.876811  9718 layer_factory.hpp:77] Creating layer data
I0403 19:50:02.877425  9718 net.cpp:91] Creating Layer data
I0403 19:50:02.877459  9718 net.cpp:399] data -> data
I0403 19:50:02.877511  9718 net.cpp:399] data -> label
I0403 19:50:02.877547  9718 data_transformer.cpp:25] Loading mean file from: /home/mohanty/data/final_dataset/lmdb/color-50-50/mean.binaryproto
I0403 19:50:02.878680  9726 db_lmdb.cpp:38] Opened lmdb /home/mohanty/data/final_dataset/lmdb/color-50-50/test_db
I0403 19:50:02.891067  9718 data_layer.cpp:41] output data size: 24,3,224,224
I0403 19:50:02.919246  9718 net.cpp:141] Setting up data
I0403 19:50:02.919344  9718 net.cpp:148] Top shape: 24 3 224 224 (3612672)
I0403 19:50:02.919370  9718 net.cpp:148] Top shape: 24 (24)
I0403 19:50:02.919386  9718 net.cpp:156] Memory required for data: 14450784
I0403 19:50:02.919417  9718 layer_factory.hpp:77] Creating layer label_data_1_split
I0403 19:50:02.919447  9718 net.cpp:91] Creating Layer label_data_1_split
I0403 19:50:02.919466  9718 net.cpp:425] label_data_1_split <- label
I0403 19:50:02.919497  9718 net.cpp:399] label_data_1_split -> label_data_1_split_0
I0403 19:50:02.919526  9718 net.cpp:399] label_data_1_split -> label_data_1_split_1
I0403 19:50:02.919548  9718 net.cpp:399] label_data_1_split -> label_data_1_split_2
I0403 19:50:02.919571  9718 net.cpp:399] label_data_1_split -> label_data_1_split_3
I0403 19:50:02.919592  9718 net.cpp:399] label_data_1_split -> label_data_1_split_4
I0403 19:50:02.919615  9718 net.cpp:399] label_data_1_split -> label_data_1_split_5
I0403 19:50:02.919634  9718 net.cpp:399] label_data_1_split -> label_data_1_split_6
I0403 19:50:02.919656  9718 net.cpp:399] label_data_1_split -> label_data_1_split_7
I0403 19:50:02.919677  9718 net.cpp:399] label_data_1_split -> label_data_1_split_8
I0403 19:50:02.919699  9718 net.cpp:399] label_data_1_split -> label_data_1_split_9
I0403 19:50:02.919824  9718 net.cpp:141] Setting up label_data_1_split
I0403 19:50:02.919848  9718 net.cpp:148] Top shape: 24 (24)
I0403 19:50:02.919867  9718 net.cpp:148] Top shape: 24 (24)
I0403 19:50:02.919883  9718 net.cpp:148] Top shape: 24 (24)
I0403 19:50:02.919900  9718 net.cpp:148] Top shape: 24 (24)
I0403 19:50:02.919916  9718 net.cpp:148] Top shape: 24 (24)
I0403 19:50:02.919932  9718 net.cpp:148] Top shape: 24 (24)
I0403 19:50:02.919950  9718 net.cpp:148] Top shape: 24 (24)
I0403 19:50:02.919965  9718 net.cpp:148] Top shape: 24 (24)
I0403 19:50:02.919981  9718 net.cpp:148] Top shape: 24 (24)
I0403 19:50:02.919999  9718 net.cpp:148] Top shape: 24 (24)
I0403 19:50:02.920050  9718 net.cpp:156] Memory required for data: 14451744
I0403 19:50:02.920068  9718 layer_factory.hpp:77] Creating layer conv1/7x7_s2
I0403 19:50:02.920100  9718 net.cpp:91] Creating Layer conv1/7x7_s2
I0403 19:50:02.920120  9718 net.cpp:425] conv1/7x7_s2 <- data
I0403 19:50:02.920140  9718 net.cpp:399] conv1/7x7_s2 -> conv1/7x7_s2
I0403 19:50:03.065842  9718 net.cpp:141] Setting up conv1/7x7_s2
I0403 19:50:03.065918  9718 net.cpp:148] Top shape: 24 64 112 112 (19267584)
I0403 19:50:03.065935  9718 net.cpp:156] Memory required for data: 91522080
I0403 19:50:03.065966  9718 layer_factory.hpp:77] Creating layer conv1/relu_7x7
I0403 19:50:03.065994  9718 net.cpp:91] Creating Layer conv1/relu_7x7
I0403 19:50:03.066012  9718 net.cpp:425] conv1/relu_7x7 <- conv1/7x7_s2
I0403 19:50:03.066031  9718 net.cpp:386] conv1/relu_7x7 -> conv1/7x7_s2 (in-place)
I0403 19:50:03.066299  9718 net.cpp:141] Setting up conv1/relu_7x7
I0403 19:50:03.066328  9718 net.cpp:148] Top shape: 24 64 112 112 (19267584)
I0403 19:50:03.066344  9718 net.cpp:156] Memory required for data: 168592416
I0403 19:50:03.066359  9718 layer_factory.hpp:77] Creating layer pool1/3x3_s2
I0403 19:50:03.066385  9718 net.cpp:91] Creating Layer pool1/3x3_s2
I0403 19:50:03.066403  9718 net.cpp:425] pool1/3x3_s2 <- conv1/7x7_s2
I0403 19:50:03.066421  9718 net.cpp:399] pool1/3x3_s2 -> pool1/3x3_s2
I0403 19:50:03.066496  9718 net.cpp:141] Setting up pool1/3x3_s2
I0403 19:50:03.066521  9718 net.cpp:148] Top shape: 24 64 56 56 (4816896)
I0403 19:50:03.066536  9718 net.cpp:156] Memory required for data: 187860000
I0403 19:50:03.066552  9718 layer_factory.hpp:77] Creating layer pool1/norm1
I0403 19:50:03.066589  9718 net.cpp:91] Creating Layer pool1/norm1
I0403 19:50:03.066607  9718 net.cpp:425] pool1/norm1 <- pool1/3x3_s2
I0403 19:50:03.066625  9718 net.cpp:399] pool1/norm1 -> pool1/norm1
I0403 19:50:03.066906  9718 net.cpp:141] Setting up pool1/norm1
I0403 19:50:03.066934  9718 net.cpp:148] Top shape: 24 64 56 56 (4816896)
I0403 19:50:03.066949  9718 net.cpp:156] Memory required for data: 207127584
I0403 19:50:03.066964  9718 layer_factory.hpp:77] Creating layer conv2/3x3_reduce
I0403 19:50:03.066989  9718 net.cpp:91] Creating Layer conv2/3x3_reduce
I0403 19:50:03.067005  9718 net.cpp:425] conv2/3x3_reduce <- pool1/norm1
I0403 19:50:03.067024  9718 net.cpp:399] conv2/3x3_reduce -> conv2/3x3_reduce
I0403 19:50:03.068429  9718 net.cpp:141] Setting up conv2/3x3_reduce
I0403 19:50:03.068460  9718 net.cpp:148] Top shape: 24 64 56 56 (4816896)
I0403 19:50:03.068477  9718 net.cpp:156] Memory required for data: 226395168
I0403 19:50:03.068500  9718 layer_factory.hpp:77] Creating layer conv2/relu_3x3_reduce
I0403 19:50:03.068518  9718 net.cpp:91] Creating Layer conv2/relu_3x3_reduce
I0403 19:50:03.068536  9718 net.cpp:425] conv2/relu_3x3_reduce <- conv2/3x3_reduce
I0403 19:50:03.068553  9718 net.cpp:386] conv2/relu_3x3_reduce -> conv2/3x3_reduce (in-place)
I0403 19:50:03.068810  9718 net.cpp:141] Setting up conv2/relu_3x3_reduce
I0403 19:50:03.068837  9718 net.cpp:148] Top shape: 24 64 56 56 (4816896)
I0403 19:50:03.068853  9718 net.cpp:156] Memory required for data: 245662752
I0403 19:50:03.068869  9718 layer_factory.hpp:77] Creating layer conv2/3x3
I0403 19:50:03.068892  9718 net.cpp:91] Creating Layer conv2/3x3
I0403 19:50:03.068909  9718 net.cpp:425] conv2/3x3 <- conv2/3x3_reduce
I0403 19:50:03.068928  9718 net.cpp:399] conv2/3x3 -> conv2/3x3
I0403 19:50:03.071244  9718 net.cpp:141] Setting up conv2/3x3
I0403 19:50:03.071277  9718 net.cpp:148] Top shape: 24 192 56 56 (14450688)
I0403 19:50:03.071295  9718 net.cpp:156] Memory required for data: 303465504
I0403 19:50:03.071317  9718 layer_factory.hpp:77] Creating layer conv2/relu_3x3
I0403 19:50:03.071337  9718 net.cpp:91] Creating Layer conv2/relu_3x3
I0403 19:50:03.071354  9718 net.cpp:425] conv2/relu_3x3 <- conv2/3x3
I0403 19:50:03.071372  9718 net.cpp:386] conv2/relu_3x3 -> conv2/3x3 (in-place)
I0403 19:50:03.071534  9718 net.cpp:141] Setting up conv2/relu_3x3
I0403 19:50:03.071560  9718 net.cpp:148] Top shape: 24 192 56 56 (14450688)
I0403 19:50:03.071594  9718 net.cpp:156] Memory required for data: 361268256
I0403 19:50:03.071610  9718 layer_factory.hpp:77] Creating layer conv2/norm2
I0403 19:50:03.071630  9718 net.cpp:91] Creating Layer conv2/norm2
I0403 19:50:03.071646  9718 net.cpp:425] conv2/norm2 <- conv2/3x3
I0403 19:50:03.071665  9718 net.cpp:399] conv2/norm2 -> conv2/norm2
I0403 19:50:03.071957  9718 net.cpp:141] Setting up conv2/norm2
I0403 19:50:03.071985  9718 net.cpp:148] Top shape: 24 192 56 56 (14450688)
I0403 19:50:03.072001  9718 net.cpp:156] Memory required for data: 419071008
I0403 19:50:03.072016  9718 layer_factory.hpp:77] Creating layer pool2/3x3_s2
I0403 19:50:03.072036  9718 net.cpp:91] Creating Layer pool2/3x3_s2
I0403 19:50:03.072052  9718 net.cpp:425] pool2/3x3_s2 <- conv2/norm2
I0403 19:50:03.072072  9718 net.cpp:399] pool2/3x3_s2 -> pool2/3x3_s2
I0403 19:50:03.072123  9718 net.cpp:141] Setting up pool2/3x3_s2
I0403 19:50:03.072146  9718 net.cpp:148] Top shape: 24 192 28 28 (3612672)
I0403 19:50:03.072162  9718 net.cpp:156] Memory required for data: 433521696
I0403 19:50:03.072177  9718 layer_factory.hpp:77] Creating layer pool2/3x3_s2_pool2/3x3_s2_0_split
I0403 19:50:03.072196  9718 net.cpp:91] Creating Layer pool2/3x3_s2_pool2/3x3_s2_0_split
I0403 19:50:03.072211  9718 net.cpp:425] pool2/3x3_s2_pool2/3x3_s2_0_split <- pool2/3x3_s2
I0403 19:50:03.072228  9718 net.cpp:399] pool2/3x3_s2_pool2/3x3_s2_0_split -> pool2/3x3_s2_pool2/3x3_s2_0_split_0
I0403 19:50:03.072262  9718 net.cpp:399] pool2/3x3_s2_pool2/3x3_s2_0_split -> pool2/3x3_s2_pool2/3x3_s2_0_split_1
I0403 19:50:03.072286  9718 net.cpp:399] pool2/3x3_s2_pool2/3x3_s2_0_split -> pool2/3x3_s2_pool2/3x3_s2_0_split_2
I0403 19:50:03.072309  9718 net.cpp:399] pool2/3x3_s2_pool2/3x3_s2_0_split -> pool2/3x3_s2_pool2/3x3_s2_0_split_3
I0403 19:50:03.072376  9718 net.cpp:141] Setting up pool2/3x3_s2_pool2/3x3_s2_0_split
I0403 19:50:03.072401  9718 net.cpp:148] Top shape: 24 192 28 28 (3612672)
I0403 19:50:03.072417  9718 net.cpp:148] Top shape: 24 192 28 28 (3612672)
I0403 19:50:03.072433  9718 net.cpp:148] Top shape: 24 192 28 28 (3612672)
I0403 19:50:03.072449  9718 net.cpp:148] Top shape: 24 192 28 28 (3612672)
I0403 19:50:03.072463  9718 net.cpp:156] Memory required for data: 491324448
I0403 19:50:03.072479  9718 layer_factory.hpp:77] Creating layer inception_3a/1x1
I0403 19:50:03.072499  9718 net.cpp:91] Creating Layer inception_3a/1x1
I0403 19:50:03.072515  9718 net.cpp:425] inception_3a/1x1 <- pool2/3x3_s2_pool2/3x3_s2_0_split_0
I0403 19:50:03.072535  9718 net.cpp:399] inception_3a/1x1 -> inception_3a/1x1
I0403 19:50:03.074092  9718 net.cpp:141] Setting up inception_3a/1x1
I0403 19:50:03.074123  9718 net.cpp:148] Top shape: 24 64 28 28 (1204224)
I0403 19:50:03.074141  9718 net.cpp:156] Memory required for data: 496141344
I0403 19:50:03.074159  9718 layer_factory.hpp:77] Creating layer inception_3a/relu_1x1
I0403 19:50:03.074182  9718 net.cpp:91] Creating Layer inception_3a/relu_1x1
I0403 19:50:03.074198  9718 net.cpp:425] inception_3a/relu_1x1 <- inception_3a/1x1
I0403 19:50:03.074216  9718 net.cpp:386] inception_3a/relu_1x1 -> inception_3a/1x1 (in-place)
I0403 19:50:03.074399  9718 net.cpp:141] Setting up inception_3a/relu_1x1
I0403 19:50:03.074425  9718 net.cpp:148] Top shape: 24 64 28 28 (1204224)
I0403 19:50:03.074440  9718 net.cpp:156] Memory required for data: 500958240
I0403 19:50:03.074461  9718 layer_factory.hpp:77] Creating layer inception_3a/3x3_reduce
I0403 19:50:03.074484  9718 net.cpp:91] Creating Layer inception_3a/3x3_reduce
I0403 19:50:03.074501  9718 net.cpp:425] inception_3a/3x3_reduce <- pool2/3x3_s2_pool2/3x3_s2_0_split_1
I0403 19:50:03.074524  9718 net.cpp:399] inception_3a/3x3_reduce -> inception_3a/3x3_reduce
I0403 19:50:03.076284  9718 net.cpp:141] Setting up inception_3a/3x3_reduce
I0403 19:50:03.076315  9718 net.cpp:148] Top shape: 24 96 28 28 (1806336)
I0403 19:50:03.076331  9718 net.cpp:156] Memory required for data: 508183584
I0403 19:50:03.076354  9718 layer_factory.hpp:77] Creating layer inception_3a/relu_3x3_reduce
I0403 19:50:03.076395  9718 net.cpp:91] Creating Layer inception_3a/relu_3x3_reduce
I0403 19:50:03.076413  9718 net.cpp:425] inception_3a/relu_3x3_reduce <- inception_3a/3x3_reduce
I0403 19:50:03.076431  9718 net.cpp:386] inception_3a/relu_3x3_reduce -> inception_3a/3x3_reduce (in-place)
I0403 19:50:03.076617  9718 net.cpp:141] Setting up inception_3a/relu_3x3_reduce
I0403 19:50:03.076645  9718 net.cpp:148] Top shape: 24 96 28 28 (1806336)
I0403 19:50:03.076661  9718 net.cpp:156] Memory required for data: 515408928
I0403 19:50:03.076678  9718 layer_factory.hpp:77] Creating layer inception_3a/3x3
I0403 19:50:03.076700  9718 net.cpp:91] Creating Layer inception_3a/3x3
I0403 19:50:03.076721  9718 net.cpp:425] inception_3a/3x3 <- inception_3a/3x3_reduce
I0403 19:50:03.076745  9718 net.cpp:399] inception_3a/3x3 -> inception_3a/3x3
I0403 19:50:03.078485  9718 net.cpp:141] Setting up inception_3a/3x3
I0403 19:50:03.078516  9718 net.cpp:148] Top shape: 24 128 28 28 (2408448)
I0403 19:50:03.078532  9718 net.cpp:156] Memory required for data: 525042720
I0403 19:50:03.078552  9718 layer_factory.hpp:77] Creating layer inception_3a/relu_3x3
I0403 19:50:03.078572  9718 net.cpp:91] Creating Layer inception_3a/relu_3x3
I0403 19:50:03.078590  9718 net.cpp:425] inception_3a/relu_3x3 <- inception_3a/3x3
I0403 19:50:03.078608  9718 net.cpp:386] inception_3a/relu_3x3 -> inception_3a/3x3 (in-place)
I0403 19:50:03.078889  9718 net.cpp:141] Setting up inception_3a/relu_3x3
I0403 19:50:03.078917  9718 net.cpp:148] Top shape: 24 128 28 28 (2408448)
I0403 19:50:03.078933  9718 net.cpp:156] Memory required for data: 534676512
I0403 19:50:03.078948  9718 layer_factory.hpp:77] Creating layer inception_3a/5x5_reduce
I0403 19:50:03.078971  9718 net.cpp:91] Creating Layer inception_3a/5x5_reduce
I0403 19:50:03.078989  9718 net.cpp:425] inception_3a/5x5_reduce <- pool2/3x3_s2_pool2/3x3_s2_0_split_2
I0403 19:50:03.079011  9718 net.cpp:399] inception_3a/5x5_reduce -> inception_3a/5x5_reduce
I0403 19:50:03.080001  9718 net.cpp:141] Setting up inception_3a/5x5_reduce
I0403 19:50:03.080030  9718 net.cpp:148] Top shape: 24 16 28 28 (301056)
I0403 19:50:03.080046  9718 net.cpp:156] Memory required for data: 535880736
I0403 19:50:03.080066  9718 layer_factory.hpp:77] Creating layer inception_3a/relu_5x5_reduce
I0403 19:50:03.080087  9718 net.cpp:91] Creating Layer inception_3a/relu_5x5_reduce
I0403 19:50:03.080104  9718 net.cpp:425] inception_3a/relu_5x5_reduce <- inception_3a/5x5_reduce
I0403 19:50:03.080122  9718 net.cpp:386] inception_3a/relu_5x5_reduce -> inception_3a/5x5_reduce (in-place)
I0403 19:50:03.080425  9718 net.cpp:141] Setting up inception_3a/relu_5x5_reduce
I0403 19:50:03.080456  9718 net.cpp:148] Top shape: 24 16 28 28 (301056)
I0403 19:50:03.080471  9718 net.cpp:156] Memory required for data: 537084960
I0403 19:50:03.080487  9718 layer_factory.hpp:77] Creating layer inception_3a/5x5
I0403 19:50:03.080510  9718 net.cpp:91] Creating Layer inception_3a/5x5
I0403 19:50:03.080528  9718 net.cpp:425] inception_3a/5x5 <- inception_3a/5x5_reduce
I0403 19:50:03.080549  9718 net.cpp:399] inception_3a/5x5 -> inception_3a/5x5
I0403 19:50:03.081600  9718 net.cpp:141] Setting up inception_3a/5x5
I0403 19:50:03.081630  9718 net.cpp:148] Top shape: 24 32 28 28 (602112)
I0403 19:50:03.081646  9718 net.cpp:156] Memory required for data: 539493408
I0403 19:50:03.081666  9718 layer_factory.hpp:77] Creating layer inception_3a/relu_5x5
I0403 19:50:03.081689  9718 net.cpp:91] Creating Layer inception_3a/relu_5x5
I0403 19:50:03.081708  9718 net.cpp:425] inception_3a/relu_5x5 <- inception_3a/5x5
I0403 19:50:03.081727  9718 net.cpp:386] inception_3a/relu_5x5 -> inception_3a/5x5 (in-place)
I0403 19:50:03.081907  9718 net.cpp:141] Setting up inception_3a/relu_5x5
I0403 19:50:03.081933  9718 net.cpp:148] Top shape: 24 32 28 28 (602112)
I0403 19:50:03.081948  9718 net.cpp:156] Memory required for data: 541901856
I0403 19:50:03.081965  9718 layer_factory.hpp:77] Creating layer inception_3a/pool
I0403 19:50:03.081986  9718 net.cpp:91] Creating Layer inception_3a/pool
I0403 19:50:03.082003  9718 net.cpp:425] inception_3a/pool <- pool2/3x3_s2_pool2/3x3_s2_0_split_3
I0403 19:50:03.082036  9718 net.cpp:399] inception_3a/pool -> inception_3a/pool
I0403 19:50:03.082098  9718 net.cpp:141] Setting up inception_3a/pool
I0403 19:50:03.082123  9718 net.cpp:148] Top shape: 24 192 28 28 (3612672)
I0403 19:50:03.082137  9718 net.cpp:156] Memory required for data: 556352544
I0403 19:50:03.082154  9718 layer_factory.hpp:77] Creating layer inception_3a/pool_proj
I0403 19:50:03.082176  9718 net.cpp:91] Creating Layer inception_3a/pool_proj
I0403 19:50:03.082195  9718 net.cpp:425] inception_3a/pool_proj <- inception_3a/pool
I0403 19:50:03.082218  9718 net.cpp:399] inception_3a/pool_proj -> inception_3a/pool_proj
I0403 19:50:03.083221  9718 net.cpp:141] Setting up inception_3a/pool_proj
I0403 19:50:03.083257  9718 net.cpp:148] Top shape: 24 32 28 28 (602112)
I0403 19:50:03.083276  9718 net.cpp:156] Memory required for data: 558760992
I0403 19:50:03.083297  9718 layer_factory.hpp:77] Creating layer inception_3a/relu_pool_proj
I0403 19:50:03.083320  9718 net.cpp:91] Creating Layer inception_3a/relu_pool_proj
I0403 19:50:03.083338  9718 net.cpp:425] inception_3a/relu_pool_proj <- inception_3a/pool_proj
I0403 19:50:03.083356  9718 net.cpp:386] inception_3a/relu_pool_proj -> inception_3a/pool_proj (in-place)
I0403 19:50:03.083636  9718 net.cpp:141] Setting up inception_3a/relu_pool_proj
I0403 19:50:03.083662  9718 net.cpp:148] Top shape: 24 32 28 28 (602112)
I0403 19:50:03.083678  9718 net.cpp:156] Memory required for data: 561169440
I0403 19:50:03.083694  9718 layer_factory.hpp:77] Creating layer inception_3a/output
I0403 19:50:03.083715  9718 net.cpp:91] Creating Layer inception_3a/output
I0403 19:50:03.083731  9718 net.cpp:425] inception_3a/output <- inception_3a/1x1
I0403 19:50:03.083748  9718 net.cpp:425] inception_3a/output <- inception_3a/3x3
I0403 19:50:03.083765  9718 net.cpp:425] inception_3a/output <- inception_3a/5x5
I0403 19:50:03.083781  9718 net.cpp:425] inception_3a/output <- inception_3a/pool_proj
I0403 19:50:03.083797  9718 net.cpp:399] inception_3a/output -> inception_3a/output
I0403 19:50:03.083844  9718 net.cpp:141] Setting up inception_3a/output
I0403 19:50:03.083870  9718 net.cpp:148] Top shape: 24 256 28 28 (4816896)
I0403 19:50:03.083889  9718 net.cpp:156] Memory required for data: 580437024
I0403 19:50:03.083904  9718 layer_factory.hpp:77] Creating layer inception_3a/output_inception_3a/output_0_split
I0403 19:50:03.083921  9718 net.cpp:91] Creating Layer inception_3a/output_inception_3a/output_0_split
I0403 19:50:03.083937  9718 net.cpp:425] inception_3a/output_inception_3a/output_0_split <- inception_3a/output
I0403 19:50:03.083957  9718 net.cpp:399] inception_3a/output_inception_3a/output_0_split -> inception_3a/output_inception_3a/output_0_split_0
I0403 19:50:03.083978  9718 net.cpp:399] inception_3a/output_inception_3a/output_0_split -> inception_3a/output_inception_3a/output_0_split_1
I0403 19:50:03.084002  9718 net.cpp:399] inception_3a/output_inception_3a/output_0_split -> inception_3a/output_inception_3a/output_0_split_2
I0403 19:50:03.084023  9718 net.cpp:399] inception_3a/output_inception_3a/output_0_split -> inception_3a/output_inception_3a/output_0_split_3
I0403 19:50:03.084105  9718 net.cpp:141] Setting up inception_3a/output_inception_3a/output_0_split
I0403 19:50:03.084128  9718 net.cpp:148] Top shape: 24 256 28 28 (4816896)
I0403 19:50:03.084146  9718 net.cpp:148] Top shape: 24 256 28 28 (4816896)
I0403 19:50:03.084162  9718 net.cpp:148] Top shape: 24 256 28 28 (4816896)
I0403 19:50:03.084179  9718 net.cpp:148] Top shape: 24 256 28 28 (4816896)
I0403 19:50:03.084193  9718 net.cpp:156] Memory required for data: 657507360
I0403 19:50:03.084208  9718 layer_factory.hpp:77] Creating layer inception_3b/1x1
I0403 19:50:03.084231  9718 net.cpp:91] Creating Layer inception_3b/1x1
I0403 19:50:03.084266  9718 net.cpp:425] inception_3b/1x1 <- inception_3a/output_inception_3a/output_0_split_0
I0403 19:50:03.084290  9718 net.cpp:399] inception_3b/1x1 -> inception_3b/1x1
I0403 19:50:03.085538  9718 net.cpp:141] Setting up inception_3b/1x1
I0403 19:50:03.085579  9718 net.cpp:148] Top shape: 24 128 28 28 (2408448)
I0403 19:50:03.085597  9718 net.cpp:156] Memory required for data: 667141152
I0403 19:50:03.085616  9718 layer_factory.hpp:77] Creating layer inception_3b/relu_1x1
I0403 19:50:03.085635  9718 net.cpp:91] Creating Layer inception_3b/relu_1x1
I0403 19:50:03.085651  9718 net.cpp:425] inception_3b/relu_1x1 <- inception_3b/1x1
I0403 19:50:03.085671  9718 net.cpp:386] inception_3b/relu_1x1 -> inception_3b/1x1 (in-place)
I0403 19:50:03.085852  9718 net.cpp:141] Setting up inception_3b/relu_1x1
I0403 19:50:03.085878  9718 net.cpp:148] Top shape: 24 128 28 28 (2408448)
I0403 19:50:03.085894  9718 net.cpp:156] Memory required for data: 676774944
I0403 19:50:03.085909  9718 layer_factory.hpp:77] Creating layer inception_3b/3x3_reduce
I0403 19:50:03.085933  9718 net.cpp:91] Creating Layer inception_3b/3x3_reduce
I0403 19:50:03.085950  9718 net.cpp:425] inception_3b/3x3_reduce <- inception_3a/output_inception_3a/output_0_split_1
I0403 19:50:03.085973  9718 net.cpp:399] inception_3b/3x3_reduce -> inception_3b/3x3_reduce
I0403 19:50:03.087157  9718 net.cpp:141] Setting up inception_3b/3x3_reduce
I0403 19:50:03.087189  9718 net.cpp:148] Top shape: 24 128 28 28 (2408448)
I0403 19:50:03.087205  9718 net.cpp:156] Memory required for data: 686408736
I0403 19:50:03.087224  9718 layer_factory.hpp:77] Creating layer inception_3b/relu_3x3_reduce
I0403 19:50:03.087249  9718 net.cpp:91] Creating Layer inception_3b/relu_3x3_reduce
I0403 19:50:03.087270  9718 net.cpp:425] inception_3b/relu_3x3_reduce <- inception_3b/3x3_reduce
I0403 19:50:03.087291  9718 net.cpp:386] inception_3b/relu_3x3_reduce -> inception_3b/3x3_reduce (in-place)
I0403 19:50:03.087473  9718 net.cpp:141] Setting up inception_3b/relu_3x3_reduce
I0403 19:50:03.087498  9718 net.cpp:148] Top shape: 24 128 28 28 (2408448)
I0403 19:50:03.087514  9718 net.cpp:156] Memory required for data: 696042528
I0403 19:50:03.087529  9718 layer_factory.hpp:77] Creating layer inception_3b/3x3
I0403 19:50:03.087555  9718 net.cpp:91] Creating Layer inception_3b/3x3
I0403 19:50:03.087574  9718 net.cpp:425] inception_3b/3x3 <- inception_3b/3x3_reduce
I0403 19:50:03.087594  9718 net.cpp:399] inception_3b/3x3 -> inception_3b/3x3
I0403 19:50:03.090611  9718 net.cpp:141] Setting up inception_3b/3x3
I0403 19:50:03.090641  9718 net.cpp:148] Top shape: 24 192 28 28 (3612672)
I0403 19:50:03.090658  9718 net.cpp:156] Memory required for data: 710493216
I0403 19:50:03.090677  9718 layer_factory.hpp:77] Creating layer inception_3b/relu_3x3
I0403 19:50:03.090698  9718 net.cpp:91] Creating Layer inception_3b/relu_3x3
I0403 19:50:03.090714  9718 net.cpp:425] inception_3b/relu_3x3 <- inception_3b/3x3
I0403 19:50:03.090733  9718 net.cpp:386] inception_3b/relu_3x3 -> inception_3b/3x3 (in-place)
I0403 19:50:03.091020  9718 net.cpp:141] Setting up inception_3b/relu_3x3
I0403 19:50:03.091048  9718 net.cpp:148] Top shape: 24 192 28 28 (3612672)
I0403 19:50:03.091063  9718 net.cpp:156] Memory required for data: 724943904
I0403 19:50:03.091079  9718 layer_factory.hpp:77] Creating layer inception_3b/5x5_reduce
I0403 19:50:03.091102  9718 net.cpp:91] Creating Layer inception_3b/5x5_reduce
I0403 19:50:03.091120  9718 net.cpp:425] inception_3b/5x5_reduce <- inception_3a/output_inception_3a/output_0_split_2
I0403 19:50:03.091145  9718 net.cpp:399] inception_3b/5x5_reduce -> inception_3b/5x5_reduce
I0403 19:50:03.092176  9718 net.cpp:141] Setting up inception_3b/5x5_reduce
I0403 19:50:03.092207  9718 net.cpp:148] Top shape: 24 32 28 28 (602112)
I0403 19:50:03.092224  9718 net.cpp:156] Memory required for data: 727352352
I0403 19:50:03.092254  9718 layer_factory.hpp:77] Creating layer inception_3b/relu_5x5_reduce
I0403 19:50:03.092279  9718 net.cpp:91] Creating Layer inception_3b/relu_5x5_reduce
I0403 19:50:03.092298  9718 net.cpp:425] inception_3b/relu_5x5_reduce <- inception_3b/5x5_reduce
I0403 19:50:03.092315  9718 net.cpp:386] inception_3b/relu_5x5_reduce -> inception_3b/5x5_reduce (in-place)
I0403 19:50:03.092504  9718 net.cpp:141] Setting up inception_3b/relu_5x5_reduce
I0403 19:50:03.092542  9718 net.cpp:148] Top shape: 24 32 28 28 (602112)
I0403 19:50:03.092560  9718 net.cpp:156] Memory required for data: 729760800
I0403 19:50:03.092576  9718 layer_factory.hpp:77] Creating layer inception_3b/5x5
I0403 19:50:03.092602  9718 net.cpp:91] Creating Layer inception_3b/5x5
I0403 19:50:03.092622  9718 net.cpp:425] inception_3b/5x5 <- inception_3b/5x5_reduce
I0403 19:50:03.092643  9718 net.cpp:399] inception_3b/5x5 -> inception_3b/5x5
I0403 19:50:03.094694  9718 net.cpp:141] Setting up inception_3b/5x5
I0403 19:50:03.094729  9718 net.cpp:148] Top shape: 24 96 28 28 (1806336)
I0403 19:50:03.094748  9718 net.cpp:156] Memory required for data: 736986144
I0403 19:50:03.094769  9718 layer_factory.hpp:77] Creating layer inception_3b/relu_5x5
I0403 19:50:03.094787  9718 net.cpp:91] Creating Layer inception_3b/relu_5x5
I0403 19:50:03.094805  9718 net.cpp:425] inception_3b/relu_5x5 <- inception_3b/5x5
I0403 19:50:03.094827  9718 net.cpp:386] inception_3b/relu_5x5 -> inception_3b/5x5 (in-place)
I0403 19:50:03.095034  9718 net.cpp:141] Setting up inception_3b/relu_5x5
I0403 19:50:03.095062  9718 net.cpp:148] Top shape: 24 96 28 28 (1806336)
I0403 19:50:03.095077  9718 net.cpp:156] Memory required for data: 744211488
I0403 19:50:03.095093  9718 layer_factory.hpp:77] Creating layer inception_3b/pool
I0403 19:50:03.095113  9718 net.cpp:91] Creating Layer inception_3b/pool
I0403 19:50:03.095129  9718 net.cpp:425] inception_3b/pool <- inception_3a/output_inception_3a/output_0_split_3
I0403 19:50:03.095151  9718 net.cpp:399] inception_3b/pool -> inception_3b/pool
I0403 19:50:03.095212  9718 net.cpp:141] Setting up inception_3b/pool
I0403 19:50:03.095237  9718 net.cpp:148] Top shape: 24 256 28 28 (4816896)
I0403 19:50:03.095258  9718 net.cpp:156] Memory required for data: 763479072
I0403 19:50:03.095273  9718 layer_factory.hpp:77] Creating layer inception_3b/pool_proj
I0403 19:50:03.095296  9718 net.cpp:91] Creating Layer inception_3b/pool_proj
I0403 19:50:03.095314  9718 net.cpp:425] inception_3b/pool_proj <- inception_3b/pool
I0403 19:50:03.095336  9718 net.cpp:399] inception_3b/pool_proj -> inception_3b/pool_proj
I0403 19:50:03.096443  9718 net.cpp:141] Setting up inception_3b/pool_proj
I0403 19:50:03.096473  9718 net.cpp:148] Top shape: 24 64 28 28 (1204224)
I0403 19:50:03.096489  9718 net.cpp:156] Memory required for data: 768295968
I0403 19:50:03.096508  9718 layer_factory.hpp:77] Creating layer inception_3b/relu_pool_proj
I0403 19:50:03.096530  9718 net.cpp:91] Creating Layer inception_3b/relu_pool_proj
I0403 19:50:03.096547  9718 net.cpp:425] inception_3b/relu_pool_proj <- inception_3b/pool_proj
I0403 19:50:03.096566  9718 net.cpp:386] inception_3b/relu_pool_proj -> inception_3b/pool_proj (in-place)
I0403 19:50:03.096978  9718 net.cpp:141] Setting up inception_3b/relu_pool_proj
I0403 19:50:03.097007  9718 net.cpp:148] Top shape: 24 64 28 28 (1204224)
I0403 19:50:03.097025  9718 net.cpp:156] Memory required for data: 773112864
I0403 19:50:03.097043  9718 layer_factory.hpp:77] Creating layer inception_3b/output
I0403 19:50:03.097064  9718 net.cpp:91] Creating Layer inception_3b/output
I0403 19:50:03.097079  9718 net.cpp:425] inception_3b/output <- inception_3b/1x1
I0403 19:50:03.097096  9718 net.cpp:425] inception_3b/output <- inception_3b/3x3
I0403 19:50:03.097113  9718 net.cpp:425] inception_3b/output <- inception_3b/5x5
I0403 19:50:03.097131  9718 net.cpp:425] inception_3b/output <- inception_3b/pool_proj
I0403 19:50:03.097147  9718 net.cpp:399] inception_3b/output -> inception_3b/output
I0403 19:50:03.097194  9718 net.cpp:141] Setting up inception_3b/output
I0403 19:50:03.097218  9718 net.cpp:148] Top shape: 24 480 28 28 (9031680)
I0403 19:50:03.097234  9718 net.cpp:156] Memory required for data: 809239584
I0403 19:50:03.097254  9718 layer_factory.hpp:77] Creating layer pool3/3x3_s2
I0403 19:50:03.097272  9718 net.cpp:91] Creating Layer pool3/3x3_s2
I0403 19:50:03.097288  9718 net.cpp:425] pool3/3x3_s2 <- inception_3b/output
I0403 19:50:03.097312  9718 net.cpp:399] pool3/3x3_s2 -> pool3/3x3_s2
I0403 19:50:03.097388  9718 net.cpp:141] Setting up pool3/3x3_s2
I0403 19:50:03.097414  9718 net.cpp:148] Top shape: 24 480 14 14 (2257920)
I0403 19:50:03.097429  9718 net.cpp:156] Memory required for data: 818271264
I0403 19:50:03.097443  9718 layer_factory.hpp:77] Creating layer pool3/3x3_s2_pool3/3x3_s2_0_split
I0403 19:50:03.097473  9718 net.cpp:91] Creating Layer pool3/3x3_s2_pool3/3x3_s2_0_split
I0403 19:50:03.097491  9718 net.cpp:425] pool3/3x3_s2_pool3/3x3_s2_0_split <- pool3/3x3_s2
I0403 19:50:03.097512  9718 net.cpp:399] pool3/3x3_s2_pool3/3x3_s2_0_split -> pool3/3x3_s2_pool3/3x3_s2_0_split_0
I0403 19:50:03.097533  9718 net.cpp:399] pool3/3x3_s2_pool3/3x3_s2_0_split -> pool3/3x3_s2_pool3/3x3_s2_0_split_1
I0403 19:50:03.097554  9718 net.cpp:399] pool3/3x3_s2_pool3/3x3_s2_0_split -> pool3/3x3_s2_pool3/3x3_s2_0_split_2
I0403 19:50:03.097575  9718 net.cpp:399] pool3/3x3_s2_pool3/3x3_s2_0_split -> pool3/3x3_s2_pool3/3x3_s2_0_split_3
I0403 19:50:03.097658  9718 net.cpp:141] Setting up pool3/3x3_s2_pool3/3x3_s2_0_split
I0403 19:50:03.097683  9718 net.cpp:148] Top shape: 24 480 14 14 (2257920)
I0403 19:50:03.097702  9718 net.cpp:148] Top shape: 24 480 14 14 (2257920)
I0403 19:50:03.097718  9718 net.cpp:148] Top shape: 24 480 14 14 (2257920)
I0403 19:50:03.097733  9718 net.cpp:148] Top shape: 24 480 14 14 (2257920)
I0403 19:50:03.097748  9718 net.cpp:156] Memory required for data: 854397984
I0403 19:50:03.097775  9718 layer_factory.hpp:77] Creating layer inception_4a/1x1
I0403 19:50:03.097800  9718 net.cpp:91] Creating Layer inception_4a/1x1
I0403 19:50:03.097831  9718 net.cpp:425] inception_4a/1x1 <- pool3/3x3_s2_pool3/3x3_s2_0_split_0
I0403 19:50:03.097849  9718 net.cpp:399] inception_4a/1x1 -> inception_4a/1x1
I0403 19:50:03.099418  9718 net.cpp:141] Setting up inception_4a/1x1
I0403 19:50:03.099449  9718 net.cpp:148] Top shape: 24 192 14 14 (903168)
I0403 19:50:03.099467  9718 net.cpp:156] Memory required for data: 858010656
I0403 19:50:03.099488  9718 layer_factory.hpp:77] Creating layer inception_4a/relu_1x1
I0403 19:50:03.099506  9718 net.cpp:91] Creating Layer inception_4a/relu_1x1
I0403 19:50:03.099522  9718 net.cpp:425] inception_4a/relu_1x1 <- inception_4a/1x1
I0403 19:50:03.099542  9718 net.cpp:386] inception_4a/relu_1x1 -> inception_4a/1x1 (in-place)
I0403 19:50:03.099725  9718 net.cpp:141] Setting up inception_4a/relu_1x1
I0403 19:50:03.099751  9718 net.cpp:148] Top shape: 24 192 14 14 (903168)
I0403 19:50:03.099766  9718 net.cpp:156] Memory required for data: 861623328
I0403 19:50:03.099781  9718 layer_factory.hpp:77] Creating layer inception_4a/3x3_reduce
I0403 19:50:03.099803  9718 net.cpp:91] Creating Layer inception_4a/3x3_reduce
I0403 19:50:03.099822  9718 net.cpp:425] inception_4a/3x3_reduce <- pool3/3x3_s2_pool3/3x3_s2_0_split_1
I0403 19:50:03.099843  9718 net.cpp:399] inception_4a/3x3_reduce -> inception_4a/3x3_reduce
I0403 19:50:03.101135  9718 net.cpp:141] Setting up inception_4a/3x3_reduce
I0403 19:50:03.101166  9718 net.cpp:148] Top shape: 24 96 14 14 (451584)
I0403 19:50:03.101183  9718 net.cpp:156] Memory required for data: 863429664
I0403 19:50:03.101207  9718 layer_factory.hpp:77] Creating layer inception_4a/relu_3x3_reduce
I0403 19:50:03.101228  9718 net.cpp:91] Creating Layer inception_4a/relu_3x3_reduce
I0403 19:50:03.101249  9718 net.cpp:425] inception_4a/relu_3x3_reduce <- inception_4a/3x3_reduce
I0403 19:50:03.101269  9718 net.cpp:386] inception_4a/relu_3x3_reduce -> inception_4a/3x3_reduce (in-place)
I0403 19:50:03.101449  9718 net.cpp:141] Setting up inception_4a/relu_3x3_reduce
I0403 19:50:03.101474  9718 net.cpp:148] Top shape: 24 96 14 14 (451584)
I0403 19:50:03.101490  9718 net.cpp:156] Memory required for data: 865236000
I0403 19:50:03.101505  9718 layer_factory.hpp:77] Creating layer inception_4a/3x3
I0403 19:50:03.101526  9718 net.cpp:91] Creating Layer inception_4a/3x3
I0403 19:50:03.101543  9718 net.cpp:425] inception_4a/3x3 <- inception_4a/3x3_reduce
I0403 19:50:03.101565  9718 net.cpp:399] inception_4a/3x3 -> inception_4a/3x3
I0403 19:50:03.104310  9718 net.cpp:141] Setting up inception_4a/3x3
I0403 19:50:03.104341  9718 net.cpp:148] Top shape: 24 208 14 14 (978432)
I0403 19:50:03.104357  9718 net.cpp:156] Memory required for data: 869149728
I0403 19:50:03.104375  9718 layer_factory.hpp:77] Creating layer inception_4a/relu_3x3
I0403 19:50:03.104393  9718 net.cpp:91] Creating Layer inception_4a/relu_3x3
I0403 19:50:03.104410  9718 net.cpp:425] inception_4a/relu_3x3 <- inception_4a/3x3
I0403 19:50:03.104431  9718 net.cpp:386] inception_4a/relu_3x3 -> inception_4a/3x3 (in-place)
I0403 19:50:03.104717  9718 net.cpp:141] Setting up inception_4a/relu_3x3
I0403 19:50:03.104745  9718 net.cpp:148] Top shape: 24 208 14 14 (978432)
I0403 19:50:03.104786  9718 net.cpp:156] Memory required for data: 873063456
I0403 19:50:03.104802  9718 layer_factory.hpp:77] Creating layer inception_4a/5x5_reduce
I0403 19:50:03.104828  9718 net.cpp:91] Creating Layer inception_4a/5x5_reduce
I0403 19:50:03.104877  9718 net.cpp:425] inception_4a/5x5_reduce <- pool3/3x3_s2_pool3/3x3_s2_0_split_2
I0403 19:50:03.104900  9718 net.cpp:399] inception_4a/5x5_reduce -> inception_4a/5x5_reduce
I0403 19:50:03.105968  9718 net.cpp:141] Setting up inception_4a/5x5_reduce
I0403 19:50:03.105996  9718 net.cpp:148] Top shape: 24 16 14 14 (75264)
I0403 19:50:03.106012  9718 net.cpp:156] Memory required for data: 873364512
I0403 19:50:03.106031  9718 layer_factory.hpp:77] Creating layer inception_4a/relu_5x5_reduce
I0403 19:50:03.106051  9718 net.cpp:91] Creating Layer inception_4a/relu_5x5_reduce
I0403 19:50:03.106067  9718 net.cpp:425] inception_4a/relu_5x5_reduce <- inception_4a/5x5_reduce
I0403 19:50:03.106084  9718 net.cpp:386] inception_4a/relu_5x5_reduce -> inception_4a/5x5_reduce (in-place)
I0403 19:50:03.106267  9718 net.cpp:141] Setting up inception_4a/relu_5x5_reduce
I0403 19:50:03.106292  9718 net.cpp:148] Top shape: 24 16 14 14 (75264)
I0403 19:50:03.106308  9718 net.cpp:156] Memory required for data: 873665568
I0403 19:50:03.106323  9718 layer_factory.hpp:77] Creating layer inception_4a/5x5
I0403 19:50:03.106348  9718 net.cpp:91] Creating Layer inception_4a/5x5
I0403 19:50:03.106364  9718 net.cpp:425] inception_4a/5x5 <- inception_4a/5x5_reduce
I0403 19:50:03.106384  9718 net.cpp:399] inception_4a/5x5 -> inception_4a/5x5
I0403 19:50:03.107482  9718 net.cpp:141] Setting up inception_4a/5x5
I0403 19:50:03.107511  9718 net.cpp:148] Top shape: 24 48 14 14 (225792)
I0403 19:50:03.107530  9718 net.cpp:156] Memory required for data: 874568736
I0403 19:50:03.107549  9718 layer_factory.hpp:77] Creating layer inception_4a/relu_5x5
I0403 19:50:03.107568  9718 net.cpp:91] Creating Layer inception_4a/relu_5x5
I0403 19:50:03.107583  9718 net.cpp:425] inception_4a/relu_5x5 <- inception_4a/5x5
I0403 19:50:03.107601  9718 net.cpp:386] inception_4a/relu_5x5 -> inception_4a/5x5 (in-place)
I0403 19:50:03.107780  9718 net.cpp:141] Setting up inception_4a/relu_5x5
I0403 19:50:03.107808  9718 net.cpp:148] Top shape: 24 48 14 14 (225792)
I0403 19:50:03.107825  9718 net.cpp:156] Memory required for data: 875471904
I0403 19:50:03.107839  9718 layer_factory.hpp:77] Creating layer inception_4a/pool
I0403 19:50:03.107856  9718 net.cpp:91] Creating Layer inception_4a/pool
I0403 19:50:03.107872  9718 net.cpp:425] inception_4a/pool <- pool3/3x3_s2_pool3/3x3_s2_0_split_3
I0403 19:50:03.107893  9718 net.cpp:399] inception_4a/pool -> inception_4a/pool
I0403 19:50:03.107954  9718 net.cpp:141] Setting up inception_4a/pool
I0403 19:50:03.107980  9718 net.cpp:148] Top shape: 24 480 14 14 (2257920)
I0403 19:50:03.107995  9718 net.cpp:156] Memory required for data: 884503584
I0403 19:50:03.108011  9718 layer_factory.hpp:77] Creating layer inception_4a/pool_proj
I0403 19:50:03.108031  9718 net.cpp:91] Creating Layer inception_4a/pool_proj
I0403 19:50:03.108047  9718 net.cpp:425] inception_4a/pool_proj <- inception_4a/pool
I0403 19:50:03.108067  9718 net.cpp:399] inception_4a/pool_proj -> inception_4a/pool_proj
I0403 19:50:03.109258  9718 net.cpp:141] Setting up inception_4a/pool_proj
I0403 19:50:03.109292  9718 net.cpp:148] Top shape: 24 64 14 14 (301056)
I0403 19:50:03.109325  9718 net.cpp:156] Memory required for data: 885707808
I0403 19:50:03.109345  9718 layer_factory.hpp:77] Creating layer inception_4a/relu_pool_proj
I0403 19:50:03.109365  9718 net.cpp:91] Creating Layer inception_4a/relu_pool_proj
I0403 19:50:03.109383  9718 net.cpp:425] inception_4a/relu_pool_proj <- inception_4a/pool_proj
I0403 19:50:03.109401  9718 net.cpp:386] inception_4a/relu_pool_proj -> inception_4a/pool_proj (in-place)
I0403 19:50:03.109699  9718 net.cpp:141] Setting up inception_4a/relu_pool_proj
I0403 19:50:03.109730  9718 net.cpp:148] Top shape: 24 64 14 14 (301056)
I0403 19:50:03.109746  9718 net.cpp:156] Memory required for data: 886912032
I0403 19:50:03.109761  9718 layer_factory.hpp:77] Creating layer inception_4a/output
I0403 19:50:03.109779  9718 net.cpp:91] Creating Layer inception_4a/output
I0403 19:50:03.109796  9718 net.cpp:425] inception_4a/output <- inception_4a/1x1
I0403 19:50:03.109812  9718 net.cpp:425] inception_4a/output <- inception_4a/3x3
I0403 19:50:03.109828  9718 net.cpp:425] inception_4a/output <- inception_4a/5x5
I0403 19:50:03.109843  9718 net.cpp:425] inception_4a/output <- inception_4a/pool_proj
I0403 19:50:03.109860  9718 net.cpp:399] inception_4a/output -> inception_4a/output
I0403 19:50:03.109906  9718 net.cpp:141] Setting up inception_4a/output
I0403 19:50:03.109930  9718 net.cpp:148] Top shape: 24 512 14 14 (2408448)
I0403 19:50:03.109944  9718 net.cpp:156] Memory required for data: 896545824
I0403 19:50:03.109958  9718 layer_factory.hpp:77] Creating layer inception_4a/output_inception_4a/output_0_split
I0403 19:50:03.109979  9718 net.cpp:91] Creating Layer inception_4a/output_inception_4a/output_0_split
I0403 19:50:03.109995  9718 net.cpp:425] inception_4a/output_inception_4a/output_0_split <- inception_4a/output
I0403 19:50:03.110013  9718 net.cpp:399] inception_4a/output_inception_4a/output_0_split -> inception_4a/output_inception_4a/output_0_split_0
I0403 19:50:03.110033  9718 net.cpp:399] inception_4a/output_inception_4a/output_0_split -> inception_4a/output_inception_4a/output_0_split_1
I0403 19:50:03.110054  9718 net.cpp:399] inception_4a/output_inception_4a/output_0_split -> inception_4a/output_inception_4a/output_0_split_2
I0403 19:50:03.110077  9718 net.cpp:399] inception_4a/output_inception_4a/output_0_split -> inception_4a/output_inception_4a/output_0_split_3
I0403 19:50:03.110100  9718 net.cpp:399] inception_4a/output_inception_4a/output_0_split -> inception_4a/output_inception_4a/output_0_split_4
I0403 19:50:03.110195  9718 net.cpp:141] Setting up inception_4a/output_inception_4a/output_0_split
I0403 19:50:03.110219  9718 net.cpp:148] Top shape: 24 512 14 14 (2408448)
I0403 19:50:03.110235  9718 net.cpp:148] Top shape: 24 512 14 14 (2408448)
I0403 19:50:03.110256  9718 net.cpp:148] Top shape: 24 512 14 14 (2408448)
I0403 19:50:03.110273  9718 net.cpp:148] Top shape: 24 512 14 14 (2408448)
I0403 19:50:03.110290  9718 net.cpp:148] Top shape: 24 512 14 14 (2408448)
I0403 19:50:03.110303  9718 net.cpp:156] Memory required for data: 944714784
I0403 19:50:03.110318  9718 layer_factory.hpp:77] Creating layer loss1/ave_pool
I0403 19:50:03.110338  9718 net.cpp:91] Creating Layer loss1/ave_pool
I0403 19:50:03.110355  9718 net.cpp:425] loss1/ave_pool <- inception_4a/output_inception_4a/output_0_split_0
I0403 19:50:03.110374  9718 net.cpp:399] loss1/ave_pool -> loss1/ave_pool
I0403 19:50:03.110581  9718 net.cpp:141] Setting up loss1/ave_pool
I0403 19:50:03.110610  9718 net.cpp:148] Top shape: 24 512 4 4 (196608)
I0403 19:50:03.110626  9718 net.cpp:156] Memory required for data: 945501216
I0403 19:50:03.110641  9718 layer_factory.hpp:77] Creating layer loss1/conv
I0403 19:50:03.110664  9718 net.cpp:91] Creating Layer loss1/conv
I0403 19:50:03.110682  9718 net.cpp:425] loss1/conv <- loss1/ave_pool
I0403 19:50:03.110700  9718 net.cpp:399] loss1/conv -> loss1/conv
I0403 19:50:03.112100  9718 net.cpp:141] Setting up loss1/conv
I0403 19:50:03.112133  9718 net.cpp:148] Top shape: 24 128 4 4 (49152)
I0403 19:50:03.112150  9718 net.cpp:156] Memory required for data: 945697824
I0403 19:50:03.112184  9718 layer_factory.hpp:77] Creating layer loss1/relu_conv
I0403 19:50:03.112205  9718 net.cpp:91] Creating Layer loss1/relu_conv
I0403 19:50:03.112221  9718 net.cpp:425] loss1/relu_conv <- loss1/conv
I0403 19:50:03.112247  9718 net.cpp:386] loss1/relu_conv -> loss1/conv (in-place)
I0403 19:50:03.112536  9718 net.cpp:141] Setting up loss1/relu_conv
I0403 19:50:03.112562  9718 net.cpp:148] Top shape: 24 128 4 4 (49152)
I0403 19:50:03.112577  9718 net.cpp:156] Memory required for data: 945894432
I0403 19:50:03.112591  9718 layer_factory.hpp:77] Creating layer loss1/fc
I0403 19:50:03.112617  9718 net.cpp:91] Creating Layer loss1/fc
I0403 19:50:03.112635  9718 net.cpp:425] loss1/fc <- loss1/conv
I0403 19:50:03.112653  9718 net.cpp:399] loss1/fc -> loss1/fc
I0403 19:50:03.130115  9718 net.cpp:141] Setting up loss1/fc
I0403 19:50:03.130148  9718 net.cpp:148] Top shape: 24 1024 (24576)
I0403 19:50:03.130164  9718 net.cpp:156] Memory required for data: 945992736
I0403 19:50:03.130187  9718 layer_factory.hpp:77] Creating layer loss1/relu_fc
I0403 19:50:03.130209  9718 net.cpp:91] Creating Layer loss1/relu_fc
I0403 19:50:03.130226  9718 net.cpp:425] loss1/relu_fc <- loss1/fc
I0403 19:50:03.130252  9718 net.cpp:386] loss1/relu_fc -> loss1/fc (in-place)
I0403 19:50:03.130434  9718 net.cpp:141] Setting up loss1/relu_fc
I0403 19:50:03.130460  9718 net.cpp:148] Top shape: 24 1024 (24576)
I0403 19:50:03.130475  9718 net.cpp:156] Memory required for data: 946091040
I0403 19:50:03.130491  9718 layer_factory.hpp:77] Creating layer loss1/drop_fc
I0403 19:50:03.130518  9718 net.cpp:91] Creating Layer loss1/drop_fc
I0403 19:50:03.130537  9718 net.cpp:425] loss1/drop_fc <- loss1/fc
I0403 19:50:03.130558  9718 net.cpp:386] loss1/drop_fc -> loss1/fc (in-place)
I0403 19:50:03.130607  9718 net.cpp:141] Setting up loss1/drop_fc
I0403 19:50:03.130631  9718 net.cpp:148] Top shape: 24 1024 (24576)
I0403 19:50:03.130646  9718 net.cpp:156] Memory required for data: 946189344
I0403 19:50:03.130661  9718 layer_factory.hpp:77] Creating layer loss1/classifier_plantvillage
I0403 19:50:03.130683  9718 net.cpp:91] Creating Layer loss1/classifier_plantvillage
I0403 19:50:03.130700  9718 net.cpp:425] loss1/classifier_plantvillage <- loss1/fc
I0403 19:50:03.130720  9718 net.cpp:399] loss1/classifier_plantvillage -> loss1/classifier_plantvillage
I0403 19:50:03.131639  9718 net.cpp:141] Setting up loss1/classifier_plantvillage
I0403 19:50:03.131669  9718 net.cpp:148] Top shape: 24 38 (912)
I0403 19:50:03.131685  9718 net.cpp:156] Memory required for data: 946192992
I0403 19:50:03.131701  9718 layer_factory.hpp:77] Creating layer loss1/classifier_plantvillage_loss1/classifier_plantvillage_0_split
I0403 19:50:03.131721  9718 net.cpp:91] Creating Layer loss1/classifier_plantvillage_loss1/classifier_plantvillage_0_split
I0403 19:50:03.131736  9718 net.cpp:425] loss1/classifier_plantvillage_loss1/classifier_plantvillage_0_split <- loss1/classifier_plantvillage
I0403 19:50:03.131755  9718 net.cpp:399] loss1/classifier_plantvillage_loss1/classifier_plantvillage_0_split -> loss1/classifier_plantvillage_loss1/classifier_plantvillage_0_split_0
I0403 19:50:03.131777  9718 net.cpp:399] loss1/classifier_plantvillage_loss1/classifier_plantvillage_0_split -> loss1/classifier_plantvillage_loss1/classifier_plantvillage_0_split_1
I0403 19:50:03.131796  9718 net.cpp:399] loss1/classifier_plantvillage_loss1/classifier_plantvillage_0_split -> loss1/classifier_plantvillage_loss1/classifier_plantvillage_0_split_2
I0403 19:50:03.131862  9718 net.cpp:141] Setting up loss1/classifier_plantvillage_loss1/classifier_plantvillage_0_split
I0403 19:50:03.131885  9718 net.cpp:148] Top shape: 24 38 (912)
I0403 19:50:03.131899  9718 net.cpp:148] Top shape: 24 38 (912)
I0403 19:50:03.131916  9718 net.cpp:148] Top shape: 24 38 (912)
I0403 19:50:03.131929  9718 net.cpp:156] Memory required for data: 946203936
I0403 19:50:03.131943  9718 layer_factory.hpp:77] Creating layer inception_4b/1x1
I0403 19:50:03.131964  9718 net.cpp:91] Creating Layer inception_4b/1x1
I0403 19:50:03.131996  9718 net.cpp:425] inception_4b/1x1 <- inception_4a/output_inception_4a/output_0_split_1
I0403 19:50:03.132017  9718 net.cpp:399] inception_4b/1x1 -> inception_4b/1x1
I0403 19:50:03.133676  9718 net.cpp:141] Setting up inception_4b/1x1
I0403 19:50:03.133704  9718 net.cpp:148] Top shape: 24 160 14 14 (752640)
I0403 19:50:03.133720  9718 net.cpp:156] Memory required for data: 949214496
I0403 19:50:03.133738  9718 layer_factory.hpp:77] Creating layer inception_4b/relu_1x1
I0403 19:50:03.133759  9718 net.cpp:91] Creating Layer inception_4b/relu_1x1
I0403 19:50:03.133775  9718 net.cpp:425] inception_4b/relu_1x1 <- inception_4b/1x1
I0403 19:50:03.133792  9718 net.cpp:386] inception_4b/relu_1x1 -> inception_4b/1x1 (in-place)
I0403 19:50:03.133971  9718 net.cpp:141] Setting up inception_4b/relu_1x1
I0403 19:50:03.133996  9718 net.cpp:148] Top shape: 24 160 14 14 (752640)
I0403 19:50:03.134011  9718 net.cpp:156] Memory required for data: 952225056
I0403 19:50:03.134024  9718 layer_factory.hpp:77] Creating layer inception_4b/3x3_reduce
I0403 19:50:03.134047  9718 net.cpp:91] Creating Layer inception_4b/3x3_reduce
I0403 19:50:03.134064  9718 net.cpp:425] inception_4b/3x3_reduce <- inception_4a/output_inception_4a/output_0_split_2
I0403 19:50:03.134083  9718 net.cpp:399] inception_4b/3x3_reduce -> inception_4b/3x3_reduce
I0403 19:50:03.135416  9718 net.cpp:141] Setting up inception_4b/3x3_reduce
I0403 19:50:03.135443  9718 net.cpp:148] Top shape: 24 112 14 14 (526848)
I0403 19:50:03.135458  9718 net.cpp:156] Memory required for data: 954332448
I0403 19:50:03.135478  9718 layer_factory.hpp:77] Creating layer inception_4b/relu_3x3_reduce
I0403 19:50:03.135499  9718 net.cpp:91] Creating Layer inception_4b/relu_3x3_reduce
I0403 19:50:03.135515  9718 net.cpp:425] inception_4b/relu_3x3_reduce <- inception_4b/3x3_reduce
I0403 19:50:03.135535  9718 net.cpp:386] inception_4b/relu_3x3_reduce -> inception_4b/3x3_reduce (in-place)
I0403 19:50:03.135812  9718 net.cpp:141] Setting up inception_4b/relu_3x3_reduce
I0403 19:50:03.135838  9718 net.cpp:148] Top shape: 24 112 14 14 (526848)
I0403 19:50:03.135851  9718 net.cpp:156] Memory required for data: 956439840
I0403 19:50:03.135866  9718 layer_factory.hpp:77] Creating layer inception_4b/3x3
I0403 19:50:03.135887  9718 net.cpp:91] Creating Layer inception_4b/3x3
I0403 19:50:03.135905  9718 net.cpp:425] inception_4b/3x3 <- inception_4b/3x3_reduce
I0403 19:50:03.135926  9718 net.cpp:399] inception_4b/3x3 -> inception_4b/3x3
I0403 19:50:03.138816  9718 net.cpp:141] Setting up inception_4b/3x3
I0403 19:50:03.138849  9718 net.cpp:148] Top shape: 24 224 14 14 (1053696)
I0403 19:50:03.138864  9718 net.cpp:156] Memory required for data: 960654624
I0403 19:50:03.138883  9718 layer_factory.hpp:77] Creating layer inception_4b/relu_3x3
I0403 19:50:03.138901  9718 net.cpp:91] Creating Layer inception_4b/relu_3x3
I0403 19:50:03.138916  9718 net.cpp:425] inception_4b/relu_3x3 <- inception_4b/3x3
I0403 19:50:03.138936  9718 net.cpp:386] inception_4b/relu_3x3 -> inception_4b/3x3 (in-place)
I0403 19:50:03.139111  9718 net.cpp:141] Setting up inception_4b/relu_3x3
I0403 19:50:03.139135  9718 net.cpp:148] Top shape: 24 224 14 14 (1053696)
I0403 19:50:03.139150  9718 net.cpp:156] Memory required for data: 964869408
I0403 19:50:03.139165  9718 layer_factory.hpp:77] Creating layer inception_4b/5x5_reduce
I0403 19:50:03.139186  9718 net.cpp:91] Creating Layer inception_4b/5x5_reduce
I0403 19:50:03.139204  9718 net.cpp:425] inception_4b/5x5_reduce <- inception_4a/output_inception_4a/output_0_split_3
I0403 19:50:03.139225  9718 net.cpp:399] inception_4b/5x5_reduce -> inception_4b/5x5_reduce
I0403 19:50:03.140296  9718 net.cpp:141] Setting up inception_4b/5x5_reduce
I0403 19:50:03.140324  9718 net.cpp:148] Top shape: 24 24 14 14 (112896)
I0403 19:50:03.140338  9718 net.cpp:156] Memory required for data: 965320992
I0403 19:50:03.140357  9718 layer_factory.hpp:77] Creating layer inception_4b/relu_5x5_reduce
I0403 19:50:03.140377  9718 net.cpp:91] Creating Layer inception_4b/relu_5x5_reduce
I0403 19:50:03.140406  9718 net.cpp:425] inception_4b/relu_5x5_reduce <- inception_4b/5x5_reduce
I0403 19:50:03.140424  9718 net.cpp:386] inception_4b/relu_5x5_reduce -> inception_4b/5x5_reduce (in-place)
I0403 19:50:03.140602  9718 net.cpp:141] Setting up inception_4b/relu_5x5_reduce
I0403 19:50:03.140630  9718 net.cpp:148] Top shape: 24 24 14 14 (112896)
I0403 19:50:03.140645  9718 net.cpp:156] Memory required for data: 965772576
I0403 19:50:03.140660  9718 layer_factory.hpp:77] Creating layer inception_4b/5x5
I0403 19:50:03.140681  9718 net.cpp:91] Creating Layer inception_4b/5x5
I0403 19:50:03.140698  9718 net.cpp:425] inception_4b/5x5 <- inception_4b/5x5_reduce
I0403 19:50:03.140717  9718 net.cpp:399] inception_4b/5x5 -> inception_4b/5x5
I0403 19:50:03.141953  9718 net.cpp:141] Setting up inception_4b/5x5
I0403 19:50:03.141981  9718 net.cpp:148] Top shape: 24 64 14 14 (301056)
I0403 19:50:03.141998  9718 net.cpp:156] Memory required for data: 966976800
I0403 19:50:03.142016  9718 layer_factory.hpp:77] Creating layer inception_4b/relu_5x5
I0403 19:50:03.142037  9718 net.cpp:91] Creating Layer inception_4b/relu_5x5
I0403 19:50:03.142055  9718 net.cpp:425] inception_4b/relu_5x5 <- inception_4b/5x5
I0403 19:50:03.142072  9718 net.cpp:386] inception_4b/relu_5x5 -> inception_4b/5x5 (in-place)
I0403 19:50:03.142364  9718 net.cpp:141] Setting up inception_4b/relu_5x5
I0403 19:50:03.142390  9718 net.cpp:148] Top shape: 24 64 14 14 (301056)
I0403 19:50:03.142403  9718 net.cpp:156] Memory required for data: 968181024
I0403 19:50:03.142418  9718 layer_factory.hpp:77] Creating layer inception_4b/pool
I0403 19:50:03.142436  9718 net.cpp:91] Creating Layer inception_4b/pool
I0403 19:50:03.142452  9718 net.cpp:425] inception_4b/pool <- inception_4a/output_inception_4a/output_0_split_4
I0403 19:50:03.142472  9718 net.cpp:399] inception_4b/pool -> inception_4b/pool
I0403 19:50:03.142535  9718 net.cpp:141] Setting up inception_4b/pool
I0403 19:50:03.142559  9718 net.cpp:148] Top shape: 24 512 14 14 (2408448)
I0403 19:50:03.142573  9718 net.cpp:156] Memory required for data: 977814816
I0403 19:50:03.142587  9718 layer_factory.hpp:77] Creating layer inception_4b/pool_proj
I0403 19:50:03.142608  9718 net.cpp:91] Creating Layer inception_4b/pool_proj
I0403 19:50:03.142627  9718 net.cpp:425] inception_4b/pool_proj <- inception_4b/pool
I0403 19:50:03.142647  9718 net.cpp:399] inception_4b/pool_proj -> inception_4b/pool_proj
I0403 19:50:03.143826  9718 net.cpp:141] Setting up inception_4b/pool_proj
I0403 19:50:03.143853  9718 net.cpp:148] Top shape: 24 64 14 14 (301056)
I0403 19:50:03.143870  9718 net.cpp:156] Memory required for data: 979019040
I0403 19:50:03.143888  9718 layer_factory.hpp:77] Creating layer inception_4b/relu_pool_proj
I0403 19:50:03.143910  9718 net.cpp:91] Creating Layer inception_4b/relu_pool_proj
I0403 19:50:03.143928  9718 net.cpp:425] inception_4b/relu_pool_proj <- inception_4b/pool_proj
I0403 19:50:03.143944  9718 net.cpp:386] inception_4b/relu_pool_proj -> inception_4b/pool_proj (in-place)
I0403 19:50:03.144122  9718 net.cpp:141] Setting up inception_4b/relu_pool_proj
I0403 19:50:03.144146  9718 net.cpp:148] Top shape: 24 64 14 14 (301056)
I0403 19:50:03.144161  9718 net.cpp:156] Memory required for data: 980223264
I0403 19:50:03.144176  9718 layer_factory.hpp:77] Creating layer inception_4b/output
I0403 19:50:03.144197  9718 net.cpp:91] Creating Layer inception_4b/output
I0403 19:50:03.144213  9718 net.cpp:425] inception_4b/output <- inception_4b/1x1
I0403 19:50:03.144229  9718 net.cpp:425] inception_4b/output <- inception_4b/3x3
I0403 19:50:03.144250  9718 net.cpp:425] inception_4b/output <- inception_4b/5x5
I0403 19:50:03.144266  9718 net.cpp:425] inception_4b/output <- inception_4b/pool_proj
I0403 19:50:03.144282  9718 net.cpp:399] inception_4b/output -> inception_4b/output
I0403 19:50:03.144330  9718 net.cpp:141] Setting up inception_4b/output
I0403 19:50:03.144351  9718 net.cpp:148] Top shape: 24 512 14 14 (2408448)
I0403 19:50:03.144366  9718 net.cpp:156] Memory required for data: 989857056
I0403 19:50:03.144393  9718 layer_factory.hpp:77] Creating layer inception_4b/output_inception_4b/output_0_split
I0403 19:50:03.144412  9718 net.cpp:91] Creating Layer inception_4b/output_inception_4b/output_0_split
I0403 19:50:03.144428  9718 net.cpp:425] inception_4b/output_inception_4b/output_0_split <- inception_4b/output
I0403 19:50:03.144448  9718 net.cpp:399] inception_4b/output_inception_4b/output_0_split -> inception_4b/output_inception_4b/output_0_split_0
I0403 19:50:03.144469  9718 net.cpp:399] inception_4b/output_inception_4b/output_0_split -> inception_4b/output_inception_4b/output_0_split_1
I0403 19:50:03.144487  9718 net.cpp:399] inception_4b/output_inception_4b/output_0_split -> inception_4b/output_inception_4b/output_0_split_2
I0403 19:50:03.144508  9718 net.cpp:399] inception_4b/output_inception_4b/output_0_split -> inception_4b/output_inception_4b/output_0_split_3
I0403 19:50:03.144596  9718 net.cpp:141] Setting up inception_4b/output_inception_4b/output_0_split
I0403 19:50:03.144619  9718 net.cpp:148] Top shape: 24 512 14 14 (2408448)
I0403 19:50:03.144635  9718 net.cpp:148] Top shape: 24 512 14 14 (2408448)
I0403 19:50:03.144651  9718 net.cpp:148] Top shape: 24 512 14 14 (2408448)
I0403 19:50:03.144666  9718 net.cpp:148] Top shape: 24 512 14 14 (2408448)
I0403 19:50:03.144680  9718 net.cpp:156] Memory required for data: 1028392224
I0403 19:50:03.144695  9718 layer_factory.hpp:77] Creating layer inception_4c/1x1
I0403 19:50:03.144716  9718 net.cpp:91] Creating Layer inception_4c/1x1
I0403 19:50:03.144734  9718 net.cpp:425] inception_4c/1x1 <- inception_4b/output_inception_4b/output_0_split_0
I0403 19:50:03.144754  9718 net.cpp:399] inception_4c/1x1 -> inception_4c/1x1
I0403 19:50:03.146150  9718 net.cpp:141] Setting up inception_4c/1x1
I0403 19:50:03.146178  9718 net.cpp:148] Top shape: 24 128 14 14 (602112)
I0403 19:50:03.146194  9718 net.cpp:156] Memory required for data: 1030800672
I0403 19:50:03.146215  9718 layer_factory.hpp:77] Creating layer inception_4c/relu_1x1
I0403 19:50:03.146235  9718 net.cpp:91] Creating Layer inception_4c/relu_1x1
I0403 19:50:03.146256  9718 net.cpp:425] inception_4c/relu_1x1 <- inception_4c/1x1
I0403 19:50:03.146273  9718 net.cpp:386] inception_4c/relu_1x1 -> inception_4c/1x1 (in-place)
I0403 19:50:03.146455  9718 net.cpp:141] Setting up inception_4c/relu_1x1
I0403 19:50:03.146478  9718 net.cpp:148] Top shape: 24 128 14 14 (602112)
I0403 19:50:03.146492  9718 net.cpp:156] Memory required for data: 1033209120
I0403 19:50:03.146507  9718 layer_factory.hpp:77] Creating layer inception_4c/3x3_reduce
I0403 19:50:03.146529  9718 net.cpp:91] Creating Layer inception_4c/3x3_reduce
I0403 19:50:03.146546  9718 net.cpp:425] inception_4c/3x3_reduce <- inception_4b/output_inception_4b/output_0_split_1
I0403 19:50:03.146567  9718 net.cpp:399] inception_4c/3x3_reduce -> inception_4c/3x3_reduce
I0403 19:50:03.148473  9718 net.cpp:141] Setting up inception_4c/3x3_reduce
I0403 19:50:03.148502  9718 net.cpp:148] Top shape: 24 128 14 14 (602112)
I0403 19:50:03.148517  9718 net.cpp:156] Memory required for data: 1035617568
I0403 19:50:03.148537  9718 layer_factory.hpp:77] Creating layer inception_4c/relu_3x3_reduce
I0403 19:50:03.148555  9718 net.cpp:91] Creating Layer inception_4c/relu_3x3_reduce
I0403 19:50:03.148571  9718 net.cpp:425] inception_4c/relu_3x3_reduce <- inception_4c/3x3_reduce
I0403 19:50:03.148589  9718 net.cpp:386] inception_4c/relu_3x3_reduce -> inception_4c/3x3_reduce (in-place)
I0403 19:50:03.148875  9718 net.cpp:141] Setting up inception_4c/relu_3x3_reduce
I0403 19:50:03.148901  9718 net.cpp:148] Top shape: 24 128 14 14 (602112)
I0403 19:50:03.148916  9718 net.cpp:156] Memory required for data: 1038026016
I0403 19:50:03.148931  9718 layer_factory.hpp:77] Creating layer inception_4c/3x3
I0403 19:50:03.148953  9718 net.cpp:91] Creating Layer inception_4c/3x3
I0403 19:50:03.148969  9718 net.cpp:425] inception_4c/3x3 <- inception_4c/3x3_reduce
I0403 19:50:03.148990  9718 net.cpp:399] inception_4c/3x3 -> inception_4c/3x3
I0403 19:50:03.152586  9718 net.cpp:141] Setting up inception_4c/3x3
I0403 19:50:03.152628  9718 net.cpp:148] Top shape: 24 256 14 14 (1204224)
I0403 19:50:03.152644  9718 net.cpp:156] Memory required for data: 1042842912
I0403 19:50:03.152675  9718 layer_factory.hpp:77] Creating layer inception_4c/relu_3x3
I0403 19:50:03.152698  9718 net.cpp:91] Creating Layer inception_4c/relu_3x3
I0403 19:50:03.152714  9718 net.cpp:425] inception_4c/relu_3x3 <- inception_4c/3x3
I0403 19:50:03.152731  9718 net.cpp:386] inception_4c/relu_3x3 -> inception_4c/3x3 (in-place)
I0403 19:50:03.152912  9718 net.cpp:141] Setting up inception_4c/relu_3x3
I0403 19:50:03.152936  9718 net.cpp:148] Top shape: 24 256 14 14 (1204224)
I0403 19:50:03.152951  9718 net.cpp:156] Memory required for data: 1047659808
I0403 19:50:03.152966  9718 layer_factory.hpp:77] Creating layer inception_4c/5x5_reduce
I0403 19:50:03.152988  9718 net.cpp:91] Creating Layer inception_4c/5x5_reduce
I0403 19:50:03.153005  9718 net.cpp:425] inception_4c/5x5_reduce <- inception_4b/output_inception_4b/output_0_split_2
I0403 19:50:03.153028  9718 net.cpp:399] inception_4c/5x5_reduce -> inception_4c/5x5_reduce
I0403 19:50:03.154108  9718 net.cpp:141] Setting up inception_4c/5x5_reduce
I0403 19:50:03.154136  9718 net.cpp:148] Top shape: 24 24 14 14 (112896)
I0403 19:50:03.154152  9718 net.cpp:156] Memory required for data: 1048111392
I0403 19:50:03.154171  9718 layer_factory.hpp:77] Creating layer inception_4c/relu_5x5_reduce
I0403 19:50:03.154194  9718 net.cpp:91] Creating Layer inception_4c/relu_5x5_reduce
I0403 19:50:03.154212  9718 net.cpp:425] inception_4c/relu_5x5_reduce <- inception_4c/5x5_reduce
I0403 19:50:03.154230  9718 net.cpp:386] inception_4c/relu_5x5_reduce -> inception_4c/5x5_reduce (in-place)
I0403 19:50:03.154417  9718 net.cpp:141] Setting up inception_4c/relu_5x5_reduce
I0403 19:50:03.154444  9718 net.cpp:148] Top shape: 24 24 14 14 (112896)
I0403 19:50:03.154460  9718 net.cpp:156] Memory required for data: 1048562976
I0403 19:50:03.154475  9718 layer_factory.hpp:77] Creating layer inception_4c/5x5
I0403 19:50:03.154495  9718 net.cpp:91] Creating Layer inception_4c/5x5
I0403 19:50:03.154511  9718 net.cpp:425] inception_4c/5x5 <- inception_4c/5x5_reduce
I0403 19:50:03.154531  9718 net.cpp:399] inception_4c/5x5 -> inception_4c/5x5
I0403 19:50:03.155756  9718 net.cpp:141] Setting up inception_4c/5x5
I0403 19:50:03.155787  9718 net.cpp:148] Top shape: 24 64 14 14 (301056)
I0403 19:50:03.155802  9718 net.cpp:156] Memory required for data: 1049767200
I0403 19:50:03.155829  9718 layer_factory.hpp:77] Creating layer inception_4c/relu_5x5
I0403 19:50:03.155850  9718 net.cpp:91] Creating Layer inception_4c/relu_5x5
I0403 19:50:03.155866  9718 net.cpp:425] inception_4c/relu_5x5 <- inception_4c/5x5
I0403 19:50:03.155884  9718 net.cpp:386] inception_4c/relu_5x5 -> inception_4c/5x5 (in-place)
I0403 19:50:03.156167  9718 net.cpp:141] Setting up inception_4c/relu_5x5
I0403 19:50:03.156194  9718 net.cpp:148] Top shape: 24 64 14 14 (301056)
I0403 19:50:03.156208  9718 net.cpp:156] Memory required for data: 1050971424
I0403 19:50:03.156224  9718 layer_factory.hpp:77] Creating layer inception_4c/pool
I0403 19:50:03.156246  9718 net.cpp:91] Creating Layer inception_4c/pool
I0403 19:50:03.156265  9718 net.cpp:425] inception_4c/pool <- inception_4b/output_inception_4b/output_0_split_3
I0403 19:50:03.156281  9718 net.cpp:399] inception_4c/pool -> inception_4c/pool
I0403 19:50:03.156347  9718 net.cpp:141] Setting up inception_4c/pool
I0403 19:50:03.156370  9718 net.cpp:148] Top shape: 24 512 14 14 (2408448)
I0403 19:50:03.156397  9718 net.cpp:156] Memory required for data: 1060605216
I0403 19:50:03.156412  9718 layer_factory.hpp:77] Creating layer inception_4c/pool_proj
I0403 19:50:03.156435  9718 net.cpp:91] Creating Layer inception_4c/pool_proj
I0403 19:50:03.156452  9718 net.cpp:425] inception_4c/pool_proj <- inception_4c/pool
I0403 19:50:03.156473  9718 net.cpp:399] inception_4c/pool_proj -> inception_4c/pool_proj
I0403 19:50:03.157747  9718 net.cpp:141] Setting up inception_4c/pool_proj
I0403 19:50:03.157774  9718 net.cpp:148] Top shape: 24 64 14 14 (301056)
I0403 19:50:03.157804  9718 net.cpp:156] Memory required for data: 1061809440
I0403 19:50:03.157824  9718 layer_factory.hpp:77] Creating layer inception_4c/relu_pool_proj
I0403 19:50:03.157845  9718 net.cpp:91] Creating Layer inception_4c/relu_pool_proj
I0403 19:50:03.157862  9718 net.cpp:425] inception_4c/relu_pool_proj <- inception_4c/pool_proj
I0403 19:50:03.157879  9718 net.cpp:386] inception_4c/relu_pool_proj -> inception_4c/pool_proj (in-place)
I0403 19:50:03.158064  9718 net.cpp:141] Setting up inception_4c/relu_pool_proj
I0403 19:50:03.158089  9718 net.cpp:148] Top shape: 24 64 14 14 (301056)
I0403 19:50:03.158105  9718 net.cpp:156] Memory required for data: 1063013664
I0403 19:50:03.158120  9718 layer_factory.hpp:77] Creating layer inception_4c/output
I0403 19:50:03.158140  9718 net.cpp:91] Creating Layer inception_4c/output
I0403 19:50:03.158156  9718 net.cpp:425] inception_4c/output <- inception_4c/1x1
I0403 19:50:03.158174  9718 net.cpp:425] inception_4c/output <- inception_4c/3x3
I0403 19:50:03.158190  9718 net.cpp:425] inception_4c/output <- inception_4c/5x5
I0403 19:50:03.158206  9718 net.cpp:425] inception_4c/output <- inception_4c/pool_proj
I0403 19:50:03.158223  9718 net.cpp:399] inception_4c/output -> inception_4c/output
I0403 19:50:03.158277  9718 net.cpp:141] Setting up inception_4c/output
I0403 19:50:03.158300  9718 net.cpp:148] Top shape: 24 512 14 14 (2408448)
I0403 19:50:03.158314  9718 net.cpp:156] Memory required for data: 1072647456
I0403 19:50:03.158329  9718 layer_factory.hpp:77] Creating layer inception_4c/output_inception_4c/output_0_split
I0403 19:50:03.158346  9718 net.cpp:91] Creating Layer inception_4c/output_inception_4c/output_0_split
I0403 19:50:03.158361  9718 net.cpp:425] inception_4c/output_inception_4c/output_0_split <- inception_4c/output
I0403 19:50:03.158381  9718 net.cpp:399] inception_4c/output_inception_4c/output_0_split -> inception_4c/output_inception_4c/output_0_split_0
I0403 19:50:03.158402  9718 net.cpp:399] inception_4c/output_inception_4c/output_0_split -> inception_4c/output_inception_4c/output_0_split_1
I0403 19:50:03.158422  9718 net.cpp:399] inception_4c/output_inception_4c/output_0_split -> inception_4c/output_inception_4c/output_0_split_2
I0403 19:50:03.158443  9718 net.cpp:399] inception_4c/output_inception_4c/output_0_split -> inception_4c/output_inception_4c/output_0_split_3
I0403 19:50:03.158534  9718 net.cpp:141] Setting up inception_4c/output_inception_4c/output_0_split
I0403 19:50:03.158560  9718 net.cpp:148] Top shape: 24 512 14 14 (2408448)
I0403 19:50:03.158576  9718 net.cpp:148] Top shape: 24 512 14 14 (2408448)
I0403 19:50:03.158592  9718 net.cpp:148] Top shape: 24 512 14 14 (2408448)
I0403 19:50:03.158608  9718 net.cpp:148] Top shape: 24 512 14 14 (2408448)
I0403 19:50:03.158622  9718 net.cpp:156] Memory required for data: 1111182624
I0403 19:50:03.158638  9718 layer_factory.hpp:77] Creating layer inception_4d/1x1
I0403 19:50:03.158658  9718 net.cpp:91] Creating Layer inception_4d/1x1
I0403 19:50:03.158676  9718 net.cpp:425] inception_4d/1x1 <- inception_4c/output_inception_4c/output_0_split_0
I0403 19:50:03.158697  9718 net.cpp:399] inception_4d/1x1 -> inception_4d/1x1
I0403 19:50:03.160084  9718 net.cpp:141] Setting up inception_4d/1x1
I0403 19:50:03.160114  9718 net.cpp:148] Top shape: 24 112 14 14 (526848)
I0403 19:50:03.160130  9718 net.cpp:156] Memory required for data: 1113290016
I0403 19:50:03.160148  9718 layer_factory.hpp:77] Creating layer inception_4d/relu_1x1
I0403 19:50:03.160167  9718 net.cpp:91] Creating Layer inception_4d/relu_1x1
I0403 19:50:03.160184  9718 net.cpp:425] inception_4d/relu_1x1 <- inception_4d/1x1
I0403 19:50:03.160205  9718 net.cpp:386] inception_4d/relu_1x1 -> inception_4d/1x1 (in-place)
I0403 19:50:03.160397  9718 net.cpp:141] Setting up inception_4d/relu_1x1
I0403 19:50:03.160420  9718 net.cpp:148] Top shape: 24 112 14 14 (526848)
I0403 19:50:03.160435  9718 net.cpp:156] Memory required for data: 1115397408
I0403 19:50:03.160450  9718 layer_factory.hpp:77] Creating layer inception_4d/3x3_reduce
I0403 19:50:03.160485  9718 net.cpp:91] Creating Layer inception_4d/3x3_reduce
I0403 19:50:03.160506  9718 net.cpp:425] inception_4d/3x3_reduce <- inception_4c/output_inception_4c/output_0_split_1
I0403 19:50:03.160526  9718 net.cpp:399] inception_4d/3x3_reduce -> inception_4d/3x3_reduce
I0403 19:50:03.162083  9718 net.cpp:141] Setting up inception_4d/3x3_reduce
I0403 19:50:03.162116  9718 net.cpp:148] Top shape: 24 144 14 14 (677376)
I0403 19:50:03.162132  9718 net.cpp:156] Memory required for data: 1118106912
I0403 19:50:03.162152  9718 layer_factory.hpp:77] Creating layer inception_4d/relu_3x3_reduce
I0403 19:50:03.162170  9718 net.cpp:91] Creating Layer inception_4d/relu_3x3_reduce
I0403 19:50:03.162188  9718 net.cpp:425] inception_4d/relu_3x3_reduce <- inception_4d/3x3_reduce
I0403 19:50:03.162205  9718 net.cpp:386] inception_4d/relu_3x3_reduce -> inception_4d/3x3_reduce (in-place)
I0403 19:50:03.162511  9718 net.cpp:141] Setting up inception_4d/relu_3x3_reduce
I0403 19:50:03.162539  9718 net.cpp:148] Top shape: 24 144 14 14 (677376)
I0403 19:50:03.162556  9718 net.cpp:156] Memory required for data: 1120816416
I0403 19:50:03.162571  9718 layer_factory.hpp:77] Creating layer inception_4d/3x3
I0403 19:50:03.162593  9718 net.cpp:91] Creating Layer inception_4d/3x3
I0403 19:50:03.162612  9718 net.cpp:425] inception_4d/3x3 <- inception_4d/3x3_reduce
I0403 19:50:03.162631  9718 net.cpp:399] inception_4d/3x3 -> inception_4d/3x3
I0403 19:50:03.167011  9718 net.cpp:141] Setting up inception_4d/3x3
I0403 19:50:03.167042  9718 net.cpp:148] Top shape: 24 288 14 14 (1354752)
I0403 19:50:03.167057  9718 net.cpp:156] Memory required for data: 1126235424
I0403 19:50:03.167076  9718 layer_factory.hpp:77] Creating layer inception_4d/relu_3x3
I0403 19:50:03.167094  9718 net.cpp:91] Creating Layer inception_4d/relu_3x3
I0403 19:50:03.167111  9718 net.cpp:425] inception_4d/relu_3x3 <- inception_4d/3x3
I0403 19:50:03.167130  9718 net.cpp:386] inception_4d/relu_3x3 -> inception_4d/3x3 (in-place)
I0403 19:50:03.167320  9718 net.cpp:141] Setting up inception_4d/relu_3x3
I0403 19:50:03.167346  9718 net.cpp:148] Top shape: 24 288 14 14 (1354752)
I0403 19:50:03.167361  9718 net.cpp:156] Memory required for data: 1131654432
I0403 19:50:03.167376  9718 layer_factory.hpp:77] Creating layer inception_4d/5x5_reduce
I0403 19:50:03.167397  9718 net.cpp:91] Creating Layer inception_4d/5x5_reduce
I0403 19:50:03.167415  9718 net.cpp:425] inception_4d/5x5_reduce <- inception_4c/output_inception_4c/output_0_split_2
I0403 19:50:03.167436  9718 net.cpp:399] inception_4d/5x5_reduce -> inception_4d/5x5_reduce
I0403 19:50:03.168603  9718 net.cpp:141] Setting up inception_4d/5x5_reduce
I0403 19:50:03.168635  9718 net.cpp:148] Top shape: 24 32 14 14 (150528)
I0403 19:50:03.168653  9718 net.cpp:156] Memory required for data: 1132256544
I0403 19:50:03.168671  9718 layer_factory.hpp:77] Creating layer inception_4d/relu_5x5_reduce
I0403 19:50:03.168690  9718 net.cpp:91] Creating Layer inception_4d/relu_5x5_reduce
I0403 19:50:03.168706  9718 net.cpp:425] inception_4d/relu_5x5_reduce <- inception_4d/5x5_reduce
I0403 19:50:03.168726  9718 net.cpp:386] inception_4d/relu_5x5_reduce -> inception_4d/5x5_reduce (in-place)
I0403 19:50:03.168915  9718 net.cpp:141] Setting up inception_4d/relu_5x5_reduce
I0403 19:50:03.168941  9718 net.cpp:148] Top shape: 24 32 14 14 (150528)
I0403 19:50:03.168956  9718 net.cpp:156] Memory required for data: 1132858656
I0403 19:50:03.168970  9718 layer_factory.hpp:77] Creating layer inception_4d/5x5
I0403 19:50:03.168993  9718 net.cpp:91] Creating Layer inception_4d/5x5
I0403 19:50:03.169011  9718 net.cpp:425] inception_4d/5x5 <- inception_4d/5x5_reduce
I0403 19:50:03.169033  9718 net.cpp:399] inception_4d/5x5 -> inception_4d/5x5
I0403 19:50:03.170521  9718 net.cpp:141] Setting up inception_4d/5x5
I0403 19:50:03.170550  9718 net.cpp:148] Top shape: 24 64 14 14 (301056)
I0403 19:50:03.170567  9718 net.cpp:156] Memory required for data: 1134062880
I0403 19:50:03.170585  9718 layer_factory.hpp:77] Creating layer inception_4d/relu_5x5
I0403 19:50:03.170624  9718 net.cpp:91] Creating Layer inception_4d/relu_5x5
I0403 19:50:03.170641  9718 net.cpp:425] inception_4d/relu_5x5 <- inception_4d/5x5
I0403 19:50:03.170661  9718 net.cpp:386] inception_4d/relu_5x5 -> inception_4d/5x5 (in-place)
I0403 19:50:03.170961  9718 net.cpp:141] Setting up inception_4d/relu_5x5
I0403 19:50:03.170989  9718 net.cpp:148] Top shape: 24 64 14 14 (301056)
I0403 19:50:03.171005  9718 net.cpp:156] Memory required for data: 1135267104
I0403 19:50:03.171020  9718 layer_factory.hpp:77] Creating layer inception_4d/pool
I0403 19:50:03.171041  9718 net.cpp:91] Creating Layer inception_4d/pool
I0403 19:50:03.171061  9718 net.cpp:425] inception_4d/pool <- inception_4c/output_inception_4c/output_0_split_3
I0403 19:50:03.171079  9718 net.cpp:399] inception_4d/pool -> inception_4d/pool
I0403 19:50:03.171149  9718 net.cpp:141] Setting up inception_4d/pool
I0403 19:50:03.171174  9718 net.cpp:148] Top shape: 24 512 14 14 (2408448)
I0403 19:50:03.171188  9718 net.cpp:156] Memory required for data: 1144900896
I0403 19:50:03.171205  9718 layer_factory.hpp:77] Creating layer inception_4d/pool_proj
I0403 19:50:03.171226  9718 net.cpp:91] Creating Layer inception_4d/pool_proj
I0403 19:50:03.171249  9718 net.cpp:425] inception_4d/pool_proj <- inception_4d/pool
I0403 19:50:03.171272  9718 net.cpp:399] inception_4d/pool_proj -> inception_4d/pool_proj
I0403 19:50:03.173055  9718 net.cpp:141] Setting up inception_4d/pool_proj
I0403 19:50:03.173086  9718 net.cpp:148] Top shape: 24 64 14 14 (301056)
I0403 19:50:03.173105  9718 net.cpp:156] Memory required for data: 1146105120
I0403 19:50:03.173128  9718 layer_factory.hpp:77] Creating layer inception_4d/relu_pool_proj
I0403 19:50:03.173148  9718 net.cpp:91] Creating Layer inception_4d/relu_pool_proj
I0403 19:50:03.173166  9718 net.cpp:425] inception_4d/relu_pool_proj <- inception_4d/pool_proj
I0403 19:50:03.173188  9718 net.cpp:386] inception_4d/relu_pool_proj -> inception_4d/pool_proj (in-place)
I0403 19:50:03.173396  9718 net.cpp:141] Setting up inception_4d/relu_pool_proj
I0403 19:50:03.173423  9718 net.cpp:148] Top shape: 24 64 14 14 (301056)
I0403 19:50:03.173439  9718 net.cpp:156] Memory required for data: 1147309344
I0403 19:50:03.173454  9718 layer_factory.hpp:77] Creating layer inception_4d/output
I0403 19:50:03.173475  9718 net.cpp:91] Creating Layer inception_4d/output
I0403 19:50:03.173491  9718 net.cpp:425] inception_4d/output <- inception_4d/1x1
I0403 19:50:03.173508  9718 net.cpp:425] inception_4d/output <- inception_4d/3x3
I0403 19:50:03.173524  9718 net.cpp:425] inception_4d/output <- inception_4d/5x5
I0403 19:50:03.173553  9718 net.cpp:425] inception_4d/output <- inception_4d/pool_proj
I0403 19:50:03.173570  9718 net.cpp:399] inception_4d/output -> inception_4d/output
I0403 19:50:03.173617  9718 net.cpp:141] Setting up inception_4d/output
I0403 19:50:03.173643  9718 net.cpp:148] Top shape: 24 528 14 14 (2483712)
I0403 19:50:03.173660  9718 net.cpp:156] Memory required for data: 1157244192
I0403 19:50:03.173674  9718 layer_factory.hpp:77] Creating layer inception_4d/output_inception_4d/output_0_split
I0403 19:50:03.173692  9718 net.cpp:91] Creating Layer inception_4d/output_inception_4d/output_0_split
I0403 19:50:03.173708  9718 net.cpp:425] inception_4d/output_inception_4d/output_0_split <- inception_4d/output
I0403 19:50:03.173728  9718 net.cpp:399] inception_4d/output_inception_4d/output_0_split -> inception_4d/output_inception_4d/output_0_split_0
I0403 19:50:03.173750  9718 net.cpp:399] inception_4d/output_inception_4d/output_0_split -> inception_4d/output_inception_4d/output_0_split_1
I0403 19:50:03.173770  9718 net.cpp:399] inception_4d/output_inception_4d/output_0_split -> inception_4d/output_inception_4d/output_0_split_2
I0403 19:50:03.173791  9718 net.cpp:399] inception_4d/output_inception_4d/output_0_split -> inception_4d/output_inception_4d/output_0_split_3
I0403 19:50:03.173811  9718 net.cpp:399] inception_4d/output_inception_4d/output_0_split -> inception_4d/output_inception_4d/output_0_split_4
I0403 19:50:03.173916  9718 net.cpp:141] Setting up inception_4d/output_inception_4d/output_0_split
I0403 19:50:03.173954  9718 net.cpp:148] Top shape: 24 528 14 14 (2483712)
I0403 19:50:03.173972  9718 net.cpp:148] Top shape: 24 528 14 14 (2483712)
I0403 19:50:03.173990  9718 net.cpp:148] Top shape: 24 528 14 14 (2483712)
I0403 19:50:03.174005  9718 net.cpp:148] Top shape: 24 528 14 14 (2483712)
I0403 19:50:03.174021  9718 net.cpp:148] Top shape: 24 528 14 14 (2483712)
I0403 19:50:03.174036  9718 net.cpp:156] Memory required for data: 1206918432
I0403 19:50:03.174051  9718 layer_factory.hpp:77] Creating layer loss2/ave_pool
I0403 19:50:03.174068  9718 net.cpp:91] Creating Layer loss2/ave_pool
I0403 19:50:03.174084  9718 net.cpp:425] loss2/ave_pool <- inception_4d/output_inception_4d/output_0_split_0
I0403 19:50:03.174105  9718 net.cpp:399] loss2/ave_pool -> loss2/ave_pool
I0403 19:50:03.174429  9718 net.cpp:141] Setting up loss2/ave_pool
I0403 19:50:03.174456  9718 net.cpp:148] Top shape: 24 528 4 4 (202752)
I0403 19:50:03.174471  9718 net.cpp:156] Memory required for data: 1207729440
I0403 19:50:03.174486  9718 layer_factory.hpp:77] Creating layer loss2/conv
I0403 19:50:03.174510  9718 net.cpp:91] Creating Layer loss2/conv
I0403 19:50:03.174526  9718 net.cpp:425] loss2/conv <- loss2/ave_pool
I0403 19:50:03.174549  9718 net.cpp:399] loss2/conv -> loss2/conv
I0403 19:50:03.176452  9718 net.cpp:141] Setting up loss2/conv
I0403 19:50:03.176482  9718 net.cpp:148] Top shape: 24 128 4 4 (49152)
I0403 19:50:03.176498  9718 net.cpp:156] Memory required for data: 1207926048
I0403 19:50:03.176519  9718 layer_factory.hpp:77] Creating layer loss2/relu_conv
I0403 19:50:03.176539  9718 net.cpp:91] Creating Layer loss2/relu_conv
I0403 19:50:03.176558  9718 net.cpp:425] loss2/relu_conv <- loss2/conv
I0403 19:50:03.176575  9718 net.cpp:386] loss2/relu_conv -> loss2/conv (in-place)
I0403 19:50:03.176872  9718 net.cpp:141] Setting up loss2/relu_conv
I0403 19:50:03.176898  9718 net.cpp:148] Top shape: 24 128 4 4 (49152)
I0403 19:50:03.176914  9718 net.cpp:156] Memory required for data: 1208122656
I0403 19:50:03.176930  9718 layer_factory.hpp:77] Creating layer loss2/fc
I0403 19:50:03.176954  9718 net.cpp:91] Creating Layer loss2/fc
I0403 19:50:03.176970  9718 net.cpp:425] loss2/fc <- loss2/conv
I0403 19:50:03.176990  9718 net.cpp:399] loss2/fc -> loss2/fc
I0403 19:50:03.194799  9718 net.cpp:141] Setting up loss2/fc
I0403 19:50:03.194847  9718 net.cpp:148] Top shape: 24 1024 (24576)
I0403 19:50:03.194864  9718 net.cpp:156] Memory required for data: 1208220960
I0403 19:50:03.194882  9718 layer_factory.hpp:77] Creating layer loss2/relu_fc
I0403 19:50:03.194901  9718 net.cpp:91] Creating Layer loss2/relu_fc
I0403 19:50:03.194918  9718 net.cpp:425] loss2/relu_fc <- loss2/fc
I0403 19:50:03.194941  9718 net.cpp:386] loss2/relu_fc -> loss2/fc (in-place)
I0403 19:50:03.195291  9718 net.cpp:141] Setting up loss2/relu_fc
I0403 19:50:03.195317  9718 net.cpp:148] Top shape: 24 1024 (24576)
I0403 19:50:03.195333  9718 net.cpp:156] Memory required for data: 1208319264
I0403 19:50:03.195348  9718 layer_factory.hpp:77] Creating layer loss2/drop_fc
I0403 19:50:03.195366  9718 net.cpp:91] Creating Layer loss2/drop_fc
I0403 19:50:03.195382  9718 net.cpp:425] loss2/drop_fc <- loss2/fc
I0403 19:50:03.195402  9718 net.cpp:386] loss2/drop_fc -> loss2/fc (in-place)
I0403 19:50:03.195453  9718 net.cpp:141] Setting up loss2/drop_fc
I0403 19:50:03.195479  9718 net.cpp:148] Top shape: 24 1024 (24576)
I0403 19:50:03.195494  9718 net.cpp:156] Memory required for data: 1208417568
I0403 19:50:03.195509  9718 layer_factory.hpp:77] Creating layer loss2/classifier_plantvillage
I0403 19:50:03.195528  9718 net.cpp:91] Creating Layer loss2/classifier_plantvillage
I0403 19:50:03.195544  9718 net.cpp:425] loss2/classifier_plantvillage <- loss2/fc
I0403 19:50:03.195565  9718 net.cpp:399] loss2/classifier_plantvillage -> loss2/classifier_plantvillage
I0403 19:50:03.195976  9718 net.cpp:141] Setting up loss2/classifier_plantvillage
I0403 19:50:03.196002  9718 net.cpp:148] Top shape: 24 38 (912)
I0403 19:50:03.196018  9718 net.cpp:156] Memory required for data: 1208421216
I0403 19:50:03.196056  9718 layer_factory.hpp:77] Creating layer loss2/classifier_plantvillage_loss2/classifier_plantvillage_0_split
I0403 19:50:03.196076  9718 net.cpp:91] Creating Layer loss2/classifier_plantvillage_loss2/classifier_plantvillage_0_split
I0403 19:50:03.196092  9718 net.cpp:425] loss2/classifier_plantvillage_loss2/classifier_plantvillage_0_split <- loss2/classifier_plantvillage
I0403 19:50:03.196110  9718 net.cpp:399] loss2/classifier_plantvillage_loss2/classifier_plantvillage_0_split -> loss2/classifier_plantvillage_loss2/classifier_plantvillage_0_split_0
I0403 19:50:03.196130  9718 net.cpp:399] loss2/classifier_plantvillage_loss2/classifier_plantvillage_0_split -> loss2/classifier_plantvillage_loss2/classifier_plantvillage_0_split_1
I0403 19:50:03.196153  9718 net.cpp:399] loss2/classifier_plantvillage_loss2/classifier_plantvillage_0_split -> loss2/classifier_plantvillage_loss2/classifier_plantvillage_0_split_2
I0403 19:50:03.196233  9718 net.cpp:141] Setting up loss2/classifier_plantvillage_loss2/classifier_plantvillage_0_split
I0403 19:50:03.196259  9718 net.cpp:148] Top shape: 24 38 (912)
I0403 19:50:03.196276  9718 net.cpp:148] Top shape: 24 38 (912)
I0403 19:50:03.196292  9718 net.cpp:148] Top shape: 24 38 (912)
I0403 19:50:03.196306  9718 net.cpp:156] Memory required for data: 1208432160
I0403 19:50:03.196321  9718 layer_factory.hpp:77] Creating layer inception_4e/1x1
I0403 19:50:03.196341  9718 net.cpp:91] Creating Layer inception_4e/1x1
I0403 19:50:03.196359  9718 net.cpp:425] inception_4e/1x1 <- inception_4d/output_inception_4d/output_0_split_1
I0403 19:50:03.196382  9718 net.cpp:399] inception_4e/1x1 -> inception_4e/1x1
I0403 19:50:03.198284  9718 net.cpp:141] Setting up inception_4e/1x1
I0403 19:50:03.198314  9718 net.cpp:148] Top shape: 24 256 14 14 (1204224)
I0403 19:50:03.198330  9718 net.cpp:156] Memory required for data: 1213249056
I0403 19:50:03.198350  9718 layer_factory.hpp:77] Creating layer inception_4e/relu_1x1
I0403 19:50:03.198371  9718 net.cpp:91] Creating Layer inception_4e/relu_1x1
I0403 19:50:03.198388  9718 net.cpp:425] inception_4e/relu_1x1 <- inception_4e/1x1
I0403 19:50:03.198405  9718 net.cpp:386] inception_4e/relu_1x1 -> inception_4e/1x1 (in-place)
I0403 19:50:03.198710  9718 net.cpp:141] Setting up inception_4e/relu_1x1
I0403 19:50:03.198736  9718 net.cpp:148] Top shape: 24 256 14 14 (1204224)
I0403 19:50:03.198750  9718 net.cpp:156] Memory required for data: 1218065952
I0403 19:50:03.198765  9718 layer_factory.hpp:77] Creating layer inception_4e/3x3_reduce
I0403 19:50:03.198789  9718 net.cpp:91] Creating Layer inception_4e/3x3_reduce
I0403 19:50:03.198807  9718 net.cpp:425] inception_4e/3x3_reduce <- inception_4d/output_inception_4d/output_0_split_2
I0403 19:50:03.198824  9718 net.cpp:399] inception_4e/3x3_reduce -> inception_4e/3x3_reduce
I0403 19:50:03.200919  9718 net.cpp:141] Setting up inception_4e/3x3_reduce
I0403 19:50:03.200950  9718 net.cpp:148] Top shape: 24 160 14 14 (752640)
I0403 19:50:03.200966  9718 net.cpp:156] Memory required for data: 1221076512
I0403 19:50:03.200984  9718 layer_factory.hpp:77] Creating layer inception_4e/relu_3x3_reduce
I0403 19:50:03.201004  9718 net.cpp:91] Creating Layer inception_4e/relu_3x3_reduce
I0403 19:50:03.201021  9718 net.cpp:425] inception_4e/relu_3x3_reduce <- inception_4e/3x3_reduce
I0403 19:50:03.201038  9718 net.cpp:386] inception_4e/relu_3x3_reduce -> inception_4e/3x3_reduce (in-place)
I0403 19:50:03.201222  9718 net.cpp:141] Setting up inception_4e/relu_3x3_reduce
I0403 19:50:03.201251  9718 net.cpp:148] Top shape: 24 160 14 14 (752640)
I0403 19:50:03.201266  9718 net.cpp:156] Memory required for data: 1224087072
I0403 19:50:03.201280  9718 layer_factory.hpp:77] Creating layer inception_4e/3x3
I0403 19:50:03.201303  9718 net.cpp:91] Creating Layer inception_4e/3x3
I0403 19:50:03.201320  9718 net.cpp:425] inception_4e/3x3 <- inception_4e/3x3_reduce
I0403 19:50:03.201339  9718 net.cpp:399] inception_4e/3x3 -> inception_4e/3x3
I0403 19:50:03.206256  9718 net.cpp:141] Setting up inception_4e/3x3
I0403 19:50:03.206300  9718 net.cpp:148] Top shape: 24 320 14 14 (1505280)
I0403 19:50:03.206316  9718 net.cpp:156] Memory required for data: 1230108192
I0403 19:50:03.206336  9718 layer_factory.hpp:77] Creating layer inception_4e/relu_3x3
I0403 19:50:03.206353  9718 net.cpp:91] Creating Layer inception_4e/relu_3x3
I0403 19:50:03.206368  9718 net.cpp:425] inception_4e/relu_3x3 <- inception_4e/3x3
I0403 19:50:03.206387  9718 net.cpp:386] inception_4e/relu_3x3 -> inception_4e/3x3 (in-place)
I0403 19:50:03.206682  9718 net.cpp:141] Setting up inception_4e/relu_3x3
I0403 19:50:03.206710  9718 net.cpp:148] Top shape: 24 320 14 14 (1505280)
I0403 19:50:03.206725  9718 net.cpp:156] Memory required for data: 1236129312
I0403 19:50:03.206740  9718 layer_factory.hpp:77] Creating layer inception_4e/5x5_reduce
I0403 19:50:03.206763  9718 net.cpp:91] Creating Layer inception_4e/5x5_reduce
I0403 19:50:03.206779  9718 net.cpp:425] inception_4e/5x5_reduce <- inception_4d/output_inception_4d/output_0_split_3
I0403 19:50:03.206799  9718 net.cpp:399] inception_4e/5x5_reduce -> inception_4e/5x5_reduce
I0403 19:50:03.207860  9718 net.cpp:141] Setting up inception_4e/5x5_reduce
I0403 19:50:03.207890  9718 net.cpp:148] Top shape: 24 32 14 14 (150528)
I0403 19:50:03.207906  9718 net.cpp:156] Memory required for data: 1236731424
I0403 19:50:03.207924  9718 layer_factory.hpp:77] Creating layer inception_4e/relu_5x5_reduce
I0403 19:50:03.207944  9718 net.cpp:91] Creating Layer inception_4e/relu_5x5_reduce
I0403 19:50:03.207959  9718 net.cpp:425] inception_4e/relu_5x5_reduce <- inception_4e/5x5_reduce
I0403 19:50:03.207976  9718 net.cpp:386] inception_4e/relu_5x5_reduce -> inception_4e/5x5_reduce (in-place)
I0403 19:50:03.208281  9718 net.cpp:141] Setting up inception_4e/relu_5x5_reduce
I0403 19:50:03.208307  9718 net.cpp:148] Top shape: 24 32 14 14 (150528)
I0403 19:50:03.208322  9718 net.cpp:156] Memory required for data: 1237333536
I0403 19:50:03.208336  9718 layer_factory.hpp:77] Creating layer inception_4e/5x5
I0403 19:50:03.208374  9718 net.cpp:91] Creating Layer inception_4e/5x5
I0403 19:50:03.208394  9718 net.cpp:425] inception_4e/5x5 <- inception_4e/5x5_reduce
I0403 19:50:03.208415  9718 net.cpp:399] inception_4e/5x5 -> inception_4e/5x5
I0403 19:50:03.210305  9718 net.cpp:141] Setting up inception_4e/5x5
I0403 19:50:03.210332  9718 net.cpp:148] Top shape: 24 128 14 14 (602112)
I0403 19:50:03.210348  9718 net.cpp:156] Memory required for data: 1239741984
I0403 19:50:03.210367  9718 layer_factory.hpp:77] Creating layer inception_4e/relu_5x5
I0403 19:50:03.210386  9718 net.cpp:91] Creating Layer inception_4e/relu_5x5
I0403 19:50:03.210400  9718 net.cpp:425] inception_4e/relu_5x5 <- inception_4e/5x5
I0403 19:50:03.210420  9718 net.cpp:386] inception_4e/relu_5x5 -> inception_4e/5x5 (in-place)
I0403 19:50:03.210613  9718 net.cpp:141] Setting up inception_4e/relu_5x5
I0403 19:50:03.210636  9718 net.cpp:148] Top shape: 24 128 14 14 (602112)
I0403 19:50:03.210650  9718 net.cpp:156] Memory required for data: 1242150432
I0403 19:50:03.210665  9718 layer_factory.hpp:77] Creating layer inception_4e/pool
I0403 19:50:03.210686  9718 net.cpp:91] Creating Layer inception_4e/pool
I0403 19:50:03.210702  9718 net.cpp:425] inception_4e/pool <- inception_4d/output_inception_4d/output_0_split_4
I0403 19:50:03.210721  9718 net.cpp:399] inception_4e/pool -> inception_4e/pool
I0403 19:50:03.210789  9718 net.cpp:141] Setting up inception_4e/pool
I0403 19:50:03.210813  9718 net.cpp:148] Top shape: 24 528 14 14 (2483712)
I0403 19:50:03.210827  9718 net.cpp:156] Memory required for data: 1252085280
I0403 19:50:03.210842  9718 layer_factory.hpp:77] Creating layer inception_4e/pool_proj
I0403 19:50:03.210863  9718 net.cpp:91] Creating Layer inception_4e/pool_proj
I0403 19:50:03.210880  9718 net.cpp:425] inception_4e/pool_proj <- inception_4e/pool
I0403 19:50:03.210901  9718 net.cpp:399] inception_4e/pool_proj -> inception_4e/pool_proj
I0403 19:50:03.212390  9718 net.cpp:141] Setting up inception_4e/pool_proj
I0403 19:50:03.212419  9718 net.cpp:148] Top shape: 24 128 14 14 (602112)
I0403 19:50:03.212447  9718 net.cpp:156] Memory required for data: 1254493728
I0403 19:50:03.212466  9718 layer_factory.hpp:77] Creating layer inception_4e/relu_pool_proj
I0403 19:50:03.212484  9718 net.cpp:91] Creating Layer inception_4e/relu_pool_proj
I0403 19:50:03.212501  9718 net.cpp:425] inception_4e/relu_pool_proj <- inception_4e/pool_proj
I0403 19:50:03.212520  9718 net.cpp:386] inception_4e/relu_pool_proj -> inception_4e/pool_proj (in-place)
I0403 19:50:03.212807  9718 net.cpp:141] Setting up inception_4e/relu_pool_proj
I0403 19:50:03.212833  9718 net.cpp:148] Top shape: 24 128 14 14 (602112)
I0403 19:50:03.212848  9718 net.cpp:156] Memory required for data: 1256902176
I0403 19:50:03.212863  9718 layer_factory.hpp:77] Creating layer inception_4e/output
I0403 19:50:03.212880  9718 net.cpp:91] Creating Layer inception_4e/output
I0403 19:50:03.212895  9718 net.cpp:425] inception_4e/output <- inception_4e/1x1
I0403 19:50:03.212911  9718 net.cpp:425] inception_4e/output <- inception_4e/3x3
I0403 19:50:03.212927  9718 net.cpp:425] inception_4e/output <- inception_4e/5x5
I0403 19:50:03.212942  9718 net.cpp:425] inception_4e/output <- inception_4e/pool_proj
I0403 19:50:03.212960  9718 net.cpp:399] inception_4e/output -> inception_4e/output
I0403 19:50:03.213009  9718 net.cpp:141] Setting up inception_4e/output
I0403 19:50:03.213035  9718 net.cpp:148] Top shape: 24 832 14 14 (3913728)
I0403 19:50:03.213050  9718 net.cpp:156] Memory required for data: 1272557088
I0403 19:50:03.213064  9718 layer_factory.hpp:77] Creating layer pool4/3x3_s2
I0403 19:50:03.213081  9718 net.cpp:91] Creating Layer pool4/3x3_s2
I0403 19:50:03.213096  9718 net.cpp:425] pool4/3x3_s2 <- inception_4e/output
I0403 19:50:03.213114  9718 net.cpp:399] pool4/3x3_s2 -> pool4/3x3_s2
I0403 19:50:03.213182  9718 net.cpp:141] Setting up pool4/3x3_s2
I0403 19:50:03.213206  9718 net.cpp:148] Top shape: 24 832 7 7 (978432)
I0403 19:50:03.213219  9718 net.cpp:156] Memory required for data: 1276470816
I0403 19:50:03.213233  9718 layer_factory.hpp:77] Creating layer pool4/3x3_s2_pool4/3x3_s2_0_split
I0403 19:50:03.213268  9718 net.cpp:91] Creating Layer pool4/3x3_s2_pool4/3x3_s2_0_split
I0403 19:50:03.213284  9718 net.cpp:425] pool4/3x3_s2_pool4/3x3_s2_0_split <- pool4/3x3_s2
I0403 19:50:03.213304  9718 net.cpp:399] pool4/3x3_s2_pool4/3x3_s2_0_split -> pool4/3x3_s2_pool4/3x3_s2_0_split_0
I0403 19:50:03.213325  9718 net.cpp:399] pool4/3x3_s2_pool4/3x3_s2_0_split -> pool4/3x3_s2_pool4/3x3_s2_0_split_1
I0403 19:50:03.213345  9718 net.cpp:399] pool4/3x3_s2_pool4/3x3_s2_0_split -> pool4/3x3_s2_pool4/3x3_s2_0_split_2
I0403 19:50:03.213367  9718 net.cpp:399] pool4/3x3_s2_pool4/3x3_s2_0_split -> pool4/3x3_s2_pool4/3x3_s2_0_split_3
I0403 19:50:03.213464  9718 net.cpp:141] Setting up pool4/3x3_s2_pool4/3x3_s2_0_split
I0403 19:50:03.213487  9718 net.cpp:148] Top shape: 24 832 7 7 (978432)
I0403 19:50:03.213503  9718 net.cpp:148] Top shape: 24 832 7 7 (978432)
I0403 19:50:03.213520  9718 net.cpp:148] Top shape: 24 832 7 7 (978432)
I0403 19:50:03.213546  9718 net.cpp:148] Top shape: 24 832 7 7 (978432)
I0403 19:50:03.213560  9718 net.cpp:156] Memory required for data: 1292125728
I0403 19:50:03.213574  9718 layer_factory.hpp:77] Creating layer inception_5a/1x1
I0403 19:50:03.213595  9718 net.cpp:91] Creating Layer inception_5a/1x1
I0403 19:50:03.213613  9718 net.cpp:425] inception_5a/1x1 <- pool4/3x3_s2_pool4/3x3_s2_0_split_0
I0403 19:50:03.213634  9718 net.cpp:399] inception_5a/1x1 -> inception_5a/1x1
I0403 19:50:03.216450  9718 net.cpp:141] Setting up inception_5a/1x1
I0403 19:50:03.216480  9718 net.cpp:148] Top shape: 24 256 7 7 (301056)
I0403 19:50:03.216496  9718 net.cpp:156] Memory required for data: 1293329952
I0403 19:50:03.216514  9718 layer_factory.hpp:77] Creating layer inception_5a/relu_1x1
I0403 19:50:03.216534  9718 net.cpp:91] Creating Layer inception_5a/relu_1x1
I0403 19:50:03.216552  9718 net.cpp:425] inception_5a/relu_1x1 <- inception_5a/1x1
I0403 19:50:03.216568  9718 net.cpp:386] inception_5a/relu_1x1 -> inception_5a/1x1 (in-place)
I0403 19:50:03.216876  9718 net.cpp:141] Setting up inception_5a/relu_1x1
I0403 19:50:03.216902  9718 net.cpp:148] Top shape: 24 256 7 7 (301056)
I0403 19:50:03.216917  9718 net.cpp:156] Memory required for data: 1294534176
I0403 19:50:03.216931  9718 layer_factory.hpp:77] Creating layer inception_5a/3x3_reduce
I0403 19:50:03.216954  9718 net.cpp:91] Creating Layer inception_5a/3x3_reduce
I0403 19:50:03.216971  9718 net.cpp:425] inception_5a/3x3_reduce <- pool4/3x3_s2_pool4/3x3_s2_0_split_1
I0403 19:50:03.216994  9718 net.cpp:399] inception_5a/3x3_reduce -> inception_5a/3x3_reduce
I0403 19:50:03.219487  9718 net.cpp:141] Setting up inception_5a/3x3_reduce
I0403 19:50:03.219519  9718 net.cpp:148] Top shape: 24 160 7 7 (188160)
I0403 19:50:03.219535  9718 net.cpp:156] Memory required for data: 1295286816
I0403 19:50:03.219554  9718 layer_factory.hpp:77] Creating layer inception_5a/relu_3x3_reduce
I0403 19:50:03.219573  9718 net.cpp:91] Creating Layer inception_5a/relu_3x3_reduce
I0403 19:50:03.219588  9718 net.cpp:425] inception_5a/relu_3x3_reduce <- inception_5a/3x3_reduce
I0403 19:50:03.219607  9718 net.cpp:386] inception_5a/relu_3x3_reduce -> inception_5a/3x3_reduce (in-place)
I0403 19:50:03.219794  9718 net.cpp:141] Setting up inception_5a/relu_3x3_reduce
I0403 19:50:03.219817  9718 net.cpp:148] Top shape: 24 160 7 7 (188160)
I0403 19:50:03.219831  9718 net.cpp:156] Memory required for data: 1296039456
I0403 19:50:03.219846  9718 layer_factory.hpp:77] Creating layer inception_5a/3x3
I0403 19:50:03.219869  9718 net.cpp:91] Creating Layer inception_5a/3x3
I0403 19:50:03.219887  9718 net.cpp:425] inception_5a/3x3 <- inception_5a/3x3_reduce
I0403 19:50:03.219907  9718 net.cpp:399] inception_5a/3x3 -> inception_5a/3x3
I0403 19:50:03.224910  9718 net.cpp:141] Setting up inception_5a/3x3
I0403 19:50:03.224941  9718 net.cpp:148] Top shape: 24 320 7 7 (376320)
I0403 19:50:03.224958  9718 net.cpp:156] Memory required for data: 1297544736
I0403 19:50:03.224978  9718 layer_factory.hpp:77] Creating layer inception_5a/relu_3x3
I0403 19:50:03.224999  9718 net.cpp:91] Creating Layer inception_5a/relu_3x3
I0403 19:50:03.225016  9718 net.cpp:425] inception_5a/relu_3x3 <- inception_5a/3x3
I0403 19:50:03.225033  9718 net.cpp:386] inception_5a/relu_3x3 -> inception_5a/3x3 (in-place)
I0403 19:50:03.225333  9718 net.cpp:141] Setting up inception_5a/relu_3x3
I0403 19:50:03.225359  9718 net.cpp:148] Top shape: 24 320 7 7 (376320)
I0403 19:50:03.225374  9718 net.cpp:156] Memory required for data: 1299050016
I0403 19:50:03.225396  9718 layer_factory.hpp:77] Creating layer inception_5a/5x5_reduce
I0403 19:50:03.225419  9718 net.cpp:91] Creating Layer inception_5a/5x5_reduce
I0403 19:50:03.225436  9718 net.cpp:425] inception_5a/5x5_reduce <- pool4/3x3_s2_pool4/3x3_s2_0_split_2
I0403 19:50:03.225457  9718 net.cpp:399] inception_5a/5x5_reduce -> inception_5a/5x5_reduce
I0403 19:50:03.226616  9718 net.cpp:141] Setting up inception_5a/5x5_reduce
I0403 19:50:03.226649  9718 net.cpp:148] Top shape: 24 32 7 7 (37632)
I0403 19:50:03.226665  9718 net.cpp:156] Memory required for data: 1299200544
I0403 19:50:03.226685  9718 layer_factory.hpp:77] Creating layer inception_5a/relu_5x5_reduce
I0403 19:50:03.226701  9718 net.cpp:91] Creating Layer inception_5a/relu_5x5_reduce
I0403 19:50:03.226717  9718 net.cpp:425] inception_5a/relu_5x5_reduce <- inception_5a/5x5_reduce
I0403 19:50:03.226733  9718 net.cpp:386] inception_5a/relu_5x5_reduce -> inception_5a/5x5_reduce (in-place)
I0403 19:50:03.227036  9718 net.cpp:141] Setting up inception_5a/relu_5x5_reduce
I0403 19:50:03.227061  9718 net.cpp:148] Top shape: 24 32 7 7 (37632)
I0403 19:50:03.227077  9718 net.cpp:156] Memory required for data: 1299351072
I0403 19:50:03.227090  9718 layer_factory.hpp:77] Creating layer inception_5a/5x5
I0403 19:50:03.227113  9718 net.cpp:91] Creating Layer inception_5a/5x5
I0403 19:50:03.227129  9718 net.cpp:425] inception_5a/5x5 <- inception_5a/5x5_reduce
I0403 19:50:03.227150  9718 net.cpp:399] inception_5a/5x5 -> inception_5a/5x5
I0403 19:50:03.228878  9718 net.cpp:141] Setting up inception_5a/5x5
I0403 19:50:03.228915  9718 net.cpp:148] Top shape: 24 128 7 7 (150528)
I0403 19:50:03.228931  9718 net.cpp:156] Memory required for data: 1299953184
I0403 19:50:03.228950  9718 layer_factory.hpp:77] Creating layer inception_5a/relu_5x5
I0403 19:50:03.228967  9718 net.cpp:91] Creating Layer inception_5a/relu_5x5
I0403 19:50:03.228984  9718 net.cpp:425] inception_5a/relu_5x5 <- inception_5a/5x5
I0403 19:50:03.229003  9718 net.cpp:386] inception_5a/relu_5x5 -> inception_5a/5x5 (in-place)
I0403 19:50:03.229190  9718 net.cpp:141] Setting up inception_5a/relu_5x5
I0403 19:50:03.229215  9718 net.cpp:148] Top shape: 24 128 7 7 (150528)
I0403 19:50:03.229229  9718 net.cpp:156] Memory required for data: 1300555296
I0403 19:50:03.229260  9718 layer_factory.hpp:77] Creating layer inception_5a/pool
I0403 19:50:03.229282  9718 net.cpp:91] Creating Layer inception_5a/pool
I0403 19:50:03.229300  9718 net.cpp:425] inception_5a/pool <- pool4/3x3_s2_pool4/3x3_s2_0_split_3
I0403 19:50:03.229318  9718 net.cpp:399] inception_5a/pool -> inception_5a/pool
I0403 19:50:03.229392  9718 net.cpp:141] Setting up inception_5a/pool
I0403 19:50:03.229415  9718 net.cpp:148] Top shape: 24 832 7 7 (978432)
I0403 19:50:03.229429  9718 net.cpp:156] Memory required for data: 1304469024
I0403 19:50:03.229444  9718 layer_factory.hpp:77] Creating layer inception_5a/pool_proj
I0403 19:50:03.229466  9718 net.cpp:91] Creating Layer inception_5a/pool_proj
I0403 19:50:03.229485  9718 net.cpp:425] inception_5a/pool_proj <- inception_5a/pool
I0403 19:50:03.229506  9718 net.cpp:399] inception_5a/pool_proj -> inception_5a/pool_proj
I0403 19:50:03.231760  9718 net.cpp:141] Setting up inception_5a/pool_proj
I0403 19:50:03.231791  9718 net.cpp:148] Top shape: 24 128 7 7 (150528)
I0403 19:50:03.231807  9718 net.cpp:156] Memory required for data: 1305071136
I0403 19:50:03.231827  9718 layer_factory.hpp:77] Creating layer inception_5a/relu_pool_proj
I0403 19:50:03.231845  9718 net.cpp:91] Creating Layer inception_5a/relu_pool_proj
I0403 19:50:03.231861  9718 net.cpp:425] inception_5a/relu_pool_proj <- inception_5a/pool_proj
I0403 19:50:03.231880  9718 net.cpp:386] inception_5a/relu_pool_proj -> inception_5a/pool_proj (in-place)
I0403 19:50:03.232179  9718 net.cpp:141] Setting up inception_5a/relu_pool_proj
I0403 19:50:03.232205  9718 net.cpp:148] Top shape: 24 128 7 7 (150528)
I0403 19:50:03.232221  9718 net.cpp:156] Memory required for data: 1305673248
I0403 19:50:03.232236  9718 layer_factory.hpp:77] Creating layer inception_5a/output
I0403 19:50:03.232265  9718 net.cpp:91] Creating Layer inception_5a/output
I0403 19:50:03.232281  9718 net.cpp:425] inception_5a/output <- inception_5a/1x1
I0403 19:50:03.232298  9718 net.cpp:425] inception_5a/output <- inception_5a/3x3
I0403 19:50:03.232314  9718 net.cpp:425] inception_5a/output <- inception_5a/5x5
I0403 19:50:03.232331  9718 net.cpp:425] inception_5a/output <- inception_5a/pool_proj
I0403 19:50:03.232350  9718 net.cpp:399] inception_5a/output -> inception_5a/output
I0403 19:50:03.232400  9718 net.cpp:141] Setting up inception_5a/output
I0403 19:50:03.232427  9718 net.cpp:148] Top shape: 24 832 7 7 (978432)
I0403 19:50:03.232442  9718 net.cpp:156] Memory required for data: 1309586976
I0403 19:50:03.232470  9718 layer_factory.hpp:77] Creating layer inception_5a/output_inception_5a/output_0_split
I0403 19:50:03.232486  9718 net.cpp:91] Creating Layer inception_5a/output_inception_5a/output_0_split
I0403 19:50:03.232501  9718 net.cpp:425] inception_5a/output_inception_5a/output_0_split <- inception_5a/output
I0403 19:50:03.232519  9718 net.cpp:399] inception_5a/output_inception_5a/output_0_split -> inception_5a/output_inception_5a/output_0_split_0
I0403 19:50:03.232543  9718 net.cpp:399] inception_5a/output_inception_5a/output_0_split -> inception_5a/output_inception_5a/output_0_split_1
I0403 19:50:03.232563  9718 net.cpp:399] inception_5a/output_inception_5a/output_0_split -> inception_5a/output_inception_5a/output_0_split_2
I0403 19:50:03.232583  9718 net.cpp:399] inception_5a/output_inception_5a/output_0_split -> inception_5a/output_inception_5a/output_0_split_3
I0403 19:50:03.232692  9718 net.cpp:141] Setting up inception_5a/output_inception_5a/output_0_split
I0403 19:50:03.232717  9718 net.cpp:148] Top shape: 24 832 7 7 (978432)
I0403 19:50:03.232733  9718 net.cpp:148] Top shape: 24 832 7 7 (978432)
I0403 19:50:03.232748  9718 net.cpp:148] Top shape: 24 832 7 7 (978432)
I0403 19:50:03.232763  9718 net.cpp:148] Top shape: 24 832 7 7 (978432)
I0403 19:50:03.232776  9718 net.cpp:156] Memory required for data: 1325241888
I0403 19:50:03.232790  9718 layer_factory.hpp:77] Creating layer inception_5b/1x1
I0403 19:50:03.232811  9718 net.cpp:91] Creating Layer inception_5b/1x1
I0403 19:50:03.232828  9718 net.cpp:425] inception_5b/1x1 <- inception_5a/output_inception_5a/output_0_split_0
I0403 19:50:03.232848  9718 net.cpp:399] inception_5b/1x1 -> inception_5b/1x1
I0403 19:50:03.236604  9718 net.cpp:141] Setting up inception_5b/1x1
I0403 19:50:03.236635  9718 net.cpp:148] Top shape: 24 384 7 7 (451584)
I0403 19:50:03.236651  9718 net.cpp:156] Memory required for data: 1327048224
I0403 19:50:03.236670  9718 layer_factory.hpp:77] Creating layer inception_5b/relu_1x1
I0403 19:50:03.236687  9718 net.cpp:91] Creating Layer inception_5b/relu_1x1
I0403 19:50:03.236704  9718 net.cpp:425] inception_5b/relu_1x1 <- inception_5b/1x1
I0403 19:50:03.236723  9718 net.cpp:386] inception_5b/relu_1x1 -> inception_5b/1x1 (in-place)
I0403 19:50:03.237025  9718 net.cpp:141] Setting up inception_5b/relu_1x1
I0403 19:50:03.237052  9718 net.cpp:148] Top shape: 24 384 7 7 (451584)
I0403 19:50:03.237067  9718 net.cpp:156] Memory required for data: 1328854560
I0403 19:50:03.237082  9718 layer_factory.hpp:77] Creating layer inception_5b/3x3_reduce
I0403 19:50:03.237104  9718 net.cpp:91] Creating Layer inception_5b/3x3_reduce
I0403 19:50:03.237123  9718 net.cpp:425] inception_5b/3x3_reduce <- inception_5a/output_inception_5a/output_0_split_1
I0403 19:50:03.237144  9718 net.cpp:399] inception_5b/3x3_reduce -> inception_5b/3x3_reduce
I0403 19:50:03.239799  9718 net.cpp:141] Setting up inception_5b/3x3_reduce
I0403 19:50:03.239831  9718 net.cpp:148] Top shape: 24 192 7 7 (225792)
I0403 19:50:03.239850  9718 net.cpp:156] Memory required for data: 1329757728
I0403 19:50:03.239869  9718 layer_factory.hpp:77] Creating layer inception_5b/relu_3x3_reduce
I0403 19:50:03.239886  9718 net.cpp:91] Creating Layer inception_5b/relu_3x3_reduce
I0403 19:50:03.239902  9718 net.cpp:425] inception_5b/relu_3x3_reduce <- inception_5b/3x3_reduce
I0403 19:50:03.239923  9718 net.cpp:386] inception_5b/relu_3x3_reduce -> inception_5b/3x3_reduce (in-place)
I0403 19:50:03.240108  9718 net.cpp:141] Setting up inception_5b/relu_3x3_reduce
I0403 19:50:03.240133  9718 net.cpp:148] Top shape: 24 192 7 7 (225792)
I0403 19:50:03.240146  9718 net.cpp:156] Memory required for data: 1330660896
I0403 19:50:03.240162  9718 layer_factory.hpp:77] Creating layer inception_5b/3x3
I0403 19:50:03.240197  9718 net.cpp:91] Creating Layer inception_5b/3x3
I0403 19:50:03.240216  9718 net.cpp:425] inception_5b/3x3 <- inception_5b/3x3_reduce
I0403 19:50:03.240237  9718 net.cpp:399] inception_5b/3x3 -> inception_5b/3x3
I0403 19:50:03.246913  9718 net.cpp:141] Setting up inception_5b/3x3
I0403 19:50:03.246942  9718 net.cpp:148] Top shape: 24 384 7 7 (451584)
I0403 19:50:03.246958  9718 net.cpp:156] Memory required for data: 1332467232
I0403 19:50:03.246978  9718 layer_factory.hpp:77] Creating layer inception_5b/relu_3x3
I0403 19:50:03.246995  9718 net.cpp:91] Creating Layer inception_5b/relu_3x3
I0403 19:50:03.247014  9718 net.cpp:425] inception_5b/relu_3x3 <- inception_5b/3x3
I0403 19:50:03.247036  9718 net.cpp:386] inception_5b/relu_3x3 -> inception_5b/3x3 (in-place)
I0403 19:50:03.247344  9718 net.cpp:141] Setting up inception_5b/relu_3x3
I0403 19:50:03.247370  9718 net.cpp:148] Top shape: 24 384 7 7 (451584)
I0403 19:50:03.247385  9718 net.cpp:156] Memory required for data: 1334273568
I0403 19:50:03.247400  9718 layer_factory.hpp:77] Creating layer inception_5b/5x5_reduce
I0403 19:50:03.247439  9718 net.cpp:91] Creating Layer inception_5b/5x5_reduce
I0403 19:50:03.247457  9718 net.cpp:425] inception_5b/5x5_reduce <- inception_5a/output_inception_5a/output_0_split_2
I0403 19:50:03.247480  9718 net.cpp:399] inception_5b/5x5_reduce -> inception_5b/5x5_reduce
I0403 19:50:03.248775  9718 net.cpp:141] Setting up inception_5b/5x5_reduce
I0403 19:50:03.248803  9718 net.cpp:148] Top shape: 24 48 7 7 (56448)
I0403 19:50:03.248819  9718 net.cpp:156] Memory required for data: 1334499360
I0403 19:50:03.248838  9718 layer_factory.hpp:77] Creating layer inception_5b/relu_5x5_reduce
I0403 19:50:03.248858  9718 net.cpp:91] Creating Layer inception_5b/relu_5x5_reduce
I0403 19:50:03.248875  9718 net.cpp:425] inception_5b/relu_5x5_reduce <- inception_5b/5x5_reduce
I0403 19:50:03.248895  9718 net.cpp:386] inception_5b/relu_5x5_reduce -> inception_5b/5x5_reduce (in-place)
I0403 19:50:03.249280  9718 net.cpp:141] Setting up inception_5b/relu_5x5_reduce
I0403 19:50:03.249307  9718 net.cpp:148] Top shape: 24 48 7 7 (56448)
I0403 19:50:03.249322  9718 net.cpp:156] Memory required for data: 1334725152
I0403 19:50:03.249338  9718 layer_factory.hpp:77] Creating layer inception_5b/5x5
I0403 19:50:03.249358  9718 net.cpp:91] Creating Layer inception_5b/5x5
I0403 19:50:03.249375  9718 net.cpp:425] inception_5b/5x5 <- inception_5b/5x5_reduce
I0403 19:50:03.249394  9718 net.cpp:399] inception_5b/5x5 -> inception_5b/5x5
I0403 19:50:03.251476  9718 net.cpp:141] Setting up inception_5b/5x5
I0403 19:50:03.251505  9718 net.cpp:148] Top shape: 24 128 7 7 (150528)
I0403 19:50:03.251523  9718 net.cpp:156] Memory required for data: 1335327264
I0403 19:50:03.251541  9718 layer_factory.hpp:77] Creating layer inception_5b/relu_5x5
I0403 19:50:03.251562  9718 net.cpp:91] Creating Layer inception_5b/relu_5x5
I0403 19:50:03.251579  9718 net.cpp:425] inception_5b/relu_5x5 <- inception_5b/5x5
I0403 19:50:03.251596  9718 net.cpp:386] inception_5b/relu_5x5 -> inception_5b/5x5 (in-place)
I0403 19:50:03.251794  9718 net.cpp:141] Setting up inception_5b/relu_5x5
I0403 19:50:03.251819  9718 net.cpp:148] Top shape: 24 128 7 7 (150528)
I0403 19:50:03.251834  9718 net.cpp:156] Memory required for data: 1335929376
I0403 19:50:03.251849  9718 layer_factory.hpp:77] Creating layer inception_5b/pool
I0403 19:50:03.251870  9718 net.cpp:91] Creating Layer inception_5b/pool
I0403 19:50:03.251888  9718 net.cpp:425] inception_5b/pool <- inception_5a/output_inception_5a/output_0_split_3
I0403 19:50:03.251906  9718 net.cpp:399] inception_5b/pool -> inception_5b/pool
I0403 19:50:03.251982  9718 net.cpp:141] Setting up inception_5b/pool
I0403 19:50:03.252007  9718 net.cpp:148] Top shape: 24 832 7 7 (978432)
I0403 19:50:03.252022  9718 net.cpp:156] Memory required for data: 1339843104
I0403 19:50:03.252037  9718 layer_factory.hpp:77] Creating layer inception_5b/pool_proj
I0403 19:50:03.252060  9718 net.cpp:91] Creating Layer inception_5b/pool_proj
I0403 19:50:03.252079  9718 net.cpp:425] inception_5b/pool_proj <- inception_5b/pool
I0403 19:50:03.252099  9718 net.cpp:399] inception_5b/pool_proj -> inception_5b/pool_proj
I0403 19:50:03.254482  9718 net.cpp:141] Setting up inception_5b/pool_proj
I0403 19:50:03.254513  9718 net.cpp:148] Top shape: 24 128 7 7 (150528)
I0403 19:50:03.254528  9718 net.cpp:156] Memory required for data: 1340445216
I0403 19:50:03.254549  9718 layer_factory.hpp:77] Creating layer inception_5b/relu_pool_proj
I0403 19:50:03.254567  9718 net.cpp:91] Creating Layer inception_5b/relu_pool_proj
I0403 19:50:03.254583  9718 net.cpp:425] inception_5b/relu_pool_proj <- inception_5b/pool_proj
I0403 19:50:03.254603  9718 net.cpp:386] inception_5b/relu_pool_proj -> inception_5b/pool_proj (in-place)
I0403 19:50:03.254911  9718 net.cpp:141] Setting up inception_5b/relu_pool_proj
I0403 19:50:03.254940  9718 net.cpp:148] Top shape: 24 128 7 7 (150528)
I0403 19:50:03.254956  9718 net.cpp:156] Memory required for data: 1341047328
I0403 19:50:03.254971  9718 layer_factory.hpp:77] Creating layer inception_5b/output
I0403 19:50:03.254989  9718 net.cpp:91] Creating Layer inception_5b/output
I0403 19:50:03.255020  9718 net.cpp:425] inception_5b/output <- inception_5b/1x1
I0403 19:50:03.255038  9718 net.cpp:425] inception_5b/output <- inception_5b/3x3
I0403 19:50:03.255055  9718 net.cpp:425] inception_5b/output <- inception_5b/5x5
I0403 19:50:03.255072  9718 net.cpp:425] inception_5b/output <- inception_5b/pool_proj
I0403 19:50:03.255091  9718 net.cpp:399] inception_5b/output -> inception_5b/output
I0403 19:50:03.255144  9718 net.cpp:141] Setting up inception_5b/output
I0403 19:50:03.255172  9718 net.cpp:148] Top shape: 24 1024 7 7 (1204224)
I0403 19:50:03.255188  9718 net.cpp:156] Memory required for data: 1345864224
I0403 19:50:03.255204  9718 layer_factory.hpp:77] Creating layer pool5/7x7_s1
I0403 19:50:03.255221  9718 net.cpp:91] Creating Layer pool5/7x7_s1
I0403 19:50:03.255237  9718 net.cpp:425] pool5/7x7_s1 <- inception_5b/output
I0403 19:50:03.255264  9718 net.cpp:399] pool5/7x7_s1 -> pool5/7x7_s1
I0403 19:50:03.255481  9718 net.cpp:141] Setting up pool5/7x7_s1
I0403 19:50:03.255508  9718 net.cpp:148] Top shape: 24 1024 1 1 (24576)
I0403 19:50:03.255523  9718 net.cpp:156] Memory required for data: 1345962528
I0403 19:50:03.255538  9718 layer_factory.hpp:77] Creating layer pool5/drop_7x7_s1
I0403 19:50:03.255556  9718 net.cpp:91] Creating Layer pool5/drop_7x7_s1
I0403 19:50:03.255573  9718 net.cpp:425] pool5/drop_7x7_s1 <- pool5/7x7_s1
I0403 19:50:03.255592  9718 net.cpp:386] pool5/drop_7x7_s1 -> pool5/7x7_s1 (in-place)
I0403 19:50:03.255642  9718 net.cpp:141] Setting up pool5/drop_7x7_s1
I0403 19:50:03.255668  9718 net.cpp:148] Top shape: 24 1024 1 1 (24576)
I0403 19:50:03.255683  9718 net.cpp:156] Memory required for data: 1346060832
I0403 19:50:03.255702  9718 layer_factory.hpp:77] Creating layer loss3/classifier_plantvillage
I0403 19:50:03.255720  9718 net.cpp:91] Creating Layer loss3/classifier_plantvillage
I0403 19:50:03.255738  9718 net.cpp:425] loss3/classifier_plantvillage <- pool5/7x7_s1
I0403 19:50:03.255758  9718 net.cpp:399] loss3/classifier_plantvillage -> loss3/classifier_plantvillage
I0403 19:50:03.256196  9718 net.cpp:141] Setting up loss3/classifier_plantvillage
I0403 19:50:03.256220  9718 net.cpp:148] Top shape: 24 38 (912)
I0403 19:50:03.256235  9718 net.cpp:156] Memory required for data: 1346064480
I0403 19:50:03.256258  9718 layer_factory.hpp:77] Creating layer loss3/classifier_plantvillage_loss3/classifier_plantvillage_0_split
I0403 19:50:03.256280  9718 net.cpp:91] Creating Layer loss3/classifier_plantvillage_loss3/classifier_plantvillage_0_split
I0403 19:50:03.256299  9718 net.cpp:425] loss3/classifier_plantvillage_loss3/classifier_plantvillage_0_split <- loss3/classifier_plantvillage
I0403 19:50:03.256315  9718 net.cpp:399] loss3/classifier_plantvillage_loss3/classifier_plantvillage_0_split -> loss3/classifier_plantvillage_loss3/classifier_plantvillage_0_split_0
I0403 19:50:03.256338  9718 net.cpp:399] loss3/classifier_plantvillage_loss3/classifier_plantvillage_0_split -> loss3/classifier_plantvillage_loss3/classifier_plantvillage_0_split_1
I0403 19:50:03.256361  9718 net.cpp:399] loss3/classifier_plantvillage_loss3/classifier_plantvillage_0_split -> loss3/classifier_plantvillage_loss3/classifier_plantvillage_0_split_2
I0403 19:50:03.256381  9718 net.cpp:399] loss3/classifier_plantvillage_loss3/classifier_plantvillage_0_split -> loss3/classifier_plantvillage_loss3/classifier_plantvillage_0_split_3
I0403 19:50:03.256485  9718 net.cpp:141] Setting up loss3/classifier_plantvillage_loss3/classifier_plantvillage_0_split
I0403 19:50:03.256510  9718 net.cpp:148] Top shape: 24 38 (912)
I0403 19:50:03.256525  9718 net.cpp:148] Top shape: 24 38 (912)
I0403 19:50:03.256541  9718 net.cpp:148] Top shape: 24 38 (912)
I0403 19:50:03.256556  9718 net.cpp:148] Top shape: 24 38 (912)
I0403 19:50:03.256570  9718 net.cpp:156] Memory required for data: 1346079072
I0403 19:50:03.256585  9718 layer_factory.hpp:77] Creating layer loss1/loss
I0403 19:50:03.256608  9718 net.cpp:91] Creating Layer loss1/loss
I0403 19:50:03.256625  9718 net.cpp:425] loss1/loss <- loss1/classifier_plantvillage_loss1/classifier_plantvillage_0_split_0
I0403 19:50:03.256655  9718 net.cpp:425] loss1/loss <- label_data_1_split_0
…
