…
I0403 19:55:18.334297  9905 net.cpp:313] The NetState phase (1) differed from the phase (0) specified by a rule in layer data
I0403 19:55:18.335528  9905 net.cpp:49] Initializing net from parameters: 
state {
  phase: TEST
}
layer {
  name: "data"
  type: "Data"
  top: "data"
  top: "label"
  include {
    phase: TEST
  }
  transform_param {
    mirror: false
    crop_size: 224
    mean_file: "/home/mohanty/data/final_dataset/lmdb/color-50-50/mean.binaryproto"
  }
  data_param {
    source: "/home/mohanty/data/final_dataset/lmdb/color-50-50/test_db"
    batch_size: 24
    backend: LMDB
  }
}
layer {
  name: "conv1/7x7_s2"
  type: "Convolution"
  bottom: "data"
  top: "conv1/7x7_s2"
  param {
    lr_mult: 1
    decay_mult: 1
  }
  param {
    lr_mult: 2
    decay_mult: 0
  }
  convolution_param {
    num_output: 64
    pad: 3
    kernel_size: 7
    stride: 2
    weight_filler {
      type: "xavier"
      std: 0.1
    }
    bias_filler {
      type: "constant"
      value: 0.2
    }
  }
}
layer {
  name: "conv1/relu_7x7"
  type: "ReLU"
  bottom: "conv1/7x7_s2"
  top: "conv1/7x7_s2"
}
layer {
  name: "pool1/3x3_s2"
  type: "Pooling"
  bottom: "conv1/7x7_s2"
  top: "pool1/3x3_s2"
  pooling_param {
    pool: MAX
    kernel_size: 3
    stride: 2
  }
}
layer {
  name: "pool1/norm1"
  type: "LRN"
  bottom: "pool1/3x3_s2"
  top: "pool1/norm1"
  lrn_param {
    local_size: 5
    alpha: 0.0001
    beta: 0.75
  }
}
layer {
  name: "conv2/3x3_reduce"
  type: "Convolution"
  bottom: "pool1/norm1"
  top: "conv2/3x3_reduce"
  param {
    lr_mult: 1
    decay_mult: 1
  }
  param {
    lr_mult: 2
    decay_mult: 0
  }
  convolution_param {
    num_output: 64
    kernel_size: 1
    weight_filler {
      type: "xavier"
      std: 0.1
    }
    bias_filler {
      type: "constant"
      value: 0.2
    }
  }
}
layer {
  name: "conv2/relu_3x3_reduce"
  type: "ReLU"
  bottom: "conv2/3x3_reduce"
  top: "conv2/3x3_reduce"
}
layer {
  name: "conv2/3x3"
  type: "Convolution"
  bottom: "conv2/3x3_reduce"
  top: "conv2/3x3"
  param {
    lr_mult: 1
    decay_mult: 1
  }
  param {
    lr_mult: 2
    decay_mult: 0
  }
  convolution_param {
    num_output: 192
    pad: 1
    kernel_size: 3
    weight_filler {
      type: "xavier"
      std: 0.03
    }
    bias_filler {
      type: "constant"
      value: 0.2
    }
  }
}
layer {
  name: "conv2/relu_3x3"
  type: "ReLU"
  bottom: "conv2/3x3"
  top: "conv2/3x3"
}
layer {
  name: "conv2/norm2"
  type: "LRN"
  bottom: "conv2/3x3"
  top: "conv2/norm2"
  lrn_param {
    local_size: 5
    alpha: 0.0001
    beta: 0.75
  }
}
layer {
  name: "pool2/3x3_s2"
  type: "Pooling"
  bottom: "conv2/norm2"
  top: "pool2/3x3_s2"
  pooling_param {
    pool: MAX
    kernel_size: 3
    stride: 2
  }
}
layer {
  name: "inception_3a/1x1"
  type: "Convolution"
  bottom: "pool2/3x3_s2"
  top: "inception_3a/1x1"
  param {
    lr_mult: 1
    decay_mult: 1
  }
  param {
    lr_mult: 2
    decay_mult: 0
  }
  convolution_param {
    num_output: 64
    kernel_size: 1
    weight_filler {
      type: "xavier"
      std: 0.03
    }
    bias_filler {
      type: "constant"
      value: 0.2
    }
  }
}
layer {
  name: "inception_3a/relu_1x1"
  type: "ReLU"
  bottom: "inception_3a/1x1"
  top: "inception_3a/1x1"
}
layer {
  name: "inception_3a/3x3_reduce"
  type: "Convolution"
  bottom: "pool2/3x3_s2"
  top: "inception_3a/3x3_reduce"
  param {
    lr_mult: 1
    decay_mult: 1
  }
  param {
    lr_mult: 2
    decay_mult: 0
  }
  convolution_param {
    num_output: 96
    kernel_size: 1
    weight_filler {
      type: "xavier"
      std: 0.09
    }
    bias_filler {
      type: "constant"
      value: 0.2
    }
  }
}
layer {
  name: "inception_3a/relu_3x3_reduce"
  type: "ReLU"
  bottom: "inception_3a/3x3_reduce"
  top: "inception_3a/3x3_reduce"
}
layer {
  name: "inception_3a/3x3"
  type: "Convolution"
  bottom: "inception_3a/3x3_reduce"
  top: "inception_3a/3x3"
  param {
    lr_mult: 1
    decay_mult: 1
  }
  param {
    lr_mult: 2
    decay_mult: 0
  }
  convolution_param {
    num_output: 128
    pad: 1
    kernel_size: 3
    weight_filler {
      type: "xavier"
      std: 0.03
    }
    bias_filler {
      type: "constant"
      value: 0.2
    }
  }
}
layer {
  name: "inception_3a/relu_3x3"
  type: "ReLU"
  bottom: "inception_3a/3x3"
  top: "inception_3a/3x3"
}
layer {
  name: "inception_3a/5x5_reduce"
  type: "Convolution"
  bottom: "pool2/3x3_s2"
  top: "inception_3a/5x5_reduce"
  param {
    lr_mult: 1
    decay_mult: 1
  }
  param {
    lr_mult: 2
    decay_mult: 0
  }
  convolution_param {
    num_output: 16
    kernel_size: 1
    weight_filler {
      type: "xavier"
      std: 0.2
    }
    bias_filler {
      type: "constant"
      value: 0.2
    }
  }
}
layer {
  name: "inception_3a/relu_5x5_reduce"
  type: "ReLU"
  bottom: "inception_3a/5x5_reduce"
  top: "inception_3a/5x5_reduce"
}
layer {
  name: "inception_3a/5x5"
  type: "Convolution"
  bottom: "inception_3a/5x5_reduce"
  top: "inception_3a/5x5"
  param {
    lr_mult: 1
    decay_mult: 1
  }
  param {
    lr_mult: 2
    decay_mult: 0
  }
  convolution_param {
    num_output: 32
    pad: 2
    kernel_size: 5
    weight_filler {
      type: "xavier"
      std: 0.03
    }
    bias_filler {
      type: "constant"
      value: 0.2
    }
  }
}
layer {
  name: "inception_3a/relu_5x5"
  type: "ReLU"
  bottom: "inception_3a/5x5"
  top: "inception_3a/5x5"
}
layer {
  name: "inception_3a/pool"
  type: "Pooling"
  bottom: "pool2/3x3_s2"
  top: "inception_3a/pool"
  pooling_param {
    pool: MAX
    kernel_size: 3
    stride: 1
    pad: 1
  }
}
layer {
  name: "inception_3a/pool_proj"
  type: "Convolution"
  bottom: "inception_3a/pool"
  top: "inception_3a/pool_proj"
  param {
    lr_mult: 1
    decay_mult: 1
  }
  param {
    lr_mult: 2
    decay_mult: 0
  }
  convolution_param {
    num_output: 32
    kernel_size: 1
    weight_filler {
      type: "xavier"
      std: 0.1
    }
    bias_filler {
      type: "constant"
      value: 0.2
    }
  }
}
layer {
  name: "inception_3a/relu_pool_proj"
  type: "ReLU"
  bottom: "inception_3a/pool_proj"
  top: "inception_3a/pool_proj"
}
layer {
  name: "inception_3a/output"
  type: "Concat"
  bottom: "inception_3a/1x1"
  bottom: "inception_3a/3x3"
  bottom: "inception_3a/5x5"
  bottom: "inception_3a/pool_proj"
  top: "inception_3a/output"
}
layer {
  name: "inception_3b/1x1"
  type: "Convolution"
  bottom: "inception_3a/output"
  top: "inception_3b/1x1"
  param {
    lr_mult: 1
    decay_mult: 1
  }
  param {
    lr_mult: 2
    decay_mult: 0
  }
  convolution_param {
    num_output: 128
    kernel_size: 1
    weight_filler {
      type: "xavier"
      std: 0.03
    }
    bias_filler {
      type: "constant"
      value: 0.2
    }
  }
}
layer {
  name: "inception_3b/relu_1x1"
  type: "ReLU"
  bottom: "inception_3b/1x1"
  top: "inception_3b/1x1"
}
layer {
  name: "inception_3b/3x3_reduce"
  type: "Convolution"
  bottom: "inception_3a/output"
  top: "inception_3b/3x3_reduce"
  param {
    lr_mult: 1
    decay_mult: 1
  }
  param {
    lr_mult: 2
    decay_mult: 0
  }
  convolution_param {
    num_output: 128
    kernel_size: 1
    weight_filler {
      type: "xavier"
      std: 0.09
    }
    bias_filler {
      type: "constant"
      value: 0.2
    }
  }
}
layer {
  name: "inception_3b/relu_3x3_reduce"
  type: "ReLU"
  bottom: "inception_3b/3x3_reduce"
  top: "inception_3b/3x3_reduce"
}
layer {
  name: "inception_3b/3x3"
  type: "Convolution"
  bottom: "inception_3b/3x3_reduce"
  top: "inception_3b/3x3"
  param {
    lr_mult: 1
    decay_mult: 1
  }
  param {
    lr_mult: 2
    decay_mult: 0
  }
  convolution_param {
    num_output: 192
    pad: 1
    kernel_size: 3
    weight_filler {
      type: "xavier"
      std: 0.03
    }
    bias_filler {
      type: "constant"
      value: 0.2
    }
  }
}
layer {
  name: "inception_3b/relu_3x3"
  type: "ReLU"
  bottom: "inception_3b/3x3"
  top: "inception_3b/3x3"
}
layer {
  name: "inception_3b/5x5_reduce"
  type: "Convolution"
  bottom: "inception_3a/output"
  top: "inception_3b/5x5_reduce"
  param {
    lr_mult: 1
    decay_mult: 1
  }
  param {
    lr_mult: 2
    decay_mult: 0
  }
  convolution_param {
    num_output: 32
    kernel_size: 1
    weight_filler {
      type: "xavier"
      std: 0.2
    }
    bias_filler {
      type: "constant"
      value: 0.2
    }
  }
}
layer {
  name: "inception_3b/relu_5x5_reduce"
  type: "ReLU"
  bottom: "inception_3b/5x5_reduce"
  top: "inception_3b/5x5_reduce"
}
layer {
  name: "inception_3b/5x5"
  type: "Convolution"
  bottom: "inception_3b/5x5_reduce"
  top: "inception_3b/5x5"
  param {
    lr_mult: 1
    decay_mult: 1
  }
  param {
    lr_mult: 2
    decay_mult: 0
  }
  convolution_param {
    num_output: 96
    pad: 2
    kernel_size: 5
    weight_filler {
      type: "xavier"
      std: 0.03
    }
    bias_filler {
      type: "constant"
      value: 0.2
    }
  }
}
layer {
  name: "inception_3b/relu_5x5"
  type: "ReLU"
  bottom: "inception_3b/5x5"
  top: "inception_3b/5x5"
}
layer {
  name: "inception_3b/pool"
  type: "Pooling"
  bottom: "inception_3a/output"
  top: "inception_3b/pool"
  pooling_param {
    pool: MAX
    kernel_size: 3
    stride: 1
    pad: 1
  }
}
layer {
  name: "inception_3b/pool_proj"
  type: "Convolution"
  bottom: "inception_3b/pool"
  top: "inception_3b/pool_proj"
  param {
    lr_mult: 1
    decay_mult: 1
  }
  param {
    lr_mult: 2
    decay_mult: 0
  }
  convolution_param {
    num_output: 64
    kernel_size: 1
    weight_filler {
      type: "xavier"
      std: 0.1
    }
    bias_filler {
      type: "constant"
      value: 0.2
    }
  }
}
layer {
  name: "inception_3b/relu_pool_proj"
  type: "ReLU"
  bottom: "inception_3b/pool_proj"
  top: "inception_3b/pool_proj"
}
layer {
  name: "inception_3b/output"
  type: "Concat"
  bottom: "inception_3b/1x1"
  bottom: "inception_3b/3x3"
  bottom: "inception_3b/5x5"
  bottom: "inception_3b/pool_proj"
  top: "inception_3b/output"
}
layer {
  name: "pool3/3x3_s2"
  type: "Pooling"
  bottom: "inception_3b/output"
  top: "pool3/3x3_s2"
  pooling_param {
    pool: MAX
    kernel_size: 3
    stride: 2
  }
}
layer {
  name: "inception_4a/1x1"
  type: "Convolution"
  bottom: "pool3/3x3_s2"
  top: "inception_4a/1x1"
  param {
    lr_mult: 1
    decay_mult: 1
  }
  param {
    lr_mult: 2
    decay_mult: 0
  }
  convolution_param {
    num_output: 192
    kernel_size: 1
    weight_filler {
      type: "xavier"
      std: 0.03
    }
    bias_filler {
      type: "constant"
      value: 0.2
    }
  }
}
layer {
  name: "inception_4a/relu_1x1"
  type: "ReLU"
  bottom: "inception_4a/1x1"
  top: "inception_4a/1x1"
}
layer {
  name: "inception_4a/3x3_reduce"
  type: "Convolution"
  bottom: "pool3/3x3_s2"
  top: "inception_4a/3x3_reduce"
  param {
    lr_mult: 1
    decay_mult: 1
  }
  param {
    lr_mult: 2
    decay_mult: 0
  }
  convolution_param {
    num_output: 96
    kernel_size: 1
    weight_filler {
      type: "xavier"
      std: 0.09
    }
    bias_filler {
      type: "constant"
      value: 0.2
    }
  }
}
layer {
  name: "inception_4a/relu_3x3_reduce"
  type: "ReLU"
  bottom: "inception_4a/3x3_reduce"
  top: "inception_4a/3x3_reduce"
}
layer {
  name: "inception_4a/3x3"
  type: "Convolution"
  bottom: "inception_4a/3x3_reduce"
  top: "inception_4a/3x3"
  param {
    lr_mult: 1
    decay_mult: 1
  }
  param {
    lr_mult: 2
    decay_mult: 0
  }
  convolution_param {
    num_output: 208
    pad: 1
    kernel_size: 3
    weight_filler {
      type: "xavier"
      std: 0.03
    }
    bias_filler {
      type: "constant"
      value: 0.2
    }
  }
}
layer {
  name: "inception_4a/relu_3x3"
  type: "ReLU"
  bottom: "inception_4a/3x3"
  top: "inception_4a/3x3"
}
layer {
  name: "inception_4a/5x5_reduce"
  type: "Convolution"
  bottom: "pool3/3x3_s2"
  top: "inception_4a/5x5_reduce"
  param {
    lr_mult: 1
    decay_mult: 1
  }
  param {
    lr_mult: 2
    decay_mult: 0
  }
  convolution_param {
    num_output: 16
    kernel_size: 1
    weight_filler {
      type: "xavier"
      std: 0.2
    }
    bias_filler {
      type: "constant"
      value: 0.2
    }
  }
}
layer {
  name: "inception_4a/relu_5x5_reduce"
  type: "ReLU"
  bottom: "inception_4a/5x5_reduce"
  top: "inception_4a/5x5_reduce"
}
layer {
  name: "inception_4a/5x5"
  type: "Convolution"
  bottom: "inception_4a/5x5_reduce"
  top: "inception_4a/5x5"
  param {
    lr_mult: 1
    decay_mult: 1
  }
  param {
    lr_mult: 2
    decay_mult: 0
  }
  convolution_param {
    num_output: 48
    pad: 2
    kernel_size: 5
    weight_filler {
      type: "xavier"
      std: 0.03
    }
    bias_filler {
      type: "constant"
      value: 0.2
    }
  }
}
layer {
  name: "inception_4a/relu_5x5"
  type: "ReLU"
  bottom: "inception_4a/5x5"
  top: "inception_4a/5x5"
}
layer {
  name: "inception_4a/pool"
  type: "Pooling"
  bottom: "pool3/3x3_s2"
  top: "inception_4a/pool"
  pooling_param {
    pool: MAX
    kernel_size: 3
    stride: 1
    pad: 1
  }
}
layer {
  name: "inception_4a/pool_proj"
  type: "Convolution"
  bottom: "inception_4a/pool"
  top: "inception_4a/pool_proj"
  param {
    lr_mult: 1
    decay_mult: 1
  }
  param {
    lr_mult: 2
    decay_mult: 0
  }
  convolution_param {
    num_output: 64
    kernel_size: 1
    weight_filler {
      type: "xavier"
      std: 0.1
    }
    bias_filler {
      type: "constant"
      value: 0.2
    }
  }
}
layer {
  name: "inception_4a/relu_pool_proj"
  type: "ReLU"
  bottom: "inception_4a/pool_proj"
  top: "inception_4a/pool_proj"
}
layer {
  name: "inception_4a/output"
  type: "Concat"
  bottom: "inception_4a/1x1"
  bottom: "inception_4a/3x3"
  bottom: "inception_4a/5x5"
  bottom: "inception_4a/pool_proj"
  top: "inception_4a/output"
}
layer {
  name: "loss1/ave_pool"
  type: "Pooling"
  bottom: "inception_4a/output"
  top: "loss1/ave_pool"
  pooling_param {
    pool: AVE
    kernel_size: 5
    stride: 3
  }
}
layer {
  name: "loss1/conv"
  type: "Convolution"
  bottom: "loss1/ave_pool"
  top: "loss1/conv"
  param {
    lr_mult: 1
    decay_mult: 1
  }
  param {
    lr_mult: 2
    decay_mult: 0
  }
  convolution_param {
    num_output: 128
    kernel_size: 1
    weight_filler {
      type: "xavier"
      std: 0.08
    }
    bias_filler {
      type: "constant"
      value: 0.2
    }
  }
}
layer {
  name: "loss1/relu_conv"
  type: "ReLU"
  bottom: "loss1/conv"
  top: "loss1/conv"
}
layer {
  name: "loss1/fc"
  type: "InnerProduct"
  bottom: "loss1/conv"
  top: "loss1/fc"
  param {
    lr_mult: 1
    decay_mult: 1
  }
  param {
    lr_mult: 2
    decay_mult: 0
  }
  inner_product_param {
    num_output: 1024
    weight_filler {
      type: "xavier"
      std: 0.02
    }
    bias_filler {
      type: "constant"
      value: 0.2
    }
  }
}
layer {
  name: "loss1/relu_fc"
  type: "ReLU"
  bottom: "loss1/fc"
  top: "loss1/fc"
}
layer {
  name: "loss1/drop_fc"
  type: "Dropout"
  bottom: "loss1/fc"
  top: "loss1/fc"
  dropout_param {
    dropout_ratio: 0.7
  }
}
layer {
  name: "loss1/classifier_plantvillage"
  type: "InnerProduct"
  bottom: "loss1/fc"
  top: "loss1/classifier_plantvillage"
  param {
    lr_mult: 1
    decay_mult: 1
  }
  param {
    lr_mult: 2
    decay_mult: 0
  }
  inner_product_param {
    num_output: 38
    weight_filler {
      type: "xavier"
      std: 0.0009765625
    }
    bias_filler {
      type: "constant"
      value: 0
    }
  }
}
layer {
  name: "inception_4b/1x1"
  type: "Convolution"
  bottom: "inception_4a/output"
  top: "inception_4b/1x1"
  param {
    lr_mult: 1
    decay_mult: 1
  }
  param {
    lr_mult: 2
    decay_mult: 0
  }
  convolution_param {
    num_output: 160
    kernel_size: 1
    weight_filler {
      type: "xavier"
      std: 0.03
    }
    bias_filler {
      type: "constant"
      value: 0.2
    }
  }
}
layer {
  name: "inception_4b/relu_1x1"
  type: "ReLU"
  bottom: "inception_4b/1x1"
  top: "inception_4b/1x1"
}
layer {
  name: "inception_4b/3x3_reduce"
  type: "Convolution"
  bottom: "inception_4a/output"
  top: "inception_4b/3x3_reduce"
  param {
    lr_mult: 1
    decay_mult: 1
  }
  param {
    lr_mult: 2
    decay_mult: 0
  }
  convolution_param {
    num_output: 112
    kernel_size: 1
    weight_filler {
      type: "xavier"
      std: 0.09
    }
    bias_filler {
      type: "constant"
      value: 0.2
    }
  }
}
layer {
  name: "inception_4b/relu_3x3_reduce"
  type: "ReLU"
  bottom: "inception_4b/3x3_reduce"
  top: "inception_4b/3x3_reduce"
}
layer {
  name: "inception_4b/3x3"
  type: "Convolution"
  bottom: "inception_4b/3x3_reduce"
  top: "inception_4b/3x3"
  param {
    lr_mult: 1
    decay_mult: 1
  }
  param {
    lr_mult: 2
    decay_mult: 0
  }
  convolution_param {
    num_output: 224
    pad: 1
    kernel_size: 3
    weight_filler {
      type: "xavier"
      std: 0.03
    }
    bias_filler {
      type: "constant"
      value: 0.2
    }
  }
}
layer {
  name: "inception_4b/relu_3x3"
  type: "ReLU"
  bottom: "inception_4b/3x3"
  top: "inception_4b/3x3"
}
layer {
  name: "inception_4b/5x5_reduce"
  type: "Convolution"
  bottom: "inception_4a/output"
  top: "inception_4b/5x5_reduce"
  param {
    lr_mult: 1
    decay_mult: 1
  }
  param {
    lr_mult: 2
    decay_mult: 0
  }
  convolution_param {
    num_output: 24
    kernel_size: 1
    weight_filler {
      type: "xavier"
      std: 0.2
    }
    bias_filler {
      type: "constant"
      value: 0.2
    }
  }
}
layer {
  name: "inception_4b/relu_5x5_reduce"
  type: "ReLU"
  bottom: "inception_4b/5x5_reduce"
  top: "inception_4b/5x5_reduce"
}
layer {
  name: "inception_4b/5x5"
  type: "Convolution"
  bottom: "inception_4b/5x5_reduce"
  top: "inception_4b/5x5"
  param {
    lr_mult: 1
    decay_mult: 1
  }
  param {
    lr_mult: 2
    decay_mult: 0
  }
  convolution_param {
    num_output: 64
    pad: 2
    kernel_size: 5
    weight_filler {
      type: "xavier"
      std: 0.03
    }
    bias_filler {
      type: "constant"
      value: 0.2
    }
  }
}
layer {
  name: "inception_4b/relu_5x5"
  type: "ReLU"
  bottom: "inception_4b/5x5"
  top: "inception_4b/5x5"
}
layer {
  name: "inception_4b/pool"
  type: "Pooling"
  bottom: "inception_4a/output"
  top: "inception_4b/pool"
  pooling_param {
    pool: MAX
    kernel_size: 3
    stride: 1
    pad: 1
  }
}
layer {
  name: "inception_4b/pool_proj"
  type: "Convolution"
  bottom: "inception_4b/pool"
  top: "inception_4b/pool_proj"
  param {
    lr_mult: 1
    decay_mult: 1
  }
  param {
    lr_mult: 2
    decay_mult: 0
  }
  convolution_param {
    num_output: 64
    kernel_size: 1
    weight_filler {
      type: "xavier"
      std: 0.1
    }
    bias_filler {
      type: "constant"
      value: 0.2
    }
  }
}
layer {
  name: "inception_4b/relu_pool_proj"
  type: "ReLU"
  bottom: "inception_4b/pool_proj"
  top: "inception_4b/pool_proj"
}
layer {
  name: "inception_4b/output"
  type: "Concat"
  bottom: "inception_4b/1x1"
  bottom: "inception_4b/3x3"
  bottom: "inception_4b/5x5"
  bottom: "inception_4b/pool_proj"
  top: "inception_4b/output"
}
layer {
  name: "inception_4c/1x1"
  type: "Convolution"
  bottom: "inception_4b/output"
  top: "inception_4c/1x1"
  param {
    lr_mult: 1
    decay_mult: 1
  }
  param {
    lr_mult: 2
    decay_mult: 0
  }
  convolution_param {
    num_output: 128
    kernel_size: 1
    weight_filler {
      type: "xavier"
      std: 0.03
    }
    bias_filler {
      type: "constant"
      value: 0.2
    }
  }
}
layer {
  name: "inception_4c/relu_1x1"
  type: "ReLU"
  bottom: "inception_4c/1x1"
  top: "inception_4c/1x1"
}
layer {
  name: "inception_4c/3x3_reduce"
  type: "Convolution"
  bottom: "inception_4b/output"
  top: "inception_4c/3x3_reduce"
  param {
    lr_mult: 1
    decay_mult: 1
  }
  param {
    lr_mult: 2
    decay_mult: 0
  }
  convolution_param {
    num_output: 128
    kernel_size: 1
    weight_filler {
      type: "xavier"
      std: 0.09
    }
    bias_filler {
      type: "constant"
      value: 0.2
    }
  }
}
layer {
  name: "inception_4c/relu_3x3_reduce"
  type: "ReLU"
  bottom: "inception_4c/3x3_reduce"
  top: "inception_4c/3x3_reduce"
}
layer {
  name: "inception_4c/3x3"
  type: "Convolution"
  bottom: "inception_4c/3x3_reduce"
  top: "inception_4c/3x3"
  param {
    lr_mult: 1
    decay_mult: 1
  }
  param {
    lr_mult: 2
    decay_mult: 0
  }
  convolution_param {
    num_output: 256
    pad: 1
    kernel_size: 3
    weight_filler {
      type: "xavier"
      std: 0.03
    }
    bias_filler {
      type: "constant"
      value: 0.2
    }
  }
}
layer {
  name: "inception_4c/relu_3x3"
  type: "ReLU"
  bottom: "inception_4c/3x3"
  top: "inception_4c/3x3"
}
layer {
  name: "inception_4c/5x5_reduce"
  type: "Convolution"
  bottom: "inception_4b/output"
  top: "inception_4c/5x5_reduce"
  param {
    lr_mult: 1
    decay_mult: 1
  }
  param {
    lr_mult: 2
    decay_mult: 0
  }
  convolution_param {
    num_output: 24
    kernel_size: 1
    weight_filler {
      type: "xavier"
      std: 0.2
    }
    bias_filler {
      type: "constant"
      value: 0.2
    }
  }
}
layer {
  name: "inception_4c/relu_5x5_reduce"
  type: "ReLU"
  bottom: "inception_4c/5x5_reduce"
  top: "inception_4c/5x5_reduce"
}
layer {
  name: "inception_4c/5x5"
  type: "Convolution"
  bottom: "inception_4c/5x5_reduce"
  top: "inception_4c/5x5"
  param {
    lr_mult: 1
    decay_mult: 1
  }
  param {
    lr_mult: 2
    decay_mult: 0
  }
  convolution_param {
    num_output: 64
    pad: 2
    kernel_size: 5
    weight_filler {
      type: "xavier"
      std: 0.03
    }
    bias_filler {
      type: "constant"
      value: 0.2
    }
  }
}
layer {
  name: "inception_4c/relu_5x5"
  type: "ReLU"
  bottom: "inception_4c/5x5"
  top: "inception_4c/5x5"
}
layer {
  name: "inception_4c/pool"
  type: "Pooling"
  bottom: "inception_4b/output"
  top: "inception_4c/pool"
  pooling_param {
    pool: MAX
    kernel_size: 3
    stride: 1
    pad: 1
  }
}
layer {
  name: "inception_4c/pool_proj"
  type: "Convolution"
  bottom: "inception_4c/pool"
  top: "inception_4c/pool_proj"
  param {
    lr_mult: 1
    decay_mult: 1
  }
  param {
    lr_mult: 2
    decay_mult: 0
  }
  convolution_param {
    num_output: 64
    kernel_size: 1
    weight_filler {
      type: "xavier"
      std: 0.1
    }
    bias_filler {
      type: "constant"
      value: 0.2
    }
  }
}
layer {
  name: "inception_4c/relu_pool_proj"
  type: "ReLU"
  bottom: "inception_4c/pool_proj"
  top: "inception_4c/pool_proj"
}
layer {
  name: "inception_4c/output"
  type: "Concat"
  bottom: "inception_4c/1x1"
  bottom: "inception_4c/3x3"
  bottom: "inception_4c/5x5"
  bottom: "inception_4c/pool_proj"
  top: "inception_4c/output"
}
layer {
  name: "inception_4d/1x1"
  type: "Convolution"
  bottom: "inception_4c/output"
  top: "inception_4d/1x1"
  param {
    lr_mult: 1
    decay_mult: 1
  }
  param {
    lr_mult: 2
    decay_mult: 0
  }
  convolution_param {
    num_output: 112
    kernel_size: 1
    weight_filler {
      type: "xavier"
      std: 0.03
    }
    bias_filler {
      type: "constant"
      value: 0.2
    }
  }
}
layer {
  name: "inception_4d/relu_1x1"
  type: "ReLU"
  bottom: "inception_4d/1x1"
  top: "inception_4d/1x1"
}
layer {
  name: "inception_4d/3x3_reduce"
  type: "Convolution"
  bottom: "inception_4c/output"
  top: "inception_4d/3x3_reduce"
  param {
    lr_mult: 1
    decay_mult: 1
  }
  param {
    lr_mult: 2
    decay_mult: 0
  }
  convolution_param {
    num_output: 144
    kernel_size: 1
    weight_filler {
      type: "xavier"
      std: 0.09
    }
    bias_filler {
      type: "constant"
      value: 0.2
    }
  }
}
layer {
  name: "inception_4d/relu_3x3_reduce"
  type: "ReLU"
  bottom: "inception_4d/3x3_reduce"
  top: "inception_4d/3x3_reduce"
}
layer {
  name: "inception_4d/3x3"
  type: "Convolution"
  bottom: "inception_4d/3x3_reduce"
  top: "inception_4d/3x3"
  param {
    lr_mult: 1
    decay_mult: 1
  }
  param {
    lr_mult: 2
    decay_mult: 0
  }
  convolution_param {
    num_output: 288
    pad: 1
    kernel_size: 3
    weight_filler {
      type: "xavier"
      std: 0.03
    }
    bias_filler {
      type: "constant"
      value: 0.2
    }
  }
}
layer {
  name: "inception_4d/relu_3x3"
  type: "ReLU"
  bottom: "inception_4d/3x3"
  top: "inception_4d/3x3"
}
layer {
  name: "inception_4d/5x5_reduce"
  type: "Convolution"
  bottom: "inception_4c/output"
  top: "inception_4d/5x5_reduce"
  param {
    lr_mult: 1
    decay_mult: 1
  }
  param {
    lr_mult: 2
    decay_mult: 0
  }
  convolution_param {
    num_output: 32
    kernel_size: 1
    weight_filler {
      type: "xavier"
      std: 0.2
    }
    bias_filler {
      type: "constant"
      value: 0.2
    }
  }
}
layer {
  name: "inception_4d/relu_5x5_reduce"
  type: "ReLU"
  bottom: "inception_4d/5x5_reduce"
  top: "inception_4d/5x5_reduce"
}
layer {
  name: "inception_4d/5x5"
  type: "Convolution"
  bottom: "inception_4d/5x5_reduce"
  top: "inception_4d/5x5"
  param {
    lr_mult: 1
    decay_mult: 1
  }
  param {
    lr_mult: 2
    decay_mult: 0
  }
  convolution_param {
    num_output: 64
    pad: 2
    kernel_size: 5
    weight_filler {
      type: "xavier"
      std: 0.03
    }
    bias_filler {
      type: "constant"
      value: 0.2
    }
  }
}
layer {
  name: "inception_4d/relu_5x5"
  type: "ReLU"
  bottom: "inception_4d/5x5"
  top: "inception_4d/5x5"
}
layer {
  name: "inception_4d/pool"
  type: "Pooling"
  bottom: "inception_4c/output"
  top: "inception_4d/pool"
  pooling_param {
    pool: MAX
    kernel_size: 3
    stride: 1
    pad: 1
  }
}
layer {
  name: "inception_4d/pool_proj"
  type: "Convolution"
  bottom: "inception_4d/pool"
  top: "inception_4d/pool_proj"
  param {
    lr_mult: 1
    decay_mult: 1
  }
  param {
    lr_mult: 2
    decay_mult: 0
  }
  convolution_param {
    num_output: 64
    kernel_size: 1
    weight_filler {
      type: "xavier"
      std: 0.1
    }
    bias_filler {
      type: "constant"
      value: 0.2
    }
  }
}
layer {
  name: "inception_4d/relu_pool_proj"
  type: "ReLU"
  bottom: "inception_4d/pool_proj"
  top: "inception_4d/pool_proj"
}
layer {
  name: "inception_4d/output"
  type: "Concat"
  bottom: "inception_4d/1x1"
  bottom: "inception_4d/3x3"
  bottom: "inception_4d/5x5"
  bottom: "inception_4d/pool_proj"
  top: "inception_4d/output"
}
layer {
  name: "loss2/ave_pool"
  type: "Pooling"
  bottom: "inception_4d/output"
  top: "loss2/ave_pool"
  pooling_param {
    pool: AVE
    kernel_size: 5
    stride: 3
  }
}
layer {
  name: "loss2/conv"
  type: "Convolution"
  bottom: "loss2/ave_pool"
  top: "loss2/conv"
  param {
    lr_mult: 1
    decay_mult: 1
  }
  param {
    lr_mult: 2
    decay_mult: 0
  }
  convolution_param {
    num_output: 128
    kernel_size: 1
    weight_filler {
      type: "xavier"
      std: 0.08
    }
    bias_filler {
      type: "constant"
      value: 0.2
    }
  }
}
layer {
  name: "loss2/relu_conv"
  type: "ReLU"
  bottom: "loss2/conv"
  top: "loss2/conv"
}
layer {
  name: "loss2/fc"
  type: "InnerProduct"
  bottom: "loss2/conv"
  top: "loss2/fc"
  param {
    lr_mult: 1
    decay_mult: 1
  }
  param {
    lr_mult: 2
    decay_mult: 0
  }
  inner_product_param {
    num_output: 1024
    weight_filler {
      type: "xavier"
      std: 0.02
    }
    bias_filler {
      type: "constant"
      value: 0.2
    }
  }
}
layer {
  name: "loss2/relu_fc"
  type: "ReLU"
  bottom: "loss2/fc"
  top: "loss2/fc"
}
layer {
  name: "loss2/drop_fc"
  type: "Dropout"
  bottom: "loss2/fc"
  top: "loss2/fc"
  dropout_param {
    dropout_ratio: 0.7
  }
}
layer {
  name: "loss2/classifier_plantvillage"
  type: "InnerProduct"
  bottom: "loss2/fc"
  top: "loss2/classifier_plantvillage"
  param {
    lr_mult: 1
    decay_mult: 1
  }
  param {
    lr_mult: 2
    decay_mult: 0
  }
  inner_product_param {
    num_output: 38
    weight_filler {
      type: "xavier"
      std: 0.0009765625
    }
    bias_filler {
      type: "constant"
      value: 0
    }
  }
}
layer {
  name: "inception_4e/1x1"
  type: "Convolution"
  bottom: "inception_4d/output"
  top: "inception_4e/1x1"
  param {
    lr_mult: 1
    decay_mult: 1
  }
  param {
    lr_mult: 2
    decay_mult: 0
  }
  convolution_param {
    num_output: 256
    kernel_size: 1
    weight_filler {
      type: "xavier"
      std: 0.03
    }
    bias_filler {
      type: "constant"
      value: 0.2
    }
  }
}
layer {
  name: "inception_4e/relu_1x1"
  type: "ReLU"
  bottom: "inception_4e/1x1"
  top: "inception_4e/1x1"
}
layer {
  name: "inception_4e/3x3_reduce"
  type: "Convolution"
  bottom: "inception_4d/output"
  top: "inception_4e/3x3_reduce"
  param {
    lr_mult: 1
    decay_mult: 1
  }
  param {
    lr_mult: 2
    decay_mult: 0
  }
  convolution_param {
    num_output: 160
    kernel_size: 1
    weight_filler {
      type: "xavier"
      std: 0.09
    }
    bias_filler {
      type: "constant"
      value: 0.2
    }
  }
}
layer {
  name: "inception_4e/relu_3x3_reduce"
  type: "ReLU"
  bottom: "inception_4e/3x3_reduce"
  top: "inception_4e/3x3_reduce"
}
layer {
  name: "inception_4e/3x3"
  type: "Convolution"
  bottom: "inception_4e/3x3_reduce"
  top: "inception_4e/3x3"
  param {
    lr_mult: 1
    decay_mult: 1
  }
  param {
    lr_mult: 2
    decay_mult: 0
  }
  convolution_param {
    num_output: 320
    pad: 1
    kernel_size: 3
    weight_filler {
      type: "xavier"
      std: 0.03
    }
    bias_filler {
      type: "constant"
      value: 0.2
    }
  }
}
layer {
  name: "inception_4e/relu_3x3"
  type: "ReLU"
  bottom: "inception_4e/3x3"
  top: "inception_4e/3x3"
}
layer {
  name: "inception_4e/5x5_reduce"
  type: "Convolution"
  bottom: "inception_4d/output"
  top: "inception_4e/5x5_reduce"
  param {
    lr_mult: 1
    decay_mult: 1
  }
  param {
    lr_mult: 2
    decay_mult: 0
  }
  convolution_param {
    num_output: 32
    kernel_size: 1
    weight_filler {
      type: "xavier"
      std: 0.2
    }
    bias_filler {
      type: "constant"
      value: 0.2
    }
  }
}
layer {
  name: "inception_4e/relu_5x5_reduce"
  type: "ReLU"
  bottom: "inception_4e/5x5_reduce"
  top: "inception_4e/5x5_reduce"
}
layer {
  name: "inception_4e/5x5"
  type: "Convolution"
  bottom: "inception_4e/5x5_reduce"
  top: "inception_4e/5x5"
  p
I0403 19:55:18.337235  9905 layer_factory.hpp:77] Creating layer data
I0403 19:55:18.337880  9905 net.cpp:91] Creating Layer data
I0403 19:55:18.337913  9905 net.cpp:399] data -> data
I0403 19:55:18.337967  9905 net.cpp:399] data -> label
I0403 19:55:18.338004  9905 data_transformer.cpp:25] Loading mean file from: /home/mohanty/data/final_dataset/lmdb/color-50-50/mean.binaryproto
I0403 19:55:18.339046  9909 db_lmdb.cpp:38] Opened lmdb /home/mohanty/data/final_dataset/lmdb/color-50-50/test_db
I0403 19:55:18.352123  9905 data_layer.cpp:41] output data size: 24,3,224,224
I0403 19:55:18.382463  9905 net.cpp:141] Setting up data
I0403 19:55:18.382531  9905 net.cpp:148] Top shape: 24 3 224 224 (3612672)
I0403 19:55:18.382555  9905 net.cpp:148] Top shape: 24 (24)
I0403 19:55:18.382570  9905 net.cpp:156] Memory required for data: 14450784
I0403 19:55:18.382597  9905 layer_factory.hpp:77] Creating layer label_data_1_split
I0403 19:55:18.382623  9905 net.cpp:91] Creating Layer label_data_1_split
I0403 19:55:18.382642  9905 net.cpp:425] label_data_1_split <- label
I0403 19:55:18.382674  9905 net.cpp:399] label_data_1_split -> label_data_1_split_0
I0403 19:55:18.382702  9905 net.cpp:399] label_data_1_split -> label_data_1_split_1
I0403 19:55:18.382724  9905 net.cpp:399] label_data_1_split -> label_data_1_split_2
I0403 19:55:18.382745  9905 net.cpp:399] label_data_1_split -> label_data_1_split_3
I0403 19:55:18.382763  9905 net.cpp:399] label_data_1_split -> label_data_1_split_4
I0403 19:55:18.382783  9905 net.cpp:399] label_data_1_split -> label_data_1_split_5
I0403 19:55:18.382803  9905 net.cpp:399] label_data_1_split -> label_data_1_split_6
I0403 19:55:18.382824  9905 net.cpp:399] label_data_1_split -> label_data_1_split_7
I0403 19:55:18.382844  9905 net.cpp:399] label_data_1_split -> label_data_1_split_8
I0403 19:55:18.382864  9905 net.cpp:399] label_data_1_split -> label_data_1_split_9
I0403 19:55:18.382985  9905 net.cpp:141] Setting up label_data_1_split
I0403 19:55:18.383010  9905 net.cpp:148] Top shape: 24 (24)
I0403 19:55:18.383028  9905 net.cpp:148] Top shape: 24 (24)
I0403 19:55:18.383045  9905 net.cpp:148] Top shape: 24 (24)
I0403 19:55:18.383064  9905 net.cpp:148] Top shape: 24 (24)
I0403 19:55:18.383080  9905 net.cpp:148] Top shape: 24 (24)
I0403 19:55:18.383096  9905 net.cpp:148] Top shape: 24 (24)
I0403 19:55:18.383112  9905 net.cpp:148] Top shape: 24 (24)
I0403 19:55:18.383128  9905 net.cpp:148] Top shape: 24 (24)
I0403 19:55:18.383144  9905 net.cpp:148] Top shape: 24 (24)
I0403 19:55:18.383162  9905 net.cpp:148] Top shape: 24 (24)
I0403 19:55:18.383199  9905 net.cpp:156] Memory required for data: 14451744
I0403 19:55:18.383216  9905 layer_factory.hpp:77] Creating layer conv1/7x7_s2
I0403 19:55:18.383255  9905 net.cpp:91] Creating Layer conv1/7x7_s2
I0403 19:55:18.383276  9905 net.cpp:425] conv1/7x7_s2 <- data
I0403 19:55:18.383297  9905 net.cpp:399] conv1/7x7_s2 -> conv1/7x7_s2
I0403 19:55:18.530527  9905 net.cpp:141] Setting up conv1/7x7_s2
I0403 19:55:18.530635  9905 net.cpp:148] Top shape: 24 64 112 112 (19267584)
I0403 19:55:18.530653  9905 net.cpp:156] Memory required for data: 91522080
I0403 19:55:18.530686  9905 layer_factory.hpp:77] Creating layer conv1/relu_7x7
I0403 19:55:18.530715  9905 net.cpp:91] Creating Layer conv1/relu_7x7
I0403 19:55:18.530735  9905 net.cpp:425] conv1/relu_7x7 <- conv1/7x7_s2
I0403 19:55:18.530755  9905 net.cpp:386] conv1/relu_7x7 -> conv1/7x7_s2 (in-place)
I0403 19:55:18.531023  9905 net.cpp:141] Setting up conv1/relu_7x7
I0403 19:55:18.531050  9905 net.cpp:148] Top shape: 24 64 112 112 (19267584)
I0403 19:55:18.531066  9905 net.cpp:156] Memory required for data: 168592416
I0403 19:55:18.531082  9905 layer_factory.hpp:77] Creating layer pool1/3x3_s2
I0403 19:55:18.531108  9905 net.cpp:91] Creating Layer pool1/3x3_s2
I0403 19:55:18.531126  9905 net.cpp:425] pool1/3x3_s2 <- conv1/7x7_s2
I0403 19:55:18.531147  9905 net.cpp:399] pool1/3x3_s2 -> pool1/3x3_s2
I0403 19:55:18.531224  9905 net.cpp:141] Setting up pool1/3x3_s2
I0403 19:55:18.531252  9905 net.cpp:148] Top shape: 24 64 56 56 (4816896)
I0403 19:55:18.531270  9905 net.cpp:156] Memory required for data: 187860000
I0403 19:55:18.531286  9905 layer_factory.hpp:77] Creating layer pool1/norm1
I0403 19:55:18.531312  9905 net.cpp:91] Creating Layer pool1/norm1
I0403 19:55:18.531332  9905 net.cpp:425] pool1/norm1 <- pool1/3x3_s2
I0403 19:55:18.531352  9905 net.cpp:399] pool1/norm1 -> pool1/norm1
I0403 19:55:18.531648  9905 net.cpp:141] Setting up pool1/norm1
I0403 19:55:18.531677  9905 net.cpp:148] Top shape: 24 64 56 56 (4816896)
I0403 19:55:18.531692  9905 net.cpp:156] Memory required for data: 207127584
I0403 19:55:18.531709  9905 layer_factory.hpp:77] Creating layer conv2/3x3_reduce
I0403 19:55:18.531734  9905 net.cpp:91] Creating Layer conv2/3x3_reduce
I0403 19:55:18.531752  9905 net.cpp:425] conv2/3x3_reduce <- pool1/norm1
I0403 19:55:18.531771  9905 net.cpp:399] conv2/3x3_reduce -> conv2/3x3_reduce
I0403 19:55:18.533202  9905 net.cpp:141] Setting up conv2/3x3_reduce
I0403 19:55:18.533233  9905 net.cpp:148] Top shape: 24 64 56 56 (4816896)
I0403 19:55:18.533255  9905 net.cpp:156] Memory required for data: 226395168
I0403 19:55:18.533278  9905 layer_factory.hpp:77] Creating layer conv2/relu_3x3_reduce
I0403 19:55:18.533299  9905 net.cpp:91] Creating Layer conv2/relu_3x3_reduce
I0403 19:55:18.533318  9905 net.cpp:425] conv2/relu_3x3_reduce <- conv2/3x3_reduce
I0403 19:55:18.533335  9905 net.cpp:386] conv2/relu_3x3_reduce -> conv2/3x3_reduce (in-place)
I0403 19:55:18.533596  9905 net.cpp:141] Setting up conv2/relu_3x3_reduce
I0403 19:55:18.533625  9905 net.cpp:148] Top shape: 24 64 56 56 (4816896)
I0403 19:55:18.533643  9905 net.cpp:156] Memory required for data: 245662752
I0403 19:55:18.533658  9905 layer_factory.hpp:77] Creating layer conv2/3x3
I0403 19:55:18.533681  9905 net.cpp:91] Creating Layer conv2/3x3
I0403 19:55:18.533700  9905 net.cpp:425] conv2/3x3 <- conv2/3x3_reduce
I0403 19:55:18.533720  9905 net.cpp:399] conv2/3x3 -> conv2/3x3
I0403 19:55:18.536072  9905 net.cpp:141] Setting up conv2/3x3
I0403 19:55:18.536105  9905 net.cpp:148] Top shape: 24 192 56 56 (14450688)
I0403 19:55:18.536123  9905 net.cpp:156] Memory required for data: 303465504
I0403 19:55:18.536151  9905 layer_factory.hpp:77] Creating layer conv2/relu_3x3
I0403 19:55:18.536172  9905 net.cpp:91] Creating Layer conv2/relu_3x3
I0403 19:55:18.536190  9905 net.cpp:425] conv2/relu_3x3 <- conv2/3x3
I0403 19:55:18.536207  9905 net.cpp:386] conv2/relu_3x3 -> conv2/3x3 (in-place)
I0403 19:55:18.536396  9905 net.cpp:141] Setting up conv2/relu_3x3
I0403 19:55:18.536423  9905 net.cpp:148] Top shape: 24 192 56 56 (14450688)
I0403 19:55:18.536474  9905 net.cpp:156] Memory required for data: 361268256
I0403 19:55:18.536490  9905 layer_factory.hpp:77] Creating layer conv2/norm2
I0403 19:55:18.536512  9905 net.cpp:91] Creating Layer conv2/norm2
I0403 19:55:18.536531  9905 net.cpp:425] conv2/norm2 <- conv2/3x3
I0403 19:55:18.536550  9905 net.cpp:399] conv2/norm2 -> conv2/norm2
I0403 19:55:18.536876  9905 net.cpp:141] Setting up conv2/norm2
I0403 19:55:18.536905  9905 net.cpp:148] Top shape: 24 192 56 56 (14450688)
I0403 19:55:18.536921  9905 net.cpp:156] Memory required for data: 419071008
I0403 19:55:18.536936  9905 layer_factory.hpp:77] Creating layer pool2/3x3_s2
I0403 19:55:18.536957  9905 net.cpp:91] Creating Layer pool2/3x3_s2
I0403 19:55:18.536975  9905 net.cpp:425] pool2/3x3_s2 <- conv2/norm2
I0403 19:55:18.536996  9905 net.cpp:399] pool2/3x3_s2 -> pool2/3x3_s2
I0403 19:55:18.537051  9905 net.cpp:141] Setting up pool2/3x3_s2
I0403 19:55:18.537076  9905 net.cpp:148] Top shape: 24 192 28 28 (3612672)
I0403 19:55:18.537091  9905 net.cpp:156] Memory required for data: 433521696
I0403 19:55:18.537107  9905 layer_factory.hpp:77] Creating layer pool2/3x3_s2_pool2/3x3_s2_0_split
I0403 19:55:18.537128  9905 net.cpp:91] Creating Layer pool2/3x3_s2_pool2/3x3_s2_0_split
I0403 19:55:18.537147  9905 net.cpp:425] pool2/3x3_s2_pool2/3x3_s2_0_split <- pool2/3x3_s2
I0403 19:55:18.537166  9905 net.cpp:399] pool2/3x3_s2_pool2/3x3_s2_0_split -> pool2/3x3_s2_pool2/3x3_s2_0_split_0
I0403 19:55:18.537188  9905 net.cpp:399] pool2/3x3_s2_pool2/3x3_s2_0_split -> pool2/3x3_s2_pool2/3x3_s2_0_split_1
I0403 19:55:18.537207  9905 net.cpp:399] pool2/3x3_s2_pool2/3x3_s2_0_split -> pool2/3x3_s2_pool2/3x3_s2_0_split_2
I0403 19:55:18.537230  9905 net.cpp:399] pool2/3x3_s2_pool2/3x3_s2_0_split -> pool2/3x3_s2_pool2/3x3_s2_0_split_3
I0403 19:55:18.537312  9905 net.cpp:141] Setting up pool2/3x3_s2_pool2/3x3_s2_0_split
I0403 19:55:18.537338  9905 net.cpp:148] Top shape: 24 192 28 28 (3612672)
I0403 19:55:18.537355  9905 net.cpp:148] Top shape: 24 192 28 28 (3612672)
I0403 19:55:18.537372  9905 net.cpp:148] Top shape: 24 192 28 28 (3612672)
I0403 19:55:18.537389  9905 net.cpp:148] Top shape: 24 192 28 28 (3612672)
I0403 19:55:18.537403  9905 net.cpp:156] Memory required for data: 491324448
I0403 19:55:18.537420  9905 layer_factory.hpp:77] Creating layer inception_3a/1x1
I0403 19:55:18.537442  9905 net.cpp:91] Creating Layer inception_3a/1x1
I0403 19:55:18.537461  9905 net.cpp:425] inception_3a/1x1 <- pool2/3x3_s2_pool2/3x3_s2_0_split_0
I0403 19:55:18.537484  9905 net.cpp:399] inception_3a/1x1 -> inception_3a/1x1
I0403 19:55:18.539150  9905 net.cpp:141] Setting up inception_3a/1x1
I0403 19:55:18.539185  9905 net.cpp:148] Top shape: 24 64 28 28 (1204224)
I0403 19:55:18.539202  9905 net.cpp:156] Memory required for data: 496141344
I0403 19:55:18.539222  9905 layer_factory.hpp:77] Creating layer inception_3a/relu_1x1
I0403 19:55:18.539245  9905 net.cpp:91] Creating Layer inception_3a/relu_1x1
I0403 19:55:18.539264  9905 net.cpp:425] inception_3a/relu_1x1 <- inception_3a/1x1
I0403 19:55:18.539284  9905 net.cpp:386] inception_3a/relu_1x1 -> inception_3a/1x1 (in-place)
I0403 19:55:18.539469  9905 net.cpp:141] Setting up inception_3a/relu_1x1
I0403 19:55:18.539496  9905 net.cpp:148] Top shape: 24 64 28 28 (1204224)
I0403 19:55:18.539511  9905 net.cpp:156] Memory required for data: 500958240
I0403 19:55:18.539526  9905 layer_factory.hpp:77] Creating layer inception_3a/3x3_reduce
I0403 19:55:18.539549  9905 net.cpp:91] Creating Layer inception_3a/3x3_reduce
I0403 19:55:18.539568  9905 net.cpp:425] inception_3a/3x3_reduce <- pool2/3x3_s2_pool2/3x3_s2_0_split_1
I0403 19:55:18.539594  9905 net.cpp:399] inception_3a/3x3_reduce -> inception_3a/3x3_reduce
I0403 19:55:18.541393  9905 net.cpp:141] Setting up inception_3a/3x3_reduce
I0403 19:55:18.541429  9905 net.cpp:148] Top shape: 24 96 28 28 (1806336)
I0403 19:55:18.541446  9905 net.cpp:156] Memory required for data: 508183584
I0403 19:55:18.541470  9905 layer_factory.hpp:77] Creating layer inception_3a/relu_3x3_reduce
I0403 19:55:18.541509  9905 net.cpp:91] Creating Layer inception_3a/relu_3x3_reduce
I0403 19:55:18.541530  9905 net.cpp:425] inception_3a/relu_3x3_reduce <- inception_3a/3x3_reduce
I0403 19:55:18.541550  9905 net.cpp:386] inception_3a/relu_3x3_reduce -> inception_3a/3x3_reduce (in-place)
I0403 19:55:18.541740  9905 net.cpp:141] Setting up inception_3a/relu_3x3_reduce
I0403 19:55:18.541767  9905 net.cpp:148] Top shape: 24 96 28 28 (1806336)
I0403 19:55:18.541784  9905 net.cpp:156] Memory required for data: 515408928
I0403 19:55:18.541798  9905 layer_factory.hpp:77] Creating layer inception_3a/3x3
I0403 19:55:18.541824  9905 net.cpp:91] Creating Layer inception_3a/3x3
I0403 19:55:18.541842  9905 net.cpp:425] inception_3a/3x3 <- inception_3a/3x3_reduce
I0403 19:55:18.541862  9905 net.cpp:399] inception_3a/3x3 -> inception_3a/3x3
I0403 19:55:18.543660  9905 net.cpp:141] Setting up inception_3a/3x3
I0403 19:55:18.543691  9905 net.cpp:148] Top shape: 24 128 28 28 (2408448)
I0403 19:55:18.543709  9905 net.cpp:156] Memory required for data: 525042720
I0403 19:55:18.543727  9905 layer_factory.hpp:77] Creating layer inception_3a/relu_3x3
I0403 19:55:18.543746  9905 net.cpp:91] Creating Layer inception_3a/relu_3x3
I0403 19:55:18.543764  9905 net.cpp:425] inception_3a/relu_3x3 <- inception_3a/3x3
I0403 19:55:18.543784  9905 net.cpp:386] inception_3a/relu_3x3 -> inception_3a/3x3 (in-place)
I0403 19:55:18.544072  9905 net.cpp:141] Setting up inception_3a/relu_3x3
I0403 19:55:18.544100  9905 net.cpp:148] Top shape: 24 128 28 28 (2408448)
I0403 19:55:18.544116  9905 net.cpp:156] Memory required for data: 534676512
I0403 19:55:18.544131  9905 layer_factory.hpp:77] Creating layer inception_3a/5x5_reduce
I0403 19:55:18.544155  9905 net.cpp:91] Creating Layer inception_3a/5x5_reduce
I0403 19:55:18.544174  9905 net.cpp:425] inception_3a/5x5_reduce <- pool2/3x3_s2_pool2/3x3_s2_0_split_2
I0403 19:55:18.544201  9905 net.cpp:399] inception_3a/5x5_reduce -> inception_3a/5x5_reduce
I0403 19:55:18.545208  9905 net.cpp:141] Setting up inception_3a/5x5_reduce
I0403 19:55:18.545243  9905 net.cpp:148] Top shape: 24 16 28 28 (301056)
I0403 19:55:18.545261  9905 net.cpp:156] Memory required for data: 535880736
I0403 19:55:18.545281  9905 layer_factory.hpp:77] Creating layer inception_3a/relu_5x5_reduce
I0403 19:55:18.545300  9905 net.cpp:91] Creating Layer inception_3a/relu_5x5_reduce
I0403 19:55:18.545317  9905 net.cpp:425] inception_3a/relu_5x5_reduce <- inception_3a/5x5_reduce
I0403 19:55:18.545337  9905 net.cpp:386] inception_3a/relu_5x5_reduce -> inception_3a/5x5_reduce (in-place)
I0403 19:55:18.545636  9905 net.cpp:141] Setting up inception_3a/relu_5x5_reduce
I0403 19:55:18.545665  9905 net.cpp:148] Top shape: 24 16 28 28 (301056)
I0403 19:55:18.545680  9905 net.cpp:156] Memory required for data: 537084960
I0403 19:55:18.545696  9905 layer_factory.hpp:77] Creating layer inception_3a/5x5
I0403 19:55:18.545719  9905 net.cpp:91] Creating Layer inception_3a/5x5
I0403 19:55:18.545740  9905 net.cpp:425] inception_3a/5x5 <- inception_3a/5x5_reduce
I0403 19:55:18.545763  9905 net.cpp:399] inception_3a/5x5 -> inception_3a/5x5
I0403 19:55:18.546821  9905 net.cpp:141] Setting up inception_3a/5x5
I0403 19:55:18.546850  9905 net.cpp:148] Top shape: 24 32 28 28 (602112)
I0403 19:55:18.546867  9905 net.cpp:156] Memory required for data: 539493408
I0403 19:55:18.546886  9905 layer_factory.hpp:77] Creating layer inception_3a/relu_5x5
I0403 19:55:18.546905  9905 net.cpp:91] Creating Layer inception_3a/relu_5x5
I0403 19:55:18.546922  9905 net.cpp:425] inception_3a/relu_5x5 <- inception_3a/5x5
I0403 19:55:18.546943  9905 net.cpp:386] inception_3a/relu_5x5 -> inception_3a/5x5 (in-place)
I0403 19:55:18.547123  9905 net.cpp:141] Setting up inception_3a/relu_5x5
I0403 19:55:18.547149  9905 net.cpp:148] Top shape: 24 32 28 28 (602112)
I0403 19:55:18.547164  9905 net.cpp:156] Memory required for data: 541901856
I0403 19:55:18.547179  9905 layer_factory.hpp:77] Creating layer inception_3a/pool
I0403 19:55:18.547200  9905 net.cpp:91] Creating Layer inception_3a/pool
I0403 19:55:18.547217  9905 net.cpp:425] inception_3a/pool <- pool2/3x3_s2_pool2/3x3_s2_0_split_3
I0403 19:55:18.547256  9905 net.cpp:399] inception_3a/pool -> inception_3a/pool
I0403 19:55:18.547322  9905 net.cpp:141] Setting up inception_3a/pool
I0403 19:55:18.547346  9905 net.cpp:148] Top shape: 24 192 28 28 (3612672)
I0403 19:55:18.547361  9905 net.cpp:156] Memory required for data: 556352544
I0403 19:55:18.547376  9905 layer_factory.hpp:77] Creating layer inception_3a/pool_proj
I0403 19:55:18.547399  9905 net.cpp:91] Creating Layer inception_3a/pool_proj
I0403 19:55:18.547417  9905 net.cpp:425] inception_3a/pool_proj <- inception_3a/pool
I0403 19:55:18.547441  9905 net.cpp:399] inception_3a/pool_proj -> inception_3a/pool_proj
I0403 19:55:18.548450  9905 net.cpp:141] Setting up inception_3a/pool_proj
I0403 19:55:18.548480  9905 net.cpp:148] Top shape: 24 32 28 28 (602112)
I0403 19:55:18.548501  9905 net.cpp:156] Memory required for data: 558760992
I0403 19:55:18.548524  9905 layer_factory.hpp:77] Creating layer inception_3a/relu_pool_proj
I0403 19:55:18.548544  9905 net.cpp:91] Creating Layer inception_3a/relu_pool_proj
I0403 19:55:18.548560  9905 net.cpp:425] inception_3a/relu_pool_proj <- inception_3a/pool_proj
I0403 19:55:18.548583  9905 net.cpp:386] inception_3a/relu_pool_proj -> inception_3a/pool_proj (in-place)
I0403 19:55:18.548868  9905 net.cpp:141] Setting up inception_3a/relu_pool_proj
I0403 19:55:18.548897  9905 net.cpp:148] Top shape: 24 32 28 28 (602112)
I0403 19:55:18.548913  9905 net.cpp:156] Memory required for data: 561169440
I0403 19:55:18.548928  9905 layer_factory.hpp:77] Creating layer inception_3a/output
I0403 19:55:18.548948  9905 net.cpp:91] Creating Layer inception_3a/output
I0403 19:55:18.548964  9905 net.cpp:425] inception_3a/output <- inception_3a/1x1
I0403 19:55:18.548981  9905 net.cpp:425] inception_3a/output <- inception_3a/3x3
I0403 19:55:18.548997  9905 net.cpp:425] inception_3a/output <- inception_3a/5x5
I0403 19:55:18.549013  9905 net.cpp:425] inception_3a/output <- inception_3a/pool_proj
I0403 19:55:18.549033  9905 net.cpp:399] inception_3a/output -> inception_3a/output
I0403 19:55:18.549082  9905 net.cpp:141] Setting up inception_3a/output
I0403 19:55:18.549109  9905 net.cpp:148] Top shape: 24 256 28 28 (4816896)
I0403 19:55:18.549126  9905 net.cpp:156] Memory required for data: 580437024
I0403 19:55:18.549142  9905 layer_factory.hpp:77] Creating layer inception_3a/output_inception_3a/output_0_split
I0403 19:55:18.549160  9905 net.cpp:91] Creating Layer inception_3a/output_inception_3a/output_0_split
I0403 19:55:18.549177  9905 net.cpp:425] inception_3a/output_inception_3a/output_0_split <- inception_3a/output
I0403 19:55:18.549197  9905 net.cpp:399] inception_3a/output_inception_3a/output_0_split -> inception_3a/output_inception_3a/output_0_split_0
I0403 19:55:18.549217  9905 net.cpp:399] inception_3a/output_inception_3a/output_0_split -> inception_3a/output_inception_3a/output_0_split_1
I0403 19:55:18.549247  9905 net.cpp:399] inception_3a/output_inception_3a/output_0_split -> inception_3a/output_inception_3a/output_0_split_2
I0403 19:55:18.549283  9905 net.cpp:399] inception_3a/output_inception_3a/output_0_split -> inception_3a/output_inception_3a/output_0_split_3
I0403 19:55:18.549365  9905 net.cpp:141] Setting up inception_3a/output_inception_3a/output_0_split
I0403 19:55:18.549393  9905 net.cpp:148] Top shape: 24 256 28 28 (4816896)
I0403 19:55:18.549412  9905 net.cpp:148] Top shape: 24 256 28 28 (4816896)
I0403 19:55:18.549428  9905 net.cpp:148] Top shape: 24 256 28 28 (4816896)
I0403 19:55:18.549446  9905 net.cpp:148] Top shape: 24 256 28 28 (4816896)
I0403 19:55:18.549461  9905 net.cpp:156] Memory required for data: 657507360
I0403 19:55:18.549477  9905 layer_factory.hpp:77] Creating layer inception_3b/1x1
I0403 19:55:18.549500  9905 net.cpp:91] Creating Layer inception_3b/1x1
I0403 19:55:18.549518  9905 net.cpp:425] inception_3b/1x1 <- inception_3a/output_inception_3a/output_0_split_0
I0403 19:55:18.549538  9905 net.cpp:399] inception_3b/1x1 -> inception_3b/1x1
I0403 19:55:18.550732  9905 net.cpp:141] Setting up inception_3b/1x1
I0403 19:55:18.550777  9905 net.cpp:148] Top shape: 24 128 28 28 (2408448)
I0403 19:55:18.550796  9905 net.cpp:156] Memory required for data: 667141152
I0403 19:55:18.550814  9905 layer_factory.hpp:77] Creating layer inception_3b/relu_1x1
I0403 19:55:18.550834  9905 net.cpp:91] Creating Layer inception_3b/relu_1x1
I0403 19:55:18.550851  9905 net.cpp:425] inception_3b/relu_1x1 <- inception_3b/1x1
I0403 19:55:18.550873  9905 net.cpp:386] inception_3b/relu_1x1 -> inception_3b/1x1 (in-place)
I0403 19:55:18.551061  9905 net.cpp:141] Setting up inception_3b/relu_1x1
I0403 19:55:18.551089  9905 net.cpp:148] Top shape: 24 128 28 28 (2408448)
I0403 19:55:18.551103  9905 net.cpp:156] Memory required for data: 676774944
I0403 19:55:18.551118  9905 layer_factory.hpp:77] Creating layer inception_3b/3x3_reduce
I0403 19:55:18.551141  9905 net.cpp:91] Creating Layer inception_3b/3x3_reduce
I0403 19:55:18.551159  9905 net.cpp:425] inception_3b/3x3_reduce <- inception_3a/output_inception_3a/output_0_split_1
I0403 19:55:18.551182  9905 net.cpp:399] inception_3b/3x3_reduce -> inception_3b/3x3_reduce
I0403 19:55:18.552395  9905 net.cpp:141] Setting up inception_3b/3x3_reduce
I0403 19:55:18.552429  9905 net.cpp:148] Top shape: 24 128 28 28 (2408448)
I0403 19:55:18.552455  9905 net.cpp:156] Memory required for data: 686408736
I0403 19:55:18.552475  9905 layer_factory.hpp:77] Creating layer inception_3b/relu_3x3_reduce
I0403 19:55:18.552500  9905 net.cpp:91] Creating Layer inception_3b/relu_3x3_reduce
I0403 19:55:18.552516  9905 net.cpp:425] inception_3b/relu_3x3_reduce <- inception_3b/3x3_reduce
I0403 19:55:18.552533  9905 net.cpp:386] inception_3b/relu_3x3_reduce -> inception_3b/3x3_reduce (in-place)
I0403 19:55:18.552719  9905 net.cpp:141] Setting up inception_3b/relu_3x3_reduce
I0403 19:55:18.552753  9905 net.cpp:148] Top shape: 24 128 28 28 (2408448)
I0403 19:55:18.552778  9905 net.cpp:156] Memory required for data: 696042528
I0403 19:55:18.552803  9905 layer_factory.hpp:77] Creating layer inception_3b/3x3
I0403 19:55:18.552836  9905 net.cpp:91] Creating Layer inception_3b/3x3
I0403 19:55:18.552857  9905 net.cpp:425] inception_3b/3x3 <- inception_3b/3x3_reduce
I0403 19:55:18.552881  9905 net.cpp:399] inception_3b/3x3 -> inception_3b/3x3
I0403 19:55:18.555984  9905 net.cpp:141] Setting up inception_3b/3x3
I0403 19:55:18.556013  9905 net.cpp:148] Top shape: 24 192 28 28 (3612672)
I0403 19:55:18.556030  9905 net.cpp:156] Memory required for data: 710493216
I0403 19:55:18.556051  9905 layer_factory.hpp:77] Creating layer inception_3b/relu_3x3
I0403 19:55:18.556069  9905 net.cpp:91] Creating Layer inception_3b/relu_3x3
I0403 19:55:18.556085  9905 net.cpp:425] inception_3b/relu_3x3 <- inception_3b/3x3
I0403 19:55:18.556107  9905 net.cpp:386] inception_3b/relu_3x3 -> inception_3b/3x3 (in-place)
I0403 19:55:18.556403  9905 net.cpp:141] Setting up inception_3b/relu_3x3
I0403 19:55:18.556432  9905 net.cpp:148] Top shape: 24 192 28 28 (3612672)
I0403 19:55:18.556447  9905 net.cpp:156] Memory required for data: 724943904
I0403 19:55:18.556463  9905 layer_factory.hpp:77] Creating layer inception_3b/5x5_reduce
I0403 19:55:18.556488  9905 net.cpp:91] Creating Layer inception_3b/5x5_reduce
I0403 19:55:18.556506  9905 net.cpp:425] inception_3b/5x5_reduce <- inception_3a/output_inception_3a/output_0_split_2
I0403 19:55:18.556529  9905 net.cpp:399] inception_3b/5x5_reduce -> inception_3b/5x5_reduce
I0403 19:55:18.557562  9905 net.cpp:141] Setting up inception_3b/5x5_reduce
I0403 19:55:18.557592  9905 net.cpp:148] Top shape: 24 32 28 28 (602112)
I0403 19:55:18.557608  9905 net.cpp:156] Memory required for data: 727352352
I0403 19:55:18.557628  9905 layer_factory.hpp:77] Creating layer inception_3b/relu_5x5_reduce
I0403 19:55:18.557646  9905 net.cpp:91] Creating Layer inception_3b/relu_5x5_reduce
I0403 19:55:18.557662  9905 net.cpp:425] inception_3b/relu_5x5_reduce <- inception_3b/5x5_reduce
I0403 19:55:18.557683  9905 net.cpp:386] inception_3b/relu_5x5_reduce -> inception_3b/5x5_reduce (in-place)
I0403 19:55:18.557869  9905 net.cpp:141] Setting up inception_3b/relu_5x5_reduce
I0403 19:55:18.557909  9905 net.cpp:148] Top shape: 24 32 28 28 (602112)
I0403 19:55:18.557924  9905 net.cpp:156] Memory required for data: 729760800
I0403 19:55:18.557940  9905 layer_factory.hpp:77] Creating layer inception_3b/5x5
I0403 19:55:18.557963  9905 net.cpp:91] Creating Layer inception_3b/5x5
I0403 19:55:18.557982  9905 net.cpp:425] inception_3b/5x5 <- inception_3b/5x5_reduce
I0403 19:55:18.558003  9905 net.cpp:399] inception_3b/5x5 -> inception_3b/5x5
I0403 19:55:18.560088  9905 net.cpp:141] Setting up inception_3b/5x5
I0403 19:55:18.560122  9905 net.cpp:148] Top shape: 24 96 28 28 (1806336)
I0403 19:55:18.560138  9905 net.cpp:156] Memory required for data: 736986144
I0403 19:55:18.560158  9905 layer_factory.hpp:77] Creating layer inception_3b/relu_5x5
I0403 19:55:18.560176  9905 net.cpp:91] Creating Layer inception_3b/relu_5x5
I0403 19:55:18.560194  9905 net.cpp:425] inception_3b/relu_5x5 <- inception_3b/5x5
I0403 19:55:18.560211  9905 net.cpp:386] inception_3b/relu_5x5 -> inception_3b/5x5 (in-place)
I0403 19:55:18.560418  9905 net.cpp:141] Setting up inception_3b/relu_5x5
I0403 19:55:18.560444  9905 net.cpp:148] Top shape: 24 96 28 28 (1806336)
I0403 19:55:18.560459  9905 net.cpp:156] Memory required for data: 744211488
I0403 19:55:18.560477  9905 layer_factory.hpp:77] Creating layer inception_3b/pool
I0403 19:55:18.560494  9905 net.cpp:91] Creating Layer inception_3b/pool
I0403 19:55:18.560513  9905 net.cpp:425] inception_3b/pool <- inception_3a/output_inception_3a/output_0_split_3
I0403 19:55:18.560531  9905 net.cpp:399] inception_3b/pool -> inception_3b/pool
I0403 19:55:18.560590  9905 net.cpp:141] Setting up inception_3b/pool
I0403 19:55:18.560616  9905 net.cpp:148] Top shape: 24 256 28 28 (4816896)
I0403 19:55:18.560632  9905 net.cpp:156] Memory required for data: 763479072
I0403 19:55:18.560647  9905 layer_factory.hpp:77] Creating layer inception_3b/pool_proj
I0403 19:55:18.560670  9905 net.cpp:91] Creating Layer inception_3b/pool_proj
I0403 19:55:18.560689  9905 net.cpp:425] inception_3b/pool_proj <- inception_3b/pool
I0403 19:55:18.560709  9905 net.cpp:399] inception_3b/pool_proj -> inception_3b/pool_proj
I0403 19:55:18.561823  9905 net.cpp:141] Setting up inception_3b/pool_proj
I0403 19:55:18.561854  9905 net.cpp:148] Top shape: 24 64 28 28 (1204224)
I0403 19:55:18.561871  9905 net.cpp:156] Memory required for data: 768295968
I0403 19:55:18.561903  9905 layer_factory.hpp:77] Creating layer inception_3b/relu_pool_proj
I0403 19:55:18.561930  9905 net.cpp:91] Creating Layer inception_3b/relu_pool_proj
I0403 19:55:18.561959  9905 net.cpp:425] inception_3b/relu_pool_proj <- inception_3b/pool_proj
I0403 19:55:18.561976  9905 net.cpp:386] inception_3b/relu_pool_proj -> inception_3b/pool_proj (in-place)
I0403 19:55:18.562392  9905 net.cpp:141] Setting up inception_3b/relu_pool_proj
I0403 19:55:18.562422  9905 net.cpp:148] Top shape: 24 64 28 28 (1204224)
I0403 19:55:18.562438  9905 net.cpp:156] Memory required for data: 773112864
I0403 19:55:18.562454  9905 layer_factory.hpp:77] Creating layer inception_3b/output
I0403 19:55:18.562474  9905 net.cpp:91] Creating Layer inception_3b/output
I0403 19:55:18.562490  9905 net.cpp:425] inception_3b/output <- inception_3b/1x1
I0403 19:55:18.562507  9905 net.cpp:425] inception_3b/output <- inception_3b/3x3
I0403 19:55:18.562525  9905 net.cpp:425] inception_3b/output <- inception_3b/5x5
I0403 19:55:18.562541  9905 net.cpp:425] inception_3b/output <- inception_3b/pool_proj
I0403 19:55:18.562561  9905 net.cpp:399] inception_3b/output -> inception_3b/output
I0403 19:55:18.562610  9905 net.cpp:141] Setting up inception_3b/output
I0403 19:55:18.562635  9905 net.cpp:148] Top shape: 24 480 28 28 (9031680)
I0403 19:55:18.562651  9905 net.cpp:156] Memory required for data: 809239584
I0403 19:55:18.562666  9905 layer_factory.hpp:77] Creating layer pool3/3x3_s2
I0403 19:55:18.562685  9905 net.cpp:91] Creating Layer pool3/3x3_s2
I0403 19:55:18.562701  9905 net.cpp:425] pool3/3x3_s2 <- inception_3b/output
I0403 19:55:18.562723  9905 net.cpp:399] pool3/3x3_s2 -> pool3/3x3_s2
I0403 19:55:18.562799  9905 net.cpp:141] Setting up pool3/3x3_s2
I0403 19:55:18.562824  9905 net.cpp:148] Top shape: 24 480 14 14 (2257920)
I0403 19:55:18.562840  9905 net.cpp:156] Memory required for data: 818271264
I0403 19:55:18.562855  9905 layer_factory.hpp:77] Creating layer pool3/3x3_s2_pool3/3x3_s2_0_split
I0403 19:55:18.562876  9905 net.cpp:91] Creating Layer pool3/3x3_s2_pool3/3x3_s2_0_split
I0403 19:55:18.562894  9905 net.cpp:425] pool3/3x3_s2_pool3/3x3_s2_0_split <- pool3/3x3_s2
I0403 19:55:18.562912  9905 net.cpp:399] pool3/3x3_s2_pool3/3x3_s2_0_split -> pool3/3x3_s2_pool3/3x3_s2_0_split_0
I0403 19:55:18.562933  9905 net.cpp:399] pool3/3x3_s2_pool3/3x3_s2_0_split -> pool3/3x3_s2_pool3/3x3_s2_0_split_1
I0403 19:55:18.562958  9905 net.cpp:399] pool3/3x3_s2_pool3/3x3_s2_0_split -> pool3/3x3_s2_pool3/3x3_s2_0_split_2
I0403 19:55:18.562978  9905 net.cpp:399] pool3/3x3_s2_pool3/3x3_s2_0_split -> pool3/3x3_s2_pool3/3x3_s2_0_split_3
I0403 19:55:18.563057  9905 net.cpp:141] Setting up pool3/3x3_s2_pool3/3x3_s2_0_split
I0403 19:55:18.563081  9905 net.cpp:148] Top shape: 24 480 14 14 (2257920)
I0403 19:55:18.563099  9905 net.cpp:148] Top shape: 24 480 14 14 (2257920)
I0403 19:55:18.563117  9905 net.cpp:148] Top shape: 24 480 14 14 (2257920)
I0403 19:55:18.563133  9905 net.cpp:148] Top shape: 24 480 14 14 (2257920)
I0403 19:55:18.563148  9905 net.cpp:156] Memory required for data: 854397984
I0403 19:55:18.563164  9905 layer_factory.hpp:77] Creating layer inception_4a/1x1
I0403 19:55:18.563189  9905 net.cpp:91] Creating Layer inception_4a/1x1
I0403 19:55:18.563206  9905 net.cpp:425] inception_4a/1x1 <- pool3/3x3_s2_pool3/3x3_s2_0_split_0
I0403 19:55:18.563230  9905 net.cpp:399] inception_4a/1x1 -> inception_4a/1x1
I0403 19:55:18.564888  9905 net.cpp:141] Setting up inception_4a/1x1
I0403 19:55:18.564918  9905 net.cpp:148] Top shape: 24 192 14 14 (903168)
I0403 19:55:18.564935  9905 net.cpp:156] Memory required for data: 858010656
I0403 19:55:18.564957  9905 layer_factory.hpp:77] Creating layer inception_4a/relu_1x1
I0403 19:55:18.564980  9905 net.cpp:91] Creating Layer inception_4a/relu_1x1
I0403 19:55:18.565001  9905 net.cpp:425] inception_4a/relu_1x1 <- inception_4a/1x1
I0403 19:55:18.565017  9905 net.cpp:386] inception_4a/relu_1x1 -> inception_4a/1x1 (in-place)
I0403 19:55:18.565208  9905 net.cpp:141] Setting up inception_4a/relu_1x1
I0403 19:55:18.565238  9905 net.cpp:148] Top shape: 24 192 14 14 (903168)
I0403 19:55:18.565261  9905 net.cpp:156] Memory required for data: 861623328
I0403 19:55:18.565279  9905 layer_factory.hpp:77] Creating layer inception_4a/3x3_reduce
I0403 19:55:18.565302  9905 net.cpp:91] Creating Layer inception_4a/3x3_reduce
I0403 19:55:18.565322  9905 net.cpp:425] inception_4a/3x3_reduce <- pool3/3x3_s2_pool3/3x3_s2_0_split_1
I0403 19:55:18.565342  9905 net.cpp:399] inception_4a/3x3_reduce -> inception_4a/3x3_reduce
I0403 19:55:18.566681  9905 net.cpp:141] Setting up inception_4a/3x3_reduce
I0403 19:55:18.566710  9905 net.cpp:148] Top shape: 24 96 14 14 (451584)
I0403 19:55:18.566728  9905 net.cpp:156] Memory required for data: 863429664
I0403 19:55:18.566756  9905 layer_factory.hpp:77] Creating layer inception_4a/relu_3x3_reduce
I0403 19:55:18.566781  9905 net.cpp:91] Creating Layer inception_4a/relu_3x3_reduce
I0403 19:55:18.566798  9905 net.cpp:425] inception_4a/relu_3x3_reduce <- inception_4a/3x3_reduce
I0403 19:55:18.566817  9905 net.cpp:386] inception_4a/relu_3x3_reduce -> inception_4a/3x3_reduce (in-place)
I0403 19:55:18.567004  9905 net.cpp:141] Setting up inception_4a/relu_3x3_reduce
I0403 19:55:18.567034  9905 net.cpp:148] Top shape: 24 96 14 14 (451584)
I0403 19:55:18.567050  9905 net.cpp:156] Memory required for data: 865236000
I0403 19:55:18.567067  9905 layer_factory.hpp:77] Creating layer inception_4a/3x3
I0403 19:55:18.567092  9905 net.cpp:91] Creating Layer inception_4a/3x3
I0403 19:55:18.567111  9905 net.cpp:425] inception_4a/3x3 <- inception_4a/3x3_reduce
I0403 19:55:18.567132  9905 net.cpp:399] inception_4a/3x3 -> inception_4a/3x3
I0403 19:55:18.569982  9905 net.cpp:141] Setting up inception_4a/3x3
I0403 19:55:18.570015  9905 net.cpp:148] Top shape: 24 208 14 14 (978432)
I0403 19:55:18.570034  9905 net.cpp:156] Memory required for data: 869149728
I0403 19:55:18.570055  9905 layer_factory.hpp:77] Creating layer inception_4a/relu_3x3
I0403 19:55:18.570075  9905 net.cpp:91] Creating Layer inception_4a/relu_3x3
I0403 19:55:18.570092  9905 net.cpp:425] inception_4a/relu_3x3 <- inception_4a/3x3
I0403 19:55:18.570111  9905 net.cpp:386] inception_4a/relu_3x3 -> inception_4a/3x3 (in-place)
I0403 19:55:18.570415  9905 net.cpp:141] Setting up inception_4a/relu_3x3
I0403 19:55:18.570447  9905 net.cpp:148] Top shape: 24 208 14 14 (978432)
I0403 19:55:18.570466  9905 net.cpp:156] Memory required for data: 873063456
I0403 19:55:18.570483  9905 layer_factory.hpp:77] Creating layer inception_4a/5x5_reduce
I0403 19:55:18.570508  9905 net.cpp:91] Creating Layer inception_4a/5x5_reduce
I0403 19:55:18.570528  9905 net.cpp:425] inception_4a/5x5_reduce <- pool3/3x3_s2_pool3/3x3_s2_0_split_2
I0403 19:55:18.570549  9905 net.cpp:399] inception_4a/5x5_reduce -> inception_4a/5x5_reduce
I0403 19:55:18.571630  9905 net.cpp:141] Setting up inception_4a/5x5_reduce
I0403 19:55:18.571660  9905 net.cpp:148] Top shape: 24 16 14 14 (75264)
I0403 19:55:18.571677  9905 net.cpp:156] Memory required for data: 873364512
I0403 19:55:18.571697  9905 layer_factory.hpp:77] Creating layer inception_4a/relu_5x5_reduce
I0403 19:55:18.571717  9905 net.cpp:91] Creating Layer inception_4a/relu_5x5_reduce
I0403 19:55:18.571735  9905 net.cpp:425] inception_4a/relu_5x5_reduce <- inception_4a/5x5_reduce
I0403 19:55:18.571756  9905 net.cpp:386] inception_4a/relu_5x5_reduce -> inception_4a/5x5_reduce (in-place)
I0403 19:55:18.571949  9905 net.cpp:141] Setting up inception_4a/relu_5x5_reduce
I0403 19:55:18.571976  9905 net.cpp:148] Top shape: 24 16 14 14 (75264)
I0403 19:55:18.571992  9905 net.cpp:156] Memory required for data: 873665568
I0403 19:55:18.572010  9905 layer_factory.hpp:77] Creating layer inception_4a/5x5
I0403 19:55:18.572032  9905 net.cpp:91] Creating Layer inception_4a/5x5
I0403 19:55:18.572052  9905 net.cpp:425] inception_4a/5x5 <- inception_4a/5x5_reduce
I0403 19:55:18.572075  9905 net.cpp:399] inception_4a/5x5 -> inception_4a/5x5
I0403 19:55:18.573230  9905 net.cpp:141] Setting up inception_4a/5x5
I0403 19:55:18.573266  9905 net.cpp:148] Top shape: 24 48 14 14 (225792)
I0403 19:55:18.573283  9905 net.cpp:156] Memory required for data: 874568736
I0403 19:55:18.573303  9905 layer_factory.hpp:77] Creating layer inception_4a/relu_5x5
I0403 19:55:18.573326  9905 net.cpp:91] Creating Layer inception_4a/relu_5x5
I0403 19:55:18.573346  9905 net.cpp:425] inception_4a/relu_5x5 <- inception_4a/5x5
I0403 19:55:18.573366  9905 net.cpp:386] inception_4a/relu_5x5 -> inception_4a/5x5 (in-place)
I0403 19:55:18.573554  9905 net.cpp:141] Setting up inception_4a/relu_5x5
I0403 19:55:18.573583  9905 net.cpp:148] Top shape: 24 48 14 14 (225792)
I0403 19:55:18.573601  9905 net.cpp:156] Memory required for data: 875471904
I0403 19:55:18.573618  9905 layer_factory.hpp:77] Creating layer inception_4a/pool
I0403 19:55:18.573639  9905 net.cpp:91] Creating Layer inception_4a/pool
I0403 19:55:18.573657  9905 net.cpp:425] inception_4a/pool <- pool3/3x3_s2_pool3/3x3_s2_0_split_3
I0403 19:55:18.573676  9905 net.cpp:399] inception_4a/pool -> inception_4a/pool
I0403 19:55:18.573741  9905 net.cpp:141] Setting up inception_4a/pool
I0403 19:55:18.573766  9905 net.cpp:148] Top shape: 24 480 14 14 (2257920)
I0403 19:55:18.573781  9905 net.cpp:156] Memory required for data: 884503584
I0403 19:55:18.573798  9905 layer_factory.hpp:77] Creating layer inception_4a/pool_proj
I0403 19:55:18.573822  9905 net.cpp:91] Creating Layer inception_4a/pool_proj
I0403 19:55:18.573842  9905 net.cpp:425] inception_4a/pool_proj <- inception_4a/pool
I0403 19:55:18.573863  9905 net.cpp:399] inception_4a/pool_proj -> inception_4a/pool_proj
I0403 19:55:18.575103  9905 net.cpp:141] Setting up inception_4a/pool_proj
I0403 19:55:18.575136  9905 net.cpp:148] Top shape: 24 64 14 14 (301056)
I0403 19:55:18.575170  9905 net.cpp:156] Memory required for data: 885707808
I0403 19:55:18.575191  9905 layer_factory.hpp:77] Creating layer inception_4a/relu_pool_proj
I0403 19:55:18.575215  9905 net.cpp:91] Creating Layer inception_4a/relu_pool_proj
I0403 19:55:18.575235  9905 net.cpp:425] inception_4a/relu_pool_proj <- inception_4a/pool_proj
I0403 19:55:18.575261  9905 net.cpp:386] inception_4a/relu_pool_proj -> inception_4a/pool_proj (in-place)
I0403 19:55:18.575561  9905 net.cpp:141] Setting up inception_4a/relu_pool_proj
I0403 19:55:18.575588  9905 net.cpp:148] Top shape: 24 64 14 14 (301056)
I0403 19:55:18.575605  9905 net.cpp:156] Memory required for data: 886912032
I0403 19:55:18.575621  9905 layer_factory.hpp:77] Creating layer inception_4a/output
I0403 19:55:18.575642  9905 net.cpp:91] Creating Layer inception_4a/output
I0403 19:55:18.575660  9905 net.cpp:425] inception_4a/output <- inception_4a/1x1
I0403 19:55:18.575678  9905 net.cpp:425] inception_4a/output <- inception_4a/3x3
I0403 19:55:18.575695  9905 net.cpp:425] inception_4a/output <- inception_4a/5x5
I0403 19:55:18.575713  9905 net.cpp:425] inception_4a/output <- inception_4a/pool_proj
I0403 19:55:18.575731  9905 net.cpp:399] inception_4a/output -> inception_4a/output
I0403 19:55:18.575780  9905 net.cpp:141] Setting up inception_4a/output
I0403 19:55:18.575804  9905 net.cpp:148] Top shape: 24 512 14 14 (2408448)
I0403 19:55:18.575820  9905 net.cpp:156] Memory required for data: 896545824
I0403 19:55:18.575836  9905 layer_factory.hpp:77] Creating layer inception_4a/output_inception_4a/output_0_split
I0403 19:55:18.575855  9905 net.cpp:91] Creating Layer inception_4a/output_inception_4a/output_0_split
I0403 19:55:18.575873  9905 net.cpp:425] inception_4a/output_inception_4a/output_0_split <- inception_4a/output
I0403 19:55:18.575894  9905 net.cpp:399] inception_4a/output_inception_4a/output_0_split -> inception_4a/output_inception_4a/output_0_split_0
I0403 19:55:18.575917  9905 net.cpp:399] inception_4a/output_inception_4a/output_0_split -> inception_4a/output_inception_4a/output_0_split_1
I0403 19:55:18.575939  9905 net.cpp:399] inception_4a/output_inception_4a/output_0_split -> inception_4a/output_inception_4a/output_0_split_2
I0403 19:55:18.575961  9905 net.cpp:399] inception_4a/output_inception_4a/output_0_split -> inception_4a/output_inception_4a/output_0_split_3
I0403 19:55:18.575983  9905 net.cpp:399] inception_4a/output_inception_4a/output_0_split -> inception_4a/output_inception_4a/output_0_split_4
I0403 19:55:18.576083  9905 net.cpp:141] Setting up inception_4a/output_inception_4a/output_0_split
I0403 19:55:18.576108  9905 net.cpp:148] Top shape: 24 512 14 14 (2408448)
I0403 19:55:18.576127  9905 net.cpp:148] Top shape: 24 512 14 14 (2408448)
I0403 19:55:18.576143  9905 net.cpp:148] Top shape: 24 512 14 14 (2408448)
I0403 19:55:18.576159  9905 net.cpp:148] Top shape: 24 512 14 14 (2408448)
I0403 19:55:18.576175  9905 net.cpp:148] Top shape: 24 512 14 14 (2408448)
I0403 19:55:18.576190  9905 net.cpp:156] Memory required for data: 944714784
I0403 19:55:18.576206  9905 layer_factory.hpp:77] Creating layer loss1/ave_pool
I0403 19:55:18.576225  9905 net.cpp:91] Creating Layer loss1/ave_pool
I0403 19:55:18.576246  9905 net.cpp:425] loss1/ave_pool <- inception_4a/output_inception_4a/output_0_split_0
I0403 19:55:18.576268  9905 net.cpp:399] loss1/ave_pool -> loss1/ave_pool
I0403 19:55:18.576491  9905 net.cpp:141] Setting up loss1/ave_pool
I0403 19:55:18.576519  9905 net.cpp:148] Top shape: 24 512 4 4 (196608)
I0403 19:55:18.576534  9905 net.cpp:156] Memory required for data: 945501216
I0403 19:55:18.576551  9905 layer_factory.hpp:77] Creating layer loss1/conv
I0403 19:55:18.576575  9905 net.cpp:91] Creating Layer loss1/conv
I0403 19:55:18.576593  9905 net.cpp:425] loss1/conv <- loss1/ave_pool
I0403 19:55:18.576617  9905 net.cpp:399] loss1/conv -> loss1/conv
I0403 19:55:18.578109  9905 net.cpp:141] Setting up loss1/conv
I0403 19:55:18.578142  9905 net.cpp:148] Top shape: 24 128 4 4 (49152)
I0403 19:55:18.578161  9905 net.cpp:156] Memory required for data: 945697824
I0403 19:55:18.578197  9905 layer_factory.hpp:77] Creating layer loss1/relu_conv
I0403 19:55:18.578217  9905 net.cpp:91] Creating Layer loss1/relu_conv
I0403 19:55:18.578233  9905 net.cpp:425] loss1/relu_conv <- loss1/conv
I0403 19:55:18.578258  9905 net.cpp:386] loss1/relu_conv -> loss1/conv (in-place)
I0403 19:55:18.578553  9905 net.cpp:141] Setting up loss1/relu_conv
I0403 19:55:18.578583  9905 net.cpp:148] Top shape: 24 128 4 4 (49152)
I0403 19:55:18.578600  9905 net.cpp:156] Memory required for data: 945894432
I0403 19:55:18.578616  9905 layer_factory.hpp:77] Creating layer loss1/fc
I0403 19:55:18.578640  9905 net.cpp:91] Creating Layer loss1/fc
I0403 19:55:18.578660  9905 net.cpp:425] loss1/fc <- loss1/conv
I0403 19:55:18.578683  9905 net.cpp:399] loss1/fc -> loss1/fc
I0403 19:55:18.597681  9905 net.cpp:141] Setting up loss1/fc
I0403 19:55:18.597725  9905 net.cpp:148] Top shape: 24 1024 (24576)
I0403 19:55:18.597744  9905 net.cpp:156] Memory required for data: 945992736
I0403 19:55:18.597764  9905 layer_factory.hpp:77] Creating layer loss1/relu_fc
I0403 19:55:18.597784  9905 net.cpp:91] Creating Layer loss1/relu_fc
I0403 19:55:18.597800  9905 net.cpp:425] loss1/relu_fc <- loss1/fc
I0403 19:55:18.597818  9905 net.cpp:386] loss1/relu_fc -> loss1/fc (in-place)
I0403 19:55:18.598021  9905 net.cpp:141] Setting up loss1/relu_fc
I0403 19:55:18.598052  9905 net.cpp:148] Top shape: 24 1024 (24576)
I0403 19:55:18.598067  9905 net.cpp:156] Memory required for data: 946091040
I0403 19:55:18.598083  9905 layer_factory.hpp:77] Creating layer loss1/drop_fc
I0403 19:55:18.598112  9905 net.cpp:91] Creating Layer loss1/drop_fc
I0403 19:55:18.598132  9905 net.cpp:425] loss1/drop_fc <- loss1/fc
I0403 19:55:18.598153  9905 net.cpp:386] loss1/drop_fc -> loss1/fc (in-place)
I0403 19:55:18.598208  9905 net.cpp:141] Setting up loss1/drop_fc
I0403 19:55:18.598232  9905 net.cpp:148] Top shape: 24 1024 (24576)
I0403 19:55:18.598254  9905 net.cpp:156] Memory required for data: 946189344
I0403 19:55:18.598271  9905 layer_factory.hpp:77] Creating layer loss1/classifier_plantvillage
I0403 19:55:18.598295  9905 net.cpp:91] Creating Layer loss1/classifier_plantvillage
I0403 19:55:18.598315  9905 net.cpp:425] loss1/classifier_plantvillage <- loss1/fc
I0403 19:55:18.598333  9905 net.cpp:399] loss1/classifier_plantvillage -> loss1/classifier_plantvillage
I0403 19:55:18.599313  9905 net.cpp:141] Setting up loss1/classifier_plantvillage
I0403 19:55:18.599346  9905 net.cpp:148] Top shape: 24 38 (912)
I0403 19:55:18.599364  9905 net.cpp:156] Memory required for data: 946192992
I0403 19:55:18.599385  9905 layer_factory.hpp:77] Creating layer loss1/classifier_plantvillage_loss1/classifier_plantvillage_0_split
I0403 19:55:18.599403  9905 net.cpp:91] Creating Layer loss1/classifier_plantvillage_loss1/classifier_plantvillage_0_split
I0403 19:55:18.599421  9905 net.cpp:425] loss1/classifier_plantvillage_loss1/classifier_plantvillage_0_split <- loss1/classifier_plantvillage
I0403 19:55:18.599442  9905 net.cpp:399] loss1/classifier_plantvillage_loss1/classifier_plantvillage_0_split -> loss1/classifier_plantvillage_loss1/classifier_plantvillage_0_split_0
I0403 19:55:18.599463  9905 net.cpp:399] loss1/classifier_plantvillage_loss1/classifier_plantvillage_0_split -> loss1/classifier_plantvillage_loss1/classifier_plantvillage_0_split_1
I0403 19:55:18.599488  9905 net.cpp:399] loss1/classifier_plantvillage_loss1/classifier_plantvillage_0_split -> loss1/classifier_plantvillage_loss1/classifier_plantvillage_0_split_2
I0403 19:55:18.599560  9905 net.cpp:141] Setting up loss1/classifier_plantvillage_loss1/classifier_plantvillage_0_split
I0403 19:55:18.599583  9905 net.cpp:148] Top shape: 24 38 (912)
I0403 19:55:18.599601  9905 net.cpp:148] Top shape: 24 38 (912)
I0403 19:55:18.599618  9905 net.cpp:148] Top shape: 24 38 (912)
I0403 19:55:18.599633  9905 net.cpp:156] Memory required for data: 946203936
I0403 19:55:18.599648  9905 layer_factory.hpp:77] Creating layer inception_4b/1x1
I0403 19:55:18.599669  9905 net.cpp:91] Creating Layer inception_4b/1x1
I0403 19:55:18.599702  9905 net.cpp:425] inception_4b/1x1 <- inception_4a/output_inception_4a/output_0_split_1
I0403 19:55:18.599727  9905 net.cpp:399] inception_4b/1x1 -> inception_4b/1x1
I0403 19:55:18.601476  9905 net.cpp:141] Setting up inception_4b/1x1
I0403 19:55:18.601510  9905 net.cpp:148] Top shape: 24 160 14 14 (752640)
I0403 19:55:18.601527  9905 net.cpp:156] Memory required for data: 949214496
I0403 19:55:18.601548  9905 layer_factory.hpp:77] Creating layer inception_4b/relu_1x1
I0403 19:55:18.601567  9905 net.cpp:91] Creating Layer inception_4b/relu_1x1
I0403 19:55:18.601586  9905 net.cpp:425] inception_4b/relu_1x1 <- inception_4b/1x1
I0403 19:55:18.601608  9905 net.cpp:386] inception_4b/relu_1x1 -> inception_4b/1x1 (in-place)
I0403 19:55:18.601805  9905 net.cpp:141] Setting up inception_4b/relu_1x1
I0403 19:55:18.601832  9905 net.cpp:148] Top shape: 24 160 14 14 (752640)
I0403 19:55:18.601850  9905 net.cpp:156] Memory required for data: 952225056
I0403 19:55:18.601866  9905 layer_factory.hpp:77] Creating layer inception_4b/3x3_reduce
I0403 19:55:18.601889  9905 net.cpp:91] Creating Layer inception_4b/3x3_reduce
I0403 19:55:18.601907  9905 net.cpp:425] inception_4b/3x3_reduce <- inception_4a/output_inception_4a/output_0_split_2
I0403 19:55:18.601930  9905 net.cpp:399] inception_4b/3x3_reduce -> inception_4b/3x3_reduce
I0403 19:55:18.603379  9905 net.cpp:141] Setting up inception_4b/3x3_reduce
I0403 19:55:18.603410  9905 net.cpp:148] Top shape: 24 112 14 14 (526848)
I0403 19:55:18.603428  9905 net.cpp:156] Memory required for data: 954332448
I0403 19:55:18.603449  9905 layer_factory.hpp:77] Creating layer inception_4b/relu_3x3_reduce
I0403 19:55:18.603472  9905 net.cpp:91] Creating Layer inception_4b/relu_3x3_reduce
I0403 19:55:18.603490  9905 net.cpp:425] inception_4b/relu_3x3_reduce <- inception_4b/3x3_reduce
I0403 19:55:18.603508  9905 net.cpp:386] inception_4b/relu_3x3_reduce -> inception_4b/3x3_reduce (in-place)
I0403 19:55:18.603811  9905 net.cpp:141] Setting up inception_4b/relu_3x3_reduce
I0403 19:55:18.603838  9905 net.cpp:148] Top shape: 24 112 14 14 (526848)
I0403 19:55:18.603854  9905 net.cpp:156] Memory required for data: 956439840
I0403 19:55:18.603870  9905 layer_factory.hpp:77] Creating layer inception_4b/3x3
I0403 19:55:18.603894  9905 net.cpp:91] Creating Layer inception_4b/3x3
I0403 19:55:18.603914  9905 net.cpp:425] inception_4b/3x3 <- inception_4b/3x3_reduce
I0403 19:55:18.603937  9905 net.cpp:399] inception_4b/3x3 -> inception_4b/3x3
I0403 19:55:18.607111  9905 net.cpp:141] Setting up inception_4b/3x3
I0403 19:55:18.607143  9905 net.cpp:148] Top shape: 24 224 14 14 (1053696)
I0403 19:55:18.607159  9905 net.cpp:156] Memory required for data: 960654624
I0403 19:55:18.607182  9905 layer_factory.hpp:77] Creating layer inception_4b/relu_3x3
I0403 19:55:18.607203  9905 net.cpp:91] Creating Layer inception_4b/relu_3x3
I0403 19:55:18.607220  9905 net.cpp:425] inception_4b/relu_3x3 <- inception_4b/3x3
I0403 19:55:18.607244  9905 net.cpp:386] inception_4b/relu_3x3 -> inception_4b/3x3 (in-place)
I0403 19:55:18.607441  9905 net.cpp:141] Setting up inception_4b/relu_3x3
I0403 19:55:18.607471  9905 net.cpp:148] Top shape: 24 224 14 14 (1053696)
I0403 19:55:18.607488  9905 net.cpp:156] Memory required for data: 964869408
I0403 19:55:18.607504  9905 layer_factory.hpp:77] Creating layer inception_4b/5x5_reduce
I0403 19:55:18.607527  9905 net.cpp:91] Creating Layer inception_4b/5x5_reduce
I0403 19:55:18.607544  9905 net.cpp:425] inception_4b/5x5_reduce <- inception_4a/output_inception_4a/output_0_split_3
I0403 19:55:18.607565  9905 net.cpp:399] inception_4b/5x5_reduce -> inception_4b/5x5_reduce
I0403 19:55:18.608721  9905 net.cpp:141] Setting up inception_4b/5x5_reduce
I0403 19:55:18.608752  9905 net.cpp:148] Top shape: 24 24 14 14 (112896)
I0403 19:55:18.608767  9905 net.cpp:156] Memory required for data: 965320992
I0403 19:55:18.608788  9905 layer_factory.hpp:77] Creating layer inception_4b/relu_5x5_reduce
I0403 19:55:18.608808  9905 net.cpp:91] Creating Layer inception_4b/relu_5x5_reduce
I0403 19:55:18.608840  9905 net.cpp:425] inception_4b/relu_5x5_reduce <- inception_4b/5x5_reduce
I0403 19:55:18.608862  9905 net.cpp:386] inception_4b/relu_5x5_reduce -> inception_4b/5x5_reduce (in-place)
I0403 19:55:18.609058  9905 net.cpp:141] Setting up inception_4b/relu_5x5_reduce
I0403 19:55:18.609086  9905 net.cpp:148] Top shape: 24 24 14 14 (112896)
I0403 19:55:18.609102  9905 net.cpp:156] Memory required for data: 965772576
I0403 19:55:18.609118  9905 layer_factory.hpp:77] Creating layer inception_4b/5x5
I0403 19:55:18.609141  9905 net.cpp:91] Creating Layer inception_4b/5x5
I0403 19:55:18.609160  9905 net.cpp:425] inception_4b/5x5 <- inception_4b/5x5_reduce
I0403 19:55:18.609184  9905 net.cpp:399] inception_4b/5x5 -> inception_4b/5x5
I0403 19:55:18.610498  9905 net.cpp:141] Setting up inception_4b/5x5
I0403 19:55:18.610532  9905 net.cpp:148] Top shape: 24 64 14 14 (301056)
I0403 19:55:18.610548  9905 net.cpp:156] Memory required for data: 966976800
I0403 19:55:18.610569  9905 layer_factory.hpp:77] Creating layer inception_4b/relu_5x5
I0403 19:55:18.610589  9905 net.cpp:91] Creating Layer inception_4b/relu_5x5
I0403 19:55:18.610605  9905 net.cpp:425] inception_4b/relu_5x5 <- inception_4b/5x5
I0403 19:55:18.610627  9905 net.cpp:386] inception_4b/relu_5x5 -> inception_4b/5x5 (in-place)
I0403 19:55:18.610929  9905 net.cpp:141] Setting up inception_4b/relu_5x5
I0403 19:55:18.610960  9905 net.cpp:148] Top shape: 24 64 14 14 (301056)
I0403 19:55:18.610977  9905 net.cpp:156] Memory required for data: 968181024
I0403 19:55:18.610993  9905 layer_factory.hpp:77] Creating layer inception_4b/pool
I0403 19:55:18.611013  9905 net.cpp:91] Creating Layer inception_4b/pool
I0403 19:55:18.611032  9905 net.cpp:425] inception_4b/pool <- inception_4a/output_inception_4a/output_0_split_4
I0403 19:55:18.611054  9905 net.cpp:399] inception_4b/pool -> inception_4b/pool
I0403 19:55:18.611124  9905 net.cpp:141] Setting up inception_4b/pool
I0403 19:55:18.611150  9905 net.cpp:148] Top shape: 24 512 14 14 (2408448)
I0403 19:55:18.611166  9905 net.cpp:156] Memory required for data: 977814816
I0403 19:55:18.611181  9905 layer_factory.hpp:77] Creating layer inception_4b/pool_proj
I0403 19:55:18.611207  9905 net.cpp:91] Creating Layer inception_4b/pool_proj
I0403 19:55:18.611224  9905 net.cpp:425] inception_4b/pool_proj <- inception_4b/pool
I0403 19:55:18.611249  9905 net.cpp:399] inception_4b/pool_proj -> inception_4b/pool_proj
I0403 19:55:18.612546  9905 net.cpp:141] Setting up inception_4b/pool_proj
I0403 19:55:18.612576  9905 net.cpp:148] Top shape: 24 64 14 14 (301056)
I0403 19:55:18.612593  9905 net.cpp:156] Memory required for data: 979019040
I0403 19:55:18.612612  9905 layer_factory.hpp:77] Creating layer inception_4b/relu_pool_proj
I0403 19:55:18.612632  9905 net.cpp:91] Creating Layer inception_4b/relu_pool_proj
I0403 19:55:18.612648  9905 net.cpp:425] inception_4b/relu_pool_proj <- inception_4b/pool_proj
I0403 19:55:18.612670  9905 net.cpp:386] inception_4b/relu_pool_proj -> inception_4b/pool_proj (in-place)
I0403 19:55:18.612866  9905 net.cpp:141] Setting up inception_4b/relu_pool_proj
I0403 19:55:18.612893  9905 net.cpp:148] Top shape: 24 64 14 14 (301056)
I0403 19:55:18.612908  9905 net.cpp:156] Memory required for data: 980223264
I0403 19:55:18.612923  9905 layer_factory.hpp:77] Creating layer inception_4b/output
I0403 19:55:18.612943  9905 net.cpp:91] Creating Layer inception_4b/output
I0403 19:55:18.612960  9905 net.cpp:425] inception_4b/output <- inception_4b/1x1
I0403 19:55:18.612978  9905 net.cpp:425] inception_4b/output <- inception_4b/3x3
I0403 19:55:18.612996  9905 net.cpp:425] inception_4b/output <- inception_4b/5x5
I0403 19:55:18.613013  9905 net.cpp:425] inception_4b/output <- inception_4b/pool_proj
I0403 19:55:18.613030  9905 net.cpp:399] inception_4b/output -> inception_4b/output
I0403 19:55:18.613080  9905 net.cpp:141] Setting up inception_4b/output
I0403 19:55:18.613106  9905 net.cpp:148] Top shape: 24 512 14 14 (2408448)
I0403 19:55:18.613121  9905 net.cpp:156] Memory required for data: 989857056
I0403 19:55:18.613152  9905 layer_factory.hpp:77] Creating layer inception_4b/output_inception_4b/output_0_split
I0403 19:55:18.613171  9905 net.cpp:91] Creating Layer inception_4b/output_inception_4b/output_0_split
I0403 19:55:18.613188  9905 net.cpp:425] inception_4b/output_inception_4b/output_0_split <- inception_4b/output
I0403 19:55:18.613209  9905 net.cpp:399] inception_4b/output_inception_4b/output_0_split -> inception_4b/output_inception_4b/output_0_split_0
I0403 19:55:18.613231  9905 net.cpp:399] inception_4b/output_inception_4b/output_0_split -> inception_4b/output_inception_4b/output_0_split_1
I0403 19:55:18.613262  9905 net.cpp:399] inception_4b/output_inception_4b/output_0_split -> inception_4b/output_inception_4b/output_0_split_2
I0403 19:55:18.613286  9905 net.cpp:399] inception_4b/output_inception_4b/output_0_split -> inception_4b/output_inception_4b/output_0_split_3
I0403 19:55:18.613371  9905 net.cpp:141] Setting up inception_4b/output_inception_4b/output_0_split
I0403 19:55:18.613399  9905 net.cpp:148] Top shape: 24 512 14 14 (2408448)
I0403 19:55:18.613417  9905 net.cpp:148] Top shape: 24 512 14 14 (2408448)
I0403 19:55:18.613433  9905 net.cpp:148] Top shape: 24 512 14 14 (2408448)
I0403 19:55:18.613451  9905 net.cpp:148] Top shape: 24 512 14 14 (2408448)
I0403 19:55:18.613466  9905 net.cpp:156] Memory required for data: 1028392224
I0403 19:55:18.613481  9905 layer_factory.hpp:77] Creating layer inception_4c/1x1
I0403 19:55:18.613505  9905 net.cpp:91] Creating Layer inception_4c/1x1
I0403 19:55:18.613524  9905 net.cpp:425] inception_4c/1x1 <- inception_4b/output_inception_4b/output_0_split_0
I0403 19:55:18.613544  9905 net.cpp:399] inception_4c/1x1 -> inception_4c/1x1
I0403 19:55:18.615082  9905 net.cpp:141] Setting up inception_4c/1x1
I0403 19:55:18.615110  9905 net.cpp:148] Top shape: 24 128 14 14 (602112)
I0403 19:55:18.615126  9905 net.cpp:156] Memory required for data: 1030800672
I0403 19:55:18.615145  9905 layer_factory.hpp:77] Creating layer inception_4c/relu_1x1
I0403 19:55:18.615167  9905 net.cpp:91] Creating Layer inception_4c/relu_1x1
I0403 19:55:18.615185  9905 net.cpp:425] inception_4c/relu_1x1 <- inception_4c/1x1
I0403 19:55:18.615202  9905 net.cpp:386] inception_4c/relu_1x1 -> inception_4c/1x1 (in-place)
I0403 19:55:18.615406  9905 net.cpp:141] Setting up inception_4c/relu_1x1
I0403 19:55:18.615435  9905 net.cpp:148] Top shape: 24 128 14 14 (602112)
I0403 19:55:18.615453  9905 net.cpp:156] Memory required for data: 1033209120
I0403 19:55:18.615468  9905 layer_factory.hpp:77] Creating layer inception_4c/3x3_reduce
I0403 19:55:18.615491  9905 net.cpp:91] Creating Layer inception_4c/3x3_reduce
I0403 19:55:18.615510  9905 net.cpp:425] inception_4c/3x3_reduce <- inception_4b/output_inception_4b/output_0_split_1
I0403 19:55:18.615530  9905 net.cpp:399] inception_4c/3x3_reduce -> inception_4c/3x3_reduce
I0403 19:55:18.617606  9905 net.cpp:141] Setting up inception_4c/3x3_reduce
I0403 19:55:18.617642  9905 net.cpp:148] Top shape: 24 128 14 14 (602112)
I0403 19:55:18.617660  9905 net.cpp:156] Memory required for data: 1035617568
I0403 19:55:18.617681  9905 layer_factory.hpp:77] Creating layer inception_4c/relu_3x3_reduce
I0403 19:55:18.617699  9905 net.cpp:91] Creating Layer inception_4c/relu_3x3_reduce
I0403 19:55:18.617717  9905 net.cpp:425] inception_4c/relu_3x3_reduce <- inception_4c/3x3_reduce
I0403 19:55:18.617738  9905 net.cpp:386] inception_4c/relu_3x3_reduce -> inception_4c/3x3_reduce (in-place)
I0403 19:55:18.618041  9905 net.cpp:141] Setting up inception_4c/relu_3x3_reduce
I0403 19:55:18.618072  9905 net.cpp:148] Top shape: 24 128 14 14 (602112)
I0403 19:55:18.618088  9905 net.cpp:156] Memory required for data: 1038026016
I0403 19:55:18.618104  9905 layer_factory.hpp:77] Creating layer inception_4c/3x3
I0403 19:55:18.618129  9905 net.cpp:91] Creating Layer inception_4c/3x3
I0403 19:55:18.618149  9905 net.cpp:425] inception_4c/3x3 <- inception_4c/3x3_reduce
I0403 19:55:18.618167  9905 net.cpp:399] inception_4c/3x3 -> inception_4c/3x3
I0403 19:55:18.621996  9905 net.cpp:141] Setting up inception_4c/3x3
I0403 19:55:18.622041  9905 net.cpp:148] Top shape: 24 256 14 14 (1204224)
I0403 19:55:18.622058  9905 net.cpp:156] Memory required for data: 1042842912
I0403 19:55:18.622092  9905 layer_factory.hpp:77] Creating layer inception_4c/relu_3x3
I0403 19:55:18.622113  9905 net.cpp:91] Creating Layer inception_4c/relu_3x3
I0403 19:55:18.622130  9905 net.cpp:425] inception_4c/relu_3x3 <- inception_4c/3x3
I0403 19:55:18.622151  9905 net.cpp:386] inception_4c/relu_3x3 -> inception_4c/3x3 (in-place)
I0403 19:55:18.622362  9905 net.cpp:141] Setting up inception_4c/relu_3x3
I0403 19:55:18.622390  9905 net.cpp:148] Top shape: 24 256 14 14 (1204224)
I0403 19:55:18.622405  9905 net.cpp:156] Memory required for data: 1047659808
I0403 19:55:18.622421  9905 layer_factory.hpp:77] Creating layer inception_4c/5x5_reduce
I0403 19:55:18.622447  9905 net.cpp:91] Creating Layer inception_4c/5x5_reduce
I0403 19:55:18.622464  9905 net.cpp:425] inception_4c/5x5_reduce <- inception_4b/output_inception_4b/output_0_split_2
I0403 19:55:18.622486  9905 net.cpp:399] inception_4c/5x5_reduce -> inception_4c/5x5_reduce
I0403 19:55:18.623642  9905 net.cpp:141] Setting up inception_4c/5x5_reduce
I0403 19:55:18.623674  9905 net.cpp:148] Top shape: 24 24 14 14 (112896)
I0403 19:55:18.623692  9905 net.cpp:156] Memory required for data: 1048111392
I0403 19:55:18.623711  9905 layer_factory.hpp:77] Creating layer inception_4c/relu_5x5_reduce
I0403 19:55:18.623730  9905 net.cpp:91] Creating Layer inception_4c/relu_5x5_reduce
I0403 19:55:18.623747  9905 net.cpp:425] inception_4c/relu_5x5_reduce <- inception_4c/5x5_reduce
I0403 19:55:18.623769  9905 net.cpp:386] inception_4c/relu_5x5_reduce -> inception_4c/5x5_reduce (in-place)
I0403 19:55:18.623970  9905 net.cpp:141] Setting up inception_4c/relu_5x5_reduce
I0403 19:55:18.623996  9905 net.cpp:148] Top shape: 24 24 14 14 (112896)
I0403 19:55:18.624011  9905 net.cpp:156] Memory required for data: 1048562976
I0403 19:55:18.624027  9905 layer_factory.hpp:77] Creating layer inception_4c/5x5
I0403 19:55:18.624050  9905 net.cpp:91] Creating Layer inception_4c/5x5
I0403 19:55:18.624069  9905 net.cpp:425] inception_4c/5x5 <- inception_4c/5x5_reduce
I0403 19:55:18.624090  9905 net.cpp:399] inception_4c/5x5 -> inception_4c/5x5
I0403 19:55:18.625421  9905 net.cpp:141] Setting up inception_4c/5x5
I0403 19:55:18.625450  9905 net.cpp:148] Top shape: 24 64 14 14 (301056)
I0403 19:55:18.625466  9905 net.cpp:156] Memory required for data: 1049767200
I0403 19:55:18.625486  9905 layer_factory.hpp:77] Creating layer inception_4c/relu_5x5
I0403 19:55:18.625509  9905 net.cpp:91] Creating Layer inception_4c/relu_5x5
I0403 19:55:18.625526  9905 net.cpp:425] inception_4c/relu_5x5 <- inception_4c/5x5
I0403 19:55:18.625545  9905 net.cpp:386] inception_4c/relu_5x5 -> inception_4c/5x5 (in-place)
I0403 19:55:18.625852  9905 net.cpp:141] Setting up inception_4c/relu_5x5
I0403 19:55:18.625880  9905 net.cpp:148] Top shape: 24 64 14 14 (301056)
I0403 19:55:18.625897  9905 net.cpp:156] Memory required for data: 1050971424
I0403 19:55:18.625913  9905 layer_factory.hpp:77] Creating layer inception_4c/pool
I0403 19:55:18.625936  9905 net.cpp:91] Creating Layer inception_4c/pool
I0403 19:55:18.625954  9905 net.cpp:425] inception_4c/pool <- inception_4b/output_inception_4b/output_0_split_3
I0403 19:55:18.625974  9905 net.cpp:399] inception_4c/pool -> inception_4c/pool
I0403 19:55:18.626044  9905 net.cpp:141] Setting up inception_4c/pool
I0403 19:55:18.626070  9905 net.cpp:148] Top shape: 24 512 14 14 (2408448)
I0403 19:55:18.626086  9905 net.cpp:156] Memory required for data: 1060605216
I0403 19:55:18.626102  9905 layer_factory.hpp:77] Creating layer inception_4c/pool_proj
I0403 19:55:18.626127  9905 net.cpp:91] Creating Layer inception_4c/pool_proj
I0403 19:55:18.626145  9905 net.cpp:425] inception_4c/pool_proj <- inception_4c/pool
I0403 19:55:18.626166  9905 net.cpp:399] inception_4c/pool_proj -> inception_4c/pool_proj
I0403 19:55:18.627480  9905 net.cpp:141] Setting up inception_4c/pool_proj
I0403 19:55:18.627509  9905 net.cpp:148] Top shape: 24 64 14 14 (301056)
I0403 19:55:18.627542  9905 net.cpp:156] Memory required for data: 1061809440
I0403 19:55:18.627562  9905 layer_factory.hpp:77] Creating layer inception_4c/relu_pool_proj
I0403 19:55:18.627581  9905 net.cpp:91] Creating Layer inception_4c/relu_pool_proj
I0403 19:55:18.627599  9905 net.cpp:425] inception_4c/relu_pool_proj <- inception_4c/pool_proj
I0403 19:55:18.627619  9905 net.cpp:386] inception_4c/relu_pool_proj -> inception_4c/pool_proj (in-place)
I0403 19:55:18.627817  9905 net.cpp:141] Setting up inception_4c/relu_pool_proj
I0403 19:55:18.627846  9905 net.cpp:148] Top shape: 24 64 14 14 (301056)
I0403 19:55:18.627861  9905 net.cpp:156] Memory required for data: 1063013664
I0403 19:55:18.627876  9905 layer_factory.hpp:77] Creating layer inception_4c/output
I0403 19:55:18.627897  9905 net.cpp:91] Creating Layer inception_4c/output
I0403 19:55:18.627914  9905 net.cpp:425] inception_4c/output <- inception_4c/1x1
I0403 19:55:18.627933  9905 net.cpp:425] inception_4c/output <- inception_4c/3x3
I0403 19:55:18.627948  9905 net.cpp:425] inception_4c/output <- inception_4c/5x5
I0403 19:55:18.627966  9905 net.cpp:425] inception_4c/output <- inception_4c/pool_proj
I0403 19:55:18.627985  9905 net.cpp:399] inception_4c/output -> inception_4c/output
I0403 19:55:18.628033  9905 net.cpp:141] Setting up inception_4c/output
I0403 19:55:18.628060  9905 net.cpp:148] Top shape: 24 512 14 14 (2408448)
I0403 19:55:18.628077  9905 net.cpp:156] Memory required for data: 1072647456
I0403 19:55:18.628093  9905 layer_factory.hpp:77] Creating layer inception_4c/output_inception_4c/output_0_split
I0403 19:55:18.628110  9905 net.cpp:91] Creating Layer inception_4c/output_inception_4c/output_0_split
I0403 19:55:18.628129  9905 net.cpp:425] inception_4c/output_inception_4c/output_0_split <- inception_4c/output
I0403 19:55:18.628149  9905 net.cpp:399] inception_4c/output_inception_4c/output_0_split -> inception_4c/output_inception_4c/output_0_split_0
I0403 19:55:18.628171  9905 net.cpp:399] inception_4c/output_inception_4c/output_0_split -> inception_4c/output_inception_4c/output_0_split_1
I0403 19:55:18.628193  9905 net.cpp:399] inception_4c/output_inception_4c/output_0_split -> inception_4c/output_inception_4c/output_0_split_2
I0403 19:55:18.628213  9905 net.cpp:399] inception_4c/output_inception_4c/output_0_split -> inception_4c/output_inception_4c/output_0_split_3
I0403 19:55:18.628309  9905 net.cpp:141] Setting up inception_4c/output_inception_4c/output_0_split
I0403 19:55:18.628336  9905 net.cpp:148] Top shape: 24 512 14 14 (2408448)
I0403 19:55:18.628355  9905 net.cpp:148] Top shape: 24 512 14 14 (2408448)
I0403 19:55:18.628372  9905 net.cpp:148] Top shape: 24 512 14 14 (2408448)
I0403 19:55:18.628391  9905 net.cpp:148] Top shape: 24 512 14 14 (2408448)
I0403 19:55:18.628404  9905 net.cpp:156] Memory required for data: 1111182624
I0403 19:55:18.628419  9905 layer_factory.hpp:77] Creating layer inception_4d/1x1
I0403 19:55:18.628443  9905 net.cpp:91] Creating Layer inception_4d/1x1
I0403 19:55:18.628461  9905 net.cpp:425] inception_4d/1x1 <- inception_4c/output_inception_4c/output_0_split_0
I0403 19:55:18.628484  9905 net.cpp:399] inception_4d/1x1 -> inception_4d/1x1
I0403 19:55:18.629966  9905 net.cpp:141] Setting up inception_4d/1x1
I0403 19:55:18.629998  9905 net.cpp:148] Top shape: 24 112 14 14 (526848)
I0403 19:55:18.630015  9905 net.cpp:156] Memory required for data: 1113290016
I0403 19:55:18.630034  9905 layer_factory.hpp:77] Creating layer inception_4d/relu_1x1
I0403 19:55:18.630053  9905 net.cpp:91] Creating Layer inception_4d/relu_1x1
I0403 19:55:18.630070  9905 net.cpp:425] inception_4d/relu_1x1 <- inception_4d/1x1
I0403 19:55:18.630090  9905 net.cpp:386] inception_4d/relu_1x1 -> inception_4d/1x1 (in-place)
I0403 19:55:18.630295  9905 net.cpp:141] Setting up inception_4d/relu_1x1
I0403 19:55:18.630324  9905 net.cpp:148] Top shape: 24 112 14 14 (526848)
I0403 19:55:18.630341  9905 net.cpp:156] Memory required for data: 1115397408
I0403 19:55:18.630357  9905 layer_factory.hpp:77] Creating layer inception_4d/3x3_reduce
I0403 19:55:18.630394  9905 net.cpp:91] Creating Layer inception_4d/3x3_reduce
I0403 19:55:18.630414  9905 net.cpp:425] inception_4d/3x3_reduce <- inception_4c/output_inception_4c/output_0_split_1
I0403 19:55:18.630436  9905 net.cpp:399] inception_4d/3x3_reduce -> inception_4d/3x3_reduce
I0403 19:55:18.632047  9905 net.cpp:141] Setting up inception_4d/3x3_reduce
I0403 19:55:18.632076  9905 net.cpp:148] Top shape: 24 144 14 14 (677376)
I0403 19:55:18.632092  9905 net.cpp:156] Memory required for data: 1118106912
I0403 19:55:18.632112  9905 layer_factory.hpp:77] Creating layer inception_4d/relu_3x3_reduce
I0403 19:55:18.632133  9905 net.cpp:91] Creating Layer inception_4d/relu_3x3_reduce
I0403 19:55:18.632153  9905 net.cpp:425] inception_4d/relu_3x3_reduce <- inception_4d/3x3_reduce
I0403 19:55:18.632171  9905 net.cpp:386] inception_4d/relu_3x3_reduce -> inception_4d/3x3_reduce (in-place)
I0403 19:55:18.632493  9905 net.cpp:141] Setting up inception_4d/relu_3x3_reduce
I0403 19:55:18.632521  9905 net.cpp:148] Top shape: 24 144 14 14 (677376)
I0403 19:55:18.632537  9905 net.cpp:156] Memory required for data: 1120816416
I0403 19:55:18.632552  9905 layer_factory.hpp:77] Creating layer inception_4d/3x3
I0403 19:55:18.632575  9905 net.cpp:91] Creating Layer inception_4d/3x3
I0403 19:55:18.632594  9905 net.cpp:425] inception_4d/3x3 <- inception_4d/3x3_reduce
I0403 19:55:18.632616  9905 net.cpp:399] inception_4d/3x3 -> inception_4d/3x3
I0403 19:55:18.637205  9905 net.cpp:141] Setting up inception_4d/3x3
I0403 19:55:18.637245  9905 net.cpp:148] Top shape: 24 288 14 14 (1354752)
I0403 19:55:18.637264  9905 net.cpp:156] Memory required for data: 1126235424
I0403 19:55:18.637285  9905 layer_factory.hpp:77] Creating layer inception_4d/relu_3x3
I0403 19:55:18.637305  9905 net.cpp:91] Creating Layer inception_4d/relu_3x3
I0403 19:55:18.637322  9905 net.cpp:425] inception_4d/relu_3x3 <- inception_4d/3x3
I0403 19:55:18.637343  9905 net.cpp:386] inception_4d/relu_3x3 -> inception_4d/3x3 (in-place)
I0403 19:55:18.637540  9905 net.cpp:141] Setting up inception_4d/relu_3x3
I0403 19:55:18.637567  9905 net.cpp:148] Top shape: 24 288 14 14 (1354752)
I0403 19:55:18.637583  9905 net.cpp:156] Memory required for data: 1131654432
I0403 19:55:18.637599  9905 layer_factory.hpp:77] Creating layer inception_4d/5x5_reduce
I0403 19:55:18.637624  9905 net.cpp:91] Creating Layer inception_4d/5x5_reduce
I0403 19:55:18.637641  9905 net.cpp:425] inception_4d/5x5_reduce <- inception_4c/output_inception_4c/output_0_split_2
I0403 19:55:18.637663  9905 net.cpp:399] inception_4d/5x5_reduce -> inception_4d/5x5_reduce
I0403 19:55:18.638882  9905 net.cpp:141] Setting up inception_4d/5x5_reduce
I0403 19:55:18.638914  9905 net.cpp:148] Top shape: 24 32 14 14 (150528)
I0403 19:55:18.638931  9905 net.cpp:156] Memory required for data: 1132256544
I0403 19:55:18.638950  9905 layer_factory.hpp:77] Creating layer inception_4d/relu_5x5_reduce
I0403 19:55:18.638969  9905 net.cpp:91] Creating Layer inception_4d/relu_5x5_reduce
I0403 19:55:18.638988  9905 net.cpp:425] inception_4d/relu_5x5_reduce <- inception_4d/5x5_reduce
I0403 19:55:18.639005  9905 net.cpp:386] inception_4d/relu_5x5_reduce -> inception_4d/5x5_reduce (in-place)
I0403 19:55:18.639209  9905 net.cpp:141] Setting up inception_4d/relu_5x5_reduce
I0403 19:55:18.639235  9905 net.cpp:148] Top shape: 24 32 14 14 (150528)
I0403 19:55:18.639256  9905 net.cpp:156] Memory required for data: 1132858656
I0403 19:55:18.639272  9905 layer_factory.hpp:77] Creating layer inception_4d/5x5
I0403 19:55:18.639297  9905 net.cpp:91] Creating Layer inception_4d/5x5
I0403 19:55:18.639314  9905 net.cpp:425] inception_4d/5x5 <- inception_4d/5x5_reduce
I0403 19:55:18.639338  9905 net.cpp:399] inception_4d/5x5 -> inception_4d/5x5
I0403 19:55:18.640905  9905 net.cpp:141] Setting up inception_4d/5x5
I0403 19:55:18.640935  9905 net.cpp:148] Top shape: 24 64 14 14 (301056)
I0403 19:55:18.640951  9905 net.cpp:156] Memory required for data: 1134062880
I0403 19:55:18.640974  9905 layer_factory.hpp:77] Creating layer inception_4d/relu_5x5
I0403 19:55:18.641010  9905 net.cpp:91] Creating Layer inception_4d/relu_5x5
I0403 19:55:18.641029  9905 net.cpp:425] inception_4d/relu_5x5 <- inception_4d/5x5
I0403 19:55:18.641048  9905 net.cpp:386] inception_4d/relu_5x5 -> inception_4d/5x5 (in-place)
I0403 19:55:18.641373  9905 net.cpp:141] Setting up inception_4d/relu_5x5
I0403 19:55:18.641402  9905 net.cpp:148] Top shape: 24 64 14 14 (301056)
I0403 19:55:18.641418  9905 net.cpp:156] Memory required for data: 1135267104
I0403 19:55:18.641434  9905 layer_factory.hpp:77] Creating layer inception_4d/pool
I0403 19:55:18.641453  9905 net.cpp:91] Creating Layer inception_4d/pool
I0403 19:55:18.641470  9905 net.cpp:425] inception_4d/pool <- inception_4c/output_inception_4c/output_0_split_3
I0403 19:55:18.641491  9905 net.cpp:399] inception_4d/pool -> inception_4d/pool
I0403 19:55:18.641563  9905 net.cpp:141] Setting up inception_4d/pool
I0403 19:55:18.641588  9905 net.cpp:148] Top shape: 24 512 14 14 (2408448)
I0403 19:55:18.641604  9905 net.cpp:156] Memory required for data: 1144900896
I0403 19:55:18.641619  9905 layer_factory.hpp:77] Creating layer inception_4d/pool_proj
I0403 19:55:18.641644  9905 net.cpp:91] Creating Layer inception_4d/pool_proj
I0403 19:55:18.641661  9905 net.cpp:425] inception_4d/pool_proj <- inception_4d/pool
I0403 19:55:18.641683  9905 net.cpp:399] inception_4d/pool_proj -> inception_4d/pool_proj
I0403 19:55:18.643597  9905 net.cpp:141] Setting up inception_4d/pool_proj
I0403 19:55:18.643631  9905 net.cpp:148] Top shape: 24 64 14 14 (301056)
I0403 19:55:18.643648  9905 net.cpp:156] Memory required for data: 1146105120
I0403 19:55:18.643669  9905 layer_factory.hpp:77] Creating layer inception_4d/relu_pool_proj
I0403 19:55:18.643688  9905 net.cpp:91] Creating Layer inception_4d/relu_pool_proj
I0403 19:55:18.643705  9905 net.cpp:425] inception_4d/relu_pool_proj <- inception_4d/pool_proj
I0403 19:55:18.643726  9905 net.cpp:386] inception_4d/relu_pool_proj -> inception_4d/pool_proj (in-place)
I0403 19:55:18.643929  9905 net.cpp:141] Setting up inception_4d/relu_pool_proj
I0403 19:55:18.643955  9905 net.cpp:148] Top shape: 24 64 14 14 (301056)
I0403 19:55:18.643971  9905 net.cpp:156] Memory required for data: 1147309344
I0403 19:55:18.643988  9905 layer_factory.hpp:77] Creating layer inception_4d/output
I0403 19:55:18.644006  9905 net.cpp:91] Creating Layer inception_4d/output
I0403 19:55:18.644022  9905 net.cpp:425] inception_4d/output <- inception_4d/1x1
I0403 19:55:18.644039  9905 net.cpp:425] inception_4d/output <- inception_4d/3x3
I0403 19:55:18.644057  9905 net.cpp:425] inception_4d/output <- inception_4d/5x5
I0403 19:55:18.644074  9905 net.cpp:425] inception_4d/output <- inception_4d/pool_proj
I0403 19:55:18.644095  9905 net.cpp:399] inception_4d/output -> inception_4d/output
I0403 19:55:18.644146  9905 net.cpp:141] Setting up inception_4d/output
I0403 19:55:18.644173  9905 net.cpp:148] Top shape: 24 528 14 14 (2483712)
I0403 19:55:18.644191  9905 net.cpp:156] Memory required for data: 1157244192
I0403 19:55:18.644206  9905 layer_factory.hpp:77] Creating layer inception_4d/output_inception_4d/output_0_split
I0403 19:55:18.644224  9905 net.cpp:91] Creating Layer inception_4d/output_inception_4d/output_0_split
I0403 19:55:18.644245  9905 net.cpp:425] inception_4d/output_inception_4d/output_0_split <- inception_4d/output
I0403 19:55:18.644265  9905 net.cpp:399] inception_4d/output_inception_4d/output_0_split -> inception_4d/output_inception_4d/output_0_split_0
I0403 19:55:18.644290  9905 net.cpp:399] inception_4d/output_inception_4d/output_0_split -> inception_4d/output_inception_4d/output_0_split_1
I0403 19:55:18.644314  9905 net.cpp:399] inception_4d/output_inception_4d/output_0_split -> inception_4d/output_inception_4d/output_0_split_2
I0403 19:55:18.644336  9905 net.cpp:399] inception_4d/output_inception_4d/output_0_split -> inception_4d/output_inception_4d/output_0_split_3
I0403 19:55:18.644356  9905 net.cpp:399] inception_4d/output_inception_4d/output_0_split -> inception_4d/output_inception_4d/output_0_split_4
I0403 19:55:18.644464  9905 net.cpp:141] Setting up inception_4d/output_inception_4d/output_0_split
I0403 19:55:18.644502  9905 net.cpp:148] Top shape: 24 528 14 14 (2483712)
I0403 19:55:18.644522  9905 net.cpp:148] Top shape: 24 528 14 14 (2483712)
I0403 19:55:18.644541  9905 net.cpp:148] Top shape: 24 528 14 14 (2483712)
I0403 19:55:18.644557  9905 net.cpp:148] Top shape: 24 528 14 14 (2483712)
I0403 19:55:18.644573  9905 net.cpp:148] Top shape: 24 528 14 14 (2483712)
I0403 19:55:18.644588  9905 net.cpp:156] Memory required for data: 1206918432
I0403 19:55:18.644603  9905 layer_factory.hpp:77] Creating layer loss2/ave_pool
I0403 19:55:18.644623  9905 net.cpp:91] Creating Layer loss2/ave_pool
I0403 19:55:18.644639  9905 net.cpp:425] loss2/ave_pool <- inception_4d/output_inception_4d/output_0_split_0
I0403 19:55:18.644659  9905 net.cpp:399] loss2/ave_pool -> loss2/ave_pool
I0403 19:55:18.644992  9905 net.cpp:141] Setting up loss2/ave_pool
I0403 19:55:18.645022  9905 net.cpp:148] Top shape: 24 528 4 4 (202752)
I0403 19:55:18.645040  9905 net.cpp:156] Memory required for data: 1207729440
I0403 19:55:18.645056  9905 layer_factory.hpp:77] Creating layer loss2/conv
I0403 19:55:18.645078  9905 net.cpp:91] Creating Layer loss2/conv
I0403 19:55:18.645097  9905 net.cpp:425] loss2/conv <- loss2/ave_pool
I0403 19:55:18.645117  9905 net.cpp:399] loss2/conv -> loss2/conv
I0403 19:55:18.647150  9905 net.cpp:141] Setting up loss2/conv
I0403 19:55:18.647178  9905 net.cpp:148] Top shape: 24 128 4 4 (49152)
I0403 19:55:18.647194  9905 net.cpp:156] Memory required for data: 1207926048
I0403 19:55:18.647213  9905 layer_factory.hpp:77] Creating layer loss2/relu_conv
I0403 19:55:18.647233  9905 net.cpp:91] Creating Layer loss2/relu_conv
I0403 19:55:18.647256  9905 net.cpp:425] loss2/relu_conv <- loss2/conv
I0403 19:55:18.647277  9905 net.cpp:386] loss2/relu_conv -> loss2/conv (in-place)
I0403 19:55:18.647580  9905 net.cpp:141] Setting up loss2/relu_conv
I0403 19:55:18.647608  9905 net.cpp:148] Top shape: 24 128 4 4 (49152)
I0403 19:55:18.647624  9905 net.cpp:156] Memory required for data: 1208122656
I0403 19:55:18.647640  9905 layer_factory.hpp:77] Creating layer loss2/fc
I0403 19:55:18.647661  9905 net.cpp:91] Creating Layer loss2/fc
I0403 19:55:18.647678  9905 net.cpp:425] loss2/fc <- loss2/conv
I0403 19:55:18.647701  9905 net.cpp:399] loss2/fc -> loss2/fc
I0403 19:55:18.666715  9905 net.cpp:141] Setting up loss2/fc
I0403 19:55:18.666760  9905 net.cpp:148] Top shape: 24 1024 (24576)
I0403 19:55:18.666777  9905 net.cpp:156] Memory required for data: 1208220960
I0403 19:55:18.666796  9905 layer_factory.hpp:77] Creating layer loss2/relu_fc
I0403 19:55:18.666815  9905 net.cpp:91] Creating Layer loss2/relu_fc
I0403 19:55:18.666833  9905 net.cpp:425] loss2/relu_fc <- loss2/fc
I0403 19:55:18.666852  9905 net.cpp:386] loss2/relu_fc -> loss2/fc (in-place)
I0403 19:55:18.667186  9905 net.cpp:141] Setting up loss2/relu_fc
I0403 19:55:18.667215  9905 net.cpp:148] Top shape: 24 1024 (24576)
I0403 19:55:18.667232  9905 net.cpp:156] Memory required for data: 1208319264
I0403 19:55:18.667253  9905 layer_factory.hpp:77] Creating layer loss2/drop_fc
I0403 19:55:18.667274  9905 net.cpp:91] Creating Layer loss2/drop_fc
I0403 19:55:18.667291  9905 net.cpp:425] loss2/drop_fc <- loss2/fc
I0403 19:55:18.667312  9905 net.cpp:386] loss2/drop_fc -> loss2/fc (in-place)
I0403 19:55:18.667366  9905 net.cpp:141] Setting up loss2/drop_fc
I0403 19:55:18.667389  9905 net.cpp:148] Top shape: 24 1024 (24576)
I0403 19:55:18.667405  9905 net.cpp:156] Memory required for data: 1208417568
I0403 19:55:18.667420  9905 layer_factory.hpp:77] Creating layer loss2/classifier_plantvillage
I0403 19:55:18.667443  9905 net.cpp:91] Creating Layer loss2/classifier_plantvillage
I0403 19:55:18.667461  9905 net.cpp:425] loss2/classifier_plantvillage <- loss2/fc
I0403 19:55:18.667485  9905 net.cpp:399] loss2/classifier_plantvillage -> loss2/classifier_plantvillage
I0403 19:55:18.667925  9905 net.cpp:141] Setting up loss2/classifier_plantvillage
I0403 19:55:18.667951  9905 net.cpp:148] Top shape: 24 38 (912)
I0403 19:55:18.667968  9905 net.cpp:156] Memory required for data: 1208421216
I0403 19:55:18.668009  9905 layer_factory.hpp:77] Creating layer loss2/classifier_plantvillage_loss2/classifier_plantvillage_0_split
I0403 19:55:18.668030  9905 net.cpp:91] Creating Layer loss2/classifier_plantvillage_loss2/classifier_plantvillage_0_split
I0403 19:55:18.668047  9905 net.cpp:425] loss2/classifier_plantvillage_loss2/classifier_plantvillage_0_split <- loss2/classifier_plantvillage
I0403 19:55:18.668069  9905 net.cpp:399] loss2/classifier_plantvillage_loss2/classifier_plantvillage_0_split -> loss2/classifier_plantvillage_loss2/classifier_plantvillage_0_split_0
I0403 19:55:18.668092  9905 net.cpp:399] loss2/classifier_plantvillage_loss2/classifier_plantvillage_0_split -> loss2/classifier_plantvillage_loss2/classifier_plantvillage_0_split_1
I0403 19:55:18.668113  9905 net.cpp:399] loss2/classifier_plantvillage_loss2/classifier_plantvillage_0_split -> loss2/classifier_plantvillage_loss2/classifier_plantvillage_0_split_2
I0403 19:55:18.668195  9905 net.cpp:141] Setting up loss2/classifier_plantvillage_loss2/classifier_plantvillage_0_split
I0403 19:55:18.668220  9905 net.cpp:148] Top shape: 24 38 (912)
I0403 19:55:18.668237  9905 net.cpp:148] Top shape: 24 38 (912)
I0403 19:55:18.668259  9905 net.cpp:148] Top shape: 24 38 (912)
I0403 19:55:18.668273  9905 net.cpp:156] Memory required for data: 1208432160
I0403 19:55:18.668289  9905 layer_factory.hpp:77] Creating layer inception_4e/1x1
I0403 19:55:18.668313  9905 net.cpp:91] Creating Layer inception_4e/1x1
I0403 19:55:18.668331  9905 net.cpp:425] inception_4e/1x1 <- inception_4d/output_inception_4d/output_0_split_1
I0403 19:55:18.668352  9905 net.cpp:399] inception_4e/1x1 -> inception_4e/1x1
I0403 19:55:18.670328  9905 net.cpp:141] Setting up inception_4e/1x1
I0403 19:55:18.670361  9905 net.cpp:148] Top shape: 24 256 14 14 (1204224)
I0403 19:55:18.670377  9905 net.cpp:156] Memory required for data: 1213249056
I0403 19:55:18.670397  9905 layer_factory.hpp:77] Creating layer inception_4e/relu_1x1
I0403 19:55:18.670418  9905 net.cpp:91] Creating Layer inception_4e/relu_1x1
I0403 19:55:18.670436  9905 net.cpp:425] inception_4e/relu_1x1 <- inception_4e/1x1
I0403 19:55:18.670455  9905 net.cpp:386] inception_4e/relu_1x1 -> inception_4e/1x1 (in-place)
I0403 19:55:18.670771  9905 net.cpp:141] Setting up inception_4e/relu_1x1
I0403 19:55:18.670799  9905 net.cpp:148] Top shape: 24 256 14 14 (1204224)
I0403 19:55:18.670815  9905 net.cpp:156] Memory required for data: 1218065952
I0403 19:55:18.670831  9905 layer_factory.hpp:77] Creating layer inception_4e/3x3_reduce
I0403 19:55:18.670855  9905 net.cpp:91] Creating Layer inception_4e/3x3_reduce
I0403 19:55:18.670873  9905 net.cpp:425] inception_4e/3x3_reduce <- inception_4d/output_inception_4d/output_0_split_2
I0403 19:55:18.670895  9905 net.cpp:399] inception_4e/3x3_reduce -> inception_4e/3x3_reduce
I0403 19:55:18.673187  9905 net.cpp:141] Setting up inception_4e/3x3_reduce
I0403 19:55:18.673216  9905 net.cpp:148] Top shape: 24 160 14 14 (752640)
I0403 19:55:18.673233  9905 net.cpp:156] Memory required for data: 1221076512
I0403 19:55:18.673259  9905 layer_factory.hpp:77] Creating layer inception_4e/relu_3x3_reduce
I0403 19:55:18.673277  9905 net.cpp:91] Creating Layer inception_4e/relu_3x3_reduce
I0403 19:55:18.673295  9905 net.cpp:425] inception_4e/relu_3x3_reduce <- inception_4e/3x3_reduce
I0403 19:55:18.673316  9905 net.cpp:386] inception_4e/relu_3x3_reduce -> inception_4e/3x3_reduce (in-place)
I0403 19:55:18.673518  9905 net.cpp:141] Setting up inception_4e/relu_3x3_reduce
I0403 19:55:18.673544  9905 net.cpp:148] Top shape: 24 160 14 14 (752640)
I0403 19:55:18.673560  9905 net.cpp:156] Memory required for data: 1224087072
I0403 19:55:18.673575  9905 layer_factory.hpp:77] Creating layer inception_4e/3x3
I0403 19:55:18.673599  9905 net.cpp:91] Creating Layer inception_4e/3x3
I0403 19:55:18.673616  9905 net.cpp:425] inception_4e/3x3 <- inception_4e/3x3_reduce
I0403 19:55:18.673638  9905 net.cpp:399] inception_4e/3x3 -> inception_4e/3x3
I0403 19:55:18.678990  9905 net.cpp:141] Setting up inception_4e/3x3
I0403 19:55:18.679034  9905 net.cpp:148] Top shape: 24 320 14 14 (1505280)
I0403 19:55:18.679051  9905 net.cpp:156] Memory required for data: 1230108192
I0403 19:55:18.679070  9905 layer_factory.hpp:77] Creating layer inception_4e/relu_3x3
I0403 19:55:18.679091  9905 net.cpp:91] Creating Layer inception_4e/relu_3x3
I0403 19:55:18.679110  9905 net.cpp:425] inception_4e/relu_3x3 <- inception_4e/3x3
I0403 19:55:18.679128  9905 net.cpp:386] inception_4e/relu_3x3 -> inception_4e/3x3 (in-place)
I0403 19:55:18.679466  9905 net.cpp:141] Setting up inception_4e/relu_3x3
I0403 19:55:18.679497  9905 net.cpp:148] Top shape: 24 320 14 14 (1505280)
I0403 19:55:18.679513  9905 net.cpp:156] Memory required for data: 1236129312
I0403 19:55:18.679529  9905 layer_factory.hpp:77] Creating layer inception_4e/5x5_reduce
I0403 19:55:18.679553  9905 net.cpp:91] Creating Layer inception_4e/5x5_reduce
I0403 19:55:18.679571  9905 net.cpp:425] inception_4e/5x5_reduce <- inception_4d/output_inception_4d/output_0_split_3
I0403 19:55:18.679591  9905 net.cpp:399] inception_4e/5x5_reduce -> inception_4e/5x5_reduce
I0403 19:55:18.680702  9905 net.cpp:141] Setting up inception_4e/5x5_reduce
I0403 19:55:18.680732  9905 net.cpp:148] Top shape: 24 32 14 14 (150528)
I0403 19:55:18.680748  9905 net.cpp:156] Memory required for data: 1236731424
I0403 19:55:18.680766  9905 layer_factory.hpp:77] Creating layer inception_4e/relu_5x5_reduce
I0403 19:55:18.680788  9905 net.cpp:91] Creating Layer inception_4e/relu_5x5_reduce
I0403 19:55:18.680805  9905 net.cpp:425] inception_4e/relu_5x5_reduce <- inception_4e/5x5_reduce
I0403 19:55:18.680822  9905 net.cpp:386] inception_4e/relu_5x5_reduce -> inception_4e/5x5_reduce (in-place)
I0403 19:55:18.681130  9905 net.cpp:141] Setting up inception_4e/relu_5x5_reduce
I0403 19:55:18.681157  9905 net.cpp:148] Top shape: 24 32 14 14 (150528)
I0403 19:55:18.681172  9905 net.cpp:156] Memory required for data: 1237333536
I0403 19:55:18.681187  9905 layer_factory.hpp:77] Creating layer inception_4e/5x5
I0403 19:55:18.681227  9905 net.cpp:91] Creating Layer inception_4e/5x5
I0403 19:55:18.681253  9905 net.cpp:425] inception_4e/5x5 <- inception_4e/5x5_reduce
I0403 19:55:18.681275  9905 net.cpp:399] inception_4e/5x5 -> inception_4e/5x5
I0403 19:55:18.683176  9905 net.cpp:141] Setting up inception_4e/5x5
I0403 19:55:18.683207  9905 net.cpp:148] Top shape: 24 128 14 14 (602112)
I0403 19:55:18.683223  9905 net.cpp:156] Memory required for data: 1239741984
I0403 19:55:18.683248  9905 layer_factory.hpp:77] Creating layer inception_4e/relu_5x5
I0403 19:55:18.683269  9905 net.cpp:91] Creating Layer inception_4e/relu_5x5
I0403 19:55:18.683284  9905 net.cpp:425] inception_4e/relu_5x5 <- inception_4e/5x5
I0403 19:55:18.683306  9905 net.cpp:386] inception_4e/relu_5x5 -> inception_4e/5x5 (in-place)
I0403 19:55:18.683514  9905 net.cpp:141] Setting up inception_4e/relu_5x5
I0403 19:55:18.683539  9905 net.cpp:148] Top shape: 24 128 14 14 (602112)
I0403 19:55:18.683555  9905 net.cpp:156] Memory required for data: 1242150432
I0403 19:55:18.683570  9905 layer_factory.hpp:77] Creating layer inception_4e/pool
I0403 19:55:18.683588  9905 net.cpp:91] Creating Layer inception_4e/pool
I0403 19:55:18.683605  9905 net.cpp:425] inception_4e/pool <- inception_4d/output_inception_4d/output_0_split_4
I0403 19:55:18.683626  9905 net.cpp:399] inception_4e/pool -> inception_4e/pool
I0403 19:55:18.683698  9905 net.cpp:141] Setting up inception_4e/pool
I0403 19:55:18.683723  9905 net.cpp:148] Top shape: 24 528 14 14 (2483712)
I0403 19:55:18.683738  9905 net.cpp:156] Memory required for data: 1252085280
I0403 19:55:18.683754  9905 layer_factory.hpp:77] Creating layer inception_4e/pool_proj
I0403 19:55:18.683779  9905 net.cpp:91] Creating Layer inception_4e/pool_proj
I0403 19:55:18.683797  9905 net.cpp:425] inception_4e/pool_proj <- inception_4e/pool
I0403 19:55:18.683816  9905 net.cpp:399] inception_4e/pool_proj -> inception_4e/pool_proj
I0403 19:55:18.685371  9905 net.cpp:141] Setting up inception_4e/pool_proj
I0403 19:55:18.685403  9905 net.cpp:148] Top shape: 24 128 14 14 (602112)
I0403 19:55:18.685434  9905 net.cpp:156] Memory required for data: 1254493728
I0403 19:55:18.685454  9905 layer_factory.hpp:77] Creating layer inception_4e/relu_pool_proj
I0403 19:55:18.685472  9905 net.cpp:91] Creating Layer inception_4e/relu_pool_proj
I0403 19:55:18.685488  9905 net.cpp:425] inception_4e/relu_pool_proj <- inception_4e/pool_proj
I0403 19:55:18.685508  9905 net.cpp:386] inception_4e/relu_pool_proj -> inception_4e/pool_proj (in-place)
I0403 19:55:18.685809  9905 net.cpp:141] Setting up inception_4e/relu_pool_proj
I0403 19:55:18.685838  9905 net.cpp:148] Top shape: 24 128 14 14 (602112)
I0403 19:55:18.685855  9905 net.cpp:156] Memory required for data: 1256902176
I0403 19:55:18.685871  9905 layer_factory.hpp:77] Creating layer inception_4e/output
I0403 19:55:18.685889  9905 net.cpp:91] Creating Layer inception_4e/output
I0403 19:55:18.685904  9905 net.cpp:425] inception_4e/output <- inception_4e/1x1
I0403 19:55:18.685921  9905 net.cpp:425] inception_4e/output <- inception_4e/3x3
I0403 19:55:18.685937  9905 net.cpp:425] inception_4e/output <- inception_4e/5x5
I0403 19:55:18.685955  9905 net.cpp:425] inception_4e/output <- inception_4e/pool_proj
I0403 19:55:18.685972  9905 net.cpp:399] inception_4e/output -> inception_4e/output
I0403 19:55:18.686025  9905 net.cpp:141] Setting up inception_4e/output
I0403 19:55:18.686049  9905 net.cpp:148] Top shape: 24 832 14 14 (3913728)
I0403 19:55:18.686064  9905 net.cpp:156] Memory required for data: 1272557088
I0403 19:55:18.686079  9905 layer_factory.hpp:77] Creating layer pool4/3x3_s2
I0403 19:55:18.686100  9905 net.cpp:91] Creating Layer pool4/3x3_s2
I0403 19:55:18.686116  9905 net.cpp:425] pool4/3x3_s2 <- inception_4e/output
I0403 19:55:18.686134  9905 net.cpp:399] pool4/3x3_s2 -> pool4/3x3_s2
I0403 19:55:18.686204  9905 net.cpp:141] Setting up pool4/3x3_s2
I0403 19:55:18.686228  9905 net.cpp:148] Top shape: 24 832 7 7 (978432)
I0403 19:55:18.686249  9905 net.cpp:156] Memory required for data: 1276470816
I0403 19:55:18.686265  9905 layer_factory.hpp:77] Creating layer pool4/3x3_s2_pool4/3x3_s2_0_split
I0403 19:55:18.686283  9905 net.cpp:91] Creating Layer pool4/3x3_s2_pool4/3x3_s2_0_split
I0403 19:55:18.686300  9905 net.cpp:425] pool4/3x3_s2_pool4/3x3_s2_0_split <- pool4/3x3_s2
I0403 19:55:18.686321  9905 net.cpp:399] pool4/3x3_s2_pool4/3x3_s2_0_split -> pool4/3x3_s2_pool4/3x3_s2_0_split_0
I0403 19:55:18.686341  9905 net.cpp:399] pool4/3x3_s2_pool4/3x3_s2_0_split -> pool4/3x3_s2_pool4/3x3_s2_0_split_1
I0403 19:55:18.686362  9905 net.cpp:399] pool4/3x3_s2_pool4/3x3_s2_0_split -> pool4/3x3_s2_pool4/3x3_s2_0_split_2
I0403 19:55:18.686383  9905 net.cpp:399] pool4/3x3_s2_pool4/3x3_s2_0_split -> pool4/3x3_s2_pool4/3x3_s2_0_split_3
I0403 19:55:18.686475  9905 net.cpp:141] Setting up pool4/3x3_s2_pool4/3x3_s2_0_split
I0403 19:55:18.686501  9905 net.cpp:148] Top shape: 24 832 7 7 (978432)
I0403 19:55:18.686517  9905 net.cpp:148] Top shape: 24 832 7 7 (978432)
I0403 19:55:18.686533  9905 net.cpp:148] Top shape: 24 832 7 7 (978432)
I0403 19:55:18.686548  9905 net.cpp:148] Top shape: 24 832 7 7 (978432)
I0403 19:55:18.686563  9905 net.cpp:156] Memory required for data: 1292125728
I0403 19:55:18.686578  9905 layer_factory.hpp:77] Creating layer inception_5a/1x1
I0403 19:55:18.686604  9905 net.cpp:91] Creating Layer inception_5a/1x1
I0403 19:55:18.686621  9905 net.cpp:425] inception_5a/1x1 <- pool4/3x3_s2_pool4/3x3_s2_0_split_0
I0403 19:55:18.686642  9905 net.cpp:399] inception_5a/1x1 -> inception_5a/1x1
I0403 19:55:18.689604  9905 net.cpp:141] Setting up inception_5a/1x1
I0403 19:55:18.689635  9905 net.cpp:148] Top shape: 24 256 7 7 (301056)
I0403 19:55:18.689651  9905 net.cpp:156] Memory required for data: 1293329952
I0403 19:55:18.689669  9905 layer_factory.hpp:77] Creating layer inception_5a/relu_1x1
I0403 19:55:18.689688  9905 net.cpp:91] Creating Layer inception_5a/relu_1x1
I0403 19:55:18.689704  9905 net.cpp:425] inception_5a/relu_1x1 <- inception_5a/1x1
I0403 19:55:18.689725  9905 net.cpp:386] inception_5a/relu_1x1 -> inception_5a/1x1 (in-place)
I0403 19:55:18.690050  9905 net.cpp:141] Setting up inception_5a/relu_1x1
I0403 19:55:18.690078  9905 net.cpp:148] Top shape: 24 256 7 7 (301056)
I0403 19:55:18.690093  9905 net.cpp:156] Memory required for data: 1294534176
I0403 19:55:18.690107  9905 layer_factory.hpp:77] Creating layer inception_5a/3x3_reduce
I0403 19:55:18.690130  9905 net.cpp:91] Creating Layer inception_5a/3x3_reduce
I0403 19:55:18.690148  9905 net.cpp:425] inception_5a/3x3_reduce <- pool4/3x3_s2_pool4/3x3_s2_0_split_1
I0403 19:55:18.690171  9905 net.cpp:399] inception_5a/3x3_reduce -> inception_5a/3x3_reduce
I0403 19:55:18.692736  9905 net.cpp:141] Setting up inception_5a/3x3_reduce
I0403 19:55:18.692766  9905 net.cpp:148] Top shape: 24 160 7 7 (188160)
I0403 19:55:18.692782  9905 net.cpp:156] Memory required for data: 1295286816
I0403 19:55:18.692801  9905 layer_factory.hpp:77] Creating layer inception_5a/relu_3x3_reduce
I0403 19:55:18.692822  9905 net.cpp:91] Creating Layer inception_5a/relu_3x3_reduce
I0403 19:55:18.692839  9905 net.cpp:425] inception_5a/relu_3x3_reduce <- inception_5a/3x3_reduce
I0403 19:55:18.692857  9905 net.cpp:386] inception_5a/relu_3x3_reduce -> inception_5a/3x3_reduce (in-place)
I0403 19:55:18.693053  9905 net.cpp:141] Setting up inception_5a/relu_3x3_reduce
I0403 19:55:18.693078  9905 net.cpp:148] Top shape: 24 160 7 7 (188160)
I0403 19:55:18.693094  9905 net.cpp:156] Memory required for data: 1296039456
I0403 19:55:18.693109  9905 layer_factory.hpp:77] Creating layer inception_5a/3x3
I0403 19:55:18.693133  9905 net.cpp:91] Creating Layer inception_5a/3x3
I0403 19:55:18.693151  9905 net.cpp:425] inception_5a/3x3 <- inception_5a/3x3_reduce
I0403 19:55:18.693172  9905 net.cpp:399] inception_5a/3x3 -> inception_5a/3x3
I0403 19:55:18.698500  9905 net.cpp:141] Setting up inception_5a/3x3
I0403 19:55:18.698537  9905 net.cpp:148] Top shape: 24 320 7 7 (376320)
I0403 19:55:18.698555  9905 net.cpp:156] Memory required for data: 1297544736
I0403 19:55:18.698575  9905 layer_factory.hpp:77] Creating layer inception_5a/relu_3x3
I0403 19:55:18.698595  9905 net.cpp:91] Creating Layer inception_5a/relu_3x3
I0403 19:55:18.698611  9905 net.cpp:425] inception_5a/relu_3x3 <- inception_5a/3x3
I0403 19:55:18.698632  9905 net.cpp:386] inception_5a/relu_3x3 -> inception_5a/3x3 (in-place)
I0403 19:55:18.698945  9905 net.cpp:141] Setting up inception_5a/relu_3x3
I0403 19:55:18.698976  9905 net.cpp:148] Top shape: 24 320 7 7 (376320)
I0403 19:55:18.698992  9905 net.cpp:156] Memory required for data: 1299050016
I0403 19:55:18.699008  9905 layer_factory.hpp:77] Creating layer inception_5a/5x5_reduce
I0403 19:55:18.699034  9905 net.cpp:91] Creating Layer inception_5a/5x5_reduce
I0403 19:55:18.699053  9905 net.cpp:425] inception_5a/5x5_reduce <- pool4/3x3_s2_pool4/3x3_s2_0_split_2
I0403 19:55:18.699075  9905 net.cpp:399] inception_5a/5x5_reduce -> inception_5a/5x5_reduce
I0403 19:55:18.700331  9905 net.cpp:141] Setting up inception_5a/5x5_reduce
I0403 19:55:18.700362  9905 net.cpp:148] Top shape: 24 32 7 7 (37632)
I0403 19:55:18.700378  9905 net.cpp:156] Memory required for data: 1299200544
I0403 19:55:18.700398  9905 layer_factory.hpp:77] Creating layer inception_5a/relu_5x5_reduce
I0403 19:55:18.700417  9905 net.cpp:91] Creating Layer inception_5a/relu_5x5_reduce
I0403 19:55:18.700434  9905 net.cpp:425] inception_5a/relu_5x5_reduce <- inception_5a/5x5_reduce
I0403 19:55:18.700455  9905 net.cpp:386] inception_5a/relu_5x5_reduce -> inception_5a/5x5_reduce (in-place)
I0403 19:55:18.700776  9905 net.cpp:141] Setting up inception_5a/relu_5x5_reduce
I0403 19:55:18.700804  9905 net.cpp:148] Top shape: 24 32 7 7 (37632)
I0403 19:55:18.700820  9905 net.cpp:156] Memory required for data: 1299351072
I0403 19:55:18.700836  9905 layer_factory.hpp:77] Creating layer inception_5a/5x5
I0403 19:55:18.700860  9905 net.cpp:91] Creating Layer inception_5a/5x5
I0403 19:55:18.700878  9905 net.cpp:425] inception_5a/5x5 <- inception_5a/5x5_reduce
I0403 19:55:18.700901  9905 net.cpp:399] inception_5a/5x5 -> inception_5a/5x5
I0403 19:55:18.702747  9905 net.cpp:141] Setting up inception_5a/5x5
I0403 19:55:18.702795  9905 net.cpp:148] Top shape: 24 128 7 7 (150528)
I0403 19:55:18.702812  9905 net.cpp:156] Memory required for data: 1299953184
I0403 19:55:18.702831  9905 layer_factory.hpp:77] Creating layer inception_5a/relu_5x5
I0403 19:55:18.702852  9905 net.cpp:91] Creating Layer inception_5a/relu_5x5
I0403 19:55:18.702867  9905 net.cpp:425] inception_5a/relu_5x5 <- inception_5a/5x5
I0403 19:55:18.702889  9905 net.cpp:386] inception_5a/relu_5x5 -> inception_5a/5x5 (in-place)
I0403 19:55:18.703096  9905 net.cpp:141] Setting up inception_5a/relu_5x5
I0403 19:55:18.703125  9905 net.cpp:148] Top shape: 24 128 7 7 (150528)
I0403 19:55:18.703140  9905 net.cpp:156] Memory required for data: 1300555296
I0403 19:55:18.703155  9905 layer_factory.hpp:77] Creating layer inception_5a/pool
I0403 19:55:18.703174  9905 net.cpp:91] Creating Layer inception_5a/pool
I0403 19:55:18.703191  9905 net.cpp:425] inception_5a/pool <- pool4/3x3_s2_pool4/3x3_s2_0_split_3
I0403 19:55:18.703213  9905 net.cpp:399] inception_5a/pool -> inception_5a/pool
I0403 19:55:18.703295  9905 net.cpp:141] Setting up inception_5a/pool
I0403 19:55:18.703321  9905 net.cpp:148] Top shape: 24 832 7 7 (978432)
I0403 19:55:18.703336  9905 net.cpp:156] Memory required for data: 1304469024
I0403 19:55:18.703351  9905 layer_factory.hpp:77] Creating layer inception_5a/pool_proj
I0403 19:55:18.703374  9905 net.cpp:91] Creating Layer inception_5a/pool_proj
I0403 19:55:18.703393  9905 net.cpp:425] inception_5a/pool_proj <- inception_5a/pool
I0403 19:55:18.703415  9905 net.cpp:399] inception_5a/pool_proj -> inception_5a/pool_proj
I0403 19:55:18.705868  9905 net.cpp:141] Setting up inception_5a/pool_proj
I0403 19:55:18.705904  9905 net.cpp:148] Top shape: 24 128 7 7 (150528)
I0403 19:55:18.705920  9905 net.cpp:156] Memory required for data: 1305071136
I0403 19:55:18.705940  9905 layer_factory.hpp:77] Creating layer inception_5a/relu_pool_proj
I0403 19:55:18.705958  9905 net.cpp:91] Creating Layer inception_5a/relu_pool_proj
I0403 19:55:18.705976  9905 net.cpp:425] inception_5a/relu_pool_proj <- inception_5a/pool_proj
I0403 19:55:18.705992  9905 net.cpp:386] inception_5a/relu_pool_proj -> inception_5a/pool_proj (in-place)
I0403 19:55:18.706318  9905 net.cpp:141] Setting up inception_5a/relu_pool_proj
I0403 19:55:18.706349  9905 net.cpp:148] Top shape: 24 128 7 7 (150528)
I0403 19:55:18.706367  9905 net.cpp:156] Memory required for data: 1305673248
I0403 19:55:18.706383  9905 layer_factory.hpp:77] Creating layer inception_5a/output
I0403 19:55:18.706401  9905 net.cpp:91] Creating Layer inception_5a/output
I0403 19:55:18.706418  9905 net.cpp:425] inception_5a/output <- inception_5a/1x1
I0403 19:55:18.706435  9905 net.cpp:425] inception_5a/output <- inception_5a/3x3
I0403 19:55:18.706454  9905 net.cpp:425] inception_5a/output <- inception_5a/5x5
I0403 19:55:18.706470  9905 net.cpp:425] inception_5a/output <- inception_5a/pool_proj
I0403 19:55:18.706486  9905 net.cpp:399] inception_5a/output -> inception_5a/output
I0403 19:55:18.706542  9905 net.cpp:141] Setting up inception_5a/output
I0403 19:55:18.706568  9905 net.cpp:148] Top shape: 24 832 7 7 (978432)
I0403 19:55:18.706583  9905 net.cpp:156] Memory required for data: 1309586976
I0403 19:55:18.706598  9905 layer_factory.hpp:77] Creating layer inception_5a/output_inception_5a/output_0_split
I0403 19:55:18.706619  9905 net.cpp:91] Creating Layer inception_5a/output_inception_5a/output_0_split
I0403 19:55:18.706635  9905 net.cpp:425] inception_5a/output_inception_5a/output_0_split <- inception_5a/output
I0403 19:55:18.706655  9905 net.cpp:399] inception_5a/output_inception_5a/output_0_split -> inception_5a/output_inception_5a/output_0_split_0
I0403 19:55:18.706676  9905 net.cpp:399] inception_5a/output_inception_5a/output_0_split -> inception_5a/output_inception_5a/output_0_split_1
I0403 19:55:18.706698  9905 net.cpp:399] inception_5a/output_inception_5a/output_0_split -> inception_5a/output_inception_5a/output_0_split_2
I0403 19:55:18.706722  9905 net.cpp:399] inception_5a/output_inception_5a/output_0_split -> inception_5a/output_inception_5a/output_0_split_3
I0403 19:55:18.706840  9905 net.cpp:141] Setting up inception_5a/output_inception_5a/output_0_split
I0403 19:55:18.706866  9905 net.cpp:148] Top shape: 24 832 7 7 (978432)
I0403 19:55:18.706882  9905 net.cpp:148] Top shape: 24 832 7 7 (978432)
I0403 19:55:18.706898  9905 net.cpp:148] Top shape: 24 832 7 7 (978432)
I0403 19:55:18.706915  9905 net.cpp:148] Top shape: 24 832 7 7 (978432)
I0403 19:55:18.706930  9905 net.cpp:156] Memory required for data: 1325241888
I0403 19:55:18.706945  9905 layer_factory.hpp:77] Creating layer inception_5b/1x1
I0403 19:55:18.706969  9905 net.cpp:91] Creating Layer inception_5b/1x1
I0403 19:55:18.706989  9905 net.cpp:425] inception_5b/1x1 <- inception_5a/output_inception_5a/output_0_split_0
I0403 19:55:18.707010  9905 net.cpp:399] inception_5b/1x1 -> inception_5b/1x1
I0403 19:55:18.711040  9905 net.cpp:141] Setting up inception_5b/1x1
I0403 19:55:18.711071  9905 net.cpp:148] Top shape: 24 384 7 7 (451584)
I0403 19:55:18.711088  9905 net.cpp:156] Memory required for data: 1327048224
I0403 19:55:18.711107  9905 layer_factory.hpp:77] Creating layer inception_5b/relu_1x1
I0403 19:55:18.711129  9905 net.cpp:91] Creating Layer inception_5b/relu_1x1
I0403 19:55:18.711146  9905 net.cpp:425] inception_5b/relu_1x1 <- inception_5b/1x1
I0403 19:55:18.711164  9905 net.cpp:386] inception_5b/relu_1x1 -> inception_5b/1x1 (in-place)
I0403 19:55:18.711493  9905 net.cpp:141] Setting up inception_5b/relu_1x1
I0403 19:55:18.711520  9905 net.cpp:148] Top shape: 24 384 7 7 (451584)
I0403 19:55:18.711537  9905 net.cpp:156] Memory required for data: 1328854560
I0403 19:55:18.711554  9905 layer_factory.hpp:77] Creating layer inception_5b/3x3_reduce
I0403 19:55:18.711580  9905 net.cpp:91] Creating Layer inception_5b/3x3_reduce
I0403 19:55:18.711598  9905 net.cpp:425] inception_5b/3x3_reduce <- inception_5a/output_inception_5a/output_0_split_1
I0403 19:55:18.711619  9905 net.cpp:399] inception_5b/3x3_reduce -> inception_5b/3x3_reduce
I0403 19:55:18.714491  9905 net.cpp:141] Setting up inception_5b/3x3_reduce
I0403 19:55:18.714525  9905 net.cpp:148] Top shape: 24 192 7 7 (225792)
I0403 19:55:18.714543  9905 net.cpp:156] Memory required for data: 1329757728
I0403 19:55:18.714562  9905 layer_factory.hpp:77] Creating layer inception_5b/relu_3x3_reduce
I0403 19:55:18.714582  9905 net.cpp:91] Creating Layer inception_5b/relu_3x3_reduce
I0403 19:55:18.714599  9905 net.cpp:425] inception_5b/relu_3x3_reduce <- inception_5b/3x3_reduce
I0403 19:55:18.714618  9905 net.cpp:386] inception_5b/relu_3x3_reduce -> inception_5b/3x3_reduce (in-place)
I0403 19:55:18.714824  9905 net.cpp:141] Setting up inception_5b/relu_3x3_reduce
I0403 19:55:18.714853  9905 net.cpp:148] Top shape: 24 192 7 7 (225792)
I0403 19:55:18.714867  9905 net.cpp:156] Memory required for data: 1330660896
I0403 19:55:18.714882  9905 layer_factory.hpp:77] Creating layer inception_5b/3x3
I0403 19:55:18.714905  9905 net.cpp:91] Creating Layer inception_5b/3x3
I0403 19:55:18.714923  9905 net.cpp:425] inception_5b/3x3 <- inception_5b/3x3_reduce
I0403 19:55:18.714947  9905 net.cpp:399] inception_5b/3x3 -> inception_5b/3x3
I0403 19:55:18.722204  9905 net.cpp:141] Setting up inception_5b/3x3
I0403 19:55:18.722254  9905 net.cpp:148] Top shape: 24 384 7 7 (451584)
I0403 19:55:18.722275  9905 net.cpp:156] Memory required for data: 1332467232
I0403 19:55:18.722295  9905 layer_factory.hpp:77] Creating layer inception_5b/relu_3x3
I0403 19:55:18.722313  9905 net.cpp:91] Creating Layer inception_5b/relu_3x3
I0403 19:55:18.722331  9905 net.cpp:425] inception_5b/relu_3x3 <- inception_5b/3x3
I0403 19:55:18.722349  9905 net.cpp:386] inception_5b/relu_3x3 -> inception_5b/3x3 (in-place)
I0403 19:55:18.722667  9905 net.cpp:141] Setting up inception_5b/relu_3x3
I0403 19:55:18.722697  9905 net.cpp:148] Top shape: 24 384 7 7 (451584)
I0403 19:55:18.722713  9905 net.cpp:156] Memory required for data: 1334273568
I0403 19:55:18.722729  9905 layer_factory.hpp:77] Creating layer inception_5b/5x5_reduce
I0403 19:55:18.722774  9905 net.cpp:91] Creating Layer inception_5b/5x5_reduce
I0403 19:55:18.722795  9905 net.cpp:425] inception_5b/5x5_reduce <- inception_5a/output_inception_5a/output_0_split_2
I0403 19:55:18.722815  9905 net.cpp:399] inception_5b/5x5_reduce -> inception_5b/5x5_reduce
I0403 19:55:18.724182  9905 net.cpp:141] Setting up inception_5b/5x5_reduce
I0403 19:55:18.724215  9905 net.cpp:148] Top shape: 24 48 7 7 (56448)
I0403 19:55:18.724232  9905 net.cpp:156] Memory required for data: 1334499360
I0403 19:55:18.724258  9905 layer_factory.hpp:77] Creating layer inception_5b/relu_5x5_reduce
I0403 19:55:18.724278  9905 net.cpp:91] Creating Layer inception_5b/relu_5x5_reduce
I0403 19:55:18.724295  9905 net.cpp:425] inception_5b/relu_5x5_reduce <- inception_5b/5x5_reduce
I0403 19:55:18.724318  9905 net.cpp:386] inception_5b/relu_5x5_reduce -> inception_5b/5x5_reduce (in-place)
I0403 19:55:18.724716  9905 net.cpp:141] Setting up inception_5b/relu_5x5_reduce
I0403 19:55:18.724745  9905 net.cpp:148] Top shape: 24 48 7 7 (56448)
I0403 19:55:18.724761  9905 net.cpp:156] Memory required for data: 1334725152
I0403 19:55:18.724776  9905 layer_factory.hpp:77] Creating layer inception_5b/5x5
I0403 19:55:18.724797  9905 net.cpp:91] Creating Layer inception_5b/5x5
I0403 19:55:18.724815  9905 net.cpp:425] inception_5b/5x5 <- inception_5b/5x5_reduce
I0403 19:55:18.724834  9905 net.cpp:399] inception_5b/5x5 -> inception_5b/5x5
I0403 19:55:18.727047  9905 net.cpp:141] Setting up inception_5b/5x5
I0403 19:55:18.727077  9905 net.cpp:148] Top shape: 24 128 7 7 (150528)
I0403 19:55:18.727093  9905 net.cpp:156] Memory required for data: 1335327264
I0403 19:55:18.727113  9905 layer_factory.hpp:77] Creating layer inception_5b/relu_5x5
I0403 19:55:18.727133  9905 net.cpp:91] Creating Layer inception_5b/relu_5x5
I0403 19:55:18.727150  9905 net.cpp:425] inception_5b/relu_5x5 <- inception_5b/5x5
I0403 19:55:18.727174  9905 net.cpp:386] inception_5b/relu_5x5 -> inception_5b/5x5 (in-place)
I0403 19:55:18.727388  9905 net.cpp:141] Setting up inception_5b/relu_5x5
I0403 19:55:18.727416  9905 net.cpp:148] Top shape: 24 128 7 7 (150528)
I0403 19:55:18.727430  9905 net.cpp:156] Memory required for data: 1335929376
I0403 19:55:18.727447  9905 layer_factory.hpp:77] Creating layer inception_5b/pool
I0403 19:55:18.727469  9905 net.cpp:91] Creating Layer inception_5b/pool
I0403 19:55:18.727486  9905 net.cpp:425] inception_5b/pool <- inception_5a/output_inception_5a/output_0_split_3
I0403 19:55:18.727505  9905 net.cpp:399] inception_5b/pool -> inception_5b/pool
I0403 19:55:18.727584  9905 net.cpp:141] Setting up inception_5b/pool
I0403 19:55:18.727610  9905 net.cpp:148] Top shape: 24 832 7 7 (978432)
I0403 19:55:18.727625  9905 net.cpp:156] Memory required for data: 1339843104
I0403 19:55:18.727641  9905 layer_factory.hpp:77] Creating layer inception_5b/pool_proj
I0403 19:55:18.727664  9905 net.cpp:91] Creating Layer inception_5b/pool_proj
I0403 19:55:18.727682  9905 net.cpp:425] inception_5b/pool_proj <- inception_5b/pool
I0403 19:55:18.727705  9905 net.cpp:399] inception_5b/pool_proj -> inception_5b/pool_proj
I0403 19:55:18.730185  9905 net.cpp:141] Setting up inception_5b/pool_proj
I0403 19:55:18.730218  9905 net.cpp:148] Top shape: 24 128 7 7 (150528)
I0403 19:55:18.730237  9905 net.cpp:156] Memory required for data: 1340445216
I0403 19:55:18.730263  9905 layer_factory.hpp:77] Creating layer inception_5b/relu_pool_proj
I0403 19:55:18.730283  9905 net.cpp:91] Creating Layer inception_5b/relu_pool_proj
I0403 19:55:18.730299  9905 net.cpp:425] inception_5b/relu_pool_proj <- inception_5b/pool_proj
I0403 19:55:18.730320  9905 net.cpp:386] inception_5b/relu_pool_proj -> inception_5b/pool_proj (in-place)
I0403 19:55:18.730641  9905 net.cpp:141] Setting up inception_5b/relu_pool_proj
I0403 19:55:18.730672  9905 net.cpp:148] Top shape: 24 128 7 7 (150528)
I0403 19:55:18.730690  9905 net.cpp:156] Memory required for data: 1341047328
I0403 19:55:18.730705  9905 layer_factory.hpp:77] Creating layer inception_5b/output
I0403 19:55:18.730725  9905 net.cpp:91] Creating Layer inception_5b/output
I0403 19:55:18.730757  9905 net.cpp:425] inception_5b/output <- inception_5b/1x1
I0403 19:55:18.730777  9905 net.cpp:425] inception_5b/output <- inception_5b/3x3
I0403 19:55:18.730794  9905 net.cpp:425] inception_5b/output <- inception_5b/5x5
I0403 19:55:18.730810  9905 net.cpp:425] inception_5b/output <- inception_5b/pool_proj
I0403 19:55:18.730831  9905 net.cpp:399] inception_5b/output -> inception_5b/output
I0403 19:55:18.730888  9905 net.cpp:141] Setting up inception_5b/output
I0403 19:55:18.730913  9905 net.cpp:148] Top shape: 24 1024 7 7 (1204224)
I0403 19:55:18.730928  9905 net.cpp:156] Memory required for data: 1345864224
I0403 19:55:18.730944  9905 layer_factory.hpp:77] Creating layer pool5/7x7_s1
I0403 19:55:18.730967  9905 net.cpp:91] Creating Layer pool5/7x7_s1
I0403 19:55:18.730985  9905 net.cpp:425] pool5/7x7_s1 <- inception_5b/output
I0403 19:55:18.731004  9905 net.cpp:399] pool5/7x7_s1 -> pool5/7x7_s1
I0403 19:55:18.731243  9905 net.cpp:141] Setting up pool5/7x7_s1
I0403 19:55:18.731271  9905 net.cpp:148] Top shape: 24 1024 1 1 (24576)
I0403 19:55:18.731287  9905 net.cpp:156] Memory required for data: 1345962528
I0403 19:55:18.731302  9905 layer_factory.hpp:77] Creating layer pool5/drop_7x7_s1
I0403 19:55:18.731323  9905 net.cpp:91] Creating Layer pool5/drop_7x7_s1
I0403 19:55:18.731339  9905 net.cpp:425] pool5/drop_7x7_s1 <- pool5/7x7_s1
I0403 19:55:18.731362  9905 net.cpp:386] pool5/drop_7x7_s1 -> pool5/7x7_s1 (in-place)
I0403 19:55:18.731416  9905 net.cpp:141] Setting up pool5/drop_7x7_s1
I0403 19:55:18.731441  9905 net.cpp:148] Top shape: 24 1024 1 1 (24576)
I0403 19:55:18.731456  9905 net.cpp:156] Memory required for data: 1346060832
I0403 19:55:18.731472  9905 layer_factory.hpp:77] Creating layer loss3/classifier_plantvillage
I0403 19:55:18.731494  9905 net.cpp:91] Creating Layer loss3/classifier_plantvillage
I0403 19:55:18.731513  9905 net.cpp:425] loss3/classifier_plantvillage <- pool5/7x7_s1
I0403 19:55:18.731535  9905 net.cpp:399] loss3/classifier_plantvillage -> loss3/classifier_plantvillage
I0403 19:55:18.731992  9905 net.cpp:141] Setting up loss3/classifier_plantvillage
I0403 19:55:18.732017  9905 net.cpp:148] Top shape: 24 38 (912)
I0403 19:55:18.732033  9905 net.cpp:156] Memory required for data: 1346064480
I0403 19:55:18.732053  9905 layer_factory.hpp:77] Creating layer loss3/classifier_plantvillage_loss3/classifier_plantvillage_0_split
I0403 19:55:18.732075  9905 net.cpp:91] Creating Layer loss3/classifier_plantvillage_loss3/classifier_plantvillage_0_split
I0403 19:55:18.732095  9905 net.cpp:425] loss3/classifier_plantvillage_loss3/classifier_plantvillage_0_split <- loss3/classifier_plantvillage
I0403 19:55:18.732113  9905 net.cpp:399] loss3/classifier_plantvillage_loss3/classifier_plantvillage_0_split -> loss3/classifier_plantvillage_loss3/classifier_plantvillage_0_split_0
I0403 19:55:18.732134  9905 net.cpp:399] loss3/classifier_plantvillage_loss3/classifier_plantvillage_0_split -> loss3/classifier_plantvillage_loss3/classifier_plantvillage_0_split_1
I0403 19:55:18.732156  9905 net.cpp:399] loss3/classifier_plantvillage_loss3/classifier_plantvillage_0_split -> loss3/classifier_plantvillage_loss3/classifier_plantvillage_0_split_2
I0403 19:55:18.732180  9905 net.cpp:399] loss3/classifier_plantvillage_loss3/classifier_plantvillage_0_split -> loss3/classifier_plantvillage_loss3/classifier_plantvillage_0_split_3
I0403 19:55:18.732306  9905 net.cpp:141] Setting up loss3/classifier_plantvillage_loss3/classifier_plantvillage_0_split
I0403 19:55:18.732331  9905 net.cpp:148] Top shape: 24 38 (912)
I0403 19:55:18.732349  9905 net.cpp:148] Top shape: 24 38 (912)
I0403 19:55:18.732367  9905 net.cpp:148] Top shape: 24 38 (912)
I0403 19:55:18.732383  9905 net.cpp:148] Top shape: 24 38 (912)
I0403 19:55:18.732398  9905 net.cpp:156] Memory required for data: 1346079072
I0403 19:55:18.732412  9905 layer_factory.hpp:77] Creating layer loss1/loss
I0403 19:55:18.732436  9905 net.cpp:91] Creating Layer loss1/loss
I0403 19:55:18.732455  9905 net.cpp:425] loss1/loss <- loss1/classifier_plantvillage_loss1/classifier_plantvillage_0_split_0
I0403 19:55:18.732489  9905 net.cpp:425] loss1/loss <- label_data_1_split_0
…
