…
I0403 19:37:35.926478  9466 net.cpp:313] The NetState phase (1) differed from the phase (0) specified by a rule in layer data
I0403 19:37:35.927834  9466 net.cpp:49] Initializing net from parameters: 
state {
  phase: TEST
}
layer {
  name: "data"
  type: "Data"
  top: "data"
  top: "label"
  include {
    phase: TEST
  }
  transform_param {
    mirror: false
    crop_size: 224
    mean_file: "/home/mohanty/data/final_dataset/lmdb/color-50-50/mean.binaryproto"
  }
  data_param {
    source: "/home/mohanty/data/final_dataset/lmdb/color-50-50/test_db"
    batch_size: 24
    backend: LMDB
  }
}
layer {
  name: "conv1/7x7_s2"
  type: "Convolution"
  bottom: "data"
  top: "conv1/7x7_s2"
  param {
    lr_mult: 1
    decay_mult: 1
  }
  param {
    lr_mult: 2
    decay_mult: 0
  }
  convolution_param {
    num_output: 64
    pad: 3
    kernel_size: 7
    stride: 2
    weight_filler {
      type: "xavier"
      std: 0.1
    }
    bias_filler {
      type: "constant"
      value: 0.2
    }
  }
}
layer {
  name: "conv1/relu_7x7"
  type: "ReLU"
  bottom: "conv1/7x7_s2"
  top: "conv1/7x7_s2"
}
layer {
  name: "pool1/3x3_s2"
  type: "Pooling"
  bottom: "conv1/7x7_s2"
  top: "pool1/3x3_s2"
  pooling_param {
    pool: MAX
    kernel_size: 3
    stride: 2
  }
}
layer {
  name: "pool1/norm1"
  type: "LRN"
  bottom: "pool1/3x3_s2"
  top: "pool1/norm1"
  lrn_param {
    local_size: 5
    alpha: 0.0001
    beta: 0.75
  }
}
layer {
  name: "conv2/3x3_reduce"
  type: "Convolution"
  bottom: "pool1/norm1"
  top: "conv2/3x3_reduce"
  param {
    lr_mult: 1
    decay_mult: 1
  }
  param {
    lr_mult: 2
    decay_mult: 0
  }
  convolution_param {
    num_output: 64
    kernel_size: 1
    weight_filler {
      type: "xavier"
      std: 0.1
    }
    bias_filler {
      type: "constant"
      value: 0.2
    }
  }
}
layer {
  name: "conv2/relu_3x3_reduce"
  type: "ReLU"
  bottom: "conv2/3x3_reduce"
  top: "conv2/3x3_reduce"
}
layer {
  name: "conv2/3x3"
  type: "Convolution"
  bottom: "conv2/3x3_reduce"
  top: "conv2/3x3"
  param {
    lr_mult: 1
    decay_mult: 1
  }
  param {
    lr_mult: 2
    decay_mult: 0
  }
  convolution_param {
    num_output: 192
    pad: 1
    kernel_size: 3
    weight_filler {
      type: "xavier"
      std: 0.03
    }
    bias_filler {
      type: "constant"
      value: 0.2
    }
  }
}
layer {
  name: "conv2/relu_3x3"
  type: "ReLU"
  bottom: "conv2/3x3"
  top: "conv2/3x3"
}
layer {
  name: "conv2/norm2"
  type: "LRN"
  bottom: "conv2/3x3"
  top: "conv2/norm2"
  lrn_param {
    local_size: 5
    alpha: 0.0001
    beta: 0.75
  }
}
layer {
  name: "pool2/3x3_s2"
  type: "Pooling"
  bottom: "conv2/norm2"
  top: "pool2/3x3_s2"
  pooling_param {
    pool: MAX
    kernel_size: 3
    stride: 2
  }
}
layer {
  name: "inception_3a/1x1"
  type: "Convolution"
  bottom: "pool2/3x3_s2"
  top: "inception_3a/1x1"
  param {
    lr_mult: 1
    decay_mult: 1
  }
  param {
    lr_mult: 2
    decay_mult: 0
  }
  convolution_param {
    num_output: 64
    kernel_size: 1
    weight_filler {
      type: "xavier"
      std: 0.03
    }
    bias_filler {
      type: "constant"
      value: 0.2
    }
  }
}
layer {
  name: "inception_3a/relu_1x1"
  type: "ReLU"
  bottom: "inception_3a/1x1"
  top: "inception_3a/1x1"
}
layer {
  name: "inception_3a/3x3_reduce"
  type: "Convolution"
  bottom: "pool2/3x3_s2"
  top: "inception_3a/3x3_reduce"
  param {
    lr_mult: 1
    decay_mult: 1
  }
  param {
    lr_mult: 2
    decay_mult: 0
  }
  convolution_param {
    num_output: 96
    kernel_size: 1
    weight_filler {
      type: "xavier"
      std: 0.09
    }
    bias_filler {
      type: "constant"
      value: 0.2
    }
  }
}
layer {
  name: "inception_3a/relu_3x3_reduce"
  type: "ReLU"
  bottom: "inception_3a/3x3_reduce"
  top: "inception_3a/3x3_reduce"
}
layer {
  name: "inception_3a/3x3"
  type: "Convolution"
  bottom: "inception_3a/3x3_reduce"
  top: "inception_3a/3x3"
  param {
    lr_mult: 1
    decay_mult: 1
  }
  param {
    lr_mult: 2
    decay_mult: 0
  }
  convolution_param {
    num_output: 128
    pad: 1
    kernel_size: 3
    weight_filler {
      type: "xavier"
      std: 0.03
    }
    bias_filler {
      type: "constant"
      value: 0.2
    }
  }
}
layer {
  name: "inception_3a/relu_3x3"
  type: "ReLU"
  bottom: "inception_3a/3x3"
  top: "inception_3a/3x3"
}
layer {
  name: "inception_3a/5x5_reduce"
  type: "Convolution"
  bottom: "pool2/3x3_s2"
  top: "inception_3a/5x5_reduce"
  param {
    lr_mult: 1
    decay_mult: 1
  }
  param {
    lr_mult: 2
    decay_mult: 0
  }
  convolution_param {
    num_output: 16
    kernel_size: 1
    weight_filler {
      type: "xavier"
      std: 0.2
    }
    bias_filler {
      type: "constant"
      value: 0.2
    }
  }
}
layer {
  name: "inception_3a/relu_5x5_reduce"
  type: "ReLU"
  bottom: "inception_3a/5x5_reduce"
  top: "inception_3a/5x5_reduce"
}
layer {
  name: "inception_3a/5x5"
  type: "Convolution"
  bottom: "inception_3a/5x5_reduce"
  top: "inception_3a/5x5"
  param {
    lr_mult: 1
    decay_mult: 1
  }
  param {
    lr_mult: 2
    decay_mult: 0
  }
  convolution_param {
    num_output: 32
    pad: 2
    kernel_size: 5
    weight_filler {
      type: "xavier"
      std: 0.03
    }
    bias_filler {
      type: "constant"
      value: 0.2
    }
  }
}
layer {
  name: "inception_3a/relu_5x5"
  type: "ReLU"
  bottom: "inception_3a/5x5"
  top: "inception_3a/5x5"
}
layer {
  name: "inception_3a/pool"
  type: "Pooling"
  bottom: "pool2/3x3_s2"
  top: "inception_3a/pool"
  pooling_param {
    pool: MAX
    kernel_size: 3
    stride: 1
    pad: 1
  }
}
layer {
  name: "inception_3a/pool_proj"
  type: "Convolution"
  bottom: "inception_3a/pool"
  top: "inception_3a/pool_proj"
  param {
    lr_mult: 1
    decay_mult: 1
  }
  param {
    lr_mult: 2
    decay_mult: 0
  }
  convolution_param {
    num_output: 32
    kernel_size: 1
    weight_filler {
      type: "xavier"
      std: 0.1
    }
    bias_filler {
      type: "constant"
      value: 0.2
    }
  }
}
layer {
  name: "inception_3a/relu_pool_proj"
  type: "ReLU"
  bottom: "inception_3a/pool_proj"
  top: "inception_3a/pool_proj"
}
layer {
  name: "inception_3a/output"
  type: "Concat"
  bottom: "inception_3a/1x1"
  bottom: "inception_3a/3x3"
  bottom: "inception_3a/5x5"
  bottom: "inception_3a/pool_proj"
  top: "inception_3a/output"
}
layer {
  name: "inception_3b/1x1"
  type: "Convolution"
  bottom: "inception_3a/output"
  top: "inception_3b/1x1"
  param {
    lr_mult: 1
    decay_mult: 1
  }
  param {
    lr_mult: 2
    decay_mult: 0
  }
  convolution_param {
    num_output: 128
    kernel_size: 1
    weight_filler {
      type: "xavier"
      std: 0.03
    }
    bias_filler {
      type: "constant"
      value: 0.2
    }
  }
}
layer {
  name: "inception_3b/relu_1x1"
  type: "ReLU"
  bottom: "inception_3b/1x1"
  top: "inception_3b/1x1"
}
layer {
  name: "inception_3b/3x3_reduce"
  type: "Convolution"
  bottom: "inception_3a/output"
  top: "inception_3b/3x3_reduce"
  param {
    lr_mult: 1
    decay_mult: 1
  }
  param {
    lr_mult: 2
    decay_mult: 0
  }
  convolution_param {
    num_output: 128
    kernel_size: 1
    weight_filler {
      type: "xavier"
      std: 0.09
    }
    bias_filler {
      type: "constant"
      value: 0.2
    }
  }
}
layer {
  name: "inception_3b/relu_3x3_reduce"
  type: "ReLU"
  bottom: "inception_3b/3x3_reduce"
  top: "inception_3b/3x3_reduce"
}
layer {
  name: "inception_3b/3x3"
  type: "Convolution"
  bottom: "inception_3b/3x3_reduce"
  top: "inception_3b/3x3"
  param {
    lr_mult: 1
    decay_mult: 1
  }
  param {
    lr_mult: 2
    decay_mult: 0
  }
  convolution_param {
    num_output: 192
    pad: 1
    kernel_size: 3
    weight_filler {
      type: "xavier"
      std: 0.03
    }
    bias_filler {
      type: "constant"
      value: 0.2
    }
  }
}
layer {
  name: "inception_3b/relu_3x3"
  type: "ReLU"
  bottom: "inception_3b/3x3"
  top: "inception_3b/3x3"
}
layer {
  name: "inception_3b/5x5_reduce"
  type: "Convolution"
  bottom: "inception_3a/output"
  top: "inception_3b/5x5_reduce"
  param {
    lr_mult: 1
    decay_mult: 1
  }
  param {
    lr_mult: 2
    decay_mult: 0
  }
  convolution_param {
    num_output: 32
    kernel_size: 1
    weight_filler {
      type: "xavier"
      std: 0.2
    }
    bias_filler {
      type: "constant"
      value: 0.2
    }
  }
}
layer {
  name: "inception_3b/relu_5x5_reduce"
  type: "ReLU"
  bottom: "inception_3b/5x5_reduce"
  top: "inception_3b/5x5_reduce"
}
layer {
  name: "inception_3b/5x5"
  type: "Convolution"
  bottom: "inception_3b/5x5_reduce"
  top: "inception_3b/5x5"
  param {
    lr_mult: 1
    decay_mult: 1
  }
  param {
    lr_mult: 2
    decay_mult: 0
  }
  convolution_param {
    num_output: 96
    pad: 2
    kernel_size: 5
    weight_filler {
      type: "xavier"
      std: 0.03
    }
    bias_filler {
      type: "constant"
      value: 0.2
    }
  }
}
layer {
  name: "inception_3b/relu_5x5"
  type: "ReLU"
  bottom: "inception_3b/5x5"
  top: "inception_3b/5x5"
}
layer {
  name: "inception_3b/pool"
  type: "Pooling"
  bottom: "inception_3a/output"
  top: "inception_3b/pool"
  pooling_param {
    pool: MAX
    kernel_size: 3
    stride: 1
    pad: 1
  }
}
layer {
  name: "inception_3b/pool_proj"
  type: "Convolution"
  bottom: "inception_3b/pool"
  top: "inception_3b/pool_proj"
  param {
    lr_mult: 1
    decay_mult: 1
  }
  param {
    lr_mult: 2
    decay_mult: 0
  }
  convolution_param {
    num_output: 64
    kernel_size: 1
    weight_filler {
      type: "xavier"
      std: 0.1
    }
    bias_filler {
      type: "constant"
      value: 0.2
    }
  }
}
layer {
  name: "inception_3b/relu_pool_proj"
  type: "ReLU"
  bottom: "inception_3b/pool_proj"
  top: "inception_3b/pool_proj"
}
layer {
  name: "inception_3b/output"
  type: "Concat"
  bottom: "inception_3b/1x1"
  bottom: "inception_3b/3x3"
  bottom: "inception_3b/5x5"
  bottom: "inception_3b/pool_proj"
  top: "inception_3b/output"
}
layer {
  name: "pool3/3x3_s2"
  type: "Pooling"
  bottom: "inception_3b/output"
  top: "pool3/3x3_s2"
  pooling_param {
    pool: MAX
    kernel_size: 3
    stride: 2
  }
}
layer {
  name: "inception_4a/1x1"
  type: "Convolution"
  bottom: "pool3/3x3_s2"
  top: "inception_4a/1x1"
  param {
    lr_mult: 1
    decay_mult: 1
  }
  param {
    lr_mult: 2
    decay_mult: 0
  }
  convolution_param {
    num_output: 192
    kernel_size: 1
    weight_filler {
      type: "xavier"
      std: 0.03
    }
    bias_filler {
      type: "constant"
      value: 0.2
    }
  }
}
layer {
  name: "inception_4a/relu_1x1"
  type: "ReLU"
  bottom: "inception_4a/1x1"
  top: "inception_4a/1x1"
}
layer {
  name: "inception_4a/3x3_reduce"
  type: "Convolution"
  bottom: "pool3/3x3_s2"
  top: "inception_4a/3x3_reduce"
  param {
    lr_mult: 1
    decay_mult: 1
  }
  param {
    lr_mult: 2
    decay_mult: 0
  }
  convolution_param {
    num_output: 96
    kernel_size: 1
    weight_filler {
      type: "xavier"
      std: 0.09
    }
    bias_filler {
      type: "constant"
      value: 0.2
    }
  }
}
layer {
  name: "inception_4a/relu_3x3_reduce"
  type: "ReLU"
  bottom: "inception_4a/3x3_reduce"
  top: "inception_4a/3x3_reduce"
}
layer {
  name: "inception_4a/3x3"
  type: "Convolution"
  bottom: "inception_4a/3x3_reduce"
  top: "inception_4a/3x3"
  param {
    lr_mult: 1
    decay_mult: 1
  }
  param {
    lr_mult: 2
    decay_mult: 0
  }
  convolution_param {
    num_output: 208
    pad: 1
    kernel_size: 3
    weight_filler {
      type: "xavier"
      std: 0.03
    }
    bias_filler {
      type: "constant"
      value: 0.2
    }
  }
}
layer {
  name: "inception_4a/relu_3x3"
  type: "ReLU"
  bottom: "inception_4a/3x3"
  top: "inception_4a/3x3"
}
layer {
  name: "inception_4a/5x5_reduce"
  type: "Convolution"
  bottom: "pool3/3x3_s2"
  top: "inception_4a/5x5_reduce"
  param {
    lr_mult: 1
    decay_mult: 1
  }
  param {
    lr_mult: 2
    decay_mult: 0
  }
  convolution_param {
    num_output: 16
    kernel_size: 1
    weight_filler {
      type: "xavier"
      std: 0.2
    }
    bias_filler {
      type: "constant"
      value: 0.2
    }
  }
}
layer {
  name: "inception_4a/relu_5x5_reduce"
  type: "ReLU"
  bottom: "inception_4a/5x5_reduce"
  top: "inception_4a/5x5_reduce"
}
layer {
  name: "inception_4a/5x5"
  type: "Convolution"
  bottom: "inception_4a/5x5_reduce"
  top: "inception_4a/5x5"
  param {
    lr_mult: 1
    decay_mult: 1
  }
  param {
    lr_mult: 2
    decay_mult: 0
  }
  convolution_param {
    num_output: 48
    pad: 2
    kernel_size: 5
    weight_filler {
      type: "xavier"
      std: 0.03
    }
    bias_filler {
      type: "constant"
      value: 0.2
    }
  }
}
layer {
  name: "inception_4a/relu_5x5"
  type: "ReLU"
  bottom: "inception_4a/5x5"
  top: "inception_4a/5x5"
}
layer {
  name: "inception_4a/pool"
  type: "Pooling"
  bottom: "pool3/3x3_s2"
  top: "inception_4a/pool"
  pooling_param {
    pool: MAX
    kernel_size: 3
    stride: 1
    pad: 1
  }
}
layer {
  name: "inception_4a/pool_proj"
  type: "Convolution"
  bottom: "inception_4a/pool"
  top: "inception_4a/pool_proj"
  param {
    lr_mult: 1
    decay_mult: 1
  }
  param {
    lr_mult: 2
    decay_mult: 0
  }
  convolution_param {
    num_output: 64
    kernel_size: 1
    weight_filler {
      type: "xavier"
      std: 0.1
    }
    bias_filler {
      type: "constant"
      value: 0.2
    }
  }
}
layer {
  name: "inception_4a/relu_pool_proj"
  type: "ReLU"
  bottom: "inception_4a/pool_proj"
  top: "inception_4a/pool_proj"
}
layer {
  name: "inception_4a/output"
  type: "Concat"
  bottom: "inception_4a/1x1"
  bottom: "inception_4a/3x3"
  bottom: "inception_4a/5x5"
  bottom: "inception_4a/pool_proj"
  top: "inception_4a/output"
}
layer {
  name: "loss1/ave_pool"
  type: "Pooling"
  bottom: "inception_4a/output"
  top: "loss1/ave_pool"
  pooling_param {
    pool: AVE
    kernel_size: 5
    stride: 3
  }
}
layer {
  name: "loss1/conv"
  type: "Convolution"
  bottom: "loss1/ave_pool"
  top: "loss1/conv"
  param {
    lr_mult: 1
    decay_mult: 1
  }
  param {
    lr_mult: 2
    decay_mult: 0
  }
  convolution_param {
    num_output: 128
    kernel_size: 1
    weight_filler {
      type: "xavier"
      std: 0.08
    }
    bias_filler {
      type: "constant"
      value: 0.2
    }
  }
}
layer {
  name: "loss1/relu_conv"
  type: "ReLU"
  bottom: "loss1/conv"
  top: "loss1/conv"
}
layer {
  name: "loss1/fc"
  type: "InnerProduct"
  bottom: "loss1/conv"
  top: "loss1/fc"
  param {
    lr_mult: 1
    decay_mult: 1
  }
  param {
    lr_mult: 2
    decay_mult: 0
  }
  inner_product_param {
    num_output: 1024
    weight_filler {
      type: "xavier"
      std: 0.02
    }
    bias_filler {
      type: "constant"
      value: 0.2
    }
  }
}
layer {
  name: "loss1/relu_fc"
  type: "ReLU"
  bottom: "loss1/fc"
  top: "loss1/fc"
}
layer {
  name: "loss1/drop_fc"
  type: "Dropout"
  bottom: "loss1/fc"
  top: "loss1/fc"
  dropout_param {
    dropout_ratio: 0.7
  }
}
layer {
  name: "loss1/classifier_plantvillage"
  type: "InnerProduct"
  bottom: "loss1/fc"
  top: "loss1/classifier_plantvillage"
  param {
    lr_mult: 1
    decay_mult: 1
  }
  param {
    lr_mult: 2
    decay_mult: 0
  }
  inner_product_param {
    num_output: 38
    weight_filler {
      type: "xavier"
      std: 0.0009765625
    }
    bias_filler {
      type: "constant"
      value: 0
    }
  }
}
layer {
  name: "inception_4b/1x1"
  type: "Convolution"
  bottom: "inception_4a/output"
  top: "inception_4b/1x1"
  param {
    lr_mult: 1
    decay_mult: 1
  }
  param {
    lr_mult: 2
    decay_mult: 0
  }
  convolution_param {
    num_output: 160
    kernel_size: 1
    weight_filler {
      type: "xavier"
      std: 0.03
    }
    bias_filler {
      type: "constant"
      value: 0.2
    }
  }
}
layer {
  name: "inception_4b/relu_1x1"
  type: "ReLU"
  bottom: "inception_4b/1x1"
  top: "inception_4b/1x1"
}
layer {
  name: "inception_4b/3x3_reduce"
  type: "Convolution"
  bottom: "inception_4a/output"
  top: "inception_4b/3x3_reduce"
  param {
    lr_mult: 1
    decay_mult: 1
  }
  param {
    lr_mult: 2
    decay_mult: 0
  }
  convolution_param {
    num_output: 112
    kernel_size: 1
    weight_filler {
      type: "xavier"
      std: 0.09
    }
    bias_filler {
      type: "constant"
      value: 0.2
    }
  }
}
layer {
  name: "inception_4b/relu_3x3_reduce"
  type: "ReLU"
  bottom: "inception_4b/3x3_reduce"
  top: "inception_4b/3x3_reduce"
}
layer {
  name: "inception_4b/3x3"
  type: "Convolution"
  bottom: "inception_4b/3x3_reduce"
  top: "inception_4b/3x3"
  param {
    lr_mult: 1
    decay_mult: 1
  }
  param {
    lr_mult: 2
    decay_mult: 0
  }
  convolution_param {
    num_output: 224
    pad: 1
    kernel_size: 3
    weight_filler {
      type: "xavier"
      std: 0.03
    }
    bias_filler {
      type: "constant"
      value: 0.2
    }
  }
}
layer {
  name: "inception_4b/relu_3x3"
  type: "ReLU"
  bottom: "inception_4b/3x3"
  top: "inception_4b/3x3"
}
layer {
  name: "inception_4b/5x5_reduce"
  type: "Convolution"
  bottom: "inception_4a/output"
  top: "inception_4b/5x5_reduce"
  param {
    lr_mult: 1
    decay_mult: 1
  }
  param {
    lr_mult: 2
    decay_mult: 0
  }
  convolution_param {
    num_output: 24
    kernel_size: 1
    weight_filler {
      type: "xavier"
      std: 0.2
    }
    bias_filler {
      type: "constant"
      value: 0.2
    }
  }
}
layer {
  name: "inception_4b/relu_5x5_reduce"
  type: "ReLU"
  bottom: "inception_4b/5x5_reduce"
  top: "inception_4b/5x5_reduce"
}
layer {
  name: "inception_4b/5x5"
  type: "Convolution"
  bottom: "inception_4b/5x5_reduce"
  top: "inception_4b/5x5"
  param {
    lr_mult: 1
    decay_mult: 1
  }
  param {
    lr_mult: 2
    decay_mult: 0
  }
  convolution_param {
    num_output: 64
    pad: 2
    kernel_size: 5
    weight_filler {
      type: "xavier"
      std: 0.03
    }
    bias_filler {
      type: "constant"
      value: 0.2
    }
  }
}
layer {
  name: "inception_4b/relu_5x5"
  type: "ReLU"
  bottom: "inception_4b/5x5"
  top: "inception_4b/5x5"
}
layer {
  name: "inception_4b/pool"
  type: "Pooling"
  bottom: "inception_4a/output"
  top: "inception_4b/pool"
  pooling_param {
    pool: MAX
    kernel_size: 3
    stride: 1
    pad: 1
  }
}
layer {
  name: "inception_4b/pool_proj"
  type: "Convolution"
  bottom: "inception_4b/pool"
  top: "inception_4b/pool_proj"
  param {
    lr_mult: 1
    decay_mult: 1
  }
  param {
    lr_mult: 2
    decay_mult: 0
  }
  convolution_param {
    num_output: 64
    kernel_size: 1
    weight_filler {
      type: "xavier"
      std: 0.1
    }
    bias_filler {
      type: "constant"
      value: 0.2
    }
  }
}
layer {
  name: "inception_4b/relu_pool_proj"
  type: "ReLU"
  bottom: "inception_4b/pool_proj"
  top: "inception_4b/pool_proj"
}
layer {
  name: "inception_4b/output"
  type: "Concat"
  bottom: "inception_4b/1x1"
  bottom: "inception_4b/3x3"
  bottom: "inception_4b/5x5"
  bottom: "inception_4b/pool_proj"
  top: "inception_4b/output"
}
layer {
  name: "inception_4c/1x1"
  type: "Convolution"
  bottom: "inception_4b/output"
  top: "inception_4c/1x1"
  param {
    lr_mult: 1
    decay_mult: 1
  }
  param {
    lr_mult: 2
    decay_mult: 0
  }
  convolution_param {
    num_output: 128
    kernel_size: 1
    weight_filler {
      type: "xavier"
      std: 0.03
    }
    bias_filler {
      type: "constant"
      value: 0.2
    }
  }
}
layer {
  name: "inception_4c/relu_1x1"
  type: "ReLU"
  bottom: "inception_4c/1x1"
  top: "inception_4c/1x1"
}
layer {
  name: "inception_4c/3x3_reduce"
  type: "Convolution"
  bottom: "inception_4b/output"
  top: "inception_4c/3x3_reduce"
  param {
    lr_mult: 1
    decay_mult: 1
  }
  param {
    lr_mult: 2
    decay_mult: 0
  }
  convolution_param {
    num_output: 128
    kernel_size: 1
    weight_filler {
      type: "xavier"
      std: 0.09
    }
    bias_filler {
      type: "constant"
      value: 0.2
    }
  }
}
layer {
  name: "inception_4c/relu_3x3_reduce"
  type: "ReLU"
  bottom: "inception_4c/3x3_reduce"
  top: "inception_4c/3x3_reduce"
}
layer {
  name: "inception_4c/3x3"
  type: "Convolution"
  bottom: "inception_4c/3x3_reduce"
  top: "inception_4c/3x3"
  param {
    lr_mult: 1
    decay_mult: 1
  }
  param {
    lr_mult: 2
    decay_mult: 0
  }
  convolution_param {
    num_output: 256
    pad: 1
    kernel_size: 3
    weight_filler {
      type: "xavier"
      std: 0.03
    }
    bias_filler {
      type: "constant"
      value: 0.2
    }
  }
}
layer {
  name: "inception_4c/relu_3x3"
  type: "ReLU"
  bottom: "inception_4c/3x3"
  top: "inception_4c/3x3"
}
layer {
  name: "inception_4c/5x5_reduce"
  type: "Convolution"
  bottom: "inception_4b/output"
  top: "inception_4c/5x5_reduce"
  param {
    lr_mult: 1
    decay_mult: 1
  }
  param {
    lr_mult: 2
    decay_mult: 0
  }
  convolution_param {
    num_output: 24
    kernel_size: 1
    weight_filler {
      type: "xavier"
      std: 0.2
    }
    bias_filler {
      type: "constant"
      value: 0.2
    }
  }
}
layer {
  name: "inception_4c/relu_5x5_reduce"
  type: "ReLU"
  bottom: "inception_4c/5x5_reduce"
  top: "inception_4c/5x5_reduce"
}
layer {
  name: "inception_4c/5x5"
  type: "Convolution"
  bottom: "inception_4c/5x5_reduce"
  top: "inception_4c/5x5"
  param {
    lr_mult: 1
    decay_mult: 1
  }
  param {
    lr_mult: 2
    decay_mult: 0
  }
  convolution_param {
    num_output: 64
    pad: 2
    kernel_size: 5
    weight_filler {
      type: "xavier"
      std: 0.03
    }
    bias_filler {
      type: "constant"
      value: 0.2
    }
  }
}
layer {
  name: "inception_4c/relu_5x5"
  type: "ReLU"
  bottom: "inception_4c/5x5"
  top: "inception_4c/5x5"
}
layer {
  name: "inception_4c/pool"
  type: "Pooling"
  bottom: "inception_4b/output"
  top: "inception_4c/pool"
  pooling_param {
    pool: MAX
    kernel_size: 3
    stride: 1
    pad: 1
  }
}
layer {
  name: "inception_4c/pool_proj"
  type: "Convolution"
  bottom: "inception_4c/pool"
  top: "inception_4c/pool_proj"
  param {
    lr_mult: 1
    decay_mult: 1
  }
  param {
    lr_mult: 2
    decay_mult: 0
  }
  convolution_param {
    num_output: 64
    kernel_size: 1
    weight_filler {
      type: "xavier"
      std: 0.1
    }
    bias_filler {
      type: "constant"
      value: 0.2
    }
  }
}
layer {
  name: "inception_4c/relu_pool_proj"
  type: "ReLU"
  bottom: "inception_4c/pool_proj"
  top: "inception_4c/pool_proj"
}
layer {
  name: "inception_4c/output"
  type: "Concat"
  bottom: "inception_4c/1x1"
  bottom: "inception_4c/3x3"
  bottom: "inception_4c/5x5"
  bottom: "inception_4c/pool_proj"
  top: "inception_4c/output"
}
layer {
  name: "inception_4d/1x1"
  type: "Convolution"
  bottom: "inception_4c/output"
  top: "inception_4d/1x1"
  param {
    lr_mult: 1
    decay_mult: 1
  }
  param {
    lr_mult: 2
    decay_mult: 0
  }
  convolution_param {
    num_output: 112
    kernel_size: 1
    weight_filler {
      type: "xavier"
      std: 0.03
    }
    bias_filler {
      type: "constant"
      value: 0.2
    }
  }
}
layer {
  name: "inception_4d/relu_1x1"
  type: "ReLU"
  bottom: "inception_4d/1x1"
  top: "inception_4d/1x1"
}
layer {
  name: "inception_4d/3x3_reduce"
  type: "Convolution"
  bottom: "inception_4c/output"
  top: "inception_4d/3x3_reduce"
  param {
    lr_mult: 1
    decay_mult: 1
  }
  param {
    lr_mult: 2
    decay_mult: 0
  }
  convolution_param {
    num_output: 144
    kernel_size: 1
    weight_filler {
      type: "xavier"
      std: 0.09
    }
    bias_filler {
      type: "constant"
      value: 0.2
    }
  }
}
layer {
  name: "inception_4d/relu_3x3_reduce"
  type: "ReLU"
  bottom: "inception_4d/3x3_reduce"
  top: "inception_4d/3x3_reduce"
}
layer {
  name: "inception_4d/3x3"
  type: "Convolution"
  bottom: "inception_4d/3x3_reduce"
  top: "inception_4d/3x3"
  param {
    lr_mult: 1
    decay_mult: 1
  }
  param {
    lr_mult: 2
    decay_mult: 0
  }
  convolution_param {
    num_output: 288
    pad: 1
    kernel_size: 3
    weight_filler {
      type: "xavier"
      std: 0.03
    }
    bias_filler {
      type: "constant"
      value: 0.2
    }
  }
}
layer {
  name: "inception_4d/relu_3x3"
  type: "ReLU"
  bottom: "inception_4d/3x3"
  top: "inception_4d/3x3"
}
layer {
  name: "inception_4d/5x5_reduce"
  type: "Convolution"
  bottom: "inception_4c/output"
  top: "inception_4d/5x5_reduce"
  param {
    lr_mult: 1
    decay_mult: 1
  }
  param {
    lr_mult: 2
    decay_mult: 0
  }
  convolution_param {
    num_output: 32
    kernel_size: 1
    weight_filler {
      type: "xavier"
      std: 0.2
    }
    bias_filler {
      type: "constant"
      value: 0.2
    }
  }
}
layer {
  name: "inception_4d/relu_5x5_reduce"
  type: "ReLU"
  bottom: "inception_4d/5x5_reduce"
  top: "inception_4d/5x5_reduce"
}
layer {
  name: "inception_4d/5x5"
  type: "Convolution"
  bottom: "inception_4d/5x5_reduce"
  top: "inception_4d/5x5"
  param {
    lr_mult: 1
    decay_mult: 1
  }
  param {
    lr_mult: 2
    decay_mult: 0
  }
  convolution_param {
    num_output: 64
    pad: 2
    kernel_size: 5
    weight_filler {
      type: "xavier"
      std: 0.03
    }
    bias_filler {
      type: "constant"
      value: 0.2
    }
  }
}
layer {
  name: "inception_4d/relu_5x5"
  type: "ReLU"
  bottom: "inception_4d/5x5"
  top: "inception_4d/5x5"
}
layer {
  name: "inception_4d/pool"
  type: "Pooling"
  bottom: "inception_4c/output"
  top: "inception_4d/pool"
  pooling_param {
    pool: MAX
    kernel_size: 3
    stride: 1
    pad: 1
  }
}
layer {
  name: "inception_4d/pool_proj"
  type: "Convolution"
  bottom: "inception_4d/pool"
  top: "inception_4d/pool_proj"
  param {
    lr_mult: 1
    decay_mult: 1
  }
  param {
    lr_mult: 2
    decay_mult: 0
  }
  convolution_param {
    num_output: 64
    kernel_size: 1
    weight_filler {
      type: "xavier"
      std: 0.1
    }
    bias_filler {
      type: "constant"
      value: 0.2
    }
  }
}
layer {
  name: "inception_4d/relu_pool_proj"
  type: "ReLU"
  bottom: "inception_4d/pool_proj"
  top: "inception_4d/pool_proj"
}
layer {
  name: "inception_4d/output"
  type: "Concat"
  bottom: "inception_4d/1x1"
  bottom: "inception_4d/3x3"
  bottom: "inception_4d/5x5"
  bottom: "inception_4d/pool_proj"
  top: "inception_4d/output"
}
layer {
  name: "loss2/ave_pool"
  type: "Pooling"
  bottom: "inception_4d/output"
  top: "loss2/ave_pool"
  pooling_param {
    pool: AVE
    kernel_size: 5
    stride: 3
  }
}
layer {
  name: "loss2/conv"
  type: "Convolution"
  bottom: "loss2/ave_pool"
  top: "loss2/conv"
  param {
    lr_mult: 1
    decay_mult: 1
  }
  param {
    lr_mult: 2
    decay_mult: 0
  }
  convolution_param {
    num_output: 128
    kernel_size: 1
    weight_filler {
      type: "xavier"
      std: 0.08
    }
    bias_filler {
      type: "constant"
      value: 0.2
    }
  }
}
layer {
  name: "loss2/relu_conv"
  type: "ReLU"
  bottom: "loss2/conv"
  top: "loss2/conv"
}
layer {
  name: "loss2/fc"
  type: "InnerProduct"
  bottom: "loss2/conv"
  top: "loss2/fc"
  param {
    lr_mult: 1
    decay_mult: 1
  }
  param {
    lr_mult: 2
    decay_mult: 0
  }
  inner_product_param {
    num_output: 1024
    weight_filler {
      type: "xavier"
      std: 0.02
    }
    bias_filler {
      type: "constant"
      value: 0.2
    }
  }
}
layer {
  name: "loss2/relu_fc"
  type: "ReLU"
  bottom: "loss2/fc"
  top: "loss2/fc"
}
layer {
  name: "loss2/drop_fc"
  type: "Dropout"
  bottom: "loss2/fc"
  top: "loss2/fc"
  dropout_param {
    dropout_ratio: 0.7
  }
}
layer {
  name: "loss2/classifier_plantvillage"
  type: "InnerProduct"
  bottom: "loss2/fc"
  top: "loss2/classifier_plantvillage"
  param {
    lr_mult: 1
    decay_mult: 1
  }
  param {
    lr_mult: 2
    decay_mult: 0
  }
  inner_product_param {
    num_output: 38
    weight_filler {
      type: "xavier"
      std: 0.0009765625
    }
    bias_filler {
      type: "constant"
      value: 0
    }
  }
}
layer {
  name: "inception_4e/1x1"
  type: "Convolution"
  bottom: "inception_4d/output"
  top: "inception_4e/1x1"
  param {
    lr_mult: 1
    decay_mult: 1
  }
  param {
    lr_mult: 2
    decay_mult: 0
  }
  convolution_param {
    num_output: 256
    kernel_size: 1
    weight_filler {
      type: "xavier"
      std: 0.03
    }
    bias_filler {
      type: "constant"
      value: 0.2
    }
  }
}
layer {
  name: "inception_4e/relu_1x1"
  type: "ReLU"
  bottom: "inception_4e/1x1"
  top: "inception_4e/1x1"
}
layer {
  name: "inception_4e/3x3_reduce"
  type: "Convolution"
  bottom: "inception_4d/output"
  top: "inception_4e/3x3_reduce"
  param {
    lr_mult: 1
    decay_mult: 1
  }
  param {
    lr_mult: 2
    decay_mult: 0
  }
  convolution_param {
    num_output: 160
    kernel_size: 1
    weight_filler {
      type: "xavier"
      std: 0.09
    }
    bias_filler {
      type: "constant"
      value: 0.2
    }
  }
}
layer {
  name: "inception_4e/relu_3x3_reduce"
  type: "ReLU"
  bottom: "inception_4e/3x3_reduce"
  top: "inception_4e/3x3_reduce"
}
layer {
  name: "inception_4e/3x3"
  type: "Convolution"
  bottom: "inception_4e/3x3_reduce"
  top: "inception_4e/3x3"
  param {
    lr_mult: 1
    decay_mult: 1
  }
  param {
    lr_mult: 2
    decay_mult: 0
  }
  convolution_param {
    num_output: 320
    pad: 1
    kernel_size: 3
    weight_filler {
      type: "xavier"
      std: 0.03
    }
    bias_filler {
      type: "constant"
      value: 0.2
    }
  }
}
layer {
  name: "inception_4e/relu_3x3"
  type: "ReLU"
  bottom: "inception_4e/3x3"
  top: "inception_4e/3x3"
}
layer {
  name: "inception_4e/5x5_reduce"
  type: "Convolution"
  bottom: "inception_4d/output"
  top: "inception_4e/5x5_reduce"
  param {
    lr_mult: 1
    decay_mult: 1
  }
  param {
    lr_mult: 2
    decay_mult: 0
  }
  convolution_param {
    num_output: 32
    kernel_size: 1
    weight_filler {
      type: "xavier"
      std: 0.2
    }
    bias_filler {
      type: "constant"
      value: 0.2
    }
  }
}
layer {
  name: "inception_4e/relu_5x5_reduce"
  type: "ReLU"
  bottom: "inception_4e/5x5_reduce"
  top: "inception_4e/5x5_reduce"
}
layer {
  name: "inception_4e/5x5"
  type: "Convolution"
  bottom: "inception_4e/5x5_reduce"
  top: "inception_4e/5x5"
  p
I0403 19:37:35.929595  9466 layer_factory.hpp:77] Creating layer data
I0403 19:37:35.930300  9466 net.cpp:91] Creating Layer data
I0403 19:37:35.930336  9466 net.cpp:399] data -> data
I0403 19:37:35.930392  9466 net.cpp:399] data -> label
I0403 19:37:35.930434  9466 data_transformer.cpp:25] Loading mean file from: /home/mohanty/data/final_dataset/lmdb/color-50-50/mean.binaryproto
I0403 19:37:35.934072  9469 db_lmdb.cpp:38] Opened lmdb /home/mohanty/data/final_dataset/lmdb/color-50-50/test_db
I0403 19:37:35.946161  9466 data_layer.cpp:41] output data size: 24,3,224,224
I0403 19:37:35.977856  9466 net.cpp:141] Setting up data
I0403 19:37:35.977946  9466 net.cpp:148] Top shape: 24 3 224 224 (3612672)
I0403 19:37:35.977972  9466 net.cpp:148] Top shape: 24 (24)
I0403 19:37:35.977991  9466 net.cpp:156] Memory required for data: 14450784
I0403 19:37:35.978024  9466 layer_factory.hpp:77] Creating layer label_data_1_split
I0403 19:37:35.978055  9466 net.cpp:91] Creating Layer label_data_1_split
I0403 19:37:35.978076  9466 net.cpp:425] label_data_1_split <- label
I0403 19:37:35.978114  9466 net.cpp:399] label_data_1_split -> label_data_1_split_0
I0403 19:37:35.978147  9466 net.cpp:399] label_data_1_split -> label_data_1_split_1
I0403 19:37:35.978174  9466 net.cpp:399] label_data_1_split -> label_data_1_split_2
I0403 19:37:35.978201  9466 net.cpp:399] label_data_1_split -> label_data_1_split_3
I0403 19:37:35.978224  9466 net.cpp:399] label_data_1_split -> label_data_1_split_4
I0403 19:37:35.978252  9466 net.cpp:399] label_data_1_split -> label_data_1_split_5
I0403 19:37:35.978281  9466 net.cpp:399] label_data_1_split -> label_data_1_split_6
I0403 19:37:35.978307  9466 net.cpp:399] label_data_1_split -> label_data_1_split_7
I0403 19:37:35.978330  9466 net.cpp:399] label_data_1_split -> label_data_1_split_8
I0403 19:37:35.978355  9466 net.cpp:399] label_data_1_split -> label_data_1_split_9
I0403 19:37:35.978492  9466 net.cpp:141] Setting up label_data_1_split
I0403 19:37:35.978520  9466 net.cpp:148] Top shape: 24 (24)
I0403 19:37:35.978541  9466 net.cpp:148] Top shape: 24 (24)
I0403 19:37:35.978561  9466 net.cpp:148] Top shape: 24 (24)
I0403 19:37:35.978581  9466 net.cpp:148] Top shape: 24 (24)
I0403 19:37:35.978600  9466 net.cpp:148] Top shape: 24 (24)
I0403 19:37:35.978621  9466 net.cpp:148] Top shape: 24 (24)
I0403 19:37:35.978639  9466 net.cpp:148] Top shape: 24 (24)
I0403 19:37:35.978659  9466 net.cpp:148] Top shape: 24 (24)
I0403 19:37:35.978678  9466 net.cpp:148] Top shape: 24 (24)
I0403 19:37:35.978699  9466 net.cpp:148] Top shape: 24 (24)
I0403 19:37:35.978752  9466 net.cpp:156] Memory required for data: 14451744
I0403 19:37:35.978772  9466 layer_factory.hpp:77] Creating layer conv1/7x7_s2
I0403 19:37:35.978811  9466 net.cpp:91] Creating Layer conv1/7x7_s2
I0403 19:37:35.978832  9466 net.cpp:425] conv1/7x7_s2 <- data
I0403 19:37:35.978858  9466 net.cpp:399] conv1/7x7_s2 -> conv1/7x7_s2
I0403 19:37:38.237128  9466 net.cpp:141] Setting up conv1/7x7_s2
I0403 19:37:38.237229  9466 net.cpp:148] Top shape: 24 64 112 112 (19267584)
I0403 19:37:38.237257  9466 net.cpp:156] Memory required for data: 91522080
I0403 19:37:38.237295  9466 layer_factory.hpp:77] Creating layer conv1/relu_7x7
I0403 19:37:38.237331  9466 net.cpp:91] Creating Layer conv1/relu_7x7
I0403 19:37:38.237354  9466 net.cpp:425] conv1/relu_7x7 <- conv1/7x7_s2
I0403 19:37:38.237377  9466 net.cpp:386] conv1/relu_7x7 -> conv1/7x7_s2 (in-place)
I0403 19:37:38.237709  9466 net.cpp:141] Setting up conv1/relu_7x7
I0403 19:37:38.237745  9466 net.cpp:148] Top shape: 24 64 112 112 (19267584)
I0403 19:37:38.237766  9466 net.cpp:156] Memory required for data: 168592416
I0403 19:37:38.237784  9466 layer_factory.hpp:77] Creating layer pool1/3x3_s2
I0403 19:37:38.237814  9466 net.cpp:91] Creating Layer pool1/3x3_s2
I0403 19:37:38.237836  9466 net.cpp:425] pool1/3x3_s2 <- conv1/7x7_s2
I0403 19:37:38.237861  9466 net.cpp:399] pool1/3x3_s2 -> pool1/3x3_s2
I0403 19:37:38.237953  9466 net.cpp:141] Setting up pool1/3x3_s2
I0403 19:37:38.237982  9466 net.cpp:148] Top shape: 24 64 56 56 (4816896)
I0403 19:37:38.238000  9466 net.cpp:156] Memory required for data: 187860000
I0403 19:37:38.238018  9466 layer_factory.hpp:77] Creating layer pool1/norm1
I0403 19:37:38.238051  9466 net.cpp:91] Creating Layer pool1/norm1
I0403 19:37:38.238073  9466 net.cpp:425] pool1/norm1 <- pool1/3x3_s2
I0403 19:37:38.238096  9466 net.cpp:399] pool1/norm1 -> pool1/norm1
I0403 19:37:38.238466  9466 net.cpp:141] Setting up pool1/norm1
I0403 19:37:38.238502  9466 net.cpp:148] Top shape: 24 64 56 56 (4816896)
I0403 19:37:38.238522  9466 net.cpp:156] Memory required for data: 207127584
I0403 19:37:38.238540  9466 layer_factory.hpp:77] Creating layer conv2/3x3_reduce
I0403 19:37:38.238572  9466 net.cpp:91] Creating Layer conv2/3x3_reduce
I0403 19:37:38.238593  9466 net.cpp:425] conv2/3x3_reduce <- pool1/norm1
I0403 19:37:38.238617  9466 net.cpp:399] conv2/3x3_reduce -> conv2/3x3_reduce
I0403 19:37:38.240303  9466 net.cpp:141] Setting up conv2/3x3_reduce
I0403 19:37:38.240339  9466 net.cpp:148] Top shape: 24 64 56 56 (4816896)
I0403 19:37:38.240358  9466 net.cpp:156] Memory required for data: 226395168
I0403 19:37:38.240384  9466 layer_factory.hpp:77] Creating layer conv2/relu_3x3_reduce
I0403 19:37:38.240411  9466 net.cpp:91] Creating Layer conv2/relu_3x3_reduce
I0403 19:37:38.240432  9466 net.cpp:425] conv2/relu_3x3_reduce <- conv2/3x3_reduce
I0403 19:37:38.240454  9466 net.cpp:386] conv2/relu_3x3_reduce -> conv2/3x3_reduce (in-place)
I0403 19:37:38.240774  9466 net.cpp:141] Setting up conv2/relu_3x3_reduce
I0403 19:37:38.240806  9466 net.cpp:148] Top shape: 24 64 56 56 (4816896)
I0403 19:37:38.240824  9466 net.cpp:156] Memory required for data: 245662752
I0403 19:37:38.240842  9466 layer_factory.hpp:77] Creating layer conv2/3x3
I0403 19:37:38.240871  9466 net.cpp:91] Creating Layer conv2/3x3
I0403 19:37:38.240892  9466 net.cpp:425] conv2/3x3 <- conv2/3x3_reduce
I0403 19:37:38.240921  9466 net.cpp:399] conv2/3x3 -> conv2/3x3
I0403 19:37:38.243639  9466 net.cpp:141] Setting up conv2/3x3
I0403 19:37:38.243676  9466 net.cpp:148] Top shape: 24 192 56 56 (14450688)
I0403 19:37:38.243696  9466 net.cpp:156] Memory required for data: 303465504
I0403 19:37:38.243723  9466 layer_factory.hpp:77] Creating layer conv2/relu_3x3
I0403 19:37:38.243749  9466 net.cpp:91] Creating Layer conv2/relu_3x3
I0403 19:37:38.243768  9466 net.cpp:425] conv2/relu_3x3 <- conv2/3x3
I0403 19:37:38.243789  9466 net.cpp:386] conv2/relu_3x3 -> conv2/3x3 (in-place)
I0403 19:37:38.244004  9466 net.cpp:141] Setting up conv2/relu_3x3
I0403 19:37:38.244037  9466 net.cpp:148] Top shape: 24 192 56 56 (14450688)
I0403 19:37:38.244092  9466 net.cpp:156] Memory required for data: 361268256
I0403 19:37:38.244112  9466 layer_factory.hpp:77] Creating layer conv2/norm2
I0403 19:37:38.244134  9466 net.cpp:91] Creating Layer conv2/norm2
I0403 19:37:38.244153  9466 net.cpp:425] conv2/norm2 <- conv2/3x3
I0403 19:37:38.244177  9466 net.cpp:399] conv2/norm2 -> conv2/norm2
I0403 19:37:38.244648  9466 net.cpp:141] Setting up conv2/norm2
I0403 19:37:38.244683  9466 net.cpp:148] Top shape: 24 192 56 56 (14450688)
I0403 19:37:38.244701  9466 net.cpp:156] Memory required for data: 419071008
I0403 19:37:38.244719  9466 layer_factory.hpp:77] Creating layer pool2/3x3_s2
I0403 19:37:38.244741  9466 net.cpp:91] Creating Layer pool2/3x3_s2
I0403 19:37:38.244760  9466 net.cpp:425] pool2/3x3_s2 <- conv2/norm2
I0403 19:37:38.244786  9466 net.cpp:399] pool2/3x3_s2 -> pool2/3x3_s2
I0403 19:37:38.244853  9466 net.cpp:141] Setting up pool2/3x3_s2
I0403 19:37:38.244881  9466 net.cpp:148] Top shape: 24 192 28 28 (3612672)
I0403 19:37:38.244900  9466 net.cpp:156] Memory required for data: 433521696
I0403 19:37:38.244918  9466 layer_factory.hpp:77] Creating layer pool2/3x3_s2_pool2/3x3_s2_0_split
I0403 19:37:38.244942  9466 net.cpp:91] Creating Layer pool2/3x3_s2_pool2/3x3_s2_0_split
I0403 19:37:38.244961  9466 net.cpp:425] pool2/3x3_s2_pool2/3x3_s2_0_split <- pool2/3x3_s2
I0403 19:37:38.244987  9466 net.cpp:399] pool2/3x3_s2_pool2/3x3_s2_0_split -> pool2/3x3_s2_pool2/3x3_s2_0_split_0
I0403 19:37:38.245013  9466 net.cpp:399] pool2/3x3_s2_pool2/3x3_s2_0_split -> pool2/3x3_s2_pool2/3x3_s2_0_split_1
I0403 19:37:38.245038  9466 net.cpp:399] pool2/3x3_s2_pool2/3x3_s2_0_split -> pool2/3x3_s2_pool2/3x3_s2_0_split_2
I0403 19:37:38.245061  9466 net.cpp:399] pool2/3x3_s2_pool2/3x3_s2_0_split -> pool2/3x3_s2_pool2/3x3_s2_0_split_3
I0403 19:37:38.245149  9466 net.cpp:141] Setting up pool2/3x3_s2_pool2/3x3_s2_0_split
I0403 19:37:38.245177  9466 net.cpp:148] Top shape: 24 192 28 28 (3612672)
I0403 19:37:38.245201  9466 net.cpp:148] Top shape: 24 192 28 28 (3612672)
I0403 19:37:38.245220  9466 net.cpp:148] Top shape: 24 192 28 28 (3612672)
I0403 19:37:38.245245  9466 net.cpp:148] Top shape: 24 192 28 28 (3612672)
I0403 19:37:38.245265  9466 net.cpp:156] Memory required for data: 491324448
I0403 19:37:38.245282  9466 layer_factory.hpp:77] Creating layer inception_3a/1x1
I0403 19:37:38.245307  9466 net.cpp:91] Creating Layer inception_3a/1x1
I0403 19:37:38.245327  9466 net.cpp:425] inception_3a/1x1 <- pool2/3x3_s2_pool2/3x3_s2_0_split_0
I0403 19:37:38.245353  9466 net.cpp:399] inception_3a/1x1 -> inception_3a/1x1
I0403 19:37:38.247210  9466 net.cpp:141] Setting up inception_3a/1x1
I0403 19:37:38.247249  9466 net.cpp:148] Top shape: 24 64 28 28 (1204224)
I0403 19:37:38.247270  9466 net.cpp:156] Memory required for data: 496141344
I0403 19:37:38.247293  9466 layer_factory.hpp:77] Creating layer inception_3a/relu_1x1
I0403 19:37:38.247318  9466 net.cpp:91] Creating Layer inception_3a/relu_1x1
I0403 19:37:38.247339  9466 net.cpp:425] inception_3a/relu_1x1 <- inception_3a/1x1
I0403 19:37:38.247361  9466 net.cpp:386] inception_3a/relu_1x1 -> inception_3a/1x1 (in-place)
I0403 19:37:38.247576  9466 net.cpp:141] Setting up inception_3a/relu_1x1
I0403 19:37:38.247607  9466 net.cpp:148] Top shape: 24 64 28 28 (1204224)
I0403 19:37:38.247625  9466 net.cpp:156] Memory required for data: 500958240
I0403 19:37:38.247643  9466 layer_factory.hpp:77] Creating layer inception_3a/3x3_reduce
I0403 19:37:38.247673  9466 net.cpp:91] Creating Layer inception_3a/3x3_reduce
I0403 19:37:38.247694  9466 net.cpp:425] inception_3a/3x3_reduce <- pool2/3x3_s2_pool2/3x3_s2_0_split_1
I0403 19:37:38.247720  9466 net.cpp:399] inception_3a/3x3_reduce -> inception_3a/3x3_reduce
I0403 19:37:38.249743  9466 net.cpp:141] Setting up inception_3a/3x3_reduce
I0403 19:37:38.249778  9466 net.cpp:148] Top shape: 24 96 28 28 (1806336)
I0403 19:37:38.249799  9466 net.cpp:156] Memory required for data: 508183584
I0403 19:37:38.249825  9466 layer_factory.hpp:77] Creating layer inception_3a/relu_3x3_reduce
I0403 19:37:38.249873  9466 net.cpp:91] Creating Layer inception_3a/relu_3x3_reduce
I0403 19:37:38.249897  9466 net.cpp:425] inception_3a/relu_3x3_reduce <- inception_3a/3x3_reduce
I0403 19:37:38.249920  9466 net.cpp:386] inception_3a/relu_3x3_reduce -> inception_3a/3x3_reduce (in-place)
I0403 19:37:38.250146  9466 net.cpp:141] Setting up inception_3a/relu_3x3_reduce
I0403 19:37:38.250179  9466 net.cpp:148] Top shape: 24 96 28 28 (1806336)
I0403 19:37:38.250196  9466 net.cpp:156] Memory required for data: 515408928
I0403 19:37:38.250214  9466 layer_factory.hpp:77] Creating layer inception_3a/3x3
I0403 19:37:38.250247  9466 net.cpp:91] Creating Layer inception_3a/3x3
I0403 19:37:38.250269  9466 net.cpp:425] inception_3a/3x3 <- inception_3a/3x3_reduce
I0403 19:37:38.250298  9466 net.cpp:399] inception_3a/3x3 -> inception_3a/3x3
I0403 19:37:38.252307  9466 net.cpp:141] Setting up inception_3a/3x3
I0403 19:37:38.252342  9466 net.cpp:148] Top shape: 24 128 28 28 (2408448)
I0403 19:37:38.252363  9466 net.cpp:156] Memory required for data: 525042720
I0403 19:37:38.252385  9466 layer_factory.hpp:77] Creating layer inception_3a/relu_3x3
I0403 19:37:38.252409  9466 net.cpp:91] Creating Layer inception_3a/relu_3x3
I0403 19:37:38.252429  9466 net.cpp:425] inception_3a/relu_3x3 <- inception_3a/3x3
I0403 19:37:38.252451  9466 net.cpp:386] inception_3a/relu_3x3 -> inception_3a/3x3 (in-place)
I0403 19:37:38.252782  9466 net.cpp:141] Setting up inception_3a/relu_3x3
I0403 19:37:38.252815  9466 net.cpp:148] Top shape: 24 128 28 28 (2408448)
I0403 19:37:38.252835  9466 net.cpp:156] Memory required for data: 534676512
I0403 19:37:38.252853  9466 layer_factory.hpp:77] Creating layer inception_3a/5x5_reduce
I0403 19:37:38.252882  9466 net.cpp:91] Creating Layer inception_3a/5x5_reduce
I0403 19:37:38.252904  9466 net.cpp:425] inception_3a/5x5_reduce <- pool2/3x3_s2_pool2/3x3_s2_0_split_2
I0403 19:37:38.252933  9466 net.cpp:399] inception_3a/5x5_reduce -> inception_3a/5x5_reduce
I0403 19:37:38.254108  9466 net.cpp:141] Setting up inception_3a/5x5_reduce
I0403 19:37:38.254148  9466 net.cpp:148] Top shape: 24 16 28 28 (301056)
I0403 19:37:38.254168  9466 net.cpp:156] Memory required for data: 535880736
I0403 19:37:38.254189  9466 layer_factory.hpp:77] Creating layer inception_3a/relu_5x5_reduce
I0403 19:37:38.254211  9466 net.cpp:91] Creating Layer inception_3a/relu_5x5_reduce
I0403 19:37:38.254230  9466 net.cpp:425] inception_3a/relu_5x5_reduce <- inception_3a/5x5_reduce
I0403 19:37:38.254258  9466 net.cpp:386] inception_3a/relu_5x5_reduce -> inception_3a/5x5_reduce (in-place)
I0403 19:37:38.254608  9466 net.cpp:141] Setting up inception_3a/relu_5x5_reduce
I0403 19:37:38.254643  9466 net.cpp:148] Top shape: 24 16 28 28 (301056)
I0403 19:37:38.254662  9466 net.cpp:156] Memory required for data: 537084960
I0403 19:37:38.254681  9466 layer_factory.hpp:77] Creating layer inception_3a/5x5
I0403 19:37:38.254708  9466 net.cpp:91] Creating Layer inception_3a/5x5
I0403 19:37:38.254729  9466 net.cpp:425] inception_3a/5x5 <- inception_3a/5x5_reduce
I0403 19:37:38.254755  9466 net.cpp:399] inception_3a/5x5 -> inception_3a/5x5
I0403 19:37:38.255975  9466 net.cpp:141] Setting up inception_3a/5x5
I0403 19:37:38.256008  9466 net.cpp:148] Top shape: 24 32 28 28 (602112)
I0403 19:37:38.256027  9466 net.cpp:156] Memory required for data: 539493408
I0403 19:37:38.256050  9466 layer_factory.hpp:77] Creating layer inception_3a/relu_5x5
I0403 19:37:38.256075  9466 net.cpp:91] Creating Layer inception_3a/relu_5x5
I0403 19:37:38.256095  9466 net.cpp:425] inception_3a/relu_5x5 <- inception_3a/5x5
I0403 19:37:38.256117  9466 net.cpp:386] inception_3a/relu_5x5 -> inception_3a/5x5 (in-place)
I0403 19:37:38.256335  9466 net.cpp:141] Setting up inception_3a/relu_5x5
I0403 19:37:38.256369  9466 net.cpp:148] Top shape: 24 32 28 28 (602112)
I0403 19:37:38.256392  9466 net.cpp:156] Memory required for data: 541901856
I0403 19:37:38.256410  9466 layer_factory.hpp:77] Creating layer inception_3a/pool
I0403 19:37:38.256433  9466 net.cpp:91] Creating Layer inception_3a/pool
I0403 19:37:38.256453  9466 net.cpp:425] inception_3a/pool <- pool2/3x3_s2_pool2/3x3_s2_0_split_3
I0403 19:37:38.256500  9466 net.cpp:399] inception_3a/pool -> inception_3a/pool
I0403 19:37:38.256572  9466 net.cpp:141] Setting up inception_3a/pool
I0403 19:37:38.256602  9466 net.cpp:148] Top shape: 24 192 28 28 (3612672)
I0403 19:37:38.256620  9466 net.cpp:156] Memory required for data: 556352544
I0403 19:37:38.256639  9466 layer_factory.hpp:77] Creating layer inception_3a/pool_proj
I0403 19:37:38.256666  9466 net.cpp:91] Creating Layer inception_3a/pool_proj
I0403 19:37:38.256688  9466 net.cpp:425] inception_3a/pool_proj <- inception_3a/pool
I0403 19:37:38.256713  9466 net.cpp:399] inception_3a/pool_proj -> inception_3a/pool_proj
I0403 19:37:38.257877  9466 net.cpp:141] Setting up inception_3a/pool_proj
I0403 19:37:38.257911  9466 net.cpp:148] Top shape: 24 32 28 28 (602112)
I0403 19:37:38.257931  9466 net.cpp:156] Memory required for data: 558760992
I0403 19:37:38.257963  9466 layer_factory.hpp:77] Creating layer inception_3a/relu_pool_proj
I0403 19:37:38.257987  9466 net.cpp:91] Creating Layer inception_3a/relu_pool_proj
I0403 19:37:38.258008  9466 net.cpp:425] inception_3a/relu_pool_proj <- inception_3a/pool_proj
I0403 19:37:38.258028  9466 net.cpp:386] inception_3a/relu_pool_proj -> inception_3a/pool_proj (in-place)
I0403 19:37:38.258359  9466 net.cpp:141] Setting up inception_3a/relu_pool_proj
I0403 19:37:38.258394  9466 net.cpp:148] Top shape: 24 32 28 28 (602112)
I0403 19:37:38.258411  9466 net.cpp:156] Memory required for data: 561169440
I0403 19:37:38.258432  9466 layer_factory.hpp:77] Creating layer inception_3a/output
I0403 19:37:38.258458  9466 net.cpp:91] Creating Layer inception_3a/output
I0403 19:37:38.258478  9466 net.cpp:425] inception_3a/output <- inception_3a/1x1
I0403 19:37:38.258499  9466 net.cpp:425] inception_3a/output <- inception_3a/3x3
I0403 19:37:38.258518  9466 net.cpp:425] inception_3a/output <- inception_3a/5x5
I0403 19:37:38.258538  9466 net.cpp:425] inception_3a/output <- inception_3a/pool_proj
I0403 19:37:38.258561  9466 net.cpp:399] inception_3a/output -> inception_3a/output
I0403 19:37:38.258620  9466 net.cpp:141] Setting up inception_3a/output
I0403 19:37:38.258649  9466 net.cpp:148] Top shape: 24 256 28 28 (4816896)
I0403 19:37:38.258668  9466 net.cpp:156] Memory required for data: 580437024
I0403 19:37:38.258687  9466 layer_factory.hpp:77] Creating layer inception_3a/output_inception_3a/output_0_split
I0403 19:37:38.258709  9466 net.cpp:91] Creating Layer inception_3a/output_inception_3a/output_0_split
I0403 19:37:38.258728  9466 net.cpp:425] inception_3a/output_inception_3a/output_0_split <- inception_3a/output
I0403 19:37:38.258752  9466 net.cpp:399] inception_3a/output_inception_3a/output_0_split -> inception_3a/output_inception_3a/output_0_split_0
I0403 19:37:38.258779  9466 net.cpp:399] inception_3a/output_inception_3a/output_0_split -> inception_3a/output_inception_3a/output_0_split_1
I0403 19:37:38.258805  9466 net.cpp:399] inception_3a/output_inception_3a/output_0_split -> inception_3a/output_inception_3a/output_0_split_2
I0403 19:37:38.258834  9466 net.cpp:399] inception_3a/output_inception_3a/output_0_split -> inception_3a/output_inception_3a/output_0_split_3
I0403 19:37:38.258927  9466 net.cpp:141] Setting up inception_3a/output_inception_3a/output_0_split
I0403 19:37:38.258955  9466 net.cpp:148] Top shape: 24 256 28 28 (4816896)
I0403 19:37:38.258976  9466 net.cpp:148] Top shape: 24 256 28 28 (4816896)
I0403 19:37:38.258996  9466 net.cpp:148] Top shape: 24 256 28 28 (4816896)
I0403 19:37:38.259016  9466 net.cpp:148] Top shape: 24 256 28 28 (4816896)
I0403 19:37:38.259033  9466 net.cpp:156] Memory required for data: 657507360
I0403 19:37:38.259052  9466 layer_factory.hpp:77] Creating layer inception_3b/1x1
I0403 19:37:38.259078  9466 net.cpp:91] Creating Layer inception_3b/1x1
I0403 19:37:38.259100  9466 net.cpp:425] inception_3b/1x1 <- inception_3a/output_inception_3a/output_0_split_0
I0403 19:37:38.259126  9466 net.cpp:399] inception_3b/1x1 -> inception_3b/1x1
I0403 19:37:38.260547  9466 net.cpp:141] Setting up inception_3b/1x1
I0403 19:37:38.260596  9466 net.cpp:148] Top shape: 24 128 28 28 (2408448)
I0403 19:37:38.260617  9466 net.cpp:156] Memory required for data: 667141152
I0403 19:37:38.260640  9466 layer_factory.hpp:77] Creating layer inception_3b/relu_1x1
I0403 19:37:38.260661  9466 net.cpp:91] Creating Layer inception_3b/relu_1x1
I0403 19:37:38.260680  9466 net.cpp:425] inception_3b/relu_1x1 <- inception_3b/1x1
I0403 19:37:38.260705  9466 net.cpp:386] inception_3b/relu_1x1 -> inception_3b/1x1 (in-place)
I0403 19:37:38.260926  9466 net.cpp:141] Setting up inception_3b/relu_1x1
I0403 19:37:38.260957  9466 net.cpp:148] Top shape: 24 128 28 28 (2408448)
I0403 19:37:38.260977  9466 net.cpp:156] Memory required for data: 676774944
I0403 19:37:38.260994  9466 layer_factory.hpp:77] Creating layer inception_3b/3x3_reduce
I0403 19:37:38.261023  9466 net.cpp:91] Creating Layer inception_3b/3x3_reduce
I0403 19:37:38.261045  9466 net.cpp:425] inception_3b/3x3_reduce <- inception_3a/output_inception_3a/output_0_split_1
I0403 19:37:38.261071  9466 net.cpp:399] inception_3b/3x3_reduce -> inception_3b/3x3_reduce
I0403 19:37:38.262536  9466 net.cpp:141] Setting up inception_3b/3x3_reduce
I0403 19:37:38.262572  9466 net.cpp:148] Top shape: 24 128 28 28 (2408448)
I0403 19:37:38.262591  9466 net.cpp:156] Memory required for data: 686408736
I0403 19:37:38.262615  9466 layer_factory.hpp:77] Creating layer inception_3b/relu_3x3_reduce
I0403 19:37:38.262641  9466 net.cpp:91] Creating Layer inception_3b/relu_3x3_reduce
I0403 19:37:38.262662  9466 net.cpp:425] inception_3b/relu_3x3_reduce <- inception_3b/3x3_reduce
I0403 19:37:38.262683  9466 net.cpp:386] inception_3b/relu_3x3_reduce -> inception_3b/3x3_reduce (in-place)
I0403 19:37:38.262895  9466 net.cpp:141] Setting up inception_3b/relu_3x3_reduce
I0403 19:37:38.262926  9466 net.cpp:148] Top shape: 24 128 28 28 (2408448)
I0403 19:37:38.262944  9466 net.cpp:156] Memory required for data: 696042528
I0403 19:37:38.262962  9466 layer_factory.hpp:77] Creating layer inception_3b/3x3
I0403 19:37:38.262995  9466 net.cpp:91] Creating Layer inception_3b/3x3
I0403 19:37:38.263017  9466 net.cpp:425] inception_3b/3x3 <- inception_3b/3x3_reduce
I0403 19:37:38.263041  9466 net.cpp:399] inception_3b/3x3 -> inception_3b/3x3
I0403 19:37:38.266568  9466 net.cpp:141] Setting up inception_3b/3x3
I0403 19:37:38.266604  9466 net.cpp:148] Top shape: 24 192 28 28 (3612672)
I0403 19:37:38.266624  9466 net.cpp:156] Memory required for data: 710493216
I0403 19:37:38.266646  9466 layer_factory.hpp:77] Creating layer inception_3b/relu_3x3
I0403 19:37:38.266671  9466 net.cpp:91] Creating Layer inception_3b/relu_3x3
I0403 19:37:38.266692  9466 net.cpp:425] inception_3b/relu_3x3 <- inception_3b/3x3
I0403 19:37:38.266715  9466 net.cpp:386] inception_3b/relu_3x3 -> inception_3b/3x3 (in-place)
I0403 19:37:38.267050  9466 net.cpp:141] Setting up inception_3b/relu_3x3
I0403 19:37:38.267082  9466 net.cpp:148] Top shape: 24 192 28 28 (3612672)
I0403 19:37:38.267101  9466 net.cpp:156] Memory required for data: 724943904
I0403 19:37:38.267118  9466 layer_factory.hpp:77] Creating layer inception_3b/5x5_reduce
I0403 19:37:38.267148  9466 net.cpp:91] Creating Layer inception_3b/5x5_reduce
I0403 19:37:38.267168  9466 net.cpp:425] inception_3b/5x5_reduce <- inception_3a/output_inception_3a/output_0_split_2
I0403 19:37:38.267196  9466 net.cpp:399] inception_3b/5x5_reduce -> inception_3b/5x5_reduce
I0403 19:37:38.268404  9466 net.cpp:141] Setting up inception_3b/5x5_reduce
I0403 19:37:38.268440  9466 net.cpp:148] Top shape: 24 32 28 28 (602112)
I0403 19:37:38.268458  9466 net.cpp:156] Memory required for data: 727352352
I0403 19:37:38.268481  9466 layer_factory.hpp:77] Creating layer inception_3b/relu_5x5_reduce
I0403 19:37:38.268507  9466 net.cpp:91] Creating Layer inception_3b/relu_5x5_reduce
I0403 19:37:38.268527  9466 net.cpp:425] inception_3b/relu_5x5_reduce <- inception_3b/5x5_reduce
I0403 19:37:38.268549  9466 net.cpp:386] inception_3b/relu_5x5_reduce -> inception_3b/5x5_reduce (in-place)
I0403 19:37:38.268767  9466 net.cpp:141] Setting up inception_3b/relu_5x5_reduce
I0403 19:37:38.268816  9466 net.cpp:148] Top shape: 24 32 28 28 (602112)
I0403 19:37:38.268836  9466 net.cpp:156] Memory required for data: 729760800
I0403 19:37:38.268856  9466 layer_factory.hpp:77] Creating layer inception_3b/5x5
I0403 19:37:38.268883  9466 net.cpp:91] Creating Layer inception_3b/5x5
I0403 19:37:38.268905  9466 net.cpp:425] inception_3b/5x5 <- inception_3b/5x5_reduce
I0403 19:37:38.268929  9466 net.cpp:399] inception_3b/5x5 -> inception_3b/5x5
I0403 19:37:38.271306  9466 net.cpp:141] Setting up inception_3b/5x5
I0403 19:37:38.271342  9466 net.cpp:148] Top shape: 24 96 28 28 (1806336)
I0403 19:37:38.271363  9466 net.cpp:156] Memory required for data: 736986144
I0403 19:37:38.271385  9466 layer_factory.hpp:77] Creating layer inception_3b/relu_5x5
I0403 19:37:38.271411  9466 net.cpp:91] Creating Layer inception_3b/relu_5x5
I0403 19:37:38.271433  9466 net.cpp:425] inception_3b/relu_5x5 <- inception_3b/5x5
I0403 19:37:38.271456  9466 net.cpp:386] inception_3b/relu_5x5 -> inception_3b/5x5 (in-place)
I0403 19:37:38.271689  9466 net.cpp:141] Setting up inception_3b/relu_5x5
I0403 19:37:38.271723  9466 net.cpp:148] Top shape: 24 96 28 28 (1806336)
I0403 19:37:38.271742  9466 net.cpp:156] Memory required for data: 744211488
I0403 19:37:38.271760  9466 layer_factory.hpp:77] Creating layer inception_3b/pool
I0403 19:37:38.271782  9466 net.cpp:91] Creating Layer inception_3b/pool
I0403 19:37:38.271801  9466 net.cpp:425] inception_3b/pool <- inception_3a/output_inception_3a/output_0_split_3
I0403 19:37:38.271824  9466 net.cpp:399] inception_3b/pool -> inception_3b/pool
I0403 19:37:38.271894  9466 net.cpp:141] Setting up inception_3b/pool
I0403 19:37:38.271924  9466 net.cpp:148] Top shape: 24 256 28 28 (4816896)
I0403 19:37:38.271945  9466 net.cpp:156] Memory required for data: 763479072
I0403 19:37:38.271965  9466 layer_factory.hpp:77] Creating layer inception_3b/pool_proj
I0403 19:37:38.271992  9466 net.cpp:91] Creating Layer inception_3b/pool_proj
I0403 19:37:38.272013  9466 net.cpp:425] inception_3b/pool_proj <- inception_3b/pool
I0403 19:37:38.272039  9466 net.cpp:399] inception_3b/pool_proj -> inception_3b/pool_proj
I0403 19:37:38.273324  9466 net.cpp:141] Setting up inception_3b/pool_proj
I0403 19:37:38.273360  9466 net.cpp:148] Top shape: 24 64 28 28 (1204224)
I0403 19:37:38.273381  9466 net.cpp:156] Memory required for data: 768295968
I0403 19:37:38.273403  9466 layer_factory.hpp:77] Creating layer inception_3b/relu_pool_proj
I0403 19:37:38.273424  9466 net.cpp:91] Creating Layer inception_3b/relu_pool_proj
I0403 19:37:38.273443  9466 net.cpp:425] inception_3b/relu_pool_proj <- inception_3b/pool_proj
I0403 19:37:38.273468  9466 net.cpp:386] inception_3b/relu_pool_proj -> inception_3b/pool_proj (in-place)
I0403 19:37:38.273927  9466 net.cpp:141] Setting up inception_3b/relu_pool_proj
I0403 19:37:38.273963  9466 net.cpp:148] Top shape: 24 64 28 28 (1204224)
I0403 19:37:38.273983  9466 net.cpp:156] Memory required for data: 773112864
I0403 19:37:38.274003  9466 layer_factory.hpp:77] Creating layer inception_3b/output
I0403 19:37:38.274024  9466 net.cpp:91] Creating Layer inception_3b/output
I0403 19:37:38.274042  9466 net.cpp:425] inception_3b/output <- inception_3b/1x1
I0403 19:37:38.274063  9466 net.cpp:425] inception_3b/output <- inception_3b/3x3
I0403 19:37:38.274082  9466 net.cpp:425] inception_3b/output <- inception_3b/5x5
I0403 19:37:38.274101  9466 net.cpp:425] inception_3b/output <- inception_3b/pool_proj
I0403 19:37:38.274122  9466 net.cpp:399] inception_3b/output -> inception_3b/output
I0403 19:37:38.274178  9466 net.cpp:141] Setting up inception_3b/output
I0403 19:37:38.274209  9466 net.cpp:148] Top shape: 24 480 28 28 (9031680)
I0403 19:37:38.274226  9466 net.cpp:156] Memory required for data: 809239584
I0403 19:37:38.274250  9466 layer_factory.hpp:77] Creating layer pool3/3x3_s2
I0403 19:37:38.274276  9466 net.cpp:91] Creating Layer pool3/3x3_s2
I0403 19:37:38.274296  9466 net.cpp:425] pool3/3x3_s2 <- inception_3b/output
I0403 19:37:38.274317  9466 net.cpp:399] pool3/3x3_s2 -> pool3/3x3_s2
I0403 19:37:38.274410  9466 net.cpp:141] Setting up pool3/3x3_s2
I0403 19:37:38.274438  9466 net.cpp:148] Top shape: 24 480 14 14 (2257920)
I0403 19:37:38.274456  9466 net.cpp:156] Memory required for data: 818271264
I0403 19:37:38.274473  9466 layer_factory.hpp:77] Creating layer pool3/3x3_s2_pool3/3x3_s2_0_split
I0403 19:37:38.274495  9466 net.cpp:91] Creating Layer pool3/3x3_s2_pool3/3x3_s2_0_split
I0403 19:37:38.274513  9466 net.cpp:425] pool3/3x3_s2_pool3/3x3_s2_0_split <- pool3/3x3_s2
I0403 19:37:38.274536  9466 net.cpp:399] pool3/3x3_s2_pool3/3x3_s2_0_split -> pool3/3x3_s2_pool3/3x3_s2_0_split_0
I0403 19:37:38.274561  9466 net.cpp:399] pool3/3x3_s2_pool3/3x3_s2_0_split -> pool3/3x3_s2_pool3/3x3_s2_0_split_1
I0403 19:37:38.274585  9466 net.cpp:399] pool3/3x3_s2_pool3/3x3_s2_0_split -> pool3/3x3_s2_pool3/3x3_s2_0_split_2
I0403 19:37:38.274608  9466 net.cpp:399] pool3/3x3_s2_pool3/3x3_s2_0_split -> pool3/3x3_s2_pool3/3x3_s2_0_split_3
I0403 19:37:38.274700  9466 net.cpp:141] Setting up pool3/3x3_s2_pool3/3x3_s2_0_split
I0403 19:37:38.274734  9466 net.cpp:148] Top shape: 24 480 14 14 (2257920)
I0403 19:37:38.274755  9466 net.cpp:148] Top shape: 24 480 14 14 (2257920)
I0403 19:37:38.274775  9466 net.cpp:148] Top shape: 24 480 14 14 (2257920)
I0403 19:37:38.274793  9466 net.cpp:148] Top shape: 24 480 14 14 (2257920)
I0403 19:37:38.274811  9466 net.cpp:156] Memory required for data: 854397984
I0403 19:37:38.274829  9466 layer_factory.hpp:77] Creating layer inception_4a/1x1
I0403 19:37:38.274857  9466 net.cpp:91] Creating Layer inception_4a/1x1
I0403 19:37:38.274876  9466 net.cpp:425] inception_4a/1x1 <- pool3/3x3_s2_pool3/3x3_s2_0_split_0
I0403 19:37:38.274899  9466 net.cpp:399] inception_4a/1x1 -> inception_4a/1x1
I0403 19:37:38.276816  9466 net.cpp:141] Setting up inception_4a/1x1
I0403 19:37:38.276854  9466 net.cpp:148] Top shape: 24 192 14 14 (903168)
I0403 19:37:38.276873  9466 net.cpp:156] Memory required for data: 858010656
I0403 19:37:38.276896  9466 layer_factory.hpp:77] Creating layer inception_4a/relu_1x1
I0403 19:37:38.276918  9466 net.cpp:91] Creating Layer inception_4a/relu_1x1
I0403 19:37:38.276937  9466 net.cpp:425] inception_4a/relu_1x1 <- inception_4a/1x1
I0403 19:37:38.276960  9466 net.cpp:386] inception_4a/relu_1x1 -> inception_4a/1x1 (in-place)
I0403 19:37:38.277175  9466 net.cpp:141] Setting up inception_4a/relu_1x1
I0403 19:37:38.277209  9466 net.cpp:148] Top shape: 24 192 14 14 (903168)
I0403 19:37:38.277226  9466 net.cpp:156] Memory required for data: 861623328
I0403 19:37:38.277250  9466 layer_factory.hpp:77] Creating layer inception_4a/3x3_reduce
I0403 19:37:38.277277  9466 net.cpp:91] Creating Layer inception_4a/3x3_reduce
I0403 19:37:38.277300  9466 net.cpp:425] inception_4a/3x3_reduce <- pool3/3x3_s2_pool3/3x3_s2_0_split_1
I0403 19:37:38.277326  9466 net.cpp:399] inception_4a/3x3_reduce -> inception_4a/3x3_reduce
I0403 19:37:38.278885  9466 net.cpp:141] Setting up inception_4a/3x3_reduce
I0403 19:37:38.278919  9466 net.cpp:148] Top shape: 24 96 14 14 (451584)
I0403 19:37:38.278939  9466 net.cpp:156] Memory required for data: 863429664
I0403 19:37:38.278967  9466 layer_factory.hpp:77] Creating layer inception_4a/relu_3x3_reduce
I0403 19:37:38.278993  9466 net.cpp:91] Creating Layer inception_4a/relu_3x3_reduce
I0403 19:37:38.279013  9466 net.cpp:425] inception_4a/relu_3x3_reduce <- inception_4a/3x3_reduce
I0403 19:37:38.279036  9466 net.cpp:386] inception_4a/relu_3x3_reduce -> inception_4a/3x3_reduce (in-place)
I0403 19:37:38.279260  9466 net.cpp:141] Setting up inception_4a/relu_3x3_reduce
I0403 19:37:38.279291  9466 net.cpp:148] Top shape: 24 96 14 14 (451584)
I0403 19:37:38.279309  9466 net.cpp:156] Memory required for data: 865236000
I0403 19:37:38.279327  9466 layer_factory.hpp:77] Creating layer inception_4a/3x3
I0403 19:37:38.279353  9466 net.cpp:91] Creating Layer inception_4a/3x3
I0403 19:37:38.279376  9466 net.cpp:425] inception_4a/3x3 <- inception_4a/3x3_reduce
I0403 19:37:38.279402  9466 net.cpp:399] inception_4a/3x3 -> inception_4a/3x3
I0403 19:37:38.282645  9466 net.cpp:141] Setting up inception_4a/3x3
I0403 19:37:38.282681  9466 net.cpp:148] Top shape: 24 208 14 14 (978432)
I0403 19:37:38.282702  9466 net.cpp:156] Memory required for data: 869149728
I0403 19:37:38.282727  9466 layer_factory.hpp:77] Creating layer inception_4a/relu_3x3
I0403 19:37:38.282753  9466 net.cpp:91] Creating Layer inception_4a/relu_3x3
I0403 19:37:38.282774  9466 net.cpp:425] inception_4a/relu_3x3 <- inception_4a/3x3
I0403 19:37:38.282796  9466 net.cpp:386] inception_4a/relu_3x3 -> inception_4a/3x3 (in-place)
I0403 19:37:38.283134  9466 net.cpp:141] Setting up inception_4a/relu_3x3
I0403 19:37:38.283166  9466 net.cpp:148] Top shape: 24 208 14 14 (978432)
I0403 19:37:38.283185  9466 net.cpp:156] Memory required for data: 873063456
I0403 19:37:38.283205  9466 layer_factory.hpp:77] Creating layer inception_4a/5x5_reduce
I0403 19:37:38.283236  9466 net.cpp:91] Creating Layer inception_4a/5x5_reduce
I0403 19:37:38.283264  9466 net.cpp:425] inception_4a/5x5_reduce <- pool3/3x3_s2_pool3/3x3_s2_0_split_2
I0403 19:37:38.283293  9466 net.cpp:399] inception_4a/5x5_reduce -> inception_4a/5x5_reduce
I0403 19:37:38.284523  9466 net.cpp:141] Setting up inception_4a/5x5_reduce
I0403 19:37:38.284556  9466 net.cpp:148] Top shape: 24 16 14 14 (75264)
I0403 19:37:38.284577  9466 net.cpp:156] Memory required for data: 873364512
I0403 19:37:38.284600  9466 layer_factory.hpp:77] Creating layer inception_4a/relu_5x5_reduce
I0403 19:37:38.284626  9466 net.cpp:91] Creating Layer inception_4a/relu_5x5_reduce
I0403 19:37:38.284646  9466 net.cpp:425] inception_4a/relu_5x5_reduce <- inception_4a/5x5_reduce
I0403 19:37:38.284667  9466 net.cpp:386] inception_4a/relu_5x5_reduce -> inception_4a/5x5_reduce (in-place)
I0403 19:37:38.284889  9466 net.cpp:141] Setting up inception_4a/relu_5x5_reduce
I0403 19:37:38.284924  9466 net.cpp:148] Top shape: 24 16 14 14 (75264)
I0403 19:37:38.284942  9466 net.cpp:156] Memory required for data: 873665568
I0403 19:37:38.284961  9466 layer_factory.hpp:77] Creating layer inception_4a/5x5
I0403 19:37:38.284989  9466 net.cpp:91] Creating Layer inception_4a/5x5
I0403 19:37:38.285011  9466 net.cpp:425] inception_4a/5x5 <- inception_4a/5x5_reduce
I0403 19:37:38.285034  9466 net.cpp:399] inception_4a/5x5 -> inception_4a/5x5
I0403 19:37:38.286361  9466 net.cpp:141] Setting up inception_4a/5x5
I0403 19:37:38.286398  9466 net.cpp:148] Top shape: 24 48 14 14 (225792)
I0403 19:37:38.286419  9466 net.cpp:156] Memory required for data: 874568736
I0403 19:37:38.286442  9466 layer_factory.hpp:77] Creating layer inception_4a/relu_5x5
I0403 19:37:38.286463  9466 net.cpp:91] Creating Layer inception_4a/relu_5x5
I0403 19:37:38.286483  9466 net.cpp:425] inception_4a/relu_5x5 <- inception_4a/5x5
I0403 19:37:38.286504  9466 net.cpp:386] inception_4a/relu_5x5 -> inception_4a/5x5 (in-place)
I0403 19:37:38.286725  9466 net.cpp:141] Setting up inception_4a/relu_5x5
I0403 19:37:38.286756  9466 net.cpp:148] Top shape: 24 48 14 14 (225792)
I0403 19:37:38.286774  9466 net.cpp:156] Memory required for data: 875471904
I0403 19:37:38.286792  9466 layer_factory.hpp:77] Creating layer inception_4a/pool
I0403 19:37:38.286814  9466 net.cpp:91] Creating Layer inception_4a/pool
I0403 19:37:38.286834  9466 net.cpp:425] inception_4a/pool <- pool3/3x3_s2_pool3/3x3_s2_0_split_3
I0403 19:37:38.286859  9466 net.cpp:399] inception_4a/pool -> inception_4a/pool
I0403 19:37:38.286936  9466 net.cpp:141] Setting up inception_4a/pool
I0403 19:37:38.286969  9466 net.cpp:148] Top shape: 24 480 14 14 (2257920)
I0403 19:37:38.286988  9466 net.cpp:156] Memory required for data: 884503584
I0403 19:37:38.287008  9466 layer_factory.hpp:77] Creating layer inception_4a/pool_proj
I0403 19:37:38.287039  9466 net.cpp:91] Creating Layer inception_4a/pool_proj
I0403 19:37:38.287060  9466 net.cpp:425] inception_4a/pool_proj <- inception_4a/pool
I0403 19:37:38.287083  9466 net.cpp:399] inception_4a/pool_proj -> inception_4a/pool_proj
I0403 19:37:38.288508  9466 net.cpp:141] Setting up inception_4a/pool_proj
I0403 19:37:38.288543  9466 net.cpp:148] Top shape: 24 64 14 14 (301056)
I0403 19:37:38.288583  9466 net.cpp:156] Memory required for data: 885707808
I0403 19:37:38.288609  9466 layer_factory.hpp:77] Creating layer inception_4a/relu_pool_proj
I0403 19:37:38.288631  9466 net.cpp:91] Creating Layer inception_4a/relu_pool_proj
I0403 19:37:38.288651  9466 net.cpp:425] inception_4a/relu_pool_proj <- inception_4a/pool_proj
I0403 19:37:38.288677  9466 net.cpp:386] inception_4a/relu_pool_proj -> inception_4a/pool_proj (in-place)
I0403 19:37:38.289019  9466 net.cpp:141] Setting up inception_4a/relu_pool_proj
I0403 19:37:38.289052  9466 net.cpp:148] Top shape: 24 64 14 14 (301056)
I0403 19:37:38.289072  9466 net.cpp:156] Memory required for data: 886912032
I0403 19:37:38.289089  9466 layer_factory.hpp:77] Creating layer inception_4a/output
I0403 19:37:38.289111  9466 net.cpp:91] Creating Layer inception_4a/output
I0403 19:37:38.289130  9466 net.cpp:425] inception_4a/output <- inception_4a/1x1
I0403 19:37:38.289151  9466 net.cpp:425] inception_4a/output <- inception_4a/3x3
I0403 19:37:38.289170  9466 net.cpp:425] inception_4a/output <- inception_4a/5x5
I0403 19:37:38.289191  9466 net.cpp:425] inception_4a/output <- inception_4a/pool_proj
I0403 19:37:38.289211  9466 net.cpp:399] inception_4a/output -> inception_4a/output
I0403 19:37:38.289273  9466 net.cpp:141] Setting up inception_4a/output
I0403 19:37:38.289302  9466 net.cpp:148] Top shape: 24 512 14 14 (2408448)
I0403 19:37:38.289320  9466 net.cpp:156] Memory required for data: 896545824
I0403 19:37:38.289338  9466 layer_factory.hpp:77] Creating layer inception_4a/output_inception_4a/output_0_split
I0403 19:37:38.289363  9466 net.cpp:91] Creating Layer inception_4a/output_inception_4a/output_0_split
I0403 19:37:38.289384  9466 net.cpp:425] inception_4a/output_inception_4a/output_0_split <- inception_4a/output
I0403 19:37:38.289413  9466 net.cpp:399] inception_4a/output_inception_4a/output_0_split -> inception_4a/output_inception_4a/output_0_split_0
I0403 19:37:38.289438  9466 net.cpp:399] inception_4a/output_inception_4a/output_0_split -> inception_4a/output_inception_4a/output_0_split_1
I0403 19:37:38.289465  9466 net.cpp:399] inception_4a/output_inception_4a/output_0_split -> inception_4a/output_inception_4a/output_0_split_2
I0403 19:37:38.289492  9466 net.cpp:399] inception_4a/output_inception_4a/output_0_split -> inception_4a/output_inception_4a/output_0_split_3
I0403 19:37:38.289517  9466 net.cpp:399] inception_4a/output_inception_4a/output_0_split -> inception_4a/output_inception_4a/output_0_split_4
I0403 19:37:38.289633  9466 net.cpp:141] Setting up inception_4a/output_inception_4a/output_0_split
I0403 19:37:38.289661  9466 net.cpp:148] Top shape: 24 512 14 14 (2408448)
I0403 19:37:38.289682  9466 net.cpp:148] Top shape: 24 512 14 14 (2408448)
I0403 19:37:38.289702  9466 net.cpp:148] Top shape: 24 512 14 14 (2408448)
I0403 19:37:38.289721  9466 net.cpp:148] Top shape: 24 512 14 14 (2408448)
I0403 19:37:38.289741  9466 net.cpp:148] Top shape: 24 512 14 14 (2408448)
I0403 19:37:38.289758  9466 net.cpp:156] Memory required for data: 944714784
I0403 19:37:38.289777  9466 layer_factory.hpp:77] Creating layer loss1/ave_pool
I0403 19:37:38.289800  9466 net.cpp:91] Creating Layer loss1/ave_pool
I0403 19:37:38.289821  9466 net.cpp:425] loss1/ave_pool <- inception_4a/output_inception_4a/output_0_split_0
I0403 19:37:38.289844  9466 net.cpp:399] loss1/ave_pool -> loss1/ave_pool
I0403 19:37:38.290103  9466 net.cpp:141] Setting up loss1/ave_pool
I0403 19:37:38.290135  9466 net.cpp:148] Top shape: 24 512 4 4 (196608)
I0403 19:37:38.290153  9466 net.cpp:156] Memory required for data: 945501216
I0403 19:37:38.290170  9466 layer_factory.hpp:77] Creating layer loss1/conv
I0403 19:37:38.290197  9466 net.cpp:91] Creating Layer loss1/conv
I0403 19:37:38.290221  9466 net.cpp:425] loss1/conv <- loss1/ave_pool
I0403 19:37:38.290254  9466 net.cpp:399] loss1/conv -> loss1/conv
I0403 19:37:38.291999  9466 net.cpp:141] Setting up loss1/conv
I0403 19:37:38.292034  9466 net.cpp:148] Top shape: 24 128 4 4 (49152)
I0403 19:37:38.292054  9466 net.cpp:156] Memory required for data: 945697824
I0403 19:37:38.292098  9466 layer_factory.hpp:77] Creating layer loss1/relu_conv
I0403 19:37:38.292125  9466 net.cpp:91] Creating Layer loss1/relu_conv
I0403 19:37:38.292145  9466 net.cpp:425] loss1/relu_conv <- loss1/conv
I0403 19:37:38.292166  9466 net.cpp:386] loss1/relu_conv -> loss1/conv (in-place)
I0403 19:37:38.292578  9466 net.cpp:141] Setting up loss1/relu_conv
I0403 19:37:38.292611  9466 net.cpp:148] Top shape: 24 128 4 4 (49152)
I0403 19:37:38.292629  9466 net.cpp:156] Memory required for data: 945894432
I0403 19:37:38.292649  9466 layer_factory.hpp:77] Creating layer loss1/fc
I0403 19:37:38.292682  9466 net.cpp:91] Creating Layer loss1/fc
I0403 19:37:38.292704  9466 net.cpp:425] loss1/fc <- loss1/conv
I0403 19:37:38.292727  9466 net.cpp:399] loss1/fc -> loss1/fc
I0403 19:37:38.314529  9466 net.cpp:141] Setting up loss1/fc
I0403 19:37:38.314610  9466 net.cpp:148] Top shape: 24 1024 (24576)
I0403 19:37:38.314630  9466 net.cpp:156] Memory required for data: 945992736
I0403 19:37:38.314657  9466 layer_factory.hpp:77] Creating layer loss1/relu_fc
I0403 19:37:38.314683  9466 net.cpp:91] Creating Layer loss1/relu_fc
I0403 19:37:38.314704  9466 net.cpp:425] loss1/relu_fc <- loss1/fc
I0403 19:37:38.314730  9466 net.cpp:386] loss1/relu_fc -> loss1/fc (in-place)
I0403 19:37:38.315011  9466 net.cpp:141] Setting up loss1/relu_fc
I0403 19:37:38.315042  9466 net.cpp:148] Top shape: 24 1024 (24576)
I0403 19:37:38.315060  9466 net.cpp:156] Memory required for data: 946091040
I0403 19:37:38.315078  9466 layer_factory.hpp:77] Creating layer loss1/drop_fc
I0403 19:37:38.315116  9466 net.cpp:91] Creating Layer loss1/drop_fc
I0403 19:37:38.315138  9466 net.cpp:425] loss1/drop_fc <- loss1/fc
I0403 19:37:38.315160  9466 net.cpp:386] loss1/drop_fc -> loss1/fc (in-place)
I0403 19:37:38.315227  9466 net.cpp:141] Setting up loss1/drop_fc
I0403 19:37:38.315258  9466 net.cpp:148] Top shape: 24 1024 (24576)
I0403 19:37:38.315279  9466 net.cpp:156] Memory required for data: 946189344
I0403 19:37:38.315296  9466 layer_factory.hpp:77] Creating layer loss1/classifier_plantvillage
I0403 19:37:38.315325  9466 net.cpp:91] Creating Layer loss1/classifier_plantvillage
I0403 19:37:38.315345  9466 net.cpp:425] loss1/classifier_plantvillage <- loss1/fc
I0403 19:37:38.315371  9466 net.cpp:399] loss1/classifier_plantvillage -> loss1/classifier_plantvillage
I0403 19:37:38.316501  9466 net.cpp:141] Setting up loss1/classifier_plantvillage
I0403 19:37:38.316535  9466 net.cpp:148] Top shape: 24 38 (912)
I0403 19:37:38.316555  9466 net.cpp:156] Memory required for data: 946192992
I0403 19:37:38.316577  9466 layer_factory.hpp:77] Creating layer loss1/classifier_plantvillage_loss1/classifier_plantvillage_0_split
I0403 19:37:38.316599  9466 net.cpp:91] Creating Layer loss1/classifier_plantvillage_loss1/classifier_plantvillage_0_split
I0403 19:37:38.316618  9466 net.cpp:425] loss1/classifier_plantvillage_loss1/classifier_plantvillage_0_split <- loss1/classifier_plantvillage
I0403 19:37:38.316642  9466 net.cpp:399] loss1/classifier_plantvillage_loss1/classifier_plantvillage_0_split -> loss1/classifier_plantvillage_loss1/classifier_plantvillage_0_split_0
I0403 19:37:38.316669  9466 net.cpp:399] loss1/classifier_plantvillage_loss1/classifier_plantvillage_0_split -> loss1/classifier_plantvillage_loss1/classifier_plantvillage_0_split_1
I0403 19:37:38.316694  9466 net.cpp:399] loss1/classifier_plantvillage_loss1/classifier_plantvillage_0_split -> loss1/classifier_plantvillage_loss1/classifier_plantvillage_0_split_2
I0403 19:37:38.316776  9466 net.cpp:141] Setting up loss1/classifier_plantvillage_loss1/classifier_plantvillage_0_split
I0403 19:37:38.316807  9466 net.cpp:148] Top shape: 24 38 (912)
I0403 19:37:38.316828  9466 net.cpp:148] Top shape: 24 38 (912)
I0403 19:37:38.316848  9466 net.cpp:148] Top shape: 24 38 (912)
I0403 19:37:38.316865  9466 net.cpp:156] Memory required for data: 946203936
I0403 19:37:38.316884  9466 layer_factory.hpp:77] Creating layer inception_4b/1x1
I0403 19:37:38.316910  9466 net.cpp:91] Creating Layer inception_4b/1x1
I0403 19:37:38.316965  9466 net.cpp:425] inception_4b/1x1 <- inception_4a/output_inception_4a/output_0_split_1
I0403 19:37:38.316992  9466 net.cpp:399] inception_4b/1x1 -> inception_4b/1x1
I0403 19:37:38.319064  9466 net.cpp:141] Setting up inception_4b/1x1
I0403 19:37:38.319100  9466 net.cpp:148] Top shape: 24 160 14 14 (752640)
I0403 19:37:38.319119  9466 net.cpp:156] Memory required for data: 949214496
I0403 19:37:38.319142  9466 layer_factory.hpp:77] Creating layer inception_4b/relu_1x1
I0403 19:37:38.319169  9466 net.cpp:91] Creating Layer inception_4b/relu_1x1
I0403 19:37:38.319188  9466 net.cpp:425] inception_4b/relu_1x1 <- inception_4b/1x1
I0403 19:37:38.319210  9466 net.cpp:386] inception_4b/relu_1x1 -> inception_4b/1x1 (in-place)
I0403 19:37:38.319439  9466 net.cpp:141] Setting up inception_4b/relu_1x1
I0403 19:37:38.319470  9466 net.cpp:148] Top shape: 24 160 14 14 (752640)
I0403 19:37:38.319489  9466 net.cpp:156] Memory required for data: 952225056
I0403 19:37:38.319507  9466 layer_factory.hpp:77] Creating layer inception_4b/3x3_reduce
I0403 19:37:38.319537  9466 net.cpp:91] Creating Layer inception_4b/3x3_reduce
I0403 19:37:38.319560  9466 net.cpp:425] inception_4b/3x3_reduce <- inception_4a/output_inception_4a/output_0_split_2
I0403 19:37:38.319583  9466 net.cpp:399] inception_4b/3x3_reduce -> inception_4b/3x3_reduce
I0403 19:37:38.321238  9466 net.cpp:141] Setting up inception_4b/3x3_reduce
I0403 19:37:38.321276  9466 net.cpp:148] Top shape: 24 112 14 14 (526848)
I0403 19:37:38.321296  9466 net.cpp:156] Memory required for data: 954332448
I0403 19:37:38.321319  9466 layer_factory.hpp:77] Creating layer inception_4b/relu_3x3_reduce
I0403 19:37:38.321346  9466 net.cpp:91] Creating Layer inception_4b/relu_3x3_reduce
I0403 19:37:38.321367  9466 net.cpp:425] inception_4b/relu_3x3_reduce <- inception_4b/3x3_reduce
I0403 19:37:38.321398  9466 net.cpp:386] inception_4b/relu_3x3_reduce -> inception_4b/3x3_reduce (in-place)
I0403 19:37:38.321745  9466 net.cpp:141] Setting up inception_4b/relu_3x3_reduce
I0403 19:37:38.321777  9466 net.cpp:148] Top shape: 24 112 14 14 (526848)
I0403 19:37:38.321796  9466 net.cpp:156] Memory required for data: 956439840
I0403 19:37:38.321815  9466 layer_factory.hpp:77] Creating layer inception_4b/3x3
I0403 19:37:38.321844  9466 net.cpp:91] Creating Layer inception_4b/3x3
I0403 19:37:38.321866  9466 net.cpp:425] inception_4b/3x3 <- inception_4b/3x3_reduce
I0403 19:37:38.321890  9466 net.cpp:399] inception_4b/3x3 -> inception_4b/3x3
I0403 19:37:38.325525  9466 net.cpp:141] Setting up inception_4b/3x3
I0403 19:37:38.325565  9466 net.cpp:148] Top shape: 24 224 14 14 (1053696)
I0403 19:37:38.325587  9466 net.cpp:156] Memory required for data: 960654624
I0403 19:37:38.325610  9466 layer_factory.hpp:77] Creating layer inception_4b/relu_3x3
I0403 19:37:38.325633  9466 net.cpp:91] Creating Layer inception_4b/relu_3x3
I0403 19:37:38.325651  9466 net.cpp:425] inception_4b/relu_3x3 <- inception_4b/3x3
I0403 19:37:38.325676  9466 net.cpp:386] inception_4b/relu_3x3 -> inception_4b/3x3 (in-place)
I0403 19:37:38.325899  9466 net.cpp:141] Setting up inception_4b/relu_3x3
I0403 19:37:38.325930  9466 net.cpp:148] Top shape: 24 224 14 14 (1053696)
I0403 19:37:38.325948  9466 net.cpp:156] Memory required for data: 964869408
I0403 19:37:38.325966  9466 layer_factory.hpp:77] Creating layer inception_4b/5x5_reduce
I0403 19:37:38.325994  9466 net.cpp:91] Creating Layer inception_4b/5x5_reduce
I0403 19:37:38.326014  9466 net.cpp:425] inception_4b/5x5_reduce <- inception_4a/output_inception_4a/output_0_split_3
I0403 19:37:38.326045  9466 net.cpp:399] inception_4b/5x5_reduce -> inception_4b/5x5_reduce
I0403 19:37:38.327376  9466 net.cpp:141] Setting up inception_4b/5x5_reduce
I0403 19:37:38.327411  9466 net.cpp:148] Top shape: 24 24 14 14 (112896)
I0403 19:37:38.327432  9466 net.cpp:156] Memory required for data: 965320992
I0403 19:37:38.327455  9466 layer_factory.hpp:77] Creating layer inception_4b/relu_5x5_reduce
I0403 19:37:38.327481  9466 net.cpp:91] Creating Layer inception_4b/relu_5x5_reduce
I0403 19:37:38.327529  9466 net.cpp:425] inception_4b/relu_5x5_reduce <- inception_4b/5x5_reduce
I0403 19:37:38.327553  9466 net.cpp:386] inception_4b/relu_5x5_reduce -> inception_4b/5x5_reduce (in-place)
I0403 19:37:38.327782  9466 net.cpp:141] Setting up inception_4b/relu_5x5_reduce
I0403 19:37:38.327817  9466 net.cpp:148] Top shape: 24 24 14 14 (112896)
I0403 19:37:38.327841  9466 net.cpp:156] Memory required for data: 965772576
I0403 19:37:38.327863  9466 layer_factory.hpp:77] Creating layer inception_4b/5x5
I0403 19:37:38.327893  9466 net.cpp:91] Creating Layer inception_4b/5x5
I0403 19:37:38.327914  9466 net.cpp:425] inception_4b/5x5 <- inception_4b/5x5_reduce
I0403 19:37:38.327939  9466 net.cpp:399] inception_4b/5x5 -> inception_4b/5x5
I0403 19:37:38.329445  9466 net.cpp:141] Setting up inception_4b/5x5
I0403 19:37:38.329480  9466 net.cpp:148] Top shape: 24 64 14 14 (301056)
I0403 19:37:38.329500  9466 net.cpp:156] Memory required for data: 966976800
I0403 19:37:38.329524  9466 layer_factory.hpp:77] Creating layer inception_4b/relu_5x5
I0403 19:37:38.329550  9466 net.cpp:91] Creating Layer inception_4b/relu_5x5
I0403 19:37:38.329571  9466 net.cpp:425] inception_4b/relu_5x5 <- inception_4b/5x5
I0403 19:37:38.329592  9466 net.cpp:386] inception_4b/relu_5x5 -> inception_4b/5x5 (in-place)
I0403 19:37:38.329942  9466 net.cpp:141] Setting up inception_4b/relu_5x5
I0403 19:37:38.329974  9466 net.cpp:148] Top shape: 24 64 14 14 (301056)
I0403 19:37:38.329993  9466 net.cpp:156] Memory required for data: 968181024
I0403 19:37:38.330011  9466 layer_factory.hpp:77] Creating layer inception_4b/pool
I0403 19:37:38.330037  9466 net.cpp:91] Creating Layer inception_4b/pool
I0403 19:37:38.330059  9466 net.cpp:425] inception_4b/pool <- inception_4a/output_inception_4a/output_0_split_4
I0403 19:37:38.330080  9466 net.cpp:399] inception_4b/pool -> inception_4b/pool
I0403 19:37:38.330164  9466 net.cpp:141] Setting up inception_4b/pool
I0403 19:37:38.330193  9466 net.cpp:148] Top shape: 24 512 14 14 (2408448)
I0403 19:37:38.330212  9466 net.cpp:156] Memory required for data: 977814816
I0403 19:37:38.330230  9466 layer_factory.hpp:77] Creating layer inception_4b/pool_proj
I0403 19:37:38.330265  9466 net.cpp:91] Creating Layer inception_4b/pool_proj
I0403 19:37:38.330286  9466 net.cpp:425] inception_4b/pool_proj <- inception_4b/pool
I0403 19:37:38.330315  9466 net.cpp:399] inception_4b/pool_proj -> inception_4b/pool_proj
I0403 19:37:38.331789  9466 net.cpp:141] Setting up inception_4b/pool_proj
I0403 19:37:38.331822  9466 net.cpp:148] Top shape: 24 64 14 14 (301056)
I0403 19:37:38.331842  9466 net.cpp:156] Memory required for data: 979019040
I0403 19:37:38.331866  9466 layer_factory.hpp:77] Creating layer inception_4b/relu_pool_proj
I0403 19:37:38.331892  9466 net.cpp:91] Creating Layer inception_4b/relu_pool_proj
I0403 19:37:38.331913  9466 net.cpp:425] inception_4b/relu_pool_proj <- inception_4b/pool_proj
I0403 19:37:38.331934  9466 net.cpp:386] inception_4b/relu_pool_proj -> inception_4b/pool_proj (in-place)
I0403 19:37:38.332162  9466 net.cpp:141] Setting up inception_4b/relu_pool_proj
I0403 19:37:38.332196  9466 net.cpp:148] Top shape: 24 64 14 14 (301056)
I0403 19:37:38.332216  9466 net.cpp:156] Memory required for data: 980223264
I0403 19:37:38.332237  9466 layer_factory.hpp:77] Creating layer inception_4b/output
I0403 19:37:38.332265  9466 net.cpp:91] Creating Layer inception_4b/output
I0403 19:37:38.332285  9466 net.cpp:425] inception_4b/output <- inception_4b/1x1
I0403 19:37:38.332306  9466 net.cpp:425] inception_4b/output <- inception_4b/3x3
I0403 19:37:38.332327  9466 net.cpp:425] inception_4b/output <- inception_4b/5x5
I0403 19:37:38.332348  9466 net.cpp:425] inception_4b/output <- inception_4b/pool_proj
I0403 19:37:38.332372  9466 net.cpp:399] inception_4b/output -> inception_4b/output
I0403 19:37:38.332428  9466 net.cpp:141] Setting up inception_4b/output
I0403 19:37:38.332458  9466 net.cpp:148] Top shape: 24 512 14 14 (2408448)
I0403 19:37:38.332475  9466 net.cpp:156] Memory required for data: 989857056
I0403 19:37:38.332511  9466 layer_factory.hpp:77] Creating layer inception_4b/output_inception_4b/output_0_split
I0403 19:37:38.332538  9466 net.cpp:91] Creating Layer inception_4b/output_inception_4b/output_0_split
I0403 19:37:38.332558  9466 net.cpp:425] inception_4b/output_inception_4b/output_0_split <- inception_4b/output
I0403 19:37:38.332579  9466 net.cpp:399] inception_4b/output_inception_4b/output_0_split -> inception_4b/output_inception_4b/output_0_split_0
I0403 19:37:38.332604  9466 net.cpp:399] inception_4b/output_inception_4b/output_0_split -> inception_4b/output_inception_4b/output_0_split_1
I0403 19:37:38.332629  9466 net.cpp:399] inception_4b/output_inception_4b/output_0_split -> inception_4b/output_inception_4b/output_0_split_2
I0403 19:37:38.332658  9466 net.cpp:399] inception_4b/output_inception_4b/output_0_split -> inception_4b/output_inception_4b/output_0_split_3
I0403 19:37:38.332759  9466 net.cpp:141] Setting up inception_4b/output_inception_4b/output_0_split
I0403 19:37:38.332788  9466 net.cpp:148] Top shape: 24 512 14 14 (2408448)
I0403 19:37:38.332809  9466 net.cpp:148] Top shape: 24 512 14 14 (2408448)
I0403 19:37:38.332828  9466 net.cpp:148] Top shape: 24 512 14 14 (2408448)
I0403 19:37:38.332847  9466 net.cpp:148] Top shape: 24 512 14 14 (2408448)
I0403 19:37:38.332865  9466 net.cpp:156] Memory required for data: 1028392224
I0403 19:37:38.332885  9466 layer_factory.hpp:77] Creating layer inception_4c/1x1
I0403 19:37:38.332911  9466 net.cpp:91] Creating Layer inception_4c/1x1
I0403 19:37:38.332931  9466 net.cpp:425] inception_4c/1x1 <- inception_4b/output_inception_4b/output_0_split_0
I0403 19:37:38.332957  9466 net.cpp:399] inception_4c/1x1 -> inception_4c/1x1
I0403 19:37:38.334740  9466 net.cpp:141] Setting up inception_4c/1x1
I0403 19:37:38.334779  9466 net.cpp:148] Top shape: 24 128 14 14 (602112)
I0403 19:37:38.334801  9466 net.cpp:156] Memory required for data: 1030800672
I0403 19:37:38.334825  9466 layer_factory.hpp:77] Creating layer inception_4c/relu_1x1
I0403 19:37:38.334846  9466 net.cpp:91] Creating Layer inception_4c/relu_1x1
I0403 19:37:38.334867  9466 net.cpp:425] inception_4c/relu_1x1 <- inception_4c/1x1
I0403 19:37:38.334890  9466 net.cpp:386] inception_4c/relu_1x1 -> inception_4c/1x1 (in-place)
I0403 19:37:38.335116  9466 net.cpp:141] Setting up inception_4c/relu_1x1
I0403 19:37:38.335150  9466 net.cpp:148] Top shape: 24 128 14 14 (602112)
I0403 19:37:38.335167  9466 net.cpp:156] Memory required for data: 1033209120
I0403 19:37:38.335186  9466 layer_factory.hpp:77] Creating layer inception_4c/3x3_reduce
I0403 19:37:38.335212  9466 net.cpp:91] Creating Layer inception_4c/3x3_reduce
I0403 19:37:38.335234  9466 net.cpp:425] inception_4c/3x3_reduce <- inception_4b/output_inception_4b/output_0_split_1
I0403 19:37:38.335270  9466 net.cpp:399] inception_4c/3x3_reduce -> inception_4c/3x3_reduce
I0403 19:37:38.337636  9466 net.cpp:141] Setting up inception_4c/3x3_reduce
I0403 19:37:38.337672  9466 net.cpp:148] Top shape: 24 128 14 14 (602112)
I0403 19:37:38.337692  9466 net.cpp:156] Memory required for data: 1035617568
I0403 19:37:38.337716  9466 layer_factory.hpp:77] Creating layer inception_4c/relu_3x3_reduce
I0403 19:37:38.337741  9466 net.cpp:91] Creating Layer inception_4c/relu_3x3_reduce
I0403 19:37:38.337762  9466 net.cpp:425] inception_4c/relu_3x3_reduce <- inception_4c/3x3_reduce
I0403 19:37:38.337784  9466 net.cpp:386] inception_4c/relu_3x3_reduce -> inception_4c/3x3_reduce (in-place)
I0403 19:37:38.338136  9466 net.cpp:141] Setting up inception_4c/relu_3x3_reduce
I0403 19:37:38.338170  9466 net.cpp:148] Top shape: 24 128 14 14 (602112)
I0403 19:37:38.338189  9466 net.cpp:156] Memory required for data: 1038026016
I0403 19:37:38.338207  9466 layer_factory.hpp:77] Creating layer inception_4c/3x3
I0403 19:37:38.338235  9466 net.cpp:91] Creating Layer inception_4c/3x3
I0403 19:37:38.338266  9466 net.cpp:425] inception_4c/3x3 <- inception_4c/3x3_reduce
I0403 19:37:38.338299  9466 net.cpp:399] inception_4c/3x3 -> inception_4c/3x3
I0403 19:37:38.342680  9466 net.cpp:141] Setting up inception_4c/3x3
I0403 19:37:38.342731  9466 net.cpp:148] Top shape: 24 256 14 14 (1204224)
I0403 19:37:38.342752  9466 net.cpp:156] Memory required for data: 1042842912
I0403 19:37:38.342793  9466 layer_factory.hpp:77] Creating layer inception_4c/relu_3x3
I0403 19:37:38.342821  9466 net.cpp:91] Creating Layer inception_4c/relu_3x3
I0403 19:37:38.342842  9466 net.cpp:425] inception_4c/relu_3x3 <- inception_4c/3x3
I0403 19:37:38.342864  9466 net.cpp:386] inception_4c/relu_3x3 -> inception_4c/3x3 (in-place)
I0403 19:37:38.343091  9466 net.cpp:141] Setting up inception_4c/relu_3x3
I0403 19:37:38.343122  9466 net.cpp:148] Top shape: 24 256 14 14 (1204224)
I0403 19:37:38.343140  9466 net.cpp:156] Memory required for data: 1047659808
I0403 19:37:38.343159  9466 layer_factory.hpp:77] Creating layer inception_4c/5x5_reduce
I0403 19:37:38.343188  9466 net.cpp:91] Creating Layer inception_4c/5x5_reduce
I0403 19:37:38.343212  9466 net.cpp:425] inception_4c/5x5_reduce <- inception_4b/output_inception_4b/output_0_split_2
I0403 19:37:38.343236  9466 net.cpp:399] inception_4c/5x5_reduce -> inception_4c/5x5_reduce
I0403 19:37:38.344566  9466 net.cpp:141] Setting up inception_4c/5x5_reduce
I0403 19:37:38.344604  9466 net.cpp:148] Top shape: 24 24 14 14 (112896)
I0403 19:37:38.344624  9466 net.cpp:156] Memory required for data: 1048111392
I0403 19:37:38.344648  9466 layer_factory.hpp:77] Creating layer inception_4c/relu_5x5_reduce
I0403 19:37:38.344676  9466 net.cpp:91] Creating Layer inception_4c/relu_5x5_reduce
I0403 19:37:38.344699  9466 net.cpp:425] inception_4c/relu_5x5_reduce <- inception_4c/5x5_reduce
I0403 19:37:38.344722  9466 net.cpp:386] inception_4c/relu_5x5_reduce -> inception_4c/5x5_reduce (in-place)
I0403 19:37:38.344954  9466 net.cpp:141] Setting up inception_4c/relu_5x5_reduce
I0403 19:37:38.344988  9466 net.cpp:148] Top shape: 24 24 14 14 (112896)
I0403 19:37:38.345007  9466 net.cpp:156] Memory required for data: 1048562976
I0403 19:37:38.345026  9466 layer_factory.hpp:77] Creating layer inception_4c/5x5
I0403 19:37:38.345054  9466 net.cpp:91] Creating Layer inception_4c/5x5
I0403 19:37:38.345077  9466 net.cpp:425] inception_4c/5x5 <- inception_4c/5x5_reduce
I0403 19:37:38.345101  9466 net.cpp:399] inception_4c/5x5 -> inception_4c/5x5
I0403 19:37:38.346642  9466 net.cpp:141] Setting up inception_4c/5x5
I0403 19:37:38.346680  9466 net.cpp:148] Top shape: 24 64 14 14 (301056)
I0403 19:37:38.346701  9466 net.cpp:156] Memory required for data: 1049767200
I0403 19:37:38.346724  9466 layer_factory.hpp:77] Creating layer inception_4c/relu_5x5
I0403 19:37:38.346745  9466 net.cpp:91] Creating Layer inception_4c/relu_5x5
I0403 19:37:38.346765  9466 net.cpp:425] inception_4c/relu_5x5 <- inception_4c/5x5
I0403 19:37:38.346791  9466 net.cpp:386] inception_4c/relu_5x5 -> inception_4c/5x5 (in-place)
I0403 19:37:38.347139  9466 net.cpp:141] Setting up inception_4c/relu_5x5
I0403 19:37:38.347175  9466 net.cpp:148] Top shape: 24 64 14 14 (301056)
I0403 19:37:38.347195  9466 net.cpp:156] Memory required for data: 1050971424
I0403 19:37:38.347214  9466 layer_factory.hpp:77] Creating layer inception_4c/pool
I0403 19:37:38.347236  9466 net.cpp:91] Creating Layer inception_4c/pool
I0403 19:37:38.347265  9466 net.cpp:425] inception_4c/pool <- inception_4b/output_inception_4b/output_0_split_3
I0403 19:37:38.347292  9466 net.cpp:399] inception_4c/pool -> inception_4c/pool
I0403 19:37:38.347373  9466 net.cpp:141] Setting up inception_4c/pool
I0403 19:37:38.347403  9466 net.cpp:148] Top shape: 24 512 14 14 (2408448)
I0403 19:37:38.347424  9466 net.cpp:156] Memory required for data: 1060605216
I0403 19:37:38.347442  9466 layer_factory.hpp:77] Creating layer inception_4c/pool_proj
I0403 19:37:38.347470  9466 net.cpp:91] Creating Layer inception_4c/pool_proj
I0403 19:37:38.347491  9466 net.cpp:425] inception_4c/pool_proj <- inception_4c/pool
I0403 19:37:38.347517  9466 net.cpp:399] inception_4c/pool_proj -> inception_4c/pool_proj
I0403 19:37:38.349007  9466 net.cpp:141] Setting up inception_4c/pool_proj
I0403 19:37:38.349042  9466 net.cpp:148] Top shape: 24 64 14 14 (301056)
I0403 19:37:38.349078  9466 net.cpp:156] Memory required for data: 1061809440
I0403 19:37:38.349102  9466 layer_factory.hpp:77] Creating layer inception_4c/relu_pool_proj
I0403 19:37:38.349128  9466 net.cpp:91] Creating Layer inception_4c/relu_pool_proj
I0403 19:37:38.349150  9466 net.cpp:425] inception_4c/relu_pool_proj <- inception_4c/pool_proj
I0403 19:37:38.349172  9466 net.cpp:386] inception_4c/relu_pool_proj -> inception_4c/pool_proj (in-place)
I0403 19:37:38.349411  9466 net.cpp:141] Setting up inception_4c/relu_pool_proj
I0403 19:37:38.349445  9466 net.cpp:148] Top shape: 24 64 14 14 (301056)
I0403 19:37:38.349465  9466 net.cpp:156] Memory required for data: 1063013664
I0403 19:37:38.349485  9466 layer_factory.hpp:77] Creating layer inception_4c/output
I0403 19:37:38.349508  9466 net.cpp:91] Creating Layer inception_4c/output
I0403 19:37:38.349527  9466 net.cpp:425] inception_4c/output <- inception_4c/1x1
I0403 19:37:38.349547  9466 net.cpp:425] inception_4c/output <- inception_4c/3x3
I0403 19:37:38.349567  9466 net.cpp:425] inception_4c/output <- inception_4c/5x5
I0403 19:37:38.349587  9466 net.cpp:425] inception_4c/output <- inception_4c/pool_proj
I0403 19:37:38.349608  9466 net.cpp:399] inception_4c/output -> inception_4c/output
I0403 19:37:38.349670  9466 net.cpp:141] Setting up inception_4c/output
I0403 19:37:38.349699  9466 net.cpp:148] Top shape: 24 512 14 14 (2408448)
I0403 19:37:38.349716  9466 net.cpp:156] Memory required for data: 1072647456
I0403 19:37:38.349735  9466 layer_factory.hpp:77] Creating layer inception_4c/output_inception_4c/output_0_split
I0403 19:37:38.349758  9466 net.cpp:91] Creating Layer inception_4c/output_inception_4c/output_0_split
I0403 19:37:38.349778  9466 net.cpp:425] inception_4c/output_inception_4c/output_0_split <- inception_4c/output
I0403 19:37:38.349800  9466 net.cpp:399] inception_4c/output_inception_4c/output_0_split -> inception_4c/output_inception_4c/output_0_split_0
I0403 19:37:38.349825  9466 net.cpp:399] inception_4c/output_inception_4c/output_0_split -> inception_4c/output_inception_4c/output_0_split_1
I0403 19:37:38.349850  9466 net.cpp:399] inception_4c/output_inception_4c/output_0_split -> inception_4c/output_inception_4c/output_0_split_2
I0403 19:37:38.349879  9466 net.cpp:399] inception_4c/output_inception_4c/output_0_split -> inception_4c/output_inception_4c/output_0_split_3
I0403 19:37:38.349985  9466 net.cpp:141] Setting up inception_4c/output_inception_4c/output_0_split
I0403 19:37:38.350015  9466 net.cpp:148] Top shape: 24 512 14 14 (2408448)
I0403 19:37:38.350035  9466 net.cpp:148] Top shape: 24 512 14 14 (2408448)
I0403 19:37:38.350055  9466 net.cpp:148] Top shape: 24 512 14 14 (2408448)
I0403 19:37:38.350075  9466 net.cpp:148] Top shape: 24 512 14 14 (2408448)
I0403 19:37:38.350092  9466 net.cpp:156] Memory required for data: 1111182624
I0403 19:37:38.350111  9466 layer_factory.hpp:77] Creating layer inception_4d/1x1
I0403 19:37:38.350142  9466 net.cpp:91] Creating Layer inception_4d/1x1
I0403 19:37:38.350165  9466 net.cpp:425] inception_4d/1x1 <- inception_4c/output_inception_4c/output_0_split_0
I0403 19:37:38.350193  9466 net.cpp:399] inception_4d/1x1 -> inception_4d/1x1
I0403 19:37:38.351902  9466 net.cpp:141] Setting up inception_4d/1x1
I0403 19:37:38.351936  9466 net.cpp:148] Top shape: 24 112 14 14 (526848)
I0403 19:37:38.351956  9466 net.cpp:156] Memory required for data: 1113290016
I0403 19:37:38.351979  9466 layer_factory.hpp:77] Creating layer inception_4d/relu_1x1
I0403 19:37:38.352004  9466 net.cpp:91] Creating Layer inception_4d/relu_1x1
I0403 19:37:38.352023  9466 net.cpp:425] inception_4d/relu_1x1 <- inception_4d/1x1
I0403 19:37:38.352046  9466 net.cpp:386] inception_4d/relu_1x1 -> inception_4d/1x1 (in-place)
I0403 19:37:38.352289  9466 net.cpp:141] Setting up inception_4d/relu_1x1
I0403 19:37:38.352320  9466 net.cpp:148] Top shape: 24 112 14 14 (526848)
I0403 19:37:38.352339  9466 net.cpp:156] Memory required for data: 1115397408
I0403 19:37:38.352360  9466 layer_factory.hpp:77] Creating layer inception_4d/3x3_reduce
I0403 19:37:38.352404  9466 net.cpp:91] Creating Layer inception_4d/3x3_reduce
I0403 19:37:38.352427  9466 net.cpp:425] inception_4d/3x3_reduce <- inception_4c/output_inception_4c/output_0_split_1
I0403 19:37:38.352455  9466 net.cpp:399] inception_4d/3x3_reduce -> inception_4d/3x3_reduce
I0403 19:37:38.354310  9466 net.cpp:141] Setting up inception_4d/3x3_reduce
I0403 19:37:38.354344  9466 net.cpp:148] Top shape: 24 144 14 14 (677376)
I0403 19:37:38.354364  9466 net.cpp:156] Memory required for data: 1118106912
I0403 19:37:38.354387  9466 layer_factory.hpp:77] Creating layer inception_4d/relu_3x3_reduce
I0403 19:37:38.354410  9466 net.cpp:91] Creating Layer inception_4d/relu_3x3_reduce
I0403 19:37:38.354434  9466 net.cpp:425] inception_4d/relu_3x3_reduce <- inception_4d/3x3_reduce
I0403 19:37:38.354462  9466 net.cpp:386] inception_4d/relu_3x3_reduce -> inception_4d/3x3_reduce (in-place)
I0403 19:37:38.354815  9466 net.cpp:141] Setting up inception_4d/relu_3x3_reduce
I0403 19:37:38.354851  9466 net.cpp:148] Top shape: 24 144 14 14 (677376)
I0403 19:37:38.354871  9466 net.cpp:156] Memory required for data: 1120816416
I0403 19:37:38.354890  9466 layer_factory.hpp:77] Creating layer inception_4d/3x3
I0403 19:37:38.354921  9466 net.cpp:91] Creating Layer inception_4d/3x3
I0403 19:37:38.354943  9466 net.cpp:425] inception_4d/3x3 <- inception_4d/3x3_reduce
I0403 19:37:38.354974  9466 net.cpp:399] inception_4d/3x3 -> inception_4d/3x3
I0403 19:37:38.360185  9466 net.cpp:141] Setting up inception_4d/3x3
I0403 19:37:38.360220  9466 net.cpp:148] Top shape: 24 288 14 14 (1354752)
I0403 19:37:38.360247  9466 net.cpp:156] Memory required for data: 1126235424
I0403 19:37:38.360272  9466 layer_factory.hpp:77] Creating layer inception_4d/relu_3x3
I0403 19:37:38.360296  9466 net.cpp:91] Creating Layer inception_4d/relu_3x3
I0403 19:37:38.360316  9466 net.cpp:425] inception_4d/relu_3x3 <- inception_4d/3x3
I0403 19:37:38.360339  9466 net.cpp:386] inception_4d/relu_3x3 -> inception_4d/3x3 (in-place)
I0403 19:37:38.360568  9466 net.cpp:141] Setting up inception_4d/relu_3x3
I0403 19:37:38.360599  9466 net.cpp:148] Top shape: 24 288 14 14 (1354752)
I0403 19:37:38.360617  9466 net.cpp:156] Memory required for data: 1131654432
I0403 19:37:38.360636  9466 layer_factory.hpp:77] Creating layer inception_4d/5x5_reduce
I0403 19:37:38.360663  9466 net.cpp:91] Creating Layer inception_4d/5x5_reduce
I0403 19:37:38.360685  9466 net.cpp:425] inception_4d/5x5_reduce <- inception_4c/output_inception_4c/output_0_split_2
I0403 19:37:38.360713  9466 net.cpp:399] inception_4d/5x5_reduce -> inception_4d/5x5_reduce
I0403 19:37:38.362114  9466 net.cpp:141] Setting up inception_4d/5x5_reduce
I0403 19:37:38.362150  9466 net.cpp:148] Top shape: 24 32 14 14 (150528)
I0403 19:37:38.362171  9466 net.cpp:156] Memory required for data: 1132256544
I0403 19:37:38.362195  9466 layer_factory.hpp:77] Creating layer inception_4d/relu_5x5_reduce
I0403 19:37:38.362220  9466 net.cpp:91] Creating Layer inception_4d/relu_5x5_reduce
I0403 19:37:38.362254  9466 net.cpp:425] inception_4d/relu_5x5_reduce <- inception_4d/5x5_reduce
I0403 19:37:38.362280  9466 net.cpp:386] inception_4d/relu_5x5_reduce -> inception_4d/5x5_reduce (in-place)
I0403 19:37:38.362514  9466 net.cpp:141] Setting up inception_4d/relu_5x5_reduce
I0403 19:37:38.362543  9466 net.cpp:148] Top shape: 24 32 14 14 (150528)
I0403 19:37:38.362562  9466 net.cpp:156] Memory required for data: 1132858656
I0403 19:37:38.362581  9466 layer_factory.hpp:77] Creating layer inception_4d/5x5
I0403 19:37:38.362608  9466 net.cpp:91] Creating Layer inception_4d/5x5
I0403 19:37:38.362632  9466 net.cpp:425] inception_4d/5x5 <- inception_4d/5x5_reduce
I0403 19:37:38.362654  9466 net.cpp:399] inception_4d/5x5 -> inception_4d/5x5
I0403 19:37:38.364454  9466 net.cpp:141] Setting up inception_4d/5x5
I0403 19:37:38.364488  9466 net.cpp:148] Top shape: 24 64 14 14 (301056)
I0403 19:37:38.364507  9466 net.cpp:156] Memory required for data: 1134062880
I0403 19:37:38.364531  9466 layer_factory.hpp:77] Creating layer inception_4d/relu_5x5
I0403 19:37:38.364574  9466 net.cpp:91] Creating Layer inception_4d/relu_5x5
I0403 19:37:38.364596  9466 net.cpp:425] inception_4d/relu_5x5 <- inception_4d/5x5
I0403 19:37:38.364619  9466 net.cpp:386] inception_4d/relu_5x5 -> inception_4d/5x5 (in-place)
I0403 19:37:38.364986  9466 net.cpp:141] Setting up inception_4d/relu_5x5
I0403 19:37:38.365020  9466 net.cpp:148] Top shape: 24 64 14 14 (301056)
I0403 19:37:38.365039  9466 net.cpp:156] Memory required for data: 1135267104
I0403 19:37:38.365056  9466 layer_factory.hpp:77] Creating layer inception_4d/pool
I0403 19:37:38.365082  9466 net.cpp:91] Creating Layer inception_4d/pool
I0403 19:37:38.365104  9466 net.cpp:425] inception_4d/pool <- inception_4c/output_inception_4c/output_0_split_3
I0403 19:37:38.365126  9466 net.cpp:399] inception_4d/pool -> inception_4d/pool
I0403 19:37:38.365209  9466 net.cpp:141] Setting up inception_4d/pool
I0403 19:37:38.365244  9466 net.cpp:148] Top shape: 24 512 14 14 (2408448)
I0403 19:37:38.365267  9466 net.cpp:156] Memory required for data: 1144900896
I0403 19:37:38.365284  9466 layer_factory.hpp:77] Creating layer inception_4d/pool_proj
I0403 19:37:38.365311  9466 net.cpp:91] Creating Layer inception_4d/pool_proj
I0403 19:37:38.365334  9466 net.cpp:425] inception_4d/pool_proj <- inception_4d/pool
I0403 19:37:38.365360  9466 net.cpp:399] inception_4d/pool_proj -> inception_4d/pool_proj
I0403 19:37:38.367539  9466 net.cpp:141] Setting up inception_4d/pool_proj
I0403 19:37:38.367575  9466 net.cpp:148] Top shape: 24 64 14 14 (301056)
I0403 19:37:38.367594  9466 net.cpp:156] Memory required for data: 1146105120
I0403 19:37:38.367619  9466 layer_factory.hpp:77] Creating layer inception_4d/relu_pool_proj
I0403 19:37:38.367640  9466 net.cpp:91] Creating Layer inception_4d/relu_pool_proj
I0403 19:37:38.367666  9466 net.cpp:425] inception_4d/relu_pool_proj <- inception_4d/pool_proj
I0403 19:37:38.367691  9466 net.cpp:386] inception_4d/relu_pool_proj -> inception_4d/pool_proj (in-place)
I0403 19:37:38.367923  9466 net.cpp:141] Setting up inception_4d/relu_pool_proj
I0403 19:37:38.367955  9466 net.cpp:148] Top shape: 24 64 14 14 (301056)
I0403 19:37:38.367974  9466 net.cpp:156] Memory required for data: 1147309344
I0403 19:37:38.367992  9466 layer_factory.hpp:77] Creating layer inception_4d/output
I0403 19:37:38.368017  9466 net.cpp:91] Creating Layer inception_4d/output
I0403 19:37:38.368038  9466 net.cpp:425] inception_4d/output <- inception_4d/1x1
I0403 19:37:38.368062  9466 net.cpp:425] inception_4d/output <- inception_4d/3x3
I0403 19:37:38.368084  9466 net.cpp:425] inception_4d/output <- inception_4d/5x5
I0403 19:37:38.368105  9466 net.cpp:425] inception_4d/output <- inception_4d/pool_proj
I0403 19:37:38.368127  9466 net.cpp:399] inception_4d/output -> inception_4d/output
I0403 19:37:38.368188  9466 net.cpp:141] Setting up inception_4d/output
I0403 19:37:38.368219  9466 net.cpp:148] Top shape: 24 528 14 14 (2483712)
I0403 19:37:38.368238  9466 net.cpp:156] Memory required for data: 1157244192
I0403 19:37:38.368275  9466 layer_factory.hpp:77] Creating layer inception_4d/output_inception_4d/output_0_split
I0403 19:37:38.368300  9466 net.cpp:91] Creating Layer inception_4d/output_inception_4d/output_0_split
I0403 19:37:38.368319  9466 net.cpp:425] inception_4d/output_inception_4d/output_0_split <- inception_4d/output
I0403 19:37:38.368347  9466 net.cpp:399] inception_4d/output_inception_4d/output_0_split -> inception_4d/output_inception_4d/output_0_split_0
I0403 19:37:38.368376  9466 net.cpp:399] inception_4d/output_inception_4d/output_0_split -> inception_4d/output_inception_4d/output_0_split_1
I0403 19:37:38.368402  9466 net.cpp:399] inception_4d/output_inception_4d/output_0_split -> inception_4d/output_inception_4d/output_0_split_2
I0403 19:37:38.368427  9466 net.cpp:399] inception_4d/output_inception_4d/output_0_split -> inception_4d/output_inception_4d/output_0_split_3
I0403 19:37:38.368453  9466 net.cpp:399] inception_4d/output_inception_4d/output_0_split -> inception_4d/output_inception_4d/output_0_split_4
I0403 19:37:38.368582  9466 net.cpp:141] Setting up inception_4d/output_inception_4d/output_0_split
I0403 19:37:38.368628  9466 net.cpp:148] Top shape: 24 528 14 14 (2483712)
I0403 19:37:38.368651  9466 net.cpp:148] Top shape: 24 528 14 14 (2483712)
I0403 19:37:38.368674  9466 net.cpp:148] Top shape: 24 528 14 14 (2483712)
I0403 19:37:38.368693  9466 net.cpp:148] Top shape: 24 528 14 14 (2483712)
I0403 19:37:38.368713  9466 net.cpp:148] Top shape: 24 528 14 14 (2483712)
I0403 19:37:38.368731  9466 net.cpp:156] Memory required for data: 1206918432
I0403 19:37:38.368751  9466 layer_factory.hpp:77] Creating layer loss2/ave_pool
I0403 19:37:38.368774  9466 net.cpp:91] Creating Layer loss2/ave_pool
I0403 19:37:38.368796  9466 net.cpp:425] loss2/ave_pool <- inception_4d/output_inception_4d/output_0_split_0
I0403 19:37:38.368824  9466 net.cpp:399] loss2/ave_pool -> loss2/ave_pool
I0403 19:37:38.369206  9466 net.cpp:141] Setting up loss2/ave_pool
I0403 19:37:38.369243  9466 net.cpp:148] Top shape: 24 528 4 4 (202752)
I0403 19:37:38.369266  9466 net.cpp:156] Memory required for data: 1207729440
I0403 19:37:38.369284  9466 layer_factory.hpp:77] Creating layer loss2/conv
I0403 19:37:38.369313  9466 net.cpp:91] Creating Layer loss2/conv
I0403 19:37:38.369336  9466 net.cpp:425] loss2/conv <- loss2/ave_pool
I0403 19:37:38.369364  9466 net.cpp:399] loss2/conv -> loss2/conv
I0403 19:37:38.371662  9466 net.cpp:141] Setting up loss2/conv
I0403 19:37:38.371701  9466 net.cpp:148] Top shape: 24 128 4 4 (49152)
I0403 19:37:38.371721  9466 net.cpp:156] Memory required for data: 1207926048
I0403 19:37:38.371743  9466 layer_factory.hpp:77] Creating layer loss2/relu_conv
I0403 19:37:38.371773  9466 net.cpp:91] Creating Layer loss2/relu_conv
I0403 19:37:38.371793  9466 net.cpp:425] loss2/relu_conv <- loss2/conv
I0403 19:37:38.371812  9466 net.cpp:386] loss2/relu_conv -> loss2/conv (in-place)
I0403 19:37:38.372159  9466 net.cpp:141] Setting up loss2/relu_conv
I0403 19:37:38.372194  9466 net.cpp:148] Top shape: 24 128 4 4 (49152)
I0403 19:37:38.372213  9466 net.cpp:156] Memory required for data: 1208122656
I0403 19:37:38.372232  9466 layer_factory.hpp:77] Creating layer loss2/fc
I0403 19:37:38.372262  9466 net.cpp:91] Creating Layer loss2/fc
I0403 19:37:38.372282  9466 net.cpp:425] loss2/fc <- loss2/conv
I0403 19:37:38.372308  9466 net.cpp:399] loss2/fc -> loss2/fc
I0403 19:37:38.394165  9466 net.cpp:141] Setting up loss2/fc
I0403 19:37:38.394253  9466 net.cpp:148] Top shape: 24 1024 (24576)
I0403 19:37:38.394273  9466 net.cpp:156] Memory required for data: 1208220960
I0403 19:37:38.394301  9466 layer_factory.hpp:77] Creating layer loss2/relu_fc
I0403 19:37:38.394330  9466 net.cpp:91] Creating Layer loss2/relu_fc
I0403 19:37:38.394354  9466 net.cpp:425] loss2/relu_fc <- loss2/fc
I0403 19:37:38.394378  9466 net.cpp:386] loss2/relu_fc -> loss2/fc (in-place)
I0403 19:37:38.394870  9466 net.cpp:141] Setting up loss2/relu_fc
I0403 19:37:38.394902  9466 net.cpp:148] Top shape: 24 1024 (24576)
I0403 19:37:38.394922  9466 net.cpp:156] Memory required for data: 1208319264
I0403 19:37:38.394942  9466 layer_factory.hpp:77] Creating layer loss2/drop_fc
I0403 19:37:38.394968  9466 net.cpp:91] Creating Layer loss2/drop_fc
I0403 19:37:38.394989  9466 net.cpp:425] loss2/drop_fc <- loss2/fc
I0403 19:37:38.395010  9466 net.cpp:386] loss2/drop_fc -> loss2/fc (in-place)
I0403 19:37:38.395073  9466 net.cpp:141] Setting up loss2/drop_fc
I0403 19:37:38.395105  9466 net.cpp:148] Top shape: 24 1024 (24576)
I0403 19:37:38.395124  9466 net.cpp:156] Memory required for data: 1208417568
I0403 19:37:38.395143  9466 layer_factory.hpp:77] Creating layer loss2/classifier_plantvillage
I0403 19:37:38.395165  9466 net.cpp:91] Creating Layer loss2/classifier_plantvillage
I0403 19:37:38.395185  9466 net.cpp:425] loss2/classifier_plantvillage <- loss2/fc
I0403 19:37:38.395210  9466 net.cpp:399] loss2/classifier_plantvillage -> loss2/classifier_plantvillage
I0403 19:37:38.395727  9466 net.cpp:141] Setting up loss2/classifier_plantvillage
I0403 19:37:38.395758  9466 net.cpp:148] Top shape: 24 38 (912)
I0403 19:37:38.395776  9466 net.cpp:156] Memory required for data: 1208421216
I0403 19:37:38.395834  9466 layer_factory.hpp:77] Creating layer loss2/classifier_plantvillage_loss2/classifier_plantvillage_0_split
I0403 19:37:38.395859  9466 net.cpp:91] Creating Layer loss2/classifier_plantvillage_loss2/classifier_plantvillage_0_split
I0403 19:37:38.395879  9466 net.cpp:425] loss2/classifier_plantvillage_loss2/classifier_plantvillage_0_split <- loss2/classifier_plantvillage
I0403 19:37:38.395900  9466 net.cpp:399] loss2/classifier_plantvillage_loss2/classifier_plantvillage_0_split -> loss2/classifier_plantvillage_loss2/classifier_plantvillage_0_split_0
I0403 19:37:38.395927  9466 net.cpp:399] loss2/classifier_plantvillage_loss2/classifier_plantvillage_0_split -> loss2/classifier_plantvillage_loss2/classifier_plantvillage_0_split_1
I0403 19:37:38.395954  9466 net.cpp:399] loss2/classifier_plantvillage_loss2/classifier_plantvillage_0_split -> loss2/classifier_plantvillage_loss2/classifier_plantvillage_0_split_2
I0403 19:37:38.396049  9466 net.cpp:141] Setting up loss2/classifier_plantvillage_loss2/classifier_plantvillage_0_split
I0403 19:37:38.396077  9466 net.cpp:148] Top shape: 24 38 (912)
I0403 19:37:38.396098  9466 net.cpp:148] Top shape: 24 38 (912)
I0403 19:37:38.396117  9466 net.cpp:148] Top shape: 24 38 (912)
I0403 19:37:38.396134  9466 net.cpp:156] Memory required for data: 1208432160
I0403 19:37:38.396152  9466 layer_factory.hpp:77] Creating layer inception_4e/1x1
I0403 19:37:38.396183  9466 net.cpp:91] Creating Layer inception_4e/1x1
I0403 19:37:38.396204  9466 net.cpp:425] inception_4e/1x1 <- inception_4d/output_inception_4d/output_0_split_1
I0403 19:37:38.396230  9466 net.cpp:399] inception_4e/1x1 -> inception_4e/1x1
I0403 19:37:38.398537  9466 net.cpp:141] Setting up inception_4e/1x1
I0403 19:37:38.398574  9466 net.cpp:148] Top shape: 24 256 14 14 (1204224)
I0403 19:37:38.398594  9466 net.cpp:156] Memory required for data: 1213249056
I0403 19:37:38.398618  9466 layer_factory.hpp:77] Creating layer inception_4e/relu_1x1
I0403 19:37:38.398640  9466 net.cpp:91] Creating Layer inception_4e/relu_1x1
I0403 19:37:38.398659  9466 net.cpp:425] inception_4e/relu_1x1 <- inception_4e/1x1
I0403 19:37:38.398684  9466 net.cpp:386] inception_4e/relu_1x1 -> inception_4e/1x1 (in-place)
I0403 19:37:38.399039  9466 net.cpp:141] Setting up inception_4e/relu_1x1
I0403 19:37:38.399075  9466 net.cpp:148] Top shape: 24 256 14 14 (1204224)
I0403 19:37:38.399094  9466 net.cpp:156] Memory required for data: 1218065952
I0403 19:37:38.399112  9466 layer_factory.hpp:77] Creating layer inception_4e/3x3_reduce
I0403 19:37:38.399140  9466 net.cpp:91] Creating Layer inception_4e/3x3_reduce
I0403 19:37:38.399163  9466 net.cpp:425] inception_4e/3x3_reduce <- inception_4d/output_inception_4d/output_0_split_2
I0403 19:37:38.399185  9466 net.cpp:399] inception_4e/3x3_reduce -> inception_4e/3x3_reduce
I0403 19:37:38.401751  9466 net.cpp:141] Setting up inception_4e/3x3_reduce
I0403 19:37:38.401785  9466 net.cpp:148] Top shape: 24 160 14 14 (752640)
I0403 19:37:38.401804  9466 net.cpp:156] Memory required for data: 1221076512
I0403 19:37:38.401828  9466 layer_factory.hpp:77] Creating layer inception_4e/relu_3x3_reduce
I0403 19:37:38.401854  9466 net.cpp:91] Creating Layer inception_4e/relu_3x3_reduce
I0403 19:37:38.401873  9466 net.cpp:425] inception_4e/relu_3x3_reduce <- inception_4e/3x3_reduce
I0403 19:37:38.401895  9466 net.cpp:386] inception_4e/relu_3x3_reduce -> inception_4e/3x3_reduce (in-place)
I0403 19:37:38.402132  9466 net.cpp:141] Setting up inception_4e/relu_3x3_reduce
I0403 19:37:38.402165  9466 net.cpp:148] Top shape: 24 160 14 14 (752640)
I0403 19:37:38.402184  9466 net.cpp:156] Memory required for data: 1224087072
I0403 19:37:38.402204  9466 layer_factory.hpp:77] Creating layer inception_4e/3x3
I0403 19:37:38.402230  9466 net.cpp:91] Creating Layer inception_4e/3x3
I0403 19:37:38.402257  9466 net.cpp:425] inception_4e/3x3 <- inception_4e/3x3_reduce
I0403 19:37:38.402281  9466 net.cpp:399] inception_4e/3x3 -> inception_4e/3x3
I0403 19:37:38.408413  9466 net.cpp:141] Setting up inception_4e/3x3
I0403 19:37:38.408470  9466 net.cpp:148] Top shape: 24 320 14 14 (1505280)
I0403 19:37:38.408491  9466 net.cpp:156] Memory required for data: 1230108192
I0403 19:37:38.408515  9466 layer_factory.hpp:77] Creating layer inception_4e/relu_3x3
I0403 19:37:38.408538  9466 net.cpp:91] Creating Layer inception_4e/relu_3x3
I0403 19:37:38.408557  9466 net.cpp:425] inception_4e/relu_3x3 <- inception_4e/3x3
I0403 19:37:38.408586  9466 net.cpp:386] inception_4e/relu_3x3 -> inception_4e/3x3 (in-place)
I0403 19:37:38.408969  9466 net.cpp:141] Setting up inception_4e/relu_3x3
I0403 19:37:38.409006  9466 net.cpp:148] Top shape: 24 320 14 14 (1505280)
I0403 19:37:38.409025  9466 net.cpp:156] Memory required for data: 1236129312
I0403 19:37:38.409044  9466 layer_factory.hpp:77] Creating layer inception_4e/5x5_reduce
I0403 19:37:38.409073  9466 net.cpp:91] Creating Layer inception_4e/5x5_reduce
I0403 19:37:38.409095  9466 net.cpp:425] inception_4e/5x5_reduce <- inception_4d/output_inception_4d/output_0_split_3
I0403 19:37:38.409121  9466 net.cpp:399] inception_4e/5x5_reduce -> inception_4e/5x5_reduce
I0403 19:37:38.410472  9466 net.cpp:141] Setting up inception_4e/5x5_reduce
I0403 19:37:38.410509  9466 net.cpp:148] Top shape: 24 32 14 14 (150528)
I0403 19:37:38.410529  9466 net.cpp:156] Memory required for data: 1236731424
I0403 19:37:38.410552  9466 layer_factory.hpp:77] Creating layer inception_4e/relu_5x5_reduce
I0403 19:37:38.410578  9466 net.cpp:91] Creating Layer inception_4e/relu_5x5_reduce
I0403 19:37:38.410598  9466 net.cpp:425] inception_4e/relu_5x5_reduce <- inception_4e/5x5_reduce
I0403 19:37:38.410619  9466 net.cpp:386] inception_4e/relu_5x5_reduce -> inception_4e/5x5_reduce (in-place)
I0403 19:37:38.410984  9466 net.cpp:141] Setting up inception_4e/relu_5x5_reduce
I0403 19:37:38.411017  9466 net.cpp:148] Top shape: 24 32 14 14 (150528)
I0403 19:37:38.411037  9466 net.cpp:156] Memory required for data: 1237333536
I0403 19:37:38.411056  9466 layer_factory.hpp:77] Creating layer inception_4e/5x5
I0403 19:37:38.411104  9466 net.cpp:91] Creating Layer inception_4e/5x5
I0403 19:37:38.411128  9466 net.cpp:425] inception_4e/5x5 <- inception_4e/5x5_reduce
I0403 19:37:38.411152  9466 net.cpp:399] inception_4e/5x5 -> inception_4e/5x5
I0403 19:37:38.413444  9466 net.cpp:141] Setting up inception_4e/5x5
I0403 19:37:38.413480  9466 net.cpp:148] Top shape: 24 128 14 14 (602112)
I0403 19:37:38.413499  9466 net.cpp:156] Memory required for data: 1239741984
I0403 19:37:38.413523  9466 layer_factory.hpp:77] Creating layer inception_4e/relu_5x5
I0403 19:37:38.413548  9466 net.cpp:91] Creating Layer inception_4e/relu_5x5
I0403 19:37:38.413568  9466 net.cpp:425] inception_4e/relu_5x5 <- inception_4e/5x5
I0403 19:37:38.413590  9466 net.cpp:386] inception_4e/relu_5x5 -> inception_4e/5x5 (in-place)
I0403 19:37:38.413836  9466 net.cpp:141] Setting up inception_4e/relu_5x5
I0403 19:37:38.413871  9466 net.cpp:148] Top shape: 24 128 14 14 (602112)
I0403 19:37:38.413889  9466 net.cpp:156] Memory required for data: 1242150432
I0403 19:37:38.413908  9466 layer_factory.hpp:77] Creating layer inception_4e/pool
I0403 19:37:38.413931  9466 net.cpp:91] Creating Layer inception_4e/pool
I0403 19:37:38.413950  9466 net.cpp:425] inception_4e/pool <- inception_4d/output_inception_4d/output_0_split_4
I0403 19:37:38.413972  9466 net.cpp:399] inception_4e/pool -> inception_4e/pool
I0403 19:37:38.414060  9466 net.cpp:141] Setting up inception_4e/pool
I0403 19:37:38.414090  9466 net.cpp:148] Top shape: 24 528 14 14 (2483712)
I0403 19:37:38.414108  9466 net.cpp:156] Memory required for data: 1252085280
I0403 19:37:38.414126  9466 layer_factory.hpp:77] Creating layer inception_4e/pool_proj
I0403 19:37:38.414154  9466 net.cpp:91] Creating Layer inception_4e/pool_proj
I0403 19:37:38.414175  9466 net.cpp:425] inception_4e/pool_proj <- inception_4e/pool
I0403 19:37:38.414199  9466 net.cpp:399] inception_4e/pool_proj -> inception_4e/pool_proj
I0403 19:37:38.416059  9466 net.cpp:141] Setting up inception_4e/pool_proj
I0403 19:37:38.416095  9466 net.cpp:148] Top shape: 24 128 14 14 (602112)
I0403 19:37:38.416133  9466 net.cpp:156] Memory required for data: 1254493728
I0403 19:37:38.416158  9466 layer_factory.hpp:77] Creating layer inception_4e/relu_pool_proj
I0403 19:37:38.416182  9466 net.cpp:91] Creating Layer inception_4e/relu_pool_proj
I0403 19:37:38.416208  9466 net.cpp:425] inception_4e/relu_pool_proj <- inception_4e/pool_proj
I0403 19:37:38.416230  9466 net.cpp:386] inception_4e/relu_pool_proj -> inception_4e/pool_proj (in-place)
I0403 19:37:38.416594  9466 net.cpp:141] Setting up inception_4e/relu_pool_proj
I0403 19:37:38.416626  9466 net.cpp:148] Top shape: 24 128 14 14 (602112)
I0403 19:37:38.416646  9466 net.cpp:156] Memory required for data: 1256902176
I0403 19:37:38.416666  9466 layer_factory.hpp:77] Creating layer inception_4e/output
I0403 19:37:38.416687  9466 net.cpp:91] Creating Layer inception_4e/output
I0403 19:37:38.416708  9466 net.cpp:425] inception_4e/output <- inception_4e/1x1
I0403 19:37:38.416729  9466 net.cpp:425] inception_4e/output <- inception_4e/3x3
I0403 19:37:38.416749  9466 net.cpp:425] inception_4e/output <- inception_4e/5x5
I0403 19:37:38.416770  9466 net.cpp:425] inception_4e/output <- inception_4e/pool_proj
I0403 19:37:38.416795  9466 net.cpp:399] inception_4e/output -> inception_4e/output
I0403 19:37:38.416860  9466 net.cpp:141] Setting up inception_4e/output
I0403 19:37:38.416889  9466 net.cpp:148] Top shape: 24 832 14 14 (3913728)
I0403 19:37:38.416908  9466 net.cpp:156] Memory required for data: 1272557088
I0403 19:37:38.416926  9466 layer_factory.hpp:77] Creating layer pool4/3x3_s2
I0403 19:37:38.416949  9466 net.cpp:91] Creating Layer pool4/3x3_s2
I0403 19:37:38.416968  9466 net.cpp:425] pool4/3x3_s2 <- inception_4e/output
I0403 19:37:38.416995  9466 net.cpp:399] pool4/3x3_s2 -> pool4/3x3_s2
I0403 19:37:38.417079  9466 net.cpp:141] Setting up pool4/3x3_s2
I0403 19:37:38.417109  9466 net.cpp:148] Top shape: 24 832 7 7 (978432)
I0403 19:37:38.417129  9466 net.cpp:156] Memory required for data: 1276470816
I0403 19:37:38.417147  9466 layer_factory.hpp:77] Creating layer pool4/3x3_s2_pool4/3x3_s2_0_split
I0403 19:37:38.417171  9466 net.cpp:91] Creating Layer pool4/3x3_s2_pool4/3x3_s2_0_split
I0403 19:37:38.417193  9466 net.cpp:425] pool4/3x3_s2_pool4/3x3_s2_0_split <- pool4/3x3_s2
I0403 19:37:38.417214  9466 net.cpp:399] pool4/3x3_s2_pool4/3x3_s2_0_split -> pool4/3x3_s2_pool4/3x3_s2_0_split_0
I0403 19:37:38.417243  9466 net.cpp:399] pool4/3x3_s2_pool4/3x3_s2_0_split -> pool4/3x3_s2_pool4/3x3_s2_0_split_1
I0403 19:37:38.417275  9466 net.cpp:399] pool4/3x3_s2_pool4/3x3_s2_0_split -> pool4/3x3_s2_pool4/3x3_s2_0_split_2
I0403 19:37:38.417300  9466 net.cpp:399] pool4/3x3_s2_pool4/3x3_s2_0_split -> pool4/3x3_s2_pool4/3x3_s2_0_split_3
I0403 19:37:38.417410  9466 net.cpp:141] Setting up pool4/3x3_s2_pool4/3x3_s2_0_split
I0403 19:37:38.417441  9466 net.cpp:148] Top shape: 24 832 7 7 (978432)
I0403 19:37:38.417461  9466 net.cpp:148] Top shape: 24 832 7 7 (978432)
I0403 19:37:38.417484  9466 net.cpp:148] Top shape: 24 832 7 7 (978432)
I0403 19:37:38.417502  9466 net.cpp:148] Top shape: 24 832 7 7 (978432)
I0403 19:37:38.417520  9466 net.cpp:156] Memory required for data: 1292125728
I0403 19:37:38.417538  9466 layer_factory.hpp:77] Creating layer inception_5a/1x1
I0403 19:37:38.417568  9466 net.cpp:91] Creating Layer inception_5a/1x1
I0403 19:37:38.417592  9466 net.cpp:425] inception_5a/1x1 <- pool4/3x3_s2_pool4/3x3_s2_0_split_0
I0403 19:37:38.417618  9466 net.cpp:399] inception_5a/1x1 -> inception_5a/1x1
I0403 19:37:38.421160  9466 net.cpp:141] Setting up inception_5a/1x1
I0403 19:37:38.421200  9466 net.cpp:148] Top shape: 24 256 7 7 (301056)
I0403 19:37:38.421221  9466 net.cpp:156] Memory required for data: 1293329952
I0403 19:37:38.421248  9466 layer_factory.hpp:77] Creating layer inception_5a/relu_1x1
I0403 19:37:38.421277  9466 net.cpp:91] Creating Layer inception_5a/relu_1x1
I0403 19:37:38.421298  9466 net.cpp:425] inception_5a/relu_1x1 <- inception_5a/1x1
I0403 19:37:38.421319  9466 net.cpp:386] inception_5a/relu_1x1 -> inception_5a/1x1 (in-place)
I0403 19:37:38.421703  9466 net.cpp:141] Setting up inception_5a/relu_1x1
I0403 19:37:38.421736  9466 net.cpp:148] Top shape: 24 256 7 7 (301056)
I0403 19:37:38.421756  9466 net.cpp:156] Memory required for data: 1294534176
I0403 19:37:38.421777  9466 layer_factory.hpp:77] Creating layer inception_5a/3x3_reduce
I0403 19:37:38.421808  9466 net.cpp:91] Creating Layer inception_5a/3x3_reduce
I0403 19:37:38.421830  9466 net.cpp:425] inception_5a/3x3_reduce <- pool4/3x3_s2_pool4/3x3_s2_0_split_1
I0403 19:37:38.421857  9466 net.cpp:399] inception_5a/3x3_reduce -> inception_5a/3x3_reduce
I0403 19:37:38.424880  9466 net.cpp:141] Setting up inception_5a/3x3_reduce
I0403 19:37:38.424916  9466 net.cpp:148] Top shape: 24 160 7 7 (188160)
I0403 19:37:38.424935  9466 net.cpp:156] Memory required for data: 1295286816
I0403 19:37:38.424958  9466 layer_factory.hpp:77] Creating layer inception_5a/relu_3x3_reduce
I0403 19:37:38.424981  9466 net.cpp:91] Creating Layer inception_5a/relu_3x3_reduce
I0403 19:37:38.425003  9466 net.cpp:425] inception_5a/relu_3x3_reduce <- inception_5a/3x3_reduce
I0403 19:37:38.425027  9466 net.cpp:386] inception_5a/relu_3x3_reduce -> inception_5a/3x3_reduce (in-place)
I0403 19:37:38.425269  9466 net.cpp:141] Setting up inception_5a/relu_3x3_reduce
I0403 19:37:38.425302  9466 net.cpp:148] Top shape: 24 160 7 7 (188160)
I0403 19:37:38.425321  9466 net.cpp:156] Memory required for data: 1296039456
I0403 19:37:38.425340  9466 layer_factory.hpp:77] Creating layer inception_5a/3x3
I0403 19:37:38.425367  9466 net.cpp:91] Creating Layer inception_5a/3x3
I0403 19:37:38.425390  9466 net.cpp:425] inception_5a/3x3 <- inception_5a/3x3_reduce
I0403 19:37:38.425418  9466 net.cpp:399] inception_5a/3x3 -> inception_5a/3x3
I0403 19:37:38.431646  9466 net.cpp:141] Setting up inception_5a/3x3
I0403 19:37:38.431691  9466 net.cpp:148] Top shape: 24 320 7 7 (376320)
I0403 19:37:38.431711  9466 net.cpp:156] Memory required for data: 1297544736
I0403 19:37:38.431735  9466 layer_factory.hpp:77] Creating layer inception_5a/relu_3x3
I0403 19:37:38.431759  9466 net.cpp:91] Creating Layer inception_5a/relu_3x3
I0403 19:37:38.431782  9466 net.cpp:425] inception_5a/relu_3x3 <- inception_5a/3x3
I0403 19:37:38.431804  9466 net.cpp:386] inception_5a/relu_3x3 -> inception_5a/3x3 (in-place)
I0403 19:37:38.432163  9466 net.cpp:141] Setting up inception_5a/relu_3x3
I0403 19:37:38.432196  9466 net.cpp:148] Top shape: 24 320 7 7 (376320)
I0403 19:37:38.432215  9466 net.cpp:156] Memory required for data: 1299050016
I0403 19:37:38.432235  9466 layer_factory.hpp:77] Creating layer inception_5a/5x5_reduce
I0403 19:37:38.432278  9466 net.cpp:91] Creating Layer inception_5a/5x5_reduce
I0403 19:37:38.432303  9466 net.cpp:425] inception_5a/5x5_reduce <- pool4/3x3_s2_pool4/3x3_s2_0_split_2
I0403 19:37:38.432332  9466 net.cpp:399] inception_5a/5x5_reduce -> inception_5a/5x5_reduce
I0403 19:37:38.433785  9466 net.cpp:141] Setting up inception_5a/5x5_reduce
I0403 19:37:38.433823  9466 net.cpp:148] Top shape: 24 32 7 7 (37632)
I0403 19:37:38.433845  9466 net.cpp:156] Memory required for data: 1299200544
I0403 19:37:38.433867  9466 layer_factory.hpp:77] Creating layer inception_5a/relu_5x5_reduce
I0403 19:37:38.433889  9466 net.cpp:91] Creating Layer inception_5a/relu_5x5_reduce
I0403 19:37:38.433909  9466 net.cpp:425] inception_5a/relu_5x5_reduce <- inception_5a/5x5_reduce
I0403 19:37:38.433930  9466 net.cpp:386] inception_5a/relu_5x5_reduce -> inception_5a/5x5_reduce (in-place)
I0403 19:37:38.434301  9466 net.cpp:141] Setting up inception_5a/relu_5x5_reduce
I0403 19:37:38.434336  9466 net.cpp:148] Top shape: 24 32 7 7 (37632)
I0403 19:37:38.434357  9466 net.cpp:156] Memory required for data: 1299351072
I0403 19:37:38.434376  9466 layer_factory.hpp:77] Creating layer inception_5a/5x5
I0403 19:37:38.434402  9466 net.cpp:91] Creating Layer inception_5a/5x5
I0403 19:37:38.434425  9466 net.cpp:425] inception_5a/5x5 <- inception_5a/5x5_reduce
I0403 19:37:38.434449  9466 net.cpp:399] inception_5a/5x5 -> inception_5a/5x5
I0403 19:37:38.436585  9466 net.cpp:141] Setting up inception_5a/5x5
I0403 19:37:38.436652  9466 net.cpp:148] Top shape: 24 128 7 7 (150528)
I0403 19:37:38.436673  9466 net.cpp:156] Memory required for data: 1299953184
I0403 19:37:38.436697  9466 layer_factory.hpp:77] Creating layer inception_5a/relu_5x5
I0403 19:37:38.436722  9466 net.cpp:91] Creating Layer inception_5a/relu_5x5
I0403 19:37:38.436744  9466 net.cpp:425] inception_5a/relu_5x5 <- inception_5a/5x5
I0403 19:37:38.436766  9466 net.cpp:386] inception_5a/relu_5x5 -> inception_5a/5x5 (in-place)
I0403 19:37:38.437005  9466 net.cpp:141] Setting up inception_5a/relu_5x5
I0403 19:37:38.437037  9466 net.cpp:148] Top shape: 24 128 7 7 (150528)
I0403 19:37:38.437057  9466 net.cpp:156] Memory required for data: 1300555296
I0403 19:37:38.437075  9466 layer_factory.hpp:77] Creating layer inception_5a/pool
I0403 19:37:38.437098  9466 net.cpp:91] Creating Layer inception_5a/pool
I0403 19:37:38.437119  9466 net.cpp:425] inception_5a/pool <- pool4/3x3_s2_pool4/3x3_s2_0_split_3
I0403 19:37:38.437141  9466 net.cpp:399] inception_5a/pool -> inception_5a/pool
I0403 19:37:38.437232  9466 net.cpp:141] Setting up inception_5a/pool
I0403 19:37:38.437268  9466 net.cpp:148] Top shape: 24 832 7 7 (978432)
I0403 19:37:38.437286  9466 net.cpp:156] Memory required for data: 1304469024
I0403 19:37:38.437307  9466 layer_factory.hpp:77] Creating layer inception_5a/pool_proj
I0403 19:37:38.437340  9466 net.cpp:91] Creating Layer inception_5a/pool_proj
I0403 19:37:38.437361  9466 net.cpp:425] inception_5a/pool_proj <- inception_5a/pool
I0403 19:37:38.437386  9466 net.cpp:399] inception_5a/pool_proj -> inception_5a/pool_proj
I0403 19:37:38.440237  9466 net.cpp:141] Setting up inception_5a/pool_proj
I0403 19:37:38.440279  9466 net.cpp:148] Top shape: 24 128 7 7 (150528)
I0403 19:37:38.440299  9466 net.cpp:156] Memory required for data: 1305071136
I0403 19:37:38.440322  9466 layer_factory.hpp:77] Creating layer inception_5a/relu_pool_proj
I0403 19:37:38.440347  9466 net.cpp:91] Creating Layer inception_5a/relu_pool_proj
I0403 19:37:38.440371  9466 net.cpp:425] inception_5a/relu_pool_proj <- inception_5a/pool_proj
I0403 19:37:38.440392  9466 net.cpp:386] inception_5a/relu_pool_proj -> inception_5a/pool_proj (in-place)
I0403 19:37:38.440758  9466 net.cpp:141] Setting up inception_5a/relu_pool_proj
I0403 19:37:38.440790  9466 net.cpp:148] Top shape: 24 128 7 7 (150528)
I0403 19:37:38.440809  9466 net.cpp:156] Memory required for data: 1305673248
I0403 19:37:38.440827  9466 layer_factory.hpp:77] Creating layer inception_5a/output
I0403 19:37:38.440850  9466 net.cpp:91] Creating Layer inception_5a/output
I0403 19:37:38.440870  9466 net.cpp:425] inception_5a/output <- inception_5a/1x1
I0403 19:37:38.440891  9466 net.cpp:425] inception_5a/output <- inception_5a/3x3
I0403 19:37:38.440915  9466 net.cpp:425] inception_5a/output <- inception_5a/5x5
I0403 19:37:38.440937  9466 net.cpp:425] inception_5a/output <- inception_5a/pool_proj
I0403 19:37:38.440958  9466 net.cpp:399] inception_5a/output -> inception_5a/output
I0403 19:37:38.441018  9466 net.cpp:141] Setting up inception_5a/output
I0403 19:37:38.441051  9466 net.cpp:148] Top shape: 24 832 7 7 (978432)
I0403 19:37:38.441071  9466 net.cpp:156] Memory required for data: 1309586976
I0403 19:37:38.441089  9466 layer_factory.hpp:77] Creating layer inception_5a/output_inception_5a/output_0_split
I0403 19:37:38.441110  9466 net.cpp:91] Creating Layer inception_5a/output_inception_5a/output_0_split
I0403 19:37:38.441129  9466 net.cpp:425] inception_5a/output_inception_5a/output_0_split <- inception_5a/output
I0403 19:37:38.441154  9466 net.cpp:399] inception_5a/output_inception_5a/output_0_split -> inception_5a/output_inception_5a/output_0_split_0
I0403 19:37:38.441179  9466 net.cpp:399] inception_5a/output_inception_5a/output_0_split -> inception_5a/output_inception_5a/output_0_split_1
I0403 19:37:38.441205  9466 net.cpp:399] inception_5a/output_inception_5a/output_0_split -> inception_5a/output_inception_5a/output_0_split_2
I0403 19:37:38.441231  9466 net.cpp:399] inception_5a/output_inception_5a/output_0_split -> inception_5a/output_inception_5a/output_0_split_3
I0403 19:37:38.441373  9466 net.cpp:141] Setting up inception_5a/output_inception_5a/output_0_split
I0403 19:37:38.441406  9466 net.cpp:148] Top shape: 24 832 7 7 (978432)
I0403 19:37:38.441427  9466 net.cpp:148] Top shape: 24 832 7 7 (978432)
I0403 19:37:38.441447  9466 net.cpp:148] Top shape: 24 832 7 7 (978432)
I0403 19:37:38.441468  9466 net.cpp:148] Top shape: 24 832 7 7 (978432)
I0403 19:37:38.441484  9466 net.cpp:156] Memory required for data: 1325241888
I0403 19:37:38.441504  9466 layer_factory.hpp:77] Creating layer inception_5b/1x1
I0403 19:37:38.441530  9466 net.cpp:91] Creating Layer inception_5b/1x1
I0403 19:37:38.441555  9466 net.cpp:425] inception_5b/1x1 <- inception_5a/output_inception_5a/output_0_split_0
I0403 19:37:38.441578  9466 net.cpp:399] inception_5b/1x1 -> inception_5b/1x1
I0403 19:37:38.446213  9466 net.cpp:141] Setting up inception_5b/1x1
I0403 19:37:38.446257  9466 net.cpp:148] Top shape: 24 384 7 7 (451584)
I0403 19:37:38.446280  9466 net.cpp:156] Memory required for data: 1327048224
I0403 19:37:38.446302  9466 layer_factory.hpp:77] Creating layer inception_5b/relu_1x1
I0403 19:37:38.446326  9466 net.cpp:91] Creating Layer inception_5b/relu_1x1
I0403 19:37:38.446346  9466 net.cpp:425] inception_5b/relu_1x1 <- inception_5b/1x1
I0403 19:37:38.446372  9466 net.cpp:386] inception_5b/relu_1x1 -> inception_5b/1x1 (in-place)
I0403 19:37:38.446748  9466 net.cpp:141] Setting up inception_5b/relu_1x1
I0403 19:37:38.446779  9466 net.cpp:148] Top shape: 24 384 7 7 (451584)
I0403 19:37:38.446799  9466 net.cpp:156] Memory required for data: 1328854560
I0403 19:37:38.446818  9466 layer_factory.hpp:77] Creating layer inception_5b/3x3_reduce
I0403 19:37:38.446846  9466 net.cpp:91] Creating Layer inception_5b/3x3_reduce
I0403 19:37:38.446868  9466 net.cpp:425] inception_5b/3x3_reduce <- inception_5a/output_inception_5a/output_0_split_1
I0403 19:37:38.446897  9466 net.cpp:399] inception_5b/3x3_reduce -> inception_5b/3x3_reduce
I0403 19:37:38.450160  9466 net.cpp:141] Setting up inception_5b/3x3_reduce
I0403 19:37:38.450197  9466 net.cpp:148] Top shape: 24 192 7 7 (225792)
I0403 19:37:38.450219  9466 net.cpp:156] Memory required for data: 1329757728
I0403 19:37:38.450248  9466 layer_factory.hpp:77] Creating layer inception_5b/relu_3x3_reduce
I0403 19:37:38.450276  9466 net.cpp:91] Creating Layer inception_5b/relu_3x3_reduce
I0403 19:37:38.450299  9466 net.cpp:425] inception_5b/relu_3x3_reduce <- inception_5b/3x3_reduce
I0403 19:37:38.450321  9466 net.cpp:386] inception_5b/relu_3x3_reduce -> inception_5b/3x3_reduce (in-place)
I0403 19:37:38.450562  9466 net.cpp:141] Setting up inception_5b/relu_3x3_reduce
I0403 19:37:38.450592  9466 net.cpp:148] Top shape: 24 192 7 7 (225792)
I0403 19:37:38.450609  9466 net.cpp:156] Memory required for data: 1330660896
I0403 19:37:38.450628  9466 layer_factory.hpp:77] Creating layer inception_5b/3x3
I0403 19:37:38.450655  9466 net.cpp:91] Creating Layer inception_5b/3x3
I0403 19:37:38.450680  9466 net.cpp:425] inception_5b/3x3 <- inception_5b/3x3_reduce
I0403 19:37:38.450705  9466 net.cpp:399] inception_5b/3x3 -> inception_5b/3x3
I0403 19:37:38.459053  9466 net.cpp:141] Setting up inception_5b/3x3
I0403 19:37:38.459111  9466 net.cpp:148] Top shape: 24 384 7 7 (451584)
I0403 19:37:38.459131  9466 net.cpp:156] Memory required for data: 1332467232
I0403 19:37:38.459154  9466 layer_factory.hpp:77] Creating layer inception_5b/relu_3x3
I0403 19:37:38.459182  9466 net.cpp:91] Creating Layer inception_5b/relu_3x3
I0403 19:37:38.459203  9466 net.cpp:425] inception_5b/relu_3x3 <- inception_5b/3x3
I0403 19:37:38.459228  9466 net.cpp:386] inception_5b/relu_3x3 -> inception_5b/3x3 (in-place)
I0403 19:37:38.459600  9466 net.cpp:141] Setting up inception_5b/relu_3x3
I0403 19:37:38.459633  9466 net.cpp:148] Top shape: 24 384 7 7 (451584)
I0403 19:37:38.459652  9466 net.cpp:156] Memory required for data: 1334273568
I0403 19:37:38.459671  9466 layer_factory.hpp:77] Creating layer inception_5b/5x5_reduce
I0403 19:37:38.459738  9466 net.cpp:91] Creating Layer inception_5b/5x5_reduce
I0403 19:37:38.459761  9466 net.cpp:425] inception_5b/5x5_reduce <- inception_5a/output_inception_5a/output_0_split_2
I0403 19:37:38.459799  9466 net.cpp:399] inception_5b/5x5_reduce -> inception_5b/5x5_reduce
I0403 19:37:38.461390  9466 net.cpp:141] Setting up inception_5b/5x5_reduce
I0403 19:37:38.461424  9466 net.cpp:148] Top shape: 24 48 7 7 (56448)
I0403 19:37:38.461443  9466 net.cpp:156] Memory required for data: 1334499360
I0403 19:37:38.461467  9466 layer_factory.hpp:77] Creating layer inception_5b/relu_5x5_reduce
I0403 19:37:38.461491  9466 net.cpp:91] Creating Layer inception_5b/relu_5x5_reduce
I0403 19:37:38.461513  9466 net.cpp:425] inception_5b/relu_5x5_reduce <- inception_5b/5x5_reduce
I0403 19:37:38.461535  9466 net.cpp:386] inception_5b/relu_5x5_reduce -> inception_5b/5x5_reduce (in-place)
I0403 19:37:38.461989  9466 net.cpp:141] Setting up inception_5b/relu_5x5_reduce
I0403 19:37:38.462023  9466 net.cpp:148] Top shape: 24 48 7 7 (56448)
I0403 19:37:38.462041  9466 net.cpp:156] Memory required for data: 1334725152
I0403 19:37:38.462059  9466 layer_factory.hpp:77] Creating layer inception_5b/5x5
I0403 19:37:38.462085  9466 net.cpp:91] Creating Layer inception_5b/5x5
I0403 19:37:38.462107  9466 net.cpp:425] inception_5b/5x5 <- inception_5b/5x5_reduce
I0403 19:37:38.462131  9466 net.cpp:399] inception_5b/5x5 -> inception_5b/5x5
I0403 19:37:38.464715  9466 net.cpp:141] Setting up inception_5b/5x5
I0403 19:37:38.464750  9466 net.cpp:148] Top shape: 24 128 7 7 (150528)
I0403 19:37:38.464769  9466 net.cpp:156] Memory required for data: 1335327264
I0403 19:37:38.464792  9466 layer_factory.hpp:77] Creating layer inception_5b/relu_5x5
I0403 19:37:38.464819  9466 net.cpp:91] Creating Layer inception_5b/relu_5x5
I0403 19:37:38.464840  9466 net.cpp:425] inception_5b/relu_5x5 <- inception_5b/5x5
I0403 19:37:38.464861  9466 net.cpp:386] inception_5b/relu_5x5 -> inception_5b/5x5 (in-place)
I0403 19:37:38.465106  9466 net.cpp:141] Setting up inception_5b/relu_5x5
I0403 19:37:38.465140  9466 net.cpp:148] Top shape: 24 128 7 7 (150528)
I0403 19:37:38.465160  9466 net.cpp:156] Memory required for data: 1335929376
I0403 19:37:38.465179  9466 layer_factory.hpp:77] Creating layer inception_5b/pool
I0403 19:37:38.465203  9466 net.cpp:91] Creating Layer inception_5b/pool
I0403 19:37:38.465222  9466 net.cpp:425] inception_5b/pool <- inception_5a/output_inception_5a/output_0_split_3
I0403 19:37:38.465253  9466 net.cpp:399] inception_5b/pool -> inception_5b/pool
I0403 19:37:38.465348  9466 net.cpp:141] Setting up inception_5b/pool
I0403 19:37:38.465378  9466 net.cpp:148] Top shape: 24 832 7 7 (978432)
I0403 19:37:38.465396  9466 net.cpp:156] Memory required for data: 1339843104
I0403 19:37:38.465414  9466 layer_factory.hpp:77] Creating layer inception_5b/pool_proj
I0403 19:37:38.465441  9466 net.cpp:91] Creating Layer inception_5b/pool_proj
I0403 19:37:38.465463  9466 net.cpp:425] inception_5b/pool_proj <- inception_5b/pool
I0403 19:37:38.465489  9466 net.cpp:399] inception_5b/pool_proj -> inception_5b/pool_proj
I0403 19:37:38.471182  9466 net.cpp:141] Setting up inception_5b/pool_proj
I0403 19:37:38.471218  9466 net.cpp:148] Top shape: 24 128 7 7 (150528)
I0403 19:37:38.471237  9466 net.cpp:156] Memory required for data: 1340445216
I0403 19:37:38.471268  9466 layer_factory.hpp:77] Creating layer inception_5b/relu_pool_proj
I0403 19:37:38.471295  9466 net.cpp:91] Creating Layer inception_5b/relu_pool_proj
I0403 19:37:38.471318  9466 net.cpp:425] inception_5b/relu_pool_proj <- inception_5b/pool_proj
I0403 19:37:38.471338  9466 net.cpp:386] inception_5b/relu_pool_proj -> inception_5b/pool_proj (in-place)
I0403 19:37:38.471712  9466 net.cpp:141] Setting up inception_5b/relu_pool_proj
I0403 19:37:38.471745  9466 net.cpp:148] Top shape: 24 128 7 7 (150528)
I0403 19:37:38.471763  9466 net.cpp:156] Memory required for data: 1341047328
I0403 19:37:38.471782  9466 layer_factory.hpp:77] Creating layer inception_5b/output
I0403 19:37:38.471804  9466 net.cpp:91] Creating Layer inception_5b/output
I0403 19:37:38.471845  9466 net.cpp:425] inception_5b/output <- inception_5b/1x1
I0403 19:37:38.471868  9466 net.cpp:425] inception_5b/output <- inception_5b/3x3
I0403 19:37:38.471889  9466 net.cpp:425] inception_5b/output <- inception_5b/5x5
I0403 19:37:38.471910  9466 net.cpp:425] inception_5b/output <- inception_5b/pool_proj
I0403 19:37:38.471935  9466 net.cpp:399] inception_5b/output -> inception_5b/output
I0403 19:37:38.472004  9466 net.cpp:141] Setting up inception_5b/output
I0403 19:37:38.472034  9466 net.cpp:148] Top shape: 24 1024 7 7 (1204224)
I0403 19:37:38.472053  9466 net.cpp:156] Memory required for data: 1345864224
I0403 19:37:38.472070  9466 layer_factory.hpp:77] Creating layer pool5/7x7_s1
I0403 19:37:38.472091  9466 net.cpp:91] Creating Layer pool5/7x7_s1
I0403 19:37:38.472111  9466 net.cpp:425] pool5/7x7_s1 <- inception_5b/output
I0403 19:37:38.472137  9466 net.cpp:399] pool5/7x7_s1 -> pool5/7x7_s1
I0403 19:37:38.472429  9466 net.cpp:141] Setting up pool5/7x7_s1
I0403 19:37:38.472478  9466 net.cpp:148] Top shape: 24 1024 1 1 (24576)
I0403 19:37:38.472501  9466 net.cpp:156] Memory required for data: 1345962528
I0403 19:37:38.472524  9466 layer_factory.hpp:77] Creating layer pool5/drop_7x7_s1
I0403 19:37:38.472554  9466 net.cpp:91] Creating Layer pool5/drop_7x7_s1
I0403 19:37:38.472580  9466 net.cpp:425] pool5/drop_7x7_s1 <- pool5/7x7_s1
I0403 19:37:38.472609  9466 net.cpp:386] pool5/drop_7x7_s1 -> pool5/7x7_s1 (in-place)
I0403 19:37:38.472689  9466 net.cpp:141] Setting up pool5/drop_7x7_s1
I0403 19:37:38.472724  9466 net.cpp:148] Top shape: 24 1024 1 1 (24576)
I0403 19:37:38.472746  9466 net.cpp:156] Memory required for data: 1346060832
I0403 19:37:38.472769  9466 layer_factory.hpp:77] Creating layer loss3/classifier_plantvillage
I0403 19:37:38.472797  9466 net.cpp:91] Creating Layer loss3/classifier_plantvillage
I0403 19:37:38.472822  9466 net.cpp:425] loss3/classifier_plantvillage <- pool5/7x7_s1
I0403 19:37:38.472852  9466 net.cpp:399] loss3/classifier_plantvillage -> loss3/classifier_plantvillage
I0403 19:37:38.473520  9466 net.cpp:141] Setting up loss3/classifier_plantvillage
I0403 19:37:38.473558  9466 net.cpp:148] Top shape: 24 38 (912)
I0403 19:37:38.473580  9466 net.cpp:156] Memory required for data: 1346064480
I0403 19:37:38.473608  9466 layer_factory.hpp:77] Creating layer loss3/classifier_plantvillage_loss3/classifier_plantvillage_0_split
I0403 19:37:38.473635  9466 net.cpp:91] Creating Layer loss3/classifier_plantvillage_loss3/classifier_plantvillage_0_split
I0403 19:37:38.473659  9466 net.cpp:425] loss3/classifier_plantvillage_loss3/classifier_plantvillage_0_split <- loss3/classifier_plantvillage
I0403 19:37:38.473698  9466 net.cpp:399] loss3/classifier_plantvillage_loss3/classifier_plantvillage_0_split -> loss3/classifier_plantvillage_loss3/classifier_plantvillage_0_split_0
I0403 19:37:38.473724  9466 net.cpp:399] loss3/classifier_plantvillage_loss3/classifier_plantvillage_0_split -> loss3/classifier_plantvillage_loss3/classifier_plantvillage_0_split_1
I0403 19:37:38.473749  9466 net.cpp:399] loss3/classifier_plantvillage_loss3/classifier_plantvillage_0_split -> loss3/classifier_plantvillage_loss3/classifier_plantvillage_0_split_2
I0403 19:37:38.473774  9466 net.cpp:399] loss3/classifier_plantvillage_loss3/classifier_plantvillage_0_split -> loss3/classifier_plantvillage_loss3/classifier_plantvillage_0_split_3
I0403 19:37:38.473897  9466 net.cpp:141] Setting up loss3/classifier_plantvillage_loss3/classifier_plantvillage_0_split
I0403 19:37:38.473927  9466 net.cpp:148] Top shape: 24 38 (912)
I0403 19:37:38.473948  9466 net.cpp:148] Top shape: 24 38 (912)
I0403 19:37:38.473966  9466 net.cpp:148] Top shape: 24 38 (912)
I0403 19:37:38.473985  9466 net.cpp:148] Top shape: 24 38 (912)
I0403 19:37:38.474004  9466 net.cpp:156] Memory required for data: 1346079072
I0403 19:37:38.474020  9466 layer_factory.hpp:77] Creating layer loss1/loss
I0403 19:37:38.474057  9466 net.cpp:91] Creating Layer loss1/loss
I0403 19:37:38.474081  9466 net.cpp:425] loss1/loss <- loss1/classifier_plantvillage_loss1/classifier_plantvillage_0_split_0
I0403 19:37:38.474122  9466 net.cpp:425] loss1/loss <- label_data_1_split_0
…
