…
I0403 20:02:15.882458 10301 net.cpp:313] The NetState phase (1) differed from the phase (0) specified by a rule in layer data
I0403 20:02:15.883898 10301 net.cpp:49] Initializing net from parameters: 
state {
  phase: TEST
}
layer {
  name: "data"
  type: "Data"
  top: "data"
  top: "label"
  include {
    phase: TEST
  }
  transform_param {
    mirror: false
    crop_size: 224
    mean_file: "/home/mohanty/data/final_dataset/lmdb/color-50-50/mean.binaryproto"
  }
  data_param {
    source: "/home/mohanty/data/final_dataset/lmdb/color-50-50/test_db"
    batch_size: 24
    backend: LMDB
  }
}
layer {
  name: "conv1/7x7_s2"
  type: "Convolution"
  bottom: "data"
  top: "conv1/7x7_s2"
  param {
    lr_mult: 1
    decay_mult: 1
  }
  param {
    lr_mult: 2
    decay_mult: 0
  }
  convolution_param {
    num_output: 64
    pad: 3
    kernel_size: 7
    stride: 2
    weight_filler {
      type: "xavier"
      std: 0.1
    }
    bias_filler {
      type: "constant"
      value: 0.2
    }
  }
}
layer {
  name: "conv1/relu_7x7"
  type: "ReLU"
  bottom: "conv1/7x7_s2"
  top: "conv1/7x7_s2"
}
layer {
  name: "pool1/3x3_s2"
  type: "Pooling"
  bottom: "conv1/7x7_s2"
  top: "pool1/3x3_s2"
  pooling_param {
    pool: MAX
    kernel_size: 3
    stride: 2
  }
}
layer {
  name: "pool1/norm1"
  type: "LRN"
  bottom: "pool1/3x3_s2"
  top: "pool1/norm1"
  lrn_param {
    local_size: 5
    alpha: 0.0001
    beta: 0.75
  }
}
layer {
  name: "conv2/3x3_reduce"
  type: "Convolution"
  bottom: "pool1/norm1"
  top: "conv2/3x3_reduce"
  param {
    lr_mult: 1
    decay_mult: 1
  }
  param {
    lr_mult: 2
    decay_mult: 0
  }
  convolution_param {
    num_output: 64
    kernel_size: 1
    weight_filler {
      type: "xavier"
      std: 0.1
    }
    bias_filler {
      type: "constant"
      value: 0.2
    }
  }
}
layer {
  name: "conv2/relu_3x3_reduce"
  type: "ReLU"
  bottom: "conv2/3x3_reduce"
  top: "conv2/3x3_reduce"
}
layer {
  name: "conv2/3x3"
  type: "Convolution"
  bottom: "conv2/3x3_reduce"
  top: "conv2/3x3"
  param {
    lr_mult: 1
    decay_mult: 1
  }
  param {
    lr_mult: 2
    decay_mult: 0
  }
  convolution_param {
    num_output: 192
    pad: 1
    kernel_size: 3
    weight_filler {
      type: "xavier"
      std: 0.03
    }
    bias_filler {
      type: "constant"
      value: 0.2
    }
  }
}
layer {
  name: "conv2/relu_3x3"
  type: "ReLU"
  bottom: "conv2/3x3"
  top: "conv2/3x3"
}
layer {
  name: "conv2/norm2"
  type: "LRN"
  bottom: "conv2/3x3"
  top: "conv2/norm2"
  lrn_param {
    local_size: 5
    alpha: 0.0001
    beta: 0.75
  }
}
layer {
  name: "pool2/3x3_s2"
  type: "Pooling"
  bottom: "conv2/norm2"
  top: "pool2/3x3_s2"
  pooling_param {
    pool: MAX
    kernel_size: 3
    stride: 2
  }
}
layer {
  name: "inception_3a/1x1"
  type: "Convolution"
  bottom: "pool2/3x3_s2"
  top: "inception_3a/1x1"
  param {
    lr_mult: 1
    decay_mult: 1
  }
  param {
    lr_mult: 2
    decay_mult: 0
  }
  convolution_param {
    num_output: 64
    kernel_size: 1
    weight_filler {
      type: "xavier"
      std: 0.03
    }
    bias_filler {
      type: "constant"
      value: 0.2
    }
  }
}
layer {
  name: "inception_3a/relu_1x1"
  type: "ReLU"
  bottom: "inception_3a/1x1"
  top: "inception_3a/1x1"
}
layer {
  name: "inception_3a/3x3_reduce"
  type: "Convolution"
  bottom: "pool2/3x3_s2"
  top: "inception_3a/3x3_reduce"
  param {
    lr_mult: 1
    decay_mult: 1
  }
  param {
    lr_mult: 2
    decay_mult: 0
  }
  convolution_param {
    num_output: 96
    kernel_size: 1
    weight_filler {
      type: "xavier"
      std: 0.09
    }
    bias_filler {
      type: "constant"
      value: 0.2
    }
  }
}
layer {
  name: "inception_3a/relu_3x3_reduce"
  type: "ReLU"
  bottom: "inception_3a/3x3_reduce"
  top: "inception_3a/3x3_reduce"
}
layer {
  name: "inception_3a/3x3"
  type: "Convolution"
  bottom: "inception_3a/3x3_reduce"
  top: "inception_3a/3x3"
  param {
    lr_mult: 1
    decay_mult: 1
  }
  param {
    lr_mult: 2
    decay_mult: 0
  }
  convolution_param {
    num_output: 128
    pad: 1
    kernel_size: 3
    weight_filler {
      type: "xavier"
      std: 0.03
    }
    bias_filler {
      type: "constant"
      value: 0.2
    }
  }
}
layer {
  name: "inception_3a/relu_3x3"
  type: "ReLU"
  bottom: "inception_3a/3x3"
  top: "inception_3a/3x3"
}
layer {
  name: "inception_3a/5x5_reduce"
  type: "Convolution"
  bottom: "pool2/3x3_s2"
  top: "inception_3a/5x5_reduce"
  param {
    lr_mult: 1
    decay_mult: 1
  }
  param {
    lr_mult: 2
    decay_mult: 0
  }
  convolution_param {
    num_output: 16
    kernel_size: 1
    weight_filler {
      type: "xavier"
      std: 0.2
    }
    bias_filler {
      type: "constant"
      value: 0.2
    }
  }
}
layer {
  name: "inception_3a/relu_5x5_reduce"
  type: "ReLU"
  bottom: "inception_3a/5x5_reduce"
  top: "inception_3a/5x5_reduce"
}
layer {
  name: "inception_3a/5x5"
  type: "Convolution"
  bottom: "inception_3a/5x5_reduce"
  top: "inception_3a/5x5"
  param {
    lr_mult: 1
    decay_mult: 1
  }
  param {
    lr_mult: 2
    decay_mult: 0
  }
  convolution_param {
    num_output: 32
    pad: 2
    kernel_size: 5
    weight_filler {
      type: "xavier"
      std: 0.03
    }
    bias_filler {
      type: "constant"
      value: 0.2
    }
  }
}
layer {
  name: "inception_3a/relu_5x5"
  type: "ReLU"
  bottom: "inception_3a/5x5"
  top: "inception_3a/5x5"
}
layer {
  name: "inception_3a/pool"
  type: "Pooling"
  bottom: "pool2/3x3_s2"
  top: "inception_3a/pool"
  pooling_param {
    pool: MAX
    kernel_size: 3
    stride: 1
    pad: 1
  }
}
layer {
  name: "inception_3a/pool_proj"
  type: "Convolution"
  bottom: "inception_3a/pool"
  top: "inception_3a/pool_proj"
  param {
    lr_mult: 1
    decay_mult: 1
  }
  param {
    lr_mult: 2
    decay_mult: 0
  }
  convolution_param {
    num_output: 32
    kernel_size: 1
    weight_filler {
      type: "xavier"
      std: 0.1
    }
    bias_filler {
      type: "constant"
      value: 0.2
    }
  }
}
layer {
  name: "inception_3a/relu_pool_proj"
  type: "ReLU"
  bottom: "inception_3a/pool_proj"
  top: "inception_3a/pool_proj"
}
layer {
  name: "inception_3a/output"
  type: "Concat"
  bottom: "inception_3a/1x1"
  bottom: "inception_3a/3x3"
  bottom: "inception_3a/5x5"
  bottom: "inception_3a/pool_proj"
  top: "inception_3a/output"
}
layer {
  name: "inception_3b/1x1"
  type: "Convolution"
  bottom: "inception_3a/output"
  top: "inception_3b/1x1"
  param {
    lr_mult: 1
    decay_mult: 1
  }
  param {
    lr_mult: 2
    decay_mult: 0
  }
  convolution_param {
    num_output: 128
    kernel_size: 1
    weight_filler {
      type: "xavier"
      std: 0.03
    }
    bias_filler {
      type: "constant"
      value: 0.2
    }
  }
}
layer {
  name: "inception_3b/relu_1x1"
  type: "ReLU"
  bottom: "inception_3b/1x1"
  top: "inception_3b/1x1"
}
layer {
  name: "inception_3b/3x3_reduce"
  type: "Convolution"
  bottom: "inception_3a/output"
  top: "inception_3b/3x3_reduce"
  param {
    lr_mult: 1
    decay_mult: 1
  }
  param {
    lr_mult: 2
    decay_mult: 0
  }
  convolution_param {
    num_output: 128
    kernel_size: 1
    weight_filler {
      type: "xavier"
      std: 0.09
    }
    bias_filler {
      type: "constant"
      value: 0.2
    }
  }
}
layer {
  name: "inception_3b/relu_3x3_reduce"
  type: "ReLU"
  bottom: "inception_3b/3x3_reduce"
  top: "inception_3b/3x3_reduce"
}
layer {
  name: "inception_3b/3x3"
  type: "Convolution"
  bottom: "inception_3b/3x3_reduce"
  top: "inception_3b/3x3"
  param {
    lr_mult: 1
    decay_mult: 1
  }
  param {
    lr_mult: 2
    decay_mult: 0
  }
  convolution_param {
    num_output: 192
    pad: 1
    kernel_size: 3
    weight_filler {
      type: "xavier"
      std: 0.03
    }
    bias_filler {
      type: "constant"
      value: 0.2
    }
  }
}
layer {
  name: "inception_3b/relu_3x3"
  type: "ReLU"
  bottom: "inception_3b/3x3"
  top: "inception_3b/3x3"
}
layer {
  name: "inception_3b/5x5_reduce"
  type: "Convolution"
  bottom: "inception_3a/output"
  top: "inception_3b/5x5_reduce"
  param {
    lr_mult: 1
    decay_mult: 1
  }
  param {
    lr_mult: 2
    decay_mult: 0
  }
  convolution_param {
    num_output: 32
    kernel_size: 1
    weight_filler {
      type: "xavier"
      std: 0.2
    }
    bias_filler {
      type: "constant"
      value: 0.2
    }
  }
}
layer {
  name: "inception_3b/relu_5x5_reduce"
  type: "ReLU"
  bottom: "inception_3b/5x5_reduce"
  top: "inception_3b/5x5_reduce"
}
layer {
  name: "inception_3b/5x5"
  type: "Convolution"
  bottom: "inception_3b/5x5_reduce"
  top: "inception_3b/5x5"
  param {
    lr_mult: 1
    decay_mult: 1
  }
  param {
    lr_mult: 2
    decay_mult: 0
  }
  convolution_param {
    num_output: 96
    pad: 2
    kernel_size: 5
    weight_filler {
      type: "xavier"
      std: 0.03
    }
    bias_filler {
      type: "constant"
      value: 0.2
    }
  }
}
layer {
  name: "inception_3b/relu_5x5"
  type: "ReLU"
  bottom: "inception_3b/5x5"
  top: "inception_3b/5x5"
}
layer {
  name: "inception_3b/pool"
  type: "Pooling"
  bottom: "inception_3a/output"
  top: "inception_3b/pool"
  pooling_param {
    pool: MAX
    kernel_size: 3
    stride: 1
    pad: 1
  }
}
layer {
  name: "inception_3b/pool_proj"
  type: "Convolution"
  bottom: "inception_3b/pool"
  top: "inception_3b/pool_proj"
  param {
    lr_mult: 1
    decay_mult: 1
  }
  param {
    lr_mult: 2
    decay_mult: 0
  }
  convolution_param {
    num_output: 64
    kernel_size: 1
    weight_filler {
      type: "xavier"
      std: 0.1
    }
    bias_filler {
      type: "constant"
      value: 0.2
    }
  }
}
layer {
  name: "inception_3b/relu_pool_proj"
  type: "ReLU"
  bottom: "inception_3b/pool_proj"
  top: "inception_3b/pool_proj"
}
layer {
  name: "inception_3b/output"
  type: "Concat"
  bottom: "inception_3b/1x1"
  bottom: "inception_3b/3x3"
  bottom: "inception_3b/5x5"
  bottom: "inception_3b/pool_proj"
  top: "inception_3b/output"
}
layer {
  name: "pool3/3x3_s2"
  type: "Pooling"
  bottom: "inception_3b/output"
  top: "pool3/3x3_s2"
  pooling_param {
    pool: MAX
    kernel_size: 3
    stride: 2
  }
}
layer {
  name: "inception_4a/1x1"
  type: "Convolution"
  bottom: "pool3/3x3_s2"
  top: "inception_4a/1x1"
  param {
    lr_mult: 1
    decay_mult: 1
  }
  param {
    lr_mult: 2
    decay_mult: 0
  }
  convolution_param {
    num_output: 192
    kernel_size: 1
    weight_filler {
      type: "xavier"
      std: 0.03
    }
    bias_filler {
      type: "constant"
      value: 0.2
    }
  }
}
layer {
  name: "inception_4a/relu_1x1"
  type: "ReLU"
  bottom: "inception_4a/1x1"
  top: "inception_4a/1x1"
}
layer {
  name: "inception_4a/3x3_reduce"
  type: "Convolution"
  bottom: "pool3/3x3_s2"
  top: "inception_4a/3x3_reduce"
  param {
    lr_mult: 1
    decay_mult: 1
  }
  param {
    lr_mult: 2
    decay_mult: 0
  }
  convolution_param {
    num_output: 96
    kernel_size: 1
    weight_filler {
      type: "xavier"
      std: 0.09
    }
    bias_filler {
      type: "constant"
      value: 0.2
    }
  }
}
layer {
  name: "inception_4a/relu_3x3_reduce"
  type: "ReLU"
  bottom: "inception_4a/3x3_reduce"
  top: "inception_4a/3x3_reduce"
}
layer {
  name: "inception_4a/3x3"
  type: "Convolution"
  bottom: "inception_4a/3x3_reduce"
  top: "inception_4a/3x3"
  param {
    lr_mult: 1
    decay_mult: 1
  }
  param {
    lr_mult: 2
    decay_mult: 0
  }
  convolution_param {
    num_output: 208
    pad: 1
    kernel_size: 3
    weight_filler {
      type: "xavier"
      std: 0.03
    }
    bias_filler {
      type: "constant"
      value: 0.2
    }
  }
}
layer {
  name: "inception_4a/relu_3x3"
  type: "ReLU"
  bottom: "inception_4a/3x3"
  top: "inception_4a/3x3"
}
layer {
  name: "inception_4a/5x5_reduce"
  type: "Convolution"
  bottom: "pool3/3x3_s2"
  top: "inception_4a/5x5_reduce"
  param {
    lr_mult: 1
    decay_mult: 1
  }
  param {
    lr_mult: 2
    decay_mult: 0
  }
  convolution_param {
    num_output: 16
    kernel_size: 1
    weight_filler {
      type: "xavier"
      std: 0.2
    }
    bias_filler {
      type: "constant"
      value: 0.2
    }
  }
}
layer {
  name: "inception_4a/relu_5x5_reduce"
  type: "ReLU"
  bottom: "inception_4a/5x5_reduce"
  top: "inception_4a/5x5_reduce"
}
layer {
  name: "inception_4a/5x5"
  type: "Convolution"
  bottom: "inception_4a/5x5_reduce"
  top: "inception_4a/5x5"
  param {
    lr_mult: 1
    decay_mult: 1
  }
  param {
    lr_mult: 2
    decay_mult: 0
  }
  convolution_param {
    num_output: 48
    pad: 2
    kernel_size: 5
    weight_filler {
      type: "xavier"
      std: 0.03
    }
    bias_filler {
      type: "constant"
      value: 0.2
    }
  }
}
layer {
  name: "inception_4a/relu_5x5"
  type: "ReLU"
  bottom: "inception_4a/5x5"
  top: "inception_4a/5x5"
}
layer {
  name: "inception_4a/pool"
  type: "Pooling"
  bottom: "pool3/3x3_s2"
  top: "inception_4a/pool"
  pooling_param {
    pool: MAX
    kernel_size: 3
    stride: 1
    pad: 1
  }
}
layer {
  name: "inception_4a/pool_proj"
  type: "Convolution"
  bottom: "inception_4a/pool"
  top: "inception_4a/pool_proj"
  param {
    lr_mult: 1
    decay_mult: 1
  }
  param {
    lr_mult: 2
    decay_mult: 0
  }
  convolution_param {
    num_output: 64
    kernel_size: 1
    weight_filler {
      type: "xavier"
      std: 0.1
    }
    bias_filler {
      type: "constant"
      value: 0.2
    }
  }
}
layer {
  name: "inception_4a/relu_pool_proj"
  type: "ReLU"
  bottom: "inception_4a/pool_proj"
  top: "inception_4a/pool_proj"
}
layer {
  name: "inception_4a/output"
  type: "Concat"
  bottom: "inception_4a/1x1"
  bottom: "inception_4a/3x3"
  bottom: "inception_4a/5x5"
  bottom: "inception_4a/pool_proj"
  top: "inception_4a/output"
}
layer {
  name: "loss1/ave_pool"
  type: "Pooling"
  bottom: "inception_4a/output"
  top: "loss1/ave_pool"
  pooling_param {
    pool: AVE
    kernel_size: 5
    stride: 3
  }
}
layer {
  name: "loss1/conv"
  type: "Convolution"
  bottom: "loss1/ave_pool"
  top: "loss1/conv"
  param {
    lr_mult: 1
    decay_mult: 1
  }
  param {
    lr_mult: 2
    decay_mult: 0
  }
  convolution_param {
    num_output: 128
    kernel_size: 1
    weight_filler {
      type: "xavier"
      std: 0.08
    }
    bias_filler {
      type: "constant"
      value: 0.2
    }
  }
}
layer {
  name: "loss1/relu_conv"
  type: "ReLU"
  bottom: "loss1/conv"
  top: "loss1/conv"
}
layer {
  name: "loss1/fc"
  type: "InnerProduct"
  bottom: "loss1/conv"
  top: "loss1/fc"
  param {
    lr_mult: 1
    decay_mult: 1
  }
  param {
    lr_mult: 2
    decay_mult: 0
  }
  inner_product_param {
    num_output: 1024
    weight_filler {
      type: "xavier"
      std: 0.02
    }
    bias_filler {
      type: "constant"
      value: 0.2
    }
  }
}
layer {
  name: "loss1/relu_fc"
  type: "ReLU"
  bottom: "loss1/fc"
  top: "loss1/fc"
}
layer {
  name: "loss1/drop_fc"
  type: "Dropout"
  bottom: "loss1/fc"
  top: "loss1/fc"
  dropout_param {
    dropout_ratio: 0.7
  }
}
layer {
  name: "loss1/classifier_plantvillage"
  type: "InnerProduct"
  bottom: "loss1/fc"
  top: "loss1/classifier_plantvillage"
  param {
    lr_mult: 1
    decay_mult: 1
  }
  param {
    lr_mult: 2
    decay_mult: 0
  }
  inner_product_param {
    num_output: 38
    weight_filler {
      type: "xavier"
      std: 0.0009765625
    }
    bias_filler {
      type: "constant"
      value: 0
    }
  }
}
layer {
  name: "inception_4b/1x1"
  type: "Convolution"
  bottom: "inception_4a/output"
  top: "inception_4b/1x1"
  param {
    lr_mult: 1
    decay_mult: 1
  }
  param {
    lr_mult: 2
    decay_mult: 0
  }
  convolution_param {
    num_output: 160
    kernel_size: 1
    weight_filler {
      type: "xavier"
      std: 0.03
    }
    bias_filler {
      type: "constant"
      value: 0.2
    }
  }
}
layer {
  name: "inception_4b/relu_1x1"
  type: "ReLU"
  bottom: "inception_4b/1x1"
  top: "inception_4b/1x1"
}
layer {
  name: "inception_4b/3x3_reduce"
  type: "Convolution"
  bottom: "inception_4a/output"
  top: "inception_4b/3x3_reduce"
  param {
    lr_mult: 1
    decay_mult: 1
  }
  param {
    lr_mult: 2
    decay_mult: 0
  }
  convolution_param {
    num_output: 112
    kernel_size: 1
    weight_filler {
      type: "xavier"
      std: 0.09
    }
    bias_filler {
      type: "constant"
      value: 0.2
    }
  }
}
layer {
  name: "inception_4b/relu_3x3_reduce"
  type: "ReLU"
  bottom: "inception_4b/3x3_reduce"
  top: "inception_4b/3x3_reduce"
}
layer {
  name: "inception_4b/3x3"
  type: "Convolution"
  bottom: "inception_4b/3x3_reduce"
  top: "inception_4b/3x3"
  param {
    lr_mult: 1
    decay_mult: 1
  }
  param {
    lr_mult: 2
    decay_mult: 0
  }
  convolution_param {
    num_output: 224
    pad: 1
    kernel_size: 3
    weight_filler {
      type: "xavier"
      std: 0.03
    }
    bias_filler {
      type: "constant"
      value: 0.2
    }
  }
}
layer {
  name: "inception_4b/relu_3x3"
  type: "ReLU"
  bottom: "inception_4b/3x3"
  top: "inception_4b/3x3"
}
layer {
  name: "inception_4b/5x5_reduce"
  type: "Convolution"
  bottom: "inception_4a/output"
  top: "inception_4b/5x5_reduce"
  param {
    lr_mult: 1
    decay_mult: 1
  }
  param {
    lr_mult: 2
    decay_mult: 0
  }
  convolution_param {
    num_output: 24
    kernel_size: 1
    weight_filler {
      type: "xavier"
      std: 0.2
    }
    bias_filler {
      type: "constant"
      value: 0.2
    }
  }
}
layer {
  name: "inception_4b/relu_5x5_reduce"
  type: "ReLU"
  bottom: "inception_4b/5x5_reduce"
  top: "inception_4b/5x5_reduce"
}
layer {
  name: "inception_4b/5x5"
  type: "Convolution"
  bottom: "inception_4b/5x5_reduce"
  top: "inception_4b/5x5"
  param {
    lr_mult: 1
    decay_mult: 1
  }
  param {
    lr_mult: 2
    decay_mult: 0
  }
  convolution_param {
    num_output: 64
    pad: 2
    kernel_size: 5
    weight_filler {
      type: "xavier"
      std: 0.03
    }
    bias_filler {
      type: "constant"
      value: 0.2
    }
  }
}
layer {
  name: "inception_4b/relu_5x5"
  type: "ReLU"
  bottom: "inception_4b/5x5"
  top: "inception_4b/5x5"
}
layer {
  name: "inception_4b/pool"
  type: "Pooling"
  bottom: "inception_4a/output"
  top: "inception_4b/pool"
  pooling_param {
    pool: MAX
    kernel_size: 3
    stride: 1
    pad: 1
  }
}
layer {
  name: "inception_4b/pool_proj"
  type: "Convolution"
  bottom: "inception_4b/pool"
  top: "inception_4b/pool_proj"
  param {
    lr_mult: 1
    decay_mult: 1
  }
  param {
    lr_mult: 2
    decay_mult: 0
  }
  convolution_param {
    num_output: 64
    kernel_size: 1
    weight_filler {
      type: "xavier"
      std: 0.1
    }
    bias_filler {
      type: "constant"
      value: 0.2
    }
  }
}
layer {
  name: "inception_4b/relu_pool_proj"
  type: "ReLU"
  bottom: "inception_4b/pool_proj"
  top: "inception_4b/pool_proj"
}
layer {
  name: "inception_4b/output"
  type: "Concat"
  bottom: "inception_4b/1x1"
  bottom: "inception_4b/3x3"
  bottom: "inception_4b/5x5"
  bottom: "inception_4b/pool_proj"
  top: "inception_4b/output"
}
layer {
  name: "inception_4c/1x1"
  type: "Convolution"
  bottom: "inception_4b/output"
  top: "inception_4c/1x1"
  param {
    lr_mult: 1
    decay_mult: 1
  }
  param {
    lr_mult: 2
    decay_mult: 0
  }
  convolution_param {
    num_output: 128
    kernel_size: 1
    weight_filler {
      type: "xavier"
      std: 0.03
    }
    bias_filler {
      type: "constant"
      value: 0.2
    }
  }
}
layer {
  name: "inception_4c/relu_1x1"
  type: "ReLU"
  bottom: "inception_4c/1x1"
  top: "inception_4c/1x1"
}
layer {
  name: "inception_4c/3x3_reduce"
  type: "Convolution"
  bottom: "inception_4b/output"
  top: "inception_4c/3x3_reduce"
  param {
    lr_mult: 1
    decay_mult: 1
  }
  param {
    lr_mult: 2
    decay_mult: 0
  }
  convolution_param {
    num_output: 128
    kernel_size: 1
    weight_filler {
      type: "xavier"
      std: 0.09
    }
    bias_filler {
      type: "constant"
      value: 0.2
    }
  }
}
layer {
  name: "inception_4c/relu_3x3_reduce"
  type: "ReLU"
  bottom: "inception_4c/3x3_reduce"
  top: "inception_4c/3x3_reduce"
}
layer {
  name: "inception_4c/3x3"
  type: "Convolution"
  bottom: "inception_4c/3x3_reduce"
  top: "inception_4c/3x3"
  param {
    lr_mult: 1
    decay_mult: 1
  }
  param {
    lr_mult: 2
    decay_mult: 0
  }
  convolution_param {
    num_output: 256
    pad: 1
    kernel_size: 3
    weight_filler {
      type: "xavier"
      std: 0.03
    }
    bias_filler {
      type: "constant"
      value: 0.2
    }
  }
}
layer {
  name: "inception_4c/relu_3x3"
  type: "ReLU"
  bottom: "inception_4c/3x3"
  top: "inception_4c/3x3"
}
layer {
  name: "inception_4c/5x5_reduce"
  type: "Convolution"
  bottom: "inception_4b/output"
  top: "inception_4c/5x5_reduce"
  param {
    lr_mult: 1
    decay_mult: 1
  }
  param {
    lr_mult: 2
    decay_mult: 0
  }
  convolution_param {
    num_output: 24
    kernel_size: 1
    weight_filler {
      type: "xavier"
      std: 0.2
    }
    bias_filler {
      type: "constant"
      value: 0.2
    }
  }
}
layer {
  name: "inception_4c/relu_5x5_reduce"
  type: "ReLU"
  bottom: "inception_4c/5x5_reduce"
  top: "inception_4c/5x5_reduce"
}
layer {
  name: "inception_4c/5x5"
  type: "Convolution"
  bottom: "inception_4c/5x5_reduce"
  top: "inception_4c/5x5"
  param {
    lr_mult: 1
    decay_mult: 1
  }
  param {
    lr_mult: 2
    decay_mult: 0
  }
  convolution_param {
    num_output: 64
    pad: 2
    kernel_size: 5
    weight_filler {
      type: "xavier"
      std: 0.03
    }
    bias_filler {
      type: "constant"
      value: 0.2
    }
  }
}
layer {
  name: "inception_4c/relu_5x5"
  type: "ReLU"
  bottom: "inception_4c/5x5"
  top: "inception_4c/5x5"
}
layer {
  name: "inception_4c/pool"
  type: "Pooling"
  bottom: "inception_4b/output"
  top: "inception_4c/pool"
  pooling_param {
    pool: MAX
    kernel_size: 3
    stride: 1
    pad: 1
  }
}
layer {
  name: "inception_4c/pool_proj"
  type: "Convolution"
  bottom: "inception_4c/pool"
  top: "inception_4c/pool_proj"
  param {
    lr_mult: 1
    decay_mult: 1
  }
  param {
    lr_mult: 2
    decay_mult: 0
  }
  convolution_param {
    num_output: 64
    kernel_size: 1
    weight_filler {
      type: "xavier"
      std: 0.1
    }
    bias_filler {
      type: "constant"
      value: 0.2
    }
  }
}
layer {
  name: "inception_4c/relu_pool_proj"
  type: "ReLU"
  bottom: "inception_4c/pool_proj"
  top: "inception_4c/pool_proj"
}
layer {
  name: "inception_4c/output"
  type: "Concat"
  bottom: "inception_4c/1x1"
  bottom: "inception_4c/3x3"
  bottom: "inception_4c/5x5"
  bottom: "inception_4c/pool_proj"
  top: "inception_4c/output"
}
layer {
  name: "inception_4d/1x1"
  type: "Convolution"
  bottom: "inception_4c/output"
  top: "inception_4d/1x1"
  param {
    lr_mult: 1
    decay_mult: 1
  }
  param {
    lr_mult: 2
    decay_mult: 0
  }
  convolution_param {
    num_output: 112
    kernel_size: 1
    weight_filler {
      type: "xavier"
      std: 0.03
    }
    bias_filler {
      type: "constant"
      value: 0.2
    }
  }
}
layer {
  name: "inception_4d/relu_1x1"
  type: "ReLU"
  bottom: "inception_4d/1x1"
  top: "inception_4d/1x1"
}
layer {
  name: "inception_4d/3x3_reduce"
  type: "Convolution"
  bottom: "inception_4c/output"
  top: "inception_4d/3x3_reduce"
  param {
    lr_mult: 1
    decay_mult: 1
  }
  param {
    lr_mult: 2
    decay_mult: 0
  }
  convolution_param {
    num_output: 144
    kernel_size: 1
    weight_filler {
      type: "xavier"
      std: 0.09
    }
    bias_filler {
      type: "constant"
      value: 0.2
    }
  }
}
layer {
  name: "inception_4d/relu_3x3_reduce"
  type: "ReLU"
  bottom: "inception_4d/3x3_reduce"
  top: "inception_4d/3x3_reduce"
}
layer {
  name: "inception_4d/3x3"
  type: "Convolution"
  bottom: "inception_4d/3x3_reduce"
  top: "inception_4d/3x3"
  param {
    lr_mult: 1
    decay_mult: 1
  }
  param {
    lr_mult: 2
    decay_mult: 0
  }
  convolution_param {
    num_output: 288
    pad: 1
    kernel_size: 3
    weight_filler {
      type: "xavier"
      std: 0.03
    }
    bias_filler {
      type: "constant"
      value: 0.2
    }
  }
}
layer {
  name: "inception_4d/relu_3x3"
  type: "ReLU"
  bottom: "inception_4d/3x3"
  top: "inception_4d/3x3"
}
layer {
  name: "inception_4d/5x5_reduce"
  type: "Convolution"
  bottom: "inception_4c/output"
  top: "inception_4d/5x5_reduce"
  param {
    lr_mult: 1
    decay_mult: 1
  }
  param {
    lr_mult: 2
    decay_mult: 0
  }
  convolution_param {
    num_output: 32
    kernel_size: 1
    weight_filler {
      type: "xavier"
      std: 0.2
    }
    bias_filler {
      type: "constant"
      value: 0.2
    }
  }
}
layer {
  name: "inception_4d/relu_5x5_reduce"
  type: "ReLU"
  bottom: "inception_4d/5x5_reduce"
  top: "inception_4d/5x5_reduce"
}
layer {
  name: "inception_4d/5x5"
  type: "Convolution"
  bottom: "inception_4d/5x5_reduce"
  top: "inception_4d/5x5"
  param {
    lr_mult: 1
    decay_mult: 1
  }
  param {
    lr_mult: 2
    decay_mult: 0
  }
  convolution_param {
    num_output: 64
    pad: 2
    kernel_size: 5
    weight_filler {
      type: "xavier"
      std: 0.03
    }
    bias_filler {
      type: "constant"
      value: 0.2
    }
  }
}
layer {
  name: "inception_4d/relu_5x5"
  type: "ReLU"
  bottom: "inception_4d/5x5"
  top: "inception_4d/5x5"
}
layer {
  name: "inception_4d/pool"
  type: "Pooling"
  bottom: "inception_4c/output"
  top: "inception_4d/pool"
  pooling_param {
    pool: MAX
    kernel_size: 3
    stride: 1
    pad: 1
  }
}
layer {
  name: "inception_4d/pool_proj"
  type: "Convolution"
  bottom: "inception_4d/pool"
  top: "inception_4d/pool_proj"
  param {
    lr_mult: 1
    decay_mult: 1
  }
  param {
    lr_mult: 2
    decay_mult: 0
  }
  convolution_param {
    num_output: 64
    kernel_size: 1
    weight_filler {
      type: "xavier"
      std: 0.1
    }
    bias_filler {
      type: "constant"
      value: 0.2
    }
  }
}
layer {
  name: "inception_4d/relu_pool_proj"
  type: "ReLU"
  bottom: "inception_4d/pool_proj"
  top: "inception_4d/pool_proj"
}
layer {
  name: "inception_4d/output"
  type: "Concat"
  bottom: "inception_4d/1x1"
  bottom: "inception_4d/3x3"
  bottom: "inception_4d/5x5"
  bottom: "inception_4d/pool_proj"
  top: "inception_4d/output"
}
layer {
  name: "loss2/ave_pool"
  type: "Pooling"
  bottom: "inception_4d/output"
  top: "loss2/ave_pool"
  pooling_param {
    pool: AVE
    kernel_size: 5
    stride: 3
  }
}
layer {
  name: "loss2/conv"
  type: "Convolution"
  bottom: "loss2/ave_pool"
  top: "loss2/conv"
  param {
    lr_mult: 1
    decay_mult: 1
  }
  param {
    lr_mult: 2
    decay_mult: 0
  }
  convolution_param {
    num_output: 128
    kernel_size: 1
    weight_filler {
      type: "xavier"
      std: 0.08
    }
    bias_filler {
      type: "constant"
      value: 0.2
    }
  }
}
layer {
  name: "loss2/relu_conv"
  type: "ReLU"
  bottom: "loss2/conv"
  top: "loss2/conv"
}
layer {
  name: "loss2/fc"
  type: "InnerProduct"
  bottom: "loss2/conv"
  top: "loss2/fc"
  param {
    lr_mult: 1
    decay_mult: 1
  }
  param {
    lr_mult: 2
    decay_mult: 0
  }
  inner_product_param {
    num_output: 1024
    weight_filler {
      type: "xavier"
      std: 0.02
    }
    bias_filler {
      type: "constant"
      value: 0.2
    }
  }
}
layer {
  name: "loss2/relu_fc"
  type: "ReLU"
  bottom: "loss2/fc"
  top: "loss2/fc"
}
layer {
  name: "loss2/drop_fc"
  type: "Dropout"
  bottom: "loss2/fc"
  top: "loss2/fc"
  dropout_param {
    dropout_ratio: 0.7
  }
}
layer {
  name: "loss2/classifier_plantvillage"
  type: "InnerProduct"
  bottom: "loss2/fc"
  top: "loss2/classifier_plantvillage"
  param {
    lr_mult: 1
    decay_mult: 1
  }
  param {
    lr_mult: 2
    decay_mult: 0
  }
  inner_product_param {
    num_output: 38
    weight_filler {
      type: "xavier"
      std: 0.0009765625
    }
    bias_filler {
      type: "constant"
      value: 0
    }
  }
}
layer {
  name: "inception_4e/1x1"
  type: "Convolution"
  bottom: "inception_4d/output"
  top: "inception_4e/1x1"
  param {
    lr_mult: 1
    decay_mult: 1
  }
  param {
    lr_mult: 2
    decay_mult: 0
  }
  convolution_param {
    num_output: 256
    kernel_size: 1
    weight_filler {
      type: "xavier"
      std: 0.03
    }
    bias_filler {
      type: "constant"
      value: 0.2
    }
  }
}
layer {
  name: "inception_4e/relu_1x1"
  type: "ReLU"
  bottom: "inception_4e/1x1"
  top: "inception_4e/1x1"
}
layer {
  name: "inception_4e/3x3_reduce"
  type: "Convolution"
  bottom: "inception_4d/output"
  top: "inception_4e/3x3_reduce"
  param {
    lr_mult: 1
    decay_mult: 1
  }
  param {
    lr_mult: 2
    decay_mult: 0
  }
  convolution_param {
    num_output: 160
    kernel_size: 1
    weight_filler {
      type: "xavier"
      std: 0.09
    }
    bias_filler {
      type: "constant"
      value: 0.2
    }
  }
}
layer {
  name: "inception_4e/relu_3x3_reduce"
  type: "ReLU"
  bottom: "inception_4e/3x3_reduce"
  top: "inception_4e/3x3_reduce"
}
layer {
  name: "inception_4e/3x3"
  type: "Convolution"
  bottom: "inception_4e/3x3_reduce"
  top: "inception_4e/3x3"
  param {
    lr_mult: 1
    decay_mult: 1
  }
  param {
    lr_mult: 2
    decay_mult: 0
  }
  convolution_param {
    num_output: 320
    pad: 1
    kernel_size: 3
    weight_filler {
      type: "xavier"
      std: 0.03
    }
    bias_filler {
      type: "constant"
      value: 0.2
    }
  }
}
layer {
  name: "inception_4e/relu_3x3"
  type: "ReLU"
  bottom: "inception_4e/3x3"
  top: "inception_4e/3x3"
}
layer {
  name: "inception_4e/5x5_reduce"
  type: "Convolution"
  bottom: "inception_4d/output"
  top: "inception_4e/5x5_reduce"
  param {
    lr_mult: 1
    decay_mult: 1
  }
  param {
    lr_mult: 2
    decay_mult: 0
  }
  convolution_param {
    num_output: 32
    kernel_size: 1
    weight_filler {
      type: "xavier"
      std: 0.2
    }
    bias_filler {
      type: "constant"
      value: 0.2
    }
  }
}
layer {
  name: "inception_4e/relu_5x5_reduce"
  type: "ReLU"
  bottom: "inception_4e/5x5_reduce"
  top: "inception_4e/5x5_reduce"
}
layer {
  name: "inception_4e/5x5"
  type: "Convolution"
  bottom: "inception_4e/5x5_reduce"
  top: "inception_4e/5x5"
  p
I0403 20:02:15.886284 10301 layer_factory.hpp:77] Creating layer data
I0403 20:02:15.887019 10301 net.cpp:91] Creating Layer data
I0403 20:02:15.887059 10301 net.cpp:399] data -> data
I0403 20:02:15.887121 10301 net.cpp:399] data -> label
I0403 20:02:15.887166 10301 data_transformer.cpp:25] Loading mean file from: /home/mohanty/data/final_dataset/lmdb/color-50-50/mean.binaryproto
I0403 20:02:15.888469 10303 db_lmdb.cpp:38] Opened lmdb /home/mohanty/data/final_dataset/lmdb/color-50-50/test_db
I0403 20:02:15.904208 10301 data_layer.cpp:41] output data size: 24,3,224,224
I0403 20:02:15.936570 10301 net.cpp:141] Setting up data
I0403 20:02:15.936683 10301 net.cpp:148] Top shape: 24 3 224 224 (3612672)
I0403 20:02:15.936713 10301 net.cpp:148] Top shape: 24 (24)
I0403 20:02:15.936733 10301 net.cpp:156] Memory required for data: 14450784
I0403 20:02:15.936769 10301 layer_factory.hpp:77] Creating layer label_data_1_split
I0403 20:02:15.936802 10301 net.cpp:91] Creating Layer label_data_1_split
I0403 20:02:15.936825 10301 net.cpp:425] label_data_1_split <- label
I0403 20:02:15.936862 10301 net.cpp:399] label_data_1_split -> label_data_1_split_0
I0403 20:02:15.936897 10301 net.cpp:399] label_data_1_split -> label_data_1_split_1
I0403 20:02:15.936923 10301 net.cpp:399] label_data_1_split -> label_data_1_split_2
I0403 20:02:15.936949 10301 net.cpp:399] label_data_1_split -> label_data_1_split_3
I0403 20:02:15.936975 10301 net.cpp:399] label_data_1_split -> label_data_1_split_4
I0403 20:02:15.937000 10301 net.cpp:399] label_data_1_split -> label_data_1_split_5
I0403 20:02:15.937022 10301 net.cpp:399] label_data_1_split -> label_data_1_split_6
I0403 20:02:15.937047 10301 net.cpp:399] label_data_1_split -> label_data_1_split_7
I0403 20:02:15.937069 10301 net.cpp:399] label_data_1_split -> label_data_1_split_8
I0403 20:02:15.937094 10301 net.cpp:399] label_data_1_split -> label_data_1_split_9
I0403 20:02:15.937233 10301 net.cpp:141] Setting up label_data_1_split
I0403 20:02:15.937269 10301 net.cpp:148] Top shape: 24 (24)
I0403 20:02:15.937290 10301 net.cpp:148] Top shape: 24 (24)
I0403 20:02:15.937310 10301 net.cpp:148] Top shape: 24 (24)
I0403 20:02:15.937330 10301 net.cpp:148] Top shape: 24 (24)
I0403 20:02:15.937348 10301 net.cpp:148] Top shape: 24 (24)
I0403 20:02:15.937367 10301 net.cpp:148] Top shape: 24 (24)
I0403 20:02:15.937386 10301 net.cpp:148] Top shape: 24 (24)
I0403 20:02:15.937407 10301 net.cpp:148] Top shape: 24 (24)
I0403 20:02:15.937425 10301 net.cpp:148] Top shape: 24 (24)
I0403 20:02:15.937446 10301 net.cpp:148] Top shape: 24 (24)
I0403 20:02:15.937501 10301 net.cpp:156] Memory required for data: 14451744
I0403 20:02:15.937523 10301 layer_factory.hpp:77] Creating layer conv1/7x7_s2
I0403 20:02:15.937562 10301 net.cpp:91] Creating Layer conv1/7x7_s2
I0403 20:02:15.937585 10301 net.cpp:425] conv1/7x7_s2 <- data
I0403 20:02:15.937609 10301 net.cpp:399] conv1/7x7_s2 -> conv1/7x7_s2
I0403 20:02:16.103016 10301 net.cpp:141] Setting up conv1/7x7_s2
I0403 20:02:16.103137 10301 net.cpp:148] Top shape: 24 64 112 112 (19267584)
I0403 20:02:16.103157 10301 net.cpp:156] Memory required for data: 91522080
I0403 20:02:16.103195 10301 layer_factory.hpp:77] Creating layer conv1/relu_7x7
I0403 20:02:16.103229 10301 net.cpp:91] Creating Layer conv1/relu_7x7
I0403 20:02:16.103258 10301 net.cpp:425] conv1/relu_7x7 <- conv1/7x7_s2
I0403 20:02:16.103282 10301 net.cpp:386] conv1/relu_7x7 -> conv1/7x7_s2 (in-place)
I0403 20:02:16.103591 10301 net.cpp:141] Setting up conv1/relu_7x7
I0403 20:02:16.103624 10301 net.cpp:148] Top shape: 24 64 112 112 (19267584)
I0403 20:02:16.103643 10301 net.cpp:156] Memory required for data: 168592416
I0403 20:02:16.103664 10301 layer_factory.hpp:77] Creating layer pool1/3x3_s2
I0403 20:02:16.103696 10301 net.cpp:91] Creating Layer pool1/3x3_s2
I0403 20:02:16.103721 10301 net.cpp:425] pool1/3x3_s2 <- conv1/7x7_s2
I0403 20:02:16.103749 10301 net.cpp:399] pool1/3x3_s2 -> pool1/3x3_s2
I0403 20:02:16.103840 10301 net.cpp:141] Setting up pool1/3x3_s2
I0403 20:02:16.103870 10301 net.cpp:148] Top shape: 24 64 56 56 (4816896)
I0403 20:02:16.103888 10301 net.cpp:156] Memory required for data: 187860000
I0403 20:02:16.103907 10301 layer_factory.hpp:77] Creating layer pool1/norm1
I0403 20:02:16.103937 10301 net.cpp:91] Creating Layer pool1/norm1
I0403 20:02:16.103960 10301 net.cpp:425] pool1/norm1 <- pool1/3x3_s2
I0403 20:02:16.103982 10301 net.cpp:399] pool1/norm1 -> pool1/norm1
I0403 20:02:16.104364 10301 net.cpp:141] Setting up pool1/norm1
I0403 20:02:16.104400 10301 net.cpp:148] Top shape: 24 64 56 56 (4816896)
I0403 20:02:16.104420 10301 net.cpp:156] Memory required for data: 207127584
I0403 20:02:16.104439 10301 layer_factory.hpp:77] Creating layer conv2/3x3_reduce
I0403 20:02:16.104472 10301 net.cpp:91] Creating Layer conv2/3x3_reduce
I0403 20:02:16.104493 10301 net.cpp:425] conv2/3x3_reduce <- pool1/norm1
I0403 20:02:16.104519 10301 net.cpp:399] conv2/3x3_reduce -> conv2/3x3_reduce
I0403 20:02:16.106220 10301 net.cpp:141] Setting up conv2/3x3_reduce
I0403 20:02:16.106261 10301 net.cpp:148] Top shape: 24 64 56 56 (4816896)
I0403 20:02:16.106282 10301 net.cpp:156] Memory required for data: 226395168
I0403 20:02:16.106312 10301 layer_factory.hpp:77] Creating layer conv2/relu_3x3_reduce
I0403 20:02:16.106336 10301 net.cpp:91] Creating Layer conv2/relu_3x3_reduce
I0403 20:02:16.106356 10301 net.cpp:425] conv2/relu_3x3_reduce <- conv2/3x3_reduce
I0403 20:02:16.106379 10301 net.cpp:386] conv2/relu_3x3_reduce -> conv2/3x3_reduce (in-place)
I0403 20:02:16.106698 10301 net.cpp:141] Setting up conv2/relu_3x3_reduce
I0403 20:02:16.106731 10301 net.cpp:148] Top shape: 24 64 56 56 (4816896)
I0403 20:02:16.106750 10301 net.cpp:156] Memory required for data: 245662752
I0403 20:02:16.106770 10301 layer_factory.hpp:77] Creating layer conv2/3x3
I0403 20:02:16.106801 10301 net.cpp:91] Creating Layer conv2/3x3
I0403 20:02:16.106823 10301 net.cpp:425] conv2/3x3 <- conv2/3x3_reduce
I0403 20:02:16.106848 10301 net.cpp:399] conv2/3x3 -> conv2/3x3
I0403 20:02:16.109633 10301 net.cpp:141] Setting up conv2/3x3
I0403 20:02:16.109678 10301 net.cpp:148] Top shape: 24 192 56 56 (14450688)
I0403 20:02:16.109699 10301 net.cpp:156] Memory required for data: 303465504
I0403 20:02:16.109735 10301 layer_factory.hpp:77] Creating layer conv2/relu_3x3
I0403 20:02:16.109760 10301 net.cpp:91] Creating Layer conv2/relu_3x3
I0403 20:02:16.109779 10301 net.cpp:425] conv2/relu_3x3 <- conv2/3x3
I0403 20:02:16.109802 10301 net.cpp:386] conv2/relu_3x3 -> conv2/3x3 (in-place)
I0403 20:02:16.110020 10301 net.cpp:141] Setting up conv2/relu_3x3
I0403 20:02:16.110051 10301 net.cpp:148] Top shape: 24 192 56 56 (14450688)
I0403 20:02:16.110107 10301 net.cpp:156] Memory required for data: 361268256
I0403 20:02:16.110127 10301 layer_factory.hpp:77] Creating layer conv2/norm2
I0403 20:02:16.110155 10301 net.cpp:91] Creating Layer conv2/norm2
I0403 20:02:16.110177 10301 net.cpp:425] conv2/norm2 <- conv2/3x3
I0403 20:02:16.110198 10301 net.cpp:399] conv2/norm2 -> conv2/norm2
I0403 20:02:16.110565 10301 net.cpp:141] Setting up conv2/norm2
I0403 20:02:16.110599 10301 net.cpp:148] Top shape: 24 192 56 56 (14450688)
I0403 20:02:16.110617 10301 net.cpp:156] Memory required for data: 419071008
I0403 20:02:16.110635 10301 layer_factory.hpp:77] Creating layer pool2/3x3_s2
I0403 20:02:16.110661 10301 net.cpp:91] Creating Layer pool2/3x3_s2
I0403 20:02:16.110682 10301 net.cpp:425] pool2/3x3_s2 <- conv2/norm2
I0403 20:02:16.110704 10301 net.cpp:399] pool2/3x3_s2 -> pool2/3x3_s2
I0403 20:02:16.110774 10301 net.cpp:141] Setting up pool2/3x3_s2
I0403 20:02:16.110803 10301 net.cpp:148] Top shape: 24 192 28 28 (3612672)
I0403 20:02:16.110821 10301 net.cpp:156] Memory required for data: 433521696
I0403 20:02:16.110841 10301 layer_factory.hpp:77] Creating layer pool2/3x3_s2_pool2/3x3_s2_0_split
I0403 20:02:16.110862 10301 net.cpp:91] Creating Layer pool2/3x3_s2_pool2/3x3_s2_0_split
I0403 20:02:16.110883 10301 net.cpp:425] pool2/3x3_s2_pool2/3x3_s2_0_split <- pool2/3x3_s2
I0403 20:02:16.110908 10301 net.cpp:399] pool2/3x3_s2_pool2/3x3_s2_0_split -> pool2/3x3_s2_pool2/3x3_s2_0_split_0
I0403 20:02:16.110932 10301 net.cpp:399] pool2/3x3_s2_pool2/3x3_s2_0_split -> pool2/3x3_s2_pool2/3x3_s2_0_split_1
I0403 20:02:16.110957 10301 net.cpp:399] pool2/3x3_s2_pool2/3x3_s2_0_split -> pool2/3x3_s2_pool2/3x3_s2_0_split_2
I0403 20:02:16.110981 10301 net.cpp:399] pool2/3x3_s2_pool2/3x3_s2_0_split -> pool2/3x3_s2_pool2/3x3_s2_0_split_3
I0403 20:02:16.111069 10301 net.cpp:141] Setting up pool2/3x3_s2_pool2/3x3_s2_0_split
I0403 20:02:16.111100 10301 net.cpp:148] Top shape: 24 192 28 28 (3612672)
I0403 20:02:16.111122 10301 net.cpp:148] Top shape: 24 192 28 28 (3612672)
I0403 20:02:16.111142 10301 net.cpp:148] Top shape: 24 192 28 28 (3612672)
I0403 20:02:16.111160 10301 net.cpp:148] Top shape: 24 192 28 28 (3612672)
I0403 20:02:16.111177 10301 net.cpp:156] Memory required for data: 491324448
I0403 20:02:16.111196 10301 layer_factory.hpp:77] Creating layer inception_3a/1x1
I0403 20:02:16.111225 10301 net.cpp:91] Creating Layer inception_3a/1x1
I0403 20:02:16.111254 10301 net.cpp:425] inception_3a/1x1 <- pool2/3x3_s2_pool2/3x3_s2_0_split_0
I0403 20:02:16.111279 10301 net.cpp:399] inception_3a/1x1 -> inception_3a/1x1
I0403 20:02:16.113185 10301 net.cpp:141] Setting up inception_3a/1x1
I0403 20:02:16.113222 10301 net.cpp:148] Top shape: 24 64 28 28 (1204224)
I0403 20:02:16.113248 10301 net.cpp:156] Memory required for data: 496141344
I0403 20:02:16.113273 10301 layer_factory.hpp:77] Creating layer inception_3a/relu_1x1
I0403 20:02:16.113301 10301 net.cpp:91] Creating Layer inception_3a/relu_1x1
I0403 20:02:16.113323 10301 net.cpp:425] inception_3a/relu_1x1 <- inception_3a/1x1
I0403 20:02:16.113344 10301 net.cpp:386] inception_3a/relu_1x1 -> inception_3a/1x1 (in-place)
I0403 20:02:16.113559 10301 net.cpp:141] Setting up inception_3a/relu_1x1
I0403 20:02:16.113593 10301 net.cpp:148] Top shape: 24 64 28 28 (1204224)
I0403 20:02:16.113611 10301 net.cpp:156] Memory required for data: 500958240
I0403 20:02:16.113631 10301 layer_factory.hpp:77] Creating layer inception_3a/3x3_reduce
I0403 20:02:16.113657 10301 net.cpp:91] Creating Layer inception_3a/3x3_reduce
I0403 20:02:16.113678 10301 net.cpp:425] inception_3a/3x3_reduce <- pool2/3x3_s2_pool2/3x3_s2_0_split_1
I0403 20:02:16.113703 10301 net.cpp:399] inception_3a/3x3_reduce -> inception_3a/3x3_reduce
I0403 20:02:16.115761 10301 net.cpp:141] Setting up inception_3a/3x3_reduce
I0403 20:02:16.115803 10301 net.cpp:148] Top shape: 24 96 28 28 (1806336)
I0403 20:02:16.115825 10301 net.cpp:156] Memory required for data: 508183584
I0403 20:02:16.115856 10301 layer_factory.hpp:77] Creating layer inception_3a/relu_3x3_reduce
I0403 20:02:16.115900 10301 net.cpp:91] Creating Layer inception_3a/relu_3x3_reduce
I0403 20:02:16.115924 10301 net.cpp:425] inception_3a/relu_3x3_reduce <- inception_3a/3x3_reduce
I0403 20:02:16.115950 10301 net.cpp:386] inception_3a/relu_3x3_reduce -> inception_3a/3x3_reduce (in-place)
I0403 20:02:16.116175 10301 net.cpp:141] Setting up inception_3a/relu_3x3_reduce
I0403 20:02:16.116209 10301 net.cpp:148] Top shape: 24 96 28 28 (1806336)
I0403 20:02:16.116227 10301 net.cpp:156] Memory required for data: 515408928
I0403 20:02:16.116256 10301 layer_factory.hpp:77] Creating layer inception_3a/3x3
I0403 20:02:16.116287 10301 net.cpp:91] Creating Layer inception_3a/3x3
I0403 20:02:16.116322 10301 net.cpp:425] inception_3a/3x3 <- inception_3a/3x3_reduce
I0403 20:02:16.116349 10301 net.cpp:399] inception_3a/3x3 -> inception_3a/3x3
I0403 20:02:16.118357 10301 net.cpp:141] Setting up inception_3a/3x3
I0403 20:02:16.118391 10301 net.cpp:148] Top shape: 24 128 28 28 (2408448)
I0403 20:02:16.118412 10301 net.cpp:156] Memory required for data: 525042720
I0403 20:02:16.118434 10301 layer_factory.hpp:77] Creating layer inception_3a/relu_3x3
I0403 20:02:16.118460 10301 net.cpp:91] Creating Layer inception_3a/relu_3x3
I0403 20:02:16.118481 10301 net.cpp:425] inception_3a/relu_3x3 <- inception_3a/3x3
I0403 20:02:16.118504 10301 net.cpp:386] inception_3a/relu_3x3 -> inception_3a/3x3 (in-place)
I0403 20:02:16.118835 10301 net.cpp:141] Setting up inception_3a/relu_3x3
I0403 20:02:16.118868 10301 net.cpp:148] Top shape: 24 128 28 28 (2408448)
I0403 20:02:16.118887 10301 net.cpp:156] Memory required for data: 534676512
I0403 20:02:16.118907 10301 layer_factory.hpp:77] Creating layer inception_3a/5x5_reduce
I0403 20:02:16.118937 10301 net.cpp:91] Creating Layer inception_3a/5x5_reduce
I0403 20:02:16.118958 10301 net.cpp:425] inception_3a/5x5_reduce <- pool2/3x3_s2_pool2/3x3_s2_0_split_2
I0403 20:02:16.118983 10301 net.cpp:399] inception_3a/5x5_reduce -> inception_3a/5x5_reduce
I0403 20:02:16.120146 10301 net.cpp:141] Setting up inception_3a/5x5_reduce
I0403 20:02:16.120183 10301 net.cpp:148] Top shape: 24 16 28 28 (301056)
I0403 20:02:16.120204 10301 net.cpp:156] Memory required for data: 535880736
I0403 20:02:16.120228 10301 layer_factory.hpp:77] Creating layer inception_3a/relu_5x5_reduce
I0403 20:02:16.120259 10301 net.cpp:91] Creating Layer inception_3a/relu_5x5_reduce
I0403 20:02:16.120280 10301 net.cpp:425] inception_3a/relu_5x5_reduce <- inception_3a/5x5_reduce
I0403 20:02:16.120306 10301 net.cpp:386] inception_3a/relu_5x5_reduce -> inception_3a/5x5_reduce (in-place)
I0403 20:02:16.120638 10301 net.cpp:141] Setting up inception_3a/relu_5x5_reduce
I0403 20:02:16.120671 10301 net.cpp:148] Top shape: 24 16 28 28 (301056)
I0403 20:02:16.120690 10301 net.cpp:156] Memory required for data: 537084960
I0403 20:02:16.120709 10301 layer_factory.hpp:77] Creating layer inception_3a/5x5
I0403 20:02:16.120738 10301 net.cpp:91] Creating Layer inception_3a/5x5
I0403 20:02:16.120760 10301 net.cpp:425] inception_3a/5x5 <- inception_3a/5x5_reduce
I0403 20:02:16.120786 10301 net.cpp:399] inception_3a/5x5 -> inception_3a/5x5
I0403 20:02:16.122020 10301 net.cpp:141] Setting up inception_3a/5x5
I0403 20:02:16.122053 10301 net.cpp:148] Top shape: 24 32 28 28 (602112)
I0403 20:02:16.122072 10301 net.cpp:156] Memory required for data: 539493408
I0403 20:02:16.122095 10301 layer_factory.hpp:77] Creating layer inception_3a/relu_5x5
I0403 20:02:16.122120 10301 net.cpp:91] Creating Layer inception_3a/relu_5x5
I0403 20:02:16.122139 10301 net.cpp:425] inception_3a/relu_5x5 <- inception_3a/5x5
I0403 20:02:16.122160 10301 net.cpp:386] inception_3a/relu_5x5 -> inception_3a/5x5 (in-place)
I0403 20:02:16.122388 10301 net.cpp:141] Setting up inception_3a/relu_5x5
I0403 20:02:16.122427 10301 net.cpp:148] Top shape: 24 32 28 28 (602112)
I0403 20:02:16.122445 10301 net.cpp:156] Memory required for data: 541901856
I0403 20:02:16.122465 10301 layer_factory.hpp:77] Creating layer inception_3a/pool
I0403 20:02:16.122493 10301 net.cpp:91] Creating Layer inception_3a/pool
I0403 20:02:16.122514 10301 net.cpp:425] inception_3a/pool <- pool2/3x3_s2_pool2/3x3_s2_0_split_3
I0403 20:02:16.122555 10301 net.cpp:399] inception_3a/pool -> inception_3a/pool
I0403 20:02:16.122627 10301 net.cpp:141] Setting up inception_3a/pool
I0403 20:02:16.122655 10301 net.cpp:148] Top shape: 24 192 28 28 (3612672)
I0403 20:02:16.122674 10301 net.cpp:156] Memory required for data: 556352544
I0403 20:02:16.122692 10301 layer_factory.hpp:77] Creating layer inception_3a/pool_proj
I0403 20:02:16.122722 10301 net.cpp:91] Creating Layer inception_3a/pool_proj
I0403 20:02:16.122745 10301 net.cpp:425] inception_3a/pool_proj <- inception_3a/pool
I0403 20:02:16.122767 10301 net.cpp:399] inception_3a/pool_proj -> inception_3a/pool_proj
I0403 20:02:16.123932 10301 net.cpp:141] Setting up inception_3a/pool_proj
I0403 20:02:16.123967 10301 net.cpp:148] Top shape: 24 32 28 28 (602112)
I0403 20:02:16.123986 10301 net.cpp:156] Memory required for data: 558760992
I0403 20:02:16.124016 10301 layer_factory.hpp:77] Creating layer inception_3a/relu_pool_proj
I0403 20:02:16.124042 10301 net.cpp:91] Creating Layer inception_3a/relu_pool_proj
I0403 20:02:16.124061 10301 net.cpp:425] inception_3a/relu_pool_proj <- inception_3a/pool_proj
I0403 20:02:16.124085 10301 net.cpp:386] inception_3a/relu_pool_proj -> inception_3a/pool_proj (in-place)
I0403 20:02:16.124419 10301 net.cpp:141] Setting up inception_3a/relu_pool_proj
I0403 20:02:16.124452 10301 net.cpp:148] Top shape: 24 32 28 28 (602112)
I0403 20:02:16.124471 10301 net.cpp:156] Memory required for data: 561169440
I0403 20:02:16.124490 10301 layer_factory.hpp:77] Creating layer inception_3a/output
I0403 20:02:16.124514 10301 net.cpp:91] Creating Layer inception_3a/output
I0403 20:02:16.124536 10301 net.cpp:425] inception_3a/output <- inception_3a/1x1
I0403 20:02:16.124557 10301 net.cpp:425] inception_3a/output <- inception_3a/3x3
I0403 20:02:16.124577 10301 net.cpp:425] inception_3a/output <- inception_3a/5x5
I0403 20:02:16.124596 10301 net.cpp:425] inception_3a/output <- inception_3a/pool_proj
I0403 20:02:16.124616 10301 net.cpp:399] inception_3a/output -> inception_3a/output
I0403 20:02:16.124675 10301 net.cpp:141] Setting up inception_3a/output
I0403 20:02:16.124702 10301 net.cpp:148] Top shape: 24 256 28 28 (4816896)
I0403 20:02:16.124721 10301 net.cpp:156] Memory required for data: 580437024
I0403 20:02:16.124739 10301 layer_factory.hpp:77] Creating layer inception_3a/output_inception_3a/output_0_split
I0403 20:02:16.124763 10301 net.cpp:91] Creating Layer inception_3a/output_inception_3a/output_0_split
I0403 20:02:16.124781 10301 net.cpp:425] inception_3a/output_inception_3a/output_0_split <- inception_3a/output
I0403 20:02:16.124807 10301 net.cpp:399] inception_3a/output_inception_3a/output_0_split -> inception_3a/output_inception_3a/output_0_split_0
I0403 20:02:16.124833 10301 net.cpp:399] inception_3a/output_inception_3a/output_0_split -> inception_3a/output_inception_3a/output_0_split_1
I0403 20:02:16.124862 10301 net.cpp:399] inception_3a/output_inception_3a/output_0_split -> inception_3a/output_inception_3a/output_0_split_2
I0403 20:02:16.124888 10301 net.cpp:399] inception_3a/output_inception_3a/output_0_split -> inception_3a/output_inception_3a/output_0_split_3
I0403 20:02:16.124975 10301 net.cpp:141] Setting up inception_3a/output_inception_3a/output_0_split
I0403 20:02:16.125002 10301 net.cpp:148] Top shape: 24 256 28 28 (4816896)
I0403 20:02:16.125026 10301 net.cpp:148] Top shape: 24 256 28 28 (4816896)
I0403 20:02:16.125048 10301 net.cpp:148] Top shape: 24 256 28 28 (4816896)
I0403 20:02:16.125068 10301 net.cpp:148] Top shape: 24 256 28 28 (4816896)
I0403 20:02:16.125087 10301 net.cpp:156] Memory required for data: 657507360
I0403 20:02:16.125104 10301 layer_factory.hpp:77] Creating layer inception_3b/1x1
I0403 20:02:16.125128 10301 net.cpp:91] Creating Layer inception_3b/1x1
I0403 20:02:16.125149 10301 net.cpp:425] inception_3b/1x1 <- inception_3a/output_inception_3a/output_0_split_0
I0403 20:02:16.125174 10301 net.cpp:399] inception_3b/1x1 -> inception_3b/1x1
I0403 20:02:16.126549 10301 net.cpp:141] Setting up inception_3b/1x1
I0403 20:02:16.126598 10301 net.cpp:148] Top shape: 24 128 28 28 (2408448)
I0403 20:02:16.126619 10301 net.cpp:156] Memory required for data: 667141152
I0403 20:02:16.126642 10301 layer_factory.hpp:77] Creating layer inception_3b/relu_1x1
I0403 20:02:16.126668 10301 net.cpp:91] Creating Layer inception_3b/relu_1x1
I0403 20:02:16.126689 10301 net.cpp:425] inception_3b/relu_1x1 <- inception_3b/1x1
I0403 20:02:16.126710 10301 net.cpp:386] inception_3b/relu_1x1 -> inception_3b/1x1 (in-place)
I0403 20:02:16.126929 10301 net.cpp:141] Setting up inception_3b/relu_1x1
I0403 20:02:16.126963 10301 net.cpp:148] Top shape: 24 128 28 28 (2408448)
I0403 20:02:16.126984 10301 net.cpp:156] Memory required for data: 676774944
I0403 20:02:16.127002 10301 layer_factory.hpp:77] Creating layer inception_3b/3x3_reduce
I0403 20:02:16.127030 10301 net.cpp:91] Creating Layer inception_3b/3x3_reduce
I0403 20:02:16.127051 10301 net.cpp:425] inception_3b/3x3_reduce <- inception_3a/output_inception_3a/output_0_split_1
I0403 20:02:16.127075 10301 net.cpp:399] inception_3b/3x3_reduce -> inception_3b/3x3_reduce
I0403 20:02:16.128466 10301 net.cpp:141] Setting up inception_3b/3x3_reduce
I0403 20:02:16.128500 10301 net.cpp:148] Top shape: 24 128 28 28 (2408448)
I0403 20:02:16.128520 10301 net.cpp:156] Memory required for data: 686408736
I0403 20:02:16.128543 10301 layer_factory.hpp:77] Creating layer inception_3b/relu_3x3_reduce
I0403 20:02:16.128569 10301 net.cpp:91] Creating Layer inception_3b/relu_3x3_reduce
I0403 20:02:16.128590 10301 net.cpp:425] inception_3b/relu_3x3_reduce <- inception_3b/3x3_reduce
I0403 20:02:16.128612 10301 net.cpp:386] inception_3b/relu_3x3_reduce -> inception_3b/3x3_reduce (in-place)
I0403 20:02:16.128820 10301 net.cpp:141] Setting up inception_3b/relu_3x3_reduce
I0403 20:02:16.128854 10301 net.cpp:148] Top shape: 24 128 28 28 (2408448)
I0403 20:02:16.128873 10301 net.cpp:156] Memory required for data: 696042528
I0403 20:02:16.128891 10301 layer_factory.hpp:77] Creating layer inception_3b/3x3
I0403 20:02:16.128921 10301 net.cpp:91] Creating Layer inception_3b/3x3
I0403 20:02:16.128945 10301 net.cpp:425] inception_3b/3x3 <- inception_3b/3x3_reduce
I0403 20:02:16.128971 10301 net.cpp:399] inception_3b/3x3 -> inception_3b/3x3
I0403 20:02:16.132496 10301 net.cpp:141] Setting up inception_3b/3x3
I0403 20:02:16.132532 10301 net.cpp:148] Top shape: 24 192 28 28 (3612672)
I0403 20:02:16.132553 10301 net.cpp:156] Memory required for data: 710493216
I0403 20:02:16.132576 10301 layer_factory.hpp:77] Creating layer inception_3b/relu_3x3
I0403 20:02:16.132602 10301 net.cpp:91] Creating Layer inception_3b/relu_3x3
I0403 20:02:16.132623 10301 net.cpp:425] inception_3b/relu_3x3 <- inception_3b/3x3
I0403 20:02:16.132645 10301 net.cpp:386] inception_3b/relu_3x3 -> inception_3b/3x3 (in-place)
I0403 20:02:16.132972 10301 net.cpp:141] Setting up inception_3b/relu_3x3
I0403 20:02:16.133004 10301 net.cpp:148] Top shape: 24 192 28 28 (3612672)
I0403 20:02:16.133023 10301 net.cpp:156] Memory required for data: 724943904
I0403 20:02:16.133043 10301 layer_factory.hpp:77] Creating layer inception_3b/5x5_reduce
I0403 20:02:16.133074 10301 net.cpp:91] Creating Layer inception_3b/5x5_reduce
I0403 20:02:16.133096 10301 net.cpp:425] inception_3b/5x5_reduce <- inception_3a/output_inception_3a/output_0_split_2
I0403 20:02:16.133121 10301 net.cpp:399] inception_3b/5x5_reduce -> inception_3b/5x5_reduce
I0403 20:02:16.134323 10301 net.cpp:141] Setting up inception_3b/5x5_reduce
I0403 20:02:16.134358 10301 net.cpp:148] Top shape: 24 32 28 28 (602112)
I0403 20:02:16.134377 10301 net.cpp:156] Memory required for data: 727352352
I0403 20:02:16.134402 10301 layer_factory.hpp:77] Creating layer inception_3b/relu_5x5_reduce
I0403 20:02:16.134426 10301 net.cpp:91] Creating Layer inception_3b/relu_5x5_reduce
I0403 20:02:16.134448 10301 net.cpp:425] inception_3b/relu_5x5_reduce <- inception_3b/5x5_reduce
I0403 20:02:16.134469 10301 net.cpp:386] inception_3b/relu_5x5_reduce -> inception_3b/5x5_reduce (in-place)
I0403 20:02:16.134685 10301 net.cpp:141] Setting up inception_3b/relu_5x5_reduce
I0403 20:02:16.134730 10301 net.cpp:148] Top shape: 24 32 28 28 (602112)
I0403 20:02:16.134750 10301 net.cpp:156] Memory required for data: 729760800
I0403 20:02:16.134768 10301 layer_factory.hpp:77] Creating layer inception_3b/5x5
I0403 20:02:16.134795 10301 net.cpp:91] Creating Layer inception_3b/5x5
I0403 20:02:16.134816 10301 net.cpp:425] inception_3b/5x5 <- inception_3b/5x5_reduce
I0403 20:02:16.134843 10301 net.cpp:399] inception_3b/5x5 -> inception_3b/5x5
I0403 20:02:16.137207 10301 net.cpp:141] Setting up inception_3b/5x5
I0403 20:02:16.137249 10301 net.cpp:148] Top shape: 24 96 28 28 (1806336)
I0403 20:02:16.137271 10301 net.cpp:156] Memory required for data: 736986144
I0403 20:02:16.137295 10301 layer_factory.hpp:77] Creating layer inception_3b/relu_5x5
I0403 20:02:16.137318 10301 net.cpp:91] Creating Layer inception_3b/relu_5x5
I0403 20:02:16.137339 10301 net.cpp:425] inception_3b/relu_5x5 <- inception_3b/5x5
I0403 20:02:16.137361 10301 net.cpp:386] inception_3b/relu_5x5 -> inception_3b/5x5 (in-place)
I0403 20:02:16.137595 10301 net.cpp:141] Setting up inception_3b/relu_5x5
I0403 20:02:16.137627 10301 net.cpp:148] Top shape: 24 96 28 28 (1806336)
I0403 20:02:16.137646 10301 net.cpp:156] Memory required for data: 744211488
I0403 20:02:16.137665 10301 layer_factory.hpp:77] Creating layer inception_3b/pool
I0403 20:02:16.137687 10301 net.cpp:91] Creating Layer inception_3b/pool
I0403 20:02:16.137707 10301 net.cpp:425] inception_3b/pool <- inception_3a/output_inception_3a/output_0_split_3
I0403 20:02:16.137730 10301 net.cpp:399] inception_3b/pool -> inception_3b/pool
I0403 20:02:16.137799 10301 net.cpp:141] Setting up inception_3b/pool
I0403 20:02:16.137828 10301 net.cpp:148] Top shape: 24 256 28 28 (4816896)
I0403 20:02:16.137846 10301 net.cpp:156] Memory required for data: 763479072
I0403 20:02:16.137864 10301 layer_factory.hpp:77] Creating layer inception_3b/pool_proj
I0403 20:02:16.137892 10301 net.cpp:91] Creating Layer inception_3b/pool_proj
I0403 20:02:16.137913 10301 net.cpp:425] inception_3b/pool_proj <- inception_3b/pool
I0403 20:02:16.137939 10301 net.cpp:399] inception_3b/pool_proj -> inception_3b/pool_proj
I0403 20:02:16.139215 10301 net.cpp:141] Setting up inception_3b/pool_proj
I0403 20:02:16.139256 10301 net.cpp:148] Top shape: 24 64 28 28 (1204224)
I0403 20:02:16.139277 10301 net.cpp:156] Memory required for data: 768295968
I0403 20:02:16.139302 10301 layer_factory.hpp:77] Creating layer inception_3b/relu_pool_proj
I0403 20:02:16.139324 10301 net.cpp:91] Creating Layer inception_3b/relu_pool_proj
I0403 20:02:16.139345 10301 net.cpp:425] inception_3b/relu_pool_proj <- inception_3b/pool_proj
I0403 20:02:16.139371 10301 net.cpp:386] inception_3b/relu_pool_proj -> inception_3b/pool_proj (in-place)
I0403 20:02:16.139816 10301 net.cpp:141] Setting up inception_3b/relu_pool_proj
I0403 20:02:16.139853 10301 net.cpp:148] Top shape: 24 64 28 28 (1204224)
I0403 20:02:16.139873 10301 net.cpp:156] Memory required for data: 773112864
I0403 20:02:16.139890 10301 layer_factory.hpp:77] Creating layer inception_3b/output
I0403 20:02:16.139914 10301 net.cpp:91] Creating Layer inception_3b/output
I0403 20:02:16.139932 10301 net.cpp:425] inception_3b/output <- inception_3b/1x1
I0403 20:02:16.139953 10301 net.cpp:425] inception_3b/output <- inception_3b/3x3
I0403 20:02:16.139973 10301 net.cpp:425] inception_3b/output <- inception_3b/5x5
I0403 20:02:16.139993 10301 net.cpp:425] inception_3b/output <- inception_3b/pool_proj
I0403 20:02:16.140017 10301 net.cpp:399] inception_3b/output -> inception_3b/output
I0403 20:02:16.140069 10301 net.cpp:141] Setting up inception_3b/output
I0403 20:02:16.140099 10301 net.cpp:148] Top shape: 24 480 28 28 (9031680)
I0403 20:02:16.140116 10301 net.cpp:156] Memory required for data: 809239584
I0403 20:02:16.140136 10301 layer_factory.hpp:77] Creating layer pool3/3x3_s2
I0403 20:02:16.140161 10301 net.cpp:91] Creating Layer pool3/3x3_s2
I0403 20:02:16.140182 10301 net.cpp:425] pool3/3x3_s2 <- inception_3b/output
I0403 20:02:16.140203 10301 net.cpp:399] pool3/3x3_s2 -> pool3/3x3_s2
I0403 20:02:16.140297 10301 net.cpp:141] Setting up pool3/3x3_s2
I0403 20:02:16.140327 10301 net.cpp:148] Top shape: 24 480 14 14 (2257920)
I0403 20:02:16.140346 10301 net.cpp:156] Memory required for data: 818271264
I0403 20:02:16.140364 10301 layer_factory.hpp:77] Creating layer pool3/3x3_s2_pool3/3x3_s2_0_split
I0403 20:02:16.140385 10301 net.cpp:91] Creating Layer pool3/3x3_s2_pool3/3x3_s2_0_split
I0403 20:02:16.140404 10301 net.cpp:425] pool3/3x3_s2_pool3/3x3_s2_0_split <- pool3/3x3_s2
I0403 20:02:16.140429 10301 net.cpp:399] pool3/3x3_s2_pool3/3x3_s2_0_split -> pool3/3x3_s2_pool3/3x3_s2_0_split_0
I0403 20:02:16.140452 10301 net.cpp:399] pool3/3x3_s2_pool3/3x3_s2_0_split -> pool3/3x3_s2_pool3/3x3_s2_0_split_1
I0403 20:02:16.140476 10301 net.cpp:399] pool3/3x3_s2_pool3/3x3_s2_0_split -> pool3/3x3_s2_pool3/3x3_s2_0_split_2
I0403 20:02:16.140499 10301 net.cpp:399] pool3/3x3_s2_pool3/3x3_s2_0_split -> pool3/3x3_s2_pool3/3x3_s2_0_split_3
I0403 20:02:16.140594 10301 net.cpp:141] Setting up pool3/3x3_s2_pool3/3x3_s2_0_split
I0403 20:02:16.140624 10301 net.cpp:148] Top shape: 24 480 14 14 (2257920)
I0403 20:02:16.140645 10301 net.cpp:148] Top shape: 24 480 14 14 (2257920)
I0403 20:02:16.140664 10301 net.cpp:148] Top shape: 24 480 14 14 (2257920)
I0403 20:02:16.140684 10301 net.cpp:148] Top shape: 24 480 14 14 (2257920)
I0403 20:02:16.140703 10301 net.cpp:156] Memory required for data: 854397984
I0403 20:02:16.140722 10301 layer_factory.hpp:77] Creating layer inception_4a/1x1
I0403 20:02:16.140748 10301 net.cpp:91] Creating Layer inception_4a/1x1
I0403 20:02:16.140769 10301 net.cpp:425] inception_4a/1x1 <- pool3/3x3_s2_pool3/3x3_s2_0_split_0
I0403 20:02:16.140794 10301 net.cpp:399] inception_4a/1x1 -> inception_4a/1x1
I0403 20:02:16.142722 10301 net.cpp:141] Setting up inception_4a/1x1
I0403 20:02:16.142756 10301 net.cpp:148] Top shape: 24 192 14 14 (903168)
I0403 20:02:16.142776 10301 net.cpp:156] Memory required for data: 858010656
I0403 20:02:16.142798 10301 layer_factory.hpp:77] Creating layer inception_4a/relu_1x1
I0403 20:02:16.142822 10301 net.cpp:91] Creating Layer inception_4a/relu_1x1
I0403 20:02:16.142841 10301 net.cpp:425] inception_4a/relu_1x1 <- inception_4a/1x1
I0403 20:02:16.142868 10301 net.cpp:386] inception_4a/relu_1x1 -> inception_4a/1x1 (in-place)
I0403 20:02:16.143086 10301 net.cpp:141] Setting up inception_4a/relu_1x1
I0403 20:02:16.143117 10301 net.cpp:148] Top shape: 24 192 14 14 (903168)
I0403 20:02:16.143136 10301 net.cpp:156] Memory required for data: 861623328
I0403 20:02:16.143154 10301 layer_factory.hpp:77] Creating layer inception_4a/3x3_reduce
I0403 20:02:16.143182 10301 net.cpp:91] Creating Layer inception_4a/3x3_reduce
I0403 20:02:16.143204 10301 net.cpp:425] inception_4a/3x3_reduce <- pool3/3x3_s2_pool3/3x3_s2_0_split_1
I0403 20:02:16.143230 10301 net.cpp:399] inception_4a/3x3_reduce -> inception_4a/3x3_reduce
I0403 20:02:16.144793 10301 net.cpp:141] Setting up inception_4a/3x3_reduce
I0403 20:02:16.144829 10301 net.cpp:148] Top shape: 24 96 14 14 (451584)
I0403 20:02:16.144847 10301 net.cpp:156] Memory required for data: 863429664
I0403 20:02:16.144879 10301 layer_factory.hpp:77] Creating layer inception_4a/relu_3x3_reduce
I0403 20:02:16.144906 10301 net.cpp:91] Creating Layer inception_4a/relu_3x3_reduce
I0403 20:02:16.144927 10301 net.cpp:425] inception_4a/relu_3x3_reduce <- inception_4a/3x3_reduce
I0403 20:02:16.144953 10301 net.cpp:386] inception_4a/relu_3x3_reduce -> inception_4a/3x3_reduce (in-place)
I0403 20:02:16.145166 10301 net.cpp:141] Setting up inception_4a/relu_3x3_reduce
I0403 20:02:16.145198 10301 net.cpp:148] Top shape: 24 96 14 14 (451584)
I0403 20:02:16.145216 10301 net.cpp:156] Memory required for data: 865236000
I0403 20:02:16.145236 10301 layer_factory.hpp:77] Creating layer inception_4a/3x3
I0403 20:02:16.145270 10301 net.cpp:91] Creating Layer inception_4a/3x3
I0403 20:02:16.145294 10301 net.cpp:425] inception_4a/3x3 <- inception_4a/3x3_reduce
I0403 20:02:16.145321 10301 net.cpp:399] inception_4a/3x3 -> inception_4a/3x3
I0403 20:02:16.148587 10301 net.cpp:141] Setting up inception_4a/3x3
I0403 20:02:16.148624 10301 net.cpp:148] Top shape: 24 208 14 14 (978432)
I0403 20:02:16.148643 10301 net.cpp:156] Memory required for data: 869149728
I0403 20:02:16.148668 10301 layer_factory.hpp:77] Creating layer inception_4a/relu_3x3
I0403 20:02:16.148694 10301 net.cpp:91] Creating Layer inception_4a/relu_3x3
I0403 20:02:16.148715 10301 net.cpp:425] inception_4a/relu_3x3 <- inception_4a/3x3
I0403 20:02:16.148736 10301 net.cpp:386] inception_4a/relu_3x3 -> inception_4a/3x3 (in-place)
I0403 20:02:16.149072 10301 net.cpp:141] Setting up inception_4a/relu_3x3
I0403 20:02:16.149106 10301 net.cpp:148] Top shape: 24 208 14 14 (978432)
I0403 20:02:16.149126 10301 net.cpp:156] Memory required for data: 873063456
I0403 20:02:16.149144 10301 layer_factory.hpp:77] Creating layer inception_4a/5x5_reduce
I0403 20:02:16.149173 10301 net.cpp:91] Creating Layer inception_4a/5x5_reduce
I0403 20:02:16.149194 10301 net.cpp:425] inception_4a/5x5_reduce <- pool3/3x3_s2_pool3/3x3_s2_0_split_2
I0403 20:02:16.149221 10301 net.cpp:399] inception_4a/5x5_reduce -> inception_4a/5x5_reduce
I0403 20:02:16.150454 10301 net.cpp:141] Setting up inception_4a/5x5_reduce
I0403 20:02:16.150488 10301 net.cpp:148] Top shape: 24 16 14 14 (75264)
I0403 20:02:16.150507 10301 net.cpp:156] Memory required for data: 873364512
I0403 20:02:16.150532 10301 layer_factory.hpp:77] Creating layer inception_4a/relu_5x5_reduce
I0403 20:02:16.150557 10301 net.cpp:91] Creating Layer inception_4a/relu_5x5_reduce
I0403 20:02:16.150578 10301 net.cpp:425] inception_4a/relu_5x5_reduce <- inception_4a/5x5_reduce
I0403 20:02:16.150600 10301 net.cpp:386] inception_4a/relu_5x5_reduce -> inception_4a/5x5_reduce (in-place)
I0403 20:02:16.150815 10301 net.cpp:141] Setting up inception_4a/relu_5x5_reduce
I0403 20:02:16.150848 10301 net.cpp:148] Top shape: 24 16 14 14 (75264)
I0403 20:02:16.150868 10301 net.cpp:156] Memory required for data: 873665568
I0403 20:02:16.150887 10301 layer_factory.hpp:77] Creating layer inception_4a/5x5
I0403 20:02:16.150914 10301 net.cpp:91] Creating Layer inception_4a/5x5
I0403 20:02:16.150936 10301 net.cpp:425] inception_4a/5x5 <- inception_4a/5x5_reduce
I0403 20:02:16.150964 10301 net.cpp:399] inception_4a/5x5 -> inception_4a/5x5
I0403 20:02:16.152281 10301 net.cpp:141] Setting up inception_4a/5x5
I0403 20:02:16.152319 10301 net.cpp:148] Top shape: 24 48 14 14 (225792)
I0403 20:02:16.152341 10301 net.cpp:156] Memory required for data: 874568736
I0403 20:02:16.152364 10301 layer_factory.hpp:77] Creating layer inception_4a/relu_5x5
I0403 20:02:16.152387 10301 net.cpp:91] Creating Layer inception_4a/relu_5x5
I0403 20:02:16.152407 10301 net.cpp:425] inception_4a/relu_5x5 <- inception_4a/5x5
I0403 20:02:16.152433 10301 net.cpp:386] inception_4a/relu_5x5 -> inception_4a/5x5 (in-place)
I0403 20:02:16.152652 10301 net.cpp:141] Setting up inception_4a/relu_5x5
I0403 20:02:16.152683 10301 net.cpp:148] Top shape: 24 48 14 14 (225792)
I0403 20:02:16.152703 10301 net.cpp:156] Memory required for data: 875471904
I0403 20:02:16.152721 10301 layer_factory.hpp:77] Creating layer inception_4a/pool
I0403 20:02:16.152745 10301 net.cpp:91] Creating Layer inception_4a/pool
I0403 20:02:16.152765 10301 net.cpp:425] inception_4a/pool <- pool3/3x3_s2_pool3/3x3_s2_0_split_3
I0403 20:02:16.152789 10301 net.cpp:399] inception_4a/pool -> inception_4a/pool
I0403 20:02:16.152871 10301 net.cpp:141] Setting up inception_4a/pool
I0403 20:02:16.152901 10301 net.cpp:148] Top shape: 24 480 14 14 (2257920)
I0403 20:02:16.152920 10301 net.cpp:156] Memory required for data: 884503584
I0403 20:02:16.152938 10301 layer_factory.hpp:77] Creating layer inception_4a/pool_proj
I0403 20:02:16.152968 10301 net.cpp:91] Creating Layer inception_4a/pool_proj
I0403 20:02:16.152992 10301 net.cpp:425] inception_4a/pool_proj <- inception_4a/pool
I0403 20:02:16.153020 10301 net.cpp:399] inception_4a/pool_proj -> inception_4a/pool_proj
I0403 20:02:16.154433 10301 net.cpp:141] Setting up inception_4a/pool_proj
I0403 20:02:16.154470 10301 net.cpp:148] Top shape: 24 64 14 14 (301056)
I0403 20:02:16.154507 10301 net.cpp:156] Memory required for data: 885707808
I0403 20:02:16.154532 10301 layer_factory.hpp:77] Creating layer inception_4a/relu_pool_proj
I0403 20:02:16.154554 10301 net.cpp:91] Creating Layer inception_4a/relu_pool_proj
I0403 20:02:16.154579 10301 net.cpp:425] inception_4a/relu_pool_proj <- inception_4a/pool_proj
I0403 20:02:16.154603 10301 net.cpp:386] inception_4a/relu_pool_proj -> inception_4a/pool_proj (in-place)
I0403 20:02:16.154939 10301 net.cpp:141] Setting up inception_4a/relu_pool_proj
I0403 20:02:16.154970 10301 net.cpp:148] Top shape: 24 64 14 14 (301056)
I0403 20:02:16.154989 10301 net.cpp:156] Memory required for data: 886912032
I0403 20:02:16.155009 10301 layer_factory.hpp:77] Creating layer inception_4a/output
I0403 20:02:16.155031 10301 net.cpp:91] Creating Layer inception_4a/output
I0403 20:02:16.155052 10301 net.cpp:425] inception_4a/output <- inception_4a/1x1
I0403 20:02:16.155074 10301 net.cpp:425] inception_4a/output <- inception_4a/3x3
I0403 20:02:16.155094 10301 net.cpp:425] inception_4a/output <- inception_4a/5x5
I0403 20:02:16.155115 10301 net.cpp:425] inception_4a/output <- inception_4a/pool_proj
I0403 20:02:16.155140 10301 net.cpp:399] inception_4a/output -> inception_4a/output
I0403 20:02:16.155195 10301 net.cpp:141] Setting up inception_4a/output
I0403 20:02:16.155228 10301 net.cpp:148] Top shape: 24 512 14 14 (2408448)
I0403 20:02:16.155257 10301 net.cpp:156] Memory required for data: 896545824
I0403 20:02:16.155278 10301 layer_factory.hpp:77] Creating layer inception_4a/output_inception_4a/output_0_split
I0403 20:02:16.155299 10301 net.cpp:91] Creating Layer inception_4a/output_inception_4a/output_0_split
I0403 20:02:16.155329 10301 net.cpp:425] inception_4a/output_inception_4a/output_0_split <- inception_4a/output
I0403 20:02:16.155355 10301 net.cpp:399] inception_4a/output_inception_4a/output_0_split -> inception_4a/output_inception_4a/output_0_split_0
I0403 20:02:16.155382 10301 net.cpp:399] inception_4a/output_inception_4a/output_0_split -> inception_4a/output_inception_4a/output_0_split_1
I0403 20:02:16.155410 10301 net.cpp:399] inception_4a/output_inception_4a/output_0_split -> inception_4a/output_inception_4a/output_0_split_2
I0403 20:02:16.155433 10301 net.cpp:399] inception_4a/output_inception_4a/output_0_split -> inception_4a/output_inception_4a/output_0_split_3
I0403 20:02:16.155458 10301 net.cpp:399] inception_4a/output_inception_4a/output_0_split -> inception_4a/output_inception_4a/output_0_split_4
I0403 20:02:16.155577 10301 net.cpp:141] Setting up inception_4a/output_inception_4a/output_0_split
I0403 20:02:16.155606 10301 net.cpp:148] Top shape: 24 512 14 14 (2408448)
I0403 20:02:16.155627 10301 net.cpp:148] Top shape: 24 512 14 14 (2408448)
I0403 20:02:16.155648 10301 net.cpp:148] Top shape: 24 512 14 14 (2408448)
I0403 20:02:16.155668 10301 net.cpp:148] Top shape: 24 512 14 14 (2408448)
I0403 20:02:16.155688 10301 net.cpp:148] Top shape: 24 512 14 14 (2408448)
I0403 20:02:16.155704 10301 net.cpp:156] Memory required for data: 944714784
I0403 20:02:16.155722 10301 layer_factory.hpp:77] Creating layer loss1/ave_pool
I0403 20:02:16.155747 10301 net.cpp:91] Creating Layer loss1/ave_pool
I0403 20:02:16.155771 10301 net.cpp:425] loss1/ave_pool <- inception_4a/output_inception_4a/output_0_split_0
I0403 20:02:16.155792 10301 net.cpp:399] loss1/ave_pool -> loss1/ave_pool
I0403 20:02:16.156046 10301 net.cpp:141] Setting up loss1/ave_pool
I0403 20:02:16.156077 10301 net.cpp:148] Top shape: 24 512 4 4 (196608)
I0403 20:02:16.156096 10301 net.cpp:156] Memory required for data: 945501216
I0403 20:02:16.156116 10301 layer_factory.hpp:77] Creating layer loss1/conv
I0403 20:02:16.156143 10301 net.cpp:91] Creating Layer loss1/conv
I0403 20:02:16.156167 10301 net.cpp:425] loss1/conv <- loss1/ave_pool
I0403 20:02:16.156191 10301 net.cpp:399] loss1/conv -> loss1/conv
I0403 20:02:16.157903 10301 net.cpp:141] Setting up loss1/conv
I0403 20:02:16.157938 10301 net.cpp:148] Top shape: 24 128 4 4 (49152)
I0403 20:02:16.157958 10301 net.cpp:156] Memory required for data: 945697824
I0403 20:02:16.157999 10301 layer_factory.hpp:77] Creating layer loss1/relu_conv
I0403 20:02:16.158025 10301 net.cpp:91] Creating Layer loss1/relu_conv
I0403 20:02:16.158046 10301 net.cpp:425] loss1/relu_conv <- loss1/conv
I0403 20:02:16.158067 10301 net.cpp:386] loss1/relu_conv -> loss1/conv (in-place)
I0403 20:02:16.158408 10301 net.cpp:141] Setting up loss1/relu_conv
I0403 20:02:16.158442 10301 net.cpp:148] Top shape: 24 128 4 4 (49152)
I0403 20:02:16.158462 10301 net.cpp:156] Memory required for data: 945894432
I0403 20:02:16.158480 10301 layer_factory.hpp:77] Creating layer loss1/fc
I0403 20:02:16.158512 10301 net.cpp:91] Creating Layer loss1/fc
I0403 20:02:16.158535 10301 net.cpp:425] loss1/fc <- loss1/conv
I0403 20:02:16.158561 10301 net.cpp:399] loss1/fc -> loss1/fc
I0403 20:02:16.180822 10301 net.cpp:141] Setting up loss1/fc
I0403 20:02:16.180865 10301 net.cpp:148] Top shape: 24 1024 (24576)
I0403 20:02:16.180883 10301 net.cpp:156] Memory required for data: 945992736
I0403 20:02:16.180907 10301 layer_factory.hpp:77] Creating layer loss1/relu_fc
I0403 20:02:16.180929 10301 net.cpp:91] Creating Layer loss1/relu_fc
I0403 20:02:16.180949 10301 net.cpp:425] loss1/relu_fc <- loss1/fc
I0403 20:02:16.180974 10301 net.cpp:386] loss1/relu_fc -> loss1/fc (in-place)
I0403 20:02:16.181198 10301 net.cpp:141] Setting up loss1/relu_fc
I0403 20:02:16.181228 10301 net.cpp:148] Top shape: 24 1024 (24576)
I0403 20:02:16.181254 10301 net.cpp:156] Memory required for data: 946091040
I0403 20:02:16.181273 10301 layer_factory.hpp:77] Creating layer loss1/drop_fc
I0403 20:02:16.181308 10301 net.cpp:91] Creating Layer loss1/drop_fc
I0403 20:02:16.181330 10301 net.cpp:425] loss1/drop_fc <- loss1/fc
I0403 20:02:16.181352 10301 net.cpp:386] loss1/drop_fc -> loss1/fc (in-place)
I0403 20:02:16.181414 10301 net.cpp:141] Setting up loss1/drop_fc
I0403 20:02:16.181447 10301 net.cpp:148] Top shape: 24 1024 (24576)
I0403 20:02:16.181466 10301 net.cpp:156] Memory required for data: 946189344
I0403 20:02:16.181485 10301 layer_factory.hpp:77] Creating layer loss1/classifier_plantvillage
I0403 20:02:16.181509 10301 net.cpp:91] Creating Layer loss1/classifier_plantvillage
I0403 20:02:16.181527 10301 net.cpp:425] loss1/classifier_plantvillage <- loss1/fc
I0403 20:02:16.181553 10301 net.cpp:399] loss1/classifier_plantvillage -> loss1/classifier_plantvillage
I0403 20:02:16.182678 10301 net.cpp:141] Setting up loss1/classifier_plantvillage
I0403 20:02:16.182714 10301 net.cpp:148] Top shape: 24 38 (912)
I0403 20:02:16.182734 10301 net.cpp:156] Memory required for data: 946192992
I0403 20:02:16.182756 10301 layer_factory.hpp:77] Creating layer loss1/classifier_plantvillage_loss1/classifier_plantvillage_0_split
I0403 20:02:16.182780 10301 net.cpp:91] Creating Layer loss1/classifier_plantvillage_loss1/classifier_plantvillage_0_split
I0403 20:02:16.182799 10301 net.cpp:425] loss1/classifier_plantvillage_loss1/classifier_plantvillage_0_split <- loss1/classifier_plantvillage
I0403 20:02:16.182823 10301 net.cpp:399] loss1/classifier_plantvillage_loss1/classifier_plantvillage_0_split -> loss1/classifier_plantvillage_loss1/classifier_plantvillage_0_split_0
I0403 20:02:16.182852 10301 net.cpp:399] loss1/classifier_plantvillage_loss1/classifier_plantvillage_0_split -> loss1/classifier_plantvillage_loss1/classifier_plantvillage_0_split_1
I0403 20:02:16.182878 10301 net.cpp:399] loss1/classifier_plantvillage_loss1/classifier_plantvillage_0_split -> loss1/classifier_plantvillage_loss1/classifier_plantvillage_0_split_2
I0403 20:02:16.182963 10301 net.cpp:141] Setting up loss1/classifier_plantvillage_loss1/classifier_plantvillage_0_split
I0403 20:02:16.182992 10301 net.cpp:148] Top shape: 24 38 (912)
I0403 20:02:16.183013 10301 net.cpp:148] Top shape: 24 38 (912)
I0403 20:02:16.183032 10301 net.cpp:148] Top shape: 24 38 (912)
I0403 20:02:16.183050 10301 net.cpp:156] Memory required for data: 946203936
I0403 20:02:16.183068 10301 layer_factory.hpp:77] Creating layer inception_4b/1x1
I0403 20:02:16.183096 10301 net.cpp:91] Creating Layer inception_4b/1x1
I0403 20:02:16.183136 10301 net.cpp:425] inception_4b/1x1 <- inception_4a/output_inception_4a/output_0_split_1
I0403 20:02:16.183161 10301 net.cpp:399] inception_4b/1x1 -> inception_4b/1x1
I0403 20:02:16.185118 10301 net.cpp:141] Setting up inception_4b/1x1
I0403 20:02:16.185153 10301 net.cpp:148] Top shape: 24 160 14 14 (752640)
I0403 20:02:16.185173 10301 net.cpp:156] Memory required for data: 949214496
I0403 20:02:16.185196 10301 layer_factory.hpp:77] Creating layer inception_4b/relu_1x1
I0403 20:02:16.185221 10301 net.cpp:91] Creating Layer inception_4b/relu_1x1
I0403 20:02:16.185248 10301 net.cpp:425] inception_4b/relu_1x1 <- inception_4b/1x1
I0403 20:02:16.185272 10301 net.cpp:386] inception_4b/relu_1x1 -> inception_4b/1x1 (in-place)
I0403 20:02:16.185488 10301 net.cpp:141] Setting up inception_4b/relu_1x1
I0403 20:02:16.185523 10301 net.cpp:148] Top shape: 24 160 14 14 (752640)
I0403 20:02:16.185541 10301 net.cpp:156] Memory required for data: 952225056
I0403 20:02:16.185559 10301 layer_factory.hpp:77] Creating layer inception_4b/3x3_reduce
I0403 20:02:16.185586 10301 net.cpp:91] Creating Layer inception_4b/3x3_reduce
I0403 20:02:16.185607 10301 net.cpp:425] inception_4b/3x3_reduce <- inception_4a/output_inception_4a/output_0_split_2
I0403 20:02:16.185634 10301 net.cpp:399] inception_4b/3x3_reduce -> inception_4b/3x3_reduce
I0403 20:02:16.187276 10301 net.cpp:141] Setting up inception_4b/3x3_reduce
I0403 20:02:16.187319 10301 net.cpp:148] Top shape: 24 112 14 14 (526848)
I0403 20:02:16.187340 10301 net.cpp:156] Memory required for data: 954332448
I0403 20:02:16.187364 10301 layer_factory.hpp:77] Creating layer inception_4b/relu_3x3_reduce
I0403 20:02:16.187387 10301 net.cpp:91] Creating Layer inception_4b/relu_3x3_reduce
I0403 20:02:16.187407 10301 net.cpp:425] inception_4b/relu_3x3_reduce <- inception_4b/3x3_reduce
I0403 20:02:16.187430 10301 net.cpp:386] inception_4b/relu_3x3_reduce -> inception_4b/3x3_reduce (in-place)
I0403 20:02:16.187774 10301 net.cpp:141] Setting up inception_4b/relu_3x3_reduce
I0403 20:02:16.187811 10301 net.cpp:148] Top shape: 24 112 14 14 (526848)
I0403 20:02:16.187830 10301 net.cpp:156] Memory required for data: 956439840
I0403 20:02:16.187849 10301 layer_factory.hpp:77] Creating layer inception_4b/3x3
I0403 20:02:16.187877 10301 net.cpp:91] Creating Layer inception_4b/3x3
I0403 20:02:16.187901 10301 net.cpp:425] inception_4b/3x3 <- inception_4b/3x3_reduce
I0403 20:02:16.187924 10301 net.cpp:399] inception_4b/3x3 -> inception_4b/3x3
I0403 20:02:16.191583 10301 net.cpp:141] Setting up inception_4b/3x3
I0403 20:02:16.191619 10301 net.cpp:148] Top shape: 24 224 14 14 (1053696)
I0403 20:02:16.191638 10301 net.cpp:156] Memory required for data: 960654624
I0403 20:02:16.191663 10301 layer_factory.hpp:77] Creating layer inception_4b/relu_3x3
I0403 20:02:16.191686 10301 net.cpp:91] Creating Layer inception_4b/relu_3x3
I0403 20:02:16.191706 10301 net.cpp:425] inception_4b/relu_3x3 <- inception_4b/3x3
I0403 20:02:16.191731 10301 net.cpp:386] inception_4b/relu_3x3 -> inception_4b/3x3 (in-place)
I0403 20:02:16.191962 10301 net.cpp:141] Setting up inception_4b/relu_3x3
I0403 20:02:16.191993 10301 net.cpp:148] Top shape: 24 224 14 14 (1053696)
I0403 20:02:16.192011 10301 net.cpp:156] Memory required for data: 964869408
I0403 20:02:16.192030 10301 layer_factory.hpp:77] Creating layer inception_4b/5x5_reduce
I0403 20:02:16.192059 10301 net.cpp:91] Creating Layer inception_4b/5x5_reduce
I0403 20:02:16.192080 10301 net.cpp:425] inception_4b/5x5_reduce <- inception_4a/output_inception_4a/output_0_split_3
I0403 20:02:16.192108 10301 net.cpp:399] inception_4b/5x5_reduce -> inception_4b/5x5_reduce
I0403 20:02:16.193439 10301 net.cpp:141] Setting up inception_4b/5x5_reduce
I0403 20:02:16.193476 10301 net.cpp:148] Top shape: 24 24 14 14 (112896)
I0403 20:02:16.193497 10301 net.cpp:156] Memory required for data: 965320992
I0403 20:02:16.193521 10301 layer_factory.hpp:77] Creating layer inception_4b/relu_5x5_reduce
I0403 20:02:16.193543 10301 net.cpp:91] Creating Layer inception_4b/relu_5x5_reduce
I0403 20:02:16.193580 10301 net.cpp:425] inception_4b/relu_5x5_reduce <- inception_4b/5x5_reduce
I0403 20:02:16.193603 10301 net.cpp:386] inception_4b/relu_5x5_reduce -> inception_4b/5x5_reduce (in-place)
I0403 20:02:16.193826 10301 net.cpp:141] Setting up inception_4b/relu_5x5_reduce
I0403 20:02:16.193861 10301 net.cpp:148] Top shape: 24 24 14 14 (112896)
I0403 20:02:16.193879 10301 net.cpp:156] Memory required for data: 965772576
I0403 20:02:16.193898 10301 layer_factory.hpp:77] Creating layer inception_4b/5x5
I0403 20:02:16.193925 10301 net.cpp:91] Creating Layer inception_4b/5x5
I0403 20:02:16.193948 10301 net.cpp:425] inception_4b/5x5 <- inception_4b/5x5_reduce
I0403 20:02:16.193974 10301 net.cpp:399] inception_4b/5x5 -> inception_4b/5x5
I0403 20:02:16.195471 10301 net.cpp:141] Setting up inception_4b/5x5
I0403 20:02:16.195505 10301 net.cpp:148] Top shape: 24 64 14 14 (301056)
I0403 20:02:16.195526 10301 net.cpp:156] Memory required for data: 966976800
I0403 20:02:16.195549 10301 layer_factory.hpp:77] Creating layer inception_4b/relu_5x5
I0403 20:02:16.195574 10301 net.cpp:91] Creating Layer inception_4b/relu_5x5
I0403 20:02:16.195595 10301 net.cpp:425] inception_4b/relu_5x5 <- inception_4b/5x5
I0403 20:02:16.195617 10301 net.cpp:386] inception_4b/relu_5x5 -> inception_4b/5x5 (in-place)
I0403 20:02:16.195958 10301 net.cpp:141] Setting up inception_4b/relu_5x5
I0403 20:02:16.195992 10301 net.cpp:148] Top shape: 24 64 14 14 (301056)
I0403 20:02:16.196012 10301 net.cpp:156] Memory required for data: 968181024
I0403 20:02:16.196032 10301 layer_factory.hpp:77] Creating layer inception_4b/pool
I0403 20:02:16.196059 10301 net.cpp:91] Creating Layer inception_4b/pool
I0403 20:02:16.196081 10301 net.cpp:425] inception_4b/pool <- inception_4a/output_inception_4a/output_0_split_4
I0403 20:02:16.196104 10301 net.cpp:399] inception_4b/pool -> inception_4b/pool
I0403 20:02:16.196189 10301 net.cpp:141] Setting up inception_4b/pool
I0403 20:02:16.196219 10301 net.cpp:148] Top shape: 24 512 14 14 (2408448)
I0403 20:02:16.196238 10301 net.cpp:156] Memory required for data: 977814816
I0403 20:02:16.196264 10301 layer_factory.hpp:77] Creating layer inception_4b/pool_proj
I0403 20:02:16.196291 10301 net.cpp:91] Creating Layer inception_4b/pool_proj
I0403 20:02:16.196313 10301 net.cpp:425] inception_4b/pool_proj <- inception_4b/pool
I0403 20:02:16.196341 10301 net.cpp:399] inception_4b/pool_proj -> inception_4b/pool_proj
I0403 20:02:16.197801 10301 net.cpp:141] Setting up inception_4b/pool_proj
I0403 20:02:16.197835 10301 net.cpp:148] Top shape: 24 64 14 14 (301056)
I0403 20:02:16.197855 10301 net.cpp:156] Memory required for data: 979019040
I0403 20:02:16.197877 10301 layer_factory.hpp:77] Creating layer inception_4b/relu_pool_proj
I0403 20:02:16.197903 10301 net.cpp:91] Creating Layer inception_4b/relu_pool_proj
I0403 20:02:16.197924 10301 net.cpp:425] inception_4b/relu_pool_proj <- inception_4b/pool_proj
I0403 20:02:16.197947 10301 net.cpp:386] inception_4b/relu_pool_proj -> inception_4b/pool_proj (in-place)
I0403 20:02:16.198168 10301 net.cpp:141] Setting up inception_4b/relu_pool_proj
I0403 20:02:16.198199 10301 net.cpp:148] Top shape: 24 64 14 14 (301056)
I0403 20:02:16.198217 10301 net.cpp:156] Memory required for data: 980223264
I0403 20:02:16.198236 10301 layer_factory.hpp:77] Creating layer inception_4b/output
I0403 20:02:16.198266 10301 net.cpp:91] Creating Layer inception_4b/output
I0403 20:02:16.198285 10301 net.cpp:425] inception_4b/output <- inception_4b/1x1
I0403 20:02:16.198307 10301 net.cpp:425] inception_4b/output <- inception_4b/3x3
I0403 20:02:16.198328 10301 net.cpp:425] inception_4b/output <- inception_4b/5x5
I0403 20:02:16.198346 10301 net.cpp:425] inception_4b/output <- inception_4b/pool_proj
I0403 20:02:16.198371 10301 net.cpp:399] inception_4b/output -> inception_4b/output
I0403 20:02:16.198429 10301 net.cpp:141] Setting up inception_4b/output
I0403 20:02:16.198462 10301 net.cpp:148] Top shape: 24 512 14 14 (2408448)
I0403 20:02:16.198482 10301 net.cpp:156] Memory required for data: 989857056
I0403 20:02:16.198516 10301 layer_factory.hpp:77] Creating layer inception_4b/output_inception_4b/output_0_split
I0403 20:02:16.198539 10301 net.cpp:91] Creating Layer inception_4b/output_inception_4b/output_0_split
I0403 20:02:16.198559 10301 net.cpp:425] inception_4b/output_inception_4b/output_0_split <- inception_4b/output
I0403 20:02:16.198580 10301 net.cpp:399] inception_4b/output_inception_4b/output_0_split -> inception_4b/output_inception_4b/output_0_split_0
I0403 20:02:16.198604 10301 net.cpp:399] inception_4b/output_inception_4b/output_0_split -> inception_4b/output_inception_4b/output_0_split_1
I0403 20:02:16.198633 10301 net.cpp:399] inception_4b/output_inception_4b/output_0_split -> inception_4b/output_inception_4b/output_0_split_2
I0403 20:02:16.198662 10301 net.cpp:399] inception_4b/output_inception_4b/output_0_split -> inception_4b/output_inception_4b/output_0_split_3
I0403 20:02:16.198765 10301 net.cpp:141] Setting up inception_4b/output_inception_4b/output_0_split
I0403 20:02:16.198794 10301 net.cpp:148] Top shape: 24 512 14 14 (2408448)
I0403 20:02:16.198817 10301 net.cpp:148] Top shape: 24 512 14 14 (2408448)
I0403 20:02:16.198835 10301 net.cpp:148] Top shape: 24 512 14 14 (2408448)
I0403 20:02:16.198856 10301 net.cpp:148] Top shape: 24 512 14 14 (2408448)
I0403 20:02:16.198874 10301 net.cpp:156] Memory required for data: 1028392224
I0403 20:02:16.198894 10301 layer_factory.hpp:77] Creating layer inception_4c/1x1
I0403 20:02:16.198921 10301 net.cpp:91] Creating Layer inception_4c/1x1
I0403 20:02:16.198943 10301 net.cpp:425] inception_4c/1x1 <- inception_4b/output_inception_4b/output_0_split_0
I0403 20:02:16.198971 10301 net.cpp:399] inception_4c/1x1 -> inception_4c/1x1
I0403 20:02:16.200727 10301 net.cpp:141] Setting up inception_4c/1x1
I0403 20:02:16.200762 10301 net.cpp:148] Top shape: 24 128 14 14 (602112)
I0403 20:02:16.200783 10301 net.cpp:156] Memory required for data: 1030800672
I0403 20:02:16.200805 10301 layer_factory.hpp:77] Creating layer inception_4c/relu_1x1
I0403 20:02:16.200826 10301 net.cpp:91] Creating Layer inception_4c/relu_1x1
I0403 20:02:16.200846 10301 net.cpp:425] inception_4c/relu_1x1 <- inception_4c/1x1
I0403 20:02:16.200871 10301 net.cpp:386] inception_4c/relu_1x1 -> inception_4c/1x1 (in-place)
I0403 20:02:16.201094 10301 net.cpp:141] Setting up inception_4c/relu_1x1
I0403 20:02:16.201125 10301 net.cpp:148] Top shape: 24 128 14 14 (602112)
I0403 20:02:16.201143 10301 net.cpp:156] Memory required for data: 1033209120
I0403 20:02:16.201162 10301 layer_factory.hpp:77] Creating layer inception_4c/3x3_reduce
I0403 20:02:16.201189 10301 net.cpp:91] Creating Layer inception_4c/3x3_reduce
I0403 20:02:16.201212 10301 net.cpp:425] inception_4c/3x3_reduce <- inception_4b/output_inception_4b/output_0_split_1
I0403 20:02:16.201247 10301 net.cpp:399] inception_4c/3x3_reduce -> inception_4c/3x3_reduce
I0403 20:02:16.203642 10301 net.cpp:141] Setting up inception_4c/3x3_reduce
I0403 20:02:16.203680 10301 net.cpp:148] Top shape: 24 128 14 14 (602112)
I0403 20:02:16.203699 10301 net.cpp:156] Memory required for data: 1035617568
I0403 20:02:16.203723 10301 layer_factory.hpp:77] Creating layer inception_4c/relu_3x3_reduce
I0403 20:02:16.203747 10301 net.cpp:91] Creating Layer inception_4c/relu_3x3_reduce
I0403 20:02:16.203770 10301 net.cpp:425] inception_4c/relu_3x3_reduce <- inception_4c/3x3_reduce
I0403 20:02:16.203794 10301 net.cpp:386] inception_4c/relu_3x3_reduce -> inception_4c/3x3_reduce (in-place)
I0403 20:02:16.204144 10301 net.cpp:141] Setting up inception_4c/relu_3x3_reduce
I0403 20:02:16.204176 10301 net.cpp:148] Top shape: 24 128 14 14 (602112)
I0403 20:02:16.204195 10301 net.cpp:156] Memory required for data: 1038026016
I0403 20:02:16.204215 10301 layer_factory.hpp:77] Creating layer inception_4c/3x3
I0403 20:02:16.204249 10301 net.cpp:91] Creating Layer inception_4c/3x3
I0403 20:02:16.204273 10301 net.cpp:425] inception_4c/3x3 <- inception_4c/3x3_reduce
I0403 20:02:16.204301 10301 net.cpp:399] inception_4c/3x3 -> inception_4c/3x3
I0403 20:02:16.208703 10301 net.cpp:141] Setting up inception_4c/3x3
I0403 20:02:16.208755 10301 net.cpp:148] Top shape: 24 256 14 14 (1204224)
I0403 20:02:16.208775 10301 net.cpp:156] Memory required for data: 1042842912
I0403 20:02:16.208817 10301 layer_factory.hpp:77] Creating layer inception_4c/relu_3x3
I0403 20:02:16.208847 10301 net.cpp:91] Creating Layer inception_4c/relu_3x3
I0403 20:02:16.208869 10301 net.cpp:425] inception_4c/relu_3x3 <- inception_4c/3x3
I0403 20:02:16.208890 10301 net.cpp:386] inception_4c/relu_3x3 -> inception_4c/3x3 (in-place)
I0403 20:02:16.209112 10301 net.cpp:141] Setting up inception_4c/relu_3x3
I0403 20:02:16.209146 10301 net.cpp:148] Top shape: 24 256 14 14 (1204224)
I0403 20:02:16.209166 10301 net.cpp:156] Memory required for data: 1047659808
I0403 20:02:16.209187 10301 layer_factory.hpp:77] Creating layer inception_4c/5x5_reduce
I0403 20:02:16.209216 10301 net.cpp:91] Creating Layer inception_4c/5x5_reduce
I0403 20:02:16.209244 10301 net.cpp:425] inception_4c/5x5_reduce <- inception_4b/output_inception_4b/output_0_split_2
I0403 20:02:16.209270 10301 net.cpp:399] inception_4c/5x5_reduce -> inception_4c/5x5_reduce
I0403 20:02:16.210602 10301 net.cpp:141] Setting up inception_4c/5x5_reduce
I0403 20:02:16.210644 10301 net.cpp:148] Top shape: 24 24 14 14 (112896)
I0403 20:02:16.210666 10301 net.cpp:156] Memory required for data: 1048111392
I0403 20:02:16.210691 10301 layer_factory.hpp:77] Creating layer inception_4c/relu_5x5_reduce
I0403 20:02:16.210714 10301 net.cpp:91] Creating Layer inception_4c/relu_5x5_reduce
I0403 20:02:16.210734 10301 net.cpp:425] inception_4c/relu_5x5_reduce <- inception_4c/5x5_reduce
I0403 20:02:16.210757 10301 net.cpp:386] inception_4c/relu_5x5_reduce -> inception_4c/5x5_reduce (in-place)
I0403 20:02:16.210985 10301 net.cpp:141] Setting up inception_4c/relu_5x5_reduce
I0403 20:02:16.211019 10301 net.cpp:148] Top shape: 24 24 14 14 (112896)
I0403 20:02:16.211040 10301 net.cpp:156] Memory required for data: 1048562976
I0403 20:02:16.211057 10301 layer_factory.hpp:77] Creating layer inception_4c/5x5
I0403 20:02:16.211084 10301 net.cpp:91] Creating Layer inception_4c/5x5
I0403 20:02:16.211107 10301 net.cpp:425] inception_4c/5x5 <- inception_4c/5x5_reduce
I0403 20:02:16.211129 10301 net.cpp:399] inception_4c/5x5 -> inception_4c/5x5
I0403 20:02:16.212671 10301 net.cpp:141] Setting up inception_4c/5x5
I0403 20:02:16.212707 10301 net.cpp:148] Top shape: 24 64 14 14 (301056)
I0403 20:02:16.212726 10301 net.cpp:156] Memory required for data: 1049767200
I0403 20:02:16.212749 10301 layer_factory.hpp:77] Creating layer inception_4c/relu_5x5
I0403 20:02:16.212771 10301 net.cpp:91] Creating Layer inception_4c/relu_5x5
I0403 20:02:16.212791 10301 net.cpp:425] inception_4c/relu_5x5 <- inception_4c/5x5
I0403 20:02:16.212817 10301 net.cpp:386] inception_4c/relu_5x5 -> inception_4c/5x5 (in-place)
I0403 20:02:16.213167 10301 net.cpp:141] Setting up inception_4c/relu_5x5
I0403 20:02:16.213201 10301 net.cpp:148] Top shape: 24 64 14 14 (301056)
I0403 20:02:16.213219 10301 net.cpp:156] Memory required for data: 1050971424
I0403 20:02:16.213238 10301 layer_factory.hpp:77] Creating layer inception_4c/pool
I0403 20:02:16.213269 10301 net.cpp:91] Creating Layer inception_4c/pool
I0403 20:02:16.213290 10301 net.cpp:425] inception_4c/pool <- inception_4b/output_inception_4b/output_0_split_3
I0403 20:02:16.213317 10301 net.cpp:399] inception_4c/pool -> inception_4c/pool
I0403 20:02:16.213399 10301 net.cpp:141] Setting up inception_4c/pool
I0403 20:02:16.213430 10301 net.cpp:148] Top shape: 24 512 14 14 (2408448)
I0403 20:02:16.213449 10301 net.cpp:156] Memory required for data: 1060605216
I0403 20:02:16.213467 10301 layer_factory.hpp:77] Creating layer inception_4c/pool_proj
I0403 20:02:16.213497 10301 net.cpp:91] Creating Layer inception_4c/pool_proj
I0403 20:02:16.213521 10301 net.cpp:425] inception_4c/pool_proj <- inception_4c/pool
I0403 20:02:16.213544 10301 net.cpp:399] inception_4c/pool_proj -> inception_4c/pool_proj
I0403 20:02:16.215044 10301 net.cpp:141] Setting up inception_4c/pool_proj
I0403 20:02:16.215078 10301 net.cpp:148] Top shape: 24 64 14 14 (301056)
I0403 20:02:16.215114 10301 net.cpp:156] Memory required for data: 1061809440
I0403 20:02:16.215139 10301 layer_factory.hpp:77] Creating layer inception_4c/relu_pool_proj
I0403 20:02:16.215170 10301 net.cpp:91] Creating Layer inception_4c/relu_pool_proj
I0403 20:02:16.215193 10301 net.cpp:425] inception_4c/relu_pool_proj <- inception_4c/pool_proj
I0403 20:02:16.215215 10301 net.cpp:386] inception_4c/relu_pool_proj -> inception_4c/pool_proj (in-place)
I0403 20:02:16.215447 10301 net.cpp:141] Setting up inception_4c/relu_pool_proj
I0403 20:02:16.215478 10301 net.cpp:148] Top shape: 24 64 14 14 (301056)
I0403 20:02:16.215497 10301 net.cpp:156] Memory required for data: 1063013664
I0403 20:02:16.215517 10301 layer_factory.hpp:77] Creating layer inception_4c/output
I0403 20:02:16.215538 10301 net.cpp:91] Creating Layer inception_4c/output
I0403 20:02:16.215559 10301 net.cpp:425] inception_4c/output <- inception_4c/1x1
I0403 20:02:16.215579 10301 net.cpp:425] inception_4c/output <- inception_4c/3x3
I0403 20:02:16.215597 10301 net.cpp:425] inception_4c/output <- inception_4c/5x5
I0403 20:02:16.215618 10301 net.cpp:425] inception_4c/output <- inception_4c/pool_proj
I0403 20:02:16.215643 10301 net.cpp:399] inception_4c/output -> inception_4c/output
I0403 20:02:16.215701 10301 net.cpp:141] Setting up inception_4c/output
I0403 20:02:16.215734 10301 net.cpp:148] Top shape: 24 512 14 14 (2408448)
I0403 20:02:16.215754 10301 net.cpp:156] Memory required for data: 1072647456
I0403 20:02:16.215771 10301 layer_factory.hpp:77] Creating layer inception_4c/output_inception_4c/output_0_split
I0403 20:02:16.215793 10301 net.cpp:91] Creating Layer inception_4c/output_inception_4c/output_0_split
I0403 20:02:16.215813 10301 net.cpp:425] inception_4c/output_inception_4c/output_0_split <- inception_4c/output
I0403 20:02:16.215836 10301 net.cpp:399] inception_4c/output_inception_4c/output_0_split -> inception_4c/output_inception_4c/output_0_split_0
I0403 20:02:16.215860 10301 net.cpp:399] inception_4c/output_inception_4c/output_0_split -> inception_4c/output_inception_4c/output_0_split_1
I0403 20:02:16.215888 10301 net.cpp:399] inception_4c/output_inception_4c/output_0_split -> inception_4c/output_inception_4c/output_0_split_2
I0403 20:02:16.215915 10301 net.cpp:399] inception_4c/output_inception_4c/output_0_split -> inception_4c/output_inception_4c/output_0_split_3
I0403 20:02:16.216025 10301 net.cpp:141] Setting up inception_4c/output_inception_4c/output_0_split
I0403 20:02:16.216054 10301 net.cpp:148] Top shape: 24 512 14 14 (2408448)
I0403 20:02:16.216074 10301 net.cpp:148] Top shape: 24 512 14 14 (2408448)
I0403 20:02:16.216094 10301 net.cpp:148] Top shape: 24 512 14 14 (2408448)
I0403 20:02:16.216114 10301 net.cpp:148] Top shape: 24 512 14 14 (2408448)
I0403 20:02:16.216130 10301 net.cpp:156] Memory required for data: 1111182624
I0403 20:02:16.216148 10301 layer_factory.hpp:77] Creating layer inception_4d/1x1
I0403 20:02:16.216174 10301 net.cpp:91] Creating Layer inception_4d/1x1
I0403 20:02:16.216197 10301 net.cpp:425] inception_4d/1x1 <- inception_4c/output_inception_4c/output_0_split_0
I0403 20:02:16.216223 10301 net.cpp:399] inception_4d/1x1 -> inception_4d/1x1
I0403 20:02:16.217931 10301 net.cpp:141] Setting up inception_4d/1x1
I0403 20:02:16.217967 10301 net.cpp:148] Top shape: 24 112 14 14 (526848)
I0403 20:02:16.217986 10301 net.cpp:156] Memory required for data: 1113290016
I0403 20:02:16.218008 10301 layer_factory.hpp:77] Creating layer inception_4d/relu_1x1
I0403 20:02:16.218034 10301 net.cpp:91] Creating Layer inception_4d/relu_1x1
I0403 20:02:16.218056 10301 net.cpp:425] inception_4d/relu_1x1 <- inception_4d/1x1
I0403 20:02:16.218080 10301 net.cpp:386] inception_4d/relu_1x1 -> inception_4d/1x1 (in-place)
I0403 20:02:16.218315 10301 net.cpp:141] Setting up inception_4d/relu_1x1
I0403 20:02:16.218349 10301 net.cpp:148] Top shape: 24 112 14 14 (526848)
I0403 20:02:16.218369 10301 net.cpp:156] Memory required for data: 1115397408
I0403 20:02:16.218389 10301 layer_factory.hpp:77] Creating layer inception_4d/3x3_reduce
I0403 20:02:16.218430 10301 net.cpp:91] Creating Layer inception_4d/3x3_reduce
I0403 20:02:16.218454 10301 net.cpp:425] inception_4d/3x3_reduce <- inception_4c/output_inception_4c/output_0_split_1
I0403 20:02:16.218482 10301 net.cpp:399] inception_4d/3x3_reduce -> inception_4d/3x3_reduce
I0403 20:02:16.220355 10301 net.cpp:141] Setting up inception_4d/3x3_reduce
I0403 20:02:16.220389 10301 net.cpp:148] Top shape: 24 144 14 14 (677376)
I0403 20:02:16.220408 10301 net.cpp:156] Memory required for data: 1118106912
I0403 20:02:16.220432 10301 layer_factory.hpp:77] Creating layer inception_4d/relu_3x3_reduce
I0403 20:02:16.220455 10301 net.cpp:91] Creating Layer inception_4d/relu_3x3_reduce
I0403 20:02:16.220475 10301 net.cpp:425] inception_4d/relu_3x3_reduce <- inception_4d/3x3_reduce
I0403 20:02:16.220500 10301 net.cpp:386] inception_4d/relu_3x3_reduce -> inception_4d/3x3_reduce (in-place)
I0403 20:02:16.220852 10301 net.cpp:141] Setting up inception_4d/relu_3x3_reduce
I0403 20:02:16.220885 10301 net.cpp:148] Top shape: 24 144 14 14 (677376)
I0403 20:02:16.220904 10301 net.cpp:156] Memory required for data: 1120816416
I0403 20:02:16.220923 10301 layer_factory.hpp:77] Creating layer inception_4d/3x3
I0403 20:02:16.220952 10301 net.cpp:91] Creating Layer inception_4d/3x3
I0403 20:02:16.220973 10301 net.cpp:425] inception_4d/3x3 <- inception_4d/3x3_reduce
I0403 20:02:16.221000 10301 net.cpp:399] inception_4d/3x3 -> inception_4d/3x3
I0403 20:02:16.226328 10301 net.cpp:141] Setting up inception_4d/3x3
I0403 20:02:16.226364 10301 net.cpp:148] Top shape: 24 288 14 14 (1354752)
I0403 20:02:16.226383 10301 net.cpp:156] Memory required for data: 1126235424
I0403 20:02:16.226407 10301 layer_factory.hpp:77] Creating layer inception_4d/relu_3x3
I0403 20:02:16.226431 10301 net.cpp:91] Creating Layer inception_4d/relu_3x3
I0403 20:02:16.226452 10301 net.cpp:425] inception_4d/relu_3x3 <- inception_4d/3x3
I0403 20:02:16.226475 10301 net.cpp:386] inception_4d/relu_3x3 -> inception_4d/3x3 (in-place)
I0403 20:02:16.226702 10301 net.cpp:141] Setting up inception_4d/relu_3x3
I0403 20:02:16.226733 10301 net.cpp:148] Top shape: 24 288 14 14 (1354752)
I0403 20:02:16.226752 10301 net.cpp:156] Memory required for data: 1131654432
I0403 20:02:16.226770 10301 layer_factory.hpp:77] Creating layer inception_4d/5x5_reduce
I0403 20:02:16.226799 10301 net.cpp:91] Creating Layer inception_4d/5x5_reduce
I0403 20:02:16.226822 10301 net.cpp:425] inception_4d/5x5_reduce <- inception_4c/output_inception_4c/output_0_split_2
I0403 20:02:16.226845 10301 net.cpp:399] inception_4d/5x5_reduce -> inception_4d/5x5_reduce
I0403 20:02:16.228251 10301 net.cpp:141] Setting up inception_4d/5x5_reduce
I0403 20:02:16.228286 10301 net.cpp:148] Top shape: 24 32 14 14 (150528)
I0403 20:02:16.228305 10301 net.cpp:156] Memory required for data: 1132256544
I0403 20:02:16.228328 10301 layer_factory.hpp:77] Creating layer inception_4d/relu_5x5_reduce
I0403 20:02:16.228353 10301 net.cpp:91] Creating Layer inception_4d/relu_5x5_reduce
I0403 20:02:16.228374 10301 net.cpp:425] inception_4d/relu_5x5_reduce <- inception_4d/5x5_reduce
I0403 20:02:16.228394 10301 net.cpp:386] inception_4d/relu_5x5_reduce -> inception_4d/5x5_reduce (in-place)
I0403 20:02:16.228624 10301 net.cpp:141] Setting up inception_4d/relu_5x5_reduce
I0403 20:02:16.228662 10301 net.cpp:148] Top shape: 24 32 14 14 (150528)
I0403 20:02:16.228683 10301 net.cpp:156] Memory required for data: 1132858656
I0403 20:02:16.228701 10301 layer_factory.hpp:77] Creating layer inception_4d/5x5
I0403 20:02:16.228727 10301 net.cpp:91] Creating Layer inception_4d/5x5
I0403 20:02:16.228750 10301 net.cpp:425] inception_4d/5x5 <- inception_4d/5x5_reduce
I0403 20:02:16.228772 10301 net.cpp:399] inception_4d/5x5 -> inception_4d/5x5
I0403 20:02:16.230550 10301 net.cpp:141] Setting up inception_4d/5x5
I0403 20:02:16.230587 10301 net.cpp:148] Top shape: 24 64 14 14 (301056)
I0403 20:02:16.230607 10301 net.cpp:156] Memory required for data: 1134062880
I0403 20:02:16.230633 10301 layer_factory.hpp:77] Creating layer inception_4d/relu_5x5
I0403 20:02:16.230672 10301 net.cpp:91] Creating Layer inception_4d/relu_5x5
I0403 20:02:16.230693 10301 net.cpp:425] inception_4d/relu_5x5 <- inception_4d/5x5
I0403 20:02:16.230715 10301 net.cpp:386] inception_4d/relu_5x5 -> inception_4d/5x5 (in-place)
I0403 20:02:16.231078 10301 net.cpp:141] Setting up inception_4d/relu_5x5
I0403 20:02:16.231114 10301 net.cpp:148] Top shape: 24 64 14 14 (301056)
I0403 20:02:16.231133 10301 net.cpp:156] Memory required for data: 1135267104
I0403 20:02:16.231151 10301 layer_factory.hpp:77] Creating layer inception_4d/pool
I0403 20:02:16.231173 10301 net.cpp:91] Creating Layer inception_4d/pool
I0403 20:02:16.231194 10301 net.cpp:425] inception_4d/pool <- inception_4c/output_inception_4c/output_0_split_3
I0403 20:02:16.231220 10301 net.cpp:399] inception_4d/pool -> inception_4d/pool
I0403 20:02:16.231307 10301 net.cpp:141] Setting up inception_4d/pool
I0403 20:02:16.231336 10301 net.cpp:148] Top shape: 24 512 14 14 (2408448)
I0403 20:02:16.231354 10301 net.cpp:156] Memory required for data: 1144900896
I0403 20:02:16.231374 10301 layer_factory.hpp:77] Creating layer inception_4d/pool_proj
I0403 20:02:16.231400 10301 net.cpp:91] Creating Layer inception_4d/pool_proj
I0403 20:02:16.231421 10301 net.cpp:425] inception_4d/pool_proj <- inception_4d/pool
I0403 20:02:16.231446 10301 net.cpp:399] inception_4d/pool_proj -> inception_4d/pool_proj
I0403 20:02:16.233592 10301 net.cpp:141] Setting up inception_4d/pool_proj
I0403 20:02:16.233628 10301 net.cpp:148] Top shape: 24 64 14 14 (301056)
I0403 20:02:16.233647 10301 net.cpp:156] Memory required for data: 1146105120
I0403 20:02:16.233670 10301 layer_factory.hpp:77] Creating layer inception_4d/relu_pool_proj
I0403 20:02:16.233695 10301 net.cpp:91] Creating Layer inception_4d/relu_pool_proj
I0403 20:02:16.233716 10301 net.cpp:425] inception_4d/relu_pool_proj <- inception_4d/pool_proj
I0403 20:02:16.233737 10301 net.cpp:386] inception_4d/relu_pool_proj -> inception_4d/pool_proj (in-place)
I0403 20:02:16.233971 10301 net.cpp:141] Setting up inception_4d/relu_pool_proj
I0403 20:02:16.234004 10301 net.cpp:148] Top shape: 24 64 14 14 (301056)
I0403 20:02:16.234025 10301 net.cpp:156] Memory required for data: 1147309344
I0403 20:02:16.234043 10301 layer_factory.hpp:77] Creating layer inception_4d/output
I0403 20:02:16.234064 10301 net.cpp:91] Creating Layer inception_4d/output
I0403 20:02:16.234083 10301 net.cpp:425] inception_4d/output <- inception_4d/1x1
I0403 20:02:16.234102 10301 net.cpp:425] inception_4d/output <- inception_4d/3x3
I0403 20:02:16.234122 10301 net.cpp:425] inception_4d/output <- inception_4d/5x5
I0403 20:02:16.234141 10301 net.cpp:425] inception_4d/output <- inception_4d/pool_proj
I0403 20:02:16.234161 10301 net.cpp:399] inception_4d/output -> inception_4d/output
I0403 20:02:16.234221 10301 net.cpp:141] Setting up inception_4d/output
I0403 20:02:16.234256 10301 net.cpp:148] Top shape: 24 528 14 14 (2483712)
I0403 20:02:16.234274 10301 net.cpp:156] Memory required for data: 1157244192
I0403 20:02:16.234292 10301 layer_factory.hpp:77] Creating layer inception_4d/output_inception_4d/output_0_split
I0403 20:02:16.234313 10301 net.cpp:91] Creating Layer inception_4d/output_inception_4d/output_0_split
I0403 20:02:16.234333 10301 net.cpp:425] inception_4d/output_inception_4d/output_0_split <- inception_4d/output
I0403 20:02:16.234359 10301 net.cpp:399] inception_4d/output_inception_4d/output_0_split -> inception_4d/output_inception_4d/output_0_split_0
I0403 20:02:16.234385 10301 net.cpp:399] inception_4d/output_inception_4d/output_0_split -> inception_4d/output_inception_4d/output_0_split_1
I0403 20:02:16.234408 10301 net.cpp:399] inception_4d/output_inception_4d/output_0_split -> inception_4d/output_inception_4d/output_0_split_2
I0403 20:02:16.234441 10301 net.cpp:399] inception_4d/output_inception_4d/output_0_split -> inception_4d/output_inception_4d/output_0_split_3
I0403 20:02:16.234464 10301 net.cpp:399] inception_4d/output_inception_4d/output_0_split -> inception_4d/output_inception_4d/output_0_split_4
I0403 20:02:16.234591 10301 net.cpp:141] Setting up inception_4d/output_inception_4d/output_0_split
I0403 20:02:16.234633 10301 net.cpp:148] Top shape: 24 528 14 14 (2483712)
I0403 20:02:16.234654 10301 net.cpp:148] Top shape: 24 528 14 14 (2483712)
I0403 20:02:16.234674 10301 net.cpp:148] Top shape: 24 528 14 14 (2483712)
I0403 20:02:16.234694 10301 net.cpp:148] Top shape: 24 528 14 14 (2483712)
I0403 20:02:16.234712 10301 net.cpp:148] Top shape: 24 528 14 14 (2483712)
I0403 20:02:16.234730 10301 net.cpp:156] Memory required for data: 1206918432
I0403 20:02:16.234746 10301 layer_factory.hpp:77] Creating layer loss2/ave_pool
I0403 20:02:16.234768 10301 net.cpp:91] Creating Layer loss2/ave_pool
I0403 20:02:16.234788 10301 net.cpp:425] loss2/ave_pool <- inception_4d/output_inception_4d/output_0_split_0
I0403 20:02:16.234813 10301 net.cpp:399] loss2/ave_pool -> loss2/ave_pool
I0403 20:02:16.235198 10301 net.cpp:141] Setting up loss2/ave_pool
I0403 20:02:16.235229 10301 net.cpp:148] Top shape: 24 528 4 4 (202752)
I0403 20:02:16.235255 10301 net.cpp:156] Memory required for data: 1207729440
I0403 20:02:16.235275 10301 layer_factory.hpp:77] Creating layer loss2/conv
I0403 20:02:16.235302 10301 net.cpp:91] Creating Layer loss2/conv
I0403 20:02:16.235323 10301 net.cpp:425] loss2/conv <- loss2/ave_pool
I0403 20:02:16.235349 10301 net.cpp:399] loss2/conv -> loss2/conv
I0403 20:02:16.237666 10301 net.cpp:141] Setting up loss2/conv
I0403 20:02:16.237704 10301 net.cpp:148] Top shape: 24 128 4 4 (49152)
I0403 20:02:16.237725 10301 net.cpp:156] Memory required for data: 1207926048
I0403 20:02:16.237747 10301 layer_factory.hpp:77] Creating layer loss2/relu_conv
I0403 20:02:16.237769 10301 net.cpp:91] Creating Layer loss2/relu_conv
I0403 20:02:16.237789 10301 net.cpp:425] loss2/relu_conv <- loss2/conv
I0403 20:02:16.237813 10301 net.cpp:386] loss2/relu_conv -> loss2/conv (in-place)
I0403 20:02:16.238157 10301 net.cpp:141] Setting up loss2/relu_conv
I0403 20:02:16.238191 10301 net.cpp:148] Top shape: 24 128 4 4 (49152)
I0403 20:02:16.238211 10301 net.cpp:156] Memory required for data: 1208122656
I0403 20:02:16.238229 10301 layer_factory.hpp:77] Creating layer loss2/fc
I0403 20:02:16.238260 10301 net.cpp:91] Creating Layer loss2/fc
I0403 20:02:16.238281 10301 net.cpp:425] loss2/fc <- loss2/conv
I0403 20:02:16.238309 10301 net.cpp:399] loss2/fc -> loss2/fc
I0403 20:02:16.260363 10301 net.cpp:141] Setting up loss2/fc
I0403 20:02:16.260408 10301 net.cpp:148] Top shape: 24 1024 (24576)
I0403 20:02:16.260429 10301 net.cpp:156] Memory required for data: 1208220960
I0403 20:02:16.260452 10301 layer_factory.hpp:77] Creating layer loss2/relu_fc
I0403 20:02:16.260478 10301 net.cpp:91] Creating Layer loss2/relu_fc
I0403 20:02:16.260499 10301 net.cpp:425] loss2/relu_fc <- loss2/fc
I0403 20:02:16.260521 10301 net.cpp:386] loss2/relu_fc -> loss2/fc (in-place)
I0403 20:02:16.260891 10301 net.cpp:141] Setting up loss2/relu_fc
I0403 20:02:16.260924 10301 net.cpp:148] Top shape: 24 1024 (24576)
I0403 20:02:16.260943 10301 net.cpp:156] Memory required for data: 1208319264
I0403 20:02:16.260962 10301 layer_factory.hpp:77] Creating layer loss2/drop_fc
I0403 20:02:16.260987 10301 net.cpp:91] Creating Layer loss2/drop_fc
I0403 20:02:16.261008 10301 net.cpp:425] loss2/drop_fc <- loss2/fc
I0403 20:02:16.261030 10301 net.cpp:386] loss2/drop_fc -> loss2/fc (in-place)
I0403 20:02:16.261093 10301 net.cpp:141] Setting up loss2/drop_fc
I0403 20:02:16.261122 10301 net.cpp:148] Top shape: 24 1024 (24576)
I0403 20:02:16.261140 10301 net.cpp:156] Memory required for data: 1208417568
I0403 20:02:16.261158 10301 layer_factory.hpp:77] Creating layer loss2/classifier_plantvillage
I0403 20:02:16.261183 10301 net.cpp:91] Creating Layer loss2/classifier_plantvillage
I0403 20:02:16.261201 10301 net.cpp:425] loss2/classifier_plantvillage <- loss2/fc
I0403 20:02:16.261234 10301 net.cpp:399] loss2/classifier_plantvillage -> loss2/classifier_plantvillage
I0403 20:02:16.261740 10301 net.cpp:141] Setting up loss2/classifier_plantvillage
I0403 20:02:16.261772 10301 net.cpp:148] Top shape: 24 38 (912)
I0403 20:02:16.261790 10301 net.cpp:156] Memory required for data: 1208421216
I0403 20:02:16.261831 10301 layer_factory.hpp:77] Creating layer loss2/classifier_plantvillage_loss2/classifier_plantvillage_0_split
I0403 20:02:16.261855 10301 net.cpp:91] Creating Layer loss2/classifier_plantvillage_loss2/classifier_plantvillage_0_split
I0403 20:02:16.261875 10301 net.cpp:425] loss2/classifier_plantvillage_loss2/classifier_plantvillage_0_split <- loss2/classifier_plantvillage
I0403 20:02:16.261899 10301 net.cpp:399] loss2/classifier_plantvillage_loss2/classifier_plantvillage_0_split -> loss2/classifier_plantvillage_loss2/classifier_plantvillage_0_split_0
I0403 20:02:16.261926 10301 net.cpp:399] loss2/classifier_plantvillage_loss2/classifier_plantvillage_0_split -> loss2/classifier_plantvillage_loss2/classifier_plantvillage_0_split_1
I0403 20:02:16.261952 10301 net.cpp:399] loss2/classifier_plantvillage_loss2/classifier_plantvillage_0_split -> loss2/classifier_plantvillage_loss2/classifier_plantvillage_0_split_2
I0403 20:02:16.262048 10301 net.cpp:141] Setting up loss2/classifier_plantvillage_loss2/classifier_plantvillage_0_split
I0403 20:02:16.262079 10301 net.cpp:148] Top shape: 24 38 (912)
I0403 20:02:16.262099 10301 net.cpp:148] Top shape: 24 38 (912)
I0403 20:02:16.262118 10301 net.cpp:148] Top shape: 24 38 (912)
I0403 20:02:16.262135 10301 net.cpp:156] Memory required for data: 1208432160
I0403 20:02:16.262152 10301 layer_factory.hpp:77] Creating layer inception_4e/1x1
I0403 20:02:16.262176 10301 net.cpp:91] Creating Layer inception_4e/1x1
I0403 20:02:16.262197 10301 net.cpp:425] inception_4e/1x1 <- inception_4d/output_inception_4d/output_0_split_1
I0403 20:02:16.262220 10301 net.cpp:399] inception_4e/1x1 -> inception_4e/1x1
I0403 20:02:16.264492 10301 net.cpp:141] Setting up inception_4e/1x1
I0403 20:02:16.264525 10301 net.cpp:148] Top shape: 24 256 14 14 (1204224)
I0403 20:02:16.264544 10301 net.cpp:156] Memory required for data: 1213249056
I0403 20:02:16.264567 10301 layer_factory.hpp:77] Creating layer inception_4e/relu_1x1
I0403 20:02:16.264590 10301 net.cpp:91] Creating Layer inception_4e/relu_1x1
I0403 20:02:16.264611 10301 net.cpp:425] inception_4e/relu_1x1 <- inception_4e/1x1
I0403 20:02:16.264636 10301 net.cpp:386] inception_4e/relu_1x1 -> inception_4e/1x1 (in-place)
I0403 20:02:16.264999 10301 net.cpp:141] Setting up inception_4e/relu_1x1
I0403 20:02:16.265032 10301 net.cpp:148] Top shape: 24 256 14 14 (1204224)
I0403 20:02:16.265050 10301 net.cpp:156] Memory required for data: 1218065952
I0403 20:02:16.265069 10301 layer_factory.hpp:77] Creating layer inception_4e/3x3_reduce
I0403 20:02:16.265096 10301 net.cpp:91] Creating Layer inception_4e/3x3_reduce
I0403 20:02:16.265118 10301 net.cpp:425] inception_4e/3x3_reduce <- inception_4d/output_inception_4d/output_0_split_2
I0403 20:02:16.265144 10301 net.cpp:399] inception_4e/3x3_reduce -> inception_4e/3x3_reduce
I0403 20:02:16.267783 10301 net.cpp:141] Setting up inception_4e/3x3_reduce
I0403 20:02:16.267822 10301 net.cpp:148] Top shape: 24 160 14 14 (752640)
I0403 20:02:16.267843 10301 net.cpp:156] Memory required for data: 1221076512
I0403 20:02:16.267866 10301 layer_factory.hpp:77] Creating layer inception_4e/relu_3x3_reduce
I0403 20:02:16.267889 10301 net.cpp:91] Creating Layer inception_4e/relu_3x3_reduce
I0403 20:02:16.267909 10301 net.cpp:425] inception_4e/relu_3x3_reduce <- inception_4e/3x3_reduce
I0403 20:02:16.267932 10301 net.cpp:386] inception_4e/relu_3x3_reduce -> inception_4e/3x3_reduce (in-place)
I0403 20:02:16.268167 10301 net.cpp:141] Setting up inception_4e/relu_3x3_reduce
I0403 20:02:16.268198 10301 net.cpp:148] Top shape: 24 160 14 14 (752640)
I0403 20:02:16.268215 10301 net.cpp:156] Memory required for data: 1224087072
I0403 20:02:16.268234 10301 layer_factory.hpp:77] Creating layer inception_4e/3x3
I0403 20:02:16.268268 10301 net.cpp:91] Creating Layer inception_4e/3x3
I0403 20:02:16.268291 10301 net.cpp:425] inception_4e/3x3 <- inception_4e/3x3_reduce
I0403 20:02:16.268318 10301 net.cpp:399] inception_4e/3x3 -> inception_4e/3x3
I0403 20:02:16.274730 10301 net.cpp:141] Setting up inception_4e/3x3
I0403 20:02:16.274782 10301 net.cpp:148] Top shape: 24 320 14 14 (1505280)
I0403 20:02:16.274803 10301 net.cpp:156] Memory required for data: 1230108192
I0403 20:02:16.274827 10301 layer_factory.hpp:77] Creating layer inception_4e/relu_3x3
I0403 20:02:16.274848 10301 net.cpp:91] Creating Layer inception_4e/relu_3x3
I0403 20:02:16.274868 10301 net.cpp:425] inception_4e/relu_3x3 <- inception_4e/3x3
I0403 20:02:16.274893 10301 net.cpp:386] inception_4e/relu_3x3 -> inception_4e/3x3 (in-place)
I0403 20:02:16.275269 10301 net.cpp:141] Setting up inception_4e/relu_3x3
I0403 20:02:16.275301 10301 net.cpp:148] Top shape: 24 320 14 14 (1505280)
I0403 20:02:16.275321 10301 net.cpp:156] Memory required for data: 1236129312
I0403 20:02:16.275339 10301 layer_factory.hpp:77] Creating layer inception_4e/5x5_reduce
I0403 20:02:16.275372 10301 net.cpp:91] Creating Layer inception_4e/5x5_reduce
I0403 20:02:16.275394 10301 net.cpp:425] inception_4e/5x5_reduce <- inception_4d/output_inception_4d/output_0_split_3
I0403 20:02:16.275420 10301 net.cpp:399] inception_4e/5x5_reduce -> inception_4e/5x5_reduce
I0403 20:02:16.276746 10301 net.cpp:141] Setting up inception_4e/5x5_reduce
I0403 20:02:16.276782 10301 net.cpp:148] Top shape: 24 32 14 14 (150528)
I0403 20:02:16.276803 10301 net.cpp:156] Memory required for data: 1236731424
I0403 20:02:16.276826 10301 layer_factory.hpp:77] Creating layer inception_4e/relu_5x5_reduce
I0403 20:02:16.276849 10301 net.cpp:91] Creating Layer inception_4e/relu_5x5_reduce
I0403 20:02:16.276868 10301 net.cpp:425] inception_4e/relu_5x5_reduce <- inception_4e/5x5_reduce
I0403 20:02:16.276890 10301 net.cpp:386] inception_4e/relu_5x5_reduce -> inception_4e/5x5_reduce (in-place)
I0403 20:02:16.277256 10301 net.cpp:141] Setting up inception_4e/relu_5x5_reduce
I0403 20:02:16.277290 10301 net.cpp:148] Top shape: 24 32 14 14 (150528)
I0403 20:02:16.277312 10301 net.cpp:156] Memory required for data: 1237333536
I0403 20:02:16.277329 10301 layer_factory.hpp:77] Creating layer inception_4e/5x5
I0403 20:02:16.277377 10301 net.cpp:91] Creating Layer inception_4e/5x5
I0403 20:02:16.277401 10301 net.cpp:425] inception_4e/5x5 <- inception_4e/5x5_reduce
I0403 20:02:16.277426 10301 net.cpp:399] inception_4e/5x5 -> inception_4e/5x5
I0403 20:02:16.279686 10301 net.cpp:141] Setting up inception_4e/5x5
I0403 20:02:16.279721 10301 net.cpp:148] Top shape: 24 128 14 14 (602112)
I0403 20:02:16.279741 10301 net.cpp:156] Memory required for data: 1239741984
I0403 20:02:16.279763 10301 layer_factory.hpp:77] Creating layer inception_4e/relu_5x5
I0403 20:02:16.279793 10301 net.cpp:91] Creating Layer inception_4e/relu_5x5
I0403 20:02:16.279815 10301 net.cpp:425] inception_4e/relu_5x5 <- inception_4e/5x5
I0403 20:02:16.279836 10301 net.cpp:386] inception_4e/relu_5x5 -> inception_4e/5x5 (in-place)
I0403 20:02:16.280084 10301 net.cpp:141] Setting up inception_4e/relu_5x5
I0403 20:02:16.280117 10301 net.cpp:148] Top shape: 24 128 14 14 (602112)
I0403 20:02:16.280138 10301 net.cpp:156] Memory required for data: 1242150432
I0403 20:02:16.280155 10301 layer_factory.hpp:77] Creating layer inception_4e/pool
I0403 20:02:16.280179 10301 net.cpp:91] Creating Layer inception_4e/pool
I0403 20:02:16.280197 10301 net.cpp:425] inception_4e/pool <- inception_4d/output_inception_4d/output_0_split_4
I0403 20:02:16.280222 10301 net.cpp:399] inception_4e/pool -> inception_4e/pool
I0403 20:02:16.280314 10301 net.cpp:141] Setting up inception_4e/pool
I0403 20:02:16.280344 10301 net.cpp:148] Top shape: 24 528 14 14 (2483712)
I0403 20:02:16.280362 10301 net.cpp:156] Memory required for data: 1252085280
I0403 20:02:16.280382 10301 layer_factory.hpp:77] Creating layer inception_4e/pool_proj
I0403 20:02:16.280410 10301 net.cpp:91] Creating Layer inception_4e/pool_proj
I0403 20:02:16.280431 10301 net.cpp:425] inception_4e/pool_proj <- inception_4e/pool
I0403 20:02:16.280457 10301 net.cpp:399] inception_4e/pool_proj -> inception_4e/pool_proj
I0403 20:02:16.282332 10301 net.cpp:141] Setting up inception_4e/pool_proj
I0403 20:02:16.282367 10301 net.cpp:148] Top shape: 24 128 14 14 (602112)
I0403 20:02:16.282403 10301 net.cpp:156] Memory required for data: 1254493728
I0403 20:02:16.282428 10301 layer_factory.hpp:77] Creating layer inception_4e/relu_pool_proj
I0403 20:02:16.282454 10301 net.cpp:91] Creating Layer inception_4e/relu_pool_proj
I0403 20:02:16.282475 10301 net.cpp:425] inception_4e/relu_pool_proj <- inception_4e/pool_proj
I0403 20:02:16.282496 10301 net.cpp:386] inception_4e/relu_pool_proj -> inception_4e/pool_proj (in-place)
I0403 20:02:16.282853 10301 net.cpp:141] Setting up inception_4e/relu_pool_proj
I0403 20:02:16.282886 10301 net.cpp:148] Top shape: 24 128 14 14 (602112)
I0403 20:02:16.282905 10301 net.cpp:156] Memory required for data: 1256902176
I0403 20:02:16.282924 10301 layer_factory.hpp:77] Creating layer inception_4e/output
I0403 20:02:16.282950 10301 net.cpp:91] Creating Layer inception_4e/output
I0403 20:02:16.282970 10301 net.cpp:425] inception_4e/output <- inception_4e/1x1
I0403 20:02:16.282990 10301 net.cpp:425] inception_4e/output <- inception_4e/3x3
I0403 20:02:16.283010 10301 net.cpp:425] inception_4e/output <- inception_4e/5x5
I0403 20:02:16.283030 10301 net.cpp:425] inception_4e/output <- inception_4e/pool_proj
I0403 20:02:16.283051 10301 net.cpp:399] inception_4e/output -> inception_4e/output
I0403 20:02:16.283114 10301 net.cpp:141] Setting up inception_4e/output
I0403 20:02:16.283143 10301 net.cpp:148] Top shape: 24 832 14 14 (3913728)
I0403 20:02:16.283161 10301 net.cpp:156] Memory required for data: 1272557088
I0403 20:02:16.283179 10301 layer_factory.hpp:77] Creating layer pool4/3x3_s2
I0403 20:02:16.283201 10301 net.cpp:91] Creating Layer pool4/3x3_s2
I0403 20:02:16.283221 10301 net.cpp:425] pool4/3x3_s2 <- inception_4e/output
I0403 20:02:16.283252 10301 net.cpp:399] pool4/3x3_s2 -> pool4/3x3_s2
I0403 20:02:16.283339 10301 net.cpp:141] Setting up pool4/3x3_s2
I0403 20:02:16.283371 10301 net.cpp:148] Top shape: 24 832 7 7 (978432)
I0403 20:02:16.283390 10301 net.cpp:156] Memory required for data: 1276470816
I0403 20:02:16.283408 10301 layer_factory.hpp:77] Creating layer pool4/3x3_s2_pool4/3x3_s2_0_split
I0403 20:02:16.283429 10301 net.cpp:91] Creating Layer pool4/3x3_s2_pool4/3x3_s2_0_split
I0403 20:02:16.283449 10301 net.cpp:425] pool4/3x3_s2_pool4/3x3_s2_0_split <- pool4/3x3_s2
I0403 20:02:16.283470 10301 net.cpp:399] pool4/3x3_s2_pool4/3x3_s2_0_split -> pool4/3x3_s2_pool4/3x3_s2_0_split_0
I0403 20:02:16.283498 10301 net.cpp:399] pool4/3x3_s2_pool4/3x3_s2_0_split -> pool4/3x3_s2_pool4/3x3_s2_0_split_1
I0403 20:02:16.283524 10301 net.cpp:399] pool4/3x3_s2_pool4/3x3_s2_0_split -> pool4/3x3_s2_pool4/3x3_s2_0_split_2
I0403 20:02:16.283547 10301 net.cpp:399] pool4/3x3_s2_pool4/3x3_s2_0_split -> pool4/3x3_s2_pool4/3x3_s2_0_split_3
I0403 20:02:16.283666 10301 net.cpp:141] Setting up pool4/3x3_s2_pool4/3x3_s2_0_split
I0403 20:02:16.283695 10301 net.cpp:148] Top shape: 24 832 7 7 (978432)
I0403 20:02:16.283715 10301 net.cpp:148] Top shape: 24 832 7 7 (978432)
I0403 20:02:16.283733 10301 net.cpp:148] Top shape: 24 832 7 7 (978432)
I0403 20:02:16.283752 10301 net.cpp:148] Top shape: 24 832 7 7 (978432)
I0403 20:02:16.283771 10301 net.cpp:156] Memory required for data: 1292125728
I0403 20:02:16.283789 10301 layer_factory.hpp:77] Creating layer inception_5a/1x1
I0403 20:02:16.283817 10301 net.cpp:91] Creating Layer inception_5a/1x1
I0403 20:02:16.283840 10301 net.cpp:425] inception_5a/1x1 <- pool4/3x3_s2_pool4/3x3_s2_0_split_0
I0403 20:02:16.283864 10301 net.cpp:399] inception_5a/1x1 -> inception_5a/1x1
I0403 20:02:16.287412 10301 net.cpp:141] Setting up inception_5a/1x1
I0403 20:02:16.287449 10301 net.cpp:148] Top shape: 24 256 7 7 (301056)
I0403 20:02:16.287468 10301 net.cpp:156] Memory required for data: 1293329952
I0403 20:02:16.287492 10301 layer_factory.hpp:77] Creating layer inception_5a/relu_1x1
I0403 20:02:16.287518 10301 net.cpp:91] Creating Layer inception_5a/relu_1x1
I0403 20:02:16.287539 10301 net.cpp:425] inception_5a/relu_1x1 <- inception_5a/1x1
I0403 20:02:16.287560 10301 net.cpp:386] inception_5a/relu_1x1 -> inception_5a/1x1 (in-place)
I0403 20:02:16.287936 10301 net.cpp:141] Setting up inception_5a/relu_1x1
I0403 20:02:16.287971 10301 net.cpp:148] Top shape: 24 256 7 7 (301056)
I0403 20:02:16.287989 10301 net.cpp:156] Memory required for data: 1294534176
I0403 20:02:16.288008 10301 layer_factory.hpp:77] Creating layer inception_5a/3x3_reduce
I0403 20:02:16.288038 10301 net.cpp:91] Creating Layer inception_5a/3x3_reduce
I0403 20:02:16.288060 10301 net.cpp:425] inception_5a/3x3_reduce <- pool4/3x3_s2_pool4/3x3_s2_0_split_1
I0403 20:02:16.288084 10301 net.cpp:399] inception_5a/3x3_reduce -> inception_5a/3x3_reduce
I0403 20:02:16.291139 10301 net.cpp:141] Setting up inception_5a/3x3_reduce
I0403 20:02:16.291177 10301 net.cpp:148] Top shape: 24 160 7 7 (188160)
I0403 20:02:16.291198 10301 net.cpp:156] Memory required for data: 1295286816
I0403 20:02:16.291221 10301 layer_factory.hpp:77] Creating layer inception_5a/relu_3x3_reduce
I0403 20:02:16.291254 10301 net.cpp:91] Creating Layer inception_5a/relu_3x3_reduce
I0403 20:02:16.291277 10301 net.cpp:425] inception_5a/relu_3x3_reduce <- inception_5a/3x3_reduce
I0403 20:02:16.291299 10301 net.cpp:386] inception_5a/relu_3x3_reduce -> inception_5a/3x3_reduce (in-place)
I0403 20:02:16.291532 10301 net.cpp:141] Setting up inception_5a/relu_3x3_reduce
I0403 20:02:16.291563 10301 net.cpp:148] Top shape: 24 160 7 7 (188160)
I0403 20:02:16.291582 10301 net.cpp:156] Memory required for data: 1296039456
I0403 20:02:16.291601 10301 layer_factory.hpp:77] Creating layer inception_5a/3x3
I0403 20:02:16.291632 10301 net.cpp:91] Creating Layer inception_5a/3x3
I0403 20:02:16.291656 10301 net.cpp:425] inception_5a/3x3 <- inception_5a/3x3_reduce
I0403 20:02:16.291678 10301 net.cpp:399] inception_5a/3x3 -> inception_5a/3x3
I0403 20:02:16.297982 10301 net.cpp:141] Setting up inception_5a/3x3
I0403 20:02:16.298022 10301 net.cpp:148] Top shape: 24 320 7 7 (376320)
I0403 20:02:16.298043 10301 net.cpp:156] Memory required for data: 1297544736
I0403 20:02:16.298065 10301 layer_factory.hpp:77] Creating layer inception_5a/relu_3x3
I0403 20:02:16.298087 10301 net.cpp:91] Creating Layer inception_5a/relu_3x3
I0403 20:02:16.298107 10301 net.cpp:425] inception_5a/relu_3x3 <- inception_5a/3x3
I0403 20:02:16.298128 10301 net.cpp:386] inception_5a/relu_3x3 -> inception_5a/3x3 (in-place)
I0403 20:02:16.298492 10301 net.cpp:141] Setting up inception_5a/relu_3x3
I0403 20:02:16.298528 10301 net.cpp:148] Top shape: 24 320 7 7 (376320)
I0403 20:02:16.298547 10301 net.cpp:156] Memory required for data: 1299050016
I0403 20:02:16.298565 10301 layer_factory.hpp:77] Creating layer inception_5a/5x5_reduce
I0403 20:02:16.298591 10301 net.cpp:91] Creating Layer inception_5a/5x5_reduce
I0403 20:02:16.298612 10301 net.cpp:425] inception_5a/5x5_reduce <- pool4/3x3_s2_pool4/3x3_s2_0_split_2
I0403 20:02:16.298640 10301 net.cpp:399] inception_5a/5x5_reduce -> inception_5a/5x5_reduce
I0403 20:02:16.300093 10301 net.cpp:141] Setting up inception_5a/5x5_reduce
I0403 20:02:16.300132 10301 net.cpp:148] Top shape: 24 32 7 7 (37632)
I0403 20:02:16.300151 10301 net.cpp:156] Memory required for data: 1299200544
I0403 20:02:16.300174 10301 layer_factory.hpp:77] Creating layer inception_5a/relu_5x5_reduce
I0403 20:02:16.300196 10301 net.cpp:91] Creating Layer inception_5a/relu_5x5_reduce
I0403 20:02:16.300216 10301 net.cpp:425] inception_5a/relu_5x5_reduce <- inception_5a/5x5_reduce
I0403 20:02:16.300246 10301 net.cpp:386] inception_5a/relu_5x5_reduce -> inception_5a/5x5_reduce (in-place)
I0403 20:02:16.300611 10301 net.cpp:141] Setting up inception_5a/relu_5x5_reduce
I0403 20:02:16.300644 10301 net.cpp:148] Top shape: 24 32 7 7 (37632)
I0403 20:02:16.300664 10301 net.cpp:156] Memory required for data: 1299351072
I0403 20:02:16.300683 10301 layer_factory.hpp:77] Creating layer inception_5a/5x5
I0403 20:02:16.300711 10301 net.cpp:91] Creating Layer inception_5a/5x5
I0403 20:02:16.300734 10301 net.cpp:425] inception_5a/5x5 <- inception_5a/5x5_reduce
I0403 20:02:16.300756 10301 net.cpp:399] inception_5a/5x5 -> inception_5a/5x5
I0403 20:02:16.302901 10301 net.cpp:141] Setting up inception_5a/5x5
I0403 20:02:16.302949 10301 net.cpp:148] Top shape: 24 128 7 7 (150528)
I0403 20:02:16.302973 10301 net.cpp:156] Memory required for data: 1299953184
I0403 20:02:16.302995 10301 layer_factory.hpp:77] Creating layer inception_5a/relu_5x5
I0403 20:02:16.303019 10301 net.cpp:91] Creating Layer inception_5a/relu_5x5
I0403 20:02:16.303038 10301 net.cpp:425] inception_5a/relu_5x5 <- inception_5a/5x5
I0403 20:02:16.303058 10301 net.cpp:386] inception_5a/relu_5x5 -> inception_5a/5x5 (in-place)
I0403 20:02:16.303308 10301 net.cpp:141] Setting up inception_5a/relu_5x5
I0403 20:02:16.303342 10301 net.cpp:148] Top shape: 24 128 7 7 (150528)
I0403 20:02:16.303361 10301 net.cpp:156] Memory required for data: 1300555296
I0403 20:02:16.303380 10301 layer_factory.hpp:77] Creating layer inception_5a/pool
I0403 20:02:16.303401 10301 net.cpp:91] Creating Layer inception_5a/pool
I0403 20:02:16.303421 10301 net.cpp:425] inception_5a/pool <- pool4/3x3_s2_pool4/3x3_s2_0_split_3
I0403 20:02:16.303445 10301 net.cpp:399] inception_5a/pool -> inception_5a/pool
I0403 20:02:16.303532 10301 net.cpp:141] Setting up inception_5a/pool
I0403 20:02:16.303565 10301 net.cpp:148] Top shape: 24 832 7 7 (978432)
I0403 20:02:16.303582 10301 net.cpp:156] Memory required for data: 1304469024
I0403 20:02:16.303601 10301 layer_factory.hpp:77] Creating layer inception_5a/pool_proj
I0403 20:02:16.303625 10301 net.cpp:91] Creating Layer inception_5a/pool_proj
I0403 20:02:16.303645 10301 net.cpp:425] inception_5a/pool_proj <- inception_5a/pool
I0403 20:02:16.303670 10301 net.cpp:399] inception_5a/pool_proj -> inception_5a/pool_proj
I0403 20:02:16.306478 10301 net.cpp:141] Setting up inception_5a/pool_proj
I0403 20:02:16.306514 10301 net.cpp:148] Top shape: 24 128 7 7 (150528)
I0403 20:02:16.306534 10301 net.cpp:156] Memory required for data: 1305071136
I0403 20:02:16.306556 10301 layer_factory.hpp:77] Creating layer inception_5a/relu_pool_proj
I0403 20:02:16.306581 10301 net.cpp:91] Creating Layer inception_5a/relu_pool_proj
I0403 20:02:16.306602 10301 net.cpp:425] inception_5a/relu_pool_proj <- inception_5a/pool_proj
I0403 20:02:16.306622 10301 net.cpp:386] inception_5a/relu_pool_proj -> inception_5a/pool_proj (in-place)
I0403 20:02:16.306987 10301 net.cpp:141] Setting up inception_5a/relu_pool_proj
I0403 20:02:16.307019 10301 net.cpp:148] Top shape: 24 128 7 7 (150528)
I0403 20:02:16.307039 10301 net.cpp:156] Memory required for data: 1305673248
I0403 20:02:16.307056 10301 layer_factory.hpp:77] Creating layer inception_5a/output
I0403 20:02:16.307080 10301 net.cpp:91] Creating Layer inception_5a/output
I0403 20:02:16.307101 10301 net.cpp:425] inception_5a/output <- inception_5a/1x1
I0403 20:02:16.307121 10301 net.cpp:425] inception_5a/output <- inception_5a/3x3
I0403 20:02:16.307140 10301 net.cpp:425] inception_5a/output <- inception_5a/5x5
I0403 20:02:16.307160 10301 net.cpp:425] inception_5a/output <- inception_5a/pool_proj
I0403 20:02:16.307180 10301 net.cpp:399] inception_5a/output -> inception_5a/output
I0403 20:02:16.307248 10301 net.cpp:141] Setting up inception_5a/output
I0403 20:02:16.307278 10301 net.cpp:148] Top shape: 24 832 7 7 (978432)
I0403 20:02:16.307296 10301 net.cpp:156] Memory required for data: 1309586976
I0403 20:02:16.307314 10301 layer_factory.hpp:77] Creating layer inception_5a/output_inception_5a/output_0_split
I0403 20:02:16.307334 10301 net.cpp:91] Creating Layer inception_5a/output_inception_5a/output_0_split
I0403 20:02:16.307353 10301 net.cpp:425] inception_5a/output_inception_5a/output_0_split <- inception_5a/output
I0403 20:02:16.307377 10301 net.cpp:399] inception_5a/output_inception_5a/output_0_split -> inception_5a/output_inception_5a/output_0_split_0
I0403 20:02:16.307404 10301 net.cpp:399] inception_5a/output_inception_5a/output_0_split -> inception_5a/output_inception_5a/output_0_split_1
I0403 20:02:16.307430 10301 net.cpp:399] inception_5a/output_inception_5a/output_0_split -> inception_5a/output_inception_5a/output_0_split_2
I0403 20:02:16.307454 10301 net.cpp:399] inception_5a/output_inception_5a/output_0_split -> inception_5a/output_inception_5a/output_0_split_3
I0403 20:02:16.307595 10301 net.cpp:141] Setting up inception_5a/output_inception_5a/output_0_split
I0403 20:02:16.307626 10301 net.cpp:148] Top shape: 24 832 7 7 (978432)
I0403 20:02:16.307646 10301 net.cpp:148] Top shape: 24 832 7 7 (978432)
I0403 20:02:16.307667 10301 net.cpp:148] Top shape: 24 832 7 7 (978432)
I0403 20:02:16.307685 10301 net.cpp:148] Top shape: 24 832 7 7 (978432)
I0403 20:02:16.307703 10301 net.cpp:156] Memory required for data: 1325241888
I0403 20:02:16.307720 10301 layer_factory.hpp:77] Creating layer inception_5b/1x1
I0403 20:02:16.307749 10301 net.cpp:91] Creating Layer inception_5b/1x1
I0403 20:02:16.307770 10301 net.cpp:425] inception_5b/1x1 <- inception_5a/output_inception_5a/output_0_split_0
I0403 20:02:16.307792 10301 net.cpp:399] inception_5b/1x1 -> inception_5b/1x1
I0403 20:02:16.312443 10301 net.cpp:141] Setting up inception_5b/1x1
I0403 20:02:16.312479 10301 net.cpp:148] Top shape: 24 384 7 7 (451584)
I0403 20:02:16.312497 10301 net.cpp:156] Memory required for data: 1327048224
I0403 20:02:16.312522 10301 layer_factory.hpp:77] Creating layer inception_5b/relu_1x1
I0403 20:02:16.312548 10301 net.cpp:91] Creating Layer inception_5b/relu_1x1
I0403 20:02:16.312569 10301 net.cpp:425] inception_5b/relu_1x1 <- inception_5b/1x1
I0403 20:02:16.312592 10301 net.cpp:386] inception_5b/relu_1x1 -> inception_5b/1x1 (in-place)
I0403 20:02:16.312963 10301 net.cpp:141] Setting up inception_5b/relu_1x1
I0403 20:02:16.312995 10301 net.cpp:148] Top shape: 24 384 7 7 (451584)
I0403 20:02:16.313014 10301 net.cpp:156] Memory required for data: 1328854560
I0403 20:02:16.313033 10301 layer_factory.hpp:77] Creating layer inception_5b/3x3_reduce
I0403 20:02:16.313061 10301 net.cpp:91] Creating Layer inception_5b/3x3_reduce
I0403 20:02:16.313083 10301 net.cpp:425] inception_5b/3x3_reduce <- inception_5a/output_inception_5a/output_0_split_1
I0403 20:02:16.313109 10301 net.cpp:399] inception_5b/3x3_reduce -> inception_5b/3x3_reduce
I0403 20:02:16.316433 10301 net.cpp:141] Setting up inception_5b/3x3_reduce
I0403 20:02:16.316469 10301 net.cpp:148] Top shape: 24 192 7 7 (225792)
I0403 20:02:16.316489 10301 net.cpp:156] Memory required for data: 1329757728
I0403 20:02:16.316512 10301 layer_factory.hpp:77] Creating layer inception_5b/relu_3x3_reduce
I0403 20:02:16.316539 10301 net.cpp:91] Creating Layer inception_5b/relu_3x3_reduce
I0403 20:02:16.316560 10301 net.cpp:425] inception_5b/relu_3x3_reduce <- inception_5b/3x3_reduce
I0403 20:02:16.316581 10301 net.cpp:386] inception_5b/relu_3x3_reduce -> inception_5b/3x3_reduce (in-place)
I0403 20:02:16.316824 10301 net.cpp:141] Setting up inception_5b/relu_3x3_reduce
I0403 20:02:16.316859 10301 net.cpp:148] Top shape: 24 192 7 7 (225792)
I0403 20:02:16.316876 10301 net.cpp:156] Memory required for data: 1330660896
I0403 20:02:16.316895 10301 layer_factory.hpp:77] Creating layer inception_5b/3x3
I0403 20:02:16.316922 10301 net.cpp:91] Creating Layer inception_5b/3x3
I0403 20:02:16.316943 10301 net.cpp:425] inception_5b/3x3 <- inception_5b/3x3_reduce
I0403 20:02:16.316968 10301 net.cpp:399] inception_5b/3x3 -> inception_5b/3x3
I0403 20:02:16.325423 10301 net.cpp:141] Setting up inception_5b/3x3
I0403 20:02:16.325461 10301 net.cpp:148] Top shape: 24 384 7 7 (451584)
I0403 20:02:16.325481 10301 net.cpp:156] Memory required for data: 1332467232
I0403 20:02:16.325505 10301 layer_factory.hpp:77] Creating layer inception_5b/relu_3x3
I0403 20:02:16.325530 10301 net.cpp:91] Creating Layer inception_5b/relu_3x3
I0403 20:02:16.325551 10301 net.cpp:425] inception_5b/relu_3x3 <- inception_5b/3x3
I0403 20:02:16.325573 10301 net.cpp:386] inception_5b/relu_3x3 -> inception_5b/3x3 (in-place)
I0403 20:02:16.325943 10301 net.cpp:141] Setting up inception_5b/relu_3x3
I0403 20:02:16.325976 10301 net.cpp:148] Top shape: 24 384 7 7 (451584)
I0403 20:02:16.325995 10301 net.cpp:156] Memory required for data: 1334273568
I0403 20:02:16.326014 10301 layer_factory.hpp:77] Creating layer inception_5b/5x5_reduce
I0403 20:02:16.326062 10301 net.cpp:91] Creating Layer inception_5b/5x5_reduce
I0403 20:02:16.326086 10301 net.cpp:425] inception_5b/5x5_reduce <- inception_5a/output_inception_5a/output_0_split_2
I0403 20:02:16.326118 10301 net.cpp:399] inception_5b/5x5_reduce -> inception_5b/5x5_reduce
I0403 20:02:16.327728 10301 net.cpp:141] Setting up inception_5b/5x5_reduce
I0403 20:02:16.327761 10301 net.cpp:148] Top shape: 24 48 7 7 (56448)
I0403 20:02:16.327780 10301 net.cpp:156] Memory required for data: 1334499360
I0403 20:02:16.327803 10301 layer_factory.hpp:77] Creating layer inception_5b/relu_5x5_reduce
I0403 20:02:16.327829 10301 net.cpp:91] Creating Layer inception_5b/relu_5x5_reduce
I0403 20:02:16.327850 10301 net.cpp:425] inception_5b/relu_5x5_reduce <- inception_5b/5x5_reduce
I0403 20:02:16.327872 10301 net.cpp:386] inception_5b/relu_5x5_reduce -> inception_5b/5x5_reduce (in-place)
I0403 20:02:16.328343 10301 net.cpp:141] Setting up inception_5b/relu_5x5_reduce
I0403 20:02:16.328377 10301 net.cpp:148] Top shape: 24 48 7 7 (56448)
I0403 20:02:16.328395 10301 net.cpp:156] Memory required for data: 1334725152
I0403 20:02:16.328414 10301 layer_factory.hpp:77] Creating layer inception_5b/5x5
I0403 20:02:16.328439 10301 net.cpp:91] Creating Layer inception_5b/5x5
I0403 20:02:16.328460 10301 net.cpp:425] inception_5b/5x5 <- inception_5b/5x5_reduce
I0403 20:02:16.328485 10301 net.cpp:399] inception_5b/5x5 -> inception_5b/5x5
I0403 20:02:16.331034 10301 net.cpp:141] Setting up inception_5b/5x5
I0403 20:02:16.331068 10301 net.cpp:148] Top shape: 24 128 7 7 (150528)
I0403 20:02:16.331089 10301 net.cpp:156] Memory required for data: 1335327264
I0403 20:02:16.331111 10301 layer_factory.hpp:77] Creating layer inception_5b/relu_5x5
I0403 20:02:16.331137 10301 net.cpp:91] Creating Layer inception_5b/relu_5x5
I0403 20:02:16.331157 10301 net.cpp:425] inception_5b/relu_5x5 <- inception_5b/5x5
I0403 20:02:16.331181 10301 net.cpp:386] inception_5b/relu_5x5 -> inception_5b/5x5 (in-place)
I0403 20:02:16.331434 10301 net.cpp:141] Setting up inception_5b/relu_5x5
I0403 20:02:16.331465 10301 net.cpp:148] Top shape: 24 128 7 7 (150528)
I0403 20:02:16.331483 10301 net.cpp:156] Memory required for data: 1335929376
I0403 20:02:16.331502 10301 layer_factory.hpp:77] Creating layer inception_5b/pool
I0403 20:02:16.331526 10301 net.cpp:91] Creating Layer inception_5b/pool
I0403 20:02:16.331545 10301 net.cpp:425] inception_5b/pool <- inception_5a/output_inception_5a/output_0_split_3
I0403 20:02:16.331570 10301 net.cpp:399] inception_5b/pool -> inception_5b/pool
I0403 20:02:16.331662 10301 net.cpp:141] Setting up inception_5b/pool
I0403 20:02:16.331692 10301 net.cpp:148] Top shape: 24 832 7 7 (978432)
I0403 20:02:16.331709 10301 net.cpp:156] Memory required for data: 1339843104
I0403 20:02:16.331728 10301 layer_factory.hpp:77] Creating layer inception_5b/pool_proj
I0403 20:02:16.331758 10301 net.cpp:91] Creating Layer inception_5b/pool_proj
I0403 20:02:16.331780 10301 net.cpp:425] inception_5b/pool_proj <- inception_5b/pool
I0403 20:02:16.331804 10301 net.cpp:399] inception_5b/pool_proj -> inception_5b/pool_proj
I0403 20:02:16.334687 10301 net.cpp:141] Setting up inception_5b/pool_proj
I0403 20:02:16.334724 10301 net.cpp:148] Top shape: 24 128 7 7 (150528)
I0403 20:02:16.334744 10301 net.cpp:156] Memory required for data: 1340445216
I0403 20:02:16.334766 10301 layer_factory.hpp:77] Creating layer inception_5b/relu_pool_proj
I0403 20:02:16.334794 10301 net.cpp:91] Creating Layer inception_5b/relu_pool_proj
I0403 20:02:16.334815 10301 net.cpp:425] inception_5b/relu_pool_proj <- inception_5b/pool_proj
I0403 20:02:16.334836 10301 net.cpp:386] inception_5b/relu_pool_proj -> inception_5b/pool_proj (in-place)
I0403 20:02:16.335206 10301 net.cpp:141] Setting up inception_5b/relu_pool_proj
I0403 20:02:16.335245 10301 net.cpp:148] Top shape: 24 128 7 7 (150528)
I0403 20:02:16.335265 10301 net.cpp:156] Memory required for data: 1341047328
I0403 20:02:16.335285 10301 layer_factory.hpp:77] Creating layer inception_5b/output
I0403 20:02:16.335309 10301 net.cpp:91] Creating Layer inception_5b/output
I0403 20:02:16.335346 10301 net.cpp:425] inception_5b/output <- inception_5b/1x1
I0403 20:02:16.335371 10301 net.cpp:425] inception_5b/output <- inception_5b/3x3
I0403 20:02:16.335391 10301 net.cpp:425] inception_5b/output <- inception_5b/5x5
I0403 20:02:16.335410 10301 net.cpp:425] inception_5b/output <- inception_5b/pool_proj
I0403 20:02:16.335430 10301 net.cpp:399] inception_5b/output -> inception_5b/output
I0403 20:02:16.335496 10301 net.cpp:141] Setting up inception_5b/output
I0403 20:02:16.335525 10301 net.cpp:148] Top shape: 24 1024 7 7 (1204224)
I0403 20:02:16.335544 10301 net.cpp:156] Memory required for data: 1345864224
I0403 20:02:16.335563 10301 layer_factory.hpp:77] Creating layer pool5/7x7_s1
I0403 20:02:16.335585 10301 net.cpp:91] Creating Layer pool5/7x7_s1
I0403 20:02:16.335605 10301 net.cpp:425] pool5/7x7_s1 <- inception_5b/output
I0403 20:02:16.335631 10301 net.cpp:399] pool5/7x7_s1 -> pool5/7x7_s1
I0403 20:02:16.335906 10301 net.cpp:141] Setting up pool5/7x7_s1
I0403 20:02:16.335940 10301 net.cpp:148] Top shape: 24 1024 1 1 (24576)
I0403 20:02:16.335959 10301 net.cpp:156] Memory required for data: 1345962528
I0403 20:02:16.335978 10301 layer_factory.hpp:77] Creating layer pool5/drop_7x7_s1
I0403 20:02:16.336000 10301 net.cpp:91] Creating Layer pool5/drop_7x7_s1
I0403 20:02:16.336019 10301 net.cpp:425] pool5/drop_7x7_s1 <- pool5/7x7_s1
I0403 20:02:16.336041 10301 net.cpp:386] pool5/drop_7x7_s1 -> pool5/7x7_s1 (in-place)
I0403 20:02:16.336105 10301 net.cpp:141] Setting up pool5/drop_7x7_s1
I0403 20:02:16.336134 10301 net.cpp:148] Top shape: 24 1024 1 1 (24576)
I0403 20:02:16.336153 10301 net.cpp:156] Memory required for data: 1346060832
I0403 20:02:16.336169 10301 layer_factory.hpp:77] Creating layer loss3/classifier_plantvillage
I0403 20:02:16.336195 10301 net.cpp:91] Creating Layer loss3/classifier_plantvillage
I0403 20:02:16.336216 10301 net.cpp:425] loss3/classifier_plantvillage <- pool5/7x7_s1
I0403 20:02:16.336244 10301 net.cpp:399] loss3/classifier_plantvillage -> loss3/classifier_plantvillage
I0403 20:02:16.336774 10301 net.cpp:141] Setting up loss3/classifier_plantvillage
I0403 20:02:16.336805 10301 net.cpp:148] Top shape: 24 38 (912)
I0403 20:02:16.336822 10301 net.cpp:156] Memory required for data: 1346064480
I0403 20:02:16.336846 10301 layer_factory.hpp:77] Creating layer loss3/classifier_plantvillage_loss3/classifier_plantvillage_0_split
I0403 20:02:16.336869 10301 net.cpp:91] Creating Layer loss3/classifier_plantvillage_loss3/classifier_plantvillage_0_split
I0403 20:02:16.336890 10301 net.cpp:425] loss3/classifier_plantvillage_loss3/classifier_plantvillage_0_split <- loss3/classifier_plantvillage
I0403 20:02:16.336915 10301 net.cpp:399] loss3/classifier_plantvillage_loss3/classifier_plantvillage_0_split -> loss3/classifier_plantvillage_loss3/classifier_plantvillage_0_split_0
I0403 20:02:16.336944 10301 net.cpp:399] loss3/classifier_plantvillage_loss3/classifier_plantvillage_0_split -> loss3/classifier_plantvillage_loss3/classifier_plantvillage_0_split_1
I0403 20:02:16.336969 10301 net.cpp:399] loss3/classifier_plantvillage_loss3/classifier_plantvillage_0_split -> loss3/classifier_plantvillage_loss3/classifier_plantvillage_0_split_2
I0403 20:02:16.336993 10301 net.cpp:399] loss3/classifier_plantvillage_loss3/classifier_plantvillage_0_split -> loss3/classifier_plantvillage_loss3/classifier_plantvillage_0_split_3
I0403 20:02:16.337124 10301 net.cpp:141] Setting up loss3/classifier_plantvillage_loss3/classifier_plantvillage_0_split
I0403 20:02:16.337155 10301 net.cpp:148] Top shape: 24 38 (912)
I0403 20:02:16.337177 10301 net.cpp:148] Top shape: 24 38 (912)
I0403 20:02:16.337198 10301 net.cpp:148] Top shape: 24 38 (912)
I0403 20:02:16.337218 10301 net.cpp:148] Top shape: 24 38 (912)
I0403 20:02:16.337235 10301 net.cpp:156] Memory required for data: 1346079072
I0403 20:02:16.337260 10301 layer_factory.hpp:77] Creating layer loss1/loss
I0403 20:02:16.337288 10301 net.cpp:91] Creating Layer loss1/loss
I0403 20:02:16.337311 10301 net.cpp:425] loss1/loss <- loss1/classifier_plantvillage_loss1/classifier_plantvillage_0_split_0
I0403 20:02:16.337348 10301 net.cpp:425] loss1/loss <- label_data_1_split_0
…
