…
I0403 19:23:38.754478  9183 net.cpp:313] The NetState phase (1) differed from the phase (0) specified by a rule in layer data
I0403 19:23:38.755652  9183 net.cpp:49] Initializing net from parameters: 
state {
  phase: TEST
}
layer {
  name: "data"
  type: "Data"
  top: "data"
  top: "label"
  include {
    phase: TEST
  }
  transform_param {
    mirror: false
    crop_size: 224
    mean_file: "/home/mohanty/data/final_dataset/lmdb/color-50-50/mean.binaryproto"
  }
  data_param {
    source: "/home/mohanty/data/final_dataset/lmdb/color-50-50/test_db"
    batch_size: 24
    backend: LMDB
  }
}
layer {
  name: "conv1/7x7_s2"
  type: "Convolution"
  bottom: "data"
  top: "conv1/7x7_s2"
  param {
    lr_mult: 1
    decay_mult: 1
  }
  param {
    lr_mult: 2
    decay_mult: 0
  }
  convolution_param {
    num_output: 64
    pad: 3
    kernel_size: 7
    stride: 2
    weight_filler {
      type: "xavier"
      std: 0.1
    }
    bias_filler {
      type: "constant"
      value: 0.2
    }
  }
}
layer {
  name: "conv1/relu_7x7"
  type: "ReLU"
  bottom: "conv1/7x7_s2"
  top: "conv1/7x7_s2"
}
layer {
  name: "pool1/3x3_s2"
  type: "Pooling"
  bottom: "conv1/7x7_s2"
  top: "pool1/3x3_s2"
  pooling_param {
    pool: MAX
    kernel_size: 3
    stride: 2
  }
}
layer {
  name: "pool1/norm1"
  type: "LRN"
  bottom: "pool1/3x3_s2"
  top: "pool1/norm1"
  lrn_param {
    local_size: 5
    alpha: 0.0001
    beta: 0.75
  }
}
layer {
  name: "conv2/3x3_reduce"
  type: "Convolution"
  bottom: "pool1/norm1"
  top: "conv2/3x3_reduce"
  param {
    lr_mult: 1
    decay_mult: 1
  }
  param {
    lr_mult: 2
    decay_mult: 0
  }
  convolution_param {
    num_output: 64
    kernel_size: 1
    weight_filler {
      type: "xavier"
      std: 0.1
    }
    bias_filler {
      type: "constant"
      value: 0.2
    }
  }
}
layer {
  name: "conv2/relu_3x3_reduce"
  type: "ReLU"
  bottom: "conv2/3x3_reduce"
  top: "conv2/3x3_reduce"
}
layer {
  name: "conv2/3x3"
  type: "Convolution"
  bottom: "conv2/3x3_reduce"
  top: "conv2/3x3"
  param {
    lr_mult: 1
    decay_mult: 1
  }
  param {
    lr_mult: 2
    decay_mult: 0
  }
  convolution_param {
    num_output: 192
    pad: 1
    kernel_size: 3
    weight_filler {
      type: "xavier"
      std: 0.03
    }
    bias_filler {
      type: "constant"
      value: 0.2
    }
  }
}
layer {
  name: "conv2/relu_3x3"
  type: "ReLU"
  bottom: "conv2/3x3"
  top: "conv2/3x3"
}
layer {
  name: "conv2/norm2"
  type: "LRN"
  bottom: "conv2/3x3"
  top: "conv2/norm2"
  lrn_param {
    local_size: 5
    alpha: 0.0001
    beta: 0.75
  }
}
layer {
  name: "pool2/3x3_s2"
  type: "Pooling"
  bottom: "conv2/norm2"
  top: "pool2/3x3_s2"
  pooling_param {
    pool: MAX
    kernel_size: 3
    stride: 2
  }
}
layer {
  name: "inception_3a/1x1"
  type: "Convolution"
  bottom: "pool2/3x3_s2"
  top: "inception_3a/1x1"
  param {
    lr_mult: 1
    decay_mult: 1
  }
  param {
    lr_mult: 2
    decay_mult: 0
  }
  convolution_param {
    num_output: 64
    kernel_size: 1
    weight_filler {
      type: "xavier"
      std: 0.03
    }
    bias_filler {
      type: "constant"
      value: 0.2
    }
  }
}
layer {
  name: "inception_3a/relu_1x1"
  type: "ReLU"
  bottom: "inception_3a/1x1"
  top: "inception_3a/1x1"
}
layer {
  name: "inception_3a/3x3_reduce"
  type: "Convolution"
  bottom: "pool2/3x3_s2"
  top: "inception_3a/3x3_reduce"
  param {
    lr_mult: 1
    decay_mult: 1
  }
  param {
    lr_mult: 2
    decay_mult: 0
  }
  convolution_param {
    num_output: 96
    kernel_size: 1
    weight_filler {
      type: "xavier"
      std: 0.09
    }
    bias_filler {
      type: "constant"
      value: 0.2
    }
  }
}
layer {
  name: "inception_3a/relu_3x3_reduce"
  type: "ReLU"
  bottom: "inception_3a/3x3_reduce"
  top: "inception_3a/3x3_reduce"
}
layer {
  name: "inception_3a/3x3"
  type: "Convolution"
  bottom: "inception_3a/3x3_reduce"
  top: "inception_3a/3x3"
  param {
    lr_mult: 1
    decay_mult: 1
  }
  param {
    lr_mult: 2
    decay_mult: 0
  }
  convolution_param {
    num_output: 128
    pad: 1
    kernel_size: 3
    weight_filler {
      type: "xavier"
      std: 0.03
    }
    bias_filler {
      type: "constant"
      value: 0.2
    }
  }
}
layer {
  name: "inception_3a/relu_3x3"
  type: "ReLU"
  bottom: "inception_3a/3x3"
  top: "inception_3a/3x3"
}
layer {
  name: "inception_3a/5x5_reduce"
  type: "Convolution"
  bottom: "pool2/3x3_s2"
  top: "inception_3a/5x5_reduce"
  param {
    lr_mult: 1
    decay_mult: 1
  }
  param {
    lr_mult: 2
    decay_mult: 0
  }
  convolution_param {
    num_output: 16
    kernel_size: 1
    weight_filler {
      type: "xavier"
      std: 0.2
    }
    bias_filler {
      type: "constant"
      value: 0.2
    }
  }
}
layer {
  name: "inception_3a/relu_5x5_reduce"
  type: "ReLU"
  bottom: "inception_3a/5x5_reduce"
  top: "inception_3a/5x5_reduce"
}
layer {
  name: "inception_3a/5x5"
  type: "Convolution"
  bottom: "inception_3a/5x5_reduce"
  top: "inception_3a/5x5"
  param {
    lr_mult: 1
    decay_mult: 1
  }
  param {
    lr_mult: 2
    decay_mult: 0
  }
  convolution_param {
    num_output: 32
    pad: 2
    kernel_size: 5
    weight_filler {
      type: "xavier"
      std: 0.03
    }
    bias_filler {
      type: "constant"
      value: 0.2
    }
  }
}
layer {
  name: "inception_3a/relu_5x5"
  type: "ReLU"
  bottom: "inception_3a/5x5"
  top: "inception_3a/5x5"
}
layer {
  name: "inception_3a/pool"
  type: "Pooling"
  bottom: "pool2/3x3_s2"
  top: "inception_3a/pool"
  pooling_param {
    pool: MAX
    kernel_size: 3
    stride: 1
    pad: 1
  }
}
layer {
  name: "inception_3a/pool_proj"
  type: "Convolution"
  bottom: "inception_3a/pool"
  top: "inception_3a/pool_proj"
  param {
    lr_mult: 1
    decay_mult: 1
  }
  param {
    lr_mult: 2
    decay_mult: 0
  }
  convolution_param {
    num_output: 32
    kernel_size: 1
    weight_filler {
      type: "xavier"
      std: 0.1
    }
    bias_filler {
      type: "constant"
      value: 0.2
    }
  }
}
layer {
  name: "inception_3a/relu_pool_proj"
  type: "ReLU"
  bottom: "inception_3a/pool_proj"
  top: "inception_3a/pool_proj"
}
layer {
  name: "inception_3a/output"
  type: "Concat"
  bottom: "inception_3a/1x1"
  bottom: "inception_3a/3x3"
  bottom: "inception_3a/5x5"
  bottom: "inception_3a/pool_proj"
  top: "inception_3a/output"
}
layer {
  name: "inception_3b/1x1"
  type: "Convolution"
  bottom: "inception_3a/output"
  top: "inception_3b/1x1"
  param {
    lr_mult: 1
    decay_mult: 1
  }
  param {
    lr_mult: 2
    decay_mult: 0
  }
  convolution_param {
    num_output: 128
    kernel_size: 1
    weight_filler {
      type: "xavier"
      std: 0.03
    }
    bias_filler {
      type: "constant"
      value: 0.2
    }
  }
}
layer {
  name: "inception_3b/relu_1x1"
  type: "ReLU"
  bottom: "inception_3b/1x1"
  top: "inception_3b/1x1"
}
layer {
  name: "inception_3b/3x3_reduce"
  type: "Convolution"
  bottom: "inception_3a/output"
  top: "inception_3b/3x3_reduce"
  param {
    lr_mult: 1
    decay_mult: 1
  }
  param {
    lr_mult: 2
    decay_mult: 0
  }
  convolution_param {
    num_output: 128
    kernel_size: 1
    weight_filler {
      type: "xavier"
      std: 0.09
    }
    bias_filler {
      type: "constant"
      value: 0.2
    }
  }
}
layer {
  name: "inception_3b/relu_3x3_reduce"
  type: "ReLU"
  bottom: "inception_3b/3x3_reduce"
  top: "inception_3b/3x3_reduce"
}
layer {
  name: "inception_3b/3x3"
  type: "Convolution"
  bottom: "inception_3b/3x3_reduce"
  top: "inception_3b/3x3"
  param {
    lr_mult: 1
    decay_mult: 1
  }
  param {
    lr_mult: 2
    decay_mult: 0
  }
  convolution_param {
    num_output: 192
    pad: 1
    kernel_size: 3
    weight_filler {
      type: "xavier"
      std: 0.03
    }
    bias_filler {
      type: "constant"
      value: 0.2
    }
  }
}
layer {
  name: "inception_3b/relu_3x3"
  type: "ReLU"
  bottom: "inception_3b/3x3"
  top: "inception_3b/3x3"
}
layer {
  name: "inception_3b/5x5_reduce"
  type: "Convolution"
  bottom: "inception_3a/output"
  top: "inception_3b/5x5_reduce"
  param {
    lr_mult: 1
    decay_mult: 1
  }
  param {
    lr_mult: 2
    decay_mult: 0
  }
  convolution_param {
    num_output: 32
    kernel_size: 1
    weight_filler {
      type: "xavier"
      std: 0.2
    }
    bias_filler {
      type: "constant"
      value: 0.2
    }
  }
}
layer {
  name: "inception_3b/relu_5x5_reduce"
  type: "ReLU"
  bottom: "inception_3b/5x5_reduce"
  top: "inception_3b/5x5_reduce"
}
layer {
  name: "inception_3b/5x5"
  type: "Convolution"
  bottom: "inception_3b/5x5_reduce"
  top: "inception_3b/5x5"
  param {
    lr_mult: 1
    decay_mult: 1
  }
  param {
    lr_mult: 2
    decay_mult: 0
  }
  convolution_param {
    num_output: 96
    pad: 2
    kernel_size: 5
    weight_filler {
      type: "xavier"
      std: 0.03
    }
    bias_filler {
      type: "constant"
      value: 0.2
    }
  }
}
layer {
  name: "inception_3b/relu_5x5"
  type: "ReLU"
  bottom: "inception_3b/5x5"
  top: "inception_3b/5x5"
}
layer {
  name: "inception_3b/pool"
  type: "Pooling"
  bottom: "inception_3a/output"
  top: "inception_3b/pool"
  pooling_param {
    pool: MAX
    kernel_size: 3
    stride: 1
    pad: 1
  }
}
layer {
  name: "inception_3b/pool_proj"
  type: "Convolution"
  bottom: "inception_3b/pool"
  top: "inception_3b/pool_proj"
  param {
    lr_mult: 1
    decay_mult: 1
  }
  param {
    lr_mult: 2
    decay_mult: 0
  }
  convolution_param {
    num_output: 64
    kernel_size: 1
    weight_filler {
      type: "xavier"
      std: 0.1
    }
    bias_filler {
      type: "constant"
      value: 0.2
    }
  }
}
layer {
  name: "inception_3b/relu_pool_proj"
  type: "ReLU"
  bottom: "inception_3b/pool_proj"
  top: "inception_3b/pool_proj"
}
layer {
  name: "inception_3b/output"
  type: "Concat"
  bottom: "inception_3b/1x1"
  bottom: "inception_3b/3x3"
  bottom: "inception_3b/5x5"
  bottom: "inception_3b/pool_proj"
  top: "inception_3b/output"
}
layer {
  name: "pool3/3x3_s2"
  type: "Pooling"
  bottom: "inception_3b/output"
  top: "pool3/3x3_s2"
  pooling_param {
    pool: MAX
    kernel_size: 3
    stride: 2
  }
}
layer {
  name: "inception_4a/1x1"
  type: "Convolution"
  bottom: "pool3/3x3_s2"
  top: "inception_4a/1x1"
  param {
    lr_mult: 1
    decay_mult: 1
  }
  param {
    lr_mult: 2
    decay_mult: 0
  }
  convolution_param {
    num_output: 192
    kernel_size: 1
    weight_filler {
      type: "xavier"
      std: 0.03
    }
    bias_filler {
      type: "constant"
      value: 0.2
    }
  }
}
layer {
  name: "inception_4a/relu_1x1"
  type: "ReLU"
  bottom: "inception_4a/1x1"
  top: "inception_4a/1x1"
}
layer {
  name: "inception_4a/3x3_reduce"
  type: "Convolution"
  bottom: "pool3/3x3_s2"
  top: "inception_4a/3x3_reduce"
  param {
    lr_mult: 1
    decay_mult: 1
  }
  param {
    lr_mult: 2
    decay_mult: 0
  }
  convolution_param {
    num_output: 96
    kernel_size: 1
    weight_filler {
      type: "xavier"
      std: 0.09
    }
    bias_filler {
      type: "constant"
      value: 0.2
    }
  }
}
layer {
  name: "inception_4a/relu_3x3_reduce"
  type: "ReLU"
  bottom: "inception_4a/3x3_reduce"
  top: "inception_4a/3x3_reduce"
}
layer {
  name: "inception_4a/3x3"
  type: "Convolution"
  bottom: "inception_4a/3x3_reduce"
  top: "inception_4a/3x3"
  param {
    lr_mult: 1
    decay_mult: 1
  }
  param {
    lr_mult: 2
    decay_mult: 0
  }
  convolution_param {
    num_output: 208
    pad: 1
    kernel_size: 3
    weight_filler {
      type: "xavier"
      std: 0.03
    }
    bias_filler {
      type: "constant"
      value: 0.2
    }
  }
}
layer {
  name: "inception_4a/relu_3x3"
  type: "ReLU"
  bottom: "inception_4a/3x3"
  top: "inception_4a/3x3"
}
layer {
  name: "inception_4a/5x5_reduce"
  type: "Convolution"
  bottom: "pool3/3x3_s2"
  top: "inception_4a/5x5_reduce"
  param {
    lr_mult: 1
    decay_mult: 1
  }
  param {
    lr_mult: 2
    decay_mult: 0
  }
  convolution_param {
    num_output: 16
    kernel_size: 1
    weight_filler {
      type: "xavier"
      std: 0.2
    }
    bias_filler {
      type: "constant"
      value: 0.2
    }
  }
}
layer {
  name: "inception_4a/relu_5x5_reduce"
  type: "ReLU"
  bottom: "inception_4a/5x5_reduce"
  top: "inception_4a/5x5_reduce"
}
layer {
  name: "inception_4a/5x5"
  type: "Convolution"
  bottom: "inception_4a/5x5_reduce"
  top: "inception_4a/5x5"
  param {
    lr_mult: 1
    decay_mult: 1
  }
  param {
    lr_mult: 2
    decay_mult: 0
  }
  convolution_param {
    num_output: 48
    pad: 2
    kernel_size: 5
    weight_filler {
      type: "xavier"
      std: 0.03
    }
    bias_filler {
      type: "constant"
      value: 0.2
    }
  }
}
layer {
  name: "inception_4a/relu_5x5"
  type: "ReLU"
  bottom: "inception_4a/5x5"
  top: "inception_4a/5x5"
}
layer {
  name: "inception_4a/pool"
  type: "Pooling"
  bottom: "pool3/3x3_s2"
  top: "inception_4a/pool"
  pooling_param {
    pool: MAX
    kernel_size: 3
    stride: 1
    pad: 1
  }
}
layer {
  name: "inception_4a/pool_proj"
  type: "Convolution"
  bottom: "inception_4a/pool"
  top: "inception_4a/pool_proj"
  param {
    lr_mult: 1
    decay_mult: 1
  }
  param {
    lr_mult: 2
    decay_mult: 0
  }
  convolution_param {
    num_output: 64
    kernel_size: 1
    weight_filler {
      type: "xavier"
      std: 0.1
    }
    bias_filler {
      type: "constant"
      value: 0.2
    }
  }
}
layer {
  name: "inception_4a/relu_pool_proj"
  type: "ReLU"
  bottom: "inception_4a/pool_proj"
  top: "inception_4a/pool_proj"
}
layer {
  name: "inception_4a/output"
  type: "Concat"
  bottom: "inception_4a/1x1"
  bottom: "inception_4a/3x3"
  bottom: "inception_4a/5x5"
  bottom: "inception_4a/pool_proj"
  top: "inception_4a/output"
}
layer {
  name: "loss1/ave_pool"
  type: "Pooling"
  bottom: "inception_4a/output"
  top: "loss1/ave_pool"
  pooling_param {
    pool: AVE
    kernel_size: 5
    stride: 3
  }
}
layer {
  name: "loss1/conv"
  type: "Convolution"
  bottom: "loss1/ave_pool"
  top: "loss1/conv"
  param {
    lr_mult: 1
    decay_mult: 1
  }
  param {
    lr_mult: 2
    decay_mult: 0
  }
  convolution_param {
    num_output: 128
    kernel_size: 1
    weight_filler {
      type: "xavier"
      std: 0.08
    }
    bias_filler {
      type: "constant"
      value: 0.2
    }
  }
}
layer {
  name: "loss1/relu_conv"
  type: "ReLU"
  bottom: "loss1/conv"
  top: "loss1/conv"
}
layer {
  name: "loss1/fc"
  type: "InnerProduct"
  bottom: "loss1/conv"
  top: "loss1/fc"
  param {
    lr_mult: 1
    decay_mult: 1
  }
  param {
    lr_mult: 2
    decay_mult: 0
  }
  inner_product_param {
    num_output: 1024
    weight_filler {
      type: "xavier"
      std: 0.02
    }
    bias_filler {
      type: "constant"
      value: 0.2
    }
  }
}
layer {
  name: "loss1/relu_fc"
  type: "ReLU"
  bottom: "loss1/fc"
  top: "loss1/fc"
}
layer {
  name: "loss1/drop_fc"
  type: "Dropout"
  bottom: "loss1/fc"
  top: "loss1/fc"
  dropout_param {
    dropout_ratio: 0.7
  }
}
layer {
  name: "loss1/classifier_plantvillage"
  type: "InnerProduct"
  bottom: "loss1/fc"
  top: "loss1/classifier_plantvillage"
  param {
    lr_mult: 1
    decay_mult: 1
  }
  param {
    lr_mult: 2
    decay_mult: 0
  }
  inner_product_param {
    num_output: 38
    weight_filler {
      type: "xavier"
      std: 0.0009765625
    }
    bias_filler {
      type: "constant"
      value: 0
    }
  }
}
layer {
  name: "inception_4b/1x1"
  type: "Convolution"
  bottom: "inception_4a/output"
  top: "inception_4b/1x1"
  param {
    lr_mult: 1
    decay_mult: 1
  }
  param {
    lr_mult: 2
    decay_mult: 0
  }
  convolution_param {
    num_output: 160
    kernel_size: 1
    weight_filler {
      type: "xavier"
      std: 0.03
    }
    bias_filler {
      type: "constant"
      value: 0.2
    }
  }
}
layer {
  name: "inception_4b/relu_1x1"
  type: "ReLU"
  bottom: "inception_4b/1x1"
  top: "inception_4b/1x1"
}
layer {
  name: "inception_4b/3x3_reduce"
  type: "Convolution"
  bottom: "inception_4a/output"
  top: "inception_4b/3x3_reduce"
  param {
    lr_mult: 1
    decay_mult: 1
  }
  param {
    lr_mult: 2
    decay_mult: 0
  }
  convolution_param {
    num_output: 112
    kernel_size: 1
    weight_filler {
      type: "xavier"
      std: 0.09
    }
    bias_filler {
      type: "constant"
      value: 0.2
    }
  }
}
layer {
  name: "inception_4b/relu_3x3_reduce"
  type: "ReLU"
  bottom: "inception_4b/3x3_reduce"
  top: "inception_4b/3x3_reduce"
}
layer {
  name: "inception_4b/3x3"
  type: "Convolution"
  bottom: "inception_4b/3x3_reduce"
  top: "inception_4b/3x3"
  param {
    lr_mult: 1
    decay_mult: 1
  }
  param {
    lr_mult: 2
    decay_mult: 0
  }
  convolution_param {
    num_output: 224
    pad: 1
    kernel_size: 3
    weight_filler {
      type: "xavier"
      std: 0.03
    }
    bias_filler {
      type: "constant"
      value: 0.2
    }
  }
}
layer {
  name: "inception_4b/relu_3x3"
  type: "ReLU"
  bottom: "inception_4b/3x3"
  top: "inception_4b/3x3"
}
layer {
  name: "inception_4b/5x5_reduce"
  type: "Convolution"
  bottom: "inception_4a/output"
  top: "inception_4b/5x5_reduce"
  param {
    lr_mult: 1
    decay_mult: 1
  }
  param {
    lr_mult: 2
    decay_mult: 0
  }
  convolution_param {
    num_output: 24
    kernel_size: 1
    weight_filler {
      type: "xavier"
      std: 0.2
    }
    bias_filler {
      type: "constant"
      value: 0.2
    }
  }
}
layer {
  name: "inception_4b/relu_5x5_reduce"
  type: "ReLU"
  bottom: "inception_4b/5x5_reduce"
  top: "inception_4b/5x5_reduce"
}
layer {
  name: "inception_4b/5x5"
  type: "Convolution"
  bottom: "inception_4b/5x5_reduce"
  top: "inception_4b/5x5"
  param {
    lr_mult: 1
    decay_mult: 1
  }
  param {
    lr_mult: 2
    decay_mult: 0
  }
  convolution_param {
    num_output: 64
    pad: 2
    kernel_size: 5
    weight_filler {
      type: "xavier"
      std: 0.03
    }
    bias_filler {
      type: "constant"
      value: 0.2
    }
  }
}
layer {
  name: "inception_4b/relu_5x5"
  type: "ReLU"
  bottom: "inception_4b/5x5"
  top: "inception_4b/5x5"
}
layer {
  name: "inception_4b/pool"
  type: "Pooling"
  bottom: "inception_4a/output"
  top: "inception_4b/pool"
  pooling_param {
    pool: MAX
    kernel_size: 3
    stride: 1
    pad: 1
  }
}
layer {
  name: "inception_4b/pool_proj"
  type: "Convolution"
  bottom: "inception_4b/pool"
  top: "inception_4b/pool_proj"
  param {
    lr_mult: 1
    decay_mult: 1
  }
  param {
    lr_mult: 2
    decay_mult: 0
  }
  convolution_param {
    num_output: 64
    kernel_size: 1
    weight_filler {
      type: "xavier"
      std: 0.1
    }
    bias_filler {
      type: "constant"
      value: 0.2
    }
  }
}
layer {
  name: "inception_4b/relu_pool_proj"
  type: "ReLU"
  bottom: "inception_4b/pool_proj"
  top: "inception_4b/pool_proj"
}
layer {
  name: "inception_4b/output"
  type: "Concat"
  bottom: "inception_4b/1x1"
  bottom: "inception_4b/3x3"
  bottom: "inception_4b/5x5"
  bottom: "inception_4b/pool_proj"
  top: "inception_4b/output"
}
layer {
  name: "inception_4c/1x1"
  type: "Convolution"
  bottom: "inception_4b/output"
  top: "inception_4c/1x1"
  param {
    lr_mult: 1
    decay_mult: 1
  }
  param {
    lr_mult: 2
    decay_mult: 0
  }
  convolution_param {
    num_output: 128
    kernel_size: 1
    weight_filler {
      type: "xavier"
      std: 0.03
    }
    bias_filler {
      type: "constant"
      value: 0.2
    }
  }
}
layer {
  name: "inception_4c/relu_1x1"
  type: "ReLU"
  bottom: "inception_4c/1x1"
  top: "inception_4c/1x1"
}
layer {
  name: "inception_4c/3x3_reduce"
  type: "Convolution"
  bottom: "inception_4b/output"
  top: "inception_4c/3x3_reduce"
  param {
    lr_mult: 1
    decay_mult: 1
  }
  param {
    lr_mult: 2
    decay_mult: 0
  }
  convolution_param {
    num_output: 128
    kernel_size: 1
    weight_filler {
      type: "xavier"
      std: 0.09
    }
    bias_filler {
      type: "constant"
      value: 0.2
    }
  }
}
layer {
  name: "inception_4c/relu_3x3_reduce"
  type: "ReLU"
  bottom: "inception_4c/3x3_reduce"
  top: "inception_4c/3x3_reduce"
}
layer {
  name: "inception_4c/3x3"
  type: "Convolution"
  bottom: "inception_4c/3x3_reduce"
  top: "inception_4c/3x3"
  param {
    lr_mult: 1
    decay_mult: 1
  }
  param {
    lr_mult: 2
    decay_mult: 0
  }
  convolution_param {
    num_output: 256
    pad: 1
    kernel_size: 3
    weight_filler {
      type: "xavier"
      std: 0.03
    }
    bias_filler {
      type: "constant"
      value: 0.2
    }
  }
}
layer {
  name: "inception_4c/relu_3x3"
  type: "ReLU"
  bottom: "inception_4c/3x3"
  top: "inception_4c/3x3"
}
layer {
  name: "inception_4c/5x5_reduce"
  type: "Convolution"
  bottom: "inception_4b/output"
  top: "inception_4c/5x5_reduce"
  param {
    lr_mult: 1
    decay_mult: 1
  }
  param {
    lr_mult: 2
    decay_mult: 0
  }
  convolution_param {
    num_output: 24
    kernel_size: 1
    weight_filler {
      type: "xavier"
      std: 0.2
    }
    bias_filler {
      type: "constant"
      value: 0.2
    }
  }
}
layer {
  name: "inception_4c/relu_5x5_reduce"
  type: "ReLU"
  bottom: "inception_4c/5x5_reduce"
  top: "inception_4c/5x5_reduce"
}
layer {
  name: "inception_4c/5x5"
  type: "Convolution"
  bottom: "inception_4c/5x5_reduce"
  top: "inception_4c/5x5"
  param {
    lr_mult: 1
    decay_mult: 1
  }
  param {
    lr_mult: 2
    decay_mult: 0
  }
  convolution_param {
    num_output: 64
    pad: 2
    kernel_size: 5
    weight_filler {
      type: "xavier"
      std: 0.03
    }
    bias_filler {
      type: "constant"
      value: 0.2
    }
  }
}
layer {
  name: "inception_4c/relu_5x5"
  type: "ReLU"
  bottom: "inception_4c/5x5"
  top: "inception_4c/5x5"
}
layer {
  name: "inception_4c/pool"
  type: "Pooling"
  bottom: "inception_4b/output"
  top: "inception_4c/pool"
  pooling_param {
    pool: MAX
    kernel_size: 3
    stride: 1
    pad: 1
  }
}
layer {
  name: "inception_4c/pool_proj"
  type: "Convolution"
  bottom: "inception_4c/pool"
  top: "inception_4c/pool_proj"
  param {
    lr_mult: 1
    decay_mult: 1
  }
  param {
    lr_mult: 2
    decay_mult: 0
  }
  convolution_param {
    num_output: 64
    kernel_size: 1
    weight_filler {
      type: "xavier"
      std: 0.1
    }
    bias_filler {
      type: "constant"
      value: 0.2
    }
  }
}
layer {
  name: "inception_4c/relu_pool_proj"
  type: "ReLU"
  bottom: "inception_4c/pool_proj"
  top: "inception_4c/pool_proj"
}
layer {
  name: "inception_4c/output"
  type: "Concat"
  bottom: "inception_4c/1x1"
  bottom: "inception_4c/3x3"
  bottom: "inception_4c/5x5"
  bottom: "inception_4c/pool_proj"
  top: "inception_4c/output"
}
layer {
  name: "inception_4d/1x1"
  type: "Convolution"
  bottom: "inception_4c/output"
  top: "inception_4d/1x1"
  param {
    lr_mult: 1
    decay_mult: 1
  }
  param {
    lr_mult: 2
    decay_mult: 0
  }
  convolution_param {
    num_output: 112
    kernel_size: 1
    weight_filler {
      type: "xavier"
      std: 0.03
    }
    bias_filler {
      type: "constant"
      value: 0.2
    }
  }
}
layer {
  name: "inception_4d/relu_1x1"
  type: "ReLU"
  bottom: "inception_4d/1x1"
  top: "inception_4d/1x1"
}
layer {
  name: "inception_4d/3x3_reduce"
  type: "Convolution"
  bottom: "inception_4c/output"
  top: "inception_4d/3x3_reduce"
  param {
    lr_mult: 1
    decay_mult: 1
  }
  param {
    lr_mult: 2
    decay_mult: 0
  }
  convolution_param {
    num_output: 144
    kernel_size: 1
    weight_filler {
      type: "xavier"
      std: 0.09
    }
    bias_filler {
      type: "constant"
      value: 0.2
    }
  }
}
layer {
  name: "inception_4d/relu_3x3_reduce"
  type: "ReLU"
  bottom: "inception_4d/3x3_reduce"
  top: "inception_4d/3x3_reduce"
}
layer {
  name: "inception_4d/3x3"
  type: "Convolution"
  bottom: "inception_4d/3x3_reduce"
  top: "inception_4d/3x3"
  param {
    lr_mult: 1
    decay_mult: 1
  }
  param {
    lr_mult: 2
    decay_mult: 0
  }
  convolution_param {
    num_output: 288
    pad: 1
    kernel_size: 3
    weight_filler {
      type: "xavier"
      std: 0.03
    }
    bias_filler {
      type: "constant"
      value: 0.2
    }
  }
}
layer {
  name: "inception_4d/relu_3x3"
  type: "ReLU"
  bottom: "inception_4d/3x3"
  top: "inception_4d/3x3"
}
layer {
  name: "inception_4d/5x5_reduce"
  type: "Convolution"
  bottom: "inception_4c/output"
  top: "inception_4d/5x5_reduce"
  param {
    lr_mult: 1
    decay_mult: 1
  }
  param {
    lr_mult: 2
    decay_mult: 0
  }
  convolution_param {
    num_output: 32
    kernel_size: 1
    weight_filler {
      type: "xavier"
      std: 0.2
    }
    bias_filler {
      type: "constant"
      value: 0.2
    }
  }
}
layer {
  name: "inception_4d/relu_5x5_reduce"
  type: "ReLU"
  bottom: "inception_4d/5x5_reduce"
  top: "inception_4d/5x5_reduce"
}
layer {
  name: "inception_4d/5x5"
  type: "Convolution"
  bottom: "inception_4d/5x5_reduce"
  top: "inception_4d/5x5"
  param {
    lr_mult: 1
    decay_mult: 1
  }
  param {
    lr_mult: 2
    decay_mult: 0
  }
  convolution_param {
    num_output: 64
    pad: 2
    kernel_size: 5
    weight_filler {
      type: "xavier"
      std: 0.03
    }
    bias_filler {
      type: "constant"
      value: 0.2
    }
  }
}
layer {
  name: "inception_4d/relu_5x5"
  type: "ReLU"
  bottom: "inception_4d/5x5"
  top: "inception_4d/5x5"
}
layer {
  name: "inception_4d/pool"
  type: "Pooling"
  bottom: "inception_4c/output"
  top: "inception_4d/pool"
  pooling_param {
    pool: MAX
    kernel_size: 3
    stride: 1
    pad: 1
  }
}
layer {
  name: "inception_4d/pool_proj"
  type: "Convolution"
  bottom: "inception_4d/pool"
  top: "inception_4d/pool_proj"
  param {
    lr_mult: 1
    decay_mult: 1
  }
  param {
    lr_mult: 2
    decay_mult: 0
  }
  convolution_param {
    num_output: 64
    kernel_size: 1
    weight_filler {
      type: "xavier"
      std: 0.1
    }
    bias_filler {
      type: "constant"
      value: 0.2
    }
  }
}
layer {
  name: "inception_4d/relu_pool_proj"
  type: "ReLU"
  bottom: "inception_4d/pool_proj"
  top: "inception_4d/pool_proj"
}
layer {
  name: "inception_4d/output"
  type: "Concat"
  bottom: "inception_4d/1x1"
  bottom: "inception_4d/3x3"
  bottom: "inception_4d/5x5"
  bottom: "inception_4d/pool_proj"
  top: "inception_4d/output"
}
layer {
  name: "loss2/ave_pool"
  type: "Pooling"
  bottom: "inception_4d/output"
  top: "loss2/ave_pool"
  pooling_param {
    pool: AVE
    kernel_size: 5
    stride: 3
  }
}
layer {
  name: "loss2/conv"
  type: "Convolution"
  bottom: "loss2/ave_pool"
  top: "loss2/conv"
  param {
    lr_mult: 1
    decay_mult: 1
  }
  param {
    lr_mult: 2
    decay_mult: 0
  }
  convolution_param {
    num_output: 128
    kernel_size: 1
    weight_filler {
      type: "xavier"
      std: 0.08
    }
    bias_filler {
      type: "constant"
      value: 0.2
    }
  }
}
layer {
  name: "loss2/relu_conv"
  type: "ReLU"
  bottom: "loss2/conv"
  top: "loss2/conv"
}
layer {
  name: "loss2/fc"
  type: "InnerProduct"
  bottom: "loss2/conv"
  top: "loss2/fc"
  param {
    lr_mult: 1
    decay_mult: 1
  }
  param {
    lr_mult: 2
    decay_mult: 0
  }
  inner_product_param {
    num_output: 1024
    weight_filler {
      type: "xavier"
      std: 0.02
    }
    bias_filler {
      type: "constant"
      value: 0.2
    }
  }
}
layer {
  name: "loss2/relu_fc"
  type: "ReLU"
  bottom: "loss2/fc"
  top: "loss2/fc"
}
layer {
  name: "loss2/drop_fc"
  type: "Dropout"
  bottom: "loss2/fc"
  top: "loss2/fc"
  dropout_param {
    dropout_ratio: 0.7
  }
}
layer {
  name: "loss2/classifier_plantvillage"
  type: "InnerProduct"
  bottom: "loss2/fc"
  top: "loss2/classifier_plantvillage"
  param {
    lr_mult: 1
    decay_mult: 1
  }
  param {
    lr_mult: 2
    decay_mult: 0
  }
  inner_product_param {
    num_output: 38
    weight_filler {
      type: "xavier"
      std: 0.0009765625
    }
    bias_filler {
      type: "constant"
      value: 0
    }
  }
}
layer {
  name: "inception_4e/1x1"
  type: "Convolution"
  bottom: "inception_4d/output"
  top: "inception_4e/1x1"
  param {
    lr_mult: 1
    decay_mult: 1
  }
  param {
    lr_mult: 2
    decay_mult: 0
  }
  convolution_param {
    num_output: 256
    kernel_size: 1
    weight_filler {
      type: "xavier"
      std: 0.03
    }
    bias_filler {
      type: "constant"
      value: 0.2
    }
  }
}
layer {
  name: "inception_4e/relu_1x1"
  type: "ReLU"
  bottom: "inception_4e/1x1"
  top: "inception_4e/1x1"
}
layer {
  name: "inception_4e/3x3_reduce"
  type: "Convolution"
  bottom: "inception_4d/output"
  top: "inception_4e/3x3_reduce"
  param {
    lr_mult: 1
    decay_mult: 1
  }
  param {
    lr_mult: 2
    decay_mult: 0
  }
  convolution_param {
    num_output: 160
    kernel_size: 1
    weight_filler {
      type: "xavier"
      std: 0.09
    }
    bias_filler {
      type: "constant"
      value: 0.2
    }
  }
}
layer {
  name: "inception_4e/relu_3x3_reduce"
  type: "ReLU"
  bottom: "inception_4e/3x3_reduce"
  top: "inception_4e/3x3_reduce"
}
layer {
  name: "inception_4e/3x3"
  type: "Convolution"
  bottom: "inception_4e/3x3_reduce"
  top: "inception_4e/3x3"
  param {
    lr_mult: 1
    decay_mult: 1
  }
  param {
    lr_mult: 2
    decay_mult: 0
  }
  convolution_param {
    num_output: 320
    pad: 1
    kernel_size: 3
    weight_filler {
      type: "xavier"
      std: 0.03
    }
    bias_filler {
      type: "constant"
      value: 0.2
    }
  }
}
layer {
  name: "inception_4e/relu_3x3"
  type: "ReLU"
  bottom: "inception_4e/3x3"
  top: "inception_4e/3x3"
}
layer {
  name: "inception_4e/5x5_reduce"
  type: "Convolution"
  bottom: "inception_4d/output"
  top: "inception_4e/5x5_reduce"
  param {
    lr_mult: 1
    decay_mult: 1
  }
  param {
    lr_mult: 2
    decay_mult: 0
  }
  convolution_param {
    num_output: 32
    kernel_size: 1
    weight_filler {
      type: "xavier"
      std: 0.2
    }
    bias_filler {
      type: "constant"
      value: 0.2
    }
  }
}
layer {
  name: "inception_4e/relu_5x5_reduce"
  type: "ReLU"
  bottom: "inception_4e/5x5_reduce"
  top: "inception_4e/5x5_reduce"
}
layer {
  name: "inception_4e/5x5"
  type: "Convolution"
  bottom: "inception_4e/5x5_reduce"
  top: "inception_4e/5x5"
  p
I0403 19:23:38.757185  9183 layer_factory.hpp:77] Creating layer data
I0403 19:23:38.757792  9183 net.cpp:91] Creating Layer data
I0403 19:23:38.757823  9183 net.cpp:399] data -> data
I0403 19:23:38.757874  9183 net.cpp:399] data -> label
I0403 19:23:38.757911  9183 data_transformer.cpp:25] Loading mean file from: /home/mohanty/data/final_dataset/lmdb/color-50-50/mean.binaryproto
I0403 19:23:38.759021  9185 db_lmdb.cpp:38] Opened lmdb /home/mohanty/data/final_dataset/lmdb/color-50-50/test_db
I0403 19:23:38.773393  9183 data_layer.cpp:41] output data size: 24,3,224,224
I0403 19:23:38.800463  9183 net.cpp:141] Setting up data
I0403 19:23:38.800534  9183 net.cpp:148] Top shape: 24 3 224 224 (3612672)
I0403 19:23:38.800555  9183 net.cpp:148] Top shape: 24 (24)
I0403 19:23:38.800570  9183 net.cpp:156] Memory required for data: 14450784
I0403 19:23:38.800598  9183 layer_factory.hpp:77] Creating layer label_data_1_split
I0403 19:23:38.800623  9183 net.cpp:91] Creating Layer label_data_1_split
I0403 19:23:38.800640  9183 net.cpp:425] label_data_1_split <- label
I0403 19:23:38.800673  9183 net.cpp:399] label_data_1_split -> label_data_1_split_0
I0403 19:23:38.800699  9183 net.cpp:399] label_data_1_split -> label_data_1_split_1
I0403 19:23:38.800719  9183 net.cpp:399] label_data_1_split -> label_data_1_split_2
I0403 19:23:38.800740  9183 net.cpp:399] label_data_1_split -> label_data_1_split_3
I0403 19:23:38.800760  9183 net.cpp:399] label_data_1_split -> label_data_1_split_4
I0403 19:23:38.800779  9183 net.cpp:399] label_data_1_split -> label_data_1_split_5
I0403 19:23:38.800797  9183 net.cpp:399] label_data_1_split -> label_data_1_split_6
I0403 19:23:38.800817  9183 net.cpp:399] label_data_1_split -> label_data_1_split_7
I0403 19:23:38.800835  9183 net.cpp:399] label_data_1_split -> label_data_1_split_8
I0403 19:23:38.800855  9183 net.cpp:399] label_data_1_split -> label_data_1_split_9
I0403 19:23:38.800968  9183 net.cpp:141] Setting up label_data_1_split
I0403 19:23:38.800992  9183 net.cpp:148] Top shape: 24 (24)
I0403 19:23:38.801007  9183 net.cpp:148] Top shape: 24 (24)
I0403 19:23:38.801023  9183 net.cpp:148] Top shape: 24 (24)
I0403 19:23:38.801038  9183 net.cpp:148] Top shape: 24 (24)
I0403 19:23:38.801053  9183 net.cpp:148] Top shape: 24 (24)
I0403 19:23:38.801067  9183 net.cpp:148] Top shape: 24 (24)
I0403 19:23:38.801084  9183 net.cpp:148] Top shape: 24 (24)
I0403 19:23:38.801098  9183 net.cpp:148] Top shape: 24 (24)
I0403 19:23:38.801112  9183 net.cpp:148] Top shape: 24 (24)
I0403 19:23:38.801128  9183 net.cpp:148] Top shape: 24 (24)
I0403 19:23:38.801172  9183 net.cpp:156] Memory required for data: 14451744
I0403 19:23:38.801187  9183 layer_factory.hpp:77] Creating layer conv1/7x7_s2
I0403 19:23:38.801218  9183 net.cpp:91] Creating Layer conv1/7x7_s2
I0403 19:23:38.801235  9183 net.cpp:425] conv1/7x7_s2 <- data
I0403 19:23:38.801254  9183 net.cpp:399] conv1/7x7_s2 -> conv1/7x7_s2
I0403 19:23:38.938756  9183 net.cpp:141] Setting up conv1/7x7_s2
I0403 19:23:38.938830  9183 net.cpp:148] Top shape: 24 64 112 112 (19267584)
I0403 19:23:38.938849  9183 net.cpp:156] Memory required for data: 91522080
I0403 19:23:38.938884  9183 layer_factory.hpp:77] Creating layer conv1/relu_7x7
I0403 19:23:38.938910  9183 net.cpp:91] Creating Layer conv1/relu_7x7
I0403 19:23:38.938928  9183 net.cpp:425] conv1/relu_7x7 <- conv1/7x7_s2
I0403 19:23:38.938946  9183 net.cpp:386] conv1/relu_7x7 -> conv1/7x7_s2 (in-place)
I0403 19:23:38.939205  9183 net.cpp:141] Setting up conv1/relu_7x7
I0403 19:23:38.939232  9183 net.cpp:148] Top shape: 24 64 112 112 (19267584)
I0403 19:23:38.939247  9183 net.cpp:156] Memory required for data: 168592416
I0403 19:23:38.939263  9183 layer_factory.hpp:77] Creating layer pool1/3x3_s2
I0403 19:23:38.939293  9183 net.cpp:91] Creating Layer pool1/3x3_s2
I0403 19:23:38.939311  9183 net.cpp:425] pool1/3x3_s2 <- conv1/7x7_s2
I0403 19:23:38.939329  9183 net.cpp:399] pool1/3x3_s2 -> pool1/3x3_s2
I0403 19:23:38.939467  9183 net.cpp:141] Setting up pool1/3x3_s2
I0403 19:23:38.939492  9183 net.cpp:148] Top shape: 24 64 56 56 (4816896)
I0403 19:23:38.939507  9183 net.cpp:156] Memory required for data: 187860000
I0403 19:23:38.939522  9183 layer_factory.hpp:77] Creating layer pool1/norm1
I0403 19:23:38.939546  9183 net.cpp:91] Creating Layer pool1/norm1
I0403 19:23:38.939564  9183 net.cpp:425] pool1/norm1 <- pool1/3x3_s2
I0403 19:23:38.939581  9183 net.cpp:399] pool1/norm1 -> pool1/norm1
I0403 19:23:38.939869  9183 net.cpp:141] Setting up pool1/norm1
I0403 19:23:38.939895  9183 net.cpp:148] Top shape: 24 64 56 56 (4816896)
I0403 19:23:38.939911  9183 net.cpp:156] Memory required for data: 207127584
I0403 19:23:38.939926  9183 layer_factory.hpp:77] Creating layer conv2/3x3_reduce
I0403 19:23:38.939951  9183 net.cpp:91] Creating Layer conv2/3x3_reduce
I0403 19:23:38.939968  9183 net.cpp:425] conv2/3x3_reduce <- pool1/norm1
I0403 19:23:38.939986  9183 net.cpp:399] conv2/3x3_reduce -> conv2/3x3_reduce
I0403 19:23:38.941365  9183 net.cpp:141] Setting up conv2/3x3_reduce
I0403 19:23:38.941395  9183 net.cpp:148] Top shape: 24 64 56 56 (4816896)
I0403 19:23:38.941411  9183 net.cpp:156] Memory required for data: 226395168
I0403 19:23:38.941431  9183 layer_factory.hpp:77] Creating layer conv2/relu_3x3_reduce
I0403 19:23:38.941450  9183 net.cpp:91] Creating Layer conv2/relu_3x3_reduce
I0403 19:23:38.941465  9183 net.cpp:425] conv2/relu_3x3_reduce <- conv2/3x3_reduce
I0403 19:23:38.941483  9183 net.cpp:386] conv2/relu_3x3_reduce -> conv2/3x3_reduce (in-place)
I0403 19:23:38.941731  9183 net.cpp:141] Setting up conv2/relu_3x3_reduce
I0403 19:23:38.941758  9183 net.cpp:148] Top shape: 24 64 56 56 (4816896)
I0403 19:23:38.941773  9183 net.cpp:156] Memory required for data: 245662752
I0403 19:23:38.941788  9183 layer_factory.hpp:77] Creating layer conv2/3x3
I0403 19:23:38.941809  9183 net.cpp:91] Creating Layer conv2/3x3
I0403 19:23:38.941826  9183 net.cpp:425] conv2/3x3 <- conv2/3x3_reduce
I0403 19:23:38.941845  9183 net.cpp:399] conv2/3x3 -> conv2/3x3
I0403 19:23:38.944066  9183 net.cpp:141] Setting up conv2/3x3
I0403 19:23:38.944108  9183 net.cpp:148] Top shape: 24 192 56 56 (14450688)
I0403 19:23:38.944125  9183 net.cpp:156] Memory required for data: 303465504
I0403 19:23:38.944146  9183 layer_factory.hpp:77] Creating layer conv2/relu_3x3
I0403 19:23:38.944164  9183 net.cpp:91] Creating Layer conv2/relu_3x3
I0403 19:23:38.944200  9183 net.cpp:425] conv2/relu_3x3 <- conv2/3x3
I0403 19:23:38.944242  9183 net.cpp:386] conv2/relu_3x3 -> conv2/3x3 (in-place)
I0403 19:23:38.944416  9183 net.cpp:141] Setting up conv2/relu_3x3
I0403 19:23:38.944442  9183 net.cpp:148] Top shape: 24 192 56 56 (14450688)
I0403 19:23:38.944485  9183 net.cpp:156] Memory required for data: 361268256
I0403 19:23:38.944501  9183 layer_factory.hpp:77] Creating layer conv2/norm2
I0403 19:23:38.944519  9183 net.cpp:91] Creating Layer conv2/norm2
I0403 19:23:38.944535  9183 net.cpp:425] conv2/norm2 <- conv2/3x3
I0403 19:23:38.944551  9183 net.cpp:399] conv2/norm2 -> conv2/norm2
I0403 19:23:38.944830  9183 net.cpp:141] Setting up conv2/norm2
I0403 19:23:38.944857  9183 net.cpp:148] Top shape: 24 192 56 56 (14450688)
I0403 19:23:38.944872  9183 net.cpp:156] Memory required for data: 419071008
I0403 19:23:38.944887  9183 layer_factory.hpp:77] Creating layer pool2/3x3_s2
I0403 19:23:38.944905  9183 net.cpp:91] Creating Layer pool2/3x3_s2
I0403 19:23:38.944921  9183 net.cpp:425] pool2/3x3_s2 <- conv2/norm2
I0403 19:23:38.944937  9183 net.cpp:399] pool2/3x3_s2 -> pool2/3x3_s2
I0403 19:23:38.944985  9183 net.cpp:141] Setting up pool2/3x3_s2
I0403 19:23:38.945008  9183 net.cpp:148] Top shape: 24 192 28 28 (3612672)
I0403 19:23:38.945024  9183 net.cpp:156] Memory required for data: 433521696
I0403 19:23:38.945039  9183 layer_factory.hpp:77] Creating layer pool2/3x3_s2_pool2/3x3_s2_0_split
I0403 19:23:38.945055  9183 net.cpp:91] Creating Layer pool2/3x3_s2_pool2/3x3_s2_0_split
I0403 19:23:38.945070  9183 net.cpp:425] pool2/3x3_s2_pool2/3x3_s2_0_split <- pool2/3x3_s2
I0403 19:23:38.945086  9183 net.cpp:399] pool2/3x3_s2_pool2/3x3_s2_0_split -> pool2/3x3_s2_pool2/3x3_s2_0_split_0
I0403 19:23:38.945104  9183 net.cpp:399] pool2/3x3_s2_pool2/3x3_s2_0_split -> pool2/3x3_s2_pool2/3x3_s2_0_split_1
I0403 19:23:38.945124  9183 net.cpp:399] pool2/3x3_s2_pool2/3x3_s2_0_split -> pool2/3x3_s2_pool2/3x3_s2_0_split_2
I0403 19:23:38.945143  9183 net.cpp:399] pool2/3x3_s2_pool2/3x3_s2_0_split -> pool2/3x3_s2_pool2/3x3_s2_0_split_3
I0403 19:23:38.945205  9183 net.cpp:141] Setting up pool2/3x3_s2_pool2/3x3_s2_0_split
I0403 19:23:38.945227  9183 net.cpp:148] Top shape: 24 192 28 28 (3612672)
I0403 19:23:38.945245  9183 net.cpp:148] Top shape: 24 192 28 28 (3612672)
I0403 19:23:38.945261  9183 net.cpp:148] Top shape: 24 192 28 28 (3612672)
I0403 19:23:38.945281  9183 net.cpp:148] Top shape: 24 192 28 28 (3612672)
I0403 19:23:38.945297  9183 net.cpp:156] Memory required for data: 491324448
I0403 19:23:38.945310  9183 layer_factory.hpp:77] Creating layer inception_3a/1x1
I0403 19:23:38.945330  9183 net.cpp:91] Creating Layer inception_3a/1x1
I0403 19:23:38.945346  9183 net.cpp:425] inception_3a/1x1 <- pool2/3x3_s2_pool2/3x3_s2_0_split_0
I0403 19:23:38.945364  9183 net.cpp:399] inception_3a/1x1 -> inception_3a/1x1
I0403 19:23:38.946924  9183 net.cpp:141] Setting up inception_3a/1x1
I0403 19:23:38.946957  9183 net.cpp:148] Top shape: 24 64 28 28 (1204224)
I0403 19:23:38.946974  9183 net.cpp:156] Memory required for data: 496141344
I0403 19:23:38.946993  9183 layer_factory.hpp:77] Creating layer inception_3a/relu_1x1
I0403 19:23:38.947012  9183 net.cpp:91] Creating Layer inception_3a/relu_1x1
I0403 19:23:38.947028  9183 net.cpp:425] inception_3a/relu_1x1 <- inception_3a/1x1
I0403 19:23:38.947048  9183 net.cpp:386] inception_3a/relu_1x1 -> inception_3a/1x1 (in-place)
I0403 19:23:38.947229  9183 net.cpp:141] Setting up inception_3a/relu_1x1
I0403 19:23:38.947255  9183 net.cpp:148] Top shape: 24 64 28 28 (1204224)
I0403 19:23:38.947273  9183 net.cpp:156] Memory required for data: 500958240
I0403 19:23:38.947290  9183 layer_factory.hpp:77] Creating layer inception_3a/3x3_reduce
I0403 19:23:38.947314  9183 net.cpp:91] Creating Layer inception_3a/3x3_reduce
I0403 19:23:38.947332  9183 net.cpp:425] inception_3a/3x3_reduce <- pool2/3x3_s2_pool2/3x3_s2_0_split_1
I0403 19:23:38.947355  9183 net.cpp:399] inception_3a/3x3_reduce -> inception_3a/3x3_reduce
I0403 19:23:38.949087  9183 net.cpp:141] Setting up inception_3a/3x3_reduce
I0403 19:23:38.949120  9183 net.cpp:148] Top shape: 24 96 28 28 (1806336)
I0403 19:23:38.949137  9183 net.cpp:156] Memory required for data: 508183584
I0403 19:23:38.949161  9183 layer_factory.hpp:77] Creating layer inception_3a/relu_3x3_reduce
I0403 19:23:38.949198  9183 net.cpp:91] Creating Layer inception_3a/relu_3x3_reduce
I0403 19:23:38.949218  9183 net.cpp:425] inception_3a/relu_3x3_reduce <- inception_3a/3x3_reduce
I0403 19:23:38.949235  9183 net.cpp:386] inception_3a/relu_3x3_reduce -> inception_3a/3x3_reduce (in-place)
I0403 19:23:38.949424  9183 net.cpp:141] Setting up inception_3a/relu_3x3_reduce
I0403 19:23:38.949451  9183 net.cpp:148] Top shape: 24 96 28 28 (1806336)
I0403 19:23:38.949467  9183 net.cpp:156] Memory required for data: 515408928
I0403 19:23:38.949483  9183 layer_factory.hpp:77] Creating layer inception_3a/3x3
I0403 19:23:38.949506  9183 net.cpp:91] Creating Layer inception_3a/3x3
I0403 19:23:38.949524  9183 net.cpp:425] inception_3a/3x3 <- inception_3a/3x3_reduce
I0403 19:23:38.949569  9183 net.cpp:399] inception_3a/3x3 -> inception_3a/3x3
I0403 19:23:38.951302  9183 net.cpp:141] Setting up inception_3a/3x3
I0403 19:23:38.951331  9183 net.cpp:148] Top shape: 24 128 28 28 (2408448)
I0403 19:23:38.951347  9183 net.cpp:156] Memory required for data: 525042720
I0403 19:23:38.951367  9183 layer_factory.hpp:77] Creating layer inception_3a/relu_3x3
I0403 19:23:38.951386  9183 net.cpp:91] Creating Layer inception_3a/relu_3x3
I0403 19:23:38.951405  9183 net.cpp:425] inception_3a/relu_3x3 <- inception_3a/3x3
I0403 19:23:38.951424  9183 net.cpp:386] inception_3a/relu_3x3 -> inception_3a/3x3 (in-place)
I0403 19:23:38.951709  9183 net.cpp:141] Setting up inception_3a/relu_3x3
I0403 19:23:38.951736  9183 net.cpp:148] Top shape: 24 128 28 28 (2408448)
I0403 19:23:38.951753  9183 net.cpp:156] Memory required for data: 534676512
I0403 19:23:38.951771  9183 layer_factory.hpp:77] Creating layer inception_3a/5x5_reduce
I0403 19:23:38.951793  9183 net.cpp:91] Creating Layer inception_3a/5x5_reduce
I0403 19:23:38.951812  9183 net.cpp:425] inception_3a/5x5_reduce <- pool2/3x3_s2_pool2/3x3_s2_0_split_2
I0403 19:23:38.951835  9183 net.cpp:399] inception_3a/5x5_reduce -> inception_3a/5x5_reduce
I0403 19:23:38.952814  9183 net.cpp:141] Setting up inception_3a/5x5_reduce
I0403 19:23:38.952846  9183 net.cpp:148] Top shape: 24 16 28 28 (301056)
I0403 19:23:38.952862  9183 net.cpp:156] Memory required for data: 535880736
I0403 19:23:38.952882  9183 layer_factory.hpp:77] Creating layer inception_3a/relu_5x5_reduce
I0403 19:23:38.952903  9183 net.cpp:91] Creating Layer inception_3a/relu_5x5_reduce
I0403 19:23:38.952920  9183 net.cpp:425] inception_3a/relu_5x5_reduce <- inception_3a/5x5_reduce
I0403 19:23:38.952939  9183 net.cpp:386] inception_3a/relu_5x5_reduce -> inception_3a/5x5_reduce (in-place)
I0403 19:23:38.953241  9183 net.cpp:141] Setting up inception_3a/relu_5x5_reduce
I0403 19:23:38.953279  9183 net.cpp:148] Top shape: 24 16 28 28 (301056)
I0403 19:23:38.953299  9183 net.cpp:156] Memory required for data: 537084960
I0403 19:23:38.953315  9183 layer_factory.hpp:77] Creating layer inception_3a/5x5
I0403 19:23:38.953338  9183 net.cpp:91] Creating Layer inception_3a/5x5
I0403 19:23:38.953357  9183 net.cpp:425] inception_3a/5x5 <- inception_3a/5x5_reduce
I0403 19:23:38.953380  9183 net.cpp:399] inception_3a/5x5 -> inception_3a/5x5
I0403 19:23:38.954438  9183 net.cpp:141] Setting up inception_3a/5x5
I0403 19:23:38.954468  9183 net.cpp:148] Top shape: 24 32 28 28 (602112)
I0403 19:23:38.954496  9183 net.cpp:156] Memory required for data: 539493408
I0403 19:23:38.954516  9183 layer_factory.hpp:77] Creating layer inception_3a/relu_5x5
I0403 19:23:38.954536  9183 net.cpp:91] Creating Layer inception_3a/relu_5x5
I0403 19:23:38.954555  9183 net.cpp:425] inception_3a/relu_5x5 <- inception_3a/5x5
I0403 19:23:38.954574  9183 net.cpp:386] inception_3a/relu_5x5 -> inception_3a/5x5 (in-place)
I0403 19:23:38.954754  9183 net.cpp:141] Setting up inception_3a/relu_5x5
I0403 19:23:38.954779  9183 net.cpp:148] Top shape: 24 32 28 28 (602112)
I0403 19:23:38.954795  9183 net.cpp:156] Memory required for data: 541901856
I0403 19:23:38.954810  9183 layer_factory.hpp:77] Creating layer inception_3a/pool
I0403 19:23:38.954831  9183 net.cpp:91] Creating Layer inception_3a/pool
I0403 19:23:38.954849  9183 net.cpp:425] inception_3a/pool <- pool2/3x3_s2_pool2/3x3_s2_0_split_3
I0403 19:23:38.954880  9183 net.cpp:399] inception_3a/pool -> inception_3a/pool
I0403 19:23:38.954941  9183 net.cpp:141] Setting up inception_3a/pool
I0403 19:23:38.954965  9183 net.cpp:148] Top shape: 24 192 28 28 (3612672)
I0403 19:23:38.954980  9183 net.cpp:156] Memory required for data: 556352544
I0403 19:23:38.954996  9183 layer_factory.hpp:77] Creating layer inception_3a/pool_proj
I0403 19:23:38.955019  9183 net.cpp:91] Creating Layer inception_3a/pool_proj
I0403 19:23:38.955037  9183 net.cpp:425] inception_3a/pool_proj <- inception_3a/pool
I0403 19:23:38.955059  9183 net.cpp:399] inception_3a/pool_proj -> inception_3a/pool_proj
I0403 19:23:38.956071  9183 net.cpp:141] Setting up inception_3a/pool_proj
I0403 19:23:38.956102  9183 net.cpp:148] Top shape: 24 32 28 28 (602112)
I0403 19:23:38.956127  9183 net.cpp:156] Memory required for data: 558760992
I0403 19:23:38.956151  9183 layer_factory.hpp:77] Creating layer inception_3a/relu_pool_proj
I0403 19:23:38.956172  9183 net.cpp:91] Creating Layer inception_3a/relu_pool_proj
I0403 19:23:38.956189  9183 net.cpp:425] inception_3a/relu_pool_proj <- inception_3a/pool_proj
I0403 19:23:38.956207  9183 net.cpp:386] inception_3a/relu_pool_proj -> inception_3a/pool_proj (in-place)
I0403 19:23:38.956492  9183 net.cpp:141] Setting up inception_3a/relu_pool_proj
I0403 19:23:38.956519  9183 net.cpp:148] Top shape: 24 32 28 28 (602112)
I0403 19:23:38.956535  9183 net.cpp:156] Memory required for data: 561169440
I0403 19:23:38.956552  9183 layer_factory.hpp:77] Creating layer inception_3a/output
I0403 19:23:38.956569  9183 net.cpp:91] Creating Layer inception_3a/output
I0403 19:23:38.956584  9183 net.cpp:425] inception_3a/output <- inception_3a/1x1
I0403 19:23:38.956600  9183 net.cpp:425] inception_3a/output <- inception_3a/3x3
I0403 19:23:38.956616  9183 net.cpp:425] inception_3a/output <- inception_3a/5x5
I0403 19:23:38.956634  9183 net.cpp:425] inception_3a/output <- inception_3a/pool_proj
I0403 19:23:38.956652  9183 net.cpp:399] inception_3a/output -> inception_3a/output
I0403 19:23:38.956699  9183 net.cpp:141] Setting up inception_3a/output
I0403 19:23:38.956727  9183 net.cpp:148] Top shape: 24 256 28 28 (4816896)
I0403 19:23:38.956742  9183 net.cpp:156] Memory required for data: 580437024
I0403 19:23:38.956756  9183 layer_factory.hpp:77] Creating layer inception_3a/output_inception_3a/output_0_split
I0403 19:23:38.956775  9183 net.cpp:91] Creating Layer inception_3a/output_inception_3a/output_0_split
I0403 19:23:38.956791  9183 net.cpp:425] inception_3a/output_inception_3a/output_0_split <- inception_3a/output
I0403 19:23:38.956810  9183 net.cpp:399] inception_3a/output_inception_3a/output_0_split -> inception_3a/output_inception_3a/output_0_split_0
I0403 19:23:38.956830  9183 net.cpp:399] inception_3a/output_inception_3a/output_0_split -> inception_3a/output_inception_3a/output_0_split_1
I0403 19:23:38.956856  9183 net.cpp:399] inception_3a/output_inception_3a/output_0_split -> inception_3a/output_inception_3a/output_0_split_2
I0403 19:23:38.956879  9183 net.cpp:399] inception_3a/output_inception_3a/output_0_split -> inception_3a/output_inception_3a/output_0_split_3
I0403 19:23:38.956954  9183 net.cpp:141] Setting up inception_3a/output_inception_3a/output_0_split
I0403 19:23:38.956981  9183 net.cpp:148] Top shape: 24 256 28 28 (4816896)
I0403 19:23:38.957000  9183 net.cpp:148] Top shape: 24 256 28 28 (4816896)
I0403 19:23:38.957017  9183 net.cpp:148] Top shape: 24 256 28 28 (4816896)
I0403 19:23:38.957033  9183 net.cpp:148] Top shape: 24 256 28 28 (4816896)
I0403 19:23:38.957046  9183 net.cpp:156] Memory required for data: 657507360
I0403 19:23:38.957062  9183 layer_factory.hpp:77] Creating layer inception_3b/1x1
I0403 19:23:38.957084  9183 net.cpp:91] Creating Layer inception_3b/1x1
I0403 19:23:38.957103  9183 net.cpp:425] inception_3b/1x1 <- inception_3a/output_inception_3a/output_0_split_0
I0403 19:23:38.957121  9183 net.cpp:399] inception_3b/1x1 -> inception_3b/1x1
I0403 19:23:38.958279  9183 net.cpp:141] Setting up inception_3b/1x1
I0403 19:23:38.958323  9183 net.cpp:148] Top shape: 24 128 28 28 (2408448)
I0403 19:23:38.958343  9183 net.cpp:156] Memory required for data: 667141152
I0403 19:23:38.958361  9183 layer_factory.hpp:77] Creating layer inception_3b/relu_1x1
I0403 19:23:38.958380  9183 net.cpp:91] Creating Layer inception_3b/relu_1x1
I0403 19:23:38.958396  9183 net.cpp:425] inception_3b/relu_1x1 <- inception_3b/1x1
I0403 19:23:38.958416  9183 net.cpp:386] inception_3b/relu_1x1 -> inception_3b/1x1 (in-place)
I0403 19:23:38.958597  9183 net.cpp:141] Setting up inception_3b/relu_1x1
I0403 19:23:38.958623  9183 net.cpp:148] Top shape: 24 128 28 28 (2408448)
I0403 19:23:38.958638  9183 net.cpp:156] Memory required for data: 676774944
I0403 19:23:38.958654  9183 layer_factory.hpp:77] Creating layer inception_3b/3x3_reduce
I0403 19:23:38.958676  9183 net.cpp:91] Creating Layer inception_3b/3x3_reduce
I0403 19:23:38.958693  9183 net.cpp:425] inception_3b/3x3_reduce <- inception_3a/output_inception_3a/output_0_split_1
I0403 19:23:38.958715  9183 net.cpp:399] inception_3b/3x3_reduce -> inception_3b/3x3_reduce
I0403 19:23:38.959872  9183 net.cpp:141] Setting up inception_3b/3x3_reduce
I0403 19:23:38.959903  9183 net.cpp:148] Top shape: 24 128 28 28 (2408448)
I0403 19:23:38.959920  9183 net.cpp:156] Memory required for data: 686408736
I0403 19:23:38.959940  9183 layer_factory.hpp:77] Creating layer inception_3b/relu_3x3_reduce
I0403 19:23:38.959959  9183 net.cpp:91] Creating Layer inception_3b/relu_3x3_reduce
I0403 19:23:38.959975  9183 net.cpp:425] inception_3b/relu_3x3_reduce <- inception_3b/3x3_reduce
I0403 19:23:38.959992  9183 net.cpp:386] inception_3b/relu_3x3_reduce -> inception_3b/3x3_reduce (in-place)
I0403 19:23:38.960170  9183 net.cpp:141] Setting up inception_3b/relu_3x3_reduce
I0403 19:23:38.960197  9183 net.cpp:148] Top shape: 24 128 28 28 (2408448)
I0403 19:23:38.960212  9183 net.cpp:156] Memory required for data: 696042528
I0403 19:23:38.960229  9183 layer_factory.hpp:77] Creating layer inception_3b/3x3
I0403 19:23:38.960254  9183 net.cpp:91] Creating Layer inception_3b/3x3
I0403 19:23:38.960275  9183 net.cpp:425] inception_3b/3x3 <- inception_3b/3x3_reduce
I0403 19:23:38.960299  9183 net.cpp:399] inception_3b/3x3 -> inception_3b/3x3
I0403 19:23:38.963315  9183 net.cpp:141] Setting up inception_3b/3x3
I0403 19:23:38.963348  9183 net.cpp:148] Top shape: 24 192 28 28 (3612672)
I0403 19:23:38.963366  9183 net.cpp:156] Memory required for data: 710493216
I0403 19:23:38.963385  9183 layer_factory.hpp:77] Creating layer inception_3b/relu_3x3
I0403 19:23:38.963405  9183 net.cpp:91] Creating Layer inception_3b/relu_3x3
I0403 19:23:38.963423  9183 net.cpp:425] inception_3b/relu_3x3 <- inception_3b/3x3
I0403 19:23:38.963443  9183 net.cpp:386] inception_3b/relu_3x3 -> inception_3b/3x3 (in-place)
I0403 19:23:38.963739  9183 net.cpp:141] Setting up inception_3b/relu_3x3
I0403 19:23:38.963768  9183 net.cpp:148] Top shape: 24 192 28 28 (3612672)
I0403 19:23:38.963783  9183 net.cpp:156] Memory required for data: 724943904
I0403 19:23:38.963799  9183 layer_factory.hpp:77] Creating layer inception_3b/5x5_reduce
I0403 19:23:38.963822  9183 net.cpp:91] Creating Layer inception_3b/5x5_reduce
I0403 19:23:38.963840  9183 net.cpp:425] inception_3b/5x5_reduce <- inception_3a/output_inception_3a/output_0_split_2
I0403 19:23:38.963862  9183 net.cpp:399] inception_3b/5x5_reduce -> inception_3b/5x5_reduce
I0403 19:23:38.964874  9183 net.cpp:141] Setting up inception_3b/5x5_reduce
I0403 19:23:38.964902  9183 net.cpp:148] Top shape: 24 32 28 28 (602112)
I0403 19:23:38.964920  9183 net.cpp:156] Memory required for data: 727352352
I0403 19:23:38.964937  9183 layer_factory.hpp:77] Creating layer inception_3b/relu_5x5_reduce
I0403 19:23:38.964956  9183 net.cpp:91] Creating Layer inception_3b/relu_5x5_reduce
I0403 19:23:38.964972  9183 net.cpp:425] inception_3b/relu_5x5_reduce <- inception_3b/5x5_reduce
I0403 19:23:38.964992  9183 net.cpp:386] inception_3b/relu_5x5_reduce -> inception_3b/5x5_reduce (in-place)
I0403 19:23:38.965173  9183 net.cpp:141] Setting up inception_3b/relu_5x5_reduce
I0403 19:23:38.965219  9183 net.cpp:148] Top shape: 24 32 28 28 (602112)
I0403 19:23:38.965240  9183 net.cpp:156] Memory required for data: 729760800
I0403 19:23:38.965260  9183 layer_factory.hpp:77] Creating layer inception_3b/5x5
I0403 19:23:38.965288  9183 net.cpp:91] Creating Layer inception_3b/5x5
I0403 19:23:38.965307  9183 net.cpp:425] inception_3b/5x5 <- inception_3b/5x5_reduce
I0403 19:23:38.965328  9183 net.cpp:399] inception_3b/5x5 -> inception_3b/5x5
I0403 19:23:38.967336  9183 net.cpp:141] Setting up inception_3b/5x5
I0403 19:23:38.967368  9183 net.cpp:148] Top shape: 24 96 28 28 (1806336)
I0403 19:23:38.967386  9183 net.cpp:156] Memory required for data: 736986144
I0403 19:23:38.967404  9183 layer_factory.hpp:77] Creating layer inception_3b/relu_5x5
I0403 19:23:38.967423  9183 net.cpp:91] Creating Layer inception_3b/relu_5x5
I0403 19:23:38.967440  9183 net.cpp:425] inception_3b/relu_5x5 <- inception_3b/5x5
I0403 19:23:38.967458  9183 net.cpp:386] inception_3b/relu_5x5 -> inception_3b/5x5 (in-place)
I0403 19:23:38.967651  9183 net.cpp:141] Setting up inception_3b/relu_5x5
I0403 19:23:38.967677  9183 net.cpp:148] Top shape: 24 96 28 28 (1806336)
I0403 19:23:38.967692  9183 net.cpp:156] Memory required for data: 744211488
I0403 19:23:38.967710  9183 layer_factory.hpp:77] Creating layer inception_3b/pool
I0403 19:23:38.967727  9183 net.cpp:91] Creating Layer inception_3b/pool
I0403 19:23:38.967744  9183 net.cpp:425] inception_3b/pool <- inception_3a/output_inception_3a/output_0_split_3
I0403 19:23:38.967763  9183 net.cpp:399] inception_3b/pool -> inception_3b/pool
I0403 19:23:38.967819  9183 net.cpp:141] Setting up inception_3b/pool
I0403 19:23:38.967846  9183 net.cpp:148] Top shape: 24 256 28 28 (4816896)
I0403 19:23:38.967864  9183 net.cpp:156] Memory required for data: 763479072
I0403 19:23:38.967878  9183 layer_factory.hpp:77] Creating layer inception_3b/pool_proj
I0403 19:23:38.967901  9183 net.cpp:91] Creating Layer inception_3b/pool_proj
I0403 19:23:38.967919  9183 net.cpp:425] inception_3b/pool_proj <- inception_3b/pool
I0403 19:23:38.967938  9183 net.cpp:399] inception_3b/pool_proj -> inception_3b/pool_proj
I0403 19:23:38.969033  9183 net.cpp:141] Setting up inception_3b/pool_proj
I0403 19:23:38.969063  9183 net.cpp:148] Top shape: 24 64 28 28 (1204224)
I0403 19:23:38.969082  9183 net.cpp:156] Memory required for data: 768295968
I0403 19:23:38.969102  9183 layer_factory.hpp:77] Creating layer inception_3b/relu_pool_proj
I0403 19:23:38.969126  9183 net.cpp:91] Creating Layer inception_3b/relu_pool_proj
I0403 19:23:38.969144  9183 net.cpp:425] inception_3b/relu_pool_proj <- inception_3b/pool_proj
I0403 19:23:38.969162  9183 net.cpp:386] inception_3b/relu_pool_proj -> inception_3b/pool_proj (in-place)
I0403 19:23:38.969576  9183 net.cpp:141] Setting up inception_3b/relu_pool_proj
I0403 19:23:38.969604  9183 net.cpp:148] Top shape: 24 64 28 28 (1204224)
I0403 19:23:38.969620  9183 net.cpp:156] Memory required for data: 773112864
I0403 19:23:38.969636  9183 layer_factory.hpp:77] Creating layer inception_3b/output
I0403 19:23:38.969655  9183 net.cpp:91] Creating Layer inception_3b/output
I0403 19:23:38.969669  9183 net.cpp:425] inception_3b/output <- inception_3b/1x1
I0403 19:23:38.969687  9183 net.cpp:425] inception_3b/output <- inception_3b/3x3
I0403 19:23:38.969703  9183 net.cpp:425] inception_3b/output <- inception_3b/5x5
I0403 19:23:38.969719  9183 net.cpp:425] inception_3b/output <- inception_3b/pool_proj
I0403 19:23:38.969739  9183 net.cpp:399] inception_3b/output -> inception_3b/output
I0403 19:23:38.969786  9183 net.cpp:141] Setting up inception_3b/output
I0403 19:23:38.969810  9183 net.cpp:148] Top shape: 24 480 28 28 (9031680)
I0403 19:23:38.969825  9183 net.cpp:156] Memory required for data: 809239584
I0403 19:23:38.969841  9183 layer_factory.hpp:77] Creating layer pool3/3x3_s2
I0403 19:23:38.969857  9183 net.cpp:91] Creating Layer pool3/3x3_s2
I0403 19:23:38.969873  9183 net.cpp:425] pool3/3x3_s2 <- inception_3b/output
I0403 19:23:38.969894  9183 net.cpp:399] pool3/3x3_s2 -> pool3/3x3_s2
I0403 19:23:38.969969  9183 net.cpp:141] Setting up pool3/3x3_s2
I0403 19:23:38.969992  9183 net.cpp:148] Top shape: 24 480 14 14 (2257920)
I0403 19:23:38.970007  9183 net.cpp:156] Memory required for data: 818271264
I0403 19:23:38.970021  9183 layer_factory.hpp:77] Creating layer pool3/3x3_s2_pool3/3x3_s2_0_split
I0403 19:23:38.970041  9183 net.cpp:91] Creating Layer pool3/3x3_s2_pool3/3x3_s2_0_split
I0403 19:23:38.970058  9183 net.cpp:425] pool3/3x3_s2_pool3/3x3_s2_0_split <- pool3/3x3_s2
I0403 19:23:38.970077  9183 net.cpp:399] pool3/3x3_s2_pool3/3x3_s2_0_split -> pool3/3x3_s2_pool3/3x3_s2_0_split_0
I0403 19:23:38.970095  9183 net.cpp:399] pool3/3x3_s2_pool3/3x3_s2_0_split -> pool3/3x3_s2_pool3/3x3_s2_0_split_1
I0403 19:23:38.970119  9183 net.cpp:399] pool3/3x3_s2_pool3/3x3_s2_0_split -> pool3/3x3_s2_pool3/3x3_s2_0_split_2
I0403 19:23:38.970139  9183 net.cpp:399] pool3/3x3_s2_pool3/3x3_s2_0_split -> pool3/3x3_s2_pool3/3x3_s2_0_split_3
I0403 19:23:38.970216  9183 net.cpp:141] Setting up pool3/3x3_s2_pool3/3x3_s2_0_split
I0403 19:23:38.970239  9183 net.cpp:148] Top shape: 24 480 14 14 (2257920)
I0403 19:23:38.970257  9183 net.cpp:148] Top shape: 24 480 14 14 (2257920)
I0403 19:23:38.970276  9183 net.cpp:148] Top shape: 24 480 14 14 (2257920)
I0403 19:23:38.970294  9183 net.cpp:148] Top shape: 24 480 14 14 (2257920)
I0403 19:23:38.970309  9183 net.cpp:156] Memory required for data: 854397984
I0403 19:23:38.970324  9183 layer_factory.hpp:77] Creating layer inception_4a/1x1
I0403 19:23:38.970347  9183 net.cpp:91] Creating Layer inception_4a/1x1
I0403 19:23:38.970365  9183 net.cpp:425] inception_4a/1x1 <- pool3/3x3_s2_pool3/3x3_s2_0_split_0
I0403 19:23:38.970386  9183 net.cpp:399] inception_4a/1x1 -> inception_4a/1x1
I0403 19:23:38.971987  9183 net.cpp:141] Setting up inception_4a/1x1
I0403 19:23:38.972018  9183 net.cpp:148] Top shape: 24 192 14 14 (903168)
I0403 19:23:38.972033  9183 net.cpp:156] Memory required for data: 858010656
I0403 19:23:38.972053  9183 layer_factory.hpp:77] Creating layer inception_4a/relu_1x1
I0403 19:23:38.972074  9183 net.cpp:91] Creating Layer inception_4a/relu_1x1
I0403 19:23:38.972090  9183 net.cpp:425] inception_4a/relu_1x1 <- inception_4a/1x1
I0403 19:23:38.972108  9183 net.cpp:386] inception_4a/relu_1x1 -> inception_4a/1x1 (in-place)
I0403 19:23:38.972318  9183 net.cpp:141] Setting up inception_4a/relu_1x1
I0403 19:23:38.972347  9183 net.cpp:148] Top shape: 24 192 14 14 (903168)
I0403 19:23:38.972363  9183 net.cpp:156] Memory required for data: 861623328
I0403 19:23:38.972379  9183 layer_factory.hpp:77] Creating layer inception_4a/3x3_reduce
I0403 19:23:38.972404  9183 net.cpp:91] Creating Layer inception_4a/3x3_reduce
I0403 19:23:38.972421  9183 net.cpp:425] inception_4a/3x3_reduce <- pool3/3x3_s2_pool3/3x3_s2_0_split_1
I0403 19:23:38.972442  9183 net.cpp:399] inception_4a/3x3_reduce -> inception_4a/3x3_reduce
I0403 19:23:38.973760  9183 net.cpp:141] Setting up inception_4a/3x3_reduce
I0403 19:23:38.973788  9183 net.cpp:148] Top shape: 24 96 14 14 (451584)
I0403 19:23:38.973804  9183 net.cpp:156] Memory required for data: 863429664
I0403 19:23:38.973829  9183 layer_factory.hpp:77] Creating layer inception_4a/relu_3x3_reduce
I0403 19:23:38.973851  9183 net.cpp:91] Creating Layer inception_4a/relu_3x3_reduce
I0403 19:23:38.973868  9183 net.cpp:425] inception_4a/relu_3x3_reduce <- inception_4a/3x3_reduce
I0403 19:23:38.973886  9183 net.cpp:386] inception_4a/relu_3x3_reduce -> inception_4a/3x3_reduce (in-place)
I0403 19:23:38.974063  9183 net.cpp:141] Setting up inception_4a/relu_3x3_reduce
I0403 19:23:38.974092  9183 net.cpp:148] Top shape: 24 96 14 14 (451584)
I0403 19:23:38.974107  9183 net.cpp:156] Memory required for data: 865236000
I0403 19:23:38.974123  9183 layer_factory.hpp:77] Creating layer inception_4a/3x3
I0403 19:23:38.974144  9183 net.cpp:91] Creating Layer inception_4a/3x3
I0403 19:23:38.974164  9183 net.cpp:425] inception_4a/3x3 <- inception_4a/3x3_reduce
I0403 19:23:38.974185  9183 net.cpp:399] inception_4a/3x3 -> inception_4a/3x3
I0403 19:23:38.976902  9183 net.cpp:141] Setting up inception_4a/3x3
I0403 19:23:38.976934  9183 net.cpp:148] Top shape: 24 208 14 14 (978432)
I0403 19:23:38.976951  9183 net.cpp:156] Memory required for data: 869149728
I0403 19:23:38.976971  9183 layer_factory.hpp:77] Creating layer inception_4a/relu_3x3
I0403 19:23:38.976990  9183 net.cpp:91] Creating Layer inception_4a/relu_3x3
I0403 19:23:38.977006  9183 net.cpp:425] inception_4a/relu_3x3 <- inception_4a/3x3
I0403 19:23:38.977023  9183 net.cpp:386] inception_4a/relu_3x3 -> inception_4a/3x3 (in-place)
I0403 19:23:38.977313  9183 net.cpp:141] Setting up inception_4a/relu_3x3
I0403 19:23:38.977344  9183 net.cpp:148] Top shape: 24 208 14 14 (978432)
I0403 19:23:38.977360  9183 net.cpp:156] Memory required for data: 873063456
I0403 19:23:38.977375  9183 layer_factory.hpp:77] Creating layer inception_4a/5x5_reduce
I0403 19:23:38.977397  9183 net.cpp:91] Creating Layer inception_4a/5x5_reduce
I0403 19:23:38.977414  9183 net.cpp:425] inception_4a/5x5_reduce <- pool3/3x3_s2_pool3/3x3_s2_0_split_2
I0403 19:23:38.977434  9183 net.cpp:399] inception_4a/5x5_reduce -> inception_4a/5x5_reduce
I0403 19:23:38.978504  9183 net.cpp:141] Setting up inception_4a/5x5_reduce
I0403 19:23:38.978533  9183 net.cpp:148] Top shape: 24 16 14 14 (75264)
I0403 19:23:38.978550  9183 net.cpp:156] Memory required for data: 873364512
I0403 19:23:38.978569  9183 layer_factory.hpp:77] Creating layer inception_4a/relu_5x5_reduce
I0403 19:23:38.978588  9183 net.cpp:91] Creating Layer inception_4a/relu_5x5_reduce
I0403 19:23:38.978605  9183 net.cpp:425] inception_4a/relu_5x5_reduce <- inception_4a/5x5_reduce
I0403 19:23:38.978626  9183 net.cpp:386] inception_4a/relu_5x5_reduce -> inception_4a/5x5_reduce (in-place)
I0403 19:23:38.978806  9183 net.cpp:141] Setting up inception_4a/relu_5x5_reduce
I0403 19:23:38.978833  9183 net.cpp:148] Top shape: 24 16 14 14 (75264)
I0403 19:23:38.978848  9183 net.cpp:156] Memory required for data: 873665568
I0403 19:23:38.978864  9183 layer_factory.hpp:77] Creating layer inception_4a/5x5
I0403 19:23:38.978888  9183 net.cpp:91] Creating Layer inception_4a/5x5
I0403 19:23:38.978907  9183 net.cpp:425] inception_4a/5x5 <- inception_4a/5x5_reduce
I0403 19:23:38.978929  9183 net.cpp:399] inception_4a/5x5 -> inception_4a/5x5
I0403 19:23:38.980026  9183 net.cpp:141] Setting up inception_4a/5x5
I0403 19:23:38.980056  9183 net.cpp:148] Top shape: 24 48 14 14 (225792)
I0403 19:23:38.980072  9183 net.cpp:156] Memory required for data: 874568736
I0403 19:23:38.980092  9183 layer_factory.hpp:77] Creating layer inception_4a/relu_5x5
I0403 19:23:38.980113  9183 net.cpp:91] Creating Layer inception_4a/relu_5x5
I0403 19:23:38.980130  9183 net.cpp:425] inception_4a/relu_5x5 <- inception_4a/5x5
I0403 19:23:38.980149  9183 net.cpp:386] inception_4a/relu_5x5 -> inception_4a/5x5 (in-place)
I0403 19:23:38.980350  9183 net.cpp:141] Setting up inception_4a/relu_5x5
I0403 19:23:38.980379  9183 net.cpp:148] Top shape: 24 48 14 14 (225792)
I0403 19:23:38.980396  9183 net.cpp:156] Memory required for data: 875471904
I0403 19:23:38.980412  9183 layer_factory.hpp:77] Creating layer inception_4a/pool
I0403 19:23:38.980430  9183 net.cpp:91] Creating Layer inception_4a/pool
I0403 19:23:38.980446  9183 net.cpp:425] inception_4a/pool <- pool3/3x3_s2_pool3/3x3_s2_0_split_3
I0403 19:23:38.980465  9183 net.cpp:399] inception_4a/pool -> inception_4a/pool
I0403 19:23:38.980542  9183 net.cpp:141] Setting up inception_4a/pool
I0403 19:23:38.980566  9183 net.cpp:148] Top shape: 24 480 14 14 (2257920)
I0403 19:23:38.980581  9183 net.cpp:156] Memory required for data: 884503584
I0403 19:23:38.980597  9183 layer_factory.hpp:77] Creating layer inception_4a/pool_proj
I0403 19:23:38.980619  9183 net.cpp:91] Creating Layer inception_4a/pool_proj
I0403 19:23:38.980638  9183 net.cpp:425] inception_4a/pool_proj <- inception_4a/pool
I0403 19:23:38.980659  9183 net.cpp:399] inception_4a/pool_proj -> inception_4a/pool_proj
I0403 19:23:38.981843  9183 net.cpp:141] Setting up inception_4a/pool_proj
I0403 19:23:38.981873  9183 net.cpp:148] Top shape: 24 64 14 14 (301056)
I0403 19:23:38.981904  9183 net.cpp:156] Memory required for data: 885707808
I0403 19:23:38.981923  9183 layer_factory.hpp:77] Creating layer inception_4a/relu_pool_proj
I0403 19:23:38.981946  9183 net.cpp:91] Creating Layer inception_4a/relu_pool_proj
I0403 19:23:38.981964  9183 net.cpp:425] inception_4a/relu_pool_proj <- inception_4a/pool_proj
I0403 19:23:38.981983  9183 net.cpp:386] inception_4a/relu_pool_proj -> inception_4a/pool_proj (in-place)
I0403 19:23:38.982295  9183 net.cpp:141] Setting up inception_4a/relu_pool_proj
I0403 19:23:38.982332  9183 net.cpp:148] Top shape: 24 64 14 14 (301056)
I0403 19:23:38.982348  9183 net.cpp:156] Memory required for data: 886912032
I0403 19:23:38.982363  9183 layer_factory.hpp:77] Creating layer inception_4a/output
I0403 19:23:38.982384  9183 net.cpp:91] Creating Layer inception_4a/output
I0403 19:23:38.982403  9183 net.cpp:425] inception_4a/output <- inception_4a/1x1
I0403 19:23:38.982420  9183 net.cpp:425] inception_4a/output <- inception_4a/3x3
I0403 19:23:38.982436  9183 net.cpp:425] inception_4a/output <- inception_4a/5x5
I0403 19:23:38.982453  9183 net.cpp:425] inception_4a/output <- inception_4a/pool_proj
I0403 19:23:38.982471  9183 net.cpp:399] inception_4a/output -> inception_4a/output
I0403 19:23:38.982519  9183 net.cpp:141] Setting up inception_4a/output
I0403 19:23:38.982544  9183 net.cpp:148] Top shape: 24 512 14 14 (2408448)
I0403 19:23:38.982570  9183 net.cpp:156] Memory required for data: 896545824
I0403 19:23:38.982585  9183 layer_factory.hpp:77] Creating layer inception_4a/output_inception_4a/output_0_split
I0403 19:23:38.982604  9183 net.cpp:91] Creating Layer inception_4a/output_inception_4a/output_0_split
I0403 19:23:38.982620  9183 net.cpp:425] inception_4a/output_inception_4a/output_0_split <- inception_4a/output
I0403 19:23:38.982640  9183 net.cpp:399] inception_4a/output_inception_4a/output_0_split -> inception_4a/output_inception_4a/output_0_split_0
I0403 19:23:38.982662  9183 net.cpp:399] inception_4a/output_inception_4a/output_0_split -> inception_4a/output_inception_4a/output_0_split_1
I0403 19:23:38.982683  9183 net.cpp:399] inception_4a/output_inception_4a/output_0_split -> inception_4a/output_inception_4a/output_0_split_2
I0403 19:23:38.982705  9183 net.cpp:399] inception_4a/output_inception_4a/output_0_split -> inception_4a/output_inception_4a/output_0_split_3
I0403 19:23:38.982725  9183 net.cpp:399] inception_4a/output_inception_4a/output_0_split -> inception_4a/output_inception_4a/output_0_split_4
I0403 19:23:38.982820  9183 net.cpp:141] Setting up inception_4a/output_inception_4a/output_0_split
I0403 19:23:38.982844  9183 net.cpp:148] Top shape: 24 512 14 14 (2408448)
I0403 19:23:38.982861  9183 net.cpp:148] Top shape: 24 512 14 14 (2408448)
I0403 19:23:38.982877  9183 net.cpp:148] Top shape: 24 512 14 14 (2408448)
I0403 19:23:38.982893  9183 net.cpp:148] Top shape: 24 512 14 14 (2408448)
I0403 19:23:38.982909  9183 net.cpp:148] Top shape: 24 512 14 14 (2408448)
I0403 19:23:38.982923  9183 net.cpp:156] Memory required for data: 944714784
I0403 19:23:38.982939  9183 layer_factory.hpp:77] Creating layer loss1/ave_pool
I0403 19:23:38.982956  9183 net.cpp:91] Creating Layer loss1/ave_pool
I0403 19:23:38.982972  9183 net.cpp:425] loss1/ave_pool <- inception_4a/output_inception_4a/output_0_split_0
I0403 19:23:38.982993  9183 net.cpp:399] loss1/ave_pool -> loss1/ave_pool
I0403 19:23:38.983206  9183 net.cpp:141] Setting up loss1/ave_pool
I0403 19:23:38.983232  9183 net.cpp:148] Top shape: 24 512 4 4 (196608)
I0403 19:23:38.983247  9183 net.cpp:156] Memory required for data: 945501216
I0403 19:23:38.983261  9183 layer_factory.hpp:77] Creating layer loss1/conv
I0403 19:23:38.983289  9183 net.cpp:91] Creating Layer loss1/conv
I0403 19:23:38.983309  9183 net.cpp:425] loss1/conv <- loss1/ave_pool
I0403 19:23:38.983330  9183 net.cpp:399] loss1/conv -> loss1/conv
I0403 19:23:38.984830  9183 net.cpp:141] Setting up loss1/conv
I0403 19:23:38.984863  9183 net.cpp:148] Top shape: 24 128 4 4 (49152)
I0403 19:23:38.984881  9183 net.cpp:156] Memory required for data: 945697824
I0403 19:23:38.984917  9183 layer_factory.hpp:77] Creating layer loss1/relu_conv
I0403 19:23:38.984938  9183 net.cpp:91] Creating Layer loss1/relu_conv
I0403 19:23:38.984954  9183 net.cpp:425] loss1/relu_conv <- loss1/conv
I0403 19:23:38.984975  9183 net.cpp:386] loss1/relu_conv -> loss1/conv (in-place)
I0403 19:23:38.985277  9183 net.cpp:141] Setting up loss1/relu_conv
I0403 19:23:38.985309  9183 net.cpp:148] Top shape: 24 128 4 4 (49152)
I0403 19:23:38.985327  9183 net.cpp:156] Memory required for data: 945894432
I0403 19:23:38.985355  9183 layer_factory.hpp:77] Creating layer loss1/fc
I0403 19:23:38.985379  9183 net.cpp:91] Creating Layer loss1/fc
I0403 19:23:38.985397  9183 net.cpp:425] loss1/fc <- loss1/conv
I0403 19:23:38.985419  9183 net.cpp:399] loss1/fc -> loss1/fc
I0403 19:23:39.003486  9183 net.cpp:141] Setting up loss1/fc
I0403 19:23:39.003525  9183 net.cpp:148] Top shape: 24 1024 (24576)
I0403 19:23:39.003541  9183 net.cpp:156] Memory required for data: 945992736
I0403 19:23:39.003561  9183 layer_factory.hpp:77] Creating layer loss1/relu_fc
I0403 19:23:39.003579  9183 net.cpp:91] Creating Layer loss1/relu_fc
I0403 19:23:39.003594  9183 net.cpp:425] loss1/relu_fc <- loss1/fc
I0403 19:23:39.003612  9183 net.cpp:386] loss1/relu_fc -> loss1/fc (in-place)
I0403 19:23:39.003803  9183 net.cpp:141] Setting up loss1/relu_fc
I0403 19:23:39.003831  9183 net.cpp:148] Top shape: 24 1024 (24576)
I0403 19:23:39.003847  9183 net.cpp:156] Memory required for data: 946091040
I0403 19:23:39.003864  9183 layer_factory.hpp:77] Creating layer loss1/drop_fc
I0403 19:23:39.003890  9183 net.cpp:91] Creating Layer loss1/drop_fc
I0403 19:23:39.003907  9183 net.cpp:425] loss1/drop_fc <- loss1/fc
I0403 19:23:39.003926  9183 net.cpp:386] loss1/drop_fc -> loss1/fc (in-place)
I0403 19:23:39.003978  9183 net.cpp:141] Setting up loss1/drop_fc
I0403 19:23:39.004003  9183 net.cpp:148] Top shape: 24 1024 (24576)
I0403 19:23:39.004016  9183 net.cpp:156] Memory required for data: 946189344
I0403 19:23:39.004031  9183 layer_factory.hpp:77] Creating layer loss1/classifier_plantvillage
I0403 19:23:39.004056  9183 net.cpp:91] Creating Layer loss1/classifier_plantvillage
I0403 19:23:39.004073  9183 net.cpp:425] loss1/classifier_plantvillage <- loss1/fc
I0403 19:23:39.004091  9183 net.cpp:399] loss1/classifier_plantvillage -> loss1/classifier_plantvillage
I0403 19:23:39.005020  9183 net.cpp:141] Setting up loss1/classifier_plantvillage
I0403 19:23:39.005051  9183 net.cpp:148] Top shape: 24 38 (912)
I0403 19:23:39.005070  9183 net.cpp:156] Memory required for data: 946192992
I0403 19:23:39.005089  9183 layer_factory.hpp:77] Creating layer loss1/classifier_plantvillage_loss1/classifier_plantvillage_0_split
I0403 19:23:39.005108  9183 net.cpp:91] Creating Layer loss1/classifier_plantvillage_loss1/classifier_plantvillage_0_split
I0403 19:23:39.005123  9183 net.cpp:425] loss1/classifier_plantvillage_loss1/classifier_plantvillage_0_split <- loss1/classifier_plantvillage
I0403 19:23:39.005141  9183 net.cpp:399] loss1/classifier_plantvillage_loss1/classifier_plantvillage_0_split -> loss1/classifier_plantvillage_loss1/classifier_plantvillage_0_split_0
I0403 19:23:39.005162  9183 net.cpp:399] loss1/classifier_plantvillage_loss1/classifier_plantvillage_0_split -> loss1/classifier_plantvillage_loss1/classifier_plantvillage_0_split_1
I0403 19:23:39.005184  9183 net.cpp:399] loss1/classifier_plantvillage_loss1/classifier_plantvillage_0_split -> loss1/classifier_plantvillage_loss1/classifier_plantvillage_0_split_2
I0403 19:23:39.005250  9183 net.cpp:141] Setting up loss1/classifier_plantvillage_loss1/classifier_plantvillage_0_split
I0403 19:23:39.005278  9183 net.cpp:148] Top shape: 24 38 (912)
I0403 19:23:39.005297  9183 net.cpp:148] Top shape: 24 38 (912)
I0403 19:23:39.005312  9183 net.cpp:148] Top shape: 24 38 (912)
I0403 19:23:39.005326  9183 net.cpp:156] Memory required for data: 946203936
I0403 19:23:39.005341  9183 layer_factory.hpp:77] Creating layer inception_4b/1x1
I0403 19:23:39.005362  9183 net.cpp:91] Creating Layer inception_4b/1x1
I0403 19:23:39.005395  9183 net.cpp:425] inception_4b/1x1 <- inception_4a/output_inception_4a/output_0_split_1
I0403 19:23:39.005419  9183 net.cpp:399] inception_4b/1x1 -> inception_4b/1x1
I0403 19:23:39.007058  9183 net.cpp:141] Setting up inception_4b/1x1
I0403 19:23:39.007087  9183 net.cpp:148] Top shape: 24 160 14 14 (752640)
I0403 19:23:39.007104  9183 net.cpp:156] Memory required for data: 949214496
I0403 19:23:39.007123  9183 layer_factory.hpp:77] Creating layer inception_4b/relu_1x1
I0403 19:23:39.007143  9183 net.cpp:91] Creating Layer inception_4b/relu_1x1
I0403 19:23:39.007158  9183 net.cpp:425] inception_4b/relu_1x1 <- inception_4b/1x1
I0403 19:23:39.007179  9183 net.cpp:386] inception_4b/relu_1x1 -> inception_4b/1x1 (in-place)
I0403 19:23:39.007361  9183 net.cpp:141] Setting up inception_4b/relu_1x1
I0403 19:23:39.007386  9183 net.cpp:148] Top shape: 24 160 14 14 (752640)
I0403 19:23:39.007401  9183 net.cpp:156] Memory required for data: 952225056
I0403 19:23:39.007416  9183 layer_factory.hpp:77] Creating layer inception_4b/3x3_reduce
I0403 19:23:39.007437  9183 net.cpp:91] Creating Layer inception_4b/3x3_reduce
I0403 19:23:39.007454  9183 net.cpp:425] inception_4b/3x3_reduce <- inception_4a/output_inception_4a/output_0_split_2
I0403 19:23:39.007475  9183 net.cpp:399] inception_4b/3x3_reduce -> inception_4b/3x3_reduce
I0403 19:23:39.008811  9183 net.cpp:141] Setting up inception_4b/3x3_reduce
I0403 19:23:39.008838  9183 net.cpp:148] Top shape: 24 112 14 14 (526848)
I0403 19:23:39.008853  9183 net.cpp:156] Memory required for data: 954332448
I0403 19:23:39.008872  9183 layer_factory.hpp:77] Creating layer inception_4b/relu_3x3_reduce
I0403 19:23:39.008891  9183 net.cpp:91] Creating Layer inception_4b/relu_3x3_reduce
I0403 19:23:39.008909  9183 net.cpp:425] inception_4b/relu_3x3_reduce <- inception_4b/3x3_reduce
I0403 19:23:39.008925  9183 net.cpp:386] inception_4b/relu_3x3_reduce -> inception_4b/3x3_reduce (in-place)
I0403 19:23:39.009202  9183 net.cpp:141] Setting up inception_4b/relu_3x3_reduce
I0403 19:23:39.009228  9183 net.cpp:148] Top shape: 24 112 14 14 (526848)
I0403 19:23:39.009243  9183 net.cpp:156] Memory required for data: 956439840
I0403 19:23:39.009264  9183 layer_factory.hpp:77] Creating layer inception_4b/3x3
I0403 19:23:39.009294  9183 net.cpp:91] Creating Layer inception_4b/3x3
I0403 19:23:39.009313  9183 net.cpp:425] inception_4b/3x3 <- inception_4b/3x3_reduce
I0403 19:23:39.009337  9183 net.cpp:399] inception_4b/3x3 -> inception_4b/3x3
I0403 19:23:39.012316  9183 net.cpp:141] Setting up inception_4b/3x3
I0403 19:23:39.012347  9183 net.cpp:148] Top shape: 24 224 14 14 (1053696)
I0403 19:23:39.012367  9183 net.cpp:156] Memory required for data: 960654624
I0403 19:23:39.012385  9183 layer_factory.hpp:77] Creating layer inception_4b/relu_3x3
I0403 19:23:39.012403  9183 net.cpp:91] Creating Layer inception_4b/relu_3x3
I0403 19:23:39.012419  9183 net.cpp:425] inception_4b/relu_3x3 <- inception_4b/3x3
I0403 19:23:39.012437  9183 net.cpp:386] inception_4b/relu_3x3 -> inception_4b/3x3 (in-place)
I0403 19:23:39.012612  9183 net.cpp:141] Setting up inception_4b/relu_3x3
I0403 19:23:39.012639  9183 net.cpp:148] Top shape: 24 224 14 14 (1053696)
I0403 19:23:39.012662  9183 net.cpp:156] Memory required for data: 964869408
I0403 19:23:39.012676  9183 layer_factory.hpp:77] Creating layer inception_4b/5x5_reduce
I0403 19:23:39.012697  9183 net.cpp:91] Creating Layer inception_4b/5x5_reduce
I0403 19:23:39.012714  9183 net.cpp:425] inception_4b/5x5_reduce <- inception_4a/output_inception_4a/output_0_split_3
I0403 19:23:39.012732  9183 net.cpp:399] inception_4b/5x5_reduce -> inception_4b/5x5_reduce
I0403 19:23:39.013785  9183 net.cpp:141] Setting up inception_4b/5x5_reduce
I0403 19:23:39.013813  9183 net.cpp:148] Top shape: 24 24 14 14 (112896)
I0403 19:23:39.013828  9183 net.cpp:156] Memory required for data: 965320992
I0403 19:23:39.013844  9183 layer_factory.hpp:77] Creating layer inception_4b/relu_5x5_reduce
I0403 19:23:39.013864  9183 net.cpp:91] Creating Layer inception_4b/relu_5x5_reduce
I0403 19:23:39.013893  9183 net.cpp:425] inception_4b/relu_5x5_reduce <- inception_4b/5x5_reduce
I0403 19:23:39.013913  9183 net.cpp:386] inception_4b/relu_5x5_reduce -> inception_4b/5x5_reduce (in-place)
I0403 19:23:39.014088  9183 net.cpp:141] Setting up inception_4b/relu_5x5_reduce
I0403 19:23:39.014112  9183 net.cpp:148] Top shape: 24 24 14 14 (112896)
I0403 19:23:39.014127  9183 net.cpp:156] Memory required for data: 965772576
I0403 19:23:39.014140  9183 layer_factory.hpp:77] Creating layer inception_4b/5x5
I0403 19:23:39.014161  9183 net.cpp:91] Creating Layer inception_4b/5x5
I0403 19:23:39.014178  9183 net.cpp:425] inception_4b/5x5 <- inception_4b/5x5_reduce
I0403 19:23:39.014199  9183 net.cpp:399] inception_4b/5x5 -> inception_4b/5x5
I0403 19:23:39.015416  9183 net.cpp:141] Setting up inception_4b/5x5
I0403 19:23:39.015444  9183 net.cpp:148] Top shape: 24 64 14 14 (301056)
I0403 19:23:39.015458  9183 net.cpp:156] Memory required for data: 966976800
I0403 19:23:39.015476  9183 layer_factory.hpp:77] Creating layer inception_4b/relu_5x5
I0403 19:23:39.015493  9183 net.cpp:91] Creating Layer inception_4b/relu_5x5
I0403 19:23:39.015508  9183 net.cpp:425] inception_4b/relu_5x5 <- inception_4b/5x5
I0403 19:23:39.015527  9183 net.cpp:386] inception_4b/relu_5x5 -> inception_4b/5x5 (in-place)
I0403 19:23:39.015801  9183 net.cpp:141] Setting up inception_4b/relu_5x5
I0403 19:23:39.015826  9183 net.cpp:148] Top shape: 24 64 14 14 (301056)
I0403 19:23:39.015841  9183 net.cpp:156] Memory required for data: 968181024
I0403 19:23:39.015854  9183 layer_factory.hpp:77] Creating layer inception_4b/pool
I0403 19:23:39.015872  9183 net.cpp:91] Creating Layer inception_4b/pool
I0403 19:23:39.015888  9183 net.cpp:425] inception_4b/pool <- inception_4a/output_inception_4a/output_0_split_4
I0403 19:23:39.015911  9183 net.cpp:399] inception_4b/pool -> inception_4b/pool
I0403 19:23:39.015974  9183 net.cpp:141] Setting up inception_4b/pool
I0403 19:23:39.015996  9183 net.cpp:148] Top shape: 24 512 14 14 (2408448)
I0403 19:23:39.016010  9183 net.cpp:156] Memory required for data: 977814816
I0403 19:23:39.016026  9183 layer_factory.hpp:77] Creating layer inception_4b/pool_proj
I0403 19:23:39.016048  9183 net.cpp:91] Creating Layer inception_4b/pool_proj
I0403 19:23:39.016064  9183 net.cpp:425] inception_4b/pool_proj <- inception_4b/pool
I0403 19:23:39.016083  9183 net.cpp:399] inception_4b/pool_proj -> inception_4b/pool_proj
I0403 19:23:39.017241  9183 net.cpp:141] Setting up inception_4b/pool_proj
I0403 19:23:39.017269  9183 net.cpp:148] Top shape: 24 64 14 14 (301056)
I0403 19:23:39.017293  9183 net.cpp:156] Memory required for data: 979019040
I0403 19:23:39.017313  9183 layer_factory.hpp:77] Creating layer inception_4b/relu_pool_proj
I0403 19:23:39.017329  9183 net.cpp:91] Creating Layer inception_4b/relu_pool_proj
I0403 19:23:39.017346  9183 net.cpp:425] inception_4b/relu_pool_proj <- inception_4b/pool_proj
I0403 19:23:39.017367  9183 net.cpp:386] inception_4b/relu_pool_proj -> inception_4b/pool_proj (in-place)
I0403 19:23:39.017556  9183 net.cpp:141] Setting up inception_4b/relu_pool_proj
I0403 19:23:39.017582  9183 net.cpp:148] Top shape: 24 64 14 14 (301056)
I0403 19:23:39.017597  9183 net.cpp:156] Memory required for data: 980223264
I0403 19:23:39.017612  9183 layer_factory.hpp:77] Creating layer inception_4b/output
I0403 19:23:39.017633  9183 net.cpp:91] Creating Layer inception_4b/output
I0403 19:23:39.017649  9183 net.cpp:425] inception_4b/output <- inception_4b/1x1
I0403 19:23:39.017668  9183 net.cpp:425] inception_4b/output <- inception_4b/3x3
I0403 19:23:39.017686  9183 net.cpp:425] inception_4b/output <- inception_4b/5x5
I0403 19:23:39.017709  9183 net.cpp:425] inception_4b/output <- inception_4b/pool_proj
I0403 19:23:39.017726  9183 net.cpp:399] inception_4b/output -> inception_4b/output
I0403 19:23:39.017772  9183 net.cpp:141] Setting up inception_4b/output
I0403 19:23:39.017796  9183 net.cpp:148] Top shape: 24 512 14 14 (2408448)
I0403 19:23:39.017812  9183 net.cpp:156] Memory required for data: 989857056
I0403 19:23:39.017839  9183 layer_factory.hpp:77] Creating layer inception_4b/output_inception_4b/output_0_split
I0403 19:23:39.017859  9183 net.cpp:91] Creating Layer inception_4b/output_inception_4b/output_0_split
I0403 19:23:39.017874  9183 net.cpp:425] inception_4b/output_inception_4b/output_0_split <- inception_4b/output
I0403 19:23:39.017894  9183 net.cpp:399] inception_4b/output_inception_4b/output_0_split -> inception_4b/output_inception_4b/output_0_split_0
I0403 19:23:39.017915  9183 net.cpp:399] inception_4b/output_inception_4b/output_0_split -> inception_4b/output_inception_4b/output_0_split_1
I0403 19:23:39.017935  9183 net.cpp:399] inception_4b/output_inception_4b/output_0_split -> inception_4b/output_inception_4b/output_0_split_2
I0403 19:23:39.017956  9183 net.cpp:399] inception_4b/output_inception_4b/output_0_split -> inception_4b/output_inception_4b/output_0_split_3
I0403 19:23:39.018035  9183 net.cpp:141] Setting up inception_4b/output_inception_4b/output_0_split
I0403 19:23:39.018060  9183 net.cpp:148] Top shape: 24 512 14 14 (2408448)
I0403 19:23:39.018077  9183 net.cpp:148] Top shape: 24 512 14 14 (2408448)
I0403 19:23:39.018093  9183 net.cpp:148] Top shape: 24 512 14 14 (2408448)
I0403 19:23:39.018108  9183 net.cpp:148] Top shape: 24 512 14 14 (2408448)
I0403 19:23:39.018122  9183 net.cpp:156] Memory required for data: 1028392224
I0403 19:23:39.018136  9183 layer_factory.hpp:77] Creating layer inception_4c/1x1
I0403 19:23:39.018159  9183 net.cpp:91] Creating Layer inception_4c/1x1
I0403 19:23:39.018177  9183 net.cpp:425] inception_4c/1x1 <- inception_4b/output_inception_4b/output_0_split_0
I0403 19:23:39.018194  9183 net.cpp:399] inception_4c/1x1 -> inception_4c/1x1
I0403 19:23:39.019661  9183 net.cpp:141] Setting up inception_4c/1x1
I0403 19:23:39.019690  9183 net.cpp:148] Top shape: 24 128 14 14 (602112)
I0403 19:23:39.019704  9183 net.cpp:156] Memory required for data: 1030800672
I0403 19:23:39.019722  9183 layer_factory.hpp:77] Creating layer inception_4c/relu_1x1
I0403 19:23:39.019743  9183 net.cpp:91] Creating Layer inception_4c/relu_1x1
I0403 19:23:39.019760  9183 net.cpp:425] inception_4c/relu_1x1 <- inception_4c/1x1
I0403 19:23:39.019778  9183 net.cpp:386] inception_4c/relu_1x1 -> inception_4c/1x1 (in-place)
I0403 19:23:39.019954  9183 net.cpp:141] Setting up inception_4c/relu_1x1
I0403 19:23:39.019982  9183 net.cpp:148] Top shape: 24 128 14 14 (602112)
I0403 19:23:39.019997  9183 net.cpp:156] Memory required for data: 1033209120
I0403 19:23:39.020014  9183 layer_factory.hpp:77] Creating layer inception_4c/3x3_reduce
I0403 19:23:39.020035  9183 net.cpp:91] Creating Layer inception_4c/3x3_reduce
I0403 19:23:39.020052  9183 net.cpp:425] inception_4c/3x3_reduce <- inception_4b/output_inception_4b/output_0_split_1
I0403 19:23:39.020071  9183 net.cpp:399] inception_4c/3x3_reduce -> inception_4c/3x3_reduce
I0403 19:23:39.021991  9183 net.cpp:141] Setting up inception_4c/3x3_reduce
I0403 19:23:39.022022  9183 net.cpp:148] Top shape: 24 128 14 14 (602112)
I0403 19:23:39.022039  9183 net.cpp:156] Memory required for data: 1035617568
I0403 19:23:39.022058  9183 layer_factory.hpp:77] Creating layer inception_4c/relu_3x3_reduce
I0403 19:23:39.022078  9183 net.cpp:91] Creating Layer inception_4c/relu_3x3_reduce
I0403 19:23:39.022094  9183 net.cpp:425] inception_4c/relu_3x3_reduce <- inception_4c/3x3_reduce
I0403 19:23:39.022114  9183 net.cpp:386] inception_4c/relu_3x3_reduce -> inception_4c/3x3_reduce (in-place)
I0403 19:23:39.022413  9183 net.cpp:141] Setting up inception_4c/relu_3x3_reduce
I0403 19:23:39.022444  9183 net.cpp:148] Top shape: 24 128 14 14 (602112)
I0403 19:23:39.022459  9183 net.cpp:156] Memory required for data: 1038026016
I0403 19:23:39.022474  9183 layer_factory.hpp:77] Creating layer inception_4c/3x3
I0403 19:23:39.022497  9183 net.cpp:91] Creating Layer inception_4c/3x3
I0403 19:23:39.022514  9183 net.cpp:425] inception_4c/3x3 <- inception_4c/3x3_reduce
I0403 19:23:39.022533  9183 net.cpp:399] inception_4c/3x3 -> inception_4c/3x3
I0403 19:23:39.026149  9183 net.cpp:141] Setting up inception_4c/3x3
I0403 19:23:39.026190  9183 net.cpp:148] Top shape: 24 256 14 14 (1204224)
I0403 19:23:39.026208  9183 net.cpp:156] Memory required for data: 1042842912
I0403 19:23:39.026240  9183 layer_factory.hpp:77] Creating layer inception_4c/relu_3x3
I0403 19:23:39.026262  9183 net.cpp:91] Creating Layer inception_4c/relu_3x3
I0403 19:23:39.026283  9183 net.cpp:425] inception_4c/relu_3x3 <- inception_4c/3x3
I0403 19:23:39.026304  9183 net.cpp:386] inception_4c/relu_3x3 -> inception_4c/3x3 (in-place)
I0403 19:23:39.026499  9183 net.cpp:141] Setting up inception_4c/relu_3x3
I0403 19:23:39.026525  9183 net.cpp:148] Top shape: 24 256 14 14 (1204224)
I0403 19:23:39.026540  9183 net.cpp:156] Memory required for data: 1047659808
I0403 19:23:39.026553  9183 layer_factory.hpp:77] Creating layer inception_4c/5x5_reduce
I0403 19:23:39.026577  9183 net.cpp:91] Creating Layer inception_4c/5x5_reduce
I0403 19:23:39.026595  9183 net.cpp:425] inception_4c/5x5_reduce <- inception_4b/output_inception_4b/output_0_split_2
I0403 19:23:39.026618  9183 net.cpp:399] inception_4c/5x5_reduce -> inception_4c/5x5_reduce
I0403 19:23:39.027726  9183 net.cpp:141] Setting up inception_4c/5x5_reduce
I0403 19:23:39.027755  9183 net.cpp:148] Top shape: 24 24 14 14 (112896)
I0403 19:23:39.027770  9183 net.cpp:156] Memory required for data: 1048111392
I0403 19:23:39.027788  9183 layer_factory.hpp:77] Creating layer inception_4c/relu_5x5_reduce
I0403 19:23:39.027806  9183 net.cpp:91] Creating Layer inception_4c/relu_5x5_reduce
I0403 19:23:39.027822  9183 net.cpp:425] inception_4c/relu_5x5_reduce <- inception_4c/5x5_reduce
I0403 19:23:39.027842  9183 net.cpp:386] inception_4c/relu_5x5_reduce -> inception_4c/5x5_reduce (in-place)
I0403 19:23:39.028023  9183 net.cpp:141] Setting up inception_4c/relu_5x5_reduce
I0403 19:23:39.028048  9183 net.cpp:148] Top shape: 24 24 14 14 (112896)
I0403 19:23:39.028064  9183 net.cpp:156] Memory required for data: 1048562976
I0403 19:23:39.028077  9183 layer_factory.hpp:77] Creating layer inception_4c/5x5
I0403 19:23:39.028100  9183 net.cpp:91] Creating Layer inception_4c/5x5
I0403 19:23:39.028117  9183 net.cpp:425] inception_4c/5x5 <- inception_4c/5x5_reduce
I0403 19:23:39.028138  9183 net.cpp:399] inception_4c/5x5 -> inception_4c/5x5
I0403 19:23:39.029392  9183 net.cpp:141] Setting up inception_4c/5x5
I0403 19:23:39.029419  9183 net.cpp:148] Top shape: 24 64 14 14 (301056)
I0403 19:23:39.029435  9183 net.cpp:156] Memory required for data: 1049767200
I0403 19:23:39.029453  9183 layer_factory.hpp:77] Creating layer inception_4c/relu_5x5
I0403 19:23:39.029474  9183 net.cpp:91] Creating Layer inception_4c/relu_5x5
I0403 19:23:39.029489  9183 net.cpp:425] inception_4c/relu_5x5 <- inception_4c/5x5
I0403 19:23:39.029506  9183 net.cpp:386] inception_4c/relu_5x5 -> inception_4c/5x5 (in-place)
I0403 19:23:39.029796  9183 net.cpp:141] Setting up inception_4c/relu_5x5
I0403 19:23:39.029824  9183 net.cpp:148] Top shape: 24 64 14 14 (301056)
I0403 19:23:39.029839  9183 net.cpp:156] Memory required for data: 1050971424
I0403 19:23:39.029853  9183 layer_factory.hpp:77] Creating layer inception_4c/pool
I0403 19:23:39.029872  9183 net.cpp:91] Creating Layer inception_4c/pool
I0403 19:23:39.029889  9183 net.cpp:425] inception_4c/pool <- inception_4b/output_inception_4b/output_0_split_3
I0403 19:23:39.029908  9183 net.cpp:399] inception_4c/pool -> inception_4c/pool
I0403 19:23:39.029973  9183 net.cpp:141] Setting up inception_4c/pool
I0403 19:23:39.029996  9183 net.cpp:148] Top shape: 24 512 14 14 (2408448)
I0403 19:23:39.030010  9183 net.cpp:156] Memory required for data: 1060605216
I0403 19:23:39.030025  9183 layer_factory.hpp:77] Creating layer inception_4c/pool_proj
I0403 19:23:39.030047  9183 net.cpp:91] Creating Layer inception_4c/pool_proj
I0403 19:23:39.030064  9183 net.cpp:425] inception_4c/pool_proj <- inception_4c/pool
I0403 19:23:39.030086  9183 net.cpp:399] inception_4c/pool_proj -> inception_4c/pool_proj
I0403 19:23:39.031311  9183 net.cpp:141] Setting up inception_4c/pool_proj
I0403 19:23:39.031344  9183 net.cpp:148] Top shape: 24 64 14 14 (301056)
I0403 19:23:39.031375  9183 net.cpp:156] Memory required for data: 1061809440
I0403 19:23:39.031394  9183 layer_factory.hpp:77] Creating layer inception_4c/relu_pool_proj
I0403 19:23:39.031411  9183 net.cpp:91] Creating Layer inception_4c/relu_pool_proj
I0403 19:23:39.031427  9183 net.cpp:425] inception_4c/relu_pool_proj <- inception_4c/pool_proj
I0403 19:23:39.031446  9183 net.cpp:386] inception_4c/relu_pool_proj -> inception_4c/pool_proj (in-place)
I0403 19:23:39.031627  9183 net.cpp:141] Setting up inception_4c/relu_pool_proj
I0403 19:23:39.031651  9183 net.cpp:148] Top shape: 24 64 14 14 (301056)
I0403 19:23:39.031666  9183 net.cpp:156] Memory required for data: 1063013664
I0403 19:23:39.031682  9183 layer_factory.hpp:77] Creating layer inception_4c/output
I0403 19:23:39.031700  9183 net.cpp:91] Creating Layer inception_4c/output
I0403 19:23:39.031716  9183 net.cpp:425] inception_4c/output <- inception_4c/1x1
I0403 19:23:39.031733  9183 net.cpp:425] inception_4c/output <- inception_4c/3x3
I0403 19:23:39.031749  9183 net.cpp:425] inception_4c/output <- inception_4c/5x5
I0403 19:23:39.031764  9183 net.cpp:425] inception_4c/output <- inception_4c/pool_proj
I0403 19:23:39.031781  9183 net.cpp:399] inception_4c/output -> inception_4c/output
I0403 19:23:39.031826  9183 net.cpp:141] Setting up inception_4c/output
I0403 19:23:39.031852  9183 net.cpp:148] Top shape: 24 512 14 14 (2408448)
I0403 19:23:39.031867  9183 net.cpp:156] Memory required for data: 1072647456
I0403 19:23:39.031880  9183 layer_factory.hpp:77] Creating layer inception_4c/output_inception_4c/output_0_split
I0403 19:23:39.031898  9183 net.cpp:91] Creating Layer inception_4c/output_inception_4c/output_0_split
I0403 19:23:39.031913  9183 net.cpp:425] inception_4c/output_inception_4c/output_0_split <- inception_4c/output
I0403 19:23:39.031932  9183 net.cpp:399] inception_4c/output_inception_4c/output_0_split -> inception_4c/output_inception_4c/output_0_split_0
I0403 19:23:39.031954  9183 net.cpp:399] inception_4c/output_inception_4c/output_0_split -> inception_4c/output_inception_4c/output_0_split_1
I0403 19:23:39.031973  9183 net.cpp:399] inception_4c/output_inception_4c/output_0_split -> inception_4c/output_inception_4c/output_0_split_2
I0403 19:23:39.031993  9183 net.cpp:399] inception_4c/output_inception_4c/output_0_split -> inception_4c/output_inception_4c/output_0_split_3
I0403 19:23:39.032076  9183 net.cpp:141] Setting up inception_4c/output_inception_4c/output_0_split
I0403 19:23:39.032102  9183 net.cpp:148] Top shape: 24 512 14 14 (2408448)
I0403 19:23:39.032120  9183 net.cpp:148] Top shape: 24 512 14 14 (2408448)
I0403 19:23:39.032135  9183 net.cpp:148] Top shape: 24 512 14 14 (2408448)
I0403 19:23:39.032151  9183 net.cpp:148] Top shape: 24 512 14 14 (2408448)
I0403 19:23:39.032166  9183 net.cpp:156] Memory required for data: 1111182624
I0403 19:23:39.032181  9183 layer_factory.hpp:77] Creating layer inception_4d/1x1
I0403 19:23:39.032202  9183 net.cpp:91] Creating Layer inception_4d/1x1
I0403 19:23:39.032219  9183 net.cpp:425] inception_4d/1x1 <- inception_4c/output_inception_4c/output_0_split_0
I0403 19:23:39.032238  9183 net.cpp:399] inception_4d/1x1 -> inception_4d/1x1
I0403 19:23:39.033643  9183 net.cpp:141] Setting up inception_4d/1x1
I0403 19:23:39.033674  9183 net.cpp:148] Top shape: 24 112 14 14 (526848)
I0403 19:23:39.033689  9183 net.cpp:156] Memory required for data: 1113290016
I0403 19:23:39.033707  9183 layer_factory.hpp:77] Creating layer inception_4d/relu_1x1
I0403 19:23:39.033725  9183 net.cpp:91] Creating Layer inception_4d/relu_1x1
I0403 19:23:39.033741  9183 net.cpp:425] inception_4d/relu_1x1 <- inception_4d/1x1
I0403 19:23:39.033758  9183 net.cpp:386] inception_4d/relu_1x1 -> inception_4d/1x1 (in-place)
I0403 19:23:39.033943  9183 net.cpp:141] Setting up inception_4d/relu_1x1
I0403 19:23:39.033970  9183 net.cpp:148] Top shape: 24 112 14 14 (526848)
I0403 19:23:39.033985  9183 net.cpp:156] Memory required for data: 1115397408
I0403 19:23:39.034000  9183 layer_factory.hpp:77] Creating layer inception_4d/3x3_reduce
I0403 19:23:39.034036  9183 net.cpp:91] Creating Layer inception_4d/3x3_reduce
I0403 19:23:39.034054  9183 net.cpp:425] inception_4d/3x3_reduce <- inception_4c/output_inception_4c/output_0_split_1
I0403 19:23:39.034075  9183 net.cpp:399] inception_4d/3x3_reduce -> inception_4d/3x3_reduce
I0403 19:23:39.035593  9183 net.cpp:141] Setting up inception_4d/3x3_reduce
I0403 19:23:39.035621  9183 net.cpp:148] Top shape: 24 144 14 14 (677376)
I0403 19:23:39.035636  9183 net.cpp:156] Memory required for data: 1118106912
I0403 19:23:39.035655  9183 layer_factory.hpp:77] Creating layer inception_4d/relu_3x3_reduce
I0403 19:23:39.035675  9183 net.cpp:91] Creating Layer inception_4d/relu_3x3_reduce
I0403 19:23:39.035691  9183 net.cpp:425] inception_4d/relu_3x3_reduce <- inception_4d/3x3_reduce
I0403 19:23:39.035708  9183 net.cpp:386] inception_4d/relu_3x3_reduce -> inception_4d/3x3_reduce (in-place)
I0403 19:23:39.035995  9183 net.cpp:141] Setting up inception_4d/relu_3x3_reduce
I0403 19:23:39.036021  9183 net.cpp:148] Top shape: 24 144 14 14 (677376)
I0403 19:23:39.036036  9183 net.cpp:156] Memory required for data: 1120816416
I0403 19:23:39.036051  9183 layer_factory.hpp:77] Creating layer inception_4d/3x3
I0403 19:23:39.036073  9183 net.cpp:91] Creating Layer inception_4d/3x3
I0403 19:23:39.036090  9183 net.cpp:425] inception_4d/3x3 <- inception_4d/3x3_reduce
I0403 19:23:39.036111  9183 net.cpp:399] inception_4d/3x3 -> inception_4d/3x3
I0403 19:23:39.040371  9183 net.cpp:141] Setting up inception_4d/3x3
I0403 19:23:39.040403  9183 net.cpp:148] Top shape: 24 288 14 14 (1354752)
I0403 19:23:39.040421  9183 net.cpp:156] Memory required for data: 1126235424
I0403 19:23:39.040438  9183 layer_factory.hpp:77] Creating layer inception_4d/relu_3x3
I0403 19:23:39.040457  9183 net.cpp:91] Creating Layer inception_4d/relu_3x3
I0403 19:23:39.040473  9183 net.cpp:425] inception_4d/relu_3x3 <- inception_4d/3x3
I0403 19:23:39.040493  9183 net.cpp:386] inception_4d/relu_3x3 -> inception_4d/3x3 (in-place)
I0403 19:23:39.040678  9183 net.cpp:141] Setting up inception_4d/relu_3x3
I0403 19:23:39.040704  9183 net.cpp:148] Top shape: 24 288 14 14 (1354752)
I0403 19:23:39.040717  9183 net.cpp:156] Memory required for data: 1131654432
I0403 19:23:39.040732  9183 layer_factory.hpp:77] Creating layer inception_4d/5x5_reduce
I0403 19:23:39.040755  9183 net.cpp:91] Creating Layer inception_4d/5x5_reduce
I0403 19:23:39.040772  9183 net.cpp:425] inception_4d/5x5_reduce <- inception_4c/output_inception_4c/output_0_split_2
I0403 19:23:39.040793  9183 net.cpp:399] inception_4d/5x5_reduce -> inception_4d/5x5_reduce
I0403 19:23:39.041942  9183 net.cpp:141] Setting up inception_4d/5x5_reduce
I0403 19:23:39.041972  9183 net.cpp:148] Top shape: 24 32 14 14 (150528)
I0403 19:23:39.041988  9183 net.cpp:156] Memory required for data: 1132256544
I0403 19:23:39.042006  9183 layer_factory.hpp:77] Creating layer inception_4d/relu_5x5_reduce
I0403 19:23:39.042023  9183 net.cpp:91] Creating Layer inception_4d/relu_5x5_reduce
I0403 19:23:39.042040  9183 net.cpp:425] inception_4d/relu_5x5_reduce <- inception_4d/5x5_reduce
I0403 19:23:39.042057  9183 net.cpp:386] inception_4d/relu_5x5_reduce -> inception_4d/5x5_reduce (in-place)
I0403 19:23:39.042249  9183 net.cpp:141] Setting up inception_4d/relu_5x5_reduce
I0403 19:23:39.042286  9183 net.cpp:148] Top shape: 24 32 14 14 (150528)
I0403 19:23:39.042304  9183 net.cpp:156] Memory required for data: 1132858656
I0403 19:23:39.042318  9183 layer_factory.hpp:77] Creating layer inception_4d/5x5
I0403 19:23:39.042340  9183 net.cpp:91] Creating Layer inception_4d/5x5
I0403 19:23:39.042357  9183 net.cpp:425] inception_4d/5x5 <- inception_4d/5x5_reduce
I0403 19:23:39.042378  9183 net.cpp:399] inception_4d/5x5 -> inception_4d/5x5
I0403 19:23:39.043870  9183 net.cpp:141] Setting up inception_4d/5x5
I0403 19:23:39.043898  9183 net.cpp:148] Top shape: 24 64 14 14 (301056)
I0403 19:23:39.043913  9183 net.cpp:156] Memory required for data: 1134062880
I0403 19:23:39.043931  9183 layer_factory.hpp:77] Creating layer inception_4d/relu_5x5
I0403 19:23:39.043967  9183 net.cpp:91] Creating Layer inception_4d/relu_5x5
I0403 19:23:39.043984  9183 net.cpp:425] inception_4d/relu_5x5 <- inception_4d/5x5
I0403 19:23:39.044003  9183 net.cpp:386] inception_4d/relu_5x5 -> inception_4d/5x5 (in-place)
I0403 19:23:39.044309  9183 net.cpp:141] Setting up inception_4d/relu_5x5
I0403 19:23:39.044335  9183 net.cpp:148] Top shape: 24 64 14 14 (301056)
I0403 19:23:39.044350  9183 net.cpp:156] Memory required for data: 1135267104
I0403 19:23:39.044365  9183 layer_factory.hpp:77] Creating layer inception_4d/pool
I0403 19:23:39.044384  9183 net.cpp:91] Creating Layer inception_4d/pool
I0403 19:23:39.044402  9183 net.cpp:425] inception_4d/pool <- inception_4c/output_inception_4c/output_0_split_3
I0403 19:23:39.044421  9183 net.cpp:399] inception_4d/pool -> inception_4d/pool
I0403 19:23:39.044502  9183 net.cpp:141] Setting up inception_4d/pool
I0403 19:23:39.044526  9183 net.cpp:148] Top shape: 24 512 14 14 (2408448)
I0403 19:23:39.044540  9183 net.cpp:156] Memory required for data: 1144900896
I0403 19:23:39.044555  9183 layer_factory.hpp:77] Creating layer inception_4d/pool_proj
I0403 19:23:39.044579  9183 net.cpp:91] Creating Layer inception_4d/pool_proj
I0403 19:23:39.044595  9183 net.cpp:425] inception_4d/pool_proj <- inception_4d/pool
I0403 19:23:39.044617  9183 net.cpp:399] inception_4d/pool_proj -> inception_4d/pool_proj
I0403 19:23:39.046399  9183 net.cpp:141] Setting up inception_4d/pool_proj
I0403 19:23:39.046433  9183 net.cpp:148] Top shape: 24 64 14 14 (301056)
I0403 19:23:39.046450  9183 net.cpp:156] Memory required for data: 1146105120
I0403 19:23:39.046468  9183 layer_factory.hpp:77] Creating layer inception_4d/relu_pool_proj
I0403 19:23:39.046486  9183 net.cpp:91] Creating Layer inception_4d/relu_pool_proj
I0403 19:23:39.046502  9183 net.cpp:425] inception_4d/relu_pool_proj <- inception_4d/pool_proj
I0403 19:23:39.046521  9183 net.cpp:386] inception_4d/relu_pool_proj -> inception_4d/pool_proj (in-place)
I0403 19:23:39.046703  9183 net.cpp:141] Setting up inception_4d/relu_pool_proj
I0403 19:23:39.046728  9183 net.cpp:148] Top shape: 24 64 14 14 (301056)
I0403 19:23:39.046743  9183 net.cpp:156] Memory required for data: 1147309344
I0403 19:23:39.046758  9183 layer_factory.hpp:77] Creating layer inception_4d/output
I0403 19:23:39.046775  9183 net.cpp:91] Creating Layer inception_4d/output
I0403 19:23:39.046792  9183 net.cpp:425] inception_4d/output <- inception_4d/1x1
I0403 19:23:39.046808  9183 net.cpp:425] inception_4d/output <- inception_4d/3x3
I0403 19:23:39.046823  9183 net.cpp:425] inception_4d/output <- inception_4d/5x5
I0403 19:23:39.046840  9183 net.cpp:425] inception_4d/output <- inception_4d/pool_proj
I0403 19:23:39.046860  9183 net.cpp:399] inception_4d/output -> inception_4d/output
I0403 19:23:39.046907  9183 net.cpp:141] Setting up inception_4d/output
I0403 19:23:39.046933  9183 net.cpp:148] Top shape: 24 528 14 14 (2483712)
I0403 19:23:39.046948  9183 net.cpp:156] Memory required for data: 1157244192
I0403 19:23:39.046962  9183 layer_factory.hpp:77] Creating layer inception_4d/output_inception_4d/output_0_split
I0403 19:23:39.046979  9183 net.cpp:91] Creating Layer inception_4d/output_inception_4d/output_0_split
I0403 19:23:39.046994  9183 net.cpp:425] inception_4d/output_inception_4d/output_0_split <- inception_4d/output
I0403 19:23:39.047011  9183 net.cpp:399] inception_4d/output_inception_4d/output_0_split -> inception_4d/output_inception_4d/output_0_split_0
I0403 19:23:39.047034  9183 net.cpp:399] inception_4d/output_inception_4d/output_0_split -> inception_4d/output_inception_4d/output_0_split_1
I0403 19:23:39.047055  9183 net.cpp:399] inception_4d/output_inception_4d/output_0_split -> inception_4d/output_inception_4d/output_0_split_2
I0403 19:23:39.047075  9183 net.cpp:399] inception_4d/output_inception_4d/output_0_split -> inception_4d/output_inception_4d/output_0_split_3
I0403 19:23:39.047094  9183 net.cpp:399] inception_4d/output_inception_4d/output_0_split -> inception_4d/output_inception_4d/output_0_split_4
I0403 19:23:39.047197  9183 net.cpp:141] Setting up inception_4d/output_inception_4d/output_0_split
I0403 19:23:39.047232  9183 net.cpp:148] Top shape: 24 528 14 14 (2483712)
I0403 19:23:39.047252  9183 net.cpp:148] Top shape: 24 528 14 14 (2483712)
I0403 19:23:39.047268  9183 net.cpp:148] Top shape: 24 528 14 14 (2483712)
I0403 19:23:39.047292  9183 net.cpp:148] Top shape: 24 528 14 14 (2483712)
I0403 19:23:39.047307  9183 net.cpp:148] Top shape: 24 528 14 14 (2483712)
I0403 19:23:39.047322  9183 net.cpp:156] Memory required for data: 1206918432
I0403 19:23:39.047335  9183 layer_factory.hpp:77] Creating layer loss2/ave_pool
I0403 19:23:39.047353  9183 net.cpp:91] Creating Layer loss2/ave_pool
I0403 19:23:39.047370  9183 net.cpp:425] loss2/ave_pool <- inception_4d/output_inception_4d/output_0_split_0
I0403 19:23:39.047389  9183 net.cpp:399] loss2/ave_pool -> loss2/ave_pool
I0403 19:23:39.047699  9183 net.cpp:141] Setting up loss2/ave_pool
I0403 19:23:39.047727  9183 net.cpp:148] Top shape: 24 528 4 4 (202752)
I0403 19:23:39.047744  9183 net.cpp:156] Memory required for data: 1207729440
I0403 19:23:39.047757  9183 layer_factory.hpp:77] Creating layer loss2/conv
I0403 19:23:39.047780  9183 net.cpp:91] Creating Layer loss2/conv
I0403 19:23:39.047797  9183 net.cpp:425] loss2/conv <- loss2/ave_pool
I0403 19:23:39.047816  9183 net.cpp:399] loss2/conv -> loss2/conv
I0403 19:23:39.049727  9183 net.cpp:141] Setting up loss2/conv
I0403 19:23:39.049757  9183 net.cpp:148] Top shape: 24 128 4 4 (49152)
I0403 19:23:39.049772  9183 net.cpp:156] Memory required for data: 1207926048
I0403 19:23:39.049790  9183 layer_factory.hpp:77] Creating layer loss2/relu_conv
I0403 19:23:39.049810  9183 net.cpp:91] Creating Layer loss2/relu_conv
I0403 19:23:39.049828  9183 net.cpp:425] loss2/relu_conv <- loss2/conv
I0403 19:23:39.049844  9183 net.cpp:386] loss2/relu_conv -> loss2/conv (in-place)
I0403 19:23:39.050129  9183 net.cpp:141] Setting up loss2/relu_conv
I0403 19:23:39.050156  9183 net.cpp:148] Top shape: 24 128 4 4 (49152)
I0403 19:23:39.050171  9183 net.cpp:156] Memory required for data: 1208122656
I0403 19:23:39.050185  9183 layer_factory.hpp:77] Creating layer loss2/fc
I0403 19:23:39.050207  9183 net.cpp:91] Creating Layer loss2/fc
I0403 19:23:39.050225  9183 net.cpp:425] loss2/fc <- loss2/conv
I0403 19:23:39.050243  9183 net.cpp:399] loss2/fc -> loss2/fc
I0403 19:23:39.067895  9183 net.cpp:141] Setting up loss2/fc
I0403 19:23:39.067929  9183 net.cpp:148] Top shape: 24 1024 (24576)
I0403 19:23:39.067944  9183 net.cpp:156] Memory required for data: 1208220960
I0403 19:23:39.067962  9183 layer_factory.hpp:77] Creating layer loss2/relu_fc
I0403 19:23:39.067981  9183 net.cpp:91] Creating Layer loss2/relu_fc
I0403 19:23:39.067997  9183 net.cpp:425] loss2/relu_fc <- loss2/fc
I0403 19:23:39.068017  9183 net.cpp:386] loss2/relu_fc -> loss2/fc (in-place)
I0403 19:23:39.068343  9183 net.cpp:141] Setting up loss2/relu_fc
I0403 19:23:39.068369  9183 net.cpp:148] Top shape: 24 1024 (24576)
I0403 19:23:39.068383  9183 net.cpp:156] Memory required for data: 1208319264
I0403 19:23:39.068397  9183 layer_factory.hpp:77] Creating layer loss2/drop_fc
I0403 19:23:39.068415  9183 net.cpp:91] Creating Layer loss2/drop_fc
I0403 19:23:39.068430  9183 net.cpp:425] loss2/drop_fc <- loss2/fc
I0403 19:23:39.068449  9183 net.cpp:386] loss2/drop_fc -> loss2/fc (in-place)
I0403 19:23:39.068500  9183 net.cpp:141] Setting up loss2/drop_fc
I0403 19:23:39.068521  9183 net.cpp:148] Top shape: 24 1024 (24576)
I0403 19:23:39.068534  9183 net.cpp:156] Memory required for data: 1208417568
I0403 19:23:39.068548  9183 layer_factory.hpp:77] Creating layer loss2/classifier_plantvillage
I0403 19:23:39.068569  9183 net.cpp:91] Creating Layer loss2/classifier_plantvillage
I0403 19:23:39.068586  9183 net.cpp:425] loss2/classifier_plantvillage <- loss2/fc
I0403 19:23:39.068608  9183 net.cpp:399] loss2/classifier_plantvillage -> loss2/classifier_plantvillage
I0403 19:23:39.069001  9183 net.cpp:141] Setting up loss2/classifier_plantvillage
I0403 19:23:39.069025  9183 net.cpp:148] Top shape: 24 38 (912)
I0403 19:23:39.069039  9183 net.cpp:156] Memory required for data: 1208421216
I0403 19:23:39.069077  9183 layer_factory.hpp:77] Creating layer loss2/classifier_plantvillage_loss2/classifier_plantvillage_0_split
I0403 19:23:39.069097  9183 net.cpp:91] Creating Layer loss2/classifier_plantvillage_loss2/classifier_plantvillage_0_split
I0403 19:23:39.069111  9183 net.cpp:425] loss2/classifier_plantvillage_loss2/classifier_plantvillage_0_split <- loss2/classifier_plantvillage
I0403 19:23:39.069131  9183 net.cpp:399] loss2/classifier_plantvillage_loss2/classifier_plantvillage_0_split -> loss2/classifier_plantvillage_loss2/classifier_plantvillage_0_split_0
I0403 19:23:39.069151  9183 net.cpp:399] loss2/classifier_plantvillage_loss2/classifier_plantvillage_0_split -> loss2/classifier_plantvillage_loss2/classifier_plantvillage_0_split_1
I0403 19:23:39.069171  9183 net.cpp:399] loss2/classifier_plantvillage_loss2/classifier_plantvillage_0_split -> loss2/classifier_plantvillage_loss2/classifier_plantvillage_0_split_2
I0403 19:23:39.069247  9183 net.cpp:141] Setting up loss2/classifier_plantvillage_loss2/classifier_plantvillage_0_split
I0403 19:23:39.069275  9183 net.cpp:148] Top shape: 24 38 (912)
I0403 19:23:39.069293  9183 net.cpp:148] Top shape: 24 38 (912)
I0403 19:23:39.069308  9183 net.cpp:148] Top shape: 24 38 (912)
I0403 19:23:39.069320  9183 net.cpp:156] Memory required for data: 1208432160
I0403 19:23:39.069334  9183 layer_factory.hpp:77] Creating layer inception_4e/1x1
I0403 19:23:39.069356  9183 net.cpp:91] Creating Layer inception_4e/1x1
I0403 19:23:39.069375  9183 net.cpp:425] inception_4e/1x1 <- inception_4d/output_inception_4d/output_0_split_1
I0403 19:23:39.069393  9183 net.cpp:399] inception_4e/1x1 -> inception_4e/1x1
I0403 19:23:39.071241  9183 net.cpp:141] Setting up inception_4e/1x1
I0403 19:23:39.071285  9183 net.cpp:148] Top shape: 24 256 14 14 (1204224)
I0403 19:23:39.071301  9183 net.cpp:156] Memory required for data: 1213249056
I0403 19:23:39.071318  9183 layer_factory.hpp:77] Creating layer inception_4e/relu_1x1
I0403 19:23:39.071338  9183 net.cpp:91] Creating Layer inception_4e/relu_1x1
I0403 19:23:39.071354  9183 net.cpp:425] inception_4e/relu_1x1 <- inception_4e/1x1
I0403 19:23:39.071372  9183 net.cpp:386] inception_4e/relu_1x1 -> inception_4e/1x1 (in-place)
I0403 19:23:39.071660  9183 net.cpp:141] Setting up inception_4e/relu_1x1
I0403 19:23:39.071686  9183 net.cpp:148] Top shape: 24 256 14 14 (1204224)
I0403 19:23:39.071701  9183 net.cpp:156] Memory required for data: 1218065952
I0403 19:23:39.071714  9183 layer_factory.hpp:77] Creating layer inception_4e/3x3_reduce
I0403 19:23:39.071737  9183 net.cpp:91] Creating Layer inception_4e/3x3_reduce
I0403 19:23:39.071753  9183 net.cpp:425] inception_4e/3x3_reduce <- inception_4d/output_inception_4d/output_0_split_2
I0403 19:23:39.071774  9183 net.cpp:399] inception_4e/3x3_reduce -> inception_4e/3x3_reduce
I0403 19:23:39.073868  9183 net.cpp:141] Setting up inception_4e/3x3_reduce
I0403 19:23:39.073897  9183 net.cpp:148] Top shape: 24 160 14 14 (752640)
I0403 19:23:39.073912  9183 net.cpp:156] Memory required for data: 1221076512
I0403 19:23:39.073930  9183 layer_factory.hpp:77] Creating layer inception_4e/relu_3x3_reduce
I0403 19:23:39.073948  9183 net.cpp:91] Creating Layer inception_4e/relu_3x3_reduce
I0403 19:23:39.073963  9183 net.cpp:425] inception_4e/relu_3x3_reduce <- inception_4e/3x3_reduce
I0403 19:23:39.073982  9183 net.cpp:386] inception_4e/relu_3x3_reduce -> inception_4e/3x3_reduce (in-place)
I0403 19:23:39.074165  9183 net.cpp:141] Setting up inception_4e/relu_3x3_reduce
I0403 19:23:39.074189  9183 net.cpp:148] Top shape: 24 160 14 14 (752640)
I0403 19:23:39.074204  9183 net.cpp:156] Memory required for data: 1224087072
I0403 19:23:39.074220  9183 layer_factory.hpp:77] Creating layer inception_4e/3x3
I0403 19:23:39.074242  9183 net.cpp:91] Creating Layer inception_4e/3x3
I0403 19:23:39.074259  9183 net.cpp:425] inception_4e/3x3 <- inception_4e/3x3_reduce
I0403 19:23:39.074282  9183 net.cpp:399] inception_4e/3x3 -> inception_4e/3x3
I0403 19:23:39.079170  9183 net.cpp:141] Setting up inception_4e/3x3
I0403 19:23:39.079241  9183 net.cpp:148] Top shape: 24 320 14 14 (1505280)
I0403 19:23:39.079278  9183 net.cpp:156] Memory required for data: 1230108192
I0403 19:23:39.079298  9183 layer_factory.hpp:77] Creating layer inception_4e/relu_3x3
I0403 19:23:39.079319  9183 net.cpp:91] Creating Layer inception_4e/relu_3x3
I0403 19:23:39.079334  9183 net.cpp:425] inception_4e/relu_3x3 <- inception_4e/3x3
I0403 19:23:39.079351  9183 net.cpp:386] inception_4e/relu_3x3 -> inception_4e/3x3 (in-place)
I0403 19:23:39.079651  9183 net.cpp:141] Setting up inception_4e/relu_3x3
I0403 19:23:39.079679  9183 net.cpp:148] Top shape: 24 320 14 14 (1505280)
I0403 19:23:39.079694  9183 net.cpp:156] Memory required for data: 1236129312
I0403 19:23:39.079709  9183 layer_factory.hpp:77] Creating layer inception_4e/5x5_reduce
I0403 19:23:39.079731  9183 net.cpp:91] Creating Layer inception_4e/5x5_reduce
I0403 19:23:39.079749  9183 net.cpp:425] inception_4e/5x5_reduce <- inception_4d/output_inception_4d/output_0_split_3
I0403 19:23:39.079767  9183 net.cpp:399] inception_4e/5x5_reduce -> inception_4e/5x5_reduce
I0403 19:23:39.080812  9183 net.cpp:141] Setting up inception_4e/5x5_reduce
I0403 19:23:39.080840  9183 net.cpp:148] Top shape: 24 32 14 14 (150528)
I0403 19:23:39.080855  9183 net.cpp:156] Memory required for data: 1236731424
I0403 19:23:39.080873  9183 layer_factory.hpp:77] Creating layer inception_4e/relu_5x5_reduce
I0403 19:23:39.080893  9183 net.cpp:91] Creating Layer inception_4e/relu_5x5_reduce
I0403 19:23:39.080909  9183 net.cpp:425] inception_4e/relu_5x5_reduce <- inception_4e/5x5_reduce
I0403 19:23:39.080926  9183 net.cpp:386] inception_4e/relu_5x5_reduce -> inception_4e/5x5_reduce (in-place)
I0403 19:23:39.081217  9183 net.cpp:141] Setting up inception_4e/relu_5x5_reduce
I0403 19:23:39.081243  9183 net.cpp:148] Top shape: 24 32 14 14 (150528)
I0403 19:23:39.081259  9183 net.cpp:156] Memory required for data: 1237333536
I0403 19:23:39.081279  9183 layer_factory.hpp:77] Creating layer inception_4e/5x5
I0403 19:23:39.081321  9183 net.cpp:91] Creating Layer inception_4e/5x5
I0403 19:23:39.081341  9183 net.cpp:425] inception_4e/5x5 <- inception_4e/5x5_reduce
I0403 19:23:39.081359  9183 net.cpp:399] inception_4e/5x5 -> inception_4e/5x5
I0403 19:23:39.083191  9183 net.cpp:141] Setting up inception_4e/5x5
I0403 19:23:39.083225  9183 net.cpp:148] Top shape: 24 128 14 14 (602112)
I0403 19:23:39.083240  9183 net.cpp:156] Memory required for data: 1239741984
I0403 19:23:39.083259  9183 layer_factory.hpp:77] Creating layer inception_4e/relu_5x5
I0403 19:23:39.083281  9183 net.cpp:91] Creating Layer inception_4e/relu_5x5
I0403 19:23:39.083297  9183 net.cpp:425] inception_4e/relu_5x5 <- inception_4e/5x5
I0403 19:23:39.083317  9183 net.cpp:386] inception_4e/relu_5x5 -> inception_4e/5x5 (in-place)
I0403 19:23:39.083508  9183 net.cpp:141] Setting up inception_4e/relu_5x5
I0403 19:23:39.083544  9183 net.cpp:148] Top shape: 24 128 14 14 (602112)
I0403 19:23:39.083557  9183 net.cpp:156] Memory required for data: 1242150432
I0403 19:23:39.083572  9183 layer_factory.hpp:77] Creating layer inception_4e/pool
I0403 19:23:39.083590  9183 net.cpp:91] Creating Layer inception_4e/pool
I0403 19:23:39.083606  9183 net.cpp:425] inception_4e/pool <- inception_4d/output_inception_4d/output_0_split_4
I0403 19:23:39.083626  9183 net.cpp:399] inception_4e/pool -> inception_4e/pool
I0403 19:23:39.083694  9183 net.cpp:141] Setting up inception_4e/pool
I0403 19:23:39.083717  9183 net.cpp:148] Top shape: 24 528 14 14 (2483712)
I0403 19:23:39.083732  9183 net.cpp:156] Memory required for data: 1252085280
I0403 19:23:39.083746  9183 layer_factory.hpp:77] Creating layer inception_4e/pool_proj
I0403 19:23:39.083768  9183 net.cpp:91] Creating Layer inception_4e/pool_proj
I0403 19:23:39.083786  9183 net.cpp:425] inception_4e/pool_proj <- inception_4e/pool
I0403 19:23:39.083803  9183 net.cpp:399] inception_4e/pool_proj -> inception_4e/pool_proj
I0403 19:23:39.085265  9183 net.cpp:141] Setting up inception_4e/pool_proj
I0403 19:23:39.085299  9183 net.cpp:148] Top shape: 24 128 14 14 (602112)
I0403 19:23:39.085327  9183 net.cpp:156] Memory required for data: 1254493728
I0403 19:23:39.085346  9183 layer_factory.hpp:77] Creating layer inception_4e/relu_pool_proj
I0403 19:23:39.085364  9183 net.cpp:91] Creating Layer inception_4e/relu_pool_proj
I0403 19:23:39.085381  9183 net.cpp:425] inception_4e/relu_pool_proj <- inception_4e/pool_proj
I0403 19:23:39.085399  9183 net.cpp:386] inception_4e/relu_pool_proj -> inception_4e/pool_proj (in-place)
I0403 19:23:39.085683  9183 net.cpp:141] Setting up inception_4e/relu_pool_proj
I0403 19:23:39.085711  9183 net.cpp:148] Top shape: 24 128 14 14 (602112)
I0403 19:23:39.085726  9183 net.cpp:156] Memory required for data: 1256902176
I0403 19:23:39.085741  9183 layer_factory.hpp:77] Creating layer inception_4e/output
I0403 19:23:39.085757  9183 net.cpp:91] Creating Layer inception_4e/output
I0403 19:23:39.085772  9183 net.cpp:425] inception_4e/output <- inception_4e/1x1
I0403 19:23:39.085788  9183 net.cpp:425] inception_4e/output <- inception_4e/3x3
I0403 19:23:39.085803  9183 net.cpp:425] inception_4e/output <- inception_4e/5x5
I0403 19:23:39.085818  9183 net.cpp:425] inception_4e/output <- inception_4e/pool_proj
I0403 19:23:39.085836  9183 net.cpp:399] inception_4e/output -> inception_4e/output
I0403 19:23:39.085886  9183 net.cpp:141] Setting up inception_4e/output
I0403 19:23:39.085908  9183 net.cpp:148] Top shape: 24 832 14 14 (3913728)
I0403 19:23:39.085922  9183 net.cpp:156] Memory required for data: 1272557088
I0403 19:23:39.085935  9183 layer_factory.hpp:77] Creating layer pool4/3x3_s2
I0403 19:23:39.085954  9183 net.cpp:91] Creating Layer pool4/3x3_s2
I0403 19:23:39.085970  9183 net.cpp:425] pool4/3x3_s2 <- inception_4e/output
I0403 19:23:39.085988  9183 net.cpp:399] pool4/3x3_s2 -> pool4/3x3_s2
I0403 19:23:39.086057  9183 net.cpp:141] Setting up pool4/3x3_s2
I0403 19:23:39.086081  9183 net.cpp:148] Top shape: 24 832 7 7 (978432)
I0403 19:23:39.086094  9183 net.cpp:156] Memory required for data: 1276470816
I0403 19:23:39.086108  9183 layer_factory.hpp:77] Creating layer pool4/3x3_s2_pool4/3x3_s2_0_split
I0403 19:23:39.086125  9183 net.cpp:91] Creating Layer pool4/3x3_s2_pool4/3x3_s2_0_split
I0403 19:23:39.086140  9183 net.cpp:425] pool4/3x3_s2_pool4/3x3_s2_0_split <- pool4/3x3_s2
I0403 19:23:39.086161  9183 net.cpp:399] pool4/3x3_s2_pool4/3x3_s2_0_split -> pool4/3x3_s2_pool4/3x3_s2_0_split_0
I0403 19:23:39.086181  9183 net.cpp:399] pool4/3x3_s2_pool4/3x3_s2_0_split -> pool4/3x3_s2_pool4/3x3_s2_0_split_1
I0403 19:23:39.086200  9183 net.cpp:399] pool4/3x3_s2_pool4/3x3_s2_0_split -> pool4/3x3_s2_pool4/3x3_s2_0_split_2
I0403 19:23:39.086222  9183 net.cpp:399] pool4/3x3_s2_pool4/3x3_s2_0_split -> pool4/3x3_s2_pool4/3x3_s2_0_split_3
I0403 19:23:39.086315  9183 net.cpp:141] Setting up pool4/3x3_s2_pool4/3x3_s2_0_split
I0403 19:23:39.086338  9183 net.cpp:148] Top shape: 24 832 7 7 (978432)
I0403 19:23:39.086354  9183 net.cpp:148] Top shape: 24 832 7 7 (978432)
I0403 19:23:39.086369  9183 net.cpp:148] Top shape: 24 832 7 7 (978432)
I0403 19:23:39.086385  9183 net.cpp:148] Top shape: 24 832 7 7 (978432)
I0403 19:23:39.086397  9183 net.cpp:156] Memory required for data: 1292125728
I0403 19:23:39.086411  9183 layer_factory.hpp:77] Creating layer inception_5a/1x1
I0403 19:23:39.086432  9183 net.cpp:91] Creating Layer inception_5a/1x1
I0403 19:23:39.086450  9183 net.cpp:425] inception_5a/1x1 <- pool4/3x3_s2_pool4/3x3_s2_0_split_0
I0403 19:23:39.086470  9183 net.cpp:399] inception_5a/1x1 -> inception_5a/1x1
I0403 19:23:39.089316  9183 net.cpp:141] Setting up inception_5a/1x1
I0403 19:23:39.089346  9183 net.cpp:148] Top shape: 24 256 7 7 (301056)
I0403 19:23:39.089362  9183 net.cpp:156] Memory required for data: 1293329952
I0403 19:23:39.089380  9183 layer_factory.hpp:77] Creating layer inception_5a/relu_1x1
I0403 19:23:39.089398  9183 net.cpp:91] Creating Layer inception_5a/relu_1x1
I0403 19:23:39.089414  9183 net.cpp:425] inception_5a/relu_1x1 <- inception_5a/1x1
I0403 19:23:39.089433  9183 net.cpp:386] inception_5a/relu_1x1 -> inception_5a/1x1 (in-place)
I0403 19:23:39.089752  9183 net.cpp:141] Setting up inception_5a/relu_1x1
I0403 19:23:39.089779  9183 net.cpp:148] Top shape: 24 256 7 7 (301056)
I0403 19:23:39.089794  9183 net.cpp:156] Memory required for data: 1294534176
I0403 19:23:39.089809  9183 layer_factory.hpp:77] Creating layer inception_5a/3x3_reduce
I0403 19:23:39.089831  9183 net.cpp:91] Creating Layer inception_5a/3x3_reduce
I0403 19:23:39.089849  9183 net.cpp:425] inception_5a/3x3_reduce <- pool4/3x3_s2_pool4/3x3_s2_0_split_1
I0403 19:23:39.089871  9183 net.cpp:399] inception_5a/3x3_reduce -> inception_5a/3x3_reduce
I0403 19:23:39.092370  9183 net.cpp:141] Setting up inception_5a/3x3_reduce
I0403 19:23:39.092398  9183 net.cpp:148] Top shape: 24 160 7 7 (188160)
I0403 19:23:39.092414  9183 net.cpp:156] Memory required for data: 1295286816
I0403 19:23:39.092432  9183 layer_factory.hpp:77] Creating layer inception_5a/relu_3x3_reduce
I0403 19:23:39.092453  9183 net.cpp:91] Creating Layer inception_5a/relu_3x3_reduce
I0403 19:23:39.092470  9183 net.cpp:425] inception_5a/relu_3x3_reduce <- inception_5a/3x3_reduce
I0403 19:23:39.092488  9183 net.cpp:386] inception_5a/relu_3x3_reduce -> inception_5a/3x3_reduce (in-place)
I0403 19:23:39.092677  9183 net.cpp:141] Setting up inception_5a/relu_3x3_reduce
I0403 19:23:39.092702  9183 net.cpp:148] Top shape: 24 160 7 7 (188160)
I0403 19:23:39.092716  9183 net.cpp:156] Memory required for data: 1296039456
I0403 19:23:39.092730  9183 layer_factory.hpp:77] Creating layer inception_5a/3x3
I0403 19:23:39.092753  9183 net.cpp:91] Creating Layer inception_5a/3x3
I0403 19:23:39.092772  9183 net.cpp:425] inception_5a/3x3 <- inception_5a/3x3_reduce
I0403 19:23:39.092792  9183 net.cpp:399] inception_5a/3x3 -> inception_5a/3x3
I0403 19:23:39.097815  9183 net.cpp:141] Setting up inception_5a/3x3
I0403 19:23:39.097847  9183 net.cpp:148] Top shape: 24 320 7 7 (376320)
I0403 19:23:39.097864  9183 net.cpp:156] Memory required for data: 1297544736
I0403 19:23:39.097882  9183 layer_factory.hpp:77] Creating layer inception_5a/relu_3x3
I0403 19:23:39.097899  9183 net.cpp:91] Creating Layer inception_5a/relu_3x3
I0403 19:23:39.097915  9183 net.cpp:425] inception_5a/relu_3x3 <- inception_5a/3x3
I0403 19:23:39.097934  9183 net.cpp:386] inception_5a/relu_3x3 -> inception_5a/3x3 (in-place)
I0403 19:23:39.098228  9183 net.cpp:141] Setting up inception_5a/relu_3x3
I0403 19:23:39.098256  9183 net.cpp:148] Top shape: 24 320 7 7 (376320)
I0403 19:23:39.098276  9183 net.cpp:156] Memory required for data: 1299050016
I0403 19:23:39.098294  9183 layer_factory.hpp:77] Creating layer inception_5a/5x5_reduce
I0403 19:23:39.098316  9183 net.cpp:91] Creating Layer inception_5a/5x5_reduce
I0403 19:23:39.098335  9183 net.cpp:425] inception_5a/5x5_reduce <- pool4/3x3_s2_pool4/3x3_s2_0_split_2
I0403 19:23:39.098356  9183 net.cpp:399] inception_5a/5x5_reduce -> inception_5a/5x5_reduce
I0403 19:23:39.099527  9183 net.cpp:141] Setting up inception_5a/5x5_reduce
I0403 19:23:39.099556  9183 net.cpp:148] Top shape: 24 32 7 7 (37632)
I0403 19:23:39.099572  9183 net.cpp:156] Memory required for data: 1299200544
I0403 19:23:39.099591  9183 layer_factory.hpp:77] Creating layer inception_5a/relu_5x5_reduce
I0403 19:23:39.099608  9183 net.cpp:91] Creating Layer inception_5a/relu_5x5_reduce
I0403 19:23:39.099624  9183 net.cpp:425] inception_5a/relu_5x5_reduce <- inception_5a/5x5_reduce
I0403 19:23:39.099643  9183 net.cpp:386] inception_5a/relu_5x5_reduce -> inception_5a/5x5_reduce (in-place)
I0403 19:23:39.099946  9183 net.cpp:141] Setting up inception_5a/relu_5x5_reduce
I0403 19:23:39.099972  9183 net.cpp:148] Top shape: 24 32 7 7 (37632)
I0403 19:23:39.099987  9183 net.cpp:156] Memory required for data: 1299351072
I0403 19:23:39.100003  9183 layer_factory.hpp:77] Creating layer inception_5a/5x5
I0403 19:23:39.100024  9183 net.cpp:91] Creating Layer inception_5a/5x5
I0403 19:23:39.100042  9183 net.cpp:425] inception_5a/5x5 <- inception_5a/5x5_reduce
I0403 19:23:39.100064  9183 net.cpp:399] inception_5a/5x5 -> inception_5a/5x5
I0403 19:23:39.101795  9183 net.cpp:141] Setting up inception_5a/5x5
I0403 19:23:39.101838  9183 net.cpp:148] Top shape: 24 128 7 7 (150528)
I0403 19:23:39.101855  9183 net.cpp:156] Memory required for data: 1299953184
I0403 19:23:39.101874  9183 layer_factory.hpp:77] Creating layer inception_5a/relu_5x5
I0403 19:23:39.101892  9183 net.cpp:91] Creating Layer inception_5a/relu_5x5
I0403 19:23:39.101908  9183 net.cpp:425] inception_5a/relu_5x5 <- inception_5a/5x5
I0403 19:23:39.101928  9183 net.cpp:386] inception_5a/relu_5x5 -> inception_5a/5x5 (in-place)
I0403 19:23:39.102120  9183 net.cpp:141] Setting up inception_5a/relu_5x5
I0403 19:23:39.102145  9183 net.cpp:148] Top shape: 24 128 7 7 (150528)
I0403 19:23:39.102160  9183 net.cpp:156] Memory required for data: 1300555296
I0403 19:23:39.102175  9183 layer_factory.hpp:77] Creating layer inception_5a/pool
I0403 19:23:39.102192  9183 net.cpp:91] Creating Layer inception_5a/pool
I0403 19:23:39.102208  9183 net.cpp:425] inception_5a/pool <- pool4/3x3_s2_pool4/3x3_s2_0_split_3
I0403 19:23:39.102231  9183 net.cpp:399] inception_5a/pool -> inception_5a/pool
I0403 19:23:39.102315  9183 net.cpp:141] Setting up inception_5a/pool
I0403 19:23:39.102340  9183 net.cpp:148] Top shape: 24 832 7 7 (978432)
I0403 19:23:39.102355  9183 net.cpp:156] Memory required for data: 1304469024
I0403 19:23:39.102370  9183 layer_factory.hpp:77] Creating layer inception_5a/pool_proj
I0403 19:23:39.102392  9183 net.cpp:91] Creating Layer inception_5a/pool_proj
I0403 19:23:39.102411  9183 net.cpp:425] inception_5a/pool_proj <- inception_5a/pool
I0403 19:23:39.102430  9183 net.cpp:399] inception_5a/pool_proj -> inception_5a/pool_proj
I0403 19:23:39.104717  9183 net.cpp:141] Setting up inception_5a/pool_proj
I0403 19:23:39.104748  9183 net.cpp:148] Top shape: 24 128 7 7 (150528)
I0403 19:23:39.104764  9183 net.cpp:156] Memory required for data: 1305071136
I0403 19:23:39.104784  9183 layer_factory.hpp:77] Creating layer inception_5a/relu_pool_proj
I0403 19:23:39.104801  9183 net.cpp:91] Creating Layer inception_5a/relu_pool_proj
I0403 19:23:39.104817  9183 net.cpp:425] inception_5a/relu_pool_proj <- inception_5a/pool_proj
I0403 19:23:39.104833  9183 net.cpp:386] inception_5a/relu_pool_proj -> inception_5a/pool_proj (in-place)
I0403 19:23:39.105137  9183 net.cpp:141] Setting up inception_5a/relu_pool_proj
I0403 19:23:39.105165  9183 net.cpp:148] Top shape: 24 128 7 7 (150528)
I0403 19:23:39.105181  9183 net.cpp:156] Memory required for data: 1305673248
I0403 19:23:39.105196  9183 layer_factory.hpp:77] Creating layer inception_5a/output
I0403 19:23:39.105218  9183 net.cpp:91] Creating Layer inception_5a/output
I0403 19:23:39.105235  9183 net.cpp:425] inception_5a/output <- inception_5a/1x1
I0403 19:23:39.105252  9183 net.cpp:425] inception_5a/output <- inception_5a/3x3
I0403 19:23:39.105269  9183 net.cpp:425] inception_5a/output <- inception_5a/5x5
I0403 19:23:39.105304  9183 net.cpp:425] inception_5a/output <- inception_5a/pool_proj
I0403 19:23:39.105321  9183 net.cpp:399] inception_5a/output -> inception_5a/output
I0403 19:23:39.105373  9183 net.cpp:141] Setting up inception_5a/output
I0403 19:23:39.105397  9183 net.cpp:148] Top shape: 24 832 7 7 (978432)
I0403 19:23:39.105412  9183 net.cpp:156] Memory required for data: 1309586976
I0403 19:23:39.105427  9183 layer_factory.hpp:77] Creating layer inception_5a/output_inception_5a/output_0_split
I0403 19:23:39.105446  9183 net.cpp:91] Creating Layer inception_5a/output_inception_5a/output_0_split
I0403 19:23:39.105463  9183 net.cpp:425] inception_5a/output_inception_5a/output_0_split <- inception_5a/output
I0403 19:23:39.105480  9183 net.cpp:399] inception_5a/output_inception_5a/output_0_split -> inception_5a/output_inception_5a/output_0_split_0
I0403 19:23:39.105500  9183 net.cpp:399] inception_5a/output_inception_5a/output_0_split -> inception_5a/output_inception_5a/output_0_split_1
I0403 19:23:39.105520  9183 net.cpp:399] inception_5a/output_inception_5a/output_0_split -> inception_5a/output_inception_5a/output_0_split_2
I0403 19:23:39.105540  9183 net.cpp:399] inception_5a/output_inception_5a/output_0_split -> inception_5a/output_inception_5a/output_0_split_3
I0403 19:23:39.105659  9183 net.cpp:141] Setting up inception_5a/output_inception_5a/output_0_split
I0403 19:23:39.105682  9183 net.cpp:148] Top shape: 24 832 7 7 (978432)
I0403 19:23:39.105698  9183 net.cpp:148] Top shape: 24 832 7 7 (978432)
I0403 19:23:39.105713  9183 net.cpp:148] Top shape: 24 832 7 7 (978432)
I0403 19:23:39.105729  9183 net.cpp:148] Top shape: 24 832 7 7 (978432)
I0403 19:23:39.105742  9183 net.cpp:156] Memory required for data: 1325241888
I0403 19:23:39.105756  9183 layer_factory.hpp:77] Creating layer inception_5b/1x1
I0403 19:23:39.105778  9183 net.cpp:91] Creating Layer inception_5b/1x1
I0403 19:23:39.105797  9183 net.cpp:425] inception_5b/1x1 <- inception_5a/output_inception_5a/output_0_split_0
I0403 19:23:39.105818  9183 net.cpp:399] inception_5b/1x1 -> inception_5b/1x1
I0403 19:23:39.109760  9183 net.cpp:141] Setting up inception_5b/1x1
I0403 19:23:39.109792  9183 net.cpp:148] Top shape: 24 384 7 7 (451584)
I0403 19:23:39.109809  9183 net.cpp:156] Memory required for data: 1327048224
I0403 19:23:39.109828  9183 layer_factory.hpp:77] Creating layer inception_5b/relu_1x1
I0403 19:23:39.109849  9183 net.cpp:91] Creating Layer inception_5b/relu_1x1
I0403 19:23:39.109866  9183 net.cpp:425] inception_5b/relu_1x1 <- inception_5b/1x1
I0403 19:23:39.109884  9183 net.cpp:386] inception_5b/relu_1x1 -> inception_5b/1x1 (in-place)
I0403 19:23:39.110196  9183 net.cpp:141] Setting up inception_5b/relu_1x1
I0403 19:23:39.110224  9183 net.cpp:148] Top shape: 24 384 7 7 (451584)
I0403 19:23:39.110239  9183 net.cpp:156] Memory required for data: 1328854560
I0403 19:23:39.110254  9183 layer_factory.hpp:77] Creating layer inception_5b/3x3_reduce
I0403 19:23:39.110283  9183 net.cpp:91] Creating Layer inception_5b/3x3_reduce
I0403 19:23:39.110304  9183 net.cpp:425] inception_5b/3x3_reduce <- inception_5a/output_inception_5a/output_0_split_1
I0403 19:23:39.110324  9183 net.cpp:399] inception_5b/3x3_reduce -> inception_5b/3x3_reduce
I0403 19:23:39.113111  9183 net.cpp:141] Setting up inception_5b/3x3_reduce
I0403 19:23:39.113144  9183 net.cpp:148] Top shape: 24 192 7 7 (225792)
I0403 19:23:39.113163  9183 net.cpp:156] Memory required for data: 1329757728
I0403 19:23:39.113183  9183 layer_factory.hpp:77] Creating layer inception_5b/relu_3x3_reduce
I0403 19:23:39.113203  9183 net.cpp:91] Creating Layer inception_5b/relu_3x3_reduce
I0403 19:23:39.113219  9183 net.cpp:425] inception_5b/relu_3x3_reduce <- inception_5b/3x3_reduce
I0403 19:23:39.113236  9183 net.cpp:386] inception_5b/relu_3x3_reduce -> inception_5b/3x3_reduce (in-place)
I0403 19:23:39.113440  9183 net.cpp:141] Setting up inception_5b/relu_3x3_reduce
I0403 19:23:39.113466  9183 net.cpp:148] Top shape: 24 192 7 7 (225792)
I0403 19:23:39.113481  9183 net.cpp:156] Memory required for data: 1330660896
I0403 19:23:39.113495  9183 layer_factory.hpp:77] Creating layer inception_5b/3x3
I0403 19:23:39.113518  9183 net.cpp:91] Creating Layer inception_5b/3x3
I0403 19:23:39.113536  9183 net.cpp:425] inception_5b/3x3 <- inception_5b/3x3_reduce
I0403 19:23:39.113559  9183 net.cpp:399] inception_5b/3x3 -> inception_5b/3x3
I0403 19:23:39.120524  9183 net.cpp:141] Setting up inception_5b/3x3
I0403 19:23:39.120558  9183 net.cpp:148] Top shape: 24 384 7 7 (451584)
I0403 19:23:39.120578  9183 net.cpp:156] Memory required for data: 1332467232
I0403 19:23:39.120596  9183 layer_factory.hpp:77] Creating layer inception_5b/relu_3x3
I0403 19:23:39.120615  9183 net.cpp:91] Creating Layer inception_5b/relu_3x3
I0403 19:23:39.120632  9183 net.cpp:425] inception_5b/relu_3x3 <- inception_5b/3x3
I0403 19:23:39.120653  9183 net.cpp:386] inception_5b/relu_3x3 -> inception_5b/3x3 (in-place)
I0403 19:23:39.120961  9183 net.cpp:141] Setting up inception_5b/relu_3x3
I0403 19:23:39.120991  9183 net.cpp:148] Top shape: 24 384 7 7 (451584)
I0403 19:23:39.121008  9183 net.cpp:156] Memory required for data: 1334273568
I0403 19:23:39.121023  9183 layer_factory.hpp:77] Creating layer inception_5b/5x5_reduce
I0403 19:23:39.121067  9183 net.cpp:91] Creating Layer inception_5b/5x5_reduce
I0403 19:23:39.121085  9183 net.cpp:425] inception_5b/5x5_reduce <- inception_5a/output_inception_5a/output_0_split_2
I0403 19:23:39.121106  9183 net.cpp:399] inception_5b/5x5_reduce -> inception_5b/5x5_reduce
I0403 19:23:39.122431  9183 net.cpp:141] Setting up inception_5b/5x5_reduce
I0403 19:23:39.122464  9183 net.cpp:148] Top shape: 24 48 7 7 (56448)
I0403 19:23:39.122483  9183 net.cpp:156] Memory required for data: 1334499360
I0403 19:23:39.122503  9183 layer_factory.hpp:77] Creating layer inception_5b/relu_5x5_reduce
I0403 19:23:39.122522  9183 net.cpp:91] Creating Layer inception_5b/relu_5x5_reduce
I0403 19:23:39.122539  9183 net.cpp:425] inception_5b/relu_5x5_reduce <- inception_5b/5x5_reduce
I0403 19:23:39.122560  9183 net.cpp:386] inception_5b/relu_5x5_reduce -> inception_5b/5x5_reduce (in-place)
I0403 19:23:39.122946  9183 net.cpp:141] Setting up inception_5b/relu_5x5_reduce
I0403 19:23:39.122975  9183 net.cpp:148] Top shape: 24 48 7 7 (56448)
I0403 19:23:39.122992  9183 net.cpp:156] Memory required for data: 1334725152
I0403 19:23:39.123008  9183 layer_factory.hpp:77] Creating layer inception_5b/5x5
I0403 19:23:39.123028  9183 net.cpp:91] Creating Layer inception_5b/5x5
I0403 19:23:39.123045  9183 net.cpp:425] inception_5b/5x5 <- inception_5b/5x5_reduce
I0403 19:23:39.123065  9183 net.cpp:399] inception_5b/5x5 -> inception_5b/5x5
I0403 19:23:39.125250  9183 net.cpp:141] Setting up inception_5b/5x5
I0403 19:23:39.125283  9183 net.cpp:148] Top shape: 24 128 7 7 (150528)
I0403 19:23:39.125300  9183 net.cpp:156] Memory required for data: 1335327264
I0403 19:23:39.125319  9183 layer_factory.hpp:77] Creating layer inception_5b/relu_5x5
I0403 19:23:39.125339  9183 net.cpp:91] Creating Layer inception_5b/relu_5x5
I0403 19:23:39.125355  9183 net.cpp:425] inception_5b/relu_5x5 <- inception_5b/5x5
I0403 19:23:39.125375  9183 net.cpp:386] inception_5b/relu_5x5 -> inception_5b/5x5 (in-place)
I0403 19:23:39.125576  9183 net.cpp:141] Setting up inception_5b/relu_5x5
I0403 19:23:39.125602  9183 net.cpp:148] Top shape: 24 128 7 7 (150528)
I0403 19:23:39.125617  9183 net.cpp:156] Memory required for data: 1335929376
I0403 19:23:39.125633  9183 layer_factory.hpp:77] Creating layer inception_5b/pool
I0403 19:23:39.125653  9183 net.cpp:91] Creating Layer inception_5b/pool
I0403 19:23:39.125671  9183 net.cpp:425] inception_5b/pool <- inception_5a/output_inception_5a/output_0_split_3
I0403 19:23:39.125690  9183 net.cpp:399] inception_5b/pool -> inception_5b/pool
I0403 19:23:39.125766  9183 net.cpp:141] Setting up inception_5b/pool
I0403 19:23:39.125790  9183 net.cpp:148] Top shape: 24 832 7 7 (978432)
I0403 19:23:39.125807  9183 net.cpp:156] Memory required for data: 1339843104
I0403 19:23:39.125821  9183 layer_factory.hpp:77] Creating layer inception_5b/pool_proj
I0403 19:23:39.125844  9183 net.cpp:91] Creating Layer inception_5b/pool_proj
I0403 19:23:39.125862  9183 net.cpp:425] inception_5b/pool_proj <- inception_5b/pool
I0403 19:23:39.125885  9183 net.cpp:399] inception_5b/pool_proj -> inception_5b/pool_proj
I0403 19:23:39.128279  9183 net.cpp:141] Setting up inception_5b/pool_proj
I0403 19:23:39.128315  9183 net.cpp:148] Top shape: 24 128 7 7 (150528)
I0403 19:23:39.128334  9183 net.cpp:156] Memory required for data: 1340445216
I0403 19:23:39.128355  9183 layer_factory.hpp:77] Creating layer inception_5b/relu_pool_proj
I0403 19:23:39.128373  9183 net.cpp:91] Creating Layer inception_5b/relu_pool_proj
I0403 19:23:39.128392  9183 net.cpp:425] inception_5b/relu_pool_proj <- inception_5b/pool_proj
I0403 19:23:39.128415  9183 net.cpp:386] inception_5b/relu_pool_proj -> inception_5b/pool_proj (in-place)
I0403 19:23:39.128741  9183 net.cpp:141] Setting up inception_5b/relu_pool_proj
I0403 19:23:39.128772  9183 net.cpp:148] Top shape: 24 128 7 7 (150528)
I0403 19:23:39.128789  9183 net.cpp:156] Memory required for data: 1341047328
I0403 19:23:39.128806  9183 layer_factory.hpp:77] Creating layer inception_5b/output
I0403 19:23:39.128825  9183 net.cpp:91] Creating Layer inception_5b/output
I0403 19:23:39.128856  9183 net.cpp:425] inception_5b/output <- inception_5b/1x1
I0403 19:23:39.128875  9183 net.cpp:425] inception_5b/output <- inception_5b/3x3
I0403 19:23:39.128892  9183 net.cpp:425] inception_5b/output <- inception_5b/5x5
I0403 19:23:39.128909  9183 net.cpp:425] inception_5b/output <- inception_5b/pool_proj
I0403 19:23:39.128931  9183 net.cpp:399] inception_5b/output -> inception_5b/output
I0403 19:23:39.128984  9183 net.cpp:141] Setting up inception_5b/output
I0403 19:23:39.129009  9183 net.cpp:148] Top shape: 24 1024 7 7 (1204224)
I0403 19:23:39.129024  9183 net.cpp:156] Memory required for data: 1345864224
I0403 19:23:39.129039  9183 layer_factory.hpp:77] Creating layer pool5/7x7_s1
I0403 19:23:39.129060  9183 net.cpp:91] Creating Layer pool5/7x7_s1
I0403 19:23:39.129077  9183 net.cpp:425] pool5/7x7_s1 <- inception_5b/output
I0403 19:23:39.129096  9183 net.cpp:399] pool5/7x7_s1 -> pool5/7x7_s1
I0403 19:23:39.129325  9183 net.cpp:141] Setting up pool5/7x7_s1
I0403 19:23:39.129353  9183 net.cpp:148] Top shape: 24 1024 1 1 (24576)
I0403 19:23:39.129367  9183 net.cpp:156] Memory required for data: 1345962528
I0403 19:23:39.129384  9183 layer_factory.hpp:77] Creating layer pool5/drop_7x7_s1
I0403 19:23:39.129401  9183 net.cpp:91] Creating Layer pool5/drop_7x7_s1
I0403 19:23:39.129417  9183 net.cpp:425] pool5/drop_7x7_s1 <- pool5/7x7_s1
I0403 19:23:39.129438  9183 net.cpp:386] pool5/drop_7x7_s1 -> pool5/7x7_s1 (in-place)
I0403 19:23:39.129489  9183 net.cpp:141] Setting up pool5/drop_7x7_s1
I0403 19:23:39.129513  9183 net.cpp:148] Top shape: 24 1024 1 1 (24576)
I0403 19:23:39.129528  9183 net.cpp:156] Memory required for data: 1346060832
I0403 19:23:39.129544  9183 layer_factory.hpp:77] Creating layer loss3/classifier_plantvillage
I0403 19:23:39.129566  9183 net.cpp:91] Creating Layer loss3/classifier_plantvillage
I0403 19:23:39.129585  9183 net.cpp:425] loss3/classifier_plantvillage <- pool5/7x7_s1
I0403 19:23:39.129606  9183 net.cpp:399] loss3/classifier_plantvillage -> loss3/classifier_plantvillage
I0403 19:23:39.130044  9183 net.cpp:141] Setting up loss3/classifier_plantvillage
I0403 19:23:39.130069  9183 net.cpp:148] Top shape: 24 38 (912)
I0403 19:23:39.130084  9183 net.cpp:156] Memory required for data: 1346064480
I0403 19:23:39.130102  9183 layer_factory.hpp:77] Creating layer loss3/classifier_plantvillage_loss3/classifier_plantvillage_0_split
I0403 19:23:39.130123  9183 net.cpp:91] Creating Layer loss3/classifier_plantvillage_loss3/classifier_plantvillage_0_split
I0403 19:23:39.130141  9183 net.cpp:425] loss3/classifier_plantvillage_loss3/classifier_plantvillage_0_split <- loss3/classifier_plantvillage
I0403 19:23:39.130158  9183 net.cpp:399] loss3/classifier_plantvillage_loss3/classifier_plantvillage_0_split -> loss3/classifier_plantvillage_loss3/classifier_plantvillage_0_split_0
I0403 19:23:39.130179  9183 net.cpp:399] loss3/classifier_plantvillage_loss3/classifier_plantvillage_0_split -> loss3/classifier_plantvillage_loss3/classifier_plantvillage_0_split_1
I0403 19:23:39.130200  9183 net.cpp:399] loss3/classifier_plantvillage_loss3/classifier_plantvillage_0_split -> loss3/classifier_plantvillage_loss3/classifier_plantvillage_0_split_2
I0403 19:23:39.130223  9183 net.cpp:399] loss3/classifier_plantvillage_loss3/classifier_plantvillage_0_split -> loss3/classifier_plantvillage_loss3/classifier_plantvillage_0_split_3
I0403 19:23:39.130334  9183 net.cpp:141] Setting up loss3/classifier_plantvillage_loss3/classifier_plantvillage_0_split
I0403 19:23:39.130359  9183 net.cpp:148] Top shape: 24 38 (912)
I0403 19:23:39.130376  9183 net.cpp:148] Top shape: 24 38 (912)
I0403 19:23:39.130393  9183 net.cpp:148] Top shape: 24 38 (912)
I0403 19:23:39.130408  9183 net.cpp:148] Top shape: 24 38 (912)
I0403 19:23:39.130422  9183 net.cpp:156] Memory required for data: 1346079072
I0403 19:23:39.130439  9183 layer_factory.hpp:77] Creating layer loss1/loss
I0403 19:23:39.130460  9183 net.cpp:91] Creating Layer loss1/loss
I0403 19:23:39.130478  9183 net.cpp:425] loss1/loss <- loss1/classifier_plantvillage_loss1/classifier_plantvillage_0_split_0
I0403 19:23:39.130511  9183 net.cpp:425] loss1/loss <- label_data_1_split_0
…
