…
I0403 19:28:53.603052  9290 net.cpp:313] The NetState phase (1) differed from the phase (0) specified by a rule in layer data
I0403 19:28:53.604179  9290 net.cpp:49] Initializing net from parameters: 
state {
  phase: TEST
}
layer {
  name: "data"
  type: "Data"
  top: "data"
  top: "label"
  include {
    phase: TEST
  }
  transform_param {
    mirror: false
    crop_size: 224
    mean_file: "/home/mohanty/data/final_dataset/lmdb/color-50-50/mean.binaryproto"
  }
  data_param {
    source: "/home/mohanty/data/final_dataset/lmdb/color-50-50/test_db"
    batch_size: 24
    backend: LMDB
  }
}
layer {
  name: "conv1/7x7_s2"
  type: "Convolution"
  bottom: "data"
  top: "conv1/7x7_s2"
  param {
    lr_mult: 1
    decay_mult: 1
  }
  param {
    lr_mult: 2
    decay_mult: 0
  }
  convolution_param {
    num_output: 64
    pad: 3
    kernel_size: 7
    stride: 2
    weight_filler {
      type: "xavier"
      std: 0.1
    }
    bias_filler {
      type: "constant"
      value: 0.2
    }
  }
}
layer {
  name: "conv1/relu_7x7"
  type: "ReLU"
  bottom: "conv1/7x7_s2"
  top: "conv1/7x7_s2"
}
layer {
  name: "pool1/3x3_s2"
  type: "Pooling"
  bottom: "conv1/7x7_s2"
  top: "pool1/3x3_s2"
  pooling_param {
    pool: MAX
    kernel_size: 3
    stride: 2
  }
}
layer {
  name: "pool1/norm1"
  type: "LRN"
  bottom: "pool1/3x3_s2"
  top: "pool1/norm1"
  lrn_param {
    local_size: 5
    alpha: 0.0001
    beta: 0.75
  }
}
layer {
  name: "conv2/3x3_reduce"
  type: "Convolution"
  bottom: "pool1/norm1"
  top: "conv2/3x3_reduce"
  param {
    lr_mult: 1
    decay_mult: 1
  }
  param {
    lr_mult: 2
    decay_mult: 0
  }
  convolution_param {
    num_output: 64
    kernel_size: 1
    weight_filler {
      type: "xavier"
      std: 0.1
    }
    bias_filler {
      type: "constant"
      value: 0.2
    }
  }
}
layer {
  name: "conv2/relu_3x3_reduce"
  type: "ReLU"
  bottom: "conv2/3x3_reduce"
  top: "conv2/3x3_reduce"
}
layer {
  name: "conv2/3x3"
  type: "Convolution"
  bottom: "conv2/3x3_reduce"
  top: "conv2/3x3"
  param {
    lr_mult: 1
    decay_mult: 1
  }
  param {
    lr_mult: 2
    decay_mult: 0
  }
  convolution_param {
    num_output: 192
    pad: 1
    kernel_size: 3
    weight_filler {
      type: "xavier"
      std: 0.03
    }
    bias_filler {
      type: "constant"
      value: 0.2
    }
  }
}
layer {
  name: "conv2/relu_3x3"
  type: "ReLU"
  bottom: "conv2/3x3"
  top: "conv2/3x3"
}
layer {
  name: "conv2/norm2"
  type: "LRN"
  bottom: "conv2/3x3"
  top: "conv2/norm2"
  lrn_param {
    local_size: 5
    alpha: 0.0001
    beta: 0.75
  }
}
layer {
  name: "pool2/3x3_s2"
  type: "Pooling"
  bottom: "conv2/norm2"
  top: "pool2/3x3_s2"
  pooling_param {
    pool: MAX
    kernel_size: 3
    stride: 2
  }
}
layer {
  name: "inception_3a/1x1"
  type: "Convolution"
  bottom: "pool2/3x3_s2"
  top: "inception_3a/1x1"
  param {
    lr_mult: 1
    decay_mult: 1
  }
  param {
    lr_mult: 2
    decay_mult: 0
  }
  convolution_param {
    num_output: 64
    kernel_size: 1
    weight_filler {
      type: "xavier"
      std: 0.03
    }
    bias_filler {
      type: "constant"
      value: 0.2
    }
  }
}
layer {
  name: "inception_3a/relu_1x1"
  type: "ReLU"
  bottom: "inception_3a/1x1"
  top: "inception_3a/1x1"
}
layer {
  name: "inception_3a/3x3_reduce"
  type: "Convolution"
  bottom: "pool2/3x3_s2"
  top: "inception_3a/3x3_reduce"
  param {
    lr_mult: 1
    decay_mult: 1
  }
  param {
    lr_mult: 2
    decay_mult: 0
  }
  convolution_param {
    num_output: 96
    kernel_size: 1
    weight_filler {
      type: "xavier"
      std: 0.09
    }
    bias_filler {
      type: "constant"
      value: 0.2
    }
  }
}
layer {
  name: "inception_3a/relu_3x3_reduce"
  type: "ReLU"
  bottom: "inception_3a/3x3_reduce"
  top: "inception_3a/3x3_reduce"
}
layer {
  name: "inception_3a/3x3"
  type: "Convolution"
  bottom: "inception_3a/3x3_reduce"
  top: "inception_3a/3x3"
  param {
    lr_mult: 1
    decay_mult: 1
  }
  param {
    lr_mult: 2
    decay_mult: 0
  }
  convolution_param {
    num_output: 128
    pad: 1
    kernel_size: 3
    weight_filler {
      type: "xavier"
      std: 0.03
    }
    bias_filler {
      type: "constant"
      value: 0.2
    }
  }
}
layer {
  name: "inception_3a/relu_3x3"
  type: "ReLU"
  bottom: "inception_3a/3x3"
  top: "inception_3a/3x3"
}
layer {
  name: "inception_3a/5x5_reduce"
  type: "Convolution"
  bottom: "pool2/3x3_s2"
  top: "inception_3a/5x5_reduce"
  param {
    lr_mult: 1
    decay_mult: 1
  }
  param {
    lr_mult: 2
    decay_mult: 0
  }
  convolution_param {
    num_output: 16
    kernel_size: 1
    weight_filler {
      type: "xavier"
      std: 0.2
    }
    bias_filler {
      type: "constant"
      value: 0.2
    }
  }
}
layer {
  name: "inception_3a/relu_5x5_reduce"
  type: "ReLU"
  bottom: "inception_3a/5x5_reduce"
  top: "inception_3a/5x5_reduce"
}
layer {
  name: "inception_3a/5x5"
  type: "Convolution"
  bottom: "inception_3a/5x5_reduce"
  top: "inception_3a/5x5"
  param {
    lr_mult: 1
    decay_mult: 1
  }
  param {
    lr_mult: 2
    decay_mult: 0
  }
  convolution_param {
    num_output: 32
    pad: 2
    kernel_size: 5
    weight_filler {
      type: "xavier"
      std: 0.03
    }
    bias_filler {
      type: "constant"
      value: 0.2
    }
  }
}
layer {
  name: "inception_3a/relu_5x5"
  type: "ReLU"
  bottom: "inception_3a/5x5"
  top: "inception_3a/5x5"
}
layer {
  name: "inception_3a/pool"
  type: "Pooling"
  bottom: "pool2/3x3_s2"
  top: "inception_3a/pool"
  pooling_param {
    pool: MAX
    kernel_size: 3
    stride: 1
    pad: 1
  }
}
layer {
  name: "inception_3a/pool_proj"
  type: "Convolution"
  bottom: "inception_3a/pool"
  top: "inception_3a/pool_proj"
  param {
    lr_mult: 1
    decay_mult: 1
  }
  param {
    lr_mult: 2
    decay_mult: 0
  }
  convolution_param {
    num_output: 32
    kernel_size: 1
    weight_filler {
      type: "xavier"
      std: 0.1
    }
    bias_filler {
      type: "constant"
      value: 0.2
    }
  }
}
layer {
  name: "inception_3a/relu_pool_proj"
  type: "ReLU"
  bottom: "inception_3a/pool_proj"
  top: "inception_3a/pool_proj"
}
layer {
  name: "inception_3a/output"
  type: "Concat"
  bottom: "inception_3a/1x1"
  bottom: "inception_3a/3x3"
  bottom: "inception_3a/5x5"
  bottom: "inception_3a/pool_proj"
  top: "inception_3a/output"
}
layer {
  name: "inception_3b/1x1"
  type: "Convolution"
  bottom: "inception_3a/output"
  top: "inception_3b/1x1"
  param {
    lr_mult: 1
    decay_mult: 1
  }
  param {
    lr_mult: 2
    decay_mult: 0
  }
  convolution_param {
    num_output: 128
    kernel_size: 1
    weight_filler {
      type: "xavier"
      std: 0.03
    }
    bias_filler {
      type: "constant"
      value: 0.2
    }
  }
}
layer {
  name: "inception_3b/relu_1x1"
  type: "ReLU"
  bottom: "inception_3b/1x1"
  top: "inception_3b/1x1"
}
layer {
  name: "inception_3b/3x3_reduce"
  type: "Convolution"
  bottom: "inception_3a/output"
  top: "inception_3b/3x3_reduce"
  param {
    lr_mult: 1
    decay_mult: 1
  }
  param {
    lr_mult: 2
    decay_mult: 0
  }
  convolution_param {
    num_output: 128
    kernel_size: 1
    weight_filler {
      type: "xavier"
      std: 0.09
    }
    bias_filler {
      type: "constant"
      value: 0.2
    }
  }
}
layer {
  name: "inception_3b/relu_3x3_reduce"
  type: "ReLU"
  bottom: "inception_3b/3x3_reduce"
  top: "inception_3b/3x3_reduce"
}
layer {
  name: "inception_3b/3x3"
  type: "Convolution"
  bottom: "inception_3b/3x3_reduce"
  top: "inception_3b/3x3"
  param {
    lr_mult: 1
    decay_mult: 1
  }
  param {
    lr_mult: 2
    decay_mult: 0
  }
  convolution_param {
    num_output: 192
    pad: 1
    kernel_size: 3
    weight_filler {
      type: "xavier"
      std: 0.03
    }
    bias_filler {
      type: "constant"
      value: 0.2
    }
  }
}
layer {
  name: "inception_3b/relu_3x3"
  type: "ReLU"
  bottom: "inception_3b/3x3"
  top: "inception_3b/3x3"
}
layer {
  name: "inception_3b/5x5_reduce"
  type: "Convolution"
  bottom: "inception_3a/output"
  top: "inception_3b/5x5_reduce"
  param {
    lr_mult: 1
    decay_mult: 1
  }
  param {
    lr_mult: 2
    decay_mult: 0
  }
  convolution_param {
    num_output: 32
    kernel_size: 1
    weight_filler {
      type: "xavier"
      std: 0.2
    }
    bias_filler {
      type: "constant"
      value: 0.2
    }
  }
}
layer {
  name: "inception_3b/relu_5x5_reduce"
  type: "ReLU"
  bottom: "inception_3b/5x5_reduce"
  top: "inception_3b/5x5_reduce"
}
layer {
  name: "inception_3b/5x5"
  type: "Convolution"
  bottom: "inception_3b/5x5_reduce"
  top: "inception_3b/5x5"
  param {
    lr_mult: 1
    decay_mult: 1
  }
  param {
    lr_mult: 2
    decay_mult: 0
  }
  convolution_param {
    num_output: 96
    pad: 2
    kernel_size: 5
    weight_filler {
      type: "xavier"
      std: 0.03
    }
    bias_filler {
      type: "constant"
      value: 0.2
    }
  }
}
layer {
  name: "inception_3b/relu_5x5"
  type: "ReLU"
  bottom: "inception_3b/5x5"
  top: "inception_3b/5x5"
}
layer {
  name: "inception_3b/pool"
  type: "Pooling"
  bottom: "inception_3a/output"
  top: "inception_3b/pool"
  pooling_param {
    pool: MAX
    kernel_size: 3
    stride: 1
    pad: 1
  }
}
layer {
  name: "inception_3b/pool_proj"
  type: "Convolution"
  bottom: "inception_3b/pool"
  top: "inception_3b/pool_proj"
  param {
    lr_mult: 1
    decay_mult: 1
  }
  param {
    lr_mult: 2
    decay_mult: 0
  }
  convolution_param {
    num_output: 64
    kernel_size: 1
    weight_filler {
      type: "xavier"
      std: 0.1
    }
    bias_filler {
      type: "constant"
      value: 0.2
    }
  }
}
layer {
  name: "inception_3b/relu_pool_proj"
  type: "ReLU"
  bottom: "inception_3b/pool_proj"
  top: "inception_3b/pool_proj"
}
layer {
  name: "inception_3b/output"
  type: "Concat"
  bottom: "inception_3b/1x1"
  bottom: "inception_3b/3x3"
  bottom: "inception_3b/5x5"
  bottom: "inception_3b/pool_proj"
  top: "inception_3b/output"
}
layer {
  name: "pool3/3x3_s2"
  type: "Pooling"
  bottom: "inception_3b/output"
  top: "pool3/3x3_s2"
  pooling_param {
    pool: MAX
    kernel_size: 3
    stride: 2
  }
}
layer {
  name: "inception_4a/1x1"
  type: "Convolution"
  bottom: "pool3/3x3_s2"
  top: "inception_4a/1x1"
  param {
    lr_mult: 1
    decay_mult: 1
  }
  param {
    lr_mult: 2
    decay_mult: 0
  }
  convolution_param {
    num_output: 192
    kernel_size: 1
    weight_filler {
      type: "xavier"
      std: 0.03
    }
    bias_filler {
      type: "constant"
      value: 0.2
    }
  }
}
layer {
  name: "inception_4a/relu_1x1"
  type: "ReLU"
  bottom: "inception_4a/1x1"
  top: "inception_4a/1x1"
}
layer {
  name: "inception_4a/3x3_reduce"
  type: "Convolution"
  bottom: "pool3/3x3_s2"
  top: "inception_4a/3x3_reduce"
  param {
    lr_mult: 1
    decay_mult: 1
  }
  param {
    lr_mult: 2
    decay_mult: 0
  }
  convolution_param {
    num_output: 96
    kernel_size: 1
    weight_filler {
      type: "xavier"
      std: 0.09
    }
    bias_filler {
      type: "constant"
      value: 0.2
    }
  }
}
layer {
  name: "inception_4a/relu_3x3_reduce"
  type: "ReLU"
  bottom: "inception_4a/3x3_reduce"
  top: "inception_4a/3x3_reduce"
}
layer {
  name: "inception_4a/3x3"
  type: "Convolution"
  bottom: "inception_4a/3x3_reduce"
  top: "inception_4a/3x3"
  param {
    lr_mult: 1
    decay_mult: 1
  }
  param {
    lr_mult: 2
    decay_mult: 0
  }
  convolution_param {
    num_output: 208
    pad: 1
    kernel_size: 3
    weight_filler {
      type: "xavier"
      std: 0.03
    }
    bias_filler {
      type: "constant"
      value: 0.2
    }
  }
}
layer {
  name: "inception_4a/relu_3x3"
  type: "ReLU"
  bottom: "inception_4a/3x3"
  top: "inception_4a/3x3"
}
layer {
  name: "inception_4a/5x5_reduce"
  type: "Convolution"
  bottom: "pool3/3x3_s2"
  top: "inception_4a/5x5_reduce"
  param {
    lr_mult: 1
    decay_mult: 1
  }
  param {
    lr_mult: 2
    decay_mult: 0
  }
  convolution_param {
    num_output: 16
    kernel_size: 1
    weight_filler {
      type: "xavier"
      std: 0.2
    }
    bias_filler {
      type: "constant"
      value: 0.2
    }
  }
}
layer {
  name: "inception_4a/relu_5x5_reduce"
  type: "ReLU"
  bottom: "inception_4a/5x5_reduce"
  top: "inception_4a/5x5_reduce"
}
layer {
  name: "inception_4a/5x5"
  type: "Convolution"
  bottom: "inception_4a/5x5_reduce"
  top: "inception_4a/5x5"
  param {
    lr_mult: 1
    decay_mult: 1
  }
  param {
    lr_mult: 2
    decay_mult: 0
  }
  convolution_param {
    num_output: 48
    pad: 2
    kernel_size: 5
    weight_filler {
      type: "xavier"
      std: 0.03
    }
    bias_filler {
      type: "constant"
      value: 0.2
    }
  }
}
layer {
  name: "inception_4a/relu_5x5"
  type: "ReLU"
  bottom: "inception_4a/5x5"
  top: "inception_4a/5x5"
}
layer {
  name: "inception_4a/pool"
  type: "Pooling"
  bottom: "pool3/3x3_s2"
  top: "inception_4a/pool"
  pooling_param {
    pool: MAX
    kernel_size: 3
    stride: 1
    pad: 1
  }
}
layer {
  name: "inception_4a/pool_proj"
  type: "Convolution"
  bottom: "inception_4a/pool"
  top: "inception_4a/pool_proj"
  param {
    lr_mult: 1
    decay_mult: 1
  }
  param {
    lr_mult: 2
    decay_mult: 0
  }
  convolution_param {
    num_output: 64
    kernel_size: 1
    weight_filler {
      type: "xavier"
      std: 0.1
    }
    bias_filler {
      type: "constant"
      value: 0.2
    }
  }
}
layer {
  name: "inception_4a/relu_pool_proj"
  type: "ReLU"
  bottom: "inception_4a/pool_proj"
  top: "inception_4a/pool_proj"
}
layer {
  name: "inception_4a/output"
  type: "Concat"
  bottom: "inception_4a/1x1"
  bottom: "inception_4a/3x3"
  bottom: "inception_4a/5x5"
  bottom: "inception_4a/pool_proj"
  top: "inception_4a/output"
}
layer {
  name: "loss1/ave_pool"
  type: "Pooling"
  bottom: "inception_4a/output"
  top: "loss1/ave_pool"
  pooling_param {
    pool: AVE
    kernel_size: 5
    stride: 3
  }
}
layer {
  name: "loss1/conv"
  type: "Convolution"
  bottom: "loss1/ave_pool"
  top: "loss1/conv"
  param {
    lr_mult: 1
    decay_mult: 1
  }
  param {
    lr_mult: 2
    decay_mult: 0
  }
  convolution_param {
    num_output: 128
    kernel_size: 1
    weight_filler {
      type: "xavier"
      std: 0.08
    }
    bias_filler {
      type: "constant"
      value: 0.2
    }
  }
}
layer {
  name: "loss1/relu_conv"
  type: "ReLU"
  bottom: "loss1/conv"
  top: "loss1/conv"
}
layer {
  name: "loss1/fc"
  type: "InnerProduct"
  bottom: "loss1/conv"
  top: "loss1/fc"
  param {
    lr_mult: 1
    decay_mult: 1
  }
  param {
    lr_mult: 2
    decay_mult: 0
  }
  inner_product_param {
    num_output: 1024
    weight_filler {
      type: "xavier"
      std: 0.02
    }
    bias_filler {
      type: "constant"
      value: 0.2
    }
  }
}
layer {
  name: "loss1/relu_fc"
  type: "ReLU"
  bottom: "loss1/fc"
  top: "loss1/fc"
}
layer {
  name: "loss1/drop_fc"
  type: "Dropout"
  bottom: "loss1/fc"
  top: "loss1/fc"
  dropout_param {
    dropout_ratio: 0.7
  }
}
layer {
  name: "loss1/classifier_plantvillage"
  type: "InnerProduct"
  bottom: "loss1/fc"
  top: "loss1/classifier_plantvillage"
  param {
    lr_mult: 1
    decay_mult: 1
  }
  param {
    lr_mult: 2
    decay_mult: 0
  }
  inner_product_param {
    num_output: 38
    weight_filler {
      type: "xavier"
      std: 0.0009765625
    }
    bias_filler {
      type: "constant"
      value: 0
    }
  }
}
layer {
  name: "inception_4b/1x1"
  type: "Convolution"
  bottom: "inception_4a/output"
  top: "inception_4b/1x1"
  param {
    lr_mult: 1
    decay_mult: 1
  }
  param {
    lr_mult: 2
    decay_mult: 0
  }
  convolution_param {
    num_output: 160
    kernel_size: 1
    weight_filler {
      type: "xavier"
      std: 0.03
    }
    bias_filler {
      type: "constant"
      value: 0.2
    }
  }
}
layer {
  name: "inception_4b/relu_1x1"
  type: "ReLU"
  bottom: "inception_4b/1x1"
  top: "inception_4b/1x1"
}
layer {
  name: "inception_4b/3x3_reduce"
  type: "Convolution"
  bottom: "inception_4a/output"
  top: "inception_4b/3x3_reduce"
  param {
    lr_mult: 1
    decay_mult: 1
  }
  param {
    lr_mult: 2
    decay_mult: 0
  }
  convolution_param {
    num_output: 112
    kernel_size: 1
    weight_filler {
      type: "xavier"
      std: 0.09
    }
    bias_filler {
      type: "constant"
      value: 0.2
    }
  }
}
layer {
  name: "inception_4b/relu_3x3_reduce"
  type: "ReLU"
  bottom: "inception_4b/3x3_reduce"
  top: "inception_4b/3x3_reduce"
}
layer {
  name: "inception_4b/3x3"
  type: "Convolution"
  bottom: "inception_4b/3x3_reduce"
  top: "inception_4b/3x3"
  param {
    lr_mult: 1
    decay_mult: 1
  }
  param {
    lr_mult: 2
    decay_mult: 0
  }
  convolution_param {
    num_output: 224
    pad: 1
    kernel_size: 3
    weight_filler {
      type: "xavier"
      std: 0.03
    }
    bias_filler {
      type: "constant"
      value: 0.2
    }
  }
}
layer {
  name: "inception_4b/relu_3x3"
  type: "ReLU"
  bottom: "inception_4b/3x3"
  top: "inception_4b/3x3"
}
layer {
  name: "inception_4b/5x5_reduce"
  type: "Convolution"
  bottom: "inception_4a/output"
  top: "inception_4b/5x5_reduce"
  param {
    lr_mult: 1
    decay_mult: 1
  }
  param {
    lr_mult: 2
    decay_mult: 0
  }
  convolution_param {
    num_output: 24
    kernel_size: 1
    weight_filler {
      type: "xavier"
      std: 0.2
    }
    bias_filler {
      type: "constant"
      value: 0.2
    }
  }
}
layer {
  name: "inception_4b/relu_5x5_reduce"
  type: "ReLU"
  bottom: "inception_4b/5x5_reduce"
  top: "inception_4b/5x5_reduce"
}
layer {
  name: "inception_4b/5x5"
  type: "Convolution"
  bottom: "inception_4b/5x5_reduce"
  top: "inception_4b/5x5"
  param {
    lr_mult: 1
    decay_mult: 1
  }
  param {
    lr_mult: 2
    decay_mult: 0
  }
  convolution_param {
    num_output: 64
    pad: 2
    kernel_size: 5
    weight_filler {
      type: "xavier"
      std: 0.03
    }
    bias_filler {
      type: "constant"
      value: 0.2
    }
  }
}
layer {
  name: "inception_4b/relu_5x5"
  type: "ReLU"
  bottom: "inception_4b/5x5"
  top: "inception_4b/5x5"
}
layer {
  name: "inception_4b/pool"
  type: "Pooling"
  bottom: "inception_4a/output"
  top: "inception_4b/pool"
  pooling_param {
    pool: MAX
    kernel_size: 3
    stride: 1
    pad: 1
  }
}
layer {
  name: "inception_4b/pool_proj"
  type: "Convolution"
  bottom: "inception_4b/pool"
  top: "inception_4b/pool_proj"
  param {
    lr_mult: 1
    decay_mult: 1
  }
  param {
    lr_mult: 2
    decay_mult: 0
  }
  convolution_param {
    num_output: 64
    kernel_size: 1
    weight_filler {
      type: "xavier"
      std: 0.1
    }
    bias_filler {
      type: "constant"
      value: 0.2
    }
  }
}
layer {
  name: "inception_4b/relu_pool_proj"
  type: "ReLU"
  bottom: "inception_4b/pool_proj"
  top: "inception_4b/pool_proj"
}
layer {
  name: "inception_4b/output"
  type: "Concat"
  bottom: "inception_4b/1x1"
  bottom: "inception_4b/3x3"
  bottom: "inception_4b/5x5"
  bottom: "inception_4b/pool_proj"
  top: "inception_4b/output"
}
layer {
  name: "inception_4c/1x1"
  type: "Convolution"
  bottom: "inception_4b/output"
  top: "inception_4c/1x1"
  param {
    lr_mult: 1
    decay_mult: 1
  }
  param {
    lr_mult: 2
    decay_mult: 0
  }
  convolution_param {
    num_output: 128
    kernel_size: 1
    weight_filler {
      type: "xavier"
      std: 0.03
    }
    bias_filler {
      type: "constant"
      value: 0.2
    }
  }
}
layer {
  name: "inception_4c/relu_1x1"
  type: "ReLU"
  bottom: "inception_4c/1x1"
  top: "inception_4c/1x1"
}
layer {
  name: "inception_4c/3x3_reduce"
  type: "Convolution"
  bottom: "inception_4b/output"
  top: "inception_4c/3x3_reduce"
  param {
    lr_mult: 1
    decay_mult: 1
  }
  param {
    lr_mult: 2
    decay_mult: 0
  }
  convolution_param {
    num_output: 128
    kernel_size: 1
    weight_filler {
      type: "xavier"
      std: 0.09
    }
    bias_filler {
      type: "constant"
      value: 0.2
    }
  }
}
layer {
  name: "inception_4c/relu_3x3_reduce"
  type: "ReLU"
  bottom: "inception_4c/3x3_reduce"
  top: "inception_4c/3x3_reduce"
}
layer {
  name: "inception_4c/3x3"
  type: "Convolution"
  bottom: "inception_4c/3x3_reduce"
  top: "inception_4c/3x3"
  param {
    lr_mult: 1
    decay_mult: 1
  }
  param {
    lr_mult: 2
    decay_mult: 0
  }
  convolution_param {
    num_output: 256
    pad: 1
    kernel_size: 3
    weight_filler {
      type: "xavier"
      std: 0.03
    }
    bias_filler {
      type: "constant"
      value: 0.2
    }
  }
}
layer {
  name: "inception_4c/relu_3x3"
  type: "ReLU"
  bottom: "inception_4c/3x3"
  top: "inception_4c/3x3"
}
layer {
  name: "inception_4c/5x5_reduce"
  type: "Convolution"
  bottom: "inception_4b/output"
  top: "inception_4c/5x5_reduce"
  param {
    lr_mult: 1
    decay_mult: 1
  }
  param {
    lr_mult: 2
    decay_mult: 0
  }
  convolution_param {
    num_output: 24
    kernel_size: 1
    weight_filler {
      type: "xavier"
      std: 0.2
    }
    bias_filler {
      type: "constant"
      value: 0.2
    }
  }
}
layer {
  name: "inception_4c/relu_5x5_reduce"
  type: "ReLU"
  bottom: "inception_4c/5x5_reduce"
  top: "inception_4c/5x5_reduce"
}
layer {
  name: "inception_4c/5x5"
  type: "Convolution"
  bottom: "inception_4c/5x5_reduce"
  top: "inception_4c/5x5"
  param {
    lr_mult: 1
    decay_mult: 1
  }
  param {
    lr_mult: 2
    decay_mult: 0
  }
  convolution_param {
    num_output: 64
    pad: 2
    kernel_size: 5
    weight_filler {
      type: "xavier"
      std: 0.03
    }
    bias_filler {
      type: "constant"
      value: 0.2
    }
  }
}
layer {
  name: "inception_4c/relu_5x5"
  type: "ReLU"
  bottom: "inception_4c/5x5"
  top: "inception_4c/5x5"
}
layer {
  name: "inception_4c/pool"
  type: "Pooling"
  bottom: "inception_4b/output"
  top: "inception_4c/pool"
  pooling_param {
    pool: MAX
    kernel_size: 3
    stride: 1
    pad: 1
  }
}
layer {
  name: "inception_4c/pool_proj"
  type: "Convolution"
  bottom: "inception_4c/pool"
  top: "inception_4c/pool_proj"
  param {
    lr_mult: 1
    decay_mult: 1
  }
  param {
    lr_mult: 2
    decay_mult: 0
  }
  convolution_param {
    num_output: 64
    kernel_size: 1
    weight_filler {
      type: "xavier"
      std: 0.1
    }
    bias_filler {
      type: "constant"
      value: 0.2
    }
  }
}
layer {
  name: "inception_4c/relu_pool_proj"
  type: "ReLU"
  bottom: "inception_4c/pool_proj"
  top: "inception_4c/pool_proj"
}
layer {
  name: "inception_4c/output"
  type: "Concat"
  bottom: "inception_4c/1x1"
  bottom: "inception_4c/3x3"
  bottom: "inception_4c/5x5"
  bottom: "inception_4c/pool_proj"
  top: "inception_4c/output"
}
layer {
  name: "inception_4d/1x1"
  type: "Convolution"
  bottom: "inception_4c/output"
  top: "inception_4d/1x1"
  param {
    lr_mult: 1
    decay_mult: 1
  }
  param {
    lr_mult: 2
    decay_mult: 0
  }
  convolution_param {
    num_output: 112
    kernel_size: 1
    weight_filler {
      type: "xavier"
      std: 0.03
    }
    bias_filler {
      type: "constant"
      value: 0.2
    }
  }
}
layer {
  name: "inception_4d/relu_1x1"
  type: "ReLU"
  bottom: "inception_4d/1x1"
  top: "inception_4d/1x1"
}
layer {
  name: "inception_4d/3x3_reduce"
  type: "Convolution"
  bottom: "inception_4c/output"
  top: "inception_4d/3x3_reduce"
  param {
    lr_mult: 1
    decay_mult: 1
  }
  param {
    lr_mult: 2
    decay_mult: 0
  }
  convolution_param {
    num_output: 144
    kernel_size: 1
    weight_filler {
      type: "xavier"
      std: 0.09
    }
    bias_filler {
      type: "constant"
      value: 0.2
    }
  }
}
layer {
  name: "inception_4d/relu_3x3_reduce"
  type: "ReLU"
  bottom: "inception_4d/3x3_reduce"
  top: "inception_4d/3x3_reduce"
}
layer {
  name: "inception_4d/3x3"
  type: "Convolution"
  bottom: "inception_4d/3x3_reduce"
  top: "inception_4d/3x3"
  param {
    lr_mult: 1
    decay_mult: 1
  }
  param {
    lr_mult: 2
    decay_mult: 0
  }
  convolution_param {
    num_output: 288
    pad: 1
    kernel_size: 3
    weight_filler {
      type: "xavier"
      std: 0.03
    }
    bias_filler {
      type: "constant"
      value: 0.2
    }
  }
}
layer {
  name: "inception_4d/relu_3x3"
  type: "ReLU"
  bottom: "inception_4d/3x3"
  top: "inception_4d/3x3"
}
layer {
  name: "inception_4d/5x5_reduce"
  type: "Convolution"
  bottom: "inception_4c/output"
  top: "inception_4d/5x5_reduce"
  param {
    lr_mult: 1
    decay_mult: 1
  }
  param {
    lr_mult: 2
    decay_mult: 0
  }
  convolution_param {
    num_output: 32
    kernel_size: 1
    weight_filler {
      type: "xavier"
      std: 0.2
    }
    bias_filler {
      type: "constant"
      value: 0.2
    }
  }
}
layer {
  name: "inception_4d/relu_5x5_reduce"
  type: "ReLU"
  bottom: "inception_4d/5x5_reduce"
  top: "inception_4d/5x5_reduce"
}
layer {
  name: "inception_4d/5x5"
  type: "Convolution"
  bottom: "inception_4d/5x5_reduce"
  top: "inception_4d/5x5"
  param {
    lr_mult: 1
    decay_mult: 1
  }
  param {
    lr_mult: 2
    decay_mult: 0
  }
  convolution_param {
    num_output: 64
    pad: 2
    kernel_size: 5
    weight_filler {
      type: "xavier"
      std: 0.03
    }
    bias_filler {
      type: "constant"
      value: 0.2
    }
  }
}
layer {
  name: "inception_4d/relu_5x5"
  type: "ReLU"
  bottom: "inception_4d/5x5"
  top: "inception_4d/5x5"
}
layer {
  name: "inception_4d/pool"
  type: "Pooling"
  bottom: "inception_4c/output"
  top: "inception_4d/pool"
  pooling_param {
    pool: MAX
    kernel_size: 3
    stride: 1
    pad: 1
  }
}
layer {
  name: "inception_4d/pool_proj"
  type: "Convolution"
  bottom: "inception_4d/pool"
  top: "inception_4d/pool_proj"
  param {
    lr_mult: 1
    decay_mult: 1
  }
  param {
    lr_mult: 2
    decay_mult: 0
  }
  convolution_param {
    num_output: 64
    kernel_size: 1
    weight_filler {
      type: "xavier"
      std: 0.1
    }
    bias_filler {
      type: "constant"
      value: 0.2
    }
  }
}
layer {
  name: "inception_4d/relu_pool_proj"
  type: "ReLU"
  bottom: "inception_4d/pool_proj"
  top: "inception_4d/pool_proj"
}
layer {
  name: "inception_4d/output"
  type: "Concat"
  bottom: "inception_4d/1x1"
  bottom: "inception_4d/3x3"
  bottom: "inception_4d/5x5"
  bottom: "inception_4d/pool_proj"
  top: "inception_4d/output"
}
layer {
  name: "loss2/ave_pool"
  type: "Pooling"
  bottom: "inception_4d/output"
  top: "loss2/ave_pool"
  pooling_param {
    pool: AVE
    kernel_size: 5
    stride: 3
  }
}
layer {
  name: "loss2/conv"
  type: "Convolution"
  bottom: "loss2/ave_pool"
  top: "loss2/conv"
  param {
    lr_mult: 1
    decay_mult: 1
  }
  param {
    lr_mult: 2
    decay_mult: 0
  }
  convolution_param {
    num_output: 128
    kernel_size: 1
    weight_filler {
      type: "xavier"
      std: 0.08
    }
    bias_filler {
      type: "constant"
      value: 0.2
    }
  }
}
layer {
  name: "loss2/relu_conv"
  type: "ReLU"
  bottom: "loss2/conv"
  top: "loss2/conv"
}
layer {
  name: "loss2/fc"
  type: "InnerProduct"
  bottom: "loss2/conv"
  top: "loss2/fc"
  param {
    lr_mult: 1
    decay_mult: 1
  }
  param {
    lr_mult: 2
    decay_mult: 0
  }
  inner_product_param {
    num_output: 1024
    weight_filler {
      type: "xavier"
      std: 0.02
    }
    bias_filler {
      type: "constant"
      value: 0.2
    }
  }
}
layer {
  name: "loss2/relu_fc"
  type: "ReLU"
  bottom: "loss2/fc"
  top: "loss2/fc"
}
layer {
  name: "loss2/drop_fc"
  type: "Dropout"
  bottom: "loss2/fc"
  top: "loss2/fc"
  dropout_param {
    dropout_ratio: 0.7
  }
}
layer {
  name: "loss2/classifier_plantvillage"
  type: "InnerProduct"
  bottom: "loss2/fc"
  top: "loss2/classifier_plantvillage"
  param {
    lr_mult: 1
    decay_mult: 1
  }
  param {
    lr_mult: 2
    decay_mult: 0
  }
  inner_product_param {
    num_output: 38
    weight_filler {
      type: "xavier"
      std: 0.0009765625
    }
    bias_filler {
      type: "constant"
      value: 0
    }
  }
}
layer {
  name: "inception_4e/1x1"
  type: "Convolution"
  bottom: "inception_4d/output"
  top: "inception_4e/1x1"
  param {
    lr_mult: 1
    decay_mult: 1
  }
  param {
    lr_mult: 2
    decay_mult: 0
  }
  convolution_param {
    num_output: 256
    kernel_size: 1
    weight_filler {
      type: "xavier"
      std: 0.03
    }
    bias_filler {
      type: "constant"
      value: 0.2
    }
  }
}
layer {
  name: "inception_4e/relu_1x1"
  type: "ReLU"
  bottom: "inception_4e/1x1"
  top: "inception_4e/1x1"
}
layer {
  name: "inception_4e/3x3_reduce"
  type: "Convolution"
  bottom: "inception_4d/output"
  top: "inception_4e/3x3_reduce"
  param {
    lr_mult: 1
    decay_mult: 1
  }
  param {
    lr_mult: 2
    decay_mult: 0
  }
  convolution_param {
    num_output: 160
    kernel_size: 1
    weight_filler {
      type: "xavier"
      std: 0.09
    }
    bias_filler {
      type: "constant"
      value: 0.2
    }
  }
}
layer {
  name: "inception_4e/relu_3x3_reduce"
  type: "ReLU"
  bottom: "inception_4e/3x3_reduce"
  top: "inception_4e/3x3_reduce"
}
layer {
  name: "inception_4e/3x3"
  type: "Convolution"
  bottom: "inception_4e/3x3_reduce"
  top: "inception_4e/3x3"
  param {
    lr_mult: 1
    decay_mult: 1
  }
  param {
    lr_mult: 2
    decay_mult: 0
  }
  convolution_param {
    num_output: 320
    pad: 1
    kernel_size: 3
    weight_filler {
      type: "xavier"
      std: 0.03
    }
    bias_filler {
      type: "constant"
      value: 0.2
    }
  }
}
layer {
  name: "inception_4e/relu_3x3"
  type: "ReLU"
  bottom: "inception_4e/3x3"
  top: "inception_4e/3x3"
}
layer {
  name: "inception_4e/5x5_reduce"
  type: "Convolution"
  bottom: "inception_4d/output"
  top: "inception_4e/5x5_reduce"
  param {
    lr_mult: 1
    decay_mult: 1
  }
  param {
    lr_mult: 2
    decay_mult: 0
  }
  convolution_param {
    num_output: 32
    kernel_size: 1
    weight_filler {
      type: "xavier"
      std: 0.2
    }
    bias_filler {
      type: "constant"
      value: 0.2
    }
  }
}
layer {
  name: "inception_4e/relu_5x5_reduce"
  type: "ReLU"
  bottom: "inception_4e/5x5_reduce"
  top: "inception_4e/5x5_reduce"
}
layer {
  name: "inception_4e/5x5"
  type: "Convolution"
  bottom: "inception_4e/5x5_reduce"
  top: "inception_4e/5x5"
  p
I0403 19:28:53.605701  9290 layer_factory.hpp:77] Creating layer data
I0403 19:28:53.606297  9290 net.cpp:91] Creating Layer data
I0403 19:28:53.606328  9290 net.cpp:399] data -> data
I0403 19:28:53.606379  9290 net.cpp:399] data -> label
I0403 19:28:53.606415  9290 data_transformer.cpp:25] Loading mean file from: /home/mohanty/data/final_dataset/lmdb/color-50-50/mean.binaryproto
I0403 19:28:53.607518  9292 db_lmdb.cpp:38] Opened lmdb /home/mohanty/data/final_dataset/lmdb/color-50-50/test_db
I0403 19:28:53.619827  9290 data_layer.cpp:41] output data size: 24,3,224,224
I0403 19:28:53.646986  9290 net.cpp:141] Setting up data
I0403 19:28:53.647045  9290 net.cpp:148] Top shape: 24 3 224 224 (3612672)
I0403 19:28:53.647068  9290 net.cpp:148] Top shape: 24 (24)
I0403 19:28:53.647085  9290 net.cpp:156] Memory required for data: 14450784
I0403 19:28:53.647115  9290 layer_factory.hpp:77] Creating layer label_data_1_split
I0403 19:28:53.647142  9290 net.cpp:91] Creating Layer label_data_1_split
I0403 19:28:53.647161  9290 net.cpp:425] label_data_1_split <- label
I0403 19:28:53.647193  9290 net.cpp:399] label_data_1_split -> label_data_1_split_0
I0403 19:28:53.647224  9290 net.cpp:399] label_data_1_split -> label_data_1_split_1
I0403 19:28:53.647253  9290 net.cpp:399] label_data_1_split -> label_data_1_split_2
I0403 19:28:53.647279  9290 net.cpp:399] label_data_1_split -> label_data_1_split_3
I0403 19:28:53.647305  9290 net.cpp:399] label_data_1_split -> label_data_1_split_4
I0403 19:28:53.647326  9290 net.cpp:399] label_data_1_split -> label_data_1_split_5
I0403 19:28:53.647346  9290 net.cpp:399] label_data_1_split -> label_data_1_split_6
I0403 19:28:53.647367  9290 net.cpp:399] label_data_1_split -> label_data_1_split_7
I0403 19:28:53.647388  9290 net.cpp:399] label_data_1_split -> label_data_1_split_8
I0403 19:28:53.647409  9290 net.cpp:399] label_data_1_split -> label_data_1_split_9
I0403 19:28:53.647529  9290 net.cpp:141] Setting up label_data_1_split
I0403 19:28:53.647553  9290 net.cpp:148] Top shape: 24 (24)
I0403 19:28:53.647579  9290 net.cpp:148] Top shape: 24 (24)
I0403 19:28:53.647596  9290 net.cpp:148] Top shape: 24 (24)
I0403 19:28:53.647614  9290 net.cpp:148] Top shape: 24 (24)
I0403 19:28:53.647630  9290 net.cpp:148] Top shape: 24 (24)
I0403 19:28:53.647647  9290 net.cpp:148] Top shape: 24 (24)
I0403 19:28:53.647663  9290 net.cpp:148] Top shape: 24 (24)
I0403 19:28:53.647680  9290 net.cpp:148] Top shape: 24 (24)
I0403 19:28:53.647696  9290 net.cpp:148] Top shape: 24 (24)
I0403 19:28:53.647713  9290 net.cpp:148] Top shape: 24 (24)
I0403 19:28:53.647747  9290 net.cpp:156] Memory required for data: 14451744
I0403 19:28:53.647763  9290 layer_factory.hpp:77] Creating layer conv1/7x7_s2
I0403 19:28:53.647796  9290 net.cpp:91] Creating Layer conv1/7x7_s2
I0403 19:28:53.647816  9290 net.cpp:425] conv1/7x7_s2 <- data
I0403 19:28:53.647837  9290 net.cpp:399] conv1/7x7_s2 -> conv1/7x7_s2
I0403 19:28:53.785877  9290 net.cpp:141] Setting up conv1/7x7_s2
I0403 19:28:53.785959  9290 net.cpp:148] Top shape: 24 64 112 112 (19267584)
I0403 19:28:53.785977  9290 net.cpp:156] Memory required for data: 91522080
I0403 19:28:53.786010  9290 layer_factory.hpp:77] Creating layer conv1/relu_7x7
I0403 19:28:53.786037  9290 net.cpp:91] Creating Layer conv1/relu_7x7
I0403 19:28:53.786056  9290 net.cpp:425] conv1/relu_7x7 <- conv1/7x7_s2
I0403 19:28:53.786075  9290 net.cpp:386] conv1/relu_7x7 -> conv1/7x7_s2 (in-place)
I0403 19:28:53.786341  9290 net.cpp:141] Setting up conv1/relu_7x7
I0403 19:28:53.786370  9290 net.cpp:148] Top shape: 24 64 112 112 (19267584)
I0403 19:28:53.786386  9290 net.cpp:156] Memory required for data: 168592416
I0403 19:28:53.786401  9290 layer_factory.hpp:77] Creating layer pool1/3x3_s2
I0403 19:28:53.786427  9290 net.cpp:91] Creating Layer pool1/3x3_s2
I0403 19:28:53.786444  9290 net.cpp:425] pool1/3x3_s2 <- conv1/7x7_s2
I0403 19:28:53.786463  9290 net.cpp:399] pool1/3x3_s2 -> pool1/3x3_s2
I0403 19:28:53.786537  9290 net.cpp:141] Setting up pool1/3x3_s2
I0403 19:28:53.786561  9290 net.cpp:148] Top shape: 24 64 56 56 (4816896)
I0403 19:28:53.786577  9290 net.cpp:156] Memory required for data: 187860000
I0403 19:28:53.786592  9290 layer_factory.hpp:77] Creating layer pool1/norm1
I0403 19:28:53.786617  9290 net.cpp:91] Creating Layer pool1/norm1
I0403 19:28:53.786635  9290 net.cpp:425] pool1/norm1 <- pool1/3x3_s2
I0403 19:28:53.786653  9290 net.cpp:399] pool1/norm1 -> pool1/norm1
I0403 19:28:53.786950  9290 net.cpp:141] Setting up pool1/norm1
I0403 19:28:53.786978  9290 net.cpp:148] Top shape: 24 64 56 56 (4816896)
I0403 19:28:53.786993  9290 net.cpp:156] Memory required for data: 207127584
I0403 19:28:53.787009  9290 layer_factory.hpp:77] Creating layer conv2/3x3_reduce
I0403 19:28:53.787034  9290 net.cpp:91] Creating Layer conv2/3x3_reduce
I0403 19:28:53.787050  9290 net.cpp:425] conv2/3x3_reduce <- pool1/norm1
I0403 19:28:53.787070  9290 net.cpp:399] conv2/3x3_reduce -> conv2/3x3_reduce
I0403 19:28:53.788434  9290 net.cpp:141] Setting up conv2/3x3_reduce
I0403 19:28:53.788465  9290 net.cpp:148] Top shape: 24 64 56 56 (4816896)
I0403 19:28:53.788481  9290 net.cpp:156] Memory required for data: 226395168
I0403 19:28:53.788504  9290 layer_factory.hpp:77] Creating layer conv2/relu_3x3_reduce
I0403 19:28:53.788524  9290 net.cpp:91] Creating Layer conv2/relu_3x3_reduce
I0403 19:28:53.788542  9290 net.cpp:425] conv2/relu_3x3_reduce <- conv2/3x3_reduce
I0403 19:28:53.788561  9290 net.cpp:386] conv2/relu_3x3_reduce -> conv2/3x3_reduce (in-place)
I0403 19:28:53.788830  9290 net.cpp:141] Setting up conv2/relu_3x3_reduce
I0403 19:28:53.788858  9290 net.cpp:148] Top shape: 24 64 56 56 (4816896)
I0403 19:28:53.788874  9290 net.cpp:156] Memory required for data: 245662752
I0403 19:28:53.788889  9290 layer_factory.hpp:77] Creating layer conv2/3x3
I0403 19:28:53.788913  9290 net.cpp:91] Creating Layer conv2/3x3
I0403 19:28:53.788931  9290 net.cpp:425] conv2/3x3 <- conv2/3x3_reduce
I0403 19:28:53.788951  9290 net.cpp:399] conv2/3x3 -> conv2/3x3
I0403 19:28:53.791270  9290 net.cpp:141] Setting up conv2/3x3
I0403 19:28:53.791303  9290 net.cpp:148] Top shape: 24 192 56 56 (14450688)
I0403 19:28:53.791321  9290 net.cpp:156] Memory required for data: 303465504
I0403 19:28:53.791342  9290 layer_factory.hpp:77] Creating layer conv2/relu_3x3
I0403 19:28:53.791363  9290 net.cpp:91] Creating Layer conv2/relu_3x3
I0403 19:28:53.791378  9290 net.cpp:425] conv2/relu_3x3 <- conv2/3x3
I0403 19:28:53.791396  9290 net.cpp:386] conv2/relu_3x3 -> conv2/3x3 (in-place)
I0403 19:28:53.791574  9290 net.cpp:141] Setting up conv2/relu_3x3
I0403 19:28:53.791599  9290 net.cpp:148] Top shape: 24 192 56 56 (14450688)
I0403 19:28:53.791647  9290 net.cpp:156] Memory required for data: 361268256
I0403 19:28:53.791663  9290 layer_factory.hpp:77] Creating layer conv2/norm2
I0403 19:28:53.791685  9290 net.cpp:91] Creating Layer conv2/norm2
I0403 19:28:53.791702  9290 net.cpp:425] conv2/norm2 <- conv2/3x3
I0403 19:28:53.791721  9290 net.cpp:399] conv2/norm2 -> conv2/norm2
I0403 19:28:53.792043  9290 net.cpp:141] Setting up conv2/norm2
I0403 19:28:53.792081  9290 net.cpp:148] Top shape: 24 192 56 56 (14450688)
I0403 19:28:53.792101  9290 net.cpp:156] Memory required for data: 419071008
I0403 19:28:53.792119  9290 layer_factory.hpp:77] Creating layer pool2/3x3_s2
I0403 19:28:53.792137  9290 net.cpp:91] Creating Layer pool2/3x3_s2
I0403 19:28:53.792153  9290 net.cpp:425] pool2/3x3_s2 <- conv2/norm2
I0403 19:28:53.792171  9290 net.cpp:399] pool2/3x3_s2 -> pool2/3x3_s2
I0403 19:28:53.792228  9290 net.cpp:141] Setting up pool2/3x3_s2
I0403 19:28:53.792263  9290 net.cpp:148] Top shape: 24 192 28 28 (3612672)
I0403 19:28:53.792281  9290 net.cpp:156] Memory required for data: 433521696
I0403 19:28:53.792297  9290 layer_factory.hpp:77] Creating layer pool2/3x3_s2_pool2/3x3_s2_0_split
I0403 19:28:53.792315  9290 net.cpp:91] Creating Layer pool2/3x3_s2_pool2/3x3_s2_0_split
I0403 19:28:53.792332  9290 net.cpp:425] pool2/3x3_s2_pool2/3x3_s2_0_split <- pool2/3x3_s2
I0403 19:28:53.792353  9290 net.cpp:399] pool2/3x3_s2_pool2/3x3_s2_0_split -> pool2/3x3_s2_pool2/3x3_s2_0_split_0
I0403 19:28:53.792374  9290 net.cpp:399] pool2/3x3_s2_pool2/3x3_s2_0_split -> pool2/3x3_s2_pool2/3x3_s2_0_split_1
I0403 19:28:53.792397  9290 net.cpp:399] pool2/3x3_s2_pool2/3x3_s2_0_split -> pool2/3x3_s2_pool2/3x3_s2_0_split_2
I0403 19:28:53.792419  9290 net.cpp:399] pool2/3x3_s2_pool2/3x3_s2_0_split -> pool2/3x3_s2_pool2/3x3_s2_0_split_3
I0403 19:28:53.792492  9290 net.cpp:141] Setting up pool2/3x3_s2_pool2/3x3_s2_0_split
I0403 19:28:53.792516  9290 net.cpp:148] Top shape: 24 192 28 28 (3612672)
I0403 19:28:53.792533  9290 net.cpp:148] Top shape: 24 192 28 28 (3612672)
I0403 19:28:53.792551  9290 net.cpp:148] Top shape: 24 192 28 28 (3612672)
I0403 19:28:53.792568  9290 net.cpp:148] Top shape: 24 192 28 28 (3612672)
I0403 19:28:53.792582  9290 net.cpp:156] Memory required for data: 491324448
I0403 19:28:53.792598  9290 layer_factory.hpp:77] Creating layer inception_3a/1x1
I0403 19:28:53.792623  9290 net.cpp:91] Creating Layer inception_3a/1x1
I0403 19:28:53.792640  9290 net.cpp:425] inception_3a/1x1 <- pool2/3x3_s2_pool2/3x3_s2_0_split_0
I0403 19:28:53.792665  9290 net.cpp:399] inception_3a/1x1 -> inception_3a/1x1
I0403 19:28:53.794266  9290 net.cpp:141] Setting up inception_3a/1x1
I0403 19:28:53.794301  9290 net.cpp:148] Top shape: 24 64 28 28 (1204224)
I0403 19:28:53.794318  9290 net.cpp:156] Memory required for data: 496141344
I0403 19:28:53.794338  9290 layer_factory.hpp:77] Creating layer inception_3a/relu_1x1
I0403 19:28:53.794358  9290 net.cpp:91] Creating Layer inception_3a/relu_1x1
I0403 19:28:53.794374  9290 net.cpp:425] inception_3a/relu_1x1 <- inception_3a/1x1
I0403 19:28:53.794395  9290 net.cpp:386] inception_3a/relu_1x1 -> inception_3a/1x1 (in-place)
I0403 19:28:53.794575  9290 net.cpp:141] Setting up inception_3a/relu_1x1
I0403 19:28:53.794602  9290 net.cpp:148] Top shape: 24 64 28 28 (1204224)
I0403 19:28:53.794618  9290 net.cpp:156] Memory required for data: 500958240
I0403 19:28:53.794634  9290 layer_factory.hpp:77] Creating layer inception_3a/3x3_reduce
I0403 19:28:53.794658  9290 net.cpp:91] Creating Layer inception_3a/3x3_reduce
I0403 19:28:53.794677  9290 net.cpp:425] inception_3a/3x3_reduce <- pool2/3x3_s2_pool2/3x3_s2_0_split_1
I0403 19:28:53.794699  9290 net.cpp:399] inception_3a/3x3_reduce -> inception_3a/3x3_reduce
I0403 19:28:53.796489  9290 net.cpp:141] Setting up inception_3a/3x3_reduce
I0403 19:28:53.796522  9290 net.cpp:148] Top shape: 24 96 28 28 (1806336)
I0403 19:28:53.796540  9290 net.cpp:156] Memory required for data: 508183584
I0403 19:28:53.796563  9290 layer_factory.hpp:77] Creating layer inception_3a/relu_3x3_reduce
I0403 19:28:53.796602  9290 net.cpp:91] Creating Layer inception_3a/relu_3x3_reduce
I0403 19:28:53.796619  9290 net.cpp:425] inception_3a/relu_3x3_reduce <- inception_3a/3x3_reduce
I0403 19:28:53.796640  9290 net.cpp:386] inception_3a/relu_3x3_reduce -> inception_3a/3x3_reduce (in-place)
I0403 19:28:53.796830  9290 net.cpp:141] Setting up inception_3a/relu_3x3_reduce
I0403 19:28:53.796859  9290 net.cpp:148] Top shape: 24 96 28 28 (1806336)
I0403 19:28:53.796876  9290 net.cpp:156] Memory required for data: 515408928
I0403 19:28:53.796891  9290 layer_factory.hpp:77] Creating layer inception_3a/3x3
I0403 19:28:53.796916  9290 net.cpp:91] Creating Layer inception_3a/3x3
I0403 19:28:53.796933  9290 net.cpp:425] inception_3a/3x3 <- inception_3a/3x3_reduce
I0403 19:28:53.796953  9290 net.cpp:399] inception_3a/3x3 -> inception_3a/3x3
I0403 19:28:53.798687  9290 net.cpp:141] Setting up inception_3a/3x3
I0403 19:28:53.798717  9290 net.cpp:148] Top shape: 24 128 28 28 (2408448)
I0403 19:28:53.798734  9290 net.cpp:156] Memory required for data: 525042720
I0403 19:28:53.798754  9290 layer_factory.hpp:77] Creating layer inception_3a/relu_3x3
I0403 19:28:53.798774  9290 net.cpp:91] Creating Layer inception_3a/relu_3x3
I0403 19:28:53.798789  9290 net.cpp:425] inception_3a/relu_3x3 <- inception_3a/3x3
I0403 19:28:53.798810  9290 net.cpp:386] inception_3a/relu_3x3 -> inception_3a/3x3 (in-place)
I0403 19:28:53.799094  9290 net.cpp:141] Setting up inception_3a/relu_3x3
I0403 19:28:53.799121  9290 net.cpp:148] Top shape: 24 128 28 28 (2408448)
I0403 19:28:53.799139  9290 net.cpp:156] Memory required for data: 534676512
I0403 19:28:53.799154  9290 layer_factory.hpp:77] Creating layer inception_3a/5x5_reduce
I0403 19:28:53.799178  9290 net.cpp:91] Creating Layer inception_3a/5x5_reduce
I0403 19:28:53.799196  9290 net.cpp:425] inception_3a/5x5_reduce <- pool2/3x3_s2_pool2/3x3_s2_0_split_2
I0403 19:28:53.799221  9290 net.cpp:399] inception_3a/5x5_reduce -> inception_3a/5x5_reduce
I0403 19:28:53.800251  9290 net.cpp:141] Setting up inception_3a/5x5_reduce
I0403 19:28:53.800282  9290 net.cpp:148] Top shape: 24 16 28 28 (301056)
I0403 19:28:53.800303  9290 net.cpp:156] Memory required for data: 535880736
I0403 19:28:53.800325  9290 layer_factory.hpp:77] Creating layer inception_3a/relu_5x5_reduce
I0403 19:28:53.800348  9290 net.cpp:91] Creating Layer inception_3a/relu_5x5_reduce
I0403 19:28:53.800366  9290 net.cpp:425] inception_3a/relu_5x5_reduce <- inception_3a/5x5_reduce
I0403 19:28:53.800385  9290 net.cpp:386] inception_3a/relu_5x5_reduce -> inception_3a/5x5_reduce (in-place)
I0403 19:28:53.800688  9290 net.cpp:141] Setting up inception_3a/relu_5x5_reduce
I0403 19:28:53.800715  9290 net.cpp:148] Top shape: 24 16 28 28 (301056)
I0403 19:28:53.800731  9290 net.cpp:156] Memory required for data: 537084960
I0403 19:28:53.800746  9290 layer_factory.hpp:77] Creating layer inception_3a/5x5
I0403 19:28:53.800770  9290 net.cpp:91] Creating Layer inception_3a/5x5
I0403 19:28:53.800788  9290 net.cpp:425] inception_3a/5x5 <- inception_3a/5x5_reduce
I0403 19:28:53.800812  9290 net.cpp:399] inception_3a/5x5 -> inception_3a/5x5
I0403 19:28:53.801908  9290 net.cpp:141] Setting up inception_3a/5x5
I0403 19:28:53.801940  9290 net.cpp:148] Top shape: 24 32 28 28 (602112)
I0403 19:28:53.801959  9290 net.cpp:156] Memory required for data: 539493408
I0403 19:28:53.801978  9290 layer_factory.hpp:77] Creating layer inception_3a/relu_5x5
I0403 19:28:53.801998  9290 net.cpp:91] Creating Layer inception_3a/relu_5x5
I0403 19:28:53.802016  9290 net.cpp:425] inception_3a/relu_5x5 <- inception_3a/5x5
I0403 19:28:53.802037  9290 net.cpp:386] inception_3a/relu_5x5 -> inception_3a/5x5 (in-place)
I0403 19:28:53.802253  9290 net.cpp:141] Setting up inception_3a/relu_5x5
I0403 19:28:53.802284  9290 net.cpp:148] Top shape: 24 32 28 28 (602112)
I0403 19:28:53.802300  9290 net.cpp:156] Memory required for data: 541901856
I0403 19:28:53.802320  9290 layer_factory.hpp:77] Creating layer inception_3a/pool
I0403 19:28:53.802342  9290 net.cpp:91] Creating Layer inception_3a/pool
I0403 19:28:53.802363  9290 net.cpp:425] inception_3a/pool <- pool2/3x3_s2_pool2/3x3_s2_0_split_3
I0403 19:28:53.802408  9290 net.cpp:399] inception_3a/pool -> inception_3a/pool
I0403 19:28:53.802479  9290 net.cpp:141] Setting up inception_3a/pool
I0403 19:28:53.802518  9290 net.cpp:148] Top shape: 24 192 28 28 (3612672)
I0403 19:28:53.802536  9290 net.cpp:156] Memory required for data: 556352544
I0403 19:28:53.802551  9290 layer_factory.hpp:77] Creating layer inception_3a/pool_proj
I0403 19:28:53.802577  9290 net.cpp:91] Creating Layer inception_3a/pool_proj
I0403 19:28:53.802595  9290 net.cpp:425] inception_3a/pool_proj <- inception_3a/pool
I0403 19:28:53.802619  9290 net.cpp:399] inception_3a/pool_proj -> inception_3a/pool_proj
I0403 19:28:53.803629  9290 net.cpp:141] Setting up inception_3a/pool_proj
I0403 19:28:53.803659  9290 net.cpp:148] Top shape: 24 32 28 28 (602112)
I0403 19:28:53.803675  9290 net.cpp:156] Memory required for data: 558760992
I0403 19:28:53.803701  9290 layer_factory.hpp:77] Creating layer inception_3a/relu_pool_proj
I0403 19:28:53.803725  9290 net.cpp:91] Creating Layer inception_3a/relu_pool_proj
I0403 19:28:53.803741  9290 net.cpp:425] inception_3a/relu_pool_proj <- inception_3a/pool_proj
I0403 19:28:53.803761  9290 net.cpp:386] inception_3a/relu_pool_proj -> inception_3a/pool_proj (in-place)
I0403 19:28:53.804047  9290 net.cpp:141] Setting up inception_3a/relu_pool_proj
I0403 19:28:53.804075  9290 net.cpp:148] Top shape: 24 32 28 28 (602112)
I0403 19:28:53.804090  9290 net.cpp:156] Memory required for data: 561169440
I0403 19:28:53.804106  9290 layer_factory.hpp:77] Creating layer inception_3a/output
I0403 19:28:53.804126  9290 net.cpp:91] Creating Layer inception_3a/output
I0403 19:28:53.804141  9290 net.cpp:425] inception_3a/output <- inception_3a/1x1
I0403 19:28:53.804158  9290 net.cpp:425] inception_3a/output <- inception_3a/3x3
I0403 19:28:53.804174  9290 net.cpp:425] inception_3a/output <- inception_3a/5x5
I0403 19:28:53.804191  9290 net.cpp:425] inception_3a/output <- inception_3a/pool_proj
I0403 19:28:53.804211  9290 net.cpp:399] inception_3a/output -> inception_3a/output
I0403 19:28:53.804265  9290 net.cpp:141] Setting up inception_3a/output
I0403 19:28:53.804289  9290 net.cpp:148] Top shape: 24 256 28 28 (4816896)
I0403 19:28:53.804306  9290 net.cpp:156] Memory required for data: 580437024
I0403 19:28:53.804321  9290 layer_factory.hpp:77] Creating layer inception_3a/output_inception_3a/output_0_split
I0403 19:28:53.804342  9290 net.cpp:91] Creating Layer inception_3a/output_inception_3a/output_0_split
I0403 19:28:53.804359  9290 net.cpp:425] inception_3a/output_inception_3a/output_0_split <- inception_3a/output
I0403 19:28:53.804378  9290 net.cpp:399] inception_3a/output_inception_3a/output_0_split -> inception_3a/output_inception_3a/output_0_split_0
I0403 19:28:53.804400  9290 net.cpp:399] inception_3a/output_inception_3a/output_0_split -> inception_3a/output_inception_3a/output_0_split_1
I0403 19:28:53.804425  9290 net.cpp:399] inception_3a/output_inception_3a/output_0_split -> inception_3a/output_inception_3a/output_0_split_2
I0403 19:28:53.804447  9290 net.cpp:399] inception_3a/output_inception_3a/output_0_split -> inception_3a/output_inception_3a/output_0_split_3
I0403 19:28:53.804523  9290 net.cpp:141] Setting up inception_3a/output_inception_3a/output_0_split
I0403 19:28:53.804549  9290 net.cpp:148] Top shape: 24 256 28 28 (4816896)
I0403 19:28:53.804569  9290 net.cpp:148] Top shape: 24 256 28 28 (4816896)
I0403 19:28:53.804585  9290 net.cpp:148] Top shape: 24 256 28 28 (4816896)
I0403 19:28:53.804602  9290 net.cpp:148] Top shape: 24 256 28 28 (4816896)
I0403 19:28:53.804617  9290 net.cpp:156] Memory required for data: 657507360
I0403 19:28:53.804632  9290 layer_factory.hpp:77] Creating layer inception_3b/1x1
I0403 19:28:53.804656  9290 net.cpp:91] Creating Layer inception_3b/1x1
I0403 19:28:53.804674  9290 net.cpp:425] inception_3b/1x1 <- inception_3a/output_inception_3a/output_0_split_0
I0403 19:28:53.804697  9290 net.cpp:399] inception_3b/1x1 -> inception_3b/1x1
I0403 19:28:53.805901  9290 net.cpp:141] Setting up inception_3b/1x1
I0403 19:28:53.805945  9290 net.cpp:148] Top shape: 24 128 28 28 (2408448)
I0403 19:28:53.805963  9290 net.cpp:156] Memory required for data: 667141152
I0403 19:28:53.805984  9290 layer_factory.hpp:77] Creating layer inception_3b/relu_1x1
I0403 19:28:53.806002  9290 net.cpp:91] Creating Layer inception_3b/relu_1x1
I0403 19:28:53.806020  9290 net.cpp:425] inception_3b/relu_1x1 <- inception_3b/1x1
I0403 19:28:53.806037  9290 net.cpp:386] inception_3b/relu_1x1 -> inception_3b/1x1 (in-place)
I0403 19:28:53.806224  9290 net.cpp:141] Setting up inception_3b/relu_1x1
I0403 19:28:53.806254  9290 net.cpp:148] Top shape: 24 128 28 28 (2408448)
I0403 19:28:53.806270  9290 net.cpp:156] Memory required for data: 676774944
I0403 19:28:53.806288  9290 layer_factory.hpp:77] Creating layer inception_3b/3x3_reduce
I0403 19:28:53.806310  9290 net.cpp:91] Creating Layer inception_3b/3x3_reduce
I0403 19:28:53.806329  9290 net.cpp:425] inception_3b/3x3_reduce <- inception_3a/output_inception_3a/output_0_split_1
I0403 19:28:53.806354  9290 net.cpp:399] inception_3b/3x3_reduce -> inception_3b/3x3_reduce
I0403 19:28:53.807549  9290 net.cpp:141] Setting up inception_3b/3x3_reduce
I0403 19:28:53.807580  9290 net.cpp:148] Top shape: 24 128 28 28 (2408448)
I0403 19:28:53.807597  9290 net.cpp:156] Memory required for data: 686408736
I0403 19:28:53.807617  9290 layer_factory.hpp:77] Creating layer inception_3b/relu_3x3_reduce
I0403 19:28:53.807636  9290 net.cpp:91] Creating Layer inception_3b/relu_3x3_reduce
I0403 19:28:53.807653  9290 net.cpp:425] inception_3b/relu_3x3_reduce <- inception_3b/3x3_reduce
I0403 19:28:53.807674  9290 net.cpp:386] inception_3b/relu_3x3_reduce -> inception_3b/3x3_reduce (in-place)
I0403 19:28:53.807855  9290 net.cpp:141] Setting up inception_3b/relu_3x3_reduce
I0403 19:28:53.807881  9290 net.cpp:148] Top shape: 24 128 28 28 (2408448)
I0403 19:28:53.807896  9290 net.cpp:156] Memory required for data: 696042528
I0403 19:28:53.807912  9290 layer_factory.hpp:77] Creating layer inception_3b/3x3
I0403 19:28:53.807940  9290 net.cpp:91] Creating Layer inception_3b/3x3
I0403 19:28:53.807958  9290 net.cpp:425] inception_3b/3x3 <- inception_3b/3x3_reduce
I0403 19:28:53.807978  9290 net.cpp:399] inception_3b/3x3 -> inception_3b/3x3
I0403 19:28:53.811023  9290 net.cpp:141] Setting up inception_3b/3x3
I0403 19:28:53.811054  9290 net.cpp:148] Top shape: 24 192 28 28 (3612672)
I0403 19:28:53.811071  9290 net.cpp:156] Memory required for data: 710493216
I0403 19:28:53.811090  9290 layer_factory.hpp:77] Creating layer inception_3b/relu_3x3
I0403 19:28:53.811110  9290 net.cpp:91] Creating Layer inception_3b/relu_3x3
I0403 19:28:53.811126  9290 net.cpp:425] inception_3b/relu_3x3 <- inception_3b/3x3
I0403 19:28:53.811147  9290 net.cpp:386] inception_3b/relu_3x3 -> inception_3b/3x3 (in-place)
I0403 19:28:53.811442  9290 net.cpp:141] Setting up inception_3b/relu_3x3
I0403 19:28:53.811470  9290 net.cpp:148] Top shape: 24 192 28 28 (3612672)
I0403 19:28:53.811486  9290 net.cpp:156] Memory required for data: 724943904
I0403 19:28:53.811502  9290 layer_factory.hpp:77] Creating layer inception_3b/5x5_reduce
I0403 19:28:53.811539  9290 net.cpp:91] Creating Layer inception_3b/5x5_reduce
I0403 19:28:53.811558  9290 net.cpp:425] inception_3b/5x5_reduce <- inception_3a/output_inception_3a/output_0_split_2
I0403 19:28:53.811578  9290 net.cpp:399] inception_3b/5x5_reduce -> inception_3b/5x5_reduce
I0403 19:28:53.812588  9290 net.cpp:141] Setting up inception_3b/5x5_reduce
I0403 19:28:53.812621  9290 net.cpp:148] Top shape: 24 32 28 28 (602112)
I0403 19:28:53.812639  9290 net.cpp:156] Memory required for data: 727352352
I0403 19:28:53.812657  9290 layer_factory.hpp:77] Creating layer inception_3b/relu_5x5_reduce
I0403 19:28:53.812676  9290 net.cpp:91] Creating Layer inception_3b/relu_5x5_reduce
I0403 19:28:53.812692  9290 net.cpp:425] inception_3b/relu_5x5_reduce <- inception_3b/5x5_reduce
I0403 19:28:53.812712  9290 net.cpp:386] inception_3b/relu_5x5_reduce -> inception_3b/5x5_reduce (in-place)
I0403 19:28:53.812901  9290 net.cpp:141] Setting up inception_3b/relu_5x5_reduce
I0403 19:28:53.812938  9290 net.cpp:148] Top shape: 24 32 28 28 (602112)
I0403 19:28:53.812954  9290 net.cpp:156] Memory required for data: 729760800
I0403 19:28:53.812969  9290 layer_factory.hpp:77] Creating layer inception_3b/5x5
I0403 19:28:53.812991  9290 net.cpp:91] Creating Layer inception_3b/5x5
I0403 19:28:53.813009  9290 net.cpp:425] inception_3b/5x5 <- inception_3b/5x5_reduce
I0403 19:28:53.813031  9290 net.cpp:399] inception_3b/5x5 -> inception_3b/5x5
I0403 19:28:53.814965  9290 net.cpp:141] Setting up inception_3b/5x5
I0403 19:28:53.814995  9290 net.cpp:148] Top shape: 24 96 28 28 (1806336)
I0403 19:28:53.815009  9290 net.cpp:156] Memory required for data: 736986144
I0403 19:28:53.815027  9290 layer_factory.hpp:77] Creating layer inception_3b/relu_5x5
I0403 19:28:53.815047  9290 net.cpp:91] Creating Layer inception_3b/relu_5x5
I0403 19:28:53.815063  9290 net.cpp:425] inception_3b/relu_5x5 <- inception_3b/5x5
I0403 19:28:53.815080  9290 net.cpp:386] inception_3b/relu_5x5 -> inception_3b/5x5 (in-place)
I0403 19:28:53.815274  9290 net.cpp:141] Setting up inception_3b/relu_5x5
I0403 19:28:53.815299  9290 net.cpp:148] Top shape: 24 96 28 28 (1806336)
I0403 19:28:53.815313  9290 net.cpp:156] Memory required for data: 744211488
I0403 19:28:53.815328  9290 layer_factory.hpp:77] Creating layer inception_3b/pool
I0403 19:28:53.815346  9290 net.cpp:91] Creating Layer inception_3b/pool
I0403 19:28:53.815361  9290 net.cpp:425] inception_3b/pool <- inception_3a/output_inception_3a/output_0_split_3
I0403 19:28:53.815382  9290 net.cpp:399] inception_3b/pool -> inception_3b/pool
I0403 19:28:53.815438  9290 net.cpp:141] Setting up inception_3b/pool
I0403 19:28:53.815460  9290 net.cpp:148] Top shape: 24 256 28 28 (4816896)
I0403 19:28:53.815474  9290 net.cpp:156] Memory required for data: 763479072
I0403 19:28:53.815490  9290 layer_factory.hpp:77] Creating layer inception_3b/pool_proj
I0403 19:28:53.815512  9290 net.cpp:91] Creating Layer inception_3b/pool_proj
I0403 19:28:53.815531  9290 net.cpp:425] inception_3b/pool_proj <- inception_3b/pool
I0403 19:28:53.815549  9290 net.cpp:399] inception_3b/pool_proj -> inception_3b/pool_proj
I0403 19:28:53.816583  9290 net.cpp:141] Setting up inception_3b/pool_proj
I0403 19:28:53.816611  9290 net.cpp:148] Top shape: 24 64 28 28 (1204224)
I0403 19:28:53.816627  9290 net.cpp:156] Memory required for data: 768295968
I0403 19:28:53.816644  9290 layer_factory.hpp:77] Creating layer inception_3b/relu_pool_proj
I0403 19:28:53.816664  9290 net.cpp:91] Creating Layer inception_3b/relu_pool_proj
I0403 19:28:53.816681  9290 net.cpp:425] inception_3b/relu_pool_proj <- inception_3b/pool_proj
I0403 19:28:53.816699  9290 net.cpp:386] inception_3b/relu_pool_proj -> inception_3b/pool_proj (in-place)
I0403 19:28:53.817080  9290 net.cpp:141] Setting up inception_3b/relu_pool_proj
I0403 19:28:53.817109  9290 net.cpp:148] Top shape: 24 64 28 28 (1204224)
I0403 19:28:53.817126  9290 net.cpp:156] Memory required for data: 773112864
I0403 19:28:53.817142  9290 layer_factory.hpp:77] Creating layer inception_3b/output
I0403 19:28:53.817158  9290 net.cpp:91] Creating Layer inception_3b/output
I0403 19:28:53.817173  9290 net.cpp:425] inception_3b/output <- inception_3b/1x1
I0403 19:28:53.817189  9290 net.cpp:425] inception_3b/output <- inception_3b/3x3
I0403 19:28:53.817209  9290 net.cpp:425] inception_3b/output <- inception_3b/5x5
I0403 19:28:53.817225  9290 net.cpp:425] inception_3b/output <- inception_3b/pool_proj
I0403 19:28:53.817246  9290 net.cpp:399] inception_3b/output -> inception_3b/output
I0403 19:28:53.817289  9290 net.cpp:141] Setting up inception_3b/output
I0403 19:28:53.817317  9290 net.cpp:148] Top shape: 24 480 28 28 (9031680)
I0403 19:28:53.817333  9290 net.cpp:156] Memory required for data: 809239584
I0403 19:28:53.817348  9290 layer_factory.hpp:77] Creating layer pool3/3x3_s2
I0403 19:28:53.817365  9290 net.cpp:91] Creating Layer pool3/3x3_s2
I0403 19:28:53.817380  9290 net.cpp:425] pool3/3x3_s2 <- inception_3b/output
I0403 19:28:53.817400  9290 net.cpp:399] pool3/3x3_s2 -> pool3/3x3_s2
I0403 19:28:53.817472  9290 net.cpp:141] Setting up pool3/3x3_s2
I0403 19:28:53.817498  9290 net.cpp:148] Top shape: 24 480 14 14 (2257920)
I0403 19:28:53.817513  9290 net.cpp:156] Memory required for data: 818271264
I0403 19:28:53.817528  9290 layer_factory.hpp:77] Creating layer pool3/3x3_s2_pool3/3x3_s2_0_split
I0403 19:28:53.817545  9290 net.cpp:91] Creating Layer pool3/3x3_s2_pool3/3x3_s2_0_split
I0403 19:28:53.817560  9290 net.cpp:425] pool3/3x3_s2_pool3/3x3_s2_0_split <- pool3/3x3_s2
I0403 19:28:53.817577  9290 net.cpp:399] pool3/3x3_s2_pool3/3x3_s2_0_split -> pool3/3x3_s2_pool3/3x3_s2_0_split_0
I0403 19:28:53.817596  9290 net.cpp:399] pool3/3x3_s2_pool3/3x3_s2_0_split -> pool3/3x3_s2_pool3/3x3_s2_0_split_1
I0403 19:28:53.817615  9290 net.cpp:399] pool3/3x3_s2_pool3/3x3_s2_0_split -> pool3/3x3_s2_pool3/3x3_s2_0_split_2
I0403 19:28:53.817636  9290 net.cpp:399] pool3/3x3_s2_pool3/3x3_s2_0_split -> pool3/3x3_s2_pool3/3x3_s2_0_split_3
I0403 19:28:53.817711  9290 net.cpp:141] Setting up pool3/3x3_s2_pool3/3x3_s2_0_split
I0403 19:28:53.817734  9290 net.cpp:148] Top shape: 24 480 14 14 (2257920)
I0403 19:28:53.817750  9290 net.cpp:148] Top shape: 24 480 14 14 (2257920)
I0403 19:28:53.817766  9290 net.cpp:148] Top shape: 24 480 14 14 (2257920)
I0403 19:28:53.817781  9290 net.cpp:148] Top shape: 24 480 14 14 (2257920)
I0403 19:28:53.817795  9290 net.cpp:156] Memory required for data: 854397984
I0403 19:28:53.817809  9290 layer_factory.hpp:77] Creating layer inception_4a/1x1
I0403 19:28:53.817831  9290 net.cpp:91] Creating Layer inception_4a/1x1
I0403 19:28:53.817849  9290 net.cpp:425] inception_4a/1x1 <- pool3/3x3_s2_pool3/3x3_s2_0_split_0
I0403 19:28:53.817870  9290 net.cpp:399] inception_4a/1x1 -> inception_4a/1x1
I0403 19:28:53.819416  9290 net.cpp:141] Setting up inception_4a/1x1
I0403 19:28:53.819443  9290 net.cpp:148] Top shape: 24 192 14 14 (903168)
I0403 19:28:53.819458  9290 net.cpp:156] Memory required for data: 858010656
I0403 19:28:53.819478  9290 layer_factory.hpp:77] Creating layer inception_4a/relu_1x1
I0403 19:28:53.819497  9290 net.cpp:91] Creating Layer inception_4a/relu_1x1
I0403 19:28:53.819514  9290 net.cpp:425] inception_4a/relu_1x1 <- inception_4a/1x1
I0403 19:28:53.819530  9290 net.cpp:386] inception_4a/relu_1x1 -> inception_4a/1x1 (in-place)
I0403 19:28:53.819701  9290 net.cpp:141] Setting up inception_4a/relu_1x1
I0403 19:28:53.819730  9290 net.cpp:148] Top shape: 24 192 14 14 (903168)
I0403 19:28:53.819746  9290 net.cpp:156] Memory required for data: 861623328
I0403 19:28:53.819761  9290 layer_factory.hpp:77] Creating layer inception_4a/3x3_reduce
I0403 19:28:53.819782  9290 net.cpp:91] Creating Layer inception_4a/3x3_reduce
I0403 19:28:53.819800  9290 net.cpp:425] inception_4a/3x3_reduce <- pool3/3x3_s2_pool3/3x3_s2_0_split_1
I0403 19:28:53.819819  9290 net.cpp:399] inception_4a/3x3_reduce -> inception_4a/3x3_reduce
I0403 19:28:53.821120  9290 net.cpp:141] Setting up inception_4a/3x3_reduce
I0403 19:28:53.821148  9290 net.cpp:148] Top shape: 24 96 14 14 (451584)
I0403 19:28:53.821163  9290 net.cpp:156] Memory required for data: 863429664
I0403 19:28:53.821189  9290 layer_factory.hpp:77] Creating layer inception_4a/relu_3x3_reduce
I0403 19:28:53.821208  9290 net.cpp:91] Creating Layer inception_4a/relu_3x3_reduce
I0403 19:28:53.821225  9290 net.cpp:425] inception_4a/relu_3x3_reduce <- inception_4a/3x3_reduce
I0403 19:28:53.821249  9290 net.cpp:386] inception_4a/relu_3x3_reduce -> inception_4a/3x3_reduce (in-place)
I0403 19:28:53.821424  9290 net.cpp:141] Setting up inception_4a/relu_3x3_reduce
I0403 19:28:53.821451  9290 net.cpp:148] Top shape: 24 96 14 14 (451584)
I0403 19:28:53.821466  9290 net.cpp:156] Memory required for data: 865236000
I0403 19:28:53.821481  9290 layer_factory.hpp:77] Creating layer inception_4a/3x3
I0403 19:28:53.821503  9290 net.cpp:91] Creating Layer inception_4a/3x3
I0403 19:28:53.821521  9290 net.cpp:425] inception_4a/3x3 <- inception_4a/3x3_reduce
I0403 19:28:53.821538  9290 net.cpp:399] inception_4a/3x3 -> inception_4a/3x3
I0403 19:28:53.824193  9290 net.cpp:141] Setting up inception_4a/3x3
I0403 19:28:53.824228  9290 net.cpp:148] Top shape: 24 208 14 14 (978432)
I0403 19:28:53.824249  9290 net.cpp:156] Memory required for data: 869149728
I0403 19:28:53.824270  9290 layer_factory.hpp:77] Creating layer inception_4a/relu_3x3
I0403 19:28:53.824288  9290 net.cpp:91] Creating Layer inception_4a/relu_3x3
I0403 19:28:53.824304  9290 net.cpp:425] inception_4a/relu_3x3 <- inception_4a/3x3
I0403 19:28:53.824327  9290 net.cpp:386] inception_4a/relu_3x3 -> inception_4a/3x3 (in-place)
I0403 19:28:53.824616  9290 net.cpp:141] Setting up inception_4a/relu_3x3
I0403 19:28:53.824648  9290 net.cpp:148] Top shape: 24 208 14 14 (978432)
I0403 19:28:53.824666  9290 net.cpp:156] Memory required for data: 873063456
I0403 19:28:53.824681  9290 layer_factory.hpp:77] Creating layer inception_4a/5x5_reduce
I0403 19:28:53.824707  9290 net.cpp:91] Creating Layer inception_4a/5x5_reduce
I0403 19:28:53.824725  9290 net.cpp:425] inception_4a/5x5_reduce <- pool3/3x3_s2_pool3/3x3_s2_0_split_2
I0403 19:28:53.824744  9290 net.cpp:399] inception_4a/5x5_reduce -> inception_4a/5x5_reduce
I0403 19:28:53.825788  9290 net.cpp:141] Setting up inception_4a/5x5_reduce
I0403 19:28:53.825821  9290 net.cpp:148] Top shape: 24 16 14 14 (75264)
I0403 19:28:53.825839  9290 net.cpp:156] Memory required for data: 873364512
I0403 19:28:53.825857  9290 layer_factory.hpp:77] Creating layer inception_4a/relu_5x5_reduce
I0403 19:28:53.825876  9290 net.cpp:91] Creating Layer inception_4a/relu_5x5_reduce
I0403 19:28:53.825892  9290 net.cpp:425] inception_4a/relu_5x5_reduce <- inception_4a/5x5_reduce
I0403 19:28:53.825912  9290 net.cpp:386] inception_4a/relu_5x5_reduce -> inception_4a/5x5_reduce (in-place)
I0403 19:28:53.826095  9290 net.cpp:141] Setting up inception_4a/relu_5x5_reduce
I0403 19:28:53.826122  9290 net.cpp:148] Top shape: 24 16 14 14 (75264)
I0403 19:28:53.826136  9290 net.cpp:156] Memory required for data: 873665568
I0403 19:28:53.826151  9290 layer_factory.hpp:77] Creating layer inception_4a/5x5
I0403 19:28:53.826174  9290 net.cpp:91] Creating Layer inception_4a/5x5
I0403 19:28:53.826192  9290 net.cpp:425] inception_4a/5x5 <- inception_4a/5x5_reduce
I0403 19:28:53.826215  9290 net.cpp:399] inception_4a/5x5 -> inception_4a/5x5
I0403 19:28:53.827333  9290 net.cpp:141] Setting up inception_4a/5x5
I0403 19:28:53.827363  9290 net.cpp:148] Top shape: 24 48 14 14 (225792)
I0403 19:28:53.827380  9290 net.cpp:156] Memory required for data: 874568736
I0403 19:28:53.827399  9290 layer_factory.hpp:77] Creating layer inception_4a/relu_5x5
I0403 19:28:53.827420  9290 net.cpp:91] Creating Layer inception_4a/relu_5x5
I0403 19:28:53.827437  9290 net.cpp:425] inception_4a/relu_5x5 <- inception_4a/5x5
I0403 19:28:53.827455  9290 net.cpp:386] inception_4a/relu_5x5 -> inception_4a/5x5 (in-place)
I0403 19:28:53.827638  9290 net.cpp:141] Setting up inception_4a/relu_5x5
I0403 19:28:53.827664  9290 net.cpp:148] Top shape: 24 48 14 14 (225792)
I0403 19:28:53.827679  9290 net.cpp:156] Memory required for data: 875471904
I0403 19:28:53.827694  9290 layer_factory.hpp:77] Creating layer inception_4a/pool
I0403 19:28:53.827715  9290 net.cpp:91] Creating Layer inception_4a/pool
I0403 19:28:53.827733  9290 net.cpp:425] inception_4a/pool <- pool3/3x3_s2_pool3/3x3_s2_0_split_3
I0403 19:28:53.827750  9290 net.cpp:399] inception_4a/pool -> inception_4a/pool
I0403 19:28:53.827813  9290 net.cpp:141] Setting up inception_4a/pool
I0403 19:28:53.827836  9290 net.cpp:148] Top shape: 24 480 14 14 (2257920)
I0403 19:28:53.827852  9290 net.cpp:156] Memory required for data: 884503584
I0403 19:28:53.827867  9290 layer_factory.hpp:77] Creating layer inception_4a/pool_proj
I0403 19:28:53.827890  9290 net.cpp:91] Creating Layer inception_4a/pool_proj
I0403 19:28:53.827908  9290 net.cpp:425] inception_4a/pool_proj <- inception_4a/pool
I0403 19:28:53.827930  9290 net.cpp:399] inception_4a/pool_proj -> inception_4a/pool_proj
I0403 19:28:53.829125  9290 net.cpp:141] Setting up inception_4a/pool_proj
I0403 19:28:53.829155  9290 net.cpp:148] Top shape: 24 64 14 14 (301056)
I0403 19:28:53.829187  9290 net.cpp:156] Memory required for data: 885707808
I0403 19:28:53.829207  9290 layer_factory.hpp:77] Creating layer inception_4a/relu_pool_proj
I0403 19:28:53.829231  9290 net.cpp:91] Creating Layer inception_4a/relu_pool_proj
I0403 19:28:53.829253  9290 net.cpp:425] inception_4a/relu_pool_proj <- inception_4a/pool_proj
I0403 19:28:53.829272  9290 net.cpp:386] inception_4a/relu_pool_proj -> inception_4a/pool_proj (in-place)
I0403 19:28:53.829562  9290 net.cpp:141] Setting up inception_4a/relu_pool_proj
I0403 19:28:53.829589  9290 net.cpp:148] Top shape: 24 64 14 14 (301056)
I0403 19:28:53.829604  9290 net.cpp:156] Memory required for data: 886912032
I0403 19:28:53.829619  9290 layer_factory.hpp:77] Creating layer inception_4a/output
I0403 19:28:53.829640  9290 net.cpp:91] Creating Layer inception_4a/output
I0403 19:28:53.829656  9290 net.cpp:425] inception_4a/output <- inception_4a/1x1
I0403 19:28:53.829674  9290 net.cpp:425] inception_4a/output <- inception_4a/3x3
I0403 19:28:53.829689  9290 net.cpp:425] inception_4a/output <- inception_4a/5x5
I0403 19:28:53.829705  9290 net.cpp:425] inception_4a/output <- inception_4a/pool_proj
I0403 19:28:53.829722  9290 net.cpp:399] inception_4a/output -> inception_4a/output
I0403 19:28:53.829769  9290 net.cpp:141] Setting up inception_4a/output
I0403 19:28:53.829793  9290 net.cpp:148] Top shape: 24 512 14 14 (2408448)
I0403 19:28:53.829808  9290 net.cpp:156] Memory required for data: 896545824
I0403 19:28:53.829823  9290 layer_factory.hpp:77] Creating layer inception_4a/output_inception_4a/output_0_split
I0403 19:28:53.829840  9290 net.cpp:91] Creating Layer inception_4a/output_inception_4a/output_0_split
I0403 19:28:53.829856  9290 net.cpp:425] inception_4a/output_inception_4a/output_0_split <- inception_4a/output
I0403 19:28:53.829876  9290 net.cpp:399] inception_4a/output_inception_4a/output_0_split -> inception_4a/output_inception_4a/output_0_split_0
I0403 19:28:53.829898  9290 net.cpp:399] inception_4a/output_inception_4a/output_0_split -> inception_4a/output_inception_4a/output_0_split_1
I0403 19:28:53.829918  9290 net.cpp:399] inception_4a/output_inception_4a/output_0_split -> inception_4a/output_inception_4a/output_0_split_2
I0403 19:28:53.829939  9290 net.cpp:399] inception_4a/output_inception_4a/output_0_split -> inception_4a/output_inception_4a/output_0_split_3
I0403 19:28:53.829959  9290 net.cpp:399] inception_4a/output_inception_4a/output_0_split -> inception_4a/output_inception_4a/output_0_split_4
I0403 19:28:53.830054  9290 net.cpp:141] Setting up inception_4a/output_inception_4a/output_0_split
I0403 19:28:53.830077  9290 net.cpp:148] Top shape: 24 512 14 14 (2408448)
I0403 19:28:53.830096  9290 net.cpp:148] Top shape: 24 512 14 14 (2408448)
I0403 19:28:53.830113  9290 net.cpp:148] Top shape: 24 512 14 14 (2408448)
I0403 19:28:53.830129  9290 net.cpp:148] Top shape: 24 512 14 14 (2408448)
I0403 19:28:53.830147  9290 net.cpp:148] Top shape: 24 512 14 14 (2408448)
I0403 19:28:53.830168  9290 net.cpp:156] Memory required for data: 944714784
I0403 19:28:53.830183  9290 layer_factory.hpp:77] Creating layer loss1/ave_pool
I0403 19:28:53.830200  9290 net.cpp:91] Creating Layer loss1/ave_pool
I0403 19:28:53.830219  9290 net.cpp:425] loss1/ave_pool <- inception_4a/output_inception_4a/output_0_split_0
I0403 19:28:53.830243  9290 net.cpp:399] loss1/ave_pool -> loss1/ave_pool
I0403 19:28:53.830458  9290 net.cpp:141] Setting up loss1/ave_pool
I0403 19:28:53.830484  9290 net.cpp:148] Top shape: 24 512 4 4 (196608)
I0403 19:28:53.830500  9290 net.cpp:156] Memory required for data: 945501216
I0403 19:28:53.830515  9290 layer_factory.hpp:77] Creating layer loss1/conv
I0403 19:28:53.830538  9290 net.cpp:91] Creating Layer loss1/conv
I0403 19:28:53.830557  9290 net.cpp:425] loss1/conv <- loss1/ave_pool
I0403 19:28:53.830579  9290 net.cpp:399] loss1/conv -> loss1/conv
I0403 19:28:53.832031  9290 net.cpp:141] Setting up loss1/conv
I0403 19:28:53.832063  9290 net.cpp:148] Top shape: 24 128 4 4 (49152)
I0403 19:28:53.832080  9290 net.cpp:156] Memory required for data: 945697824
I0403 19:28:53.832114  9290 layer_factory.hpp:77] Creating layer loss1/relu_conv
I0403 19:28:53.832134  9290 net.cpp:91] Creating Layer loss1/relu_conv
I0403 19:28:53.832151  9290 net.cpp:425] loss1/relu_conv <- loss1/conv
I0403 19:28:53.832171  9290 net.cpp:386] loss1/relu_conv -> loss1/conv (in-place)
I0403 19:28:53.832471  9290 net.cpp:141] Setting up loss1/relu_conv
I0403 19:28:53.832500  9290 net.cpp:148] Top shape: 24 128 4 4 (49152)
I0403 19:28:53.832517  9290 net.cpp:156] Memory required for data: 945894432
I0403 19:28:53.832545  9290 layer_factory.hpp:77] Creating layer loss1/fc
I0403 19:28:53.832567  9290 net.cpp:91] Creating Layer loss1/fc
I0403 19:28:53.832586  9290 net.cpp:425] loss1/fc <- loss1/conv
I0403 19:28:53.832607  9290 net.cpp:399] loss1/fc -> loss1/fc
I0403 19:28:53.850095  9290 net.cpp:141] Setting up loss1/fc
I0403 19:28:53.850127  9290 net.cpp:148] Top shape: 24 1024 (24576)
I0403 19:28:53.850143  9290 net.cpp:156] Memory required for data: 945992736
I0403 19:28:53.850162  9290 layer_factory.hpp:77] Creating layer loss1/relu_fc
I0403 19:28:53.850181  9290 net.cpp:91] Creating Layer loss1/relu_fc
I0403 19:28:53.850198  9290 net.cpp:425] loss1/relu_fc <- loss1/fc
I0403 19:28:53.850217  9290 net.cpp:386] loss1/relu_fc -> loss1/fc (in-place)
I0403 19:28:53.850400  9290 net.cpp:141] Setting up loss1/relu_fc
I0403 19:28:53.850426  9290 net.cpp:148] Top shape: 24 1024 (24576)
I0403 19:28:53.850441  9290 net.cpp:156] Memory required for data: 946091040
I0403 19:28:53.850455  9290 layer_factory.hpp:77] Creating layer loss1/drop_fc
I0403 19:28:53.850483  9290 net.cpp:91] Creating Layer loss1/drop_fc
I0403 19:28:53.850500  9290 net.cpp:425] loss1/drop_fc <- loss1/fc
I0403 19:28:53.850517  9290 net.cpp:386] loss1/drop_fc -> loss1/fc (in-place)
I0403 19:28:53.850569  9290 net.cpp:141] Setting up loss1/drop_fc
I0403 19:28:53.850591  9290 net.cpp:148] Top shape: 24 1024 (24576)
I0403 19:28:53.850605  9290 net.cpp:156] Memory required for data: 946189344
I0403 19:28:53.850620  9290 layer_factory.hpp:77] Creating layer loss1/classifier_plantvillage
I0403 19:28:53.850641  9290 net.cpp:91] Creating Layer loss1/classifier_plantvillage
I0403 19:28:53.850657  9290 net.cpp:425] loss1/classifier_plantvillage <- loss1/fc
I0403 19:28:53.850675  9290 net.cpp:399] loss1/classifier_plantvillage -> loss1/classifier_plantvillage
I0403 19:28:53.851553  9290 net.cpp:141] Setting up loss1/classifier_plantvillage
I0403 19:28:53.851580  9290 net.cpp:148] Top shape: 24 38 (912)
I0403 19:28:53.851594  9290 net.cpp:156] Memory required for data: 946192992
I0403 19:28:53.851613  9290 layer_factory.hpp:77] Creating layer loss1/classifier_plantvillage_loss1/classifier_plantvillage_0_split
I0403 19:28:53.851632  9290 net.cpp:91] Creating Layer loss1/classifier_plantvillage_loss1/classifier_plantvillage_0_split
I0403 19:28:53.851649  9290 net.cpp:425] loss1/classifier_plantvillage_loss1/classifier_plantvillage_0_split <- loss1/classifier_plantvillage
I0403 19:28:53.851665  9290 net.cpp:399] loss1/classifier_plantvillage_loss1/classifier_plantvillage_0_split -> loss1/classifier_plantvillage_loss1/classifier_plantvillage_0_split_0
I0403 19:28:53.851687  9290 net.cpp:399] loss1/classifier_plantvillage_loss1/classifier_plantvillage_0_split -> loss1/classifier_plantvillage_loss1/classifier_plantvillage_0_split_1
I0403 19:28:53.851708  9290 net.cpp:399] loss1/classifier_plantvillage_loss1/classifier_plantvillage_0_split -> loss1/classifier_plantvillage_loss1/classifier_plantvillage_0_split_2
I0403 19:28:53.851771  9290 net.cpp:141] Setting up loss1/classifier_plantvillage_loss1/classifier_plantvillage_0_split
I0403 19:28:53.851794  9290 net.cpp:148] Top shape: 24 38 (912)
I0403 19:28:53.851809  9290 net.cpp:148] Top shape: 24 38 (912)
I0403 19:28:53.851824  9290 net.cpp:148] Top shape: 24 38 (912)
I0403 19:28:53.851838  9290 net.cpp:156] Memory required for data: 946203936
I0403 19:28:53.851852  9290 layer_factory.hpp:77] Creating layer inception_4b/1x1
I0403 19:28:53.851873  9290 net.cpp:91] Creating Layer inception_4b/1x1
I0403 19:28:53.851907  9290 net.cpp:425] inception_4b/1x1 <- inception_4a/output_inception_4a/output_0_split_1
I0403 19:28:53.851927  9290 net.cpp:399] inception_4b/1x1 -> inception_4b/1x1
I0403 19:28:53.853543  9290 net.cpp:141] Setting up inception_4b/1x1
I0403 19:28:53.853572  9290 net.cpp:148] Top shape: 24 160 14 14 (752640)
I0403 19:28:53.853588  9290 net.cpp:156] Memory required for data: 949214496
I0403 19:28:53.853606  9290 layer_factory.hpp:77] Creating layer inception_4b/relu_1x1
I0403 19:28:53.853623  9290 net.cpp:91] Creating Layer inception_4b/relu_1x1
I0403 19:28:53.853639  9290 net.cpp:425] inception_4b/relu_1x1 <- inception_4b/1x1
I0403 19:28:53.853658  9290 net.cpp:386] inception_4b/relu_1x1 -> inception_4b/1x1 (in-place)
I0403 19:28:53.853832  9290 net.cpp:141] Setting up inception_4b/relu_1x1
I0403 19:28:53.853857  9290 net.cpp:148] Top shape: 24 160 14 14 (752640)
I0403 19:28:53.853871  9290 net.cpp:156] Memory required for data: 952225056
I0403 19:28:53.853886  9290 layer_factory.hpp:77] Creating layer inception_4b/3x3_reduce
I0403 19:28:53.853909  9290 net.cpp:91] Creating Layer inception_4b/3x3_reduce
I0403 19:28:53.853927  9290 net.cpp:425] inception_4b/3x3_reduce <- inception_4a/output_inception_4a/output_0_split_2
I0403 19:28:53.853948  9290 net.cpp:399] inception_4b/3x3_reduce -> inception_4b/3x3_reduce
I0403 19:28:53.855257  9290 net.cpp:141] Setting up inception_4b/3x3_reduce
I0403 19:28:53.855284  9290 net.cpp:148] Top shape: 24 112 14 14 (526848)
I0403 19:28:53.855299  9290 net.cpp:156] Memory required for data: 954332448
I0403 19:28:53.855317  9290 layer_factory.hpp:77] Creating layer inception_4b/relu_3x3_reduce
I0403 19:28:53.855335  9290 net.cpp:91] Creating Layer inception_4b/relu_3x3_reduce
I0403 19:28:53.855351  9290 net.cpp:425] inception_4b/relu_3x3_reduce <- inception_4b/3x3_reduce
I0403 19:28:53.855370  9290 net.cpp:386] inception_4b/relu_3x3_reduce -> inception_4b/3x3_reduce (in-place)
I0403 19:28:53.855649  9290 net.cpp:141] Setting up inception_4b/relu_3x3_reduce
I0403 19:28:53.855675  9290 net.cpp:148] Top shape: 24 112 14 14 (526848)
I0403 19:28:53.855690  9290 net.cpp:156] Memory required for data: 956439840
I0403 19:28:53.855705  9290 layer_factory.hpp:77] Creating layer inception_4b/3x3
I0403 19:28:53.855726  9290 net.cpp:91] Creating Layer inception_4b/3x3
I0403 19:28:53.855744  9290 net.cpp:425] inception_4b/3x3 <- inception_4b/3x3_reduce
I0403 19:28:53.855765  9290 net.cpp:399] inception_4b/3x3 -> inception_4b/3x3
I0403 19:28:53.858638  9290 net.cpp:141] Setting up inception_4b/3x3
I0403 19:28:53.858667  9290 net.cpp:148] Top shape: 24 224 14 14 (1053696)
I0403 19:28:53.858683  9290 net.cpp:156] Memory required for data: 960654624
I0403 19:28:53.858701  9290 layer_factory.hpp:77] Creating layer inception_4b/relu_3x3
I0403 19:28:53.858722  9290 net.cpp:91] Creating Layer inception_4b/relu_3x3
I0403 19:28:53.858739  9290 net.cpp:425] inception_4b/relu_3x3 <- inception_4b/3x3
I0403 19:28:53.858757  9290 net.cpp:386] inception_4b/relu_3x3 -> inception_4b/3x3 (in-place)
I0403 19:28:53.858930  9290 net.cpp:141] Setting up inception_4b/relu_3x3
I0403 19:28:53.858958  9290 net.cpp:148] Top shape: 24 224 14 14 (1053696)
I0403 19:28:53.858973  9290 net.cpp:156] Memory required for data: 964869408
I0403 19:28:53.858986  9290 layer_factory.hpp:77] Creating layer inception_4b/5x5_reduce
I0403 19:28:53.859007  9290 net.cpp:91] Creating Layer inception_4b/5x5_reduce
I0403 19:28:53.859025  9290 net.cpp:425] inception_4b/5x5_reduce <- inception_4a/output_inception_4a/output_0_split_3
I0403 19:28:53.859045  9290 net.cpp:399] inception_4b/5x5_reduce -> inception_4b/5x5_reduce
I0403 19:28:53.860088  9290 net.cpp:141] Setting up inception_4b/5x5_reduce
I0403 19:28:53.860115  9290 net.cpp:148] Top shape: 24 24 14 14 (112896)
I0403 19:28:53.860129  9290 net.cpp:156] Memory required for data: 965320992
I0403 19:28:53.860147  9290 layer_factory.hpp:77] Creating layer inception_4b/relu_5x5_reduce
I0403 19:28:53.860164  9290 net.cpp:91] Creating Layer inception_4b/relu_5x5_reduce
I0403 19:28:53.860196  9290 net.cpp:425] inception_4b/relu_5x5_reduce <- inception_4b/5x5_reduce
I0403 19:28:53.860219  9290 net.cpp:386] inception_4b/relu_5x5_reduce -> inception_4b/5x5_reduce (in-place)
I0403 19:28:53.860399  9290 net.cpp:141] Setting up inception_4b/relu_5x5_reduce
I0403 19:28:53.860424  9290 net.cpp:148] Top shape: 24 24 14 14 (112896)
I0403 19:28:53.860438  9290 net.cpp:156] Memory required for data: 965772576
I0403 19:28:53.860452  9290 layer_factory.hpp:77] Creating layer inception_4b/5x5
I0403 19:28:53.860474  9290 net.cpp:91] Creating Layer inception_4b/5x5
I0403 19:28:53.860492  9290 net.cpp:425] inception_4b/5x5 <- inception_4b/5x5_reduce
I0403 19:28:53.860513  9290 net.cpp:399] inception_4b/5x5 -> inception_4b/5x5
I0403 19:28:53.861726  9290 net.cpp:141] Setting up inception_4b/5x5
I0403 19:28:53.861755  9290 net.cpp:148] Top shape: 24 64 14 14 (301056)
I0403 19:28:53.861773  9290 net.cpp:156] Memory required for data: 966976800
I0403 19:28:53.861791  9290 layer_factory.hpp:77] Creating layer inception_4b/relu_5x5
I0403 19:28:53.861809  9290 net.cpp:91] Creating Layer inception_4b/relu_5x5
I0403 19:28:53.861825  9290 net.cpp:425] inception_4b/relu_5x5 <- inception_4b/5x5
I0403 19:28:53.861845  9290 net.cpp:386] inception_4b/relu_5x5 -> inception_4b/5x5 (in-place)
I0403 19:28:53.862119  9290 net.cpp:141] Setting up inception_4b/relu_5x5
I0403 19:28:53.862149  9290 net.cpp:148] Top shape: 24 64 14 14 (301056)
I0403 19:28:53.862165  9290 net.cpp:156] Memory required for data: 968181024
I0403 19:28:53.862180  9290 layer_factory.hpp:77] Creating layer inception_4b/pool
I0403 19:28:53.862197  9290 net.cpp:91] Creating Layer inception_4b/pool
I0403 19:28:53.862215  9290 net.cpp:425] inception_4b/pool <- inception_4a/output_inception_4a/output_0_split_4
I0403 19:28:53.862236  9290 net.cpp:399] inception_4b/pool -> inception_4b/pool
I0403 19:28:53.862308  9290 net.cpp:141] Setting up inception_4b/pool
I0403 19:28:53.862334  9290 net.cpp:148] Top shape: 24 512 14 14 (2408448)
I0403 19:28:53.862349  9290 net.cpp:156] Memory required for data: 977814816
I0403 19:28:53.862362  9290 layer_factory.hpp:77] Creating layer inception_4b/pool_proj
I0403 19:28:53.862382  9290 net.cpp:91] Creating Layer inception_4b/pool_proj
I0403 19:28:53.862397  9290 net.cpp:425] inception_4b/pool_proj <- inception_4b/pool
I0403 19:28:53.862417  9290 net.cpp:399] inception_4b/pool_proj -> inception_4b/pool_proj
I0403 19:28:53.863572  9290 net.cpp:141] Setting up inception_4b/pool_proj
I0403 19:28:53.863600  9290 net.cpp:148] Top shape: 24 64 14 14 (301056)
I0403 19:28:53.863615  9290 net.cpp:156] Memory required for data: 979019040
I0403 19:28:53.863633  9290 layer_factory.hpp:77] Creating layer inception_4b/relu_pool_proj
I0403 19:28:53.863651  9290 net.cpp:91] Creating Layer inception_4b/relu_pool_proj
I0403 19:28:53.863667  9290 net.cpp:425] inception_4b/relu_pool_proj <- inception_4b/pool_proj
I0403 19:28:53.863687  9290 net.cpp:386] inception_4b/relu_pool_proj -> inception_4b/pool_proj (in-place)
I0403 19:28:53.863860  9290 net.cpp:141] Setting up inception_4b/relu_pool_proj
I0403 19:28:53.863884  9290 net.cpp:148] Top shape: 24 64 14 14 (301056)
I0403 19:28:53.863898  9290 net.cpp:156] Memory required for data: 980223264
I0403 19:28:53.863914  9290 layer_factory.hpp:77] Creating layer inception_4b/output
I0403 19:28:53.863930  9290 net.cpp:91] Creating Layer inception_4b/output
I0403 19:28:53.863945  9290 net.cpp:425] inception_4b/output <- inception_4b/1x1
I0403 19:28:53.863960  9290 net.cpp:425] inception_4b/output <- inception_4b/3x3
I0403 19:28:53.863976  9290 net.cpp:425] inception_4b/output <- inception_4b/5x5
I0403 19:28:53.863991  9290 net.cpp:425] inception_4b/output <- inception_4b/pool_proj
I0403 19:28:53.864008  9290 net.cpp:399] inception_4b/output -> inception_4b/output
I0403 19:28:53.864055  9290 net.cpp:141] Setting up inception_4b/output
I0403 19:28:53.864078  9290 net.cpp:148] Top shape: 24 512 14 14 (2408448)
I0403 19:28:53.864094  9290 net.cpp:156] Memory required for data: 989857056
I0403 19:28:53.864122  9290 layer_factory.hpp:77] Creating layer inception_4b/output_inception_4b/output_0_split
I0403 19:28:53.864140  9290 net.cpp:91] Creating Layer inception_4b/output_inception_4b/output_0_split
I0403 19:28:53.864156  9290 net.cpp:425] inception_4b/output_inception_4b/output_0_split <- inception_4b/output
I0403 19:28:53.864176  9290 net.cpp:399] inception_4b/output_inception_4b/output_0_split -> inception_4b/output_inception_4b/output_0_split_0
I0403 19:28:53.864197  9290 net.cpp:399] inception_4b/output_inception_4b/output_0_split -> inception_4b/output_inception_4b/output_0_split_1
I0403 19:28:53.864219  9290 net.cpp:399] inception_4b/output_inception_4b/output_0_split -> inception_4b/output_inception_4b/output_0_split_2
I0403 19:28:53.864243  9290 net.cpp:399] inception_4b/output_inception_4b/output_0_split -> inception_4b/output_inception_4b/output_0_split_3
I0403 19:28:53.864327  9290 net.cpp:141] Setting up inception_4b/output_inception_4b/output_0_split
I0403 19:28:53.864354  9290 net.cpp:148] Top shape: 24 512 14 14 (2408448)
I0403 19:28:53.864370  9290 net.cpp:148] Top shape: 24 512 14 14 (2408448)
I0403 19:28:53.864387  9290 net.cpp:148] Top shape: 24 512 14 14 (2408448)
I0403 19:28:53.864401  9290 net.cpp:148] Top shape: 24 512 14 14 (2408448)
I0403 19:28:53.864415  9290 net.cpp:156] Memory required for data: 1028392224
I0403 19:28:53.864429  9290 layer_factory.hpp:77] Creating layer inception_4c/1x1
I0403 19:28:53.864450  9290 net.cpp:91] Creating Layer inception_4c/1x1
I0403 19:28:53.864469  9290 net.cpp:425] inception_4c/1x1 <- inception_4b/output_inception_4b/output_0_split_0
I0403 19:28:53.864486  9290 net.cpp:399] inception_4c/1x1 -> inception_4c/1x1
I0403 19:28:53.865875  9290 net.cpp:141] Setting up inception_4c/1x1
I0403 19:28:53.865902  9290 net.cpp:148] Top shape: 24 128 14 14 (602112)
I0403 19:28:53.865917  9290 net.cpp:156] Memory required for data: 1030800672
I0403 19:28:53.865936  9290 layer_factory.hpp:77] Creating layer inception_4c/relu_1x1
I0403 19:28:53.865957  9290 net.cpp:91] Creating Layer inception_4c/relu_1x1
I0403 19:28:53.865974  9290 net.cpp:425] inception_4c/relu_1x1 <- inception_4c/1x1
I0403 19:28:53.865991  9290 net.cpp:386] inception_4c/relu_1x1 -> inception_4c/1x1 (in-place)
I0403 19:28:53.866165  9290 net.cpp:141] Setting up inception_4c/relu_1x1
I0403 19:28:53.866191  9290 net.cpp:148] Top shape: 24 128 14 14 (602112)
I0403 19:28:53.866206  9290 net.cpp:156] Memory required for data: 1033209120
I0403 19:28:53.866221  9290 layer_factory.hpp:77] Creating layer inception_4c/3x3_reduce
I0403 19:28:53.866246  9290 net.cpp:91] Creating Layer inception_4c/3x3_reduce
I0403 19:28:53.866266  9290 net.cpp:425] inception_4c/3x3_reduce <- inception_4b/output_inception_4b/output_0_split_1
I0403 19:28:53.866284  9290 net.cpp:399] inception_4c/3x3_reduce -> inception_4c/3x3_reduce
I0403 19:28:53.868150  9290 net.cpp:141] Setting up inception_4c/3x3_reduce
I0403 19:28:53.868180  9290 net.cpp:148] Top shape: 24 128 14 14 (602112)
I0403 19:28:53.868196  9290 net.cpp:156] Memory required for data: 1035617568
I0403 19:28:53.868214  9290 layer_factory.hpp:77] Creating layer inception_4c/relu_3x3_reduce
I0403 19:28:53.868232  9290 net.cpp:91] Creating Layer inception_4c/relu_3x3_reduce
I0403 19:28:53.868252  9290 net.cpp:425] inception_4c/relu_3x3_reduce <- inception_4c/3x3_reduce
I0403 19:28:53.868271  9290 net.cpp:386] inception_4c/relu_3x3_reduce -> inception_4c/3x3_reduce (in-place)
I0403 19:28:53.868548  9290 net.cpp:141] Setting up inception_4c/relu_3x3_reduce
I0403 19:28:53.868576  9290 net.cpp:148] Top shape: 24 128 14 14 (602112)
I0403 19:28:53.868590  9290 net.cpp:156] Memory required for data: 1038026016
I0403 19:28:53.868605  9290 layer_factory.hpp:77] Creating layer inception_4c/3x3
I0403 19:28:53.868628  9290 net.cpp:91] Creating Layer inception_4c/3x3
I0403 19:28:53.868645  9290 net.cpp:425] inception_4c/3x3 <- inception_4c/3x3_reduce
I0403 19:28:53.868665  9290 net.cpp:399] inception_4c/3x3 -> inception_4c/3x3
I0403 19:28:53.872138  9290 net.cpp:141] Setting up inception_4c/3x3
I0403 19:28:53.872179  9290 net.cpp:148] Top shape: 24 256 14 14 (1204224)
I0403 19:28:53.872196  9290 net.cpp:156] Memory required for data: 1042842912
I0403 19:28:53.872227  9290 layer_factory.hpp:77] Creating layer inception_4c/relu_3x3
I0403 19:28:53.872257  9290 net.cpp:91] Creating Layer inception_4c/relu_3x3
I0403 19:28:53.872275  9290 net.cpp:425] inception_4c/relu_3x3 <- inception_4c/3x3
I0403 19:28:53.872294  9290 net.cpp:386] inception_4c/relu_3x3 -> inception_4c/3x3 (in-place)
I0403 19:28:53.872470  9290 net.cpp:141] Setting up inception_4c/relu_3x3
I0403 19:28:53.872495  9290 net.cpp:148] Top shape: 24 256 14 14 (1204224)
I0403 19:28:53.872510  9290 net.cpp:156] Memory required for data: 1047659808
I0403 19:28:53.872525  9290 layer_factory.hpp:77] Creating layer inception_4c/5x5_reduce
I0403 19:28:53.872547  9290 net.cpp:91] Creating Layer inception_4c/5x5_reduce
I0403 19:28:53.872565  9290 net.cpp:425] inception_4c/5x5_reduce <- inception_4b/output_inception_4b/output_0_split_2
I0403 19:28:53.872586  9290 net.cpp:399] inception_4c/5x5_reduce -> inception_4c/5x5_reduce
I0403 19:28:53.873682  9290 net.cpp:141] Setting up inception_4c/5x5_reduce
I0403 19:28:53.873709  9290 net.cpp:148] Top shape: 24 24 14 14 (112896)
I0403 19:28:53.873724  9290 net.cpp:156] Memory required for data: 1048111392
I0403 19:28:53.873744  9290 layer_factory.hpp:77] Creating layer inception_4c/relu_5x5_reduce
I0403 19:28:53.873760  9290 net.cpp:91] Creating Layer inception_4c/relu_5x5_reduce
I0403 19:28:53.873777  9290 net.cpp:425] inception_4c/relu_5x5_reduce <- inception_4c/5x5_reduce
I0403 19:28:53.873797  9290 net.cpp:386] inception_4c/relu_5x5_reduce -> inception_4c/5x5_reduce (in-place)
I0403 19:28:53.873982  9290 net.cpp:141] Setting up inception_4c/relu_5x5_reduce
I0403 19:28:53.874007  9290 net.cpp:148] Top shape: 24 24 14 14 (112896)
I0403 19:28:53.874022  9290 net.cpp:156] Memory required for data: 1048562976
I0403 19:28:53.874037  9290 layer_factory.hpp:77] Creating layer inception_4c/5x5
I0403 19:28:53.874059  9290 net.cpp:91] Creating Layer inception_4c/5x5
I0403 19:28:53.874078  9290 net.cpp:425] inception_4c/5x5 <- inception_4c/5x5_reduce
I0403 19:28:53.874099  9290 net.cpp:399] inception_4c/5x5 -> inception_4c/5x5
I0403 19:28:53.875334  9290 net.cpp:141] Setting up inception_4c/5x5
I0403 19:28:53.875362  9290 net.cpp:148] Top shape: 24 64 14 14 (301056)
I0403 19:28:53.875377  9290 net.cpp:156] Memory required for data: 1049767200
I0403 19:28:53.875396  9290 layer_factory.hpp:77] Creating layer inception_4c/relu_5x5
I0403 19:28:53.875416  9290 net.cpp:91] Creating Layer inception_4c/relu_5x5
I0403 19:28:53.875432  9290 net.cpp:425] inception_4c/relu_5x5 <- inception_4c/5x5
I0403 19:28:53.875449  9290 net.cpp:386] inception_4c/relu_5x5 -> inception_4c/5x5 (in-place)
I0403 19:28:53.875736  9290 net.cpp:141] Setting up inception_4c/relu_5x5
I0403 19:28:53.875762  9290 net.cpp:148] Top shape: 24 64 14 14 (301056)
I0403 19:28:53.875777  9290 net.cpp:156] Memory required for data: 1050971424
I0403 19:28:53.875792  9290 layer_factory.hpp:77] Creating layer inception_4c/pool
I0403 19:28:53.875813  9290 net.cpp:91] Creating Layer inception_4c/pool
I0403 19:28:53.875828  9290 net.cpp:425] inception_4c/pool <- inception_4b/output_inception_4b/output_0_split_3
I0403 19:28:53.875846  9290 net.cpp:399] inception_4c/pool -> inception_4c/pool
I0403 19:28:53.875912  9290 net.cpp:141] Setting up inception_4c/pool
I0403 19:28:53.875936  9290 net.cpp:148] Top shape: 24 512 14 14 (2408448)
I0403 19:28:53.875951  9290 net.cpp:156] Memory required for data: 1060605216
I0403 19:28:53.875965  9290 layer_factory.hpp:77] Creating layer inception_4c/pool_proj
I0403 19:28:53.875988  9290 net.cpp:91] Creating Layer inception_4c/pool_proj
I0403 19:28:53.876005  9290 net.cpp:425] inception_4c/pool_proj <- inception_4c/pool
I0403 19:28:53.876027  9290 net.cpp:399] inception_4c/pool_proj -> inception_4c/pool_proj
I0403 19:28:53.877290  9290 net.cpp:141] Setting up inception_4c/pool_proj
I0403 19:28:53.877322  9290 net.cpp:148] Top shape: 24 64 14 14 (301056)
I0403 19:28:53.877354  9290 net.cpp:156] Memory required for data: 1061809440
I0403 19:28:53.877375  9290 layer_factory.hpp:77] Creating layer inception_4c/relu_pool_proj
I0403 19:28:53.877394  9290 net.cpp:91] Creating Layer inception_4c/relu_pool_proj
I0403 19:28:53.877411  9290 net.cpp:425] inception_4c/relu_pool_proj <- inception_4c/pool_proj
I0403 19:28:53.877432  9290 net.cpp:386] inception_4c/relu_pool_proj -> inception_4c/pool_proj (in-place)
I0403 19:28:53.877627  9290 net.cpp:141] Setting up inception_4c/relu_pool_proj
I0403 19:28:53.877655  9290 net.cpp:148] Top shape: 24 64 14 14 (301056)
I0403 19:28:53.877670  9290 net.cpp:156] Memory required for data: 1063013664
I0403 19:28:53.877684  9290 layer_factory.hpp:77] Creating layer inception_4c/output
I0403 19:28:53.877701  9290 net.cpp:91] Creating Layer inception_4c/output
I0403 19:28:53.877718  9290 net.cpp:425] inception_4c/output <- inception_4c/1x1
I0403 19:28:53.877734  9290 net.cpp:425] inception_4c/output <- inception_4c/3x3
I0403 19:28:53.877751  9290 net.cpp:425] inception_4c/output <- inception_4c/5x5
I0403 19:28:53.877768  9290 net.cpp:425] inception_4c/output <- inception_4c/pool_proj
I0403 19:28:53.877786  9290 net.cpp:399] inception_4c/output -> inception_4c/output
I0403 19:28:53.877835  9290 net.cpp:141] Setting up inception_4c/output
I0403 19:28:53.877861  9290 net.cpp:148] Top shape: 24 512 14 14 (2408448)
I0403 19:28:53.877876  9290 net.cpp:156] Memory required for data: 1072647456
I0403 19:28:53.877890  9290 layer_factory.hpp:77] Creating layer inception_4c/output_inception_4c/output_0_split
I0403 19:28:53.877908  9290 net.cpp:91] Creating Layer inception_4c/output_inception_4c/output_0_split
I0403 19:28:53.877924  9290 net.cpp:425] inception_4c/output_inception_4c/output_0_split <- inception_4c/output
I0403 19:28:53.877944  9290 net.cpp:399] inception_4c/output_inception_4c/output_0_split -> inception_4c/output_inception_4c/output_0_split_0
I0403 19:28:53.877966  9290 net.cpp:399] inception_4c/output_inception_4c/output_0_split -> inception_4c/output_inception_4c/output_0_split_1
I0403 19:28:53.877986  9290 net.cpp:399] inception_4c/output_inception_4c/output_0_split -> inception_4c/output_inception_4c/output_0_split_2
I0403 19:28:53.878007  9290 net.cpp:399] inception_4c/output_inception_4c/output_0_split -> inception_4c/output_inception_4c/output_0_split_3
I0403 19:28:53.878096  9290 net.cpp:141] Setting up inception_4c/output_inception_4c/output_0_split
I0403 19:28:53.878123  9290 net.cpp:148] Top shape: 24 512 14 14 (2408448)
I0403 19:28:53.878140  9290 net.cpp:148] Top shape: 24 512 14 14 (2408448)
I0403 19:28:53.878157  9290 net.cpp:148] Top shape: 24 512 14 14 (2408448)
I0403 19:28:53.878172  9290 net.cpp:148] Top shape: 24 512 14 14 (2408448)
I0403 19:28:53.878190  9290 net.cpp:156] Memory required for data: 1111182624
I0403 19:28:53.878206  9290 layer_factory.hpp:77] Creating layer inception_4d/1x1
I0403 19:28:53.878227  9290 net.cpp:91] Creating Layer inception_4d/1x1
I0403 19:28:53.878250  9290 net.cpp:425] inception_4d/1x1 <- inception_4c/output_inception_4c/output_0_split_0
I0403 19:28:53.878271  9290 net.cpp:399] inception_4d/1x1 -> inception_4d/1x1
I0403 19:28:53.879693  9290 net.cpp:141] Setting up inception_4d/1x1
I0403 19:28:53.879721  9290 net.cpp:148] Top shape: 24 112 14 14 (526848)
I0403 19:28:53.879737  9290 net.cpp:156] Memory required for data: 1113290016
I0403 19:28:53.879756  9290 layer_factory.hpp:77] Creating layer inception_4d/relu_1x1
I0403 19:28:53.879777  9290 net.cpp:91] Creating Layer inception_4d/relu_1x1
I0403 19:28:53.879796  9290 net.cpp:425] inception_4d/relu_1x1 <- inception_4d/1x1
I0403 19:28:53.879812  9290 net.cpp:386] inception_4d/relu_1x1 -> inception_4d/1x1 (in-place)
I0403 19:28:53.880003  9290 net.cpp:141] Setting up inception_4d/relu_1x1
I0403 19:28:53.880030  9290 net.cpp:148] Top shape: 24 112 14 14 (526848)
I0403 19:28:53.880045  9290 net.cpp:156] Memory required for data: 1115397408
I0403 19:28:53.880060  9290 layer_factory.hpp:77] Creating layer inception_4d/3x3_reduce
I0403 19:28:53.880096  9290 net.cpp:91] Creating Layer inception_4d/3x3_reduce
I0403 19:28:53.880115  9290 net.cpp:425] inception_4d/3x3_reduce <- inception_4c/output_inception_4c/output_0_split_1
I0403 19:28:53.880137  9290 net.cpp:399] inception_4d/3x3_reduce -> inception_4d/3x3_reduce
I0403 19:28:53.881711  9290 net.cpp:141] Setting up inception_4d/3x3_reduce
I0403 19:28:53.881738  9290 net.cpp:148] Top shape: 24 144 14 14 (677376)
I0403 19:28:53.881753  9290 net.cpp:156] Memory required for data: 1118106912
I0403 19:28:53.881772  9290 layer_factory.hpp:77] Creating layer inception_4d/relu_3x3_reduce
I0403 19:28:53.881793  9290 net.cpp:91] Creating Layer inception_4d/relu_3x3_reduce
I0403 19:28:53.881809  9290 net.cpp:425] inception_4d/relu_3x3_reduce <- inception_4d/3x3_reduce
I0403 19:28:53.881826  9290 net.cpp:386] inception_4d/relu_3x3_reduce -> inception_4d/3x3_reduce (in-place)
I0403 19:28:53.882129  9290 net.cpp:141] Setting up inception_4d/relu_3x3_reduce
I0403 19:28:53.882158  9290 net.cpp:148] Top shape: 24 144 14 14 (677376)
I0403 19:28:53.882174  9290 net.cpp:156] Memory required for data: 1120816416
I0403 19:28:53.882189  9290 layer_factory.hpp:77] Creating layer inception_4d/3x3
I0403 19:28:53.882212  9290 net.cpp:91] Creating Layer inception_4d/3x3
I0403 19:28:53.882231  9290 net.cpp:425] inception_4d/3x3 <- inception_4d/3x3_reduce
I0403 19:28:53.882266  9290 net.cpp:399] inception_4d/3x3 -> inception_4d/3x3
I0403 19:28:53.886637  9290 net.cpp:141] Setting up inception_4d/3x3
I0403 19:28:53.886670  9290 net.cpp:148] Top shape: 24 288 14 14 (1354752)
I0403 19:28:53.886687  9290 net.cpp:156] Memory required for data: 1126235424
I0403 19:28:53.886706  9290 layer_factory.hpp:77] Creating layer inception_4d/relu_3x3
I0403 19:28:53.886726  9290 net.cpp:91] Creating Layer inception_4d/relu_3x3
I0403 19:28:53.886744  9290 net.cpp:425] inception_4d/relu_3x3 <- inception_4d/3x3
I0403 19:28:53.886761  9290 net.cpp:386] inception_4d/relu_3x3 -> inception_4d/3x3 (in-place)
I0403 19:28:53.886953  9290 net.cpp:141] Setting up inception_4d/relu_3x3
I0403 19:28:53.886979  9290 net.cpp:148] Top shape: 24 288 14 14 (1354752)
I0403 19:28:53.886993  9290 net.cpp:156] Memory required for data: 1131654432
I0403 19:28:53.887008  9290 layer_factory.hpp:77] Creating layer inception_4d/5x5_reduce
I0403 19:28:53.887030  9290 net.cpp:91] Creating Layer inception_4d/5x5_reduce
I0403 19:28:53.887048  9290 net.cpp:425] inception_4d/5x5_reduce <- inception_4c/output_inception_4c/output_0_split_2
I0403 19:28:53.887071  9290 net.cpp:399] inception_4d/5x5_reduce -> inception_4d/5x5_reduce
I0403 19:28:53.888250  9290 net.cpp:141] Setting up inception_4d/5x5_reduce
I0403 19:28:53.888281  9290 net.cpp:148] Top shape: 24 32 14 14 (150528)
I0403 19:28:53.888298  9290 net.cpp:156] Memory required for data: 1132256544
I0403 19:28:53.888317  9290 layer_factory.hpp:77] Creating layer inception_4d/relu_5x5_reduce
I0403 19:28:53.888336  9290 net.cpp:91] Creating Layer inception_4d/relu_5x5_reduce
I0403 19:28:53.888352  9290 net.cpp:425] inception_4d/relu_5x5_reduce <- inception_4d/5x5_reduce
I0403 19:28:53.888371  9290 net.cpp:386] inception_4d/relu_5x5_reduce -> inception_4d/5x5_reduce (in-place)
I0403 19:28:53.888563  9290 net.cpp:141] Setting up inception_4d/relu_5x5_reduce
I0403 19:28:53.888588  9290 net.cpp:148] Top shape: 24 32 14 14 (150528)
I0403 19:28:53.888604  9290 net.cpp:156] Memory required for data: 1132858656
I0403 19:28:53.888619  9290 layer_factory.hpp:77] Creating layer inception_4d/5x5
I0403 19:28:53.888643  9290 net.cpp:91] Creating Layer inception_4d/5x5
I0403 19:28:53.888659  9290 net.cpp:425] inception_4d/5x5 <- inception_4d/5x5_reduce
I0403 19:28:53.888681  9290 net.cpp:399] inception_4d/5x5 -> inception_4d/5x5
I0403 19:28:53.890188  9290 net.cpp:141] Setting up inception_4d/5x5
I0403 19:28:53.890218  9290 net.cpp:148] Top shape: 24 64 14 14 (301056)
I0403 19:28:53.890233  9290 net.cpp:156] Memory required for data: 1134062880
I0403 19:28:53.890257  9290 layer_factory.hpp:77] Creating layer inception_4d/relu_5x5
I0403 19:28:53.890292  9290 net.cpp:91] Creating Layer inception_4d/relu_5x5
I0403 19:28:53.890311  9290 net.cpp:425] inception_4d/relu_5x5 <- inception_4d/5x5
I0403 19:28:53.890332  9290 net.cpp:386] inception_4d/relu_5x5 -> inception_4d/5x5 (in-place)
I0403 19:28:53.890643  9290 net.cpp:141] Setting up inception_4d/relu_5x5
I0403 19:28:53.890671  9290 net.cpp:148] Top shape: 24 64 14 14 (301056)
I0403 19:28:53.890686  9290 net.cpp:156] Memory required for data: 1135267104
I0403 19:28:53.890702  9290 layer_factory.hpp:77] Creating layer inception_4d/pool
I0403 19:28:53.890719  9290 net.cpp:91] Creating Layer inception_4d/pool
I0403 19:28:53.890735  9290 net.cpp:425] inception_4d/pool <- inception_4c/output_inception_4c/output_0_split_3
I0403 19:28:53.890756  9290 net.cpp:399] inception_4d/pool -> inception_4d/pool
I0403 19:28:53.890826  9290 net.cpp:141] Setting up inception_4d/pool
I0403 19:28:53.890851  9290 net.cpp:148] Top shape: 24 512 14 14 (2408448)
I0403 19:28:53.890866  9290 net.cpp:156] Memory required for data: 1144900896
I0403 19:28:53.890882  9290 layer_factory.hpp:77] Creating layer inception_4d/pool_proj
I0403 19:28:53.890907  9290 net.cpp:91] Creating Layer inception_4d/pool_proj
I0403 19:28:53.890924  9290 net.cpp:425] inception_4d/pool_proj <- inception_4d/pool
I0403 19:28:53.890944  9290 net.cpp:399] inception_4d/pool_proj -> inception_4d/pool_proj
I0403 19:28:53.892748  9290 net.cpp:141] Setting up inception_4d/pool_proj
I0403 19:28:53.892779  9290 net.cpp:148] Top shape: 24 64 14 14 (301056)
I0403 19:28:53.892796  9290 net.cpp:156] Memory required for data: 1146105120
I0403 19:28:53.892815  9290 layer_factory.hpp:77] Creating layer inception_4d/relu_pool_proj
I0403 19:28:53.892838  9290 net.cpp:91] Creating Layer inception_4d/relu_pool_proj
I0403 19:28:53.892853  9290 net.cpp:425] inception_4d/relu_pool_proj <- inception_4d/pool_proj
I0403 19:28:53.892870  9290 net.cpp:386] inception_4d/relu_pool_proj -> inception_4d/pool_proj (in-place)
I0403 19:28:53.893059  9290 net.cpp:141] Setting up inception_4d/relu_pool_proj
I0403 19:28:53.893084  9290 net.cpp:148] Top shape: 24 64 14 14 (301056)
I0403 19:28:53.893103  9290 net.cpp:156] Memory required for data: 1147309344
I0403 19:28:53.893120  9290 layer_factory.hpp:77] Creating layer inception_4d/output
I0403 19:28:53.893137  9290 net.cpp:91] Creating Layer inception_4d/output
I0403 19:28:53.893152  9290 net.cpp:425] inception_4d/output <- inception_4d/1x1
I0403 19:28:53.893169  9290 net.cpp:425] inception_4d/output <- inception_4d/3x3
I0403 19:28:53.893187  9290 net.cpp:425] inception_4d/output <- inception_4d/5x5
I0403 19:28:53.893203  9290 net.cpp:425] inception_4d/output <- inception_4d/pool_proj
I0403 19:28:53.893221  9290 net.cpp:399] inception_4d/output -> inception_4d/output
I0403 19:28:53.893275  9290 net.cpp:141] Setting up inception_4d/output
I0403 19:28:53.893301  9290 net.cpp:148] Top shape: 24 528 14 14 (2483712)
I0403 19:28:53.893316  9290 net.cpp:156] Memory required for data: 1157244192
I0403 19:28:53.893332  9290 layer_factory.hpp:77] Creating layer inception_4d/output_inception_4d/output_0_split
I0403 19:28:53.893348  9290 net.cpp:91] Creating Layer inception_4d/output_inception_4d/output_0_split
I0403 19:28:53.893363  9290 net.cpp:425] inception_4d/output_inception_4d/output_0_split <- inception_4d/output
I0403 19:28:53.893384  9290 net.cpp:399] inception_4d/output_inception_4d/output_0_split -> inception_4d/output_inception_4d/output_0_split_0
I0403 19:28:53.893405  9290 net.cpp:399] inception_4d/output_inception_4d/output_0_split -> inception_4d/output_inception_4d/output_0_split_1
I0403 19:28:53.893426  9290 net.cpp:399] inception_4d/output_inception_4d/output_0_split -> inception_4d/output_inception_4d/output_0_split_2
I0403 19:28:53.893447  9290 net.cpp:399] inception_4d/output_inception_4d/output_0_split -> inception_4d/output_inception_4d/output_0_split_3
I0403 19:28:53.893467  9290 net.cpp:399] inception_4d/output_inception_4d/output_0_split -> inception_4d/output_inception_4d/output_0_split_4
I0403 19:28:53.893568  9290 net.cpp:141] Setting up inception_4d/output_inception_4d/output_0_split
I0403 19:28:53.893604  9290 net.cpp:148] Top shape: 24 528 14 14 (2483712)
I0403 19:28:53.893621  9290 net.cpp:148] Top shape: 24 528 14 14 (2483712)
I0403 19:28:53.893637  9290 net.cpp:148] Top shape: 24 528 14 14 (2483712)
I0403 19:28:53.893653  9290 net.cpp:148] Top shape: 24 528 14 14 (2483712)
I0403 19:28:53.893669  9290 net.cpp:148] Top shape: 24 528 14 14 (2483712)
I0403 19:28:53.893683  9290 net.cpp:156] Memory required for data: 1206918432
I0403 19:28:53.893697  9290 layer_factory.hpp:77] Creating layer loss2/ave_pool
I0403 19:28:53.893718  9290 net.cpp:91] Creating Layer loss2/ave_pool
I0403 19:28:53.893735  9290 net.cpp:425] loss2/ave_pool <- inception_4d/output_inception_4d/output_0_split_0
I0403 19:28:53.893754  9290 net.cpp:399] loss2/ave_pool -> loss2/ave_pool
I0403 19:28:53.894063  9290 net.cpp:141] Setting up loss2/ave_pool
I0403 19:28:53.894093  9290 net.cpp:148] Top shape: 24 528 4 4 (202752)
I0403 19:28:53.894109  9290 net.cpp:156] Memory required for data: 1207729440
I0403 19:28:53.894122  9290 layer_factory.hpp:77] Creating layer loss2/conv
I0403 19:28:53.894145  9290 net.cpp:91] Creating Layer loss2/conv
I0403 19:28:53.894162  9290 net.cpp:425] loss2/conv <- loss2/ave_pool
I0403 19:28:53.894181  9290 net.cpp:399] loss2/conv -> loss2/conv
I0403 19:28:53.896065  9290 net.cpp:141] Setting up loss2/conv
I0403 19:28:53.896095  9290 net.cpp:148] Top shape: 24 128 4 4 (49152)
I0403 19:28:53.896111  9290 net.cpp:156] Memory required for data: 1207926048
I0403 19:28:53.896128  9290 layer_factory.hpp:77] Creating layer loss2/relu_conv
I0403 19:28:53.896149  9290 net.cpp:91] Creating Layer loss2/relu_conv
I0403 19:28:53.896167  9290 net.cpp:425] loss2/relu_conv <- loss2/conv
I0403 19:28:53.896186  9290 net.cpp:386] loss2/relu_conv -> loss2/conv (in-place)
I0403 19:28:53.896486  9290 net.cpp:141] Setting up loss2/relu_conv
I0403 19:28:53.896512  9290 net.cpp:148] Top shape: 24 128 4 4 (49152)
I0403 19:28:53.896534  9290 net.cpp:156] Memory required for data: 1208122656
I0403 19:28:53.896548  9290 layer_factory.hpp:77] Creating layer loss2/fc
I0403 19:28:53.896570  9290 net.cpp:91] Creating Layer loss2/fc
I0403 19:28:53.896587  9290 net.cpp:425] loss2/fc <- loss2/conv
I0403 19:28:53.896607  9290 net.cpp:399] loss2/fc -> loss2/fc
I0403 19:28:53.914338  9290 net.cpp:141] Setting up loss2/fc
I0403 19:28:53.914373  9290 net.cpp:148] Top shape: 24 1024 (24576)
I0403 19:28:53.914389  9290 net.cpp:156] Memory required for data: 1208220960
I0403 19:28:53.914409  9290 layer_factory.hpp:77] Creating layer loss2/relu_fc
I0403 19:28:53.914428  9290 net.cpp:91] Creating Layer loss2/relu_fc
I0403 19:28:53.914446  9290 net.cpp:425] loss2/relu_fc <- loss2/fc
I0403 19:28:53.914466  9290 net.cpp:386] loss2/relu_fc -> loss2/fc (in-place)
I0403 19:28:53.914803  9290 net.cpp:141] Setting up loss2/relu_fc
I0403 19:28:53.914831  9290 net.cpp:148] Top shape: 24 1024 (24576)
I0403 19:28:53.914849  9290 net.cpp:156] Memory required for data: 1208319264
I0403 19:28:53.914863  9290 layer_factory.hpp:77] Creating layer loss2/drop_fc
I0403 19:28:53.914881  9290 net.cpp:91] Creating Layer loss2/drop_fc
I0403 19:28:53.914897  9290 net.cpp:425] loss2/drop_fc <- loss2/fc
I0403 19:28:53.914923  9290 net.cpp:386] loss2/drop_fc -> loss2/fc (in-place)
I0403 19:28:53.914973  9290 net.cpp:141] Setting up loss2/drop_fc
I0403 19:28:53.914996  9290 net.cpp:148] Top shape: 24 1024 (24576)
I0403 19:28:53.915011  9290 net.cpp:156] Memory required for data: 1208417568
I0403 19:28:53.915025  9290 layer_factory.hpp:77] Creating layer loss2/classifier_plantvillage
I0403 19:28:53.915050  9290 net.cpp:91] Creating Layer loss2/classifier_plantvillage
I0403 19:28:53.915066  9290 net.cpp:425] loss2/classifier_plantvillage <- loss2/fc
I0403 19:28:53.915087  9290 net.cpp:399] loss2/classifier_plantvillage -> loss2/classifier_plantvillage
I0403 19:28:53.915501  9290 net.cpp:141] Setting up loss2/classifier_plantvillage
I0403 19:28:53.915527  9290 net.cpp:148] Top shape: 24 38 (912)
I0403 19:28:53.915542  9290 net.cpp:156] Memory required for data: 1208421216
I0403 19:28:53.915585  9290 layer_factory.hpp:77] Creating layer loss2/classifier_plantvillage_loss2/classifier_plantvillage_0_split
I0403 19:28:53.915607  9290 net.cpp:91] Creating Layer loss2/classifier_plantvillage_loss2/classifier_plantvillage_0_split
I0403 19:28:53.915626  9290 net.cpp:425] loss2/classifier_plantvillage_loss2/classifier_plantvillage_0_split <- loss2/classifier_plantvillage
I0403 19:28:53.915643  9290 net.cpp:399] loss2/classifier_plantvillage_loss2/classifier_plantvillage_0_split -> loss2/classifier_plantvillage_loss2/classifier_plantvillage_0_split_0
I0403 19:28:53.915664  9290 net.cpp:399] loss2/classifier_plantvillage_loss2/classifier_plantvillage_0_split -> loss2/classifier_plantvillage_loss2/classifier_plantvillage_0_split_1
I0403 19:28:53.915684  9290 net.cpp:399] loss2/classifier_plantvillage_loss2/classifier_plantvillage_0_split -> loss2/classifier_plantvillage_loss2/classifier_plantvillage_0_split_2
I0403 19:28:53.915766  9290 net.cpp:141] Setting up loss2/classifier_plantvillage_loss2/classifier_plantvillage_0_split
I0403 19:28:53.915788  9290 net.cpp:148] Top shape: 24 38 (912)
I0403 19:28:53.915804  9290 net.cpp:148] Top shape: 24 38 (912)
I0403 19:28:53.915819  9290 net.cpp:148] Top shape: 24 38 (912)
I0403 19:28:53.915833  9290 net.cpp:156] Memory required for data: 1208432160
I0403 19:28:53.915848  9290 layer_factory.hpp:77] Creating layer inception_4e/1x1
I0403 19:28:53.915868  9290 net.cpp:91] Creating Layer inception_4e/1x1
I0403 19:28:53.915886  9290 net.cpp:425] inception_4e/1x1 <- inception_4d/output_inception_4d/output_0_split_1
I0403 19:28:53.915907  9290 net.cpp:399] inception_4e/1x1 -> inception_4e/1x1
I0403 19:28:53.917762  9290 net.cpp:141] Setting up inception_4e/1x1
I0403 19:28:53.917789  9290 net.cpp:148] Top shape: 24 256 14 14 (1204224)
I0403 19:28:53.917805  9290 net.cpp:156] Memory required for data: 1213249056
I0403 19:28:53.917824  9290 layer_factory.hpp:77] Creating layer inception_4e/relu_1x1
I0403 19:28:53.917843  9290 net.cpp:91] Creating Layer inception_4e/relu_1x1
I0403 19:28:53.917860  9290 net.cpp:425] inception_4e/relu_1x1 <- inception_4e/1x1
I0403 19:28:53.917877  9290 net.cpp:386] inception_4e/relu_1x1 -> inception_4e/1x1 (in-place)
I0403 19:28:53.918171  9290 net.cpp:141] Setting up inception_4e/relu_1x1
I0403 19:28:53.918197  9290 net.cpp:148] Top shape: 24 256 14 14 (1204224)
I0403 19:28:53.918212  9290 net.cpp:156] Memory required for data: 1218065952
I0403 19:28:53.918227  9290 layer_factory.hpp:77] Creating layer inception_4e/3x3_reduce
I0403 19:28:53.918256  9290 net.cpp:91] Creating Layer inception_4e/3x3_reduce
I0403 19:28:53.918277  9290 net.cpp:425] inception_4e/3x3_reduce <- inception_4d/output_inception_4d/output_0_split_2
I0403 19:28:53.918298  9290 net.cpp:399] inception_4e/3x3_reduce -> inception_4e/3x3_reduce
I0403 19:28:53.920486  9290 net.cpp:141] Setting up inception_4e/3x3_reduce
I0403 19:28:53.920516  9290 net.cpp:148] Top shape: 24 160 14 14 (752640)
I0403 19:28:53.920531  9290 net.cpp:156] Memory required for data: 1221076512
I0403 19:28:53.920550  9290 layer_factory.hpp:77] Creating layer inception_4e/relu_3x3_reduce
I0403 19:28:53.920569  9290 net.cpp:91] Creating Layer inception_4e/relu_3x3_reduce
I0403 19:28:53.920589  9290 net.cpp:425] inception_4e/relu_3x3_reduce <- inception_4e/3x3_reduce
I0403 19:28:53.920608  9290 net.cpp:386] inception_4e/relu_3x3_reduce -> inception_4e/3x3_reduce (in-place)
I0403 19:28:53.920809  9290 net.cpp:141] Setting up inception_4e/relu_3x3_reduce
I0403 19:28:53.920833  9290 net.cpp:148] Top shape: 24 160 14 14 (752640)
I0403 19:28:53.920848  9290 net.cpp:156] Memory required for data: 1224087072
I0403 19:28:53.920863  9290 layer_factory.hpp:77] Creating layer inception_4e/3x3
I0403 19:28:53.920886  9290 net.cpp:91] Creating Layer inception_4e/3x3
I0403 19:28:53.920902  9290 net.cpp:425] inception_4e/3x3 <- inception_4e/3x3_reduce
I0403 19:28:53.920923  9290 net.cpp:399] inception_4e/3x3 -> inception_4e/3x3
I0403 19:28:53.925923  9290 net.cpp:141] Setting up inception_4e/3x3
I0403 19:28:53.925966  9290 net.cpp:148] Top shape: 24 320 14 14 (1505280)
I0403 19:28:53.925981  9290 net.cpp:156] Memory required for data: 1230108192
I0403 19:28:53.926000  9290 layer_factory.hpp:77] Creating layer inception_4e/relu_3x3
I0403 19:28:53.926022  9290 net.cpp:91] Creating Layer inception_4e/relu_3x3
I0403 19:28:53.926038  9290 net.cpp:425] inception_4e/relu_3x3 <- inception_4e/3x3
I0403 19:28:53.926054  9290 net.cpp:386] inception_4e/relu_3x3 -> inception_4e/3x3 (in-place)
I0403 19:28:53.926364  9290 net.cpp:141] Setting up inception_4e/relu_3x3
I0403 19:28:53.926391  9290 net.cpp:148] Top shape: 24 320 14 14 (1505280)
I0403 19:28:53.926406  9290 net.cpp:156] Memory required for data: 1236129312
I0403 19:28:53.926421  9290 layer_factory.hpp:77] Creating layer inception_4e/5x5_reduce
I0403 19:28:53.926447  9290 net.cpp:91] Creating Layer inception_4e/5x5_reduce
I0403 19:28:53.926465  9290 net.cpp:425] inception_4e/5x5_reduce <- inception_4d/output_inception_4d/output_0_split_3
I0403 19:28:53.926484  9290 net.cpp:399] inception_4e/5x5_reduce -> inception_4e/5x5_reduce
I0403 19:28:53.927558  9290 net.cpp:141] Setting up inception_4e/5x5_reduce
I0403 19:28:53.927585  9290 net.cpp:148] Top shape: 24 32 14 14 (150528)
I0403 19:28:53.927602  9290 net.cpp:156] Memory required for data: 1236731424
I0403 19:28:53.927619  9290 layer_factory.hpp:77] Creating layer inception_4e/relu_5x5_reduce
I0403 19:28:53.927637  9290 net.cpp:91] Creating Layer inception_4e/relu_5x5_reduce
I0403 19:28:53.927652  9290 net.cpp:425] inception_4e/relu_5x5_reduce <- inception_4e/5x5_reduce
I0403 19:28:53.927672  9290 net.cpp:386] inception_4e/relu_5x5_reduce -> inception_4e/5x5_reduce (in-place)
I0403 19:28:53.927973  9290 net.cpp:141] Setting up inception_4e/relu_5x5_reduce
I0403 19:28:53.927999  9290 net.cpp:148] Top shape: 24 32 14 14 (150528)
I0403 19:28:53.928014  9290 net.cpp:156] Memory required for data: 1237333536
I0403 19:28:53.928028  9290 layer_factory.hpp:77] Creating layer inception_4e/5x5
I0403 19:28:53.928066  9290 net.cpp:91] Creating Layer inception_4e/5x5
I0403 19:28:53.928086  9290 net.cpp:425] inception_4e/5x5 <- inception_4e/5x5_reduce
I0403 19:28:53.928105  9290 net.cpp:399] inception_4e/5x5 -> inception_4e/5x5
I0403 19:28:53.929955  9290 net.cpp:141] Setting up inception_4e/5x5
I0403 19:28:53.929985  9290 net.cpp:148] Top shape: 24 128 14 14 (602112)
I0403 19:28:53.929999  9290 net.cpp:156] Memory required for data: 1239741984
I0403 19:28:53.930018  9290 layer_factory.hpp:77] Creating layer inception_4e/relu_5x5
I0403 19:28:53.930037  9290 net.cpp:91] Creating Layer inception_4e/relu_5x5
I0403 19:28:53.930052  9290 net.cpp:425] inception_4e/relu_5x5 <- inception_4e/5x5
I0403 19:28:53.930071  9290 net.cpp:386] inception_4e/relu_5x5 -> inception_4e/5x5 (in-place)
I0403 19:28:53.930277  9290 net.cpp:141] Setting up inception_4e/relu_5x5
I0403 19:28:53.930302  9290 net.cpp:148] Top shape: 24 128 14 14 (602112)
I0403 19:28:53.930316  9290 net.cpp:156] Memory required for data: 1242150432
I0403 19:28:53.930331  9290 layer_factory.hpp:77] Creating layer inception_4e/pool
I0403 19:28:53.930352  9290 net.cpp:91] Creating Layer inception_4e/pool
I0403 19:28:53.930369  9290 net.cpp:425] inception_4e/pool <- inception_4d/output_inception_4d/output_0_split_4
I0403 19:28:53.930387  9290 net.cpp:399] inception_4e/pool -> inception_4e/pool
I0403 19:28:53.930457  9290 net.cpp:141] Setting up inception_4e/pool
I0403 19:28:53.930480  9290 net.cpp:148] Top shape: 24 528 14 14 (2483712)
I0403 19:28:53.930495  9290 net.cpp:156] Memory required for data: 1252085280
I0403 19:28:53.930510  9290 layer_factory.hpp:77] Creating layer inception_4e/pool_proj
I0403 19:28:53.930532  9290 net.cpp:91] Creating Layer inception_4e/pool_proj
I0403 19:28:53.930549  9290 net.cpp:425] inception_4e/pool_proj <- inception_4e/pool
I0403 19:28:53.930569  9290 net.cpp:399] inception_4e/pool_proj -> inception_4e/pool_proj
I0403 19:28:53.932066  9290 net.cpp:141] Setting up inception_4e/pool_proj
I0403 19:28:53.932096  9290 net.cpp:148] Top shape: 24 128 14 14 (602112)
I0403 19:28:53.932126  9290 net.cpp:156] Memory required for data: 1254493728
I0403 19:28:53.932145  9290 layer_factory.hpp:77] Creating layer inception_4e/relu_pool_proj
I0403 19:28:53.932164  9290 net.cpp:91] Creating Layer inception_4e/relu_pool_proj
I0403 19:28:53.932180  9290 net.cpp:425] inception_4e/relu_pool_proj <- inception_4e/pool_proj
I0403 19:28:53.932198  9290 net.cpp:386] inception_4e/relu_pool_proj -> inception_4e/pool_proj (in-place)
I0403 19:28:53.932494  9290 net.cpp:141] Setting up inception_4e/relu_pool_proj
I0403 19:28:53.932523  9290 net.cpp:148] Top shape: 24 128 14 14 (602112)
I0403 19:28:53.932539  9290 net.cpp:156] Memory required for data: 1256902176
I0403 19:28:53.932554  9290 layer_factory.hpp:77] Creating layer inception_4e/output
I0403 19:28:53.932572  9290 net.cpp:91] Creating Layer inception_4e/output
I0403 19:28:53.932587  9290 net.cpp:425] inception_4e/output <- inception_4e/1x1
I0403 19:28:53.932605  9290 net.cpp:425] inception_4e/output <- inception_4e/3x3
I0403 19:28:53.932620  9290 net.cpp:425] inception_4e/output <- inception_4e/5x5
I0403 19:28:53.932634  9290 net.cpp:425] inception_4e/output <- inception_4e/pool_proj
I0403 19:28:53.932651  9290 net.cpp:399] inception_4e/output -> inception_4e/output
I0403 19:28:53.932701  9290 net.cpp:141] Setting up inception_4e/output
I0403 19:28:53.932724  9290 net.cpp:148] Top shape: 24 832 14 14 (3913728)
I0403 19:28:53.932739  9290 net.cpp:156] Memory required for data: 1272557088
I0403 19:28:53.932754  9290 layer_factory.hpp:77] Creating layer pool4/3x3_s2
I0403 19:28:53.932773  9290 net.cpp:91] Creating Layer pool4/3x3_s2
I0403 19:28:53.932790  9290 net.cpp:425] pool4/3x3_s2 <- inception_4e/output
I0403 19:28:53.932807  9290 net.cpp:399] pool4/3x3_s2 -> pool4/3x3_s2
I0403 19:28:53.932875  9290 net.cpp:141] Setting up pool4/3x3_s2
I0403 19:28:53.932898  9290 net.cpp:148] Top shape: 24 832 7 7 (978432)
I0403 19:28:53.932912  9290 net.cpp:156] Memory required for data: 1276470816
I0403 19:28:53.932927  9290 layer_factory.hpp:77] Creating layer pool4/3x3_s2_pool4/3x3_s2_0_split
I0403 19:28:53.932943  9290 net.cpp:91] Creating Layer pool4/3x3_s2_pool4/3x3_s2_0_split
I0403 19:28:53.932958  9290 net.cpp:425] pool4/3x3_s2_pool4/3x3_s2_0_split <- pool4/3x3_s2
I0403 19:28:53.932977  9290 net.cpp:399] pool4/3x3_s2_pool4/3x3_s2_0_split -> pool4/3x3_s2_pool4/3x3_s2_0_split_0
I0403 19:28:53.932998  9290 net.cpp:399] pool4/3x3_s2_pool4/3x3_s2_0_split -> pool4/3x3_s2_pool4/3x3_s2_0_split_1
I0403 19:28:53.933018  9290 net.cpp:399] pool4/3x3_s2_pool4/3x3_s2_0_split -> pool4/3x3_s2_pool4/3x3_s2_0_split_2
I0403 19:28:53.933037  9290 net.cpp:399] pool4/3x3_s2_pool4/3x3_s2_0_split -> pool4/3x3_s2_pool4/3x3_s2_0_split_3
I0403 19:28:53.933127  9290 net.cpp:141] Setting up pool4/3x3_s2_pool4/3x3_s2_0_split
I0403 19:28:53.933153  9290 net.cpp:148] Top shape: 24 832 7 7 (978432)
I0403 19:28:53.933169  9290 net.cpp:148] Top shape: 24 832 7 7 (978432)
I0403 19:28:53.933185  9290 net.cpp:148] Top shape: 24 832 7 7 (978432)
I0403 19:28:53.933202  9290 net.cpp:148] Top shape: 24 832 7 7 (978432)
I0403 19:28:53.933215  9290 net.cpp:156] Memory required for data: 1292125728
I0403 19:28:53.933230  9290 layer_factory.hpp:77] Creating layer inception_5a/1x1
I0403 19:28:53.933264  9290 net.cpp:91] Creating Layer inception_5a/1x1
I0403 19:28:53.933284  9290 net.cpp:425] inception_5a/1x1 <- pool4/3x3_s2_pool4/3x3_s2_0_split_0
I0403 19:28:53.933303  9290 net.cpp:399] inception_5a/1x1 -> inception_5a/1x1
I0403 19:28:53.936151  9290 net.cpp:141] Setting up inception_5a/1x1
I0403 19:28:53.936179  9290 net.cpp:148] Top shape: 24 256 7 7 (301056)
I0403 19:28:53.936195  9290 net.cpp:156] Memory required for data: 1293329952
I0403 19:28:53.936214  9290 layer_factory.hpp:77] Creating layer inception_5a/relu_1x1
I0403 19:28:53.936233  9290 net.cpp:91] Creating Layer inception_5a/relu_1x1
I0403 19:28:53.936254  9290 net.cpp:425] inception_5a/relu_1x1 <- inception_5a/1x1
I0403 19:28:53.936275  9290 net.cpp:386] inception_5a/relu_1x1 -> inception_5a/1x1 (in-place)
I0403 19:28:53.936585  9290 net.cpp:141] Setting up inception_5a/relu_1x1
I0403 19:28:53.936611  9290 net.cpp:148] Top shape: 24 256 7 7 (301056)
I0403 19:28:53.936626  9290 net.cpp:156] Memory required for data: 1294534176
I0403 19:28:53.936641  9290 layer_factory.hpp:77] Creating layer inception_5a/3x3_reduce
I0403 19:28:53.936664  9290 net.cpp:91] Creating Layer inception_5a/3x3_reduce
I0403 19:28:53.936681  9290 net.cpp:425] inception_5a/3x3_reduce <- pool4/3x3_s2_pool4/3x3_s2_0_split_1
I0403 19:28:53.936703  9290 net.cpp:399] inception_5a/3x3_reduce -> inception_5a/3x3_reduce
I0403 19:28:53.939249  9290 net.cpp:141] Setting up inception_5a/3x3_reduce
I0403 19:28:53.939280  9290 net.cpp:148] Top shape: 24 160 7 7 (188160)
I0403 19:28:53.939296  9290 net.cpp:156] Memory required for data: 1295286816
I0403 19:28:53.939314  9290 layer_factory.hpp:77] Creating layer inception_5a/relu_3x3_reduce
I0403 19:28:53.939332  9290 net.cpp:91] Creating Layer inception_5a/relu_3x3_reduce
I0403 19:28:53.939347  9290 net.cpp:425] inception_5a/relu_3x3_reduce <- inception_5a/3x3_reduce
I0403 19:28:53.939363  9290 net.cpp:386] inception_5a/relu_3x3_reduce -> inception_5a/3x3_reduce (in-place)
I0403 19:28:53.939549  9290 net.cpp:141] Setting up inception_5a/relu_3x3_reduce
I0403 19:28:53.939575  9290 net.cpp:148] Top shape: 24 160 7 7 (188160)
I0403 19:28:53.939590  9290 net.cpp:156] Memory required for data: 1296039456
I0403 19:28:53.939605  9290 layer_factory.hpp:77] Creating layer inception_5a/3x3
I0403 19:28:53.939626  9290 net.cpp:91] Creating Layer inception_5a/3x3
I0403 19:28:53.939643  9290 net.cpp:425] inception_5a/3x3 <- inception_5a/3x3_reduce
I0403 19:28:53.939661  9290 net.cpp:399] inception_5a/3x3 -> inception_5a/3x3
I0403 19:28:53.944560  9290 net.cpp:141] Setting up inception_5a/3x3
I0403 19:28:53.944588  9290 net.cpp:148] Top shape: 24 320 7 7 (376320)
I0403 19:28:53.944603  9290 net.cpp:156] Memory required for data: 1297544736
I0403 19:28:53.944622  9290 layer_factory.hpp:77] Creating layer inception_5a/relu_3x3
I0403 19:28:53.944638  9290 net.cpp:91] Creating Layer inception_5a/relu_3x3
I0403 19:28:53.944654  9290 net.cpp:425] inception_5a/relu_3x3 <- inception_5a/3x3
I0403 19:28:53.944674  9290 net.cpp:386] inception_5a/relu_3x3 -> inception_5a/3x3 (in-place)
I0403 19:28:53.944970  9290 net.cpp:141] Setting up inception_5a/relu_3x3
I0403 19:28:53.944996  9290 net.cpp:148] Top shape: 24 320 7 7 (376320)
I0403 19:28:53.945011  9290 net.cpp:156] Memory required for data: 1299050016
I0403 19:28:53.945025  9290 layer_factory.hpp:77] Creating layer inception_5a/5x5_reduce
I0403 19:28:53.945047  9290 net.cpp:91] Creating Layer inception_5a/5x5_reduce
I0403 19:28:53.945065  9290 net.cpp:425] inception_5a/5x5_reduce <- pool4/3x3_s2_pool4/3x3_s2_0_split_2
I0403 19:28:53.945086  9290 net.cpp:399] inception_5a/5x5_reduce -> inception_5a/5x5_reduce
I0403 19:28:53.946223  9290 net.cpp:141] Setting up inception_5a/5x5_reduce
I0403 19:28:53.946257  9290 net.cpp:148] Top shape: 24 32 7 7 (37632)
I0403 19:28:53.946274  9290 net.cpp:156] Memory required for data: 1299200544
I0403 19:28:53.946292  9290 layer_factory.hpp:77] Creating layer inception_5a/relu_5x5_reduce
I0403 19:28:53.946312  9290 net.cpp:91] Creating Layer inception_5a/relu_5x5_reduce
I0403 19:28:53.946329  9290 net.cpp:425] inception_5a/relu_5x5_reduce <- inception_5a/5x5_reduce
I0403 19:28:53.946346  9290 net.cpp:386] inception_5a/relu_5x5_reduce -> inception_5a/5x5_reduce (in-place)
I0403 19:28:53.946637  9290 net.cpp:141] Setting up inception_5a/relu_5x5_reduce
I0403 19:28:53.946662  9290 net.cpp:148] Top shape: 24 32 7 7 (37632)
I0403 19:28:53.946677  9290 net.cpp:156] Memory required for data: 1299351072
I0403 19:28:53.946691  9290 layer_factory.hpp:77] Creating layer inception_5a/5x5
I0403 19:28:53.946712  9290 net.cpp:91] Creating Layer inception_5a/5x5
I0403 19:28:53.946729  9290 net.cpp:425] inception_5a/5x5 <- inception_5a/5x5_reduce
I0403 19:28:53.946750  9290 net.cpp:399] inception_5a/5x5 -> inception_5a/5x5
I0403 19:28:53.948424  9290 net.cpp:141] Setting up inception_5a/5x5
I0403 19:28:53.948463  9290 net.cpp:148] Top shape: 24 128 7 7 (150528)
I0403 19:28:53.948479  9290 net.cpp:156] Memory required for data: 1299953184
I0403 19:28:53.948498  9290 layer_factory.hpp:77] Creating layer inception_5a/relu_5x5
I0403 19:28:53.948514  9290 net.cpp:91] Creating Layer inception_5a/relu_5x5
I0403 19:28:53.948530  9290 net.cpp:425] inception_5a/relu_5x5 <- inception_5a/5x5
I0403 19:28:53.948549  9290 net.cpp:386] inception_5a/relu_5x5 -> inception_5a/5x5 (in-place)
I0403 19:28:53.948737  9290 net.cpp:141] Setting up inception_5a/relu_5x5
I0403 19:28:53.948761  9290 net.cpp:148] Top shape: 24 128 7 7 (150528)
I0403 19:28:53.948776  9290 net.cpp:156] Memory required for data: 1300555296
I0403 19:28:53.948791  9290 layer_factory.hpp:77] Creating layer inception_5a/pool
I0403 19:28:53.948809  9290 net.cpp:91] Creating Layer inception_5a/pool
I0403 19:28:53.948827  9290 net.cpp:425] inception_5a/pool <- pool4/3x3_s2_pool4/3x3_s2_0_split_3
I0403 19:28:53.948843  9290 net.cpp:399] inception_5a/pool -> inception_5a/pool
I0403 19:28:53.948912  9290 net.cpp:141] Setting up inception_5a/pool
I0403 19:28:53.948935  9290 net.cpp:148] Top shape: 24 832 7 7 (978432)
I0403 19:28:53.948948  9290 net.cpp:156] Memory required for data: 1304469024
I0403 19:28:53.948963  9290 layer_factory.hpp:77] Creating layer inception_5a/pool_proj
I0403 19:28:53.948984  9290 net.cpp:91] Creating Layer inception_5a/pool_proj
I0403 19:28:53.949002  9290 net.cpp:425] inception_5a/pool_proj <- inception_5a/pool
I0403 19:28:53.949021  9290 net.cpp:399] inception_5a/pool_proj -> inception_5a/pool_proj
I0403 19:28:53.951225  9290 net.cpp:141] Setting up inception_5a/pool_proj
I0403 19:28:53.951259  9290 net.cpp:148] Top shape: 24 128 7 7 (150528)
I0403 19:28:53.951277  9290 net.cpp:156] Memory required for data: 1305071136
I0403 19:28:53.951294  9290 layer_factory.hpp:77] Creating layer inception_5a/relu_pool_proj
I0403 19:28:53.951311  9290 net.cpp:91] Creating Layer inception_5a/relu_pool_proj
I0403 19:28:53.951326  9290 net.cpp:425] inception_5a/relu_pool_proj <- inception_5a/pool_proj
I0403 19:28:53.951346  9290 net.cpp:386] inception_5a/relu_pool_proj -> inception_5a/pool_proj (in-place)
I0403 19:28:53.951632  9290 net.cpp:141] Setting up inception_5a/relu_pool_proj
I0403 19:28:53.951660  9290 net.cpp:148] Top shape: 24 128 7 7 (150528)
I0403 19:28:53.951676  9290 net.cpp:156] Memory required for data: 1305673248
I0403 19:28:53.951690  9290 layer_factory.hpp:77] Creating layer inception_5a/output
I0403 19:28:53.951707  9290 net.cpp:91] Creating Layer inception_5a/output
I0403 19:28:53.951722  9290 net.cpp:425] inception_5a/output <- inception_5a/1x1
I0403 19:28:53.951738  9290 net.cpp:425] inception_5a/output <- inception_5a/3x3
I0403 19:28:53.951755  9290 net.cpp:425] inception_5a/output <- inception_5a/5x5
I0403 19:28:53.951771  9290 net.cpp:425] inception_5a/output <- inception_5a/pool_proj
I0403 19:28:53.951786  9290 net.cpp:399] inception_5a/output -> inception_5a/output
I0403 19:28:53.951836  9290 net.cpp:141] Setting up inception_5a/output
I0403 19:28:53.951858  9290 net.cpp:148] Top shape: 24 832 7 7 (978432)
I0403 19:28:53.951874  9290 net.cpp:156] Memory required for data: 1309586976
I0403 19:28:53.951887  9290 layer_factory.hpp:77] Creating layer inception_5a/output_inception_5a/output_0_split
I0403 19:28:53.951910  9290 net.cpp:91] Creating Layer inception_5a/output_inception_5a/output_0_split
I0403 19:28:53.951925  9290 net.cpp:425] inception_5a/output_inception_5a/output_0_split <- inception_5a/output
I0403 19:28:53.951943  9290 net.cpp:399] inception_5a/output_inception_5a/output_0_split -> inception_5a/output_inception_5a/output_0_split_0
I0403 19:28:53.951962  9290 net.cpp:399] inception_5a/output_inception_5a/output_0_split -> inception_5a/output_inception_5a/output_0_split_1
I0403 19:28:53.951982  9290 net.cpp:399] inception_5a/output_inception_5a/output_0_split -> inception_5a/output_inception_5a/output_0_split_2
I0403 19:28:53.952004  9290 net.cpp:399] inception_5a/output_inception_5a/output_0_split -> inception_5a/output_inception_5a/output_0_split_3
I0403 19:28:53.952112  9290 net.cpp:141] Setting up inception_5a/output_inception_5a/output_0_split
I0403 19:28:53.952136  9290 net.cpp:148] Top shape: 24 832 7 7 (978432)
I0403 19:28:53.952152  9290 net.cpp:148] Top shape: 24 832 7 7 (978432)
I0403 19:28:53.952167  9290 net.cpp:148] Top shape: 24 832 7 7 (978432)
I0403 19:28:53.952183  9290 net.cpp:148] Top shape: 24 832 7 7 (978432)
I0403 19:28:53.952195  9290 net.cpp:156] Memory required for data: 1325241888
I0403 19:28:53.952209  9290 layer_factory.hpp:77] Creating layer inception_5b/1x1
I0403 19:28:53.952231  9290 net.cpp:91] Creating Layer inception_5b/1x1
I0403 19:28:53.952252  9290 net.cpp:425] inception_5b/1x1 <- inception_5a/output_inception_5a/output_0_split_0
I0403 19:28:53.952275  9290 net.cpp:399] inception_5b/1x1 -> inception_5b/1x1
I0403 19:28:53.955925  9290 net.cpp:141] Setting up inception_5b/1x1
I0403 19:28:53.955956  9290 net.cpp:148] Top shape: 24 384 7 7 (451584)
I0403 19:28:53.955972  9290 net.cpp:156] Memory required for data: 1327048224
I0403 19:28:53.955991  9290 layer_factory.hpp:77] Creating layer inception_5b/relu_1x1
I0403 19:28:53.956008  9290 net.cpp:91] Creating Layer inception_5b/relu_1x1
I0403 19:28:53.956024  9290 net.cpp:425] inception_5b/relu_1x1 <- inception_5b/1x1
I0403 19:28:53.956040  9290 net.cpp:386] inception_5b/relu_1x1 -> inception_5b/1x1 (in-place)
I0403 19:28:53.956341  9290 net.cpp:141] Setting up inception_5b/relu_1x1
I0403 19:28:53.956368  9290 net.cpp:148] Top shape: 24 384 7 7 (451584)
I0403 19:28:53.956384  9290 net.cpp:156] Memory required for data: 1328854560
I0403 19:28:53.956398  9290 layer_factory.hpp:77] Creating layer inception_5b/3x3_reduce
I0403 19:28:53.956418  9290 net.cpp:91] Creating Layer inception_5b/3x3_reduce
I0403 19:28:53.956436  9290 net.cpp:425] inception_5b/3x3_reduce <- inception_5a/output_inception_5a/output_0_split_1
I0403 19:28:53.956457  9290 net.cpp:399] inception_5b/3x3_reduce -> inception_5b/3x3_reduce
I0403 19:28:53.959044  9290 net.cpp:141] Setting up inception_5b/3x3_reduce
I0403 19:28:53.959075  9290 net.cpp:148] Top shape: 24 192 7 7 (225792)
I0403 19:28:53.959091  9290 net.cpp:156] Memory required for data: 1329757728
I0403 19:28:53.959110  9290 layer_factory.hpp:77] Creating layer inception_5b/relu_3x3_reduce
I0403 19:28:53.959126  9290 net.cpp:91] Creating Layer inception_5b/relu_3x3_reduce
I0403 19:28:53.959142  9290 net.cpp:425] inception_5b/relu_3x3_reduce <- inception_5b/3x3_reduce
I0403 19:28:53.959161  9290 net.cpp:386] inception_5b/relu_3x3_reduce -> inception_5b/3x3_reduce (in-place)
I0403 19:28:53.959352  9290 net.cpp:141] Setting up inception_5b/relu_3x3_reduce
I0403 19:28:53.959377  9290 net.cpp:148] Top shape: 24 192 7 7 (225792)
I0403 19:28:53.959390  9290 net.cpp:156] Memory required for data: 1330660896
I0403 19:28:53.959404  9290 layer_factory.hpp:77] Creating layer inception_5b/3x3
I0403 19:28:53.959426  9290 net.cpp:91] Creating Layer inception_5b/3x3
I0403 19:28:53.959444  9290 net.cpp:425] inception_5b/3x3 <- inception_5b/3x3_reduce
I0403 19:28:53.959466  9290 net.cpp:399] inception_5b/3x3 -> inception_5b/3x3
I0403 19:28:53.966048  9290 net.cpp:141] Setting up inception_5b/3x3
I0403 19:28:53.966080  9290 net.cpp:148] Top shape: 24 384 7 7 (451584)
I0403 19:28:53.966096  9290 net.cpp:156] Memory required for data: 1332467232
I0403 19:28:53.966114  9290 layer_factory.hpp:77] Creating layer inception_5b/relu_3x3
I0403 19:28:53.966133  9290 net.cpp:91] Creating Layer inception_5b/relu_3x3
I0403 19:28:53.966150  9290 net.cpp:425] inception_5b/relu_3x3 <- inception_5b/3x3
I0403 19:28:53.966169  9290 net.cpp:386] inception_5b/relu_3x3 -> inception_5b/3x3 (in-place)
I0403 19:28:53.966472  9290 net.cpp:141] Setting up inception_5b/relu_3x3
I0403 19:28:53.966500  9290 net.cpp:148] Top shape: 24 384 7 7 (451584)
I0403 19:28:53.966516  9290 net.cpp:156] Memory required for data: 1334273568
I0403 19:28:53.966531  9290 layer_factory.hpp:77] Creating layer inception_5b/5x5_reduce
I0403 19:28:53.966570  9290 net.cpp:91] Creating Layer inception_5b/5x5_reduce
I0403 19:28:53.966589  9290 net.cpp:425] inception_5b/5x5_reduce <- inception_5a/output_inception_5a/output_0_split_2
I0403 19:28:53.966609  9290 net.cpp:399] inception_5b/5x5_reduce -> inception_5b/5x5_reduce
I0403 19:28:53.967885  9290 net.cpp:141] Setting up inception_5b/5x5_reduce
I0403 19:28:53.967916  9290 net.cpp:148] Top shape: 24 48 7 7 (56448)
I0403 19:28:53.967931  9290 net.cpp:156] Memory required for data: 1334499360
I0403 19:28:53.967950  9290 layer_factory.hpp:77] Creating layer inception_5b/relu_5x5_reduce
I0403 19:28:53.967968  9290 net.cpp:91] Creating Layer inception_5b/relu_5x5_reduce
I0403 19:28:53.967984  9290 net.cpp:425] inception_5b/relu_5x5_reduce <- inception_5b/5x5_reduce
I0403 19:28:53.968001  9290 net.cpp:386] inception_5b/relu_5x5_reduce -> inception_5b/5x5_reduce (in-place)
I0403 19:28:53.968381  9290 net.cpp:141] Setting up inception_5b/relu_5x5_reduce
I0403 19:28:53.968407  9290 net.cpp:148] Top shape: 24 48 7 7 (56448)
I0403 19:28:53.968423  9290 net.cpp:156] Memory required for data: 1334725152
I0403 19:28:53.968439  9290 layer_factory.hpp:77] Creating layer inception_5b/5x5
I0403 19:28:53.968459  9290 net.cpp:91] Creating Layer inception_5b/5x5
I0403 19:28:53.968477  9290 net.cpp:425] inception_5b/5x5 <- inception_5b/5x5_reduce
I0403 19:28:53.968495  9290 net.cpp:399] inception_5b/5x5 -> inception_5b/5x5
I0403 19:28:53.970547  9290 net.cpp:141] Setting up inception_5b/5x5
I0403 19:28:53.970577  9290 net.cpp:148] Top shape: 24 128 7 7 (150528)
I0403 19:28:53.970592  9290 net.cpp:156] Memory required for data: 1335327264
I0403 19:28:53.970610  9290 layer_factory.hpp:77] Creating layer inception_5b/relu_5x5
I0403 19:28:53.970628  9290 net.cpp:91] Creating Layer inception_5b/relu_5x5
I0403 19:28:53.970643  9290 net.cpp:425] inception_5b/relu_5x5 <- inception_5b/5x5
I0403 19:28:53.970662  9290 net.cpp:386] inception_5b/relu_5x5 -> inception_5b/5x5 (in-place)
I0403 19:28:53.970860  9290 net.cpp:141] Setting up inception_5b/relu_5x5
I0403 19:28:53.970885  9290 net.cpp:148] Top shape: 24 128 7 7 (150528)
I0403 19:28:53.970901  9290 net.cpp:156] Memory required for data: 1335929376
I0403 19:28:53.970935  9290 layer_factory.hpp:77] Creating layer inception_5b/pool
I0403 19:28:53.970957  9290 net.cpp:91] Creating Layer inception_5b/pool
I0403 19:28:53.970973  9290 net.cpp:425] inception_5b/pool <- inception_5a/output_inception_5a/output_0_split_3
I0403 19:28:53.970991  9290 net.cpp:399] inception_5b/pool -> inception_5b/pool
I0403 19:28:53.971066  9290 net.cpp:141] Setting up inception_5b/pool
I0403 19:28:53.971099  9290 net.cpp:148] Top shape: 24 832 7 7 (978432)
I0403 19:28:53.971115  9290 net.cpp:156] Memory required for data: 1339843104
I0403 19:28:53.971130  9290 layer_factory.hpp:77] Creating layer inception_5b/pool_proj
I0403 19:28:53.971153  9290 net.cpp:91] Creating Layer inception_5b/pool_proj
I0403 19:28:53.971169  9290 net.cpp:425] inception_5b/pool_proj <- inception_5b/pool
I0403 19:28:53.971189  9290 net.cpp:399] inception_5b/pool_proj -> inception_5b/pool_proj
I0403 19:28:53.973620  9290 net.cpp:141] Setting up inception_5b/pool_proj
I0403 19:28:53.973654  9290 net.cpp:148] Top shape: 24 128 7 7 (150528)
I0403 19:28:53.973670  9290 net.cpp:156] Memory required for data: 1340445216
I0403 19:28:53.973690  9290 layer_factory.hpp:77] Creating layer inception_5b/relu_pool_proj
I0403 19:28:53.973708  9290 net.cpp:91] Creating Layer inception_5b/relu_pool_proj
I0403 19:28:53.973726  9290 net.cpp:425] inception_5b/relu_pool_proj <- inception_5b/pool_proj
I0403 19:28:53.973745  9290 net.cpp:386] inception_5b/relu_pool_proj -> inception_5b/pool_proj (in-place)
I0403 19:28:53.974056  9290 net.cpp:141] Setting up inception_5b/relu_pool_proj
I0403 19:28:53.974086  9290 net.cpp:148] Top shape: 24 128 7 7 (150528)
I0403 19:28:53.974102  9290 net.cpp:156] Memory required for data: 1341047328
I0403 19:28:53.974118  9290 layer_factory.hpp:77] Creating layer inception_5b/output
I0403 19:28:53.974136  9290 net.cpp:91] Creating Layer inception_5b/output
I0403 19:28:53.974167  9290 net.cpp:425] inception_5b/output <- inception_5b/1x1
I0403 19:28:53.974186  9290 net.cpp:425] inception_5b/output <- inception_5b/3x3
I0403 19:28:53.974203  9290 net.cpp:425] inception_5b/output <- inception_5b/5x5
I0403 19:28:53.974220  9290 net.cpp:425] inception_5b/output <- inception_5b/pool_proj
I0403 19:28:53.974238  9290 net.cpp:399] inception_5b/output -> inception_5b/output
I0403 19:28:53.974298  9290 net.cpp:141] Setting up inception_5b/output
I0403 19:28:53.974323  9290 net.cpp:148] Top shape: 24 1024 7 7 (1204224)
I0403 19:28:53.974337  9290 net.cpp:156] Memory required for data: 1345864224
I0403 19:28:53.974351  9290 layer_factory.hpp:77] Creating layer pool5/7x7_s1
I0403 19:28:53.974373  9290 net.cpp:91] Creating Layer pool5/7x7_s1
I0403 19:28:53.974391  9290 net.cpp:425] pool5/7x7_s1 <- inception_5b/output
I0403 19:28:53.974411  9290 net.cpp:399] pool5/7x7_s1 -> pool5/7x7_s1
I0403 19:28:53.974637  9290 net.cpp:141] Setting up pool5/7x7_s1
I0403 19:28:53.974663  9290 net.cpp:148] Top shape: 24 1024 1 1 (24576)
I0403 19:28:53.974678  9290 net.cpp:156] Memory required for data: 1345962528
I0403 19:28:53.974692  9290 layer_factory.hpp:77] Creating layer pool5/drop_7x7_s1
I0403 19:28:53.974710  9290 net.cpp:91] Creating Layer pool5/drop_7x7_s1
I0403 19:28:53.974727  9290 net.cpp:425] pool5/drop_7x7_s1 <- pool5/7x7_s1
I0403 19:28:53.974748  9290 net.cpp:386] pool5/drop_7x7_s1 -> pool5/7x7_s1 (in-place)
I0403 19:28:53.974799  9290 net.cpp:141] Setting up pool5/drop_7x7_s1
I0403 19:28:53.974828  9290 net.cpp:148] Top shape: 24 1024 1 1 (24576)
I0403 19:28:53.974843  9290 net.cpp:156] Memory required for data: 1346060832
I0403 19:28:53.974858  9290 layer_factory.hpp:77] Creating layer loss3/classifier_plantvillage
I0403 19:28:53.974879  9290 net.cpp:91] Creating Layer loss3/classifier_plantvillage
I0403 19:28:53.974895  9290 net.cpp:425] loss3/classifier_plantvillage <- pool5/7x7_s1
I0403 19:28:53.974915  9290 net.cpp:399] loss3/classifier_plantvillage -> loss3/classifier_plantvillage
I0403 19:28:53.975363  9290 net.cpp:141] Setting up loss3/classifier_plantvillage
I0403 19:28:53.975389  9290 net.cpp:148] Top shape: 24 38 (912)
I0403 19:28:53.975404  9290 net.cpp:156] Memory required for data: 1346064480
I0403 19:28:53.975421  9290 layer_factory.hpp:77] Creating layer loss3/classifier_plantvillage_loss3/classifier_plantvillage_0_split
I0403 19:28:53.975443  9290 net.cpp:91] Creating Layer loss3/classifier_plantvillage_loss3/classifier_plantvillage_0_split
I0403 19:28:53.975461  9290 net.cpp:425] loss3/classifier_plantvillage_loss3/classifier_plantvillage_0_split <- loss3/classifier_plantvillage
I0403 19:28:53.975479  9290 net.cpp:399] loss3/classifier_plantvillage_loss3/classifier_plantvillage_0_split -> loss3/classifier_plantvillage_loss3/classifier_plantvillage_0_split_0
I0403 19:28:53.975500  9290 net.cpp:399] loss3/classifier_plantvillage_loss3/classifier_plantvillage_0_split -> loss3/classifier_plantvillage_loss3/classifier_plantvillage_0_split_1
I0403 19:28:53.975522  9290 net.cpp:399] loss3/classifier_plantvillage_loss3/classifier_plantvillage_0_split -> loss3/classifier_plantvillage_loss3/classifier_plantvillage_0_split_2
I0403 19:28:53.975545  9290 net.cpp:399] loss3/classifier_plantvillage_loss3/classifier_plantvillage_0_split -> loss3/classifier_plantvillage_loss3/classifier_plantvillage_0_split_3
I0403 19:28:53.975651  9290 net.cpp:141] Setting up loss3/classifier_plantvillage_loss3/classifier_plantvillage_0_split
I0403 19:28:53.975674  9290 net.cpp:148] Top shape: 24 38 (912)
I0403 19:28:53.975692  9290 net.cpp:148] Top shape: 24 38 (912)
I0403 19:28:53.975708  9290 net.cpp:148] Top shape: 24 38 (912)
I0403 19:28:53.975723  9290 net.cpp:148] Top shape: 24 38 (912)
I0403 19:28:53.975738  9290 net.cpp:156] Memory required for data: 1346079072
I0403 19:28:53.975752  9290 layer_factory.hpp:77] Creating layer loss1/loss
I0403 19:28:53.975775  9290 net.cpp:91] Creating Layer loss1/loss
I0403 19:28:53.975792  9290 net.cpp:425] loss1/loss <- loss1/classifier_plantvillage_loss1/classifier_plantvillage_0_split_0
I0403 19:28:53.975823  9290 net.cpp:425] loss1/loss <- label_data_1_split_0
…
