…
I0403 19:48:18.462101  9688 net.cpp:313] The NetState phase (1) differed from the phase (0) specified by a rule in layer data
I0403 19:48:18.463351  9688 net.cpp:49] Initializing net from parameters: 
state {
  phase: TEST
}
layer {
  name: "data"
  type: "Data"
  top: "data"
  top: "label"
  include {
    phase: TEST
  }
  transform_param {
    mirror: false
    crop_size: 224
    mean_file: "/home/mohanty/data/final_dataset/lmdb/color-50-50/mean.binaryproto"
  }
  data_param {
    source: "/home/mohanty/data/final_dataset/lmdb/color-50-50/test_db"
    batch_size: 24
    backend: LMDB
  }
}
layer {
  name: "conv1/7x7_s2"
  type: "Convolution"
  bottom: "data"
  top: "conv1/7x7_s2"
  param {
    lr_mult: 1
    decay_mult: 1
  }
  param {
    lr_mult: 2
    decay_mult: 0
  }
  convolution_param {
    num_output: 64
    pad: 3
    kernel_size: 7
    stride: 2
    weight_filler {
      type: "xavier"
      std: 0.1
    }
    bias_filler {
      type: "constant"
      value: 0.2
    }
  }
}
layer {
  name: "conv1/relu_7x7"
  type: "ReLU"
  bottom: "conv1/7x7_s2"
  top: "conv1/7x7_s2"
}
layer {
  name: "pool1/3x3_s2"
  type: "Pooling"
  bottom: "conv1/7x7_s2"
  top: "pool1/3x3_s2"
  pooling_param {
    pool: MAX
    kernel_size: 3
    stride: 2
  }
}
layer {
  name: "pool1/norm1"
  type: "LRN"
  bottom: "pool1/3x3_s2"
  top: "pool1/norm1"
  lrn_param {
    local_size: 5
    alpha: 0.0001
    beta: 0.75
  }
}
layer {
  name: "conv2/3x3_reduce"
  type: "Convolution"
  bottom: "pool1/norm1"
  top: "conv2/3x3_reduce"
  param {
    lr_mult: 1
    decay_mult: 1
  }
  param {
    lr_mult: 2
    decay_mult: 0
  }
  convolution_param {
    num_output: 64
    kernel_size: 1
    weight_filler {
      type: "xavier"
      std: 0.1
    }
    bias_filler {
      type: "constant"
      value: 0.2
    }
  }
}
layer {
  name: "conv2/relu_3x3_reduce"
  type: "ReLU"
  bottom: "conv2/3x3_reduce"
  top: "conv2/3x3_reduce"
}
layer {
  name: "conv2/3x3"
  type: "Convolution"
  bottom: "conv2/3x3_reduce"
  top: "conv2/3x3"
  param {
    lr_mult: 1
    decay_mult: 1
  }
  param {
    lr_mult: 2
    decay_mult: 0
  }
  convolution_param {
    num_output: 192
    pad: 1
    kernel_size: 3
    weight_filler {
      type: "xavier"
      std: 0.03
    }
    bias_filler {
      type: "constant"
      value: 0.2
    }
  }
}
layer {
  name: "conv2/relu_3x3"
  type: "ReLU"
  bottom: "conv2/3x3"
  top: "conv2/3x3"
}
layer {
  name: "conv2/norm2"
  type: "LRN"
  bottom: "conv2/3x3"
  top: "conv2/norm2"
  lrn_param {
    local_size: 5
    alpha: 0.0001
    beta: 0.75
  }
}
layer {
  name: "pool2/3x3_s2"
  type: "Pooling"
  bottom: "conv2/norm2"
  top: "pool2/3x3_s2"
  pooling_param {
    pool: MAX
    kernel_size: 3
    stride: 2
  }
}
layer {
  name: "inception_3a/1x1"
  type: "Convolution"
  bottom: "pool2/3x3_s2"
  top: "inception_3a/1x1"
  param {
    lr_mult: 1
    decay_mult: 1
  }
  param {
    lr_mult: 2
    decay_mult: 0
  }
  convolution_param {
    num_output: 64
    kernel_size: 1
    weight_filler {
      type: "xavier"
      std: 0.03
    }
    bias_filler {
      type: "constant"
      value: 0.2
    }
  }
}
layer {
  name: "inception_3a/relu_1x1"
  type: "ReLU"
  bottom: "inception_3a/1x1"
  top: "inception_3a/1x1"
}
layer {
  name: "inception_3a/3x3_reduce"
  type: "Convolution"
  bottom: "pool2/3x3_s2"
  top: "inception_3a/3x3_reduce"
  param {
    lr_mult: 1
    decay_mult: 1
  }
  param {
    lr_mult: 2
    decay_mult: 0
  }
  convolution_param {
    num_output: 96
    kernel_size: 1
    weight_filler {
      type: "xavier"
      std: 0.09
    }
    bias_filler {
      type: "constant"
      value: 0.2
    }
  }
}
layer {
  name: "inception_3a/relu_3x3_reduce"
  type: "ReLU"
  bottom: "inception_3a/3x3_reduce"
  top: "inception_3a/3x3_reduce"
}
layer {
  name: "inception_3a/3x3"
  type: "Convolution"
  bottom: "inception_3a/3x3_reduce"
  top: "inception_3a/3x3"
  param {
    lr_mult: 1
    decay_mult: 1
  }
  param {
    lr_mult: 2
    decay_mult: 0
  }
  convolution_param {
    num_output: 128
    pad: 1
    kernel_size: 3
    weight_filler {
      type: "xavier"
      std: 0.03
    }
    bias_filler {
      type: "constant"
      value: 0.2
    }
  }
}
layer {
  name: "inception_3a/relu_3x3"
  type: "ReLU"
  bottom: "inception_3a/3x3"
  top: "inception_3a/3x3"
}
layer {
  name: "inception_3a/5x5_reduce"
  type: "Convolution"
  bottom: "pool2/3x3_s2"
  top: "inception_3a/5x5_reduce"
  param {
    lr_mult: 1
    decay_mult: 1
  }
  param {
    lr_mult: 2
    decay_mult: 0
  }
  convolution_param {
    num_output: 16
    kernel_size: 1
    weight_filler {
      type: "xavier"
      std: 0.2
    }
    bias_filler {
      type: "constant"
      value: 0.2
    }
  }
}
layer {
  name: "inception_3a/relu_5x5_reduce"
  type: "ReLU"
  bottom: "inception_3a/5x5_reduce"
  top: "inception_3a/5x5_reduce"
}
layer {
  name: "inception_3a/5x5"
  type: "Convolution"
  bottom: "inception_3a/5x5_reduce"
  top: "inception_3a/5x5"
  param {
    lr_mult: 1
    decay_mult: 1
  }
  param {
    lr_mult: 2
    decay_mult: 0
  }
  convolution_param {
    num_output: 32
    pad: 2
    kernel_size: 5
    weight_filler {
      type: "xavier"
      std: 0.03
    }
    bias_filler {
      type: "constant"
      value: 0.2
    }
  }
}
layer {
  name: "inception_3a/relu_5x5"
  type: "ReLU"
  bottom: "inception_3a/5x5"
  top: "inception_3a/5x5"
}
layer {
  name: "inception_3a/pool"
  type: "Pooling"
  bottom: "pool2/3x3_s2"
  top: "inception_3a/pool"
  pooling_param {
    pool: MAX
    kernel_size: 3
    stride: 1
    pad: 1
  }
}
layer {
  name: "inception_3a/pool_proj"
  type: "Convolution"
  bottom: "inception_3a/pool"
  top: "inception_3a/pool_proj"
  param {
    lr_mult: 1
    decay_mult: 1
  }
  param {
    lr_mult: 2
    decay_mult: 0
  }
  convolution_param {
    num_output: 32
    kernel_size: 1
    weight_filler {
      type: "xavier"
      std: 0.1
    }
    bias_filler {
      type: "constant"
      value: 0.2
    }
  }
}
layer {
  name: "inception_3a/relu_pool_proj"
  type: "ReLU"
  bottom: "inception_3a/pool_proj"
  top: "inception_3a/pool_proj"
}
layer {
  name: "inception_3a/output"
  type: "Concat"
  bottom: "inception_3a/1x1"
  bottom: "inception_3a/3x3"
  bottom: "inception_3a/5x5"
  bottom: "inception_3a/pool_proj"
  top: "inception_3a/output"
}
layer {
  name: "inception_3b/1x1"
  type: "Convolution"
  bottom: "inception_3a/output"
  top: "inception_3b/1x1"
  param {
    lr_mult: 1
    decay_mult: 1
  }
  param {
    lr_mult: 2
    decay_mult: 0
  }
  convolution_param {
    num_output: 128
    kernel_size: 1
    weight_filler {
      type: "xavier"
      std: 0.03
    }
    bias_filler {
      type: "constant"
      value: 0.2
    }
  }
}
layer {
  name: "inception_3b/relu_1x1"
  type: "ReLU"
  bottom: "inception_3b/1x1"
  top: "inception_3b/1x1"
}
layer {
  name: "inception_3b/3x3_reduce"
  type: "Convolution"
  bottom: "inception_3a/output"
  top: "inception_3b/3x3_reduce"
  param {
    lr_mult: 1
    decay_mult: 1
  }
  param {
    lr_mult: 2
    decay_mult: 0
  }
  convolution_param {
    num_output: 128
    kernel_size: 1
    weight_filler {
      type: "xavier"
      std: 0.09
    }
    bias_filler {
      type: "constant"
      value: 0.2
    }
  }
}
layer {
  name: "inception_3b/relu_3x3_reduce"
  type: "ReLU"
  bottom: "inception_3b/3x3_reduce"
  top: "inception_3b/3x3_reduce"
}
layer {
  name: "inception_3b/3x3"
  type: "Convolution"
  bottom: "inception_3b/3x3_reduce"
  top: "inception_3b/3x3"
  param {
    lr_mult: 1
    decay_mult: 1
  }
  param {
    lr_mult: 2
    decay_mult: 0
  }
  convolution_param {
    num_output: 192
    pad: 1
    kernel_size: 3
    weight_filler {
      type: "xavier"
      std: 0.03
    }
    bias_filler {
      type: "constant"
      value: 0.2
    }
  }
}
layer {
  name: "inception_3b/relu_3x3"
  type: "ReLU"
  bottom: "inception_3b/3x3"
  top: "inception_3b/3x3"
}
layer {
  name: "inception_3b/5x5_reduce"
  type: "Convolution"
  bottom: "inception_3a/output"
  top: "inception_3b/5x5_reduce"
  param {
    lr_mult: 1
    decay_mult: 1
  }
  param {
    lr_mult: 2
    decay_mult: 0
  }
  convolution_param {
    num_output: 32
    kernel_size: 1
    weight_filler {
      type: "xavier"
      std: 0.2
    }
    bias_filler {
      type: "constant"
      value: 0.2
    }
  }
}
layer {
  name: "inception_3b/relu_5x5_reduce"
  type: "ReLU"
  bottom: "inception_3b/5x5_reduce"
  top: "inception_3b/5x5_reduce"
}
layer {
  name: "inception_3b/5x5"
  type: "Convolution"
  bottom: "inception_3b/5x5_reduce"
  top: "inception_3b/5x5"
  param {
    lr_mult: 1
    decay_mult: 1
  }
  param {
    lr_mult: 2
    decay_mult: 0
  }
  convolution_param {
    num_output: 96
    pad: 2
    kernel_size: 5
    weight_filler {
      type: "xavier"
      std: 0.03
    }
    bias_filler {
      type: "constant"
      value: 0.2
    }
  }
}
layer {
  name: "inception_3b/relu_5x5"
  type: "ReLU"
  bottom: "inception_3b/5x5"
  top: "inception_3b/5x5"
}
layer {
  name: "inception_3b/pool"
  type: "Pooling"
  bottom: "inception_3a/output"
  top: "inception_3b/pool"
  pooling_param {
    pool: MAX
    kernel_size: 3
    stride: 1
    pad: 1
  }
}
layer {
  name: "inception_3b/pool_proj"
  type: "Convolution"
  bottom: "inception_3b/pool"
  top: "inception_3b/pool_proj"
  param {
    lr_mult: 1
    decay_mult: 1
  }
  param {
    lr_mult: 2
    decay_mult: 0
  }
  convolution_param {
    num_output: 64
    kernel_size: 1
    weight_filler {
      type: "xavier"
      std: 0.1
    }
    bias_filler {
      type: "constant"
      value: 0.2
    }
  }
}
layer {
  name: "inception_3b/relu_pool_proj"
  type: "ReLU"
  bottom: "inception_3b/pool_proj"
  top: "inception_3b/pool_proj"
}
layer {
  name: "inception_3b/output"
  type: "Concat"
  bottom: "inception_3b/1x1"
  bottom: "inception_3b/3x3"
  bottom: "inception_3b/5x5"
  bottom: "inception_3b/pool_proj"
  top: "inception_3b/output"
}
layer {
  name: "pool3/3x3_s2"
  type: "Pooling"
  bottom: "inception_3b/output"
  top: "pool3/3x3_s2"
  pooling_param {
    pool: MAX
    kernel_size: 3
    stride: 2
  }
}
layer {
  name: "inception_4a/1x1"
  type: "Convolution"
  bottom: "pool3/3x3_s2"
  top: "inception_4a/1x1"
  param {
    lr_mult: 1
    decay_mult: 1
  }
  param {
    lr_mult: 2
    decay_mult: 0
  }
  convolution_param {
    num_output: 192
    kernel_size: 1
    weight_filler {
      type: "xavier"
      std: 0.03
    }
    bias_filler {
      type: "constant"
      value: 0.2
    }
  }
}
layer {
  name: "inception_4a/relu_1x1"
  type: "ReLU"
  bottom: "inception_4a/1x1"
  top: "inception_4a/1x1"
}
layer {
  name: "inception_4a/3x3_reduce"
  type: "Convolution"
  bottom: "pool3/3x3_s2"
  top: "inception_4a/3x3_reduce"
  param {
    lr_mult: 1
    decay_mult: 1
  }
  param {
    lr_mult: 2
    decay_mult: 0
  }
  convolution_param {
    num_output: 96
    kernel_size: 1
    weight_filler {
      type: "xavier"
      std: 0.09
    }
    bias_filler {
      type: "constant"
      value: 0.2
    }
  }
}
layer {
  name: "inception_4a/relu_3x3_reduce"
  type: "ReLU"
  bottom: "inception_4a/3x3_reduce"
  top: "inception_4a/3x3_reduce"
}
layer {
  name: "inception_4a/3x3"
  type: "Convolution"
  bottom: "inception_4a/3x3_reduce"
  top: "inception_4a/3x3"
  param {
    lr_mult: 1
    decay_mult: 1
  }
  param {
    lr_mult: 2
    decay_mult: 0
  }
  convolution_param {
    num_output: 208
    pad: 1
    kernel_size: 3
    weight_filler {
      type: "xavier"
      std: 0.03
    }
    bias_filler {
      type: "constant"
      value: 0.2
    }
  }
}
layer {
  name: "inception_4a/relu_3x3"
  type: "ReLU"
  bottom: "inception_4a/3x3"
  top: "inception_4a/3x3"
}
layer {
  name: "inception_4a/5x5_reduce"
  type: "Convolution"
  bottom: "pool3/3x3_s2"
  top: "inception_4a/5x5_reduce"
  param {
    lr_mult: 1
    decay_mult: 1
  }
  param {
    lr_mult: 2
    decay_mult: 0
  }
  convolution_param {
    num_output: 16
    kernel_size: 1
    weight_filler {
      type: "xavier"
      std: 0.2
    }
    bias_filler {
      type: "constant"
      value: 0.2
    }
  }
}
layer {
  name: "inception_4a/relu_5x5_reduce"
  type: "ReLU"
  bottom: "inception_4a/5x5_reduce"
  top: "inception_4a/5x5_reduce"
}
layer {
  name: "inception_4a/5x5"
  type: "Convolution"
  bottom: "inception_4a/5x5_reduce"
  top: "inception_4a/5x5"
  param {
    lr_mult: 1
    decay_mult: 1
  }
  param {
    lr_mult: 2
    decay_mult: 0
  }
  convolution_param {
    num_output: 48
    pad: 2
    kernel_size: 5
    weight_filler {
      type: "xavier"
      std: 0.03
    }
    bias_filler {
      type: "constant"
      value: 0.2
    }
  }
}
layer {
  name: "inception_4a/relu_5x5"
  type: "ReLU"
  bottom: "inception_4a/5x5"
  top: "inception_4a/5x5"
}
layer {
  name: "inception_4a/pool"
  type: "Pooling"
  bottom: "pool3/3x3_s2"
  top: "inception_4a/pool"
  pooling_param {
    pool: MAX
    kernel_size: 3
    stride: 1
    pad: 1
  }
}
layer {
  name: "inception_4a/pool_proj"
  type: "Convolution"
  bottom: "inception_4a/pool"
  top: "inception_4a/pool_proj"
  param {
    lr_mult: 1
    decay_mult: 1
  }
  param {
    lr_mult: 2
    decay_mult: 0
  }
  convolution_param {
    num_output: 64
    kernel_size: 1
    weight_filler {
      type: "xavier"
      std: 0.1
    }
    bias_filler {
      type: "constant"
      value: 0.2
    }
  }
}
layer {
  name: "inception_4a/relu_pool_proj"
  type: "ReLU"
  bottom: "inception_4a/pool_proj"
  top: "inception_4a/pool_proj"
}
layer {
  name: "inception_4a/output"
  type: "Concat"
  bottom: "inception_4a/1x1"
  bottom: "inception_4a/3x3"
  bottom: "inception_4a/5x5"
  bottom: "inception_4a/pool_proj"
  top: "inception_4a/output"
}
layer {
  name: "loss1/ave_pool"
  type: "Pooling"
  bottom: "inception_4a/output"
  top: "loss1/ave_pool"
  pooling_param {
    pool: AVE
    kernel_size: 5
    stride: 3
  }
}
layer {
  name: "loss1/conv"
  type: "Convolution"
  bottom: "loss1/ave_pool"
  top: "loss1/conv"
  param {
    lr_mult: 1
    decay_mult: 1
  }
  param {
    lr_mult: 2
    decay_mult: 0
  }
  convolution_param {
    num_output: 128
    kernel_size: 1
    weight_filler {
      type: "xavier"
      std: 0.08
    }
    bias_filler {
      type: "constant"
      value: 0.2
    }
  }
}
layer {
  name: "loss1/relu_conv"
  type: "ReLU"
  bottom: "loss1/conv"
  top: "loss1/conv"
}
layer {
  name: "loss1/fc"
  type: "InnerProduct"
  bottom: "loss1/conv"
  top: "loss1/fc"
  param {
    lr_mult: 1
    decay_mult: 1
  }
  param {
    lr_mult: 2
    decay_mult: 0
  }
  inner_product_param {
    num_output: 1024
    weight_filler {
      type: "xavier"
      std: 0.02
    }
    bias_filler {
      type: "constant"
      value: 0.2
    }
  }
}
layer {
  name: "loss1/relu_fc"
  type: "ReLU"
  bottom: "loss1/fc"
  top: "loss1/fc"
}
layer {
  name: "loss1/drop_fc"
  type: "Dropout"
  bottom: "loss1/fc"
  top: "loss1/fc"
  dropout_param {
    dropout_ratio: 0.7
  }
}
layer {
  name: "loss1/classifier_plantvillage"
  type: "InnerProduct"
  bottom: "loss1/fc"
  top: "loss1/classifier_plantvillage"
  param {
    lr_mult: 1
    decay_mult: 1
  }
  param {
    lr_mult: 2
    decay_mult: 0
  }
  inner_product_param {
    num_output: 38
    weight_filler {
      type: "xavier"
      std: 0.0009765625
    }
    bias_filler {
      type: "constant"
      value: 0
    }
  }
}
layer {
  name: "inception_4b/1x1"
  type: "Convolution"
  bottom: "inception_4a/output"
  top: "inception_4b/1x1"
  param {
    lr_mult: 1
    decay_mult: 1
  }
  param {
    lr_mult: 2
    decay_mult: 0
  }
  convolution_param {
    num_output: 160
    kernel_size: 1
    weight_filler {
      type: "xavier"
      std: 0.03
    }
    bias_filler {
      type: "constant"
      value: 0.2
    }
  }
}
layer {
  name: "inception_4b/relu_1x1"
  type: "ReLU"
  bottom: "inception_4b/1x1"
  top: "inception_4b/1x1"
}
layer {
  name: "inception_4b/3x3_reduce"
  type: "Convolution"
  bottom: "inception_4a/output"
  top: "inception_4b/3x3_reduce"
  param {
    lr_mult: 1
    decay_mult: 1
  }
  param {
    lr_mult: 2
    decay_mult: 0
  }
  convolution_param {
    num_output: 112
    kernel_size: 1
    weight_filler {
      type: "xavier"
      std: 0.09
    }
    bias_filler {
      type: "constant"
      value: 0.2
    }
  }
}
layer {
  name: "inception_4b/relu_3x3_reduce"
  type: "ReLU"
  bottom: "inception_4b/3x3_reduce"
  top: "inception_4b/3x3_reduce"
}
layer {
  name: "inception_4b/3x3"
  type: "Convolution"
  bottom: "inception_4b/3x3_reduce"
  top: "inception_4b/3x3"
  param {
    lr_mult: 1
    decay_mult: 1
  }
  param {
    lr_mult: 2
    decay_mult: 0
  }
  convolution_param {
    num_output: 224
    pad: 1
    kernel_size: 3
    weight_filler {
      type: "xavier"
      std: 0.03
    }
    bias_filler {
      type: "constant"
      value: 0.2
    }
  }
}
layer {
  name: "inception_4b/relu_3x3"
  type: "ReLU"
  bottom: "inception_4b/3x3"
  top: "inception_4b/3x3"
}
layer {
  name: "inception_4b/5x5_reduce"
  type: "Convolution"
  bottom: "inception_4a/output"
  top: "inception_4b/5x5_reduce"
  param {
    lr_mult: 1
    decay_mult: 1
  }
  param {
    lr_mult: 2
    decay_mult: 0
  }
  convolution_param {
    num_output: 24
    kernel_size: 1
    weight_filler {
      type: "xavier"
      std: 0.2
    }
    bias_filler {
      type: "constant"
      value: 0.2
    }
  }
}
layer {
  name: "inception_4b/relu_5x5_reduce"
  type: "ReLU"
  bottom: "inception_4b/5x5_reduce"
  top: "inception_4b/5x5_reduce"
}
layer {
  name: "inception_4b/5x5"
  type: "Convolution"
  bottom: "inception_4b/5x5_reduce"
  top: "inception_4b/5x5"
  param {
    lr_mult: 1
    decay_mult: 1
  }
  param {
    lr_mult: 2
    decay_mult: 0
  }
  convolution_param {
    num_output: 64
    pad: 2
    kernel_size: 5
    weight_filler {
      type: "xavier"
      std: 0.03
    }
    bias_filler {
      type: "constant"
      value: 0.2
    }
  }
}
layer {
  name: "inception_4b/relu_5x5"
  type: "ReLU"
  bottom: "inception_4b/5x5"
  top: "inception_4b/5x5"
}
layer {
  name: "inception_4b/pool"
  type: "Pooling"
  bottom: "inception_4a/output"
  top: "inception_4b/pool"
  pooling_param {
    pool: MAX
    kernel_size: 3
    stride: 1
    pad: 1
  }
}
layer {
  name: "inception_4b/pool_proj"
  type: "Convolution"
  bottom: "inception_4b/pool"
  top: "inception_4b/pool_proj"
  param {
    lr_mult: 1
    decay_mult: 1
  }
  param {
    lr_mult: 2
    decay_mult: 0
  }
  convolution_param {
    num_output: 64
    kernel_size: 1
    weight_filler {
      type: "xavier"
      std: 0.1
    }
    bias_filler {
      type: "constant"
      value: 0.2
    }
  }
}
layer {
  name: "inception_4b/relu_pool_proj"
  type: "ReLU"
  bottom: "inception_4b/pool_proj"
  top: "inception_4b/pool_proj"
}
layer {
  name: "inception_4b/output"
  type: "Concat"
  bottom: "inception_4b/1x1"
  bottom: "inception_4b/3x3"
  bottom: "inception_4b/5x5"
  bottom: "inception_4b/pool_proj"
  top: "inception_4b/output"
}
layer {
  name: "inception_4c/1x1"
  type: "Convolution"
  bottom: "inception_4b/output"
  top: "inception_4c/1x1"
  param {
    lr_mult: 1
    decay_mult: 1
  }
  param {
    lr_mult: 2
    decay_mult: 0
  }
  convolution_param {
    num_output: 128
    kernel_size: 1
    weight_filler {
      type: "xavier"
      std: 0.03
    }
    bias_filler {
      type: "constant"
      value: 0.2
    }
  }
}
layer {
  name: "inception_4c/relu_1x1"
  type: "ReLU"
  bottom: "inception_4c/1x1"
  top: "inception_4c/1x1"
}
layer {
  name: "inception_4c/3x3_reduce"
  type: "Convolution"
  bottom: "inception_4b/output"
  top: "inception_4c/3x3_reduce"
  param {
    lr_mult: 1
    decay_mult: 1
  }
  param {
    lr_mult: 2
    decay_mult: 0
  }
  convolution_param {
    num_output: 128
    kernel_size: 1
    weight_filler {
      type: "xavier"
      std: 0.09
    }
    bias_filler {
      type: "constant"
      value: 0.2
    }
  }
}
layer {
  name: "inception_4c/relu_3x3_reduce"
  type: "ReLU"
  bottom: "inception_4c/3x3_reduce"
  top: "inception_4c/3x3_reduce"
}
layer {
  name: "inception_4c/3x3"
  type: "Convolution"
  bottom: "inception_4c/3x3_reduce"
  top: "inception_4c/3x3"
  param {
    lr_mult: 1
    decay_mult: 1
  }
  param {
    lr_mult: 2
    decay_mult: 0
  }
  convolution_param {
    num_output: 256
    pad: 1
    kernel_size: 3
    weight_filler {
      type: "xavier"
      std: 0.03
    }
    bias_filler {
      type: "constant"
      value: 0.2
    }
  }
}
layer {
  name: "inception_4c/relu_3x3"
  type: "ReLU"
  bottom: "inception_4c/3x3"
  top: "inception_4c/3x3"
}
layer {
  name: "inception_4c/5x5_reduce"
  type: "Convolution"
  bottom: "inception_4b/output"
  top: "inception_4c/5x5_reduce"
  param {
    lr_mult: 1
    decay_mult: 1
  }
  param {
    lr_mult: 2
    decay_mult: 0
  }
  convolution_param {
    num_output: 24
    kernel_size: 1
    weight_filler {
      type: "xavier"
      std: 0.2
    }
    bias_filler {
      type: "constant"
      value: 0.2
    }
  }
}
layer {
  name: "inception_4c/relu_5x5_reduce"
  type: "ReLU"
  bottom: "inception_4c/5x5_reduce"
  top: "inception_4c/5x5_reduce"
}
layer {
  name: "inception_4c/5x5"
  type: "Convolution"
  bottom: "inception_4c/5x5_reduce"
  top: "inception_4c/5x5"
  param {
    lr_mult: 1
    decay_mult: 1
  }
  param {
    lr_mult: 2
    decay_mult: 0
  }
  convolution_param {
    num_output: 64
    pad: 2
    kernel_size: 5
    weight_filler {
      type: "xavier"
      std: 0.03
    }
    bias_filler {
      type: "constant"
      value: 0.2
    }
  }
}
layer {
  name: "inception_4c/relu_5x5"
  type: "ReLU"
  bottom: "inception_4c/5x5"
  top: "inception_4c/5x5"
}
layer {
  name: "inception_4c/pool"
  type: "Pooling"
  bottom: "inception_4b/output"
  top: "inception_4c/pool"
  pooling_param {
    pool: MAX
    kernel_size: 3
    stride: 1
    pad: 1
  }
}
layer {
  name: "inception_4c/pool_proj"
  type: "Convolution"
  bottom: "inception_4c/pool"
  top: "inception_4c/pool_proj"
  param {
    lr_mult: 1
    decay_mult: 1
  }
  param {
    lr_mult: 2
    decay_mult: 0
  }
  convolution_param {
    num_output: 64
    kernel_size: 1
    weight_filler {
      type: "xavier"
      std: 0.1
    }
    bias_filler {
      type: "constant"
      value: 0.2
    }
  }
}
layer {
  name: "inception_4c/relu_pool_proj"
  type: "ReLU"
  bottom: "inception_4c/pool_proj"
  top: "inception_4c/pool_proj"
}
layer {
  name: "inception_4c/output"
  type: "Concat"
  bottom: "inception_4c/1x1"
  bottom: "inception_4c/3x3"
  bottom: "inception_4c/5x5"
  bottom: "inception_4c/pool_proj"
  top: "inception_4c/output"
}
layer {
  name: "inception_4d/1x1"
  type: "Convolution"
  bottom: "inception_4c/output"
  top: "inception_4d/1x1"
  param {
    lr_mult: 1
    decay_mult: 1
  }
  param {
    lr_mult: 2
    decay_mult: 0
  }
  convolution_param {
    num_output: 112
    kernel_size: 1
    weight_filler {
      type: "xavier"
      std: 0.03
    }
    bias_filler {
      type: "constant"
      value: 0.2
    }
  }
}
layer {
  name: "inception_4d/relu_1x1"
  type: "ReLU"
  bottom: "inception_4d/1x1"
  top: "inception_4d/1x1"
}
layer {
  name: "inception_4d/3x3_reduce"
  type: "Convolution"
  bottom: "inception_4c/output"
  top: "inception_4d/3x3_reduce"
  param {
    lr_mult: 1
    decay_mult: 1
  }
  param {
    lr_mult: 2
    decay_mult: 0
  }
  convolution_param {
    num_output: 144
    kernel_size: 1
    weight_filler {
      type: "xavier"
      std: 0.09
    }
    bias_filler {
      type: "constant"
      value: 0.2
    }
  }
}
layer {
  name: "inception_4d/relu_3x3_reduce"
  type: "ReLU"
  bottom: "inception_4d/3x3_reduce"
  top: "inception_4d/3x3_reduce"
}
layer {
  name: "inception_4d/3x3"
  type: "Convolution"
  bottom: "inception_4d/3x3_reduce"
  top: "inception_4d/3x3"
  param {
    lr_mult: 1
    decay_mult: 1
  }
  param {
    lr_mult: 2
    decay_mult: 0
  }
  convolution_param {
    num_output: 288
    pad: 1
    kernel_size: 3
    weight_filler {
      type: "xavier"
      std: 0.03
    }
    bias_filler {
      type: "constant"
      value: 0.2
    }
  }
}
layer {
  name: "inception_4d/relu_3x3"
  type: "ReLU"
  bottom: "inception_4d/3x3"
  top: "inception_4d/3x3"
}
layer {
  name: "inception_4d/5x5_reduce"
  type: "Convolution"
  bottom: "inception_4c/output"
  top: "inception_4d/5x5_reduce"
  param {
    lr_mult: 1
    decay_mult: 1
  }
  param {
    lr_mult: 2
    decay_mult: 0
  }
  convolution_param {
    num_output: 32
    kernel_size: 1
    weight_filler {
      type: "xavier"
      std: 0.2
    }
    bias_filler {
      type: "constant"
      value: 0.2
    }
  }
}
layer {
  name: "inception_4d/relu_5x5_reduce"
  type: "ReLU"
  bottom: "inception_4d/5x5_reduce"
  top: "inception_4d/5x5_reduce"
}
layer {
  name: "inception_4d/5x5"
  type: "Convolution"
  bottom: "inception_4d/5x5_reduce"
  top: "inception_4d/5x5"
  param {
    lr_mult: 1
    decay_mult: 1
  }
  param {
    lr_mult: 2
    decay_mult: 0
  }
  convolution_param {
    num_output: 64
    pad: 2
    kernel_size: 5
    weight_filler {
      type: "xavier"
      std: 0.03
    }
    bias_filler {
      type: "constant"
      value: 0.2
    }
  }
}
layer {
  name: "inception_4d/relu_5x5"
  type: "ReLU"
  bottom: "inception_4d/5x5"
  top: "inception_4d/5x5"
}
layer {
  name: "inception_4d/pool"
  type: "Pooling"
  bottom: "inception_4c/output"
  top: "inception_4d/pool"
  pooling_param {
    pool: MAX
    kernel_size: 3
    stride: 1
    pad: 1
  }
}
layer {
  name: "inception_4d/pool_proj"
  type: "Convolution"
  bottom: "inception_4d/pool"
  top: "inception_4d/pool_proj"
  param {
    lr_mult: 1
    decay_mult: 1
  }
  param {
    lr_mult: 2
    decay_mult: 0
  }
  convolution_param {
    num_output: 64
    kernel_size: 1
    weight_filler {
      type: "xavier"
      std: 0.1
    }
    bias_filler {
      type: "constant"
      value: 0.2
    }
  }
}
layer {
  name: "inception_4d/relu_pool_proj"
  type: "ReLU"
  bottom: "inception_4d/pool_proj"
  top: "inception_4d/pool_proj"
}
layer {
  name: "inception_4d/output"
  type: "Concat"
  bottom: "inception_4d/1x1"
  bottom: "inception_4d/3x3"
  bottom: "inception_4d/5x5"
  bottom: "inception_4d/pool_proj"
  top: "inception_4d/output"
}
layer {
  name: "loss2/ave_pool"
  type: "Pooling"
  bottom: "inception_4d/output"
  top: "loss2/ave_pool"
  pooling_param {
    pool: AVE
    kernel_size: 5
    stride: 3
  }
}
layer {
  name: "loss2/conv"
  type: "Convolution"
  bottom: "loss2/ave_pool"
  top: "loss2/conv"
  param {
    lr_mult: 1
    decay_mult: 1
  }
  param {
    lr_mult: 2
    decay_mult: 0
  }
  convolution_param {
    num_output: 128
    kernel_size: 1
    weight_filler {
      type: "xavier"
      std: 0.08
    }
    bias_filler {
      type: "constant"
      value: 0.2
    }
  }
}
layer {
  name: "loss2/relu_conv"
  type: "ReLU"
  bottom: "loss2/conv"
  top: "loss2/conv"
}
layer {
  name: "loss2/fc"
  type: "InnerProduct"
  bottom: "loss2/conv"
  top: "loss2/fc"
  param {
    lr_mult: 1
    decay_mult: 1
  }
  param {
    lr_mult: 2
    decay_mult: 0
  }
  inner_product_param {
    num_output: 1024
    weight_filler {
      type: "xavier"
      std: 0.02
    }
    bias_filler {
      type: "constant"
      value: 0.2
    }
  }
}
layer {
  name: "loss2/relu_fc"
  type: "ReLU"
  bottom: "loss2/fc"
  top: "loss2/fc"
}
layer {
  name: "loss2/drop_fc"
  type: "Dropout"
  bottom: "loss2/fc"
  top: "loss2/fc"
  dropout_param {
    dropout_ratio: 0.7
  }
}
layer {
  name: "loss2/classifier_plantvillage"
  type: "InnerProduct"
  bottom: "loss2/fc"
  top: "loss2/classifier_plantvillage"
  param {
    lr_mult: 1
    decay_mult: 1
  }
  param {
    lr_mult: 2
    decay_mult: 0
  }
  inner_product_param {
    num_output: 38
    weight_filler {
      type: "xavier"
      std: 0.0009765625
    }
    bias_filler {
      type: "constant"
      value: 0
    }
  }
}
layer {
  name: "inception_4e/1x1"
  type: "Convolution"
  bottom: "inception_4d/output"
  top: "inception_4e/1x1"
  param {
    lr_mult: 1
    decay_mult: 1
  }
  param {
    lr_mult: 2
    decay_mult: 0
  }
  convolution_param {
    num_output: 256
    kernel_size: 1
    weight_filler {
      type: "xavier"
      std: 0.03
    }
    bias_filler {
      type: "constant"
      value: 0.2
    }
  }
}
layer {
  name: "inception_4e/relu_1x1"
  type: "ReLU"
  bottom: "inception_4e/1x1"
  top: "inception_4e/1x1"
}
layer {
  name: "inception_4e/3x3_reduce"
  type: "Convolution"
  bottom: "inception_4d/output"
  top: "inception_4e/3x3_reduce"
  param {
    lr_mult: 1
    decay_mult: 1
  }
  param {
    lr_mult: 2
    decay_mult: 0
  }
  convolution_param {
    num_output: 160
    kernel_size: 1
    weight_filler {
      type: "xavier"
      std: 0.09
    }
    bias_filler {
      type: "constant"
      value: 0.2
    }
  }
}
layer {
  name: "inception_4e/relu_3x3_reduce"
  type: "ReLU"
  bottom: "inception_4e/3x3_reduce"
  top: "inception_4e/3x3_reduce"
}
layer {
  name: "inception_4e/3x3"
  type: "Convolution"
  bottom: "inception_4e/3x3_reduce"
  top: "inception_4e/3x3"
  param {
    lr_mult: 1
    decay_mult: 1
  }
  param {
    lr_mult: 2
    decay_mult: 0
  }
  convolution_param {
    num_output: 320
    pad: 1
    kernel_size: 3
    weight_filler {
      type: "xavier"
      std: 0.03
    }
    bias_filler {
      type: "constant"
      value: 0.2
    }
  }
}
layer {
  name: "inception_4e/relu_3x3"
  type: "ReLU"
  bottom: "inception_4e/3x3"
  top: "inception_4e/3x3"
}
layer {
  name: "inception_4e/5x5_reduce"
  type: "Convolution"
  bottom: "inception_4d/output"
  top: "inception_4e/5x5_reduce"
  param {
    lr_mult: 1
    decay_mult: 1
  }
  param {
    lr_mult: 2
    decay_mult: 0
  }
  convolution_param {
    num_output: 32
    kernel_size: 1
    weight_filler {
      type: "xavier"
      std: 0.2
    }
    bias_filler {
      type: "constant"
      value: 0.2
    }
  }
}
layer {
  name: "inception_4e/relu_5x5_reduce"
  type: "ReLU"
  bottom: "inception_4e/5x5_reduce"
  top: "inception_4e/5x5_reduce"
}
layer {
  name: "inception_4e/5x5"
  type: "Convolution"
  bottom: "inception_4e/5x5_reduce"
  top: "inception_4e/5x5"
  p
I0403 19:48:18.464874  9688 layer_factory.hpp:77] Creating layer data
I0403 19:48:18.465483  9688 net.cpp:91] Creating Layer data
I0403 19:48:18.465515  9688 net.cpp:399] data -> data
I0403 19:48:18.465567  9688 net.cpp:399] data -> label
I0403 19:48:18.465605  9688 data_transformer.cpp:25] Loading mean file from: /home/mohanty/data/final_dataset/lmdb/color-50-50/mean.binaryproto
I0403 19:48:18.466701  9692 db_lmdb.cpp:38] Opened lmdb /home/mohanty/data/final_dataset/lmdb/color-50-50/test_db
I0403 19:48:18.479274  9688 data_layer.cpp:41] output data size: 24,3,224,224
I0403 19:48:18.507441  9688 net.cpp:141] Setting up data
I0403 19:48:18.507539  9688 net.cpp:148] Top shape: 24 3 224 224 (3612672)
I0403 19:48:18.507563  9688 net.cpp:148] Top shape: 24 (24)
I0403 19:48:18.507581  9688 net.cpp:156] Memory required for data: 14450784
I0403 19:48:18.507611  9688 layer_factory.hpp:77] Creating layer label_data_1_split
I0403 19:48:18.507639  9688 net.cpp:91] Creating Layer label_data_1_split
I0403 19:48:18.507658  9688 net.cpp:425] label_data_1_split <- label
I0403 19:48:18.507691  9688 net.cpp:399] label_data_1_split -> label_data_1_split_0
I0403 19:48:18.507721  9688 net.cpp:399] label_data_1_split -> label_data_1_split_1
I0403 19:48:18.507745  9688 net.cpp:399] label_data_1_split -> label_data_1_split_2
I0403 19:48:18.507768  9688 net.cpp:399] label_data_1_split -> label_data_1_split_3
I0403 19:48:18.507788  9688 net.cpp:399] label_data_1_split -> label_data_1_split_4
I0403 19:48:18.507808  9688 net.cpp:399] label_data_1_split -> label_data_1_split_5
I0403 19:48:18.507829  9688 net.cpp:399] label_data_1_split -> label_data_1_split_6
I0403 19:48:18.507850  9688 net.cpp:399] label_data_1_split -> label_data_1_split_7
I0403 19:48:18.507871  9688 net.cpp:399] label_data_1_split -> label_data_1_split_8
I0403 19:48:18.507894  9688 net.cpp:399] label_data_1_split -> label_data_1_split_9
I0403 19:48:18.508015  9688 net.cpp:141] Setting up label_data_1_split
I0403 19:48:18.508040  9688 net.cpp:148] Top shape: 24 (24)
I0403 19:48:18.508059  9688 net.cpp:148] Top shape: 24 (24)
I0403 19:48:18.508076  9688 net.cpp:148] Top shape: 24 (24)
I0403 19:48:18.508095  9688 net.cpp:148] Top shape: 24 (24)
I0403 19:48:18.508111  9688 net.cpp:148] Top shape: 24 (24)
I0403 19:48:18.508129  9688 net.cpp:148] Top shape: 24 (24)
I0403 19:48:18.508147  9688 net.cpp:148] Top shape: 24 (24)
I0403 19:48:18.508164  9688 net.cpp:148] Top shape: 24 (24)
I0403 19:48:18.508180  9688 net.cpp:148] Top shape: 24 (24)
I0403 19:48:18.508198  9688 net.cpp:148] Top shape: 24 (24)
I0403 19:48:18.508244  9688 net.cpp:156] Memory required for data: 14451744
I0403 19:48:18.508261  9688 layer_factory.hpp:77] Creating layer conv1/7x7_s2
I0403 19:48:18.508299  9688 net.cpp:91] Creating Layer conv1/7x7_s2
I0403 19:48:18.508319  9688 net.cpp:425] conv1/7x7_s2 <- data
I0403 19:48:18.508339  9688 net.cpp:399] conv1/7x7_s2 -> conv1/7x7_s2
I0403 19:48:18.653465  9688 net.cpp:141] Setting up conv1/7x7_s2
I0403 19:48:18.653511  9688 net.cpp:148] Top shape: 24 64 112 112 (19267584)
I0403 19:48:18.653529  9688 net.cpp:156] Memory required for data: 91522080
I0403 19:48:18.653561  9688 layer_factory.hpp:77] Creating layer conv1/relu_7x7
I0403 19:48:18.653589  9688 net.cpp:91] Creating Layer conv1/relu_7x7
I0403 19:48:18.653607  9688 net.cpp:425] conv1/relu_7x7 <- conv1/7x7_s2
I0403 19:48:18.653627  9688 net.cpp:386] conv1/relu_7x7 -> conv1/7x7_s2 (in-place)
I0403 19:48:18.653900  9688 net.cpp:141] Setting up conv1/relu_7x7
I0403 19:48:18.653928  9688 net.cpp:148] Top shape: 24 64 112 112 (19267584)
I0403 19:48:18.653945  9688 net.cpp:156] Memory required for data: 168592416
I0403 19:48:18.653961  9688 layer_factory.hpp:77] Creating layer pool1/3x3_s2
I0403 19:48:18.653988  9688 net.cpp:91] Creating Layer pool1/3x3_s2
I0403 19:48:18.654006  9688 net.cpp:425] pool1/3x3_s2 <- conv1/7x7_s2
I0403 19:48:18.654026  9688 net.cpp:399] pool1/3x3_s2 -> pool1/3x3_s2
I0403 19:48:18.654103  9688 net.cpp:141] Setting up pool1/3x3_s2
I0403 19:48:18.654129  9688 net.cpp:148] Top shape: 24 64 56 56 (4816896)
I0403 19:48:18.654145  9688 net.cpp:156] Memory required for data: 187860000
I0403 19:48:18.654160  9688 layer_factory.hpp:77] Creating layer pool1/norm1
I0403 19:48:18.654186  9688 net.cpp:91] Creating Layer pool1/norm1
I0403 19:48:18.654203  9688 net.cpp:425] pool1/norm1 <- pool1/3x3_s2
I0403 19:48:18.654224  9688 net.cpp:399] pool1/norm1 -> pool1/norm1
I0403 19:48:18.654530  9688 net.cpp:141] Setting up pool1/norm1
I0403 19:48:18.654558  9688 net.cpp:148] Top shape: 24 64 56 56 (4816896)
I0403 19:48:18.654574  9688 net.cpp:156] Memory required for data: 207127584
I0403 19:48:18.654597  9688 layer_factory.hpp:77] Creating layer conv2/3x3_reduce
I0403 19:48:18.654623  9688 net.cpp:91] Creating Layer conv2/3x3_reduce
I0403 19:48:18.654639  9688 net.cpp:425] conv2/3x3_reduce <- pool1/norm1
I0403 19:48:18.654659  9688 net.cpp:399] conv2/3x3_reduce -> conv2/3x3_reduce
I0403 19:48:18.656102  9688 net.cpp:141] Setting up conv2/3x3_reduce
I0403 19:48:18.656136  9688 net.cpp:148] Top shape: 24 64 56 56 (4816896)
I0403 19:48:18.656152  9688 net.cpp:156] Memory required for data: 226395168
I0403 19:48:18.656174  9688 layer_factory.hpp:77] Creating layer conv2/relu_3x3_reduce
I0403 19:48:18.656194  9688 net.cpp:91] Creating Layer conv2/relu_3x3_reduce
I0403 19:48:18.656211  9688 net.cpp:425] conv2/relu_3x3_reduce <- conv2/3x3_reduce
I0403 19:48:18.656229  9688 net.cpp:386] conv2/relu_3x3_reduce -> conv2/3x3_reduce (in-place)
I0403 19:48:18.656504  9688 net.cpp:141] Setting up conv2/relu_3x3_reduce
I0403 19:48:18.656533  9688 net.cpp:148] Top shape: 24 64 56 56 (4816896)
I0403 19:48:18.656549  9688 net.cpp:156] Memory required for data: 245662752
I0403 19:48:18.656565  9688 layer_factory.hpp:77] Creating layer conv2/3x3
I0403 19:48:18.656589  9688 net.cpp:91] Creating Layer conv2/3x3
I0403 19:48:18.656605  9688 net.cpp:425] conv2/3x3 <- conv2/3x3_reduce
I0403 19:48:18.656625  9688 net.cpp:399] conv2/3x3 -> conv2/3x3
I0403 19:48:18.659040  9688 net.cpp:141] Setting up conv2/3x3
I0403 19:48:18.659075  9688 net.cpp:148] Top shape: 24 192 56 56 (14450688)
I0403 19:48:18.659092  9688 net.cpp:156] Memory required for data: 303465504
I0403 19:48:18.659116  9688 layer_factory.hpp:77] Creating layer conv2/relu_3x3
I0403 19:48:18.659137  9688 net.cpp:91] Creating Layer conv2/relu_3x3
I0403 19:48:18.659154  9688 net.cpp:425] conv2/relu_3x3 <- conv2/3x3
I0403 19:48:18.659173  9688 net.cpp:386] conv2/relu_3x3 -> conv2/3x3 (in-place)
I0403 19:48:18.659353  9688 net.cpp:141] Setting up conv2/relu_3x3
I0403 19:48:18.659380  9688 net.cpp:148] Top shape: 24 192 56 56 (14450688)
I0403 19:48:18.659430  9688 net.cpp:156] Memory required for data: 361268256
I0403 19:48:18.659447  9688 layer_factory.hpp:77] Creating layer conv2/norm2
I0403 19:48:18.659468  9688 net.cpp:91] Creating Layer conv2/norm2
I0403 19:48:18.659487  9688 net.cpp:425] conv2/norm2 <- conv2/3x3
I0403 19:48:18.659507  9688 net.cpp:399] conv2/norm2 -> conv2/norm2
I0403 19:48:18.659808  9688 net.cpp:141] Setting up conv2/norm2
I0403 19:48:18.659839  9688 net.cpp:148] Top shape: 24 192 56 56 (14450688)
I0403 19:48:18.659858  9688 net.cpp:156] Memory required for data: 419071008
I0403 19:48:18.659876  9688 layer_factory.hpp:77] Creating layer pool2/3x3_s2
I0403 19:48:18.659896  9688 net.cpp:91] Creating Layer pool2/3x3_s2
I0403 19:48:18.659914  9688 net.cpp:425] pool2/3x3_s2 <- conv2/norm2
I0403 19:48:18.659934  9688 net.cpp:399] pool2/3x3_s2 -> pool2/3x3_s2
I0403 19:48:18.659986  9688 net.cpp:141] Setting up pool2/3x3_s2
I0403 19:48:18.660011  9688 net.cpp:148] Top shape: 24 192 28 28 (3612672)
I0403 19:48:18.660027  9688 net.cpp:156] Memory required for data: 433521696
I0403 19:48:18.660044  9688 layer_factory.hpp:77] Creating layer pool2/3x3_s2_pool2/3x3_s2_0_split
I0403 19:48:18.660063  9688 net.cpp:91] Creating Layer pool2/3x3_s2_pool2/3x3_s2_0_split
I0403 19:48:18.660080  9688 net.cpp:425] pool2/3x3_s2_pool2/3x3_s2_0_split <- pool2/3x3_s2
I0403 19:48:18.660099  9688 net.cpp:399] pool2/3x3_s2_pool2/3x3_s2_0_split -> pool2/3x3_s2_pool2/3x3_s2_0_split_0
I0403 19:48:18.660118  9688 net.cpp:399] pool2/3x3_s2_pool2/3x3_s2_0_split -> pool2/3x3_s2_pool2/3x3_s2_0_split_1
I0403 19:48:18.660138  9688 net.cpp:399] pool2/3x3_s2_pool2/3x3_s2_0_split -> pool2/3x3_s2_pool2/3x3_s2_0_split_2
I0403 19:48:18.660159  9688 net.cpp:399] pool2/3x3_s2_pool2/3x3_s2_0_split -> pool2/3x3_s2_pool2/3x3_s2_0_split_3
I0403 19:48:18.660226  9688 net.cpp:141] Setting up pool2/3x3_s2_pool2/3x3_s2_0_split
I0403 19:48:18.660250  9688 net.cpp:148] Top shape: 24 192 28 28 (3612672)
I0403 19:48:18.660269  9688 net.cpp:148] Top shape: 24 192 28 28 (3612672)
I0403 19:48:18.660290  9688 net.cpp:148] Top shape: 24 192 28 28 (3612672)
I0403 19:48:18.660308  9688 net.cpp:148] Top shape: 24 192 28 28 (3612672)
I0403 19:48:18.660323  9688 net.cpp:156] Memory required for data: 491324448
I0403 19:48:18.660341  9688 layer_factory.hpp:77] Creating layer inception_3a/1x1
I0403 19:48:18.660362  9688 net.cpp:91] Creating Layer inception_3a/1x1
I0403 19:48:18.660379  9688 net.cpp:425] inception_3a/1x1 <- pool2/3x3_s2_pool2/3x3_s2_0_split_0
I0403 19:48:18.660399  9688 net.cpp:399] inception_3a/1x1 -> inception_3a/1x1
I0403 19:48:18.661993  9688 net.cpp:141] Setting up inception_3a/1x1
I0403 19:48:18.662024  9688 net.cpp:148] Top shape: 24 64 28 28 (1204224)
I0403 19:48:18.662041  9688 net.cpp:156] Memory required for data: 496141344
I0403 19:48:18.662060  9688 layer_factory.hpp:77] Creating layer inception_3a/relu_1x1
I0403 19:48:18.662082  9688 net.cpp:91] Creating Layer inception_3a/relu_1x1
I0403 19:48:18.662101  9688 net.cpp:425] inception_3a/relu_1x1 <- inception_3a/1x1
I0403 19:48:18.662119  9688 net.cpp:386] inception_3a/relu_1x1 -> inception_3a/1x1 (in-place)
I0403 19:48:18.662317  9688 net.cpp:141] Setting up inception_3a/relu_1x1
I0403 19:48:18.662343  9688 net.cpp:148] Top shape: 24 64 28 28 (1204224)
I0403 19:48:18.662359  9688 net.cpp:156] Memory required for data: 500958240
I0403 19:48:18.662375  9688 layer_factory.hpp:77] Creating layer inception_3a/3x3_reduce
I0403 19:48:18.662401  9688 net.cpp:91] Creating Layer inception_3a/3x3_reduce
I0403 19:48:18.662420  9688 net.cpp:425] inception_3a/3x3_reduce <- pool2/3x3_s2_pool2/3x3_s2_0_split_1
I0403 19:48:18.662439  9688 net.cpp:399] inception_3a/3x3_reduce -> inception_3a/3x3_reduce
I0403 19:48:18.664221  9688 net.cpp:141] Setting up inception_3a/3x3_reduce
I0403 19:48:18.664253  9688 net.cpp:148] Top shape: 24 96 28 28 (1806336)
I0403 19:48:18.664275  9688 net.cpp:156] Memory required for data: 508183584
I0403 19:48:18.664300  9688 layer_factory.hpp:77] Creating layer inception_3a/relu_3x3_reduce
I0403 19:48:18.664341  9688 net.cpp:91] Creating Layer inception_3a/relu_3x3_reduce
I0403 19:48:18.664361  9688 net.cpp:425] inception_3a/relu_3x3_reduce <- inception_3a/3x3_reduce
I0403 19:48:18.664382  9688 net.cpp:386] inception_3a/relu_3x3_reduce -> inception_3a/3x3_reduce (in-place)
I0403 19:48:18.664573  9688 net.cpp:141] Setting up inception_3a/relu_3x3_reduce
I0403 19:48:18.664600  9688 net.cpp:148] Top shape: 24 96 28 28 (1806336)
I0403 19:48:18.664616  9688 net.cpp:156] Memory required for data: 515408928
I0403 19:48:18.664633  9688 layer_factory.hpp:77] Creating layer inception_3a/3x3
I0403 19:48:18.664655  9688 net.cpp:91] Creating Layer inception_3a/3x3
I0403 19:48:18.664674  9688 net.cpp:425] inception_3a/3x3 <- inception_3a/3x3_reduce
I0403 19:48:18.664697  9688 net.cpp:399] inception_3a/3x3 -> inception_3a/3x3
I0403 19:48:18.666445  9688 net.cpp:141] Setting up inception_3a/3x3
I0403 19:48:18.666477  9688 net.cpp:148] Top shape: 24 128 28 28 (2408448)
I0403 19:48:18.666496  9688 net.cpp:156] Memory required for data: 525042720
I0403 19:48:18.666514  9688 layer_factory.hpp:77] Creating layer inception_3a/relu_3x3
I0403 19:48:18.666538  9688 net.cpp:91] Creating Layer inception_3a/relu_3x3
I0403 19:48:18.666554  9688 net.cpp:425] inception_3a/relu_3x3 <- inception_3a/3x3
I0403 19:48:18.666574  9688 net.cpp:386] inception_3a/relu_3x3 -> inception_3a/3x3 (in-place)
I0403 19:48:18.666865  9688 net.cpp:141] Setting up inception_3a/relu_3x3
I0403 19:48:18.666895  9688 net.cpp:148] Top shape: 24 128 28 28 (2408448)
I0403 19:48:18.666913  9688 net.cpp:156] Memory required for data: 534676512
I0403 19:48:18.666931  9688 layer_factory.hpp:77] Creating layer inception_3a/5x5_reduce
I0403 19:48:18.666956  9688 net.cpp:91] Creating Layer inception_3a/5x5_reduce
I0403 19:48:18.666976  9688 net.cpp:425] inception_3a/5x5_reduce <- pool2/3x3_s2_pool2/3x3_s2_0_split_2
I0403 19:48:18.666999  9688 net.cpp:399] inception_3a/5x5_reduce -> inception_3a/5x5_reduce
I0403 19:48:18.668025  9688 net.cpp:141] Setting up inception_3a/5x5_reduce
I0403 19:48:18.668058  9688 net.cpp:148] Top shape: 24 16 28 28 (301056)
I0403 19:48:18.668076  9688 net.cpp:156] Memory required for data: 535880736
I0403 19:48:18.668095  9688 layer_factory.hpp:77] Creating layer inception_3a/relu_5x5_reduce
I0403 19:48:18.668114  9688 net.cpp:91] Creating Layer inception_3a/relu_5x5_reduce
I0403 19:48:18.668131  9688 net.cpp:425] inception_3a/relu_5x5_reduce <- inception_3a/5x5_reduce
I0403 19:48:18.668150  9688 net.cpp:386] inception_3a/relu_5x5_reduce -> inception_3a/5x5_reduce (in-place)
I0403 19:48:18.668465  9688 net.cpp:141] Setting up inception_3a/relu_5x5_reduce
I0403 19:48:18.668495  9688 net.cpp:148] Top shape: 24 16 28 28 (301056)
I0403 19:48:18.668512  9688 net.cpp:156] Memory required for data: 537084960
I0403 19:48:18.668529  9688 layer_factory.hpp:77] Creating layer inception_3a/5x5
I0403 19:48:18.668553  9688 net.cpp:91] Creating Layer inception_3a/5x5
I0403 19:48:18.668572  9688 net.cpp:425] inception_3a/5x5 <- inception_3a/5x5_reduce
I0403 19:48:18.668596  9688 net.cpp:399] inception_3a/5x5 -> inception_3a/5x5
I0403 19:48:18.669682  9688 net.cpp:141] Setting up inception_3a/5x5
I0403 19:48:18.669713  9688 net.cpp:148] Top shape: 24 32 28 28 (602112)
I0403 19:48:18.669730  9688 net.cpp:156] Memory required for data: 539493408
I0403 19:48:18.669751  9688 layer_factory.hpp:77] Creating layer inception_3a/relu_5x5
I0403 19:48:18.669773  9688 net.cpp:91] Creating Layer inception_3a/relu_5x5
I0403 19:48:18.669791  9688 net.cpp:425] inception_3a/relu_5x5 <- inception_3a/5x5
I0403 19:48:18.669809  9688 net.cpp:386] inception_3a/relu_5x5 -> inception_3a/5x5 (in-place)
I0403 19:48:18.669997  9688 net.cpp:141] Setting up inception_3a/relu_5x5
I0403 19:48:18.670027  9688 net.cpp:148] Top shape: 24 32 28 28 (602112)
I0403 19:48:18.670047  9688 net.cpp:156] Memory required for data: 541901856
I0403 19:48:18.670063  9688 layer_factory.hpp:77] Creating layer inception_3a/pool
I0403 19:48:18.670083  9688 net.cpp:91] Creating Layer inception_3a/pool
I0403 19:48:18.670101  9688 net.cpp:425] inception_3a/pool <- pool2/3x3_s2_pool2/3x3_s2_0_split_3
I0403 19:48:18.670137  9688 net.cpp:399] inception_3a/pool -> inception_3a/pool
I0403 19:48:18.670202  9688 net.cpp:141] Setting up inception_3a/pool
I0403 19:48:18.670230  9688 net.cpp:148] Top shape: 24 192 28 28 (3612672)
I0403 19:48:18.670246  9688 net.cpp:156] Memory required for data: 556352544
I0403 19:48:18.670263  9688 layer_factory.hpp:77] Creating layer inception_3a/pool_proj
I0403 19:48:18.670292  9688 net.cpp:91] Creating Layer inception_3a/pool_proj
I0403 19:48:18.670312  9688 net.cpp:425] inception_3a/pool_proj <- inception_3a/pool
I0403 19:48:18.670337  9688 net.cpp:399] inception_3a/pool_proj -> inception_3a/pool_proj
I0403 19:48:18.671381  9688 net.cpp:141] Setting up inception_3a/pool_proj
I0403 19:48:18.671412  9688 net.cpp:148] Top shape: 24 32 28 28 (602112)
I0403 19:48:18.671430  9688 net.cpp:156] Memory required for data: 558760992
I0403 19:48:18.671458  9688 layer_factory.hpp:77] Creating layer inception_3a/relu_pool_proj
I0403 19:48:18.671478  9688 net.cpp:91] Creating Layer inception_3a/relu_pool_proj
I0403 19:48:18.671497  9688 net.cpp:425] inception_3a/relu_pool_proj <- inception_3a/pool_proj
I0403 19:48:18.671515  9688 net.cpp:386] inception_3a/relu_pool_proj -> inception_3a/pool_proj (in-place)
I0403 19:48:18.671810  9688 net.cpp:141] Setting up inception_3a/relu_pool_proj
I0403 19:48:18.671840  9688 net.cpp:148] Top shape: 24 32 28 28 (602112)
I0403 19:48:18.671857  9688 net.cpp:156] Memory required for data: 561169440
I0403 19:48:18.671874  9688 layer_factory.hpp:77] Creating layer inception_3a/output
I0403 19:48:18.671895  9688 net.cpp:91] Creating Layer inception_3a/output
I0403 19:48:18.671912  9688 net.cpp:425] inception_3a/output <- inception_3a/1x1
I0403 19:48:18.671931  9688 net.cpp:425] inception_3a/output <- inception_3a/3x3
I0403 19:48:18.671947  9688 net.cpp:425] inception_3a/output <- inception_3a/5x5
I0403 19:48:18.671964  9688 net.cpp:425] inception_3a/output <- inception_3a/pool_proj
I0403 19:48:18.671983  9688 net.cpp:399] inception_3a/output -> inception_3a/output
I0403 19:48:18.672034  9688 net.cpp:141] Setting up inception_3a/output
I0403 19:48:18.672058  9688 net.cpp:148] Top shape: 24 256 28 28 (4816896)
I0403 19:48:18.672073  9688 net.cpp:156] Memory required for data: 580437024
I0403 19:48:18.672088  9688 layer_factory.hpp:77] Creating layer inception_3a/output_inception_3a/output_0_split
I0403 19:48:18.672107  9688 net.cpp:91] Creating Layer inception_3a/output_inception_3a/output_0_split
I0403 19:48:18.672123  9688 net.cpp:425] inception_3a/output_inception_3a/output_0_split <- inception_3a/output
I0403 19:48:18.672144  9688 net.cpp:399] inception_3a/output_inception_3a/output_0_split -> inception_3a/output_inception_3a/output_0_split_0
I0403 19:48:18.672168  9688 net.cpp:399] inception_3a/output_inception_3a/output_0_split -> inception_3a/output_inception_3a/output_0_split_1
I0403 19:48:18.672194  9688 net.cpp:399] inception_3a/output_inception_3a/output_0_split -> inception_3a/output_inception_3a/output_0_split_2
I0403 19:48:18.672219  9688 net.cpp:399] inception_3a/output_inception_3a/output_0_split -> inception_3a/output_inception_3a/output_0_split_3
I0403 19:48:18.672313  9688 net.cpp:141] Setting up inception_3a/output_inception_3a/output_0_split
I0403 19:48:18.672339  9688 net.cpp:148] Top shape: 24 256 28 28 (4816896)
I0403 19:48:18.672358  9688 net.cpp:148] Top shape: 24 256 28 28 (4816896)
I0403 19:48:18.672375  9688 net.cpp:148] Top shape: 24 256 28 28 (4816896)
I0403 19:48:18.672391  9688 net.cpp:148] Top shape: 24 256 28 28 (4816896)
I0403 19:48:18.672406  9688 net.cpp:156] Memory required for data: 657507360
I0403 19:48:18.672421  9688 layer_factory.hpp:77] Creating layer inception_3b/1x1
I0403 19:48:18.672446  9688 net.cpp:91] Creating Layer inception_3b/1x1
I0403 19:48:18.672464  9688 net.cpp:425] inception_3b/1x1 <- inception_3a/output_inception_3a/output_0_split_0
I0403 19:48:18.672487  9688 net.cpp:399] inception_3b/1x1 -> inception_3b/1x1
I0403 19:48:18.673692  9688 net.cpp:141] Setting up inception_3b/1x1
I0403 19:48:18.673737  9688 net.cpp:148] Top shape: 24 128 28 28 (2408448)
I0403 19:48:18.673753  9688 net.cpp:156] Memory required for data: 667141152
I0403 19:48:18.673774  9688 layer_factory.hpp:77] Creating layer inception_3b/relu_1x1
I0403 19:48:18.673799  9688 net.cpp:91] Creating Layer inception_3b/relu_1x1
I0403 19:48:18.673817  9688 net.cpp:425] inception_3b/relu_1x1 <- inception_3b/1x1
I0403 19:48:18.673835  9688 net.cpp:386] inception_3b/relu_1x1 -> inception_3b/1x1 (in-place)
I0403 19:48:18.674026  9688 net.cpp:141] Setting up inception_3b/relu_1x1
I0403 19:48:18.674054  9688 net.cpp:148] Top shape: 24 128 28 28 (2408448)
I0403 19:48:18.674074  9688 net.cpp:156] Memory required for data: 676774944
I0403 19:48:18.674090  9688 layer_factory.hpp:77] Creating layer inception_3b/3x3_reduce
I0403 19:48:18.674113  9688 net.cpp:91] Creating Layer inception_3b/3x3_reduce
I0403 19:48:18.674131  9688 net.cpp:425] inception_3b/3x3_reduce <- inception_3a/output_inception_3a/output_0_split_1
I0403 19:48:18.674155  9688 net.cpp:399] inception_3b/3x3_reduce -> inception_3b/3x3_reduce
I0403 19:48:18.675364  9688 net.cpp:141] Setting up inception_3b/3x3_reduce
I0403 19:48:18.675395  9688 net.cpp:148] Top shape: 24 128 28 28 (2408448)
I0403 19:48:18.675413  9688 net.cpp:156] Memory required for data: 686408736
I0403 19:48:18.675433  9688 layer_factory.hpp:77] Creating layer inception_3b/relu_3x3_reduce
I0403 19:48:18.675456  9688 net.cpp:91] Creating Layer inception_3b/relu_3x3_reduce
I0403 19:48:18.675473  9688 net.cpp:425] inception_3b/relu_3x3_reduce <- inception_3b/3x3_reduce
I0403 19:48:18.675495  9688 net.cpp:386] inception_3b/relu_3x3_reduce -> inception_3b/3x3_reduce (in-place)
I0403 19:48:18.675678  9688 net.cpp:141] Setting up inception_3b/relu_3x3_reduce
I0403 19:48:18.675704  9688 net.cpp:148] Top shape: 24 128 28 28 (2408448)
I0403 19:48:18.675720  9688 net.cpp:156] Memory required for data: 696042528
I0403 19:48:18.675736  9688 layer_factory.hpp:77] Creating layer inception_3b/3x3
I0403 19:48:18.675763  9688 net.cpp:91] Creating Layer inception_3b/3x3
I0403 19:48:18.675783  9688 net.cpp:425] inception_3b/3x3 <- inception_3b/3x3_reduce
I0403 19:48:18.675803  9688 net.cpp:399] inception_3b/3x3 -> inception_3b/3x3
I0403 19:48:18.678889  9688 net.cpp:141] Setting up inception_3b/3x3
I0403 19:48:18.678920  9688 net.cpp:148] Top shape: 24 192 28 28 (3612672)
I0403 19:48:18.678938  9688 net.cpp:156] Memory required for data: 710493216
I0403 19:48:18.678958  9688 layer_factory.hpp:77] Creating layer inception_3b/relu_3x3
I0403 19:48:18.678980  9688 net.cpp:91] Creating Layer inception_3b/relu_3x3
I0403 19:48:18.678999  9688 net.cpp:425] inception_3b/relu_3x3 <- inception_3b/3x3
I0403 19:48:18.679019  9688 net.cpp:386] inception_3b/relu_3x3 -> inception_3b/3x3 (in-place)
I0403 19:48:18.679319  9688 net.cpp:141] Setting up inception_3b/relu_3x3
I0403 19:48:18.679348  9688 net.cpp:148] Top shape: 24 192 28 28 (3612672)
I0403 19:48:18.679368  9688 net.cpp:156] Memory required for data: 724943904
I0403 19:48:18.679385  9688 layer_factory.hpp:77] Creating layer inception_3b/5x5_reduce
I0403 19:48:18.679410  9688 net.cpp:91] Creating Layer inception_3b/5x5_reduce
I0403 19:48:18.679430  9688 net.cpp:425] inception_3b/5x5_reduce <- inception_3a/output_inception_3a/output_0_split_2
I0403 19:48:18.679455  9688 net.cpp:399] inception_3b/5x5_reduce -> inception_3b/5x5_reduce
I0403 19:48:18.680521  9688 net.cpp:141] Setting up inception_3b/5x5_reduce
I0403 19:48:18.680552  9688 net.cpp:148] Top shape: 24 32 28 28 (602112)
I0403 19:48:18.680568  9688 net.cpp:156] Memory required for data: 727352352
I0403 19:48:18.680589  9688 layer_factory.hpp:77] Creating layer inception_3b/relu_5x5_reduce
I0403 19:48:18.680611  9688 net.cpp:91] Creating Layer inception_3b/relu_5x5_reduce
I0403 19:48:18.680639  9688 net.cpp:425] inception_3b/relu_5x5_reduce <- inception_3b/5x5_reduce
I0403 19:48:18.680658  9688 net.cpp:386] inception_3b/relu_5x5_reduce -> inception_3b/5x5_reduce (in-place)
I0403 19:48:18.680848  9688 net.cpp:141] Setting up inception_3b/relu_5x5_reduce
I0403 19:48:18.680892  9688 net.cpp:148] Top shape: 24 32 28 28 (602112)
I0403 19:48:18.680912  9688 net.cpp:156] Memory required for data: 729760800
I0403 19:48:18.680929  9688 layer_factory.hpp:77] Creating layer inception_3b/5x5
I0403 19:48:18.680953  9688 net.cpp:91] Creating Layer inception_3b/5x5
I0403 19:48:18.680973  9688 net.cpp:425] inception_3b/5x5 <- inception_3b/5x5_reduce
I0403 19:48:18.680992  9688 net.cpp:399] inception_3b/5x5 -> inception_3b/5x5
I0403 19:48:18.683094  9688 net.cpp:141] Setting up inception_3b/5x5
I0403 19:48:18.683125  9688 net.cpp:148] Top shape: 24 96 28 28 (1806336)
I0403 19:48:18.683143  9688 net.cpp:156] Memory required for data: 736986144
I0403 19:48:18.683166  9688 layer_factory.hpp:77] Creating layer inception_3b/relu_5x5
I0403 19:48:18.683187  9688 net.cpp:91] Creating Layer inception_3b/relu_5x5
I0403 19:48:18.683205  9688 net.cpp:425] inception_3b/relu_5x5 <- inception_3b/5x5
I0403 19:48:18.683225  9688 net.cpp:386] inception_3b/relu_5x5 -> inception_3b/5x5 (in-place)
I0403 19:48:18.683434  9688 net.cpp:141] Setting up inception_3b/relu_5x5
I0403 19:48:18.683461  9688 net.cpp:148] Top shape: 24 96 28 28 (1806336)
I0403 19:48:18.683478  9688 net.cpp:156] Memory required for data: 744211488
I0403 19:48:18.683495  9688 layer_factory.hpp:77] Creating layer inception_3b/pool
I0403 19:48:18.683514  9688 net.cpp:91] Creating Layer inception_3b/pool
I0403 19:48:18.683533  9688 net.cpp:425] inception_3b/pool <- inception_3a/output_inception_3a/output_0_split_3
I0403 19:48:18.683552  9688 net.cpp:399] inception_3b/pool -> inception_3b/pool
I0403 19:48:18.683611  9688 net.cpp:141] Setting up inception_3b/pool
I0403 19:48:18.683636  9688 net.cpp:148] Top shape: 24 256 28 28 (4816896)
I0403 19:48:18.683651  9688 net.cpp:156] Memory required for data: 763479072
I0403 19:48:18.683667  9688 layer_factory.hpp:77] Creating layer inception_3b/pool_proj
I0403 19:48:18.683691  9688 net.cpp:91] Creating Layer inception_3b/pool_proj
I0403 19:48:18.683708  9688 net.cpp:425] inception_3b/pool_proj <- inception_3b/pool
I0403 19:48:18.683730  9688 net.cpp:399] inception_3b/pool_proj -> inception_3b/pool_proj
I0403 19:48:18.684854  9688 net.cpp:141] Setting up inception_3b/pool_proj
I0403 19:48:18.684886  9688 net.cpp:148] Top shape: 24 64 28 28 (1204224)
I0403 19:48:18.684906  9688 net.cpp:156] Memory required for data: 768295968
I0403 19:48:18.684926  9688 layer_factory.hpp:77] Creating layer inception_3b/relu_pool_proj
I0403 19:48:18.684947  9688 net.cpp:91] Creating Layer inception_3b/relu_pool_proj
I0403 19:48:18.684964  9688 net.cpp:425] inception_3b/relu_pool_proj <- inception_3b/pool_proj
I0403 19:48:18.684986  9688 net.cpp:386] inception_3b/relu_pool_proj -> inception_3b/pool_proj (in-place)
I0403 19:48:18.685406  9688 net.cpp:141] Setting up inception_3b/relu_pool_proj
I0403 19:48:18.685439  9688 net.cpp:148] Top shape: 24 64 28 28 (1204224)
I0403 19:48:18.685456  9688 net.cpp:156] Memory required for data: 773112864
I0403 19:48:18.685474  9688 layer_factory.hpp:77] Creating layer inception_3b/output
I0403 19:48:18.685493  9688 net.cpp:91] Creating Layer inception_3b/output
I0403 19:48:18.685509  9688 net.cpp:425] inception_3b/output <- inception_3b/1x1
I0403 19:48:18.685528  9688 net.cpp:425] inception_3b/output <- inception_3b/3x3
I0403 19:48:18.685544  9688 net.cpp:425] inception_3b/output <- inception_3b/5x5
I0403 19:48:18.685562  9688 net.cpp:425] inception_3b/output <- inception_3b/pool_proj
I0403 19:48:18.685581  9688 net.cpp:399] inception_3b/output -> inception_3b/output
I0403 19:48:18.685629  9688 net.cpp:141] Setting up inception_3b/output
I0403 19:48:18.685655  9688 net.cpp:148] Top shape: 24 480 28 28 (9031680)
I0403 19:48:18.685672  9688 net.cpp:156] Memory required for data: 809239584
I0403 19:48:18.685688  9688 layer_factory.hpp:77] Creating layer pool3/3x3_s2
I0403 19:48:18.685710  9688 net.cpp:91] Creating Layer pool3/3x3_s2
I0403 19:48:18.685729  9688 net.cpp:425] pool3/3x3_s2 <- inception_3b/output
I0403 19:48:18.685748  9688 net.cpp:399] pool3/3x3_s2 -> pool3/3x3_s2
I0403 19:48:18.685827  9688 net.cpp:141] Setting up pool3/3x3_s2
I0403 19:48:18.685853  9688 net.cpp:148] Top shape: 24 480 14 14 (2257920)
I0403 19:48:18.685868  9688 net.cpp:156] Memory required for data: 818271264
I0403 19:48:18.685884  9688 layer_factory.hpp:77] Creating layer pool3/3x3_s2_pool3/3x3_s2_0_split
I0403 19:48:18.685902  9688 net.cpp:91] Creating Layer pool3/3x3_s2_pool3/3x3_s2_0_split
I0403 19:48:18.685920  9688 net.cpp:425] pool3/3x3_s2_pool3/3x3_s2_0_split <- pool3/3x3_s2
I0403 19:48:18.685940  9688 net.cpp:399] pool3/3x3_s2_pool3/3x3_s2_0_split -> pool3/3x3_s2_pool3/3x3_s2_0_split_0
I0403 19:48:18.685961  9688 net.cpp:399] pool3/3x3_s2_pool3/3x3_s2_0_split -> pool3/3x3_s2_pool3/3x3_s2_0_split_1
I0403 19:48:18.685981  9688 net.cpp:399] pool3/3x3_s2_pool3/3x3_s2_0_split -> pool3/3x3_s2_pool3/3x3_s2_0_split_2
I0403 19:48:18.686002  9688 net.cpp:399] pool3/3x3_s2_pool3/3x3_s2_0_split -> pool3/3x3_s2_pool3/3x3_s2_0_split_3
I0403 19:48:18.686082  9688 net.cpp:141] Setting up pool3/3x3_s2_pool3/3x3_s2_0_split
I0403 19:48:18.686108  9688 net.cpp:148] Top shape: 24 480 14 14 (2257920)
I0403 19:48:18.686126  9688 net.cpp:148] Top shape: 24 480 14 14 (2257920)
I0403 19:48:18.686144  9688 net.cpp:148] Top shape: 24 480 14 14 (2257920)
I0403 19:48:18.686161  9688 net.cpp:148] Top shape: 24 480 14 14 (2257920)
I0403 19:48:18.686177  9688 net.cpp:156] Memory required for data: 854397984
I0403 19:48:18.686192  9688 layer_factory.hpp:77] Creating layer inception_4a/1x1
I0403 19:48:18.686215  9688 net.cpp:91] Creating Layer inception_4a/1x1
I0403 19:48:18.686233  9688 net.cpp:425] inception_4a/1x1 <- pool3/3x3_s2_pool3/3x3_s2_0_split_0
I0403 19:48:18.686254  9688 net.cpp:399] inception_4a/1x1 -> inception_4a/1x1
I0403 19:48:18.687913  9688 net.cpp:141] Setting up inception_4a/1x1
I0403 19:48:18.687947  9688 net.cpp:148] Top shape: 24 192 14 14 (903168)
I0403 19:48:18.687965  9688 net.cpp:156] Memory required for data: 858010656
I0403 19:48:18.687986  9688 layer_factory.hpp:77] Creating layer inception_4a/relu_1x1
I0403 19:48:18.688006  9688 net.cpp:91] Creating Layer inception_4a/relu_1x1
I0403 19:48:18.688024  9688 net.cpp:425] inception_4a/relu_1x1 <- inception_4a/1x1
I0403 19:48:18.688045  9688 net.cpp:386] inception_4a/relu_1x1 -> inception_4a/1x1 (in-place)
I0403 19:48:18.688232  9688 net.cpp:141] Setting up inception_4a/relu_1x1
I0403 19:48:18.688261  9688 net.cpp:148] Top shape: 24 192 14 14 (903168)
I0403 19:48:18.688283  9688 net.cpp:156] Memory required for data: 861623328
I0403 19:48:18.688300  9688 layer_factory.hpp:77] Creating layer inception_4a/3x3_reduce
I0403 19:48:18.688325  9688 net.cpp:91] Creating Layer inception_4a/3x3_reduce
I0403 19:48:18.688344  9688 net.cpp:425] inception_4a/3x3_reduce <- pool3/3x3_s2_pool3/3x3_s2_0_split_1
I0403 19:48:18.688369  9688 net.cpp:399] inception_4a/3x3_reduce -> inception_4a/3x3_reduce
I0403 19:48:18.689728  9688 net.cpp:141] Setting up inception_4a/3x3_reduce
I0403 19:48:18.689759  9688 net.cpp:148] Top shape: 24 96 14 14 (451584)
I0403 19:48:18.689777  9688 net.cpp:156] Memory required for data: 863429664
I0403 19:48:18.689805  9688 layer_factory.hpp:77] Creating layer inception_4a/relu_3x3_reduce
I0403 19:48:18.689826  9688 net.cpp:91] Creating Layer inception_4a/relu_3x3_reduce
I0403 19:48:18.689844  9688 net.cpp:425] inception_4a/relu_3x3_reduce <- inception_4a/3x3_reduce
I0403 19:48:18.689865  9688 net.cpp:386] inception_4a/relu_3x3_reduce -> inception_4a/3x3_reduce (in-place)
I0403 19:48:18.690049  9688 net.cpp:141] Setting up inception_4a/relu_3x3_reduce
I0403 19:48:18.690076  9688 net.cpp:148] Top shape: 24 96 14 14 (451584)
I0403 19:48:18.690093  9688 net.cpp:156] Memory required for data: 865236000
I0403 19:48:18.690109  9688 layer_factory.hpp:77] Creating layer inception_4a/3x3
I0403 19:48:18.690132  9688 net.cpp:91] Creating Layer inception_4a/3x3
I0403 19:48:18.690150  9688 net.cpp:425] inception_4a/3x3 <- inception_4a/3x3_reduce
I0403 19:48:18.690173  9688 net.cpp:399] inception_4a/3x3 -> inception_4a/3x3
I0403 19:48:18.693022  9688 net.cpp:141] Setting up inception_4a/3x3
I0403 19:48:18.693053  9688 net.cpp:148] Top shape: 24 208 14 14 (978432)
I0403 19:48:18.693071  9688 net.cpp:156] Memory required for data: 869149728
I0403 19:48:18.693091  9688 layer_factory.hpp:77] Creating layer inception_4a/relu_3x3
I0403 19:48:18.693114  9688 net.cpp:91] Creating Layer inception_4a/relu_3x3
I0403 19:48:18.693131  9688 net.cpp:425] inception_4a/relu_3x3 <- inception_4a/3x3
I0403 19:48:18.693150  9688 net.cpp:386] inception_4a/relu_3x3 -> inception_4a/3x3 (in-place)
I0403 19:48:18.693452  9688 net.cpp:141] Setting up inception_4a/relu_3x3
I0403 19:48:18.693480  9688 net.cpp:148] Top shape: 24 208 14 14 (978432)
I0403 19:48:18.693497  9688 net.cpp:156] Memory required for data: 873063456
I0403 19:48:18.693513  9688 layer_factory.hpp:77] Creating layer inception_4a/5x5_reduce
I0403 19:48:18.693537  9688 net.cpp:91] Creating Layer inception_4a/5x5_reduce
I0403 19:48:18.693555  9688 net.cpp:425] inception_4a/5x5_reduce <- pool3/3x3_s2_pool3/3x3_s2_0_split_2
I0403 19:48:18.693578  9688 net.cpp:399] inception_4a/5x5_reduce -> inception_4a/5x5_reduce
I0403 19:48:18.694663  9688 net.cpp:141] Setting up inception_4a/5x5_reduce
I0403 19:48:18.694694  9688 net.cpp:148] Top shape: 24 16 14 14 (75264)
I0403 19:48:18.694711  9688 net.cpp:156] Memory required for data: 873364512
I0403 19:48:18.694731  9688 layer_factory.hpp:77] Creating layer inception_4a/relu_5x5_reduce
I0403 19:48:18.694753  9688 net.cpp:91] Creating Layer inception_4a/relu_5x5_reduce
I0403 19:48:18.694771  9688 net.cpp:425] inception_4a/relu_5x5_reduce <- inception_4a/5x5_reduce
I0403 19:48:18.694789  9688 net.cpp:386] inception_4a/relu_5x5_reduce -> inception_4a/5x5_reduce (in-place)
I0403 19:48:18.694978  9688 net.cpp:141] Setting up inception_4a/relu_5x5_reduce
I0403 19:48:18.695009  9688 net.cpp:148] Top shape: 24 16 14 14 (75264)
I0403 19:48:18.695026  9688 net.cpp:156] Memory required for data: 873665568
I0403 19:48:18.695044  9688 layer_factory.hpp:77] Creating layer inception_4a/5x5
I0403 19:48:18.695068  9688 net.cpp:91] Creating Layer inception_4a/5x5
I0403 19:48:18.695087  9688 net.cpp:425] inception_4a/5x5 <- inception_4a/5x5_reduce
I0403 19:48:18.695107  9688 net.cpp:399] inception_4a/5x5 -> inception_4a/5x5
I0403 19:48:18.696251  9688 net.cpp:141] Setting up inception_4a/5x5
I0403 19:48:18.696288  9688 net.cpp:148] Top shape: 24 48 14 14 (225792)
I0403 19:48:18.696308  9688 net.cpp:156] Memory required for data: 874568736
I0403 19:48:18.696327  9688 layer_factory.hpp:77] Creating layer inception_4a/relu_5x5
I0403 19:48:18.696346  9688 net.cpp:91] Creating Layer inception_4a/relu_5x5
I0403 19:48:18.696364  9688 net.cpp:425] inception_4a/relu_5x5 <- inception_4a/5x5
I0403 19:48:18.696382  9688 net.cpp:386] inception_4a/relu_5x5 -> inception_4a/5x5 (in-place)
I0403 19:48:18.696573  9688 net.cpp:141] Setting up inception_4a/relu_5x5
I0403 19:48:18.696600  9688 net.cpp:148] Top shape: 24 48 14 14 (225792)
I0403 19:48:18.696617  9688 net.cpp:156] Memory required for data: 875471904
I0403 19:48:18.696633  9688 layer_factory.hpp:77] Creating layer inception_4a/pool
I0403 19:48:18.696652  9688 net.cpp:91] Creating Layer inception_4a/pool
I0403 19:48:18.696671  9688 net.cpp:425] inception_4a/pool <- pool3/3x3_s2_pool3/3x3_s2_0_split_3
I0403 19:48:18.696696  9688 net.cpp:399] inception_4a/pool -> inception_4a/pool
I0403 19:48:18.696760  9688 net.cpp:141] Setting up inception_4a/pool
I0403 19:48:18.696790  9688 net.cpp:148] Top shape: 24 480 14 14 (2257920)
I0403 19:48:18.696807  9688 net.cpp:156] Memory required for data: 884503584
I0403 19:48:18.696823  9688 layer_factory.hpp:77] Creating layer inception_4a/pool_proj
I0403 19:48:18.696847  9688 net.cpp:91] Creating Layer inception_4a/pool_proj
I0403 19:48:18.696866  9688 net.cpp:425] inception_4a/pool_proj <- inception_4a/pool
I0403 19:48:18.696887  9688 net.cpp:399] inception_4a/pool_proj -> inception_4a/pool_proj
I0403 19:48:18.698129  9688 net.cpp:141] Setting up inception_4a/pool_proj
I0403 19:48:18.698160  9688 net.cpp:148] Top shape: 24 64 14 14 (301056)
I0403 19:48:18.698194  9688 net.cpp:156] Memory required for data: 885707808
I0403 19:48:18.698218  9688 layer_factory.hpp:77] Creating layer inception_4a/relu_pool_proj
I0403 19:48:18.698237  9688 net.cpp:91] Creating Layer inception_4a/relu_pool_proj
I0403 19:48:18.698254  9688 net.cpp:425] inception_4a/relu_pool_proj <- inception_4a/pool_proj
I0403 19:48:18.698281  9688 net.cpp:386] inception_4a/relu_pool_proj -> inception_4a/pool_proj (in-place)
I0403 19:48:18.698585  9688 net.cpp:141] Setting up inception_4a/relu_pool_proj
I0403 19:48:18.698611  9688 net.cpp:148] Top shape: 24 64 14 14 (301056)
I0403 19:48:18.698627  9688 net.cpp:156] Memory required for data: 886912032
I0403 19:48:18.698642  9688 layer_factory.hpp:77] Creating layer inception_4a/output
I0403 19:48:18.698662  9688 net.cpp:91] Creating Layer inception_4a/output
I0403 19:48:18.698676  9688 net.cpp:425] inception_4a/output <- inception_4a/1x1
I0403 19:48:18.698694  9688 net.cpp:425] inception_4a/output <- inception_4a/3x3
I0403 19:48:18.698710  9688 net.cpp:425] inception_4a/output <- inception_4a/5x5
I0403 19:48:18.698726  9688 net.cpp:425] inception_4a/output <- inception_4a/pool_proj
I0403 19:48:18.698745  9688 net.cpp:399] inception_4a/output -> inception_4a/output
I0403 19:48:18.698791  9688 net.cpp:141] Setting up inception_4a/output
I0403 19:48:18.698827  9688 net.cpp:148] Top shape: 24 512 14 14 (2408448)
I0403 19:48:18.698856  9688 net.cpp:156] Memory required for data: 896545824
I0403 19:48:18.698873  9688 layer_factory.hpp:77] Creating layer inception_4a/output_inception_4a/output_0_split
I0403 19:48:18.698891  9688 net.cpp:91] Creating Layer inception_4a/output_inception_4a/output_0_split
I0403 19:48:18.698907  9688 net.cpp:425] inception_4a/output_inception_4a/output_0_split <- inception_4a/output
I0403 19:48:18.698926  9688 net.cpp:399] inception_4a/output_inception_4a/output_0_split -> inception_4a/output_inception_4a/output_0_split_0
I0403 19:48:18.698947  9688 net.cpp:399] inception_4a/output_inception_4a/output_0_split -> inception_4a/output_inception_4a/output_0_split_1
I0403 19:48:18.698971  9688 net.cpp:399] inception_4a/output_inception_4a/output_0_split -> inception_4a/output_inception_4a/output_0_split_2
I0403 19:48:18.698992  9688 net.cpp:399] inception_4a/output_inception_4a/output_0_split -> inception_4a/output_inception_4a/output_0_split_3
I0403 19:48:18.699013  9688 net.cpp:399] inception_4a/output_inception_4a/output_0_split -> inception_4a/output_inception_4a/output_0_split_4
I0403 19:48:18.699111  9688 net.cpp:141] Setting up inception_4a/output_inception_4a/output_0_split
I0403 19:48:18.699147  9688 net.cpp:148] Top shape: 24 512 14 14 (2408448)
I0403 19:48:18.699164  9688 net.cpp:148] Top shape: 24 512 14 14 (2408448)
I0403 19:48:18.699182  9688 net.cpp:148] Top shape: 24 512 14 14 (2408448)
I0403 19:48:18.699199  9688 net.cpp:148] Top shape: 24 512 14 14 (2408448)
I0403 19:48:18.699216  9688 net.cpp:148] Top shape: 24 512 14 14 (2408448)
I0403 19:48:18.699230  9688 net.cpp:156] Memory required for data: 944714784
I0403 19:48:18.699245  9688 layer_factory.hpp:77] Creating layer loss1/ave_pool
I0403 19:48:18.699265  9688 net.cpp:91] Creating Layer loss1/ave_pool
I0403 19:48:18.699288  9688 net.cpp:425] loss1/ave_pool <- inception_4a/output_inception_4a/output_0_split_0
I0403 19:48:18.699306  9688 net.cpp:399] loss1/ave_pool -> loss1/ave_pool
I0403 19:48:18.699522  9688 net.cpp:141] Setting up loss1/ave_pool
I0403 19:48:18.699548  9688 net.cpp:148] Top shape: 24 512 4 4 (196608)
I0403 19:48:18.699563  9688 net.cpp:156] Memory required for data: 945501216
I0403 19:48:18.699579  9688 layer_factory.hpp:77] Creating layer loss1/conv
I0403 19:48:18.699602  9688 net.cpp:91] Creating Layer loss1/conv
I0403 19:48:18.699620  9688 net.cpp:425] loss1/conv <- loss1/ave_pool
I0403 19:48:18.699641  9688 net.cpp:399] loss1/conv -> loss1/conv
I0403 19:48:18.701100  9688 net.cpp:141] Setting up loss1/conv
I0403 19:48:18.701129  9688 net.cpp:148] Top shape: 24 128 4 4 (49152)
I0403 19:48:18.701145  9688 net.cpp:156] Memory required for data: 945697824
I0403 19:48:18.701179  9688 layer_factory.hpp:77] Creating layer loss1/relu_conv
I0403 19:48:18.701203  9688 net.cpp:91] Creating Layer loss1/relu_conv
I0403 19:48:18.701221  9688 net.cpp:425] loss1/relu_conv <- loss1/conv
I0403 19:48:18.701239  9688 net.cpp:386] loss1/relu_conv -> loss1/conv (in-place)
I0403 19:48:18.701534  9688 net.cpp:141] Setting up loss1/relu_conv
I0403 19:48:18.701561  9688 net.cpp:148] Top shape: 24 128 4 4 (49152)
I0403 19:48:18.701577  9688 net.cpp:156] Memory required for data: 945894432
I0403 19:48:18.701593  9688 layer_factory.hpp:77] Creating layer loss1/fc
I0403 19:48:18.701620  9688 net.cpp:91] Creating Layer loss1/fc
I0403 19:48:18.701638  9688 net.cpp:425] loss1/fc <- loss1/conv
I0403 19:48:18.701658  9688 net.cpp:399] loss1/fc -> loss1/fc
I0403 19:48:18.720003  9688 net.cpp:141] Setting up loss1/fc
I0403 19:48:18.720041  9688 net.cpp:148] Top shape: 24 1024 (24576)
I0403 19:48:18.720057  9688 net.cpp:156] Memory required for data: 945992736
I0403 19:48:18.720077  9688 layer_factory.hpp:77] Creating layer loss1/relu_fc
I0403 19:48:18.720098  9688 net.cpp:91] Creating Layer loss1/relu_fc
I0403 19:48:18.720113  9688 net.cpp:425] loss1/relu_fc <- loss1/fc
I0403 19:48:18.720134  9688 net.cpp:386] loss1/relu_fc -> loss1/fc (in-place)
I0403 19:48:18.720330  9688 net.cpp:141] Setting up loss1/relu_fc
I0403 19:48:18.720356  9688 net.cpp:148] Top shape: 24 1024 (24576)
I0403 19:48:18.720372  9688 net.cpp:156] Memory required for data: 946091040
I0403 19:48:18.720387  9688 layer_factory.hpp:77] Creating layer loss1/drop_fc
I0403 19:48:18.720417  9688 net.cpp:91] Creating Layer loss1/drop_fc
I0403 19:48:18.720435  9688 net.cpp:425] loss1/drop_fc <- loss1/fc
I0403 19:48:18.720453  9688 net.cpp:386] loss1/drop_fc -> loss1/fc (in-place)
I0403 19:48:18.720505  9688 net.cpp:141] Setting up loss1/drop_fc
I0403 19:48:18.720531  9688 net.cpp:148] Top shape: 24 1024 (24576)
I0403 19:48:18.720548  9688 net.cpp:156] Memory required for data: 946189344
I0403 19:48:18.720564  9688 layer_factory.hpp:77] Creating layer loss1/classifier_plantvillage
I0403 19:48:18.720582  9688 net.cpp:91] Creating Layer loss1/classifier_plantvillage
I0403 19:48:18.720598  9688 net.cpp:425] loss1/classifier_plantvillage <- loss1/fc
I0403 19:48:18.720623  9688 net.cpp:399] loss1/classifier_plantvillage -> loss1/classifier_plantvillage
I0403 19:48:18.721546  9688 net.cpp:141] Setting up loss1/classifier_plantvillage
I0403 19:48:18.721578  9688 net.cpp:148] Top shape: 24 38 (912)
I0403 19:48:18.721595  9688 net.cpp:156] Memory required for data: 946192992
I0403 19:48:18.721613  9688 layer_factory.hpp:77] Creating layer loss1/classifier_plantvillage_loss1/classifier_plantvillage_0_split
I0403 19:48:18.721632  9688 net.cpp:91] Creating Layer loss1/classifier_plantvillage_loss1/classifier_plantvillage_0_split
I0403 19:48:18.721652  9688 net.cpp:425] loss1/classifier_plantvillage_loss1/classifier_plantvillage_0_split <- loss1/classifier_plantvillage
I0403 19:48:18.721669  9688 net.cpp:399] loss1/classifier_plantvillage_loss1/classifier_plantvillage_0_split -> loss1/classifier_plantvillage_loss1/classifier_plantvillage_0_split_0
I0403 19:48:18.721690  9688 net.cpp:399] loss1/classifier_plantvillage_loss1/classifier_plantvillage_0_split -> loss1/classifier_plantvillage_loss1/classifier_plantvillage_0_split_1
I0403 19:48:18.721710  9688 net.cpp:399] loss1/classifier_plantvillage_loss1/classifier_plantvillage_0_split -> loss1/classifier_plantvillage_loss1/classifier_plantvillage_0_split_2
I0403 19:48:18.721778  9688 net.cpp:141] Setting up loss1/classifier_plantvillage_loss1/classifier_plantvillage_0_split
I0403 19:48:18.721817  9688 net.cpp:148] Top shape: 24 38 (912)
I0403 19:48:18.721843  9688 net.cpp:148] Top shape: 24 38 (912)
I0403 19:48:18.721878  9688 net.cpp:148] Top shape: 24 38 (912)
I0403 19:48:18.721915  9688 net.cpp:156] Memory required for data: 946203936
I0403 19:48:18.721953  9688 layer_factory.hpp:77] Creating layer inception_4b/1x1
I0403 19:48:18.722002  9688 net.cpp:91] Creating Layer inception_4b/1x1
I0403 19:48:18.722038  9688 net.cpp:425] inception_4b/1x1 <- inception_4a/output_inception_4a/output_0_split_1
I0403 19:48:18.722059  9688 net.cpp:399] inception_4b/1x1 -> inception_4b/1x1
I0403 19:48:18.723759  9688 net.cpp:141] Setting up inception_4b/1x1
I0403 19:48:18.723790  9688 net.cpp:148] Top shape: 24 160 14 14 (752640)
I0403 19:48:18.723808  9688 net.cpp:156] Memory required for data: 949214496
I0403 19:48:18.723826  9688 layer_factory.hpp:77] Creating layer inception_4b/relu_1x1
I0403 19:48:18.723847  9688 net.cpp:91] Creating Layer inception_4b/relu_1x1
I0403 19:48:18.723866  9688 net.cpp:425] inception_4b/relu_1x1 <- inception_4b/1x1
I0403 19:48:18.723886  9688 net.cpp:386] inception_4b/relu_1x1 -> inception_4b/1x1 (in-place)
I0403 19:48:18.724071  9688 net.cpp:141] Setting up inception_4b/relu_1x1
I0403 19:48:18.724099  9688 net.cpp:148] Top shape: 24 160 14 14 (752640)
I0403 19:48:18.724115  9688 net.cpp:156] Memory required for data: 952225056
I0403 19:48:18.724131  9688 layer_factory.hpp:77] Creating layer inception_4b/3x3_reduce
I0403 19:48:18.724155  9688 net.cpp:91] Creating Layer inception_4b/3x3_reduce
I0403 19:48:18.724174  9688 net.cpp:425] inception_4b/3x3_reduce <- inception_4a/output_inception_4a/output_0_split_2
I0403 19:48:18.724194  9688 net.cpp:399] inception_4b/3x3_reduce -> inception_4b/3x3_reduce
I0403 19:48:18.725574  9688 net.cpp:141] Setting up inception_4b/3x3_reduce
I0403 19:48:18.725603  9688 net.cpp:148] Top shape: 24 112 14 14 (526848)
I0403 19:48:18.725620  9688 net.cpp:156] Memory required for data: 954332448
I0403 19:48:18.725637  9688 layer_factory.hpp:77] Creating layer inception_4b/relu_3x3_reduce
I0403 19:48:18.725658  9688 net.cpp:91] Creating Layer inception_4b/relu_3x3_reduce
I0403 19:48:18.725675  9688 net.cpp:425] inception_4b/relu_3x3_reduce <- inception_4b/3x3_reduce
I0403 19:48:18.725692  9688 net.cpp:386] inception_4b/relu_3x3_reduce -> inception_4b/3x3_reduce (in-place)
I0403 19:48:18.725973  9688 net.cpp:141] Setting up inception_4b/relu_3x3_reduce
I0403 19:48:18.725999  9688 net.cpp:148] Top shape: 24 112 14 14 (526848)
I0403 19:48:18.726014  9688 net.cpp:156] Memory required for data: 956439840
I0403 19:48:18.726029  9688 layer_factory.hpp:77] Creating layer inception_4b/3x3
I0403 19:48:18.726053  9688 net.cpp:91] Creating Layer inception_4b/3x3
I0403 19:48:18.726071  9688 net.cpp:425] inception_4b/3x3 <- inception_4b/3x3_reduce
I0403 19:48:18.726090  9688 net.cpp:399] inception_4b/3x3 -> inception_4b/3x3
I0403 19:48:18.729053  9688 net.cpp:141] Setting up inception_4b/3x3
I0403 19:48:18.729082  9688 net.cpp:148] Top shape: 24 224 14 14 (1053696)
I0403 19:48:18.729101  9688 net.cpp:156] Memory required for data: 960654624
I0403 19:48:18.729122  9688 layer_factory.hpp:77] Creating layer inception_4b/relu_3x3
I0403 19:48:18.729141  9688 net.cpp:91] Creating Layer inception_4b/relu_3x3
I0403 19:48:18.729157  9688 net.cpp:425] inception_4b/relu_3x3 <- inception_4b/3x3
I0403 19:48:18.729178  9688 net.cpp:386] inception_4b/relu_3x3 -> inception_4b/3x3 (in-place)
I0403 19:48:18.729375  9688 net.cpp:141] Setting up inception_4b/relu_3x3
I0403 19:48:18.729403  9688 net.cpp:148] Top shape: 24 224 14 14 (1053696)
I0403 19:48:18.729419  9688 net.cpp:156] Memory required for data: 964869408
I0403 19:48:18.729434  9688 layer_factory.hpp:77] Creating layer inception_4b/5x5_reduce
I0403 19:48:18.729456  9688 net.cpp:91] Creating Layer inception_4b/5x5_reduce
I0403 19:48:18.729475  9688 net.cpp:425] inception_4b/5x5_reduce <- inception_4a/output_inception_4a/output_0_split_3
I0403 19:48:18.729496  9688 net.cpp:399] inception_4b/5x5_reduce -> inception_4b/5x5_reduce
I0403 19:48:18.730595  9688 net.cpp:141] Setting up inception_4b/5x5_reduce
I0403 19:48:18.730623  9688 net.cpp:148] Top shape: 24 24 14 14 (112896)
I0403 19:48:18.730639  9688 net.cpp:156] Memory required for data: 965320992
I0403 19:48:18.730657  9688 layer_factory.hpp:77] Creating layer inception_4b/relu_5x5_reduce
I0403 19:48:18.730677  9688 net.cpp:91] Creating Layer inception_4b/relu_5x5_reduce
I0403 19:48:18.730708  9688 net.cpp:425] inception_4b/relu_5x5_reduce <- inception_4b/5x5_reduce
I0403 19:48:18.730726  9688 net.cpp:386] inception_4b/relu_5x5_reduce -> inception_4b/5x5_reduce (in-place)
I0403 19:48:18.730908  9688 net.cpp:141] Setting up inception_4b/relu_5x5_reduce
I0403 19:48:18.730936  9688 net.cpp:148] Top shape: 24 24 14 14 (112896)
I0403 19:48:18.730950  9688 net.cpp:156] Memory required for data: 965772576
I0403 19:48:18.730965  9688 layer_factory.hpp:77] Creating layer inception_4b/5x5
I0403 19:48:18.730988  9688 net.cpp:91] Creating Layer inception_4b/5x5
I0403 19:48:18.731005  9688 net.cpp:425] inception_4b/5x5 <- inception_4b/5x5_reduce
I0403 19:48:18.731025  9688 net.cpp:399] inception_4b/5x5 -> inception_4b/5x5
I0403 19:48:18.732251  9688 net.cpp:141] Setting up inception_4b/5x5
I0403 19:48:18.732290  9688 net.cpp:148] Top shape: 24 64 14 14 (301056)
I0403 19:48:18.732309  9688 net.cpp:156] Memory required for data: 966976800
I0403 19:48:18.732329  9688 layer_factory.hpp:77] Creating layer inception_4b/relu_5x5
I0403 19:48:18.732350  9688 net.cpp:91] Creating Layer inception_4b/relu_5x5
I0403 19:48:18.732367  9688 net.cpp:425] inception_4b/relu_5x5 <- inception_4b/5x5
I0403 19:48:18.732384  9688 net.cpp:386] inception_4b/relu_5x5 -> inception_4b/5x5 (in-place)
I0403 19:48:18.732679  9688 net.cpp:141] Setting up inception_4b/relu_5x5
I0403 19:48:18.732705  9688 net.cpp:148] Top shape: 24 64 14 14 (301056)
I0403 19:48:18.732722  9688 net.cpp:156] Memory required for data: 968181024
I0403 19:48:18.732736  9688 layer_factory.hpp:77] Creating layer inception_4b/pool
I0403 19:48:18.732756  9688 net.cpp:91] Creating Layer inception_4b/pool
I0403 19:48:18.732774  9688 net.cpp:425] inception_4b/pool <- inception_4a/output_inception_4a/output_0_split_4
I0403 19:48:18.732792  9688 net.cpp:399] inception_4b/pool -> inception_4b/pool
I0403 19:48:18.732861  9688 net.cpp:141] Setting up inception_4b/pool
I0403 19:48:18.732884  9688 net.cpp:148] Top shape: 24 512 14 14 (2408448)
I0403 19:48:18.732898  9688 net.cpp:156] Memory required for data: 977814816
I0403 19:48:18.732913  9688 layer_factory.hpp:77] Creating layer inception_4b/pool_proj
I0403 19:48:18.732935  9688 net.cpp:91] Creating Layer inception_4b/pool_proj
I0403 19:48:18.732952  9688 net.cpp:425] inception_4b/pool_proj <- inception_4b/pool
I0403 19:48:18.732974  9688 net.cpp:399] inception_4b/pool_proj -> inception_4b/pool_proj
I0403 19:48:18.734177  9688 net.cpp:141] Setting up inception_4b/pool_proj
I0403 19:48:18.734205  9688 net.cpp:148] Top shape: 24 64 14 14 (301056)
I0403 19:48:18.734223  9688 net.cpp:156] Memory required for data: 979019040
I0403 19:48:18.734243  9688 layer_factory.hpp:77] Creating layer inception_4b/relu_pool_proj
I0403 19:48:18.734266  9688 net.cpp:91] Creating Layer inception_4b/relu_pool_proj
I0403 19:48:18.734288  9688 net.cpp:425] inception_4b/relu_pool_proj <- inception_4b/pool_proj
I0403 19:48:18.734308  9688 net.cpp:386] inception_4b/relu_pool_proj -> inception_4b/pool_proj (in-place)
I0403 19:48:18.734490  9688 net.cpp:141] Setting up inception_4b/relu_pool_proj
I0403 19:48:18.734518  9688 net.cpp:148] Top shape: 24 64 14 14 (301056)
I0403 19:48:18.734534  9688 net.cpp:156] Memory required for data: 980223264
I0403 19:48:18.734549  9688 layer_factory.hpp:77] Creating layer inception_4b/output
I0403 19:48:18.734566  9688 net.cpp:91] Creating Layer inception_4b/output
I0403 19:48:18.734581  9688 net.cpp:425] inception_4b/output <- inception_4b/1x1
I0403 19:48:18.734598  9688 net.cpp:425] inception_4b/output <- inception_4b/3x3
I0403 19:48:18.734613  9688 net.cpp:425] inception_4b/output <- inception_4b/5x5
I0403 19:48:18.734629  9688 net.cpp:425] inception_4b/output <- inception_4b/pool_proj
I0403 19:48:18.734648  9688 net.cpp:399] inception_4b/output -> inception_4b/output
I0403 19:48:18.734694  9688 net.cpp:141] Setting up inception_4b/output
I0403 19:48:18.734716  9688 net.cpp:148] Top shape: 24 512 14 14 (2408448)
I0403 19:48:18.734731  9688 net.cpp:156] Memory required for data: 989857056
I0403 19:48:18.734760  9688 layer_factory.hpp:77] Creating layer inception_4b/output_inception_4b/output_0_split
I0403 19:48:18.734781  9688 net.cpp:91] Creating Layer inception_4b/output_inception_4b/output_0_split
I0403 19:48:18.734797  9688 net.cpp:425] inception_4b/output_inception_4b/output_0_split <- inception_4b/output
I0403 19:48:18.734814  9688 net.cpp:399] inception_4b/output_inception_4b/output_0_split -> inception_4b/output_inception_4b/output_0_split_0
I0403 19:48:18.734834  9688 net.cpp:399] inception_4b/output_inception_4b/output_0_split -> inception_4b/output_inception_4b/output_0_split_1
I0403 19:48:18.734856  9688 net.cpp:399] inception_4b/output_inception_4b/output_0_split -> inception_4b/output_inception_4b/output_0_split_2
I0403 19:48:18.734877  9688 net.cpp:399] inception_4b/output_inception_4b/output_0_split -> inception_4b/output_inception_4b/output_0_split_3
I0403 19:48:18.734961  9688 net.cpp:141] Setting up inception_4b/output_inception_4b/output_0_split
I0403 19:48:18.734983  9688 net.cpp:148] Top shape: 24 512 14 14 (2408448)
I0403 19:48:18.735000  9688 net.cpp:148] Top shape: 24 512 14 14 (2408448)
I0403 19:48:18.735015  9688 net.cpp:148] Top shape: 24 512 14 14 (2408448)
I0403 19:48:18.735031  9688 net.cpp:148] Top shape: 24 512 14 14 (2408448)
I0403 19:48:18.735044  9688 net.cpp:156] Memory required for data: 1028392224
I0403 19:48:18.735059  9688 layer_factory.hpp:77] Creating layer inception_4c/1x1
I0403 19:48:18.735081  9688 net.cpp:91] Creating Layer inception_4c/1x1
I0403 19:48:18.735098  9688 net.cpp:425] inception_4c/1x1 <- inception_4b/output_inception_4b/output_0_split_0
I0403 19:48:18.735119  9688 net.cpp:399] inception_4c/1x1 -> inception_4c/1x1
I0403 19:48:18.736559  9688 net.cpp:141] Setting up inception_4c/1x1
I0403 19:48:18.736591  9688 net.cpp:148] Top shape: 24 128 14 14 (602112)
I0403 19:48:18.736609  9688 net.cpp:156] Memory required for data: 1030800672
I0403 19:48:18.736629  9688 layer_factory.hpp:77] Creating layer inception_4c/relu_1x1
I0403 19:48:18.736646  9688 net.cpp:91] Creating Layer inception_4c/relu_1x1
I0403 19:48:18.736662  9688 net.cpp:425] inception_4c/relu_1x1 <- inception_4c/1x1
I0403 19:48:18.736682  9688 net.cpp:386] inception_4c/relu_1x1 -> inception_4c/1x1 (in-place)
I0403 19:48:18.736866  9688 net.cpp:141] Setting up inception_4c/relu_1x1
I0403 19:48:18.736891  9688 net.cpp:148] Top shape: 24 128 14 14 (602112)
I0403 19:48:18.736907  9688 net.cpp:156] Memory required for data: 1033209120
I0403 19:48:18.736922  9688 layer_factory.hpp:77] Creating layer inception_4c/3x3_reduce
I0403 19:48:18.736943  9688 net.cpp:91] Creating Layer inception_4c/3x3_reduce
I0403 19:48:18.736961  9688 net.cpp:425] inception_4c/3x3_reduce <- inception_4b/output_inception_4b/output_0_split_1
I0403 19:48:18.736982  9688 net.cpp:399] inception_4c/3x3_reduce -> inception_4c/3x3_reduce
I0403 19:48:18.738931  9688 net.cpp:141] Setting up inception_4c/3x3_reduce
I0403 19:48:18.738962  9688 net.cpp:148] Top shape: 24 128 14 14 (602112)
I0403 19:48:18.738979  9688 net.cpp:156] Memory required for data: 1035617568
I0403 19:48:18.738997  9688 layer_factory.hpp:77] Creating layer inception_4c/relu_3x3_reduce
I0403 19:48:18.739019  9688 net.cpp:91] Creating Layer inception_4c/relu_3x3_reduce
I0403 19:48:18.739037  9688 net.cpp:425] inception_4c/relu_3x3_reduce <- inception_4c/3x3_reduce
I0403 19:48:18.739056  9688 net.cpp:386] inception_4c/relu_3x3_reduce -> inception_4c/3x3_reduce (in-place)
I0403 19:48:18.739351  9688 net.cpp:141] Setting up inception_4c/relu_3x3_reduce
I0403 19:48:18.739377  9688 net.cpp:148] Top shape: 24 128 14 14 (602112)
I0403 19:48:18.739392  9688 net.cpp:156] Memory required for data: 1038026016
I0403 19:48:18.739408  9688 layer_factory.hpp:77] Creating layer inception_4c/3x3
I0403 19:48:18.739430  9688 net.cpp:91] Creating Layer inception_4c/3x3
I0403 19:48:18.739447  9688 net.cpp:425] inception_4c/3x3 <- inception_4c/3x3_reduce
I0403 19:48:18.739470  9688 net.cpp:399] inception_4c/3x3 -> inception_4c/3x3
I0403 19:48:18.743197  9688 net.cpp:141] Setting up inception_4c/3x3
I0403 19:48:18.743240  9688 net.cpp:148] Top shape: 24 256 14 14 (1204224)
I0403 19:48:18.743257  9688 net.cpp:156] Memory required for data: 1042842912
I0403 19:48:18.743294  9688 layer_factory.hpp:77] Creating layer inception_4c/relu_3x3
I0403 19:48:18.743319  9688 net.cpp:91] Creating Layer inception_4c/relu_3x3
I0403 19:48:18.743337  9688 net.cpp:425] inception_4c/relu_3x3 <- inception_4c/3x3
I0403 19:48:18.743355  9688 net.cpp:386] inception_4c/relu_3x3 -> inception_4c/3x3 (in-place)
I0403 19:48:18.743548  9688 net.cpp:141] Setting up inception_4c/relu_3x3
I0403 19:48:18.743573  9688 net.cpp:148] Top shape: 24 256 14 14 (1204224)
I0403 19:48:18.743588  9688 net.cpp:156] Memory required for data: 1047659808
I0403 19:48:18.743603  9688 layer_factory.hpp:77] Creating layer inception_4c/5x5_reduce
I0403 19:48:18.743628  9688 net.cpp:91] Creating Layer inception_4c/5x5_reduce
I0403 19:48:18.743648  9688 net.cpp:425] inception_4c/5x5_reduce <- inception_4b/output_inception_4b/output_0_split_2
I0403 19:48:18.743667  9688 net.cpp:399] inception_4c/5x5_reduce -> inception_4c/5x5_reduce
I0403 19:48:18.744810  9688 net.cpp:141] Setting up inception_4c/5x5_reduce
I0403 19:48:18.744842  9688 net.cpp:148] Top shape: 24 24 14 14 (112896)
I0403 19:48:18.744859  9688 net.cpp:156] Memory required for data: 1048111392
I0403 19:48:18.744879  9688 layer_factory.hpp:77] Creating layer inception_4c/relu_5x5_reduce
I0403 19:48:18.744901  9688 net.cpp:91] Creating Layer inception_4c/relu_5x5_reduce
I0403 19:48:18.744920  9688 net.cpp:425] inception_4c/relu_5x5_reduce <- inception_4c/5x5_reduce
I0403 19:48:18.744940  9688 net.cpp:386] inception_4c/relu_5x5_reduce -> inception_4c/5x5_reduce (in-place)
I0403 19:48:18.745131  9688 net.cpp:141] Setting up inception_4c/relu_5x5_reduce
I0403 19:48:18.745157  9688 net.cpp:148] Top shape: 24 24 14 14 (112896)
I0403 19:48:18.745174  9688 net.cpp:156] Memory required for data: 1048562976
I0403 19:48:18.745190  9688 layer_factory.hpp:77] Creating layer inception_4c/5x5
I0403 19:48:18.745213  9688 net.cpp:91] Creating Layer inception_4c/5x5
I0403 19:48:18.745230  9688 net.cpp:425] inception_4c/5x5 <- inception_4c/5x5_reduce
I0403 19:48:18.745249  9688 net.cpp:399] inception_4c/5x5 -> inception_4c/5x5
I0403 19:48:18.746556  9688 net.cpp:141] Setting up inception_4c/5x5
I0403 19:48:18.746588  9688 net.cpp:148] Top shape: 24 64 14 14 (301056)
I0403 19:48:18.746606  9688 net.cpp:156] Memory required for data: 1049767200
I0403 19:48:18.746625  9688 layer_factory.hpp:77] Creating layer inception_4c/relu_5x5
I0403 19:48:18.746644  9688 net.cpp:91] Creating Layer inception_4c/relu_5x5
I0403 19:48:18.746661  9688 net.cpp:425] inception_4c/relu_5x5 <- inception_4c/5x5
I0403 19:48:18.746682  9688 net.cpp:386] inception_4c/relu_5x5 -> inception_4c/5x5 (in-place)
I0403 19:48:18.746984  9688 net.cpp:141] Setting up inception_4c/relu_5x5
I0403 19:48:18.747014  9688 net.cpp:148] Top shape: 24 64 14 14 (301056)
I0403 19:48:18.747030  9688 net.cpp:156] Memory required for data: 1050971424
I0403 19:48:18.747045  9688 layer_factory.hpp:77] Creating layer inception_4c/pool
I0403 19:48:18.747063  9688 net.cpp:91] Creating Layer inception_4c/pool
I0403 19:48:18.747081  9688 net.cpp:425] inception_4c/pool <- inception_4b/output_inception_4b/output_0_split_3
I0403 19:48:18.747102  9688 net.cpp:399] inception_4c/pool -> inception_4c/pool
I0403 19:48:18.747171  9688 net.cpp:141] Setting up inception_4c/pool
I0403 19:48:18.747195  9688 net.cpp:148] Top shape: 24 512 14 14 (2408448)
I0403 19:48:18.747211  9688 net.cpp:156] Memory required for data: 1060605216
I0403 19:48:18.747226  9688 layer_factory.hpp:77] Creating layer inception_4c/pool_proj
I0403 19:48:18.747249  9688 net.cpp:91] Creating Layer inception_4c/pool_proj
I0403 19:48:18.747267  9688 net.cpp:425] inception_4c/pool_proj <- inception_4c/pool
I0403 19:48:18.747294  9688 net.cpp:399] inception_4c/pool_proj -> inception_4c/pool_proj
I0403 19:48:18.748582  9688 net.cpp:141] Setting up inception_4c/pool_proj
I0403 19:48:18.748611  9688 net.cpp:148] Top shape: 24 64 14 14 (301056)
I0403 19:48:18.748641  9688 net.cpp:156] Memory required for data: 1061809440
I0403 19:48:18.748661  9688 layer_factory.hpp:77] Creating layer inception_4c/relu_pool_proj
I0403 19:48:18.748687  9688 net.cpp:91] Creating Layer inception_4c/relu_pool_proj
I0403 19:48:18.748704  9688 net.cpp:425] inception_4c/relu_pool_proj <- inception_4c/pool_proj
I0403 19:48:18.748723  9688 net.cpp:386] inception_4c/relu_pool_proj -> inception_4c/pool_proj (in-place)
I0403 19:48:18.748914  9688 net.cpp:141] Setting up inception_4c/relu_pool_proj
I0403 19:48:18.748941  9688 net.cpp:148] Top shape: 24 64 14 14 (301056)
I0403 19:48:18.748957  9688 net.cpp:156] Memory required for data: 1063013664
I0403 19:48:18.748972  9688 layer_factory.hpp:77] Creating layer inception_4c/output
I0403 19:48:18.748991  9688 net.cpp:91] Creating Layer inception_4c/output
I0403 19:48:18.749006  9688 net.cpp:425] inception_4c/output <- inception_4c/1x1
I0403 19:48:18.749023  9688 net.cpp:425] inception_4c/output <- inception_4c/3x3
I0403 19:48:18.749039  9688 net.cpp:425] inception_4c/output <- inception_4c/5x5
I0403 19:48:18.749055  9688 net.cpp:425] inception_4c/output <- inception_4c/pool_proj
I0403 19:48:18.749075  9688 net.cpp:399] inception_4c/output -> inception_4c/output
I0403 19:48:18.749124  9688 net.cpp:141] Setting up inception_4c/output
I0403 19:48:18.749147  9688 net.cpp:148] Top shape: 24 512 14 14 (2408448)
I0403 19:48:18.749162  9688 net.cpp:156] Memory required for data: 1072647456
I0403 19:48:18.749178  9688 layer_factory.hpp:77] Creating layer inception_4c/output_inception_4c/output_0_split
I0403 19:48:18.749198  9688 net.cpp:91] Creating Layer inception_4c/output_inception_4c/output_0_split
I0403 19:48:18.749217  9688 net.cpp:425] inception_4c/output_inception_4c/output_0_split <- inception_4c/output
I0403 19:48:18.749235  9688 net.cpp:399] inception_4c/output_inception_4c/output_0_split -> inception_4c/output_inception_4c/output_0_split_0
I0403 19:48:18.749255  9688 net.cpp:399] inception_4c/output_inception_4c/output_0_split -> inception_4c/output_inception_4c/output_0_split_1
I0403 19:48:18.749280  9688 net.cpp:399] inception_4c/output_inception_4c/output_0_split -> inception_4c/output_inception_4c/output_0_split_2
I0403 19:48:18.749307  9688 net.cpp:399] inception_4c/output_inception_4c/output_0_split -> inception_4c/output_inception_4c/output_0_split_3
I0403 19:48:18.749397  9688 net.cpp:141] Setting up inception_4c/output_inception_4c/output_0_split
I0403 19:48:18.749421  9688 net.cpp:148] Top shape: 24 512 14 14 (2408448)
I0403 19:48:18.749439  9688 net.cpp:148] Top shape: 24 512 14 14 (2408448)
I0403 19:48:18.749454  9688 net.cpp:148] Top shape: 24 512 14 14 (2408448)
I0403 19:48:18.749471  9688 net.cpp:148] Top shape: 24 512 14 14 (2408448)
I0403 19:48:18.749485  9688 net.cpp:156] Memory required for data: 1111182624
I0403 19:48:18.749500  9688 layer_factory.hpp:77] Creating layer inception_4d/1x1
I0403 19:48:18.749523  9688 net.cpp:91] Creating Layer inception_4d/1x1
I0403 19:48:18.749541  9688 net.cpp:425] inception_4d/1x1 <- inception_4c/output_inception_4c/output_0_split_0
I0403 19:48:18.749562  9688 net.cpp:399] inception_4d/1x1 -> inception_4d/1x1
I0403 19:48:18.750989  9688 net.cpp:141] Setting up inception_4d/1x1
I0403 19:48:18.751019  9688 net.cpp:148] Top shape: 24 112 14 14 (526848)
I0403 19:48:18.751036  9688 net.cpp:156] Memory required for data: 1113290016
I0403 19:48:18.751057  9688 layer_factory.hpp:77] Creating layer inception_4d/relu_1x1
I0403 19:48:18.751078  9688 net.cpp:91] Creating Layer inception_4d/relu_1x1
I0403 19:48:18.751096  9688 net.cpp:425] inception_4d/relu_1x1 <- inception_4d/1x1
I0403 19:48:18.751114  9688 net.cpp:386] inception_4d/relu_1x1 -> inception_4d/1x1 (in-place)
I0403 19:48:18.751327  9688 net.cpp:141] Setting up inception_4d/relu_1x1
I0403 19:48:18.751353  9688 net.cpp:148] Top shape: 24 112 14 14 (526848)
I0403 19:48:18.751370  9688 net.cpp:156] Memory required for data: 1115397408
I0403 19:48:18.751386  9688 layer_factory.hpp:77] Creating layer inception_4d/3x3_reduce
I0403 19:48:18.751423  9688 net.cpp:91] Creating Layer inception_4d/3x3_reduce
I0403 19:48:18.751443  9688 net.cpp:425] inception_4d/3x3_reduce <- inception_4c/output_inception_4c/output_0_split_1
I0403 19:48:18.751467  9688 net.cpp:399] inception_4d/3x3_reduce -> inception_4d/3x3_reduce
I0403 19:48:18.753056  9688 net.cpp:141] Setting up inception_4d/3x3_reduce
I0403 19:48:18.753087  9688 net.cpp:148] Top shape: 24 144 14 14 (677376)
I0403 19:48:18.753103  9688 net.cpp:156] Memory required for data: 1118106912
I0403 19:48:18.753124  9688 layer_factory.hpp:77] Creating layer inception_4d/relu_3x3_reduce
I0403 19:48:18.753144  9688 net.cpp:91] Creating Layer inception_4d/relu_3x3_reduce
I0403 19:48:18.753160  9688 net.cpp:425] inception_4d/relu_3x3_reduce <- inception_4d/3x3_reduce
I0403 19:48:18.753181  9688 net.cpp:386] inception_4d/relu_3x3_reduce -> inception_4d/3x3_reduce (in-place)
I0403 19:48:18.753485  9688 net.cpp:141] Setting up inception_4d/relu_3x3_reduce
I0403 19:48:18.753512  9688 net.cpp:148] Top shape: 24 144 14 14 (677376)
I0403 19:48:18.753530  9688 net.cpp:156] Memory required for data: 1120816416
I0403 19:48:18.753545  9688 layer_factory.hpp:77] Creating layer inception_4d/3x3
I0403 19:48:18.753567  9688 net.cpp:91] Creating Layer inception_4d/3x3
I0403 19:48:18.753587  9688 net.cpp:425] inception_4d/3x3 <- inception_4d/3x3_reduce
I0403 19:48:18.753607  9688 net.cpp:399] inception_4d/3x3 -> inception_4d/3x3
I0403 19:48:18.758002  9688 net.cpp:141] Setting up inception_4d/3x3
I0403 19:48:18.758033  9688 net.cpp:148] Top shape: 24 288 14 14 (1354752)
I0403 19:48:18.758049  9688 net.cpp:156] Memory required for data: 1126235424
I0403 19:48:18.758069  9688 layer_factory.hpp:77] Creating layer inception_4d/relu_3x3
I0403 19:48:18.758091  9688 net.cpp:91] Creating Layer inception_4d/relu_3x3
I0403 19:48:18.758111  9688 net.cpp:425] inception_4d/relu_3x3 <- inception_4d/3x3
I0403 19:48:18.758131  9688 net.cpp:386] inception_4d/relu_3x3 -> inception_4d/3x3 (in-place)
I0403 19:48:18.758344  9688 net.cpp:141] Setting up inception_4d/relu_3x3
I0403 19:48:18.758373  9688 net.cpp:148] Top shape: 24 288 14 14 (1354752)
I0403 19:48:18.758391  9688 net.cpp:156] Memory required for data: 1131654432
I0403 19:48:18.758409  9688 layer_factory.hpp:77] Creating layer inception_4d/5x5_reduce
I0403 19:48:18.758431  9688 net.cpp:91] Creating Layer inception_4d/5x5_reduce
I0403 19:48:18.758450  9688 net.cpp:425] inception_4d/5x5_reduce <- inception_4c/output_inception_4c/output_0_split_2
I0403 19:48:18.758486  9688 net.cpp:399] inception_4d/5x5_reduce -> inception_4d/5x5_reduce
I0403 19:48:18.759701  9688 net.cpp:141] Setting up inception_4d/5x5_reduce
I0403 19:48:18.759730  9688 net.cpp:148] Top shape: 24 32 14 14 (150528)
I0403 19:48:18.759747  9688 net.cpp:156] Memory required for data: 1132256544
I0403 19:48:18.759766  9688 layer_factory.hpp:77] Creating layer inception_4d/relu_5x5_reduce
I0403 19:48:18.759788  9688 net.cpp:91] Creating Layer inception_4d/relu_5x5_reduce
I0403 19:48:18.759805  9688 net.cpp:425] inception_4d/relu_5x5_reduce <- inception_4d/5x5_reduce
I0403 19:48:18.759825  9688 net.cpp:386] inception_4d/relu_5x5_reduce -> inception_4d/5x5_reduce (in-place)
I0403 19:48:18.760021  9688 net.cpp:141] Setting up inception_4d/relu_5x5_reduce
I0403 19:48:18.760047  9688 net.cpp:148] Top shape: 24 32 14 14 (150528)
I0403 19:48:18.760064  9688 net.cpp:156] Memory required for data: 1132858656
I0403 19:48:18.760081  9688 layer_factory.hpp:77] Creating layer inception_4d/5x5
I0403 19:48:18.760107  9688 net.cpp:91] Creating Layer inception_4d/5x5
I0403 19:48:18.760125  9688 net.cpp:425] inception_4d/5x5 <- inception_4d/5x5_reduce
I0403 19:48:18.760145  9688 net.cpp:399] inception_4d/5x5 -> inception_4d/5x5
I0403 19:48:18.761690  9688 net.cpp:141] Setting up inception_4d/5x5
I0403 19:48:18.761720  9688 net.cpp:148] Top shape: 24 64 14 14 (301056)
I0403 19:48:18.761739  9688 net.cpp:156] Memory required for data: 1134062880
I0403 19:48:18.761759  9688 layer_factory.hpp:77] Creating layer inception_4d/relu_5x5
I0403 19:48:18.761796  9688 net.cpp:91] Creating Layer inception_4d/relu_5x5
I0403 19:48:18.761816  9688 net.cpp:425] inception_4d/relu_5x5 <- inception_4d/5x5
I0403 19:48:18.761836  9688 net.cpp:386] inception_4d/relu_5x5 -> inception_4d/5x5 (in-place)
I0403 19:48:18.762152  9688 net.cpp:141] Setting up inception_4d/relu_5x5
I0403 19:48:18.762181  9688 net.cpp:148] Top shape: 24 64 14 14 (301056)
I0403 19:48:18.762197  9688 net.cpp:156] Memory required for data: 1135267104
I0403 19:48:18.762214  9688 layer_factory.hpp:77] Creating layer inception_4d/pool
I0403 19:48:18.762236  9688 net.cpp:91] Creating Layer inception_4d/pool
I0403 19:48:18.762254  9688 net.cpp:425] inception_4d/pool <- inception_4c/output_inception_4c/output_0_split_3
I0403 19:48:18.762284  9688 net.cpp:399] inception_4d/pool -> inception_4d/pool
I0403 19:48:18.762361  9688 net.cpp:141] Setting up inception_4d/pool
I0403 19:48:18.762387  9688 net.cpp:148] Top shape: 24 512 14 14 (2408448)
I0403 19:48:18.762401  9688 net.cpp:156] Memory required for data: 1144900896
I0403 19:48:18.762416  9688 layer_factory.hpp:77] Creating layer inception_4d/pool_proj
I0403 19:48:18.762439  9688 net.cpp:91] Creating Layer inception_4d/pool_proj
I0403 19:48:18.762459  9688 net.cpp:425] inception_4d/pool_proj <- inception_4d/pool
I0403 19:48:18.762480  9688 net.cpp:399] inception_4d/pool_proj -> inception_4d/pool_proj
I0403 19:48:18.764299  9688 net.cpp:141] Setting up inception_4d/pool_proj
I0403 19:48:18.764331  9688 net.cpp:148] Top shape: 24 64 14 14 (301056)
I0403 19:48:18.764348  9688 net.cpp:156] Memory required for data: 1146105120
I0403 19:48:18.764366  9688 layer_factory.hpp:77] Creating layer inception_4d/relu_pool_proj
I0403 19:48:18.764390  9688 net.cpp:91] Creating Layer inception_4d/relu_pool_proj
I0403 19:48:18.764408  9688 net.cpp:425] inception_4d/relu_pool_proj <- inception_4d/pool_proj
I0403 19:48:18.764426  9688 net.cpp:386] inception_4d/relu_pool_proj -> inception_4d/pool_proj (in-place)
I0403 19:48:18.764616  9688 net.cpp:141] Setting up inception_4d/relu_pool_proj
I0403 19:48:18.764643  9688 net.cpp:148] Top shape: 24 64 14 14 (301056)
I0403 19:48:18.764662  9688 net.cpp:156] Memory required for data: 1147309344
I0403 19:48:18.764678  9688 layer_factory.hpp:77] Creating layer inception_4d/output
I0403 19:48:18.764696  9688 net.cpp:91] Creating Layer inception_4d/output
I0403 19:48:18.764713  9688 net.cpp:425] inception_4d/output <- inception_4d/1x1
I0403 19:48:18.764730  9688 net.cpp:425] inception_4d/output <- inception_4d/3x3
I0403 19:48:18.764746  9688 net.cpp:425] inception_4d/output <- inception_4d/5x5
I0403 19:48:18.764763  9688 net.cpp:425] inception_4d/output <- inception_4d/pool_proj
I0403 19:48:18.764780  9688 net.cpp:399] inception_4d/output -> inception_4d/output
I0403 19:48:18.764832  9688 net.cpp:141] Setting up inception_4d/output
I0403 19:48:18.764855  9688 net.cpp:148] Top shape: 24 528 14 14 (2483712)
I0403 19:48:18.764871  9688 net.cpp:156] Memory required for data: 1157244192
I0403 19:48:18.764886  9688 layer_factory.hpp:77] Creating layer inception_4d/output_inception_4d/output_0_split
I0403 19:48:18.764905  9688 net.cpp:91] Creating Layer inception_4d/output_inception_4d/output_0_split
I0403 19:48:18.764924  9688 net.cpp:425] inception_4d/output_inception_4d/output_0_split <- inception_4d/output
I0403 19:48:18.764941  9688 net.cpp:399] inception_4d/output_inception_4d/output_0_split -> inception_4d/output_inception_4d/output_0_split_0
I0403 19:48:18.764962  9688 net.cpp:399] inception_4d/output_inception_4d/output_0_split -> inception_4d/output_inception_4d/output_0_split_1
I0403 19:48:18.764983  9688 net.cpp:399] inception_4d/output_inception_4d/output_0_split -> inception_4d/output_inception_4d/output_0_split_2
I0403 19:48:18.765005  9688 net.cpp:399] inception_4d/output_inception_4d/output_0_split -> inception_4d/output_inception_4d/output_0_split_3
I0403 19:48:18.765025  9688 net.cpp:399] inception_4d/output_inception_4d/output_0_split -> inception_4d/output_inception_4d/output_0_split_4
I0403 19:48:18.765132  9688 net.cpp:141] Setting up inception_4d/output_inception_4d/output_0_split
I0403 19:48:18.765169  9688 net.cpp:148] Top shape: 24 528 14 14 (2483712)
I0403 19:48:18.765187  9688 net.cpp:148] Top shape: 24 528 14 14 (2483712)
I0403 19:48:18.765204  9688 net.cpp:148] Top shape: 24 528 14 14 (2483712)
I0403 19:48:18.765223  9688 net.cpp:148] Top shape: 24 528 14 14 (2483712)
I0403 19:48:18.765239  9688 net.cpp:148] Top shape: 24 528 14 14 (2483712)
I0403 19:48:18.765254  9688 net.cpp:156] Memory required for data: 1206918432
I0403 19:48:18.765269  9688 layer_factory.hpp:77] Creating layer loss2/ave_pool
I0403 19:48:18.765305  9688 net.cpp:91] Creating Layer loss2/ave_pool
I0403 19:48:18.765321  9688 net.cpp:425] loss2/ave_pool <- inception_4d/output_inception_4d/output_0_split_0
I0403 19:48:18.765344  9688 net.cpp:399] loss2/ave_pool -> loss2/ave_pool
I0403 19:48:18.765678  9688 net.cpp:141] Setting up loss2/ave_pool
I0403 19:48:18.765708  9688 net.cpp:148] Top shape: 24 528 4 4 (202752)
I0403 19:48:18.765724  9688 net.cpp:156] Memory required for data: 1207729440
I0403 19:48:18.765739  9688 layer_factory.hpp:77] Creating layer loss2/conv
I0403 19:48:18.765763  9688 net.cpp:91] Creating Layer loss2/conv
I0403 19:48:18.765789  9688 net.cpp:425] loss2/conv <- loss2/ave_pool
I0403 19:48:18.765810  9688 net.cpp:399] loss2/conv -> loss2/conv
I0403 19:48:18.767781  9688 net.cpp:141] Setting up loss2/conv
I0403 19:48:18.767814  9688 net.cpp:148] Top shape: 24 128 4 4 (49152)
I0403 19:48:18.767832  9688 net.cpp:156] Memory required for data: 1207926048
I0403 19:48:18.767851  9688 layer_factory.hpp:77] Creating layer loss2/relu_conv
I0403 19:48:18.767871  9688 net.cpp:91] Creating Layer loss2/relu_conv
I0403 19:48:18.767889  9688 net.cpp:425] loss2/relu_conv <- loss2/conv
I0403 19:48:18.767909  9688 net.cpp:386] loss2/relu_conv -> loss2/conv (in-place)
I0403 19:48:18.768209  9688 net.cpp:141] Setting up loss2/relu_conv
I0403 19:48:18.768240  9688 net.cpp:148] Top shape: 24 128 4 4 (49152)
I0403 19:48:18.768259  9688 net.cpp:156] Memory required for data: 1208122656
I0403 19:48:18.768280  9688 layer_factory.hpp:77] Creating layer loss2/fc
I0403 19:48:18.768302  9688 net.cpp:91] Creating Layer loss2/fc
I0403 19:48:18.768321  9688 net.cpp:425] loss2/fc <- loss2/conv
I0403 19:48:18.768343  9688 net.cpp:399] loss2/fc -> loss2/fc
I0403 19:48:18.787010  9688 net.cpp:141] Setting up loss2/fc
I0403 19:48:18.787065  9688 net.cpp:148] Top shape: 24 1024 (24576)
I0403 19:48:18.787081  9688 net.cpp:156] Memory required for data: 1208220960
I0403 19:48:18.787101  9688 layer_factory.hpp:77] Creating layer loss2/relu_fc
I0403 19:48:18.787123  9688 net.cpp:91] Creating Layer loss2/relu_fc
I0403 19:48:18.787140  9688 net.cpp:425] loss2/relu_fc <- loss2/fc
I0403 19:48:18.787158  9688 net.cpp:386] loss2/relu_fc -> loss2/fc (in-place)
I0403 19:48:18.787500  9688 net.cpp:141] Setting up loss2/relu_fc
I0403 19:48:18.787528  9688 net.cpp:148] Top shape: 24 1024 (24576)
I0403 19:48:18.787544  9688 net.cpp:156] Memory required for data: 1208319264
I0403 19:48:18.787559  9688 layer_factory.hpp:77] Creating layer loss2/drop_fc
I0403 19:48:18.787580  9688 net.cpp:91] Creating Layer loss2/drop_fc
I0403 19:48:18.787597  9688 net.cpp:425] loss2/drop_fc <- loss2/fc
I0403 19:48:18.787614  9688 net.cpp:386] loss2/drop_fc -> loss2/fc (in-place)
I0403 19:48:18.787667  9688 net.cpp:141] Setting up loss2/drop_fc
I0403 19:48:18.787690  9688 net.cpp:148] Top shape: 24 1024 (24576)
I0403 19:48:18.787705  9688 net.cpp:156] Memory required for data: 1208417568
I0403 19:48:18.787720  9688 layer_factory.hpp:77] Creating layer loss2/classifier_plantvillage
I0403 19:48:18.787739  9688 net.cpp:91] Creating Layer loss2/classifier_plantvillage
I0403 19:48:18.787755  9688 net.cpp:425] loss2/classifier_plantvillage <- loss2/fc
I0403 19:48:18.787778  9688 net.cpp:399] loss2/classifier_plantvillage -> loss2/classifier_plantvillage
I0403 19:48:18.788193  9688 net.cpp:141] Setting up loss2/classifier_plantvillage
I0403 19:48:18.788219  9688 net.cpp:148] Top shape: 24 38 (912)
I0403 19:48:18.788234  9688 net.cpp:156] Memory required for data: 1208421216
I0403 19:48:18.788281  9688 layer_factory.hpp:77] Creating layer loss2/classifier_plantvillage_loss2/classifier_plantvillage_0_split
I0403 19:48:18.788302  9688 net.cpp:91] Creating Layer loss2/classifier_plantvillage_loss2/classifier_plantvillage_0_split
I0403 19:48:18.788318  9688 net.cpp:425] loss2/classifier_plantvillage_loss2/classifier_plantvillage_0_split <- loss2/classifier_plantvillage
I0403 19:48:18.788336  9688 net.cpp:399] loss2/classifier_plantvillage_loss2/classifier_plantvillage_0_split -> loss2/classifier_plantvillage_loss2/classifier_plantvillage_0_split_0
I0403 19:48:18.788359  9688 net.cpp:399] loss2/classifier_plantvillage_loss2/classifier_plantvillage_0_split -> loss2/classifier_plantvillage_loss2/classifier_plantvillage_0_split_1
I0403 19:48:18.788381  9688 net.cpp:399] loss2/classifier_plantvillage_loss2/classifier_plantvillage_0_split -> loss2/classifier_plantvillage_loss2/classifier_plantvillage_0_split_2
I0403 19:48:18.788458  9688 net.cpp:141] Setting up loss2/classifier_plantvillage_loss2/classifier_plantvillage_0_split
I0403 19:48:18.788481  9688 net.cpp:148] Top shape: 24 38 (912)
I0403 19:48:18.788501  9688 net.cpp:148] Top shape: 24 38 (912)
I0403 19:48:18.788516  9688 net.cpp:148] Top shape: 24 38 (912)
I0403 19:48:18.788530  9688 net.cpp:156] Memory required for data: 1208432160
I0403 19:48:18.788544  9688 layer_factory.hpp:77] Creating layer inception_4e/1x1
I0403 19:48:18.788565  9688 net.cpp:91] Creating Layer inception_4e/1x1
I0403 19:48:18.788583  9688 net.cpp:425] inception_4e/1x1 <- inception_4d/output_inception_4d/output_0_split_1
I0403 19:48:18.788604  9688 net.cpp:399] inception_4e/1x1 -> inception_4e/1x1
I0403 19:48:18.790465  9688 net.cpp:141] Setting up inception_4e/1x1
I0403 19:48:18.790495  9688 net.cpp:148] Top shape: 24 256 14 14 (1204224)
I0403 19:48:18.790513  9688 net.cpp:156] Memory required for data: 1213249056
I0403 19:48:18.790531  9688 layer_factory.hpp:77] Creating layer inception_4e/relu_1x1
I0403 19:48:18.790549  9688 net.cpp:91] Creating Layer inception_4e/relu_1x1
I0403 19:48:18.790565  9688 net.cpp:425] inception_4e/relu_1x1 <- inception_4e/1x1
I0403 19:48:18.790585  9688 net.cpp:386] inception_4e/relu_1x1 -> inception_4e/1x1 (in-place)
I0403 19:48:18.790894  9688 net.cpp:141] Setting up inception_4e/relu_1x1
I0403 19:48:18.790922  9688 net.cpp:148] Top shape: 24 256 14 14 (1204224)
I0403 19:48:18.790940  9688 net.cpp:156] Memory required for data: 1218065952
I0403 19:48:18.790956  9688 layer_factory.hpp:77] Creating layer inception_4e/3x3_reduce
I0403 19:48:18.790977  9688 net.cpp:91] Creating Layer inception_4e/3x3_reduce
I0403 19:48:18.790995  9688 net.cpp:425] inception_4e/3x3_reduce <- inception_4d/output_inception_4d/output_0_split_2
I0403 19:48:18.791014  9688 net.cpp:399] inception_4e/3x3_reduce -> inception_4e/3x3_reduce
I0403 19:48:18.793192  9688 net.cpp:141] Setting up inception_4e/3x3_reduce
I0403 19:48:18.793223  9688 net.cpp:148] Top shape: 24 160 14 14 (752640)
I0403 19:48:18.793244  9688 net.cpp:156] Memory required for data: 1221076512
I0403 19:48:18.793265  9688 layer_factory.hpp:77] Creating layer inception_4e/relu_3x3_reduce
I0403 19:48:18.793290  9688 net.cpp:91] Creating Layer inception_4e/relu_3x3_reduce
I0403 19:48:18.793309  9688 net.cpp:425] inception_4e/relu_3x3_reduce <- inception_4e/3x3_reduce
I0403 19:48:18.793329  9688 net.cpp:386] inception_4e/relu_3x3_reduce -> inception_4e/3x3_reduce (in-place)
I0403 19:48:18.793522  9688 net.cpp:141] Setting up inception_4e/relu_3x3_reduce
I0403 19:48:18.793551  9688 net.cpp:148] Top shape: 24 160 14 14 (752640)
I0403 19:48:18.793568  9688 net.cpp:156] Memory required for data: 1224087072
I0403 19:48:18.793586  9688 layer_factory.hpp:77] Creating layer inception_4e/3x3
I0403 19:48:18.793609  9688 net.cpp:91] Creating Layer inception_4e/3x3
I0403 19:48:18.793628  9688 net.cpp:425] inception_4e/3x3 <- inception_4e/3x3_reduce
I0403 19:48:18.793648  9688 net.cpp:399] inception_4e/3x3 -> inception_4e/3x3
I0403 19:48:18.798701  9688 net.cpp:141] Setting up inception_4e/3x3
I0403 19:48:18.798744  9688 net.cpp:148] Top shape: 24 320 14 14 (1505280)
I0403 19:48:18.798763  9688 net.cpp:156] Memory required for data: 1230108192
I0403 19:48:18.798784  9688 layer_factory.hpp:77] Creating layer inception_4e/relu_3x3
I0403 19:48:18.798802  9688 net.cpp:91] Creating Layer inception_4e/relu_3x3
I0403 19:48:18.798818  9688 net.cpp:425] inception_4e/relu_3x3 <- inception_4e/3x3
I0403 19:48:18.798838  9688 net.cpp:386] inception_4e/relu_3x3 -> inception_4e/3x3 (in-place)
I0403 19:48:18.799139  9688 net.cpp:141] Setting up inception_4e/relu_3x3
I0403 19:48:18.799176  9688 net.cpp:148] Top shape: 24 320 14 14 (1505280)
I0403 19:48:18.799193  9688 net.cpp:156] Memory required for data: 1236129312
I0403 19:48:18.799209  9688 layer_factory.hpp:77] Creating layer inception_4e/5x5_reduce
I0403 19:48:18.799233  9688 net.cpp:91] Creating Layer inception_4e/5x5_reduce
I0403 19:48:18.799252  9688 net.cpp:425] inception_4e/5x5_reduce <- inception_4d/output_inception_4d/output_0_split_3
I0403 19:48:18.799279  9688 net.cpp:399] inception_4e/5x5_reduce -> inception_4e/5x5_reduce
I0403 19:48:18.800382  9688 net.cpp:141] Setting up inception_4e/5x5_reduce
I0403 19:48:18.800412  9688 net.cpp:148] Top shape: 24 32 14 14 (150528)
I0403 19:48:18.800429  9688 net.cpp:156] Memory required for data: 1236731424
I0403 19:48:18.800448  9688 layer_factory.hpp:77] Creating layer inception_4e/relu_5x5_reduce
I0403 19:48:18.800472  9688 net.cpp:91] Creating Layer inception_4e/relu_5x5_reduce
I0403 19:48:18.800490  9688 net.cpp:425] inception_4e/relu_5x5_reduce <- inception_4e/5x5_reduce
I0403 19:48:18.800508  9688 net.cpp:386] inception_4e/relu_5x5_reduce -> inception_4e/5x5_reduce (in-place)
I0403 19:48:18.800820  9688 net.cpp:141] Setting up inception_4e/relu_5x5_reduce
I0403 19:48:18.800848  9688 net.cpp:148] Top shape: 24 32 14 14 (150528)
I0403 19:48:18.800863  9688 net.cpp:156] Memory required for data: 1237333536
I0403 19:48:18.800878  9688 layer_factory.hpp:77] Creating layer inception_4e/5x5
I0403 19:48:18.800918  9688 net.cpp:91] Creating Layer inception_4e/5x5
I0403 19:48:18.800937  9688 net.cpp:425] inception_4e/5x5 <- inception_4e/5x5_reduce
I0403 19:48:18.800956  9688 net.cpp:399] inception_4e/5x5 -> inception_4e/5x5
I0403 19:48:18.802816  9688 net.cpp:141] Setting up inception_4e/5x5
I0403 19:48:18.802845  9688 net.cpp:148] Top shape: 24 128 14 14 (602112)
I0403 19:48:18.802862  9688 net.cpp:156] Memory required for data: 1239741984
I0403 19:48:18.802882  9688 layer_factory.hpp:77] Creating layer inception_4e/relu_5x5
I0403 19:48:18.802902  9688 net.cpp:91] Creating Layer inception_4e/relu_5x5
I0403 19:48:18.802919  9688 net.cpp:425] inception_4e/relu_5x5 <- inception_4e/5x5
I0403 19:48:18.802937  9688 net.cpp:386] inception_4e/relu_5x5 -> inception_4e/5x5 (in-place)
I0403 19:48:18.803135  9688 net.cpp:141] Setting up inception_4e/relu_5x5
I0403 19:48:18.803164  9688 net.cpp:148] Top shape: 24 128 14 14 (602112)
I0403 19:48:18.803194  9688 net.cpp:156] Memory required for data: 1242150432
I0403 19:48:18.803212  9688 layer_factory.hpp:77] Creating layer inception_4e/pool
I0403 19:48:18.803232  9688 net.cpp:91] Creating Layer inception_4e/pool
I0403 19:48:18.803248  9688 net.cpp:425] inception_4e/pool <- inception_4d/output_inception_4d/output_0_split_4
I0403 19:48:18.803268  9688 net.cpp:399] inception_4e/pool -> inception_4e/pool
I0403 19:48:18.803347  9688 net.cpp:141] Setting up inception_4e/pool
I0403 19:48:18.803372  9688 net.cpp:148] Top shape: 24 528 14 14 (2483712)
I0403 19:48:18.803388  9688 net.cpp:156] Memory required for data: 1252085280
I0403 19:48:18.803405  9688 layer_factory.hpp:77] Creating layer inception_4e/pool_proj
I0403 19:48:18.803426  9688 net.cpp:91] Creating Layer inception_4e/pool_proj
I0403 19:48:18.803445  9688 net.cpp:425] inception_4e/pool_proj <- inception_4e/pool
I0403 19:48:18.803467  9688 net.cpp:399] inception_4e/pool_proj -> inception_4e/pool_proj
I0403 19:48:18.805047  9688 net.cpp:141] Setting up inception_4e/pool_proj
I0403 19:48:18.805076  9688 net.cpp:148] Top shape: 24 128 14 14 (602112)
I0403 19:48:18.805106  9688 net.cpp:156] Memory required for data: 1254493728
I0403 19:48:18.805127  9688 layer_factory.hpp:77] Creating layer inception_4e/relu_pool_proj
I0403 19:48:18.805147  9688 net.cpp:91] Creating Layer inception_4e/relu_pool_proj
I0403 19:48:18.805166  9688 net.cpp:425] inception_4e/relu_pool_proj <- inception_4e/pool_proj
I0403 19:48:18.805183  9688 net.cpp:386] inception_4e/relu_pool_proj -> inception_4e/pool_proj (in-place)
I0403 19:48:18.805486  9688 net.cpp:141] Setting up inception_4e/relu_pool_proj
I0403 19:48:18.805521  9688 net.cpp:148] Top shape: 24 128 14 14 (602112)
I0403 19:48:18.805536  9688 net.cpp:156] Memory required for data: 1256902176
I0403 19:48:18.805552  9688 layer_factory.hpp:77] Creating layer inception_4e/output
I0403 19:48:18.805569  9688 net.cpp:91] Creating Layer inception_4e/output
I0403 19:48:18.805585  9688 net.cpp:425] inception_4e/output <- inception_4e/1x1
I0403 19:48:18.805603  9688 net.cpp:425] inception_4e/output <- inception_4e/3x3
I0403 19:48:18.805619  9688 net.cpp:425] inception_4e/output <- inception_4e/5x5
I0403 19:48:18.805634  9688 net.cpp:425] inception_4e/output <- inception_4e/pool_proj
I0403 19:48:18.805652  9688 net.cpp:399] inception_4e/output -> inception_4e/output
I0403 19:48:18.805706  9688 net.cpp:141] Setting up inception_4e/output
I0403 19:48:18.805729  9688 net.cpp:148] Top shape: 24 832 14 14 (3913728)
I0403 19:48:18.805744  9688 net.cpp:156] Memory required for data: 1272557088
I0403 19:48:18.805759  9688 layer_factory.hpp:77] Creating layer pool4/3x3_s2
I0403 19:48:18.805776  9688 net.cpp:91] Creating Layer pool4/3x3_s2
I0403 19:48:18.805793  9688 net.cpp:425] pool4/3x3_s2 <- inception_4e/output
I0403 19:48:18.805822  9688 net.cpp:399] pool4/3x3_s2 -> pool4/3x3_s2
I0403 19:48:18.805891  9688 net.cpp:141] Setting up pool4/3x3_s2
I0403 19:48:18.805914  9688 net.cpp:148] Top shape: 24 832 7 7 (978432)
I0403 19:48:18.805929  9688 net.cpp:156] Memory required for data: 1276470816
I0403 19:48:18.805944  9688 layer_factory.hpp:77] Creating layer pool4/3x3_s2_pool4/3x3_s2_0_split
I0403 19:48:18.805964  9688 net.cpp:91] Creating Layer pool4/3x3_s2_pool4/3x3_s2_0_split
I0403 19:48:18.805980  9688 net.cpp:425] pool4/3x3_s2_pool4/3x3_s2_0_split <- pool4/3x3_s2
I0403 19:48:18.805999  9688 net.cpp:399] pool4/3x3_s2_pool4/3x3_s2_0_split -> pool4/3x3_s2_pool4/3x3_s2_0_split_0
I0403 19:48:18.806023  9688 net.cpp:399] pool4/3x3_s2_pool4/3x3_s2_0_split -> pool4/3x3_s2_pool4/3x3_s2_0_split_1
I0403 19:48:18.806046  9688 net.cpp:399] pool4/3x3_s2_pool4/3x3_s2_0_split -> pool4/3x3_s2_pool4/3x3_s2_0_split_2
I0403 19:48:18.806066  9688 net.cpp:399] pool4/3x3_s2_pool4/3x3_s2_0_split -> pool4/3x3_s2_pool4/3x3_s2_0_split_3
I0403 19:48:18.806154  9688 net.cpp:141] Setting up pool4/3x3_s2_pool4/3x3_s2_0_split
I0403 19:48:18.806179  9688 net.cpp:148] Top shape: 24 832 7 7 (978432)
I0403 19:48:18.806195  9688 net.cpp:148] Top shape: 24 832 7 7 (978432)
I0403 19:48:18.806210  9688 net.cpp:148] Top shape: 24 832 7 7 (978432)
I0403 19:48:18.806226  9688 net.cpp:148] Top shape: 24 832 7 7 (978432)
I0403 19:48:18.806239  9688 net.cpp:156] Memory required for data: 1292125728
I0403 19:48:18.806253  9688 layer_factory.hpp:77] Creating layer inception_5a/1x1
I0403 19:48:18.806279  9688 net.cpp:91] Creating Layer inception_5a/1x1
I0403 19:48:18.806298  9688 net.cpp:425] inception_5a/1x1 <- pool4/3x3_s2_pool4/3x3_s2_0_split_0
I0403 19:48:18.806319  9688 net.cpp:399] inception_5a/1x1 -> inception_5a/1x1
I0403 19:48:18.809185  9688 net.cpp:141] Setting up inception_5a/1x1
I0403 19:48:18.809213  9688 net.cpp:148] Top shape: 24 256 7 7 (301056)
I0403 19:48:18.809231  9688 net.cpp:156] Memory required for data: 1293329952
I0403 19:48:18.809248  9688 layer_factory.hpp:77] Creating layer inception_5a/relu_1x1
I0403 19:48:18.809269  9688 net.cpp:91] Creating Layer inception_5a/relu_1x1
I0403 19:48:18.809291  9688 net.cpp:425] inception_5a/relu_1x1 <- inception_5a/1x1
I0403 19:48:18.809309  9688 net.cpp:386] inception_5a/relu_1x1 -> inception_5a/1x1 (in-place)
I0403 19:48:18.809623  9688 net.cpp:141] Setting up inception_5a/relu_1x1
I0403 19:48:18.809650  9688 net.cpp:148] Top shape: 24 256 7 7 (301056)
I0403 19:48:18.809665  9688 net.cpp:156] Memory required for data: 1294534176
I0403 19:48:18.809680  9688 layer_factory.hpp:77] Creating layer inception_5a/3x3_reduce
I0403 19:48:18.809715  9688 net.cpp:91] Creating Layer inception_5a/3x3_reduce
I0403 19:48:18.809734  9688 net.cpp:425] inception_5a/3x3_reduce <- pool4/3x3_s2_pool4/3x3_s2_0_split_1
I0403 19:48:18.809756  9688 net.cpp:399] inception_5a/3x3_reduce -> inception_5a/3x3_reduce
I0403 19:48:18.812227  9688 net.cpp:141] Setting up inception_5a/3x3_reduce
I0403 19:48:18.812258  9688 net.cpp:148] Top shape: 24 160 7 7 (188160)
I0403 19:48:18.812283  9688 net.cpp:156] Memory required for data: 1295286816
I0403 19:48:18.812305  9688 layer_factory.hpp:77] Creating layer inception_5a/relu_3x3_reduce
I0403 19:48:18.812325  9688 net.cpp:91] Creating Layer inception_5a/relu_3x3_reduce
I0403 19:48:18.812342  9688 net.cpp:425] inception_5a/relu_3x3_reduce <- inception_5a/3x3_reduce
I0403 19:48:18.812363  9688 net.cpp:386] inception_5a/relu_3x3_reduce -> inception_5a/3x3_reduce (in-place)
I0403 19:48:18.812553  9688 net.cpp:141] Setting up inception_5a/relu_3x3_reduce
I0403 19:48:18.812579  9688 net.cpp:148] Top shape: 24 160 7 7 (188160)
I0403 19:48:18.812594  9688 net.cpp:156] Memory required for data: 1296039456
I0403 19:48:18.812609  9688 layer_factory.hpp:77] Creating layer inception_5a/3x3
I0403 19:48:18.812631  9688 net.cpp:91] Creating Layer inception_5a/3x3
I0403 19:48:18.812649  9688 net.cpp:425] inception_5a/3x3 <- inception_5a/3x3_reduce
I0403 19:48:18.812671  9688 net.cpp:399] inception_5a/3x3 -> inception_5a/3x3
I0403 19:48:18.817893  9688 net.cpp:141] Setting up inception_5a/3x3
I0403 19:48:18.817924  9688 net.cpp:148] Top shape: 24 320 7 7 (376320)
I0403 19:48:18.817941  9688 net.cpp:156] Memory required for data: 1297544736
I0403 19:48:18.817973  9688 layer_factory.hpp:77] Creating layer inception_5a/relu_3x3
I0403 19:48:18.817994  9688 net.cpp:91] Creating Layer inception_5a/relu_3x3
I0403 19:48:18.818012  9688 net.cpp:425] inception_5a/relu_3x3 <- inception_5a/3x3
I0403 19:48:18.818030  9688 net.cpp:386] inception_5a/relu_3x3 -> inception_5a/3x3 (in-place)
I0403 19:48:18.818366  9688 net.cpp:141] Setting up inception_5a/relu_3x3
I0403 19:48:18.818393  9688 net.cpp:148] Top shape: 24 320 7 7 (376320)
I0403 19:48:18.818408  9688 net.cpp:156] Memory required for data: 1299050016
I0403 19:48:18.818425  9688 layer_factory.hpp:77] Creating layer inception_5a/5x5_reduce
I0403 19:48:18.818449  9688 net.cpp:91] Creating Layer inception_5a/5x5_reduce
I0403 19:48:18.818467  9688 net.cpp:425] inception_5a/5x5_reduce <- pool4/3x3_s2_pool4/3x3_s2_0_split_2
I0403 19:48:18.818490  9688 net.cpp:399] inception_5a/5x5_reduce -> inception_5a/5x5_reduce
I0403 19:48:18.819696  9688 net.cpp:141] Setting up inception_5a/5x5_reduce
I0403 19:48:18.819727  9688 net.cpp:148] Top shape: 24 32 7 7 (37632)
I0403 19:48:18.819746  9688 net.cpp:156] Memory required for data: 1299200544
I0403 19:48:18.819766  9688 layer_factory.hpp:77] Creating layer inception_5a/relu_5x5_reduce
I0403 19:48:18.819783  9688 net.cpp:91] Creating Layer inception_5a/relu_5x5_reduce
I0403 19:48:18.819800  9688 net.cpp:425] inception_5a/relu_5x5_reduce <- inception_5a/5x5_reduce
I0403 19:48:18.819819  9688 net.cpp:386] inception_5a/relu_5x5_reduce -> inception_5a/5x5_reduce (in-place)
I0403 19:48:18.820125  9688 net.cpp:141] Setting up inception_5a/relu_5x5_reduce
I0403 19:48:18.820157  9688 net.cpp:148] Top shape: 24 32 7 7 (37632)
I0403 19:48:18.820173  9688 net.cpp:156] Memory required for data: 1299351072
I0403 19:48:18.820188  9688 layer_factory.hpp:77] Creating layer inception_5a/5x5
I0403 19:48:18.820210  9688 net.cpp:91] Creating Layer inception_5a/5x5
I0403 19:48:18.820228  9688 net.cpp:425] inception_5a/5x5 <- inception_5a/5x5_reduce
I0403 19:48:18.820247  9688 net.cpp:399] inception_5a/5x5 -> inception_5a/5x5
I0403 19:48:18.821990  9688 net.cpp:141] Setting up inception_5a/5x5
I0403 19:48:18.822031  9688 net.cpp:148] Top shape: 24 128 7 7 (150528)
I0403 19:48:18.822048  9688 net.cpp:156] Memory required for data: 1299953184
I0403 19:48:18.822068  9688 layer_factory.hpp:77] Creating layer inception_5a/relu_5x5
I0403 19:48:18.822088  9688 net.cpp:91] Creating Layer inception_5a/relu_5x5
I0403 19:48:18.822105  9688 net.cpp:425] inception_5a/relu_5x5 <- inception_5a/5x5
I0403 19:48:18.822123  9688 net.cpp:386] inception_5a/relu_5x5 -> inception_5a/5x5 (in-place)
I0403 19:48:18.822332  9688 net.cpp:141] Setting up inception_5a/relu_5x5
I0403 19:48:18.822371  9688 net.cpp:148] Top shape: 24 128 7 7 (150528)
I0403 19:48:18.822386  9688 net.cpp:156] Memory required for data: 1300555296
I0403 19:48:18.822402  9688 layer_factory.hpp:77] Creating layer inception_5a/pool
I0403 19:48:18.822420  9688 net.cpp:91] Creating Layer inception_5a/pool
I0403 19:48:18.822437  9688 net.cpp:425] inception_5a/pool <- pool4/3x3_s2_pool4/3x3_s2_0_split_3
I0403 19:48:18.822456  9688 net.cpp:399] inception_5a/pool -> inception_5a/pool
I0403 19:48:18.822528  9688 net.cpp:141] Setting up inception_5a/pool
I0403 19:48:18.822553  9688 net.cpp:148] Top shape: 24 832 7 7 (978432)
I0403 19:48:18.822568  9688 net.cpp:156] Memory required for data: 1304469024
I0403 19:48:18.822583  9688 layer_factory.hpp:77] Creating layer inception_5a/pool_proj
I0403 19:48:18.822604  9688 net.cpp:91] Creating Layer inception_5a/pool_proj
I0403 19:48:18.822623  9688 net.cpp:425] inception_5a/pool_proj <- inception_5a/pool
I0403 19:48:18.822651  9688 net.cpp:399] inception_5a/pool_proj -> inception_5a/pool_proj
I0403 19:48:18.825026  9688 net.cpp:141] Setting up inception_5a/pool_proj
I0403 19:48:18.825054  9688 net.cpp:148] Top shape: 24 128 7 7 (150528)
I0403 19:48:18.825070  9688 net.cpp:156] Memory required for data: 1305071136
I0403 19:48:18.825088  9688 layer_factory.hpp:77] Creating layer inception_5a/relu_pool_proj
I0403 19:48:18.825109  9688 net.cpp:91] Creating Layer inception_5a/relu_pool_proj
I0403 19:48:18.825125  9688 net.cpp:425] inception_5a/relu_pool_proj <- inception_5a/pool_proj
I0403 19:48:18.825145  9688 net.cpp:386] inception_5a/relu_pool_proj -> inception_5a/pool_proj (in-place)
I0403 19:48:18.825445  9688 net.cpp:141] Setting up inception_5a/relu_pool_proj
I0403 19:48:18.825472  9688 net.cpp:148] Top shape: 24 128 7 7 (150528)
I0403 19:48:18.825489  9688 net.cpp:156] Memory required for data: 1305673248
I0403 19:48:18.825503  9688 layer_factory.hpp:77] Creating layer inception_5a/output
I0403 19:48:18.825521  9688 net.cpp:91] Creating Layer inception_5a/output
I0403 19:48:18.825541  9688 net.cpp:425] inception_5a/output <- inception_5a/1x1
I0403 19:48:18.825557  9688 net.cpp:425] inception_5a/output <- inception_5a/3x3
I0403 19:48:18.825572  9688 net.cpp:425] inception_5a/output <- inception_5a/5x5
I0403 19:48:18.825588  9688 net.cpp:425] inception_5a/output <- inception_5a/pool_proj
I0403 19:48:18.825606  9688 net.cpp:399] inception_5a/output -> inception_5a/output
I0403 19:48:18.825654  9688 net.cpp:141] Setting up inception_5a/output
I0403 19:48:18.825680  9688 net.cpp:148] Top shape: 24 832 7 7 (978432)
I0403 19:48:18.825695  9688 net.cpp:156] Memory required for data: 1309586976
I0403 19:48:18.825711  9688 layer_factory.hpp:77] Creating layer inception_5a/output_inception_5a/output_0_split
I0403 19:48:18.825727  9688 net.cpp:91] Creating Layer inception_5a/output_inception_5a/output_0_split
I0403 19:48:18.825743  9688 net.cpp:425] inception_5a/output_inception_5a/output_0_split <- inception_5a/output
I0403 19:48:18.825763  9688 net.cpp:399] inception_5a/output_inception_5a/output_0_split -> inception_5a/output_inception_5a/output_0_split_0
I0403 19:48:18.825784  9688 net.cpp:399] inception_5a/output_inception_5a/output_0_split -> inception_5a/output_inception_5a/output_0_split_1
I0403 19:48:18.825804  9688 net.cpp:399] inception_5a/output_inception_5a/output_0_split -> inception_5a/output_inception_5a/output_0_split_2
I0403 19:48:18.825824  9688 net.cpp:399] inception_5a/output_inception_5a/output_0_split -> inception_5a/output_inception_5a/output_0_split_3
I0403 19:48:18.825934  9688 net.cpp:141] Setting up inception_5a/output_inception_5a/output_0_split
I0403 19:48:18.825961  9688 net.cpp:148] Top shape: 24 832 7 7 (978432)
I0403 19:48:18.825978  9688 net.cpp:148] Top shape: 24 832 7 7 (978432)
I0403 19:48:18.825994  9688 net.cpp:148] Top shape: 24 832 7 7 (978432)
I0403 19:48:18.826009  9688 net.cpp:148] Top shape: 24 832 7 7 (978432)
I0403 19:48:18.826023  9688 net.cpp:156] Memory required for data: 1325241888
I0403 19:48:18.826037  9688 layer_factory.hpp:77] Creating layer inception_5b/1x1
I0403 19:48:18.826059  9688 net.cpp:91] Creating Layer inception_5b/1x1
I0403 19:48:18.826077  9688 net.cpp:425] inception_5b/1x1 <- inception_5a/output_inception_5a/output_0_split_0
I0403 19:48:18.826097  9688 net.cpp:399] inception_5b/1x1 -> inception_5b/1x1
I0403 19:48:18.829872  9688 net.cpp:141] Setting up inception_5b/1x1
I0403 19:48:18.829913  9688 net.cpp:148] Top shape: 24 384 7 7 (451584)
I0403 19:48:18.829931  9688 net.cpp:156] Memory required for data: 1327048224
I0403 19:48:18.829949  9688 layer_factory.hpp:77] Creating layer inception_5b/relu_1x1
I0403 19:48:18.829967  9688 net.cpp:91] Creating Layer inception_5b/relu_1x1
I0403 19:48:18.829984  9688 net.cpp:425] inception_5b/relu_1x1 <- inception_5b/1x1
I0403 19:48:18.830004  9688 net.cpp:386] inception_5b/relu_1x1 -> inception_5b/1x1 (in-place)
I0403 19:48:18.830327  9688 net.cpp:141] Setting up inception_5b/relu_1x1
I0403 19:48:18.830354  9688 net.cpp:148] Top shape: 24 384 7 7 (451584)
I0403 19:48:18.830370  9688 net.cpp:156] Memory required for data: 1328854560
I0403 19:48:18.830386  9688 layer_factory.hpp:77] Creating layer inception_5b/3x3_reduce
I0403 19:48:18.830410  9688 net.cpp:91] Creating Layer inception_5b/3x3_reduce
I0403 19:48:18.830428  9688 net.cpp:425] inception_5b/3x3_reduce <- inception_5a/output_inception_5a/output_0_split_1
I0403 19:48:18.830452  9688 net.cpp:399] inception_5b/3x3_reduce -> inception_5b/3x3_reduce
I0403 19:48:18.833210  9688 net.cpp:141] Setting up inception_5b/3x3_reduce
I0403 19:48:18.833240  9688 net.cpp:148] Top shape: 24 192 7 7 (225792)
I0403 19:48:18.833257  9688 net.cpp:156] Memory required for data: 1329757728
I0403 19:48:18.833281  9688 layer_factory.hpp:77] Creating layer inception_5b/relu_3x3_reduce
I0403 19:48:18.833305  9688 net.cpp:91] Creating Layer inception_5b/relu_3x3_reduce
I0403 19:48:18.833324  9688 net.cpp:425] inception_5b/relu_3x3_reduce <- inception_5b/3x3_reduce
I0403 19:48:18.833343  9688 net.cpp:386] inception_5b/relu_3x3_reduce -> inception_5b/3x3_reduce (in-place)
I0403 19:48:18.833539  9688 net.cpp:141] Setting up inception_5b/relu_3x3_reduce
I0403 19:48:18.833566  9688 net.cpp:148] Top shape: 24 192 7 7 (225792)
I0403 19:48:18.833583  9688 net.cpp:156] Memory required for data: 1330660896
I0403 19:48:18.833600  9688 layer_factory.hpp:77] Creating layer inception_5b/3x3
I0403 19:48:18.833624  9688 net.cpp:91] Creating Layer inception_5b/3x3
I0403 19:48:18.833644  9688 net.cpp:425] inception_5b/3x3 <- inception_5b/3x3_reduce
I0403 19:48:18.833663  9688 net.cpp:399] inception_5b/3x3 -> inception_5b/3x3
I0403 19:48:18.840605  9688 net.cpp:141] Setting up inception_5b/3x3
I0403 19:48:18.840637  9688 net.cpp:148] Top shape: 24 384 7 7 (451584)
I0403 19:48:18.840653  9688 net.cpp:156] Memory required for data: 1332467232
I0403 19:48:18.840672  9688 layer_factory.hpp:77] Creating layer inception_5b/relu_3x3
I0403 19:48:18.840693  9688 net.cpp:91] Creating Layer inception_5b/relu_3x3
I0403 19:48:18.840710  9688 net.cpp:425] inception_5b/relu_3x3 <- inception_5b/3x3
I0403 19:48:18.840728  9688 net.cpp:386] inception_5b/relu_3x3 -> inception_5b/3x3 (in-place)
I0403 19:48:18.841042  9688 net.cpp:141] Setting up inception_5b/relu_3x3
I0403 19:48:18.841068  9688 net.cpp:148] Top shape: 24 384 7 7 (451584)
I0403 19:48:18.841084  9688 net.cpp:156] Memory required for data: 1334273568
I0403 19:48:18.841099  9688 layer_factory.hpp:77] Creating layer inception_5b/5x5_reduce
I0403 19:48:18.841140  9688 net.cpp:91] Creating Layer inception_5b/5x5_reduce
I0403 19:48:18.841161  9688 net.cpp:425] inception_5b/5x5_reduce <- inception_5a/output_inception_5a/output_0_split_2
I0403 19:48:18.841186  9688 net.cpp:399] inception_5b/5x5_reduce -> inception_5b/5x5_reduce
I0403 19:48:18.842536  9688 net.cpp:141] Setting up inception_5b/5x5_reduce
I0403 19:48:18.842567  9688 net.cpp:148] Top shape: 24 48 7 7 (56448)
I0403 19:48:18.842583  9688 net.cpp:156] Memory required for data: 1334499360
I0403 19:48:18.842603  9688 layer_factory.hpp:77] Creating layer inception_5b/relu_5x5_reduce
I0403 19:48:18.842624  9688 net.cpp:91] Creating Layer inception_5b/relu_5x5_reduce
I0403 19:48:18.842643  9688 net.cpp:425] inception_5b/relu_5x5_reduce <- inception_5b/5x5_reduce
I0403 19:48:18.842661  9688 net.cpp:386] inception_5b/relu_5x5_reduce -> inception_5b/5x5_reduce (in-place)
I0403 19:48:18.843052  9688 net.cpp:141] Setting up inception_5b/relu_5x5_reduce
I0403 19:48:18.843081  9688 net.cpp:148] Top shape: 24 48 7 7 (56448)
I0403 19:48:18.843098  9688 net.cpp:156] Memory required for data: 1334725152
I0403 19:48:18.843114  9688 layer_factory.hpp:77] Creating layer inception_5b/5x5
I0403 19:48:18.843135  9688 net.cpp:91] Creating Layer inception_5b/5x5
I0403 19:48:18.843154  9688 net.cpp:425] inception_5b/5x5 <- inception_5b/5x5_reduce
I0403 19:48:18.843174  9688 net.cpp:399] inception_5b/5x5 -> inception_5b/5x5
I0403 19:48:18.845338  9688 net.cpp:141] Setting up inception_5b/5x5
I0403 19:48:18.845368  9688 net.cpp:148] Top shape: 24 128 7 7 (150528)
I0403 19:48:18.845386  9688 net.cpp:156] Memory required for data: 1335327264
I0403 19:48:18.845405  9688 layer_factory.hpp:77] Creating layer inception_5b/relu_5x5
I0403 19:48:18.845427  9688 net.cpp:91] Creating Layer inception_5b/relu_5x5
I0403 19:48:18.845444  9688 net.cpp:425] inception_5b/relu_5x5 <- inception_5b/5x5
I0403 19:48:18.845463  9688 net.cpp:386] inception_5b/relu_5x5 -> inception_5b/5x5 (in-place)
I0403 19:48:18.845669  9688 net.cpp:141] Setting up inception_5b/relu_5x5
I0403 19:48:18.845697  9688 net.cpp:148] Top shape: 24 128 7 7 (150528)
I0403 19:48:18.845715  9688 net.cpp:156] Memory required for data: 1335929376
I0403 19:48:18.845731  9688 layer_factory.hpp:77] Creating layer inception_5b/pool
I0403 19:48:18.845751  9688 net.cpp:91] Creating Layer inception_5b/pool
I0403 19:48:18.845767  9688 net.cpp:425] inception_5b/pool <- inception_5a/output_inception_5a/output_0_split_3
I0403 19:48:18.845789  9688 net.cpp:399] inception_5b/pool -> inception_5b/pool
I0403 19:48:18.845866  9688 net.cpp:141] Setting up inception_5b/pool
I0403 19:48:18.845892  9688 net.cpp:148] Top shape: 24 832 7 7 (978432)
I0403 19:48:18.845908  9688 net.cpp:156] Memory required for data: 1339843104
I0403 19:48:18.845926  9688 layer_factory.hpp:77] Creating layer inception_5b/pool_proj
I0403 19:48:18.845948  9688 net.cpp:91] Creating Layer inception_5b/pool_proj
I0403 19:48:18.845968  9688 net.cpp:425] inception_5b/pool_proj <- inception_5b/pool
I0403 19:48:18.845988  9688 net.cpp:399] inception_5b/pool_proj -> inception_5b/pool_proj
I0403 19:48:18.848390  9688 net.cpp:141] Setting up inception_5b/pool_proj
I0403 19:48:18.848422  9688 net.cpp:148] Top shape: 24 128 7 7 (150528)
I0403 19:48:18.848438  9688 net.cpp:156] Memory required for data: 1340445216
I0403 19:48:18.848459  9688 layer_factory.hpp:77] Creating layer inception_5b/relu_pool_proj
I0403 19:48:18.848480  9688 net.cpp:91] Creating Layer inception_5b/relu_pool_proj
I0403 19:48:18.848497  9688 net.cpp:425] inception_5b/relu_pool_proj <- inception_5b/pool_proj
I0403 19:48:18.848515  9688 net.cpp:386] inception_5b/relu_pool_proj -> inception_5b/pool_proj (in-place)
I0403 19:48:18.848827  9688 net.cpp:141] Setting up inception_5b/relu_pool_proj
I0403 19:48:18.848855  9688 net.cpp:148] Top shape: 24 128 7 7 (150528)
I0403 19:48:18.848870  9688 net.cpp:156] Memory required for data: 1341047328
I0403 19:48:18.848886  9688 layer_factory.hpp:77] Creating layer inception_5b/output
I0403 19:48:18.848903  9688 net.cpp:91] Creating Layer inception_5b/output
I0403 19:48:18.848937  9688 net.cpp:425] inception_5b/output <- inception_5b/1x1
I0403 19:48:18.848955  9688 net.cpp:425] inception_5b/output <- inception_5b/3x3
I0403 19:48:18.848971  9688 net.cpp:425] inception_5b/output <- inception_5b/5x5
I0403 19:48:18.848989  9688 net.cpp:425] inception_5b/output <- inception_5b/pool_proj
I0403 19:48:18.849009  9688 net.cpp:399] inception_5b/output -> inception_5b/output
I0403 19:48:18.849066  9688 net.cpp:141] Setting up inception_5b/output
I0403 19:48:18.849092  9688 net.cpp:148] Top shape: 24 1024 7 7 (1204224)
I0403 19:48:18.849107  9688 net.cpp:156] Memory required for data: 1345864224
I0403 19:48:18.849122  9688 layer_factory.hpp:77] Creating layer pool5/7x7_s1
I0403 19:48:18.849140  9688 net.cpp:91] Creating Layer pool5/7x7_s1
I0403 19:48:18.849156  9688 net.cpp:425] pool5/7x7_s1 <- inception_5b/output
I0403 19:48:18.849177  9688 net.cpp:399] pool5/7x7_s1 -> pool5/7x7_s1
I0403 19:48:18.849409  9688 net.cpp:141] Setting up pool5/7x7_s1
I0403 19:48:18.849436  9688 net.cpp:148] Top shape: 24 1024 1 1 (24576)
I0403 19:48:18.849452  9688 net.cpp:156] Memory required for data: 1345962528
I0403 19:48:18.849467  9688 layer_factory.hpp:77] Creating layer pool5/drop_7x7_s1
I0403 19:48:18.849488  9688 net.cpp:91] Creating Layer pool5/drop_7x7_s1
I0403 19:48:18.849504  9688 net.cpp:425] pool5/drop_7x7_s1 <- pool5/7x7_s1
I0403 19:48:18.849522  9688 net.cpp:386] pool5/drop_7x7_s1 -> pool5/7x7_s1 (in-place)
I0403 19:48:18.849576  9688 net.cpp:141] Setting up pool5/drop_7x7_s1
I0403 19:48:18.849601  9688 net.cpp:148] Top shape: 24 1024 1 1 (24576)
I0403 19:48:18.849614  9688 net.cpp:156] Memory required for data: 1346060832
I0403 19:48:18.849629  9688 layer_factory.hpp:77] Creating layer loss3/classifier_plantvillage
I0403 19:48:18.849649  9688 net.cpp:91] Creating Layer loss3/classifier_plantvillage
I0403 19:48:18.849666  9688 net.cpp:425] loss3/classifier_plantvillage <- pool5/7x7_s1
I0403 19:48:18.849689  9688 net.cpp:399] loss3/classifier_plantvillage -> loss3/classifier_plantvillage
I0403 19:48:18.850136  9688 net.cpp:141] Setting up loss3/classifier_plantvillage
I0403 19:48:18.850162  9688 net.cpp:148] Top shape: 24 38 (912)
I0403 19:48:18.850178  9688 net.cpp:156] Memory required for data: 1346064480
I0403 19:48:18.850198  9688 layer_factory.hpp:77] Creating layer loss3/classifier_plantvillage_loss3/classifier_plantvillage_0_split
I0403 19:48:18.850217  9688 net.cpp:91] Creating Layer loss3/classifier_plantvillage_loss3/classifier_plantvillage_0_split
I0403 19:48:18.850236  9688 net.cpp:425] loss3/classifier_plantvillage_loss3/classifier_plantvillage_0_split <- loss3/classifier_plantvillage
I0403 19:48:18.850258  9688 net.cpp:399] loss3/classifier_plantvillage_loss3/classifier_plantvillage_0_split -> loss3/classifier_plantvillage_loss3/classifier_plantvillage_0_split_0
I0403 19:48:18.850286  9688 net.cpp:399] loss3/classifier_plantvillage_loss3/classifier_plantvillage_0_split -> loss3/classifier_plantvillage_loss3/classifier_plantvillage_0_split_1
I0403 19:48:18.850308  9688 net.cpp:399] loss3/classifier_plantvillage_loss3/classifier_plantvillage_0_split -> loss3/classifier_plantvillage_loss3/classifier_plantvillage_0_split_2
I0403 19:48:18.850330  9688 net.cpp:399] loss3/classifier_plantvillage_loss3/classifier_plantvillage_0_split -> loss3/classifier_plantvillage_loss3/classifier_plantvillage_0_split_3
I0403 19:48:18.850435  9688 net.cpp:141] Setting up loss3/classifier_plantvillage_loss3/classifier_plantvillage_0_split
I0403 19:48:18.850461  9688 net.cpp:148] Top shape: 24 38 (912)
I0403 19:48:18.850478  9688 net.cpp:148] Top shape: 24 38 (912)
I0403 19:48:18.850495  9688 net.cpp:148] Top shape: 24 38 (912)
I0403 19:48:18.850510  9688 net.cpp:148] Top shape: 24 38 (912)
I0403 19:48:18.850525  9688 net.cpp:156] Memory required for data: 1346079072
I0403 19:48:18.850540  9688 layer_factory.hpp:77] Creating layer loss1/loss
I0403 19:48:18.850566  9688 net.cpp:91] Creating Layer loss1/loss
I0403 19:48:18.850584  9688 net.cpp:425] loss1/loss <- loss1/classifier_plantvillage_loss1/classifier_plantvillage_0_split_0
I0403 19:48:18.850616  9688 net.cpp:425] loss1/loss <- label_data_1_split_0
…
