…
I0403 19:32:22.312860  9368 net.cpp:313] The NetState phase (1) differed from the phase (0) specified by a rule in layer data
I0403 19:32:22.313980  9368 net.cpp:49] Initializing net from parameters: 
state {
  phase: TEST
}
layer {
  name: "data"
  type: "Data"
  top: "data"
  top: "label"
  include {
    phase: TEST
  }
  transform_param {
    mirror: false
    crop_size: 224
    mean_file: "/home/mohanty/data/final_dataset/lmdb/color-50-50/mean.binaryproto"
  }
  data_param {
    source: "/home/mohanty/data/final_dataset/lmdb/color-50-50/test_db"
    batch_size: 24
    backend: LMDB
  }
}
layer {
  name: "conv1/7x7_s2"
  type: "Convolution"
  bottom: "data"
  top: "conv1/7x7_s2"
  param {
    lr_mult: 1
    decay_mult: 1
  }
  param {
    lr_mult: 2
    decay_mult: 0
  }
  convolution_param {
    num_output: 64
    pad: 3
    kernel_size: 7
    stride: 2
    weight_filler {
      type: "xavier"
      std: 0.1
    }
    bias_filler {
      type: "constant"
      value: 0.2
    }
  }
}
layer {
  name: "conv1/relu_7x7"
  type: "ReLU"
  bottom: "conv1/7x7_s2"
  top: "conv1/7x7_s2"
}
layer {
  name: "pool1/3x3_s2"
  type: "Pooling"
  bottom: "conv1/7x7_s2"
  top: "pool1/3x3_s2"
  pooling_param {
    pool: MAX
    kernel_size: 3
    stride: 2
  }
}
layer {
  name: "pool1/norm1"
  type: "LRN"
  bottom: "pool1/3x3_s2"
  top: "pool1/norm1"
  lrn_param {
    local_size: 5
    alpha: 0.0001
    beta: 0.75
  }
}
layer {
  name: "conv2/3x3_reduce"
  type: "Convolution"
  bottom: "pool1/norm1"
  top: "conv2/3x3_reduce"
  param {
    lr_mult: 1
    decay_mult: 1
  }
  param {
    lr_mult: 2
    decay_mult: 0
  }
  convolution_param {
    num_output: 64
    kernel_size: 1
    weight_filler {
      type: "xavier"
      std: 0.1
    }
    bias_filler {
      type: "constant"
      value: 0.2
    }
  }
}
layer {
  name: "conv2/relu_3x3_reduce"
  type: "ReLU"
  bottom: "conv2/3x3_reduce"
  top: "conv2/3x3_reduce"
}
layer {
  name: "conv2/3x3"
  type: "Convolution"
  bottom: "conv2/3x3_reduce"
  top: "conv2/3x3"
  param {
    lr_mult: 1
    decay_mult: 1
  }
  param {
    lr_mult: 2
    decay_mult: 0
  }
  convolution_param {
    num_output: 192
    pad: 1
    kernel_size: 3
    weight_filler {
      type: "xavier"
      std: 0.03
    }
    bias_filler {
      type: "constant"
      value: 0.2
    }
  }
}
layer {
  name: "conv2/relu_3x3"
  type: "ReLU"
  bottom: "conv2/3x3"
  top: "conv2/3x3"
}
layer {
  name: "conv2/norm2"
  type: "LRN"
  bottom: "conv2/3x3"
  top: "conv2/norm2"
  lrn_param {
    local_size: 5
    alpha: 0.0001
    beta: 0.75
  }
}
layer {
  name: "pool2/3x3_s2"
  type: "Pooling"
  bottom: "conv2/norm2"
  top: "pool2/3x3_s2"
  pooling_param {
    pool: MAX
    kernel_size: 3
    stride: 2
  }
}
layer {
  name: "inception_3a/1x1"
  type: "Convolution"
  bottom: "pool2/3x3_s2"
  top: "inception_3a/1x1"
  param {
    lr_mult: 1
    decay_mult: 1
  }
  param {
    lr_mult: 2
    decay_mult: 0
  }
  convolution_param {
    num_output: 64
    kernel_size: 1
    weight_filler {
      type: "xavier"
      std: 0.03
    }
    bias_filler {
      type: "constant"
      value: 0.2
    }
  }
}
layer {
  name: "inception_3a/relu_1x1"
  type: "ReLU"
  bottom: "inception_3a/1x1"
  top: "inception_3a/1x1"
}
layer {
  name: "inception_3a/3x3_reduce"
  type: "Convolution"
  bottom: "pool2/3x3_s2"
  top: "inception_3a/3x3_reduce"
  param {
    lr_mult: 1
    decay_mult: 1
  }
  param {
    lr_mult: 2
    decay_mult: 0
  }
  convolution_param {
    num_output: 96
    kernel_size: 1
    weight_filler {
      type: "xavier"
      std: 0.09
    }
    bias_filler {
      type: "constant"
      value: 0.2
    }
  }
}
layer {
  name: "inception_3a/relu_3x3_reduce"
  type: "ReLU"
  bottom: "inception_3a/3x3_reduce"
  top: "inception_3a/3x3_reduce"
}
layer {
  name: "inception_3a/3x3"
  type: "Convolution"
  bottom: "inception_3a/3x3_reduce"
  top: "inception_3a/3x3"
  param {
    lr_mult: 1
    decay_mult: 1
  }
  param {
    lr_mult: 2
    decay_mult: 0
  }
  convolution_param {
    num_output: 128
    pad: 1
    kernel_size: 3
    weight_filler {
      type: "xavier"
      std: 0.03
    }
    bias_filler {
      type: "constant"
      value: 0.2
    }
  }
}
layer {
  name: "inception_3a/relu_3x3"
  type: "ReLU"
  bottom: "inception_3a/3x3"
  top: "inception_3a/3x3"
}
layer {
  name: "inception_3a/5x5_reduce"
  type: "Convolution"
  bottom: "pool2/3x3_s2"
  top: "inception_3a/5x5_reduce"
  param {
    lr_mult: 1
    decay_mult: 1
  }
  param {
    lr_mult: 2
    decay_mult: 0
  }
  convolution_param {
    num_output: 16
    kernel_size: 1
    weight_filler {
      type: "xavier"
      std: 0.2
    }
    bias_filler {
      type: "constant"
      value: 0.2
    }
  }
}
layer {
  name: "inception_3a/relu_5x5_reduce"
  type: "ReLU"
  bottom: "inception_3a/5x5_reduce"
  top: "inception_3a/5x5_reduce"
}
layer {
  name: "inception_3a/5x5"
  type: "Convolution"
  bottom: "inception_3a/5x5_reduce"
  top: "inception_3a/5x5"
  param {
    lr_mult: 1
    decay_mult: 1
  }
  param {
    lr_mult: 2
    decay_mult: 0
  }
  convolution_param {
    num_output: 32
    pad: 2
    kernel_size: 5
    weight_filler {
      type: "xavier"
      std: 0.03
    }
    bias_filler {
      type: "constant"
      value: 0.2
    }
  }
}
layer {
  name: "inception_3a/relu_5x5"
  type: "ReLU"
  bottom: "inception_3a/5x5"
  top: "inception_3a/5x5"
}
layer {
  name: "inception_3a/pool"
  type: "Pooling"
  bottom: "pool2/3x3_s2"
  top: "inception_3a/pool"
  pooling_param {
    pool: MAX
    kernel_size: 3
    stride: 1
    pad: 1
  }
}
layer {
  name: "inception_3a/pool_proj"
  type: "Convolution"
  bottom: "inception_3a/pool"
  top: "inception_3a/pool_proj"
  param {
    lr_mult: 1
    decay_mult: 1
  }
  param {
    lr_mult: 2
    decay_mult: 0
  }
  convolution_param {
    num_output: 32
    kernel_size: 1
    weight_filler {
      type: "xavier"
      std: 0.1
    }
    bias_filler {
      type: "constant"
      value: 0.2
    }
  }
}
layer {
  name: "inception_3a/relu_pool_proj"
  type: "ReLU"
  bottom: "inception_3a/pool_proj"
  top: "inception_3a/pool_proj"
}
layer {
  name: "inception_3a/output"
  type: "Concat"
  bottom: "inception_3a/1x1"
  bottom: "inception_3a/3x3"
  bottom: "inception_3a/5x5"
  bottom: "inception_3a/pool_proj"
  top: "inception_3a/output"
}
layer {
  name: "inception_3b/1x1"
  type: "Convolution"
  bottom: "inception_3a/output"
  top: "inception_3b/1x1"
  param {
    lr_mult: 1
    decay_mult: 1
  }
  param {
    lr_mult: 2
    decay_mult: 0
  }
  convolution_param {
    num_output: 128
    kernel_size: 1
    weight_filler {
      type: "xavier"
      std: 0.03
    }
    bias_filler {
      type: "constant"
      value: 0.2
    }
  }
}
layer {
  name: "inception_3b/relu_1x1"
  type: "ReLU"
  bottom: "inception_3b/1x1"
  top: "inception_3b/1x1"
}
layer {
  name: "inception_3b/3x3_reduce"
  type: "Convolution"
  bottom: "inception_3a/output"
  top: "inception_3b/3x3_reduce"
  param {
    lr_mult: 1
    decay_mult: 1
  }
  param {
    lr_mult: 2
    decay_mult: 0
  }
  convolution_param {
    num_output: 128
    kernel_size: 1
    weight_filler {
      type: "xavier"
      std: 0.09
    }
    bias_filler {
      type: "constant"
      value: 0.2
    }
  }
}
layer {
  name: "inception_3b/relu_3x3_reduce"
  type: "ReLU"
  bottom: "inception_3b/3x3_reduce"
  top: "inception_3b/3x3_reduce"
}
layer {
  name: "inception_3b/3x3"
  type: "Convolution"
  bottom: "inception_3b/3x3_reduce"
  top: "inception_3b/3x3"
  param {
    lr_mult: 1
    decay_mult: 1
  }
  param {
    lr_mult: 2
    decay_mult: 0
  }
  convolution_param {
    num_output: 192
    pad: 1
    kernel_size: 3
    weight_filler {
      type: "xavier"
      std: 0.03
    }
    bias_filler {
      type: "constant"
      value: 0.2
    }
  }
}
layer {
  name: "inception_3b/relu_3x3"
  type: "ReLU"
  bottom: "inception_3b/3x3"
  top: "inception_3b/3x3"
}
layer {
  name: "inception_3b/5x5_reduce"
  type: "Convolution"
  bottom: "inception_3a/output"
  top: "inception_3b/5x5_reduce"
  param {
    lr_mult: 1
    decay_mult: 1
  }
  param {
    lr_mult: 2
    decay_mult: 0
  }
  convolution_param {
    num_output: 32
    kernel_size: 1
    weight_filler {
      type: "xavier"
      std: 0.2
    }
    bias_filler {
      type: "constant"
      value: 0.2
    }
  }
}
layer {
  name: "inception_3b/relu_5x5_reduce"
  type: "ReLU"
  bottom: "inception_3b/5x5_reduce"
  top: "inception_3b/5x5_reduce"
}
layer {
  name: "inception_3b/5x5"
  type: "Convolution"
  bottom: "inception_3b/5x5_reduce"
  top: "inception_3b/5x5"
  param {
    lr_mult: 1
    decay_mult: 1
  }
  param {
    lr_mult: 2
    decay_mult: 0
  }
  convolution_param {
    num_output: 96
    pad: 2
    kernel_size: 5
    weight_filler {
      type: "xavier"
      std: 0.03
    }
    bias_filler {
      type: "constant"
      value: 0.2
    }
  }
}
layer {
  name: "inception_3b/relu_5x5"
  type: "ReLU"
  bottom: "inception_3b/5x5"
  top: "inception_3b/5x5"
}
layer {
  name: "inception_3b/pool"
  type: "Pooling"
  bottom: "inception_3a/output"
  top: "inception_3b/pool"
  pooling_param {
    pool: MAX
    kernel_size: 3
    stride: 1
    pad: 1
  }
}
layer {
  name: "inception_3b/pool_proj"
  type: "Convolution"
  bottom: "inception_3b/pool"
  top: "inception_3b/pool_proj"
  param {
    lr_mult: 1
    decay_mult: 1
  }
  param {
    lr_mult: 2
    decay_mult: 0
  }
  convolution_param {
    num_output: 64
    kernel_size: 1
    weight_filler {
      type: "xavier"
      std: 0.1
    }
    bias_filler {
      type: "constant"
      value: 0.2
    }
  }
}
layer {
  name: "inception_3b/relu_pool_proj"
  type: "ReLU"
  bottom: "inception_3b/pool_proj"
  top: "inception_3b/pool_proj"
}
layer {
  name: "inception_3b/output"
  type: "Concat"
  bottom: "inception_3b/1x1"
  bottom: "inception_3b/3x3"
  bottom: "inception_3b/5x5"
  bottom: "inception_3b/pool_proj"
  top: "inception_3b/output"
}
layer {
  name: "pool3/3x3_s2"
  type: "Pooling"
  bottom: "inception_3b/output"
  top: "pool3/3x3_s2"
  pooling_param {
    pool: MAX
    kernel_size: 3
    stride: 2
  }
}
layer {
  name: "inception_4a/1x1"
  type: "Convolution"
  bottom: "pool3/3x3_s2"
  top: "inception_4a/1x1"
  param {
    lr_mult: 1
    decay_mult: 1
  }
  param {
    lr_mult: 2
    decay_mult: 0
  }
  convolution_param {
    num_output: 192
    kernel_size: 1
    weight_filler {
      type: "xavier"
      std: 0.03
    }
    bias_filler {
      type: "constant"
      value: 0.2
    }
  }
}
layer {
  name: "inception_4a/relu_1x1"
  type: "ReLU"
  bottom: "inception_4a/1x1"
  top: "inception_4a/1x1"
}
layer {
  name: "inception_4a/3x3_reduce"
  type: "Convolution"
  bottom: "pool3/3x3_s2"
  top: "inception_4a/3x3_reduce"
  param {
    lr_mult: 1
    decay_mult: 1
  }
  param {
    lr_mult: 2
    decay_mult: 0
  }
  convolution_param {
    num_output: 96
    kernel_size: 1
    weight_filler {
      type: "xavier"
      std: 0.09
    }
    bias_filler {
      type: "constant"
      value: 0.2
    }
  }
}
layer {
  name: "inception_4a/relu_3x3_reduce"
  type: "ReLU"
  bottom: "inception_4a/3x3_reduce"
  top: "inception_4a/3x3_reduce"
}
layer {
  name: "inception_4a/3x3"
  type: "Convolution"
  bottom: "inception_4a/3x3_reduce"
  top: "inception_4a/3x3"
  param {
    lr_mult: 1
    decay_mult: 1
  }
  param {
    lr_mult: 2
    decay_mult: 0
  }
  convolution_param {
    num_output: 208
    pad: 1
    kernel_size: 3
    weight_filler {
      type: "xavier"
      std: 0.03
    }
    bias_filler {
      type: "constant"
      value: 0.2
    }
  }
}
layer {
  name: "inception_4a/relu_3x3"
  type: "ReLU"
  bottom: "inception_4a/3x3"
  top: "inception_4a/3x3"
}
layer {
  name: "inception_4a/5x5_reduce"
  type: "Convolution"
  bottom: "pool3/3x3_s2"
  top: "inception_4a/5x5_reduce"
  param {
    lr_mult: 1
    decay_mult: 1
  }
  param {
    lr_mult: 2
    decay_mult: 0
  }
  convolution_param {
    num_output: 16
    kernel_size: 1
    weight_filler {
      type: "xavier"
      std: 0.2
    }
    bias_filler {
      type: "constant"
      value: 0.2
    }
  }
}
layer {
  name: "inception_4a/relu_5x5_reduce"
  type: "ReLU"
  bottom: "inception_4a/5x5_reduce"
  top: "inception_4a/5x5_reduce"
}
layer {
  name: "inception_4a/5x5"
  type: "Convolution"
  bottom: "inception_4a/5x5_reduce"
  top: "inception_4a/5x5"
  param {
    lr_mult: 1
    decay_mult: 1
  }
  param {
    lr_mult: 2
    decay_mult: 0
  }
  convolution_param {
    num_output: 48
    pad: 2
    kernel_size: 5
    weight_filler {
      type: "xavier"
      std: 0.03
    }
    bias_filler {
      type: "constant"
      value: 0.2
    }
  }
}
layer {
  name: "inception_4a/relu_5x5"
  type: "ReLU"
  bottom: "inception_4a/5x5"
  top: "inception_4a/5x5"
}
layer {
  name: "inception_4a/pool"
  type: "Pooling"
  bottom: "pool3/3x3_s2"
  top: "inception_4a/pool"
  pooling_param {
    pool: MAX
    kernel_size: 3
    stride: 1
    pad: 1
  }
}
layer {
  name: "inception_4a/pool_proj"
  type: "Convolution"
  bottom: "inception_4a/pool"
  top: "inception_4a/pool_proj"
  param {
    lr_mult: 1
    decay_mult: 1
  }
  param {
    lr_mult: 2
    decay_mult: 0
  }
  convolution_param {
    num_output: 64
    kernel_size: 1
    weight_filler {
      type: "xavier"
      std: 0.1
    }
    bias_filler {
      type: "constant"
      value: 0.2
    }
  }
}
layer {
  name: "inception_4a/relu_pool_proj"
  type: "ReLU"
  bottom: "inception_4a/pool_proj"
  top: "inception_4a/pool_proj"
}
layer {
  name: "inception_4a/output"
  type: "Concat"
  bottom: "inception_4a/1x1"
  bottom: "inception_4a/3x3"
  bottom: "inception_4a/5x5"
  bottom: "inception_4a/pool_proj"
  top: "inception_4a/output"
}
layer {
  name: "loss1/ave_pool"
  type: "Pooling"
  bottom: "inception_4a/output"
  top: "loss1/ave_pool"
  pooling_param {
    pool: AVE
    kernel_size: 5
    stride: 3
  }
}
layer {
  name: "loss1/conv"
  type: "Convolution"
  bottom: "loss1/ave_pool"
  top: "loss1/conv"
  param {
    lr_mult: 1
    decay_mult: 1
  }
  param {
    lr_mult: 2
    decay_mult: 0
  }
  convolution_param {
    num_output: 128
    kernel_size: 1
    weight_filler {
      type: "xavier"
      std: 0.08
    }
    bias_filler {
      type: "constant"
      value: 0.2
    }
  }
}
layer {
  name: "loss1/relu_conv"
  type: "ReLU"
  bottom: "loss1/conv"
  top: "loss1/conv"
}
layer {
  name: "loss1/fc"
  type: "InnerProduct"
  bottom: "loss1/conv"
  top: "loss1/fc"
  param {
    lr_mult: 1
    decay_mult: 1
  }
  param {
    lr_mult: 2
    decay_mult: 0
  }
  inner_product_param {
    num_output: 1024
    weight_filler {
      type: "xavier"
      std: 0.02
    }
    bias_filler {
      type: "constant"
      value: 0.2
    }
  }
}
layer {
  name: "loss1/relu_fc"
  type: "ReLU"
  bottom: "loss1/fc"
  top: "loss1/fc"
}
layer {
  name: "loss1/drop_fc"
  type: "Dropout"
  bottom: "loss1/fc"
  top: "loss1/fc"
  dropout_param {
    dropout_ratio: 0.7
  }
}
layer {
  name: "loss1/classifier_plantvillage"
  type: "InnerProduct"
  bottom: "loss1/fc"
  top: "loss1/classifier_plantvillage"
  param {
    lr_mult: 1
    decay_mult: 1
  }
  param {
    lr_mult: 2
    decay_mult: 0
  }
  inner_product_param {
    num_output: 38
    weight_filler {
      type: "xavier"
      std: 0.0009765625
    }
    bias_filler {
      type: "constant"
      value: 0
    }
  }
}
layer {
  name: "inception_4b/1x1"
  type: "Convolution"
  bottom: "inception_4a/output"
  top: "inception_4b/1x1"
  param {
    lr_mult: 1
    decay_mult: 1
  }
  param {
    lr_mult: 2
    decay_mult: 0
  }
  convolution_param {
    num_output: 160
    kernel_size: 1
    weight_filler {
      type: "xavier"
      std: 0.03
    }
    bias_filler {
      type: "constant"
      value: 0.2
    }
  }
}
layer {
  name: "inception_4b/relu_1x1"
  type: "ReLU"
  bottom: "inception_4b/1x1"
  top: "inception_4b/1x1"
}
layer {
  name: "inception_4b/3x3_reduce"
  type: "Convolution"
  bottom: "inception_4a/output"
  top: "inception_4b/3x3_reduce"
  param {
    lr_mult: 1
    decay_mult: 1
  }
  param {
    lr_mult: 2
    decay_mult: 0
  }
  convolution_param {
    num_output: 112
    kernel_size: 1
    weight_filler {
      type: "xavier"
      std: 0.09
    }
    bias_filler {
      type: "constant"
      value: 0.2
    }
  }
}
layer {
  name: "inception_4b/relu_3x3_reduce"
  type: "ReLU"
  bottom: "inception_4b/3x3_reduce"
  top: "inception_4b/3x3_reduce"
}
layer {
  name: "inception_4b/3x3"
  type: "Convolution"
  bottom: "inception_4b/3x3_reduce"
  top: "inception_4b/3x3"
  param {
    lr_mult: 1
    decay_mult: 1
  }
  param {
    lr_mult: 2
    decay_mult: 0
  }
  convolution_param {
    num_output: 224
    pad: 1
    kernel_size: 3
    weight_filler {
      type: "xavier"
      std: 0.03
    }
    bias_filler {
      type: "constant"
      value: 0.2
    }
  }
}
layer {
  name: "inception_4b/relu_3x3"
  type: "ReLU"
  bottom: "inception_4b/3x3"
  top: "inception_4b/3x3"
}
layer {
  name: "inception_4b/5x5_reduce"
  type: "Convolution"
  bottom: "inception_4a/output"
  top: "inception_4b/5x5_reduce"
  param {
    lr_mult: 1
    decay_mult: 1
  }
  param {
    lr_mult: 2
    decay_mult: 0
  }
  convolution_param {
    num_output: 24
    kernel_size: 1
    weight_filler {
      type: "xavier"
      std: 0.2
    }
    bias_filler {
      type: "constant"
      value: 0.2
    }
  }
}
layer {
  name: "inception_4b/relu_5x5_reduce"
  type: "ReLU"
  bottom: "inception_4b/5x5_reduce"
  top: "inception_4b/5x5_reduce"
}
layer {
  name: "inception_4b/5x5"
  type: "Convolution"
  bottom: "inception_4b/5x5_reduce"
  top: "inception_4b/5x5"
  param {
    lr_mult: 1
    decay_mult: 1
  }
  param {
    lr_mult: 2
    decay_mult: 0
  }
  convolution_param {
    num_output: 64
    pad: 2
    kernel_size: 5
    weight_filler {
      type: "xavier"
      std: 0.03
    }
    bias_filler {
      type: "constant"
      value: 0.2
    }
  }
}
layer {
  name: "inception_4b/relu_5x5"
  type: "ReLU"
  bottom: "inception_4b/5x5"
  top: "inception_4b/5x5"
}
layer {
  name: "inception_4b/pool"
  type: "Pooling"
  bottom: "inception_4a/output"
  top: "inception_4b/pool"
  pooling_param {
    pool: MAX
    kernel_size: 3
    stride: 1
    pad: 1
  }
}
layer {
  name: "inception_4b/pool_proj"
  type: "Convolution"
  bottom: "inception_4b/pool"
  top: "inception_4b/pool_proj"
  param {
    lr_mult: 1
    decay_mult: 1
  }
  param {
    lr_mult: 2
    decay_mult: 0
  }
  convolution_param {
    num_output: 64
    kernel_size: 1
    weight_filler {
      type: "xavier"
      std: 0.1
    }
    bias_filler {
      type: "constant"
      value: 0.2
    }
  }
}
layer {
  name: "inception_4b/relu_pool_proj"
  type: "ReLU"
  bottom: "inception_4b/pool_proj"
  top: "inception_4b/pool_proj"
}
layer {
  name: "inception_4b/output"
  type: "Concat"
  bottom: "inception_4b/1x1"
  bottom: "inception_4b/3x3"
  bottom: "inception_4b/5x5"
  bottom: "inception_4b/pool_proj"
  top: "inception_4b/output"
}
layer {
  name: "inception_4c/1x1"
  type: "Convolution"
  bottom: "inception_4b/output"
  top: "inception_4c/1x1"
  param {
    lr_mult: 1
    decay_mult: 1
  }
  param {
    lr_mult: 2
    decay_mult: 0
  }
  convolution_param {
    num_output: 128
    kernel_size: 1
    weight_filler {
      type: "xavier"
      std: 0.03
    }
    bias_filler {
      type: "constant"
      value: 0.2
    }
  }
}
layer {
  name: "inception_4c/relu_1x1"
  type: "ReLU"
  bottom: "inception_4c/1x1"
  top: "inception_4c/1x1"
}
layer {
  name: "inception_4c/3x3_reduce"
  type: "Convolution"
  bottom: "inception_4b/output"
  top: "inception_4c/3x3_reduce"
  param {
    lr_mult: 1
    decay_mult: 1
  }
  param {
    lr_mult: 2
    decay_mult: 0
  }
  convolution_param {
    num_output: 128
    kernel_size: 1
    weight_filler {
      type: "xavier"
      std: 0.09
    }
    bias_filler {
      type: "constant"
      value: 0.2
    }
  }
}
layer {
  name: "inception_4c/relu_3x3_reduce"
  type: "ReLU"
  bottom: "inception_4c/3x3_reduce"
  top: "inception_4c/3x3_reduce"
}
layer {
  name: "inception_4c/3x3"
  type: "Convolution"
  bottom: "inception_4c/3x3_reduce"
  top: "inception_4c/3x3"
  param {
    lr_mult: 1
    decay_mult: 1
  }
  param {
    lr_mult: 2
    decay_mult: 0
  }
  convolution_param {
    num_output: 256
    pad: 1
    kernel_size: 3
    weight_filler {
      type: "xavier"
      std: 0.03
    }
    bias_filler {
      type: "constant"
      value: 0.2
    }
  }
}
layer {
  name: "inception_4c/relu_3x3"
  type: "ReLU"
  bottom: "inception_4c/3x3"
  top: "inception_4c/3x3"
}
layer {
  name: "inception_4c/5x5_reduce"
  type: "Convolution"
  bottom: "inception_4b/output"
  top: "inception_4c/5x5_reduce"
  param {
    lr_mult: 1
    decay_mult: 1
  }
  param {
    lr_mult: 2
    decay_mult: 0
  }
  convolution_param {
    num_output: 24
    kernel_size: 1
    weight_filler {
      type: "xavier"
      std: 0.2
    }
    bias_filler {
      type: "constant"
      value: 0.2
    }
  }
}
layer {
  name: "inception_4c/relu_5x5_reduce"
  type: "ReLU"
  bottom: "inception_4c/5x5_reduce"
  top: "inception_4c/5x5_reduce"
}
layer {
  name: "inception_4c/5x5"
  type: "Convolution"
  bottom: "inception_4c/5x5_reduce"
  top: "inception_4c/5x5"
  param {
    lr_mult: 1
    decay_mult: 1
  }
  param {
    lr_mult: 2
    decay_mult: 0
  }
  convolution_param {
    num_output: 64
    pad: 2
    kernel_size: 5
    weight_filler {
      type: "xavier"
      std: 0.03
    }
    bias_filler {
      type: "constant"
      value: 0.2
    }
  }
}
layer {
  name: "inception_4c/relu_5x5"
  type: "ReLU"
  bottom: "inception_4c/5x5"
  top: "inception_4c/5x5"
}
layer {
  name: "inception_4c/pool"
  type: "Pooling"
  bottom: "inception_4b/output"
  top: "inception_4c/pool"
  pooling_param {
    pool: MAX
    kernel_size: 3
    stride: 1
    pad: 1
  }
}
layer {
  name: "inception_4c/pool_proj"
  type: "Convolution"
  bottom: "inception_4c/pool"
  top: "inception_4c/pool_proj"
  param {
    lr_mult: 1
    decay_mult: 1
  }
  param {
    lr_mult: 2
    decay_mult: 0
  }
  convolution_param {
    num_output: 64
    kernel_size: 1
    weight_filler {
      type: "xavier"
      std: 0.1
    }
    bias_filler {
      type: "constant"
      value: 0.2
    }
  }
}
layer {
  name: "inception_4c/relu_pool_proj"
  type: "ReLU"
  bottom: "inception_4c/pool_proj"
  top: "inception_4c/pool_proj"
}
layer {
  name: "inception_4c/output"
  type: "Concat"
  bottom: "inception_4c/1x1"
  bottom: "inception_4c/3x3"
  bottom: "inception_4c/5x5"
  bottom: "inception_4c/pool_proj"
  top: "inception_4c/output"
}
layer {
  name: "inception_4d/1x1"
  type: "Convolution"
  bottom: "inception_4c/output"
  top: "inception_4d/1x1"
  param {
    lr_mult: 1
    decay_mult: 1
  }
  param {
    lr_mult: 2
    decay_mult: 0
  }
  convolution_param {
    num_output: 112
    kernel_size: 1
    weight_filler {
      type: "xavier"
      std: 0.03
    }
    bias_filler {
      type: "constant"
      value: 0.2
    }
  }
}
layer {
  name: "inception_4d/relu_1x1"
  type: "ReLU"
  bottom: "inception_4d/1x1"
  top: "inception_4d/1x1"
}
layer {
  name: "inception_4d/3x3_reduce"
  type: "Convolution"
  bottom: "inception_4c/output"
  top: "inception_4d/3x3_reduce"
  param {
    lr_mult: 1
    decay_mult: 1
  }
  param {
    lr_mult: 2
    decay_mult: 0
  }
  convolution_param {
    num_output: 144
    kernel_size: 1
    weight_filler {
      type: "xavier"
      std: 0.09
    }
    bias_filler {
      type: "constant"
      value: 0.2
    }
  }
}
layer {
  name: "inception_4d/relu_3x3_reduce"
  type: "ReLU"
  bottom: "inception_4d/3x3_reduce"
  top: "inception_4d/3x3_reduce"
}
layer {
  name: "inception_4d/3x3"
  type: "Convolution"
  bottom: "inception_4d/3x3_reduce"
  top: "inception_4d/3x3"
  param {
    lr_mult: 1
    decay_mult: 1
  }
  param {
    lr_mult: 2
    decay_mult: 0
  }
  convolution_param {
    num_output: 288
    pad: 1
    kernel_size: 3
    weight_filler {
      type: "xavier"
      std: 0.03
    }
    bias_filler {
      type: "constant"
      value: 0.2
    }
  }
}
layer {
  name: "inception_4d/relu_3x3"
  type: "ReLU"
  bottom: "inception_4d/3x3"
  top: "inception_4d/3x3"
}
layer {
  name: "inception_4d/5x5_reduce"
  type: "Convolution"
  bottom: "inception_4c/output"
  top: "inception_4d/5x5_reduce"
  param {
    lr_mult: 1
    decay_mult: 1
  }
  param {
    lr_mult: 2
    decay_mult: 0
  }
  convolution_param {
    num_output: 32
    kernel_size: 1
    weight_filler {
      type: "xavier"
      std: 0.2
    }
    bias_filler {
      type: "constant"
      value: 0.2
    }
  }
}
layer {
  name: "inception_4d/relu_5x5_reduce"
  type: "ReLU"
  bottom: "inception_4d/5x5_reduce"
  top: "inception_4d/5x5_reduce"
}
layer {
  name: "inception_4d/5x5"
  type: "Convolution"
  bottom: "inception_4d/5x5_reduce"
  top: "inception_4d/5x5"
  param {
    lr_mult: 1
    decay_mult: 1
  }
  param {
    lr_mult: 2
    decay_mult: 0
  }
  convolution_param {
    num_output: 64
    pad: 2
    kernel_size: 5
    weight_filler {
      type: "xavier"
      std: 0.03
    }
    bias_filler {
      type: "constant"
      value: 0.2
    }
  }
}
layer {
  name: "inception_4d/relu_5x5"
  type: "ReLU"
  bottom: "inception_4d/5x5"
  top: "inception_4d/5x5"
}
layer {
  name: "inception_4d/pool"
  type: "Pooling"
  bottom: "inception_4c/output"
  top: "inception_4d/pool"
  pooling_param {
    pool: MAX
    kernel_size: 3
    stride: 1
    pad: 1
  }
}
layer {
  name: "inception_4d/pool_proj"
  type: "Convolution"
  bottom: "inception_4d/pool"
  top: "inception_4d/pool_proj"
  param {
    lr_mult: 1
    decay_mult: 1
  }
  param {
    lr_mult: 2
    decay_mult: 0
  }
  convolution_param {
    num_output: 64
    kernel_size: 1
    weight_filler {
      type: "xavier"
      std: 0.1
    }
    bias_filler {
      type: "constant"
      value: 0.2
    }
  }
}
layer {
  name: "inception_4d/relu_pool_proj"
  type: "ReLU"
  bottom: "inception_4d/pool_proj"
  top: "inception_4d/pool_proj"
}
layer {
  name: "inception_4d/output"
  type: "Concat"
  bottom: "inception_4d/1x1"
  bottom: "inception_4d/3x3"
  bottom: "inception_4d/5x5"
  bottom: "inception_4d/pool_proj"
  top: "inception_4d/output"
}
layer {
  name: "loss2/ave_pool"
  type: "Pooling"
  bottom: "inception_4d/output"
  top: "loss2/ave_pool"
  pooling_param {
    pool: AVE
    kernel_size: 5
    stride: 3
  }
}
layer {
  name: "loss2/conv"
  type: "Convolution"
  bottom: "loss2/ave_pool"
  top: "loss2/conv"
  param {
    lr_mult: 1
    decay_mult: 1
  }
  param {
    lr_mult: 2
    decay_mult: 0
  }
  convolution_param {
    num_output: 128
    kernel_size: 1
    weight_filler {
      type: "xavier"
      std: 0.08
    }
    bias_filler {
      type: "constant"
      value: 0.2
    }
  }
}
layer {
  name: "loss2/relu_conv"
  type: "ReLU"
  bottom: "loss2/conv"
  top: "loss2/conv"
}
layer {
  name: "loss2/fc"
  type: "InnerProduct"
  bottom: "loss2/conv"
  top: "loss2/fc"
  param {
    lr_mult: 1
    decay_mult: 1
  }
  param {
    lr_mult: 2
    decay_mult: 0
  }
  inner_product_param {
    num_output: 1024
    weight_filler {
      type: "xavier"
      std: 0.02
    }
    bias_filler {
      type: "constant"
      value: 0.2
    }
  }
}
layer {
  name: "loss2/relu_fc"
  type: "ReLU"
  bottom: "loss2/fc"
  top: "loss2/fc"
}
layer {
  name: "loss2/drop_fc"
  type: "Dropout"
  bottom: "loss2/fc"
  top: "loss2/fc"
  dropout_param {
    dropout_ratio: 0.7
  }
}
layer {
  name: "loss2/classifier_plantvillage"
  type: "InnerProduct"
  bottom: "loss2/fc"
  top: "loss2/classifier_plantvillage"
  param {
    lr_mult: 1
    decay_mult: 1
  }
  param {
    lr_mult: 2
    decay_mult: 0
  }
  inner_product_param {
    num_output: 38
    weight_filler {
      type: "xavier"
      std: 0.0009765625
    }
    bias_filler {
      type: "constant"
      value: 0
    }
  }
}
layer {
  name: "inception_4e/1x1"
  type: "Convolution"
  bottom: "inception_4d/output"
  top: "inception_4e/1x1"
  param {
    lr_mult: 1
    decay_mult: 1
  }
  param {
    lr_mult: 2
    decay_mult: 0
  }
  convolution_param {
    num_output: 256
    kernel_size: 1
    weight_filler {
      type: "xavier"
      std: 0.03
    }
    bias_filler {
      type: "constant"
      value: 0.2
    }
  }
}
layer {
  name: "inception_4e/relu_1x1"
  type: "ReLU"
  bottom: "inception_4e/1x1"
  top: "inception_4e/1x1"
}
layer {
  name: "inception_4e/3x3_reduce"
  type: "Convolution"
  bottom: "inception_4d/output"
  top: "inception_4e/3x3_reduce"
  param {
    lr_mult: 1
    decay_mult: 1
  }
  param {
    lr_mult: 2
    decay_mult: 0
  }
  convolution_param {
    num_output: 160
    kernel_size: 1
    weight_filler {
      type: "xavier"
      std: 0.09
    }
    bias_filler {
      type: "constant"
      value: 0.2
    }
  }
}
layer {
  name: "inception_4e/relu_3x3_reduce"
  type: "ReLU"
  bottom: "inception_4e/3x3_reduce"
  top: "inception_4e/3x3_reduce"
}
layer {
  name: "inception_4e/3x3"
  type: "Convolution"
  bottom: "inception_4e/3x3_reduce"
  top: "inception_4e/3x3"
  param {
    lr_mult: 1
    decay_mult: 1
  }
  param {
    lr_mult: 2
    decay_mult: 0
  }
  convolution_param {
    num_output: 320
    pad: 1
    kernel_size: 3
    weight_filler {
      type: "xavier"
      std: 0.03
    }
    bias_filler {
      type: "constant"
      value: 0.2
    }
  }
}
layer {
  name: "inception_4e/relu_3x3"
  type: "ReLU"
  bottom: "inception_4e/3x3"
  top: "inception_4e/3x3"
}
layer {
  name: "inception_4e/5x5_reduce"
  type: "Convolution"
  bottom: "inception_4d/output"
  top: "inception_4e/5x5_reduce"
  param {
    lr_mult: 1
    decay_mult: 1
  }
  param {
    lr_mult: 2
    decay_mult: 0
  }
  convolution_param {
    num_output: 32
    kernel_size: 1
    weight_filler {
      type: "xavier"
      std: 0.2
    }
    bias_filler {
      type: "constant"
      value: 0.2
    }
  }
}
layer {
  name: "inception_4e/relu_5x5_reduce"
  type: "ReLU"
  bottom: "inception_4e/5x5_reduce"
  top: "inception_4e/5x5_reduce"
}
layer {
  name: "inception_4e/5x5"
  type: "Convolution"
  bottom: "inception_4e/5x5_reduce"
  top: "inception_4e/5x5"
  p
I0403 19:32:22.315534  9368 layer_factory.hpp:77] Creating layer data
I0403 19:32:22.316138  9368 net.cpp:91] Creating Layer data
I0403 19:32:22.316170  9368 net.cpp:399] data -> data
I0403 19:32:22.316220  9368 net.cpp:399] data -> label
I0403 19:32:22.316261  9368 data_transformer.cpp:25] Loading mean file from: /home/mohanty/data/final_dataset/lmdb/color-50-50/mean.binaryproto
I0403 19:32:22.317399  9370 db_lmdb.cpp:38] Opened lmdb /home/mohanty/data/final_dataset/lmdb/color-50-50/test_db
I0403 19:32:22.329569  9368 data_layer.cpp:41] output data size: 24,3,224,224
I0403 19:32:22.356268  9368 net.cpp:141] Setting up data
I0403 19:32:22.356355  9368 net.cpp:148] Top shape: 24 3 224 224 (3612672)
I0403 19:32:22.356379  9368 net.cpp:148] Top shape: 24 (24)
I0403 19:32:22.356395  9368 net.cpp:156] Memory required for data: 14450784
I0403 19:32:22.356422  9368 layer_factory.hpp:77] Creating layer label_data_1_split
I0403 19:32:22.356448  9368 net.cpp:91] Creating Layer label_data_1_split
I0403 19:32:22.356467  9368 net.cpp:425] label_data_1_split <- label
I0403 19:32:22.356498  9368 net.cpp:399] label_data_1_split -> label_data_1_split_0
I0403 19:32:22.356525  9368 net.cpp:399] label_data_1_split -> label_data_1_split_1
I0403 19:32:22.356546  9368 net.cpp:399] label_data_1_split -> label_data_1_split_2
I0403 19:32:22.356567  9368 net.cpp:399] label_data_1_split -> label_data_1_split_3
I0403 19:32:22.356586  9368 net.cpp:399] label_data_1_split -> label_data_1_split_4
I0403 19:32:22.356606  9368 net.cpp:399] label_data_1_split -> label_data_1_split_5
I0403 19:32:22.356626  9368 net.cpp:399] label_data_1_split -> label_data_1_split_6
I0403 19:32:22.356644  9368 net.cpp:399] label_data_1_split -> label_data_1_split_7
I0403 19:32:22.356663  9368 net.cpp:399] label_data_1_split -> label_data_1_split_8
I0403 19:32:22.356683  9368 net.cpp:399] label_data_1_split -> label_data_1_split_9
I0403 19:32:22.356797  9368 net.cpp:141] Setting up label_data_1_split
I0403 19:32:22.356820  9368 net.cpp:148] Top shape: 24 (24)
I0403 19:32:22.356837  9368 net.cpp:148] Top shape: 24 (24)
I0403 19:32:22.356853  9368 net.cpp:148] Top shape: 24 (24)
I0403 19:32:22.356868  9368 net.cpp:148] Top shape: 24 (24)
I0403 19:32:22.356884  9368 net.cpp:148] Top shape: 24 (24)
I0403 19:32:22.356899  9368 net.cpp:148] Top shape: 24 (24)
I0403 19:32:22.356914  9368 net.cpp:148] Top shape: 24 (24)
I0403 19:32:22.356928  9368 net.cpp:148] Top shape: 24 (24)
I0403 19:32:22.356945  9368 net.cpp:148] Top shape: 24 (24)
I0403 19:32:22.356961  9368 net.cpp:148] Top shape: 24 (24)
I0403 19:32:22.357003  9368 net.cpp:156] Memory required for data: 14451744
I0403 19:32:22.357019  9368 layer_factory.hpp:77] Creating layer conv1/7x7_s2
I0403 19:32:22.357050  9368 net.cpp:91] Creating Layer conv1/7x7_s2
I0403 19:32:22.357071  9368 net.cpp:425] conv1/7x7_s2 <- data
I0403 19:32:22.357091  9368 net.cpp:399] conv1/7x7_s2 -> conv1/7x7_s2
I0403 19:32:22.491986  9368 net.cpp:141] Setting up conv1/7x7_s2
I0403 19:32:22.492063  9368 net.cpp:148] Top shape: 24 64 112 112 (19267584)
I0403 19:32:22.492080  9368 net.cpp:156] Memory required for data: 91522080
I0403 19:32:22.492113  9368 layer_factory.hpp:77] Creating layer conv1/relu_7x7
I0403 19:32:22.492139  9368 net.cpp:91] Creating Layer conv1/relu_7x7
I0403 19:32:22.492158  9368 net.cpp:425] conv1/relu_7x7 <- conv1/7x7_s2
I0403 19:32:22.492187  9368 net.cpp:386] conv1/relu_7x7 -> conv1/7x7_s2 (in-place)
I0403 19:32:22.492482  9368 net.cpp:141] Setting up conv1/relu_7x7
I0403 19:32:22.492516  9368 net.cpp:148] Top shape: 24 64 112 112 (19267584)
I0403 19:32:22.492532  9368 net.cpp:156] Memory required for data: 168592416
I0403 19:32:22.492554  9368 layer_factory.hpp:77] Creating layer pool1/3x3_s2
I0403 19:32:22.492580  9368 net.cpp:91] Creating Layer pool1/3x3_s2
I0403 19:32:22.492599  9368 net.cpp:425] pool1/3x3_s2 <- conv1/7x7_s2
I0403 19:32:22.492617  9368 net.cpp:399] pool1/3x3_s2 -> pool1/3x3_s2
I0403 19:32:22.492692  9368 net.cpp:141] Setting up pool1/3x3_s2
I0403 19:32:22.492718  9368 net.cpp:148] Top shape: 24 64 56 56 (4816896)
I0403 19:32:22.492734  9368 net.cpp:156] Memory required for data: 187860000
I0403 19:32:22.492750  9368 layer_factory.hpp:77] Creating layer pool1/norm1
I0403 19:32:22.492774  9368 net.cpp:91] Creating Layer pool1/norm1
I0403 19:32:22.492792  9368 net.cpp:425] pool1/norm1 <- pool1/3x3_s2
I0403 19:32:22.492810  9368 net.cpp:399] pool1/norm1 -> pool1/norm1
I0403 19:32:22.493098  9368 net.cpp:141] Setting up pool1/norm1
I0403 19:32:22.493124  9368 net.cpp:148] Top shape: 24 64 56 56 (4816896)
I0403 19:32:22.493140  9368 net.cpp:156] Memory required for data: 207127584
I0403 19:32:22.493156  9368 layer_factory.hpp:77] Creating layer conv2/3x3_reduce
I0403 19:32:22.493181  9368 net.cpp:91] Creating Layer conv2/3x3_reduce
I0403 19:32:22.493197  9368 net.cpp:425] conv2/3x3_reduce <- pool1/norm1
I0403 19:32:22.493216  9368 net.cpp:399] conv2/3x3_reduce -> conv2/3x3_reduce
I0403 19:32:22.494622  9368 net.cpp:141] Setting up conv2/3x3_reduce
I0403 19:32:22.494652  9368 net.cpp:148] Top shape: 24 64 56 56 (4816896)
I0403 19:32:22.494669  9368 net.cpp:156] Memory required for data: 226395168
I0403 19:32:22.494693  9368 layer_factory.hpp:77] Creating layer conv2/relu_3x3_reduce
I0403 19:32:22.494710  9368 net.cpp:91] Creating Layer conv2/relu_3x3_reduce
I0403 19:32:22.494727  9368 net.cpp:425] conv2/relu_3x3_reduce <- conv2/3x3_reduce
I0403 19:32:22.494745  9368 net.cpp:386] conv2/relu_3x3_reduce -> conv2/3x3_reduce (in-place)
I0403 19:32:22.495007  9368 net.cpp:141] Setting up conv2/relu_3x3_reduce
I0403 19:32:22.495034  9368 net.cpp:148] Top shape: 24 64 56 56 (4816896)
I0403 19:32:22.495050  9368 net.cpp:156] Memory required for data: 245662752
I0403 19:32:22.495067  9368 layer_factory.hpp:77] Creating layer conv2/3x3
I0403 19:32:22.495090  9368 net.cpp:91] Creating Layer conv2/3x3
I0403 19:32:22.495107  9368 net.cpp:425] conv2/3x3 <- conv2/3x3_reduce
I0403 19:32:22.495128  9368 net.cpp:399] conv2/3x3 -> conv2/3x3
I0403 19:32:22.497440  9368 net.cpp:141] Setting up conv2/3x3
I0403 19:32:22.497472  9368 net.cpp:148] Top shape: 24 192 56 56 (14450688)
I0403 19:32:22.497488  9368 net.cpp:156] Memory required for data: 303465504
I0403 19:32:22.497510  9368 layer_factory.hpp:77] Creating layer conv2/relu_3x3
I0403 19:32:22.497530  9368 net.cpp:91] Creating Layer conv2/relu_3x3
I0403 19:32:22.497546  9368 net.cpp:425] conv2/relu_3x3 <- conv2/3x3
I0403 19:32:22.497565  9368 net.cpp:386] conv2/relu_3x3 -> conv2/3x3 (in-place)
I0403 19:32:22.497748  9368 net.cpp:141] Setting up conv2/relu_3x3
I0403 19:32:22.497776  9368 net.cpp:148] Top shape: 24 192 56 56 (14450688)
I0403 19:32:22.497823  9368 net.cpp:156] Memory required for data: 361268256
I0403 19:32:22.497840  9368 layer_factory.hpp:77] Creating layer conv2/norm2
I0403 19:32:22.497859  9368 net.cpp:91] Creating Layer conv2/norm2
I0403 19:32:22.497876  9368 net.cpp:425] conv2/norm2 <- conv2/3x3
I0403 19:32:22.497895  9368 net.cpp:399] conv2/norm2 -> conv2/norm2
I0403 19:32:22.498190  9368 net.cpp:141] Setting up conv2/norm2
I0403 19:32:22.498221  9368 net.cpp:148] Top shape: 24 192 56 56 (14450688)
I0403 19:32:22.498239  9368 net.cpp:156] Memory required for data: 419071008
I0403 19:32:22.498260  9368 layer_factory.hpp:77] Creating layer pool2/3x3_s2
I0403 19:32:22.498280  9368 net.cpp:91] Creating Layer pool2/3x3_s2
I0403 19:32:22.498296  9368 net.cpp:425] pool2/3x3_s2 <- conv2/norm2
I0403 19:32:22.498316  9368 net.cpp:399] pool2/3x3_s2 -> pool2/3x3_s2
I0403 19:32:22.498368  9368 net.cpp:141] Setting up pool2/3x3_s2
I0403 19:32:22.498392  9368 net.cpp:148] Top shape: 24 192 28 28 (3612672)
I0403 19:32:22.498409  9368 net.cpp:156] Memory required for data: 433521696
I0403 19:32:22.498425  9368 layer_factory.hpp:77] Creating layer pool2/3x3_s2_pool2/3x3_s2_0_split
I0403 19:32:22.498443  9368 net.cpp:91] Creating Layer pool2/3x3_s2_pool2/3x3_s2_0_split
I0403 19:32:22.498459  9368 net.cpp:425] pool2/3x3_s2_pool2/3x3_s2_0_split <- pool2/3x3_s2
I0403 19:32:22.498477  9368 net.cpp:399] pool2/3x3_s2_pool2/3x3_s2_0_split -> pool2/3x3_s2_pool2/3x3_s2_0_split_0
I0403 19:32:22.498498  9368 net.cpp:399] pool2/3x3_s2_pool2/3x3_s2_0_split -> pool2/3x3_s2_pool2/3x3_s2_0_split_1
I0403 19:32:22.498518  9368 net.cpp:399] pool2/3x3_s2_pool2/3x3_s2_0_split -> pool2/3x3_s2_pool2/3x3_s2_0_split_2
I0403 19:32:22.498539  9368 net.cpp:399] pool2/3x3_s2_pool2/3x3_s2_0_split -> pool2/3x3_s2_pool2/3x3_s2_0_split_3
I0403 19:32:22.498607  9368 net.cpp:141] Setting up pool2/3x3_s2_pool2/3x3_s2_0_split
I0403 19:32:22.498630  9368 net.cpp:148] Top shape: 24 192 28 28 (3612672)
I0403 19:32:22.498647  9368 net.cpp:148] Top shape: 24 192 28 28 (3612672)
I0403 19:32:22.498664  9368 net.cpp:148] Top shape: 24 192 28 28 (3612672)
I0403 19:32:22.498682  9368 net.cpp:148] Top shape: 24 192 28 28 (3612672)
I0403 19:32:22.498697  9368 net.cpp:156] Memory required for data: 491324448
I0403 19:32:22.498713  9368 layer_factory.hpp:77] Creating layer inception_3a/1x1
I0403 19:32:22.498733  9368 net.cpp:91] Creating Layer inception_3a/1x1
I0403 19:32:22.498750  9368 net.cpp:425] inception_3a/1x1 <- pool2/3x3_s2_pool2/3x3_s2_0_split_0
I0403 19:32:22.498769  9368 net.cpp:399] inception_3a/1x1 -> inception_3a/1x1
I0403 19:32:22.500294  9368 net.cpp:141] Setting up inception_3a/1x1
I0403 19:32:22.500325  9368 net.cpp:148] Top shape: 24 64 28 28 (1204224)
I0403 19:32:22.500341  9368 net.cpp:156] Memory required for data: 496141344
I0403 19:32:22.500362  9368 layer_factory.hpp:77] Creating layer inception_3a/relu_1x1
I0403 19:32:22.500382  9368 net.cpp:91] Creating Layer inception_3a/relu_1x1
I0403 19:32:22.500401  9368 net.cpp:425] inception_3a/relu_1x1 <- inception_3a/1x1
I0403 19:32:22.500419  9368 net.cpp:386] inception_3a/relu_1x1 -> inception_3a/1x1 (in-place)
I0403 19:32:22.500600  9368 net.cpp:141] Setting up inception_3a/relu_1x1
I0403 19:32:22.500628  9368 net.cpp:148] Top shape: 24 64 28 28 (1204224)
I0403 19:32:22.500644  9368 net.cpp:156] Memory required for data: 500958240
I0403 19:32:22.500660  9368 layer_factory.hpp:77] Creating layer inception_3a/3x3_reduce
I0403 19:32:22.500685  9368 net.cpp:91] Creating Layer inception_3a/3x3_reduce
I0403 19:32:22.500704  9368 net.cpp:425] inception_3a/3x3_reduce <- pool2/3x3_s2_pool2/3x3_s2_0_split_1
I0403 19:32:22.500725  9368 net.cpp:399] inception_3a/3x3_reduce -> inception_3a/3x3_reduce
I0403 19:32:22.502490  9368 net.cpp:141] Setting up inception_3a/3x3_reduce
I0403 19:32:22.502521  9368 net.cpp:148] Top shape: 24 96 28 28 (1806336)
I0403 19:32:22.502539  9368 net.cpp:156] Memory required for data: 508183584
I0403 19:32:22.502562  9368 layer_factory.hpp:77] Creating layer inception_3a/relu_3x3_reduce
I0403 19:32:22.502604  9368 net.cpp:91] Creating Layer inception_3a/relu_3x3_reduce
I0403 19:32:22.502624  9368 net.cpp:425] inception_3a/relu_3x3_reduce <- inception_3a/3x3_reduce
I0403 19:32:22.502643  9368 net.cpp:386] inception_3a/relu_3x3_reduce -> inception_3a/3x3_reduce (in-place)
I0403 19:32:22.502838  9368 net.cpp:141] Setting up inception_3a/relu_3x3_reduce
I0403 19:32:22.502866  9368 net.cpp:148] Top shape: 24 96 28 28 (1806336)
I0403 19:32:22.502882  9368 net.cpp:156] Memory required for data: 515408928
I0403 19:32:22.502898  9368 layer_factory.hpp:77] Creating layer inception_3a/3x3
I0403 19:32:22.502923  9368 net.cpp:91] Creating Layer inception_3a/3x3
I0403 19:32:22.502941  9368 net.cpp:425] inception_3a/3x3 <- inception_3a/3x3_reduce
I0403 19:32:22.502964  9368 net.cpp:399] inception_3a/3x3 -> inception_3a/3x3
I0403 19:32:22.504727  9368 net.cpp:141] Setting up inception_3a/3x3
I0403 19:32:22.504757  9368 net.cpp:148] Top shape: 24 128 28 28 (2408448)
I0403 19:32:22.504775  9368 net.cpp:156] Memory required for data: 525042720
I0403 19:32:22.504793  9368 layer_factory.hpp:77] Creating layer inception_3a/relu_3x3
I0403 19:32:22.504814  9368 net.cpp:91] Creating Layer inception_3a/relu_3x3
I0403 19:32:22.504832  9368 net.cpp:425] inception_3a/relu_3x3 <- inception_3a/3x3
I0403 19:32:22.504850  9368 net.cpp:386] inception_3a/relu_3x3 -> inception_3a/3x3 (in-place)
I0403 19:32:22.505147  9368 net.cpp:141] Setting up inception_3a/relu_3x3
I0403 19:32:22.505175  9368 net.cpp:148] Top shape: 24 128 28 28 (2408448)
I0403 19:32:22.505190  9368 net.cpp:156] Memory required for data: 534676512
I0403 19:32:22.505208  9368 layer_factory.hpp:77] Creating layer inception_3a/5x5_reduce
I0403 19:32:22.505234  9368 net.cpp:91] Creating Layer inception_3a/5x5_reduce
I0403 19:32:22.505256  9368 net.cpp:425] inception_3a/5x5_reduce <- pool2/3x3_s2_pool2/3x3_s2_0_split_2
I0403 19:32:22.505280  9368 net.cpp:399] inception_3a/5x5_reduce -> inception_3a/5x5_reduce
I0403 19:32:22.506304  9368 net.cpp:141] Setting up inception_3a/5x5_reduce
I0403 19:32:22.506335  9368 net.cpp:148] Top shape: 24 16 28 28 (301056)
I0403 19:32:22.506351  9368 net.cpp:156] Memory required for data: 535880736
I0403 19:32:22.506372  9368 layer_factory.hpp:77] Creating layer inception_3a/relu_5x5_reduce
I0403 19:32:22.506394  9368 net.cpp:91] Creating Layer inception_3a/relu_5x5_reduce
I0403 19:32:22.506413  9368 net.cpp:425] inception_3a/relu_5x5_reduce <- inception_3a/5x5_reduce
I0403 19:32:22.506434  9368 net.cpp:386] inception_3a/relu_5x5_reduce -> inception_3a/5x5_reduce (in-place)
I0403 19:32:22.506773  9368 net.cpp:141] Setting up inception_3a/relu_5x5_reduce
I0403 19:32:22.506805  9368 net.cpp:148] Top shape: 24 16 28 28 (301056)
I0403 19:32:22.506824  9368 net.cpp:156] Memory required for data: 537084960
I0403 19:32:22.506839  9368 layer_factory.hpp:77] Creating layer inception_3a/5x5
I0403 19:32:22.506865  9368 net.cpp:91] Creating Layer inception_3a/5x5
I0403 19:32:22.506883  9368 net.cpp:425] inception_3a/5x5 <- inception_3a/5x5_reduce
I0403 19:32:22.506904  9368 net.cpp:399] inception_3a/5x5 -> inception_3a/5x5
I0403 19:32:22.507982  9368 net.cpp:141] Setting up inception_3a/5x5
I0403 19:32:22.508011  9368 net.cpp:148] Top shape: 24 32 28 28 (602112)
I0403 19:32:22.508028  9368 net.cpp:156] Memory required for data: 539493408
I0403 19:32:22.508049  9368 layer_factory.hpp:77] Creating layer inception_3a/relu_5x5
I0403 19:32:22.508069  9368 net.cpp:91] Creating Layer inception_3a/relu_5x5
I0403 19:32:22.508086  9368 net.cpp:425] inception_3a/relu_5x5 <- inception_3a/5x5
I0403 19:32:22.508105  9368 net.cpp:386] inception_3a/relu_5x5 -> inception_3a/5x5 (in-place)
I0403 19:32:22.508293  9368 net.cpp:141] Setting up inception_3a/relu_5x5
I0403 19:32:22.508322  9368 net.cpp:148] Top shape: 24 32 28 28 (602112)
I0403 19:32:22.508338  9368 net.cpp:156] Memory required for data: 541901856
I0403 19:32:22.508353  9368 layer_factory.hpp:77] Creating layer inception_3a/pool
I0403 19:32:22.508373  9368 net.cpp:91] Creating Layer inception_3a/pool
I0403 19:32:22.508389  9368 net.cpp:425] inception_3a/pool <- pool2/3x3_s2_pool2/3x3_s2_0_split_3
I0403 19:32:22.508424  9368 net.cpp:399] inception_3a/pool -> inception_3a/pool
I0403 19:32:22.508486  9368 net.cpp:141] Setting up inception_3a/pool
I0403 19:32:22.508512  9368 net.cpp:148] Top shape: 24 192 28 28 (3612672)
I0403 19:32:22.508527  9368 net.cpp:156] Memory required for data: 556352544
I0403 19:32:22.508543  9368 layer_factory.hpp:77] Creating layer inception_3a/pool_proj
I0403 19:32:22.508566  9368 net.cpp:91] Creating Layer inception_3a/pool_proj
I0403 19:32:22.508584  9368 net.cpp:425] inception_3a/pool_proj <- inception_3a/pool
I0403 19:32:22.508608  9368 net.cpp:399] inception_3a/pool_proj -> inception_3a/pool_proj
I0403 19:32:22.509637  9368 net.cpp:141] Setting up inception_3a/pool_proj
I0403 19:32:22.509692  9368 net.cpp:148] Top shape: 24 32 28 28 (602112)
I0403 19:32:22.509732  9368 net.cpp:156] Memory required for data: 558760992
I0403 19:32:22.509780  9368 layer_factory.hpp:77] Creating layer inception_3a/relu_pool_proj
I0403 19:32:22.509811  9368 net.cpp:91] Creating Layer inception_3a/relu_pool_proj
I0403 19:32:22.509855  9368 net.cpp:425] inception_3a/relu_pool_proj <- inception_3a/pool_proj
I0403 19:32:22.509903  9368 net.cpp:386] inception_3a/relu_pool_proj -> inception_3a/pool_proj (in-place)
I0403 19:32:22.510222  9368 net.cpp:141] Setting up inception_3a/relu_pool_proj
I0403 19:32:22.510254  9368 net.cpp:148] Top shape: 24 32 28 28 (602112)
I0403 19:32:22.510272  9368 net.cpp:156] Memory required for data: 561169440
I0403 19:32:22.510288  9368 layer_factory.hpp:77] Creating layer inception_3a/output
I0403 19:32:22.510306  9368 net.cpp:91] Creating Layer inception_3a/output
I0403 19:32:22.510323  9368 net.cpp:425] inception_3a/output <- inception_3a/1x1
I0403 19:32:22.510342  9368 net.cpp:425] inception_3a/output <- inception_3a/3x3
I0403 19:32:22.510360  9368 net.cpp:425] inception_3a/output <- inception_3a/5x5
I0403 19:32:22.510377  9368 net.cpp:425] inception_3a/output <- inception_3a/pool_proj
I0403 19:32:22.510396  9368 net.cpp:399] inception_3a/output -> inception_3a/output
I0403 19:32:22.510445  9368 net.cpp:141] Setting up inception_3a/output
I0403 19:32:22.510469  9368 net.cpp:148] Top shape: 24 256 28 28 (4816896)
I0403 19:32:22.510485  9368 net.cpp:156] Memory required for data: 580437024
I0403 19:32:22.510501  9368 layer_factory.hpp:77] Creating layer inception_3a/output_inception_3a/output_0_split
I0403 19:32:22.510519  9368 net.cpp:91] Creating Layer inception_3a/output_inception_3a/output_0_split
I0403 19:32:22.510535  9368 net.cpp:425] inception_3a/output_inception_3a/output_0_split <- inception_3a/output
I0403 19:32:22.510555  9368 net.cpp:399] inception_3a/output_inception_3a/output_0_split -> inception_3a/output_inception_3a/output_0_split_0
I0403 19:32:22.510576  9368 net.cpp:399] inception_3a/output_inception_3a/output_0_split -> inception_3a/output_inception_3a/output_0_split_1
I0403 19:32:22.510601  9368 net.cpp:399] inception_3a/output_inception_3a/output_0_split -> inception_3a/output_inception_3a/output_0_split_2
I0403 19:32:22.510625  9368 net.cpp:399] inception_3a/output_inception_3a/output_0_split -> inception_3a/output_inception_3a/output_0_split_3
I0403 19:32:22.510704  9368 net.cpp:141] Setting up inception_3a/output_inception_3a/output_0_split
I0403 19:32:22.510730  9368 net.cpp:148] Top shape: 24 256 28 28 (4816896)
I0403 19:32:22.510749  9368 net.cpp:148] Top shape: 24 256 28 28 (4816896)
I0403 19:32:22.510766  9368 net.cpp:148] Top shape: 24 256 28 28 (4816896)
I0403 19:32:22.510782  9368 net.cpp:148] Top shape: 24 256 28 28 (4816896)
I0403 19:32:22.510797  9368 net.cpp:156] Memory required for data: 657507360
I0403 19:32:22.510812  9368 layer_factory.hpp:77] Creating layer inception_3b/1x1
I0403 19:32:22.510836  9368 net.cpp:91] Creating Layer inception_3b/1x1
I0403 19:32:22.510854  9368 net.cpp:425] inception_3b/1x1 <- inception_3a/output_inception_3a/output_0_split_0
I0403 19:32:22.510876  9368 net.cpp:399] inception_3b/1x1 -> inception_3b/1x1
I0403 19:32:22.512074  9368 net.cpp:141] Setting up inception_3b/1x1
I0403 19:32:22.512116  9368 net.cpp:148] Top shape: 24 128 28 28 (2408448)
I0403 19:32:22.512133  9368 net.cpp:156] Memory required for data: 667141152
I0403 19:32:22.512153  9368 layer_factory.hpp:77] Creating layer inception_3b/relu_1x1
I0403 19:32:22.512172  9368 net.cpp:91] Creating Layer inception_3b/relu_1x1
I0403 19:32:22.512195  9368 net.cpp:425] inception_3b/relu_1x1 <- inception_3b/1x1
I0403 19:32:22.512217  9368 net.cpp:386] inception_3b/relu_1x1 -> inception_3b/1x1 (in-place)
I0403 19:32:22.512410  9368 net.cpp:141] Setting up inception_3b/relu_1x1
I0403 19:32:22.512437  9368 net.cpp:148] Top shape: 24 128 28 28 (2408448)
I0403 19:32:22.512454  9368 net.cpp:156] Memory required for data: 676774944
I0403 19:32:22.512477  9368 layer_factory.hpp:77] Creating layer inception_3b/3x3_reduce
I0403 19:32:22.512501  9368 net.cpp:91] Creating Layer inception_3b/3x3_reduce
I0403 19:32:22.512519  9368 net.cpp:425] inception_3b/3x3_reduce <- inception_3a/output_inception_3a/output_0_split_1
I0403 19:32:22.512542  9368 net.cpp:399] inception_3b/3x3_reduce -> inception_3b/3x3_reduce
I0403 19:32:22.513726  9368 net.cpp:141] Setting up inception_3b/3x3_reduce
I0403 19:32:22.513756  9368 net.cpp:148] Top shape: 24 128 28 28 (2408448)
I0403 19:32:22.513772  9368 net.cpp:156] Memory required for data: 686408736
I0403 19:32:22.513789  9368 layer_factory.hpp:77] Creating layer inception_3b/relu_3x3_reduce
I0403 19:32:22.513808  9368 net.cpp:91] Creating Layer inception_3b/relu_3x3_reduce
I0403 19:32:22.513824  9368 net.cpp:425] inception_3b/relu_3x3_reduce <- inception_3b/3x3_reduce
I0403 19:32:22.513844  9368 net.cpp:386] inception_3b/relu_3x3_reduce -> inception_3b/3x3_reduce (in-place)
I0403 19:32:22.514024  9368 net.cpp:141] Setting up inception_3b/relu_3x3_reduce
I0403 19:32:22.514050  9368 net.cpp:148] Top shape: 24 128 28 28 (2408448)
I0403 19:32:22.514065  9368 net.cpp:156] Memory required for data: 696042528
I0403 19:32:22.514080  9368 layer_factory.hpp:77] Creating layer inception_3b/3x3
I0403 19:32:22.514107  9368 net.cpp:91] Creating Layer inception_3b/3x3
I0403 19:32:22.514125  9368 net.cpp:425] inception_3b/3x3 <- inception_3b/3x3_reduce
I0403 19:32:22.514144  9368 net.cpp:399] inception_3b/3x3 -> inception_3b/3x3
I0403 19:32:22.517140  9368 net.cpp:141] Setting up inception_3b/3x3
I0403 19:32:22.517170  9368 net.cpp:148] Top shape: 24 192 28 28 (3612672)
I0403 19:32:22.517186  9368 net.cpp:156] Memory required for data: 710493216
I0403 19:32:22.517204  9368 layer_factory.hpp:77] Creating layer inception_3b/relu_3x3
I0403 19:32:22.517226  9368 net.cpp:91] Creating Layer inception_3b/relu_3x3
I0403 19:32:22.517248  9368 net.cpp:425] inception_3b/relu_3x3 <- inception_3b/3x3
I0403 19:32:22.517267  9368 net.cpp:386] inception_3b/relu_3x3 -> inception_3b/3x3 (in-place)
I0403 19:32:22.517549  9368 net.cpp:141] Setting up inception_3b/relu_3x3
I0403 19:32:22.517576  9368 net.cpp:148] Top shape: 24 192 28 28 (3612672)
I0403 19:32:22.517592  9368 net.cpp:156] Memory required for data: 724943904
I0403 19:32:22.517608  9368 layer_factory.hpp:77] Creating layer inception_3b/5x5_reduce
I0403 19:32:22.517632  9368 net.cpp:91] Creating Layer inception_3b/5x5_reduce
I0403 19:32:22.517652  9368 net.cpp:425] inception_3b/5x5_reduce <- inception_3a/output_inception_3a/output_0_split_2
I0403 19:32:22.517674  9368 net.cpp:399] inception_3b/5x5_reduce -> inception_3b/5x5_reduce
I0403 19:32:22.518685  9368 net.cpp:141] Setting up inception_3b/5x5_reduce
I0403 19:32:22.518714  9368 net.cpp:148] Top shape: 24 32 28 28 (602112)
I0403 19:32:22.518731  9368 net.cpp:156] Memory required for data: 727352352
I0403 19:32:22.518750  9368 layer_factory.hpp:77] Creating layer inception_3b/relu_5x5_reduce
I0403 19:32:22.518772  9368 net.cpp:91] Creating Layer inception_3b/relu_5x5_reduce
I0403 19:32:22.518790  9368 net.cpp:425] inception_3b/relu_5x5_reduce <- inception_3b/5x5_reduce
I0403 19:32:22.518807  9368 net.cpp:386] inception_3b/relu_5x5_reduce -> inception_3b/5x5_reduce (in-place)
I0403 19:32:22.518987  9368 net.cpp:141] Setting up inception_3b/relu_5x5_reduce
I0403 19:32:22.519029  9368 net.cpp:148] Top shape: 24 32 28 28 (602112)
I0403 19:32:22.519047  9368 net.cpp:156] Memory required for data: 729760800
I0403 19:32:22.519063  9368 layer_factory.hpp:77] Creating layer inception_3b/5x5
I0403 19:32:22.519086  9368 net.cpp:91] Creating Layer inception_3b/5x5
I0403 19:32:22.519105  9368 net.cpp:425] inception_3b/5x5 <- inception_3b/5x5_reduce
I0403 19:32:22.519125  9368 net.cpp:399] inception_3b/5x5 -> inception_3b/5x5
I0403 19:32:22.521139  9368 net.cpp:141] Setting up inception_3b/5x5
I0403 19:32:22.521183  9368 net.cpp:148] Top shape: 24 96 28 28 (1806336)
I0403 19:32:22.521200  9368 net.cpp:156] Memory required for data: 736986144
I0403 19:32:22.521220  9368 layer_factory.hpp:77] Creating layer inception_3b/relu_5x5
I0403 19:32:22.521242  9368 net.cpp:91] Creating Layer inception_3b/relu_5x5
I0403 19:32:22.521260  9368 net.cpp:425] inception_3b/relu_5x5 <- inception_3b/5x5
I0403 19:32:22.521284  9368 net.cpp:386] inception_3b/relu_5x5 -> inception_3b/5x5 (in-place)
I0403 19:32:22.521499  9368 net.cpp:141] Setting up inception_3b/relu_5x5
I0403 19:32:22.521527  9368 net.cpp:148] Top shape: 24 96 28 28 (1806336)
I0403 19:32:22.521543  9368 net.cpp:156] Memory required for data: 744211488
I0403 19:32:22.521558  9368 layer_factory.hpp:77] Creating layer inception_3b/pool
I0403 19:32:22.521575  9368 net.cpp:91] Creating Layer inception_3b/pool
I0403 19:32:22.521591  9368 net.cpp:425] inception_3b/pool <- inception_3a/output_inception_3a/output_0_split_3
I0403 19:32:22.521610  9368 net.cpp:399] inception_3b/pool -> inception_3b/pool
I0403 19:32:22.521667  9368 net.cpp:141] Setting up inception_3b/pool
I0403 19:32:22.521689  9368 net.cpp:148] Top shape: 24 256 28 28 (4816896)
I0403 19:32:22.521704  9368 net.cpp:156] Memory required for data: 763479072
I0403 19:32:22.521719  9368 layer_factory.hpp:77] Creating layer inception_3b/pool_proj
I0403 19:32:22.521742  9368 net.cpp:91] Creating Layer inception_3b/pool_proj
I0403 19:32:22.521759  9368 net.cpp:425] inception_3b/pool_proj <- inception_3b/pool
I0403 19:32:22.521780  9368 net.cpp:399] inception_3b/pool_proj -> inception_3b/pool_proj
I0403 19:32:22.522873  9368 net.cpp:141] Setting up inception_3b/pool_proj
I0403 19:32:22.522904  9368 net.cpp:148] Top shape: 24 64 28 28 (1204224)
I0403 19:32:22.522922  9368 net.cpp:156] Memory required for data: 768295968
I0403 19:32:22.522940  9368 layer_factory.hpp:77] Creating layer inception_3b/relu_pool_proj
I0403 19:32:22.522958  9368 net.cpp:91] Creating Layer inception_3b/relu_pool_proj
I0403 19:32:22.522974  9368 net.cpp:425] inception_3b/relu_pool_proj <- inception_3b/pool_proj
I0403 19:32:22.522992  9368 net.cpp:386] inception_3b/relu_pool_proj -> inception_3b/pool_proj (in-place)
I0403 19:32:22.523409  9368 net.cpp:141] Setting up inception_3b/relu_pool_proj
I0403 19:32:22.523437  9368 net.cpp:148] Top shape: 24 64 28 28 (1204224)
I0403 19:32:22.523452  9368 net.cpp:156] Memory required for data: 773112864
I0403 19:32:22.523466  9368 layer_factory.hpp:77] Creating layer inception_3b/output
I0403 19:32:22.523485  9368 net.cpp:91] Creating Layer inception_3b/output
I0403 19:32:22.523501  9368 net.cpp:425] inception_3b/output <- inception_3b/1x1
I0403 19:32:22.523519  9368 net.cpp:425] inception_3b/output <- inception_3b/3x3
I0403 19:32:22.523535  9368 net.cpp:425] inception_3b/output <- inception_3b/5x5
I0403 19:32:22.523550  9368 net.cpp:425] inception_3b/output <- inception_3b/pool_proj
I0403 19:32:22.523567  9368 net.cpp:399] inception_3b/output -> inception_3b/output
I0403 19:32:22.523612  9368 net.cpp:141] Setting up inception_3b/output
I0403 19:32:22.523633  9368 net.cpp:148] Top shape: 24 480 28 28 (9031680)
I0403 19:32:22.523648  9368 net.cpp:156] Memory required for data: 809239584
I0403 19:32:22.523664  9368 layer_factory.hpp:77] Creating layer pool3/3x3_s2
I0403 19:32:22.523684  9368 net.cpp:91] Creating Layer pool3/3x3_s2
I0403 19:32:22.523699  9368 net.cpp:425] pool3/3x3_s2 <- inception_3b/output
I0403 19:32:22.523718  9368 net.cpp:399] pool3/3x3_s2 -> pool3/3x3_s2
I0403 19:32:22.523789  9368 net.cpp:141] Setting up pool3/3x3_s2
I0403 19:32:22.523813  9368 net.cpp:148] Top shape: 24 480 14 14 (2257920)
I0403 19:32:22.523828  9368 net.cpp:156] Memory required for data: 818271264
I0403 19:32:22.523843  9368 layer_factory.hpp:77] Creating layer pool3/3x3_s2_pool3/3x3_s2_0_split
I0403 19:32:22.523862  9368 net.cpp:91] Creating Layer pool3/3x3_s2_pool3/3x3_s2_0_split
I0403 19:32:22.523877  9368 net.cpp:425] pool3/3x3_s2_pool3/3x3_s2_0_split <- pool3/3x3_s2
I0403 19:32:22.523897  9368 net.cpp:399] pool3/3x3_s2_pool3/3x3_s2_0_split -> pool3/3x3_s2_pool3/3x3_s2_0_split_0
I0403 19:32:22.523916  9368 net.cpp:399] pool3/3x3_s2_pool3/3x3_s2_0_split -> pool3/3x3_s2_pool3/3x3_s2_0_split_1
I0403 19:32:22.523936  9368 net.cpp:399] pool3/3x3_s2_pool3/3x3_s2_0_split -> pool3/3x3_s2_pool3/3x3_s2_0_split_2
I0403 19:32:22.523955  9368 net.cpp:399] pool3/3x3_s2_pool3/3x3_s2_0_split -> pool3/3x3_s2_pool3/3x3_s2_0_split_3
I0403 19:32:22.524029  9368 net.cpp:141] Setting up pool3/3x3_s2_pool3/3x3_s2_0_split
I0403 19:32:22.524054  9368 net.cpp:148] Top shape: 24 480 14 14 (2257920)
I0403 19:32:22.524070  9368 net.cpp:148] Top shape: 24 480 14 14 (2257920)
I0403 19:32:22.524086  9368 net.cpp:148] Top shape: 24 480 14 14 (2257920)
I0403 19:32:22.524102  9368 net.cpp:148] Top shape: 24 480 14 14 (2257920)
I0403 19:32:22.524116  9368 net.cpp:156] Memory required for data: 854397984
I0403 19:32:22.524132  9368 layer_factory.hpp:77] Creating layer inception_4a/1x1
I0403 19:32:22.524155  9368 net.cpp:91] Creating Layer inception_4a/1x1
I0403 19:32:22.524173  9368 net.cpp:425] inception_4a/1x1 <- pool3/3x3_s2_pool3/3x3_s2_0_split_0
I0403 19:32:22.524191  9368 net.cpp:399] inception_4a/1x1 -> inception_4a/1x1
I0403 19:32:22.525872  9368 net.cpp:141] Setting up inception_4a/1x1
I0403 19:32:22.525907  9368 net.cpp:148] Top shape: 24 192 14 14 (903168)
I0403 19:32:22.525925  9368 net.cpp:156] Memory required for data: 858010656
I0403 19:32:22.525945  9368 layer_factory.hpp:77] Creating layer inception_4a/relu_1x1
I0403 19:32:22.525965  9368 net.cpp:91] Creating Layer inception_4a/relu_1x1
I0403 19:32:22.525984  9368 net.cpp:425] inception_4a/relu_1x1 <- inception_4a/1x1
I0403 19:32:22.526003  9368 net.cpp:386] inception_4a/relu_1x1 -> inception_4a/1x1 (in-place)
I0403 19:32:22.526190  9368 net.cpp:141] Setting up inception_4a/relu_1x1
I0403 19:32:22.526218  9368 net.cpp:148] Top shape: 24 192 14 14 (903168)
I0403 19:32:22.526233  9368 net.cpp:156] Memory required for data: 861623328
I0403 19:32:22.526254  9368 layer_factory.hpp:77] Creating layer inception_4a/3x3_reduce
I0403 19:32:22.526279  9368 net.cpp:91] Creating Layer inception_4a/3x3_reduce
I0403 19:32:22.526298  9368 net.cpp:425] inception_4a/3x3_reduce <- pool3/3x3_s2_pool3/3x3_s2_0_split_1
I0403 19:32:22.526320  9368 net.cpp:399] inception_4a/3x3_reduce -> inception_4a/3x3_reduce
I0403 19:32:22.527639  9368 net.cpp:141] Setting up inception_4a/3x3_reduce
I0403 19:32:22.527670  9368 net.cpp:148] Top shape: 24 96 14 14 (451584)
I0403 19:32:22.527688  9368 net.cpp:156] Memory required for data: 863429664
I0403 19:32:22.527714  9368 layer_factory.hpp:77] Creating layer inception_4a/relu_3x3_reduce
I0403 19:32:22.527734  9368 net.cpp:91] Creating Layer inception_4a/relu_3x3_reduce
I0403 19:32:22.527750  9368 net.cpp:425] inception_4a/relu_3x3_reduce <- inception_4a/3x3_reduce
I0403 19:32:22.527768  9368 net.cpp:386] inception_4a/relu_3x3_reduce -> inception_4a/3x3_reduce (in-place)
I0403 19:32:22.527948  9368 net.cpp:141] Setting up inception_4a/relu_3x3_reduce
I0403 19:32:22.527974  9368 net.cpp:148] Top shape: 24 96 14 14 (451584)
I0403 19:32:22.527989  9368 net.cpp:156] Memory required for data: 865236000
I0403 19:32:22.528004  9368 layer_factory.hpp:77] Creating layer inception_4a/3x3
I0403 19:32:22.528028  9368 net.cpp:91] Creating Layer inception_4a/3x3
I0403 19:32:22.528045  9368 net.cpp:425] inception_4a/3x3 <- inception_4a/3x3_reduce
I0403 19:32:22.528066  9368 net.cpp:399] inception_4a/3x3 -> inception_4a/3x3
I0403 19:32:22.530788  9368 net.cpp:141] Setting up inception_4a/3x3
I0403 19:32:22.530817  9368 net.cpp:148] Top shape: 24 208 14 14 (978432)
I0403 19:32:22.530833  9368 net.cpp:156] Memory required for data: 869149728
I0403 19:32:22.530853  9368 layer_factory.hpp:77] Creating layer inception_4a/relu_3x3
I0403 19:32:22.530871  9368 net.cpp:91] Creating Layer inception_4a/relu_3x3
I0403 19:32:22.530889  9368 net.cpp:425] inception_4a/relu_3x3 <- inception_4a/3x3
I0403 19:32:22.530908  9368 net.cpp:386] inception_4a/relu_3x3 -> inception_4a/3x3 (in-place)
I0403 19:32:22.531193  9368 net.cpp:141] Setting up inception_4a/relu_3x3
I0403 19:32:22.531224  9368 net.cpp:148] Top shape: 24 208 14 14 (978432)
I0403 19:32:22.531245  9368 net.cpp:156] Memory required for data: 873063456
I0403 19:32:22.531262  9368 layer_factory.hpp:77] Creating layer inception_4a/5x5_reduce
I0403 19:32:22.531286  9368 net.cpp:91] Creating Layer inception_4a/5x5_reduce
I0403 19:32:22.531306  9368 net.cpp:425] inception_4a/5x5_reduce <- pool3/3x3_s2_pool3/3x3_s2_0_split_2
I0403 19:32:22.531328  9368 net.cpp:399] inception_4a/5x5_reduce -> inception_4a/5x5_reduce
I0403 19:32:22.532418  9368 net.cpp:141] Setting up inception_4a/5x5_reduce
I0403 19:32:22.532449  9368 net.cpp:148] Top shape: 24 16 14 14 (75264)
I0403 19:32:22.532466  9368 net.cpp:156] Memory required for data: 873364512
I0403 19:32:22.532486  9368 layer_factory.hpp:77] Creating layer inception_4a/relu_5x5_reduce
I0403 19:32:22.532508  9368 net.cpp:91] Creating Layer inception_4a/relu_5x5_reduce
I0403 19:32:22.532527  9368 net.cpp:425] inception_4a/relu_5x5_reduce <- inception_4a/5x5_reduce
I0403 19:32:22.532546  9368 net.cpp:386] inception_4a/relu_5x5_reduce -> inception_4a/5x5_reduce (in-place)
I0403 19:32:22.532732  9368 net.cpp:141] Setting up inception_4a/relu_5x5_reduce
I0403 19:32:22.532763  9368 net.cpp:148] Top shape: 24 16 14 14 (75264)
I0403 19:32:22.532779  9368 net.cpp:156] Memory required for data: 873665568
I0403 19:32:22.532804  9368 layer_factory.hpp:77] Creating layer inception_4a/5x5
I0403 19:32:22.532826  9368 net.cpp:91] Creating Layer inception_4a/5x5
I0403 19:32:22.532845  9368 net.cpp:425] inception_4a/5x5 <- inception_4a/5x5_reduce
I0403 19:32:22.532869  9368 net.cpp:399] inception_4a/5x5 -> inception_4a/5x5
I0403 19:32:22.533998  9368 net.cpp:141] Setting up inception_4a/5x5
I0403 19:32:22.534026  9368 net.cpp:148] Top shape: 24 48 14 14 (225792)
I0403 19:32:22.534042  9368 net.cpp:156] Memory required for data: 874568736
I0403 19:32:22.534061  9368 layer_factory.hpp:77] Creating layer inception_4a/relu_5x5
I0403 19:32:22.534082  9368 net.cpp:91] Creating Layer inception_4a/relu_5x5
I0403 19:32:22.534099  9368 net.cpp:425] inception_4a/relu_5x5 <- inception_4a/5x5
I0403 19:32:22.534117  9368 net.cpp:386] inception_4a/relu_5x5 -> inception_4a/5x5 (in-place)
I0403 19:32:22.534304  9368 net.cpp:141] Setting up inception_4a/relu_5x5
I0403 19:32:22.534329  9368 net.cpp:148] Top shape: 24 48 14 14 (225792)
I0403 19:32:22.534345  9368 net.cpp:156] Memory required for data: 875471904
I0403 19:32:22.534360  9368 layer_factory.hpp:77] Creating layer inception_4a/pool
I0403 19:32:22.534379  9368 net.cpp:91] Creating Layer inception_4a/pool
I0403 19:32:22.534395  9368 net.cpp:425] inception_4a/pool <- pool3/3x3_s2_pool3/3x3_s2_0_split_3
I0403 19:32:22.534416  9368 net.cpp:399] inception_4a/pool -> inception_4a/pool
I0403 19:32:22.534478  9368 net.cpp:141] Setting up inception_4a/pool
I0403 19:32:22.534502  9368 net.cpp:148] Top shape: 24 480 14 14 (2257920)
I0403 19:32:22.534518  9368 net.cpp:156] Memory required for data: 884503584
I0403 19:32:22.534533  9368 layer_factory.hpp:77] Creating layer inception_4a/pool_proj
I0403 19:32:22.534557  9368 net.cpp:91] Creating Layer inception_4a/pool_proj
I0403 19:32:22.534574  9368 net.cpp:425] inception_4a/pool_proj <- inception_4a/pool
I0403 19:32:22.534595  9368 net.cpp:399] inception_4a/pool_proj -> inception_4a/pool_proj
I0403 19:32:22.535795  9368 net.cpp:141] Setting up inception_4a/pool_proj
I0403 19:32:22.535827  9368 net.cpp:148] Top shape: 24 64 14 14 (301056)
I0403 19:32:22.535859  9368 net.cpp:156] Memory required for data: 885707808
I0403 19:32:22.535879  9368 layer_factory.hpp:77] Creating layer inception_4a/relu_pool_proj
I0403 19:32:22.535898  9368 net.cpp:91] Creating Layer inception_4a/relu_pool_proj
I0403 19:32:22.535917  9368 net.cpp:425] inception_4a/relu_pool_proj <- inception_4a/pool_proj
I0403 19:32:22.535939  9368 net.cpp:386] inception_4a/relu_pool_proj -> inception_4a/pool_proj (in-place)
I0403 19:32:22.536226  9368 net.cpp:141] Setting up inception_4a/relu_pool_proj
I0403 19:32:22.536262  9368 net.cpp:148] Top shape: 24 64 14 14 (301056)
I0403 19:32:22.536279  9368 net.cpp:156] Memory required for data: 886912032
I0403 19:32:22.536296  9368 layer_factory.hpp:77] Creating layer inception_4a/output
I0403 19:32:22.536314  9368 net.cpp:91] Creating Layer inception_4a/output
I0403 19:32:22.536330  9368 net.cpp:425] inception_4a/output <- inception_4a/1x1
I0403 19:32:22.536346  9368 net.cpp:425] inception_4a/output <- inception_4a/3x3
I0403 19:32:22.536363  9368 net.cpp:425] inception_4a/output <- inception_4a/5x5
I0403 19:32:22.536380  9368 net.cpp:425] inception_4a/output <- inception_4a/pool_proj
I0403 19:32:22.536396  9368 net.cpp:399] inception_4a/output -> inception_4a/output
I0403 19:32:22.536447  9368 net.cpp:141] Setting up inception_4a/output
I0403 19:32:22.536469  9368 net.cpp:148] Top shape: 24 512 14 14 (2408448)
I0403 19:32:22.536484  9368 net.cpp:156] Memory required for data: 896545824
I0403 19:32:22.536499  9368 layer_factory.hpp:77] Creating layer inception_4a/output_inception_4a/output_0_split
I0403 19:32:22.536520  9368 net.cpp:91] Creating Layer inception_4a/output_inception_4a/output_0_split
I0403 19:32:22.536536  9368 net.cpp:425] inception_4a/output_inception_4a/output_0_split <- inception_4a/output
I0403 19:32:22.536555  9368 net.cpp:399] inception_4a/output_inception_4a/output_0_split -> inception_4a/output_inception_4a/output_0_split_0
I0403 19:32:22.536574  9368 net.cpp:399] inception_4a/output_inception_4a/output_0_split -> inception_4a/output_inception_4a/output_0_split_1
I0403 19:32:22.536598  9368 net.cpp:399] inception_4a/output_inception_4a/output_0_split -> inception_4a/output_inception_4a/output_0_split_2
I0403 19:32:22.536619  9368 net.cpp:399] inception_4a/output_inception_4a/output_0_split -> inception_4a/output_inception_4a/output_0_split_3
I0403 19:32:22.536639  9368 net.cpp:399] inception_4a/output_inception_4a/output_0_split -> inception_4a/output_inception_4a/output_0_split_4
I0403 19:32:22.536732  9368 net.cpp:141] Setting up inception_4a/output_inception_4a/output_0_split
I0403 19:32:22.536756  9368 net.cpp:148] Top shape: 24 512 14 14 (2408448)
I0403 19:32:22.536773  9368 net.cpp:148] Top shape: 24 512 14 14 (2408448)
I0403 19:32:22.536789  9368 net.cpp:148] Top shape: 24 512 14 14 (2408448)
I0403 19:32:22.536805  9368 net.cpp:148] Top shape: 24 512 14 14 (2408448)
I0403 19:32:22.536820  9368 net.cpp:148] Top shape: 24 512 14 14 (2408448)
I0403 19:32:22.536835  9368 net.cpp:156] Memory required for data: 944714784
I0403 19:32:22.536850  9368 layer_factory.hpp:77] Creating layer loss1/ave_pool
I0403 19:32:22.536867  9368 net.cpp:91] Creating Layer loss1/ave_pool
I0403 19:32:22.536885  9368 net.cpp:425] loss1/ave_pool <- inception_4a/output_inception_4a/output_0_split_0
I0403 19:32:22.536905  9368 net.cpp:399] loss1/ave_pool -> loss1/ave_pool
I0403 19:32:22.537114  9368 net.cpp:141] Setting up loss1/ave_pool
I0403 19:32:22.537144  9368 net.cpp:148] Top shape: 24 512 4 4 (196608)
I0403 19:32:22.537160  9368 net.cpp:156] Memory required for data: 945501216
I0403 19:32:22.537175  9368 layer_factory.hpp:77] Creating layer loss1/conv
I0403 19:32:22.537197  9368 net.cpp:91] Creating Layer loss1/conv
I0403 19:32:22.537217  9368 net.cpp:425] loss1/conv <- loss1/ave_pool
I0403 19:32:22.537236  9368 net.cpp:399] loss1/conv -> loss1/conv
I0403 19:32:22.538687  9368 net.cpp:141] Setting up loss1/conv
I0403 19:32:22.538715  9368 net.cpp:148] Top shape: 24 128 4 4 (49152)
I0403 19:32:22.538733  9368 net.cpp:156] Memory required for data: 945697824
I0403 19:32:22.538766  9368 layer_factory.hpp:77] Creating layer loss1/relu_conv
I0403 19:32:22.538786  9368 net.cpp:91] Creating Layer loss1/relu_conv
I0403 19:32:22.538802  9368 net.cpp:425] loss1/relu_conv <- loss1/conv
I0403 19:32:22.538822  9368 net.cpp:386] loss1/relu_conv -> loss1/conv (in-place)
I0403 19:32:22.539110  9368 net.cpp:141] Setting up loss1/relu_conv
I0403 19:32:22.539139  9368 net.cpp:148] Top shape: 24 128 4 4 (49152)
I0403 19:32:22.539155  9368 net.cpp:156] Memory required for data: 945894432
I0403 19:32:22.539170  9368 layer_factory.hpp:77] Creating layer loss1/fc
I0403 19:32:22.539194  9368 net.cpp:91] Creating Layer loss1/fc
I0403 19:32:22.539211  9368 net.cpp:425] loss1/fc <- loss1/conv
I0403 19:32:22.539232  9368 net.cpp:399] loss1/fc -> loss1/fc
I0403 19:32:22.557029  9368 net.cpp:141] Setting up loss1/fc
I0403 19:32:22.557060  9368 net.cpp:148] Top shape: 24 1024 (24576)
I0403 19:32:22.557075  9368 net.cpp:156] Memory required for data: 945992736
I0403 19:32:22.557093  9368 layer_factory.hpp:77] Creating layer loss1/relu_fc
I0403 19:32:22.557112  9368 net.cpp:91] Creating Layer loss1/relu_fc
I0403 19:32:22.557129  9368 net.cpp:425] loss1/relu_fc <- loss1/fc
I0403 19:32:22.557147  9368 net.cpp:386] loss1/relu_fc -> loss1/fc (in-place)
I0403 19:32:22.557334  9368 net.cpp:141] Setting up loss1/relu_fc
I0403 19:32:22.557358  9368 net.cpp:148] Top shape: 24 1024 (24576)
I0403 19:32:22.557374  9368 net.cpp:156] Memory required for data: 946091040
I0403 19:32:22.557389  9368 layer_factory.hpp:77] Creating layer loss1/drop_fc
I0403 19:32:22.557415  9368 net.cpp:91] Creating Layer loss1/drop_fc
I0403 19:32:22.557431  9368 net.cpp:425] loss1/drop_fc <- loss1/fc
I0403 19:32:22.557451  9368 net.cpp:386] loss1/drop_fc -> loss1/fc (in-place)
I0403 19:32:22.557499  9368 net.cpp:141] Setting up loss1/drop_fc
I0403 19:32:22.557523  9368 net.cpp:148] Top shape: 24 1024 (24576)
I0403 19:32:22.557536  9368 net.cpp:156] Memory required for data: 946189344
I0403 19:32:22.557551  9368 layer_factory.hpp:77] Creating layer loss1/classifier_plantvillage
I0403 19:32:22.557574  9368 net.cpp:91] Creating Layer loss1/classifier_plantvillage
I0403 19:32:22.557591  9368 net.cpp:425] loss1/classifier_plantvillage <- loss1/fc
I0403 19:32:22.557611  9368 net.cpp:399] loss1/classifier_plantvillage -> loss1/classifier_plantvillage
I0403 19:32:22.558501  9368 net.cpp:141] Setting up loss1/classifier_plantvillage
I0403 19:32:22.558528  9368 net.cpp:148] Top shape: 24 38 (912)
I0403 19:32:22.558543  9368 net.cpp:156] Memory required for data: 946192992
I0403 19:32:22.558562  9368 layer_factory.hpp:77] Creating layer loss1/classifier_plantvillage_loss1/classifier_plantvillage_0_split
I0403 19:32:22.558580  9368 net.cpp:91] Creating Layer loss1/classifier_plantvillage_loss1/classifier_plantvillage_0_split
I0403 19:32:22.558598  9368 net.cpp:425] loss1/classifier_plantvillage_loss1/classifier_plantvillage_0_split <- loss1/classifier_plantvillage
I0403 19:32:22.558616  9368 net.cpp:399] loss1/classifier_plantvillage_loss1/classifier_plantvillage_0_split -> loss1/classifier_plantvillage_loss1/classifier_plantvillage_0_split_0
I0403 19:32:22.558639  9368 net.cpp:399] loss1/classifier_plantvillage_loss1/classifier_plantvillage_0_split -> loss1/classifier_plantvillage_loss1/classifier_plantvillage_0_split_1
I0403 19:32:22.558658  9368 net.cpp:399] loss1/classifier_plantvillage_loss1/classifier_plantvillage_0_split -> loss1/classifier_plantvillage_loss1/classifier_plantvillage_0_split_2
I0403 19:32:22.558724  9368 net.cpp:141] Setting up loss1/classifier_plantvillage_loss1/classifier_plantvillage_0_split
I0403 19:32:22.558748  9368 net.cpp:148] Top shape: 24 38 (912)
I0403 19:32:22.558764  9368 net.cpp:148] Top shape: 24 38 (912)
I0403 19:32:22.558780  9368 net.cpp:148] Top shape: 24 38 (912)
I0403 19:32:22.558794  9368 net.cpp:156] Memory required for data: 946203936
I0403 19:32:22.558809  9368 layer_factory.hpp:77] Creating layer inception_4b/1x1
I0403 19:32:22.558833  9368 net.cpp:91] Creating Layer inception_4b/1x1
I0403 19:32:22.558864  9368 net.cpp:425] inception_4b/1x1 <- inception_4a/output_inception_4a/output_0_split_1
I0403 19:32:22.558886  9368 net.cpp:399] inception_4b/1x1 -> inception_4b/1x1
I0403 19:32:22.560511  9368 net.cpp:141] Setting up inception_4b/1x1
I0403 19:32:22.560540  9368 net.cpp:148] Top shape: 24 160 14 14 (752640)
I0403 19:32:22.560557  9368 net.cpp:156] Memory required for data: 949214496
I0403 19:32:22.560575  9368 layer_factory.hpp:77] Creating layer inception_4b/relu_1x1
I0403 19:32:22.560595  9368 net.cpp:91] Creating Layer inception_4b/relu_1x1
I0403 19:32:22.560611  9368 net.cpp:425] inception_4b/relu_1x1 <- inception_4b/1x1
I0403 19:32:22.560631  9368 net.cpp:386] inception_4b/relu_1x1 -> inception_4b/1x1 (in-place)
I0403 19:32:22.560808  9368 net.cpp:141] Setting up inception_4b/relu_1x1
I0403 19:32:22.560832  9368 net.cpp:148] Top shape: 24 160 14 14 (752640)
I0403 19:32:22.560847  9368 net.cpp:156] Memory required for data: 952225056
I0403 19:32:22.560863  9368 layer_factory.hpp:77] Creating layer inception_4b/3x3_reduce
I0403 19:32:22.560884  9368 net.cpp:91] Creating Layer inception_4b/3x3_reduce
I0403 19:32:22.560901  9368 net.cpp:425] inception_4b/3x3_reduce <- inception_4a/output_inception_4a/output_0_split_2
I0403 19:32:22.560925  9368 net.cpp:399] inception_4b/3x3_reduce -> inception_4b/3x3_reduce
I0403 19:32:22.562283  9368 net.cpp:141] Setting up inception_4b/3x3_reduce
I0403 19:32:22.562310  9368 net.cpp:148] Top shape: 24 112 14 14 (526848)
I0403 19:32:22.562326  9368 net.cpp:156] Memory required for data: 954332448
I0403 19:32:22.562345  9368 layer_factory.hpp:77] Creating layer inception_4b/relu_3x3_reduce
I0403 19:32:22.562366  9368 net.cpp:91] Creating Layer inception_4b/relu_3x3_reduce
I0403 19:32:22.562381  9368 net.cpp:425] inception_4b/relu_3x3_reduce <- inception_4b/3x3_reduce
I0403 19:32:22.562398  9368 net.cpp:386] inception_4b/relu_3x3_reduce -> inception_4b/3x3_reduce (in-place)
I0403 19:32:22.562680  9368 net.cpp:141] Setting up inception_4b/relu_3x3_reduce
I0403 19:32:22.562705  9368 net.cpp:148] Top shape: 24 112 14 14 (526848)
I0403 19:32:22.562721  9368 net.cpp:156] Memory required for data: 956439840
I0403 19:32:22.562736  9368 layer_factory.hpp:77] Creating layer inception_4b/3x3
I0403 19:32:22.562758  9368 net.cpp:91] Creating Layer inception_4b/3x3
I0403 19:32:22.562775  9368 net.cpp:425] inception_4b/3x3 <- inception_4b/3x3_reduce
I0403 19:32:22.562796  9368 net.cpp:399] inception_4b/3x3 -> inception_4b/3x3
I0403 19:32:22.565753  9368 net.cpp:141] Setting up inception_4b/3x3
I0403 19:32:22.565784  9368 net.cpp:148] Top shape: 24 224 14 14 (1053696)
I0403 19:32:22.565800  9368 net.cpp:156] Memory required for data: 960654624
I0403 19:32:22.565819  9368 layer_factory.hpp:77] Creating layer inception_4b/relu_3x3
I0403 19:32:22.565836  9368 net.cpp:91] Creating Layer inception_4b/relu_3x3
I0403 19:32:22.565852  9368 net.cpp:425] inception_4b/relu_3x3 <- inception_4b/3x3
I0403 19:32:22.565872  9368 net.cpp:386] inception_4b/relu_3x3 -> inception_4b/3x3 (in-place)
I0403 19:32:22.566052  9368 net.cpp:141] Setting up inception_4b/relu_3x3
I0403 19:32:22.566077  9368 net.cpp:148] Top shape: 24 224 14 14 (1053696)
I0403 19:32:22.566092  9368 net.cpp:156] Memory required for data: 964869408
I0403 19:32:22.566107  9368 layer_factory.hpp:77] Creating layer inception_4b/5x5_reduce
I0403 19:32:22.566130  9368 net.cpp:91] Creating Layer inception_4b/5x5_reduce
I0403 19:32:22.566148  9368 net.cpp:425] inception_4b/5x5_reduce <- inception_4a/output_inception_4a/output_0_split_3
I0403 19:32:22.566169  9368 net.cpp:399] inception_4b/5x5_reduce -> inception_4b/5x5_reduce
I0403 19:32:22.567252  9368 net.cpp:141] Setting up inception_4b/5x5_reduce
I0403 19:32:22.567281  9368 net.cpp:148] Top shape: 24 24 14 14 (112896)
I0403 19:32:22.567296  9368 net.cpp:156] Memory required for data: 965320992
I0403 19:32:22.567314  9368 layer_factory.hpp:77] Creating layer inception_4b/relu_5x5_reduce
I0403 19:32:22.567334  9368 net.cpp:91] Creating Layer inception_4b/relu_5x5_reduce
I0403 19:32:22.567364  9368 net.cpp:425] inception_4b/relu_5x5_reduce <- inception_4b/5x5_reduce
I0403 19:32:22.567384  9368 net.cpp:386] inception_4b/relu_5x5_reduce -> inception_4b/5x5_reduce (in-place)
I0403 19:32:22.567569  9368 net.cpp:141] Setting up inception_4b/relu_5x5_reduce
I0403 19:32:22.567594  9368 net.cpp:148] Top shape: 24 24 14 14 (112896)
I0403 19:32:22.567608  9368 net.cpp:156] Memory required for data: 965772576
I0403 19:32:22.567623  9368 layer_factory.hpp:77] Creating layer inception_4b/5x5
I0403 19:32:22.567649  9368 net.cpp:91] Creating Layer inception_4b/5x5
I0403 19:32:22.567667  9368 net.cpp:425] inception_4b/5x5 <- inception_4b/5x5_reduce
I0403 19:32:22.567687  9368 net.cpp:399] inception_4b/5x5 -> inception_4b/5x5
I0403 19:32:22.568920  9368 net.cpp:141] Setting up inception_4b/5x5
I0403 19:32:22.568949  9368 net.cpp:148] Top shape: 24 64 14 14 (301056)
I0403 19:32:22.568965  9368 net.cpp:156] Memory required for data: 966976800
I0403 19:32:22.568984  9368 layer_factory.hpp:77] Creating layer inception_4b/relu_5x5
I0403 19:32:22.569002  9368 net.cpp:91] Creating Layer inception_4b/relu_5x5
I0403 19:32:22.569017  9368 net.cpp:425] inception_4b/relu_5x5 <- inception_4b/5x5
I0403 19:32:22.569038  9368 net.cpp:386] inception_4b/relu_5x5 -> inception_4b/5x5 (in-place)
I0403 19:32:22.569334  9368 net.cpp:141] Setting up inception_4b/relu_5x5
I0403 19:32:22.569360  9368 net.cpp:148] Top shape: 24 64 14 14 (301056)
I0403 19:32:22.569375  9368 net.cpp:156] Memory required for data: 968181024
I0403 19:32:22.569392  9368 layer_factory.hpp:77] Creating layer inception_4b/pool
I0403 19:32:22.569411  9368 net.cpp:91] Creating Layer inception_4b/pool
I0403 19:32:22.569427  9368 net.cpp:425] inception_4b/pool <- inception_4a/output_inception_4a/output_0_split_4
I0403 19:32:22.569448  9368 net.cpp:399] inception_4b/pool -> inception_4b/pool
I0403 19:32:22.569514  9368 net.cpp:141] Setting up inception_4b/pool
I0403 19:32:22.569538  9368 net.cpp:148] Top shape: 24 512 14 14 (2408448)
I0403 19:32:22.569553  9368 net.cpp:156] Memory required for data: 977814816
I0403 19:32:22.569569  9368 layer_factory.hpp:77] Creating layer inception_4b/pool_proj
I0403 19:32:22.569593  9368 net.cpp:91] Creating Layer inception_4b/pool_proj
I0403 19:32:22.569612  9368 net.cpp:425] inception_4b/pool_proj <- inception_4b/pool
I0403 19:32:22.569631  9368 net.cpp:399] inception_4b/pool_proj -> inception_4b/pool_proj
I0403 19:32:22.570833  9368 net.cpp:141] Setting up inception_4b/pool_proj
I0403 19:32:22.570863  9368 net.cpp:148] Top shape: 24 64 14 14 (301056)
I0403 19:32:22.570878  9368 net.cpp:156] Memory required for data: 979019040
I0403 19:32:22.570895  9368 layer_factory.hpp:77] Creating layer inception_4b/relu_pool_proj
I0403 19:32:22.570915  9368 net.cpp:91] Creating Layer inception_4b/relu_pool_proj
I0403 19:32:22.570932  9368 net.cpp:425] inception_4b/relu_pool_proj <- inception_4b/pool_proj
I0403 19:32:22.570951  9368 net.cpp:386] inception_4b/relu_pool_proj -> inception_4b/pool_proj (in-place)
I0403 19:32:22.571130  9368 net.cpp:141] Setting up inception_4b/relu_pool_proj
I0403 19:32:22.571156  9368 net.cpp:148] Top shape: 24 64 14 14 (301056)
I0403 19:32:22.571172  9368 net.cpp:156] Memory required for data: 980223264
I0403 19:32:22.571189  9368 layer_factory.hpp:77] Creating layer inception_4b/output
I0403 19:32:22.571209  9368 net.cpp:91] Creating Layer inception_4b/output
I0403 19:32:22.571224  9368 net.cpp:425] inception_4b/output <- inception_4b/1x1
I0403 19:32:22.571245  9368 net.cpp:425] inception_4b/output <- inception_4b/3x3
I0403 19:32:22.571264  9368 net.cpp:425] inception_4b/output <- inception_4b/5x5
I0403 19:32:22.571280  9368 net.cpp:425] inception_4b/output <- inception_4b/pool_proj
I0403 19:32:22.571296  9368 net.cpp:399] inception_4b/output -> inception_4b/output
I0403 19:32:22.571342  9368 net.cpp:141] Setting up inception_4b/output
I0403 19:32:22.571365  9368 net.cpp:148] Top shape: 24 512 14 14 (2408448)
I0403 19:32:22.571380  9368 net.cpp:156] Memory required for data: 989857056
I0403 19:32:22.571411  9368 layer_factory.hpp:77] Creating layer inception_4b/output_inception_4b/output_0_split
I0403 19:32:22.571431  9368 net.cpp:91] Creating Layer inception_4b/output_inception_4b/output_0_split
I0403 19:32:22.571449  9368 net.cpp:425] inception_4b/output_inception_4b/output_0_split <- inception_4b/output
I0403 19:32:22.571466  9368 net.cpp:399] inception_4b/output_inception_4b/output_0_split -> inception_4b/output_inception_4b/output_0_split_0
I0403 19:32:22.571486  9368 net.cpp:399] inception_4b/output_inception_4b/output_0_split -> inception_4b/output_inception_4b/output_0_split_1
I0403 19:32:22.571506  9368 net.cpp:399] inception_4b/output_inception_4b/output_0_split -> inception_4b/output_inception_4b/output_0_split_2
I0403 19:32:22.571527  9368 net.cpp:399] inception_4b/output_inception_4b/output_0_split -> inception_4b/output_inception_4b/output_0_split_3
I0403 19:32:22.571611  9368 net.cpp:141] Setting up inception_4b/output_inception_4b/output_0_split
I0403 19:32:22.571636  9368 net.cpp:148] Top shape: 24 512 14 14 (2408448)
I0403 19:32:22.571653  9368 net.cpp:148] Top shape: 24 512 14 14 (2408448)
I0403 19:32:22.571669  9368 net.cpp:148] Top shape: 24 512 14 14 (2408448)
I0403 19:32:22.571684  9368 net.cpp:148] Top shape: 24 512 14 14 (2408448)
I0403 19:32:22.571698  9368 net.cpp:156] Memory required for data: 1028392224
I0403 19:32:22.571713  9368 layer_factory.hpp:77] Creating layer inception_4c/1x1
I0403 19:32:22.571735  9368 net.cpp:91] Creating Layer inception_4c/1x1
I0403 19:32:22.571753  9368 net.cpp:425] inception_4c/1x1 <- inception_4b/output_inception_4b/output_0_split_0
I0403 19:32:22.571774  9368 net.cpp:399] inception_4c/1x1 -> inception_4c/1x1
I0403 19:32:22.573263  9368 net.cpp:141] Setting up inception_4c/1x1
I0403 19:32:22.573297  9368 net.cpp:148] Top shape: 24 128 14 14 (602112)
I0403 19:32:22.573314  9368 net.cpp:156] Memory required for data: 1030800672
I0403 19:32:22.573334  9368 layer_factory.hpp:77] Creating layer inception_4c/relu_1x1
I0403 19:32:22.573356  9368 net.cpp:91] Creating Layer inception_4c/relu_1x1
I0403 19:32:22.573374  9368 net.cpp:425] inception_4c/relu_1x1 <- inception_4c/1x1
I0403 19:32:22.573392  9368 net.cpp:386] inception_4c/relu_1x1 -> inception_4c/1x1 (in-place)
I0403 19:32:22.573580  9368 net.cpp:141] Setting up inception_4c/relu_1x1
I0403 19:32:22.573606  9368 net.cpp:148] Top shape: 24 128 14 14 (602112)
I0403 19:32:22.573621  9368 net.cpp:156] Memory required for data: 1033209120
I0403 19:32:22.573637  9368 layer_factory.hpp:77] Creating layer inception_4c/3x3_reduce
I0403 19:32:22.573659  9368 net.cpp:91] Creating Layer inception_4c/3x3_reduce
I0403 19:32:22.573678  9368 net.cpp:425] inception_4c/3x3_reduce <- inception_4b/output_inception_4b/output_0_split_1
I0403 19:32:22.573699  9368 net.cpp:399] inception_4c/3x3_reduce -> inception_4c/3x3_reduce
I0403 19:32:22.575675  9368 net.cpp:141] Setting up inception_4c/3x3_reduce
I0403 19:32:22.575705  9368 net.cpp:148] Top shape: 24 128 14 14 (602112)
I0403 19:32:22.575721  9368 net.cpp:156] Memory required for data: 1035617568
I0403 19:32:22.575739  9368 layer_factory.hpp:77] Creating layer inception_4c/relu_3x3_reduce
I0403 19:32:22.575760  9368 net.cpp:91] Creating Layer inception_4c/relu_3x3_reduce
I0403 19:32:22.575778  9368 net.cpp:425] inception_4c/relu_3x3_reduce <- inception_4c/3x3_reduce
I0403 19:32:22.575798  9368 net.cpp:386] inception_4c/relu_3x3_reduce -> inception_4c/3x3_reduce (in-place)
I0403 19:32:22.576086  9368 net.cpp:141] Setting up inception_4c/relu_3x3_reduce
I0403 19:32:22.576113  9368 net.cpp:148] Top shape: 24 128 14 14 (602112)
I0403 19:32:22.576128  9368 net.cpp:156] Memory required for data: 1038026016
I0403 19:32:22.576144  9368 layer_factory.hpp:77] Creating layer inception_4c/3x3
I0403 19:32:22.576167  9368 net.cpp:91] Creating Layer inception_4c/3x3
I0403 19:32:22.576186  9368 net.cpp:425] inception_4c/3x3 <- inception_4c/3x3_reduce
I0403 19:32:22.576208  9368 net.cpp:399] inception_4c/3x3 -> inception_4c/3x3
I0403 19:32:22.580099  9368 net.cpp:141] Setting up inception_4c/3x3
I0403 19:32:22.580145  9368 net.cpp:148] Top shape: 24 256 14 14 (1204224)
I0403 19:32:22.580162  9368 net.cpp:156] Memory required for data: 1042842912
I0403 19:32:22.580195  9368 layer_factory.hpp:77] Creating layer inception_4c/relu_3x3
I0403 19:32:22.580219  9368 net.cpp:91] Creating Layer inception_4c/relu_3x3
I0403 19:32:22.580236  9368 net.cpp:425] inception_4c/relu_3x3 <- inception_4c/3x3
I0403 19:32:22.580258  9368 net.cpp:386] inception_4c/relu_3x3 -> inception_4c/3x3 (in-place)
I0403 19:32:22.580446  9368 net.cpp:141] Setting up inception_4c/relu_3x3
I0403 19:32:22.580471  9368 net.cpp:148] Top shape: 24 256 14 14 (1204224)
I0403 19:32:22.580487  9368 net.cpp:156] Memory required for data: 1047659808
I0403 19:32:22.580502  9368 layer_factory.hpp:77] Creating layer inception_4c/5x5_reduce
I0403 19:32:22.580524  9368 net.cpp:91] Creating Layer inception_4c/5x5_reduce
I0403 19:32:22.580541  9368 net.cpp:425] inception_4c/5x5_reduce <- inception_4b/output_inception_4b/output_0_split_2
I0403 19:32:22.580564  9368 net.cpp:399] inception_4c/5x5_reduce -> inception_4c/5x5_reduce
I0403 19:32:22.581691  9368 net.cpp:141] Setting up inception_4c/5x5_reduce
I0403 19:32:22.581718  9368 net.cpp:148] Top shape: 24 24 14 14 (112896)
I0403 19:32:22.581735  9368 net.cpp:156] Memory required for data: 1048111392
I0403 19:32:22.581753  9368 layer_factory.hpp:77] Creating layer inception_4c/relu_5x5_reduce
I0403 19:32:22.581774  9368 net.cpp:91] Creating Layer inception_4c/relu_5x5_reduce
I0403 19:32:22.581791  9368 net.cpp:425] inception_4c/relu_5x5_reduce <- inception_4c/5x5_reduce
I0403 19:32:22.581809  9368 net.cpp:386] inception_4c/relu_5x5_reduce -> inception_4c/5x5_reduce (in-place)
I0403 19:32:22.581997  9368 net.cpp:141] Setting up inception_4c/relu_5x5_reduce
I0403 19:32:22.582022  9368 net.cpp:148] Top shape: 24 24 14 14 (112896)
I0403 19:32:22.582037  9368 net.cpp:156] Memory required for data: 1048562976
I0403 19:32:22.582052  9368 layer_factory.hpp:77] Creating layer inception_4c/5x5
I0403 19:32:22.582077  9368 net.cpp:91] Creating Layer inception_4c/5x5
I0403 19:32:22.582095  9368 net.cpp:425] inception_4c/5x5 <- inception_4c/5x5_reduce
I0403 19:32:22.582114  9368 net.cpp:399] inception_4c/5x5 -> inception_4c/5x5
I0403 19:32:22.583415  9368 net.cpp:141] Setting up inception_4c/5x5
I0403 19:32:22.583446  9368 net.cpp:148] Top shape: 24 64 14 14 (301056)
I0403 19:32:22.583462  9368 net.cpp:156] Memory required for data: 1049767200
I0403 19:32:22.583480  9368 layer_factory.hpp:77] Creating layer inception_4c/relu_5x5
I0403 19:32:22.583498  9368 net.cpp:91] Creating Layer inception_4c/relu_5x5
I0403 19:32:22.583514  9368 net.cpp:425] inception_4c/relu_5x5 <- inception_4c/5x5
I0403 19:32:22.583533  9368 net.cpp:386] inception_4c/relu_5x5 -> inception_4c/5x5 (in-place)
I0403 19:32:22.583833  9368 net.cpp:141] Setting up inception_4c/relu_5x5
I0403 19:32:22.583863  9368 net.cpp:148] Top shape: 24 64 14 14 (301056)
I0403 19:32:22.583879  9368 net.cpp:156] Memory required for data: 1050971424
I0403 19:32:22.583895  9368 layer_factory.hpp:77] Creating layer inception_4c/pool
I0403 19:32:22.583914  9368 net.cpp:91] Creating Layer inception_4c/pool
I0403 19:32:22.583930  9368 net.cpp:425] inception_4c/pool <- inception_4b/output_inception_4b/output_0_split_3
I0403 19:32:22.583947  9368 net.cpp:399] inception_4c/pool -> inception_4c/pool
I0403 19:32:22.584017  9368 net.cpp:141] Setting up inception_4c/pool
I0403 19:32:22.584040  9368 net.cpp:148] Top shape: 24 512 14 14 (2408448)
I0403 19:32:22.584055  9368 net.cpp:156] Memory required for data: 1060605216
I0403 19:32:22.584070  9368 layer_factory.hpp:77] Creating layer inception_4c/pool_proj
I0403 19:32:22.584092  9368 net.cpp:91] Creating Layer inception_4c/pool_proj
I0403 19:32:22.584110  9368 net.cpp:425] inception_4c/pool_proj <- inception_4c/pool
I0403 19:32:22.584131  9368 net.cpp:399] inception_4c/pool_proj -> inception_4c/pool_proj
I0403 19:32:22.585417  9368 net.cpp:141] Setting up inception_4c/pool_proj
I0403 19:32:22.585446  9368 net.cpp:148] Top shape: 24 64 14 14 (301056)
I0403 19:32:22.585476  9368 net.cpp:156] Memory required for data: 1061809440
I0403 19:32:22.585496  9368 layer_factory.hpp:77] Creating layer inception_4c/relu_pool_proj
I0403 19:32:22.585518  9368 net.cpp:91] Creating Layer inception_4c/relu_pool_proj
I0403 19:32:22.585536  9368 net.cpp:425] inception_4c/relu_pool_proj <- inception_4c/pool_proj
I0403 19:32:22.585553  9368 net.cpp:386] inception_4c/relu_pool_proj -> inception_4c/pool_proj (in-place)
I0403 19:32:22.585742  9368 net.cpp:141] Setting up inception_4c/relu_pool_proj
I0403 19:32:22.585770  9368 net.cpp:148] Top shape: 24 64 14 14 (301056)
I0403 19:32:22.585786  9368 net.cpp:156] Memory required for data: 1063013664
I0403 19:32:22.585803  9368 layer_factory.hpp:77] Creating layer inception_4c/output
I0403 19:32:22.585820  9368 net.cpp:91] Creating Layer inception_4c/output
I0403 19:32:22.585836  9368 net.cpp:425] inception_4c/output <- inception_4c/1x1
I0403 19:32:22.585853  9368 net.cpp:425] inception_4c/output <- inception_4c/3x3
I0403 19:32:22.585870  9368 net.cpp:425] inception_4c/output <- inception_4c/5x5
I0403 19:32:22.585886  9368 net.cpp:425] inception_4c/output <- inception_4c/pool_proj
I0403 19:32:22.585903  9368 net.cpp:399] inception_4c/output -> inception_4c/output
I0403 19:32:22.585952  9368 net.cpp:141] Setting up inception_4c/output
I0403 19:32:22.585976  9368 net.cpp:148] Top shape: 24 512 14 14 (2408448)
I0403 19:32:22.585991  9368 net.cpp:156] Memory required for data: 1072647456
I0403 19:32:22.586007  9368 layer_factory.hpp:77] Creating layer inception_4c/output_inception_4c/output_0_split
I0403 19:32:22.586025  9368 net.cpp:91] Creating Layer inception_4c/output_inception_4c/output_0_split
I0403 19:32:22.586040  9368 net.cpp:425] inception_4c/output_inception_4c/output_0_split <- inception_4c/output
I0403 19:32:22.586061  9368 net.cpp:399] inception_4c/output_inception_4c/output_0_split -> inception_4c/output_inception_4c/output_0_split_0
I0403 19:32:22.586081  9368 net.cpp:399] inception_4c/output_inception_4c/output_0_split -> inception_4c/output_inception_4c/output_0_split_1
I0403 19:32:22.586102  9368 net.cpp:399] inception_4c/output_inception_4c/output_0_split -> inception_4c/output_inception_4c/output_0_split_2
I0403 19:32:22.586122  9368 net.cpp:399] inception_4c/output_inception_4c/output_0_split -> inception_4c/output_inception_4c/output_0_split_3
I0403 19:32:22.586210  9368 net.cpp:141] Setting up inception_4c/output_inception_4c/output_0_split
I0403 19:32:22.586235  9368 net.cpp:148] Top shape: 24 512 14 14 (2408448)
I0403 19:32:22.586256  9368 net.cpp:148] Top shape: 24 512 14 14 (2408448)
I0403 19:32:22.586272  9368 net.cpp:148] Top shape: 24 512 14 14 (2408448)
I0403 19:32:22.586288  9368 net.cpp:148] Top shape: 24 512 14 14 (2408448)
I0403 19:32:22.586303  9368 net.cpp:156] Memory required for data: 1111182624
I0403 19:32:22.586318  9368 layer_factory.hpp:77] Creating layer inception_4d/1x1
I0403 19:32:22.586343  9368 net.cpp:91] Creating Layer inception_4d/1x1
I0403 19:32:22.586360  9368 net.cpp:425] inception_4d/1x1 <- inception_4c/output_inception_4c/output_0_split_0
I0403 19:32:22.586381  9368 net.cpp:399] inception_4d/1x1 -> inception_4d/1x1
I0403 19:32:22.587806  9368 net.cpp:141] Setting up inception_4d/1x1
I0403 19:32:22.587834  9368 net.cpp:148] Top shape: 24 112 14 14 (526848)
I0403 19:32:22.587849  9368 net.cpp:156] Memory required for data: 1113290016
I0403 19:32:22.587868  9368 layer_factory.hpp:77] Creating layer inception_4d/relu_1x1
I0403 19:32:22.587888  9368 net.cpp:91] Creating Layer inception_4d/relu_1x1
I0403 19:32:22.587904  9368 net.cpp:425] inception_4d/relu_1x1 <- inception_4d/1x1
I0403 19:32:22.587924  9368 net.cpp:386] inception_4d/relu_1x1 -> inception_4d/1x1 (in-place)
I0403 19:32:22.588112  9368 net.cpp:141] Setting up inception_4d/relu_1x1
I0403 19:32:22.588137  9368 net.cpp:148] Top shape: 24 112 14 14 (526848)
I0403 19:32:22.588152  9368 net.cpp:156] Memory required for data: 1115397408
I0403 19:32:22.588168  9368 layer_factory.hpp:77] Creating layer inception_4d/3x3_reduce
I0403 19:32:22.588206  9368 net.cpp:91] Creating Layer inception_4d/3x3_reduce
I0403 19:32:22.588224  9368 net.cpp:425] inception_4d/3x3_reduce <- inception_4c/output_inception_4c/output_0_split_1
I0403 19:32:22.588250  9368 net.cpp:399] inception_4d/3x3_reduce -> inception_4d/3x3_reduce
I0403 19:32:22.589799  9368 net.cpp:141] Setting up inception_4d/3x3_reduce
I0403 19:32:22.589829  9368 net.cpp:148] Top shape: 24 144 14 14 (677376)
I0403 19:32:22.589846  9368 net.cpp:156] Memory required for data: 1118106912
I0403 19:32:22.589864  9368 layer_factory.hpp:77] Creating layer inception_4d/relu_3x3_reduce
I0403 19:32:22.589882  9368 net.cpp:91] Creating Layer inception_4d/relu_3x3_reduce
I0403 19:32:22.589900  9368 net.cpp:425] inception_4d/relu_3x3_reduce <- inception_4d/3x3_reduce
I0403 19:32:22.589918  9368 net.cpp:386] inception_4d/relu_3x3_reduce -> inception_4d/3x3_reduce (in-place)
I0403 19:32:22.590212  9368 net.cpp:141] Setting up inception_4d/relu_3x3_reduce
I0403 19:32:22.590245  9368 net.cpp:148] Top shape: 24 144 14 14 (677376)
I0403 19:32:22.590263  9368 net.cpp:156] Memory required for data: 1120816416
I0403 19:32:22.590279  9368 layer_factory.hpp:77] Creating layer inception_4d/3x3
I0403 19:32:22.590302  9368 net.cpp:91] Creating Layer inception_4d/3x3
I0403 19:32:22.590319  9368 net.cpp:425] inception_4d/3x3 <- inception_4d/3x3_reduce
I0403 19:32:22.590338  9368 net.cpp:399] inception_4d/3x3 -> inception_4d/3x3
I0403 19:32:22.594638  9368 net.cpp:141] Setting up inception_4d/3x3
I0403 19:32:22.594666  9368 net.cpp:148] Top shape: 24 288 14 14 (1354752)
I0403 19:32:22.594682  9368 net.cpp:156] Memory required for data: 1126235424
I0403 19:32:22.594701  9368 layer_factory.hpp:77] Creating layer inception_4d/relu_3x3
I0403 19:32:22.594718  9368 net.cpp:91] Creating Layer inception_4d/relu_3x3
I0403 19:32:22.594733  9368 net.cpp:425] inception_4d/relu_3x3 <- inception_4d/3x3
I0403 19:32:22.594753  9368 net.cpp:386] inception_4d/relu_3x3 -> inception_4d/3x3 (in-place)
I0403 19:32:22.594939  9368 net.cpp:141] Setting up inception_4d/relu_3x3
I0403 19:32:22.594964  9368 net.cpp:148] Top shape: 24 288 14 14 (1354752)
I0403 19:32:22.594980  9368 net.cpp:156] Memory required for data: 1131654432
I0403 19:32:22.594993  9368 layer_factory.hpp:77] Creating layer inception_4d/5x5_reduce
I0403 19:32:22.595016  9368 net.cpp:91] Creating Layer inception_4d/5x5_reduce
I0403 19:32:22.595033  9368 net.cpp:425] inception_4d/5x5_reduce <- inception_4c/output_inception_4c/output_0_split_2
I0403 19:32:22.595054  9368 net.cpp:399] inception_4d/5x5_reduce -> inception_4d/5x5_reduce
I0403 19:32:22.596205  9368 net.cpp:141] Setting up inception_4d/5x5_reduce
I0403 19:32:22.596233  9368 net.cpp:148] Top shape: 24 32 14 14 (150528)
I0403 19:32:22.596253  9368 net.cpp:156] Memory required for data: 1132256544
I0403 19:32:22.596271  9368 layer_factory.hpp:77] Creating layer inception_4d/relu_5x5_reduce
I0403 19:32:22.596289  9368 net.cpp:91] Creating Layer inception_4d/relu_5x5_reduce
I0403 19:32:22.596305  9368 net.cpp:425] inception_4d/relu_5x5_reduce <- inception_4d/5x5_reduce
I0403 19:32:22.596324  9368 net.cpp:386] inception_4d/relu_5x5_reduce -> inception_4d/5x5_reduce (in-place)
I0403 19:32:22.596511  9368 net.cpp:141] Setting up inception_4d/relu_5x5_reduce
I0403 19:32:22.596535  9368 net.cpp:148] Top shape: 24 32 14 14 (150528)
I0403 19:32:22.596550  9368 net.cpp:156] Memory required for data: 1132858656
I0403 19:32:22.596565  9368 layer_factory.hpp:77] Creating layer inception_4d/5x5
I0403 19:32:22.596587  9368 net.cpp:91] Creating Layer inception_4d/5x5
I0403 19:32:22.596604  9368 net.cpp:425] inception_4d/5x5 <- inception_4d/5x5_reduce
I0403 19:32:22.596626  9368 net.cpp:399] inception_4d/5x5 -> inception_4d/5x5
I0403 19:32:22.598111  9368 net.cpp:141] Setting up inception_4d/5x5
I0403 19:32:22.598140  9368 net.cpp:148] Top shape: 24 64 14 14 (301056)
I0403 19:32:22.598155  9368 net.cpp:156] Memory required for data: 1134062880
I0403 19:32:22.598175  9368 layer_factory.hpp:77] Creating layer inception_4d/relu_5x5
I0403 19:32:22.598217  9368 net.cpp:91] Creating Layer inception_4d/relu_5x5
I0403 19:32:22.598235  9368 net.cpp:425] inception_4d/relu_5x5 <- inception_4d/5x5
I0403 19:32:22.598258  9368 net.cpp:386] inception_4d/relu_5x5 -> inception_4d/5x5 (in-place)
I0403 19:32:22.598564  9368 net.cpp:141] Setting up inception_4d/relu_5x5
I0403 19:32:22.598590  9368 net.cpp:148] Top shape: 24 64 14 14 (301056)
I0403 19:32:22.598605  9368 net.cpp:156] Memory required for data: 1135267104
I0403 19:32:22.598619  9368 layer_factory.hpp:77] Creating layer inception_4d/pool
I0403 19:32:22.598639  9368 net.cpp:91] Creating Layer inception_4d/pool
I0403 19:32:22.598656  9368 net.cpp:425] inception_4d/pool <- inception_4c/output_inception_4c/output_0_split_3
I0403 19:32:22.598675  9368 net.cpp:399] inception_4d/pool -> inception_4d/pool
I0403 19:32:22.598743  9368 net.cpp:141] Setting up inception_4d/pool
I0403 19:32:22.598767  9368 net.cpp:148] Top shape: 24 512 14 14 (2408448)
I0403 19:32:22.598781  9368 net.cpp:156] Memory required for data: 1144900896
I0403 19:32:22.598796  9368 layer_factory.hpp:77] Creating layer inception_4d/pool_proj
I0403 19:32:22.598817  9368 net.cpp:91] Creating Layer inception_4d/pool_proj
I0403 19:32:22.598835  9368 net.cpp:425] inception_4d/pool_proj <- inception_4d/pool
I0403 19:32:22.598855  9368 net.cpp:399] inception_4d/pool_proj -> inception_4d/pool_proj
I0403 19:32:22.600610  9368 net.cpp:141] Setting up inception_4d/pool_proj
I0403 19:32:22.600638  9368 net.cpp:148] Top shape: 24 64 14 14 (301056)
I0403 19:32:22.600654  9368 net.cpp:156] Memory required for data: 1146105120
I0403 19:32:22.600672  9368 layer_factory.hpp:77] Creating layer inception_4d/relu_pool_proj
I0403 19:32:22.600690  9368 net.cpp:91] Creating Layer inception_4d/relu_pool_proj
I0403 19:32:22.600706  9368 net.cpp:425] inception_4d/relu_pool_proj <- inception_4d/pool_proj
I0403 19:32:22.600725  9368 net.cpp:386] inception_4d/relu_pool_proj -> inception_4d/pool_proj (in-place)
I0403 19:32:22.600910  9368 net.cpp:141] Setting up inception_4d/relu_pool_proj
I0403 19:32:22.600935  9368 net.cpp:148] Top shape: 24 64 14 14 (301056)
I0403 19:32:22.600950  9368 net.cpp:156] Memory required for data: 1147309344
I0403 19:32:22.600965  9368 layer_factory.hpp:77] Creating layer inception_4d/output
I0403 19:32:22.600981  9368 net.cpp:91] Creating Layer inception_4d/output
I0403 19:32:22.600997  9368 net.cpp:425] inception_4d/output <- inception_4d/1x1
I0403 19:32:22.601016  9368 net.cpp:425] inception_4d/output <- inception_4d/3x3
I0403 19:32:22.601034  9368 net.cpp:425] inception_4d/output <- inception_4d/5x5
I0403 19:32:22.601052  9368 net.cpp:425] inception_4d/output <- inception_4d/pool_proj
I0403 19:32:22.601068  9368 net.cpp:399] inception_4d/output -> inception_4d/output
I0403 19:32:22.601115  9368 net.cpp:141] Setting up inception_4d/output
I0403 19:32:22.601138  9368 net.cpp:148] Top shape: 24 528 14 14 (2483712)
I0403 19:32:22.601152  9368 net.cpp:156] Memory required for data: 1157244192
I0403 19:32:22.601167  9368 layer_factory.hpp:77] Creating layer inception_4d/output_inception_4d/output_0_split
I0403 19:32:22.601186  9368 net.cpp:91] Creating Layer inception_4d/output_inception_4d/output_0_split
I0403 19:32:22.601202  9368 net.cpp:425] inception_4d/output_inception_4d/output_0_split <- inception_4d/output
I0403 19:32:22.601222  9368 net.cpp:399] inception_4d/output_inception_4d/output_0_split -> inception_4d/output_inception_4d/output_0_split_0
I0403 19:32:22.601248  9368 net.cpp:399] inception_4d/output_inception_4d/output_0_split -> inception_4d/output_inception_4d/output_0_split_1
I0403 19:32:22.601269  9368 net.cpp:399] inception_4d/output_inception_4d/output_0_split -> inception_4d/output_inception_4d/output_0_split_2
I0403 19:32:22.601290  9368 net.cpp:399] inception_4d/output_inception_4d/output_0_split -> inception_4d/output_inception_4d/output_0_split_3
I0403 19:32:22.601310  9368 net.cpp:399] inception_4d/output_inception_4d/output_0_split -> inception_4d/output_inception_4d/output_0_split_4
I0403 19:32:22.601413  9368 net.cpp:141] Setting up inception_4d/output_inception_4d/output_0_split
I0403 19:32:22.601449  9368 net.cpp:148] Top shape: 24 528 14 14 (2483712)
I0403 19:32:22.601466  9368 net.cpp:148] Top shape: 24 528 14 14 (2483712)
I0403 19:32:22.601482  9368 net.cpp:148] Top shape: 24 528 14 14 (2483712)
I0403 19:32:22.601498  9368 net.cpp:148] Top shape: 24 528 14 14 (2483712)
I0403 19:32:22.601514  9368 net.cpp:148] Top shape: 24 528 14 14 (2483712)
I0403 19:32:22.601528  9368 net.cpp:156] Memory required for data: 1206918432
I0403 19:32:22.601543  9368 layer_factory.hpp:77] Creating layer loss2/ave_pool
I0403 19:32:22.601560  9368 net.cpp:91] Creating Layer loss2/ave_pool
I0403 19:32:22.601577  9368 net.cpp:425] loss2/ave_pool <- inception_4d/output_inception_4d/output_0_split_0
I0403 19:32:22.601599  9368 net.cpp:399] loss2/ave_pool -> loss2/ave_pool
I0403 19:32:22.601917  9368 net.cpp:141] Setting up loss2/ave_pool
I0403 19:32:22.601943  9368 net.cpp:148] Top shape: 24 528 4 4 (202752)
I0403 19:32:22.601958  9368 net.cpp:156] Memory required for data: 1207729440
I0403 19:32:22.601972  9368 layer_factory.hpp:77] Creating layer loss2/conv
I0403 19:32:22.601994  9368 net.cpp:91] Creating Layer loss2/conv
I0403 19:32:22.602012  9368 net.cpp:425] loss2/conv <- loss2/ave_pool
I0403 19:32:22.602033  9368 net.cpp:399] loss2/conv -> loss2/conv
I0403 19:32:22.603965  9368 net.cpp:141] Setting up loss2/conv
I0403 19:32:22.603992  9368 net.cpp:148] Top shape: 24 128 4 4 (49152)
I0403 19:32:22.604008  9368 net.cpp:156] Memory required for data: 1207926048
I0403 19:32:22.604027  9368 layer_factory.hpp:77] Creating layer loss2/relu_conv
I0403 19:32:22.604046  9368 net.cpp:91] Creating Layer loss2/relu_conv
I0403 19:32:22.604063  9368 net.cpp:425] loss2/relu_conv <- loss2/conv
I0403 19:32:22.604080  9368 net.cpp:386] loss2/relu_conv -> loss2/conv (in-place)
I0403 19:32:22.604369  9368 net.cpp:141] Setting up loss2/relu_conv
I0403 19:32:22.604395  9368 net.cpp:148] Top shape: 24 128 4 4 (49152)
I0403 19:32:22.604410  9368 net.cpp:156] Memory required for data: 1208122656
I0403 19:32:22.604425  9368 layer_factory.hpp:77] Creating layer loss2/fc
I0403 19:32:22.604450  9368 net.cpp:91] Creating Layer loss2/fc
I0403 19:32:22.604466  9368 net.cpp:425] loss2/fc <- loss2/conv
I0403 19:32:22.604487  9368 net.cpp:399] loss2/fc -> loss2/fc
I0403 19:32:22.622192  9368 net.cpp:141] Setting up loss2/fc
I0403 19:32:22.622232  9368 net.cpp:148] Top shape: 24 1024 (24576)
I0403 19:32:22.622252  9368 net.cpp:156] Memory required for data: 1208220960
I0403 19:32:22.622272  9368 layer_factory.hpp:77] Creating layer loss2/relu_fc
I0403 19:32:22.622292  9368 net.cpp:91] Creating Layer loss2/relu_fc
I0403 19:32:22.622309  9368 net.cpp:425] loss2/relu_fc <- loss2/fc
I0403 19:32:22.622328  9368 net.cpp:386] loss2/relu_fc -> loss2/fc (in-place)
I0403 19:32:22.622637  9368 net.cpp:141] Setting up loss2/relu_fc
I0403 19:32:22.622663  9368 net.cpp:148] Top shape: 24 1024 (24576)
I0403 19:32:22.622684  9368 net.cpp:156] Memory required for data: 1208319264
I0403 19:32:22.622699  9368 layer_factory.hpp:77] Creating layer loss2/drop_fc
I0403 19:32:22.622716  9368 net.cpp:91] Creating Layer loss2/drop_fc
I0403 19:32:22.622732  9368 net.cpp:425] loss2/drop_fc <- loss2/fc
I0403 19:32:22.622751  9368 net.cpp:386] loss2/drop_fc -> loss2/fc (in-place)
I0403 19:32:22.622800  9368 net.cpp:141] Setting up loss2/drop_fc
I0403 19:32:22.622827  9368 net.cpp:148] Top shape: 24 1024 (24576)
I0403 19:32:22.622841  9368 net.cpp:156] Memory required for data: 1208417568
I0403 19:32:22.622856  9368 layer_factory.hpp:77] Creating layer loss2/classifier_plantvillage
I0403 19:32:22.622886  9368 net.cpp:91] Creating Layer loss2/classifier_plantvillage
I0403 19:32:22.622902  9368 net.cpp:425] loss2/classifier_plantvillage <- loss2/fc
I0403 19:32:22.622923  9368 net.cpp:399] loss2/classifier_plantvillage -> loss2/classifier_plantvillage
I0403 19:32:22.623347  9368 net.cpp:141] Setting up loss2/classifier_plantvillage
I0403 19:32:22.623373  9368 net.cpp:148] Top shape: 24 38 (912)
I0403 19:32:22.623389  9368 net.cpp:156] Memory required for data: 1208421216
I0403 19:32:22.623425  9368 layer_factory.hpp:77] Creating layer loss2/classifier_plantvillage_loss2/classifier_plantvillage_0_split
I0403 19:32:22.623447  9368 net.cpp:91] Creating Layer loss2/classifier_plantvillage_loss2/classifier_plantvillage_0_split
I0403 19:32:22.623463  9368 net.cpp:425] loss2/classifier_plantvillage_loss2/classifier_plantvillage_0_split <- loss2/classifier_plantvillage
I0403 19:32:22.623481  9368 net.cpp:399] loss2/classifier_plantvillage_loss2/classifier_plantvillage_0_split -> loss2/classifier_plantvillage_loss2/classifier_plantvillage_0_split_0
I0403 19:32:22.623503  9368 net.cpp:399] loss2/classifier_plantvillage_loss2/classifier_plantvillage_0_split -> loss2/classifier_plantvillage_loss2/classifier_plantvillage_0_split_1
I0403 19:32:22.623524  9368 net.cpp:399] loss2/classifier_plantvillage_loss2/classifier_plantvillage_0_split -> loss2/classifier_plantvillage_loss2/classifier_plantvillage_0_split_2
I0403 19:32:22.623605  9368 net.cpp:141] Setting up loss2/classifier_plantvillage_loss2/classifier_plantvillage_0_split
I0403 19:32:22.623630  9368 net.cpp:148] Top shape: 24 38 (912)
I0403 19:32:22.623646  9368 net.cpp:148] Top shape: 24 38 (912)
I0403 19:32:22.623661  9368 net.cpp:148] Top shape: 24 38 (912)
I0403 19:32:22.623675  9368 net.cpp:156] Memory required for data: 1208432160
I0403 19:32:22.623689  9368 layer_factory.hpp:77] Creating layer inception_4e/1x1
I0403 19:32:22.623713  9368 net.cpp:91] Creating Layer inception_4e/1x1
I0403 19:32:22.623729  9368 net.cpp:425] inception_4e/1x1 <- inception_4d/output_inception_4d/output_0_split_1
I0403 19:32:22.623749  9368 net.cpp:399] inception_4e/1x1 -> inception_4e/1x1
I0403 19:32:22.625586  9368 net.cpp:141] Setting up inception_4e/1x1
I0403 19:32:22.625615  9368 net.cpp:148] Top shape: 24 256 14 14 (1204224)
I0403 19:32:22.625634  9368 net.cpp:156] Memory required for data: 1213249056
I0403 19:32:22.625653  9368 layer_factory.hpp:77] Creating layer inception_4e/relu_1x1
I0403 19:32:22.625670  9368 net.cpp:91] Creating Layer inception_4e/relu_1x1
I0403 19:32:22.625685  9368 net.cpp:425] inception_4e/relu_1x1 <- inception_4e/1x1
I0403 19:32:22.625704  9368 net.cpp:386] inception_4e/relu_1x1 -> inception_4e/1x1 (in-place)
I0403 19:32:22.626010  9368 net.cpp:141] Setting up inception_4e/relu_1x1
I0403 19:32:22.626037  9368 net.cpp:148] Top shape: 24 256 14 14 (1204224)
I0403 19:32:22.626055  9368 net.cpp:156] Memory required for data: 1218065952
I0403 19:32:22.626070  9368 layer_factory.hpp:77] Creating layer inception_4e/3x3_reduce
I0403 19:32:22.626090  9368 net.cpp:91] Creating Layer inception_4e/3x3_reduce
I0403 19:32:22.626106  9368 net.cpp:425] inception_4e/3x3_reduce <- inception_4d/output_inception_4d/output_0_split_2
I0403 19:32:22.626127  9368 net.cpp:399] inception_4e/3x3_reduce -> inception_4e/3x3_reduce
I0403 19:32:22.628319  9368 net.cpp:141] Setting up inception_4e/3x3_reduce
I0403 19:32:22.628347  9368 net.cpp:148] Top shape: 24 160 14 14 (752640)
I0403 19:32:22.628363  9368 net.cpp:156] Memory required for data: 1221076512
I0403 19:32:22.628381  9368 layer_factory.hpp:77] Creating layer inception_4e/relu_3x3_reduce
I0403 19:32:22.628401  9368 net.cpp:91] Creating Layer inception_4e/relu_3x3_reduce
I0403 19:32:22.628417  9368 net.cpp:425] inception_4e/relu_3x3_reduce <- inception_4e/3x3_reduce
I0403 19:32:22.628437  9368 net.cpp:386] inception_4e/relu_3x3_reduce -> inception_4e/3x3_reduce (in-place)
I0403 19:32:22.628620  9368 net.cpp:141] Setting up inception_4e/relu_3x3_reduce
I0403 19:32:22.628648  9368 net.cpp:148] Top shape: 24 160 14 14 (752640)
I0403 19:32:22.628664  9368 net.cpp:156] Memory required for data: 1224087072
I0403 19:32:22.628679  9368 layer_factory.hpp:77] Creating layer inception_4e/3x3
I0403 19:32:22.628700  9368 net.cpp:91] Creating Layer inception_4e/3x3
I0403 19:32:22.628718  9368 net.cpp:425] inception_4e/3x3 <- inception_4e/3x3_reduce
I0403 19:32:22.628737  9368 net.cpp:399] inception_4e/3x3 -> inception_4e/3x3
I0403 19:32:22.633754  9368 net.cpp:141] Setting up inception_4e/3x3
I0403 19:32:22.633797  9368 net.cpp:148] Top shape: 24 320 14 14 (1505280)
I0403 19:32:22.633815  9368 net.cpp:156] Memory required for data: 1230108192
I0403 19:32:22.633833  9368 layer_factory.hpp:77] Creating layer inception_4e/relu_3x3
I0403 19:32:22.633852  9368 net.cpp:91] Creating Layer inception_4e/relu_3x3
I0403 19:32:22.633868  9368 net.cpp:425] inception_4e/relu_3x3 <- inception_4e/3x3
I0403 19:32:22.633887  9368 net.cpp:386] inception_4e/relu_3x3 -> inception_4e/3x3 (in-place)
I0403 19:32:22.634187  9368 net.cpp:141] Setting up inception_4e/relu_3x3
I0403 19:32:22.634213  9368 net.cpp:148] Top shape: 24 320 14 14 (1505280)
I0403 19:32:22.634228  9368 net.cpp:156] Memory required for data: 1236129312
I0403 19:32:22.634248  9368 layer_factory.hpp:77] Creating layer inception_4e/5x5_reduce
I0403 19:32:22.634273  9368 net.cpp:91] Creating Layer inception_4e/5x5_reduce
I0403 19:32:22.634290  9368 net.cpp:425] inception_4e/5x5_reduce <- inception_4d/output_inception_4d/output_0_split_3
I0403 19:32:22.634311  9368 net.cpp:399] inception_4e/5x5_reduce -> inception_4e/5x5_reduce
I0403 19:32:22.635383  9368 net.cpp:141] Setting up inception_4e/5x5_reduce
I0403 19:32:22.635411  9368 net.cpp:148] Top shape: 24 32 14 14 (150528)
I0403 19:32:22.635426  9368 net.cpp:156] Memory required for data: 1236731424
I0403 19:32:22.635445  9368 layer_factory.hpp:77] Creating layer inception_4e/relu_5x5_reduce
I0403 19:32:22.635467  9368 net.cpp:91] Creating Layer inception_4e/relu_5x5_reduce
I0403 19:32:22.635483  9368 net.cpp:425] inception_4e/relu_5x5_reduce <- inception_4e/5x5_reduce
I0403 19:32:22.635500  9368 net.cpp:386] inception_4e/relu_5x5_reduce -> inception_4e/5x5_reduce (in-place)
I0403 19:32:22.635799  9368 net.cpp:141] Setting up inception_4e/relu_5x5_reduce
I0403 19:32:22.635825  9368 net.cpp:148] Top shape: 24 32 14 14 (150528)
I0403 19:32:22.635840  9368 net.cpp:156] Memory required for data: 1237333536
I0403 19:32:22.635856  9368 layer_factory.hpp:77] Creating layer inception_4e/5x5
I0403 19:32:22.635905  9368 net.cpp:91] Creating Layer inception_4e/5x5
I0403 19:32:22.635924  9368 net.cpp:425] inception_4e/5x5 <- inception_4e/5x5_reduce
I0403 19:32:22.635943  9368 net.cpp:399] inception_4e/5x5 -> inception_4e/5x5
I0403 19:32:22.637778  9368 net.cpp:141] Setting up inception_4e/5x5
I0403 19:32:22.637805  9368 net.cpp:148] Top shape: 24 128 14 14 (602112)
I0403 19:32:22.637821  9368 net.cpp:156] Memory required for data: 1239741984
I0403 19:32:22.637840  9368 layer_factory.hpp:77] Creating layer inception_4e/relu_5x5
I0403 19:32:22.637861  9368 net.cpp:91] Creating Layer inception_4e/relu_5x5
I0403 19:32:22.637876  9368 net.cpp:425] inception_4e/relu_5x5 <- inception_4e/5x5
I0403 19:32:22.637894  9368 net.cpp:386] inception_4e/relu_5x5 -> inception_4e/5x5 (in-place)
I0403 19:32:22.638088  9368 net.cpp:141] Setting up inception_4e/relu_5x5
I0403 19:32:22.638114  9368 net.cpp:148] Top shape: 24 128 14 14 (602112)
I0403 19:32:22.638128  9368 net.cpp:156] Memory required for data: 1242150432
I0403 19:32:22.638144  9368 layer_factory.hpp:77] Creating layer inception_4e/pool
I0403 19:32:22.638164  9368 net.cpp:91] Creating Layer inception_4e/pool
I0403 19:32:22.638181  9368 net.cpp:425] inception_4e/pool <- inception_4d/output_inception_4d/output_0_split_4
I0403 19:32:22.638200  9368 net.cpp:399] inception_4e/pool -> inception_4e/pool
I0403 19:32:22.638274  9368 net.cpp:141] Setting up inception_4e/pool
I0403 19:32:22.638298  9368 net.cpp:148] Top shape: 24 528 14 14 (2483712)
I0403 19:32:22.638312  9368 net.cpp:156] Memory required for data: 1252085280
I0403 19:32:22.638327  9368 layer_factory.hpp:77] Creating layer inception_4e/pool_proj
I0403 19:32:22.638350  9368 net.cpp:91] Creating Layer inception_4e/pool_proj
I0403 19:32:22.638366  9368 net.cpp:425] inception_4e/pool_proj <- inception_4e/pool
I0403 19:32:22.638387  9368 net.cpp:399] inception_4e/pool_proj -> inception_4e/pool_proj
I0403 19:32:22.639879  9368 net.cpp:141] Setting up inception_4e/pool_proj
I0403 19:32:22.639906  9368 net.cpp:148] Top shape: 24 128 14 14 (602112)
I0403 19:32:22.639937  9368 net.cpp:156] Memory required for data: 1254493728
I0403 19:32:22.639957  9368 layer_factory.hpp:77] Creating layer inception_4e/relu_pool_proj
I0403 19:32:22.639976  9368 net.cpp:91] Creating Layer inception_4e/relu_pool_proj
I0403 19:32:22.639996  9368 net.cpp:425] inception_4e/relu_pool_proj <- inception_4e/pool_proj
I0403 19:32:22.640012  9368 net.cpp:386] inception_4e/relu_pool_proj -> inception_4e/pool_proj (in-place)
I0403 19:32:22.640310  9368 net.cpp:141] Setting up inception_4e/relu_pool_proj
I0403 19:32:22.640336  9368 net.cpp:148] Top shape: 24 128 14 14 (602112)
I0403 19:32:22.640350  9368 net.cpp:156] Memory required for data: 1256902176
I0403 19:32:22.640365  9368 layer_factory.hpp:77] Creating layer inception_4e/output
I0403 19:32:22.640383  9368 net.cpp:91] Creating Layer inception_4e/output
I0403 19:32:22.640398  9368 net.cpp:425] inception_4e/output <- inception_4e/1x1
I0403 19:32:22.640415  9368 net.cpp:425] inception_4e/output <- inception_4e/3x3
I0403 19:32:22.640430  9368 net.cpp:425] inception_4e/output <- inception_4e/5x5
I0403 19:32:22.640446  9368 net.cpp:425] inception_4e/output <- inception_4e/pool_proj
I0403 19:32:22.640465  9368 net.cpp:399] inception_4e/output -> inception_4e/output
I0403 19:32:22.640514  9368 net.cpp:141] Setting up inception_4e/output
I0403 19:32:22.640539  9368 net.cpp:148] Top shape: 24 832 14 14 (3913728)
I0403 19:32:22.640554  9368 net.cpp:156] Memory required for data: 1272557088
I0403 19:32:22.640568  9368 layer_factory.hpp:77] Creating layer pool4/3x3_s2
I0403 19:32:22.640585  9368 net.cpp:91] Creating Layer pool4/3x3_s2
I0403 19:32:22.640601  9368 net.cpp:425] pool4/3x3_s2 <- inception_4e/output
I0403 19:32:22.640622  9368 net.cpp:399] pool4/3x3_s2 -> pool4/3x3_s2
I0403 19:32:22.640688  9368 net.cpp:141] Setting up pool4/3x3_s2
I0403 19:32:22.640712  9368 net.cpp:148] Top shape: 24 832 7 7 (978432)
I0403 19:32:22.640727  9368 net.cpp:156] Memory required for data: 1276470816
I0403 19:32:22.640740  9368 layer_factory.hpp:77] Creating layer pool4/3x3_s2_pool4/3x3_s2_0_split
I0403 19:32:22.640760  9368 net.cpp:91] Creating Layer pool4/3x3_s2_pool4/3x3_s2_0_split
I0403 19:32:22.640776  9368 net.cpp:425] pool4/3x3_s2_pool4/3x3_s2_0_split <- pool4/3x3_s2
I0403 19:32:22.640794  9368 net.cpp:399] pool4/3x3_s2_pool4/3x3_s2_0_split -> pool4/3x3_s2_pool4/3x3_s2_0_split_0
I0403 19:32:22.640813  9368 net.cpp:399] pool4/3x3_s2_pool4/3x3_s2_0_split -> pool4/3x3_s2_pool4/3x3_s2_0_split_1
I0403 19:32:22.640833  9368 net.cpp:399] pool4/3x3_s2_pool4/3x3_s2_0_split -> pool4/3x3_s2_pool4/3x3_s2_0_split_2
I0403 19:32:22.640852  9368 net.cpp:399] pool4/3x3_s2_pool4/3x3_s2_0_split -> pool4/3x3_s2_pool4/3x3_s2_0_split_3
I0403 19:32:22.640944  9368 net.cpp:141] Setting up pool4/3x3_s2_pool4/3x3_s2_0_split
I0403 19:32:22.640966  9368 net.cpp:148] Top shape: 24 832 7 7 (978432)
I0403 19:32:22.640982  9368 net.cpp:148] Top shape: 24 832 7 7 (978432)
I0403 19:32:22.640998  9368 net.cpp:148] Top shape: 24 832 7 7 (978432)
I0403 19:32:22.641015  9368 net.cpp:148] Top shape: 24 832 7 7 (978432)
I0403 19:32:22.641027  9368 net.cpp:156] Memory required for data: 1292125728
I0403 19:32:22.641042  9368 layer_factory.hpp:77] Creating layer inception_5a/1x1
I0403 19:32:22.641064  9368 net.cpp:91] Creating Layer inception_5a/1x1
I0403 19:32:22.641082  9368 net.cpp:425] inception_5a/1x1 <- pool4/3x3_s2_pool4/3x3_s2_0_split_0
I0403 19:32:22.641103  9368 net.cpp:399] inception_5a/1x1 -> inception_5a/1x1
I0403 19:32:22.643985  9368 net.cpp:141] Setting up inception_5a/1x1
I0403 19:32:22.644012  9368 net.cpp:148] Top shape: 24 256 7 7 (301056)
I0403 19:32:22.644027  9368 net.cpp:156] Memory required for data: 1293329952
I0403 19:32:22.644044  9368 layer_factory.hpp:77] Creating layer inception_5a/relu_1x1
I0403 19:32:22.644064  9368 net.cpp:91] Creating Layer inception_5a/relu_1x1
I0403 19:32:22.644080  9368 net.cpp:425] inception_5a/relu_1x1 <- inception_5a/1x1
I0403 19:32:22.644098  9368 net.cpp:386] inception_5a/relu_1x1 -> inception_5a/1x1 (in-place)
I0403 19:32:22.644408  9368 net.cpp:141] Setting up inception_5a/relu_1x1
I0403 19:32:22.644435  9368 net.cpp:148] Top shape: 24 256 7 7 (301056)
I0403 19:32:22.644449  9368 net.cpp:156] Memory required for data: 1294534176
I0403 19:32:22.644464  9368 layer_factory.hpp:77] Creating layer inception_5a/3x3_reduce
I0403 19:32:22.644485  9368 net.cpp:91] Creating Layer inception_5a/3x3_reduce
I0403 19:32:22.644502  9368 net.cpp:425] inception_5a/3x3_reduce <- pool4/3x3_s2_pool4/3x3_s2_0_split_1
I0403 19:32:22.644523  9368 net.cpp:399] inception_5a/3x3_reduce -> inception_5a/3x3_reduce
I0403 19:32:22.646986  9368 net.cpp:141] Setting up inception_5a/3x3_reduce
I0403 19:32:22.647017  9368 net.cpp:148] Top shape: 24 160 7 7 (188160)
I0403 19:32:22.647032  9368 net.cpp:156] Memory required for data: 1295286816
I0403 19:32:22.647053  9368 layer_factory.hpp:77] Creating layer inception_5a/relu_3x3_reduce
I0403 19:32:22.647071  9368 net.cpp:91] Creating Layer inception_5a/relu_3x3_reduce
I0403 19:32:22.647088  9368 net.cpp:425] inception_5a/relu_3x3_reduce <- inception_5a/3x3_reduce
I0403 19:32:22.647107  9368 net.cpp:386] inception_5a/relu_3x3_reduce -> inception_5a/3x3_reduce (in-place)
I0403 19:32:22.647299  9368 net.cpp:141] Setting up inception_5a/relu_3x3_reduce
I0403 19:32:22.647336  9368 net.cpp:148] Top shape: 24 160 7 7 (188160)
I0403 19:32:22.647351  9368 net.cpp:156] Memory required for data: 1296039456
I0403 19:32:22.647366  9368 layer_factory.hpp:77] Creating layer inception_5a/3x3
I0403 19:32:22.647387  9368 net.cpp:91] Creating Layer inception_5a/3x3
I0403 19:32:22.647403  9368 net.cpp:425] inception_5a/3x3 <- inception_5a/3x3_reduce
I0403 19:32:22.647424  9368 net.cpp:399] inception_5a/3x3 -> inception_5a/3x3
I0403 19:32:22.652315  9368 net.cpp:141] Setting up inception_5a/3x3
I0403 19:32:22.652343  9368 net.cpp:148] Top shape: 24 320 7 7 (376320)
I0403 19:32:22.652359  9368 net.cpp:156] Memory required for data: 1297544736
I0403 19:32:22.652376  9368 layer_factory.hpp:77] Creating layer inception_5a/relu_3x3
I0403 19:32:22.652395  9368 net.cpp:91] Creating Layer inception_5a/relu_3x3
I0403 19:32:22.652411  9368 net.cpp:425] inception_5a/relu_3x3 <- inception_5a/3x3
I0403 19:32:22.652428  9368 net.cpp:386] inception_5a/relu_3x3 -> inception_5a/3x3 (in-place)
I0403 19:32:22.652714  9368 net.cpp:141] Setting up inception_5a/relu_3x3
I0403 19:32:22.652740  9368 net.cpp:148] Top shape: 24 320 7 7 (376320)
I0403 19:32:22.652755  9368 net.cpp:156] Memory required for data: 1299050016
I0403 19:32:22.652770  9368 layer_factory.hpp:77] Creating layer inception_5a/5x5_reduce
I0403 19:32:22.652791  9368 net.cpp:91] Creating Layer inception_5a/5x5_reduce
I0403 19:32:22.652808  9368 net.cpp:425] inception_5a/5x5_reduce <- pool4/3x3_s2_pool4/3x3_s2_0_split_2
I0403 19:32:22.652828  9368 net.cpp:399] inception_5a/5x5_reduce -> inception_5a/5x5_reduce
I0403 19:32:22.653995  9368 net.cpp:141] Setting up inception_5a/5x5_reduce
I0403 19:32:22.654022  9368 net.cpp:148] Top shape: 24 32 7 7 (37632)
I0403 19:32:22.654037  9368 net.cpp:156] Memory required for data: 1299200544
I0403 19:32:22.654054  9368 layer_factory.hpp:77] Creating layer inception_5a/relu_5x5_reduce
I0403 19:32:22.654073  9368 net.cpp:91] Creating Layer inception_5a/relu_5x5_reduce
I0403 19:32:22.654089  9368 net.cpp:425] inception_5a/relu_5x5_reduce <- inception_5a/5x5_reduce
I0403 19:32:22.654106  9368 net.cpp:386] inception_5a/relu_5x5_reduce -> inception_5a/5x5_reduce (in-place)
I0403 19:32:22.654402  9368 net.cpp:141] Setting up inception_5a/relu_5x5_reduce
I0403 19:32:22.654427  9368 net.cpp:148] Top shape: 24 32 7 7 (37632)
I0403 19:32:22.654441  9368 net.cpp:156] Memory required for data: 1299351072
I0403 19:32:22.654455  9368 layer_factory.hpp:77] Creating layer inception_5a/5x5
I0403 19:32:22.654477  9368 net.cpp:91] Creating Layer inception_5a/5x5
I0403 19:32:22.654496  9368 net.cpp:425] inception_5a/5x5 <- inception_5a/5x5_reduce
I0403 19:32:22.654515  9368 net.cpp:399] inception_5a/5x5 -> inception_5a/5x5
I0403 19:32:22.656195  9368 net.cpp:141] Setting up inception_5a/5x5
I0403 19:32:22.656250  9368 net.cpp:148] Top shape: 24 128 7 7 (150528)
I0403 19:32:22.656267  9368 net.cpp:156] Memory required for data: 1299953184
I0403 19:32:22.656286  9368 layer_factory.hpp:77] Creating layer inception_5a/relu_5x5
I0403 19:32:22.656306  9368 net.cpp:91] Creating Layer inception_5a/relu_5x5
I0403 19:32:22.656323  9368 net.cpp:425] inception_5a/relu_5x5 <- inception_5a/5x5
I0403 19:32:22.656340  9368 net.cpp:386] inception_5a/relu_5x5 -> inception_5a/5x5 (in-place)
I0403 19:32:22.656560  9368 net.cpp:141] Setting up inception_5a/relu_5x5
I0403 19:32:22.656585  9368 net.cpp:148] Top shape: 24 128 7 7 (150528)
I0403 19:32:22.656612  9368 net.cpp:156] Memory required for data: 1300555296
I0403 19:32:22.656627  9368 layer_factory.hpp:77] Creating layer inception_5a/pool
I0403 19:32:22.656648  9368 net.cpp:91] Creating Layer inception_5a/pool
I0403 19:32:22.656666  9368 net.cpp:425] inception_5a/pool <- pool4/3x3_s2_pool4/3x3_s2_0_split_3
I0403 19:32:22.656684  9368 net.cpp:399] inception_5a/pool -> inception_5a/pool
I0403 19:32:22.656767  9368 net.cpp:141] Setting up inception_5a/pool
I0403 19:32:22.656790  9368 net.cpp:148] Top shape: 24 832 7 7 (978432)
I0403 19:32:22.656805  9368 net.cpp:156] Memory required for data: 1304469024
I0403 19:32:22.656819  9368 layer_factory.hpp:77] Creating layer inception_5a/pool_proj
I0403 19:32:22.656841  9368 net.cpp:91] Creating Layer inception_5a/pool_proj
I0403 19:32:22.656870  9368 net.cpp:425] inception_5a/pool_proj <- inception_5a/pool
I0403 19:32:22.656893  9368 net.cpp:399] inception_5a/pool_proj -> inception_5a/pool_proj
I0403 19:32:22.659185  9368 net.cpp:141] Setting up inception_5a/pool_proj
I0403 19:32:22.659214  9368 net.cpp:148] Top shape: 24 128 7 7 (150528)
I0403 19:32:22.659230  9368 net.cpp:156] Memory required for data: 1305071136
I0403 19:32:22.659252  9368 layer_factory.hpp:77] Creating layer inception_5a/relu_pool_proj
I0403 19:32:22.659272  9368 net.cpp:91] Creating Layer inception_5a/relu_pool_proj
I0403 19:32:22.659287  9368 net.cpp:425] inception_5a/relu_pool_proj <- inception_5a/pool_proj
I0403 19:32:22.659307  9368 net.cpp:386] inception_5a/relu_pool_proj -> inception_5a/pool_proj (in-place)
I0403 19:32:22.659605  9368 net.cpp:141] Setting up inception_5a/relu_pool_proj
I0403 19:32:22.659631  9368 net.cpp:148] Top shape: 24 128 7 7 (150528)
I0403 19:32:22.659646  9368 net.cpp:156] Memory required for data: 1305673248
I0403 19:32:22.659662  9368 layer_factory.hpp:77] Creating layer inception_5a/output
I0403 19:32:22.659678  9368 net.cpp:91] Creating Layer inception_5a/output
I0403 19:32:22.659695  9368 net.cpp:425] inception_5a/output <- inception_5a/1x1
I0403 19:32:22.659713  9368 net.cpp:425] inception_5a/output <- inception_5a/3x3
I0403 19:32:22.659729  9368 net.cpp:425] inception_5a/output <- inception_5a/5x5
I0403 19:32:22.659744  9368 net.cpp:425] inception_5a/output <- inception_5a/pool_proj
I0403 19:32:22.659764  9368 net.cpp:399] inception_5a/output -> inception_5a/output
I0403 19:32:22.659812  9368 net.cpp:141] Setting up inception_5a/output
I0403 19:32:22.659838  9368 net.cpp:148] Top shape: 24 832 7 7 (978432)
I0403 19:32:22.659853  9368 net.cpp:156] Memory required for data: 1309586976
I0403 19:32:22.659868  9368 layer_factory.hpp:77] Creating layer inception_5a/output_inception_5a/output_0_split
I0403 19:32:22.659885  9368 net.cpp:91] Creating Layer inception_5a/output_inception_5a/output_0_split
I0403 19:32:22.659901  9368 net.cpp:425] inception_5a/output_inception_5a/output_0_split <- inception_5a/output
I0403 19:32:22.659919  9368 net.cpp:399] inception_5a/output_inception_5a/output_0_split -> inception_5a/output_inception_5a/output_0_split_0
I0403 19:32:22.659939  9368 net.cpp:399] inception_5a/output_inception_5a/output_0_split -> inception_5a/output_inception_5a/output_0_split_1
I0403 19:32:22.659961  9368 net.cpp:399] inception_5a/output_inception_5a/output_0_split -> inception_5a/output_inception_5a/output_0_split_2
I0403 19:32:22.659982  9368 net.cpp:399] inception_5a/output_inception_5a/output_0_split -> inception_5a/output_inception_5a/output_0_split_3
I0403 19:32:22.660095  9368 net.cpp:141] Setting up inception_5a/output_inception_5a/output_0_split
I0403 19:32:22.660120  9368 net.cpp:148] Top shape: 24 832 7 7 (978432)
I0403 19:32:22.660135  9368 net.cpp:148] Top shape: 24 832 7 7 (978432)
I0403 19:32:22.660151  9368 net.cpp:148] Top shape: 24 832 7 7 (978432)
I0403 19:32:22.660167  9368 net.cpp:148] Top shape: 24 832 7 7 (978432)
I0403 19:32:22.660183  9368 net.cpp:156] Memory required for data: 1325241888
I0403 19:32:22.660197  9368 layer_factory.hpp:77] Creating layer inception_5b/1x1
I0403 19:32:22.660219  9368 net.cpp:91] Creating Layer inception_5b/1x1
I0403 19:32:22.660236  9368 net.cpp:425] inception_5b/1x1 <- inception_5a/output_inception_5a/output_0_split_0
I0403 19:32:22.660264  9368 net.cpp:399] inception_5b/1x1 -> inception_5b/1x1
I0403 19:32:22.664036  9368 net.cpp:141] Setting up inception_5b/1x1
I0403 19:32:22.664067  9368 net.cpp:148] Top shape: 24 384 7 7 (451584)
I0403 19:32:22.664084  9368 net.cpp:156] Memory required for data: 1327048224
I0403 19:32:22.664103  9368 layer_factory.hpp:77] Creating layer inception_5b/relu_1x1
I0403 19:32:22.664120  9368 net.cpp:91] Creating Layer inception_5b/relu_1x1
I0403 19:32:22.664136  9368 net.cpp:425] inception_5b/relu_1x1 <- inception_5b/1x1
I0403 19:32:22.664156  9368 net.cpp:386] inception_5b/relu_1x1 -> inception_5b/1x1 (in-place)
I0403 19:32:22.664475  9368 net.cpp:141] Setting up inception_5b/relu_1x1
I0403 19:32:22.664504  9368 net.cpp:148] Top shape: 24 384 7 7 (451584)
I0403 19:32:22.664520  9368 net.cpp:156] Memory required for data: 1328854560
I0403 19:32:22.664535  9368 layer_factory.hpp:77] Creating layer inception_5b/3x3_reduce
I0403 19:32:22.664557  9368 net.cpp:91] Creating Layer inception_5b/3x3_reduce
I0403 19:32:22.664575  9368 net.cpp:425] inception_5b/3x3_reduce <- inception_5a/output_inception_5a/output_0_split_1
I0403 19:32:22.664594  9368 net.cpp:399] inception_5b/3x3_reduce -> inception_5b/3x3_reduce
I0403 19:32:22.667260  9368 net.cpp:141] Setting up inception_5b/3x3_reduce
I0403 19:32:22.667289  9368 net.cpp:148] Top shape: 24 192 7 7 (225792)
I0403 19:32:22.667305  9368 net.cpp:156] Memory required for data: 1329757728
I0403 19:32:22.667323  9368 layer_factory.hpp:77] Creating layer inception_5b/relu_3x3_reduce
I0403 19:32:22.667343  9368 net.cpp:91] Creating Layer inception_5b/relu_3x3_reduce
I0403 19:32:22.667359  9368 net.cpp:425] inception_5b/relu_3x3_reduce <- inception_5b/3x3_reduce
I0403 19:32:22.667379  9368 net.cpp:386] inception_5b/relu_3x3_reduce -> inception_5b/3x3_reduce (in-place)
I0403 19:32:22.667572  9368 net.cpp:141] Setting up inception_5b/relu_3x3_reduce
I0403 19:32:22.667596  9368 net.cpp:148] Top shape: 24 192 7 7 (225792)
I0403 19:32:22.667611  9368 net.cpp:156] Memory required for data: 1330660896
I0403 19:32:22.667626  9368 layer_factory.hpp:77] Creating layer inception_5b/3x3
I0403 19:32:22.667649  9368 net.cpp:91] Creating Layer inception_5b/3x3
I0403 19:32:22.667665  9368 net.cpp:425] inception_5b/3x3 <- inception_5b/3x3_reduce
I0403 19:32:22.667686  9368 net.cpp:399] inception_5b/3x3 -> inception_5b/3x3
I0403 19:32:22.674671  9368 net.cpp:141] Setting up inception_5b/3x3
I0403 19:32:22.674703  9368 net.cpp:148] Top shape: 24 384 7 7 (451584)
I0403 19:32:22.674720  9368 net.cpp:156] Memory required for data: 1332467232
I0403 19:32:22.674738  9368 layer_factory.hpp:77] Creating layer inception_5b/relu_3x3
I0403 19:32:22.674757  9368 net.cpp:91] Creating Layer inception_5b/relu_3x3
I0403 19:32:22.674773  9368 net.cpp:425] inception_5b/relu_3x3 <- inception_5b/3x3
I0403 19:32:22.674793  9368 net.cpp:386] inception_5b/relu_3x3 -> inception_5b/3x3 (in-place)
I0403 19:32:22.675106  9368 net.cpp:141] Setting up inception_5b/relu_3x3
I0403 19:32:22.675132  9368 net.cpp:148] Top shape: 24 384 7 7 (451584)
I0403 19:32:22.675148  9368 net.cpp:156] Memory required for data: 1334273568
I0403 19:32:22.675163  9368 layer_factory.hpp:77] Creating layer inception_5b/5x5_reduce
I0403 19:32:22.675204  9368 net.cpp:91] Creating Layer inception_5b/5x5_reduce
I0403 19:32:22.675225  9368 net.cpp:425] inception_5b/5x5_reduce <- inception_5a/output_inception_5a/output_0_split_2
I0403 19:32:22.675251  9368 net.cpp:399] inception_5b/5x5_reduce -> inception_5b/5x5_reduce
I0403 19:32:22.676578  9368 net.cpp:141] Setting up inception_5b/5x5_reduce
I0403 19:32:22.676606  9368 net.cpp:148] Top shape: 24 48 7 7 (56448)
I0403 19:32:22.676622  9368 net.cpp:156] Memory required for data: 1334499360
I0403 19:32:22.676641  9368 layer_factory.hpp:77] Creating layer inception_5b/relu_5x5_reduce
I0403 19:32:22.676659  9368 net.cpp:91] Creating Layer inception_5b/relu_5x5_reduce
I0403 19:32:22.676679  9368 net.cpp:425] inception_5b/relu_5x5_reduce <- inception_5b/5x5_reduce
I0403 19:32:22.676698  9368 net.cpp:386] inception_5b/relu_5x5_reduce -> inception_5b/5x5_reduce (in-place)
I0403 19:32:22.677083  9368 net.cpp:141] Setting up inception_5b/relu_5x5_reduce
I0403 19:32:22.677110  9368 net.cpp:148] Top shape: 24 48 7 7 (56448)
I0403 19:32:22.677126  9368 net.cpp:156] Memory required for data: 1334725152
I0403 19:32:22.677141  9368 layer_factory.hpp:77] Creating layer inception_5b/5x5
I0403 19:32:22.677162  9368 net.cpp:91] Creating Layer inception_5b/5x5
I0403 19:32:22.677181  9368 net.cpp:425] inception_5b/5x5 <- inception_5b/5x5_reduce
I0403 19:32:22.677201  9368 net.cpp:399] inception_5b/5x5 -> inception_5b/5x5
I0403 19:32:22.679353  9368 net.cpp:141] Setting up inception_5b/5x5
I0403 19:32:22.679381  9368 net.cpp:148] Top shape: 24 128 7 7 (150528)
I0403 19:32:22.679396  9368 net.cpp:156] Memory required for data: 1335327264
I0403 19:32:22.679415  9368 layer_factory.hpp:77] Creating layer inception_5b/relu_5x5
I0403 19:32:22.679435  9368 net.cpp:91] Creating Layer inception_5b/relu_5x5
I0403 19:32:22.679453  9368 net.cpp:425] inception_5b/relu_5x5 <- inception_5b/5x5
I0403 19:32:22.679471  9368 net.cpp:386] inception_5b/relu_5x5 -> inception_5b/5x5 (in-place)
I0403 19:32:22.679672  9368 net.cpp:141] Setting up inception_5b/relu_5x5
I0403 19:32:22.679699  9368 net.cpp:148] Top shape: 24 128 7 7 (150528)
I0403 19:32:22.679714  9368 net.cpp:156] Memory required for data: 1335929376
I0403 19:32:22.679730  9368 layer_factory.hpp:77] Creating layer inception_5b/pool
I0403 19:32:22.679749  9368 net.cpp:91] Creating Layer inception_5b/pool
I0403 19:32:22.679766  9368 net.cpp:425] inception_5b/pool <- inception_5a/output_inception_5a/output_0_split_3
I0403 19:32:22.679785  9368 net.cpp:399] inception_5b/pool -> inception_5b/pool
I0403 19:32:22.679860  9368 net.cpp:141] Setting up inception_5b/pool
I0403 19:32:22.679884  9368 net.cpp:148] Top shape: 24 832 7 7 (978432)
I0403 19:32:22.679899  9368 net.cpp:156] Memory required for data: 1339843104
I0403 19:32:22.679914  9368 layer_factory.hpp:77] Creating layer inception_5b/pool_proj
I0403 19:32:22.679937  9368 net.cpp:91] Creating Layer inception_5b/pool_proj
I0403 19:32:22.679955  9368 net.cpp:425] inception_5b/pool_proj <- inception_5b/pool
I0403 19:32:22.679976  9368 net.cpp:399] inception_5b/pool_proj -> inception_5b/pool_proj
I0403 19:32:22.682379  9368 net.cpp:141] Setting up inception_5b/pool_proj
I0403 19:32:22.682409  9368 net.cpp:148] Top shape: 24 128 7 7 (150528)
I0403 19:32:22.682425  9368 net.cpp:156] Memory required for data: 1340445216
I0403 19:32:22.682443  9368 layer_factory.hpp:77] Creating layer inception_5b/relu_pool_proj
I0403 19:32:22.682466  9368 net.cpp:91] Creating Layer inception_5b/relu_pool_proj
I0403 19:32:22.682483  9368 net.cpp:425] inception_5b/relu_pool_proj <- inception_5b/pool_proj
I0403 19:32:22.682502  9368 net.cpp:386] inception_5b/relu_pool_proj -> inception_5b/pool_proj (in-place)
I0403 19:32:22.682807  9368 net.cpp:141] Setting up inception_5b/relu_pool_proj
I0403 19:32:22.682835  9368 net.cpp:148] Top shape: 24 128 7 7 (150528)
I0403 19:32:22.682850  9368 net.cpp:156] Memory required for data: 1341047328
I0403 19:32:22.682865  9368 layer_factory.hpp:77] Creating layer inception_5b/output
I0403 19:32:22.682883  9368 net.cpp:91] Creating Layer inception_5b/output
I0403 19:32:22.682916  9368 net.cpp:425] inception_5b/output <- inception_5b/1x1
I0403 19:32:22.682934  9368 net.cpp:425] inception_5b/output <- inception_5b/3x3
I0403 19:32:22.682951  9368 net.cpp:425] inception_5b/output <- inception_5b/5x5
I0403 19:32:22.682967  9368 net.cpp:425] inception_5b/output <- inception_5b/pool_proj
I0403 19:32:22.682987  9368 net.cpp:399] inception_5b/output -> inception_5b/output
I0403 19:32:22.683042  9368 net.cpp:141] Setting up inception_5b/output
I0403 19:32:22.683068  9368 net.cpp:148] Top shape: 24 1024 7 7 (1204224)
I0403 19:32:22.683084  9368 net.cpp:156] Memory required for data: 1345864224
I0403 19:32:22.683099  9368 layer_factory.hpp:77] Creating layer pool5/7x7_s1
I0403 19:32:22.683116  9368 net.cpp:91] Creating Layer pool5/7x7_s1
I0403 19:32:22.683133  9368 net.cpp:425] pool5/7x7_s1 <- inception_5b/output
I0403 19:32:22.683156  9368 net.cpp:399] pool5/7x7_s1 -> pool5/7x7_s1
I0403 19:32:22.683383  9368 net.cpp:141] Setting up pool5/7x7_s1
I0403 19:32:22.683409  9368 net.cpp:148] Top shape: 24 1024 1 1 (24576)
I0403 19:32:22.683425  9368 net.cpp:156] Memory required for data: 1345962528
I0403 19:32:22.683440  9368 layer_factory.hpp:77] Creating layer pool5/drop_7x7_s1
I0403 19:32:22.683461  9368 net.cpp:91] Creating Layer pool5/drop_7x7_s1
I0403 19:32:22.683478  9368 net.cpp:425] pool5/drop_7x7_s1 <- pool5/7x7_s1
I0403 19:32:22.683495  9368 net.cpp:386] pool5/drop_7x7_s1 -> pool5/7x7_s1 (in-place)
I0403 19:32:22.683547  9368 net.cpp:141] Setting up pool5/drop_7x7_s1
I0403 19:32:22.683574  9368 net.cpp:148] Top shape: 24 1024 1 1 (24576)
I0403 19:32:22.683590  9368 net.cpp:156] Memory required for data: 1346060832
I0403 19:32:22.683606  9368 layer_factory.hpp:77] Creating layer loss3/classifier_plantvillage
I0403 19:32:22.683625  9368 net.cpp:91] Creating Layer loss3/classifier_plantvillage
I0403 19:32:22.683642  9368 net.cpp:425] loss3/classifier_plantvillage <- pool5/7x7_s1
I0403 19:32:22.683665  9368 net.cpp:399] loss3/classifier_plantvillage -> loss3/classifier_plantvillage
I0403 19:32:22.684104  9368 net.cpp:141] Setting up loss3/classifier_plantvillage
I0403 19:32:22.684129  9368 net.cpp:148] Top shape: 24 38 (912)
I0403 19:32:22.684144  9368 net.cpp:156] Memory required for data: 1346064480
I0403 19:32:22.684162  9368 layer_factory.hpp:77] Creating layer loss3/classifier_plantvillage_loss3/classifier_plantvillage_0_split
I0403 19:32:22.684181  9368 net.cpp:91] Creating Layer loss3/classifier_plantvillage_loss3/classifier_plantvillage_0_split
I0403 19:32:22.684197  9368 net.cpp:425] loss3/classifier_plantvillage_loss3/classifier_plantvillage_0_split <- loss3/classifier_plantvillage
I0403 19:32:22.684216  9368 net.cpp:399] loss3/classifier_plantvillage_loss3/classifier_plantvillage_0_split -> loss3/classifier_plantvillage_loss3/classifier_plantvillage_0_split_0
I0403 19:32:22.684243  9368 net.cpp:399] loss3/classifier_plantvillage_loss3/classifier_plantvillage_0_split -> loss3/classifier_plantvillage_loss3/classifier_plantvillage_0_split_1
I0403 19:32:22.684267  9368 net.cpp:399] loss3/classifier_plantvillage_loss3/classifier_plantvillage_0_split -> loss3/classifier_plantvillage_loss3/classifier_plantvillage_0_split_2
I0403 19:32:22.684288  9368 net.cpp:399] loss3/classifier_plantvillage_loss3/classifier_plantvillage_0_split -> loss3/classifier_plantvillage_loss3/classifier_plantvillage_0_split_3
I0403 19:32:22.684396  9368 net.cpp:141] Setting up loss3/classifier_plantvillage_loss3/classifier_plantvillage_0_split
I0403 19:32:22.684420  9368 net.cpp:148] Top shape: 24 38 (912)
I0403 19:32:22.684437  9368 net.cpp:148] Top shape: 24 38 (912)
I0403 19:32:22.684454  9368 net.cpp:148] Top shape: 24 38 (912)
I0403 19:32:22.684470  9368 net.cpp:148] Top shape: 24 38 (912)
I0403 19:32:22.684484  9368 net.cpp:156] Memory required for data: 1346079072
I0403 19:32:22.684499  9368 layer_factory.hpp:77] Creating layer loss1/loss
I0403 19:32:22.684523  9368 net.cpp:91] Creating Layer loss1/loss
I0403 19:32:22.684542  9368 net.cpp:425] loss1/loss <- loss1/classifier_plantvillage_loss1/classifier_plantvillage_0_split_0
I0403 19:32:22.684574  9368 net.cpp:425] loss1/loss <- label_data_1_split_0
…
