…
I0403 20:04:00.352375 10399 net.cpp:313] The NetState phase (1) differed from the phase (0) specified by a rule in layer data
I0403 20:04:00.353787 10399 net.cpp:49] Initializing net from parameters: 
state {
  phase: TEST
}
layer {
  name: "data"
  type: "Data"
  top: "data"
  top: "label"
  include {
    phase: TEST
  }
  transform_param {
    mirror: false
    crop_size: 224
    mean_file: "/home/mohanty/data/final_dataset/lmdb/color-50-50/mean.binaryproto"
  }
  data_param {
    source: "/home/mohanty/data/final_dataset/lmdb/color-50-50/test_db"
    batch_size: 24
    backend: LMDB
  }
}
layer {
  name: "conv1/7x7_s2"
  type: "Convolution"
  bottom: "data"
  top: "conv1/7x7_s2"
  param {
    lr_mult: 1
    decay_mult: 1
  }
  param {
    lr_mult: 2
    decay_mult: 0
  }
  convolution_param {
    num_output: 64
    pad: 3
    kernel_size: 7
    stride: 2
    weight_filler {
      type: "xavier"
      std: 0.1
    }
    bias_filler {
      type: "constant"
      value: 0.2
    }
  }
}
layer {
  name: "conv1/relu_7x7"
  type: "ReLU"
  bottom: "conv1/7x7_s2"
  top: "conv1/7x7_s2"
}
layer {
  name: "pool1/3x3_s2"
  type: "Pooling"
  bottom: "conv1/7x7_s2"
  top: "pool1/3x3_s2"
  pooling_param {
    pool: MAX
    kernel_size: 3
    stride: 2
  }
}
layer {
  name: "pool1/norm1"
  type: "LRN"
  bottom: "pool1/3x3_s2"
  top: "pool1/norm1"
  lrn_param {
    local_size: 5
    alpha: 0.0001
    beta: 0.75
  }
}
layer {
  name: "conv2/3x3_reduce"
  type: "Convolution"
  bottom: "pool1/norm1"
  top: "conv2/3x3_reduce"
  param {
    lr_mult: 1
    decay_mult: 1
  }
  param {
    lr_mult: 2
    decay_mult: 0
  }
  convolution_param {
    num_output: 64
    kernel_size: 1
    weight_filler {
      type: "xavier"
      std: 0.1
    }
    bias_filler {
      type: "constant"
      value: 0.2
    }
  }
}
layer {
  name: "conv2/relu_3x3_reduce"
  type: "ReLU"
  bottom: "conv2/3x3_reduce"
  top: "conv2/3x3_reduce"
}
layer {
  name: "conv2/3x3"
  type: "Convolution"
  bottom: "conv2/3x3_reduce"
  top: "conv2/3x3"
  param {
    lr_mult: 1
    decay_mult: 1
  }
  param {
    lr_mult: 2
    decay_mult: 0
  }
  convolution_param {
    num_output: 192
    pad: 1
    kernel_size: 3
    weight_filler {
      type: "xavier"
      std: 0.03
    }
    bias_filler {
      type: "constant"
      value: 0.2
    }
  }
}
layer {
  name: "conv2/relu_3x3"
  type: "ReLU"
  bottom: "conv2/3x3"
  top: "conv2/3x3"
}
layer {
  name: "conv2/norm2"
  type: "LRN"
  bottom: "conv2/3x3"
  top: "conv2/norm2"
  lrn_param {
    local_size: 5
    alpha: 0.0001
    beta: 0.75
  }
}
layer {
  name: "pool2/3x3_s2"
  type: "Pooling"
  bottom: "conv2/norm2"
  top: "pool2/3x3_s2"
  pooling_param {
    pool: MAX
    kernel_size: 3
    stride: 2
  }
}
layer {
  name: "inception_3a/1x1"
  type: "Convolution"
  bottom: "pool2/3x3_s2"
  top: "inception_3a/1x1"
  param {
    lr_mult: 1
    decay_mult: 1
  }
  param {
    lr_mult: 2
    decay_mult: 0
  }
  convolution_param {
    num_output: 64
    kernel_size: 1
    weight_filler {
      type: "xavier"
      std: 0.03
    }
    bias_filler {
      type: "constant"
      value: 0.2
    }
  }
}
layer {
  name: "inception_3a/relu_1x1"
  type: "ReLU"
  bottom: "inception_3a/1x1"
  top: "inception_3a/1x1"
}
layer {
  name: "inception_3a/3x3_reduce"
  type: "Convolution"
  bottom: "pool2/3x3_s2"
  top: "inception_3a/3x3_reduce"
  param {
    lr_mult: 1
    decay_mult: 1
  }
  param {
    lr_mult: 2
    decay_mult: 0
  }
  convolution_param {
    num_output: 96
    kernel_size: 1
    weight_filler {
      type: "xavier"
      std: 0.09
    }
    bias_filler {
      type: "constant"
      value: 0.2
    }
  }
}
layer {
  name: "inception_3a/relu_3x3_reduce"
  type: "ReLU"
  bottom: "inception_3a/3x3_reduce"
  top: "inception_3a/3x3_reduce"
}
layer {
  name: "inception_3a/3x3"
  type: "Convolution"
  bottom: "inception_3a/3x3_reduce"
  top: "inception_3a/3x3"
  param {
    lr_mult: 1
    decay_mult: 1
  }
  param {
    lr_mult: 2
    decay_mult: 0
  }
  convolution_param {
    num_output: 128
    pad: 1
    kernel_size: 3
    weight_filler {
      type: "xavier"
      std: 0.03
    }
    bias_filler {
      type: "constant"
      value: 0.2
    }
  }
}
layer {
  name: "inception_3a/relu_3x3"
  type: "ReLU"
  bottom: "inception_3a/3x3"
  top: "inception_3a/3x3"
}
layer {
  name: "inception_3a/5x5_reduce"
  type: "Convolution"
  bottom: "pool2/3x3_s2"
  top: "inception_3a/5x5_reduce"
  param {
    lr_mult: 1
    decay_mult: 1
  }
  param {
    lr_mult: 2
    decay_mult: 0
  }
  convolution_param {
    num_output: 16
    kernel_size: 1
    weight_filler {
      type: "xavier"
      std: 0.2
    }
    bias_filler {
      type: "constant"
      value: 0.2
    }
  }
}
layer {
  name: "inception_3a/relu_5x5_reduce"
  type: "ReLU"
  bottom: "inception_3a/5x5_reduce"
  top: "inception_3a/5x5_reduce"
}
layer {
  name: "inception_3a/5x5"
  type: "Convolution"
  bottom: "inception_3a/5x5_reduce"
  top: "inception_3a/5x5"
  param {
    lr_mult: 1
    decay_mult: 1
  }
  param {
    lr_mult: 2
    decay_mult: 0
  }
  convolution_param {
    num_output: 32
    pad: 2
    kernel_size: 5
    weight_filler {
      type: "xavier"
      std: 0.03
    }
    bias_filler {
      type: "constant"
      value: 0.2
    }
  }
}
layer {
  name: "inception_3a/relu_5x5"
  type: "ReLU"
  bottom: "inception_3a/5x5"
  top: "inception_3a/5x5"
}
layer {
  name: "inception_3a/pool"
  type: "Pooling"
  bottom: "pool2/3x3_s2"
  top: "inception_3a/pool"
  pooling_param {
    pool: MAX
    kernel_size: 3
    stride: 1
    pad: 1
  }
}
layer {
  name: "inception_3a/pool_proj"
  type: "Convolution"
  bottom: "inception_3a/pool"
  top: "inception_3a/pool_proj"
  param {
    lr_mult: 1
    decay_mult: 1
  }
  param {
    lr_mult: 2
    decay_mult: 0
  }
  convolution_param {
    num_output: 32
    kernel_size: 1
    weight_filler {
      type: "xavier"
      std: 0.1
    }
    bias_filler {
      type: "constant"
      value: 0.2
    }
  }
}
layer {
  name: "inception_3a/relu_pool_proj"
  type: "ReLU"
  bottom: "inception_3a/pool_proj"
  top: "inception_3a/pool_proj"
}
layer {
  name: "inception_3a/output"
  type: "Concat"
  bottom: "inception_3a/1x1"
  bottom: "inception_3a/3x3"
  bottom: "inception_3a/5x5"
  bottom: "inception_3a/pool_proj"
  top: "inception_3a/output"
}
layer {
  name: "inception_3b/1x1"
  type: "Convolution"
  bottom: "inception_3a/output"
  top: "inception_3b/1x1"
  param {
    lr_mult: 1
    decay_mult: 1
  }
  param {
    lr_mult: 2
    decay_mult: 0
  }
  convolution_param {
    num_output: 128
    kernel_size: 1
    weight_filler {
      type: "xavier"
      std: 0.03
    }
    bias_filler {
      type: "constant"
      value: 0.2
    }
  }
}
layer {
  name: "inception_3b/relu_1x1"
  type: "ReLU"
  bottom: "inception_3b/1x1"
  top: "inception_3b/1x1"
}
layer {
  name: "inception_3b/3x3_reduce"
  type: "Convolution"
  bottom: "inception_3a/output"
  top: "inception_3b/3x3_reduce"
  param {
    lr_mult: 1
    decay_mult: 1
  }
  param {
    lr_mult: 2
    decay_mult: 0
  }
  convolution_param {
    num_output: 128
    kernel_size: 1
    weight_filler {
      type: "xavier"
      std: 0.09
    }
    bias_filler {
      type: "constant"
      value: 0.2
    }
  }
}
layer {
  name: "inception_3b/relu_3x3_reduce"
  type: "ReLU"
  bottom: "inception_3b/3x3_reduce"
  top: "inception_3b/3x3_reduce"
}
layer {
  name: "inception_3b/3x3"
  type: "Convolution"
  bottom: "inception_3b/3x3_reduce"
  top: "inception_3b/3x3"
  param {
    lr_mult: 1
    decay_mult: 1
  }
  param {
    lr_mult: 2
    decay_mult: 0
  }
  convolution_param {
    num_output: 192
    pad: 1
    kernel_size: 3
    weight_filler {
      type: "xavier"
      std: 0.03
    }
    bias_filler {
      type: "constant"
      value: 0.2
    }
  }
}
layer {
  name: "inception_3b/relu_3x3"
  type: "ReLU"
  bottom: "inception_3b/3x3"
  top: "inception_3b/3x3"
}
layer {
  name: "inception_3b/5x5_reduce"
  type: "Convolution"
  bottom: "inception_3a/output"
  top: "inception_3b/5x5_reduce"
  param {
    lr_mult: 1
    decay_mult: 1
  }
  param {
    lr_mult: 2
    decay_mult: 0
  }
  convolution_param {
    num_output: 32
    kernel_size: 1
    weight_filler {
      type: "xavier"
      std: 0.2
    }
    bias_filler {
      type: "constant"
      value: 0.2
    }
  }
}
layer {
  name: "inception_3b/relu_5x5_reduce"
  type: "ReLU"
  bottom: "inception_3b/5x5_reduce"
  top: "inception_3b/5x5_reduce"
}
layer {
  name: "inception_3b/5x5"
  type: "Convolution"
  bottom: "inception_3b/5x5_reduce"
  top: "inception_3b/5x5"
  param {
    lr_mult: 1
    decay_mult: 1
  }
  param {
    lr_mult: 2
    decay_mult: 0
  }
  convolution_param {
    num_output: 96
    pad: 2
    kernel_size: 5
    weight_filler {
      type: "xavier"
      std: 0.03
    }
    bias_filler {
      type: "constant"
      value: 0.2
    }
  }
}
layer {
  name: "inception_3b/relu_5x5"
  type: "ReLU"
  bottom: "inception_3b/5x5"
  top: "inception_3b/5x5"
}
layer {
  name: "inception_3b/pool"
  type: "Pooling"
  bottom: "inception_3a/output"
  top: "inception_3b/pool"
  pooling_param {
    pool: MAX
    kernel_size: 3
    stride: 1
    pad: 1
  }
}
layer {
  name: "inception_3b/pool_proj"
  type: "Convolution"
  bottom: "inception_3b/pool"
  top: "inception_3b/pool_proj"
  param {
    lr_mult: 1
    decay_mult: 1
  }
  param {
    lr_mult: 2
    decay_mult: 0
  }
  convolution_param {
    num_output: 64
    kernel_size: 1
    weight_filler {
      type: "xavier"
      std: 0.1
    }
    bias_filler {
      type: "constant"
      value: 0.2
    }
  }
}
layer {
  name: "inception_3b/relu_pool_proj"
  type: "ReLU"
  bottom: "inception_3b/pool_proj"
  top: "inception_3b/pool_proj"
}
layer {
  name: "inception_3b/output"
  type: "Concat"
  bottom: "inception_3b/1x1"
  bottom: "inception_3b/3x3"
  bottom: "inception_3b/5x5"
  bottom: "inception_3b/pool_proj"
  top: "inception_3b/output"
}
layer {
  name: "pool3/3x3_s2"
  type: "Pooling"
  bottom: "inception_3b/output"
  top: "pool3/3x3_s2"
  pooling_param {
    pool: MAX
    kernel_size: 3
    stride: 2
  }
}
layer {
  name: "inception_4a/1x1"
  type: "Convolution"
  bottom: "pool3/3x3_s2"
  top: "inception_4a/1x1"
  param {
    lr_mult: 1
    decay_mult: 1
  }
  param {
    lr_mult: 2
    decay_mult: 0
  }
  convolution_param {
    num_output: 192
    kernel_size: 1
    weight_filler {
      type: "xavier"
      std: 0.03
    }
    bias_filler {
      type: "constant"
      value: 0.2
    }
  }
}
layer {
  name: "inception_4a/relu_1x1"
  type: "ReLU"
  bottom: "inception_4a/1x1"
  top: "inception_4a/1x1"
}
layer {
  name: "inception_4a/3x3_reduce"
  type: "Convolution"
  bottom: "pool3/3x3_s2"
  top: "inception_4a/3x3_reduce"
  param {
    lr_mult: 1
    decay_mult: 1
  }
  param {
    lr_mult: 2
    decay_mult: 0
  }
  convolution_param {
    num_output: 96
    kernel_size: 1
    weight_filler {
      type: "xavier"
      std: 0.09
    }
    bias_filler {
      type: "constant"
      value: 0.2
    }
  }
}
layer {
  name: "inception_4a/relu_3x3_reduce"
  type: "ReLU"
  bottom: "inception_4a/3x3_reduce"
  top: "inception_4a/3x3_reduce"
}
layer {
  name: "inception_4a/3x3"
  type: "Convolution"
  bottom: "inception_4a/3x3_reduce"
  top: "inception_4a/3x3"
  param {
    lr_mult: 1
    decay_mult: 1
  }
  param {
    lr_mult: 2
    decay_mult: 0
  }
  convolution_param {
    num_output: 208
    pad: 1
    kernel_size: 3
    weight_filler {
      type: "xavier"
      std: 0.03
    }
    bias_filler {
      type: "constant"
      value: 0.2
    }
  }
}
layer {
  name: "inception_4a/relu_3x3"
  type: "ReLU"
  bottom: "inception_4a/3x3"
  top: "inception_4a/3x3"
}
layer {
  name: "inception_4a/5x5_reduce"
  type: "Convolution"
  bottom: "pool3/3x3_s2"
  top: "inception_4a/5x5_reduce"
  param {
    lr_mult: 1
    decay_mult: 1
  }
  param {
    lr_mult: 2
    decay_mult: 0
  }
  convolution_param {
    num_output: 16
    kernel_size: 1
    weight_filler {
      type: "xavier"
      std: 0.2
    }
    bias_filler {
      type: "constant"
      value: 0.2
    }
  }
}
layer {
  name: "inception_4a/relu_5x5_reduce"
  type: "ReLU"
  bottom: "inception_4a/5x5_reduce"
  top: "inception_4a/5x5_reduce"
}
layer {
  name: "inception_4a/5x5"
  type: "Convolution"
  bottom: "inception_4a/5x5_reduce"
  top: "inception_4a/5x5"
  param {
    lr_mult: 1
    decay_mult: 1
  }
  param {
    lr_mult: 2
    decay_mult: 0
  }
  convolution_param {
    num_output: 48
    pad: 2
    kernel_size: 5
    weight_filler {
      type: "xavier"
      std: 0.03
    }
    bias_filler {
      type: "constant"
      value: 0.2
    }
  }
}
layer {
  name: "inception_4a/relu_5x5"
  type: "ReLU"
  bottom: "inception_4a/5x5"
  top: "inception_4a/5x5"
}
layer {
  name: "inception_4a/pool"
  type: "Pooling"
  bottom: "pool3/3x3_s2"
  top: "inception_4a/pool"
  pooling_param {
    pool: MAX
    kernel_size: 3
    stride: 1
    pad: 1
  }
}
layer {
  name: "inception_4a/pool_proj"
  type: "Convolution"
  bottom: "inception_4a/pool"
  top: "inception_4a/pool_proj"
  param {
    lr_mult: 1
    decay_mult: 1
  }
  param {
    lr_mult: 2
    decay_mult: 0
  }
  convolution_param {
    num_output: 64
    kernel_size: 1
    weight_filler {
      type: "xavier"
      std: 0.1
    }
    bias_filler {
      type: "constant"
      value: 0.2
    }
  }
}
layer {
  name: "inception_4a/relu_pool_proj"
  type: "ReLU"
  bottom: "inception_4a/pool_proj"
  top: "inception_4a/pool_proj"
}
layer {
  name: "inception_4a/output"
  type: "Concat"
  bottom: "inception_4a/1x1"
  bottom: "inception_4a/3x3"
  bottom: "inception_4a/5x5"
  bottom: "inception_4a/pool_proj"
  top: "inception_4a/output"
}
layer {
  name: "loss1/ave_pool"
  type: "Pooling"
  bottom: "inception_4a/output"
  top: "loss1/ave_pool"
  pooling_param {
    pool: AVE
    kernel_size: 5
    stride: 3
  }
}
layer {
  name: "loss1/conv"
  type: "Convolution"
  bottom: "loss1/ave_pool"
  top: "loss1/conv"
  param {
    lr_mult: 1
    decay_mult: 1
  }
  param {
    lr_mult: 2
    decay_mult: 0
  }
  convolution_param {
    num_output: 128
    kernel_size: 1
    weight_filler {
      type: "xavier"
      std: 0.08
    }
    bias_filler {
      type: "constant"
      value: 0.2
    }
  }
}
layer {
  name: "loss1/relu_conv"
  type: "ReLU"
  bottom: "loss1/conv"
  top: "loss1/conv"
}
layer {
  name: "loss1/fc"
  type: "InnerProduct"
  bottom: "loss1/conv"
  top: "loss1/fc"
  param {
    lr_mult: 1
    decay_mult: 1
  }
  param {
    lr_mult: 2
    decay_mult: 0
  }
  inner_product_param {
    num_output: 1024
    weight_filler {
      type: "xavier"
      std: 0.02
    }
    bias_filler {
      type: "constant"
      value: 0.2
    }
  }
}
layer {
  name: "loss1/relu_fc"
  type: "ReLU"
  bottom: "loss1/fc"
  top: "loss1/fc"
}
layer {
  name: "loss1/drop_fc"
  type: "Dropout"
  bottom: "loss1/fc"
  top: "loss1/fc"
  dropout_param {
    dropout_ratio: 0.7
  }
}
layer {
  name: "loss1/classifier_plantvillage"
  type: "InnerProduct"
  bottom: "loss1/fc"
  top: "loss1/classifier_plantvillage"
  param {
    lr_mult: 1
    decay_mult: 1
  }
  param {
    lr_mult: 2
    decay_mult: 0
  }
  inner_product_param {
    num_output: 38
    weight_filler {
      type: "xavier"
      std: 0.0009765625
    }
    bias_filler {
      type: "constant"
      value: 0
    }
  }
}
layer {
  name: "inception_4b/1x1"
  type: "Convolution"
  bottom: "inception_4a/output"
  top: "inception_4b/1x1"
  param {
    lr_mult: 1
    decay_mult: 1
  }
  param {
    lr_mult: 2
    decay_mult: 0
  }
  convolution_param {
    num_output: 160
    kernel_size: 1
    weight_filler {
      type: "xavier"
      std: 0.03
    }
    bias_filler {
      type: "constant"
      value: 0.2
    }
  }
}
layer {
  name: "inception_4b/relu_1x1"
  type: "ReLU"
  bottom: "inception_4b/1x1"
  top: "inception_4b/1x1"
}
layer {
  name: "inception_4b/3x3_reduce"
  type: "Convolution"
  bottom: "inception_4a/output"
  top: "inception_4b/3x3_reduce"
  param {
    lr_mult: 1
    decay_mult: 1
  }
  param {
    lr_mult: 2
    decay_mult: 0
  }
  convolution_param {
    num_output: 112
    kernel_size: 1
    weight_filler {
      type: "xavier"
      std: 0.09
    }
    bias_filler {
      type: "constant"
      value: 0.2
    }
  }
}
layer {
  name: "inception_4b/relu_3x3_reduce"
  type: "ReLU"
  bottom: "inception_4b/3x3_reduce"
  top: "inception_4b/3x3_reduce"
}
layer {
  name: "inception_4b/3x3"
  type: "Convolution"
  bottom: "inception_4b/3x3_reduce"
  top: "inception_4b/3x3"
  param {
    lr_mult: 1
    decay_mult: 1
  }
  param {
    lr_mult: 2
    decay_mult: 0
  }
  convolution_param {
    num_output: 224
    pad: 1
    kernel_size: 3
    weight_filler {
      type: "xavier"
      std: 0.03
    }
    bias_filler {
      type: "constant"
      value: 0.2
    }
  }
}
layer {
  name: "inception_4b/relu_3x3"
  type: "ReLU"
  bottom: "inception_4b/3x3"
  top: "inception_4b/3x3"
}
layer {
  name: "inception_4b/5x5_reduce"
  type: "Convolution"
  bottom: "inception_4a/output"
  top: "inception_4b/5x5_reduce"
  param {
    lr_mult: 1
    decay_mult: 1
  }
  param {
    lr_mult: 2
    decay_mult: 0
  }
  convolution_param {
    num_output: 24
    kernel_size: 1
    weight_filler {
      type: "xavier"
      std: 0.2
    }
    bias_filler {
      type: "constant"
      value: 0.2
    }
  }
}
layer {
  name: "inception_4b/relu_5x5_reduce"
  type: "ReLU"
  bottom: "inception_4b/5x5_reduce"
  top: "inception_4b/5x5_reduce"
}
layer {
  name: "inception_4b/5x5"
  type: "Convolution"
  bottom: "inception_4b/5x5_reduce"
  top: "inception_4b/5x5"
  param {
    lr_mult: 1
    decay_mult: 1
  }
  param {
    lr_mult: 2
    decay_mult: 0
  }
  convolution_param {
    num_output: 64
    pad: 2
    kernel_size: 5
    weight_filler {
      type: "xavier"
      std: 0.03
    }
    bias_filler {
      type: "constant"
      value: 0.2
    }
  }
}
layer {
  name: "inception_4b/relu_5x5"
  type: "ReLU"
  bottom: "inception_4b/5x5"
  top: "inception_4b/5x5"
}
layer {
  name: "inception_4b/pool"
  type: "Pooling"
  bottom: "inception_4a/output"
  top: "inception_4b/pool"
  pooling_param {
    pool: MAX
    kernel_size: 3
    stride: 1
    pad: 1
  }
}
layer {
  name: "inception_4b/pool_proj"
  type: "Convolution"
  bottom: "inception_4b/pool"
  top: "inception_4b/pool_proj"
  param {
    lr_mult: 1
    decay_mult: 1
  }
  param {
    lr_mult: 2
    decay_mult: 0
  }
  convolution_param {
    num_output: 64
    kernel_size: 1
    weight_filler {
      type: "xavier"
      std: 0.1
    }
    bias_filler {
      type: "constant"
      value: 0.2
    }
  }
}
layer {
  name: "inception_4b/relu_pool_proj"
  type: "ReLU"
  bottom: "inception_4b/pool_proj"
  top: "inception_4b/pool_proj"
}
layer {
  name: "inception_4b/output"
  type: "Concat"
  bottom: "inception_4b/1x1"
  bottom: "inception_4b/3x3"
  bottom: "inception_4b/5x5"
  bottom: "inception_4b/pool_proj"
  top: "inception_4b/output"
}
layer {
  name: "inception_4c/1x1"
  type: "Convolution"
  bottom: "inception_4b/output"
  top: "inception_4c/1x1"
  param {
    lr_mult: 1
    decay_mult: 1
  }
  param {
    lr_mult: 2
    decay_mult: 0
  }
  convolution_param {
    num_output: 128
    kernel_size: 1
    weight_filler {
      type: "xavier"
      std: 0.03
    }
    bias_filler {
      type: "constant"
      value: 0.2
    }
  }
}
layer {
  name: "inception_4c/relu_1x1"
  type: "ReLU"
  bottom: "inception_4c/1x1"
  top: "inception_4c/1x1"
}
layer {
  name: "inception_4c/3x3_reduce"
  type: "Convolution"
  bottom: "inception_4b/output"
  top: "inception_4c/3x3_reduce"
  param {
    lr_mult: 1
    decay_mult: 1
  }
  param {
    lr_mult: 2
    decay_mult: 0
  }
  convolution_param {
    num_output: 128
    kernel_size: 1
    weight_filler {
      type: "xavier"
      std: 0.09
    }
    bias_filler {
      type: "constant"
      value: 0.2
    }
  }
}
layer {
  name: "inception_4c/relu_3x3_reduce"
  type: "ReLU"
  bottom: "inception_4c/3x3_reduce"
  top: "inception_4c/3x3_reduce"
}
layer {
  name: "inception_4c/3x3"
  type: "Convolution"
  bottom: "inception_4c/3x3_reduce"
  top: "inception_4c/3x3"
  param {
    lr_mult: 1
    decay_mult: 1
  }
  param {
    lr_mult: 2
    decay_mult: 0
  }
  convolution_param {
    num_output: 256
    pad: 1
    kernel_size: 3
    weight_filler {
      type: "xavier"
      std: 0.03
    }
    bias_filler {
      type: "constant"
      value: 0.2
    }
  }
}
layer {
  name: "inception_4c/relu_3x3"
  type: "ReLU"
  bottom: "inception_4c/3x3"
  top: "inception_4c/3x3"
}
layer {
  name: "inception_4c/5x5_reduce"
  type: "Convolution"
  bottom: "inception_4b/output"
  top: "inception_4c/5x5_reduce"
  param {
    lr_mult: 1
    decay_mult: 1
  }
  param {
    lr_mult: 2
    decay_mult: 0
  }
  convolution_param {
    num_output: 24
    kernel_size: 1
    weight_filler {
      type: "xavier"
      std: 0.2
    }
    bias_filler {
      type: "constant"
      value: 0.2
    }
  }
}
layer {
  name: "inception_4c/relu_5x5_reduce"
  type: "ReLU"
  bottom: "inception_4c/5x5_reduce"
  top: "inception_4c/5x5_reduce"
}
layer {
  name: "inception_4c/5x5"
  type: "Convolution"
  bottom: "inception_4c/5x5_reduce"
  top: "inception_4c/5x5"
  param {
    lr_mult: 1
    decay_mult: 1
  }
  param {
    lr_mult: 2
    decay_mult: 0
  }
  convolution_param {
    num_output: 64
    pad: 2
    kernel_size: 5
    weight_filler {
      type: "xavier"
      std: 0.03
    }
    bias_filler {
      type: "constant"
      value: 0.2
    }
  }
}
layer {
  name: "inception_4c/relu_5x5"
  type: "ReLU"
  bottom: "inception_4c/5x5"
  top: "inception_4c/5x5"
}
layer {
  name: "inception_4c/pool"
  type: "Pooling"
  bottom: "inception_4b/output"
  top: "inception_4c/pool"
  pooling_param {
    pool: MAX
    kernel_size: 3
    stride: 1
    pad: 1
  }
}
layer {
  name: "inception_4c/pool_proj"
  type: "Convolution"
  bottom: "inception_4c/pool"
  top: "inception_4c/pool_proj"
  param {
    lr_mult: 1
    decay_mult: 1
  }
  param {
    lr_mult: 2
    decay_mult: 0
  }
  convolution_param {
    num_output: 64
    kernel_size: 1
    weight_filler {
      type: "xavier"
      std: 0.1
    }
    bias_filler {
      type: "constant"
      value: 0.2
    }
  }
}
layer {
  name: "inception_4c/relu_pool_proj"
  type: "ReLU"
  bottom: "inception_4c/pool_proj"
  top: "inception_4c/pool_proj"
}
layer {
  name: "inception_4c/output"
  type: "Concat"
  bottom: "inception_4c/1x1"
  bottom: "inception_4c/3x3"
  bottom: "inception_4c/5x5"
  bottom: "inception_4c/pool_proj"
  top: "inception_4c/output"
}
layer {
  name: "inception_4d/1x1"
  type: "Convolution"
  bottom: "inception_4c/output"
  top: "inception_4d/1x1"
  param {
    lr_mult: 1
    decay_mult: 1
  }
  param {
    lr_mult: 2
    decay_mult: 0
  }
  convolution_param {
    num_output: 112
    kernel_size: 1
    weight_filler {
      type: "xavier"
      std: 0.03
    }
    bias_filler {
      type: "constant"
      value: 0.2
    }
  }
}
layer {
  name: "inception_4d/relu_1x1"
  type: "ReLU"
  bottom: "inception_4d/1x1"
  top: "inception_4d/1x1"
}
layer {
  name: "inception_4d/3x3_reduce"
  type: "Convolution"
  bottom: "inception_4c/output"
  top: "inception_4d/3x3_reduce"
  param {
    lr_mult: 1
    decay_mult: 1
  }
  param {
    lr_mult: 2
    decay_mult: 0
  }
  convolution_param {
    num_output: 144
    kernel_size: 1
    weight_filler {
      type: "xavier"
      std: 0.09
    }
    bias_filler {
      type: "constant"
      value: 0.2
    }
  }
}
layer {
  name: "inception_4d/relu_3x3_reduce"
  type: "ReLU"
  bottom: "inception_4d/3x3_reduce"
  top: "inception_4d/3x3_reduce"
}
layer {
  name: "inception_4d/3x3"
  type: "Convolution"
  bottom: "inception_4d/3x3_reduce"
  top: "inception_4d/3x3"
  param {
    lr_mult: 1
    decay_mult: 1
  }
  param {
    lr_mult: 2
    decay_mult: 0
  }
  convolution_param {
    num_output: 288
    pad: 1
    kernel_size: 3
    weight_filler {
      type: "xavier"
      std: 0.03
    }
    bias_filler {
      type: "constant"
      value: 0.2
    }
  }
}
layer {
  name: "inception_4d/relu_3x3"
  type: "ReLU"
  bottom: "inception_4d/3x3"
  top: "inception_4d/3x3"
}
layer {
  name: "inception_4d/5x5_reduce"
  type: "Convolution"
  bottom: "inception_4c/output"
  top: "inception_4d/5x5_reduce"
  param {
    lr_mult: 1
    decay_mult: 1
  }
  param {
    lr_mult: 2
    decay_mult: 0
  }
  convolution_param {
    num_output: 32
    kernel_size: 1
    weight_filler {
      type: "xavier"
      std: 0.2
    }
    bias_filler {
      type: "constant"
      value: 0.2
    }
  }
}
layer {
  name: "inception_4d/relu_5x5_reduce"
  type: "ReLU"
  bottom: "inception_4d/5x5_reduce"
  top: "inception_4d/5x5_reduce"
}
layer {
  name: "inception_4d/5x5"
  type: "Convolution"
  bottom: "inception_4d/5x5_reduce"
  top: "inception_4d/5x5"
  param {
    lr_mult: 1
    decay_mult: 1
  }
  param {
    lr_mult: 2
    decay_mult: 0
  }
  convolution_param {
    num_output: 64
    pad: 2
    kernel_size: 5
    weight_filler {
      type: "xavier"
      std: 0.03
    }
    bias_filler {
      type: "constant"
      value: 0.2
    }
  }
}
layer {
  name: "inception_4d/relu_5x5"
  type: "ReLU"
  bottom: "inception_4d/5x5"
  top: "inception_4d/5x5"
}
layer {
  name: "inception_4d/pool"
  type: "Pooling"
  bottom: "inception_4c/output"
  top: "inception_4d/pool"
  pooling_param {
    pool: MAX
    kernel_size: 3
    stride: 1
    pad: 1
  }
}
layer {
  name: "inception_4d/pool_proj"
  type: "Convolution"
  bottom: "inception_4d/pool"
  top: "inception_4d/pool_proj"
  param {
    lr_mult: 1
    decay_mult: 1
  }
  param {
    lr_mult: 2
    decay_mult: 0
  }
  convolution_param {
    num_output: 64
    kernel_size: 1
    weight_filler {
      type: "xavier"
      std: 0.1
    }
    bias_filler {
      type: "constant"
      value: 0.2
    }
  }
}
layer {
  name: "inception_4d/relu_pool_proj"
  type: "ReLU"
  bottom: "inception_4d/pool_proj"
  top: "inception_4d/pool_proj"
}
layer {
  name: "inception_4d/output"
  type: "Concat"
  bottom: "inception_4d/1x1"
  bottom: "inception_4d/3x3"
  bottom: "inception_4d/5x5"
  bottom: "inception_4d/pool_proj"
  top: "inception_4d/output"
}
layer {
  name: "loss2/ave_pool"
  type: "Pooling"
  bottom: "inception_4d/output"
  top: "loss2/ave_pool"
  pooling_param {
    pool: AVE
    kernel_size: 5
    stride: 3
  }
}
layer {
  name: "loss2/conv"
  type: "Convolution"
  bottom: "loss2/ave_pool"
  top: "loss2/conv"
  param {
    lr_mult: 1
    decay_mult: 1
  }
  param {
    lr_mult: 2
    decay_mult: 0
  }
  convolution_param {
    num_output: 128
    kernel_size: 1
    weight_filler {
      type: "xavier"
      std: 0.08
    }
    bias_filler {
      type: "constant"
      value: 0.2
    }
  }
}
layer {
  name: "loss2/relu_conv"
  type: "ReLU"
  bottom: "loss2/conv"
  top: "loss2/conv"
}
layer {
  name: "loss2/fc"
  type: "InnerProduct"
  bottom: "loss2/conv"
  top: "loss2/fc"
  param {
    lr_mult: 1
    decay_mult: 1
  }
  param {
    lr_mult: 2
    decay_mult: 0
  }
  inner_product_param {
    num_output: 1024
    weight_filler {
      type: "xavier"
      std: 0.02
    }
    bias_filler {
      type: "constant"
      value: 0.2
    }
  }
}
layer {
  name: "loss2/relu_fc"
  type: "ReLU"
  bottom: "loss2/fc"
  top: "loss2/fc"
}
layer {
  name: "loss2/drop_fc"
  type: "Dropout"
  bottom: "loss2/fc"
  top: "loss2/fc"
  dropout_param {
    dropout_ratio: 0.7
  }
}
layer {
  name: "loss2/classifier_plantvillage"
  type: "InnerProduct"
  bottom: "loss2/fc"
  top: "loss2/classifier_plantvillage"
  param {
    lr_mult: 1
    decay_mult: 1
  }
  param {
    lr_mult: 2
    decay_mult: 0
  }
  inner_product_param {
    num_output: 38
    weight_filler {
      type: "xavier"
      std: 0.0009765625
    }
    bias_filler {
      type: "constant"
      value: 0
    }
  }
}
layer {
  name: "inception_4e/1x1"
  type: "Convolution"
  bottom: "inception_4d/output"
  top: "inception_4e/1x1"
  param {
    lr_mult: 1
    decay_mult: 1
  }
  param {
    lr_mult: 2
    decay_mult: 0
  }
  convolution_param {
    num_output: 256
    kernel_size: 1
    weight_filler {
      type: "xavier"
      std: 0.03
    }
    bias_filler {
      type: "constant"
      value: 0.2
    }
  }
}
layer {
  name: "inception_4e/relu_1x1"
  type: "ReLU"
  bottom: "inception_4e/1x1"
  top: "inception_4e/1x1"
}
layer {
  name: "inception_4e/3x3_reduce"
  type: "Convolution"
  bottom: "inception_4d/output"
  top: "inception_4e/3x3_reduce"
  param {
    lr_mult: 1
    decay_mult: 1
  }
  param {
    lr_mult: 2
    decay_mult: 0
  }
  convolution_param {
    num_output: 160
    kernel_size: 1
    weight_filler {
      type: "xavier"
      std: 0.09
    }
    bias_filler {
      type: "constant"
      value: 0.2
    }
  }
}
layer {
  name: "inception_4e/relu_3x3_reduce"
  type: "ReLU"
  bottom: "inception_4e/3x3_reduce"
  top: "inception_4e/3x3_reduce"
}
layer {
  name: "inception_4e/3x3"
  type: "Convolution"
  bottom: "inception_4e/3x3_reduce"
  top: "inception_4e/3x3"
  param {
    lr_mult: 1
    decay_mult: 1
  }
  param {
    lr_mult: 2
    decay_mult: 0
  }
  convolution_param {
    num_output: 320
    pad: 1
    kernel_size: 3
    weight_filler {
      type: "xavier"
      std: 0.03
    }
    bias_filler {
      type: "constant"
      value: 0.2
    }
  }
}
layer {
  name: "inception_4e/relu_3x3"
  type: "ReLU"
  bottom: "inception_4e/3x3"
  top: "inception_4e/3x3"
}
layer {
  name: "inception_4e/5x5_reduce"
  type: "Convolution"
  bottom: "inception_4d/output"
  top: "inception_4e/5x5_reduce"
  param {
    lr_mult: 1
    decay_mult: 1
  }
  param {
    lr_mult: 2
    decay_mult: 0
  }
  convolution_param {
    num_output: 32
    kernel_size: 1
    weight_filler {
      type: "xavier"
      std: 0.2
    }
    bias_filler {
      type: "constant"
      value: 0.2
    }
  }
}
layer {
  name: "inception_4e/relu_5x5_reduce"
  type: "ReLU"
  bottom: "inception_4e/5x5_reduce"
  top: "inception_4e/5x5_reduce"
}
layer {
  name: "inception_4e/5x5"
  type: "Convolution"
  bottom: "inception_4e/5x5_reduce"
  top: "inception_4e/5x5"
  p
I0403 20:04:00.356103 10399 layer_factory.hpp:77] Creating layer data
I0403 20:04:00.356844 10399 net.cpp:91] Creating Layer data
I0403 20:04:00.356881 10399 net.cpp:399] data -> data
I0403 20:04:00.356943 10399 net.cpp:399] data -> label
I0403 20:04:00.356988 10399 data_transformer.cpp:25] Loading mean file from: /home/mohanty/data/final_dataset/lmdb/color-50-50/mean.binaryproto
I0403 20:04:00.358315 10402 db_lmdb.cpp:38] Opened lmdb /home/mohanty/data/final_dataset/lmdb/color-50-50/test_db
I0403 20:04:00.374001 10399 data_layer.cpp:41] output data size: 24,3,224,224
I0403 20:04:00.407891 10399 net.cpp:141] Setting up data
I0403 20:04:00.408005 10399 net.cpp:148] Top shape: 24 3 224 224 (3612672)
I0403 20:04:00.408035 10399 net.cpp:148] Top shape: 24 (24)
I0403 20:04:00.408056 10399 net.cpp:156] Memory required for data: 14450784
I0403 20:04:00.408092 10399 layer_factory.hpp:77] Creating layer label_data_1_split
I0403 20:04:00.408128 10399 net.cpp:91] Creating Layer label_data_1_split
I0403 20:04:00.408152 10399 net.cpp:425] label_data_1_split <- label
I0403 20:04:00.408192 10399 net.cpp:399] label_data_1_split -> label_data_1_split_0
I0403 20:04:00.408229 10399 net.cpp:399] label_data_1_split -> label_data_1_split_1
I0403 20:04:00.408255 10399 net.cpp:399] label_data_1_split -> label_data_1_split_2
I0403 20:04:00.408293 10399 net.cpp:399] label_data_1_split -> label_data_1_split_3
I0403 20:04:00.408319 10399 net.cpp:399] label_data_1_split -> label_data_1_split_4
I0403 20:04:00.408344 10399 net.cpp:399] label_data_1_split -> label_data_1_split_5
I0403 20:04:00.408368 10399 net.cpp:399] label_data_1_split -> label_data_1_split_6
I0403 20:04:00.408393 10399 net.cpp:399] label_data_1_split -> label_data_1_split_7
I0403 20:04:00.408418 10399 net.cpp:399] label_data_1_split -> label_data_1_split_8
I0403 20:04:00.408443 10399 net.cpp:399] label_data_1_split -> label_data_1_split_9
I0403 20:04:00.408582 10399 net.cpp:141] Setting up label_data_1_split
I0403 20:04:00.408612 10399 net.cpp:148] Top shape: 24 (24)
I0403 20:04:00.408633 10399 net.cpp:148] Top shape: 24 (24)
I0403 20:04:00.408653 10399 net.cpp:148] Top shape: 24 (24)
I0403 20:04:00.408674 10399 net.cpp:148] Top shape: 24 (24)
I0403 20:04:00.408692 10399 net.cpp:148] Top shape: 24 (24)
I0403 20:04:00.408711 10399 net.cpp:148] Top shape: 24 (24)
I0403 20:04:00.408732 10399 net.cpp:148] Top shape: 24 (24)
I0403 20:04:00.408752 10399 net.cpp:148] Top shape: 24 (24)
I0403 20:04:00.408771 10399 net.cpp:148] Top shape: 24 (24)
I0403 20:04:00.408792 10399 net.cpp:148] Top shape: 24 (24)
I0403 20:04:00.408849 10399 net.cpp:156] Memory required for data: 14451744
I0403 20:04:00.408870 10399 layer_factory.hpp:77] Creating layer conv1/7x7_s2
I0403 20:04:00.408910 10399 net.cpp:91] Creating Layer conv1/7x7_s2
I0403 20:04:00.408934 10399 net.cpp:425] conv1/7x7_s2 <- data
I0403 20:04:00.408959 10399 net.cpp:399] conv1/7x7_s2 -> conv1/7x7_s2
I0403 20:04:00.577210 10399 net.cpp:141] Setting up conv1/7x7_s2
I0403 20:04:00.577337 10399 net.cpp:148] Top shape: 24 64 112 112 (19267584)
I0403 20:04:00.577358 10399 net.cpp:156] Memory required for data: 91522080
I0403 20:04:00.577396 10399 layer_factory.hpp:77] Creating layer conv1/relu_7x7
I0403 20:04:00.577430 10399 net.cpp:91] Creating Layer conv1/relu_7x7
I0403 20:04:00.577453 10399 net.cpp:425] conv1/relu_7x7 <- conv1/7x7_s2
I0403 20:04:00.577476 10399 net.cpp:386] conv1/relu_7x7 -> conv1/7x7_s2 (in-place)
I0403 20:04:00.577777 10399 net.cpp:141] Setting up conv1/relu_7x7
I0403 20:04:00.577811 10399 net.cpp:148] Top shape: 24 64 112 112 (19267584)
I0403 20:04:00.577831 10399 net.cpp:156] Memory required for data: 168592416
I0403 20:04:00.577852 10399 layer_factory.hpp:77] Creating layer pool1/3x3_s2
I0403 20:04:00.577888 10399 net.cpp:91] Creating Layer pool1/3x3_s2
I0403 20:04:00.577913 10399 net.cpp:425] pool1/3x3_s2 <- conv1/7x7_s2
I0403 20:04:00.577939 10399 net.cpp:399] pool1/3x3_s2 -> pool1/3x3_s2
I0403 20:04:00.578029 10399 net.cpp:141] Setting up pool1/3x3_s2
I0403 20:04:00.578059 10399 net.cpp:148] Top shape: 24 64 56 56 (4816896)
I0403 20:04:00.578078 10399 net.cpp:156] Memory required for data: 187860000
I0403 20:04:00.578097 10399 layer_factory.hpp:77] Creating layer pool1/norm1
I0403 20:04:00.578129 10399 net.cpp:91] Creating Layer pool1/norm1
I0403 20:04:00.578151 10399 net.cpp:425] pool1/norm1 <- pool1/3x3_s2
I0403 20:04:00.578173 10399 net.cpp:399] pool1/norm1 -> pool1/norm1
I0403 20:04:00.578524 10399 net.cpp:141] Setting up pool1/norm1
I0403 20:04:00.578558 10399 net.cpp:148] Top shape: 24 64 56 56 (4816896)
I0403 20:04:00.578578 10399 net.cpp:156] Memory required for data: 207127584
I0403 20:04:00.578598 10399 layer_factory.hpp:77] Creating layer conv2/3x3_reduce
I0403 20:04:00.578629 10399 net.cpp:91] Creating Layer conv2/3x3_reduce
I0403 20:04:00.578651 10399 net.cpp:425] conv2/3x3_reduce <- pool1/norm1
I0403 20:04:00.578675 10399 net.cpp:399] conv2/3x3_reduce -> conv2/3x3_reduce
I0403 20:04:00.580364 10399 net.cpp:141] Setting up conv2/3x3_reduce
I0403 20:04:00.580406 10399 net.cpp:148] Top shape: 24 64 56 56 (4816896)
I0403 20:04:00.580428 10399 net.cpp:156] Memory required for data: 226395168
I0403 20:04:00.580456 10399 layer_factory.hpp:77] Creating layer conv2/relu_3x3_reduce
I0403 20:04:00.580478 10399 net.cpp:91] Creating Layer conv2/relu_3x3_reduce
I0403 20:04:00.580499 10399 net.cpp:425] conv2/relu_3x3_reduce <- conv2/3x3_reduce
I0403 20:04:00.580524 10399 net.cpp:386] conv2/relu_3x3_reduce -> conv2/3x3_reduce (in-place)
I0403 20:04:00.580845 10399 net.cpp:141] Setting up conv2/relu_3x3_reduce
I0403 20:04:00.580880 10399 net.cpp:148] Top shape: 24 64 56 56 (4816896)
I0403 20:04:00.580901 10399 net.cpp:156] Memory required for data: 245662752
I0403 20:04:00.580920 10399 layer_factory.hpp:77] Creating layer conv2/3x3
I0403 20:04:00.580953 10399 net.cpp:91] Creating Layer conv2/3x3
I0403 20:04:00.580976 10399 net.cpp:425] conv2/3x3 <- conv2/3x3_reduce
I0403 20:04:00.581001 10399 net.cpp:399] conv2/3x3 -> conv2/3x3
I0403 20:04:00.583801 10399 net.cpp:141] Setting up conv2/3x3
I0403 20:04:00.583843 10399 net.cpp:148] Top shape: 24 192 56 56 (14450688)
I0403 20:04:00.583868 10399 net.cpp:156] Memory required for data: 303465504
I0403 20:04:00.583897 10399 layer_factory.hpp:77] Creating layer conv2/relu_3x3
I0403 20:04:00.583925 10399 net.cpp:91] Creating Layer conv2/relu_3x3
I0403 20:04:00.583947 10399 net.cpp:425] conv2/relu_3x3 <- conv2/3x3
I0403 20:04:00.583973 10399 net.cpp:386] conv2/relu_3x3 -> conv2/3x3 (in-place)
I0403 20:04:00.584184 10399 net.cpp:141] Setting up conv2/relu_3x3
I0403 20:04:00.584215 10399 net.cpp:148] Top shape: 24 192 56 56 (14450688)
I0403 20:04:00.584277 10399 net.cpp:156] Memory required for data: 361268256
I0403 20:04:00.584300 10399 layer_factory.hpp:77] Creating layer conv2/norm2
I0403 20:04:00.584326 10399 net.cpp:91] Creating Layer conv2/norm2
I0403 20:04:00.584348 10399 net.cpp:425] conv2/norm2 <- conv2/3x3
I0403 20:04:00.584370 10399 net.cpp:399] conv2/norm2 -> conv2/norm2
I0403 20:04:00.584738 10399 net.cpp:141] Setting up conv2/norm2
I0403 20:04:00.584770 10399 net.cpp:148] Top shape: 24 192 56 56 (14450688)
I0403 20:04:00.584789 10399 net.cpp:156] Memory required for data: 419071008
I0403 20:04:00.584810 10399 layer_factory.hpp:77] Creating layer pool2/3x3_s2
I0403 20:04:00.584836 10399 net.cpp:91] Creating Layer pool2/3x3_s2
I0403 20:04:00.584857 10399 net.cpp:425] pool2/3x3_s2 <- conv2/norm2
I0403 20:04:00.584879 10399 net.cpp:399] pool2/3x3_s2 -> pool2/3x3_s2
I0403 20:04:00.584949 10399 net.cpp:141] Setting up pool2/3x3_s2
I0403 20:04:00.584978 10399 net.cpp:148] Top shape: 24 192 28 28 (3612672)
I0403 20:04:00.584996 10399 net.cpp:156] Memory required for data: 433521696
I0403 20:04:00.585016 10399 layer_factory.hpp:77] Creating layer pool2/3x3_s2_pool2/3x3_s2_0_split
I0403 20:04:00.585038 10399 net.cpp:91] Creating Layer pool2/3x3_s2_pool2/3x3_s2_0_split
I0403 20:04:00.585062 10399 net.cpp:425] pool2/3x3_s2_pool2/3x3_s2_0_split <- pool2/3x3_s2
I0403 20:04:00.585085 10399 net.cpp:399] pool2/3x3_s2_pool2/3x3_s2_0_split -> pool2/3x3_s2_pool2/3x3_s2_0_split_0
I0403 20:04:00.585109 10399 net.cpp:399] pool2/3x3_s2_pool2/3x3_s2_0_split -> pool2/3x3_s2_pool2/3x3_s2_0_split_1
I0403 20:04:00.585134 10399 net.cpp:399] pool2/3x3_s2_pool2/3x3_s2_0_split -> pool2/3x3_s2_pool2/3x3_s2_0_split_2
I0403 20:04:00.585160 10399 net.cpp:399] pool2/3x3_s2_pool2/3x3_s2_0_split -> pool2/3x3_s2_pool2/3x3_s2_0_split_3
I0403 20:04:00.585248 10399 net.cpp:141] Setting up pool2/3x3_s2_pool2/3x3_s2_0_split
I0403 20:04:00.585283 10399 net.cpp:148] Top shape: 24 192 28 28 (3612672)
I0403 20:04:00.585307 10399 net.cpp:148] Top shape: 24 192 28 28 (3612672)
I0403 20:04:00.585326 10399 net.cpp:148] Top shape: 24 192 28 28 (3612672)
I0403 20:04:00.585345 10399 net.cpp:148] Top shape: 24 192 28 28 (3612672)
I0403 20:04:00.585362 10399 net.cpp:156] Memory required for data: 491324448
I0403 20:04:00.585381 10399 layer_factory.hpp:77] Creating layer inception_3a/1x1
I0403 20:04:00.585410 10399 net.cpp:91] Creating Layer inception_3a/1x1
I0403 20:04:00.585433 10399 net.cpp:425] inception_3a/1x1 <- pool2/3x3_s2_pool2/3x3_s2_0_split_0
I0403 20:04:00.585459 10399 net.cpp:399] inception_3a/1x1 -> inception_3a/1x1
I0403 20:04:00.587327 10399 net.cpp:141] Setting up inception_3a/1x1
I0403 20:04:00.587366 10399 net.cpp:148] Top shape: 24 64 28 28 (1204224)
I0403 20:04:00.587388 10399 net.cpp:156] Memory required for data: 496141344
I0403 20:04:00.587410 10399 layer_factory.hpp:77] Creating layer inception_3a/relu_1x1
I0403 20:04:00.587433 10399 net.cpp:91] Creating Layer inception_3a/relu_1x1
I0403 20:04:00.587453 10399 net.cpp:425] inception_3a/relu_1x1 <- inception_3a/1x1
I0403 20:04:00.587474 10399 net.cpp:386] inception_3a/relu_1x1 -> inception_3a/1x1 (in-place)
I0403 20:04:00.587687 10399 net.cpp:141] Setting up inception_3a/relu_1x1
I0403 20:04:00.587718 10399 net.cpp:148] Top shape: 24 64 28 28 (1204224)
I0403 20:04:00.587738 10399 net.cpp:156] Memory required for data: 500958240
I0403 20:04:00.587756 10399 layer_factory.hpp:77] Creating layer inception_3a/3x3_reduce
I0403 20:04:00.587785 10399 net.cpp:91] Creating Layer inception_3a/3x3_reduce
I0403 20:04:00.587806 10399 net.cpp:425] inception_3a/3x3_reduce <- pool2/3x3_s2_pool2/3x3_s2_0_split_1
I0403 20:04:00.587832 10399 net.cpp:399] inception_3a/3x3_reduce -> inception_3a/3x3_reduce
I0403 20:04:00.589867 10399 net.cpp:141] Setting up inception_3a/3x3_reduce
I0403 20:04:00.589906 10399 net.cpp:148] Top shape: 24 96 28 28 (1806336)
I0403 20:04:00.589929 10399 net.cpp:156] Memory required for data: 508183584
I0403 20:04:00.589956 10399 layer_factory.hpp:77] Creating layer inception_3a/relu_3x3_reduce
I0403 20:04:00.589999 10399 net.cpp:91] Creating Layer inception_3a/relu_3x3_reduce
I0403 20:04:00.590028 10399 net.cpp:425] inception_3a/relu_3x3_reduce <- inception_3a/3x3_reduce
I0403 20:04:00.590049 10399 net.cpp:386] inception_3a/relu_3x3_reduce -> inception_3a/3x3_reduce (in-place)
I0403 20:04:00.590268 10399 net.cpp:141] Setting up inception_3a/relu_3x3_reduce
I0403 20:04:00.590306 10399 net.cpp:148] Top shape: 24 96 28 28 (1806336)
I0403 20:04:00.590325 10399 net.cpp:156] Memory required for data: 515408928
I0403 20:04:00.590347 10399 layer_factory.hpp:77] Creating layer inception_3a/3x3
I0403 20:04:00.590376 10399 net.cpp:91] Creating Layer inception_3a/3x3
I0403 20:04:00.590399 10399 net.cpp:425] inception_3a/3x3 <- inception_3a/3x3_reduce
I0403 20:04:00.590423 10399 net.cpp:399] inception_3a/3x3 -> inception_3a/3x3
I0403 20:04:00.592475 10399 net.cpp:141] Setting up inception_3a/3x3
I0403 20:04:00.592510 10399 net.cpp:148] Top shape: 24 128 28 28 (2408448)
I0403 20:04:00.592530 10399 net.cpp:156] Memory required for data: 525042720
I0403 20:04:00.592555 10399 layer_factory.hpp:77] Creating layer inception_3a/relu_3x3
I0403 20:04:00.592577 10399 net.cpp:91] Creating Layer inception_3a/relu_3x3
I0403 20:04:00.592597 10399 net.cpp:425] inception_3a/relu_3x3 <- inception_3a/3x3
I0403 20:04:00.592623 10399 net.cpp:386] inception_3a/relu_3x3 -> inception_3a/3x3 (in-place)
I0403 20:04:00.592955 10399 net.cpp:141] Setting up inception_3a/relu_3x3
I0403 20:04:00.592988 10399 net.cpp:148] Top shape: 24 128 28 28 (2408448)
I0403 20:04:00.593008 10399 net.cpp:156] Memory required for data: 534676512
I0403 20:04:00.593026 10399 layer_factory.hpp:77] Creating layer inception_3a/5x5_reduce
I0403 20:04:00.593055 10399 net.cpp:91] Creating Layer inception_3a/5x5_reduce
I0403 20:04:00.593078 10399 net.cpp:425] inception_3a/5x5_reduce <- pool2/3x3_s2_pool2/3x3_s2_0_split_2
I0403 20:04:00.593106 10399 net.cpp:399] inception_3a/5x5_reduce -> inception_3a/5x5_reduce
I0403 20:04:00.594257 10399 net.cpp:141] Setting up inception_3a/5x5_reduce
I0403 20:04:00.594296 10399 net.cpp:148] Top shape: 24 16 28 28 (301056)
I0403 20:04:00.594316 10399 net.cpp:156] Memory required for data: 535880736
I0403 20:04:00.594341 10399 layer_factory.hpp:77] Creating layer inception_3a/relu_5x5_reduce
I0403 20:04:00.594363 10399 net.cpp:91] Creating Layer inception_3a/relu_5x5_reduce
I0403 20:04:00.594384 10399 net.cpp:425] inception_3a/relu_5x5_reduce <- inception_3a/5x5_reduce
I0403 20:04:00.594409 10399 net.cpp:386] inception_3a/relu_5x5_reduce -> inception_3a/5x5_reduce (in-place)
I0403 20:04:00.594741 10399 net.cpp:141] Setting up inception_3a/relu_5x5_reduce
I0403 20:04:00.594775 10399 net.cpp:148] Top shape: 24 16 28 28 (301056)
I0403 20:04:00.594795 10399 net.cpp:156] Memory required for data: 537084960
I0403 20:04:00.594815 10399 layer_factory.hpp:77] Creating layer inception_3a/5x5
I0403 20:04:00.594843 10399 net.cpp:91] Creating Layer inception_3a/5x5
I0403 20:04:00.594866 10399 net.cpp:425] inception_3a/5x5 <- inception_3a/5x5_reduce
I0403 20:04:00.594892 10399 net.cpp:399] inception_3a/5x5 -> inception_3a/5x5
I0403 20:04:00.596113 10399 net.cpp:141] Setting up inception_3a/5x5
I0403 20:04:00.596153 10399 net.cpp:148] Top shape: 24 32 28 28 (602112)
I0403 20:04:00.596175 10399 net.cpp:156] Memory required for data: 539493408
I0403 20:04:00.596197 10399 layer_factory.hpp:77] Creating layer inception_3a/relu_5x5
I0403 20:04:00.596221 10399 net.cpp:91] Creating Layer inception_3a/relu_5x5
I0403 20:04:00.596241 10399 net.cpp:425] inception_3a/relu_5x5 <- inception_3a/5x5
I0403 20:04:00.596266 10399 net.cpp:386] inception_3a/relu_5x5 -> inception_3a/5x5 (in-place)
I0403 20:04:00.596490 10399 net.cpp:141] Setting up inception_3a/relu_5x5
I0403 20:04:00.596524 10399 net.cpp:148] Top shape: 24 32 28 28 (602112)
I0403 20:04:00.596544 10399 net.cpp:156] Memory required for data: 541901856
I0403 20:04:00.596561 10399 layer_factory.hpp:77] Creating layer inception_3a/pool
I0403 20:04:00.596583 10399 net.cpp:91] Creating Layer inception_3a/pool
I0403 20:04:00.596604 10399 net.cpp:425] inception_3a/pool <- pool2/3x3_s2_pool2/3x3_s2_0_split_3
I0403 20:04:00.596647 10399 net.cpp:399] inception_3a/pool -> inception_3a/pool
I0403 20:04:00.596721 10399 net.cpp:141] Setting up inception_3a/pool
I0403 20:04:00.596750 10399 net.cpp:148] Top shape: 24 192 28 28 (3612672)
I0403 20:04:00.596768 10399 net.cpp:156] Memory required for data: 556352544
I0403 20:04:00.596787 10399 layer_factory.hpp:77] Creating layer inception_3a/pool_proj
I0403 20:04:00.596814 10399 net.cpp:91] Creating Layer inception_3a/pool_proj
I0403 20:04:00.596837 10399 net.cpp:425] inception_3a/pool_proj <- inception_3a/pool
I0403 20:04:00.596864 10399 net.cpp:399] inception_3a/pool_proj -> inception_3a/pool_proj
I0403 20:04:00.598037 10399 net.cpp:141] Setting up inception_3a/pool_proj
I0403 20:04:00.598073 10399 net.cpp:148] Top shape: 24 32 28 28 (602112)
I0403 20:04:00.598093 10399 net.cpp:156] Memory required for data: 558760992
I0403 20:04:00.598122 10399 layer_factory.hpp:77] Creating layer inception_3a/relu_pool_proj
I0403 20:04:00.598146 10399 net.cpp:91] Creating Layer inception_3a/relu_pool_proj
I0403 20:04:00.598166 10399 net.cpp:425] inception_3a/relu_pool_proj <- inception_3a/pool_proj
I0403 20:04:00.598191 10399 net.cpp:386] inception_3a/relu_pool_proj -> inception_3a/pool_proj (in-place)
I0403 20:04:00.598531 10399 net.cpp:141] Setting up inception_3a/relu_pool_proj
I0403 20:04:00.598564 10399 net.cpp:148] Top shape: 24 32 28 28 (602112)
I0403 20:04:00.598583 10399 net.cpp:156] Memory required for data: 561169440
I0403 20:04:00.598601 10399 layer_factory.hpp:77] Creating layer inception_3a/output
I0403 20:04:00.598624 10399 net.cpp:91] Creating Layer inception_3a/output
I0403 20:04:00.598645 10399 net.cpp:425] inception_3a/output <- inception_3a/1x1
I0403 20:04:00.598667 10399 net.cpp:425] inception_3a/output <- inception_3a/3x3
I0403 20:04:00.598685 10399 net.cpp:425] inception_3a/output <- inception_3a/5x5
I0403 20:04:00.598706 10399 net.cpp:425] inception_3a/output <- inception_3a/pool_proj
I0403 20:04:00.598731 10399 net.cpp:399] inception_3a/output -> inception_3a/output
I0403 20:04:00.598788 10399 net.cpp:141] Setting up inception_3a/output
I0403 20:04:00.598819 10399 net.cpp:148] Top shape: 24 256 28 28 (4816896)
I0403 20:04:00.598840 10399 net.cpp:156] Memory required for data: 580437024
I0403 20:04:00.598860 10399 layer_factory.hpp:77] Creating layer inception_3a/output_inception_3a/output_0_split
I0403 20:04:00.598881 10399 net.cpp:91] Creating Layer inception_3a/output_inception_3a/output_0_split
I0403 20:04:00.598901 10399 net.cpp:425] inception_3a/output_inception_3a/output_0_split <- inception_3a/output
I0403 20:04:00.598923 10399 net.cpp:399] inception_3a/output_inception_3a/output_0_split -> inception_3a/output_inception_3a/output_0_split_0
I0403 20:04:00.598949 10399 net.cpp:399] inception_3a/output_inception_3a/output_0_split -> inception_3a/output_inception_3a/output_0_split_1
I0403 20:04:00.598983 10399 net.cpp:399] inception_3a/output_inception_3a/output_0_split -> inception_3a/output_inception_3a/output_0_split_2
I0403 20:04:00.599010 10399 net.cpp:399] inception_3a/output_inception_3a/output_0_split -> inception_3a/output_inception_3a/output_0_split_3
I0403 20:04:00.599103 10399 net.cpp:141] Setting up inception_3a/output_inception_3a/output_0_split
I0403 20:04:00.599133 10399 net.cpp:148] Top shape: 24 256 28 28 (4816896)
I0403 20:04:00.599155 10399 net.cpp:148] Top shape: 24 256 28 28 (4816896)
I0403 20:04:00.599176 10399 net.cpp:148] Top shape: 24 256 28 28 (4816896)
I0403 20:04:00.599196 10399 net.cpp:148] Top shape: 24 256 28 28 (4816896)
I0403 20:04:00.599215 10399 net.cpp:156] Memory required for data: 657507360
I0403 20:04:00.599234 10399 layer_factory.hpp:77] Creating layer inception_3b/1x1
I0403 20:04:00.599263 10399 net.cpp:91] Creating Layer inception_3b/1x1
I0403 20:04:00.599292 10399 net.cpp:425] inception_3b/1x1 <- inception_3a/output_inception_3a/output_0_split_0
I0403 20:04:00.599318 10399 net.cpp:399] inception_3b/1x1 -> inception_3b/1x1
I0403 20:04:00.600716 10399 net.cpp:141] Setting up inception_3b/1x1
I0403 20:04:00.600765 10399 net.cpp:148] Top shape: 24 128 28 28 (2408448)
I0403 20:04:00.600786 10399 net.cpp:156] Memory required for data: 667141152
I0403 20:04:00.600808 10399 layer_factory.hpp:77] Creating layer inception_3b/relu_1x1
I0403 20:04:00.600833 10399 net.cpp:91] Creating Layer inception_3b/relu_1x1
I0403 20:04:00.600855 10399 net.cpp:425] inception_3b/relu_1x1 <- inception_3b/1x1
I0403 20:04:00.600877 10399 net.cpp:386] inception_3b/relu_1x1 -> inception_3b/1x1 (in-place)
I0403 20:04:00.601092 10399 net.cpp:141] Setting up inception_3b/relu_1x1
I0403 20:04:00.601125 10399 net.cpp:148] Top shape: 24 128 28 28 (2408448)
I0403 20:04:00.601143 10399 net.cpp:156] Memory required for data: 676774944
I0403 20:04:00.601161 10399 layer_factory.hpp:77] Creating layer inception_3b/3x3_reduce
I0403 20:04:00.601189 10399 net.cpp:91] Creating Layer inception_3b/3x3_reduce
I0403 20:04:00.601212 10399 net.cpp:425] inception_3b/3x3_reduce <- inception_3a/output_inception_3a/output_0_split_1
I0403 20:04:00.601239 10399 net.cpp:399] inception_3b/3x3_reduce -> inception_3b/3x3_reduce
I0403 20:04:00.602613 10399 net.cpp:141] Setting up inception_3b/3x3_reduce
I0403 20:04:00.602653 10399 net.cpp:148] Top shape: 24 128 28 28 (2408448)
I0403 20:04:00.602675 10399 net.cpp:156] Memory required for data: 686408736
I0403 20:04:00.602699 10399 layer_factory.hpp:77] Creating layer inception_3b/relu_3x3_reduce
I0403 20:04:00.602722 10399 net.cpp:91] Creating Layer inception_3b/relu_3x3_reduce
I0403 20:04:00.602742 10399 net.cpp:425] inception_3b/relu_3x3_reduce <- inception_3b/3x3_reduce
I0403 20:04:00.602764 10399 net.cpp:386] inception_3b/relu_3x3_reduce -> inception_3b/3x3_reduce (in-place)
I0403 20:04:00.602977 10399 net.cpp:141] Setting up inception_3b/relu_3x3_reduce
I0403 20:04:00.603011 10399 net.cpp:148] Top shape: 24 128 28 28 (2408448)
I0403 20:04:00.603031 10399 net.cpp:156] Memory required for data: 696042528
I0403 20:04:00.603050 10399 layer_factory.hpp:77] Creating layer inception_3b/3x3
I0403 20:04:00.603081 10399 net.cpp:91] Creating Layer inception_3b/3x3
I0403 20:04:00.603104 10399 net.cpp:425] inception_3b/3x3 <- inception_3b/3x3_reduce
I0403 20:04:00.603132 10399 net.cpp:399] inception_3b/3x3 -> inception_3b/3x3
I0403 20:04:00.606673 10399 net.cpp:141] Setting up inception_3b/3x3
I0403 20:04:00.606709 10399 net.cpp:148] Top shape: 24 192 28 28 (3612672)
I0403 20:04:00.606729 10399 net.cpp:156] Memory required for data: 710493216
I0403 20:04:00.606752 10399 layer_factory.hpp:77] Creating layer inception_3b/relu_3x3
I0403 20:04:00.606775 10399 net.cpp:91] Creating Layer inception_3b/relu_3x3
I0403 20:04:00.606796 10399 net.cpp:425] inception_3b/relu_3x3 <- inception_3b/3x3
I0403 20:04:00.606822 10399 net.cpp:386] inception_3b/relu_3x3 -> inception_3b/3x3 (in-place)
I0403 20:04:00.607151 10399 net.cpp:141] Setting up inception_3b/relu_3x3
I0403 20:04:00.607184 10399 net.cpp:148] Top shape: 24 192 28 28 (3612672)
I0403 20:04:00.607203 10399 net.cpp:156] Memory required for data: 724943904
I0403 20:04:00.607221 10399 layer_factory.hpp:77] Creating layer inception_3b/5x5_reduce
I0403 20:04:00.607250 10399 net.cpp:91] Creating Layer inception_3b/5x5_reduce
I0403 20:04:00.607280 10399 net.cpp:425] inception_3b/5x5_reduce <- inception_3a/output_inception_3a/output_0_split_2
I0403 20:04:00.607311 10399 net.cpp:399] inception_3b/5x5_reduce -> inception_3b/5x5_reduce
I0403 20:04:00.608500 10399 net.cpp:141] Setting up inception_3b/5x5_reduce
I0403 20:04:00.608536 10399 net.cpp:148] Top shape: 24 32 28 28 (602112)
I0403 20:04:00.608556 10399 net.cpp:156] Memory required for data: 727352352
I0403 20:04:00.608579 10399 layer_factory.hpp:77] Creating layer inception_3b/relu_5x5_reduce
I0403 20:04:00.608603 10399 net.cpp:91] Creating Layer inception_3b/relu_5x5_reduce
I0403 20:04:00.608623 10399 net.cpp:425] inception_3b/relu_5x5_reduce <- inception_3b/5x5_reduce
I0403 20:04:00.608649 10399 net.cpp:386] inception_3b/relu_5x5_reduce -> inception_3b/5x5_reduce (in-place)
I0403 20:04:00.608861 10399 net.cpp:141] Setting up inception_3b/relu_5x5_reduce
I0403 20:04:00.608909 10399 net.cpp:148] Top shape: 24 32 28 28 (602112)
I0403 20:04:00.608929 10399 net.cpp:156] Memory required for data: 729760800
I0403 20:04:00.608947 10399 layer_factory.hpp:77] Creating layer inception_3b/5x5
I0403 20:04:00.608976 10399 net.cpp:91] Creating Layer inception_3b/5x5
I0403 20:04:00.608999 10399 net.cpp:425] inception_3b/5x5 <- inception_3b/5x5_reduce
I0403 20:04:00.609025 10399 net.cpp:399] inception_3b/5x5 -> inception_3b/5x5
I0403 20:04:00.611423 10399 net.cpp:141] Setting up inception_3b/5x5
I0403 20:04:00.611459 10399 net.cpp:148] Top shape: 24 96 28 28 (1806336)
I0403 20:04:00.611484 10399 net.cpp:156] Memory required for data: 736986144
I0403 20:04:00.611507 10399 layer_factory.hpp:77] Creating layer inception_3b/relu_5x5
I0403 20:04:00.611531 10399 net.cpp:91] Creating Layer inception_3b/relu_5x5
I0403 20:04:00.611552 10399 net.cpp:425] inception_3b/relu_5x5 <- inception_3b/5x5
I0403 20:04:00.611572 10399 net.cpp:386] inception_3b/relu_5x5 -> inception_3b/5x5 (in-place)
I0403 20:04:00.611811 10399 net.cpp:141] Setting up inception_3b/relu_5x5
I0403 20:04:00.611843 10399 net.cpp:148] Top shape: 24 96 28 28 (1806336)
I0403 20:04:00.611861 10399 net.cpp:156] Memory required for data: 744211488
I0403 20:04:00.611881 10399 layer_factory.hpp:77] Creating layer inception_3b/pool
I0403 20:04:00.611903 10399 net.cpp:91] Creating Layer inception_3b/pool
I0403 20:04:00.611923 10399 net.cpp:425] inception_3b/pool <- inception_3a/output_inception_3a/output_0_split_3
I0403 20:04:00.611948 10399 net.cpp:399] inception_3b/pool -> inception_3b/pool
I0403 20:04:00.612015 10399 net.cpp:141] Setting up inception_3b/pool
I0403 20:04:00.612049 10399 net.cpp:148] Top shape: 24 256 28 28 (4816896)
I0403 20:04:00.612069 10399 net.cpp:156] Memory required for data: 763479072
I0403 20:04:00.612087 10399 layer_factory.hpp:77] Creating layer inception_3b/pool_proj
I0403 20:04:00.612112 10399 net.cpp:91] Creating Layer inception_3b/pool_proj
I0403 20:04:00.612134 10399 net.cpp:425] inception_3b/pool_proj <- inception_3b/pool
I0403 20:04:00.612161 10399 net.cpp:399] inception_3b/pool_proj -> inception_3b/pool_proj
I0403 20:04:00.613463 10399 net.cpp:141] Setting up inception_3b/pool_proj
I0403 20:04:00.613498 10399 net.cpp:148] Top shape: 24 64 28 28 (1204224)
I0403 20:04:00.613518 10399 net.cpp:156] Memory required for data: 768295968
I0403 20:04:00.613541 10399 layer_factory.hpp:77] Creating layer inception_3b/relu_pool_proj
I0403 20:04:00.613567 10399 net.cpp:91] Creating Layer inception_3b/relu_pool_proj
I0403 20:04:00.613590 10399 net.cpp:425] inception_3b/relu_pool_proj <- inception_3b/pool_proj
I0403 20:04:00.613611 10399 net.cpp:386] inception_3b/relu_pool_proj -> inception_3b/pool_proj (in-place)
I0403 20:04:00.614073 10399 net.cpp:141] Setting up inception_3b/relu_pool_proj
I0403 20:04:00.614104 10399 net.cpp:148] Top shape: 24 64 28 28 (1204224)
I0403 20:04:00.614123 10399 net.cpp:156] Memory required for data: 773112864
I0403 20:04:00.614142 10399 layer_factory.hpp:77] Creating layer inception_3b/output
I0403 20:04:00.614166 10399 net.cpp:91] Creating Layer inception_3b/output
I0403 20:04:00.614186 10399 net.cpp:425] inception_3b/output <- inception_3b/1x1
I0403 20:04:00.614207 10399 net.cpp:425] inception_3b/output <- inception_3b/3x3
I0403 20:04:00.614228 10399 net.cpp:425] inception_3b/output <- inception_3b/5x5
I0403 20:04:00.614246 10399 net.cpp:425] inception_3b/output <- inception_3b/pool_proj
I0403 20:04:00.614277 10399 net.cpp:399] inception_3b/output -> inception_3b/output
I0403 20:04:00.614334 10399 net.cpp:141] Setting up inception_3b/output
I0403 20:04:00.614368 10399 net.cpp:148] Top shape: 24 480 28 28 (9031680)
I0403 20:04:00.614389 10399 net.cpp:156] Memory required for data: 809239584
I0403 20:04:00.614408 10399 layer_factory.hpp:77] Creating layer pool3/3x3_s2
I0403 20:04:00.614430 10399 net.cpp:91] Creating Layer pool3/3x3_s2
I0403 20:04:00.614450 10399 net.cpp:425] pool3/3x3_s2 <- inception_3b/output
I0403 20:04:00.614476 10399 net.cpp:399] pool3/3x3_s2 -> pool3/3x3_s2
I0403 20:04:00.614565 10399 net.cpp:141] Setting up pool3/3x3_s2
I0403 20:04:00.614595 10399 net.cpp:148] Top shape: 24 480 14 14 (2257920)
I0403 20:04:00.614615 10399 net.cpp:156] Memory required for data: 818271264
I0403 20:04:00.614632 10399 layer_factory.hpp:77] Creating layer pool3/3x3_s2_pool3/3x3_s2_0_split
I0403 20:04:00.614657 10399 net.cpp:91] Creating Layer pool3/3x3_s2_pool3/3x3_s2_0_split
I0403 20:04:00.614677 10399 net.cpp:425] pool3/3x3_s2_pool3/3x3_s2_0_split <- pool3/3x3_s2
I0403 20:04:00.614699 10399 net.cpp:399] pool3/3x3_s2_pool3/3x3_s2_0_split -> pool3/3x3_s2_pool3/3x3_s2_0_split_0
I0403 20:04:00.614725 10399 net.cpp:399] pool3/3x3_s2_pool3/3x3_s2_0_split -> pool3/3x3_s2_pool3/3x3_s2_0_split_1
I0403 20:04:00.614751 10399 net.cpp:399] pool3/3x3_s2_pool3/3x3_s2_0_split -> pool3/3x3_s2_pool3/3x3_s2_0_split_2
I0403 20:04:00.614779 10399 net.cpp:399] pool3/3x3_s2_pool3/3x3_s2_0_split -> pool3/3x3_s2_pool3/3x3_s2_0_split_3
I0403 20:04:00.614872 10399 net.cpp:141] Setting up pool3/3x3_s2_pool3/3x3_s2_0_split
I0403 20:04:00.614902 10399 net.cpp:148] Top shape: 24 480 14 14 (2257920)
I0403 20:04:00.614923 10399 net.cpp:148] Top shape: 24 480 14 14 (2257920)
I0403 20:04:00.614944 10399 net.cpp:148] Top shape: 24 480 14 14 (2257920)
I0403 20:04:00.614964 10399 net.cpp:148] Top shape: 24 480 14 14 (2257920)
I0403 20:04:00.614981 10399 net.cpp:156] Memory required for data: 854397984
I0403 20:04:00.615000 10399 layer_factory.hpp:77] Creating layer inception_4a/1x1
I0403 20:04:00.615026 10399 net.cpp:91] Creating Layer inception_4a/1x1
I0403 20:04:00.615049 10399 net.cpp:425] inception_4a/1x1 <- pool3/3x3_s2_pool3/3x3_s2_0_split_0
I0403 20:04:00.615077 10399 net.cpp:399] inception_4a/1x1 -> inception_4a/1x1
I0403 20:04:00.616974 10399 net.cpp:141] Setting up inception_4a/1x1
I0403 20:04:00.617009 10399 net.cpp:148] Top shape: 24 192 14 14 (903168)
I0403 20:04:00.617029 10399 net.cpp:156] Memory required for data: 858010656
I0403 20:04:00.617053 10399 layer_factory.hpp:77] Creating layer inception_4a/relu_1x1
I0403 20:04:00.617079 10399 net.cpp:91] Creating Layer inception_4a/relu_1x1
I0403 20:04:00.617100 10399 net.cpp:425] inception_4a/relu_1x1 <- inception_4a/1x1
I0403 20:04:00.617122 10399 net.cpp:386] inception_4a/relu_1x1 -> inception_4a/1x1 (in-place)
I0403 20:04:00.617341 10399 net.cpp:141] Setting up inception_4a/relu_1x1
I0403 20:04:00.617375 10399 net.cpp:148] Top shape: 24 192 14 14 (903168)
I0403 20:04:00.617396 10399 net.cpp:156] Memory required for data: 861623328
I0403 20:04:00.617414 10399 layer_factory.hpp:77] Creating layer inception_4a/3x3_reduce
I0403 20:04:00.617444 10399 net.cpp:91] Creating Layer inception_4a/3x3_reduce
I0403 20:04:00.617467 10399 net.cpp:425] inception_4a/3x3_reduce <- pool3/3x3_s2_pool3/3x3_s2_0_split_1
I0403 20:04:00.617491 10399 net.cpp:399] inception_4a/3x3_reduce -> inception_4a/3x3_reduce
I0403 20:04:00.619027 10399 net.cpp:141] Setting up inception_4a/3x3_reduce
I0403 20:04:00.619061 10399 net.cpp:148] Top shape: 24 96 14 14 (451584)
I0403 20:04:00.619081 10399 net.cpp:156] Memory required for data: 863429664
I0403 20:04:00.619113 10399 layer_factory.hpp:77] Creating layer inception_4a/relu_3x3_reduce
I0403 20:04:00.619141 10399 net.cpp:91] Creating Layer inception_4a/relu_3x3_reduce
I0403 20:04:00.619164 10399 net.cpp:425] inception_4a/relu_3x3_reduce <- inception_4a/3x3_reduce
I0403 20:04:00.619186 10399 net.cpp:386] inception_4a/relu_3x3_reduce -> inception_4a/3x3_reduce (in-place)
I0403 20:04:00.619402 10399 net.cpp:141] Setting up inception_4a/relu_3x3_reduce
I0403 20:04:00.619436 10399 net.cpp:148] Top shape: 24 96 14 14 (451584)
I0403 20:04:00.619454 10399 net.cpp:156] Memory required for data: 865236000
I0403 20:04:00.619473 10399 layer_factory.hpp:77] Creating layer inception_4a/3x3
I0403 20:04:00.619503 10399 net.cpp:91] Creating Layer inception_4a/3x3
I0403 20:04:00.619526 10399 net.cpp:425] inception_4a/3x3 <- inception_4a/3x3_reduce
I0403 20:04:00.619550 10399 net.cpp:399] inception_4a/3x3 -> inception_4a/3x3
I0403 20:04:00.622828 10399 net.cpp:141] Setting up inception_4a/3x3
I0403 20:04:00.622865 10399 net.cpp:148] Top shape: 24 208 14 14 (978432)
I0403 20:04:00.622887 10399 net.cpp:156] Memory required for data: 869149728
I0403 20:04:00.622911 10399 layer_factory.hpp:77] Creating layer inception_4a/relu_3x3
I0403 20:04:00.622934 10399 net.cpp:91] Creating Layer inception_4a/relu_3x3
I0403 20:04:00.622956 10399 net.cpp:425] inception_4a/relu_3x3 <- inception_4a/3x3
I0403 20:04:00.622977 10399 net.cpp:386] inception_4a/relu_3x3 -> inception_4a/3x3 (in-place)
I0403 20:04:00.623325 10399 net.cpp:141] Setting up inception_4a/relu_3x3
I0403 20:04:00.623361 10399 net.cpp:148] Top shape: 24 208 14 14 (978432)
I0403 20:04:00.623383 10399 net.cpp:156] Memory required for data: 873063456
I0403 20:04:00.623402 10399 layer_factory.hpp:77] Creating layer inception_4a/5x5_reduce
I0403 20:04:00.623430 10399 net.cpp:91] Creating Layer inception_4a/5x5_reduce
I0403 20:04:00.623453 10399 net.cpp:425] inception_4a/5x5_reduce <- pool3/3x3_s2_pool3/3x3_s2_0_split_2
I0403 20:04:00.623477 10399 net.cpp:399] inception_4a/5x5_reduce -> inception_4a/5x5_reduce
I0403 20:04:00.624717 10399 net.cpp:141] Setting up inception_4a/5x5_reduce
I0403 20:04:00.624755 10399 net.cpp:148] Top shape: 24 16 14 14 (75264)
I0403 20:04:00.624776 10399 net.cpp:156] Memory required for data: 873364512
I0403 20:04:00.624799 10399 layer_factory.hpp:77] Creating layer inception_4a/relu_5x5_reduce
I0403 20:04:00.624822 10399 net.cpp:91] Creating Layer inception_4a/relu_5x5_reduce
I0403 20:04:00.624842 10399 net.cpp:425] inception_4a/relu_5x5_reduce <- inception_4a/5x5_reduce
I0403 20:04:00.624867 10399 net.cpp:386] inception_4a/relu_5x5_reduce -> inception_4a/5x5_reduce (in-place)
I0403 20:04:00.625087 10399 net.cpp:141] Setting up inception_4a/relu_5x5_reduce
I0403 20:04:00.625118 10399 net.cpp:148] Top shape: 24 16 14 14 (75264)
I0403 20:04:00.625136 10399 net.cpp:156] Memory required for data: 873665568
I0403 20:04:00.625155 10399 layer_factory.hpp:77] Creating layer inception_4a/5x5
I0403 20:04:00.625183 10399 net.cpp:91] Creating Layer inception_4a/5x5
I0403 20:04:00.625207 10399 net.cpp:425] inception_4a/5x5 <- inception_4a/5x5_reduce
I0403 20:04:00.625233 10399 net.cpp:399] inception_4a/5x5 -> inception_4a/5x5
I0403 20:04:00.626574 10399 net.cpp:141] Setting up inception_4a/5x5
I0403 20:04:00.626608 10399 net.cpp:148] Top shape: 24 48 14 14 (225792)
I0403 20:04:00.626628 10399 net.cpp:156] Memory required for data: 874568736
I0403 20:04:00.626652 10399 layer_factory.hpp:77] Creating layer inception_4a/relu_5x5
I0403 20:04:00.626675 10399 net.cpp:91] Creating Layer inception_4a/relu_5x5
I0403 20:04:00.626695 10399 net.cpp:425] inception_4a/relu_5x5 <- inception_4a/5x5
I0403 20:04:00.626721 10399 net.cpp:386] inception_4a/relu_5x5 -> inception_4a/5x5 (in-place)
I0403 20:04:00.626948 10399 net.cpp:141] Setting up inception_4a/relu_5x5
I0403 20:04:00.626981 10399 net.cpp:148] Top shape: 24 48 14 14 (225792)
I0403 20:04:00.626998 10399 net.cpp:156] Memory required for data: 875471904
I0403 20:04:00.627017 10399 layer_factory.hpp:77] Creating layer inception_4a/pool
I0403 20:04:00.627043 10399 net.cpp:91] Creating Layer inception_4a/pool
I0403 20:04:00.627063 10399 net.cpp:425] inception_4a/pool <- pool3/3x3_s2_pool3/3x3_s2_0_split_3
I0403 20:04:00.627087 10399 net.cpp:399] inception_4a/pool -> inception_4a/pool
I0403 20:04:00.627164 10399 net.cpp:141] Setting up inception_4a/pool
I0403 20:04:00.627194 10399 net.cpp:148] Top shape: 24 480 14 14 (2257920)
I0403 20:04:00.627213 10399 net.cpp:156] Memory required for data: 884503584
I0403 20:04:00.627231 10399 layer_factory.hpp:77] Creating layer inception_4a/pool_proj
I0403 20:04:00.627259 10399 net.cpp:91] Creating Layer inception_4a/pool_proj
I0403 20:04:00.627290 10399 net.cpp:425] inception_4a/pool_proj <- inception_4a/pool
I0403 20:04:00.627317 10399 net.cpp:399] inception_4a/pool_proj -> inception_4a/pool_proj
I0403 20:04:00.628742 10399 net.cpp:141] Setting up inception_4a/pool_proj
I0403 20:04:00.628782 10399 net.cpp:148] Top shape: 24 64 14 14 (301056)
I0403 20:04:00.628818 10399 net.cpp:156] Memory required for data: 885707808
I0403 20:04:00.628842 10399 layer_factory.hpp:77] Creating layer inception_4a/relu_pool_proj
I0403 20:04:00.628870 10399 net.cpp:91] Creating Layer inception_4a/relu_pool_proj
I0403 20:04:00.628892 10399 net.cpp:425] inception_4a/relu_pool_proj <- inception_4a/pool_proj
I0403 20:04:00.628916 10399 net.cpp:386] inception_4a/relu_pool_proj -> inception_4a/pool_proj (in-place)
I0403 20:04:00.629256 10399 net.cpp:141] Setting up inception_4a/relu_pool_proj
I0403 20:04:00.629294 10399 net.cpp:148] Top shape: 24 64 14 14 (301056)
I0403 20:04:00.629314 10399 net.cpp:156] Memory required for data: 886912032
I0403 20:04:00.629333 10399 layer_factory.hpp:77] Creating layer inception_4a/output
I0403 20:04:00.629356 10399 net.cpp:91] Creating Layer inception_4a/output
I0403 20:04:00.629375 10399 net.cpp:425] inception_4a/output <- inception_4a/1x1
I0403 20:04:00.629396 10399 net.cpp:425] inception_4a/output <- inception_4a/3x3
I0403 20:04:00.629416 10399 net.cpp:425] inception_4a/output <- inception_4a/5x5
I0403 20:04:00.629437 10399 net.cpp:425] inception_4a/output <- inception_4a/pool_proj
I0403 20:04:00.629463 10399 net.cpp:399] inception_4a/output -> inception_4a/output
I0403 20:04:00.629523 10399 net.cpp:141] Setting up inception_4a/output
I0403 20:04:00.629554 10399 net.cpp:148] Top shape: 24 512 14 14 (2408448)
I0403 20:04:00.629571 10399 net.cpp:156] Memory required for data: 896545824
I0403 20:04:00.629590 10399 layer_factory.hpp:77] Creating layer inception_4a/output_inception_4a/output_0_split
I0403 20:04:00.629611 10399 net.cpp:91] Creating Layer inception_4a/output_inception_4a/output_0_split
I0403 20:04:00.629632 10399 net.cpp:425] inception_4a/output_inception_4a/output_0_split <- inception_4a/output
I0403 20:04:00.629658 10399 net.cpp:399] inception_4a/output_inception_4a/output_0_split -> inception_4a/output_inception_4a/output_0_split_0
I0403 20:04:00.629685 10399 net.cpp:399] inception_4a/output_inception_4a/output_0_split -> inception_4a/output_inception_4a/output_0_split_1
I0403 20:04:00.629711 10399 net.cpp:399] inception_4a/output_inception_4a/output_0_split -> inception_4a/output_inception_4a/output_0_split_2
I0403 20:04:00.629737 10399 net.cpp:399] inception_4a/output_inception_4a/output_0_split -> inception_4a/output_inception_4a/output_0_split_3
I0403 20:04:00.629762 10399 net.cpp:399] inception_4a/output_inception_4a/output_0_split -> inception_4a/output_inception_4a/output_0_split_4
I0403 20:04:00.629874 10399 net.cpp:141] Setting up inception_4a/output_inception_4a/output_0_split
I0403 20:04:00.629906 10399 net.cpp:148] Top shape: 24 512 14 14 (2408448)
I0403 20:04:00.629928 10399 net.cpp:148] Top shape: 24 512 14 14 (2408448)
I0403 20:04:00.629948 10399 net.cpp:148] Top shape: 24 512 14 14 (2408448)
I0403 20:04:00.629967 10399 net.cpp:148] Top shape: 24 512 14 14 (2408448)
I0403 20:04:00.629987 10399 net.cpp:148] Top shape: 24 512 14 14 (2408448)
I0403 20:04:00.630004 10399 net.cpp:156] Memory required for data: 944714784
I0403 20:04:00.630023 10399 layer_factory.hpp:77] Creating layer loss1/ave_pool
I0403 20:04:00.630045 10399 net.cpp:91] Creating Layer loss1/ave_pool
I0403 20:04:00.630066 10399 net.cpp:425] loss1/ave_pool <- inception_4a/output_inception_4a/output_0_split_0
I0403 20:04:00.630092 10399 net.cpp:399] loss1/ave_pool -> loss1/ave_pool
I0403 20:04:00.630353 10399 net.cpp:141] Setting up loss1/ave_pool
I0403 20:04:00.630386 10399 net.cpp:148] Top shape: 24 512 4 4 (196608)
I0403 20:04:00.630404 10399 net.cpp:156] Memory required for data: 945501216
I0403 20:04:00.630424 10399 layer_factory.hpp:77] Creating layer loss1/conv
I0403 20:04:00.630455 10399 net.cpp:91] Creating Layer loss1/conv
I0403 20:04:00.630480 10399 net.cpp:425] loss1/conv <- loss1/ave_pool
I0403 20:04:00.630506 10399 net.cpp:399] loss1/conv -> loss1/conv
I0403 20:04:00.632215 10399 net.cpp:141] Setting up loss1/conv
I0403 20:04:00.632253 10399 net.cpp:148] Top shape: 24 128 4 4 (49152)
I0403 20:04:00.632287 10399 net.cpp:156] Memory required for data: 945697824
I0403 20:04:00.632331 10399 layer_factory.hpp:77] Creating layer loss1/relu_conv
I0403 20:04:00.632356 10399 net.cpp:91] Creating Layer loss1/relu_conv
I0403 20:04:00.632377 10399 net.cpp:425] loss1/relu_conv <- loss1/conv
I0403 20:04:00.632398 10399 net.cpp:386] loss1/relu_conv -> loss1/conv (in-place)
I0403 20:04:00.632740 10399 net.cpp:141] Setting up loss1/relu_conv
I0403 20:04:00.632776 10399 net.cpp:148] Top shape: 24 128 4 4 (49152)
I0403 20:04:00.632797 10399 net.cpp:156] Memory required for data: 945894432
I0403 20:04:00.632817 10399 layer_factory.hpp:77] Creating layer loss1/fc
I0403 20:04:00.632846 10399 net.cpp:91] Creating Layer loss1/fc
I0403 20:04:00.632870 10399 net.cpp:425] loss1/fc <- loss1/conv
I0403 20:04:00.632899 10399 net.cpp:399] loss1/fc -> loss1/fc
I0403 20:04:00.655145 10399 net.cpp:141] Setting up loss1/fc
I0403 20:04:00.655190 10399 net.cpp:148] Top shape: 24 1024 (24576)
I0403 20:04:00.655210 10399 net.cpp:156] Memory required for data: 945992736
I0403 20:04:00.655235 10399 layer_factory.hpp:77] Creating layer loss1/relu_fc
I0403 20:04:00.655261 10399 net.cpp:91] Creating Layer loss1/relu_fc
I0403 20:04:00.655289 10399 net.cpp:425] loss1/relu_fc <- loss1/fc
I0403 20:04:00.655313 10399 net.cpp:386] loss1/relu_fc -> loss1/fc (in-place)
I0403 20:04:00.655552 10399 net.cpp:141] Setting up loss1/relu_fc
I0403 20:04:00.655587 10399 net.cpp:148] Top shape: 24 1024 (24576)
I0403 20:04:00.655607 10399 net.cpp:156] Memory required for data: 946091040
I0403 20:04:00.655627 10399 layer_factory.hpp:77] Creating layer loss1/drop_fc
I0403 20:04:00.655663 10399 net.cpp:91] Creating Layer loss1/drop_fc
I0403 20:04:00.655688 10399 net.cpp:425] loss1/drop_fc <- loss1/fc
I0403 20:04:00.655709 10399 net.cpp:386] loss1/drop_fc -> loss1/fc (in-place)
I0403 20:04:00.655776 10399 net.cpp:141] Setting up loss1/drop_fc
I0403 20:04:00.655807 10399 net.cpp:148] Top shape: 24 1024 (24576)
I0403 20:04:00.655825 10399 net.cpp:156] Memory required for data: 946189344
I0403 20:04:00.655844 10399 layer_factory.hpp:77] Creating layer loss1/classifier_plantvillage
I0403 20:04:00.655870 10399 net.cpp:91] Creating Layer loss1/classifier_plantvillage
I0403 20:04:00.655892 10399 net.cpp:425] loss1/classifier_plantvillage <- loss1/fc
I0403 20:04:00.655915 10399 net.cpp:399] loss1/classifier_plantvillage -> loss1/classifier_plantvillage
I0403 20:04:00.657032 10399 net.cpp:141] Setting up loss1/classifier_plantvillage
I0403 20:04:00.657069 10399 net.cpp:148] Top shape: 24 38 (912)
I0403 20:04:00.657090 10399 net.cpp:156] Memory required for data: 946192992
I0403 20:04:00.657114 10399 layer_factory.hpp:77] Creating layer loss1/classifier_plantvillage_loss1/classifier_plantvillage_0_split
I0403 20:04:00.657137 10399 net.cpp:91] Creating Layer loss1/classifier_plantvillage_loss1/classifier_plantvillage_0_split
I0403 20:04:00.657158 10399 net.cpp:425] loss1/classifier_plantvillage_loss1/classifier_plantvillage_0_split <- loss1/classifier_plantvillage
I0403 20:04:00.657181 10399 net.cpp:399] loss1/classifier_plantvillage_loss1/classifier_plantvillage_0_split -> loss1/classifier_plantvillage_loss1/classifier_plantvillage_0_split_0
I0403 20:04:00.657207 10399 net.cpp:399] loss1/classifier_plantvillage_loss1/classifier_plantvillage_0_split -> loss1/classifier_plantvillage_loss1/classifier_plantvillage_0_split_1
I0403 20:04:00.657232 10399 net.cpp:399] loss1/classifier_plantvillage_loss1/classifier_plantvillage_0_split -> loss1/classifier_plantvillage_loss1/classifier_plantvillage_0_split_2
I0403 20:04:00.657320 10399 net.cpp:141] Setting up loss1/classifier_plantvillage_loss1/classifier_plantvillage_0_split
I0403 20:04:00.657349 10399 net.cpp:148] Top shape: 24 38 (912)
I0403 20:04:00.657371 10399 net.cpp:148] Top shape: 24 38 (912)
I0403 20:04:00.657390 10399 net.cpp:148] Top shape: 24 38 (912)
I0403 20:04:00.657407 10399 net.cpp:156] Memory required for data: 946203936
I0403 20:04:00.657426 10399 layer_factory.hpp:77] Creating layer inception_4b/1x1
I0403 20:04:00.657451 10399 net.cpp:91] Creating Layer inception_4b/1x1
I0403 20:04:00.657491 10399 net.cpp:425] inception_4b/1x1 <- inception_4a/output_inception_4a/output_0_split_1
I0403 20:04:00.657521 10399 net.cpp:399] inception_4b/1x1 -> inception_4b/1x1
I0403 20:04:00.659523 10399 net.cpp:141] Setting up inception_4b/1x1
I0403 20:04:00.659562 10399 net.cpp:148] Top shape: 24 160 14 14 (752640)
I0403 20:04:00.659584 10399 net.cpp:156] Memory required for data: 949214496
I0403 20:04:00.659607 10399 layer_factory.hpp:77] Creating layer inception_4b/relu_1x1
I0403 20:04:00.659629 10399 net.cpp:91] Creating Layer inception_4b/relu_1x1
I0403 20:04:00.659651 10399 net.cpp:425] inception_4b/relu_1x1 <- inception_4b/1x1
I0403 20:04:00.659673 10399 net.cpp:386] inception_4b/relu_1x1 -> inception_4b/1x1 (in-place)
I0403 20:04:00.659896 10399 net.cpp:141] Setting up inception_4b/relu_1x1
I0403 20:04:00.659927 10399 net.cpp:148] Top shape: 24 160 14 14 (752640)
I0403 20:04:00.659946 10399 net.cpp:156] Memory required for data: 952225056
I0403 20:04:00.659965 10399 layer_factory.hpp:77] Creating layer inception_4b/3x3_reduce
I0403 20:04:00.659993 10399 net.cpp:91] Creating Layer inception_4b/3x3_reduce
I0403 20:04:00.660017 10399 net.cpp:425] inception_4b/3x3_reduce <- inception_4a/output_inception_4a/output_0_split_2
I0403 20:04:00.660053 10399 net.cpp:399] inception_4b/3x3_reduce -> inception_4b/3x3_reduce
I0403 20:04:00.661717 10399 net.cpp:141] Setting up inception_4b/3x3_reduce
I0403 20:04:00.661752 10399 net.cpp:148] Top shape: 24 112 14 14 (526848)
I0403 20:04:00.661772 10399 net.cpp:156] Memory required for data: 954332448
I0403 20:04:00.661794 10399 layer_factory.hpp:77] Creating layer inception_4b/relu_3x3_reduce
I0403 20:04:00.661818 10399 net.cpp:91] Creating Layer inception_4b/relu_3x3_reduce
I0403 20:04:00.661837 10399 net.cpp:425] inception_4b/relu_3x3_reduce <- inception_4b/3x3_reduce
I0403 20:04:00.661864 10399 net.cpp:386] inception_4b/relu_3x3_reduce -> inception_4b/3x3_reduce (in-place)
I0403 20:04:00.662202 10399 net.cpp:141] Setting up inception_4b/relu_3x3_reduce
I0403 20:04:00.662235 10399 net.cpp:148] Top shape: 24 112 14 14 (526848)
I0403 20:04:00.662255 10399 net.cpp:156] Memory required for data: 956439840
I0403 20:04:00.662286 10399 layer_factory.hpp:77] Creating layer inception_4b/3x3
I0403 20:04:00.662317 10399 net.cpp:91] Creating Layer inception_4b/3x3
I0403 20:04:00.662340 10399 net.cpp:425] inception_4b/3x3 <- inception_4b/3x3_reduce
I0403 20:04:00.662366 10399 net.cpp:399] inception_4b/3x3 -> inception_4b/3x3
I0403 20:04:00.666010 10399 net.cpp:141] Setting up inception_4b/3x3
I0403 20:04:00.666046 10399 net.cpp:148] Top shape: 24 224 14 14 (1053696)
I0403 20:04:00.666066 10399 net.cpp:156] Memory required for data: 960654624
I0403 20:04:00.666090 10399 layer_factory.hpp:77] Creating layer inception_4b/relu_3x3
I0403 20:04:00.666117 10399 net.cpp:91] Creating Layer inception_4b/relu_3x3
I0403 20:04:00.666141 10399 net.cpp:425] inception_4b/relu_3x3 <- inception_4b/3x3
I0403 20:04:00.666162 10399 net.cpp:386] inception_4b/relu_3x3 -> inception_4b/3x3 (in-place)
I0403 20:04:00.666399 10399 net.cpp:141] Setting up inception_4b/relu_3x3
I0403 20:04:00.666435 10399 net.cpp:148] Top shape: 24 224 14 14 (1053696)
I0403 20:04:00.666455 10399 net.cpp:156] Memory required for data: 964869408
I0403 20:04:00.666474 10399 layer_factory.hpp:77] Creating layer inception_4b/5x5_reduce
I0403 20:04:00.666503 10399 net.cpp:91] Creating Layer inception_4b/5x5_reduce
I0403 20:04:00.666527 10399 net.cpp:425] inception_4b/5x5_reduce <- inception_4a/output_inception_4a/output_0_split_3
I0403 20:04:00.666550 10399 net.cpp:399] inception_4b/5x5_reduce -> inception_4b/5x5_reduce
I0403 20:04:00.667878 10399 net.cpp:141] Setting up inception_4b/5x5_reduce
I0403 20:04:00.667917 10399 net.cpp:148] Top shape: 24 24 14 14 (112896)
I0403 20:04:00.667937 10399 net.cpp:156] Memory required for data: 965320992
I0403 20:04:00.667963 10399 layer_factory.hpp:77] Creating layer inception_4b/relu_5x5_reduce
I0403 20:04:00.667985 10399 net.cpp:91] Creating Layer inception_4b/relu_5x5_reduce
I0403 20:04:00.668025 10399 net.cpp:425] inception_4b/relu_5x5_reduce <- inception_4b/5x5_reduce
I0403 20:04:00.668051 10399 net.cpp:386] inception_4b/relu_5x5_reduce -> inception_4b/5x5_reduce (in-place)
I0403 20:04:00.668283 10399 net.cpp:141] Setting up inception_4b/relu_5x5_reduce
I0403 20:04:00.668316 10399 net.cpp:148] Top shape: 24 24 14 14 (112896)
I0403 20:04:00.668336 10399 net.cpp:156] Memory required for data: 965772576
I0403 20:04:00.668355 10399 layer_factory.hpp:77] Creating layer inception_4b/5x5
I0403 20:04:00.668385 10399 net.cpp:91] Creating Layer inception_4b/5x5
I0403 20:04:00.668407 10399 net.cpp:425] inception_4b/5x5 <- inception_4b/5x5_reduce
I0403 20:04:00.668436 10399 net.cpp:399] inception_4b/5x5 -> inception_4b/5x5
I0403 20:04:00.669922 10399 net.cpp:141] Setting up inception_4b/5x5
I0403 20:04:00.669960 10399 net.cpp:148] Top shape: 24 64 14 14 (301056)
I0403 20:04:00.669982 10399 net.cpp:156] Memory required for data: 966976800
I0403 20:04:00.670006 10399 layer_factory.hpp:77] Creating layer inception_4b/relu_5x5
I0403 20:04:00.670029 10399 net.cpp:91] Creating Layer inception_4b/relu_5x5
I0403 20:04:00.670049 10399 net.cpp:425] inception_4b/relu_5x5 <- inception_4b/5x5
I0403 20:04:00.670073 10399 net.cpp:386] inception_4b/relu_5x5 -> inception_4b/5x5 (in-place)
I0403 20:04:00.670430 10399 net.cpp:141] Setting up inception_4b/relu_5x5
I0403 20:04:00.670466 10399 net.cpp:148] Top shape: 24 64 14 14 (301056)
I0403 20:04:00.670487 10399 net.cpp:156] Memory required for data: 968181024
I0403 20:04:00.670507 10399 layer_factory.hpp:77] Creating layer inception_4b/pool
I0403 20:04:00.670531 10399 net.cpp:91] Creating Layer inception_4b/pool
I0403 20:04:00.670552 10399 net.cpp:425] inception_4b/pool <- inception_4a/output_inception_4a/output_0_split_4
I0403 20:04:00.670579 10399 net.cpp:399] inception_4b/pool -> inception_4b/pool
I0403 20:04:00.670660 10399 net.cpp:141] Setting up inception_4b/pool
I0403 20:04:00.670689 10399 net.cpp:148] Top shape: 24 512 14 14 (2408448)
I0403 20:04:00.670708 10399 net.cpp:156] Memory required for data: 977814816
I0403 20:04:00.670727 10399 layer_factory.hpp:77] Creating layer inception_4b/pool_proj
I0403 20:04:00.670755 10399 net.cpp:91] Creating Layer inception_4b/pool_proj
I0403 20:04:00.670779 10399 net.cpp:425] inception_4b/pool_proj <- inception_4b/pool
I0403 20:04:00.670807 10399 net.cpp:399] inception_4b/pool_proj -> inception_4b/pool_proj
I0403 20:04:00.672308 10399 net.cpp:141] Setting up inception_4b/pool_proj
I0403 20:04:00.672343 10399 net.cpp:148] Top shape: 24 64 14 14 (301056)
I0403 20:04:00.672363 10399 net.cpp:156] Memory required for data: 979019040
I0403 20:04:00.672386 10399 layer_factory.hpp:77] Creating layer inception_4b/relu_pool_proj
I0403 20:04:00.672410 10399 net.cpp:91] Creating Layer inception_4b/relu_pool_proj
I0403 20:04:00.672432 10399 net.cpp:425] inception_4b/relu_pool_proj <- inception_4b/pool_proj
I0403 20:04:00.672467 10399 net.cpp:386] inception_4b/relu_pool_proj -> inception_4b/pool_proj (in-place)
I0403 20:04:00.672695 10399 net.cpp:141] Setting up inception_4b/relu_pool_proj
I0403 20:04:00.672726 10399 net.cpp:148] Top shape: 24 64 14 14 (301056)
I0403 20:04:00.672745 10399 net.cpp:156] Memory required for data: 980223264
I0403 20:04:00.672765 10399 layer_factory.hpp:77] Creating layer inception_4b/output
I0403 20:04:00.672793 10399 net.cpp:91] Creating Layer inception_4b/output
I0403 20:04:00.672814 10399 net.cpp:425] inception_4b/output <- inception_4b/1x1
I0403 20:04:00.672835 10399 net.cpp:425] inception_4b/output <- inception_4b/3x3
I0403 20:04:00.672862 10399 net.cpp:425] inception_4b/output <- inception_4b/5x5
I0403 20:04:00.672881 10399 net.cpp:425] inception_4b/output <- inception_4b/pool_proj
I0403 20:04:00.672904 10399 net.cpp:399] inception_4b/output -> inception_4b/output
I0403 20:04:00.672963 10399 net.cpp:141] Setting up inception_4b/output
I0403 20:04:00.672997 10399 net.cpp:148] Top shape: 24 512 14 14 (2408448)
I0403 20:04:00.673018 10399 net.cpp:156] Memory required for data: 989857056
I0403 20:04:00.673054 10399 layer_factory.hpp:77] Creating layer inception_4b/output_inception_4b/output_0_split
I0403 20:04:00.673081 10399 net.cpp:91] Creating Layer inception_4b/output_inception_4b/output_0_split
I0403 20:04:00.673104 10399 net.cpp:425] inception_4b/output_inception_4b/output_0_split <- inception_4b/output
I0403 20:04:00.673130 10399 net.cpp:399] inception_4b/output_inception_4b/output_0_split -> inception_4b/output_inception_4b/output_0_split_0
I0403 20:04:00.673157 10399 net.cpp:399] inception_4b/output_inception_4b/output_0_split -> inception_4b/output_inception_4b/output_0_split_1
I0403 20:04:00.673185 10399 net.cpp:399] inception_4b/output_inception_4b/output_0_split -> inception_4b/output_inception_4b/output_0_split_2
I0403 20:04:00.673212 10399 net.cpp:399] inception_4b/output_inception_4b/output_0_split -> inception_4b/output_inception_4b/output_0_split_3
I0403 20:04:00.673319 10399 net.cpp:141] Setting up inception_4b/output_inception_4b/output_0_split
I0403 20:04:00.673352 10399 net.cpp:148] Top shape: 24 512 14 14 (2408448)
I0403 20:04:00.673375 10399 net.cpp:148] Top shape: 24 512 14 14 (2408448)
I0403 20:04:00.673396 10399 net.cpp:148] Top shape: 24 512 14 14 (2408448)
I0403 20:04:00.673418 10399 net.cpp:148] Top shape: 24 512 14 14 (2408448)
I0403 20:04:00.673436 10399 net.cpp:156] Memory required for data: 1028392224
I0403 20:04:00.673455 10399 layer_factory.hpp:77] Creating layer inception_4c/1x1
I0403 20:04:00.673485 10399 net.cpp:91] Creating Layer inception_4c/1x1
I0403 20:04:00.673508 10399 net.cpp:425] inception_4c/1x1 <- inception_4b/output_inception_4b/output_0_split_0
I0403 20:04:00.673533 10399 net.cpp:399] inception_4c/1x1 -> inception_4c/1x1
I0403 20:04:00.675318 10399 net.cpp:141] Setting up inception_4c/1x1
I0403 20:04:00.675354 10399 net.cpp:148] Top shape: 24 128 14 14 (602112)
I0403 20:04:00.675372 10399 net.cpp:156] Memory required for data: 1030800672
I0403 20:04:00.675395 10399 layer_factory.hpp:77] Creating layer inception_4c/relu_1x1
I0403 20:04:00.675421 10399 net.cpp:91] Creating Layer inception_4c/relu_1x1
I0403 20:04:00.675443 10399 net.cpp:425] inception_4c/relu_1x1 <- inception_4c/1x1
I0403 20:04:00.675465 10399 net.cpp:386] inception_4c/relu_1x1 -> inception_4c/1x1 (in-place)
I0403 20:04:00.675695 10399 net.cpp:141] Setting up inception_4c/relu_1x1
I0403 20:04:00.675726 10399 net.cpp:148] Top shape: 24 128 14 14 (602112)
I0403 20:04:00.675745 10399 net.cpp:156] Memory required for data: 1033209120
I0403 20:04:00.675763 10399 layer_factory.hpp:77] Creating layer inception_4c/3x3_reduce
I0403 20:04:00.675794 10399 net.cpp:91] Creating Layer inception_4c/3x3_reduce
I0403 20:04:00.675818 10399 net.cpp:425] inception_4c/3x3_reduce <- inception_4b/output_inception_4b/output_0_split_1
I0403 20:04:00.675843 10399 net.cpp:399] inception_4c/3x3_reduce -> inception_4c/3x3_reduce
I0403 20:04:00.678218 10399 net.cpp:141] Setting up inception_4c/3x3_reduce
I0403 20:04:00.678257 10399 net.cpp:148] Top shape: 24 128 14 14 (602112)
I0403 20:04:00.678284 10399 net.cpp:156] Memory required for data: 1035617568
I0403 20:04:00.678310 10399 layer_factory.hpp:77] Creating layer inception_4c/relu_3x3_reduce
I0403 20:04:00.678333 10399 net.cpp:91] Creating Layer inception_4c/relu_3x3_reduce
I0403 20:04:00.678354 10399 net.cpp:425] inception_4c/relu_3x3_reduce <- inception_4c/3x3_reduce
I0403 20:04:00.678380 10399 net.cpp:386] inception_4c/relu_3x3_reduce -> inception_4c/3x3_reduce (in-place)
I0403 20:04:00.678730 10399 net.cpp:141] Setting up inception_4c/relu_3x3_reduce
I0403 20:04:00.678766 10399 net.cpp:148] Top shape: 24 128 14 14 (602112)
I0403 20:04:00.678787 10399 net.cpp:156] Memory required for data: 1038026016
I0403 20:04:00.678807 10399 layer_factory.hpp:77] Creating layer inception_4c/3x3
I0403 20:04:00.678838 10399 net.cpp:91] Creating Layer inception_4c/3x3
I0403 20:04:00.678861 10399 net.cpp:425] inception_4c/3x3 <- inception_4c/3x3_reduce
I0403 20:04:00.678885 10399 net.cpp:399] inception_4c/3x3 -> inception_4c/3x3
I0403 20:04:00.683289 10399 net.cpp:141] Setting up inception_4c/3x3
I0403 20:04:00.683341 10399 net.cpp:148] Top shape: 24 256 14 14 (1204224)
I0403 20:04:00.683363 10399 net.cpp:156] Memory required for data: 1042842912
I0403 20:04:00.683403 10399 layer_factory.hpp:77] Creating layer inception_4c/relu_3x3
I0403 20:04:00.683429 10399 net.cpp:91] Creating Layer inception_4c/relu_3x3
I0403 20:04:00.683450 10399 net.cpp:425] inception_4c/relu_3x3 <- inception_4c/3x3
I0403 20:04:00.683475 10399 net.cpp:386] inception_4c/relu_3x3 -> inception_4c/3x3 (in-place)
I0403 20:04:00.683702 10399 net.cpp:141] Setting up inception_4c/relu_3x3
I0403 20:04:00.683737 10399 net.cpp:148] Top shape: 24 256 14 14 (1204224)
I0403 20:04:00.683756 10399 net.cpp:156] Memory required for data: 1047659808
I0403 20:04:00.683775 10399 layer_factory.hpp:77] Creating layer inception_4c/5x5_reduce
I0403 20:04:00.683806 10399 net.cpp:91] Creating Layer inception_4c/5x5_reduce
I0403 20:04:00.683828 10399 net.cpp:425] inception_4c/5x5_reduce <- inception_4b/output_inception_4b/output_0_split_2
I0403 20:04:00.683852 10399 net.cpp:399] inception_4c/5x5_reduce -> inception_4c/5x5_reduce
I0403 20:04:00.685184 10399 net.cpp:141] Setting up inception_4c/5x5_reduce
I0403 20:04:00.685222 10399 net.cpp:148] Top shape: 24 24 14 14 (112896)
I0403 20:04:00.685243 10399 net.cpp:156] Memory required for data: 1048111392
I0403 20:04:00.685268 10399 layer_factory.hpp:77] Creating layer inception_4c/relu_5x5_reduce
I0403 20:04:00.685299 10399 net.cpp:91] Creating Layer inception_4c/relu_5x5_reduce
I0403 20:04:00.685320 10399 net.cpp:425] inception_4c/relu_5x5_reduce <- inception_4c/5x5_reduce
I0403 20:04:00.685345 10399 net.cpp:386] inception_4c/relu_5x5_reduce -> inception_4c/5x5_reduce (in-place)
I0403 20:04:00.685575 10399 net.cpp:141] Setting up inception_4c/relu_5x5_reduce
I0403 20:04:00.685606 10399 net.cpp:148] Top shape: 24 24 14 14 (112896)
I0403 20:04:00.685626 10399 net.cpp:156] Memory required for data: 1048562976
I0403 20:04:00.685643 10399 layer_factory.hpp:77] Creating layer inception_4c/5x5
I0403 20:04:00.685672 10399 net.cpp:91] Creating Layer inception_4c/5x5
I0403 20:04:00.685694 10399 net.cpp:425] inception_4c/5x5 <- inception_4c/5x5_reduce
I0403 20:04:00.685720 10399 net.cpp:399] inception_4c/5x5 -> inception_4c/5x5
I0403 20:04:00.687242 10399 net.cpp:141] Setting up inception_4c/5x5
I0403 20:04:00.687283 10399 net.cpp:148] Top shape: 24 64 14 14 (301056)
I0403 20:04:00.687306 10399 net.cpp:156] Memory required for data: 1049767200
I0403 20:04:00.687330 10399 layer_factory.hpp:77] Creating layer inception_4c/relu_5x5
I0403 20:04:00.687355 10399 net.cpp:91] Creating Layer inception_4c/relu_5x5
I0403 20:04:00.687377 10399 net.cpp:425] inception_4c/relu_5x5 <- inception_4c/5x5
I0403 20:04:00.687400 10399 net.cpp:386] inception_4c/relu_5x5 -> inception_4c/5x5 (in-place)
I0403 20:04:00.687755 10399 net.cpp:141] Setting up inception_4c/relu_5x5
I0403 20:04:00.687788 10399 net.cpp:148] Top shape: 24 64 14 14 (301056)
I0403 20:04:00.687808 10399 net.cpp:156] Memory required for data: 1050971424
I0403 20:04:00.687826 10399 layer_factory.hpp:77] Creating layer inception_4c/pool
I0403 20:04:00.687852 10399 net.cpp:91] Creating Layer inception_4c/pool
I0403 20:04:00.687875 10399 net.cpp:425] inception_4c/pool <- inception_4b/output_inception_4b/output_0_split_3
I0403 20:04:00.687899 10399 net.cpp:399] inception_4c/pool -> inception_4c/pool
I0403 20:04:00.687981 10399 net.cpp:141] Setting up inception_4c/pool
I0403 20:04:00.688011 10399 net.cpp:148] Top shape: 24 512 14 14 (2408448)
I0403 20:04:00.688030 10399 net.cpp:156] Memory required for data: 1060605216
I0403 20:04:00.688048 10399 layer_factory.hpp:77] Creating layer inception_4c/pool_proj
I0403 20:04:00.688076 10399 net.cpp:91] Creating Layer inception_4c/pool_proj
I0403 20:04:00.688099 10399 net.cpp:425] inception_4c/pool_proj <- inception_4c/pool
I0403 20:04:00.688130 10399 net.cpp:399] inception_4c/pool_proj -> inception_4c/pool_proj
I0403 20:04:00.689635 10399 net.cpp:141] Setting up inception_4c/pool_proj
I0403 20:04:00.689674 10399 net.cpp:148] Top shape: 24 64 14 14 (301056)
I0403 20:04:00.689710 10399 net.cpp:156] Memory required for data: 1061809440
I0403 20:04:00.689736 10399 layer_factory.hpp:77] Creating layer inception_4c/relu_pool_proj
I0403 20:04:00.689761 10399 net.cpp:91] Creating Layer inception_4c/relu_pool_proj
I0403 20:04:00.689782 10399 net.cpp:425] inception_4c/relu_pool_proj <- inception_4c/pool_proj
I0403 20:04:00.689807 10399 net.cpp:386] inception_4c/relu_pool_proj -> inception_4c/pool_proj (in-place)
I0403 20:04:00.690034 10399 net.cpp:141] Setting up inception_4c/relu_pool_proj
I0403 20:04:00.690065 10399 net.cpp:148] Top shape: 24 64 14 14 (301056)
I0403 20:04:00.690085 10399 net.cpp:156] Memory required for data: 1063013664
I0403 20:04:00.690104 10399 layer_factory.hpp:77] Creating layer inception_4c/output
I0403 20:04:00.690126 10399 net.cpp:91] Creating Layer inception_4c/output
I0403 20:04:00.690147 10399 net.cpp:425] inception_4c/output <- inception_4c/1x1
I0403 20:04:00.690168 10399 net.cpp:425] inception_4c/output <- inception_4c/3x3
I0403 20:04:00.690188 10399 net.cpp:425] inception_4c/output <- inception_4c/5x5
I0403 20:04:00.690208 10399 net.cpp:425] inception_4c/output <- inception_4c/pool_proj
I0403 20:04:00.690234 10399 net.cpp:399] inception_4c/output -> inception_4c/output
I0403 20:04:00.690297 10399 net.cpp:141] Setting up inception_4c/output
I0403 20:04:00.690331 10399 net.cpp:148] Top shape: 24 512 14 14 (2408448)
I0403 20:04:00.690352 10399 net.cpp:156] Memory required for data: 1072647456
I0403 20:04:00.690371 10399 layer_factory.hpp:77] Creating layer inception_4c/output_inception_4c/output_0_split
I0403 20:04:00.690392 10399 net.cpp:91] Creating Layer inception_4c/output_inception_4c/output_0_split
I0403 20:04:00.690413 10399 net.cpp:425] inception_4c/output_inception_4c/output_0_split <- inception_4c/output
I0403 20:04:00.690439 10399 net.cpp:399] inception_4c/output_inception_4c/output_0_split -> inception_4c/output_inception_4c/output_0_split_0
I0403 20:04:00.690464 10399 net.cpp:399] inception_4c/output_inception_4c/output_0_split -> inception_4c/output_inception_4c/output_0_split_1
I0403 20:04:00.690490 10399 net.cpp:399] inception_4c/output_inception_4c/output_0_split -> inception_4c/output_inception_4c/output_0_split_2
I0403 20:04:00.690515 10399 net.cpp:399] inception_4c/output_inception_4c/output_0_split -> inception_4c/output_inception_4c/output_0_split_3
I0403 20:04:00.690619 10399 net.cpp:141] Setting up inception_4c/output_inception_4c/output_0_split
I0403 20:04:00.690649 10399 net.cpp:148] Top shape: 24 512 14 14 (2408448)
I0403 20:04:00.690675 10399 net.cpp:148] Top shape: 24 512 14 14 (2408448)
I0403 20:04:00.690696 10399 net.cpp:148] Top shape: 24 512 14 14 (2408448)
I0403 20:04:00.690716 10399 net.cpp:148] Top shape: 24 512 14 14 (2408448)
I0403 20:04:00.690732 10399 net.cpp:156] Memory required for data: 1111182624
I0403 20:04:00.690752 10399 layer_factory.hpp:77] Creating layer inception_4d/1x1
I0403 20:04:00.690778 10399 net.cpp:91] Creating Layer inception_4d/1x1
I0403 20:04:00.690800 10399 net.cpp:425] inception_4d/1x1 <- inception_4c/output_inception_4c/output_0_split_0
I0403 20:04:00.690827 10399 net.cpp:399] inception_4d/1x1 -> inception_4d/1x1
I0403 20:04:00.692534 10399 net.cpp:141] Setting up inception_4d/1x1
I0403 20:04:00.692569 10399 net.cpp:148] Top shape: 24 112 14 14 (526848)
I0403 20:04:00.692590 10399 net.cpp:156] Memory required for data: 1113290016
I0403 20:04:00.692613 10399 layer_factory.hpp:77] Creating layer inception_4d/relu_1x1
I0403 20:04:00.692639 10399 net.cpp:91] Creating Layer inception_4d/relu_1x1
I0403 20:04:00.692662 10399 net.cpp:425] inception_4d/relu_1x1 <- inception_4d/1x1
I0403 20:04:00.692683 10399 net.cpp:386] inception_4d/relu_1x1 -> inception_4d/1x1 (in-place)
I0403 20:04:00.692912 10399 net.cpp:141] Setting up inception_4d/relu_1x1
I0403 20:04:00.692946 10399 net.cpp:148] Top shape: 24 112 14 14 (526848)
I0403 20:04:00.692966 10399 net.cpp:156] Memory required for data: 1115397408
I0403 20:04:00.692987 10399 layer_factory.hpp:77] Creating layer inception_4d/3x3_reduce
I0403 20:04:00.693032 10399 net.cpp:91] Creating Layer inception_4d/3x3_reduce
I0403 20:04:00.693056 10399 net.cpp:425] inception_4d/3x3_reduce <- inception_4c/output_inception_4c/output_0_split_1
I0403 20:04:00.693080 10399 net.cpp:399] inception_4d/3x3_reduce -> inception_4d/3x3_reduce
I0403 20:04:00.694947 10399 net.cpp:141] Setting up inception_4d/3x3_reduce
I0403 20:04:00.694983 10399 net.cpp:148] Top shape: 24 144 14 14 (677376)
I0403 20:04:00.695003 10399 net.cpp:156] Memory required for data: 1118106912
I0403 20:04:00.695026 10399 layer_factory.hpp:77] Creating layer inception_4d/relu_3x3_reduce
I0403 20:04:00.695052 10399 net.cpp:91] Creating Layer inception_4d/relu_3x3_reduce
I0403 20:04:00.695075 10399 net.cpp:425] inception_4d/relu_3x3_reduce <- inception_4d/3x3_reduce
I0403 20:04:00.695096 10399 net.cpp:386] inception_4d/relu_3x3_reduce -> inception_4d/3x3_reduce (in-place)
I0403 20:04:00.695452 10399 net.cpp:141] Setting up inception_4d/relu_3x3_reduce
I0403 20:04:00.695485 10399 net.cpp:148] Top shape: 24 144 14 14 (677376)
I0403 20:04:00.695507 10399 net.cpp:156] Memory required for data: 1120816416
I0403 20:04:00.695525 10399 layer_factory.hpp:77] Creating layer inception_4d/3x3
I0403 20:04:00.695554 10399 net.cpp:91] Creating Layer inception_4d/3x3
I0403 20:04:00.695576 10399 net.cpp:425] inception_4d/3x3 <- inception_4d/3x3_reduce
I0403 20:04:00.695603 10399 net.cpp:399] inception_4d/3x3 -> inception_4d/3x3
I0403 20:04:00.700917 10399 net.cpp:141] Setting up inception_4d/3x3
I0403 20:04:00.700953 10399 net.cpp:148] Top shape: 24 288 14 14 (1354752)
I0403 20:04:00.700973 10399 net.cpp:156] Memory required for data: 1126235424
I0403 20:04:00.700996 10399 layer_factory.hpp:77] Creating layer inception_4d/relu_3x3
I0403 20:04:00.701023 10399 net.cpp:91] Creating Layer inception_4d/relu_3x3
I0403 20:04:00.701045 10399 net.cpp:425] inception_4d/relu_3x3 <- inception_4d/3x3
I0403 20:04:00.701068 10399 net.cpp:386] inception_4d/relu_3x3 -> inception_4d/3x3 (in-place)
I0403 20:04:00.701299 10399 net.cpp:141] Setting up inception_4d/relu_3x3
I0403 20:04:00.701331 10399 net.cpp:148] Top shape: 24 288 14 14 (1354752)
I0403 20:04:00.701351 10399 net.cpp:156] Memory required for data: 1131654432
I0403 20:04:00.701370 10399 layer_factory.hpp:77] Creating layer inception_4d/5x5_reduce
I0403 20:04:00.701398 10399 net.cpp:91] Creating Layer inception_4d/5x5_reduce
I0403 20:04:00.701421 10399 net.cpp:425] inception_4d/5x5_reduce <- inception_4c/output_inception_4c/output_0_split_2
I0403 20:04:00.701448 10399 net.cpp:399] inception_4d/5x5_reduce -> inception_4d/5x5_reduce
I0403 20:04:00.702862 10399 net.cpp:141] Setting up inception_4d/5x5_reduce
I0403 20:04:00.702898 10399 net.cpp:148] Top shape: 24 32 14 14 (150528)
I0403 20:04:00.702922 10399 net.cpp:156] Memory required for data: 1132256544
I0403 20:04:00.702947 10399 layer_factory.hpp:77] Creating layer inception_4d/relu_5x5_reduce
I0403 20:04:00.702970 10399 net.cpp:91] Creating Layer inception_4d/relu_5x5_reduce
I0403 20:04:00.702991 10399 net.cpp:425] inception_4d/relu_5x5_reduce <- inception_4d/5x5_reduce
I0403 20:04:00.703012 10399 net.cpp:386] inception_4d/relu_5x5_reduce -> inception_4d/5x5_reduce (in-place)
I0403 20:04:00.703249 10399 net.cpp:141] Setting up inception_4d/relu_5x5_reduce
I0403 20:04:00.703289 10399 net.cpp:148] Top shape: 24 32 14 14 (150528)
I0403 20:04:00.703310 10399 net.cpp:156] Memory required for data: 1132858656
I0403 20:04:00.703330 10399 layer_factory.hpp:77] Creating layer inception_4d/5x5
I0403 20:04:00.703356 10399 net.cpp:91] Creating Layer inception_4d/5x5
I0403 20:04:00.703380 10399 net.cpp:425] inception_4d/5x5 <- inception_4d/5x5_reduce
I0403 20:04:00.703404 10399 net.cpp:399] inception_4d/5x5 -> inception_4d/5x5
I0403 20:04:00.705190 10399 net.cpp:141] Setting up inception_4d/5x5
I0403 20:04:00.705225 10399 net.cpp:148] Top shape: 24 64 14 14 (301056)
I0403 20:04:00.705245 10399 net.cpp:156] Memory required for data: 1134062880
I0403 20:04:00.705277 10399 layer_factory.hpp:77] Creating layer inception_4d/relu_5x5
I0403 20:04:00.705320 10399 net.cpp:91] Creating Layer inception_4d/relu_5x5
I0403 20:04:00.705343 10399 net.cpp:425] inception_4d/relu_5x5 <- inception_4d/5x5
I0403 20:04:00.705369 10399 net.cpp:386] inception_4d/relu_5x5 -> inception_4d/5x5 (in-place)
I0403 20:04:00.705737 10399 net.cpp:141] Setting up inception_4d/relu_5x5
I0403 20:04:00.705771 10399 net.cpp:148] Top shape: 24 64 14 14 (301056)
I0403 20:04:00.705790 10399 net.cpp:156] Memory required for data: 1135267104
I0403 20:04:00.705811 10399 layer_factory.hpp:77] Creating layer inception_4d/pool
I0403 20:04:00.705832 10399 net.cpp:91] Creating Layer inception_4d/pool
I0403 20:04:00.705852 10399 net.cpp:425] inception_4d/pool <- inception_4c/output_inception_4c/output_0_split_3
I0403 20:04:00.705879 10399 net.cpp:399] inception_4d/pool -> inception_4d/pool
I0403 20:04:00.705961 10399 net.cpp:141] Setting up inception_4d/pool
I0403 20:04:00.705994 10399 net.cpp:148] Top shape: 24 512 14 14 (2408448)
I0403 20:04:00.706013 10399 net.cpp:156] Memory required for data: 1144900896
I0403 20:04:00.706032 10399 layer_factory.hpp:77] Creating layer inception_4d/pool_proj
I0403 20:04:00.706061 10399 net.cpp:91] Creating Layer inception_4d/pool_proj
I0403 20:04:00.706084 10399 net.cpp:425] inception_4d/pool_proj <- inception_4d/pool
I0403 20:04:00.706107 10399 net.cpp:399] inception_4d/pool_proj -> inception_4d/pool_proj
I0403 20:04:00.708281 10399 net.cpp:141] Setting up inception_4d/pool_proj
I0403 20:04:00.708317 10399 net.cpp:148] Top shape: 24 64 14 14 (301056)
I0403 20:04:00.708338 10399 net.cpp:156] Memory required for data: 1146105120
I0403 20:04:00.708361 10399 layer_factory.hpp:77] Creating layer inception_4d/relu_pool_proj
I0403 20:04:00.708387 10399 net.cpp:91] Creating Layer inception_4d/relu_pool_proj
I0403 20:04:00.708410 10399 net.cpp:425] inception_4d/relu_pool_proj <- inception_4d/pool_proj
I0403 20:04:00.708431 10399 net.cpp:386] inception_4d/relu_pool_proj -> inception_4d/pool_proj (in-place)
I0403 20:04:00.708662 10399 net.cpp:141] Setting up inception_4d/relu_pool_proj
I0403 20:04:00.708693 10399 net.cpp:148] Top shape: 24 64 14 14 (301056)
I0403 20:04:00.708711 10399 net.cpp:156] Memory required for data: 1147309344
I0403 20:04:00.708731 10399 layer_factory.hpp:77] Creating layer inception_4d/output
I0403 20:04:00.708753 10399 net.cpp:91] Creating Layer inception_4d/output
I0403 20:04:00.708775 10399 net.cpp:425] inception_4d/output <- inception_4d/1x1
I0403 20:04:00.708796 10399 net.cpp:425] inception_4d/output <- inception_4d/3x3
I0403 20:04:00.708816 10399 net.cpp:425] inception_4d/output <- inception_4d/5x5
I0403 20:04:00.708837 10399 net.cpp:425] inception_4d/output <- inception_4d/pool_proj
I0403 20:04:00.708860 10399 net.cpp:399] inception_4d/output -> inception_4d/output
I0403 20:04:00.708917 10399 net.cpp:141] Setting up inception_4d/output
I0403 20:04:00.708950 10399 net.cpp:148] Top shape: 24 528 14 14 (2483712)
I0403 20:04:00.708969 10399 net.cpp:156] Memory required for data: 1157244192
I0403 20:04:00.708987 10399 layer_factory.hpp:77] Creating layer inception_4d/output_inception_4d/output_0_split
I0403 20:04:00.709010 10399 net.cpp:91] Creating Layer inception_4d/output_inception_4d/output_0_split
I0403 20:04:00.709031 10399 net.cpp:425] inception_4d/output_inception_4d/output_0_split <- inception_4d/output
I0403 20:04:00.709053 10399 net.cpp:399] inception_4d/output_inception_4d/output_0_split -> inception_4d/output_inception_4d/output_0_split_0
I0403 20:04:00.709080 10399 net.cpp:399] inception_4d/output_inception_4d/output_0_split -> inception_4d/output_inception_4d/output_0_split_1
I0403 20:04:00.709108 10399 net.cpp:399] inception_4d/output_inception_4d/output_0_split -> inception_4d/output_inception_4d/output_0_split_2
I0403 20:04:00.709136 10399 net.cpp:399] inception_4d/output_inception_4d/output_0_split -> inception_4d/output_inception_4d/output_0_split_3
I0403 20:04:00.709162 10399 net.cpp:399] inception_4d/output_inception_4d/output_0_split -> inception_4d/output_inception_4d/output_0_split_4
I0403 20:04:00.709296 10399 net.cpp:141] Setting up inception_4d/output_inception_4d/output_0_split
I0403 20:04:00.709341 10399 net.cpp:148] Top shape: 24 528 14 14 (2483712)
I0403 20:04:00.709363 10399 net.cpp:148] Top shape: 24 528 14 14 (2483712)
I0403 20:04:00.709383 10399 net.cpp:148] Top shape: 24 528 14 14 (2483712)
I0403 20:04:00.709403 10399 net.cpp:148] Top shape: 24 528 14 14 (2483712)
I0403 20:04:00.709421 10399 net.cpp:148] Top shape: 24 528 14 14 (2483712)
I0403 20:04:00.709439 10399 net.cpp:156] Memory required for data: 1206918432
I0403 20:04:00.709457 10399 layer_factory.hpp:77] Creating layer loss2/ave_pool
I0403 20:04:00.709486 10399 net.cpp:91] Creating Layer loss2/ave_pool
I0403 20:04:00.709507 10399 net.cpp:425] loss2/ave_pool <- inception_4d/output_inception_4d/output_0_split_0
I0403 20:04:00.709530 10399 net.cpp:399] loss2/ave_pool -> loss2/ave_pool
I0403 20:04:00.709908 10399 net.cpp:141] Setting up loss2/ave_pool
I0403 20:04:00.709941 10399 net.cpp:148] Top shape: 24 528 4 4 (202752)
I0403 20:04:00.709961 10399 net.cpp:156] Memory required for data: 1207729440
I0403 20:04:00.709981 10399 layer_factory.hpp:77] Creating layer loss2/conv
I0403 20:04:00.710011 10399 net.cpp:91] Creating Layer loss2/conv
I0403 20:04:00.710036 10399 net.cpp:425] loss2/conv <- loss2/ave_pool
I0403 20:04:00.710059 10399 net.cpp:399] loss2/conv -> loss2/conv
I0403 20:04:00.712414 10399 net.cpp:141] Setting up loss2/conv
I0403 20:04:00.712450 10399 net.cpp:148] Top shape: 24 128 4 4 (49152)
I0403 20:04:00.712469 10399 net.cpp:156] Memory required for data: 1207926048
I0403 20:04:00.712493 10399 layer_factory.hpp:77] Creating layer loss2/relu_conv
I0403 20:04:00.712517 10399 net.cpp:91] Creating Layer loss2/relu_conv
I0403 20:04:00.712538 10399 net.cpp:425] loss2/relu_conv <- loss2/conv
I0403 20:04:00.712563 10399 net.cpp:386] loss2/relu_conv -> loss2/conv (in-place)
I0403 20:04:00.712908 10399 net.cpp:141] Setting up loss2/relu_conv
I0403 20:04:00.712941 10399 net.cpp:148] Top shape: 24 128 4 4 (49152)
I0403 20:04:00.712960 10399 net.cpp:156] Memory required for data: 1208122656
I0403 20:04:00.712980 10399 layer_factory.hpp:77] Creating layer loss2/fc
I0403 20:04:00.713006 10399 net.cpp:91] Creating Layer loss2/fc
I0403 20:04:00.713027 10399 net.cpp:425] loss2/fc <- loss2/conv
I0403 20:04:00.713054 10399 net.cpp:399] loss2/fc -> loss2/fc
I0403 20:04:00.735306 10399 net.cpp:141] Setting up loss2/fc
I0403 20:04:00.735347 10399 net.cpp:148] Top shape: 24 1024 (24576)
I0403 20:04:00.735366 10399 net.cpp:156] Memory required for data: 1208220960
I0403 20:04:00.735389 10399 layer_factory.hpp:77] Creating layer loss2/relu_fc
I0403 20:04:00.735411 10399 net.cpp:91] Creating Layer loss2/relu_fc
I0403 20:04:00.735432 10399 net.cpp:425] loss2/relu_fc <- loss2/fc
I0403 20:04:00.735455 10399 net.cpp:386] loss2/relu_fc -> loss2/fc (in-place)
I0403 20:04:00.735821 10399 net.cpp:141] Setting up loss2/relu_fc
I0403 20:04:00.735862 10399 net.cpp:148] Top shape: 24 1024 (24576)
I0403 20:04:00.735882 10399 net.cpp:156] Memory required for data: 1208319264
I0403 20:04:00.735901 10399 layer_factory.hpp:77] Creating layer loss2/drop_fc
I0403 20:04:00.735924 10399 net.cpp:91] Creating Layer loss2/drop_fc
I0403 20:04:00.735946 10399 net.cpp:425] loss2/drop_fc <- loss2/fc
I0403 20:04:00.735970 10399 net.cpp:386] loss2/drop_fc -> loss2/fc (in-place)
I0403 20:04:00.736032 10399 net.cpp:141] Setting up loss2/drop_fc
I0403 20:04:00.736063 10399 net.cpp:148] Top shape: 24 1024 (24576)
I0403 20:04:00.736081 10399 net.cpp:156] Memory required for data: 1208417568
I0403 20:04:00.736100 10399 layer_factory.hpp:77] Creating layer loss2/classifier_plantvillage
I0403 20:04:00.736126 10399 net.cpp:91] Creating Layer loss2/classifier_plantvillage
I0403 20:04:00.736148 10399 net.cpp:425] loss2/classifier_plantvillage <- loss2/fc
I0403 20:04:00.736173 10399 net.cpp:399] loss2/classifier_plantvillage -> loss2/classifier_plantvillage
I0403 20:04:00.736676 10399 net.cpp:141] Setting up loss2/classifier_plantvillage
I0403 20:04:00.736707 10399 net.cpp:148] Top shape: 24 38 (912)
I0403 20:04:00.736726 10399 net.cpp:156] Memory required for data: 1208421216
I0403 20:04:00.736770 10399 layer_factory.hpp:77] Creating layer loss2/classifier_plantvillage_loss2/classifier_plantvillage_0_split
I0403 20:04:00.736793 10399 net.cpp:91] Creating Layer loss2/classifier_plantvillage_loss2/classifier_plantvillage_0_split
I0403 20:04:00.736814 10399 net.cpp:425] loss2/classifier_plantvillage_loss2/classifier_plantvillage_0_split <- loss2/classifier_plantvillage
I0403 20:04:00.736838 10399 net.cpp:399] loss2/classifier_plantvillage_loss2/classifier_plantvillage_0_split -> loss2/classifier_plantvillage_loss2/classifier_plantvillage_0_split_0
I0403 20:04:00.736867 10399 net.cpp:399] loss2/classifier_plantvillage_loss2/classifier_plantvillage_0_split -> loss2/classifier_plantvillage_loss2/classifier_plantvillage_0_split_1
I0403 20:04:00.736893 10399 net.cpp:399] loss2/classifier_plantvillage_loss2/classifier_plantvillage_0_split -> loss2/classifier_plantvillage_loss2/classifier_plantvillage_0_split_2
I0403 20:04:00.736991 10399 net.cpp:141] Setting up loss2/classifier_plantvillage_loss2/classifier_plantvillage_0_split
I0403 20:04:00.737020 10399 net.cpp:148] Top shape: 24 38 (912)
I0403 20:04:00.737040 10399 net.cpp:148] Top shape: 24 38 (912)
I0403 20:04:00.737059 10399 net.cpp:148] Top shape: 24 38 (912)
I0403 20:04:00.737076 10399 net.cpp:156] Memory required for data: 1208432160
I0403 20:04:00.737095 10399 layer_factory.hpp:77] Creating layer inception_4e/1x1
I0403 20:04:00.737123 10399 net.cpp:91] Creating Layer inception_4e/1x1
I0403 20:04:00.737148 10399 net.cpp:425] inception_4e/1x1 <- inception_4d/output_inception_4d/output_0_split_1
I0403 20:04:00.737171 10399 net.cpp:399] inception_4e/1x1 -> inception_4e/1x1
I0403 20:04:00.739421 10399 net.cpp:141] Setting up inception_4e/1x1
I0403 20:04:00.739456 10399 net.cpp:148] Top shape: 24 256 14 14 (1204224)
I0403 20:04:00.739476 10399 net.cpp:156] Memory required for data: 1213249056
I0403 20:04:00.739500 10399 layer_factory.hpp:77] Creating layer inception_4e/relu_1x1
I0403 20:04:00.739526 10399 net.cpp:91] Creating Layer inception_4e/relu_1x1
I0403 20:04:00.739547 10399 net.cpp:425] inception_4e/relu_1x1 <- inception_4e/1x1
I0403 20:04:00.739570 10399 net.cpp:386] inception_4e/relu_1x1 -> inception_4e/1x1 (in-place)
I0403 20:04:00.739926 10399 net.cpp:141] Setting up inception_4e/relu_1x1
I0403 20:04:00.739959 10399 net.cpp:148] Top shape: 24 256 14 14 (1204224)
I0403 20:04:00.739979 10399 net.cpp:156] Memory required for data: 1218065952
I0403 20:04:00.739997 10399 layer_factory.hpp:77] Creating layer inception_4e/3x3_reduce
I0403 20:04:00.740026 10399 net.cpp:91] Creating Layer inception_4e/3x3_reduce
I0403 20:04:00.740049 10399 net.cpp:425] inception_4e/3x3_reduce <- inception_4d/output_inception_4d/output_0_split_2
I0403 20:04:00.740077 10399 net.cpp:399] inception_4e/3x3_reduce -> inception_4e/3x3_reduce
I0403 20:04:00.742709 10399 net.cpp:141] Setting up inception_4e/3x3_reduce
I0403 20:04:00.742746 10399 net.cpp:148] Top shape: 24 160 14 14 (752640)
I0403 20:04:00.742766 10399 net.cpp:156] Memory required for data: 1221076512
I0403 20:04:00.742789 10399 layer_factory.hpp:77] Creating layer inception_4e/relu_3x3_reduce
I0403 20:04:00.742813 10399 net.cpp:91] Creating Layer inception_4e/relu_3x3_reduce
I0403 20:04:00.742835 10399 net.cpp:425] inception_4e/relu_3x3_reduce <- inception_4e/3x3_reduce
I0403 20:04:00.742859 10399 net.cpp:386] inception_4e/relu_3x3_reduce -> inception_4e/3x3_reduce (in-place)
I0403 20:04:00.743093 10399 net.cpp:141] Setting up inception_4e/relu_3x3_reduce
I0403 20:04:00.743124 10399 net.cpp:148] Top shape: 24 160 14 14 (752640)
I0403 20:04:00.743144 10399 net.cpp:156] Memory required for data: 1224087072
I0403 20:04:00.743163 10399 layer_factory.hpp:77] Creating layer inception_4e/3x3
I0403 20:04:00.743192 10399 net.cpp:91] Creating Layer inception_4e/3x3
I0403 20:04:00.743214 10399 net.cpp:425] inception_4e/3x3 <- inception_4e/3x3_reduce
I0403 20:04:00.743240 10399 net.cpp:399] inception_4e/3x3 -> inception_4e/3x3
I0403 20:04:00.749522 10399 net.cpp:141] Setting up inception_4e/3x3
I0403 20:04:00.749577 10399 net.cpp:148] Top shape: 24 320 14 14 (1505280)
I0403 20:04:00.749599 10399 net.cpp:156] Memory required for data: 1230108192
I0403 20:04:00.749624 10399 layer_factory.hpp:77] Creating layer inception_4e/relu_3x3
I0403 20:04:00.749649 10399 net.cpp:91] Creating Layer inception_4e/relu_3x3
I0403 20:04:00.749671 10399 net.cpp:425] inception_4e/relu_3x3 <- inception_4e/3x3
I0403 20:04:00.749693 10399 net.cpp:386] inception_4e/relu_3x3 -> inception_4e/3x3 (in-place)
I0403 20:04:00.750067 10399 net.cpp:141] Setting up inception_4e/relu_3x3
I0403 20:04:00.750100 10399 net.cpp:148] Top shape: 24 320 14 14 (1505280)
I0403 20:04:00.750119 10399 net.cpp:156] Memory required for data: 1236129312
I0403 20:04:00.750138 10399 layer_factory.hpp:77] Creating layer inception_4e/5x5_reduce
I0403 20:04:00.750166 10399 net.cpp:91] Creating Layer inception_4e/5x5_reduce
I0403 20:04:00.750188 10399 net.cpp:425] inception_4e/5x5_reduce <- inception_4d/output_inception_4d/output_0_split_3
I0403 20:04:00.750216 10399 net.cpp:399] inception_4e/5x5_reduce -> inception_4e/5x5_reduce
I0403 20:04:00.751549 10399 net.cpp:141] Setting up inception_4e/5x5_reduce
I0403 20:04:00.751585 10399 net.cpp:148] Top shape: 24 32 14 14 (150528)
I0403 20:04:00.751605 10399 net.cpp:156] Memory required for data: 1236731424
I0403 20:04:00.751627 10399 layer_factory.hpp:77] Creating layer inception_4e/relu_5x5_reduce
I0403 20:04:00.751651 10399 net.cpp:91] Creating Layer inception_4e/relu_5x5_reduce
I0403 20:04:00.751670 10399 net.cpp:425] inception_4e/relu_5x5_reduce <- inception_4e/5x5_reduce
I0403 20:04:00.751695 10399 net.cpp:386] inception_4e/relu_5x5_reduce -> inception_4e/5x5_reduce (in-place)
I0403 20:04:00.752058 10399 net.cpp:141] Setting up inception_4e/relu_5x5_reduce
I0403 20:04:00.752092 10399 net.cpp:148] Top shape: 24 32 14 14 (150528)
I0403 20:04:00.752113 10399 net.cpp:156] Memory required for data: 1237333536
I0403 20:04:00.752131 10399 layer_factory.hpp:77] Creating layer inception_4e/5x5
I0403 20:04:00.752180 10399 net.cpp:91] Creating Layer inception_4e/5x5
I0403 20:04:00.752204 10399 net.cpp:425] inception_4e/5x5 <- inception_4e/5x5_reduce
I0403 20:04:00.752230 10399 net.cpp:399] inception_4e/5x5 -> inception_4e/5x5
I0403 20:04:00.754500 10399 net.cpp:141] Setting up inception_4e/5x5
I0403 20:04:00.754539 10399 net.cpp:148] Top shape: 24 128 14 14 (602112)
I0403 20:04:00.754560 10399 net.cpp:156] Memory required for data: 1239741984
I0403 20:04:00.754585 10399 layer_factory.hpp:77] Creating layer inception_4e/relu_5x5
I0403 20:04:00.754607 10399 net.cpp:91] Creating Layer inception_4e/relu_5x5
I0403 20:04:00.754629 10399 net.cpp:425] inception_4e/relu_5x5 <- inception_4e/5x5
I0403 20:04:00.754653 10399 net.cpp:386] inception_4e/relu_5x5 -> inception_4e/5x5 (in-place)
I0403 20:04:00.754899 10399 net.cpp:141] Setting up inception_4e/relu_5x5
I0403 20:04:00.754930 10399 net.cpp:148] Top shape: 24 128 14 14 (602112)
I0403 20:04:00.754950 10399 net.cpp:156] Memory required for data: 1242150432
I0403 20:04:00.754967 10399 layer_factory.hpp:77] Creating layer inception_4e/pool
I0403 20:04:00.754992 10399 net.cpp:91] Creating Layer inception_4e/pool
I0403 20:04:00.755012 10399 net.cpp:425] inception_4e/pool <- inception_4d/output_inception_4d/output_0_split_4
I0403 20:04:00.755038 10399 net.cpp:399] inception_4e/pool -> inception_4e/pool
I0403 20:04:00.755127 10399 net.cpp:141] Setting up inception_4e/pool
I0403 20:04:00.755157 10399 net.cpp:148] Top shape: 24 528 14 14 (2483712)
I0403 20:04:00.755175 10399 net.cpp:156] Memory required for data: 1252085280
I0403 20:04:00.755197 10399 layer_factory.hpp:77] Creating layer inception_4e/pool_proj
I0403 20:04:00.755226 10399 net.cpp:91] Creating Layer inception_4e/pool_proj
I0403 20:04:00.755249 10399 net.cpp:425] inception_4e/pool_proj <- inception_4e/pool
I0403 20:04:00.755280 10399 net.cpp:399] inception_4e/pool_proj -> inception_4e/pool_proj
I0403 20:04:00.757120 10399 net.cpp:141] Setting up inception_4e/pool_proj
I0403 20:04:00.757155 10399 net.cpp:148] Top shape: 24 128 14 14 (602112)
I0403 20:04:00.757192 10399 net.cpp:156] Memory required for data: 1254493728
I0403 20:04:00.757216 10399 layer_factory.hpp:77] Creating layer inception_4e/relu_pool_proj
I0403 20:04:00.757242 10399 net.cpp:91] Creating Layer inception_4e/relu_pool_proj
I0403 20:04:00.757266 10399 net.cpp:425] inception_4e/relu_pool_proj <- inception_4e/pool_proj
I0403 20:04:00.757294 10399 net.cpp:386] inception_4e/relu_pool_proj -> inception_4e/pool_proj (in-place)
I0403 20:04:00.757652 10399 net.cpp:141] Setting up inception_4e/relu_pool_proj
I0403 20:04:00.757686 10399 net.cpp:148] Top shape: 24 128 14 14 (602112)
I0403 20:04:00.757706 10399 net.cpp:156] Memory required for data: 1256902176
I0403 20:04:00.757726 10399 layer_factory.hpp:77] Creating layer inception_4e/output
I0403 20:04:00.757753 10399 net.cpp:91] Creating Layer inception_4e/output
I0403 20:04:00.757776 10399 net.cpp:425] inception_4e/output <- inception_4e/1x1
I0403 20:04:00.757797 10399 net.cpp:425] inception_4e/output <- inception_4e/3x3
I0403 20:04:00.757818 10399 net.cpp:425] inception_4e/output <- inception_4e/5x5
I0403 20:04:00.757838 10399 net.cpp:425] inception_4e/output <- inception_4e/pool_proj
I0403 20:04:00.757861 10399 net.cpp:399] inception_4e/output -> inception_4e/output
I0403 20:04:00.757923 10399 net.cpp:141] Setting up inception_4e/output
I0403 20:04:00.757952 10399 net.cpp:148] Top shape: 24 832 14 14 (3913728)
I0403 20:04:00.757972 10399 net.cpp:156] Memory required for data: 1272557088
I0403 20:04:00.757989 10399 layer_factory.hpp:77] Creating layer pool4/3x3_s2
I0403 20:04:00.758013 10399 net.cpp:91] Creating Layer pool4/3x3_s2
I0403 20:04:00.758033 10399 net.cpp:425] pool4/3x3_s2 <- inception_4e/output
I0403 20:04:00.758059 10399 net.cpp:399] pool4/3x3_s2 -> pool4/3x3_s2
I0403 20:04:00.758152 10399 net.cpp:141] Setting up pool4/3x3_s2
I0403 20:04:00.758183 10399 net.cpp:148] Top shape: 24 832 7 7 (978432)
I0403 20:04:00.758201 10399 net.cpp:156] Memory required for data: 1276470816
I0403 20:04:00.758219 10399 layer_factory.hpp:77] Creating layer pool4/3x3_s2_pool4/3x3_s2_0_split
I0403 20:04:00.758241 10399 net.cpp:91] Creating Layer pool4/3x3_s2_pool4/3x3_s2_0_split
I0403 20:04:00.758263 10399 net.cpp:425] pool4/3x3_s2_pool4/3x3_s2_0_split <- pool4/3x3_s2
I0403 20:04:00.758296 10399 net.cpp:399] pool4/3x3_s2_pool4/3x3_s2_0_split -> pool4/3x3_s2_pool4/3x3_s2_0_split_0
I0403 20:04:00.758324 10399 net.cpp:399] pool4/3x3_s2_pool4/3x3_s2_0_split -> pool4/3x3_s2_pool4/3x3_s2_0_split_1
I0403 20:04:00.758348 10399 net.cpp:399] pool4/3x3_s2_pool4/3x3_s2_0_split -> pool4/3x3_s2_pool4/3x3_s2_0_split_2
I0403 20:04:00.758373 10399 net.cpp:399] pool4/3x3_s2_pool4/3x3_s2_0_split -> pool4/3x3_s2_pool4/3x3_s2_0_split_3
I0403 20:04:00.758486 10399 net.cpp:141] Setting up pool4/3x3_s2_pool4/3x3_s2_0_split
I0403 20:04:00.758517 10399 net.cpp:148] Top shape: 24 832 7 7 (978432)
I0403 20:04:00.758540 10399 net.cpp:148] Top shape: 24 832 7 7 (978432)
I0403 20:04:00.758560 10399 net.cpp:148] Top shape: 24 832 7 7 (978432)
I0403 20:04:00.758579 10399 net.cpp:148] Top shape: 24 832 7 7 (978432)
I0403 20:04:00.758599 10399 net.cpp:156] Memory required for data: 1292125728
I0403 20:04:00.758617 10399 layer_factory.hpp:77] Creating layer inception_5a/1x1
I0403 20:04:00.758646 10399 net.cpp:91] Creating Layer inception_5a/1x1
I0403 20:04:00.758669 10399 net.cpp:425] inception_5a/1x1 <- pool4/3x3_s2_pool4/3x3_s2_0_split_0
I0403 20:04:00.758693 10399 net.cpp:399] inception_5a/1x1 -> inception_5a/1x1
I0403 20:04:00.762219 10399 net.cpp:141] Setting up inception_5a/1x1
I0403 20:04:00.762259 10399 net.cpp:148] Top shape: 24 256 7 7 (301056)
I0403 20:04:00.762297 10399 net.cpp:156] Memory required for data: 1293329952
I0403 20:04:00.762323 10399 layer_factory.hpp:77] Creating layer inception_5a/relu_1x1
I0403 20:04:00.762346 10399 net.cpp:91] Creating Layer inception_5a/relu_1x1
I0403 20:04:00.762367 10399 net.cpp:425] inception_5a/relu_1x1 <- inception_5a/1x1
I0403 20:04:00.762390 10399 net.cpp:386] inception_5a/relu_1x1 -> inception_5a/1x1 (in-place)
I0403 20:04:00.762766 10399 net.cpp:141] Setting up inception_5a/relu_1x1
I0403 20:04:00.762801 10399 net.cpp:148] Top shape: 24 256 7 7 (301056)
I0403 20:04:00.762821 10399 net.cpp:156] Memory required for data: 1294534176
I0403 20:04:00.762840 10399 layer_factory.hpp:77] Creating layer inception_5a/3x3_reduce
I0403 20:04:00.762868 10399 net.cpp:91] Creating Layer inception_5a/3x3_reduce
I0403 20:04:00.762892 10399 net.cpp:425] inception_5a/3x3_reduce <- pool4/3x3_s2_pool4/3x3_s2_0_split_1
I0403 20:04:00.762919 10399 net.cpp:399] inception_5a/3x3_reduce -> inception_5a/3x3_reduce
I0403 20:04:00.765969 10399 net.cpp:141] Setting up inception_5a/3x3_reduce
I0403 20:04:00.766005 10399 net.cpp:148] Top shape: 24 160 7 7 (188160)
I0403 20:04:00.766026 10399 net.cpp:156] Memory required for data: 1295286816
I0403 20:04:00.766049 10399 layer_factory.hpp:77] Creating layer inception_5a/relu_3x3_reduce
I0403 20:04:00.766075 10399 net.cpp:91] Creating Layer inception_5a/relu_3x3_reduce
I0403 20:04:00.766098 10399 net.cpp:425] inception_5a/relu_3x3_reduce <- inception_5a/3x3_reduce
I0403 20:04:00.766120 10399 net.cpp:386] inception_5a/relu_3x3_reduce -> inception_5a/3x3_reduce (in-place)
I0403 20:04:00.766363 10399 net.cpp:141] Setting up inception_5a/relu_3x3_reduce
I0403 20:04:00.766399 10399 net.cpp:148] Top shape: 24 160 7 7 (188160)
I0403 20:04:00.766420 10399 net.cpp:156] Memory required for data: 1296039456
I0403 20:04:00.766439 10399 layer_factory.hpp:77] Creating layer inception_5a/3x3
I0403 20:04:00.766469 10399 net.cpp:91] Creating Layer inception_5a/3x3
I0403 20:04:00.766491 10399 net.cpp:425] inception_5a/3x3 <- inception_5a/3x3_reduce
I0403 20:04:00.766515 10399 net.cpp:399] inception_5a/3x3 -> inception_5a/3x3
I0403 20:04:00.772832 10399 net.cpp:141] Setting up inception_5a/3x3
I0403 20:04:00.772872 10399 net.cpp:148] Top shape: 24 320 7 7 (376320)
I0403 20:04:00.772893 10399 net.cpp:156] Memory required for data: 1297544736
I0403 20:04:00.772917 10399 layer_factory.hpp:77] Creating layer inception_5a/relu_3x3
I0403 20:04:00.772941 10399 net.cpp:91] Creating Layer inception_5a/relu_3x3
I0403 20:04:00.772964 10399 net.cpp:425] inception_5a/relu_3x3 <- inception_5a/3x3
I0403 20:04:00.772989 10399 net.cpp:386] inception_5a/relu_3x3 -> inception_5a/3x3 (in-place)
I0403 20:04:00.773355 10399 net.cpp:141] Setting up inception_5a/relu_3x3
I0403 20:04:00.773391 10399 net.cpp:148] Top shape: 24 320 7 7 (376320)
I0403 20:04:00.773411 10399 net.cpp:156] Memory required for data: 1299050016
I0403 20:04:00.773428 10399 layer_factory.hpp:77] Creating layer inception_5a/5x5_reduce
I0403 20:04:00.773458 10399 net.cpp:91] Creating Layer inception_5a/5x5_reduce
I0403 20:04:00.773483 10399 net.cpp:425] inception_5a/5x5_reduce <- pool4/3x3_s2_pool4/3x3_s2_0_split_2
I0403 20:04:00.773509 10399 net.cpp:399] inception_5a/5x5_reduce -> inception_5a/5x5_reduce
I0403 20:04:00.774953 10399 net.cpp:141] Setting up inception_5a/5x5_reduce
I0403 20:04:00.774992 10399 net.cpp:148] Top shape: 24 32 7 7 (37632)
I0403 20:04:00.775014 10399 net.cpp:156] Memory required for data: 1299200544
I0403 20:04:00.775038 10399 layer_factory.hpp:77] Creating layer inception_5a/relu_5x5_reduce
I0403 20:04:00.775061 10399 net.cpp:91] Creating Layer inception_5a/relu_5x5_reduce
I0403 20:04:00.775084 10399 net.cpp:425] inception_5a/relu_5x5_reduce <- inception_5a/5x5_reduce
I0403 20:04:00.775109 10399 net.cpp:386] inception_5a/relu_5x5_reduce -> inception_5a/5x5_reduce (in-place)
I0403 20:04:00.775480 10399 net.cpp:141] Setting up inception_5a/relu_5x5_reduce
I0403 20:04:00.775511 10399 net.cpp:148] Top shape: 24 32 7 7 (37632)
I0403 20:04:00.775532 10399 net.cpp:156] Memory required for data: 1299351072
I0403 20:04:00.775552 10399 layer_factory.hpp:77] Creating layer inception_5a/5x5
I0403 20:04:00.775585 10399 net.cpp:91] Creating Layer inception_5a/5x5
I0403 20:04:00.775609 10399 net.cpp:425] inception_5a/5x5 <- inception_5a/5x5_reduce
I0403 20:04:00.775636 10399 net.cpp:399] inception_5a/5x5 -> inception_5a/5x5
I0403 20:04:00.777772 10399 net.cpp:141] Setting up inception_5a/5x5
I0403 20:04:00.777824 10399 net.cpp:148] Top shape: 24 128 7 7 (150528)
I0403 20:04:00.777848 10399 net.cpp:156] Memory required for data: 1299953184
I0403 20:04:00.777871 10399 layer_factory.hpp:77] Creating layer inception_5a/relu_5x5
I0403 20:04:00.777894 10399 net.cpp:91] Creating Layer inception_5a/relu_5x5
I0403 20:04:00.777916 10399 net.cpp:425] inception_5a/relu_5x5 <- inception_5a/5x5
I0403 20:04:00.777940 10399 net.cpp:386] inception_5a/relu_5x5 -> inception_5a/5x5 (in-place)
I0403 20:04:00.778178 10399 net.cpp:141] Setting up inception_5a/relu_5x5
I0403 20:04:00.778209 10399 net.cpp:148] Top shape: 24 128 7 7 (150528)
I0403 20:04:00.778228 10399 net.cpp:156] Memory required for data: 1300555296
I0403 20:04:00.778251 10399 layer_factory.hpp:77] Creating layer inception_5a/pool
I0403 20:04:00.778281 10399 net.cpp:91] Creating Layer inception_5a/pool
I0403 20:04:00.778303 10399 net.cpp:425] inception_5a/pool <- pool4/3x3_s2_pool4/3x3_s2_0_split_3
I0403 20:04:00.778331 10399 net.cpp:399] inception_5a/pool -> inception_5a/pool
I0403 20:04:00.778419 10399 net.cpp:141] Setting up inception_5a/pool
I0403 20:04:00.778448 10399 net.cpp:148] Top shape: 24 832 7 7 (978432)
I0403 20:04:00.778468 10399 net.cpp:156] Memory required for data: 1304469024
I0403 20:04:00.778487 10399 layer_factory.hpp:77] Creating layer inception_5a/pool_proj
I0403 20:04:00.778518 10399 net.cpp:91] Creating Layer inception_5a/pool_proj
I0403 20:04:00.778542 10399 net.cpp:425] inception_5a/pool_proj <- inception_5a/pool
I0403 20:04:00.778565 10399 net.cpp:399] inception_5a/pool_proj -> inception_5a/pool_proj
I0403 20:04:00.781405 10399 net.cpp:141] Setting up inception_5a/pool_proj
I0403 20:04:00.781446 10399 net.cpp:148] Top shape: 24 128 7 7 (150528)
I0403 20:04:00.781468 10399 net.cpp:156] Memory required for data: 1305071136
I0403 20:04:00.781492 10399 layer_factory.hpp:77] Creating layer inception_5a/relu_pool_proj
I0403 20:04:00.781515 10399 net.cpp:91] Creating Layer inception_5a/relu_pool_proj
I0403 20:04:00.781535 10399 net.cpp:425] inception_5a/relu_pool_proj <- inception_5a/pool_proj
I0403 20:04:00.781556 10399 net.cpp:386] inception_5a/relu_pool_proj -> inception_5a/pool_proj (in-place)
I0403 20:04:00.781920 10399 net.cpp:141] Setting up inception_5a/relu_pool_proj
I0403 20:04:00.781956 10399 net.cpp:148] Top shape: 24 128 7 7 (150528)
I0403 20:04:00.781977 10399 net.cpp:156] Memory required for data: 1305673248
I0403 20:04:00.781996 10399 layer_factory.hpp:77] Creating layer inception_5a/output
I0403 20:04:00.782018 10399 net.cpp:91] Creating Layer inception_5a/output
I0403 20:04:00.782040 10399 net.cpp:425] inception_5a/output <- inception_5a/1x1
I0403 20:04:00.782061 10399 net.cpp:425] inception_5a/output <- inception_5a/3x3
I0403 20:04:00.782083 10399 net.cpp:425] inception_5a/output <- inception_5a/5x5
I0403 20:04:00.782104 10399 net.cpp:425] inception_5a/output <- inception_5a/pool_proj
I0403 20:04:00.782125 10399 net.cpp:399] inception_5a/output -> inception_5a/output
I0403 20:04:00.782188 10399 net.cpp:141] Setting up inception_5a/output
I0403 20:04:00.782217 10399 net.cpp:148] Top shape: 24 832 7 7 (978432)
I0403 20:04:00.782237 10399 net.cpp:156] Memory required for data: 1309586976
I0403 20:04:00.782256 10399 layer_factory.hpp:77] Creating layer inception_5a/output_inception_5a/output_0_split
I0403 20:04:00.782294 10399 net.cpp:91] Creating Layer inception_5a/output_inception_5a/output_0_split
I0403 20:04:00.782322 10399 net.cpp:425] inception_5a/output_inception_5a/output_0_split <- inception_5a/output
I0403 20:04:00.782346 10399 net.cpp:399] inception_5a/output_inception_5a/output_0_split -> inception_5a/output_inception_5a/output_0_split_0
I0403 20:04:00.782371 10399 net.cpp:399] inception_5a/output_inception_5a/output_0_split -> inception_5a/output_inception_5a/output_0_split_1
I0403 20:04:00.782399 10399 net.cpp:399] inception_5a/output_inception_5a/output_0_split -> inception_5a/output_inception_5a/output_0_split_2
I0403 20:04:00.782425 10399 net.cpp:399] inception_5a/output_inception_5a/output_0_split -> inception_5a/output_inception_5a/output_0_split_3
I0403 20:04:00.782564 10399 net.cpp:141] Setting up inception_5a/output_inception_5a/output_0_split
I0403 20:04:00.782595 10399 net.cpp:148] Top shape: 24 832 7 7 (978432)
I0403 20:04:00.782616 10399 net.cpp:148] Top shape: 24 832 7 7 (978432)
I0403 20:04:00.782635 10399 net.cpp:148] Top shape: 24 832 7 7 (978432)
I0403 20:04:00.782656 10399 net.cpp:148] Top shape: 24 832 7 7 (978432)
I0403 20:04:00.782673 10399 net.cpp:156] Memory required for data: 1325241888
I0403 20:04:00.782692 10399 layer_factory.hpp:77] Creating layer inception_5b/1x1
I0403 20:04:00.782721 10399 net.cpp:91] Creating Layer inception_5b/1x1
I0403 20:04:00.782744 10399 net.cpp:425] inception_5b/1x1 <- inception_5a/output_inception_5a/output_0_split_0
I0403 20:04:00.782771 10399 net.cpp:399] inception_5b/1x1 -> inception_5b/1x1
I0403 20:04:00.787421 10399 net.cpp:141] Setting up inception_5b/1x1
I0403 20:04:00.787459 10399 net.cpp:148] Top shape: 24 384 7 7 (451584)
I0403 20:04:00.787480 10399 net.cpp:156] Memory required for data: 1327048224
I0403 20:04:00.787504 10399 layer_factory.hpp:77] Creating layer inception_5b/relu_1x1
I0403 20:04:00.787530 10399 net.cpp:91] Creating Layer inception_5b/relu_1x1
I0403 20:04:00.787552 10399 net.cpp:425] inception_5b/relu_1x1 <- inception_5b/1x1
I0403 20:04:00.787575 10399 net.cpp:386] inception_5b/relu_1x1 -> inception_5b/1x1 (in-place)
I0403 20:04:00.787947 10399 net.cpp:141] Setting up inception_5b/relu_1x1
I0403 20:04:00.787981 10399 net.cpp:148] Top shape: 24 384 7 7 (451584)
I0403 20:04:00.788000 10399 net.cpp:156] Memory required for data: 1328854560
I0403 20:04:00.788019 10399 layer_factory.hpp:77] Creating layer inception_5b/3x3_reduce
I0403 20:04:00.788048 10399 net.cpp:91] Creating Layer inception_5b/3x3_reduce
I0403 20:04:00.788075 10399 net.cpp:425] inception_5b/3x3_reduce <- inception_5a/output_inception_5a/output_0_split_1
I0403 20:04:00.788100 10399 net.cpp:399] inception_5b/3x3_reduce -> inception_5b/3x3_reduce
I0403 20:04:00.791415 10399 net.cpp:141] Setting up inception_5b/3x3_reduce
I0403 20:04:00.791452 10399 net.cpp:148] Top shape: 24 192 7 7 (225792)
I0403 20:04:00.791476 10399 net.cpp:156] Memory required for data: 1329757728
I0403 20:04:00.791499 10399 layer_factory.hpp:77] Creating layer inception_5b/relu_3x3_reduce
I0403 20:04:00.791524 10399 net.cpp:91] Creating Layer inception_5b/relu_3x3_reduce
I0403 20:04:00.791545 10399 net.cpp:425] inception_5b/relu_3x3_reduce <- inception_5b/3x3_reduce
I0403 20:04:00.791568 10399 net.cpp:386] inception_5b/relu_3x3_reduce -> inception_5b/3x3_reduce (in-place)
I0403 20:04:00.791806 10399 net.cpp:141] Setting up inception_5b/relu_3x3_reduce
I0403 20:04:00.791841 10399 net.cpp:148] Top shape: 24 192 7 7 (225792)
I0403 20:04:00.791862 10399 net.cpp:156] Memory required for data: 1330660896
I0403 20:04:00.791882 10399 layer_factory.hpp:77] Creating layer inception_5b/3x3
I0403 20:04:00.791908 10399 net.cpp:91] Creating Layer inception_5b/3x3
I0403 20:04:00.791930 10399 net.cpp:425] inception_5b/3x3 <- inception_5b/3x3_reduce
I0403 20:04:00.791955 10399 net.cpp:399] inception_5b/3x3 -> inception_5b/3x3
I0403 20:04:00.800400 10399 net.cpp:141] Setting up inception_5b/3x3
I0403 20:04:00.800439 10399 net.cpp:148] Top shape: 24 384 7 7 (451584)
I0403 20:04:00.800462 10399 net.cpp:156] Memory required for data: 1332467232
I0403 20:04:00.800487 10399 layer_factory.hpp:77] Creating layer inception_5b/relu_3x3
I0403 20:04:00.800511 10399 net.cpp:91] Creating Layer inception_5b/relu_3x3
I0403 20:04:00.800534 10399 net.cpp:425] inception_5b/relu_3x3 <- inception_5b/3x3
I0403 20:04:00.800554 10399 net.cpp:386] inception_5b/relu_3x3 -> inception_5b/3x3 (in-place)
I0403 20:04:00.800920 10399 net.cpp:141] Setting up inception_5b/relu_3x3
I0403 20:04:00.800961 10399 net.cpp:148] Top shape: 24 384 7 7 (451584)
I0403 20:04:00.800981 10399 net.cpp:156] Memory required for data: 1334273568
I0403 20:04:00.801000 10399 layer_factory.hpp:77] Creating layer inception_5b/5x5_reduce
I0403 20:04:00.801051 10399 net.cpp:91] Creating Layer inception_5b/5x5_reduce
I0403 20:04:00.801076 10399 net.cpp:425] inception_5b/5x5_reduce <- inception_5a/output_inception_5a/output_0_split_2
I0403 20:04:00.801100 10399 net.cpp:399] inception_5b/5x5_reduce -> inception_5b/5x5_reduce
I0403 20:04:00.802690 10399 net.cpp:141] Setting up inception_5b/5x5_reduce
I0403 20:04:00.802726 10399 net.cpp:148] Top shape: 24 48 7 7 (56448)
I0403 20:04:00.802747 10399 net.cpp:156] Memory required for data: 1334499360
I0403 20:04:00.802770 10399 layer_factory.hpp:77] Creating layer inception_5b/relu_5x5_reduce
I0403 20:04:00.802798 10399 net.cpp:91] Creating Layer inception_5b/relu_5x5_reduce
I0403 20:04:00.802820 10399 net.cpp:425] inception_5b/relu_5x5_reduce <- inception_5b/5x5_reduce
I0403 20:04:00.802842 10399 net.cpp:386] inception_5b/relu_5x5_reduce -> inception_5b/5x5_reduce (in-place)
I0403 20:04:00.803315 10399 net.cpp:141] Setting up inception_5b/relu_5x5_reduce
I0403 20:04:00.803349 10399 net.cpp:148] Top shape: 24 48 7 7 (56448)
I0403 20:04:00.803369 10399 net.cpp:156] Memory required for data: 1334725152
I0403 20:04:00.803390 10399 layer_factory.hpp:77] Creating layer inception_5b/5x5
I0403 20:04:00.803416 10399 net.cpp:91] Creating Layer inception_5b/5x5
I0403 20:04:00.803438 10399 net.cpp:425] inception_5b/5x5 <- inception_5b/5x5_reduce
I0403 20:04:00.803462 10399 net.cpp:399] inception_5b/5x5 -> inception_5b/5x5
I0403 20:04:00.805990 10399 net.cpp:141] Setting up inception_5b/5x5
I0403 20:04:00.806027 10399 net.cpp:148] Top shape: 24 128 7 7 (150528)
I0403 20:04:00.806048 10399 net.cpp:156] Memory required for data: 1335327264
I0403 20:04:00.806072 10399 layer_factory.hpp:77] Creating layer inception_5b/relu_5x5
I0403 20:04:00.806095 10399 net.cpp:91] Creating Layer inception_5b/relu_5x5
I0403 20:04:00.806116 10399 net.cpp:425] inception_5b/relu_5x5 <- inception_5b/5x5
I0403 20:04:00.806141 10399 net.cpp:386] inception_5b/relu_5x5 -> inception_5b/5x5 (in-place)
I0403 20:04:00.806392 10399 net.cpp:141] Setting up inception_5b/relu_5x5
I0403 20:04:00.806426 10399 net.cpp:148] Top shape: 24 128 7 7 (150528)
I0403 20:04:00.806443 10399 net.cpp:156] Memory required for data: 1335929376
I0403 20:04:00.806463 10399 layer_factory.hpp:77] Creating layer inception_5b/pool
I0403 20:04:00.806488 10399 net.cpp:91] Creating Layer inception_5b/pool
I0403 20:04:00.806511 10399 net.cpp:425] inception_5b/pool <- inception_5a/output_inception_5a/output_0_split_3
I0403 20:04:00.806535 10399 net.cpp:399] inception_5b/pool -> inception_5b/pool
I0403 20:04:00.806627 10399 net.cpp:141] Setting up inception_5b/pool
I0403 20:04:00.806658 10399 net.cpp:148] Top shape: 24 832 7 7 (978432)
I0403 20:04:00.806676 10399 net.cpp:156] Memory required for data: 1339843104
I0403 20:04:00.806695 10399 layer_factory.hpp:77] Creating layer inception_5b/pool_proj
I0403 20:04:00.806723 10399 net.cpp:91] Creating Layer inception_5b/pool_proj
I0403 20:04:00.806747 10399 net.cpp:425] inception_5b/pool_proj <- inception_5b/pool
I0403 20:04:00.806774 10399 net.cpp:399] inception_5b/pool_proj -> inception_5b/pool_proj
I0403 20:04:00.809628 10399 net.cpp:141] Setting up inception_5b/pool_proj
I0403 20:04:00.809669 10399 net.cpp:148] Top shape: 24 128 7 7 (150528)
I0403 20:04:00.809689 10399 net.cpp:156] Memory required for data: 1340445216
I0403 20:04:00.809712 10399 layer_factory.hpp:77] Creating layer inception_5b/relu_pool_proj
I0403 20:04:00.809736 10399 net.cpp:91] Creating Layer inception_5b/relu_pool_proj
I0403 20:04:00.809757 10399 net.cpp:425] inception_5b/relu_pool_proj <- inception_5b/pool_proj
I0403 20:04:00.809783 10399 net.cpp:386] inception_5b/relu_pool_proj -> inception_5b/pool_proj (in-place)
I0403 20:04:00.810153 10399 net.cpp:141] Setting up inception_5b/relu_pool_proj
I0403 20:04:00.810190 10399 net.cpp:148] Top shape: 24 128 7 7 (150528)
I0403 20:04:00.810210 10399 net.cpp:156] Memory required for data: 1341047328
I0403 20:04:00.810230 10399 layer_factory.hpp:77] Creating layer inception_5b/output
I0403 20:04:00.810252 10399 net.cpp:91] Creating Layer inception_5b/output
I0403 20:04:00.810297 10399 net.cpp:425] inception_5b/output <- inception_5b/1x1
I0403 20:04:00.810320 10399 net.cpp:425] inception_5b/output <- inception_5b/3x3
I0403 20:04:00.810343 10399 net.cpp:425] inception_5b/output <- inception_5b/5x5
I0403 20:04:00.810362 10399 net.cpp:425] inception_5b/output <- inception_5b/pool_proj
I0403 20:04:00.810384 10399 net.cpp:399] inception_5b/output -> inception_5b/output
I0403 20:04:00.810452 10399 net.cpp:141] Setting up inception_5b/output
I0403 20:04:00.810483 10399 net.cpp:148] Top shape: 24 1024 7 7 (1204224)
I0403 20:04:00.810503 10399 net.cpp:156] Memory required for data: 1345864224
I0403 20:04:00.810521 10399 layer_factory.hpp:77] Creating layer pool5/7x7_s1
I0403 20:04:00.810547 10399 net.cpp:91] Creating Layer pool5/7x7_s1
I0403 20:04:00.810569 10399 net.cpp:425] pool5/7x7_s1 <- inception_5b/output
I0403 20:04:00.810592 10399 net.cpp:399] pool5/7x7_s1 -> pool5/7x7_s1
I0403 20:04:00.810863 10399 net.cpp:141] Setting up pool5/7x7_s1
I0403 20:04:00.810896 10399 net.cpp:148] Top shape: 24 1024 1 1 (24576)
I0403 20:04:00.810917 10399 net.cpp:156] Memory required for data: 1345962528
I0403 20:04:00.810936 10399 layer_factory.hpp:77] Creating layer pool5/drop_7x7_s1
I0403 20:04:00.810959 10399 net.cpp:91] Creating Layer pool5/drop_7x7_s1
I0403 20:04:00.810979 10399 net.cpp:425] pool5/drop_7x7_s1 <- pool5/7x7_s1
I0403 20:04:00.811004 10399 net.cpp:386] pool5/drop_7x7_s1 -> pool5/7x7_s1 (in-place)
I0403 20:04:00.811067 10399 net.cpp:141] Setting up pool5/drop_7x7_s1
I0403 20:04:00.811096 10399 net.cpp:148] Top shape: 24 1024 1 1 (24576)
I0403 20:04:00.811116 10399 net.cpp:156] Memory required for data: 1346060832
I0403 20:04:00.811133 10399 layer_factory.hpp:77] Creating layer loss3/classifier_plantvillage
I0403 20:04:00.811161 10399 net.cpp:91] Creating Layer loss3/classifier_plantvillage
I0403 20:04:00.811184 10399 net.cpp:425] loss3/classifier_plantvillage <- pool5/7x7_s1
I0403 20:04:00.811211 10399 net.cpp:399] loss3/classifier_plantvillage -> loss3/classifier_plantvillage
I0403 20:04:00.811741 10399 net.cpp:141] Setting up loss3/classifier_plantvillage
I0403 20:04:00.811772 10399 net.cpp:148] Top shape: 24 38 (912)
I0403 20:04:00.811792 10399 net.cpp:156] Memory required for data: 1346064480
I0403 20:04:00.811815 10399 layer_factory.hpp:77] Creating layer loss3/classifier_plantvillage_loss3/classifier_plantvillage_0_split
I0403 20:04:00.811844 10399 net.cpp:91] Creating Layer loss3/classifier_plantvillage_loss3/classifier_plantvillage_0_split
I0403 20:04:00.811866 10399 net.cpp:425] loss3/classifier_plantvillage_loss3/classifier_plantvillage_0_split <- loss3/classifier_plantvillage
I0403 20:04:00.811888 10399 net.cpp:399] loss3/classifier_plantvillage_loss3/classifier_plantvillage_0_split -> loss3/classifier_plantvillage_loss3/classifier_plantvillage_0_split_0
I0403 20:04:00.811914 10399 net.cpp:399] loss3/classifier_plantvillage_loss3/classifier_plantvillage_0_split -> loss3/classifier_plantvillage_loss3/classifier_plantvillage_0_split_1
I0403 20:04:00.811939 10399 net.cpp:399] loss3/classifier_plantvillage_loss3/classifier_plantvillage_0_split -> loss3/classifier_plantvillage_loss3/classifier_plantvillage_0_split_2
I0403 20:04:00.811965 10399 net.cpp:399] loss3/classifier_plantvillage_loss3/classifier_plantvillage_0_split -> loss3/classifier_plantvillage_loss3/classifier_plantvillage_0_split_3
I0403 20:04:00.812093 10399 net.cpp:141] Setting up loss3/classifier_plantvillage_loss3/classifier_plantvillage_0_split
I0403 20:04:00.812122 10399 net.cpp:148] Top shape: 24 38 (912)
I0403 20:04:00.812144 10399 net.cpp:148] Top shape: 24 38 (912)
I0403 20:04:00.812165 10399 net.cpp:148] Top shape: 24 38 (912)
I0403 20:04:00.812183 10399 net.cpp:148] Top shape: 24 38 (912)
I0403 20:04:00.812201 10399 net.cpp:156] Memory required for data: 1346079072
I0403 20:04:00.812221 10399 layer_factory.hpp:77] Creating layer loss1/loss
I0403 20:04:00.812248 10399 net.cpp:91] Creating Layer loss1/loss
I0403 20:04:00.812280 10399 net.cpp:425] loss1/loss <- loss1/classifier_plantvillage_loss1/classifier_plantvillage_0_split_0
I0403 20:04:00.812322 10399 net.cpp:425] loss1/loss <- label_data_1_split_0
…
