…
I0403 18:35:58.524628 22921 net.cpp:313] The NetState phase (1) differed from the phase (0) specified by a rule in layer data
I0403 18:35:58.525713 22921 net.cpp:49] Initializing net from parameters: 
state {
  phase: TEST
}
layer {
  name: "data"
  type: "Data"
  top: "data"
  top: "label"
  include {
    phase: TEST
  }
  transform_param {
    mirror: false
    crop_size: 224
    mean_file: "/home/mohanty/data/final_dataset/lmdb/segmented-40-60/mean.binaryproto"
  }
  data_param {
    source: "/home/mohanty/data/final_dataset/lmdb/segmented-40-60/test_db"
    batch_size: 24
    backend: LMDB
  }
}
layer {
  name: "conv1/7x7_s2"
  type: "Convolution"
  bottom: "data"
  top: "conv1/7x7_s2"
  param {
    lr_mult: 1
    decay_mult: 1
  }
  param {
    lr_mult: 2
    decay_mult: 0
  }
  convolution_param {
    num_output: 64
    pad: 3
    kernel_size: 7
    stride: 2
    weight_filler {
      type: "xavier"
      std: 0.1
    }
    bias_filler {
      type: "constant"
      value: 0.2
    }
  }
}
layer {
  name: "conv1/relu_7x7"
  type: "ReLU"
  bottom: "conv1/7x7_s2"
  top: "conv1/7x7_s2"
}
layer {
  name: "pool1/3x3_s2"
  type: "Pooling"
  bottom: "conv1/7x7_s2"
  top: "pool1/3x3_s2"
  pooling_param {
    pool: MAX
    kernel_size: 3
    stride: 2
  }
}
layer {
  name: "pool1/norm1"
  type: "LRN"
  bottom: "pool1/3x3_s2"
  top: "pool1/norm1"
  lrn_param {
    local_size: 5
    alpha: 0.0001
    beta: 0.75
  }
}
layer {
  name: "conv2/3x3_reduce"
  type: "Convolution"
  bottom: "pool1/norm1"
  top: "conv2/3x3_reduce"
  param {
    lr_mult: 1
    decay_mult: 1
  }
  param {
    lr_mult: 2
    decay_mult: 0
  }
  convolution_param {
    num_output: 64
    kernel_size: 1
    weight_filler {
      type: "xavier"
      std: 0.1
    }
    bias_filler {
      type: "constant"
      value: 0.2
    }
  }
}
layer {
  name: "conv2/relu_3x3_reduce"
  type: "ReLU"
  bottom: "conv2/3x3_reduce"
  top: "conv2/3x3_reduce"
}
layer {
  name: "conv2/3x3"
  type: "Convolution"
  bottom: "conv2/3x3_reduce"
  top: "conv2/3x3"
  param {
    lr_mult: 1
    decay_mult: 1
  }
  param {
    lr_mult: 2
    decay_mult: 0
  }
  convolution_param {
    num_output: 192
    pad: 1
    kernel_size: 3
    weight_filler {
      type: "xavier"
      std: 0.03
    }
    bias_filler {
      type: "constant"
      value: 0.2
    }
  }
}
layer {
  name: "conv2/relu_3x3"
  type: "ReLU"
  bottom: "conv2/3x3"
  top: "conv2/3x3"
}
layer {
  name: "conv2/norm2"
  type: "LRN"
  bottom: "conv2/3x3"
  top: "conv2/norm2"
  lrn_param {
    local_size: 5
    alpha: 0.0001
    beta: 0.75
  }
}
layer {
  name: "pool2/3x3_s2"
  type: "Pooling"
  bottom: "conv2/norm2"
  top: "pool2/3x3_s2"
  pooling_param {
    pool: MAX
    kernel_size: 3
    stride: 2
  }
}
layer {
  name: "inception_3a/1x1"
  type: "Convolution"
  bottom: "pool2/3x3_s2"
  top: "inception_3a/1x1"
  param {
    lr_mult: 1
    decay_mult: 1
  }
  param {
    lr_mult: 2
    decay_mult: 0
  }
  convolution_param {
    num_output: 64
    kernel_size: 1
    weight_filler {
      type: "xavier"
      std: 0.03
    }
    bias_filler {
      type: "constant"
      value: 0.2
    }
  }
}
layer {
  name: "inception_3a/relu_1x1"
  type: "ReLU"
  bottom: "inception_3a/1x1"
  top: "inception_3a/1x1"
}
layer {
  name: "inception_3a/3x3_reduce"
  type: "Convolution"
  bottom: "pool2/3x3_s2"
  top: "inception_3a/3x3_reduce"
  param {
    lr_mult: 1
    decay_mult: 1
  }
  param {
    lr_mult: 2
    decay_mult: 0
  }
  convolution_param {
    num_output: 96
    kernel_size: 1
    weight_filler {
      type: "xavier"
      std: 0.09
    }
    bias_filler {
      type: "constant"
      value: 0.2
    }
  }
}
layer {
  name: "inception_3a/relu_3x3_reduce"
  type: "ReLU"
  bottom: "inception_3a/3x3_reduce"
  top: "inception_3a/3x3_reduce"
}
layer {
  name: "inception_3a/3x3"
  type: "Convolution"
  bottom: "inception_3a/3x3_reduce"
  top: "inception_3a/3x3"
  param {
    lr_mult: 1
    decay_mult: 1
  }
  param {
    lr_mult: 2
    decay_mult: 0
  }
  convolution_param {
    num_output: 128
    pad: 1
    kernel_size: 3
    weight_filler {
      type: "xavier"
      std: 0.03
    }
    bias_filler {
      type: "constant"
      value: 0.2
    }
  }
}
layer {
  name: "inception_3a/relu_3x3"
  type: "ReLU"
  bottom: "inception_3a/3x3"
  top: "inception_3a/3x3"
}
layer {
  name: "inception_3a/5x5_reduce"
  type: "Convolution"
  bottom: "pool2/3x3_s2"
  top: "inception_3a/5x5_reduce"
  param {
    lr_mult: 1
    decay_mult: 1
  }
  param {
    lr_mult: 2
    decay_mult: 0
  }
  convolution_param {
    num_output: 16
    kernel_size: 1
    weight_filler {
      type: "xavier"
      std: 0.2
    }
    bias_filler {
      type: "constant"
      value: 0.2
    }
  }
}
layer {
  name: "inception_3a/relu_5x5_reduce"
  type: "ReLU"
  bottom: "inception_3a/5x5_reduce"
  top: "inception_3a/5x5_reduce"
}
layer {
  name: "inception_3a/5x5"
  type: "Convolution"
  bottom: "inception_3a/5x5_reduce"
  top: "inception_3a/5x5"
  param {
    lr_mult: 1
    decay_mult: 1
  }
  param {
    lr_mult: 2
    decay_mult: 0
  }
  convolution_param {
    num_output: 32
    pad: 2
    kernel_size: 5
    weight_filler {
      type: "xavier"
      std: 0.03
    }
    bias_filler {
      type: "constant"
      value: 0.2
    }
  }
}
layer {
  name: "inception_3a/relu_5x5"
  type: "ReLU"
  bottom: "inception_3a/5x5"
  top: "inception_3a/5x5"
}
layer {
  name: "inception_3a/pool"
  type: "Pooling"
  bottom: "pool2/3x3_s2"
  top: "inception_3a/pool"
  pooling_param {
    pool: MAX
    kernel_size: 3
    stride: 1
    pad: 1
  }
}
layer {
  name: "inception_3a/pool_proj"
  type: "Convolution"
  bottom: "inception_3a/pool"
  top: "inception_3a/pool_proj"
  param {
    lr_mult: 1
    decay_mult: 1
  }
  param {
    lr_mult: 2
    decay_mult: 0
  }
  convolution_param {
    num_output: 32
    kernel_size: 1
    weight_filler {
      type: "xavier"
      std: 0.1
    }
    bias_filler {
      type: "constant"
      value: 0.2
    }
  }
}
layer {
  name: "inception_3a/relu_pool_proj"
  type: "ReLU"
  bottom: "inception_3a/pool_proj"
  top: "inception_3a/pool_proj"
}
layer {
  name: "inception_3a/output"
  type: "Concat"
  bottom: "inception_3a/1x1"
  bottom: "inception_3a/3x3"
  bottom: "inception_3a/5x5"
  bottom: "inception_3a/pool_proj"
  top: "inception_3a/output"
}
layer {
  name: "inception_3b/1x1"
  type: "Convolution"
  bottom: "inception_3a/output"
  top: "inception_3b/1x1"
  param {
    lr_mult: 1
    decay_mult: 1
  }
  param {
    lr_mult: 2
    decay_mult: 0
  }
  convolution_param {
    num_output: 128
    kernel_size: 1
    weight_filler {
      type: "xavier"
      std: 0.03
    }
    bias_filler {
      type: "constant"
      value: 0.2
    }
  }
}
layer {
  name: "inception_3b/relu_1x1"
  type: "ReLU"
  bottom: "inception_3b/1x1"
  top: "inception_3b/1x1"
}
layer {
  name: "inception_3b/3x3_reduce"
  type: "Convolution"
  bottom: "inception_3a/output"
  top: "inception_3b/3x3_reduce"
  param {
    lr_mult: 1
    decay_mult: 1
  }
  param {
    lr_mult: 2
    decay_mult: 0
  }
  convolution_param {
    num_output: 128
    kernel_size: 1
    weight_filler {
      type: "xavier"
      std: 0.09
    }
    bias_filler {
      type: "constant"
      value: 0.2
    }
  }
}
layer {
  name: "inception_3b/relu_3x3_reduce"
  type: "ReLU"
  bottom: "inception_3b/3x3_reduce"
  top: "inception_3b/3x3_reduce"
}
layer {
  name: "inception_3b/3x3"
  type: "Convolution"
  bottom: "inception_3b/3x3_reduce"
  top: "inception_3b/3x3"
  param {
    lr_mult: 1
    decay_mult: 1
  }
  param {
    lr_mult: 2
    decay_mult: 0
  }
  convolution_param {
    num_output: 192
    pad: 1
    kernel_size: 3
    weight_filler {
      type: "xavier"
      std: 0.03
    }
    bias_filler {
      type: "constant"
      value: 0.2
    }
  }
}
layer {
  name: "inception_3b/relu_3x3"
  type: "ReLU"
  bottom: "inception_3b/3x3"
  top: "inception_3b/3x3"
}
layer {
  name: "inception_3b/5x5_reduce"
  type: "Convolution"
  bottom: "inception_3a/output"
  top: "inception_3b/5x5_reduce"
  param {
    lr_mult: 1
    decay_mult: 1
  }
  param {
    lr_mult: 2
    decay_mult: 0
  }
  convolution_param {
    num_output: 32
    kernel_size: 1
    weight_filler {
      type: "xavier"
      std: 0.2
    }
    bias_filler {
      type: "constant"
      value: 0.2
    }
  }
}
layer {
  name: "inception_3b/relu_5x5_reduce"
  type: "ReLU"
  bottom: "inception_3b/5x5_reduce"
  top: "inception_3b/5x5_reduce"
}
layer {
  name: "inception_3b/5x5"
  type: "Convolution"
  bottom: "inception_3b/5x5_reduce"
  top: "inception_3b/5x5"
  param {
    lr_mult: 1
    decay_mult: 1
  }
  param {
    lr_mult: 2
    decay_mult: 0
  }
  convolution_param {
    num_output: 96
    pad: 2
    kernel_size: 5
    weight_filler {
      type: "xavier"
      std: 0.03
    }
    bias_filler {
      type: "constant"
      value: 0.2
    }
  }
}
layer {
  name: "inception_3b/relu_5x5"
  type: "ReLU"
  bottom: "inception_3b/5x5"
  top: "inception_3b/5x5"
}
layer {
  name: "inception_3b/pool"
  type: "Pooling"
  bottom: "inception_3a/output"
  top: "inception_3b/pool"
  pooling_param {
    pool: MAX
    kernel_size: 3
    stride: 1
    pad: 1
  }
}
layer {
  name: "inception_3b/pool_proj"
  type: "Convolution"
  bottom: "inception_3b/pool"
  top: "inception_3b/pool_proj"
  param {
    lr_mult: 1
    decay_mult: 1
  }
  param {
    lr_mult: 2
    decay_mult: 0
  }
  convolution_param {
    num_output: 64
    kernel_size: 1
    weight_filler {
      type: "xavier"
      std: 0.1
    }
    bias_filler {
      type: "constant"
      value: 0.2
    }
  }
}
layer {
  name: "inception_3b/relu_pool_proj"
  type: "ReLU"
  bottom: "inception_3b/pool_proj"
  top: "inception_3b/pool_proj"
}
layer {
  name: "inception_3b/output"
  type: "Concat"
  bottom: "inception_3b/1x1"
  bottom: "inception_3b/3x3"
  bottom: "inception_3b/5x5"
  bottom: "inception_3b/pool_proj"
  top: "inception_3b/output"
}
layer {
  name: "pool3/3x3_s2"
  type: "Pooling"
  bottom: "inception_3b/output"
  top: "pool3/3x3_s2"
  pooling_param {
    pool: MAX
    kernel_size: 3
    stride: 2
  }
}
layer {
  name: "inception_4a/1x1"
  type: "Convolution"
  bottom: "pool3/3x3_s2"
  top: "inception_4a/1x1"
  param {
    lr_mult: 1
    decay_mult: 1
  }
  param {
    lr_mult: 2
    decay_mult: 0
  }
  convolution_param {
    num_output: 192
    kernel_size: 1
    weight_filler {
      type: "xavier"
      std: 0.03
    }
    bias_filler {
      type: "constant"
      value: 0.2
    }
  }
}
layer {
  name: "inception_4a/relu_1x1"
  type: "ReLU"
  bottom: "inception_4a/1x1"
  top: "inception_4a/1x1"
}
layer {
  name: "inception_4a/3x3_reduce"
  type: "Convolution"
  bottom: "pool3/3x3_s2"
  top: "inception_4a/3x3_reduce"
  param {
    lr_mult: 1
    decay_mult: 1
  }
  param {
    lr_mult: 2
    decay_mult: 0
  }
  convolution_param {
    num_output: 96
    kernel_size: 1
    weight_filler {
      type: "xavier"
      std: 0.09
    }
    bias_filler {
      type: "constant"
      value: 0.2
    }
  }
}
layer {
  name: "inception_4a/relu_3x3_reduce"
  type: "ReLU"
  bottom: "inception_4a/3x3_reduce"
  top: "inception_4a/3x3_reduce"
}
layer {
  name: "inception_4a/3x3"
  type: "Convolution"
  bottom: "inception_4a/3x3_reduce"
  top: "inception_4a/3x3"
  param {
    lr_mult: 1
    decay_mult: 1
  }
  param {
    lr_mult: 2
    decay_mult: 0
  }
  convolution_param {
    num_output: 208
    pad: 1
    kernel_size: 3
    weight_filler {
      type: "xavier"
      std: 0.03
    }
    bias_filler {
      type: "constant"
      value: 0.2
    }
  }
}
layer {
  name: "inception_4a/relu_3x3"
  type: "ReLU"
  bottom: "inception_4a/3x3"
  top: "inception_4a/3x3"
}
layer {
  name: "inception_4a/5x5_reduce"
  type: "Convolution"
  bottom: "pool3/3x3_s2"
  top: "inception_4a/5x5_reduce"
  param {
    lr_mult: 1
    decay_mult: 1
  }
  param {
    lr_mult: 2
    decay_mult: 0
  }
  convolution_param {
    num_output: 16
    kernel_size: 1
    weight_filler {
      type: "xavier"
      std: 0.2
    }
    bias_filler {
      type: "constant"
      value: 0.2
    }
  }
}
layer {
  name: "inception_4a/relu_5x5_reduce"
  type: "ReLU"
  bottom: "inception_4a/5x5_reduce"
  top: "inception_4a/5x5_reduce"
}
layer {
  name: "inception_4a/5x5"
  type: "Convolution"
  bottom: "inception_4a/5x5_reduce"
  top: "inception_4a/5x5"
  param {
    lr_mult: 1
    decay_mult: 1
  }
  param {
    lr_mult: 2
    decay_mult: 0
  }
  convolution_param {
    num_output: 48
    pad: 2
    kernel_size: 5
    weight_filler {
      type: "xavier"
      std: 0.03
    }
    bias_filler {
      type: "constant"
      value: 0.2
    }
  }
}
layer {
  name: "inception_4a/relu_5x5"
  type: "ReLU"
  bottom: "inception_4a/5x5"
  top: "inception_4a/5x5"
}
layer {
  name: "inception_4a/pool"
  type: "Pooling"
  bottom: "pool3/3x3_s2"
  top: "inception_4a/pool"
  pooling_param {
    pool: MAX
    kernel_size: 3
    stride: 1
    pad: 1
  }
}
layer {
  name: "inception_4a/pool_proj"
  type: "Convolution"
  bottom: "inception_4a/pool"
  top: "inception_4a/pool_proj"
  param {
    lr_mult: 1
    decay_mult: 1
  }
  param {
    lr_mult: 2
    decay_mult: 0
  }
  convolution_param {
    num_output: 64
    kernel_size: 1
    weight_filler {
      type: "xavier"
      std: 0.1
    }
    bias_filler {
      type: "constant"
      value: 0.2
    }
  }
}
layer {
  name: "inception_4a/relu_pool_proj"
  type: "ReLU"
  bottom: "inception_4a/pool_proj"
  top: "inception_4a/pool_proj"
}
layer {
  name: "inception_4a/output"
  type: "Concat"
  bottom: "inception_4a/1x1"
  bottom: "inception_4a/3x3"
  bottom: "inception_4a/5x5"
  bottom: "inception_4a/pool_proj"
  top: "inception_4a/output"
}
layer {
  name: "loss1/ave_pool"
  type: "Pooling"
  bottom: "inception_4a/output"
  top: "loss1/ave_pool"
  pooling_param {
    pool: AVE
    kernel_size: 5
    stride: 3
  }
}
layer {
  name: "loss1/conv"
  type: "Convolution"
  bottom: "loss1/ave_pool"
  top: "loss1/conv"
  param {
    lr_mult: 1
    decay_mult: 1
  }
  param {
    lr_mult: 2
    decay_mult: 0
  }
  convolution_param {
    num_output: 128
    kernel_size: 1
    weight_filler {
      type: "xavier"
      std: 0.08
    }
    bias_filler {
      type: "constant"
      value: 0.2
    }
  }
}
layer {
  name: "loss1/relu_conv"
  type: "ReLU"
  bottom: "loss1/conv"
  top: "loss1/conv"
}
layer {
  name: "loss1/fc"
  type: "InnerProduct"
  bottom: "loss1/conv"
  top: "loss1/fc"
  param {
    lr_mult: 1
    decay_mult: 1
  }
  param {
    lr_mult: 2
    decay_mult: 0
  }
  inner_product_param {
    num_output: 1024
    weight_filler {
      type: "xavier"
      std: 0.02
    }
    bias_filler {
      type: "constant"
      value: 0.2
    }
  }
}
layer {
  name: "loss1/relu_fc"
  type: "ReLU"
  bottom: "loss1/fc"
  top: "loss1/fc"
}
layer {
  name: "loss1/drop_fc"
  type: "Dropout"
  bottom: "loss1/fc"
  top: "loss1/fc"
  dropout_param {
    dropout_ratio: 0.7
  }
}
layer {
  name: "loss1/classifier_plantvillage"
  type: "InnerProduct"
  bottom: "loss1/fc"
  top: "loss1/classifier_plantvillage"
  param {
    lr_mult: 1
    decay_mult: 1
  }
  param {
    lr_mult: 2
    decay_mult: 0
  }
  inner_product_param {
    num_output: 38
    weight_filler {
      type: "xavier"
      std: 0.0009765625
    }
    bias_filler {
      type: "constant"
      value: 0
    }
  }
}
layer {
  name: "inception_4b/1x1"
  type: "Convolution"
  bottom: "inception_4a/output"
  top: "inception_4b/1x1"
  param {
    lr_mult: 1
    decay_mult: 1
  }
  param {
    lr_mult: 2
    decay_mult: 0
  }
  convolution_param {
    num_output: 160
    kernel_size: 1
    weight_filler {
      type: "xavier"
      std: 0.03
    }
    bias_filler {
      type: "constant"
      value: 0.2
    }
  }
}
layer {
  name: "inception_4b/relu_1x1"
  type: "ReLU"
  bottom: "inception_4b/1x1"
  top: "inception_4b/1x1"
}
layer {
  name: "inception_4b/3x3_reduce"
  type: "Convolution"
  bottom: "inception_4a/output"
  top: "inception_4b/3x3_reduce"
  param {
    lr_mult: 1
    decay_mult: 1
  }
  param {
    lr_mult: 2
    decay_mult: 0
  }
  convolution_param {
    num_output: 112
    kernel_size: 1
    weight_filler {
      type: "xavier"
      std: 0.09
    }
    bias_filler {
      type: "constant"
      value: 0.2
    }
  }
}
layer {
  name: "inception_4b/relu_3x3_reduce"
  type: "ReLU"
  bottom: "inception_4b/3x3_reduce"
  top: "inception_4b/3x3_reduce"
}
layer {
  name: "inception_4b/3x3"
  type: "Convolution"
  bottom: "inception_4b/3x3_reduce"
  top: "inception_4b/3x3"
  param {
    lr_mult: 1
    decay_mult: 1
  }
  param {
    lr_mult: 2
    decay_mult: 0
  }
  convolution_param {
    num_output: 224
    pad: 1
    kernel_size: 3
    weight_filler {
      type: "xavier"
      std: 0.03
    }
    bias_filler {
      type: "constant"
      value: 0.2
    }
  }
}
layer {
  name: "inception_4b/relu_3x3"
  type: "ReLU"
  bottom: "inception_4b/3x3"
  top: "inception_4b/3x3"
}
layer {
  name: "inception_4b/5x5_reduce"
  type: "Convolution"
  bottom: "inception_4a/output"
  top: "inception_4b/5x5_reduce"
  param {
    lr_mult: 1
    decay_mult: 1
  }
  param {
    lr_mult: 2
    decay_mult: 0
  }
  convolution_param {
    num_output: 24
    kernel_size: 1
    weight_filler {
      type: "xavier"
      std: 0.2
    }
    bias_filler {
      type: "constant"
      value: 0.2
    }
  }
}
layer {
  name: "inception_4b/relu_5x5_reduce"
  type: "ReLU"
  bottom: "inception_4b/5x5_reduce"
  top: "inception_4b/5x5_reduce"
}
layer {
  name: "inception_4b/5x5"
  type: "Convolution"
  bottom: "inception_4b/5x5_reduce"
  top: "inception_4b/5x5"
  param {
    lr_mult: 1
    decay_mult: 1
  }
  param {
    lr_mult: 2
    decay_mult: 0
  }
  convolution_param {
    num_output: 64
    pad: 2
    kernel_size: 5
    weight_filler {
      type: "xavier"
      std: 0.03
    }
    bias_filler {
      type: "constant"
      value: 0.2
    }
  }
}
layer {
  name: "inception_4b/relu_5x5"
  type: "ReLU"
  bottom: "inception_4b/5x5"
  top: "inception_4b/5x5"
}
layer {
  name: "inception_4b/pool"
  type: "Pooling"
  bottom: "inception_4a/output"
  top: "inception_4b/pool"
  pooling_param {
    pool: MAX
    kernel_size: 3
    stride: 1
    pad: 1
  }
}
layer {
  name: "inception_4b/pool_proj"
  type: "Convolution"
  bottom: "inception_4b/pool"
  top: "inception_4b/pool_proj"
  param {
    lr_mult: 1
    decay_mult: 1
  }
  param {
    lr_mult: 2
    decay_mult: 0
  }
  convolution_param {
    num_output: 64
    kernel_size: 1
    weight_filler {
      type: "xavier"
      std: 0.1
    }
    bias_filler {
      type: "constant"
      value: 0.2
    }
  }
}
layer {
  name: "inception_4b/relu_pool_proj"
  type: "ReLU"
  bottom: "inception_4b/pool_proj"
  top: "inception_4b/pool_proj"
}
layer {
  name: "inception_4b/output"
  type: "Concat"
  bottom: "inception_4b/1x1"
  bottom: "inception_4b/3x3"
  bottom: "inception_4b/5x5"
  bottom: "inception_4b/pool_proj"
  top: "inception_4b/output"
}
layer {
  name: "inception_4c/1x1"
  type: "Convolution"
  bottom: "inception_4b/output"
  top: "inception_4c/1x1"
  param {
    lr_mult: 1
    decay_mult: 1
  }
  param {
    lr_mult: 2
    decay_mult: 0
  }
  convolution_param {
    num_output: 128
    kernel_size: 1
    weight_filler {
      type: "xavier"
      std: 0.03
    }
    bias_filler {
      type: "constant"
      value: 0.2
    }
  }
}
layer {
  name: "inception_4c/relu_1x1"
  type: "ReLU"
  bottom: "inception_4c/1x1"
  top: "inception_4c/1x1"
}
layer {
  name: "inception_4c/3x3_reduce"
  type: "Convolution"
  bottom: "inception_4b/output"
  top: "inception_4c/3x3_reduce"
  param {
    lr_mult: 1
    decay_mult: 1
  }
  param {
    lr_mult: 2
    decay_mult: 0
  }
  convolution_param {
    num_output: 128
    kernel_size: 1
    weight_filler {
      type: "xavier"
      std: 0.09
    }
    bias_filler {
      type: "constant"
      value: 0.2
    }
  }
}
layer {
  name: "inception_4c/relu_3x3_reduce"
  type: "ReLU"
  bottom: "inception_4c/3x3_reduce"
  top: "inception_4c/3x3_reduce"
}
layer {
  name: "inception_4c/3x3"
  type: "Convolution"
  bottom: "inception_4c/3x3_reduce"
  top: "inception_4c/3x3"
  param {
    lr_mult: 1
    decay_mult: 1
  }
  param {
    lr_mult: 2
    decay_mult: 0
  }
  convolution_param {
    num_output: 256
    pad: 1
    kernel_size: 3
    weight_filler {
      type: "xavier"
      std: 0.03
    }
    bias_filler {
      type: "constant"
      value: 0.2
    }
  }
}
layer {
  name: "inception_4c/relu_3x3"
  type: "ReLU"
  bottom: "inception_4c/3x3"
  top: "inception_4c/3x3"
}
layer {
  name: "inception_4c/5x5_reduce"
  type: "Convolution"
  bottom: "inception_4b/output"
  top: "inception_4c/5x5_reduce"
  param {
    lr_mult: 1
    decay_mult: 1
  }
  param {
    lr_mult: 2
    decay_mult: 0
  }
  convolution_param {
    num_output: 24
    kernel_size: 1
    weight_filler {
      type: "xavier"
      std: 0.2
    }
    bias_filler {
      type: "constant"
      value: 0.2
    }
  }
}
layer {
  name: "inception_4c/relu_5x5_reduce"
  type: "ReLU"
  bottom: "inception_4c/5x5_reduce"
  top: "inception_4c/5x5_reduce"
}
layer {
  name: "inception_4c/5x5"
  type: "Convolution"
  bottom: "inception_4c/5x5_reduce"
  top: "inception_4c/5x5"
  param {
    lr_mult: 1
    decay_mult: 1
  }
  param {
    lr_mult: 2
    decay_mult: 0
  }
  convolution_param {
    num_output: 64
    pad: 2
    kernel_size: 5
    weight_filler {
      type: "xavier"
      std: 0.03
    }
    bias_filler {
      type: "constant"
      value: 0.2
    }
  }
}
layer {
  name: "inception_4c/relu_5x5"
  type: "ReLU"
  bottom: "inception_4c/5x5"
  top: "inception_4c/5x5"
}
layer {
  name: "inception_4c/pool"
  type: "Pooling"
  bottom: "inception_4b/output"
  top: "inception_4c/pool"
  pooling_param {
    pool: MAX
    kernel_size: 3
    stride: 1
    pad: 1
  }
}
layer {
  name: "inception_4c/pool_proj"
  type: "Convolution"
  bottom: "inception_4c/pool"
  top: "inception_4c/pool_proj"
  param {
    lr_mult: 1
    decay_mult: 1
  }
  param {
    lr_mult: 2
    decay_mult: 0
  }
  convolution_param {
    num_output: 64
    kernel_size: 1
    weight_filler {
      type: "xavier"
      std: 0.1
    }
    bias_filler {
      type: "constant"
      value: 0.2
    }
  }
}
layer {
  name: "inception_4c/relu_pool_proj"
  type: "ReLU"
  bottom: "inception_4c/pool_proj"
  top: "inception_4c/pool_proj"
}
layer {
  name: "inception_4c/output"
  type: "Concat"
  bottom: "inception_4c/1x1"
  bottom: "inception_4c/3x3"
  bottom: "inception_4c/5x5"
  bottom: "inception_4c/pool_proj"
  top: "inception_4c/output"
}
layer {
  name: "inception_4d/1x1"
  type: "Convolution"
  bottom: "inception_4c/output"
  top: "inception_4d/1x1"
  param {
    lr_mult: 1
    decay_mult: 1
  }
  param {
    lr_mult: 2
    decay_mult: 0
  }
  convolution_param {
    num_output: 112
    kernel_size: 1
    weight_filler {
      type: "xavier"
      std: 0.03
    }
    bias_filler {
      type: "constant"
      value: 0.2
    }
  }
}
layer {
  name: "inception_4d/relu_1x1"
  type: "ReLU"
  bottom: "inception_4d/1x1"
  top: "inception_4d/1x1"
}
layer {
  name: "inception_4d/3x3_reduce"
  type: "Convolution"
  bottom: "inception_4c/output"
  top: "inception_4d/3x3_reduce"
  param {
    lr_mult: 1
    decay_mult: 1
  }
  param {
    lr_mult: 2
    decay_mult: 0
  }
  convolution_param {
    num_output: 144
    kernel_size: 1
    weight_filler {
      type: "xavier"
      std: 0.09
    }
    bias_filler {
      type: "constant"
      value: 0.2
    }
  }
}
layer {
  name: "inception_4d/relu_3x3_reduce"
  type: "ReLU"
  bottom: "inception_4d/3x3_reduce"
  top: "inception_4d/3x3_reduce"
}
layer {
  name: "inception_4d/3x3"
  type: "Convolution"
  bottom: "inception_4d/3x3_reduce"
  top: "inception_4d/3x3"
  param {
    lr_mult: 1
    decay_mult: 1
  }
  param {
    lr_mult: 2
    decay_mult: 0
  }
  convolution_param {
    num_output: 288
    pad: 1
    kernel_size: 3
    weight_filler {
      type: "xavier"
      std: 0.03
    }
    bias_filler {
      type: "constant"
      value: 0.2
    }
  }
}
layer {
  name: "inception_4d/relu_3x3"
  type: "ReLU"
  bottom: "inception_4d/3x3"
  top: "inception_4d/3x3"
}
layer {
  name: "inception_4d/5x5_reduce"
  type: "Convolution"
  bottom: "inception_4c/output"
  top: "inception_4d/5x5_reduce"
  param {
    lr_mult: 1
    decay_mult: 1
  }
  param {
    lr_mult: 2
    decay_mult: 0
  }
  convolution_param {
    num_output: 32
    kernel_size: 1
    weight_filler {
      type: "xavier"
      std: 0.2
    }
    bias_filler {
      type: "constant"
      value: 0.2
    }
  }
}
layer {
  name: "inception_4d/relu_5x5_reduce"
  type: "ReLU"
  bottom: "inception_4d/5x5_reduce"
  top: "inception_4d/5x5_reduce"
}
layer {
  name: "inception_4d/5x5"
  type: "Convolution"
  bottom: "inception_4d/5x5_reduce"
  top: "inception_4d/5x5"
  param {
    lr_mult: 1
    decay_mult: 1
  }
  param {
    lr_mult: 2
    decay_mult: 0
  }
  convolution_param {
    num_output: 64
    pad: 2
    kernel_size: 5
    weight_filler {
      type: "xavier"
      std: 0.03
    }
    bias_filler {
      type: "constant"
      value: 0.2
    }
  }
}
layer {
  name: "inception_4d/relu_5x5"
  type: "ReLU"
  bottom: "inception_4d/5x5"
  top: "inception_4d/5x5"
}
layer {
  name: "inception_4d/pool"
  type: "Pooling"
  bottom: "inception_4c/output"
  top: "inception_4d/pool"
  pooling_param {
    pool: MAX
    kernel_size: 3
    stride: 1
    pad: 1
  }
}
layer {
  name: "inception_4d/pool_proj"
  type: "Convolution"
  bottom: "inception_4d/pool"
  top: "inception_4d/pool_proj"
  param {
    lr_mult: 1
    decay_mult: 1
  }
  param {
    lr_mult: 2
    decay_mult: 0
  }
  convolution_param {
    num_output: 64
    kernel_size: 1
    weight_filler {
      type: "xavier"
      std: 0.1
    }
    bias_filler {
      type: "constant"
      value: 0.2
    }
  }
}
layer {
  name: "inception_4d/relu_pool_proj"
  type: "ReLU"
  bottom: "inception_4d/pool_proj"
  top: "inception_4d/pool_proj"
}
layer {
  name: "inception_4d/output"
  type: "Concat"
  bottom: "inception_4d/1x1"
  bottom: "inception_4d/3x3"
  bottom: "inception_4d/5x5"
  bottom: "inception_4d/pool_proj"
  top: "inception_4d/output"
}
layer {
  name: "loss2/ave_pool"
  type: "Pooling"
  bottom: "inception_4d/output"
  top: "loss2/ave_pool"
  pooling_param {
    pool: AVE
    kernel_size: 5
    stride: 3
  }
}
layer {
  name: "loss2/conv"
  type: "Convolution"
  bottom: "loss2/ave_pool"
  top: "loss2/conv"
  param {
    lr_mult: 1
    decay_mult: 1
  }
  param {
    lr_mult: 2
    decay_mult: 0
  }
  convolution_param {
    num_output: 128
    kernel_size: 1
    weight_filler {
      type: "xavier"
      std: 0.08
    }
    bias_filler {
      type: "constant"
      value: 0.2
    }
  }
}
layer {
  name: "loss2/relu_conv"
  type: "ReLU"
  bottom: "loss2/conv"
  top: "loss2/conv"
}
layer {
  name: "loss2/fc"
  type: "InnerProduct"
  bottom: "loss2/conv"
  top: "loss2/fc"
  param {
    lr_mult: 1
    decay_mult: 1
  }
  param {
    lr_mult: 2
    decay_mult: 0
  }
  inner_product_param {
    num_output: 1024
    weight_filler {
      type: "xavier"
      std: 0.02
    }
    bias_filler {
      type: "constant"
      value: 0.2
    }
  }
}
layer {
  name: "loss2/relu_fc"
  type: "ReLU"
  bottom: "loss2/fc"
  top: "loss2/fc"
}
layer {
  name: "loss2/drop_fc"
  type: "Dropout"
  bottom: "loss2/fc"
  top: "loss2/fc"
  dropout_param {
    dropout_ratio: 0.7
  }
}
layer {
  name: "loss2/classifier_plantvillage"
  type: "InnerProduct"
  bottom: "loss2/fc"
  top: "loss2/classifier_plantvillage"
  param {
    lr_mult: 1
    decay_mult: 1
  }
  param {
    lr_mult: 2
    decay_mult: 0
  }
  inner_product_param {
    num_output: 38
    weight_filler {
      type: "xavier"
      std: 0.0009765625
    }
    bias_filler {
      type: "constant"
      value: 0
    }
  }
}
layer {
  name: "inception_4e/1x1"
  type: "Convolution"
  bottom: "inception_4d/output"
  top: "inception_4e/1x1"
  param {
    lr_mult: 1
    decay_mult: 1
  }
  param {
    lr_mult: 2
    decay_mult: 0
  }
  convolution_param {
    num_output: 256
    kernel_size: 1
    weight_filler {
      type: "xavier"
      std: 0.03
    }
    bias_filler {
      type: "constant"
      value: 0.2
    }
  }
}
layer {
  name: "inception_4e/relu_1x1"
  type: "ReLU"
  bottom: "inception_4e/1x1"
  top: "inception_4e/1x1"
}
layer {
  name: "inception_4e/3x3_reduce"
  type: "Convolution"
  bottom: "inception_4d/output"
  top: "inception_4e/3x3_reduce"
  param {
    lr_mult: 1
    decay_mult: 1
  }
  param {
    lr_mult: 2
    decay_mult: 0
  }
  convolution_param {
    num_output: 160
    kernel_size: 1
    weight_filler {
      type: "xavier"
      std: 0.09
    }
    bias_filler {
      type: "constant"
      value: 0.2
    }
  }
}
layer {
  name: "inception_4e/relu_3x3_reduce"
  type: "ReLU"
  bottom: "inception_4e/3x3_reduce"
  top: "inception_4e/3x3_reduce"
}
layer {
  name: "inception_4e/3x3"
  type: "Convolution"
  bottom: "inception_4e/3x3_reduce"
  top: "inception_4e/3x3"
  param {
    lr_mult: 1
    decay_mult: 1
  }
  param {
    lr_mult: 2
    decay_mult: 0
  }
  convolution_param {
    num_output: 320
    pad: 1
    kernel_size: 3
    weight_filler {
      type: "xavier"
      std: 0.03
    }
    bias_filler {
      type: "constant"
      value: 0.2
    }
  }
}
layer {
  name: "inception_4e/relu_3x3"
  type: "ReLU"
  bottom: "inception_4e/3x3"
  top: "inception_4e/3x3"
}
layer {
  name: "inception_4e/5x5_reduce"
  type: "Convolution"
  bottom: "inception_4d/output"
  top: "inception_4e/5x5_reduce"
  param {
    lr_mult: 1
    decay_mult: 1
  }
  param {
    lr_mult: 2
    decay_mult: 0
  }
  convolution_param {
    num_output: 32
    kernel_size: 1
    weight_filler {
      type: "xavier"
      std: 0.2
    }
    bias_filler {
      type: "constant"
      value: 0.2
    }
  }
}
layer {
  name: "inception_4e/relu_5x5_reduce"
  type: "ReLU"
  bottom: "inception_4e/5x5_reduce"
  top: "inception_4e/5x5_reduce"
}
layer {
  name: "inception_4e/5x5"
  type: "Convolution"
  bottom: "inception_4e/5x5_reduce"
  top: "inception_4e/
I0403 18:35:58.527174 22921 layer_factory.hpp:77] Creating layer data
I0403 18:35:58.527760 22921 net.cpp:91] Creating Layer data
I0403 18:35:58.527792 22921 net.cpp:399] data -> data
I0403 18:35:58.527842 22921 net.cpp:399] data -> label
I0403 18:35:58.527878 22921 data_transformer.cpp:25] Loading mean file from: /home/mohanty/data/final_dataset/lmdb/segmented-40-60/mean.binaryproto
I0403 18:35:58.529069 22924 db_lmdb.cpp:38] Opened lmdb /home/mohanty/data/final_dataset/lmdb/segmented-40-60/test_db
I0403 18:35:58.540819 22921 data_layer.cpp:41] output data size: 24,3,224,224
I0403 18:35:58.567512 22921 net.cpp:141] Setting up data
I0403 18:35:58.567591 22921 net.cpp:148] Top shape: 24 3 224 224 (3612672)
I0403 18:35:58.567613 22921 net.cpp:148] Top shape: 24 (24)
I0403 18:35:58.567628 22921 net.cpp:156] Memory required for data: 14450784
I0403 18:35:58.567656 22921 layer_factory.hpp:77] Creating layer label_data_1_split
I0403 18:35:58.567682 22921 net.cpp:91] Creating Layer label_data_1_split
I0403 18:35:58.567699 22921 net.cpp:425] label_data_1_split <- label
I0403 18:35:58.567730 22921 net.cpp:399] label_data_1_split -> label_data_1_split_0
I0403 18:35:58.567757 22921 net.cpp:399] label_data_1_split -> label_data_1_split_1
I0403 18:35:58.567778 22921 net.cpp:399] label_data_1_split -> label_data_1_split_2
I0403 18:35:58.567800 22921 net.cpp:399] label_data_1_split -> label_data_1_split_3
I0403 18:35:58.567817 22921 net.cpp:399] label_data_1_split -> label_data_1_split_4
I0403 18:35:58.567837 22921 net.cpp:399] label_data_1_split -> label_data_1_split_5
I0403 18:35:58.567855 22921 net.cpp:399] label_data_1_split -> label_data_1_split_6
I0403 18:35:58.567875 22921 net.cpp:399] label_data_1_split -> label_data_1_split_7
I0403 18:35:58.567894 22921 net.cpp:399] label_data_1_split -> label_data_1_split_8
I0403 18:35:58.567914 22921 net.cpp:399] label_data_1_split -> label_data_1_split_9
I0403 18:35:58.568028 22921 net.cpp:141] Setting up label_data_1_split
I0403 18:35:58.568051 22921 net.cpp:148] Top shape: 24 (24)
I0403 18:35:58.568068 22921 net.cpp:148] Top shape: 24 (24)
I0403 18:35:58.568084 22921 net.cpp:148] Top shape: 24 (24)
I0403 18:35:58.568099 22921 net.cpp:148] Top shape: 24 (24)
I0403 18:35:58.568114 22921 net.cpp:148] Top shape: 24 (24)
I0403 18:35:58.568127 22921 net.cpp:148] Top shape: 24 (24)
I0403 18:35:58.568142 22921 net.cpp:148] Top shape: 24 (24)
I0403 18:35:58.568156 22921 net.cpp:148] Top shape: 24 (24)
I0403 18:35:58.568171 22921 net.cpp:148] Top shape: 24 (24)
I0403 18:35:58.568187 22921 net.cpp:148] Top shape: 24 (24)
I0403 18:35:58.568238 22921 net.cpp:156] Memory required for data: 14451744
I0403 18:35:58.568253 22921 layer_factory.hpp:77] Creating layer conv1/7x7_s2
I0403 18:35:58.568284 22921 net.cpp:91] Creating Layer conv1/7x7_s2
I0403 18:35:58.568301 22921 net.cpp:425] conv1/7x7_s2 <- data
I0403 18:35:58.568320 22921 net.cpp:399] conv1/7x7_s2 -> conv1/7x7_s2
I0403 18:35:58.708832 22921 net.cpp:141] Setting up conv1/7x7_s2
I0403 18:35:58.708907 22921 net.cpp:148] Top shape: 24 64 112 112 (19267584)
I0403 18:35:58.708923 22921 net.cpp:156] Memory required for data: 91522080
I0403 18:35:58.708952 22921 layer_factory.hpp:77] Creating layer conv1/relu_7x7
I0403 18:35:58.708978 22921 net.cpp:91] Creating Layer conv1/relu_7x7
I0403 18:35:58.708995 22921 net.cpp:425] conv1/relu_7x7 <- conv1/7x7_s2
I0403 18:35:58.709013 22921 net.cpp:386] conv1/relu_7x7 -> conv1/7x7_s2 (in-place)
I0403 18:35:58.709250 22921 net.cpp:141] Setting up conv1/relu_7x7
I0403 18:35:58.709275 22921 net.cpp:148] Top shape: 24 64 112 112 (19267584)
I0403 18:35:58.709291 22921 net.cpp:156] Memory required for data: 168592416
I0403 18:35:58.709306 22921 layer_factory.hpp:77] Creating layer pool1/3x3_s2
I0403 18:35:58.709327 22921 net.cpp:91] Creating Layer pool1/3x3_s2
I0403 18:35:58.709343 22921 net.cpp:425] pool1/3x3_s2 <- conv1/7x7_s2
I0403 18:35:58.709360 22921 net.cpp:399] pool1/3x3_s2 -> pool1/3x3_s2
I0403 18:35:58.709430 22921 net.cpp:141] Setting up pool1/3x3_s2
I0403 18:35:58.709453 22921 net.cpp:148] Top shape: 24 64 56 56 (4816896)
I0403 18:35:58.709467 22921 net.cpp:156] Memory required for data: 187860000
I0403 18:35:58.709481 22921 layer_factory.hpp:77] Creating layer pool1/norm1
I0403 18:35:58.709502 22921 net.cpp:91] Creating Layer pool1/norm1
I0403 18:35:58.709523 22921 net.cpp:425] pool1/norm1 <- pool1/3x3_s2
I0403 18:35:58.709540 22921 net.cpp:399] pool1/norm1 -> pool1/norm1
I0403 18:35:58.709802 22921 net.cpp:141] Setting up pool1/norm1
I0403 18:35:58.709828 22921 net.cpp:148] Top shape: 24 64 56 56 (4816896)
I0403 18:35:58.709842 22921 net.cpp:156] Memory required for data: 207127584
I0403 18:35:58.709856 22921 layer_factory.hpp:77] Creating layer conv2/3x3_reduce
I0403 18:35:58.709878 22921 net.cpp:91] Creating Layer conv2/3x3_reduce
I0403 18:35:58.709894 22921 net.cpp:425] conv2/3x3_reduce <- pool1/norm1
I0403 18:35:58.709911 22921 net.cpp:399] conv2/3x3_reduce -> conv2/3x3_reduce
I0403 18:35:58.711153 22921 net.cpp:141] Setting up conv2/3x3_reduce
I0403 18:35:58.711179 22921 net.cpp:148] Top shape: 24 64 56 56 (4816896)
I0403 18:35:58.711194 22921 net.cpp:156] Memory required for data: 226395168
I0403 18:35:58.711213 22921 layer_factory.hpp:77] Creating layer conv2/relu_3x3_reduce
I0403 18:35:58.711230 22921 net.cpp:91] Creating Layer conv2/relu_3x3_reduce
I0403 18:35:58.711246 22921 net.cpp:425] conv2/relu_3x3_reduce <- conv2/3x3_reduce
I0403 18:35:58.711261 22921 net.cpp:386] conv2/relu_3x3_reduce -> conv2/3x3_reduce (in-place)
I0403 18:35:58.711493 22921 net.cpp:141] Setting up conv2/relu_3x3_reduce
I0403 18:35:58.711521 22921 net.cpp:148] Top shape: 24 64 56 56 (4816896)
I0403 18:35:58.711536 22921 net.cpp:156] Memory required for data: 245662752
I0403 18:35:58.711549 22921 layer_factory.hpp:77] Creating layer conv2/3x3
I0403 18:35:58.711570 22921 net.cpp:91] Creating Layer conv2/3x3
I0403 18:35:58.711586 22921 net.cpp:425] conv2/3x3 <- conv2/3x3_reduce
I0403 18:35:58.711603 22921 net.cpp:399] conv2/3x3 -> conv2/3x3
I0403 18:35:58.713678 22921 net.cpp:141] Setting up conv2/3x3
I0403 18:35:58.713706 22921 net.cpp:148] Top shape: 24 192 56 56 (14450688)
I0403 18:35:58.713722 22921 net.cpp:156] Memory required for data: 303465504
I0403 18:35:58.713742 22921 layer_factory.hpp:77] Creating layer conv2/relu_3x3
I0403 18:35:58.713759 22921 net.cpp:91] Creating Layer conv2/relu_3x3
I0403 18:35:58.713774 22921 net.cpp:425] conv2/relu_3x3 <- conv2/3x3
I0403 18:35:58.713791 22921 net.cpp:386] conv2/relu_3x3 -> conv2/3x3 (in-place)
I0403 18:35:58.713953 22921 net.cpp:141] Setting up conv2/relu_3x3
I0403 18:35:58.713978 22921 net.cpp:148] Top shape: 24 192 56 56 (14450688)
I0403 18:35:58.714025 22921 net.cpp:156] Memory required for data: 361268256
I0403 18:35:58.714040 22921 layer_factory.hpp:77] Creating layer conv2/norm2
I0403 18:35:58.714059 22921 net.cpp:91] Creating Layer conv2/norm2
I0403 18:35:58.714074 22921 net.cpp:425] conv2/norm2 <- conv2/3x3
I0403 18:35:58.714090 22921 net.cpp:399] conv2/norm2 -> conv2/norm2
I0403 18:35:58.714376 22921 net.cpp:141] Setting up conv2/norm2
I0403 18:35:58.714403 22921 net.cpp:148] Top shape: 24 192 56 56 (14450688)
I0403 18:35:58.714418 22921 net.cpp:156] Memory required for data: 419071008
I0403 18:35:58.714432 22921 layer_factory.hpp:77] Creating layer pool2/3x3_s2
I0403 18:35:58.714448 22921 net.cpp:91] Creating Layer pool2/3x3_s2
I0403 18:35:58.714462 22921 net.cpp:425] pool2/3x3_s2 <- conv2/norm2
I0403 18:35:58.714478 22921 net.cpp:399] pool2/3x3_s2 -> pool2/3x3_s2
I0403 18:35:58.714542 22921 net.cpp:141] Setting up pool2/3x3_s2
I0403 18:35:58.714566 22921 net.cpp:148] Top shape: 24 192 28 28 (3612672)
I0403 18:35:58.714579 22921 net.cpp:156] Memory required for data: 433521696
I0403 18:35:58.714592 22921 layer_factory.hpp:77] Creating layer pool2/3x3_s2_pool2/3x3_s2_0_split
I0403 18:35:58.714612 22921 net.cpp:91] Creating Layer pool2/3x3_s2_pool2/3x3_s2_0_split
I0403 18:35:58.714627 22921 net.cpp:425] pool2/3x3_s2_pool2/3x3_s2_0_split <- pool2/3x3_s2
I0403 18:35:58.714643 22921 net.cpp:399] pool2/3x3_s2_pool2/3x3_s2_0_split -> pool2/3x3_s2_pool2/3x3_s2_0_split_0
I0403 18:35:58.714660 22921 net.cpp:399] pool2/3x3_s2_pool2/3x3_s2_0_split -> pool2/3x3_s2_pool2/3x3_s2_0_split_1
I0403 18:35:58.714679 22921 net.cpp:399] pool2/3x3_s2_pool2/3x3_s2_0_split -> pool2/3x3_s2_pool2/3x3_s2_0_split_2
I0403 18:35:58.714699 22921 net.cpp:399] pool2/3x3_s2_pool2/3x3_s2_0_split -> pool2/3x3_s2_pool2/3x3_s2_0_split_3
I0403 18:35:58.714767 22921 net.cpp:141] Setting up pool2/3x3_s2_pool2/3x3_s2_0_split
I0403 18:35:58.714788 22921 net.cpp:148] Top shape: 24 192 28 28 (3612672)
I0403 18:35:58.714803 22921 net.cpp:148] Top shape: 24 192 28 28 (3612672)
I0403 18:35:58.714818 22921 net.cpp:148] Top shape: 24 192 28 28 (3612672)
I0403 18:35:58.714831 22921 net.cpp:148] Top shape: 24 192 28 28 (3612672)
I0403 18:35:58.714844 22921 net.cpp:156] Memory required for data: 491324448
I0403 18:35:58.714857 22921 layer_factory.hpp:77] Creating layer inception_3a/1x1
I0403 18:35:58.714877 22921 net.cpp:91] Creating Layer inception_3a/1x1
I0403 18:35:58.714895 22921 net.cpp:425] inception_3a/1x1 <- pool2/3x3_s2_pool2/3x3_s2_0_split_0
I0403 18:35:58.714913 22921 net.cpp:399] inception_3a/1x1 -> inception_3a/1x1
I0403 18:35:58.716343 22921 net.cpp:141] Setting up inception_3a/1x1
I0403 18:35:58.716372 22921 net.cpp:148] Top shape: 24 64 28 28 (1204224)
I0403 18:35:58.716388 22921 net.cpp:156] Memory required for data: 496141344
I0403 18:35:58.716405 22921 layer_factory.hpp:77] Creating layer inception_3a/relu_1x1
I0403 18:35:58.716423 22921 net.cpp:91] Creating Layer inception_3a/relu_1x1
I0403 18:35:58.716437 22921 net.cpp:425] inception_3a/relu_1x1 <- inception_3a/1x1
I0403 18:35:58.716456 22921 net.cpp:386] inception_3a/relu_1x1 -> inception_3a/1x1 (in-place)
I0403 18:35:58.716619 22921 net.cpp:141] Setting up inception_3a/relu_1x1
I0403 18:35:58.716642 22921 net.cpp:148] Top shape: 24 64 28 28 (1204224)
I0403 18:35:58.716655 22921 net.cpp:156] Memory required for data: 500958240
I0403 18:35:58.716670 22921 layer_factory.hpp:77] Creating layer inception_3a/3x3_reduce
I0403 18:35:58.716689 22921 net.cpp:91] Creating Layer inception_3a/3x3_reduce
I0403 18:35:58.716706 22921 net.cpp:425] inception_3a/3x3_reduce <- pool2/3x3_s2_pool2/3x3_s2_0_split_1
I0403 18:35:58.716724 22921 net.cpp:399] inception_3a/3x3_reduce -> inception_3a/3x3_reduce
I0403 18:35:58.718343 22921 net.cpp:141] Setting up inception_3a/3x3_reduce
I0403 18:35:58.718369 22921 net.cpp:148] Top shape: 24 96 28 28 (1806336)
I0403 18:35:58.718384 22921 net.cpp:156] Memory required for data: 508183584
I0403 18:35:58.718403 22921 layer_factory.hpp:77] Creating layer inception_3a/relu_3x3_reduce
I0403 18:35:58.718439 22921 net.cpp:91] Creating Layer inception_3a/relu_3x3_reduce
I0403 18:35:58.718456 22921 net.cpp:425] inception_3a/relu_3x3_reduce <- inception_3a/3x3_reduce
I0403 18:35:58.718472 22921 net.cpp:386] inception_3a/relu_3x3_reduce -> inception_3a/3x3_reduce (in-place)
I0403 18:35:58.718644 22921 net.cpp:141] Setting up inception_3a/relu_3x3_reduce
I0403 18:35:58.718672 22921 net.cpp:148] Top shape: 24 96 28 28 (1806336)
I0403 18:35:58.718686 22921 net.cpp:156] Memory required for data: 515408928
I0403 18:35:58.718700 22921 layer_factory.hpp:77] Creating layer inception_3a/3x3
I0403 18:35:58.718720 22921 net.cpp:91] Creating Layer inception_3a/3x3
I0403 18:35:58.718735 22921 net.cpp:425] inception_3a/3x3 <- inception_3a/3x3_reduce
I0403 18:35:58.718754 22921 net.cpp:399] inception_3a/3x3 -> inception_3a/3x3
I0403 18:35:58.720289 22921 net.cpp:141] Setting up inception_3a/3x3
I0403 18:35:58.720316 22921 net.cpp:148] Top shape: 24 128 28 28 (2408448)
I0403 18:35:58.720330 22921 net.cpp:156] Memory required for data: 525042720
I0403 18:35:58.720347 22921 layer_factory.hpp:77] Creating layer inception_3a/relu_3x3
I0403 18:35:58.720366 22921 net.cpp:91] Creating Layer inception_3a/relu_3x3
I0403 18:35:58.720382 22921 net.cpp:425] inception_3a/relu_3x3 <- inception_3a/3x3
I0403 18:35:58.720398 22921 net.cpp:386] inception_3a/relu_3x3 -> inception_3a/3x3 (in-place)
I0403 18:35:58.720660 22921 net.cpp:141] Setting up inception_3a/relu_3x3
I0403 18:35:58.720685 22921 net.cpp:148] Top shape: 24 128 28 28 (2408448)
I0403 18:35:58.720700 22921 net.cpp:156] Memory required for data: 534676512
I0403 18:35:58.720713 22921 layer_factory.hpp:77] Creating layer inception_3a/5x5_reduce
I0403 18:35:58.720734 22921 net.cpp:91] Creating Layer inception_3a/5x5_reduce
I0403 18:35:58.720752 22921 net.cpp:425] inception_3a/5x5_reduce <- pool2/3x3_s2_pool2/3x3_s2_0_split_2
I0403 18:35:58.720770 22921 net.cpp:399] inception_3a/5x5_reduce -> inception_3a/5x5_reduce
I0403 18:35:58.721664 22921 net.cpp:141] Setting up inception_3a/5x5_reduce
I0403 18:35:58.721690 22921 net.cpp:148] Top shape: 24 16 28 28 (301056)
I0403 18:35:58.721704 22921 net.cpp:156] Memory required for data: 535880736
I0403 18:35:58.721721 22921 layer_factory.hpp:77] Creating layer inception_3a/relu_5x5_reduce
I0403 18:35:58.721740 22921 net.cpp:91] Creating Layer inception_3a/relu_5x5_reduce
I0403 18:35:58.721756 22921 net.cpp:425] inception_3a/relu_5x5_reduce <- inception_3a/5x5_reduce
I0403 18:35:58.721772 22921 net.cpp:386] inception_3a/relu_5x5_reduce -> inception_3a/5x5_reduce (in-place)
I0403 18:35:58.722043 22921 net.cpp:141] Setting up inception_3a/relu_5x5_reduce
I0403 18:35:58.722067 22921 net.cpp:148] Top shape: 24 16 28 28 (301056)
I0403 18:35:58.722081 22921 net.cpp:156] Memory required for data: 537084960
I0403 18:35:58.722095 22921 layer_factory.hpp:77] Creating layer inception_3a/5x5
I0403 18:35:58.722115 22921 net.cpp:91] Creating Layer inception_3a/5x5
I0403 18:35:58.722132 22921 net.cpp:425] inception_3a/5x5 <- inception_3a/5x5_reduce
I0403 18:35:58.722151 22921 net.cpp:399] inception_3a/5x5 -> inception_3a/5x5
I0403 18:35:58.723130 22921 net.cpp:141] Setting up inception_3a/5x5
I0403 18:35:58.723156 22921 net.cpp:148] Top shape: 24 32 28 28 (602112)
I0403 18:35:58.723171 22921 net.cpp:156] Memory required for data: 539493408
I0403 18:35:58.723187 22921 layer_factory.hpp:77] Creating layer inception_3a/relu_5x5
I0403 18:35:58.723204 22921 net.cpp:91] Creating Layer inception_3a/relu_5x5
I0403 18:35:58.723219 22921 net.cpp:425] inception_3a/relu_5x5 <- inception_3a/5x5
I0403 18:35:58.723237 22921 net.cpp:386] inception_3a/relu_5x5 -> inception_3a/5x5 (in-place)
I0403 18:35:58.723402 22921 net.cpp:141] Setting up inception_3a/relu_5x5
I0403 18:35:58.723425 22921 net.cpp:148] Top shape: 24 32 28 28 (602112)
I0403 18:35:58.723438 22921 net.cpp:156] Memory required for data: 541901856
I0403 18:35:58.723451 22921 layer_factory.hpp:77] Creating layer inception_3a/pool
I0403 18:35:58.723469 22921 net.cpp:91] Creating Layer inception_3a/pool
I0403 18:35:58.723498 22921 net.cpp:425] inception_3a/pool <- pool2/3x3_s2_pool2/3x3_s2_0_split_3
I0403 18:35:58.723520 22921 net.cpp:399] inception_3a/pool -> inception_3a/pool
I0403 18:35:58.723577 22921 net.cpp:141] Setting up inception_3a/pool
I0403 18:35:58.723598 22921 net.cpp:148] Top shape: 24 192 28 28 (3612672)
I0403 18:35:58.723613 22921 net.cpp:156] Memory required for data: 556352544
I0403 18:35:58.723625 22921 layer_factory.hpp:77] Creating layer inception_3a/pool_proj
I0403 18:35:58.723645 22921 net.cpp:91] Creating Layer inception_3a/pool_proj
I0403 18:35:58.723661 22921 net.cpp:425] inception_3a/pool_proj <- inception_3a/pool
I0403 18:35:58.723682 22921 net.cpp:399] inception_3a/pool_proj -> inception_3a/pool_proj
I0403 18:35:58.724592 22921 net.cpp:141] Setting up inception_3a/pool_proj
I0403 18:35:58.724618 22921 net.cpp:148] Top shape: 24 32 28 28 (602112)
I0403 18:35:58.724633 22921 net.cpp:156] Memory required for data: 558760992
I0403 18:35:58.724654 22921 layer_factory.hpp:77] Creating layer inception_3a/relu_pool_proj
I0403 18:35:58.724676 22921 net.cpp:91] Creating Layer inception_3a/relu_pool_proj
I0403 18:35:58.724692 22921 net.cpp:425] inception_3a/relu_pool_proj <- inception_3a/pool_proj
I0403 18:35:58.724709 22921 net.cpp:386] inception_3a/relu_pool_proj -> inception_3a/pool_proj (in-place)
I0403 18:35:58.724967 22921 net.cpp:141] Setting up inception_3a/relu_pool_proj
I0403 18:35:58.724992 22921 net.cpp:148] Top shape: 24 32 28 28 (602112)
I0403 18:35:58.725006 22921 net.cpp:156] Memory required for data: 561169440
I0403 18:35:58.725020 22921 layer_factory.hpp:77] Creating layer inception_3a/output
I0403 18:35:58.725036 22921 net.cpp:91] Creating Layer inception_3a/output
I0403 18:35:58.725051 22921 net.cpp:425] inception_3a/output <- inception_3a/1x1
I0403 18:35:58.725066 22921 net.cpp:425] inception_3a/output <- inception_3a/3x3
I0403 18:35:58.725080 22921 net.cpp:425] inception_3a/output <- inception_3a/5x5
I0403 18:35:58.725095 22921 net.cpp:425] inception_3a/output <- inception_3a/pool_proj
I0403 18:35:58.725112 22921 net.cpp:399] inception_3a/output -> inception_3a/output
I0403 18:35:58.725155 22921 net.cpp:141] Setting up inception_3a/output
I0403 18:35:58.725180 22921 net.cpp:148] Top shape: 24 256 28 28 (4816896)
I0403 18:35:58.725195 22921 net.cpp:156] Memory required for data: 580437024
I0403 18:35:58.725208 22921 layer_factory.hpp:77] Creating layer inception_3a/output_inception_3a/output_0_split
I0403 18:35:58.725224 22921 net.cpp:91] Creating Layer inception_3a/output_inception_3a/output_0_split
I0403 18:35:58.725239 22921 net.cpp:425] inception_3a/output_inception_3a/output_0_split <- inception_3a/output
I0403 18:35:58.725256 22921 net.cpp:399] inception_3a/output_inception_3a/output_0_split -> inception_3a/output_inception_3a/output_0_split_0
I0403 18:35:58.725276 22921 net.cpp:399] inception_3a/output_inception_3a/output_0_split -> inception_3a/output_inception_3a/output_0_split_1
I0403 18:35:58.725298 22921 net.cpp:399] inception_3a/output_inception_3a/output_0_split -> inception_3a/output_inception_3a/output_0_split_2
I0403 18:35:58.725318 22921 net.cpp:399] inception_3a/output_inception_3a/output_0_split -> inception_3a/output_inception_3a/output_0_split_3
I0403 18:35:58.725389 22921 net.cpp:141] Setting up inception_3a/output_inception_3a/output_0_split
I0403 18:35:58.725410 22921 net.cpp:148] Top shape: 24 256 28 28 (4816896)
I0403 18:35:58.725425 22921 net.cpp:148] Top shape: 24 256 28 28 (4816896)
I0403 18:35:58.725440 22921 net.cpp:148] Top shape: 24 256 28 28 (4816896)
I0403 18:35:58.725455 22921 net.cpp:148] Top shape: 24 256 28 28 (4816896)
I0403 18:35:58.725467 22921 net.cpp:156] Memory required for data: 657507360
I0403 18:35:58.725481 22921 layer_factory.hpp:77] Creating layer inception_3b/1x1
I0403 18:35:58.725500 22921 net.cpp:91] Creating Layer inception_3b/1x1
I0403 18:35:58.725522 22921 net.cpp:425] inception_3b/1x1 <- inception_3a/output_inception_3a/output_0_split_0
I0403 18:35:58.725543 22921 net.cpp:399] inception_3b/1x1 -> inception_3b/1x1
I0403 18:35:58.726613 22921 net.cpp:141] Setting up inception_3b/1x1
I0403 18:35:58.726651 22921 net.cpp:148] Top shape: 24 128 28 28 (2408448)
I0403 18:35:58.726667 22921 net.cpp:156] Memory required for data: 667141152
I0403 18:35:58.726685 22921 layer_factory.hpp:77] Creating layer inception_3b/relu_1x1
I0403 18:35:58.726701 22921 net.cpp:91] Creating Layer inception_3b/relu_1x1
I0403 18:35:58.726716 22921 net.cpp:425] inception_3b/relu_1x1 <- inception_3b/1x1
I0403 18:35:58.726734 22921 net.cpp:386] inception_3b/relu_1x1 -> inception_3b/1x1 (in-place)
I0403 18:35:58.726902 22921 net.cpp:141] Setting up inception_3b/relu_1x1
I0403 18:35:58.726927 22921 net.cpp:148] Top shape: 24 128 28 28 (2408448)
I0403 18:35:58.726940 22921 net.cpp:156] Memory required for data: 676774944
I0403 18:35:58.726953 22921 layer_factory.hpp:77] Creating layer inception_3b/3x3_reduce
I0403 18:35:58.726974 22921 net.cpp:91] Creating Layer inception_3b/3x3_reduce
I0403 18:35:58.726990 22921 net.cpp:425] inception_3b/3x3_reduce <- inception_3a/output_inception_3a/output_0_split_1
I0403 18:35:58.727010 22921 net.cpp:399] inception_3b/3x3_reduce -> inception_3b/3x3_reduce
I0403 18:35:58.728073 22921 net.cpp:141] Setting up inception_3b/3x3_reduce
I0403 18:35:58.728101 22921 net.cpp:148] Top shape: 24 128 28 28 (2408448)
I0403 18:35:58.728117 22921 net.cpp:156] Memory required for data: 686408736
I0403 18:35:58.728135 22921 layer_factory.hpp:77] Creating layer inception_3b/relu_3x3_reduce
I0403 18:35:58.728152 22921 net.cpp:91] Creating Layer inception_3b/relu_3x3_reduce
I0403 18:35:58.728168 22921 net.cpp:425] inception_3b/relu_3x3_reduce <- inception_3b/3x3_reduce
I0403 18:35:58.728185 22921 net.cpp:386] inception_3b/relu_3x3_reduce -> inception_3b/3x3_reduce (in-place)
I0403 18:35:58.728348 22921 net.cpp:141] Setting up inception_3b/relu_3x3_reduce
I0403 18:35:58.728370 22921 net.cpp:148] Top shape: 24 128 28 28 (2408448)
I0403 18:35:58.728384 22921 net.cpp:156] Memory required for data: 696042528
I0403 18:35:58.728397 22921 layer_factory.hpp:77] Creating layer inception_3b/3x3
I0403 18:35:58.728422 22921 net.cpp:91] Creating Layer inception_3b/3x3
I0403 18:35:58.728438 22921 net.cpp:425] inception_3b/3x3 <- inception_3b/3x3_reduce
I0403 18:35:58.728456 22921 net.cpp:399] inception_3b/3x3 -> inception_3b/3x3
I0403 18:35:58.731194 22921 net.cpp:141] Setting up inception_3b/3x3
I0403 18:35:58.731220 22921 net.cpp:148] Top shape: 24 192 28 28 (3612672)
I0403 18:35:58.731235 22921 net.cpp:156] Memory required for data: 710493216
I0403 18:35:58.731253 22921 layer_factory.hpp:77] Creating layer inception_3b/relu_3x3
I0403 18:35:58.731272 22921 net.cpp:91] Creating Layer inception_3b/relu_3x3
I0403 18:35:58.731289 22921 net.cpp:425] inception_3b/relu_3x3 <- inception_3b/3x3
I0403 18:35:58.731304 22921 net.cpp:386] inception_3b/relu_3x3 -> inception_3b/3x3 (in-place)
I0403 18:35:58.731569 22921 net.cpp:141] Setting up inception_3b/relu_3x3
I0403 18:35:58.731593 22921 net.cpp:148] Top shape: 24 192 28 28 (3612672)
I0403 18:35:58.731607 22921 net.cpp:156] Memory required for data: 724943904
I0403 18:35:58.731621 22921 layer_factory.hpp:77] Creating layer inception_3b/5x5_reduce
I0403 18:35:58.731643 22921 net.cpp:91] Creating Layer inception_3b/5x5_reduce
I0403 18:35:58.731662 22921 net.cpp:425] inception_3b/5x5_reduce <- inception_3a/output_inception_3a/output_0_split_2
I0403 18:35:58.731681 22921 net.cpp:399] inception_3b/5x5_reduce -> inception_3b/5x5_reduce
I0403 18:35:58.732622 22921 net.cpp:141] Setting up inception_3b/5x5_reduce
I0403 18:35:58.732648 22921 net.cpp:148] Top shape: 24 32 28 28 (602112)
I0403 18:35:58.732663 22921 net.cpp:156] Memory required for data: 727352352
I0403 18:35:58.732681 22921 layer_factory.hpp:77] Creating layer inception_3b/relu_5x5_reduce
I0403 18:35:58.732697 22921 net.cpp:91] Creating Layer inception_3b/relu_5x5_reduce
I0403 18:35:58.732714 22921 net.cpp:425] inception_3b/relu_5x5_reduce <- inception_3b/5x5_reduce
I0403 18:35:58.732730 22921 net.cpp:386] inception_3b/relu_5x5_reduce -> inception_3b/5x5_reduce (in-place)
I0403 18:35:58.732908 22921 net.cpp:141] Setting up inception_3b/relu_5x5_reduce
I0403 18:35:58.732933 22921 net.cpp:148] Top shape: 24 32 28 28 (602112)
I0403 18:35:58.732946 22921 net.cpp:156] Memory required for data: 729760800
I0403 18:35:58.732959 22921 layer_factory.hpp:77] Creating layer inception_3b/5x5
I0403 18:35:58.732980 22921 net.cpp:91] Creating Layer inception_3b/5x5
I0403 18:35:58.732996 22921 net.cpp:425] inception_3b/5x5 <- inception_3b/5x5_reduce
I0403 18:35:58.733016 22921 net.cpp:399] inception_3b/5x5 -> inception_3b/5x5
I0403 18:35:58.734889 22921 net.cpp:141] Setting up inception_3b/5x5
I0403 18:35:58.734918 22921 net.cpp:148] Top shape: 24 96 28 28 (1806336)
I0403 18:35:58.734935 22921 net.cpp:156] Memory required for data: 736986144
I0403 18:35:58.734951 22921 layer_factory.hpp:77] Creating layer inception_3b/relu_5x5
I0403 18:35:58.734968 22921 net.cpp:91] Creating Layer inception_3b/relu_5x5
I0403 18:35:58.734984 22921 net.cpp:425] inception_3b/relu_5x5 <- inception_3b/5x5
I0403 18:35:58.735002 22921 net.cpp:386] inception_3b/relu_5x5 -> inception_3b/5x5 (in-place)
I0403 18:35:58.735183 22921 net.cpp:141] Setting up inception_3b/relu_5x5
I0403 18:35:58.735206 22921 net.cpp:148] Top shape: 24 96 28 28 (1806336)
I0403 18:35:58.735220 22921 net.cpp:156] Memory required for data: 744211488
I0403 18:35:58.735234 22921 layer_factory.hpp:77] Creating layer inception_3b/pool
I0403 18:35:58.735257 22921 net.cpp:91] Creating Layer inception_3b/pool
I0403 18:35:58.735273 22921 net.cpp:425] inception_3b/pool <- inception_3a/output_inception_3a/output_0_split_3
I0403 18:35:58.735291 22921 net.cpp:399] inception_3b/pool -> inception_3b/pool
I0403 18:35:58.735342 22921 net.cpp:141] Setting up inception_3b/pool
I0403 18:35:58.735364 22921 net.cpp:148] Top shape: 24 256 28 28 (4816896)
I0403 18:35:58.735378 22921 net.cpp:156] Memory required for data: 763479072
I0403 18:35:58.735390 22921 layer_factory.hpp:77] Creating layer inception_3b/pool_proj
I0403 18:35:58.735412 22921 net.cpp:91] Creating Layer inception_3b/pool_proj
I0403 18:35:58.735429 22921 net.cpp:425] inception_3b/pool_proj <- inception_3b/pool
I0403 18:35:58.735446 22921 net.cpp:399] inception_3b/pool_proj -> inception_3b/pool_proj
I0403 18:35:58.736521 22921 net.cpp:141] Setting up inception_3b/pool_proj
I0403 18:35:58.736546 22921 net.cpp:148] Top shape: 24 64 28 28 (1204224)
I0403 18:35:58.736562 22921 net.cpp:156] Memory required for data: 768295968
I0403 18:35:58.736579 22921 layer_factory.hpp:77] Creating layer inception_3b/relu_pool_proj
I0403 18:35:58.736599 22921 net.cpp:91] Creating Layer inception_3b/relu_pool_proj
I0403 18:35:58.736615 22921 net.cpp:425] inception_3b/relu_pool_proj <- inception_3b/pool_proj
I0403 18:35:58.736632 22921 net.cpp:386] inception_3b/relu_pool_proj -> inception_3b/pool_proj (in-place)
I0403 18:35:58.737007 22921 net.cpp:141] Setting up inception_3b/relu_pool_proj
I0403 18:35:58.737033 22921 net.cpp:148] Top shape: 24 64 28 28 (1204224)
I0403 18:35:58.737047 22921 net.cpp:156] Memory required for data: 773112864
I0403 18:35:58.737062 22921 layer_factory.hpp:77] Creating layer inception_3b/output
I0403 18:35:58.737081 22921 net.cpp:91] Creating Layer inception_3b/output
I0403 18:35:58.737097 22921 net.cpp:425] inception_3b/output <- inception_3b/1x1
I0403 18:35:58.737112 22921 net.cpp:425] inception_3b/output <- inception_3b/3x3
I0403 18:35:58.737128 22921 net.cpp:425] inception_3b/output <- inception_3b/5x5
I0403 18:35:58.737143 22921 net.cpp:425] inception_3b/output <- inception_3b/pool_proj
I0403 18:35:58.737159 22921 net.cpp:399] inception_3b/output -> inception_3b/output
I0403 18:35:58.737200 22921 net.cpp:141] Setting up inception_3b/output
I0403 18:35:58.737224 22921 net.cpp:148] Top shape: 24 480 28 28 (9031680)
I0403 18:35:58.737239 22921 net.cpp:156] Memory required for data: 809239584
I0403 18:35:58.737252 22921 layer_factory.hpp:77] Creating layer pool3/3x3_s2
I0403 18:35:58.737268 22921 net.cpp:91] Creating Layer pool3/3x3_s2
I0403 18:35:58.737283 22921 net.cpp:425] pool3/3x3_s2 <- inception_3b/output
I0403 18:35:58.737318 22921 net.cpp:399] pool3/3x3_s2 -> pool3/3x3_s2
I0403 18:35:58.737375 22921 net.cpp:141] Setting up pool3/3x3_s2
I0403 18:35:58.737399 22921 net.cpp:148] Top shape: 24 480 14 14 (2257920)
I0403 18:35:58.737413 22921 net.cpp:156] Memory required for data: 818271264
I0403 18:35:58.737427 22921 layer_factory.hpp:77] Creating layer pool3/3x3_s2_pool3/3x3_s2_0_split
I0403 18:35:58.737442 22921 net.cpp:91] Creating Layer pool3/3x3_s2_pool3/3x3_s2_0_split
I0403 18:35:58.737457 22921 net.cpp:425] pool3/3x3_s2_pool3/3x3_s2_0_split <- pool3/3x3_s2
I0403 18:35:58.737473 22921 net.cpp:399] pool3/3x3_s2_pool3/3x3_s2_0_split -> pool3/3x3_s2_pool3/3x3_s2_0_split_0
I0403 18:35:58.737493 22921 net.cpp:399] pool3/3x3_s2_pool3/3x3_s2_0_split -> pool3/3x3_s2_pool3/3x3_s2_0_split_1
I0403 18:35:58.737517 22921 net.cpp:399] pool3/3x3_s2_pool3/3x3_s2_0_split -> pool3/3x3_s2_pool3/3x3_s2_0_split_2
I0403 18:35:58.737539 22921 net.cpp:399] pool3/3x3_s2_pool3/3x3_s2_0_split -> pool3/3x3_s2_pool3/3x3_s2_0_split_3
I0403 18:35:58.737614 22921 net.cpp:141] Setting up pool3/3x3_s2_pool3/3x3_s2_0_split
I0403 18:35:58.737637 22921 net.cpp:148] Top shape: 24 480 14 14 (2257920)
I0403 18:35:58.737653 22921 net.cpp:148] Top shape: 24 480 14 14 (2257920)
I0403 18:35:58.737666 22921 net.cpp:148] Top shape: 24 480 14 14 (2257920)
I0403 18:35:58.737680 22921 net.cpp:148] Top shape: 24 480 14 14 (2257920)
I0403 18:35:58.737694 22921 net.cpp:156] Memory required for data: 854397984
I0403 18:35:58.737706 22921 layer_factory.hpp:77] Creating layer inception_4a/1x1
I0403 18:35:58.737727 22921 net.cpp:91] Creating Layer inception_4a/1x1
I0403 18:35:58.737745 22921 net.cpp:425] inception_4a/1x1 <- pool3/3x3_s2_pool3/3x3_s2_0_split_0
I0403 18:35:58.737764 22921 net.cpp:399] inception_4a/1x1 -> inception_4a/1x1
I0403 18:35:58.739274 22921 net.cpp:141] Setting up inception_4a/1x1
I0403 18:35:58.739301 22921 net.cpp:148] Top shape: 24 192 14 14 (903168)
I0403 18:35:58.739316 22921 net.cpp:156] Memory required for data: 858010656
I0403 18:35:58.739333 22921 layer_factory.hpp:77] Creating layer inception_4a/relu_1x1
I0403 18:35:58.739352 22921 net.cpp:91] Creating Layer inception_4a/relu_1x1
I0403 18:35:58.739369 22921 net.cpp:425] inception_4a/relu_1x1 <- inception_4a/1x1
I0403 18:35:58.739385 22921 net.cpp:386] inception_4a/relu_1x1 -> inception_4a/1x1 (in-place)
I0403 18:35:58.739560 22921 net.cpp:141] Setting up inception_4a/relu_1x1
I0403 18:35:58.739584 22921 net.cpp:148] Top shape: 24 192 14 14 (903168)
I0403 18:35:58.739598 22921 net.cpp:156] Memory required for data: 861623328
I0403 18:35:58.739614 22921 layer_factory.hpp:77] Creating layer inception_4a/3x3_reduce
I0403 18:35:58.739634 22921 net.cpp:91] Creating Layer inception_4a/3x3_reduce
I0403 18:35:58.739652 22921 net.cpp:425] inception_4a/3x3_reduce <- pool3/3x3_s2_pool3/3x3_s2_0_split_1
I0403 18:35:58.739671 22921 net.cpp:399] inception_4a/3x3_reduce -> inception_4a/3x3_reduce
I0403 18:35:58.740896 22921 net.cpp:141] Setting up inception_4a/3x3_reduce
I0403 18:35:58.740922 22921 net.cpp:148] Top shape: 24 96 14 14 (451584)
I0403 18:35:58.740937 22921 net.cpp:156] Memory required for data: 863429664
I0403 18:35:58.740965 22921 layer_factory.hpp:77] Creating layer inception_4a/relu_3x3_reduce
I0403 18:35:58.740986 22921 net.cpp:91] Creating Layer inception_4a/relu_3x3_reduce
I0403 18:35:58.741003 22921 net.cpp:425] inception_4a/relu_3x3_reduce <- inception_4a/3x3_reduce
I0403 18:35:58.741019 22921 net.cpp:386] inception_4a/relu_3x3_reduce -> inception_4a/3x3_reduce (in-place)
I0403 18:35:58.741189 22921 net.cpp:141] Setting up inception_4a/relu_3x3_reduce
I0403 18:35:58.741215 22921 net.cpp:148] Top shape: 24 96 14 14 (451584)
I0403 18:35:58.741230 22921 net.cpp:156] Memory required for data: 865236000
I0403 18:35:58.741243 22921 layer_factory.hpp:77] Creating layer inception_4a/3x3
I0403 18:35:58.741264 22921 net.cpp:91] Creating Layer inception_4a/3x3
I0403 18:35:58.741281 22921 net.cpp:425] inception_4a/3x3 <- inception_4a/3x3_reduce
I0403 18:35:58.741302 22921 net.cpp:399] inception_4a/3x3 -> inception_4a/3x3
I0403 18:35:58.743896 22921 net.cpp:141] Setting up inception_4a/3x3
I0403 18:35:58.743927 22921 net.cpp:148] Top shape: 24 208 14 14 (978432)
I0403 18:35:58.743942 22921 net.cpp:156] Memory required for data: 869149728
I0403 18:35:58.743960 22921 layer_factory.hpp:77] Creating layer inception_4a/relu_3x3
I0403 18:35:58.743978 22921 net.cpp:91] Creating Layer inception_4a/relu_3x3
I0403 18:35:58.743993 22921 net.cpp:425] inception_4a/relu_3x3 <- inception_4a/3x3
I0403 18:35:58.744012 22921 net.cpp:386] inception_4a/relu_3x3 -> inception_4a/3x3 (in-place)
I0403 18:35:58.744282 22921 net.cpp:141] Setting up inception_4a/relu_3x3
I0403 18:35:58.744309 22921 net.cpp:148] Top shape: 24 208 14 14 (978432)
I0403 18:35:58.744325 22921 net.cpp:156] Memory required for data: 873063456
I0403 18:35:58.744339 22921 layer_factory.hpp:77] Creating layer inception_4a/5x5_reduce
I0403 18:35:58.744361 22921 net.cpp:91] Creating Layer inception_4a/5x5_reduce
I0403 18:35:58.744379 22921 net.cpp:425] inception_4a/5x5_reduce <- pool3/3x3_s2_pool3/3x3_s2_0_split_2
I0403 18:35:58.744397 22921 net.cpp:399] inception_4a/5x5_reduce -> inception_4a/5x5_reduce
I0403 18:35:58.745388 22921 net.cpp:141] Setting up inception_4a/5x5_reduce
I0403 18:35:58.745415 22921 net.cpp:148] Top shape: 24 16 14 14 (75264)
I0403 18:35:58.745431 22921 net.cpp:156] Memory required for data: 873364512
I0403 18:35:58.745448 22921 layer_factory.hpp:77] Creating layer inception_4a/relu_5x5_reduce
I0403 18:35:58.745465 22921 net.cpp:91] Creating Layer inception_4a/relu_5x5_reduce
I0403 18:35:58.745481 22921 net.cpp:425] inception_4a/relu_5x5_reduce <- inception_4a/5x5_reduce
I0403 18:35:58.745499 22921 net.cpp:386] inception_4a/relu_5x5_reduce -> inception_4a/5x5_reduce (in-place)
I0403 18:35:58.745676 22921 net.cpp:141] Setting up inception_4a/relu_5x5_reduce
I0403 18:35:58.745700 22921 net.cpp:148] Top shape: 24 16 14 14 (75264)
I0403 18:35:58.745715 22921 net.cpp:156] Memory required for data: 873665568
I0403 18:35:58.745728 22921 layer_factory.hpp:77] Creating layer inception_4a/5x5
I0403 18:35:58.745749 22921 net.cpp:91] Creating Layer inception_4a/5x5
I0403 18:35:58.745766 22921 net.cpp:425] inception_4a/5x5 <- inception_4a/5x5_reduce
I0403 18:35:58.745786 22921 net.cpp:399] inception_4a/5x5 -> inception_4a/5x5
I0403 18:35:58.746839 22921 net.cpp:141] Setting up inception_4a/5x5
I0403 18:35:58.746865 22921 net.cpp:148] Top shape: 24 48 14 14 (225792)
I0403 18:35:58.746881 22921 net.cpp:156] Memory required for data: 874568736
I0403 18:35:58.746897 22921 layer_factory.hpp:77] Creating layer inception_4a/relu_5x5
I0403 18:35:58.746917 22921 net.cpp:91] Creating Layer inception_4a/relu_5x5
I0403 18:35:58.746933 22921 net.cpp:425] inception_4a/relu_5x5 <- inception_4a/5x5
I0403 18:35:58.746950 22921 net.cpp:386] inception_4a/relu_5x5 -> inception_4a/5x5 (in-place)
I0403 18:35:58.747124 22921 net.cpp:141] Setting up inception_4a/relu_5x5
I0403 18:35:58.747150 22921 net.cpp:148] Top shape: 24 48 14 14 (225792)
I0403 18:35:58.747165 22921 net.cpp:156] Memory required for data: 875471904
I0403 18:35:58.747179 22921 layer_factory.hpp:77] Creating layer inception_4a/pool
I0403 18:35:58.747196 22921 net.cpp:91] Creating Layer inception_4a/pool
I0403 18:35:58.747211 22921 net.cpp:425] inception_4a/pool <- pool3/3x3_s2_pool3/3x3_s2_0_split_3
I0403 18:35:58.747234 22921 net.cpp:399] inception_4a/pool -> inception_4a/pool
I0403 18:35:58.747293 22921 net.cpp:141] Setting up inception_4a/pool
I0403 18:35:58.747316 22921 net.cpp:148] Top shape: 24 480 14 14 (2257920)
I0403 18:35:58.747330 22921 net.cpp:156] Memory required for data: 884503584
I0403 18:35:58.747344 22921 layer_factory.hpp:77] Creating layer inception_4a/pool_proj
I0403 18:35:58.747365 22921 net.cpp:91] Creating Layer inception_4a/pool_proj
I0403 18:35:58.747382 22921 net.cpp:425] inception_4a/pool_proj <- inception_4a/pool
I0403 18:35:58.747401 22921 net.cpp:399] inception_4a/pool_proj -> inception_4a/pool_proj
I0403 18:35:58.748534 22921 net.cpp:141] Setting up inception_4a/pool_proj
I0403 18:35:58.748561 22921 net.cpp:148] Top shape: 24 64 14 14 (301056)
I0403 18:35:58.748590 22921 net.cpp:156] Memory required for data: 885707808
I0403 18:35:58.748610 22921 layer_factory.hpp:77] Creating layer inception_4a/relu_pool_proj
I0403 18:35:58.748631 22921 net.cpp:91] Creating Layer inception_4a/relu_pool_proj
I0403 18:35:58.748647 22921 net.cpp:425] inception_4a/relu_pool_proj <- inception_4a/pool_proj
I0403 18:35:58.748664 22921 net.cpp:386] inception_4a/relu_pool_proj -> inception_4a/pool_proj (in-place)
I0403 18:35:58.748942 22921 net.cpp:141] Setting up inception_4a/relu_pool_proj
I0403 18:35:58.748967 22921 net.cpp:148] Top shape: 24 64 14 14 (301056)
I0403 18:35:58.748982 22921 net.cpp:156] Memory required for data: 886912032
I0403 18:35:58.748996 22921 layer_factory.hpp:77] Creating layer inception_4a/output
I0403 18:35:58.749016 22921 net.cpp:91] Creating Layer inception_4a/output
I0403 18:35:58.749032 22921 net.cpp:425] inception_4a/output <- inception_4a/1x1
I0403 18:35:58.749047 22921 net.cpp:425] inception_4a/output <- inception_4a/3x3
I0403 18:35:58.749063 22921 net.cpp:425] inception_4a/output <- inception_4a/5x5
I0403 18:35:58.749078 22921 net.cpp:425] inception_4a/output <- inception_4a/pool_proj
I0403 18:35:58.749094 22921 net.cpp:399] inception_4a/output -> inception_4a/output
I0403 18:35:58.749138 22921 net.cpp:141] Setting up inception_4a/output
I0403 18:35:58.749161 22921 net.cpp:148] Top shape: 24 512 14 14 (2408448)
I0403 18:35:58.749174 22921 net.cpp:156] Memory required for data: 896545824
I0403 18:35:58.749188 22921 layer_factory.hpp:77] Creating layer inception_4a/output_inception_4a/output_0_split
I0403 18:35:58.749204 22921 net.cpp:91] Creating Layer inception_4a/output_inception_4a/output_0_split
I0403 18:35:58.749220 22921 net.cpp:425] inception_4a/output_inception_4a/output_0_split <- inception_4a/output
I0403 18:35:58.749239 22921 net.cpp:399] inception_4a/output_inception_4a/output_0_split -> inception_4a/output_inception_4a/output_0_split_0
I0403 18:35:58.749260 22921 net.cpp:399] inception_4a/output_inception_4a/output_0_split -> inception_4a/output_inception_4a/output_0_split_1
I0403 18:35:58.749280 22921 net.cpp:399] inception_4a/output_inception_4a/output_0_split -> inception_4a/output_inception_4a/output_0_split_2
I0403 18:35:58.749301 22921 net.cpp:399] inception_4a/output_inception_4a/output_0_split -> inception_4a/output_inception_4a/output_0_split_3
I0403 18:35:58.749320 22921 net.cpp:399] inception_4a/output_inception_4a/output_0_split -> inception_4a/output_inception_4a/output_0_split_4
I0403 18:35:58.749411 22921 net.cpp:141] Setting up inception_4a/output_inception_4a/output_0_split
I0403 18:35:58.749434 22921 net.cpp:148] Top shape: 24 512 14 14 (2408448)
I0403 18:35:58.749449 22921 net.cpp:148] Top shape: 24 512 14 14 (2408448)
I0403 18:35:58.749464 22921 net.cpp:148] Top shape: 24 512 14 14 (2408448)
I0403 18:35:58.749480 22921 net.cpp:148] Top shape: 24 512 14 14 (2408448)
I0403 18:35:58.749493 22921 net.cpp:148] Top shape: 24 512 14 14 (2408448)
I0403 18:35:58.749511 22921 net.cpp:156] Memory required for data: 944714784
I0403 18:35:58.749526 22921 layer_factory.hpp:77] Creating layer loss1/ave_pool
I0403 18:35:58.749543 22921 net.cpp:91] Creating Layer loss1/ave_pool
I0403 18:35:58.749558 22921 net.cpp:425] loss1/ave_pool <- inception_4a/output_inception_4a/output_0_split_0
I0403 18:35:58.749578 22921 net.cpp:399] loss1/ave_pool -> loss1/ave_pool
I0403 18:35:58.749773 22921 net.cpp:141] Setting up loss1/ave_pool
I0403 18:35:58.749799 22921 net.cpp:148] Top shape: 24 512 4 4 (196608)
I0403 18:35:58.749816 22921 net.cpp:156] Memory required for data: 945501216
I0403 18:35:58.749830 22921 layer_factory.hpp:77] Creating layer loss1/conv
I0403 18:35:58.749850 22921 net.cpp:91] Creating Layer loss1/conv
I0403 18:35:58.749866 22921 net.cpp:425] loss1/conv <- loss1/ave_pool
I0403 18:35:58.749886 22921 net.cpp:399] loss1/conv -> loss1/conv
I0403 18:35:58.751277 22921 net.cpp:141] Setting up loss1/conv
I0403 18:35:58.751307 22921 net.cpp:148] Top shape: 24 128 4 4 (49152)
I0403 18:35:58.751337 22921 net.cpp:156] Memory required for data: 945697824
I0403 18:35:58.751354 22921 layer_factory.hpp:77] Creating layer loss1/relu_conv
I0403 18:35:58.751373 22921 net.cpp:91] Creating Layer loss1/relu_conv
I0403 18:35:58.751387 22921 net.cpp:425] loss1/relu_conv <- loss1/conv
I0403 18:35:58.751405 22921 net.cpp:386] loss1/relu_conv -> loss1/conv (in-place)
I0403 18:35:58.751678 22921 net.cpp:141] Setting up loss1/relu_conv
I0403 18:35:58.751706 22921 net.cpp:148] Top shape: 24 128 4 4 (49152)
I0403 18:35:58.751723 22921 net.cpp:156] Memory required for data: 945894432
I0403 18:35:58.751736 22921 layer_factory.hpp:77] Creating layer loss1/fc
I0403 18:35:58.751757 22921 net.cpp:91] Creating Layer loss1/fc
I0403 18:35:58.751775 22921 net.cpp:425] loss1/fc <- loss1/conv
I0403 18:35:58.751794 22921 net.cpp:399] loss1/fc -> loss1/fc
I0403 18:35:58.768659 22921 net.cpp:141] Setting up loss1/fc
I0403 18:35:58.768690 22921 net.cpp:148] Top shape: 24 1024 (24576)
I0403 18:35:58.768704 22921 net.cpp:156] Memory required for data: 945992736
I0403 18:35:58.768721 22921 layer_factory.hpp:77] Creating layer loss1/relu_fc
I0403 18:35:58.768741 22921 net.cpp:91] Creating Layer loss1/relu_fc
I0403 18:35:58.768757 22921 net.cpp:425] loss1/relu_fc <- loss1/fc
I0403 18:35:58.768774 22921 net.cpp:386] loss1/relu_fc -> loss1/fc (in-place)
I0403 18:35:58.768946 22921 net.cpp:141] Setting up loss1/relu_fc
I0403 18:35:58.768970 22921 net.cpp:148] Top shape: 24 1024 (24576)
I0403 18:35:58.768985 22921 net.cpp:156] Memory required for data: 946091040
I0403 18:35:58.768998 22921 layer_factory.hpp:77] Creating layer loss1/drop_fc
I0403 18:35:58.769021 22921 net.cpp:91] Creating Layer loss1/drop_fc
I0403 18:35:58.769038 22921 net.cpp:425] loss1/drop_fc <- loss1/fc
I0403 18:35:58.769057 22921 net.cpp:386] loss1/drop_fc -> loss1/fc (in-place)
I0403 18:35:58.769104 22921 net.cpp:141] Setting up loss1/drop_fc
I0403 18:35:58.769126 22921 net.cpp:148] Top shape: 24 1024 (24576)
I0403 18:35:58.769140 22921 net.cpp:156] Memory required for data: 946189344
I0403 18:35:58.769153 22921 layer_factory.hpp:77] Creating layer loss1/classifier_plantvillage
I0403 18:35:58.769173 22921 net.cpp:91] Creating Layer loss1/classifier_plantvillage
I0403 18:35:58.769189 22921 net.cpp:425] loss1/classifier_plantvillage <- loss1/fc
I0403 18:35:58.769207 22921 net.cpp:399] loss1/classifier_plantvillage -> loss1/classifier_plantvillage
I0403 18:35:58.770076 22921 net.cpp:141] Setting up loss1/classifier_plantvillage
I0403 18:35:58.770102 22921 net.cpp:148] Top shape: 24 38 (912)
I0403 18:35:58.770117 22921 net.cpp:156] Memory required for data: 946192992
I0403 18:35:58.770133 22921 layer_factory.hpp:77] Creating layer loss1/classifier_plantvillage_loss1/classifier_plantvillage_0_split
I0403 18:35:58.770153 22921 net.cpp:91] Creating Layer loss1/classifier_plantvillage_loss1/classifier_plantvillage_0_split
I0403 18:35:58.770169 22921 net.cpp:425] loss1/classifier_plantvillage_loss1/classifier_plantvillage_0_split <- loss1/classifier_plantvillage
I0403 18:35:58.770185 22921 net.cpp:399] loss1/classifier_plantvillage_loss1/classifier_plantvillage_0_split -> loss1/classifier_plantvillage_loss1/classifier_plantvillage_0_split_0
I0403 18:35:58.770207 22921 net.cpp:399] loss1/classifier_plantvillage_loss1/classifier_plantvillage_0_split -> loss1/classifier_plantvillage_loss1/classifier_plantvillage_0_split_1
I0403 18:35:58.770227 22921 net.cpp:399] loss1/classifier_plantvillage_loss1/classifier_plantvillage_0_split -> loss1/classifier_plantvillage_loss1/classifier_plantvillage_0_split_2
I0403 18:35:58.770289 22921 net.cpp:141] Setting up loss1/classifier_plantvillage_loss1/classifier_plantvillage_0_split
I0403 18:35:58.770310 22921 net.cpp:148] Top shape: 24 38 (912)
I0403 18:35:58.770325 22921 net.cpp:148] Top shape: 24 38 (912)
I0403 18:35:58.770339 22921 net.cpp:148] Top shape: 24 38 (912)
I0403 18:35:58.770352 22921 net.cpp:156] Memory required for data: 946203936
I0403 18:35:58.770365 22921 layer_factory.hpp:77] Creating layer inception_4b/1x1
I0403 18:35:58.770385 22921 net.cpp:91] Creating Layer inception_4b/1x1
I0403 18:35:58.770416 22921 net.cpp:425] inception_4b/1x1 <- inception_4a/output_inception_4a/output_0_split_1
I0403 18:35:58.770436 22921 net.cpp:399] inception_4b/1x1 -> inception_4b/1x1
I0403 18:35:58.771976 22921 net.cpp:141] Setting up inception_4b/1x1
I0403 18:35:58.772006 22921 net.cpp:148] Top shape: 24 160 14 14 (752640)
I0403 18:35:58.772020 22921 net.cpp:156] Memory required for data: 949214496
I0403 18:35:58.772037 22921 layer_factory.hpp:77] Creating layer inception_4b/relu_1x1
I0403 18:35:58.772054 22921 net.cpp:91] Creating Layer inception_4b/relu_1x1
I0403 18:35:58.772069 22921 net.cpp:425] inception_4b/relu_1x1 <- inception_4b/1x1
I0403 18:35:58.772088 22921 net.cpp:386] inception_4b/relu_1x1 -> inception_4b/1x1 (in-place)
I0403 18:35:58.772255 22921 net.cpp:141] Setting up inception_4b/relu_1x1
I0403 18:35:58.772279 22921 net.cpp:148] Top shape: 24 160 14 14 (752640)
I0403 18:35:58.772294 22921 net.cpp:156] Memory required for data: 952225056
I0403 18:35:58.772307 22921 layer_factory.hpp:77] Creating layer inception_4b/3x3_reduce
I0403 18:35:58.772330 22921 net.cpp:91] Creating Layer inception_4b/3x3_reduce
I0403 18:35:58.772347 22921 net.cpp:425] inception_4b/3x3_reduce <- inception_4a/output_inception_4a/output_0_split_2
I0403 18:35:58.772368 22921 net.cpp:399] inception_4b/3x3_reduce -> inception_4b/3x3_reduce
I0403 18:35:58.773730 22921 net.cpp:141] Setting up inception_4b/3x3_reduce
I0403 18:35:58.773757 22921 net.cpp:148] Top shape: 24 112 14 14 (526848)
I0403 18:35:58.773772 22921 net.cpp:156] Memory required for data: 954332448
I0403 18:35:58.773788 22921 layer_factory.hpp:77] Creating layer inception_4b/relu_3x3_reduce
I0403 18:35:58.773808 22921 net.cpp:91] Creating Layer inception_4b/relu_3x3_reduce
I0403 18:35:58.773824 22921 net.cpp:425] inception_4b/relu_3x3_reduce <- inception_4b/3x3_reduce
I0403 18:35:58.773840 22921 net.cpp:386] inception_4b/relu_3x3_reduce -> inception_4b/3x3_reduce (in-place)
I0403 18:35:58.774106 22921 net.cpp:141] Setting up inception_4b/relu_3x3_reduce
I0403 18:35:58.774130 22921 net.cpp:148] Top shape: 24 112 14 14 (526848)
I0403 18:35:58.774144 22921 net.cpp:156] Memory required for data: 956439840
I0403 18:35:58.774158 22921 layer_factory.hpp:77] Creating layer inception_4b/3x3
I0403 18:35:58.774180 22921 net.cpp:91] Creating Layer inception_4b/3x3
I0403 18:35:58.774197 22921 net.cpp:425] inception_4b/3x3 <- inception_4b/3x3_reduce
I0403 18:35:58.774217 22921 net.cpp:399] inception_4b/3x3 -> inception_4b/3x3
I0403 18:35:58.777034 22921 net.cpp:141] Setting up inception_4b/3x3
I0403 18:35:58.777062 22921 net.cpp:148] Top shape: 24 224 14 14 (1053696)
I0403 18:35:58.777077 22921 net.cpp:156] Memory required for data: 960654624
I0403 18:35:58.777094 22921 layer_factory.hpp:77] Creating layer inception_4b/relu_3x3
I0403 18:35:58.777113 22921 net.cpp:91] Creating Layer inception_4b/relu_3x3
I0403 18:35:58.777129 22921 net.cpp:425] inception_4b/relu_3x3 <- inception_4b/3x3
I0403 18:35:58.777145 22921 net.cpp:386] inception_4b/relu_3x3 -> inception_4b/3x3 (in-place)
I0403 18:35:58.777318 22921 net.cpp:141] Setting up inception_4b/relu_3x3
I0403 18:35:58.777343 22921 net.cpp:148] Top shape: 24 224 14 14 (1053696)
I0403 18:35:58.777357 22921 net.cpp:156] Memory required for data: 964869408
I0403 18:35:58.777370 22921 layer_factory.hpp:77] Creating layer inception_4b/5x5_reduce
I0403 18:35:58.777390 22921 net.cpp:91] Creating Layer inception_4b/5x5_reduce
I0403 18:35:58.777406 22921 net.cpp:425] inception_4b/5x5_reduce <- inception_4a/output_inception_4a/output_0_split_3
I0403 18:35:58.777427 22921 net.cpp:399] inception_4b/5x5_reduce -> inception_4b/5x5_reduce
I0403 18:35:58.778463 22921 net.cpp:141] Setting up inception_4b/5x5_reduce
I0403 18:35:58.778489 22921 net.cpp:148] Top shape: 24 24 14 14 (112896)
I0403 18:35:58.778507 22921 net.cpp:156] Memory required for data: 965320992
I0403 18:35:58.778527 22921 layer_factory.hpp:77] Creating layer inception_4b/relu_5x5_reduce
I0403 18:35:58.778544 22921 net.cpp:91] Creating Layer inception_4b/relu_5x5_reduce
I0403 18:35:58.778573 22921 net.cpp:425] inception_4b/relu_5x5_reduce <- inception_4b/5x5_reduce
I0403 18:35:58.778594 22921 net.cpp:386] inception_4b/relu_5x5_reduce -> inception_4b/5x5_reduce (in-place)
I0403 18:35:58.778765 22921 net.cpp:141] Setting up inception_4b/relu_5x5_reduce
I0403 18:35:58.778789 22921 net.cpp:148] Top shape: 24 24 14 14 (112896)
I0403 18:35:58.778802 22921 net.cpp:156] Memory required for data: 965772576
I0403 18:35:58.778816 22921 layer_factory.hpp:77] Creating layer inception_4b/5x5
I0403 18:35:58.778836 22921 net.cpp:91] Creating Layer inception_4b/5x5
I0403 18:35:58.778854 22921 net.cpp:425] inception_4b/5x5 <- inception_4b/5x5_reduce
I0403 18:35:58.778873 22921 net.cpp:399] inception_4b/5x5 -> inception_4b/5x5
I0403 18:35:58.780043 22921 net.cpp:141] Setting up inception_4b/5x5
I0403 18:35:58.780071 22921 net.cpp:148] Top shape: 24 64 14 14 (301056)
I0403 18:35:58.780087 22921 net.cpp:156] Memory required for data: 966976800
I0403 18:35:58.780103 22921 layer_factory.hpp:77] Creating layer inception_4b/relu_5x5
I0403 18:35:58.780120 22921 net.cpp:91] Creating Layer inception_4b/relu_5x5
I0403 18:35:58.780136 22921 net.cpp:425] inception_4b/relu_5x5 <- inception_4b/5x5
I0403 18:35:58.780154 22921 net.cpp:386] inception_4b/relu_5x5 -> inception_4b/5x5 (in-place)
I0403 18:35:58.780431 22921 net.cpp:141] Setting up inception_4b/relu_5x5
I0403 18:35:58.780457 22921 net.cpp:148] Top shape: 24 64 14 14 (301056)
I0403 18:35:58.780472 22921 net.cpp:156] Memory required for data: 968181024
I0403 18:35:58.780486 22921 layer_factory.hpp:77] Creating layer inception_4b/pool
I0403 18:35:58.780503 22921 net.cpp:91] Creating Layer inception_4b/pool
I0403 18:35:58.780524 22921 net.cpp:425] inception_4b/pool <- inception_4a/output_inception_4a/output_0_split_4
I0403 18:35:58.780547 22921 net.cpp:399] inception_4b/pool -> inception_4b/pool
I0403 18:35:58.780607 22921 net.cpp:141] Setting up inception_4b/pool
I0403 18:35:58.780632 22921 net.cpp:148] Top shape: 24 512 14 14 (2408448)
I0403 18:35:58.780647 22921 net.cpp:156] Memory required for data: 977814816
I0403 18:35:58.780660 22921 layer_factory.hpp:77] Creating layer inception_4b/pool_proj
I0403 18:35:58.780680 22921 net.cpp:91] Creating Layer inception_4b/pool_proj
I0403 18:35:58.780697 22921 net.cpp:425] inception_4b/pool_proj <- inception_4b/pool
I0403 18:35:58.780714 22921 net.cpp:399] inception_4b/pool_proj -> inception_4b/pool_proj
I0403 18:35:58.781915 22921 net.cpp:141] Setting up inception_4b/pool_proj
I0403 18:35:58.781942 22921 net.cpp:148] Top shape: 24 64 14 14 (301056)
I0403 18:35:58.781957 22921 net.cpp:156] Memory required for data: 979019040
I0403 18:35:58.781975 22921 layer_factory.hpp:77] Creating layer inception_4b/relu_pool_proj
I0403 18:35:58.781994 22921 net.cpp:91] Creating Layer inception_4b/relu_pool_proj
I0403 18:35:58.782011 22921 net.cpp:425] inception_4b/relu_pool_proj <- inception_4b/pool_proj
I0403 18:35:58.782027 22921 net.cpp:386] inception_4b/relu_pool_proj -> inception_4b/pool_proj (in-place)
I0403 18:35:58.782202 22921 net.cpp:141] Setting up inception_4b/relu_pool_proj
I0403 18:35:58.782225 22921 net.cpp:148] Top shape: 24 64 14 14 (301056)
I0403 18:35:58.782239 22921 net.cpp:156] Memory required for data: 980223264
I0403 18:35:58.782253 22921 layer_factory.hpp:77] Creating layer inception_4b/output
I0403 18:35:58.782270 22921 net.cpp:91] Creating Layer inception_4b/output
I0403 18:35:58.782286 22921 net.cpp:425] inception_4b/output <- inception_4b/1x1
I0403 18:35:58.782302 22921 net.cpp:425] inception_4b/output <- inception_4b/3x3
I0403 18:35:58.782317 22921 net.cpp:425] inception_4b/output <- inception_4b/5x5
I0403 18:35:58.782332 22921 net.cpp:425] inception_4b/output <- inception_4b/pool_proj
I0403 18:35:58.782347 22921 net.cpp:399] inception_4b/output -> inception_4b/output
I0403 18:35:58.782394 22921 net.cpp:141] Setting up inception_4b/output
I0403 18:35:58.782416 22921 net.cpp:148] Top shape: 24 512 14 14 (2408448)
I0403 18:35:58.782430 22921 net.cpp:156] Memory required for data: 989857056
I0403 18:35:58.782459 22921 layer_factory.hpp:77] Creating layer inception_4b/output_inception_4b/output_0_split
I0403 18:35:58.782476 22921 net.cpp:91] Creating Layer inception_4b/output_inception_4b/output_0_split
I0403 18:35:58.782490 22921 net.cpp:425] inception_4b/output_inception_4b/output_0_split <- inception_4b/output
I0403 18:35:58.782513 22921 net.cpp:399] inception_4b/output_inception_4b/output_0_split -> inception_4b/output_inception_4b/output_0_split_0
I0403 18:35:58.782536 22921 net.cpp:399] inception_4b/output_inception_4b/output_0_split -> inception_4b/output_inception_4b/output_0_split_1
I0403 18:35:58.782555 22921 net.cpp:399] inception_4b/output_inception_4b/output_0_split -> inception_4b/output_inception_4b/output_0_split_2
I0403 18:35:58.782575 22921 net.cpp:399] inception_4b/output_inception_4b/output_0_split -> inception_4b/output_inception_4b/output_0_split_3
I0403 18:35:58.782688 22921 net.cpp:141] Setting up inception_4b/output_inception_4b/output_0_split
I0403 18:35:58.782723 22921 net.cpp:148] Top shape: 24 512 14 14 (2408448)
I0403 18:35:58.782750 22921 net.cpp:148] Top shape: 24 512 14 14 (2408448)
I0403 18:35:58.782768 22921 net.cpp:148] Top shape: 24 512 14 14 (2408448)
I0403 18:35:58.782783 22921 net.cpp:148] Top shape: 24 512 14 14 (2408448)
I0403 18:35:58.782795 22921 net.cpp:156] Memory required for data: 1028392224
I0403 18:35:58.782809 22921 layer_factory.hpp:77] Creating layer inception_4c/1x1
I0403 18:35:58.782831 22921 net.cpp:91] Creating Layer inception_4c/1x1
I0403 18:35:58.782850 22921 net.cpp:425] inception_4c/1x1 <- inception_4b/output_inception_4b/output_0_split_0
I0403 18:35:58.782867 22921 net.cpp:399] inception_4c/1x1 -> inception_4c/1x1
I0403 18:35:58.784306 22921 net.cpp:141] Setting up inception_4c/1x1
I0403 18:35:58.784332 22921 net.cpp:148] Top shape: 24 128 14 14 (602112)
I0403 18:35:58.784348 22921 net.cpp:156] Memory required for data: 1030800672
I0403 18:35:58.784364 22921 layer_factory.hpp:77] Creating layer inception_4c/relu_1x1
I0403 18:35:58.784385 22921 net.cpp:91] Creating Layer inception_4c/relu_1x1
I0403 18:35:58.784402 22921 net.cpp:425] inception_4c/relu_1x1 <- inception_4c/1x1
I0403 18:35:58.784420 22921 net.cpp:386] inception_4c/relu_1x1 -> inception_4c/1x1 (in-place)
I0403 18:35:58.784622 22921 net.cpp:141] Setting up inception_4c/relu_1x1
I0403 18:35:58.784649 22921 net.cpp:148] Top shape: 24 128 14 14 (602112)
I0403 18:35:58.784665 22921 net.cpp:156] Memory required for data: 1033209120
I0403 18:35:58.784680 22921 layer_factory.hpp:77] Creating layer inception_4c/3x3_reduce
I0403 18:35:58.784703 22921 net.cpp:91] Creating Layer inception_4c/3x3_reduce
I0403 18:35:58.784720 22921 net.cpp:425] inception_4c/3x3_reduce <- inception_4b/output_inception_4b/output_0_split_1
I0403 18:35:58.784739 22921 net.cpp:399] inception_4c/3x3_reduce -> inception_4c/3x3_reduce
I0403 18:35:58.786706 22921 net.cpp:141] Setting up inception_4c/3x3_reduce
I0403 18:35:58.786734 22921 net.cpp:148] Top shape: 24 128 14 14 (602112)
I0403 18:35:58.786751 22921 net.cpp:156] Memory required for data: 1035617568
I0403 18:35:58.786768 22921 layer_factory.hpp:77] Creating layer inception_4c/relu_3x3_reduce
I0403 18:35:58.786787 22921 net.cpp:91] Creating Layer inception_4c/relu_3x3_reduce
I0403 18:35:58.786803 22921 net.cpp:425] inception_4c/relu_3x3_reduce <- inception_4c/3x3_reduce
I0403 18:35:58.786833 22921 net.cpp:386] inception_4c/relu_3x3_reduce -> inception_4c/3x3_reduce (in-place)
I0403 18:35:58.787116 22921 net.cpp:141] Setting up inception_4c/relu_3x3_reduce
I0403 18:35:58.787142 22921 net.cpp:148] Top shape: 24 128 14 14 (602112)
I0403 18:35:58.787155 22921 net.cpp:156] Memory required for data: 1038026016
I0403 18:35:58.787169 22921 layer_factory.hpp:77] Creating layer inception_4c/3x3
I0403 18:35:58.787191 22921 net.cpp:91] Creating Layer inception_4c/3x3
I0403 18:35:58.787209 22921 net.cpp:425] inception_4c/3x3 <- inception_4c/3x3_reduce
I0403 18:35:58.787230 22921 net.cpp:399] inception_4c/3x3 -> inception_4c/3x3
I0403 18:35:58.790735 22921 net.cpp:141] Setting up inception_4c/3x3
I0403 18:35:58.790774 22921 net.cpp:148] Top shape: 24 256 14 14 (1204224)
I0403 18:35:58.790791 22921 net.cpp:156] Memory required for data: 1042842912
I0403 18:35:58.790820 22921 layer_factory.hpp:77] Creating layer inception_4c/relu_3x3
I0403 18:35:58.790840 22921 net.cpp:91] Creating Layer inception_4c/relu_3x3
I0403 18:35:58.790856 22921 net.cpp:425] inception_4c/relu_3x3 <- inception_4c/3x3
I0403 18:35:58.790875 22921 net.cpp:386] inception_4c/relu_3x3 -> inception_4c/3x3 (in-place)
I0403 18:35:58.791050 22921 net.cpp:141] Setting up inception_4c/relu_3x3
I0403 18:35:58.791074 22921 net.cpp:148] Top shape: 24 256 14 14 (1204224)
I0403 18:35:58.791088 22921 net.cpp:156] Memory required for data: 1047659808
I0403 18:35:58.791102 22921 layer_factory.hpp:77] Creating layer inception_4c/5x5_reduce
I0403 18:35:58.791124 22921 net.cpp:91] Creating Layer inception_4c/5x5_reduce
I0403 18:35:58.791141 22921 net.cpp:425] inception_4c/5x5_reduce <- inception_4b/output_inception_4b/output_0_split_2
I0403 18:35:58.791162 22921 net.cpp:399] inception_4c/5x5_reduce -> inception_4c/5x5_reduce
I0403 18:35:58.792223 22921 net.cpp:141] Setting up inception_4c/5x5_reduce
I0403 18:35:58.792250 22921 net.cpp:148] Top shape: 24 24 14 14 (112896)
I0403 18:35:58.792265 22921 net.cpp:156] Memory required for data: 1048111392
I0403 18:35:58.792282 22921 layer_factory.hpp:77] Creating layer inception_4c/relu_5x5_reduce
I0403 18:35:58.792300 22921 net.cpp:91] Creating Layer inception_4c/relu_5x5_reduce
I0403 18:35:58.792315 22921 net.cpp:425] inception_4c/relu_5x5_reduce <- inception_4c/5x5_reduce
I0403 18:35:58.792333 22921 net.cpp:386] inception_4c/relu_5x5_reduce -> inception_4c/5x5_reduce (in-place)
I0403 18:35:58.792516 22921 net.cpp:141] Setting up inception_4c/relu_5x5_reduce
I0403 18:35:58.792541 22921 net.cpp:148] Top shape: 24 24 14 14 (112896)
I0403 18:35:58.792554 22921 net.cpp:156] Memory required for data: 1048562976
I0403 18:35:58.792567 22921 layer_factory.hpp:77] Creating layer inception_4c/5x5
I0403 18:35:58.792589 22921 net.cpp:91] Creating Layer inception_4c/5x5
I0403 18:35:58.792605 22921 net.cpp:425] inception_4c/5x5 <- inception_4c/5x5_reduce
I0403 18:35:58.792625 22921 net.cpp:399] inception_4c/5x5 -> inception_4c/5x5
I0403 18:35:58.793833 22921 net.cpp:141] Setting up inception_4c/5x5
I0403 18:35:58.793859 22921 net.cpp:148] Top shape: 24 64 14 14 (301056)
I0403 18:35:58.793874 22921 net.cpp:156] Memory required for data: 1049767200
I0403 18:35:58.793891 22921 layer_factory.hpp:77] Creating layer inception_4c/relu_5x5
I0403 18:35:58.793911 22921 net.cpp:91] Creating Layer inception_4c/relu_5x5
I0403 18:35:58.793927 22921 net.cpp:425] inception_4c/relu_5x5 <- inception_4c/5x5
I0403 18:35:58.793946 22921 net.cpp:386] inception_4c/relu_5x5 -> inception_4c/5x5 (in-place)
I0403 18:35:58.794225 22921 net.cpp:141] Setting up inception_4c/relu_5x5
I0403 18:35:58.794250 22921 net.cpp:148] Top shape: 24 64 14 14 (301056)
I0403 18:35:58.794265 22921 net.cpp:156] Memory required for data: 1050971424
I0403 18:35:58.794280 22921 layer_factory.hpp:77] Creating layer inception_4c/pool
I0403 18:35:58.794301 22921 net.cpp:91] Creating Layer inception_4c/pool
I0403 18:35:58.794317 22921 net.cpp:425] inception_4c/pool <- inception_4b/output_inception_4b/output_0_split_3
I0403 18:35:58.794334 22921 net.cpp:399] inception_4c/pool -> inception_4c/pool
I0403 18:35:58.794399 22921 net.cpp:141] Setting up inception_4c/pool
I0403 18:35:58.794422 22921 net.cpp:148] Top shape: 24 512 14 14 (2408448)
I0403 18:35:58.794436 22921 net.cpp:156] Memory required for data: 1060605216
I0403 18:35:58.794450 22921 layer_factory.hpp:77] Creating layer inception_4c/pool_proj
I0403 18:35:58.794471 22921 net.cpp:91] Creating Layer inception_4c/pool_proj
I0403 18:35:58.794488 22921 net.cpp:425] inception_4c/pool_proj <- inception_4c/pool
I0403 18:35:58.794517 22921 net.cpp:399] inception_4c/pool_proj -> inception_4c/pool_proj
I0403 18:35:58.795722 22921 net.cpp:141] Setting up inception_4c/pool_proj
I0403 18:35:58.795748 22921 net.cpp:148] Top shape: 24 64 14 14 (301056)
I0403 18:35:58.795780 22921 net.cpp:156] Memory required for data: 1061809440
I0403 18:35:58.795799 22921 layer_factory.hpp:77] Creating layer inception_4c/relu_pool_proj
I0403 18:35:58.795816 22921 net.cpp:91] Creating Layer inception_4c/relu_pool_proj
I0403 18:35:58.795831 22921 net.cpp:425] inception_4c/relu_pool_proj <- inception_4c/pool_proj
I0403 18:35:58.795850 22921 net.cpp:386] inception_4c/relu_pool_proj -> inception_4c/pool_proj (in-place)
I0403 18:35:58.796026 22921 net.cpp:141] Setting up inception_4c/relu_pool_proj
I0403 18:35:58.796051 22921 net.cpp:148] Top shape: 24 64 14 14 (301056)
I0403 18:35:58.796066 22921 net.cpp:156] Memory required for data: 1063013664
I0403 18:35:58.796079 22921 layer_factory.hpp:77] Creating layer inception_4c/output
I0403 18:35:58.796095 22921 net.cpp:91] Creating Layer inception_4c/output
I0403 18:35:58.796110 22921 net.cpp:425] inception_4c/output <- inception_4c/1x1
I0403 18:35:58.796128 22921 net.cpp:425] inception_4c/output <- inception_4c/3x3
I0403 18:35:58.796144 22921 net.cpp:425] inception_4c/output <- inception_4c/5x5
I0403 18:35:58.796159 22921 net.cpp:425] inception_4c/output <- inception_4c/pool_proj
I0403 18:35:58.796175 22921 net.cpp:399] inception_4c/output -> inception_4c/output
I0403 18:35:58.796221 22921 net.cpp:141] Setting up inception_4c/output
I0403 18:35:58.796243 22921 net.cpp:148] Top shape: 24 512 14 14 (2408448)
I0403 18:35:58.796257 22921 net.cpp:156] Memory required for data: 1072647456
I0403 18:35:58.796272 22921 layer_factory.hpp:77] Creating layer inception_4c/output_inception_4c/output_0_split
I0403 18:35:58.796288 22921 net.cpp:91] Creating Layer inception_4c/output_inception_4c/output_0_split
I0403 18:35:58.796303 22921 net.cpp:425] inception_4c/output_inception_4c/output_0_split <- inception_4c/output
I0403 18:35:58.796320 22921 net.cpp:399] inception_4c/output_inception_4c/output_0_split -> inception_4c/output_inception_4c/output_0_split_0
I0403 18:35:58.796340 22921 net.cpp:399] inception_4c/output_inception_4c/output_0_split -> inception_4c/output_inception_4c/output_0_split_1
I0403 18:35:58.796360 22921 net.cpp:399] inception_4c/output_inception_4c/output_0_split -> inception_4c/output_inception_4c/output_0_split_2
I0403 18:35:58.796380 22921 net.cpp:399] inception_4c/output_inception_4c/output_0_split -> inception_4c/output_inception_4c/output_0_split_3
I0403 18:35:58.796464 22921 net.cpp:141] Setting up inception_4c/output_inception_4c/output_0_split
I0403 18:35:58.796489 22921 net.cpp:148] Top shape: 24 512 14 14 (2408448)
I0403 18:35:58.796509 22921 net.cpp:148] Top shape: 24 512 14 14 (2408448)
I0403 18:35:58.796527 22921 net.cpp:148] Top shape: 24 512 14 14 (2408448)
I0403 18:35:58.796541 22921 net.cpp:148] Top shape: 24 512 14 14 (2408448)
I0403 18:35:58.796555 22921 net.cpp:156] Memory required for data: 1111182624
I0403 18:35:58.796567 22921 layer_factory.hpp:77] Creating layer inception_4d/1x1
I0403 18:35:58.796588 22921 net.cpp:91] Creating Layer inception_4d/1x1
I0403 18:35:58.796605 22921 net.cpp:425] inception_4d/1x1 <- inception_4c/output_inception_4c/output_0_split_0
I0403 18:35:58.796623 22921 net.cpp:399] inception_4d/1x1 -> inception_4d/1x1
I0403 18:35:58.797965 22921 net.cpp:141] Setting up inception_4d/1x1
I0403 18:35:58.797994 22921 net.cpp:148] Top shape: 24 112 14 14 (526848)
I0403 18:35:58.798009 22921 net.cpp:156] Memory required for data: 1113290016
I0403 18:35:58.798027 22921 layer_factory.hpp:77] Creating layer inception_4d/relu_1x1
I0403 18:35:58.798044 22921 net.cpp:91] Creating Layer inception_4d/relu_1x1
I0403 18:35:58.798060 22921 net.cpp:425] inception_4d/relu_1x1 <- inception_4d/1x1
I0403 18:35:58.798079 22921 net.cpp:386] inception_4d/relu_1x1 -> inception_4d/1x1 (in-place)
I0403 18:35:58.798260 22921 net.cpp:141] Setting up inception_4d/relu_1x1
I0403 18:35:58.798285 22921 net.cpp:148] Top shape: 24 112 14 14 (526848)
I0403 18:35:58.798298 22921 net.cpp:156] Memory required for data: 1115397408
I0403 18:35:58.798313 22921 layer_factory.hpp:77] Creating layer inception_4d/3x3_reduce
I0403 18:35:58.798347 22921 net.cpp:91] Creating Layer inception_4d/3x3_reduce
I0403 18:35:58.798365 22921 net.cpp:425] inception_4d/3x3_reduce <- inception_4c/output_inception_4c/output_0_split_1
I0403 18:35:58.798385 22921 net.cpp:399] inception_4d/3x3_reduce -> inception_4d/3x3_reduce
I0403 18:35:58.799902 22921 net.cpp:141] Setting up inception_4d/3x3_reduce
I0403 18:35:58.799928 22921 net.cpp:148] Top shape: 24 144 14 14 (677376)
I0403 18:35:58.799942 22921 net.cpp:156] Memory required for data: 1118106912
I0403 18:35:58.799960 22921 layer_factory.hpp:77] Creating layer inception_4d/relu_3x3_reduce
I0403 18:35:58.799978 22921 net.cpp:91] Creating Layer inception_4d/relu_3x3_reduce
I0403 18:35:58.799994 22921 net.cpp:425] inception_4d/relu_3x3_reduce <- inception_4d/3x3_reduce
I0403 18:35:58.800010 22921 net.cpp:386] inception_4d/relu_3x3_reduce -> inception_4d/3x3_reduce (in-place)
I0403 18:35:58.800283 22921 net.cpp:141] Setting up inception_4d/relu_3x3_reduce
I0403 18:35:58.800309 22921 net.cpp:148] Top shape: 24 144 14 14 (677376)
I0403 18:35:58.800323 22921 net.cpp:156] Memory required for data: 1120816416
I0403 18:35:58.800336 22921 layer_factory.hpp:77] Creating layer inception_4d/3x3
I0403 18:35:58.800357 22921 net.cpp:91] Creating Layer inception_4d/3x3
I0403 18:35:58.800374 22921 net.cpp:425] inception_4d/3x3 <- inception_4d/3x3_reduce
I0403 18:35:58.800393 22921 net.cpp:399] inception_4d/3x3 -> inception_4d/3x3
I0403 18:35:58.804476 22921 net.cpp:141] Setting up inception_4d/3x3
I0403 18:35:58.804513 22921 net.cpp:148] Top shape: 24 288 14 14 (1354752)
I0403 18:35:58.804532 22921 net.cpp:156] Memory required for data: 1126235424
I0403 18:35:58.804548 22921 layer_factory.hpp:77] Creating layer inception_4d/relu_3x3
I0403 18:35:58.804565 22921 net.cpp:91] Creating Layer inception_4d/relu_3x3
I0403 18:35:58.804580 22921 net.cpp:425] inception_4d/relu_3x3 <- inception_4d/3x3
I0403 18:35:58.804597 22921 net.cpp:386] inception_4d/relu_3x3 -> inception_4d/3x3 (in-place)
I0403 18:35:58.804771 22921 net.cpp:141] Setting up inception_4d/relu_3x3
I0403 18:35:58.804795 22921 net.cpp:148] Top shape: 24 288 14 14 (1354752)
I0403 18:35:58.804810 22921 net.cpp:156] Memory required for data: 1131654432
I0403 18:35:58.804822 22921 layer_factory.hpp:77] Creating layer inception_4d/5x5_reduce
I0403 18:35:58.804843 22921 net.cpp:91] Creating Layer inception_4d/5x5_reduce
I0403 18:35:58.804860 22921 net.cpp:425] inception_4d/5x5_reduce <- inception_4c/output_inception_4c/output_0_split_2
I0403 18:35:58.804882 22921 net.cpp:399] inception_4d/5x5_reduce -> inception_4d/5x5_reduce
I0403 18:35:58.805955 22921 net.cpp:141] Setting up inception_4d/5x5_reduce
I0403 18:35:58.805984 22921 net.cpp:148] Top shape: 24 32 14 14 (150528)
I0403 18:35:58.805999 22921 net.cpp:156] Memory required for data: 1132256544
I0403 18:35:58.806016 22921 layer_factory.hpp:77] Creating layer inception_4d/relu_5x5_reduce
I0403 18:35:58.806033 22921 net.cpp:91] Creating Layer inception_4d/relu_5x5_reduce
I0403 18:35:58.806048 22921 net.cpp:425] inception_4d/relu_5x5_reduce <- inception_4d/5x5_reduce
I0403 18:35:58.806066 22921 net.cpp:386] inception_4d/relu_5x5_reduce -> inception_4d/5x5_reduce (in-place)
I0403 18:35:58.806246 22921 net.cpp:141] Setting up inception_4d/relu_5x5_reduce
I0403 18:35:58.806269 22921 net.cpp:148] Top shape: 24 32 14 14 (150528)
I0403 18:35:58.806283 22921 net.cpp:156] Memory required for data: 1132858656
I0403 18:35:58.806298 22921 layer_factory.hpp:77] Creating layer inception_4d/5x5
I0403 18:35:58.806318 22921 net.cpp:91] Creating Layer inception_4d/5x5
I0403 18:35:58.806335 22921 net.cpp:425] inception_4d/5x5 <- inception_4d/5x5_reduce
I0403 18:35:58.806354 22921 net.cpp:399] inception_4d/5x5 -> inception_4d/5x5
I0403 18:35:58.807751 22921 net.cpp:141] Setting up inception_4d/5x5
I0403 18:35:58.807777 22921 net.cpp:148] Top shape: 24 64 14 14 (301056)
I0403 18:35:58.807791 22921 net.cpp:156] Memory required for data: 1134062880
I0403 18:35:58.807809 22921 layer_factory.hpp:77] Creating layer inception_4d/relu_5x5
I0403 18:35:58.807842 22921 net.cpp:91] Creating Layer inception_4d/relu_5x5
I0403 18:35:58.807859 22921 net.cpp:425] inception_4d/relu_5x5 <- inception_4d/5x5
I0403 18:35:58.807875 22921 net.cpp:386] inception_4d/relu_5x5 -> inception_4d/5x5 (in-place)
I0403 18:35:58.808161 22921 net.cpp:141] Setting up inception_4d/relu_5x5
I0403 18:35:58.808185 22921 net.cpp:148] Top shape: 24 64 14 14 (301056)
I0403 18:35:58.808199 22921 net.cpp:156] Memory required for data: 1135267104
I0403 18:35:58.808213 22921 layer_factory.hpp:77] Creating layer inception_4d/pool
I0403 18:35:58.808230 22921 net.cpp:91] Creating Layer inception_4d/pool
I0403 18:35:58.808244 22921 net.cpp:425] inception_4d/pool <- inception_4c/output_inception_4c/output_0_split_3
I0403 18:35:58.808264 22921 net.cpp:399] inception_4d/pool -> inception_4d/pool
I0403 18:35:58.808328 22921 net.cpp:141] Setting up inception_4d/pool
I0403 18:35:58.808351 22921 net.cpp:148] Top shape: 24 512 14 14 (2408448)
I0403 18:35:58.808364 22921 net.cpp:156] Memory required for data: 1144900896
I0403 18:35:58.808377 22921 layer_factory.hpp:77] Creating layer inception_4d/pool_proj
I0403 18:35:58.808400 22921 net.cpp:91] Creating Layer inception_4d/pool_proj
I0403 18:35:58.808416 22921 net.cpp:425] inception_4d/pool_proj <- inception_4d/pool
I0403 18:35:58.808434 22921 net.cpp:399] inception_4d/pool_proj -> inception_4d/pool_proj
I0403 18:35:58.810134 22921 net.cpp:141] Setting up inception_4d/pool_proj
I0403 18:35:58.810164 22921 net.cpp:148] Top shape: 24 64 14 14 (301056)
I0403 18:35:58.810180 22921 net.cpp:156] Memory required for data: 1146105120
I0403 18:35:58.810197 22921 layer_factory.hpp:77] Creating layer inception_4d/relu_pool_proj
I0403 18:35:58.810214 22921 net.cpp:91] Creating Layer inception_4d/relu_pool_proj
I0403 18:35:58.810230 22921 net.cpp:425] inception_4d/relu_pool_proj <- inception_4d/pool_proj
I0403 18:35:58.810246 22921 net.cpp:386] inception_4d/relu_pool_proj -> inception_4d/pool_proj (in-place)
I0403 18:35:58.810426 22921 net.cpp:141] Setting up inception_4d/relu_pool_proj
I0403 18:35:58.810451 22921 net.cpp:148] Top shape: 24 64 14 14 (301056)
I0403 18:35:58.810464 22921 net.cpp:156] Memory required for data: 1147309344
I0403 18:35:58.810478 22921 layer_factory.hpp:77] Creating layer inception_4d/output
I0403 18:35:58.810493 22921 net.cpp:91] Creating Layer inception_4d/output
I0403 18:35:58.810511 22921 net.cpp:425] inception_4d/output <- inception_4d/1x1
I0403 18:35:58.810528 22921 net.cpp:425] inception_4d/output <- inception_4d/3x3
I0403 18:35:58.810544 22921 net.cpp:425] inception_4d/output <- inception_4d/5x5
I0403 18:35:58.810557 22921 net.cpp:425] inception_4d/output <- inception_4d/pool_proj
I0403 18:35:58.810575 22921 net.cpp:399] inception_4d/output -> inception_4d/output
I0403 18:35:58.810621 22921 net.cpp:141] Setting up inception_4d/output
I0403 18:35:58.810645 22921 net.cpp:148] Top shape: 24 528 14 14 (2483712)
I0403 18:35:58.810659 22921 net.cpp:156] Memory required for data: 1157244192
I0403 18:35:58.810673 22921 layer_factory.hpp:77] Creating layer inception_4d/output_inception_4d/output_0_split
I0403 18:35:58.810689 22921 net.cpp:91] Creating Layer inception_4d/output_inception_4d/output_0_split
I0403 18:35:58.810704 22921 net.cpp:425] inception_4d/output_inception_4d/output_0_split <- inception_4d/output
I0403 18:35:58.810724 22921 net.cpp:399] inception_4d/output_inception_4d/output_0_split -> inception_4d/output_inception_4d/output_0_split_0
I0403 18:35:58.810745 22921 net.cpp:399] inception_4d/output_inception_4d/output_0_split -> inception_4d/output_inception_4d/output_0_split_1
I0403 18:35:58.810765 22921 net.cpp:399] inception_4d/output_inception_4d/output_0_split -> inception_4d/output_inception_4d/output_0_split_2
I0403 18:35:58.810783 22921 net.cpp:399] inception_4d/output_inception_4d/output_0_split -> inception_4d/output_inception_4d/output_0_split_3
I0403 18:35:58.810802 22921 net.cpp:399] inception_4d/output_inception_4d/output_0_split -> inception_4d/output_inception_4d/output_0_split_4
I0403 18:35:58.810899 22921 net.cpp:141] Setting up inception_4d/output_inception_4d/output_0_split
I0403 18:35:58.810932 22921 net.cpp:148] Top shape: 24 528 14 14 (2483712)
I0403 18:35:58.810948 22921 net.cpp:148] Top shape: 24 528 14 14 (2483712)
I0403 18:35:58.810962 22921 net.cpp:148] Top shape: 24 528 14 14 (2483712)
I0403 18:35:58.810976 22921 net.cpp:148] Top shape: 24 528 14 14 (2483712)
I0403 18:35:58.810991 22921 net.cpp:148] Top shape: 24 528 14 14 (2483712)
I0403 18:35:58.811003 22921 net.cpp:156] Memory required for data: 1206918432
I0403 18:35:58.811017 22921 layer_factory.hpp:77] Creating layer loss2/ave_pool
I0403 18:35:58.811035 22921 net.cpp:91] Creating Layer loss2/ave_pool
I0403 18:35:58.811051 22921 net.cpp:425] loss2/ave_pool <- inception_4d/output_inception_4d/output_0_split_0
I0403 18:35:58.811069 22921 net.cpp:399] loss2/ave_pool -> loss2/ave_pool
I0403 18:35:58.811369 22921 net.cpp:141] Setting up loss2/ave_pool
I0403 18:35:58.811398 22921 net.cpp:148] Top shape: 24 528 4 4 (202752)
I0403 18:35:58.811411 22921 net.cpp:156] Memory required for data: 1207729440
I0403 18:35:58.811425 22921 layer_factory.hpp:77] Creating layer loss2/conv
I0403 18:35:58.811446 22921 net.cpp:91] Creating Layer loss2/conv
I0403 18:35:58.811463 22921 net.cpp:425] loss2/conv <- loss2/ave_pool
I0403 18:35:58.811481 22921 net.cpp:399] loss2/conv -> loss2/conv
I0403 18:35:58.813289 22921 net.cpp:141] Setting up loss2/conv
I0403 18:35:58.813315 22921 net.cpp:148] Top shape: 24 128 4 4 (49152)
I0403 18:35:58.813330 22921 net.cpp:156] Memory required for data: 1207926048
I0403 18:35:58.813347 22921 layer_factory.hpp:77] Creating layer loss2/relu_conv
I0403 18:35:58.813366 22921 net.cpp:91] Creating Layer loss2/relu_conv
I0403 18:35:58.813382 22921 net.cpp:425] loss2/relu_conv <- loss2/conv
I0403 18:35:58.813400 22921 net.cpp:386] loss2/relu_conv -> loss2/conv (in-place)
I0403 18:35:58.813671 22921 net.cpp:141] Setting up loss2/relu_conv
I0403 18:35:58.813696 22921 net.cpp:148] Top shape: 24 128 4 4 (49152)
I0403 18:35:58.813711 22921 net.cpp:156] Memory required for data: 1208122656
I0403 18:35:58.813725 22921 layer_factory.hpp:77] Creating layer loss2/fc
I0403 18:35:58.813745 22921 net.cpp:91] Creating Layer loss2/fc
I0403 18:35:58.813762 22921 net.cpp:425] loss2/fc <- loss2/conv
I0403 18:35:58.813781 22921 net.cpp:399] loss2/fc -> loss2/fc
I0403 18:35:58.830745 22921 net.cpp:141] Setting up loss2/fc
I0403 18:35:58.830777 22921 net.cpp:148] Top shape: 24 1024 (24576)
I0403 18:35:58.830793 22921 net.cpp:156] Memory required for data: 1208220960
I0403 18:35:58.830811 22921 layer_factory.hpp:77] Creating layer loss2/relu_fc
I0403 18:35:58.830827 22921 net.cpp:91] Creating Layer loss2/relu_fc
I0403 18:35:58.830843 22921 net.cpp:425] loss2/relu_fc <- loss2/fc
I0403 18:35:58.830862 22921 net.cpp:386] loss2/relu_fc -> loss2/fc (in-place)
I0403 18:35:58.831146 22921 net.cpp:141] Setting up loss2/relu_fc
I0403 18:35:58.831172 22921 net.cpp:148] Top shape: 24 1024 (24576)
I0403 18:35:58.831187 22921 net.cpp:156] Memory required for data: 1208319264
I0403 18:35:58.831202 22921 layer_factory.hpp:77] Creating layer loss2/drop_fc
I0403 18:35:58.831218 22921 net.cpp:91] Creating Layer loss2/drop_fc
I0403 18:35:58.831233 22921 net.cpp:425] loss2/drop_fc <- loss2/fc
I0403 18:35:58.831253 22921 net.cpp:386] loss2/drop_fc -> loss2/fc (in-place)
I0403 18:35:58.831300 22921 net.cpp:141] Setting up loss2/drop_fc
I0403 18:35:58.831321 22921 net.cpp:148] Top shape: 24 1024 (24576)
I0403 18:35:58.831334 22921 net.cpp:156] Memory required for data: 1208417568
I0403 18:35:58.831347 22921 layer_factory.hpp:77] Creating layer loss2/classifier_plantvillage
I0403 18:35:58.831372 22921 net.cpp:91] Creating Layer loss2/classifier_plantvillage
I0403 18:35:58.831387 22921 net.cpp:425] loss2/classifier_plantvillage <- loss2/fc
I0403 18:35:58.831408 22921 net.cpp:399] loss2/classifier_plantvillage -> loss2/classifier_plantvillage
I0403 18:35:58.831832 22921 net.cpp:141] Setting up loss2/classifier_plantvillage
I0403 18:35:58.831869 22921 net.cpp:148] Top shape: 24 38 (912)
I0403 18:35:58.831900 22921 net.cpp:156] Memory required for data: 1208421216
I0403 18:35:58.831919 22921 layer_factory.hpp:77] Creating layer loss2/classifier_plantvillage_loss2/classifier_plantvillage_0_split
I0403 18:35:58.831939 22921 net.cpp:91] Creating Layer loss2/classifier_plantvillage_loss2/classifier_plantvillage_0_split
I0403 18:35:58.831956 22921 net.cpp:425] loss2/classifier_plantvillage_loss2/classifier_plantvillage_0_split <- loss2/classifier_plantvillage
I0403 18:35:58.831974 22921 net.cpp:399] loss2/classifier_plantvillage_loss2/classifier_plantvillage_0_split -> loss2/classifier_plantvillage_loss2/classifier_plantvillage_0_split_0
I0403 18:35:58.831992 22921 net.cpp:399] loss2/classifier_plantvillage_loss2/classifier_plantvillage_0_split -> loss2/classifier_plantvillage_loss2/classifier_plantvillage_0_split_1
I0403 18:35:58.832012 22921 net.cpp:399] loss2/classifier_plantvillage_loss2/classifier_plantvillage_0_split -> loss2/classifier_plantvillage_loss2/classifier_plantvillage_0_split_2
I0403 18:35:58.832089 22921 net.cpp:141] Setting up loss2/classifier_plantvillage_loss2/classifier_plantvillage_0_split
I0403 18:35:58.832111 22921 net.cpp:148] Top shape: 24 38 (912)
I0403 18:35:58.832126 22921 net.cpp:148] Top shape: 24 38 (912)
I0403 18:35:58.832141 22921 net.cpp:148] Top shape: 24 38 (912)
I0403 18:35:58.832154 22921 net.cpp:156] Memory required for data: 1208432160
I0403 18:35:58.832167 22921 layer_factory.hpp:77] Creating layer inception_4e/1x1
I0403 18:35:58.832185 22921 net.cpp:91] Creating Layer inception_4e/1x1
I0403 18:35:58.832202 22921 net.cpp:425] inception_4e/1x1 <- inception_4d/output_inception_4d/output_0_split_1
I0403 18:35:58.832222 22921 net.cpp:399] inception_4e/1x1 -> inception_4e/1x1
I0403 18:35:58.833992 22921 net.cpp:141] Setting up inception_4e/1x1
I0403 18:35:58.834018 22921 net.cpp:148] Top shape: 24 256 14 14 (1204224)
I0403 18:35:58.834033 22921 net.cpp:156] Memory required for data: 1213249056
I0403 18:35:58.834051 22921 layer_factory.hpp:77] Creating layer inception_4e/relu_1x1
I0403 18:35:58.834071 22921 net.cpp:91] Creating Layer inception_4e/relu_1x1
I0403 18:35:58.834089 22921 net.cpp:425] inception_4e/relu_1x1 <- inception_4e/1x1
I0403 18:35:58.834105 22921 net.cpp:386] inception_4e/relu_1x1 -> inception_4e/1x1 (in-place)
I0403 18:35:58.834393 22921 net.cpp:141] Setting up inception_4e/relu_1x1
I0403 18:35:58.834419 22921 net.cpp:148] Top shape: 24 256 14 14 (1204224)
I0403 18:35:58.834434 22921 net.cpp:156] Memory required for data: 1218065952
I0403 18:35:58.834447 22921 layer_factory.hpp:77] Creating layer inception_4e/3x3_reduce
I0403 18:35:58.834470 22921 net.cpp:91] Creating Layer inception_4e/3x3_reduce
I0403 18:35:58.834486 22921 net.cpp:425] inception_4e/3x3_reduce <- inception_4d/output_inception_4d/output_0_split_2
I0403 18:35:58.834516 22921 net.cpp:399] inception_4e/3x3_reduce -> inception_4e/3x3_reduce
I0403 18:35:58.836601 22921 net.cpp:141] Setting up inception_4e/3x3_reduce
I0403 18:35:58.836628 22921 net.cpp:148] Top shape: 24 160 14 14 (752640)
I0403 18:35:58.836643 22921 net.cpp:156] Memory required for data: 1221076512
I0403 18:35:58.836661 22921 layer_factory.hpp:77] Creating layer inception_4e/relu_3x3_reduce
I0403 18:35:58.836680 22921 net.cpp:91] Creating Layer inception_4e/relu_3x3_reduce
I0403 18:35:58.836697 22921 net.cpp:425] inception_4e/relu_3x3_reduce <- inception_4e/3x3_reduce
I0403 18:35:58.836714 22921 net.cpp:386] inception_4e/relu_3x3_reduce -> inception_4e/3x3_reduce (in-place)
I0403 18:35:58.836894 22921 net.cpp:141] Setting up inception_4e/relu_3x3_reduce
I0403 18:35:58.836917 22921 net.cpp:148] Top shape: 24 160 14 14 (752640)
I0403 18:35:58.836932 22921 net.cpp:156] Memory required for data: 1224087072
I0403 18:35:58.836946 22921 layer_factory.hpp:77] Creating layer inception_4e/3x3
I0403 18:35:58.836967 22921 net.cpp:91] Creating Layer inception_4e/3x3
I0403 18:35:58.836987 22921 net.cpp:425] inception_4e/3x3 <- inception_4e/3x3_reduce
I0403 18:35:58.837003 22921 net.cpp:399] inception_4e/3x3 -> inception_4e/3x3
I0403 18:35:58.841912 22921 net.cpp:141] Setting up inception_4e/3x3
I0403 18:35:58.841953 22921 net.cpp:148] Top shape: 24 320 14 14 (1505280)
I0403 18:35:58.841969 22921 net.cpp:156] Memory required for data: 1230108192
I0403 18:35:58.841986 22921 layer_factory.hpp:77] Creating layer inception_4e/relu_3x3
I0403 18:35:58.842005 22921 net.cpp:91] Creating Layer inception_4e/relu_3x3
I0403 18:35:58.842022 22921 net.cpp:425] inception_4e/relu_3x3 <- inception_4e/3x3
I0403 18:35:58.842039 22921 net.cpp:386] inception_4e/relu_3x3 -> inception_4e/3x3 (in-place)
I0403 18:35:58.842334 22921 net.cpp:141] Setting up inception_4e/relu_3x3
I0403 18:35:58.842362 22921 net.cpp:148] Top shape: 24 320 14 14 (1505280)
I0403 18:35:58.842377 22921 net.cpp:156] Memory required for data: 1236129312
I0403 18:35:58.842391 22921 layer_factory.hpp:77] Creating layer inception_4e/5x5_reduce
I0403 18:35:58.842414 22921 net.cpp:91] Creating Layer inception_4e/5x5_reduce
I0403 18:35:58.842432 22921 net.cpp:425] inception_4e/5x5_reduce <- inception_4d/output_inception_4d/output_0_split_3
I0403 18:35:58.842450 22921 net.cpp:399] inception_4e/5x5_reduce -> inception_4e/5x5_reduce
I0403 18:35:58.843497 22921 net.cpp:141] Setting up inception_4e/5x5_reduce
I0403 18:35:58.843528 22921 net.cpp:148] Top shape: 24 32 14 14 (150528)
I0403 18:35:58.843544 22921 net.cpp:156] Memory required for data: 1236731424
I0403 18:35:58.843560 22921 layer_factory.hpp:77] Creating layer inception_4e/relu_5x5_reduce
I0403 18:35:58.843580 22921 net.cpp:91] Creating Layer inception_4e/relu_5x5_reduce
I0403 18:35:58.843597 22921 net.cpp:425] inception_4e/relu_5x5_reduce <- inception_4e/5x5_reduce
I0403 18:35:58.843614 22921 net.cpp:386] inception_4e/relu_5x5_reduce -> inception_4e/5x5_reduce (in-place)
I0403 18:35:58.843904 22921 net.cpp:141] Setting up inception_4e/relu_5x5_reduce
I0403 18:35:58.843930 22921 net.cpp:148] Top shape: 24 32 14 14 (150528)
I0403 18:35:58.843945 22921 net.cpp:156] Memory required for data: 1237333536
I0403 18:35:58.843958 22921 layer_factory.hpp:77] Creating layer inception_4e/5x5
I0403 18:35:58.843994 22921 net.cpp:91] Creating Layer inception_4e/5x5
I0403 18:35:58.844013 22921 net.cpp:425] inception_4e/5x5 <- inception_4e/5x5_reduce
I0403 18:35:58.844033 22921 net.cpp:399] inception_4e/5x5 -> inception_4e/5x5
I0403 18:35:58.845842 22921 net.cpp:141] Setting up inception_4e/5x5
I0403 18:35:58.845870 22921 net.cpp:148] Top shape: 24 128 14 14 (602112)
I0403 18:35:58.845885 22921 net.cpp:156] Memory required for data: 1239741984
I0403 18:35:58.845904 22921 layer_factory.hpp:77] Creating layer inception_4e/relu_5x5
I0403 18:35:58.845922 22921 net.cpp:91] Creating Layer inception_4e/relu_5x5
I0403 18:35:58.845938 22921 net.cpp:425] inception_4e/relu_5x5 <- inception_4e/5x5
I0403 18:35:58.845957 22921 net.cpp:386] inception_4e/relu_5x5 -> inception_4e/5x5 (in-place)
I0403 18:35:58.846150 22921 net.cpp:141] Setting up inception_4e/relu_5x5
I0403 18:35:58.846174 22921 net.cpp:148] Top shape: 24 128 14 14 (602112)
I0403 18:35:58.846189 22921 net.cpp:156] Memory required for data: 1242150432
I0403 18:35:58.846202 22921 layer_factory.hpp:77] Creating layer inception_4e/pool
I0403 18:35:58.846222 22921 net.cpp:91] Creating Layer inception_4e/pool
I0403 18:35:58.846240 22921 net.cpp:425] inception_4e/pool <- inception_4d/output_inception_4d/output_0_split_4
I0403 18:35:58.846256 22921 net.cpp:399] inception_4e/pool -> inception_4e/pool
I0403 18:35:58.846325 22921 net.cpp:141] Setting up inception_4e/pool
I0403 18:35:58.846349 22921 net.cpp:148] Top shape: 24 528 14 14 (2483712)
I0403 18:35:58.846364 22921 net.cpp:156] Memory required for data: 1252085280
I0403 18:35:58.846377 22921 layer_factory.hpp:77] Creating layer inception_4e/pool_proj
I0403 18:35:58.846398 22921 net.cpp:91] Creating Layer inception_4e/pool_proj
I0403 18:35:58.846415 22921 net.cpp:425] inception_4e/pool_proj <- inception_4e/pool
I0403 18:35:58.846434 22921 net.cpp:399] inception_4e/pool_proj -> inception_4e/pool_proj
I0403 18:35:58.847908 22921 net.cpp:141] Setting up inception_4e/pool_proj
I0403 18:35:58.847949 22921 net.cpp:148] Top shape: 24 128 14 14 (602112)
I0403 18:35:58.847965 22921 net.cpp:156] Memory required for data: 1254493728
I0403 18:35:58.847982 22921 layer_factory.hpp:77] Creating layer inception_4e/relu_pool_proj
I0403 18:35:58.848001 22921 net.cpp:91] Creating Layer inception_4e/relu_pool_proj
I0403 18:35:58.848016 22921 net.cpp:425] inception_4e/relu_pool_proj <- inception_4e/pool_proj
I0403 18:35:58.848034 22921 net.cpp:386] inception_4e/relu_pool_proj -> inception_4e/pool_proj (in-place)
I0403 18:35:58.848320 22921 net.cpp:141] Setting up inception_4e/relu_pool_proj
I0403 18:35:58.848358 22921 net.cpp:148] Top shape: 24 128 14 14 (602112)
I0403 18:35:58.848376 22921 net.cpp:156] Memory required for data: 1256902176
I0403 18:35:58.848390 22921 layer_factory.hpp:77] Creating layer inception_4e/output
I0403 18:35:58.848407 22921 net.cpp:91] Creating Layer inception_4e/output
I0403 18:35:58.848423 22921 net.cpp:425] inception_4e/output <- inception_4e/1x1
I0403 18:35:58.848438 22921 net.cpp:425] inception_4e/output <- inception_4e/3x3
I0403 18:35:58.848454 22921 net.cpp:425] inception_4e/output <- inception_4e/5x5
I0403 18:35:58.848470 22921 net.cpp:425] inception_4e/output <- inception_4e/pool_proj
I0403 18:35:58.848487 22921 net.cpp:399] inception_4e/output -> inception_4e/output
I0403 18:35:58.848542 22921 net.cpp:141] Setting up inception_4e/output
I0403 18:35:58.848567 22921 net.cpp:148] Top shape: 24 832 14 14 (3913728)
I0403 18:35:58.848580 22921 net.cpp:156] Memory required for data: 1272557088
I0403 18:35:58.848594 22921 layer_factory.hpp:77] Creating layer pool4/3x3_s2
I0403 18:35:58.848614 22921 net.cpp:91] Creating Layer pool4/3x3_s2
I0403 18:35:58.848661 22921 net.cpp:425] pool4/3x3_s2 <- inception_4e/output
I0403 18:35:58.848681 22921 net.cpp:399] pool4/3x3_s2 -> pool4/3x3_s2
I0403 18:35:58.848749 22921 net.cpp:141] Setting up pool4/3x3_s2
I0403 18:35:58.848773 22921 net.cpp:148] Top shape: 24 832 7 7 (978432)
I0403 18:35:58.848786 22921 net.cpp:156] Memory required for data: 1276470816
I0403 18:35:58.848800 22921 layer_factory.hpp:77] Creating layer pool4/3x3_s2_pool4/3x3_s2_0_split
I0403 18:35:58.848817 22921 net.cpp:91] Creating Layer pool4/3x3_s2_pool4/3x3_s2_0_split
I0403 18:35:58.848832 22921 net.cpp:425] pool4/3x3_s2_pool4/3x3_s2_0_split <- pool4/3x3_s2
I0403 18:35:58.848852 22921 net.cpp:399] pool4/3x3_s2_pool4/3x3_s2_0_split -> pool4/3x3_s2_pool4/3x3_s2_0_split_0
I0403 18:35:58.848871 22921 net.cpp:399] pool4/3x3_s2_pool4/3x3_s2_0_split -> pool4/3x3_s2_pool4/3x3_s2_0_split_1
I0403 18:35:58.848891 22921 net.cpp:399] pool4/3x3_s2_pool4/3x3_s2_0_split -> pool4/3x3_s2_pool4/3x3_s2_0_split_2
I0403 18:35:58.848923 22921 net.cpp:399] pool4/3x3_s2_pool4/3x3_s2_0_split -> pool4/3x3_s2_pool4/3x3_s2_0_split_3
I0403 18:35:58.849014 22921 net.cpp:141] Setting up pool4/3x3_s2_pool4/3x3_s2_0_split
I0403 18:35:58.849038 22921 net.cpp:148] Top shape: 24 832 7 7 (978432)
I0403 18:35:58.849055 22921 net.cpp:148] Top shape: 24 832 7 7 (978432)
I0403 18:35:58.849068 22921 net.cpp:148] Top shape: 24 832 7 7 (978432)
I0403 18:35:58.849082 22921 net.cpp:148] Top shape: 24 832 7 7 (978432)
I0403 18:35:58.849097 22921 net.cpp:156] Memory required for data: 1292125728
I0403 18:35:58.849109 22921 layer_factory.hpp:77] Creating layer inception_5a/1x1
I0403 18:35:58.849130 22921 net.cpp:91] Creating Layer inception_5a/1x1
I0403 18:35:58.849148 22921 net.cpp:425] inception_5a/1x1 <- pool4/3x3_s2_pool4/3x3_s2_0_split_0
I0403 18:35:58.849165 22921 net.cpp:399] inception_5a/1x1 -> inception_5a/1x1
I0403 18:35:58.851886 22921 net.cpp:141] Setting up inception_5a/1x1
I0403 18:35:58.851912 22921 net.cpp:148] Top shape: 24 256 7 7 (301056)
I0403 18:35:58.851927 22921 net.cpp:156] Memory required for data: 1293329952
I0403 18:35:58.851945 22921 layer_factory.hpp:77] Creating layer inception_5a/relu_1x1
I0403 18:35:58.851963 22921 net.cpp:91] Creating Layer inception_5a/relu_1x1
I0403 18:35:58.851980 22921 net.cpp:425] inception_5a/relu_1x1 <- inception_5a/1x1
I0403 18:35:58.851996 22921 net.cpp:386] inception_5a/relu_1x1 -> inception_5a/1x1 (in-place)
I0403 18:35:58.852291 22921 net.cpp:141] Setting up inception_5a/relu_1x1
I0403 18:35:58.852316 22921 net.cpp:148] Top shape: 24 256 7 7 (301056)
I0403 18:35:58.852331 22921 net.cpp:156] Memory required for data: 1294534176
I0403 18:35:58.852345 22921 layer_factory.hpp:77] Creating layer inception_5a/3x3_reduce
I0403 18:35:58.852365 22921 net.cpp:91] Creating Layer inception_5a/3x3_reduce
I0403 18:35:58.852383 22921 net.cpp:425] inception_5a/3x3_reduce <- pool4/3x3_s2_pool4/3x3_s2_0_split_1
I0403 18:35:58.852402 22921 net.cpp:399] inception_5a/3x3_reduce -> inception_5a/3x3_reduce
I0403 18:35:58.854768 22921 net.cpp:141] Setting up inception_5a/3x3_reduce
I0403 18:35:58.854796 22921 net.cpp:148] Top shape: 24 160 7 7 (188160)
I0403 18:35:58.854812 22921 net.cpp:156] Memory required for data: 1295286816
I0403 18:35:58.854830 22921 layer_factory.hpp:77] Creating layer inception_5a/relu_3x3_reduce
I0403 18:35:58.854847 22921 net.cpp:91] Creating Layer inception_5a/relu_3x3_reduce
I0403 18:35:58.854862 22921 net.cpp:425] inception_5a/relu_3x3_reduce <- inception_5a/3x3_reduce
I0403 18:35:58.854879 22921 net.cpp:386] inception_5a/relu_3x3_reduce -> inception_5a/3x3_reduce (in-place)
I0403 18:35:58.855059 22921 net.cpp:141] Setting up inception_5a/relu_3x3_reduce
I0403 18:35:58.855083 22921 net.cpp:148] Top shape: 24 160 7 7 (188160)
I0403 18:35:58.855098 22921 net.cpp:156] Memory required for data: 1296039456
I0403 18:35:58.855111 22921 layer_factory.hpp:77] Creating layer inception_5a/3x3
I0403 18:35:58.855131 22921 net.cpp:91] Creating Layer inception_5a/3x3
I0403 18:35:58.855149 22921 net.cpp:425] inception_5a/3x3 <- inception_5a/3x3_reduce
I0403 18:35:58.855170 22921 net.cpp:399] inception_5a/3x3 -> inception_5a/3x3
I0403 18:35:58.860002 22921 net.cpp:141] Setting up inception_5a/3x3
I0403 18:35:58.860029 22921 net.cpp:148] Top shape: 24 320 7 7 (376320)
I0403 18:35:58.860045 22921 net.cpp:156] Memory required for data: 1297544736
I0403 18:35:58.860064 22921 layer_factory.hpp:77] Creating layer inception_5a/relu_3x3
I0403 18:35:58.860080 22921 net.cpp:91] Creating Layer inception_5a/relu_3x3
I0403 18:35:58.860096 22921 net.cpp:425] inception_5a/relu_3x3 <- inception_5a/3x3
I0403 18:35:58.860115 22921 net.cpp:386] inception_5a/relu_3x3 -> inception_5a/3x3 (in-place)
I0403 18:35:58.860397 22921 net.cpp:141] Setting up inception_5a/relu_3x3
I0403 18:35:58.860422 22921 net.cpp:148] Top shape: 24 320 7 7 (376320)
I0403 18:35:58.860436 22921 net.cpp:156] Memory required for data: 1299050016
I0403 18:35:58.860450 22921 layer_factory.hpp:77] Creating layer inception_5a/5x5_reduce
I0403 18:35:58.860471 22921 net.cpp:91] Creating Layer inception_5a/5x5_reduce
I0403 18:35:58.860489 22921 net.cpp:425] inception_5a/5x5_reduce <- pool4/3x3_s2_pool4/3x3_s2_0_split_2
I0403 18:35:58.860512 22921 net.cpp:399] inception_5a/5x5_reduce -> inception_5a/5x5_reduce
I0403 18:35:58.861697 22921 net.cpp:141] Setting up inception_5a/5x5_reduce
I0403 18:35:58.861726 22921 net.cpp:148] Top shape: 24 32 7 7 (37632)
I0403 18:35:58.861740 22921 net.cpp:156] Memory required for data: 1299200544
I0403 18:35:58.861757 22921 layer_factory.hpp:77] Creating layer inception_5a/relu_5x5_reduce
I0403 18:35:58.861778 22921 net.cpp:91] Creating Layer inception_5a/relu_5x5_reduce
I0403 18:35:58.861794 22921 net.cpp:425] inception_5a/relu_5x5_reduce <- inception_5a/5x5_reduce
I0403 18:35:58.861810 22921 net.cpp:386] inception_5a/relu_5x5_reduce -> inception_5a/5x5_reduce (in-place)
I0403 18:35:58.862092 22921 net.cpp:141] Setting up inception_5a/relu_5x5_reduce
I0403 18:35:58.862118 22921 net.cpp:148] Top shape: 24 32 7 7 (37632)
I0403 18:35:58.862133 22921 net.cpp:156] Memory required for data: 1299351072
I0403 18:35:58.862146 22921 layer_factory.hpp:77] Creating layer inception_5a/5x5
I0403 18:35:58.862167 22921 net.cpp:91] Creating Layer inception_5a/5x5
I0403 18:35:58.862185 22921 net.cpp:425] inception_5a/5x5 <- inception_5a/5x5_reduce
I0403 18:35:58.862205 22921 net.cpp:399] inception_5a/5x5 -> inception_5a/5x5
I0403 18:35:58.863850 22921 net.cpp:141] Setting up inception_5a/5x5
I0403 18:35:58.863888 22921 net.cpp:148] Top shape: 24 128 7 7 (150528)
I0403 18:35:58.863903 22921 net.cpp:156] Memory required for data: 1299953184
I0403 18:35:58.863920 22921 layer_factory.hpp:77] Creating layer inception_5a/relu_5x5
I0403 18:35:58.863939 22921 net.cpp:91] Creating Layer inception_5a/relu_5x5
I0403 18:35:58.863955 22921 net.cpp:425] inception_5a/relu_5x5 <- inception_5a/5x5
I0403 18:35:58.863972 22921 net.cpp:386] inception_5a/relu_5x5 -> inception_5a/5x5 (in-place)
I0403 18:35:58.864154 22921 net.cpp:141] Setting up inception_5a/relu_5x5
I0403 18:35:58.864178 22921 net.cpp:148] Top shape: 24 128 7 7 (150528)
I0403 18:35:58.864192 22921 net.cpp:156] Memory required for data: 1300555296
I0403 18:35:58.864207 22921 layer_factory.hpp:77] Creating layer inception_5a/pool
I0403 18:35:58.864225 22921 net.cpp:91] Creating Layer inception_5a/pool
I0403 18:35:58.864243 22921 net.cpp:425] inception_5a/pool <- pool4/3x3_s2_pool4/3x3_s2_0_split_3
I0403 18:35:58.864259 22921 net.cpp:399] inception_5a/pool -> inception_5a/pool
I0403 18:35:58.864326 22921 net.cpp:141] Setting up inception_5a/pool
I0403 18:35:58.864349 22921 net.cpp:148] Top shape: 24 832 7 7 (978432)
I0403 18:35:58.864363 22921 net.cpp:156] Memory required for data: 1304469024
I0403 18:35:58.864377 22921 layer_factory.hpp:77] Creating layer inception_5a/pool_proj
I0403 18:35:58.864397 22921 net.cpp:91] Creating Layer inception_5a/pool_proj
I0403 18:35:58.864414 22921 net.cpp:425] inception_5a/pool_proj <- inception_5a/pool
I0403 18:35:58.864434 22921 net.cpp:399] inception_5a/pool_proj -> inception_5a/pool_proj
I0403 18:35:58.866628 22921 net.cpp:141] Setting up inception_5a/pool_proj
I0403 18:35:58.866658 22921 net.cpp:148] Top shape: 24 128 7 7 (150528)
I0403 18:35:58.866674 22921 net.cpp:156] Memory required for data: 1305071136
I0403 18:35:58.866691 22921 layer_factory.hpp:77] Creating layer inception_5a/relu_pool_proj
I0403 18:35:58.866708 22921 net.cpp:91] Creating Layer inception_5a/relu_pool_proj
I0403 18:35:58.866724 22921 net.cpp:425] inception_5a/relu_pool_proj <- inception_5a/pool_proj
I0403 18:35:58.866742 22921 net.cpp:386] inception_5a/relu_pool_proj -> inception_5a/pool_proj (in-place)
I0403 18:35:58.867028 22921 net.cpp:141] Setting up inception_5a/relu_pool_proj
I0403 18:35:58.867054 22921 net.cpp:148] Top shape: 24 128 7 7 (150528)
I0403 18:35:58.867069 22921 net.cpp:156] Memory required for data: 1305673248
I0403 18:35:58.867084 22921 layer_factory.hpp:77] Creating layer inception_5a/output
I0403 18:35:58.867100 22921 net.cpp:91] Creating Layer inception_5a/output
I0403 18:35:58.867115 22921 net.cpp:425] inception_5a/output <- inception_5a/1x1
I0403 18:35:58.867131 22921 net.cpp:425] inception_5a/output <- inception_5a/3x3
I0403 18:35:58.867146 22921 net.cpp:425] inception_5a/output <- inception_5a/5x5
I0403 18:35:58.867161 22921 net.cpp:425] inception_5a/output <- inception_5a/pool_proj
I0403 18:35:58.867179 22921 net.cpp:399] inception_5a/output -> inception_5a/output
I0403 18:35:58.867226 22921 net.cpp:141] Setting up inception_5a/output
I0403 18:35:58.867249 22921 net.cpp:148] Top shape: 24 832 7 7 (978432)
I0403 18:35:58.867264 22921 net.cpp:156] Memory required for data: 1309586976
I0403 18:35:58.867276 22921 layer_factory.hpp:77] Creating layer inception_5a/output_inception_5a/output_0_split
I0403 18:35:58.867297 22921 net.cpp:91] Creating Layer inception_5a/output_inception_5a/output_0_split
I0403 18:35:58.867312 22921 net.cpp:425] inception_5a/output_inception_5a/output_0_split <- inception_5a/output
I0403 18:35:58.867329 22921 net.cpp:399] inception_5a/output_inception_5a/output_0_split -> inception_5a/output_inception_5a/output_0_split_0
I0403 18:35:58.867347 22921 net.cpp:399] inception_5a/output_inception_5a/output_0_split -> inception_5a/output_inception_5a/output_0_split_1
I0403 18:35:58.867369 22921 net.cpp:399] inception_5a/output_inception_5a/output_0_split -> inception_5a/output_inception_5a/output_0_split_2
I0403 18:35:58.867389 22921 net.cpp:399] inception_5a/output_inception_5a/output_0_split -> inception_5a/output_inception_5a/output_0_split_3
I0403 18:35:58.867493 22921 net.cpp:141] Setting up inception_5a/output_inception_5a/output_0_split
I0403 18:35:58.867519 22921 net.cpp:148] Top shape: 24 832 7 7 (978432)
I0403 18:35:58.867535 22921 net.cpp:148] Top shape: 24 832 7 7 (978432)
I0403 18:35:58.867550 22921 net.cpp:148] Top shape: 24 832 7 7 (978432)
I0403 18:35:58.867564 22921 net.cpp:148] Top shape: 24 832 7 7 (978432)
I0403 18:35:58.867578 22921 net.cpp:156] Memory required for data: 1325241888
I0403 18:35:58.867591 22921 layer_factory.hpp:77] Creating layer inception_5b/1x1
I0403 18:35:58.867611 22921 net.cpp:91] Creating Layer inception_5b/1x1
I0403 18:35:58.867629 22921 net.cpp:425] inception_5b/1x1 <- inception_5a/output_inception_5a/output_0_split_0
I0403 18:35:58.867647 22921 net.cpp:399] inception_5b/1x1 -> inception_5b/1x1
I0403 18:35:58.871244 22921 net.cpp:141] Setting up inception_5b/1x1
I0403 18:35:58.871276 22921 net.cpp:148] Top shape: 24 384 7 7 (451584)
I0403 18:35:58.871294 22921 net.cpp:156] Memory required for data: 1327048224
I0403 18:35:58.871311 22921 layer_factory.hpp:77] Creating layer inception_5b/relu_1x1
I0403 18:35:58.871330 22921 net.cpp:91] Creating Layer inception_5b/relu_1x1
I0403 18:35:58.871345 22921 net.cpp:425] inception_5b/relu_1x1 <- inception_5b/1x1
I0403 18:35:58.871361 22921 net.cpp:386] inception_5b/relu_1x1 -> inception_5b/1x1 (in-place)
I0403 18:35:58.871657 22921 net.cpp:141] Setting up inception_5b/relu_1x1
I0403 18:35:58.871685 22921 net.cpp:148] Top shape: 24 384 7 7 (451584)
I0403 18:35:58.871701 22921 net.cpp:156] Memory required for data: 1328854560
I0403 18:35:58.871714 22921 layer_factory.hpp:77] Creating layer inception_5b/3x3_reduce
I0403 18:35:58.871734 22921 net.cpp:91] Creating Layer inception_5b/3x3_reduce
I0403 18:35:58.871752 22921 net.cpp:425] inception_5b/3x3_reduce <- inception_5a/output_inception_5a/output_0_split_1
I0403 18:35:58.871770 22921 net.cpp:399] inception_5b/3x3_reduce -> inception_5b/3x3_reduce
I0403 18:35:58.874347 22921 net.cpp:141] Setting up inception_5b/3x3_reduce
I0403 18:35:58.874377 22921 net.cpp:148] Top shape: 24 192 7 7 (225792)
I0403 18:35:58.874392 22921 net.cpp:156] Memory required for data: 1329757728
I0403 18:35:58.874409 22921 layer_factory.hpp:77] Creating layer inception_5b/relu_3x3_reduce
I0403 18:35:58.874426 22921 net.cpp:91] Creating Layer inception_5b/relu_3x3_reduce
I0403 18:35:58.874441 22921 net.cpp:425] inception_5b/relu_3x3_reduce <- inception_5b/3x3_reduce
I0403 18:35:58.874459 22921 net.cpp:386] inception_5b/relu_3x3_reduce -> inception_5b/3x3_reduce (in-place)
I0403 18:35:58.874650 22921 net.cpp:141] Setting up inception_5b/relu_3x3_reduce
I0403 18:35:58.874675 22921 net.cpp:148] Top shape: 24 192 7 7 (225792)
I0403 18:35:58.874689 22921 net.cpp:156] Memory required for data: 1330660896
I0403 18:35:58.874703 22921 layer_factory.hpp:77] Creating layer inception_5b/3x3
I0403 18:35:58.874723 22921 net.cpp:91] Creating Layer inception_5b/3x3
I0403 18:35:58.874740 22921 net.cpp:425] inception_5b/3x3 <- inception_5b/3x3_reduce
I0403 18:35:58.874761 22921 net.cpp:399] inception_5b/3x3 -> inception_5b/3x3
I0403 18:35:58.881163 22921 net.cpp:141] Setting up inception_5b/3x3
I0403 18:35:58.881192 22921 net.cpp:148] Top shape: 24 384 7 7 (451584)
I0403 18:35:58.881208 22921 net.cpp:156] Memory required for data: 1332467232
I0403 18:35:58.881225 22921 layer_factory.hpp:77] Creating layer inception_5b/relu_3x3
I0403 18:35:58.881243 22921 net.cpp:91] Creating Layer inception_5b/relu_3x3
I0403 18:35:58.881259 22921 net.cpp:425] inception_5b/relu_3x3 <- inception_5b/3x3
I0403 18:35:58.881278 22921 net.cpp:386] inception_5b/relu_3x3 -> inception_5b/3x3 (in-place)
I0403 18:35:58.881566 22921 net.cpp:141] Setting up inception_5b/relu_3x3
I0403 18:35:58.881592 22921 net.cpp:148] Top shape: 24 384 7 7 (451584)
I0403 18:35:58.881608 22921 net.cpp:156] Memory required for data: 1334273568
I0403 18:35:58.881623 22921 layer_factory.hpp:77] Creating layer inception_5b/5x5_reduce
I0403 18:35:58.881661 22921 net.cpp:91] Creating Layer inception_5b/5x5_reduce
I0403 18:35:58.881680 22921 net.cpp:425] inception_5b/5x5_reduce <- inception_5a/output_inception_5a/output_0_split_2
I0403 18:35:58.881698 22921 net.cpp:399] inception_5b/5x5_reduce -> inception_5b/5x5_reduce
I0403 18:35:58.882967 22921 net.cpp:141] Setting up inception_5b/5x5_reduce
I0403 18:35:58.882997 22921 net.cpp:148] Top shape: 24 48 7 7 (56448)
I0403 18:35:58.883013 22921 net.cpp:156] Memory required for data: 1334499360
I0403 18:35:58.883030 22921 layer_factory.hpp:77] Creating layer inception_5b/relu_5x5_reduce
I0403 18:35:58.883049 22921 net.cpp:91] Creating Layer inception_5b/relu_5x5_reduce
I0403 18:35:58.883064 22921 net.cpp:425] inception_5b/relu_5x5_reduce <- inception_5b/5x5_reduce
I0403 18:35:58.883082 22921 net.cpp:386] inception_5b/relu_5x5_reduce -> inception_5b/5x5_reduce (in-place)
I0403 18:35:58.883452 22921 net.cpp:141] Setting up inception_5b/relu_5x5_reduce
I0403 18:35:58.883478 22921 net.cpp:148] Top shape: 24 48 7 7 (56448)
I0403 18:35:58.883493 22921 net.cpp:156] Memory required for data: 1334725152
I0403 18:35:58.883512 22921 layer_factory.hpp:77] Creating layer inception_5b/5x5
I0403 18:35:58.883533 22921 net.cpp:91] Creating Layer inception_5b/5x5
I0403 18:35:58.883549 22921 net.cpp:425] inception_5b/5x5 <- inception_5b/5x5_reduce
I0403 18:35:58.883568 22921 net.cpp:399] inception_5b/5x5 -> inception_5b/5x5
I0403 18:35:58.885591 22921 net.cpp:141] Setting up inception_5b/5x5
I0403 18:35:58.885619 22921 net.cpp:148] Top shape: 24 128 7 7 (150528)
I0403 18:35:58.885634 22921 net.cpp:156] Memory required for data: 1335327264
I0403 18:35:58.885651 22921 layer_factory.hpp:77] Creating layer inception_5b/relu_5x5
I0403 18:35:58.885668 22921 net.cpp:91] Creating Layer inception_5b/relu_5x5
I0403 18:35:58.885689 22921 net.cpp:425] inception_5b/relu_5x5 <- inception_5b/5x5
I0403 18:35:58.885704 22921 net.cpp:386] inception_5b/relu_5x5 -> inception_5b/5x5 (in-place)
I0403 18:35:58.885895 22921 net.cpp:141] Setting up inception_5b/relu_5x5
I0403 18:35:58.885920 22921 net.cpp:148] Top shape: 24 128 7 7 (150528)
I0403 18:35:58.885933 22921 net.cpp:156] Memory required for data: 1335929376
I0403 18:35:58.885947 22921 layer_factory.hpp:77] Creating layer inception_5b/pool
I0403 18:35:58.885967 22921 net.cpp:91] Creating Layer inception_5b/pool
I0403 18:35:58.885983 22921 net.cpp:425] inception_5b/pool <- inception_5a/output_inception_5a/output_0_split_3
I0403 18:35:58.886000 22921 net.cpp:399] inception_5b/pool -> inception_5b/pool
I0403 18:35:58.886073 22921 net.cpp:141] Setting up inception_5b/pool
I0403 18:35:58.886096 22921 net.cpp:148] Top shape: 24 832 7 7 (978432)
I0403 18:35:58.886111 22921 net.cpp:156] Memory required for data: 1339843104
I0403 18:35:58.886126 22921 layer_factory.hpp:77] Creating layer inception_5b/pool_proj
I0403 18:35:58.886147 22921 net.cpp:91] Creating Layer inception_5b/pool_proj
I0403 18:35:58.886164 22921 net.cpp:425] inception_5b/pool_proj <- inception_5b/pool
I0403 18:35:58.886185 22921 net.cpp:399] inception_5b/pool_proj -> inception_5b/pool_proj
I0403 18:35:58.888455 22921 net.cpp:141] Setting up inception_5b/pool_proj
I0403 18:35:58.888484 22921 net.cpp:148] Top shape: 24 128 7 7 (150528)
I0403 18:35:58.888499 22921 net.cpp:156] Memory required for data: 1340445216
I0403 18:35:58.888521 22921 layer_factory.hpp:77] Creating layer inception_5b/relu_pool_proj
I0403 18:35:58.888540 22921 net.cpp:91] Creating Layer inception_5b/relu_pool_proj
I0403 18:35:58.888556 22921 net.cpp:425] inception_5b/relu_pool_proj <- inception_5b/pool_proj
I0403 18:35:58.888576 22921 net.cpp:386] inception_5b/relu_pool_proj -> inception_5b/pool_proj (in-place)
I0403 18:35:58.888870 22921 net.cpp:141] Setting up inception_5b/relu_pool_proj
I0403 18:35:58.888896 22921 net.cpp:148] Top shape: 24 128 7 7 (150528)
I0403 18:35:58.888911 22921 net.cpp:156] Memory required for data: 1341047328
I0403 18:35:58.888926 22921 layer_factory.hpp:77] Creating layer inception_5b/output
I0403 18:35:58.888942 22921 net.cpp:91] Creating Layer inception_5b/output
I0403 18:35:58.888972 22921 net.cpp:425] inception_5b/output <- inception_5b/1x1
I0403 18:35:58.888989 22921 net.cpp:425] inception_5b/output <- inception_5b/3x3
I0403 18:35:58.889005 22921 net.cpp:425] inception_5b/output <- inception_5b/5x5
I0403 18:35:58.889020 22921 net.cpp:425] inception_5b/output <- inception_5b/pool_proj
I0403 18:35:58.889039 22921 net.cpp:399] inception_5b/output -> inception_5b/output
I0403 18:35:58.889089 22921 net.cpp:141] Setting up inception_5b/output
I0403 18:35:58.889112 22921 net.cpp:148] Top shape: 24 1024 7 7 (1204224)
I0403 18:35:58.889130 22921 net.cpp:156] Memory required for data: 1345864224
I0403 18:35:58.889144 22921 layer_factory.hpp:77] Creating layer pool5/7x7_s1
I0403 18:35:58.889160 22921 net.cpp:91] Creating Layer pool5/7x7_s1
I0403 18:35:58.889175 22921 net.cpp:425] pool5/7x7_s1 <- inception_5b/output
I0403 18:35:58.889192 22921 net.cpp:399] pool5/7x7_s1 -> pool5/7x7_s1
I0403 18:35:58.889405 22921 net.cpp:141] Setting up pool5/7x7_s1
I0403 18:35:58.889430 22921 net.cpp:148] Top shape: 24 1024 1 1 (24576)
I0403 18:35:58.889446 22921 net.cpp:156] Memory required for data: 1345962528
I0403 18:35:58.889458 22921 layer_factory.hpp:77] Creating layer pool5/drop_7x7_s1
I0403 18:35:58.889475 22921 net.cpp:91] Creating Layer pool5/drop_7x7_s1
I0403 18:35:58.889492 22921 net.cpp:425] pool5/drop_7x7_s1 <- pool5/7x7_s1
I0403 18:35:58.889514 22921 net.cpp:386] pool5/drop_7x7_s1 -> pool5/7x7_s1 (in-place)
I0403 18:35:58.889564 22921 net.cpp:141] Setting up pool5/drop_7x7_s1
I0403 18:35:58.889588 22921 net.cpp:148] Top shape: 24 1024 1 1 (24576)
I0403 18:35:58.889603 22921 net.cpp:156] Memory required for data: 1346060832
I0403 18:35:58.889617 22921 layer_factory.hpp:77] Creating layer loss3/classifier_plantvillage
I0403 18:35:58.889636 22921 net.cpp:91] Creating Layer loss3/classifier_plantvillage
I0403 18:35:58.889652 22921 net.cpp:425] loss3/classifier_plantvillage <- pool5/7x7_s1
I0403 18:35:58.889670 22921 net.cpp:399] loss3/classifier_plantvillage -> loss3/classifier_plantvillage
I0403 18:35:58.890087 22921 net.cpp:141] Setting up loss3/classifier_plantvillage
I0403 18:35:58.890110 22921 net.cpp:148] Top shape: 24 38 (912)
I0403 18:35:58.890125 22921 net.cpp:156] Memory required for data: 1346064480
I0403 18:35:58.890141 22921 layer_factory.hpp:77] Creating layer loss3/classifier_plantvillage_loss3/classifier_plantvillage_0_split
I0403 18:35:58.890161 22921 net.cpp:91] Creating Layer loss3/classifier_plantvillage_loss3/classifier_plantvillage_0_split
I0403 18:35:58.890178 22921 net.cpp:425] loss3/classifier_plantvillage_loss3/classifier_plantvillage_0_split <- loss3/classifier_plantvillage
I0403 18:35:58.890195 22921 net.cpp:399] loss3/classifier_plantvillage_loss3/classifier_plantvillage_0_split -> loss3/classifier_plantvillage_loss3/classifier_plantvillage_0_split_0
I0403 18:35:58.890214 22921 net.cpp:399] loss3/classifier_plantvillage_loss3/classifier_plantvillage_0_split -> loss3/classifier_plantvillage_loss3/classifier_plantvillage_0_split_1
I0403 18:35:58.890238 22921 net.cpp:399] loss3/classifier_plantvillage_loss3/classifier_plantvillage_0_split -> loss3/classifier_plantvillage_loss3/classifier_plantvillage_0_split_2
I0403 18:35:58.890256 22921 net.cpp:399] loss3/classifier_plantvillage_loss3/classifier_plantvillage_0_split -> loss3/classifier_plantvillage_loss3/classifier_plantvillage_0_split_3
I0403 18:35:58.890354 22921 net.cpp:141] Setting up loss3/classifier_plantvillage_loss3/classifier_plantvillage_0_split
I0403 18:35:58.890377 22921 net.cpp:148] Top shape: 24 38 (912)
I0403 18:35:58.890393 22921 net.cpp:148] Top shape: 24 38 (912)
I0403 18:35:58.890406 22921 net.cpp:148] Top shape: 24 38 (912)
I0403 18:35:58.890421 22921 net.cpp:148] Top shape: 24 38 (912)
I0403 18:35:58.890434 22921 net.cpp:156] Memory required for data: 1346079072
I0403 18:35:58.890447 22921 layer_factory.hpp:77] Creating layer loss1/loss
I0403 18:35:58.890467 22921 net.cpp:91] Creating Layer loss1/loss
I0403 18:35:58.890483 22921 net.cpp:425] loss1/loss <- loss1/classifier_plantvillage_loss1/classifier_plantvillage_0_split_0
I0403 18:35:58.890516 22921 net.cpp:425] loss1/loss <- label_data_1_split_0
…
