…
I0403 18:21:36.967232 22199 net.cpp:313] The NetState phase (1) differed from the phase (0) specified by a rule in layer data
I0403 18:21:36.968363 22199 net.cpp:49] Initializing net from parameters: 
state {
  phase: TEST
}
layer {
  name: "data"
  type: "Data"
  top: "data"
  top: "label"
  include {
    phase: TEST
  }
  transform_param {
    mirror: false
    crop_size: 224
    mean_file: "/home/mohanty/data/final_dataset/lmdb/segmented-40-60/mean.binaryproto"
  }
  data_param {
    source: "/home/mohanty/data/final_dataset/lmdb/segmented-40-60/test_db"
    batch_size: 24
    backend: LMDB
  }
}
layer {
  name: "conv1/7x7_s2"
  type: "Convolution"
  bottom: "data"
  top: "conv1/7x7_s2"
  param {
    lr_mult: 1
    decay_mult: 1
  }
  param {
    lr_mult: 2
    decay_mult: 0
  }
  convolution_param {
    num_output: 64
    pad: 3
    kernel_size: 7
    stride: 2
    weight_filler {
      type: "xavier"
      std: 0.1
    }
    bias_filler {
      type: "constant"
      value: 0.2
    }
  }
}
layer {
  name: "conv1/relu_7x7"
  type: "ReLU"
  bottom: "conv1/7x7_s2"
  top: "conv1/7x7_s2"
}
layer {
  name: "pool1/3x3_s2"
  type: "Pooling"
  bottom: "conv1/7x7_s2"
  top: "pool1/3x3_s2"
  pooling_param {
    pool: MAX
    kernel_size: 3
    stride: 2
  }
}
layer {
  name: "pool1/norm1"
  type: "LRN"
  bottom: "pool1/3x3_s2"
  top: "pool1/norm1"
  lrn_param {
    local_size: 5
    alpha: 0.0001
    beta: 0.75
  }
}
layer {
  name: "conv2/3x3_reduce"
  type: "Convolution"
  bottom: "pool1/norm1"
  top: "conv2/3x3_reduce"
  param {
    lr_mult: 1
    decay_mult: 1
  }
  param {
    lr_mult: 2
    decay_mult: 0
  }
  convolution_param {
    num_output: 64
    kernel_size: 1
    weight_filler {
      type: "xavier"
      std: 0.1
    }
    bias_filler {
      type: "constant"
      value: 0.2
    }
  }
}
layer {
  name: "conv2/relu_3x3_reduce"
  type: "ReLU"
  bottom: "conv2/3x3_reduce"
  top: "conv2/3x3_reduce"
}
layer {
  name: "conv2/3x3"
  type: "Convolution"
  bottom: "conv2/3x3_reduce"
  top: "conv2/3x3"
  param {
    lr_mult: 1
    decay_mult: 1
  }
  param {
    lr_mult: 2
    decay_mult: 0
  }
  convolution_param {
    num_output: 192
    pad: 1
    kernel_size: 3
    weight_filler {
      type: "xavier"
      std: 0.03
    }
    bias_filler {
      type: "constant"
      value: 0.2
    }
  }
}
layer {
  name: "conv2/relu_3x3"
  type: "ReLU"
  bottom: "conv2/3x3"
  top: "conv2/3x3"
}
layer {
  name: "conv2/norm2"
  type: "LRN"
  bottom: "conv2/3x3"
  top: "conv2/norm2"
  lrn_param {
    local_size: 5
    alpha: 0.0001
    beta: 0.75
  }
}
layer {
  name: "pool2/3x3_s2"
  type: "Pooling"
  bottom: "conv2/norm2"
  top: "pool2/3x3_s2"
  pooling_param {
    pool: MAX
    kernel_size: 3
    stride: 2
  }
}
layer {
  name: "inception_3a/1x1"
  type: "Convolution"
  bottom: "pool2/3x3_s2"
  top: "inception_3a/1x1"
  param {
    lr_mult: 1
    decay_mult: 1
  }
  param {
    lr_mult: 2
    decay_mult: 0
  }
  convolution_param {
    num_output: 64
    kernel_size: 1
    weight_filler {
      type: "xavier"
      std: 0.03
    }
    bias_filler {
      type: "constant"
      value: 0.2
    }
  }
}
layer {
  name: "inception_3a/relu_1x1"
  type: "ReLU"
  bottom: "inception_3a/1x1"
  top: "inception_3a/1x1"
}
layer {
  name: "inception_3a/3x3_reduce"
  type: "Convolution"
  bottom: "pool2/3x3_s2"
  top: "inception_3a/3x3_reduce"
  param {
    lr_mult: 1
    decay_mult: 1
  }
  param {
    lr_mult: 2
    decay_mult: 0
  }
  convolution_param {
    num_output: 96
    kernel_size: 1
    weight_filler {
      type: "xavier"
      std: 0.09
    }
    bias_filler {
      type: "constant"
      value: 0.2
    }
  }
}
layer {
  name: "inception_3a/relu_3x3_reduce"
  type: "ReLU"
  bottom: "inception_3a/3x3_reduce"
  top: "inception_3a/3x3_reduce"
}
layer {
  name: "inception_3a/3x3"
  type: "Convolution"
  bottom: "inception_3a/3x3_reduce"
  top: "inception_3a/3x3"
  param {
    lr_mult: 1
    decay_mult: 1
  }
  param {
    lr_mult: 2
    decay_mult: 0
  }
  convolution_param {
    num_output: 128
    pad: 1
    kernel_size: 3
    weight_filler {
      type: "xavier"
      std: 0.03
    }
    bias_filler {
      type: "constant"
      value: 0.2
    }
  }
}
layer {
  name: "inception_3a/relu_3x3"
  type: "ReLU"
  bottom: "inception_3a/3x3"
  top: "inception_3a/3x3"
}
layer {
  name: "inception_3a/5x5_reduce"
  type: "Convolution"
  bottom: "pool2/3x3_s2"
  top: "inception_3a/5x5_reduce"
  param {
    lr_mult: 1
    decay_mult: 1
  }
  param {
    lr_mult: 2
    decay_mult: 0
  }
  convolution_param {
    num_output: 16
    kernel_size: 1
    weight_filler {
      type: "xavier"
      std: 0.2
    }
    bias_filler {
      type: "constant"
      value: 0.2
    }
  }
}
layer {
  name: "inception_3a/relu_5x5_reduce"
  type: "ReLU"
  bottom: "inception_3a/5x5_reduce"
  top: "inception_3a/5x5_reduce"
}
layer {
  name: "inception_3a/5x5"
  type: "Convolution"
  bottom: "inception_3a/5x5_reduce"
  top: "inception_3a/5x5"
  param {
    lr_mult: 1
    decay_mult: 1
  }
  param {
    lr_mult: 2
    decay_mult: 0
  }
  convolution_param {
    num_output: 32
    pad: 2
    kernel_size: 5
    weight_filler {
      type: "xavier"
      std: 0.03
    }
    bias_filler {
      type: "constant"
      value: 0.2
    }
  }
}
layer {
  name: "inception_3a/relu_5x5"
  type: "ReLU"
  bottom: "inception_3a/5x5"
  top: "inception_3a/5x5"
}
layer {
  name: "inception_3a/pool"
  type: "Pooling"
  bottom: "pool2/3x3_s2"
  top: "inception_3a/pool"
  pooling_param {
    pool: MAX
    kernel_size: 3
    stride: 1
    pad: 1
  }
}
layer {
  name: "inception_3a/pool_proj"
  type: "Convolution"
  bottom: "inception_3a/pool"
  top: "inception_3a/pool_proj"
  param {
    lr_mult: 1
    decay_mult: 1
  }
  param {
    lr_mult: 2
    decay_mult: 0
  }
  convolution_param {
    num_output: 32
    kernel_size: 1
    weight_filler {
      type: "xavier"
      std: 0.1
    }
    bias_filler {
      type: "constant"
      value: 0.2
    }
  }
}
layer {
  name: "inception_3a/relu_pool_proj"
  type: "ReLU"
  bottom: "inception_3a/pool_proj"
  top: "inception_3a/pool_proj"
}
layer {
  name: "inception_3a/output"
  type: "Concat"
  bottom: "inception_3a/1x1"
  bottom: "inception_3a/3x3"
  bottom: "inception_3a/5x5"
  bottom: "inception_3a/pool_proj"
  top: "inception_3a/output"
}
layer {
  name: "inception_3b/1x1"
  type: "Convolution"
  bottom: "inception_3a/output"
  top: "inception_3b/1x1"
  param {
    lr_mult: 1
    decay_mult: 1
  }
  param {
    lr_mult: 2
    decay_mult: 0
  }
  convolution_param {
    num_output: 128
    kernel_size: 1
    weight_filler {
      type: "xavier"
      std: 0.03
    }
    bias_filler {
      type: "constant"
      value: 0.2
    }
  }
}
layer {
  name: "inception_3b/relu_1x1"
  type: "ReLU"
  bottom: "inception_3b/1x1"
  top: "inception_3b/1x1"
}
layer {
  name: "inception_3b/3x3_reduce"
  type: "Convolution"
  bottom: "inception_3a/output"
  top: "inception_3b/3x3_reduce"
  param {
    lr_mult: 1
    decay_mult: 1
  }
  param {
    lr_mult: 2
    decay_mult: 0
  }
  convolution_param {
    num_output: 128
    kernel_size: 1
    weight_filler {
      type: "xavier"
      std: 0.09
    }
    bias_filler {
      type: "constant"
      value: 0.2
    }
  }
}
layer {
  name: "inception_3b/relu_3x3_reduce"
  type: "ReLU"
  bottom: "inception_3b/3x3_reduce"
  top: "inception_3b/3x3_reduce"
}
layer {
  name: "inception_3b/3x3"
  type: "Convolution"
  bottom: "inception_3b/3x3_reduce"
  top: "inception_3b/3x3"
  param {
    lr_mult: 1
    decay_mult: 1
  }
  param {
    lr_mult: 2
    decay_mult: 0
  }
  convolution_param {
    num_output: 192
    pad: 1
    kernel_size: 3
    weight_filler {
      type: "xavier"
      std: 0.03
    }
    bias_filler {
      type: "constant"
      value: 0.2
    }
  }
}
layer {
  name: "inception_3b/relu_3x3"
  type: "ReLU"
  bottom: "inception_3b/3x3"
  top: "inception_3b/3x3"
}
layer {
  name: "inception_3b/5x5_reduce"
  type: "Convolution"
  bottom: "inception_3a/output"
  top: "inception_3b/5x5_reduce"
  param {
    lr_mult: 1
    decay_mult: 1
  }
  param {
    lr_mult: 2
    decay_mult: 0
  }
  convolution_param {
    num_output: 32
    kernel_size: 1
    weight_filler {
      type: "xavier"
      std: 0.2
    }
    bias_filler {
      type: "constant"
      value: 0.2
    }
  }
}
layer {
  name: "inception_3b/relu_5x5_reduce"
  type: "ReLU"
  bottom: "inception_3b/5x5_reduce"
  top: "inception_3b/5x5_reduce"
}
layer {
  name: "inception_3b/5x5"
  type: "Convolution"
  bottom: "inception_3b/5x5_reduce"
  top: "inception_3b/5x5"
  param {
    lr_mult: 1
    decay_mult: 1
  }
  param {
    lr_mult: 2
    decay_mult: 0
  }
  convolution_param {
    num_output: 96
    pad: 2
    kernel_size: 5
    weight_filler {
      type: "xavier"
      std: 0.03
    }
    bias_filler {
      type: "constant"
      value: 0.2
    }
  }
}
layer {
  name: "inception_3b/relu_5x5"
  type: "ReLU"
  bottom: "inception_3b/5x5"
  top: "inception_3b/5x5"
}
layer {
  name: "inception_3b/pool"
  type: "Pooling"
  bottom: "inception_3a/output"
  top: "inception_3b/pool"
  pooling_param {
    pool: MAX
    kernel_size: 3
    stride: 1
    pad: 1
  }
}
layer {
  name: "inception_3b/pool_proj"
  type: "Convolution"
  bottom: "inception_3b/pool"
  top: "inception_3b/pool_proj"
  param {
    lr_mult: 1
    decay_mult: 1
  }
  param {
    lr_mult: 2
    decay_mult: 0
  }
  convolution_param {
    num_output: 64
    kernel_size: 1
    weight_filler {
      type: "xavier"
      std: 0.1
    }
    bias_filler {
      type: "constant"
      value: 0.2
    }
  }
}
layer {
  name: "inception_3b/relu_pool_proj"
  type: "ReLU"
  bottom: "inception_3b/pool_proj"
  top: "inception_3b/pool_proj"
}
layer {
  name: "inception_3b/output"
  type: "Concat"
  bottom: "inception_3b/1x1"
  bottom: "inception_3b/3x3"
  bottom: "inception_3b/5x5"
  bottom: "inception_3b/pool_proj"
  top: "inception_3b/output"
}
layer {
  name: "pool3/3x3_s2"
  type: "Pooling"
  bottom: "inception_3b/output"
  top: "pool3/3x3_s2"
  pooling_param {
    pool: MAX
    kernel_size: 3
    stride: 2
  }
}
layer {
  name: "inception_4a/1x1"
  type: "Convolution"
  bottom: "pool3/3x3_s2"
  top: "inception_4a/1x1"
  param {
    lr_mult: 1
    decay_mult: 1
  }
  param {
    lr_mult: 2
    decay_mult: 0
  }
  convolution_param {
    num_output: 192
    kernel_size: 1
    weight_filler {
      type: "xavier"
      std: 0.03
    }
    bias_filler {
      type: "constant"
      value: 0.2
    }
  }
}
layer {
  name: "inception_4a/relu_1x1"
  type: "ReLU"
  bottom: "inception_4a/1x1"
  top: "inception_4a/1x1"
}
layer {
  name: "inception_4a/3x3_reduce"
  type: "Convolution"
  bottom: "pool3/3x3_s2"
  top: "inception_4a/3x3_reduce"
  param {
    lr_mult: 1
    decay_mult: 1
  }
  param {
    lr_mult: 2
    decay_mult: 0
  }
  convolution_param {
    num_output: 96
    kernel_size: 1
    weight_filler {
      type: "xavier"
      std: 0.09
    }
    bias_filler {
      type: "constant"
      value: 0.2
    }
  }
}
layer {
  name: "inception_4a/relu_3x3_reduce"
  type: "ReLU"
  bottom: "inception_4a/3x3_reduce"
  top: "inception_4a/3x3_reduce"
}
layer {
  name: "inception_4a/3x3"
  type: "Convolution"
  bottom: "inception_4a/3x3_reduce"
  top: "inception_4a/3x3"
  param {
    lr_mult: 1
    decay_mult: 1
  }
  param {
    lr_mult: 2
    decay_mult: 0
  }
  convolution_param {
    num_output: 208
    pad: 1
    kernel_size: 3
    weight_filler {
      type: "xavier"
      std: 0.03
    }
    bias_filler {
      type: "constant"
      value: 0.2
    }
  }
}
layer {
  name: "inception_4a/relu_3x3"
  type: "ReLU"
  bottom: "inception_4a/3x3"
  top: "inception_4a/3x3"
}
layer {
  name: "inception_4a/5x5_reduce"
  type: "Convolution"
  bottom: "pool3/3x3_s2"
  top: "inception_4a/5x5_reduce"
  param {
    lr_mult: 1
    decay_mult: 1
  }
  param {
    lr_mult: 2
    decay_mult: 0
  }
  convolution_param {
    num_output: 16
    kernel_size: 1
    weight_filler {
      type: "xavier"
      std: 0.2
    }
    bias_filler {
      type: "constant"
      value: 0.2
    }
  }
}
layer {
  name: "inception_4a/relu_5x5_reduce"
  type: "ReLU"
  bottom: "inception_4a/5x5_reduce"
  top: "inception_4a/5x5_reduce"
}
layer {
  name: "inception_4a/5x5"
  type: "Convolution"
  bottom: "inception_4a/5x5_reduce"
  top: "inception_4a/5x5"
  param {
    lr_mult: 1
    decay_mult: 1
  }
  param {
    lr_mult: 2
    decay_mult: 0
  }
  convolution_param {
    num_output: 48
    pad: 2
    kernel_size: 5
    weight_filler {
      type: "xavier"
      std: 0.03
    }
    bias_filler {
      type: "constant"
      value: 0.2
    }
  }
}
layer {
  name: "inception_4a/relu_5x5"
  type: "ReLU"
  bottom: "inception_4a/5x5"
  top: "inception_4a/5x5"
}
layer {
  name: "inception_4a/pool"
  type: "Pooling"
  bottom: "pool3/3x3_s2"
  top: "inception_4a/pool"
  pooling_param {
    pool: MAX
    kernel_size: 3
    stride: 1
    pad: 1
  }
}
layer {
  name: "inception_4a/pool_proj"
  type: "Convolution"
  bottom: "inception_4a/pool"
  top: "inception_4a/pool_proj"
  param {
    lr_mult: 1
    decay_mult: 1
  }
  param {
    lr_mult: 2
    decay_mult: 0
  }
  convolution_param {
    num_output: 64
    kernel_size: 1
    weight_filler {
      type: "xavier"
      std: 0.1
    }
    bias_filler {
      type: "constant"
      value: 0.2
    }
  }
}
layer {
  name: "inception_4a/relu_pool_proj"
  type: "ReLU"
  bottom: "inception_4a/pool_proj"
  top: "inception_4a/pool_proj"
}
layer {
  name: "inception_4a/output"
  type: "Concat"
  bottom: "inception_4a/1x1"
  bottom: "inception_4a/3x3"
  bottom: "inception_4a/5x5"
  bottom: "inception_4a/pool_proj"
  top: "inception_4a/output"
}
layer {
  name: "loss1/ave_pool"
  type: "Pooling"
  bottom: "inception_4a/output"
  top: "loss1/ave_pool"
  pooling_param {
    pool: AVE
    kernel_size: 5
    stride: 3
  }
}
layer {
  name: "loss1/conv"
  type: "Convolution"
  bottom: "loss1/ave_pool"
  top: "loss1/conv"
  param {
    lr_mult: 1
    decay_mult: 1
  }
  param {
    lr_mult: 2
    decay_mult: 0
  }
  convolution_param {
    num_output: 128
    kernel_size: 1
    weight_filler {
      type: "xavier"
      std: 0.08
    }
    bias_filler {
      type: "constant"
      value: 0.2
    }
  }
}
layer {
  name: "loss1/relu_conv"
  type: "ReLU"
  bottom: "loss1/conv"
  top: "loss1/conv"
}
layer {
  name: "loss1/fc"
  type: "InnerProduct"
  bottom: "loss1/conv"
  top: "loss1/fc"
  param {
    lr_mult: 1
    decay_mult: 1
  }
  param {
    lr_mult: 2
    decay_mult: 0
  }
  inner_product_param {
    num_output: 1024
    weight_filler {
      type: "xavier"
      std: 0.02
    }
    bias_filler {
      type: "constant"
      value: 0.2
    }
  }
}
layer {
  name: "loss1/relu_fc"
  type: "ReLU"
  bottom: "loss1/fc"
  top: "loss1/fc"
}
layer {
  name: "loss1/drop_fc"
  type: "Dropout"
  bottom: "loss1/fc"
  top: "loss1/fc"
  dropout_param {
    dropout_ratio: 0.7
  }
}
layer {
  name: "loss1/classifier_plantvillage"
  type: "InnerProduct"
  bottom: "loss1/fc"
  top: "loss1/classifier_plantvillage"
  param {
    lr_mult: 1
    decay_mult: 1
  }
  param {
    lr_mult: 2
    decay_mult: 0
  }
  inner_product_param {
    num_output: 38
    weight_filler {
      type: "xavier"
      std: 0.0009765625
    }
    bias_filler {
      type: "constant"
      value: 0
    }
  }
}
layer {
  name: "inception_4b/1x1"
  type: "Convolution"
  bottom: "inception_4a/output"
  top: "inception_4b/1x1"
  param {
    lr_mult: 1
    decay_mult: 1
  }
  param {
    lr_mult: 2
    decay_mult: 0
  }
  convolution_param {
    num_output: 160
    kernel_size: 1
    weight_filler {
      type: "xavier"
      std: 0.03
    }
    bias_filler {
      type: "constant"
      value: 0.2
    }
  }
}
layer {
  name: "inception_4b/relu_1x1"
  type: "ReLU"
  bottom: "inception_4b/1x1"
  top: "inception_4b/1x1"
}
layer {
  name: "inception_4b/3x3_reduce"
  type: "Convolution"
  bottom: "inception_4a/output"
  top: "inception_4b/3x3_reduce"
  param {
    lr_mult: 1
    decay_mult: 1
  }
  param {
    lr_mult: 2
    decay_mult: 0
  }
  convolution_param {
    num_output: 112
    kernel_size: 1
    weight_filler {
      type: "xavier"
      std: 0.09
    }
    bias_filler {
      type: "constant"
      value: 0.2
    }
  }
}
layer {
  name: "inception_4b/relu_3x3_reduce"
  type: "ReLU"
  bottom: "inception_4b/3x3_reduce"
  top: "inception_4b/3x3_reduce"
}
layer {
  name: "inception_4b/3x3"
  type: "Convolution"
  bottom: "inception_4b/3x3_reduce"
  top: "inception_4b/3x3"
  param {
    lr_mult: 1
    decay_mult: 1
  }
  param {
    lr_mult: 2
    decay_mult: 0
  }
  convolution_param {
    num_output: 224
    pad: 1
    kernel_size: 3
    weight_filler {
      type: "xavier"
      std: 0.03
    }
    bias_filler {
      type: "constant"
      value: 0.2
    }
  }
}
layer {
  name: "inception_4b/relu_3x3"
  type: "ReLU"
  bottom: "inception_4b/3x3"
  top: "inception_4b/3x3"
}
layer {
  name: "inception_4b/5x5_reduce"
  type: "Convolution"
  bottom: "inception_4a/output"
  top: "inception_4b/5x5_reduce"
  param {
    lr_mult: 1
    decay_mult: 1
  }
  param {
    lr_mult: 2
    decay_mult: 0
  }
  convolution_param {
    num_output: 24
    kernel_size: 1
    weight_filler {
      type: "xavier"
      std: 0.2
    }
    bias_filler {
      type: "constant"
      value: 0.2
    }
  }
}
layer {
  name: "inception_4b/relu_5x5_reduce"
  type: "ReLU"
  bottom: "inception_4b/5x5_reduce"
  top: "inception_4b/5x5_reduce"
}
layer {
  name: "inception_4b/5x5"
  type: "Convolution"
  bottom: "inception_4b/5x5_reduce"
  top: "inception_4b/5x5"
  param {
    lr_mult: 1
    decay_mult: 1
  }
  param {
    lr_mult: 2
    decay_mult: 0
  }
  convolution_param {
    num_output: 64
    pad: 2
    kernel_size: 5
    weight_filler {
      type: "xavier"
      std: 0.03
    }
    bias_filler {
      type: "constant"
      value: 0.2
    }
  }
}
layer {
  name: "inception_4b/relu_5x5"
  type: "ReLU"
  bottom: "inception_4b/5x5"
  top: "inception_4b/5x5"
}
layer {
  name: "inception_4b/pool"
  type: "Pooling"
  bottom: "inception_4a/output"
  top: "inception_4b/pool"
  pooling_param {
    pool: MAX
    kernel_size: 3
    stride: 1
    pad: 1
  }
}
layer {
  name: "inception_4b/pool_proj"
  type: "Convolution"
  bottom: "inception_4b/pool"
  top: "inception_4b/pool_proj"
  param {
    lr_mult: 1
    decay_mult: 1
  }
  param {
    lr_mult: 2
    decay_mult: 0
  }
  convolution_param {
    num_output: 64
    kernel_size: 1
    weight_filler {
      type: "xavier"
      std: 0.1
    }
    bias_filler {
      type: "constant"
      value: 0.2
    }
  }
}
layer {
  name: "inception_4b/relu_pool_proj"
  type: "ReLU"
  bottom: "inception_4b/pool_proj"
  top: "inception_4b/pool_proj"
}
layer {
  name: "inception_4b/output"
  type: "Concat"
  bottom: "inception_4b/1x1"
  bottom: "inception_4b/3x3"
  bottom: "inception_4b/5x5"
  bottom: "inception_4b/pool_proj"
  top: "inception_4b/output"
}
layer {
  name: "inception_4c/1x1"
  type: "Convolution"
  bottom: "inception_4b/output"
  top: "inception_4c/1x1"
  param {
    lr_mult: 1
    decay_mult: 1
  }
  param {
    lr_mult: 2
    decay_mult: 0
  }
  convolution_param {
    num_output: 128
    kernel_size: 1
    weight_filler {
      type: "xavier"
      std: 0.03
    }
    bias_filler {
      type: "constant"
      value: 0.2
    }
  }
}
layer {
  name: "inception_4c/relu_1x1"
  type: "ReLU"
  bottom: "inception_4c/1x1"
  top: "inception_4c/1x1"
}
layer {
  name: "inception_4c/3x3_reduce"
  type: "Convolution"
  bottom: "inception_4b/output"
  top: "inception_4c/3x3_reduce"
  param {
    lr_mult: 1
    decay_mult: 1
  }
  param {
    lr_mult: 2
    decay_mult: 0
  }
  convolution_param {
    num_output: 128
    kernel_size: 1
    weight_filler {
      type: "xavier"
      std: 0.09
    }
    bias_filler {
      type: "constant"
      value: 0.2
    }
  }
}
layer {
  name: "inception_4c/relu_3x3_reduce"
  type: "ReLU"
  bottom: "inception_4c/3x3_reduce"
  top: "inception_4c/3x3_reduce"
}
layer {
  name: "inception_4c/3x3"
  type: "Convolution"
  bottom: "inception_4c/3x3_reduce"
  top: "inception_4c/3x3"
  param {
    lr_mult: 1
    decay_mult: 1
  }
  param {
    lr_mult: 2
    decay_mult: 0
  }
  convolution_param {
    num_output: 256
    pad: 1
    kernel_size: 3
    weight_filler {
      type: "xavier"
      std: 0.03
    }
    bias_filler {
      type: "constant"
      value: 0.2
    }
  }
}
layer {
  name: "inception_4c/relu_3x3"
  type: "ReLU"
  bottom: "inception_4c/3x3"
  top: "inception_4c/3x3"
}
layer {
  name: "inception_4c/5x5_reduce"
  type: "Convolution"
  bottom: "inception_4b/output"
  top: "inception_4c/5x5_reduce"
  param {
    lr_mult: 1
    decay_mult: 1
  }
  param {
    lr_mult: 2
    decay_mult: 0
  }
  convolution_param {
    num_output: 24
    kernel_size: 1
    weight_filler {
      type: "xavier"
      std: 0.2
    }
    bias_filler {
      type: "constant"
      value: 0.2
    }
  }
}
layer {
  name: "inception_4c/relu_5x5_reduce"
  type: "ReLU"
  bottom: "inception_4c/5x5_reduce"
  top: "inception_4c/5x5_reduce"
}
layer {
  name: "inception_4c/5x5"
  type: "Convolution"
  bottom: "inception_4c/5x5_reduce"
  top: "inception_4c/5x5"
  param {
    lr_mult: 1
    decay_mult: 1
  }
  param {
    lr_mult: 2
    decay_mult: 0
  }
  convolution_param {
    num_output: 64
    pad: 2
    kernel_size: 5
    weight_filler {
      type: "xavier"
      std: 0.03
    }
    bias_filler {
      type: "constant"
      value: 0.2
    }
  }
}
layer {
  name: "inception_4c/relu_5x5"
  type: "ReLU"
  bottom: "inception_4c/5x5"
  top: "inception_4c/5x5"
}
layer {
  name: "inception_4c/pool"
  type: "Pooling"
  bottom: "inception_4b/output"
  top: "inception_4c/pool"
  pooling_param {
    pool: MAX
    kernel_size: 3
    stride: 1
    pad: 1
  }
}
layer {
  name: "inception_4c/pool_proj"
  type: "Convolution"
  bottom: "inception_4c/pool"
  top: "inception_4c/pool_proj"
  param {
    lr_mult: 1
    decay_mult: 1
  }
  param {
    lr_mult: 2
    decay_mult: 0
  }
  convolution_param {
    num_output: 64
    kernel_size: 1
    weight_filler {
      type: "xavier"
      std: 0.1
    }
    bias_filler {
      type: "constant"
      value: 0.2
    }
  }
}
layer {
  name: "inception_4c/relu_pool_proj"
  type: "ReLU"
  bottom: "inception_4c/pool_proj"
  top: "inception_4c/pool_proj"
}
layer {
  name: "inception_4c/output"
  type: "Concat"
  bottom: "inception_4c/1x1"
  bottom: "inception_4c/3x3"
  bottom: "inception_4c/5x5"
  bottom: "inception_4c/pool_proj"
  top: "inception_4c/output"
}
layer {
  name: "inception_4d/1x1"
  type: "Convolution"
  bottom: "inception_4c/output"
  top: "inception_4d/1x1"
  param {
    lr_mult: 1
    decay_mult: 1
  }
  param {
    lr_mult: 2
    decay_mult: 0
  }
  convolution_param {
    num_output: 112
    kernel_size: 1
    weight_filler {
      type: "xavier"
      std: 0.03
    }
    bias_filler {
      type: "constant"
      value: 0.2
    }
  }
}
layer {
  name: "inception_4d/relu_1x1"
  type: "ReLU"
  bottom: "inception_4d/1x1"
  top: "inception_4d/1x1"
}
layer {
  name: "inception_4d/3x3_reduce"
  type: "Convolution"
  bottom: "inception_4c/output"
  top: "inception_4d/3x3_reduce"
  param {
    lr_mult: 1
    decay_mult: 1
  }
  param {
    lr_mult: 2
    decay_mult: 0
  }
  convolution_param {
    num_output: 144
    kernel_size: 1
    weight_filler {
      type: "xavier"
      std: 0.09
    }
    bias_filler {
      type: "constant"
      value: 0.2
    }
  }
}
layer {
  name: "inception_4d/relu_3x3_reduce"
  type: "ReLU"
  bottom: "inception_4d/3x3_reduce"
  top: "inception_4d/3x3_reduce"
}
layer {
  name: "inception_4d/3x3"
  type: "Convolution"
  bottom: "inception_4d/3x3_reduce"
  top: "inception_4d/3x3"
  param {
    lr_mult: 1
    decay_mult: 1
  }
  param {
    lr_mult: 2
    decay_mult: 0
  }
  convolution_param {
    num_output: 288
    pad: 1
    kernel_size: 3
    weight_filler {
      type: "xavier"
      std: 0.03
    }
    bias_filler {
      type: "constant"
      value: 0.2
    }
  }
}
layer {
  name: "inception_4d/relu_3x3"
  type: "ReLU"
  bottom: "inception_4d/3x3"
  top: "inception_4d/3x3"
}
layer {
  name: "inception_4d/5x5_reduce"
  type: "Convolution"
  bottom: "inception_4c/output"
  top: "inception_4d/5x5_reduce"
  param {
    lr_mult: 1
    decay_mult: 1
  }
  param {
    lr_mult: 2
    decay_mult: 0
  }
  convolution_param {
    num_output: 32
    kernel_size: 1
    weight_filler {
      type: "xavier"
      std: 0.2
    }
    bias_filler {
      type: "constant"
      value: 0.2
    }
  }
}
layer {
  name: "inception_4d/relu_5x5_reduce"
  type: "ReLU"
  bottom: "inception_4d/5x5_reduce"
  top: "inception_4d/5x5_reduce"
}
layer {
  name: "inception_4d/5x5"
  type: "Convolution"
  bottom: "inception_4d/5x5_reduce"
  top: "inception_4d/5x5"
  param {
    lr_mult: 1
    decay_mult: 1
  }
  param {
    lr_mult: 2
    decay_mult: 0
  }
  convolution_param {
    num_output: 64
    pad: 2
    kernel_size: 5
    weight_filler {
      type: "xavier"
      std: 0.03
    }
    bias_filler {
      type: "constant"
      value: 0.2
    }
  }
}
layer {
  name: "inception_4d/relu_5x5"
  type: "ReLU"
  bottom: "inception_4d/5x5"
  top: "inception_4d/5x5"
}
layer {
  name: "inception_4d/pool"
  type: "Pooling"
  bottom: "inception_4c/output"
  top: "inception_4d/pool"
  pooling_param {
    pool: MAX
    kernel_size: 3
    stride: 1
    pad: 1
  }
}
layer {
  name: "inception_4d/pool_proj"
  type: "Convolution"
  bottom: "inception_4d/pool"
  top: "inception_4d/pool_proj"
  param {
    lr_mult: 1
    decay_mult: 1
  }
  param {
    lr_mult: 2
    decay_mult: 0
  }
  convolution_param {
    num_output: 64
    kernel_size: 1
    weight_filler {
      type: "xavier"
      std: 0.1
    }
    bias_filler {
      type: "constant"
      value: 0.2
    }
  }
}
layer {
  name: "inception_4d/relu_pool_proj"
  type: "ReLU"
  bottom: "inception_4d/pool_proj"
  top: "inception_4d/pool_proj"
}
layer {
  name: "inception_4d/output"
  type: "Concat"
  bottom: "inception_4d/1x1"
  bottom: "inception_4d/3x3"
  bottom: "inception_4d/5x5"
  bottom: "inception_4d/pool_proj"
  top: "inception_4d/output"
}
layer {
  name: "loss2/ave_pool"
  type: "Pooling"
  bottom: "inception_4d/output"
  top: "loss2/ave_pool"
  pooling_param {
    pool: AVE
    kernel_size: 5
    stride: 3
  }
}
layer {
  name: "loss2/conv"
  type: "Convolution"
  bottom: "loss2/ave_pool"
  top: "loss2/conv"
  param {
    lr_mult: 1
    decay_mult: 1
  }
  param {
    lr_mult: 2
    decay_mult: 0
  }
  convolution_param {
    num_output: 128
    kernel_size: 1
    weight_filler {
      type: "xavier"
      std: 0.08
    }
    bias_filler {
      type: "constant"
      value: 0.2
    }
  }
}
layer {
  name: "loss2/relu_conv"
  type: "ReLU"
  bottom: "loss2/conv"
  top: "loss2/conv"
}
layer {
  name: "loss2/fc"
  type: "InnerProduct"
  bottom: "loss2/conv"
  top: "loss2/fc"
  param {
    lr_mult: 1
    decay_mult: 1
  }
  param {
    lr_mult: 2
    decay_mult: 0
  }
  inner_product_param {
    num_output: 1024
    weight_filler {
      type: "xavier"
      std: 0.02
    }
    bias_filler {
      type: "constant"
      value: 0.2
    }
  }
}
layer {
  name: "loss2/relu_fc"
  type: "ReLU"
  bottom: "loss2/fc"
  top: "loss2/fc"
}
layer {
  name: "loss2/drop_fc"
  type: "Dropout"
  bottom: "loss2/fc"
  top: "loss2/fc"
  dropout_param {
    dropout_ratio: 0.7
  }
}
layer {
  name: "loss2/classifier_plantvillage"
  type: "InnerProduct"
  bottom: "loss2/fc"
  top: "loss2/classifier_plantvillage"
  param {
    lr_mult: 1
    decay_mult: 1
  }
  param {
    lr_mult: 2
    decay_mult: 0
  }
  inner_product_param {
    num_output: 38
    weight_filler {
      type: "xavier"
      std: 0.0009765625
    }
    bias_filler {
      type: "constant"
      value: 0
    }
  }
}
layer {
  name: "inception_4e/1x1"
  type: "Convolution"
  bottom: "inception_4d/output"
  top: "inception_4e/1x1"
  param {
    lr_mult: 1
    decay_mult: 1
  }
  param {
    lr_mult: 2
    decay_mult: 0
  }
  convolution_param {
    num_output: 256
    kernel_size: 1
    weight_filler {
      type: "xavier"
      std: 0.03
    }
    bias_filler {
      type: "constant"
      value: 0.2
    }
  }
}
layer {
  name: "inception_4e/relu_1x1"
  type: "ReLU"
  bottom: "inception_4e/1x1"
  top: "inception_4e/1x1"
}
layer {
  name: "inception_4e/3x3_reduce"
  type: "Convolution"
  bottom: "inception_4d/output"
  top: "inception_4e/3x3_reduce"
  param {
    lr_mult: 1
    decay_mult: 1
  }
  param {
    lr_mult: 2
    decay_mult: 0
  }
  convolution_param {
    num_output: 160
    kernel_size: 1
    weight_filler {
      type: "xavier"
      std: 0.09
    }
    bias_filler {
      type: "constant"
      value: 0.2
    }
  }
}
layer {
  name: "inception_4e/relu_3x3_reduce"
  type: "ReLU"
  bottom: "inception_4e/3x3_reduce"
  top: "inception_4e/3x3_reduce"
}
layer {
  name: "inception_4e/3x3"
  type: "Convolution"
  bottom: "inception_4e/3x3_reduce"
  top: "inception_4e/3x3"
  param {
    lr_mult: 1
    decay_mult: 1
  }
  param {
    lr_mult: 2
    decay_mult: 0
  }
  convolution_param {
    num_output: 320
    pad: 1
    kernel_size: 3
    weight_filler {
      type: "xavier"
      std: 0.03
    }
    bias_filler {
      type: "constant"
      value: 0.2
    }
  }
}
layer {
  name: "inception_4e/relu_3x3"
  type: "ReLU"
  bottom: "inception_4e/3x3"
  top: "inception_4e/3x3"
}
layer {
  name: "inception_4e/5x5_reduce"
  type: "Convolution"
  bottom: "inception_4d/output"
  top: "inception_4e/5x5_reduce"
  param {
    lr_mult: 1
    decay_mult: 1
  }
  param {
    lr_mult: 2
    decay_mult: 0
  }
  convolution_param {
    num_output: 32
    kernel_size: 1
    weight_filler {
      type: "xavier"
      std: 0.2
    }
    bias_filler {
      type: "constant"
      value: 0.2
    }
  }
}
layer {
  name: "inception_4e/relu_5x5_reduce"
  type: "ReLU"
  bottom: "inception_4e/5x5_reduce"
  top: "inception_4e/5x5_reduce"
}
layer {
  name: "inception_4e/5x5"
  type: "Convolution"
  bottom: "inception_4e/5x5_reduce"
  top: "inception_4e/
I0403 18:21:36.969669 22199 layer_factory.hpp:77] Creating layer data
I0403 18:21:36.970268 22199 net.cpp:91] Creating Layer data
I0403 18:21:36.970302 22199 net.cpp:399] data -> data
I0403 18:21:36.970352 22199 net.cpp:399] data -> label
I0403 18:21:36.970389 22199 data_transformer.cpp:25] Loading mean file from: /home/mohanty/data/final_dataset/lmdb/segmented-40-60/mean.binaryproto
I0403 18:21:36.971595 22202 db_lmdb.cpp:38] Opened lmdb /home/mohanty/data/final_dataset/lmdb/segmented-40-60/test_db
I0403 18:21:36.983667 22199 data_layer.cpp:41] output data size: 24,3,224,224
I0403 18:21:37.011095 22199 net.cpp:141] Setting up data
I0403 18:21:37.011173 22199 net.cpp:148] Top shape: 24 3 224 224 (3612672)
I0403 18:21:37.011195 22199 net.cpp:148] Top shape: 24 (24)
I0403 18:21:37.011209 22199 net.cpp:156] Memory required for data: 14450784
I0403 18:21:37.011236 22199 layer_factory.hpp:77] Creating layer label_data_1_split
I0403 18:21:37.011262 22199 net.cpp:91] Creating Layer label_data_1_split
I0403 18:21:37.011281 22199 net.cpp:425] label_data_1_split <- label
I0403 18:21:37.011312 22199 net.cpp:399] label_data_1_split -> label_data_1_split_0
I0403 18:21:37.011338 22199 net.cpp:399] label_data_1_split -> label_data_1_split_1
I0403 18:21:37.011360 22199 net.cpp:399] label_data_1_split -> label_data_1_split_2
I0403 18:21:37.011380 22199 net.cpp:399] label_data_1_split -> label_data_1_split_3
I0403 18:21:37.011399 22199 net.cpp:399] label_data_1_split -> label_data_1_split_4
I0403 18:21:37.011420 22199 net.cpp:399] label_data_1_split -> label_data_1_split_5
I0403 18:21:37.011438 22199 net.cpp:399] label_data_1_split -> label_data_1_split_6
I0403 18:21:37.011459 22199 net.cpp:399] label_data_1_split -> label_data_1_split_7
I0403 18:21:37.011478 22199 net.cpp:399] label_data_1_split -> label_data_1_split_8
I0403 18:21:37.011498 22199 net.cpp:399] label_data_1_split -> label_data_1_split_9
I0403 18:21:37.011620 22199 net.cpp:141] Setting up label_data_1_split
I0403 18:21:37.011642 22199 net.cpp:148] Top shape: 24 (24)
I0403 18:21:37.011658 22199 net.cpp:148] Top shape: 24 (24)
I0403 18:21:37.011673 22199 net.cpp:148] Top shape: 24 (24)
I0403 18:21:37.011687 22199 net.cpp:148] Top shape: 24 (24)
I0403 18:21:37.011703 22199 net.cpp:148] Top shape: 24 (24)
I0403 18:21:37.011718 22199 net.cpp:148] Top shape: 24 (24)
I0403 18:21:37.011731 22199 net.cpp:148] Top shape: 24 (24)
I0403 18:21:37.011746 22199 net.cpp:148] Top shape: 24 (24)
I0403 18:21:37.011761 22199 net.cpp:148] Top shape: 24 (24)
I0403 18:21:37.011775 22199 net.cpp:148] Top shape: 24 (24)
I0403 18:21:37.011827 22199 net.cpp:156] Memory required for data: 14451744
I0403 18:21:37.011843 22199 layer_factory.hpp:77] Creating layer conv1/7x7_s2
I0403 18:21:37.011874 22199 net.cpp:91] Creating Layer conv1/7x7_s2
I0403 18:21:37.011893 22199 net.cpp:425] conv1/7x7_s2 <- data
I0403 18:21:37.011911 22199 net.cpp:399] conv1/7x7_s2 -> conv1/7x7_s2
I0403 18:21:37.147456 22199 net.cpp:141] Setting up conv1/7x7_s2
I0403 18:21:37.147529 22199 net.cpp:148] Top shape: 24 64 112 112 (19267584)
I0403 18:21:37.147548 22199 net.cpp:156] Memory required for data: 91522080
I0403 18:21:37.147578 22199 layer_factory.hpp:77] Creating layer conv1/relu_7x7
I0403 18:21:37.147606 22199 net.cpp:91] Creating Layer conv1/relu_7x7
I0403 18:21:37.147624 22199 net.cpp:425] conv1/relu_7x7 <- conv1/7x7_s2
I0403 18:21:37.147642 22199 net.cpp:386] conv1/relu_7x7 -> conv1/7x7_s2 (in-place)
I0403 18:21:37.147918 22199 net.cpp:141] Setting up conv1/relu_7x7
I0403 18:21:37.147945 22199 net.cpp:148] Top shape: 24 64 112 112 (19267584)
I0403 18:21:37.147959 22199 net.cpp:156] Memory required for data: 168592416
I0403 18:21:37.147974 22199 layer_factory.hpp:77] Creating layer pool1/3x3_s2
I0403 18:21:37.148000 22199 net.cpp:91] Creating Layer pool1/3x3_s2
I0403 18:21:37.148017 22199 net.cpp:425] pool1/3x3_s2 <- conv1/7x7_s2
I0403 18:21:37.148035 22199 net.cpp:399] pool1/3x3_s2 -> pool1/3x3_s2
I0403 18:21:37.148111 22199 net.cpp:141] Setting up pool1/3x3_s2
I0403 18:21:37.148135 22199 net.cpp:148] Top shape: 24 64 56 56 (4816896)
I0403 18:21:37.148149 22199 net.cpp:156] Memory required for data: 187860000
I0403 18:21:37.148164 22199 layer_factory.hpp:77] Creating layer pool1/norm1
I0403 18:21:37.148188 22199 net.cpp:91] Creating Layer pool1/norm1
I0403 18:21:37.148206 22199 net.cpp:425] pool1/norm1 <- pool1/3x3_s2
I0403 18:21:37.148222 22199 net.cpp:399] pool1/norm1 -> pool1/norm1
I0403 18:21:37.148515 22199 net.cpp:141] Setting up pool1/norm1
I0403 18:21:37.148540 22199 net.cpp:148] Top shape: 24 64 56 56 (4816896)
I0403 18:21:37.148558 22199 net.cpp:156] Memory required for data: 207127584
I0403 18:21:37.148573 22199 layer_factory.hpp:77] Creating layer conv2/3x3_reduce
I0403 18:21:37.148597 22199 net.cpp:91] Creating Layer conv2/3x3_reduce
I0403 18:21:37.148612 22199 net.cpp:425] conv2/3x3_reduce <- pool1/norm1
I0403 18:21:37.148633 22199 net.cpp:399] conv2/3x3_reduce -> conv2/3x3_reduce
I0403 18:21:37.149992 22199 net.cpp:141] Setting up conv2/3x3_reduce
I0403 18:21:37.150020 22199 net.cpp:148] Top shape: 24 64 56 56 (4816896)
I0403 18:21:37.150035 22199 net.cpp:156] Memory required for data: 226395168
I0403 18:21:37.150055 22199 layer_factory.hpp:77] Creating layer conv2/relu_3x3_reduce
I0403 18:21:37.150074 22199 net.cpp:91] Creating Layer conv2/relu_3x3_reduce
I0403 18:21:37.150089 22199 net.cpp:425] conv2/relu_3x3_reduce <- conv2/3x3_reduce
I0403 18:21:37.150109 22199 net.cpp:386] conv2/relu_3x3_reduce -> conv2/3x3_reduce (in-place)
I0403 18:21:37.150368 22199 net.cpp:141] Setting up conv2/relu_3x3_reduce
I0403 18:21:37.150394 22199 net.cpp:148] Top shape: 24 64 56 56 (4816896)
I0403 18:21:37.150408 22199 net.cpp:156] Memory required for data: 245662752
I0403 18:21:37.150424 22199 layer_factory.hpp:77] Creating layer conv2/3x3
I0403 18:21:37.150446 22199 net.cpp:91] Creating Layer conv2/3x3
I0403 18:21:37.150465 22199 net.cpp:425] conv2/3x3 <- conv2/3x3_reduce
I0403 18:21:37.150486 22199 net.cpp:399] conv2/3x3 -> conv2/3x3
I0403 18:21:37.154407 22199 net.cpp:141] Setting up conv2/3x3
I0403 18:21:37.154436 22199 net.cpp:148] Top shape: 24 192 56 56 (14450688)
I0403 18:21:37.154451 22199 net.cpp:156] Memory required for data: 303465504
I0403 18:21:37.154480 22199 layer_factory.hpp:77] Creating layer conv2/relu_3x3
I0403 18:21:37.154497 22199 net.cpp:91] Creating Layer conv2/relu_3x3
I0403 18:21:37.154525 22199 net.cpp:425] conv2/relu_3x3 <- conv2/3x3
I0403 18:21:37.154547 22199 net.cpp:386] conv2/relu_3x3 -> conv2/3x3 (in-place)
I0403 18:21:37.154721 22199 net.cpp:141] Setting up conv2/relu_3x3
I0403 18:21:37.154748 22199 net.cpp:148] Top shape: 24 192 56 56 (14450688)
I0403 18:21:37.154799 22199 net.cpp:156] Memory required for data: 361268256
I0403 18:21:37.154815 22199 layer_factory.hpp:77] Creating layer conv2/norm2
I0403 18:21:37.154832 22199 net.cpp:91] Creating Layer conv2/norm2
I0403 18:21:37.154847 22199 net.cpp:425] conv2/norm2 <- conv2/3x3
I0403 18:21:37.154866 22199 net.cpp:399] conv2/norm2 -> conv2/norm2
I0403 18:21:37.155159 22199 net.cpp:141] Setting up conv2/norm2
I0403 18:21:37.155186 22199 net.cpp:148] Top shape: 24 192 56 56 (14450688)
I0403 18:21:37.155201 22199 net.cpp:156] Memory required for data: 419071008
I0403 18:21:37.155215 22199 layer_factory.hpp:77] Creating layer pool2/3x3_s2
I0403 18:21:37.155233 22199 net.cpp:91] Creating Layer pool2/3x3_s2
I0403 18:21:37.155248 22199 net.cpp:425] pool2/3x3_s2 <- conv2/norm2
I0403 18:21:37.155268 22199 net.cpp:399] pool2/3x3_s2 -> pool2/3x3_s2
I0403 18:21:37.155319 22199 net.cpp:141] Setting up pool2/3x3_s2
I0403 18:21:37.155342 22199 net.cpp:148] Top shape: 24 192 28 28 (3612672)
I0403 18:21:37.155356 22199 net.cpp:156] Memory required for data: 433521696
I0403 18:21:37.155370 22199 layer_factory.hpp:77] Creating layer pool2/3x3_s2_pool2/3x3_s2_0_split
I0403 18:21:37.155390 22199 net.cpp:91] Creating Layer pool2/3x3_s2_pool2/3x3_s2_0_split
I0403 18:21:37.155405 22199 net.cpp:425] pool2/3x3_s2_pool2/3x3_s2_0_split <- pool2/3x3_s2
I0403 18:21:37.155421 22199 net.cpp:399] pool2/3x3_s2_pool2/3x3_s2_0_split -> pool2/3x3_s2_pool2/3x3_s2_0_split_0
I0403 18:21:37.155441 22199 net.cpp:399] pool2/3x3_s2_pool2/3x3_s2_0_split -> pool2/3x3_s2_pool2/3x3_s2_0_split_1
I0403 18:21:37.155462 22199 net.cpp:399] pool2/3x3_s2_pool2/3x3_s2_0_split -> pool2/3x3_s2_pool2/3x3_s2_0_split_2
I0403 18:21:37.155480 22199 net.cpp:399] pool2/3x3_s2_pool2/3x3_s2_0_split -> pool2/3x3_s2_pool2/3x3_s2_0_split_3
I0403 18:21:37.155551 22199 net.cpp:141] Setting up pool2/3x3_s2_pool2/3x3_s2_0_split
I0403 18:21:37.155575 22199 net.cpp:148] Top shape: 24 192 28 28 (3612672)
I0403 18:21:37.155591 22199 net.cpp:148] Top shape: 24 192 28 28 (3612672)
I0403 18:21:37.155606 22199 net.cpp:148] Top shape: 24 192 28 28 (3612672)
I0403 18:21:37.155619 22199 net.cpp:148] Top shape: 24 192 28 28 (3612672)
I0403 18:21:37.155632 22199 net.cpp:156] Memory required for data: 491324448
I0403 18:21:37.155647 22199 layer_factory.hpp:77] Creating layer inception_3a/1x1
I0403 18:21:37.155668 22199 net.cpp:91] Creating Layer inception_3a/1x1
I0403 18:21:37.155684 22199 net.cpp:425] inception_3a/1x1 <- pool2/3x3_s2_pool2/3x3_s2_0_split_0
I0403 18:21:37.155704 22199 net.cpp:399] inception_3a/1x1 -> inception_3a/1x1
I0403 18:21:37.157186 22199 net.cpp:141] Setting up inception_3a/1x1
I0403 18:21:37.157213 22199 net.cpp:148] Top shape: 24 64 28 28 (1204224)
I0403 18:21:37.157229 22199 net.cpp:156] Memory required for data: 496141344
I0403 18:21:37.157246 22199 layer_factory.hpp:77] Creating layer inception_3a/relu_1x1
I0403 18:21:37.157263 22199 net.cpp:91] Creating Layer inception_3a/relu_1x1
I0403 18:21:37.157281 22199 net.cpp:425] inception_3a/relu_1x1 <- inception_3a/1x1
I0403 18:21:37.157299 22199 net.cpp:386] inception_3a/relu_1x1 -> inception_3a/1x1 (in-place)
I0403 18:21:37.157464 22199 net.cpp:141] Setting up inception_3a/relu_1x1
I0403 18:21:37.157487 22199 net.cpp:148] Top shape: 24 64 28 28 (1204224)
I0403 18:21:37.157501 22199 net.cpp:156] Memory required for data: 500958240
I0403 18:21:37.157521 22199 layer_factory.hpp:77] Creating layer inception_3a/3x3_reduce
I0403 18:21:37.157542 22199 net.cpp:91] Creating Layer inception_3a/3x3_reduce
I0403 18:21:37.157559 22199 net.cpp:425] inception_3a/3x3_reduce <- pool2/3x3_s2_pool2/3x3_s2_0_split_1
I0403 18:21:37.157580 22199 net.cpp:399] inception_3a/3x3_reduce -> inception_3a/3x3_reduce
I0403 18:21:37.159209 22199 net.cpp:141] Setting up inception_3a/3x3_reduce
I0403 18:21:37.159236 22199 net.cpp:148] Top shape: 24 96 28 28 (1806336)
I0403 18:21:37.159252 22199 net.cpp:156] Memory required for data: 508183584
I0403 18:21:37.159272 22199 layer_factory.hpp:77] Creating layer inception_3a/relu_3x3_reduce
I0403 18:21:37.159309 22199 net.cpp:91] Creating Layer inception_3a/relu_3x3_reduce
I0403 18:21:37.159327 22199 net.cpp:425] inception_3a/relu_3x3_reduce <- inception_3a/3x3_reduce
I0403 18:21:37.159344 22199 net.cpp:386] inception_3a/relu_3x3_reduce -> inception_3a/3x3_reduce (in-place)
I0403 18:21:37.159526 22199 net.cpp:141] Setting up inception_3a/relu_3x3_reduce
I0403 18:21:37.159550 22199 net.cpp:148] Top shape: 24 96 28 28 (1806336)
I0403 18:21:37.159564 22199 net.cpp:156] Memory required for data: 515408928
I0403 18:21:37.159579 22199 layer_factory.hpp:77] Creating layer inception_3a/3x3
I0403 18:21:37.159600 22199 net.cpp:91] Creating Layer inception_3a/3x3
I0403 18:21:37.159617 22199 net.cpp:425] inception_3a/3x3 <- inception_3a/3x3_reduce
I0403 18:21:37.159639 22199 net.cpp:399] inception_3a/3x3 -> inception_3a/3x3
I0403 18:21:37.161207 22199 net.cpp:141] Setting up inception_3a/3x3
I0403 18:21:37.161236 22199 net.cpp:148] Top shape: 24 128 28 28 (2408448)
I0403 18:21:37.161249 22199 net.cpp:156] Memory required for data: 525042720
I0403 18:21:37.161267 22199 layer_factory.hpp:77] Creating layer inception_3a/relu_3x3
I0403 18:21:37.161288 22199 net.cpp:91] Creating Layer inception_3a/relu_3x3
I0403 18:21:37.161304 22199 net.cpp:425] inception_3a/relu_3x3 <- inception_3a/3x3
I0403 18:21:37.161321 22199 net.cpp:386] inception_3a/relu_3x3 -> inception_3a/3x3 (in-place)
I0403 18:21:37.161586 22199 net.cpp:141] Setting up inception_3a/relu_3x3
I0403 18:21:37.161612 22199 net.cpp:148] Top shape: 24 128 28 28 (2408448)
I0403 18:21:37.161625 22199 net.cpp:156] Memory required for data: 534676512
I0403 18:21:37.161639 22199 layer_factory.hpp:77] Creating layer inception_3a/5x5_reduce
I0403 18:21:37.161662 22199 net.cpp:91] Creating Layer inception_3a/5x5_reduce
I0403 18:21:37.161679 22199 net.cpp:425] inception_3a/5x5_reduce <- pool2/3x3_s2_pool2/3x3_s2_0_split_2
I0403 18:21:37.161700 22199 net.cpp:399] inception_3a/5x5_reduce -> inception_3a/5x5_reduce
I0403 18:21:37.162623 22199 net.cpp:141] Setting up inception_3a/5x5_reduce
I0403 18:21:37.162650 22199 net.cpp:148] Top shape: 24 16 28 28 (301056)
I0403 18:21:37.162665 22199 net.cpp:156] Memory required for data: 535880736
I0403 18:21:37.162683 22199 layer_factory.hpp:77] Creating layer inception_3a/relu_5x5_reduce
I0403 18:21:37.162703 22199 net.cpp:91] Creating Layer inception_3a/relu_5x5_reduce
I0403 18:21:37.162720 22199 net.cpp:425] inception_3a/relu_5x5_reduce <- inception_3a/5x5_reduce
I0403 18:21:37.162736 22199 net.cpp:386] inception_3a/relu_5x5_reduce -> inception_3a/5x5_reduce (in-place)
I0403 18:21:37.163033 22199 net.cpp:141] Setting up inception_3a/relu_5x5_reduce
I0403 18:21:37.163060 22199 net.cpp:148] Top shape: 24 16 28 28 (301056)
I0403 18:21:37.163075 22199 net.cpp:156] Memory required for data: 537084960
I0403 18:21:37.163089 22199 layer_factory.hpp:77] Creating layer inception_3a/5x5
I0403 18:21:37.163111 22199 net.cpp:91] Creating Layer inception_3a/5x5
I0403 18:21:37.163128 22199 net.cpp:425] inception_3a/5x5 <- inception_3a/5x5_reduce
I0403 18:21:37.163146 22199 net.cpp:399] inception_3a/5x5 -> inception_3a/5x5
I0403 18:21:37.164126 22199 net.cpp:141] Setting up inception_3a/5x5
I0403 18:21:37.164152 22199 net.cpp:148] Top shape: 24 32 28 28 (602112)
I0403 18:21:37.164167 22199 net.cpp:156] Memory required for data: 539493408
I0403 18:21:37.164186 22199 layer_factory.hpp:77] Creating layer inception_3a/relu_5x5
I0403 18:21:37.164206 22199 net.cpp:91] Creating Layer inception_3a/relu_5x5
I0403 18:21:37.164222 22199 net.cpp:425] inception_3a/relu_5x5 <- inception_3a/5x5
I0403 18:21:37.164239 22199 net.cpp:386] inception_3a/relu_5x5 -> inception_3a/5x5 (in-place)
I0403 18:21:37.164407 22199 net.cpp:141] Setting up inception_3a/relu_5x5
I0403 18:21:37.164430 22199 net.cpp:148] Top shape: 24 32 28 28 (602112)
I0403 18:21:37.164444 22199 net.cpp:156] Memory required for data: 541901856
I0403 18:21:37.164458 22199 layer_factory.hpp:77] Creating layer inception_3a/pool
I0403 18:21:37.164479 22199 net.cpp:91] Creating Layer inception_3a/pool
I0403 18:21:37.164516 22199 net.cpp:425] inception_3a/pool <- pool2/3x3_s2_pool2/3x3_s2_0_split_3
I0403 18:21:37.164537 22199 net.cpp:399] inception_3a/pool -> inception_3a/pool
I0403 18:21:37.164595 22199 net.cpp:141] Setting up inception_3a/pool
I0403 18:21:37.164618 22199 net.cpp:148] Top shape: 24 192 28 28 (3612672)
I0403 18:21:37.164631 22199 net.cpp:156] Memory required for data: 556352544
I0403 18:21:37.164645 22199 layer_factory.hpp:77] Creating layer inception_3a/pool_proj
I0403 18:21:37.164667 22199 net.cpp:91] Creating Layer inception_3a/pool_proj
I0403 18:21:37.164685 22199 net.cpp:425] inception_3a/pool_proj <- inception_3a/pool
I0403 18:21:37.164706 22199 net.cpp:399] inception_3a/pool_proj -> inception_3a/pool_proj
I0403 18:21:37.165632 22199 net.cpp:141] Setting up inception_3a/pool_proj
I0403 18:21:37.165662 22199 net.cpp:148] Top shape: 24 32 28 28 (602112)
I0403 18:21:37.165678 22199 net.cpp:156] Memory required for data: 558760992
I0403 18:21:37.165699 22199 layer_factory.hpp:77] Creating layer inception_3a/relu_pool_proj
I0403 18:21:37.165719 22199 net.cpp:91] Creating Layer inception_3a/relu_pool_proj
I0403 18:21:37.165736 22199 net.cpp:425] inception_3a/relu_pool_proj <- inception_3a/pool_proj
I0403 18:21:37.165753 22199 net.cpp:386] inception_3a/relu_pool_proj -> inception_3a/pool_proj (in-place)
I0403 18:21:37.166023 22199 net.cpp:141] Setting up inception_3a/relu_pool_proj
I0403 18:21:37.166048 22199 net.cpp:148] Top shape: 24 32 28 28 (602112)
I0403 18:21:37.166062 22199 net.cpp:156] Memory required for data: 561169440
I0403 18:21:37.166076 22199 layer_factory.hpp:77] Creating layer inception_3a/output
I0403 18:21:37.166093 22199 net.cpp:91] Creating Layer inception_3a/output
I0403 18:21:37.166112 22199 net.cpp:425] inception_3a/output <- inception_3a/1x1
I0403 18:21:37.166127 22199 net.cpp:425] inception_3a/output <- inception_3a/3x3
I0403 18:21:37.166143 22199 net.cpp:425] inception_3a/output <- inception_3a/5x5
I0403 18:21:37.166158 22199 net.cpp:425] inception_3a/output <- inception_3a/pool_proj
I0403 18:21:37.166173 22199 net.cpp:399] inception_3a/output -> inception_3a/output
I0403 18:21:37.166216 22199 net.cpp:141] Setting up inception_3a/output
I0403 18:21:37.166241 22199 net.cpp:148] Top shape: 24 256 28 28 (4816896)
I0403 18:21:37.166255 22199 net.cpp:156] Memory required for data: 580437024
I0403 18:21:37.166272 22199 layer_factory.hpp:77] Creating layer inception_3a/output_inception_3a/output_0_split
I0403 18:21:37.166288 22199 net.cpp:91] Creating Layer inception_3a/output_inception_3a/output_0_split
I0403 18:21:37.166302 22199 net.cpp:425] inception_3a/output_inception_3a/output_0_split <- inception_3a/output
I0403 18:21:37.166321 22199 net.cpp:399] inception_3a/output_inception_3a/output_0_split -> inception_3a/output_inception_3a/output_0_split_0
I0403 18:21:37.166342 22199 net.cpp:399] inception_3a/output_inception_3a/output_0_split -> inception_3a/output_inception_3a/output_0_split_1
I0403 18:21:37.166363 22199 net.cpp:399] inception_3a/output_inception_3a/output_0_split -> inception_3a/output_inception_3a/output_0_split_2
I0403 18:21:37.166383 22199 net.cpp:399] inception_3a/output_inception_3a/output_0_split -> inception_3a/output_inception_3a/output_0_split_3
I0403 18:21:37.166455 22199 net.cpp:141] Setting up inception_3a/output_inception_3a/output_0_split
I0403 18:21:37.166476 22199 net.cpp:148] Top shape: 24 256 28 28 (4816896)
I0403 18:21:37.166492 22199 net.cpp:148] Top shape: 24 256 28 28 (4816896)
I0403 18:21:37.166512 22199 net.cpp:148] Top shape: 24 256 28 28 (4816896)
I0403 18:21:37.166528 22199 net.cpp:148] Top shape: 24 256 28 28 (4816896)
I0403 18:21:37.166541 22199 net.cpp:156] Memory required for data: 657507360
I0403 18:21:37.166555 22199 layer_factory.hpp:77] Creating layer inception_3b/1x1
I0403 18:21:37.166576 22199 net.cpp:91] Creating Layer inception_3b/1x1
I0403 18:21:37.166594 22199 net.cpp:425] inception_3b/1x1 <- inception_3a/output_inception_3a/output_0_split_0
I0403 18:21:37.166615 22199 net.cpp:399] inception_3b/1x1 -> inception_3b/1x1
I0403 18:21:37.167704 22199 net.cpp:141] Setting up inception_3b/1x1
I0403 18:21:37.167742 22199 net.cpp:148] Top shape: 24 128 28 28 (2408448)
I0403 18:21:37.167758 22199 net.cpp:156] Memory required for data: 667141152
I0403 18:21:37.167776 22199 layer_factory.hpp:77] Creating layer inception_3b/relu_1x1
I0403 18:21:37.167793 22199 net.cpp:91] Creating Layer inception_3b/relu_1x1
I0403 18:21:37.167809 22199 net.cpp:425] inception_3b/relu_1x1 <- inception_3b/1x1
I0403 18:21:37.167827 22199 net.cpp:386] inception_3b/relu_1x1 -> inception_3b/1x1 (in-place)
I0403 18:21:37.167996 22199 net.cpp:141] Setting up inception_3b/relu_1x1
I0403 18:21:37.168020 22199 net.cpp:148] Top shape: 24 128 28 28 (2408448)
I0403 18:21:37.168035 22199 net.cpp:156] Memory required for data: 676774944
I0403 18:21:37.168048 22199 layer_factory.hpp:77] Creating layer inception_3b/3x3_reduce
I0403 18:21:37.168071 22199 net.cpp:91] Creating Layer inception_3b/3x3_reduce
I0403 18:21:37.168087 22199 net.cpp:425] inception_3b/3x3_reduce <- inception_3a/output_inception_3a/output_0_split_1
I0403 18:21:37.168107 22199 net.cpp:399] inception_3b/3x3_reduce -> inception_3b/3x3_reduce
I0403 18:21:37.169196 22199 net.cpp:141] Setting up inception_3b/3x3_reduce
I0403 18:21:37.169225 22199 net.cpp:148] Top shape: 24 128 28 28 (2408448)
I0403 18:21:37.169240 22199 net.cpp:156] Memory required for data: 686408736
I0403 18:21:37.169260 22199 layer_factory.hpp:77] Creating layer inception_3b/relu_3x3_reduce
I0403 18:21:37.169277 22199 net.cpp:91] Creating Layer inception_3b/relu_3x3_reduce
I0403 18:21:37.169293 22199 net.cpp:425] inception_3b/relu_3x3_reduce <- inception_3b/3x3_reduce
I0403 18:21:37.169312 22199 net.cpp:386] inception_3b/relu_3x3_reduce -> inception_3b/3x3_reduce (in-place)
I0403 18:21:37.169483 22199 net.cpp:141] Setting up inception_3b/relu_3x3_reduce
I0403 18:21:37.169513 22199 net.cpp:148] Top shape: 24 128 28 28 (2408448)
I0403 18:21:37.169529 22199 net.cpp:156] Memory required for data: 696042528
I0403 18:21:37.169544 22199 layer_factory.hpp:77] Creating layer inception_3b/3x3
I0403 18:21:37.169582 22199 net.cpp:91] Creating Layer inception_3b/3x3
I0403 18:21:37.169600 22199 net.cpp:425] inception_3b/3x3 <- inception_3b/3x3_reduce
I0403 18:21:37.169620 22199 net.cpp:399] inception_3b/3x3 -> inception_3b/3x3
I0403 18:21:37.172436 22199 net.cpp:141] Setting up inception_3b/3x3
I0403 18:21:37.172464 22199 net.cpp:148] Top shape: 24 192 28 28 (3612672)
I0403 18:21:37.172478 22199 net.cpp:156] Memory required for data: 710493216
I0403 18:21:37.172497 22199 layer_factory.hpp:77] Creating layer inception_3b/relu_3x3
I0403 18:21:37.172521 22199 net.cpp:91] Creating Layer inception_3b/relu_3x3
I0403 18:21:37.172539 22199 net.cpp:425] inception_3b/relu_3x3 <- inception_3b/3x3
I0403 18:21:37.172556 22199 net.cpp:386] inception_3b/relu_3x3 -> inception_3b/3x3 (in-place)
I0403 18:21:37.172822 22199 net.cpp:141] Setting up inception_3b/relu_3x3
I0403 18:21:37.172847 22199 net.cpp:148] Top shape: 24 192 28 28 (3612672)
I0403 18:21:37.172862 22199 net.cpp:156] Memory required for data: 724943904
I0403 18:21:37.172875 22199 layer_factory.hpp:77] Creating layer inception_3b/5x5_reduce
I0403 18:21:37.172897 22199 net.cpp:91] Creating Layer inception_3b/5x5_reduce
I0403 18:21:37.172914 22199 net.cpp:425] inception_3b/5x5_reduce <- inception_3a/output_inception_3a/output_0_split_2
I0403 18:21:37.172936 22199 net.cpp:399] inception_3b/5x5_reduce -> inception_3b/5x5_reduce
I0403 18:21:37.173890 22199 net.cpp:141] Setting up inception_3b/5x5_reduce
I0403 18:21:37.173916 22199 net.cpp:148] Top shape: 24 32 28 28 (602112)
I0403 18:21:37.173933 22199 net.cpp:156] Memory required for data: 727352352
I0403 18:21:37.173949 22199 layer_factory.hpp:77] Creating layer inception_3b/relu_5x5_reduce
I0403 18:21:37.173969 22199 net.cpp:91] Creating Layer inception_3b/relu_5x5_reduce
I0403 18:21:37.173985 22199 net.cpp:425] inception_3b/relu_5x5_reduce <- inception_3b/5x5_reduce
I0403 18:21:37.174002 22199 net.cpp:386] inception_3b/relu_5x5_reduce -> inception_3b/5x5_reduce (in-place)
I0403 18:21:37.174185 22199 net.cpp:141] Setting up inception_3b/relu_5x5_reduce
I0403 18:21:37.174208 22199 net.cpp:148] Top shape: 24 32 28 28 (602112)
I0403 18:21:37.174222 22199 net.cpp:156] Memory required for data: 729760800
I0403 18:21:37.174237 22199 layer_factory.hpp:77] Creating layer inception_3b/5x5
I0403 18:21:37.174259 22199 net.cpp:91] Creating Layer inception_3b/5x5
I0403 18:21:37.174278 22199 net.cpp:425] inception_3b/5x5 <- inception_3b/5x5_reduce
I0403 18:21:37.174296 22199 net.cpp:399] inception_3b/5x5 -> inception_3b/5x5
I0403 18:21:37.176200 22199 net.cpp:141] Setting up inception_3b/5x5
I0403 18:21:37.176230 22199 net.cpp:148] Top shape: 24 96 28 28 (1806336)
I0403 18:21:37.176246 22199 net.cpp:156] Memory required for data: 736986144
I0403 18:21:37.176265 22199 layer_factory.hpp:77] Creating layer inception_3b/relu_5x5
I0403 18:21:37.176282 22199 net.cpp:91] Creating Layer inception_3b/relu_5x5
I0403 18:21:37.176298 22199 net.cpp:425] inception_3b/relu_5x5 <- inception_3b/5x5
I0403 18:21:37.176317 22199 net.cpp:386] inception_3b/relu_5x5 -> inception_3b/5x5 (in-place)
I0403 18:21:37.176508 22199 net.cpp:141] Setting up inception_3b/relu_5x5
I0403 18:21:37.176533 22199 net.cpp:148] Top shape: 24 96 28 28 (1806336)
I0403 18:21:37.176548 22199 net.cpp:156] Memory required for data: 744211488
I0403 18:21:37.176561 22199 layer_factory.hpp:77] Creating layer inception_3b/pool
I0403 18:21:37.176578 22199 net.cpp:91] Creating Layer inception_3b/pool
I0403 18:21:37.176594 22199 net.cpp:425] inception_3b/pool <- inception_3a/output_inception_3a/output_0_split_3
I0403 18:21:37.176610 22199 net.cpp:399] inception_3b/pool -> inception_3b/pool
I0403 18:21:37.176666 22199 net.cpp:141] Setting up inception_3b/pool
I0403 18:21:37.176688 22199 net.cpp:148] Top shape: 24 256 28 28 (4816896)
I0403 18:21:37.176702 22199 net.cpp:156] Memory required for data: 763479072
I0403 18:21:37.176715 22199 layer_factory.hpp:77] Creating layer inception_3b/pool_proj
I0403 18:21:37.176736 22199 net.cpp:91] Creating Layer inception_3b/pool_proj
I0403 18:21:37.176753 22199 net.cpp:425] inception_3b/pool_proj <- inception_3b/pool
I0403 18:21:37.176774 22199 net.cpp:399] inception_3b/pool_proj -> inception_3b/pool_proj
I0403 18:21:37.177793 22199 net.cpp:141] Setting up inception_3b/pool_proj
I0403 18:21:37.177819 22199 net.cpp:148] Top shape: 24 64 28 28 (1204224)
I0403 18:21:37.177834 22199 net.cpp:156] Memory required for data: 768295968
I0403 18:21:37.177851 22199 layer_factory.hpp:77] Creating layer inception_3b/relu_pool_proj
I0403 18:21:37.177870 22199 net.cpp:91] Creating Layer inception_3b/relu_pool_proj
I0403 18:21:37.177886 22199 net.cpp:425] inception_3b/relu_pool_proj <- inception_3b/pool_proj
I0403 18:21:37.177902 22199 net.cpp:386] inception_3b/relu_pool_proj -> inception_3b/pool_proj (in-place)
I0403 18:21:37.178284 22199 net.cpp:141] Setting up inception_3b/relu_pool_proj
I0403 18:21:37.178309 22199 net.cpp:148] Top shape: 24 64 28 28 (1204224)
I0403 18:21:37.178323 22199 net.cpp:156] Memory required for data: 773112864
I0403 18:21:37.178336 22199 layer_factory.hpp:77] Creating layer inception_3b/output
I0403 18:21:37.178355 22199 net.cpp:91] Creating Layer inception_3b/output
I0403 18:21:37.178370 22199 net.cpp:425] inception_3b/output <- inception_3b/1x1
I0403 18:21:37.178386 22199 net.cpp:425] inception_3b/output <- inception_3b/3x3
I0403 18:21:37.178400 22199 net.cpp:425] inception_3b/output <- inception_3b/5x5
I0403 18:21:37.178416 22199 net.cpp:425] inception_3b/output <- inception_3b/pool_proj
I0403 18:21:37.178431 22199 net.cpp:399] inception_3b/output -> inception_3b/output
I0403 18:21:37.178472 22199 net.cpp:141] Setting up inception_3b/output
I0403 18:21:37.178494 22199 net.cpp:148] Top shape: 24 480 28 28 (9031680)
I0403 18:21:37.178514 22199 net.cpp:156] Memory required for data: 809239584
I0403 18:21:37.178527 22199 layer_factory.hpp:77] Creating layer pool3/3x3_s2
I0403 18:21:37.178544 22199 net.cpp:91] Creating Layer pool3/3x3_s2
I0403 18:21:37.178558 22199 net.cpp:425] pool3/3x3_s2 <- inception_3b/output
I0403 18:21:37.178591 22199 net.cpp:399] pool3/3x3_s2 -> pool3/3x3_s2
I0403 18:21:37.178647 22199 net.cpp:141] Setting up pool3/3x3_s2
I0403 18:21:37.178670 22199 net.cpp:148] Top shape: 24 480 14 14 (2257920)
I0403 18:21:37.178683 22199 net.cpp:156] Memory required for data: 818271264
I0403 18:21:37.178696 22199 layer_factory.hpp:77] Creating layer pool3/3x3_s2_pool3/3x3_s2_0_split
I0403 18:21:37.178714 22199 net.cpp:91] Creating Layer pool3/3x3_s2_pool3/3x3_s2_0_split
I0403 18:21:37.178727 22199 net.cpp:425] pool3/3x3_s2_pool3/3x3_s2_0_split <- pool3/3x3_s2
I0403 18:21:37.178742 22199 net.cpp:399] pool3/3x3_s2_pool3/3x3_s2_0_split -> pool3/3x3_s2_pool3/3x3_s2_0_split_0
I0403 18:21:37.178763 22199 net.cpp:399] pool3/3x3_s2_pool3/3x3_s2_0_split -> pool3/3x3_s2_pool3/3x3_s2_0_split_1
I0403 18:21:37.178783 22199 net.cpp:399] pool3/3x3_s2_pool3/3x3_s2_0_split -> pool3/3x3_s2_pool3/3x3_s2_0_split_2
I0403 18:21:37.178802 22199 net.cpp:399] pool3/3x3_s2_pool3/3x3_s2_0_split -> pool3/3x3_s2_pool3/3x3_s2_0_split_3
I0403 18:21:37.178872 22199 net.cpp:141] Setting up pool3/3x3_s2_pool3/3x3_s2_0_split
I0403 18:21:37.178894 22199 net.cpp:148] Top shape: 24 480 14 14 (2257920)
I0403 18:21:37.178908 22199 net.cpp:148] Top shape: 24 480 14 14 (2257920)
I0403 18:21:37.178922 22199 net.cpp:148] Top shape: 24 480 14 14 (2257920)
I0403 18:21:37.178936 22199 net.cpp:148] Top shape: 24 480 14 14 (2257920)
I0403 18:21:37.178949 22199 net.cpp:156] Memory required for data: 854397984
I0403 18:21:37.178962 22199 layer_factory.hpp:77] Creating layer inception_4a/1x1
I0403 18:21:37.178987 22199 net.cpp:91] Creating Layer inception_4a/1x1
I0403 18:21:37.179004 22199 net.cpp:425] inception_4a/1x1 <- pool3/3x3_s2_pool3/3x3_s2_0_split_0
I0403 18:21:37.179023 22199 net.cpp:399] inception_4a/1x1 -> inception_4a/1x1
I0403 18:21:37.180497 22199 net.cpp:141] Setting up inception_4a/1x1
I0403 18:21:37.180529 22199 net.cpp:148] Top shape: 24 192 14 14 (903168)
I0403 18:21:37.180546 22199 net.cpp:156] Memory required for data: 858010656
I0403 18:21:37.180563 22199 layer_factory.hpp:77] Creating layer inception_4a/relu_1x1
I0403 18:21:37.180579 22199 net.cpp:91] Creating Layer inception_4a/relu_1x1
I0403 18:21:37.180594 22199 net.cpp:425] inception_4a/relu_1x1 <- inception_4a/1x1
I0403 18:21:37.180613 22199 net.cpp:386] inception_4a/relu_1x1 -> inception_4a/1x1 (in-place)
I0403 18:21:37.180775 22199 net.cpp:141] Setting up inception_4a/relu_1x1
I0403 18:21:37.180799 22199 net.cpp:148] Top shape: 24 192 14 14 (903168)
I0403 18:21:37.180812 22199 net.cpp:156] Memory required for data: 861623328
I0403 18:21:37.180826 22199 layer_factory.hpp:77] Creating layer inception_4a/3x3_reduce
I0403 18:21:37.180846 22199 net.cpp:91] Creating Layer inception_4a/3x3_reduce
I0403 18:21:37.180863 22199 net.cpp:425] inception_4a/3x3_reduce <- pool3/3x3_s2_pool3/3x3_s2_0_split_1
I0403 18:21:37.180883 22199 net.cpp:399] inception_4a/3x3_reduce -> inception_4a/3x3_reduce
I0403 18:21:37.182071 22199 net.cpp:141] Setting up inception_4a/3x3_reduce
I0403 18:21:37.182099 22199 net.cpp:148] Top shape: 24 96 14 14 (451584)
I0403 18:21:37.182116 22199 net.cpp:156] Memory required for data: 863429664
I0403 18:21:37.182135 22199 layer_factory.hpp:77] Creating layer inception_4a/relu_3x3_reduce
I0403 18:21:37.182155 22199 net.cpp:91] Creating Layer inception_4a/relu_3x3_reduce
I0403 18:21:37.182171 22199 net.cpp:425] inception_4a/relu_3x3_reduce <- inception_4a/3x3_reduce
I0403 18:21:37.182188 22199 net.cpp:386] inception_4a/relu_3x3_reduce -> inception_4a/3x3_reduce (in-place)
I0403 18:21:37.182354 22199 net.cpp:141] Setting up inception_4a/relu_3x3_reduce
I0403 18:21:37.182379 22199 net.cpp:148] Top shape: 24 96 14 14 (451584)
I0403 18:21:37.182391 22199 net.cpp:156] Memory required for data: 865236000
I0403 18:21:37.182404 22199 layer_factory.hpp:77] Creating layer inception_4a/3x3
I0403 18:21:37.182425 22199 net.cpp:91] Creating Layer inception_4a/3x3
I0403 18:21:37.182442 22199 net.cpp:425] inception_4a/3x3 <- inception_4a/3x3_reduce
I0403 18:21:37.182462 22199 net.cpp:399] inception_4a/3x3 -> inception_4a/3x3
I0403 18:21:37.184985 22199 net.cpp:141] Setting up inception_4a/3x3
I0403 18:21:37.185012 22199 net.cpp:148] Top shape: 24 208 14 14 (978432)
I0403 18:21:37.185026 22199 net.cpp:156] Memory required for data: 869149728
I0403 18:21:37.185044 22199 layer_factory.hpp:77] Creating layer inception_4a/relu_3x3
I0403 18:21:37.185060 22199 net.cpp:91] Creating Layer inception_4a/relu_3x3
I0403 18:21:37.185076 22199 net.cpp:425] inception_4a/relu_3x3 <- inception_4a/3x3
I0403 18:21:37.185096 22199 net.cpp:386] inception_4a/relu_3x3 -> inception_4a/3x3 (in-place)
I0403 18:21:37.185353 22199 net.cpp:141] Setting up inception_4a/relu_3x3
I0403 18:21:37.185379 22199 net.cpp:148] Top shape: 24 208 14 14 (978432)
I0403 18:21:37.185394 22199 net.cpp:156] Memory required for data: 873063456
I0403 18:21:37.185406 22199 layer_factory.hpp:77] Creating layer inception_4a/5x5_reduce
I0403 18:21:37.185430 22199 net.cpp:91] Creating Layer inception_4a/5x5_reduce
I0403 18:21:37.185446 22199 net.cpp:425] inception_4a/5x5_reduce <- pool3/3x3_s2_pool3/3x3_s2_0_split_2
I0403 18:21:37.185467 22199 net.cpp:399] inception_4a/5x5_reduce -> inception_4a/5x5_reduce
I0403 18:21:37.186414 22199 net.cpp:141] Setting up inception_4a/5x5_reduce
I0403 18:21:37.186439 22199 net.cpp:148] Top shape: 24 16 14 14 (75264)
I0403 18:21:37.186453 22199 net.cpp:156] Memory required for data: 873364512
I0403 18:21:37.186470 22199 layer_factory.hpp:77] Creating layer inception_4a/relu_5x5_reduce
I0403 18:21:37.186491 22199 net.cpp:91] Creating Layer inception_4a/relu_5x5_reduce
I0403 18:21:37.186509 22199 net.cpp:425] inception_4a/relu_5x5_reduce <- inception_4a/5x5_reduce
I0403 18:21:37.186527 22199 net.cpp:386] inception_4a/relu_5x5_reduce -> inception_4a/5x5_reduce (in-place)
I0403 18:21:37.186692 22199 net.cpp:141] Setting up inception_4a/relu_5x5_reduce
I0403 18:21:37.186715 22199 net.cpp:148] Top shape: 24 16 14 14 (75264)
I0403 18:21:37.186729 22199 net.cpp:156] Memory required for data: 873665568
I0403 18:21:37.186743 22199 layer_factory.hpp:77] Creating layer inception_4a/5x5
I0403 18:21:37.186766 22199 net.cpp:91] Creating Layer inception_4a/5x5
I0403 18:21:37.186785 22199 net.cpp:425] inception_4a/5x5 <- inception_4a/5x5_reduce
I0403 18:21:37.186802 22199 net.cpp:399] inception_4a/5x5 -> inception_4a/5x5
I0403 18:21:37.187813 22199 net.cpp:141] Setting up inception_4a/5x5
I0403 18:21:37.187837 22199 net.cpp:148] Top shape: 24 48 14 14 (225792)
I0403 18:21:37.187852 22199 net.cpp:156] Memory required for data: 874568736
I0403 18:21:37.187870 22199 layer_factory.hpp:77] Creating layer inception_4a/relu_5x5
I0403 18:21:37.187890 22199 net.cpp:91] Creating Layer inception_4a/relu_5x5
I0403 18:21:37.187906 22199 net.cpp:425] inception_4a/relu_5x5 <- inception_4a/5x5
I0403 18:21:37.187922 22199 net.cpp:386] inception_4a/relu_5x5 -> inception_4a/5x5 (in-place)
I0403 18:21:37.188087 22199 net.cpp:141] Setting up inception_4a/relu_5x5
I0403 18:21:37.188114 22199 net.cpp:148] Top shape: 24 48 14 14 (225792)
I0403 18:21:37.188129 22199 net.cpp:156] Memory required for data: 875471904
I0403 18:21:37.188143 22199 layer_factory.hpp:77] Creating layer inception_4a/pool
I0403 18:21:37.188160 22199 net.cpp:91] Creating Layer inception_4a/pool
I0403 18:21:37.188175 22199 net.cpp:425] inception_4a/pool <- pool3/3x3_s2_pool3/3x3_s2_0_split_3
I0403 18:21:37.188194 22199 net.cpp:399] inception_4a/pool -> inception_4a/pool
I0403 18:21:37.188251 22199 net.cpp:141] Setting up inception_4a/pool
I0403 18:21:37.188272 22199 net.cpp:148] Top shape: 24 480 14 14 (2257920)
I0403 18:21:37.188287 22199 net.cpp:156] Memory required for data: 884503584
I0403 18:21:37.188300 22199 layer_factory.hpp:77] Creating layer inception_4a/pool_proj
I0403 18:21:37.188320 22199 net.cpp:91] Creating Layer inception_4a/pool_proj
I0403 18:21:37.188338 22199 net.cpp:425] inception_4a/pool_proj <- inception_4a/pool
I0403 18:21:37.188357 22199 net.cpp:399] inception_4a/pool_proj -> inception_4a/pool_proj
I0403 18:21:37.189486 22199 net.cpp:141] Setting up inception_4a/pool_proj
I0403 18:21:37.189520 22199 net.cpp:148] Top shape: 24 64 14 14 (301056)
I0403 18:21:37.189550 22199 net.cpp:156] Memory required for data: 885707808
I0403 18:21:37.189569 22199 layer_factory.hpp:77] Creating layer inception_4a/relu_pool_proj
I0403 18:21:37.189587 22199 net.cpp:91] Creating Layer inception_4a/relu_pool_proj
I0403 18:21:37.189602 22199 net.cpp:425] inception_4a/relu_pool_proj <- inception_4a/pool_proj
I0403 18:21:37.189620 22199 net.cpp:386] inception_4a/relu_pool_proj -> inception_4a/pool_proj (in-place)
I0403 18:21:37.189899 22199 net.cpp:141] Setting up inception_4a/relu_pool_proj
I0403 18:21:37.189926 22199 net.cpp:148] Top shape: 24 64 14 14 (301056)
I0403 18:21:37.189941 22199 net.cpp:156] Memory required for data: 886912032
I0403 18:21:37.189955 22199 layer_factory.hpp:77] Creating layer inception_4a/output
I0403 18:21:37.189971 22199 net.cpp:91] Creating Layer inception_4a/output
I0403 18:21:37.189987 22199 net.cpp:425] inception_4a/output <- inception_4a/1x1
I0403 18:21:37.190003 22199 net.cpp:425] inception_4a/output <- inception_4a/3x3
I0403 18:21:37.190018 22199 net.cpp:425] inception_4a/output <- inception_4a/5x5
I0403 18:21:37.190033 22199 net.cpp:425] inception_4a/output <- inception_4a/pool_proj
I0403 18:21:37.190049 22199 net.cpp:399] inception_4a/output -> inception_4a/output
I0403 18:21:37.190095 22199 net.cpp:141] Setting up inception_4a/output
I0403 18:21:37.190117 22199 net.cpp:148] Top shape: 24 512 14 14 (2408448)
I0403 18:21:37.190131 22199 net.cpp:156] Memory required for data: 896545824
I0403 18:21:37.190143 22199 layer_factory.hpp:77] Creating layer inception_4a/output_inception_4a/output_0_split
I0403 18:21:37.190162 22199 net.cpp:91] Creating Layer inception_4a/output_inception_4a/output_0_split
I0403 18:21:37.190177 22199 net.cpp:425] inception_4a/output_inception_4a/output_0_split <- inception_4a/output
I0403 18:21:37.190193 22199 net.cpp:399] inception_4a/output_inception_4a/output_0_split -> inception_4a/output_inception_4a/output_0_split_0
I0403 18:21:37.190213 22199 net.cpp:399] inception_4a/output_inception_4a/output_0_split -> inception_4a/output_inception_4a/output_0_split_1
I0403 18:21:37.190232 22199 net.cpp:399] inception_4a/output_inception_4a/output_0_split -> inception_4a/output_inception_4a/output_0_split_2
I0403 18:21:37.190253 22199 net.cpp:399] inception_4a/output_inception_4a/output_0_split -> inception_4a/output_inception_4a/output_0_split_3
I0403 18:21:37.190274 22199 net.cpp:399] inception_4a/output_inception_4a/output_0_split -> inception_4a/output_inception_4a/output_0_split_4
I0403 18:21:37.190361 22199 net.cpp:141] Setting up inception_4a/output_inception_4a/output_0_split
I0403 18:21:37.190384 22199 net.cpp:148] Top shape: 24 512 14 14 (2408448)
I0403 18:21:37.190399 22199 net.cpp:148] Top shape: 24 512 14 14 (2408448)
I0403 18:21:37.190414 22199 net.cpp:148] Top shape: 24 512 14 14 (2408448)
I0403 18:21:37.190428 22199 net.cpp:148] Top shape: 24 512 14 14 (2408448)
I0403 18:21:37.190443 22199 net.cpp:148] Top shape: 24 512 14 14 (2408448)
I0403 18:21:37.190455 22199 net.cpp:156] Memory required for data: 944714784
I0403 18:21:37.190469 22199 layer_factory.hpp:77] Creating layer loss1/ave_pool
I0403 18:21:37.190487 22199 net.cpp:91] Creating Layer loss1/ave_pool
I0403 18:21:37.190502 22199 net.cpp:425] loss1/ave_pool <- inception_4a/output_inception_4a/output_0_split_0
I0403 18:21:37.190526 22199 net.cpp:399] loss1/ave_pool -> loss1/ave_pool
I0403 18:21:37.190716 22199 net.cpp:141] Setting up loss1/ave_pool
I0403 18:21:37.190742 22199 net.cpp:148] Top shape: 24 512 4 4 (196608)
I0403 18:21:37.190757 22199 net.cpp:156] Memory required for data: 945501216
I0403 18:21:37.190770 22199 layer_factory.hpp:77] Creating layer loss1/conv
I0403 18:21:37.190791 22199 net.cpp:91] Creating Layer loss1/conv
I0403 18:21:37.190809 22199 net.cpp:425] loss1/conv <- loss1/ave_pool
I0403 18:21:37.190825 22199 net.cpp:399] loss1/conv -> loss1/conv
I0403 18:21:37.192137 22199 net.cpp:141] Setting up loss1/conv
I0403 18:21:37.192162 22199 net.cpp:148] Top shape: 24 128 4 4 (49152)
I0403 18:21:37.192190 22199 net.cpp:156] Memory required for data: 945697824
I0403 18:21:37.192209 22199 layer_factory.hpp:77] Creating layer loss1/relu_conv
I0403 18:21:37.192226 22199 net.cpp:91] Creating Layer loss1/relu_conv
I0403 18:21:37.192245 22199 net.cpp:425] loss1/relu_conv <- loss1/conv
I0403 18:21:37.192260 22199 net.cpp:386] loss1/relu_conv -> loss1/conv (in-place)
I0403 18:21:37.192528 22199 net.cpp:141] Setting up loss1/relu_conv
I0403 18:21:37.192553 22199 net.cpp:148] Top shape: 24 128 4 4 (49152)
I0403 18:21:37.192567 22199 net.cpp:156] Memory required for data: 945894432
I0403 18:21:37.192580 22199 layer_factory.hpp:77] Creating layer loss1/fc
I0403 18:21:37.192602 22199 net.cpp:91] Creating Layer loss1/fc
I0403 18:21:37.192621 22199 net.cpp:425] loss1/fc <- loss1/conv
I0403 18:21:37.192638 22199 net.cpp:399] loss1/fc -> loss1/fc
I0403 18:21:37.209506 22199 net.cpp:141] Setting up loss1/fc
I0403 18:21:37.209537 22199 net.cpp:148] Top shape: 24 1024 (24576)
I0403 18:21:37.209552 22199 net.cpp:156] Memory required for data: 945992736
I0403 18:21:37.209568 22199 layer_factory.hpp:77] Creating layer loss1/relu_fc
I0403 18:21:37.209589 22199 net.cpp:91] Creating Layer loss1/relu_fc
I0403 18:21:37.209604 22199 net.cpp:425] loss1/relu_fc <- loss1/fc
I0403 18:21:37.209620 22199 net.cpp:386] loss1/relu_fc -> loss1/fc (in-place)
I0403 18:21:37.209794 22199 net.cpp:141] Setting up loss1/relu_fc
I0403 18:21:37.209818 22199 net.cpp:148] Top shape: 24 1024 (24576)
I0403 18:21:37.209832 22199 net.cpp:156] Memory required for data: 946091040
I0403 18:21:37.209846 22199 layer_factory.hpp:77] Creating layer loss1/drop_fc
I0403 18:21:37.209870 22199 net.cpp:91] Creating Layer loss1/drop_fc
I0403 18:21:37.209887 22199 net.cpp:425] loss1/drop_fc <- loss1/fc
I0403 18:21:37.209905 22199 net.cpp:386] loss1/drop_fc -> loss1/fc (in-place)
I0403 18:21:37.209952 22199 net.cpp:141] Setting up loss1/drop_fc
I0403 18:21:37.209975 22199 net.cpp:148] Top shape: 24 1024 (24576)
I0403 18:21:37.209988 22199 net.cpp:156] Memory required for data: 946189344
I0403 18:21:37.210001 22199 layer_factory.hpp:77] Creating layer loss1/classifier_plantvillage
I0403 18:21:37.210022 22199 net.cpp:91] Creating Layer loss1/classifier_plantvillage
I0403 18:21:37.210039 22199 net.cpp:425] loss1/classifier_plantvillage <- loss1/fc
I0403 18:21:37.210058 22199 net.cpp:399] loss1/classifier_plantvillage -> loss1/classifier_plantvillage
I0403 18:21:37.210928 22199 net.cpp:141] Setting up loss1/classifier_plantvillage
I0403 18:21:37.210958 22199 net.cpp:148] Top shape: 24 38 (912)
I0403 18:21:37.210973 22199 net.cpp:156] Memory required for data: 946192992
I0403 18:21:37.210989 22199 layer_factory.hpp:77] Creating layer loss1/classifier_plantvillage_loss1/classifier_plantvillage_0_split
I0403 18:21:37.211007 22199 net.cpp:91] Creating Layer loss1/classifier_plantvillage_loss1/classifier_plantvillage_0_split
I0403 18:21:37.211021 22199 net.cpp:425] loss1/classifier_plantvillage_loss1/classifier_plantvillage_0_split <- loss1/classifier_plantvillage
I0403 18:21:37.211040 22199 net.cpp:399] loss1/classifier_plantvillage_loss1/classifier_plantvillage_0_split -> loss1/classifier_plantvillage_loss1/classifier_plantvillage_0_split_0
I0403 18:21:37.211061 22199 net.cpp:399] loss1/classifier_plantvillage_loss1/classifier_plantvillage_0_split -> loss1/classifier_plantvillage_loss1/classifier_plantvillage_0_split_1
I0403 18:21:37.211081 22199 net.cpp:399] loss1/classifier_plantvillage_loss1/classifier_plantvillage_0_split -> loss1/classifier_plantvillage_loss1/classifier_plantvillage_0_split_2
I0403 18:21:37.211143 22199 net.cpp:141] Setting up loss1/classifier_plantvillage_loss1/classifier_plantvillage_0_split
I0403 18:21:37.211164 22199 net.cpp:148] Top shape: 24 38 (912)
I0403 18:21:37.211179 22199 net.cpp:148] Top shape: 24 38 (912)
I0403 18:21:37.211194 22199 net.cpp:148] Top shape: 24 38 (912)
I0403 18:21:37.211206 22199 net.cpp:156] Memory required for data: 946203936
I0403 18:21:37.211220 22199 layer_factory.hpp:77] Creating layer inception_4b/1x1
I0403 18:21:37.211242 22199 net.cpp:91] Creating Layer inception_4b/1x1
I0403 18:21:37.211273 22199 net.cpp:425] inception_4b/1x1 <- inception_4a/output_inception_4a/output_0_split_1
I0403 18:21:37.211293 22199 net.cpp:399] inception_4b/1x1 -> inception_4b/1x1
I0403 18:21:37.212837 22199 net.cpp:141] Setting up inception_4b/1x1
I0403 18:21:37.212864 22199 net.cpp:148] Top shape: 24 160 14 14 (752640)
I0403 18:21:37.212879 22199 net.cpp:156] Memory required for data: 949214496
I0403 18:21:37.212896 22199 layer_factory.hpp:77] Creating layer inception_4b/relu_1x1
I0403 18:21:37.212916 22199 net.cpp:91] Creating Layer inception_4b/relu_1x1
I0403 18:21:37.212932 22199 net.cpp:425] inception_4b/relu_1x1 <- inception_4b/1x1
I0403 18:21:37.212949 22199 net.cpp:386] inception_4b/relu_1x1 -> inception_4b/1x1 (in-place)
I0403 18:21:37.213115 22199 net.cpp:141] Setting up inception_4b/relu_1x1
I0403 18:21:37.213138 22199 net.cpp:148] Top shape: 24 160 14 14 (752640)
I0403 18:21:37.213152 22199 net.cpp:156] Memory required for data: 952225056
I0403 18:21:37.213165 22199 layer_factory.hpp:77] Creating layer inception_4b/3x3_reduce
I0403 18:21:37.213186 22199 net.cpp:91] Creating Layer inception_4b/3x3_reduce
I0403 18:21:37.213203 22199 net.cpp:425] inception_4b/3x3_reduce <- inception_4a/output_inception_4a/output_0_split_2
I0403 18:21:37.213224 22199 net.cpp:399] inception_4b/3x3_reduce -> inception_4b/3x3_reduce
I0403 18:21:37.214488 22199 net.cpp:141] Setting up inception_4b/3x3_reduce
I0403 18:21:37.214524 22199 net.cpp:148] Top shape: 24 112 14 14 (526848)
I0403 18:21:37.214540 22199 net.cpp:156] Memory required for data: 954332448
I0403 18:21:37.214556 22199 layer_factory.hpp:77] Creating layer inception_4b/relu_3x3_reduce
I0403 18:21:37.214576 22199 net.cpp:91] Creating Layer inception_4b/relu_3x3_reduce
I0403 18:21:37.214591 22199 net.cpp:425] inception_4b/relu_3x3_reduce <- inception_4b/3x3_reduce
I0403 18:21:37.214607 22199 net.cpp:386] inception_4b/relu_3x3_reduce -> inception_4b/3x3_reduce (in-place)
I0403 18:21:37.214872 22199 net.cpp:141] Setting up inception_4b/relu_3x3_reduce
I0403 18:21:37.214896 22199 net.cpp:148] Top shape: 24 112 14 14 (526848)
I0403 18:21:37.214911 22199 net.cpp:156] Memory required for data: 956439840
I0403 18:21:37.214925 22199 layer_factory.hpp:77] Creating layer inception_4b/3x3
I0403 18:21:37.214946 22199 net.cpp:91] Creating Layer inception_4b/3x3
I0403 18:21:37.214963 22199 net.cpp:425] inception_4b/3x3 <- inception_4b/3x3_reduce
I0403 18:21:37.214982 22199 net.cpp:399] inception_4b/3x3 -> inception_4b/3x3
I0403 18:21:37.217828 22199 net.cpp:141] Setting up inception_4b/3x3
I0403 18:21:37.217856 22199 net.cpp:148] Top shape: 24 224 14 14 (1053696)
I0403 18:21:37.217871 22199 net.cpp:156] Memory required for data: 960654624
I0403 18:21:37.217890 22199 layer_factory.hpp:77] Creating layer inception_4b/relu_3x3
I0403 18:21:37.217906 22199 net.cpp:91] Creating Layer inception_4b/relu_3x3
I0403 18:21:37.217921 22199 net.cpp:425] inception_4b/relu_3x3 <- inception_4b/3x3
I0403 18:21:37.217941 22199 net.cpp:386] inception_4b/relu_3x3 -> inception_4b/3x3 (in-place)
I0403 18:21:37.218108 22199 net.cpp:141] Setting up inception_4b/relu_3x3
I0403 18:21:37.218132 22199 net.cpp:148] Top shape: 24 224 14 14 (1053696)
I0403 18:21:37.218145 22199 net.cpp:156] Memory required for data: 964869408
I0403 18:21:37.218159 22199 layer_factory.hpp:77] Creating layer inception_4b/5x5_reduce
I0403 18:21:37.218179 22199 net.cpp:91] Creating Layer inception_4b/5x5_reduce
I0403 18:21:37.218197 22199 net.cpp:425] inception_4b/5x5_reduce <- inception_4a/output_inception_4a/output_0_split_3
I0403 18:21:37.218219 22199 net.cpp:399] inception_4b/5x5_reduce -> inception_4b/5x5_reduce
I0403 18:21:37.219225 22199 net.cpp:141] Setting up inception_4b/5x5_reduce
I0403 18:21:37.219252 22199 net.cpp:148] Top shape: 24 24 14 14 (112896)
I0403 18:21:37.219266 22199 net.cpp:156] Memory required for data: 965320992
I0403 18:21:37.219283 22199 layer_factory.hpp:77] Creating layer inception_4b/relu_5x5_reduce
I0403 18:21:37.219303 22199 net.cpp:91] Creating Layer inception_4b/relu_5x5_reduce
I0403 18:21:37.219333 22199 net.cpp:425] inception_4b/relu_5x5_reduce <- inception_4b/5x5_reduce
I0403 18:21:37.219350 22199 net.cpp:386] inception_4b/relu_5x5_reduce -> inception_4b/5x5_reduce (in-place)
I0403 18:21:37.219526 22199 net.cpp:141] Setting up inception_4b/relu_5x5_reduce
I0403 18:21:37.219554 22199 net.cpp:148] Top shape: 24 24 14 14 (112896)
I0403 18:21:37.219569 22199 net.cpp:156] Memory required for data: 965772576
I0403 18:21:37.219583 22199 layer_factory.hpp:77] Creating layer inception_4b/5x5
I0403 18:21:37.219602 22199 net.cpp:91] Creating Layer inception_4b/5x5
I0403 18:21:37.219619 22199 net.cpp:425] inception_4b/5x5 <- inception_4b/5x5_reduce
I0403 18:21:37.219638 22199 net.cpp:399] inception_4b/5x5 -> inception_4b/5x5
I0403 18:21:37.220780 22199 net.cpp:141] Setting up inception_4b/5x5
I0403 18:21:37.220806 22199 net.cpp:148] Top shape: 24 64 14 14 (301056)
I0403 18:21:37.220820 22199 net.cpp:156] Memory required for data: 966976800
I0403 18:21:37.220837 22199 layer_factory.hpp:77] Creating layer inception_4b/relu_5x5
I0403 18:21:37.220856 22199 net.cpp:91] Creating Layer inception_4b/relu_5x5
I0403 18:21:37.220872 22199 net.cpp:425] inception_4b/relu_5x5 <- inception_4b/5x5
I0403 18:21:37.220888 22199 net.cpp:386] inception_4b/relu_5x5 -> inception_4b/5x5 (in-place)
I0403 18:21:37.221153 22199 net.cpp:141] Setting up inception_4b/relu_5x5
I0403 18:21:37.221179 22199 net.cpp:148] Top shape: 24 64 14 14 (301056)
I0403 18:21:37.221194 22199 net.cpp:156] Memory required for data: 968181024
I0403 18:21:37.221207 22199 layer_factory.hpp:77] Creating layer inception_4b/pool
I0403 18:21:37.221223 22199 net.cpp:91] Creating Layer inception_4b/pool
I0403 18:21:37.221238 22199 net.cpp:425] inception_4b/pool <- inception_4a/output_inception_4a/output_0_split_4
I0403 18:21:37.221258 22199 net.cpp:399] inception_4b/pool -> inception_4b/pool
I0403 18:21:37.221318 22199 net.cpp:141] Setting up inception_4b/pool
I0403 18:21:37.221340 22199 net.cpp:148] Top shape: 24 512 14 14 (2408448)
I0403 18:21:37.221354 22199 net.cpp:156] Memory required for data: 977814816
I0403 18:21:37.221369 22199 layer_factory.hpp:77] Creating layer inception_4b/pool_proj
I0403 18:21:37.221388 22199 net.cpp:91] Creating Layer inception_4b/pool_proj
I0403 18:21:37.221405 22199 net.cpp:425] inception_4b/pool_proj <- inception_4b/pool
I0403 18:21:37.221422 22199 net.cpp:399] inception_4b/pool_proj -> inception_4b/pool_proj
I0403 18:21:37.222546 22199 net.cpp:141] Setting up inception_4b/pool_proj
I0403 18:21:37.222573 22199 net.cpp:148] Top shape: 24 64 14 14 (301056)
I0403 18:21:37.222587 22199 net.cpp:156] Memory required for data: 979019040
I0403 18:21:37.222604 22199 layer_factory.hpp:77] Creating layer inception_4b/relu_pool_proj
I0403 18:21:37.222623 22199 net.cpp:91] Creating Layer inception_4b/relu_pool_proj
I0403 18:21:37.222640 22199 net.cpp:425] inception_4b/relu_pool_proj <- inception_4b/pool_proj
I0403 18:21:37.222656 22199 net.cpp:386] inception_4b/relu_pool_proj -> inception_4b/pool_proj (in-place)
I0403 18:21:37.222826 22199 net.cpp:141] Setting up inception_4b/relu_pool_proj
I0403 18:21:37.222851 22199 net.cpp:148] Top shape: 24 64 14 14 (301056)
I0403 18:21:37.222863 22199 net.cpp:156] Memory required for data: 980223264
I0403 18:21:37.222877 22199 layer_factory.hpp:77] Creating layer inception_4b/output
I0403 18:21:37.222895 22199 net.cpp:91] Creating Layer inception_4b/output
I0403 18:21:37.222911 22199 net.cpp:425] inception_4b/output <- inception_4b/1x1
I0403 18:21:37.222928 22199 net.cpp:425] inception_4b/output <- inception_4b/3x3
I0403 18:21:37.222942 22199 net.cpp:425] inception_4b/output <- inception_4b/5x5
I0403 18:21:37.222957 22199 net.cpp:425] inception_4b/output <- inception_4b/pool_proj
I0403 18:21:37.222972 22199 net.cpp:399] inception_4b/output -> inception_4b/output
I0403 18:21:37.223019 22199 net.cpp:141] Setting up inception_4b/output
I0403 18:21:37.223040 22199 net.cpp:148] Top shape: 24 512 14 14 (2408448)
I0403 18:21:37.223055 22199 net.cpp:156] Memory required for data: 989857056
I0403 18:21:37.223083 22199 layer_factory.hpp:77] Creating layer inception_4b/output_inception_4b/output_0_split
I0403 18:21:37.223099 22199 net.cpp:91] Creating Layer inception_4b/output_inception_4b/output_0_split
I0403 18:21:37.223114 22199 net.cpp:425] inception_4b/output_inception_4b/output_0_split <- inception_4b/output
I0403 18:21:37.223131 22199 net.cpp:399] inception_4b/output_inception_4b/output_0_split -> inception_4b/output_inception_4b/output_0_split_0
I0403 18:21:37.223152 22199 net.cpp:399] inception_4b/output_inception_4b/output_0_split -> inception_4b/output_inception_4b/output_0_split_1
I0403 18:21:37.223172 22199 net.cpp:399] inception_4b/output_inception_4b/output_0_split -> inception_4b/output_inception_4b/output_0_split_2
I0403 18:21:37.223191 22199 net.cpp:399] inception_4b/output_inception_4b/output_0_split -> inception_4b/output_inception_4b/output_0_split_3
I0403 18:21:37.223270 22199 net.cpp:141] Setting up inception_4b/output_inception_4b/output_0_split
I0403 18:21:37.223296 22199 net.cpp:148] Top shape: 24 512 14 14 (2408448)
I0403 18:21:37.223312 22199 net.cpp:148] Top shape: 24 512 14 14 (2408448)
I0403 18:21:37.223327 22199 net.cpp:148] Top shape: 24 512 14 14 (2408448)
I0403 18:21:37.223341 22199 net.cpp:148] Top shape: 24 512 14 14 (2408448)
I0403 18:21:37.223353 22199 net.cpp:156] Memory required for data: 1028392224
I0403 18:21:37.223366 22199 layer_factory.hpp:77] Creating layer inception_4c/1x1
I0403 18:21:37.223387 22199 net.cpp:91] Creating Layer inception_4c/1x1
I0403 18:21:37.223404 22199 net.cpp:425] inception_4c/1x1 <- inception_4b/output_inception_4b/output_0_split_0
I0403 18:21:37.223424 22199 net.cpp:399] inception_4c/1x1 -> inception_4c/1x1
I0403 18:21:37.224781 22199 net.cpp:141] Setting up inception_4c/1x1
I0403 18:21:37.224807 22199 net.cpp:148] Top shape: 24 128 14 14 (602112)
I0403 18:21:37.224822 22199 net.cpp:156] Memory required for data: 1030800672
I0403 18:21:37.224839 22199 layer_factory.hpp:77] Creating layer inception_4c/relu_1x1
I0403 18:21:37.224859 22199 net.cpp:91] Creating Layer inception_4c/relu_1x1
I0403 18:21:37.224875 22199 net.cpp:425] inception_4c/relu_1x1 <- inception_4c/1x1
I0403 18:21:37.224891 22199 net.cpp:386] inception_4c/relu_1x1 -> inception_4c/1x1 (in-place)
I0403 18:21:37.225061 22199 net.cpp:141] Setting up inception_4c/relu_1x1
I0403 18:21:37.225085 22199 net.cpp:148] Top shape: 24 128 14 14 (602112)
I0403 18:21:37.225098 22199 net.cpp:156] Memory required for data: 1033209120
I0403 18:21:37.225111 22199 layer_factory.hpp:77] Creating layer inception_4c/3x3_reduce
I0403 18:21:37.225132 22199 net.cpp:91] Creating Layer inception_4c/3x3_reduce
I0403 18:21:37.225149 22199 net.cpp:425] inception_4c/3x3_reduce <- inception_4b/output_inception_4b/output_0_split_1
I0403 18:21:37.225170 22199 net.cpp:399] inception_4c/3x3_reduce -> inception_4c/3x3_reduce
I0403 18:21:37.227013 22199 net.cpp:141] Setting up inception_4c/3x3_reduce
I0403 18:21:37.227041 22199 net.cpp:148] Top shape: 24 128 14 14 (602112)
I0403 18:21:37.227056 22199 net.cpp:156] Memory required for data: 1035617568
I0403 18:21:37.227073 22199 layer_factory.hpp:77] Creating layer inception_4c/relu_3x3_reduce
I0403 18:21:37.227090 22199 net.cpp:91] Creating Layer inception_4c/relu_3x3_reduce
I0403 18:21:37.227105 22199 net.cpp:425] inception_4c/relu_3x3_reduce <- inception_4c/3x3_reduce
I0403 18:21:37.227123 22199 net.cpp:386] inception_4c/relu_3x3_reduce -> inception_4c/3x3_reduce (in-place)
I0403 18:21:37.227394 22199 net.cpp:141] Setting up inception_4c/relu_3x3_reduce
I0403 18:21:37.227419 22199 net.cpp:148] Top shape: 24 128 14 14 (602112)
I0403 18:21:37.227433 22199 net.cpp:156] Memory required for data: 1038026016
I0403 18:21:37.227447 22199 layer_factory.hpp:77] Creating layer inception_4c/3x3
I0403 18:21:37.227468 22199 net.cpp:91] Creating Layer inception_4c/3x3
I0403 18:21:37.227486 22199 net.cpp:425] inception_4c/3x3 <- inception_4c/3x3_reduce
I0403 18:21:37.227510 22199 net.cpp:399] inception_4c/3x3 -> inception_4c/3x3
I0403 18:21:37.230902 22199 net.cpp:141] Setting up inception_4c/3x3
I0403 18:21:37.230942 22199 net.cpp:148] Top shape: 24 256 14 14 (1204224)
I0403 18:21:37.230957 22199 net.cpp:156] Memory required for data: 1042842912
I0403 18:21:37.230986 22199 layer_factory.hpp:77] Creating layer inception_4c/relu_3x3
I0403 18:21:37.231008 22199 net.cpp:91] Creating Layer inception_4c/relu_3x3
I0403 18:21:37.231024 22199 net.cpp:425] inception_4c/relu_3x3 <- inception_4c/3x3
I0403 18:21:37.231040 22199 net.cpp:386] inception_4c/relu_3x3 -> inception_4c/3x3 (in-place)
I0403 18:21:37.231209 22199 net.cpp:141] Setting up inception_4c/relu_3x3
I0403 18:21:37.231231 22199 net.cpp:148] Top shape: 24 256 14 14 (1204224)
I0403 18:21:37.231245 22199 net.cpp:156] Memory required for data: 1047659808
I0403 18:21:37.231258 22199 layer_factory.hpp:77] Creating layer inception_4c/5x5_reduce
I0403 18:21:37.231281 22199 net.cpp:91] Creating Layer inception_4c/5x5_reduce
I0403 18:21:37.231299 22199 net.cpp:425] inception_4c/5x5_reduce <- inception_4b/output_inception_4b/output_0_split_2
I0403 18:21:37.231319 22199 net.cpp:399] inception_4c/5x5_reduce -> inception_4c/5x5_reduce
I0403 18:21:37.232341 22199 net.cpp:141] Setting up inception_4c/5x5_reduce
I0403 18:21:37.232367 22199 net.cpp:148] Top shape: 24 24 14 14 (112896)
I0403 18:21:37.232381 22199 net.cpp:156] Memory required for data: 1048111392
I0403 18:21:37.232398 22199 layer_factory.hpp:77] Creating layer inception_4c/relu_5x5_reduce
I0403 18:21:37.232417 22199 net.cpp:91] Creating Layer inception_4c/relu_5x5_reduce
I0403 18:21:37.232432 22199 net.cpp:425] inception_4c/relu_5x5_reduce <- inception_4c/5x5_reduce
I0403 18:21:37.232448 22199 net.cpp:386] inception_4c/relu_5x5_reduce -> inception_4c/5x5_reduce (in-place)
I0403 18:21:37.232622 22199 net.cpp:141] Setting up inception_4c/relu_5x5_reduce
I0403 18:21:37.232646 22199 net.cpp:148] Top shape: 24 24 14 14 (112896)
I0403 18:21:37.232661 22199 net.cpp:156] Memory required for data: 1048562976
I0403 18:21:37.232673 22199 layer_factory.hpp:77] Creating layer inception_4c/5x5
I0403 18:21:37.232694 22199 net.cpp:91] Creating Layer inception_4c/5x5
I0403 18:21:37.232712 22199 net.cpp:425] inception_4c/5x5 <- inception_4c/5x5_reduce
I0403 18:21:37.232731 22199 net.cpp:399] inception_4c/5x5 -> inception_4c/5x5
I0403 18:21:37.233897 22199 net.cpp:141] Setting up inception_4c/5x5
I0403 18:21:37.233923 22199 net.cpp:148] Top shape: 24 64 14 14 (301056)
I0403 18:21:37.233937 22199 net.cpp:156] Memory required for data: 1049767200
I0403 18:21:37.233953 22199 layer_factory.hpp:77] Creating layer inception_4c/relu_5x5
I0403 18:21:37.233973 22199 net.cpp:91] Creating Layer inception_4c/relu_5x5
I0403 18:21:37.233989 22199 net.cpp:425] inception_4c/relu_5x5 <- inception_4c/5x5
I0403 18:21:37.234004 22199 net.cpp:386] inception_4c/relu_5x5 -> inception_4c/5x5 (in-place)
I0403 18:21:37.234278 22199 net.cpp:141] Setting up inception_4c/relu_5x5
I0403 18:21:37.234305 22199 net.cpp:148] Top shape: 24 64 14 14 (301056)
I0403 18:21:37.234319 22199 net.cpp:156] Memory required for data: 1050971424
I0403 18:21:37.234333 22199 layer_factory.hpp:77] Creating layer inception_4c/pool
I0403 18:21:37.234350 22199 net.cpp:91] Creating Layer inception_4c/pool
I0403 18:21:37.234366 22199 net.cpp:425] inception_4c/pool <- inception_4b/output_inception_4b/output_0_split_3
I0403 18:21:37.234383 22199 net.cpp:399] inception_4c/pool -> inception_4c/pool
I0403 18:21:37.234446 22199 net.cpp:141] Setting up inception_4c/pool
I0403 18:21:37.234468 22199 net.cpp:148] Top shape: 24 512 14 14 (2408448)
I0403 18:21:37.234482 22199 net.cpp:156] Memory required for data: 1060605216
I0403 18:21:37.234495 22199 layer_factory.hpp:77] Creating layer inception_4c/pool_proj
I0403 18:21:37.234526 22199 net.cpp:91] Creating Layer inception_4c/pool_proj
I0403 18:21:37.234546 22199 net.cpp:425] inception_4c/pool_proj <- inception_4c/pool
I0403 18:21:37.234566 22199 net.cpp:399] inception_4c/pool_proj -> inception_4c/pool_proj
I0403 18:21:37.235769 22199 net.cpp:141] Setting up inception_4c/pool_proj
I0403 18:21:37.235796 22199 net.cpp:148] Top shape: 24 64 14 14 (301056)
I0403 18:21:37.235824 22199 net.cpp:156] Memory required for data: 1061809440
I0403 18:21:37.235843 22199 layer_factory.hpp:77] Creating layer inception_4c/relu_pool_proj
I0403 18:21:37.235862 22199 net.cpp:91] Creating Layer inception_4c/relu_pool_proj
I0403 18:21:37.235879 22199 net.cpp:425] inception_4c/relu_pool_proj <- inception_4c/pool_proj
I0403 18:21:37.235895 22199 net.cpp:386] inception_4c/relu_pool_proj -> inception_4c/pool_proj (in-place)
I0403 18:21:37.236064 22199 net.cpp:141] Setting up inception_4c/relu_pool_proj
I0403 18:21:37.236088 22199 net.cpp:148] Top shape: 24 64 14 14 (301056)
I0403 18:21:37.236102 22199 net.cpp:156] Memory required for data: 1063013664
I0403 18:21:37.236116 22199 layer_factory.hpp:77] Creating layer inception_4c/output
I0403 18:21:37.236135 22199 net.cpp:91] Creating Layer inception_4c/output
I0403 18:21:37.236150 22199 net.cpp:425] inception_4c/output <- inception_4c/1x1
I0403 18:21:37.236166 22199 net.cpp:425] inception_4c/output <- inception_4c/3x3
I0403 18:21:37.236181 22199 net.cpp:425] inception_4c/output <- inception_4c/5x5
I0403 18:21:37.236196 22199 net.cpp:425] inception_4c/output <- inception_4c/pool_proj
I0403 18:21:37.236210 22199 net.cpp:399] inception_4c/output -> inception_4c/output
I0403 18:21:37.236256 22199 net.cpp:141] Setting up inception_4c/output
I0403 18:21:37.236279 22199 net.cpp:148] Top shape: 24 512 14 14 (2408448)
I0403 18:21:37.236292 22199 net.cpp:156] Memory required for data: 1072647456
I0403 18:21:37.236306 22199 layer_factory.hpp:77] Creating layer inception_4c/output_inception_4c/output_0_split
I0403 18:21:37.236322 22199 net.cpp:91] Creating Layer inception_4c/output_inception_4c/output_0_split
I0403 18:21:37.236336 22199 net.cpp:425] inception_4c/output_inception_4c/output_0_split <- inception_4c/output
I0403 18:21:37.236354 22199 net.cpp:399] inception_4c/output_inception_4c/output_0_split -> inception_4c/output_inception_4c/output_0_split_0
I0403 18:21:37.236374 22199 net.cpp:399] inception_4c/output_inception_4c/output_0_split -> inception_4c/output_inception_4c/output_0_split_1
I0403 18:21:37.236394 22199 net.cpp:399] inception_4c/output_inception_4c/output_0_split -> inception_4c/output_inception_4c/output_0_split_2
I0403 18:21:37.236413 22199 net.cpp:399] inception_4c/output_inception_4c/output_0_split -> inception_4c/output_inception_4c/output_0_split_3
I0403 18:21:37.236493 22199 net.cpp:141] Setting up inception_4c/output_inception_4c/output_0_split
I0403 18:21:37.236521 22199 net.cpp:148] Top shape: 24 512 14 14 (2408448)
I0403 18:21:37.236537 22199 net.cpp:148] Top shape: 24 512 14 14 (2408448)
I0403 18:21:37.236553 22199 net.cpp:148] Top shape: 24 512 14 14 (2408448)
I0403 18:21:37.236567 22199 net.cpp:148] Top shape: 24 512 14 14 (2408448)
I0403 18:21:37.236579 22199 net.cpp:156] Memory required for data: 1111182624
I0403 18:21:37.236593 22199 layer_factory.hpp:77] Creating layer inception_4d/1x1
I0403 18:21:37.236616 22199 net.cpp:91] Creating Layer inception_4d/1x1
I0403 18:21:37.236634 22199 net.cpp:425] inception_4d/1x1 <- inception_4c/output_inception_4c/output_0_split_0
I0403 18:21:37.236651 22199 net.cpp:399] inception_4d/1x1 -> inception_4d/1x1
I0403 18:21:37.237946 22199 net.cpp:141] Setting up inception_4d/1x1
I0403 18:21:37.237975 22199 net.cpp:148] Top shape: 24 112 14 14 (526848)
I0403 18:21:37.237990 22199 net.cpp:156] Memory required for data: 1113290016
I0403 18:21:37.238008 22199 layer_factory.hpp:77] Creating layer inception_4d/relu_1x1
I0403 18:21:37.238024 22199 net.cpp:91] Creating Layer inception_4d/relu_1x1
I0403 18:21:37.238039 22199 net.cpp:425] inception_4d/relu_1x1 <- inception_4d/1x1
I0403 18:21:37.238059 22199 net.cpp:386] inception_4d/relu_1x1 -> inception_4d/1x1 (in-place)
I0403 18:21:37.238230 22199 net.cpp:141] Setting up inception_4d/relu_1x1
I0403 18:21:37.238253 22199 net.cpp:148] Top shape: 24 112 14 14 (526848)
I0403 18:21:37.238267 22199 net.cpp:156] Memory required for data: 1115397408
I0403 18:21:37.238281 22199 layer_factory.hpp:77] Creating layer inception_4d/3x3_reduce
I0403 18:21:37.238315 22199 net.cpp:91] Creating Layer inception_4d/3x3_reduce
I0403 18:21:37.238333 22199 net.cpp:425] inception_4d/3x3_reduce <- inception_4c/output_inception_4c/output_0_split_1
I0403 18:21:37.238354 22199 net.cpp:399] inception_4d/3x3_reduce -> inception_4d/3x3_reduce
I0403 18:21:37.239815 22199 net.cpp:141] Setting up inception_4d/3x3_reduce
I0403 18:21:37.239843 22199 net.cpp:148] Top shape: 24 144 14 14 (677376)
I0403 18:21:37.239859 22199 net.cpp:156] Memory required for data: 1118106912
I0403 18:21:37.239876 22199 layer_factory.hpp:77] Creating layer inception_4d/relu_3x3_reduce
I0403 18:21:37.239893 22199 net.cpp:91] Creating Layer inception_4d/relu_3x3_reduce
I0403 18:21:37.239908 22199 net.cpp:425] inception_4d/relu_3x3_reduce <- inception_4d/3x3_reduce
I0403 18:21:37.239925 22199 net.cpp:386] inception_4d/relu_3x3_reduce -> inception_4d/3x3_reduce (in-place)
I0403 18:21:37.240201 22199 net.cpp:141] Setting up inception_4d/relu_3x3_reduce
I0403 18:21:37.240229 22199 net.cpp:148] Top shape: 24 144 14 14 (677376)
I0403 18:21:37.240244 22199 net.cpp:156] Memory required for data: 1120816416
I0403 18:21:37.240258 22199 layer_factory.hpp:77] Creating layer inception_4d/3x3
I0403 18:21:37.240279 22199 net.cpp:91] Creating Layer inception_4d/3x3
I0403 18:21:37.240298 22199 net.cpp:425] inception_4d/3x3 <- inception_4d/3x3_reduce
I0403 18:21:37.240315 22199 net.cpp:399] inception_4d/3x3 -> inception_4d/3x3
I0403 18:21:37.244341 22199 net.cpp:141] Setting up inception_4d/3x3
I0403 18:21:37.244369 22199 net.cpp:148] Top shape: 24 288 14 14 (1354752)
I0403 18:21:37.244384 22199 net.cpp:156] Memory required for data: 1126235424
I0403 18:21:37.244400 22199 layer_factory.hpp:77] Creating layer inception_4d/relu_3x3
I0403 18:21:37.244416 22199 net.cpp:91] Creating Layer inception_4d/relu_3x3
I0403 18:21:37.244431 22199 net.cpp:425] inception_4d/relu_3x3 <- inception_4d/3x3
I0403 18:21:37.244449 22199 net.cpp:386] inception_4d/relu_3x3 -> inception_4d/3x3 (in-place)
I0403 18:21:37.244637 22199 net.cpp:141] Setting up inception_4d/relu_3x3
I0403 18:21:37.244663 22199 net.cpp:148] Top shape: 24 288 14 14 (1354752)
I0403 18:21:37.244676 22199 net.cpp:156] Memory required for data: 1131654432
I0403 18:21:37.244690 22199 layer_factory.hpp:77] Creating layer inception_4d/5x5_reduce
I0403 18:21:37.244710 22199 net.cpp:91] Creating Layer inception_4d/5x5_reduce
I0403 18:21:37.244727 22199 net.cpp:425] inception_4d/5x5_reduce <- inception_4c/output_inception_4c/output_0_split_2
I0403 18:21:37.244748 22199 net.cpp:399] inception_4d/5x5_reduce -> inception_4d/5x5_reduce
I0403 18:21:37.245826 22199 net.cpp:141] Setting up inception_4d/5x5_reduce
I0403 18:21:37.245853 22199 net.cpp:148] Top shape: 24 32 14 14 (150528)
I0403 18:21:37.245869 22199 net.cpp:156] Memory required for data: 1132256544
I0403 18:21:37.245885 22199 layer_factory.hpp:77] Creating layer inception_4d/relu_5x5_reduce
I0403 18:21:37.245903 22199 net.cpp:91] Creating Layer inception_4d/relu_5x5_reduce
I0403 18:21:37.245918 22199 net.cpp:425] inception_4d/relu_5x5_reduce <- inception_4d/5x5_reduce
I0403 18:21:37.245935 22199 net.cpp:386] inception_4d/relu_5x5_reduce -> inception_4d/5x5_reduce (in-place)
I0403 18:21:37.246110 22199 net.cpp:141] Setting up inception_4d/relu_5x5_reduce
I0403 18:21:37.246134 22199 net.cpp:148] Top shape: 24 32 14 14 (150528)
I0403 18:21:37.246147 22199 net.cpp:156] Memory required for data: 1132858656
I0403 18:21:37.246161 22199 layer_factory.hpp:77] Creating layer inception_4d/5x5
I0403 18:21:37.246182 22199 net.cpp:91] Creating Layer inception_4d/5x5
I0403 18:21:37.246199 22199 net.cpp:425] inception_4d/5x5 <- inception_4d/5x5_reduce
I0403 18:21:37.246219 22199 net.cpp:399] inception_4d/5x5 -> inception_4d/5x5
I0403 18:21:37.247604 22199 net.cpp:141] Setting up inception_4d/5x5
I0403 18:21:37.247630 22199 net.cpp:148] Top shape: 24 64 14 14 (301056)
I0403 18:21:37.247645 22199 net.cpp:156] Memory required for data: 1134062880
I0403 18:21:37.247663 22199 layer_factory.hpp:77] Creating layer inception_4d/relu_5x5
I0403 18:21:37.247694 22199 net.cpp:91] Creating Layer inception_4d/relu_5x5
I0403 18:21:37.247711 22199 net.cpp:425] inception_4d/relu_5x5 <- inception_4d/5x5
I0403 18:21:37.247728 22199 net.cpp:386] inception_4d/relu_5x5 -> inception_4d/5x5 (in-place)
I0403 18:21:37.248011 22199 net.cpp:141] Setting up inception_4d/relu_5x5
I0403 18:21:37.248036 22199 net.cpp:148] Top shape: 24 64 14 14 (301056)
I0403 18:21:37.248050 22199 net.cpp:156] Memory required for data: 1135267104
I0403 18:21:37.248064 22199 layer_factory.hpp:77] Creating layer inception_4d/pool
I0403 18:21:37.248085 22199 net.cpp:91] Creating Layer inception_4d/pool
I0403 18:21:37.248102 22199 net.cpp:425] inception_4d/pool <- inception_4c/output_inception_4c/output_0_split_3
I0403 18:21:37.248119 22199 net.cpp:399] inception_4d/pool -> inception_4d/pool
I0403 18:21:37.248183 22199 net.cpp:141] Setting up inception_4d/pool
I0403 18:21:37.248205 22199 net.cpp:148] Top shape: 24 512 14 14 (2408448)
I0403 18:21:37.248219 22199 net.cpp:156] Memory required for data: 1144900896
I0403 18:21:37.248232 22199 layer_factory.hpp:77] Creating layer inception_4d/pool_proj
I0403 18:21:37.248252 22199 net.cpp:91] Creating Layer inception_4d/pool_proj
I0403 18:21:37.248270 22199 net.cpp:425] inception_4d/pool_proj <- inception_4d/pool
I0403 18:21:37.248291 22199 net.cpp:399] inception_4d/pool_proj -> inception_4d/pool_proj
I0403 18:21:37.249961 22199 net.cpp:141] Setting up inception_4d/pool_proj
I0403 18:21:37.249990 22199 net.cpp:148] Top shape: 24 64 14 14 (301056)
I0403 18:21:37.250005 22199 net.cpp:156] Memory required for data: 1146105120
I0403 18:21:37.250022 22199 layer_factory.hpp:77] Creating layer inception_4d/relu_pool_proj
I0403 18:21:37.250041 22199 net.cpp:91] Creating Layer inception_4d/relu_pool_proj
I0403 18:21:37.250056 22199 net.cpp:425] inception_4d/relu_pool_proj <- inception_4d/pool_proj
I0403 18:21:37.250074 22199 net.cpp:386] inception_4d/relu_pool_proj -> inception_4d/pool_proj (in-place)
I0403 18:21:37.250247 22199 net.cpp:141] Setting up inception_4d/relu_pool_proj
I0403 18:21:37.250270 22199 net.cpp:148] Top shape: 24 64 14 14 (301056)
I0403 18:21:37.250284 22199 net.cpp:156] Memory required for data: 1147309344
I0403 18:21:37.250298 22199 layer_factory.hpp:77] Creating layer inception_4d/output
I0403 18:21:37.250316 22199 net.cpp:91] Creating Layer inception_4d/output
I0403 18:21:37.250332 22199 net.cpp:425] inception_4d/output <- inception_4d/1x1
I0403 18:21:37.250347 22199 net.cpp:425] inception_4d/output <- inception_4d/3x3
I0403 18:21:37.250362 22199 net.cpp:425] inception_4d/output <- inception_4d/5x5
I0403 18:21:37.250377 22199 net.cpp:425] inception_4d/output <- inception_4d/pool_proj
I0403 18:21:37.250394 22199 net.cpp:399] inception_4d/output -> inception_4d/output
I0403 18:21:37.250438 22199 net.cpp:141] Setting up inception_4d/output
I0403 18:21:37.250461 22199 net.cpp:148] Top shape: 24 528 14 14 (2483712)
I0403 18:21:37.250476 22199 net.cpp:156] Memory required for data: 1157244192
I0403 18:21:37.250490 22199 layer_factory.hpp:77] Creating layer inception_4d/output_inception_4d/output_0_split
I0403 18:21:37.250509 22199 net.cpp:91] Creating Layer inception_4d/output_inception_4d/output_0_split
I0403 18:21:37.250526 22199 net.cpp:425] inception_4d/output_inception_4d/output_0_split <- inception_4d/output
I0403 18:21:37.250545 22199 net.cpp:399] inception_4d/output_inception_4d/output_0_split -> inception_4d/output_inception_4d/output_0_split_0
I0403 18:21:37.250567 22199 net.cpp:399] inception_4d/output_inception_4d/output_0_split -> inception_4d/output_inception_4d/output_0_split_1
I0403 18:21:37.250587 22199 net.cpp:399] inception_4d/output_inception_4d/output_0_split -> inception_4d/output_inception_4d/output_0_split_2
I0403 18:21:37.250607 22199 net.cpp:399] inception_4d/output_inception_4d/output_0_split -> inception_4d/output_inception_4d/output_0_split_3
I0403 18:21:37.250625 22199 net.cpp:399] inception_4d/output_inception_4d/output_0_split -> inception_4d/output_inception_4d/output_0_split_4
I0403 18:21:37.250721 22199 net.cpp:141] Setting up inception_4d/output_inception_4d/output_0_split
I0403 18:21:37.250756 22199 net.cpp:148] Top shape: 24 528 14 14 (2483712)
I0403 18:21:37.250773 22199 net.cpp:148] Top shape: 24 528 14 14 (2483712)
I0403 18:21:37.250789 22199 net.cpp:148] Top shape: 24 528 14 14 (2483712)
I0403 18:21:37.250803 22199 net.cpp:148] Top shape: 24 528 14 14 (2483712)
I0403 18:21:37.250816 22199 net.cpp:148] Top shape: 24 528 14 14 (2483712)
I0403 18:21:37.250828 22199 net.cpp:156] Memory required for data: 1206918432
I0403 18:21:37.250843 22199 layer_factory.hpp:77] Creating layer loss2/ave_pool
I0403 18:21:37.250859 22199 net.cpp:91] Creating Layer loss2/ave_pool
I0403 18:21:37.250874 22199 net.cpp:425] loss2/ave_pool <- inception_4d/output_inception_4d/output_0_split_0
I0403 18:21:37.250896 22199 net.cpp:399] loss2/ave_pool -> loss2/ave_pool
I0403 18:21:37.251191 22199 net.cpp:141] Setting up loss2/ave_pool
I0403 18:21:37.251216 22199 net.cpp:148] Top shape: 24 528 4 4 (202752)
I0403 18:21:37.251230 22199 net.cpp:156] Memory required for data: 1207729440
I0403 18:21:37.251245 22199 layer_factory.hpp:77] Creating layer loss2/conv
I0403 18:21:37.251265 22199 net.cpp:91] Creating Layer loss2/conv
I0403 18:21:37.251282 22199 net.cpp:425] loss2/conv <- loss2/ave_pool
I0403 18:21:37.251303 22199 net.cpp:399] loss2/conv -> loss2/conv
I0403 18:21:37.253135 22199 net.cpp:141] Setting up loss2/conv
I0403 18:21:37.253162 22199 net.cpp:148] Top shape: 24 128 4 4 (49152)
I0403 18:21:37.253177 22199 net.cpp:156] Memory required for data: 1207926048
I0403 18:21:37.253195 22199 layer_factory.hpp:77] Creating layer loss2/relu_conv
I0403 18:21:37.253213 22199 net.cpp:91] Creating Layer loss2/relu_conv
I0403 18:21:37.253229 22199 net.cpp:425] loss2/relu_conv <- loss2/conv
I0403 18:21:37.253247 22199 net.cpp:386] loss2/relu_conv -> loss2/conv (in-place)
I0403 18:21:37.253525 22199 net.cpp:141] Setting up loss2/relu_conv
I0403 18:21:37.253550 22199 net.cpp:148] Top shape: 24 128 4 4 (49152)
I0403 18:21:37.253563 22199 net.cpp:156] Memory required for data: 1208122656
I0403 18:21:37.253577 22199 layer_factory.hpp:77] Creating layer loss2/fc
I0403 18:21:37.253597 22199 net.cpp:91] Creating Layer loss2/fc
I0403 18:21:37.253613 22199 net.cpp:425] loss2/fc <- loss2/conv
I0403 18:21:37.253630 22199 net.cpp:399] loss2/fc -> loss2/fc
I0403 18:21:37.270525 22199 net.cpp:141] Setting up loss2/fc
I0403 18:21:37.270557 22199 net.cpp:148] Top shape: 24 1024 (24576)
I0403 18:21:37.270572 22199 net.cpp:156] Memory required for data: 1208220960
I0403 18:21:37.270591 22199 layer_factory.hpp:77] Creating layer loss2/relu_fc
I0403 18:21:37.270607 22199 net.cpp:91] Creating Layer loss2/relu_fc
I0403 18:21:37.270622 22199 net.cpp:425] loss2/relu_fc <- loss2/fc
I0403 18:21:37.270642 22199 net.cpp:386] loss2/relu_fc -> loss2/fc (in-place)
I0403 18:21:37.270934 22199 net.cpp:141] Setting up loss2/relu_fc
I0403 18:21:37.270959 22199 net.cpp:148] Top shape: 24 1024 (24576)
I0403 18:21:37.270973 22199 net.cpp:156] Memory required for data: 1208319264
I0403 18:21:37.270987 22199 layer_factory.hpp:77] Creating layer loss2/drop_fc
I0403 18:21:37.271003 22199 net.cpp:91] Creating Layer loss2/drop_fc
I0403 18:21:37.271018 22199 net.cpp:425] loss2/drop_fc <- loss2/fc
I0403 18:21:37.271036 22199 net.cpp:386] loss2/drop_fc -> loss2/fc (in-place)
I0403 18:21:37.271083 22199 net.cpp:141] Setting up loss2/drop_fc
I0403 18:21:37.271108 22199 net.cpp:148] Top shape: 24 1024 (24576)
I0403 18:21:37.271123 22199 net.cpp:156] Memory required for data: 1208417568
I0403 18:21:37.271136 22199 layer_factory.hpp:77] Creating layer loss2/classifier_plantvillage
I0403 18:21:37.271153 22199 net.cpp:91] Creating Layer loss2/classifier_plantvillage
I0403 18:21:37.271168 22199 net.cpp:425] loss2/classifier_plantvillage <- loss2/fc
I0403 18:21:37.271188 22199 net.cpp:399] loss2/classifier_plantvillage -> loss2/classifier_plantvillage
I0403 18:21:37.271569 22199 net.cpp:141] Setting up loss2/classifier_plantvillage
I0403 18:21:37.271595 22199 net.cpp:148] Top shape: 24 38 (912)
I0403 18:21:37.271623 22199 net.cpp:156] Memory required for data: 1208421216
I0403 18:21:37.271641 22199 layer_factory.hpp:77] Creating layer loss2/classifier_plantvillage_loss2/classifier_plantvillage_0_split
I0403 18:21:37.271658 22199 net.cpp:91] Creating Layer loss2/classifier_plantvillage_loss2/classifier_plantvillage_0_split
I0403 18:21:37.271673 22199 net.cpp:425] loss2/classifier_plantvillage_loss2/classifier_plantvillage_0_split <- loss2/classifier_plantvillage
I0403 18:21:37.271690 22199 net.cpp:399] loss2/classifier_plantvillage_loss2/classifier_plantvillage_0_split -> loss2/classifier_plantvillage_loss2/classifier_plantvillage_0_split_0
I0403 18:21:37.271709 22199 net.cpp:399] loss2/classifier_plantvillage_loss2/classifier_plantvillage_0_split -> loss2/classifier_plantvillage_loss2/classifier_plantvillage_0_split_1
I0403 18:21:37.271729 22199 net.cpp:399] loss2/classifier_plantvillage_loss2/classifier_plantvillage_0_split -> loss2/classifier_plantvillage_loss2/classifier_plantvillage_0_split_2
I0403 18:21:37.271801 22199 net.cpp:141] Setting up loss2/classifier_plantvillage_loss2/classifier_plantvillage_0_split
I0403 18:21:37.271822 22199 net.cpp:148] Top shape: 24 38 (912)
I0403 18:21:37.271838 22199 net.cpp:148] Top shape: 24 38 (912)
I0403 18:21:37.271853 22199 net.cpp:148] Top shape: 24 38 (912)
I0403 18:21:37.271865 22199 net.cpp:156] Memory required for data: 1208432160
I0403 18:21:37.271878 22199 layer_factory.hpp:77] Creating layer inception_4e/1x1
I0403 18:21:37.271898 22199 net.cpp:91] Creating Layer inception_4e/1x1
I0403 18:21:37.271913 22199 net.cpp:425] inception_4e/1x1 <- inception_4d/output_inception_4d/output_0_split_1
I0403 18:21:37.271932 22199 net.cpp:399] inception_4e/1x1 -> inception_4e/1x1
I0403 18:21:37.273640 22199 net.cpp:141] Setting up inception_4e/1x1
I0403 18:21:37.273668 22199 net.cpp:148] Top shape: 24 256 14 14 (1204224)
I0403 18:21:37.273681 22199 net.cpp:156] Memory required for data: 1213249056
I0403 18:21:37.273699 22199 layer_factory.hpp:77] Creating layer inception_4e/relu_1x1
I0403 18:21:37.273717 22199 net.cpp:91] Creating Layer inception_4e/relu_1x1
I0403 18:21:37.273733 22199 net.cpp:425] inception_4e/relu_1x1 <- inception_4e/1x1
I0403 18:21:37.273751 22199 net.cpp:386] inception_4e/relu_1x1 -> inception_4e/1x1 (in-place)
I0403 18:21:37.274031 22199 net.cpp:141] Setting up inception_4e/relu_1x1
I0403 18:21:37.274056 22199 net.cpp:148] Top shape: 24 256 14 14 (1204224)
I0403 18:21:37.274070 22199 net.cpp:156] Memory required for data: 1218065952
I0403 18:21:37.274083 22199 layer_factory.hpp:77] Creating layer inception_4e/3x3_reduce
I0403 18:21:37.274103 22199 net.cpp:91] Creating Layer inception_4e/3x3_reduce
I0403 18:21:37.274122 22199 net.cpp:425] inception_4e/3x3_reduce <- inception_4d/output_inception_4d/output_0_split_2
I0403 18:21:37.274140 22199 net.cpp:399] inception_4e/3x3_reduce -> inception_4e/3x3_reduce
I0403 18:21:37.276157 22199 net.cpp:141] Setting up inception_4e/3x3_reduce
I0403 18:21:37.276185 22199 net.cpp:148] Top shape: 24 160 14 14 (752640)
I0403 18:21:37.276201 22199 net.cpp:156] Memory required for data: 1221076512
I0403 18:21:37.276217 22199 layer_factory.hpp:77] Creating layer inception_4e/relu_3x3_reduce
I0403 18:21:37.276237 22199 net.cpp:91] Creating Layer inception_4e/relu_3x3_reduce
I0403 18:21:37.276253 22199 net.cpp:425] inception_4e/relu_3x3_reduce <- inception_4e/3x3_reduce
I0403 18:21:37.276269 22199 net.cpp:386] inception_4e/relu_3x3_reduce -> inception_4e/3x3_reduce (in-place)
I0403 18:21:37.276444 22199 net.cpp:141] Setting up inception_4e/relu_3x3_reduce
I0403 18:21:37.276468 22199 net.cpp:148] Top shape: 24 160 14 14 (752640)
I0403 18:21:37.276482 22199 net.cpp:156] Memory required for data: 1224087072
I0403 18:21:37.276496 22199 layer_factory.hpp:77] Creating layer inception_4e/3x3
I0403 18:21:37.276523 22199 net.cpp:91] Creating Layer inception_4e/3x3
I0403 18:21:37.276541 22199 net.cpp:425] inception_4e/3x3 <- inception_4e/3x3_reduce
I0403 18:21:37.276558 22199 net.cpp:399] inception_4e/3x3 -> inception_4e/3x3
I0403 18:21:37.281287 22199 net.cpp:141] Setting up inception_4e/3x3
I0403 18:21:37.281325 22199 net.cpp:148] Top shape: 24 320 14 14 (1505280)
I0403 18:21:37.281340 22199 net.cpp:156] Memory required for data: 1230108192
I0403 18:21:37.281358 22199 layer_factory.hpp:77] Creating layer inception_4e/relu_3x3
I0403 18:21:37.281378 22199 net.cpp:91] Creating Layer inception_4e/relu_3x3
I0403 18:21:37.281394 22199 net.cpp:425] inception_4e/relu_3x3 <- inception_4e/3x3
I0403 18:21:37.281409 22199 net.cpp:386] inception_4e/relu_3x3 -> inception_4e/3x3 (in-place)
I0403 18:21:37.281697 22199 net.cpp:141] Setting up inception_4e/relu_3x3
I0403 18:21:37.281723 22199 net.cpp:148] Top shape: 24 320 14 14 (1505280)
I0403 18:21:37.281739 22199 net.cpp:156] Memory required for data: 1236129312
I0403 18:21:37.281754 22199 layer_factory.hpp:77] Creating layer inception_4e/5x5_reduce
I0403 18:21:37.281774 22199 net.cpp:91] Creating Layer inception_4e/5x5_reduce
I0403 18:21:37.281791 22199 net.cpp:425] inception_4e/5x5_reduce <- inception_4d/output_inception_4d/output_0_split_3
I0403 18:21:37.281810 22199 net.cpp:399] inception_4e/5x5_reduce -> inception_4e/5x5_reduce
I0403 18:21:37.282819 22199 net.cpp:141] Setting up inception_4e/5x5_reduce
I0403 18:21:37.282845 22199 net.cpp:148] Top shape: 24 32 14 14 (150528)
I0403 18:21:37.282860 22199 net.cpp:156] Memory required for data: 1236731424
I0403 18:21:37.282877 22199 layer_factory.hpp:77] Creating layer inception_4e/relu_5x5_reduce
I0403 18:21:37.282899 22199 net.cpp:91] Creating Layer inception_4e/relu_5x5_reduce
I0403 18:21:37.282917 22199 net.cpp:425] inception_4e/relu_5x5_reduce <- inception_4e/5x5_reduce
I0403 18:21:37.282933 22199 net.cpp:386] inception_4e/relu_5x5_reduce -> inception_4e/5x5_reduce (in-place)
I0403 18:21:37.283212 22199 net.cpp:141] Setting up inception_4e/relu_5x5_reduce
I0403 18:21:37.283237 22199 net.cpp:148] Top shape: 24 32 14 14 (150528)
I0403 18:21:37.283252 22199 net.cpp:156] Memory required for data: 1237333536
I0403 18:21:37.283264 22199 layer_factory.hpp:77] Creating layer inception_4e/5x5
I0403 18:21:37.283298 22199 net.cpp:91] Creating Layer inception_4e/5x5
I0403 18:21:37.283318 22199 net.cpp:425] inception_4e/5x5 <- inception_4e/5x5_reduce
I0403 18:21:37.283339 22199 net.cpp:399] inception_4e/5x5 -> inception_4e/5x5
I0403 18:21:37.285092 22199 net.cpp:141] Setting up inception_4e/5x5
I0403 18:21:37.285120 22199 net.cpp:148] Top shape: 24 128 14 14 (602112)
I0403 18:21:37.285133 22199 net.cpp:156] Memory required for data: 1239741984
I0403 18:21:37.285151 22199 layer_factory.hpp:77] Creating layer inception_4e/relu_5x5
I0403 18:21:37.285167 22199 net.cpp:91] Creating Layer inception_4e/relu_5x5
I0403 18:21:37.285182 22199 net.cpp:425] inception_4e/relu_5x5 <- inception_4e/5x5
I0403 18:21:37.285202 22199 net.cpp:386] inception_4e/relu_5x5 -> inception_4e/5x5 (in-place)
I0403 18:21:37.285385 22199 net.cpp:141] Setting up inception_4e/relu_5x5
I0403 18:21:37.285409 22199 net.cpp:148] Top shape: 24 128 14 14 (602112)
I0403 18:21:37.285423 22199 net.cpp:156] Memory required for data: 1242150432
I0403 18:21:37.285436 22199 layer_factory.hpp:77] Creating layer inception_4e/pool
I0403 18:21:37.285454 22199 net.cpp:91] Creating Layer inception_4e/pool
I0403 18:21:37.285470 22199 net.cpp:425] inception_4e/pool <- inception_4d/output_inception_4d/output_0_split_4
I0403 18:21:37.285487 22199 net.cpp:399] inception_4e/pool -> inception_4e/pool
I0403 18:21:37.285557 22199 net.cpp:141] Setting up inception_4e/pool
I0403 18:21:37.285578 22199 net.cpp:148] Top shape: 24 528 14 14 (2483712)
I0403 18:21:37.285591 22199 net.cpp:156] Memory required for data: 1252085280
I0403 18:21:37.285605 22199 layer_factory.hpp:77] Creating layer inception_4e/pool_proj
I0403 18:21:37.285625 22199 net.cpp:91] Creating Layer inception_4e/pool_proj
I0403 18:21:37.285642 22199 net.cpp:425] inception_4e/pool_proj <- inception_4e/pool
I0403 18:21:37.285661 22199 net.cpp:399] inception_4e/pool_proj -> inception_4e/pool_proj
I0403 18:21:37.287080 22199 net.cpp:141] Setting up inception_4e/pool_proj
I0403 18:21:37.287119 22199 net.cpp:148] Top shape: 24 128 14 14 (602112)
I0403 18:21:37.287135 22199 net.cpp:156] Memory required for data: 1254493728
I0403 18:21:37.287153 22199 layer_factory.hpp:77] Creating layer inception_4e/relu_pool_proj
I0403 18:21:37.287169 22199 net.cpp:91] Creating Layer inception_4e/relu_pool_proj
I0403 18:21:37.287184 22199 net.cpp:425] inception_4e/relu_pool_proj <- inception_4e/pool_proj
I0403 18:21:37.287204 22199 net.cpp:386] inception_4e/relu_pool_proj -> inception_4e/pool_proj (in-place)
I0403 18:21:37.287483 22199 net.cpp:141] Setting up inception_4e/relu_pool_proj
I0403 18:21:37.287511 22199 net.cpp:148] Top shape: 24 128 14 14 (602112)
I0403 18:21:37.287528 22199 net.cpp:156] Memory required for data: 1256902176
I0403 18:21:37.287541 22199 layer_factory.hpp:77] Creating layer inception_4e/output
I0403 18:21:37.287559 22199 net.cpp:91] Creating Layer inception_4e/output
I0403 18:21:37.287572 22199 net.cpp:425] inception_4e/output <- inception_4e/1x1
I0403 18:21:37.287588 22199 net.cpp:425] inception_4e/output <- inception_4e/3x3
I0403 18:21:37.287603 22199 net.cpp:425] inception_4e/output <- inception_4e/5x5
I0403 18:21:37.287617 22199 net.cpp:425] inception_4e/output <- inception_4e/pool_proj
I0403 18:21:37.287636 22199 net.cpp:399] inception_4e/output -> inception_4e/output
I0403 18:21:37.287683 22199 net.cpp:141] Setting up inception_4e/output
I0403 18:21:37.287706 22199 net.cpp:148] Top shape: 24 832 14 14 (3913728)
I0403 18:21:37.287721 22199 net.cpp:156] Memory required for data: 1272557088
I0403 18:21:37.287735 22199 layer_factory.hpp:77] Creating layer pool4/3x3_s2
I0403 18:21:37.287750 22199 net.cpp:91] Creating Layer pool4/3x3_s2
I0403 18:21:37.287765 22199 net.cpp:425] pool4/3x3_s2 <- inception_4e/output
I0403 18:21:37.287782 22199 net.cpp:399] pool4/3x3_s2 -> pool4/3x3_s2
I0403 18:21:37.287845 22199 net.cpp:141] Setting up pool4/3x3_s2
I0403 18:21:37.287868 22199 net.cpp:148] Top shape: 24 832 7 7 (978432)
I0403 18:21:37.287881 22199 net.cpp:156] Memory required for data: 1276470816
I0403 18:21:37.287894 22199 layer_factory.hpp:77] Creating layer pool4/3x3_s2_pool4/3x3_s2_0_split
I0403 18:21:37.287910 22199 net.cpp:91] Creating Layer pool4/3x3_s2_pool4/3x3_s2_0_split
I0403 18:21:37.287925 22199 net.cpp:425] pool4/3x3_s2_pool4/3x3_s2_0_split <- pool4/3x3_s2
I0403 18:21:37.287943 22199 net.cpp:399] pool4/3x3_s2_pool4/3x3_s2_0_split -> pool4/3x3_s2_pool4/3x3_s2_0_split_0
I0403 18:21:37.287962 22199 net.cpp:399] pool4/3x3_s2_pool4/3x3_s2_0_split -> pool4/3x3_s2_pool4/3x3_s2_0_split_1
I0403 18:21:37.287981 22199 net.cpp:399] pool4/3x3_s2_pool4/3x3_s2_0_split -> pool4/3x3_s2_pool4/3x3_s2_0_split_2
I0403 18:21:37.288002 22199 net.cpp:399] pool4/3x3_s2_pool4/3x3_s2_0_split -> pool4/3x3_s2_pool4/3x3_s2_0_split_3
I0403 18:21:37.288089 22199 net.cpp:141] Setting up pool4/3x3_s2_pool4/3x3_s2_0_split
I0403 18:21:37.288110 22199 net.cpp:148] Top shape: 24 832 7 7 (978432)
I0403 18:21:37.288125 22199 net.cpp:148] Top shape: 24 832 7 7 (978432)
I0403 18:21:37.288139 22199 net.cpp:148] Top shape: 24 832 7 7 (978432)
I0403 18:21:37.288152 22199 net.cpp:148] Top shape: 24 832 7 7 (978432)
I0403 18:21:37.288164 22199 net.cpp:156] Memory required for data: 1292125728
I0403 18:21:37.288177 22199 layer_factory.hpp:77] Creating layer inception_5a/1x1
I0403 18:21:37.288198 22199 net.cpp:91] Creating Layer inception_5a/1x1
I0403 18:21:37.288215 22199 net.cpp:425] inception_5a/1x1 <- pool4/3x3_s2_pool4/3x3_s2_0_split_0
I0403 18:21:37.288234 22199 net.cpp:399] inception_5a/1x1 -> inception_5a/1x1
I0403 18:21:37.290964 22199 net.cpp:141] Setting up inception_5a/1x1
I0403 18:21:37.290992 22199 net.cpp:148] Top shape: 24 256 7 7 (301056)
I0403 18:21:37.291005 22199 net.cpp:156] Memory required for data: 1293329952
I0403 18:21:37.291023 22199 layer_factory.hpp:77] Creating layer inception_5a/relu_1x1
I0403 18:21:37.291041 22199 net.cpp:91] Creating Layer inception_5a/relu_1x1
I0403 18:21:37.291059 22199 net.cpp:425] inception_5a/relu_1x1 <- inception_5a/1x1
I0403 18:21:37.291074 22199 net.cpp:386] inception_5a/relu_1x1 -> inception_5a/1x1 (in-place)
I0403 18:21:37.291381 22199 net.cpp:141] Setting up inception_5a/relu_1x1
I0403 18:21:37.291406 22199 net.cpp:148] Top shape: 24 256 7 7 (301056)
I0403 18:21:37.291420 22199 net.cpp:156] Memory required for data: 1294534176
I0403 18:21:37.291435 22199 layer_factory.hpp:77] Creating layer inception_5a/3x3_reduce
I0403 18:21:37.291455 22199 net.cpp:91] Creating Layer inception_5a/3x3_reduce
I0403 18:21:37.291472 22199 net.cpp:425] inception_5a/3x3_reduce <- pool4/3x3_s2_pool4/3x3_s2_0_split_1
I0403 18:21:37.291492 22199 net.cpp:399] inception_5a/3x3_reduce -> inception_5a/3x3_reduce
I0403 18:21:37.293817 22199 net.cpp:141] Setting up inception_5a/3x3_reduce
I0403 18:21:37.293846 22199 net.cpp:148] Top shape: 24 160 7 7 (188160)
I0403 18:21:37.293861 22199 net.cpp:156] Memory required for data: 1295286816
I0403 18:21:37.293879 22199 layer_factory.hpp:77] Creating layer inception_5a/relu_3x3_reduce
I0403 18:21:37.293895 22199 net.cpp:91] Creating Layer inception_5a/relu_3x3_reduce
I0403 18:21:37.293910 22199 net.cpp:425] inception_5a/relu_3x3_reduce <- inception_5a/3x3_reduce
I0403 18:21:37.293928 22199 net.cpp:386] inception_5a/relu_3x3_reduce -> inception_5a/3x3_reduce (in-place)
I0403 18:21:37.294106 22199 net.cpp:141] Setting up inception_5a/relu_3x3_reduce
I0403 18:21:37.294129 22199 net.cpp:148] Top shape: 24 160 7 7 (188160)
I0403 18:21:37.294143 22199 net.cpp:156] Memory required for data: 1296039456
I0403 18:21:37.294157 22199 layer_factory.hpp:77] Creating layer inception_5a/3x3
I0403 18:21:37.294178 22199 net.cpp:91] Creating Layer inception_5a/3x3
I0403 18:21:37.294195 22199 net.cpp:425] inception_5a/3x3 <- inception_5a/3x3_reduce
I0403 18:21:37.294219 22199 net.cpp:399] inception_5a/3x3 -> inception_5a/3x3
I0403 18:21:37.298995 22199 net.cpp:141] Setting up inception_5a/3x3
I0403 18:21:37.299022 22199 net.cpp:148] Top shape: 24 320 7 7 (376320)
I0403 18:21:37.299037 22199 net.cpp:156] Memory required for data: 1297544736
I0403 18:21:37.299054 22199 layer_factory.hpp:77] Creating layer inception_5a/relu_3x3
I0403 18:21:37.299072 22199 net.cpp:91] Creating Layer inception_5a/relu_3x3
I0403 18:21:37.299087 22199 net.cpp:425] inception_5a/relu_3x3 <- inception_5a/3x3
I0403 18:21:37.299105 22199 net.cpp:386] inception_5a/relu_3x3 -> inception_5a/3x3 (in-place)
I0403 18:21:37.299389 22199 net.cpp:141] Setting up inception_5a/relu_3x3
I0403 18:21:37.299414 22199 net.cpp:148] Top shape: 24 320 7 7 (376320)
I0403 18:21:37.299428 22199 net.cpp:156] Memory required for data: 1299050016
I0403 18:21:37.299443 22199 layer_factory.hpp:77] Creating layer inception_5a/5x5_reduce
I0403 18:21:37.299463 22199 net.cpp:91] Creating Layer inception_5a/5x5_reduce
I0403 18:21:37.299480 22199 net.cpp:425] inception_5a/5x5_reduce <- pool4/3x3_s2_pool4/3x3_s2_0_split_2
I0403 18:21:37.299501 22199 net.cpp:399] inception_5a/5x5_reduce -> inception_5a/5x5_reduce
I0403 18:21:37.300611 22199 net.cpp:141] Setting up inception_5a/5x5_reduce
I0403 18:21:37.300638 22199 net.cpp:148] Top shape: 24 32 7 7 (37632)
I0403 18:21:37.300654 22199 net.cpp:156] Memory required for data: 1299200544
I0403 18:21:37.300671 22199 layer_factory.hpp:77] Creating layer inception_5a/relu_5x5_reduce
I0403 18:21:37.300688 22199 net.cpp:91] Creating Layer inception_5a/relu_5x5_reduce
I0403 18:21:37.300704 22199 net.cpp:425] inception_5a/relu_5x5_reduce <- inception_5a/5x5_reduce
I0403 18:21:37.300719 22199 net.cpp:386] inception_5a/relu_5x5_reduce -> inception_5a/5x5_reduce (in-place)
I0403 18:21:37.301007 22199 net.cpp:141] Setting up inception_5a/relu_5x5_reduce
I0403 18:21:37.301030 22199 net.cpp:148] Top shape: 24 32 7 7 (37632)
I0403 18:21:37.301044 22199 net.cpp:156] Memory required for data: 1299351072
I0403 18:21:37.301059 22199 layer_factory.hpp:77] Creating layer inception_5a/5x5
I0403 18:21:37.301079 22199 net.cpp:91] Creating Layer inception_5a/5x5
I0403 18:21:37.301096 22199 net.cpp:425] inception_5a/5x5 <- inception_5a/5x5_reduce
I0403 18:21:37.301116 22199 net.cpp:399] inception_5a/5x5 -> inception_5a/5x5
I0403 18:21:37.302744 22199 net.cpp:141] Setting up inception_5a/5x5
I0403 18:21:37.302781 22199 net.cpp:148] Top shape: 24 128 7 7 (150528)
I0403 18:21:37.302796 22199 net.cpp:156] Memory required for data: 1299953184
I0403 18:21:37.302814 22199 layer_factory.hpp:77] Creating layer inception_5a/relu_5x5
I0403 18:21:37.302831 22199 net.cpp:91] Creating Layer inception_5a/relu_5x5
I0403 18:21:37.302847 22199 net.cpp:425] inception_5a/relu_5x5 <- inception_5a/5x5
I0403 18:21:37.302865 22199 net.cpp:386] inception_5a/relu_5x5 -> inception_5a/5x5 (in-place)
I0403 18:21:37.303046 22199 net.cpp:141] Setting up inception_5a/relu_5x5
I0403 18:21:37.303071 22199 net.cpp:148] Top shape: 24 128 7 7 (150528)
I0403 18:21:37.303083 22199 net.cpp:156] Memory required for data: 1300555296
I0403 18:21:37.303097 22199 layer_factory.hpp:77] Creating layer inception_5a/pool
I0403 18:21:37.303117 22199 net.cpp:91] Creating Layer inception_5a/pool
I0403 18:21:37.303133 22199 net.cpp:425] inception_5a/pool <- pool4/3x3_s2_pool4/3x3_s2_0_split_3
I0403 18:21:37.303149 22199 net.cpp:399] inception_5a/pool -> inception_5a/pool
I0403 18:21:37.303215 22199 net.cpp:141] Setting up inception_5a/pool
I0403 18:21:37.303237 22199 net.cpp:148] Top shape: 24 832 7 7 (978432)
I0403 18:21:37.303251 22199 net.cpp:156] Memory required for data: 1304469024
I0403 18:21:37.303264 22199 layer_factory.hpp:77] Creating layer inception_5a/pool_proj
I0403 18:21:37.303285 22199 net.cpp:91] Creating Layer inception_5a/pool_proj
I0403 18:21:37.303303 22199 net.cpp:425] inception_5a/pool_proj <- inception_5a/pool
I0403 18:21:37.303326 22199 net.cpp:399] inception_5a/pool_proj -> inception_5a/pool_proj
I0403 18:21:37.305491 22199 net.cpp:141] Setting up inception_5a/pool_proj
I0403 18:21:37.305522 22199 net.cpp:148] Top shape: 24 128 7 7 (150528)
I0403 18:21:37.305538 22199 net.cpp:156] Memory required for data: 1305071136
I0403 18:21:37.305555 22199 layer_factory.hpp:77] Creating layer inception_5a/relu_pool_proj
I0403 18:21:37.305572 22199 net.cpp:91] Creating Layer inception_5a/relu_pool_proj
I0403 18:21:37.305588 22199 net.cpp:425] inception_5a/relu_pool_proj <- inception_5a/pool_proj
I0403 18:21:37.305606 22199 net.cpp:386] inception_5a/relu_pool_proj -> inception_5a/pool_proj (in-place)
I0403 18:21:37.305886 22199 net.cpp:141] Setting up inception_5a/relu_pool_proj
I0403 18:21:37.305912 22199 net.cpp:148] Top shape: 24 128 7 7 (150528)
I0403 18:21:37.305925 22199 net.cpp:156] Memory required for data: 1305673248
I0403 18:21:37.305939 22199 layer_factory.hpp:77] Creating layer inception_5a/output
I0403 18:21:37.305955 22199 net.cpp:91] Creating Layer inception_5a/output
I0403 18:21:37.305970 22199 net.cpp:425] inception_5a/output <- inception_5a/1x1
I0403 18:21:37.305985 22199 net.cpp:425] inception_5a/output <- inception_5a/3x3
I0403 18:21:37.306001 22199 net.cpp:425] inception_5a/output <- inception_5a/5x5
I0403 18:21:37.306016 22199 net.cpp:425] inception_5a/output <- inception_5a/pool_proj
I0403 18:21:37.306035 22199 net.cpp:399] inception_5a/output -> inception_5a/output
I0403 18:21:37.306080 22199 net.cpp:141] Setting up inception_5a/output
I0403 18:21:37.306102 22199 net.cpp:148] Top shape: 24 832 7 7 (978432)
I0403 18:21:37.306115 22199 net.cpp:156] Memory required for data: 1309586976
I0403 18:21:37.306128 22199 layer_factory.hpp:77] Creating layer inception_5a/output_inception_5a/output_0_split
I0403 18:21:37.306148 22199 net.cpp:91] Creating Layer inception_5a/output_inception_5a/output_0_split
I0403 18:21:37.306164 22199 net.cpp:425] inception_5a/output_inception_5a/output_0_split <- inception_5a/output
I0403 18:21:37.306191 22199 net.cpp:399] inception_5a/output_inception_5a/output_0_split -> inception_5a/output_inception_5a/output_0_split_0
I0403 18:21:37.306216 22199 net.cpp:399] inception_5a/output_inception_5a/output_0_split -> inception_5a/output_inception_5a/output_0_split_1
I0403 18:21:37.306237 22199 net.cpp:399] inception_5a/output_inception_5a/output_0_split -> inception_5a/output_inception_5a/output_0_split_2
I0403 18:21:37.306257 22199 net.cpp:399] inception_5a/output_inception_5a/output_0_split -> inception_5a/output_inception_5a/output_0_split_3
I0403 18:21:37.306362 22199 net.cpp:141] Setting up inception_5a/output_inception_5a/output_0_split
I0403 18:21:37.306385 22199 net.cpp:148] Top shape: 24 832 7 7 (978432)
I0403 18:21:37.306401 22199 net.cpp:148] Top shape: 24 832 7 7 (978432)
I0403 18:21:37.306416 22199 net.cpp:148] Top shape: 24 832 7 7 (978432)
I0403 18:21:37.306430 22199 net.cpp:148] Top shape: 24 832 7 7 (978432)
I0403 18:21:37.306445 22199 net.cpp:156] Memory required for data: 1325241888
I0403 18:21:37.306459 22199 layer_factory.hpp:77] Creating layer inception_5b/1x1
I0403 18:21:37.306481 22199 net.cpp:91] Creating Layer inception_5b/1x1
I0403 18:21:37.306514 22199 net.cpp:425] inception_5b/1x1 <- inception_5a/output_inception_5a/output_0_split_0
I0403 18:21:37.306536 22199 net.cpp:399] inception_5b/1x1 -> inception_5b/1x1
I0403 18:21:37.310142 22199 net.cpp:141] Setting up inception_5b/1x1
I0403 18:21:37.310171 22199 net.cpp:148] Top shape: 24 384 7 7 (451584)
I0403 18:21:37.310186 22199 net.cpp:156] Memory required for data: 1327048224
I0403 18:21:37.310204 22199 layer_factory.hpp:77] Creating layer inception_5b/relu_1x1
I0403 18:21:37.310220 22199 net.cpp:91] Creating Layer inception_5b/relu_1x1
I0403 18:21:37.310235 22199 net.cpp:425] inception_5b/relu_1x1 <- inception_5b/1x1
I0403 18:21:37.310253 22199 net.cpp:386] inception_5b/relu_1x1 -> inception_5b/1x1 (in-place)
I0403 18:21:37.310545 22199 net.cpp:141] Setting up inception_5b/relu_1x1
I0403 18:21:37.310572 22199 net.cpp:148] Top shape: 24 384 7 7 (451584)
I0403 18:21:37.310588 22199 net.cpp:156] Memory required for data: 1328854560
I0403 18:21:37.310602 22199 layer_factory.hpp:77] Creating layer inception_5b/3x3_reduce
I0403 18:21:37.310622 22199 net.cpp:91] Creating Layer inception_5b/3x3_reduce
I0403 18:21:37.310639 22199 net.cpp:425] inception_5b/3x3_reduce <- inception_5a/output_inception_5a/output_0_split_1
I0403 18:21:37.310662 22199 net.cpp:399] inception_5b/3x3_reduce -> inception_5b/3x3_reduce
I0403 18:21:37.313186 22199 net.cpp:141] Setting up inception_5b/3x3_reduce
I0403 18:21:37.313217 22199 net.cpp:148] Top shape: 24 192 7 7 (225792)
I0403 18:21:37.313233 22199 net.cpp:156] Memory required for data: 1329757728
I0403 18:21:37.313251 22199 layer_factory.hpp:77] Creating layer inception_5b/relu_3x3_reduce
I0403 18:21:37.313267 22199 net.cpp:91] Creating Layer inception_5b/relu_3x3_reduce
I0403 18:21:37.313283 22199 net.cpp:425] inception_5b/relu_3x3_reduce <- inception_5b/3x3_reduce
I0403 18:21:37.313302 22199 net.cpp:386] inception_5b/relu_3x3_reduce -> inception_5b/3x3_reduce (in-place)
I0403 18:21:37.313485 22199 net.cpp:141] Setting up inception_5b/relu_3x3_reduce
I0403 18:21:37.313513 22199 net.cpp:148] Top shape: 24 192 7 7 (225792)
I0403 18:21:37.313529 22199 net.cpp:156] Memory required for data: 1330660896
I0403 18:21:37.313544 22199 layer_factory.hpp:77] Creating layer inception_5b/3x3
I0403 18:21:37.313563 22199 net.cpp:91] Creating Layer inception_5b/3x3
I0403 18:21:37.313580 22199 net.cpp:425] inception_5b/3x3 <- inception_5b/3x3_reduce
I0403 18:21:37.313602 22199 net.cpp:399] inception_5b/3x3 -> inception_5b/3x3
I0403 18:21:37.320029 22199 net.cpp:141] Setting up inception_5b/3x3
I0403 18:21:37.320057 22199 net.cpp:148] Top shape: 24 384 7 7 (451584)
I0403 18:21:37.320072 22199 net.cpp:156] Memory required for data: 1332467232
I0403 18:21:37.320088 22199 layer_factory.hpp:77] Creating layer inception_5b/relu_3x3
I0403 18:21:37.320106 22199 net.cpp:91] Creating Layer inception_5b/relu_3x3
I0403 18:21:37.320122 22199 net.cpp:425] inception_5b/relu_3x3 <- inception_5b/3x3
I0403 18:21:37.320140 22199 net.cpp:386] inception_5b/relu_3x3 -> inception_5b/3x3 (in-place)
I0403 18:21:37.320422 22199 net.cpp:141] Setting up inception_5b/relu_3x3
I0403 18:21:37.320447 22199 net.cpp:148] Top shape: 24 384 7 7 (451584)
I0403 18:21:37.320462 22199 net.cpp:156] Memory required for data: 1334273568
I0403 18:21:37.320477 22199 layer_factory.hpp:77] Creating layer inception_5b/5x5_reduce
I0403 18:21:37.320515 22199 net.cpp:91] Creating Layer inception_5b/5x5_reduce
I0403 18:21:37.320534 22199 net.cpp:425] inception_5b/5x5_reduce <- inception_5a/output_inception_5a/output_0_split_2
I0403 18:21:37.320556 22199 net.cpp:399] inception_5b/5x5_reduce -> inception_5b/5x5_reduce
I0403 18:21:37.321748 22199 net.cpp:141] Setting up inception_5b/5x5_reduce
I0403 18:21:37.321774 22199 net.cpp:148] Top shape: 24 48 7 7 (56448)
I0403 18:21:37.321789 22199 net.cpp:156] Memory required for data: 1334499360
I0403 18:21:37.321807 22199 layer_factory.hpp:77] Creating layer inception_5b/relu_5x5_reduce
I0403 18:21:37.321825 22199 net.cpp:91] Creating Layer inception_5b/relu_5x5_reduce
I0403 18:21:37.321841 22199 net.cpp:425] inception_5b/relu_5x5_reduce <- inception_5b/5x5_reduce
I0403 18:21:37.321858 22199 net.cpp:386] inception_5b/relu_5x5_reduce -> inception_5b/5x5_reduce (in-place)
I0403 18:21:37.322214 22199 net.cpp:141] Setting up inception_5b/relu_5x5_reduce
I0403 18:21:37.322239 22199 net.cpp:148] Top shape: 24 48 7 7 (56448)
I0403 18:21:37.322253 22199 net.cpp:156] Memory required for data: 1334725152
I0403 18:21:37.322268 22199 layer_factory.hpp:77] Creating layer inception_5b/5x5
I0403 18:21:37.322288 22199 net.cpp:91] Creating Layer inception_5b/5x5
I0403 18:21:37.322304 22199 net.cpp:425] inception_5b/5x5 <- inception_5b/5x5_reduce
I0403 18:21:37.322321 22199 net.cpp:399] inception_5b/5x5 -> inception_5b/5x5
I0403 18:21:37.324255 22199 net.cpp:141] Setting up inception_5b/5x5
I0403 18:21:37.324281 22199 net.cpp:148] Top shape: 24 128 7 7 (150528)
I0403 18:21:37.324297 22199 net.cpp:156] Memory required for data: 1335327264
I0403 18:21:37.324314 22199 layer_factory.hpp:77] Creating layer inception_5b/relu_5x5
I0403 18:21:37.324332 22199 net.cpp:91] Creating Layer inception_5b/relu_5x5
I0403 18:21:37.324348 22199 net.cpp:425] inception_5b/relu_5x5 <- inception_5b/5x5
I0403 18:21:37.324365 22199 net.cpp:386] inception_5b/relu_5x5 -> inception_5b/5x5 (in-place)
I0403 18:21:37.324558 22199 net.cpp:141] Setting up inception_5b/relu_5x5
I0403 18:21:37.324584 22199 net.cpp:148] Top shape: 24 128 7 7 (150528)
I0403 18:21:37.324597 22199 net.cpp:156] Memory required for data: 1335929376
I0403 18:21:37.324611 22199 layer_factory.hpp:77] Creating layer inception_5b/pool
I0403 18:21:37.324630 22199 net.cpp:91] Creating Layer inception_5b/pool
I0403 18:21:37.324646 22199 net.cpp:425] inception_5b/pool <- inception_5a/output_inception_5a/output_0_split_3
I0403 18:21:37.324663 22199 net.cpp:399] inception_5b/pool -> inception_5b/pool
I0403 18:21:37.324733 22199 net.cpp:141] Setting up inception_5b/pool
I0403 18:21:37.324754 22199 net.cpp:148] Top shape: 24 832 7 7 (978432)
I0403 18:21:37.324769 22199 net.cpp:156] Memory required for data: 1339843104
I0403 18:21:37.324781 22199 layer_factory.hpp:77] Creating layer inception_5b/pool_proj
I0403 18:21:37.324802 22199 net.cpp:91] Creating Layer inception_5b/pool_proj
I0403 18:21:37.324820 22199 net.cpp:425] inception_5b/pool_proj <- inception_5b/pool
I0403 18:21:37.324842 22199 net.cpp:399] inception_5b/pool_proj -> inception_5b/pool_proj
I0403 18:21:37.327087 22199 net.cpp:141] Setting up inception_5b/pool_proj
I0403 18:21:37.327116 22199 net.cpp:148] Top shape: 24 128 7 7 (150528)
I0403 18:21:37.327131 22199 net.cpp:156] Memory required for data: 1340445216
I0403 18:21:37.327147 22199 layer_factory.hpp:77] Creating layer inception_5b/relu_pool_proj
I0403 18:21:37.327164 22199 net.cpp:91] Creating Layer inception_5b/relu_pool_proj
I0403 18:21:37.327179 22199 net.cpp:425] inception_5b/relu_pool_proj <- inception_5b/pool_proj
I0403 18:21:37.327198 22199 net.cpp:386] inception_5b/relu_pool_proj -> inception_5b/pool_proj (in-place)
I0403 18:21:37.327483 22199 net.cpp:141] Setting up inception_5b/relu_pool_proj
I0403 18:21:37.327512 22199 net.cpp:148] Top shape: 24 128 7 7 (150528)
I0403 18:21:37.327527 22199 net.cpp:156] Memory required for data: 1341047328
I0403 18:21:37.327540 22199 layer_factory.hpp:77] Creating layer inception_5b/output
I0403 18:21:37.327558 22199 net.cpp:91] Creating Layer inception_5b/output
I0403 18:21:37.327586 22199 net.cpp:425] inception_5b/output <- inception_5b/1x1
I0403 18:21:37.327602 22199 net.cpp:425] inception_5b/output <- inception_5b/3x3
I0403 18:21:37.327618 22199 net.cpp:425] inception_5b/output <- inception_5b/5x5
I0403 18:21:37.327633 22199 net.cpp:425] inception_5b/output <- inception_5b/pool_proj
I0403 18:21:37.327652 22199 net.cpp:399] inception_5b/output -> inception_5b/output
I0403 18:21:37.327702 22199 net.cpp:141] Setting up inception_5b/output
I0403 18:21:37.327725 22199 net.cpp:148] Top shape: 24 1024 7 7 (1204224)
I0403 18:21:37.327740 22199 net.cpp:156] Memory required for data: 1345864224
I0403 18:21:37.327754 22199 layer_factory.hpp:77] Creating layer pool5/7x7_s1
I0403 18:21:37.327771 22199 net.cpp:91] Creating Layer pool5/7x7_s1
I0403 18:21:37.327786 22199 net.cpp:425] pool5/7x7_s1 <- inception_5b/output
I0403 18:21:37.327802 22199 net.cpp:399] pool5/7x7_s1 -> pool5/7x7_s1
I0403 18:21:37.328007 22199 net.cpp:141] Setting up pool5/7x7_s1
I0403 18:21:37.328032 22199 net.cpp:148] Top shape: 24 1024 1 1 (24576)
I0403 18:21:37.328047 22199 net.cpp:156] Memory required for data: 1345962528
I0403 18:21:37.328059 22199 layer_factory.hpp:77] Creating layer pool5/drop_7x7_s1
I0403 18:21:37.328076 22199 net.cpp:91] Creating Layer pool5/drop_7x7_s1
I0403 18:21:37.328091 22199 net.cpp:425] pool5/drop_7x7_s1 <- pool5/7x7_s1
I0403 18:21:37.328114 22199 net.cpp:386] pool5/drop_7x7_s1 -> pool5/7x7_s1 (in-place)
I0403 18:21:37.328161 22199 net.cpp:141] Setting up pool5/drop_7x7_s1
I0403 18:21:37.328186 22199 net.cpp:148] Top shape: 24 1024 1 1 (24576)
I0403 18:21:37.328199 22199 net.cpp:156] Memory required for data: 1346060832
I0403 18:21:37.328213 22199 layer_factory.hpp:77] Creating layer loss3/classifier_plantvillage
I0403 18:21:37.328230 22199 net.cpp:91] Creating Layer loss3/classifier_plantvillage
I0403 18:21:37.328246 22199 net.cpp:425] loss3/classifier_plantvillage <- pool5/7x7_s1
I0403 18:21:37.328265 22199 net.cpp:399] loss3/classifier_plantvillage -> loss3/classifier_plantvillage
I0403 18:21:37.328670 22199 net.cpp:141] Setting up loss3/classifier_plantvillage
I0403 18:21:37.328694 22199 net.cpp:148] Top shape: 24 38 (912)
I0403 18:21:37.328709 22199 net.cpp:156] Memory required for data: 1346064480
I0403 18:21:37.328725 22199 layer_factory.hpp:77] Creating layer loss3/classifier_plantvillage_loss3/classifier_plantvillage_0_split
I0403 18:21:37.328745 22199 net.cpp:91] Creating Layer loss3/classifier_plantvillage_loss3/classifier_plantvillage_0_split
I0403 18:21:37.328761 22199 net.cpp:425] loss3/classifier_plantvillage_loss3/classifier_plantvillage_0_split <- loss3/classifier_plantvillage
I0403 18:21:37.328778 22199 net.cpp:399] loss3/classifier_plantvillage_loss3/classifier_plantvillage_0_split -> loss3/classifier_plantvillage_loss3/classifier_plantvillage_0_split_0
I0403 18:21:37.328800 22199 net.cpp:399] loss3/classifier_plantvillage_loss3/classifier_plantvillage_0_split -> loss3/classifier_plantvillage_loss3/classifier_plantvillage_0_split_1
I0403 18:21:37.328819 22199 net.cpp:399] loss3/classifier_plantvillage_loss3/classifier_plantvillage_0_split -> loss3/classifier_plantvillage_loss3/classifier_plantvillage_0_split_2
I0403 18:21:37.328840 22199 net.cpp:399] loss3/classifier_plantvillage_loss3/classifier_plantvillage_0_split -> loss3/classifier_plantvillage_loss3/classifier_plantvillage_0_split_3
I0403 18:21:37.328933 22199 net.cpp:141] Setting up loss3/classifier_plantvillage_loss3/classifier_plantvillage_0_split
I0403 18:21:37.328954 22199 net.cpp:148] Top shape: 24 38 (912)
I0403 18:21:37.328969 22199 net.cpp:148] Top shape: 24 38 (912)
I0403 18:21:37.328984 22199 net.cpp:148] Top shape: 24 38 (912)
I0403 18:21:37.328999 22199 net.cpp:148] Top shape: 24 38 (912)
I0403 18:21:37.329010 22199 net.cpp:156] Memory required for data: 1346079072
I0403 18:21:37.329023 22199 layer_factory.hpp:77] Creating layer loss1/loss
I0403 18:21:37.329042 22199 net.cpp:91] Creating Layer loss1/loss
I0403 18:21:37.329058 22199 net.cpp:425] loss1/loss <- loss1/classifier_plantvillage_loss1/classifier_plantvillage_0_split_0
I0403 18:21:37.329088 22199 net.cpp:425] loss1/loss <- label_data_1_split_0
…
