…
I0403 18:05:10.995875 21300 net.cpp:313] The NetState phase (1) differed from the phase (0) specified by a rule in layer data
I0403 18:05:10.996975 21300 net.cpp:49] Initializing net from parameters: 
state {
  phase: TEST
}
layer {
  name: "data"
  type: "Data"
  top: "data"
  top: "label"
  include {
    phase: TEST
  }
  transform_param {
    mirror: false
    crop_size: 224
    mean_file: "/home/mohanty/data/final_dataset/lmdb/segmented-40-60/mean.binaryproto"
  }
  data_param {
    source: "/home/mohanty/data/final_dataset/lmdb/segmented-40-60/test_db"
    batch_size: 24
    backend: LMDB
  }
}
layer {
  name: "conv1/7x7_s2"
  type: "Convolution"
  bottom: "data"
  top: "conv1/7x7_s2"
  param {
    lr_mult: 1
    decay_mult: 1
  }
  param {
    lr_mult: 2
    decay_mult: 0
  }
  convolution_param {
    num_output: 64
    pad: 3
    kernel_size: 7
    stride: 2
    weight_filler {
      type: "xavier"
      std: 0.1
    }
    bias_filler {
      type: "constant"
      value: 0.2
    }
  }
}
layer {
  name: "conv1/relu_7x7"
  type: "ReLU"
  bottom: "conv1/7x7_s2"
  top: "conv1/7x7_s2"
}
layer {
  name: "pool1/3x3_s2"
  type: "Pooling"
  bottom: "conv1/7x7_s2"
  top: "pool1/3x3_s2"
  pooling_param {
    pool: MAX
    kernel_size: 3
    stride: 2
  }
}
layer {
  name: "pool1/norm1"
  type: "LRN"
  bottom: "pool1/3x3_s2"
  top: "pool1/norm1"
  lrn_param {
    local_size: 5
    alpha: 0.0001
    beta: 0.75
  }
}
layer {
  name: "conv2/3x3_reduce"
  type: "Convolution"
  bottom: "pool1/norm1"
  top: "conv2/3x3_reduce"
  param {
    lr_mult: 1
    decay_mult: 1
  }
  param {
    lr_mult: 2
    decay_mult: 0
  }
  convolution_param {
    num_output: 64
    kernel_size: 1
    weight_filler {
      type: "xavier"
      std: 0.1
    }
    bias_filler {
      type: "constant"
      value: 0.2
    }
  }
}
layer {
  name: "conv2/relu_3x3_reduce"
  type: "ReLU"
  bottom: "conv2/3x3_reduce"
  top: "conv2/3x3_reduce"
}
layer {
  name: "conv2/3x3"
  type: "Convolution"
  bottom: "conv2/3x3_reduce"
  top: "conv2/3x3"
  param {
    lr_mult: 1
    decay_mult: 1
  }
  param {
    lr_mult: 2
    decay_mult: 0
  }
  convolution_param {
    num_output: 192
    pad: 1
    kernel_size: 3
    weight_filler {
      type: "xavier"
      std: 0.03
    }
    bias_filler {
      type: "constant"
      value: 0.2
    }
  }
}
layer {
  name: "conv2/relu_3x3"
  type: "ReLU"
  bottom: "conv2/3x3"
  top: "conv2/3x3"
}
layer {
  name: "conv2/norm2"
  type: "LRN"
  bottom: "conv2/3x3"
  top: "conv2/norm2"
  lrn_param {
    local_size: 5
    alpha: 0.0001
    beta: 0.75
  }
}
layer {
  name: "pool2/3x3_s2"
  type: "Pooling"
  bottom: "conv2/norm2"
  top: "pool2/3x3_s2"
  pooling_param {
    pool: MAX
    kernel_size: 3
    stride: 2
  }
}
layer {
  name: "inception_3a/1x1"
  type: "Convolution"
  bottom: "pool2/3x3_s2"
  top: "inception_3a/1x1"
  param {
    lr_mult: 1
    decay_mult: 1
  }
  param {
    lr_mult: 2
    decay_mult: 0
  }
  convolution_param {
    num_output: 64
    kernel_size: 1
    weight_filler {
      type: "xavier"
      std: 0.03
    }
    bias_filler {
      type: "constant"
      value: 0.2
    }
  }
}
layer {
  name: "inception_3a/relu_1x1"
  type: "ReLU"
  bottom: "inception_3a/1x1"
  top: "inception_3a/1x1"
}
layer {
  name: "inception_3a/3x3_reduce"
  type: "Convolution"
  bottom: "pool2/3x3_s2"
  top: "inception_3a/3x3_reduce"
  param {
    lr_mult: 1
    decay_mult: 1
  }
  param {
    lr_mult: 2
    decay_mult: 0
  }
  convolution_param {
    num_output: 96
    kernel_size: 1
    weight_filler {
      type: "xavier"
      std: 0.09
    }
    bias_filler {
      type: "constant"
      value: 0.2
    }
  }
}
layer {
  name: "inception_3a/relu_3x3_reduce"
  type: "ReLU"
  bottom: "inception_3a/3x3_reduce"
  top: "inception_3a/3x3_reduce"
}
layer {
  name: "inception_3a/3x3"
  type: "Convolution"
  bottom: "inception_3a/3x3_reduce"
  top: "inception_3a/3x3"
  param {
    lr_mult: 1
    decay_mult: 1
  }
  param {
    lr_mult: 2
    decay_mult: 0
  }
  convolution_param {
    num_output: 128
    pad: 1
    kernel_size: 3
    weight_filler {
      type: "xavier"
      std: 0.03
    }
    bias_filler {
      type: "constant"
      value: 0.2
    }
  }
}
layer {
  name: "inception_3a/relu_3x3"
  type: "ReLU"
  bottom: "inception_3a/3x3"
  top: "inception_3a/3x3"
}
layer {
  name: "inception_3a/5x5_reduce"
  type: "Convolution"
  bottom: "pool2/3x3_s2"
  top: "inception_3a/5x5_reduce"
  param {
    lr_mult: 1
    decay_mult: 1
  }
  param {
    lr_mult: 2
    decay_mult: 0
  }
  convolution_param {
    num_output: 16
    kernel_size: 1
    weight_filler {
      type: "xavier"
      std: 0.2
    }
    bias_filler {
      type: "constant"
      value: 0.2
    }
  }
}
layer {
  name: "inception_3a/relu_5x5_reduce"
  type: "ReLU"
  bottom: "inception_3a/5x5_reduce"
  top: "inception_3a/5x5_reduce"
}
layer {
  name: "inception_3a/5x5"
  type: "Convolution"
  bottom: "inception_3a/5x5_reduce"
  top: "inception_3a/5x5"
  param {
    lr_mult: 1
    decay_mult: 1
  }
  param {
    lr_mult: 2
    decay_mult: 0
  }
  convolution_param {
    num_output: 32
    pad: 2
    kernel_size: 5
    weight_filler {
      type: "xavier"
      std: 0.03
    }
    bias_filler {
      type: "constant"
      value: 0.2
    }
  }
}
layer {
  name: "inception_3a/relu_5x5"
  type: "ReLU"
  bottom: "inception_3a/5x5"
  top: "inception_3a/5x5"
}
layer {
  name: "inception_3a/pool"
  type: "Pooling"
  bottom: "pool2/3x3_s2"
  top: "inception_3a/pool"
  pooling_param {
    pool: MAX
    kernel_size: 3
    stride: 1
    pad: 1
  }
}
layer {
  name: "inception_3a/pool_proj"
  type: "Convolution"
  bottom: "inception_3a/pool"
  top: "inception_3a/pool_proj"
  param {
    lr_mult: 1
    decay_mult: 1
  }
  param {
    lr_mult: 2
    decay_mult: 0
  }
  convolution_param {
    num_output: 32
    kernel_size: 1
    weight_filler {
      type: "xavier"
      std: 0.1
    }
    bias_filler {
      type: "constant"
      value: 0.2
    }
  }
}
layer {
  name: "inception_3a/relu_pool_proj"
  type: "ReLU"
  bottom: "inception_3a/pool_proj"
  top: "inception_3a/pool_proj"
}
layer {
  name: "inception_3a/output"
  type: "Concat"
  bottom: "inception_3a/1x1"
  bottom: "inception_3a/3x3"
  bottom: "inception_3a/5x5"
  bottom: "inception_3a/pool_proj"
  top: "inception_3a/output"
}
layer {
  name: "inception_3b/1x1"
  type: "Convolution"
  bottom: "inception_3a/output"
  top: "inception_3b/1x1"
  param {
    lr_mult: 1
    decay_mult: 1
  }
  param {
    lr_mult: 2
    decay_mult: 0
  }
  convolution_param {
    num_output: 128
    kernel_size: 1
    weight_filler {
      type: "xavier"
      std: 0.03
    }
    bias_filler {
      type: "constant"
      value: 0.2
    }
  }
}
layer {
  name: "inception_3b/relu_1x1"
  type: "ReLU"
  bottom: "inception_3b/1x1"
  top: "inception_3b/1x1"
}
layer {
  name: "inception_3b/3x3_reduce"
  type: "Convolution"
  bottom: "inception_3a/output"
  top: "inception_3b/3x3_reduce"
  param {
    lr_mult: 1
    decay_mult: 1
  }
  param {
    lr_mult: 2
    decay_mult: 0
  }
  convolution_param {
    num_output: 128
    kernel_size: 1
    weight_filler {
      type: "xavier"
      std: 0.09
    }
    bias_filler {
      type: "constant"
      value: 0.2
    }
  }
}
layer {
  name: "inception_3b/relu_3x3_reduce"
  type: "ReLU"
  bottom: "inception_3b/3x3_reduce"
  top: "inception_3b/3x3_reduce"
}
layer {
  name: "inception_3b/3x3"
  type: "Convolution"
  bottom: "inception_3b/3x3_reduce"
  top: "inception_3b/3x3"
  param {
    lr_mult: 1
    decay_mult: 1
  }
  param {
    lr_mult: 2
    decay_mult: 0
  }
  convolution_param {
    num_output: 192
    pad: 1
    kernel_size: 3
    weight_filler {
      type: "xavier"
      std: 0.03
    }
    bias_filler {
      type: "constant"
      value: 0.2
    }
  }
}
layer {
  name: "inception_3b/relu_3x3"
  type: "ReLU"
  bottom: "inception_3b/3x3"
  top: "inception_3b/3x3"
}
layer {
  name: "inception_3b/5x5_reduce"
  type: "Convolution"
  bottom: "inception_3a/output"
  top: "inception_3b/5x5_reduce"
  param {
    lr_mult: 1
    decay_mult: 1
  }
  param {
    lr_mult: 2
    decay_mult: 0
  }
  convolution_param {
    num_output: 32
    kernel_size: 1
    weight_filler {
      type: "xavier"
      std: 0.2
    }
    bias_filler {
      type: "constant"
      value: 0.2
    }
  }
}
layer {
  name: "inception_3b/relu_5x5_reduce"
  type: "ReLU"
  bottom: "inception_3b/5x5_reduce"
  top: "inception_3b/5x5_reduce"
}
layer {
  name: "inception_3b/5x5"
  type: "Convolution"
  bottom: "inception_3b/5x5_reduce"
  top: "inception_3b/5x5"
  param {
    lr_mult: 1
    decay_mult: 1
  }
  param {
    lr_mult: 2
    decay_mult: 0
  }
  convolution_param {
    num_output: 96
    pad: 2
    kernel_size: 5
    weight_filler {
      type: "xavier"
      std: 0.03
    }
    bias_filler {
      type: "constant"
      value: 0.2
    }
  }
}
layer {
  name: "inception_3b/relu_5x5"
  type: "ReLU"
  bottom: "inception_3b/5x5"
  top: "inception_3b/5x5"
}
layer {
  name: "inception_3b/pool"
  type: "Pooling"
  bottom: "inception_3a/output"
  top: "inception_3b/pool"
  pooling_param {
    pool: MAX
    kernel_size: 3
    stride: 1
    pad: 1
  }
}
layer {
  name: "inception_3b/pool_proj"
  type: "Convolution"
  bottom: "inception_3b/pool"
  top: "inception_3b/pool_proj"
  param {
    lr_mult: 1
    decay_mult: 1
  }
  param {
    lr_mult: 2
    decay_mult: 0
  }
  convolution_param {
    num_output: 64
    kernel_size: 1
    weight_filler {
      type: "xavier"
      std: 0.1
    }
    bias_filler {
      type: "constant"
      value: 0.2
    }
  }
}
layer {
  name: "inception_3b/relu_pool_proj"
  type: "ReLU"
  bottom: "inception_3b/pool_proj"
  top: "inception_3b/pool_proj"
}
layer {
  name: "inception_3b/output"
  type: "Concat"
  bottom: "inception_3b/1x1"
  bottom: "inception_3b/3x3"
  bottom: "inception_3b/5x5"
  bottom: "inception_3b/pool_proj"
  top: "inception_3b/output"
}
layer {
  name: "pool3/3x3_s2"
  type: "Pooling"
  bottom: "inception_3b/output"
  top: "pool3/3x3_s2"
  pooling_param {
    pool: MAX
    kernel_size: 3
    stride: 2
  }
}
layer {
  name: "inception_4a/1x1"
  type: "Convolution"
  bottom: "pool3/3x3_s2"
  top: "inception_4a/1x1"
  param {
    lr_mult: 1
    decay_mult: 1
  }
  param {
    lr_mult: 2
    decay_mult: 0
  }
  convolution_param {
    num_output: 192
    kernel_size: 1
    weight_filler {
      type: "xavier"
      std: 0.03
    }
    bias_filler {
      type: "constant"
      value: 0.2
    }
  }
}
layer {
  name: "inception_4a/relu_1x1"
  type: "ReLU"
  bottom: "inception_4a/1x1"
  top: "inception_4a/1x1"
}
layer {
  name: "inception_4a/3x3_reduce"
  type: "Convolution"
  bottom: "pool3/3x3_s2"
  top: "inception_4a/3x3_reduce"
  param {
    lr_mult: 1
    decay_mult: 1
  }
  param {
    lr_mult: 2
    decay_mult: 0
  }
  convolution_param {
    num_output: 96
    kernel_size: 1
    weight_filler {
      type: "xavier"
      std: 0.09
    }
    bias_filler {
      type: "constant"
      value: 0.2
    }
  }
}
layer {
  name: "inception_4a/relu_3x3_reduce"
  type: "ReLU"
  bottom: "inception_4a/3x3_reduce"
  top: "inception_4a/3x3_reduce"
}
layer {
  name: "inception_4a/3x3"
  type: "Convolution"
  bottom: "inception_4a/3x3_reduce"
  top: "inception_4a/3x3"
  param {
    lr_mult: 1
    decay_mult: 1
  }
  param {
    lr_mult: 2
    decay_mult: 0
  }
  convolution_param {
    num_output: 208
    pad: 1
    kernel_size: 3
    weight_filler {
      type: "xavier"
      std: 0.03
    }
    bias_filler {
      type: "constant"
      value: 0.2
    }
  }
}
layer {
  name: "inception_4a/relu_3x3"
  type: "ReLU"
  bottom: "inception_4a/3x3"
  top: "inception_4a/3x3"
}
layer {
  name: "inception_4a/5x5_reduce"
  type: "Convolution"
  bottom: "pool3/3x3_s2"
  top: "inception_4a/5x5_reduce"
  param {
    lr_mult: 1
    decay_mult: 1
  }
  param {
    lr_mult: 2
    decay_mult: 0
  }
  convolution_param {
    num_output: 16
    kernel_size: 1
    weight_filler {
      type: "xavier"
      std: 0.2
    }
    bias_filler {
      type: "constant"
      value: 0.2
    }
  }
}
layer {
  name: "inception_4a/relu_5x5_reduce"
  type: "ReLU"
  bottom: "inception_4a/5x5_reduce"
  top: "inception_4a/5x5_reduce"
}
layer {
  name: "inception_4a/5x5"
  type: "Convolution"
  bottom: "inception_4a/5x5_reduce"
  top: "inception_4a/5x5"
  param {
    lr_mult: 1
    decay_mult: 1
  }
  param {
    lr_mult: 2
    decay_mult: 0
  }
  convolution_param {
    num_output: 48
    pad: 2
    kernel_size: 5
    weight_filler {
      type: "xavier"
      std: 0.03
    }
    bias_filler {
      type: "constant"
      value: 0.2
    }
  }
}
layer {
  name: "inception_4a/relu_5x5"
  type: "ReLU"
  bottom: "inception_4a/5x5"
  top: "inception_4a/5x5"
}
layer {
  name: "inception_4a/pool"
  type: "Pooling"
  bottom: "pool3/3x3_s2"
  top: "inception_4a/pool"
  pooling_param {
    pool: MAX
    kernel_size: 3
    stride: 1
    pad: 1
  }
}
layer {
  name: "inception_4a/pool_proj"
  type: "Convolution"
  bottom: "inception_4a/pool"
  top: "inception_4a/pool_proj"
  param {
    lr_mult: 1
    decay_mult: 1
  }
  param {
    lr_mult: 2
    decay_mult: 0
  }
  convolution_param {
    num_output: 64
    kernel_size: 1
    weight_filler {
      type: "xavier"
      std: 0.1
    }
    bias_filler {
      type: "constant"
      value: 0.2
    }
  }
}
layer {
  name: "inception_4a/relu_pool_proj"
  type: "ReLU"
  bottom: "inception_4a/pool_proj"
  top: "inception_4a/pool_proj"
}
layer {
  name: "inception_4a/output"
  type: "Concat"
  bottom: "inception_4a/1x1"
  bottom: "inception_4a/3x3"
  bottom: "inception_4a/5x5"
  bottom: "inception_4a/pool_proj"
  top: "inception_4a/output"
}
layer {
  name: "loss1/ave_pool"
  type: "Pooling"
  bottom: "inception_4a/output"
  top: "loss1/ave_pool"
  pooling_param {
    pool: AVE
    kernel_size: 5
    stride: 3
  }
}
layer {
  name: "loss1/conv"
  type: "Convolution"
  bottom: "loss1/ave_pool"
  top: "loss1/conv"
  param {
    lr_mult: 1
    decay_mult: 1
  }
  param {
    lr_mult: 2
    decay_mult: 0
  }
  convolution_param {
    num_output: 128
    kernel_size: 1
    weight_filler {
      type: "xavier"
      std: 0.08
    }
    bias_filler {
      type: "constant"
      value: 0.2
    }
  }
}
layer {
  name: "loss1/relu_conv"
  type: "ReLU"
  bottom: "loss1/conv"
  top: "loss1/conv"
}
layer {
  name: "loss1/fc"
  type: "InnerProduct"
  bottom: "loss1/conv"
  top: "loss1/fc"
  param {
    lr_mult: 1
    decay_mult: 1
  }
  param {
    lr_mult: 2
    decay_mult: 0
  }
  inner_product_param {
    num_output: 1024
    weight_filler {
      type: "xavier"
      std: 0.02
    }
    bias_filler {
      type: "constant"
      value: 0.2
    }
  }
}
layer {
  name: "loss1/relu_fc"
  type: "ReLU"
  bottom: "loss1/fc"
  top: "loss1/fc"
}
layer {
  name: "loss1/drop_fc"
  type: "Dropout"
  bottom: "loss1/fc"
  top: "loss1/fc"
  dropout_param {
    dropout_ratio: 0.7
  }
}
layer {
  name: "loss1/classifier_plantvillage"
  type: "InnerProduct"
  bottom: "loss1/fc"
  top: "loss1/classifier_plantvillage"
  param {
    lr_mult: 1
    decay_mult: 1
  }
  param {
    lr_mult: 2
    decay_mult: 0
  }
  inner_product_param {
    num_output: 38
    weight_filler {
      type: "xavier"
      std: 0.0009765625
    }
    bias_filler {
      type: "constant"
      value: 0
    }
  }
}
layer {
  name: "inception_4b/1x1"
  type: "Convolution"
  bottom: "inception_4a/output"
  top: "inception_4b/1x1"
  param {
    lr_mult: 1
    decay_mult: 1
  }
  param {
    lr_mult: 2
    decay_mult: 0
  }
  convolution_param {
    num_output: 160
    kernel_size: 1
    weight_filler {
      type: "xavier"
      std: 0.03
    }
    bias_filler {
      type: "constant"
      value: 0.2
    }
  }
}
layer {
  name: "inception_4b/relu_1x1"
  type: "ReLU"
  bottom: "inception_4b/1x1"
  top: "inception_4b/1x1"
}
layer {
  name: "inception_4b/3x3_reduce"
  type: "Convolution"
  bottom: "inception_4a/output"
  top: "inception_4b/3x3_reduce"
  param {
    lr_mult: 1
    decay_mult: 1
  }
  param {
    lr_mult: 2
    decay_mult: 0
  }
  convolution_param {
    num_output: 112
    kernel_size: 1
    weight_filler {
      type: "xavier"
      std: 0.09
    }
    bias_filler {
      type: "constant"
      value: 0.2
    }
  }
}
layer {
  name: "inception_4b/relu_3x3_reduce"
  type: "ReLU"
  bottom: "inception_4b/3x3_reduce"
  top: "inception_4b/3x3_reduce"
}
layer {
  name: "inception_4b/3x3"
  type: "Convolution"
  bottom: "inception_4b/3x3_reduce"
  top: "inception_4b/3x3"
  param {
    lr_mult: 1
    decay_mult: 1
  }
  param {
    lr_mult: 2
    decay_mult: 0
  }
  convolution_param {
    num_output: 224
    pad: 1
    kernel_size: 3
    weight_filler {
      type: "xavier"
      std: 0.03
    }
    bias_filler {
      type: "constant"
      value: 0.2
    }
  }
}
layer {
  name: "inception_4b/relu_3x3"
  type: "ReLU"
  bottom: "inception_4b/3x3"
  top: "inception_4b/3x3"
}
layer {
  name: "inception_4b/5x5_reduce"
  type: "Convolution"
  bottom: "inception_4a/output"
  top: "inception_4b/5x5_reduce"
  param {
    lr_mult: 1
    decay_mult: 1
  }
  param {
    lr_mult: 2
    decay_mult: 0
  }
  convolution_param {
    num_output: 24
    kernel_size: 1
    weight_filler {
      type: "xavier"
      std: 0.2
    }
    bias_filler {
      type: "constant"
      value: 0.2
    }
  }
}
layer {
  name: "inception_4b/relu_5x5_reduce"
  type: "ReLU"
  bottom: "inception_4b/5x5_reduce"
  top: "inception_4b/5x5_reduce"
}
layer {
  name: "inception_4b/5x5"
  type: "Convolution"
  bottom: "inception_4b/5x5_reduce"
  top: "inception_4b/5x5"
  param {
    lr_mult: 1
    decay_mult: 1
  }
  param {
    lr_mult: 2
    decay_mult: 0
  }
  convolution_param {
    num_output: 64
    pad: 2
    kernel_size: 5
    weight_filler {
      type: "xavier"
      std: 0.03
    }
    bias_filler {
      type: "constant"
      value: 0.2
    }
  }
}
layer {
  name: "inception_4b/relu_5x5"
  type: "ReLU"
  bottom: "inception_4b/5x5"
  top: "inception_4b/5x5"
}
layer {
  name: "inception_4b/pool"
  type: "Pooling"
  bottom: "inception_4a/output"
  top: "inception_4b/pool"
  pooling_param {
    pool: MAX
    kernel_size: 3
    stride: 1
    pad: 1
  }
}
layer {
  name: "inception_4b/pool_proj"
  type: "Convolution"
  bottom: "inception_4b/pool"
  top: "inception_4b/pool_proj"
  param {
    lr_mult: 1
    decay_mult: 1
  }
  param {
    lr_mult: 2
    decay_mult: 0
  }
  convolution_param {
    num_output: 64
    kernel_size: 1
    weight_filler {
      type: "xavier"
      std: 0.1
    }
    bias_filler {
      type: "constant"
      value: 0.2
    }
  }
}
layer {
  name: "inception_4b/relu_pool_proj"
  type: "ReLU"
  bottom: "inception_4b/pool_proj"
  top: "inception_4b/pool_proj"
}
layer {
  name: "inception_4b/output"
  type: "Concat"
  bottom: "inception_4b/1x1"
  bottom: "inception_4b/3x3"
  bottom: "inception_4b/5x5"
  bottom: "inception_4b/pool_proj"
  top: "inception_4b/output"
}
layer {
  name: "inception_4c/1x1"
  type: "Convolution"
  bottom: "inception_4b/output"
  top: "inception_4c/1x1"
  param {
    lr_mult: 1
    decay_mult: 1
  }
  param {
    lr_mult: 2
    decay_mult: 0
  }
  convolution_param {
    num_output: 128
    kernel_size: 1
    weight_filler {
      type: "xavier"
      std: 0.03
    }
    bias_filler {
      type: "constant"
      value: 0.2
    }
  }
}
layer {
  name: "inception_4c/relu_1x1"
  type: "ReLU"
  bottom: "inception_4c/1x1"
  top: "inception_4c/1x1"
}
layer {
  name: "inception_4c/3x3_reduce"
  type: "Convolution"
  bottom: "inception_4b/output"
  top: "inception_4c/3x3_reduce"
  param {
    lr_mult: 1
    decay_mult: 1
  }
  param {
    lr_mult: 2
    decay_mult: 0
  }
  convolution_param {
    num_output: 128
    kernel_size: 1
    weight_filler {
      type: "xavier"
      std: 0.09
    }
    bias_filler {
      type: "constant"
      value: 0.2
    }
  }
}
layer {
  name: "inception_4c/relu_3x3_reduce"
  type: "ReLU"
  bottom: "inception_4c/3x3_reduce"
  top: "inception_4c/3x3_reduce"
}
layer {
  name: "inception_4c/3x3"
  type: "Convolution"
  bottom: "inception_4c/3x3_reduce"
  top: "inception_4c/3x3"
  param {
    lr_mult: 1
    decay_mult: 1
  }
  param {
    lr_mult: 2
    decay_mult: 0
  }
  convolution_param {
    num_output: 256
    pad: 1
    kernel_size: 3
    weight_filler {
      type: "xavier"
      std: 0.03
    }
    bias_filler {
      type: "constant"
      value: 0.2
    }
  }
}
layer {
  name: "inception_4c/relu_3x3"
  type: "ReLU"
  bottom: "inception_4c/3x3"
  top: "inception_4c/3x3"
}
layer {
  name: "inception_4c/5x5_reduce"
  type: "Convolution"
  bottom: "inception_4b/output"
  top: "inception_4c/5x5_reduce"
  param {
    lr_mult: 1
    decay_mult: 1
  }
  param {
    lr_mult: 2
    decay_mult: 0
  }
  convolution_param {
    num_output: 24
    kernel_size: 1
    weight_filler {
      type: "xavier"
      std: 0.2
    }
    bias_filler {
      type: "constant"
      value: 0.2
    }
  }
}
layer {
  name: "inception_4c/relu_5x5_reduce"
  type: "ReLU"
  bottom: "inception_4c/5x5_reduce"
  top: "inception_4c/5x5_reduce"
}
layer {
  name: "inception_4c/5x5"
  type: "Convolution"
  bottom: "inception_4c/5x5_reduce"
  top: "inception_4c/5x5"
  param {
    lr_mult: 1
    decay_mult: 1
  }
  param {
    lr_mult: 2
    decay_mult: 0
  }
  convolution_param {
    num_output: 64
    pad: 2
    kernel_size: 5
    weight_filler {
      type: "xavier"
      std: 0.03
    }
    bias_filler {
      type: "constant"
      value: 0.2
    }
  }
}
layer {
  name: "inception_4c/relu_5x5"
  type: "ReLU"
  bottom: "inception_4c/5x5"
  top: "inception_4c/5x5"
}
layer {
  name: "inception_4c/pool"
  type: "Pooling"
  bottom: "inception_4b/output"
  top: "inception_4c/pool"
  pooling_param {
    pool: MAX
    kernel_size: 3
    stride: 1
    pad: 1
  }
}
layer {
  name: "inception_4c/pool_proj"
  type: "Convolution"
  bottom: "inception_4c/pool"
  top: "inception_4c/pool_proj"
  param {
    lr_mult: 1
    decay_mult: 1
  }
  param {
    lr_mult: 2
    decay_mult: 0
  }
  convolution_param {
    num_output: 64
    kernel_size: 1
    weight_filler {
      type: "xavier"
      std: 0.1
    }
    bias_filler {
      type: "constant"
      value: 0.2
    }
  }
}
layer {
  name: "inception_4c/relu_pool_proj"
  type: "ReLU"
  bottom: "inception_4c/pool_proj"
  top: "inception_4c/pool_proj"
}
layer {
  name: "inception_4c/output"
  type: "Concat"
  bottom: "inception_4c/1x1"
  bottom: "inception_4c/3x3"
  bottom: "inception_4c/5x5"
  bottom: "inception_4c/pool_proj"
  top: "inception_4c/output"
}
layer {
  name: "inception_4d/1x1"
  type: "Convolution"
  bottom: "inception_4c/output"
  top: "inception_4d/1x1"
  param {
    lr_mult: 1
    decay_mult: 1
  }
  param {
    lr_mult: 2
    decay_mult: 0
  }
  convolution_param {
    num_output: 112
    kernel_size: 1
    weight_filler {
      type: "xavier"
      std: 0.03
    }
    bias_filler {
      type: "constant"
      value: 0.2
    }
  }
}
layer {
  name: "inception_4d/relu_1x1"
  type: "ReLU"
  bottom: "inception_4d/1x1"
  top: "inception_4d/1x1"
}
layer {
  name: "inception_4d/3x3_reduce"
  type: "Convolution"
  bottom: "inception_4c/output"
  top: "inception_4d/3x3_reduce"
  param {
    lr_mult: 1
    decay_mult: 1
  }
  param {
    lr_mult: 2
    decay_mult: 0
  }
  convolution_param {
    num_output: 144
    kernel_size: 1
    weight_filler {
      type: "xavier"
      std: 0.09
    }
    bias_filler {
      type: "constant"
      value: 0.2
    }
  }
}
layer {
  name: "inception_4d/relu_3x3_reduce"
  type: "ReLU"
  bottom: "inception_4d/3x3_reduce"
  top: "inception_4d/3x3_reduce"
}
layer {
  name: "inception_4d/3x3"
  type: "Convolution"
  bottom: "inception_4d/3x3_reduce"
  top: "inception_4d/3x3"
  param {
    lr_mult: 1
    decay_mult: 1
  }
  param {
    lr_mult: 2
    decay_mult: 0
  }
  convolution_param {
    num_output: 288
    pad: 1
    kernel_size: 3
    weight_filler {
      type: "xavier"
      std: 0.03
    }
    bias_filler {
      type: "constant"
      value: 0.2
    }
  }
}
layer {
  name: "inception_4d/relu_3x3"
  type: "ReLU"
  bottom: "inception_4d/3x3"
  top: "inception_4d/3x3"
}
layer {
  name: "inception_4d/5x5_reduce"
  type: "Convolution"
  bottom: "inception_4c/output"
  top: "inception_4d/5x5_reduce"
  param {
    lr_mult: 1
    decay_mult: 1
  }
  param {
    lr_mult: 2
    decay_mult: 0
  }
  convolution_param {
    num_output: 32
    kernel_size: 1
    weight_filler {
      type: "xavier"
      std: 0.2
    }
    bias_filler {
      type: "constant"
      value: 0.2
    }
  }
}
layer {
  name: "inception_4d/relu_5x5_reduce"
  type: "ReLU"
  bottom: "inception_4d/5x5_reduce"
  top: "inception_4d/5x5_reduce"
}
layer {
  name: "inception_4d/5x5"
  type: "Convolution"
  bottom: "inception_4d/5x5_reduce"
  top: "inception_4d/5x5"
  param {
    lr_mult: 1
    decay_mult: 1
  }
  param {
    lr_mult: 2
    decay_mult: 0
  }
  convolution_param {
    num_output: 64
    pad: 2
    kernel_size: 5
    weight_filler {
      type: "xavier"
      std: 0.03
    }
    bias_filler {
      type: "constant"
      value: 0.2
    }
  }
}
layer {
  name: "inception_4d/relu_5x5"
  type: "ReLU"
  bottom: "inception_4d/5x5"
  top: "inception_4d/5x5"
}
layer {
  name: "inception_4d/pool"
  type: "Pooling"
  bottom: "inception_4c/output"
  top: "inception_4d/pool"
  pooling_param {
    pool: MAX
    kernel_size: 3
    stride: 1
    pad: 1
  }
}
layer {
  name: "inception_4d/pool_proj"
  type: "Convolution"
  bottom: "inception_4d/pool"
  top: "inception_4d/pool_proj"
  param {
    lr_mult: 1
    decay_mult: 1
  }
  param {
    lr_mult: 2
    decay_mult: 0
  }
  convolution_param {
    num_output: 64
    kernel_size: 1
    weight_filler {
      type: "xavier"
      std: 0.1
    }
    bias_filler {
      type: "constant"
      value: 0.2
    }
  }
}
layer {
  name: "inception_4d/relu_pool_proj"
  type: "ReLU"
  bottom: "inception_4d/pool_proj"
  top: "inception_4d/pool_proj"
}
layer {
  name: "inception_4d/output"
  type: "Concat"
  bottom: "inception_4d/1x1"
  bottom: "inception_4d/3x3"
  bottom: "inception_4d/5x5"
  bottom: "inception_4d/pool_proj"
  top: "inception_4d/output"
}
layer {
  name: "loss2/ave_pool"
  type: "Pooling"
  bottom: "inception_4d/output"
  top: "loss2/ave_pool"
  pooling_param {
    pool: AVE
    kernel_size: 5
    stride: 3
  }
}
layer {
  name: "loss2/conv"
  type: "Convolution"
  bottom: "loss2/ave_pool"
  top: "loss2/conv"
  param {
    lr_mult: 1
    decay_mult: 1
  }
  param {
    lr_mult: 2
    decay_mult: 0
  }
  convolution_param {
    num_output: 128
    kernel_size: 1
    weight_filler {
      type: "xavier"
      std: 0.08
    }
    bias_filler {
      type: "constant"
      value: 0.2
    }
  }
}
layer {
  name: "loss2/relu_conv"
  type: "ReLU"
  bottom: "loss2/conv"
  top: "loss2/conv"
}
layer {
  name: "loss2/fc"
  type: "InnerProduct"
  bottom: "loss2/conv"
  top: "loss2/fc"
  param {
    lr_mult: 1
    decay_mult: 1
  }
  param {
    lr_mult: 2
    decay_mult: 0
  }
  inner_product_param {
    num_output: 1024
    weight_filler {
      type: "xavier"
      std: 0.02
    }
    bias_filler {
      type: "constant"
      value: 0.2
    }
  }
}
layer {
  name: "loss2/relu_fc"
  type: "ReLU"
  bottom: "loss2/fc"
  top: "loss2/fc"
}
layer {
  name: "loss2/drop_fc"
  type: "Dropout"
  bottom: "loss2/fc"
  top: "loss2/fc"
  dropout_param {
    dropout_ratio: 0.7
  }
}
layer {
  name: "loss2/classifier_plantvillage"
  type: "InnerProduct"
  bottom: "loss2/fc"
  top: "loss2/classifier_plantvillage"
  param {
    lr_mult: 1
    decay_mult: 1
  }
  param {
    lr_mult: 2
    decay_mult: 0
  }
  inner_product_param {
    num_output: 38
    weight_filler {
      type: "xavier"
      std: 0.0009765625
    }
    bias_filler {
      type: "constant"
      value: 0
    }
  }
}
layer {
  name: "inception_4e/1x1"
  type: "Convolution"
  bottom: "inception_4d/output"
  top: "inception_4e/1x1"
  param {
    lr_mult: 1
    decay_mult: 1
  }
  param {
    lr_mult: 2
    decay_mult: 0
  }
  convolution_param {
    num_output: 256
    kernel_size: 1
    weight_filler {
      type: "xavier"
      std: 0.03
    }
    bias_filler {
      type: "constant"
      value: 0.2
    }
  }
}
layer {
  name: "inception_4e/relu_1x1"
  type: "ReLU"
  bottom: "inception_4e/1x1"
  top: "inception_4e/1x1"
}
layer {
  name: "inception_4e/3x3_reduce"
  type: "Convolution"
  bottom: "inception_4d/output"
  top: "inception_4e/3x3_reduce"
  param {
    lr_mult: 1
    decay_mult: 1
  }
  param {
    lr_mult: 2
    decay_mult: 0
  }
  convolution_param {
    num_output: 160
    kernel_size: 1
    weight_filler {
      type: "xavier"
      std: 0.09
    }
    bias_filler {
      type: "constant"
      value: 0.2
    }
  }
}
layer {
  name: "inception_4e/relu_3x3_reduce"
  type: "ReLU"
  bottom: "inception_4e/3x3_reduce"
  top: "inception_4e/3x3_reduce"
}
layer {
  name: "inception_4e/3x3"
  type: "Convolution"
  bottom: "inception_4e/3x3_reduce"
  top: "inception_4e/3x3"
  param {
    lr_mult: 1
    decay_mult: 1
  }
  param {
    lr_mult: 2
    decay_mult: 0
  }
  convolution_param {
    num_output: 320
    pad: 1
    kernel_size: 3
    weight_filler {
      type: "xavier"
      std: 0.03
    }
    bias_filler {
      type: "constant"
      value: 0.2
    }
  }
}
layer {
  name: "inception_4e/relu_3x3"
  type: "ReLU"
  bottom: "inception_4e/3x3"
  top: "inception_4e/3x3"
}
layer {
  name: "inception_4e/5x5_reduce"
  type: "Convolution"
  bottom: "inception_4d/output"
  top: "inception_4e/5x5_reduce"
  param {
    lr_mult: 1
    decay_mult: 1
  }
  param {
    lr_mult: 2
    decay_mult: 0
  }
  convolution_param {
    num_output: 32
    kernel_size: 1
    weight_filler {
      type: "xavier"
      std: 0.2
    }
    bias_filler {
      type: "constant"
      value: 0.2
    }
  }
}
layer {
  name: "inception_4e/relu_5x5_reduce"
  type: "ReLU"
  bottom: "inception_4e/5x5_reduce"
  top: "inception_4e/5x5_reduce"
}
layer {
  name: "inception_4e/5x5"
  type: "Convolution"
  bottom: "inception_4e/5x5_reduce"
  top: "inception_4e/
I0403 18:05:10.998428 21300 layer_factory.hpp:77] Creating layer data
I0403 18:05:10.999011 21300 net.cpp:91] Creating Layer data
I0403 18:05:10.999040 21300 net.cpp:399] data -> data
I0403 18:05:10.999090 21300 net.cpp:399] data -> label
I0403 18:05:10.999125 21300 data_transformer.cpp:25] Loading mean file from: /home/mohanty/data/final_dataset/lmdb/segmented-40-60/mean.binaryproto
I0403 18:05:11.000236 21302 db_lmdb.cpp:38] Opened lmdb /home/mohanty/data/final_dataset/lmdb/segmented-40-60/test_db
I0403 18:05:11.011854 21300 data_layer.cpp:41] output data size: 24,3,224,224
I0403 18:05:11.038360 21300 net.cpp:141] Setting up data
I0403 18:05:11.038439 21300 net.cpp:148] Top shape: 24 3 224 224 (3612672)
I0403 18:05:11.038460 21300 net.cpp:148] Top shape: 24 (24)
I0403 18:05:11.038475 21300 net.cpp:156] Memory required for data: 14450784
I0403 18:05:11.038501 21300 layer_factory.hpp:77] Creating layer label_data_1_split
I0403 18:05:11.038527 21300 net.cpp:91] Creating Layer label_data_1_split
I0403 18:05:11.038547 21300 net.cpp:425] label_data_1_split <- label
I0403 18:05:11.038579 21300 net.cpp:399] label_data_1_split -> label_data_1_split_0
I0403 18:05:11.038606 21300 net.cpp:399] label_data_1_split -> label_data_1_split_1
I0403 18:05:11.038626 21300 net.cpp:399] label_data_1_split -> label_data_1_split_2
I0403 18:05:11.038646 21300 net.cpp:399] label_data_1_split -> label_data_1_split_3
I0403 18:05:11.038664 21300 net.cpp:399] label_data_1_split -> label_data_1_split_4
I0403 18:05:11.038682 21300 net.cpp:399] label_data_1_split -> label_data_1_split_5
I0403 18:05:11.038700 21300 net.cpp:399] label_data_1_split -> label_data_1_split_6
I0403 18:05:11.038720 21300 net.cpp:399] label_data_1_split -> label_data_1_split_7
I0403 18:05:11.038738 21300 net.cpp:399] label_data_1_split -> label_data_1_split_8
I0403 18:05:11.038758 21300 net.cpp:399] label_data_1_split -> label_data_1_split_9
I0403 18:05:11.038867 21300 net.cpp:141] Setting up label_data_1_split
I0403 18:05:11.038889 21300 net.cpp:148] Top shape: 24 (24)
I0403 18:05:11.038905 21300 net.cpp:148] Top shape: 24 (24)
I0403 18:05:11.038919 21300 net.cpp:148] Top shape: 24 (24)
I0403 18:05:11.038933 21300 net.cpp:148] Top shape: 24 (24)
I0403 18:05:11.038949 21300 net.cpp:148] Top shape: 24 (24)
I0403 18:05:11.038962 21300 net.cpp:148] Top shape: 24 (24)
I0403 18:05:11.038976 21300 net.cpp:148] Top shape: 24 (24)
I0403 18:05:11.038991 21300 net.cpp:148] Top shape: 24 (24)
I0403 18:05:11.039005 21300 net.cpp:148] Top shape: 24 (24)
I0403 18:05:11.039019 21300 net.cpp:148] Top shape: 24 (24)
I0403 18:05:11.039070 21300 net.cpp:156] Memory required for data: 14451744
I0403 18:05:11.039085 21300 layer_factory.hpp:77] Creating layer conv1/7x7_s2
I0403 18:05:11.039115 21300 net.cpp:91] Creating Layer conv1/7x7_s2
I0403 18:05:11.039131 21300 net.cpp:425] conv1/7x7_s2 <- data
I0403 18:05:11.039149 21300 net.cpp:399] conv1/7x7_s2 -> conv1/7x7_s2
I0403 18:05:11.175364 21300 net.cpp:141] Setting up conv1/7x7_s2
I0403 18:05:11.175439 21300 net.cpp:148] Top shape: 24 64 112 112 (19267584)
I0403 18:05:11.175457 21300 net.cpp:156] Memory required for data: 91522080
I0403 18:05:11.175484 21300 layer_factory.hpp:77] Creating layer conv1/relu_7x7
I0403 18:05:11.175509 21300 net.cpp:91] Creating Layer conv1/relu_7x7
I0403 18:05:11.175526 21300 net.cpp:425] conv1/relu_7x7 <- conv1/7x7_s2
I0403 18:05:11.175552 21300 net.cpp:386] conv1/relu_7x7 -> conv1/7x7_s2 (in-place)
I0403 18:05:11.175812 21300 net.cpp:141] Setting up conv1/relu_7x7
I0403 18:05:11.175839 21300 net.cpp:148] Top shape: 24 64 112 112 (19267584)
I0403 18:05:11.175854 21300 net.cpp:156] Memory required for data: 168592416
I0403 18:05:11.175868 21300 layer_factory.hpp:77] Creating layer pool1/3x3_s2
I0403 18:05:11.175890 21300 net.cpp:91] Creating Layer pool1/3x3_s2
I0403 18:05:11.175907 21300 net.cpp:425] pool1/3x3_s2 <- conv1/7x7_s2
I0403 18:05:11.175926 21300 net.cpp:399] pool1/3x3_s2 -> pool1/3x3_s2
I0403 18:05:11.175999 21300 net.cpp:141] Setting up pool1/3x3_s2
I0403 18:05:11.176023 21300 net.cpp:148] Top shape: 24 64 56 56 (4816896)
I0403 18:05:11.176038 21300 net.cpp:156] Memory required for data: 187860000
I0403 18:05:11.176051 21300 layer_factory.hpp:77] Creating layer pool1/norm1
I0403 18:05:11.176074 21300 net.cpp:91] Creating Layer pool1/norm1
I0403 18:05:11.176090 21300 net.cpp:425] pool1/norm1 <- pool1/3x3_s2
I0403 18:05:11.176108 21300 net.cpp:399] pool1/norm1 -> pool1/norm1
I0403 18:05:11.176409 21300 net.cpp:141] Setting up pool1/norm1
I0403 18:05:11.176434 21300 net.cpp:148] Top shape: 24 64 56 56 (4816896)
I0403 18:05:11.176450 21300 net.cpp:156] Memory required for data: 207127584
I0403 18:05:11.176463 21300 layer_factory.hpp:77] Creating layer conv2/3x3_reduce
I0403 18:05:11.176488 21300 net.cpp:91] Creating Layer conv2/3x3_reduce
I0403 18:05:11.176504 21300 net.cpp:425] conv2/3x3_reduce <- pool1/norm1
I0403 18:05:11.176524 21300 net.cpp:399] conv2/3x3_reduce -> conv2/3x3_reduce
I0403 18:05:11.177868 21300 net.cpp:141] Setting up conv2/3x3_reduce
I0403 18:05:11.177896 21300 net.cpp:148] Top shape: 24 64 56 56 (4816896)
I0403 18:05:11.177911 21300 net.cpp:156] Memory required for data: 226395168
I0403 18:05:11.177930 21300 layer_factory.hpp:77] Creating layer conv2/relu_3x3_reduce
I0403 18:05:11.177949 21300 net.cpp:91] Creating Layer conv2/relu_3x3_reduce
I0403 18:05:11.177964 21300 net.cpp:425] conv2/relu_3x3_reduce <- conv2/3x3_reduce
I0403 18:05:11.177981 21300 net.cpp:386] conv2/relu_3x3_reduce -> conv2/3x3_reduce (in-place)
I0403 18:05:11.178228 21300 net.cpp:141] Setting up conv2/relu_3x3_reduce
I0403 18:05:11.178253 21300 net.cpp:148] Top shape: 24 64 56 56 (4816896)
I0403 18:05:11.178279 21300 net.cpp:156] Memory required for data: 245662752
I0403 18:05:11.178294 21300 layer_factory.hpp:77] Creating layer conv2/3x3
I0403 18:05:11.178320 21300 net.cpp:91] Creating Layer conv2/3x3
I0403 18:05:11.178339 21300 net.cpp:425] conv2/3x3 <- conv2/3x3_reduce
I0403 18:05:11.178356 21300 net.cpp:399] conv2/3x3 -> conv2/3x3
I0403 18:05:11.180531 21300 net.cpp:141] Setting up conv2/3x3
I0403 18:05:11.180563 21300 net.cpp:148] Top shape: 24 192 56 56 (14450688)
I0403 18:05:11.180579 21300 net.cpp:156] Memory required for data: 303465504
I0403 18:05:11.180598 21300 layer_factory.hpp:77] Creating layer conv2/relu_3x3
I0403 18:05:11.180619 21300 net.cpp:91] Creating Layer conv2/relu_3x3
I0403 18:05:11.180634 21300 net.cpp:425] conv2/relu_3x3 <- conv2/3x3
I0403 18:05:11.180650 21300 net.cpp:386] conv2/relu_3x3 -> conv2/3x3 (in-place)
I0403 18:05:11.180816 21300 net.cpp:141] Setting up conv2/relu_3x3
I0403 18:05:11.180840 21300 net.cpp:148] Top shape: 24 192 56 56 (14450688)
I0403 18:05:11.180886 21300 net.cpp:156] Memory required for data: 361268256
I0403 18:05:11.180901 21300 layer_factory.hpp:77] Creating layer conv2/norm2
I0403 18:05:11.180919 21300 net.cpp:91] Creating Layer conv2/norm2
I0403 18:05:11.180934 21300 net.cpp:425] conv2/norm2 <- conv2/3x3
I0403 18:05:11.180951 21300 net.cpp:399] conv2/norm2 -> conv2/norm2
I0403 18:05:11.181238 21300 net.cpp:141] Setting up conv2/norm2
I0403 18:05:11.181277 21300 net.cpp:148] Top shape: 24 192 56 56 (14450688)
I0403 18:05:11.181293 21300 net.cpp:156] Memory required for data: 419071008
I0403 18:05:11.181306 21300 layer_factory.hpp:77] Creating layer pool2/3x3_s2
I0403 18:05:11.181324 21300 net.cpp:91] Creating Layer pool2/3x3_s2
I0403 18:05:11.181340 21300 net.cpp:425] pool2/3x3_s2 <- conv2/norm2
I0403 18:05:11.181356 21300 net.cpp:399] pool2/3x3_s2 -> pool2/3x3_s2
I0403 18:05:11.181407 21300 net.cpp:141] Setting up pool2/3x3_s2
I0403 18:05:11.181429 21300 net.cpp:148] Top shape: 24 192 28 28 (3612672)
I0403 18:05:11.181444 21300 net.cpp:156] Memory required for data: 433521696
I0403 18:05:11.181457 21300 layer_factory.hpp:77] Creating layer pool2/3x3_s2_pool2/3x3_s2_0_split
I0403 18:05:11.181474 21300 net.cpp:91] Creating Layer pool2/3x3_s2_pool2/3x3_s2_0_split
I0403 18:05:11.181488 21300 net.cpp:425] pool2/3x3_s2_pool2/3x3_s2_0_split <- pool2/3x3_s2
I0403 18:05:11.181507 21300 net.cpp:399] pool2/3x3_s2_pool2/3x3_s2_0_split -> pool2/3x3_s2_pool2/3x3_s2_0_split_0
I0403 18:05:11.181525 21300 net.cpp:399] pool2/3x3_s2_pool2/3x3_s2_0_split -> pool2/3x3_s2_pool2/3x3_s2_0_split_1
I0403 18:05:11.181562 21300 net.cpp:399] pool2/3x3_s2_pool2/3x3_s2_0_split -> pool2/3x3_s2_pool2/3x3_s2_0_split_2
I0403 18:05:11.181581 21300 net.cpp:399] pool2/3x3_s2_pool2/3x3_s2_0_split -> pool2/3x3_s2_pool2/3x3_s2_0_split_3
I0403 18:05:11.181648 21300 net.cpp:141] Setting up pool2/3x3_s2_pool2/3x3_s2_0_split
I0403 18:05:11.181670 21300 net.cpp:148] Top shape: 24 192 28 28 (3612672)
I0403 18:05:11.181685 21300 net.cpp:148] Top shape: 24 192 28 28 (3612672)
I0403 18:05:11.181700 21300 net.cpp:148] Top shape: 24 192 28 28 (3612672)
I0403 18:05:11.181715 21300 net.cpp:148] Top shape: 24 192 28 28 (3612672)
I0403 18:05:11.181727 21300 net.cpp:156] Memory required for data: 491324448
I0403 18:05:11.181741 21300 layer_factory.hpp:77] Creating layer inception_3a/1x1
I0403 18:05:11.181762 21300 net.cpp:91] Creating Layer inception_3a/1x1
I0403 18:05:11.181778 21300 net.cpp:425] inception_3a/1x1 <- pool2/3x3_s2_pool2/3x3_s2_0_split_0
I0403 18:05:11.181795 21300 net.cpp:399] inception_3a/1x1 -> inception_3a/1x1
I0403 18:05:11.183240 21300 net.cpp:141] Setting up inception_3a/1x1
I0403 18:05:11.183269 21300 net.cpp:148] Top shape: 24 64 28 28 (1204224)
I0403 18:05:11.183282 21300 net.cpp:156] Memory required for data: 496141344
I0403 18:05:11.183301 21300 layer_factory.hpp:77] Creating layer inception_3a/relu_1x1
I0403 18:05:11.183320 21300 net.cpp:91] Creating Layer inception_3a/relu_1x1
I0403 18:05:11.183336 21300 net.cpp:425] inception_3a/relu_1x1 <- inception_3a/1x1
I0403 18:05:11.183352 21300 net.cpp:386] inception_3a/relu_1x1 -> inception_3a/1x1 (in-place)
I0403 18:05:11.183516 21300 net.cpp:141] Setting up inception_3a/relu_1x1
I0403 18:05:11.183545 21300 net.cpp:148] Top shape: 24 64 28 28 (1204224)
I0403 18:05:11.183562 21300 net.cpp:156] Memory required for data: 500958240
I0403 18:05:11.183574 21300 layer_factory.hpp:77] Creating layer inception_3a/3x3_reduce
I0403 18:05:11.183595 21300 net.cpp:91] Creating Layer inception_3a/3x3_reduce
I0403 18:05:11.183610 21300 net.cpp:425] inception_3a/3x3_reduce <- pool2/3x3_s2_pool2/3x3_s2_0_split_1
I0403 18:05:11.183627 21300 net.cpp:399] inception_3a/3x3_reduce -> inception_3a/3x3_reduce
I0403 18:05:11.185225 21300 net.cpp:141] Setting up inception_3a/3x3_reduce
I0403 18:05:11.185252 21300 net.cpp:148] Top shape: 24 96 28 28 (1806336)
I0403 18:05:11.185266 21300 net.cpp:156] Memory required for data: 508183584
I0403 18:05:11.185286 21300 layer_factory.hpp:77] Creating layer inception_3a/relu_3x3_reduce
I0403 18:05:11.185322 21300 net.cpp:91] Creating Layer inception_3a/relu_3x3_reduce
I0403 18:05:11.185338 21300 net.cpp:425] inception_3a/relu_3x3_reduce <- inception_3a/3x3_reduce
I0403 18:05:11.185358 21300 net.cpp:386] inception_3a/relu_3x3_reduce -> inception_3a/3x3_reduce (in-place)
I0403 18:05:11.185528 21300 net.cpp:141] Setting up inception_3a/relu_3x3_reduce
I0403 18:05:11.185555 21300 net.cpp:148] Top shape: 24 96 28 28 (1806336)
I0403 18:05:11.185570 21300 net.cpp:156] Memory required for data: 515408928
I0403 18:05:11.185582 21300 layer_factory.hpp:77] Creating layer inception_3a/3x3
I0403 18:05:11.185603 21300 net.cpp:91] Creating Layer inception_3a/3x3
I0403 18:05:11.185619 21300 net.cpp:425] inception_3a/3x3 <- inception_3a/3x3_reduce
I0403 18:05:11.185641 21300 net.cpp:399] inception_3a/3x3 -> inception_3a/3x3
I0403 18:05:11.187216 21300 net.cpp:141] Setting up inception_3a/3x3
I0403 18:05:11.187245 21300 net.cpp:148] Top shape: 24 128 28 28 (2408448)
I0403 18:05:11.187260 21300 net.cpp:156] Memory required for data: 525042720
I0403 18:05:11.187278 21300 layer_factory.hpp:77] Creating layer inception_3a/relu_3x3
I0403 18:05:11.187294 21300 net.cpp:91] Creating Layer inception_3a/relu_3x3
I0403 18:05:11.187309 21300 net.cpp:425] inception_3a/relu_3x3 <- inception_3a/3x3
I0403 18:05:11.187325 21300 net.cpp:386] inception_3a/relu_3x3 -> inception_3a/3x3 (in-place)
I0403 18:05:11.187597 21300 net.cpp:141] Setting up inception_3a/relu_3x3
I0403 18:05:11.187623 21300 net.cpp:148] Top shape: 24 128 28 28 (2408448)
I0403 18:05:11.187638 21300 net.cpp:156] Memory required for data: 534676512
I0403 18:05:11.187651 21300 layer_factory.hpp:77] Creating layer inception_3a/5x5_reduce
I0403 18:05:11.187672 21300 net.cpp:91] Creating Layer inception_3a/5x5_reduce
I0403 18:05:11.187690 21300 net.cpp:425] inception_3a/5x5_reduce <- pool2/3x3_s2_pool2/3x3_s2_0_split_2
I0403 18:05:11.187706 21300 net.cpp:399] inception_3a/5x5_reduce -> inception_3a/5x5_reduce
I0403 18:05:11.188616 21300 net.cpp:141] Setting up inception_3a/5x5_reduce
I0403 18:05:11.188644 21300 net.cpp:148] Top shape: 24 16 28 28 (301056)
I0403 18:05:11.188658 21300 net.cpp:156] Memory required for data: 535880736
I0403 18:05:11.188676 21300 layer_factory.hpp:77] Creating layer inception_3a/relu_5x5_reduce
I0403 18:05:11.188693 21300 net.cpp:91] Creating Layer inception_3a/relu_5x5_reduce
I0403 18:05:11.188706 21300 net.cpp:425] inception_3a/relu_5x5_reduce <- inception_3a/5x5_reduce
I0403 18:05:11.188724 21300 net.cpp:386] inception_3a/relu_5x5_reduce -> inception_3a/5x5_reduce (in-place)
I0403 18:05:11.189007 21300 net.cpp:141] Setting up inception_3a/relu_5x5_reduce
I0403 18:05:11.189030 21300 net.cpp:148] Top shape: 24 16 28 28 (301056)
I0403 18:05:11.189044 21300 net.cpp:156] Memory required for data: 537084960
I0403 18:05:11.189057 21300 layer_factory.hpp:77] Creating layer inception_3a/5x5
I0403 18:05:11.189079 21300 net.cpp:91] Creating Layer inception_3a/5x5
I0403 18:05:11.189095 21300 net.cpp:425] inception_3a/5x5 <- inception_3a/5x5_reduce
I0403 18:05:11.189115 21300 net.cpp:399] inception_3a/5x5 -> inception_3a/5x5
I0403 18:05:11.190070 21300 net.cpp:141] Setting up inception_3a/5x5
I0403 18:05:11.190099 21300 net.cpp:148] Top shape: 24 32 28 28 (602112)
I0403 18:05:11.190114 21300 net.cpp:156] Memory required for data: 539493408
I0403 18:05:11.190131 21300 layer_factory.hpp:77] Creating layer inception_3a/relu_5x5
I0403 18:05:11.190148 21300 net.cpp:91] Creating Layer inception_3a/relu_5x5
I0403 18:05:11.190162 21300 net.cpp:425] inception_3a/relu_5x5 <- inception_3a/5x5
I0403 18:05:11.190178 21300 net.cpp:386] inception_3a/relu_5x5 -> inception_3a/5x5 (in-place)
I0403 18:05:11.190342 21300 net.cpp:141] Setting up inception_3a/relu_5x5
I0403 18:05:11.190367 21300 net.cpp:148] Top shape: 24 32 28 28 (602112)
I0403 18:05:11.190382 21300 net.cpp:156] Memory required for data: 541901856
I0403 18:05:11.190395 21300 layer_factory.hpp:77] Creating layer inception_3a/pool
I0403 18:05:11.190412 21300 net.cpp:91] Creating Layer inception_3a/pool
I0403 18:05:11.190440 21300 net.cpp:425] inception_3a/pool <- pool2/3x3_s2_pool2/3x3_s2_0_split_3
I0403 18:05:11.190460 21300 net.cpp:399] inception_3a/pool -> inception_3a/pool
I0403 18:05:11.190515 21300 net.cpp:141] Setting up inception_3a/pool
I0403 18:05:11.190541 21300 net.cpp:148] Top shape: 24 192 28 28 (3612672)
I0403 18:05:11.190557 21300 net.cpp:156] Memory required for data: 556352544
I0403 18:05:11.190570 21300 layer_factory.hpp:77] Creating layer inception_3a/pool_proj
I0403 18:05:11.190588 21300 net.cpp:91] Creating Layer inception_3a/pool_proj
I0403 18:05:11.190603 21300 net.cpp:425] inception_3a/pool_proj <- inception_3a/pool
I0403 18:05:11.190623 21300 net.cpp:399] inception_3a/pool_proj -> inception_3a/pool_proj
I0403 18:05:11.191570 21300 net.cpp:141] Setting up inception_3a/pool_proj
I0403 18:05:11.191596 21300 net.cpp:148] Top shape: 24 32 28 28 (602112)
I0403 18:05:11.191611 21300 net.cpp:156] Memory required for data: 558760992
I0403 18:05:11.191633 21300 layer_factory.hpp:77] Creating layer inception_3a/relu_pool_proj
I0403 18:05:11.191653 21300 net.cpp:91] Creating Layer inception_3a/relu_pool_proj
I0403 18:05:11.191668 21300 net.cpp:425] inception_3a/relu_pool_proj <- inception_3a/pool_proj
I0403 18:05:11.191684 21300 net.cpp:386] inception_3a/relu_pool_proj -> inception_3a/pool_proj (in-place)
I0403 18:05:11.191946 21300 net.cpp:141] Setting up inception_3a/relu_pool_proj
I0403 18:05:11.191973 21300 net.cpp:148] Top shape: 24 32 28 28 (602112)
I0403 18:05:11.191988 21300 net.cpp:156] Memory required for data: 561169440
I0403 18:05:11.192001 21300 layer_factory.hpp:77] Creating layer inception_3a/output
I0403 18:05:11.192018 21300 net.cpp:91] Creating Layer inception_3a/output
I0403 18:05:11.192034 21300 net.cpp:425] inception_3a/output <- inception_3a/1x1
I0403 18:05:11.192049 21300 net.cpp:425] inception_3a/output <- inception_3a/3x3
I0403 18:05:11.192065 21300 net.cpp:425] inception_3a/output <- inception_3a/5x5
I0403 18:05:11.192078 21300 net.cpp:425] inception_3a/output <- inception_3a/pool_proj
I0403 18:05:11.192095 21300 net.cpp:399] inception_3a/output -> inception_3a/output
I0403 18:05:11.192137 21300 net.cpp:141] Setting up inception_3a/output
I0403 18:05:11.192159 21300 net.cpp:148] Top shape: 24 256 28 28 (4816896)
I0403 18:05:11.192174 21300 net.cpp:156] Memory required for data: 580437024
I0403 18:05:11.192188 21300 layer_factory.hpp:77] Creating layer inception_3a/output_inception_3a/output_0_split
I0403 18:05:11.192204 21300 net.cpp:91] Creating Layer inception_3a/output_inception_3a/output_0_split
I0403 18:05:11.192219 21300 net.cpp:425] inception_3a/output_inception_3a/output_0_split <- inception_3a/output
I0403 18:05:11.192235 21300 net.cpp:399] inception_3a/output_inception_3a/output_0_split -> inception_3a/output_inception_3a/output_0_split_0
I0403 18:05:11.192253 21300 net.cpp:399] inception_3a/output_inception_3a/output_0_split -> inception_3a/output_inception_3a/output_0_split_1
I0403 18:05:11.192276 21300 net.cpp:399] inception_3a/output_inception_3a/output_0_split -> inception_3a/output_inception_3a/output_0_split_2
I0403 18:05:11.192297 21300 net.cpp:399] inception_3a/output_inception_3a/output_0_split -> inception_3a/output_inception_3a/output_0_split_3
I0403 18:05:11.192366 21300 net.cpp:141] Setting up inception_3a/output_inception_3a/output_0_split
I0403 18:05:11.192387 21300 net.cpp:148] Top shape: 24 256 28 28 (4816896)
I0403 18:05:11.192402 21300 net.cpp:148] Top shape: 24 256 28 28 (4816896)
I0403 18:05:11.192417 21300 net.cpp:148] Top shape: 24 256 28 28 (4816896)
I0403 18:05:11.192430 21300 net.cpp:148] Top shape: 24 256 28 28 (4816896)
I0403 18:05:11.192443 21300 net.cpp:156] Memory required for data: 657507360
I0403 18:05:11.192456 21300 layer_factory.hpp:77] Creating layer inception_3b/1x1
I0403 18:05:11.192478 21300 net.cpp:91] Creating Layer inception_3b/1x1
I0403 18:05:11.192494 21300 net.cpp:425] inception_3b/1x1 <- inception_3a/output_inception_3a/output_0_split_0
I0403 18:05:11.192519 21300 net.cpp:399] inception_3b/1x1 -> inception_3b/1x1
I0403 18:05:11.193636 21300 net.cpp:141] Setting up inception_3b/1x1
I0403 18:05:11.193675 21300 net.cpp:148] Top shape: 24 128 28 28 (2408448)
I0403 18:05:11.193691 21300 net.cpp:156] Memory required for data: 667141152
I0403 18:05:11.193707 21300 layer_factory.hpp:77] Creating layer inception_3b/relu_1x1
I0403 18:05:11.193727 21300 net.cpp:91] Creating Layer inception_3b/relu_1x1
I0403 18:05:11.193743 21300 net.cpp:425] inception_3b/relu_1x1 <- inception_3b/1x1
I0403 18:05:11.193760 21300 net.cpp:386] inception_3b/relu_1x1 -> inception_3b/1x1 (in-place)
I0403 18:05:11.193935 21300 net.cpp:141] Setting up inception_3b/relu_1x1
I0403 18:05:11.193961 21300 net.cpp:148] Top shape: 24 128 28 28 (2408448)
I0403 18:05:11.193976 21300 net.cpp:156] Memory required for data: 676774944
I0403 18:05:11.193990 21300 layer_factory.hpp:77] Creating layer inception_3b/3x3_reduce
I0403 18:05:11.194011 21300 net.cpp:91] Creating Layer inception_3b/3x3_reduce
I0403 18:05:11.194028 21300 net.cpp:425] inception_3b/3x3_reduce <- inception_3a/output_inception_3a/output_0_split_1
I0403 18:05:11.194046 21300 net.cpp:399] inception_3b/3x3_reduce -> inception_3b/3x3_reduce
I0403 18:05:11.195150 21300 net.cpp:141] Setting up inception_3b/3x3_reduce
I0403 18:05:11.195176 21300 net.cpp:148] Top shape: 24 128 28 28 (2408448)
I0403 18:05:11.195191 21300 net.cpp:156] Memory required for data: 686408736
I0403 18:05:11.195209 21300 layer_factory.hpp:77] Creating layer inception_3b/relu_3x3_reduce
I0403 18:05:11.195228 21300 net.cpp:91] Creating Layer inception_3b/relu_3x3_reduce
I0403 18:05:11.195245 21300 net.cpp:425] inception_3b/relu_3x3_reduce <- inception_3b/3x3_reduce
I0403 18:05:11.195262 21300 net.cpp:386] inception_3b/relu_3x3_reduce -> inception_3b/3x3_reduce (in-place)
I0403 18:05:11.195427 21300 net.cpp:141] Setting up inception_3b/relu_3x3_reduce
I0403 18:05:11.195454 21300 net.cpp:148] Top shape: 24 128 28 28 (2408448)
I0403 18:05:11.195469 21300 net.cpp:156] Memory required for data: 696042528
I0403 18:05:11.195482 21300 layer_factory.hpp:77] Creating layer inception_3b/3x3
I0403 18:05:11.195505 21300 net.cpp:91] Creating Layer inception_3b/3x3
I0403 18:05:11.195523 21300 net.cpp:425] inception_3b/3x3 <- inception_3b/3x3_reduce
I0403 18:05:11.195546 21300 net.cpp:399] inception_3b/3x3 -> inception_3b/3x3
I0403 18:05:11.198395 21300 net.cpp:141] Setting up inception_3b/3x3
I0403 18:05:11.198426 21300 net.cpp:148] Top shape: 24 192 28 28 (3612672)
I0403 18:05:11.198441 21300 net.cpp:156] Memory required for data: 710493216
I0403 18:05:11.198458 21300 layer_factory.hpp:77] Creating layer inception_3b/relu_3x3
I0403 18:05:11.198477 21300 net.cpp:91] Creating Layer inception_3b/relu_3x3
I0403 18:05:11.198492 21300 net.cpp:425] inception_3b/relu_3x3 <- inception_3b/3x3
I0403 18:05:11.198506 21300 net.cpp:386] inception_3b/relu_3x3 -> inception_3b/3x3 (in-place)
I0403 18:05:11.198776 21300 net.cpp:141] Setting up inception_3b/relu_3x3
I0403 18:05:11.198803 21300 net.cpp:148] Top shape: 24 192 28 28 (3612672)
I0403 18:05:11.198819 21300 net.cpp:156] Memory required for data: 724943904
I0403 18:05:11.198833 21300 layer_factory.hpp:77] Creating layer inception_3b/5x5_reduce
I0403 18:05:11.198855 21300 net.cpp:91] Creating Layer inception_3b/5x5_reduce
I0403 18:05:11.198873 21300 net.cpp:425] inception_3b/5x5_reduce <- inception_3a/output_inception_3a/output_0_split_2
I0403 18:05:11.198890 21300 net.cpp:399] inception_3b/5x5_reduce -> inception_3b/5x5_reduce
I0403 18:05:11.199849 21300 net.cpp:141] Setting up inception_3b/5x5_reduce
I0403 18:05:11.199878 21300 net.cpp:148] Top shape: 24 32 28 28 (602112)
I0403 18:05:11.199894 21300 net.cpp:156] Memory required for data: 727352352
I0403 18:05:11.199913 21300 layer_factory.hpp:77] Creating layer inception_3b/relu_5x5_reduce
I0403 18:05:11.199929 21300 net.cpp:91] Creating Layer inception_3b/relu_5x5_reduce
I0403 18:05:11.199944 21300 net.cpp:425] inception_3b/relu_5x5_reduce <- inception_3b/5x5_reduce
I0403 18:05:11.199960 21300 net.cpp:386] inception_3b/relu_5x5_reduce -> inception_3b/5x5_reduce (in-place)
I0403 18:05:11.200145 21300 net.cpp:141] Setting up inception_3b/relu_5x5_reduce
I0403 18:05:11.200170 21300 net.cpp:148] Top shape: 24 32 28 28 (602112)
I0403 18:05:11.200186 21300 net.cpp:156] Memory required for data: 729760800
I0403 18:05:11.200201 21300 layer_factory.hpp:77] Creating layer inception_3b/5x5
I0403 18:05:11.200222 21300 net.cpp:91] Creating Layer inception_3b/5x5
I0403 18:05:11.200238 21300 net.cpp:425] inception_3b/5x5 <- inception_3b/5x5_reduce
I0403 18:05:11.200258 21300 net.cpp:399] inception_3b/5x5 -> inception_3b/5x5
I0403 18:05:11.202210 21300 net.cpp:141] Setting up inception_3b/5x5
I0403 18:05:11.202237 21300 net.cpp:148] Top shape: 24 96 28 28 (1806336)
I0403 18:05:11.202252 21300 net.cpp:156] Memory required for data: 736986144
I0403 18:05:11.202270 21300 layer_factory.hpp:77] Creating layer inception_3b/relu_5x5
I0403 18:05:11.202288 21300 net.cpp:91] Creating Layer inception_3b/relu_5x5
I0403 18:05:11.202304 21300 net.cpp:425] inception_3b/relu_5x5 <- inception_3b/5x5
I0403 18:05:11.202322 21300 net.cpp:386] inception_3b/relu_5x5 -> inception_3b/5x5 (in-place)
I0403 18:05:11.202507 21300 net.cpp:141] Setting up inception_3b/relu_5x5
I0403 18:05:11.202532 21300 net.cpp:148] Top shape: 24 96 28 28 (1806336)
I0403 18:05:11.202551 21300 net.cpp:156] Memory required for data: 744211488
I0403 18:05:11.202565 21300 layer_factory.hpp:77] Creating layer inception_3b/pool
I0403 18:05:11.202582 21300 net.cpp:91] Creating Layer inception_3b/pool
I0403 18:05:11.202599 21300 net.cpp:425] inception_3b/pool <- inception_3a/output_inception_3a/output_0_split_3
I0403 18:05:11.202615 21300 net.cpp:399] inception_3b/pool -> inception_3b/pool
I0403 18:05:11.202669 21300 net.cpp:141] Setting up inception_3b/pool
I0403 18:05:11.202692 21300 net.cpp:148] Top shape: 24 256 28 28 (4816896)
I0403 18:05:11.202705 21300 net.cpp:156] Memory required for data: 763479072
I0403 18:05:11.202719 21300 layer_factory.hpp:77] Creating layer inception_3b/pool_proj
I0403 18:05:11.202739 21300 net.cpp:91] Creating Layer inception_3b/pool_proj
I0403 18:05:11.202756 21300 net.cpp:425] inception_3b/pool_proj <- inception_3b/pool
I0403 18:05:11.202775 21300 net.cpp:399] inception_3b/pool_proj -> inception_3b/pool_proj
I0403 18:05:11.203804 21300 net.cpp:141] Setting up inception_3b/pool_proj
I0403 18:05:11.203830 21300 net.cpp:148] Top shape: 24 64 28 28 (1204224)
I0403 18:05:11.203845 21300 net.cpp:156] Memory required for data: 768295968
I0403 18:05:11.203861 21300 layer_factory.hpp:77] Creating layer inception_3b/relu_pool_proj
I0403 18:05:11.203878 21300 net.cpp:91] Creating Layer inception_3b/relu_pool_proj
I0403 18:05:11.203893 21300 net.cpp:425] inception_3b/relu_pool_proj <- inception_3b/pool_proj
I0403 18:05:11.203915 21300 net.cpp:386] inception_3b/relu_pool_proj -> inception_3b/pool_proj (in-place)
I0403 18:05:11.204300 21300 net.cpp:141] Setting up inception_3b/relu_pool_proj
I0403 18:05:11.204325 21300 net.cpp:148] Top shape: 24 64 28 28 (1204224)
I0403 18:05:11.204340 21300 net.cpp:156] Memory required for data: 773112864
I0403 18:05:11.204355 21300 layer_factory.hpp:77] Creating layer inception_3b/output
I0403 18:05:11.204370 21300 net.cpp:91] Creating Layer inception_3b/output
I0403 18:05:11.204385 21300 net.cpp:425] inception_3b/output <- inception_3b/1x1
I0403 18:05:11.204401 21300 net.cpp:425] inception_3b/output <- inception_3b/3x3
I0403 18:05:11.204416 21300 net.cpp:425] inception_3b/output <- inception_3b/5x5
I0403 18:05:11.204430 21300 net.cpp:425] inception_3b/output <- inception_3b/pool_proj
I0403 18:05:11.204448 21300 net.cpp:399] inception_3b/output -> inception_3b/output
I0403 18:05:11.204489 21300 net.cpp:141] Setting up inception_3b/output
I0403 18:05:11.204512 21300 net.cpp:148] Top shape: 24 480 28 28 (9031680)
I0403 18:05:11.204529 21300 net.cpp:156] Memory required for data: 809239584
I0403 18:05:11.204555 21300 layer_factory.hpp:77] Creating layer pool3/3x3_s2
I0403 18:05:11.204572 21300 net.cpp:91] Creating Layer pool3/3x3_s2
I0403 18:05:11.204588 21300 net.cpp:425] pool3/3x3_s2 <- inception_3b/output
I0403 18:05:11.204619 21300 net.cpp:399] pool3/3x3_s2 -> pool3/3x3_s2
I0403 18:05:11.204679 21300 net.cpp:141] Setting up pool3/3x3_s2
I0403 18:05:11.204700 21300 net.cpp:148] Top shape: 24 480 14 14 (2257920)
I0403 18:05:11.204713 21300 net.cpp:156] Memory required for data: 818271264
I0403 18:05:11.204726 21300 layer_factory.hpp:77] Creating layer pool3/3x3_s2_pool3/3x3_s2_0_split
I0403 18:05:11.204742 21300 net.cpp:91] Creating Layer pool3/3x3_s2_pool3/3x3_s2_0_split
I0403 18:05:11.204756 21300 net.cpp:425] pool3/3x3_s2_pool3/3x3_s2_0_split <- pool3/3x3_s2
I0403 18:05:11.204774 21300 net.cpp:399] pool3/3x3_s2_pool3/3x3_s2_0_split -> pool3/3x3_s2_pool3/3x3_s2_0_split_0
I0403 18:05:11.204793 21300 net.cpp:399] pool3/3x3_s2_pool3/3x3_s2_0_split -> pool3/3x3_s2_pool3/3x3_s2_0_split_1
I0403 18:05:11.204813 21300 net.cpp:399] pool3/3x3_s2_pool3/3x3_s2_0_split -> pool3/3x3_s2_pool3/3x3_s2_0_split_2
I0403 18:05:11.204830 21300 net.cpp:399] pool3/3x3_s2_pool3/3x3_s2_0_split -> pool3/3x3_s2_pool3/3x3_s2_0_split_3
I0403 18:05:11.204905 21300 net.cpp:141] Setting up pool3/3x3_s2_pool3/3x3_s2_0_split
I0403 18:05:11.204927 21300 net.cpp:148] Top shape: 24 480 14 14 (2257920)
I0403 18:05:11.204942 21300 net.cpp:148] Top shape: 24 480 14 14 (2257920)
I0403 18:05:11.204957 21300 net.cpp:148] Top shape: 24 480 14 14 (2257920)
I0403 18:05:11.204972 21300 net.cpp:148] Top shape: 24 480 14 14 (2257920)
I0403 18:05:11.204983 21300 net.cpp:156] Memory required for data: 854397984
I0403 18:05:11.204998 21300 layer_factory.hpp:77] Creating layer inception_4a/1x1
I0403 18:05:11.205018 21300 net.cpp:91] Creating Layer inception_4a/1x1
I0403 18:05:11.205034 21300 net.cpp:425] inception_4a/1x1 <- pool3/3x3_s2_pool3/3x3_s2_0_split_0
I0403 18:05:11.205054 21300 net.cpp:399] inception_4a/1x1 -> inception_4a/1x1
I0403 18:05:11.206605 21300 net.cpp:141] Setting up inception_4a/1x1
I0403 18:05:11.206631 21300 net.cpp:148] Top shape: 24 192 14 14 (903168)
I0403 18:05:11.206646 21300 net.cpp:156] Memory required for data: 858010656
I0403 18:05:11.206663 21300 layer_factory.hpp:77] Creating layer inception_4a/relu_1x1
I0403 18:05:11.206682 21300 net.cpp:91] Creating Layer inception_4a/relu_1x1
I0403 18:05:11.206699 21300 net.cpp:425] inception_4a/relu_1x1 <- inception_4a/1x1
I0403 18:05:11.206717 21300 net.cpp:386] inception_4a/relu_1x1 -> inception_4a/1x1 (in-place)
I0403 18:05:11.206887 21300 net.cpp:141] Setting up inception_4a/relu_1x1
I0403 18:05:11.206909 21300 net.cpp:148] Top shape: 24 192 14 14 (903168)
I0403 18:05:11.206923 21300 net.cpp:156] Memory required for data: 861623328
I0403 18:05:11.206938 21300 layer_factory.hpp:77] Creating layer inception_4a/3x3_reduce
I0403 18:05:11.206959 21300 net.cpp:91] Creating Layer inception_4a/3x3_reduce
I0403 18:05:11.206979 21300 net.cpp:425] inception_4a/3x3_reduce <- pool3/3x3_s2_pool3/3x3_s2_0_split_1
I0403 18:05:11.206997 21300 net.cpp:399] inception_4a/3x3_reduce -> inception_4a/3x3_reduce
I0403 18:05:11.208225 21300 net.cpp:141] Setting up inception_4a/3x3_reduce
I0403 18:05:11.208251 21300 net.cpp:148] Top shape: 24 96 14 14 (451584)
I0403 18:05:11.208266 21300 net.cpp:156] Memory required for data: 863429664
I0403 18:05:11.208290 21300 layer_factory.hpp:77] Creating layer inception_4a/relu_3x3_reduce
I0403 18:05:11.208309 21300 net.cpp:91] Creating Layer inception_4a/relu_3x3_reduce
I0403 18:05:11.208324 21300 net.cpp:425] inception_4a/relu_3x3_reduce <- inception_4a/3x3_reduce
I0403 18:05:11.208343 21300 net.cpp:386] inception_4a/relu_3x3_reduce -> inception_4a/3x3_reduce (in-place)
I0403 18:05:11.208513 21300 net.cpp:141] Setting up inception_4a/relu_3x3_reduce
I0403 18:05:11.208540 21300 net.cpp:148] Top shape: 24 96 14 14 (451584)
I0403 18:05:11.208556 21300 net.cpp:156] Memory required for data: 865236000
I0403 18:05:11.208570 21300 layer_factory.hpp:77] Creating layer inception_4a/3x3
I0403 18:05:11.208591 21300 net.cpp:91] Creating Layer inception_4a/3x3
I0403 18:05:11.208607 21300 net.cpp:425] inception_4a/3x3 <- inception_4a/3x3_reduce
I0403 18:05:11.208627 21300 net.cpp:399] inception_4a/3x3 -> inception_4a/3x3
I0403 18:05:11.211254 21300 net.cpp:141] Setting up inception_4a/3x3
I0403 18:05:11.211294 21300 net.cpp:148] Top shape: 24 208 14 14 (978432)
I0403 18:05:11.211309 21300 net.cpp:156] Memory required for data: 869149728
I0403 18:05:11.211328 21300 layer_factory.hpp:77] Creating layer inception_4a/relu_3x3
I0403 18:05:11.211346 21300 net.cpp:91] Creating Layer inception_4a/relu_3x3
I0403 18:05:11.211362 21300 net.cpp:425] inception_4a/relu_3x3 <- inception_4a/3x3
I0403 18:05:11.211380 21300 net.cpp:386] inception_4a/relu_3x3 -> inception_4a/3x3 (in-place)
I0403 18:05:11.211663 21300 net.cpp:141] Setting up inception_4a/relu_3x3
I0403 18:05:11.211688 21300 net.cpp:148] Top shape: 24 208 14 14 (978432)
I0403 18:05:11.211702 21300 net.cpp:156] Memory required for data: 873063456
I0403 18:05:11.211716 21300 layer_factory.hpp:77] Creating layer inception_4a/5x5_reduce
I0403 18:05:11.211737 21300 net.cpp:91] Creating Layer inception_4a/5x5_reduce
I0403 18:05:11.211753 21300 net.cpp:425] inception_4a/5x5_reduce <- pool3/3x3_s2_pool3/3x3_s2_0_split_2
I0403 18:05:11.211772 21300 net.cpp:399] inception_4a/5x5_reduce -> inception_4a/5x5_reduce
I0403 18:05:11.212735 21300 net.cpp:141] Setting up inception_4a/5x5_reduce
I0403 18:05:11.212760 21300 net.cpp:148] Top shape: 24 16 14 14 (75264)
I0403 18:05:11.212779 21300 net.cpp:156] Memory required for data: 873364512
I0403 18:05:11.212796 21300 layer_factory.hpp:77] Creating layer inception_4a/relu_5x5_reduce
I0403 18:05:11.212813 21300 net.cpp:91] Creating Layer inception_4a/relu_5x5_reduce
I0403 18:05:11.212828 21300 net.cpp:425] inception_4a/relu_5x5_reduce <- inception_4a/5x5_reduce
I0403 18:05:11.212843 21300 net.cpp:386] inception_4a/relu_5x5_reduce -> inception_4a/5x5_reduce (in-place)
I0403 18:05:11.213011 21300 net.cpp:141] Setting up inception_4a/relu_5x5_reduce
I0403 18:05:11.213037 21300 net.cpp:148] Top shape: 24 16 14 14 (75264)
I0403 18:05:11.213052 21300 net.cpp:156] Memory required for data: 873665568
I0403 18:05:11.213064 21300 layer_factory.hpp:77] Creating layer inception_4a/5x5
I0403 18:05:11.213085 21300 net.cpp:91] Creating Layer inception_4a/5x5
I0403 18:05:11.213102 21300 net.cpp:425] inception_4a/5x5 <- inception_4a/5x5_reduce
I0403 18:05:11.213120 21300 net.cpp:399] inception_4a/5x5 -> inception_4a/5x5
I0403 18:05:11.214139 21300 net.cpp:141] Setting up inception_4a/5x5
I0403 18:05:11.214164 21300 net.cpp:148] Top shape: 24 48 14 14 (225792)
I0403 18:05:11.214179 21300 net.cpp:156] Memory required for data: 874568736
I0403 18:05:11.214195 21300 layer_factory.hpp:77] Creating layer inception_4a/relu_5x5
I0403 18:05:11.214211 21300 net.cpp:91] Creating Layer inception_4a/relu_5x5
I0403 18:05:11.214226 21300 net.cpp:425] inception_4a/relu_5x5 <- inception_4a/5x5
I0403 18:05:11.214257 21300 net.cpp:386] inception_4a/relu_5x5 -> inception_4a/5x5 (in-place)
I0403 18:05:11.214432 21300 net.cpp:141] Setting up inception_4a/relu_5x5
I0403 18:05:11.214455 21300 net.cpp:148] Top shape: 24 48 14 14 (225792)
I0403 18:05:11.214469 21300 net.cpp:156] Memory required for data: 875471904
I0403 18:05:11.214483 21300 layer_factory.hpp:77] Creating layer inception_4a/pool
I0403 18:05:11.214503 21300 net.cpp:91] Creating Layer inception_4a/pool
I0403 18:05:11.214519 21300 net.cpp:425] inception_4a/pool <- pool3/3x3_s2_pool3/3x3_s2_0_split_3
I0403 18:05:11.214557 21300 net.cpp:399] inception_4a/pool -> inception_4a/pool
I0403 18:05:11.214619 21300 net.cpp:141] Setting up inception_4a/pool
I0403 18:05:11.214642 21300 net.cpp:148] Top shape: 24 480 14 14 (2257920)
I0403 18:05:11.214654 21300 net.cpp:156] Memory required for data: 884503584
I0403 18:05:11.214668 21300 layer_factory.hpp:77] Creating layer inception_4a/pool_proj
I0403 18:05:11.214689 21300 net.cpp:91] Creating Layer inception_4a/pool_proj
I0403 18:05:11.214704 21300 net.cpp:425] inception_4a/pool_proj <- inception_4a/pool
I0403 18:05:11.214723 21300 net.cpp:399] inception_4a/pool_proj -> inception_4a/pool_proj
I0403 18:05:11.215816 21300 net.cpp:141] Setting up inception_4a/pool_proj
I0403 18:05:11.215843 21300 net.cpp:148] Top shape: 24 64 14 14 (301056)
I0403 18:05:11.215873 21300 net.cpp:156] Memory required for data: 885707808
I0403 18:05:11.215889 21300 layer_factory.hpp:77] Creating layer inception_4a/relu_pool_proj
I0403 18:05:11.215906 21300 net.cpp:91] Creating Layer inception_4a/relu_pool_proj
I0403 18:05:11.215921 21300 net.cpp:425] inception_4a/relu_pool_proj <- inception_4a/pool_proj
I0403 18:05:11.215941 21300 net.cpp:386] inception_4a/relu_pool_proj -> inception_4a/pool_proj (in-place)
I0403 18:05:11.216215 21300 net.cpp:141] Setting up inception_4a/relu_pool_proj
I0403 18:05:11.216240 21300 net.cpp:148] Top shape: 24 64 14 14 (301056)
I0403 18:05:11.216253 21300 net.cpp:156] Memory required for data: 886912032
I0403 18:05:11.216279 21300 layer_factory.hpp:77] Creating layer inception_4a/output
I0403 18:05:11.216297 21300 net.cpp:91] Creating Layer inception_4a/output
I0403 18:05:11.216311 21300 net.cpp:425] inception_4a/output <- inception_4a/1x1
I0403 18:05:11.216326 21300 net.cpp:425] inception_4a/output <- inception_4a/3x3
I0403 18:05:11.216341 21300 net.cpp:425] inception_4a/output <- inception_4a/5x5
I0403 18:05:11.216356 21300 net.cpp:425] inception_4a/output <- inception_4a/pool_proj
I0403 18:05:11.216374 21300 net.cpp:399] inception_4a/output -> inception_4a/output
I0403 18:05:11.216416 21300 net.cpp:141] Setting up inception_4a/output
I0403 18:05:11.216441 21300 net.cpp:148] Top shape: 24 512 14 14 (2408448)
I0403 18:05:11.216455 21300 net.cpp:156] Memory required for data: 896545824
I0403 18:05:11.216470 21300 layer_factory.hpp:77] Creating layer inception_4a/output_inception_4a/output_0_split
I0403 18:05:11.216486 21300 net.cpp:91] Creating Layer inception_4a/output_inception_4a/output_0_split
I0403 18:05:11.216500 21300 net.cpp:425] inception_4a/output_inception_4a/output_0_split <- inception_4a/output
I0403 18:05:11.216518 21300 net.cpp:399] inception_4a/output_inception_4a/output_0_split -> inception_4a/output_inception_4a/output_0_split_0
I0403 18:05:11.216543 21300 net.cpp:399] inception_4a/output_inception_4a/output_0_split -> inception_4a/output_inception_4a/output_0_split_1
I0403 18:05:11.216577 21300 net.cpp:399] inception_4a/output_inception_4a/output_0_split -> inception_4a/output_inception_4a/output_0_split_2
I0403 18:05:11.216594 21300 net.cpp:399] inception_4a/output_inception_4a/output_0_split -> inception_4a/output_inception_4a/output_0_split_3
I0403 18:05:11.216614 21300 net.cpp:399] inception_4a/output_inception_4a/output_0_split -> inception_4a/output_inception_4a/output_0_split_4
I0403 18:05:11.216701 21300 net.cpp:141] Setting up inception_4a/output_inception_4a/output_0_split
I0403 18:05:11.216723 21300 net.cpp:148] Top shape: 24 512 14 14 (2408448)
I0403 18:05:11.216739 21300 net.cpp:148] Top shape: 24 512 14 14 (2408448)
I0403 18:05:11.216754 21300 net.cpp:148] Top shape: 24 512 14 14 (2408448)
I0403 18:05:11.216768 21300 net.cpp:148] Top shape: 24 512 14 14 (2408448)
I0403 18:05:11.216781 21300 net.cpp:148] Top shape: 24 512 14 14 (2408448)
I0403 18:05:11.216794 21300 net.cpp:156] Memory required for data: 944714784
I0403 18:05:11.216806 21300 layer_factory.hpp:77] Creating layer loss1/ave_pool
I0403 18:05:11.216822 21300 net.cpp:91] Creating Layer loss1/ave_pool
I0403 18:05:11.216836 21300 net.cpp:425] loss1/ave_pool <- inception_4a/output_inception_4a/output_0_split_0
I0403 18:05:11.216851 21300 net.cpp:399] loss1/ave_pool -> loss1/ave_pool
I0403 18:05:11.217042 21300 net.cpp:141] Setting up loss1/ave_pool
I0403 18:05:11.217067 21300 net.cpp:148] Top shape: 24 512 4 4 (196608)
I0403 18:05:11.217080 21300 net.cpp:156] Memory required for data: 945501216
I0403 18:05:11.217093 21300 layer_factory.hpp:77] Creating layer loss1/conv
I0403 18:05:11.217118 21300 net.cpp:91] Creating Layer loss1/conv
I0403 18:05:11.217133 21300 net.cpp:425] loss1/conv <- loss1/ave_pool
I0403 18:05:11.217152 21300 net.cpp:399] loss1/conv -> loss1/conv
I0403 18:05:11.218477 21300 net.cpp:141] Setting up loss1/conv
I0403 18:05:11.218502 21300 net.cpp:148] Top shape: 24 128 4 4 (49152)
I0403 18:05:11.218530 21300 net.cpp:156] Memory required for data: 945697824
I0403 18:05:11.218554 21300 layer_factory.hpp:77] Creating layer loss1/relu_conv
I0403 18:05:11.218574 21300 net.cpp:91] Creating Layer loss1/relu_conv
I0403 18:05:11.218588 21300 net.cpp:425] loss1/relu_conv <- loss1/conv
I0403 18:05:11.218605 21300 net.cpp:386] loss1/relu_conv -> loss1/conv (in-place)
I0403 18:05:11.218870 21300 net.cpp:141] Setting up loss1/relu_conv
I0403 18:05:11.218895 21300 net.cpp:148] Top shape: 24 128 4 4 (49152)
I0403 18:05:11.218909 21300 net.cpp:156] Memory required for data: 945894432
I0403 18:05:11.218924 21300 layer_factory.hpp:77] Creating layer loss1/fc
I0403 18:05:11.218946 21300 net.cpp:91] Creating Layer loss1/fc
I0403 18:05:11.218963 21300 net.cpp:425] loss1/fc <- loss1/conv
I0403 18:05:11.218982 21300 net.cpp:399] loss1/fc -> loss1/fc
I0403 18:05:11.235847 21300 net.cpp:141] Setting up loss1/fc
I0403 18:05:11.235877 21300 net.cpp:148] Top shape: 24 1024 (24576)
I0403 18:05:11.235893 21300 net.cpp:156] Memory required for data: 945992736
I0403 18:05:11.235908 21300 layer_factory.hpp:77] Creating layer loss1/relu_fc
I0403 18:05:11.235925 21300 net.cpp:91] Creating Layer loss1/relu_fc
I0403 18:05:11.235940 21300 net.cpp:425] loss1/relu_fc <- loss1/fc
I0403 18:05:11.235959 21300 net.cpp:386] loss1/relu_fc -> loss1/fc (in-place)
I0403 18:05:11.236135 21300 net.cpp:141] Setting up loss1/relu_fc
I0403 18:05:11.236158 21300 net.cpp:148] Top shape: 24 1024 (24576)
I0403 18:05:11.236172 21300 net.cpp:156] Memory required for data: 946091040
I0403 18:05:11.236186 21300 layer_factory.hpp:77] Creating layer loss1/drop_fc
I0403 18:05:11.236214 21300 net.cpp:91] Creating Layer loss1/drop_fc
I0403 18:05:11.236232 21300 net.cpp:425] loss1/drop_fc <- loss1/fc
I0403 18:05:11.236248 21300 net.cpp:386] loss1/drop_fc -> loss1/fc (in-place)
I0403 18:05:11.236306 21300 net.cpp:141] Setting up loss1/drop_fc
I0403 18:05:11.236331 21300 net.cpp:148] Top shape: 24 1024 (24576)
I0403 18:05:11.236346 21300 net.cpp:156] Memory required for data: 946189344
I0403 18:05:11.236361 21300 layer_factory.hpp:77] Creating layer loss1/classifier_plantvillage
I0403 18:05:11.236377 21300 net.cpp:91] Creating Layer loss1/classifier_plantvillage
I0403 18:05:11.236392 21300 net.cpp:425] loss1/classifier_plantvillage <- loss1/fc
I0403 18:05:11.236413 21300 net.cpp:399] loss1/classifier_plantvillage -> loss1/classifier_plantvillage
I0403 18:05:11.237290 21300 net.cpp:141] Setting up loss1/classifier_plantvillage
I0403 18:05:11.237316 21300 net.cpp:148] Top shape: 24 38 (912)
I0403 18:05:11.237331 21300 net.cpp:156] Memory required for data: 946192992
I0403 18:05:11.237349 21300 layer_factory.hpp:77] Creating layer loss1/classifier_plantvillage_loss1/classifier_plantvillage_0_split
I0403 18:05:11.237367 21300 net.cpp:91] Creating Layer loss1/classifier_plantvillage_loss1/classifier_plantvillage_0_split
I0403 18:05:11.237382 21300 net.cpp:425] loss1/classifier_plantvillage_loss1/classifier_plantvillage_0_split <- loss1/classifier_plantvillage
I0403 18:05:11.237399 21300 net.cpp:399] loss1/classifier_plantvillage_loss1/classifier_plantvillage_0_split -> loss1/classifier_plantvillage_loss1/classifier_plantvillage_0_split_0
I0403 18:05:11.237417 21300 net.cpp:399] loss1/classifier_plantvillage_loss1/classifier_plantvillage_0_split -> loss1/classifier_plantvillage_loss1/classifier_plantvillage_0_split_1
I0403 18:05:11.237437 21300 net.cpp:399] loss1/classifier_plantvillage_loss1/classifier_plantvillage_0_split -> loss1/classifier_plantvillage_loss1/classifier_plantvillage_0_split_2
I0403 18:05:11.237499 21300 net.cpp:141] Setting up loss1/classifier_plantvillage_loss1/classifier_plantvillage_0_split
I0403 18:05:11.237521 21300 net.cpp:148] Top shape: 24 38 (912)
I0403 18:05:11.237540 21300 net.cpp:148] Top shape: 24 38 (912)
I0403 18:05:11.237555 21300 net.cpp:148] Top shape: 24 38 (912)
I0403 18:05:11.237567 21300 net.cpp:156] Memory required for data: 946203936
I0403 18:05:11.237581 21300 layer_factory.hpp:77] Creating layer inception_4b/1x1
I0403 18:05:11.237598 21300 net.cpp:91] Creating Layer inception_4b/1x1
I0403 18:05:11.237628 21300 net.cpp:425] inception_4b/1x1 <- inception_4a/output_inception_4a/output_0_split_1
I0403 18:05:11.237649 21300 net.cpp:399] inception_4b/1x1 -> inception_4b/1x1
I0403 18:05:11.239222 21300 net.cpp:141] Setting up inception_4b/1x1
I0403 18:05:11.239248 21300 net.cpp:148] Top shape: 24 160 14 14 (752640)
I0403 18:05:11.239265 21300 net.cpp:156] Memory required for data: 949214496
I0403 18:05:11.239282 21300 layer_factory.hpp:77] Creating layer inception_4b/relu_1x1
I0403 18:05:11.239300 21300 net.cpp:91] Creating Layer inception_4b/relu_1x1
I0403 18:05:11.239315 21300 net.cpp:425] inception_4b/relu_1x1 <- inception_4b/1x1
I0403 18:05:11.239331 21300 net.cpp:386] inception_4b/relu_1x1 -> inception_4b/1x1 (in-place)
I0403 18:05:11.239503 21300 net.cpp:141] Setting up inception_4b/relu_1x1
I0403 18:05:11.239531 21300 net.cpp:148] Top shape: 24 160 14 14 (752640)
I0403 18:05:11.239549 21300 net.cpp:156] Memory required for data: 952225056
I0403 18:05:11.239564 21300 layer_factory.hpp:77] Creating layer inception_4b/3x3_reduce
I0403 18:05:11.239585 21300 net.cpp:91] Creating Layer inception_4b/3x3_reduce
I0403 18:05:11.239601 21300 net.cpp:425] inception_4b/3x3_reduce <- inception_4a/output_inception_4a/output_0_split_2
I0403 18:05:11.239619 21300 net.cpp:399] inception_4b/3x3_reduce -> inception_4b/3x3_reduce
I0403 18:05:11.240931 21300 net.cpp:141] Setting up inception_4b/3x3_reduce
I0403 18:05:11.240959 21300 net.cpp:148] Top shape: 24 112 14 14 (526848)
I0403 18:05:11.240975 21300 net.cpp:156] Memory required for data: 954332448
I0403 18:05:11.240993 21300 layer_factory.hpp:77] Creating layer inception_4b/relu_3x3_reduce
I0403 18:05:11.241009 21300 net.cpp:91] Creating Layer inception_4b/relu_3x3_reduce
I0403 18:05:11.241024 21300 net.cpp:425] inception_4b/relu_3x3_reduce <- inception_4b/3x3_reduce
I0403 18:05:11.241044 21300 net.cpp:386] inception_4b/relu_3x3_reduce -> inception_4b/3x3_reduce (in-place)
I0403 18:05:11.241328 21300 net.cpp:141] Setting up inception_4b/relu_3x3_reduce
I0403 18:05:11.241356 21300 net.cpp:148] Top shape: 24 112 14 14 (526848)
I0403 18:05:11.241371 21300 net.cpp:156] Memory required for data: 956439840
I0403 18:05:11.241385 21300 layer_factory.hpp:77] Creating layer inception_4b/3x3
I0403 18:05:11.241407 21300 net.cpp:91] Creating Layer inception_4b/3x3
I0403 18:05:11.241425 21300 net.cpp:425] inception_4b/3x3 <- inception_4b/3x3_reduce
I0403 18:05:11.241442 21300 net.cpp:399] inception_4b/3x3 -> inception_4b/3x3
I0403 18:05:11.244367 21300 net.cpp:141] Setting up inception_4b/3x3
I0403 18:05:11.244395 21300 net.cpp:148] Top shape: 24 224 14 14 (1053696)
I0403 18:05:11.244410 21300 net.cpp:156] Memory required for data: 960654624
I0403 18:05:11.244428 21300 layer_factory.hpp:77] Creating layer inception_4b/relu_3x3
I0403 18:05:11.244448 21300 net.cpp:91] Creating Layer inception_4b/relu_3x3
I0403 18:05:11.244465 21300 net.cpp:425] inception_4b/relu_3x3 <- inception_4b/3x3
I0403 18:05:11.244482 21300 net.cpp:386] inception_4b/relu_3x3 -> inception_4b/3x3 (in-place)
I0403 18:05:11.244684 21300 net.cpp:141] Setting up inception_4b/relu_3x3
I0403 18:05:11.244709 21300 net.cpp:148] Top shape: 24 224 14 14 (1053696)
I0403 18:05:11.244722 21300 net.cpp:156] Memory required for data: 964869408
I0403 18:05:11.244736 21300 layer_factory.hpp:77] Creating layer inception_4b/5x5_reduce
I0403 18:05:11.244760 21300 net.cpp:91] Creating Layer inception_4b/5x5_reduce
I0403 18:05:11.244776 21300 net.cpp:425] inception_4b/5x5_reduce <- inception_4a/output_inception_4a/output_0_split_3
I0403 18:05:11.244796 21300 net.cpp:399] inception_4b/5x5_reduce -> inception_4b/5x5_reduce
I0403 18:05:11.245843 21300 net.cpp:141] Setting up inception_4b/5x5_reduce
I0403 18:05:11.245872 21300 net.cpp:148] Top shape: 24 24 14 14 (112896)
I0403 18:05:11.245887 21300 net.cpp:156] Memory required for data: 965320992
I0403 18:05:11.245905 21300 layer_factory.hpp:77] Creating layer inception_4b/relu_5x5_reduce
I0403 18:05:11.245923 21300 net.cpp:91] Creating Layer inception_4b/relu_5x5_reduce
I0403 18:05:11.245951 21300 net.cpp:425] inception_4b/relu_5x5_reduce <- inception_4b/5x5_reduce
I0403 18:05:11.245971 21300 net.cpp:386] inception_4b/relu_5x5_reduce -> inception_4b/5x5_reduce (in-place)
I0403 18:05:11.246146 21300 net.cpp:141] Setting up inception_4b/relu_5x5_reduce
I0403 18:05:11.246170 21300 net.cpp:148] Top shape: 24 24 14 14 (112896)
I0403 18:05:11.246184 21300 net.cpp:156] Memory required for data: 965772576
I0403 18:05:11.246198 21300 layer_factory.hpp:77] Creating layer inception_4b/5x5
I0403 18:05:11.246218 21300 net.cpp:91] Creating Layer inception_4b/5x5
I0403 18:05:11.246235 21300 net.cpp:425] inception_4b/5x5 <- inception_4b/5x5_reduce
I0403 18:05:11.246255 21300 net.cpp:399] inception_4b/5x5 -> inception_4b/5x5
I0403 18:05:11.247478 21300 net.cpp:141] Setting up inception_4b/5x5
I0403 18:05:11.247505 21300 net.cpp:148] Top shape: 24 64 14 14 (301056)
I0403 18:05:11.247522 21300 net.cpp:156] Memory required for data: 966976800
I0403 18:05:11.247545 21300 layer_factory.hpp:77] Creating layer inception_4b/relu_5x5
I0403 18:05:11.247562 21300 net.cpp:91] Creating Layer inception_4b/relu_5x5
I0403 18:05:11.247577 21300 net.cpp:425] inception_4b/relu_5x5 <- inception_4b/5x5
I0403 18:05:11.247593 21300 net.cpp:386] inception_4b/relu_5x5 -> inception_4b/5x5 (in-place)
I0403 18:05:11.247879 21300 net.cpp:141] Setting up inception_4b/relu_5x5
I0403 18:05:11.247903 21300 net.cpp:148] Top shape: 24 64 14 14 (301056)
I0403 18:05:11.247920 21300 net.cpp:156] Memory required for data: 968181024
I0403 18:05:11.247934 21300 layer_factory.hpp:77] Creating layer inception_4b/pool
I0403 18:05:11.247951 21300 net.cpp:91] Creating Layer inception_4b/pool
I0403 18:05:11.247967 21300 net.cpp:425] inception_4b/pool <- inception_4a/output_inception_4a/output_0_split_4
I0403 18:05:11.247983 21300 net.cpp:399] inception_4b/pool -> inception_4b/pool
I0403 18:05:11.248049 21300 net.cpp:141] Setting up inception_4b/pool
I0403 18:05:11.248071 21300 net.cpp:148] Top shape: 24 512 14 14 (2408448)
I0403 18:05:11.248085 21300 net.cpp:156] Memory required for data: 977814816
I0403 18:05:11.248098 21300 layer_factory.hpp:77] Creating layer inception_4b/pool_proj
I0403 18:05:11.248119 21300 net.cpp:91] Creating Layer inception_4b/pool_proj
I0403 18:05:11.248136 21300 net.cpp:425] inception_4b/pool_proj <- inception_4b/pool
I0403 18:05:11.248157 21300 net.cpp:399] inception_4b/pool_proj -> inception_4b/pool_proj
I0403 18:05:11.249349 21300 net.cpp:141] Setting up inception_4b/pool_proj
I0403 18:05:11.249379 21300 net.cpp:148] Top shape: 24 64 14 14 (301056)
I0403 18:05:11.249395 21300 net.cpp:156] Memory required for data: 979019040
I0403 18:05:11.249413 21300 layer_factory.hpp:77] Creating layer inception_4b/relu_pool_proj
I0403 18:05:11.249430 21300 net.cpp:91] Creating Layer inception_4b/relu_pool_proj
I0403 18:05:11.249446 21300 net.cpp:425] inception_4b/relu_pool_proj <- inception_4b/pool_proj
I0403 18:05:11.249464 21300 net.cpp:386] inception_4b/relu_pool_proj -> inception_4b/pool_proj (in-place)
I0403 18:05:11.249658 21300 net.cpp:141] Setting up inception_4b/relu_pool_proj
I0403 18:05:11.249682 21300 net.cpp:148] Top shape: 24 64 14 14 (301056)
I0403 18:05:11.249696 21300 net.cpp:156] Memory required for data: 980223264
I0403 18:05:11.249711 21300 layer_factory.hpp:77] Creating layer inception_4b/output
I0403 18:05:11.249727 21300 net.cpp:91] Creating Layer inception_4b/output
I0403 18:05:11.249742 21300 net.cpp:425] inception_4b/output <- inception_4b/1x1
I0403 18:05:11.249757 21300 net.cpp:425] inception_4b/output <- inception_4b/3x3
I0403 18:05:11.249770 21300 net.cpp:425] inception_4b/output <- inception_4b/5x5
I0403 18:05:11.249785 21300 net.cpp:425] inception_4b/output <- inception_4b/pool_proj
I0403 18:05:11.249802 21300 net.cpp:399] inception_4b/output -> inception_4b/output
I0403 18:05:11.249845 21300 net.cpp:141] Setting up inception_4b/output
I0403 18:05:11.249869 21300 net.cpp:148] Top shape: 24 512 14 14 (2408448)
I0403 18:05:11.249884 21300 net.cpp:156] Memory required for data: 989857056
I0403 18:05:11.249912 21300 layer_factory.hpp:77] Creating layer inception_4b/output_inception_4b/output_0_split
I0403 18:05:11.249929 21300 net.cpp:91] Creating Layer inception_4b/output_inception_4b/output_0_split
I0403 18:05:11.249943 21300 net.cpp:425] inception_4b/output_inception_4b/output_0_split <- inception_4b/output
I0403 18:05:11.249959 21300 net.cpp:399] inception_4b/output_inception_4b/output_0_split -> inception_4b/output_inception_4b/output_0_split_0
I0403 18:05:11.249981 21300 net.cpp:399] inception_4b/output_inception_4b/output_0_split -> inception_4b/output_inception_4b/output_0_split_1
I0403 18:05:11.250001 21300 net.cpp:399] inception_4b/output_inception_4b/output_0_split -> inception_4b/output_inception_4b/output_0_split_2
I0403 18:05:11.250020 21300 net.cpp:399] inception_4b/output_inception_4b/output_0_split -> inception_4b/output_inception_4b/output_0_split_3
I0403 18:05:11.250102 21300 net.cpp:141] Setting up inception_4b/output_inception_4b/output_0_split
I0403 18:05:11.250123 21300 net.cpp:148] Top shape: 24 512 14 14 (2408448)
I0403 18:05:11.250138 21300 net.cpp:148] Top shape: 24 512 14 14 (2408448)
I0403 18:05:11.250152 21300 net.cpp:148] Top shape: 24 512 14 14 (2408448)
I0403 18:05:11.250167 21300 net.cpp:148] Top shape: 24 512 14 14 (2408448)
I0403 18:05:11.250180 21300 net.cpp:156] Memory required for data: 1028392224
I0403 18:05:11.250192 21300 layer_factory.hpp:77] Creating layer inception_4c/1x1
I0403 18:05:11.250214 21300 net.cpp:91] Creating Layer inception_4c/1x1
I0403 18:05:11.250231 21300 net.cpp:425] inception_4c/1x1 <- inception_4b/output_inception_4b/output_0_split_0
I0403 18:05:11.250250 21300 net.cpp:399] inception_4c/1x1 -> inception_4c/1x1
I0403 18:05:11.251687 21300 net.cpp:141] Setting up inception_4c/1x1
I0403 18:05:11.251713 21300 net.cpp:148] Top shape: 24 128 14 14 (602112)
I0403 18:05:11.251729 21300 net.cpp:156] Memory required for data: 1030800672
I0403 18:05:11.251745 21300 layer_factory.hpp:77] Creating layer inception_4c/relu_1x1
I0403 18:05:11.251762 21300 net.cpp:91] Creating Layer inception_4c/relu_1x1
I0403 18:05:11.251780 21300 net.cpp:425] inception_4c/relu_1x1 <- inception_4c/1x1
I0403 18:05:11.251797 21300 net.cpp:386] inception_4c/relu_1x1 -> inception_4c/1x1 (in-place)
I0403 18:05:11.251972 21300 net.cpp:141] Setting up inception_4c/relu_1x1
I0403 18:05:11.251996 21300 net.cpp:148] Top shape: 24 128 14 14 (602112)
I0403 18:05:11.252009 21300 net.cpp:156] Memory required for data: 1033209120
I0403 18:05:11.252023 21300 layer_factory.hpp:77] Creating layer inception_4c/3x3_reduce
I0403 18:05:11.252044 21300 net.cpp:91] Creating Layer inception_4c/3x3_reduce
I0403 18:05:11.252061 21300 net.cpp:425] inception_4c/3x3_reduce <- inception_4b/output_inception_4b/output_0_split_1
I0403 18:05:11.252082 21300 net.cpp:399] inception_4c/3x3_reduce -> inception_4c/3x3_reduce
I0403 18:05:11.253981 21300 net.cpp:141] Setting up inception_4c/3x3_reduce
I0403 18:05:11.254010 21300 net.cpp:148] Top shape: 24 128 14 14 (602112)
I0403 18:05:11.254025 21300 net.cpp:156] Memory required for data: 1035617568
I0403 18:05:11.254042 21300 layer_factory.hpp:77] Creating layer inception_4c/relu_3x3_reduce
I0403 18:05:11.254062 21300 net.cpp:91] Creating Layer inception_4c/relu_3x3_reduce
I0403 18:05:11.254078 21300 net.cpp:425] inception_4c/relu_3x3_reduce <- inception_4c/3x3_reduce
I0403 18:05:11.254094 21300 net.cpp:386] inception_4c/relu_3x3_reduce -> inception_4c/3x3_reduce (in-place)
I0403 18:05:11.254374 21300 net.cpp:141] Setting up inception_4c/relu_3x3_reduce
I0403 18:05:11.254400 21300 net.cpp:148] Top shape: 24 128 14 14 (602112)
I0403 18:05:11.254413 21300 net.cpp:156] Memory required for data: 1038026016
I0403 18:05:11.254427 21300 layer_factory.hpp:77] Creating layer inception_4c/3x3
I0403 18:05:11.254451 21300 net.cpp:91] Creating Layer inception_4c/3x3
I0403 18:05:11.254468 21300 net.cpp:425] inception_4c/3x3 <- inception_4c/3x3_reduce
I0403 18:05:11.254487 21300 net.cpp:399] inception_4c/3x3 -> inception_4c/3x3
I0403 18:05:11.258008 21300 net.cpp:141] Setting up inception_4c/3x3
I0403 18:05:11.258049 21300 net.cpp:148] Top shape: 24 256 14 14 (1204224)
I0403 18:05:11.258064 21300 net.cpp:156] Memory required for data: 1042842912
I0403 18:05:11.258095 21300 layer_factory.hpp:77] Creating layer inception_4c/relu_3x3
I0403 18:05:11.258113 21300 net.cpp:91] Creating Layer inception_4c/relu_3x3
I0403 18:05:11.258128 21300 net.cpp:425] inception_4c/relu_3x3 <- inception_4c/3x3
I0403 18:05:11.258143 21300 net.cpp:386] inception_4c/relu_3x3 -> inception_4c/3x3 (in-place)
I0403 18:05:11.258317 21300 net.cpp:141] Setting up inception_4c/relu_3x3
I0403 18:05:11.258342 21300 net.cpp:148] Top shape: 24 256 14 14 (1204224)
I0403 18:05:11.258358 21300 net.cpp:156] Memory required for data: 1047659808
I0403 18:05:11.258371 21300 layer_factory.hpp:77] Creating layer inception_4c/5x5_reduce
I0403 18:05:11.258393 21300 net.cpp:91] Creating Layer inception_4c/5x5_reduce
I0403 18:05:11.258409 21300 net.cpp:425] inception_4c/5x5_reduce <- inception_4b/output_inception_4b/output_0_split_2
I0403 18:05:11.258426 21300 net.cpp:399] inception_4c/5x5_reduce -> inception_4c/5x5_reduce
I0403 18:05:11.259474 21300 net.cpp:141] Setting up inception_4c/5x5_reduce
I0403 18:05:11.259500 21300 net.cpp:148] Top shape: 24 24 14 14 (112896)
I0403 18:05:11.259513 21300 net.cpp:156] Memory required for data: 1048111392
I0403 18:05:11.259529 21300 layer_factory.hpp:77] Creating layer inception_4c/relu_5x5_reduce
I0403 18:05:11.259552 21300 net.cpp:91] Creating Layer inception_4c/relu_5x5_reduce
I0403 18:05:11.259569 21300 net.cpp:425] inception_4c/relu_5x5_reduce <- inception_4c/5x5_reduce
I0403 18:05:11.259585 21300 net.cpp:386] inception_4c/relu_5x5_reduce -> inception_4c/5x5_reduce (in-place)
I0403 18:05:11.259763 21300 net.cpp:141] Setting up inception_4c/relu_5x5_reduce
I0403 18:05:11.259785 21300 net.cpp:148] Top shape: 24 24 14 14 (112896)
I0403 18:05:11.259799 21300 net.cpp:156] Memory required for data: 1048562976
I0403 18:05:11.259812 21300 layer_factory.hpp:77] Creating layer inception_4c/5x5
I0403 18:05:11.259832 21300 net.cpp:91] Creating Layer inception_4c/5x5
I0403 18:05:11.259850 21300 net.cpp:425] inception_4c/5x5 <- inception_4c/5x5_reduce
I0403 18:05:11.259868 21300 net.cpp:399] inception_4c/5x5 -> inception_4c/5x5
I0403 18:05:11.261087 21300 net.cpp:141] Setting up inception_4c/5x5
I0403 18:05:11.261113 21300 net.cpp:148] Top shape: 24 64 14 14 (301056)
I0403 18:05:11.261127 21300 net.cpp:156] Memory required for data: 1049767200
I0403 18:05:11.261144 21300 layer_factory.hpp:77] Creating layer inception_4c/relu_5x5
I0403 18:05:11.261162 21300 net.cpp:91] Creating Layer inception_4c/relu_5x5
I0403 18:05:11.261176 21300 net.cpp:425] inception_4c/relu_5x5 <- inception_4c/5x5
I0403 18:05:11.261194 21300 net.cpp:386] inception_4c/relu_5x5 -> inception_4c/5x5 (in-place)
I0403 18:05:11.261487 21300 net.cpp:141] Setting up inception_4c/relu_5x5
I0403 18:05:11.261512 21300 net.cpp:148] Top shape: 24 64 14 14 (301056)
I0403 18:05:11.261526 21300 net.cpp:156] Memory required for data: 1050971424
I0403 18:05:11.261544 21300 layer_factory.hpp:77] Creating layer inception_4c/pool
I0403 18:05:11.261574 21300 net.cpp:91] Creating Layer inception_4c/pool
I0403 18:05:11.261590 21300 net.cpp:425] inception_4c/pool <- inception_4b/output_inception_4b/output_0_split_3
I0403 18:05:11.261608 21300 net.cpp:399] inception_4c/pool -> inception_4c/pool
I0403 18:05:11.261669 21300 net.cpp:141] Setting up inception_4c/pool
I0403 18:05:11.261693 21300 net.cpp:148] Top shape: 24 512 14 14 (2408448)
I0403 18:05:11.261708 21300 net.cpp:156] Memory required for data: 1060605216
I0403 18:05:11.261720 21300 layer_factory.hpp:77] Creating layer inception_4c/pool_proj
I0403 18:05:11.261740 21300 net.cpp:91] Creating Layer inception_4c/pool_proj
I0403 18:05:11.261757 21300 net.cpp:425] inception_4c/pool_proj <- inception_4c/pool
I0403 18:05:11.261773 21300 net.cpp:399] inception_4c/pool_proj -> inception_4c/pool_proj
I0403 18:05:11.262949 21300 net.cpp:141] Setting up inception_4c/pool_proj
I0403 18:05:11.262979 21300 net.cpp:148] Top shape: 24 64 14 14 (301056)
I0403 18:05:11.263005 21300 net.cpp:156] Memory required for data: 1061809440
I0403 18:05:11.263025 21300 layer_factory.hpp:77] Creating layer inception_4c/relu_pool_proj
I0403 18:05:11.263041 21300 net.cpp:91] Creating Layer inception_4c/relu_pool_proj
I0403 18:05:11.263056 21300 net.cpp:425] inception_4c/relu_pool_proj <- inception_4c/pool_proj
I0403 18:05:11.263072 21300 net.cpp:386] inception_4c/relu_pool_proj -> inception_4c/pool_proj (in-place)
I0403 18:05:11.263248 21300 net.cpp:141] Setting up inception_4c/relu_pool_proj
I0403 18:05:11.263272 21300 net.cpp:148] Top shape: 24 64 14 14 (301056)
I0403 18:05:11.263285 21300 net.cpp:156] Memory required for data: 1063013664
I0403 18:05:11.263299 21300 layer_factory.hpp:77] Creating layer inception_4c/output
I0403 18:05:11.263315 21300 net.cpp:91] Creating Layer inception_4c/output
I0403 18:05:11.263329 21300 net.cpp:425] inception_4c/output <- inception_4c/1x1
I0403 18:05:11.263345 21300 net.cpp:425] inception_4c/output <- inception_4c/3x3
I0403 18:05:11.263360 21300 net.cpp:425] inception_4c/output <- inception_4c/5x5
I0403 18:05:11.263372 21300 net.cpp:425] inception_4c/output <- inception_4c/pool_proj
I0403 18:05:11.263391 21300 net.cpp:399] inception_4c/output -> inception_4c/output
I0403 18:05:11.263434 21300 net.cpp:141] Setting up inception_4c/output
I0403 18:05:11.263455 21300 net.cpp:148] Top shape: 24 512 14 14 (2408448)
I0403 18:05:11.263468 21300 net.cpp:156] Memory required for data: 1072647456
I0403 18:05:11.263481 21300 layer_factory.hpp:77] Creating layer inception_4c/output_inception_4c/output_0_split
I0403 18:05:11.263499 21300 net.cpp:91] Creating Layer inception_4c/output_inception_4c/output_0_split
I0403 18:05:11.263515 21300 net.cpp:425] inception_4c/output_inception_4c/output_0_split <- inception_4c/output
I0403 18:05:11.263531 21300 net.cpp:399] inception_4c/output_inception_4c/output_0_split -> inception_4c/output_inception_4c/output_0_split_0
I0403 18:05:11.263559 21300 net.cpp:399] inception_4c/output_inception_4c/output_0_split -> inception_4c/output_inception_4c/output_0_split_1
I0403 18:05:11.263579 21300 net.cpp:399] inception_4c/output_inception_4c/output_0_split -> inception_4c/output_inception_4c/output_0_split_2
I0403 18:05:11.263597 21300 net.cpp:399] inception_4c/output_inception_4c/output_0_split -> inception_4c/output_inception_4c/output_0_split_3
I0403 18:05:11.263679 21300 net.cpp:141] Setting up inception_4c/output_inception_4c/output_0_split
I0403 18:05:11.263700 21300 net.cpp:148] Top shape: 24 512 14 14 (2408448)
I0403 18:05:11.263715 21300 net.cpp:148] Top shape: 24 512 14 14 (2408448)
I0403 18:05:11.263728 21300 net.cpp:148] Top shape: 24 512 14 14 (2408448)
I0403 18:05:11.263742 21300 net.cpp:148] Top shape: 24 512 14 14 (2408448)
I0403 18:05:11.263754 21300 net.cpp:156] Memory required for data: 1111182624
I0403 18:05:11.263767 21300 layer_factory.hpp:77] Creating layer inception_4d/1x1
I0403 18:05:11.263788 21300 net.cpp:91] Creating Layer inception_4d/1x1
I0403 18:05:11.263804 21300 net.cpp:425] inception_4d/1x1 <- inception_4c/output_inception_4c/output_0_split_0
I0403 18:05:11.263824 21300 net.cpp:399] inception_4d/1x1 -> inception_4d/1x1
I0403 18:05:11.265154 21300 net.cpp:141] Setting up inception_4d/1x1
I0403 18:05:11.265180 21300 net.cpp:148] Top shape: 24 112 14 14 (526848)
I0403 18:05:11.265194 21300 net.cpp:156] Memory required for data: 1113290016
I0403 18:05:11.265211 21300 layer_factory.hpp:77] Creating layer inception_4d/relu_1x1
I0403 18:05:11.265230 21300 net.cpp:91] Creating Layer inception_4d/relu_1x1
I0403 18:05:11.265247 21300 net.cpp:425] inception_4d/relu_1x1 <- inception_4d/1x1
I0403 18:05:11.265262 21300 net.cpp:386] inception_4d/relu_1x1 -> inception_4d/1x1 (in-place)
I0403 18:05:11.265439 21300 net.cpp:141] Setting up inception_4d/relu_1x1
I0403 18:05:11.265461 21300 net.cpp:148] Top shape: 24 112 14 14 (526848)
I0403 18:05:11.265475 21300 net.cpp:156] Memory required for data: 1115397408
I0403 18:05:11.265488 21300 layer_factory.hpp:77] Creating layer inception_4d/3x3_reduce
I0403 18:05:11.265523 21300 net.cpp:91] Creating Layer inception_4d/3x3_reduce
I0403 18:05:11.265547 21300 net.cpp:425] inception_4d/3x3_reduce <- inception_4c/output_inception_4c/output_0_split_1
I0403 18:05:11.265565 21300 net.cpp:399] inception_4d/3x3_reduce -> inception_4d/3x3_reduce
I0403 18:05:11.267050 21300 net.cpp:141] Setting up inception_4d/3x3_reduce
I0403 18:05:11.267074 21300 net.cpp:148] Top shape: 24 144 14 14 (677376)
I0403 18:05:11.267089 21300 net.cpp:156] Memory required for data: 1118106912
I0403 18:05:11.267107 21300 layer_factory.hpp:77] Creating layer inception_4d/relu_3x3_reduce
I0403 18:05:11.267122 21300 net.cpp:91] Creating Layer inception_4d/relu_3x3_reduce
I0403 18:05:11.267138 21300 net.cpp:425] inception_4d/relu_3x3_reduce <- inception_4d/3x3_reduce
I0403 18:05:11.267155 21300 net.cpp:386] inception_4d/relu_3x3_reduce -> inception_4d/3x3_reduce (in-place)
I0403 18:05:11.267431 21300 net.cpp:141] Setting up inception_4d/relu_3x3_reduce
I0403 18:05:11.267457 21300 net.cpp:148] Top shape: 24 144 14 14 (677376)
I0403 18:05:11.267470 21300 net.cpp:156] Memory required for data: 1120816416
I0403 18:05:11.267483 21300 layer_factory.hpp:77] Creating layer inception_4d/3x3
I0403 18:05:11.267504 21300 net.cpp:91] Creating Layer inception_4d/3x3
I0403 18:05:11.267520 21300 net.cpp:425] inception_4d/3x3 <- inception_4d/3x3_reduce
I0403 18:05:11.267545 21300 net.cpp:399] inception_4d/3x3 -> inception_4d/3x3
I0403 18:05:11.271623 21300 net.cpp:141] Setting up inception_4d/3x3
I0403 18:05:11.271651 21300 net.cpp:148] Top shape: 24 288 14 14 (1354752)
I0403 18:05:11.271666 21300 net.cpp:156] Memory required for data: 1126235424
I0403 18:05:11.271682 21300 layer_factory.hpp:77] Creating layer inception_4d/relu_3x3
I0403 18:05:11.271700 21300 net.cpp:91] Creating Layer inception_4d/relu_3x3
I0403 18:05:11.271716 21300 net.cpp:425] inception_4d/relu_3x3 <- inception_4d/3x3
I0403 18:05:11.271733 21300 net.cpp:386] inception_4d/relu_3x3 -> inception_4d/3x3 (in-place)
I0403 18:05:11.271908 21300 net.cpp:141] Setting up inception_4d/relu_3x3
I0403 18:05:11.271934 21300 net.cpp:148] Top shape: 24 288 14 14 (1354752)
I0403 18:05:11.271949 21300 net.cpp:156] Memory required for data: 1131654432
I0403 18:05:11.271961 21300 layer_factory.hpp:77] Creating layer inception_4d/5x5_reduce
I0403 18:05:11.271982 21300 net.cpp:91] Creating Layer inception_4d/5x5_reduce
I0403 18:05:11.271999 21300 net.cpp:425] inception_4d/5x5_reduce <- inception_4c/output_inception_4c/output_0_split_2
I0403 18:05:11.272017 21300 net.cpp:399] inception_4d/5x5_reduce -> inception_4d/5x5_reduce
I0403 18:05:11.273118 21300 net.cpp:141] Setting up inception_4d/5x5_reduce
I0403 18:05:11.273144 21300 net.cpp:148] Top shape: 24 32 14 14 (150528)
I0403 18:05:11.273159 21300 net.cpp:156] Memory required for data: 1132256544
I0403 18:05:11.273175 21300 layer_factory.hpp:77] Creating layer inception_4d/relu_5x5_reduce
I0403 18:05:11.273193 21300 net.cpp:91] Creating Layer inception_4d/relu_5x5_reduce
I0403 18:05:11.273208 21300 net.cpp:425] inception_4d/relu_5x5_reduce <- inception_4d/5x5_reduce
I0403 18:05:11.273224 21300 net.cpp:386] inception_4d/relu_5x5_reduce -> inception_4d/5x5_reduce (in-place)
I0403 18:05:11.273408 21300 net.cpp:141] Setting up inception_4d/relu_5x5_reduce
I0403 18:05:11.273433 21300 net.cpp:148] Top shape: 24 32 14 14 (150528)
I0403 18:05:11.273448 21300 net.cpp:156] Memory required for data: 1132858656
I0403 18:05:11.273461 21300 layer_factory.hpp:77] Creating layer inception_4d/5x5
I0403 18:05:11.273483 21300 net.cpp:91] Creating Layer inception_4d/5x5
I0403 18:05:11.273499 21300 net.cpp:425] inception_4d/5x5 <- inception_4d/5x5_reduce
I0403 18:05:11.273516 21300 net.cpp:399] inception_4d/5x5 -> inception_4d/5x5
I0403 18:05:11.274960 21300 net.cpp:141] Setting up inception_4d/5x5
I0403 18:05:11.274989 21300 net.cpp:148] Top shape: 24 64 14 14 (301056)
I0403 18:05:11.275004 21300 net.cpp:156] Memory required for data: 1134062880
I0403 18:05:11.275022 21300 layer_factory.hpp:77] Creating layer inception_4d/relu_5x5
I0403 18:05:11.275053 21300 net.cpp:91] Creating Layer inception_4d/relu_5x5
I0403 18:05:11.275068 21300 net.cpp:425] inception_4d/relu_5x5 <- inception_4d/5x5
I0403 18:05:11.275087 21300 net.cpp:386] inception_4d/relu_5x5 -> inception_4d/5x5 (in-place)
I0403 18:05:11.275373 21300 net.cpp:141] Setting up inception_4d/relu_5x5
I0403 18:05:11.275400 21300 net.cpp:148] Top shape: 24 64 14 14 (301056)
I0403 18:05:11.275414 21300 net.cpp:156] Memory required for data: 1135267104
I0403 18:05:11.275429 21300 layer_factory.hpp:77] Creating layer inception_4d/pool
I0403 18:05:11.275444 21300 net.cpp:91] Creating Layer inception_4d/pool
I0403 18:05:11.275460 21300 net.cpp:425] inception_4d/pool <- inception_4c/output_inception_4c/output_0_split_3
I0403 18:05:11.275478 21300 net.cpp:399] inception_4d/pool -> inception_4d/pool
I0403 18:05:11.275547 21300 net.cpp:141] Setting up inception_4d/pool
I0403 18:05:11.275583 21300 net.cpp:148] Top shape: 24 512 14 14 (2408448)
I0403 18:05:11.275602 21300 net.cpp:156] Memory required for data: 1144900896
I0403 18:05:11.275615 21300 layer_factory.hpp:77] Creating layer inception_4d/pool_proj
I0403 18:05:11.275637 21300 net.cpp:91] Creating Layer inception_4d/pool_proj
I0403 18:05:11.275653 21300 net.cpp:425] inception_4d/pool_proj <- inception_4d/pool
I0403 18:05:11.275673 21300 net.cpp:399] inception_4d/pool_proj -> inception_4d/pool_proj
I0403 18:05:11.277457 21300 net.cpp:141] Setting up inception_4d/pool_proj
I0403 18:05:11.277485 21300 net.cpp:148] Top shape: 24 64 14 14 (301056)
I0403 18:05:11.277501 21300 net.cpp:156] Memory required for data: 1146105120
I0403 18:05:11.277519 21300 layer_factory.hpp:77] Creating layer inception_4d/relu_pool_proj
I0403 18:05:11.277544 21300 net.cpp:91] Creating Layer inception_4d/relu_pool_proj
I0403 18:05:11.277562 21300 net.cpp:425] inception_4d/relu_pool_proj <- inception_4d/pool_proj
I0403 18:05:11.277580 21300 net.cpp:386] inception_4d/relu_pool_proj -> inception_4d/pool_proj (in-place)
I0403 18:05:11.277758 21300 net.cpp:141] Setting up inception_4d/relu_pool_proj
I0403 18:05:11.277784 21300 net.cpp:148] Top shape: 24 64 14 14 (301056)
I0403 18:05:11.277799 21300 net.cpp:156] Memory required for data: 1147309344
I0403 18:05:11.277813 21300 layer_factory.hpp:77] Creating layer inception_4d/output
I0403 18:05:11.277829 21300 net.cpp:91] Creating Layer inception_4d/output
I0403 18:05:11.277843 21300 net.cpp:425] inception_4d/output <- inception_4d/1x1
I0403 18:05:11.277859 21300 net.cpp:425] inception_4d/output <- inception_4d/3x3
I0403 18:05:11.277873 21300 net.cpp:425] inception_4d/output <- inception_4d/5x5
I0403 18:05:11.277889 21300 net.cpp:425] inception_4d/output <- inception_4d/pool_proj
I0403 18:05:11.277904 21300 net.cpp:399] inception_4d/output -> inception_4d/output
I0403 18:05:11.277951 21300 net.cpp:141] Setting up inception_4d/output
I0403 18:05:11.277973 21300 net.cpp:148] Top shape: 24 528 14 14 (2483712)
I0403 18:05:11.277987 21300 net.cpp:156] Memory required for data: 1157244192
I0403 18:05:11.278000 21300 layer_factory.hpp:77] Creating layer inception_4d/output_inception_4d/output_0_split
I0403 18:05:11.278020 21300 net.cpp:91] Creating Layer inception_4d/output_inception_4d/output_0_split
I0403 18:05:11.278035 21300 net.cpp:425] inception_4d/output_inception_4d/output_0_split <- inception_4d/output
I0403 18:05:11.278053 21300 net.cpp:399] inception_4d/output_inception_4d/output_0_split -> inception_4d/output_inception_4d/output_0_split_0
I0403 18:05:11.278072 21300 net.cpp:399] inception_4d/output_inception_4d/output_0_split -> inception_4d/output_inception_4d/output_0_split_1
I0403 18:05:11.278091 21300 net.cpp:399] inception_4d/output_inception_4d/output_0_split -> inception_4d/output_inception_4d/output_0_split_2
I0403 18:05:11.278112 21300 net.cpp:399] inception_4d/output_inception_4d/output_0_split -> inception_4d/output_inception_4d/output_0_split_3
I0403 18:05:11.278132 21300 net.cpp:399] inception_4d/output_inception_4d/output_0_split -> inception_4d/output_inception_4d/output_0_split_4
I0403 18:05:11.278235 21300 net.cpp:141] Setting up inception_4d/output_inception_4d/output_0_split
I0403 18:05:11.278270 21300 net.cpp:148] Top shape: 24 528 14 14 (2483712)
I0403 18:05:11.278285 21300 net.cpp:148] Top shape: 24 528 14 14 (2483712)
I0403 18:05:11.278301 21300 net.cpp:148] Top shape: 24 528 14 14 (2483712)
I0403 18:05:11.278314 21300 net.cpp:148] Top shape: 24 528 14 14 (2483712)
I0403 18:05:11.278328 21300 net.cpp:148] Top shape: 24 528 14 14 (2483712)
I0403 18:05:11.278342 21300 net.cpp:156] Memory required for data: 1206918432
I0403 18:05:11.278355 21300 layer_factory.hpp:77] Creating layer loss2/ave_pool
I0403 18:05:11.278373 21300 net.cpp:91] Creating Layer loss2/ave_pool
I0403 18:05:11.278389 21300 net.cpp:425] loss2/ave_pool <- inception_4d/output_inception_4d/output_0_split_0
I0403 18:05:11.278406 21300 net.cpp:399] loss2/ave_pool -> loss2/ave_pool
I0403 18:05:11.278714 21300 net.cpp:141] Setting up loss2/ave_pool
I0403 18:05:11.278740 21300 net.cpp:148] Top shape: 24 528 4 4 (202752)
I0403 18:05:11.278754 21300 net.cpp:156] Memory required for data: 1207729440
I0403 18:05:11.278769 21300 layer_factory.hpp:77] Creating layer loss2/conv
I0403 18:05:11.278790 21300 net.cpp:91] Creating Layer loss2/conv
I0403 18:05:11.278807 21300 net.cpp:425] loss2/conv <- loss2/ave_pool
I0403 18:05:11.278826 21300 net.cpp:399] loss2/conv -> loss2/conv
I0403 18:05:11.280733 21300 net.cpp:141] Setting up loss2/conv
I0403 18:05:11.280762 21300 net.cpp:148] Top shape: 24 128 4 4 (49152)
I0403 18:05:11.280778 21300 net.cpp:156] Memory required for data: 1207926048
I0403 18:05:11.280796 21300 layer_factory.hpp:77] Creating layer loss2/relu_conv
I0403 18:05:11.280812 21300 net.cpp:91] Creating Layer loss2/relu_conv
I0403 18:05:11.280828 21300 net.cpp:425] loss2/relu_conv <- loss2/conv
I0403 18:05:11.280848 21300 net.cpp:386] loss2/relu_conv -> loss2/conv (in-place)
I0403 18:05:11.281126 21300 net.cpp:141] Setting up loss2/relu_conv
I0403 18:05:11.281153 21300 net.cpp:148] Top shape: 24 128 4 4 (49152)
I0403 18:05:11.281167 21300 net.cpp:156] Memory required for data: 1208122656
I0403 18:05:11.281183 21300 layer_factory.hpp:77] Creating layer loss2/fc
I0403 18:05:11.281199 21300 net.cpp:91] Creating Layer loss2/fc
I0403 18:05:11.281215 21300 net.cpp:425] loss2/fc <- loss2/conv
I0403 18:05:11.281235 21300 net.cpp:399] loss2/fc -> loss2/fc
I0403 18:05:11.298576 21300 net.cpp:141] Setting up loss2/fc
I0403 18:05:11.298609 21300 net.cpp:148] Top shape: 24 1024 (24576)
I0403 18:05:11.298624 21300 net.cpp:156] Memory required for data: 1208220960
I0403 18:05:11.298641 21300 layer_factory.hpp:77] Creating layer loss2/relu_fc
I0403 18:05:11.298657 21300 net.cpp:91] Creating Layer loss2/relu_fc
I0403 18:05:11.298673 21300 net.cpp:425] loss2/relu_fc <- loss2/fc
I0403 18:05:11.298689 21300 net.cpp:386] loss2/relu_fc -> loss2/fc (in-place)
I0403 18:05:11.298972 21300 net.cpp:141] Setting up loss2/relu_fc
I0403 18:05:11.298996 21300 net.cpp:148] Top shape: 24 1024 (24576)
I0403 18:05:11.299016 21300 net.cpp:156] Memory required for data: 1208319264
I0403 18:05:11.299031 21300 layer_factory.hpp:77] Creating layer loss2/drop_fc
I0403 18:05:11.299047 21300 net.cpp:91] Creating Layer loss2/drop_fc
I0403 18:05:11.299062 21300 net.cpp:425] loss2/drop_fc <- loss2/fc
I0403 18:05:11.299078 21300 net.cpp:386] loss2/drop_fc -> loss2/fc (in-place)
I0403 18:05:11.299125 21300 net.cpp:141] Setting up loss2/drop_fc
I0403 18:05:11.299146 21300 net.cpp:148] Top shape: 24 1024 (24576)
I0403 18:05:11.299160 21300 net.cpp:156] Memory required for data: 1208417568
I0403 18:05:11.299173 21300 layer_factory.hpp:77] Creating layer loss2/classifier_plantvillage
I0403 18:05:11.299192 21300 net.cpp:91] Creating Layer loss2/classifier_plantvillage
I0403 18:05:11.299208 21300 net.cpp:425] loss2/classifier_plantvillage <- loss2/fc
I0403 18:05:11.299226 21300 net.cpp:399] loss2/classifier_plantvillage -> loss2/classifier_plantvillage
I0403 18:05:11.299644 21300 net.cpp:141] Setting up loss2/classifier_plantvillage
I0403 18:05:11.299669 21300 net.cpp:148] Top shape: 24 38 (912)
I0403 18:05:11.299697 21300 net.cpp:156] Memory required for data: 1208421216
I0403 18:05:11.299716 21300 layer_factory.hpp:77] Creating layer loss2/classifier_plantvillage_loss2/classifier_plantvillage_0_split
I0403 18:05:11.299732 21300 net.cpp:91] Creating Layer loss2/classifier_plantvillage_loss2/classifier_plantvillage_0_split
I0403 18:05:11.299746 21300 net.cpp:425] loss2/classifier_plantvillage_loss2/classifier_plantvillage_0_split <- loss2/classifier_plantvillage
I0403 18:05:11.299765 21300 net.cpp:399] loss2/classifier_plantvillage_loss2/classifier_plantvillage_0_split -> loss2/classifier_plantvillage_loss2/classifier_plantvillage_0_split_0
I0403 18:05:11.299784 21300 net.cpp:399] loss2/classifier_plantvillage_loss2/classifier_plantvillage_0_split -> loss2/classifier_plantvillage_loss2/classifier_plantvillage_0_split_1
I0403 18:05:11.299804 21300 net.cpp:399] loss2/classifier_plantvillage_loss2/classifier_plantvillage_0_split -> loss2/classifier_plantvillage_loss2/classifier_plantvillage_0_split_2
I0403 18:05:11.299877 21300 net.cpp:141] Setting up loss2/classifier_plantvillage_loss2/classifier_plantvillage_0_split
I0403 18:05:11.299902 21300 net.cpp:148] Top shape: 24 38 (912)
I0403 18:05:11.299917 21300 net.cpp:148] Top shape: 24 38 (912)
I0403 18:05:11.299932 21300 net.cpp:148] Top shape: 24 38 (912)
I0403 18:05:11.299944 21300 net.cpp:156] Memory required for data: 1208432160
I0403 18:05:11.299957 21300 layer_factory.hpp:77] Creating layer inception_4e/1x1
I0403 18:05:11.299978 21300 net.cpp:91] Creating Layer inception_4e/1x1
I0403 18:05:11.299995 21300 net.cpp:425] inception_4e/1x1 <- inception_4d/output_inception_4d/output_0_split_1
I0403 18:05:11.300012 21300 net.cpp:399] inception_4e/1x1 -> inception_4e/1x1
I0403 18:05:11.301781 21300 net.cpp:141] Setting up inception_4e/1x1
I0403 18:05:11.301810 21300 net.cpp:148] Top shape: 24 256 14 14 (1204224)
I0403 18:05:11.301826 21300 net.cpp:156] Memory required for data: 1213249056
I0403 18:05:11.301842 21300 layer_factory.hpp:77] Creating layer inception_4e/relu_1x1
I0403 18:05:11.301859 21300 net.cpp:91] Creating Layer inception_4e/relu_1x1
I0403 18:05:11.301874 21300 net.cpp:425] inception_4e/relu_1x1 <- inception_4e/1x1
I0403 18:05:11.301892 21300 net.cpp:386] inception_4e/relu_1x1 -> inception_4e/1x1 (in-place)
I0403 18:05:11.302170 21300 net.cpp:141] Setting up inception_4e/relu_1x1
I0403 18:05:11.302196 21300 net.cpp:148] Top shape: 24 256 14 14 (1204224)
I0403 18:05:11.302211 21300 net.cpp:156] Memory required for data: 1218065952
I0403 18:05:11.302225 21300 layer_factory.hpp:77] Creating layer inception_4e/3x3_reduce
I0403 18:05:11.302245 21300 net.cpp:91] Creating Layer inception_4e/3x3_reduce
I0403 18:05:11.302263 21300 net.cpp:425] inception_4e/3x3_reduce <- inception_4d/output_inception_4d/output_0_split_2
I0403 18:05:11.302283 21300 net.cpp:399] inception_4e/3x3_reduce -> inception_4e/3x3_reduce
I0403 18:05:11.304332 21300 net.cpp:141] Setting up inception_4e/3x3_reduce
I0403 18:05:11.304363 21300 net.cpp:148] Top shape: 24 160 14 14 (752640)
I0403 18:05:11.304378 21300 net.cpp:156] Memory required for data: 1221076512
I0403 18:05:11.304395 21300 layer_factory.hpp:77] Creating layer inception_4e/relu_3x3_reduce
I0403 18:05:11.304414 21300 net.cpp:91] Creating Layer inception_4e/relu_3x3_reduce
I0403 18:05:11.304428 21300 net.cpp:425] inception_4e/relu_3x3_reduce <- inception_4e/3x3_reduce
I0403 18:05:11.304443 21300 net.cpp:386] inception_4e/relu_3x3_reduce -> inception_4e/3x3_reduce (in-place)
I0403 18:05:11.304649 21300 net.cpp:141] Setting up inception_4e/relu_3x3_reduce
I0403 18:05:11.304673 21300 net.cpp:148] Top shape: 24 160 14 14 (752640)
I0403 18:05:11.304687 21300 net.cpp:156] Memory required for data: 1224087072
I0403 18:05:11.304702 21300 layer_factory.hpp:77] Creating layer inception_4e/3x3
I0403 18:05:11.304723 21300 net.cpp:91] Creating Layer inception_4e/3x3
I0403 18:05:11.304738 21300 net.cpp:425] inception_4e/3x3 <- inception_4e/3x3_reduce
I0403 18:05:11.304757 21300 net.cpp:399] inception_4e/3x3 -> inception_4e/3x3
I0403 18:05:11.309603 21300 net.cpp:141] Setting up inception_4e/3x3
I0403 18:05:11.309641 21300 net.cpp:148] Top shape: 24 320 14 14 (1505280)
I0403 18:05:11.309656 21300 net.cpp:156] Memory required for data: 1230108192
I0403 18:05:11.309674 21300 layer_factory.hpp:77] Creating layer inception_4e/relu_3x3
I0403 18:05:11.309692 21300 net.cpp:91] Creating Layer inception_4e/relu_3x3
I0403 18:05:11.309708 21300 net.cpp:425] inception_4e/relu_3x3 <- inception_4e/3x3
I0403 18:05:11.309725 21300 net.cpp:386] inception_4e/relu_3x3 -> inception_4e/3x3 (in-place)
I0403 18:05:11.310011 21300 net.cpp:141] Setting up inception_4e/relu_3x3
I0403 18:05:11.310035 21300 net.cpp:148] Top shape: 24 320 14 14 (1505280)
I0403 18:05:11.310050 21300 net.cpp:156] Memory required for data: 1236129312
I0403 18:05:11.310062 21300 layer_factory.hpp:77] Creating layer inception_4e/5x5_reduce
I0403 18:05:11.310082 21300 net.cpp:91] Creating Layer inception_4e/5x5_reduce
I0403 18:05:11.310099 21300 net.cpp:425] inception_4e/5x5_reduce <- inception_4d/output_inception_4d/output_0_split_3
I0403 18:05:11.310119 21300 net.cpp:399] inception_4e/5x5_reduce -> inception_4e/5x5_reduce
I0403 18:05:11.311157 21300 net.cpp:141] Setting up inception_4e/5x5_reduce
I0403 18:05:11.311185 21300 net.cpp:148] Top shape: 24 32 14 14 (150528)
I0403 18:05:11.311200 21300 net.cpp:156] Memory required for data: 1236731424
I0403 18:05:11.311216 21300 layer_factory.hpp:77] Creating layer inception_4e/relu_5x5_reduce
I0403 18:05:11.311245 21300 net.cpp:91] Creating Layer inception_4e/relu_5x5_reduce
I0403 18:05:11.311261 21300 net.cpp:425] inception_4e/relu_5x5_reduce <- inception_4e/5x5_reduce
I0403 18:05:11.311280 21300 net.cpp:386] inception_4e/relu_5x5_reduce -> inception_4e/5x5_reduce (in-place)
I0403 18:05:11.311620 21300 net.cpp:141] Setting up inception_4e/relu_5x5_reduce
I0403 18:05:11.311646 21300 net.cpp:148] Top shape: 24 32 14 14 (150528)
I0403 18:05:11.311661 21300 net.cpp:156] Memory required for data: 1237333536
I0403 18:05:11.311676 21300 layer_factory.hpp:77] Creating layer inception_4e/5x5
I0403 18:05:11.311712 21300 net.cpp:91] Creating Layer inception_4e/5x5
I0403 18:05:11.311730 21300 net.cpp:425] inception_4e/5x5 <- inception_4e/5x5_reduce
I0403 18:05:11.311749 21300 net.cpp:399] inception_4e/5x5 -> inception_4e/5x5
I0403 18:05:11.313503 21300 net.cpp:141] Setting up inception_4e/5x5
I0403 18:05:11.313529 21300 net.cpp:148] Top shape: 24 128 14 14 (602112)
I0403 18:05:11.313550 21300 net.cpp:156] Memory required for data: 1239741984
I0403 18:05:11.313568 21300 layer_factory.hpp:77] Creating layer inception_4e/relu_5x5
I0403 18:05:11.313587 21300 net.cpp:91] Creating Layer inception_4e/relu_5x5
I0403 18:05:11.313603 21300 net.cpp:425] inception_4e/relu_5x5 <- inception_4e/5x5
I0403 18:05:11.313619 21300 net.cpp:386] inception_4e/relu_5x5 -> inception_4e/5x5 (in-place)
I0403 18:05:11.313808 21300 net.cpp:141] Setting up inception_4e/relu_5x5
I0403 18:05:11.313832 21300 net.cpp:148] Top shape: 24 128 14 14 (602112)
I0403 18:05:11.313845 21300 net.cpp:156] Memory required for data: 1242150432
I0403 18:05:11.313858 21300 layer_factory.hpp:77] Creating layer inception_4e/pool
I0403 18:05:11.313875 21300 net.cpp:91] Creating Layer inception_4e/pool
I0403 18:05:11.313889 21300 net.cpp:425] inception_4e/pool <- inception_4d/output_inception_4d/output_0_split_4
I0403 18:05:11.313907 21300 net.cpp:399] inception_4e/pool -> inception_4e/pool
I0403 18:05:11.313974 21300 net.cpp:141] Setting up inception_4e/pool
I0403 18:05:11.313997 21300 net.cpp:148] Top shape: 24 528 14 14 (2483712)
I0403 18:05:11.314010 21300 net.cpp:156] Memory required for data: 1252085280
I0403 18:05:11.314023 21300 layer_factory.hpp:77] Creating layer inception_4e/pool_proj
I0403 18:05:11.314045 21300 net.cpp:91] Creating Layer inception_4e/pool_proj
I0403 18:05:11.314062 21300 net.cpp:425] inception_4e/pool_proj <- inception_4e/pool
I0403 18:05:11.314079 21300 net.cpp:399] inception_4e/pool_proj -> inception_4e/pool_proj
I0403 18:05:11.315554 21300 net.cpp:141] Setting up inception_4e/pool_proj
I0403 18:05:11.315590 21300 net.cpp:148] Top shape: 24 128 14 14 (602112)
I0403 18:05:11.315605 21300 net.cpp:156] Memory required for data: 1254493728
I0403 18:05:11.315623 21300 layer_factory.hpp:77] Creating layer inception_4e/relu_pool_proj
I0403 18:05:11.315641 21300 net.cpp:91] Creating Layer inception_4e/relu_pool_proj
I0403 18:05:11.315657 21300 net.cpp:425] inception_4e/relu_pool_proj <- inception_4e/pool_proj
I0403 18:05:11.315672 21300 net.cpp:386] inception_4e/relu_pool_proj -> inception_4e/pool_proj (in-place)
I0403 18:05:11.315950 21300 net.cpp:141] Setting up inception_4e/relu_pool_proj
I0403 18:05:11.315975 21300 net.cpp:148] Top shape: 24 128 14 14 (602112)
I0403 18:05:11.315989 21300 net.cpp:156] Memory required for data: 1256902176
I0403 18:05:11.316004 21300 layer_factory.hpp:77] Creating layer inception_4e/output
I0403 18:05:11.316021 21300 net.cpp:91] Creating Layer inception_4e/output
I0403 18:05:11.316036 21300 net.cpp:425] inception_4e/output <- inception_4e/1x1
I0403 18:05:11.316051 21300 net.cpp:425] inception_4e/output <- inception_4e/3x3
I0403 18:05:11.316066 21300 net.cpp:425] inception_4e/output <- inception_4e/5x5
I0403 18:05:11.316082 21300 net.cpp:425] inception_4e/output <- inception_4e/pool_proj
I0403 18:05:11.316097 21300 net.cpp:399] inception_4e/output -> inception_4e/output
I0403 18:05:11.316144 21300 net.cpp:141] Setting up inception_4e/output
I0403 18:05:11.316166 21300 net.cpp:148] Top shape: 24 832 14 14 (3913728)
I0403 18:05:11.316179 21300 net.cpp:156] Memory required for data: 1272557088
I0403 18:05:11.316192 21300 layer_factory.hpp:77] Creating layer pool4/3x3_s2
I0403 18:05:11.316208 21300 net.cpp:91] Creating Layer pool4/3x3_s2
I0403 18:05:11.316222 21300 net.cpp:425] pool4/3x3_s2 <- inception_4e/output
I0403 18:05:11.316241 21300 net.cpp:399] pool4/3x3_s2 -> pool4/3x3_s2
I0403 18:05:11.316320 21300 net.cpp:141] Setting up pool4/3x3_s2
I0403 18:05:11.316344 21300 net.cpp:148] Top shape: 24 832 7 7 (978432)
I0403 18:05:11.316356 21300 net.cpp:156] Memory required for data: 1276470816
I0403 18:05:11.316370 21300 layer_factory.hpp:77] Creating layer pool4/3x3_s2_pool4/3x3_s2_0_split
I0403 18:05:11.316390 21300 net.cpp:91] Creating Layer pool4/3x3_s2_pool4/3x3_s2_0_split
I0403 18:05:11.316406 21300 net.cpp:425] pool4/3x3_s2_pool4/3x3_s2_0_split <- pool4/3x3_s2
I0403 18:05:11.316424 21300 net.cpp:399] pool4/3x3_s2_pool4/3x3_s2_0_split -> pool4/3x3_s2_pool4/3x3_s2_0_split_0
I0403 18:05:11.316444 21300 net.cpp:399] pool4/3x3_s2_pool4/3x3_s2_0_split -> pool4/3x3_s2_pool4/3x3_s2_0_split_1
I0403 18:05:11.316463 21300 net.cpp:399] pool4/3x3_s2_pool4/3x3_s2_0_split -> pool4/3x3_s2_pool4/3x3_s2_0_split_2
I0403 18:05:11.316483 21300 net.cpp:399] pool4/3x3_s2_pool4/3x3_s2_0_split -> pool4/3x3_s2_pool4/3x3_s2_0_split_3
I0403 18:05:11.316588 21300 net.cpp:141] Setting up pool4/3x3_s2_pool4/3x3_s2_0_split
I0403 18:05:11.316611 21300 net.cpp:148] Top shape: 24 832 7 7 (978432)
I0403 18:05:11.316628 21300 net.cpp:148] Top shape: 24 832 7 7 (978432)
I0403 18:05:11.316643 21300 net.cpp:148] Top shape: 24 832 7 7 (978432)
I0403 18:05:11.316656 21300 net.cpp:148] Top shape: 24 832 7 7 (978432)
I0403 18:05:11.316669 21300 net.cpp:156] Memory required for data: 1292125728
I0403 18:05:11.316682 21300 layer_factory.hpp:77] Creating layer inception_5a/1x1
I0403 18:05:11.316700 21300 net.cpp:91] Creating Layer inception_5a/1x1
I0403 18:05:11.316715 21300 net.cpp:425] inception_5a/1x1 <- pool4/3x3_s2_pool4/3x3_s2_0_split_0
I0403 18:05:11.316735 21300 net.cpp:399] inception_5a/1x1 -> inception_5a/1x1
I0403 18:05:11.319507 21300 net.cpp:141] Setting up inception_5a/1x1
I0403 18:05:11.319541 21300 net.cpp:148] Top shape: 24 256 7 7 (301056)
I0403 18:05:11.319571 21300 net.cpp:156] Memory required for data: 1293329952
I0403 18:05:11.319587 21300 layer_factory.hpp:77] Creating layer inception_5a/relu_1x1
I0403 18:05:11.319604 21300 net.cpp:91] Creating Layer inception_5a/relu_1x1
I0403 18:05:11.319619 21300 net.cpp:425] inception_5a/relu_1x1 <- inception_5a/1x1
I0403 18:05:11.319634 21300 net.cpp:386] inception_5a/relu_1x1 -> inception_5a/1x1 (in-place)
I0403 18:05:11.319934 21300 net.cpp:141] Setting up inception_5a/relu_1x1
I0403 18:05:11.319960 21300 net.cpp:148] Top shape: 24 256 7 7 (301056)
I0403 18:05:11.319977 21300 net.cpp:156] Memory required for data: 1294534176
I0403 18:05:11.319990 21300 layer_factory.hpp:77] Creating layer inception_5a/3x3_reduce
I0403 18:05:11.320010 21300 net.cpp:91] Creating Layer inception_5a/3x3_reduce
I0403 18:05:11.320026 21300 net.cpp:425] inception_5a/3x3_reduce <- pool4/3x3_s2_pool4/3x3_s2_0_split_1
I0403 18:05:11.320044 21300 net.cpp:399] inception_5a/3x3_reduce -> inception_5a/3x3_reduce
I0403 18:05:11.322463 21300 net.cpp:141] Setting up inception_5a/3x3_reduce
I0403 18:05:11.322490 21300 net.cpp:148] Top shape: 24 160 7 7 (188160)
I0403 18:05:11.322504 21300 net.cpp:156] Memory required for data: 1295286816
I0403 18:05:11.322521 21300 layer_factory.hpp:77] Creating layer inception_5a/relu_3x3_reduce
I0403 18:05:11.322546 21300 net.cpp:91] Creating Layer inception_5a/relu_3x3_reduce
I0403 18:05:11.322562 21300 net.cpp:425] inception_5a/relu_3x3_reduce <- inception_5a/3x3_reduce
I0403 18:05:11.322579 21300 net.cpp:386] inception_5a/relu_3x3_reduce -> inception_5a/3x3_reduce (in-place)
I0403 18:05:11.322758 21300 net.cpp:141] Setting up inception_5a/relu_3x3_reduce
I0403 18:05:11.322783 21300 net.cpp:148] Top shape: 24 160 7 7 (188160)
I0403 18:05:11.322798 21300 net.cpp:156] Memory required for data: 1296039456
I0403 18:05:11.322811 21300 layer_factory.hpp:77] Creating layer inception_5a/3x3
I0403 18:05:11.322829 21300 net.cpp:91] Creating Layer inception_5a/3x3
I0403 18:05:11.322844 21300 net.cpp:425] inception_5a/3x3 <- inception_5a/3x3_reduce
I0403 18:05:11.322865 21300 net.cpp:399] inception_5a/3x3 -> inception_5a/3x3
I0403 18:05:11.327749 21300 net.cpp:141] Setting up inception_5a/3x3
I0403 18:05:11.327777 21300 net.cpp:148] Top shape: 24 320 7 7 (376320)
I0403 18:05:11.327792 21300 net.cpp:156] Memory required for data: 1297544736
I0403 18:05:11.327810 21300 layer_factory.hpp:77] Creating layer inception_5a/relu_3x3
I0403 18:05:11.327828 21300 net.cpp:91] Creating Layer inception_5a/relu_3x3
I0403 18:05:11.327843 21300 net.cpp:425] inception_5a/relu_3x3 <- inception_5a/3x3
I0403 18:05:11.327860 21300 net.cpp:386] inception_5a/relu_3x3 -> inception_5a/3x3 (in-place)
I0403 18:05:11.328142 21300 net.cpp:141] Setting up inception_5a/relu_3x3
I0403 18:05:11.328166 21300 net.cpp:148] Top shape: 24 320 7 7 (376320)
I0403 18:05:11.328181 21300 net.cpp:156] Memory required for data: 1299050016
I0403 18:05:11.328196 21300 layer_factory.hpp:77] Creating layer inception_5a/5x5_reduce
I0403 18:05:11.328218 21300 net.cpp:91] Creating Layer inception_5a/5x5_reduce
I0403 18:05:11.328235 21300 net.cpp:425] inception_5a/5x5_reduce <- pool4/3x3_s2_pool4/3x3_s2_0_split_2
I0403 18:05:11.328253 21300 net.cpp:399] inception_5a/5x5_reduce -> inception_5a/5x5_reduce
I0403 18:05:11.329396 21300 net.cpp:141] Setting up inception_5a/5x5_reduce
I0403 18:05:11.329426 21300 net.cpp:148] Top shape: 24 32 7 7 (37632)
I0403 18:05:11.329442 21300 net.cpp:156] Memory required for data: 1299200544
I0403 18:05:11.329459 21300 layer_factory.hpp:77] Creating layer inception_5a/relu_5x5_reduce
I0403 18:05:11.329476 21300 net.cpp:91] Creating Layer inception_5a/relu_5x5_reduce
I0403 18:05:11.329491 21300 net.cpp:425] inception_5a/relu_5x5_reduce <- inception_5a/5x5_reduce
I0403 18:05:11.329509 21300 net.cpp:386] inception_5a/relu_5x5_reduce -> inception_5a/5x5_reduce (in-place)
I0403 18:05:11.329814 21300 net.cpp:141] Setting up inception_5a/relu_5x5_reduce
I0403 18:05:11.329840 21300 net.cpp:148] Top shape: 24 32 7 7 (37632)
I0403 18:05:11.329854 21300 net.cpp:156] Memory required for data: 1299351072
I0403 18:05:11.329869 21300 layer_factory.hpp:77] Creating layer inception_5a/5x5
I0403 18:05:11.329891 21300 net.cpp:91] Creating Layer inception_5a/5x5
I0403 18:05:11.329908 21300 net.cpp:425] inception_5a/5x5 <- inception_5a/5x5_reduce
I0403 18:05:11.329927 21300 net.cpp:399] inception_5a/5x5 -> inception_5a/5x5
I0403 18:05:11.331612 21300 net.cpp:141] Setting up inception_5a/5x5
I0403 18:05:11.331650 21300 net.cpp:148] Top shape: 24 128 7 7 (150528)
I0403 18:05:11.331665 21300 net.cpp:156] Memory required for data: 1299953184
I0403 18:05:11.331681 21300 layer_factory.hpp:77] Creating layer inception_5a/relu_5x5
I0403 18:05:11.331699 21300 net.cpp:91] Creating Layer inception_5a/relu_5x5
I0403 18:05:11.331714 21300 net.cpp:425] inception_5a/relu_5x5 <- inception_5a/5x5
I0403 18:05:11.331730 21300 net.cpp:386] inception_5a/relu_5x5 -> inception_5a/5x5 (in-place)
I0403 18:05:11.331914 21300 net.cpp:141] Setting up inception_5a/relu_5x5
I0403 18:05:11.331938 21300 net.cpp:148] Top shape: 24 128 7 7 (150528)
I0403 18:05:11.331953 21300 net.cpp:156] Memory required for data: 1300555296
I0403 18:05:11.331966 21300 layer_factory.hpp:77] Creating layer inception_5a/pool
I0403 18:05:11.331981 21300 net.cpp:91] Creating Layer inception_5a/pool
I0403 18:05:11.331997 21300 net.cpp:425] inception_5a/pool <- pool4/3x3_s2_pool4/3x3_s2_0_split_3
I0403 18:05:11.332016 21300 net.cpp:399] inception_5a/pool -> inception_5a/pool
I0403 18:05:11.332082 21300 net.cpp:141] Setting up inception_5a/pool
I0403 18:05:11.332105 21300 net.cpp:148] Top shape: 24 832 7 7 (978432)
I0403 18:05:11.332119 21300 net.cpp:156] Memory required for data: 1304469024
I0403 18:05:11.332132 21300 layer_factory.hpp:77] Creating layer inception_5a/pool_proj
I0403 18:05:11.332154 21300 net.cpp:91] Creating Layer inception_5a/pool_proj
I0403 18:05:11.332170 21300 net.cpp:425] inception_5a/pool_proj <- inception_5a/pool
I0403 18:05:11.332187 21300 net.cpp:399] inception_5a/pool_proj -> inception_5a/pool_proj
I0403 18:05:11.334465 21300 net.cpp:141] Setting up inception_5a/pool_proj
I0403 18:05:11.334496 21300 net.cpp:148] Top shape: 24 128 7 7 (150528)
I0403 18:05:11.334511 21300 net.cpp:156] Memory required for data: 1305071136
I0403 18:05:11.334528 21300 layer_factory.hpp:77] Creating layer inception_5a/relu_pool_proj
I0403 18:05:11.334571 21300 net.cpp:91] Creating Layer inception_5a/relu_pool_proj
I0403 18:05:11.334589 21300 net.cpp:425] inception_5a/relu_pool_proj <- inception_5a/pool_proj
I0403 18:05:11.334606 21300 net.cpp:386] inception_5a/relu_pool_proj -> inception_5a/pool_proj (in-place)
I0403 18:05:11.334903 21300 net.cpp:141] Setting up inception_5a/relu_pool_proj
I0403 18:05:11.334928 21300 net.cpp:148] Top shape: 24 128 7 7 (150528)
I0403 18:05:11.334942 21300 net.cpp:156] Memory required for data: 1305673248
I0403 18:05:11.334956 21300 layer_factory.hpp:77] Creating layer inception_5a/output
I0403 18:05:11.334975 21300 net.cpp:91] Creating Layer inception_5a/output
I0403 18:05:11.334990 21300 net.cpp:425] inception_5a/output <- inception_5a/1x1
I0403 18:05:11.335006 21300 net.cpp:425] inception_5a/output <- inception_5a/3x3
I0403 18:05:11.335022 21300 net.cpp:425] inception_5a/output <- inception_5a/5x5
I0403 18:05:11.335037 21300 net.cpp:425] inception_5a/output <- inception_5a/pool_proj
I0403 18:05:11.335052 21300 net.cpp:399] inception_5a/output -> inception_5a/output
I0403 18:05:11.335101 21300 net.cpp:141] Setting up inception_5a/output
I0403 18:05:11.335124 21300 net.cpp:148] Top shape: 24 832 7 7 (978432)
I0403 18:05:11.335137 21300 net.cpp:156] Memory required for data: 1309586976
I0403 18:05:11.335151 21300 layer_factory.hpp:77] Creating layer inception_5a/output_inception_5a/output_0_split
I0403 18:05:11.335168 21300 net.cpp:91] Creating Layer inception_5a/output_inception_5a/output_0_split
I0403 18:05:11.335182 21300 net.cpp:425] inception_5a/output_inception_5a/output_0_split <- inception_5a/output
I0403 18:05:11.335201 21300 net.cpp:399] inception_5a/output_inception_5a/output_0_split -> inception_5a/output_inception_5a/output_0_split_0
I0403 18:05:11.335221 21300 net.cpp:399] inception_5a/output_inception_5a/output_0_split -> inception_5a/output_inception_5a/output_0_split_1
I0403 18:05:11.335240 21300 net.cpp:399] inception_5a/output_inception_5a/output_0_split -> inception_5a/output_inception_5a/output_0_split_2
I0403 18:05:11.335259 21300 net.cpp:399] inception_5a/output_inception_5a/output_0_split -> inception_5a/output_inception_5a/output_0_split_3
I0403 18:05:11.335371 21300 net.cpp:141] Setting up inception_5a/output_inception_5a/output_0_split
I0403 18:05:11.335394 21300 net.cpp:148] Top shape: 24 832 7 7 (978432)
I0403 18:05:11.335410 21300 net.cpp:148] Top shape: 24 832 7 7 (978432)
I0403 18:05:11.335425 21300 net.cpp:148] Top shape: 24 832 7 7 (978432)
I0403 18:05:11.335439 21300 net.cpp:148] Top shape: 24 832 7 7 (978432)
I0403 18:05:11.335453 21300 net.cpp:156] Memory required for data: 1325241888
I0403 18:05:11.335466 21300 layer_factory.hpp:77] Creating layer inception_5b/1x1
I0403 18:05:11.335489 21300 net.cpp:91] Creating Layer inception_5b/1x1
I0403 18:05:11.335505 21300 net.cpp:425] inception_5b/1x1 <- inception_5a/output_inception_5a/output_0_split_0
I0403 18:05:11.335525 21300 net.cpp:399] inception_5b/1x1 -> inception_5b/1x1
I0403 18:05:11.339287 21300 net.cpp:141] Setting up inception_5b/1x1
I0403 18:05:11.339318 21300 net.cpp:148] Top shape: 24 384 7 7 (451584)
I0403 18:05:11.339332 21300 net.cpp:156] Memory required for data: 1327048224
I0403 18:05:11.339350 21300 layer_factory.hpp:77] Creating layer inception_5b/relu_1x1
I0403 18:05:11.339370 21300 net.cpp:91] Creating Layer inception_5b/relu_1x1
I0403 18:05:11.339387 21300 net.cpp:425] inception_5b/relu_1x1 <- inception_5b/1x1
I0403 18:05:11.339404 21300 net.cpp:386] inception_5b/relu_1x1 -> inception_5b/1x1 (in-place)
I0403 18:05:11.339730 21300 net.cpp:141] Setting up inception_5b/relu_1x1
I0403 18:05:11.339754 21300 net.cpp:148] Top shape: 24 384 7 7 (451584)
I0403 18:05:11.339768 21300 net.cpp:156] Memory required for data: 1328854560
I0403 18:05:11.339782 21300 layer_factory.hpp:77] Creating layer inception_5b/3x3_reduce
I0403 18:05:11.339804 21300 net.cpp:91] Creating Layer inception_5b/3x3_reduce
I0403 18:05:11.339821 21300 net.cpp:425] inception_5b/3x3_reduce <- inception_5a/output_inception_5a/output_0_split_1
I0403 18:05:11.339843 21300 net.cpp:399] inception_5b/3x3_reduce -> inception_5b/3x3_reduce
I0403 18:05:11.342499 21300 net.cpp:141] Setting up inception_5b/3x3_reduce
I0403 18:05:11.342527 21300 net.cpp:148] Top shape: 24 192 7 7 (225792)
I0403 18:05:11.342548 21300 net.cpp:156] Memory required for data: 1329757728
I0403 18:05:11.342567 21300 layer_factory.hpp:77] Creating layer inception_5b/relu_3x3_reduce
I0403 18:05:11.342587 21300 net.cpp:91] Creating Layer inception_5b/relu_3x3_reduce
I0403 18:05:11.342603 21300 net.cpp:425] inception_5b/relu_3x3_reduce <- inception_5b/3x3_reduce
I0403 18:05:11.342619 21300 net.cpp:386] inception_5b/relu_3x3_reduce -> inception_5b/3x3_reduce (in-place)
I0403 18:05:11.342806 21300 net.cpp:141] Setting up inception_5b/relu_3x3_reduce
I0403 18:05:11.342833 21300 net.cpp:148] Top shape: 24 192 7 7 (225792)
I0403 18:05:11.342849 21300 net.cpp:156] Memory required for data: 1330660896
I0403 18:05:11.342862 21300 layer_factory.hpp:77] Creating layer inception_5b/3x3
I0403 18:05:11.342883 21300 net.cpp:91] Creating Layer inception_5b/3x3
I0403 18:05:11.342900 21300 net.cpp:425] inception_5b/3x3 <- inception_5b/3x3_reduce
I0403 18:05:11.342918 21300 net.cpp:399] inception_5b/3x3 -> inception_5b/3x3
I0403 18:05:11.349581 21300 net.cpp:141] Setting up inception_5b/3x3
I0403 18:05:11.349609 21300 net.cpp:148] Top shape: 24 384 7 7 (451584)
I0403 18:05:11.349624 21300 net.cpp:156] Memory required for data: 1332467232
I0403 18:05:11.349642 21300 layer_factory.hpp:77] Creating layer inception_5b/relu_3x3
I0403 18:05:11.349661 21300 net.cpp:91] Creating Layer inception_5b/relu_3x3
I0403 18:05:11.349678 21300 net.cpp:425] inception_5b/relu_3x3 <- inception_5b/3x3
I0403 18:05:11.349694 21300 net.cpp:386] inception_5b/relu_3x3 -> inception_5b/3x3 (in-place)
I0403 18:05:11.349997 21300 net.cpp:141] Setting up inception_5b/relu_3x3
I0403 18:05:11.350021 21300 net.cpp:148] Top shape: 24 384 7 7 (451584)
I0403 18:05:11.350035 21300 net.cpp:156] Memory required for data: 1334273568
I0403 18:05:11.350049 21300 layer_factory.hpp:77] Creating layer inception_5b/5x5_reduce
I0403 18:05:11.350087 21300 net.cpp:91] Creating Layer inception_5b/5x5_reduce
I0403 18:05:11.350106 21300 net.cpp:425] inception_5b/5x5_reduce <- inception_5a/output_inception_5a/output_0_split_2
I0403 18:05:11.350126 21300 net.cpp:399] inception_5b/5x5_reduce -> inception_5b/5x5_reduce
I0403 18:05:11.351367 21300 net.cpp:141] Setting up inception_5b/5x5_reduce
I0403 18:05:11.351394 21300 net.cpp:148] Top shape: 24 48 7 7 (56448)
I0403 18:05:11.351409 21300 net.cpp:156] Memory required for data: 1334499360
I0403 18:05:11.351428 21300 layer_factory.hpp:77] Creating layer inception_5b/relu_5x5_reduce
I0403 18:05:11.351446 21300 net.cpp:91] Creating Layer inception_5b/relu_5x5_reduce
I0403 18:05:11.351462 21300 net.cpp:425] inception_5b/relu_5x5_reduce <- inception_5b/5x5_reduce
I0403 18:05:11.351478 21300 net.cpp:386] inception_5b/relu_5x5_reduce -> inception_5b/5x5_reduce (in-place)
I0403 18:05:11.351852 21300 net.cpp:141] Setting up inception_5b/relu_5x5_reduce
I0403 18:05:11.351877 21300 net.cpp:148] Top shape: 24 48 7 7 (56448)
I0403 18:05:11.351891 21300 net.cpp:156] Memory required for data: 1334725152
I0403 18:05:11.351905 21300 layer_factory.hpp:77] Creating layer inception_5b/5x5
I0403 18:05:11.351924 21300 net.cpp:91] Creating Layer inception_5b/5x5
I0403 18:05:11.351939 21300 net.cpp:425] inception_5b/5x5 <- inception_5b/5x5_reduce
I0403 18:05:11.351956 21300 net.cpp:399] inception_5b/5x5 -> inception_5b/5x5
I0403 18:05:11.353965 21300 net.cpp:141] Setting up inception_5b/5x5
I0403 18:05:11.353994 21300 net.cpp:148] Top shape: 24 128 7 7 (150528)
I0403 18:05:11.354009 21300 net.cpp:156] Memory required for data: 1335327264
I0403 18:05:11.354027 21300 layer_factory.hpp:77] Creating layer inception_5b/relu_5x5
I0403 18:05:11.354043 21300 net.cpp:91] Creating Layer inception_5b/relu_5x5
I0403 18:05:11.354058 21300 net.cpp:425] inception_5b/relu_5x5 <- inception_5b/5x5
I0403 18:05:11.354074 21300 net.cpp:386] inception_5b/relu_5x5 -> inception_5b/5x5 (in-place)
I0403 18:05:11.354259 21300 net.cpp:141] Setting up inception_5b/relu_5x5
I0403 18:05:11.354297 21300 net.cpp:148] Top shape: 24 128 7 7 (150528)
I0403 18:05:11.354312 21300 net.cpp:156] Memory required for data: 1335929376
I0403 18:05:11.354326 21300 layer_factory.hpp:77] Creating layer inception_5b/pool
I0403 18:05:11.354342 21300 net.cpp:91] Creating Layer inception_5b/pool
I0403 18:05:11.354357 21300 net.cpp:425] inception_5b/pool <- inception_5a/output_inception_5a/output_0_split_3
I0403 18:05:11.354377 21300 net.cpp:399] inception_5b/pool -> inception_5b/pool
I0403 18:05:11.354446 21300 net.cpp:141] Setting up inception_5b/pool
I0403 18:05:11.354471 21300 net.cpp:148] Top shape: 24 832 7 7 (978432)
I0403 18:05:11.354486 21300 net.cpp:156] Memory required for data: 1339843104
I0403 18:05:11.354499 21300 layer_factory.hpp:77] Creating layer inception_5b/pool_proj
I0403 18:05:11.354521 21300 net.cpp:91] Creating Layer inception_5b/pool_proj
I0403 18:05:11.354545 21300 net.cpp:425] inception_5b/pool_proj <- inception_5b/pool
I0403 18:05:11.354579 21300 net.cpp:399] inception_5b/pool_proj -> inception_5b/pool_proj
I0403 18:05:11.356825 21300 net.cpp:141] Setting up inception_5b/pool_proj
I0403 18:05:11.356853 21300 net.cpp:148] Top shape: 24 128 7 7 (150528)
I0403 18:05:11.356866 21300 net.cpp:156] Memory required for data: 1340445216
I0403 18:05:11.356884 21300 layer_factory.hpp:77] Creating layer inception_5b/relu_pool_proj
I0403 18:05:11.356901 21300 net.cpp:91] Creating Layer inception_5b/relu_pool_proj
I0403 18:05:11.356917 21300 net.cpp:425] inception_5b/relu_pool_proj <- inception_5b/pool_proj
I0403 18:05:11.356933 21300 net.cpp:386] inception_5b/relu_pool_proj -> inception_5b/pool_proj (in-place)
I0403 18:05:11.357234 21300 net.cpp:141] Setting up inception_5b/relu_pool_proj
I0403 18:05:11.357259 21300 net.cpp:148] Top shape: 24 128 7 7 (150528)
I0403 18:05:11.357273 21300 net.cpp:156] Memory required for data: 1341047328
I0403 18:05:11.357287 21300 layer_factory.hpp:77] Creating layer inception_5b/output
I0403 18:05:11.357306 21300 net.cpp:91] Creating Layer inception_5b/output
I0403 18:05:11.357336 21300 net.cpp:425] inception_5b/output <- inception_5b/1x1
I0403 18:05:11.357352 21300 net.cpp:425] inception_5b/output <- inception_5b/3x3
I0403 18:05:11.357368 21300 net.cpp:425] inception_5b/output <- inception_5b/5x5
I0403 18:05:11.357383 21300 net.cpp:425] inception_5b/output <- inception_5b/pool_proj
I0403 18:05:11.357398 21300 net.cpp:399] inception_5b/output -> inception_5b/output
I0403 18:05:11.357450 21300 net.cpp:141] Setting up inception_5b/output
I0403 18:05:11.357473 21300 net.cpp:148] Top shape: 24 1024 7 7 (1204224)
I0403 18:05:11.357487 21300 net.cpp:156] Memory required for data: 1345864224
I0403 18:05:11.357501 21300 layer_factory.hpp:77] Creating layer pool5/7x7_s1
I0403 18:05:11.357529 21300 net.cpp:91] Creating Layer pool5/7x7_s1
I0403 18:05:11.357550 21300 net.cpp:425] pool5/7x7_s1 <- inception_5b/output
I0403 18:05:11.357570 21300 net.cpp:399] pool5/7x7_s1 -> pool5/7x7_s1
I0403 18:05:11.357780 21300 net.cpp:141] Setting up pool5/7x7_s1
I0403 18:05:11.357806 21300 net.cpp:148] Top shape: 24 1024 1 1 (24576)
I0403 18:05:11.357820 21300 net.cpp:156] Memory required for data: 1345962528
I0403 18:05:11.357833 21300 layer_factory.hpp:77] Creating layer pool5/drop_7x7_s1
I0403 18:05:11.357851 21300 net.cpp:91] Creating Layer pool5/drop_7x7_s1
I0403 18:05:11.357864 21300 net.cpp:425] pool5/drop_7x7_s1 <- pool5/7x7_s1
I0403 18:05:11.357880 21300 net.cpp:386] pool5/drop_7x7_s1 -> pool5/7x7_s1 (in-place)
I0403 18:05:11.357928 21300 net.cpp:141] Setting up pool5/drop_7x7_s1
I0403 18:05:11.357950 21300 net.cpp:148] Top shape: 24 1024 1 1 (24576)
I0403 18:05:11.357964 21300 net.cpp:156] Memory required for data: 1346060832
I0403 18:05:11.357976 21300 layer_factory.hpp:77] Creating layer loss3/classifier_plantvillage
I0403 18:05:11.357995 21300 net.cpp:91] Creating Layer loss3/classifier_plantvillage
I0403 18:05:11.358011 21300 net.cpp:425] loss3/classifier_plantvillage <- pool5/7x7_s1
I0403 18:05:11.358028 21300 net.cpp:399] loss3/classifier_plantvillage -> loss3/classifier_plantvillage
I0403 18:05:11.358433 21300 net.cpp:141] Setting up loss3/classifier_plantvillage
I0403 18:05:11.358455 21300 net.cpp:148] Top shape: 24 38 (912)
I0403 18:05:11.358469 21300 net.cpp:156] Memory required for data: 1346064480
I0403 18:05:11.358485 21300 layer_factory.hpp:77] Creating layer loss3/classifier_plantvillage_loss3/classifier_plantvillage_0_split
I0403 18:05:11.358502 21300 net.cpp:91] Creating Layer loss3/classifier_plantvillage_loss3/classifier_plantvillage_0_split
I0403 18:05:11.358517 21300 net.cpp:425] loss3/classifier_plantvillage_loss3/classifier_plantvillage_0_split <- loss3/classifier_plantvillage
I0403 18:05:11.358542 21300 net.cpp:399] loss3/classifier_plantvillage_loss3/classifier_plantvillage_0_split -> loss3/classifier_plantvillage_loss3/classifier_plantvillage_0_split_0
I0403 18:05:11.358563 21300 net.cpp:399] loss3/classifier_plantvillage_loss3/classifier_plantvillage_0_split -> loss3/classifier_plantvillage_loss3/classifier_plantvillage_0_split_1
I0403 18:05:11.358583 21300 net.cpp:399] loss3/classifier_plantvillage_loss3/classifier_plantvillage_0_split -> loss3/classifier_plantvillage_loss3/classifier_plantvillage_0_split_2
I0403 18:05:11.358603 21300 net.cpp:399] loss3/classifier_plantvillage_loss3/classifier_plantvillage_0_split -> loss3/classifier_plantvillage_loss3/classifier_plantvillage_0_split_3
I0403 18:05:11.358698 21300 net.cpp:141] Setting up loss3/classifier_plantvillage_loss3/classifier_plantvillage_0_split
I0403 18:05:11.358721 21300 net.cpp:148] Top shape: 24 38 (912)
I0403 18:05:11.358736 21300 net.cpp:148] Top shape: 24 38 (912)
I0403 18:05:11.358749 21300 net.cpp:148] Top shape: 24 38 (912)
I0403 18:05:11.358763 21300 net.cpp:148] Top shape: 24 38 (912)
I0403 18:05:11.358777 21300 net.cpp:156] Memory required for data: 1346079072
I0403 18:05:11.358789 21300 layer_factory.hpp:77] Creating layer loss1/loss
I0403 18:05:11.358809 21300 net.cpp:91] Creating Layer loss1/loss
I0403 18:05:11.358826 21300 net.cpp:425] loss1/loss <- loss1/classifier_plantvillage_loss1/classifier_plantvillage_0_split_0
I0403 18:05:11.358855 21300 net.cpp:425] loss1/loss <- label_data_1_split_0
…
