…
I0403 18:01:05.146435 21088 net.cpp:313] The NetState phase (1) differed from the phase (0) specified by a rule in layer data
I0403 18:01:05.147542 21088 net.cpp:49] Initializing net from parameters: 
state {
  phase: TEST
}
layer {
  name: "data"
  type: "Data"
  top: "data"
  top: "label"
  include {
    phase: TEST
  }
  transform_param {
    mirror: false
    crop_size: 224
    mean_file: "/home/mohanty/data/final_dataset/lmdb/segmented-40-60/mean.binaryproto"
  }
  data_param {
    source: "/home/mohanty/data/final_dataset/lmdb/segmented-40-60/test_db"
    batch_size: 24
    backend: LMDB
  }
}
layer {
  name: "conv1/7x7_s2"
  type: "Convolution"
  bottom: "data"
  top: "conv1/7x7_s2"
  param {
    lr_mult: 1
    decay_mult: 1
  }
  param {
    lr_mult: 2
    decay_mult: 0
  }
  convolution_param {
    num_output: 64
    pad: 3
    kernel_size: 7
    stride: 2
    weight_filler {
      type: "xavier"
      std: 0.1
    }
    bias_filler {
      type: "constant"
      value: 0.2
    }
  }
}
layer {
  name: "conv1/relu_7x7"
  type: "ReLU"
  bottom: "conv1/7x7_s2"
  top: "conv1/7x7_s2"
}
layer {
  name: "pool1/3x3_s2"
  type: "Pooling"
  bottom: "conv1/7x7_s2"
  top: "pool1/3x3_s2"
  pooling_param {
    pool: MAX
    kernel_size: 3
    stride: 2
  }
}
layer {
  name: "pool1/norm1"
  type: "LRN"
  bottom: "pool1/3x3_s2"
  top: "pool1/norm1"
  lrn_param {
    local_size: 5
    alpha: 0.0001
    beta: 0.75
  }
}
layer {
  name: "conv2/3x3_reduce"
  type: "Convolution"
  bottom: "pool1/norm1"
  top: "conv2/3x3_reduce"
  param {
    lr_mult: 1
    decay_mult: 1
  }
  param {
    lr_mult: 2
    decay_mult: 0
  }
  convolution_param {
    num_output: 64
    kernel_size: 1
    weight_filler {
      type: "xavier"
      std: 0.1
    }
    bias_filler {
      type: "constant"
      value: 0.2
    }
  }
}
layer {
  name: "conv2/relu_3x3_reduce"
  type: "ReLU"
  bottom: "conv2/3x3_reduce"
  top: "conv2/3x3_reduce"
}
layer {
  name: "conv2/3x3"
  type: "Convolution"
  bottom: "conv2/3x3_reduce"
  top: "conv2/3x3"
  param {
    lr_mult: 1
    decay_mult: 1
  }
  param {
    lr_mult: 2
    decay_mult: 0
  }
  convolution_param {
    num_output: 192
    pad: 1
    kernel_size: 3
    weight_filler {
      type: "xavier"
      std: 0.03
    }
    bias_filler {
      type: "constant"
      value: 0.2
    }
  }
}
layer {
  name: "conv2/relu_3x3"
  type: "ReLU"
  bottom: "conv2/3x3"
  top: "conv2/3x3"
}
layer {
  name: "conv2/norm2"
  type: "LRN"
  bottom: "conv2/3x3"
  top: "conv2/norm2"
  lrn_param {
    local_size: 5
    alpha: 0.0001
    beta: 0.75
  }
}
layer {
  name: "pool2/3x3_s2"
  type: "Pooling"
  bottom: "conv2/norm2"
  top: "pool2/3x3_s2"
  pooling_param {
    pool: MAX
    kernel_size: 3
    stride: 2
  }
}
layer {
  name: "inception_3a/1x1"
  type: "Convolution"
  bottom: "pool2/3x3_s2"
  top: "inception_3a/1x1"
  param {
    lr_mult: 1
    decay_mult: 1
  }
  param {
    lr_mult: 2
    decay_mult: 0
  }
  convolution_param {
    num_output: 64
    kernel_size: 1
    weight_filler {
      type: "xavier"
      std: 0.03
    }
    bias_filler {
      type: "constant"
      value: 0.2
    }
  }
}
layer {
  name: "inception_3a/relu_1x1"
  type: "ReLU"
  bottom: "inception_3a/1x1"
  top: "inception_3a/1x1"
}
layer {
  name: "inception_3a/3x3_reduce"
  type: "Convolution"
  bottom: "pool2/3x3_s2"
  top: "inception_3a/3x3_reduce"
  param {
    lr_mult: 1
    decay_mult: 1
  }
  param {
    lr_mult: 2
    decay_mult: 0
  }
  convolution_param {
    num_output: 96
    kernel_size: 1
    weight_filler {
      type: "xavier"
      std: 0.09
    }
    bias_filler {
      type: "constant"
      value: 0.2
    }
  }
}
layer {
  name: "inception_3a/relu_3x3_reduce"
  type: "ReLU"
  bottom: "inception_3a/3x3_reduce"
  top: "inception_3a/3x3_reduce"
}
layer {
  name: "inception_3a/3x3"
  type: "Convolution"
  bottom: "inception_3a/3x3_reduce"
  top: "inception_3a/3x3"
  param {
    lr_mult: 1
    decay_mult: 1
  }
  param {
    lr_mult: 2
    decay_mult: 0
  }
  convolution_param {
    num_output: 128
    pad: 1
    kernel_size: 3
    weight_filler {
      type: "xavier"
      std: 0.03
    }
    bias_filler {
      type: "constant"
      value: 0.2
    }
  }
}
layer {
  name: "inception_3a/relu_3x3"
  type: "ReLU"
  bottom: "inception_3a/3x3"
  top: "inception_3a/3x3"
}
layer {
  name: "inception_3a/5x5_reduce"
  type: "Convolution"
  bottom: "pool2/3x3_s2"
  top: "inception_3a/5x5_reduce"
  param {
    lr_mult: 1
    decay_mult: 1
  }
  param {
    lr_mult: 2
    decay_mult: 0
  }
  convolution_param {
    num_output: 16
    kernel_size: 1
    weight_filler {
      type: "xavier"
      std: 0.2
    }
    bias_filler {
      type: "constant"
      value: 0.2
    }
  }
}
layer {
  name: "inception_3a/relu_5x5_reduce"
  type: "ReLU"
  bottom: "inception_3a/5x5_reduce"
  top: "inception_3a/5x5_reduce"
}
layer {
  name: "inception_3a/5x5"
  type: "Convolution"
  bottom: "inception_3a/5x5_reduce"
  top: "inception_3a/5x5"
  param {
    lr_mult: 1
    decay_mult: 1
  }
  param {
    lr_mult: 2
    decay_mult: 0
  }
  convolution_param {
    num_output: 32
    pad: 2
    kernel_size: 5
    weight_filler {
      type: "xavier"
      std: 0.03
    }
    bias_filler {
      type: "constant"
      value: 0.2
    }
  }
}
layer {
  name: "inception_3a/relu_5x5"
  type: "ReLU"
  bottom: "inception_3a/5x5"
  top: "inception_3a/5x5"
}
layer {
  name: "inception_3a/pool"
  type: "Pooling"
  bottom: "pool2/3x3_s2"
  top: "inception_3a/pool"
  pooling_param {
    pool: MAX
    kernel_size: 3
    stride: 1
    pad: 1
  }
}
layer {
  name: "inception_3a/pool_proj"
  type: "Convolution"
  bottom: "inception_3a/pool"
  top: "inception_3a/pool_proj"
  param {
    lr_mult: 1
    decay_mult: 1
  }
  param {
    lr_mult: 2
    decay_mult: 0
  }
  convolution_param {
    num_output: 32
    kernel_size: 1
    weight_filler {
      type: "xavier"
      std: 0.1
    }
    bias_filler {
      type: "constant"
      value: 0.2
    }
  }
}
layer {
  name: "inception_3a/relu_pool_proj"
  type: "ReLU"
  bottom: "inception_3a/pool_proj"
  top: "inception_3a/pool_proj"
}
layer {
  name: "inception_3a/output"
  type: "Concat"
  bottom: "inception_3a/1x1"
  bottom: "inception_3a/3x3"
  bottom: "inception_3a/5x5"
  bottom: "inception_3a/pool_proj"
  top: "inception_3a/output"
}
layer {
  name: "inception_3b/1x1"
  type: "Convolution"
  bottom: "inception_3a/output"
  top: "inception_3b/1x1"
  param {
    lr_mult: 1
    decay_mult: 1
  }
  param {
    lr_mult: 2
    decay_mult: 0
  }
  convolution_param {
    num_output: 128
    kernel_size: 1
    weight_filler {
      type: "xavier"
      std: 0.03
    }
    bias_filler {
      type: "constant"
      value: 0.2
    }
  }
}
layer {
  name: "inception_3b/relu_1x1"
  type: "ReLU"
  bottom: "inception_3b/1x1"
  top: "inception_3b/1x1"
}
layer {
  name: "inception_3b/3x3_reduce"
  type: "Convolution"
  bottom: "inception_3a/output"
  top: "inception_3b/3x3_reduce"
  param {
    lr_mult: 1
    decay_mult: 1
  }
  param {
    lr_mult: 2
    decay_mult: 0
  }
  convolution_param {
    num_output: 128
    kernel_size: 1
    weight_filler {
      type: "xavier"
      std: 0.09
    }
    bias_filler {
      type: "constant"
      value: 0.2
    }
  }
}
layer {
  name: "inception_3b/relu_3x3_reduce"
  type: "ReLU"
  bottom: "inception_3b/3x3_reduce"
  top: "inception_3b/3x3_reduce"
}
layer {
  name: "inception_3b/3x3"
  type: "Convolution"
  bottom: "inception_3b/3x3_reduce"
  top: "inception_3b/3x3"
  param {
    lr_mult: 1
    decay_mult: 1
  }
  param {
    lr_mult: 2
    decay_mult: 0
  }
  convolution_param {
    num_output: 192
    pad: 1
    kernel_size: 3
    weight_filler {
      type: "xavier"
      std: 0.03
    }
    bias_filler {
      type: "constant"
      value: 0.2
    }
  }
}
layer {
  name: "inception_3b/relu_3x3"
  type: "ReLU"
  bottom: "inception_3b/3x3"
  top: "inception_3b/3x3"
}
layer {
  name: "inception_3b/5x5_reduce"
  type: "Convolution"
  bottom: "inception_3a/output"
  top: "inception_3b/5x5_reduce"
  param {
    lr_mult: 1
    decay_mult: 1
  }
  param {
    lr_mult: 2
    decay_mult: 0
  }
  convolution_param {
    num_output: 32
    kernel_size: 1
    weight_filler {
      type: "xavier"
      std: 0.2
    }
    bias_filler {
      type: "constant"
      value: 0.2
    }
  }
}
layer {
  name: "inception_3b/relu_5x5_reduce"
  type: "ReLU"
  bottom: "inception_3b/5x5_reduce"
  top: "inception_3b/5x5_reduce"
}
layer {
  name: "inception_3b/5x5"
  type: "Convolution"
  bottom: "inception_3b/5x5_reduce"
  top: "inception_3b/5x5"
  param {
    lr_mult: 1
    decay_mult: 1
  }
  param {
    lr_mult: 2
    decay_mult: 0
  }
  convolution_param {
    num_output: 96
    pad: 2
    kernel_size: 5
    weight_filler {
      type: "xavier"
      std: 0.03
    }
    bias_filler {
      type: "constant"
      value: 0.2
    }
  }
}
layer {
  name: "inception_3b/relu_5x5"
  type: "ReLU"
  bottom: "inception_3b/5x5"
  top: "inception_3b/5x5"
}
layer {
  name: "inception_3b/pool"
  type: "Pooling"
  bottom: "inception_3a/output"
  top: "inception_3b/pool"
  pooling_param {
    pool: MAX
    kernel_size: 3
    stride: 1
    pad: 1
  }
}
layer {
  name: "inception_3b/pool_proj"
  type: "Convolution"
  bottom: "inception_3b/pool"
  top: "inception_3b/pool_proj"
  param {
    lr_mult: 1
    decay_mult: 1
  }
  param {
    lr_mult: 2
    decay_mult: 0
  }
  convolution_param {
    num_output: 64
    kernel_size: 1
    weight_filler {
      type: "xavier"
      std: 0.1
    }
    bias_filler {
      type: "constant"
      value: 0.2
    }
  }
}
layer {
  name: "inception_3b/relu_pool_proj"
  type: "ReLU"
  bottom: "inception_3b/pool_proj"
  top: "inception_3b/pool_proj"
}
layer {
  name: "inception_3b/output"
  type: "Concat"
  bottom: "inception_3b/1x1"
  bottom: "inception_3b/3x3"
  bottom: "inception_3b/5x5"
  bottom: "inception_3b/pool_proj"
  top: "inception_3b/output"
}
layer {
  name: "pool3/3x3_s2"
  type: "Pooling"
  bottom: "inception_3b/output"
  top: "pool3/3x3_s2"
  pooling_param {
    pool: MAX
    kernel_size: 3
    stride: 2
  }
}
layer {
  name: "inception_4a/1x1"
  type: "Convolution"
  bottom: "pool3/3x3_s2"
  top: "inception_4a/1x1"
  param {
    lr_mult: 1
    decay_mult: 1
  }
  param {
    lr_mult: 2
    decay_mult: 0
  }
  convolution_param {
    num_output: 192
    kernel_size: 1
    weight_filler {
      type: "xavier"
      std: 0.03
    }
    bias_filler {
      type: "constant"
      value: 0.2
    }
  }
}
layer {
  name: "inception_4a/relu_1x1"
  type: "ReLU"
  bottom: "inception_4a/1x1"
  top: "inception_4a/1x1"
}
layer {
  name: "inception_4a/3x3_reduce"
  type: "Convolution"
  bottom: "pool3/3x3_s2"
  top: "inception_4a/3x3_reduce"
  param {
    lr_mult: 1
    decay_mult: 1
  }
  param {
    lr_mult: 2
    decay_mult: 0
  }
  convolution_param {
    num_output: 96
    kernel_size: 1
    weight_filler {
      type: "xavier"
      std: 0.09
    }
    bias_filler {
      type: "constant"
      value: 0.2
    }
  }
}
layer {
  name: "inception_4a/relu_3x3_reduce"
  type: "ReLU"
  bottom: "inception_4a/3x3_reduce"
  top: "inception_4a/3x3_reduce"
}
layer {
  name: "inception_4a/3x3"
  type: "Convolution"
  bottom: "inception_4a/3x3_reduce"
  top: "inception_4a/3x3"
  param {
    lr_mult: 1
    decay_mult: 1
  }
  param {
    lr_mult: 2
    decay_mult: 0
  }
  convolution_param {
    num_output: 208
    pad: 1
    kernel_size: 3
    weight_filler {
      type: "xavier"
      std: 0.03
    }
    bias_filler {
      type: "constant"
      value: 0.2
    }
  }
}
layer {
  name: "inception_4a/relu_3x3"
  type: "ReLU"
  bottom: "inception_4a/3x3"
  top: "inception_4a/3x3"
}
layer {
  name: "inception_4a/5x5_reduce"
  type: "Convolution"
  bottom: "pool3/3x3_s2"
  top: "inception_4a/5x5_reduce"
  param {
    lr_mult: 1
    decay_mult: 1
  }
  param {
    lr_mult: 2
    decay_mult: 0
  }
  convolution_param {
    num_output: 16
    kernel_size: 1
    weight_filler {
      type: "xavier"
      std: 0.2
    }
    bias_filler {
      type: "constant"
      value: 0.2
    }
  }
}
layer {
  name: "inception_4a/relu_5x5_reduce"
  type: "ReLU"
  bottom: "inception_4a/5x5_reduce"
  top: "inception_4a/5x5_reduce"
}
layer {
  name: "inception_4a/5x5"
  type: "Convolution"
  bottom: "inception_4a/5x5_reduce"
  top: "inception_4a/5x5"
  param {
    lr_mult: 1
    decay_mult: 1
  }
  param {
    lr_mult: 2
    decay_mult: 0
  }
  convolution_param {
    num_output: 48
    pad: 2
    kernel_size: 5
    weight_filler {
      type: "xavier"
      std: 0.03
    }
    bias_filler {
      type: "constant"
      value: 0.2
    }
  }
}
layer {
  name: "inception_4a/relu_5x5"
  type: "ReLU"
  bottom: "inception_4a/5x5"
  top: "inception_4a/5x5"
}
layer {
  name: "inception_4a/pool"
  type: "Pooling"
  bottom: "pool3/3x3_s2"
  top: "inception_4a/pool"
  pooling_param {
    pool: MAX
    kernel_size: 3
    stride: 1
    pad: 1
  }
}
layer {
  name: "inception_4a/pool_proj"
  type: "Convolution"
  bottom: "inception_4a/pool"
  top: "inception_4a/pool_proj"
  param {
    lr_mult: 1
    decay_mult: 1
  }
  param {
    lr_mult: 2
    decay_mult: 0
  }
  convolution_param {
    num_output: 64
    kernel_size: 1
    weight_filler {
      type: "xavier"
      std: 0.1
    }
    bias_filler {
      type: "constant"
      value: 0.2
    }
  }
}
layer {
  name: "inception_4a/relu_pool_proj"
  type: "ReLU"
  bottom: "inception_4a/pool_proj"
  top: "inception_4a/pool_proj"
}
layer {
  name: "inception_4a/output"
  type: "Concat"
  bottom: "inception_4a/1x1"
  bottom: "inception_4a/3x3"
  bottom: "inception_4a/5x5"
  bottom: "inception_4a/pool_proj"
  top: "inception_4a/output"
}
layer {
  name: "loss1/ave_pool"
  type: "Pooling"
  bottom: "inception_4a/output"
  top: "loss1/ave_pool"
  pooling_param {
    pool: AVE
    kernel_size: 5
    stride: 3
  }
}
layer {
  name: "loss1/conv"
  type: "Convolution"
  bottom: "loss1/ave_pool"
  top: "loss1/conv"
  param {
    lr_mult: 1
    decay_mult: 1
  }
  param {
    lr_mult: 2
    decay_mult: 0
  }
  convolution_param {
    num_output: 128
    kernel_size: 1
    weight_filler {
      type: "xavier"
      std: 0.08
    }
    bias_filler {
      type: "constant"
      value: 0.2
    }
  }
}
layer {
  name: "loss1/relu_conv"
  type: "ReLU"
  bottom: "loss1/conv"
  top: "loss1/conv"
}
layer {
  name: "loss1/fc"
  type: "InnerProduct"
  bottom: "loss1/conv"
  top: "loss1/fc"
  param {
    lr_mult: 1
    decay_mult: 1
  }
  param {
    lr_mult: 2
    decay_mult: 0
  }
  inner_product_param {
    num_output: 1024
    weight_filler {
      type: "xavier"
      std: 0.02
    }
    bias_filler {
      type: "constant"
      value: 0.2
    }
  }
}
layer {
  name: "loss1/relu_fc"
  type: "ReLU"
  bottom: "loss1/fc"
  top: "loss1/fc"
}
layer {
  name: "loss1/drop_fc"
  type: "Dropout"
  bottom: "loss1/fc"
  top: "loss1/fc"
  dropout_param {
    dropout_ratio: 0.7
  }
}
layer {
  name: "loss1/classifier_plantvillage"
  type: "InnerProduct"
  bottom: "loss1/fc"
  top: "loss1/classifier_plantvillage"
  param {
    lr_mult: 1
    decay_mult: 1
  }
  param {
    lr_mult: 2
    decay_mult: 0
  }
  inner_product_param {
    num_output: 38
    weight_filler {
      type: "xavier"
      std: 0.0009765625
    }
    bias_filler {
      type: "constant"
      value: 0
    }
  }
}
layer {
  name: "inception_4b/1x1"
  type: "Convolution"
  bottom: "inception_4a/output"
  top: "inception_4b/1x1"
  param {
    lr_mult: 1
    decay_mult: 1
  }
  param {
    lr_mult: 2
    decay_mult: 0
  }
  convolution_param {
    num_output: 160
    kernel_size: 1
    weight_filler {
      type: "xavier"
      std: 0.03
    }
    bias_filler {
      type: "constant"
      value: 0.2
    }
  }
}
layer {
  name: "inception_4b/relu_1x1"
  type: "ReLU"
  bottom: "inception_4b/1x1"
  top: "inception_4b/1x1"
}
layer {
  name: "inception_4b/3x3_reduce"
  type: "Convolution"
  bottom: "inception_4a/output"
  top: "inception_4b/3x3_reduce"
  param {
    lr_mult: 1
    decay_mult: 1
  }
  param {
    lr_mult: 2
    decay_mult: 0
  }
  convolution_param {
    num_output: 112
    kernel_size: 1
    weight_filler {
      type: "xavier"
      std: 0.09
    }
    bias_filler {
      type: "constant"
      value: 0.2
    }
  }
}
layer {
  name: "inception_4b/relu_3x3_reduce"
  type: "ReLU"
  bottom: "inception_4b/3x3_reduce"
  top: "inception_4b/3x3_reduce"
}
layer {
  name: "inception_4b/3x3"
  type: "Convolution"
  bottom: "inception_4b/3x3_reduce"
  top: "inception_4b/3x3"
  param {
    lr_mult: 1
    decay_mult: 1
  }
  param {
    lr_mult: 2
    decay_mult: 0
  }
  convolution_param {
    num_output: 224
    pad: 1
    kernel_size: 3
    weight_filler {
      type: "xavier"
      std: 0.03
    }
    bias_filler {
      type: "constant"
      value: 0.2
    }
  }
}
layer {
  name: "inception_4b/relu_3x3"
  type: "ReLU"
  bottom: "inception_4b/3x3"
  top: "inception_4b/3x3"
}
layer {
  name: "inception_4b/5x5_reduce"
  type: "Convolution"
  bottom: "inception_4a/output"
  top: "inception_4b/5x5_reduce"
  param {
    lr_mult: 1
    decay_mult: 1
  }
  param {
    lr_mult: 2
    decay_mult: 0
  }
  convolution_param {
    num_output: 24
    kernel_size: 1
    weight_filler {
      type: "xavier"
      std: 0.2
    }
    bias_filler {
      type: "constant"
      value: 0.2
    }
  }
}
layer {
  name: "inception_4b/relu_5x5_reduce"
  type: "ReLU"
  bottom: "inception_4b/5x5_reduce"
  top: "inception_4b/5x5_reduce"
}
layer {
  name: "inception_4b/5x5"
  type: "Convolution"
  bottom: "inception_4b/5x5_reduce"
  top: "inception_4b/5x5"
  param {
    lr_mult: 1
    decay_mult: 1
  }
  param {
    lr_mult: 2
    decay_mult: 0
  }
  convolution_param {
    num_output: 64
    pad: 2
    kernel_size: 5
    weight_filler {
      type: "xavier"
      std: 0.03
    }
    bias_filler {
      type: "constant"
      value: 0.2
    }
  }
}
layer {
  name: "inception_4b/relu_5x5"
  type: "ReLU"
  bottom: "inception_4b/5x5"
  top: "inception_4b/5x5"
}
layer {
  name: "inception_4b/pool"
  type: "Pooling"
  bottom: "inception_4a/output"
  top: "inception_4b/pool"
  pooling_param {
    pool: MAX
    kernel_size: 3
    stride: 1
    pad: 1
  }
}
layer {
  name: "inception_4b/pool_proj"
  type: "Convolution"
  bottom: "inception_4b/pool"
  top: "inception_4b/pool_proj"
  param {
    lr_mult: 1
    decay_mult: 1
  }
  param {
    lr_mult: 2
    decay_mult: 0
  }
  convolution_param {
    num_output: 64
    kernel_size: 1
    weight_filler {
      type: "xavier"
      std: 0.1
    }
    bias_filler {
      type: "constant"
      value: 0.2
    }
  }
}
layer {
  name: "inception_4b/relu_pool_proj"
  type: "ReLU"
  bottom: "inception_4b/pool_proj"
  top: "inception_4b/pool_proj"
}
layer {
  name: "inception_4b/output"
  type: "Concat"
  bottom: "inception_4b/1x1"
  bottom: "inception_4b/3x3"
  bottom: "inception_4b/5x5"
  bottom: "inception_4b/pool_proj"
  top: "inception_4b/output"
}
layer {
  name: "inception_4c/1x1"
  type: "Convolution"
  bottom: "inception_4b/output"
  top: "inception_4c/1x1"
  param {
    lr_mult: 1
    decay_mult: 1
  }
  param {
    lr_mult: 2
    decay_mult: 0
  }
  convolution_param {
    num_output: 128
    kernel_size: 1
    weight_filler {
      type: "xavier"
      std: 0.03
    }
    bias_filler {
      type: "constant"
      value: 0.2
    }
  }
}
layer {
  name: "inception_4c/relu_1x1"
  type: "ReLU"
  bottom: "inception_4c/1x1"
  top: "inception_4c/1x1"
}
layer {
  name: "inception_4c/3x3_reduce"
  type: "Convolution"
  bottom: "inception_4b/output"
  top: "inception_4c/3x3_reduce"
  param {
    lr_mult: 1
    decay_mult: 1
  }
  param {
    lr_mult: 2
    decay_mult: 0
  }
  convolution_param {
    num_output: 128
    kernel_size: 1
    weight_filler {
      type: "xavier"
      std: 0.09
    }
    bias_filler {
      type: "constant"
      value: 0.2
    }
  }
}
layer {
  name: "inception_4c/relu_3x3_reduce"
  type: "ReLU"
  bottom: "inception_4c/3x3_reduce"
  top: "inception_4c/3x3_reduce"
}
layer {
  name: "inception_4c/3x3"
  type: "Convolution"
  bottom: "inception_4c/3x3_reduce"
  top: "inception_4c/3x3"
  param {
    lr_mult: 1
    decay_mult: 1
  }
  param {
    lr_mult: 2
    decay_mult: 0
  }
  convolution_param {
    num_output: 256
    pad: 1
    kernel_size: 3
    weight_filler {
      type: "xavier"
      std: 0.03
    }
    bias_filler {
      type: "constant"
      value: 0.2
    }
  }
}
layer {
  name: "inception_4c/relu_3x3"
  type: "ReLU"
  bottom: "inception_4c/3x3"
  top: "inception_4c/3x3"
}
layer {
  name: "inception_4c/5x5_reduce"
  type: "Convolution"
  bottom: "inception_4b/output"
  top: "inception_4c/5x5_reduce"
  param {
    lr_mult: 1
    decay_mult: 1
  }
  param {
    lr_mult: 2
    decay_mult: 0
  }
  convolution_param {
    num_output: 24
    kernel_size: 1
    weight_filler {
      type: "xavier"
      std: 0.2
    }
    bias_filler {
      type: "constant"
      value: 0.2
    }
  }
}
layer {
  name: "inception_4c/relu_5x5_reduce"
  type: "ReLU"
  bottom: "inception_4c/5x5_reduce"
  top: "inception_4c/5x5_reduce"
}
layer {
  name: "inception_4c/5x5"
  type: "Convolution"
  bottom: "inception_4c/5x5_reduce"
  top: "inception_4c/5x5"
  param {
    lr_mult: 1
    decay_mult: 1
  }
  param {
    lr_mult: 2
    decay_mult: 0
  }
  convolution_param {
    num_output: 64
    pad: 2
    kernel_size: 5
    weight_filler {
      type: "xavier"
      std: 0.03
    }
    bias_filler {
      type: "constant"
      value: 0.2
    }
  }
}
layer {
  name: "inception_4c/relu_5x5"
  type: "ReLU"
  bottom: "inception_4c/5x5"
  top: "inception_4c/5x5"
}
layer {
  name: "inception_4c/pool"
  type: "Pooling"
  bottom: "inception_4b/output"
  top: "inception_4c/pool"
  pooling_param {
    pool: MAX
    kernel_size: 3
    stride: 1
    pad: 1
  }
}
layer {
  name: "inception_4c/pool_proj"
  type: "Convolution"
  bottom: "inception_4c/pool"
  top: "inception_4c/pool_proj"
  param {
    lr_mult: 1
    decay_mult: 1
  }
  param {
    lr_mult: 2
    decay_mult: 0
  }
  convolution_param {
    num_output: 64
    kernel_size: 1
    weight_filler {
      type: "xavier"
      std: 0.1
    }
    bias_filler {
      type: "constant"
      value: 0.2
    }
  }
}
layer {
  name: "inception_4c/relu_pool_proj"
  type: "ReLU"
  bottom: "inception_4c/pool_proj"
  top: "inception_4c/pool_proj"
}
layer {
  name: "inception_4c/output"
  type: "Concat"
  bottom: "inception_4c/1x1"
  bottom: "inception_4c/3x3"
  bottom: "inception_4c/5x5"
  bottom: "inception_4c/pool_proj"
  top: "inception_4c/output"
}
layer {
  name: "inception_4d/1x1"
  type: "Convolution"
  bottom: "inception_4c/output"
  top: "inception_4d/1x1"
  param {
    lr_mult: 1
    decay_mult: 1
  }
  param {
    lr_mult: 2
    decay_mult: 0
  }
  convolution_param {
    num_output: 112
    kernel_size: 1
    weight_filler {
      type: "xavier"
      std: 0.03
    }
    bias_filler {
      type: "constant"
      value: 0.2
    }
  }
}
layer {
  name: "inception_4d/relu_1x1"
  type: "ReLU"
  bottom: "inception_4d/1x1"
  top: "inception_4d/1x1"
}
layer {
  name: "inception_4d/3x3_reduce"
  type: "Convolution"
  bottom: "inception_4c/output"
  top: "inception_4d/3x3_reduce"
  param {
    lr_mult: 1
    decay_mult: 1
  }
  param {
    lr_mult: 2
    decay_mult: 0
  }
  convolution_param {
    num_output: 144
    kernel_size: 1
    weight_filler {
      type: "xavier"
      std: 0.09
    }
    bias_filler {
      type: "constant"
      value: 0.2
    }
  }
}
layer {
  name: "inception_4d/relu_3x3_reduce"
  type: "ReLU"
  bottom: "inception_4d/3x3_reduce"
  top: "inception_4d/3x3_reduce"
}
layer {
  name: "inception_4d/3x3"
  type: "Convolution"
  bottom: "inception_4d/3x3_reduce"
  top: "inception_4d/3x3"
  param {
    lr_mult: 1
    decay_mult: 1
  }
  param {
    lr_mult: 2
    decay_mult: 0
  }
  convolution_param {
    num_output: 288
    pad: 1
    kernel_size: 3
    weight_filler {
      type: "xavier"
      std: 0.03
    }
    bias_filler {
      type: "constant"
      value: 0.2
    }
  }
}
layer {
  name: "inception_4d/relu_3x3"
  type: "ReLU"
  bottom: "inception_4d/3x3"
  top: "inception_4d/3x3"
}
layer {
  name: "inception_4d/5x5_reduce"
  type: "Convolution"
  bottom: "inception_4c/output"
  top: "inception_4d/5x5_reduce"
  param {
    lr_mult: 1
    decay_mult: 1
  }
  param {
    lr_mult: 2
    decay_mult: 0
  }
  convolution_param {
    num_output: 32
    kernel_size: 1
    weight_filler {
      type: "xavier"
      std: 0.2
    }
    bias_filler {
      type: "constant"
      value: 0.2
    }
  }
}
layer {
  name: "inception_4d/relu_5x5_reduce"
  type: "ReLU"
  bottom: "inception_4d/5x5_reduce"
  top: "inception_4d/5x5_reduce"
}
layer {
  name: "inception_4d/5x5"
  type: "Convolution"
  bottom: "inception_4d/5x5_reduce"
  top: "inception_4d/5x5"
  param {
    lr_mult: 1
    decay_mult: 1
  }
  param {
    lr_mult: 2
    decay_mult: 0
  }
  convolution_param {
    num_output: 64
    pad: 2
    kernel_size: 5
    weight_filler {
      type: "xavier"
      std: 0.03
    }
    bias_filler {
      type: "constant"
      value: 0.2
    }
  }
}
layer {
  name: "inception_4d/relu_5x5"
  type: "ReLU"
  bottom: "inception_4d/5x5"
  top: "inception_4d/5x5"
}
layer {
  name: "inception_4d/pool"
  type: "Pooling"
  bottom: "inception_4c/output"
  top: "inception_4d/pool"
  pooling_param {
    pool: MAX
    kernel_size: 3
    stride: 1
    pad: 1
  }
}
layer {
  name: "inception_4d/pool_proj"
  type: "Convolution"
  bottom: "inception_4d/pool"
  top: "inception_4d/pool_proj"
  param {
    lr_mult: 1
    decay_mult: 1
  }
  param {
    lr_mult: 2
    decay_mult: 0
  }
  convolution_param {
    num_output: 64
    kernel_size: 1
    weight_filler {
      type: "xavier"
      std: 0.1
    }
    bias_filler {
      type: "constant"
      value: 0.2
    }
  }
}
layer {
  name: "inception_4d/relu_pool_proj"
  type: "ReLU"
  bottom: "inception_4d/pool_proj"
  top: "inception_4d/pool_proj"
}
layer {
  name: "inception_4d/output"
  type: "Concat"
  bottom: "inception_4d/1x1"
  bottom: "inception_4d/3x3"
  bottom: "inception_4d/5x5"
  bottom: "inception_4d/pool_proj"
  top: "inception_4d/output"
}
layer {
  name: "loss2/ave_pool"
  type: "Pooling"
  bottom: "inception_4d/output"
  top: "loss2/ave_pool"
  pooling_param {
    pool: AVE
    kernel_size: 5
    stride: 3
  }
}
layer {
  name: "loss2/conv"
  type: "Convolution"
  bottom: "loss2/ave_pool"
  top: "loss2/conv"
  param {
    lr_mult: 1
    decay_mult: 1
  }
  param {
    lr_mult: 2
    decay_mult: 0
  }
  convolution_param {
    num_output: 128
    kernel_size: 1
    weight_filler {
      type: "xavier"
      std: 0.08
    }
    bias_filler {
      type: "constant"
      value: 0.2
    }
  }
}
layer {
  name: "loss2/relu_conv"
  type: "ReLU"
  bottom: "loss2/conv"
  top: "loss2/conv"
}
layer {
  name: "loss2/fc"
  type: "InnerProduct"
  bottom: "loss2/conv"
  top: "loss2/fc"
  param {
    lr_mult: 1
    decay_mult: 1
  }
  param {
    lr_mult: 2
    decay_mult: 0
  }
  inner_product_param {
    num_output: 1024
    weight_filler {
      type: "xavier"
      std: 0.02
    }
    bias_filler {
      type: "constant"
      value: 0.2
    }
  }
}
layer {
  name: "loss2/relu_fc"
  type: "ReLU"
  bottom: "loss2/fc"
  top: "loss2/fc"
}
layer {
  name: "loss2/drop_fc"
  type: "Dropout"
  bottom: "loss2/fc"
  top: "loss2/fc"
  dropout_param {
    dropout_ratio: 0.7
  }
}
layer {
  name: "loss2/classifier_plantvillage"
  type: "InnerProduct"
  bottom: "loss2/fc"
  top: "loss2/classifier_plantvillage"
  param {
    lr_mult: 1
    decay_mult: 1
  }
  param {
    lr_mult: 2
    decay_mult: 0
  }
  inner_product_param {
    num_output: 38
    weight_filler {
      type: "xavier"
      std: 0.0009765625
    }
    bias_filler {
      type: "constant"
      value: 0
    }
  }
}
layer {
  name: "inception_4e/1x1"
  type: "Convolution"
  bottom: "inception_4d/output"
  top: "inception_4e/1x1"
  param {
    lr_mult: 1
    decay_mult: 1
  }
  param {
    lr_mult: 2
    decay_mult: 0
  }
  convolution_param {
    num_output: 256
    kernel_size: 1
    weight_filler {
      type: "xavier"
      std: 0.03
    }
    bias_filler {
      type: "constant"
      value: 0.2
    }
  }
}
layer {
  name: "inception_4e/relu_1x1"
  type: "ReLU"
  bottom: "inception_4e/1x1"
  top: "inception_4e/1x1"
}
layer {
  name: "inception_4e/3x3_reduce"
  type: "Convolution"
  bottom: "inception_4d/output"
  top: "inception_4e/3x3_reduce"
  param {
    lr_mult: 1
    decay_mult: 1
  }
  param {
    lr_mult: 2
    decay_mult: 0
  }
  convolution_param {
    num_output: 160
    kernel_size: 1
    weight_filler {
      type: "xavier"
      std: 0.09
    }
    bias_filler {
      type: "constant"
      value: 0.2
    }
  }
}
layer {
  name: "inception_4e/relu_3x3_reduce"
  type: "ReLU"
  bottom: "inception_4e/3x3_reduce"
  top: "inception_4e/3x3_reduce"
}
layer {
  name: "inception_4e/3x3"
  type: "Convolution"
  bottom: "inception_4e/3x3_reduce"
  top: "inception_4e/3x3"
  param {
    lr_mult: 1
    decay_mult: 1
  }
  param {
    lr_mult: 2
    decay_mult: 0
  }
  convolution_param {
    num_output: 320
    pad: 1
    kernel_size: 3
    weight_filler {
      type: "xavier"
      std: 0.03
    }
    bias_filler {
      type: "constant"
      value: 0.2
    }
  }
}
layer {
  name: "inception_4e/relu_3x3"
  type: "ReLU"
  bottom: "inception_4e/3x3"
  top: "inception_4e/3x3"
}
layer {
  name: "inception_4e/5x5_reduce"
  type: "Convolution"
  bottom: "inception_4d/output"
  top: "inception_4e/5x5_reduce"
  param {
    lr_mult: 1
    decay_mult: 1
  }
  param {
    lr_mult: 2
    decay_mult: 0
  }
  convolution_param {
    num_output: 32
    kernel_size: 1
    weight_filler {
      type: "xavier"
      std: 0.2
    }
    bias_filler {
      type: "constant"
      value: 0.2
    }
  }
}
layer {
  name: "inception_4e/relu_5x5_reduce"
  type: "ReLU"
  bottom: "inception_4e/5x5_reduce"
  top: "inception_4e/5x5_reduce"
}
layer {
  name: "inception_4e/5x5"
  type: "Convolution"
  bottom: "inception_4e/5x5_reduce"
  top: "inception_4e/
I0403 18:01:05.153622 21088 layer_factory.hpp:77] Creating layer data
I0403 18:01:05.154206 21088 net.cpp:91] Creating Layer data
I0403 18:01:05.154235 21088 net.cpp:399] data -> data
I0403 18:01:05.154284 21088 net.cpp:399] data -> label
I0403 18:01:05.154320 21088 data_transformer.cpp:25] Loading mean file from: /home/mohanty/data/final_dataset/lmdb/segmented-40-60/mean.binaryproto
I0403 18:01:05.156460 21090 db_lmdb.cpp:38] Opened lmdb /home/mohanty/data/final_dataset/lmdb/segmented-40-60/test_db
I0403 18:01:05.173912 21088 data_layer.cpp:41] output data size: 24,3,224,224
I0403 18:01:05.200377 21088 net.cpp:141] Setting up data
I0403 18:01:05.200455 21088 net.cpp:148] Top shape: 24 3 224 224 (3612672)
I0403 18:01:05.200477 21088 net.cpp:148] Top shape: 24 (24)
I0403 18:01:05.200491 21088 net.cpp:156] Memory required for data: 14450784
I0403 18:01:05.200517 21088 layer_factory.hpp:77] Creating layer label_data_1_split
I0403 18:01:05.200546 21088 net.cpp:91] Creating Layer label_data_1_split
I0403 18:01:05.200564 21088 net.cpp:425] label_data_1_split <- label
I0403 18:01:05.200594 21088 net.cpp:399] label_data_1_split -> label_data_1_split_0
I0403 18:01:05.200621 21088 net.cpp:399] label_data_1_split -> label_data_1_split_1
I0403 18:01:05.200641 21088 net.cpp:399] label_data_1_split -> label_data_1_split_2
I0403 18:01:05.200660 21088 net.cpp:399] label_data_1_split -> label_data_1_split_3
I0403 18:01:05.200680 21088 net.cpp:399] label_data_1_split -> label_data_1_split_4
I0403 18:01:05.200697 21088 net.cpp:399] label_data_1_split -> label_data_1_split_5
I0403 18:01:05.200716 21088 net.cpp:399] label_data_1_split -> label_data_1_split_6
I0403 18:01:05.200736 21088 net.cpp:399] label_data_1_split -> label_data_1_split_7
I0403 18:01:05.200754 21088 net.cpp:399] label_data_1_split -> label_data_1_split_8
I0403 18:01:05.200773 21088 net.cpp:399] label_data_1_split -> label_data_1_split_9
I0403 18:01:05.200886 21088 net.cpp:141] Setting up label_data_1_split
I0403 18:01:05.200907 21088 net.cpp:148] Top shape: 24 (24)
I0403 18:01:05.200924 21088 net.cpp:148] Top shape: 24 (24)
I0403 18:01:05.200939 21088 net.cpp:148] Top shape: 24 (24)
I0403 18:01:05.200953 21088 net.cpp:148] Top shape: 24 (24)
I0403 18:01:05.200968 21088 net.cpp:148] Top shape: 24 (24)
I0403 18:01:05.200983 21088 net.cpp:148] Top shape: 24 (24)
I0403 18:01:05.200997 21088 net.cpp:148] Top shape: 24 (24)
I0403 18:01:05.201011 21088 net.cpp:148] Top shape: 24 (24)
I0403 18:01:05.201025 21088 net.cpp:148] Top shape: 24 (24)
I0403 18:01:05.201040 21088 net.cpp:148] Top shape: 24 (24)
I0403 18:01:05.201081 21088 net.cpp:156] Memory required for data: 14451744
I0403 18:01:05.201097 21088 layer_factory.hpp:77] Creating layer conv1/7x7_s2
I0403 18:01:05.201127 21088 net.cpp:91] Creating Layer conv1/7x7_s2
I0403 18:01:05.201143 21088 net.cpp:425] conv1/7x7_s2 <- data
I0403 18:01:05.201162 21088 net.cpp:399] conv1/7x7_s2 -> conv1/7x7_s2
I0403 18:01:05.379987 21088 net.cpp:141] Setting up conv1/7x7_s2
I0403 18:01:05.380077 21088 net.cpp:148] Top shape: 24 64 112 112 (19267584)
I0403 18:01:05.380095 21088 net.cpp:156] Memory required for data: 91522080
I0403 18:01:05.380125 21088 layer_factory.hpp:77] Creating layer conv1/relu_7x7
I0403 18:01:05.380151 21088 net.cpp:91] Creating Layer conv1/relu_7x7
I0403 18:01:05.380169 21088 net.cpp:425] conv1/relu_7x7 <- conv1/7x7_s2
I0403 18:01:05.380187 21088 net.cpp:386] conv1/relu_7x7 -> conv1/7x7_s2 (in-place)
I0403 18:01:05.380502 21088 net.cpp:141] Setting up conv1/relu_7x7
I0403 18:01:05.380544 21088 net.cpp:148] Top shape: 24 64 112 112 (19267584)
I0403 18:01:05.380565 21088 net.cpp:156] Memory required for data: 168592416
I0403 18:01:05.380584 21088 layer_factory.hpp:77] Creating layer pool1/3x3_s2
I0403 18:01:05.380615 21088 net.cpp:91] Creating Layer pool1/3x3_s2
I0403 18:01:05.380638 21088 net.cpp:425] pool1/3x3_s2 <- conv1/7x7_s2
I0403 18:01:05.380661 21088 net.cpp:399] pool1/3x3_s2 -> pool1/3x3_s2
I0403 18:01:05.380755 21088 net.cpp:141] Setting up pool1/3x3_s2
I0403 18:01:05.380787 21088 net.cpp:148] Top shape: 24 64 56 56 (4816896)
I0403 18:01:05.380806 21088 net.cpp:156] Memory required for data: 187860000
I0403 18:01:05.380825 21088 layer_factory.hpp:77] Creating layer pool1/norm1
I0403 18:01:05.380856 21088 net.cpp:91] Creating Layer pool1/norm1
I0403 18:01:05.380877 21088 net.cpp:425] pool1/norm1 <- pool1/3x3_s2
I0403 18:01:05.380899 21088 net.cpp:399] pool1/norm1 -> pool1/norm1
I0403 18:01:05.381261 21088 net.cpp:141] Setting up pool1/norm1
I0403 18:01:05.381297 21088 net.cpp:148] Top shape: 24 64 56 56 (4816896)
I0403 18:01:05.381319 21088 net.cpp:156] Memory required for data: 207127584
I0403 18:01:05.381337 21088 layer_factory.hpp:77] Creating layer conv2/3x3_reduce
I0403 18:01:05.381367 21088 net.cpp:91] Creating Layer conv2/3x3_reduce
I0403 18:01:05.381389 21088 net.cpp:425] conv2/3x3_reduce <- pool1/norm1
I0403 18:01:05.381412 21088 net.cpp:399] conv2/3x3_reduce -> conv2/3x3_reduce
I0403 18:01:05.383085 21088 net.cpp:141] Setting up conv2/3x3_reduce
I0403 18:01:05.383123 21088 net.cpp:148] Top shape: 24 64 56 56 (4816896)
I0403 18:01:05.383144 21088 net.cpp:156] Memory required for data: 226395168
I0403 18:01:05.383172 21088 layer_factory.hpp:77] Creating layer conv2/relu_3x3_reduce
I0403 18:01:05.383195 21088 net.cpp:91] Creating Layer conv2/relu_3x3_reduce
I0403 18:01:05.383215 21088 net.cpp:425] conv2/relu_3x3_reduce <- conv2/3x3_reduce
I0403 18:01:05.383237 21088 net.cpp:386] conv2/relu_3x3_reduce -> conv2/3x3_reduce (in-place)
I0403 18:01:05.383564 21088 net.cpp:141] Setting up conv2/relu_3x3_reduce
I0403 18:01:05.383600 21088 net.cpp:148] Top shape: 24 64 56 56 (4816896)
I0403 18:01:05.383621 21088 net.cpp:156] Memory required for data: 245662752
I0403 18:01:05.383641 21088 layer_factory.hpp:77] Creating layer conv2/3x3
I0403 18:01:05.383668 21088 net.cpp:91] Creating Layer conv2/3x3
I0403 18:01:05.383690 21088 net.cpp:425] conv2/3x3 <- conv2/3x3_reduce
I0403 18:01:05.383714 21088 net.cpp:399] conv2/3x3 -> conv2/3x3
I0403 18:01:05.386137 21088 net.cpp:141] Setting up conv2/3x3
I0403 18:01:05.386168 21088 net.cpp:148] Top shape: 24 192 56 56 (14450688)
I0403 18:01:05.386183 21088 net.cpp:156] Memory required for data: 303465504
I0403 18:01:05.386204 21088 layer_factory.hpp:77] Creating layer conv2/relu_3x3
I0403 18:01:05.386222 21088 net.cpp:91] Creating Layer conv2/relu_3x3
I0403 18:01:05.386239 21088 net.cpp:425] conv2/relu_3x3 <- conv2/3x3
I0403 18:01:05.386255 21088 net.cpp:386] conv2/relu_3x3 -> conv2/3x3 (in-place)
I0403 18:01:05.386412 21088 net.cpp:141] Setting up conv2/relu_3x3
I0403 18:01:05.386437 21088 net.cpp:148] Top shape: 24 192 56 56 (14450688)
I0403 18:01:05.386476 21088 net.cpp:156] Memory required for data: 361268256
I0403 18:01:05.386492 21088 layer_factory.hpp:77] Creating layer conv2/norm2
I0403 18:01:05.386514 21088 net.cpp:91] Creating Layer conv2/norm2
I0403 18:01:05.386531 21088 net.cpp:425] conv2/norm2 <- conv2/3x3
I0403 18:01:05.386548 21088 net.cpp:399] conv2/norm2 -> conv2/norm2
I0403 18:01:05.386833 21088 net.cpp:141] Setting up conv2/norm2
I0403 18:01:05.386860 21088 net.cpp:148] Top shape: 24 192 56 56 (14450688)
I0403 18:01:05.386875 21088 net.cpp:156] Memory required for data: 419071008
I0403 18:01:05.386890 21088 layer_factory.hpp:77] Creating layer pool2/3x3_s2
I0403 18:01:05.386907 21088 net.cpp:91] Creating Layer pool2/3x3_s2
I0403 18:01:05.386922 21088 net.cpp:425] pool2/3x3_s2 <- conv2/norm2
I0403 18:01:05.386940 21088 net.cpp:399] pool2/3x3_s2 -> pool2/3x3_s2
I0403 18:01:05.386987 21088 net.cpp:141] Setting up pool2/3x3_s2
I0403 18:01:05.387011 21088 net.cpp:148] Top shape: 24 192 28 28 (3612672)
I0403 18:01:05.387024 21088 net.cpp:156] Memory required for data: 433521696
I0403 18:01:05.387038 21088 layer_factory.hpp:77] Creating layer pool2/3x3_s2_pool2/3x3_s2_0_split
I0403 18:01:05.387055 21088 net.cpp:91] Creating Layer pool2/3x3_s2_pool2/3x3_s2_0_split
I0403 18:01:05.387070 21088 net.cpp:425] pool2/3x3_s2_pool2/3x3_s2_0_split <- pool2/3x3_s2
I0403 18:01:05.387087 21088 net.cpp:399] pool2/3x3_s2_pool2/3x3_s2_0_split -> pool2/3x3_s2_pool2/3x3_s2_0_split_0
I0403 18:01:05.387105 21088 net.cpp:399] pool2/3x3_s2_pool2/3x3_s2_0_split -> pool2/3x3_s2_pool2/3x3_s2_0_split_1
I0403 18:01:05.387125 21088 net.cpp:399] pool2/3x3_s2_pool2/3x3_s2_0_split -> pool2/3x3_s2_pool2/3x3_s2_0_split_2
I0403 18:01:05.387145 21088 net.cpp:399] pool2/3x3_s2_pool2/3x3_s2_0_split -> pool2/3x3_s2_pool2/3x3_s2_0_split_3
I0403 18:01:05.387207 21088 net.cpp:141] Setting up pool2/3x3_s2_pool2/3x3_s2_0_split
I0403 18:01:05.387228 21088 net.cpp:148] Top shape: 24 192 28 28 (3612672)
I0403 18:01:05.387244 21088 net.cpp:148] Top shape: 24 192 28 28 (3612672)
I0403 18:01:05.387262 21088 net.cpp:148] Top shape: 24 192 28 28 (3612672)
I0403 18:01:05.387277 21088 net.cpp:148] Top shape: 24 192 28 28 (3612672)
I0403 18:01:05.387291 21088 net.cpp:156] Memory required for data: 491324448
I0403 18:01:05.387305 21088 layer_factory.hpp:77] Creating layer inception_3a/1x1
I0403 18:01:05.387325 21088 net.cpp:91] Creating Layer inception_3a/1x1
I0403 18:01:05.387341 21088 net.cpp:425] inception_3a/1x1 <- pool2/3x3_s2_pool2/3x3_s2_0_split_0
I0403 18:01:05.387359 21088 net.cpp:399] inception_3a/1x1 -> inception_3a/1x1
I0403 18:01:05.388856 21088 net.cpp:141] Setting up inception_3a/1x1
I0403 18:01:05.388885 21088 net.cpp:148] Top shape: 24 64 28 28 (1204224)
I0403 18:01:05.388901 21088 net.cpp:156] Memory required for data: 496141344
I0403 18:01:05.388921 21088 layer_factory.hpp:77] Creating layer inception_3a/relu_1x1
I0403 18:01:05.388941 21088 net.cpp:91] Creating Layer inception_3a/relu_1x1
I0403 18:01:05.388957 21088 net.cpp:425] inception_3a/relu_1x1 <- inception_3a/1x1
I0403 18:01:05.388974 21088 net.cpp:386] inception_3a/relu_1x1 -> inception_3a/1x1 (in-place)
I0403 18:01:05.389147 21088 net.cpp:141] Setting up inception_3a/relu_1x1
I0403 18:01:05.389175 21088 net.cpp:148] Top shape: 24 64 28 28 (1204224)
I0403 18:01:05.389191 21088 net.cpp:156] Memory required for data: 500958240
I0403 18:01:05.389206 21088 layer_factory.hpp:77] Creating layer inception_3a/3x3_reduce
I0403 18:01:05.389227 21088 net.cpp:91] Creating Layer inception_3a/3x3_reduce
I0403 18:01:05.389245 21088 net.cpp:425] inception_3a/3x3_reduce <- pool2/3x3_s2_pool2/3x3_s2_0_split_1
I0403 18:01:05.389264 21088 net.cpp:399] inception_3a/3x3_reduce -> inception_3a/3x3_reduce
I0403 18:01:05.390943 21088 net.cpp:141] Setting up inception_3a/3x3_reduce
I0403 18:01:05.390971 21088 net.cpp:148] Top shape: 24 96 28 28 (1806336)
I0403 18:01:05.390987 21088 net.cpp:156] Memory required for data: 508183584
I0403 18:01:05.391010 21088 layer_factory.hpp:77] Creating layer inception_3a/relu_3x3_reduce
I0403 18:01:05.391046 21088 net.cpp:91] Creating Layer inception_3a/relu_3x3_reduce
I0403 18:01:05.391063 21088 net.cpp:425] inception_3a/relu_3x3_reduce <- inception_3a/3x3_reduce
I0403 18:01:05.391083 21088 net.cpp:386] inception_3a/relu_3x3_reduce -> inception_3a/3x3_reduce (in-place)
I0403 18:01:05.391263 21088 net.cpp:141] Setting up inception_3a/relu_3x3_reduce
I0403 18:01:05.391288 21088 net.cpp:148] Top shape: 24 96 28 28 (1806336)
I0403 18:01:05.391304 21088 net.cpp:156] Memory required for data: 515408928
I0403 18:01:05.391319 21088 layer_factory.hpp:77] Creating layer inception_3a/3x3
I0403 18:01:05.391340 21088 net.cpp:91] Creating Layer inception_3a/3x3
I0403 18:01:05.391356 21088 net.cpp:425] inception_3a/3x3 <- inception_3a/3x3_reduce
I0403 18:01:05.391377 21088 net.cpp:399] inception_3a/3x3 -> inception_3a/3x3
I0403 18:01:05.393012 21088 net.cpp:141] Setting up inception_3a/3x3
I0403 18:01:05.393039 21088 net.cpp:148] Top shape: 24 128 28 28 (2408448)
I0403 18:01:05.393054 21088 net.cpp:156] Memory required for data: 525042720
I0403 18:01:05.393074 21088 layer_factory.hpp:77] Creating layer inception_3a/relu_3x3
I0403 18:01:05.393092 21088 net.cpp:91] Creating Layer inception_3a/relu_3x3
I0403 18:01:05.393108 21088 net.cpp:425] inception_3a/relu_3x3 <- inception_3a/3x3
I0403 18:01:05.393126 21088 net.cpp:386] inception_3a/relu_3x3 -> inception_3a/3x3 (in-place)
I0403 18:01:05.393399 21088 net.cpp:141] Setting up inception_3a/relu_3x3
I0403 18:01:05.393425 21088 net.cpp:148] Top shape: 24 128 28 28 (2408448)
I0403 18:01:05.393441 21088 net.cpp:156] Memory required for data: 534676512
I0403 18:01:05.393455 21088 layer_factory.hpp:77] Creating layer inception_3a/5x5_reduce
I0403 18:01:05.393479 21088 net.cpp:91] Creating Layer inception_3a/5x5_reduce
I0403 18:01:05.393496 21088 net.cpp:425] inception_3a/5x5_reduce <- pool2/3x3_s2_pool2/3x3_s2_0_split_2
I0403 18:01:05.393519 21088 net.cpp:399] inception_3a/5x5_reduce -> inception_3a/5x5_reduce
I0403 18:01:05.394462 21088 net.cpp:141] Setting up inception_3a/5x5_reduce
I0403 18:01:05.394492 21088 net.cpp:148] Top shape: 24 16 28 28 (301056)
I0403 18:01:05.394520 21088 net.cpp:156] Memory required for data: 535880736
I0403 18:01:05.394541 21088 layer_factory.hpp:77] Creating layer inception_3a/relu_5x5_reduce
I0403 18:01:05.394559 21088 net.cpp:91] Creating Layer inception_3a/relu_5x5_reduce
I0403 18:01:05.394575 21088 net.cpp:425] inception_3a/relu_5x5_reduce <- inception_3a/5x5_reduce
I0403 18:01:05.394596 21088 net.cpp:386] inception_3a/relu_5x5_reduce -> inception_3a/5x5_reduce (in-place)
I0403 18:01:05.394886 21088 net.cpp:141] Setting up inception_3a/relu_5x5_reduce
I0403 18:01:05.394912 21088 net.cpp:148] Top shape: 24 16 28 28 (301056)
I0403 18:01:05.394927 21088 net.cpp:156] Memory required for data: 537084960
I0403 18:01:05.394942 21088 layer_factory.hpp:77] Creating layer inception_3a/5x5
I0403 18:01:05.394963 21088 net.cpp:91] Creating Layer inception_3a/5x5
I0403 18:01:05.394979 21088 net.cpp:425] inception_3a/5x5 <- inception_3a/5x5_reduce
I0403 18:01:05.395000 21088 net.cpp:399] inception_3a/5x5 -> inception_3a/5x5
I0403 18:01:05.396003 21088 net.cpp:141] Setting up inception_3a/5x5
I0403 18:01:05.396030 21088 net.cpp:148] Top shape: 24 32 28 28 (602112)
I0403 18:01:05.396046 21088 net.cpp:156] Memory required for data: 539493408
I0403 18:01:05.396064 21088 layer_factory.hpp:77] Creating layer inception_3a/relu_5x5
I0403 18:01:05.396085 21088 net.cpp:91] Creating Layer inception_3a/relu_5x5
I0403 18:01:05.396100 21088 net.cpp:425] inception_3a/relu_5x5 <- inception_3a/5x5
I0403 18:01:05.396117 21088 net.cpp:386] inception_3a/relu_5x5 -> inception_3a/5x5 (in-place)
I0403 18:01:05.396291 21088 net.cpp:141] Setting up inception_3a/relu_5x5
I0403 18:01:05.396317 21088 net.cpp:148] Top shape: 24 32 28 28 (602112)
I0403 18:01:05.396332 21088 net.cpp:156] Memory required for data: 541901856
I0403 18:01:05.396347 21088 layer_factory.hpp:77] Creating layer inception_3a/pool
I0403 18:01:05.396363 21088 net.cpp:91] Creating Layer inception_3a/pool
I0403 18:01:05.396394 21088 net.cpp:425] inception_3a/pool <- pool2/3x3_s2_pool2/3x3_s2_0_split_3
I0403 18:01:05.396414 21088 net.cpp:399] inception_3a/pool -> inception_3a/pool
I0403 18:01:05.396471 21088 net.cpp:141] Setting up inception_3a/pool
I0403 18:01:05.396494 21088 net.cpp:148] Top shape: 24 192 28 28 (3612672)
I0403 18:01:05.396513 21088 net.cpp:156] Memory required for data: 556352544
I0403 18:01:05.396529 21088 layer_factory.hpp:77] Creating layer inception_3a/pool_proj
I0403 18:01:05.396554 21088 net.cpp:91] Creating Layer inception_3a/pool_proj
I0403 18:01:05.396571 21088 net.cpp:425] inception_3a/pool_proj <- inception_3a/pool
I0403 18:01:05.396589 21088 net.cpp:399] inception_3a/pool_proj -> inception_3a/pool_proj
I0403 18:01:05.397547 21088 net.cpp:141] Setting up inception_3a/pool_proj
I0403 18:01:05.397574 21088 net.cpp:148] Top shape: 24 32 28 28 (602112)
I0403 18:01:05.397590 21088 net.cpp:156] Memory required for data: 558760992
I0403 18:01:05.397614 21088 layer_factory.hpp:77] Creating layer inception_3a/relu_pool_proj
I0403 18:01:05.397634 21088 net.cpp:91] Creating Layer inception_3a/relu_pool_proj
I0403 18:01:05.397650 21088 net.cpp:425] inception_3a/relu_pool_proj <- inception_3a/pool_proj
I0403 18:01:05.397670 21088 net.cpp:386] inception_3a/relu_pool_proj -> inception_3a/pool_proj (in-place)
I0403 18:01:05.397938 21088 net.cpp:141] Setting up inception_3a/relu_pool_proj
I0403 18:01:05.397965 21088 net.cpp:148] Top shape: 24 32 28 28 (602112)
I0403 18:01:05.397980 21088 net.cpp:156] Memory required for data: 561169440
I0403 18:01:05.397994 21088 layer_factory.hpp:77] Creating layer inception_3a/output
I0403 18:01:05.398015 21088 net.cpp:91] Creating Layer inception_3a/output
I0403 18:01:05.398030 21088 net.cpp:425] inception_3a/output <- inception_3a/1x1
I0403 18:01:05.398046 21088 net.cpp:425] inception_3a/output <- inception_3a/3x3
I0403 18:01:05.398062 21088 net.cpp:425] inception_3a/output <- inception_3a/5x5
I0403 18:01:05.398077 21088 net.cpp:425] inception_3a/output <- inception_3a/pool_proj
I0403 18:01:05.398093 21088 net.cpp:399] inception_3a/output -> inception_3a/output
I0403 18:01:05.398139 21088 net.cpp:141] Setting up inception_3a/output
I0403 18:01:05.398164 21088 net.cpp:148] Top shape: 24 256 28 28 (4816896)
I0403 18:01:05.398177 21088 net.cpp:156] Memory required for data: 580437024
I0403 18:01:05.398191 21088 layer_factory.hpp:77] Creating layer inception_3a/output_inception_3a/output_0_split
I0403 18:01:05.398208 21088 net.cpp:91] Creating Layer inception_3a/output_inception_3a/output_0_split
I0403 18:01:05.398222 21088 net.cpp:425] inception_3a/output_inception_3a/output_0_split <- inception_3a/output
I0403 18:01:05.398242 21088 net.cpp:399] inception_3a/output_inception_3a/output_0_split -> inception_3a/output_inception_3a/output_0_split_0
I0403 18:01:05.398264 21088 net.cpp:399] inception_3a/output_inception_3a/output_0_split -> inception_3a/output_inception_3a/output_0_split_1
I0403 18:01:05.398289 21088 net.cpp:399] inception_3a/output_inception_3a/output_0_split -> inception_3a/output_inception_3a/output_0_split_2
I0403 18:01:05.398314 21088 net.cpp:399] inception_3a/output_inception_3a/output_0_split -> inception_3a/output_inception_3a/output_0_split_3
I0403 18:01:05.398387 21088 net.cpp:141] Setting up inception_3a/output_inception_3a/output_0_split
I0403 18:01:05.398409 21088 net.cpp:148] Top shape: 24 256 28 28 (4816896)
I0403 18:01:05.398428 21088 net.cpp:148] Top shape: 24 256 28 28 (4816896)
I0403 18:01:05.398445 21088 net.cpp:148] Top shape: 24 256 28 28 (4816896)
I0403 18:01:05.398460 21088 net.cpp:148] Top shape: 24 256 28 28 (4816896)
I0403 18:01:05.398474 21088 net.cpp:156] Memory required for data: 657507360
I0403 18:01:05.398488 21088 layer_factory.hpp:77] Creating layer inception_3b/1x1
I0403 18:01:05.398512 21088 net.cpp:91] Creating Layer inception_3b/1x1
I0403 18:01:05.398530 21088 net.cpp:425] inception_3b/1x1 <- inception_3a/output_inception_3a/output_0_split_0
I0403 18:01:05.398550 21088 net.cpp:399] inception_3b/1x1 -> inception_3b/1x1
I0403 18:01:05.399689 21088 net.cpp:141] Setting up inception_3b/1x1
I0403 18:01:05.399729 21088 net.cpp:148] Top shape: 24 128 28 28 (2408448)
I0403 18:01:05.399745 21088 net.cpp:156] Memory required for data: 667141152
I0403 18:01:05.399763 21088 layer_factory.hpp:77] Creating layer inception_3b/relu_1x1
I0403 18:01:05.399786 21088 net.cpp:91] Creating Layer inception_3b/relu_1x1
I0403 18:01:05.399803 21088 net.cpp:425] inception_3b/relu_1x1 <- inception_3b/1x1
I0403 18:01:05.399819 21088 net.cpp:386] inception_3b/relu_1x1 -> inception_3b/1x1 (in-place)
I0403 18:01:05.399992 21088 net.cpp:141] Setting up inception_3b/relu_1x1
I0403 18:01:05.400019 21088 net.cpp:148] Top shape: 24 128 28 28 (2408448)
I0403 18:01:05.400035 21088 net.cpp:156] Memory required for data: 676774944
I0403 18:01:05.400050 21088 layer_factory.hpp:77] Creating layer inception_3b/3x3_reduce
I0403 18:01:05.400073 21088 net.cpp:91] Creating Layer inception_3b/3x3_reduce
I0403 18:01:05.400089 21088 net.cpp:425] inception_3b/3x3_reduce <- inception_3a/output_inception_3a/output_0_split_1
I0403 18:01:05.400107 21088 net.cpp:399] inception_3b/3x3_reduce -> inception_3b/3x3_reduce
I0403 18:01:05.401232 21088 net.cpp:141] Setting up inception_3b/3x3_reduce
I0403 18:01:05.401259 21088 net.cpp:148] Top shape: 24 128 28 28 (2408448)
I0403 18:01:05.401275 21088 net.cpp:156] Memory required for data: 686408736
I0403 18:01:05.401293 21088 layer_factory.hpp:77] Creating layer inception_3b/relu_3x3_reduce
I0403 18:01:05.401314 21088 net.cpp:91] Creating Layer inception_3b/relu_3x3_reduce
I0403 18:01:05.401330 21088 net.cpp:425] inception_3b/relu_3x3_reduce <- inception_3b/3x3_reduce
I0403 18:01:05.401347 21088 net.cpp:386] inception_3b/relu_3x3_reduce -> inception_3b/3x3_reduce (in-place)
I0403 18:01:05.401525 21088 net.cpp:141] Setting up inception_3b/relu_3x3_reduce
I0403 18:01:05.401552 21088 net.cpp:148] Top shape: 24 128 28 28 (2408448)
I0403 18:01:05.401567 21088 net.cpp:156] Memory required for data: 696042528
I0403 18:01:05.401582 21088 layer_factory.hpp:77] Creating layer inception_3b/3x3
I0403 18:01:05.401605 21088 net.cpp:91] Creating Layer inception_3b/3x3
I0403 18:01:05.401623 21088 net.cpp:425] inception_3b/3x3 <- inception_3b/3x3_reduce
I0403 18:01:05.401644 21088 net.cpp:399] inception_3b/3x3 -> inception_3b/3x3
I0403 18:01:05.404611 21088 net.cpp:141] Setting up inception_3b/3x3
I0403 18:01:05.404639 21088 net.cpp:148] Top shape: 24 192 28 28 (3612672)
I0403 18:01:05.404654 21088 net.cpp:156] Memory required for data: 710493216
I0403 18:01:05.404671 21088 layer_factory.hpp:77] Creating layer inception_3b/relu_3x3
I0403 18:01:05.404691 21088 net.cpp:91] Creating Layer inception_3b/relu_3x3
I0403 18:01:05.404708 21088 net.cpp:425] inception_3b/relu_3x3 <- inception_3b/3x3
I0403 18:01:05.404726 21088 net.cpp:386] inception_3b/relu_3x3 -> inception_3b/3x3 (in-place)
I0403 18:01:05.404995 21088 net.cpp:141] Setting up inception_3b/relu_3x3
I0403 18:01:05.405021 21088 net.cpp:148] Top shape: 24 192 28 28 (3612672)
I0403 18:01:05.405036 21088 net.cpp:156] Memory required for data: 724943904
I0403 18:01:05.405050 21088 layer_factory.hpp:77] Creating layer inception_3b/5x5_reduce
I0403 18:01:05.405074 21088 net.cpp:91] Creating Layer inception_3b/5x5_reduce
I0403 18:01:05.405092 21088 net.cpp:425] inception_3b/5x5_reduce <- inception_3a/output_inception_3a/output_0_split_2
I0403 18:01:05.405110 21088 net.cpp:399] inception_3b/5x5_reduce -> inception_3b/5x5_reduce
I0403 18:01:05.406071 21088 net.cpp:141] Setting up inception_3b/5x5_reduce
I0403 18:01:05.406100 21088 net.cpp:148] Top shape: 24 32 28 28 (602112)
I0403 18:01:05.406114 21088 net.cpp:156] Memory required for data: 727352352
I0403 18:01:05.406131 21088 layer_factory.hpp:77] Creating layer inception_3b/relu_5x5_reduce
I0403 18:01:05.406152 21088 net.cpp:91] Creating Layer inception_3b/relu_5x5_reduce
I0403 18:01:05.406167 21088 net.cpp:425] inception_3b/relu_5x5_reduce <- inception_3b/5x5_reduce
I0403 18:01:05.406183 21088 net.cpp:386] inception_3b/relu_5x5_reduce -> inception_3b/5x5_reduce (in-place)
I0403 18:01:05.406368 21088 net.cpp:141] Setting up inception_3b/relu_5x5_reduce
I0403 18:01:05.406393 21088 net.cpp:148] Top shape: 24 32 28 28 (602112)
I0403 18:01:05.406407 21088 net.cpp:156] Memory required for data: 729760800
I0403 18:01:05.406421 21088 layer_factory.hpp:77] Creating layer inception_3b/5x5
I0403 18:01:05.406442 21088 net.cpp:91] Creating Layer inception_3b/5x5
I0403 18:01:05.406460 21088 net.cpp:425] inception_3b/5x5 <- inception_3b/5x5_reduce
I0403 18:01:05.406482 21088 net.cpp:399] inception_3b/5x5 -> inception_3b/5x5
I0403 18:01:05.408380 21088 net.cpp:141] Setting up inception_3b/5x5
I0403 18:01:05.408408 21088 net.cpp:148] Top shape: 24 96 28 28 (1806336)
I0403 18:01:05.408424 21088 net.cpp:156] Memory required for data: 736986144
I0403 18:01:05.408442 21088 layer_factory.hpp:77] Creating layer inception_3b/relu_5x5
I0403 18:01:05.408462 21088 net.cpp:91] Creating Layer inception_3b/relu_5x5
I0403 18:01:05.408478 21088 net.cpp:425] inception_3b/relu_5x5 <- inception_3b/5x5
I0403 18:01:05.408493 21088 net.cpp:386] inception_3b/relu_5x5 -> inception_3b/5x5 (in-place)
I0403 18:01:05.408685 21088 net.cpp:141] Setting up inception_3b/relu_5x5
I0403 18:01:05.408710 21088 net.cpp:148] Top shape: 24 96 28 28 (1806336)
I0403 18:01:05.408723 21088 net.cpp:156] Memory required for data: 744211488
I0403 18:01:05.408738 21088 layer_factory.hpp:77] Creating layer inception_3b/pool
I0403 18:01:05.408754 21088 net.cpp:91] Creating Layer inception_3b/pool
I0403 18:01:05.408769 21088 net.cpp:425] inception_3b/pool <- inception_3a/output_inception_3a/output_0_split_3
I0403 18:01:05.408787 21088 net.cpp:399] inception_3b/pool -> inception_3b/pool
I0403 18:01:05.408839 21088 net.cpp:141] Setting up inception_3b/pool
I0403 18:01:05.408862 21088 net.cpp:148] Top shape: 24 256 28 28 (4816896)
I0403 18:01:05.408876 21088 net.cpp:156] Memory required for data: 763479072
I0403 18:01:05.408890 21088 layer_factory.hpp:77] Creating layer inception_3b/pool_proj
I0403 18:01:05.408910 21088 net.cpp:91] Creating Layer inception_3b/pool_proj
I0403 18:01:05.408927 21088 net.cpp:425] inception_3b/pool_proj <- inception_3b/pool
I0403 18:01:05.408946 21088 net.cpp:399] inception_3b/pool_proj -> inception_3b/pool_proj
I0403 18:01:05.409965 21088 net.cpp:141] Setting up inception_3b/pool_proj
I0403 18:01:05.409991 21088 net.cpp:148] Top shape: 24 64 28 28 (1204224)
I0403 18:01:05.410006 21088 net.cpp:156] Memory required for data: 768295968
I0403 18:01:05.410024 21088 layer_factory.hpp:77] Creating layer inception_3b/relu_pool_proj
I0403 18:01:05.410042 21088 net.cpp:91] Creating Layer inception_3b/relu_pool_proj
I0403 18:01:05.410058 21088 net.cpp:425] inception_3b/relu_pool_proj <- inception_3b/pool_proj
I0403 18:01:05.410076 21088 net.cpp:386] inception_3b/relu_pool_proj -> inception_3b/pool_proj (in-place)
I0403 18:01:05.410477 21088 net.cpp:141] Setting up inception_3b/relu_pool_proj
I0403 18:01:05.410509 21088 net.cpp:148] Top shape: 24 64 28 28 (1204224)
I0403 18:01:05.410527 21088 net.cpp:156] Memory required for data: 773112864
I0403 18:01:05.410543 21088 layer_factory.hpp:77] Creating layer inception_3b/output
I0403 18:01:05.410573 21088 net.cpp:91] Creating Layer inception_3b/output
I0403 18:01:05.410588 21088 net.cpp:425] inception_3b/output <- inception_3b/1x1
I0403 18:01:05.410604 21088 net.cpp:425] inception_3b/output <- inception_3b/3x3
I0403 18:01:05.410619 21088 net.cpp:425] inception_3b/output <- inception_3b/5x5
I0403 18:01:05.410634 21088 net.cpp:425] inception_3b/output <- inception_3b/pool_proj
I0403 18:01:05.410651 21088 net.cpp:399] inception_3b/output -> inception_3b/output
I0403 18:01:05.410693 21088 net.cpp:141] Setting up inception_3b/output
I0403 18:01:05.410717 21088 net.cpp:148] Top shape: 24 480 28 28 (9031680)
I0403 18:01:05.410730 21088 net.cpp:156] Memory required for data: 809239584
I0403 18:01:05.410744 21088 layer_factory.hpp:77] Creating layer pool3/3x3_s2
I0403 18:01:05.410763 21088 net.cpp:91] Creating Layer pool3/3x3_s2
I0403 18:01:05.410778 21088 net.cpp:425] pool3/3x3_s2 <- inception_3b/output
I0403 18:01:05.410810 21088 net.cpp:399] pool3/3x3_s2 -> pool3/3x3_s2
I0403 18:01:05.410867 21088 net.cpp:141] Setting up pool3/3x3_s2
I0403 18:01:05.410890 21088 net.cpp:148] Top shape: 24 480 14 14 (2257920)
I0403 18:01:05.410905 21088 net.cpp:156] Memory required for data: 818271264
I0403 18:01:05.410919 21088 layer_factory.hpp:77] Creating layer pool3/3x3_s2_pool3/3x3_s2_0_split
I0403 18:01:05.410935 21088 net.cpp:91] Creating Layer pool3/3x3_s2_pool3/3x3_s2_0_split
I0403 18:01:05.410948 21088 net.cpp:425] pool3/3x3_s2_pool3/3x3_s2_0_split <- pool3/3x3_s2
I0403 18:01:05.410966 21088 net.cpp:399] pool3/3x3_s2_pool3/3x3_s2_0_split -> pool3/3x3_s2_pool3/3x3_s2_0_split_0
I0403 18:01:05.410986 21088 net.cpp:399] pool3/3x3_s2_pool3/3x3_s2_0_split -> pool3/3x3_s2_pool3/3x3_s2_0_split_1
I0403 18:01:05.411006 21088 net.cpp:399] pool3/3x3_s2_pool3/3x3_s2_0_split -> pool3/3x3_s2_pool3/3x3_s2_0_split_2
I0403 18:01:05.411025 21088 net.cpp:399] pool3/3x3_s2_pool3/3x3_s2_0_split -> pool3/3x3_s2_pool3/3x3_s2_0_split_3
I0403 18:01:05.411098 21088 net.cpp:141] Setting up pool3/3x3_s2_pool3/3x3_s2_0_split
I0403 18:01:05.411120 21088 net.cpp:148] Top shape: 24 480 14 14 (2257920)
I0403 18:01:05.411136 21088 net.cpp:148] Top shape: 24 480 14 14 (2257920)
I0403 18:01:05.411150 21088 net.cpp:148] Top shape: 24 480 14 14 (2257920)
I0403 18:01:05.411165 21088 net.cpp:148] Top shape: 24 480 14 14 (2257920)
I0403 18:01:05.411178 21088 net.cpp:156] Memory required for data: 854397984
I0403 18:01:05.411192 21088 layer_factory.hpp:77] Creating layer inception_4a/1x1
I0403 18:01:05.411213 21088 net.cpp:91] Creating Layer inception_4a/1x1
I0403 18:01:05.411229 21088 net.cpp:425] inception_4a/1x1 <- pool3/3x3_s2_pool3/3x3_s2_0_split_0
I0403 18:01:05.411249 21088 net.cpp:399] inception_4a/1x1 -> inception_4a/1x1
I0403 18:01:05.412760 21088 net.cpp:141] Setting up inception_4a/1x1
I0403 18:01:05.412787 21088 net.cpp:148] Top shape: 24 192 14 14 (903168)
I0403 18:01:05.412803 21088 net.cpp:156] Memory required for data: 858010656
I0403 18:01:05.412820 21088 layer_factory.hpp:77] Creating layer inception_4a/relu_1x1
I0403 18:01:05.412837 21088 net.cpp:91] Creating Layer inception_4a/relu_1x1
I0403 18:01:05.412853 21088 net.cpp:425] inception_4a/relu_1x1 <- inception_4a/1x1
I0403 18:01:05.412870 21088 net.cpp:386] inception_4a/relu_1x1 -> inception_4a/1x1 (in-place)
I0403 18:01:05.413039 21088 net.cpp:141] Setting up inception_4a/relu_1x1
I0403 18:01:05.413064 21088 net.cpp:148] Top shape: 24 192 14 14 (903168)
I0403 18:01:05.413077 21088 net.cpp:156] Memory required for data: 861623328
I0403 18:01:05.413091 21088 layer_factory.hpp:77] Creating layer inception_4a/3x3_reduce
I0403 18:01:05.413113 21088 net.cpp:91] Creating Layer inception_4a/3x3_reduce
I0403 18:01:05.413130 21088 net.cpp:425] inception_4a/3x3_reduce <- pool3/3x3_s2_pool3/3x3_s2_0_split_1
I0403 18:01:05.413149 21088 net.cpp:399] inception_4a/3x3_reduce -> inception_4a/3x3_reduce
I0403 18:01:05.414381 21088 net.cpp:141] Setting up inception_4a/3x3_reduce
I0403 18:01:05.414408 21088 net.cpp:148] Top shape: 24 96 14 14 (451584)
I0403 18:01:05.414424 21088 net.cpp:156] Memory required for data: 863429664
I0403 18:01:05.414448 21088 layer_factory.hpp:77] Creating layer inception_4a/relu_3x3_reduce
I0403 18:01:05.414466 21088 net.cpp:91] Creating Layer inception_4a/relu_3x3_reduce
I0403 18:01:05.414481 21088 net.cpp:425] inception_4a/relu_3x3_reduce <- inception_4a/3x3_reduce
I0403 18:01:05.414501 21088 net.cpp:386] inception_4a/relu_3x3_reduce -> inception_4a/3x3_reduce (in-place)
I0403 18:01:05.414686 21088 net.cpp:141] Setting up inception_4a/relu_3x3_reduce
I0403 18:01:05.414710 21088 net.cpp:148] Top shape: 24 96 14 14 (451584)
I0403 18:01:05.414724 21088 net.cpp:156] Memory required for data: 865236000
I0403 18:01:05.414739 21088 layer_factory.hpp:77] Creating layer inception_4a/3x3
I0403 18:01:05.414760 21088 net.cpp:91] Creating Layer inception_4a/3x3
I0403 18:01:05.414777 21088 net.cpp:425] inception_4a/3x3 <- inception_4a/3x3_reduce
I0403 18:01:05.414799 21088 net.cpp:399] inception_4a/3x3 -> inception_4a/3x3
I0403 18:01:05.417484 21088 net.cpp:141] Setting up inception_4a/3x3
I0403 18:01:05.417518 21088 net.cpp:148] Top shape: 24 208 14 14 (978432)
I0403 18:01:05.417536 21088 net.cpp:156] Memory required for data: 869149728
I0403 18:01:05.417553 21088 layer_factory.hpp:77] Creating layer inception_4a/relu_3x3
I0403 18:01:05.417573 21088 net.cpp:91] Creating Layer inception_4a/relu_3x3
I0403 18:01:05.417590 21088 net.cpp:425] inception_4a/relu_3x3 <- inception_4a/3x3
I0403 18:01:05.417608 21088 net.cpp:386] inception_4a/relu_3x3 -> inception_4a/3x3 (in-place)
I0403 18:01:05.417897 21088 net.cpp:141] Setting up inception_4a/relu_3x3
I0403 18:01:05.417923 21088 net.cpp:148] Top shape: 24 208 14 14 (978432)
I0403 18:01:05.417938 21088 net.cpp:156] Memory required for data: 873063456
I0403 18:01:05.417953 21088 layer_factory.hpp:77] Creating layer inception_4a/5x5_reduce
I0403 18:01:05.417976 21088 net.cpp:91] Creating Layer inception_4a/5x5_reduce
I0403 18:01:05.417994 21088 net.cpp:425] inception_4a/5x5_reduce <- pool3/3x3_s2_pool3/3x3_s2_0_split_2
I0403 18:01:05.418016 21088 net.cpp:399] inception_4a/5x5_reduce -> inception_4a/5x5_reduce
I0403 18:01:05.419041 21088 net.cpp:141] Setting up inception_4a/5x5_reduce
I0403 18:01:05.419070 21088 net.cpp:148] Top shape: 24 16 14 14 (75264)
I0403 18:01:05.419085 21088 net.cpp:156] Memory required for data: 873364512
I0403 18:01:05.419102 21088 layer_factory.hpp:77] Creating layer inception_4a/relu_5x5_reduce
I0403 18:01:05.419122 21088 net.cpp:91] Creating Layer inception_4a/relu_5x5_reduce
I0403 18:01:05.419139 21088 net.cpp:425] inception_4a/relu_5x5_reduce <- inception_4a/5x5_reduce
I0403 18:01:05.419157 21088 net.cpp:386] inception_4a/relu_5x5_reduce -> inception_4a/5x5_reduce (in-place)
I0403 18:01:05.419334 21088 net.cpp:141] Setting up inception_4a/relu_5x5_reduce
I0403 18:01:05.419359 21088 net.cpp:148] Top shape: 24 16 14 14 (75264)
I0403 18:01:05.419374 21088 net.cpp:156] Memory required for data: 873665568
I0403 18:01:05.419389 21088 layer_factory.hpp:77] Creating layer inception_4a/5x5
I0403 18:01:05.419411 21088 net.cpp:91] Creating Layer inception_4a/5x5
I0403 18:01:05.419428 21088 net.cpp:425] inception_4a/5x5 <- inception_4a/5x5_reduce
I0403 18:01:05.419450 21088 net.cpp:399] inception_4a/5x5 -> inception_4a/5x5
I0403 18:01:05.420539 21088 net.cpp:141] Setting up inception_4a/5x5
I0403 18:01:05.420569 21088 net.cpp:148] Top shape: 24 48 14 14 (225792)
I0403 18:01:05.420585 21088 net.cpp:156] Memory required for data: 874568736
I0403 18:01:05.420604 21088 layer_factory.hpp:77] Creating layer inception_4a/relu_5x5
I0403 18:01:05.420622 21088 net.cpp:91] Creating Layer inception_4a/relu_5x5
I0403 18:01:05.420637 21088 net.cpp:425] inception_4a/relu_5x5 <- inception_4a/5x5
I0403 18:01:05.420656 21088 net.cpp:386] inception_4a/relu_5x5 -> inception_4a/5x5 (in-place)
I0403 18:01:05.420838 21088 net.cpp:141] Setting up inception_4a/relu_5x5
I0403 18:01:05.420864 21088 net.cpp:148] Top shape: 24 48 14 14 (225792)
I0403 18:01:05.420878 21088 net.cpp:156] Memory required for data: 875471904
I0403 18:01:05.420893 21088 layer_factory.hpp:77] Creating layer inception_4a/pool
I0403 18:01:05.420912 21088 net.cpp:91] Creating Layer inception_4a/pool
I0403 18:01:05.420925 21088 net.cpp:425] inception_4a/pool <- pool3/3x3_s2_pool3/3x3_s2_0_split_3
I0403 18:01:05.420945 21088 net.cpp:399] inception_4a/pool -> inception_4a/pool
I0403 18:01:05.421006 21088 net.cpp:141] Setting up inception_4a/pool
I0403 18:01:05.421030 21088 net.cpp:148] Top shape: 24 480 14 14 (2257920)
I0403 18:01:05.421046 21088 net.cpp:156] Memory required for data: 884503584
I0403 18:01:05.421059 21088 layer_factory.hpp:77] Creating layer inception_4a/pool_proj
I0403 18:01:05.421082 21088 net.cpp:91] Creating Layer inception_4a/pool_proj
I0403 18:01:05.421099 21088 net.cpp:425] inception_4a/pool_proj <- inception_4a/pool
I0403 18:01:05.421119 21088 net.cpp:399] inception_4a/pool_proj -> inception_4a/pool_proj
I0403 18:01:05.422279 21088 net.cpp:141] Setting up inception_4a/pool_proj
I0403 18:01:05.422309 21088 net.cpp:148] Top shape: 24 64 14 14 (301056)
I0403 18:01:05.422338 21088 net.cpp:156] Memory required for data: 885707808
I0403 18:01:05.422358 21088 layer_factory.hpp:77] Creating layer inception_4a/relu_pool_proj
I0403 18:01:05.422376 21088 net.cpp:91] Creating Layer inception_4a/relu_pool_proj
I0403 18:01:05.422395 21088 net.cpp:425] inception_4a/relu_pool_proj <- inception_4a/pool_proj
I0403 18:01:05.422413 21088 net.cpp:386] inception_4a/relu_pool_proj -> inception_4a/pool_proj (in-place)
I0403 18:01:05.422698 21088 net.cpp:141] Setting up inception_4a/relu_pool_proj
I0403 18:01:05.422724 21088 net.cpp:148] Top shape: 24 64 14 14 (301056)
I0403 18:01:05.422739 21088 net.cpp:156] Memory required for data: 886912032
I0403 18:01:05.422755 21088 layer_factory.hpp:77] Creating layer inception_4a/output
I0403 18:01:05.422771 21088 net.cpp:91] Creating Layer inception_4a/output
I0403 18:01:05.422787 21088 net.cpp:425] inception_4a/output <- inception_4a/1x1
I0403 18:01:05.422804 21088 net.cpp:425] inception_4a/output <- inception_4a/3x3
I0403 18:01:05.422821 21088 net.cpp:425] inception_4a/output <- inception_4a/5x5
I0403 18:01:05.422835 21088 net.cpp:425] inception_4a/output <- inception_4a/pool_proj
I0403 18:01:05.422855 21088 net.cpp:399] inception_4a/output -> inception_4a/output
I0403 18:01:05.422899 21088 net.cpp:141] Setting up inception_4a/output
I0403 18:01:05.422925 21088 net.cpp:148] Top shape: 24 512 14 14 (2408448)
I0403 18:01:05.422941 21088 net.cpp:156] Memory required for data: 896545824
I0403 18:01:05.422955 21088 layer_factory.hpp:77] Creating layer inception_4a/output_inception_4a/output_0_split
I0403 18:01:05.422972 21088 net.cpp:91] Creating Layer inception_4a/output_inception_4a/output_0_split
I0403 18:01:05.422987 21088 net.cpp:425] inception_4a/output_inception_4a/output_0_split <- inception_4a/output
I0403 18:01:05.423007 21088 net.cpp:399] inception_4a/output_inception_4a/output_0_split -> inception_4a/output_inception_4a/output_0_split_0
I0403 18:01:05.423028 21088 net.cpp:399] inception_4a/output_inception_4a/output_0_split -> inception_4a/output_inception_4a/output_0_split_1
I0403 18:01:05.423049 21088 net.cpp:399] inception_4a/output_inception_4a/output_0_split -> inception_4a/output_inception_4a/output_0_split_2
I0403 18:01:05.423069 21088 net.cpp:399] inception_4a/output_inception_4a/output_0_split -> inception_4a/output_inception_4a/output_0_split_3
I0403 18:01:05.423089 21088 net.cpp:399] inception_4a/output_inception_4a/output_0_split -> inception_4a/output_inception_4a/output_0_split_4
I0403 18:01:05.423182 21088 net.cpp:141] Setting up inception_4a/output_inception_4a/output_0_split
I0403 18:01:05.423204 21088 net.cpp:148] Top shape: 24 512 14 14 (2408448)
I0403 18:01:05.423220 21088 net.cpp:148] Top shape: 24 512 14 14 (2408448)
I0403 18:01:05.423236 21088 net.cpp:148] Top shape: 24 512 14 14 (2408448)
I0403 18:01:05.423251 21088 net.cpp:148] Top shape: 24 512 14 14 (2408448)
I0403 18:01:05.423266 21088 net.cpp:148] Top shape: 24 512 14 14 (2408448)
I0403 18:01:05.423280 21088 net.cpp:156] Memory required for data: 944714784
I0403 18:01:05.423293 21088 layer_factory.hpp:77] Creating layer loss1/ave_pool
I0403 18:01:05.423312 21088 net.cpp:91] Creating Layer loss1/ave_pool
I0403 18:01:05.423329 21088 net.cpp:425] loss1/ave_pool <- inception_4a/output_inception_4a/output_0_split_0
I0403 18:01:05.423347 21088 net.cpp:399] loss1/ave_pool -> loss1/ave_pool
I0403 18:01:05.423562 21088 net.cpp:141] Setting up loss1/ave_pool
I0403 18:01:05.423588 21088 net.cpp:148] Top shape: 24 512 4 4 (196608)
I0403 18:01:05.423602 21088 net.cpp:156] Memory required for data: 945501216
I0403 18:01:05.423617 21088 layer_factory.hpp:77] Creating layer loss1/conv
I0403 18:01:05.423640 21088 net.cpp:91] Creating Layer loss1/conv
I0403 18:01:05.423656 21088 net.cpp:425] loss1/conv <- loss1/ave_pool
I0403 18:01:05.423676 21088 net.cpp:399] loss1/conv -> loss1/conv
I0403 18:01:05.425083 21088 net.cpp:141] Setting up loss1/conv
I0403 18:01:05.425112 21088 net.cpp:148] Top shape: 24 128 4 4 (49152)
I0403 18:01:05.425142 21088 net.cpp:156] Memory required for data: 945697824
I0403 18:01:05.425160 21088 layer_factory.hpp:77] Creating layer loss1/relu_conv
I0403 18:01:05.425181 21088 net.cpp:91] Creating Layer loss1/relu_conv
I0403 18:01:05.425199 21088 net.cpp:425] loss1/relu_conv <- loss1/conv
I0403 18:01:05.425215 21088 net.cpp:386] loss1/relu_conv -> loss1/conv (in-place)
I0403 18:01:05.425496 21088 net.cpp:141] Setting up loss1/relu_conv
I0403 18:01:05.425528 21088 net.cpp:148] Top shape: 24 128 4 4 (49152)
I0403 18:01:05.425544 21088 net.cpp:156] Memory required for data: 945894432
I0403 18:01:05.425557 21088 layer_factory.hpp:77] Creating layer loss1/fc
I0403 18:01:05.425583 21088 net.cpp:91] Creating Layer loss1/fc
I0403 18:01:05.425601 21088 net.cpp:425] loss1/fc <- loss1/conv
I0403 18:01:05.425621 21088 net.cpp:399] loss1/fc -> loss1/fc
I0403 18:01:05.443194 21088 net.cpp:141] Setting up loss1/fc
I0403 18:01:05.443225 21088 net.cpp:148] Top shape: 24 1024 (24576)
I0403 18:01:05.443240 21088 net.cpp:156] Memory required for data: 945992736
I0403 18:01:05.443259 21088 layer_factory.hpp:77] Creating layer loss1/relu_fc
I0403 18:01:05.443275 21088 net.cpp:91] Creating Layer loss1/relu_fc
I0403 18:01:05.443290 21088 net.cpp:425] loss1/relu_fc <- loss1/fc
I0403 18:01:05.443310 21088 net.cpp:386] loss1/relu_fc -> loss1/fc (in-place)
I0403 18:01:05.443488 21088 net.cpp:141] Setting up loss1/relu_fc
I0403 18:01:05.443518 21088 net.cpp:148] Top shape: 24 1024 (24576)
I0403 18:01:05.443534 21088 net.cpp:156] Memory required for data: 946091040
I0403 18:01:05.443548 21088 layer_factory.hpp:77] Creating layer loss1/drop_fc
I0403 18:01:05.443578 21088 net.cpp:91] Creating Layer loss1/drop_fc
I0403 18:01:05.443594 21088 net.cpp:425] loss1/drop_fc <- loss1/fc
I0403 18:01:05.443611 21088 net.cpp:386] loss1/drop_fc -> loss1/fc (in-place)
I0403 18:01:05.443660 21088 net.cpp:141] Setting up loss1/drop_fc
I0403 18:01:05.443686 21088 net.cpp:148] Top shape: 24 1024 (24576)
I0403 18:01:05.443701 21088 net.cpp:156] Memory required for data: 946189344
I0403 18:01:05.443716 21088 layer_factory.hpp:77] Creating layer loss1/classifier_plantvillage
I0403 18:01:05.443732 21088 net.cpp:91] Creating Layer loss1/classifier_plantvillage
I0403 18:01:05.443747 21088 net.cpp:425] loss1/classifier_plantvillage <- loss1/fc
I0403 18:01:05.443766 21088 net.cpp:399] loss1/classifier_plantvillage -> loss1/classifier_plantvillage
I0403 18:01:05.444665 21088 net.cpp:141] Setting up loss1/classifier_plantvillage
I0403 18:01:05.444692 21088 net.cpp:148] Top shape: 24 38 (912)
I0403 18:01:05.444708 21088 net.cpp:156] Memory required for data: 946192992
I0403 18:01:05.444725 21088 layer_factory.hpp:77] Creating layer loss1/classifier_plantvillage_loss1/classifier_plantvillage_0_split
I0403 18:01:05.444742 21088 net.cpp:91] Creating Layer loss1/classifier_plantvillage_loss1/classifier_plantvillage_0_split
I0403 18:01:05.444757 21088 net.cpp:425] loss1/classifier_plantvillage_loss1/classifier_plantvillage_0_split <- loss1/classifier_plantvillage
I0403 18:01:05.444777 21088 net.cpp:399] loss1/classifier_plantvillage_loss1/classifier_plantvillage_0_split -> loss1/classifier_plantvillage_loss1/classifier_plantvillage_0_split_0
I0403 18:01:05.444797 21088 net.cpp:399] loss1/classifier_plantvillage_loss1/classifier_plantvillage_0_split -> loss1/classifier_plantvillage_loss1/classifier_plantvillage_0_split_1
I0403 18:01:05.444818 21088 net.cpp:399] loss1/classifier_plantvillage_loss1/classifier_plantvillage_0_split -> loss1/classifier_plantvillage_loss1/classifier_plantvillage_0_split_2
I0403 18:01:05.444885 21088 net.cpp:141] Setting up loss1/classifier_plantvillage_loss1/classifier_plantvillage_0_split
I0403 18:01:05.444906 21088 net.cpp:148] Top shape: 24 38 (912)
I0403 18:01:05.444922 21088 net.cpp:148] Top shape: 24 38 (912)
I0403 18:01:05.444937 21088 net.cpp:148] Top shape: 24 38 (912)
I0403 18:01:05.444950 21088 net.cpp:156] Memory required for data: 946203936
I0403 18:01:05.444964 21088 layer_factory.hpp:77] Creating layer inception_4b/1x1
I0403 18:01:05.444985 21088 net.cpp:91] Creating Layer inception_4b/1x1
I0403 18:01:05.445018 21088 net.cpp:425] inception_4b/1x1 <- inception_4a/output_inception_4a/output_0_split_1
I0403 18:01:05.445037 21088 net.cpp:399] inception_4b/1x1 -> inception_4b/1x1
I0403 18:01:05.446653 21088 net.cpp:141] Setting up inception_4b/1x1
I0403 18:01:05.446681 21088 net.cpp:148] Top shape: 24 160 14 14 (752640)
I0403 18:01:05.446697 21088 net.cpp:156] Memory required for data: 949214496
I0403 18:01:05.446715 21088 layer_factory.hpp:77] Creating layer inception_4b/relu_1x1
I0403 18:01:05.446734 21088 net.cpp:91] Creating Layer inception_4b/relu_1x1
I0403 18:01:05.446751 21088 net.cpp:425] inception_4b/relu_1x1 <- inception_4b/1x1
I0403 18:01:05.446768 21088 net.cpp:386] inception_4b/relu_1x1 -> inception_4b/1x1 (in-place)
I0403 18:01:05.446940 21088 net.cpp:141] Setting up inception_4b/relu_1x1
I0403 18:01:05.446966 21088 net.cpp:148] Top shape: 24 160 14 14 (752640)
I0403 18:01:05.446980 21088 net.cpp:156] Memory required for data: 952225056
I0403 18:01:05.446995 21088 layer_factory.hpp:77] Creating layer inception_4b/3x3_reduce
I0403 18:01:05.447021 21088 net.cpp:91] Creating Layer inception_4b/3x3_reduce
I0403 18:01:05.447038 21088 net.cpp:425] inception_4b/3x3_reduce <- inception_4a/output_inception_4a/output_0_split_2
I0403 18:01:05.447059 21088 net.cpp:399] inception_4b/3x3_reduce -> inception_4b/3x3_reduce
I0403 18:01:05.448369 21088 net.cpp:141] Setting up inception_4b/3x3_reduce
I0403 18:01:05.448400 21088 net.cpp:148] Top shape: 24 112 14 14 (526848)
I0403 18:01:05.448416 21088 net.cpp:156] Memory required for data: 954332448
I0403 18:01:05.448433 21088 layer_factory.hpp:77] Creating layer inception_4b/relu_3x3_reduce
I0403 18:01:05.448451 21088 net.cpp:91] Creating Layer inception_4b/relu_3x3_reduce
I0403 18:01:05.448465 21088 net.cpp:425] inception_4b/relu_3x3_reduce <- inception_4b/3x3_reduce
I0403 18:01:05.448482 21088 net.cpp:386] inception_4b/relu_3x3_reduce -> inception_4b/3x3_reduce (in-place)
I0403 18:01:05.448760 21088 net.cpp:141] Setting up inception_4b/relu_3x3_reduce
I0403 18:01:05.448787 21088 net.cpp:148] Top shape: 24 112 14 14 (526848)
I0403 18:01:05.448803 21088 net.cpp:156] Memory required for data: 956439840
I0403 18:01:05.448817 21088 layer_factory.hpp:77] Creating layer inception_4b/3x3
I0403 18:01:05.448838 21088 net.cpp:91] Creating Layer inception_4b/3x3
I0403 18:01:05.448855 21088 net.cpp:425] inception_4b/3x3 <- inception_4b/3x3_reduce
I0403 18:01:05.448874 21088 net.cpp:399] inception_4b/3x3 -> inception_4b/3x3
I0403 18:01:05.451778 21088 net.cpp:141] Setting up inception_4b/3x3
I0403 18:01:05.451807 21088 net.cpp:148] Top shape: 24 224 14 14 (1053696)
I0403 18:01:05.451822 21088 net.cpp:156] Memory required for data: 960654624
I0403 18:01:05.451838 21088 layer_factory.hpp:77] Creating layer inception_4b/relu_3x3
I0403 18:01:05.451856 21088 net.cpp:91] Creating Layer inception_4b/relu_3x3
I0403 18:01:05.451874 21088 net.cpp:425] inception_4b/relu_3x3 <- inception_4b/3x3
I0403 18:01:05.451892 21088 net.cpp:386] inception_4b/relu_3x3 -> inception_4b/3x3 (in-place)
I0403 18:01:05.452072 21088 net.cpp:141] Setting up inception_4b/relu_3x3
I0403 18:01:05.452097 21088 net.cpp:148] Top shape: 24 224 14 14 (1053696)
I0403 18:01:05.452111 21088 net.cpp:156] Memory required for data: 964869408
I0403 18:01:05.452126 21088 layer_factory.hpp:77] Creating layer inception_4b/5x5_reduce
I0403 18:01:05.452147 21088 net.cpp:91] Creating Layer inception_4b/5x5_reduce
I0403 18:01:05.452164 21088 net.cpp:425] inception_4b/5x5_reduce <- inception_4a/output_inception_4a/output_0_split_3
I0403 18:01:05.452185 21088 net.cpp:399] inception_4b/5x5_reduce -> inception_4b/5x5_reduce
I0403 18:01:05.453250 21088 net.cpp:141] Setting up inception_4b/5x5_reduce
I0403 18:01:05.453279 21088 net.cpp:148] Top shape: 24 24 14 14 (112896)
I0403 18:01:05.453295 21088 net.cpp:156] Memory required for data: 965320992
I0403 18:01:05.453313 21088 layer_factory.hpp:77] Creating layer inception_4b/relu_5x5_reduce
I0403 18:01:05.453331 21088 net.cpp:91] Creating Layer inception_4b/relu_5x5_reduce
I0403 18:01:05.453361 21088 net.cpp:425] inception_4b/relu_5x5_reduce <- inception_4b/5x5_reduce
I0403 18:01:05.453379 21088 net.cpp:386] inception_4b/relu_5x5_reduce -> inception_4b/5x5_reduce (in-place)
I0403 18:01:05.453565 21088 net.cpp:141] Setting up inception_4b/relu_5x5_reduce
I0403 18:01:05.453590 21088 net.cpp:148] Top shape: 24 24 14 14 (112896)
I0403 18:01:05.453604 21088 net.cpp:156] Memory required for data: 965772576
I0403 18:01:05.453619 21088 layer_factory.hpp:77] Creating layer inception_4b/5x5
I0403 18:01:05.453640 21088 net.cpp:91] Creating Layer inception_4b/5x5
I0403 18:01:05.453657 21088 net.cpp:425] inception_4b/5x5 <- inception_4b/5x5_reduce
I0403 18:01:05.453677 21088 net.cpp:399] inception_4b/5x5 -> inception_4b/5x5
I0403 18:01:05.454875 21088 net.cpp:141] Setting up inception_4b/5x5
I0403 18:01:05.454902 21088 net.cpp:148] Top shape: 24 64 14 14 (301056)
I0403 18:01:05.454918 21088 net.cpp:156] Memory required for data: 966976800
I0403 18:01:05.454936 21088 layer_factory.hpp:77] Creating layer inception_4b/relu_5x5
I0403 18:01:05.454954 21088 net.cpp:91] Creating Layer inception_4b/relu_5x5
I0403 18:01:05.454972 21088 net.cpp:425] inception_4b/relu_5x5 <- inception_4b/5x5
I0403 18:01:05.454988 21088 net.cpp:386] inception_4b/relu_5x5 -> inception_4b/5x5 (in-place)
I0403 18:01:05.455271 21088 net.cpp:141] Setting up inception_4b/relu_5x5
I0403 18:01:05.455296 21088 net.cpp:148] Top shape: 24 64 14 14 (301056)
I0403 18:01:05.455312 21088 net.cpp:156] Memory required for data: 968181024
I0403 18:01:05.455327 21088 layer_factory.hpp:77] Creating layer inception_4b/pool
I0403 18:01:05.455345 21088 net.cpp:91] Creating Layer inception_4b/pool
I0403 18:01:05.455361 21088 net.cpp:425] inception_4b/pool <- inception_4a/output_inception_4a/output_0_split_4
I0403 18:01:05.455379 21088 net.cpp:399] inception_4b/pool -> inception_4b/pool
I0403 18:01:05.455442 21088 net.cpp:141] Setting up inception_4b/pool
I0403 18:01:05.455466 21088 net.cpp:148] Top shape: 24 512 14 14 (2408448)
I0403 18:01:05.455479 21088 net.cpp:156] Memory required for data: 977814816
I0403 18:01:05.455493 21088 layer_factory.hpp:77] Creating layer inception_4b/pool_proj
I0403 18:01:05.455520 21088 net.cpp:91] Creating Layer inception_4b/pool_proj
I0403 18:01:05.455538 21088 net.cpp:425] inception_4b/pool_proj <- inception_4b/pool
I0403 18:01:05.455559 21088 net.cpp:399] inception_4b/pool_proj -> inception_4b/pool_proj
I0403 18:01:05.456737 21088 net.cpp:141] Setting up inception_4b/pool_proj
I0403 18:01:05.456765 21088 net.cpp:148] Top shape: 24 64 14 14 (301056)
I0403 18:01:05.456780 21088 net.cpp:156] Memory required for data: 979019040
I0403 18:01:05.456797 21088 layer_factory.hpp:77] Creating layer inception_4b/relu_pool_proj
I0403 18:01:05.456816 21088 net.cpp:91] Creating Layer inception_4b/relu_pool_proj
I0403 18:01:05.456833 21088 net.cpp:425] inception_4b/relu_pool_proj <- inception_4b/pool_proj
I0403 18:01:05.456850 21088 net.cpp:386] inception_4b/relu_pool_proj -> inception_4b/pool_proj (in-place)
I0403 18:01:05.457026 21088 net.cpp:141] Setting up inception_4b/relu_pool_proj
I0403 18:01:05.457051 21088 net.cpp:148] Top shape: 24 64 14 14 (301056)
I0403 18:01:05.457064 21088 net.cpp:156] Memory required for data: 980223264
I0403 18:01:05.457078 21088 layer_factory.hpp:77] Creating layer inception_4b/output
I0403 18:01:05.457094 21088 net.cpp:91] Creating Layer inception_4b/output
I0403 18:01:05.457109 21088 net.cpp:425] inception_4b/output <- inception_4b/1x1
I0403 18:01:05.457125 21088 net.cpp:425] inception_4b/output <- inception_4b/3x3
I0403 18:01:05.457140 21088 net.cpp:425] inception_4b/output <- inception_4b/5x5
I0403 18:01:05.457154 21088 net.cpp:425] inception_4b/output <- inception_4b/pool_proj
I0403 18:01:05.457175 21088 net.cpp:399] inception_4b/output -> inception_4b/output
I0403 18:01:05.457218 21088 net.cpp:141] Setting up inception_4b/output
I0403 18:01:05.457243 21088 net.cpp:148] Top shape: 24 512 14 14 (2408448)
I0403 18:01:05.457258 21088 net.cpp:156] Memory required for data: 989857056
I0403 18:01:05.457286 21088 layer_factory.hpp:77] Creating layer inception_4b/output_inception_4b/output_0_split
I0403 18:01:05.457304 21088 net.cpp:91] Creating Layer inception_4b/output_inception_4b/output_0_split
I0403 18:01:05.457319 21088 net.cpp:425] inception_4b/output_inception_4b/output_0_split <- inception_4b/output
I0403 18:01:05.457335 21088 net.cpp:399] inception_4b/output_inception_4b/output_0_split -> inception_4b/output_inception_4b/output_0_split_0
I0403 18:01:05.457353 21088 net.cpp:399] inception_4b/output_inception_4b/output_0_split -> inception_4b/output_inception_4b/output_0_split_1
I0403 18:01:05.457376 21088 net.cpp:399] inception_4b/output_inception_4b/output_0_split -> inception_4b/output_inception_4b/output_0_split_2
I0403 18:01:05.457396 21088 net.cpp:399] inception_4b/output_inception_4b/output_0_split -> inception_4b/output_inception_4b/output_0_split_3
I0403 18:01:05.457480 21088 net.cpp:141] Setting up inception_4b/output_inception_4b/output_0_split
I0403 18:01:05.457504 21088 net.cpp:148] Top shape: 24 512 14 14 (2408448)
I0403 18:01:05.457526 21088 net.cpp:148] Top shape: 24 512 14 14 (2408448)
I0403 18:01:05.457541 21088 net.cpp:148] Top shape: 24 512 14 14 (2408448)
I0403 18:01:05.457556 21088 net.cpp:148] Top shape: 24 512 14 14 (2408448)
I0403 18:01:05.457569 21088 net.cpp:156] Memory required for data: 1028392224
I0403 18:01:05.457582 21088 layer_factory.hpp:77] Creating layer inception_4c/1x1
I0403 18:01:05.457603 21088 net.cpp:91] Creating Layer inception_4c/1x1
I0403 18:01:05.457620 21088 net.cpp:425] inception_4c/1x1 <- inception_4b/output_inception_4b/output_0_split_0
I0403 18:01:05.457640 21088 net.cpp:399] inception_4c/1x1 -> inception_4c/1x1
I0403 18:01:05.459039 21088 net.cpp:141] Setting up inception_4c/1x1
I0403 18:01:05.459066 21088 net.cpp:148] Top shape: 24 128 14 14 (602112)
I0403 18:01:05.459080 21088 net.cpp:156] Memory required for data: 1030800672
I0403 18:01:05.459098 21088 layer_factory.hpp:77] Creating layer inception_4c/relu_1x1
I0403 18:01:05.459115 21088 net.cpp:91] Creating Layer inception_4c/relu_1x1
I0403 18:01:05.459131 21088 net.cpp:425] inception_4c/relu_1x1 <- inception_4c/1x1
I0403 18:01:05.459151 21088 net.cpp:386] inception_4c/relu_1x1 -> inception_4c/1x1 (in-place)
I0403 18:01:05.459328 21088 net.cpp:141] Setting up inception_4c/relu_1x1
I0403 18:01:05.459352 21088 net.cpp:148] Top shape: 24 128 14 14 (602112)
I0403 18:01:05.459367 21088 net.cpp:156] Memory required for data: 1033209120
I0403 18:01:05.459380 21088 layer_factory.hpp:77] Creating layer inception_4c/3x3_reduce
I0403 18:01:05.459403 21088 net.cpp:91] Creating Layer inception_4c/3x3_reduce
I0403 18:01:05.459419 21088 net.cpp:425] inception_4c/3x3_reduce <- inception_4b/output_inception_4b/output_0_split_1
I0403 18:01:05.459440 21088 net.cpp:399] inception_4c/3x3_reduce -> inception_4c/3x3_reduce
I0403 18:01:05.461361 21088 net.cpp:141] Setting up inception_4c/3x3_reduce
I0403 18:01:05.461390 21088 net.cpp:148] Top shape: 24 128 14 14 (602112)
I0403 18:01:05.461405 21088 net.cpp:156] Memory required for data: 1035617568
I0403 18:01:05.461422 21088 layer_factory.hpp:77] Creating layer inception_4c/relu_3x3_reduce
I0403 18:01:05.461442 21088 net.cpp:91] Creating Layer inception_4c/relu_3x3_reduce
I0403 18:01:05.461458 21088 net.cpp:425] inception_4c/relu_3x3_reduce <- inception_4c/3x3_reduce
I0403 18:01:05.461477 21088 net.cpp:386] inception_4c/relu_3x3_reduce -> inception_4c/3x3_reduce (in-place)
I0403 18:01:05.461768 21088 net.cpp:141] Setting up inception_4c/relu_3x3_reduce
I0403 18:01:05.461793 21088 net.cpp:148] Top shape: 24 128 14 14 (602112)
I0403 18:01:05.461808 21088 net.cpp:156] Memory required for data: 1038026016
I0403 18:01:05.461823 21088 layer_factory.hpp:77] Creating layer inception_4c/3x3
I0403 18:01:05.461845 21088 net.cpp:91] Creating Layer inception_4c/3x3
I0403 18:01:05.461863 21088 net.cpp:425] inception_4c/3x3 <- inception_4c/3x3_reduce
I0403 18:01:05.461884 21088 net.cpp:399] inception_4c/3x3 -> inception_4c/3x3
I0403 18:01:05.465415 21088 net.cpp:141] Setting up inception_4c/3x3
I0403 18:01:05.465456 21088 net.cpp:148] Top shape: 24 256 14 14 (1204224)
I0403 18:01:05.465471 21088 net.cpp:156] Memory required for data: 1042842912
I0403 18:01:05.465502 21088 layer_factory.hpp:77] Creating layer inception_4c/relu_3x3
I0403 18:01:05.465529 21088 net.cpp:91] Creating Layer inception_4c/relu_3x3
I0403 18:01:05.465555 21088 net.cpp:425] inception_4c/relu_3x3 <- inception_4c/3x3
I0403 18:01:05.465572 21088 net.cpp:386] inception_4c/relu_3x3 -> inception_4c/3x3 (in-place)
I0403 18:01:05.465747 21088 net.cpp:141] Setting up inception_4c/relu_3x3
I0403 18:01:05.465775 21088 net.cpp:148] Top shape: 24 256 14 14 (1204224)
I0403 18:01:05.465790 21088 net.cpp:156] Memory required for data: 1047659808
I0403 18:01:05.465803 21088 layer_factory.hpp:77] Creating layer inception_4c/5x5_reduce
I0403 18:01:05.465829 21088 net.cpp:91] Creating Layer inception_4c/5x5_reduce
I0403 18:01:05.465847 21088 net.cpp:425] inception_4c/5x5_reduce <- inception_4b/output_inception_4b/output_0_split_2
I0403 18:01:05.465865 21088 net.cpp:399] inception_4c/5x5_reduce -> inception_4c/5x5_reduce
I0403 18:01:05.467001 21088 net.cpp:141] Setting up inception_4c/5x5_reduce
I0403 18:01:05.467032 21088 net.cpp:148] Top shape: 24 24 14 14 (112896)
I0403 18:01:05.467048 21088 net.cpp:156] Memory required for data: 1048111392
I0403 18:01:05.467067 21088 layer_factory.hpp:77] Creating layer inception_4c/relu_5x5_reduce
I0403 18:01:05.467085 21088 net.cpp:91] Creating Layer inception_4c/relu_5x5_reduce
I0403 18:01:05.467102 21088 net.cpp:425] inception_4c/relu_5x5_reduce <- inception_4c/5x5_reduce
I0403 18:01:05.467118 21088 net.cpp:386] inception_4c/relu_5x5_reduce -> inception_4c/5x5_reduce (in-place)
I0403 18:01:05.467304 21088 net.cpp:141] Setting up inception_4c/relu_5x5_reduce
I0403 18:01:05.467332 21088 net.cpp:148] Top shape: 24 24 14 14 (112896)
I0403 18:01:05.467347 21088 net.cpp:156] Memory required for data: 1048562976
I0403 18:01:05.467362 21088 layer_factory.hpp:77] Creating layer inception_4c/5x5
I0403 18:01:05.467384 21088 net.cpp:91] Creating Layer inception_4c/5x5
I0403 18:01:05.467401 21088 net.cpp:425] inception_4c/5x5 <- inception_4c/5x5_reduce
I0403 18:01:05.467420 21088 net.cpp:399] inception_4c/5x5 -> inception_4c/5x5
I0403 18:01:05.468672 21088 net.cpp:141] Setting up inception_4c/5x5
I0403 18:01:05.468699 21088 net.cpp:148] Top shape: 24 64 14 14 (301056)
I0403 18:01:05.468714 21088 net.cpp:156] Memory required for data: 1049767200
I0403 18:01:05.468734 21088 layer_factory.hpp:77] Creating layer inception_4c/relu_5x5
I0403 18:01:05.468750 21088 net.cpp:91] Creating Layer inception_4c/relu_5x5
I0403 18:01:05.468766 21088 net.cpp:425] inception_4c/relu_5x5 <- inception_4c/5x5
I0403 18:01:05.468786 21088 net.cpp:386] inception_4c/relu_5x5 -> inception_4c/5x5 (in-place)
I0403 18:01:05.469079 21088 net.cpp:141] Setting up inception_4c/relu_5x5
I0403 18:01:05.469106 21088 net.cpp:148] Top shape: 24 64 14 14 (301056)
I0403 18:01:05.469121 21088 net.cpp:156] Memory required for data: 1050971424
I0403 18:01:05.469135 21088 layer_factory.hpp:77] Creating layer inception_4c/pool
I0403 18:01:05.469153 21088 net.cpp:91] Creating Layer inception_4c/pool
I0403 18:01:05.469169 21088 net.cpp:425] inception_4c/pool <- inception_4b/output_inception_4b/output_0_split_3
I0403 18:01:05.469189 21088 net.cpp:399] inception_4c/pool -> inception_4c/pool
I0403 18:01:05.469255 21088 net.cpp:141] Setting up inception_4c/pool
I0403 18:01:05.469279 21088 net.cpp:148] Top shape: 24 512 14 14 (2408448)
I0403 18:01:05.469293 21088 net.cpp:156] Memory required for data: 1060605216
I0403 18:01:05.469307 21088 layer_factory.hpp:77] Creating layer inception_4c/pool_proj
I0403 18:01:05.469334 21088 net.cpp:91] Creating Layer inception_4c/pool_proj
I0403 18:01:05.469352 21088 net.cpp:425] inception_4c/pool_proj <- inception_4c/pool
I0403 18:01:05.469372 21088 net.cpp:399] inception_4c/pool_proj -> inception_4c/pool_proj
I0403 18:01:05.470603 21088 net.cpp:141] Setting up inception_4c/pool_proj
I0403 18:01:05.470631 21088 net.cpp:148] Top shape: 24 64 14 14 (301056)
I0403 18:01:05.470660 21088 net.cpp:156] Memory required for data: 1061809440
I0403 18:01:05.470679 21088 layer_factory.hpp:77] Creating layer inception_4c/relu_pool_proj
I0403 18:01:05.470700 21088 net.cpp:91] Creating Layer inception_4c/relu_pool_proj
I0403 18:01:05.470717 21088 net.cpp:425] inception_4c/relu_pool_proj <- inception_4c/pool_proj
I0403 18:01:05.470734 21088 net.cpp:386] inception_4c/relu_pool_proj -> inception_4c/pool_proj (in-place)
I0403 18:01:05.470917 21088 net.cpp:141] Setting up inception_4c/relu_pool_proj
I0403 18:01:05.470942 21088 net.cpp:148] Top shape: 24 64 14 14 (301056)
I0403 18:01:05.470957 21088 net.cpp:156] Memory required for data: 1063013664
I0403 18:01:05.470971 21088 layer_factory.hpp:77] Creating layer inception_4c/output
I0403 18:01:05.470988 21088 net.cpp:91] Creating Layer inception_4c/output
I0403 18:01:05.471004 21088 net.cpp:425] inception_4c/output <- inception_4c/1x1
I0403 18:01:05.471020 21088 net.cpp:425] inception_4c/output <- inception_4c/3x3
I0403 18:01:05.471035 21088 net.cpp:425] inception_4c/output <- inception_4c/5x5
I0403 18:01:05.471050 21088 net.cpp:425] inception_4c/output <- inception_4c/pool_proj
I0403 18:01:05.471071 21088 net.cpp:399] inception_4c/output -> inception_4c/output
I0403 18:01:05.471117 21088 net.cpp:141] Setting up inception_4c/output
I0403 18:01:05.471143 21088 net.cpp:148] Top shape: 24 512 14 14 (2408448)
I0403 18:01:05.471158 21088 net.cpp:156] Memory required for data: 1072647456
I0403 18:01:05.471173 21088 layer_factory.hpp:77] Creating layer inception_4c/output_inception_4c/output_0_split
I0403 18:01:05.471189 21088 net.cpp:91] Creating Layer inception_4c/output_inception_4c/output_0_split
I0403 18:01:05.471204 21088 net.cpp:425] inception_4c/output_inception_4c/output_0_split <- inception_4c/output
I0403 18:01:05.471221 21088 net.cpp:399] inception_4c/output_inception_4c/output_0_split -> inception_4c/output_inception_4c/output_0_split_0
I0403 18:01:05.471241 21088 net.cpp:399] inception_4c/output_inception_4c/output_0_split -> inception_4c/output_inception_4c/output_0_split_1
I0403 18:01:05.471262 21088 net.cpp:399] inception_4c/output_inception_4c/output_0_split -> inception_4c/output_inception_4c/output_0_split_2
I0403 18:01:05.471284 21088 net.cpp:399] inception_4c/output_inception_4c/output_0_split -> inception_4c/output_inception_4c/output_0_split_3
I0403 18:01:05.471374 21088 net.cpp:141] Setting up inception_4c/output_inception_4c/output_0_split
I0403 18:01:05.471396 21088 net.cpp:148] Top shape: 24 512 14 14 (2408448)
I0403 18:01:05.471412 21088 net.cpp:148] Top shape: 24 512 14 14 (2408448)
I0403 18:01:05.471428 21088 net.cpp:148] Top shape: 24 512 14 14 (2408448)
I0403 18:01:05.471443 21088 net.cpp:148] Top shape: 24 512 14 14 (2408448)
I0403 18:01:05.471457 21088 net.cpp:156] Memory required for data: 1111182624
I0403 18:01:05.471470 21088 layer_factory.hpp:77] Creating layer inception_4d/1x1
I0403 18:01:05.471493 21088 net.cpp:91] Creating Layer inception_4d/1x1
I0403 18:01:05.471514 21088 net.cpp:425] inception_4d/1x1 <- inception_4c/output_inception_4c/output_0_split_0
I0403 18:01:05.471537 21088 net.cpp:399] inception_4d/1x1 -> inception_4d/1x1
I0403 18:01:05.472932 21088 net.cpp:141] Setting up inception_4d/1x1
I0403 18:01:05.472960 21088 net.cpp:148] Top shape: 24 112 14 14 (526848)
I0403 18:01:05.472976 21088 net.cpp:156] Memory required for data: 1113290016
I0403 18:01:05.472995 21088 layer_factory.hpp:77] Creating layer inception_4d/relu_1x1
I0403 18:01:05.473016 21088 net.cpp:91] Creating Layer inception_4d/relu_1x1
I0403 18:01:05.473032 21088 net.cpp:425] inception_4d/relu_1x1 <- inception_4d/1x1
I0403 18:01:05.473050 21088 net.cpp:386] inception_4d/relu_1x1 -> inception_4d/1x1 (in-place)
I0403 18:01:05.473234 21088 net.cpp:141] Setting up inception_4d/relu_1x1
I0403 18:01:05.473417 21088 net.cpp:148] Top shape: 24 112 14 14 (526848)
I0403 18:01:05.473465 21088 net.cpp:156] Memory required for data: 1115397408
I0403 18:01:05.473482 21088 layer_factory.hpp:77] Creating layer inception_4d/3x3_reduce
I0403 18:01:05.473522 21088 net.cpp:91] Creating Layer inception_4d/3x3_reduce
I0403 18:01:05.473541 21088 net.cpp:425] inception_4d/3x3_reduce <- inception_4c/output_inception_4c/output_0_split_1
I0403 18:01:05.473567 21088 net.cpp:399] inception_4d/3x3_reduce -> inception_4d/3x3_reduce
I0403 18:01:05.475116 21088 net.cpp:141] Setting up inception_4d/3x3_reduce
I0403 18:01:05.475144 21088 net.cpp:148] Top shape: 24 144 14 14 (677376)
I0403 18:01:05.475159 21088 net.cpp:156] Memory required for data: 1118106912
I0403 18:01:05.475178 21088 layer_factory.hpp:77] Creating layer inception_4d/relu_3x3_reduce
I0403 18:01:05.475196 21088 net.cpp:91] Creating Layer inception_4d/relu_3x3_reduce
I0403 18:01:05.475213 21088 net.cpp:425] inception_4d/relu_3x3_reduce <- inception_4d/3x3_reduce
I0403 18:01:05.475231 21088 net.cpp:386] inception_4d/relu_3x3_reduce -> inception_4d/3x3_reduce (in-place)
I0403 18:01:05.475531 21088 net.cpp:141] Setting up inception_4d/relu_3x3_reduce
I0403 18:01:05.475558 21088 net.cpp:148] Top shape: 24 144 14 14 (677376)
I0403 18:01:05.475574 21088 net.cpp:156] Memory required for data: 1120816416
I0403 18:01:05.475589 21088 layer_factory.hpp:77] Creating layer inception_4d/3x3
I0403 18:01:05.475611 21088 net.cpp:91] Creating Layer inception_4d/3x3
I0403 18:01:05.475628 21088 net.cpp:425] inception_4d/3x3 <- inception_4d/3x3_reduce
I0403 18:01:05.475651 21088 net.cpp:399] inception_4d/3x3 -> inception_4d/3x3
I0403 18:01:05.479945 21088 net.cpp:141] Setting up inception_4d/3x3
I0403 18:01:05.479974 21088 net.cpp:148] Top shape: 24 288 14 14 (1354752)
I0403 18:01:05.479990 21088 net.cpp:156] Memory required for data: 1126235424
I0403 18:01:05.480008 21088 layer_factory.hpp:77] Creating layer inception_4d/relu_3x3
I0403 18:01:05.480028 21088 net.cpp:91] Creating Layer inception_4d/relu_3x3
I0403 18:01:05.480046 21088 net.cpp:425] inception_4d/relu_3x3 <- inception_4d/3x3
I0403 18:01:05.480063 21088 net.cpp:386] inception_4d/relu_3x3 -> inception_4d/3x3 (in-place)
I0403 18:01:05.480247 21088 net.cpp:141] Setting up inception_4d/relu_3x3
I0403 18:01:05.480273 21088 net.cpp:148] Top shape: 24 288 14 14 (1354752)
I0403 18:01:05.480288 21088 net.cpp:156] Memory required for data: 1131654432
I0403 18:01:05.480303 21088 layer_factory.hpp:77] Creating layer inception_4d/5x5_reduce
I0403 18:01:05.480326 21088 net.cpp:91] Creating Layer inception_4d/5x5_reduce
I0403 18:01:05.480345 21088 net.cpp:425] inception_4d/5x5_reduce <- inception_4c/output_inception_4c/output_0_split_2
I0403 18:01:05.480363 21088 net.cpp:399] inception_4d/5x5_reduce -> inception_4d/5x5_reduce
I0403 18:01:05.481521 21088 net.cpp:141] Setting up inception_4d/5x5_reduce
I0403 18:01:05.481549 21088 net.cpp:148] Top shape: 24 32 14 14 (150528)
I0403 18:01:05.481565 21088 net.cpp:156] Memory required for data: 1132256544
I0403 18:01:05.481583 21088 layer_factory.hpp:77] Creating layer inception_4d/relu_5x5_reduce
I0403 18:01:05.481603 21088 net.cpp:91] Creating Layer inception_4d/relu_5x5_reduce
I0403 18:01:05.481621 21088 net.cpp:425] inception_4d/relu_5x5_reduce <- inception_4d/5x5_reduce
I0403 18:01:05.481637 21088 net.cpp:386] inception_4d/relu_5x5_reduce -> inception_4d/5x5_reduce (in-place)
I0403 18:01:05.481827 21088 net.cpp:141] Setting up inception_4d/relu_5x5_reduce
I0403 18:01:05.481854 21088 net.cpp:148] Top shape: 24 32 14 14 (150528)
I0403 18:01:05.481870 21088 net.cpp:156] Memory required for data: 1132858656
I0403 18:01:05.481885 21088 layer_factory.hpp:77] Creating layer inception_4d/5x5
I0403 18:01:05.481906 21088 net.cpp:91] Creating Layer inception_4d/5x5
I0403 18:01:05.481925 21088 net.cpp:425] inception_4d/5x5 <- inception_4d/5x5_reduce
I0403 18:01:05.481943 21088 net.cpp:399] inception_4d/5x5 -> inception_4d/5x5
I0403 18:01:05.483414 21088 net.cpp:141] Setting up inception_4d/5x5
I0403 18:01:05.483445 21088 net.cpp:148] Top shape: 24 64 14 14 (301056)
I0403 18:01:05.483461 21088 net.cpp:156] Memory required for data: 1134062880
I0403 18:01:05.483480 21088 layer_factory.hpp:77] Creating layer inception_4d/relu_5x5
I0403 18:01:05.483517 21088 net.cpp:91] Creating Layer inception_4d/relu_5x5
I0403 18:01:05.483536 21088 net.cpp:425] inception_4d/relu_5x5 <- inception_4d/5x5
I0403 18:01:05.483553 21088 net.cpp:386] inception_4d/relu_5x5 -> inception_4d/5x5 (in-place)
I0403 18:01:05.483870 21088 net.cpp:141] Setting up inception_4d/relu_5x5
I0403 18:01:05.483901 21088 net.cpp:148] Top shape: 24 64 14 14 (301056)
I0403 18:01:05.483917 21088 net.cpp:156] Memory required for data: 1135267104
I0403 18:01:05.483932 21088 layer_factory.hpp:77] Creating layer inception_4d/pool
I0403 18:01:05.483950 21088 net.cpp:91] Creating Layer inception_4d/pool
I0403 18:01:05.483968 21088 net.cpp:425] inception_4d/pool <- inception_4c/output_inception_4c/output_0_split_3
I0403 18:01:05.483989 21088 net.cpp:399] inception_4d/pool -> inception_4d/pool
I0403 18:01:05.484086 21088 net.cpp:141] Setting up inception_4d/pool
I0403 18:01:05.484112 21088 net.cpp:148] Top shape: 24 512 14 14 (2408448)
I0403 18:01:05.484127 21088 net.cpp:156] Memory required for data: 1144900896
I0403 18:01:05.484140 21088 layer_factory.hpp:77] Creating layer inception_4d/pool_proj
I0403 18:01:05.484163 21088 net.cpp:91] Creating Layer inception_4d/pool_proj
I0403 18:01:05.484181 21088 net.cpp:425] inception_4d/pool_proj <- inception_4d/pool
I0403 18:01:05.484201 21088 net.cpp:399] inception_4d/pool_proj -> inception_4d/pool_proj
I0403 18:01:05.485957 21088 net.cpp:141] Setting up inception_4d/pool_proj
I0403 18:01:05.485985 21088 net.cpp:148] Top shape: 24 64 14 14 (301056)
I0403 18:01:05.486001 21088 net.cpp:156] Memory required for data: 1146105120
I0403 18:01:05.486018 21088 layer_factory.hpp:77] Creating layer inception_4d/relu_pool_proj
I0403 18:01:05.486038 21088 net.cpp:91] Creating Layer inception_4d/relu_pool_proj
I0403 18:01:05.486055 21088 net.cpp:425] inception_4d/relu_pool_proj <- inception_4d/pool_proj
I0403 18:01:05.486073 21088 net.cpp:386] inception_4d/relu_pool_proj -> inception_4d/pool_proj (in-place)
I0403 18:01:05.486253 21088 net.cpp:141] Setting up inception_4d/relu_pool_proj
I0403 18:01:05.486281 21088 net.cpp:148] Top shape: 24 64 14 14 (301056)
I0403 18:01:05.486297 21088 net.cpp:156] Memory required for data: 1147309344
I0403 18:01:05.486311 21088 layer_factory.hpp:77] Creating layer inception_4d/output
I0403 18:01:05.486328 21088 net.cpp:91] Creating Layer inception_4d/output
I0403 18:01:05.486343 21088 net.cpp:425] inception_4d/output <- inception_4d/1x1
I0403 18:01:05.486359 21088 net.cpp:425] inception_4d/output <- inception_4d/3x3
I0403 18:01:05.486374 21088 net.cpp:425] inception_4d/output <- inception_4d/5x5
I0403 18:01:05.486389 21088 net.cpp:425] inception_4d/output <- inception_4d/pool_proj
I0403 18:01:05.486405 21088 net.cpp:399] inception_4d/output -> inception_4d/output
I0403 18:01:05.486454 21088 net.cpp:141] Setting up inception_4d/output
I0403 18:01:05.486476 21088 net.cpp:148] Top shape: 24 528 14 14 (2483712)
I0403 18:01:05.486491 21088 net.cpp:156] Memory required for data: 1157244192
I0403 18:01:05.486508 21088 layer_factory.hpp:77] Creating layer inception_4d/output_inception_4d/output_0_split
I0403 18:01:05.486526 21088 net.cpp:91] Creating Layer inception_4d/output_inception_4d/output_0_split
I0403 18:01:05.486542 21088 net.cpp:425] inception_4d/output_inception_4d/output_0_split <- inception_4d/output
I0403 18:01:05.486568 21088 net.cpp:399] inception_4d/output_inception_4d/output_0_split -> inception_4d/output_inception_4d/output_0_split_0
I0403 18:01:05.486588 21088 net.cpp:399] inception_4d/output_inception_4d/output_0_split -> inception_4d/output_inception_4d/output_0_split_1
I0403 18:01:05.486609 21088 net.cpp:399] inception_4d/output_inception_4d/output_0_split -> inception_4d/output_inception_4d/output_0_split_2
I0403 18:01:05.486634 21088 net.cpp:399] inception_4d/output_inception_4d/output_0_split -> inception_4d/output_inception_4d/output_0_split_3
I0403 18:01:05.486654 21088 net.cpp:399] inception_4d/output_inception_4d/output_0_split -> inception_4d/output_inception_4d/output_0_split_4
I0403 18:01:05.486752 21088 net.cpp:141] Setting up inception_4d/output_inception_4d/output_0_split
I0403 18:01:05.486786 21088 net.cpp:148] Top shape: 24 528 14 14 (2483712)
I0403 18:01:05.486804 21088 net.cpp:148] Top shape: 24 528 14 14 (2483712)
I0403 18:01:05.486819 21088 net.cpp:148] Top shape: 24 528 14 14 (2483712)
I0403 18:01:05.486834 21088 net.cpp:148] Top shape: 24 528 14 14 (2483712)
I0403 18:01:05.486850 21088 net.cpp:148] Top shape: 24 528 14 14 (2483712)
I0403 18:01:05.486862 21088 net.cpp:156] Memory required for data: 1206918432
I0403 18:01:05.486876 21088 layer_factory.hpp:77] Creating layer loss2/ave_pool
I0403 18:01:05.486893 21088 net.cpp:91] Creating Layer loss2/ave_pool
I0403 18:01:05.486908 21088 net.cpp:425] loss2/ave_pool <- inception_4d/output_inception_4d/output_0_split_0
I0403 18:01:05.486928 21088 net.cpp:399] loss2/ave_pool -> loss2/ave_pool
I0403 18:01:05.487234 21088 net.cpp:141] Setting up loss2/ave_pool
I0403 18:01:05.487259 21088 net.cpp:148] Top shape: 24 528 4 4 (202752)
I0403 18:01:05.487274 21088 net.cpp:156] Memory required for data: 1207729440
I0403 18:01:05.487289 21088 layer_factory.hpp:77] Creating layer loss2/conv
I0403 18:01:05.487311 21088 net.cpp:91] Creating Layer loss2/conv
I0403 18:01:05.487328 21088 net.cpp:425] loss2/conv <- loss2/ave_pool
I0403 18:01:05.487349 21088 net.cpp:399] loss2/conv -> loss2/conv
I0403 18:01:05.489208 21088 net.cpp:141] Setting up loss2/conv
I0403 18:01:05.489238 21088 net.cpp:148] Top shape: 24 128 4 4 (49152)
I0403 18:01:05.489254 21088 net.cpp:156] Memory required for data: 1207926048
I0403 18:01:05.489272 21088 layer_factory.hpp:77] Creating layer loss2/relu_conv
I0403 18:01:05.489289 21088 net.cpp:91] Creating Layer loss2/relu_conv
I0403 18:01:05.489305 21088 net.cpp:425] loss2/relu_conv <- loss2/conv
I0403 18:01:05.489323 21088 net.cpp:386] loss2/relu_conv -> loss2/conv (in-place)
I0403 18:01:05.489616 21088 net.cpp:141] Setting up loss2/relu_conv
I0403 18:01:05.489645 21088 net.cpp:148] Top shape: 24 128 4 4 (49152)
I0403 18:01:05.489660 21088 net.cpp:156] Memory required for data: 1208122656
I0403 18:01:05.489675 21088 layer_factory.hpp:77] Creating layer loss2/fc
I0403 18:01:05.489693 21088 net.cpp:91] Creating Layer loss2/fc
I0403 18:01:05.489709 21088 net.cpp:425] loss2/fc <- loss2/conv
I0403 18:01:05.489730 21088 net.cpp:399] loss2/fc -> loss2/fc
I0403 18:01:05.506983 21088 net.cpp:141] Setting up loss2/fc
I0403 18:01:05.507015 21088 net.cpp:148] Top shape: 24 1024 (24576)
I0403 18:01:05.507030 21088 net.cpp:156] Memory required for data: 1208220960
I0403 18:01:05.507048 21088 layer_factory.hpp:77] Creating layer loss2/relu_fc
I0403 18:01:05.507068 21088 net.cpp:91] Creating Layer loss2/relu_fc
I0403 18:01:05.507086 21088 net.cpp:425] loss2/relu_fc <- loss2/fc
I0403 18:01:05.507102 21088 net.cpp:386] loss2/relu_fc -> loss2/fc (in-place)
I0403 18:01:05.507400 21088 net.cpp:141] Setting up loss2/relu_fc
I0403 18:01:05.507426 21088 net.cpp:148] Top shape: 24 1024 (24576)
I0403 18:01:05.507441 21088 net.cpp:156] Memory required for data: 1208319264
I0403 18:01:05.507455 21088 layer_factory.hpp:77] Creating layer loss2/drop_fc
I0403 18:01:05.507475 21088 net.cpp:91] Creating Layer loss2/drop_fc
I0403 18:01:05.507491 21088 net.cpp:425] loss2/drop_fc <- loss2/fc
I0403 18:01:05.507513 21088 net.cpp:386] loss2/drop_fc -> loss2/fc (in-place)
I0403 18:01:05.507566 21088 net.cpp:141] Setting up loss2/drop_fc
I0403 18:01:05.507588 21088 net.cpp:148] Top shape: 24 1024 (24576)
I0403 18:01:05.507602 21088 net.cpp:156] Memory required for data: 1208417568
I0403 18:01:05.507616 21088 layer_factory.hpp:77] Creating layer loss2/classifier_plantvillage
I0403 18:01:05.507633 21088 net.cpp:91] Creating Layer loss2/classifier_plantvillage
I0403 18:01:05.507648 21088 net.cpp:425] loss2/classifier_plantvillage <- loss2/fc
I0403 18:01:05.507669 21088 net.cpp:399] loss2/classifier_plantvillage -> loss2/classifier_plantvillage
I0403 18:01:05.508061 21088 net.cpp:141] Setting up loss2/classifier_plantvillage
I0403 18:01:05.508085 21088 net.cpp:148] Top shape: 24 38 (912)
I0403 18:01:05.508116 21088 net.cpp:156] Memory required for data: 1208421216
I0403 18:01:05.508133 21088 layer_factory.hpp:77] Creating layer loss2/classifier_plantvillage_loss2/classifier_plantvillage_0_split
I0403 18:01:05.508152 21088 net.cpp:91] Creating Layer loss2/classifier_plantvillage_loss2/classifier_plantvillage_0_split
I0403 18:01:05.508167 21088 net.cpp:425] loss2/classifier_plantvillage_loss2/classifier_plantvillage_0_split <- loss2/classifier_plantvillage
I0403 18:01:05.508186 21088 net.cpp:399] loss2/classifier_plantvillage_loss2/classifier_plantvillage_0_split -> loss2/classifier_plantvillage_loss2/classifier_plantvillage_0_split_0
I0403 18:01:05.508208 21088 net.cpp:399] loss2/classifier_plantvillage_loss2/classifier_plantvillage_0_split -> loss2/classifier_plantvillage_loss2/classifier_plantvillage_0_split_1
I0403 18:01:05.508227 21088 net.cpp:399] loss2/classifier_plantvillage_loss2/classifier_plantvillage_0_split -> loss2/classifier_plantvillage_loss2/classifier_plantvillage_0_split_2
I0403 18:01:05.508302 21088 net.cpp:141] Setting up loss2/classifier_plantvillage_loss2/classifier_plantvillage_0_split
I0403 18:01:05.508327 21088 net.cpp:148] Top shape: 24 38 (912)
I0403 18:01:05.508343 21088 net.cpp:148] Top shape: 24 38 (912)
I0403 18:01:05.508358 21088 net.cpp:148] Top shape: 24 38 (912)
I0403 18:01:05.508373 21088 net.cpp:156] Memory required for data: 1208432160
I0403 18:01:05.508386 21088 layer_factory.hpp:77] Creating layer inception_4e/1x1
I0403 18:01:05.508405 21088 net.cpp:91] Creating Layer inception_4e/1x1
I0403 18:01:05.508421 21088 net.cpp:425] inception_4e/1x1 <- inception_4d/output_inception_4d/output_0_split_1
I0403 18:01:05.508440 21088 net.cpp:399] inception_4e/1x1 -> inception_4e/1x1
I0403 18:01:05.510213 21088 net.cpp:141] Setting up inception_4e/1x1
I0403 18:01:05.510241 21088 net.cpp:148] Top shape: 24 256 14 14 (1204224)
I0403 18:01:05.510256 21088 net.cpp:156] Memory required for data: 1213249056
I0403 18:01:05.510282 21088 layer_factory.hpp:77] Creating layer inception_4e/relu_1x1
I0403 18:01:05.510298 21088 net.cpp:91] Creating Layer inception_4e/relu_1x1
I0403 18:01:05.510315 21088 net.cpp:425] inception_4e/relu_1x1 <- inception_4e/1x1
I0403 18:01:05.510334 21088 net.cpp:386] inception_4e/relu_1x1 -> inception_4e/1x1 (in-place)
I0403 18:01:05.510653 21088 net.cpp:141] Setting up inception_4e/relu_1x1
I0403 18:01:05.510679 21088 net.cpp:148] Top shape: 24 256 14 14 (1204224)
I0403 18:01:05.510706 21088 net.cpp:156] Memory required for data: 1218065952
I0403 18:01:05.510720 21088 layer_factory.hpp:77] Creating layer inception_4e/3x3_reduce
I0403 18:01:05.510742 21088 net.cpp:91] Creating Layer inception_4e/3x3_reduce
I0403 18:01:05.510761 21088 net.cpp:425] inception_4e/3x3_reduce <- inception_4d/output_inception_4d/output_0_split_2
I0403 18:01:05.510782 21088 net.cpp:399] inception_4e/3x3_reduce -> inception_4e/3x3_reduce
I0403 18:01:05.512862 21088 net.cpp:141] Setting up inception_4e/3x3_reduce
I0403 18:01:05.512892 21088 net.cpp:148] Top shape: 24 160 14 14 (752640)
I0403 18:01:05.512908 21088 net.cpp:156] Memory required for data: 1221076512
I0403 18:01:05.512926 21088 layer_factory.hpp:77] Creating layer inception_4e/relu_3x3_reduce
I0403 18:01:05.512944 21088 net.cpp:91] Creating Layer inception_4e/relu_3x3_reduce
I0403 18:01:05.512960 21088 net.cpp:425] inception_4e/relu_3x3_reduce <- inception_4e/3x3_reduce
I0403 18:01:05.512979 21088 net.cpp:386] inception_4e/relu_3x3_reduce -> inception_4e/3x3_reduce (in-place)
I0403 18:01:05.513159 21088 net.cpp:141] Setting up inception_4e/relu_3x3_reduce
I0403 18:01:05.513185 21088 net.cpp:148] Top shape: 24 160 14 14 (752640)
I0403 18:01:05.513198 21088 net.cpp:156] Memory required for data: 1224087072
I0403 18:01:05.513212 21088 layer_factory.hpp:77] Creating layer inception_4e/3x3
I0403 18:01:05.513234 21088 net.cpp:91] Creating Layer inception_4e/3x3
I0403 18:01:05.513252 21088 net.cpp:425] inception_4e/3x3 <- inception_4e/3x3_reduce
I0403 18:01:05.513273 21088 net.cpp:399] inception_4e/3x3 -> inception_4e/3x3
I0403 18:01:05.518167 21088 net.cpp:141] Setting up inception_4e/3x3
I0403 18:01:05.518208 21088 net.cpp:148] Top shape: 24 320 14 14 (1505280)
I0403 18:01:05.518224 21088 net.cpp:156] Memory required for data: 1230108192
I0403 18:01:05.518241 21088 layer_factory.hpp:77] Creating layer inception_4e/relu_3x3
I0403 18:01:05.518259 21088 net.cpp:91] Creating Layer inception_4e/relu_3x3
I0403 18:01:05.518273 21088 net.cpp:425] inception_4e/relu_3x3 <- inception_4e/3x3
I0403 18:01:05.518292 21088 net.cpp:386] inception_4e/relu_3x3 -> inception_4e/3x3 (in-place)
I0403 18:01:05.518591 21088 net.cpp:141] Setting up inception_4e/relu_3x3
I0403 18:01:05.518618 21088 net.cpp:148] Top shape: 24 320 14 14 (1505280)
I0403 18:01:05.518633 21088 net.cpp:156] Memory required for data: 1236129312
I0403 18:01:05.518647 21088 layer_factory.hpp:77] Creating layer inception_4e/5x5_reduce
I0403 18:01:05.518671 21088 net.cpp:91] Creating Layer inception_4e/5x5_reduce
I0403 18:01:05.518689 21088 net.cpp:425] inception_4e/5x5_reduce <- inception_4d/output_inception_4d/output_0_split_3
I0403 18:01:05.518710 21088 net.cpp:399] inception_4e/5x5_reduce -> inception_4e/5x5_reduce
I0403 18:01:05.519758 21088 net.cpp:141] Setting up inception_4e/5x5_reduce
I0403 18:01:05.519788 21088 net.cpp:148] Top shape: 24 32 14 14 (150528)
I0403 18:01:05.519804 21088 net.cpp:156] Memory required for data: 1236731424
I0403 18:01:05.519822 21088 layer_factory.hpp:77] Creating layer inception_4e/relu_5x5_reduce
I0403 18:01:05.519840 21088 net.cpp:91] Creating Layer inception_4e/relu_5x5_reduce
I0403 18:01:05.519855 21088 net.cpp:425] inception_4e/relu_5x5_reduce <- inception_4e/5x5_reduce
I0403 18:01:05.519871 21088 net.cpp:386] inception_4e/relu_5x5_reduce -> inception_4e/5x5_reduce (in-place)
I0403 18:01:05.520165 21088 net.cpp:141] Setting up inception_4e/relu_5x5_reduce
I0403 18:01:05.520193 21088 net.cpp:148] Top shape: 24 32 14 14 (150528)
I0403 18:01:05.520210 21088 net.cpp:156] Memory required for data: 1237333536
I0403 18:01:05.520223 21088 layer_factory.hpp:77] Creating layer inception_4e/5x5
I0403 18:01:05.520273 21088 net.cpp:91] Creating Layer inception_4e/5x5
I0403 18:01:05.520293 21088 net.cpp:425] inception_4e/5x5 <- inception_4e/5x5_reduce
I0403 18:01:05.520313 21088 net.cpp:399] inception_4e/5x5 -> inception_4e/5x5
I0403 18:01:05.522155 21088 net.cpp:141] Setting up inception_4e/5x5
I0403 18:01:05.522183 21088 net.cpp:148] Top shape: 24 128 14 14 (602112)
I0403 18:01:05.522199 21088 net.cpp:156] Memory required for data: 1239741984
I0403 18:01:05.522217 21088 layer_factory.hpp:77] Creating layer inception_4e/relu_5x5
I0403 18:01:05.522238 21088 net.cpp:91] Creating Layer inception_4e/relu_5x5
I0403 18:01:05.522255 21088 net.cpp:425] inception_4e/relu_5x5 <- inception_4e/5x5
I0403 18:01:05.522274 21088 net.cpp:386] inception_4e/relu_5x5 -> inception_4e/5x5 (in-place)
I0403 18:01:05.522474 21088 net.cpp:141] Setting up inception_4e/relu_5x5
I0403 18:01:05.522501 21088 net.cpp:148] Top shape: 24 128 14 14 (602112)
I0403 18:01:05.522523 21088 net.cpp:156] Memory required for data: 1242150432
I0403 18:01:05.522538 21088 layer_factory.hpp:77] Creating layer inception_4e/pool
I0403 18:01:05.522557 21088 net.cpp:91] Creating Layer inception_4e/pool
I0403 18:01:05.522572 21088 net.cpp:425] inception_4e/pool <- inception_4d/output_inception_4d/output_0_split_4
I0403 18:01:05.522593 21088 net.cpp:399] inception_4e/pool -> inception_4e/pool
I0403 18:01:05.522662 21088 net.cpp:141] Setting up inception_4e/pool
I0403 18:01:05.522686 21088 net.cpp:148] Top shape: 24 528 14 14 (2483712)
I0403 18:01:05.522701 21088 net.cpp:156] Memory required for data: 1252085280
I0403 18:01:05.522716 21088 layer_factory.hpp:77] Creating layer inception_4e/pool_proj
I0403 18:01:05.522738 21088 net.cpp:91] Creating Layer inception_4e/pool_proj
I0403 18:01:05.522756 21088 net.cpp:425] inception_4e/pool_proj <- inception_4e/pool
I0403 18:01:05.522776 21088 net.cpp:399] inception_4e/pool_proj -> inception_4e/pool_proj
I0403 18:01:05.524301 21088 net.cpp:141] Setting up inception_4e/pool_proj
I0403 18:01:05.524339 21088 net.cpp:148] Top shape: 24 128 14 14 (602112)
I0403 18:01:05.524355 21088 net.cpp:156] Memory required for data: 1254493728
I0403 18:01:05.524374 21088 layer_factory.hpp:77] Creating layer inception_4e/relu_pool_proj
I0403 18:01:05.524394 21088 net.cpp:91] Creating Layer inception_4e/relu_pool_proj
I0403 18:01:05.524411 21088 net.cpp:425] inception_4e/relu_pool_proj <- inception_4e/pool_proj
I0403 18:01:05.524428 21088 net.cpp:386] inception_4e/relu_pool_proj -> inception_4e/pool_proj (in-place)
I0403 18:01:05.524739 21088 net.cpp:141] Setting up inception_4e/relu_pool_proj
I0403 18:01:05.524765 21088 net.cpp:148] Top shape: 24 128 14 14 (602112)
I0403 18:01:05.524780 21088 net.cpp:156] Memory required for data: 1256902176
I0403 18:01:05.524796 21088 layer_factory.hpp:77] Creating layer inception_4e/output
I0403 18:01:05.524814 21088 net.cpp:91] Creating Layer inception_4e/output
I0403 18:01:05.524832 21088 net.cpp:425] inception_4e/output <- inception_4e/1x1
I0403 18:01:05.524848 21088 net.cpp:425] inception_4e/output <- inception_4e/3x3
I0403 18:01:05.524864 21088 net.cpp:425] inception_4e/output <- inception_4e/5x5
I0403 18:01:05.524880 21088 net.cpp:425] inception_4e/output <- inception_4e/pool_proj
I0403 18:01:05.524896 21088 net.cpp:399] inception_4e/output -> inception_4e/output
I0403 18:01:05.524947 21088 net.cpp:141] Setting up inception_4e/output
I0403 18:01:05.524971 21088 net.cpp:148] Top shape: 24 832 14 14 (3913728)
I0403 18:01:05.524986 21088 net.cpp:156] Memory required for data: 1272557088
I0403 18:01:05.524999 21088 layer_factory.hpp:77] Creating layer pool4/3x3_s2
I0403 18:01:05.525017 21088 net.cpp:91] Creating Layer pool4/3x3_s2
I0403 18:01:05.525032 21088 net.cpp:425] pool4/3x3_s2 <- inception_4e/output
I0403 18:01:05.525056 21088 net.cpp:399] pool4/3x3_s2 -> pool4/3x3_s2
I0403 18:01:05.525125 21088 net.cpp:141] Setting up pool4/3x3_s2
I0403 18:01:05.525151 21088 net.cpp:148] Top shape: 24 832 7 7 (978432)
I0403 18:01:05.525166 21088 net.cpp:156] Memory required for data: 1276470816
I0403 18:01:05.525180 21088 layer_factory.hpp:77] Creating layer pool4/3x3_s2_pool4/3x3_s2_0_split
I0403 18:01:05.525197 21088 net.cpp:91] Creating Layer pool4/3x3_s2_pool4/3x3_s2_0_split
I0403 18:01:05.525213 21088 net.cpp:425] pool4/3x3_s2_pool4/3x3_s2_0_split <- pool4/3x3_s2
I0403 18:01:05.525230 21088 net.cpp:399] pool4/3x3_s2_pool4/3x3_s2_0_split -> pool4/3x3_s2_pool4/3x3_s2_0_split_0
I0403 18:01:05.525252 21088 net.cpp:399] pool4/3x3_s2_pool4/3x3_s2_0_split -> pool4/3x3_s2_pool4/3x3_s2_0_split_1
I0403 18:01:05.525281 21088 net.cpp:399] pool4/3x3_s2_pool4/3x3_s2_0_split -> pool4/3x3_s2_pool4/3x3_s2_0_split_2
I0403 18:01:05.525302 21088 net.cpp:399] pool4/3x3_s2_pool4/3x3_s2_0_split -> pool4/3x3_s2_pool4/3x3_s2_0_split_3
I0403 18:01:05.525393 21088 net.cpp:141] Setting up pool4/3x3_s2_pool4/3x3_s2_0_split
I0403 18:01:05.525416 21088 net.cpp:148] Top shape: 24 832 7 7 (978432)
I0403 18:01:05.525432 21088 net.cpp:148] Top shape: 24 832 7 7 (978432)
I0403 18:01:05.525449 21088 net.cpp:148] Top shape: 24 832 7 7 (978432)
I0403 18:01:05.525463 21088 net.cpp:148] Top shape: 24 832 7 7 (978432)
I0403 18:01:05.525477 21088 net.cpp:156] Memory required for data: 1292125728
I0403 18:01:05.525491 21088 layer_factory.hpp:77] Creating layer inception_5a/1x1
I0403 18:01:05.525517 21088 net.cpp:91] Creating Layer inception_5a/1x1
I0403 18:01:05.525538 21088 net.cpp:425] inception_5a/1x1 <- pool4/3x3_s2_pool4/3x3_s2_0_split_0
I0403 18:01:05.525565 21088 net.cpp:399] inception_5a/1x1 -> inception_5a/1x1
I0403 18:01:05.528461 21088 net.cpp:141] Setting up inception_5a/1x1
I0403 18:01:05.528491 21088 net.cpp:148] Top shape: 24 256 7 7 (301056)
I0403 18:01:05.528512 21088 net.cpp:156] Memory required for data: 1293329952
I0403 18:01:05.528532 21088 layer_factory.hpp:77] Creating layer inception_5a/relu_1x1
I0403 18:01:05.528553 21088 net.cpp:91] Creating Layer inception_5a/relu_1x1
I0403 18:01:05.528568 21088 net.cpp:425] inception_5a/relu_1x1 <- inception_5a/1x1
I0403 18:01:05.528586 21088 net.cpp:386] inception_5a/relu_1x1 -> inception_5a/1x1 (in-place)
I0403 18:01:05.528901 21088 net.cpp:141] Setting up inception_5a/relu_1x1
I0403 18:01:05.528928 21088 net.cpp:148] Top shape: 24 256 7 7 (301056)
I0403 18:01:05.528944 21088 net.cpp:156] Memory required for data: 1294534176
I0403 18:01:05.528957 21088 layer_factory.hpp:77] Creating layer inception_5a/3x3_reduce
I0403 18:01:05.528981 21088 net.cpp:91] Creating Layer inception_5a/3x3_reduce
I0403 18:01:05.528998 21088 net.cpp:425] inception_5a/3x3_reduce <- pool4/3x3_s2_pool4/3x3_s2_0_split_1
I0403 18:01:05.529017 21088 net.cpp:399] inception_5a/3x3_reduce -> inception_5a/3x3_reduce
I0403 18:01:05.531499 21088 net.cpp:141] Setting up inception_5a/3x3_reduce
I0403 18:01:05.531535 21088 net.cpp:148] Top shape: 24 160 7 7 (188160)
I0403 18:01:05.531553 21088 net.cpp:156] Memory required for data: 1295286816
I0403 18:01:05.531571 21088 layer_factory.hpp:77] Creating layer inception_5a/relu_3x3_reduce
I0403 18:01:05.531592 21088 net.cpp:91] Creating Layer inception_5a/relu_3x3_reduce
I0403 18:01:05.531610 21088 net.cpp:425] inception_5a/relu_3x3_reduce <- inception_5a/3x3_reduce
I0403 18:01:05.531627 21088 net.cpp:386] inception_5a/relu_3x3_reduce -> inception_5a/3x3_reduce (in-place)
I0403 18:01:05.531817 21088 net.cpp:141] Setting up inception_5a/relu_3x3_reduce
I0403 18:01:05.531842 21088 net.cpp:148] Top shape: 24 160 7 7 (188160)
I0403 18:01:05.531857 21088 net.cpp:156] Memory required for data: 1296039456
I0403 18:01:05.531872 21088 layer_factory.hpp:77] Creating layer inception_5a/3x3
I0403 18:01:05.531896 21088 net.cpp:91] Creating Layer inception_5a/3x3
I0403 18:01:05.531913 21088 net.cpp:425] inception_5a/3x3 <- inception_5a/3x3_reduce
I0403 18:01:05.531934 21088 net.cpp:399] inception_5a/3x3 -> inception_5a/3x3
I0403 18:01:05.537022 21088 net.cpp:141] Setting up inception_5a/3x3
I0403 18:01:05.537053 21088 net.cpp:148] Top shape: 24 320 7 7 (376320)
I0403 18:01:05.537070 21088 net.cpp:156] Memory required for data: 1297544736
I0403 18:01:05.537088 21088 layer_factory.hpp:77] Creating layer inception_5a/relu_3x3
I0403 18:01:05.537106 21088 net.cpp:91] Creating Layer inception_5a/relu_3x3
I0403 18:01:05.537122 21088 net.cpp:425] inception_5a/relu_3x3 <- inception_5a/3x3
I0403 18:01:05.537139 21088 net.cpp:386] inception_5a/relu_3x3 -> inception_5a/3x3 (in-place)
I0403 18:01:05.537441 21088 net.cpp:141] Setting up inception_5a/relu_3x3
I0403 18:01:05.537472 21088 net.cpp:148] Top shape: 24 320 7 7 (376320)
I0403 18:01:05.537487 21088 net.cpp:156] Memory required for data: 1299050016
I0403 18:01:05.537503 21088 layer_factory.hpp:77] Creating layer inception_5a/5x5_reduce
I0403 18:01:05.537530 21088 net.cpp:91] Creating Layer inception_5a/5x5_reduce
I0403 18:01:05.537547 21088 net.cpp:425] inception_5a/5x5_reduce <- pool4/3x3_s2_pool4/3x3_s2_0_split_2
I0403 18:01:05.537569 21088 net.cpp:399] inception_5a/5x5_reduce -> inception_5a/5x5_reduce
I0403 18:01:05.538816 21088 net.cpp:141] Setting up inception_5a/5x5_reduce
I0403 18:01:05.538847 21088 net.cpp:148] Top shape: 24 32 7 7 (37632)
I0403 18:01:05.538863 21088 net.cpp:156] Memory required for data: 1299200544
I0403 18:01:05.538882 21088 layer_factory.hpp:77] Creating layer inception_5a/relu_5x5_reduce
I0403 18:01:05.538900 21088 net.cpp:91] Creating Layer inception_5a/relu_5x5_reduce
I0403 18:01:05.538916 21088 net.cpp:425] inception_5a/relu_5x5_reduce <- inception_5a/5x5_reduce
I0403 18:01:05.538936 21088 net.cpp:386] inception_5a/relu_5x5_reduce -> inception_5a/5x5_reduce (in-place)
I0403 18:01:05.539253 21088 net.cpp:141] Setting up inception_5a/relu_5x5_reduce
I0403 18:01:05.539283 21088 net.cpp:148] Top shape: 24 32 7 7 (37632)
I0403 18:01:05.539299 21088 net.cpp:156] Memory required for data: 1299351072
I0403 18:01:05.539312 21088 layer_factory.hpp:77] Creating layer inception_5a/5x5
I0403 18:01:05.539335 21088 net.cpp:91] Creating Layer inception_5a/5x5
I0403 18:01:05.539351 21088 net.cpp:425] inception_5a/5x5 <- inception_5a/5x5_reduce
I0403 18:01:05.539369 21088 net.cpp:399] inception_5a/5x5 -> inception_5a/5x5
I0403 18:01:05.541075 21088 net.cpp:141] Setting up inception_5a/5x5
I0403 18:01:05.541115 21088 net.cpp:148] Top shape: 24 128 7 7 (150528)
I0403 18:01:05.541132 21088 net.cpp:156] Memory required for data: 1299953184
I0403 18:01:05.541151 21088 layer_factory.hpp:77] Creating layer inception_5a/relu_5x5
I0403 18:01:05.541169 21088 net.cpp:91] Creating Layer inception_5a/relu_5x5
I0403 18:01:05.541185 21088 net.cpp:425] inception_5a/relu_5x5 <- inception_5a/5x5
I0403 18:01:05.541201 21088 net.cpp:386] inception_5a/relu_5x5 -> inception_5a/5x5 (in-place)
I0403 18:01:05.541390 21088 net.cpp:141] Setting up inception_5a/relu_5x5
I0403 18:01:05.541416 21088 net.cpp:148] Top shape: 24 128 7 7 (150528)
I0403 18:01:05.541431 21088 net.cpp:156] Memory required for data: 1300555296
I0403 18:01:05.541446 21088 layer_factory.hpp:77] Creating layer inception_5a/pool
I0403 18:01:05.541463 21088 net.cpp:91] Creating Layer inception_5a/pool
I0403 18:01:05.541479 21088 net.cpp:425] inception_5a/pool <- pool4/3x3_s2_pool4/3x3_s2_0_split_3
I0403 18:01:05.541498 21088 net.cpp:399] inception_5a/pool -> inception_5a/pool
I0403 18:01:05.541574 21088 net.cpp:141] Setting up inception_5a/pool
I0403 18:01:05.541599 21088 net.cpp:148] Top shape: 24 832 7 7 (978432)
I0403 18:01:05.541613 21088 net.cpp:156] Memory required for data: 1304469024
I0403 18:01:05.541628 21088 layer_factory.hpp:77] Creating layer inception_5a/pool_proj
I0403 18:01:05.541647 21088 net.cpp:91] Creating Layer inception_5a/pool_proj
I0403 18:01:05.541663 21088 net.cpp:425] inception_5a/pool_proj <- inception_5a/pool
I0403 18:01:05.541683 21088 net.cpp:399] inception_5a/pool_proj -> inception_5a/pool_proj
I0403 18:01:05.543922 21088 net.cpp:141] Setting up inception_5a/pool_proj
I0403 18:01:05.543953 21088 net.cpp:148] Top shape: 24 128 7 7 (150528)
I0403 18:01:05.543968 21088 net.cpp:156] Memory required for data: 1305071136
I0403 18:01:05.543985 21088 layer_factory.hpp:77] Creating layer inception_5a/relu_pool_proj
I0403 18:01:05.544008 21088 net.cpp:91] Creating Layer inception_5a/relu_pool_proj
I0403 18:01:05.544025 21088 net.cpp:425] inception_5a/relu_pool_proj <- inception_5a/pool_proj
I0403 18:01:05.544041 21088 net.cpp:386] inception_5a/relu_pool_proj -> inception_5a/pool_proj (in-place)
I0403 18:01:05.544332 21088 net.cpp:141] Setting up inception_5a/relu_pool_proj
I0403 18:01:05.544358 21088 net.cpp:148] Top shape: 24 128 7 7 (150528)
I0403 18:01:05.544373 21088 net.cpp:156] Memory required for data: 1305673248
I0403 18:01:05.544386 21088 layer_factory.hpp:77] Creating layer inception_5a/output
I0403 18:01:05.544405 21088 net.cpp:91] Creating Layer inception_5a/output
I0403 18:01:05.544421 21088 net.cpp:425] inception_5a/output <- inception_5a/1x1
I0403 18:01:05.544437 21088 net.cpp:425] inception_5a/output <- inception_5a/3x3
I0403 18:01:05.544455 21088 net.cpp:425] inception_5a/output <- inception_5a/5x5
I0403 18:01:05.544471 21088 net.cpp:425] inception_5a/output <- inception_5a/pool_proj
I0403 18:01:05.544486 21088 net.cpp:399] inception_5a/output -> inception_5a/output
I0403 18:01:05.544545 21088 net.cpp:141] Setting up inception_5a/output
I0403 18:01:05.544569 21088 net.cpp:148] Top shape: 24 832 7 7 (978432)
I0403 18:01:05.544589 21088 net.cpp:156] Memory required for data: 1309586976
I0403 18:01:05.544603 21088 layer_factory.hpp:77] Creating layer inception_5a/output_inception_5a/output_0_split
I0403 18:01:05.544620 21088 net.cpp:91] Creating Layer inception_5a/output_inception_5a/output_0_split
I0403 18:01:05.544636 21088 net.cpp:425] inception_5a/output_inception_5a/output_0_split <- inception_5a/output
I0403 18:01:05.544654 21088 net.cpp:399] inception_5a/output_inception_5a/output_0_split -> inception_5a/output_inception_5a/output_0_split_0
I0403 18:01:05.544674 21088 net.cpp:399] inception_5a/output_inception_5a/output_0_split -> inception_5a/output_inception_5a/output_0_split_1
I0403 18:01:05.544694 21088 net.cpp:399] inception_5a/output_inception_5a/output_0_split -> inception_5a/output_inception_5a/output_0_split_2
I0403 18:01:05.544714 21088 net.cpp:399] inception_5a/output_inception_5a/output_0_split -> inception_5a/output_inception_5a/output_0_split_3
I0403 18:01:05.544823 21088 net.cpp:141] Setting up inception_5a/output_inception_5a/output_0_split
I0403 18:01:05.544849 21088 net.cpp:148] Top shape: 24 832 7 7 (978432)
I0403 18:01:05.544865 21088 net.cpp:148] Top shape: 24 832 7 7 (978432)
I0403 18:01:05.544881 21088 net.cpp:148] Top shape: 24 832 7 7 (978432)
I0403 18:01:05.544895 21088 net.cpp:148] Top shape: 24 832 7 7 (978432)
I0403 18:01:05.544909 21088 net.cpp:156] Memory required for data: 1325241888
I0403 18:01:05.544922 21088 layer_factory.hpp:77] Creating layer inception_5b/1x1
I0403 18:01:05.544945 21088 net.cpp:91] Creating Layer inception_5b/1x1
I0403 18:01:05.544961 21088 net.cpp:425] inception_5b/1x1 <- inception_5a/output_inception_5a/output_0_split_0
I0403 18:01:05.544978 21088 net.cpp:399] inception_5b/1x1 -> inception_5b/1x1
I0403 18:01:05.548687 21088 net.cpp:141] Setting up inception_5b/1x1
I0403 18:01:05.548717 21088 net.cpp:148] Top shape: 24 384 7 7 (451584)
I0403 18:01:05.548732 21088 net.cpp:156] Memory required for data: 1327048224
I0403 18:01:05.548749 21088 layer_factory.hpp:77] Creating layer inception_5b/relu_1x1
I0403 18:01:05.548769 21088 net.cpp:91] Creating Layer inception_5b/relu_1x1
I0403 18:01:05.548786 21088 net.cpp:425] inception_5b/relu_1x1 <- inception_5b/1x1
I0403 18:01:05.548804 21088 net.cpp:386] inception_5b/relu_1x1 -> inception_5b/1x1 (in-place)
I0403 18:01:05.549100 21088 net.cpp:141] Setting up inception_5b/relu_1x1
I0403 18:01:05.549126 21088 net.cpp:148] Top shape: 24 384 7 7 (451584)
I0403 18:01:05.549141 21088 net.cpp:156] Memory required for data: 1328854560
I0403 18:01:05.549156 21088 layer_factory.hpp:77] Creating layer inception_5b/3x3_reduce
I0403 18:01:05.549177 21088 net.cpp:91] Creating Layer inception_5b/3x3_reduce
I0403 18:01:05.549196 21088 net.cpp:425] inception_5b/3x3_reduce <- inception_5a/output_inception_5a/output_0_split_1
I0403 18:01:05.549218 21088 net.cpp:399] inception_5b/3x3_reduce -> inception_5b/3x3_reduce
I0403 18:01:05.551853 21088 net.cpp:141] Setting up inception_5b/3x3_reduce
I0403 18:01:05.551883 21088 net.cpp:148] Top shape: 24 192 7 7 (225792)
I0403 18:01:05.551898 21088 net.cpp:156] Memory required for data: 1329757728
I0403 18:01:05.551915 21088 layer_factory.hpp:77] Creating layer inception_5b/relu_3x3_reduce
I0403 18:01:05.551934 21088 net.cpp:91] Creating Layer inception_5b/relu_3x3_reduce
I0403 18:01:05.551951 21088 net.cpp:425] inception_5b/relu_3x3_reduce <- inception_5b/3x3_reduce
I0403 18:01:05.551969 21088 net.cpp:386] inception_5b/relu_3x3_reduce -> inception_5b/3x3_reduce (in-place)
I0403 18:01:05.552155 21088 net.cpp:141] Setting up inception_5b/relu_3x3_reduce
I0403 18:01:05.552182 21088 net.cpp:148] Top shape: 24 192 7 7 (225792)
I0403 18:01:05.552198 21088 net.cpp:156] Memory required for data: 1330660896
I0403 18:01:05.552212 21088 layer_factory.hpp:77] Creating layer inception_5b/3x3
I0403 18:01:05.552233 21088 net.cpp:91] Creating Layer inception_5b/3x3
I0403 18:01:05.552250 21088 net.cpp:425] inception_5b/3x3 <- inception_5b/3x3_reduce
I0403 18:01:05.552269 21088 net.cpp:399] inception_5b/3x3 -> inception_5b/3x3
I0403 18:01:05.558818 21088 net.cpp:141] Setting up inception_5b/3x3
I0403 18:01:05.558846 21088 net.cpp:148] Top shape: 24 384 7 7 (451584)
I0403 18:01:05.558861 21088 net.cpp:156] Memory required for data: 1332467232
I0403 18:01:05.558879 21088 layer_factory.hpp:77] Creating layer inception_5b/relu_3x3
I0403 18:01:05.558898 21088 net.cpp:91] Creating Layer inception_5b/relu_3x3
I0403 18:01:05.558915 21088 net.cpp:425] inception_5b/relu_3x3 <- inception_5b/3x3
I0403 18:01:05.558933 21088 net.cpp:386] inception_5b/relu_3x3 -> inception_5b/3x3 (in-place)
I0403 18:01:05.559228 21088 net.cpp:141] Setting up inception_5b/relu_3x3
I0403 18:01:05.559254 21088 net.cpp:148] Top shape: 24 384 7 7 (451584)
I0403 18:01:05.559269 21088 net.cpp:156] Memory required for data: 1334273568
I0403 18:01:05.559283 21088 layer_factory.hpp:77] Creating layer inception_5b/5x5_reduce
I0403 18:01:05.559320 21088 net.cpp:91] Creating Layer inception_5b/5x5_reduce
I0403 18:01:05.559340 21088 net.cpp:425] inception_5b/5x5_reduce <- inception_5a/output_inception_5a/output_0_split_2
I0403 18:01:05.559360 21088 net.cpp:399] inception_5b/5x5_reduce -> inception_5b/5x5_reduce
I0403 18:01:05.560631 21088 net.cpp:141] Setting up inception_5b/5x5_reduce
I0403 18:01:05.560659 21088 net.cpp:148] Top shape: 24 48 7 7 (56448)
I0403 18:01:05.560675 21088 net.cpp:156] Memory required for data: 1334499360
I0403 18:01:05.560693 21088 layer_factory.hpp:77] Creating layer inception_5b/relu_5x5_reduce
I0403 18:01:05.560714 21088 net.cpp:91] Creating Layer inception_5b/relu_5x5_reduce
I0403 18:01:05.560730 21088 net.cpp:425] inception_5b/relu_5x5_reduce <- inception_5b/5x5_reduce
I0403 18:01:05.560747 21088 net.cpp:386] inception_5b/relu_5x5_reduce -> inception_5b/5x5_reduce (in-place)
I0403 18:01:05.561115 21088 net.cpp:141] Setting up inception_5b/relu_5x5_reduce
I0403 18:01:05.561141 21088 net.cpp:148] Top shape: 24 48 7 7 (56448)
I0403 18:01:05.561156 21088 net.cpp:156] Memory required for data: 1334725152
I0403 18:01:05.561169 21088 layer_factory.hpp:77] Creating layer inception_5b/5x5
I0403 18:01:05.561190 21088 net.cpp:91] Creating Layer inception_5b/5x5
I0403 18:01:05.561206 21088 net.cpp:425] inception_5b/5x5 <- inception_5b/5x5_reduce
I0403 18:01:05.561224 21088 net.cpp:399] inception_5b/5x5 -> inception_5b/5x5
I0403 18:01:05.563230 21088 net.cpp:141] Setting up inception_5b/5x5
I0403 18:01:05.563258 21088 net.cpp:148] Top shape: 24 128 7 7 (150528)
I0403 18:01:05.563282 21088 net.cpp:156] Memory required for data: 1335327264
I0403 18:01:05.563302 21088 layer_factory.hpp:77] Creating layer inception_5b/relu_5x5
I0403 18:01:05.563320 21088 net.cpp:91] Creating Layer inception_5b/relu_5x5
I0403 18:01:05.563338 21088 net.cpp:425] inception_5b/relu_5x5 <- inception_5b/5x5
I0403 18:01:05.563354 21088 net.cpp:386] inception_5b/relu_5x5 -> inception_5b/5x5 (in-place)
I0403 18:01:05.563550 21088 net.cpp:141] Setting up inception_5b/relu_5x5
I0403 18:01:05.563580 21088 net.cpp:148] Top shape: 24 128 7 7 (150528)
I0403 18:01:05.563596 21088 net.cpp:156] Memory required for data: 1335929376
I0403 18:01:05.563611 21088 layer_factory.hpp:77] Creating layer inception_5b/pool
I0403 18:01:05.563627 21088 net.cpp:91] Creating Layer inception_5b/pool
I0403 18:01:05.563642 21088 net.cpp:425] inception_5b/pool <- inception_5a/output_inception_5a/output_0_split_3
I0403 18:01:05.563662 21088 net.cpp:399] inception_5b/pool -> inception_5b/pool
I0403 18:01:05.563732 21088 net.cpp:141] Setting up inception_5b/pool
I0403 18:01:05.563756 21088 net.cpp:148] Top shape: 24 832 7 7 (978432)
I0403 18:01:05.563771 21088 net.cpp:156] Memory required for data: 1339843104
I0403 18:01:05.563784 21088 layer_factory.hpp:77] Creating layer inception_5b/pool_proj
I0403 18:01:05.563807 21088 net.cpp:91] Creating Layer inception_5b/pool_proj
I0403 18:01:05.563824 21088 net.cpp:425] inception_5b/pool_proj <- inception_5b/pool
I0403 18:01:05.563843 21088 net.cpp:399] inception_5b/pool_proj -> inception_5b/pool_proj
I0403 18:01:05.566105 21088 net.cpp:141] Setting up inception_5b/pool_proj
I0403 18:01:05.566134 21088 net.cpp:148] Top shape: 24 128 7 7 (150528)
I0403 18:01:05.566149 21088 net.cpp:156] Memory required for data: 1340445216
I0403 18:01:05.566166 21088 layer_factory.hpp:77] Creating layer inception_5b/relu_pool_proj
I0403 18:01:05.566186 21088 net.cpp:91] Creating Layer inception_5b/relu_pool_proj
I0403 18:01:05.566202 21088 net.cpp:425] inception_5b/relu_pool_proj <- inception_5b/pool_proj
I0403 18:01:05.566220 21088 net.cpp:386] inception_5b/relu_pool_proj -> inception_5b/pool_proj (in-place)
I0403 18:01:05.566525 21088 net.cpp:141] Setting up inception_5b/relu_pool_proj
I0403 18:01:05.566551 21088 net.cpp:148] Top shape: 24 128 7 7 (150528)
I0403 18:01:05.566567 21088 net.cpp:156] Memory required for data: 1341047328
I0403 18:01:05.566581 21088 layer_factory.hpp:77] Creating layer inception_5b/output
I0403 18:01:05.566601 21088 net.cpp:91] Creating Layer inception_5b/output
I0403 18:01:05.566630 21088 net.cpp:425] inception_5b/output <- inception_5b/1x1
I0403 18:01:05.566648 21088 net.cpp:425] inception_5b/output <- inception_5b/3x3
I0403 18:01:05.566663 21088 net.cpp:425] inception_5b/output <- inception_5b/5x5
I0403 18:01:05.566679 21088 net.cpp:425] inception_5b/output <- inception_5b/pool_proj
I0403 18:01:05.566694 21088 net.cpp:399] inception_5b/output -> inception_5b/output
I0403 18:01:05.566747 21088 net.cpp:141] Setting up inception_5b/output
I0403 18:01:05.566771 21088 net.cpp:148] Top shape: 24 1024 7 7 (1204224)
I0403 18:01:05.566786 21088 net.cpp:156] Memory required for data: 1345864224
I0403 18:01:05.566799 21088 layer_factory.hpp:77] Creating layer pool5/7x7_s1
I0403 18:01:05.566815 21088 net.cpp:91] Creating Layer pool5/7x7_s1
I0403 18:01:05.566831 21088 net.cpp:425] pool5/7x7_s1 <- inception_5b/output
I0403 18:01:05.566850 21088 net.cpp:399] pool5/7x7_s1 -> pool5/7x7_s1
I0403 18:01:05.567061 21088 net.cpp:141] Setting up pool5/7x7_s1
I0403 18:01:05.567088 21088 net.cpp:148] Top shape: 24 1024 1 1 (24576)
I0403 18:01:05.567104 21088 net.cpp:156] Memory required for data: 1345962528
I0403 18:01:05.567118 21088 layer_factory.hpp:77] Creating layer pool5/drop_7x7_s1
I0403 18:01:05.567136 21088 net.cpp:91] Creating Layer pool5/drop_7x7_s1
I0403 18:01:05.567152 21088 net.cpp:425] pool5/drop_7x7_s1 <- pool5/7x7_s1
I0403 18:01:05.567167 21088 net.cpp:386] pool5/drop_7x7_s1 -> pool5/7x7_s1 (in-place)
I0403 18:01:05.567217 21088 net.cpp:141] Setting up pool5/drop_7x7_s1
I0403 18:01:05.567240 21088 net.cpp:148] Top shape: 24 1024 1 1 (24576)
I0403 18:01:05.567255 21088 net.cpp:156] Memory required for data: 1346060832
I0403 18:01:05.567267 21088 layer_factory.hpp:77] Creating layer loss3/classifier_plantvillage
I0403 18:01:05.567287 21088 net.cpp:91] Creating Layer loss3/classifier_plantvillage
I0403 18:01:05.567304 21088 net.cpp:425] loss3/classifier_plantvillage <- pool5/7x7_s1
I0403 18:01:05.567322 21088 net.cpp:399] loss3/classifier_plantvillage -> loss3/classifier_plantvillage
I0403 18:01:05.567745 21088 net.cpp:141] Setting up loss3/classifier_plantvillage
I0403 18:01:05.567770 21088 net.cpp:148] Top shape: 24 38 (912)
I0403 18:01:05.567785 21088 net.cpp:156] Memory required for data: 1346064480
I0403 18:01:05.567801 21088 layer_factory.hpp:77] Creating layer loss3/classifier_plantvillage_loss3/classifier_plantvillage_0_split
I0403 18:01:05.567818 21088 net.cpp:91] Creating Layer loss3/classifier_plantvillage_loss3/classifier_plantvillage_0_split
I0403 18:01:05.567833 21088 net.cpp:425] loss3/classifier_plantvillage_loss3/classifier_plantvillage_0_split <- loss3/classifier_plantvillage
I0403 18:01:05.567853 21088 net.cpp:399] loss3/classifier_plantvillage_loss3/classifier_plantvillage_0_split -> loss3/classifier_plantvillage_loss3/classifier_plantvillage_0_split_0
I0403 18:01:05.567874 21088 net.cpp:399] loss3/classifier_plantvillage_loss3/classifier_plantvillage_0_split -> loss3/classifier_plantvillage_loss3/classifier_plantvillage_0_split_1
I0403 18:01:05.567894 21088 net.cpp:399] loss3/classifier_plantvillage_loss3/classifier_plantvillage_0_split -> loss3/classifier_plantvillage_loss3/classifier_plantvillage_0_split_2
I0403 18:01:05.567914 21088 net.cpp:399] loss3/classifier_plantvillage_loss3/classifier_plantvillage_0_split -> loss3/classifier_plantvillage_loss3/classifier_plantvillage_0_split_3
I0403 18:01:05.568014 21088 net.cpp:141] Setting up loss3/classifier_plantvillage_loss3/classifier_plantvillage_0_split
I0403 18:01:05.568040 21088 net.cpp:148] Top shape: 24 38 (912)
I0403 18:01:05.568056 21088 net.cpp:148] Top shape: 24 38 (912)
I0403 18:01:05.568071 21088 net.cpp:148] Top shape: 24 38 (912)
I0403 18:01:05.568086 21088 net.cpp:148] Top shape: 24 38 (912)
I0403 18:01:05.568099 21088 net.cpp:156] Memory required for data: 1346079072
I0403 18:01:05.568112 21088 layer_factory.hpp:77] Creating layer loss1/loss
I0403 18:01:05.568132 21088 net.cpp:91] Creating Layer loss1/loss
I0403 18:01:05.568150 21088 net.cpp:425] loss1/loss <- loss1/classifier_plantvillage_loss1/classifier_plantvillage_0_split_0
I0403 18:01:05.568181 21088 net.cpp:425] loss1/loss <- label_data_1_split_0
…
