…
I0403 18:23:39.470651 22304 net.cpp:313] The NetState phase (1) differed from the phase (0) specified by a rule in layer data
I0403 18:23:39.471748 22304 net.cpp:49] Initializing net from parameters: 
state {
  phase: TEST
}
layer {
  name: "data"
  type: "Data"
  top: "data"
  top: "label"
  include {
    phase: TEST
  }
  transform_param {
    mirror: false
    crop_size: 224
    mean_file: "/home/mohanty/data/final_dataset/lmdb/segmented-40-60/mean.binaryproto"
  }
  data_param {
    source: "/home/mohanty/data/final_dataset/lmdb/segmented-40-60/test_db"
    batch_size: 24
    backend: LMDB
  }
}
layer {
  name: "conv1/7x7_s2"
  type: "Convolution"
  bottom: "data"
  top: "conv1/7x7_s2"
  param {
    lr_mult: 1
    decay_mult: 1
  }
  param {
    lr_mult: 2
    decay_mult: 0
  }
  convolution_param {
    num_output: 64
    pad: 3
    kernel_size: 7
    stride: 2
    weight_filler {
      type: "xavier"
      std: 0.1
    }
    bias_filler {
      type: "constant"
      value: 0.2
    }
  }
}
layer {
  name: "conv1/relu_7x7"
  type: "ReLU"
  bottom: "conv1/7x7_s2"
  top: "conv1/7x7_s2"
}
layer {
  name: "pool1/3x3_s2"
  type: "Pooling"
  bottom: "conv1/7x7_s2"
  top: "pool1/3x3_s2"
  pooling_param {
    pool: MAX
    kernel_size: 3
    stride: 2
  }
}
layer {
  name: "pool1/norm1"
  type: "LRN"
  bottom: "pool1/3x3_s2"
  top: "pool1/norm1"
  lrn_param {
    local_size: 5
    alpha: 0.0001
    beta: 0.75
  }
}
layer {
  name: "conv2/3x3_reduce"
  type: "Convolution"
  bottom: "pool1/norm1"
  top: "conv2/3x3_reduce"
  param {
    lr_mult: 1
    decay_mult: 1
  }
  param {
    lr_mult: 2
    decay_mult: 0
  }
  convolution_param {
    num_output: 64
    kernel_size: 1
    weight_filler {
      type: "xavier"
      std: 0.1
    }
    bias_filler {
      type: "constant"
      value: 0.2
    }
  }
}
layer {
  name: "conv2/relu_3x3_reduce"
  type: "ReLU"
  bottom: "conv2/3x3_reduce"
  top: "conv2/3x3_reduce"
}
layer {
  name: "conv2/3x3"
  type: "Convolution"
  bottom: "conv2/3x3_reduce"
  top: "conv2/3x3"
  param {
    lr_mult: 1
    decay_mult: 1
  }
  param {
    lr_mult: 2
    decay_mult: 0
  }
  convolution_param {
    num_output: 192
    pad: 1
    kernel_size: 3
    weight_filler {
      type: "xavier"
      std: 0.03
    }
    bias_filler {
      type: "constant"
      value: 0.2
    }
  }
}
layer {
  name: "conv2/relu_3x3"
  type: "ReLU"
  bottom: "conv2/3x3"
  top: "conv2/3x3"
}
layer {
  name: "conv2/norm2"
  type: "LRN"
  bottom: "conv2/3x3"
  top: "conv2/norm2"
  lrn_param {
    local_size: 5
    alpha: 0.0001
    beta: 0.75
  }
}
layer {
  name: "pool2/3x3_s2"
  type: "Pooling"
  bottom: "conv2/norm2"
  top: "pool2/3x3_s2"
  pooling_param {
    pool: MAX
    kernel_size: 3
    stride: 2
  }
}
layer {
  name: "inception_3a/1x1"
  type: "Convolution"
  bottom: "pool2/3x3_s2"
  top: "inception_3a/1x1"
  param {
    lr_mult: 1
    decay_mult: 1
  }
  param {
    lr_mult: 2
    decay_mult: 0
  }
  convolution_param {
    num_output: 64
    kernel_size: 1
    weight_filler {
      type: "xavier"
      std: 0.03
    }
    bias_filler {
      type: "constant"
      value: 0.2
    }
  }
}
layer {
  name: "inception_3a/relu_1x1"
  type: "ReLU"
  bottom: "inception_3a/1x1"
  top: "inception_3a/1x1"
}
layer {
  name: "inception_3a/3x3_reduce"
  type: "Convolution"
  bottom: "pool2/3x3_s2"
  top: "inception_3a/3x3_reduce"
  param {
    lr_mult: 1
    decay_mult: 1
  }
  param {
    lr_mult: 2
    decay_mult: 0
  }
  convolution_param {
    num_output: 96
    kernel_size: 1
    weight_filler {
      type: "xavier"
      std: 0.09
    }
    bias_filler {
      type: "constant"
      value: 0.2
    }
  }
}
layer {
  name: "inception_3a/relu_3x3_reduce"
  type: "ReLU"
  bottom: "inception_3a/3x3_reduce"
  top: "inception_3a/3x3_reduce"
}
layer {
  name: "inception_3a/3x3"
  type: "Convolution"
  bottom: "inception_3a/3x3_reduce"
  top: "inception_3a/3x3"
  param {
    lr_mult: 1
    decay_mult: 1
  }
  param {
    lr_mult: 2
    decay_mult: 0
  }
  convolution_param {
    num_output: 128
    pad: 1
    kernel_size: 3
    weight_filler {
      type: "xavier"
      std: 0.03
    }
    bias_filler {
      type: "constant"
      value: 0.2
    }
  }
}
layer {
  name: "inception_3a/relu_3x3"
  type: "ReLU"
  bottom: "inception_3a/3x3"
  top: "inception_3a/3x3"
}
layer {
  name: "inception_3a/5x5_reduce"
  type: "Convolution"
  bottom: "pool2/3x3_s2"
  top: "inception_3a/5x5_reduce"
  param {
    lr_mult: 1
    decay_mult: 1
  }
  param {
    lr_mult: 2
    decay_mult: 0
  }
  convolution_param {
    num_output: 16
    kernel_size: 1
    weight_filler {
      type: "xavier"
      std: 0.2
    }
    bias_filler {
      type: "constant"
      value: 0.2
    }
  }
}
layer {
  name: "inception_3a/relu_5x5_reduce"
  type: "ReLU"
  bottom: "inception_3a/5x5_reduce"
  top: "inception_3a/5x5_reduce"
}
layer {
  name: "inception_3a/5x5"
  type: "Convolution"
  bottom: "inception_3a/5x5_reduce"
  top: "inception_3a/5x5"
  param {
    lr_mult: 1
    decay_mult: 1
  }
  param {
    lr_mult: 2
    decay_mult: 0
  }
  convolution_param {
    num_output: 32
    pad: 2
    kernel_size: 5
    weight_filler {
      type: "xavier"
      std: 0.03
    }
    bias_filler {
      type: "constant"
      value: 0.2
    }
  }
}
layer {
  name: "inception_3a/relu_5x5"
  type: "ReLU"
  bottom: "inception_3a/5x5"
  top: "inception_3a/5x5"
}
layer {
  name: "inception_3a/pool"
  type: "Pooling"
  bottom: "pool2/3x3_s2"
  top: "inception_3a/pool"
  pooling_param {
    pool: MAX
    kernel_size: 3
    stride: 1
    pad: 1
  }
}
layer {
  name: "inception_3a/pool_proj"
  type: "Convolution"
  bottom: "inception_3a/pool"
  top: "inception_3a/pool_proj"
  param {
    lr_mult: 1
    decay_mult: 1
  }
  param {
    lr_mult: 2
    decay_mult: 0
  }
  convolution_param {
    num_output: 32
    kernel_size: 1
    weight_filler {
      type: "xavier"
      std: 0.1
    }
    bias_filler {
      type: "constant"
      value: 0.2
    }
  }
}
layer {
  name: "inception_3a/relu_pool_proj"
  type: "ReLU"
  bottom: "inception_3a/pool_proj"
  top: "inception_3a/pool_proj"
}
layer {
  name: "inception_3a/output"
  type: "Concat"
  bottom: "inception_3a/1x1"
  bottom: "inception_3a/3x3"
  bottom: "inception_3a/5x5"
  bottom: "inception_3a/pool_proj"
  top: "inception_3a/output"
}
layer {
  name: "inception_3b/1x1"
  type: "Convolution"
  bottom: "inception_3a/output"
  top: "inception_3b/1x1"
  param {
    lr_mult: 1
    decay_mult: 1
  }
  param {
    lr_mult: 2
    decay_mult: 0
  }
  convolution_param {
    num_output: 128
    kernel_size: 1
    weight_filler {
      type: "xavier"
      std: 0.03
    }
    bias_filler {
      type: "constant"
      value: 0.2
    }
  }
}
layer {
  name: "inception_3b/relu_1x1"
  type: "ReLU"
  bottom: "inception_3b/1x1"
  top: "inception_3b/1x1"
}
layer {
  name: "inception_3b/3x3_reduce"
  type: "Convolution"
  bottom: "inception_3a/output"
  top: "inception_3b/3x3_reduce"
  param {
    lr_mult: 1
    decay_mult: 1
  }
  param {
    lr_mult: 2
    decay_mult: 0
  }
  convolution_param {
    num_output: 128
    kernel_size: 1
    weight_filler {
      type: "xavier"
      std: 0.09
    }
    bias_filler {
      type: "constant"
      value: 0.2
    }
  }
}
layer {
  name: "inception_3b/relu_3x3_reduce"
  type: "ReLU"
  bottom: "inception_3b/3x3_reduce"
  top: "inception_3b/3x3_reduce"
}
layer {
  name: "inception_3b/3x3"
  type: "Convolution"
  bottom: "inception_3b/3x3_reduce"
  top: "inception_3b/3x3"
  param {
    lr_mult: 1
    decay_mult: 1
  }
  param {
    lr_mult: 2
    decay_mult: 0
  }
  convolution_param {
    num_output: 192
    pad: 1
    kernel_size: 3
    weight_filler {
      type: "xavier"
      std: 0.03
    }
    bias_filler {
      type: "constant"
      value: 0.2
    }
  }
}
layer {
  name: "inception_3b/relu_3x3"
  type: "ReLU"
  bottom: "inception_3b/3x3"
  top: "inception_3b/3x3"
}
layer {
  name: "inception_3b/5x5_reduce"
  type: "Convolution"
  bottom: "inception_3a/output"
  top: "inception_3b/5x5_reduce"
  param {
    lr_mult: 1
    decay_mult: 1
  }
  param {
    lr_mult: 2
    decay_mult: 0
  }
  convolution_param {
    num_output: 32
    kernel_size: 1
    weight_filler {
      type: "xavier"
      std: 0.2
    }
    bias_filler {
      type: "constant"
      value: 0.2
    }
  }
}
layer {
  name: "inception_3b/relu_5x5_reduce"
  type: "ReLU"
  bottom: "inception_3b/5x5_reduce"
  top: "inception_3b/5x5_reduce"
}
layer {
  name: "inception_3b/5x5"
  type: "Convolution"
  bottom: "inception_3b/5x5_reduce"
  top: "inception_3b/5x5"
  param {
    lr_mult: 1
    decay_mult: 1
  }
  param {
    lr_mult: 2
    decay_mult: 0
  }
  convolution_param {
    num_output: 96
    pad: 2
    kernel_size: 5
    weight_filler {
      type: "xavier"
      std: 0.03
    }
    bias_filler {
      type: "constant"
      value: 0.2
    }
  }
}
layer {
  name: "inception_3b/relu_5x5"
  type: "ReLU"
  bottom: "inception_3b/5x5"
  top: "inception_3b/5x5"
}
layer {
  name: "inception_3b/pool"
  type: "Pooling"
  bottom: "inception_3a/output"
  top: "inception_3b/pool"
  pooling_param {
    pool: MAX
    kernel_size: 3
    stride: 1
    pad: 1
  }
}
layer {
  name: "inception_3b/pool_proj"
  type: "Convolution"
  bottom: "inception_3b/pool"
  top: "inception_3b/pool_proj"
  param {
    lr_mult: 1
    decay_mult: 1
  }
  param {
    lr_mult: 2
    decay_mult: 0
  }
  convolution_param {
    num_output: 64
    kernel_size: 1
    weight_filler {
      type: "xavier"
      std: 0.1
    }
    bias_filler {
      type: "constant"
      value: 0.2
    }
  }
}
layer {
  name: "inception_3b/relu_pool_proj"
  type: "ReLU"
  bottom: "inception_3b/pool_proj"
  top: "inception_3b/pool_proj"
}
layer {
  name: "inception_3b/output"
  type: "Concat"
  bottom: "inception_3b/1x1"
  bottom: "inception_3b/3x3"
  bottom: "inception_3b/5x5"
  bottom: "inception_3b/pool_proj"
  top: "inception_3b/output"
}
layer {
  name: "pool3/3x3_s2"
  type: "Pooling"
  bottom: "inception_3b/output"
  top: "pool3/3x3_s2"
  pooling_param {
    pool: MAX
    kernel_size: 3
    stride: 2
  }
}
layer {
  name: "inception_4a/1x1"
  type: "Convolution"
  bottom: "pool3/3x3_s2"
  top: "inception_4a/1x1"
  param {
    lr_mult: 1
    decay_mult: 1
  }
  param {
    lr_mult: 2
    decay_mult: 0
  }
  convolution_param {
    num_output: 192
    kernel_size: 1
    weight_filler {
      type: "xavier"
      std: 0.03
    }
    bias_filler {
      type: "constant"
      value: 0.2
    }
  }
}
layer {
  name: "inception_4a/relu_1x1"
  type: "ReLU"
  bottom: "inception_4a/1x1"
  top: "inception_4a/1x1"
}
layer {
  name: "inception_4a/3x3_reduce"
  type: "Convolution"
  bottom: "pool3/3x3_s2"
  top: "inception_4a/3x3_reduce"
  param {
    lr_mult: 1
    decay_mult: 1
  }
  param {
    lr_mult: 2
    decay_mult: 0
  }
  convolution_param {
    num_output: 96
    kernel_size: 1
    weight_filler {
      type: "xavier"
      std: 0.09
    }
    bias_filler {
      type: "constant"
      value: 0.2
    }
  }
}
layer {
  name: "inception_4a/relu_3x3_reduce"
  type: "ReLU"
  bottom: "inception_4a/3x3_reduce"
  top: "inception_4a/3x3_reduce"
}
layer {
  name: "inception_4a/3x3"
  type: "Convolution"
  bottom: "inception_4a/3x3_reduce"
  top: "inception_4a/3x3"
  param {
    lr_mult: 1
    decay_mult: 1
  }
  param {
    lr_mult: 2
    decay_mult: 0
  }
  convolution_param {
    num_output: 208
    pad: 1
    kernel_size: 3
    weight_filler {
      type: "xavier"
      std: 0.03
    }
    bias_filler {
      type: "constant"
      value: 0.2
    }
  }
}
layer {
  name: "inception_4a/relu_3x3"
  type: "ReLU"
  bottom: "inception_4a/3x3"
  top: "inception_4a/3x3"
}
layer {
  name: "inception_4a/5x5_reduce"
  type: "Convolution"
  bottom: "pool3/3x3_s2"
  top: "inception_4a/5x5_reduce"
  param {
    lr_mult: 1
    decay_mult: 1
  }
  param {
    lr_mult: 2
    decay_mult: 0
  }
  convolution_param {
    num_output: 16
    kernel_size: 1
    weight_filler {
      type: "xavier"
      std: 0.2
    }
    bias_filler {
      type: "constant"
      value: 0.2
    }
  }
}
layer {
  name: "inception_4a/relu_5x5_reduce"
  type: "ReLU"
  bottom: "inception_4a/5x5_reduce"
  top: "inception_4a/5x5_reduce"
}
layer {
  name: "inception_4a/5x5"
  type: "Convolution"
  bottom: "inception_4a/5x5_reduce"
  top: "inception_4a/5x5"
  param {
    lr_mult: 1
    decay_mult: 1
  }
  param {
    lr_mult: 2
    decay_mult: 0
  }
  convolution_param {
    num_output: 48
    pad: 2
    kernel_size: 5
    weight_filler {
      type: "xavier"
      std: 0.03
    }
    bias_filler {
      type: "constant"
      value: 0.2
    }
  }
}
layer {
  name: "inception_4a/relu_5x5"
  type: "ReLU"
  bottom: "inception_4a/5x5"
  top: "inception_4a/5x5"
}
layer {
  name: "inception_4a/pool"
  type: "Pooling"
  bottom: "pool3/3x3_s2"
  top: "inception_4a/pool"
  pooling_param {
    pool: MAX
    kernel_size: 3
    stride: 1
    pad: 1
  }
}
layer {
  name: "inception_4a/pool_proj"
  type: "Convolution"
  bottom: "inception_4a/pool"
  top: "inception_4a/pool_proj"
  param {
    lr_mult: 1
    decay_mult: 1
  }
  param {
    lr_mult: 2
    decay_mult: 0
  }
  convolution_param {
    num_output: 64
    kernel_size: 1
    weight_filler {
      type: "xavier"
      std: 0.1
    }
    bias_filler {
      type: "constant"
      value: 0.2
    }
  }
}
layer {
  name: "inception_4a/relu_pool_proj"
  type: "ReLU"
  bottom: "inception_4a/pool_proj"
  top: "inception_4a/pool_proj"
}
layer {
  name: "inception_4a/output"
  type: "Concat"
  bottom: "inception_4a/1x1"
  bottom: "inception_4a/3x3"
  bottom: "inception_4a/5x5"
  bottom: "inception_4a/pool_proj"
  top: "inception_4a/output"
}
layer {
  name: "loss1/ave_pool"
  type: "Pooling"
  bottom: "inception_4a/output"
  top: "loss1/ave_pool"
  pooling_param {
    pool: AVE
    kernel_size: 5
    stride: 3
  }
}
layer {
  name: "loss1/conv"
  type: "Convolution"
  bottom: "loss1/ave_pool"
  top: "loss1/conv"
  param {
    lr_mult: 1
    decay_mult: 1
  }
  param {
    lr_mult: 2
    decay_mult: 0
  }
  convolution_param {
    num_output: 128
    kernel_size: 1
    weight_filler {
      type: "xavier"
      std: 0.08
    }
    bias_filler {
      type: "constant"
      value: 0.2
    }
  }
}
layer {
  name: "loss1/relu_conv"
  type: "ReLU"
  bottom: "loss1/conv"
  top: "loss1/conv"
}
layer {
  name: "loss1/fc"
  type: "InnerProduct"
  bottom: "loss1/conv"
  top: "loss1/fc"
  param {
    lr_mult: 1
    decay_mult: 1
  }
  param {
    lr_mult: 2
    decay_mult: 0
  }
  inner_product_param {
    num_output: 1024
    weight_filler {
      type: "xavier"
      std: 0.02
    }
    bias_filler {
      type: "constant"
      value: 0.2
    }
  }
}
layer {
  name: "loss1/relu_fc"
  type: "ReLU"
  bottom: "loss1/fc"
  top: "loss1/fc"
}
layer {
  name: "loss1/drop_fc"
  type: "Dropout"
  bottom: "loss1/fc"
  top: "loss1/fc"
  dropout_param {
    dropout_ratio: 0.7
  }
}
layer {
  name: "loss1/classifier_plantvillage"
  type: "InnerProduct"
  bottom: "loss1/fc"
  top: "loss1/classifier_plantvillage"
  param {
    lr_mult: 1
    decay_mult: 1
  }
  param {
    lr_mult: 2
    decay_mult: 0
  }
  inner_product_param {
    num_output: 38
    weight_filler {
      type: "xavier"
      std: 0.0009765625
    }
    bias_filler {
      type: "constant"
      value: 0
    }
  }
}
layer {
  name: "inception_4b/1x1"
  type: "Convolution"
  bottom: "inception_4a/output"
  top: "inception_4b/1x1"
  param {
    lr_mult: 1
    decay_mult: 1
  }
  param {
    lr_mult: 2
    decay_mult: 0
  }
  convolution_param {
    num_output: 160
    kernel_size: 1
    weight_filler {
      type: "xavier"
      std: 0.03
    }
    bias_filler {
      type: "constant"
      value: 0.2
    }
  }
}
layer {
  name: "inception_4b/relu_1x1"
  type: "ReLU"
  bottom: "inception_4b/1x1"
  top: "inception_4b/1x1"
}
layer {
  name: "inception_4b/3x3_reduce"
  type: "Convolution"
  bottom: "inception_4a/output"
  top: "inception_4b/3x3_reduce"
  param {
    lr_mult: 1
    decay_mult: 1
  }
  param {
    lr_mult: 2
    decay_mult: 0
  }
  convolution_param {
    num_output: 112
    kernel_size: 1
    weight_filler {
      type: "xavier"
      std: 0.09
    }
    bias_filler {
      type: "constant"
      value: 0.2
    }
  }
}
layer {
  name: "inception_4b/relu_3x3_reduce"
  type: "ReLU"
  bottom: "inception_4b/3x3_reduce"
  top: "inception_4b/3x3_reduce"
}
layer {
  name: "inception_4b/3x3"
  type: "Convolution"
  bottom: "inception_4b/3x3_reduce"
  top: "inception_4b/3x3"
  param {
    lr_mult: 1
    decay_mult: 1
  }
  param {
    lr_mult: 2
    decay_mult: 0
  }
  convolution_param {
    num_output: 224
    pad: 1
    kernel_size: 3
    weight_filler {
      type: "xavier"
      std: 0.03
    }
    bias_filler {
      type: "constant"
      value: 0.2
    }
  }
}
layer {
  name: "inception_4b/relu_3x3"
  type: "ReLU"
  bottom: "inception_4b/3x3"
  top: "inception_4b/3x3"
}
layer {
  name: "inception_4b/5x5_reduce"
  type: "Convolution"
  bottom: "inception_4a/output"
  top: "inception_4b/5x5_reduce"
  param {
    lr_mult: 1
    decay_mult: 1
  }
  param {
    lr_mult: 2
    decay_mult: 0
  }
  convolution_param {
    num_output: 24
    kernel_size: 1
    weight_filler {
      type: "xavier"
      std: 0.2
    }
    bias_filler {
      type: "constant"
      value: 0.2
    }
  }
}
layer {
  name: "inception_4b/relu_5x5_reduce"
  type: "ReLU"
  bottom: "inception_4b/5x5_reduce"
  top: "inception_4b/5x5_reduce"
}
layer {
  name: "inception_4b/5x5"
  type: "Convolution"
  bottom: "inception_4b/5x5_reduce"
  top: "inception_4b/5x5"
  param {
    lr_mult: 1
    decay_mult: 1
  }
  param {
    lr_mult: 2
    decay_mult: 0
  }
  convolution_param {
    num_output: 64
    pad: 2
    kernel_size: 5
    weight_filler {
      type: "xavier"
      std: 0.03
    }
    bias_filler {
      type: "constant"
      value: 0.2
    }
  }
}
layer {
  name: "inception_4b/relu_5x5"
  type: "ReLU"
  bottom: "inception_4b/5x5"
  top: "inception_4b/5x5"
}
layer {
  name: "inception_4b/pool"
  type: "Pooling"
  bottom: "inception_4a/output"
  top: "inception_4b/pool"
  pooling_param {
    pool: MAX
    kernel_size: 3
    stride: 1
    pad: 1
  }
}
layer {
  name: "inception_4b/pool_proj"
  type: "Convolution"
  bottom: "inception_4b/pool"
  top: "inception_4b/pool_proj"
  param {
    lr_mult: 1
    decay_mult: 1
  }
  param {
    lr_mult: 2
    decay_mult: 0
  }
  convolution_param {
    num_output: 64
    kernel_size: 1
    weight_filler {
      type: "xavier"
      std: 0.1
    }
    bias_filler {
      type: "constant"
      value: 0.2
    }
  }
}
layer {
  name: "inception_4b/relu_pool_proj"
  type: "ReLU"
  bottom: "inception_4b/pool_proj"
  top: "inception_4b/pool_proj"
}
layer {
  name: "inception_4b/output"
  type: "Concat"
  bottom: "inception_4b/1x1"
  bottom: "inception_4b/3x3"
  bottom: "inception_4b/5x5"
  bottom: "inception_4b/pool_proj"
  top: "inception_4b/output"
}
layer {
  name: "inception_4c/1x1"
  type: "Convolution"
  bottom: "inception_4b/output"
  top: "inception_4c/1x1"
  param {
    lr_mult: 1
    decay_mult: 1
  }
  param {
    lr_mult: 2
    decay_mult: 0
  }
  convolution_param {
    num_output: 128
    kernel_size: 1
    weight_filler {
      type: "xavier"
      std: 0.03
    }
    bias_filler {
      type: "constant"
      value: 0.2
    }
  }
}
layer {
  name: "inception_4c/relu_1x1"
  type: "ReLU"
  bottom: "inception_4c/1x1"
  top: "inception_4c/1x1"
}
layer {
  name: "inception_4c/3x3_reduce"
  type: "Convolution"
  bottom: "inception_4b/output"
  top: "inception_4c/3x3_reduce"
  param {
    lr_mult: 1
    decay_mult: 1
  }
  param {
    lr_mult: 2
    decay_mult: 0
  }
  convolution_param {
    num_output: 128
    kernel_size: 1
    weight_filler {
      type: "xavier"
      std: 0.09
    }
    bias_filler {
      type: "constant"
      value: 0.2
    }
  }
}
layer {
  name: "inception_4c/relu_3x3_reduce"
  type: "ReLU"
  bottom: "inception_4c/3x3_reduce"
  top: "inception_4c/3x3_reduce"
}
layer {
  name: "inception_4c/3x3"
  type: "Convolution"
  bottom: "inception_4c/3x3_reduce"
  top: "inception_4c/3x3"
  param {
    lr_mult: 1
    decay_mult: 1
  }
  param {
    lr_mult: 2
    decay_mult: 0
  }
  convolution_param {
    num_output: 256
    pad: 1
    kernel_size: 3
    weight_filler {
      type: "xavier"
      std: 0.03
    }
    bias_filler {
      type: "constant"
      value: 0.2
    }
  }
}
layer {
  name: "inception_4c/relu_3x3"
  type: "ReLU"
  bottom: "inception_4c/3x3"
  top: "inception_4c/3x3"
}
layer {
  name: "inception_4c/5x5_reduce"
  type: "Convolution"
  bottom: "inception_4b/output"
  top: "inception_4c/5x5_reduce"
  param {
    lr_mult: 1
    decay_mult: 1
  }
  param {
    lr_mult: 2
    decay_mult: 0
  }
  convolution_param {
    num_output: 24
    kernel_size: 1
    weight_filler {
      type: "xavier"
      std: 0.2
    }
    bias_filler {
      type: "constant"
      value: 0.2
    }
  }
}
layer {
  name: "inception_4c/relu_5x5_reduce"
  type: "ReLU"
  bottom: "inception_4c/5x5_reduce"
  top: "inception_4c/5x5_reduce"
}
layer {
  name: "inception_4c/5x5"
  type: "Convolution"
  bottom: "inception_4c/5x5_reduce"
  top: "inception_4c/5x5"
  param {
    lr_mult: 1
    decay_mult: 1
  }
  param {
    lr_mult: 2
    decay_mult: 0
  }
  convolution_param {
    num_output: 64
    pad: 2
    kernel_size: 5
    weight_filler {
      type: "xavier"
      std: 0.03
    }
    bias_filler {
      type: "constant"
      value: 0.2
    }
  }
}
layer {
  name: "inception_4c/relu_5x5"
  type: "ReLU"
  bottom: "inception_4c/5x5"
  top: "inception_4c/5x5"
}
layer {
  name: "inception_4c/pool"
  type: "Pooling"
  bottom: "inception_4b/output"
  top: "inception_4c/pool"
  pooling_param {
    pool: MAX
    kernel_size: 3
    stride: 1
    pad: 1
  }
}
layer {
  name: "inception_4c/pool_proj"
  type: "Convolution"
  bottom: "inception_4c/pool"
  top: "inception_4c/pool_proj"
  param {
    lr_mult: 1
    decay_mult: 1
  }
  param {
    lr_mult: 2
    decay_mult: 0
  }
  convolution_param {
    num_output: 64
    kernel_size: 1
    weight_filler {
      type: "xavier"
      std: 0.1
    }
    bias_filler {
      type: "constant"
      value: 0.2
    }
  }
}
layer {
  name: "inception_4c/relu_pool_proj"
  type: "ReLU"
  bottom: "inception_4c/pool_proj"
  top: "inception_4c/pool_proj"
}
layer {
  name: "inception_4c/output"
  type: "Concat"
  bottom: "inception_4c/1x1"
  bottom: "inception_4c/3x3"
  bottom: "inception_4c/5x5"
  bottom: "inception_4c/pool_proj"
  top: "inception_4c/output"
}
layer {
  name: "inception_4d/1x1"
  type: "Convolution"
  bottom: "inception_4c/output"
  top: "inception_4d/1x1"
  param {
    lr_mult: 1
    decay_mult: 1
  }
  param {
    lr_mult: 2
    decay_mult: 0
  }
  convolution_param {
    num_output: 112
    kernel_size: 1
    weight_filler {
      type: "xavier"
      std: 0.03
    }
    bias_filler {
      type: "constant"
      value: 0.2
    }
  }
}
layer {
  name: "inception_4d/relu_1x1"
  type: "ReLU"
  bottom: "inception_4d/1x1"
  top: "inception_4d/1x1"
}
layer {
  name: "inception_4d/3x3_reduce"
  type: "Convolution"
  bottom: "inception_4c/output"
  top: "inception_4d/3x3_reduce"
  param {
    lr_mult: 1
    decay_mult: 1
  }
  param {
    lr_mult: 2
    decay_mult: 0
  }
  convolution_param {
    num_output: 144
    kernel_size: 1
    weight_filler {
      type: "xavier"
      std: 0.09
    }
    bias_filler {
      type: "constant"
      value: 0.2
    }
  }
}
layer {
  name: "inception_4d/relu_3x3_reduce"
  type: "ReLU"
  bottom: "inception_4d/3x3_reduce"
  top: "inception_4d/3x3_reduce"
}
layer {
  name: "inception_4d/3x3"
  type: "Convolution"
  bottom: "inception_4d/3x3_reduce"
  top: "inception_4d/3x3"
  param {
    lr_mult: 1
    decay_mult: 1
  }
  param {
    lr_mult: 2
    decay_mult: 0
  }
  convolution_param {
    num_output: 288
    pad: 1
    kernel_size: 3
    weight_filler {
      type: "xavier"
      std: 0.03
    }
    bias_filler {
      type: "constant"
      value: 0.2
    }
  }
}
layer {
  name: "inception_4d/relu_3x3"
  type: "ReLU"
  bottom: "inception_4d/3x3"
  top: "inception_4d/3x3"
}
layer {
  name: "inception_4d/5x5_reduce"
  type: "Convolution"
  bottom: "inception_4c/output"
  top: "inception_4d/5x5_reduce"
  param {
    lr_mult: 1
    decay_mult: 1
  }
  param {
    lr_mult: 2
    decay_mult: 0
  }
  convolution_param {
    num_output: 32
    kernel_size: 1
    weight_filler {
      type: "xavier"
      std: 0.2
    }
    bias_filler {
      type: "constant"
      value: 0.2
    }
  }
}
layer {
  name: "inception_4d/relu_5x5_reduce"
  type: "ReLU"
  bottom: "inception_4d/5x5_reduce"
  top: "inception_4d/5x5_reduce"
}
layer {
  name: "inception_4d/5x5"
  type: "Convolution"
  bottom: "inception_4d/5x5_reduce"
  top: "inception_4d/5x5"
  param {
    lr_mult: 1
    decay_mult: 1
  }
  param {
    lr_mult: 2
    decay_mult: 0
  }
  convolution_param {
    num_output: 64
    pad: 2
    kernel_size: 5
    weight_filler {
      type: "xavier"
      std: 0.03
    }
    bias_filler {
      type: "constant"
      value: 0.2
    }
  }
}
layer {
  name: "inception_4d/relu_5x5"
  type: "ReLU"
  bottom: "inception_4d/5x5"
  top: "inception_4d/5x5"
}
layer {
  name: "inception_4d/pool"
  type: "Pooling"
  bottom: "inception_4c/output"
  top: "inception_4d/pool"
  pooling_param {
    pool: MAX
    kernel_size: 3
    stride: 1
    pad: 1
  }
}
layer {
  name: "inception_4d/pool_proj"
  type: "Convolution"
  bottom: "inception_4d/pool"
  top: "inception_4d/pool_proj"
  param {
    lr_mult: 1
    decay_mult: 1
  }
  param {
    lr_mult: 2
    decay_mult: 0
  }
  convolution_param {
    num_output: 64
    kernel_size: 1
    weight_filler {
      type: "xavier"
      std: 0.1
    }
    bias_filler {
      type: "constant"
      value: 0.2
    }
  }
}
layer {
  name: "inception_4d/relu_pool_proj"
  type: "ReLU"
  bottom: "inception_4d/pool_proj"
  top: "inception_4d/pool_proj"
}
layer {
  name: "inception_4d/output"
  type: "Concat"
  bottom: "inception_4d/1x1"
  bottom: "inception_4d/3x3"
  bottom: "inception_4d/5x5"
  bottom: "inception_4d/pool_proj"
  top: "inception_4d/output"
}
layer {
  name: "loss2/ave_pool"
  type: "Pooling"
  bottom: "inception_4d/output"
  top: "loss2/ave_pool"
  pooling_param {
    pool: AVE
    kernel_size: 5
    stride: 3
  }
}
layer {
  name: "loss2/conv"
  type: "Convolution"
  bottom: "loss2/ave_pool"
  top: "loss2/conv"
  param {
    lr_mult: 1
    decay_mult: 1
  }
  param {
    lr_mult: 2
    decay_mult: 0
  }
  convolution_param {
    num_output: 128
    kernel_size: 1
    weight_filler {
      type: "xavier"
      std: 0.08
    }
    bias_filler {
      type: "constant"
      value: 0.2
    }
  }
}
layer {
  name: "loss2/relu_conv"
  type: "ReLU"
  bottom: "loss2/conv"
  top: "loss2/conv"
}
layer {
  name: "loss2/fc"
  type: "InnerProduct"
  bottom: "loss2/conv"
  top: "loss2/fc"
  param {
    lr_mult: 1
    decay_mult: 1
  }
  param {
    lr_mult: 2
    decay_mult: 0
  }
  inner_product_param {
    num_output: 1024
    weight_filler {
      type: "xavier"
      std: 0.02
    }
    bias_filler {
      type: "constant"
      value: 0.2
    }
  }
}
layer {
  name: "loss2/relu_fc"
  type: "ReLU"
  bottom: "loss2/fc"
  top: "loss2/fc"
}
layer {
  name: "loss2/drop_fc"
  type: "Dropout"
  bottom: "loss2/fc"
  top: "loss2/fc"
  dropout_param {
    dropout_ratio: 0.7
  }
}
layer {
  name: "loss2/classifier_plantvillage"
  type: "InnerProduct"
  bottom: "loss2/fc"
  top: "loss2/classifier_plantvillage"
  param {
    lr_mult: 1
    decay_mult: 1
  }
  param {
    lr_mult: 2
    decay_mult: 0
  }
  inner_product_param {
    num_output: 38
    weight_filler {
      type: "xavier"
      std: 0.0009765625
    }
    bias_filler {
      type: "constant"
      value: 0
    }
  }
}
layer {
  name: "inception_4e/1x1"
  type: "Convolution"
  bottom: "inception_4d/output"
  top: "inception_4e/1x1"
  param {
    lr_mult: 1
    decay_mult: 1
  }
  param {
    lr_mult: 2
    decay_mult: 0
  }
  convolution_param {
    num_output: 256
    kernel_size: 1
    weight_filler {
      type: "xavier"
      std: 0.03
    }
    bias_filler {
      type: "constant"
      value: 0.2
    }
  }
}
layer {
  name: "inception_4e/relu_1x1"
  type: "ReLU"
  bottom: "inception_4e/1x1"
  top: "inception_4e/1x1"
}
layer {
  name: "inception_4e/3x3_reduce"
  type: "Convolution"
  bottom: "inception_4d/output"
  top: "inception_4e/3x3_reduce"
  param {
    lr_mult: 1
    decay_mult: 1
  }
  param {
    lr_mult: 2
    decay_mult: 0
  }
  convolution_param {
    num_output: 160
    kernel_size: 1
    weight_filler {
      type: "xavier"
      std: 0.09
    }
    bias_filler {
      type: "constant"
      value: 0.2
    }
  }
}
layer {
  name: "inception_4e/relu_3x3_reduce"
  type: "ReLU"
  bottom: "inception_4e/3x3_reduce"
  top: "inception_4e/3x3_reduce"
}
layer {
  name: "inception_4e/3x3"
  type: "Convolution"
  bottom: "inception_4e/3x3_reduce"
  top: "inception_4e/3x3"
  param {
    lr_mult: 1
    decay_mult: 1
  }
  param {
    lr_mult: 2
    decay_mult: 0
  }
  convolution_param {
    num_output: 320
    pad: 1
    kernel_size: 3
    weight_filler {
      type: "xavier"
      std: 0.03
    }
    bias_filler {
      type: "constant"
      value: 0.2
    }
  }
}
layer {
  name: "inception_4e/relu_3x3"
  type: "ReLU"
  bottom: "inception_4e/3x3"
  top: "inception_4e/3x3"
}
layer {
  name: "inception_4e/5x5_reduce"
  type: "Convolution"
  bottom: "inception_4d/output"
  top: "inception_4e/5x5_reduce"
  param {
    lr_mult: 1
    decay_mult: 1
  }
  param {
    lr_mult: 2
    decay_mult: 0
  }
  convolution_param {
    num_output: 32
    kernel_size: 1
    weight_filler {
      type: "xavier"
      std: 0.2
    }
    bias_filler {
      type: "constant"
      value: 0.2
    }
  }
}
layer {
  name: "inception_4e/relu_5x5_reduce"
  type: "ReLU"
  bottom: "inception_4e/5x5_reduce"
  top: "inception_4e/5x5_reduce"
}
layer {
  name: "inception_4e/5x5"
  type: "Convolution"
  bottom: "inception_4e/5x5_reduce"
  top: "inception_4e/
I0403 18:23:39.472995 22304 layer_factory.hpp:77] Creating layer data
I0403 18:23:39.473585 22304 net.cpp:91] Creating Layer data
I0403 18:23:39.473618 22304 net.cpp:399] data -> data
I0403 18:23:39.473667 22304 net.cpp:399] data -> label
I0403 18:23:39.473702 22304 data_transformer.cpp:25] Loading mean file from: /home/mohanty/data/final_dataset/lmdb/segmented-40-60/mean.binaryproto
I0403 18:23:39.474810 22308 db_lmdb.cpp:38] Opened lmdb /home/mohanty/data/final_dataset/lmdb/segmented-40-60/test_db
I0403 18:23:39.486996 22304 data_layer.cpp:41] output data size: 24,3,224,224
I0403 18:23:39.514252 22304 net.cpp:141] Setting up data
I0403 18:23:39.514338 22304 net.cpp:148] Top shape: 24 3 224 224 (3612672)
I0403 18:23:39.514360 22304 net.cpp:148] Top shape: 24 (24)
I0403 18:23:39.514375 22304 net.cpp:156] Memory required for data: 14450784
I0403 18:23:39.514403 22304 layer_factory.hpp:77] Creating layer label_data_1_split
I0403 18:23:39.514428 22304 net.cpp:91] Creating Layer label_data_1_split
I0403 18:23:39.514446 22304 net.cpp:425] label_data_1_split <- label
I0403 18:23:39.514475 22304 net.cpp:399] label_data_1_split -> label_data_1_split_0
I0403 18:23:39.514503 22304 net.cpp:399] label_data_1_split -> label_data_1_split_1
I0403 18:23:39.514523 22304 net.cpp:399] label_data_1_split -> label_data_1_split_2
I0403 18:23:39.514552 22304 net.cpp:399] label_data_1_split -> label_data_1_split_3
I0403 18:23:39.514575 22304 net.cpp:399] label_data_1_split -> label_data_1_split_4
I0403 18:23:39.514595 22304 net.cpp:399] label_data_1_split -> label_data_1_split_5
I0403 18:23:39.514613 22304 net.cpp:399] label_data_1_split -> label_data_1_split_6
I0403 18:23:39.514632 22304 net.cpp:399] label_data_1_split -> label_data_1_split_7
I0403 18:23:39.514652 22304 net.cpp:399] label_data_1_split -> label_data_1_split_8
I0403 18:23:39.514672 22304 net.cpp:399] label_data_1_split -> label_data_1_split_9
I0403 18:23:39.514787 22304 net.cpp:141] Setting up label_data_1_split
I0403 18:23:39.514811 22304 net.cpp:148] Top shape: 24 (24)
I0403 18:23:39.514827 22304 net.cpp:148] Top shape: 24 (24)
I0403 18:23:39.514842 22304 net.cpp:148] Top shape: 24 (24)
I0403 18:23:39.514856 22304 net.cpp:148] Top shape: 24 (24)
I0403 18:23:39.514871 22304 net.cpp:148] Top shape: 24 (24)
I0403 18:23:39.514886 22304 net.cpp:148] Top shape: 24 (24)
I0403 18:23:39.514900 22304 net.cpp:148] Top shape: 24 (24)
I0403 18:23:39.514914 22304 net.cpp:148] Top shape: 24 (24)
I0403 18:23:39.514930 22304 net.cpp:148] Top shape: 24 (24)
I0403 18:23:39.514945 22304 net.cpp:148] Top shape: 24 (24)
I0403 18:23:39.514991 22304 net.cpp:156] Memory required for data: 14451744
I0403 18:23:39.515005 22304 layer_factory.hpp:77] Creating layer conv1/7x7_s2
I0403 18:23:39.515036 22304 net.cpp:91] Creating Layer conv1/7x7_s2
I0403 18:23:39.515053 22304 net.cpp:425] conv1/7x7_s2 <- data
I0403 18:23:39.515071 22304 net.cpp:399] conv1/7x7_s2 -> conv1/7x7_s2
I0403 18:23:39.657498 22304 net.cpp:141] Setting up conv1/7x7_s2
I0403 18:23:39.657580 22304 net.cpp:148] Top shape: 24 64 112 112 (19267584)
I0403 18:23:39.657598 22304 net.cpp:156] Memory required for data: 91522080
I0403 18:23:39.657629 22304 layer_factory.hpp:77] Creating layer conv1/relu_7x7
I0403 18:23:39.657655 22304 net.cpp:91] Creating Layer conv1/relu_7x7
I0403 18:23:39.657672 22304 net.cpp:425] conv1/relu_7x7 <- conv1/7x7_s2
I0403 18:23:39.657691 22304 net.cpp:386] conv1/relu_7x7 -> conv1/7x7_s2 (in-place)
I0403 18:23:39.657940 22304 net.cpp:141] Setting up conv1/relu_7x7
I0403 18:23:39.657968 22304 net.cpp:148] Top shape: 24 64 112 112 (19267584)
I0403 18:23:39.657982 22304 net.cpp:156] Memory required for data: 168592416
I0403 18:23:39.657996 22304 layer_factory.hpp:77] Creating layer pool1/3x3_s2
I0403 18:23:39.658021 22304 net.cpp:91] Creating Layer pool1/3x3_s2
I0403 18:23:39.658038 22304 net.cpp:425] pool1/3x3_s2 <- conv1/7x7_s2
I0403 18:23:39.658056 22304 net.cpp:399] pool1/3x3_s2 -> pool1/3x3_s2
I0403 18:23:39.658128 22304 net.cpp:141] Setting up pool1/3x3_s2
I0403 18:23:39.658151 22304 net.cpp:148] Top shape: 24 64 56 56 (4816896)
I0403 18:23:39.658166 22304 net.cpp:156] Memory required for data: 187860000
I0403 18:23:39.658181 22304 layer_factory.hpp:77] Creating layer pool1/norm1
I0403 18:23:39.658205 22304 net.cpp:91] Creating Layer pool1/norm1
I0403 18:23:39.658221 22304 net.cpp:425] pool1/norm1 <- pool1/3x3_s2
I0403 18:23:39.658238 22304 net.cpp:399] pool1/norm1 -> pool1/norm1
I0403 18:23:39.658514 22304 net.cpp:141] Setting up pool1/norm1
I0403 18:23:39.658545 22304 net.cpp:148] Top shape: 24 64 56 56 (4816896)
I0403 18:23:39.658561 22304 net.cpp:156] Memory required for data: 207127584
I0403 18:23:39.658576 22304 layer_factory.hpp:77] Creating layer conv2/3x3_reduce
I0403 18:23:39.658601 22304 net.cpp:91] Creating Layer conv2/3x3_reduce
I0403 18:23:39.658617 22304 net.cpp:425] conv2/3x3_reduce <- pool1/norm1
I0403 18:23:39.658634 22304 net.cpp:399] conv2/3x3_reduce -> conv2/3x3_reduce
I0403 18:23:39.659939 22304 net.cpp:141] Setting up conv2/3x3_reduce
I0403 18:23:39.659967 22304 net.cpp:148] Top shape: 24 64 56 56 (4816896)
I0403 18:23:39.659983 22304 net.cpp:156] Memory required for data: 226395168
I0403 18:23:39.660003 22304 layer_factory.hpp:77] Creating layer conv2/relu_3x3_reduce
I0403 18:23:39.660022 22304 net.cpp:91] Creating Layer conv2/relu_3x3_reduce
I0403 18:23:39.660037 22304 net.cpp:425] conv2/relu_3x3_reduce <- conv2/3x3_reduce
I0403 18:23:39.660053 22304 net.cpp:386] conv2/relu_3x3_reduce -> conv2/3x3_reduce (in-place)
I0403 18:23:39.660302 22304 net.cpp:141] Setting up conv2/relu_3x3_reduce
I0403 18:23:39.660328 22304 net.cpp:148] Top shape: 24 64 56 56 (4816896)
I0403 18:23:39.660343 22304 net.cpp:156] Memory required for data: 245662752
I0403 18:23:39.660357 22304 layer_factory.hpp:77] Creating layer conv2/3x3
I0403 18:23:39.660378 22304 net.cpp:91] Creating Layer conv2/3x3
I0403 18:23:39.660395 22304 net.cpp:425] conv2/3x3 <- conv2/3x3_reduce
I0403 18:23:39.660413 22304 net.cpp:399] conv2/3x3 -> conv2/3x3
I0403 18:23:39.662611 22304 net.cpp:141] Setting up conv2/3x3
I0403 18:23:39.662639 22304 net.cpp:148] Top shape: 24 192 56 56 (14450688)
I0403 18:23:39.662657 22304 net.cpp:156] Memory required for data: 303465504
I0403 18:23:39.662677 22304 layer_factory.hpp:77] Creating layer conv2/relu_3x3
I0403 18:23:39.662695 22304 net.cpp:91] Creating Layer conv2/relu_3x3
I0403 18:23:39.662711 22304 net.cpp:425] conv2/relu_3x3 <- conv2/3x3
I0403 18:23:39.662729 22304 net.cpp:386] conv2/relu_3x3 -> conv2/3x3 (in-place)
I0403 18:23:39.662886 22304 net.cpp:141] Setting up conv2/relu_3x3
I0403 18:23:39.662910 22304 net.cpp:148] Top shape: 24 192 56 56 (14450688)
I0403 18:23:39.662964 22304 net.cpp:156] Memory required for data: 361268256
I0403 18:23:39.662979 22304 layer_factory.hpp:77] Creating layer conv2/norm2
I0403 18:23:39.662997 22304 net.cpp:91] Creating Layer conv2/norm2
I0403 18:23:39.663012 22304 net.cpp:425] conv2/norm2 <- conv2/3x3
I0403 18:23:39.663030 22304 net.cpp:399] conv2/norm2 -> conv2/norm2
I0403 18:23:39.663310 22304 net.cpp:141] Setting up conv2/norm2
I0403 18:23:39.663336 22304 net.cpp:148] Top shape: 24 192 56 56 (14450688)
I0403 18:23:39.663350 22304 net.cpp:156] Memory required for data: 419071008
I0403 18:23:39.663364 22304 layer_factory.hpp:77] Creating layer pool2/3x3_s2
I0403 18:23:39.663383 22304 net.cpp:91] Creating Layer pool2/3x3_s2
I0403 18:23:39.663398 22304 net.cpp:425] pool2/3x3_s2 <- conv2/norm2
I0403 18:23:39.663414 22304 net.cpp:399] pool2/3x3_s2 -> pool2/3x3_s2
I0403 18:23:39.663461 22304 net.cpp:141] Setting up pool2/3x3_s2
I0403 18:23:39.663485 22304 net.cpp:148] Top shape: 24 192 28 28 (3612672)
I0403 18:23:39.663498 22304 net.cpp:156] Memory required for data: 433521696
I0403 18:23:39.663512 22304 layer_factory.hpp:77] Creating layer pool2/3x3_s2_pool2/3x3_s2_0_split
I0403 18:23:39.663529 22304 net.cpp:91] Creating Layer pool2/3x3_s2_pool2/3x3_s2_0_split
I0403 18:23:39.663549 22304 net.cpp:425] pool2/3x3_s2_pool2/3x3_s2_0_split <- pool2/3x3_s2
I0403 18:23:39.663568 22304 net.cpp:399] pool2/3x3_s2_pool2/3x3_s2_0_split -> pool2/3x3_s2_pool2/3x3_s2_0_split_0
I0403 18:23:39.663586 22304 net.cpp:399] pool2/3x3_s2_pool2/3x3_s2_0_split -> pool2/3x3_s2_pool2/3x3_s2_0_split_1
I0403 18:23:39.663605 22304 net.cpp:399] pool2/3x3_s2_pool2/3x3_s2_0_split -> pool2/3x3_s2_pool2/3x3_s2_0_split_2
I0403 18:23:39.663625 22304 net.cpp:399] pool2/3x3_s2_pool2/3x3_s2_0_split -> pool2/3x3_s2_pool2/3x3_s2_0_split_3
I0403 18:23:39.663686 22304 net.cpp:141] Setting up pool2/3x3_s2_pool2/3x3_s2_0_split
I0403 18:23:39.663707 22304 net.cpp:148] Top shape: 24 192 28 28 (3612672)
I0403 18:23:39.663723 22304 net.cpp:148] Top shape: 24 192 28 28 (3612672)
I0403 18:23:39.663739 22304 net.cpp:148] Top shape: 24 192 28 28 (3612672)
I0403 18:23:39.663754 22304 net.cpp:148] Top shape: 24 192 28 28 (3612672)
I0403 18:23:39.663768 22304 net.cpp:156] Memory required for data: 491324448
I0403 18:23:39.663781 22304 layer_factory.hpp:77] Creating layer inception_3a/1x1
I0403 18:23:39.663800 22304 net.cpp:91] Creating Layer inception_3a/1x1
I0403 18:23:39.663816 22304 net.cpp:425] inception_3a/1x1 <- pool2/3x3_s2_pool2/3x3_s2_0_split_0
I0403 18:23:39.663835 22304 net.cpp:399] inception_3a/1x1 -> inception_3a/1x1
I0403 18:23:39.665329 22304 net.cpp:141] Setting up inception_3a/1x1
I0403 18:23:39.665360 22304 net.cpp:148] Top shape: 24 64 28 28 (1204224)
I0403 18:23:39.665377 22304 net.cpp:156] Memory required for data: 496141344
I0403 18:23:39.665395 22304 layer_factory.hpp:77] Creating layer inception_3a/relu_1x1
I0403 18:23:39.665413 22304 net.cpp:91] Creating Layer inception_3a/relu_1x1
I0403 18:23:39.665428 22304 net.cpp:425] inception_3a/relu_1x1 <- inception_3a/1x1
I0403 18:23:39.665448 22304 net.cpp:386] inception_3a/relu_1x1 -> inception_3a/1x1 (in-place)
I0403 18:23:39.665628 22304 net.cpp:141] Setting up inception_3a/relu_1x1
I0403 18:23:39.665653 22304 net.cpp:148] Top shape: 24 64 28 28 (1204224)
I0403 18:23:39.665668 22304 net.cpp:156] Memory required for data: 500958240
I0403 18:23:39.665683 22304 layer_factory.hpp:77] Creating layer inception_3a/3x3_reduce
I0403 18:23:39.665704 22304 net.cpp:91] Creating Layer inception_3a/3x3_reduce
I0403 18:23:39.665721 22304 net.cpp:425] inception_3a/3x3_reduce <- pool2/3x3_s2_pool2/3x3_s2_0_split_1
I0403 18:23:39.665743 22304 net.cpp:399] inception_3a/3x3_reduce -> inception_3a/3x3_reduce
I0403 18:23:39.667459 22304 net.cpp:141] Setting up inception_3a/3x3_reduce
I0403 18:23:39.667490 22304 net.cpp:148] Top shape: 24 96 28 28 (1806336)
I0403 18:23:39.667505 22304 net.cpp:156] Memory required for data: 508183584
I0403 18:23:39.667526 22304 layer_factory.hpp:77] Creating layer inception_3a/relu_3x3_reduce
I0403 18:23:39.667577 22304 net.cpp:91] Creating Layer inception_3a/relu_3x3_reduce
I0403 18:23:39.667596 22304 net.cpp:425] inception_3a/relu_3x3_reduce <- inception_3a/3x3_reduce
I0403 18:23:39.667614 22304 net.cpp:386] inception_3a/relu_3x3_reduce -> inception_3a/3x3_reduce (in-place)
I0403 18:23:39.667798 22304 net.cpp:141] Setting up inception_3a/relu_3x3_reduce
I0403 18:23:39.667826 22304 net.cpp:148] Top shape: 24 96 28 28 (1806336)
I0403 18:23:39.667842 22304 net.cpp:156] Memory required for data: 515408928
I0403 18:23:39.667856 22304 layer_factory.hpp:77] Creating layer inception_3a/3x3
I0403 18:23:39.667879 22304 net.cpp:91] Creating Layer inception_3a/3x3
I0403 18:23:39.667896 22304 net.cpp:425] inception_3a/3x3 <- inception_3a/3x3_reduce
I0403 18:23:39.667914 22304 net.cpp:399] inception_3a/3x3 -> inception_3a/3x3
I0403 18:23:39.669620 22304 net.cpp:141] Setting up inception_3a/3x3
I0403 18:23:39.669648 22304 net.cpp:148] Top shape: 24 128 28 28 (2408448)
I0403 18:23:39.669663 22304 net.cpp:156] Memory required for data: 525042720
I0403 18:23:39.669682 22304 layer_factory.hpp:77] Creating layer inception_3a/relu_3x3
I0403 18:23:39.669700 22304 net.cpp:91] Creating Layer inception_3a/relu_3x3
I0403 18:23:39.669720 22304 net.cpp:425] inception_3a/relu_3x3 <- inception_3a/3x3
I0403 18:23:39.669737 22304 net.cpp:386] inception_3a/relu_3x3 -> inception_3a/3x3 (in-place)
I0403 18:23:39.670017 22304 net.cpp:141] Setting up inception_3a/relu_3x3
I0403 18:23:39.670043 22304 net.cpp:148] Top shape: 24 128 28 28 (2408448)
I0403 18:23:39.670058 22304 net.cpp:156] Memory required for data: 534676512
I0403 18:23:39.670073 22304 layer_factory.hpp:77] Creating layer inception_3a/5x5_reduce
I0403 18:23:39.670096 22304 net.cpp:91] Creating Layer inception_3a/5x5_reduce
I0403 18:23:39.670114 22304 net.cpp:425] inception_3a/5x5_reduce <- pool2/3x3_s2_pool2/3x3_s2_0_split_2
I0403 18:23:39.670135 22304 net.cpp:399] inception_3a/5x5_reduce -> inception_3a/5x5_reduce
I0403 18:23:39.671133 22304 net.cpp:141] Setting up inception_3a/5x5_reduce
I0403 18:23:39.671160 22304 net.cpp:148] Top shape: 24 16 28 28 (301056)
I0403 18:23:39.671176 22304 net.cpp:156] Memory required for data: 535880736
I0403 18:23:39.671195 22304 layer_factory.hpp:77] Creating layer inception_3a/relu_5x5_reduce
I0403 18:23:39.671214 22304 net.cpp:91] Creating Layer inception_3a/relu_5x5_reduce
I0403 18:23:39.671231 22304 net.cpp:425] inception_3a/relu_5x5_reduce <- inception_3a/5x5_reduce
I0403 18:23:39.671258 22304 net.cpp:386] inception_3a/relu_5x5_reduce -> inception_3a/5x5_reduce (in-place)
I0403 18:23:39.671574 22304 net.cpp:141] Setting up inception_3a/relu_5x5_reduce
I0403 18:23:39.671612 22304 net.cpp:148] Top shape: 24 16 28 28 (301056)
I0403 18:23:39.671628 22304 net.cpp:156] Memory required for data: 537084960
I0403 18:23:39.671643 22304 layer_factory.hpp:77] Creating layer inception_3a/5x5
I0403 18:23:39.671665 22304 net.cpp:91] Creating Layer inception_3a/5x5
I0403 18:23:39.671682 22304 net.cpp:425] inception_3a/5x5 <- inception_3a/5x5_reduce
I0403 18:23:39.671702 22304 net.cpp:399] inception_3a/5x5 -> inception_3a/5x5
I0403 18:23:39.672703 22304 net.cpp:141] Setting up inception_3a/5x5
I0403 18:23:39.672732 22304 net.cpp:148] Top shape: 24 32 28 28 (602112)
I0403 18:23:39.672749 22304 net.cpp:156] Memory required for data: 539493408
I0403 18:23:39.672766 22304 layer_factory.hpp:77] Creating layer inception_3a/relu_5x5
I0403 18:23:39.672785 22304 net.cpp:91] Creating Layer inception_3a/relu_5x5
I0403 18:23:39.672799 22304 net.cpp:425] inception_3a/relu_5x5 <- inception_3a/5x5
I0403 18:23:39.672818 22304 net.cpp:386] inception_3a/relu_5x5 -> inception_3a/5x5 (in-place)
I0403 18:23:39.672987 22304 net.cpp:141] Setting up inception_3a/relu_5x5
I0403 18:23:39.673012 22304 net.cpp:148] Top shape: 24 32 28 28 (602112)
I0403 18:23:39.673027 22304 net.cpp:156] Memory required for data: 541901856
I0403 18:23:39.673040 22304 layer_factory.hpp:77] Creating layer inception_3a/pool
I0403 18:23:39.673058 22304 net.cpp:91] Creating Layer inception_3a/pool
I0403 18:23:39.673087 22304 net.cpp:425] inception_3a/pool <- pool2/3x3_s2_pool2/3x3_s2_0_split_3
I0403 18:23:39.673108 22304 net.cpp:399] inception_3a/pool -> inception_3a/pool
I0403 18:23:39.673167 22304 net.cpp:141] Setting up inception_3a/pool
I0403 18:23:39.673189 22304 net.cpp:148] Top shape: 24 192 28 28 (3612672)
I0403 18:23:39.673204 22304 net.cpp:156] Memory required for data: 556352544
I0403 18:23:39.673218 22304 layer_factory.hpp:77] Creating layer inception_3a/pool_proj
I0403 18:23:39.673243 22304 net.cpp:91] Creating Layer inception_3a/pool_proj
I0403 18:23:39.673259 22304 net.cpp:425] inception_3a/pool_proj <- inception_3a/pool
I0403 18:23:39.673280 22304 net.cpp:399] inception_3a/pool_proj -> inception_3a/pool_proj
I0403 18:23:39.674223 22304 net.cpp:141] Setting up inception_3a/pool_proj
I0403 18:23:39.674250 22304 net.cpp:148] Top shape: 24 32 28 28 (602112)
I0403 18:23:39.674265 22304 net.cpp:156] Memory required for data: 558760992
I0403 18:23:39.674289 22304 layer_factory.hpp:77] Creating layer inception_3a/relu_pool_proj
I0403 18:23:39.674310 22304 net.cpp:91] Creating Layer inception_3a/relu_pool_proj
I0403 18:23:39.674327 22304 net.cpp:425] inception_3a/relu_pool_proj <- inception_3a/pool_proj
I0403 18:23:39.674343 22304 net.cpp:386] inception_3a/relu_pool_proj -> inception_3a/pool_proj (in-place)
I0403 18:23:39.674625 22304 net.cpp:141] Setting up inception_3a/relu_pool_proj
I0403 18:23:39.674651 22304 net.cpp:148] Top shape: 24 32 28 28 (602112)
I0403 18:23:39.674666 22304 net.cpp:156] Memory required for data: 561169440
I0403 18:23:39.674680 22304 layer_factory.hpp:77] Creating layer inception_3a/output
I0403 18:23:39.674697 22304 net.cpp:91] Creating Layer inception_3a/output
I0403 18:23:39.674712 22304 net.cpp:425] inception_3a/output <- inception_3a/1x1
I0403 18:23:39.674728 22304 net.cpp:425] inception_3a/output <- inception_3a/3x3
I0403 18:23:39.674743 22304 net.cpp:425] inception_3a/output <- inception_3a/5x5
I0403 18:23:39.674759 22304 net.cpp:425] inception_3a/output <- inception_3a/pool_proj
I0403 18:23:39.674777 22304 net.cpp:399] inception_3a/output -> inception_3a/output
I0403 18:23:39.674823 22304 net.cpp:141] Setting up inception_3a/output
I0403 18:23:39.674849 22304 net.cpp:148] Top shape: 24 256 28 28 (4816896)
I0403 18:23:39.674865 22304 net.cpp:156] Memory required for data: 580437024
I0403 18:23:39.674877 22304 layer_factory.hpp:77] Creating layer inception_3a/output_inception_3a/output_0_split
I0403 18:23:39.674895 22304 net.cpp:91] Creating Layer inception_3a/output_inception_3a/output_0_split
I0403 18:23:39.674908 22304 net.cpp:425] inception_3a/output_inception_3a/output_0_split <- inception_3a/output
I0403 18:23:39.674926 22304 net.cpp:399] inception_3a/output_inception_3a/output_0_split -> inception_3a/output_inception_3a/output_0_split_0
I0403 18:23:39.674947 22304 net.cpp:399] inception_3a/output_inception_3a/output_0_split -> inception_3a/output_inception_3a/output_0_split_1
I0403 18:23:39.674970 22304 net.cpp:399] inception_3a/output_inception_3a/output_0_split -> inception_3a/output_inception_3a/output_0_split_2
I0403 18:23:39.674991 22304 net.cpp:399] inception_3a/output_inception_3a/output_0_split -> inception_3a/output_inception_3a/output_0_split_3
I0403 18:23:39.675061 22304 net.cpp:141] Setting up inception_3a/output_inception_3a/output_0_split
I0403 18:23:39.675086 22304 net.cpp:148] Top shape: 24 256 28 28 (4816896)
I0403 18:23:39.675102 22304 net.cpp:148] Top shape: 24 256 28 28 (4816896)
I0403 18:23:39.675117 22304 net.cpp:148] Top shape: 24 256 28 28 (4816896)
I0403 18:23:39.675132 22304 net.cpp:148] Top shape: 24 256 28 28 (4816896)
I0403 18:23:39.675145 22304 net.cpp:156] Memory required for data: 657507360
I0403 18:23:39.675159 22304 layer_factory.hpp:77] Creating layer inception_3b/1x1
I0403 18:23:39.675181 22304 net.cpp:91] Creating Layer inception_3b/1x1
I0403 18:23:39.675199 22304 net.cpp:425] inception_3b/1x1 <- inception_3a/output_inception_3a/output_0_split_0
I0403 18:23:39.675218 22304 net.cpp:399] inception_3b/1x1 -> inception_3b/1x1
I0403 18:23:39.676331 22304 net.cpp:141] Setting up inception_3b/1x1
I0403 18:23:39.676372 22304 net.cpp:148] Top shape: 24 128 28 28 (2408448)
I0403 18:23:39.676388 22304 net.cpp:156] Memory required for data: 667141152
I0403 18:23:39.676405 22304 layer_factory.hpp:77] Creating layer inception_3b/relu_1x1
I0403 18:23:39.676424 22304 net.cpp:91] Creating Layer inception_3b/relu_1x1
I0403 18:23:39.676440 22304 net.cpp:425] inception_3b/relu_1x1 <- inception_3b/1x1
I0403 18:23:39.676455 22304 net.cpp:386] inception_3b/relu_1x1 -> inception_3b/1x1 (in-place)
I0403 18:23:39.676635 22304 net.cpp:141] Setting up inception_3b/relu_1x1
I0403 18:23:39.676659 22304 net.cpp:148] Top shape: 24 128 28 28 (2408448)
I0403 18:23:39.676674 22304 net.cpp:156] Memory required for data: 676774944
I0403 18:23:39.676688 22304 layer_factory.hpp:77] Creating layer inception_3b/3x3_reduce
I0403 18:23:39.676710 22304 net.cpp:91] Creating Layer inception_3b/3x3_reduce
I0403 18:23:39.676728 22304 net.cpp:425] inception_3b/3x3_reduce <- inception_3a/output_inception_3a/output_0_split_1
I0403 18:23:39.676748 22304 net.cpp:399] inception_3b/3x3_reduce -> inception_3b/3x3_reduce
I0403 18:23:39.677871 22304 net.cpp:141] Setting up inception_3b/3x3_reduce
I0403 18:23:39.677901 22304 net.cpp:148] Top shape: 24 128 28 28 (2408448)
I0403 18:23:39.677917 22304 net.cpp:156] Memory required for data: 686408736
I0403 18:23:39.677935 22304 layer_factory.hpp:77] Creating layer inception_3b/relu_3x3_reduce
I0403 18:23:39.677953 22304 net.cpp:91] Creating Layer inception_3b/relu_3x3_reduce
I0403 18:23:39.677968 22304 net.cpp:425] inception_3b/relu_3x3_reduce <- inception_3b/3x3_reduce
I0403 18:23:39.677988 22304 net.cpp:386] inception_3b/relu_3x3_reduce -> inception_3b/3x3_reduce (in-place)
I0403 18:23:39.678155 22304 net.cpp:141] Setting up inception_3b/relu_3x3_reduce
I0403 18:23:39.678179 22304 net.cpp:148] Top shape: 24 128 28 28 (2408448)
I0403 18:23:39.678194 22304 net.cpp:156] Memory required for data: 696042528
I0403 18:23:39.678208 22304 layer_factory.hpp:77] Creating layer inception_3b/3x3
I0403 18:23:39.678233 22304 net.cpp:91] Creating Layer inception_3b/3x3
I0403 18:23:39.678251 22304 net.cpp:425] inception_3b/3x3 <- inception_3b/3x3_reduce
I0403 18:23:39.678269 22304 net.cpp:399] inception_3b/3x3 -> inception_3b/3x3
I0403 18:23:39.681152 22304 net.cpp:141] Setting up inception_3b/3x3
I0403 18:23:39.681181 22304 net.cpp:148] Top shape: 24 192 28 28 (3612672)
I0403 18:23:39.681196 22304 net.cpp:156] Memory required for data: 710493216
I0403 18:23:39.681215 22304 layer_factory.hpp:77] Creating layer inception_3b/relu_3x3
I0403 18:23:39.681232 22304 net.cpp:91] Creating Layer inception_3b/relu_3x3
I0403 18:23:39.681252 22304 net.cpp:425] inception_3b/relu_3x3 <- inception_3b/3x3
I0403 18:23:39.681267 22304 net.cpp:386] inception_3b/relu_3x3 -> inception_3b/3x3 (in-place)
I0403 18:23:39.681543 22304 net.cpp:141] Setting up inception_3b/relu_3x3
I0403 18:23:39.681570 22304 net.cpp:148] Top shape: 24 192 28 28 (3612672)
I0403 18:23:39.681584 22304 net.cpp:156] Memory required for data: 724943904
I0403 18:23:39.681599 22304 layer_factory.hpp:77] Creating layer inception_3b/5x5_reduce
I0403 18:23:39.681622 22304 net.cpp:91] Creating Layer inception_3b/5x5_reduce
I0403 18:23:39.681639 22304 net.cpp:425] inception_3b/5x5_reduce <- inception_3a/output_inception_3a/output_0_split_2
I0403 18:23:39.681659 22304 net.cpp:399] inception_3b/5x5_reduce -> inception_3b/5x5_reduce
I0403 18:23:39.682633 22304 net.cpp:141] Setting up inception_3b/5x5_reduce
I0403 18:23:39.682660 22304 net.cpp:148] Top shape: 24 32 28 28 (602112)
I0403 18:23:39.682677 22304 net.cpp:156] Memory required for data: 727352352
I0403 18:23:39.682694 22304 layer_factory.hpp:77] Creating layer inception_3b/relu_5x5_reduce
I0403 18:23:39.682713 22304 net.cpp:91] Creating Layer inception_3b/relu_5x5_reduce
I0403 18:23:39.682729 22304 net.cpp:425] inception_3b/relu_5x5_reduce <- inception_3b/5x5_reduce
I0403 18:23:39.682746 22304 net.cpp:386] inception_3b/relu_5x5_reduce -> inception_3b/5x5_reduce (in-place)
I0403 18:23:39.682931 22304 net.cpp:141] Setting up inception_3b/relu_5x5_reduce
I0403 18:23:39.682956 22304 net.cpp:148] Top shape: 24 32 28 28 (602112)
I0403 18:23:39.682971 22304 net.cpp:156] Memory required for data: 729760800
I0403 18:23:39.682986 22304 layer_factory.hpp:77] Creating layer inception_3b/5x5
I0403 18:23:39.683007 22304 net.cpp:91] Creating Layer inception_3b/5x5
I0403 18:23:39.683023 22304 net.cpp:425] inception_3b/5x5 <- inception_3b/5x5_reduce
I0403 18:23:39.683044 22304 net.cpp:399] inception_3b/5x5 -> inception_3b/5x5
I0403 18:23:39.685039 22304 net.cpp:141] Setting up inception_3b/5x5
I0403 18:23:39.685068 22304 net.cpp:148] Top shape: 24 96 28 28 (1806336)
I0403 18:23:39.685084 22304 net.cpp:156] Memory required for data: 736986144
I0403 18:23:39.685102 22304 layer_factory.hpp:77] Creating layer inception_3b/relu_5x5
I0403 18:23:39.685120 22304 net.cpp:91] Creating Layer inception_3b/relu_5x5
I0403 18:23:39.685137 22304 net.cpp:425] inception_3b/relu_5x5 <- inception_3b/5x5
I0403 18:23:39.685155 22304 net.cpp:386] inception_3b/relu_5x5 -> inception_3b/5x5 (in-place)
I0403 18:23:39.685349 22304 net.cpp:141] Setting up inception_3b/relu_5x5
I0403 18:23:39.685374 22304 net.cpp:148] Top shape: 24 96 28 28 (1806336)
I0403 18:23:39.685389 22304 net.cpp:156] Memory required for data: 744211488
I0403 18:23:39.685402 22304 layer_factory.hpp:77] Creating layer inception_3b/pool
I0403 18:23:39.685432 22304 net.cpp:91] Creating Layer inception_3b/pool
I0403 18:23:39.685448 22304 net.cpp:425] inception_3b/pool <- inception_3a/output_inception_3a/output_0_split_3
I0403 18:23:39.685467 22304 net.cpp:399] inception_3b/pool -> inception_3b/pool
I0403 18:23:39.685523 22304 net.cpp:141] Setting up inception_3b/pool
I0403 18:23:39.685550 22304 net.cpp:148] Top shape: 24 256 28 28 (4816896)
I0403 18:23:39.685571 22304 net.cpp:156] Memory required for data: 763479072
I0403 18:23:39.685586 22304 layer_factory.hpp:77] Creating layer inception_3b/pool_proj
I0403 18:23:39.685611 22304 net.cpp:91] Creating Layer inception_3b/pool_proj
I0403 18:23:39.685628 22304 net.cpp:425] inception_3b/pool_proj <- inception_3b/pool
I0403 18:23:39.685647 22304 net.cpp:399] inception_3b/pool_proj -> inception_3b/pool_proj
I0403 18:23:39.686705 22304 net.cpp:141] Setting up inception_3b/pool_proj
I0403 18:23:39.686733 22304 net.cpp:148] Top shape: 24 64 28 28 (1204224)
I0403 18:23:39.686746 22304 net.cpp:156] Memory required for data: 768295968
I0403 18:23:39.686764 22304 layer_factory.hpp:77] Creating layer inception_3b/relu_pool_proj
I0403 18:23:39.686785 22304 net.cpp:91] Creating Layer inception_3b/relu_pool_proj
I0403 18:23:39.686801 22304 net.cpp:425] inception_3b/relu_pool_proj <- inception_3b/pool_proj
I0403 18:23:39.686817 22304 net.cpp:386] inception_3b/relu_pool_proj -> inception_3b/pool_proj (in-place)
I0403 18:23:39.687204 22304 net.cpp:141] Setting up inception_3b/relu_pool_proj
I0403 18:23:39.687230 22304 net.cpp:148] Top shape: 24 64 28 28 (1204224)
I0403 18:23:39.687244 22304 net.cpp:156] Memory required for data: 773112864
I0403 18:23:39.687258 22304 layer_factory.hpp:77] Creating layer inception_3b/output
I0403 18:23:39.687274 22304 net.cpp:91] Creating Layer inception_3b/output
I0403 18:23:39.687294 22304 net.cpp:425] inception_3b/output <- inception_3b/1x1
I0403 18:23:39.687309 22304 net.cpp:425] inception_3b/output <- inception_3b/3x3
I0403 18:23:39.687325 22304 net.cpp:425] inception_3b/output <- inception_3b/5x5
I0403 18:23:39.687340 22304 net.cpp:425] inception_3b/output <- inception_3b/pool_proj
I0403 18:23:39.687355 22304 net.cpp:399] inception_3b/output -> inception_3b/output
I0403 18:23:39.687397 22304 net.cpp:141] Setting up inception_3b/output
I0403 18:23:39.687420 22304 net.cpp:148] Top shape: 24 480 28 28 (9031680)
I0403 18:23:39.687435 22304 net.cpp:156] Memory required for data: 809239584
I0403 18:23:39.687448 22304 layer_factory.hpp:77] Creating layer pool3/3x3_s2
I0403 18:23:39.687465 22304 net.cpp:91] Creating Layer pool3/3x3_s2
I0403 18:23:39.687479 22304 net.cpp:425] pool3/3x3_s2 <- inception_3b/output
I0403 18:23:39.687513 22304 net.cpp:399] pool3/3x3_s2 -> pool3/3x3_s2
I0403 18:23:39.687573 22304 net.cpp:141] Setting up pool3/3x3_s2
I0403 18:23:39.687598 22304 net.cpp:148] Top shape: 24 480 14 14 (2257920)
I0403 18:23:39.687613 22304 net.cpp:156] Memory required for data: 818271264
I0403 18:23:39.687626 22304 layer_factory.hpp:77] Creating layer pool3/3x3_s2_pool3/3x3_s2_0_split
I0403 18:23:39.687643 22304 net.cpp:91] Creating Layer pool3/3x3_s2_pool3/3x3_s2_0_split
I0403 18:23:39.687657 22304 net.cpp:425] pool3/3x3_s2_pool3/3x3_s2_0_split <- pool3/3x3_s2
I0403 18:23:39.687674 22304 net.cpp:399] pool3/3x3_s2_pool3/3x3_s2_0_split -> pool3/3x3_s2_pool3/3x3_s2_0_split_0
I0403 18:23:39.687692 22304 net.cpp:399] pool3/3x3_s2_pool3/3x3_s2_0_split -> pool3/3x3_s2_pool3/3x3_s2_0_split_1
I0403 18:23:39.687713 22304 net.cpp:399] pool3/3x3_s2_pool3/3x3_s2_0_split -> pool3/3x3_s2_pool3/3x3_s2_0_split_2
I0403 18:23:39.687733 22304 net.cpp:399] pool3/3x3_s2_pool3/3x3_s2_0_split -> pool3/3x3_s2_pool3/3x3_s2_0_split_3
I0403 18:23:39.687808 22304 net.cpp:141] Setting up pool3/3x3_s2_pool3/3x3_s2_0_split
I0403 18:23:39.687829 22304 net.cpp:148] Top shape: 24 480 14 14 (2257920)
I0403 18:23:39.687844 22304 net.cpp:148] Top shape: 24 480 14 14 (2257920)
I0403 18:23:39.687860 22304 net.cpp:148] Top shape: 24 480 14 14 (2257920)
I0403 18:23:39.687873 22304 net.cpp:148] Top shape: 24 480 14 14 (2257920)
I0403 18:23:39.687886 22304 net.cpp:156] Memory required for data: 854397984
I0403 18:23:39.687899 22304 layer_factory.hpp:77] Creating layer inception_4a/1x1
I0403 18:23:39.687921 22304 net.cpp:91] Creating Layer inception_4a/1x1
I0403 18:23:39.687937 22304 net.cpp:425] inception_4a/1x1 <- pool3/3x3_s2_pool3/3x3_s2_0_split_0
I0403 18:23:39.687957 22304 net.cpp:399] inception_4a/1x1 -> inception_4a/1x1
I0403 18:23:39.689456 22304 net.cpp:141] Setting up inception_4a/1x1
I0403 18:23:39.689483 22304 net.cpp:148] Top shape: 24 192 14 14 (903168)
I0403 18:23:39.689497 22304 net.cpp:156] Memory required for data: 858010656
I0403 18:23:39.689515 22304 layer_factory.hpp:77] Creating layer inception_4a/relu_1x1
I0403 18:23:39.689534 22304 net.cpp:91] Creating Layer inception_4a/relu_1x1
I0403 18:23:39.689555 22304 net.cpp:425] inception_4a/relu_1x1 <- inception_4a/1x1
I0403 18:23:39.689573 22304 net.cpp:386] inception_4a/relu_1x1 -> inception_4a/1x1 (in-place)
I0403 18:23:39.689738 22304 net.cpp:141] Setting up inception_4a/relu_1x1
I0403 18:23:39.689765 22304 net.cpp:148] Top shape: 24 192 14 14 (903168)
I0403 18:23:39.689779 22304 net.cpp:156] Memory required for data: 861623328
I0403 18:23:39.689793 22304 layer_factory.hpp:77] Creating layer inception_4a/3x3_reduce
I0403 18:23:39.689815 22304 net.cpp:91] Creating Layer inception_4a/3x3_reduce
I0403 18:23:39.689831 22304 net.cpp:425] inception_4a/3x3_reduce <- pool3/3x3_s2_pool3/3x3_s2_0_split_1
I0403 18:23:39.689851 22304 net.cpp:399] inception_4a/3x3_reduce -> inception_4a/3x3_reduce
I0403 18:23:39.691067 22304 net.cpp:141] Setting up inception_4a/3x3_reduce
I0403 18:23:39.691093 22304 net.cpp:148] Top shape: 24 96 14 14 (451584)
I0403 18:23:39.691108 22304 net.cpp:156] Memory required for data: 863429664
I0403 18:23:39.691133 22304 layer_factory.hpp:77] Creating layer inception_4a/relu_3x3_reduce
I0403 18:23:39.691154 22304 net.cpp:91] Creating Layer inception_4a/relu_3x3_reduce
I0403 18:23:39.691170 22304 net.cpp:425] inception_4a/relu_3x3_reduce <- inception_4a/3x3_reduce
I0403 18:23:39.691186 22304 net.cpp:386] inception_4a/relu_3x3_reduce -> inception_4a/3x3_reduce (in-place)
I0403 18:23:39.691356 22304 net.cpp:141] Setting up inception_4a/relu_3x3_reduce
I0403 18:23:39.691383 22304 net.cpp:148] Top shape: 24 96 14 14 (451584)
I0403 18:23:39.691397 22304 net.cpp:156] Memory required for data: 865236000
I0403 18:23:39.691411 22304 layer_factory.hpp:77] Creating layer inception_4a/3x3
I0403 18:23:39.691432 22304 net.cpp:91] Creating Layer inception_4a/3x3
I0403 18:23:39.691449 22304 net.cpp:425] inception_4a/3x3 <- inception_4a/3x3_reduce
I0403 18:23:39.691468 22304 net.cpp:399] inception_4a/3x3 -> inception_4a/3x3
I0403 18:23:39.694047 22304 net.cpp:141] Setting up inception_4a/3x3
I0403 18:23:39.694078 22304 net.cpp:148] Top shape: 24 208 14 14 (978432)
I0403 18:23:39.694094 22304 net.cpp:156] Memory required for data: 869149728
I0403 18:23:39.694113 22304 layer_factory.hpp:77] Creating layer inception_4a/relu_3x3
I0403 18:23:39.694129 22304 net.cpp:91] Creating Layer inception_4a/relu_3x3
I0403 18:23:39.694144 22304 net.cpp:425] inception_4a/relu_3x3 <- inception_4a/3x3
I0403 18:23:39.694162 22304 net.cpp:386] inception_4a/relu_3x3 -> inception_4a/3x3 (in-place)
I0403 18:23:39.694428 22304 net.cpp:141] Setting up inception_4a/relu_3x3
I0403 18:23:39.694456 22304 net.cpp:148] Top shape: 24 208 14 14 (978432)
I0403 18:23:39.694471 22304 net.cpp:156] Memory required for data: 873063456
I0403 18:23:39.694485 22304 layer_factory.hpp:77] Creating layer inception_4a/5x5_reduce
I0403 18:23:39.694506 22304 net.cpp:91] Creating Layer inception_4a/5x5_reduce
I0403 18:23:39.694525 22304 net.cpp:425] inception_4a/5x5_reduce <- pool3/3x3_s2_pool3/3x3_s2_0_split_2
I0403 18:23:39.694552 22304 net.cpp:399] inception_4a/5x5_reduce -> inception_4a/5x5_reduce
I0403 18:23:39.695533 22304 net.cpp:141] Setting up inception_4a/5x5_reduce
I0403 18:23:39.695569 22304 net.cpp:148] Top shape: 24 16 14 14 (75264)
I0403 18:23:39.695585 22304 net.cpp:156] Memory required for data: 873364512
I0403 18:23:39.695603 22304 layer_factory.hpp:77] Creating layer inception_4a/relu_5x5_reduce
I0403 18:23:39.695619 22304 net.cpp:91] Creating Layer inception_4a/relu_5x5_reduce
I0403 18:23:39.695636 22304 net.cpp:425] inception_4a/relu_5x5_reduce <- inception_4a/5x5_reduce
I0403 18:23:39.695653 22304 net.cpp:386] inception_4a/relu_5x5_reduce -> inception_4a/5x5_reduce (in-place)
I0403 18:23:39.695822 22304 net.cpp:141] Setting up inception_4a/relu_5x5_reduce
I0403 18:23:39.695847 22304 net.cpp:148] Top shape: 24 16 14 14 (75264)
I0403 18:23:39.695861 22304 net.cpp:156] Memory required for data: 873665568
I0403 18:23:39.695875 22304 layer_factory.hpp:77] Creating layer inception_4a/5x5
I0403 18:23:39.695895 22304 net.cpp:91] Creating Layer inception_4a/5x5
I0403 18:23:39.695912 22304 net.cpp:425] inception_4a/5x5 <- inception_4a/5x5_reduce
I0403 18:23:39.695932 22304 net.cpp:399] inception_4a/5x5 -> inception_4a/5x5
I0403 18:23:39.697007 22304 net.cpp:141] Setting up inception_4a/5x5
I0403 18:23:39.697033 22304 net.cpp:148] Top shape: 24 48 14 14 (225792)
I0403 18:23:39.697048 22304 net.cpp:156] Memory required for data: 874568736
I0403 18:23:39.697065 22304 layer_factory.hpp:77] Creating layer inception_4a/relu_5x5
I0403 18:23:39.697084 22304 net.cpp:91] Creating Layer inception_4a/relu_5x5
I0403 18:23:39.697101 22304 net.cpp:425] inception_4a/relu_5x5 <- inception_4a/5x5
I0403 18:23:39.697118 22304 net.cpp:386] inception_4a/relu_5x5 -> inception_4a/5x5 (in-place)
I0403 18:23:39.697288 22304 net.cpp:141] Setting up inception_4a/relu_5x5
I0403 18:23:39.697312 22304 net.cpp:148] Top shape: 24 48 14 14 (225792)
I0403 18:23:39.697326 22304 net.cpp:156] Memory required for data: 875471904
I0403 18:23:39.697340 22304 layer_factory.hpp:77] Creating layer inception_4a/pool
I0403 18:23:39.697360 22304 net.cpp:91] Creating Layer inception_4a/pool
I0403 18:23:39.697376 22304 net.cpp:425] inception_4a/pool <- pool3/3x3_s2_pool3/3x3_s2_0_split_3
I0403 18:23:39.697394 22304 net.cpp:399] inception_4a/pool -> inception_4a/pool
I0403 18:23:39.697453 22304 net.cpp:141] Setting up inception_4a/pool
I0403 18:23:39.697476 22304 net.cpp:148] Top shape: 24 480 14 14 (2257920)
I0403 18:23:39.697490 22304 net.cpp:156] Memory required for data: 884503584
I0403 18:23:39.697504 22304 layer_factory.hpp:77] Creating layer inception_4a/pool_proj
I0403 18:23:39.697525 22304 net.cpp:91] Creating Layer inception_4a/pool_proj
I0403 18:23:39.697546 22304 net.cpp:425] inception_4a/pool_proj <- inception_4a/pool
I0403 18:23:39.697566 22304 net.cpp:399] inception_4a/pool_proj -> inception_4a/pool_proj
I0403 18:23:39.698688 22304 net.cpp:141] Setting up inception_4a/pool_proj
I0403 18:23:39.698714 22304 net.cpp:148] Top shape: 24 64 14 14 (301056)
I0403 18:23:39.698747 22304 net.cpp:156] Memory required for data: 885707808
I0403 18:23:39.698766 22304 layer_factory.hpp:77] Creating layer inception_4a/relu_pool_proj
I0403 18:23:39.698788 22304 net.cpp:91] Creating Layer inception_4a/relu_pool_proj
I0403 18:23:39.698806 22304 net.cpp:425] inception_4a/relu_pool_proj <- inception_4a/pool_proj
I0403 18:23:39.698822 22304 net.cpp:386] inception_4a/relu_pool_proj -> inception_4a/pool_proj (in-place)
I0403 18:23:39.699095 22304 net.cpp:141] Setting up inception_4a/relu_pool_proj
I0403 18:23:39.699120 22304 net.cpp:148] Top shape: 24 64 14 14 (301056)
I0403 18:23:39.699133 22304 net.cpp:156] Memory required for data: 886912032
I0403 18:23:39.699147 22304 layer_factory.hpp:77] Creating layer inception_4a/output
I0403 18:23:39.699167 22304 net.cpp:91] Creating Layer inception_4a/output
I0403 18:23:39.699182 22304 net.cpp:425] inception_4a/output <- inception_4a/1x1
I0403 18:23:39.699198 22304 net.cpp:425] inception_4a/output <- inception_4a/3x3
I0403 18:23:39.699213 22304 net.cpp:425] inception_4a/output <- inception_4a/5x5
I0403 18:23:39.699228 22304 net.cpp:425] inception_4a/output <- inception_4a/pool_proj
I0403 18:23:39.699244 22304 net.cpp:399] inception_4a/output -> inception_4a/output
I0403 18:23:39.699287 22304 net.cpp:141] Setting up inception_4a/output
I0403 18:23:39.699309 22304 net.cpp:148] Top shape: 24 512 14 14 (2408448)
I0403 18:23:39.699322 22304 net.cpp:156] Memory required for data: 896545824
I0403 18:23:39.699337 22304 layer_factory.hpp:77] Creating layer inception_4a/output_inception_4a/output_0_split
I0403 18:23:39.699353 22304 net.cpp:91] Creating Layer inception_4a/output_inception_4a/output_0_split
I0403 18:23:39.699368 22304 net.cpp:425] inception_4a/output_inception_4a/output_0_split <- inception_4a/output
I0403 18:23:39.699386 22304 net.cpp:399] inception_4a/output_inception_4a/output_0_split -> inception_4a/output_inception_4a/output_0_split_0
I0403 18:23:39.699406 22304 net.cpp:399] inception_4a/output_inception_4a/output_0_split -> inception_4a/output_inception_4a/output_0_split_1
I0403 18:23:39.699425 22304 net.cpp:399] inception_4a/output_inception_4a/output_0_split -> inception_4a/output_inception_4a/output_0_split_2
I0403 18:23:39.699445 22304 net.cpp:399] inception_4a/output_inception_4a/output_0_split -> inception_4a/output_inception_4a/output_0_split_3
I0403 18:23:39.699463 22304 net.cpp:399] inception_4a/output_inception_4a/output_0_split -> inception_4a/output_inception_4a/output_0_split_4
I0403 18:23:39.699573 22304 net.cpp:141] Setting up inception_4a/output_inception_4a/output_0_split
I0403 18:23:39.699596 22304 net.cpp:148] Top shape: 24 512 14 14 (2408448)
I0403 18:23:39.699625 22304 net.cpp:148] Top shape: 24 512 14 14 (2408448)
I0403 18:23:39.699641 22304 net.cpp:148] Top shape: 24 512 14 14 (2408448)
I0403 18:23:39.699657 22304 net.cpp:148] Top shape: 24 512 14 14 (2408448)
I0403 18:23:39.699672 22304 net.cpp:148] Top shape: 24 512 14 14 (2408448)
I0403 18:23:39.699687 22304 net.cpp:156] Memory required for data: 944714784
I0403 18:23:39.699702 22304 layer_factory.hpp:77] Creating layer loss1/ave_pool
I0403 18:23:39.699720 22304 net.cpp:91] Creating Layer loss1/ave_pool
I0403 18:23:39.699736 22304 net.cpp:425] loss1/ave_pool <- inception_4a/output_inception_4a/output_0_split_0
I0403 18:23:39.699756 22304 net.cpp:399] loss1/ave_pool -> loss1/ave_pool
I0403 18:23:39.699980 22304 net.cpp:141] Setting up loss1/ave_pool
I0403 18:23:39.700006 22304 net.cpp:148] Top shape: 24 512 4 4 (196608)
I0403 18:23:39.700021 22304 net.cpp:156] Memory required for data: 945501216
I0403 18:23:39.700034 22304 layer_factory.hpp:77] Creating layer loss1/conv
I0403 18:23:39.700057 22304 net.cpp:91] Creating Layer loss1/conv
I0403 18:23:39.700073 22304 net.cpp:425] loss1/conv <- loss1/ave_pool
I0403 18:23:39.700093 22304 net.cpp:399] loss1/conv -> loss1/conv
I0403 18:23:39.701515 22304 net.cpp:141] Setting up loss1/conv
I0403 18:23:39.701550 22304 net.cpp:148] Top shape: 24 128 4 4 (49152)
I0403 18:23:39.701581 22304 net.cpp:156] Memory required for data: 945697824
I0403 18:23:39.701599 22304 layer_factory.hpp:77] Creating layer loss1/relu_conv
I0403 18:23:39.701618 22304 net.cpp:91] Creating Layer loss1/relu_conv
I0403 18:23:39.701642 22304 net.cpp:425] loss1/relu_conv <- loss1/conv
I0403 18:23:39.701664 22304 net.cpp:386] loss1/relu_conv -> loss1/conv (in-place)
I0403 18:23:39.701947 22304 net.cpp:141] Setting up loss1/relu_conv
I0403 18:23:39.701975 22304 net.cpp:148] Top shape: 24 128 4 4 (49152)
I0403 18:23:39.701992 22304 net.cpp:156] Memory required for data: 945894432
I0403 18:23:39.702005 22304 layer_factory.hpp:77] Creating layer loss1/fc
I0403 18:23:39.702028 22304 net.cpp:91] Creating Layer loss1/fc
I0403 18:23:39.702045 22304 net.cpp:425] loss1/fc <- loss1/conv
I0403 18:23:39.702066 22304 net.cpp:399] loss1/fc -> loss1/fc
I0403 18:23:39.719810 22304 net.cpp:141] Setting up loss1/fc
I0403 18:23:39.719842 22304 net.cpp:148] Top shape: 24 1024 (24576)
I0403 18:23:39.719857 22304 net.cpp:156] Memory required for data: 945992736
I0403 18:23:39.719874 22304 layer_factory.hpp:77] Creating layer loss1/relu_fc
I0403 18:23:39.719894 22304 net.cpp:91] Creating Layer loss1/relu_fc
I0403 18:23:39.719910 22304 net.cpp:425] loss1/relu_fc <- loss1/fc
I0403 18:23:39.719926 22304 net.cpp:386] loss1/relu_fc -> loss1/fc (in-place)
I0403 18:23:39.720106 22304 net.cpp:141] Setting up loss1/relu_fc
I0403 18:23:39.720129 22304 net.cpp:148] Top shape: 24 1024 (24576)
I0403 18:23:39.720144 22304 net.cpp:156] Memory required for data: 946091040
I0403 18:23:39.720158 22304 layer_factory.hpp:77] Creating layer loss1/drop_fc
I0403 18:23:39.720182 22304 net.cpp:91] Creating Layer loss1/drop_fc
I0403 18:23:39.720199 22304 net.cpp:425] loss1/drop_fc <- loss1/fc
I0403 18:23:39.720217 22304 net.cpp:386] loss1/drop_fc -> loss1/fc (in-place)
I0403 18:23:39.720266 22304 net.cpp:141] Setting up loss1/drop_fc
I0403 18:23:39.720290 22304 net.cpp:148] Top shape: 24 1024 (24576)
I0403 18:23:39.720304 22304 net.cpp:156] Memory required for data: 946189344
I0403 18:23:39.720317 22304 layer_factory.hpp:77] Creating layer loss1/classifier_plantvillage
I0403 18:23:39.720338 22304 net.cpp:91] Creating Layer loss1/classifier_plantvillage
I0403 18:23:39.720355 22304 net.cpp:425] loss1/classifier_plantvillage <- loss1/fc
I0403 18:23:39.720371 22304 net.cpp:399] loss1/classifier_plantvillage -> loss1/classifier_plantvillage
I0403 18:23:39.721272 22304 net.cpp:141] Setting up loss1/classifier_plantvillage
I0403 18:23:39.721302 22304 net.cpp:148] Top shape: 24 38 (912)
I0403 18:23:39.721317 22304 net.cpp:156] Memory required for data: 946192992
I0403 18:23:39.721333 22304 layer_factory.hpp:77] Creating layer loss1/classifier_plantvillage_loss1/classifier_plantvillage_0_split
I0403 18:23:39.721354 22304 net.cpp:91] Creating Layer loss1/classifier_plantvillage_loss1/classifier_plantvillage_0_split
I0403 18:23:39.721369 22304 net.cpp:425] loss1/classifier_plantvillage_loss1/classifier_plantvillage_0_split <- loss1/classifier_plantvillage
I0403 18:23:39.721387 22304 net.cpp:399] loss1/classifier_plantvillage_loss1/classifier_plantvillage_0_split -> loss1/classifier_plantvillage_loss1/classifier_plantvillage_0_split_0
I0403 18:23:39.721410 22304 net.cpp:399] loss1/classifier_plantvillage_loss1/classifier_plantvillage_0_split -> loss1/classifier_plantvillage_loss1/classifier_plantvillage_0_split_1
I0403 18:23:39.721429 22304 net.cpp:399] loss1/classifier_plantvillage_loss1/classifier_plantvillage_0_split -> loss1/classifier_plantvillage_loss1/classifier_plantvillage_0_split_2
I0403 18:23:39.721493 22304 net.cpp:141] Setting up loss1/classifier_plantvillage_loss1/classifier_plantvillage_0_split
I0403 18:23:39.721515 22304 net.cpp:148] Top shape: 24 38 (912)
I0403 18:23:39.721531 22304 net.cpp:148] Top shape: 24 38 (912)
I0403 18:23:39.721551 22304 net.cpp:148] Top shape: 24 38 (912)
I0403 18:23:39.721565 22304 net.cpp:156] Memory required for data: 946203936
I0403 18:23:39.721580 22304 layer_factory.hpp:77] Creating layer inception_4b/1x1
I0403 18:23:39.721601 22304 net.cpp:91] Creating Layer inception_4b/1x1
I0403 18:23:39.721632 22304 net.cpp:425] inception_4b/1x1 <- inception_4a/output_inception_4a/output_0_split_1
I0403 18:23:39.721652 22304 net.cpp:399] inception_4b/1x1 -> inception_4b/1x1
I0403 18:23:39.723237 22304 net.cpp:141] Setting up inception_4b/1x1
I0403 18:23:39.723274 22304 net.cpp:148] Top shape: 24 160 14 14 (752640)
I0403 18:23:39.723292 22304 net.cpp:156] Memory required for data: 949214496
I0403 18:23:39.723309 22304 layer_factory.hpp:77] Creating layer inception_4b/relu_1x1
I0403 18:23:39.723326 22304 net.cpp:91] Creating Layer inception_4b/relu_1x1
I0403 18:23:39.723341 22304 net.cpp:425] inception_4b/relu_1x1 <- inception_4b/1x1
I0403 18:23:39.723361 22304 net.cpp:386] inception_4b/relu_1x1 -> inception_4b/1x1 (in-place)
I0403 18:23:39.723533 22304 net.cpp:141] Setting up inception_4b/relu_1x1
I0403 18:23:39.723567 22304 net.cpp:148] Top shape: 24 160 14 14 (752640)
I0403 18:23:39.723582 22304 net.cpp:156] Memory required for data: 952225056
I0403 18:23:39.723595 22304 layer_factory.hpp:77] Creating layer inception_4b/3x3_reduce
I0403 18:23:39.723618 22304 net.cpp:91] Creating Layer inception_4b/3x3_reduce
I0403 18:23:39.723636 22304 net.cpp:425] inception_4b/3x3_reduce <- inception_4a/output_inception_4a/output_0_split_2
I0403 18:23:39.723656 22304 net.cpp:399] inception_4b/3x3_reduce -> inception_4b/3x3_reduce
I0403 18:23:39.724963 22304 net.cpp:141] Setting up inception_4b/3x3_reduce
I0403 18:23:39.724990 22304 net.cpp:148] Top shape: 24 112 14 14 (526848)
I0403 18:23:39.725005 22304 net.cpp:156] Memory required for data: 954332448
I0403 18:23:39.725023 22304 layer_factory.hpp:77] Creating layer inception_4b/relu_3x3_reduce
I0403 18:23:39.725039 22304 net.cpp:91] Creating Layer inception_4b/relu_3x3_reduce
I0403 18:23:39.725055 22304 net.cpp:425] inception_4b/relu_3x3_reduce <- inception_4b/3x3_reduce
I0403 18:23:39.725074 22304 net.cpp:386] inception_4b/relu_3x3_reduce -> inception_4b/3x3_reduce (in-place)
I0403 18:23:39.725355 22304 net.cpp:141] Setting up inception_4b/relu_3x3_reduce
I0403 18:23:39.725380 22304 net.cpp:148] Top shape: 24 112 14 14 (526848)
I0403 18:23:39.725394 22304 net.cpp:156] Memory required for data: 956439840
I0403 18:23:39.725409 22304 layer_factory.hpp:77] Creating layer inception_4b/3x3
I0403 18:23:39.725430 22304 net.cpp:91] Creating Layer inception_4b/3x3
I0403 18:23:39.725446 22304 net.cpp:425] inception_4b/3x3 <- inception_4b/3x3_reduce
I0403 18:23:39.725466 22304 net.cpp:399] inception_4b/3x3 -> inception_4b/3x3
I0403 18:23:39.728358 22304 net.cpp:141] Setting up inception_4b/3x3
I0403 18:23:39.728385 22304 net.cpp:148] Top shape: 24 224 14 14 (1053696)
I0403 18:23:39.728400 22304 net.cpp:156] Memory required for data: 960654624
I0403 18:23:39.728418 22304 layer_factory.hpp:77] Creating layer inception_4b/relu_3x3
I0403 18:23:39.728438 22304 net.cpp:91] Creating Layer inception_4b/relu_3x3
I0403 18:23:39.728454 22304 net.cpp:425] inception_4b/relu_3x3 <- inception_4b/3x3
I0403 18:23:39.728471 22304 net.cpp:386] inception_4b/relu_3x3 -> inception_4b/3x3 (in-place)
I0403 18:23:39.728648 22304 net.cpp:141] Setting up inception_4b/relu_3x3
I0403 18:23:39.728672 22304 net.cpp:148] Top shape: 24 224 14 14 (1053696)
I0403 18:23:39.728688 22304 net.cpp:156] Memory required for data: 964869408
I0403 18:23:39.728701 22304 layer_factory.hpp:77] Creating layer inception_4b/5x5_reduce
I0403 18:23:39.728723 22304 net.cpp:91] Creating Layer inception_4b/5x5_reduce
I0403 18:23:39.728739 22304 net.cpp:425] inception_4b/5x5_reduce <- inception_4a/output_inception_4a/output_0_split_3
I0403 18:23:39.728760 22304 net.cpp:399] inception_4b/5x5_reduce -> inception_4b/5x5_reduce
I0403 18:23:39.729821 22304 net.cpp:141] Setting up inception_4b/5x5_reduce
I0403 18:23:39.729848 22304 net.cpp:148] Top shape: 24 24 14 14 (112896)
I0403 18:23:39.729863 22304 net.cpp:156] Memory required for data: 965320992
I0403 18:23:39.729881 22304 layer_factory.hpp:77] Creating layer inception_4b/relu_5x5_reduce
I0403 18:23:39.729898 22304 net.cpp:91] Creating Layer inception_4b/relu_5x5_reduce
I0403 18:23:39.729928 22304 net.cpp:425] inception_4b/relu_5x5_reduce <- inception_4b/5x5_reduce
I0403 18:23:39.729948 22304 net.cpp:386] inception_4b/relu_5x5_reduce -> inception_4b/5x5_reduce (in-place)
I0403 18:23:39.730123 22304 net.cpp:141] Setting up inception_4b/relu_5x5_reduce
I0403 18:23:39.730147 22304 net.cpp:148] Top shape: 24 24 14 14 (112896)
I0403 18:23:39.730161 22304 net.cpp:156] Memory required for data: 965772576
I0403 18:23:39.730176 22304 layer_factory.hpp:77] Creating layer inception_4b/5x5
I0403 18:23:39.730196 22304 net.cpp:91] Creating Layer inception_4b/5x5
I0403 18:23:39.730212 22304 net.cpp:425] inception_4b/5x5 <- inception_4b/5x5_reduce
I0403 18:23:39.730232 22304 net.cpp:399] inception_4b/5x5 -> inception_4b/5x5
I0403 18:23:39.731420 22304 net.cpp:141] Setting up inception_4b/5x5
I0403 18:23:39.731448 22304 net.cpp:148] Top shape: 24 64 14 14 (301056)
I0403 18:23:39.731464 22304 net.cpp:156] Memory required for data: 966976800
I0403 18:23:39.731482 22304 layer_factory.hpp:77] Creating layer inception_4b/relu_5x5
I0403 18:23:39.731500 22304 net.cpp:91] Creating Layer inception_4b/relu_5x5
I0403 18:23:39.731515 22304 net.cpp:425] inception_4b/relu_5x5 <- inception_4b/5x5
I0403 18:23:39.731534 22304 net.cpp:386] inception_4b/relu_5x5 -> inception_4b/5x5 (in-place)
I0403 18:23:39.731832 22304 net.cpp:141] Setting up inception_4b/relu_5x5
I0403 18:23:39.731859 22304 net.cpp:148] Top shape: 24 64 14 14 (301056)
I0403 18:23:39.731876 22304 net.cpp:156] Memory required for data: 968181024
I0403 18:23:39.731890 22304 layer_factory.hpp:77] Creating layer inception_4b/pool
I0403 18:23:39.731909 22304 net.cpp:91] Creating Layer inception_4b/pool
I0403 18:23:39.731923 22304 net.cpp:425] inception_4b/pool <- inception_4a/output_inception_4a/output_0_split_4
I0403 18:23:39.731945 22304 net.cpp:399] inception_4b/pool -> inception_4b/pool
I0403 18:23:39.732007 22304 net.cpp:141] Setting up inception_4b/pool
I0403 18:23:39.732044 22304 net.cpp:148] Top shape: 24 512 14 14 (2408448)
I0403 18:23:39.732059 22304 net.cpp:156] Memory required for data: 977814816
I0403 18:23:39.732072 22304 layer_factory.hpp:77] Creating layer inception_4b/pool_proj
I0403 18:23:39.732091 22304 net.cpp:91] Creating Layer inception_4b/pool_proj
I0403 18:23:39.732106 22304 net.cpp:425] inception_4b/pool_proj <- inception_4b/pool
I0403 18:23:39.732126 22304 net.cpp:399] inception_4b/pool_proj -> inception_4b/pool_proj
I0403 18:23:39.733299 22304 net.cpp:141] Setting up inception_4b/pool_proj
I0403 18:23:39.733325 22304 net.cpp:148] Top shape: 24 64 14 14 (301056)
I0403 18:23:39.733340 22304 net.cpp:156] Memory required for data: 979019040
I0403 18:23:39.733356 22304 layer_factory.hpp:77] Creating layer inception_4b/relu_pool_proj
I0403 18:23:39.733373 22304 net.cpp:91] Creating Layer inception_4b/relu_pool_proj
I0403 18:23:39.733389 22304 net.cpp:425] inception_4b/relu_pool_proj <- inception_4b/pool_proj
I0403 18:23:39.733408 22304 net.cpp:386] inception_4b/relu_pool_proj -> inception_4b/pool_proj (in-place)
I0403 18:23:39.733597 22304 net.cpp:141] Setting up inception_4b/relu_pool_proj
I0403 18:23:39.733620 22304 net.cpp:148] Top shape: 24 64 14 14 (301056)
I0403 18:23:39.733635 22304 net.cpp:156] Memory required for data: 980223264
I0403 18:23:39.733649 22304 layer_factory.hpp:77] Creating layer inception_4b/output
I0403 18:23:39.733665 22304 net.cpp:91] Creating Layer inception_4b/output
I0403 18:23:39.733680 22304 net.cpp:425] inception_4b/output <- inception_4b/1x1
I0403 18:23:39.733697 22304 net.cpp:425] inception_4b/output <- inception_4b/3x3
I0403 18:23:39.733713 22304 net.cpp:425] inception_4b/output <- inception_4b/5x5
I0403 18:23:39.733729 22304 net.cpp:425] inception_4b/output <- inception_4b/pool_proj
I0403 18:23:39.733747 22304 net.cpp:399] inception_4b/output -> inception_4b/output
I0403 18:23:39.733791 22304 net.cpp:141] Setting up inception_4b/output
I0403 18:23:39.733814 22304 net.cpp:148] Top shape: 24 512 14 14 (2408448)
I0403 18:23:39.733827 22304 net.cpp:156] Memory required for data: 989857056
I0403 18:23:39.733855 22304 layer_factory.hpp:77] Creating layer inception_4b/output_inception_4b/output_0_split
I0403 18:23:39.733871 22304 net.cpp:91] Creating Layer inception_4b/output_inception_4b/output_0_split
I0403 18:23:39.733886 22304 net.cpp:425] inception_4b/output_inception_4b/output_0_split <- inception_4b/output
I0403 18:23:39.733904 22304 net.cpp:399] inception_4b/output_inception_4b/output_0_split -> inception_4b/output_inception_4b/output_0_split_0
I0403 18:23:39.733924 22304 net.cpp:399] inception_4b/output_inception_4b/output_0_split -> inception_4b/output_inception_4b/output_0_split_1
I0403 18:23:39.733944 22304 net.cpp:399] inception_4b/output_inception_4b/output_0_split -> inception_4b/output_inception_4b/output_0_split_2
I0403 18:23:39.733963 22304 net.cpp:399] inception_4b/output_inception_4b/output_0_split -> inception_4b/output_inception_4b/output_0_split_3
I0403 18:23:39.734045 22304 net.cpp:141] Setting up inception_4b/output_inception_4b/output_0_split
I0403 18:23:39.734069 22304 net.cpp:148] Top shape: 24 512 14 14 (2408448)
I0403 18:23:39.734086 22304 net.cpp:148] Top shape: 24 512 14 14 (2408448)
I0403 18:23:39.734102 22304 net.cpp:148] Top shape: 24 512 14 14 (2408448)
I0403 18:23:39.734115 22304 net.cpp:148] Top shape: 24 512 14 14 (2408448)
I0403 18:23:39.734128 22304 net.cpp:156] Memory required for data: 1028392224
I0403 18:23:39.734141 22304 layer_factory.hpp:77] Creating layer inception_4c/1x1
I0403 18:23:39.734163 22304 net.cpp:91] Creating Layer inception_4c/1x1
I0403 18:23:39.734179 22304 net.cpp:425] inception_4c/1x1 <- inception_4b/output_inception_4b/output_0_split_0
I0403 18:23:39.734197 22304 net.cpp:399] inception_4c/1x1 -> inception_4c/1x1
I0403 18:23:39.735591 22304 net.cpp:141] Setting up inception_4c/1x1
I0403 18:23:39.735617 22304 net.cpp:148] Top shape: 24 128 14 14 (602112)
I0403 18:23:39.735633 22304 net.cpp:156] Memory required for data: 1030800672
I0403 18:23:39.735651 22304 layer_factory.hpp:77] Creating layer inception_4c/relu_1x1
I0403 18:23:39.735671 22304 net.cpp:91] Creating Layer inception_4c/relu_1x1
I0403 18:23:39.735687 22304 net.cpp:425] inception_4c/relu_1x1 <- inception_4c/1x1
I0403 18:23:39.735704 22304 net.cpp:386] inception_4c/relu_1x1 -> inception_4c/1x1 (in-place)
I0403 18:23:39.735882 22304 net.cpp:141] Setting up inception_4c/relu_1x1
I0403 18:23:39.735908 22304 net.cpp:148] Top shape: 24 128 14 14 (602112)
I0403 18:23:39.735924 22304 net.cpp:156] Memory required for data: 1033209120
I0403 18:23:39.735937 22304 layer_factory.hpp:77] Creating layer inception_4c/3x3_reduce
I0403 18:23:39.735959 22304 net.cpp:91] Creating Layer inception_4c/3x3_reduce
I0403 18:23:39.735975 22304 net.cpp:425] inception_4c/3x3_reduce <- inception_4b/output_inception_4b/output_0_split_1
I0403 18:23:39.735993 22304 net.cpp:399] inception_4c/3x3_reduce -> inception_4c/3x3_reduce
I0403 18:23:39.737882 22304 net.cpp:141] Setting up inception_4c/3x3_reduce
I0403 18:23:39.737912 22304 net.cpp:148] Top shape: 24 128 14 14 (602112)
I0403 18:23:39.737928 22304 net.cpp:156] Memory required for data: 1035617568
I0403 18:23:39.737946 22304 layer_factory.hpp:77] Creating layer inception_4c/relu_3x3_reduce
I0403 18:23:39.737963 22304 net.cpp:91] Creating Layer inception_4c/relu_3x3_reduce
I0403 18:23:39.737978 22304 net.cpp:425] inception_4c/relu_3x3_reduce <- inception_4c/3x3_reduce
I0403 18:23:39.737998 22304 net.cpp:386] inception_4c/relu_3x3_reduce -> inception_4c/3x3_reduce (in-place)
I0403 18:23:39.738271 22304 net.cpp:141] Setting up inception_4c/relu_3x3_reduce
I0403 18:23:39.738301 22304 net.cpp:148] Top shape: 24 128 14 14 (602112)
I0403 18:23:39.738314 22304 net.cpp:156] Memory required for data: 1038026016
I0403 18:23:39.738328 22304 layer_factory.hpp:77] Creating layer inception_4c/3x3
I0403 18:23:39.738350 22304 net.cpp:91] Creating Layer inception_4c/3x3
I0403 18:23:39.738368 22304 net.cpp:425] inception_4c/3x3 <- inception_4c/3x3_reduce
I0403 18:23:39.738387 22304 net.cpp:399] inception_4c/3x3 -> inception_4c/3x3
I0403 18:23:39.741884 22304 net.cpp:141] Setting up inception_4c/3x3
I0403 18:23:39.741926 22304 net.cpp:148] Top shape: 24 256 14 14 (1204224)
I0403 18:23:39.741943 22304 net.cpp:156] Memory required for data: 1042842912
I0403 18:23:39.741974 22304 layer_factory.hpp:77] Creating layer inception_4c/relu_3x3
I0403 18:23:39.741994 22304 net.cpp:91] Creating Layer inception_4c/relu_3x3
I0403 18:23:39.742009 22304 net.cpp:425] inception_4c/relu_3x3 <- inception_4c/3x3
I0403 18:23:39.742027 22304 net.cpp:386] inception_4c/relu_3x3 -> inception_4c/3x3 (in-place)
I0403 18:23:39.742202 22304 net.cpp:141] Setting up inception_4c/relu_3x3
I0403 18:23:39.742228 22304 net.cpp:148] Top shape: 24 256 14 14 (1204224)
I0403 18:23:39.742241 22304 net.cpp:156] Memory required for data: 1047659808
I0403 18:23:39.742255 22304 layer_factory.hpp:77] Creating layer inception_4c/5x5_reduce
I0403 18:23:39.742277 22304 net.cpp:91] Creating Layer inception_4c/5x5_reduce
I0403 18:23:39.742295 22304 net.cpp:425] inception_4c/5x5_reduce <- inception_4b/output_inception_4b/output_0_split_2
I0403 18:23:39.742316 22304 net.cpp:399] inception_4c/5x5_reduce -> inception_4c/5x5_reduce
I0403 18:23:39.743366 22304 net.cpp:141] Setting up inception_4c/5x5_reduce
I0403 18:23:39.743392 22304 net.cpp:148] Top shape: 24 24 14 14 (112896)
I0403 18:23:39.743407 22304 net.cpp:156] Memory required for data: 1048111392
I0403 18:23:39.743424 22304 layer_factory.hpp:77] Creating layer inception_4c/relu_5x5_reduce
I0403 18:23:39.743441 22304 net.cpp:91] Creating Layer inception_4c/relu_5x5_reduce
I0403 18:23:39.743456 22304 net.cpp:425] inception_4c/relu_5x5_reduce <- inception_4c/5x5_reduce
I0403 18:23:39.743474 22304 net.cpp:386] inception_4c/relu_5x5_reduce -> inception_4c/5x5_reduce (in-place)
I0403 18:23:39.743659 22304 net.cpp:141] Setting up inception_4c/relu_5x5_reduce
I0403 18:23:39.743683 22304 net.cpp:148] Top shape: 24 24 14 14 (112896)
I0403 18:23:39.743697 22304 net.cpp:156] Memory required for data: 1048562976
I0403 18:23:39.743711 22304 layer_factory.hpp:77] Creating layer inception_4c/5x5
I0403 18:23:39.743733 22304 net.cpp:91] Creating Layer inception_4c/5x5
I0403 18:23:39.743749 22304 net.cpp:425] inception_4c/5x5 <- inception_4c/5x5_reduce
I0403 18:23:39.743769 22304 net.cpp:399] inception_4c/5x5 -> inception_4c/5x5
I0403 18:23:39.744992 22304 net.cpp:141] Setting up inception_4c/5x5
I0403 18:23:39.745018 22304 net.cpp:148] Top shape: 24 64 14 14 (301056)
I0403 18:23:39.745033 22304 net.cpp:156] Memory required for data: 1049767200
I0403 18:23:39.745050 22304 layer_factory.hpp:77] Creating layer inception_4c/relu_5x5
I0403 18:23:39.745069 22304 net.cpp:91] Creating Layer inception_4c/relu_5x5
I0403 18:23:39.745086 22304 net.cpp:425] inception_4c/relu_5x5 <- inception_4c/5x5
I0403 18:23:39.745102 22304 net.cpp:386] inception_4c/relu_5x5 -> inception_4c/5x5 (in-place)
I0403 18:23:39.745381 22304 net.cpp:141] Setting up inception_4c/relu_5x5
I0403 18:23:39.745407 22304 net.cpp:148] Top shape: 24 64 14 14 (301056)
I0403 18:23:39.745421 22304 net.cpp:156] Memory required for data: 1050971424
I0403 18:23:39.745435 22304 layer_factory.hpp:77] Creating layer inception_4c/pool
I0403 18:23:39.745455 22304 net.cpp:91] Creating Layer inception_4c/pool
I0403 18:23:39.745471 22304 net.cpp:425] inception_4c/pool <- inception_4b/output_inception_4b/output_0_split_3
I0403 18:23:39.745488 22304 net.cpp:399] inception_4c/pool -> inception_4c/pool
I0403 18:23:39.745565 22304 net.cpp:141] Setting up inception_4c/pool
I0403 18:23:39.745589 22304 net.cpp:148] Top shape: 24 512 14 14 (2408448)
I0403 18:23:39.745602 22304 net.cpp:156] Memory required for data: 1060605216
I0403 18:23:39.745616 22304 layer_factory.hpp:77] Creating layer inception_4c/pool_proj
I0403 18:23:39.745636 22304 net.cpp:91] Creating Layer inception_4c/pool_proj
I0403 18:23:39.745653 22304 net.cpp:425] inception_4c/pool_proj <- inception_4c/pool
I0403 18:23:39.745673 22304 net.cpp:399] inception_4c/pool_proj -> inception_4c/pool_proj
I0403 18:23:39.746862 22304 net.cpp:141] Setting up inception_4c/pool_proj
I0403 18:23:39.746891 22304 net.cpp:148] Top shape: 24 64 14 14 (301056)
I0403 18:23:39.746919 22304 net.cpp:156] Memory required for data: 1061809440
I0403 18:23:39.746938 22304 layer_factory.hpp:77] Creating layer inception_4c/relu_pool_proj
I0403 18:23:39.746955 22304 net.cpp:91] Creating Layer inception_4c/relu_pool_proj
I0403 18:23:39.746970 22304 net.cpp:425] inception_4c/relu_pool_proj <- inception_4c/pool_proj
I0403 18:23:39.746989 22304 net.cpp:386] inception_4c/relu_pool_proj -> inception_4c/pool_proj (in-place)
I0403 18:23:39.747169 22304 net.cpp:141] Setting up inception_4c/relu_pool_proj
I0403 18:23:39.747192 22304 net.cpp:148] Top shape: 24 64 14 14 (301056)
I0403 18:23:39.747206 22304 net.cpp:156] Memory required for data: 1063013664
I0403 18:23:39.747220 22304 layer_factory.hpp:77] Creating layer inception_4c/output
I0403 18:23:39.747237 22304 net.cpp:91] Creating Layer inception_4c/output
I0403 18:23:39.747251 22304 net.cpp:425] inception_4c/output <- inception_4c/1x1
I0403 18:23:39.747267 22304 net.cpp:425] inception_4c/output <- inception_4c/3x3
I0403 18:23:39.747282 22304 net.cpp:425] inception_4c/output <- inception_4c/5x5
I0403 18:23:39.747298 22304 net.cpp:425] inception_4c/output <- inception_4c/pool_proj
I0403 18:23:39.747316 22304 net.cpp:399] inception_4c/output -> inception_4c/output
I0403 18:23:39.747364 22304 net.cpp:141] Setting up inception_4c/output
I0403 18:23:39.747386 22304 net.cpp:148] Top shape: 24 512 14 14 (2408448)
I0403 18:23:39.747400 22304 net.cpp:156] Memory required for data: 1072647456
I0403 18:23:39.747416 22304 layer_factory.hpp:77] Creating layer inception_4c/output_inception_4c/output_0_split
I0403 18:23:39.747431 22304 net.cpp:91] Creating Layer inception_4c/output_inception_4c/output_0_split
I0403 18:23:39.747447 22304 net.cpp:425] inception_4c/output_inception_4c/output_0_split <- inception_4c/output
I0403 18:23:39.747464 22304 net.cpp:399] inception_4c/output_inception_4c/output_0_split -> inception_4c/output_inception_4c/output_0_split_0
I0403 18:23:39.747484 22304 net.cpp:399] inception_4c/output_inception_4c/output_0_split -> inception_4c/output_inception_4c/output_0_split_1
I0403 18:23:39.747503 22304 net.cpp:399] inception_4c/output_inception_4c/output_0_split -> inception_4c/output_inception_4c/output_0_split_2
I0403 18:23:39.747522 22304 net.cpp:399] inception_4c/output_inception_4c/output_0_split -> inception_4c/output_inception_4c/output_0_split_3
I0403 18:23:39.747611 22304 net.cpp:141] Setting up inception_4c/output_inception_4c/output_0_split
I0403 18:23:39.747635 22304 net.cpp:148] Top shape: 24 512 14 14 (2408448)
I0403 18:23:39.747653 22304 net.cpp:148] Top shape: 24 512 14 14 (2408448)
I0403 18:23:39.747668 22304 net.cpp:148] Top shape: 24 512 14 14 (2408448)
I0403 18:23:39.747684 22304 net.cpp:148] Top shape: 24 512 14 14 (2408448)
I0403 18:23:39.747695 22304 net.cpp:156] Memory required for data: 1111182624
I0403 18:23:39.747709 22304 layer_factory.hpp:77] Creating layer inception_4d/1x1
I0403 18:23:39.747730 22304 net.cpp:91] Creating Layer inception_4d/1x1
I0403 18:23:39.747747 22304 net.cpp:425] inception_4d/1x1 <- inception_4c/output_inception_4c/output_0_split_0
I0403 18:23:39.747766 22304 net.cpp:399] inception_4d/1x1 -> inception_4d/1x1
I0403 18:23:39.749143 22304 net.cpp:141] Setting up inception_4d/1x1
I0403 18:23:39.749171 22304 net.cpp:148] Top shape: 24 112 14 14 (526848)
I0403 18:23:39.749187 22304 net.cpp:156] Memory required for data: 1113290016
I0403 18:23:39.749205 22304 layer_factory.hpp:77] Creating layer inception_4d/relu_1x1
I0403 18:23:39.749225 22304 net.cpp:91] Creating Layer inception_4d/relu_1x1
I0403 18:23:39.749243 22304 net.cpp:425] inception_4d/relu_1x1 <- inception_4d/1x1
I0403 18:23:39.749260 22304 net.cpp:386] inception_4d/relu_1x1 -> inception_4d/1x1 (in-place)
I0403 18:23:39.749446 22304 net.cpp:141] Setting up inception_4d/relu_1x1
I0403 18:23:39.749470 22304 net.cpp:148] Top shape: 24 112 14 14 (526848)
I0403 18:23:39.749485 22304 net.cpp:156] Memory required for data: 1115397408
I0403 18:23:39.749500 22304 layer_factory.hpp:77] Creating layer inception_4d/3x3_reduce
I0403 18:23:39.749536 22304 net.cpp:91] Creating Layer inception_4d/3x3_reduce
I0403 18:23:39.749558 22304 net.cpp:425] inception_4d/3x3_reduce <- inception_4c/output_inception_4c/output_0_split_1
I0403 18:23:39.749580 22304 net.cpp:399] inception_4d/3x3_reduce -> inception_4d/3x3_reduce
I0403 18:23:39.751096 22304 net.cpp:141] Setting up inception_4d/3x3_reduce
I0403 18:23:39.751123 22304 net.cpp:148] Top shape: 24 144 14 14 (677376)
I0403 18:23:39.751139 22304 net.cpp:156] Memory required for data: 1118106912
I0403 18:23:39.751157 22304 layer_factory.hpp:77] Creating layer inception_4d/relu_3x3_reduce
I0403 18:23:39.751178 22304 net.cpp:91] Creating Layer inception_4d/relu_3x3_reduce
I0403 18:23:39.751194 22304 net.cpp:425] inception_4d/relu_3x3_reduce <- inception_4d/3x3_reduce
I0403 18:23:39.751211 22304 net.cpp:386] inception_4d/relu_3x3_reduce -> inception_4d/3x3_reduce (in-place)
I0403 18:23:39.751504 22304 net.cpp:141] Setting up inception_4d/relu_3x3_reduce
I0403 18:23:39.751530 22304 net.cpp:148] Top shape: 24 144 14 14 (677376)
I0403 18:23:39.751549 22304 net.cpp:156] Memory required for data: 1120816416
I0403 18:23:39.751564 22304 layer_factory.hpp:77] Creating layer inception_4d/3x3
I0403 18:23:39.751586 22304 net.cpp:91] Creating Layer inception_4d/3x3
I0403 18:23:39.751603 22304 net.cpp:425] inception_4d/3x3 <- inception_4d/3x3_reduce
I0403 18:23:39.751624 22304 net.cpp:399] inception_4d/3x3 -> inception_4d/3x3
I0403 18:23:39.755928 22304 net.cpp:141] Setting up inception_4d/3x3
I0403 18:23:39.755960 22304 net.cpp:148] Top shape: 24 288 14 14 (1354752)
I0403 18:23:39.755977 22304 net.cpp:156] Memory required for data: 1126235424
I0403 18:23:39.755996 22304 layer_factory.hpp:77] Creating layer inception_4d/relu_3x3
I0403 18:23:39.756014 22304 net.cpp:91] Creating Layer inception_4d/relu_3x3
I0403 18:23:39.756031 22304 net.cpp:425] inception_4d/relu_3x3 <- inception_4d/3x3
I0403 18:23:39.756047 22304 net.cpp:386] inception_4d/relu_3x3 -> inception_4d/3x3 (in-place)
I0403 18:23:39.756233 22304 net.cpp:141] Setting up inception_4d/relu_3x3
I0403 18:23:39.756258 22304 net.cpp:148] Top shape: 24 288 14 14 (1354752)
I0403 18:23:39.756273 22304 net.cpp:156] Memory required for data: 1131654432
I0403 18:23:39.756288 22304 layer_factory.hpp:77] Creating layer inception_4d/5x5_reduce
I0403 18:23:39.756309 22304 net.cpp:91] Creating Layer inception_4d/5x5_reduce
I0403 18:23:39.756326 22304 net.cpp:425] inception_4d/5x5_reduce <- inception_4c/output_inception_4c/output_0_split_2
I0403 18:23:39.756348 22304 net.cpp:399] inception_4d/5x5_reduce -> inception_4d/5x5_reduce
I0403 18:23:39.757501 22304 net.cpp:141] Setting up inception_4d/5x5_reduce
I0403 18:23:39.757530 22304 net.cpp:148] Top shape: 24 32 14 14 (150528)
I0403 18:23:39.757552 22304 net.cpp:156] Memory required for data: 1132256544
I0403 18:23:39.757570 22304 layer_factory.hpp:77] Creating layer inception_4d/relu_5x5_reduce
I0403 18:23:39.757588 22304 net.cpp:91] Creating Layer inception_4d/relu_5x5_reduce
I0403 18:23:39.757604 22304 net.cpp:425] inception_4d/relu_5x5_reduce <- inception_4d/5x5_reduce
I0403 18:23:39.757623 22304 net.cpp:386] inception_4d/relu_5x5_reduce -> inception_4d/5x5_reduce (in-place)
I0403 18:23:39.757812 22304 net.cpp:141] Setting up inception_4d/relu_5x5_reduce
I0403 18:23:39.757836 22304 net.cpp:148] Top shape: 24 32 14 14 (150528)
I0403 18:23:39.757850 22304 net.cpp:156] Memory required for data: 1132858656
I0403 18:23:39.757864 22304 layer_factory.hpp:77] Creating layer inception_4d/5x5
I0403 18:23:39.757886 22304 net.cpp:91] Creating Layer inception_4d/5x5
I0403 18:23:39.757905 22304 net.cpp:425] inception_4d/5x5 <- inception_4d/5x5_reduce
I0403 18:23:39.757925 22304 net.cpp:399] inception_4d/5x5 -> inception_4d/5x5
I0403 18:23:39.759405 22304 net.cpp:141] Setting up inception_4d/5x5
I0403 18:23:39.759433 22304 net.cpp:148] Top shape: 24 64 14 14 (301056)
I0403 18:23:39.759449 22304 net.cpp:156] Memory required for data: 1134062880
I0403 18:23:39.759467 22304 layer_factory.hpp:77] Creating layer inception_4d/relu_5x5
I0403 18:23:39.759500 22304 net.cpp:91] Creating Layer inception_4d/relu_5x5
I0403 18:23:39.759517 22304 net.cpp:425] inception_4d/relu_5x5 <- inception_4d/5x5
I0403 18:23:39.759541 22304 net.cpp:386] inception_4d/relu_5x5 -> inception_4d/5x5 (in-place)
I0403 18:23:39.759848 22304 net.cpp:141] Setting up inception_4d/relu_5x5
I0403 18:23:39.759874 22304 net.cpp:148] Top shape: 24 64 14 14 (301056)
I0403 18:23:39.759889 22304 net.cpp:156] Memory required for data: 1135267104
I0403 18:23:39.759903 22304 layer_factory.hpp:77] Creating layer inception_4d/pool
I0403 18:23:39.759922 22304 net.cpp:91] Creating Layer inception_4d/pool
I0403 18:23:39.759937 22304 net.cpp:425] inception_4d/pool <- inception_4c/output_inception_4c/output_0_split_3
I0403 18:23:39.759956 22304 net.cpp:399] inception_4d/pool -> inception_4d/pool
I0403 18:23:39.760023 22304 net.cpp:141] Setting up inception_4d/pool
I0403 18:23:39.760046 22304 net.cpp:148] Top shape: 24 512 14 14 (2408448)
I0403 18:23:39.760061 22304 net.cpp:156] Memory required for data: 1144900896
I0403 18:23:39.760074 22304 layer_factory.hpp:77] Creating layer inception_4d/pool_proj
I0403 18:23:39.760097 22304 net.cpp:91] Creating Layer inception_4d/pool_proj
I0403 18:23:39.760115 22304 net.cpp:425] inception_4d/pool_proj <- inception_4d/pool
I0403 18:23:39.760133 22304 net.cpp:399] inception_4d/pool_proj -> inception_4d/pool_proj
I0403 18:23:39.761965 22304 net.cpp:141] Setting up inception_4d/pool_proj
I0403 18:23:39.761996 22304 net.cpp:148] Top shape: 24 64 14 14 (301056)
I0403 18:23:39.762012 22304 net.cpp:156] Memory required for data: 1146105120
I0403 18:23:39.762030 22304 layer_factory.hpp:77] Creating layer inception_4d/relu_pool_proj
I0403 18:23:39.762048 22304 net.cpp:91] Creating Layer inception_4d/relu_pool_proj
I0403 18:23:39.762063 22304 net.cpp:425] inception_4d/relu_pool_proj <- inception_4d/pool_proj
I0403 18:23:39.762080 22304 net.cpp:386] inception_4d/relu_pool_proj -> inception_4d/pool_proj (in-place)
I0403 18:23:39.762271 22304 net.cpp:141] Setting up inception_4d/relu_pool_proj
I0403 18:23:39.762298 22304 net.cpp:148] Top shape: 24 64 14 14 (301056)
I0403 18:23:39.762312 22304 net.cpp:156] Memory required for data: 1147309344
I0403 18:23:39.762327 22304 layer_factory.hpp:77] Creating layer inception_4d/output
I0403 18:23:39.762344 22304 net.cpp:91] Creating Layer inception_4d/output
I0403 18:23:39.762358 22304 net.cpp:425] inception_4d/output <- inception_4d/1x1
I0403 18:23:39.762374 22304 net.cpp:425] inception_4d/output <- inception_4d/3x3
I0403 18:23:39.762392 22304 net.cpp:425] inception_4d/output <- inception_4d/5x5
I0403 18:23:39.762406 22304 net.cpp:425] inception_4d/output <- inception_4d/pool_proj
I0403 18:23:39.762426 22304 net.cpp:399] inception_4d/output -> inception_4d/output
I0403 18:23:39.762473 22304 net.cpp:141] Setting up inception_4d/output
I0403 18:23:39.762500 22304 net.cpp:148] Top shape: 24 528 14 14 (2483712)
I0403 18:23:39.762513 22304 net.cpp:156] Memory required for data: 1157244192
I0403 18:23:39.762528 22304 layer_factory.hpp:77] Creating layer inception_4d/output_inception_4d/output_0_split
I0403 18:23:39.762550 22304 net.cpp:91] Creating Layer inception_4d/output_inception_4d/output_0_split
I0403 18:23:39.762567 22304 net.cpp:425] inception_4d/output_inception_4d/output_0_split <- inception_4d/output
I0403 18:23:39.762588 22304 net.cpp:399] inception_4d/output_inception_4d/output_0_split -> inception_4d/output_inception_4d/output_0_split_0
I0403 18:23:39.762609 22304 net.cpp:399] inception_4d/output_inception_4d/output_0_split -> inception_4d/output_inception_4d/output_0_split_1
I0403 18:23:39.762630 22304 net.cpp:399] inception_4d/output_inception_4d/output_0_split -> inception_4d/output_inception_4d/output_0_split_2
I0403 18:23:39.762650 22304 net.cpp:399] inception_4d/output_inception_4d/output_0_split -> inception_4d/output_inception_4d/output_0_split_3
I0403 18:23:39.762670 22304 net.cpp:399] inception_4d/output_inception_4d/output_0_split -> inception_4d/output_inception_4d/output_0_split_4
I0403 18:23:39.762771 22304 net.cpp:141] Setting up inception_4d/output_inception_4d/output_0_split
I0403 18:23:39.762806 22304 net.cpp:148] Top shape: 24 528 14 14 (2483712)
I0403 18:23:39.762823 22304 net.cpp:148] Top shape: 24 528 14 14 (2483712)
I0403 18:23:39.762838 22304 net.cpp:148] Top shape: 24 528 14 14 (2483712)
I0403 18:23:39.762853 22304 net.cpp:148] Top shape: 24 528 14 14 (2483712)
I0403 18:23:39.762869 22304 net.cpp:148] Top shape: 24 528 14 14 (2483712)
I0403 18:23:39.762882 22304 net.cpp:156] Memory required for data: 1206918432
I0403 18:23:39.762897 22304 layer_factory.hpp:77] Creating layer loss2/ave_pool
I0403 18:23:39.762917 22304 net.cpp:91] Creating Layer loss2/ave_pool
I0403 18:23:39.762933 22304 net.cpp:425] loss2/ave_pool <- inception_4d/output_inception_4d/output_0_split_0
I0403 18:23:39.762950 22304 net.cpp:399] loss2/ave_pool -> loss2/ave_pool
I0403 18:23:39.763267 22304 net.cpp:141] Setting up loss2/ave_pool
I0403 18:23:39.763296 22304 net.cpp:148] Top shape: 24 528 4 4 (202752)
I0403 18:23:39.763312 22304 net.cpp:156] Memory required for data: 1207729440
I0403 18:23:39.763326 22304 layer_factory.hpp:77] Creating layer loss2/conv
I0403 18:23:39.763348 22304 net.cpp:91] Creating Layer loss2/conv
I0403 18:23:39.763365 22304 net.cpp:425] loss2/conv <- loss2/ave_pool
I0403 18:23:39.763384 22304 net.cpp:399] loss2/conv -> loss2/conv
I0403 18:23:39.765314 22304 net.cpp:141] Setting up loss2/conv
I0403 18:23:39.765342 22304 net.cpp:148] Top shape: 24 128 4 4 (49152)
I0403 18:23:39.765358 22304 net.cpp:156] Memory required for data: 1207926048
I0403 18:23:39.765377 22304 layer_factory.hpp:77] Creating layer loss2/relu_conv
I0403 18:23:39.765396 22304 net.cpp:91] Creating Layer loss2/relu_conv
I0403 18:23:39.765414 22304 net.cpp:425] loss2/relu_conv <- loss2/conv
I0403 18:23:39.765431 22304 net.cpp:386] loss2/relu_conv -> loss2/conv (in-place)
I0403 18:23:39.765720 22304 net.cpp:141] Setting up loss2/relu_conv
I0403 18:23:39.765748 22304 net.cpp:148] Top shape: 24 128 4 4 (49152)
I0403 18:23:39.765763 22304 net.cpp:156] Memory required for data: 1208122656
I0403 18:23:39.765777 22304 layer_factory.hpp:77] Creating layer loss2/fc
I0403 18:23:39.765799 22304 net.cpp:91] Creating Layer loss2/fc
I0403 18:23:39.765816 22304 net.cpp:425] loss2/fc <- loss2/conv
I0403 18:23:39.765836 22304 net.cpp:399] loss2/fc -> loss2/fc
I0403 18:23:39.783179 22304 net.cpp:141] Setting up loss2/fc
I0403 18:23:39.783210 22304 net.cpp:148] Top shape: 24 1024 (24576)
I0403 18:23:39.783226 22304 net.cpp:156] Memory required for data: 1208220960
I0403 18:23:39.783243 22304 layer_factory.hpp:77] Creating layer loss2/relu_fc
I0403 18:23:39.783262 22304 net.cpp:91] Creating Layer loss2/relu_fc
I0403 18:23:39.783277 22304 net.cpp:425] loss2/relu_fc <- loss2/fc
I0403 18:23:39.783298 22304 net.cpp:386] loss2/relu_fc -> loss2/fc (in-place)
I0403 18:23:39.783592 22304 net.cpp:141] Setting up loss2/relu_fc
I0403 18:23:39.783619 22304 net.cpp:148] Top shape: 24 1024 (24576)
I0403 18:23:39.783635 22304 net.cpp:156] Memory required for data: 1208319264
I0403 18:23:39.783649 22304 layer_factory.hpp:77] Creating layer loss2/drop_fc
I0403 18:23:39.783666 22304 net.cpp:91] Creating Layer loss2/drop_fc
I0403 18:23:39.783681 22304 net.cpp:425] loss2/drop_fc <- loss2/fc
I0403 18:23:39.783700 22304 net.cpp:386] loss2/drop_fc -> loss2/fc (in-place)
I0403 18:23:39.783748 22304 net.cpp:141] Setting up loss2/drop_fc
I0403 18:23:39.783771 22304 net.cpp:148] Top shape: 24 1024 (24576)
I0403 18:23:39.783784 22304 net.cpp:156] Memory required for data: 1208417568
I0403 18:23:39.783798 22304 layer_factory.hpp:77] Creating layer loss2/classifier_plantvillage
I0403 18:23:39.783818 22304 net.cpp:91] Creating Layer loss2/classifier_plantvillage
I0403 18:23:39.783835 22304 net.cpp:425] loss2/classifier_plantvillage <- loss2/fc
I0403 18:23:39.783854 22304 net.cpp:399] loss2/classifier_plantvillage -> loss2/classifier_plantvillage
I0403 18:23:39.784245 22304 net.cpp:141] Setting up loss2/classifier_plantvillage
I0403 18:23:39.784270 22304 net.cpp:148] Top shape: 24 38 (912)
I0403 18:23:39.784302 22304 net.cpp:156] Memory required for data: 1208421216
I0403 18:23:39.784322 22304 layer_factory.hpp:77] Creating layer loss2/classifier_plantvillage_loss2/classifier_plantvillage_0_split
I0403 18:23:39.784340 22304 net.cpp:91] Creating Layer loss2/classifier_plantvillage_loss2/classifier_plantvillage_0_split
I0403 18:23:39.784356 22304 net.cpp:425] loss2/classifier_plantvillage_loss2/classifier_plantvillage_0_split <- loss2/classifier_plantvillage
I0403 18:23:39.784373 22304 net.cpp:399] loss2/classifier_plantvillage_loss2/classifier_plantvillage_0_split -> loss2/classifier_plantvillage_loss2/classifier_plantvillage_0_split_0
I0403 18:23:39.784392 22304 net.cpp:399] loss2/classifier_plantvillage_loss2/classifier_plantvillage_0_split -> loss2/classifier_plantvillage_loss2/classifier_plantvillage_0_split_1
I0403 18:23:39.784412 22304 net.cpp:399] loss2/classifier_plantvillage_loss2/classifier_plantvillage_0_split -> loss2/classifier_plantvillage_loss2/classifier_plantvillage_0_split_2
I0403 18:23:39.784488 22304 net.cpp:141] Setting up loss2/classifier_plantvillage_loss2/classifier_plantvillage_0_split
I0403 18:23:39.784510 22304 net.cpp:148] Top shape: 24 38 (912)
I0403 18:23:39.784525 22304 net.cpp:148] Top shape: 24 38 (912)
I0403 18:23:39.784550 22304 net.cpp:148] Top shape: 24 38 (912)
I0403 18:23:39.784566 22304 net.cpp:156] Memory required for data: 1208432160
I0403 18:23:39.784580 22304 layer_factory.hpp:77] Creating layer inception_4e/1x1
I0403 18:23:39.784600 22304 net.cpp:91] Creating Layer inception_4e/1x1
I0403 18:23:39.784615 22304 net.cpp:425] inception_4e/1x1 <- inception_4d/output_inception_4d/output_0_split_1
I0403 18:23:39.784636 22304 net.cpp:399] inception_4e/1x1 -> inception_4e/1x1
I0403 18:23:39.786412 22304 net.cpp:141] Setting up inception_4e/1x1
I0403 18:23:39.786438 22304 net.cpp:148] Top shape: 24 256 14 14 (1204224)
I0403 18:23:39.786453 22304 net.cpp:156] Memory required for data: 1213249056
I0403 18:23:39.786470 22304 layer_factory.hpp:77] Creating layer inception_4e/relu_1x1
I0403 18:23:39.786490 22304 net.cpp:91] Creating Layer inception_4e/relu_1x1
I0403 18:23:39.786507 22304 net.cpp:425] inception_4e/relu_1x1 <- inception_4e/1x1
I0403 18:23:39.786523 22304 net.cpp:386] inception_4e/relu_1x1 -> inception_4e/1x1 (in-place)
I0403 18:23:39.786816 22304 net.cpp:141] Setting up inception_4e/relu_1x1
I0403 18:23:39.786841 22304 net.cpp:148] Top shape: 24 256 14 14 (1204224)
I0403 18:23:39.786856 22304 net.cpp:156] Memory required for data: 1218065952
I0403 18:23:39.786871 22304 layer_factory.hpp:77] Creating layer inception_4e/3x3_reduce
I0403 18:23:39.786892 22304 net.cpp:91] Creating Layer inception_4e/3x3_reduce
I0403 18:23:39.786908 22304 net.cpp:425] inception_4e/3x3_reduce <- inception_4d/output_inception_4d/output_0_split_2
I0403 18:23:39.786929 22304 net.cpp:399] inception_4e/3x3_reduce -> inception_4e/3x3_reduce
I0403 18:23:39.789012 22304 net.cpp:141] Setting up inception_4e/3x3_reduce
I0403 18:23:39.789041 22304 net.cpp:148] Top shape: 24 160 14 14 (752640)
I0403 18:23:39.789057 22304 net.cpp:156] Memory required for data: 1221076512
I0403 18:23:39.789073 22304 layer_factory.hpp:77] Creating layer inception_4e/relu_3x3_reduce
I0403 18:23:39.789091 22304 net.cpp:91] Creating Layer inception_4e/relu_3x3_reduce
I0403 18:23:39.789109 22304 net.cpp:425] inception_4e/relu_3x3_reduce <- inception_4e/3x3_reduce
I0403 18:23:39.789126 22304 net.cpp:386] inception_4e/relu_3x3_reduce -> inception_4e/3x3_reduce (in-place)
I0403 18:23:39.789310 22304 net.cpp:141] Setting up inception_4e/relu_3x3_reduce
I0403 18:23:39.789335 22304 net.cpp:148] Top shape: 24 160 14 14 (752640)
I0403 18:23:39.789350 22304 net.cpp:156] Memory required for data: 1224087072
I0403 18:23:39.789363 22304 layer_factory.hpp:77] Creating layer inception_4e/3x3
I0403 18:23:39.789384 22304 net.cpp:91] Creating Layer inception_4e/3x3
I0403 18:23:39.789402 22304 net.cpp:425] inception_4e/3x3 <- inception_4e/3x3_reduce
I0403 18:23:39.789422 22304 net.cpp:399] inception_4e/3x3 -> inception_4e/3x3
I0403 18:23:39.794313 22304 net.cpp:141] Setting up inception_4e/3x3
I0403 18:23:39.794354 22304 net.cpp:148] Top shape: 24 320 14 14 (1505280)
I0403 18:23:39.794370 22304 net.cpp:156] Memory required for data: 1230108192
I0403 18:23:39.794387 22304 layer_factory.hpp:77] Creating layer inception_4e/relu_3x3
I0403 18:23:39.794407 22304 net.cpp:91] Creating Layer inception_4e/relu_3x3
I0403 18:23:39.794423 22304 net.cpp:425] inception_4e/relu_3x3 <- inception_4e/3x3
I0403 18:23:39.794440 22304 net.cpp:386] inception_4e/relu_3x3 -> inception_4e/3x3 (in-place)
I0403 18:23:39.794754 22304 net.cpp:141] Setting up inception_4e/relu_3x3
I0403 18:23:39.794780 22304 net.cpp:148] Top shape: 24 320 14 14 (1505280)
I0403 18:23:39.794795 22304 net.cpp:156] Memory required for data: 1236129312
I0403 18:23:39.794808 22304 layer_factory.hpp:77] Creating layer inception_4e/5x5_reduce
I0403 18:23:39.794832 22304 net.cpp:91] Creating Layer inception_4e/5x5_reduce
I0403 18:23:39.794849 22304 net.cpp:425] inception_4e/5x5_reduce <- inception_4d/output_inception_4d/output_0_split_3
I0403 18:23:39.794868 22304 net.cpp:399] inception_4e/5x5_reduce -> inception_4e/5x5_reduce
I0403 18:23:39.795928 22304 net.cpp:141] Setting up inception_4e/5x5_reduce
I0403 18:23:39.795954 22304 net.cpp:148] Top shape: 24 32 14 14 (150528)
I0403 18:23:39.795969 22304 net.cpp:156] Memory required for data: 1236731424
I0403 18:23:39.795986 22304 layer_factory.hpp:77] Creating layer inception_4e/relu_5x5_reduce
I0403 18:23:39.796003 22304 net.cpp:91] Creating Layer inception_4e/relu_5x5_reduce
I0403 18:23:39.796020 22304 net.cpp:425] inception_4e/relu_5x5_reduce <- inception_4e/5x5_reduce
I0403 18:23:39.796037 22304 net.cpp:386] inception_4e/relu_5x5_reduce -> inception_4e/5x5_reduce (in-place)
I0403 18:23:39.796327 22304 net.cpp:141] Setting up inception_4e/relu_5x5_reduce
I0403 18:23:39.796352 22304 net.cpp:148] Top shape: 24 32 14 14 (150528)
I0403 18:23:39.796367 22304 net.cpp:156] Memory required for data: 1237333536
I0403 18:23:39.796381 22304 layer_factory.hpp:77] Creating layer inception_4e/5x5
I0403 18:23:39.796418 22304 net.cpp:91] Creating Layer inception_4e/5x5
I0403 18:23:39.796437 22304 net.cpp:425] inception_4e/5x5 <- inception_4e/5x5_reduce
I0403 18:23:39.796455 22304 net.cpp:399] inception_4e/5x5 -> inception_4e/5x5
I0403 18:23:39.798254 22304 net.cpp:141] Setting up inception_4e/5x5
I0403 18:23:39.798283 22304 net.cpp:148] Top shape: 24 128 14 14 (602112)
I0403 18:23:39.798300 22304 net.cpp:156] Memory required for data: 1239741984
I0403 18:23:39.798318 22304 layer_factory.hpp:77] Creating layer inception_4e/relu_5x5
I0403 18:23:39.798336 22304 net.cpp:91] Creating Layer inception_4e/relu_5x5
I0403 18:23:39.798351 22304 net.cpp:425] inception_4e/relu_5x5 <- inception_4e/5x5
I0403 18:23:39.798368 22304 net.cpp:386] inception_4e/relu_5x5 -> inception_4e/5x5 (in-place)
I0403 18:23:39.798568 22304 net.cpp:141] Setting up inception_4e/relu_5x5
I0403 18:23:39.798593 22304 net.cpp:148] Top shape: 24 128 14 14 (602112)
I0403 18:23:39.798607 22304 net.cpp:156] Memory required for data: 1242150432
I0403 18:23:39.798621 22304 layer_factory.hpp:77] Creating layer inception_4e/pool
I0403 18:23:39.798640 22304 net.cpp:91] Creating Layer inception_4e/pool
I0403 18:23:39.798656 22304 net.cpp:425] inception_4e/pool <- inception_4d/output_inception_4d/output_0_split_4
I0403 18:23:39.798674 22304 net.cpp:399] inception_4e/pool -> inception_4e/pool
I0403 18:23:39.798743 22304 net.cpp:141] Setting up inception_4e/pool
I0403 18:23:39.798764 22304 net.cpp:148] Top shape: 24 528 14 14 (2483712)
I0403 18:23:39.798779 22304 net.cpp:156] Memory required for data: 1252085280
I0403 18:23:39.798792 22304 layer_factory.hpp:77] Creating layer inception_4e/pool_proj
I0403 18:23:39.798813 22304 net.cpp:91] Creating Layer inception_4e/pool_proj
I0403 18:23:39.798830 22304 net.cpp:425] inception_4e/pool_proj <- inception_4e/pool
I0403 18:23:39.798849 22304 net.cpp:399] inception_4e/pool_proj -> inception_4e/pool_proj
I0403 18:23:39.800326 22304 net.cpp:141] Setting up inception_4e/pool_proj
I0403 18:23:39.800367 22304 net.cpp:148] Top shape: 24 128 14 14 (602112)
I0403 18:23:39.800384 22304 net.cpp:156] Memory required for data: 1254493728
I0403 18:23:39.800401 22304 layer_factory.hpp:77] Creating layer inception_4e/relu_pool_proj
I0403 18:23:39.800420 22304 net.cpp:91] Creating Layer inception_4e/relu_pool_proj
I0403 18:23:39.800434 22304 net.cpp:425] inception_4e/relu_pool_proj <- inception_4e/pool_proj
I0403 18:23:39.800451 22304 net.cpp:386] inception_4e/relu_pool_proj -> inception_4e/pool_proj (in-place)
I0403 18:23:39.800742 22304 net.cpp:141] Setting up inception_4e/relu_pool_proj
I0403 18:23:39.800770 22304 net.cpp:148] Top shape: 24 128 14 14 (602112)
I0403 18:23:39.800786 22304 net.cpp:156] Memory required for data: 1256902176
I0403 18:23:39.800801 22304 layer_factory.hpp:77] Creating layer inception_4e/output
I0403 18:23:39.800817 22304 net.cpp:91] Creating Layer inception_4e/output
I0403 18:23:39.800832 22304 net.cpp:425] inception_4e/output <- inception_4e/1x1
I0403 18:23:39.800846 22304 net.cpp:425] inception_4e/output <- inception_4e/3x3
I0403 18:23:39.800863 22304 net.cpp:425] inception_4e/output <- inception_4e/5x5
I0403 18:23:39.800878 22304 net.cpp:425] inception_4e/output <- inception_4e/pool_proj
I0403 18:23:39.800894 22304 net.cpp:399] inception_4e/output -> inception_4e/output
I0403 18:23:39.800942 22304 net.cpp:141] Setting up inception_4e/output
I0403 18:23:39.800966 22304 net.cpp:148] Top shape: 24 832 14 14 (3913728)
I0403 18:23:39.800978 22304 net.cpp:156] Memory required for data: 1272557088
I0403 18:23:39.800992 22304 layer_factory.hpp:77] Creating layer pool4/3x3_s2
I0403 18:23:39.801012 22304 net.cpp:91] Creating Layer pool4/3x3_s2
I0403 18:23:39.801026 22304 net.cpp:425] pool4/3x3_s2 <- inception_4e/output
I0403 18:23:39.801043 22304 net.cpp:399] pool4/3x3_s2 -> pool4/3x3_s2
I0403 18:23:39.801110 22304 net.cpp:141] Setting up pool4/3x3_s2
I0403 18:23:39.801131 22304 net.cpp:148] Top shape: 24 832 7 7 (978432)
I0403 18:23:39.801146 22304 net.cpp:156] Memory required for data: 1276470816
I0403 18:23:39.801159 22304 layer_factory.hpp:77] Creating layer pool4/3x3_s2_pool4/3x3_s2_0_split
I0403 18:23:39.801175 22304 net.cpp:91] Creating Layer pool4/3x3_s2_pool4/3x3_s2_0_split
I0403 18:23:39.801190 22304 net.cpp:425] pool4/3x3_s2_pool4/3x3_s2_0_split <- pool4/3x3_s2
I0403 18:23:39.801208 22304 net.cpp:399] pool4/3x3_s2_pool4/3x3_s2_0_split -> pool4/3x3_s2_pool4/3x3_s2_0_split_0
I0403 18:23:39.801229 22304 net.cpp:399] pool4/3x3_s2_pool4/3x3_s2_0_split -> pool4/3x3_s2_pool4/3x3_s2_0_split_1
I0403 18:23:39.801249 22304 net.cpp:399] pool4/3x3_s2_pool4/3x3_s2_0_split -> pool4/3x3_s2_pool4/3x3_s2_0_split_2
I0403 18:23:39.801267 22304 net.cpp:399] pool4/3x3_s2_pool4/3x3_s2_0_split -> pool4/3x3_s2_pool4/3x3_s2_0_split_3
I0403 18:23:39.801358 22304 net.cpp:141] Setting up pool4/3x3_s2_pool4/3x3_s2_0_split
I0403 18:23:39.801383 22304 net.cpp:148] Top shape: 24 832 7 7 (978432)
I0403 18:23:39.801399 22304 net.cpp:148] Top shape: 24 832 7 7 (978432)
I0403 18:23:39.801414 22304 net.cpp:148] Top shape: 24 832 7 7 (978432)
I0403 18:23:39.801429 22304 net.cpp:148] Top shape: 24 832 7 7 (978432)
I0403 18:23:39.801441 22304 net.cpp:156] Memory required for data: 1292125728
I0403 18:23:39.801455 22304 layer_factory.hpp:77] Creating layer inception_5a/1x1
I0403 18:23:39.801476 22304 net.cpp:91] Creating Layer inception_5a/1x1
I0403 18:23:39.801493 22304 net.cpp:425] inception_5a/1x1 <- pool4/3x3_s2_pool4/3x3_s2_0_split_0
I0403 18:23:39.801512 22304 net.cpp:399] inception_5a/1x1 -> inception_5a/1x1
I0403 18:23:39.804443 22304 net.cpp:141] Setting up inception_5a/1x1
I0403 18:23:39.804473 22304 net.cpp:148] Top shape: 24 256 7 7 (301056)
I0403 18:23:39.804489 22304 net.cpp:156] Memory required for data: 1293329952
I0403 18:23:39.804507 22304 layer_factory.hpp:77] Creating layer inception_5a/relu_1x1
I0403 18:23:39.804525 22304 net.cpp:91] Creating Layer inception_5a/relu_1x1
I0403 18:23:39.804551 22304 net.cpp:425] inception_5a/relu_1x1 <- inception_5a/1x1
I0403 18:23:39.804574 22304 net.cpp:386] inception_5a/relu_1x1 -> inception_5a/1x1 (in-place)
I0403 18:23:39.804893 22304 net.cpp:141] Setting up inception_5a/relu_1x1
I0403 18:23:39.804919 22304 net.cpp:148] Top shape: 24 256 7 7 (301056)
I0403 18:23:39.804934 22304 net.cpp:156] Memory required for data: 1294534176
I0403 18:23:39.804949 22304 layer_factory.hpp:77] Creating layer inception_5a/3x3_reduce
I0403 18:23:39.804970 22304 net.cpp:91] Creating Layer inception_5a/3x3_reduce
I0403 18:23:39.804988 22304 net.cpp:425] inception_5a/3x3_reduce <- pool4/3x3_s2_pool4/3x3_s2_0_split_1
I0403 18:23:39.805009 22304 net.cpp:399] inception_5a/3x3_reduce -> inception_5a/3x3_reduce
I0403 18:23:39.807495 22304 net.cpp:141] Setting up inception_5a/3x3_reduce
I0403 18:23:39.807529 22304 net.cpp:148] Top shape: 24 160 7 7 (188160)
I0403 18:23:39.807550 22304 net.cpp:156] Memory required for data: 1295286816
I0403 18:23:39.807570 22304 layer_factory.hpp:77] Creating layer inception_5a/relu_3x3_reduce
I0403 18:23:39.807588 22304 net.cpp:91] Creating Layer inception_5a/relu_3x3_reduce
I0403 18:23:39.807605 22304 net.cpp:425] inception_5a/relu_3x3_reduce <- inception_5a/3x3_reduce
I0403 18:23:39.807621 22304 net.cpp:386] inception_5a/relu_3x3_reduce -> inception_5a/3x3_reduce (in-place)
I0403 18:23:39.807808 22304 net.cpp:141] Setting up inception_5a/relu_3x3_reduce
I0403 18:23:39.807835 22304 net.cpp:148] Top shape: 24 160 7 7 (188160)
I0403 18:23:39.807850 22304 net.cpp:156] Memory required for data: 1296039456
I0403 18:23:39.807864 22304 layer_factory.hpp:77] Creating layer inception_5a/3x3
I0403 18:23:39.807885 22304 net.cpp:91] Creating Layer inception_5a/3x3
I0403 18:23:39.807903 22304 net.cpp:425] inception_5a/3x3 <- inception_5a/3x3_reduce
I0403 18:23:39.807921 22304 net.cpp:399] inception_5a/3x3 -> inception_5a/3x3
I0403 18:23:39.813007 22304 net.cpp:141] Setting up inception_5a/3x3
I0403 18:23:39.813036 22304 net.cpp:148] Top shape: 24 320 7 7 (376320)
I0403 18:23:39.813052 22304 net.cpp:156] Memory required for data: 1297544736
I0403 18:23:39.813071 22304 layer_factory.hpp:77] Creating layer inception_5a/relu_3x3
I0403 18:23:39.813088 22304 net.cpp:91] Creating Layer inception_5a/relu_3x3
I0403 18:23:39.813105 22304 net.cpp:425] inception_5a/relu_3x3 <- inception_5a/3x3
I0403 18:23:39.813129 22304 net.cpp:386] inception_5a/relu_3x3 -> inception_5a/3x3 (in-place)
I0403 18:23:39.813428 22304 net.cpp:141] Setting up inception_5a/relu_3x3
I0403 18:23:39.813454 22304 net.cpp:148] Top shape: 24 320 7 7 (376320)
I0403 18:23:39.813469 22304 net.cpp:156] Memory required for data: 1299050016
I0403 18:23:39.813483 22304 layer_factory.hpp:77] Creating layer inception_5a/5x5_reduce
I0403 18:23:39.813505 22304 net.cpp:91] Creating Layer inception_5a/5x5_reduce
I0403 18:23:39.813524 22304 net.cpp:425] inception_5a/5x5_reduce <- pool4/3x3_s2_pool4/3x3_s2_0_split_2
I0403 18:23:39.813549 22304 net.cpp:399] inception_5a/5x5_reduce -> inception_5a/5x5_reduce
I0403 18:23:39.814743 22304 net.cpp:141] Setting up inception_5a/5x5_reduce
I0403 18:23:39.814772 22304 net.cpp:148] Top shape: 24 32 7 7 (37632)
I0403 18:23:39.814788 22304 net.cpp:156] Memory required for data: 1299200544
I0403 18:23:39.814806 22304 layer_factory.hpp:77] Creating layer inception_5a/relu_5x5_reduce
I0403 18:23:39.814827 22304 net.cpp:91] Creating Layer inception_5a/relu_5x5_reduce
I0403 18:23:39.814844 22304 net.cpp:425] inception_5a/relu_5x5_reduce <- inception_5a/5x5_reduce
I0403 18:23:39.814862 22304 net.cpp:386] inception_5a/relu_5x5_reduce -> inception_5a/5x5_reduce (in-place)
I0403 18:23:39.815161 22304 net.cpp:141] Setting up inception_5a/relu_5x5_reduce
I0403 18:23:39.815187 22304 net.cpp:148] Top shape: 24 32 7 7 (37632)
I0403 18:23:39.815201 22304 net.cpp:156] Memory required for data: 1299351072
I0403 18:23:39.815217 22304 layer_factory.hpp:77] Creating layer inception_5a/5x5
I0403 18:23:39.815238 22304 net.cpp:91] Creating Layer inception_5a/5x5
I0403 18:23:39.815255 22304 net.cpp:425] inception_5a/5x5 <- inception_5a/5x5_reduce
I0403 18:23:39.815275 22304 net.cpp:399] inception_5a/5x5 -> inception_5a/5x5
I0403 18:23:39.817013 22304 net.cpp:141] Setting up inception_5a/5x5
I0403 18:23:39.817052 22304 net.cpp:148] Top shape: 24 128 7 7 (150528)
I0403 18:23:39.817068 22304 net.cpp:156] Memory required for data: 1299953184
I0403 18:23:39.817086 22304 layer_factory.hpp:77] Creating layer inception_5a/relu_5x5
I0403 18:23:39.817104 22304 net.cpp:91] Creating Layer inception_5a/relu_5x5
I0403 18:23:39.817121 22304 net.cpp:425] inception_5a/relu_5x5 <- inception_5a/5x5
I0403 18:23:39.817139 22304 net.cpp:386] inception_5a/relu_5x5 -> inception_5a/5x5 (in-place)
I0403 18:23:39.817337 22304 net.cpp:141] Setting up inception_5a/relu_5x5
I0403 18:23:39.817363 22304 net.cpp:148] Top shape: 24 128 7 7 (150528)
I0403 18:23:39.817376 22304 net.cpp:156] Memory required for data: 1300555296
I0403 18:23:39.817391 22304 layer_factory.hpp:77] Creating layer inception_5a/pool
I0403 18:23:39.817410 22304 net.cpp:91] Creating Layer inception_5a/pool
I0403 18:23:39.817427 22304 net.cpp:425] inception_5a/pool <- pool4/3x3_s2_pool4/3x3_s2_0_split_3
I0403 18:23:39.817445 22304 net.cpp:399] inception_5a/pool -> inception_5a/pool
I0403 18:23:39.817517 22304 net.cpp:141] Setting up inception_5a/pool
I0403 18:23:39.817543 22304 net.cpp:148] Top shape: 24 832 7 7 (978432)
I0403 18:23:39.817560 22304 net.cpp:156] Memory required for data: 1304469024
I0403 18:23:39.817574 22304 layer_factory.hpp:77] Creating layer inception_5a/pool_proj
I0403 18:23:39.817596 22304 net.cpp:91] Creating Layer inception_5a/pool_proj
I0403 18:23:39.817615 22304 net.cpp:425] inception_5a/pool_proj <- inception_5a/pool
I0403 18:23:39.817636 22304 net.cpp:399] inception_5a/pool_proj -> inception_5a/pool_proj
I0403 18:23:39.820013 22304 net.cpp:141] Setting up inception_5a/pool_proj
I0403 18:23:39.820044 22304 net.cpp:148] Top shape: 24 128 7 7 (150528)
I0403 18:23:39.820061 22304 net.cpp:156] Memory required for data: 1305071136
I0403 18:23:39.820078 22304 layer_factory.hpp:77] Creating layer inception_5a/relu_pool_proj
I0403 18:23:39.820096 22304 net.cpp:91] Creating Layer inception_5a/relu_pool_proj
I0403 18:23:39.820112 22304 net.cpp:425] inception_5a/relu_pool_proj <- inception_5a/pool_proj
I0403 18:23:39.820132 22304 net.cpp:386] inception_5a/relu_pool_proj -> inception_5a/pool_proj (in-place)
I0403 18:23:39.820422 22304 net.cpp:141] Setting up inception_5a/relu_pool_proj
I0403 18:23:39.820452 22304 net.cpp:148] Top shape: 24 128 7 7 (150528)
I0403 18:23:39.820468 22304 net.cpp:156] Memory required for data: 1305673248
I0403 18:23:39.820483 22304 layer_factory.hpp:77] Creating layer inception_5a/output
I0403 18:23:39.820499 22304 net.cpp:91] Creating Layer inception_5a/output
I0403 18:23:39.820514 22304 net.cpp:425] inception_5a/output <- inception_5a/1x1
I0403 18:23:39.820529 22304 net.cpp:425] inception_5a/output <- inception_5a/3x3
I0403 18:23:39.820550 22304 net.cpp:425] inception_5a/output <- inception_5a/5x5
I0403 18:23:39.820567 22304 net.cpp:425] inception_5a/output <- inception_5a/pool_proj
I0403 18:23:39.820585 22304 net.cpp:399] inception_5a/output -> inception_5a/output
I0403 18:23:39.820636 22304 net.cpp:141] Setting up inception_5a/output
I0403 18:23:39.820657 22304 net.cpp:148] Top shape: 24 832 7 7 (978432)
I0403 18:23:39.820672 22304 net.cpp:156] Memory required for data: 1309586976
I0403 18:23:39.820686 22304 layer_factory.hpp:77] Creating layer inception_5a/output_inception_5a/output_0_split
I0403 18:23:39.820705 22304 net.cpp:91] Creating Layer inception_5a/output_inception_5a/output_0_split
I0403 18:23:39.820721 22304 net.cpp:425] inception_5a/output_inception_5a/output_0_split <- inception_5a/output
I0403 18:23:39.820739 22304 net.cpp:399] inception_5a/output_inception_5a/output_0_split -> inception_5a/output_inception_5a/output_0_split_0
I0403 18:23:39.820758 22304 net.cpp:399] inception_5a/output_inception_5a/output_0_split -> inception_5a/output_inception_5a/output_0_split_1
I0403 18:23:39.820777 22304 net.cpp:399] inception_5a/output_inception_5a/output_0_split -> inception_5a/output_inception_5a/output_0_split_2
I0403 18:23:39.820801 22304 net.cpp:399] inception_5a/output_inception_5a/output_0_split -> inception_5a/output_inception_5a/output_0_split_3
I0403 18:23:39.820910 22304 net.cpp:141] Setting up inception_5a/output_inception_5a/output_0_split
I0403 18:23:39.820933 22304 net.cpp:148] Top shape: 24 832 7 7 (978432)
I0403 18:23:39.820948 22304 net.cpp:148] Top shape: 24 832 7 7 (978432)
I0403 18:23:39.820963 22304 net.cpp:148] Top shape: 24 832 7 7 (978432)
I0403 18:23:39.820977 22304 net.cpp:148] Top shape: 24 832 7 7 (978432)
I0403 18:23:39.820991 22304 net.cpp:156] Memory required for data: 1325241888
I0403 18:23:39.821004 22304 layer_factory.hpp:77] Creating layer inception_5b/1x1
I0403 18:23:39.821025 22304 net.cpp:91] Creating Layer inception_5b/1x1
I0403 18:23:39.821043 22304 net.cpp:425] inception_5b/1x1 <- inception_5a/output_inception_5a/output_0_split_0
I0403 18:23:39.821063 22304 net.cpp:399] inception_5b/1x1 -> inception_5b/1x1
I0403 18:23:39.824759 22304 net.cpp:141] Setting up inception_5b/1x1
I0403 18:23:39.824790 22304 net.cpp:148] Top shape: 24 384 7 7 (451584)
I0403 18:23:39.824805 22304 net.cpp:156] Memory required for data: 1327048224
I0403 18:23:39.824823 22304 layer_factory.hpp:77] Creating layer inception_5b/relu_1x1
I0403 18:23:39.824841 22304 net.cpp:91] Creating Layer inception_5b/relu_1x1
I0403 18:23:39.824856 22304 net.cpp:425] inception_5b/relu_1x1 <- inception_5b/1x1
I0403 18:23:39.824874 22304 net.cpp:386] inception_5b/relu_1x1 -> inception_5b/1x1 (in-place)
I0403 18:23:39.825171 22304 net.cpp:141] Setting up inception_5b/relu_1x1
I0403 18:23:39.825199 22304 net.cpp:148] Top shape: 24 384 7 7 (451584)
I0403 18:23:39.825214 22304 net.cpp:156] Memory required for data: 1328854560
I0403 18:23:39.825228 22304 layer_factory.hpp:77] Creating layer inception_5b/3x3_reduce
I0403 18:23:39.825248 22304 net.cpp:91] Creating Layer inception_5b/3x3_reduce
I0403 18:23:39.825264 22304 net.cpp:425] inception_5b/3x3_reduce <- inception_5a/output_inception_5a/output_0_split_1
I0403 18:23:39.825284 22304 net.cpp:399] inception_5b/3x3_reduce -> inception_5b/3x3_reduce
I0403 18:23:39.827906 22304 net.cpp:141] Setting up inception_5b/3x3_reduce
I0403 18:23:39.827937 22304 net.cpp:148] Top shape: 24 192 7 7 (225792)
I0403 18:23:39.827953 22304 net.cpp:156] Memory required for data: 1329757728
I0403 18:23:39.827971 22304 layer_factory.hpp:77] Creating layer inception_5b/relu_3x3_reduce
I0403 18:23:39.827989 22304 net.cpp:91] Creating Layer inception_5b/relu_3x3_reduce
I0403 18:23:39.828006 22304 net.cpp:425] inception_5b/relu_3x3_reduce <- inception_5b/3x3_reduce
I0403 18:23:39.828024 22304 net.cpp:386] inception_5b/relu_3x3_reduce -> inception_5b/3x3_reduce (in-place)
I0403 18:23:39.828209 22304 net.cpp:141] Setting up inception_5b/relu_3x3_reduce
I0403 18:23:39.828233 22304 net.cpp:148] Top shape: 24 192 7 7 (225792)
I0403 18:23:39.828248 22304 net.cpp:156] Memory required for data: 1330660896
I0403 18:23:39.828263 22304 layer_factory.hpp:77] Creating layer inception_5b/3x3
I0403 18:23:39.828289 22304 net.cpp:91] Creating Layer inception_5b/3x3
I0403 18:23:39.828305 22304 net.cpp:425] inception_5b/3x3 <- inception_5b/3x3_reduce
I0403 18:23:39.828327 22304 net.cpp:399] inception_5b/3x3 -> inception_5b/3x3
I0403 18:23:39.834969 22304 net.cpp:141] Setting up inception_5b/3x3
I0403 18:23:39.835000 22304 net.cpp:148] Top shape: 24 384 7 7 (451584)
I0403 18:23:39.835016 22304 net.cpp:156] Memory required for data: 1332467232
I0403 18:23:39.835033 22304 layer_factory.hpp:77] Creating layer inception_5b/relu_3x3
I0403 18:23:39.835052 22304 net.cpp:91] Creating Layer inception_5b/relu_3x3
I0403 18:23:39.835067 22304 net.cpp:425] inception_5b/relu_3x3 <- inception_5b/3x3
I0403 18:23:39.835085 22304 net.cpp:386] inception_5b/relu_3x3 -> inception_5b/3x3 (in-place)
I0403 18:23:39.835384 22304 net.cpp:141] Setting up inception_5b/relu_3x3
I0403 18:23:39.835412 22304 net.cpp:148] Top shape: 24 384 7 7 (451584)
I0403 18:23:39.835428 22304 net.cpp:156] Memory required for data: 1334273568
I0403 18:23:39.835443 22304 layer_factory.hpp:77] Creating layer inception_5b/5x5_reduce
I0403 18:23:39.835481 22304 net.cpp:91] Creating Layer inception_5b/5x5_reduce
I0403 18:23:39.835500 22304 net.cpp:425] inception_5b/5x5_reduce <- inception_5a/output_inception_5a/output_0_split_2
I0403 18:23:39.835517 22304 net.cpp:399] inception_5b/5x5_reduce -> inception_5b/5x5_reduce
I0403 18:23:39.836766 22304 net.cpp:141] Setting up inception_5b/5x5_reduce
I0403 18:23:39.836794 22304 net.cpp:148] Top shape: 24 48 7 7 (56448)
I0403 18:23:39.836810 22304 net.cpp:156] Memory required for data: 1334499360
I0403 18:23:39.836827 22304 layer_factory.hpp:77] Creating layer inception_5b/relu_5x5_reduce
I0403 18:23:39.836844 22304 net.cpp:91] Creating Layer inception_5b/relu_5x5_reduce
I0403 18:23:39.836860 22304 net.cpp:425] inception_5b/relu_5x5_reduce <- inception_5b/5x5_reduce
I0403 18:23:39.836876 22304 net.cpp:386] inception_5b/relu_5x5_reduce -> inception_5b/5x5_reduce (in-place)
I0403 18:23:39.837254 22304 net.cpp:141] Setting up inception_5b/relu_5x5_reduce
I0403 18:23:39.837280 22304 net.cpp:148] Top shape: 24 48 7 7 (56448)
I0403 18:23:39.837296 22304 net.cpp:156] Memory required for data: 1334725152
I0403 18:23:39.837308 22304 layer_factory.hpp:77] Creating layer inception_5b/5x5
I0403 18:23:39.837327 22304 net.cpp:91] Creating Layer inception_5b/5x5
I0403 18:23:39.837344 22304 net.cpp:425] inception_5b/5x5 <- inception_5b/5x5_reduce
I0403 18:23:39.837363 22304 net.cpp:399] inception_5b/5x5 -> inception_5b/5x5
I0403 18:23:39.839380 22304 net.cpp:141] Setting up inception_5b/5x5
I0403 18:23:39.839406 22304 net.cpp:148] Top shape: 24 128 7 7 (150528)
I0403 18:23:39.839421 22304 net.cpp:156] Memory required for data: 1335327264
I0403 18:23:39.839438 22304 layer_factory.hpp:77] Creating layer inception_5b/relu_5x5
I0403 18:23:39.839455 22304 net.cpp:91] Creating Layer inception_5b/relu_5x5
I0403 18:23:39.839471 22304 net.cpp:425] inception_5b/relu_5x5 <- inception_5b/5x5
I0403 18:23:39.839490 22304 net.cpp:386] inception_5b/relu_5x5 -> inception_5b/5x5 (in-place)
I0403 18:23:39.839687 22304 net.cpp:141] Setting up inception_5b/relu_5x5
I0403 18:23:39.839711 22304 net.cpp:148] Top shape: 24 128 7 7 (150528)
I0403 18:23:39.839725 22304 net.cpp:156] Memory required for data: 1335929376
I0403 18:23:39.839740 22304 layer_factory.hpp:77] Creating layer inception_5b/pool
I0403 18:23:39.839759 22304 net.cpp:91] Creating Layer inception_5b/pool
I0403 18:23:39.839776 22304 net.cpp:425] inception_5b/pool <- inception_5a/output_inception_5a/output_0_split_3
I0403 18:23:39.839794 22304 net.cpp:399] inception_5b/pool -> inception_5b/pool
I0403 18:23:39.839866 22304 net.cpp:141] Setting up inception_5b/pool
I0403 18:23:39.839890 22304 net.cpp:148] Top shape: 24 832 7 7 (978432)
I0403 18:23:39.839903 22304 net.cpp:156] Memory required for data: 1339843104
I0403 18:23:39.839917 22304 layer_factory.hpp:77] Creating layer inception_5b/pool_proj
I0403 18:23:39.839937 22304 net.cpp:91] Creating Layer inception_5b/pool_proj
I0403 18:23:39.839954 22304 net.cpp:425] inception_5b/pool_proj <- inception_5b/pool
I0403 18:23:39.839974 22304 net.cpp:399] inception_5b/pool_proj -> inception_5b/pool_proj
I0403 18:23:39.842233 22304 net.cpp:141] Setting up inception_5b/pool_proj
I0403 18:23:39.842263 22304 net.cpp:148] Top shape: 24 128 7 7 (150528)
I0403 18:23:39.842279 22304 net.cpp:156] Memory required for data: 1340445216
I0403 18:23:39.842299 22304 layer_factory.hpp:77] Creating layer inception_5b/relu_pool_proj
I0403 18:23:39.842317 22304 net.cpp:91] Creating Layer inception_5b/relu_pool_proj
I0403 18:23:39.842334 22304 net.cpp:425] inception_5b/relu_pool_proj <- inception_5b/pool_proj
I0403 18:23:39.842352 22304 net.cpp:386] inception_5b/relu_pool_proj -> inception_5b/pool_proj (in-place)
I0403 18:23:39.842648 22304 net.cpp:141] Setting up inception_5b/relu_pool_proj
I0403 18:23:39.842674 22304 net.cpp:148] Top shape: 24 128 7 7 (150528)
I0403 18:23:39.842689 22304 net.cpp:156] Memory required for data: 1341047328
I0403 18:23:39.842703 22304 layer_factory.hpp:77] Creating layer inception_5b/output
I0403 18:23:39.842720 22304 net.cpp:91] Creating Layer inception_5b/output
I0403 18:23:39.842751 22304 net.cpp:425] inception_5b/output <- inception_5b/1x1
I0403 18:23:39.842769 22304 net.cpp:425] inception_5b/output <- inception_5b/3x3
I0403 18:23:39.842785 22304 net.cpp:425] inception_5b/output <- inception_5b/5x5
I0403 18:23:39.842802 22304 net.cpp:425] inception_5b/output <- inception_5b/pool_proj
I0403 18:23:39.842818 22304 net.cpp:399] inception_5b/output -> inception_5b/output
I0403 18:23:39.842870 22304 net.cpp:141] Setting up inception_5b/output
I0403 18:23:39.842892 22304 net.cpp:148] Top shape: 24 1024 7 7 (1204224)
I0403 18:23:39.842906 22304 net.cpp:156] Memory required for data: 1345864224
I0403 18:23:39.842921 22304 layer_factory.hpp:77] Creating layer pool5/7x7_s1
I0403 18:23:39.842939 22304 net.cpp:91] Creating Layer pool5/7x7_s1
I0403 18:23:39.842955 22304 net.cpp:425] pool5/7x7_s1 <- inception_5b/output
I0403 18:23:39.842972 22304 net.cpp:399] pool5/7x7_s1 -> pool5/7x7_s1
I0403 18:23:39.843184 22304 net.cpp:141] Setting up pool5/7x7_s1
I0403 18:23:39.843209 22304 net.cpp:148] Top shape: 24 1024 1 1 (24576)
I0403 18:23:39.843224 22304 net.cpp:156] Memory required for data: 1345962528
I0403 18:23:39.843237 22304 layer_factory.hpp:77] Creating layer pool5/drop_7x7_s1
I0403 18:23:39.843253 22304 net.cpp:91] Creating Layer pool5/drop_7x7_s1
I0403 18:23:39.843268 22304 net.cpp:425] pool5/drop_7x7_s1 <- pool5/7x7_s1
I0403 18:23:39.843287 22304 net.cpp:386] pool5/drop_7x7_s1 -> pool5/7x7_s1 (in-place)
I0403 18:23:39.843336 22304 net.cpp:141] Setting up pool5/drop_7x7_s1
I0403 18:23:39.843360 22304 net.cpp:148] Top shape: 24 1024 1 1 (24576)
I0403 18:23:39.843375 22304 net.cpp:156] Memory required for data: 1346060832
I0403 18:23:39.843389 22304 layer_factory.hpp:77] Creating layer loss3/classifier_plantvillage
I0403 18:23:39.843407 22304 net.cpp:91] Creating Layer loss3/classifier_plantvillage
I0403 18:23:39.843422 22304 net.cpp:425] loss3/classifier_plantvillage <- pool5/7x7_s1
I0403 18:23:39.843442 22304 net.cpp:399] loss3/classifier_plantvillage -> loss3/classifier_plantvillage
I0403 18:23:39.843863 22304 net.cpp:141] Setting up loss3/classifier_plantvillage
I0403 18:23:39.843886 22304 net.cpp:148] Top shape: 24 38 (912)
I0403 18:23:39.843900 22304 net.cpp:156] Memory required for data: 1346064480
I0403 18:23:39.843919 22304 layer_factory.hpp:77] Creating layer loss3/classifier_plantvillage_loss3/classifier_plantvillage_0_split
I0403 18:23:39.843940 22304 net.cpp:91] Creating Layer loss3/classifier_plantvillage_loss3/classifier_plantvillage_0_split
I0403 18:23:39.843955 22304 net.cpp:425] loss3/classifier_plantvillage_loss3/classifier_plantvillage_0_split <- loss3/classifier_plantvillage
I0403 18:23:39.843972 22304 net.cpp:399] loss3/classifier_plantvillage_loss3/classifier_plantvillage_0_split -> loss3/classifier_plantvillage_loss3/classifier_plantvillage_0_split_0
I0403 18:23:39.843991 22304 net.cpp:399] loss3/classifier_plantvillage_loss3/classifier_plantvillage_0_split -> loss3/classifier_plantvillage_loss3/classifier_plantvillage_0_split_1
I0403 18:23:39.844009 22304 net.cpp:399] loss3/classifier_plantvillage_loss3/classifier_plantvillage_0_split -> loss3/classifier_plantvillage_loss3/classifier_plantvillage_0_split_2
I0403 18:23:39.844033 22304 net.cpp:399] loss3/classifier_plantvillage_loss3/classifier_plantvillage_0_split -> loss3/classifier_plantvillage_loss3/classifier_plantvillage_0_split_3
I0403 18:23:39.844132 22304 net.cpp:141] Setting up loss3/classifier_plantvillage_loss3/classifier_plantvillage_0_split
I0403 18:23:39.844154 22304 net.cpp:148] Top shape: 24 38 (912)
I0403 18:23:39.844169 22304 net.cpp:148] Top shape: 24 38 (912)
I0403 18:23:39.844183 22304 net.cpp:148] Top shape: 24 38 (912)
I0403 18:23:39.844198 22304 net.cpp:148] Top shape: 24 38 (912)
I0403 18:23:39.844210 22304 net.cpp:156] Memory required for data: 1346079072
I0403 18:23:39.844224 22304 layer_factory.hpp:77] Creating layer loss1/loss
I0403 18:23:39.844244 22304 net.cpp:91] Creating Layer loss1/loss
I0403 18:23:39.844260 22304 net.cpp:425] loss1/loss <- loss1/classifier_plantvillage_loss1/classifier_plantvillage_0_split_0
I0403 18:23:39.844290 22304 net.cpp:425] loss1/loss <- label_data_1_split_0
…
