…
I0403 18:58:35.177049 24071 net.cpp:313] The NetState phase (1) differed from the phase (0) specified by a rule in layer data
I0403 18:58:35.178187 24071 net.cpp:49] Initializing net from parameters: 
state {
  phase: TEST
}
layer {
  name: "data"
  type: "Data"
  top: "data"
  top: "label"
  include {
    phase: TEST
  }
  transform_param {
    mirror: false
    crop_size: 224
    mean_file: "/home/mohanty/data/final_dataset/lmdb/segmented-40-60/mean.binaryproto"
  }
  data_param {
    source: "/home/mohanty/data/final_dataset/lmdb/segmented-40-60/test_db"
    batch_size: 24
    backend: LMDB
  }
}
layer {
  name: "conv1/7x7_s2"
  type: "Convolution"
  bottom: "data"
  top: "conv1/7x7_s2"
  param {
    lr_mult: 1
    decay_mult: 1
  }
  param {
    lr_mult: 2
    decay_mult: 0
  }
  convolution_param {
    num_output: 64
    pad: 3
    kernel_size: 7
    stride: 2
    weight_filler {
      type: "xavier"
      std: 0.1
    }
    bias_filler {
      type: "constant"
      value: 0.2
    }
  }
}
layer {
  name: "conv1/relu_7x7"
  type: "ReLU"
  bottom: "conv1/7x7_s2"
  top: "conv1/7x7_s2"
}
layer {
  name: "pool1/3x3_s2"
  type: "Pooling"
  bottom: "conv1/7x7_s2"
  top: "pool1/3x3_s2"
  pooling_param {
    pool: MAX
    kernel_size: 3
    stride: 2
  }
}
layer {
  name: "pool1/norm1"
  type: "LRN"
  bottom: "pool1/3x3_s2"
  top: "pool1/norm1"
  lrn_param {
    local_size: 5
    alpha: 0.0001
    beta: 0.75
  }
}
layer {
  name: "conv2/3x3_reduce"
  type: "Convolution"
  bottom: "pool1/norm1"
  top: "conv2/3x3_reduce"
  param {
    lr_mult: 1
    decay_mult: 1
  }
  param {
    lr_mult: 2
    decay_mult: 0
  }
  convolution_param {
    num_output: 64
    kernel_size: 1
    weight_filler {
      type: "xavier"
      std: 0.1
    }
    bias_filler {
      type: "constant"
      value: 0.2
    }
  }
}
layer {
  name: "conv2/relu_3x3_reduce"
  type: "ReLU"
  bottom: "conv2/3x3_reduce"
  top: "conv2/3x3_reduce"
}
layer {
  name: "conv2/3x3"
  type: "Convolution"
  bottom: "conv2/3x3_reduce"
  top: "conv2/3x3"
  param {
    lr_mult: 1
    decay_mult: 1
  }
  param {
    lr_mult: 2
    decay_mult: 0
  }
  convolution_param {
    num_output: 192
    pad: 1
    kernel_size: 3
    weight_filler {
      type: "xavier"
      std: 0.03
    }
    bias_filler {
      type: "constant"
      value: 0.2
    }
  }
}
layer {
  name: "conv2/relu_3x3"
  type: "ReLU"
  bottom: "conv2/3x3"
  top: "conv2/3x3"
}
layer {
  name: "conv2/norm2"
  type: "LRN"
  bottom: "conv2/3x3"
  top: "conv2/norm2"
  lrn_param {
    local_size: 5
    alpha: 0.0001
    beta: 0.75
  }
}
layer {
  name: "pool2/3x3_s2"
  type: "Pooling"
  bottom: "conv2/norm2"
  top: "pool2/3x3_s2"
  pooling_param {
    pool: MAX
    kernel_size: 3
    stride: 2
  }
}
layer {
  name: "inception_3a/1x1"
  type: "Convolution"
  bottom: "pool2/3x3_s2"
  top: "inception_3a/1x1"
  param {
    lr_mult: 1
    decay_mult: 1
  }
  param {
    lr_mult: 2
    decay_mult: 0
  }
  convolution_param {
    num_output: 64
    kernel_size: 1
    weight_filler {
      type: "xavier"
      std: 0.03
    }
    bias_filler {
      type: "constant"
      value: 0.2
    }
  }
}
layer {
  name: "inception_3a/relu_1x1"
  type: "ReLU"
  bottom: "inception_3a/1x1"
  top: "inception_3a/1x1"
}
layer {
  name: "inception_3a/3x3_reduce"
  type: "Convolution"
  bottom: "pool2/3x3_s2"
  top: "inception_3a/3x3_reduce"
  param {
    lr_mult: 1
    decay_mult: 1
  }
  param {
    lr_mult: 2
    decay_mult: 0
  }
  convolution_param {
    num_output: 96
    kernel_size: 1
    weight_filler {
      type: "xavier"
      std: 0.09
    }
    bias_filler {
      type: "constant"
      value: 0.2
    }
  }
}
layer {
  name: "inception_3a/relu_3x3_reduce"
  type: "ReLU"
  bottom: "inception_3a/3x3_reduce"
  top: "inception_3a/3x3_reduce"
}
layer {
  name: "inception_3a/3x3"
  type: "Convolution"
  bottom: "inception_3a/3x3_reduce"
  top: "inception_3a/3x3"
  param {
    lr_mult: 1
    decay_mult: 1
  }
  param {
    lr_mult: 2
    decay_mult: 0
  }
  convolution_param {
    num_output: 128
    pad: 1
    kernel_size: 3
    weight_filler {
      type: "xavier"
      std: 0.03
    }
    bias_filler {
      type: "constant"
      value: 0.2
    }
  }
}
layer {
  name: "inception_3a/relu_3x3"
  type: "ReLU"
  bottom: "inception_3a/3x3"
  top: "inception_3a/3x3"
}
layer {
  name: "inception_3a/5x5_reduce"
  type: "Convolution"
  bottom: "pool2/3x3_s2"
  top: "inception_3a/5x5_reduce"
  param {
    lr_mult: 1
    decay_mult: 1
  }
  param {
    lr_mult: 2
    decay_mult: 0
  }
  convolution_param {
    num_output: 16
    kernel_size: 1
    weight_filler {
      type: "xavier"
      std: 0.2
    }
    bias_filler {
      type: "constant"
      value: 0.2
    }
  }
}
layer {
  name: "inception_3a/relu_5x5_reduce"
  type: "ReLU"
  bottom: "inception_3a/5x5_reduce"
  top: "inception_3a/5x5_reduce"
}
layer {
  name: "inception_3a/5x5"
  type: "Convolution"
  bottom: "inception_3a/5x5_reduce"
  top: "inception_3a/5x5"
  param {
    lr_mult: 1
    decay_mult: 1
  }
  param {
    lr_mult: 2
    decay_mult: 0
  }
  convolution_param {
    num_output: 32
    pad: 2
    kernel_size: 5
    weight_filler {
      type: "xavier"
      std: 0.03
    }
    bias_filler {
      type: "constant"
      value: 0.2
    }
  }
}
layer {
  name: "inception_3a/relu_5x5"
  type: "ReLU"
  bottom: "inception_3a/5x5"
  top: "inception_3a/5x5"
}
layer {
  name: "inception_3a/pool"
  type: "Pooling"
  bottom: "pool2/3x3_s2"
  top: "inception_3a/pool"
  pooling_param {
    pool: MAX
    kernel_size: 3
    stride: 1
    pad: 1
  }
}
layer {
  name: "inception_3a/pool_proj"
  type: "Convolution"
  bottom: "inception_3a/pool"
  top: "inception_3a/pool_proj"
  param {
    lr_mult: 1
    decay_mult: 1
  }
  param {
    lr_mult: 2
    decay_mult: 0
  }
  convolution_param {
    num_output: 32
    kernel_size: 1
    weight_filler {
      type: "xavier"
      std: 0.1
    }
    bias_filler {
      type: "constant"
      value: 0.2
    }
  }
}
layer {
  name: "inception_3a/relu_pool_proj"
  type: "ReLU"
  bottom: "inception_3a/pool_proj"
  top: "inception_3a/pool_proj"
}
layer {
  name: "inception_3a/output"
  type: "Concat"
  bottom: "inception_3a/1x1"
  bottom: "inception_3a/3x3"
  bottom: "inception_3a/5x5"
  bottom: "inception_3a/pool_proj"
  top: "inception_3a/output"
}
layer {
  name: "inception_3b/1x1"
  type: "Convolution"
  bottom: "inception_3a/output"
  top: "inception_3b/1x1"
  param {
    lr_mult: 1
    decay_mult: 1
  }
  param {
    lr_mult: 2
    decay_mult: 0
  }
  convolution_param {
    num_output: 128
    kernel_size: 1
    weight_filler {
      type: "xavier"
      std: 0.03
    }
    bias_filler {
      type: "constant"
      value: 0.2
    }
  }
}
layer {
  name: "inception_3b/relu_1x1"
  type: "ReLU"
  bottom: "inception_3b/1x1"
  top: "inception_3b/1x1"
}
layer {
  name: "inception_3b/3x3_reduce"
  type: "Convolution"
  bottom: "inception_3a/output"
  top: "inception_3b/3x3_reduce"
  param {
    lr_mult: 1
    decay_mult: 1
  }
  param {
    lr_mult: 2
    decay_mult: 0
  }
  convolution_param {
    num_output: 128
    kernel_size: 1
    weight_filler {
      type: "xavier"
      std: 0.09
    }
    bias_filler {
      type: "constant"
      value: 0.2
    }
  }
}
layer {
  name: "inception_3b/relu_3x3_reduce"
  type: "ReLU"
  bottom: "inception_3b/3x3_reduce"
  top: "inception_3b/3x3_reduce"
}
layer {
  name: "inception_3b/3x3"
  type: "Convolution"
  bottom: "inception_3b/3x3_reduce"
  top: "inception_3b/3x3"
  param {
    lr_mult: 1
    decay_mult: 1
  }
  param {
    lr_mult: 2
    decay_mult: 0
  }
  convolution_param {
    num_output: 192
    pad: 1
    kernel_size: 3
    weight_filler {
      type: "xavier"
      std: 0.03
    }
    bias_filler {
      type: "constant"
      value: 0.2
    }
  }
}
layer {
  name: "inception_3b/relu_3x3"
  type: "ReLU"
  bottom: "inception_3b/3x3"
  top: "inception_3b/3x3"
}
layer {
  name: "inception_3b/5x5_reduce"
  type: "Convolution"
  bottom: "inception_3a/output"
  top: "inception_3b/5x5_reduce"
  param {
    lr_mult: 1
    decay_mult: 1
  }
  param {
    lr_mult: 2
    decay_mult: 0
  }
  convolution_param {
    num_output: 32
    kernel_size: 1
    weight_filler {
      type: "xavier"
      std: 0.2
    }
    bias_filler {
      type: "constant"
      value: 0.2
    }
  }
}
layer {
  name: "inception_3b/relu_5x5_reduce"
  type: "ReLU"
  bottom: "inception_3b/5x5_reduce"
  top: "inception_3b/5x5_reduce"
}
layer {
  name: "inception_3b/5x5"
  type: "Convolution"
  bottom: "inception_3b/5x5_reduce"
  top: "inception_3b/5x5"
  param {
    lr_mult: 1
    decay_mult: 1
  }
  param {
    lr_mult: 2
    decay_mult: 0
  }
  convolution_param {
    num_output: 96
    pad: 2
    kernel_size: 5
    weight_filler {
      type: "xavier"
      std: 0.03
    }
    bias_filler {
      type: "constant"
      value: 0.2
    }
  }
}
layer {
  name: "inception_3b/relu_5x5"
  type: "ReLU"
  bottom: "inception_3b/5x5"
  top: "inception_3b/5x5"
}
layer {
  name: "inception_3b/pool"
  type: "Pooling"
  bottom: "inception_3a/output"
  top: "inception_3b/pool"
  pooling_param {
    pool: MAX
    kernel_size: 3
    stride: 1
    pad: 1
  }
}
layer {
  name: "inception_3b/pool_proj"
  type: "Convolution"
  bottom: "inception_3b/pool"
  top: "inception_3b/pool_proj"
  param {
    lr_mult: 1
    decay_mult: 1
  }
  param {
    lr_mult: 2
    decay_mult: 0
  }
  convolution_param {
    num_output: 64
    kernel_size: 1
    weight_filler {
      type: "xavier"
      std: 0.1
    }
    bias_filler {
      type: "constant"
      value: 0.2
    }
  }
}
layer {
  name: "inception_3b/relu_pool_proj"
  type: "ReLU"
  bottom: "inception_3b/pool_proj"
  top: "inception_3b/pool_proj"
}
layer {
  name: "inception_3b/output"
  type: "Concat"
  bottom: "inception_3b/1x1"
  bottom: "inception_3b/3x3"
  bottom: "inception_3b/5x5"
  bottom: "inception_3b/pool_proj"
  top: "inception_3b/output"
}
layer {
  name: "pool3/3x3_s2"
  type: "Pooling"
  bottom: "inception_3b/output"
  top: "pool3/3x3_s2"
  pooling_param {
    pool: MAX
    kernel_size: 3
    stride: 2
  }
}
layer {
  name: "inception_4a/1x1"
  type: "Convolution"
  bottom: "pool3/3x3_s2"
  top: "inception_4a/1x1"
  param {
    lr_mult: 1
    decay_mult: 1
  }
  param {
    lr_mult: 2
    decay_mult: 0
  }
  convolution_param {
    num_output: 192
    kernel_size: 1
    weight_filler {
      type: "xavier"
      std: 0.03
    }
    bias_filler {
      type: "constant"
      value: 0.2
    }
  }
}
layer {
  name: "inception_4a/relu_1x1"
  type: "ReLU"
  bottom: "inception_4a/1x1"
  top: "inception_4a/1x1"
}
layer {
  name: "inception_4a/3x3_reduce"
  type: "Convolution"
  bottom: "pool3/3x3_s2"
  top: "inception_4a/3x3_reduce"
  param {
    lr_mult: 1
    decay_mult: 1
  }
  param {
    lr_mult: 2
    decay_mult: 0
  }
  convolution_param {
    num_output: 96
    kernel_size: 1
    weight_filler {
      type: "xavier"
      std: 0.09
    }
    bias_filler {
      type: "constant"
      value: 0.2
    }
  }
}
layer {
  name: "inception_4a/relu_3x3_reduce"
  type: "ReLU"
  bottom: "inception_4a/3x3_reduce"
  top: "inception_4a/3x3_reduce"
}
layer {
  name: "inception_4a/3x3"
  type: "Convolution"
  bottom: "inception_4a/3x3_reduce"
  top: "inception_4a/3x3"
  param {
    lr_mult: 1
    decay_mult: 1
  }
  param {
    lr_mult: 2
    decay_mult: 0
  }
  convolution_param {
    num_output: 208
    pad: 1
    kernel_size: 3
    weight_filler {
      type: "xavier"
      std: 0.03
    }
    bias_filler {
      type: "constant"
      value: 0.2
    }
  }
}
layer {
  name: "inception_4a/relu_3x3"
  type: "ReLU"
  bottom: "inception_4a/3x3"
  top: "inception_4a/3x3"
}
layer {
  name: "inception_4a/5x5_reduce"
  type: "Convolution"
  bottom: "pool3/3x3_s2"
  top: "inception_4a/5x5_reduce"
  param {
    lr_mult: 1
    decay_mult: 1
  }
  param {
    lr_mult: 2
    decay_mult: 0
  }
  convolution_param {
    num_output: 16
    kernel_size: 1
    weight_filler {
      type: "xavier"
      std: 0.2
    }
    bias_filler {
      type: "constant"
      value: 0.2
    }
  }
}
layer {
  name: "inception_4a/relu_5x5_reduce"
  type: "ReLU"
  bottom: "inception_4a/5x5_reduce"
  top: "inception_4a/5x5_reduce"
}
layer {
  name: "inception_4a/5x5"
  type: "Convolution"
  bottom: "inception_4a/5x5_reduce"
  top: "inception_4a/5x5"
  param {
    lr_mult: 1
    decay_mult: 1
  }
  param {
    lr_mult: 2
    decay_mult: 0
  }
  convolution_param {
    num_output: 48
    pad: 2
    kernel_size: 5
    weight_filler {
      type: "xavier"
      std: 0.03
    }
    bias_filler {
      type: "constant"
      value: 0.2
    }
  }
}
layer {
  name: "inception_4a/relu_5x5"
  type: "ReLU"
  bottom: "inception_4a/5x5"
  top: "inception_4a/5x5"
}
layer {
  name: "inception_4a/pool"
  type: "Pooling"
  bottom: "pool3/3x3_s2"
  top: "inception_4a/pool"
  pooling_param {
    pool: MAX
    kernel_size: 3
    stride: 1
    pad: 1
  }
}
layer {
  name: "inception_4a/pool_proj"
  type: "Convolution"
  bottom: "inception_4a/pool"
  top: "inception_4a/pool_proj"
  param {
    lr_mult: 1
    decay_mult: 1
  }
  param {
    lr_mult: 2
    decay_mult: 0
  }
  convolution_param {
    num_output: 64
    kernel_size: 1
    weight_filler {
      type: "xavier"
      std: 0.1
    }
    bias_filler {
      type: "constant"
      value: 0.2
    }
  }
}
layer {
  name: "inception_4a/relu_pool_proj"
  type: "ReLU"
  bottom: "inception_4a/pool_proj"
  top: "inception_4a/pool_proj"
}
layer {
  name: "inception_4a/output"
  type: "Concat"
  bottom: "inception_4a/1x1"
  bottom: "inception_4a/3x3"
  bottom: "inception_4a/5x5"
  bottom: "inception_4a/pool_proj"
  top: "inception_4a/output"
}
layer {
  name: "loss1/ave_pool"
  type: "Pooling"
  bottom: "inception_4a/output"
  top: "loss1/ave_pool"
  pooling_param {
    pool: AVE
    kernel_size: 5
    stride: 3
  }
}
layer {
  name: "loss1/conv"
  type: "Convolution"
  bottom: "loss1/ave_pool"
  top: "loss1/conv"
  param {
    lr_mult: 1
    decay_mult: 1
  }
  param {
    lr_mult: 2
    decay_mult: 0
  }
  convolution_param {
    num_output: 128
    kernel_size: 1
    weight_filler {
      type: "xavier"
      std: 0.08
    }
    bias_filler {
      type: "constant"
      value: 0.2
    }
  }
}
layer {
  name: "loss1/relu_conv"
  type: "ReLU"
  bottom: "loss1/conv"
  top: "loss1/conv"
}
layer {
  name: "loss1/fc"
  type: "InnerProduct"
  bottom: "loss1/conv"
  top: "loss1/fc"
  param {
    lr_mult: 1
    decay_mult: 1
  }
  param {
    lr_mult: 2
    decay_mult: 0
  }
  inner_product_param {
    num_output: 1024
    weight_filler {
      type: "xavier"
      std: 0.02
    }
    bias_filler {
      type: "constant"
      value: 0.2
    }
  }
}
layer {
  name: "loss1/relu_fc"
  type: "ReLU"
  bottom: "loss1/fc"
  top: "loss1/fc"
}
layer {
  name: "loss1/drop_fc"
  type: "Dropout"
  bottom: "loss1/fc"
  top: "loss1/fc"
  dropout_param {
    dropout_ratio: 0.7
  }
}
layer {
  name: "loss1/classifier_plantvillage"
  type: "InnerProduct"
  bottom: "loss1/fc"
  top: "loss1/classifier_plantvillage"
  param {
    lr_mult: 1
    decay_mult: 1
  }
  param {
    lr_mult: 2
    decay_mult: 0
  }
  inner_product_param {
    num_output: 38
    weight_filler {
      type: "xavier"
      std: 0.0009765625
    }
    bias_filler {
      type: "constant"
      value: 0
    }
  }
}
layer {
  name: "inception_4b/1x1"
  type: "Convolution"
  bottom: "inception_4a/output"
  top: "inception_4b/1x1"
  param {
    lr_mult: 1
    decay_mult: 1
  }
  param {
    lr_mult: 2
    decay_mult: 0
  }
  convolution_param {
    num_output: 160
    kernel_size: 1
    weight_filler {
      type: "xavier"
      std: 0.03
    }
    bias_filler {
      type: "constant"
      value: 0.2
    }
  }
}
layer {
  name: "inception_4b/relu_1x1"
  type: "ReLU"
  bottom: "inception_4b/1x1"
  top: "inception_4b/1x1"
}
layer {
  name: "inception_4b/3x3_reduce"
  type: "Convolution"
  bottom: "inception_4a/output"
  top: "inception_4b/3x3_reduce"
  param {
    lr_mult: 1
    decay_mult: 1
  }
  param {
    lr_mult: 2
    decay_mult: 0
  }
  convolution_param {
    num_output: 112
    kernel_size: 1
    weight_filler {
      type: "xavier"
      std: 0.09
    }
    bias_filler {
      type: "constant"
      value: 0.2
    }
  }
}
layer {
  name: "inception_4b/relu_3x3_reduce"
  type: "ReLU"
  bottom: "inception_4b/3x3_reduce"
  top: "inception_4b/3x3_reduce"
}
layer {
  name: "inception_4b/3x3"
  type: "Convolution"
  bottom: "inception_4b/3x3_reduce"
  top: "inception_4b/3x3"
  param {
    lr_mult: 1
    decay_mult: 1
  }
  param {
    lr_mult: 2
    decay_mult: 0
  }
  convolution_param {
    num_output: 224
    pad: 1
    kernel_size: 3
    weight_filler {
      type: "xavier"
      std: 0.03
    }
    bias_filler {
      type: "constant"
      value: 0.2
    }
  }
}
layer {
  name: "inception_4b/relu_3x3"
  type: "ReLU"
  bottom: "inception_4b/3x3"
  top: "inception_4b/3x3"
}
layer {
  name: "inception_4b/5x5_reduce"
  type: "Convolution"
  bottom: "inception_4a/output"
  top: "inception_4b/5x5_reduce"
  param {
    lr_mult: 1
    decay_mult: 1
  }
  param {
    lr_mult: 2
    decay_mult: 0
  }
  convolution_param {
    num_output: 24
    kernel_size: 1
    weight_filler {
      type: "xavier"
      std: 0.2
    }
    bias_filler {
      type: "constant"
      value: 0.2
    }
  }
}
layer {
  name: "inception_4b/relu_5x5_reduce"
  type: "ReLU"
  bottom: "inception_4b/5x5_reduce"
  top: "inception_4b/5x5_reduce"
}
layer {
  name: "inception_4b/5x5"
  type: "Convolution"
  bottom: "inception_4b/5x5_reduce"
  top: "inception_4b/5x5"
  param {
    lr_mult: 1
    decay_mult: 1
  }
  param {
    lr_mult: 2
    decay_mult: 0
  }
  convolution_param {
    num_output: 64
    pad: 2
    kernel_size: 5
    weight_filler {
      type: "xavier"
      std: 0.03
    }
    bias_filler {
      type: "constant"
      value: 0.2
    }
  }
}
layer {
  name: "inception_4b/relu_5x5"
  type: "ReLU"
  bottom: "inception_4b/5x5"
  top: "inception_4b/5x5"
}
layer {
  name: "inception_4b/pool"
  type: "Pooling"
  bottom: "inception_4a/output"
  top: "inception_4b/pool"
  pooling_param {
    pool: MAX
    kernel_size: 3
    stride: 1
    pad: 1
  }
}
layer {
  name: "inception_4b/pool_proj"
  type: "Convolution"
  bottom: "inception_4b/pool"
  top: "inception_4b/pool_proj"
  param {
    lr_mult: 1
    decay_mult: 1
  }
  param {
    lr_mult: 2
    decay_mult: 0
  }
  convolution_param {
    num_output: 64
    kernel_size: 1
    weight_filler {
      type: "xavier"
      std: 0.1
    }
    bias_filler {
      type: "constant"
      value: 0.2
    }
  }
}
layer {
  name: "inception_4b/relu_pool_proj"
  type: "ReLU"
  bottom: "inception_4b/pool_proj"
  top: "inception_4b/pool_proj"
}
layer {
  name: "inception_4b/output"
  type: "Concat"
  bottom: "inception_4b/1x1"
  bottom: "inception_4b/3x3"
  bottom: "inception_4b/5x5"
  bottom: "inception_4b/pool_proj"
  top: "inception_4b/output"
}
layer {
  name: "inception_4c/1x1"
  type: "Convolution"
  bottom: "inception_4b/output"
  top: "inception_4c/1x1"
  param {
    lr_mult: 1
    decay_mult: 1
  }
  param {
    lr_mult: 2
    decay_mult: 0
  }
  convolution_param {
    num_output: 128
    kernel_size: 1
    weight_filler {
      type: "xavier"
      std: 0.03
    }
    bias_filler {
      type: "constant"
      value: 0.2
    }
  }
}
layer {
  name: "inception_4c/relu_1x1"
  type: "ReLU"
  bottom: "inception_4c/1x1"
  top: "inception_4c/1x1"
}
layer {
  name: "inception_4c/3x3_reduce"
  type: "Convolution"
  bottom: "inception_4b/output"
  top: "inception_4c/3x3_reduce"
  param {
    lr_mult: 1
    decay_mult: 1
  }
  param {
    lr_mult: 2
    decay_mult: 0
  }
  convolution_param {
    num_output: 128
    kernel_size: 1
    weight_filler {
      type: "xavier"
      std: 0.09
    }
    bias_filler {
      type: "constant"
      value: 0.2
    }
  }
}
layer {
  name: "inception_4c/relu_3x3_reduce"
  type: "ReLU"
  bottom: "inception_4c/3x3_reduce"
  top: "inception_4c/3x3_reduce"
}
layer {
  name: "inception_4c/3x3"
  type: "Convolution"
  bottom: "inception_4c/3x3_reduce"
  top: "inception_4c/3x3"
  param {
    lr_mult: 1
    decay_mult: 1
  }
  param {
    lr_mult: 2
    decay_mult: 0
  }
  convolution_param {
    num_output: 256
    pad: 1
    kernel_size: 3
    weight_filler {
      type: "xavier"
      std: 0.03
    }
    bias_filler {
      type: "constant"
      value: 0.2
    }
  }
}
layer {
  name: "inception_4c/relu_3x3"
  type: "ReLU"
  bottom: "inception_4c/3x3"
  top: "inception_4c/3x3"
}
layer {
  name: "inception_4c/5x5_reduce"
  type: "Convolution"
  bottom: "inception_4b/output"
  top: "inception_4c/5x5_reduce"
  param {
    lr_mult: 1
    decay_mult: 1
  }
  param {
    lr_mult: 2
    decay_mult: 0
  }
  convolution_param {
    num_output: 24
    kernel_size: 1
    weight_filler {
      type: "xavier"
      std: 0.2
    }
    bias_filler {
      type: "constant"
      value: 0.2
    }
  }
}
layer {
  name: "inception_4c/relu_5x5_reduce"
  type: "ReLU"
  bottom: "inception_4c/5x5_reduce"
  top: "inception_4c/5x5_reduce"
}
layer {
  name: "inception_4c/5x5"
  type: "Convolution"
  bottom: "inception_4c/5x5_reduce"
  top: "inception_4c/5x5"
  param {
    lr_mult: 1
    decay_mult: 1
  }
  param {
    lr_mult: 2
    decay_mult: 0
  }
  convolution_param {
    num_output: 64
    pad: 2
    kernel_size: 5
    weight_filler {
      type: "xavier"
      std: 0.03
    }
    bias_filler {
      type: "constant"
      value: 0.2
    }
  }
}
layer {
  name: "inception_4c/relu_5x5"
  type: "ReLU"
  bottom: "inception_4c/5x5"
  top: "inception_4c/5x5"
}
layer {
  name: "inception_4c/pool"
  type: "Pooling"
  bottom: "inception_4b/output"
  top: "inception_4c/pool"
  pooling_param {
    pool: MAX
    kernel_size: 3
    stride: 1
    pad: 1
  }
}
layer {
  name: "inception_4c/pool_proj"
  type: "Convolution"
  bottom: "inception_4c/pool"
  top: "inception_4c/pool_proj"
  param {
    lr_mult: 1
    decay_mult: 1
  }
  param {
    lr_mult: 2
    decay_mult: 0
  }
  convolution_param {
    num_output: 64
    kernel_size: 1
    weight_filler {
      type: "xavier"
      std: 0.1
    }
    bias_filler {
      type: "constant"
      value: 0.2
    }
  }
}
layer {
  name: "inception_4c/relu_pool_proj"
  type: "ReLU"
  bottom: "inception_4c/pool_proj"
  top: "inception_4c/pool_proj"
}
layer {
  name: "inception_4c/output"
  type: "Concat"
  bottom: "inception_4c/1x1"
  bottom: "inception_4c/3x3"
  bottom: "inception_4c/5x5"
  bottom: "inception_4c/pool_proj"
  top: "inception_4c/output"
}
layer {
  name: "inception_4d/1x1"
  type: "Convolution"
  bottom: "inception_4c/output"
  top: "inception_4d/1x1"
  param {
    lr_mult: 1
    decay_mult: 1
  }
  param {
    lr_mult: 2
    decay_mult: 0
  }
  convolution_param {
    num_output: 112
    kernel_size: 1
    weight_filler {
      type: "xavier"
      std: 0.03
    }
    bias_filler {
      type: "constant"
      value: 0.2
    }
  }
}
layer {
  name: "inception_4d/relu_1x1"
  type: "ReLU"
  bottom: "inception_4d/1x1"
  top: "inception_4d/1x1"
}
layer {
  name: "inception_4d/3x3_reduce"
  type: "Convolution"
  bottom: "inception_4c/output"
  top: "inception_4d/3x3_reduce"
  param {
    lr_mult: 1
    decay_mult: 1
  }
  param {
    lr_mult: 2
    decay_mult: 0
  }
  convolution_param {
    num_output: 144
    kernel_size: 1
    weight_filler {
      type: "xavier"
      std: 0.09
    }
    bias_filler {
      type: "constant"
      value: 0.2
    }
  }
}
layer {
  name: "inception_4d/relu_3x3_reduce"
  type: "ReLU"
  bottom: "inception_4d/3x3_reduce"
  top: "inception_4d/3x3_reduce"
}
layer {
  name: "inception_4d/3x3"
  type: "Convolution"
  bottom: "inception_4d/3x3_reduce"
  top: "inception_4d/3x3"
  param {
    lr_mult: 1
    decay_mult: 1
  }
  param {
    lr_mult: 2
    decay_mult: 0
  }
  convolution_param {
    num_output: 288
    pad: 1
    kernel_size: 3
    weight_filler {
      type: "xavier"
      std: 0.03
    }
    bias_filler {
      type: "constant"
      value: 0.2
    }
  }
}
layer {
  name: "inception_4d/relu_3x3"
  type: "ReLU"
  bottom: "inception_4d/3x3"
  top: "inception_4d/3x3"
}
layer {
  name: "inception_4d/5x5_reduce"
  type: "Convolution"
  bottom: "inception_4c/output"
  top: "inception_4d/5x5_reduce"
  param {
    lr_mult: 1
    decay_mult: 1
  }
  param {
    lr_mult: 2
    decay_mult: 0
  }
  convolution_param {
    num_output: 32
    kernel_size: 1
    weight_filler {
      type: "xavier"
      std: 0.2
    }
    bias_filler {
      type: "constant"
      value: 0.2
    }
  }
}
layer {
  name: "inception_4d/relu_5x5_reduce"
  type: "ReLU"
  bottom: "inception_4d/5x5_reduce"
  top: "inception_4d/5x5_reduce"
}
layer {
  name: "inception_4d/5x5"
  type: "Convolution"
  bottom: "inception_4d/5x5_reduce"
  top: "inception_4d/5x5"
  param {
    lr_mult: 1
    decay_mult: 1
  }
  param {
    lr_mult: 2
    decay_mult: 0
  }
  convolution_param {
    num_output: 64
    pad: 2
    kernel_size: 5
    weight_filler {
      type: "xavier"
      std: 0.03
    }
    bias_filler {
      type: "constant"
      value: 0.2
    }
  }
}
layer {
  name: "inception_4d/relu_5x5"
  type: "ReLU"
  bottom: "inception_4d/5x5"
  top: "inception_4d/5x5"
}
layer {
  name: "inception_4d/pool"
  type: "Pooling"
  bottom: "inception_4c/output"
  top: "inception_4d/pool"
  pooling_param {
    pool: MAX
    kernel_size: 3
    stride: 1
    pad: 1
  }
}
layer {
  name: "inception_4d/pool_proj"
  type: "Convolution"
  bottom: "inception_4d/pool"
  top: "inception_4d/pool_proj"
  param {
    lr_mult: 1
    decay_mult: 1
  }
  param {
    lr_mult: 2
    decay_mult: 0
  }
  convolution_param {
    num_output: 64
    kernel_size: 1
    weight_filler {
      type: "xavier"
      std: 0.1
    }
    bias_filler {
      type: "constant"
      value: 0.2
    }
  }
}
layer {
  name: "inception_4d/relu_pool_proj"
  type: "ReLU"
  bottom: "inception_4d/pool_proj"
  top: "inception_4d/pool_proj"
}
layer {
  name: "inception_4d/output"
  type: "Concat"
  bottom: "inception_4d/1x1"
  bottom: "inception_4d/3x3"
  bottom: "inception_4d/5x5"
  bottom: "inception_4d/pool_proj"
  top: "inception_4d/output"
}
layer {
  name: "loss2/ave_pool"
  type: "Pooling"
  bottom: "inception_4d/output"
  top: "loss2/ave_pool"
  pooling_param {
    pool: AVE
    kernel_size: 5
    stride: 3
  }
}
layer {
  name: "loss2/conv"
  type: "Convolution"
  bottom: "loss2/ave_pool"
  top: "loss2/conv"
  param {
    lr_mult: 1
    decay_mult: 1
  }
  param {
    lr_mult: 2
    decay_mult: 0
  }
  convolution_param {
    num_output: 128
    kernel_size: 1
    weight_filler {
      type: "xavier"
      std: 0.08
    }
    bias_filler {
      type: "constant"
      value: 0.2
    }
  }
}
layer {
  name: "loss2/relu_conv"
  type: "ReLU"
  bottom: "loss2/conv"
  top: "loss2/conv"
}
layer {
  name: "loss2/fc"
  type: "InnerProduct"
  bottom: "loss2/conv"
  top: "loss2/fc"
  param {
    lr_mult: 1
    decay_mult: 1
  }
  param {
    lr_mult: 2
    decay_mult: 0
  }
  inner_product_param {
    num_output: 1024
    weight_filler {
      type: "xavier"
      std: 0.02
    }
    bias_filler {
      type: "constant"
      value: 0.2
    }
  }
}
layer {
  name: "loss2/relu_fc"
  type: "ReLU"
  bottom: "loss2/fc"
  top: "loss2/fc"
}
layer {
  name: "loss2/drop_fc"
  type: "Dropout"
  bottom: "loss2/fc"
  top: "loss2/fc"
  dropout_param {
    dropout_ratio: 0.7
  }
}
layer {
  name: "loss2/classifier_plantvillage"
  type: "InnerProduct"
  bottom: "loss2/fc"
  top: "loss2/classifier_plantvillage"
  param {
    lr_mult: 1
    decay_mult: 1
  }
  param {
    lr_mult: 2
    decay_mult: 0
  }
  inner_product_param {
    num_output: 38
    weight_filler {
      type: "xavier"
      std: 0.0009765625
    }
    bias_filler {
      type: "constant"
      value: 0
    }
  }
}
layer {
  name: "inception_4e/1x1"
  type: "Convolution"
  bottom: "inception_4d/output"
  top: "inception_4e/1x1"
  param {
    lr_mult: 1
    decay_mult: 1
  }
  param {
    lr_mult: 2
    decay_mult: 0
  }
  convolution_param {
    num_output: 256
    kernel_size: 1
    weight_filler {
      type: "xavier"
      std: 0.03
    }
    bias_filler {
      type: "constant"
      value: 0.2
    }
  }
}
layer {
  name: "inception_4e/relu_1x1"
  type: "ReLU"
  bottom: "inception_4e/1x1"
  top: "inception_4e/1x1"
}
layer {
  name: "inception_4e/3x3_reduce"
  type: "Convolution"
  bottom: "inception_4d/output"
  top: "inception_4e/3x3_reduce"
  param {
    lr_mult: 1
    decay_mult: 1
  }
  param {
    lr_mult: 2
    decay_mult: 0
  }
  convolution_param {
    num_output: 160
    kernel_size: 1
    weight_filler {
      type: "xavier"
      std: 0.09
    }
    bias_filler {
      type: "constant"
      value: 0.2
    }
  }
}
layer {
  name: "inception_4e/relu_3x3_reduce"
  type: "ReLU"
  bottom: "inception_4e/3x3_reduce"
  top: "inception_4e/3x3_reduce"
}
layer {
  name: "inception_4e/3x3"
  type: "Convolution"
  bottom: "inception_4e/3x3_reduce"
  top: "inception_4e/3x3"
  param {
    lr_mult: 1
    decay_mult: 1
  }
  param {
    lr_mult: 2
    decay_mult: 0
  }
  convolution_param {
    num_output: 320
    pad: 1
    kernel_size: 3
    weight_filler {
      type: "xavier"
      std: 0.03
    }
    bias_filler {
      type: "constant"
      value: 0.2
    }
  }
}
layer {
  name: "inception_4e/relu_3x3"
  type: "ReLU"
  bottom: "inception_4e/3x3"
  top: "inception_4e/3x3"
}
layer {
  name: "inception_4e/5x5_reduce"
  type: "Convolution"
  bottom: "inception_4d/output"
  top: "inception_4e/5x5_reduce"
  param {
    lr_mult: 1
    decay_mult: 1
  }
  param {
    lr_mult: 2
    decay_mult: 0
  }
  convolution_param {
    num_output: 32
    kernel_size: 1
    weight_filler {
      type: "xavier"
      std: 0.2
    }
    bias_filler {
      type: "constant"
      value: 0.2
    }
  }
}
layer {
  name: "inception_4e/relu_5x5_reduce"
  type: "ReLU"
  bottom: "inception_4e/5x5_reduce"
  top: "inception_4e/5x5_reduce"
}
layer {
  name: "inception_4e/5x5"
  type: "Convolution"
  bottom: "inception_4e/5x5_reduce"
  top: "inception_4e/
I0403 18:58:35.179406 24071 layer_factory.hpp:77] Creating layer data
I0403 18:58:35.180366 24071 net.cpp:91] Creating Layer data
I0403 18:58:35.180397 24071 net.cpp:399] data -> data
I0403 18:58:35.180447 24071 net.cpp:399] data -> label
I0403 18:58:35.180482 24071 data_transformer.cpp:25] Loading mean file from: /home/mohanty/data/final_dataset/lmdb/segmented-40-60/mean.binaryproto
I0403 18:58:35.181577 24074 db_lmdb.cpp:38] Opened lmdb /home/mohanty/data/final_dataset/lmdb/segmented-40-60/test_db
I0403 18:58:35.193763 24071 data_layer.cpp:41] output data size: 24,3,224,224
I0403 18:58:35.221496 24071 net.cpp:141] Setting up data
I0403 18:58:35.221590 24071 net.cpp:148] Top shape: 24 3 224 224 (3612672)
I0403 18:58:35.221616 24071 net.cpp:148] Top shape: 24 (24)
I0403 18:58:35.221632 24071 net.cpp:156] Memory required for data: 14450784
I0403 18:58:35.221660 24071 layer_factory.hpp:77] Creating layer label_data_1_split
I0403 18:58:35.221688 24071 net.cpp:91] Creating Layer label_data_1_split
I0403 18:58:35.221705 24071 net.cpp:425] label_data_1_split <- label
I0403 18:58:35.221740 24071 net.cpp:399] label_data_1_split -> label_data_1_split_0
I0403 18:58:35.221767 24071 net.cpp:399] label_data_1_split -> label_data_1_split_1
I0403 18:58:35.221791 24071 net.cpp:399] label_data_1_split -> label_data_1_split_2
I0403 18:58:35.221810 24071 net.cpp:399] label_data_1_split -> label_data_1_split_3
I0403 18:58:35.221830 24071 net.cpp:399] label_data_1_split -> label_data_1_split_4
I0403 18:58:35.221851 24071 net.cpp:399] label_data_1_split -> label_data_1_split_5
I0403 18:58:35.221871 24071 net.cpp:399] label_data_1_split -> label_data_1_split_6
I0403 18:58:35.221894 24071 net.cpp:399] label_data_1_split -> label_data_1_split_7
I0403 18:58:35.221915 24071 net.cpp:399] label_data_1_split -> label_data_1_split_8
I0403 18:58:35.221935 24071 net.cpp:399] label_data_1_split -> label_data_1_split_9
I0403 18:58:35.222054 24071 net.cpp:141] Setting up label_data_1_split
I0403 18:58:35.222079 24071 net.cpp:148] Top shape: 24 (24)
I0403 18:58:35.222095 24071 net.cpp:148] Top shape: 24 (24)
I0403 18:58:35.222110 24071 net.cpp:148] Top shape: 24 (24)
I0403 18:58:35.222124 24071 net.cpp:148] Top shape: 24 (24)
I0403 18:58:35.222139 24071 net.cpp:148] Top shape: 24 (24)
I0403 18:58:35.222154 24071 net.cpp:148] Top shape: 24 (24)
I0403 18:58:35.222169 24071 net.cpp:148] Top shape: 24 (24)
I0403 18:58:35.222184 24071 net.cpp:148] Top shape: 24 (24)
I0403 18:58:35.222198 24071 net.cpp:148] Top shape: 24 (24)
I0403 18:58:35.222214 24071 net.cpp:148] Top shape: 24 (24)
I0403 18:58:35.222261 24071 net.cpp:156] Memory required for data: 14451744
I0403 18:58:35.222277 24071 layer_factory.hpp:77] Creating layer conv1/7x7_s2
I0403 18:58:35.222308 24071 net.cpp:91] Creating Layer conv1/7x7_s2
I0403 18:58:35.222327 24071 net.cpp:425] conv1/7x7_s2 <- data
I0403 18:58:35.222347 24071 net.cpp:399] conv1/7x7_s2 -> conv1/7x7_s2
I0403 18:58:35.387135 24071 net.cpp:141] Setting up conv1/7x7_s2
I0403 18:58:35.387197 24071 net.cpp:148] Top shape: 24 64 112 112 (19267584)
I0403 18:58:35.387213 24071 net.cpp:156] Memory required for data: 91522080
I0403 18:58:35.387256 24071 layer_factory.hpp:77] Creating layer conv1/relu_7x7
I0403 18:58:35.387284 24071 net.cpp:91] Creating Layer conv1/relu_7x7
I0403 18:58:35.387303 24071 net.cpp:425] conv1/relu_7x7 <- conv1/7x7_s2
I0403 18:58:35.387323 24071 net.cpp:386] conv1/relu_7x7 -> conv1/7x7_s2 (in-place)
I0403 18:58:35.387605 24071 net.cpp:141] Setting up conv1/relu_7x7
I0403 18:58:35.387631 24071 net.cpp:148] Top shape: 24 64 112 112 (19267584)
I0403 18:58:35.387646 24071 net.cpp:156] Memory required for data: 168592416
I0403 18:58:35.387660 24071 layer_factory.hpp:77] Creating layer pool1/3x3_s2
I0403 18:58:35.387686 24071 net.cpp:91] Creating Layer pool1/3x3_s2
I0403 18:58:35.387702 24071 net.cpp:425] pool1/3x3_s2 <- conv1/7x7_s2
I0403 18:58:35.387720 24071 net.cpp:399] pool1/3x3_s2 -> pool1/3x3_s2
I0403 18:58:35.387792 24071 net.cpp:141] Setting up pool1/3x3_s2
I0403 18:58:35.387815 24071 net.cpp:148] Top shape: 24 64 56 56 (4816896)
I0403 18:58:35.387830 24071 net.cpp:156] Memory required for data: 187860000
I0403 18:58:35.387845 24071 layer_factory.hpp:77] Creating layer pool1/norm1
I0403 18:58:35.387867 24071 net.cpp:91] Creating Layer pool1/norm1
I0403 18:58:35.387886 24071 net.cpp:425] pool1/norm1 <- pool1/3x3_s2
I0403 18:58:35.387904 24071 net.cpp:399] pool1/norm1 -> pool1/norm1
I0403 18:58:35.388205 24071 net.cpp:141] Setting up pool1/norm1
I0403 18:58:35.388231 24071 net.cpp:148] Top shape: 24 64 56 56 (4816896)
I0403 18:58:35.388247 24071 net.cpp:156] Memory required for data: 207127584
I0403 18:58:35.388260 24071 layer_factory.hpp:77] Creating layer conv2/3x3_reduce
I0403 18:58:35.388284 24071 net.cpp:91] Creating Layer conv2/3x3_reduce
I0403 18:58:35.388301 24071 net.cpp:425] conv2/3x3_reduce <- pool1/norm1
I0403 18:58:35.388319 24071 net.cpp:399] conv2/3x3_reduce -> conv2/3x3_reduce
I0403 18:58:35.389654 24071 net.cpp:141] Setting up conv2/3x3_reduce
I0403 18:58:35.389683 24071 net.cpp:148] Top shape: 24 64 56 56 (4816896)
I0403 18:58:35.389699 24071 net.cpp:156] Memory required for data: 226395168
I0403 18:58:35.389719 24071 layer_factory.hpp:77] Creating layer conv2/relu_3x3_reduce
I0403 18:58:35.389739 24071 net.cpp:91] Creating Layer conv2/relu_3x3_reduce
I0403 18:58:35.389755 24071 net.cpp:425] conv2/relu_3x3_reduce <- conv2/3x3_reduce
I0403 18:58:35.389771 24071 net.cpp:386] conv2/relu_3x3_reduce -> conv2/3x3_reduce (in-place)
I0403 18:58:35.390036 24071 net.cpp:141] Setting up conv2/relu_3x3_reduce
I0403 18:58:35.390061 24071 net.cpp:148] Top shape: 24 64 56 56 (4816896)
I0403 18:58:35.390076 24071 net.cpp:156] Memory required for data: 245662752
I0403 18:58:35.390090 24071 layer_factory.hpp:77] Creating layer conv2/3x3
I0403 18:58:35.390117 24071 net.cpp:91] Creating Layer conv2/3x3
I0403 18:58:35.390136 24071 net.cpp:425] conv2/3x3 <- conv2/3x3_reduce
I0403 18:58:35.390156 24071 net.cpp:399] conv2/3x3 -> conv2/3x3
I0403 18:58:35.392426 24071 net.cpp:141] Setting up conv2/3x3
I0403 18:58:35.392457 24071 net.cpp:148] Top shape: 24 192 56 56 (14450688)
I0403 18:58:35.392472 24071 net.cpp:156] Memory required for data: 303465504
I0403 18:58:35.392493 24071 layer_factory.hpp:77] Creating layer conv2/relu_3x3
I0403 18:58:35.392511 24071 net.cpp:91] Creating Layer conv2/relu_3x3
I0403 18:58:35.392526 24071 net.cpp:425] conv2/relu_3x3 <- conv2/3x3
I0403 18:58:35.392549 24071 net.cpp:386] conv2/relu_3x3 -> conv2/3x3 (in-place)
I0403 18:58:35.392729 24071 net.cpp:141] Setting up conv2/relu_3x3
I0403 18:58:35.392753 24071 net.cpp:148] Top shape: 24 192 56 56 (14450688)
I0403 18:58:35.392799 24071 net.cpp:156] Memory required for data: 361268256
I0403 18:58:35.392814 24071 layer_factory.hpp:77] Creating layer conv2/norm2
I0403 18:58:35.392833 24071 net.cpp:91] Creating Layer conv2/norm2
I0403 18:58:35.392849 24071 net.cpp:425] conv2/norm2 <- conv2/3x3
I0403 18:58:35.392866 24071 net.cpp:399] conv2/norm2 -> conv2/norm2
I0403 18:58:35.393167 24071 net.cpp:141] Setting up conv2/norm2
I0403 18:58:35.393193 24071 net.cpp:148] Top shape: 24 192 56 56 (14450688)
I0403 18:58:35.393208 24071 net.cpp:156] Memory required for data: 419071008
I0403 18:58:35.393221 24071 layer_factory.hpp:77] Creating layer pool2/3x3_s2
I0403 18:58:35.393242 24071 net.cpp:91] Creating Layer pool2/3x3_s2
I0403 18:58:35.393259 24071 net.cpp:425] pool2/3x3_s2 <- conv2/norm2
I0403 18:58:35.393275 24071 net.cpp:399] pool2/3x3_s2 -> pool2/3x3_s2
I0403 18:58:35.393327 24071 net.cpp:141] Setting up pool2/3x3_s2
I0403 18:58:35.393349 24071 net.cpp:148] Top shape: 24 192 28 28 (3612672)
I0403 18:58:35.393363 24071 net.cpp:156] Memory required for data: 433521696
I0403 18:58:35.393378 24071 layer_factory.hpp:77] Creating layer pool2/3x3_s2_pool2/3x3_s2_0_split
I0403 18:58:35.393394 24071 net.cpp:91] Creating Layer pool2/3x3_s2_pool2/3x3_s2_0_split
I0403 18:58:35.393409 24071 net.cpp:425] pool2/3x3_s2_pool2/3x3_s2_0_split <- pool2/3x3_s2
I0403 18:58:35.393426 24071 net.cpp:399] pool2/3x3_s2_pool2/3x3_s2_0_split -> pool2/3x3_s2_pool2/3x3_s2_0_split_0
I0403 18:58:35.393446 24071 net.cpp:399] pool2/3x3_s2_pool2/3x3_s2_0_split -> pool2/3x3_s2_pool2/3x3_s2_0_split_1
I0403 18:58:35.393466 24071 net.cpp:399] pool2/3x3_s2_pool2/3x3_s2_0_split -> pool2/3x3_s2_pool2/3x3_s2_0_split_2
I0403 18:58:35.393484 24071 net.cpp:399] pool2/3x3_s2_pool2/3x3_s2_0_split -> pool2/3x3_s2_pool2/3x3_s2_0_split_3
I0403 18:58:35.393559 24071 net.cpp:141] Setting up pool2/3x3_s2_pool2/3x3_s2_0_split
I0403 18:58:35.393584 24071 net.cpp:148] Top shape: 24 192 28 28 (3612672)
I0403 18:58:35.393600 24071 net.cpp:148] Top shape: 24 192 28 28 (3612672)
I0403 18:58:35.393616 24071 net.cpp:148] Top shape: 24 192 28 28 (3612672)
I0403 18:58:35.393632 24071 net.cpp:148] Top shape: 24 192 28 28 (3612672)
I0403 18:58:35.393646 24071 net.cpp:156] Memory required for data: 491324448
I0403 18:58:35.393661 24071 layer_factory.hpp:77] Creating layer inception_3a/1x1
I0403 18:58:35.393682 24071 net.cpp:91] Creating Layer inception_3a/1x1
I0403 18:58:35.393702 24071 net.cpp:425] inception_3a/1x1 <- pool2/3x3_s2_pool2/3x3_s2_0_split_0
I0403 18:58:35.393720 24071 net.cpp:399] inception_3a/1x1 -> inception_3a/1x1
I0403 18:58:35.395241 24071 net.cpp:141] Setting up inception_3a/1x1
I0403 18:58:35.395274 24071 net.cpp:148] Top shape: 24 64 28 28 (1204224)
I0403 18:58:35.395290 24071 net.cpp:156] Memory required for data: 496141344
I0403 18:58:35.395309 24071 layer_factory.hpp:77] Creating layer inception_3a/relu_1x1
I0403 18:58:35.395328 24071 net.cpp:91] Creating Layer inception_3a/relu_1x1
I0403 18:58:35.395344 24071 net.cpp:425] inception_3a/relu_1x1 <- inception_3a/1x1
I0403 18:58:35.395360 24071 net.cpp:386] inception_3a/relu_1x1 -> inception_3a/1x1 (in-place)
I0403 18:58:35.395534 24071 net.cpp:141] Setting up inception_3a/relu_1x1
I0403 18:58:35.395565 24071 net.cpp:148] Top shape: 24 64 28 28 (1204224)
I0403 18:58:35.395581 24071 net.cpp:156] Memory required for data: 500958240
I0403 18:58:35.395596 24071 layer_factory.hpp:77] Creating layer inception_3a/3x3_reduce
I0403 18:58:35.395619 24071 net.cpp:91] Creating Layer inception_3a/3x3_reduce
I0403 18:58:35.395637 24071 net.cpp:425] inception_3a/3x3_reduce <- pool2/3x3_s2_pool2/3x3_s2_0_split_1
I0403 18:58:35.395654 24071 net.cpp:399] inception_3a/3x3_reduce -> inception_3a/3x3_reduce
I0403 18:58:35.397296 24071 net.cpp:141] Setting up inception_3a/3x3_reduce
I0403 18:58:35.397325 24071 net.cpp:148] Top shape: 24 96 28 28 (1806336)
I0403 18:58:35.397341 24071 net.cpp:156] Memory required for data: 508183584
I0403 18:58:35.397363 24071 layer_factory.hpp:77] Creating layer inception_3a/relu_3x3_reduce
I0403 18:58:35.397397 24071 net.cpp:91] Creating Layer inception_3a/relu_3x3_reduce
I0403 18:58:35.397415 24071 net.cpp:425] inception_3a/relu_3x3_reduce <- inception_3a/3x3_reduce
I0403 18:58:35.397434 24071 net.cpp:386] inception_3a/relu_3x3_reduce -> inception_3a/3x3_reduce (in-place)
I0403 18:58:35.397619 24071 net.cpp:141] Setting up inception_3a/relu_3x3_reduce
I0403 18:58:35.397644 24071 net.cpp:148] Top shape: 24 96 28 28 (1806336)
I0403 18:58:35.397667 24071 net.cpp:156] Memory required for data: 515408928
I0403 18:58:35.397683 24071 layer_factory.hpp:77] Creating layer inception_3a/3x3
I0403 18:58:35.397706 24071 net.cpp:91] Creating Layer inception_3a/3x3
I0403 18:58:35.397725 24071 net.cpp:425] inception_3a/3x3 <- inception_3a/3x3_reduce
I0403 18:58:35.397747 24071 net.cpp:399] inception_3a/3x3 -> inception_3a/3x3
I0403 18:58:35.399363 24071 net.cpp:141] Setting up inception_3a/3x3
I0403 18:58:35.399391 24071 net.cpp:148] Top shape: 24 128 28 28 (2408448)
I0403 18:58:35.399407 24071 net.cpp:156] Memory required for data: 525042720
I0403 18:58:35.399425 24071 layer_factory.hpp:77] Creating layer inception_3a/relu_3x3
I0403 18:58:35.399441 24071 net.cpp:91] Creating Layer inception_3a/relu_3x3
I0403 18:58:35.399456 24071 net.cpp:425] inception_3a/relu_3x3 <- inception_3a/3x3
I0403 18:58:35.399476 24071 net.cpp:386] inception_3a/relu_3x3 -> inception_3a/3x3 (in-place)
I0403 18:58:35.399750 24071 net.cpp:141] Setting up inception_3a/relu_3x3
I0403 18:58:35.399780 24071 net.cpp:148] Top shape: 24 128 28 28 (2408448)
I0403 18:58:35.399796 24071 net.cpp:156] Memory required for data: 534676512
I0403 18:58:35.399812 24071 layer_factory.hpp:77] Creating layer inception_3a/5x5_reduce
I0403 18:58:35.399833 24071 net.cpp:91] Creating Layer inception_3a/5x5_reduce
I0403 18:58:35.399850 24071 net.cpp:425] inception_3a/5x5_reduce <- pool2/3x3_s2_pool2/3x3_s2_0_split_2
I0403 18:58:35.399869 24071 net.cpp:399] inception_3a/5x5_reduce -> inception_3a/5x5_reduce
I0403 18:58:35.400833 24071 net.cpp:141] Setting up inception_3a/5x5_reduce
I0403 18:58:35.400861 24071 net.cpp:148] Top shape: 24 16 28 28 (301056)
I0403 18:58:35.400877 24071 net.cpp:156] Memory required for data: 535880736
I0403 18:58:35.400895 24071 layer_factory.hpp:77] Creating layer inception_3a/relu_5x5_reduce
I0403 18:58:35.400913 24071 net.cpp:91] Creating Layer inception_3a/relu_5x5_reduce
I0403 18:58:35.400930 24071 net.cpp:425] inception_3a/relu_5x5_reduce <- inception_3a/5x5_reduce
I0403 18:58:35.400950 24071 net.cpp:386] inception_3a/relu_5x5_reduce -> inception_3a/5x5_reduce (in-place)
I0403 18:58:35.401242 24071 net.cpp:141] Setting up inception_3a/relu_5x5_reduce
I0403 18:58:35.401268 24071 net.cpp:148] Top shape: 24 16 28 28 (301056)
I0403 18:58:35.401283 24071 net.cpp:156] Memory required for data: 537084960
I0403 18:58:35.401296 24071 layer_factory.hpp:77] Creating layer inception_3a/5x5
I0403 18:58:35.401317 24071 net.cpp:91] Creating Layer inception_3a/5x5
I0403 18:58:35.401335 24071 net.cpp:425] inception_3a/5x5 <- inception_3a/5x5_reduce
I0403 18:58:35.401353 24071 net.cpp:399] inception_3a/5x5 -> inception_3a/5x5
I0403 18:58:35.402370 24071 net.cpp:141] Setting up inception_3a/5x5
I0403 18:58:35.402398 24071 net.cpp:148] Top shape: 24 32 28 28 (602112)
I0403 18:58:35.402415 24071 net.cpp:156] Memory required for data: 539493408
I0403 18:58:35.402431 24071 layer_factory.hpp:77] Creating layer inception_3a/relu_5x5
I0403 18:58:35.402448 24071 net.cpp:91] Creating Layer inception_3a/relu_5x5
I0403 18:58:35.402463 24071 net.cpp:425] inception_3a/relu_5x5 <- inception_3a/5x5
I0403 18:58:35.402480 24071 net.cpp:386] inception_3a/relu_5x5 -> inception_3a/5x5 (in-place)
I0403 18:58:35.402662 24071 net.cpp:141] Setting up inception_3a/relu_5x5
I0403 18:58:35.402688 24071 net.cpp:148] Top shape: 24 32 28 28 (602112)
I0403 18:58:35.402701 24071 net.cpp:156] Memory required for data: 541901856
I0403 18:58:35.402714 24071 layer_factory.hpp:77] Creating layer inception_3a/pool
I0403 18:58:35.402731 24071 net.cpp:91] Creating Layer inception_3a/pool
I0403 18:58:35.402761 24071 net.cpp:425] inception_3a/pool <- pool2/3x3_s2_pool2/3x3_s2_0_split_3
I0403 18:58:35.402782 24071 net.cpp:399] inception_3a/pool -> inception_3a/pool
I0403 18:58:35.402839 24071 net.cpp:141] Setting up inception_3a/pool
I0403 18:58:35.402865 24071 net.cpp:148] Top shape: 24 192 28 28 (3612672)
I0403 18:58:35.402881 24071 net.cpp:156] Memory required for data: 556352544
I0403 18:58:35.402896 24071 layer_factory.hpp:77] Creating layer inception_3a/pool_proj
I0403 18:58:35.402920 24071 net.cpp:91] Creating Layer inception_3a/pool_proj
I0403 18:58:35.402938 24071 net.cpp:425] inception_3a/pool_proj <- inception_3a/pool
I0403 18:58:35.402956 24071 net.cpp:399] inception_3a/pool_proj -> inception_3a/pool_proj
I0403 18:58:35.403915 24071 net.cpp:141] Setting up inception_3a/pool_proj
I0403 18:58:35.403941 24071 net.cpp:148] Top shape: 24 32 28 28 (602112)
I0403 18:58:35.403956 24071 net.cpp:156] Memory required for data: 558760992
I0403 18:58:35.403978 24071 layer_factory.hpp:77] Creating layer inception_3a/relu_pool_proj
I0403 18:58:35.403997 24071 net.cpp:91] Creating Layer inception_3a/relu_pool_proj
I0403 18:58:35.404012 24071 net.cpp:425] inception_3a/relu_pool_proj <- inception_3a/pool_proj
I0403 18:58:35.404031 24071 net.cpp:386] inception_3a/relu_pool_proj -> inception_3a/pool_proj (in-place)
I0403 18:58:35.404307 24071 net.cpp:141] Setting up inception_3a/relu_pool_proj
I0403 18:58:35.404336 24071 net.cpp:148] Top shape: 24 32 28 28 (602112)
I0403 18:58:35.404352 24071 net.cpp:156] Memory required for data: 561169440
I0403 18:58:35.404366 24071 layer_factory.hpp:77] Creating layer inception_3a/output
I0403 18:58:35.404382 24071 net.cpp:91] Creating Layer inception_3a/output
I0403 18:58:35.404398 24071 net.cpp:425] inception_3a/output <- inception_3a/1x1
I0403 18:58:35.404415 24071 net.cpp:425] inception_3a/output <- inception_3a/3x3
I0403 18:58:35.404431 24071 net.cpp:425] inception_3a/output <- inception_3a/5x5
I0403 18:58:35.404448 24071 net.cpp:425] inception_3a/output <- inception_3a/pool_proj
I0403 18:58:35.404465 24071 net.cpp:399] inception_3a/output -> inception_3a/output
I0403 18:58:35.404511 24071 net.cpp:141] Setting up inception_3a/output
I0403 18:58:35.404536 24071 net.cpp:148] Top shape: 24 256 28 28 (4816896)
I0403 18:58:35.404562 24071 net.cpp:156] Memory required for data: 580437024
I0403 18:58:35.404577 24071 layer_factory.hpp:77] Creating layer inception_3a/output_inception_3a/output_0_split
I0403 18:58:35.404606 24071 net.cpp:91] Creating Layer inception_3a/output_inception_3a/output_0_split
I0403 18:58:35.404621 24071 net.cpp:425] inception_3a/output_inception_3a/output_0_split <- inception_3a/output
I0403 18:58:35.404638 24071 net.cpp:399] inception_3a/output_inception_3a/output_0_split -> inception_3a/output_inception_3a/output_0_split_0
I0403 18:58:35.404656 24071 net.cpp:399] inception_3a/output_inception_3a/output_0_split -> inception_3a/output_inception_3a/output_0_split_1
I0403 18:58:35.404680 24071 net.cpp:399] inception_3a/output_inception_3a/output_0_split -> inception_3a/output_inception_3a/output_0_split_2
I0403 18:58:35.404701 24071 net.cpp:399] inception_3a/output_inception_3a/output_0_split -> inception_3a/output_inception_3a/output_0_split_3
I0403 18:58:35.404775 24071 net.cpp:141] Setting up inception_3a/output_inception_3a/output_0_split
I0403 18:58:35.404798 24071 net.cpp:148] Top shape: 24 256 28 28 (4816896)
I0403 18:58:35.404814 24071 net.cpp:148] Top shape: 24 256 28 28 (4816896)
I0403 18:58:35.404827 24071 net.cpp:148] Top shape: 24 256 28 28 (4816896)
I0403 18:58:35.404842 24071 net.cpp:148] Top shape: 24 256 28 28 (4816896)
I0403 18:58:35.404855 24071 net.cpp:156] Memory required for data: 657507360
I0403 18:58:35.404868 24071 layer_factory.hpp:77] Creating layer inception_3b/1x1
I0403 18:58:35.404891 24071 net.cpp:91] Creating Layer inception_3b/1x1
I0403 18:58:35.404907 24071 net.cpp:425] inception_3b/1x1 <- inception_3a/output_inception_3a/output_0_split_0
I0403 18:58:35.404925 24071 net.cpp:399] inception_3b/1x1 -> inception_3b/1x1
I0403 18:58:35.406049 24071 net.cpp:141] Setting up inception_3b/1x1
I0403 18:58:35.406090 24071 net.cpp:148] Top shape: 24 128 28 28 (2408448)
I0403 18:58:35.406105 24071 net.cpp:156] Memory required for data: 667141152
I0403 18:58:35.406121 24071 layer_factory.hpp:77] Creating layer inception_3b/relu_1x1
I0403 18:58:35.406141 24071 net.cpp:91] Creating Layer inception_3b/relu_1x1
I0403 18:58:35.406157 24071 net.cpp:425] inception_3b/relu_1x1 <- inception_3b/1x1
I0403 18:58:35.406173 24071 net.cpp:386] inception_3b/relu_1x1 -> inception_3b/1x1 (in-place)
I0403 18:58:35.406347 24071 net.cpp:141] Setting up inception_3b/relu_1x1
I0403 18:58:35.406371 24071 net.cpp:148] Top shape: 24 128 28 28 (2408448)
I0403 18:58:35.406385 24071 net.cpp:156] Memory required for data: 676774944
I0403 18:58:35.406399 24071 layer_factory.hpp:77] Creating layer inception_3b/3x3_reduce
I0403 18:58:35.406420 24071 net.cpp:91] Creating Layer inception_3b/3x3_reduce
I0403 18:58:35.406437 24071 net.cpp:425] inception_3b/3x3_reduce <- inception_3a/output_inception_3a/output_0_split_1
I0403 18:58:35.406460 24071 net.cpp:399] inception_3b/3x3_reduce -> inception_3b/3x3_reduce
I0403 18:58:35.407582 24071 net.cpp:141] Setting up inception_3b/3x3_reduce
I0403 18:58:35.407608 24071 net.cpp:148] Top shape: 24 128 28 28 (2408448)
I0403 18:58:35.407624 24071 net.cpp:156] Memory required for data: 686408736
I0403 18:58:35.407640 24071 layer_factory.hpp:77] Creating layer inception_3b/relu_3x3_reduce
I0403 18:58:35.407660 24071 net.cpp:91] Creating Layer inception_3b/relu_3x3_reduce
I0403 18:58:35.407675 24071 net.cpp:425] inception_3b/relu_3x3_reduce <- inception_3b/3x3_reduce
I0403 18:58:35.407692 24071 net.cpp:386] inception_3b/relu_3x3_reduce -> inception_3b/3x3_reduce (in-place)
I0403 18:58:35.407867 24071 net.cpp:141] Setting up inception_3b/relu_3x3_reduce
I0403 18:58:35.407893 24071 net.cpp:148] Top shape: 24 128 28 28 (2408448)
I0403 18:58:35.407908 24071 net.cpp:156] Memory required for data: 696042528
I0403 18:58:35.407922 24071 layer_factory.hpp:77] Creating layer inception_3b/3x3
I0403 18:58:35.407944 24071 net.cpp:91] Creating Layer inception_3b/3x3
I0403 18:58:35.407961 24071 net.cpp:425] inception_3b/3x3 <- inception_3b/3x3_reduce
I0403 18:58:35.407981 24071 net.cpp:399] inception_3b/3x3 -> inception_3b/3x3
I0403 18:58:35.410820 24071 net.cpp:141] Setting up inception_3b/3x3
I0403 18:58:35.410851 24071 net.cpp:148] Top shape: 24 192 28 28 (3612672)
I0403 18:58:35.410867 24071 net.cpp:156] Memory required for data: 710493216
I0403 18:58:35.410886 24071 layer_factory.hpp:77] Creating layer inception_3b/relu_3x3
I0403 18:58:35.410904 24071 net.cpp:91] Creating Layer inception_3b/relu_3x3
I0403 18:58:35.410920 24071 net.cpp:425] inception_3b/relu_3x3 <- inception_3b/3x3
I0403 18:58:35.410940 24071 net.cpp:386] inception_3b/relu_3x3 -> inception_3b/3x3 (in-place)
I0403 18:58:35.411212 24071 net.cpp:141] Setting up inception_3b/relu_3x3
I0403 18:58:35.411239 24071 net.cpp:148] Top shape: 24 192 28 28 (3612672)
I0403 18:58:35.411254 24071 net.cpp:156] Memory required for data: 724943904
I0403 18:58:35.411268 24071 layer_factory.hpp:77] Creating layer inception_3b/5x5_reduce
I0403 18:58:35.411288 24071 net.cpp:91] Creating Layer inception_3b/5x5_reduce
I0403 18:58:35.411304 24071 net.cpp:425] inception_3b/5x5_reduce <- inception_3a/output_inception_3a/output_0_split_2
I0403 18:58:35.411322 24071 net.cpp:399] inception_3b/5x5_reduce -> inception_3b/5x5_reduce
I0403 18:58:35.412343 24071 net.cpp:141] Setting up inception_3b/5x5_reduce
I0403 18:58:35.412371 24071 net.cpp:148] Top shape: 24 32 28 28 (602112)
I0403 18:58:35.412386 24071 net.cpp:156] Memory required for data: 727352352
I0403 18:58:35.412405 24071 layer_factory.hpp:77] Creating layer inception_3b/relu_5x5_reduce
I0403 18:58:35.412420 24071 net.cpp:91] Creating Layer inception_3b/relu_5x5_reduce
I0403 18:58:35.412436 24071 net.cpp:425] inception_3b/relu_5x5_reduce <- inception_3b/5x5_reduce
I0403 18:58:35.412451 24071 net.cpp:386] inception_3b/relu_5x5_reduce -> inception_3b/5x5_reduce (in-place)
I0403 18:58:35.412645 24071 net.cpp:141] Setting up inception_3b/relu_5x5_reduce
I0403 18:58:35.412670 24071 net.cpp:148] Top shape: 24 32 28 28 (602112)
I0403 18:58:35.412684 24071 net.cpp:156] Memory required for data: 729760800
I0403 18:58:35.412698 24071 layer_factory.hpp:77] Creating layer inception_3b/5x5
I0403 18:58:35.412720 24071 net.cpp:91] Creating Layer inception_3b/5x5
I0403 18:58:35.412737 24071 net.cpp:425] inception_3b/5x5 <- inception_3b/5x5_reduce
I0403 18:58:35.412757 24071 net.cpp:399] inception_3b/5x5 -> inception_3b/5x5
I0403 18:58:35.414691 24071 net.cpp:141] Setting up inception_3b/5x5
I0403 18:58:35.414719 24071 net.cpp:148] Top shape: 24 96 28 28 (1806336)
I0403 18:58:35.414734 24071 net.cpp:156] Memory required for data: 736986144
I0403 18:58:35.414752 24071 layer_factory.hpp:77] Creating layer inception_3b/relu_5x5
I0403 18:58:35.414772 24071 net.cpp:91] Creating Layer inception_3b/relu_5x5
I0403 18:58:35.414788 24071 net.cpp:425] inception_3b/relu_5x5 <- inception_3b/5x5
I0403 18:58:35.414804 24071 net.cpp:386] inception_3b/relu_5x5 -> inception_3b/5x5 (in-place)
I0403 18:58:35.414993 24071 net.cpp:141] Setting up inception_3b/relu_5x5
I0403 18:58:35.415016 24071 net.cpp:148] Top shape: 24 96 28 28 (1806336)
I0403 18:58:35.415030 24071 net.cpp:156] Memory required for data: 744211488
I0403 18:58:35.415045 24071 layer_factory.hpp:77] Creating layer inception_3b/pool
I0403 18:58:35.415061 24071 net.cpp:91] Creating Layer inception_3b/pool
I0403 18:58:35.415076 24071 net.cpp:425] inception_3b/pool <- inception_3a/output_inception_3a/output_0_split_3
I0403 18:58:35.415093 24071 net.cpp:399] inception_3b/pool -> inception_3b/pool
I0403 18:58:35.415148 24071 net.cpp:141] Setting up inception_3b/pool
I0403 18:58:35.415170 24071 net.cpp:148] Top shape: 24 256 28 28 (4816896)
I0403 18:58:35.415184 24071 net.cpp:156] Memory required for data: 763479072
I0403 18:58:35.415197 24071 layer_factory.hpp:77] Creating layer inception_3b/pool_proj
I0403 18:58:35.415220 24071 net.cpp:91] Creating Layer inception_3b/pool_proj
I0403 18:58:35.415235 24071 net.cpp:425] inception_3b/pool_proj <- inception_3b/pool
I0403 18:58:35.415256 24071 net.cpp:399] inception_3b/pool_proj -> inception_3b/pool_proj
I0403 18:58:35.416314 24071 net.cpp:141] Setting up inception_3b/pool_proj
I0403 18:58:35.416342 24071 net.cpp:148] Top shape: 24 64 28 28 (1204224)
I0403 18:58:35.416357 24071 net.cpp:156] Memory required for data: 768295968
I0403 18:58:35.416373 24071 layer_factory.hpp:77] Creating layer inception_3b/relu_pool_proj
I0403 18:58:35.416393 24071 net.cpp:91] Creating Layer inception_3b/relu_pool_proj
I0403 18:58:35.416409 24071 net.cpp:425] inception_3b/relu_pool_proj <- inception_3b/pool_proj
I0403 18:58:35.416425 24071 net.cpp:386] inception_3b/relu_pool_proj -> inception_3b/pool_proj (in-place)
I0403 18:58:35.416818 24071 net.cpp:141] Setting up inception_3b/relu_pool_proj
I0403 18:58:35.416846 24071 net.cpp:148] Top shape: 24 64 28 28 (1204224)
I0403 18:58:35.416862 24071 net.cpp:156] Memory required for data: 773112864
I0403 18:58:35.416874 24071 layer_factory.hpp:77] Creating layer inception_3b/output
I0403 18:58:35.416893 24071 net.cpp:91] Creating Layer inception_3b/output
I0403 18:58:35.416908 24071 net.cpp:425] inception_3b/output <- inception_3b/1x1
I0403 18:58:35.416924 24071 net.cpp:425] inception_3b/output <- inception_3b/3x3
I0403 18:58:35.416940 24071 net.cpp:425] inception_3b/output <- inception_3b/5x5
I0403 18:58:35.416955 24071 net.cpp:425] inception_3b/output <- inception_3b/pool_proj
I0403 18:58:35.416973 24071 net.cpp:399] inception_3b/output -> inception_3b/output
I0403 18:58:35.417016 24071 net.cpp:141] Setting up inception_3b/output
I0403 18:58:35.417040 24071 net.cpp:148] Top shape: 24 480 28 28 (9031680)
I0403 18:58:35.417054 24071 net.cpp:156] Memory required for data: 809239584
I0403 18:58:35.417068 24071 layer_factory.hpp:77] Creating layer pool3/3x3_s2
I0403 18:58:35.417083 24071 net.cpp:91] Creating Layer pool3/3x3_s2
I0403 18:58:35.417098 24071 net.cpp:425] pool3/3x3_s2 <- inception_3b/output
I0403 18:58:35.417131 24071 net.cpp:399] pool3/3x3_s2 -> pool3/3x3_s2
I0403 18:58:35.417191 24071 net.cpp:141] Setting up pool3/3x3_s2
I0403 18:58:35.417213 24071 net.cpp:148] Top shape: 24 480 14 14 (2257920)
I0403 18:58:35.417227 24071 net.cpp:156] Memory required for data: 818271264
I0403 18:58:35.417239 24071 layer_factory.hpp:77] Creating layer pool3/3x3_s2_pool3/3x3_s2_0_split
I0403 18:58:35.417255 24071 net.cpp:91] Creating Layer pool3/3x3_s2_pool3/3x3_s2_0_split
I0403 18:58:35.417269 24071 net.cpp:425] pool3/3x3_s2_pool3/3x3_s2_0_split <- pool3/3x3_s2
I0403 18:58:35.417287 24071 net.cpp:399] pool3/3x3_s2_pool3/3x3_s2_0_split -> pool3/3x3_s2_pool3/3x3_s2_0_split_0
I0403 18:58:35.417315 24071 net.cpp:399] pool3/3x3_s2_pool3/3x3_s2_0_split -> pool3/3x3_s2_pool3/3x3_s2_0_split_1
I0403 18:58:35.417333 24071 net.cpp:399] pool3/3x3_s2_pool3/3x3_s2_0_split -> pool3/3x3_s2_pool3/3x3_s2_0_split_2
I0403 18:58:35.417353 24071 net.cpp:399] pool3/3x3_s2_pool3/3x3_s2_0_split -> pool3/3x3_s2_pool3/3x3_s2_0_split_3
I0403 18:58:35.417430 24071 net.cpp:141] Setting up pool3/3x3_s2_pool3/3x3_s2_0_split
I0403 18:58:35.417453 24071 net.cpp:148] Top shape: 24 480 14 14 (2257920)
I0403 18:58:35.417467 24071 net.cpp:148] Top shape: 24 480 14 14 (2257920)
I0403 18:58:35.417482 24071 net.cpp:148] Top shape: 24 480 14 14 (2257920)
I0403 18:58:35.417496 24071 net.cpp:148] Top shape: 24 480 14 14 (2257920)
I0403 18:58:35.417510 24071 net.cpp:156] Memory required for data: 854397984
I0403 18:58:35.417523 24071 layer_factory.hpp:77] Creating layer inception_4a/1x1
I0403 18:58:35.417549 24071 net.cpp:91] Creating Layer inception_4a/1x1
I0403 18:58:35.417568 24071 net.cpp:425] inception_4a/1x1 <- pool3/3x3_s2_pool3/3x3_s2_0_split_0
I0403 18:58:35.417588 24071 net.cpp:399] inception_4a/1x1 -> inception_4a/1x1
I0403 18:58:35.419131 24071 net.cpp:141] Setting up inception_4a/1x1
I0403 18:58:35.419157 24071 net.cpp:148] Top shape: 24 192 14 14 (903168)
I0403 18:58:35.419172 24071 net.cpp:156] Memory required for data: 858010656
I0403 18:58:35.419188 24071 layer_factory.hpp:77] Creating layer inception_4a/relu_1x1
I0403 18:58:35.419208 24071 net.cpp:91] Creating Layer inception_4a/relu_1x1
I0403 18:58:35.419224 24071 net.cpp:425] inception_4a/relu_1x1 <- inception_4a/1x1
I0403 18:58:35.419239 24071 net.cpp:386] inception_4a/relu_1x1 -> inception_4a/1x1 (in-place)
I0403 18:58:35.419414 24071 net.cpp:141] Setting up inception_4a/relu_1x1
I0403 18:58:35.419440 24071 net.cpp:148] Top shape: 24 192 14 14 (903168)
I0403 18:58:35.419452 24071 net.cpp:156] Memory required for data: 861623328
I0403 18:58:35.419466 24071 layer_factory.hpp:77] Creating layer inception_4a/3x3_reduce
I0403 18:58:35.419492 24071 net.cpp:91] Creating Layer inception_4a/3x3_reduce
I0403 18:58:35.419508 24071 net.cpp:425] inception_4a/3x3_reduce <- pool3/3x3_s2_pool3/3x3_s2_0_split_1
I0403 18:58:35.419528 24071 net.cpp:399] inception_4a/3x3_reduce -> inception_4a/3x3_reduce
I0403 18:58:35.420791 24071 net.cpp:141] Setting up inception_4a/3x3_reduce
I0403 18:58:35.420819 24071 net.cpp:148] Top shape: 24 96 14 14 (451584)
I0403 18:58:35.420832 24071 net.cpp:156] Memory required for data: 863429664
I0403 18:58:35.420856 24071 layer_factory.hpp:77] Creating layer inception_4a/relu_3x3_reduce
I0403 18:58:35.420876 24071 net.cpp:91] Creating Layer inception_4a/relu_3x3_reduce
I0403 18:58:35.420891 24071 net.cpp:425] inception_4a/relu_3x3_reduce <- inception_4a/3x3_reduce
I0403 18:58:35.420909 24071 net.cpp:386] inception_4a/relu_3x3_reduce -> inception_4a/3x3_reduce (in-place)
I0403 18:58:35.421087 24071 net.cpp:141] Setting up inception_4a/relu_3x3_reduce
I0403 18:58:35.421111 24071 net.cpp:148] Top shape: 24 96 14 14 (451584)
I0403 18:58:35.421125 24071 net.cpp:156] Memory required for data: 865236000
I0403 18:58:35.421139 24071 layer_factory.hpp:77] Creating layer inception_4a/3x3
I0403 18:58:35.421159 24071 net.cpp:91] Creating Layer inception_4a/3x3
I0403 18:58:35.421175 24071 net.cpp:425] inception_4a/3x3 <- inception_4a/3x3_reduce
I0403 18:58:35.421195 24071 net.cpp:399] inception_4a/3x3 -> inception_4a/3x3
I0403 18:58:35.423813 24071 net.cpp:141] Setting up inception_4a/3x3
I0403 18:58:35.423842 24071 net.cpp:148] Top shape: 24 208 14 14 (978432)
I0403 18:58:35.423858 24071 net.cpp:156] Memory required for data: 869149728
I0403 18:58:35.423877 24071 layer_factory.hpp:77] Creating layer inception_4a/relu_3x3
I0403 18:58:35.423897 24071 net.cpp:91] Creating Layer inception_4a/relu_3x3
I0403 18:58:35.423914 24071 net.cpp:425] inception_4a/relu_3x3 <- inception_4a/3x3
I0403 18:58:35.423931 24071 net.cpp:386] inception_4a/relu_3x3 -> inception_4a/3x3 (in-place)
I0403 18:58:35.424206 24071 net.cpp:141] Setting up inception_4a/relu_3x3
I0403 18:58:35.424232 24071 net.cpp:148] Top shape: 24 208 14 14 (978432)
I0403 18:58:35.424248 24071 net.cpp:156] Memory required for data: 873063456
I0403 18:58:35.424263 24071 layer_factory.hpp:77] Creating layer inception_4a/5x5_reduce
I0403 18:58:35.424283 24071 net.cpp:91] Creating Layer inception_4a/5x5_reduce
I0403 18:58:35.424299 24071 net.cpp:425] inception_4a/5x5_reduce <- pool3/3x3_s2_pool3/3x3_s2_0_split_2
I0403 18:58:35.424319 24071 net.cpp:399] inception_4a/5x5_reduce -> inception_4a/5x5_reduce
I0403 18:58:35.425334 24071 net.cpp:141] Setting up inception_4a/5x5_reduce
I0403 18:58:35.425364 24071 net.cpp:148] Top shape: 24 16 14 14 (75264)
I0403 18:58:35.425379 24071 net.cpp:156] Memory required for data: 873364512
I0403 18:58:35.425396 24071 layer_factory.hpp:77] Creating layer inception_4a/relu_5x5_reduce
I0403 18:58:35.425413 24071 net.cpp:91] Creating Layer inception_4a/relu_5x5_reduce
I0403 18:58:35.425428 24071 net.cpp:425] inception_4a/relu_5x5_reduce <- inception_4a/5x5_reduce
I0403 18:58:35.425444 24071 net.cpp:386] inception_4a/relu_5x5_reduce -> inception_4a/5x5_reduce (in-place)
I0403 18:58:35.425636 24071 net.cpp:141] Setting up inception_4a/relu_5x5_reduce
I0403 18:58:35.425662 24071 net.cpp:148] Top shape: 24 16 14 14 (75264)
I0403 18:58:35.425678 24071 net.cpp:156] Memory required for data: 873665568
I0403 18:58:35.425693 24071 layer_factory.hpp:77] Creating layer inception_4a/5x5
I0403 18:58:35.425715 24071 net.cpp:91] Creating Layer inception_4a/5x5
I0403 18:58:35.425734 24071 net.cpp:425] inception_4a/5x5 <- inception_4a/5x5_reduce
I0403 18:58:35.425755 24071 net.cpp:399] inception_4a/5x5 -> inception_4a/5x5
I0403 18:58:35.426837 24071 net.cpp:141] Setting up inception_4a/5x5
I0403 18:58:35.426863 24071 net.cpp:148] Top shape: 24 48 14 14 (225792)
I0403 18:58:35.426878 24071 net.cpp:156] Memory required for data: 874568736
I0403 18:58:35.426895 24071 layer_factory.hpp:77] Creating layer inception_4a/relu_5x5
I0403 18:58:35.426913 24071 net.cpp:91] Creating Layer inception_4a/relu_5x5
I0403 18:58:35.426928 24071 net.cpp:425] inception_4a/relu_5x5 <- inception_4a/5x5
I0403 18:58:35.426945 24071 net.cpp:386] inception_4a/relu_5x5 -> inception_4a/5x5 (in-place)
I0403 18:58:35.427125 24071 net.cpp:141] Setting up inception_4a/relu_5x5
I0403 18:58:35.427150 24071 net.cpp:148] Top shape: 24 48 14 14 (225792)
I0403 18:58:35.427163 24071 net.cpp:156] Memory required for data: 875471904
I0403 18:58:35.427177 24071 layer_factory.hpp:77] Creating layer inception_4a/pool
I0403 18:58:35.427196 24071 net.cpp:91] Creating Layer inception_4a/pool
I0403 18:58:35.427212 24071 net.cpp:425] inception_4a/pool <- pool3/3x3_s2_pool3/3x3_s2_0_split_3
I0403 18:58:35.427230 24071 net.cpp:399] inception_4a/pool -> inception_4a/pool
I0403 18:58:35.427291 24071 net.cpp:141] Setting up inception_4a/pool
I0403 18:58:35.427323 24071 net.cpp:148] Top shape: 24 480 14 14 (2257920)
I0403 18:58:35.427337 24071 net.cpp:156] Memory required for data: 884503584
I0403 18:58:35.427350 24071 layer_factory.hpp:77] Creating layer inception_4a/pool_proj
I0403 18:58:35.427378 24071 net.cpp:91] Creating Layer inception_4a/pool_proj
I0403 18:58:35.427394 24071 net.cpp:425] inception_4a/pool_proj <- inception_4a/pool
I0403 18:58:35.427415 24071 net.cpp:399] inception_4a/pool_proj -> inception_4a/pool_proj
I0403 18:58:35.428570 24071 net.cpp:141] Setting up inception_4a/pool_proj
I0403 18:58:35.428598 24071 net.cpp:148] Top shape: 24 64 14 14 (301056)
I0403 18:58:35.428627 24071 net.cpp:156] Memory required for data: 885707808
I0403 18:58:35.428647 24071 layer_factory.hpp:77] Creating layer inception_4a/relu_pool_proj
I0403 18:58:35.428666 24071 net.cpp:91] Creating Layer inception_4a/relu_pool_proj
I0403 18:58:35.428683 24071 net.cpp:425] inception_4a/relu_pool_proj <- inception_4a/pool_proj
I0403 18:58:35.428700 24071 net.cpp:386] inception_4a/relu_pool_proj -> inception_4a/pool_proj (in-place)
I0403 18:58:35.428977 24071 net.cpp:141] Setting up inception_4a/relu_pool_proj
I0403 18:58:35.429003 24071 net.cpp:148] Top shape: 24 64 14 14 (301056)
I0403 18:58:35.429018 24071 net.cpp:156] Memory required for data: 886912032
I0403 18:58:35.429031 24071 layer_factory.hpp:77] Creating layer inception_4a/output
I0403 18:58:35.429047 24071 net.cpp:91] Creating Layer inception_4a/output
I0403 18:58:35.429062 24071 net.cpp:425] inception_4a/output <- inception_4a/1x1
I0403 18:58:35.429078 24071 net.cpp:425] inception_4a/output <- inception_4a/3x3
I0403 18:58:35.429093 24071 net.cpp:425] inception_4a/output <- inception_4a/5x5
I0403 18:58:35.429107 24071 net.cpp:425] inception_4a/output <- inception_4a/pool_proj
I0403 18:58:35.429126 24071 net.cpp:399] inception_4a/output -> inception_4a/output
I0403 18:58:35.429172 24071 net.cpp:141] Setting up inception_4a/output
I0403 18:58:35.429194 24071 net.cpp:148] Top shape: 24 512 14 14 (2408448)
I0403 18:58:35.429208 24071 net.cpp:156] Memory required for data: 896545824
I0403 18:58:35.429222 24071 layer_factory.hpp:77] Creating layer inception_4a/output_inception_4a/output_0_split
I0403 18:58:35.429239 24071 net.cpp:91] Creating Layer inception_4a/output_inception_4a/output_0_split
I0403 18:58:35.429252 24071 net.cpp:425] inception_4a/output_inception_4a/output_0_split <- inception_4a/output
I0403 18:58:35.429271 24071 net.cpp:399] inception_4a/output_inception_4a/output_0_split -> inception_4a/output_inception_4a/output_0_split_0
I0403 18:58:35.429291 24071 net.cpp:399] inception_4a/output_inception_4a/output_0_split -> inception_4a/output_inception_4a/output_0_split_1
I0403 18:58:35.429312 24071 net.cpp:399] inception_4a/output_inception_4a/output_0_split -> inception_4a/output_inception_4a/output_0_split_2
I0403 18:58:35.429332 24071 net.cpp:399] inception_4a/output_inception_4a/output_0_split -> inception_4a/output_inception_4a/output_0_split_3
I0403 18:58:35.429349 24071 net.cpp:399] inception_4a/output_inception_4a/output_0_split -> inception_4a/output_inception_4a/output_0_split_4
I0403 18:58:35.429440 24071 net.cpp:141] Setting up inception_4a/output_inception_4a/output_0_split
I0403 18:58:35.429466 24071 net.cpp:148] Top shape: 24 512 14 14 (2408448)
I0403 18:58:35.429481 24071 net.cpp:148] Top shape: 24 512 14 14 (2408448)
I0403 18:58:35.429497 24071 net.cpp:148] Top shape: 24 512 14 14 (2408448)
I0403 18:58:35.429510 24071 net.cpp:148] Top shape: 24 512 14 14 (2408448)
I0403 18:58:35.429525 24071 net.cpp:148] Top shape: 24 512 14 14 (2408448)
I0403 18:58:35.429541 24071 net.cpp:156] Memory required for data: 944714784
I0403 18:58:35.429558 24071 layer_factory.hpp:77] Creating layer loss1/ave_pool
I0403 18:58:35.429576 24071 net.cpp:91] Creating Layer loss1/ave_pool
I0403 18:58:35.429591 24071 net.cpp:425] loss1/ave_pool <- inception_4a/output_inception_4a/output_0_split_0
I0403 18:58:35.429608 24071 net.cpp:399] loss1/ave_pool -> loss1/ave_pool
I0403 18:58:35.429816 24071 net.cpp:141] Setting up loss1/ave_pool
I0403 18:58:35.429841 24071 net.cpp:148] Top shape: 24 512 4 4 (196608)
I0403 18:58:35.429854 24071 net.cpp:156] Memory required for data: 945501216
I0403 18:58:35.429868 24071 layer_factory.hpp:77] Creating layer loss1/conv
I0403 18:58:35.429889 24071 net.cpp:91] Creating Layer loss1/conv
I0403 18:58:35.429906 24071 net.cpp:425] loss1/conv <- loss1/ave_pool
I0403 18:58:35.429926 24071 net.cpp:399] loss1/conv -> loss1/conv
I0403 18:58:35.431318 24071 net.cpp:141] Setting up loss1/conv
I0403 18:58:35.431349 24071 net.cpp:148] Top shape: 24 128 4 4 (49152)
I0403 18:58:35.431377 24071 net.cpp:156] Memory required for data: 945697824
I0403 18:58:35.431398 24071 layer_factory.hpp:77] Creating layer loss1/relu_conv
I0403 18:58:35.431416 24071 net.cpp:91] Creating Layer loss1/relu_conv
I0403 18:58:35.431433 24071 net.cpp:425] loss1/relu_conv <- loss1/conv
I0403 18:58:35.431449 24071 net.cpp:386] loss1/relu_conv -> loss1/conv (in-place)
I0403 18:58:35.431741 24071 net.cpp:141] Setting up loss1/relu_conv
I0403 18:58:35.431769 24071 net.cpp:148] Top shape: 24 128 4 4 (49152)
I0403 18:58:35.431784 24071 net.cpp:156] Memory required for data: 945894432
I0403 18:58:35.431798 24071 layer_factory.hpp:77] Creating layer loss1/fc
I0403 18:58:35.431820 24071 net.cpp:91] Creating Layer loss1/fc
I0403 18:58:35.431838 24071 net.cpp:425] loss1/fc <- loss1/conv
I0403 18:58:35.431857 24071 net.cpp:399] loss1/fc -> loss1/fc
I0403 18:58:35.449115 24071 net.cpp:141] Setting up loss1/fc
I0403 18:58:35.449149 24071 net.cpp:148] Top shape: 24 1024 (24576)
I0403 18:58:35.449165 24071 net.cpp:156] Memory required for data: 945992736
I0403 18:58:35.449182 24071 layer_factory.hpp:77] Creating layer loss1/relu_fc
I0403 18:58:35.449203 24071 net.cpp:91] Creating Layer loss1/relu_fc
I0403 18:58:35.449218 24071 net.cpp:425] loss1/relu_fc <- loss1/fc
I0403 18:58:35.449235 24071 net.cpp:386] loss1/relu_fc -> loss1/fc (in-place)
I0403 18:58:35.449429 24071 net.cpp:141] Setting up loss1/relu_fc
I0403 18:58:35.449455 24071 net.cpp:148] Top shape: 24 1024 (24576)
I0403 18:58:35.449470 24071 net.cpp:156] Memory required for data: 946091040
I0403 18:58:35.449484 24071 layer_factory.hpp:77] Creating layer loss1/drop_fc
I0403 18:58:35.449512 24071 net.cpp:91] Creating Layer loss1/drop_fc
I0403 18:58:35.449530 24071 net.cpp:425] loss1/drop_fc <- loss1/fc
I0403 18:58:35.449553 24071 net.cpp:386] loss1/drop_fc -> loss1/fc (in-place)
I0403 18:58:35.449611 24071 net.cpp:141] Setting up loss1/drop_fc
I0403 18:58:35.449633 24071 net.cpp:148] Top shape: 24 1024 (24576)
I0403 18:58:35.449647 24071 net.cpp:156] Memory required for data: 946189344
I0403 18:58:35.449661 24071 layer_factory.hpp:77] Creating layer loss1/classifier_plantvillage
I0403 18:58:35.449679 24071 net.cpp:91] Creating Layer loss1/classifier_plantvillage
I0403 18:58:35.449693 24071 net.cpp:425] loss1/classifier_plantvillage <- loss1/fc
I0403 18:58:35.449714 24071 net.cpp:399] loss1/classifier_plantvillage -> loss1/classifier_plantvillage
I0403 18:58:35.450619 24071 net.cpp:141] Setting up loss1/classifier_plantvillage
I0403 18:58:35.450657 24071 net.cpp:148] Top shape: 24 38 (912)
I0403 18:58:35.450672 24071 net.cpp:156] Memory required for data: 946192992
I0403 18:58:35.450690 24071 layer_factory.hpp:77] Creating layer loss1/classifier_plantvillage_loss1/classifier_plantvillage_0_split
I0403 18:58:35.450707 24071 net.cpp:91] Creating Layer loss1/classifier_plantvillage_loss1/classifier_plantvillage_0_split
I0403 18:58:35.450722 24071 net.cpp:425] loss1/classifier_plantvillage_loss1/classifier_plantvillage_0_split <- loss1/classifier_plantvillage
I0403 18:58:35.450739 24071 net.cpp:399] loss1/classifier_plantvillage_loss1/classifier_plantvillage_0_split -> loss1/classifier_plantvillage_loss1/classifier_plantvillage_0_split_0
I0403 18:58:35.450758 24071 net.cpp:399] loss1/classifier_plantvillage_loss1/classifier_plantvillage_0_split -> loss1/classifier_plantvillage_loss1/classifier_plantvillage_0_split_1
I0403 18:58:35.450778 24071 net.cpp:399] loss1/classifier_plantvillage_loss1/classifier_plantvillage_0_split -> loss1/classifier_plantvillage_loss1/classifier_plantvillage_0_split_2
I0403 18:58:35.450844 24071 net.cpp:141] Setting up loss1/classifier_plantvillage_loss1/classifier_plantvillage_0_split
I0403 18:58:35.450866 24071 net.cpp:148] Top shape: 24 38 (912)
I0403 18:58:35.450882 24071 net.cpp:148] Top shape: 24 38 (912)
I0403 18:58:35.450896 24071 net.cpp:148] Top shape: 24 38 (912)
I0403 18:58:35.450909 24071 net.cpp:156] Memory required for data: 946203936
I0403 18:58:35.450923 24071 layer_factory.hpp:77] Creating layer inception_4b/1x1
I0403 18:58:35.450943 24071 net.cpp:91] Creating Layer inception_4b/1x1
I0403 18:58:35.450978 24071 net.cpp:425] inception_4b/1x1 <- inception_4a/output_inception_4a/output_0_split_1
I0403 18:58:35.450999 24071 net.cpp:399] inception_4b/1x1 -> inception_4b/1x1
I0403 18:58:35.452630 24071 net.cpp:141] Setting up inception_4b/1x1
I0403 18:58:35.452659 24071 net.cpp:148] Top shape: 24 160 14 14 (752640)
I0403 18:58:35.452675 24071 net.cpp:156] Memory required for data: 949214496
I0403 18:58:35.452692 24071 layer_factory.hpp:77] Creating layer inception_4b/relu_1x1
I0403 18:58:35.452710 24071 net.cpp:91] Creating Layer inception_4b/relu_1x1
I0403 18:58:35.452725 24071 net.cpp:425] inception_4b/relu_1x1 <- inception_4b/1x1
I0403 18:58:35.452742 24071 net.cpp:386] inception_4b/relu_1x1 -> inception_4b/1x1 (in-place)
I0403 18:58:35.452920 24071 net.cpp:141] Setting up inception_4b/relu_1x1
I0403 18:58:35.452949 24071 net.cpp:148] Top shape: 24 160 14 14 (752640)
I0403 18:58:35.452965 24071 net.cpp:156] Memory required for data: 952225056
I0403 18:58:35.452978 24071 layer_factory.hpp:77] Creating layer inception_4b/3x3_reduce
I0403 18:58:35.452998 24071 net.cpp:91] Creating Layer inception_4b/3x3_reduce
I0403 18:58:35.453016 24071 net.cpp:425] inception_4b/3x3_reduce <- inception_4a/output_inception_4a/output_0_split_2
I0403 18:58:35.453037 24071 net.cpp:399] inception_4b/3x3_reduce -> inception_4b/3x3_reduce
I0403 18:58:35.454370 24071 net.cpp:141] Setting up inception_4b/3x3_reduce
I0403 18:58:35.454398 24071 net.cpp:148] Top shape: 24 112 14 14 (526848)
I0403 18:58:35.454416 24071 net.cpp:156] Memory required for data: 954332448
I0403 18:58:35.454432 24071 layer_factory.hpp:77] Creating layer inception_4b/relu_3x3_reduce
I0403 18:58:35.454449 24071 net.cpp:91] Creating Layer inception_4b/relu_3x3_reduce
I0403 18:58:35.454464 24071 net.cpp:425] inception_4b/relu_3x3_reduce <- inception_4b/3x3_reduce
I0403 18:58:35.454483 24071 net.cpp:386] inception_4b/relu_3x3_reduce -> inception_4b/3x3_reduce (in-place)
I0403 18:58:35.454766 24071 net.cpp:141] Setting up inception_4b/relu_3x3_reduce
I0403 18:58:35.454793 24071 net.cpp:148] Top shape: 24 112 14 14 (526848)
I0403 18:58:35.454808 24071 net.cpp:156] Memory required for data: 956439840
I0403 18:58:35.454823 24071 layer_factory.hpp:77] Creating layer inception_4b/3x3
I0403 18:58:35.454843 24071 net.cpp:91] Creating Layer inception_4b/3x3
I0403 18:58:35.454859 24071 net.cpp:425] inception_4b/3x3 <- inception_4b/3x3_reduce
I0403 18:58:35.454876 24071 net.cpp:399] inception_4b/3x3 -> inception_4b/3x3
I0403 18:58:35.457785 24071 net.cpp:141] Setting up inception_4b/3x3
I0403 18:58:35.457814 24071 net.cpp:148] Top shape: 24 224 14 14 (1053696)
I0403 18:58:35.457829 24071 net.cpp:156] Memory required for data: 960654624
I0403 18:58:35.457846 24071 layer_factory.hpp:77] Creating layer inception_4b/relu_3x3
I0403 18:58:35.457865 24071 net.cpp:91] Creating Layer inception_4b/relu_3x3
I0403 18:58:35.457882 24071 net.cpp:425] inception_4b/relu_3x3 <- inception_4b/3x3
I0403 18:58:35.457898 24071 net.cpp:386] inception_4b/relu_3x3 -> inception_4b/3x3 (in-place)
I0403 18:58:35.458082 24071 net.cpp:141] Setting up inception_4b/relu_3x3
I0403 18:58:35.458106 24071 net.cpp:148] Top shape: 24 224 14 14 (1053696)
I0403 18:58:35.458120 24071 net.cpp:156] Memory required for data: 964869408
I0403 18:58:35.458133 24071 layer_factory.hpp:77] Creating layer inception_4b/5x5_reduce
I0403 18:58:35.458158 24071 net.cpp:91] Creating Layer inception_4b/5x5_reduce
I0403 18:58:35.458176 24071 net.cpp:425] inception_4b/5x5_reduce <- inception_4a/output_inception_4a/output_0_split_3
I0403 18:58:35.458196 24071 net.cpp:399] inception_4b/5x5_reduce -> inception_4b/5x5_reduce
I0403 18:58:35.459273 24071 net.cpp:141] Setting up inception_4b/5x5_reduce
I0403 18:58:35.459302 24071 net.cpp:148] Top shape: 24 24 14 14 (112896)
I0403 18:58:35.459318 24071 net.cpp:156] Memory required for data: 965320992
I0403 18:58:35.459336 24071 layer_factory.hpp:77] Creating layer inception_4b/relu_5x5_reduce
I0403 18:58:35.459352 24071 net.cpp:91] Creating Layer inception_4b/relu_5x5_reduce
I0403 18:58:35.459383 24071 net.cpp:425] inception_4b/relu_5x5_reduce <- inception_4b/5x5_reduce
I0403 18:58:35.459403 24071 net.cpp:386] inception_4b/relu_5x5_reduce -> inception_4b/5x5_reduce (in-place)
I0403 18:58:35.459592 24071 net.cpp:141] Setting up inception_4b/relu_5x5_reduce
I0403 18:58:35.459616 24071 net.cpp:148] Top shape: 24 24 14 14 (112896)
I0403 18:58:35.459630 24071 net.cpp:156] Memory required for data: 965772576
I0403 18:58:35.459645 24071 layer_factory.hpp:77] Creating layer inception_4b/5x5
I0403 18:58:35.459666 24071 net.cpp:91] Creating Layer inception_4b/5x5
I0403 18:58:35.459682 24071 net.cpp:425] inception_4b/5x5 <- inception_4b/5x5_reduce
I0403 18:58:35.459703 24071 net.cpp:399] inception_4b/5x5 -> inception_4b/5x5
I0403 18:58:35.460930 24071 net.cpp:141] Setting up inception_4b/5x5
I0403 18:58:35.460966 24071 net.cpp:148] Top shape: 24 64 14 14 (301056)
I0403 18:58:35.460983 24071 net.cpp:156] Memory required for data: 966976800
I0403 18:58:35.461000 24071 layer_factory.hpp:77] Creating layer inception_4b/relu_5x5
I0403 18:58:35.461017 24071 net.cpp:91] Creating Layer inception_4b/relu_5x5
I0403 18:58:35.461032 24071 net.cpp:425] inception_4b/relu_5x5 <- inception_4b/5x5
I0403 18:58:35.461050 24071 net.cpp:386] inception_4b/relu_5x5 -> inception_4b/5x5 (in-place)
I0403 18:58:35.461338 24071 net.cpp:141] Setting up inception_4b/relu_5x5
I0403 18:58:35.461364 24071 net.cpp:148] Top shape: 24 64 14 14 (301056)
I0403 18:58:35.461380 24071 net.cpp:156] Memory required for data: 968181024
I0403 18:58:35.461395 24071 layer_factory.hpp:77] Creating layer inception_4b/pool
I0403 18:58:35.461410 24071 net.cpp:91] Creating Layer inception_4b/pool
I0403 18:58:35.461426 24071 net.cpp:425] inception_4b/pool <- inception_4a/output_inception_4a/output_0_split_4
I0403 18:58:35.461444 24071 net.cpp:399] inception_4b/pool -> inception_4b/pool
I0403 18:58:35.461509 24071 net.cpp:141] Setting up inception_4b/pool
I0403 18:58:35.461535 24071 net.cpp:148] Top shape: 24 512 14 14 (2408448)
I0403 18:58:35.461555 24071 net.cpp:156] Memory required for data: 977814816
I0403 18:58:35.461570 24071 layer_factory.hpp:77] Creating layer inception_4b/pool_proj
I0403 18:58:35.461601 24071 net.cpp:91] Creating Layer inception_4b/pool_proj
I0403 18:58:35.461618 24071 net.cpp:425] inception_4b/pool_proj <- inception_4b/pool
I0403 18:58:35.461637 24071 net.cpp:399] inception_4b/pool_proj -> inception_4b/pool_proj
I0403 18:58:35.462843 24071 net.cpp:141] Setting up inception_4b/pool_proj
I0403 18:58:35.462874 24071 net.cpp:148] Top shape: 24 64 14 14 (301056)
I0403 18:58:35.462890 24071 net.cpp:156] Memory required for data: 979019040
I0403 18:58:35.462908 24071 layer_factory.hpp:77] Creating layer inception_4b/relu_pool_proj
I0403 18:58:35.462924 24071 net.cpp:91] Creating Layer inception_4b/relu_pool_proj
I0403 18:58:35.462939 24071 net.cpp:425] inception_4b/relu_pool_proj <- inception_4b/pool_proj
I0403 18:58:35.462955 24071 net.cpp:386] inception_4b/relu_pool_proj -> inception_4b/pool_proj (in-place)
I0403 18:58:35.463140 24071 net.cpp:141] Setting up inception_4b/relu_pool_proj
I0403 18:58:35.463165 24071 net.cpp:148] Top shape: 24 64 14 14 (301056)
I0403 18:58:35.463181 24071 net.cpp:156] Memory required for data: 980223264
I0403 18:58:35.463194 24071 layer_factory.hpp:77] Creating layer inception_4b/output
I0403 18:58:35.463212 24071 net.cpp:91] Creating Layer inception_4b/output
I0403 18:58:35.463227 24071 net.cpp:425] inception_4b/output <- inception_4b/1x1
I0403 18:58:35.463245 24071 net.cpp:425] inception_4b/output <- inception_4b/3x3
I0403 18:58:35.463261 24071 net.cpp:425] inception_4b/output <- inception_4b/5x5
I0403 18:58:35.463277 24071 net.cpp:425] inception_4b/output <- inception_4b/pool_proj
I0403 18:58:35.463297 24071 net.cpp:399] inception_4b/output -> inception_4b/output
I0403 18:58:35.463343 24071 net.cpp:141] Setting up inception_4b/output
I0403 18:58:35.463368 24071 net.cpp:148] Top shape: 24 512 14 14 (2408448)
I0403 18:58:35.463382 24071 net.cpp:156] Memory required for data: 989857056
I0403 18:58:35.463410 24071 layer_factory.hpp:77] Creating layer inception_4b/output_inception_4b/output_0_split
I0403 18:58:35.463428 24071 net.cpp:91] Creating Layer inception_4b/output_inception_4b/output_0_split
I0403 18:58:35.463443 24071 net.cpp:425] inception_4b/output_inception_4b/output_0_split <- inception_4b/output
I0403 18:58:35.463462 24071 net.cpp:399] inception_4b/output_inception_4b/output_0_split -> inception_4b/output_inception_4b/output_0_split_0
I0403 18:58:35.463482 24071 net.cpp:399] inception_4b/output_inception_4b/output_0_split -> inception_4b/output_inception_4b/output_0_split_1
I0403 18:58:35.463502 24071 net.cpp:399] inception_4b/output_inception_4b/output_0_split -> inception_4b/output_inception_4b/output_0_split_2
I0403 18:58:35.463521 24071 net.cpp:399] inception_4b/output_inception_4b/output_0_split -> inception_4b/output_inception_4b/output_0_split_3
I0403 18:58:35.463606 24071 net.cpp:141] Setting up inception_4b/output_inception_4b/output_0_split
I0403 18:58:35.463629 24071 net.cpp:148] Top shape: 24 512 14 14 (2408448)
I0403 18:58:35.463645 24071 net.cpp:148] Top shape: 24 512 14 14 (2408448)
I0403 18:58:35.463660 24071 net.cpp:148] Top shape: 24 512 14 14 (2408448)
I0403 18:58:35.463673 24071 net.cpp:148] Top shape: 24 512 14 14 (2408448)
I0403 18:58:35.463685 24071 net.cpp:156] Memory required for data: 1028392224
I0403 18:58:35.463699 24071 layer_factory.hpp:77] Creating layer inception_4c/1x1
I0403 18:58:35.463719 24071 net.cpp:91] Creating Layer inception_4c/1x1
I0403 18:58:35.463737 24071 net.cpp:425] inception_4c/1x1 <- inception_4b/output_inception_4b/output_0_split_0
I0403 18:58:35.463755 24071 net.cpp:399] inception_4c/1x1 -> inception_4c/1x1
I0403 18:58:35.465176 24071 net.cpp:141] Setting up inception_4c/1x1
I0403 18:58:35.465204 24071 net.cpp:148] Top shape: 24 128 14 14 (602112)
I0403 18:58:35.465219 24071 net.cpp:156] Memory required for data: 1030800672
I0403 18:58:35.465235 24071 layer_factory.hpp:77] Creating layer inception_4c/relu_1x1
I0403 18:58:35.465255 24071 net.cpp:91] Creating Layer inception_4c/relu_1x1
I0403 18:58:35.465271 24071 net.cpp:425] inception_4c/relu_1x1 <- inception_4c/1x1
I0403 18:58:35.465288 24071 net.cpp:386] inception_4c/relu_1x1 -> inception_4c/1x1 (in-place)
I0403 18:58:35.465469 24071 net.cpp:141] Setting up inception_4c/relu_1x1
I0403 18:58:35.465493 24071 net.cpp:148] Top shape: 24 128 14 14 (602112)
I0403 18:58:35.465507 24071 net.cpp:156] Memory required for data: 1033209120
I0403 18:58:35.465522 24071 layer_factory.hpp:77] Creating layer inception_4c/3x3_reduce
I0403 18:58:35.465551 24071 net.cpp:91] Creating Layer inception_4c/3x3_reduce
I0403 18:58:35.465572 24071 net.cpp:425] inception_4c/3x3_reduce <- inception_4b/output_inception_4b/output_0_split_1
I0403 18:58:35.465591 24071 net.cpp:399] inception_4c/3x3_reduce -> inception_4c/3x3_reduce
I0403 18:58:35.467489 24071 net.cpp:141] Setting up inception_4c/3x3_reduce
I0403 18:58:35.467517 24071 net.cpp:148] Top shape: 24 128 14 14 (602112)
I0403 18:58:35.467532 24071 net.cpp:156] Memory required for data: 1035617568
I0403 18:58:35.467555 24071 layer_factory.hpp:77] Creating layer inception_4c/relu_3x3_reduce
I0403 18:58:35.467574 24071 net.cpp:91] Creating Layer inception_4c/relu_3x3_reduce
I0403 18:58:35.467592 24071 net.cpp:425] inception_4c/relu_3x3_reduce <- inception_4c/3x3_reduce
I0403 18:58:35.467608 24071 net.cpp:386] inception_4c/relu_3x3_reduce -> inception_4c/3x3_reduce (in-place)
I0403 18:58:35.467893 24071 net.cpp:141] Setting up inception_4c/relu_3x3_reduce
I0403 18:58:35.467919 24071 net.cpp:148] Top shape: 24 128 14 14 (602112)
I0403 18:58:35.467933 24071 net.cpp:156] Memory required for data: 1038026016
I0403 18:58:35.467947 24071 layer_factory.hpp:77] Creating layer inception_4c/3x3
I0403 18:58:35.467970 24071 net.cpp:91] Creating Layer inception_4c/3x3
I0403 18:58:35.467988 24071 net.cpp:425] inception_4c/3x3 <- inception_4c/3x3_reduce
I0403 18:58:35.468008 24071 net.cpp:399] inception_4c/3x3 -> inception_4c/3x3
I0403 18:58:35.471521 24071 net.cpp:141] Setting up inception_4c/3x3
I0403 18:58:35.471570 24071 net.cpp:148] Top shape: 24 256 14 14 (1204224)
I0403 18:58:35.471598 24071 net.cpp:156] Memory required for data: 1042842912
I0403 18:58:35.471631 24071 layer_factory.hpp:77] Creating layer inception_4c/relu_3x3
I0403 18:58:35.471652 24071 net.cpp:91] Creating Layer inception_4c/relu_3x3
I0403 18:58:35.471668 24071 net.cpp:425] inception_4c/relu_3x3 <- inception_4c/3x3
I0403 18:58:35.471684 24071 net.cpp:386] inception_4c/relu_3x3 -> inception_4c/3x3 (in-place)
I0403 18:58:35.471866 24071 net.cpp:141] Setting up inception_4c/relu_3x3
I0403 18:58:35.471895 24071 net.cpp:148] Top shape: 24 256 14 14 (1204224)
I0403 18:58:35.471910 24071 net.cpp:156] Memory required for data: 1047659808
I0403 18:58:35.471925 24071 layer_factory.hpp:77] Creating layer inception_4c/5x5_reduce
I0403 18:58:35.471946 24071 net.cpp:91] Creating Layer inception_4c/5x5_reduce
I0403 18:58:35.471962 24071 net.cpp:425] inception_4c/5x5_reduce <- inception_4b/output_inception_4b/output_0_split_2
I0403 18:58:35.471982 24071 net.cpp:399] inception_4c/5x5_reduce -> inception_4c/5x5_reduce
I0403 18:58:35.473075 24071 net.cpp:141] Setting up inception_4c/5x5_reduce
I0403 18:58:35.473104 24071 net.cpp:148] Top shape: 24 24 14 14 (112896)
I0403 18:58:35.473119 24071 net.cpp:156] Memory required for data: 1048111392
I0403 18:58:35.473137 24071 layer_factory.hpp:77] Creating layer inception_4c/relu_5x5_reduce
I0403 18:58:35.473155 24071 net.cpp:91] Creating Layer inception_4c/relu_5x5_reduce
I0403 18:58:35.473170 24071 net.cpp:425] inception_4c/relu_5x5_reduce <- inception_4c/5x5_reduce
I0403 18:58:35.473187 24071 net.cpp:386] inception_4c/relu_5x5_reduce -> inception_4c/5x5_reduce (in-place)
I0403 18:58:35.473373 24071 net.cpp:141] Setting up inception_4c/relu_5x5_reduce
I0403 18:58:35.473398 24071 net.cpp:148] Top shape: 24 24 14 14 (112896)
I0403 18:58:35.473415 24071 net.cpp:156] Memory required for data: 1048562976
I0403 18:58:35.473429 24071 layer_factory.hpp:77] Creating layer inception_4c/5x5
I0403 18:58:35.473450 24071 net.cpp:91] Creating Layer inception_4c/5x5
I0403 18:58:35.473469 24071 net.cpp:425] inception_4c/5x5 <- inception_4c/5x5_reduce
I0403 18:58:35.473490 24071 net.cpp:399] inception_4c/5x5 -> inception_4c/5x5
I0403 18:58:35.474735 24071 net.cpp:141] Setting up inception_4c/5x5
I0403 18:58:35.474761 24071 net.cpp:148] Top shape: 24 64 14 14 (301056)
I0403 18:58:35.474776 24071 net.cpp:156] Memory required for data: 1049767200
I0403 18:58:35.474793 24071 layer_factory.hpp:77] Creating layer inception_4c/relu_5x5
I0403 18:58:35.474810 24071 net.cpp:91] Creating Layer inception_4c/relu_5x5
I0403 18:58:35.474829 24071 net.cpp:425] inception_4c/relu_5x5 <- inception_4c/5x5
I0403 18:58:35.474845 24071 net.cpp:386] inception_4c/relu_5x5 -> inception_4c/5x5 (in-place)
I0403 18:58:35.475131 24071 net.cpp:141] Setting up inception_4c/relu_5x5
I0403 18:58:35.475157 24071 net.cpp:148] Top shape: 24 64 14 14 (301056)
I0403 18:58:35.475170 24071 net.cpp:156] Memory required for data: 1050971424
I0403 18:58:35.475184 24071 layer_factory.hpp:77] Creating layer inception_4c/pool
I0403 18:58:35.475201 24071 net.cpp:91] Creating Layer inception_4c/pool
I0403 18:58:35.475216 24071 net.cpp:425] inception_4c/pool <- inception_4b/output_inception_4b/output_0_split_3
I0403 18:58:35.475235 24071 net.cpp:399] inception_4c/pool -> inception_4c/pool
I0403 18:58:35.475301 24071 net.cpp:141] Setting up inception_4c/pool
I0403 18:58:35.475329 24071 net.cpp:148] Top shape: 24 512 14 14 (2408448)
I0403 18:58:35.475347 24071 net.cpp:156] Memory required for data: 1060605216
I0403 18:58:35.475361 24071 layer_factory.hpp:77] Creating layer inception_4c/pool_proj
I0403 18:58:35.475384 24071 net.cpp:91] Creating Layer inception_4c/pool_proj
I0403 18:58:35.475401 24071 net.cpp:425] inception_4c/pool_proj <- inception_4c/pool
I0403 18:58:35.475419 24071 net.cpp:399] inception_4c/pool_proj -> inception_4c/pool_proj
I0403 18:58:35.476686 24071 net.cpp:141] Setting up inception_4c/pool_proj
I0403 18:58:35.476716 24071 net.cpp:148] Top shape: 24 64 14 14 (301056)
I0403 18:58:35.476744 24071 net.cpp:156] Memory required for data: 1061809440
I0403 18:58:35.476764 24071 layer_factory.hpp:77] Creating layer inception_4c/relu_pool_proj
I0403 18:58:35.476783 24071 net.cpp:91] Creating Layer inception_4c/relu_pool_proj
I0403 18:58:35.476799 24071 net.cpp:425] inception_4c/relu_pool_proj <- inception_4c/pool_proj
I0403 18:58:35.476814 24071 net.cpp:386] inception_4c/relu_pool_proj -> inception_4c/pool_proj (in-place)
I0403 18:58:35.477000 24071 net.cpp:141] Setting up inception_4c/relu_pool_proj
I0403 18:58:35.477025 24071 net.cpp:148] Top shape: 24 64 14 14 (301056)
I0403 18:58:35.477038 24071 net.cpp:156] Memory required for data: 1063013664
I0403 18:58:35.477052 24071 layer_factory.hpp:77] Creating layer inception_4c/output
I0403 18:58:35.477068 24071 net.cpp:91] Creating Layer inception_4c/output
I0403 18:58:35.477082 24071 net.cpp:425] inception_4c/output <- inception_4c/1x1
I0403 18:58:35.477097 24071 net.cpp:425] inception_4c/output <- inception_4c/3x3
I0403 18:58:35.477113 24071 net.cpp:425] inception_4c/output <- inception_4c/5x5
I0403 18:58:35.477128 24071 net.cpp:425] inception_4c/output <- inception_4c/pool_proj
I0403 18:58:35.477145 24071 net.cpp:399] inception_4c/output -> inception_4c/output
I0403 18:58:35.477190 24071 net.cpp:141] Setting up inception_4c/output
I0403 18:58:35.477216 24071 net.cpp:148] Top shape: 24 512 14 14 (2408448)
I0403 18:58:35.477231 24071 net.cpp:156] Memory required for data: 1072647456
I0403 18:58:35.477243 24071 layer_factory.hpp:77] Creating layer inception_4c/output_inception_4c/output_0_split
I0403 18:58:35.477259 24071 net.cpp:91] Creating Layer inception_4c/output_inception_4c/output_0_split
I0403 18:58:35.477273 24071 net.cpp:425] inception_4c/output_inception_4c/output_0_split <- inception_4c/output
I0403 18:58:35.477290 24071 net.cpp:399] inception_4c/output_inception_4c/output_0_split -> inception_4c/output_inception_4c/output_0_split_0
I0403 18:58:35.477313 24071 net.cpp:399] inception_4c/output_inception_4c/output_0_split -> inception_4c/output_inception_4c/output_0_split_1
I0403 18:58:35.477332 24071 net.cpp:399] inception_4c/output_inception_4c/output_0_split -> inception_4c/output_inception_4c/output_0_split_2
I0403 18:58:35.477351 24071 net.cpp:399] inception_4c/output_inception_4c/output_0_split -> inception_4c/output_inception_4c/output_0_split_3
I0403 18:58:35.477437 24071 net.cpp:141] Setting up inception_4c/output_inception_4c/output_0_split
I0403 18:58:35.477458 24071 net.cpp:148] Top shape: 24 512 14 14 (2408448)
I0403 18:58:35.477474 24071 net.cpp:148] Top shape: 24 512 14 14 (2408448)
I0403 18:58:35.477488 24071 net.cpp:148] Top shape: 24 512 14 14 (2408448)
I0403 18:58:35.477502 24071 net.cpp:148] Top shape: 24 512 14 14 (2408448)
I0403 18:58:35.477515 24071 net.cpp:156] Memory required for data: 1111182624
I0403 18:58:35.477529 24071 layer_factory.hpp:77] Creating layer inception_4d/1x1
I0403 18:58:35.477555 24071 net.cpp:91] Creating Layer inception_4d/1x1
I0403 18:58:35.477573 24071 net.cpp:425] inception_4d/1x1 <- inception_4c/output_inception_4c/output_0_split_0
I0403 18:58:35.477593 24071 net.cpp:399] inception_4d/1x1 -> inception_4d/1x1
I0403 18:58:35.478978 24071 net.cpp:141] Setting up inception_4d/1x1
I0403 18:58:35.479007 24071 net.cpp:148] Top shape: 24 112 14 14 (526848)
I0403 18:58:35.479022 24071 net.cpp:156] Memory required for data: 1113290016
I0403 18:58:35.479039 24071 layer_factory.hpp:77] Creating layer inception_4d/relu_1x1
I0403 18:58:35.479058 24071 net.cpp:91] Creating Layer inception_4d/relu_1x1
I0403 18:58:35.479075 24071 net.cpp:425] inception_4d/relu_1x1 <- inception_4d/1x1
I0403 18:58:35.479092 24071 net.cpp:386] inception_4d/relu_1x1 -> inception_4d/1x1 (in-place)
I0403 18:58:35.479277 24071 net.cpp:141] Setting up inception_4d/relu_1x1
I0403 18:58:35.479305 24071 net.cpp:148] Top shape: 24 112 14 14 (526848)
I0403 18:58:35.479321 24071 net.cpp:156] Memory required for data: 1115397408
I0403 18:58:35.479336 24071 layer_factory.hpp:77] Creating layer inception_4d/3x3_reduce
I0403 18:58:35.479372 24071 net.cpp:91] Creating Layer inception_4d/3x3_reduce
I0403 18:58:35.479390 24071 net.cpp:425] inception_4d/3x3_reduce <- inception_4c/output_inception_4c/output_0_split_1
I0403 18:58:35.479408 24071 net.cpp:399] inception_4d/3x3_reduce -> inception_4d/3x3_reduce
I0403 18:58:35.480954 24071 net.cpp:141] Setting up inception_4d/3x3_reduce
I0403 18:58:35.480981 24071 net.cpp:148] Top shape: 24 144 14 14 (677376)
I0403 18:58:35.480996 24071 net.cpp:156] Memory required for data: 1118106912
I0403 18:58:35.481014 24071 layer_factory.hpp:77] Creating layer inception_4d/relu_3x3_reduce
I0403 18:58:35.481030 24071 net.cpp:91] Creating Layer inception_4d/relu_3x3_reduce
I0403 18:58:35.481047 24071 net.cpp:425] inception_4d/relu_3x3_reduce <- inception_4d/3x3_reduce
I0403 18:58:35.481068 24071 net.cpp:386] inception_4d/relu_3x3_reduce -> inception_4d/3x3_reduce (in-place)
I0403 18:58:35.481360 24071 net.cpp:141] Setting up inception_4d/relu_3x3_reduce
I0403 18:58:35.481386 24071 net.cpp:148] Top shape: 24 144 14 14 (677376)
I0403 18:58:35.481401 24071 net.cpp:156] Memory required for data: 1120816416
I0403 18:58:35.481417 24071 layer_factory.hpp:77] Creating layer inception_4d/3x3
I0403 18:58:35.481438 24071 net.cpp:91] Creating Layer inception_4d/3x3
I0403 18:58:35.481456 24071 net.cpp:425] inception_4d/3x3 <- inception_4d/3x3_reduce
I0403 18:58:35.481475 24071 net.cpp:399] inception_4d/3x3 -> inception_4d/3x3
I0403 18:58:35.485658 24071 net.cpp:141] Setting up inception_4d/3x3
I0403 18:58:35.485687 24071 net.cpp:148] Top shape: 24 288 14 14 (1354752)
I0403 18:58:35.485702 24071 net.cpp:156] Memory required for data: 1126235424
I0403 18:58:35.485719 24071 layer_factory.hpp:77] Creating layer inception_4d/relu_3x3
I0403 18:58:35.485738 24071 net.cpp:91] Creating Layer inception_4d/relu_3x3
I0403 18:58:35.485755 24071 net.cpp:425] inception_4d/relu_3x3 <- inception_4d/3x3
I0403 18:58:35.485772 24071 net.cpp:386] inception_4d/relu_3x3 -> inception_4d/3x3 (in-place)
I0403 18:58:35.485957 24071 net.cpp:141] Setting up inception_4d/relu_3x3
I0403 18:58:35.485985 24071 net.cpp:148] Top shape: 24 288 14 14 (1354752)
I0403 18:58:35.486001 24071 net.cpp:156] Memory required for data: 1131654432
I0403 18:58:35.486016 24071 layer_factory.hpp:77] Creating layer inception_4d/5x5_reduce
I0403 18:58:35.486035 24071 net.cpp:91] Creating Layer inception_4d/5x5_reduce
I0403 18:58:35.486053 24071 net.cpp:425] inception_4d/5x5_reduce <- inception_4c/output_inception_4c/output_0_split_2
I0403 18:58:35.486071 24071 net.cpp:399] inception_4d/5x5_reduce -> inception_4d/5x5_reduce
I0403 18:58:35.487220 24071 net.cpp:141] Setting up inception_4d/5x5_reduce
I0403 18:58:35.487247 24071 net.cpp:148] Top shape: 24 32 14 14 (150528)
I0403 18:58:35.487262 24071 net.cpp:156] Memory required for data: 1132256544
I0403 18:58:35.487279 24071 layer_factory.hpp:77] Creating layer inception_4d/relu_5x5_reduce
I0403 18:58:35.487298 24071 net.cpp:91] Creating Layer inception_4d/relu_5x5_reduce
I0403 18:58:35.487315 24071 net.cpp:425] inception_4d/relu_5x5_reduce <- inception_4d/5x5_reduce
I0403 18:58:35.487331 24071 net.cpp:386] inception_4d/relu_5x5_reduce -> inception_4d/5x5_reduce (in-place)
I0403 18:58:35.487521 24071 net.cpp:141] Setting up inception_4d/relu_5x5_reduce
I0403 18:58:35.487551 24071 net.cpp:148] Top shape: 24 32 14 14 (150528)
I0403 18:58:35.487570 24071 net.cpp:156] Memory required for data: 1132858656
I0403 18:58:35.487584 24071 layer_factory.hpp:77] Creating layer inception_4d/5x5
I0403 18:58:35.487607 24071 net.cpp:91] Creating Layer inception_4d/5x5
I0403 18:58:35.487624 24071 net.cpp:425] inception_4d/5x5 <- inception_4d/5x5_reduce
I0403 18:58:35.487644 24071 net.cpp:399] inception_4d/5x5 -> inception_4d/5x5
I0403 18:58:35.489110 24071 net.cpp:141] Setting up inception_4d/5x5
I0403 18:58:35.489148 24071 net.cpp:148] Top shape: 24 64 14 14 (301056)
I0403 18:58:35.489164 24071 net.cpp:156] Memory required for data: 1134062880
I0403 18:58:35.489182 24071 layer_factory.hpp:77] Creating layer inception_4d/relu_5x5
I0403 18:58:35.489214 24071 net.cpp:91] Creating Layer inception_4d/relu_5x5
I0403 18:58:35.489230 24071 net.cpp:425] inception_4d/relu_5x5 <- inception_4d/5x5
I0403 18:58:35.489249 24071 net.cpp:386] inception_4d/relu_5x5 -> inception_4d/5x5 (in-place)
I0403 18:58:35.489552 24071 net.cpp:141] Setting up inception_4d/relu_5x5
I0403 18:58:35.489589 24071 net.cpp:148] Top shape: 24 64 14 14 (301056)
I0403 18:58:35.489604 24071 net.cpp:156] Memory required for data: 1135267104
I0403 18:58:35.489619 24071 layer_factory.hpp:77] Creating layer inception_4d/pool
I0403 18:58:35.489635 24071 net.cpp:91] Creating Layer inception_4d/pool
I0403 18:58:35.489650 24071 net.cpp:425] inception_4d/pool <- inception_4c/output_inception_4c/output_0_split_3
I0403 18:58:35.489670 24071 net.cpp:399] inception_4d/pool -> inception_4d/pool
I0403 18:58:35.489735 24071 net.cpp:141] Setting up inception_4d/pool
I0403 18:58:35.489760 24071 net.cpp:148] Top shape: 24 512 14 14 (2408448)
I0403 18:58:35.489775 24071 net.cpp:156] Memory required for data: 1144900896
I0403 18:58:35.489789 24071 layer_factory.hpp:77] Creating layer inception_4d/pool_proj
I0403 18:58:35.489807 24071 net.cpp:91] Creating Layer inception_4d/pool_proj
I0403 18:58:35.489823 24071 net.cpp:425] inception_4d/pool_proj <- inception_4d/pool
I0403 18:58:35.489843 24071 net.cpp:399] inception_4d/pool_proj -> inception_4d/pool_proj
I0403 18:58:35.491617 24071 net.cpp:141] Setting up inception_4d/pool_proj
I0403 18:58:35.491647 24071 net.cpp:148] Top shape: 24 64 14 14 (301056)
I0403 18:58:35.491662 24071 net.cpp:156] Memory required for data: 1146105120
I0403 18:58:35.491679 24071 layer_factory.hpp:77] Creating layer inception_4d/relu_pool_proj
I0403 18:58:35.491698 24071 net.cpp:91] Creating Layer inception_4d/relu_pool_proj
I0403 18:58:35.491715 24071 net.cpp:425] inception_4d/relu_pool_proj <- inception_4d/pool_proj
I0403 18:58:35.491731 24071 net.cpp:386] inception_4d/relu_pool_proj -> inception_4d/pool_proj (in-place)
I0403 18:58:35.491917 24071 net.cpp:141] Setting up inception_4d/relu_pool_proj
I0403 18:58:35.491943 24071 net.cpp:148] Top shape: 24 64 14 14 (301056)
I0403 18:58:35.491958 24071 net.cpp:156] Memory required for data: 1147309344
I0403 18:58:35.491971 24071 layer_factory.hpp:77] Creating layer inception_4d/output
I0403 18:58:35.491988 24071 net.cpp:91] Creating Layer inception_4d/output
I0403 18:58:35.492003 24071 net.cpp:425] inception_4d/output <- inception_4d/1x1
I0403 18:58:35.492018 24071 net.cpp:425] inception_4d/output <- inception_4d/3x3
I0403 18:58:35.492033 24071 net.cpp:425] inception_4d/output <- inception_4d/5x5
I0403 18:58:35.492048 24071 net.cpp:425] inception_4d/output <- inception_4d/pool_proj
I0403 18:58:35.492064 24071 net.cpp:399] inception_4d/output -> inception_4d/output
I0403 18:58:35.492111 24071 net.cpp:141] Setting up inception_4d/output
I0403 18:58:35.492133 24071 net.cpp:148] Top shape: 24 528 14 14 (2483712)
I0403 18:58:35.492147 24071 net.cpp:156] Memory required for data: 1157244192
I0403 18:58:35.492161 24071 layer_factory.hpp:77] Creating layer inception_4d/output_inception_4d/output_0_split
I0403 18:58:35.492179 24071 net.cpp:91] Creating Layer inception_4d/output_inception_4d/output_0_split
I0403 18:58:35.492195 24071 net.cpp:425] inception_4d/output_inception_4d/output_0_split <- inception_4d/output
I0403 18:58:35.492211 24071 net.cpp:399] inception_4d/output_inception_4d/output_0_split -> inception_4d/output_inception_4d/output_0_split_0
I0403 18:58:35.492231 24071 net.cpp:399] inception_4d/output_inception_4d/output_0_split -> inception_4d/output_inception_4d/output_0_split_1
I0403 18:58:35.492250 24071 net.cpp:399] inception_4d/output_inception_4d/output_0_split -> inception_4d/output_inception_4d/output_0_split_2
I0403 18:58:35.492272 24071 net.cpp:399] inception_4d/output_inception_4d/output_0_split -> inception_4d/output_inception_4d/output_0_split_3
I0403 18:58:35.492292 24071 net.cpp:399] inception_4d/output_inception_4d/output_0_split -> inception_4d/output_inception_4d/output_0_split_4
I0403 18:58:35.492395 24071 net.cpp:141] Setting up inception_4d/output_inception_4d/output_0_split
I0403 18:58:35.492430 24071 net.cpp:148] Top shape: 24 528 14 14 (2483712)
I0403 18:58:35.492446 24071 net.cpp:148] Top shape: 24 528 14 14 (2483712)
I0403 18:58:35.492461 24071 net.cpp:148] Top shape: 24 528 14 14 (2483712)
I0403 18:58:35.492475 24071 net.cpp:148] Top shape: 24 528 14 14 (2483712)
I0403 18:58:35.492489 24071 net.cpp:148] Top shape: 24 528 14 14 (2483712)
I0403 18:58:35.492502 24071 net.cpp:156] Memory required for data: 1206918432
I0403 18:58:35.492516 24071 layer_factory.hpp:77] Creating layer loss2/ave_pool
I0403 18:58:35.492534 24071 net.cpp:91] Creating Layer loss2/ave_pool
I0403 18:58:35.492554 24071 net.cpp:425] loss2/ave_pool <- inception_4d/output_inception_4d/output_0_split_0
I0403 18:58:35.492573 24071 net.cpp:399] loss2/ave_pool -> loss2/ave_pool
I0403 18:58:35.492884 24071 net.cpp:141] Setting up loss2/ave_pool
I0403 18:58:35.492909 24071 net.cpp:148] Top shape: 24 528 4 4 (202752)
I0403 18:58:35.492924 24071 net.cpp:156] Memory required for data: 1207729440
I0403 18:58:35.492938 24071 layer_factory.hpp:77] Creating layer loss2/conv
I0403 18:58:35.492959 24071 net.cpp:91] Creating Layer loss2/conv
I0403 18:58:35.492979 24071 net.cpp:425] loss2/conv <- loss2/ave_pool
I0403 18:58:35.492996 24071 net.cpp:399] loss2/conv -> loss2/conv
I0403 18:58:35.494918 24071 net.cpp:141] Setting up loss2/conv
I0403 18:58:35.494947 24071 net.cpp:148] Top shape: 24 128 4 4 (49152)
I0403 18:58:35.494963 24071 net.cpp:156] Memory required for data: 1207926048
I0403 18:58:35.494981 24071 layer_factory.hpp:77] Creating layer loss2/relu_conv
I0403 18:58:35.494998 24071 net.cpp:91] Creating Layer loss2/relu_conv
I0403 18:58:35.495014 24071 net.cpp:425] loss2/relu_conv <- loss2/conv
I0403 18:58:35.495033 24071 net.cpp:386] loss2/relu_conv -> loss2/conv (in-place)
I0403 18:58:35.495331 24071 net.cpp:141] Setting up loss2/relu_conv
I0403 18:58:35.495357 24071 net.cpp:148] Top shape: 24 128 4 4 (49152)
I0403 18:58:35.495370 24071 net.cpp:156] Memory required for data: 1208122656
I0403 18:58:35.495384 24071 layer_factory.hpp:77] Creating layer loss2/fc
I0403 18:58:35.495403 24071 net.cpp:91] Creating Layer loss2/fc
I0403 18:58:35.495417 24071 net.cpp:425] loss2/fc <- loss2/conv
I0403 18:58:35.495436 24071 net.cpp:399] loss2/fc -> loss2/fc
I0403 18:58:35.513190 24071 net.cpp:141] Setting up loss2/fc
I0403 18:58:35.513232 24071 net.cpp:148] Top shape: 24 1024 (24576)
I0403 18:58:35.513249 24071 net.cpp:156] Memory required for data: 1208220960
I0403 18:58:35.513268 24071 layer_factory.hpp:77] Creating layer loss2/relu_fc
I0403 18:58:35.513286 24071 net.cpp:91] Creating Layer loss2/relu_fc
I0403 18:58:35.513303 24071 net.cpp:425] loss2/relu_fc <- loss2/fc
I0403 18:58:35.513321 24071 net.cpp:386] loss2/relu_fc -> loss2/fc (in-place)
I0403 18:58:35.513635 24071 net.cpp:141] Setting up loss2/relu_fc
I0403 18:58:35.513662 24071 net.cpp:148] Top shape: 24 1024 (24576)
I0403 18:58:35.513677 24071 net.cpp:156] Memory required for data: 1208319264
I0403 18:58:35.513692 24071 layer_factory.hpp:77] Creating layer loss2/drop_fc
I0403 18:58:35.513710 24071 net.cpp:91] Creating Layer loss2/drop_fc
I0403 18:58:35.513725 24071 net.cpp:425] loss2/drop_fc <- loss2/fc
I0403 18:58:35.513742 24071 net.cpp:386] loss2/drop_fc -> loss2/fc (in-place)
I0403 18:58:35.513794 24071 net.cpp:141] Setting up loss2/drop_fc
I0403 18:58:35.513818 24071 net.cpp:148] Top shape: 24 1024 (24576)
I0403 18:58:35.513833 24071 net.cpp:156] Memory required for data: 1208417568
I0403 18:58:35.513849 24071 layer_factory.hpp:77] Creating layer loss2/classifier_plantvillage
I0403 18:58:35.513867 24071 net.cpp:91] Creating Layer loss2/classifier_plantvillage
I0403 18:58:35.513885 24071 net.cpp:425] loss2/classifier_plantvillage <- loss2/fc
I0403 18:58:35.513901 24071 net.cpp:399] loss2/classifier_plantvillage -> loss2/classifier_plantvillage
I0403 18:58:35.514304 24071 net.cpp:141] Setting up loss2/classifier_plantvillage
I0403 18:58:35.514331 24071 net.cpp:148] Top shape: 24 38 (912)
I0403 18:58:35.514369 24071 net.cpp:156] Memory required for data: 1208421216
I0403 18:58:35.514387 24071 layer_factory.hpp:77] Creating layer loss2/classifier_plantvillage_loss2/classifier_plantvillage_0_split
I0403 18:58:35.514405 24071 net.cpp:91] Creating Layer loss2/classifier_plantvillage_loss2/classifier_plantvillage_0_split
I0403 18:58:35.514420 24071 net.cpp:425] loss2/classifier_plantvillage_loss2/classifier_plantvillage_0_split <- loss2/classifier_plantvillage
I0403 18:58:35.514439 24071 net.cpp:399] loss2/classifier_plantvillage_loss2/classifier_plantvillage_0_split -> loss2/classifier_plantvillage_loss2/classifier_plantvillage_0_split_0
I0403 18:58:35.514459 24071 net.cpp:399] loss2/classifier_plantvillage_loss2/classifier_plantvillage_0_split -> loss2/classifier_plantvillage_loss2/classifier_plantvillage_0_split_1
I0403 18:58:35.514479 24071 net.cpp:399] loss2/classifier_plantvillage_loss2/classifier_plantvillage_0_split -> loss2/classifier_plantvillage_loss2/classifier_plantvillage_0_split_2
I0403 18:58:35.514560 24071 net.cpp:141] Setting up loss2/classifier_plantvillage_loss2/classifier_plantvillage_0_split
I0403 18:58:35.514585 24071 net.cpp:148] Top shape: 24 38 (912)
I0403 18:58:35.514602 24071 net.cpp:148] Top shape: 24 38 (912)
I0403 18:58:35.514616 24071 net.cpp:148] Top shape: 24 38 (912)
I0403 18:58:35.514629 24071 net.cpp:156] Memory required for data: 1208432160
I0403 18:58:35.514642 24071 layer_factory.hpp:77] Creating layer inception_4e/1x1
I0403 18:58:35.514664 24071 net.cpp:91] Creating Layer inception_4e/1x1
I0403 18:58:35.514681 24071 net.cpp:425] inception_4e/1x1 <- inception_4d/output_inception_4d/output_0_split_1
I0403 18:58:35.514700 24071 net.cpp:399] inception_4e/1x1 -> inception_4e/1x1
I0403 18:58:35.516530 24071 net.cpp:141] Setting up inception_4e/1x1
I0403 18:58:35.516562 24071 net.cpp:148] Top shape: 24 256 14 14 (1204224)
I0403 18:58:35.516577 24071 net.cpp:156] Memory required for data: 1213249056
I0403 18:58:35.516604 24071 layer_factory.hpp:77] Creating layer inception_4e/relu_1x1
I0403 18:58:35.516621 24071 net.cpp:91] Creating Layer inception_4e/relu_1x1
I0403 18:58:35.516638 24071 net.cpp:425] inception_4e/relu_1x1 <- inception_4e/1x1
I0403 18:58:35.516656 24071 net.cpp:386] inception_4e/relu_1x1 -> inception_4e/1x1 (in-place)
I0403 18:58:35.516952 24071 net.cpp:141] Setting up inception_4e/relu_1x1
I0403 18:58:35.516979 24071 net.cpp:148] Top shape: 24 256 14 14 (1204224)
I0403 18:58:35.516993 24071 net.cpp:156] Memory required for data: 1218065952
I0403 18:58:35.517009 24071 layer_factory.hpp:77] Creating layer inception_4e/3x3_reduce
I0403 18:58:35.517031 24071 net.cpp:91] Creating Layer inception_4e/3x3_reduce
I0403 18:58:35.517050 24071 net.cpp:425] inception_4e/3x3_reduce <- inception_4d/output_inception_4d/output_0_split_2
I0403 18:58:35.517071 24071 net.cpp:399] inception_4e/3x3_reduce -> inception_4e/3x3_reduce
I0403 18:58:35.519162 24071 net.cpp:141] Setting up inception_4e/3x3_reduce
I0403 18:58:35.519193 24071 net.cpp:148] Top shape: 24 160 14 14 (752640)
I0403 18:58:35.519210 24071 net.cpp:156] Memory required for data: 1221076512
I0403 18:58:35.519229 24071 layer_factory.hpp:77] Creating layer inception_4e/relu_3x3_reduce
I0403 18:58:35.519248 24071 net.cpp:91] Creating Layer inception_4e/relu_3x3_reduce
I0403 18:58:35.519261 24071 net.cpp:425] inception_4e/relu_3x3_reduce <- inception_4e/3x3_reduce
I0403 18:58:35.519279 24071 net.cpp:386] inception_4e/relu_3x3_reduce -> inception_4e/3x3_reduce (in-place)
I0403 18:58:35.519469 24071 net.cpp:141] Setting up inception_4e/relu_3x3_reduce
I0403 18:58:35.519493 24071 net.cpp:148] Top shape: 24 160 14 14 (752640)
I0403 18:58:35.519507 24071 net.cpp:156] Memory required for data: 1224087072
I0403 18:58:35.519522 24071 layer_factory.hpp:77] Creating layer inception_4e/3x3
I0403 18:58:35.519546 24071 net.cpp:91] Creating Layer inception_4e/3x3
I0403 18:58:35.519567 24071 net.cpp:425] inception_4e/3x3 <- inception_4e/3x3_reduce
I0403 18:58:35.519589 24071 net.cpp:399] inception_4e/3x3 -> inception_4e/3x3
I0403 18:58:35.524523 24071 net.cpp:141] Setting up inception_4e/3x3
I0403 18:58:35.524566 24071 net.cpp:148] Top shape: 24 320 14 14 (1505280)
I0403 18:58:35.524582 24071 net.cpp:156] Memory required for data: 1230108192
I0403 18:58:35.524600 24071 layer_factory.hpp:77] Creating layer inception_4e/relu_3x3
I0403 18:58:35.524619 24071 net.cpp:91] Creating Layer inception_4e/relu_3x3
I0403 18:58:35.524634 24071 net.cpp:425] inception_4e/relu_3x3 <- inception_4e/3x3
I0403 18:58:35.524651 24071 net.cpp:386] inception_4e/relu_3x3 -> inception_4e/3x3 (in-place)
I0403 18:58:35.524948 24071 net.cpp:141] Setting up inception_4e/relu_3x3
I0403 18:58:35.524974 24071 net.cpp:148] Top shape: 24 320 14 14 (1505280)
I0403 18:58:35.524988 24071 net.cpp:156] Memory required for data: 1236129312
I0403 18:58:35.525002 24071 layer_factory.hpp:77] Creating layer inception_4e/5x5_reduce
I0403 18:58:35.525023 24071 net.cpp:91] Creating Layer inception_4e/5x5_reduce
I0403 18:58:35.525040 24071 net.cpp:425] inception_4e/5x5_reduce <- inception_4d/output_inception_4d/output_0_split_3
I0403 18:58:35.525060 24071 net.cpp:399] inception_4e/5x5_reduce -> inception_4e/5x5_reduce
I0403 18:58:35.526173 24071 net.cpp:141] Setting up inception_4e/5x5_reduce
I0403 18:58:35.526202 24071 net.cpp:148] Top shape: 24 32 14 14 (150528)
I0403 18:58:35.526218 24071 net.cpp:156] Memory required for data: 1236731424
I0403 18:58:35.526235 24071 layer_factory.hpp:77] Creating layer inception_4e/relu_5x5_reduce
I0403 18:58:35.526252 24071 net.cpp:91] Creating Layer inception_4e/relu_5x5_reduce
I0403 18:58:35.526268 24071 net.cpp:425] inception_4e/relu_5x5_reduce <- inception_4e/5x5_reduce
I0403 18:58:35.526286 24071 net.cpp:386] inception_4e/relu_5x5_reduce -> inception_4e/5x5_reduce (in-place)
I0403 18:58:35.526585 24071 net.cpp:141] Setting up inception_4e/relu_5x5_reduce
I0403 18:58:35.526613 24071 net.cpp:148] Top shape: 24 32 14 14 (150528)
I0403 18:58:35.526628 24071 net.cpp:156] Memory required for data: 1237333536
I0403 18:58:35.526644 24071 layer_factory.hpp:77] Creating layer inception_4e/5x5
I0403 18:58:35.526686 24071 net.cpp:91] Creating Layer inception_4e/5x5
I0403 18:58:35.526707 24071 net.cpp:425] inception_4e/5x5 <- inception_4e/5x5_reduce
I0403 18:58:35.526727 24071 net.cpp:399] inception_4e/5x5 -> inception_4e/5x5
I0403 18:58:35.528612 24071 net.cpp:141] Setting up inception_4e/5x5
I0403 18:58:35.528640 24071 net.cpp:148] Top shape: 24 128 14 14 (602112)
I0403 18:58:35.528653 24071 net.cpp:156] Memory required for data: 1239741984
I0403 18:58:35.528671 24071 layer_factory.hpp:77] Creating layer inception_4e/relu_5x5
I0403 18:58:35.528690 24071 net.cpp:91] Creating Layer inception_4e/relu_5x5
I0403 18:58:35.528707 24071 net.cpp:425] inception_4e/relu_5x5 <- inception_4e/5x5
I0403 18:58:35.528723 24071 net.cpp:386] inception_4e/relu_5x5 -> inception_4e/5x5 (in-place)
I0403 18:58:35.528920 24071 net.cpp:141] Setting up inception_4e/relu_5x5
I0403 18:58:35.528944 24071 net.cpp:148] Top shape: 24 128 14 14 (602112)
I0403 18:58:35.528959 24071 net.cpp:156] Memory required for data: 1242150432
I0403 18:58:35.528971 24071 layer_factory.hpp:77] Creating layer inception_4e/pool
I0403 18:58:35.528988 24071 net.cpp:91] Creating Layer inception_4e/pool
I0403 18:58:35.529006 24071 net.cpp:425] inception_4e/pool <- inception_4d/output_inception_4d/output_0_split_4
I0403 18:58:35.529024 24071 net.cpp:399] inception_4e/pool -> inception_4e/pool
I0403 18:58:35.529095 24071 net.cpp:141] Setting up inception_4e/pool
I0403 18:58:35.529120 24071 net.cpp:148] Top shape: 24 528 14 14 (2483712)
I0403 18:58:35.529135 24071 net.cpp:156] Memory required for data: 1252085280
I0403 18:58:35.529150 24071 layer_factory.hpp:77] Creating layer inception_4e/pool_proj
I0403 18:58:35.529173 24071 net.cpp:91] Creating Layer inception_4e/pool_proj
I0403 18:58:35.529191 24071 net.cpp:425] inception_4e/pool_proj <- inception_4e/pool
I0403 18:58:35.529211 24071 net.cpp:399] inception_4e/pool_proj -> inception_4e/pool_proj
I0403 18:58:35.530709 24071 net.cpp:141] Setting up inception_4e/pool_proj
I0403 18:58:35.530747 24071 net.cpp:148] Top shape: 24 128 14 14 (602112)
I0403 18:58:35.530764 24071 net.cpp:156] Memory required for data: 1254493728
I0403 18:58:35.530783 24071 layer_factory.hpp:77] Creating layer inception_4e/relu_pool_proj
I0403 18:58:35.530805 24071 net.cpp:91] Creating Layer inception_4e/relu_pool_proj
I0403 18:58:35.530822 24071 net.cpp:425] inception_4e/relu_pool_proj <- inception_4e/pool_proj
I0403 18:58:35.530841 24071 net.cpp:386] inception_4e/relu_pool_proj -> inception_4e/pool_proj (in-place)
I0403 18:58:35.531131 24071 net.cpp:141] Setting up inception_4e/relu_pool_proj
I0403 18:58:35.531157 24071 net.cpp:148] Top shape: 24 128 14 14 (602112)
I0403 18:58:35.531172 24071 net.cpp:156] Memory required for data: 1256902176
I0403 18:58:35.531185 24071 layer_factory.hpp:77] Creating layer inception_4e/output
I0403 18:58:35.531204 24071 net.cpp:91] Creating Layer inception_4e/output
I0403 18:58:35.531220 24071 net.cpp:425] inception_4e/output <- inception_4e/1x1
I0403 18:58:35.531237 24071 net.cpp:425] inception_4e/output <- inception_4e/3x3
I0403 18:58:35.531255 24071 net.cpp:425] inception_4e/output <- inception_4e/5x5
I0403 18:58:35.531270 24071 net.cpp:425] inception_4e/output <- inception_4e/pool_proj
I0403 18:58:35.531289 24071 net.cpp:399] inception_4e/output -> inception_4e/output
I0403 18:58:35.531342 24071 net.cpp:141] Setting up inception_4e/output
I0403 18:58:35.531365 24071 net.cpp:148] Top shape: 24 832 14 14 (3913728)
I0403 18:58:35.531380 24071 net.cpp:156] Memory required for data: 1272557088
I0403 18:58:35.531395 24071 layer_factory.hpp:77] Creating layer pool4/3x3_s2
I0403 18:58:35.531412 24071 net.cpp:91] Creating Layer pool4/3x3_s2
I0403 18:58:35.531427 24071 net.cpp:425] pool4/3x3_s2 <- inception_4e/output
I0403 18:58:35.531446 24071 net.cpp:399] pool4/3x3_s2 -> pool4/3x3_s2
I0403 18:58:35.531513 24071 net.cpp:141] Setting up pool4/3x3_s2
I0403 18:58:35.531539 24071 net.cpp:148] Top shape: 24 832 7 7 (978432)
I0403 18:58:35.531555 24071 net.cpp:156] Memory required for data: 1276470816
I0403 18:58:35.531569 24071 layer_factory.hpp:77] Creating layer pool4/3x3_s2_pool4/3x3_s2_0_split
I0403 18:58:35.531589 24071 net.cpp:91] Creating Layer pool4/3x3_s2_pool4/3x3_s2_0_split
I0403 18:58:35.531605 24071 net.cpp:425] pool4/3x3_s2_pool4/3x3_s2_0_split <- pool4/3x3_s2
I0403 18:58:35.531625 24071 net.cpp:399] pool4/3x3_s2_pool4/3x3_s2_0_split -> pool4/3x3_s2_pool4/3x3_s2_0_split_0
I0403 18:58:35.531644 24071 net.cpp:399] pool4/3x3_s2_pool4/3x3_s2_0_split -> pool4/3x3_s2_pool4/3x3_s2_0_split_1
I0403 18:58:35.531664 24071 net.cpp:399] pool4/3x3_s2_pool4/3x3_s2_0_split -> pool4/3x3_s2_pool4/3x3_s2_0_split_2
I0403 18:58:35.531682 24071 net.cpp:399] pool4/3x3_s2_pool4/3x3_s2_0_split -> pool4/3x3_s2_pool4/3x3_s2_0_split_3
I0403 18:58:35.531771 24071 net.cpp:141] Setting up pool4/3x3_s2_pool4/3x3_s2_0_split
I0403 18:58:35.531796 24071 net.cpp:148] Top shape: 24 832 7 7 (978432)
I0403 18:58:35.531813 24071 net.cpp:148] Top shape: 24 832 7 7 (978432)
I0403 18:58:35.531831 24071 net.cpp:148] Top shape: 24 832 7 7 (978432)
I0403 18:58:35.531846 24071 net.cpp:148] Top shape: 24 832 7 7 (978432)
I0403 18:58:35.531858 24071 net.cpp:156] Memory required for data: 1292125728
I0403 18:58:35.531874 24071 layer_factory.hpp:77] Creating layer inception_5a/1x1
I0403 18:58:35.531896 24071 net.cpp:91] Creating Layer inception_5a/1x1
I0403 18:58:35.531913 24071 net.cpp:425] inception_5a/1x1 <- pool4/3x3_s2_pool4/3x3_s2_0_split_0
I0403 18:58:35.531934 24071 net.cpp:399] inception_5a/1x1 -> inception_5a/1x1
I0403 18:58:35.534900 24071 net.cpp:141] Setting up inception_5a/1x1
I0403 18:58:35.534930 24071 net.cpp:148] Top shape: 24 256 7 7 (301056)
I0403 18:58:35.534948 24071 net.cpp:156] Memory required for data: 1293329952
I0403 18:58:35.534965 24071 layer_factory.hpp:77] Creating layer inception_5a/relu_1x1
I0403 18:58:35.534982 24071 net.cpp:91] Creating Layer inception_5a/relu_1x1
I0403 18:58:35.534998 24071 net.cpp:425] inception_5a/relu_1x1 <- inception_5a/1x1
I0403 18:58:35.535015 24071 net.cpp:386] inception_5a/relu_1x1 -> inception_5a/1x1 (in-place)
I0403 18:58:35.535327 24071 net.cpp:141] Setting up inception_5a/relu_1x1
I0403 18:58:35.535356 24071 net.cpp:148] Top shape: 24 256 7 7 (301056)
I0403 18:58:35.535370 24071 net.cpp:156] Memory required for data: 1294534176
I0403 18:58:35.535384 24071 layer_factory.hpp:77] Creating layer inception_5a/3x3_reduce
I0403 18:58:35.535405 24071 net.cpp:91] Creating Layer inception_5a/3x3_reduce
I0403 18:58:35.535423 24071 net.cpp:425] inception_5a/3x3_reduce <- pool4/3x3_s2_pool4/3x3_s2_0_split_1
I0403 18:58:35.535440 24071 net.cpp:399] inception_5a/3x3_reduce -> inception_5a/3x3_reduce
I0403 18:58:35.537958 24071 net.cpp:141] Setting up inception_5a/3x3_reduce
I0403 18:58:35.537987 24071 net.cpp:148] Top shape: 24 160 7 7 (188160)
I0403 18:58:35.538002 24071 net.cpp:156] Memory required for data: 1295286816
I0403 18:58:35.538019 24071 layer_factory.hpp:77] Creating layer inception_5a/relu_3x3_reduce
I0403 18:58:35.538038 24071 net.cpp:91] Creating Layer inception_5a/relu_3x3_reduce
I0403 18:58:35.538054 24071 net.cpp:425] inception_5a/relu_3x3_reduce <- inception_5a/3x3_reduce
I0403 18:58:35.538071 24071 net.cpp:386] inception_5a/relu_3x3_reduce -> inception_5a/3x3_reduce (in-place)
I0403 18:58:35.538259 24071 net.cpp:141] Setting up inception_5a/relu_3x3_reduce
I0403 18:58:35.538288 24071 net.cpp:148] Top shape: 24 160 7 7 (188160)
I0403 18:58:35.538303 24071 net.cpp:156] Memory required for data: 1296039456
I0403 18:58:35.538319 24071 layer_factory.hpp:77] Creating layer inception_5a/3x3
I0403 18:58:35.538341 24071 net.cpp:91] Creating Layer inception_5a/3x3
I0403 18:58:35.538359 24071 net.cpp:425] inception_5a/3x3 <- inception_5a/3x3_reduce
I0403 18:58:35.538379 24071 net.cpp:399] inception_5a/3x3 -> inception_5a/3x3
I0403 18:58:35.543313 24071 net.cpp:141] Setting up inception_5a/3x3
I0403 18:58:35.543344 24071 net.cpp:148] Top shape: 24 320 7 7 (376320)
I0403 18:58:35.543360 24071 net.cpp:156] Memory required for data: 1297544736
I0403 18:58:35.543378 24071 layer_factory.hpp:77] Creating layer inception_5a/relu_3x3
I0403 18:58:35.543395 24071 net.cpp:91] Creating Layer inception_5a/relu_3x3
I0403 18:58:35.543411 24071 net.cpp:425] inception_5a/relu_3x3 <- inception_5a/3x3
I0403 18:58:35.543429 24071 net.cpp:386] inception_5a/relu_3x3 -> inception_5a/3x3 (in-place)
I0403 18:58:35.543726 24071 net.cpp:141] Setting up inception_5a/relu_3x3
I0403 18:58:35.543756 24071 net.cpp:148] Top shape: 24 320 7 7 (376320)
I0403 18:58:35.543771 24071 net.cpp:156] Memory required for data: 1299050016
I0403 18:58:35.543787 24071 layer_factory.hpp:77] Creating layer inception_5a/5x5_reduce
I0403 18:58:35.543810 24071 net.cpp:91] Creating Layer inception_5a/5x5_reduce
I0403 18:58:35.543828 24071 net.cpp:425] inception_5a/5x5_reduce <- pool4/3x3_s2_pool4/3x3_s2_0_split_2
I0403 18:58:35.543848 24071 net.cpp:399] inception_5a/5x5_reduce -> inception_5a/5x5_reduce
I0403 18:58:35.545033 24071 net.cpp:141] Setting up inception_5a/5x5_reduce
I0403 18:58:35.545063 24071 net.cpp:148] Top shape: 24 32 7 7 (37632)
I0403 18:58:35.545080 24071 net.cpp:156] Memory required for data: 1299200544
I0403 18:58:35.545099 24071 layer_factory.hpp:77] Creating layer inception_5a/relu_5x5_reduce
I0403 18:58:35.545119 24071 net.cpp:91] Creating Layer inception_5a/relu_5x5_reduce
I0403 18:58:35.545135 24071 net.cpp:425] inception_5a/relu_5x5_reduce <- inception_5a/5x5_reduce
I0403 18:58:35.545155 24071 net.cpp:386] inception_5a/relu_5x5_reduce -> inception_5a/5x5_reduce (in-place)
I0403 18:58:35.545460 24071 net.cpp:141] Setting up inception_5a/relu_5x5_reduce
I0403 18:58:35.545486 24071 net.cpp:148] Top shape: 24 32 7 7 (37632)
I0403 18:58:35.545500 24071 net.cpp:156] Memory required for data: 1299351072
I0403 18:58:35.545514 24071 layer_factory.hpp:77] Creating layer inception_5a/5x5
I0403 18:58:35.545547 24071 net.cpp:91] Creating Layer inception_5a/5x5
I0403 18:58:35.545569 24071 net.cpp:425] inception_5a/5x5 <- inception_5a/5x5_reduce
I0403 18:58:35.545599 24071 net.cpp:399] inception_5a/5x5 -> inception_5a/5x5
I0403 18:58:35.547302 24071 net.cpp:141] Setting up inception_5a/5x5
I0403 18:58:35.547339 24071 net.cpp:148] Top shape: 24 128 7 7 (150528)
I0403 18:58:35.547355 24071 net.cpp:156] Memory required for data: 1299953184
I0403 18:58:35.547375 24071 layer_factory.hpp:77] Creating layer inception_5a/relu_5x5
I0403 18:58:35.547394 24071 net.cpp:91] Creating Layer inception_5a/relu_5x5
I0403 18:58:35.547410 24071 net.cpp:425] inception_5a/relu_5x5 <- inception_5a/5x5
I0403 18:58:35.547425 24071 net.cpp:386] inception_5a/relu_5x5 -> inception_5a/5x5 (in-place)
I0403 18:58:35.547622 24071 net.cpp:141] Setting up inception_5a/relu_5x5
I0403 18:58:35.547646 24071 net.cpp:148] Top shape: 24 128 7 7 (150528)
I0403 18:58:35.547660 24071 net.cpp:156] Memory required for data: 1300555296
I0403 18:58:35.547674 24071 layer_factory.hpp:77] Creating layer inception_5a/pool
I0403 18:58:35.547691 24071 net.cpp:91] Creating Layer inception_5a/pool
I0403 18:58:35.547708 24071 net.cpp:425] inception_5a/pool <- pool4/3x3_s2_pool4/3x3_s2_0_split_3
I0403 18:58:35.547727 24071 net.cpp:399] inception_5a/pool -> inception_5a/pool
I0403 18:58:35.547798 24071 net.cpp:141] Setting up inception_5a/pool
I0403 18:58:35.547821 24071 net.cpp:148] Top shape: 24 832 7 7 (978432)
I0403 18:58:35.547835 24071 net.cpp:156] Memory required for data: 1304469024
I0403 18:58:35.547848 24071 layer_factory.hpp:77] Creating layer inception_5a/pool_proj
I0403 18:58:35.547870 24071 net.cpp:91] Creating Layer inception_5a/pool_proj
I0403 18:58:35.547888 24071 net.cpp:425] inception_5a/pool_proj <- inception_5a/pool
I0403 18:58:35.547905 24071 net.cpp:399] inception_5a/pool_proj -> inception_5a/pool_proj
I0403 18:58:35.550187 24071 net.cpp:141] Setting up inception_5a/pool_proj
I0403 18:58:35.550217 24071 net.cpp:148] Top shape: 24 128 7 7 (150528)
I0403 18:58:35.550232 24071 net.cpp:156] Memory required for data: 1305071136
I0403 18:58:35.550249 24071 layer_factory.hpp:77] Creating layer inception_5a/relu_pool_proj
I0403 18:58:35.550302 24071 net.cpp:91] Creating Layer inception_5a/relu_pool_proj
I0403 18:58:35.550318 24071 net.cpp:425] inception_5a/relu_pool_proj <- inception_5a/pool_proj
I0403 18:58:35.550334 24071 net.cpp:386] inception_5a/relu_pool_proj -> inception_5a/pool_proj (in-place)
I0403 18:58:35.550652 24071 net.cpp:141] Setting up inception_5a/relu_pool_proj
I0403 18:58:35.550678 24071 net.cpp:148] Top shape: 24 128 7 7 (150528)
I0403 18:58:35.550691 24071 net.cpp:156] Memory required for data: 1305673248
I0403 18:58:35.550705 24071 layer_factory.hpp:77] Creating layer inception_5a/output
I0403 18:58:35.550724 24071 net.cpp:91] Creating Layer inception_5a/output
I0403 18:58:35.550740 24071 net.cpp:425] inception_5a/output <- inception_5a/1x1
I0403 18:58:35.550756 24071 net.cpp:425] inception_5a/output <- inception_5a/3x3
I0403 18:58:35.550771 24071 net.cpp:425] inception_5a/output <- inception_5a/5x5
I0403 18:58:35.550786 24071 net.cpp:425] inception_5a/output <- inception_5a/pool_proj
I0403 18:58:35.550801 24071 net.cpp:399] inception_5a/output -> inception_5a/output
I0403 18:58:35.550850 24071 net.cpp:141] Setting up inception_5a/output
I0403 18:58:35.550873 24071 net.cpp:148] Top shape: 24 832 7 7 (978432)
I0403 18:58:35.550887 24071 net.cpp:156] Memory required for data: 1309586976
I0403 18:58:35.550901 24071 layer_factory.hpp:77] Creating layer inception_5a/output_inception_5a/output_0_split
I0403 18:58:35.550917 24071 net.cpp:91] Creating Layer inception_5a/output_inception_5a/output_0_split
I0403 18:58:35.550932 24071 net.cpp:425] inception_5a/output_inception_5a/output_0_split <- inception_5a/output
I0403 18:58:35.550951 24071 net.cpp:399] inception_5a/output_inception_5a/output_0_split -> inception_5a/output_inception_5a/output_0_split_0
I0403 18:58:35.550971 24071 net.cpp:399] inception_5a/output_inception_5a/output_0_split -> inception_5a/output_inception_5a/output_0_split_1
I0403 18:58:35.550992 24071 net.cpp:399] inception_5a/output_inception_5a/output_0_split -> inception_5a/output_inception_5a/output_0_split_2
I0403 18:58:35.551010 24071 net.cpp:399] inception_5a/output_inception_5a/output_0_split -> inception_5a/output_inception_5a/output_0_split_3
I0403 18:58:35.551122 24071 net.cpp:141] Setting up inception_5a/output_inception_5a/output_0_split
I0403 18:58:35.551146 24071 net.cpp:148] Top shape: 24 832 7 7 (978432)
I0403 18:58:35.551161 24071 net.cpp:148] Top shape: 24 832 7 7 (978432)
I0403 18:58:35.551174 24071 net.cpp:148] Top shape: 24 832 7 7 (978432)
I0403 18:58:35.551189 24071 net.cpp:148] Top shape: 24 832 7 7 (978432)
I0403 18:58:35.551203 24071 net.cpp:156] Memory required for data: 1325241888
I0403 18:58:35.551215 24071 layer_factory.hpp:77] Creating layer inception_5b/1x1
I0403 18:58:35.551236 24071 net.cpp:91] Creating Layer inception_5b/1x1
I0403 18:58:35.551252 24071 net.cpp:425] inception_5b/1x1 <- inception_5a/output_inception_5a/output_0_split_0
I0403 18:58:35.551272 24071 net.cpp:399] inception_5b/1x1 -> inception_5b/1x1
I0403 18:58:35.554998 24071 net.cpp:141] Setting up inception_5b/1x1
I0403 18:58:35.555027 24071 net.cpp:148] Top shape: 24 384 7 7 (451584)
I0403 18:58:35.555042 24071 net.cpp:156] Memory required for data: 1327048224
I0403 18:58:35.555058 24071 layer_factory.hpp:77] Creating layer inception_5b/relu_1x1
I0403 18:58:35.555078 24071 net.cpp:91] Creating Layer inception_5b/relu_1x1
I0403 18:58:35.555094 24071 net.cpp:425] inception_5b/relu_1x1 <- inception_5b/1x1
I0403 18:58:35.555110 24071 net.cpp:386] inception_5b/relu_1x1 -> inception_5b/1x1 (in-place)
I0403 18:58:35.555418 24071 net.cpp:141] Setting up inception_5b/relu_1x1
I0403 18:58:35.555443 24071 net.cpp:148] Top shape: 24 384 7 7 (451584)
I0403 18:58:35.555457 24071 net.cpp:156] Memory required for data: 1328854560
I0403 18:58:35.555471 24071 layer_factory.hpp:77] Creating layer inception_5b/3x3_reduce
I0403 18:58:35.555495 24071 net.cpp:91] Creating Layer inception_5b/3x3_reduce
I0403 18:58:35.555512 24071 net.cpp:425] inception_5b/3x3_reduce <- inception_5a/output_inception_5a/output_0_split_1
I0403 18:58:35.555533 24071 net.cpp:399] inception_5b/3x3_reduce -> inception_5b/3x3_reduce
I0403 18:58:35.558158 24071 net.cpp:141] Setting up inception_5b/3x3_reduce
I0403 18:58:35.558187 24071 net.cpp:148] Top shape: 24 192 7 7 (225792)
I0403 18:58:35.558202 24071 net.cpp:156] Memory required for data: 1329757728
I0403 18:58:35.558219 24071 layer_factory.hpp:77] Creating layer inception_5b/relu_3x3_reduce
I0403 18:58:35.558238 24071 net.cpp:91] Creating Layer inception_5b/relu_3x3_reduce
I0403 18:58:35.558255 24071 net.cpp:425] inception_5b/relu_3x3_reduce <- inception_5b/3x3_reduce
I0403 18:58:35.558272 24071 net.cpp:386] inception_5b/relu_3x3_reduce -> inception_5b/3x3_reduce (in-place)
I0403 18:58:35.558464 24071 net.cpp:141] Setting up inception_5b/relu_3x3_reduce
I0403 18:58:35.558488 24071 net.cpp:148] Top shape: 24 192 7 7 (225792)
I0403 18:58:35.558503 24071 net.cpp:156] Memory required for data: 1330660896
I0403 18:58:35.558517 24071 layer_factory.hpp:77] Creating layer inception_5b/3x3
I0403 18:58:35.558542 24071 net.cpp:91] Creating Layer inception_5b/3x3
I0403 18:58:35.558559 24071 net.cpp:425] inception_5b/3x3 <- inception_5b/3x3_reduce
I0403 18:58:35.558578 24071 net.cpp:399] inception_5b/3x3 -> inception_5b/3x3
I0403 18:58:35.565548 24071 net.cpp:141] Setting up inception_5b/3x3
I0403 18:58:35.565578 24071 net.cpp:148] Top shape: 24 384 7 7 (451584)
I0403 18:58:35.565593 24071 net.cpp:156] Memory required for data: 1332467232
I0403 18:58:35.565610 24071 layer_factory.hpp:77] Creating layer inception_5b/relu_3x3
I0403 18:58:35.565631 24071 net.cpp:91] Creating Layer inception_5b/relu_3x3
I0403 18:58:35.565647 24071 net.cpp:425] inception_5b/relu_3x3 <- inception_5b/3x3
I0403 18:58:35.565664 24071 net.cpp:386] inception_5b/relu_3x3 -> inception_5b/3x3 (in-place)
I0403 18:58:35.565963 24071 net.cpp:141] Setting up inception_5b/relu_3x3
I0403 18:58:35.565989 24071 net.cpp:148] Top shape: 24 384 7 7 (451584)
I0403 18:58:35.566004 24071 net.cpp:156] Memory required for data: 1334273568
I0403 18:58:35.566017 24071 layer_factory.hpp:77] Creating layer inception_5b/5x5_reduce
I0403 18:58:35.566054 24071 net.cpp:91] Creating Layer inception_5b/5x5_reduce
I0403 18:58:35.566072 24071 net.cpp:425] inception_5b/5x5_reduce <- inception_5a/output_inception_5a/output_0_split_2
I0403 18:58:35.566093 24071 net.cpp:399] inception_5b/5x5_reduce -> inception_5b/5x5_reduce
I0403 18:58:35.567373 24071 net.cpp:141] Setting up inception_5b/5x5_reduce
I0403 18:58:35.567401 24071 net.cpp:148] Top shape: 24 48 7 7 (56448)
I0403 18:58:35.567416 24071 net.cpp:156] Memory required for data: 1334499360
I0403 18:58:35.567435 24071 layer_factory.hpp:77] Creating layer inception_5b/relu_5x5_reduce
I0403 18:58:35.567454 24071 net.cpp:91] Creating Layer inception_5b/relu_5x5_reduce
I0403 18:58:35.567471 24071 net.cpp:425] inception_5b/relu_5x5_reduce <- inception_5b/5x5_reduce
I0403 18:58:35.567488 24071 net.cpp:386] inception_5b/relu_5x5_reduce -> inception_5b/5x5_reduce (in-place)
I0403 18:58:35.567872 24071 net.cpp:141] Setting up inception_5b/relu_5x5_reduce
I0403 18:58:35.567898 24071 net.cpp:148] Top shape: 24 48 7 7 (56448)
I0403 18:58:35.567911 24071 net.cpp:156] Memory required for data: 1334725152
I0403 18:58:35.567925 24071 layer_factory.hpp:77] Creating layer inception_5b/5x5
I0403 18:58:35.567945 24071 net.cpp:91] Creating Layer inception_5b/5x5
I0403 18:58:35.567960 24071 net.cpp:425] inception_5b/5x5 <- inception_5b/5x5_reduce
I0403 18:58:35.567977 24071 net.cpp:399] inception_5b/5x5 -> inception_5b/5x5
I0403 18:58:35.570029 24071 net.cpp:141] Setting up inception_5b/5x5
I0403 18:58:35.570057 24071 net.cpp:148] Top shape: 24 128 7 7 (150528)
I0403 18:58:35.570073 24071 net.cpp:156] Memory required for data: 1335327264
I0403 18:58:35.570089 24071 layer_factory.hpp:77] Creating layer inception_5b/relu_5x5
I0403 18:58:35.570107 24071 net.cpp:91] Creating Layer inception_5b/relu_5x5
I0403 18:58:35.570122 24071 net.cpp:425] inception_5b/relu_5x5 <- inception_5b/5x5
I0403 18:58:35.570138 24071 net.cpp:386] inception_5b/relu_5x5 -> inception_5b/5x5 (in-place)
I0403 18:58:35.570336 24071 net.cpp:141] Setting up inception_5b/relu_5x5
I0403 18:58:35.570360 24071 net.cpp:148] Top shape: 24 128 7 7 (150528)
I0403 18:58:35.570374 24071 net.cpp:156] Memory required for data: 1335929376
I0403 18:58:35.570389 24071 layer_factory.hpp:77] Creating layer inception_5b/pool
I0403 18:58:35.570405 24071 net.cpp:91] Creating Layer inception_5b/pool
I0403 18:58:35.570420 24071 net.cpp:425] inception_5b/pool <- inception_5a/output_inception_5a/output_0_split_3
I0403 18:58:35.570441 24071 net.cpp:399] inception_5b/pool -> inception_5b/pool
I0403 18:58:35.570511 24071 net.cpp:141] Setting up inception_5b/pool
I0403 18:58:35.570539 24071 net.cpp:148] Top shape: 24 832 7 7 (978432)
I0403 18:58:35.570555 24071 net.cpp:156] Memory required for data: 1339843104
I0403 18:58:35.570569 24071 layer_factory.hpp:77] Creating layer inception_5b/pool_proj
I0403 18:58:35.570590 24071 net.cpp:91] Creating Layer inception_5b/pool_proj
I0403 18:58:35.570608 24071 net.cpp:425] inception_5b/pool_proj <- inception_5b/pool
I0403 18:58:35.570626 24071 net.cpp:399] inception_5b/pool_proj -> inception_5b/pool_proj
I0403 18:58:35.572899 24071 net.cpp:141] Setting up inception_5b/pool_proj
I0403 18:58:35.572931 24071 net.cpp:148] Top shape: 24 128 7 7 (150528)
I0403 18:58:35.572945 24071 net.cpp:156] Memory required for data: 1340445216
I0403 18:58:35.572963 24071 layer_factory.hpp:77] Creating layer inception_5b/relu_pool_proj
I0403 18:58:35.572985 24071 net.cpp:91] Creating Layer inception_5b/relu_pool_proj
I0403 18:58:35.573002 24071 net.cpp:425] inception_5b/relu_pool_proj <- inception_5b/pool_proj
I0403 18:58:35.573019 24071 net.cpp:386] inception_5b/relu_pool_proj -> inception_5b/pool_proj (in-place)
I0403 18:58:35.573317 24071 net.cpp:141] Setting up inception_5b/relu_pool_proj
I0403 18:58:35.573341 24071 net.cpp:148] Top shape: 24 128 7 7 (150528)
I0403 18:58:35.573356 24071 net.cpp:156] Memory required for data: 1341047328
I0403 18:58:35.573370 24071 layer_factory.hpp:77] Creating layer inception_5b/output
I0403 18:58:35.573390 24071 net.cpp:91] Creating Layer inception_5b/output
I0403 18:58:35.573421 24071 net.cpp:425] inception_5b/output <- inception_5b/1x1
I0403 18:58:35.573437 24071 net.cpp:425] inception_5b/output <- inception_5b/3x3
I0403 18:58:35.573453 24071 net.cpp:425] inception_5b/output <- inception_5b/5x5
I0403 18:58:35.573468 24071 net.cpp:425] inception_5b/output <- inception_5b/pool_proj
I0403 18:58:35.573484 24071 net.cpp:399] inception_5b/output -> inception_5b/output
I0403 18:58:35.573541 24071 net.cpp:141] Setting up inception_5b/output
I0403 18:58:35.573565 24071 net.cpp:148] Top shape: 24 1024 7 7 (1204224)
I0403 18:58:35.573580 24071 net.cpp:156] Memory required for data: 1345864224
I0403 18:58:35.573592 24071 layer_factory.hpp:77] Creating layer pool5/7x7_s1
I0403 18:58:35.573609 24071 net.cpp:91] Creating Layer pool5/7x7_s1
I0403 18:58:35.573624 24071 net.cpp:425] pool5/7x7_s1 <- inception_5b/output
I0403 18:58:35.573644 24071 net.cpp:399] pool5/7x7_s1 -> pool5/7x7_s1
I0403 18:58:35.573861 24071 net.cpp:141] Setting up pool5/7x7_s1
I0403 18:58:35.573889 24071 net.cpp:148] Top shape: 24 1024 1 1 (24576)
I0403 18:58:35.573904 24071 net.cpp:156] Memory required for data: 1345962528
I0403 18:58:35.573916 24071 layer_factory.hpp:77] Creating layer pool5/drop_7x7_s1
I0403 18:58:35.573933 24071 net.cpp:91] Creating Layer pool5/drop_7x7_s1
I0403 18:58:35.573948 24071 net.cpp:425] pool5/drop_7x7_s1 <- pool5/7x7_s1
I0403 18:58:35.573964 24071 net.cpp:386] pool5/drop_7x7_s1 -> pool5/7x7_s1 (in-place)
I0403 18:58:35.574015 24071 net.cpp:141] Setting up pool5/drop_7x7_s1
I0403 18:58:35.574038 24071 net.cpp:148] Top shape: 24 1024 1 1 (24576)
I0403 18:58:35.574051 24071 net.cpp:156] Memory required for data: 1346060832
I0403 18:58:35.574065 24071 layer_factory.hpp:77] Creating layer loss3/classifier_plantvillage
I0403 18:58:35.574085 24071 net.cpp:91] Creating Layer loss3/classifier_plantvillage
I0403 18:58:35.574100 24071 net.cpp:425] loss3/classifier_plantvillage <- pool5/7x7_s1
I0403 18:58:35.574120 24071 net.cpp:399] loss3/classifier_plantvillage -> loss3/classifier_plantvillage
I0403 18:58:35.574548 24071 net.cpp:141] Setting up loss3/classifier_plantvillage
I0403 18:58:35.574573 24071 net.cpp:148] Top shape: 24 38 (912)
I0403 18:58:35.574595 24071 net.cpp:156] Memory required for data: 1346064480
I0403 18:58:35.574612 24071 layer_factory.hpp:77] Creating layer loss3/classifier_plantvillage_loss3/classifier_plantvillage_0_split
I0403 18:58:35.574630 24071 net.cpp:91] Creating Layer loss3/classifier_plantvillage_loss3/classifier_plantvillage_0_split
I0403 18:58:35.574645 24071 net.cpp:425] loss3/classifier_plantvillage_loss3/classifier_plantvillage_0_split <- loss3/classifier_plantvillage
I0403 18:58:35.574663 24071 net.cpp:399] loss3/classifier_plantvillage_loss3/classifier_plantvillage_0_split -> loss3/classifier_plantvillage_loss3/classifier_plantvillage_0_split_0
I0403 18:58:35.574684 24071 net.cpp:399] loss3/classifier_plantvillage_loss3/classifier_plantvillage_0_split -> loss3/classifier_plantvillage_loss3/classifier_plantvillage_0_split_1
I0403 18:58:35.574704 24071 net.cpp:399] loss3/classifier_plantvillage_loss3/classifier_plantvillage_0_split -> loss3/classifier_plantvillage_loss3/classifier_plantvillage_0_split_2
I0403 18:58:35.574724 24071 net.cpp:399] loss3/classifier_plantvillage_loss3/classifier_plantvillage_0_split -> loss3/classifier_plantvillage_loss3/classifier_plantvillage_0_split_3
I0403 18:58:35.574825 24071 net.cpp:141] Setting up loss3/classifier_plantvillage_loss3/classifier_plantvillage_0_split
I0403 18:58:35.574846 24071 net.cpp:148] Top shape: 24 38 (912)
I0403 18:58:35.574862 24071 net.cpp:148] Top shape: 24 38 (912)
I0403 18:58:35.574875 24071 net.cpp:148] Top shape: 24 38 (912)
I0403 18:58:35.574889 24071 net.cpp:148] Top shape: 24 38 (912)
I0403 18:58:35.574903 24071 net.cpp:156] Memory required for data: 1346079072
I0403 18:58:35.574916 24071 layer_factory.hpp:77] Creating layer loss1/loss
I0403 18:58:35.574937 24071 net.cpp:91] Creating Layer loss1/loss
I0403 18:58:35.574954 24071 net.cpp:425] loss1/loss <- loss1/classifier_plantvillage_loss1/classifier_plantvillage_0_split_0
I0403 18:58:35.574985 24071 net.cpp:425] loss1/loss <- label_data_1_split_0
…
