…
I0403 18:52:25.923568 23715 net.cpp:313] The NetState phase (1) differed from the phase (0) specified by a rule in layer data
I0403 18:52:25.925361 23715 net.cpp:49] Initializing net from parameters: 
state {
  phase: TEST
}
layer {
  name: "data"
  type: "Data"
  top: "data"
  top: "label"
  include {
    phase: TEST
  }
  transform_param {
    mirror: false
    crop_size: 224
    mean_file: "/home/mohanty/data/final_dataset/lmdb/segmented-40-60/mean.binaryproto"
  }
  data_param {
    source: "/home/mohanty/data/final_dataset/lmdb/segmented-40-60/test_db"
    batch_size: 24
    backend: LMDB
  }
}
layer {
  name: "conv1/7x7_s2"
  type: "Convolution"
  bottom: "data"
  top: "conv1/7x7_s2"
  param {
    lr_mult: 1
    decay_mult: 1
  }
  param {
    lr_mult: 2
    decay_mult: 0
  }
  convolution_param {
    num_output: 64
    pad: 3
    kernel_size: 7
    stride: 2
    weight_filler {
      type: "xavier"
      std: 0.1
    }
    bias_filler {
      type: "constant"
      value: 0.2
    }
  }
}
layer {
  name: "conv1/relu_7x7"
  type: "ReLU"
  bottom: "conv1/7x7_s2"
  top: "conv1/7x7_s2"
}
layer {
  name: "pool1/3x3_s2"
  type: "Pooling"
  bottom: "conv1/7x7_s2"
  top: "pool1/3x3_s2"
  pooling_param {
    pool: MAX
    kernel_size: 3
    stride: 2
  }
}
layer {
  name: "pool1/norm1"
  type: "LRN"
  bottom: "pool1/3x3_s2"
  top: "pool1/norm1"
  lrn_param {
    local_size: 5
    alpha: 0.0001
    beta: 0.75
  }
}
layer {
  name: "conv2/3x3_reduce"
  type: "Convolution"
  bottom: "pool1/norm1"
  top: "conv2/3x3_reduce"
  param {
    lr_mult: 1
    decay_mult: 1
  }
  param {
    lr_mult: 2
    decay_mult: 0
  }
  convolution_param {
    num_output: 64
    kernel_size: 1
    weight_filler {
      type: "xavier"
      std: 0.1
    }
    bias_filler {
      type: "constant"
      value: 0.2
    }
  }
}
layer {
  name: "conv2/relu_3x3_reduce"
  type: "ReLU"
  bottom: "conv2/3x3_reduce"
  top: "conv2/3x3_reduce"
}
layer {
  name: "conv2/3x3"
  type: "Convolution"
  bottom: "conv2/3x3_reduce"
  top: "conv2/3x3"
  param {
    lr_mult: 1
    decay_mult: 1
  }
  param {
    lr_mult: 2
    decay_mult: 0
  }
  convolution_param {
    num_output: 192
    pad: 1
    kernel_size: 3
    weight_filler {
      type: "xavier"
      std: 0.03
    }
    bias_filler {
      type: "constant"
      value: 0.2
    }
  }
}
layer {
  name: "conv2/relu_3x3"
  type: "ReLU"
  bottom: "conv2/3x3"
  top: "conv2/3x3"
}
layer {
  name: "conv2/norm2"
  type: "LRN"
  bottom: "conv2/3x3"
  top: "conv2/norm2"
  lrn_param {
    local_size: 5
    alpha: 0.0001
    beta: 0.75
  }
}
layer {
  name: "pool2/3x3_s2"
  type: "Pooling"
  bottom: "conv2/norm2"
  top: "pool2/3x3_s2"
  pooling_param {
    pool: MAX
    kernel_size: 3
    stride: 2
  }
}
layer {
  name: "inception_3a/1x1"
  type: "Convolution"
  bottom: "pool2/3x3_s2"
  top: "inception_3a/1x1"
  param {
    lr_mult: 1
    decay_mult: 1
  }
  param {
    lr_mult: 2
    decay_mult: 0
  }
  convolution_param {
    num_output: 64
    kernel_size: 1
    weight_filler {
      type: "xavier"
      std: 0.03
    }
    bias_filler {
      type: "constant"
      value: 0.2
    }
  }
}
layer {
  name: "inception_3a/relu_1x1"
  type: "ReLU"
  bottom: "inception_3a/1x1"
  top: "inception_3a/1x1"
}
layer {
  name: "inception_3a/3x3_reduce"
  type: "Convolution"
  bottom: "pool2/3x3_s2"
  top: "inception_3a/3x3_reduce"
  param {
    lr_mult: 1
    decay_mult: 1
  }
  param {
    lr_mult: 2
    decay_mult: 0
  }
  convolution_param {
    num_output: 96
    kernel_size: 1
    weight_filler {
      type: "xavier"
      std: 0.09
    }
    bias_filler {
      type: "constant"
      value: 0.2
    }
  }
}
layer {
  name: "inception_3a/relu_3x3_reduce"
  type: "ReLU"
  bottom: "inception_3a/3x3_reduce"
  top: "inception_3a/3x3_reduce"
}
layer {
  name: "inception_3a/3x3"
  type: "Convolution"
  bottom: "inception_3a/3x3_reduce"
  top: "inception_3a/3x3"
  param {
    lr_mult: 1
    decay_mult: 1
  }
  param {
    lr_mult: 2
    decay_mult: 0
  }
  convolution_param {
    num_output: 128
    pad: 1
    kernel_size: 3
    weight_filler {
      type: "xavier"
      std: 0.03
    }
    bias_filler {
      type: "constant"
      value: 0.2
    }
  }
}
layer {
  name: "inception_3a/relu_3x3"
  type: "ReLU"
  bottom: "inception_3a/3x3"
  top: "inception_3a/3x3"
}
layer {
  name: "inception_3a/5x5_reduce"
  type: "Convolution"
  bottom: "pool2/3x3_s2"
  top: "inception_3a/5x5_reduce"
  param {
    lr_mult: 1
    decay_mult: 1
  }
  param {
    lr_mult: 2
    decay_mult: 0
  }
  convolution_param {
    num_output: 16
    kernel_size: 1
    weight_filler {
      type: "xavier"
      std: 0.2
    }
    bias_filler {
      type: "constant"
      value: 0.2
    }
  }
}
layer {
  name: "inception_3a/relu_5x5_reduce"
  type: "ReLU"
  bottom: "inception_3a/5x5_reduce"
  top: "inception_3a/5x5_reduce"
}
layer {
  name: "inception_3a/5x5"
  type: "Convolution"
  bottom: "inception_3a/5x5_reduce"
  top: "inception_3a/5x5"
  param {
    lr_mult: 1
    decay_mult: 1
  }
  param {
    lr_mult: 2
    decay_mult: 0
  }
  convolution_param {
    num_output: 32
    pad: 2
    kernel_size: 5
    weight_filler {
      type: "xavier"
      std: 0.03
    }
    bias_filler {
      type: "constant"
      value: 0.2
    }
  }
}
layer {
  name: "inception_3a/relu_5x5"
  type: "ReLU"
  bottom: "inception_3a/5x5"
  top: "inception_3a/5x5"
}
layer {
  name: "inception_3a/pool"
  type: "Pooling"
  bottom: "pool2/3x3_s2"
  top: "inception_3a/pool"
  pooling_param {
    pool: MAX
    kernel_size: 3
    stride: 1
    pad: 1
  }
}
layer {
  name: "inception_3a/pool_proj"
  type: "Convolution"
  bottom: "inception_3a/pool"
  top: "inception_3a/pool_proj"
  param {
    lr_mult: 1
    decay_mult: 1
  }
  param {
    lr_mult: 2
    decay_mult: 0
  }
  convolution_param {
    num_output: 32
    kernel_size: 1
    weight_filler {
      type: "xavier"
      std: 0.1
    }
    bias_filler {
      type: "constant"
      value: 0.2
    }
  }
}
layer {
  name: "inception_3a/relu_pool_proj"
  type: "ReLU"
  bottom: "inception_3a/pool_proj"
  top: "inception_3a/pool_proj"
}
layer {
  name: "inception_3a/output"
  type: "Concat"
  bottom: "inception_3a/1x1"
  bottom: "inception_3a/3x3"
  bottom: "inception_3a/5x5"
  bottom: "inception_3a/pool_proj"
  top: "inception_3a/output"
}
layer {
  name: "inception_3b/1x1"
  type: "Convolution"
  bottom: "inception_3a/output"
  top: "inception_3b/1x1"
  param {
    lr_mult: 1
    decay_mult: 1
  }
  param {
    lr_mult: 2
    decay_mult: 0
  }
  convolution_param {
    num_output: 128
    kernel_size: 1
    weight_filler {
      type: "xavier"
      std: 0.03
    }
    bias_filler {
      type: "constant"
      value: 0.2
    }
  }
}
layer {
  name: "inception_3b/relu_1x1"
  type: "ReLU"
  bottom: "inception_3b/1x1"
  top: "inception_3b/1x1"
}
layer {
  name: "inception_3b/3x3_reduce"
  type: "Convolution"
  bottom: "inception_3a/output"
  top: "inception_3b/3x3_reduce"
  param {
    lr_mult: 1
    decay_mult: 1
  }
  param {
    lr_mult: 2
    decay_mult: 0
  }
  convolution_param {
    num_output: 128
    kernel_size: 1
    weight_filler {
      type: "xavier"
      std: 0.09
    }
    bias_filler {
      type: "constant"
      value: 0.2
    }
  }
}
layer {
  name: "inception_3b/relu_3x3_reduce"
  type: "ReLU"
  bottom: "inception_3b/3x3_reduce"
  top: "inception_3b/3x3_reduce"
}
layer {
  name: "inception_3b/3x3"
  type: "Convolution"
  bottom: "inception_3b/3x3_reduce"
  top: "inception_3b/3x3"
  param {
    lr_mult: 1
    decay_mult: 1
  }
  param {
    lr_mult: 2
    decay_mult: 0
  }
  convolution_param {
    num_output: 192
    pad: 1
    kernel_size: 3
    weight_filler {
      type: "xavier"
      std: 0.03
    }
    bias_filler {
      type: "constant"
      value: 0.2
    }
  }
}
layer {
  name: "inception_3b/relu_3x3"
  type: "ReLU"
  bottom: "inception_3b/3x3"
  top: "inception_3b/3x3"
}
layer {
  name: "inception_3b/5x5_reduce"
  type: "Convolution"
  bottom: "inception_3a/output"
  top: "inception_3b/5x5_reduce"
  param {
    lr_mult: 1
    decay_mult: 1
  }
  param {
    lr_mult: 2
    decay_mult: 0
  }
  convolution_param {
    num_output: 32
    kernel_size: 1
    weight_filler {
      type: "xavier"
      std: 0.2
    }
    bias_filler {
      type: "constant"
      value: 0.2
    }
  }
}
layer {
  name: "inception_3b/relu_5x5_reduce"
  type: "ReLU"
  bottom: "inception_3b/5x5_reduce"
  top: "inception_3b/5x5_reduce"
}
layer {
  name: "inception_3b/5x5"
  type: "Convolution"
  bottom: "inception_3b/5x5_reduce"
  top: "inception_3b/5x5"
  param {
    lr_mult: 1
    decay_mult: 1
  }
  param {
    lr_mult: 2
    decay_mult: 0
  }
  convolution_param {
    num_output: 96
    pad: 2
    kernel_size: 5
    weight_filler {
      type: "xavier"
      std: 0.03
    }
    bias_filler {
      type: "constant"
      value: 0.2
    }
  }
}
layer {
  name: "inception_3b/relu_5x5"
  type: "ReLU"
  bottom: "inception_3b/5x5"
  top: "inception_3b/5x5"
}
layer {
  name: "inception_3b/pool"
  type: "Pooling"
  bottom: "inception_3a/output"
  top: "inception_3b/pool"
  pooling_param {
    pool: MAX
    kernel_size: 3
    stride: 1
    pad: 1
  }
}
layer {
  name: "inception_3b/pool_proj"
  type: "Convolution"
  bottom: "inception_3b/pool"
  top: "inception_3b/pool_proj"
  param {
    lr_mult: 1
    decay_mult: 1
  }
  param {
    lr_mult: 2
    decay_mult: 0
  }
  convolution_param {
    num_output: 64
    kernel_size: 1
    weight_filler {
      type: "xavier"
      std: 0.1
    }
    bias_filler {
      type: "constant"
      value: 0.2
    }
  }
}
layer {
  name: "inception_3b/relu_pool_proj"
  type: "ReLU"
  bottom: "inception_3b/pool_proj"
  top: "inception_3b/pool_proj"
}
layer {
  name: "inception_3b/output"
  type: "Concat"
  bottom: "inception_3b/1x1"
  bottom: "inception_3b/3x3"
  bottom: "inception_3b/5x5"
  bottom: "inception_3b/pool_proj"
  top: "inception_3b/output"
}
layer {
  name: "pool3/3x3_s2"
  type: "Pooling"
  bottom: "inception_3b/output"
  top: "pool3/3x3_s2"
  pooling_param {
    pool: MAX
    kernel_size: 3
    stride: 2
  }
}
layer {
  name: "inception_4a/1x1"
  type: "Convolution"
  bottom: "pool3/3x3_s2"
  top: "inception_4a/1x1"
  param {
    lr_mult: 1
    decay_mult: 1
  }
  param {
    lr_mult: 2
    decay_mult: 0
  }
  convolution_param {
    num_output: 192
    kernel_size: 1
    weight_filler {
      type: "xavier"
      std: 0.03
    }
    bias_filler {
      type: "constant"
      value: 0.2
    }
  }
}
layer {
  name: "inception_4a/relu_1x1"
  type: "ReLU"
  bottom: "inception_4a/1x1"
  top: "inception_4a/1x1"
}
layer {
  name: "inception_4a/3x3_reduce"
  type: "Convolution"
  bottom: "pool3/3x3_s2"
  top: "inception_4a/3x3_reduce"
  param {
    lr_mult: 1
    decay_mult: 1
  }
  param {
    lr_mult: 2
    decay_mult: 0
  }
  convolution_param {
    num_output: 96
    kernel_size: 1
    weight_filler {
      type: "xavier"
      std: 0.09
    }
    bias_filler {
      type: "constant"
      value: 0.2
    }
  }
}
layer {
  name: "inception_4a/relu_3x3_reduce"
  type: "ReLU"
  bottom: "inception_4a/3x3_reduce"
  top: "inception_4a/3x3_reduce"
}
layer {
  name: "inception_4a/3x3"
  type: "Convolution"
  bottom: "inception_4a/3x3_reduce"
  top: "inception_4a/3x3"
  param {
    lr_mult: 1
    decay_mult: 1
  }
  param {
    lr_mult: 2
    decay_mult: 0
  }
  convolution_param {
    num_output: 208
    pad: 1
    kernel_size: 3
    weight_filler {
      type: "xavier"
      std: 0.03
    }
    bias_filler {
      type: "constant"
      value: 0.2
    }
  }
}
layer {
  name: "inception_4a/relu_3x3"
  type: "ReLU"
  bottom: "inception_4a/3x3"
  top: "inception_4a/3x3"
}
layer {
  name: "inception_4a/5x5_reduce"
  type: "Convolution"
  bottom: "pool3/3x3_s2"
  top: "inception_4a/5x5_reduce"
  param {
    lr_mult: 1
    decay_mult: 1
  }
  param {
    lr_mult: 2
    decay_mult: 0
  }
  convolution_param {
    num_output: 16
    kernel_size: 1
    weight_filler {
      type: "xavier"
      std: 0.2
    }
    bias_filler {
      type: "constant"
      value: 0.2
    }
  }
}
layer {
  name: "inception_4a/relu_5x5_reduce"
  type: "ReLU"
  bottom: "inception_4a/5x5_reduce"
  top: "inception_4a/5x5_reduce"
}
layer {
  name: "inception_4a/5x5"
  type: "Convolution"
  bottom: "inception_4a/5x5_reduce"
  top: "inception_4a/5x5"
  param {
    lr_mult: 1
    decay_mult: 1
  }
  param {
    lr_mult: 2
    decay_mult: 0
  }
  convolution_param {
    num_output: 48
    pad: 2
    kernel_size: 5
    weight_filler {
      type: "xavier"
      std: 0.03
    }
    bias_filler {
      type: "constant"
      value: 0.2
    }
  }
}
layer {
  name: "inception_4a/relu_5x5"
  type: "ReLU"
  bottom: "inception_4a/5x5"
  top: "inception_4a/5x5"
}
layer {
  name: "inception_4a/pool"
  type: "Pooling"
  bottom: "pool3/3x3_s2"
  top: "inception_4a/pool"
  pooling_param {
    pool: MAX
    kernel_size: 3
    stride: 1
    pad: 1
  }
}
layer {
  name: "inception_4a/pool_proj"
  type: "Convolution"
  bottom: "inception_4a/pool"
  top: "inception_4a/pool_proj"
  param {
    lr_mult: 1
    decay_mult: 1
  }
  param {
    lr_mult: 2
    decay_mult: 0
  }
  convolution_param {
    num_output: 64
    kernel_size: 1
    weight_filler {
      type: "xavier"
      std: 0.1
    }
    bias_filler {
      type: "constant"
      value: 0.2
    }
  }
}
layer {
  name: "inception_4a/relu_pool_proj"
  type: "ReLU"
  bottom: "inception_4a/pool_proj"
  top: "inception_4a/pool_proj"
}
layer {
  name: "inception_4a/output"
  type: "Concat"
  bottom: "inception_4a/1x1"
  bottom: "inception_4a/3x3"
  bottom: "inception_4a/5x5"
  bottom: "inception_4a/pool_proj"
  top: "inception_4a/output"
}
layer {
  name: "loss1/ave_pool"
  type: "Pooling"
  bottom: "inception_4a/output"
  top: "loss1/ave_pool"
  pooling_param {
    pool: AVE
    kernel_size: 5
    stride: 3
  }
}
layer {
  name: "loss1/conv"
  type: "Convolution"
  bottom: "loss1/ave_pool"
  top: "loss1/conv"
  param {
    lr_mult: 1
    decay_mult: 1
  }
  param {
    lr_mult: 2
    decay_mult: 0
  }
  convolution_param {
    num_output: 128
    kernel_size: 1
    weight_filler {
      type: "xavier"
      std: 0.08
    }
    bias_filler {
      type: "constant"
      value: 0.2
    }
  }
}
layer {
  name: "loss1/relu_conv"
  type: "ReLU"
  bottom: "loss1/conv"
  top: "loss1/conv"
}
layer {
  name: "loss1/fc"
  type: "InnerProduct"
  bottom: "loss1/conv"
  top: "loss1/fc"
  param {
    lr_mult: 1
    decay_mult: 1
  }
  param {
    lr_mult: 2
    decay_mult: 0
  }
  inner_product_param {
    num_output: 1024
    weight_filler {
      type: "xavier"
      std: 0.02
    }
    bias_filler {
      type: "constant"
      value: 0.2
    }
  }
}
layer {
  name: "loss1/relu_fc"
  type: "ReLU"
  bottom: "loss1/fc"
  top: "loss1/fc"
}
layer {
  name: "loss1/drop_fc"
  type: "Dropout"
  bottom: "loss1/fc"
  top: "loss1/fc"
  dropout_param {
    dropout_ratio: 0.7
  }
}
layer {
  name: "loss1/classifier_plantvillage"
  type: "InnerProduct"
  bottom: "loss1/fc"
  top: "loss1/classifier_plantvillage"
  param {
    lr_mult: 1
    decay_mult: 1
  }
  param {
    lr_mult: 2
    decay_mult: 0
  }
  inner_product_param {
    num_output: 38
    weight_filler {
      type: "xavier"
      std: 0.0009765625
    }
    bias_filler {
      type: "constant"
      value: 0
    }
  }
}
layer {
  name: "inception_4b/1x1"
  type: "Convolution"
  bottom: "inception_4a/output"
  top: "inception_4b/1x1"
  param {
    lr_mult: 1
    decay_mult: 1
  }
  param {
    lr_mult: 2
    decay_mult: 0
  }
  convolution_param {
    num_output: 160
    kernel_size: 1
    weight_filler {
      type: "xavier"
      std: 0.03
    }
    bias_filler {
      type: "constant"
      value: 0.2
    }
  }
}
layer {
  name: "inception_4b/relu_1x1"
  type: "ReLU"
  bottom: "inception_4b/1x1"
  top: "inception_4b/1x1"
}
layer {
  name: "inception_4b/3x3_reduce"
  type: "Convolution"
  bottom: "inception_4a/output"
  top: "inception_4b/3x3_reduce"
  param {
    lr_mult: 1
    decay_mult: 1
  }
  param {
    lr_mult: 2
    decay_mult: 0
  }
  convolution_param {
    num_output: 112
    kernel_size: 1
    weight_filler {
      type: "xavier"
      std: 0.09
    }
    bias_filler {
      type: "constant"
      value: 0.2
    }
  }
}
layer {
  name: "inception_4b/relu_3x3_reduce"
  type: "ReLU"
  bottom: "inception_4b/3x3_reduce"
  top: "inception_4b/3x3_reduce"
}
layer {
  name: "inception_4b/3x3"
  type: "Convolution"
  bottom: "inception_4b/3x3_reduce"
  top: "inception_4b/3x3"
  param {
    lr_mult: 1
    decay_mult: 1
  }
  param {
    lr_mult: 2
    decay_mult: 0
  }
  convolution_param {
    num_output: 224
    pad: 1
    kernel_size: 3
    weight_filler {
      type: "xavier"
      std: 0.03
    }
    bias_filler {
      type: "constant"
      value: 0.2
    }
  }
}
layer {
  name: "inception_4b/relu_3x3"
  type: "ReLU"
  bottom: "inception_4b/3x3"
  top: "inception_4b/3x3"
}
layer {
  name: "inception_4b/5x5_reduce"
  type: "Convolution"
  bottom: "inception_4a/output"
  top: "inception_4b/5x5_reduce"
  param {
    lr_mult: 1
    decay_mult: 1
  }
  param {
    lr_mult: 2
    decay_mult: 0
  }
  convolution_param {
    num_output: 24
    kernel_size: 1
    weight_filler {
      type: "xavier"
      std: 0.2
    }
    bias_filler {
      type: "constant"
      value: 0.2
    }
  }
}
layer {
  name: "inception_4b/relu_5x5_reduce"
  type: "ReLU"
  bottom: "inception_4b/5x5_reduce"
  top: "inception_4b/5x5_reduce"
}
layer {
  name: "inception_4b/5x5"
  type: "Convolution"
  bottom: "inception_4b/5x5_reduce"
  top: "inception_4b/5x5"
  param {
    lr_mult: 1
    decay_mult: 1
  }
  param {
    lr_mult: 2
    decay_mult: 0
  }
  convolution_param {
    num_output: 64
    pad: 2
    kernel_size: 5
    weight_filler {
      type: "xavier"
      std: 0.03
    }
    bias_filler {
      type: "constant"
      value: 0.2
    }
  }
}
layer {
  name: "inception_4b/relu_5x5"
  type: "ReLU"
  bottom: "inception_4b/5x5"
  top: "inception_4b/5x5"
}
layer {
  name: "inception_4b/pool"
  type: "Pooling"
  bottom: "inception_4a/output"
  top: "inception_4b/pool"
  pooling_param {
    pool: MAX
    kernel_size: 3
    stride: 1
    pad: 1
  }
}
layer {
  name: "inception_4b/pool_proj"
  type: "Convolution"
  bottom: "inception_4b/pool"
  top: "inception_4b/pool_proj"
  param {
    lr_mult: 1
    decay_mult: 1
  }
  param {
    lr_mult: 2
    decay_mult: 0
  }
  convolution_param {
    num_output: 64
    kernel_size: 1
    weight_filler {
      type: "xavier"
      std: 0.1
    }
    bias_filler {
      type: "constant"
      value: 0.2
    }
  }
}
layer {
  name: "inception_4b/relu_pool_proj"
  type: "ReLU"
  bottom: "inception_4b/pool_proj"
  top: "inception_4b/pool_proj"
}
layer {
  name: "inception_4b/output"
  type: "Concat"
  bottom: "inception_4b/1x1"
  bottom: "inception_4b/3x3"
  bottom: "inception_4b/5x5"
  bottom: "inception_4b/pool_proj"
  top: "inception_4b/output"
}
layer {
  name: "inception_4c/1x1"
  type: "Convolution"
  bottom: "inception_4b/output"
  top: "inception_4c/1x1"
  param {
    lr_mult: 1
    decay_mult: 1
  }
  param {
    lr_mult: 2
    decay_mult: 0
  }
  convolution_param {
    num_output: 128
    kernel_size: 1
    weight_filler {
      type: "xavier"
      std: 0.03
    }
    bias_filler {
      type: "constant"
      value: 0.2
    }
  }
}
layer {
  name: "inception_4c/relu_1x1"
  type: "ReLU"
  bottom: "inception_4c/1x1"
  top: "inception_4c/1x1"
}
layer {
  name: "inception_4c/3x3_reduce"
  type: "Convolution"
  bottom: "inception_4b/output"
  top: "inception_4c/3x3_reduce"
  param {
    lr_mult: 1
    decay_mult: 1
  }
  param {
    lr_mult: 2
    decay_mult: 0
  }
  convolution_param {
    num_output: 128
    kernel_size: 1
    weight_filler {
      type: "xavier"
      std: 0.09
    }
    bias_filler {
      type: "constant"
      value: 0.2
    }
  }
}
layer {
  name: "inception_4c/relu_3x3_reduce"
  type: "ReLU"
  bottom: "inception_4c/3x3_reduce"
  top: "inception_4c/3x3_reduce"
}
layer {
  name: "inception_4c/3x3"
  type: "Convolution"
  bottom: "inception_4c/3x3_reduce"
  top: "inception_4c/3x3"
  param {
    lr_mult: 1
    decay_mult: 1
  }
  param {
    lr_mult: 2
    decay_mult: 0
  }
  convolution_param {
    num_output: 256
    pad: 1
    kernel_size: 3
    weight_filler {
      type: "xavier"
      std: 0.03
    }
    bias_filler {
      type: "constant"
      value: 0.2
    }
  }
}
layer {
  name: "inception_4c/relu_3x3"
  type: "ReLU"
  bottom: "inception_4c/3x3"
  top: "inception_4c/3x3"
}
layer {
  name: "inception_4c/5x5_reduce"
  type: "Convolution"
  bottom: "inception_4b/output"
  top: "inception_4c/5x5_reduce"
  param {
    lr_mult: 1
    decay_mult: 1
  }
  param {
    lr_mult: 2
    decay_mult: 0
  }
  convolution_param {
    num_output: 24
    kernel_size: 1
    weight_filler {
      type: "xavier"
      std: 0.2
    }
    bias_filler {
      type: "constant"
      value: 0.2
    }
  }
}
layer {
  name: "inception_4c/relu_5x5_reduce"
  type: "ReLU"
  bottom: "inception_4c/5x5_reduce"
  top: "inception_4c/5x5_reduce"
}
layer {
  name: "inception_4c/5x5"
  type: "Convolution"
  bottom: "inception_4c/5x5_reduce"
  top: "inception_4c/5x5"
  param {
    lr_mult: 1
    decay_mult: 1
  }
  param {
    lr_mult: 2
    decay_mult: 0
  }
  convolution_param {
    num_output: 64
    pad: 2
    kernel_size: 5
    weight_filler {
      type: "xavier"
      std: 0.03
    }
    bias_filler {
      type: "constant"
      value: 0.2
    }
  }
}
layer {
  name: "inception_4c/relu_5x5"
  type: "ReLU"
  bottom: "inception_4c/5x5"
  top: "inception_4c/5x5"
}
layer {
  name: "inception_4c/pool"
  type: "Pooling"
  bottom: "inception_4b/output"
  top: "inception_4c/pool"
  pooling_param {
    pool: MAX
    kernel_size: 3
    stride: 1
    pad: 1
  }
}
layer {
  name: "inception_4c/pool_proj"
  type: "Convolution"
  bottom: "inception_4c/pool"
  top: "inception_4c/pool_proj"
  param {
    lr_mult: 1
    decay_mult: 1
  }
  param {
    lr_mult: 2
    decay_mult: 0
  }
  convolution_param {
    num_output: 64
    kernel_size: 1
    weight_filler {
      type: "xavier"
      std: 0.1
    }
    bias_filler {
      type: "constant"
      value: 0.2
    }
  }
}
layer {
  name: "inception_4c/relu_pool_proj"
  type: "ReLU"
  bottom: "inception_4c/pool_proj"
  top: "inception_4c/pool_proj"
}
layer {
  name: "inception_4c/output"
  type: "Concat"
  bottom: "inception_4c/1x1"
  bottom: "inception_4c/3x3"
  bottom: "inception_4c/5x5"
  bottom: "inception_4c/pool_proj"
  top: "inception_4c/output"
}
layer {
  name: "inception_4d/1x1"
  type: "Convolution"
  bottom: "inception_4c/output"
  top: "inception_4d/1x1"
  param {
    lr_mult: 1
    decay_mult: 1
  }
  param {
    lr_mult: 2
    decay_mult: 0
  }
  convolution_param {
    num_output: 112
    kernel_size: 1
    weight_filler {
      type: "xavier"
      std: 0.03
    }
    bias_filler {
      type: "constant"
      value: 0.2
    }
  }
}
layer {
  name: "inception_4d/relu_1x1"
  type: "ReLU"
  bottom: "inception_4d/1x1"
  top: "inception_4d/1x1"
}
layer {
  name: "inception_4d/3x3_reduce"
  type: "Convolution"
  bottom: "inception_4c/output"
  top: "inception_4d/3x3_reduce"
  param {
    lr_mult: 1
    decay_mult: 1
  }
  param {
    lr_mult: 2
    decay_mult: 0
  }
  convolution_param {
    num_output: 144
    kernel_size: 1
    weight_filler {
      type: "xavier"
      std: 0.09
    }
    bias_filler {
      type: "constant"
      value: 0.2
    }
  }
}
layer {
  name: "inception_4d/relu_3x3_reduce"
  type: "ReLU"
  bottom: "inception_4d/3x3_reduce"
  top: "inception_4d/3x3_reduce"
}
layer {
  name: "inception_4d/3x3"
  type: "Convolution"
  bottom: "inception_4d/3x3_reduce"
  top: "inception_4d/3x3"
  param {
    lr_mult: 1
    decay_mult: 1
  }
  param {
    lr_mult: 2
    decay_mult: 0
  }
  convolution_param {
    num_output: 288
    pad: 1
    kernel_size: 3
    weight_filler {
      type: "xavier"
      std: 0.03
    }
    bias_filler {
      type: "constant"
      value: 0.2
    }
  }
}
layer {
  name: "inception_4d/relu_3x3"
  type: "ReLU"
  bottom: "inception_4d/3x3"
  top: "inception_4d/3x3"
}
layer {
  name: "inception_4d/5x5_reduce"
  type: "Convolution"
  bottom: "inception_4c/output"
  top: "inception_4d/5x5_reduce"
  param {
    lr_mult: 1
    decay_mult: 1
  }
  param {
    lr_mult: 2
    decay_mult: 0
  }
  convolution_param {
    num_output: 32
    kernel_size: 1
    weight_filler {
      type: "xavier"
      std: 0.2
    }
    bias_filler {
      type: "constant"
      value: 0.2
    }
  }
}
layer {
  name: "inception_4d/relu_5x5_reduce"
  type: "ReLU"
  bottom: "inception_4d/5x5_reduce"
  top: "inception_4d/5x5_reduce"
}
layer {
  name: "inception_4d/5x5"
  type: "Convolution"
  bottom: "inception_4d/5x5_reduce"
  top: "inception_4d/5x5"
  param {
    lr_mult: 1
    decay_mult: 1
  }
  param {
    lr_mult: 2
    decay_mult: 0
  }
  convolution_param {
    num_output: 64
    pad: 2
    kernel_size: 5
    weight_filler {
      type: "xavier"
      std: 0.03
    }
    bias_filler {
      type: "constant"
      value: 0.2
    }
  }
}
layer {
  name: "inception_4d/relu_5x5"
  type: "ReLU"
  bottom: "inception_4d/5x5"
  top: "inception_4d/5x5"
}
layer {
  name: "inception_4d/pool"
  type: "Pooling"
  bottom: "inception_4c/output"
  top: "inception_4d/pool"
  pooling_param {
    pool: MAX
    kernel_size: 3
    stride: 1
    pad: 1
  }
}
layer {
  name: "inception_4d/pool_proj"
  type: "Convolution"
  bottom: "inception_4d/pool"
  top: "inception_4d/pool_proj"
  param {
    lr_mult: 1
    decay_mult: 1
  }
  param {
    lr_mult: 2
    decay_mult: 0
  }
  convolution_param {
    num_output: 64
    kernel_size: 1
    weight_filler {
      type: "xavier"
      std: 0.1
    }
    bias_filler {
      type: "constant"
      value: 0.2
    }
  }
}
layer {
  name: "inception_4d/relu_pool_proj"
  type: "ReLU"
  bottom: "inception_4d/pool_proj"
  top: "inception_4d/pool_proj"
}
layer {
  name: "inception_4d/output"
  type: "Concat"
  bottom: "inception_4d/1x1"
  bottom: "inception_4d/3x3"
  bottom: "inception_4d/5x5"
  bottom: "inception_4d/pool_proj"
  top: "inception_4d/output"
}
layer {
  name: "loss2/ave_pool"
  type: "Pooling"
  bottom: "inception_4d/output"
  top: "loss2/ave_pool"
  pooling_param {
    pool: AVE
    kernel_size: 5
    stride: 3
  }
}
layer {
  name: "loss2/conv"
  type: "Convolution"
  bottom: "loss2/ave_pool"
  top: "loss2/conv"
  param {
    lr_mult: 1
    decay_mult: 1
  }
  param {
    lr_mult: 2
    decay_mult: 0
  }
  convolution_param {
    num_output: 128
    kernel_size: 1
    weight_filler {
      type: "xavier"
      std: 0.08
    }
    bias_filler {
      type: "constant"
      value: 0.2
    }
  }
}
layer {
  name: "loss2/relu_conv"
  type: "ReLU"
  bottom: "loss2/conv"
  top: "loss2/conv"
}
layer {
  name: "loss2/fc"
  type: "InnerProduct"
  bottom: "loss2/conv"
  top: "loss2/fc"
  param {
    lr_mult: 1
    decay_mult: 1
  }
  param {
    lr_mult: 2
    decay_mult: 0
  }
  inner_product_param {
    num_output: 1024
    weight_filler {
      type: "xavier"
      std: 0.02
    }
    bias_filler {
      type: "constant"
      value: 0.2
    }
  }
}
layer {
  name: "loss2/relu_fc"
  type: "ReLU"
  bottom: "loss2/fc"
  top: "loss2/fc"
}
layer {
  name: "loss2/drop_fc"
  type: "Dropout"
  bottom: "loss2/fc"
  top: "loss2/fc"
  dropout_param {
    dropout_ratio: 0.7
  }
}
layer {
  name: "loss2/classifier_plantvillage"
  type: "InnerProduct"
  bottom: "loss2/fc"
  top: "loss2/classifier_plantvillage"
  param {
    lr_mult: 1
    decay_mult: 1
  }
  param {
    lr_mult: 2
    decay_mult: 0
  }
  inner_product_param {
    num_output: 38
    weight_filler {
      type: "xavier"
      std: 0.0009765625
    }
    bias_filler {
      type: "constant"
      value: 0
    }
  }
}
layer {
  name: "inception_4e/1x1"
  type: "Convolution"
  bottom: "inception_4d/output"
  top: "inception_4e/1x1"
  param {
    lr_mult: 1
    decay_mult: 1
  }
  param {
    lr_mult: 2
    decay_mult: 0
  }
  convolution_param {
    num_output: 256
    kernel_size: 1
    weight_filler {
      type: "xavier"
      std: 0.03
    }
    bias_filler {
      type: "constant"
      value: 0.2
    }
  }
}
layer {
  name: "inception_4e/relu_1x1"
  type: "ReLU"
  bottom: "inception_4e/1x1"
  top: "inception_4e/1x1"
}
layer {
  name: "inception_4e/3x3_reduce"
  type: "Convolution"
  bottom: "inception_4d/output"
  top: "inception_4e/3x3_reduce"
  param {
    lr_mult: 1
    decay_mult: 1
  }
  param {
    lr_mult: 2
    decay_mult: 0
  }
  convolution_param {
    num_output: 160
    kernel_size: 1
    weight_filler {
      type: "xavier"
      std: 0.09
    }
    bias_filler {
      type: "constant"
      value: 0.2
    }
  }
}
layer {
  name: "inception_4e/relu_3x3_reduce"
  type: "ReLU"
  bottom: "inception_4e/3x3_reduce"
  top: "inception_4e/3x3_reduce"
}
layer {
  name: "inception_4e/3x3"
  type: "Convolution"
  bottom: "inception_4e/3x3_reduce"
  top: "inception_4e/3x3"
  param {
    lr_mult: 1
    decay_mult: 1
  }
  param {
    lr_mult: 2
    decay_mult: 0
  }
  convolution_param {
    num_output: 320
    pad: 1
    kernel_size: 3
    weight_filler {
      type: "xavier"
      std: 0.03
    }
    bias_filler {
      type: "constant"
      value: 0.2
    }
  }
}
layer {
  name: "inception_4e/relu_3x3"
  type: "ReLU"
  bottom: "inception_4e/3x3"
  top: "inception_4e/3x3"
}
layer {
  name: "inception_4e/5x5_reduce"
  type: "Convolution"
  bottom: "inception_4d/output"
  top: "inception_4e/5x5_reduce"
  param {
    lr_mult: 1
    decay_mult: 1
  }
  param {
    lr_mult: 2
    decay_mult: 0
  }
  convolution_param {
    num_output: 32
    kernel_size: 1
    weight_filler {
      type: "xavier"
      std: 0.2
    }
    bias_filler {
      type: "constant"
      value: 0.2
    }
  }
}
layer {
  name: "inception_4e/relu_5x5_reduce"
  type: "ReLU"
  bottom: "inception_4e/5x5_reduce"
  top: "inception_4e/5x5_reduce"
}
layer {
  name: "inception_4e/5x5"
  type: "Convolution"
  bottom: "inception_4e/5x5_reduce"
  top: "inception_4e/
I0403 18:52:25.926780 23715 layer_factory.hpp:77] Creating layer data
I0403 18:52:25.927402 23715 net.cpp:91] Creating Layer data
I0403 18:52:25.927435 23715 net.cpp:399] data -> data
I0403 18:52:25.927489 23715 net.cpp:399] data -> label
I0403 18:52:25.927528 23715 data_transformer.cpp:25] Loading mean file from: /home/mohanty/data/final_dataset/lmdb/segmented-40-60/mean.binaryproto
I0403 18:52:25.928675 23718 db_lmdb.cpp:38] Opened lmdb /home/mohanty/data/final_dataset/lmdb/segmented-40-60/test_db
I0403 18:52:25.940979 23715 data_layer.cpp:41] output data size: 24,3,224,224
I0403 18:52:25.969004 23715 net.cpp:141] Setting up data
I0403 18:52:25.969087 23715 net.cpp:148] Top shape: 24 3 224 224 (3612672)
I0403 18:52:25.969111 23715 net.cpp:148] Top shape: 24 (24)
I0403 18:52:25.969127 23715 net.cpp:156] Memory required for data: 14450784
I0403 18:52:25.969156 23715 layer_factory.hpp:77] Creating layer label_data_1_split
I0403 18:52:25.969183 23715 net.cpp:91] Creating Layer label_data_1_split
I0403 18:52:25.969202 23715 net.cpp:425] label_data_1_split <- label
I0403 18:52:25.969236 23715 net.cpp:399] label_data_1_split -> label_data_1_split_0
I0403 18:52:25.969265 23715 net.cpp:399] label_data_1_split -> label_data_1_split_1
I0403 18:52:25.969287 23715 net.cpp:399] label_data_1_split -> label_data_1_split_2
I0403 18:52:25.969310 23715 net.cpp:399] label_data_1_split -> label_data_1_split_3
I0403 18:52:25.969331 23715 net.cpp:399] label_data_1_split -> label_data_1_split_4
I0403 18:52:25.969350 23715 net.cpp:399] label_data_1_split -> label_data_1_split_5
I0403 18:52:25.969372 23715 net.cpp:399] label_data_1_split -> label_data_1_split_6
I0403 18:52:25.969391 23715 net.cpp:399] label_data_1_split -> label_data_1_split_7
I0403 18:52:25.969413 23715 net.cpp:399] label_data_1_split -> label_data_1_split_8
I0403 18:52:25.969434 23715 net.cpp:399] label_data_1_split -> label_data_1_split_9
I0403 18:52:25.969559 23715 net.cpp:141] Setting up label_data_1_split
I0403 18:52:25.969585 23715 net.cpp:148] Top shape: 24 (24)
I0403 18:52:25.969604 23715 net.cpp:148] Top shape: 24 (24)
I0403 18:52:25.969619 23715 net.cpp:148] Top shape: 24 (24)
I0403 18:52:25.969635 23715 net.cpp:148] Top shape: 24 (24)
I0403 18:52:25.969651 23715 net.cpp:148] Top shape: 24 (24)
I0403 18:52:25.969666 23715 net.cpp:148] Top shape: 24 (24)
I0403 18:52:25.969682 23715 net.cpp:148] Top shape: 24 (24)
I0403 18:52:25.969698 23715 net.cpp:148] Top shape: 24 (24)
I0403 18:52:25.969714 23715 net.cpp:148] Top shape: 24 (24)
I0403 18:52:25.969730 23715 net.cpp:148] Top shape: 24 (24)
I0403 18:52:25.969792 23715 net.cpp:156] Memory required for data: 14451744
I0403 18:52:25.969808 23715 layer_factory.hpp:77] Creating layer conv1/7x7_s2
I0403 18:52:25.969842 23715 net.cpp:91] Creating Layer conv1/7x7_s2
I0403 18:52:25.969862 23715 net.cpp:425] conv1/7x7_s2 <- data
I0403 18:52:25.969883 23715 net.cpp:399] conv1/7x7_s2 -> conv1/7x7_s2
I0403 18:52:26.109534 23715 net.cpp:141] Setting up conv1/7x7_s2
I0403 18:52:26.109612 23715 net.cpp:148] Top shape: 24 64 112 112 (19267584)
I0403 18:52:26.109628 23715 net.cpp:156] Memory required for data: 91522080
I0403 18:52:26.109658 23715 layer_factory.hpp:77] Creating layer conv1/relu_7x7
I0403 18:52:26.109683 23715 net.cpp:91] Creating Layer conv1/relu_7x7
I0403 18:52:26.109701 23715 net.cpp:425] conv1/relu_7x7 <- conv1/7x7_s2
I0403 18:52:26.109719 23715 net.cpp:386] conv1/relu_7x7 -> conv1/7x7_s2 (in-place)
I0403 18:52:26.109958 23715 net.cpp:141] Setting up conv1/relu_7x7
I0403 18:52:26.109983 23715 net.cpp:148] Top shape: 24 64 112 112 (19267584)
I0403 18:52:26.109998 23715 net.cpp:156] Memory required for data: 168592416
I0403 18:52:26.110013 23715 layer_factory.hpp:77] Creating layer pool1/3x3_s2
I0403 18:52:26.110036 23715 net.cpp:91] Creating Layer pool1/3x3_s2
I0403 18:52:26.110054 23715 net.cpp:425] pool1/3x3_s2 <- conv1/7x7_s2
I0403 18:52:26.110070 23715 net.cpp:399] pool1/3x3_s2 -> pool1/3x3_s2
I0403 18:52:26.110138 23715 net.cpp:141] Setting up pool1/3x3_s2
I0403 18:52:26.110162 23715 net.cpp:148] Top shape: 24 64 56 56 (4816896)
I0403 18:52:26.110177 23715 net.cpp:156] Memory required for data: 187860000
I0403 18:52:26.110190 23715 layer_factory.hpp:77] Creating layer pool1/norm1
I0403 18:52:26.110213 23715 net.cpp:91] Creating Layer pool1/norm1
I0403 18:52:26.110229 23715 net.cpp:425] pool1/norm1 <- pool1/3x3_s2
I0403 18:52:26.110244 23715 net.cpp:399] pool1/norm1 -> pool1/norm1
I0403 18:52:26.110510 23715 net.cpp:141] Setting up pool1/norm1
I0403 18:52:26.110539 23715 net.cpp:148] Top shape: 24 64 56 56 (4816896)
I0403 18:52:26.110556 23715 net.cpp:156] Memory required for data: 207127584
I0403 18:52:26.110570 23715 layer_factory.hpp:77] Creating layer conv2/3x3_reduce
I0403 18:52:26.110594 23715 net.cpp:91] Creating Layer conv2/3x3_reduce
I0403 18:52:26.110610 23715 net.cpp:425] conv2/3x3_reduce <- pool1/norm1
I0403 18:52:26.110627 23715 net.cpp:399] conv2/3x3_reduce -> conv2/3x3_reduce
I0403 18:52:26.111870 23715 net.cpp:141] Setting up conv2/3x3_reduce
I0403 18:52:26.111897 23715 net.cpp:148] Top shape: 24 64 56 56 (4816896)
I0403 18:52:26.111912 23715 net.cpp:156] Memory required for data: 226395168
I0403 18:52:26.111932 23715 layer_factory.hpp:77] Creating layer conv2/relu_3x3_reduce
I0403 18:52:26.111949 23715 net.cpp:91] Creating Layer conv2/relu_3x3_reduce
I0403 18:52:26.111963 23715 net.cpp:425] conv2/relu_3x3_reduce <- conv2/3x3_reduce
I0403 18:52:26.111979 23715 net.cpp:386] conv2/relu_3x3_reduce -> conv2/3x3_reduce (in-place)
I0403 18:52:26.112213 23715 net.cpp:141] Setting up conv2/relu_3x3_reduce
I0403 18:52:26.112238 23715 net.cpp:148] Top shape: 24 64 56 56 (4816896)
I0403 18:52:26.112252 23715 net.cpp:156] Memory required for data: 245662752
I0403 18:52:26.112267 23715 layer_factory.hpp:77] Creating layer conv2/3x3
I0403 18:52:26.112287 23715 net.cpp:91] Creating Layer conv2/3x3
I0403 18:52:26.112303 23715 net.cpp:425] conv2/3x3 <- conv2/3x3_reduce
I0403 18:52:26.112319 23715 net.cpp:399] conv2/3x3 -> conv2/3x3
I0403 18:52:26.114387 23715 net.cpp:141] Setting up conv2/3x3
I0403 18:52:26.114416 23715 net.cpp:148] Top shape: 24 192 56 56 (14450688)
I0403 18:52:26.114431 23715 net.cpp:156] Memory required for data: 303465504
I0403 18:52:26.114451 23715 layer_factory.hpp:77] Creating layer conv2/relu_3x3
I0403 18:52:26.114470 23715 net.cpp:91] Creating Layer conv2/relu_3x3
I0403 18:52:26.114485 23715 net.cpp:425] conv2/relu_3x3 <- conv2/3x3
I0403 18:52:26.114501 23715 net.cpp:386] conv2/relu_3x3 -> conv2/3x3 (in-place)
I0403 18:52:26.114660 23715 net.cpp:141] Setting up conv2/relu_3x3
I0403 18:52:26.114684 23715 net.cpp:148] Top shape: 24 192 56 56 (14450688)
I0403 18:52:26.114737 23715 net.cpp:156] Memory required for data: 361268256
I0403 18:52:26.114753 23715 layer_factory.hpp:77] Creating layer conv2/norm2
I0403 18:52:26.114770 23715 net.cpp:91] Creating Layer conv2/norm2
I0403 18:52:26.114786 23715 net.cpp:425] conv2/norm2 <- conv2/3x3
I0403 18:52:26.114802 23715 net.cpp:399] conv2/norm2 -> conv2/norm2
I0403 18:52:26.115064 23715 net.cpp:141] Setting up conv2/norm2
I0403 18:52:26.115090 23715 net.cpp:148] Top shape: 24 192 56 56 (14450688)
I0403 18:52:26.115105 23715 net.cpp:156] Memory required for data: 419071008
I0403 18:52:26.115119 23715 layer_factory.hpp:77] Creating layer pool2/3x3_s2
I0403 18:52:26.115135 23715 net.cpp:91] Creating Layer pool2/3x3_s2
I0403 18:52:26.115150 23715 net.cpp:425] pool2/3x3_s2 <- conv2/norm2
I0403 18:52:26.115166 23715 net.cpp:399] pool2/3x3_s2 -> pool2/3x3_s2
I0403 18:52:26.115211 23715 net.cpp:141] Setting up pool2/3x3_s2
I0403 18:52:26.115233 23715 net.cpp:148] Top shape: 24 192 28 28 (3612672)
I0403 18:52:26.115247 23715 net.cpp:156] Memory required for data: 433521696
I0403 18:52:26.115262 23715 layer_factory.hpp:77] Creating layer pool2/3x3_s2_pool2/3x3_s2_0_split
I0403 18:52:26.115278 23715 net.cpp:91] Creating Layer pool2/3x3_s2_pool2/3x3_s2_0_split
I0403 18:52:26.115298 23715 net.cpp:425] pool2/3x3_s2_pool2/3x3_s2_0_split <- pool2/3x3_s2
I0403 18:52:26.115314 23715 net.cpp:399] pool2/3x3_s2_pool2/3x3_s2_0_split -> pool2/3x3_s2_pool2/3x3_s2_0_split_0
I0403 18:52:26.115334 23715 net.cpp:399] pool2/3x3_s2_pool2/3x3_s2_0_split -> pool2/3x3_s2_pool2/3x3_s2_0_split_1
I0403 18:52:26.115351 23715 net.cpp:399] pool2/3x3_s2_pool2/3x3_s2_0_split -> pool2/3x3_s2_pool2/3x3_s2_0_split_2
I0403 18:52:26.115370 23715 net.cpp:399] pool2/3x3_s2_pool2/3x3_s2_0_split -> pool2/3x3_s2_pool2/3x3_s2_0_split_3
I0403 18:52:26.115429 23715 net.cpp:141] Setting up pool2/3x3_s2_pool2/3x3_s2_0_split
I0403 18:52:26.115450 23715 net.cpp:148] Top shape: 24 192 28 28 (3612672)
I0403 18:52:26.115465 23715 net.cpp:148] Top shape: 24 192 28 28 (3612672)
I0403 18:52:26.115480 23715 net.cpp:148] Top shape: 24 192 28 28 (3612672)
I0403 18:52:26.115494 23715 net.cpp:148] Top shape: 24 192 28 28 (3612672)
I0403 18:52:26.115507 23715 net.cpp:156] Memory required for data: 491324448
I0403 18:52:26.115520 23715 layer_factory.hpp:77] Creating layer inception_3a/1x1
I0403 18:52:26.115543 23715 net.cpp:91] Creating Layer inception_3a/1x1
I0403 18:52:26.115559 23715 net.cpp:425] inception_3a/1x1 <- pool2/3x3_s2_pool2/3x3_s2_0_split_0
I0403 18:52:26.115587 23715 net.cpp:399] inception_3a/1x1 -> inception_3a/1x1
I0403 18:52:26.116987 23715 net.cpp:141] Setting up inception_3a/1x1
I0403 18:52:26.117014 23715 net.cpp:148] Top shape: 24 64 28 28 (1204224)
I0403 18:52:26.117029 23715 net.cpp:156] Memory required for data: 496141344
I0403 18:52:26.117048 23715 layer_factory.hpp:77] Creating layer inception_3a/relu_1x1
I0403 18:52:26.117066 23715 net.cpp:91] Creating Layer inception_3a/relu_1x1
I0403 18:52:26.117082 23715 net.cpp:425] inception_3a/relu_1x1 <- inception_3a/1x1
I0403 18:52:26.117100 23715 net.cpp:386] inception_3a/relu_1x1 -> inception_3a/1x1 (in-place)
I0403 18:52:26.117259 23715 net.cpp:141] Setting up inception_3a/relu_1x1
I0403 18:52:26.117285 23715 net.cpp:148] Top shape: 24 64 28 28 (1204224)
I0403 18:52:26.117300 23715 net.cpp:156] Memory required for data: 500958240
I0403 18:52:26.117313 23715 layer_factory.hpp:77] Creating layer inception_3a/3x3_reduce
I0403 18:52:26.117336 23715 net.cpp:91] Creating Layer inception_3a/3x3_reduce
I0403 18:52:26.117352 23715 net.cpp:425] inception_3a/3x3_reduce <- pool2/3x3_s2_pool2/3x3_s2_0_split_1
I0403 18:52:26.117369 23715 net.cpp:399] inception_3a/3x3_reduce -> inception_3a/3x3_reduce
I0403 18:52:26.118980 23715 net.cpp:141] Setting up inception_3a/3x3_reduce
I0403 18:52:26.119007 23715 net.cpp:148] Top shape: 24 96 28 28 (1806336)
I0403 18:52:26.119022 23715 net.cpp:156] Memory required for data: 508183584
I0403 18:52:26.119045 23715 layer_factory.hpp:77] Creating layer inception_3a/relu_3x3_reduce
I0403 18:52:26.119078 23715 net.cpp:91] Creating Layer inception_3a/relu_3x3_reduce
I0403 18:52:26.119094 23715 net.cpp:425] inception_3a/relu_3x3_reduce <- inception_3a/3x3_reduce
I0403 18:52:26.119113 23715 net.cpp:386] inception_3a/relu_3x3_reduce -> inception_3a/3x3_reduce (in-place)
I0403 18:52:26.119283 23715 net.cpp:141] Setting up inception_3a/relu_3x3_reduce
I0403 18:52:26.119307 23715 net.cpp:148] Top shape: 24 96 28 28 (1806336)
I0403 18:52:26.119323 23715 net.cpp:156] Memory required for data: 515408928
I0403 18:52:26.119335 23715 layer_factory.hpp:77] Creating layer inception_3a/3x3
I0403 18:52:26.119356 23715 net.cpp:91] Creating Layer inception_3a/3x3
I0403 18:52:26.119372 23715 net.cpp:425] inception_3a/3x3 <- inception_3a/3x3_reduce
I0403 18:52:26.119392 23715 net.cpp:399] inception_3a/3x3 -> inception_3a/3x3
I0403 18:52:26.120944 23715 net.cpp:141] Setting up inception_3a/3x3
I0403 18:52:26.120971 23715 net.cpp:148] Top shape: 24 128 28 28 (2408448)
I0403 18:52:26.120987 23715 net.cpp:156] Memory required for data: 525042720
I0403 18:52:26.121004 23715 layer_factory.hpp:77] Creating layer inception_3a/relu_3x3
I0403 18:52:26.121021 23715 net.cpp:91] Creating Layer inception_3a/relu_3x3
I0403 18:52:26.121037 23715 net.cpp:425] inception_3a/relu_3x3 <- inception_3a/3x3
I0403 18:52:26.121055 23715 net.cpp:386] inception_3a/relu_3x3 -> inception_3a/3x3 (in-place)
I0403 18:52:26.121312 23715 net.cpp:141] Setting up inception_3a/relu_3x3
I0403 18:52:26.121340 23715 net.cpp:148] Top shape: 24 128 28 28 (2408448)
I0403 18:52:26.121356 23715 net.cpp:156] Memory required for data: 534676512
I0403 18:52:26.121368 23715 layer_factory.hpp:77] Creating layer inception_3a/5x5_reduce
I0403 18:52:26.121389 23715 net.cpp:91] Creating Layer inception_3a/5x5_reduce
I0403 18:52:26.121407 23715 net.cpp:425] inception_3a/5x5_reduce <- pool2/3x3_s2_pool2/3x3_s2_0_split_2
I0403 18:52:26.121424 23715 net.cpp:399] inception_3a/5x5_reduce -> inception_3a/5x5_reduce
I0403 18:52:26.122323 23715 net.cpp:141] Setting up inception_3a/5x5_reduce
I0403 18:52:26.122350 23715 net.cpp:148] Top shape: 24 16 28 28 (301056)
I0403 18:52:26.122365 23715 net.cpp:156] Memory required for data: 535880736
I0403 18:52:26.122382 23715 layer_factory.hpp:77] Creating layer inception_3a/relu_5x5_reduce
I0403 18:52:26.122400 23715 net.cpp:91] Creating Layer inception_3a/relu_5x5_reduce
I0403 18:52:26.122416 23715 net.cpp:425] inception_3a/relu_5x5_reduce <- inception_3a/5x5_reduce
I0403 18:52:26.122436 23715 net.cpp:386] inception_3a/relu_5x5_reduce -> inception_3a/5x5_reduce (in-place)
I0403 18:52:26.122715 23715 net.cpp:141] Setting up inception_3a/relu_5x5_reduce
I0403 18:52:26.122740 23715 net.cpp:148] Top shape: 24 16 28 28 (301056)
I0403 18:52:26.122755 23715 net.cpp:156] Memory required for data: 537084960
I0403 18:52:26.122768 23715 layer_factory.hpp:77] Creating layer inception_3a/5x5
I0403 18:52:26.122789 23715 net.cpp:91] Creating Layer inception_3a/5x5
I0403 18:52:26.122805 23715 net.cpp:425] inception_3a/5x5 <- inception_3a/5x5_reduce
I0403 18:52:26.122825 23715 net.cpp:399] inception_3a/5x5 -> inception_3a/5x5
I0403 18:52:26.123764 23715 net.cpp:141] Setting up inception_3a/5x5
I0403 18:52:26.123790 23715 net.cpp:148] Top shape: 24 32 28 28 (602112)
I0403 18:52:26.123805 23715 net.cpp:156] Memory required for data: 539493408
I0403 18:52:26.123821 23715 layer_factory.hpp:77] Creating layer inception_3a/relu_5x5
I0403 18:52:26.123841 23715 net.cpp:91] Creating Layer inception_3a/relu_5x5
I0403 18:52:26.123857 23715 net.cpp:425] inception_3a/relu_5x5 <- inception_3a/5x5
I0403 18:52:26.123873 23715 net.cpp:386] inception_3a/relu_5x5 -> inception_3a/5x5 (in-place)
I0403 18:52:26.124034 23715 net.cpp:141] Setting up inception_3a/relu_5x5
I0403 18:52:26.124058 23715 net.cpp:148] Top shape: 24 32 28 28 (602112)
I0403 18:52:26.124073 23715 net.cpp:156] Memory required for data: 541901856
I0403 18:52:26.124085 23715 layer_factory.hpp:77] Creating layer inception_3a/pool
I0403 18:52:26.124102 23715 net.cpp:91] Creating Layer inception_3a/pool
I0403 18:52:26.124131 23715 net.cpp:425] inception_3a/pool <- pool2/3x3_s2_pool2/3x3_s2_0_split_3
I0403 18:52:26.124151 23715 net.cpp:399] inception_3a/pool -> inception_3a/pool
I0403 18:52:26.124205 23715 net.cpp:141] Setting up inception_3a/pool
I0403 18:52:26.124228 23715 net.cpp:148] Top shape: 24 192 28 28 (3612672)
I0403 18:52:26.124241 23715 net.cpp:156] Memory required for data: 556352544
I0403 18:52:26.124254 23715 layer_factory.hpp:77] Creating layer inception_3a/pool_proj
I0403 18:52:26.124279 23715 net.cpp:91] Creating Layer inception_3a/pool_proj
I0403 18:52:26.124294 23715 net.cpp:425] inception_3a/pool_proj <- inception_3a/pool
I0403 18:52:26.124312 23715 net.cpp:399] inception_3a/pool_proj -> inception_3a/pool_proj
I0403 18:52:26.125216 23715 net.cpp:141] Setting up inception_3a/pool_proj
I0403 18:52:26.125243 23715 net.cpp:148] Top shape: 24 32 28 28 (602112)
I0403 18:52:26.125259 23715 net.cpp:156] Memory required for data: 558760992
I0403 18:52:26.125283 23715 layer_factory.hpp:77] Creating layer inception_3a/relu_pool_proj
I0403 18:52:26.125300 23715 net.cpp:91] Creating Layer inception_3a/relu_pool_proj
I0403 18:52:26.125315 23715 net.cpp:425] inception_3a/relu_pool_proj <- inception_3a/pool_proj
I0403 18:52:26.125334 23715 net.cpp:386] inception_3a/relu_pool_proj -> inception_3a/pool_proj (in-place)
I0403 18:52:26.125614 23715 net.cpp:141] Setting up inception_3a/relu_pool_proj
I0403 18:52:26.125643 23715 net.cpp:148] Top shape: 24 32 28 28 (602112)
I0403 18:52:26.125658 23715 net.cpp:156] Memory required for data: 561169440
I0403 18:52:26.125671 23715 layer_factory.hpp:77] Creating layer inception_3a/output
I0403 18:52:26.125689 23715 net.cpp:91] Creating Layer inception_3a/output
I0403 18:52:26.125705 23715 net.cpp:425] inception_3a/output <- inception_3a/1x1
I0403 18:52:26.125720 23715 net.cpp:425] inception_3a/output <- inception_3a/3x3
I0403 18:52:26.125735 23715 net.cpp:425] inception_3a/output <- inception_3a/5x5
I0403 18:52:26.125751 23715 net.cpp:425] inception_3a/output <- inception_3a/pool_proj
I0403 18:52:26.125767 23715 net.cpp:399] inception_3a/output -> inception_3a/output
I0403 18:52:26.125811 23715 net.cpp:141] Setting up inception_3a/output
I0403 18:52:26.125834 23715 net.cpp:148] Top shape: 24 256 28 28 (4816896)
I0403 18:52:26.125849 23715 net.cpp:156] Memory required for data: 580437024
I0403 18:52:26.125862 23715 layer_factory.hpp:77] Creating layer inception_3a/output_inception_3a/output_0_split
I0403 18:52:26.125880 23715 net.cpp:91] Creating Layer inception_3a/output_inception_3a/output_0_split
I0403 18:52:26.125893 23715 net.cpp:425] inception_3a/output_inception_3a/output_0_split <- inception_3a/output
I0403 18:52:26.125912 23715 net.cpp:399] inception_3a/output_inception_3a/output_0_split -> inception_3a/output_inception_3a/output_0_split_0
I0403 18:52:26.125933 23715 net.cpp:399] inception_3a/output_inception_3a/output_0_split -> inception_3a/output_inception_3a/output_0_split_1
I0403 18:52:26.125957 23715 net.cpp:399] inception_3a/output_inception_3a/output_0_split -> inception_3a/output_inception_3a/output_0_split_2
I0403 18:52:26.125979 23715 net.cpp:399] inception_3a/output_inception_3a/output_0_split -> inception_3a/output_inception_3a/output_0_split_3
I0403 18:52:26.126049 23715 net.cpp:141] Setting up inception_3a/output_inception_3a/output_0_split
I0403 18:52:26.126071 23715 net.cpp:148] Top shape: 24 256 28 28 (4816896)
I0403 18:52:26.126091 23715 net.cpp:148] Top shape: 24 256 28 28 (4816896)
I0403 18:52:26.126106 23715 net.cpp:148] Top shape: 24 256 28 28 (4816896)
I0403 18:52:26.126121 23715 net.cpp:148] Top shape: 24 256 28 28 (4816896)
I0403 18:52:26.126134 23715 net.cpp:156] Memory required for data: 657507360
I0403 18:52:26.126148 23715 layer_factory.hpp:77] Creating layer inception_3b/1x1
I0403 18:52:26.126168 23715 net.cpp:91] Creating Layer inception_3b/1x1
I0403 18:52:26.126183 23715 net.cpp:425] inception_3b/1x1 <- inception_3a/output_inception_3a/output_0_split_0
I0403 18:52:26.126204 23715 net.cpp:399] inception_3b/1x1 -> inception_3b/1x1
I0403 18:52:26.127290 23715 net.cpp:141] Setting up inception_3b/1x1
I0403 18:52:26.127328 23715 net.cpp:148] Top shape: 24 128 28 28 (2408448)
I0403 18:52:26.127343 23715 net.cpp:156] Memory required for data: 667141152
I0403 18:52:26.127362 23715 layer_factory.hpp:77] Creating layer inception_3b/relu_1x1
I0403 18:52:26.127382 23715 net.cpp:91] Creating Layer inception_3b/relu_1x1
I0403 18:52:26.127398 23715 net.cpp:425] inception_3b/relu_1x1 <- inception_3b/1x1
I0403 18:52:26.127414 23715 net.cpp:386] inception_3b/relu_1x1 -> inception_3b/1x1 (in-place)
I0403 18:52:26.127588 23715 net.cpp:141] Setting up inception_3b/relu_1x1
I0403 18:52:26.127614 23715 net.cpp:148] Top shape: 24 128 28 28 (2408448)
I0403 18:52:26.127629 23715 net.cpp:156] Memory required for data: 676774944
I0403 18:52:26.127643 23715 layer_factory.hpp:77] Creating layer inception_3b/3x3_reduce
I0403 18:52:26.127665 23715 net.cpp:91] Creating Layer inception_3b/3x3_reduce
I0403 18:52:26.127681 23715 net.cpp:425] inception_3b/3x3_reduce <- inception_3a/output_inception_3a/output_0_split_1
I0403 18:52:26.127699 23715 net.cpp:399] inception_3b/3x3_reduce -> inception_3b/3x3_reduce
I0403 18:52:26.128783 23715 net.cpp:141] Setting up inception_3b/3x3_reduce
I0403 18:52:26.128811 23715 net.cpp:148] Top shape: 24 128 28 28 (2408448)
I0403 18:52:26.128826 23715 net.cpp:156] Memory required for data: 686408736
I0403 18:52:26.128844 23715 layer_factory.hpp:77] Creating layer inception_3b/relu_3x3_reduce
I0403 18:52:26.128864 23715 net.cpp:91] Creating Layer inception_3b/relu_3x3_reduce
I0403 18:52:26.128880 23715 net.cpp:425] inception_3b/relu_3x3_reduce <- inception_3b/3x3_reduce
I0403 18:52:26.128897 23715 net.cpp:386] inception_3b/relu_3x3_reduce -> inception_3b/3x3_reduce (in-place)
I0403 18:52:26.129065 23715 net.cpp:141] Setting up inception_3b/relu_3x3_reduce
I0403 18:52:26.129091 23715 net.cpp:148] Top shape: 24 128 28 28 (2408448)
I0403 18:52:26.129106 23715 net.cpp:156] Memory required for data: 696042528
I0403 18:52:26.129119 23715 layer_factory.hpp:77] Creating layer inception_3b/3x3
I0403 18:52:26.129143 23715 net.cpp:91] Creating Layer inception_3b/3x3
I0403 18:52:26.129160 23715 net.cpp:425] inception_3b/3x3 <- inception_3b/3x3_reduce
I0403 18:52:26.129180 23715 net.cpp:399] inception_3b/3x3 -> inception_3b/3x3
I0403 18:52:26.131974 23715 net.cpp:141] Setting up inception_3b/3x3
I0403 18:52:26.132004 23715 net.cpp:148] Top shape: 24 192 28 28 (3612672)
I0403 18:52:26.132020 23715 net.cpp:156] Memory required for data: 710493216
I0403 18:52:26.132038 23715 layer_factory.hpp:77] Creating layer inception_3b/relu_3x3
I0403 18:52:26.132055 23715 net.cpp:91] Creating Layer inception_3b/relu_3x3
I0403 18:52:26.132071 23715 net.cpp:425] inception_3b/relu_3x3 <- inception_3b/3x3
I0403 18:52:26.132089 23715 net.cpp:386] inception_3b/relu_3x3 -> inception_3b/3x3 (in-place)
I0403 18:52:26.132357 23715 net.cpp:141] Setting up inception_3b/relu_3x3
I0403 18:52:26.132386 23715 net.cpp:148] Top shape: 24 192 28 28 (3612672)
I0403 18:52:26.132402 23715 net.cpp:156] Memory required for data: 724943904
I0403 18:52:26.132416 23715 layer_factory.hpp:77] Creating layer inception_3b/5x5_reduce
I0403 18:52:26.132438 23715 net.cpp:91] Creating Layer inception_3b/5x5_reduce
I0403 18:52:26.132457 23715 net.cpp:425] inception_3b/5x5_reduce <- inception_3a/output_inception_3a/output_0_split_2
I0403 18:52:26.132474 23715 net.cpp:399] inception_3b/5x5_reduce -> inception_3b/5x5_reduce
I0403 18:52:26.133431 23715 net.cpp:141] Setting up inception_3b/5x5_reduce
I0403 18:52:26.133457 23715 net.cpp:148] Top shape: 24 32 28 28 (602112)
I0403 18:52:26.133472 23715 net.cpp:156] Memory required for data: 727352352
I0403 18:52:26.133491 23715 layer_factory.hpp:77] Creating layer inception_3b/relu_5x5_reduce
I0403 18:52:26.133509 23715 net.cpp:91] Creating Layer inception_3b/relu_5x5_reduce
I0403 18:52:26.133527 23715 net.cpp:425] inception_3b/relu_5x5_reduce <- inception_3b/5x5_reduce
I0403 18:52:26.133548 23715 net.cpp:386] inception_3b/relu_5x5_reduce -> inception_3b/5x5_reduce (in-place)
I0403 18:52:26.133733 23715 net.cpp:141] Setting up inception_3b/relu_5x5_reduce
I0403 18:52:26.133757 23715 net.cpp:148] Top shape: 24 32 28 28 (602112)
I0403 18:52:26.133771 23715 net.cpp:156] Memory required for data: 729760800
I0403 18:52:26.133785 23715 layer_factory.hpp:77] Creating layer inception_3b/5x5
I0403 18:52:26.133807 23715 net.cpp:91] Creating Layer inception_3b/5x5
I0403 18:52:26.133824 23715 net.cpp:425] inception_3b/5x5 <- inception_3b/5x5_reduce
I0403 18:52:26.133846 23715 net.cpp:399] inception_3b/5x5 -> inception_3b/5x5
I0403 18:52:26.135790 23715 net.cpp:141] Setting up inception_3b/5x5
I0403 18:52:26.135818 23715 net.cpp:148] Top shape: 24 96 28 28 (1806336)
I0403 18:52:26.135834 23715 net.cpp:156] Memory required for data: 736986144
I0403 18:52:26.135851 23715 layer_factory.hpp:77] Creating layer inception_3b/relu_5x5
I0403 18:52:26.135871 23715 net.cpp:91] Creating Layer inception_3b/relu_5x5
I0403 18:52:26.135887 23715 net.cpp:425] inception_3b/relu_5x5 <- inception_3b/5x5
I0403 18:52:26.135905 23715 net.cpp:386] inception_3b/relu_5x5 -> inception_3b/5x5 (in-place)
I0403 18:52:26.136090 23715 net.cpp:141] Setting up inception_3b/relu_5x5
I0403 18:52:26.136114 23715 net.cpp:148] Top shape: 24 96 28 28 (1806336)
I0403 18:52:26.136129 23715 net.cpp:156] Memory required for data: 744211488
I0403 18:52:26.136143 23715 layer_factory.hpp:77] Creating layer inception_3b/pool
I0403 18:52:26.136162 23715 net.cpp:91] Creating Layer inception_3b/pool
I0403 18:52:26.136176 23715 net.cpp:425] inception_3b/pool <- inception_3a/output_inception_3a/output_0_split_3
I0403 18:52:26.136193 23715 net.cpp:399] inception_3b/pool -> inception_3b/pool
I0403 18:52:26.136246 23715 net.cpp:141] Setting up inception_3b/pool
I0403 18:52:26.136270 23715 net.cpp:148] Top shape: 24 256 28 28 (4816896)
I0403 18:52:26.136284 23715 net.cpp:156] Memory required for data: 763479072
I0403 18:52:26.136298 23715 layer_factory.hpp:77] Creating layer inception_3b/pool_proj
I0403 18:52:26.136319 23715 net.cpp:91] Creating Layer inception_3b/pool_proj
I0403 18:52:26.136337 23715 net.cpp:425] inception_3b/pool_proj <- inception_3b/pool
I0403 18:52:26.136356 23715 net.cpp:399] inception_3b/pool_proj -> inception_3b/pool_proj
I0403 18:52:26.137365 23715 net.cpp:141] Setting up inception_3b/pool_proj
I0403 18:52:26.137392 23715 net.cpp:148] Top shape: 24 64 28 28 (1204224)
I0403 18:52:26.137408 23715 net.cpp:156] Memory required for data: 768295968
I0403 18:52:26.137425 23715 layer_factory.hpp:77] Creating layer inception_3b/relu_pool_proj
I0403 18:52:26.137442 23715 net.cpp:91] Creating Layer inception_3b/relu_pool_proj
I0403 18:52:26.137459 23715 net.cpp:425] inception_3b/relu_pool_proj <- inception_3b/pool_proj
I0403 18:52:26.137477 23715 net.cpp:386] inception_3b/relu_pool_proj -> inception_3b/pool_proj (in-place)
I0403 18:52:26.137861 23715 net.cpp:141] Setting up inception_3b/relu_pool_proj
I0403 18:52:26.137888 23715 net.cpp:148] Top shape: 24 64 28 28 (1204224)
I0403 18:52:26.137904 23715 net.cpp:156] Memory required for data: 773112864
I0403 18:52:26.137918 23715 layer_factory.hpp:77] Creating layer inception_3b/output
I0403 18:52:26.137935 23715 net.cpp:91] Creating Layer inception_3b/output
I0403 18:52:26.137950 23715 net.cpp:425] inception_3b/output <- inception_3b/1x1
I0403 18:52:26.137966 23715 net.cpp:425] inception_3b/output <- inception_3b/3x3
I0403 18:52:26.137982 23715 net.cpp:425] inception_3b/output <- inception_3b/5x5
I0403 18:52:26.137997 23715 net.cpp:425] inception_3b/output <- inception_3b/pool_proj
I0403 18:52:26.138015 23715 net.cpp:399] inception_3b/output -> inception_3b/output
I0403 18:52:26.138056 23715 net.cpp:141] Setting up inception_3b/output
I0403 18:52:26.138079 23715 net.cpp:148] Top shape: 24 480 28 28 (9031680)
I0403 18:52:26.138093 23715 net.cpp:156] Memory required for data: 809239584
I0403 18:52:26.138108 23715 layer_factory.hpp:77] Creating layer pool3/3x3_s2
I0403 18:52:26.138128 23715 net.cpp:91] Creating Layer pool3/3x3_s2
I0403 18:52:26.138144 23715 net.cpp:425] pool3/3x3_s2 <- inception_3b/output
I0403 18:52:26.138177 23715 net.cpp:399] pool3/3x3_s2 -> pool3/3x3_s2
I0403 18:52:26.138236 23715 net.cpp:141] Setting up pool3/3x3_s2
I0403 18:52:26.138257 23715 net.cpp:148] Top shape: 24 480 14 14 (2257920)
I0403 18:52:26.138272 23715 net.cpp:156] Memory required for data: 818271264
I0403 18:52:26.138286 23715 layer_factory.hpp:77] Creating layer pool3/3x3_s2_pool3/3x3_s2_0_split
I0403 18:52:26.138303 23715 net.cpp:91] Creating Layer pool3/3x3_s2_pool3/3x3_s2_0_split
I0403 18:52:26.138316 23715 net.cpp:425] pool3/3x3_s2_pool3/3x3_s2_0_split <- pool3/3x3_s2
I0403 18:52:26.138334 23715 net.cpp:399] pool3/3x3_s2_pool3/3x3_s2_0_split -> pool3/3x3_s2_pool3/3x3_s2_0_split_0
I0403 18:52:26.138355 23715 net.cpp:399] pool3/3x3_s2_pool3/3x3_s2_0_split -> pool3/3x3_s2_pool3/3x3_s2_0_split_1
I0403 18:52:26.138373 23715 net.cpp:399] pool3/3x3_s2_pool3/3x3_s2_0_split -> pool3/3x3_s2_pool3/3x3_s2_0_split_2
I0403 18:52:26.138392 23715 net.cpp:399] pool3/3x3_s2_pool3/3x3_s2_0_split -> pool3/3x3_s2_pool3/3x3_s2_0_split_3
I0403 18:52:26.138469 23715 net.cpp:141] Setting up pool3/3x3_s2_pool3/3x3_s2_0_split
I0403 18:52:26.138492 23715 net.cpp:148] Top shape: 24 480 14 14 (2257920)
I0403 18:52:26.138507 23715 net.cpp:148] Top shape: 24 480 14 14 (2257920)
I0403 18:52:26.138522 23715 net.cpp:148] Top shape: 24 480 14 14 (2257920)
I0403 18:52:26.138540 23715 net.cpp:148] Top shape: 24 480 14 14 (2257920)
I0403 18:52:26.138556 23715 net.cpp:156] Memory required for data: 854397984
I0403 18:52:26.138568 23715 layer_factory.hpp:77] Creating layer inception_4a/1x1
I0403 18:52:26.138591 23715 net.cpp:91] Creating Layer inception_4a/1x1
I0403 18:52:26.138607 23715 net.cpp:425] inception_4a/1x1 <- pool3/3x3_s2_pool3/3x3_s2_0_split_0
I0403 18:52:26.138628 23715 net.cpp:399] inception_4a/1x1 -> inception_4a/1x1
I0403 18:52:26.140123 23715 net.cpp:141] Setting up inception_4a/1x1
I0403 18:52:26.140151 23715 net.cpp:148] Top shape: 24 192 14 14 (903168)
I0403 18:52:26.140166 23715 net.cpp:156] Memory required for data: 858010656
I0403 18:52:26.140182 23715 layer_factory.hpp:77] Creating layer inception_4a/relu_1x1
I0403 18:52:26.140199 23715 net.cpp:91] Creating Layer inception_4a/relu_1x1
I0403 18:52:26.140215 23715 net.cpp:425] inception_4a/relu_1x1 <- inception_4a/1x1
I0403 18:52:26.140233 23715 net.cpp:386] inception_4a/relu_1x1 -> inception_4a/1x1 (in-place)
I0403 18:52:26.140403 23715 net.cpp:141] Setting up inception_4a/relu_1x1
I0403 18:52:26.140427 23715 net.cpp:148] Top shape: 24 192 14 14 (903168)
I0403 18:52:26.140441 23715 net.cpp:156] Memory required for data: 861623328
I0403 18:52:26.140455 23715 layer_factory.hpp:77] Creating layer inception_4a/3x3_reduce
I0403 18:52:26.140477 23715 net.cpp:91] Creating Layer inception_4a/3x3_reduce
I0403 18:52:26.140493 23715 net.cpp:425] inception_4a/3x3_reduce <- pool3/3x3_s2_pool3/3x3_s2_0_split_1
I0403 18:52:26.140514 23715 net.cpp:399] inception_4a/3x3_reduce -> inception_4a/3x3_reduce
I0403 18:52:26.141738 23715 net.cpp:141] Setting up inception_4a/3x3_reduce
I0403 18:52:26.141765 23715 net.cpp:148] Top shape: 24 96 14 14 (451584)
I0403 18:52:26.141780 23715 net.cpp:156] Memory required for data: 863429664
I0403 18:52:26.141804 23715 layer_factory.hpp:77] Creating layer inception_4a/relu_3x3_reduce
I0403 18:52:26.141824 23715 net.cpp:91] Creating Layer inception_4a/relu_3x3_reduce
I0403 18:52:26.141839 23715 net.cpp:425] inception_4a/relu_3x3_reduce <- inception_4a/3x3_reduce
I0403 18:52:26.141858 23715 net.cpp:386] inception_4a/relu_3x3_reduce -> inception_4a/3x3_reduce (in-place)
I0403 18:52:26.142026 23715 net.cpp:141] Setting up inception_4a/relu_3x3_reduce
I0403 18:52:26.142050 23715 net.cpp:148] Top shape: 24 96 14 14 (451584)
I0403 18:52:26.142065 23715 net.cpp:156] Memory required for data: 865236000
I0403 18:52:26.142077 23715 layer_factory.hpp:77] Creating layer inception_4a/3x3
I0403 18:52:26.142099 23715 net.cpp:91] Creating Layer inception_4a/3x3
I0403 18:52:26.142117 23715 net.cpp:425] inception_4a/3x3 <- inception_4a/3x3_reduce
I0403 18:52:26.142138 23715 net.cpp:399] inception_4a/3x3 -> inception_4a/3x3
I0403 18:52:26.144778 23715 net.cpp:141] Setting up inception_4a/3x3
I0403 18:52:26.144805 23715 net.cpp:148] Top shape: 24 208 14 14 (978432)
I0403 18:52:26.144820 23715 net.cpp:156] Memory required for data: 869149728
I0403 18:52:26.144837 23715 layer_factory.hpp:77] Creating layer inception_4a/relu_3x3
I0403 18:52:26.144857 23715 net.cpp:91] Creating Layer inception_4a/relu_3x3
I0403 18:52:26.144873 23715 net.cpp:425] inception_4a/relu_3x3 <- inception_4a/3x3
I0403 18:52:26.144891 23715 net.cpp:386] inception_4a/relu_3x3 -> inception_4a/3x3 (in-place)
I0403 18:52:26.145148 23715 net.cpp:141] Setting up inception_4a/relu_3x3
I0403 18:52:26.145174 23715 net.cpp:148] Top shape: 24 208 14 14 (978432)
I0403 18:52:26.145189 23715 net.cpp:156] Memory required for data: 873063456
I0403 18:52:26.145202 23715 layer_factory.hpp:77] Creating layer inception_4a/5x5_reduce
I0403 18:52:26.145223 23715 net.cpp:91] Creating Layer inception_4a/5x5_reduce
I0403 18:52:26.145241 23715 net.cpp:425] inception_4a/5x5_reduce <- pool3/3x3_s2_pool3/3x3_s2_0_split_2
I0403 18:52:26.145262 23715 net.cpp:399] inception_4a/5x5_reduce -> inception_4a/5x5_reduce
I0403 18:52:26.146216 23715 net.cpp:141] Setting up inception_4a/5x5_reduce
I0403 18:52:26.146242 23715 net.cpp:148] Top shape: 24 16 14 14 (75264)
I0403 18:52:26.146256 23715 net.cpp:156] Memory required for data: 873364512
I0403 18:52:26.146273 23715 layer_factory.hpp:77] Creating layer inception_4a/relu_5x5_reduce
I0403 18:52:26.146293 23715 net.cpp:91] Creating Layer inception_4a/relu_5x5_reduce
I0403 18:52:26.146309 23715 net.cpp:425] inception_4a/relu_5x5_reduce <- inception_4a/5x5_reduce
I0403 18:52:26.146325 23715 net.cpp:386] inception_4a/relu_5x5_reduce -> inception_4a/5x5_reduce (in-place)
I0403 18:52:26.146497 23715 net.cpp:141] Setting up inception_4a/relu_5x5_reduce
I0403 18:52:26.146520 23715 net.cpp:148] Top shape: 24 16 14 14 (75264)
I0403 18:52:26.146534 23715 net.cpp:156] Memory required for data: 873665568
I0403 18:52:26.146553 23715 layer_factory.hpp:77] Creating layer inception_4a/5x5
I0403 18:52:26.146575 23715 net.cpp:91] Creating Layer inception_4a/5x5
I0403 18:52:26.146591 23715 net.cpp:425] inception_4a/5x5 <- inception_4a/5x5_reduce
I0403 18:52:26.146611 23715 net.cpp:399] inception_4a/5x5 -> inception_4a/5x5
I0403 18:52:26.147635 23715 net.cpp:141] Setting up inception_4a/5x5
I0403 18:52:26.147663 23715 net.cpp:148] Top shape: 24 48 14 14 (225792)
I0403 18:52:26.147678 23715 net.cpp:156] Memory required for data: 874568736
I0403 18:52:26.147696 23715 layer_factory.hpp:77] Creating layer inception_4a/relu_5x5
I0403 18:52:26.147713 23715 net.cpp:91] Creating Layer inception_4a/relu_5x5
I0403 18:52:26.147728 23715 net.cpp:425] inception_4a/relu_5x5 <- inception_4a/5x5
I0403 18:52:26.147747 23715 net.cpp:386] inception_4a/relu_5x5 -> inception_4a/5x5 (in-place)
I0403 18:52:26.147914 23715 net.cpp:141] Setting up inception_4a/relu_5x5
I0403 18:52:26.147938 23715 net.cpp:148] Top shape: 24 48 14 14 (225792)
I0403 18:52:26.147951 23715 net.cpp:156] Memory required for data: 875471904
I0403 18:52:26.147965 23715 layer_factory.hpp:77] Creating layer inception_4a/pool
I0403 18:52:26.147982 23715 net.cpp:91] Creating Layer inception_4a/pool
I0403 18:52:26.147996 23715 net.cpp:425] inception_4a/pool <- pool3/3x3_s2_pool3/3x3_s2_0_split_3
I0403 18:52:26.148015 23715 net.cpp:399] inception_4a/pool -> inception_4a/pool
I0403 18:52:26.148075 23715 net.cpp:141] Setting up inception_4a/pool
I0403 18:52:26.148098 23715 net.cpp:148] Top shape: 24 480 14 14 (2257920)
I0403 18:52:26.148113 23715 net.cpp:156] Memory required for data: 884503584
I0403 18:52:26.148126 23715 layer_factory.hpp:77] Creating layer inception_4a/pool_proj
I0403 18:52:26.148146 23715 net.cpp:91] Creating Layer inception_4a/pool_proj
I0403 18:52:26.148164 23715 net.cpp:425] inception_4a/pool_proj <- inception_4a/pool
I0403 18:52:26.148182 23715 net.cpp:399] inception_4a/pool_proj -> inception_4a/pool_proj
I0403 18:52:26.149293 23715 net.cpp:141] Setting up inception_4a/pool_proj
I0403 18:52:26.149320 23715 net.cpp:148] Top shape: 24 64 14 14 (301056)
I0403 18:52:26.149351 23715 net.cpp:156] Memory required for data: 885707808
I0403 18:52:26.149371 23715 layer_factory.hpp:77] Creating layer inception_4a/relu_pool_proj
I0403 18:52:26.149391 23715 net.cpp:91] Creating Layer inception_4a/relu_pool_proj
I0403 18:52:26.149407 23715 net.cpp:425] inception_4a/relu_pool_proj <- inception_4a/pool_proj
I0403 18:52:26.149425 23715 net.cpp:386] inception_4a/relu_pool_proj -> inception_4a/pool_proj (in-place)
I0403 18:52:26.149713 23715 net.cpp:141] Setting up inception_4a/relu_pool_proj
I0403 18:52:26.149739 23715 net.cpp:148] Top shape: 24 64 14 14 (301056)
I0403 18:52:26.149752 23715 net.cpp:156] Memory required for data: 886912032
I0403 18:52:26.149766 23715 layer_factory.hpp:77] Creating layer inception_4a/output
I0403 18:52:26.149782 23715 net.cpp:91] Creating Layer inception_4a/output
I0403 18:52:26.149797 23715 net.cpp:425] inception_4a/output <- inception_4a/1x1
I0403 18:52:26.149813 23715 net.cpp:425] inception_4a/output <- inception_4a/3x3
I0403 18:52:26.149828 23715 net.cpp:425] inception_4a/output <- inception_4a/5x5
I0403 18:52:26.149842 23715 net.cpp:425] inception_4a/output <- inception_4a/pool_proj
I0403 18:52:26.149862 23715 net.cpp:399] inception_4a/output -> inception_4a/output
I0403 18:52:26.149904 23715 net.cpp:141] Setting up inception_4a/output
I0403 18:52:26.149927 23715 net.cpp:148] Top shape: 24 512 14 14 (2408448)
I0403 18:52:26.149942 23715 net.cpp:156] Memory required for data: 896545824
I0403 18:52:26.149956 23715 layer_factory.hpp:77] Creating layer inception_4a/output_inception_4a/output_0_split
I0403 18:52:26.149973 23715 net.cpp:91] Creating Layer inception_4a/output_inception_4a/output_0_split
I0403 18:52:26.149988 23715 net.cpp:425] inception_4a/output_inception_4a/output_0_split <- inception_4a/output
I0403 18:52:26.150007 23715 net.cpp:399] inception_4a/output_inception_4a/output_0_split -> inception_4a/output_inception_4a/output_0_split_0
I0403 18:52:26.150027 23715 net.cpp:399] inception_4a/output_inception_4a/output_0_split -> inception_4a/output_inception_4a/output_0_split_1
I0403 18:52:26.150046 23715 net.cpp:399] inception_4a/output_inception_4a/output_0_split -> inception_4a/output_inception_4a/output_0_split_2
I0403 18:52:26.150065 23715 net.cpp:399] inception_4a/output_inception_4a/output_0_split -> inception_4a/output_inception_4a/output_0_split_3
I0403 18:52:26.150084 23715 net.cpp:399] inception_4a/output_inception_4a/output_0_split -> inception_4a/output_inception_4a/output_0_split_4
I0403 18:52:26.150171 23715 net.cpp:141] Setting up inception_4a/output_inception_4a/output_0_split
I0403 18:52:26.150192 23715 net.cpp:148] Top shape: 24 512 14 14 (2408448)
I0403 18:52:26.150207 23715 net.cpp:148] Top shape: 24 512 14 14 (2408448)
I0403 18:52:26.150223 23715 net.cpp:148] Top shape: 24 512 14 14 (2408448)
I0403 18:52:26.150238 23715 net.cpp:148] Top shape: 24 512 14 14 (2408448)
I0403 18:52:26.150251 23715 net.cpp:148] Top shape: 24 512 14 14 (2408448)
I0403 18:52:26.150266 23715 net.cpp:156] Memory required for data: 944714784
I0403 18:52:26.150279 23715 layer_factory.hpp:77] Creating layer loss1/ave_pool
I0403 18:52:26.150298 23715 net.cpp:91] Creating Layer loss1/ave_pool
I0403 18:52:26.150315 23715 net.cpp:425] loss1/ave_pool <- inception_4a/output_inception_4a/output_0_split_0
I0403 18:52:26.150331 23715 net.cpp:399] loss1/ave_pool -> loss1/ave_pool
I0403 18:52:26.150523 23715 net.cpp:141] Setting up loss1/ave_pool
I0403 18:52:26.150552 23715 net.cpp:148] Top shape: 24 512 4 4 (196608)
I0403 18:52:26.150568 23715 net.cpp:156] Memory required for data: 945501216
I0403 18:52:26.150580 23715 layer_factory.hpp:77] Creating layer loss1/conv
I0403 18:52:26.150601 23715 net.cpp:91] Creating Layer loss1/conv
I0403 18:52:26.150619 23715 net.cpp:425] loss1/conv <- loss1/ave_pool
I0403 18:52:26.150637 23715 net.cpp:399] loss1/conv -> loss1/conv
I0403 18:52:26.151950 23715 net.cpp:141] Setting up loss1/conv
I0403 18:52:26.151976 23715 net.cpp:148] Top shape: 24 128 4 4 (49152)
I0403 18:52:26.152004 23715 net.cpp:156] Memory required for data: 945697824
I0403 18:52:26.152024 23715 layer_factory.hpp:77] Creating layer loss1/relu_conv
I0403 18:52:26.152043 23715 net.cpp:91] Creating Layer loss1/relu_conv
I0403 18:52:26.152060 23715 net.cpp:425] loss1/relu_conv <- loss1/conv
I0403 18:52:26.152076 23715 net.cpp:386] loss1/relu_conv -> loss1/conv (in-place)
I0403 18:52:26.152339 23715 net.cpp:141] Setting up loss1/relu_conv
I0403 18:52:26.152364 23715 net.cpp:148] Top shape: 24 128 4 4 (49152)
I0403 18:52:26.152379 23715 net.cpp:156] Memory required for data: 945894432
I0403 18:52:26.152392 23715 layer_factory.hpp:77] Creating layer loss1/fc
I0403 18:52:26.152420 23715 net.cpp:91] Creating Layer loss1/fc
I0403 18:52:26.152437 23715 net.cpp:425] loss1/fc <- loss1/conv
I0403 18:52:26.152456 23715 net.cpp:399] loss1/fc -> loss1/fc
I0403 18:52:26.169224 23715 net.cpp:141] Setting up loss1/fc
I0403 18:52:26.169255 23715 net.cpp:148] Top shape: 24 1024 (24576)
I0403 18:52:26.169270 23715 net.cpp:156] Memory required for data: 945992736
I0403 18:52:26.169287 23715 layer_factory.hpp:77] Creating layer loss1/relu_fc
I0403 18:52:26.169306 23715 net.cpp:91] Creating Layer loss1/relu_fc
I0403 18:52:26.169320 23715 net.cpp:425] loss1/relu_fc <- loss1/fc
I0403 18:52:26.169338 23715 net.cpp:386] loss1/relu_fc -> loss1/fc (in-place)
I0403 18:52:26.169512 23715 net.cpp:141] Setting up loss1/relu_fc
I0403 18:52:26.169534 23715 net.cpp:148] Top shape: 24 1024 (24576)
I0403 18:52:26.169553 23715 net.cpp:156] Memory required for data: 946091040
I0403 18:52:26.169569 23715 layer_factory.hpp:77] Creating layer loss1/drop_fc
I0403 18:52:26.169594 23715 net.cpp:91] Creating Layer loss1/drop_fc
I0403 18:52:26.169610 23715 net.cpp:425] loss1/drop_fc <- loss1/fc
I0403 18:52:26.169627 23715 net.cpp:386] loss1/drop_fc -> loss1/fc (in-place)
I0403 18:52:26.169677 23715 net.cpp:141] Setting up loss1/drop_fc
I0403 18:52:26.169698 23715 net.cpp:148] Top shape: 24 1024 (24576)
I0403 18:52:26.169711 23715 net.cpp:156] Memory required for data: 946189344
I0403 18:52:26.169725 23715 layer_factory.hpp:77] Creating layer loss1/classifier_plantvillage
I0403 18:52:26.169744 23715 net.cpp:91] Creating Layer loss1/classifier_plantvillage
I0403 18:52:26.169757 23715 net.cpp:425] loss1/classifier_plantvillage <- loss1/fc
I0403 18:52:26.169777 23715 net.cpp:399] loss1/classifier_plantvillage -> loss1/classifier_plantvillage
I0403 18:52:26.170677 23715 net.cpp:141] Setting up loss1/classifier_plantvillage
I0403 18:52:26.170706 23715 net.cpp:148] Top shape: 24 38 (912)
I0403 18:52:26.170722 23715 net.cpp:156] Memory required for data: 946192992
I0403 18:52:26.170742 23715 layer_factory.hpp:77] Creating layer loss1/classifier_plantvillage_loss1/classifier_plantvillage_0_split
I0403 18:52:26.170765 23715 net.cpp:91] Creating Layer loss1/classifier_plantvillage_loss1/classifier_plantvillage_0_split
I0403 18:52:26.170783 23715 net.cpp:425] loss1/classifier_plantvillage_loss1/classifier_plantvillage_0_split <- loss1/classifier_plantvillage
I0403 18:52:26.170801 23715 net.cpp:399] loss1/classifier_plantvillage_loss1/classifier_plantvillage_0_split -> loss1/classifier_plantvillage_loss1/classifier_plantvillage_0_split_0
I0403 18:52:26.170822 23715 net.cpp:399] loss1/classifier_plantvillage_loss1/classifier_plantvillage_0_split -> loss1/classifier_plantvillage_loss1/classifier_plantvillage_0_split_1
I0403 18:52:26.170843 23715 net.cpp:399] loss1/classifier_plantvillage_loss1/classifier_plantvillage_0_split -> loss1/classifier_plantvillage_loss1/classifier_plantvillage_0_split_2
I0403 18:52:26.170924 23715 net.cpp:141] Setting up loss1/classifier_plantvillage_loss1/classifier_plantvillage_0_split
I0403 18:52:26.170946 23715 net.cpp:148] Top shape: 24 38 (912)
I0403 18:52:26.170963 23715 net.cpp:148] Top shape: 24 38 (912)
I0403 18:52:26.170976 23715 net.cpp:148] Top shape: 24 38 (912)
I0403 18:52:26.170989 23715 net.cpp:156] Memory required for data: 946203936
I0403 18:52:26.171003 23715 layer_factory.hpp:77] Creating layer inception_4b/1x1
I0403 18:52:26.171025 23715 net.cpp:91] Creating Layer inception_4b/1x1
I0403 18:52:26.171058 23715 net.cpp:425] inception_4b/1x1 <- inception_4a/output_inception_4a/output_0_split_1
I0403 18:52:26.171078 23715 net.cpp:399] inception_4b/1x1 -> inception_4b/1x1
I0403 18:52:26.172660 23715 net.cpp:141] Setting up inception_4b/1x1
I0403 18:52:26.172688 23715 net.cpp:148] Top shape: 24 160 14 14 (752640)
I0403 18:52:26.172703 23715 net.cpp:156] Memory required for data: 949214496
I0403 18:52:26.172721 23715 layer_factory.hpp:77] Creating layer inception_4b/relu_1x1
I0403 18:52:26.172740 23715 net.cpp:91] Creating Layer inception_4b/relu_1x1
I0403 18:52:26.172756 23715 net.cpp:425] inception_4b/relu_1x1 <- inception_4b/1x1
I0403 18:52:26.172773 23715 net.cpp:386] inception_4b/relu_1x1 -> inception_4b/1x1 (in-place)
I0403 18:52:26.172946 23715 net.cpp:141] Setting up inception_4b/relu_1x1
I0403 18:52:26.172972 23715 net.cpp:148] Top shape: 24 160 14 14 (752640)
I0403 18:52:26.172987 23715 net.cpp:156] Memory required for data: 952225056
I0403 18:52:26.173002 23715 layer_factory.hpp:77] Creating layer inception_4b/3x3_reduce
I0403 18:52:26.173025 23715 net.cpp:91] Creating Layer inception_4b/3x3_reduce
I0403 18:52:26.173043 23715 net.cpp:425] inception_4b/3x3_reduce <- inception_4a/output_inception_4a/output_0_split_2
I0403 18:52:26.173063 23715 net.cpp:399] inception_4b/3x3_reduce -> inception_4b/3x3_reduce
I0403 18:52:26.174392 23715 net.cpp:141] Setting up inception_4b/3x3_reduce
I0403 18:52:26.174434 23715 net.cpp:148] Top shape: 24 112 14 14 (526848)
I0403 18:52:26.174450 23715 net.cpp:156] Memory required for data: 954332448
I0403 18:52:26.174468 23715 layer_factory.hpp:77] Creating layer inception_4b/relu_3x3_reduce
I0403 18:52:26.174485 23715 net.cpp:91] Creating Layer inception_4b/relu_3x3_reduce
I0403 18:52:26.174501 23715 net.cpp:425] inception_4b/relu_3x3_reduce <- inception_4b/3x3_reduce
I0403 18:52:26.174520 23715 net.cpp:386] inception_4b/relu_3x3_reduce -> inception_4b/3x3_reduce (in-place)
I0403 18:52:26.174803 23715 net.cpp:141] Setting up inception_4b/relu_3x3_reduce
I0403 18:52:26.174830 23715 net.cpp:148] Top shape: 24 112 14 14 (526848)
I0403 18:52:26.174846 23715 net.cpp:156] Memory required for data: 956439840
I0403 18:52:26.174860 23715 layer_factory.hpp:77] Creating layer inception_4b/3x3
I0403 18:52:26.174881 23715 net.cpp:91] Creating Layer inception_4b/3x3
I0403 18:52:26.174898 23715 net.cpp:425] inception_4b/3x3 <- inception_4b/3x3_reduce
I0403 18:52:26.174917 23715 net.cpp:399] inception_4b/3x3 -> inception_4b/3x3
I0403 18:52:26.177814 23715 net.cpp:141] Setting up inception_4b/3x3
I0403 18:52:26.177844 23715 net.cpp:148] Top shape: 24 224 14 14 (1053696)
I0403 18:52:26.177857 23715 net.cpp:156] Memory required for data: 960654624
I0403 18:52:26.177875 23715 layer_factory.hpp:77] Creating layer inception_4b/relu_3x3
I0403 18:52:26.177892 23715 net.cpp:91] Creating Layer inception_4b/relu_3x3
I0403 18:52:26.177908 23715 net.cpp:425] inception_4b/relu_3x3 <- inception_4b/3x3
I0403 18:52:26.177928 23715 net.cpp:386] inception_4b/relu_3x3 -> inception_4b/3x3 (in-place)
I0403 18:52:26.178103 23715 net.cpp:141] Setting up inception_4b/relu_3x3
I0403 18:52:26.178128 23715 net.cpp:148] Top shape: 24 224 14 14 (1053696)
I0403 18:52:26.178143 23715 net.cpp:156] Memory required for data: 964869408
I0403 18:52:26.178156 23715 layer_factory.hpp:77] Creating layer inception_4b/5x5_reduce
I0403 18:52:26.178177 23715 net.cpp:91] Creating Layer inception_4b/5x5_reduce
I0403 18:52:26.178194 23715 net.cpp:425] inception_4b/5x5_reduce <- inception_4a/output_inception_4a/output_0_split_3
I0403 18:52:26.178216 23715 net.cpp:399] inception_4b/5x5_reduce -> inception_4b/5x5_reduce
I0403 18:52:26.179277 23715 net.cpp:141] Setting up inception_4b/5x5_reduce
I0403 18:52:26.179306 23715 net.cpp:148] Top shape: 24 24 14 14 (112896)
I0403 18:52:26.179322 23715 net.cpp:156] Memory required for data: 965320992
I0403 18:52:26.179339 23715 layer_factory.hpp:77] Creating layer inception_4b/relu_5x5_reduce
I0403 18:52:26.179358 23715 net.cpp:91] Creating Layer inception_4b/relu_5x5_reduce
I0403 18:52:26.179388 23715 net.cpp:425] inception_4b/relu_5x5_reduce <- inception_4b/5x5_reduce
I0403 18:52:26.179405 23715 net.cpp:386] inception_4b/relu_5x5_reduce -> inception_4b/5x5_reduce (in-place)
I0403 18:52:26.179594 23715 net.cpp:141] Setting up inception_4b/relu_5x5_reduce
I0403 18:52:26.179620 23715 net.cpp:148] Top shape: 24 24 14 14 (112896)
I0403 18:52:26.179633 23715 net.cpp:156] Memory required for data: 965772576
I0403 18:52:26.179647 23715 layer_factory.hpp:77] Creating layer inception_4b/5x5
I0403 18:52:26.179668 23715 net.cpp:91] Creating Layer inception_4b/5x5
I0403 18:52:26.179685 23715 net.cpp:425] inception_4b/5x5 <- inception_4b/5x5_reduce
I0403 18:52:26.179707 23715 net.cpp:399] inception_4b/5x5 -> inception_4b/5x5
I0403 18:52:26.180899 23715 net.cpp:141] Setting up inception_4b/5x5
I0403 18:52:26.180925 23715 net.cpp:148] Top shape: 24 64 14 14 (301056)
I0403 18:52:26.180940 23715 net.cpp:156] Memory required for data: 966976800
I0403 18:52:26.180958 23715 layer_factory.hpp:77] Creating layer inception_4b/relu_5x5
I0403 18:52:26.180979 23715 net.cpp:91] Creating Layer inception_4b/relu_5x5
I0403 18:52:26.180994 23715 net.cpp:425] inception_4b/relu_5x5 <- inception_4b/5x5
I0403 18:52:26.181011 23715 net.cpp:386] inception_4b/relu_5x5 -> inception_4b/5x5 (in-place)
I0403 18:52:26.181293 23715 net.cpp:141] Setting up inception_4b/relu_5x5
I0403 18:52:26.181318 23715 net.cpp:148] Top shape: 24 64 14 14 (301056)
I0403 18:52:26.181331 23715 net.cpp:156] Memory required for data: 968181024
I0403 18:52:26.181346 23715 layer_factory.hpp:77] Creating layer inception_4b/pool
I0403 18:52:26.181366 23715 net.cpp:91] Creating Layer inception_4b/pool
I0403 18:52:26.181383 23715 net.cpp:425] inception_4b/pool <- inception_4a/output_inception_4a/output_0_split_4
I0403 18:52:26.181401 23715 net.cpp:399] inception_4b/pool -> inception_4b/pool
I0403 18:52:26.181463 23715 net.cpp:141] Setting up inception_4b/pool
I0403 18:52:26.181485 23715 net.cpp:148] Top shape: 24 512 14 14 (2408448)
I0403 18:52:26.181499 23715 net.cpp:156] Memory required for data: 977814816
I0403 18:52:26.181514 23715 layer_factory.hpp:77] Creating layer inception_4b/pool_proj
I0403 18:52:26.181535 23715 net.cpp:91] Creating Layer inception_4b/pool_proj
I0403 18:52:26.181556 23715 net.cpp:425] inception_4b/pool_proj <- inception_4b/pool
I0403 18:52:26.181577 23715 net.cpp:399] inception_4b/pool_proj -> inception_4b/pool_proj
I0403 18:52:26.182741 23715 net.cpp:141] Setting up inception_4b/pool_proj
I0403 18:52:26.182768 23715 net.cpp:148] Top shape: 24 64 14 14 (301056)
I0403 18:52:26.182782 23715 net.cpp:156] Memory required for data: 979019040
I0403 18:52:26.182799 23715 layer_factory.hpp:77] Creating layer inception_4b/relu_pool_proj
I0403 18:52:26.182819 23715 net.cpp:91] Creating Layer inception_4b/relu_pool_proj
I0403 18:52:26.182837 23715 net.cpp:425] inception_4b/relu_pool_proj <- inception_4b/pool_proj
I0403 18:52:26.182853 23715 net.cpp:386] inception_4b/relu_pool_proj -> inception_4b/pool_proj (in-place)
I0403 18:52:26.183033 23715 net.cpp:141] Setting up inception_4b/relu_pool_proj
I0403 18:52:26.183058 23715 net.cpp:148] Top shape: 24 64 14 14 (301056)
I0403 18:52:26.183073 23715 net.cpp:156] Memory required for data: 980223264
I0403 18:52:26.183085 23715 layer_factory.hpp:77] Creating layer inception_4b/output
I0403 18:52:26.183102 23715 net.cpp:91] Creating Layer inception_4b/output
I0403 18:52:26.183117 23715 net.cpp:425] inception_4b/output <- inception_4b/1x1
I0403 18:52:26.183132 23715 net.cpp:425] inception_4b/output <- inception_4b/3x3
I0403 18:52:26.183147 23715 net.cpp:425] inception_4b/output <- inception_4b/5x5
I0403 18:52:26.183162 23715 net.cpp:425] inception_4b/output <- inception_4b/pool_proj
I0403 18:52:26.183182 23715 net.cpp:399] inception_4b/output -> inception_4b/output
I0403 18:52:26.183225 23715 net.cpp:141] Setting up inception_4b/output
I0403 18:52:26.183250 23715 net.cpp:148] Top shape: 24 512 14 14 (2408448)
I0403 18:52:26.183267 23715 net.cpp:156] Memory required for data: 989857056
I0403 18:52:26.183295 23715 layer_factory.hpp:77] Creating layer inception_4b/output_inception_4b/output_0_split
I0403 18:52:26.183312 23715 net.cpp:91] Creating Layer inception_4b/output_inception_4b/output_0_split
I0403 18:52:26.183327 23715 net.cpp:425] inception_4b/output_inception_4b/output_0_split <- inception_4b/output
I0403 18:52:26.183344 23715 net.cpp:399] inception_4b/output_inception_4b/output_0_split -> inception_4b/output_inception_4b/output_0_split_0
I0403 18:52:26.183363 23715 net.cpp:399] inception_4b/output_inception_4b/output_0_split -> inception_4b/output_inception_4b/output_0_split_1
I0403 18:52:26.183387 23715 net.cpp:399] inception_4b/output_inception_4b/output_0_split -> inception_4b/output_inception_4b/output_0_split_2
I0403 18:52:26.183406 23715 net.cpp:399] inception_4b/output_inception_4b/output_0_split -> inception_4b/output_inception_4b/output_0_split_3
I0403 18:52:26.183488 23715 net.cpp:141] Setting up inception_4b/output_inception_4b/output_0_split
I0403 18:52:26.183511 23715 net.cpp:148] Top shape: 24 512 14 14 (2408448)
I0403 18:52:26.183527 23715 net.cpp:148] Top shape: 24 512 14 14 (2408448)
I0403 18:52:26.183547 23715 net.cpp:148] Top shape: 24 512 14 14 (2408448)
I0403 18:52:26.183562 23715 net.cpp:148] Top shape: 24 512 14 14 (2408448)
I0403 18:52:26.183575 23715 net.cpp:156] Memory required for data: 1028392224
I0403 18:52:26.183589 23715 layer_factory.hpp:77] Creating layer inception_4c/1x1
I0403 18:52:26.183611 23715 net.cpp:91] Creating Layer inception_4c/1x1
I0403 18:52:26.183629 23715 net.cpp:425] inception_4c/1x1 <- inception_4b/output_inception_4b/output_0_split_0
I0403 18:52:26.183648 23715 net.cpp:399] inception_4c/1x1 -> inception_4c/1x1
I0403 18:52:26.185044 23715 net.cpp:141] Setting up inception_4c/1x1
I0403 18:52:26.185071 23715 net.cpp:148] Top shape: 24 128 14 14 (602112)
I0403 18:52:26.185086 23715 net.cpp:156] Memory required for data: 1030800672
I0403 18:52:26.185104 23715 layer_factory.hpp:77] Creating layer inception_4c/relu_1x1
I0403 18:52:26.185122 23715 net.cpp:91] Creating Layer inception_4c/relu_1x1
I0403 18:52:26.185137 23715 net.cpp:425] inception_4c/relu_1x1 <- inception_4c/1x1
I0403 18:52:26.185155 23715 net.cpp:386] inception_4c/relu_1x1 -> inception_4c/1x1 (in-place)
I0403 18:52:26.185333 23715 net.cpp:141] Setting up inception_4c/relu_1x1
I0403 18:52:26.185356 23715 net.cpp:148] Top shape: 24 128 14 14 (602112)
I0403 18:52:26.185370 23715 net.cpp:156] Memory required for data: 1033209120
I0403 18:52:26.185385 23715 layer_factory.hpp:77] Creating layer inception_4c/3x3_reduce
I0403 18:52:26.185406 23715 net.cpp:91] Creating Layer inception_4c/3x3_reduce
I0403 18:52:26.185423 23715 net.cpp:425] inception_4c/3x3_reduce <- inception_4b/output_inception_4b/output_0_split_1
I0403 18:52:26.185444 23715 net.cpp:399] inception_4c/3x3_reduce -> inception_4c/3x3_reduce
I0403 18:52:26.187341 23715 net.cpp:141] Setting up inception_4c/3x3_reduce
I0403 18:52:26.187369 23715 net.cpp:148] Top shape: 24 128 14 14 (602112)
I0403 18:52:26.187384 23715 net.cpp:156] Memory required for data: 1035617568
I0403 18:52:26.187402 23715 layer_factory.hpp:77] Creating layer inception_4c/relu_3x3_reduce
I0403 18:52:26.187422 23715 net.cpp:91] Creating Layer inception_4c/relu_3x3_reduce
I0403 18:52:26.187438 23715 net.cpp:425] inception_4c/relu_3x3_reduce <- inception_4c/3x3_reduce
I0403 18:52:26.187455 23715 net.cpp:386] inception_4c/relu_3x3_reduce -> inception_4c/3x3_reduce (in-place)
I0403 18:52:26.187736 23715 net.cpp:141] Setting up inception_4c/relu_3x3_reduce
I0403 18:52:26.187762 23715 net.cpp:148] Top shape: 24 128 14 14 (602112)
I0403 18:52:26.187777 23715 net.cpp:156] Memory required for data: 1038026016
I0403 18:52:26.187790 23715 layer_factory.hpp:77] Creating layer inception_4c/3x3
I0403 18:52:26.187813 23715 net.cpp:91] Creating Layer inception_4c/3x3
I0403 18:52:26.187830 23715 net.cpp:425] inception_4c/3x3 <- inception_4c/3x3_reduce
I0403 18:52:26.187852 23715 net.cpp:399] inception_4c/3x3 -> inception_4c/3x3
I0403 18:52:26.191328 23715 net.cpp:141] Setting up inception_4c/3x3
I0403 18:52:26.191366 23715 net.cpp:148] Top shape: 24 256 14 14 (1204224)
I0403 18:52:26.191382 23715 net.cpp:156] Memory required for data: 1042842912
I0403 18:52:26.191411 23715 layer_factory.hpp:77] Creating layer inception_4c/relu_3x3
I0403 18:52:26.191433 23715 net.cpp:91] Creating Layer inception_4c/relu_3x3
I0403 18:52:26.191450 23715 net.cpp:425] inception_4c/relu_3x3 <- inception_4c/3x3
I0403 18:52:26.191468 23715 net.cpp:386] inception_4c/relu_3x3 -> inception_4c/3x3 (in-place)
I0403 18:52:26.191643 23715 net.cpp:141] Setting up inception_4c/relu_3x3
I0403 18:52:26.191669 23715 net.cpp:148] Top shape: 24 256 14 14 (1204224)
I0403 18:52:26.191684 23715 net.cpp:156] Memory required for data: 1047659808
I0403 18:52:26.191699 23715 layer_factory.hpp:77] Creating layer inception_4c/5x5_reduce
I0403 18:52:26.191720 23715 net.cpp:91] Creating Layer inception_4c/5x5_reduce
I0403 18:52:26.191737 23715 net.cpp:425] inception_4c/5x5_reduce <- inception_4b/output_inception_4b/output_0_split_2
I0403 18:52:26.191756 23715 net.cpp:399] inception_4c/5x5_reduce -> inception_4c/5x5_reduce
I0403 18:52:26.192783 23715 net.cpp:141] Setting up inception_4c/5x5_reduce
I0403 18:52:26.192812 23715 net.cpp:148] Top shape: 24 24 14 14 (112896)
I0403 18:52:26.192828 23715 net.cpp:156] Memory required for data: 1048111392
I0403 18:52:26.192845 23715 layer_factory.hpp:77] Creating layer inception_4c/relu_5x5_reduce
I0403 18:52:26.192862 23715 net.cpp:91] Creating Layer inception_4c/relu_5x5_reduce
I0403 18:52:26.192878 23715 net.cpp:425] inception_4c/relu_5x5_reduce <- inception_4c/5x5_reduce
I0403 18:52:26.192893 23715 net.cpp:386] inception_4c/relu_5x5_reduce -> inception_4c/5x5_reduce (in-place)
I0403 18:52:26.193068 23715 net.cpp:141] Setting up inception_4c/relu_5x5_reduce
I0403 18:52:26.193094 23715 net.cpp:148] Top shape: 24 24 14 14 (112896)
I0403 18:52:26.193109 23715 net.cpp:156] Memory required for data: 1048562976
I0403 18:52:26.193122 23715 layer_factory.hpp:77] Creating layer inception_4c/5x5
I0403 18:52:26.193142 23715 net.cpp:91] Creating Layer inception_4c/5x5
I0403 18:52:26.193159 23715 net.cpp:425] inception_4c/5x5 <- inception_4c/5x5_reduce
I0403 18:52:26.193179 23715 net.cpp:399] inception_4c/5x5 -> inception_4c/5x5
I0403 18:52:26.194367 23715 net.cpp:141] Setting up inception_4c/5x5
I0403 18:52:26.194393 23715 net.cpp:148] Top shape: 24 64 14 14 (301056)
I0403 18:52:26.194408 23715 net.cpp:156] Memory required for data: 1049767200
I0403 18:52:26.194425 23715 layer_factory.hpp:77] Creating layer inception_4c/relu_5x5
I0403 18:52:26.194442 23715 net.cpp:91] Creating Layer inception_4c/relu_5x5
I0403 18:52:26.194458 23715 net.cpp:425] inception_4c/relu_5x5 <- inception_4c/5x5
I0403 18:52:26.194475 23715 net.cpp:386] inception_4c/relu_5x5 -> inception_4c/5x5 (in-place)
I0403 18:52:26.194767 23715 net.cpp:141] Setting up inception_4c/relu_5x5
I0403 18:52:26.194792 23715 net.cpp:148] Top shape: 24 64 14 14 (301056)
I0403 18:52:26.194808 23715 net.cpp:156] Memory required for data: 1050971424
I0403 18:52:26.194821 23715 layer_factory.hpp:77] Creating layer inception_4c/pool
I0403 18:52:26.194839 23715 net.cpp:91] Creating Layer inception_4c/pool
I0403 18:52:26.194854 23715 net.cpp:425] inception_4c/pool <- inception_4b/output_inception_4b/output_0_split_3
I0403 18:52:26.194872 23715 net.cpp:399] inception_4c/pool -> inception_4c/pool
I0403 18:52:26.194936 23715 net.cpp:141] Setting up inception_4c/pool
I0403 18:52:26.194957 23715 net.cpp:148] Top shape: 24 512 14 14 (2408448)
I0403 18:52:26.194972 23715 net.cpp:156] Memory required for data: 1060605216
I0403 18:52:26.194984 23715 layer_factory.hpp:77] Creating layer inception_4c/pool_proj
I0403 18:52:26.195006 23715 net.cpp:91] Creating Layer inception_4c/pool_proj
I0403 18:52:26.195024 23715 net.cpp:425] inception_4c/pool_proj <- inception_4c/pool
I0403 18:52:26.195040 23715 net.cpp:399] inception_4c/pool_proj -> inception_4c/pool_proj
I0403 18:52:26.196208 23715 net.cpp:141] Setting up inception_4c/pool_proj
I0403 18:52:26.196234 23715 net.cpp:148] Top shape: 24 64 14 14 (301056)
I0403 18:52:26.196264 23715 net.cpp:156] Memory required for data: 1061809440
I0403 18:52:26.196282 23715 layer_factory.hpp:77] Creating layer inception_4c/relu_pool_proj
I0403 18:52:26.196302 23715 net.cpp:91] Creating Layer inception_4c/relu_pool_proj
I0403 18:52:26.196318 23715 net.cpp:425] inception_4c/relu_pool_proj <- inception_4c/pool_proj
I0403 18:52:26.196336 23715 net.cpp:386] inception_4c/relu_pool_proj -> inception_4c/pool_proj (in-place)
I0403 18:52:26.196509 23715 net.cpp:141] Setting up inception_4c/relu_pool_proj
I0403 18:52:26.196532 23715 net.cpp:148] Top shape: 24 64 14 14 (301056)
I0403 18:52:26.196552 23715 net.cpp:156] Memory required for data: 1063013664
I0403 18:52:26.196565 23715 layer_factory.hpp:77] Creating layer inception_4c/output
I0403 18:52:26.196581 23715 net.cpp:91] Creating Layer inception_4c/output
I0403 18:52:26.196596 23715 net.cpp:425] inception_4c/output <- inception_4c/1x1
I0403 18:52:26.196611 23715 net.cpp:425] inception_4c/output <- inception_4c/3x3
I0403 18:52:26.196626 23715 net.cpp:425] inception_4c/output <- inception_4c/5x5
I0403 18:52:26.196640 23715 net.cpp:425] inception_4c/output <- inception_4c/pool_proj
I0403 18:52:26.196658 23715 net.cpp:399] inception_4c/output -> inception_4c/output
I0403 18:52:26.196702 23715 net.cpp:141] Setting up inception_4c/output
I0403 18:52:26.196727 23715 net.cpp:148] Top shape: 24 512 14 14 (2408448)
I0403 18:52:26.196740 23715 net.cpp:156] Memory required for data: 1072647456
I0403 18:52:26.196753 23715 layer_factory.hpp:77] Creating layer inception_4c/output_inception_4c/output_0_split
I0403 18:52:26.196769 23715 net.cpp:91] Creating Layer inception_4c/output_inception_4c/output_0_split
I0403 18:52:26.196784 23715 net.cpp:425] inception_4c/output_inception_4c/output_0_split <- inception_4c/output
I0403 18:52:26.196799 23715 net.cpp:399] inception_4c/output_inception_4c/output_0_split -> inception_4c/output_inception_4c/output_0_split_0
I0403 18:52:26.196817 23715 net.cpp:399] inception_4c/output_inception_4c/output_0_split -> inception_4c/output_inception_4c/output_0_split_1
I0403 18:52:26.196838 23715 net.cpp:399] inception_4c/output_inception_4c/output_0_split -> inception_4c/output_inception_4c/output_0_split_2
I0403 18:52:26.196859 23715 net.cpp:399] inception_4c/output_inception_4c/output_0_split -> inception_4c/output_inception_4c/output_0_split_3
I0403 18:52:26.196943 23715 net.cpp:141] Setting up inception_4c/output_inception_4c/output_0_split
I0403 18:52:26.196966 23715 net.cpp:148] Top shape: 24 512 14 14 (2408448)
I0403 18:52:26.196980 23715 net.cpp:148] Top shape: 24 512 14 14 (2408448)
I0403 18:52:26.196995 23715 net.cpp:148] Top shape: 24 512 14 14 (2408448)
I0403 18:52:26.197010 23715 net.cpp:148] Top shape: 24 512 14 14 (2408448)
I0403 18:52:26.197021 23715 net.cpp:156] Memory required for data: 1111182624
I0403 18:52:26.197036 23715 layer_factory.hpp:77] Creating layer inception_4d/1x1
I0403 18:52:26.197055 23715 net.cpp:91] Creating Layer inception_4d/1x1
I0403 18:52:26.197072 23715 net.cpp:425] inception_4d/1x1 <- inception_4c/output_inception_4c/output_0_split_0
I0403 18:52:26.197091 23715 net.cpp:399] inception_4d/1x1 -> inception_4d/1x1
I0403 18:52:26.198387 23715 net.cpp:141] Setting up inception_4d/1x1
I0403 18:52:26.198415 23715 net.cpp:148] Top shape: 24 112 14 14 (526848)
I0403 18:52:26.198428 23715 net.cpp:156] Memory required for data: 1113290016
I0403 18:52:26.198446 23715 layer_factory.hpp:77] Creating layer inception_4d/relu_1x1
I0403 18:52:26.198464 23715 net.cpp:91] Creating Layer inception_4d/relu_1x1
I0403 18:52:26.198480 23715 net.cpp:425] inception_4d/relu_1x1 <- inception_4d/1x1
I0403 18:52:26.198498 23715 net.cpp:386] inception_4d/relu_1x1 -> inception_4d/1x1 (in-place)
I0403 18:52:26.198674 23715 net.cpp:141] Setting up inception_4d/relu_1x1
I0403 18:52:26.198700 23715 net.cpp:148] Top shape: 24 112 14 14 (526848)
I0403 18:52:26.198714 23715 net.cpp:156] Memory required for data: 1115397408
I0403 18:52:26.198729 23715 layer_factory.hpp:77] Creating layer inception_4d/3x3_reduce
I0403 18:52:26.198761 23715 net.cpp:91] Creating Layer inception_4d/3x3_reduce
I0403 18:52:26.198779 23715 net.cpp:425] inception_4d/3x3_reduce <- inception_4c/output_inception_4c/output_0_split_1
I0403 18:52:26.198799 23715 net.cpp:399] inception_4d/3x3_reduce -> inception_4d/3x3_reduce
I0403 18:52:26.200219 23715 net.cpp:141] Setting up inception_4d/3x3_reduce
I0403 18:52:26.200245 23715 net.cpp:148] Top shape: 24 144 14 14 (677376)
I0403 18:52:26.200260 23715 net.cpp:156] Memory required for data: 1118106912
I0403 18:52:26.200278 23715 layer_factory.hpp:77] Creating layer inception_4d/relu_3x3_reduce
I0403 18:52:26.200294 23715 net.cpp:91] Creating Layer inception_4d/relu_3x3_reduce
I0403 18:52:26.200310 23715 net.cpp:425] inception_4d/relu_3x3_reduce <- inception_4d/3x3_reduce
I0403 18:52:26.200330 23715 net.cpp:386] inception_4d/relu_3x3_reduce -> inception_4d/3x3_reduce (in-place)
I0403 18:52:26.200608 23715 net.cpp:141] Setting up inception_4d/relu_3x3_reduce
I0403 18:52:26.200633 23715 net.cpp:148] Top shape: 24 144 14 14 (677376)
I0403 18:52:26.200646 23715 net.cpp:156] Memory required for data: 1120816416
I0403 18:52:26.200660 23715 layer_factory.hpp:77] Creating layer inception_4d/3x3
I0403 18:52:26.200681 23715 net.cpp:91] Creating Layer inception_4d/3x3
I0403 18:52:26.200698 23715 net.cpp:425] inception_4d/3x3 <- inception_4d/3x3_reduce
I0403 18:52:26.200717 23715 net.cpp:399] inception_4d/3x3 -> inception_4d/3x3
I0403 18:52:26.204751 23715 net.cpp:141] Setting up inception_4d/3x3
I0403 18:52:26.204777 23715 net.cpp:148] Top shape: 24 288 14 14 (1354752)
I0403 18:52:26.204792 23715 net.cpp:156] Memory required for data: 1126235424
I0403 18:52:26.204809 23715 layer_factory.hpp:77] Creating layer inception_4d/relu_3x3
I0403 18:52:26.204829 23715 net.cpp:91] Creating Layer inception_4d/relu_3x3
I0403 18:52:26.204845 23715 net.cpp:425] inception_4d/relu_3x3 <- inception_4d/3x3
I0403 18:52:26.204861 23715 net.cpp:386] inception_4d/relu_3x3 -> inception_4d/3x3 (in-place)
I0403 18:52:26.205037 23715 net.cpp:141] Setting up inception_4d/relu_3x3
I0403 18:52:26.205065 23715 net.cpp:148] Top shape: 24 288 14 14 (1354752)
I0403 18:52:26.205078 23715 net.cpp:156] Memory required for data: 1131654432
I0403 18:52:26.205092 23715 layer_factory.hpp:77] Creating layer inception_4d/5x5_reduce
I0403 18:52:26.205113 23715 net.cpp:91] Creating Layer inception_4d/5x5_reduce
I0403 18:52:26.205129 23715 net.cpp:425] inception_4d/5x5_reduce <- inception_4c/output_inception_4c/output_0_split_2
I0403 18:52:26.205147 23715 net.cpp:399] inception_4d/5x5_reduce -> inception_4d/5x5_reduce
I0403 18:52:26.206221 23715 net.cpp:141] Setting up inception_4d/5x5_reduce
I0403 18:52:26.206248 23715 net.cpp:148] Top shape: 24 32 14 14 (150528)
I0403 18:52:26.206264 23715 net.cpp:156] Memory required for data: 1132256544
I0403 18:52:26.206281 23715 layer_factory.hpp:77] Creating layer inception_4d/relu_5x5_reduce
I0403 18:52:26.206300 23715 net.cpp:91] Creating Layer inception_4d/relu_5x5_reduce
I0403 18:52:26.206316 23715 net.cpp:425] inception_4d/relu_5x5_reduce <- inception_4d/5x5_reduce
I0403 18:52:26.206334 23715 net.cpp:386] inception_4d/relu_5x5_reduce -> inception_4d/5x5_reduce (in-place)
I0403 18:52:26.206511 23715 net.cpp:141] Setting up inception_4d/relu_5x5_reduce
I0403 18:52:26.206540 23715 net.cpp:148] Top shape: 24 32 14 14 (150528)
I0403 18:52:26.206557 23715 net.cpp:156] Memory required for data: 1132858656
I0403 18:52:26.206570 23715 layer_factory.hpp:77] Creating layer inception_4d/5x5
I0403 18:52:26.206591 23715 net.cpp:91] Creating Layer inception_4d/5x5
I0403 18:52:26.206609 23715 net.cpp:425] inception_4d/5x5 <- inception_4d/5x5_reduce
I0403 18:52:26.206626 23715 net.cpp:399] inception_4d/5x5 -> inception_4d/5x5
I0403 18:52:26.208065 23715 net.cpp:141] Setting up inception_4d/5x5
I0403 18:52:26.208094 23715 net.cpp:148] Top shape: 24 64 14 14 (301056)
I0403 18:52:26.208111 23715 net.cpp:156] Memory required for data: 1134062880
I0403 18:52:26.208128 23715 layer_factory.hpp:77] Creating layer inception_4d/relu_5x5
I0403 18:52:26.208160 23715 net.cpp:91] Creating Layer inception_4d/relu_5x5
I0403 18:52:26.208178 23715 net.cpp:425] inception_4d/relu_5x5 <- inception_4d/5x5
I0403 18:52:26.208194 23715 net.cpp:386] inception_4d/relu_5x5 -> inception_4d/5x5 (in-place)
I0403 18:52:26.208493 23715 net.cpp:141] Setting up inception_4d/relu_5x5
I0403 18:52:26.208521 23715 net.cpp:148] Top shape: 24 64 14 14 (301056)
I0403 18:52:26.208541 23715 net.cpp:156] Memory required for data: 1135267104
I0403 18:52:26.208556 23715 layer_factory.hpp:77] Creating layer inception_4d/pool
I0403 18:52:26.208575 23715 net.cpp:91] Creating Layer inception_4d/pool
I0403 18:52:26.208590 23715 net.cpp:425] inception_4d/pool <- inception_4c/output_inception_4c/output_0_split_3
I0403 18:52:26.208609 23715 net.cpp:399] inception_4d/pool -> inception_4d/pool
I0403 18:52:26.208675 23715 net.cpp:141] Setting up inception_4d/pool
I0403 18:52:26.208698 23715 net.cpp:148] Top shape: 24 512 14 14 (2408448)
I0403 18:52:26.208712 23715 net.cpp:156] Memory required for data: 1144900896
I0403 18:52:26.208725 23715 layer_factory.hpp:77] Creating layer inception_4d/pool_proj
I0403 18:52:26.208747 23715 net.cpp:91] Creating Layer inception_4d/pool_proj
I0403 18:52:26.208767 23715 net.cpp:425] inception_4d/pool_proj <- inception_4d/pool
I0403 18:52:26.208786 23715 net.cpp:399] inception_4d/pool_proj -> inception_4d/pool_proj
I0403 18:52:26.210520 23715 net.cpp:141] Setting up inception_4d/pool_proj
I0403 18:52:26.210551 23715 net.cpp:148] Top shape: 24 64 14 14 (301056)
I0403 18:52:26.210566 23715 net.cpp:156] Memory required for data: 1146105120
I0403 18:52:26.210584 23715 layer_factory.hpp:77] Creating layer inception_4d/relu_pool_proj
I0403 18:52:26.210604 23715 net.cpp:91] Creating Layer inception_4d/relu_pool_proj
I0403 18:52:26.210621 23715 net.cpp:425] inception_4d/relu_pool_proj <- inception_4d/pool_proj
I0403 18:52:26.210638 23715 net.cpp:386] inception_4d/relu_pool_proj -> inception_4d/pool_proj (in-place)
I0403 18:52:26.210819 23715 net.cpp:141] Setting up inception_4d/relu_pool_proj
I0403 18:52:26.210845 23715 net.cpp:148] Top shape: 24 64 14 14 (301056)
I0403 18:52:26.210861 23715 net.cpp:156] Memory required for data: 1147309344
I0403 18:52:26.210875 23715 layer_factory.hpp:77] Creating layer inception_4d/output
I0403 18:52:26.210892 23715 net.cpp:91] Creating Layer inception_4d/output
I0403 18:52:26.210906 23715 net.cpp:425] inception_4d/output <- inception_4d/1x1
I0403 18:52:26.210922 23715 net.cpp:425] inception_4d/output <- inception_4d/3x3
I0403 18:52:26.210937 23715 net.cpp:425] inception_4d/output <- inception_4d/5x5
I0403 18:52:26.210952 23715 net.cpp:425] inception_4d/output <- inception_4d/pool_proj
I0403 18:52:26.210968 23715 net.cpp:399] inception_4d/output -> inception_4d/output
I0403 18:52:26.211015 23715 net.cpp:141] Setting up inception_4d/output
I0403 18:52:26.211037 23715 net.cpp:148] Top shape: 24 528 14 14 (2483712)
I0403 18:52:26.211051 23715 net.cpp:156] Memory required for data: 1157244192
I0403 18:52:26.211066 23715 layer_factory.hpp:77] Creating layer inception_4d/output_inception_4d/output_0_split
I0403 18:52:26.211081 23715 net.cpp:91] Creating Layer inception_4d/output_inception_4d/output_0_split
I0403 18:52:26.211097 23715 net.cpp:425] inception_4d/output_inception_4d/output_0_split <- inception_4d/output
I0403 18:52:26.211117 23715 net.cpp:399] inception_4d/output_inception_4d/output_0_split -> inception_4d/output_inception_4d/output_0_split_0
I0403 18:52:26.211136 23715 net.cpp:399] inception_4d/output_inception_4d/output_0_split -> inception_4d/output_inception_4d/output_0_split_1
I0403 18:52:26.211158 23715 net.cpp:399] inception_4d/output_inception_4d/output_0_split -> inception_4d/output_inception_4d/output_0_split_2
I0403 18:52:26.211181 23715 net.cpp:399] inception_4d/output_inception_4d/output_0_split -> inception_4d/output_inception_4d/output_0_split_3
I0403 18:52:26.211201 23715 net.cpp:399] inception_4d/output_inception_4d/output_0_split -> inception_4d/output_inception_4d/output_0_split_4
I0403 18:52:26.211302 23715 net.cpp:141] Setting up inception_4d/output_inception_4d/output_0_split
I0403 18:52:26.211336 23715 net.cpp:148] Top shape: 24 528 14 14 (2483712)
I0403 18:52:26.211354 23715 net.cpp:148] Top shape: 24 528 14 14 (2483712)
I0403 18:52:26.211369 23715 net.cpp:148] Top shape: 24 528 14 14 (2483712)
I0403 18:52:26.211383 23715 net.cpp:148] Top shape: 24 528 14 14 (2483712)
I0403 18:52:26.211397 23715 net.cpp:148] Top shape: 24 528 14 14 (2483712)
I0403 18:52:26.211410 23715 net.cpp:156] Memory required for data: 1206918432
I0403 18:52:26.211423 23715 layer_factory.hpp:77] Creating layer loss2/ave_pool
I0403 18:52:26.211441 23715 net.cpp:91] Creating Layer loss2/ave_pool
I0403 18:52:26.211455 23715 net.cpp:425] loss2/ave_pool <- inception_4d/output_inception_4d/output_0_split_0
I0403 18:52:26.211475 23715 net.cpp:399] loss2/ave_pool -> loss2/ave_pool
I0403 18:52:26.211791 23715 net.cpp:141] Setting up loss2/ave_pool
I0403 18:52:26.211817 23715 net.cpp:148] Top shape: 24 528 4 4 (202752)
I0403 18:52:26.211830 23715 net.cpp:156] Memory required for data: 1207729440
I0403 18:52:26.211845 23715 layer_factory.hpp:77] Creating layer loss2/conv
I0403 18:52:26.211868 23715 net.cpp:91] Creating Layer loss2/conv
I0403 18:52:26.211884 23715 net.cpp:425] loss2/conv <- loss2/ave_pool
I0403 18:52:26.211905 23715 net.cpp:399] loss2/conv -> loss2/conv
I0403 18:52:26.213747 23715 net.cpp:141] Setting up loss2/conv
I0403 18:52:26.213776 23715 net.cpp:148] Top shape: 24 128 4 4 (49152)
I0403 18:52:26.213793 23715 net.cpp:156] Memory required for data: 1207926048
I0403 18:52:26.213811 23715 layer_factory.hpp:77] Creating layer loss2/relu_conv
I0403 18:52:26.213829 23715 net.cpp:91] Creating Layer loss2/relu_conv
I0403 18:52:26.213843 23715 net.cpp:425] loss2/relu_conv <- loss2/conv
I0403 18:52:26.213862 23715 net.cpp:386] loss2/relu_conv -> loss2/conv (in-place)
I0403 18:52:26.214139 23715 net.cpp:141] Setting up loss2/relu_conv
I0403 18:52:26.214167 23715 net.cpp:148] Top shape: 24 128 4 4 (49152)
I0403 18:52:26.214182 23715 net.cpp:156] Memory required for data: 1208122656
I0403 18:52:26.214197 23715 layer_factory.hpp:77] Creating layer loss2/fc
I0403 18:52:26.214215 23715 net.cpp:91] Creating Layer loss2/fc
I0403 18:52:26.214231 23715 net.cpp:425] loss2/fc <- loss2/conv
I0403 18:52:26.214252 23715 net.cpp:399] loss2/fc -> loss2/fc
I0403 18:52:26.231343 23715 net.cpp:141] Setting up loss2/fc
I0403 18:52:26.231374 23715 net.cpp:148] Top shape: 24 1024 (24576)
I0403 18:52:26.231389 23715 net.cpp:156] Memory required for data: 1208220960
I0403 18:52:26.231406 23715 layer_factory.hpp:77] Creating layer loss2/relu_fc
I0403 18:52:26.231426 23715 net.cpp:91] Creating Layer loss2/relu_fc
I0403 18:52:26.231441 23715 net.cpp:425] loss2/relu_fc <- loss2/fc
I0403 18:52:26.231457 23715 net.cpp:386] loss2/relu_fc -> loss2/fc (in-place)
I0403 18:52:26.231744 23715 net.cpp:141] Setting up loss2/relu_fc
I0403 18:52:26.231767 23715 net.cpp:148] Top shape: 24 1024 (24576)
I0403 18:52:26.231781 23715 net.cpp:156] Memory required for data: 1208319264
I0403 18:52:26.231794 23715 layer_factory.hpp:77] Creating layer loss2/drop_fc
I0403 18:52:26.231813 23715 net.cpp:91] Creating Layer loss2/drop_fc
I0403 18:52:26.231829 23715 net.cpp:425] loss2/drop_fc <- loss2/fc
I0403 18:52:26.231847 23715 net.cpp:386] loss2/drop_fc -> loss2/fc (in-place)
I0403 18:52:26.231894 23715 net.cpp:141] Setting up loss2/drop_fc
I0403 18:52:26.231915 23715 net.cpp:148] Top shape: 24 1024 (24576)
I0403 18:52:26.231928 23715 net.cpp:156] Memory required for data: 1208417568
I0403 18:52:26.231942 23715 layer_factory.hpp:77] Creating layer loss2/classifier_plantvillage
I0403 18:52:26.231959 23715 net.cpp:91] Creating Layer loss2/classifier_plantvillage
I0403 18:52:26.231974 23715 net.cpp:425] loss2/classifier_plantvillage <- loss2/fc
I0403 18:52:26.231995 23715 net.cpp:399] loss2/classifier_plantvillage -> loss2/classifier_plantvillage
I0403 18:52:26.232373 23715 net.cpp:141] Setting up loss2/classifier_plantvillage
I0403 18:52:26.232398 23715 net.cpp:148] Top shape: 24 38 (912)
I0403 18:52:26.232427 23715 net.cpp:156] Memory required for data: 1208421216
I0403 18:52:26.232445 23715 layer_factory.hpp:77] Creating layer loss2/classifier_plantvillage_loss2/classifier_plantvillage_0_split
I0403 18:52:26.232462 23715 net.cpp:91] Creating Layer loss2/classifier_plantvillage_loss2/classifier_plantvillage_0_split
I0403 18:52:26.232478 23715 net.cpp:425] loss2/classifier_plantvillage_loss2/classifier_plantvillage_0_split <- loss2/classifier_plantvillage
I0403 18:52:26.232497 23715 net.cpp:399] loss2/classifier_plantvillage_loss2/classifier_plantvillage_0_split -> loss2/classifier_plantvillage_loss2/classifier_plantvillage_0_split_0
I0403 18:52:26.232517 23715 net.cpp:399] loss2/classifier_plantvillage_loss2/classifier_plantvillage_0_split -> loss2/classifier_plantvillage_loss2/classifier_plantvillage_0_split_1
I0403 18:52:26.232540 23715 net.cpp:399] loss2/classifier_plantvillage_loss2/classifier_plantvillage_0_split -> loss2/classifier_plantvillage_loss2/classifier_plantvillage_0_split_2
I0403 18:52:26.232614 23715 net.cpp:141] Setting up loss2/classifier_plantvillage_loss2/classifier_plantvillage_0_split
I0403 18:52:26.232638 23715 net.cpp:148] Top shape: 24 38 (912)
I0403 18:52:26.232655 23715 net.cpp:148] Top shape: 24 38 (912)
I0403 18:52:26.232669 23715 net.cpp:148] Top shape: 24 38 (912)
I0403 18:52:26.232682 23715 net.cpp:156] Memory required for data: 1208432160
I0403 18:52:26.232697 23715 layer_factory.hpp:77] Creating layer inception_4e/1x1
I0403 18:52:26.232714 23715 net.cpp:91] Creating Layer inception_4e/1x1
I0403 18:52:26.232730 23715 net.cpp:425] inception_4e/1x1 <- inception_4d/output_inception_4d/output_0_split_1
I0403 18:52:26.232748 23715 net.cpp:399] inception_4e/1x1 -> inception_4e/1x1
I0403 18:52:26.234453 23715 net.cpp:141] Setting up inception_4e/1x1
I0403 18:52:26.234480 23715 net.cpp:148] Top shape: 24 256 14 14 (1204224)
I0403 18:52:26.234494 23715 net.cpp:156] Memory required for data: 1213249056
I0403 18:52:26.234511 23715 layer_factory.hpp:77] Creating layer inception_4e/relu_1x1
I0403 18:52:26.234529 23715 net.cpp:91] Creating Layer inception_4e/relu_1x1
I0403 18:52:26.234555 23715 net.cpp:425] inception_4e/relu_1x1 <- inception_4e/1x1
I0403 18:52:26.234575 23715 net.cpp:386] inception_4e/relu_1x1 -> inception_4e/1x1 (in-place)
I0403 18:52:26.234860 23715 net.cpp:141] Setting up inception_4e/relu_1x1
I0403 18:52:26.234885 23715 net.cpp:148] Top shape: 24 256 14 14 (1204224)
I0403 18:52:26.234899 23715 net.cpp:156] Memory required for data: 1218065952
I0403 18:52:26.234913 23715 layer_factory.hpp:77] Creating layer inception_4e/3x3_reduce
I0403 18:52:26.234935 23715 net.cpp:91] Creating Layer inception_4e/3x3_reduce
I0403 18:52:26.234952 23715 net.cpp:425] inception_4e/3x3_reduce <- inception_4d/output_inception_4d/output_0_split_2
I0403 18:52:26.234973 23715 net.cpp:399] inception_4e/3x3_reduce -> inception_4e/3x3_reduce
I0403 18:52:26.236982 23715 net.cpp:141] Setting up inception_4e/3x3_reduce
I0403 18:52:26.237012 23715 net.cpp:148] Top shape: 24 160 14 14 (752640)
I0403 18:52:26.237028 23715 net.cpp:156] Memory required for data: 1221076512
I0403 18:52:26.237046 23715 layer_factory.hpp:77] Creating layer inception_4e/relu_3x3_reduce
I0403 18:52:26.237062 23715 net.cpp:91] Creating Layer inception_4e/relu_3x3_reduce
I0403 18:52:26.237078 23715 net.cpp:425] inception_4e/relu_3x3_reduce <- inception_4e/3x3_reduce
I0403 18:52:26.237097 23715 net.cpp:386] inception_4e/relu_3x3_reduce -> inception_4e/3x3_reduce (in-place)
I0403 18:52:26.237273 23715 net.cpp:141] Setting up inception_4e/relu_3x3_reduce
I0403 18:52:26.237298 23715 net.cpp:148] Top shape: 24 160 14 14 (752640)
I0403 18:52:26.237311 23715 net.cpp:156] Memory required for data: 1224087072
I0403 18:52:26.237325 23715 layer_factory.hpp:77] Creating layer inception_4e/3x3
I0403 18:52:26.237345 23715 net.cpp:91] Creating Layer inception_4e/3x3
I0403 18:52:26.237362 23715 net.cpp:425] inception_4e/3x3 <- inception_4e/3x3_reduce
I0403 18:52:26.237383 23715 net.cpp:399] inception_4e/3x3 -> inception_4e/3x3
I0403 18:52:26.242172 23715 net.cpp:141] Setting up inception_4e/3x3
I0403 18:52:26.242211 23715 net.cpp:148] Top shape: 24 320 14 14 (1505280)
I0403 18:52:26.242226 23715 net.cpp:156] Memory required for data: 1230108192
I0403 18:52:26.242244 23715 layer_factory.hpp:77] Creating layer inception_4e/relu_3x3
I0403 18:52:26.242262 23715 net.cpp:91] Creating Layer inception_4e/relu_3x3
I0403 18:52:26.242276 23715 net.cpp:425] inception_4e/relu_3x3 <- inception_4e/3x3
I0403 18:52:26.242295 23715 net.cpp:386] inception_4e/relu_3x3 -> inception_4e/3x3 (in-place)
I0403 18:52:26.242588 23715 net.cpp:141] Setting up inception_4e/relu_3x3
I0403 18:52:26.242612 23715 net.cpp:148] Top shape: 24 320 14 14 (1505280)
I0403 18:52:26.242627 23715 net.cpp:156] Memory required for data: 1236129312
I0403 18:52:26.242640 23715 layer_factory.hpp:77] Creating layer inception_4e/5x5_reduce
I0403 18:52:26.242666 23715 net.cpp:91] Creating Layer inception_4e/5x5_reduce
I0403 18:52:26.242683 23715 net.cpp:425] inception_4e/5x5_reduce <- inception_4d/output_inception_4d/output_0_split_3
I0403 18:52:26.242703 23715 net.cpp:399] inception_4e/5x5_reduce -> inception_4e/5x5_reduce
I0403 18:52:26.243713 23715 net.cpp:141] Setting up inception_4e/5x5_reduce
I0403 18:52:26.243741 23715 net.cpp:148] Top shape: 24 32 14 14 (150528)
I0403 18:52:26.243757 23715 net.cpp:156] Memory required for data: 1236731424
I0403 18:52:26.243773 23715 layer_factory.hpp:77] Creating layer inception_4e/relu_5x5_reduce
I0403 18:52:26.243790 23715 net.cpp:91] Creating Layer inception_4e/relu_5x5_reduce
I0403 18:52:26.243805 23715 net.cpp:425] inception_4e/relu_5x5_reduce <- inception_4e/5x5_reduce
I0403 18:52:26.243821 23715 net.cpp:386] inception_4e/relu_5x5_reduce -> inception_4e/5x5_reduce (in-place)
I0403 18:52:26.244204 23715 net.cpp:141] Setting up inception_4e/relu_5x5_reduce
I0403 18:52:26.244232 23715 net.cpp:148] Top shape: 24 32 14 14 (150528)
I0403 18:52:26.244247 23715 net.cpp:156] Memory required for data: 1237333536
I0403 18:52:26.244263 23715 layer_factory.hpp:77] Creating layer inception_4e/5x5
I0403 18:52:26.244299 23715 net.cpp:91] Creating Layer inception_4e/5x5
I0403 18:52:26.244318 23715 net.cpp:425] inception_4e/5x5 <- inception_4e/5x5_reduce
I0403 18:52:26.244335 23715 net.cpp:399] inception_4e/5x5 -> inception_4e/5x5
I0403 18:52:26.246078 23715 net.cpp:141] Setting up inception_4e/5x5
I0403 18:52:26.246105 23715 net.cpp:148] Top shape: 24 128 14 14 (602112)
I0403 18:52:26.246119 23715 net.cpp:156] Memory required for data: 1239741984
I0403 18:52:26.246136 23715 layer_factory.hpp:77] Creating layer inception_4e/relu_5x5
I0403 18:52:26.246156 23715 net.cpp:91] Creating Layer inception_4e/relu_5x5
I0403 18:52:26.246173 23715 net.cpp:425] inception_4e/relu_5x5 <- inception_4e/5x5
I0403 18:52:26.246189 23715 net.cpp:386] inception_4e/relu_5x5 -> inception_4e/5x5 (in-place)
I0403 18:52:26.246377 23715 net.cpp:141] Setting up inception_4e/relu_5x5
I0403 18:52:26.246403 23715 net.cpp:148] Top shape: 24 128 14 14 (602112)
I0403 18:52:26.246418 23715 net.cpp:156] Memory required for data: 1242150432
I0403 18:52:26.246433 23715 layer_factory.hpp:77] Creating layer inception_4e/pool
I0403 18:52:26.246449 23715 net.cpp:91] Creating Layer inception_4e/pool
I0403 18:52:26.246464 23715 net.cpp:425] inception_4e/pool <- inception_4d/output_inception_4d/output_0_split_4
I0403 18:52:26.246484 23715 net.cpp:399] inception_4e/pool -> inception_4e/pool
I0403 18:52:26.246552 23715 net.cpp:141] Setting up inception_4e/pool
I0403 18:52:26.246575 23715 net.cpp:148] Top shape: 24 528 14 14 (2483712)
I0403 18:52:26.246589 23715 net.cpp:156] Memory required for data: 1252085280
I0403 18:52:26.246603 23715 layer_factory.hpp:77] Creating layer inception_4e/pool_proj
I0403 18:52:26.246623 23715 net.cpp:91] Creating Layer inception_4e/pool_proj
I0403 18:52:26.246640 23715 net.cpp:425] inception_4e/pool_proj <- inception_4e/pool
I0403 18:52:26.246664 23715 net.cpp:399] inception_4e/pool_proj -> inception_4e/pool_proj
I0403 18:52:26.248077 23715 net.cpp:141] Setting up inception_4e/pool_proj
I0403 18:52:26.248114 23715 net.cpp:148] Top shape: 24 128 14 14 (602112)
I0403 18:52:26.248131 23715 net.cpp:156] Memory required for data: 1254493728
I0403 18:52:26.248147 23715 layer_factory.hpp:77] Creating layer inception_4e/relu_pool_proj
I0403 18:52:26.248167 23715 net.cpp:91] Creating Layer inception_4e/relu_pool_proj
I0403 18:52:26.248183 23715 net.cpp:425] inception_4e/relu_pool_proj <- inception_4e/pool_proj
I0403 18:52:26.248199 23715 net.cpp:386] inception_4e/relu_pool_proj -> inception_4e/pool_proj (in-place)
I0403 18:52:26.248477 23715 net.cpp:141] Setting up inception_4e/relu_pool_proj
I0403 18:52:26.248502 23715 net.cpp:148] Top shape: 24 128 14 14 (602112)
I0403 18:52:26.248517 23715 net.cpp:156] Memory required for data: 1256902176
I0403 18:52:26.248530 23715 layer_factory.hpp:77] Creating layer inception_4e/output
I0403 18:52:26.248553 23715 net.cpp:91] Creating Layer inception_4e/output
I0403 18:52:26.248570 23715 net.cpp:425] inception_4e/output <- inception_4e/1x1
I0403 18:52:26.248585 23715 net.cpp:425] inception_4e/output <- inception_4e/3x3
I0403 18:52:26.248601 23715 net.cpp:425] inception_4e/output <- inception_4e/5x5
I0403 18:52:26.248615 23715 net.cpp:425] inception_4e/output <- inception_4e/pool_proj
I0403 18:52:26.248631 23715 net.cpp:399] inception_4e/output -> inception_4e/output
I0403 18:52:26.248680 23715 net.cpp:141] Setting up inception_4e/output
I0403 18:52:26.248703 23715 net.cpp:148] Top shape: 24 832 14 14 (3913728)
I0403 18:52:26.248716 23715 net.cpp:156] Memory required for data: 1272557088
I0403 18:52:26.248729 23715 layer_factory.hpp:77] Creating layer pool4/3x3_s2
I0403 18:52:26.248745 23715 net.cpp:91] Creating Layer pool4/3x3_s2
I0403 18:52:26.248760 23715 net.cpp:425] pool4/3x3_s2 <- inception_4e/output
I0403 18:52:26.248780 23715 net.cpp:399] pool4/3x3_s2 -> pool4/3x3_s2
I0403 18:52:26.248842 23715 net.cpp:141] Setting up pool4/3x3_s2
I0403 18:52:26.248867 23715 net.cpp:148] Top shape: 24 832 7 7 (978432)
I0403 18:52:26.248881 23715 net.cpp:156] Memory required for data: 1276470816
I0403 18:52:26.248895 23715 layer_factory.hpp:77] Creating layer pool4/3x3_s2_pool4/3x3_s2_0_split
I0403 18:52:26.248911 23715 net.cpp:91] Creating Layer pool4/3x3_s2_pool4/3x3_s2_0_split
I0403 18:52:26.248925 23715 net.cpp:425] pool4/3x3_s2_pool4/3x3_s2_0_split <- pool4/3x3_s2
I0403 18:52:26.248942 23715 net.cpp:399] pool4/3x3_s2_pool4/3x3_s2_0_split -> pool4/3x3_s2_pool4/3x3_s2_0_split_0
I0403 18:52:26.248962 23715 net.cpp:399] pool4/3x3_s2_pool4/3x3_s2_0_split -> pool4/3x3_s2_pool4/3x3_s2_0_split_1
I0403 18:52:26.248982 23715 net.cpp:399] pool4/3x3_s2_pool4/3x3_s2_0_split -> pool4/3x3_s2_pool4/3x3_s2_0_split_2
I0403 18:52:26.249001 23715 net.cpp:399] pool4/3x3_s2_pool4/3x3_s2_0_split -> pool4/3x3_s2_pool4/3x3_s2_0_split_3
I0403 18:52:26.249086 23715 net.cpp:141] Setting up pool4/3x3_s2_pool4/3x3_s2_0_split
I0403 18:52:26.249109 23715 net.cpp:148] Top shape: 24 832 7 7 (978432)
I0403 18:52:26.249124 23715 net.cpp:148] Top shape: 24 832 7 7 (978432)
I0403 18:52:26.249138 23715 net.cpp:148] Top shape: 24 832 7 7 (978432)
I0403 18:52:26.249152 23715 net.cpp:148] Top shape: 24 832 7 7 (978432)
I0403 18:52:26.249166 23715 net.cpp:156] Memory required for data: 1292125728
I0403 18:52:26.249178 23715 layer_factory.hpp:77] Creating layer inception_5a/1x1
I0403 18:52:26.249207 23715 net.cpp:91] Creating Layer inception_5a/1x1
I0403 18:52:26.249225 23715 net.cpp:425] inception_5a/1x1 <- pool4/3x3_s2_pool4/3x3_s2_0_split_0
I0403 18:52:26.249243 23715 net.cpp:399] inception_5a/1x1 -> inception_5a/1x1
I0403 18:52:26.251955 23715 net.cpp:141] Setting up inception_5a/1x1
I0403 18:52:26.251983 23715 net.cpp:148] Top shape: 24 256 7 7 (301056)
I0403 18:52:26.251997 23715 net.cpp:156] Memory required for data: 1293329952
I0403 18:52:26.252014 23715 layer_factory.hpp:77] Creating layer inception_5a/relu_1x1
I0403 18:52:26.252033 23715 net.cpp:91] Creating Layer inception_5a/relu_1x1
I0403 18:52:26.252050 23715 net.cpp:425] inception_5a/relu_1x1 <- inception_5a/1x1
I0403 18:52:26.252066 23715 net.cpp:386] inception_5a/relu_1x1 -> inception_5a/1x1 (in-place)
I0403 18:52:26.252365 23715 net.cpp:141] Setting up inception_5a/relu_1x1
I0403 18:52:26.252391 23715 net.cpp:148] Top shape: 24 256 7 7 (301056)
I0403 18:52:26.252405 23715 net.cpp:156] Memory required for data: 1294534176
I0403 18:52:26.252418 23715 layer_factory.hpp:77] Creating layer inception_5a/3x3_reduce
I0403 18:52:26.252441 23715 net.cpp:91] Creating Layer inception_5a/3x3_reduce
I0403 18:52:26.252459 23715 net.cpp:425] inception_5a/3x3_reduce <- pool4/3x3_s2_pool4/3x3_s2_0_split_1
I0403 18:52:26.252476 23715 net.cpp:399] inception_5a/3x3_reduce -> inception_5a/3x3_reduce
I0403 18:52:26.254824 23715 net.cpp:141] Setting up inception_5a/3x3_reduce
I0403 18:52:26.254853 23715 net.cpp:148] Top shape: 24 160 7 7 (188160)
I0403 18:52:26.254868 23715 net.cpp:156] Memory required for data: 1295286816
I0403 18:52:26.254885 23715 layer_factory.hpp:77] Creating layer inception_5a/relu_3x3_reduce
I0403 18:52:26.254904 23715 net.cpp:91] Creating Layer inception_5a/relu_3x3_reduce
I0403 18:52:26.254920 23715 net.cpp:425] inception_5a/relu_3x3_reduce <- inception_5a/3x3_reduce
I0403 18:52:26.254937 23715 net.cpp:386] inception_5a/relu_3x3_reduce -> inception_5a/3x3_reduce (in-place)
I0403 18:52:26.255116 23715 net.cpp:141] Setting up inception_5a/relu_3x3_reduce
I0403 18:52:26.255141 23715 net.cpp:148] Top shape: 24 160 7 7 (188160)
I0403 18:52:26.255153 23715 net.cpp:156] Memory required for data: 1296039456
I0403 18:52:26.255167 23715 layer_factory.hpp:77] Creating layer inception_5a/3x3
I0403 18:52:26.255192 23715 net.cpp:91] Creating Layer inception_5a/3x3
I0403 18:52:26.255208 23715 net.cpp:425] inception_5a/3x3 <- inception_5a/3x3_reduce
I0403 18:52:26.255226 23715 net.cpp:399] inception_5a/3x3 -> inception_5a/3x3
I0403 18:52:26.260010 23715 net.cpp:141] Setting up inception_5a/3x3
I0403 18:52:26.260040 23715 net.cpp:148] Top shape: 24 320 7 7 (376320)
I0403 18:52:26.260056 23715 net.cpp:156] Memory required for data: 1297544736
I0403 18:52:26.260073 23715 layer_factory.hpp:77] Creating layer inception_5a/relu_3x3
I0403 18:52:26.260090 23715 net.cpp:91] Creating Layer inception_5a/relu_3x3
I0403 18:52:26.260105 23715 net.cpp:425] inception_5a/relu_3x3 <- inception_5a/3x3
I0403 18:52:26.260123 23715 net.cpp:386] inception_5a/relu_3x3 -> inception_5a/3x3 (in-place)
I0403 18:52:26.260403 23715 net.cpp:141] Setting up inception_5a/relu_3x3
I0403 18:52:26.260434 23715 net.cpp:148] Top shape: 24 320 7 7 (376320)
I0403 18:52:26.260449 23715 net.cpp:156] Memory required for data: 1299050016
I0403 18:52:26.260463 23715 layer_factory.hpp:77] Creating layer inception_5a/5x5_reduce
I0403 18:52:26.260483 23715 net.cpp:91] Creating Layer inception_5a/5x5_reduce
I0403 18:52:26.260499 23715 net.cpp:425] inception_5a/5x5_reduce <- pool4/3x3_s2_pool4/3x3_s2_0_split_2
I0403 18:52:26.260519 23715 net.cpp:399] inception_5a/5x5_reduce -> inception_5a/5x5_reduce
I0403 18:52:26.261628 23715 net.cpp:141] Setting up inception_5a/5x5_reduce
I0403 18:52:26.261657 23715 net.cpp:148] Top shape: 24 32 7 7 (37632)
I0403 18:52:26.261673 23715 net.cpp:156] Memory required for data: 1299200544
I0403 18:52:26.261692 23715 layer_factory.hpp:77] Creating layer inception_5a/relu_5x5_reduce
I0403 18:52:26.261708 23715 net.cpp:91] Creating Layer inception_5a/relu_5x5_reduce
I0403 18:52:26.261723 23715 net.cpp:425] inception_5a/relu_5x5_reduce <- inception_5a/5x5_reduce
I0403 18:52:26.261741 23715 net.cpp:386] inception_5a/relu_5x5_reduce -> inception_5a/5x5_reduce (in-place)
I0403 18:52:26.262024 23715 net.cpp:141] Setting up inception_5a/relu_5x5_reduce
I0403 18:52:26.262051 23715 net.cpp:148] Top shape: 24 32 7 7 (37632)
I0403 18:52:26.262066 23715 net.cpp:156] Memory required for data: 1299351072
I0403 18:52:26.262080 23715 layer_factory.hpp:77] Creating layer inception_5a/5x5
I0403 18:52:26.262101 23715 net.cpp:91] Creating Layer inception_5a/5x5
I0403 18:52:26.262118 23715 net.cpp:425] inception_5a/5x5 <- inception_5a/5x5_reduce
I0403 18:52:26.262138 23715 net.cpp:399] inception_5a/5x5 -> inception_5a/5x5
I0403 18:52:26.263850 23715 net.cpp:141] Setting up inception_5a/5x5
I0403 18:52:26.263890 23715 net.cpp:148] Top shape: 24 128 7 7 (150528)
I0403 18:52:26.263907 23715 net.cpp:156] Memory required for data: 1299953184
I0403 18:52:26.263926 23715 layer_factory.hpp:77] Creating layer inception_5a/relu_5x5
I0403 18:52:26.263943 23715 net.cpp:91] Creating Layer inception_5a/relu_5x5
I0403 18:52:26.263960 23715 net.cpp:425] inception_5a/relu_5x5 <- inception_5a/5x5
I0403 18:52:26.263978 23715 net.cpp:386] inception_5a/relu_5x5 -> inception_5a/5x5 (in-place)
I0403 18:52:26.264165 23715 net.cpp:141] Setting up inception_5a/relu_5x5
I0403 18:52:26.264192 23715 net.cpp:148] Top shape: 24 128 7 7 (150528)
I0403 18:52:26.264207 23715 net.cpp:156] Memory required for data: 1300555296
I0403 18:52:26.264222 23715 layer_factory.hpp:77] Creating layer inception_5a/pool
I0403 18:52:26.264240 23715 net.cpp:91] Creating Layer inception_5a/pool
I0403 18:52:26.264255 23715 net.cpp:425] inception_5a/pool <- pool4/3x3_s2_pool4/3x3_s2_0_split_3
I0403 18:52:26.264278 23715 net.cpp:399] inception_5a/pool -> inception_5a/pool
I0403 18:52:26.264346 23715 net.cpp:141] Setting up inception_5a/pool
I0403 18:52:26.264371 23715 net.cpp:148] Top shape: 24 832 7 7 (978432)
I0403 18:52:26.264386 23715 net.cpp:156] Memory required for data: 1304469024
I0403 18:52:26.264400 23715 layer_factory.hpp:77] Creating layer inception_5a/pool_proj
I0403 18:52:26.264420 23715 net.cpp:91] Creating Layer inception_5a/pool_proj
I0403 18:52:26.264436 23715 net.cpp:425] inception_5a/pool_proj <- inception_5a/pool
I0403 18:52:26.264456 23715 net.cpp:399] inception_5a/pool_proj -> inception_5a/pool_proj
I0403 18:52:26.266705 23715 net.cpp:141] Setting up inception_5a/pool_proj
I0403 18:52:26.266732 23715 net.cpp:148] Top shape: 24 128 7 7 (150528)
I0403 18:52:26.266748 23715 net.cpp:156] Memory required for data: 1305071136
I0403 18:52:26.266767 23715 layer_factory.hpp:77] Creating layer inception_5a/relu_pool_proj
I0403 18:52:26.266787 23715 net.cpp:91] Creating Layer inception_5a/relu_pool_proj
I0403 18:52:26.266803 23715 net.cpp:425] inception_5a/relu_pool_proj <- inception_5a/pool_proj
I0403 18:52:26.266820 23715 net.cpp:386] inception_5a/relu_pool_proj -> inception_5a/pool_proj (in-place)
I0403 18:52:26.267107 23715 net.cpp:141] Setting up inception_5a/relu_pool_proj
I0403 18:52:26.267133 23715 net.cpp:148] Top shape: 24 128 7 7 (150528)
I0403 18:52:26.267148 23715 net.cpp:156] Memory required for data: 1305673248
I0403 18:52:26.267163 23715 layer_factory.hpp:77] Creating layer inception_5a/output
I0403 18:52:26.267180 23715 net.cpp:91] Creating Layer inception_5a/output
I0403 18:52:26.267197 23715 net.cpp:425] inception_5a/output <- inception_5a/1x1
I0403 18:52:26.267213 23715 net.cpp:425] inception_5a/output <- inception_5a/3x3
I0403 18:52:26.267230 23715 net.cpp:425] inception_5a/output <- inception_5a/5x5
I0403 18:52:26.267246 23715 net.cpp:425] inception_5a/output <- inception_5a/pool_proj
I0403 18:52:26.267263 23715 net.cpp:399] inception_5a/output -> inception_5a/output
I0403 18:52:26.267313 23715 net.cpp:141] Setting up inception_5a/output
I0403 18:52:26.267338 23715 net.cpp:148] Top shape: 24 832 7 7 (978432)
I0403 18:52:26.267351 23715 net.cpp:156] Memory required for data: 1309586976
I0403 18:52:26.267365 23715 layer_factory.hpp:77] Creating layer inception_5a/output_inception_5a/output_0_split
I0403 18:52:26.267381 23715 net.cpp:91] Creating Layer inception_5a/output_inception_5a/output_0_split
I0403 18:52:26.267396 23715 net.cpp:425] inception_5a/output_inception_5a/output_0_split <- inception_5a/output
I0403 18:52:26.267416 23715 net.cpp:399] inception_5a/output_inception_5a/output_0_split -> inception_5a/output_inception_5a/output_0_split_0
I0403 18:52:26.267436 23715 net.cpp:399] inception_5a/output_inception_5a/output_0_split -> inception_5a/output_inception_5a/output_0_split_1
I0403 18:52:26.267455 23715 net.cpp:399] inception_5a/output_inception_5a/output_0_split -> inception_5a/output_inception_5a/output_0_split_2
I0403 18:52:26.267474 23715 net.cpp:399] inception_5a/output_inception_5a/output_0_split -> inception_5a/output_inception_5a/output_0_split_3
I0403 18:52:26.267591 23715 net.cpp:141] Setting up inception_5a/output_inception_5a/output_0_split
I0403 18:52:26.267617 23715 net.cpp:148] Top shape: 24 832 7 7 (978432)
I0403 18:52:26.267634 23715 net.cpp:148] Top shape: 24 832 7 7 (978432)
I0403 18:52:26.267649 23715 net.cpp:148] Top shape: 24 832 7 7 (978432)
I0403 18:52:26.267664 23715 net.cpp:148] Top shape: 24 832 7 7 (978432)
I0403 18:52:26.267678 23715 net.cpp:156] Memory required for data: 1325241888
I0403 18:52:26.267690 23715 layer_factory.hpp:77] Creating layer inception_5b/1x1
I0403 18:52:26.267715 23715 net.cpp:91] Creating Layer inception_5b/1x1
I0403 18:52:26.267731 23715 net.cpp:425] inception_5b/1x1 <- inception_5a/output_inception_5a/output_0_split_0
I0403 18:52:26.267750 23715 net.cpp:399] inception_5b/1x1 -> inception_5b/1x1
I0403 18:52:26.271440 23715 net.cpp:141] Setting up inception_5b/1x1
I0403 18:52:26.271469 23715 net.cpp:148] Top shape: 24 384 7 7 (451584)
I0403 18:52:26.271484 23715 net.cpp:156] Memory required for data: 1327048224
I0403 18:52:26.271502 23715 layer_factory.hpp:77] Creating layer inception_5b/relu_1x1
I0403 18:52:26.271522 23715 net.cpp:91] Creating Layer inception_5b/relu_1x1
I0403 18:52:26.271541 23715 net.cpp:425] inception_5b/relu_1x1 <- inception_5b/1x1
I0403 18:52:26.271560 23715 net.cpp:386] inception_5b/relu_1x1 -> inception_5b/1x1 (in-place)
I0403 18:52:26.271864 23715 net.cpp:141] Setting up inception_5b/relu_1x1
I0403 18:52:26.271890 23715 net.cpp:148] Top shape: 24 384 7 7 (451584)
I0403 18:52:26.271904 23715 net.cpp:156] Memory required for data: 1328854560
I0403 18:52:26.271919 23715 layer_factory.hpp:77] Creating layer inception_5b/3x3_reduce
I0403 18:52:26.271940 23715 net.cpp:91] Creating Layer inception_5b/3x3_reduce
I0403 18:52:26.271957 23715 net.cpp:425] inception_5b/3x3_reduce <- inception_5a/output_inception_5a/output_0_split_1
I0403 18:52:26.271978 23715 net.cpp:399] inception_5b/3x3_reduce -> inception_5b/3x3_reduce
I0403 18:52:26.274627 23715 net.cpp:141] Setting up inception_5b/3x3_reduce
I0403 18:52:26.274657 23715 net.cpp:148] Top shape: 24 192 7 7 (225792)
I0403 18:52:26.274672 23715 net.cpp:156] Memory required for data: 1329757728
I0403 18:52:26.274689 23715 layer_factory.hpp:77] Creating layer inception_5b/relu_3x3_reduce
I0403 18:52:26.274708 23715 net.cpp:91] Creating Layer inception_5b/relu_3x3_reduce
I0403 18:52:26.274725 23715 net.cpp:425] inception_5b/relu_3x3_reduce <- inception_5b/3x3_reduce
I0403 18:52:26.274742 23715 net.cpp:386] inception_5b/relu_3x3_reduce -> inception_5b/3x3_reduce (in-place)
I0403 18:52:26.274933 23715 net.cpp:141] Setting up inception_5b/relu_3x3_reduce
I0403 18:52:26.274960 23715 net.cpp:148] Top shape: 24 192 7 7 (225792)
I0403 18:52:26.274976 23715 net.cpp:156] Memory required for data: 1330660896
I0403 18:52:26.274989 23715 layer_factory.hpp:77] Creating layer inception_5b/3x3
I0403 18:52:26.275010 23715 net.cpp:91] Creating Layer inception_5b/3x3
I0403 18:52:26.275028 23715 net.cpp:425] inception_5b/3x3 <- inception_5b/3x3_reduce
I0403 18:52:26.275048 23715 net.cpp:399] inception_5b/3x3 -> inception_5b/3x3
I0403 18:52:26.281666 23715 net.cpp:141] Setting up inception_5b/3x3
I0403 18:52:26.281693 23715 net.cpp:148] Top shape: 24 384 7 7 (451584)
I0403 18:52:26.281708 23715 net.cpp:156] Memory required for data: 1332467232
I0403 18:52:26.281726 23715 layer_factory.hpp:77] Creating layer inception_5b/relu_3x3
I0403 18:52:26.281747 23715 net.cpp:91] Creating Layer inception_5b/relu_3x3
I0403 18:52:26.281764 23715 net.cpp:425] inception_5b/relu_3x3 <- inception_5b/3x3
I0403 18:52:26.281781 23715 net.cpp:386] inception_5b/relu_3x3 -> inception_5b/3x3 (in-place)
I0403 18:52:26.282097 23715 net.cpp:141] Setting up inception_5b/relu_3x3
I0403 18:52:26.282122 23715 net.cpp:148] Top shape: 24 384 7 7 (451584)
I0403 18:52:26.282135 23715 net.cpp:156] Memory required for data: 1334273568
I0403 18:52:26.282150 23715 layer_factory.hpp:77] Creating layer inception_5b/5x5_reduce
I0403 18:52:26.282186 23715 net.cpp:91] Creating Layer inception_5b/5x5_reduce
I0403 18:52:26.282204 23715 net.cpp:425] inception_5b/5x5_reduce <- inception_5a/output_inception_5a/output_0_split_2
I0403 18:52:26.282227 23715 net.cpp:399] inception_5b/5x5_reduce -> inception_5b/5x5_reduce
I0403 18:52:26.283438 23715 net.cpp:141] Setting up inception_5b/5x5_reduce
I0403 18:52:26.283465 23715 net.cpp:148] Top shape: 24 48 7 7 (56448)
I0403 18:52:26.283479 23715 net.cpp:156] Memory required for data: 1334499360
I0403 18:52:26.283496 23715 layer_factory.hpp:77] Creating layer inception_5b/relu_5x5_reduce
I0403 18:52:26.283515 23715 net.cpp:91] Creating Layer inception_5b/relu_5x5_reduce
I0403 18:52:26.283532 23715 net.cpp:425] inception_5b/relu_5x5_reduce <- inception_5b/5x5_reduce
I0403 18:52:26.283553 23715 net.cpp:386] inception_5b/relu_5x5_reduce -> inception_5b/5x5_reduce (in-place)
I0403 18:52:26.283921 23715 net.cpp:141] Setting up inception_5b/relu_5x5_reduce
I0403 18:52:26.283946 23715 net.cpp:148] Top shape: 24 48 7 7 (56448)
I0403 18:52:26.283959 23715 net.cpp:156] Memory required for data: 1334725152
I0403 18:52:26.283973 23715 layer_factory.hpp:77] Creating layer inception_5b/5x5
I0403 18:52:26.283993 23715 net.cpp:91] Creating Layer inception_5b/5x5
I0403 18:52:26.284008 23715 net.cpp:425] inception_5b/5x5 <- inception_5b/5x5_reduce
I0403 18:52:26.284026 23715 net.cpp:399] inception_5b/5x5 -> inception_5b/5x5
I0403 18:52:26.285992 23715 net.cpp:141] Setting up inception_5b/5x5
I0403 18:52:26.286018 23715 net.cpp:148] Top shape: 24 128 7 7 (150528)
I0403 18:52:26.286032 23715 net.cpp:156] Memory required for data: 1335327264
I0403 18:52:26.286049 23715 layer_factory.hpp:77] Creating layer inception_5b/relu_5x5
I0403 18:52:26.286068 23715 net.cpp:91] Creating Layer inception_5b/relu_5x5
I0403 18:52:26.286084 23715 net.cpp:425] inception_5b/relu_5x5 <- inception_5b/5x5
I0403 18:52:26.286100 23715 net.cpp:386] inception_5b/relu_5x5 -> inception_5b/5x5 (in-place)
I0403 18:52:26.286289 23715 net.cpp:141] Setting up inception_5b/relu_5x5
I0403 18:52:26.286314 23715 net.cpp:148] Top shape: 24 128 7 7 (150528)
I0403 18:52:26.286329 23715 net.cpp:156] Memory required for data: 1335929376
I0403 18:52:26.286342 23715 layer_factory.hpp:77] Creating layer inception_5b/pool
I0403 18:52:26.286358 23715 net.cpp:91] Creating Layer inception_5b/pool
I0403 18:52:26.286375 23715 net.cpp:425] inception_5b/pool <- inception_5a/output_inception_5a/output_0_split_3
I0403 18:52:26.286393 23715 net.cpp:399] inception_5b/pool -> inception_5b/pool
I0403 18:52:26.286466 23715 net.cpp:141] Setting up inception_5b/pool
I0403 18:52:26.286489 23715 net.cpp:148] Top shape: 24 832 7 7 (978432)
I0403 18:52:26.286502 23715 net.cpp:156] Memory required for data: 1339843104
I0403 18:52:26.286516 23715 layer_factory.hpp:77] Creating layer inception_5b/pool_proj
I0403 18:52:26.286542 23715 net.cpp:91] Creating Layer inception_5b/pool_proj
I0403 18:52:26.286561 23715 net.cpp:425] inception_5b/pool_proj <- inception_5b/pool
I0403 18:52:26.286578 23715 net.cpp:399] inception_5b/pool_proj -> inception_5b/pool_proj
I0403 18:52:26.288795 23715 net.cpp:141] Setting up inception_5b/pool_proj
I0403 18:52:26.288823 23715 net.cpp:148] Top shape: 24 128 7 7 (150528)
I0403 18:52:26.288838 23715 net.cpp:156] Memory required for data: 1340445216
I0403 18:52:26.288856 23715 layer_factory.hpp:77] Creating layer inception_5b/relu_pool_proj
I0403 18:52:26.288874 23715 net.cpp:91] Creating Layer inception_5b/relu_pool_proj
I0403 18:52:26.288890 23715 net.cpp:425] inception_5b/relu_pool_proj <- inception_5b/pool_proj
I0403 18:52:26.288908 23715 net.cpp:386] inception_5b/relu_pool_proj -> inception_5b/pool_proj (in-place)
I0403 18:52:26.289191 23715 net.cpp:141] Setting up inception_5b/relu_pool_proj
I0403 18:52:26.289216 23715 net.cpp:148] Top shape: 24 128 7 7 (150528)
I0403 18:52:26.289230 23715 net.cpp:156] Memory required for data: 1341047328
I0403 18:52:26.289243 23715 layer_factory.hpp:77] Creating layer inception_5b/output
I0403 18:52:26.289263 23715 net.cpp:91] Creating Layer inception_5b/output
I0403 18:52:26.289293 23715 net.cpp:425] inception_5b/output <- inception_5b/1x1
I0403 18:52:26.289309 23715 net.cpp:425] inception_5b/output <- inception_5b/3x3
I0403 18:52:26.289325 23715 net.cpp:425] inception_5b/output <- inception_5b/5x5
I0403 18:52:26.289340 23715 net.cpp:425] inception_5b/output <- inception_5b/pool_proj
I0403 18:52:26.289356 23715 net.cpp:399] inception_5b/output -> inception_5b/output
I0403 18:52:26.289407 23715 net.cpp:141] Setting up inception_5b/output
I0403 18:52:26.289429 23715 net.cpp:148] Top shape: 24 1024 7 7 (1204224)
I0403 18:52:26.289444 23715 net.cpp:156] Memory required for data: 1345864224
I0403 18:52:26.289458 23715 layer_factory.hpp:77] Creating layer pool5/7x7_s1
I0403 18:52:26.289474 23715 net.cpp:91] Creating Layer pool5/7x7_s1
I0403 18:52:26.289489 23715 net.cpp:425] pool5/7x7_s1 <- inception_5b/output
I0403 18:52:26.289508 23715 net.cpp:399] pool5/7x7_s1 -> pool5/7x7_s1
I0403 18:52:26.289722 23715 net.cpp:141] Setting up pool5/7x7_s1
I0403 18:52:26.289748 23715 net.cpp:148] Top shape: 24 1024 1 1 (24576)
I0403 18:52:26.289763 23715 net.cpp:156] Memory required for data: 1345962528
I0403 18:52:26.289777 23715 layer_factory.hpp:77] Creating layer pool5/drop_7x7_s1
I0403 18:52:26.289794 23715 net.cpp:91] Creating Layer pool5/drop_7x7_s1
I0403 18:52:26.289809 23715 net.cpp:425] pool5/drop_7x7_s1 <- pool5/7x7_s1
I0403 18:52:26.289825 23715 net.cpp:386] pool5/drop_7x7_s1 -> pool5/7x7_s1 (in-place)
I0403 18:52:26.289873 23715 net.cpp:141] Setting up pool5/drop_7x7_s1
I0403 18:52:26.289896 23715 net.cpp:148] Top shape: 24 1024 1 1 (24576)
I0403 18:52:26.289909 23715 net.cpp:156] Memory required for data: 1346060832
I0403 18:52:26.289923 23715 layer_factory.hpp:77] Creating layer loss3/classifier_plantvillage
I0403 18:52:26.289943 23715 net.cpp:91] Creating Layer loss3/classifier_plantvillage
I0403 18:52:26.289959 23715 net.cpp:425] loss3/classifier_plantvillage <- pool5/7x7_s1
I0403 18:52:26.289976 23715 net.cpp:399] loss3/classifier_plantvillage -> loss3/classifier_plantvillage
I0403 18:52:26.290379 23715 net.cpp:141] Setting up loss3/classifier_plantvillage
I0403 18:52:26.290401 23715 net.cpp:148] Top shape: 24 38 (912)
I0403 18:52:26.290416 23715 net.cpp:156] Memory required for data: 1346064480
I0403 18:52:26.290432 23715 layer_factory.hpp:77] Creating layer loss3/classifier_plantvillage_loss3/classifier_plantvillage_0_split
I0403 18:52:26.290448 23715 net.cpp:91] Creating Layer loss3/classifier_plantvillage_loss3/classifier_plantvillage_0_split
I0403 18:52:26.290463 23715 net.cpp:425] loss3/classifier_plantvillage_loss3/classifier_plantvillage_0_split <- loss3/classifier_plantvillage
I0403 18:52:26.290483 23715 net.cpp:399] loss3/classifier_plantvillage_loss3/classifier_plantvillage_0_split -> loss3/classifier_plantvillage_loss3/classifier_plantvillage_0_split_0
I0403 18:52:26.290503 23715 net.cpp:399] loss3/classifier_plantvillage_loss3/classifier_plantvillage_0_split -> loss3/classifier_plantvillage_loss3/classifier_plantvillage_0_split_1
I0403 18:52:26.290523 23715 net.cpp:399] loss3/classifier_plantvillage_loss3/classifier_plantvillage_0_split -> loss3/classifier_plantvillage_loss3/classifier_plantvillage_0_split_2
I0403 18:52:26.290545 23715 net.cpp:399] loss3/classifier_plantvillage_loss3/classifier_plantvillage_0_split -> loss3/classifier_plantvillage_loss3/classifier_plantvillage_0_split_3
I0403 18:52:26.290644 23715 net.cpp:141] Setting up loss3/classifier_plantvillage_loss3/classifier_plantvillage_0_split
I0403 18:52:26.290668 23715 net.cpp:148] Top shape: 24 38 (912)
I0403 18:52:26.290684 23715 net.cpp:148] Top shape: 24 38 (912)
I0403 18:52:26.290699 23715 net.cpp:148] Top shape: 24 38 (912)
I0403 18:52:26.290714 23715 net.cpp:148] Top shape: 24 38 (912)
I0403 18:52:26.290726 23715 net.cpp:156] Memory required for data: 1346079072
I0403 18:52:26.290740 23715 layer_factory.hpp:77] Creating layer loss1/loss
I0403 18:52:26.290758 23715 net.cpp:91] Creating Layer loss1/loss
I0403 18:52:26.290774 23715 net.cpp:425] loss1/loss <- loss1/classifier_plantvillage_loss1/classifier_plantvillage_0_split_0
I0403 18:52:26.290804 23715 net.cpp:425] loss1/loss <- label_data_1_split_0
…
