…
I0403 18:56:31.575702 23945 net.cpp:313] The NetState phase (1) differed from the phase (0) specified by a rule in layer data
I0403 18:56:31.576885 23945 net.cpp:49] Initializing net from parameters: 
state {
  phase: TEST
}
layer {
  name: "data"
  type: "Data"
  top: "data"
  top: "label"
  include {
    phase: TEST
  }
  transform_param {
    mirror: false
    crop_size: 224
    mean_file: "/home/mohanty/data/final_dataset/lmdb/segmented-40-60/mean.binaryproto"
  }
  data_param {
    source: "/home/mohanty/data/final_dataset/lmdb/segmented-40-60/test_db"
    batch_size: 24
    backend: LMDB
  }
}
layer {
  name: "conv1/7x7_s2"
  type: "Convolution"
  bottom: "data"
  top: "conv1/7x7_s2"
  param {
    lr_mult: 1
    decay_mult: 1
  }
  param {
    lr_mult: 2
    decay_mult: 0
  }
  convolution_param {
    num_output: 64
    pad: 3
    kernel_size: 7
    stride: 2
    weight_filler {
      type: "xavier"
      std: 0.1
    }
    bias_filler {
      type: "constant"
      value: 0.2
    }
  }
}
layer {
  name: "conv1/relu_7x7"
  type: "ReLU"
  bottom: "conv1/7x7_s2"
  top: "conv1/7x7_s2"
}
layer {
  name: "pool1/3x3_s2"
  type: "Pooling"
  bottom: "conv1/7x7_s2"
  top: "pool1/3x3_s2"
  pooling_param {
    pool: MAX
    kernel_size: 3
    stride: 2
  }
}
layer {
  name: "pool1/norm1"
  type: "LRN"
  bottom: "pool1/3x3_s2"
  top: "pool1/norm1"
  lrn_param {
    local_size: 5
    alpha: 0.0001
    beta: 0.75
  }
}
layer {
  name: "conv2/3x3_reduce"
  type: "Convolution"
  bottom: "pool1/norm1"
  top: "conv2/3x3_reduce"
  param {
    lr_mult: 1
    decay_mult: 1
  }
  param {
    lr_mult: 2
    decay_mult: 0
  }
  convolution_param {
    num_output: 64
    kernel_size: 1
    weight_filler {
      type: "xavier"
      std: 0.1
    }
    bias_filler {
      type: "constant"
      value: 0.2
    }
  }
}
layer {
  name: "conv2/relu_3x3_reduce"
  type: "ReLU"
  bottom: "conv2/3x3_reduce"
  top: "conv2/3x3_reduce"
}
layer {
  name: "conv2/3x3"
  type: "Convolution"
  bottom: "conv2/3x3_reduce"
  top: "conv2/3x3"
  param {
    lr_mult: 1
    decay_mult: 1
  }
  param {
    lr_mult: 2
    decay_mult: 0
  }
  convolution_param {
    num_output: 192
    pad: 1
    kernel_size: 3
    weight_filler {
      type: "xavier"
      std: 0.03
    }
    bias_filler {
      type: "constant"
      value: 0.2
    }
  }
}
layer {
  name: "conv2/relu_3x3"
  type: "ReLU"
  bottom: "conv2/3x3"
  top: "conv2/3x3"
}
layer {
  name: "conv2/norm2"
  type: "LRN"
  bottom: "conv2/3x3"
  top: "conv2/norm2"
  lrn_param {
    local_size: 5
    alpha: 0.0001
    beta: 0.75
  }
}
layer {
  name: "pool2/3x3_s2"
  type: "Pooling"
  bottom: "conv2/norm2"
  top: "pool2/3x3_s2"
  pooling_param {
    pool: MAX
    kernel_size: 3
    stride: 2
  }
}
layer {
  name: "inception_3a/1x1"
  type: "Convolution"
  bottom: "pool2/3x3_s2"
  top: "inception_3a/1x1"
  param {
    lr_mult: 1
    decay_mult: 1
  }
  param {
    lr_mult: 2
    decay_mult: 0
  }
  convolution_param {
    num_output: 64
    kernel_size: 1
    weight_filler {
      type: "xavier"
      std: 0.03
    }
    bias_filler {
      type: "constant"
      value: 0.2
    }
  }
}
layer {
  name: "inception_3a/relu_1x1"
  type: "ReLU"
  bottom: "inception_3a/1x1"
  top: "inception_3a/1x1"
}
layer {
  name: "inception_3a/3x3_reduce"
  type: "Convolution"
  bottom: "pool2/3x3_s2"
  top: "inception_3a/3x3_reduce"
  param {
    lr_mult: 1
    decay_mult: 1
  }
  param {
    lr_mult: 2
    decay_mult: 0
  }
  convolution_param {
    num_output: 96
    kernel_size: 1
    weight_filler {
      type: "xavier"
      std: 0.09
    }
    bias_filler {
      type: "constant"
      value: 0.2
    }
  }
}
layer {
  name: "inception_3a/relu_3x3_reduce"
  type: "ReLU"
  bottom: "inception_3a/3x3_reduce"
  top: "inception_3a/3x3_reduce"
}
layer {
  name: "inception_3a/3x3"
  type: "Convolution"
  bottom: "inception_3a/3x3_reduce"
  top: "inception_3a/3x3"
  param {
    lr_mult: 1
    decay_mult: 1
  }
  param {
    lr_mult: 2
    decay_mult: 0
  }
  convolution_param {
    num_output: 128
    pad: 1
    kernel_size: 3
    weight_filler {
      type: "xavier"
      std: 0.03
    }
    bias_filler {
      type: "constant"
      value: 0.2
    }
  }
}
layer {
  name: "inception_3a/relu_3x3"
  type: "ReLU"
  bottom: "inception_3a/3x3"
  top: "inception_3a/3x3"
}
layer {
  name: "inception_3a/5x5_reduce"
  type: "Convolution"
  bottom: "pool2/3x3_s2"
  top: "inception_3a/5x5_reduce"
  param {
    lr_mult: 1
    decay_mult: 1
  }
  param {
    lr_mult: 2
    decay_mult: 0
  }
  convolution_param {
    num_output: 16
    kernel_size: 1
    weight_filler {
      type: "xavier"
      std: 0.2
    }
    bias_filler {
      type: "constant"
      value: 0.2
    }
  }
}
layer {
  name: "inception_3a/relu_5x5_reduce"
  type: "ReLU"
  bottom: "inception_3a/5x5_reduce"
  top: "inception_3a/5x5_reduce"
}
layer {
  name: "inception_3a/5x5"
  type: "Convolution"
  bottom: "inception_3a/5x5_reduce"
  top: "inception_3a/5x5"
  param {
    lr_mult: 1
    decay_mult: 1
  }
  param {
    lr_mult: 2
    decay_mult: 0
  }
  convolution_param {
    num_output: 32
    pad: 2
    kernel_size: 5
    weight_filler {
      type: "xavier"
      std: 0.03
    }
    bias_filler {
      type: "constant"
      value: 0.2
    }
  }
}
layer {
  name: "inception_3a/relu_5x5"
  type: "ReLU"
  bottom: "inception_3a/5x5"
  top: "inception_3a/5x5"
}
layer {
  name: "inception_3a/pool"
  type: "Pooling"
  bottom: "pool2/3x3_s2"
  top: "inception_3a/pool"
  pooling_param {
    pool: MAX
    kernel_size: 3
    stride: 1
    pad: 1
  }
}
layer {
  name: "inception_3a/pool_proj"
  type: "Convolution"
  bottom: "inception_3a/pool"
  top: "inception_3a/pool_proj"
  param {
    lr_mult: 1
    decay_mult: 1
  }
  param {
    lr_mult: 2
    decay_mult: 0
  }
  convolution_param {
    num_output: 32
    kernel_size: 1
    weight_filler {
      type: "xavier"
      std: 0.1
    }
    bias_filler {
      type: "constant"
      value: 0.2
    }
  }
}
layer {
  name: "inception_3a/relu_pool_proj"
  type: "ReLU"
  bottom: "inception_3a/pool_proj"
  top: "inception_3a/pool_proj"
}
layer {
  name: "inception_3a/output"
  type: "Concat"
  bottom: "inception_3a/1x1"
  bottom: "inception_3a/3x3"
  bottom: "inception_3a/5x5"
  bottom: "inception_3a/pool_proj"
  top: "inception_3a/output"
}
layer {
  name: "inception_3b/1x1"
  type: "Convolution"
  bottom: "inception_3a/output"
  top: "inception_3b/1x1"
  param {
    lr_mult: 1
    decay_mult: 1
  }
  param {
    lr_mult: 2
    decay_mult: 0
  }
  convolution_param {
    num_output: 128
    kernel_size: 1
    weight_filler {
      type: "xavier"
      std: 0.03
    }
    bias_filler {
      type: "constant"
      value: 0.2
    }
  }
}
layer {
  name: "inception_3b/relu_1x1"
  type: "ReLU"
  bottom: "inception_3b/1x1"
  top: "inception_3b/1x1"
}
layer {
  name: "inception_3b/3x3_reduce"
  type: "Convolution"
  bottom: "inception_3a/output"
  top: "inception_3b/3x3_reduce"
  param {
    lr_mult: 1
    decay_mult: 1
  }
  param {
    lr_mult: 2
    decay_mult: 0
  }
  convolution_param {
    num_output: 128
    kernel_size: 1
    weight_filler {
      type: "xavier"
      std: 0.09
    }
    bias_filler {
      type: "constant"
      value: 0.2
    }
  }
}
layer {
  name: "inception_3b/relu_3x3_reduce"
  type: "ReLU"
  bottom: "inception_3b/3x3_reduce"
  top: "inception_3b/3x3_reduce"
}
layer {
  name: "inception_3b/3x3"
  type: "Convolution"
  bottom: "inception_3b/3x3_reduce"
  top: "inception_3b/3x3"
  param {
    lr_mult: 1
    decay_mult: 1
  }
  param {
    lr_mult: 2
    decay_mult: 0
  }
  convolution_param {
    num_output: 192
    pad: 1
    kernel_size: 3
    weight_filler {
      type: "xavier"
      std: 0.03
    }
    bias_filler {
      type: "constant"
      value: 0.2
    }
  }
}
layer {
  name: "inception_3b/relu_3x3"
  type: "ReLU"
  bottom: "inception_3b/3x3"
  top: "inception_3b/3x3"
}
layer {
  name: "inception_3b/5x5_reduce"
  type: "Convolution"
  bottom: "inception_3a/output"
  top: "inception_3b/5x5_reduce"
  param {
    lr_mult: 1
    decay_mult: 1
  }
  param {
    lr_mult: 2
    decay_mult: 0
  }
  convolution_param {
    num_output: 32
    kernel_size: 1
    weight_filler {
      type: "xavier"
      std: 0.2
    }
    bias_filler {
      type: "constant"
      value: 0.2
    }
  }
}
layer {
  name: "inception_3b/relu_5x5_reduce"
  type: "ReLU"
  bottom: "inception_3b/5x5_reduce"
  top: "inception_3b/5x5_reduce"
}
layer {
  name: "inception_3b/5x5"
  type: "Convolution"
  bottom: "inception_3b/5x5_reduce"
  top: "inception_3b/5x5"
  param {
    lr_mult: 1
    decay_mult: 1
  }
  param {
    lr_mult: 2
    decay_mult: 0
  }
  convolution_param {
    num_output: 96
    pad: 2
    kernel_size: 5
    weight_filler {
      type: "xavier"
      std: 0.03
    }
    bias_filler {
      type: "constant"
      value: 0.2
    }
  }
}
layer {
  name: "inception_3b/relu_5x5"
  type: "ReLU"
  bottom: "inception_3b/5x5"
  top: "inception_3b/5x5"
}
layer {
  name: "inception_3b/pool"
  type: "Pooling"
  bottom: "inception_3a/output"
  top: "inception_3b/pool"
  pooling_param {
    pool: MAX
    kernel_size: 3
    stride: 1
    pad: 1
  }
}
layer {
  name: "inception_3b/pool_proj"
  type: "Convolution"
  bottom: "inception_3b/pool"
  top: "inception_3b/pool_proj"
  param {
    lr_mult: 1
    decay_mult: 1
  }
  param {
    lr_mult: 2
    decay_mult: 0
  }
  convolution_param {
    num_output: 64
    kernel_size: 1
    weight_filler {
      type: "xavier"
      std: 0.1
    }
    bias_filler {
      type: "constant"
      value: 0.2
    }
  }
}
layer {
  name: "inception_3b/relu_pool_proj"
  type: "ReLU"
  bottom: "inception_3b/pool_proj"
  top: "inception_3b/pool_proj"
}
layer {
  name: "inception_3b/output"
  type: "Concat"
  bottom: "inception_3b/1x1"
  bottom: "inception_3b/3x3"
  bottom: "inception_3b/5x5"
  bottom: "inception_3b/pool_proj"
  top: "inception_3b/output"
}
layer {
  name: "pool3/3x3_s2"
  type: "Pooling"
  bottom: "inception_3b/output"
  top: "pool3/3x3_s2"
  pooling_param {
    pool: MAX
    kernel_size: 3
    stride: 2
  }
}
layer {
  name: "inception_4a/1x1"
  type: "Convolution"
  bottom: "pool3/3x3_s2"
  top: "inception_4a/1x1"
  param {
    lr_mult: 1
    decay_mult: 1
  }
  param {
    lr_mult: 2
    decay_mult: 0
  }
  convolution_param {
    num_output: 192
    kernel_size: 1
    weight_filler {
      type: "xavier"
      std: 0.03
    }
    bias_filler {
      type: "constant"
      value: 0.2
    }
  }
}
layer {
  name: "inception_4a/relu_1x1"
  type: "ReLU"
  bottom: "inception_4a/1x1"
  top: "inception_4a/1x1"
}
layer {
  name: "inception_4a/3x3_reduce"
  type: "Convolution"
  bottom: "pool3/3x3_s2"
  top: "inception_4a/3x3_reduce"
  param {
    lr_mult: 1
    decay_mult: 1
  }
  param {
    lr_mult: 2
    decay_mult: 0
  }
  convolution_param {
    num_output: 96
    kernel_size: 1
    weight_filler {
      type: "xavier"
      std: 0.09
    }
    bias_filler {
      type: "constant"
      value: 0.2
    }
  }
}
layer {
  name: "inception_4a/relu_3x3_reduce"
  type: "ReLU"
  bottom: "inception_4a/3x3_reduce"
  top: "inception_4a/3x3_reduce"
}
layer {
  name: "inception_4a/3x3"
  type: "Convolution"
  bottom: "inception_4a/3x3_reduce"
  top: "inception_4a/3x3"
  param {
    lr_mult: 1
    decay_mult: 1
  }
  param {
    lr_mult: 2
    decay_mult: 0
  }
  convolution_param {
    num_output: 208
    pad: 1
    kernel_size: 3
    weight_filler {
      type: "xavier"
      std: 0.03
    }
    bias_filler {
      type: "constant"
      value: 0.2
    }
  }
}
layer {
  name: "inception_4a/relu_3x3"
  type: "ReLU"
  bottom: "inception_4a/3x3"
  top: "inception_4a/3x3"
}
layer {
  name: "inception_4a/5x5_reduce"
  type: "Convolution"
  bottom: "pool3/3x3_s2"
  top: "inception_4a/5x5_reduce"
  param {
    lr_mult: 1
    decay_mult: 1
  }
  param {
    lr_mult: 2
    decay_mult: 0
  }
  convolution_param {
    num_output: 16
    kernel_size: 1
    weight_filler {
      type: "xavier"
      std: 0.2
    }
    bias_filler {
      type: "constant"
      value: 0.2
    }
  }
}
layer {
  name: "inception_4a/relu_5x5_reduce"
  type: "ReLU"
  bottom: "inception_4a/5x5_reduce"
  top: "inception_4a/5x5_reduce"
}
layer {
  name: "inception_4a/5x5"
  type: "Convolution"
  bottom: "inception_4a/5x5_reduce"
  top: "inception_4a/5x5"
  param {
    lr_mult: 1
    decay_mult: 1
  }
  param {
    lr_mult: 2
    decay_mult: 0
  }
  convolution_param {
    num_output: 48
    pad: 2
    kernel_size: 5
    weight_filler {
      type: "xavier"
      std: 0.03
    }
    bias_filler {
      type: "constant"
      value: 0.2
    }
  }
}
layer {
  name: "inception_4a/relu_5x5"
  type: "ReLU"
  bottom: "inception_4a/5x5"
  top: "inception_4a/5x5"
}
layer {
  name: "inception_4a/pool"
  type: "Pooling"
  bottom: "pool3/3x3_s2"
  top: "inception_4a/pool"
  pooling_param {
    pool: MAX
    kernel_size: 3
    stride: 1
    pad: 1
  }
}
layer {
  name: "inception_4a/pool_proj"
  type: "Convolution"
  bottom: "inception_4a/pool"
  top: "inception_4a/pool_proj"
  param {
    lr_mult: 1
    decay_mult: 1
  }
  param {
    lr_mult: 2
    decay_mult: 0
  }
  convolution_param {
    num_output: 64
    kernel_size: 1
    weight_filler {
      type: "xavier"
      std: 0.1
    }
    bias_filler {
      type: "constant"
      value: 0.2
    }
  }
}
layer {
  name: "inception_4a/relu_pool_proj"
  type: "ReLU"
  bottom: "inception_4a/pool_proj"
  top: "inception_4a/pool_proj"
}
layer {
  name: "inception_4a/output"
  type: "Concat"
  bottom: "inception_4a/1x1"
  bottom: "inception_4a/3x3"
  bottom: "inception_4a/5x5"
  bottom: "inception_4a/pool_proj"
  top: "inception_4a/output"
}
layer {
  name: "loss1/ave_pool"
  type: "Pooling"
  bottom: "inception_4a/output"
  top: "loss1/ave_pool"
  pooling_param {
    pool: AVE
    kernel_size: 5
    stride: 3
  }
}
layer {
  name: "loss1/conv"
  type: "Convolution"
  bottom: "loss1/ave_pool"
  top: "loss1/conv"
  param {
    lr_mult: 1
    decay_mult: 1
  }
  param {
    lr_mult: 2
    decay_mult: 0
  }
  convolution_param {
    num_output: 128
    kernel_size: 1
    weight_filler {
      type: "xavier"
      std: 0.08
    }
    bias_filler {
      type: "constant"
      value: 0.2
    }
  }
}
layer {
  name: "loss1/relu_conv"
  type: "ReLU"
  bottom: "loss1/conv"
  top: "loss1/conv"
}
layer {
  name: "loss1/fc"
  type: "InnerProduct"
  bottom: "loss1/conv"
  top: "loss1/fc"
  param {
    lr_mult: 1
    decay_mult: 1
  }
  param {
    lr_mult: 2
    decay_mult: 0
  }
  inner_product_param {
    num_output: 1024
    weight_filler {
      type: "xavier"
      std: 0.02
    }
    bias_filler {
      type: "constant"
      value: 0.2
    }
  }
}
layer {
  name: "loss1/relu_fc"
  type: "ReLU"
  bottom: "loss1/fc"
  top: "loss1/fc"
}
layer {
  name: "loss1/drop_fc"
  type: "Dropout"
  bottom: "loss1/fc"
  top: "loss1/fc"
  dropout_param {
    dropout_ratio: 0.7
  }
}
layer {
  name: "loss1/classifier_plantvillage"
  type: "InnerProduct"
  bottom: "loss1/fc"
  top: "loss1/classifier_plantvillage"
  param {
    lr_mult: 1
    decay_mult: 1
  }
  param {
    lr_mult: 2
    decay_mult: 0
  }
  inner_product_param {
    num_output: 38
    weight_filler {
      type: "xavier"
      std: 0.0009765625
    }
    bias_filler {
      type: "constant"
      value: 0
    }
  }
}
layer {
  name: "inception_4b/1x1"
  type: "Convolution"
  bottom: "inception_4a/output"
  top: "inception_4b/1x1"
  param {
    lr_mult: 1
    decay_mult: 1
  }
  param {
    lr_mult: 2
    decay_mult: 0
  }
  convolution_param {
    num_output: 160
    kernel_size: 1
    weight_filler {
      type: "xavier"
      std: 0.03
    }
    bias_filler {
      type: "constant"
      value: 0.2
    }
  }
}
layer {
  name: "inception_4b/relu_1x1"
  type: "ReLU"
  bottom: "inception_4b/1x1"
  top: "inception_4b/1x1"
}
layer {
  name: "inception_4b/3x3_reduce"
  type: "Convolution"
  bottom: "inception_4a/output"
  top: "inception_4b/3x3_reduce"
  param {
    lr_mult: 1
    decay_mult: 1
  }
  param {
    lr_mult: 2
    decay_mult: 0
  }
  convolution_param {
    num_output: 112
    kernel_size: 1
    weight_filler {
      type: "xavier"
      std: 0.09
    }
    bias_filler {
      type: "constant"
      value: 0.2
    }
  }
}
layer {
  name: "inception_4b/relu_3x3_reduce"
  type: "ReLU"
  bottom: "inception_4b/3x3_reduce"
  top: "inception_4b/3x3_reduce"
}
layer {
  name: "inception_4b/3x3"
  type: "Convolution"
  bottom: "inception_4b/3x3_reduce"
  top: "inception_4b/3x3"
  param {
    lr_mult: 1
    decay_mult: 1
  }
  param {
    lr_mult: 2
    decay_mult: 0
  }
  convolution_param {
    num_output: 224
    pad: 1
    kernel_size: 3
    weight_filler {
      type: "xavier"
      std: 0.03
    }
    bias_filler {
      type: "constant"
      value: 0.2
    }
  }
}
layer {
  name: "inception_4b/relu_3x3"
  type: "ReLU"
  bottom: "inception_4b/3x3"
  top: "inception_4b/3x3"
}
layer {
  name: "inception_4b/5x5_reduce"
  type: "Convolution"
  bottom: "inception_4a/output"
  top: "inception_4b/5x5_reduce"
  param {
    lr_mult: 1
    decay_mult: 1
  }
  param {
    lr_mult: 2
    decay_mult: 0
  }
  convolution_param {
    num_output: 24
    kernel_size: 1
    weight_filler {
      type: "xavier"
      std: 0.2
    }
    bias_filler {
      type: "constant"
      value: 0.2
    }
  }
}
layer {
  name: "inception_4b/relu_5x5_reduce"
  type: "ReLU"
  bottom: "inception_4b/5x5_reduce"
  top: "inception_4b/5x5_reduce"
}
layer {
  name: "inception_4b/5x5"
  type: "Convolution"
  bottom: "inception_4b/5x5_reduce"
  top: "inception_4b/5x5"
  param {
    lr_mult: 1
    decay_mult: 1
  }
  param {
    lr_mult: 2
    decay_mult: 0
  }
  convolution_param {
    num_output: 64
    pad: 2
    kernel_size: 5
    weight_filler {
      type: "xavier"
      std: 0.03
    }
    bias_filler {
      type: "constant"
      value: 0.2
    }
  }
}
layer {
  name: "inception_4b/relu_5x5"
  type: "ReLU"
  bottom: "inception_4b/5x5"
  top: "inception_4b/5x5"
}
layer {
  name: "inception_4b/pool"
  type: "Pooling"
  bottom: "inception_4a/output"
  top: "inception_4b/pool"
  pooling_param {
    pool: MAX
    kernel_size: 3
    stride: 1
    pad: 1
  }
}
layer {
  name: "inception_4b/pool_proj"
  type: "Convolution"
  bottom: "inception_4b/pool"
  top: "inception_4b/pool_proj"
  param {
    lr_mult: 1
    decay_mult: 1
  }
  param {
    lr_mult: 2
    decay_mult: 0
  }
  convolution_param {
    num_output: 64
    kernel_size: 1
    weight_filler {
      type: "xavier"
      std: 0.1
    }
    bias_filler {
      type: "constant"
      value: 0.2
    }
  }
}
layer {
  name: "inception_4b/relu_pool_proj"
  type: "ReLU"
  bottom: "inception_4b/pool_proj"
  top: "inception_4b/pool_proj"
}
layer {
  name: "inception_4b/output"
  type: "Concat"
  bottom: "inception_4b/1x1"
  bottom: "inception_4b/3x3"
  bottom: "inception_4b/5x5"
  bottom: "inception_4b/pool_proj"
  top: "inception_4b/output"
}
layer {
  name: "inception_4c/1x1"
  type: "Convolution"
  bottom: "inception_4b/output"
  top: "inception_4c/1x1"
  param {
    lr_mult: 1
    decay_mult: 1
  }
  param {
    lr_mult: 2
    decay_mult: 0
  }
  convolution_param {
    num_output: 128
    kernel_size: 1
    weight_filler {
      type: "xavier"
      std: 0.03
    }
    bias_filler {
      type: "constant"
      value: 0.2
    }
  }
}
layer {
  name: "inception_4c/relu_1x1"
  type: "ReLU"
  bottom: "inception_4c/1x1"
  top: "inception_4c/1x1"
}
layer {
  name: "inception_4c/3x3_reduce"
  type: "Convolution"
  bottom: "inception_4b/output"
  top: "inception_4c/3x3_reduce"
  param {
    lr_mult: 1
    decay_mult: 1
  }
  param {
    lr_mult: 2
    decay_mult: 0
  }
  convolution_param {
    num_output: 128
    kernel_size: 1
    weight_filler {
      type: "xavier"
      std: 0.09
    }
    bias_filler {
      type: "constant"
      value: 0.2
    }
  }
}
layer {
  name: "inception_4c/relu_3x3_reduce"
  type: "ReLU"
  bottom: "inception_4c/3x3_reduce"
  top: "inception_4c/3x3_reduce"
}
layer {
  name: "inception_4c/3x3"
  type: "Convolution"
  bottom: "inception_4c/3x3_reduce"
  top: "inception_4c/3x3"
  param {
    lr_mult: 1
    decay_mult: 1
  }
  param {
    lr_mult: 2
    decay_mult: 0
  }
  convolution_param {
    num_output: 256
    pad: 1
    kernel_size: 3
    weight_filler {
      type: "xavier"
      std: 0.03
    }
    bias_filler {
      type: "constant"
      value: 0.2
    }
  }
}
layer {
  name: "inception_4c/relu_3x3"
  type: "ReLU"
  bottom: "inception_4c/3x3"
  top: "inception_4c/3x3"
}
layer {
  name: "inception_4c/5x5_reduce"
  type: "Convolution"
  bottom: "inception_4b/output"
  top: "inception_4c/5x5_reduce"
  param {
    lr_mult: 1
    decay_mult: 1
  }
  param {
    lr_mult: 2
    decay_mult: 0
  }
  convolution_param {
    num_output: 24
    kernel_size: 1
    weight_filler {
      type: "xavier"
      std: 0.2
    }
    bias_filler {
      type: "constant"
      value: 0.2
    }
  }
}
layer {
  name: "inception_4c/relu_5x5_reduce"
  type: "ReLU"
  bottom: "inception_4c/5x5_reduce"
  top: "inception_4c/5x5_reduce"
}
layer {
  name: "inception_4c/5x5"
  type: "Convolution"
  bottom: "inception_4c/5x5_reduce"
  top: "inception_4c/5x5"
  param {
    lr_mult: 1
    decay_mult: 1
  }
  param {
    lr_mult: 2
    decay_mult: 0
  }
  convolution_param {
    num_output: 64
    pad: 2
    kernel_size: 5
    weight_filler {
      type: "xavier"
      std: 0.03
    }
    bias_filler {
      type: "constant"
      value: 0.2
    }
  }
}
layer {
  name: "inception_4c/relu_5x5"
  type: "ReLU"
  bottom: "inception_4c/5x5"
  top: "inception_4c/5x5"
}
layer {
  name: "inception_4c/pool"
  type: "Pooling"
  bottom: "inception_4b/output"
  top: "inception_4c/pool"
  pooling_param {
    pool: MAX
    kernel_size: 3
    stride: 1
    pad: 1
  }
}
layer {
  name: "inception_4c/pool_proj"
  type: "Convolution"
  bottom: "inception_4c/pool"
  top: "inception_4c/pool_proj"
  param {
    lr_mult: 1
    decay_mult: 1
  }
  param {
    lr_mult: 2
    decay_mult: 0
  }
  convolution_param {
    num_output: 64
    kernel_size: 1
    weight_filler {
      type: "xavier"
      std: 0.1
    }
    bias_filler {
      type: "constant"
      value: 0.2
    }
  }
}
layer {
  name: "inception_4c/relu_pool_proj"
  type: "ReLU"
  bottom: "inception_4c/pool_proj"
  top: "inception_4c/pool_proj"
}
layer {
  name: "inception_4c/output"
  type: "Concat"
  bottom: "inception_4c/1x1"
  bottom: "inception_4c/3x3"
  bottom: "inception_4c/5x5"
  bottom: "inception_4c/pool_proj"
  top: "inception_4c/output"
}
layer {
  name: "inception_4d/1x1"
  type: "Convolution"
  bottom: "inception_4c/output"
  top: "inception_4d/1x1"
  param {
    lr_mult: 1
    decay_mult: 1
  }
  param {
    lr_mult: 2
    decay_mult: 0
  }
  convolution_param {
    num_output: 112
    kernel_size: 1
    weight_filler {
      type: "xavier"
      std: 0.03
    }
    bias_filler {
      type: "constant"
      value: 0.2
    }
  }
}
layer {
  name: "inception_4d/relu_1x1"
  type: "ReLU"
  bottom: "inception_4d/1x1"
  top: "inception_4d/1x1"
}
layer {
  name: "inception_4d/3x3_reduce"
  type: "Convolution"
  bottom: "inception_4c/output"
  top: "inception_4d/3x3_reduce"
  param {
    lr_mult: 1
    decay_mult: 1
  }
  param {
    lr_mult: 2
    decay_mult: 0
  }
  convolution_param {
    num_output: 144
    kernel_size: 1
    weight_filler {
      type: "xavier"
      std: 0.09
    }
    bias_filler {
      type: "constant"
      value: 0.2
    }
  }
}
layer {
  name: "inception_4d/relu_3x3_reduce"
  type: "ReLU"
  bottom: "inception_4d/3x3_reduce"
  top: "inception_4d/3x3_reduce"
}
layer {
  name: "inception_4d/3x3"
  type: "Convolution"
  bottom: "inception_4d/3x3_reduce"
  top: "inception_4d/3x3"
  param {
    lr_mult: 1
    decay_mult: 1
  }
  param {
    lr_mult: 2
    decay_mult: 0
  }
  convolution_param {
    num_output: 288
    pad: 1
    kernel_size: 3
    weight_filler {
      type: "xavier"
      std: 0.03
    }
    bias_filler {
      type: "constant"
      value: 0.2
    }
  }
}
layer {
  name: "inception_4d/relu_3x3"
  type: "ReLU"
  bottom: "inception_4d/3x3"
  top: "inception_4d/3x3"
}
layer {
  name: "inception_4d/5x5_reduce"
  type: "Convolution"
  bottom: "inception_4c/output"
  top: "inception_4d/5x5_reduce"
  param {
    lr_mult: 1
    decay_mult: 1
  }
  param {
    lr_mult: 2
    decay_mult: 0
  }
  convolution_param {
    num_output: 32
    kernel_size: 1
    weight_filler {
      type: "xavier"
      std: 0.2
    }
    bias_filler {
      type: "constant"
      value: 0.2
    }
  }
}
layer {
  name: "inception_4d/relu_5x5_reduce"
  type: "ReLU"
  bottom: "inception_4d/5x5_reduce"
  top: "inception_4d/5x5_reduce"
}
layer {
  name: "inception_4d/5x5"
  type: "Convolution"
  bottom: "inception_4d/5x5_reduce"
  top: "inception_4d/5x5"
  param {
    lr_mult: 1
    decay_mult: 1
  }
  param {
    lr_mult: 2
    decay_mult: 0
  }
  convolution_param {
    num_output: 64
    pad: 2
    kernel_size: 5
    weight_filler {
      type: "xavier"
      std: 0.03
    }
    bias_filler {
      type: "constant"
      value: 0.2
    }
  }
}
layer {
  name: "inception_4d/relu_5x5"
  type: "ReLU"
  bottom: "inception_4d/5x5"
  top: "inception_4d/5x5"
}
layer {
  name: "inception_4d/pool"
  type: "Pooling"
  bottom: "inception_4c/output"
  top: "inception_4d/pool"
  pooling_param {
    pool: MAX
    kernel_size: 3
    stride: 1
    pad: 1
  }
}
layer {
  name: "inception_4d/pool_proj"
  type: "Convolution"
  bottom: "inception_4d/pool"
  top: "inception_4d/pool_proj"
  param {
    lr_mult: 1
    decay_mult: 1
  }
  param {
    lr_mult: 2
    decay_mult: 0
  }
  convolution_param {
    num_output: 64
    kernel_size: 1
    weight_filler {
      type: "xavier"
      std: 0.1
    }
    bias_filler {
      type: "constant"
      value: 0.2
    }
  }
}
layer {
  name: "inception_4d/relu_pool_proj"
  type: "ReLU"
  bottom: "inception_4d/pool_proj"
  top: "inception_4d/pool_proj"
}
layer {
  name: "inception_4d/output"
  type: "Concat"
  bottom: "inception_4d/1x1"
  bottom: "inception_4d/3x3"
  bottom: "inception_4d/5x5"
  bottom: "inception_4d/pool_proj"
  top: "inception_4d/output"
}
layer {
  name: "loss2/ave_pool"
  type: "Pooling"
  bottom: "inception_4d/output"
  top: "loss2/ave_pool"
  pooling_param {
    pool: AVE
    kernel_size: 5
    stride: 3
  }
}
layer {
  name: "loss2/conv"
  type: "Convolution"
  bottom: "loss2/ave_pool"
  top: "loss2/conv"
  param {
    lr_mult: 1
    decay_mult: 1
  }
  param {
    lr_mult: 2
    decay_mult: 0
  }
  convolution_param {
    num_output: 128
    kernel_size: 1
    weight_filler {
      type: "xavier"
      std: 0.08
    }
    bias_filler {
      type: "constant"
      value: 0.2
    }
  }
}
layer {
  name: "loss2/relu_conv"
  type: "ReLU"
  bottom: "loss2/conv"
  top: "loss2/conv"
}
layer {
  name: "loss2/fc"
  type: "InnerProduct"
  bottom: "loss2/conv"
  top: "loss2/fc"
  param {
    lr_mult: 1
    decay_mult: 1
  }
  param {
    lr_mult: 2
    decay_mult: 0
  }
  inner_product_param {
    num_output: 1024
    weight_filler {
      type: "xavier"
      std: 0.02
    }
    bias_filler {
      type: "constant"
      value: 0.2
    }
  }
}
layer {
  name: "loss2/relu_fc"
  type: "ReLU"
  bottom: "loss2/fc"
  top: "loss2/fc"
}
layer {
  name: "loss2/drop_fc"
  type: "Dropout"
  bottom: "loss2/fc"
  top: "loss2/fc"
  dropout_param {
    dropout_ratio: 0.7
  }
}
layer {
  name: "loss2/classifier_plantvillage"
  type: "InnerProduct"
  bottom: "loss2/fc"
  top: "loss2/classifier_plantvillage"
  param {
    lr_mult: 1
    decay_mult: 1
  }
  param {
    lr_mult: 2
    decay_mult: 0
  }
  inner_product_param {
    num_output: 38
    weight_filler {
      type: "xavier"
      std: 0.0009765625
    }
    bias_filler {
      type: "constant"
      value: 0
    }
  }
}
layer {
  name: "inception_4e/1x1"
  type: "Convolution"
  bottom: "inception_4d/output"
  top: "inception_4e/1x1"
  param {
    lr_mult: 1
    decay_mult: 1
  }
  param {
    lr_mult: 2
    decay_mult: 0
  }
  convolution_param {
    num_output: 256
    kernel_size: 1
    weight_filler {
      type: "xavier"
      std: 0.03
    }
    bias_filler {
      type: "constant"
      value: 0.2
    }
  }
}
layer {
  name: "inception_4e/relu_1x1"
  type: "ReLU"
  bottom: "inception_4e/1x1"
  top: "inception_4e/1x1"
}
layer {
  name: "inception_4e/3x3_reduce"
  type: "Convolution"
  bottom: "inception_4d/output"
  top: "inception_4e/3x3_reduce"
  param {
    lr_mult: 1
    decay_mult: 1
  }
  param {
    lr_mult: 2
    decay_mult: 0
  }
  convolution_param {
    num_output: 160
    kernel_size: 1
    weight_filler {
      type: "xavier"
      std: 0.09
    }
    bias_filler {
      type: "constant"
      value: 0.2
    }
  }
}
layer {
  name: "inception_4e/relu_3x3_reduce"
  type: "ReLU"
  bottom: "inception_4e/3x3_reduce"
  top: "inception_4e/3x3_reduce"
}
layer {
  name: "inception_4e/3x3"
  type: "Convolution"
  bottom: "inception_4e/3x3_reduce"
  top: "inception_4e/3x3"
  param {
    lr_mult: 1
    decay_mult: 1
  }
  param {
    lr_mult: 2
    decay_mult: 0
  }
  convolution_param {
    num_output: 320
    pad: 1
    kernel_size: 3
    weight_filler {
      type: "xavier"
      std: 0.03
    }
    bias_filler {
      type: "constant"
      value: 0.2
    }
  }
}
layer {
  name: "inception_4e/relu_3x3"
  type: "ReLU"
  bottom: "inception_4e/3x3"
  top: "inception_4e/3x3"
}
layer {
  name: "inception_4e/5x5_reduce"
  type: "Convolution"
  bottom: "inception_4d/output"
  top: "inception_4e/5x5_reduce"
  param {
    lr_mult: 1
    decay_mult: 1
  }
  param {
    lr_mult: 2
    decay_mult: 0
  }
  convolution_param {
    num_output: 32
    kernel_size: 1
    weight_filler {
      type: "xavier"
      std: 0.2
    }
    bias_filler {
      type: "constant"
      value: 0.2
    }
  }
}
layer {
  name: "inception_4e/relu_5x5_reduce"
  type: "ReLU"
  bottom: "inception_4e/5x5_reduce"
  top: "inception_4e/5x5_reduce"
}
layer {
  name: "inception_4e/5x5"
  type: "Convolution"
  bottom: "inception_4e/5x5_reduce"
  top: "inception_4e/
I0403 18:56:31.578410 23945 layer_factory.hpp:77] Creating layer data
I0403 18:56:31.579004 23945 net.cpp:91] Creating Layer data
I0403 18:56:31.579033 23945 net.cpp:399] data -> data
I0403 18:56:31.579084 23945 net.cpp:399] data -> label
I0403 18:56:31.579120 23945 data_transformer.cpp:25] Loading mean file from: /home/mohanty/data/final_dataset/lmdb/segmented-40-60/mean.binaryproto
I0403 18:56:31.580258 23947 db_lmdb.cpp:38] Opened lmdb /home/mohanty/data/final_dataset/lmdb/segmented-40-60/test_db
I0403 18:56:31.591766 23945 data_layer.cpp:41] output data size: 24,3,224,224
I0403 18:56:31.618111 23945 net.cpp:141] Setting up data
I0403 18:56:31.618190 23945 net.cpp:148] Top shape: 24 3 224 224 (3612672)
I0403 18:56:31.618211 23945 net.cpp:148] Top shape: 24 (24)
I0403 18:56:31.618224 23945 net.cpp:156] Memory required for data: 14450784
I0403 18:56:31.618250 23945 layer_factory.hpp:77] Creating layer label_data_1_split
I0403 18:56:31.618278 23945 net.cpp:91] Creating Layer label_data_1_split
I0403 18:56:31.618294 23945 net.cpp:425] label_data_1_split <- label
I0403 18:56:31.618324 23945 net.cpp:399] label_data_1_split -> label_data_1_split_0
I0403 18:56:31.618350 23945 net.cpp:399] label_data_1_split -> label_data_1_split_1
I0403 18:56:31.618369 23945 net.cpp:399] label_data_1_split -> label_data_1_split_2
I0403 18:56:31.618389 23945 net.cpp:399] label_data_1_split -> label_data_1_split_3
I0403 18:56:31.618407 23945 net.cpp:399] label_data_1_split -> label_data_1_split_4
I0403 18:56:31.618424 23945 net.cpp:399] label_data_1_split -> label_data_1_split_5
I0403 18:56:31.618443 23945 net.cpp:399] label_data_1_split -> label_data_1_split_6
I0403 18:56:31.618460 23945 net.cpp:399] label_data_1_split -> label_data_1_split_7
I0403 18:56:31.618479 23945 net.cpp:399] label_data_1_split -> label_data_1_split_8
I0403 18:56:31.618497 23945 net.cpp:399] label_data_1_split -> label_data_1_split_9
I0403 18:56:31.618609 23945 net.cpp:141] Setting up label_data_1_split
I0403 18:56:31.618631 23945 net.cpp:148] Top shape: 24 (24)
I0403 18:56:31.618648 23945 net.cpp:148] Top shape: 24 (24)
I0403 18:56:31.618661 23945 net.cpp:148] Top shape: 24 (24)
I0403 18:56:31.618675 23945 net.cpp:148] Top shape: 24 (24)
I0403 18:56:31.618690 23945 net.cpp:148] Top shape: 24 (24)
I0403 18:56:31.618703 23945 net.cpp:148] Top shape: 24 (24)
I0403 18:56:31.618718 23945 net.cpp:148] Top shape: 24 (24)
I0403 18:56:31.618732 23945 net.cpp:148] Top shape: 24 (24)
I0403 18:56:31.618746 23945 net.cpp:148] Top shape: 24 (24)
I0403 18:56:31.618760 23945 net.cpp:148] Top shape: 24 (24)
I0403 18:56:31.618813 23945 net.cpp:156] Memory required for data: 14451744
I0403 18:56:31.618827 23945 layer_factory.hpp:77] Creating layer conv1/7x7_s2
I0403 18:56:31.618857 23945 net.cpp:91] Creating Layer conv1/7x7_s2
I0403 18:56:31.618875 23945 net.cpp:425] conv1/7x7_s2 <- data
I0403 18:56:31.618892 23945 net.cpp:399] conv1/7x7_s2 -> conv1/7x7_s2
I0403 18:56:31.761787 23945 net.cpp:141] Setting up conv1/7x7_s2
I0403 18:56:31.761864 23945 net.cpp:148] Top shape: 24 64 112 112 (19267584)
I0403 18:56:31.761881 23945 net.cpp:156] Memory required for data: 91522080
I0403 18:56:31.761909 23945 layer_factory.hpp:77] Creating layer conv1/relu_7x7
I0403 18:56:31.761935 23945 net.cpp:91] Creating Layer conv1/relu_7x7
I0403 18:56:31.761952 23945 net.cpp:425] conv1/relu_7x7 <- conv1/7x7_s2
I0403 18:56:31.761970 23945 net.cpp:386] conv1/relu_7x7 -> conv1/7x7_s2 (in-place)
I0403 18:56:31.762212 23945 net.cpp:141] Setting up conv1/relu_7x7
I0403 18:56:31.762238 23945 net.cpp:148] Top shape: 24 64 112 112 (19267584)
I0403 18:56:31.762251 23945 net.cpp:156] Memory required for data: 168592416
I0403 18:56:31.762266 23945 layer_factory.hpp:77] Creating layer pool1/3x3_s2
I0403 18:56:31.762290 23945 net.cpp:91] Creating Layer pool1/3x3_s2
I0403 18:56:31.762306 23945 net.cpp:425] pool1/3x3_s2 <- conv1/7x7_s2
I0403 18:56:31.762323 23945 net.cpp:399] pool1/3x3_s2 -> pool1/3x3_s2
I0403 18:56:31.762393 23945 net.cpp:141] Setting up pool1/3x3_s2
I0403 18:56:31.762416 23945 net.cpp:148] Top shape: 24 64 56 56 (4816896)
I0403 18:56:31.762430 23945 net.cpp:156] Memory required for data: 187860000
I0403 18:56:31.762444 23945 layer_factory.hpp:77] Creating layer pool1/norm1
I0403 18:56:31.762467 23945 net.cpp:91] Creating Layer pool1/norm1
I0403 18:56:31.762483 23945 net.cpp:425] pool1/norm1 <- pool1/3x3_s2
I0403 18:56:31.762501 23945 net.cpp:399] pool1/norm1 -> pool1/norm1
I0403 18:56:31.762769 23945 net.cpp:141] Setting up pool1/norm1
I0403 18:56:31.762795 23945 net.cpp:148] Top shape: 24 64 56 56 (4816896)
I0403 18:56:31.762809 23945 net.cpp:156] Memory required for data: 207127584
I0403 18:56:31.762823 23945 layer_factory.hpp:77] Creating layer conv2/3x3_reduce
I0403 18:56:31.762845 23945 net.cpp:91] Creating Layer conv2/3x3_reduce
I0403 18:56:31.762861 23945 net.cpp:425] conv2/3x3_reduce <- pool1/norm1
I0403 18:56:31.762878 23945 net.cpp:399] conv2/3x3_reduce -> conv2/3x3_reduce
I0403 18:56:31.764132 23945 net.cpp:141] Setting up conv2/3x3_reduce
I0403 18:56:31.764161 23945 net.cpp:148] Top shape: 24 64 56 56 (4816896)
I0403 18:56:31.764178 23945 net.cpp:156] Memory required for data: 226395168
I0403 18:56:31.764196 23945 layer_factory.hpp:77] Creating layer conv2/relu_3x3_reduce
I0403 18:56:31.764214 23945 net.cpp:91] Creating Layer conv2/relu_3x3_reduce
I0403 18:56:31.764228 23945 net.cpp:425] conv2/relu_3x3_reduce <- conv2/3x3_reduce
I0403 18:56:31.764245 23945 net.cpp:386] conv2/relu_3x3_reduce -> conv2/3x3_reduce (in-place)
I0403 18:56:31.764483 23945 net.cpp:141] Setting up conv2/relu_3x3_reduce
I0403 18:56:31.764508 23945 net.cpp:148] Top shape: 24 64 56 56 (4816896)
I0403 18:56:31.764523 23945 net.cpp:156] Memory required for data: 245662752
I0403 18:56:31.764547 23945 layer_factory.hpp:77] Creating layer conv2/3x3
I0403 18:56:31.764571 23945 net.cpp:91] Creating Layer conv2/3x3
I0403 18:56:31.764588 23945 net.cpp:425] conv2/3x3 <- conv2/3x3_reduce
I0403 18:56:31.764605 23945 net.cpp:399] conv2/3x3 -> conv2/3x3
I0403 18:56:31.766772 23945 net.cpp:141] Setting up conv2/3x3
I0403 18:56:31.766801 23945 net.cpp:148] Top shape: 24 192 56 56 (14450688)
I0403 18:56:31.766818 23945 net.cpp:156] Memory required for data: 303465504
I0403 18:56:31.766837 23945 layer_factory.hpp:77] Creating layer conv2/relu_3x3
I0403 18:56:31.766855 23945 net.cpp:91] Creating Layer conv2/relu_3x3
I0403 18:56:31.766870 23945 net.cpp:425] conv2/relu_3x3 <- conv2/3x3
I0403 18:56:31.766888 23945 net.cpp:386] conv2/relu_3x3 -> conv2/3x3 (in-place)
I0403 18:56:31.767050 23945 net.cpp:141] Setting up conv2/relu_3x3
I0403 18:56:31.767073 23945 net.cpp:148] Top shape: 24 192 56 56 (14450688)
I0403 18:56:31.767127 23945 net.cpp:156] Memory required for data: 361268256
I0403 18:56:31.767143 23945 layer_factory.hpp:77] Creating layer conv2/norm2
I0403 18:56:31.767159 23945 net.cpp:91] Creating Layer conv2/norm2
I0403 18:56:31.767174 23945 net.cpp:425] conv2/norm2 <- conv2/3x3
I0403 18:56:31.767192 23945 net.cpp:399] conv2/norm2 -> conv2/norm2
I0403 18:56:31.767478 23945 net.cpp:141] Setting up conv2/norm2
I0403 18:56:31.767505 23945 net.cpp:148] Top shape: 24 192 56 56 (14450688)
I0403 18:56:31.767520 23945 net.cpp:156] Memory required for data: 419071008
I0403 18:56:31.767534 23945 layer_factory.hpp:77] Creating layer pool2/3x3_s2
I0403 18:56:31.767556 23945 net.cpp:91] Creating Layer pool2/3x3_s2
I0403 18:56:31.767571 23945 net.cpp:425] pool2/3x3_s2 <- conv2/norm2
I0403 18:56:31.767590 23945 net.cpp:399] pool2/3x3_s2 -> pool2/3x3_s2
I0403 18:56:31.767643 23945 net.cpp:141] Setting up pool2/3x3_s2
I0403 18:56:31.767665 23945 net.cpp:148] Top shape: 24 192 28 28 (3612672)
I0403 18:56:31.767679 23945 net.cpp:156] Memory required for data: 433521696
I0403 18:56:31.767693 23945 layer_factory.hpp:77] Creating layer pool2/3x3_s2_pool2/3x3_s2_0_split
I0403 18:56:31.767712 23945 net.cpp:91] Creating Layer pool2/3x3_s2_pool2/3x3_s2_0_split
I0403 18:56:31.767727 23945 net.cpp:425] pool2/3x3_s2_pool2/3x3_s2_0_split <- pool2/3x3_s2
I0403 18:56:31.767743 23945 net.cpp:399] pool2/3x3_s2_pool2/3x3_s2_0_split -> pool2/3x3_s2_pool2/3x3_s2_0_split_0
I0403 18:56:31.767761 23945 net.cpp:399] pool2/3x3_s2_pool2/3x3_s2_0_split -> pool2/3x3_s2_pool2/3x3_s2_0_split_1
I0403 18:56:31.767783 23945 net.cpp:399] pool2/3x3_s2_pool2/3x3_s2_0_split -> pool2/3x3_s2_pool2/3x3_s2_0_split_2
I0403 18:56:31.767802 23945 net.cpp:399] pool2/3x3_s2_pool2/3x3_s2_0_split -> pool2/3x3_s2_pool2/3x3_s2_0_split_3
I0403 18:56:31.767866 23945 net.cpp:141] Setting up pool2/3x3_s2_pool2/3x3_s2_0_split
I0403 18:56:31.767889 23945 net.cpp:148] Top shape: 24 192 28 28 (3612672)
I0403 18:56:31.767904 23945 net.cpp:148] Top shape: 24 192 28 28 (3612672)
I0403 18:56:31.767918 23945 net.cpp:148] Top shape: 24 192 28 28 (3612672)
I0403 18:56:31.767932 23945 net.cpp:148] Top shape: 24 192 28 28 (3612672)
I0403 18:56:31.767946 23945 net.cpp:156] Memory required for data: 491324448
I0403 18:56:31.767958 23945 layer_factory.hpp:77] Creating layer inception_3a/1x1
I0403 18:56:31.767979 23945 net.cpp:91] Creating Layer inception_3a/1x1
I0403 18:56:31.767995 23945 net.cpp:425] inception_3a/1x1 <- pool2/3x3_s2_pool2/3x3_s2_0_split_0
I0403 18:56:31.768015 23945 net.cpp:399] inception_3a/1x1 -> inception_3a/1x1
I0403 18:56:31.769502 23945 net.cpp:141] Setting up inception_3a/1x1
I0403 18:56:31.769532 23945 net.cpp:148] Top shape: 24 64 28 28 (1204224)
I0403 18:56:31.769552 23945 net.cpp:156] Memory required for data: 496141344
I0403 18:56:31.769572 23945 layer_factory.hpp:77] Creating layer inception_3a/relu_1x1
I0403 18:56:31.769589 23945 net.cpp:91] Creating Layer inception_3a/relu_1x1
I0403 18:56:31.769604 23945 net.cpp:425] inception_3a/relu_1x1 <- inception_3a/1x1
I0403 18:56:31.769624 23945 net.cpp:386] inception_3a/relu_1x1 -> inception_3a/1x1 (in-place)
I0403 18:56:31.769795 23945 net.cpp:141] Setting up inception_3a/relu_1x1
I0403 18:56:31.769819 23945 net.cpp:148] Top shape: 24 64 28 28 (1204224)
I0403 18:56:31.769832 23945 net.cpp:156] Memory required for data: 500958240
I0403 18:56:31.769846 23945 layer_factory.hpp:77] Creating layer inception_3a/3x3_reduce
I0403 18:56:31.769867 23945 net.cpp:91] Creating Layer inception_3a/3x3_reduce
I0403 18:56:31.769886 23945 net.cpp:425] inception_3a/3x3_reduce <- pool2/3x3_s2_pool2/3x3_s2_0_split_1
I0403 18:56:31.769906 23945 net.cpp:399] inception_3a/3x3_reduce -> inception_3a/3x3_reduce
I0403 18:56:31.771500 23945 net.cpp:141] Setting up inception_3a/3x3_reduce
I0403 18:56:31.771528 23945 net.cpp:148] Top shape: 24 96 28 28 (1806336)
I0403 18:56:31.771548 23945 net.cpp:156] Memory required for data: 508183584
I0403 18:56:31.771569 23945 layer_factory.hpp:77] Creating layer inception_3a/relu_3x3_reduce
I0403 18:56:31.771605 23945 net.cpp:91] Creating Layer inception_3a/relu_3x3_reduce
I0403 18:56:31.771620 23945 net.cpp:425] inception_3a/relu_3x3_reduce <- inception_3a/3x3_reduce
I0403 18:56:31.771637 23945 net.cpp:386] inception_3a/relu_3x3_reduce -> inception_3a/3x3_reduce (in-place)
I0403 18:56:31.771800 23945 net.cpp:141] Setting up inception_3a/relu_3x3_reduce
I0403 18:56:31.771824 23945 net.cpp:148] Top shape: 24 96 28 28 (1806336)
I0403 18:56:31.771837 23945 net.cpp:156] Memory required for data: 515408928
I0403 18:56:31.771850 23945 layer_factory.hpp:77] Creating layer inception_3a/3x3
I0403 18:56:31.771870 23945 net.cpp:91] Creating Layer inception_3a/3x3
I0403 18:56:31.771888 23945 net.cpp:425] inception_3a/3x3 <- inception_3a/3x3_reduce
I0403 18:56:31.771908 23945 net.cpp:399] inception_3a/3x3 -> inception_3a/3x3
I0403 18:56:31.773416 23945 net.cpp:141] Setting up inception_3a/3x3
I0403 18:56:31.773442 23945 net.cpp:148] Top shape: 24 128 28 28 (2408448)
I0403 18:56:31.773457 23945 net.cpp:156] Memory required for data: 525042720
I0403 18:56:31.773473 23945 layer_factory.hpp:77] Creating layer inception_3a/relu_3x3
I0403 18:56:31.773493 23945 net.cpp:91] Creating Layer inception_3a/relu_3x3
I0403 18:56:31.773509 23945 net.cpp:425] inception_3a/relu_3x3 <- inception_3a/3x3
I0403 18:56:31.773524 23945 net.cpp:386] inception_3a/relu_3x3 -> inception_3a/3x3 (in-place)
I0403 18:56:31.773780 23945 net.cpp:141] Setting up inception_3a/relu_3x3
I0403 18:56:31.773804 23945 net.cpp:148] Top shape: 24 128 28 28 (2408448)
I0403 18:56:31.773819 23945 net.cpp:156] Memory required for data: 534676512
I0403 18:56:31.773833 23945 layer_factory.hpp:77] Creating layer inception_3a/5x5_reduce
I0403 18:56:31.773854 23945 net.cpp:91] Creating Layer inception_3a/5x5_reduce
I0403 18:56:31.773869 23945 net.cpp:425] inception_3a/5x5_reduce <- pool2/3x3_s2_pool2/3x3_s2_0_split_2
I0403 18:56:31.773888 23945 net.cpp:399] inception_3a/5x5_reduce -> inception_3a/5x5_reduce
I0403 18:56:31.774804 23945 net.cpp:141] Setting up inception_3a/5x5_reduce
I0403 18:56:31.774830 23945 net.cpp:148] Top shape: 24 16 28 28 (301056)
I0403 18:56:31.774844 23945 net.cpp:156] Memory required for data: 535880736
I0403 18:56:31.774862 23945 layer_factory.hpp:77] Creating layer inception_3a/relu_5x5_reduce
I0403 18:56:31.774880 23945 net.cpp:91] Creating Layer inception_3a/relu_5x5_reduce
I0403 18:56:31.774895 23945 net.cpp:425] inception_3a/relu_5x5_reduce <- inception_3a/5x5_reduce
I0403 18:56:31.774910 23945 net.cpp:386] inception_3a/relu_5x5_reduce -> inception_3a/5x5_reduce (in-place)
I0403 18:56:31.775180 23945 net.cpp:141] Setting up inception_3a/relu_5x5_reduce
I0403 18:56:31.775207 23945 net.cpp:148] Top shape: 24 16 28 28 (301056)
I0403 18:56:31.775221 23945 net.cpp:156] Memory required for data: 537084960
I0403 18:56:31.775235 23945 layer_factory.hpp:77] Creating layer inception_3a/5x5
I0403 18:56:31.775254 23945 net.cpp:91] Creating Layer inception_3a/5x5
I0403 18:56:31.775269 23945 net.cpp:425] inception_3a/5x5 <- inception_3a/5x5_reduce
I0403 18:56:31.775288 23945 net.cpp:399] inception_3a/5x5 -> inception_3a/5x5
I0403 18:56:31.776212 23945 net.cpp:141] Setting up inception_3a/5x5
I0403 18:56:31.776238 23945 net.cpp:148] Top shape: 24 32 28 28 (602112)
I0403 18:56:31.776253 23945 net.cpp:156] Memory required for data: 539493408
I0403 18:56:31.776270 23945 layer_factory.hpp:77] Creating layer inception_3a/relu_5x5
I0403 18:56:31.776289 23945 net.cpp:91] Creating Layer inception_3a/relu_5x5
I0403 18:56:31.776304 23945 net.cpp:425] inception_3a/relu_5x5 <- inception_3a/5x5
I0403 18:56:31.776321 23945 net.cpp:386] inception_3a/relu_5x5 -> inception_3a/5x5 (in-place)
I0403 18:56:31.776479 23945 net.cpp:141] Setting up inception_3a/relu_5x5
I0403 18:56:31.776502 23945 net.cpp:148] Top shape: 24 32 28 28 (602112)
I0403 18:56:31.776515 23945 net.cpp:156] Memory required for data: 541901856
I0403 18:56:31.776528 23945 layer_factory.hpp:77] Creating layer inception_3a/pool
I0403 18:56:31.776552 23945 net.cpp:91] Creating Layer inception_3a/pool
I0403 18:56:31.776582 23945 net.cpp:425] inception_3a/pool <- pool2/3x3_s2_pool2/3x3_s2_0_split_3
I0403 18:56:31.776599 23945 net.cpp:399] inception_3a/pool -> inception_3a/pool
I0403 18:56:31.776653 23945 net.cpp:141] Setting up inception_3a/pool
I0403 18:56:31.776674 23945 net.cpp:148] Top shape: 24 192 28 28 (3612672)
I0403 18:56:31.776687 23945 net.cpp:156] Memory required for data: 556352544
I0403 18:56:31.776700 23945 layer_factory.hpp:77] Creating layer inception_3a/pool_proj
I0403 18:56:31.776721 23945 net.cpp:91] Creating Layer inception_3a/pool_proj
I0403 18:56:31.776736 23945 net.cpp:425] inception_3a/pool_proj <- inception_3a/pool
I0403 18:56:31.776757 23945 net.cpp:399] inception_3a/pool_proj -> inception_3a/pool_proj
I0403 18:56:31.777632 23945 net.cpp:141] Setting up inception_3a/pool_proj
I0403 18:56:31.777662 23945 net.cpp:148] Top shape: 24 32 28 28 (602112)
I0403 18:56:31.777676 23945 net.cpp:156] Memory required for data: 558760992
I0403 18:56:31.777696 23945 layer_factory.hpp:77] Creating layer inception_3a/relu_pool_proj
I0403 18:56:31.777715 23945 net.cpp:91] Creating Layer inception_3a/relu_pool_proj
I0403 18:56:31.777731 23945 net.cpp:425] inception_3a/relu_pool_proj <- inception_3a/pool_proj
I0403 18:56:31.777748 23945 net.cpp:386] inception_3a/relu_pool_proj -> inception_3a/pool_proj (in-place)
I0403 18:56:31.777997 23945 net.cpp:141] Setting up inception_3a/relu_pool_proj
I0403 18:56:31.778023 23945 net.cpp:148] Top shape: 24 32 28 28 (602112)
I0403 18:56:31.778035 23945 net.cpp:156] Memory required for data: 561169440
I0403 18:56:31.778049 23945 layer_factory.hpp:77] Creating layer inception_3a/output
I0403 18:56:31.778066 23945 net.cpp:91] Creating Layer inception_3a/output
I0403 18:56:31.778079 23945 net.cpp:425] inception_3a/output <- inception_3a/1x1
I0403 18:56:31.778095 23945 net.cpp:425] inception_3a/output <- inception_3a/3x3
I0403 18:56:31.778112 23945 net.cpp:425] inception_3a/output <- inception_3a/5x5
I0403 18:56:31.778127 23945 net.cpp:425] inception_3a/output <- inception_3a/pool_proj
I0403 18:56:31.778142 23945 net.cpp:399] inception_3a/output -> inception_3a/output
I0403 18:56:31.778183 23945 net.cpp:141] Setting up inception_3a/output
I0403 18:56:31.778208 23945 net.cpp:148] Top shape: 24 256 28 28 (4816896)
I0403 18:56:31.778223 23945 net.cpp:156] Memory required for data: 580437024
I0403 18:56:31.778236 23945 layer_factory.hpp:77] Creating layer inception_3a/output_inception_3a/output_0_split
I0403 18:56:31.778251 23945 net.cpp:91] Creating Layer inception_3a/output_inception_3a/output_0_split
I0403 18:56:31.778266 23945 net.cpp:425] inception_3a/output_inception_3a/output_0_split <- inception_3a/output
I0403 18:56:31.778285 23945 net.cpp:399] inception_3a/output_inception_3a/output_0_split -> inception_3a/output_inception_3a/output_0_split_0
I0403 18:56:31.778303 23945 net.cpp:399] inception_3a/output_inception_3a/output_0_split -> inception_3a/output_inception_3a/output_0_split_1
I0403 18:56:31.778324 23945 net.cpp:399] inception_3a/output_inception_3a/output_0_split -> inception_3a/output_inception_3a/output_0_split_2
I0403 18:56:31.778343 23945 net.cpp:399] inception_3a/output_inception_3a/output_0_split -> inception_3a/output_inception_3a/output_0_split_3
I0403 18:56:31.778410 23945 net.cpp:141] Setting up inception_3a/output_inception_3a/output_0_split
I0403 18:56:31.778431 23945 net.cpp:148] Top shape: 24 256 28 28 (4816896)
I0403 18:56:31.778445 23945 net.cpp:148] Top shape: 24 256 28 28 (4816896)
I0403 18:56:31.778460 23945 net.cpp:148] Top shape: 24 256 28 28 (4816896)
I0403 18:56:31.778473 23945 net.cpp:148] Top shape: 24 256 28 28 (4816896)
I0403 18:56:31.778486 23945 net.cpp:156] Memory required for data: 657507360
I0403 18:56:31.778498 23945 layer_factory.hpp:77] Creating layer inception_3b/1x1
I0403 18:56:31.778518 23945 net.cpp:91] Creating Layer inception_3b/1x1
I0403 18:56:31.778534 23945 net.cpp:425] inception_3b/1x1 <- inception_3a/output_inception_3a/output_0_split_0
I0403 18:56:31.778559 23945 net.cpp:399] inception_3b/1x1 -> inception_3b/1x1
I0403 18:56:31.779602 23945 net.cpp:141] Setting up inception_3b/1x1
I0403 18:56:31.779639 23945 net.cpp:148] Top shape: 24 128 28 28 (2408448)
I0403 18:56:31.779654 23945 net.cpp:156] Memory required for data: 667141152
I0403 18:56:31.779671 23945 layer_factory.hpp:77] Creating layer inception_3b/relu_1x1
I0403 18:56:31.779687 23945 net.cpp:91] Creating Layer inception_3b/relu_1x1
I0403 18:56:31.779702 23945 net.cpp:425] inception_3b/relu_1x1 <- inception_3b/1x1
I0403 18:56:31.779721 23945 net.cpp:386] inception_3b/relu_1x1 -> inception_3b/1x1 (in-place)
I0403 18:56:31.779883 23945 net.cpp:141] Setting up inception_3b/relu_1x1
I0403 18:56:31.779907 23945 net.cpp:148] Top shape: 24 128 28 28 (2408448)
I0403 18:56:31.779920 23945 net.cpp:156] Memory required for data: 676774944
I0403 18:56:31.779933 23945 layer_factory.hpp:77] Creating layer inception_3b/3x3_reduce
I0403 18:56:31.779953 23945 net.cpp:91] Creating Layer inception_3b/3x3_reduce
I0403 18:56:31.779969 23945 net.cpp:425] inception_3b/3x3_reduce <- inception_3a/output_inception_3a/output_0_split_1
I0403 18:56:31.779989 23945 net.cpp:399] inception_3b/3x3_reduce -> inception_3b/3x3_reduce
I0403 18:56:31.781029 23945 net.cpp:141] Setting up inception_3b/3x3_reduce
I0403 18:56:31.781059 23945 net.cpp:148] Top shape: 24 128 28 28 (2408448)
I0403 18:56:31.781074 23945 net.cpp:156] Memory required for data: 686408736
I0403 18:56:31.781090 23945 layer_factory.hpp:77] Creating layer inception_3b/relu_3x3_reduce
I0403 18:56:31.781107 23945 net.cpp:91] Creating Layer inception_3b/relu_3x3_reduce
I0403 18:56:31.781122 23945 net.cpp:425] inception_3b/relu_3x3_reduce <- inception_3b/3x3_reduce
I0403 18:56:31.781141 23945 net.cpp:386] inception_3b/relu_3x3_reduce -> inception_3b/3x3_reduce (in-place)
I0403 18:56:31.781297 23945 net.cpp:141] Setting up inception_3b/relu_3x3_reduce
I0403 18:56:31.781321 23945 net.cpp:148] Top shape: 24 128 28 28 (2408448)
I0403 18:56:31.781334 23945 net.cpp:156] Memory required for data: 696042528
I0403 18:56:31.781347 23945 layer_factory.hpp:77] Creating layer inception_3b/3x3
I0403 18:56:31.781370 23945 net.cpp:91] Creating Layer inception_3b/3x3
I0403 18:56:31.781386 23945 net.cpp:425] inception_3b/3x3 <- inception_3b/3x3_reduce
I0403 18:56:31.781404 23945 net.cpp:399] inception_3b/3x3 -> inception_3b/3x3
I0403 18:56:31.784116 23945 net.cpp:141] Setting up inception_3b/3x3
I0403 18:56:31.784143 23945 net.cpp:148] Top shape: 24 192 28 28 (3612672)
I0403 18:56:31.784158 23945 net.cpp:156] Memory required for data: 710493216
I0403 18:56:31.784175 23945 layer_factory.hpp:77] Creating layer inception_3b/relu_3x3
I0403 18:56:31.784193 23945 net.cpp:91] Creating Layer inception_3b/relu_3x3
I0403 18:56:31.784209 23945 net.cpp:425] inception_3b/relu_3x3 <- inception_3b/3x3
I0403 18:56:31.784224 23945 net.cpp:386] inception_3b/relu_3x3 -> inception_3b/3x3 (in-place)
I0403 18:56:31.784479 23945 net.cpp:141] Setting up inception_3b/relu_3x3
I0403 18:56:31.784503 23945 net.cpp:148] Top shape: 24 192 28 28 (3612672)
I0403 18:56:31.784518 23945 net.cpp:156] Memory required for data: 724943904
I0403 18:56:31.784531 23945 layer_factory.hpp:77] Creating layer inception_3b/5x5_reduce
I0403 18:56:31.784565 23945 net.cpp:91] Creating Layer inception_3b/5x5_reduce
I0403 18:56:31.784584 23945 net.cpp:425] inception_3b/5x5_reduce <- inception_3a/output_inception_3a/output_0_split_2
I0403 18:56:31.784605 23945 net.cpp:399] inception_3b/5x5_reduce -> inception_3b/5x5_reduce
I0403 18:56:31.785516 23945 net.cpp:141] Setting up inception_3b/5x5_reduce
I0403 18:56:31.785545 23945 net.cpp:148] Top shape: 24 32 28 28 (602112)
I0403 18:56:31.785562 23945 net.cpp:156] Memory required for data: 727352352
I0403 18:56:31.785578 23945 layer_factory.hpp:77] Creating layer inception_3b/relu_5x5_reduce
I0403 18:56:31.785598 23945 net.cpp:91] Creating Layer inception_3b/relu_5x5_reduce
I0403 18:56:31.785612 23945 net.cpp:425] inception_3b/relu_5x5_reduce <- inception_3b/5x5_reduce
I0403 18:56:31.785629 23945 net.cpp:386] inception_3b/relu_5x5_reduce -> inception_3b/5x5_reduce (in-place)
I0403 18:56:31.785801 23945 net.cpp:141] Setting up inception_3b/relu_5x5_reduce
I0403 18:56:31.785825 23945 net.cpp:148] Top shape: 24 32 28 28 (602112)
I0403 18:56:31.785838 23945 net.cpp:156] Memory required for data: 729760800
I0403 18:56:31.785851 23945 layer_factory.hpp:77] Creating layer inception_3b/5x5
I0403 18:56:31.785872 23945 net.cpp:91] Creating Layer inception_3b/5x5
I0403 18:56:31.785889 23945 net.cpp:425] inception_3b/5x5 <- inception_3b/5x5_reduce
I0403 18:56:31.785907 23945 net.cpp:399] inception_3b/5x5 -> inception_3b/5x5
I0403 18:56:31.787773 23945 net.cpp:141] Setting up inception_3b/5x5
I0403 18:56:31.787802 23945 net.cpp:148] Top shape: 24 96 28 28 (1806336)
I0403 18:56:31.787817 23945 net.cpp:156] Memory required for data: 736986144
I0403 18:56:31.787834 23945 layer_factory.hpp:77] Creating layer inception_3b/relu_5x5
I0403 18:56:31.787850 23945 net.cpp:91] Creating Layer inception_3b/relu_5x5
I0403 18:56:31.787865 23945 net.cpp:425] inception_3b/relu_5x5 <- inception_3b/5x5
I0403 18:56:31.787883 23945 net.cpp:386] inception_3b/relu_5x5 -> inception_3b/5x5 (in-place)
I0403 18:56:31.788055 23945 net.cpp:141] Setting up inception_3b/relu_5x5
I0403 18:56:31.788079 23945 net.cpp:148] Top shape: 24 96 28 28 (1806336)
I0403 18:56:31.788091 23945 net.cpp:156] Memory required for data: 744211488
I0403 18:56:31.788105 23945 layer_factory.hpp:77] Creating layer inception_3b/pool
I0403 18:56:31.788120 23945 net.cpp:91] Creating Layer inception_3b/pool
I0403 18:56:31.788136 23945 net.cpp:425] inception_3b/pool <- inception_3a/output_inception_3a/output_0_split_3
I0403 18:56:31.788153 23945 net.cpp:399] inception_3b/pool -> inception_3b/pool
I0403 18:56:31.788204 23945 net.cpp:141] Setting up inception_3b/pool
I0403 18:56:31.788225 23945 net.cpp:148] Top shape: 24 256 28 28 (4816896)
I0403 18:56:31.788239 23945 net.cpp:156] Memory required for data: 763479072
I0403 18:56:31.788252 23945 layer_factory.hpp:77] Creating layer inception_3b/pool_proj
I0403 18:56:31.788275 23945 net.cpp:91] Creating Layer inception_3b/pool_proj
I0403 18:56:31.788290 23945 net.cpp:425] inception_3b/pool_proj <- inception_3b/pool
I0403 18:56:31.788308 23945 net.cpp:399] inception_3b/pool_proj -> inception_3b/pool_proj
I0403 18:56:31.789273 23945 net.cpp:141] Setting up inception_3b/pool_proj
I0403 18:56:31.789299 23945 net.cpp:148] Top shape: 24 64 28 28 (1204224)
I0403 18:56:31.789314 23945 net.cpp:156] Memory required for data: 768295968
I0403 18:56:31.789330 23945 layer_factory.hpp:77] Creating layer inception_3b/relu_pool_proj
I0403 18:56:31.789348 23945 net.cpp:91] Creating Layer inception_3b/relu_pool_proj
I0403 18:56:31.789364 23945 net.cpp:425] inception_3b/relu_pool_proj <- inception_3b/pool_proj
I0403 18:56:31.789381 23945 net.cpp:386] inception_3b/relu_pool_proj -> inception_3b/pool_proj (in-place)
I0403 18:56:31.789747 23945 net.cpp:141] Setting up inception_3b/relu_pool_proj
I0403 18:56:31.789772 23945 net.cpp:148] Top shape: 24 64 28 28 (1204224)
I0403 18:56:31.789786 23945 net.cpp:156] Memory required for data: 773112864
I0403 18:56:31.789799 23945 layer_factory.hpp:77] Creating layer inception_3b/output
I0403 18:56:31.789818 23945 net.cpp:91] Creating Layer inception_3b/output
I0403 18:56:31.789832 23945 net.cpp:425] inception_3b/output <- inception_3b/1x1
I0403 18:56:31.789847 23945 net.cpp:425] inception_3b/output <- inception_3b/3x3
I0403 18:56:31.789861 23945 net.cpp:425] inception_3b/output <- inception_3b/5x5
I0403 18:56:31.789875 23945 net.cpp:425] inception_3b/output <- inception_3b/pool_proj
I0403 18:56:31.789891 23945 net.cpp:399] inception_3b/output -> inception_3b/output
I0403 18:56:31.789933 23945 net.cpp:141] Setting up inception_3b/output
I0403 18:56:31.789954 23945 net.cpp:148] Top shape: 24 480 28 28 (9031680)
I0403 18:56:31.789968 23945 net.cpp:156] Memory required for data: 809239584
I0403 18:56:31.789980 23945 layer_factory.hpp:77] Creating layer pool3/3x3_s2
I0403 18:56:31.789996 23945 net.cpp:91] Creating Layer pool3/3x3_s2
I0403 18:56:31.790010 23945 net.cpp:425] pool3/3x3_s2 <- inception_3b/output
I0403 18:56:31.790043 23945 net.cpp:399] pool3/3x3_s2 -> pool3/3x3_s2
I0403 18:56:31.790096 23945 net.cpp:141] Setting up pool3/3x3_s2
I0403 18:56:31.790120 23945 net.cpp:148] Top shape: 24 480 14 14 (2257920)
I0403 18:56:31.790134 23945 net.cpp:156] Memory required for data: 818271264
I0403 18:56:31.790148 23945 layer_factory.hpp:77] Creating layer pool3/3x3_s2_pool3/3x3_s2_0_split
I0403 18:56:31.790163 23945 net.cpp:91] Creating Layer pool3/3x3_s2_pool3/3x3_s2_0_split
I0403 18:56:31.790177 23945 net.cpp:425] pool3/3x3_s2_pool3/3x3_s2_0_split <- pool3/3x3_s2
I0403 18:56:31.790194 23945 net.cpp:399] pool3/3x3_s2_pool3/3x3_s2_0_split -> pool3/3x3_s2_pool3/3x3_s2_0_split_0
I0403 18:56:31.790212 23945 net.cpp:399] pool3/3x3_s2_pool3/3x3_s2_0_split -> pool3/3x3_s2_pool3/3x3_s2_0_split_1
I0403 18:56:31.790231 23945 net.cpp:399] pool3/3x3_s2_pool3/3x3_s2_0_split -> pool3/3x3_s2_pool3/3x3_s2_0_split_2
I0403 18:56:31.790249 23945 net.cpp:399] pool3/3x3_s2_pool3/3x3_s2_0_split -> pool3/3x3_s2_pool3/3x3_s2_0_split_3
I0403 18:56:31.790319 23945 net.cpp:141] Setting up pool3/3x3_s2_pool3/3x3_s2_0_split
I0403 18:56:31.790340 23945 net.cpp:148] Top shape: 24 480 14 14 (2257920)
I0403 18:56:31.790355 23945 net.cpp:148] Top shape: 24 480 14 14 (2257920)
I0403 18:56:31.790369 23945 net.cpp:148] Top shape: 24 480 14 14 (2257920)
I0403 18:56:31.790383 23945 net.cpp:148] Top shape: 24 480 14 14 (2257920)
I0403 18:56:31.790395 23945 net.cpp:156] Memory required for data: 854397984
I0403 18:56:31.790408 23945 layer_factory.hpp:77] Creating layer inception_4a/1x1
I0403 18:56:31.790429 23945 net.cpp:91] Creating Layer inception_4a/1x1
I0403 18:56:31.790446 23945 net.cpp:425] inception_4a/1x1 <- pool3/3x3_s2_pool3/3x3_s2_0_split_0
I0403 18:56:31.790463 23945 net.cpp:399] inception_4a/1x1 -> inception_4a/1x1
I0403 18:56:31.792001 23945 net.cpp:141] Setting up inception_4a/1x1
I0403 18:56:31.792027 23945 net.cpp:148] Top shape: 24 192 14 14 (903168)
I0403 18:56:31.792042 23945 net.cpp:156] Memory required for data: 858010656
I0403 18:56:31.792058 23945 layer_factory.hpp:77] Creating layer inception_4a/relu_1x1
I0403 18:56:31.792078 23945 net.cpp:91] Creating Layer inception_4a/relu_1x1
I0403 18:56:31.792093 23945 net.cpp:425] inception_4a/relu_1x1 <- inception_4a/1x1
I0403 18:56:31.792110 23945 net.cpp:386] inception_4a/relu_1x1 -> inception_4a/1x1 (in-place)
I0403 18:56:31.792278 23945 net.cpp:141] Setting up inception_4a/relu_1x1
I0403 18:56:31.792301 23945 net.cpp:148] Top shape: 24 192 14 14 (903168)
I0403 18:56:31.792315 23945 net.cpp:156] Memory required for data: 861623328
I0403 18:56:31.792330 23945 layer_factory.hpp:77] Creating layer inception_4a/3x3_reduce
I0403 18:56:31.792351 23945 net.cpp:91] Creating Layer inception_4a/3x3_reduce
I0403 18:56:31.792367 23945 net.cpp:425] inception_4a/3x3_reduce <- pool3/3x3_s2_pool3/3x3_s2_0_split_1
I0403 18:56:31.792387 23945 net.cpp:399] inception_4a/3x3_reduce -> inception_4a/3x3_reduce
I0403 18:56:31.793592 23945 net.cpp:141] Setting up inception_4a/3x3_reduce
I0403 18:56:31.793624 23945 net.cpp:148] Top shape: 24 96 14 14 (451584)
I0403 18:56:31.793640 23945 net.cpp:156] Memory required for data: 863429664
I0403 18:56:31.793661 23945 layer_factory.hpp:77] Creating layer inception_4a/relu_3x3_reduce
I0403 18:56:31.793683 23945 net.cpp:91] Creating Layer inception_4a/relu_3x3_reduce
I0403 18:56:31.793699 23945 net.cpp:425] inception_4a/relu_3x3_reduce <- inception_4a/3x3_reduce
I0403 18:56:31.793717 23945 net.cpp:386] inception_4a/relu_3x3_reduce -> inception_4a/3x3_reduce (in-place)
I0403 18:56:31.793880 23945 net.cpp:141] Setting up inception_4a/relu_3x3_reduce
I0403 18:56:31.793906 23945 net.cpp:148] Top shape: 24 96 14 14 (451584)
I0403 18:56:31.793920 23945 net.cpp:156] Memory required for data: 865236000
I0403 18:56:31.793934 23945 layer_factory.hpp:77] Creating layer inception_4a/3x3
I0403 18:56:31.793954 23945 net.cpp:91] Creating Layer inception_4a/3x3
I0403 18:56:31.793972 23945 net.cpp:425] inception_4a/3x3 <- inception_4a/3x3_reduce
I0403 18:56:31.793992 23945 net.cpp:399] inception_4a/3x3 -> inception_4a/3x3
I0403 18:56:31.796564 23945 net.cpp:141] Setting up inception_4a/3x3
I0403 18:56:31.796594 23945 net.cpp:148] Top shape: 24 208 14 14 (978432)
I0403 18:56:31.796609 23945 net.cpp:156] Memory required for data: 869149728
I0403 18:56:31.796627 23945 layer_factory.hpp:77] Creating layer inception_4a/relu_3x3
I0403 18:56:31.796644 23945 net.cpp:91] Creating Layer inception_4a/relu_3x3
I0403 18:56:31.796658 23945 net.cpp:425] inception_4a/relu_3x3 <- inception_4a/3x3
I0403 18:56:31.796677 23945 net.cpp:386] inception_4a/relu_3x3 -> inception_4a/3x3 (in-place)
I0403 18:56:31.796942 23945 net.cpp:141] Setting up inception_4a/relu_3x3
I0403 18:56:31.796969 23945 net.cpp:148] Top shape: 24 208 14 14 (978432)
I0403 18:56:31.796984 23945 net.cpp:156] Memory required for data: 873063456
I0403 18:56:31.796999 23945 layer_factory.hpp:77] Creating layer inception_4a/5x5_reduce
I0403 18:56:31.797021 23945 net.cpp:91] Creating Layer inception_4a/5x5_reduce
I0403 18:56:31.797039 23945 net.cpp:425] inception_4a/5x5_reduce <- pool3/3x3_s2_pool3/3x3_s2_0_split_2
I0403 18:56:31.797058 23945 net.cpp:399] inception_4a/5x5_reduce -> inception_4a/5x5_reduce
I0403 18:56:31.798020 23945 net.cpp:141] Setting up inception_4a/5x5_reduce
I0403 18:56:31.798048 23945 net.cpp:148] Top shape: 24 16 14 14 (75264)
I0403 18:56:31.798063 23945 net.cpp:156] Memory required for data: 873364512
I0403 18:56:31.798079 23945 layer_factory.hpp:77] Creating layer inception_4a/relu_5x5_reduce
I0403 18:56:31.798097 23945 net.cpp:91] Creating Layer inception_4a/relu_5x5_reduce
I0403 18:56:31.798113 23945 net.cpp:425] inception_4a/relu_5x5_reduce <- inception_4a/5x5_reduce
I0403 18:56:31.798130 23945 net.cpp:386] inception_4a/relu_5x5_reduce -> inception_4a/5x5_reduce (in-place)
I0403 18:56:31.798292 23945 net.cpp:141] Setting up inception_4a/relu_5x5_reduce
I0403 18:56:31.798316 23945 net.cpp:148] Top shape: 24 16 14 14 (75264)
I0403 18:56:31.798331 23945 net.cpp:156] Memory required for data: 873665568
I0403 18:56:31.798344 23945 layer_factory.hpp:77] Creating layer inception_4a/5x5
I0403 18:56:31.798365 23945 net.cpp:91] Creating Layer inception_4a/5x5
I0403 18:56:31.798382 23945 net.cpp:425] inception_4a/5x5 <- inception_4a/5x5_reduce
I0403 18:56:31.798401 23945 net.cpp:399] inception_4a/5x5 -> inception_4a/5x5
I0403 18:56:31.799429 23945 net.cpp:141] Setting up inception_4a/5x5
I0403 18:56:31.799456 23945 net.cpp:148] Top shape: 24 48 14 14 (225792)
I0403 18:56:31.799470 23945 net.cpp:156] Memory required for data: 874568736
I0403 18:56:31.799487 23945 layer_factory.hpp:77] Creating layer inception_4a/relu_5x5
I0403 18:56:31.799507 23945 net.cpp:91] Creating Layer inception_4a/relu_5x5
I0403 18:56:31.799522 23945 net.cpp:425] inception_4a/relu_5x5 <- inception_4a/5x5
I0403 18:56:31.799542 23945 net.cpp:386] inception_4a/relu_5x5 -> inception_4a/5x5 (in-place)
I0403 18:56:31.799710 23945 net.cpp:141] Setting up inception_4a/relu_5x5
I0403 18:56:31.799736 23945 net.cpp:148] Top shape: 24 48 14 14 (225792)
I0403 18:56:31.799751 23945 net.cpp:156] Memory required for data: 875471904
I0403 18:56:31.799764 23945 layer_factory.hpp:77] Creating layer inception_4a/pool
I0403 18:56:31.799780 23945 net.cpp:91] Creating Layer inception_4a/pool
I0403 18:56:31.799795 23945 net.cpp:425] inception_4a/pool <- pool3/3x3_s2_pool3/3x3_s2_0_split_3
I0403 18:56:31.799818 23945 net.cpp:399] inception_4a/pool -> inception_4a/pool
I0403 18:56:31.799875 23945 net.cpp:141] Setting up inception_4a/pool
I0403 18:56:31.799897 23945 net.cpp:148] Top shape: 24 480 14 14 (2257920)
I0403 18:56:31.799911 23945 net.cpp:156] Memory required for data: 884503584
I0403 18:56:31.799924 23945 layer_factory.hpp:77] Creating layer inception_4a/pool_proj
I0403 18:56:31.799945 23945 net.cpp:91] Creating Layer inception_4a/pool_proj
I0403 18:56:31.799962 23945 net.cpp:425] inception_4a/pool_proj <- inception_4a/pool
I0403 18:56:31.799981 23945 net.cpp:399] inception_4a/pool_proj -> inception_4a/pool_proj
I0403 18:56:31.801081 23945 net.cpp:141] Setting up inception_4a/pool_proj
I0403 18:56:31.801113 23945 net.cpp:148] Top shape: 24 64 14 14 (301056)
I0403 18:56:31.801142 23945 net.cpp:156] Memory required for data: 885707808
I0403 18:56:31.801161 23945 layer_factory.hpp:77] Creating layer inception_4a/relu_pool_proj
I0403 18:56:31.801177 23945 net.cpp:91] Creating Layer inception_4a/relu_pool_proj
I0403 18:56:31.801192 23945 net.cpp:425] inception_4a/relu_pool_proj <- inception_4a/pool_proj
I0403 18:56:31.801209 23945 net.cpp:386] inception_4a/relu_pool_proj -> inception_4a/pool_proj (in-place)
I0403 18:56:31.801473 23945 net.cpp:141] Setting up inception_4a/relu_pool_proj
I0403 18:56:31.801501 23945 net.cpp:148] Top shape: 24 64 14 14 (301056)
I0403 18:56:31.801517 23945 net.cpp:156] Memory required for data: 886912032
I0403 18:56:31.801530 23945 layer_factory.hpp:77] Creating layer inception_4a/output
I0403 18:56:31.801553 23945 net.cpp:91] Creating Layer inception_4a/output
I0403 18:56:31.801568 23945 net.cpp:425] inception_4a/output <- inception_4a/1x1
I0403 18:56:31.801584 23945 net.cpp:425] inception_4a/output <- inception_4a/3x3
I0403 18:56:31.801599 23945 net.cpp:425] inception_4a/output <- inception_4a/5x5
I0403 18:56:31.801612 23945 net.cpp:425] inception_4a/output <- inception_4a/pool_proj
I0403 18:56:31.801628 23945 net.cpp:399] inception_4a/output -> inception_4a/output
I0403 18:56:31.801672 23945 net.cpp:141] Setting up inception_4a/output
I0403 18:56:31.801695 23945 net.cpp:148] Top shape: 24 512 14 14 (2408448)
I0403 18:56:31.801708 23945 net.cpp:156] Memory required for data: 896545824
I0403 18:56:31.801722 23945 layer_factory.hpp:77] Creating layer inception_4a/output_inception_4a/output_0_split
I0403 18:56:31.801740 23945 net.cpp:91] Creating Layer inception_4a/output_inception_4a/output_0_split
I0403 18:56:31.801754 23945 net.cpp:425] inception_4a/output_inception_4a/output_0_split <- inception_4a/output
I0403 18:56:31.801771 23945 net.cpp:399] inception_4a/output_inception_4a/output_0_split -> inception_4a/output_inception_4a/output_0_split_0
I0403 18:56:31.801789 23945 net.cpp:399] inception_4a/output_inception_4a/output_0_split -> inception_4a/output_inception_4a/output_0_split_1
I0403 18:56:31.801810 23945 net.cpp:399] inception_4a/output_inception_4a/output_0_split -> inception_4a/output_inception_4a/output_0_split_2
I0403 18:56:31.801828 23945 net.cpp:399] inception_4a/output_inception_4a/output_0_split -> inception_4a/output_inception_4a/output_0_split_3
I0403 18:56:31.801848 23945 net.cpp:399] inception_4a/output_inception_4a/output_0_split -> inception_4a/output_inception_4a/output_0_split_4
I0403 18:56:31.801939 23945 net.cpp:141] Setting up inception_4a/output_inception_4a/output_0_split
I0403 18:56:31.801960 23945 net.cpp:148] Top shape: 24 512 14 14 (2408448)
I0403 18:56:31.801975 23945 net.cpp:148] Top shape: 24 512 14 14 (2408448)
I0403 18:56:31.801990 23945 net.cpp:148] Top shape: 24 512 14 14 (2408448)
I0403 18:56:31.802005 23945 net.cpp:148] Top shape: 24 512 14 14 (2408448)
I0403 18:56:31.802018 23945 net.cpp:148] Top shape: 24 512 14 14 (2408448)
I0403 18:56:31.802031 23945 net.cpp:156] Memory required for data: 944714784
I0403 18:56:31.802044 23945 layer_factory.hpp:77] Creating layer loss1/ave_pool
I0403 18:56:31.802060 23945 net.cpp:91] Creating Layer loss1/ave_pool
I0403 18:56:31.802074 23945 net.cpp:425] loss1/ave_pool <- inception_4a/output_inception_4a/output_0_split_0
I0403 18:56:31.802096 23945 net.cpp:399] loss1/ave_pool -> loss1/ave_pool
I0403 18:56:31.802285 23945 net.cpp:141] Setting up loss1/ave_pool
I0403 18:56:31.802314 23945 net.cpp:148] Top shape: 24 512 4 4 (196608)
I0403 18:56:31.802327 23945 net.cpp:156] Memory required for data: 945501216
I0403 18:56:31.802342 23945 layer_factory.hpp:77] Creating layer loss1/conv
I0403 18:56:31.802363 23945 net.cpp:91] Creating Layer loss1/conv
I0403 18:56:31.802379 23945 net.cpp:425] loss1/conv <- loss1/ave_pool
I0403 18:56:31.802397 23945 net.cpp:399] loss1/conv -> loss1/conv
I0403 18:56:31.803731 23945 net.cpp:141] Setting up loss1/conv
I0403 18:56:31.803758 23945 net.cpp:148] Top shape: 24 128 4 4 (49152)
I0403 18:56:31.803787 23945 net.cpp:156] Memory required for data: 945697824
I0403 18:56:31.803807 23945 layer_factory.hpp:77] Creating layer loss1/relu_conv
I0403 18:56:31.803822 23945 net.cpp:91] Creating Layer loss1/relu_conv
I0403 18:56:31.803836 23945 net.cpp:425] loss1/relu_conv <- loss1/conv
I0403 18:56:31.803855 23945 net.cpp:386] loss1/relu_conv -> loss1/conv (in-place)
I0403 18:56:31.804121 23945 net.cpp:141] Setting up loss1/relu_conv
I0403 18:56:31.804147 23945 net.cpp:148] Top shape: 24 128 4 4 (49152)
I0403 18:56:31.804162 23945 net.cpp:156] Memory required for data: 945894432
I0403 18:56:31.804175 23945 layer_factory.hpp:77] Creating layer loss1/fc
I0403 18:56:31.804198 23945 net.cpp:91] Creating Layer loss1/fc
I0403 18:56:31.804214 23945 net.cpp:425] loss1/fc <- loss1/conv
I0403 18:56:31.804234 23945 net.cpp:399] loss1/fc -> loss1/fc
I0403 18:56:31.821136 23945 net.cpp:141] Setting up loss1/fc
I0403 18:56:31.821167 23945 net.cpp:148] Top shape: 24 1024 (24576)
I0403 18:56:31.821182 23945 net.cpp:156] Memory required for data: 945992736
I0403 18:56:31.821200 23945 layer_factory.hpp:77] Creating layer loss1/relu_fc
I0403 18:56:31.821219 23945 net.cpp:91] Creating Layer loss1/relu_fc
I0403 18:56:31.821234 23945 net.cpp:425] loss1/relu_fc <- loss1/fc
I0403 18:56:31.821250 23945 net.cpp:386] loss1/relu_fc -> loss1/fc (in-place)
I0403 18:56:31.821419 23945 net.cpp:141] Setting up loss1/relu_fc
I0403 18:56:31.821444 23945 net.cpp:148] Top shape: 24 1024 (24576)
I0403 18:56:31.821456 23945 net.cpp:156] Memory required for data: 946091040
I0403 18:56:31.821470 23945 layer_factory.hpp:77] Creating layer loss1/drop_fc
I0403 18:56:31.821493 23945 net.cpp:91] Creating Layer loss1/drop_fc
I0403 18:56:31.821511 23945 net.cpp:425] loss1/drop_fc <- loss1/fc
I0403 18:56:31.821528 23945 net.cpp:386] loss1/drop_fc -> loss1/fc (in-place)
I0403 18:56:31.821578 23945 net.cpp:141] Setting up loss1/drop_fc
I0403 18:56:31.821600 23945 net.cpp:148] Top shape: 24 1024 (24576)
I0403 18:56:31.821614 23945 net.cpp:156] Memory required for data: 946189344
I0403 18:56:31.821626 23945 layer_factory.hpp:77] Creating layer loss1/classifier_plantvillage
I0403 18:56:31.821647 23945 net.cpp:91] Creating Layer loss1/classifier_plantvillage
I0403 18:56:31.821663 23945 net.cpp:425] loss1/classifier_plantvillage <- loss1/fc
I0403 18:56:31.821686 23945 net.cpp:399] loss1/classifier_plantvillage -> loss1/classifier_plantvillage
I0403 18:56:31.822547 23945 net.cpp:141] Setting up loss1/classifier_plantvillage
I0403 18:56:31.822576 23945 net.cpp:148] Top shape: 24 38 (912)
I0403 18:56:31.822592 23945 net.cpp:156] Memory required for data: 946192992
I0403 18:56:31.822608 23945 layer_factory.hpp:77] Creating layer loss1/classifier_plantvillage_loss1/classifier_plantvillage_0_split
I0403 18:56:31.822624 23945 net.cpp:91] Creating Layer loss1/classifier_plantvillage_loss1/classifier_plantvillage_0_split
I0403 18:56:31.822639 23945 net.cpp:425] loss1/classifier_plantvillage_loss1/classifier_plantvillage_0_split <- loss1/classifier_plantvillage
I0403 18:56:31.822659 23945 net.cpp:399] loss1/classifier_plantvillage_loss1/classifier_plantvillage_0_split -> loss1/classifier_plantvillage_loss1/classifier_plantvillage_0_split_0
I0403 18:56:31.822677 23945 net.cpp:399] loss1/classifier_plantvillage_loss1/classifier_plantvillage_0_split -> loss1/classifier_plantvillage_loss1/classifier_plantvillage_0_split_1
I0403 18:56:31.822696 23945 net.cpp:399] loss1/classifier_plantvillage_loss1/classifier_plantvillage_0_split -> loss1/classifier_plantvillage_loss1/classifier_plantvillage_0_split_2
I0403 18:56:31.822756 23945 net.cpp:141] Setting up loss1/classifier_plantvillage_loss1/classifier_plantvillage_0_split
I0403 18:56:31.822777 23945 net.cpp:148] Top shape: 24 38 (912)
I0403 18:56:31.822791 23945 net.cpp:148] Top shape: 24 38 (912)
I0403 18:56:31.822805 23945 net.cpp:148] Top shape: 24 38 (912)
I0403 18:56:31.822818 23945 net.cpp:156] Memory required for data: 946203936
I0403 18:56:31.822831 23945 layer_factory.hpp:77] Creating layer inception_4b/1x1
I0403 18:56:31.822851 23945 net.cpp:91] Creating Layer inception_4b/1x1
I0403 18:56:31.822881 23945 net.cpp:425] inception_4b/1x1 <- inception_4a/output_inception_4a/output_0_split_1
I0403 18:56:31.822901 23945 net.cpp:399] inception_4b/1x1 -> inception_4b/1x1
I0403 18:56:31.824415 23945 net.cpp:141] Setting up inception_4b/1x1
I0403 18:56:31.824442 23945 net.cpp:148] Top shape: 24 160 14 14 (752640)
I0403 18:56:31.824456 23945 net.cpp:156] Memory required for data: 949214496
I0403 18:56:31.824473 23945 layer_factory.hpp:77] Creating layer inception_4b/relu_1x1
I0403 18:56:31.824491 23945 net.cpp:91] Creating Layer inception_4b/relu_1x1
I0403 18:56:31.824508 23945 net.cpp:425] inception_4b/relu_1x1 <- inception_4b/1x1
I0403 18:56:31.824525 23945 net.cpp:386] inception_4b/relu_1x1 -> inception_4b/1x1 (in-place)
I0403 18:56:31.824697 23945 net.cpp:141] Setting up inception_4b/relu_1x1
I0403 18:56:31.824722 23945 net.cpp:148] Top shape: 24 160 14 14 (752640)
I0403 18:56:31.824735 23945 net.cpp:156] Memory required for data: 952225056
I0403 18:56:31.824748 23945 layer_factory.hpp:77] Creating layer inception_4b/3x3_reduce
I0403 18:56:31.824769 23945 net.cpp:91] Creating Layer inception_4b/3x3_reduce
I0403 18:56:31.824785 23945 net.cpp:425] inception_4b/3x3_reduce <- inception_4a/output_inception_4a/output_0_split_2
I0403 18:56:31.824805 23945 net.cpp:399] inception_4b/3x3_reduce -> inception_4b/3x3_reduce
I0403 18:56:31.826055 23945 net.cpp:141] Setting up inception_4b/3x3_reduce
I0403 18:56:31.826081 23945 net.cpp:148] Top shape: 24 112 14 14 (526848)
I0403 18:56:31.826094 23945 net.cpp:156] Memory required for data: 954332448
I0403 18:56:31.826112 23945 layer_factory.hpp:77] Creating layer inception_4b/relu_3x3_reduce
I0403 18:56:31.826130 23945 net.cpp:91] Creating Layer inception_4b/relu_3x3_reduce
I0403 18:56:31.826146 23945 net.cpp:425] inception_4b/relu_3x3_reduce <- inception_4b/3x3_reduce
I0403 18:56:31.826164 23945 net.cpp:386] inception_4b/relu_3x3_reduce -> inception_4b/3x3_reduce (in-place)
I0403 18:56:31.826418 23945 net.cpp:141] Setting up inception_4b/relu_3x3_reduce
I0403 18:56:31.826443 23945 net.cpp:148] Top shape: 24 112 14 14 (526848)
I0403 18:56:31.826457 23945 net.cpp:156] Memory required for data: 956439840
I0403 18:56:31.826472 23945 layer_factory.hpp:77] Creating layer inception_4b/3x3
I0403 18:56:31.826491 23945 net.cpp:91] Creating Layer inception_4b/3x3
I0403 18:56:31.826508 23945 net.cpp:425] inception_4b/3x3 <- inception_4b/3x3_reduce
I0403 18:56:31.826529 23945 net.cpp:399] inception_4b/3x3 -> inception_4b/3x3
I0403 18:56:31.829315 23945 net.cpp:141] Setting up inception_4b/3x3
I0403 18:56:31.829344 23945 net.cpp:148] Top shape: 24 224 14 14 (1053696)
I0403 18:56:31.829360 23945 net.cpp:156] Memory required for data: 960654624
I0403 18:56:31.829377 23945 layer_factory.hpp:77] Creating layer inception_4b/relu_3x3
I0403 18:56:31.829394 23945 net.cpp:91] Creating Layer inception_4b/relu_3x3
I0403 18:56:31.829408 23945 net.cpp:425] inception_4b/relu_3x3 <- inception_4b/3x3
I0403 18:56:31.829427 23945 net.cpp:386] inception_4b/relu_3x3 -> inception_4b/3x3 (in-place)
I0403 18:56:31.829597 23945 net.cpp:141] Setting up inception_4b/relu_3x3
I0403 18:56:31.829622 23945 net.cpp:148] Top shape: 24 224 14 14 (1053696)
I0403 18:56:31.829634 23945 net.cpp:156] Memory required for data: 964869408
I0403 18:56:31.829648 23945 layer_factory.hpp:77] Creating layer inception_4b/5x5_reduce
I0403 18:56:31.829668 23945 net.cpp:91] Creating Layer inception_4b/5x5_reduce
I0403 18:56:31.829684 23945 net.cpp:425] inception_4b/5x5_reduce <- inception_4a/output_inception_4a/output_0_split_3
I0403 18:56:31.829704 23945 net.cpp:399] inception_4b/5x5_reduce -> inception_4b/5x5_reduce
I0403 18:56:31.830706 23945 net.cpp:141] Setting up inception_4b/5x5_reduce
I0403 18:56:31.830734 23945 net.cpp:148] Top shape: 24 24 14 14 (112896)
I0403 18:56:31.830747 23945 net.cpp:156] Memory required for data: 965320992
I0403 18:56:31.830765 23945 layer_factory.hpp:77] Creating layer inception_4b/relu_5x5_reduce
I0403 18:56:31.830783 23945 net.cpp:91] Creating Layer inception_4b/relu_5x5_reduce
I0403 18:56:31.830811 23945 net.cpp:425] inception_4b/relu_5x5_reduce <- inception_4b/5x5_reduce
I0403 18:56:31.830829 23945 net.cpp:386] inception_4b/relu_5x5_reduce -> inception_4b/5x5_reduce (in-place)
I0403 18:56:31.830994 23945 net.cpp:141] Setting up inception_4b/relu_5x5_reduce
I0403 18:56:31.831017 23945 net.cpp:148] Top shape: 24 24 14 14 (112896)
I0403 18:56:31.831032 23945 net.cpp:156] Memory required for data: 965772576
I0403 18:56:31.831044 23945 layer_factory.hpp:77] Creating layer inception_4b/5x5
I0403 18:56:31.831065 23945 net.cpp:91] Creating Layer inception_4b/5x5
I0403 18:56:31.831081 23945 net.cpp:425] inception_4b/5x5 <- inception_4b/5x5_reduce
I0403 18:56:31.831101 23945 net.cpp:399] inception_4b/5x5 -> inception_4b/5x5
I0403 18:56:31.832237 23945 net.cpp:141] Setting up inception_4b/5x5
I0403 18:56:31.832263 23945 net.cpp:148] Top shape: 24 64 14 14 (301056)
I0403 18:56:31.832278 23945 net.cpp:156] Memory required for data: 966976800
I0403 18:56:31.832294 23945 layer_factory.hpp:77] Creating layer inception_4b/relu_5x5
I0403 18:56:31.832310 23945 net.cpp:91] Creating Layer inception_4b/relu_5x5
I0403 18:56:31.832329 23945 net.cpp:425] inception_4b/relu_5x5 <- inception_4b/5x5
I0403 18:56:31.832345 23945 net.cpp:386] inception_4b/relu_5x5 -> inception_4b/5x5 (in-place)
I0403 18:56:31.832608 23945 net.cpp:141] Setting up inception_4b/relu_5x5
I0403 18:56:31.832633 23945 net.cpp:148] Top shape: 24 64 14 14 (301056)
I0403 18:56:31.832648 23945 net.cpp:156] Memory required for data: 968181024
I0403 18:56:31.832661 23945 layer_factory.hpp:77] Creating layer inception_4b/pool
I0403 18:56:31.832679 23945 net.cpp:91] Creating Layer inception_4b/pool
I0403 18:56:31.832693 23945 net.cpp:425] inception_4b/pool <- inception_4a/output_inception_4a/output_0_split_4
I0403 18:56:31.832715 23945 net.cpp:399] inception_4b/pool -> inception_4b/pool
I0403 18:56:31.832775 23945 net.cpp:141] Setting up inception_4b/pool
I0403 18:56:31.832799 23945 net.cpp:148] Top shape: 24 512 14 14 (2408448)
I0403 18:56:31.832813 23945 net.cpp:156] Memory required for data: 977814816
I0403 18:56:31.832828 23945 layer_factory.hpp:77] Creating layer inception_4b/pool_proj
I0403 18:56:31.832847 23945 net.cpp:91] Creating Layer inception_4b/pool_proj
I0403 18:56:31.832864 23945 net.cpp:425] inception_4b/pool_proj <- inception_4b/pool
I0403 18:56:31.832881 23945 net.cpp:399] inception_4b/pool_proj -> inception_4b/pool_proj
I0403 18:56:31.833987 23945 net.cpp:141] Setting up inception_4b/pool_proj
I0403 18:56:31.834013 23945 net.cpp:148] Top shape: 24 64 14 14 (301056)
I0403 18:56:31.834028 23945 net.cpp:156] Memory required for data: 979019040
I0403 18:56:31.834044 23945 layer_factory.hpp:77] Creating layer inception_4b/relu_pool_proj
I0403 18:56:31.834063 23945 net.cpp:91] Creating Layer inception_4b/relu_pool_proj
I0403 18:56:31.834079 23945 net.cpp:425] inception_4b/relu_pool_proj <- inception_4b/pool_proj
I0403 18:56:31.834095 23945 net.cpp:386] inception_4b/relu_pool_proj -> inception_4b/pool_proj (in-place)
I0403 18:56:31.834256 23945 net.cpp:141] Setting up inception_4b/relu_pool_proj
I0403 18:56:31.834280 23945 net.cpp:148] Top shape: 24 64 14 14 (301056)
I0403 18:56:31.834292 23945 net.cpp:156] Memory required for data: 980223264
I0403 18:56:31.834306 23945 layer_factory.hpp:77] Creating layer inception_4b/output
I0403 18:56:31.834323 23945 net.cpp:91] Creating Layer inception_4b/output
I0403 18:56:31.834339 23945 net.cpp:425] inception_4b/output <- inception_4b/1x1
I0403 18:56:31.834354 23945 net.cpp:425] inception_4b/output <- inception_4b/3x3
I0403 18:56:31.834368 23945 net.cpp:425] inception_4b/output <- inception_4b/5x5
I0403 18:56:31.834383 23945 net.cpp:425] inception_4b/output <- inception_4b/pool_proj
I0403 18:56:31.834398 23945 net.cpp:399] inception_4b/output -> inception_4b/output
I0403 18:56:31.834441 23945 net.cpp:141] Setting up inception_4b/output
I0403 18:56:31.834462 23945 net.cpp:148] Top shape: 24 512 14 14 (2408448)
I0403 18:56:31.834475 23945 net.cpp:156] Memory required for data: 989857056
I0403 18:56:31.834504 23945 layer_factory.hpp:77] Creating layer inception_4b/output_inception_4b/output_0_split
I0403 18:56:31.834522 23945 net.cpp:91] Creating Layer inception_4b/output_inception_4b/output_0_split
I0403 18:56:31.834534 23945 net.cpp:425] inception_4b/output_inception_4b/output_0_split <- inception_4b/output
I0403 18:56:31.834566 23945 net.cpp:399] inception_4b/output_inception_4b/output_0_split -> inception_4b/output_inception_4b/output_0_split_0
I0403 18:56:31.834589 23945 net.cpp:399] inception_4b/output_inception_4b/output_0_split -> inception_4b/output_inception_4b/output_0_split_1
I0403 18:56:31.834607 23945 net.cpp:399] inception_4b/output_inception_4b/output_0_split -> inception_4b/output_inception_4b/output_0_split_2
I0403 18:56:31.834627 23945 net.cpp:399] inception_4b/output_inception_4b/output_0_split -> inception_4b/output_inception_4b/output_0_split_3
I0403 18:56:31.834704 23945 net.cpp:141] Setting up inception_4b/output_inception_4b/output_0_split
I0403 18:56:31.834729 23945 net.cpp:148] Top shape: 24 512 14 14 (2408448)
I0403 18:56:31.834744 23945 net.cpp:148] Top shape: 24 512 14 14 (2408448)
I0403 18:56:31.834759 23945 net.cpp:148] Top shape: 24 512 14 14 (2408448)
I0403 18:56:31.834774 23945 net.cpp:148] Top shape: 24 512 14 14 (2408448)
I0403 18:56:31.834785 23945 net.cpp:156] Memory required for data: 1028392224
I0403 18:56:31.834799 23945 layer_factory.hpp:77] Creating layer inception_4c/1x1
I0403 18:56:31.834818 23945 net.cpp:91] Creating Layer inception_4c/1x1
I0403 18:56:31.834835 23945 net.cpp:425] inception_4c/1x1 <- inception_4b/output_inception_4b/output_0_split_0
I0403 18:56:31.834851 23945 net.cpp:399] inception_4c/1x1 -> inception_4c/1x1
I0403 18:56:31.836241 23945 net.cpp:141] Setting up inception_4c/1x1
I0403 18:56:31.836269 23945 net.cpp:148] Top shape: 24 128 14 14 (602112)
I0403 18:56:31.836284 23945 net.cpp:156] Memory required for data: 1030800672
I0403 18:56:31.836302 23945 layer_factory.hpp:77] Creating layer inception_4c/relu_1x1
I0403 18:56:31.836321 23945 net.cpp:91] Creating Layer inception_4c/relu_1x1
I0403 18:56:31.836338 23945 net.cpp:425] inception_4c/relu_1x1 <- inception_4c/1x1
I0403 18:56:31.836355 23945 net.cpp:386] inception_4c/relu_1x1 -> inception_4c/1x1 (in-place)
I0403 18:56:31.836527 23945 net.cpp:141] Setting up inception_4c/relu_1x1
I0403 18:56:31.836555 23945 net.cpp:148] Top shape: 24 128 14 14 (602112)
I0403 18:56:31.836570 23945 net.cpp:156] Memory required for data: 1033209120
I0403 18:56:31.836585 23945 layer_factory.hpp:77] Creating layer inception_4c/3x3_reduce
I0403 18:56:31.836606 23945 net.cpp:91] Creating Layer inception_4c/3x3_reduce
I0403 18:56:31.836623 23945 net.cpp:425] inception_4c/3x3_reduce <- inception_4b/output_inception_4b/output_0_split_1
I0403 18:56:31.836643 23945 net.cpp:399] inception_4c/3x3_reduce -> inception_4c/3x3_reduce
I0403 18:56:31.838501 23945 net.cpp:141] Setting up inception_4c/3x3_reduce
I0403 18:56:31.838529 23945 net.cpp:148] Top shape: 24 128 14 14 (602112)
I0403 18:56:31.838549 23945 net.cpp:156] Memory required for data: 1035617568
I0403 18:56:31.838568 23945 layer_factory.hpp:77] Creating layer inception_4c/relu_3x3_reduce
I0403 18:56:31.838585 23945 net.cpp:91] Creating Layer inception_4c/relu_3x3_reduce
I0403 18:56:31.838600 23945 net.cpp:425] inception_4c/relu_3x3_reduce <- inception_4c/3x3_reduce
I0403 18:56:31.838619 23945 net.cpp:386] inception_4c/relu_3x3_reduce -> inception_4c/3x3_reduce (in-place)
I0403 18:56:31.838893 23945 net.cpp:141] Setting up inception_4c/relu_3x3_reduce
I0403 18:56:31.838918 23945 net.cpp:148] Top shape: 24 128 14 14 (602112)
I0403 18:56:31.838932 23945 net.cpp:156] Memory required for data: 1038026016
I0403 18:56:31.838948 23945 layer_factory.hpp:77] Creating layer inception_4c/3x3
I0403 18:56:31.838970 23945 net.cpp:91] Creating Layer inception_4c/3x3
I0403 18:56:31.838987 23945 net.cpp:425] inception_4c/3x3 <- inception_4c/3x3_reduce
I0403 18:56:31.839007 23945 net.cpp:399] inception_4c/3x3 -> inception_4c/3x3
I0403 18:56:31.842484 23945 net.cpp:141] Setting up inception_4c/3x3
I0403 18:56:31.842525 23945 net.cpp:148] Top shape: 24 256 14 14 (1204224)
I0403 18:56:31.842543 23945 net.cpp:156] Memory required for data: 1042842912
I0403 18:56:31.842576 23945 layer_factory.hpp:77] Creating layer inception_4c/relu_3x3
I0403 18:56:31.842598 23945 net.cpp:91] Creating Layer inception_4c/relu_3x3
I0403 18:56:31.842614 23945 net.cpp:425] inception_4c/relu_3x3 <- inception_4c/3x3
I0403 18:56:31.842631 23945 net.cpp:386] inception_4c/relu_3x3 -> inception_4c/3x3 (in-place)
I0403 18:56:31.842800 23945 net.cpp:141] Setting up inception_4c/relu_3x3
I0403 18:56:31.842823 23945 net.cpp:148] Top shape: 24 256 14 14 (1204224)
I0403 18:56:31.842838 23945 net.cpp:156] Memory required for data: 1047659808
I0403 18:56:31.842851 23945 layer_factory.hpp:77] Creating layer inception_4c/5x5_reduce
I0403 18:56:31.842874 23945 net.cpp:91] Creating Layer inception_4c/5x5_reduce
I0403 18:56:31.842890 23945 net.cpp:425] inception_4c/5x5_reduce <- inception_4b/output_inception_4b/output_0_split_2
I0403 18:56:31.842911 23945 net.cpp:399] inception_4c/5x5_reduce -> inception_4c/5x5_reduce
I0403 18:56:31.843956 23945 net.cpp:141] Setting up inception_4c/5x5_reduce
I0403 18:56:31.843983 23945 net.cpp:148] Top shape: 24 24 14 14 (112896)
I0403 18:56:31.843998 23945 net.cpp:156] Memory required for data: 1048111392
I0403 18:56:31.844017 23945 layer_factory.hpp:77] Creating layer inception_4c/relu_5x5_reduce
I0403 18:56:31.844033 23945 net.cpp:91] Creating Layer inception_4c/relu_5x5_reduce
I0403 18:56:31.844048 23945 net.cpp:425] inception_4c/relu_5x5_reduce <- inception_4c/5x5_reduce
I0403 18:56:31.844066 23945 net.cpp:386] inception_4c/relu_5x5_reduce -> inception_4c/5x5_reduce (in-place)
I0403 18:56:31.844241 23945 net.cpp:141] Setting up inception_4c/relu_5x5_reduce
I0403 18:56:31.844266 23945 net.cpp:148] Top shape: 24 24 14 14 (112896)
I0403 18:56:31.844280 23945 net.cpp:156] Memory required for data: 1048562976
I0403 18:56:31.844293 23945 layer_factory.hpp:77] Creating layer inception_4c/5x5
I0403 18:56:31.844315 23945 net.cpp:91] Creating Layer inception_4c/5x5
I0403 18:56:31.844331 23945 net.cpp:425] inception_4c/5x5 <- inception_4c/5x5_reduce
I0403 18:56:31.844352 23945 net.cpp:399] inception_4c/5x5 -> inception_4c/5x5
I0403 18:56:31.845564 23945 net.cpp:141] Setting up inception_4c/5x5
I0403 18:56:31.845592 23945 net.cpp:148] Top shape: 24 64 14 14 (301056)
I0403 18:56:31.845607 23945 net.cpp:156] Memory required for data: 1049767200
I0403 18:56:31.845623 23945 layer_factory.hpp:77] Creating layer inception_4c/relu_5x5
I0403 18:56:31.845643 23945 net.cpp:91] Creating Layer inception_4c/relu_5x5
I0403 18:56:31.845659 23945 net.cpp:425] inception_4c/relu_5x5 <- inception_4c/5x5
I0403 18:56:31.845675 23945 net.cpp:386] inception_4c/relu_5x5 -> inception_4c/5x5 (in-place)
I0403 18:56:31.845952 23945 net.cpp:141] Setting up inception_4c/relu_5x5
I0403 18:56:31.845976 23945 net.cpp:148] Top shape: 24 64 14 14 (301056)
I0403 18:56:31.845990 23945 net.cpp:156] Memory required for data: 1050971424
I0403 18:56:31.846004 23945 layer_factory.hpp:77] Creating layer inception_4c/pool
I0403 18:56:31.846024 23945 net.cpp:91] Creating Layer inception_4c/pool
I0403 18:56:31.846040 23945 net.cpp:425] inception_4c/pool <- inception_4b/output_inception_4b/output_0_split_3
I0403 18:56:31.846058 23945 net.cpp:399] inception_4c/pool -> inception_4c/pool
I0403 18:56:31.846122 23945 net.cpp:141] Setting up inception_4c/pool
I0403 18:56:31.846143 23945 net.cpp:148] Top shape: 24 512 14 14 (2408448)
I0403 18:56:31.846158 23945 net.cpp:156] Memory required for data: 1060605216
I0403 18:56:31.846170 23945 layer_factory.hpp:77] Creating layer inception_4c/pool_proj
I0403 18:56:31.846191 23945 net.cpp:91] Creating Layer inception_4c/pool_proj
I0403 18:56:31.846209 23945 net.cpp:425] inception_4c/pool_proj <- inception_4c/pool
I0403 18:56:31.846230 23945 net.cpp:399] inception_4c/pool_proj -> inception_4c/pool_proj
I0403 18:56:31.847394 23945 net.cpp:141] Setting up inception_4c/pool_proj
I0403 18:56:31.847421 23945 net.cpp:148] Top shape: 24 64 14 14 (301056)
I0403 18:56:31.847453 23945 net.cpp:156] Memory required for data: 1061809440
I0403 18:56:31.847472 23945 layer_factory.hpp:77] Creating layer inception_4c/relu_pool_proj
I0403 18:56:31.847492 23945 net.cpp:91] Creating Layer inception_4c/relu_pool_proj
I0403 18:56:31.847509 23945 net.cpp:425] inception_4c/relu_pool_proj <- inception_4c/pool_proj
I0403 18:56:31.847525 23945 net.cpp:386] inception_4c/relu_pool_proj -> inception_4c/pool_proj (in-place)
I0403 18:56:31.847700 23945 net.cpp:141] Setting up inception_4c/relu_pool_proj
I0403 18:56:31.847724 23945 net.cpp:148] Top shape: 24 64 14 14 (301056)
I0403 18:56:31.847738 23945 net.cpp:156] Memory required for data: 1063013664
I0403 18:56:31.847753 23945 layer_factory.hpp:77] Creating layer inception_4c/output
I0403 18:56:31.847770 23945 net.cpp:91] Creating Layer inception_4c/output
I0403 18:56:31.847786 23945 net.cpp:425] inception_4c/output <- inception_4c/1x1
I0403 18:56:31.847801 23945 net.cpp:425] inception_4c/output <- inception_4c/3x3
I0403 18:56:31.847817 23945 net.cpp:425] inception_4c/output <- inception_4c/5x5
I0403 18:56:31.847832 23945 net.cpp:425] inception_4c/output <- inception_4c/pool_proj
I0403 18:56:31.847848 23945 net.cpp:399] inception_4c/output -> inception_4c/output
I0403 18:56:31.847894 23945 net.cpp:141] Setting up inception_4c/output
I0403 18:56:31.847916 23945 net.cpp:148] Top shape: 24 512 14 14 (2408448)
I0403 18:56:31.847930 23945 net.cpp:156] Memory required for data: 1072647456
I0403 18:56:31.847944 23945 layer_factory.hpp:77] Creating layer inception_4c/output_inception_4c/output_0_split
I0403 18:56:31.847959 23945 net.cpp:91] Creating Layer inception_4c/output_inception_4c/output_0_split
I0403 18:56:31.847975 23945 net.cpp:425] inception_4c/output_inception_4c/output_0_split <- inception_4c/output
I0403 18:56:31.847993 23945 net.cpp:399] inception_4c/output_inception_4c/output_0_split -> inception_4c/output_inception_4c/output_0_split_0
I0403 18:56:31.848013 23945 net.cpp:399] inception_4c/output_inception_4c/output_0_split -> inception_4c/output_inception_4c/output_0_split_1
I0403 18:56:31.848032 23945 net.cpp:399] inception_4c/output_inception_4c/output_0_split -> inception_4c/output_inception_4c/output_0_split_2
I0403 18:56:31.848052 23945 net.cpp:399] inception_4c/output_inception_4c/output_0_split -> inception_4c/output_inception_4c/output_0_split_3
I0403 18:56:31.848134 23945 net.cpp:141] Setting up inception_4c/output_inception_4c/output_0_split
I0403 18:56:31.848157 23945 net.cpp:148] Top shape: 24 512 14 14 (2408448)
I0403 18:56:31.848173 23945 net.cpp:148] Top shape: 24 512 14 14 (2408448)
I0403 18:56:31.848188 23945 net.cpp:148] Top shape: 24 512 14 14 (2408448)
I0403 18:56:31.848202 23945 net.cpp:148] Top shape: 24 512 14 14 (2408448)
I0403 18:56:31.848215 23945 net.cpp:156] Memory required for data: 1111182624
I0403 18:56:31.848228 23945 layer_factory.hpp:77] Creating layer inception_4d/1x1
I0403 18:56:31.848249 23945 net.cpp:91] Creating Layer inception_4d/1x1
I0403 18:56:31.848268 23945 net.cpp:425] inception_4d/1x1 <- inception_4c/output_inception_4c/output_0_split_0
I0403 18:56:31.848285 23945 net.cpp:399] inception_4d/1x1 -> inception_4d/1x1
I0403 18:56:31.849599 23945 net.cpp:141] Setting up inception_4d/1x1
I0403 18:56:31.849627 23945 net.cpp:148] Top shape: 24 112 14 14 (526848)
I0403 18:56:31.849643 23945 net.cpp:156] Memory required for data: 1113290016
I0403 18:56:31.849661 23945 layer_factory.hpp:77] Creating layer inception_4d/relu_1x1
I0403 18:56:31.849678 23945 net.cpp:91] Creating Layer inception_4d/relu_1x1
I0403 18:56:31.849692 23945 net.cpp:425] inception_4d/relu_1x1 <- inception_4d/1x1
I0403 18:56:31.849711 23945 net.cpp:386] inception_4d/relu_1x1 -> inception_4d/1x1 (in-place)
I0403 18:56:31.849884 23945 net.cpp:141] Setting up inception_4d/relu_1x1
I0403 18:56:31.849908 23945 net.cpp:148] Top shape: 24 112 14 14 (526848)
I0403 18:56:31.849921 23945 net.cpp:156] Memory required for data: 1115397408
I0403 18:56:31.849936 23945 layer_factory.hpp:77] Creating layer inception_4d/3x3_reduce
I0403 18:56:31.849970 23945 net.cpp:91] Creating Layer inception_4d/3x3_reduce
I0403 18:56:31.849988 23945 net.cpp:425] inception_4d/3x3_reduce <- inception_4c/output_inception_4c/output_0_split_1
I0403 18:56:31.850009 23945 net.cpp:399] inception_4d/3x3_reduce -> inception_4d/3x3_reduce
I0403 18:56:31.851449 23945 net.cpp:141] Setting up inception_4d/3x3_reduce
I0403 18:56:31.851475 23945 net.cpp:148] Top shape: 24 144 14 14 (677376)
I0403 18:56:31.851495 23945 net.cpp:156] Memory required for data: 1118106912
I0403 18:56:31.851511 23945 layer_factory.hpp:77] Creating layer inception_4d/relu_3x3_reduce
I0403 18:56:31.851528 23945 net.cpp:91] Creating Layer inception_4d/relu_3x3_reduce
I0403 18:56:31.851548 23945 net.cpp:425] inception_4d/relu_3x3_reduce <- inception_4d/3x3_reduce
I0403 18:56:31.851567 23945 net.cpp:386] inception_4d/relu_3x3_reduce -> inception_4d/3x3_reduce (in-place)
I0403 18:56:31.851841 23945 net.cpp:141] Setting up inception_4d/relu_3x3_reduce
I0403 18:56:31.851866 23945 net.cpp:148] Top shape: 24 144 14 14 (677376)
I0403 18:56:31.851884 23945 net.cpp:156] Memory required for data: 1120816416
I0403 18:56:31.851898 23945 layer_factory.hpp:77] Creating layer inception_4d/3x3
I0403 18:56:31.851917 23945 net.cpp:91] Creating Layer inception_4d/3x3
I0403 18:56:31.851933 23945 net.cpp:425] inception_4d/3x3 <- inception_4d/3x3_reduce
I0403 18:56:31.851953 23945 net.cpp:399] inception_4d/3x3 -> inception_4d/3x3
I0403 18:56:31.856050 23945 net.cpp:141] Setting up inception_4d/3x3
I0403 18:56:31.856076 23945 net.cpp:148] Top shape: 24 288 14 14 (1354752)
I0403 18:56:31.856091 23945 net.cpp:156] Memory required for data: 1126235424
I0403 18:56:31.856108 23945 layer_factory.hpp:77] Creating layer inception_4d/relu_3x3
I0403 18:56:31.856124 23945 net.cpp:91] Creating Layer inception_4d/relu_3x3
I0403 18:56:31.856139 23945 net.cpp:425] inception_4d/relu_3x3 <- inception_4d/3x3
I0403 18:56:31.856158 23945 net.cpp:386] inception_4d/relu_3x3 -> inception_4d/3x3 (in-place)
I0403 18:56:31.856328 23945 net.cpp:141] Setting up inception_4d/relu_3x3
I0403 18:56:31.856350 23945 net.cpp:148] Top shape: 24 288 14 14 (1354752)
I0403 18:56:31.856364 23945 net.cpp:156] Memory required for data: 1131654432
I0403 18:56:31.856377 23945 layer_factory.hpp:77] Creating layer inception_4d/5x5_reduce
I0403 18:56:31.856397 23945 net.cpp:91] Creating Layer inception_4d/5x5_reduce
I0403 18:56:31.856413 23945 net.cpp:425] inception_4d/5x5_reduce <- inception_4c/output_inception_4c/output_0_split_2
I0403 18:56:31.856434 23945 net.cpp:399] inception_4d/5x5_reduce -> inception_4d/5x5_reduce
I0403 18:56:31.857497 23945 net.cpp:141] Setting up inception_4d/5x5_reduce
I0403 18:56:31.857525 23945 net.cpp:148] Top shape: 24 32 14 14 (150528)
I0403 18:56:31.857545 23945 net.cpp:156] Memory required for data: 1132256544
I0403 18:56:31.857564 23945 layer_factory.hpp:77] Creating layer inception_4d/relu_5x5_reduce
I0403 18:56:31.857580 23945 net.cpp:91] Creating Layer inception_4d/relu_5x5_reduce
I0403 18:56:31.857595 23945 net.cpp:425] inception_4d/relu_5x5_reduce <- inception_4d/5x5_reduce
I0403 18:56:31.857614 23945 net.cpp:386] inception_4d/relu_5x5_reduce -> inception_4d/5x5_reduce (in-place)
I0403 18:56:31.857789 23945 net.cpp:141] Setting up inception_4d/relu_5x5_reduce
I0403 18:56:31.857820 23945 net.cpp:148] Top shape: 24 32 14 14 (150528)
I0403 18:56:31.857834 23945 net.cpp:156] Memory required for data: 1132858656
I0403 18:56:31.857847 23945 layer_factory.hpp:77] Creating layer inception_4d/5x5
I0403 18:56:31.857867 23945 net.cpp:91] Creating Layer inception_4d/5x5
I0403 18:56:31.857884 23945 net.cpp:425] inception_4d/5x5 <- inception_4d/5x5_reduce
I0403 18:56:31.857904 23945 net.cpp:399] inception_4d/5x5 -> inception_4d/5x5
I0403 18:56:31.859275 23945 net.cpp:141] Setting up inception_4d/5x5
I0403 18:56:31.859302 23945 net.cpp:148] Top shape: 24 64 14 14 (301056)
I0403 18:56:31.859316 23945 net.cpp:156] Memory required for data: 1134062880
I0403 18:56:31.859334 23945 layer_factory.hpp:77] Creating layer inception_4d/relu_5x5
I0403 18:56:31.859366 23945 net.cpp:91] Creating Layer inception_4d/relu_5x5
I0403 18:56:31.859385 23945 net.cpp:425] inception_4d/relu_5x5 <- inception_4d/5x5
I0403 18:56:31.859400 23945 net.cpp:386] inception_4d/relu_5x5 -> inception_4d/5x5 (in-place)
I0403 18:56:31.859686 23945 net.cpp:141] Setting up inception_4d/relu_5x5
I0403 18:56:31.859711 23945 net.cpp:148] Top shape: 24 64 14 14 (301056)
I0403 18:56:31.859725 23945 net.cpp:156] Memory required for data: 1135267104
I0403 18:56:31.859738 23945 layer_factory.hpp:77] Creating layer inception_4d/pool
I0403 18:56:31.859757 23945 net.cpp:91] Creating Layer inception_4d/pool
I0403 18:56:31.859773 23945 net.cpp:425] inception_4d/pool <- inception_4c/output_inception_4c/output_0_split_3
I0403 18:56:31.859791 23945 net.cpp:399] inception_4d/pool -> inception_4d/pool
I0403 18:56:31.859853 23945 net.cpp:141] Setting up inception_4d/pool
I0403 18:56:31.859876 23945 net.cpp:148] Top shape: 24 512 14 14 (2408448)
I0403 18:56:31.859889 23945 net.cpp:156] Memory required for data: 1144900896
I0403 18:56:31.859904 23945 layer_factory.hpp:77] Creating layer inception_4d/pool_proj
I0403 18:56:31.859925 23945 net.cpp:91] Creating Layer inception_4d/pool_proj
I0403 18:56:31.859941 23945 net.cpp:425] inception_4d/pool_proj <- inception_4d/pool
I0403 18:56:31.859959 23945 net.cpp:399] inception_4d/pool_proj -> inception_4d/pool_proj
I0403 18:56:31.861712 23945 net.cpp:141] Setting up inception_4d/pool_proj
I0403 18:56:31.861739 23945 net.cpp:148] Top shape: 24 64 14 14 (301056)
I0403 18:56:31.861754 23945 net.cpp:156] Memory required for data: 1146105120
I0403 18:56:31.861771 23945 layer_factory.hpp:77] Creating layer inception_4d/relu_pool_proj
I0403 18:56:31.861788 23945 net.cpp:91] Creating Layer inception_4d/relu_pool_proj
I0403 18:56:31.861801 23945 net.cpp:425] inception_4d/relu_pool_proj <- inception_4d/pool_proj
I0403 18:56:31.861822 23945 net.cpp:386] inception_4d/relu_pool_proj -> inception_4d/pool_proj (in-place)
I0403 18:56:31.861991 23945 net.cpp:141] Setting up inception_4d/relu_pool_proj
I0403 18:56:31.862015 23945 net.cpp:148] Top shape: 24 64 14 14 (301056)
I0403 18:56:31.862028 23945 net.cpp:156] Memory required for data: 1147309344
I0403 18:56:31.862041 23945 layer_factory.hpp:77] Creating layer inception_4d/output
I0403 18:56:31.862056 23945 net.cpp:91] Creating Layer inception_4d/output
I0403 18:56:31.862071 23945 net.cpp:425] inception_4d/output <- inception_4d/1x1
I0403 18:56:31.862085 23945 net.cpp:425] inception_4d/output <- inception_4d/3x3
I0403 18:56:31.862102 23945 net.cpp:425] inception_4d/output <- inception_4d/5x5
I0403 18:56:31.862118 23945 net.cpp:425] inception_4d/output <- inception_4d/pool_proj
I0403 18:56:31.862133 23945 net.cpp:399] inception_4d/output -> inception_4d/output
I0403 18:56:31.862176 23945 net.cpp:141] Setting up inception_4d/output
I0403 18:56:31.862200 23945 net.cpp:148] Top shape: 24 528 14 14 (2483712)
I0403 18:56:31.862215 23945 net.cpp:156] Memory required for data: 1157244192
I0403 18:56:31.862227 23945 layer_factory.hpp:77] Creating layer inception_4d/output_inception_4d/output_0_split
I0403 18:56:31.862243 23945 net.cpp:91] Creating Layer inception_4d/output_inception_4d/output_0_split
I0403 18:56:31.862260 23945 net.cpp:425] inception_4d/output_inception_4d/output_0_split <- inception_4d/output
I0403 18:56:31.862278 23945 net.cpp:399] inception_4d/output_inception_4d/output_0_split -> inception_4d/output_inception_4d/output_0_split_0
I0403 18:56:31.862298 23945 net.cpp:399] inception_4d/output_inception_4d/output_0_split -> inception_4d/output_inception_4d/output_0_split_1
I0403 18:56:31.862316 23945 net.cpp:399] inception_4d/output_inception_4d/output_0_split -> inception_4d/output_inception_4d/output_0_split_2
I0403 18:56:31.862335 23945 net.cpp:399] inception_4d/output_inception_4d/output_0_split -> inception_4d/output_inception_4d/output_0_split_3
I0403 18:56:31.862354 23945 net.cpp:399] inception_4d/output_inception_4d/output_0_split -> inception_4d/output_inception_4d/output_0_split_4
I0403 18:56:31.862447 23945 net.cpp:141] Setting up inception_4d/output_inception_4d/output_0_split
I0403 18:56:31.862481 23945 net.cpp:148] Top shape: 24 528 14 14 (2483712)
I0403 18:56:31.862499 23945 net.cpp:148] Top shape: 24 528 14 14 (2483712)
I0403 18:56:31.862514 23945 net.cpp:148] Top shape: 24 528 14 14 (2483712)
I0403 18:56:31.862529 23945 net.cpp:148] Top shape: 24 528 14 14 (2483712)
I0403 18:56:31.862547 23945 net.cpp:148] Top shape: 24 528 14 14 (2483712)
I0403 18:56:31.862560 23945 net.cpp:156] Memory required for data: 1206918432
I0403 18:56:31.862574 23945 layer_factory.hpp:77] Creating layer loss2/ave_pool
I0403 18:56:31.862591 23945 net.cpp:91] Creating Layer loss2/ave_pool
I0403 18:56:31.862606 23945 net.cpp:425] loss2/ave_pool <- inception_4d/output_inception_4d/output_0_split_0
I0403 18:56:31.862624 23945 net.cpp:399] loss2/ave_pool -> loss2/ave_pool
I0403 18:56:31.862915 23945 net.cpp:141] Setting up loss2/ave_pool
I0403 18:56:31.862938 23945 net.cpp:148] Top shape: 24 528 4 4 (202752)
I0403 18:56:31.862952 23945 net.cpp:156] Memory required for data: 1207729440
I0403 18:56:31.862967 23945 layer_factory.hpp:77] Creating layer loss2/conv
I0403 18:56:31.862987 23945 net.cpp:91] Creating Layer loss2/conv
I0403 18:56:31.863003 23945 net.cpp:425] loss2/conv <- loss2/ave_pool
I0403 18:56:31.863023 23945 net.cpp:399] loss2/conv -> loss2/conv
I0403 18:56:31.864811 23945 net.cpp:141] Setting up loss2/conv
I0403 18:56:31.864838 23945 net.cpp:148] Top shape: 24 128 4 4 (49152)
I0403 18:56:31.864853 23945 net.cpp:156] Memory required for data: 1207926048
I0403 18:56:31.864871 23945 layer_factory.hpp:77] Creating layer loss2/relu_conv
I0403 18:56:31.864891 23945 net.cpp:91] Creating Layer loss2/relu_conv
I0403 18:56:31.864907 23945 net.cpp:425] loss2/relu_conv <- loss2/conv
I0403 18:56:31.864923 23945 net.cpp:386] loss2/relu_conv -> loss2/conv (in-place)
I0403 18:56:31.865190 23945 net.cpp:141] Setting up loss2/relu_conv
I0403 18:56:31.865214 23945 net.cpp:148] Top shape: 24 128 4 4 (49152)
I0403 18:56:31.865227 23945 net.cpp:156] Memory required for data: 1208122656
I0403 18:56:31.865242 23945 layer_factory.hpp:77] Creating layer loss2/fc
I0403 18:56:31.865272 23945 net.cpp:91] Creating Layer loss2/fc
I0403 18:56:31.865288 23945 net.cpp:425] loss2/fc <- loss2/conv
I0403 18:56:31.865304 23945 net.cpp:399] loss2/fc -> loss2/fc
I0403 18:56:31.882122 23945 net.cpp:141] Setting up loss2/fc
I0403 18:56:31.882153 23945 net.cpp:148] Top shape: 24 1024 (24576)
I0403 18:56:31.882169 23945 net.cpp:156] Memory required for data: 1208220960
I0403 18:56:31.882185 23945 layer_factory.hpp:77] Creating layer loss2/relu_fc
I0403 18:56:31.882201 23945 net.cpp:91] Creating Layer loss2/relu_fc
I0403 18:56:31.882215 23945 net.cpp:425] loss2/relu_fc <- loss2/fc
I0403 18:56:31.882235 23945 net.cpp:386] loss2/relu_fc -> loss2/fc (in-place)
I0403 18:56:31.882509 23945 net.cpp:141] Setting up loss2/relu_fc
I0403 18:56:31.882534 23945 net.cpp:148] Top shape: 24 1024 (24576)
I0403 18:56:31.882552 23945 net.cpp:156] Memory required for data: 1208319264
I0403 18:56:31.882566 23945 layer_factory.hpp:77] Creating layer loss2/drop_fc
I0403 18:56:31.882583 23945 net.cpp:91] Creating Layer loss2/drop_fc
I0403 18:56:31.882598 23945 net.cpp:425] loss2/drop_fc <- loss2/fc
I0403 18:56:31.882617 23945 net.cpp:386] loss2/drop_fc -> loss2/fc (in-place)
I0403 18:56:31.882663 23945 net.cpp:141] Setting up loss2/drop_fc
I0403 18:56:31.882683 23945 net.cpp:148] Top shape: 24 1024 (24576)
I0403 18:56:31.882696 23945 net.cpp:156] Memory required for data: 1208417568
I0403 18:56:31.882709 23945 layer_factory.hpp:77] Creating layer loss2/classifier_plantvillage
I0403 18:56:31.882733 23945 net.cpp:91] Creating Layer loss2/classifier_plantvillage
I0403 18:56:31.882750 23945 net.cpp:425] loss2/classifier_plantvillage <- loss2/fc
I0403 18:56:31.882767 23945 net.cpp:399] loss2/classifier_plantvillage -> loss2/classifier_plantvillage
I0403 18:56:31.883141 23945 net.cpp:141] Setting up loss2/classifier_plantvillage
I0403 18:56:31.883165 23945 net.cpp:148] Top shape: 24 38 (912)
I0403 18:56:31.883195 23945 net.cpp:156] Memory required for data: 1208421216
I0403 18:56:31.883213 23945 layer_factory.hpp:77] Creating layer loss2/classifier_plantvillage_loss2/classifier_plantvillage_0_split
I0403 18:56:31.883229 23945 net.cpp:91] Creating Layer loss2/classifier_plantvillage_loss2/classifier_plantvillage_0_split
I0403 18:56:31.883244 23945 net.cpp:425] loss2/classifier_plantvillage_loss2/classifier_plantvillage_0_split <- loss2/classifier_plantvillage
I0403 18:56:31.883260 23945 net.cpp:399] loss2/classifier_plantvillage_loss2/classifier_plantvillage_0_split -> loss2/classifier_plantvillage_loss2/classifier_plantvillage_0_split_0
I0403 18:56:31.883278 23945 net.cpp:399] loss2/classifier_plantvillage_loss2/classifier_plantvillage_0_split -> loss2/classifier_plantvillage_loss2/classifier_plantvillage_0_split_1
I0403 18:56:31.883297 23945 net.cpp:399] loss2/classifier_plantvillage_loss2/classifier_plantvillage_0_split -> loss2/classifier_plantvillage_loss2/classifier_plantvillage_0_split_2
I0403 18:56:31.883370 23945 net.cpp:141] Setting up loss2/classifier_plantvillage_loss2/classifier_plantvillage_0_split
I0403 18:56:31.883393 23945 net.cpp:148] Top shape: 24 38 (912)
I0403 18:56:31.883406 23945 net.cpp:148] Top shape: 24 38 (912)
I0403 18:56:31.883420 23945 net.cpp:148] Top shape: 24 38 (912)
I0403 18:56:31.883432 23945 net.cpp:156] Memory required for data: 1208432160
I0403 18:56:31.883445 23945 layer_factory.hpp:77] Creating layer inception_4e/1x1
I0403 18:56:31.883463 23945 net.cpp:91] Creating Layer inception_4e/1x1
I0403 18:56:31.883479 23945 net.cpp:425] inception_4e/1x1 <- inception_4d/output_inception_4d/output_0_split_1
I0403 18:56:31.883498 23945 net.cpp:399] inception_4e/1x1 -> inception_4e/1x1
I0403 18:56:31.885195 23945 net.cpp:141] Setting up inception_4e/1x1
I0403 18:56:31.885221 23945 net.cpp:148] Top shape: 24 256 14 14 (1204224)
I0403 18:56:31.885237 23945 net.cpp:156] Memory required for data: 1213249056
I0403 18:56:31.885254 23945 layer_factory.hpp:77] Creating layer inception_4e/relu_1x1
I0403 18:56:31.885273 23945 net.cpp:91] Creating Layer inception_4e/relu_1x1
I0403 18:56:31.885289 23945 net.cpp:425] inception_4e/relu_1x1 <- inception_4e/1x1
I0403 18:56:31.885305 23945 net.cpp:386] inception_4e/relu_1x1 -> inception_4e/1x1 (in-place)
I0403 18:56:31.885596 23945 net.cpp:141] Setting up inception_4e/relu_1x1
I0403 18:56:31.885634 23945 net.cpp:148] Top shape: 24 256 14 14 (1204224)
I0403 18:56:31.885648 23945 net.cpp:156] Memory required for data: 1218065952
I0403 18:56:31.885663 23945 layer_factory.hpp:77] Creating layer inception_4e/3x3_reduce
I0403 18:56:31.885684 23945 net.cpp:91] Creating Layer inception_4e/3x3_reduce
I0403 18:56:31.885702 23945 net.cpp:425] inception_4e/3x3_reduce <- inception_4d/output_inception_4d/output_0_split_2
I0403 18:56:31.885723 23945 net.cpp:399] inception_4e/3x3_reduce -> inception_4e/3x3_reduce
I0403 18:56:31.887789 23945 net.cpp:141] Setting up inception_4e/3x3_reduce
I0403 18:56:31.887816 23945 net.cpp:148] Top shape: 24 160 14 14 (752640)
I0403 18:56:31.887831 23945 net.cpp:156] Memory required for data: 1221076512
I0403 18:56:31.887850 23945 layer_factory.hpp:77] Creating layer inception_4e/relu_3x3_reduce
I0403 18:56:31.887868 23945 net.cpp:91] Creating Layer inception_4e/relu_3x3_reduce
I0403 18:56:31.887884 23945 net.cpp:425] inception_4e/relu_3x3_reduce <- inception_4e/3x3_reduce
I0403 18:56:31.887902 23945 net.cpp:386] inception_4e/relu_3x3_reduce -> inception_4e/3x3_reduce (in-place)
I0403 18:56:31.888077 23945 net.cpp:141] Setting up inception_4e/relu_3x3_reduce
I0403 18:56:31.888101 23945 net.cpp:148] Top shape: 24 160 14 14 (752640)
I0403 18:56:31.888116 23945 net.cpp:156] Memory required for data: 1224087072
I0403 18:56:31.888129 23945 layer_factory.hpp:77] Creating layer inception_4e/3x3
I0403 18:56:31.888152 23945 net.cpp:91] Creating Layer inception_4e/3x3
I0403 18:56:31.888170 23945 net.cpp:425] inception_4e/3x3 <- inception_4e/3x3_reduce
I0403 18:56:31.888186 23945 net.cpp:399] inception_4e/3x3 -> inception_4e/3x3
I0403 18:56:31.893060 23945 net.cpp:141] Setting up inception_4e/3x3
I0403 18:56:31.893101 23945 net.cpp:148] Top shape: 24 320 14 14 (1505280)
I0403 18:56:31.893117 23945 net.cpp:156] Memory required for data: 1230108192
I0403 18:56:31.893134 23945 layer_factory.hpp:77] Creating layer inception_4e/relu_3x3
I0403 18:56:31.893154 23945 net.cpp:91] Creating Layer inception_4e/relu_3x3
I0403 18:56:31.893170 23945 net.cpp:425] inception_4e/relu_3x3 <- inception_4e/3x3
I0403 18:56:31.893187 23945 net.cpp:386] inception_4e/relu_3x3 -> inception_4e/3x3 (in-place)
I0403 18:56:31.893474 23945 net.cpp:141] Setting up inception_4e/relu_3x3
I0403 18:56:31.893502 23945 net.cpp:148] Top shape: 24 320 14 14 (1505280)
I0403 18:56:31.893517 23945 net.cpp:156] Memory required for data: 1236129312
I0403 18:56:31.893532 23945 layer_factory.hpp:77] Creating layer inception_4e/5x5_reduce
I0403 18:56:31.893559 23945 net.cpp:91] Creating Layer inception_4e/5x5_reduce
I0403 18:56:31.893578 23945 net.cpp:425] inception_4e/5x5_reduce <- inception_4d/output_inception_4d/output_0_split_3
I0403 18:56:31.893595 23945 net.cpp:399] inception_4e/5x5_reduce -> inception_4e/5x5_reduce
I0403 18:56:31.894624 23945 net.cpp:141] Setting up inception_4e/5x5_reduce
I0403 18:56:31.894652 23945 net.cpp:148] Top shape: 24 32 14 14 (150528)
I0403 18:56:31.894666 23945 net.cpp:156] Memory required for data: 1236731424
I0403 18:56:31.894685 23945 layer_factory.hpp:77] Creating layer inception_4e/relu_5x5_reduce
I0403 18:56:31.894703 23945 net.cpp:91] Creating Layer inception_4e/relu_5x5_reduce
I0403 18:56:31.894719 23945 net.cpp:425] inception_4e/relu_5x5_reduce <- inception_4e/5x5_reduce
I0403 18:56:31.894737 23945 net.cpp:386] inception_4e/relu_5x5_reduce -> inception_4e/5x5_reduce (in-place)
I0403 18:56:31.895018 23945 net.cpp:141] Setting up inception_4e/relu_5x5_reduce
I0403 18:56:31.895043 23945 net.cpp:148] Top shape: 24 32 14 14 (150528)
I0403 18:56:31.895058 23945 net.cpp:156] Memory required for data: 1237333536
I0403 18:56:31.895071 23945 layer_factory.hpp:77] Creating layer inception_4e/5x5
I0403 18:56:31.895108 23945 net.cpp:91] Creating Layer inception_4e/5x5
I0403 18:56:31.895126 23945 net.cpp:425] inception_4e/5x5 <- inception_4e/5x5_reduce
I0403 18:56:31.895145 23945 net.cpp:399] inception_4e/5x5 -> inception_4e/5x5
I0403 18:56:31.896920 23945 net.cpp:141] Setting up inception_4e/5x5
I0403 18:56:31.896947 23945 net.cpp:148] Top shape: 24 128 14 14 (602112)
I0403 18:56:31.896962 23945 net.cpp:156] Memory required for data: 1239741984
I0403 18:56:31.896981 23945 layer_factory.hpp:77] Creating layer inception_4e/relu_5x5
I0403 18:56:31.896998 23945 net.cpp:91] Creating Layer inception_4e/relu_5x5
I0403 18:56:31.897014 23945 net.cpp:425] inception_4e/relu_5x5 <- inception_4e/5x5
I0403 18:56:31.897032 23945 net.cpp:386] inception_4e/relu_5x5 -> inception_4e/5x5 (in-place)
I0403 18:56:31.897220 23945 net.cpp:141] Setting up inception_4e/relu_5x5
I0403 18:56:31.897244 23945 net.cpp:148] Top shape: 24 128 14 14 (602112)
I0403 18:56:31.897259 23945 net.cpp:156] Memory required for data: 1242150432
I0403 18:56:31.897274 23945 layer_factory.hpp:77] Creating layer inception_4e/pool
I0403 18:56:31.897294 23945 net.cpp:91] Creating Layer inception_4e/pool
I0403 18:56:31.897310 23945 net.cpp:425] inception_4e/pool <- inception_4d/output_inception_4d/output_0_split_4
I0403 18:56:31.897326 23945 net.cpp:399] inception_4e/pool -> inception_4e/pool
I0403 18:56:31.897392 23945 net.cpp:141] Setting up inception_4e/pool
I0403 18:56:31.897415 23945 net.cpp:148] Top shape: 24 528 14 14 (2483712)
I0403 18:56:31.897429 23945 net.cpp:156] Memory required for data: 1252085280
I0403 18:56:31.897444 23945 layer_factory.hpp:77] Creating layer inception_4e/pool_proj
I0403 18:56:31.897464 23945 net.cpp:91] Creating Layer inception_4e/pool_proj
I0403 18:56:31.897481 23945 net.cpp:425] inception_4e/pool_proj <- inception_4e/pool
I0403 18:56:31.897501 23945 net.cpp:399] inception_4e/pool_proj -> inception_4e/pool_proj
I0403 18:56:31.898947 23945 net.cpp:141] Setting up inception_4e/pool_proj
I0403 18:56:31.898984 23945 net.cpp:148] Top shape: 24 128 14 14 (602112)
I0403 18:56:31.899000 23945 net.cpp:156] Memory required for data: 1254493728
I0403 18:56:31.899018 23945 layer_factory.hpp:77] Creating layer inception_4e/relu_pool_proj
I0403 18:56:31.899034 23945 net.cpp:91] Creating Layer inception_4e/relu_pool_proj
I0403 18:56:31.899049 23945 net.cpp:425] inception_4e/relu_pool_proj <- inception_4e/pool_proj
I0403 18:56:31.899068 23945 net.cpp:386] inception_4e/relu_pool_proj -> inception_4e/pool_proj (in-place)
I0403 18:56:31.899353 23945 net.cpp:141] Setting up inception_4e/relu_pool_proj
I0403 18:56:31.899379 23945 net.cpp:148] Top shape: 24 128 14 14 (602112)
I0403 18:56:31.899394 23945 net.cpp:156] Memory required for data: 1256902176
I0403 18:56:31.899407 23945 layer_factory.hpp:77] Creating layer inception_4e/output
I0403 18:56:31.899423 23945 net.cpp:91] Creating Layer inception_4e/output
I0403 18:56:31.899437 23945 net.cpp:425] inception_4e/output <- inception_4e/1x1
I0403 18:56:31.899453 23945 net.cpp:425] inception_4e/output <- inception_4e/3x3
I0403 18:56:31.899468 23945 net.cpp:425] inception_4e/output <- inception_4e/5x5
I0403 18:56:31.899482 23945 net.cpp:425] inception_4e/output <- inception_4e/pool_proj
I0403 18:56:31.899500 23945 net.cpp:399] inception_4e/output -> inception_4e/output
I0403 18:56:31.899562 23945 net.cpp:141] Setting up inception_4e/output
I0403 18:56:31.899587 23945 net.cpp:148] Top shape: 24 832 14 14 (3913728)
I0403 18:56:31.899601 23945 net.cpp:156] Memory required for data: 1272557088
I0403 18:56:31.899616 23945 layer_factory.hpp:77] Creating layer pool4/3x3_s2
I0403 18:56:31.899631 23945 net.cpp:91] Creating Layer pool4/3x3_s2
I0403 18:56:31.899646 23945 net.cpp:425] pool4/3x3_s2 <- inception_4e/output
I0403 18:56:31.899663 23945 net.cpp:399] pool4/3x3_s2 -> pool4/3x3_s2
I0403 18:56:31.899729 23945 net.cpp:141] Setting up pool4/3x3_s2
I0403 18:56:31.899752 23945 net.cpp:148] Top shape: 24 832 7 7 (978432)
I0403 18:56:31.899765 23945 net.cpp:156] Memory required for data: 1276470816
I0403 18:56:31.899778 23945 layer_factory.hpp:77] Creating layer pool4/3x3_s2_pool4/3x3_s2_0_split
I0403 18:56:31.899794 23945 net.cpp:91] Creating Layer pool4/3x3_s2_pool4/3x3_s2_0_split
I0403 18:56:31.899808 23945 net.cpp:425] pool4/3x3_s2_pool4/3x3_s2_0_split <- pool4/3x3_s2
I0403 18:56:31.899827 23945 net.cpp:399] pool4/3x3_s2_pool4/3x3_s2_0_split -> pool4/3x3_s2_pool4/3x3_s2_0_split_0
I0403 18:56:31.899847 23945 net.cpp:399] pool4/3x3_s2_pool4/3x3_s2_0_split -> pool4/3x3_s2_pool4/3x3_s2_0_split_1
I0403 18:56:31.899866 23945 net.cpp:399] pool4/3x3_s2_pool4/3x3_s2_0_split -> pool4/3x3_s2_pool4/3x3_s2_0_split_2
I0403 18:56:31.899885 23945 net.cpp:399] pool4/3x3_s2_pool4/3x3_s2_0_split -> pool4/3x3_s2_pool4/3x3_s2_0_split_3
I0403 18:56:31.899979 23945 net.cpp:141] Setting up pool4/3x3_s2_pool4/3x3_s2_0_split
I0403 18:56:31.900002 23945 net.cpp:148] Top shape: 24 832 7 7 (978432)
I0403 18:56:31.900017 23945 net.cpp:148] Top shape: 24 832 7 7 (978432)
I0403 18:56:31.900030 23945 net.cpp:148] Top shape: 24 832 7 7 (978432)
I0403 18:56:31.900045 23945 net.cpp:148] Top shape: 24 832 7 7 (978432)
I0403 18:56:31.900058 23945 net.cpp:156] Memory required for data: 1292125728
I0403 18:56:31.900071 23945 layer_factory.hpp:77] Creating layer inception_5a/1x1
I0403 18:56:31.900092 23945 net.cpp:91] Creating Layer inception_5a/1x1
I0403 18:56:31.900109 23945 net.cpp:425] inception_5a/1x1 <- pool4/3x3_s2_pool4/3x3_s2_0_split_0
I0403 18:56:31.900128 23945 net.cpp:399] inception_5a/1x1 -> inception_5a/1x1
I0403 18:56:31.902935 23945 net.cpp:141] Setting up inception_5a/1x1
I0403 18:56:31.902962 23945 net.cpp:148] Top shape: 24 256 7 7 (301056)
I0403 18:56:31.902977 23945 net.cpp:156] Memory required for data: 1293329952
I0403 18:56:31.902994 23945 layer_factory.hpp:77] Creating layer inception_5a/relu_1x1
I0403 18:56:31.903013 23945 net.cpp:91] Creating Layer inception_5a/relu_1x1
I0403 18:56:31.903029 23945 net.cpp:425] inception_5a/relu_1x1 <- inception_5a/1x1
I0403 18:56:31.903046 23945 net.cpp:386] inception_5a/relu_1x1 -> inception_5a/1x1 (in-place)
I0403 18:56:31.903336 23945 net.cpp:141] Setting up inception_5a/relu_1x1
I0403 18:56:31.903360 23945 net.cpp:148] Top shape: 24 256 7 7 (301056)
I0403 18:56:31.903374 23945 net.cpp:156] Memory required for data: 1294534176
I0403 18:56:31.903388 23945 layer_factory.hpp:77] Creating layer inception_5a/3x3_reduce
I0403 18:56:31.903409 23945 net.cpp:91] Creating Layer inception_5a/3x3_reduce
I0403 18:56:31.903426 23945 net.cpp:425] inception_5a/3x3_reduce <- pool4/3x3_s2_pool4/3x3_s2_0_split_1
I0403 18:56:31.903446 23945 net.cpp:399] inception_5a/3x3_reduce -> inception_5a/3x3_reduce
I0403 18:56:31.905786 23945 net.cpp:141] Setting up inception_5a/3x3_reduce
I0403 18:56:31.905817 23945 net.cpp:148] Top shape: 24 160 7 7 (188160)
I0403 18:56:31.905832 23945 net.cpp:156] Memory required for data: 1295286816
I0403 18:56:31.905848 23945 layer_factory.hpp:77] Creating layer inception_5a/relu_3x3_reduce
I0403 18:56:31.905865 23945 net.cpp:91] Creating Layer inception_5a/relu_3x3_reduce
I0403 18:56:31.905879 23945 net.cpp:425] inception_5a/relu_3x3_reduce <- inception_5a/3x3_reduce
I0403 18:56:31.905895 23945 net.cpp:386] inception_5a/relu_3x3_reduce -> inception_5a/3x3_reduce (in-place)
I0403 18:56:31.906069 23945 net.cpp:141] Setting up inception_5a/relu_3x3_reduce
I0403 18:56:31.906092 23945 net.cpp:148] Top shape: 24 160 7 7 (188160)
I0403 18:56:31.906105 23945 net.cpp:156] Memory required for data: 1296039456
I0403 18:56:31.906118 23945 layer_factory.hpp:77] Creating layer inception_5a/3x3
I0403 18:56:31.906138 23945 net.cpp:91] Creating Layer inception_5a/3x3
I0403 18:56:31.906154 23945 net.cpp:425] inception_5a/3x3 <- inception_5a/3x3_reduce
I0403 18:56:31.906175 23945 net.cpp:399] inception_5a/3x3 -> inception_5a/3x3
I0403 18:56:31.910953 23945 net.cpp:141] Setting up inception_5a/3x3
I0403 18:56:31.910982 23945 net.cpp:148] Top shape: 24 320 7 7 (376320)
I0403 18:56:31.910997 23945 net.cpp:156] Memory required for data: 1297544736
I0403 18:56:31.911013 23945 layer_factory.hpp:77] Creating layer inception_5a/relu_3x3
I0403 18:56:31.911029 23945 net.cpp:91] Creating Layer inception_5a/relu_3x3
I0403 18:56:31.911044 23945 net.cpp:425] inception_5a/relu_3x3 <- inception_5a/3x3
I0403 18:56:31.911063 23945 net.cpp:386] inception_5a/relu_3x3 -> inception_5a/3x3 (in-place)
I0403 18:56:31.911345 23945 net.cpp:141] Setting up inception_5a/relu_3x3
I0403 18:56:31.911370 23945 net.cpp:148] Top shape: 24 320 7 7 (376320)
I0403 18:56:31.911382 23945 net.cpp:156] Memory required for data: 1299050016
I0403 18:56:31.911396 23945 layer_factory.hpp:77] Creating layer inception_5a/5x5_reduce
I0403 18:56:31.911417 23945 net.cpp:91] Creating Layer inception_5a/5x5_reduce
I0403 18:56:31.911434 23945 net.cpp:425] inception_5a/5x5_reduce <- pool4/3x3_s2_pool4/3x3_s2_0_split_2
I0403 18:56:31.911454 23945 net.cpp:399] inception_5a/5x5_reduce -> inception_5a/5x5_reduce
I0403 18:56:31.912544 23945 net.cpp:141] Setting up inception_5a/5x5_reduce
I0403 18:56:31.912572 23945 net.cpp:148] Top shape: 24 32 7 7 (37632)
I0403 18:56:31.912587 23945 net.cpp:156] Memory required for data: 1299200544
I0403 18:56:31.912605 23945 layer_factory.hpp:77] Creating layer inception_5a/relu_5x5_reduce
I0403 18:56:31.912621 23945 net.cpp:91] Creating Layer inception_5a/relu_5x5_reduce
I0403 18:56:31.912636 23945 net.cpp:425] inception_5a/relu_5x5_reduce <- inception_5a/5x5_reduce
I0403 18:56:31.912652 23945 net.cpp:386] inception_5a/relu_5x5_reduce -> inception_5a/5x5_reduce (in-place)
I0403 18:56:31.912930 23945 net.cpp:141] Setting up inception_5a/relu_5x5_reduce
I0403 18:56:31.912955 23945 net.cpp:148] Top shape: 24 32 7 7 (37632)
I0403 18:56:31.912967 23945 net.cpp:156] Memory required for data: 1299351072
I0403 18:56:31.912981 23945 layer_factory.hpp:77] Creating layer inception_5a/5x5
I0403 18:56:31.913002 23945 net.cpp:91] Creating Layer inception_5a/5x5
I0403 18:56:31.913018 23945 net.cpp:425] inception_5a/5x5 <- inception_5a/5x5_reduce
I0403 18:56:31.913038 23945 net.cpp:399] inception_5a/5x5 -> inception_5a/5x5
I0403 18:56:31.914659 23945 net.cpp:141] Setting up inception_5a/5x5
I0403 18:56:31.914696 23945 net.cpp:148] Top shape: 24 128 7 7 (150528)
I0403 18:56:31.914711 23945 net.cpp:156] Memory required for data: 1299953184
I0403 18:56:31.914728 23945 layer_factory.hpp:77] Creating layer inception_5a/relu_5x5
I0403 18:56:31.914746 23945 net.cpp:91] Creating Layer inception_5a/relu_5x5
I0403 18:56:31.914760 23945 net.cpp:425] inception_5a/relu_5x5 <- inception_5a/5x5
I0403 18:56:31.914778 23945 net.cpp:386] inception_5a/relu_5x5 -> inception_5a/5x5 (in-place)
I0403 18:56:31.914953 23945 net.cpp:141] Setting up inception_5a/relu_5x5
I0403 18:56:31.914976 23945 net.cpp:148] Top shape: 24 128 7 7 (150528)
I0403 18:56:31.914990 23945 net.cpp:156] Memory required for data: 1300555296
I0403 18:56:31.915004 23945 layer_factory.hpp:77] Creating layer inception_5a/pool
I0403 18:56:31.915022 23945 net.cpp:91] Creating Layer inception_5a/pool
I0403 18:56:31.915037 23945 net.cpp:425] inception_5a/pool <- pool4/3x3_s2_pool4/3x3_s2_0_split_3
I0403 18:56:31.915055 23945 net.cpp:399] inception_5a/pool -> inception_5a/pool
I0403 18:56:31.915119 23945 net.cpp:141] Setting up inception_5a/pool
I0403 18:56:31.915143 23945 net.cpp:148] Top shape: 24 832 7 7 (978432)
I0403 18:56:31.915155 23945 net.cpp:156] Memory required for data: 1304469024
I0403 18:56:31.915169 23945 layer_factory.hpp:77] Creating layer inception_5a/pool_proj
I0403 18:56:31.915189 23945 net.cpp:91] Creating Layer inception_5a/pool_proj
I0403 18:56:31.915205 23945 net.cpp:425] inception_5a/pool_proj <- inception_5a/pool
I0403 18:56:31.915225 23945 net.cpp:399] inception_5a/pool_proj -> inception_5a/pool_proj
I0403 18:56:31.917373 23945 net.cpp:141] Setting up inception_5a/pool_proj
I0403 18:56:31.917403 23945 net.cpp:148] Top shape: 24 128 7 7 (150528)
I0403 18:56:31.917419 23945 net.cpp:156] Memory required for data: 1305071136
I0403 18:56:31.917435 23945 layer_factory.hpp:77] Creating layer inception_5a/relu_pool_proj
I0403 18:56:31.917451 23945 net.cpp:91] Creating Layer inception_5a/relu_pool_proj
I0403 18:56:31.917466 23945 net.cpp:425] inception_5a/relu_pool_proj <- inception_5a/pool_proj
I0403 18:56:31.917484 23945 net.cpp:386] inception_5a/relu_pool_proj -> inception_5a/pool_proj (in-place)
I0403 18:56:31.917765 23945 net.cpp:141] Setting up inception_5a/relu_pool_proj
I0403 18:56:31.917793 23945 net.cpp:148] Top shape: 24 128 7 7 (150528)
I0403 18:56:31.917806 23945 net.cpp:156] Memory required for data: 1305673248
I0403 18:56:31.917820 23945 layer_factory.hpp:77] Creating layer inception_5a/output
I0403 18:56:31.917836 23945 net.cpp:91] Creating Layer inception_5a/output
I0403 18:56:31.917851 23945 net.cpp:425] inception_5a/output <- inception_5a/1x1
I0403 18:56:31.917866 23945 net.cpp:425] inception_5a/output <- inception_5a/3x3
I0403 18:56:31.917881 23945 net.cpp:425] inception_5a/output <- inception_5a/5x5
I0403 18:56:31.917896 23945 net.cpp:425] inception_5a/output <- inception_5a/pool_proj
I0403 18:56:31.917913 23945 net.cpp:399] inception_5a/output -> inception_5a/output
I0403 18:56:31.917960 23945 net.cpp:141] Setting up inception_5a/output
I0403 18:56:31.917982 23945 net.cpp:148] Top shape: 24 832 7 7 (978432)
I0403 18:56:31.917995 23945 net.cpp:156] Memory required for data: 1309586976
I0403 18:56:31.918009 23945 layer_factory.hpp:77] Creating layer inception_5a/output_inception_5a/output_0_split
I0403 18:56:31.918026 23945 net.cpp:91] Creating Layer inception_5a/output_inception_5a/output_0_split
I0403 18:56:31.918041 23945 net.cpp:425] inception_5a/output_inception_5a/output_0_split <- inception_5a/output
I0403 18:56:31.918057 23945 net.cpp:399] inception_5a/output_inception_5a/output_0_split -> inception_5a/output_inception_5a/output_0_split_0
I0403 18:56:31.918076 23945 net.cpp:399] inception_5a/output_inception_5a/output_0_split -> inception_5a/output_inception_5a/output_0_split_1
I0403 18:56:31.918098 23945 net.cpp:399] inception_5a/output_inception_5a/output_0_split -> inception_5a/output_inception_5a/output_0_split_2
I0403 18:56:31.918118 23945 net.cpp:399] inception_5a/output_inception_5a/output_0_split -> inception_5a/output_inception_5a/output_0_split_3
I0403 18:56:31.918220 23945 net.cpp:141] Setting up inception_5a/output_inception_5a/output_0_split
I0403 18:56:31.918242 23945 net.cpp:148] Top shape: 24 832 7 7 (978432)
I0403 18:56:31.918257 23945 net.cpp:148] Top shape: 24 832 7 7 (978432)
I0403 18:56:31.918272 23945 net.cpp:148] Top shape: 24 832 7 7 (978432)
I0403 18:56:31.918285 23945 net.cpp:148] Top shape: 24 832 7 7 (978432)
I0403 18:56:31.918298 23945 net.cpp:156] Memory required for data: 1325241888
I0403 18:56:31.918311 23945 layer_factory.hpp:77] Creating layer inception_5b/1x1
I0403 18:56:31.918331 23945 net.cpp:91] Creating Layer inception_5b/1x1
I0403 18:56:31.918349 23945 net.cpp:425] inception_5b/1x1 <- inception_5a/output_inception_5a/output_0_split_0
I0403 18:56:31.918367 23945 net.cpp:399] inception_5b/1x1 -> inception_5b/1x1
I0403 18:56:31.921942 23945 net.cpp:141] Setting up inception_5b/1x1
I0403 18:56:31.921972 23945 net.cpp:148] Top shape: 24 384 7 7 (451584)
I0403 18:56:31.921988 23945 net.cpp:156] Memory required for data: 1327048224
I0403 18:56:31.922005 23945 layer_factory.hpp:77] Creating layer inception_5b/relu_1x1
I0403 18:56:31.922021 23945 net.cpp:91] Creating Layer inception_5b/relu_1x1
I0403 18:56:31.922036 23945 net.cpp:425] inception_5b/relu_1x1 <- inception_5b/1x1
I0403 18:56:31.922052 23945 net.cpp:386] inception_5b/relu_1x1 -> inception_5b/1x1 (in-place)
I0403 18:56:31.922340 23945 net.cpp:141] Setting up inception_5b/relu_1x1
I0403 18:56:31.922366 23945 net.cpp:148] Top shape: 24 384 7 7 (451584)
I0403 18:56:31.922381 23945 net.cpp:156] Memory required for data: 1328854560
I0403 18:56:31.922395 23945 layer_factory.hpp:77] Creating layer inception_5b/3x3_reduce
I0403 18:56:31.922415 23945 net.cpp:91] Creating Layer inception_5b/3x3_reduce
I0403 18:56:31.922431 23945 net.cpp:425] inception_5b/3x3_reduce <- inception_5a/output_inception_5a/output_0_split_1
I0403 18:56:31.922449 23945 net.cpp:399] inception_5b/3x3_reduce -> inception_5b/3x3_reduce
I0403 18:56:31.924986 23945 net.cpp:141] Setting up inception_5b/3x3_reduce
I0403 18:56:31.925017 23945 net.cpp:148] Top shape: 24 192 7 7 (225792)
I0403 18:56:31.925034 23945 net.cpp:156] Memory required for data: 1329757728
I0403 18:56:31.925050 23945 layer_factory.hpp:77] Creating layer inception_5b/relu_3x3_reduce
I0403 18:56:31.925067 23945 net.cpp:91] Creating Layer inception_5b/relu_3x3_reduce
I0403 18:56:31.925081 23945 net.cpp:425] inception_5b/relu_3x3_reduce <- inception_5b/3x3_reduce
I0403 18:56:31.925101 23945 net.cpp:386] inception_5b/relu_3x3_reduce -> inception_5b/3x3_reduce (in-place)
I0403 18:56:31.925276 23945 net.cpp:141] Setting up inception_5b/relu_3x3_reduce
I0403 18:56:31.925299 23945 net.cpp:148] Top shape: 24 192 7 7 (225792)
I0403 18:56:31.925312 23945 net.cpp:156] Memory required for data: 1330660896
I0403 18:56:31.925325 23945 layer_factory.hpp:77] Creating layer inception_5b/3x3
I0403 18:56:31.925346 23945 net.cpp:91] Creating Layer inception_5b/3x3
I0403 18:56:31.925362 23945 net.cpp:425] inception_5b/3x3 <- inception_5b/3x3_reduce
I0403 18:56:31.925384 23945 net.cpp:399] inception_5b/3x3 -> inception_5b/3x3
I0403 18:56:31.931799 23945 net.cpp:141] Setting up inception_5b/3x3
I0403 18:56:31.931828 23945 net.cpp:148] Top shape: 24 384 7 7 (451584)
I0403 18:56:31.931844 23945 net.cpp:156] Memory required for data: 1332467232
I0403 18:56:31.931861 23945 layer_factory.hpp:77] Creating layer inception_5b/relu_3x3
I0403 18:56:31.931879 23945 net.cpp:91] Creating Layer inception_5b/relu_3x3
I0403 18:56:31.931893 23945 net.cpp:425] inception_5b/relu_3x3 <- inception_5b/3x3
I0403 18:56:31.931911 23945 net.cpp:386] inception_5b/relu_3x3 -> inception_5b/3x3 (in-place)
I0403 18:56:31.932186 23945 net.cpp:141] Setting up inception_5b/relu_3x3
I0403 18:56:31.932214 23945 net.cpp:148] Top shape: 24 384 7 7 (451584)
I0403 18:56:31.932229 23945 net.cpp:156] Memory required for data: 1334273568
I0403 18:56:31.932241 23945 layer_factory.hpp:77] Creating layer inception_5b/5x5_reduce
I0403 18:56:31.932281 23945 net.cpp:91] Creating Layer inception_5b/5x5_reduce
I0403 18:56:31.932299 23945 net.cpp:425] inception_5b/5x5_reduce <- inception_5a/output_inception_5a/output_0_split_2
I0403 18:56:31.932322 23945 net.cpp:399] inception_5b/5x5_reduce -> inception_5b/5x5_reduce
I0403 18:56:31.933506 23945 net.cpp:141] Setting up inception_5b/5x5_reduce
I0403 18:56:31.933533 23945 net.cpp:148] Top shape: 24 48 7 7 (56448)
I0403 18:56:31.933552 23945 net.cpp:156] Memory required for data: 1334499360
I0403 18:56:31.933569 23945 layer_factory.hpp:77] Creating layer inception_5b/relu_5x5_reduce
I0403 18:56:31.933586 23945 net.cpp:91] Creating Layer inception_5b/relu_5x5_reduce
I0403 18:56:31.933600 23945 net.cpp:425] inception_5b/relu_5x5_reduce <- inception_5b/5x5_reduce
I0403 18:56:31.933619 23945 net.cpp:386] inception_5b/relu_5x5_reduce -> inception_5b/5x5_reduce (in-place)
I0403 18:56:31.933976 23945 net.cpp:141] Setting up inception_5b/relu_5x5_reduce
I0403 18:56:31.934001 23945 net.cpp:148] Top shape: 24 48 7 7 (56448)
I0403 18:56:31.934015 23945 net.cpp:156] Memory required for data: 1334725152
I0403 18:56:31.934029 23945 layer_factory.hpp:77] Creating layer inception_5b/5x5
I0403 18:56:31.934047 23945 net.cpp:91] Creating Layer inception_5b/5x5
I0403 18:56:31.934063 23945 net.cpp:425] inception_5b/5x5 <- inception_5b/5x5_reduce
I0403 18:56:31.934080 23945 net.cpp:399] inception_5b/5x5 -> inception_5b/5x5
I0403 18:56:31.936040 23945 net.cpp:141] Setting up inception_5b/5x5
I0403 18:56:31.936067 23945 net.cpp:148] Top shape: 24 128 7 7 (150528)
I0403 18:56:31.936084 23945 net.cpp:156] Memory required for data: 1335327264
I0403 18:56:31.936100 23945 layer_factory.hpp:77] Creating layer inception_5b/relu_5x5
I0403 18:56:31.936120 23945 net.cpp:91] Creating Layer inception_5b/relu_5x5
I0403 18:56:31.936136 23945 net.cpp:425] inception_5b/relu_5x5 <- inception_5b/5x5
I0403 18:56:31.936164 23945 net.cpp:386] inception_5b/relu_5x5 -> inception_5b/5x5 (in-place)
I0403 18:56:31.936342 23945 net.cpp:141] Setting up inception_5b/relu_5x5
I0403 18:56:31.936365 23945 net.cpp:148] Top shape: 24 128 7 7 (150528)
I0403 18:56:31.936378 23945 net.cpp:156] Memory required for data: 1335929376
I0403 18:56:31.936391 23945 layer_factory.hpp:77] Creating layer inception_5b/pool
I0403 18:56:31.936409 23945 net.cpp:91] Creating Layer inception_5b/pool
I0403 18:56:31.936425 23945 net.cpp:425] inception_5b/pool <- inception_5a/output_inception_5a/output_0_split_3
I0403 18:56:31.936442 23945 net.cpp:399] inception_5b/pool -> inception_5b/pool
I0403 18:56:31.936511 23945 net.cpp:141] Setting up inception_5b/pool
I0403 18:56:31.936534 23945 net.cpp:148] Top shape: 24 832 7 7 (978432)
I0403 18:56:31.936553 23945 net.cpp:156] Memory required for data: 1339843104
I0403 18:56:31.936566 23945 layer_factory.hpp:77] Creating layer inception_5b/pool_proj
I0403 18:56:31.936586 23945 net.cpp:91] Creating Layer inception_5b/pool_proj
I0403 18:56:31.936604 23945 net.cpp:425] inception_5b/pool_proj <- inception_5b/pool
I0403 18:56:31.936624 23945 net.cpp:399] inception_5b/pool_proj -> inception_5b/pool_proj
I0403 18:56:31.938868 23945 net.cpp:141] Setting up inception_5b/pool_proj
I0403 18:56:31.938897 23945 net.cpp:148] Top shape: 24 128 7 7 (150528)
I0403 18:56:31.938912 23945 net.cpp:156] Memory required for data: 1340445216
I0403 18:56:31.938928 23945 layer_factory.hpp:77] Creating layer inception_5b/relu_pool_proj
I0403 18:56:31.938946 23945 net.cpp:91] Creating Layer inception_5b/relu_pool_proj
I0403 18:56:31.938961 23945 net.cpp:425] inception_5b/relu_pool_proj <- inception_5b/pool_proj
I0403 18:56:31.938980 23945 net.cpp:386] inception_5b/relu_pool_proj -> inception_5b/pool_proj (in-place)
I0403 18:56:31.939268 23945 net.cpp:141] Setting up inception_5b/relu_pool_proj
I0403 18:56:31.939293 23945 net.cpp:148] Top shape: 24 128 7 7 (150528)
I0403 18:56:31.939308 23945 net.cpp:156] Memory required for data: 1341047328
I0403 18:56:31.939322 23945 layer_factory.hpp:77] Creating layer inception_5b/output
I0403 18:56:31.939338 23945 net.cpp:91] Creating Layer inception_5b/output
I0403 18:56:31.939368 23945 net.cpp:425] inception_5b/output <- inception_5b/1x1
I0403 18:56:31.939385 23945 net.cpp:425] inception_5b/output <- inception_5b/3x3
I0403 18:56:31.939400 23945 net.cpp:425] inception_5b/output <- inception_5b/5x5
I0403 18:56:31.939416 23945 net.cpp:425] inception_5b/output <- inception_5b/pool_proj
I0403 18:56:31.939435 23945 net.cpp:399] inception_5b/output -> inception_5b/output
I0403 18:56:31.939484 23945 net.cpp:141] Setting up inception_5b/output
I0403 18:56:31.939510 23945 net.cpp:148] Top shape: 24 1024 7 7 (1204224)
I0403 18:56:31.939524 23945 net.cpp:156] Memory required for data: 1345864224
I0403 18:56:31.939543 23945 layer_factory.hpp:77] Creating layer pool5/7x7_s1
I0403 18:56:31.939560 23945 net.cpp:91] Creating Layer pool5/7x7_s1
I0403 18:56:31.939576 23945 net.cpp:425] pool5/7x7_s1 <- inception_5b/output
I0403 18:56:31.939592 23945 net.cpp:399] pool5/7x7_s1 -> pool5/7x7_s1
I0403 18:56:31.939800 23945 net.cpp:141] Setting up pool5/7x7_s1
I0403 18:56:31.939824 23945 net.cpp:148] Top shape: 24 1024 1 1 (24576)
I0403 18:56:31.939838 23945 net.cpp:156] Memory required for data: 1345962528
I0403 18:56:31.939852 23945 layer_factory.hpp:77] Creating layer pool5/drop_7x7_s1
I0403 18:56:31.939869 23945 net.cpp:91] Creating Layer pool5/drop_7x7_s1
I0403 18:56:31.939884 23945 net.cpp:425] pool5/drop_7x7_s1 <- pool5/7x7_s1
I0403 18:56:31.939903 23945 net.cpp:386] pool5/drop_7x7_s1 -> pool5/7x7_s1 (in-place)
I0403 18:56:31.939950 23945 net.cpp:141] Setting up pool5/drop_7x7_s1
I0403 18:56:31.939975 23945 net.cpp:148] Top shape: 24 1024 1 1 (24576)
I0403 18:56:31.939990 23945 net.cpp:156] Memory required for data: 1346060832
I0403 18:56:31.940003 23945 layer_factory.hpp:77] Creating layer loss3/classifier_plantvillage
I0403 18:56:31.940021 23945 net.cpp:91] Creating Layer loss3/classifier_plantvillage
I0403 18:56:31.940037 23945 net.cpp:425] loss3/classifier_plantvillage <- pool5/7x7_s1
I0403 18:56:31.940057 23945 net.cpp:399] loss3/classifier_plantvillage -> loss3/classifier_plantvillage
I0403 18:56:31.940469 23945 net.cpp:141] Setting up loss3/classifier_plantvillage
I0403 18:56:31.940491 23945 net.cpp:148] Top shape: 24 38 (912)
I0403 18:56:31.940505 23945 net.cpp:156] Memory required for data: 1346064480
I0403 18:56:31.940522 23945 layer_factory.hpp:77] Creating layer loss3/classifier_plantvillage_loss3/classifier_plantvillage_0_split
I0403 18:56:31.940546 23945 net.cpp:91] Creating Layer loss3/classifier_plantvillage_loss3/classifier_plantvillage_0_split
I0403 18:56:31.940564 23945 net.cpp:425] loss3/classifier_plantvillage_loss3/classifier_plantvillage_0_split <- loss3/classifier_plantvillage
I0403 18:56:31.940582 23945 net.cpp:399] loss3/classifier_plantvillage_loss3/classifier_plantvillage_0_split -> loss3/classifier_plantvillage_loss3/classifier_plantvillage_0_split_0
I0403 18:56:31.940603 23945 net.cpp:399] loss3/classifier_plantvillage_loss3/classifier_plantvillage_0_split -> loss3/classifier_plantvillage_loss3/classifier_plantvillage_0_split_1
I0403 18:56:31.940623 23945 net.cpp:399] loss3/classifier_plantvillage_loss3/classifier_plantvillage_0_split -> loss3/classifier_plantvillage_loss3/classifier_plantvillage_0_split_2
I0403 18:56:31.940642 23945 net.cpp:399] loss3/classifier_plantvillage_loss3/classifier_plantvillage_0_split -> loss3/classifier_plantvillage_loss3/classifier_plantvillage_0_split_3
I0403 18:56:31.940738 23945 net.cpp:141] Setting up loss3/classifier_plantvillage_loss3/classifier_plantvillage_0_split
I0403 18:56:31.940762 23945 net.cpp:148] Top shape: 24 38 (912)
I0403 18:56:31.940776 23945 net.cpp:148] Top shape: 24 38 (912)
I0403 18:56:31.940790 23945 net.cpp:148] Top shape: 24 38 (912)
I0403 18:56:31.940804 23945 net.cpp:148] Top shape: 24 38 (912)
I0403 18:56:31.940817 23945 net.cpp:156] Memory required for data: 1346079072
I0403 18:56:31.940831 23945 layer_factory.hpp:77] Creating layer loss1/loss
I0403 18:56:31.940851 23945 net.cpp:91] Creating Layer loss1/loss
I0403 18:56:31.940868 23945 net.cpp:425] loss1/loss <- loss1/classifier_plantvillage_loss1/classifier_plantvillage_0_split_0
I0403 18:56:31.940898 23945 net.cpp:425] loss1/loss <- label_data_1_split_0
…
