…
I0403 18:25:43.366284 22344 net.cpp:313] The NetState phase (1) differed from the phase (0) specified by a rule in layer data
I0403 18:25:43.367384 22344 net.cpp:49] Initializing net from parameters: 
state {
  phase: TEST
}
layer {
  name: "data"
  type: "Data"
  top: "data"
  top: "label"
  include {
    phase: TEST
  }
  transform_param {
    mirror: false
    crop_size: 224
    mean_file: "/home/mohanty/data/final_dataset/lmdb/segmented-40-60/mean.binaryproto"
  }
  data_param {
    source: "/home/mohanty/data/final_dataset/lmdb/segmented-40-60/test_db"
    batch_size: 24
    backend: LMDB
  }
}
layer {
  name: "conv1/7x7_s2"
  type: "Convolution"
  bottom: "data"
  top: "conv1/7x7_s2"
  param {
    lr_mult: 1
    decay_mult: 1
  }
  param {
    lr_mult: 2
    decay_mult: 0
  }
  convolution_param {
    num_output: 64
    pad: 3
    kernel_size: 7
    stride: 2
    weight_filler {
      type: "xavier"
      std: 0.1
    }
    bias_filler {
      type: "constant"
      value: 0.2
    }
  }
}
layer {
  name: "conv1/relu_7x7"
  type: "ReLU"
  bottom: "conv1/7x7_s2"
  top: "conv1/7x7_s2"
}
layer {
  name: "pool1/3x3_s2"
  type: "Pooling"
  bottom: "conv1/7x7_s2"
  top: "pool1/3x3_s2"
  pooling_param {
    pool: MAX
    kernel_size: 3
    stride: 2
  }
}
layer {
  name: "pool1/norm1"
  type: "LRN"
  bottom: "pool1/3x3_s2"
  top: "pool1/norm1"
  lrn_param {
    local_size: 5
    alpha: 0.0001
    beta: 0.75
  }
}
layer {
  name: "conv2/3x3_reduce"
  type: "Convolution"
  bottom: "pool1/norm1"
  top: "conv2/3x3_reduce"
  param {
    lr_mult: 1
    decay_mult: 1
  }
  param {
    lr_mult: 2
    decay_mult: 0
  }
  convolution_param {
    num_output: 64
    kernel_size: 1
    weight_filler {
      type: "xavier"
      std: 0.1
    }
    bias_filler {
      type: "constant"
      value: 0.2
    }
  }
}
layer {
  name: "conv2/relu_3x3_reduce"
  type: "ReLU"
  bottom: "conv2/3x3_reduce"
  top: "conv2/3x3_reduce"
}
layer {
  name: "conv2/3x3"
  type: "Convolution"
  bottom: "conv2/3x3_reduce"
  top: "conv2/3x3"
  param {
    lr_mult: 1
    decay_mult: 1
  }
  param {
    lr_mult: 2
    decay_mult: 0
  }
  convolution_param {
    num_output: 192
    pad: 1
    kernel_size: 3
    weight_filler {
      type: "xavier"
      std: 0.03
    }
    bias_filler {
      type: "constant"
      value: 0.2
    }
  }
}
layer {
  name: "conv2/relu_3x3"
  type: "ReLU"
  bottom: "conv2/3x3"
  top: "conv2/3x3"
}
layer {
  name: "conv2/norm2"
  type: "LRN"
  bottom: "conv2/3x3"
  top: "conv2/norm2"
  lrn_param {
    local_size: 5
    alpha: 0.0001
    beta: 0.75
  }
}
layer {
  name: "pool2/3x3_s2"
  type: "Pooling"
  bottom: "conv2/norm2"
  top: "pool2/3x3_s2"
  pooling_param {
    pool: MAX
    kernel_size: 3
    stride: 2
  }
}
layer {
  name: "inception_3a/1x1"
  type: "Convolution"
  bottom: "pool2/3x3_s2"
  top: "inception_3a/1x1"
  param {
    lr_mult: 1
    decay_mult: 1
  }
  param {
    lr_mult: 2
    decay_mult: 0
  }
  convolution_param {
    num_output: 64
    kernel_size: 1
    weight_filler {
      type: "xavier"
      std: 0.03
    }
    bias_filler {
      type: "constant"
      value: 0.2
    }
  }
}
layer {
  name: "inception_3a/relu_1x1"
  type: "ReLU"
  bottom: "inception_3a/1x1"
  top: "inception_3a/1x1"
}
layer {
  name: "inception_3a/3x3_reduce"
  type: "Convolution"
  bottom: "pool2/3x3_s2"
  top: "inception_3a/3x3_reduce"
  param {
    lr_mult: 1
    decay_mult: 1
  }
  param {
    lr_mult: 2
    decay_mult: 0
  }
  convolution_param {
    num_output: 96
    kernel_size: 1
    weight_filler {
      type: "xavier"
      std: 0.09
    }
    bias_filler {
      type: "constant"
      value: 0.2
    }
  }
}
layer {
  name: "inception_3a/relu_3x3_reduce"
  type: "ReLU"
  bottom: "inception_3a/3x3_reduce"
  top: "inception_3a/3x3_reduce"
}
layer {
  name: "inception_3a/3x3"
  type: "Convolution"
  bottom: "inception_3a/3x3_reduce"
  top: "inception_3a/3x3"
  param {
    lr_mult: 1
    decay_mult: 1
  }
  param {
    lr_mult: 2
    decay_mult: 0
  }
  convolution_param {
    num_output: 128
    pad: 1
    kernel_size: 3
    weight_filler {
      type: "xavier"
      std: 0.03
    }
    bias_filler {
      type: "constant"
      value: 0.2
    }
  }
}
layer {
  name: "inception_3a/relu_3x3"
  type: "ReLU"
  bottom: "inception_3a/3x3"
  top: "inception_3a/3x3"
}
layer {
  name: "inception_3a/5x5_reduce"
  type: "Convolution"
  bottom: "pool2/3x3_s2"
  top: "inception_3a/5x5_reduce"
  param {
    lr_mult: 1
    decay_mult: 1
  }
  param {
    lr_mult: 2
    decay_mult: 0
  }
  convolution_param {
    num_output: 16
    kernel_size: 1
    weight_filler {
      type: "xavier"
      std: 0.2
    }
    bias_filler {
      type: "constant"
      value: 0.2
    }
  }
}
layer {
  name: "inception_3a/relu_5x5_reduce"
  type: "ReLU"
  bottom: "inception_3a/5x5_reduce"
  top: "inception_3a/5x5_reduce"
}
layer {
  name: "inception_3a/5x5"
  type: "Convolution"
  bottom: "inception_3a/5x5_reduce"
  top: "inception_3a/5x5"
  param {
    lr_mult: 1
    decay_mult: 1
  }
  param {
    lr_mult: 2
    decay_mult: 0
  }
  convolution_param {
    num_output: 32
    pad: 2
    kernel_size: 5
    weight_filler {
      type: "xavier"
      std: 0.03
    }
    bias_filler {
      type: "constant"
      value: 0.2
    }
  }
}
layer {
  name: "inception_3a/relu_5x5"
  type: "ReLU"
  bottom: "inception_3a/5x5"
  top: "inception_3a/5x5"
}
layer {
  name: "inception_3a/pool"
  type: "Pooling"
  bottom: "pool2/3x3_s2"
  top: "inception_3a/pool"
  pooling_param {
    pool: MAX
    kernel_size: 3
    stride: 1
    pad: 1
  }
}
layer {
  name: "inception_3a/pool_proj"
  type: "Convolution"
  bottom: "inception_3a/pool"
  top: "inception_3a/pool_proj"
  param {
    lr_mult: 1
    decay_mult: 1
  }
  param {
    lr_mult: 2
    decay_mult: 0
  }
  convolution_param {
    num_output: 32
    kernel_size: 1
    weight_filler {
      type: "xavier"
      std: 0.1
    }
    bias_filler {
      type: "constant"
      value: 0.2
    }
  }
}
layer {
  name: "inception_3a/relu_pool_proj"
  type: "ReLU"
  bottom: "inception_3a/pool_proj"
  top: "inception_3a/pool_proj"
}
layer {
  name: "inception_3a/output"
  type: "Concat"
  bottom: "inception_3a/1x1"
  bottom: "inception_3a/3x3"
  bottom: "inception_3a/5x5"
  bottom: "inception_3a/pool_proj"
  top: "inception_3a/output"
}
layer {
  name: "inception_3b/1x1"
  type: "Convolution"
  bottom: "inception_3a/output"
  top: "inception_3b/1x1"
  param {
    lr_mult: 1
    decay_mult: 1
  }
  param {
    lr_mult: 2
    decay_mult: 0
  }
  convolution_param {
    num_output: 128
    kernel_size: 1
    weight_filler {
      type: "xavier"
      std: 0.03
    }
    bias_filler {
      type: "constant"
      value: 0.2
    }
  }
}
layer {
  name: "inception_3b/relu_1x1"
  type: "ReLU"
  bottom: "inception_3b/1x1"
  top: "inception_3b/1x1"
}
layer {
  name: "inception_3b/3x3_reduce"
  type: "Convolution"
  bottom: "inception_3a/output"
  top: "inception_3b/3x3_reduce"
  param {
    lr_mult: 1
    decay_mult: 1
  }
  param {
    lr_mult: 2
    decay_mult: 0
  }
  convolution_param {
    num_output: 128
    kernel_size: 1
    weight_filler {
      type: "xavier"
      std: 0.09
    }
    bias_filler {
      type: "constant"
      value: 0.2
    }
  }
}
layer {
  name: "inception_3b/relu_3x3_reduce"
  type: "ReLU"
  bottom: "inception_3b/3x3_reduce"
  top: "inception_3b/3x3_reduce"
}
layer {
  name: "inception_3b/3x3"
  type: "Convolution"
  bottom: "inception_3b/3x3_reduce"
  top: "inception_3b/3x3"
  param {
    lr_mult: 1
    decay_mult: 1
  }
  param {
    lr_mult: 2
    decay_mult: 0
  }
  convolution_param {
    num_output: 192
    pad: 1
    kernel_size: 3
    weight_filler {
      type: "xavier"
      std: 0.03
    }
    bias_filler {
      type: "constant"
      value: 0.2
    }
  }
}
layer {
  name: "inception_3b/relu_3x3"
  type: "ReLU"
  bottom: "inception_3b/3x3"
  top: "inception_3b/3x3"
}
layer {
  name: "inception_3b/5x5_reduce"
  type: "Convolution"
  bottom: "inception_3a/output"
  top: "inception_3b/5x5_reduce"
  param {
    lr_mult: 1
    decay_mult: 1
  }
  param {
    lr_mult: 2
    decay_mult: 0
  }
  convolution_param {
    num_output: 32
    kernel_size: 1
    weight_filler {
      type: "xavier"
      std: 0.2
    }
    bias_filler {
      type: "constant"
      value: 0.2
    }
  }
}
layer {
  name: "inception_3b/relu_5x5_reduce"
  type: "ReLU"
  bottom: "inception_3b/5x5_reduce"
  top: "inception_3b/5x5_reduce"
}
layer {
  name: "inception_3b/5x5"
  type: "Convolution"
  bottom: "inception_3b/5x5_reduce"
  top: "inception_3b/5x5"
  param {
    lr_mult: 1
    decay_mult: 1
  }
  param {
    lr_mult: 2
    decay_mult: 0
  }
  convolution_param {
    num_output: 96
    pad: 2
    kernel_size: 5
    weight_filler {
      type: "xavier"
      std: 0.03
    }
    bias_filler {
      type: "constant"
      value: 0.2
    }
  }
}
layer {
  name: "inception_3b/relu_5x5"
  type: "ReLU"
  bottom: "inception_3b/5x5"
  top: "inception_3b/5x5"
}
layer {
  name: "inception_3b/pool"
  type: "Pooling"
  bottom: "inception_3a/output"
  top: "inception_3b/pool"
  pooling_param {
    pool: MAX
    kernel_size: 3
    stride: 1
    pad: 1
  }
}
layer {
  name: "inception_3b/pool_proj"
  type: "Convolution"
  bottom: "inception_3b/pool"
  top: "inception_3b/pool_proj"
  param {
    lr_mult: 1
    decay_mult: 1
  }
  param {
    lr_mult: 2
    decay_mult: 0
  }
  convolution_param {
    num_output: 64
    kernel_size: 1
    weight_filler {
      type: "xavier"
      std: 0.1
    }
    bias_filler {
      type: "constant"
      value: 0.2
    }
  }
}
layer {
  name: "inception_3b/relu_pool_proj"
  type: "ReLU"
  bottom: "inception_3b/pool_proj"
  top: "inception_3b/pool_proj"
}
layer {
  name: "inception_3b/output"
  type: "Concat"
  bottom: "inception_3b/1x1"
  bottom: "inception_3b/3x3"
  bottom: "inception_3b/5x5"
  bottom: "inception_3b/pool_proj"
  top: "inception_3b/output"
}
layer {
  name: "pool3/3x3_s2"
  type: "Pooling"
  bottom: "inception_3b/output"
  top: "pool3/3x3_s2"
  pooling_param {
    pool: MAX
    kernel_size: 3
    stride: 2
  }
}
layer {
  name: "inception_4a/1x1"
  type: "Convolution"
  bottom: "pool3/3x3_s2"
  top: "inception_4a/1x1"
  param {
    lr_mult: 1
    decay_mult: 1
  }
  param {
    lr_mult: 2
    decay_mult: 0
  }
  convolution_param {
    num_output: 192
    kernel_size: 1
    weight_filler {
      type: "xavier"
      std: 0.03
    }
    bias_filler {
      type: "constant"
      value: 0.2
    }
  }
}
layer {
  name: "inception_4a/relu_1x1"
  type: "ReLU"
  bottom: "inception_4a/1x1"
  top: "inception_4a/1x1"
}
layer {
  name: "inception_4a/3x3_reduce"
  type: "Convolution"
  bottom: "pool3/3x3_s2"
  top: "inception_4a/3x3_reduce"
  param {
    lr_mult: 1
    decay_mult: 1
  }
  param {
    lr_mult: 2
    decay_mult: 0
  }
  convolution_param {
    num_output: 96
    kernel_size: 1
    weight_filler {
      type: "xavier"
      std: 0.09
    }
    bias_filler {
      type: "constant"
      value: 0.2
    }
  }
}
layer {
  name: "inception_4a/relu_3x3_reduce"
  type: "ReLU"
  bottom: "inception_4a/3x3_reduce"
  top: "inception_4a/3x3_reduce"
}
layer {
  name: "inception_4a/3x3"
  type: "Convolution"
  bottom: "inception_4a/3x3_reduce"
  top: "inception_4a/3x3"
  param {
    lr_mult: 1
    decay_mult: 1
  }
  param {
    lr_mult: 2
    decay_mult: 0
  }
  convolution_param {
    num_output: 208
    pad: 1
    kernel_size: 3
    weight_filler {
      type: "xavier"
      std: 0.03
    }
    bias_filler {
      type: "constant"
      value: 0.2
    }
  }
}
layer {
  name: "inception_4a/relu_3x3"
  type: "ReLU"
  bottom: "inception_4a/3x3"
  top: "inception_4a/3x3"
}
layer {
  name: "inception_4a/5x5_reduce"
  type: "Convolution"
  bottom: "pool3/3x3_s2"
  top: "inception_4a/5x5_reduce"
  param {
    lr_mult: 1
    decay_mult: 1
  }
  param {
    lr_mult: 2
    decay_mult: 0
  }
  convolution_param {
    num_output: 16
    kernel_size: 1
    weight_filler {
      type: "xavier"
      std: 0.2
    }
    bias_filler {
      type: "constant"
      value: 0.2
    }
  }
}
layer {
  name: "inception_4a/relu_5x5_reduce"
  type: "ReLU"
  bottom: "inception_4a/5x5_reduce"
  top: "inception_4a/5x5_reduce"
}
layer {
  name: "inception_4a/5x5"
  type: "Convolution"
  bottom: "inception_4a/5x5_reduce"
  top: "inception_4a/5x5"
  param {
    lr_mult: 1
    decay_mult: 1
  }
  param {
    lr_mult: 2
    decay_mult: 0
  }
  convolution_param {
    num_output: 48
    pad: 2
    kernel_size: 5
    weight_filler {
      type: "xavier"
      std: 0.03
    }
    bias_filler {
      type: "constant"
      value: 0.2
    }
  }
}
layer {
  name: "inception_4a/relu_5x5"
  type: "ReLU"
  bottom: "inception_4a/5x5"
  top: "inception_4a/5x5"
}
layer {
  name: "inception_4a/pool"
  type: "Pooling"
  bottom: "pool3/3x3_s2"
  top: "inception_4a/pool"
  pooling_param {
    pool: MAX
    kernel_size: 3
    stride: 1
    pad: 1
  }
}
layer {
  name: "inception_4a/pool_proj"
  type: "Convolution"
  bottom: "inception_4a/pool"
  top: "inception_4a/pool_proj"
  param {
    lr_mult: 1
    decay_mult: 1
  }
  param {
    lr_mult: 2
    decay_mult: 0
  }
  convolution_param {
    num_output: 64
    kernel_size: 1
    weight_filler {
      type: "xavier"
      std: 0.1
    }
    bias_filler {
      type: "constant"
      value: 0.2
    }
  }
}
layer {
  name: "inception_4a/relu_pool_proj"
  type: "ReLU"
  bottom: "inception_4a/pool_proj"
  top: "inception_4a/pool_proj"
}
layer {
  name: "inception_4a/output"
  type: "Concat"
  bottom: "inception_4a/1x1"
  bottom: "inception_4a/3x3"
  bottom: "inception_4a/5x5"
  bottom: "inception_4a/pool_proj"
  top: "inception_4a/output"
}
layer {
  name: "loss1/ave_pool"
  type: "Pooling"
  bottom: "inception_4a/output"
  top: "loss1/ave_pool"
  pooling_param {
    pool: AVE
    kernel_size: 5
    stride: 3
  }
}
layer {
  name: "loss1/conv"
  type: "Convolution"
  bottom: "loss1/ave_pool"
  top: "loss1/conv"
  param {
    lr_mult: 1
    decay_mult: 1
  }
  param {
    lr_mult: 2
    decay_mult: 0
  }
  convolution_param {
    num_output: 128
    kernel_size: 1
    weight_filler {
      type: "xavier"
      std: 0.08
    }
    bias_filler {
      type: "constant"
      value: 0.2
    }
  }
}
layer {
  name: "loss1/relu_conv"
  type: "ReLU"
  bottom: "loss1/conv"
  top: "loss1/conv"
}
layer {
  name: "loss1/fc"
  type: "InnerProduct"
  bottom: "loss1/conv"
  top: "loss1/fc"
  param {
    lr_mult: 1
    decay_mult: 1
  }
  param {
    lr_mult: 2
    decay_mult: 0
  }
  inner_product_param {
    num_output: 1024
    weight_filler {
      type: "xavier"
      std: 0.02
    }
    bias_filler {
      type: "constant"
      value: 0.2
    }
  }
}
layer {
  name: "loss1/relu_fc"
  type: "ReLU"
  bottom: "loss1/fc"
  top: "loss1/fc"
}
layer {
  name: "loss1/drop_fc"
  type: "Dropout"
  bottom: "loss1/fc"
  top: "loss1/fc"
  dropout_param {
    dropout_ratio: 0.7
  }
}
layer {
  name: "loss1/classifier_plantvillage"
  type: "InnerProduct"
  bottom: "loss1/fc"
  top: "loss1/classifier_plantvillage"
  param {
    lr_mult: 1
    decay_mult: 1
  }
  param {
    lr_mult: 2
    decay_mult: 0
  }
  inner_product_param {
    num_output: 38
    weight_filler {
      type: "xavier"
      std: 0.0009765625
    }
    bias_filler {
      type: "constant"
      value: 0
    }
  }
}
layer {
  name: "inception_4b/1x1"
  type: "Convolution"
  bottom: "inception_4a/output"
  top: "inception_4b/1x1"
  param {
    lr_mult: 1
    decay_mult: 1
  }
  param {
    lr_mult: 2
    decay_mult: 0
  }
  convolution_param {
    num_output: 160
    kernel_size: 1
    weight_filler {
      type: "xavier"
      std: 0.03
    }
    bias_filler {
      type: "constant"
      value: 0.2
    }
  }
}
layer {
  name: "inception_4b/relu_1x1"
  type: "ReLU"
  bottom: "inception_4b/1x1"
  top: "inception_4b/1x1"
}
layer {
  name: "inception_4b/3x3_reduce"
  type: "Convolution"
  bottom: "inception_4a/output"
  top: "inception_4b/3x3_reduce"
  param {
    lr_mult: 1
    decay_mult: 1
  }
  param {
    lr_mult: 2
    decay_mult: 0
  }
  convolution_param {
    num_output: 112
    kernel_size: 1
    weight_filler {
      type: "xavier"
      std: 0.09
    }
    bias_filler {
      type: "constant"
      value: 0.2
    }
  }
}
layer {
  name: "inception_4b/relu_3x3_reduce"
  type: "ReLU"
  bottom: "inception_4b/3x3_reduce"
  top: "inception_4b/3x3_reduce"
}
layer {
  name: "inception_4b/3x3"
  type: "Convolution"
  bottom: "inception_4b/3x3_reduce"
  top: "inception_4b/3x3"
  param {
    lr_mult: 1
    decay_mult: 1
  }
  param {
    lr_mult: 2
    decay_mult: 0
  }
  convolution_param {
    num_output: 224
    pad: 1
    kernel_size: 3
    weight_filler {
      type: "xavier"
      std: 0.03
    }
    bias_filler {
      type: "constant"
      value: 0.2
    }
  }
}
layer {
  name: "inception_4b/relu_3x3"
  type: "ReLU"
  bottom: "inception_4b/3x3"
  top: "inception_4b/3x3"
}
layer {
  name: "inception_4b/5x5_reduce"
  type: "Convolution"
  bottom: "inception_4a/output"
  top: "inception_4b/5x5_reduce"
  param {
    lr_mult: 1
    decay_mult: 1
  }
  param {
    lr_mult: 2
    decay_mult: 0
  }
  convolution_param {
    num_output: 24
    kernel_size: 1
    weight_filler {
      type: "xavier"
      std: 0.2
    }
    bias_filler {
      type: "constant"
      value: 0.2
    }
  }
}
layer {
  name: "inception_4b/relu_5x5_reduce"
  type: "ReLU"
  bottom: "inception_4b/5x5_reduce"
  top: "inception_4b/5x5_reduce"
}
layer {
  name: "inception_4b/5x5"
  type: "Convolution"
  bottom: "inception_4b/5x5_reduce"
  top: "inception_4b/5x5"
  param {
    lr_mult: 1
    decay_mult: 1
  }
  param {
    lr_mult: 2
    decay_mult: 0
  }
  convolution_param {
    num_output: 64
    pad: 2
    kernel_size: 5
    weight_filler {
      type: "xavier"
      std: 0.03
    }
    bias_filler {
      type: "constant"
      value: 0.2
    }
  }
}
layer {
  name: "inception_4b/relu_5x5"
  type: "ReLU"
  bottom: "inception_4b/5x5"
  top: "inception_4b/5x5"
}
layer {
  name: "inception_4b/pool"
  type: "Pooling"
  bottom: "inception_4a/output"
  top: "inception_4b/pool"
  pooling_param {
    pool: MAX
    kernel_size: 3
    stride: 1
    pad: 1
  }
}
layer {
  name: "inception_4b/pool_proj"
  type: "Convolution"
  bottom: "inception_4b/pool"
  top: "inception_4b/pool_proj"
  param {
    lr_mult: 1
    decay_mult: 1
  }
  param {
    lr_mult: 2
    decay_mult: 0
  }
  convolution_param {
    num_output: 64
    kernel_size: 1
    weight_filler {
      type: "xavier"
      std: 0.1
    }
    bias_filler {
      type: "constant"
      value: 0.2
    }
  }
}
layer {
  name: "inception_4b/relu_pool_proj"
  type: "ReLU"
  bottom: "inception_4b/pool_proj"
  top: "inception_4b/pool_proj"
}
layer {
  name: "inception_4b/output"
  type: "Concat"
  bottom: "inception_4b/1x1"
  bottom: "inception_4b/3x3"
  bottom: "inception_4b/5x5"
  bottom: "inception_4b/pool_proj"
  top: "inception_4b/output"
}
layer {
  name: "inception_4c/1x1"
  type: "Convolution"
  bottom: "inception_4b/output"
  top: "inception_4c/1x1"
  param {
    lr_mult: 1
    decay_mult: 1
  }
  param {
    lr_mult: 2
    decay_mult: 0
  }
  convolution_param {
    num_output: 128
    kernel_size: 1
    weight_filler {
      type: "xavier"
      std: 0.03
    }
    bias_filler {
      type: "constant"
      value: 0.2
    }
  }
}
layer {
  name: "inception_4c/relu_1x1"
  type: "ReLU"
  bottom: "inception_4c/1x1"
  top: "inception_4c/1x1"
}
layer {
  name: "inception_4c/3x3_reduce"
  type: "Convolution"
  bottom: "inception_4b/output"
  top: "inception_4c/3x3_reduce"
  param {
    lr_mult: 1
    decay_mult: 1
  }
  param {
    lr_mult: 2
    decay_mult: 0
  }
  convolution_param {
    num_output: 128
    kernel_size: 1
    weight_filler {
      type: "xavier"
      std: 0.09
    }
    bias_filler {
      type: "constant"
      value: 0.2
    }
  }
}
layer {
  name: "inception_4c/relu_3x3_reduce"
  type: "ReLU"
  bottom: "inception_4c/3x3_reduce"
  top: "inception_4c/3x3_reduce"
}
layer {
  name: "inception_4c/3x3"
  type: "Convolution"
  bottom: "inception_4c/3x3_reduce"
  top: "inception_4c/3x3"
  param {
    lr_mult: 1
    decay_mult: 1
  }
  param {
    lr_mult: 2
    decay_mult: 0
  }
  convolution_param {
    num_output: 256
    pad: 1
    kernel_size: 3
    weight_filler {
      type: "xavier"
      std: 0.03
    }
    bias_filler {
      type: "constant"
      value: 0.2
    }
  }
}
layer {
  name: "inception_4c/relu_3x3"
  type: "ReLU"
  bottom: "inception_4c/3x3"
  top: "inception_4c/3x3"
}
layer {
  name: "inception_4c/5x5_reduce"
  type: "Convolution"
  bottom: "inception_4b/output"
  top: "inception_4c/5x5_reduce"
  param {
    lr_mult: 1
    decay_mult: 1
  }
  param {
    lr_mult: 2
    decay_mult: 0
  }
  convolution_param {
    num_output: 24
    kernel_size: 1
    weight_filler {
      type: "xavier"
      std: 0.2
    }
    bias_filler {
      type: "constant"
      value: 0.2
    }
  }
}
layer {
  name: "inception_4c/relu_5x5_reduce"
  type: "ReLU"
  bottom: "inception_4c/5x5_reduce"
  top: "inception_4c/5x5_reduce"
}
layer {
  name: "inception_4c/5x5"
  type: "Convolution"
  bottom: "inception_4c/5x5_reduce"
  top: "inception_4c/5x5"
  param {
    lr_mult: 1
    decay_mult: 1
  }
  param {
    lr_mult: 2
    decay_mult: 0
  }
  convolution_param {
    num_output: 64
    pad: 2
    kernel_size: 5
    weight_filler {
      type: "xavier"
      std: 0.03
    }
    bias_filler {
      type: "constant"
      value: 0.2
    }
  }
}
layer {
  name: "inception_4c/relu_5x5"
  type: "ReLU"
  bottom: "inception_4c/5x5"
  top: "inception_4c/5x5"
}
layer {
  name: "inception_4c/pool"
  type: "Pooling"
  bottom: "inception_4b/output"
  top: "inception_4c/pool"
  pooling_param {
    pool: MAX
    kernel_size: 3
    stride: 1
    pad: 1
  }
}
layer {
  name: "inception_4c/pool_proj"
  type: "Convolution"
  bottom: "inception_4c/pool"
  top: "inception_4c/pool_proj"
  param {
    lr_mult: 1
    decay_mult: 1
  }
  param {
    lr_mult: 2
    decay_mult: 0
  }
  convolution_param {
    num_output: 64
    kernel_size: 1
    weight_filler {
      type: "xavier"
      std: 0.1
    }
    bias_filler {
      type: "constant"
      value: 0.2
    }
  }
}
layer {
  name: "inception_4c/relu_pool_proj"
  type: "ReLU"
  bottom: "inception_4c/pool_proj"
  top: "inception_4c/pool_proj"
}
layer {
  name: "inception_4c/output"
  type: "Concat"
  bottom: "inception_4c/1x1"
  bottom: "inception_4c/3x3"
  bottom: "inception_4c/5x5"
  bottom: "inception_4c/pool_proj"
  top: "inception_4c/output"
}
layer {
  name: "inception_4d/1x1"
  type: "Convolution"
  bottom: "inception_4c/output"
  top: "inception_4d/1x1"
  param {
    lr_mult: 1
    decay_mult: 1
  }
  param {
    lr_mult: 2
    decay_mult: 0
  }
  convolution_param {
    num_output: 112
    kernel_size: 1
    weight_filler {
      type: "xavier"
      std: 0.03
    }
    bias_filler {
      type: "constant"
      value: 0.2
    }
  }
}
layer {
  name: "inception_4d/relu_1x1"
  type: "ReLU"
  bottom: "inception_4d/1x1"
  top: "inception_4d/1x1"
}
layer {
  name: "inception_4d/3x3_reduce"
  type: "Convolution"
  bottom: "inception_4c/output"
  top: "inception_4d/3x3_reduce"
  param {
    lr_mult: 1
    decay_mult: 1
  }
  param {
    lr_mult: 2
    decay_mult: 0
  }
  convolution_param {
    num_output: 144
    kernel_size: 1
    weight_filler {
      type: "xavier"
      std: 0.09
    }
    bias_filler {
      type: "constant"
      value: 0.2
    }
  }
}
layer {
  name: "inception_4d/relu_3x3_reduce"
  type: "ReLU"
  bottom: "inception_4d/3x3_reduce"
  top: "inception_4d/3x3_reduce"
}
layer {
  name: "inception_4d/3x3"
  type: "Convolution"
  bottom: "inception_4d/3x3_reduce"
  top: "inception_4d/3x3"
  param {
    lr_mult: 1
    decay_mult: 1
  }
  param {
    lr_mult: 2
    decay_mult: 0
  }
  convolution_param {
    num_output: 288
    pad: 1
    kernel_size: 3
    weight_filler {
      type: "xavier"
      std: 0.03
    }
    bias_filler {
      type: "constant"
      value: 0.2
    }
  }
}
layer {
  name: "inception_4d/relu_3x3"
  type: "ReLU"
  bottom: "inception_4d/3x3"
  top: "inception_4d/3x3"
}
layer {
  name: "inception_4d/5x5_reduce"
  type: "Convolution"
  bottom: "inception_4c/output"
  top: "inception_4d/5x5_reduce"
  param {
    lr_mult: 1
    decay_mult: 1
  }
  param {
    lr_mult: 2
    decay_mult: 0
  }
  convolution_param {
    num_output: 32
    kernel_size: 1
    weight_filler {
      type: "xavier"
      std: 0.2
    }
    bias_filler {
      type: "constant"
      value: 0.2
    }
  }
}
layer {
  name: "inception_4d/relu_5x5_reduce"
  type: "ReLU"
  bottom: "inception_4d/5x5_reduce"
  top: "inception_4d/5x5_reduce"
}
layer {
  name: "inception_4d/5x5"
  type: "Convolution"
  bottom: "inception_4d/5x5_reduce"
  top: "inception_4d/5x5"
  param {
    lr_mult: 1
    decay_mult: 1
  }
  param {
    lr_mult: 2
    decay_mult: 0
  }
  convolution_param {
    num_output: 64
    pad: 2
    kernel_size: 5
    weight_filler {
      type: "xavier"
      std: 0.03
    }
    bias_filler {
      type: "constant"
      value: 0.2
    }
  }
}
layer {
  name: "inception_4d/relu_5x5"
  type: "ReLU"
  bottom: "inception_4d/5x5"
  top: "inception_4d/5x5"
}
layer {
  name: "inception_4d/pool"
  type: "Pooling"
  bottom: "inception_4c/output"
  top: "inception_4d/pool"
  pooling_param {
    pool: MAX
    kernel_size: 3
    stride: 1
    pad: 1
  }
}
layer {
  name: "inception_4d/pool_proj"
  type: "Convolution"
  bottom: "inception_4d/pool"
  top: "inception_4d/pool_proj"
  param {
    lr_mult: 1
    decay_mult: 1
  }
  param {
    lr_mult: 2
    decay_mult: 0
  }
  convolution_param {
    num_output: 64
    kernel_size: 1
    weight_filler {
      type: "xavier"
      std: 0.1
    }
    bias_filler {
      type: "constant"
      value: 0.2
    }
  }
}
layer {
  name: "inception_4d/relu_pool_proj"
  type: "ReLU"
  bottom: "inception_4d/pool_proj"
  top: "inception_4d/pool_proj"
}
layer {
  name: "inception_4d/output"
  type: "Concat"
  bottom: "inception_4d/1x1"
  bottom: "inception_4d/3x3"
  bottom: "inception_4d/5x5"
  bottom: "inception_4d/pool_proj"
  top: "inception_4d/output"
}
layer {
  name: "loss2/ave_pool"
  type: "Pooling"
  bottom: "inception_4d/output"
  top: "loss2/ave_pool"
  pooling_param {
    pool: AVE
    kernel_size: 5
    stride: 3
  }
}
layer {
  name: "loss2/conv"
  type: "Convolution"
  bottom: "loss2/ave_pool"
  top: "loss2/conv"
  param {
    lr_mult: 1
    decay_mult: 1
  }
  param {
    lr_mult: 2
    decay_mult: 0
  }
  convolution_param {
    num_output: 128
    kernel_size: 1
    weight_filler {
      type: "xavier"
      std: 0.08
    }
    bias_filler {
      type: "constant"
      value: 0.2
    }
  }
}
layer {
  name: "loss2/relu_conv"
  type: "ReLU"
  bottom: "loss2/conv"
  top: "loss2/conv"
}
layer {
  name: "loss2/fc"
  type: "InnerProduct"
  bottom: "loss2/conv"
  top: "loss2/fc"
  param {
    lr_mult: 1
    decay_mult: 1
  }
  param {
    lr_mult: 2
    decay_mult: 0
  }
  inner_product_param {
    num_output: 1024
    weight_filler {
      type: "xavier"
      std: 0.02
    }
    bias_filler {
      type: "constant"
      value: 0.2
    }
  }
}
layer {
  name: "loss2/relu_fc"
  type: "ReLU"
  bottom: "loss2/fc"
  top: "loss2/fc"
}
layer {
  name: "loss2/drop_fc"
  type: "Dropout"
  bottom: "loss2/fc"
  top: "loss2/fc"
  dropout_param {
    dropout_ratio: 0.7
  }
}
layer {
  name: "loss2/classifier_plantvillage"
  type: "InnerProduct"
  bottom: "loss2/fc"
  top: "loss2/classifier_plantvillage"
  param {
    lr_mult: 1
    decay_mult: 1
  }
  param {
    lr_mult: 2
    decay_mult: 0
  }
  inner_product_param {
    num_output: 38
    weight_filler {
      type: "xavier"
      std: 0.0009765625
    }
    bias_filler {
      type: "constant"
      value: 0
    }
  }
}
layer {
  name: "inception_4e/1x1"
  type: "Convolution"
  bottom: "inception_4d/output"
  top: "inception_4e/1x1"
  param {
    lr_mult: 1
    decay_mult: 1
  }
  param {
    lr_mult: 2
    decay_mult: 0
  }
  convolution_param {
    num_output: 256
    kernel_size: 1
    weight_filler {
      type: "xavier"
      std: 0.03
    }
    bias_filler {
      type: "constant"
      value: 0.2
    }
  }
}
layer {
  name: "inception_4e/relu_1x1"
  type: "ReLU"
  bottom: "inception_4e/1x1"
  top: "inception_4e/1x1"
}
layer {
  name: "inception_4e/3x3_reduce"
  type: "Convolution"
  bottom: "inception_4d/output"
  top: "inception_4e/3x3_reduce"
  param {
    lr_mult: 1
    decay_mult: 1
  }
  param {
    lr_mult: 2
    decay_mult: 0
  }
  convolution_param {
    num_output: 160
    kernel_size: 1
    weight_filler {
      type: "xavier"
      std: 0.09
    }
    bias_filler {
      type: "constant"
      value: 0.2
    }
  }
}
layer {
  name: "inception_4e/relu_3x3_reduce"
  type: "ReLU"
  bottom: "inception_4e/3x3_reduce"
  top: "inception_4e/3x3_reduce"
}
layer {
  name: "inception_4e/3x3"
  type: "Convolution"
  bottom: "inception_4e/3x3_reduce"
  top: "inception_4e/3x3"
  param {
    lr_mult: 1
    decay_mult: 1
  }
  param {
    lr_mult: 2
    decay_mult: 0
  }
  convolution_param {
    num_output: 320
    pad: 1
    kernel_size: 3
    weight_filler {
      type: "xavier"
      std: 0.03
    }
    bias_filler {
      type: "constant"
      value: 0.2
    }
  }
}
layer {
  name: "inception_4e/relu_3x3"
  type: "ReLU"
  bottom: "inception_4e/3x3"
  top: "inception_4e/3x3"
}
layer {
  name: "inception_4e/5x5_reduce"
  type: "Convolution"
  bottom: "inception_4d/output"
  top: "inception_4e/5x5_reduce"
  param {
    lr_mult: 1
    decay_mult: 1
  }
  param {
    lr_mult: 2
    decay_mult: 0
  }
  convolution_param {
    num_output: 32
    kernel_size: 1
    weight_filler {
      type: "xavier"
      std: 0.2
    }
    bias_filler {
      type: "constant"
      value: 0.2
    }
  }
}
layer {
  name: "inception_4e/relu_5x5_reduce"
  type: "ReLU"
  bottom: "inception_4e/5x5_reduce"
  top: "inception_4e/5x5_reduce"
}
layer {
  name: "inception_4e/5x5"
  type: "Convolution"
  bottom: "inception_4e/5x5_reduce"
  top: "inception_4e/
I0403 18:25:43.368698 22344 layer_factory.hpp:77] Creating layer data
I0403 18:25:43.369292 22344 net.cpp:91] Creating Layer data
I0403 18:25:43.369324 22344 net.cpp:399] data -> data
I0403 18:25:43.369377 22344 net.cpp:399] data -> label
I0403 18:25:43.369415 22344 data_transformer.cpp:25] Loading mean file from: /home/mohanty/data/final_dataset/lmdb/segmented-40-60/mean.binaryproto
I0403 18:25:43.370522 22347 db_lmdb.cpp:38] Opened lmdb /home/mohanty/data/final_dataset/lmdb/segmented-40-60/test_db
I0403 18:25:43.382518 22344 data_layer.cpp:41] output data size: 24,3,224,224
I0403 18:25:43.410440 22344 net.cpp:141] Setting up data
I0403 18:25:43.410511 22344 net.cpp:148] Top shape: 24 3 224 224 (3612672)
I0403 18:25:43.410536 22344 net.cpp:148] Top shape: 24 (24)
I0403 18:25:43.410557 22344 net.cpp:156] Memory required for data: 14450784
I0403 18:25:43.410586 22344 layer_factory.hpp:77] Creating layer label_data_1_split
I0403 18:25:43.410614 22344 net.cpp:91] Creating Layer label_data_1_split
I0403 18:25:43.410631 22344 net.cpp:425] label_data_1_split <- label
I0403 18:25:43.410662 22344 net.cpp:399] label_data_1_split -> label_data_1_split_0
I0403 18:25:43.410691 22344 net.cpp:399] label_data_1_split -> label_data_1_split_1
I0403 18:25:43.410712 22344 net.cpp:399] label_data_1_split -> label_data_1_split_2
I0403 18:25:43.410732 22344 net.cpp:399] label_data_1_split -> label_data_1_split_3
I0403 18:25:43.410751 22344 net.cpp:399] label_data_1_split -> label_data_1_split_4
I0403 18:25:43.410770 22344 net.cpp:399] label_data_1_split -> label_data_1_split_5
I0403 18:25:43.410789 22344 net.cpp:399] label_data_1_split -> label_data_1_split_6
I0403 18:25:43.410810 22344 net.cpp:399] label_data_1_split -> label_data_1_split_7
I0403 18:25:43.410830 22344 net.cpp:399] label_data_1_split -> label_data_1_split_8
I0403 18:25:43.410850 22344 net.cpp:399] label_data_1_split -> label_data_1_split_9
I0403 18:25:43.410967 22344 net.cpp:141] Setting up label_data_1_split
I0403 18:25:43.410991 22344 net.cpp:148] Top shape: 24 (24)
I0403 18:25:43.411008 22344 net.cpp:148] Top shape: 24 (24)
I0403 18:25:43.411026 22344 net.cpp:148] Top shape: 24 (24)
I0403 18:25:43.411041 22344 net.cpp:148] Top shape: 24 (24)
I0403 18:25:43.411057 22344 net.cpp:148] Top shape: 24 (24)
I0403 18:25:43.411073 22344 net.cpp:148] Top shape: 24 (24)
I0403 18:25:43.411088 22344 net.cpp:148] Top shape: 24 (24)
I0403 18:25:43.411104 22344 net.cpp:148] Top shape: 24 (24)
I0403 18:25:43.411120 22344 net.cpp:148] Top shape: 24 (24)
I0403 18:25:43.411137 22344 net.cpp:148] Top shape: 24 (24)
I0403 18:25:43.411190 22344 net.cpp:156] Memory required for data: 14451744
I0403 18:25:43.411206 22344 layer_factory.hpp:77] Creating layer conv1/7x7_s2
I0403 18:25:43.411239 22344 net.cpp:91] Creating Layer conv1/7x7_s2
I0403 18:25:43.411258 22344 net.cpp:425] conv1/7x7_s2 <- data
I0403 18:25:43.411278 22344 net.cpp:399] conv1/7x7_s2 -> conv1/7x7_s2
I0403 18:25:43.552014 22344 net.cpp:141] Setting up conv1/7x7_s2
I0403 18:25:43.552079 22344 net.cpp:148] Top shape: 24 64 112 112 (19267584)
I0403 18:25:43.552098 22344 net.cpp:156] Memory required for data: 91522080
I0403 18:25:43.552127 22344 layer_factory.hpp:77] Creating layer conv1/relu_7x7
I0403 18:25:43.552155 22344 net.cpp:91] Creating Layer conv1/relu_7x7
I0403 18:25:43.552175 22344 net.cpp:425] conv1/relu_7x7 <- conv1/7x7_s2
I0403 18:25:43.552193 22344 net.cpp:386] conv1/relu_7x7 -> conv1/7x7_s2 (in-place)
I0403 18:25:43.552446 22344 net.cpp:141] Setting up conv1/relu_7x7
I0403 18:25:43.552479 22344 net.cpp:148] Top shape: 24 64 112 112 (19267584)
I0403 18:25:43.552496 22344 net.cpp:156] Memory required for data: 168592416
I0403 18:25:43.552512 22344 layer_factory.hpp:77] Creating layer pool1/3x3_s2
I0403 18:25:43.552541 22344 net.cpp:91] Creating Layer pool1/3x3_s2
I0403 18:25:43.552561 22344 net.cpp:425] pool1/3x3_s2 <- conv1/7x7_s2
I0403 18:25:43.552579 22344 net.cpp:399] pool1/3x3_s2 -> pool1/3x3_s2
I0403 18:25:43.552654 22344 net.cpp:141] Setting up pool1/3x3_s2
I0403 18:25:43.552677 22344 net.cpp:148] Top shape: 24 64 56 56 (4816896)
I0403 18:25:43.552692 22344 net.cpp:156] Memory required for data: 187860000
I0403 18:25:43.552707 22344 layer_factory.hpp:77] Creating layer pool1/norm1
I0403 18:25:43.552732 22344 net.cpp:91] Creating Layer pool1/norm1
I0403 18:25:43.552749 22344 net.cpp:425] pool1/norm1 <- pool1/3x3_s2
I0403 18:25:43.552767 22344 net.cpp:399] pool1/norm1 -> pool1/norm1
I0403 18:25:43.553061 22344 net.cpp:141] Setting up pool1/norm1
I0403 18:25:43.553088 22344 net.cpp:148] Top shape: 24 64 56 56 (4816896)
I0403 18:25:43.553104 22344 net.cpp:156] Memory required for data: 207127584
I0403 18:25:43.553119 22344 layer_factory.hpp:77] Creating layer conv2/3x3_reduce
I0403 18:25:43.553146 22344 net.cpp:91] Creating Layer conv2/3x3_reduce
I0403 18:25:43.553164 22344 net.cpp:425] conv2/3x3_reduce <- pool1/norm1
I0403 18:25:43.553186 22344 net.cpp:399] conv2/3x3_reduce -> conv2/3x3_reduce
I0403 18:25:43.554607 22344 net.cpp:141] Setting up conv2/3x3_reduce
I0403 18:25:43.554637 22344 net.cpp:148] Top shape: 24 64 56 56 (4816896)
I0403 18:25:43.554653 22344 net.cpp:156] Memory required for data: 226395168
I0403 18:25:43.554674 22344 layer_factory.hpp:77] Creating layer conv2/relu_3x3_reduce
I0403 18:25:43.554697 22344 net.cpp:91] Creating Layer conv2/relu_3x3_reduce
I0403 18:25:43.554713 22344 net.cpp:425] conv2/relu_3x3_reduce <- conv2/3x3_reduce
I0403 18:25:43.554730 22344 net.cpp:386] conv2/relu_3x3_reduce -> conv2/3x3_reduce (in-place)
I0403 18:25:43.555002 22344 net.cpp:141] Setting up conv2/relu_3x3_reduce
I0403 18:25:43.555030 22344 net.cpp:148] Top shape: 24 64 56 56 (4816896)
I0403 18:25:43.555047 22344 net.cpp:156] Memory required for data: 245662752
I0403 18:25:43.555060 22344 layer_factory.hpp:77] Creating layer conv2/3x3
I0403 18:25:43.555088 22344 net.cpp:91] Creating Layer conv2/3x3
I0403 18:25:43.555106 22344 net.cpp:425] conv2/3x3 <- conv2/3x3_reduce
I0403 18:25:43.555125 22344 net.cpp:399] conv2/3x3 -> conv2/3x3
I0403 18:25:43.557404 22344 net.cpp:141] Setting up conv2/3x3
I0403 18:25:43.557433 22344 net.cpp:148] Top shape: 24 192 56 56 (14450688)
I0403 18:25:43.557451 22344 net.cpp:156] Memory required for data: 303465504
I0403 18:25:43.557472 22344 layer_factory.hpp:77] Creating layer conv2/relu_3x3
I0403 18:25:43.557494 22344 net.cpp:91] Creating Layer conv2/relu_3x3
I0403 18:25:43.557512 22344 net.cpp:425] conv2/relu_3x3 <- conv2/3x3
I0403 18:25:43.557529 22344 net.cpp:386] conv2/relu_3x3 -> conv2/3x3 (in-place)
I0403 18:25:43.557705 22344 net.cpp:141] Setting up conv2/relu_3x3
I0403 18:25:43.557731 22344 net.cpp:148] Top shape: 24 192 56 56 (14450688)
I0403 18:25:43.557783 22344 net.cpp:156] Memory required for data: 361268256
I0403 18:25:43.557799 22344 layer_factory.hpp:77] Creating layer conv2/norm2
I0403 18:25:43.557818 22344 net.cpp:91] Creating Layer conv2/norm2
I0403 18:25:43.557834 22344 net.cpp:425] conv2/norm2 <- conv2/3x3
I0403 18:25:43.557854 22344 net.cpp:399] conv2/norm2 -> conv2/norm2
I0403 18:25:43.558158 22344 net.cpp:141] Setting up conv2/norm2
I0403 18:25:43.558185 22344 net.cpp:148] Top shape: 24 192 56 56 (14450688)
I0403 18:25:43.558202 22344 net.cpp:156] Memory required for data: 419071008
I0403 18:25:43.558218 22344 layer_factory.hpp:77] Creating layer pool2/3x3_s2
I0403 18:25:43.558235 22344 net.cpp:91] Creating Layer pool2/3x3_s2
I0403 18:25:43.558251 22344 net.cpp:425] pool2/3x3_s2 <- conv2/norm2
I0403 18:25:43.558271 22344 net.cpp:399] pool2/3x3_s2 -> pool2/3x3_s2
I0403 18:25:43.558326 22344 net.cpp:141] Setting up pool2/3x3_s2
I0403 18:25:43.558348 22344 net.cpp:148] Top shape: 24 192 28 28 (3612672)
I0403 18:25:43.558363 22344 net.cpp:156] Memory required for data: 433521696
I0403 18:25:43.558378 22344 layer_factory.hpp:77] Creating layer pool2/3x3_s2_pool2/3x3_s2_0_split
I0403 18:25:43.558395 22344 net.cpp:91] Creating Layer pool2/3x3_s2_pool2/3x3_s2_0_split
I0403 18:25:43.558411 22344 net.cpp:425] pool2/3x3_s2_pool2/3x3_s2_0_split <- pool2/3x3_s2
I0403 18:25:43.558430 22344 net.cpp:399] pool2/3x3_s2_pool2/3x3_s2_0_split -> pool2/3x3_s2_pool2/3x3_s2_0_split_0
I0403 18:25:43.558451 22344 net.cpp:399] pool2/3x3_s2_pool2/3x3_s2_0_split -> pool2/3x3_s2_pool2/3x3_s2_0_split_1
I0403 18:25:43.558471 22344 net.cpp:399] pool2/3x3_s2_pool2/3x3_s2_0_split -> pool2/3x3_s2_pool2/3x3_s2_0_split_2
I0403 18:25:43.558491 22344 net.cpp:399] pool2/3x3_s2_pool2/3x3_s2_0_split -> pool2/3x3_s2_pool2/3x3_s2_0_split_3
I0403 18:25:43.558564 22344 net.cpp:141] Setting up pool2/3x3_s2_pool2/3x3_s2_0_split
I0403 18:25:43.558590 22344 net.cpp:148] Top shape: 24 192 28 28 (3612672)
I0403 18:25:43.558609 22344 net.cpp:148] Top shape: 24 192 28 28 (3612672)
I0403 18:25:43.558626 22344 net.cpp:148] Top shape: 24 192 28 28 (3612672)
I0403 18:25:43.558641 22344 net.cpp:148] Top shape: 24 192 28 28 (3612672)
I0403 18:25:43.558656 22344 net.cpp:156] Memory required for data: 491324448
I0403 18:25:43.558670 22344 layer_factory.hpp:77] Creating layer inception_3a/1x1
I0403 18:25:43.558693 22344 net.cpp:91] Creating Layer inception_3a/1x1
I0403 18:25:43.558711 22344 net.cpp:425] inception_3a/1x1 <- pool2/3x3_s2_pool2/3x3_s2_0_split_0
I0403 18:25:43.558729 22344 net.cpp:399] inception_3a/1x1 -> inception_3a/1x1
I0403 18:25:43.560264 22344 net.cpp:141] Setting up inception_3a/1x1
I0403 18:25:43.560293 22344 net.cpp:148] Top shape: 24 64 28 28 (1204224)
I0403 18:25:43.560310 22344 net.cpp:156] Memory required for data: 496141344
I0403 18:25:43.560328 22344 layer_factory.hpp:77] Creating layer inception_3a/relu_1x1
I0403 18:25:43.560350 22344 net.cpp:91] Creating Layer inception_3a/relu_1x1
I0403 18:25:43.560367 22344 net.cpp:425] inception_3a/relu_1x1 <- inception_3a/1x1
I0403 18:25:43.560384 22344 net.cpp:386] inception_3a/relu_1x1 -> inception_3a/1x1 (in-place)
I0403 18:25:43.560569 22344 net.cpp:141] Setting up inception_3a/relu_1x1
I0403 18:25:43.560595 22344 net.cpp:148] Top shape: 24 64 28 28 (1204224)
I0403 18:25:43.560613 22344 net.cpp:156] Memory required for data: 500958240
I0403 18:25:43.560628 22344 layer_factory.hpp:77] Creating layer inception_3a/3x3_reduce
I0403 18:25:43.560652 22344 net.cpp:91] Creating Layer inception_3a/3x3_reduce
I0403 18:25:43.560669 22344 net.cpp:425] inception_3a/3x3_reduce <- pool2/3x3_s2_pool2/3x3_s2_0_split_1
I0403 18:25:43.560688 22344 net.cpp:399] inception_3a/3x3_reduce -> inception_3a/3x3_reduce
I0403 18:25:43.562357 22344 net.cpp:141] Setting up inception_3a/3x3_reduce
I0403 18:25:43.562387 22344 net.cpp:148] Top shape: 24 96 28 28 (1806336)
I0403 18:25:43.562403 22344 net.cpp:156] Memory required for data: 508183584
I0403 18:25:43.562425 22344 layer_factory.hpp:77] Creating layer inception_3a/relu_3x3_reduce
I0403 18:25:43.562463 22344 net.cpp:91] Creating Layer inception_3a/relu_3x3_reduce
I0403 18:25:43.562482 22344 net.cpp:425] inception_3a/relu_3x3_reduce <- inception_3a/3x3_reduce
I0403 18:25:43.562504 22344 net.cpp:386] inception_3a/relu_3x3_reduce -> inception_3a/3x3_reduce (in-place)
I0403 18:25:43.562688 22344 net.cpp:141] Setting up inception_3a/relu_3x3_reduce
I0403 18:25:43.562714 22344 net.cpp:148] Top shape: 24 96 28 28 (1806336)
I0403 18:25:43.562731 22344 net.cpp:156] Memory required for data: 515408928
I0403 18:25:43.562746 22344 layer_factory.hpp:77] Creating layer inception_3a/3x3
I0403 18:25:43.562768 22344 net.cpp:91] Creating Layer inception_3a/3x3
I0403 18:25:43.562786 22344 net.cpp:425] inception_3a/3x3 <- inception_3a/3x3_reduce
I0403 18:25:43.562809 22344 net.cpp:399] inception_3a/3x3 -> inception_3a/3x3
I0403 18:25:43.564447 22344 net.cpp:141] Setting up inception_3a/3x3
I0403 18:25:43.564478 22344 net.cpp:148] Top shape: 24 128 28 28 (2408448)
I0403 18:25:43.564496 22344 net.cpp:156] Memory required for data: 525042720
I0403 18:25:43.564514 22344 layer_factory.hpp:77] Creating layer inception_3a/relu_3x3
I0403 18:25:43.564532 22344 net.cpp:91] Creating Layer inception_3a/relu_3x3
I0403 18:25:43.564571 22344 net.cpp:425] inception_3a/relu_3x3 <- inception_3a/3x3
I0403 18:25:43.564590 22344 net.cpp:386] inception_3a/relu_3x3 -> inception_3a/3x3 (in-place)
I0403 18:25:43.564859 22344 net.cpp:141] Setting up inception_3a/relu_3x3
I0403 18:25:43.564888 22344 net.cpp:148] Top shape: 24 128 28 28 (2408448)
I0403 18:25:43.564905 22344 net.cpp:156] Memory required for data: 534676512
I0403 18:25:43.564920 22344 layer_factory.hpp:77] Creating layer inception_3a/5x5_reduce
I0403 18:25:43.564941 22344 net.cpp:91] Creating Layer inception_3a/5x5_reduce
I0403 18:25:43.564959 22344 net.cpp:425] inception_3a/5x5_reduce <- pool2/3x3_s2_pool2/3x3_s2_0_split_2
I0403 18:25:43.564980 22344 net.cpp:399] inception_3a/5x5_reduce -> inception_3a/5x5_reduce
I0403 18:25:43.565938 22344 net.cpp:141] Setting up inception_3a/5x5_reduce
I0403 18:25:43.565968 22344 net.cpp:148] Top shape: 24 16 28 28 (301056)
I0403 18:25:43.565984 22344 net.cpp:156] Memory required for data: 535880736
I0403 18:25:43.566004 22344 layer_factory.hpp:77] Creating layer inception_3a/relu_5x5_reduce
I0403 18:25:43.566021 22344 net.cpp:91] Creating Layer inception_3a/relu_5x5_reduce
I0403 18:25:43.566038 22344 net.cpp:425] inception_3a/relu_5x5_reduce <- inception_3a/5x5_reduce
I0403 18:25:43.566056 22344 net.cpp:386] inception_3a/relu_5x5_reduce -> inception_3a/5x5_reduce (in-place)
I0403 18:25:43.566351 22344 net.cpp:141] Setting up inception_3a/relu_5x5_reduce
I0403 18:25:43.566377 22344 net.cpp:148] Top shape: 24 16 28 28 (301056)
I0403 18:25:43.566395 22344 net.cpp:156] Memory required for data: 537084960
I0403 18:25:43.566409 22344 layer_factory.hpp:77] Creating layer inception_3a/5x5
I0403 18:25:43.566432 22344 net.cpp:91] Creating Layer inception_3a/5x5
I0403 18:25:43.566450 22344 net.cpp:425] inception_3a/5x5 <- inception_3a/5x5_reduce
I0403 18:25:43.566473 22344 net.cpp:399] inception_3a/5x5 -> inception_3a/5x5
I0403 18:25:43.567487 22344 net.cpp:141] Setting up inception_3a/5x5
I0403 18:25:43.567514 22344 net.cpp:148] Top shape: 24 32 28 28 (602112)
I0403 18:25:43.567530 22344 net.cpp:156] Memory required for data: 539493408
I0403 18:25:43.567553 22344 layer_factory.hpp:77] Creating layer inception_3a/relu_5x5
I0403 18:25:43.567575 22344 net.cpp:91] Creating Layer inception_3a/relu_5x5
I0403 18:25:43.567592 22344 net.cpp:425] inception_3a/relu_5x5 <- inception_3a/5x5
I0403 18:25:43.567610 22344 net.cpp:386] inception_3a/relu_5x5 -> inception_3a/5x5 (in-place)
I0403 18:25:43.567780 22344 net.cpp:141] Setting up inception_3a/relu_5x5
I0403 18:25:43.567808 22344 net.cpp:148] Top shape: 24 32 28 28 (602112)
I0403 18:25:43.567823 22344 net.cpp:156] Memory required for data: 541901856
I0403 18:25:43.567838 22344 layer_factory.hpp:77] Creating layer inception_3a/pool
I0403 18:25:43.567857 22344 net.cpp:91] Creating Layer inception_3a/pool
I0403 18:25:43.567886 22344 net.cpp:425] inception_3a/pool <- pool2/3x3_s2_pool2/3x3_s2_0_split_3
I0403 18:25:43.567909 22344 net.cpp:399] inception_3a/pool -> inception_3a/pool
I0403 18:25:43.567966 22344 net.cpp:141] Setting up inception_3a/pool
I0403 18:25:43.567989 22344 net.cpp:148] Top shape: 24 192 28 28 (3612672)
I0403 18:25:43.568004 22344 net.cpp:156] Memory required for data: 556352544
I0403 18:25:43.568019 22344 layer_factory.hpp:77] Creating layer inception_3a/pool_proj
I0403 18:25:43.568042 22344 net.cpp:91] Creating Layer inception_3a/pool_proj
I0403 18:25:43.568060 22344 net.cpp:425] inception_3a/pool_proj <- inception_3a/pool
I0403 18:25:43.568083 22344 net.cpp:399] inception_3a/pool_proj -> inception_3a/pool_proj
I0403 18:25:43.569039 22344 net.cpp:141] Setting up inception_3a/pool_proj
I0403 18:25:43.569067 22344 net.cpp:148] Top shape: 24 32 28 28 (602112)
I0403 18:25:43.569083 22344 net.cpp:156] Memory required for data: 558760992
I0403 18:25:43.569108 22344 layer_factory.hpp:77] Creating layer inception_3a/relu_pool_proj
I0403 18:25:43.569128 22344 net.cpp:91] Creating Layer inception_3a/relu_pool_proj
I0403 18:25:43.569144 22344 net.cpp:425] inception_3a/relu_pool_proj <- inception_3a/pool_proj
I0403 18:25:43.569161 22344 net.cpp:386] inception_3a/relu_pool_proj -> inception_3a/pool_proj (in-place)
I0403 18:25:43.569437 22344 net.cpp:141] Setting up inception_3a/relu_pool_proj
I0403 18:25:43.569466 22344 net.cpp:148] Top shape: 24 32 28 28 (602112)
I0403 18:25:43.569483 22344 net.cpp:156] Memory required for data: 561169440
I0403 18:25:43.569499 22344 layer_factory.hpp:77] Creating layer inception_3a/output
I0403 18:25:43.569516 22344 net.cpp:91] Creating Layer inception_3a/output
I0403 18:25:43.569531 22344 net.cpp:425] inception_3a/output <- inception_3a/1x1
I0403 18:25:43.569553 22344 net.cpp:425] inception_3a/output <- inception_3a/3x3
I0403 18:25:43.569569 22344 net.cpp:425] inception_3a/output <- inception_3a/5x5
I0403 18:25:43.569586 22344 net.cpp:425] inception_3a/output <- inception_3a/pool_proj
I0403 18:25:43.569602 22344 net.cpp:399] inception_3a/output -> inception_3a/output
I0403 18:25:43.569651 22344 net.cpp:141] Setting up inception_3a/output
I0403 18:25:43.569675 22344 net.cpp:148] Top shape: 24 256 28 28 (4816896)
I0403 18:25:43.569690 22344 net.cpp:156] Memory required for data: 580437024
I0403 18:25:43.569705 22344 layer_factory.hpp:77] Creating layer inception_3a/output_inception_3a/output_0_split
I0403 18:25:43.569722 22344 net.cpp:91] Creating Layer inception_3a/output_inception_3a/output_0_split
I0403 18:25:43.569741 22344 net.cpp:425] inception_3a/output_inception_3a/output_0_split <- inception_3a/output
I0403 18:25:43.569758 22344 net.cpp:399] inception_3a/output_inception_3a/output_0_split -> inception_3a/output_inception_3a/output_0_split_0
I0403 18:25:43.569778 22344 net.cpp:399] inception_3a/output_inception_3a/output_0_split -> inception_3a/output_inception_3a/output_0_split_1
I0403 18:25:43.569804 22344 net.cpp:399] inception_3a/output_inception_3a/output_0_split -> inception_3a/output_inception_3a/output_0_split_2
I0403 18:25:43.569826 22344 net.cpp:399] inception_3a/output_inception_3a/output_0_split -> inception_3a/output_inception_3a/output_0_split_3
I0403 18:25:43.569905 22344 net.cpp:141] Setting up inception_3a/output_inception_3a/output_0_split
I0403 18:25:43.569927 22344 net.cpp:148] Top shape: 24 256 28 28 (4816896)
I0403 18:25:43.569946 22344 net.cpp:148] Top shape: 24 256 28 28 (4816896)
I0403 18:25:43.569962 22344 net.cpp:148] Top shape: 24 256 28 28 (4816896)
I0403 18:25:43.569977 22344 net.cpp:148] Top shape: 24 256 28 28 (4816896)
I0403 18:25:43.569991 22344 net.cpp:156] Memory required for data: 657507360
I0403 18:25:43.570005 22344 layer_factory.hpp:77] Creating layer inception_3b/1x1
I0403 18:25:43.570027 22344 net.cpp:91] Creating Layer inception_3b/1x1
I0403 18:25:43.570045 22344 net.cpp:425] inception_3b/1x1 <- inception_3a/output_inception_3a/output_0_split_0
I0403 18:25:43.570067 22344 net.cpp:399] inception_3b/1x1 -> inception_3b/1x1
I0403 18:25:43.571195 22344 net.cpp:141] Setting up inception_3b/1x1
I0403 18:25:43.571235 22344 net.cpp:148] Top shape: 24 128 28 28 (2408448)
I0403 18:25:43.571251 22344 net.cpp:156] Memory required for data: 667141152
I0403 18:25:43.571270 22344 layer_factory.hpp:77] Creating layer inception_3b/relu_1x1
I0403 18:25:43.571291 22344 net.cpp:91] Creating Layer inception_3b/relu_1x1
I0403 18:25:43.571310 22344 net.cpp:425] inception_3b/relu_1x1 <- inception_3b/1x1
I0403 18:25:43.571326 22344 net.cpp:386] inception_3b/relu_1x1 -> inception_3b/1x1 (in-place)
I0403 18:25:43.571498 22344 net.cpp:141] Setting up inception_3b/relu_1x1
I0403 18:25:43.571527 22344 net.cpp:148] Top shape: 24 128 28 28 (2408448)
I0403 18:25:43.571547 22344 net.cpp:156] Memory required for data: 676774944
I0403 18:25:43.571563 22344 layer_factory.hpp:77] Creating layer inception_3b/3x3_reduce
I0403 18:25:43.571586 22344 net.cpp:91] Creating Layer inception_3b/3x3_reduce
I0403 18:25:43.571605 22344 net.cpp:425] inception_3b/3x3_reduce <- inception_3a/output_inception_3a/output_0_split_1
I0403 18:25:43.571625 22344 net.cpp:399] inception_3b/3x3_reduce -> inception_3b/3x3_reduce
I0403 18:25:43.572748 22344 net.cpp:141] Setting up inception_3b/3x3_reduce
I0403 18:25:43.572775 22344 net.cpp:148] Top shape: 24 128 28 28 (2408448)
I0403 18:25:43.572793 22344 net.cpp:156] Memory required for data: 686408736
I0403 18:25:43.572810 22344 layer_factory.hpp:77] Creating layer inception_3b/relu_3x3_reduce
I0403 18:25:43.572832 22344 net.cpp:91] Creating Layer inception_3b/relu_3x3_reduce
I0403 18:25:43.572849 22344 net.cpp:425] inception_3b/relu_3x3_reduce <- inception_3b/3x3_reduce
I0403 18:25:43.572866 22344 net.cpp:386] inception_3b/relu_3x3_reduce -> inception_3b/3x3_reduce (in-place)
I0403 18:25:43.573036 22344 net.cpp:141] Setting up inception_3b/relu_3x3_reduce
I0403 18:25:43.573062 22344 net.cpp:148] Top shape: 24 128 28 28 (2408448)
I0403 18:25:43.573078 22344 net.cpp:156] Memory required for data: 696042528
I0403 18:25:43.573092 22344 layer_factory.hpp:77] Creating layer inception_3b/3x3
I0403 18:25:43.573119 22344 net.cpp:91] Creating Layer inception_3b/3x3
I0403 18:25:43.573138 22344 net.cpp:425] inception_3b/3x3 <- inception_3b/3x3_reduce
I0403 18:25:43.573160 22344 net.cpp:399] inception_3b/3x3 -> inception_3b/3x3
I0403 18:25:43.576069 22344 net.cpp:141] Setting up inception_3b/3x3
I0403 18:25:43.576100 22344 net.cpp:148] Top shape: 24 192 28 28 (3612672)
I0403 18:25:43.576117 22344 net.cpp:156] Memory required for data: 710493216
I0403 18:25:43.576136 22344 layer_factory.hpp:77] Creating layer inception_3b/relu_3x3
I0403 18:25:43.576154 22344 net.cpp:91] Creating Layer inception_3b/relu_3x3
I0403 18:25:43.576172 22344 net.cpp:425] inception_3b/relu_3x3 <- inception_3b/3x3
I0403 18:25:43.576190 22344 net.cpp:386] inception_3b/relu_3x3 -> inception_3b/3x3 (in-place)
I0403 18:25:43.576463 22344 net.cpp:141] Setting up inception_3b/relu_3x3
I0403 18:25:43.576493 22344 net.cpp:148] Top shape: 24 192 28 28 (3612672)
I0403 18:25:43.576511 22344 net.cpp:156] Memory required for data: 724943904
I0403 18:25:43.576526 22344 layer_factory.hpp:77] Creating layer inception_3b/5x5_reduce
I0403 18:25:43.576553 22344 net.cpp:91] Creating Layer inception_3b/5x5_reduce
I0403 18:25:43.576572 22344 net.cpp:425] inception_3b/5x5_reduce <- inception_3a/output_inception_3a/output_0_split_2
I0403 18:25:43.576606 22344 net.cpp:399] inception_3b/5x5_reduce -> inception_3b/5x5_reduce
I0403 18:25:43.577613 22344 net.cpp:141] Setting up inception_3b/5x5_reduce
I0403 18:25:43.577641 22344 net.cpp:148] Top shape: 24 32 28 28 (602112)
I0403 18:25:43.577657 22344 net.cpp:156] Memory required for data: 727352352
I0403 18:25:43.577677 22344 layer_factory.hpp:77] Creating layer inception_3b/relu_5x5_reduce
I0403 18:25:43.577697 22344 net.cpp:91] Creating Layer inception_3b/relu_5x5_reduce
I0403 18:25:43.577714 22344 net.cpp:425] inception_3b/relu_5x5_reduce <- inception_3b/5x5_reduce
I0403 18:25:43.577731 22344 net.cpp:386] inception_3b/relu_5x5_reduce -> inception_3b/5x5_reduce (in-place)
I0403 18:25:43.577925 22344 net.cpp:141] Setting up inception_3b/relu_5x5_reduce
I0403 18:25:43.577952 22344 net.cpp:148] Top shape: 24 32 28 28 (602112)
I0403 18:25:43.577970 22344 net.cpp:156] Memory required for data: 729760800
I0403 18:25:43.577985 22344 layer_factory.hpp:77] Creating layer inception_3b/5x5
I0403 18:25:43.578006 22344 net.cpp:91] Creating Layer inception_3b/5x5
I0403 18:25:43.578024 22344 net.cpp:425] inception_3b/5x5 <- inception_3b/5x5_reduce
I0403 18:25:43.578044 22344 net.cpp:399] inception_3b/5x5 -> inception_3b/5x5
I0403 18:25:43.580005 22344 net.cpp:141] Setting up inception_3b/5x5
I0403 18:25:43.580034 22344 net.cpp:148] Top shape: 24 96 28 28 (1806336)
I0403 18:25:43.580050 22344 net.cpp:156] Memory required for data: 736986144
I0403 18:25:43.580070 22344 layer_factory.hpp:77] Creating layer inception_3b/relu_5x5
I0403 18:25:43.580090 22344 net.cpp:91] Creating Layer inception_3b/relu_5x5
I0403 18:25:43.580107 22344 net.cpp:425] inception_3b/relu_5x5 <- inception_3b/5x5
I0403 18:25:43.580124 22344 net.cpp:386] inception_3b/relu_5x5 -> inception_3b/5x5 (in-place)
I0403 18:25:43.580317 22344 net.cpp:141] Setting up inception_3b/relu_5x5
I0403 18:25:43.580343 22344 net.cpp:148] Top shape: 24 96 28 28 (1806336)
I0403 18:25:43.580359 22344 net.cpp:156] Memory required for data: 744211488
I0403 18:25:43.580374 22344 layer_factory.hpp:77] Creating layer inception_3b/pool
I0403 18:25:43.580392 22344 net.cpp:91] Creating Layer inception_3b/pool
I0403 18:25:43.580410 22344 net.cpp:425] inception_3b/pool <- inception_3a/output_inception_3a/output_0_split_3
I0403 18:25:43.580427 22344 net.cpp:399] inception_3b/pool -> inception_3b/pool
I0403 18:25:43.580482 22344 net.cpp:141] Setting up inception_3b/pool
I0403 18:25:43.580505 22344 net.cpp:148] Top shape: 24 256 28 28 (4816896)
I0403 18:25:43.580521 22344 net.cpp:156] Memory required for data: 763479072
I0403 18:25:43.580539 22344 layer_factory.hpp:77] Creating layer inception_3b/pool_proj
I0403 18:25:43.580564 22344 net.cpp:91] Creating Layer inception_3b/pool_proj
I0403 18:25:43.580581 22344 net.cpp:425] inception_3b/pool_proj <- inception_3b/pool
I0403 18:25:43.580603 22344 net.cpp:399] inception_3b/pool_proj -> inception_3b/pool_proj
I0403 18:25:43.581651 22344 net.cpp:141] Setting up inception_3b/pool_proj
I0403 18:25:43.581681 22344 net.cpp:148] Top shape: 24 64 28 28 (1204224)
I0403 18:25:43.581698 22344 net.cpp:156] Memory required for data: 768295968
I0403 18:25:43.581717 22344 layer_factory.hpp:77] Creating layer inception_3b/relu_pool_proj
I0403 18:25:43.581735 22344 net.cpp:91] Creating Layer inception_3b/relu_pool_proj
I0403 18:25:43.581751 22344 net.cpp:425] inception_3b/relu_pool_proj <- inception_3b/pool_proj
I0403 18:25:43.581771 22344 net.cpp:386] inception_3b/relu_pool_proj -> inception_3b/pool_proj (in-place)
I0403 18:25:43.582164 22344 net.cpp:141] Setting up inception_3b/relu_pool_proj
I0403 18:25:43.582192 22344 net.cpp:148] Top shape: 24 64 28 28 (1204224)
I0403 18:25:43.582209 22344 net.cpp:156] Memory required for data: 773112864
I0403 18:25:43.582226 22344 layer_factory.hpp:77] Creating layer inception_3b/output
I0403 18:25:43.582243 22344 net.cpp:91] Creating Layer inception_3b/output
I0403 18:25:43.582259 22344 net.cpp:425] inception_3b/output <- inception_3b/1x1
I0403 18:25:43.582284 22344 net.cpp:425] inception_3b/output <- inception_3b/3x3
I0403 18:25:43.582301 22344 net.cpp:425] inception_3b/output <- inception_3b/5x5
I0403 18:25:43.582317 22344 net.cpp:425] inception_3b/output <- inception_3b/pool_proj
I0403 18:25:43.582334 22344 net.cpp:399] inception_3b/output -> inception_3b/output
I0403 18:25:43.582381 22344 net.cpp:141] Setting up inception_3b/output
I0403 18:25:43.582406 22344 net.cpp:148] Top shape: 24 480 28 28 (9031680)
I0403 18:25:43.582420 22344 net.cpp:156] Memory required for data: 809239584
I0403 18:25:43.582434 22344 layer_factory.hpp:77] Creating layer pool3/3x3_s2
I0403 18:25:43.582455 22344 net.cpp:91] Creating Layer pool3/3x3_s2
I0403 18:25:43.582473 22344 net.cpp:425] pool3/3x3_s2 <- inception_3b/output
I0403 18:25:43.582505 22344 net.cpp:399] pool3/3x3_s2 -> pool3/3x3_s2
I0403 18:25:43.582572 22344 net.cpp:141] Setting up pool3/3x3_s2
I0403 18:25:43.582595 22344 net.cpp:148] Top shape: 24 480 14 14 (2257920)
I0403 18:25:43.582612 22344 net.cpp:156] Memory required for data: 818271264
I0403 18:25:43.582628 22344 layer_factory.hpp:77] Creating layer pool3/3x3_s2_pool3/3x3_s2_0_split
I0403 18:25:43.582644 22344 net.cpp:91] Creating Layer pool3/3x3_s2_pool3/3x3_s2_0_split
I0403 18:25:43.582660 22344 net.cpp:425] pool3/3x3_s2_pool3/3x3_s2_0_split <- pool3/3x3_s2
I0403 18:25:43.582680 22344 net.cpp:399] pool3/3x3_s2_pool3/3x3_s2_0_split -> pool3/3x3_s2_pool3/3x3_s2_0_split_0
I0403 18:25:43.582701 22344 net.cpp:399] pool3/3x3_s2_pool3/3x3_s2_0_split -> pool3/3x3_s2_pool3/3x3_s2_0_split_1
I0403 18:25:43.582721 22344 net.cpp:399] pool3/3x3_s2_pool3/3x3_s2_0_split -> pool3/3x3_s2_pool3/3x3_s2_0_split_2
I0403 18:25:43.582741 22344 net.cpp:399] pool3/3x3_s2_pool3/3x3_s2_0_split -> pool3/3x3_s2_pool3/3x3_s2_0_split_3
I0403 18:25:43.582819 22344 net.cpp:141] Setting up pool3/3x3_s2_pool3/3x3_s2_0_split
I0403 18:25:43.582844 22344 net.cpp:148] Top shape: 24 480 14 14 (2257920)
I0403 18:25:43.582862 22344 net.cpp:148] Top shape: 24 480 14 14 (2257920)
I0403 18:25:43.582878 22344 net.cpp:148] Top shape: 24 480 14 14 (2257920)
I0403 18:25:43.582893 22344 net.cpp:148] Top shape: 24 480 14 14 (2257920)
I0403 18:25:43.582907 22344 net.cpp:156] Memory required for data: 854397984
I0403 18:25:43.582921 22344 layer_factory.hpp:77] Creating layer inception_4a/1x1
I0403 18:25:43.582944 22344 net.cpp:91] Creating Layer inception_4a/1x1
I0403 18:25:43.582962 22344 net.cpp:425] inception_4a/1x1 <- pool3/3x3_s2_pool3/3x3_s2_0_split_0
I0403 18:25:43.582981 22344 net.cpp:399] inception_4a/1x1 -> inception_4a/1x1
I0403 18:25:43.584550 22344 net.cpp:141] Setting up inception_4a/1x1
I0403 18:25:43.584579 22344 net.cpp:148] Top shape: 24 192 14 14 (903168)
I0403 18:25:43.584596 22344 net.cpp:156] Memory required for data: 858010656
I0403 18:25:43.584614 22344 layer_factory.hpp:77] Creating layer inception_4a/relu_1x1
I0403 18:25:43.584633 22344 net.cpp:91] Creating Layer inception_4a/relu_1x1
I0403 18:25:43.584683 22344 net.cpp:425] inception_4a/relu_1x1 <- inception_4a/1x1
I0403 18:25:43.584702 22344 net.cpp:386] inception_4a/relu_1x1 -> inception_4a/1x1 (in-place)
I0403 18:25:43.584883 22344 net.cpp:141] Setting up inception_4a/relu_1x1
I0403 18:25:43.584909 22344 net.cpp:148] Top shape: 24 192 14 14 (903168)
I0403 18:25:43.584925 22344 net.cpp:156] Memory required for data: 861623328
I0403 18:25:43.584952 22344 layer_factory.hpp:77] Creating layer inception_4a/3x3_reduce
I0403 18:25:43.584975 22344 net.cpp:91] Creating Layer inception_4a/3x3_reduce
I0403 18:25:43.584995 22344 net.cpp:425] inception_4a/3x3_reduce <- pool3/3x3_s2_pool3/3x3_s2_0_split_1
I0403 18:25:43.585016 22344 net.cpp:399] inception_4a/3x3_reduce -> inception_4a/3x3_reduce
I0403 18:25:43.586269 22344 net.cpp:141] Setting up inception_4a/3x3_reduce
I0403 18:25:43.586297 22344 net.cpp:148] Top shape: 24 96 14 14 (451584)
I0403 18:25:43.586313 22344 net.cpp:156] Memory required for data: 863429664
I0403 18:25:43.586338 22344 layer_factory.hpp:77] Creating layer inception_4a/relu_3x3_reduce
I0403 18:25:43.586359 22344 net.cpp:91] Creating Layer inception_4a/relu_3x3_reduce
I0403 18:25:43.586376 22344 net.cpp:425] inception_4a/relu_3x3_reduce <- inception_4a/3x3_reduce
I0403 18:25:43.586396 22344 net.cpp:386] inception_4a/relu_3x3_reduce -> inception_4a/3x3_reduce (in-place)
I0403 18:25:43.586575 22344 net.cpp:141] Setting up inception_4a/relu_3x3_reduce
I0403 18:25:43.586599 22344 net.cpp:148] Top shape: 24 96 14 14 (451584)
I0403 18:25:43.586616 22344 net.cpp:156] Memory required for data: 865236000
I0403 18:25:43.586629 22344 layer_factory.hpp:77] Creating layer inception_4a/3x3
I0403 18:25:43.586652 22344 net.cpp:91] Creating Layer inception_4a/3x3
I0403 18:25:43.586670 22344 net.cpp:425] inception_4a/3x3 <- inception_4a/3x3_reduce
I0403 18:25:43.586693 22344 net.cpp:399] inception_4a/3x3 -> inception_4a/3x3
I0403 18:25:43.589355 22344 net.cpp:141] Setting up inception_4a/3x3
I0403 18:25:43.589385 22344 net.cpp:148] Top shape: 24 208 14 14 (978432)
I0403 18:25:43.589401 22344 net.cpp:156] Memory required for data: 869149728
I0403 18:25:43.589419 22344 layer_factory.hpp:77] Creating layer inception_4a/relu_3x3
I0403 18:25:43.589440 22344 net.cpp:91] Creating Layer inception_4a/relu_3x3
I0403 18:25:43.589457 22344 net.cpp:425] inception_4a/relu_3x3 <- inception_4a/3x3
I0403 18:25:43.589475 22344 net.cpp:386] inception_4a/relu_3x3 -> inception_4a/3x3 (in-place)
I0403 18:25:43.589756 22344 net.cpp:141] Setting up inception_4a/relu_3x3
I0403 18:25:43.589783 22344 net.cpp:148] Top shape: 24 208 14 14 (978432)
I0403 18:25:43.589799 22344 net.cpp:156] Memory required for data: 873063456
I0403 18:25:43.589814 22344 layer_factory.hpp:77] Creating layer inception_4a/5x5_reduce
I0403 18:25:43.589838 22344 net.cpp:91] Creating Layer inception_4a/5x5_reduce
I0403 18:25:43.589855 22344 net.cpp:425] inception_4a/5x5_reduce <- pool3/3x3_s2_pool3/3x3_s2_0_split_2
I0403 18:25:43.589877 22344 net.cpp:399] inception_4a/5x5_reduce -> inception_4a/5x5_reduce
I0403 18:25:43.590924 22344 net.cpp:141] Setting up inception_4a/5x5_reduce
I0403 18:25:43.590950 22344 net.cpp:148] Top shape: 24 16 14 14 (75264)
I0403 18:25:43.590966 22344 net.cpp:156] Memory required for data: 873364512
I0403 18:25:43.590984 22344 layer_factory.hpp:77] Creating layer inception_4a/relu_5x5_reduce
I0403 18:25:43.591006 22344 net.cpp:91] Creating Layer inception_4a/relu_5x5_reduce
I0403 18:25:43.591023 22344 net.cpp:425] inception_4a/relu_5x5_reduce <- inception_4a/5x5_reduce
I0403 18:25:43.591042 22344 net.cpp:386] inception_4a/relu_5x5_reduce -> inception_4a/5x5_reduce (in-place)
I0403 18:25:43.591220 22344 net.cpp:141] Setting up inception_4a/relu_5x5_reduce
I0403 18:25:43.591248 22344 net.cpp:148] Top shape: 24 16 14 14 (75264)
I0403 18:25:43.591264 22344 net.cpp:156] Memory required for data: 873665568
I0403 18:25:43.591279 22344 layer_factory.hpp:77] Creating layer inception_4a/5x5
I0403 18:25:43.591301 22344 net.cpp:91] Creating Layer inception_4a/5x5
I0403 18:25:43.591320 22344 net.cpp:425] inception_4a/5x5 <- inception_4a/5x5_reduce
I0403 18:25:43.591338 22344 net.cpp:399] inception_4a/5x5 -> inception_4a/5x5
I0403 18:25:43.592419 22344 net.cpp:141] Setting up inception_4a/5x5
I0403 18:25:43.592448 22344 net.cpp:148] Top shape: 24 48 14 14 (225792)
I0403 18:25:43.592465 22344 net.cpp:156] Memory required for data: 874568736
I0403 18:25:43.592483 22344 layer_factory.hpp:77] Creating layer inception_4a/relu_5x5
I0403 18:25:43.592502 22344 net.cpp:91] Creating Layer inception_4a/relu_5x5
I0403 18:25:43.592519 22344 net.cpp:425] inception_4a/relu_5x5 <- inception_4a/5x5
I0403 18:25:43.592545 22344 net.cpp:386] inception_4a/relu_5x5 -> inception_4a/5x5 (in-place)
I0403 18:25:43.592731 22344 net.cpp:141] Setting up inception_4a/relu_5x5
I0403 18:25:43.592757 22344 net.cpp:148] Top shape: 24 48 14 14 (225792)
I0403 18:25:43.592773 22344 net.cpp:156] Memory required for data: 875471904
I0403 18:25:43.592788 22344 layer_factory.hpp:77] Creating layer inception_4a/pool
I0403 18:25:43.592806 22344 net.cpp:91] Creating Layer inception_4a/pool
I0403 18:25:43.592825 22344 net.cpp:425] inception_4a/pool <- pool3/3x3_s2_pool3/3x3_s2_0_split_3
I0403 18:25:43.592844 22344 net.cpp:399] inception_4a/pool -> inception_4a/pool
I0403 18:25:43.592905 22344 net.cpp:141] Setting up inception_4a/pool
I0403 18:25:43.592928 22344 net.cpp:148] Top shape: 24 480 14 14 (2257920)
I0403 18:25:43.592944 22344 net.cpp:156] Memory required for data: 884503584
I0403 18:25:43.592958 22344 layer_factory.hpp:77] Creating layer inception_4a/pool_proj
I0403 18:25:43.592980 22344 net.cpp:91] Creating Layer inception_4a/pool_proj
I0403 18:25:43.592998 22344 net.cpp:425] inception_4a/pool_proj <- inception_4a/pool
I0403 18:25:43.593020 22344 net.cpp:399] inception_4a/pool_proj -> inception_4a/pool_proj
I0403 18:25:43.594178 22344 net.cpp:141] Setting up inception_4a/pool_proj
I0403 18:25:43.594208 22344 net.cpp:148] Top shape: 24 64 14 14 (301056)
I0403 18:25:43.594238 22344 net.cpp:156] Memory required for data: 885707808
I0403 18:25:43.594257 22344 layer_factory.hpp:77] Creating layer inception_4a/relu_pool_proj
I0403 18:25:43.594286 22344 net.cpp:91] Creating Layer inception_4a/relu_pool_proj
I0403 18:25:43.594303 22344 net.cpp:425] inception_4a/relu_pool_proj <- inception_4a/pool_proj
I0403 18:25:43.594324 22344 net.cpp:386] inception_4a/relu_pool_proj -> inception_4a/pool_proj (in-place)
I0403 18:25:43.594621 22344 net.cpp:141] Setting up inception_4a/relu_pool_proj
I0403 18:25:43.594648 22344 net.cpp:148] Top shape: 24 64 14 14 (301056)
I0403 18:25:43.594663 22344 net.cpp:156] Memory required for data: 886912032
I0403 18:25:43.594679 22344 layer_factory.hpp:77] Creating layer inception_4a/output
I0403 18:25:43.594697 22344 net.cpp:91] Creating Layer inception_4a/output
I0403 18:25:43.594713 22344 net.cpp:425] inception_4a/output <- inception_4a/1x1
I0403 18:25:43.594729 22344 net.cpp:425] inception_4a/output <- inception_4a/3x3
I0403 18:25:43.594745 22344 net.cpp:425] inception_4a/output <- inception_4a/5x5
I0403 18:25:43.594761 22344 net.cpp:425] inception_4a/output <- inception_4a/pool_proj
I0403 18:25:43.594781 22344 net.cpp:399] inception_4a/output -> inception_4a/output
I0403 18:25:43.594826 22344 net.cpp:141] Setting up inception_4a/output
I0403 18:25:43.594851 22344 net.cpp:148] Top shape: 24 512 14 14 (2408448)
I0403 18:25:43.594867 22344 net.cpp:156] Memory required for data: 896545824
I0403 18:25:43.594882 22344 layer_factory.hpp:77] Creating layer inception_4a/output_inception_4a/output_0_split
I0403 18:25:43.594899 22344 net.cpp:91] Creating Layer inception_4a/output_inception_4a/output_0_split
I0403 18:25:43.594914 22344 net.cpp:425] inception_4a/output_inception_4a/output_0_split <- inception_4a/output
I0403 18:25:43.594933 22344 net.cpp:399] inception_4a/output_inception_4a/output_0_split -> inception_4a/output_inception_4a/output_0_split_0
I0403 18:25:43.594969 22344 net.cpp:399] inception_4a/output_inception_4a/output_0_split -> inception_4a/output_inception_4a/output_0_split_1
I0403 18:25:43.594991 22344 net.cpp:399] inception_4a/output_inception_4a/output_0_split -> inception_4a/output_inception_4a/output_0_split_2
I0403 18:25:43.595013 22344 net.cpp:399] inception_4a/output_inception_4a/output_0_split -> inception_4a/output_inception_4a/output_0_split_3
I0403 18:25:43.595033 22344 net.cpp:399] inception_4a/output_inception_4a/output_0_split -> inception_4a/output_inception_4a/output_0_split_4
I0403 18:25:43.595142 22344 net.cpp:141] Setting up inception_4a/output_inception_4a/output_0_split
I0403 18:25:43.595167 22344 net.cpp:148] Top shape: 24 512 14 14 (2408448)
I0403 18:25:43.595185 22344 net.cpp:148] Top shape: 24 512 14 14 (2408448)
I0403 18:25:43.595202 22344 net.cpp:148] Top shape: 24 512 14 14 (2408448)
I0403 18:25:43.595219 22344 net.cpp:148] Top shape: 24 512 14 14 (2408448)
I0403 18:25:43.595249 22344 net.cpp:148] Top shape: 24 512 14 14 (2408448)
I0403 18:25:43.595264 22344 net.cpp:156] Memory required for data: 944714784
I0403 18:25:43.595279 22344 layer_factory.hpp:77] Creating layer loss1/ave_pool
I0403 18:25:43.595315 22344 net.cpp:91] Creating Layer loss1/ave_pool
I0403 18:25:43.595334 22344 net.cpp:425] loss1/ave_pool <- inception_4a/output_inception_4a/output_0_split_0
I0403 18:25:43.595351 22344 net.cpp:399] loss1/ave_pool -> loss1/ave_pool
I0403 18:25:43.595562 22344 net.cpp:141] Setting up loss1/ave_pool
I0403 18:25:43.595589 22344 net.cpp:148] Top shape: 24 512 4 4 (196608)
I0403 18:25:43.595616 22344 net.cpp:156] Memory required for data: 945501216
I0403 18:25:43.595630 22344 layer_factory.hpp:77] Creating layer loss1/conv
I0403 18:25:43.595652 22344 net.cpp:91] Creating Layer loss1/conv
I0403 18:25:43.595670 22344 net.cpp:425] loss1/conv <- loss1/ave_pool
I0403 18:25:43.595691 22344 net.cpp:399] loss1/conv -> loss1/conv
I0403 18:25:43.597059 22344 net.cpp:141] Setting up loss1/conv
I0403 18:25:43.597087 22344 net.cpp:148] Top shape: 24 128 4 4 (49152)
I0403 18:25:43.597116 22344 net.cpp:156] Memory required for data: 945697824
I0403 18:25:43.597136 22344 layer_factory.hpp:77] Creating layer loss1/relu_conv
I0403 18:25:43.597157 22344 net.cpp:91] Creating Layer loss1/relu_conv
I0403 18:25:43.597173 22344 net.cpp:425] loss1/relu_conv <- loss1/conv
I0403 18:25:43.597189 22344 net.cpp:386] loss1/relu_conv -> loss1/conv (in-place)
I0403 18:25:43.597467 22344 net.cpp:141] Setting up loss1/relu_conv
I0403 18:25:43.597493 22344 net.cpp:148] Top shape: 24 128 4 4 (49152)
I0403 18:25:43.597508 22344 net.cpp:156] Memory required for data: 945894432
I0403 18:25:43.597523 22344 layer_factory.hpp:77] Creating layer loss1/fc
I0403 18:25:43.597553 22344 net.cpp:91] Creating Layer loss1/fc
I0403 18:25:43.597571 22344 net.cpp:425] loss1/fc <- loss1/conv
I0403 18:25:43.597589 22344 net.cpp:399] loss1/fc -> loss1/fc
I0403 18:25:43.614903 22344 net.cpp:141] Setting up loss1/fc
I0403 18:25:43.614936 22344 net.cpp:148] Top shape: 24 1024 (24576)
I0403 18:25:43.614953 22344 net.cpp:156] Memory required for data: 945992736
I0403 18:25:43.614970 22344 layer_factory.hpp:77] Creating layer loss1/relu_fc
I0403 18:25:43.614989 22344 net.cpp:91] Creating Layer loss1/relu_fc
I0403 18:25:43.615003 22344 net.cpp:425] loss1/relu_fc <- loss1/fc
I0403 18:25:43.615023 22344 net.cpp:386] loss1/relu_fc -> loss1/fc (in-place)
I0403 18:25:43.615213 22344 net.cpp:141] Setting up loss1/relu_fc
I0403 18:25:43.615237 22344 net.cpp:148] Top shape: 24 1024 (24576)
I0403 18:25:43.615252 22344 net.cpp:156] Memory required for data: 946091040
I0403 18:25:43.615267 22344 layer_factory.hpp:77] Creating layer loss1/drop_fc
I0403 18:25:43.615298 22344 net.cpp:91] Creating Layer loss1/drop_fc
I0403 18:25:43.615315 22344 net.cpp:425] loss1/drop_fc <- loss1/fc
I0403 18:25:43.615335 22344 net.cpp:386] loss1/drop_fc -> loss1/fc (in-place)
I0403 18:25:43.615384 22344 net.cpp:141] Setting up loss1/drop_fc
I0403 18:25:43.615411 22344 net.cpp:148] Top shape: 24 1024 (24576)
I0403 18:25:43.615427 22344 net.cpp:156] Memory required for data: 946189344
I0403 18:25:43.615442 22344 layer_factory.hpp:77] Creating layer loss1/classifier_plantvillage
I0403 18:25:43.615458 22344 net.cpp:91] Creating Layer loss1/classifier_plantvillage
I0403 18:25:43.615474 22344 net.cpp:425] loss1/classifier_plantvillage <- loss1/fc
I0403 18:25:43.615494 22344 net.cpp:399] loss1/classifier_plantvillage -> loss1/classifier_plantvillage
I0403 18:25:43.616400 22344 net.cpp:141] Setting up loss1/classifier_plantvillage
I0403 18:25:43.616427 22344 net.cpp:148] Top shape: 24 38 (912)
I0403 18:25:43.616443 22344 net.cpp:156] Memory required for data: 946192992
I0403 18:25:43.616461 22344 layer_factory.hpp:77] Creating layer loss1/classifier_plantvillage_loss1/classifier_plantvillage_0_split
I0403 18:25:43.616482 22344 net.cpp:91] Creating Layer loss1/classifier_plantvillage_loss1/classifier_plantvillage_0_split
I0403 18:25:43.616498 22344 net.cpp:425] loss1/classifier_plantvillage_loss1/classifier_plantvillage_0_split <- loss1/classifier_plantvillage
I0403 18:25:43.616516 22344 net.cpp:399] loss1/classifier_plantvillage_loss1/classifier_plantvillage_0_split -> loss1/classifier_plantvillage_loss1/classifier_plantvillage_0_split_0
I0403 18:25:43.616539 22344 net.cpp:399] loss1/classifier_plantvillage_loss1/classifier_plantvillage_0_split -> loss1/classifier_plantvillage_loss1/classifier_plantvillage_0_split_1
I0403 18:25:43.616561 22344 net.cpp:399] loss1/classifier_plantvillage_loss1/classifier_plantvillage_0_split -> loss1/classifier_plantvillage_loss1/classifier_plantvillage_0_split_2
I0403 18:25:43.616627 22344 net.cpp:141] Setting up loss1/classifier_plantvillage_loss1/classifier_plantvillage_0_split
I0403 18:25:43.616652 22344 net.cpp:148] Top shape: 24 38 (912)
I0403 18:25:43.616669 22344 net.cpp:148] Top shape: 24 38 (912)
I0403 18:25:43.616685 22344 net.cpp:148] Top shape: 24 38 (912)
I0403 18:25:43.616698 22344 net.cpp:156] Memory required for data: 946203936
I0403 18:25:43.616714 22344 layer_factory.hpp:77] Creating layer inception_4b/1x1
I0403 18:25:43.616734 22344 net.cpp:91] Creating Layer inception_4b/1x1
I0403 18:25:43.616767 22344 net.cpp:425] inception_4b/1x1 <- inception_4a/output_inception_4a/output_0_split_1
I0403 18:25:43.616787 22344 net.cpp:399] inception_4b/1x1 -> inception_4b/1x1
I0403 18:25:43.618398 22344 net.cpp:141] Setting up inception_4b/1x1
I0403 18:25:43.618427 22344 net.cpp:148] Top shape: 24 160 14 14 (752640)
I0403 18:25:43.618443 22344 net.cpp:156] Memory required for data: 949214496
I0403 18:25:43.618463 22344 layer_factory.hpp:77] Creating layer inception_4b/relu_1x1
I0403 18:25:43.618484 22344 net.cpp:91] Creating Layer inception_4b/relu_1x1
I0403 18:25:43.618500 22344 net.cpp:425] inception_4b/relu_1x1 <- inception_4b/1x1
I0403 18:25:43.618517 22344 net.cpp:386] inception_4b/relu_1x1 -> inception_4b/1x1 (in-place)
I0403 18:25:43.618711 22344 net.cpp:141] Setting up inception_4b/relu_1x1
I0403 18:25:43.618738 22344 net.cpp:148] Top shape: 24 160 14 14 (752640)
I0403 18:25:43.618754 22344 net.cpp:156] Memory required for data: 952225056
I0403 18:25:43.618769 22344 layer_factory.hpp:77] Creating layer inception_4b/3x3_reduce
I0403 18:25:43.618791 22344 net.cpp:91] Creating Layer inception_4b/3x3_reduce
I0403 18:25:43.618808 22344 net.cpp:425] inception_4b/3x3_reduce <- inception_4a/output_inception_4a/output_0_split_2
I0403 18:25:43.618827 22344 net.cpp:399] inception_4b/3x3_reduce -> inception_4b/3x3_reduce
I0403 18:25:43.620142 22344 net.cpp:141] Setting up inception_4b/3x3_reduce
I0403 18:25:43.620173 22344 net.cpp:148] Top shape: 24 112 14 14 (526848)
I0403 18:25:43.620190 22344 net.cpp:156] Memory required for data: 954332448
I0403 18:25:43.620208 22344 layer_factory.hpp:77] Creating layer inception_4b/relu_3x3_reduce
I0403 18:25:43.620228 22344 net.cpp:91] Creating Layer inception_4b/relu_3x3_reduce
I0403 18:25:43.620244 22344 net.cpp:425] inception_4b/relu_3x3_reduce <- inception_4b/3x3_reduce
I0403 18:25:43.620265 22344 net.cpp:386] inception_4b/relu_3x3_reduce -> inception_4b/3x3_reduce (in-place)
I0403 18:25:43.620543 22344 net.cpp:141] Setting up inception_4b/relu_3x3_reduce
I0403 18:25:43.620571 22344 net.cpp:148] Top shape: 24 112 14 14 (526848)
I0403 18:25:43.620589 22344 net.cpp:156] Memory required for data: 956439840
I0403 18:25:43.620604 22344 layer_factory.hpp:77] Creating layer inception_4b/3x3
I0403 18:25:43.620626 22344 net.cpp:91] Creating Layer inception_4b/3x3
I0403 18:25:43.620643 22344 net.cpp:425] inception_4b/3x3 <- inception_4b/3x3_reduce
I0403 18:25:43.620662 22344 net.cpp:399] inception_4b/3x3 -> inception_4b/3x3
I0403 18:25:43.623597 22344 net.cpp:141] Setting up inception_4b/3x3
I0403 18:25:43.623626 22344 net.cpp:148] Top shape: 24 224 14 14 (1053696)
I0403 18:25:43.623642 22344 net.cpp:156] Memory required for data: 960654624
I0403 18:25:43.623661 22344 layer_factory.hpp:77] Creating layer inception_4b/relu_3x3
I0403 18:25:43.623682 22344 net.cpp:91] Creating Layer inception_4b/relu_3x3
I0403 18:25:43.623700 22344 net.cpp:425] inception_4b/relu_3x3 <- inception_4b/3x3
I0403 18:25:43.623718 22344 net.cpp:386] inception_4b/relu_3x3 -> inception_4b/3x3 (in-place)
I0403 18:25:43.623895 22344 net.cpp:141] Setting up inception_4b/relu_3x3
I0403 18:25:43.623920 22344 net.cpp:148] Top shape: 24 224 14 14 (1053696)
I0403 18:25:43.623935 22344 net.cpp:156] Memory required for data: 964869408
I0403 18:25:43.623950 22344 layer_factory.hpp:77] Creating layer inception_4b/5x5_reduce
I0403 18:25:43.623971 22344 net.cpp:91] Creating Layer inception_4b/5x5_reduce
I0403 18:25:43.623989 22344 net.cpp:425] inception_4b/5x5_reduce <- inception_4a/output_inception_4a/output_0_split_3
I0403 18:25:43.624013 22344 net.cpp:399] inception_4b/5x5_reduce -> inception_4b/5x5_reduce
I0403 18:25:43.625072 22344 net.cpp:141] Setting up inception_4b/5x5_reduce
I0403 18:25:43.625098 22344 net.cpp:148] Top shape: 24 24 14 14 (112896)
I0403 18:25:43.625113 22344 net.cpp:156] Memory required for data: 965320992
I0403 18:25:43.625131 22344 layer_factory.hpp:77] Creating layer inception_4b/relu_5x5_reduce
I0403 18:25:43.625151 22344 net.cpp:91] Creating Layer inception_4b/relu_5x5_reduce
I0403 18:25:43.625182 22344 net.cpp:425] inception_4b/relu_5x5_reduce <- inception_4b/5x5_reduce
I0403 18:25:43.625201 22344 net.cpp:386] inception_4b/relu_5x5_reduce -> inception_4b/5x5_reduce (in-place)
I0403 18:25:43.625378 22344 net.cpp:141] Setting up inception_4b/relu_5x5_reduce
I0403 18:25:43.625403 22344 net.cpp:148] Top shape: 24 24 14 14 (112896)
I0403 18:25:43.625418 22344 net.cpp:156] Memory required for data: 965772576
I0403 18:25:43.625432 22344 layer_factory.hpp:77] Creating layer inception_4b/5x5
I0403 18:25:43.625453 22344 net.cpp:91] Creating Layer inception_4b/5x5
I0403 18:25:43.625471 22344 net.cpp:425] inception_4b/5x5 <- inception_4b/5x5_reduce
I0403 18:25:43.625493 22344 net.cpp:399] inception_4b/5x5 -> inception_4b/5x5
I0403 18:25:43.626783 22344 net.cpp:141] Setting up inception_4b/5x5
I0403 18:25:43.626811 22344 net.cpp:148] Top shape: 24 64 14 14 (301056)
I0403 18:25:43.626827 22344 net.cpp:156] Memory required for data: 966976800
I0403 18:25:43.626845 22344 layer_factory.hpp:77] Creating layer inception_4b/relu_5x5
I0403 18:25:43.626866 22344 net.cpp:91] Creating Layer inception_4b/relu_5x5
I0403 18:25:43.626884 22344 net.cpp:425] inception_4b/relu_5x5 <- inception_4b/5x5
I0403 18:25:43.626902 22344 net.cpp:386] inception_4b/relu_5x5 -> inception_4b/5x5 (in-place)
I0403 18:25:43.627192 22344 net.cpp:141] Setting up inception_4b/relu_5x5
I0403 18:25:43.627219 22344 net.cpp:148] Top shape: 24 64 14 14 (301056)
I0403 18:25:43.627234 22344 net.cpp:156] Memory required for data: 968181024
I0403 18:25:43.627250 22344 layer_factory.hpp:77] Creating layer inception_4b/pool
I0403 18:25:43.627280 22344 net.cpp:91] Creating Layer inception_4b/pool
I0403 18:25:43.627298 22344 net.cpp:425] inception_4b/pool <- inception_4a/output_inception_4a/output_0_split_4
I0403 18:25:43.627316 22344 net.cpp:399] inception_4b/pool -> inception_4b/pool
I0403 18:25:43.627384 22344 net.cpp:141] Setting up inception_4b/pool
I0403 18:25:43.627408 22344 net.cpp:148] Top shape: 24 512 14 14 (2408448)
I0403 18:25:43.627424 22344 net.cpp:156] Memory required for data: 977814816
I0403 18:25:43.627439 22344 layer_factory.hpp:77] Creating layer inception_4b/pool_proj
I0403 18:25:43.627460 22344 net.cpp:91] Creating Layer inception_4b/pool_proj
I0403 18:25:43.627478 22344 net.cpp:425] inception_4b/pool_proj <- inception_4b/pool
I0403 18:25:43.627499 22344 net.cpp:399] inception_4b/pool_proj -> inception_4b/pool_proj
I0403 18:25:43.628722 22344 net.cpp:141] Setting up inception_4b/pool_proj
I0403 18:25:43.628753 22344 net.cpp:148] Top shape: 24 64 14 14 (301056)
I0403 18:25:43.628770 22344 net.cpp:156] Memory required for data: 979019040
I0403 18:25:43.628788 22344 layer_factory.hpp:77] Creating layer inception_4b/relu_pool_proj
I0403 18:25:43.628808 22344 net.cpp:91] Creating Layer inception_4b/relu_pool_proj
I0403 18:25:43.628824 22344 net.cpp:425] inception_4b/relu_pool_proj <- inception_4b/pool_proj
I0403 18:25:43.628842 22344 net.cpp:386] inception_4b/relu_pool_proj -> inception_4b/pool_proj (in-place)
I0403 18:25:43.629024 22344 net.cpp:141] Setting up inception_4b/relu_pool_proj
I0403 18:25:43.629051 22344 net.cpp:148] Top shape: 24 64 14 14 (301056)
I0403 18:25:43.629067 22344 net.cpp:156] Memory required for data: 980223264
I0403 18:25:43.629082 22344 layer_factory.hpp:77] Creating layer inception_4b/output
I0403 18:25:43.629099 22344 net.cpp:91] Creating Layer inception_4b/output
I0403 18:25:43.629115 22344 net.cpp:425] inception_4b/output <- inception_4b/1x1
I0403 18:25:43.629132 22344 net.cpp:425] inception_4b/output <- inception_4b/3x3
I0403 18:25:43.629148 22344 net.cpp:425] inception_4b/output <- inception_4b/5x5
I0403 18:25:43.629163 22344 net.cpp:425] inception_4b/output <- inception_4b/pool_proj
I0403 18:25:43.629184 22344 net.cpp:399] inception_4b/output -> inception_4b/output
I0403 18:25:43.629230 22344 net.cpp:141] Setting up inception_4b/output
I0403 18:25:43.629252 22344 net.cpp:148] Top shape: 24 512 14 14 (2408448)
I0403 18:25:43.629267 22344 net.cpp:156] Memory required for data: 989857056
I0403 18:25:43.629297 22344 layer_factory.hpp:77] Creating layer inception_4b/output_inception_4b/output_0_split
I0403 18:25:43.629317 22344 net.cpp:91] Creating Layer inception_4b/output_inception_4b/output_0_split
I0403 18:25:43.629334 22344 net.cpp:425] inception_4b/output_inception_4b/output_0_split <- inception_4b/output
I0403 18:25:43.629353 22344 net.cpp:399] inception_4b/output_inception_4b/output_0_split -> inception_4b/output_inception_4b/output_0_split_0
I0403 18:25:43.629374 22344 net.cpp:399] inception_4b/output_inception_4b/output_0_split -> inception_4b/output_inception_4b/output_0_split_1
I0403 18:25:43.629396 22344 net.cpp:399] inception_4b/output_inception_4b/output_0_split -> inception_4b/output_inception_4b/output_0_split_2
I0403 18:25:43.629416 22344 net.cpp:399] inception_4b/output_inception_4b/output_0_split -> inception_4b/output_inception_4b/output_0_split_3
I0403 18:25:43.629499 22344 net.cpp:141] Setting up inception_4b/output_inception_4b/output_0_split
I0403 18:25:43.629523 22344 net.cpp:148] Top shape: 24 512 14 14 (2408448)
I0403 18:25:43.629544 22344 net.cpp:148] Top shape: 24 512 14 14 (2408448)
I0403 18:25:43.629562 22344 net.cpp:148] Top shape: 24 512 14 14 (2408448)
I0403 18:25:43.629578 22344 net.cpp:148] Top shape: 24 512 14 14 (2408448)
I0403 18:25:43.629592 22344 net.cpp:156] Memory required for data: 1028392224
I0403 18:25:43.629606 22344 layer_factory.hpp:77] Creating layer inception_4c/1x1
I0403 18:25:43.629632 22344 net.cpp:91] Creating Layer inception_4c/1x1
I0403 18:25:43.629652 22344 net.cpp:425] inception_4c/1x1 <- inception_4b/output_inception_4b/output_0_split_0
I0403 18:25:43.629673 22344 net.cpp:399] inception_4c/1x1 -> inception_4c/1x1
I0403 18:25:43.631126 22344 net.cpp:141] Setting up inception_4c/1x1
I0403 18:25:43.631157 22344 net.cpp:148] Top shape: 24 128 14 14 (602112)
I0403 18:25:43.631175 22344 net.cpp:156] Memory required for data: 1030800672
I0403 18:25:43.631193 22344 layer_factory.hpp:77] Creating layer inception_4c/relu_1x1
I0403 18:25:43.631212 22344 net.cpp:91] Creating Layer inception_4c/relu_1x1
I0403 18:25:43.631229 22344 net.cpp:425] inception_4c/relu_1x1 <- inception_4c/1x1
I0403 18:25:43.631249 22344 net.cpp:386] inception_4c/relu_1x1 -> inception_4c/1x1 (in-place)
I0403 18:25:43.631430 22344 net.cpp:141] Setting up inception_4c/relu_1x1
I0403 18:25:43.631455 22344 net.cpp:148] Top shape: 24 128 14 14 (602112)
I0403 18:25:43.631470 22344 net.cpp:156] Memory required for data: 1033209120
I0403 18:25:43.631485 22344 layer_factory.hpp:77] Creating layer inception_4c/3x3_reduce
I0403 18:25:43.631507 22344 net.cpp:91] Creating Layer inception_4c/3x3_reduce
I0403 18:25:43.631525 22344 net.cpp:425] inception_4c/3x3_reduce <- inception_4b/output_inception_4b/output_0_split_1
I0403 18:25:43.631552 22344 net.cpp:399] inception_4c/3x3_reduce -> inception_4c/3x3_reduce
I0403 18:25:43.633505 22344 net.cpp:141] Setting up inception_4c/3x3_reduce
I0403 18:25:43.633534 22344 net.cpp:148] Top shape: 24 128 14 14 (602112)
I0403 18:25:43.633556 22344 net.cpp:156] Memory required for data: 1035617568
I0403 18:25:43.633575 22344 layer_factory.hpp:77] Creating layer inception_4c/relu_3x3_reduce
I0403 18:25:43.633596 22344 net.cpp:91] Creating Layer inception_4c/relu_3x3_reduce
I0403 18:25:43.633615 22344 net.cpp:425] inception_4c/relu_3x3_reduce <- inception_4c/3x3_reduce
I0403 18:25:43.633631 22344 net.cpp:386] inception_4c/relu_3x3_reduce -> inception_4c/3x3_reduce (in-place)
I0403 18:25:43.633919 22344 net.cpp:141] Setting up inception_4c/relu_3x3_reduce
I0403 18:25:43.633945 22344 net.cpp:148] Top shape: 24 128 14 14 (602112)
I0403 18:25:43.633962 22344 net.cpp:156] Memory required for data: 1038026016
I0403 18:25:43.633976 22344 layer_factory.hpp:77] Creating layer inception_4c/3x3
I0403 18:25:43.633999 22344 net.cpp:91] Creating Layer inception_4c/3x3
I0403 18:25:43.634018 22344 net.cpp:425] inception_4c/3x3 <- inception_4c/3x3_reduce
I0403 18:25:43.634040 22344 net.cpp:399] inception_4c/3x3 -> inception_4c/3x3
I0403 18:25:43.637687 22344 net.cpp:141] Setting up inception_4c/3x3
I0403 18:25:43.637728 22344 net.cpp:148] Top shape: 24 256 14 14 (1204224)
I0403 18:25:43.637748 22344 net.cpp:156] Memory required for data: 1042842912
I0403 18:25:43.637778 22344 layer_factory.hpp:77] Creating layer inception_4c/relu_3x3
I0403 18:25:43.637801 22344 net.cpp:91] Creating Layer inception_4c/relu_3x3
I0403 18:25:43.637817 22344 net.cpp:425] inception_4c/relu_3x3 <- inception_4c/3x3
I0403 18:25:43.637835 22344 net.cpp:386] inception_4c/relu_3x3 -> inception_4c/3x3 (in-place)
I0403 18:25:43.638021 22344 net.cpp:141] Setting up inception_4c/relu_3x3
I0403 18:25:43.638047 22344 net.cpp:148] Top shape: 24 256 14 14 (1204224)
I0403 18:25:43.638063 22344 net.cpp:156] Memory required for data: 1047659808
I0403 18:25:43.638078 22344 layer_factory.hpp:77] Creating layer inception_4c/5x5_reduce
I0403 18:25:43.638103 22344 net.cpp:91] Creating Layer inception_4c/5x5_reduce
I0403 18:25:43.638120 22344 net.cpp:425] inception_4c/5x5_reduce <- inception_4b/output_inception_4b/output_0_split_2
I0403 18:25:43.638140 22344 net.cpp:399] inception_4c/5x5_reduce -> inception_4c/5x5_reduce
I0403 18:25:43.639230 22344 net.cpp:141] Setting up inception_4c/5x5_reduce
I0403 18:25:43.639258 22344 net.cpp:148] Top shape: 24 24 14 14 (112896)
I0403 18:25:43.639284 22344 net.cpp:156] Memory required for data: 1048111392
I0403 18:25:43.639303 22344 layer_factory.hpp:77] Creating layer inception_4c/relu_5x5_reduce
I0403 18:25:43.639324 22344 net.cpp:91] Creating Layer inception_4c/relu_5x5_reduce
I0403 18:25:43.639341 22344 net.cpp:425] inception_4c/relu_5x5_reduce <- inception_4c/5x5_reduce
I0403 18:25:43.639359 22344 net.cpp:386] inception_4c/relu_5x5_reduce -> inception_4c/5x5_reduce (in-place)
I0403 18:25:43.639549 22344 net.cpp:141] Setting up inception_4c/relu_5x5_reduce
I0403 18:25:43.639581 22344 net.cpp:148] Top shape: 24 24 14 14 (112896)
I0403 18:25:43.639597 22344 net.cpp:156] Memory required for data: 1048562976
I0403 18:25:43.639612 22344 layer_factory.hpp:77] Creating layer inception_4c/5x5
I0403 18:25:43.639636 22344 net.cpp:91] Creating Layer inception_4c/5x5
I0403 18:25:43.639653 22344 net.cpp:425] inception_4c/5x5 <- inception_4c/5x5_reduce
I0403 18:25:43.639674 22344 net.cpp:399] inception_4c/5x5 -> inception_4c/5x5
I0403 18:25:43.640925 22344 net.cpp:141] Setting up inception_4c/5x5
I0403 18:25:43.640954 22344 net.cpp:148] Top shape: 24 64 14 14 (301056)
I0403 18:25:43.640971 22344 net.cpp:156] Memory required for data: 1049767200
I0403 18:25:43.640990 22344 layer_factory.hpp:77] Creating layer inception_4c/relu_5x5
I0403 18:25:43.641010 22344 net.cpp:91] Creating Layer inception_4c/relu_5x5
I0403 18:25:43.641026 22344 net.cpp:425] inception_4c/relu_5x5 <- inception_4c/5x5
I0403 18:25:43.641046 22344 net.cpp:386] inception_4c/relu_5x5 -> inception_4c/5x5 (in-place)
I0403 18:25:43.641336 22344 net.cpp:141] Setting up inception_4c/relu_5x5
I0403 18:25:43.641366 22344 net.cpp:148] Top shape: 24 64 14 14 (301056)
I0403 18:25:43.641382 22344 net.cpp:156] Memory required for data: 1050971424
I0403 18:25:43.641397 22344 layer_factory.hpp:77] Creating layer inception_4c/pool
I0403 18:25:43.641414 22344 net.cpp:91] Creating Layer inception_4c/pool
I0403 18:25:43.641430 22344 net.cpp:425] inception_4c/pool <- inception_4b/output_inception_4b/output_0_split_3
I0403 18:25:43.641451 22344 net.cpp:399] inception_4c/pool -> inception_4c/pool
I0403 18:25:43.641516 22344 net.cpp:141] Setting up inception_4c/pool
I0403 18:25:43.641547 22344 net.cpp:148] Top shape: 24 512 14 14 (2408448)
I0403 18:25:43.641566 22344 net.cpp:156] Memory required for data: 1060605216
I0403 18:25:43.641580 22344 layer_factory.hpp:77] Creating layer inception_4c/pool_proj
I0403 18:25:43.641600 22344 net.cpp:91] Creating Layer inception_4c/pool_proj
I0403 18:25:43.641618 22344 net.cpp:425] inception_4c/pool_proj <- inception_4c/pool
I0403 18:25:43.641639 22344 net.cpp:399] inception_4c/pool_proj -> inception_4c/pool_proj
I0403 18:25:43.642882 22344 net.cpp:141] Setting up inception_4c/pool_proj
I0403 18:25:43.642910 22344 net.cpp:148] Top shape: 24 64 14 14 (301056)
I0403 18:25:43.642943 22344 net.cpp:156] Memory required for data: 1061809440
I0403 18:25:43.642964 22344 layer_factory.hpp:77] Creating layer inception_4c/relu_pool_proj
I0403 18:25:43.642982 22344 net.cpp:91] Creating Layer inception_4c/relu_pool_proj
I0403 18:25:43.642998 22344 net.cpp:425] inception_4c/relu_pool_proj <- inception_4c/pool_proj
I0403 18:25:43.643016 22344 net.cpp:386] inception_4c/relu_pool_proj -> inception_4c/pool_proj (in-place)
I0403 18:25:43.643198 22344 net.cpp:141] Setting up inception_4c/relu_pool_proj
I0403 18:25:43.643226 22344 net.cpp:148] Top shape: 24 64 14 14 (301056)
I0403 18:25:43.643242 22344 net.cpp:156] Memory required for data: 1063013664
I0403 18:25:43.643257 22344 layer_factory.hpp:77] Creating layer inception_4c/output
I0403 18:25:43.643275 22344 net.cpp:91] Creating Layer inception_4c/output
I0403 18:25:43.643290 22344 net.cpp:425] inception_4c/output <- inception_4c/1x1
I0403 18:25:43.643306 22344 net.cpp:425] inception_4c/output <- inception_4c/3x3
I0403 18:25:43.643321 22344 net.cpp:425] inception_4c/output <- inception_4c/5x5
I0403 18:25:43.643337 22344 net.cpp:425] inception_4c/output <- inception_4c/pool_proj
I0403 18:25:43.643357 22344 net.cpp:399] inception_4c/output -> inception_4c/output
I0403 18:25:43.643404 22344 net.cpp:141] Setting up inception_4c/output
I0403 18:25:43.643427 22344 net.cpp:148] Top shape: 24 512 14 14 (2408448)
I0403 18:25:43.643442 22344 net.cpp:156] Memory required for data: 1072647456
I0403 18:25:43.643457 22344 layer_factory.hpp:77] Creating layer inception_4c/output_inception_4c/output_0_split
I0403 18:25:43.643477 22344 net.cpp:91] Creating Layer inception_4c/output_inception_4c/output_0_split
I0403 18:25:43.643494 22344 net.cpp:425] inception_4c/output_inception_4c/output_0_split <- inception_4c/output
I0403 18:25:43.643512 22344 net.cpp:399] inception_4c/output_inception_4c/output_0_split -> inception_4c/output_inception_4c/output_0_split_0
I0403 18:25:43.643532 22344 net.cpp:399] inception_4c/output_inception_4c/output_0_split -> inception_4c/output_inception_4c/output_0_split_1
I0403 18:25:43.643560 22344 net.cpp:399] inception_4c/output_inception_4c/output_0_split -> inception_4c/output_inception_4c/output_0_split_2
I0403 18:25:43.643581 22344 net.cpp:399] inception_4c/output_inception_4c/output_0_split -> inception_4c/output_inception_4c/output_0_split_3
I0403 18:25:43.643668 22344 net.cpp:141] Setting up inception_4c/output_inception_4c/output_0_split
I0403 18:25:43.643692 22344 net.cpp:148] Top shape: 24 512 14 14 (2408448)
I0403 18:25:43.643709 22344 net.cpp:148] Top shape: 24 512 14 14 (2408448)
I0403 18:25:43.643724 22344 net.cpp:148] Top shape: 24 512 14 14 (2408448)
I0403 18:25:43.643740 22344 net.cpp:148] Top shape: 24 512 14 14 (2408448)
I0403 18:25:43.643754 22344 net.cpp:156] Memory required for data: 1111182624
I0403 18:25:43.643769 22344 layer_factory.hpp:77] Creating layer inception_4d/1x1
I0403 18:25:43.643791 22344 net.cpp:91] Creating Layer inception_4d/1x1
I0403 18:25:43.643808 22344 net.cpp:425] inception_4d/1x1 <- inception_4c/output_inception_4c/output_0_split_0
I0403 18:25:43.643831 22344 net.cpp:399] inception_4d/1x1 -> inception_4d/1x1
I0403 18:25:43.645273 22344 net.cpp:141] Setting up inception_4d/1x1
I0403 18:25:43.645301 22344 net.cpp:148] Top shape: 24 112 14 14 (526848)
I0403 18:25:43.645316 22344 net.cpp:156] Memory required for data: 1113290016
I0403 18:25:43.645335 22344 layer_factory.hpp:77] Creating layer inception_4d/relu_1x1
I0403 18:25:43.645355 22344 net.cpp:91] Creating Layer inception_4d/relu_1x1
I0403 18:25:43.645373 22344 net.cpp:425] inception_4d/relu_1x1 <- inception_4d/1x1
I0403 18:25:43.645390 22344 net.cpp:386] inception_4d/relu_1x1 -> inception_4d/1x1 (in-place)
I0403 18:25:43.645576 22344 net.cpp:141] Setting up inception_4d/relu_1x1
I0403 18:25:43.645601 22344 net.cpp:148] Top shape: 24 112 14 14 (526848)
I0403 18:25:43.645615 22344 net.cpp:156] Memory required for data: 1115397408
I0403 18:25:43.645630 22344 layer_factory.hpp:77] Creating layer inception_4d/3x3_reduce
I0403 18:25:43.645666 22344 net.cpp:91] Creating Layer inception_4d/3x3_reduce
I0403 18:25:43.645685 22344 net.cpp:425] inception_4d/3x3_reduce <- inception_4c/output_inception_4c/output_0_split_1
I0403 18:25:43.645704 22344 net.cpp:399] inception_4d/3x3_reduce -> inception_4d/3x3_reduce
I0403 18:25:43.647177 22344 net.cpp:141] Setting up inception_4d/3x3_reduce
I0403 18:25:43.647203 22344 net.cpp:148] Top shape: 24 144 14 14 (677376)
I0403 18:25:43.647219 22344 net.cpp:156] Memory required for data: 1118106912
I0403 18:25:43.647238 22344 layer_factory.hpp:77] Creating layer inception_4d/relu_3x3_reduce
I0403 18:25:43.647255 22344 net.cpp:91] Creating Layer inception_4d/relu_3x3_reduce
I0403 18:25:43.647281 22344 net.cpp:425] inception_4d/relu_3x3_reduce <- inception_4d/3x3_reduce
I0403 18:25:43.647301 22344 net.cpp:386] inception_4d/relu_3x3_reduce -> inception_4d/3x3_reduce (in-place)
I0403 18:25:43.647589 22344 net.cpp:141] Setting up inception_4d/relu_3x3_reduce
I0403 18:25:43.647615 22344 net.cpp:148] Top shape: 24 144 14 14 (677376)
I0403 18:25:43.647630 22344 net.cpp:156] Memory required for data: 1120816416
I0403 18:25:43.647645 22344 layer_factory.hpp:77] Creating layer inception_4d/3x3
I0403 18:25:43.647668 22344 net.cpp:91] Creating Layer inception_4d/3x3
I0403 18:25:43.647686 22344 net.cpp:425] inception_4d/3x3 <- inception_4d/3x3_reduce
I0403 18:25:43.647706 22344 net.cpp:399] inception_4d/3x3 -> inception_4d/3x3
I0403 18:25:43.651868 22344 net.cpp:141] Setting up inception_4d/3x3
I0403 18:25:43.651896 22344 net.cpp:148] Top shape: 24 288 14 14 (1354752)
I0403 18:25:43.651911 22344 net.cpp:156] Memory required for data: 1126235424
I0403 18:25:43.651929 22344 layer_factory.hpp:77] Creating layer inception_4d/relu_3x3
I0403 18:25:43.651950 22344 net.cpp:91] Creating Layer inception_4d/relu_3x3
I0403 18:25:43.651968 22344 net.cpp:425] inception_4d/relu_3x3 <- inception_4d/3x3
I0403 18:25:43.651985 22344 net.cpp:386] inception_4d/relu_3x3 -> inception_4d/3x3 (in-place)
I0403 18:25:43.652163 22344 net.cpp:141] Setting up inception_4d/relu_3x3
I0403 18:25:43.652189 22344 net.cpp:148] Top shape: 24 288 14 14 (1354752)
I0403 18:25:43.652204 22344 net.cpp:156] Memory required for data: 1131654432
I0403 18:25:43.652220 22344 layer_factory.hpp:77] Creating layer inception_4d/5x5_reduce
I0403 18:25:43.652240 22344 net.cpp:91] Creating Layer inception_4d/5x5_reduce
I0403 18:25:43.652258 22344 net.cpp:425] inception_4d/5x5_reduce <- inception_4c/output_inception_4c/output_0_split_2
I0403 18:25:43.652281 22344 net.cpp:399] inception_4d/5x5_reduce -> inception_4d/5x5_reduce
I0403 18:25:43.653411 22344 net.cpp:141] Setting up inception_4d/5x5_reduce
I0403 18:25:43.653439 22344 net.cpp:148] Top shape: 24 32 14 14 (150528)
I0403 18:25:43.653453 22344 net.cpp:156] Memory required for data: 1132256544
I0403 18:25:43.653472 22344 layer_factory.hpp:77] Creating layer inception_4d/relu_5x5_reduce
I0403 18:25:43.653492 22344 net.cpp:91] Creating Layer inception_4d/relu_5x5_reduce
I0403 18:25:43.653509 22344 net.cpp:425] inception_4d/relu_5x5_reduce <- inception_4d/5x5_reduce
I0403 18:25:43.653527 22344 net.cpp:386] inception_4d/relu_5x5_reduce -> inception_4d/5x5_reduce (in-place)
I0403 18:25:43.653717 22344 net.cpp:141] Setting up inception_4d/relu_5x5_reduce
I0403 18:25:43.653741 22344 net.cpp:148] Top shape: 24 32 14 14 (150528)
I0403 18:25:43.653756 22344 net.cpp:156] Memory required for data: 1132858656
I0403 18:25:43.653771 22344 layer_factory.hpp:77] Creating layer inception_4d/5x5
I0403 18:25:43.653795 22344 net.cpp:91] Creating Layer inception_4d/5x5
I0403 18:25:43.653812 22344 net.cpp:425] inception_4d/5x5 <- inception_4d/5x5_reduce
I0403 18:25:43.653831 22344 net.cpp:399] inception_4d/5x5 -> inception_4d/5x5
I0403 18:25:43.655275 22344 net.cpp:141] Setting up inception_4d/5x5
I0403 18:25:43.655304 22344 net.cpp:148] Top shape: 24 64 14 14 (301056)
I0403 18:25:43.655321 22344 net.cpp:156] Memory required for data: 1134062880
I0403 18:25:43.655340 22344 layer_factory.hpp:77] Creating layer inception_4d/relu_5x5
I0403 18:25:43.655374 22344 net.cpp:91] Creating Layer inception_4d/relu_5x5
I0403 18:25:43.655390 22344 net.cpp:425] inception_4d/relu_5x5 <- inception_4d/5x5
I0403 18:25:43.655410 22344 net.cpp:386] inception_4d/relu_5x5 -> inception_4d/5x5 (in-place)
I0403 18:25:43.655714 22344 net.cpp:141] Setting up inception_4d/relu_5x5
I0403 18:25:43.655741 22344 net.cpp:148] Top shape: 24 64 14 14 (301056)
I0403 18:25:43.655757 22344 net.cpp:156] Memory required for data: 1135267104
I0403 18:25:43.655772 22344 layer_factory.hpp:77] Creating layer inception_4d/pool
I0403 18:25:43.655789 22344 net.cpp:91] Creating Layer inception_4d/pool
I0403 18:25:43.655807 22344 net.cpp:425] inception_4d/pool <- inception_4c/output_inception_4c/output_0_split_3
I0403 18:25:43.655827 22344 net.cpp:399] inception_4d/pool -> inception_4d/pool
I0403 18:25:43.655892 22344 net.cpp:141] Setting up inception_4d/pool
I0403 18:25:43.655915 22344 net.cpp:148] Top shape: 24 512 14 14 (2408448)
I0403 18:25:43.655930 22344 net.cpp:156] Memory required for data: 1144900896
I0403 18:25:43.655944 22344 layer_factory.hpp:77] Creating layer inception_4d/pool_proj
I0403 18:25:43.655966 22344 net.cpp:91] Creating Layer inception_4d/pool_proj
I0403 18:25:43.655983 22344 net.cpp:425] inception_4d/pool_proj <- inception_4d/pool
I0403 18:25:43.656004 22344 net.cpp:399] inception_4d/pool_proj -> inception_4d/pool_proj
I0403 18:25:43.657769 22344 net.cpp:141] Setting up inception_4d/pool_proj
I0403 18:25:43.657798 22344 net.cpp:148] Top shape: 24 64 14 14 (301056)
I0403 18:25:43.657814 22344 net.cpp:156] Memory required for data: 1146105120
I0403 18:25:43.657830 22344 layer_factory.hpp:77] Creating layer inception_4d/relu_pool_proj
I0403 18:25:43.657851 22344 net.cpp:91] Creating Layer inception_4d/relu_pool_proj
I0403 18:25:43.657869 22344 net.cpp:425] inception_4d/relu_pool_proj <- inception_4d/pool_proj
I0403 18:25:43.657886 22344 net.cpp:386] inception_4d/relu_pool_proj -> inception_4d/pool_proj (in-place)
I0403 18:25:43.658064 22344 net.cpp:141] Setting up inception_4d/relu_pool_proj
I0403 18:25:43.658092 22344 net.cpp:148] Top shape: 24 64 14 14 (301056)
I0403 18:25:43.658107 22344 net.cpp:156] Memory required for data: 1147309344
I0403 18:25:43.658123 22344 layer_factory.hpp:77] Creating layer inception_4d/output
I0403 18:25:43.658139 22344 net.cpp:91] Creating Layer inception_4d/output
I0403 18:25:43.658154 22344 net.cpp:425] inception_4d/output <- inception_4d/1x1
I0403 18:25:43.658170 22344 net.cpp:425] inception_4d/output <- inception_4d/3x3
I0403 18:25:43.658186 22344 net.cpp:425] inception_4d/output <- inception_4d/5x5
I0403 18:25:43.658202 22344 net.cpp:425] inception_4d/output <- inception_4d/pool_proj
I0403 18:25:43.658218 22344 net.cpp:399] inception_4d/output -> inception_4d/output
I0403 18:25:43.658267 22344 net.cpp:141] Setting up inception_4d/output
I0403 18:25:43.658289 22344 net.cpp:148] Top shape: 24 528 14 14 (2483712)
I0403 18:25:43.658304 22344 net.cpp:156] Memory required for data: 1157244192
I0403 18:25:43.658318 22344 layer_factory.hpp:77] Creating layer inception_4d/output_inception_4d/output_0_split
I0403 18:25:43.658339 22344 net.cpp:91] Creating Layer inception_4d/output_inception_4d/output_0_split
I0403 18:25:43.658354 22344 net.cpp:425] inception_4d/output_inception_4d/output_0_split <- inception_4d/output
I0403 18:25:43.658371 22344 net.cpp:399] inception_4d/output_inception_4d/output_0_split -> inception_4d/output_inception_4d/output_0_split_0
I0403 18:25:43.658391 22344 net.cpp:399] inception_4d/output_inception_4d/output_0_split -> inception_4d/output_inception_4d/output_0_split_1
I0403 18:25:43.658411 22344 net.cpp:399] inception_4d/output_inception_4d/output_0_split -> inception_4d/output_inception_4d/output_0_split_2
I0403 18:25:43.658432 22344 net.cpp:399] inception_4d/output_inception_4d/output_0_split -> inception_4d/output_inception_4d/output_0_split_3
I0403 18:25:43.658454 22344 net.cpp:399] inception_4d/output_inception_4d/output_0_split -> inception_4d/output_inception_4d/output_0_split_4
I0403 18:25:43.658565 22344 net.cpp:141] Setting up inception_4d/output_inception_4d/output_0_split
I0403 18:25:43.658599 22344 net.cpp:148] Top shape: 24 528 14 14 (2483712)
I0403 18:25:43.658617 22344 net.cpp:148] Top shape: 24 528 14 14 (2483712)
I0403 18:25:43.658632 22344 net.cpp:148] Top shape: 24 528 14 14 (2483712)
I0403 18:25:43.658648 22344 net.cpp:148] Top shape: 24 528 14 14 (2483712)
I0403 18:25:43.658663 22344 net.cpp:148] Top shape: 24 528 14 14 (2483712)
I0403 18:25:43.658676 22344 net.cpp:156] Memory required for data: 1206918432
I0403 18:25:43.658690 22344 layer_factory.hpp:77] Creating layer loss2/ave_pool
I0403 18:25:43.658707 22344 net.cpp:91] Creating Layer loss2/ave_pool
I0403 18:25:43.658727 22344 net.cpp:425] loss2/ave_pool <- inception_4d/output_inception_4d/output_0_split_0
I0403 18:25:43.658746 22344 net.cpp:399] loss2/ave_pool -> loss2/ave_pool
I0403 18:25:43.659055 22344 net.cpp:141] Setting up loss2/ave_pool
I0403 18:25:43.659081 22344 net.cpp:148] Top shape: 24 528 4 4 (202752)
I0403 18:25:43.659096 22344 net.cpp:156] Memory required for data: 1207729440
I0403 18:25:43.659111 22344 layer_factory.hpp:77] Creating layer loss2/conv
I0403 18:25:43.659132 22344 net.cpp:91] Creating Layer loss2/conv
I0403 18:25:43.659150 22344 net.cpp:425] loss2/conv <- loss2/ave_pool
I0403 18:25:43.659171 22344 net.cpp:399] loss2/conv -> loss2/conv
I0403 18:25:43.661142 22344 net.cpp:141] Setting up loss2/conv
I0403 18:25:43.661173 22344 net.cpp:148] Top shape: 24 128 4 4 (49152)
I0403 18:25:43.661190 22344 net.cpp:156] Memory required for data: 1207926048
I0403 18:25:43.661209 22344 layer_factory.hpp:77] Creating layer loss2/relu_conv
I0403 18:25:43.661227 22344 net.cpp:91] Creating Layer loss2/relu_conv
I0403 18:25:43.661243 22344 net.cpp:425] loss2/relu_conv <- loss2/conv
I0403 18:25:43.661262 22344 net.cpp:386] loss2/relu_conv -> loss2/conv (in-place)
I0403 18:25:43.661555 22344 net.cpp:141] Setting up loss2/relu_conv
I0403 18:25:43.661583 22344 net.cpp:148] Top shape: 24 128 4 4 (49152)
I0403 18:25:43.661599 22344 net.cpp:156] Memory required for data: 1208122656
I0403 18:25:43.661615 22344 layer_factory.hpp:77] Creating layer loss2/fc
I0403 18:25:43.661633 22344 net.cpp:91] Creating Layer loss2/fc
I0403 18:25:43.661650 22344 net.cpp:425] loss2/fc <- loss2/conv
I0403 18:25:43.661672 22344 net.cpp:399] loss2/fc -> loss2/fc
I0403 18:25:43.679443 22344 net.cpp:141] Setting up loss2/fc
I0403 18:25:43.679481 22344 net.cpp:148] Top shape: 24 1024 (24576)
I0403 18:25:43.679497 22344 net.cpp:156] Memory required for data: 1208220960
I0403 18:25:43.679517 22344 layer_factory.hpp:77] Creating layer loss2/relu_fc
I0403 18:25:43.679534 22344 net.cpp:91] Creating Layer loss2/relu_fc
I0403 18:25:43.679555 22344 net.cpp:425] loss2/relu_fc <- loss2/fc
I0403 18:25:43.679574 22344 net.cpp:386] loss2/relu_fc -> loss2/fc (in-place)
I0403 18:25:43.679867 22344 net.cpp:141] Setting up loss2/relu_fc
I0403 18:25:43.679893 22344 net.cpp:148] Top shape: 24 1024 (24576)
I0403 18:25:43.679908 22344 net.cpp:156] Memory required for data: 1208319264
I0403 18:25:43.679924 22344 layer_factory.hpp:77] Creating layer loss2/drop_fc
I0403 18:25:43.679944 22344 net.cpp:91] Creating Layer loss2/drop_fc
I0403 18:25:43.679960 22344 net.cpp:425] loss2/drop_fc <- loss2/fc
I0403 18:25:43.679978 22344 net.cpp:386] loss2/drop_fc -> loss2/fc (in-place)
I0403 18:25:43.680027 22344 net.cpp:141] Setting up loss2/drop_fc
I0403 18:25:43.680049 22344 net.cpp:148] Top shape: 24 1024 (24576)
I0403 18:25:43.680063 22344 net.cpp:156] Memory required for data: 1208417568
I0403 18:25:43.680078 22344 layer_factory.hpp:77] Creating layer loss2/classifier_plantvillage
I0403 18:25:43.680097 22344 net.cpp:91] Creating Layer loss2/classifier_plantvillage
I0403 18:25:43.680114 22344 net.cpp:425] loss2/classifier_plantvillage <- loss2/fc
I0403 18:25:43.680131 22344 net.cpp:399] loss2/classifier_plantvillage -> loss2/classifier_plantvillage
I0403 18:25:43.680526 22344 net.cpp:141] Setting up loss2/classifier_plantvillage
I0403 18:25:43.680554 22344 net.cpp:148] Top shape: 24 38 (912)
I0403 18:25:43.680585 22344 net.cpp:156] Memory required for data: 1208421216
I0403 18:25:43.680604 22344 layer_factory.hpp:77] Creating layer loss2/classifier_plantvillage_loss2/classifier_plantvillage_0_split
I0403 18:25:43.680624 22344 net.cpp:91] Creating Layer loss2/classifier_plantvillage_loss2/classifier_plantvillage_0_split
I0403 18:25:43.680639 22344 net.cpp:425] loss2/classifier_plantvillage_loss2/classifier_plantvillage_0_split <- loss2/classifier_plantvillage
I0403 18:25:43.680657 22344 net.cpp:399] loss2/classifier_plantvillage_loss2/classifier_plantvillage_0_split -> loss2/classifier_plantvillage_loss2/classifier_plantvillage_0_split_0
I0403 18:25:43.680678 22344 net.cpp:399] loss2/classifier_plantvillage_loss2/classifier_plantvillage_0_split -> loss2/classifier_plantvillage_loss2/classifier_plantvillage_0_split_1
I0403 18:25:43.680698 22344 net.cpp:399] loss2/classifier_plantvillage_loss2/classifier_plantvillage_0_split -> loss2/classifier_plantvillage_loss2/classifier_plantvillage_0_split_2
I0403 18:25:43.680774 22344 net.cpp:141] Setting up loss2/classifier_plantvillage_loss2/classifier_plantvillage_0_split
I0403 18:25:43.680800 22344 net.cpp:148] Top shape: 24 38 (912)
I0403 18:25:43.680816 22344 net.cpp:148] Top shape: 24 38 (912)
I0403 18:25:43.680832 22344 net.cpp:148] Top shape: 24 38 (912)
I0403 18:25:43.680845 22344 net.cpp:156] Memory required for data: 1208432160
I0403 18:25:43.680860 22344 layer_factory.hpp:77] Creating layer inception_4e/1x1
I0403 18:25:43.680882 22344 net.cpp:91] Creating Layer inception_4e/1x1
I0403 18:25:43.680899 22344 net.cpp:425] inception_4e/1x1 <- inception_4d/output_inception_4d/output_0_split_1
I0403 18:25:43.680918 22344 net.cpp:399] inception_4e/1x1 -> inception_4e/1x1
I0403 18:25:43.682706 22344 net.cpp:141] Setting up inception_4e/1x1
I0403 18:25:43.682736 22344 net.cpp:148] Top shape: 24 256 14 14 (1204224)
I0403 18:25:43.682752 22344 net.cpp:156] Memory required for data: 1213249056
I0403 18:25:43.682770 22344 layer_factory.hpp:77] Creating layer inception_4e/relu_1x1
I0403 18:25:43.682788 22344 net.cpp:91] Creating Layer inception_4e/relu_1x1
I0403 18:25:43.682804 22344 net.cpp:425] inception_4e/relu_1x1 <- inception_4e/1x1
I0403 18:25:43.682823 22344 net.cpp:386] inception_4e/relu_1x1 -> inception_4e/1x1 (in-place)
I0403 18:25:43.683111 22344 net.cpp:141] Setting up inception_4e/relu_1x1
I0403 18:25:43.683140 22344 net.cpp:148] Top shape: 24 256 14 14 (1204224)
I0403 18:25:43.683156 22344 net.cpp:156] Memory required for data: 1218065952
I0403 18:25:43.683171 22344 layer_factory.hpp:77] Creating layer inception_4e/3x3_reduce
I0403 18:25:43.683192 22344 net.cpp:91] Creating Layer inception_4e/3x3_reduce
I0403 18:25:43.683210 22344 net.cpp:425] inception_4e/3x3_reduce <- inception_4d/output_inception_4d/output_0_split_2
I0403 18:25:43.683228 22344 net.cpp:399] inception_4e/3x3_reduce -> inception_4e/3x3_reduce
I0403 18:25:43.685381 22344 net.cpp:141] Setting up inception_4e/3x3_reduce
I0403 18:25:43.685411 22344 net.cpp:148] Top shape: 24 160 14 14 (752640)
I0403 18:25:43.685428 22344 net.cpp:156] Memory required for data: 1221076512
I0403 18:25:43.685446 22344 layer_factory.hpp:77] Creating layer inception_4e/relu_3x3_reduce
I0403 18:25:43.685464 22344 net.cpp:91] Creating Layer inception_4e/relu_3x3_reduce
I0403 18:25:43.685480 22344 net.cpp:425] inception_4e/relu_3x3_reduce <- inception_4e/3x3_reduce
I0403 18:25:43.685497 22344 net.cpp:386] inception_4e/relu_3x3_reduce -> inception_4e/3x3_reduce (in-place)
I0403 18:25:43.685694 22344 net.cpp:141] Setting up inception_4e/relu_3x3_reduce
I0403 18:25:43.685719 22344 net.cpp:148] Top shape: 24 160 14 14 (752640)
I0403 18:25:43.685734 22344 net.cpp:156] Memory required for data: 1224087072
I0403 18:25:43.685748 22344 layer_factory.hpp:77] Creating layer inception_4e/3x3
I0403 18:25:43.685771 22344 net.cpp:91] Creating Layer inception_4e/3x3
I0403 18:25:43.685788 22344 net.cpp:425] inception_4e/3x3 <- inception_4e/3x3_reduce
I0403 18:25:43.685811 22344 net.cpp:399] inception_4e/3x3 -> inception_4e/3x3
I0403 18:25:43.690728 22344 net.cpp:141] Setting up inception_4e/3x3
I0403 18:25:43.690768 22344 net.cpp:148] Top shape: 24 320 14 14 (1505280)
I0403 18:25:43.690784 22344 net.cpp:156] Memory required for data: 1230108192
I0403 18:25:43.690804 22344 layer_factory.hpp:77] Creating layer inception_4e/relu_3x3
I0403 18:25:43.690821 22344 net.cpp:91] Creating Layer inception_4e/relu_3x3
I0403 18:25:43.690837 22344 net.cpp:425] inception_4e/relu_3x3 <- inception_4e/3x3
I0403 18:25:43.690856 22344 net.cpp:386] inception_4e/relu_3x3 -> inception_4e/3x3 (in-place)
I0403 18:25:43.691154 22344 net.cpp:141] Setting up inception_4e/relu_3x3
I0403 18:25:43.691179 22344 net.cpp:148] Top shape: 24 320 14 14 (1505280)
I0403 18:25:43.691195 22344 net.cpp:156] Memory required for data: 1236129312
I0403 18:25:43.691210 22344 layer_factory.hpp:77] Creating layer inception_4e/5x5_reduce
I0403 18:25:43.691231 22344 net.cpp:91] Creating Layer inception_4e/5x5_reduce
I0403 18:25:43.691249 22344 net.cpp:425] inception_4e/5x5_reduce <- inception_4d/output_inception_4d/output_0_split_3
I0403 18:25:43.691270 22344 net.cpp:399] inception_4e/5x5_reduce -> inception_4e/5x5_reduce
I0403 18:25:43.692327 22344 net.cpp:141] Setting up inception_4e/5x5_reduce
I0403 18:25:43.692358 22344 net.cpp:148] Top shape: 24 32 14 14 (150528)
I0403 18:25:43.692374 22344 net.cpp:156] Memory required for data: 1236731424
I0403 18:25:43.692392 22344 layer_factory.hpp:77] Creating layer inception_4e/relu_5x5_reduce
I0403 18:25:43.692410 22344 net.cpp:91] Creating Layer inception_4e/relu_5x5_reduce
I0403 18:25:43.692426 22344 net.cpp:425] inception_4e/relu_5x5_reduce <- inception_4e/5x5_reduce
I0403 18:25:43.692445 22344 net.cpp:386] inception_4e/relu_5x5_reduce -> inception_4e/5x5_reduce (in-place)
I0403 18:25:43.692745 22344 net.cpp:141] Setting up inception_4e/relu_5x5_reduce
I0403 18:25:43.692773 22344 net.cpp:148] Top shape: 24 32 14 14 (150528)
I0403 18:25:43.692790 22344 net.cpp:156] Memory required for data: 1237333536
I0403 18:25:43.692805 22344 layer_factory.hpp:77] Creating layer inception_4e/5x5
I0403 18:25:43.692842 22344 net.cpp:91] Creating Layer inception_4e/5x5
I0403 18:25:43.692860 22344 net.cpp:425] inception_4e/5x5 <- inception_4e/5x5_reduce
I0403 18:25:43.692880 22344 net.cpp:399] inception_4e/5x5 -> inception_4e/5x5
I0403 18:25:43.694681 22344 net.cpp:141] Setting up inception_4e/5x5
I0403 18:25:43.694708 22344 net.cpp:148] Top shape: 24 128 14 14 (602112)
I0403 18:25:43.694723 22344 net.cpp:156] Memory required for data: 1239741984
I0403 18:25:43.694741 22344 layer_factory.hpp:77] Creating layer inception_4e/relu_5x5
I0403 18:25:43.694762 22344 net.cpp:91] Creating Layer inception_4e/relu_5x5
I0403 18:25:43.694779 22344 net.cpp:425] inception_4e/relu_5x5 <- inception_4e/5x5
I0403 18:25:43.694797 22344 net.cpp:386] inception_4e/relu_5x5 -> inception_4e/5x5 (in-place)
I0403 18:25:43.694986 22344 net.cpp:141] Setting up inception_4e/relu_5x5
I0403 18:25:43.695013 22344 net.cpp:148] Top shape: 24 128 14 14 (602112)
I0403 18:25:43.695029 22344 net.cpp:156] Memory required for data: 1242150432
I0403 18:25:43.695044 22344 layer_factory.hpp:77] Creating layer inception_4e/pool
I0403 18:25:43.695062 22344 net.cpp:91] Creating Layer inception_4e/pool
I0403 18:25:43.695077 22344 net.cpp:425] inception_4e/pool <- inception_4d/output_inception_4d/output_0_split_4
I0403 18:25:43.695097 22344 net.cpp:399] inception_4e/pool -> inception_4e/pool
I0403 18:25:43.695166 22344 net.cpp:141] Setting up inception_4e/pool
I0403 18:25:43.695190 22344 net.cpp:148] Top shape: 24 528 14 14 (2483712)
I0403 18:25:43.695205 22344 net.cpp:156] Memory required for data: 1252085280
I0403 18:25:43.695219 22344 layer_factory.hpp:77] Creating layer inception_4e/pool_proj
I0403 18:25:43.695241 22344 net.cpp:91] Creating Layer inception_4e/pool_proj
I0403 18:25:43.695261 22344 net.cpp:425] inception_4e/pool_proj <- inception_4e/pool
I0403 18:25:43.695286 22344 net.cpp:399] inception_4e/pool_proj -> inception_4e/pool_proj
I0403 18:25:43.696774 22344 net.cpp:141] Setting up inception_4e/pool_proj
I0403 18:25:43.696812 22344 net.cpp:148] Top shape: 24 128 14 14 (602112)
I0403 18:25:43.696830 22344 net.cpp:156] Memory required for data: 1254493728
I0403 18:25:43.696847 22344 layer_factory.hpp:77] Creating layer inception_4e/relu_pool_proj
I0403 18:25:43.696867 22344 net.cpp:91] Creating Layer inception_4e/relu_pool_proj
I0403 18:25:43.696884 22344 net.cpp:425] inception_4e/relu_pool_proj <- inception_4e/pool_proj
I0403 18:25:43.696902 22344 net.cpp:386] inception_4e/relu_pool_proj -> inception_4e/pool_proj (in-place)
I0403 18:25:43.697190 22344 net.cpp:141] Setting up inception_4e/relu_pool_proj
I0403 18:25:43.697216 22344 net.cpp:148] Top shape: 24 128 14 14 (602112)
I0403 18:25:43.697232 22344 net.cpp:156] Memory required for data: 1256902176
I0403 18:25:43.697247 22344 layer_factory.hpp:77] Creating layer inception_4e/output
I0403 18:25:43.697263 22344 net.cpp:91] Creating Layer inception_4e/output
I0403 18:25:43.697278 22344 net.cpp:425] inception_4e/output <- inception_4e/1x1
I0403 18:25:43.697298 22344 net.cpp:425] inception_4e/output <- inception_4e/3x3
I0403 18:25:43.697314 22344 net.cpp:425] inception_4e/output <- inception_4e/5x5
I0403 18:25:43.697329 22344 net.cpp:425] inception_4e/output <- inception_4e/pool_proj
I0403 18:25:43.697346 22344 net.cpp:399] inception_4e/output -> inception_4e/output
I0403 18:25:43.697396 22344 net.cpp:141] Setting up inception_4e/output
I0403 18:25:43.697418 22344 net.cpp:148] Top shape: 24 832 14 14 (3913728)
I0403 18:25:43.697432 22344 net.cpp:156] Memory required for data: 1272557088
I0403 18:25:43.697448 22344 layer_factory.hpp:77] Creating layer pool4/3x3_s2
I0403 18:25:43.697463 22344 net.cpp:91] Creating Layer pool4/3x3_s2
I0403 18:25:43.697479 22344 net.cpp:425] pool4/3x3_s2 <- inception_4e/output
I0403 18:25:43.697499 22344 net.cpp:399] pool4/3x3_s2 -> pool4/3x3_s2
I0403 18:25:43.697569 22344 net.cpp:141] Setting up pool4/3x3_s2
I0403 18:25:43.697593 22344 net.cpp:148] Top shape: 24 832 7 7 (978432)
I0403 18:25:43.697609 22344 net.cpp:156] Memory required for data: 1276470816
I0403 18:25:43.697623 22344 layer_factory.hpp:77] Creating layer pool4/3x3_s2_pool4/3x3_s2_0_split
I0403 18:25:43.697643 22344 net.cpp:91] Creating Layer pool4/3x3_s2_pool4/3x3_s2_0_split
I0403 18:25:43.697660 22344 net.cpp:425] pool4/3x3_s2_pool4/3x3_s2_0_split <- pool4/3x3_s2
I0403 18:25:43.697677 22344 net.cpp:399] pool4/3x3_s2_pool4/3x3_s2_0_split -> pool4/3x3_s2_pool4/3x3_s2_0_split_0
I0403 18:25:43.697700 22344 net.cpp:399] pool4/3x3_s2_pool4/3x3_s2_0_split -> pool4/3x3_s2_pool4/3x3_s2_0_split_1
I0403 18:25:43.697721 22344 net.cpp:399] pool4/3x3_s2_pool4/3x3_s2_0_split -> pool4/3x3_s2_pool4/3x3_s2_0_split_2
I0403 18:25:43.697739 22344 net.cpp:399] pool4/3x3_s2_pool4/3x3_s2_0_split -> pool4/3x3_s2_pool4/3x3_s2_0_split_3
I0403 18:25:43.697829 22344 net.cpp:141] Setting up pool4/3x3_s2_pool4/3x3_s2_0_split
I0403 18:25:43.697852 22344 net.cpp:148] Top shape: 24 832 7 7 (978432)
I0403 18:25:43.697868 22344 net.cpp:148] Top shape: 24 832 7 7 (978432)
I0403 18:25:43.697883 22344 net.cpp:148] Top shape: 24 832 7 7 (978432)
I0403 18:25:43.697898 22344 net.cpp:148] Top shape: 24 832 7 7 (978432)
I0403 18:25:43.697912 22344 net.cpp:156] Memory required for data: 1292125728
I0403 18:25:43.697926 22344 layer_factory.hpp:77] Creating layer inception_5a/1x1
I0403 18:25:43.697947 22344 net.cpp:91] Creating Layer inception_5a/1x1
I0403 18:25:43.697964 22344 net.cpp:425] inception_5a/1x1 <- pool4/3x3_s2_pool4/3x3_s2_0_split_0
I0403 18:25:43.697985 22344 net.cpp:399] inception_5a/1x1 -> inception_5a/1x1
I0403 18:25:43.700815 22344 net.cpp:141] Setting up inception_5a/1x1
I0403 18:25:43.700846 22344 net.cpp:148] Top shape: 24 256 7 7 (301056)
I0403 18:25:43.700862 22344 net.cpp:156] Memory required for data: 1293329952
I0403 18:25:43.700881 22344 layer_factory.hpp:77] Creating layer inception_5a/relu_1x1
I0403 18:25:43.700898 22344 net.cpp:91] Creating Layer inception_5a/relu_1x1
I0403 18:25:43.700914 22344 net.cpp:425] inception_5a/relu_1x1 <- inception_5a/1x1
I0403 18:25:43.700932 22344 net.cpp:386] inception_5a/relu_1x1 -> inception_5a/1x1 (in-place)
I0403 18:25:43.701236 22344 net.cpp:141] Setting up inception_5a/relu_1x1
I0403 18:25:43.701267 22344 net.cpp:148] Top shape: 24 256 7 7 (301056)
I0403 18:25:43.701283 22344 net.cpp:156] Memory required for data: 1294534176
I0403 18:25:43.701298 22344 layer_factory.hpp:77] Creating layer inception_5a/3x3_reduce
I0403 18:25:43.701318 22344 net.cpp:91] Creating Layer inception_5a/3x3_reduce
I0403 18:25:43.701335 22344 net.cpp:425] inception_5a/3x3_reduce <- pool4/3x3_s2_pool4/3x3_s2_0_split_1
I0403 18:25:43.701356 22344 net.cpp:399] inception_5a/3x3_reduce -> inception_5a/3x3_reduce
I0403 18:25:43.703794 22344 net.cpp:141] Setting up inception_5a/3x3_reduce
I0403 18:25:43.703831 22344 net.cpp:148] Top shape: 24 160 7 7 (188160)
I0403 18:25:43.703846 22344 net.cpp:156] Memory required for data: 1295286816
I0403 18:25:43.703866 22344 layer_factory.hpp:77] Creating layer inception_5a/relu_3x3_reduce
I0403 18:25:43.703892 22344 net.cpp:91] Creating Layer inception_5a/relu_3x3_reduce
I0403 18:25:43.703908 22344 net.cpp:425] inception_5a/relu_3x3_reduce <- inception_5a/3x3_reduce
I0403 18:25:43.703927 22344 net.cpp:386] inception_5a/relu_3x3_reduce -> inception_5a/3x3_reduce (in-place)
I0403 18:25:43.704112 22344 net.cpp:141] Setting up inception_5a/relu_3x3_reduce
I0403 18:25:43.704136 22344 net.cpp:148] Top shape: 24 160 7 7 (188160)
I0403 18:25:43.704150 22344 net.cpp:156] Memory required for data: 1296039456
I0403 18:25:43.704165 22344 layer_factory.hpp:77] Creating layer inception_5a/3x3
I0403 18:25:43.704187 22344 net.cpp:91] Creating Layer inception_5a/3x3
I0403 18:25:43.704205 22344 net.cpp:425] inception_5a/3x3 <- inception_5a/3x3_reduce
I0403 18:25:43.704227 22344 net.cpp:399] inception_5a/3x3 -> inception_5a/3x3
I0403 18:25:43.709182 22344 net.cpp:141] Setting up inception_5a/3x3
I0403 18:25:43.709211 22344 net.cpp:148] Top shape: 24 320 7 7 (376320)
I0403 18:25:43.709228 22344 net.cpp:156] Memory required for data: 1297544736
I0403 18:25:43.709246 22344 layer_factory.hpp:77] Creating layer inception_5a/relu_3x3
I0403 18:25:43.709271 22344 net.cpp:91] Creating Layer inception_5a/relu_3x3
I0403 18:25:43.709290 22344 net.cpp:425] inception_5a/relu_3x3 <- inception_5a/3x3
I0403 18:25:43.709307 22344 net.cpp:386] inception_5a/relu_3x3 -> inception_5a/3x3 (in-place)
I0403 18:25:43.709601 22344 net.cpp:141] Setting up inception_5a/relu_3x3
I0403 18:25:43.709627 22344 net.cpp:148] Top shape: 24 320 7 7 (376320)
I0403 18:25:43.709641 22344 net.cpp:156] Memory required for data: 1299050016
I0403 18:25:43.709656 22344 layer_factory.hpp:77] Creating layer inception_5a/5x5_reduce
I0403 18:25:43.709681 22344 net.cpp:91] Creating Layer inception_5a/5x5_reduce
I0403 18:25:43.709699 22344 net.cpp:425] inception_5a/5x5_reduce <- pool4/3x3_s2_pool4/3x3_s2_0_split_2
I0403 18:25:43.709718 22344 net.cpp:399] inception_5a/5x5_reduce -> inception_5a/5x5_reduce
I0403 18:25:43.710872 22344 net.cpp:141] Setting up inception_5a/5x5_reduce
I0403 18:25:43.710902 22344 net.cpp:148] Top shape: 24 32 7 7 (37632)
I0403 18:25:43.710918 22344 net.cpp:156] Memory required for data: 1299200544
I0403 18:25:43.710937 22344 layer_factory.hpp:77] Creating layer inception_5a/relu_5x5_reduce
I0403 18:25:43.710955 22344 net.cpp:91] Creating Layer inception_5a/relu_5x5_reduce
I0403 18:25:43.710971 22344 net.cpp:425] inception_5a/relu_5x5_reduce <- inception_5a/5x5_reduce
I0403 18:25:43.710988 22344 net.cpp:386] inception_5a/relu_5x5_reduce -> inception_5a/5x5_reduce (in-place)
I0403 18:25:43.711287 22344 net.cpp:141] Setting up inception_5a/relu_5x5_reduce
I0403 18:25:43.711315 22344 net.cpp:148] Top shape: 24 32 7 7 (37632)
I0403 18:25:43.711331 22344 net.cpp:156] Memory required for data: 1299351072
I0403 18:25:43.711346 22344 layer_factory.hpp:77] Creating layer inception_5a/5x5
I0403 18:25:43.711369 22344 net.cpp:91] Creating Layer inception_5a/5x5
I0403 18:25:43.711386 22344 net.cpp:425] inception_5a/5x5 <- inception_5a/5x5_reduce
I0403 18:25:43.711405 22344 net.cpp:399] inception_5a/5x5 -> inception_5a/5x5
I0403 18:25:43.713099 22344 net.cpp:141] Setting up inception_5a/5x5
I0403 18:25:43.713136 22344 net.cpp:148] Top shape: 24 128 7 7 (150528)
I0403 18:25:43.713152 22344 net.cpp:156] Memory required for data: 1299953184
I0403 18:25:43.713171 22344 layer_factory.hpp:77] Creating layer inception_5a/relu_5x5
I0403 18:25:43.713191 22344 net.cpp:91] Creating Layer inception_5a/relu_5x5
I0403 18:25:43.713208 22344 net.cpp:425] inception_5a/relu_5x5 <- inception_5a/5x5
I0403 18:25:43.713225 22344 net.cpp:386] inception_5a/relu_5x5 -> inception_5a/5x5 (in-place)
I0403 18:25:43.713412 22344 net.cpp:141] Setting up inception_5a/relu_5x5
I0403 18:25:43.713438 22344 net.cpp:148] Top shape: 24 128 7 7 (150528)
I0403 18:25:43.713452 22344 net.cpp:156] Memory required for data: 1300555296
I0403 18:25:43.713467 22344 layer_factory.hpp:77] Creating layer inception_5a/pool
I0403 18:25:43.713485 22344 net.cpp:91] Creating Layer inception_5a/pool
I0403 18:25:43.713500 22344 net.cpp:425] inception_5a/pool <- pool4/3x3_s2_pool4/3x3_s2_0_split_3
I0403 18:25:43.713521 22344 net.cpp:399] inception_5a/pool -> inception_5a/pool
I0403 18:25:43.713606 22344 net.cpp:141] Setting up inception_5a/pool
I0403 18:25:43.713630 22344 net.cpp:148] Top shape: 24 832 7 7 (978432)
I0403 18:25:43.713645 22344 net.cpp:156] Memory required for data: 1304469024
I0403 18:25:43.713660 22344 layer_factory.hpp:77] Creating layer inception_5a/pool_proj
I0403 18:25:43.713685 22344 net.cpp:91] Creating Layer inception_5a/pool_proj
I0403 18:25:43.713703 22344 net.cpp:425] inception_5a/pool_proj <- inception_5a/pool
I0403 18:25:43.713722 22344 net.cpp:399] inception_5a/pool_proj -> inception_5a/pool_proj
I0403 18:25:43.715996 22344 net.cpp:141] Setting up inception_5a/pool_proj
I0403 18:25:43.716024 22344 net.cpp:148] Top shape: 24 128 7 7 (150528)
I0403 18:25:43.716040 22344 net.cpp:156] Memory required for data: 1305071136
I0403 18:25:43.716058 22344 layer_factory.hpp:77] Creating layer inception_5a/relu_pool_proj
I0403 18:25:43.716078 22344 net.cpp:91] Creating Layer inception_5a/relu_pool_proj
I0403 18:25:43.716096 22344 net.cpp:425] inception_5a/relu_pool_proj <- inception_5a/pool_proj
I0403 18:25:43.716112 22344 net.cpp:386] inception_5a/relu_pool_proj -> inception_5a/pool_proj (in-place)
I0403 18:25:43.716403 22344 net.cpp:141] Setting up inception_5a/relu_pool_proj
I0403 18:25:43.716429 22344 net.cpp:148] Top shape: 24 128 7 7 (150528)
I0403 18:25:43.716444 22344 net.cpp:156] Memory required for data: 1305673248
I0403 18:25:43.716459 22344 layer_factory.hpp:77] Creating layer inception_5a/output
I0403 18:25:43.716480 22344 net.cpp:91] Creating Layer inception_5a/output
I0403 18:25:43.716496 22344 net.cpp:425] inception_5a/output <- inception_5a/1x1
I0403 18:25:43.716513 22344 net.cpp:425] inception_5a/output <- inception_5a/3x3
I0403 18:25:43.716528 22344 net.cpp:425] inception_5a/output <- inception_5a/5x5
I0403 18:25:43.716549 22344 net.cpp:425] inception_5a/output <- inception_5a/pool_proj
I0403 18:25:43.716567 22344 net.cpp:399] inception_5a/output -> inception_5a/output
I0403 18:25:43.716619 22344 net.cpp:141] Setting up inception_5a/output
I0403 18:25:43.716641 22344 net.cpp:148] Top shape: 24 832 7 7 (978432)
I0403 18:25:43.716656 22344 net.cpp:156] Memory required for data: 1309586976
I0403 18:25:43.716670 22344 layer_factory.hpp:77] Creating layer inception_5a/output_inception_5a/output_0_split
I0403 18:25:43.716687 22344 net.cpp:91] Creating Layer inception_5a/output_inception_5a/output_0_split
I0403 18:25:43.716702 22344 net.cpp:425] inception_5a/output_inception_5a/output_0_split <- inception_5a/output
I0403 18:25:43.716722 22344 net.cpp:399] inception_5a/output_inception_5a/output_0_split -> inception_5a/output_inception_5a/output_0_split_0
I0403 18:25:43.716742 22344 net.cpp:399] inception_5a/output_inception_5a/output_0_split -> inception_5a/output_inception_5a/output_0_split_1
I0403 18:25:43.716761 22344 net.cpp:399] inception_5a/output_inception_5a/output_0_split -> inception_5a/output_inception_5a/output_0_split_2
I0403 18:25:43.716783 22344 net.cpp:399] inception_5a/output_inception_5a/output_0_split -> inception_5a/output_inception_5a/output_0_split_3
I0403 18:25:43.716891 22344 net.cpp:141] Setting up inception_5a/output_inception_5a/output_0_split
I0403 18:25:43.716917 22344 net.cpp:148] Top shape: 24 832 7 7 (978432)
I0403 18:25:43.716934 22344 net.cpp:148] Top shape: 24 832 7 7 (978432)
I0403 18:25:43.716950 22344 net.cpp:148] Top shape: 24 832 7 7 (978432)
I0403 18:25:43.716965 22344 net.cpp:148] Top shape: 24 832 7 7 (978432)
I0403 18:25:43.716979 22344 net.cpp:156] Memory required for data: 1325241888
I0403 18:25:43.716992 22344 layer_factory.hpp:77] Creating layer inception_5b/1x1
I0403 18:25:43.717013 22344 net.cpp:91] Creating Layer inception_5b/1x1
I0403 18:25:43.717031 22344 net.cpp:425] inception_5b/1x1 <- inception_5a/output_inception_5a/output_0_split_0
I0403 18:25:43.717049 22344 net.cpp:399] inception_5b/1x1 -> inception_5b/1x1
I0403 18:25:43.720880 22344 net.cpp:141] Setting up inception_5b/1x1
I0403 18:25:43.720909 22344 net.cpp:148] Top shape: 24 384 7 7 (451584)
I0403 18:25:43.720926 22344 net.cpp:156] Memory required for data: 1327048224
I0403 18:25:43.720944 22344 layer_factory.hpp:77] Creating layer inception_5b/relu_1x1
I0403 18:25:43.720965 22344 net.cpp:91] Creating Layer inception_5b/relu_1x1
I0403 18:25:43.720983 22344 net.cpp:425] inception_5b/relu_1x1 <- inception_5b/1x1
I0403 18:25:43.721000 22344 net.cpp:386] inception_5b/relu_1x1 -> inception_5b/1x1 (in-place)
I0403 18:25:43.721318 22344 net.cpp:141] Setting up inception_5b/relu_1x1
I0403 18:25:43.721344 22344 net.cpp:148] Top shape: 24 384 7 7 (451584)
I0403 18:25:43.721360 22344 net.cpp:156] Memory required for data: 1328854560
I0403 18:25:43.721376 22344 layer_factory.hpp:77] Creating layer inception_5b/3x3_reduce
I0403 18:25:43.721398 22344 net.cpp:91] Creating Layer inception_5b/3x3_reduce
I0403 18:25:43.721416 22344 net.cpp:425] inception_5b/3x3_reduce <- inception_5a/output_inception_5a/output_0_split_1
I0403 18:25:43.721439 22344 net.cpp:399] inception_5b/3x3_reduce -> inception_5b/3x3_reduce
I0403 18:25:43.724139 22344 net.cpp:141] Setting up inception_5b/3x3_reduce
I0403 18:25:43.724169 22344 net.cpp:148] Top shape: 24 192 7 7 (225792)
I0403 18:25:43.724185 22344 net.cpp:156] Memory required for data: 1329757728
I0403 18:25:43.724205 22344 layer_factory.hpp:77] Creating layer inception_5b/relu_3x3_reduce
I0403 18:25:43.724225 22344 net.cpp:91] Creating Layer inception_5b/relu_3x3_reduce
I0403 18:25:43.724243 22344 net.cpp:425] inception_5b/relu_3x3_reduce <- inception_5b/3x3_reduce
I0403 18:25:43.724261 22344 net.cpp:386] inception_5b/relu_3x3_reduce -> inception_5b/3x3_reduce (in-place)
I0403 18:25:43.724453 22344 net.cpp:141] Setting up inception_5b/relu_3x3_reduce
I0403 18:25:43.724478 22344 net.cpp:148] Top shape: 24 192 7 7 (225792)
I0403 18:25:43.724493 22344 net.cpp:156] Memory required for data: 1330660896
I0403 18:25:43.724509 22344 layer_factory.hpp:77] Creating layer inception_5b/3x3
I0403 18:25:43.724531 22344 net.cpp:91] Creating Layer inception_5b/3x3
I0403 18:25:43.724555 22344 net.cpp:425] inception_5b/3x3 <- inception_5b/3x3_reduce
I0403 18:25:43.724575 22344 net.cpp:399] inception_5b/3x3 -> inception_5b/3x3
I0403 18:25:43.731349 22344 net.cpp:141] Setting up inception_5b/3x3
I0403 18:25:43.731379 22344 net.cpp:148] Top shape: 24 384 7 7 (451584)
I0403 18:25:43.731395 22344 net.cpp:156] Memory required for data: 1332467232
I0403 18:25:43.731413 22344 layer_factory.hpp:77] Creating layer inception_5b/relu_3x3
I0403 18:25:43.731434 22344 net.cpp:91] Creating Layer inception_5b/relu_3x3
I0403 18:25:43.731451 22344 net.cpp:425] inception_5b/relu_3x3 <- inception_5b/3x3
I0403 18:25:43.731469 22344 net.cpp:386] inception_5b/relu_3x3 -> inception_5b/3x3 (in-place)
I0403 18:25:43.731776 22344 net.cpp:141] Setting up inception_5b/relu_3x3
I0403 18:25:43.731803 22344 net.cpp:148] Top shape: 24 384 7 7 (451584)
I0403 18:25:43.731819 22344 net.cpp:156] Memory required for data: 1334273568
I0403 18:25:43.731834 22344 layer_factory.hpp:77] Creating layer inception_5b/5x5_reduce
I0403 18:25:43.731873 22344 net.cpp:91] Creating Layer inception_5b/5x5_reduce
I0403 18:25:43.731891 22344 net.cpp:425] inception_5b/5x5_reduce <- inception_5a/output_inception_5a/output_0_split_2
I0403 18:25:43.731914 22344 net.cpp:399] inception_5b/5x5_reduce -> inception_5b/5x5_reduce
I0403 18:25:43.733216 22344 net.cpp:141] Setting up inception_5b/5x5_reduce
I0403 18:25:43.733244 22344 net.cpp:148] Top shape: 24 48 7 7 (56448)
I0403 18:25:43.733260 22344 net.cpp:156] Memory required for data: 1334499360
I0403 18:25:43.733278 22344 layer_factory.hpp:77] Creating layer inception_5b/relu_5x5_reduce
I0403 18:25:43.733299 22344 net.cpp:91] Creating Layer inception_5b/relu_5x5_reduce
I0403 18:25:43.733317 22344 net.cpp:425] inception_5b/relu_5x5_reduce <- inception_5b/5x5_reduce
I0403 18:25:43.733335 22344 net.cpp:386] inception_5b/relu_5x5_reduce -> inception_5b/5x5_reduce (in-place)
I0403 18:25:43.733723 22344 net.cpp:141] Setting up inception_5b/relu_5x5_reduce
I0403 18:25:43.733750 22344 net.cpp:148] Top shape: 24 48 7 7 (56448)
I0403 18:25:43.733767 22344 net.cpp:156] Memory required for data: 1334725152
I0403 18:25:43.733782 22344 layer_factory.hpp:77] Creating layer inception_5b/5x5
I0403 18:25:43.733801 22344 net.cpp:91] Creating Layer inception_5b/5x5
I0403 18:25:43.733819 22344 net.cpp:425] inception_5b/5x5 <- inception_5b/5x5_reduce
I0403 18:25:43.733837 22344 net.cpp:399] inception_5b/5x5 -> inception_5b/5x5
I0403 18:25:43.735973 22344 net.cpp:141] Setting up inception_5b/5x5
I0403 18:25:43.736002 22344 net.cpp:148] Top shape: 24 128 7 7 (150528)
I0403 18:25:43.736019 22344 net.cpp:156] Memory required for data: 1335327264
I0403 18:25:43.736038 22344 layer_factory.hpp:77] Creating layer inception_5b/relu_5x5
I0403 18:25:43.736057 22344 net.cpp:91] Creating Layer inception_5b/relu_5x5
I0403 18:25:43.736073 22344 net.cpp:425] inception_5b/relu_5x5 <- inception_5b/5x5
I0403 18:25:43.736090 22344 net.cpp:386] inception_5b/relu_5x5 -> inception_5b/5x5 (in-place)
I0403 18:25:43.736281 22344 net.cpp:141] Setting up inception_5b/relu_5x5
I0403 18:25:43.736309 22344 net.cpp:148] Top shape: 24 128 7 7 (150528)
I0403 18:25:43.736325 22344 net.cpp:156] Memory required for data: 1335929376
I0403 18:25:43.736340 22344 layer_factory.hpp:77] Creating layer inception_5b/pool
I0403 18:25:43.736357 22344 net.cpp:91] Creating Layer inception_5b/pool
I0403 18:25:43.736373 22344 net.cpp:425] inception_5b/pool <- inception_5a/output_inception_5a/output_0_split_3
I0403 18:25:43.736393 22344 net.cpp:399] inception_5b/pool -> inception_5b/pool
I0403 18:25:43.736464 22344 net.cpp:141] Setting up inception_5b/pool
I0403 18:25:43.736490 22344 net.cpp:148] Top shape: 24 832 7 7 (978432)
I0403 18:25:43.736505 22344 net.cpp:156] Memory required for data: 1339843104
I0403 18:25:43.736521 22344 layer_factory.hpp:77] Creating layer inception_5b/pool_proj
I0403 18:25:43.736542 22344 net.cpp:91] Creating Layer inception_5b/pool_proj
I0403 18:25:43.736560 22344 net.cpp:425] inception_5b/pool_proj <- inception_5b/pool
I0403 18:25:43.736582 22344 net.cpp:399] inception_5b/pool_proj -> inception_5b/pool_proj
I0403 18:25:43.738868 22344 net.cpp:141] Setting up inception_5b/pool_proj
I0403 18:25:43.738896 22344 net.cpp:148] Top shape: 24 128 7 7 (150528)
I0403 18:25:43.738912 22344 net.cpp:156] Memory required for data: 1340445216
I0403 18:25:43.738931 22344 layer_factory.hpp:77] Creating layer inception_5b/relu_pool_proj
I0403 18:25:43.738951 22344 net.cpp:91] Creating Layer inception_5b/relu_pool_proj
I0403 18:25:43.738970 22344 net.cpp:425] inception_5b/relu_pool_proj <- inception_5b/pool_proj
I0403 18:25:43.738987 22344 net.cpp:386] inception_5b/relu_pool_proj -> inception_5b/pool_proj (in-place)
I0403 18:25:43.739279 22344 net.cpp:141] Setting up inception_5b/relu_pool_proj
I0403 18:25:43.739305 22344 net.cpp:148] Top shape: 24 128 7 7 (150528)
I0403 18:25:43.739320 22344 net.cpp:156] Memory required for data: 1341047328
I0403 18:25:43.739336 22344 layer_factory.hpp:77] Creating layer inception_5b/output
I0403 18:25:43.739356 22344 net.cpp:91] Creating Layer inception_5b/output
I0403 18:25:43.739385 22344 net.cpp:425] inception_5b/output <- inception_5b/1x1
I0403 18:25:43.739403 22344 net.cpp:425] inception_5b/output <- inception_5b/3x3
I0403 18:25:43.739419 22344 net.cpp:425] inception_5b/output <- inception_5b/5x5
I0403 18:25:43.739435 22344 net.cpp:425] inception_5b/output <- inception_5b/pool_proj
I0403 18:25:43.739452 22344 net.cpp:399] inception_5b/output -> inception_5b/output
I0403 18:25:43.739506 22344 net.cpp:141] Setting up inception_5b/output
I0403 18:25:43.739531 22344 net.cpp:148] Top shape: 24 1024 7 7 (1204224)
I0403 18:25:43.739549 22344 net.cpp:156] Memory required for data: 1345864224
I0403 18:25:43.739564 22344 layer_factory.hpp:77] Creating layer pool5/7x7_s1
I0403 18:25:43.739583 22344 net.cpp:91] Creating Layer pool5/7x7_s1
I0403 18:25:43.739598 22344 net.cpp:425] pool5/7x7_s1 <- inception_5b/output
I0403 18:25:43.739619 22344 net.cpp:399] pool5/7x7_s1 -> pool5/7x7_s1
I0403 18:25:43.739831 22344 net.cpp:141] Setting up pool5/7x7_s1
I0403 18:25:43.739856 22344 net.cpp:148] Top shape: 24 1024 1 1 (24576)
I0403 18:25:43.739871 22344 net.cpp:156] Memory required for data: 1345962528
I0403 18:25:43.739886 22344 layer_factory.hpp:77] Creating layer pool5/drop_7x7_s1
I0403 18:25:43.739907 22344 net.cpp:91] Creating Layer pool5/drop_7x7_s1
I0403 18:25:43.739923 22344 net.cpp:425] pool5/drop_7x7_s1 <- pool5/7x7_s1
I0403 18:25:43.739940 22344 net.cpp:386] pool5/drop_7x7_s1 -> pool5/7x7_s1 (in-place)
I0403 18:25:43.739991 22344 net.cpp:141] Setting up pool5/drop_7x7_s1
I0403 18:25:43.740013 22344 net.cpp:148] Top shape: 24 1024 1 1 (24576)
I0403 18:25:43.740028 22344 net.cpp:156] Memory required for data: 1346060832
I0403 18:25:43.740042 22344 layer_factory.hpp:77] Creating layer loss3/classifier_plantvillage
I0403 18:25:43.740063 22344 net.cpp:91] Creating Layer loss3/classifier_plantvillage
I0403 18:25:43.740080 22344 net.cpp:425] loss3/classifier_plantvillage <- pool5/7x7_s1
I0403 18:25:43.740098 22344 net.cpp:399] loss3/classifier_plantvillage -> loss3/classifier_plantvillage
I0403 18:25:43.740520 22344 net.cpp:141] Setting up loss3/classifier_plantvillage
I0403 18:25:43.740548 22344 net.cpp:148] Top shape: 24 38 (912)
I0403 18:25:43.740564 22344 net.cpp:156] Memory required for data: 1346064480
I0403 18:25:43.740582 22344 layer_factory.hpp:77] Creating layer loss3/classifier_plantvillage_loss3/classifier_plantvillage_0_split
I0403 18:25:43.740600 22344 net.cpp:91] Creating Layer loss3/classifier_plantvillage_loss3/classifier_plantvillage_0_split
I0403 18:25:43.740617 22344 net.cpp:425] loss3/classifier_plantvillage_loss3/classifier_plantvillage_0_split <- loss3/classifier_plantvillage
I0403 18:25:43.740636 22344 net.cpp:399] loss3/classifier_plantvillage_loss3/classifier_plantvillage_0_split -> loss3/classifier_plantvillage_loss3/classifier_plantvillage_0_split_0
I0403 18:25:43.740658 22344 net.cpp:399] loss3/classifier_plantvillage_loss3/classifier_plantvillage_0_split -> loss3/classifier_plantvillage_loss3/classifier_plantvillage_0_split_1
I0403 18:25:43.740677 22344 net.cpp:399] loss3/classifier_plantvillage_loss3/classifier_plantvillage_0_split -> loss3/classifier_plantvillage_loss3/classifier_plantvillage_0_split_2
I0403 18:25:43.740697 22344 net.cpp:399] loss3/classifier_plantvillage_loss3/classifier_plantvillage_0_split -> loss3/classifier_plantvillage_loss3/classifier_plantvillage_0_split_3
I0403 18:25:43.740798 22344 net.cpp:141] Setting up loss3/classifier_plantvillage_loss3/classifier_plantvillage_0_split
I0403 18:25:43.740821 22344 net.cpp:148] Top shape: 24 38 (912)
I0403 18:25:43.740838 22344 net.cpp:148] Top shape: 24 38 (912)
I0403 18:25:43.740852 22344 net.cpp:148] Top shape: 24 38 (912)
I0403 18:25:43.740867 22344 net.cpp:148] Top shape: 24 38 (912)
I0403 18:25:43.740881 22344 net.cpp:156] Memory required for data: 1346079072
I0403 18:25:43.740895 22344 layer_factory.hpp:77] Creating layer loss1/loss
I0403 18:25:43.740916 22344 net.cpp:91] Creating Layer loss1/loss
I0403 18:25:43.740933 22344 net.cpp:425] loss1/loss <- loss1/classifier_plantvillage_loss1/classifier_plantvillage_0_split_0
I0403 18:25:43.740962 22344 net.cpp:425] loss1/loss <- label_data_1_split_0
…
