…
I0403 18:48:18.850047 23525 net.cpp:313] The NetState phase (1) differed from the phase (0) specified by a rule in layer data
I0403 18:48:18.851179 23525 net.cpp:49] Initializing net from parameters: 
state {
  phase: TEST
}
layer {
  name: "data"
  type: "Data"
  top: "data"
  top: "label"
  include {
    phase: TEST
  }
  transform_param {
    mirror: false
    crop_size: 224
    mean_file: "/home/mohanty/data/final_dataset/lmdb/segmented-40-60/mean.binaryproto"
  }
  data_param {
    source: "/home/mohanty/data/final_dataset/lmdb/segmented-40-60/test_db"
    batch_size: 24
    backend: LMDB
  }
}
layer {
  name: "conv1/7x7_s2"
  type: "Convolution"
  bottom: "data"
  top: "conv1/7x7_s2"
  param {
    lr_mult: 1
    decay_mult: 1
  }
  param {
    lr_mult: 2
    decay_mult: 0
  }
  convolution_param {
    num_output: 64
    pad: 3
    kernel_size: 7
    stride: 2
    weight_filler {
      type: "xavier"
      std: 0.1
    }
    bias_filler {
      type: "constant"
      value: 0.2
    }
  }
}
layer {
  name: "conv1/relu_7x7"
  type: "ReLU"
  bottom: "conv1/7x7_s2"
  top: "conv1/7x7_s2"
}
layer {
  name: "pool1/3x3_s2"
  type: "Pooling"
  bottom: "conv1/7x7_s2"
  top: "pool1/3x3_s2"
  pooling_param {
    pool: MAX
    kernel_size: 3
    stride: 2
  }
}
layer {
  name: "pool1/norm1"
  type: "LRN"
  bottom: "pool1/3x3_s2"
  top: "pool1/norm1"
  lrn_param {
    local_size: 5
    alpha: 0.0001
    beta: 0.75
  }
}
layer {
  name: "conv2/3x3_reduce"
  type: "Convolution"
  bottom: "pool1/norm1"
  top: "conv2/3x3_reduce"
  param {
    lr_mult: 1
    decay_mult: 1
  }
  param {
    lr_mult: 2
    decay_mult: 0
  }
  convolution_param {
    num_output: 64
    kernel_size: 1
    weight_filler {
      type: "xavier"
      std: 0.1
    }
    bias_filler {
      type: "constant"
      value: 0.2
    }
  }
}
layer {
  name: "conv2/relu_3x3_reduce"
  type: "ReLU"
  bottom: "conv2/3x3_reduce"
  top: "conv2/3x3_reduce"
}
layer {
  name: "conv2/3x3"
  type: "Convolution"
  bottom: "conv2/3x3_reduce"
  top: "conv2/3x3"
  param {
    lr_mult: 1
    decay_mult: 1
  }
  param {
    lr_mult: 2
    decay_mult: 0
  }
  convolution_param {
    num_output: 192
    pad: 1
    kernel_size: 3
    weight_filler {
      type: "xavier"
      std: 0.03
    }
    bias_filler {
      type: "constant"
      value: 0.2
    }
  }
}
layer {
  name: "conv2/relu_3x3"
  type: "ReLU"
  bottom: "conv2/3x3"
  top: "conv2/3x3"
}
layer {
  name: "conv2/norm2"
  type: "LRN"
  bottom: "conv2/3x3"
  top: "conv2/norm2"
  lrn_param {
    local_size: 5
    alpha: 0.0001
    beta: 0.75
  }
}
layer {
  name: "pool2/3x3_s2"
  type: "Pooling"
  bottom: "conv2/norm2"
  top: "pool2/3x3_s2"
  pooling_param {
    pool: MAX
    kernel_size: 3
    stride: 2
  }
}
layer {
  name: "inception_3a/1x1"
  type: "Convolution"
  bottom: "pool2/3x3_s2"
  top: "inception_3a/1x1"
  param {
    lr_mult: 1
    decay_mult: 1
  }
  param {
    lr_mult: 2
    decay_mult: 0
  }
  convolution_param {
    num_output: 64
    kernel_size: 1
    weight_filler {
      type: "xavier"
      std: 0.03
    }
    bias_filler {
      type: "constant"
      value: 0.2
    }
  }
}
layer {
  name: "inception_3a/relu_1x1"
  type: "ReLU"
  bottom: "inception_3a/1x1"
  top: "inception_3a/1x1"
}
layer {
  name: "inception_3a/3x3_reduce"
  type: "Convolution"
  bottom: "pool2/3x3_s2"
  top: "inception_3a/3x3_reduce"
  param {
    lr_mult: 1
    decay_mult: 1
  }
  param {
    lr_mult: 2
    decay_mult: 0
  }
  convolution_param {
    num_output: 96
    kernel_size: 1
    weight_filler {
      type: "xavier"
      std: 0.09
    }
    bias_filler {
      type: "constant"
      value: 0.2
    }
  }
}
layer {
  name: "inception_3a/relu_3x3_reduce"
  type: "ReLU"
  bottom: "inception_3a/3x3_reduce"
  top: "inception_3a/3x3_reduce"
}
layer {
  name: "inception_3a/3x3"
  type: "Convolution"
  bottom: "inception_3a/3x3_reduce"
  top: "inception_3a/3x3"
  param {
    lr_mult: 1
    decay_mult: 1
  }
  param {
    lr_mult: 2
    decay_mult: 0
  }
  convolution_param {
    num_output: 128
    pad: 1
    kernel_size: 3
    weight_filler {
      type: "xavier"
      std: 0.03
    }
    bias_filler {
      type: "constant"
      value: 0.2
    }
  }
}
layer {
  name: "inception_3a/relu_3x3"
  type: "ReLU"
  bottom: "inception_3a/3x3"
  top: "inception_3a/3x3"
}
layer {
  name: "inception_3a/5x5_reduce"
  type: "Convolution"
  bottom: "pool2/3x3_s2"
  top: "inception_3a/5x5_reduce"
  param {
    lr_mult: 1
    decay_mult: 1
  }
  param {
    lr_mult: 2
    decay_mult: 0
  }
  convolution_param {
    num_output: 16
    kernel_size: 1
    weight_filler {
      type: "xavier"
      std: 0.2
    }
    bias_filler {
      type: "constant"
      value: 0.2
    }
  }
}
layer {
  name: "inception_3a/relu_5x5_reduce"
  type: "ReLU"
  bottom: "inception_3a/5x5_reduce"
  top: "inception_3a/5x5_reduce"
}
layer {
  name: "inception_3a/5x5"
  type: "Convolution"
  bottom: "inception_3a/5x5_reduce"
  top: "inception_3a/5x5"
  param {
    lr_mult: 1
    decay_mult: 1
  }
  param {
    lr_mult: 2
    decay_mult: 0
  }
  convolution_param {
    num_output: 32
    pad: 2
    kernel_size: 5
    weight_filler {
      type: "xavier"
      std: 0.03
    }
    bias_filler {
      type: "constant"
      value: 0.2
    }
  }
}
layer {
  name: "inception_3a/relu_5x5"
  type: "ReLU"
  bottom: "inception_3a/5x5"
  top: "inception_3a/5x5"
}
layer {
  name: "inception_3a/pool"
  type: "Pooling"
  bottom: "pool2/3x3_s2"
  top: "inception_3a/pool"
  pooling_param {
    pool: MAX
    kernel_size: 3
    stride: 1
    pad: 1
  }
}
layer {
  name: "inception_3a/pool_proj"
  type: "Convolution"
  bottom: "inception_3a/pool"
  top: "inception_3a/pool_proj"
  param {
    lr_mult: 1
    decay_mult: 1
  }
  param {
    lr_mult: 2
    decay_mult: 0
  }
  convolution_param {
    num_output: 32
    kernel_size: 1
    weight_filler {
      type: "xavier"
      std: 0.1
    }
    bias_filler {
      type: "constant"
      value: 0.2
    }
  }
}
layer {
  name: "inception_3a/relu_pool_proj"
  type: "ReLU"
  bottom: "inception_3a/pool_proj"
  top: "inception_3a/pool_proj"
}
layer {
  name: "inception_3a/output"
  type: "Concat"
  bottom: "inception_3a/1x1"
  bottom: "inception_3a/3x3"
  bottom: "inception_3a/5x5"
  bottom: "inception_3a/pool_proj"
  top: "inception_3a/output"
}
layer {
  name: "inception_3b/1x1"
  type: "Convolution"
  bottom: "inception_3a/output"
  top: "inception_3b/1x1"
  param {
    lr_mult: 1
    decay_mult: 1
  }
  param {
    lr_mult: 2
    decay_mult: 0
  }
  convolution_param {
    num_output: 128
    kernel_size: 1
    weight_filler {
      type: "xavier"
      std: 0.03
    }
    bias_filler {
      type: "constant"
      value: 0.2
    }
  }
}
layer {
  name: "inception_3b/relu_1x1"
  type: "ReLU"
  bottom: "inception_3b/1x1"
  top: "inception_3b/1x1"
}
layer {
  name: "inception_3b/3x3_reduce"
  type: "Convolution"
  bottom: "inception_3a/output"
  top: "inception_3b/3x3_reduce"
  param {
    lr_mult: 1
    decay_mult: 1
  }
  param {
    lr_mult: 2
    decay_mult: 0
  }
  convolution_param {
    num_output: 128
    kernel_size: 1
    weight_filler {
      type: "xavier"
      std: 0.09
    }
    bias_filler {
      type: "constant"
      value: 0.2
    }
  }
}
layer {
  name: "inception_3b/relu_3x3_reduce"
  type: "ReLU"
  bottom: "inception_3b/3x3_reduce"
  top: "inception_3b/3x3_reduce"
}
layer {
  name: "inception_3b/3x3"
  type: "Convolution"
  bottom: "inception_3b/3x3_reduce"
  top: "inception_3b/3x3"
  param {
    lr_mult: 1
    decay_mult: 1
  }
  param {
    lr_mult: 2
    decay_mult: 0
  }
  convolution_param {
    num_output: 192
    pad: 1
    kernel_size: 3
    weight_filler {
      type: "xavier"
      std: 0.03
    }
    bias_filler {
      type: "constant"
      value: 0.2
    }
  }
}
layer {
  name: "inception_3b/relu_3x3"
  type: "ReLU"
  bottom: "inception_3b/3x3"
  top: "inception_3b/3x3"
}
layer {
  name: "inception_3b/5x5_reduce"
  type: "Convolution"
  bottom: "inception_3a/output"
  top: "inception_3b/5x5_reduce"
  param {
    lr_mult: 1
    decay_mult: 1
  }
  param {
    lr_mult: 2
    decay_mult: 0
  }
  convolution_param {
    num_output: 32
    kernel_size: 1
    weight_filler {
      type: "xavier"
      std: 0.2
    }
    bias_filler {
      type: "constant"
      value: 0.2
    }
  }
}
layer {
  name: "inception_3b/relu_5x5_reduce"
  type: "ReLU"
  bottom: "inception_3b/5x5_reduce"
  top: "inception_3b/5x5_reduce"
}
layer {
  name: "inception_3b/5x5"
  type: "Convolution"
  bottom: "inception_3b/5x5_reduce"
  top: "inception_3b/5x5"
  param {
    lr_mult: 1
    decay_mult: 1
  }
  param {
    lr_mult: 2
    decay_mult: 0
  }
  convolution_param {
    num_output: 96
    pad: 2
    kernel_size: 5
    weight_filler {
      type: "xavier"
      std: 0.03
    }
    bias_filler {
      type: "constant"
      value: 0.2
    }
  }
}
layer {
  name: "inception_3b/relu_5x5"
  type: "ReLU"
  bottom: "inception_3b/5x5"
  top: "inception_3b/5x5"
}
layer {
  name: "inception_3b/pool"
  type: "Pooling"
  bottom: "inception_3a/output"
  top: "inception_3b/pool"
  pooling_param {
    pool: MAX
    kernel_size: 3
    stride: 1
    pad: 1
  }
}
layer {
  name: "inception_3b/pool_proj"
  type: "Convolution"
  bottom: "inception_3b/pool"
  top: "inception_3b/pool_proj"
  param {
    lr_mult: 1
    decay_mult: 1
  }
  param {
    lr_mult: 2
    decay_mult: 0
  }
  convolution_param {
    num_output: 64
    kernel_size: 1
    weight_filler {
      type: "xavier"
      std: 0.1
    }
    bias_filler {
      type: "constant"
      value: 0.2
    }
  }
}
layer {
  name: "inception_3b/relu_pool_proj"
  type: "ReLU"
  bottom: "inception_3b/pool_proj"
  top: "inception_3b/pool_proj"
}
layer {
  name: "inception_3b/output"
  type: "Concat"
  bottom: "inception_3b/1x1"
  bottom: "inception_3b/3x3"
  bottom: "inception_3b/5x5"
  bottom: "inception_3b/pool_proj"
  top: "inception_3b/output"
}
layer {
  name: "pool3/3x3_s2"
  type: "Pooling"
  bottom: "inception_3b/output"
  top: "pool3/3x3_s2"
  pooling_param {
    pool: MAX
    kernel_size: 3
    stride: 2
  }
}
layer {
  name: "inception_4a/1x1"
  type: "Convolution"
  bottom: "pool3/3x3_s2"
  top: "inception_4a/1x1"
  param {
    lr_mult: 1
    decay_mult: 1
  }
  param {
    lr_mult: 2
    decay_mult: 0
  }
  convolution_param {
    num_output: 192
    kernel_size: 1
    weight_filler {
      type: "xavier"
      std: 0.03
    }
    bias_filler {
      type: "constant"
      value: 0.2
    }
  }
}
layer {
  name: "inception_4a/relu_1x1"
  type: "ReLU"
  bottom: "inception_4a/1x1"
  top: "inception_4a/1x1"
}
layer {
  name: "inception_4a/3x3_reduce"
  type: "Convolution"
  bottom: "pool3/3x3_s2"
  top: "inception_4a/3x3_reduce"
  param {
    lr_mult: 1
    decay_mult: 1
  }
  param {
    lr_mult: 2
    decay_mult: 0
  }
  convolution_param {
    num_output: 96
    kernel_size: 1
    weight_filler {
      type: "xavier"
      std: 0.09
    }
    bias_filler {
      type: "constant"
      value: 0.2
    }
  }
}
layer {
  name: "inception_4a/relu_3x3_reduce"
  type: "ReLU"
  bottom: "inception_4a/3x3_reduce"
  top: "inception_4a/3x3_reduce"
}
layer {
  name: "inception_4a/3x3"
  type: "Convolution"
  bottom: "inception_4a/3x3_reduce"
  top: "inception_4a/3x3"
  param {
    lr_mult: 1
    decay_mult: 1
  }
  param {
    lr_mult: 2
    decay_mult: 0
  }
  convolution_param {
    num_output: 208
    pad: 1
    kernel_size: 3
    weight_filler {
      type: "xavier"
      std: 0.03
    }
    bias_filler {
      type: "constant"
      value: 0.2
    }
  }
}
layer {
  name: "inception_4a/relu_3x3"
  type: "ReLU"
  bottom: "inception_4a/3x3"
  top: "inception_4a/3x3"
}
layer {
  name: "inception_4a/5x5_reduce"
  type: "Convolution"
  bottom: "pool3/3x3_s2"
  top: "inception_4a/5x5_reduce"
  param {
    lr_mult: 1
    decay_mult: 1
  }
  param {
    lr_mult: 2
    decay_mult: 0
  }
  convolution_param {
    num_output: 16
    kernel_size: 1
    weight_filler {
      type: "xavier"
      std: 0.2
    }
    bias_filler {
      type: "constant"
      value: 0.2
    }
  }
}
layer {
  name: "inception_4a/relu_5x5_reduce"
  type: "ReLU"
  bottom: "inception_4a/5x5_reduce"
  top: "inception_4a/5x5_reduce"
}
layer {
  name: "inception_4a/5x5"
  type: "Convolution"
  bottom: "inception_4a/5x5_reduce"
  top: "inception_4a/5x5"
  param {
    lr_mult: 1
    decay_mult: 1
  }
  param {
    lr_mult: 2
    decay_mult: 0
  }
  convolution_param {
    num_output: 48
    pad: 2
    kernel_size: 5
    weight_filler {
      type: "xavier"
      std: 0.03
    }
    bias_filler {
      type: "constant"
      value: 0.2
    }
  }
}
layer {
  name: "inception_4a/relu_5x5"
  type: "ReLU"
  bottom: "inception_4a/5x5"
  top: "inception_4a/5x5"
}
layer {
  name: "inception_4a/pool"
  type: "Pooling"
  bottom: "pool3/3x3_s2"
  top: "inception_4a/pool"
  pooling_param {
    pool: MAX
    kernel_size: 3
    stride: 1
    pad: 1
  }
}
layer {
  name: "inception_4a/pool_proj"
  type: "Convolution"
  bottom: "inception_4a/pool"
  top: "inception_4a/pool_proj"
  param {
    lr_mult: 1
    decay_mult: 1
  }
  param {
    lr_mult: 2
    decay_mult: 0
  }
  convolution_param {
    num_output: 64
    kernel_size: 1
    weight_filler {
      type: "xavier"
      std: 0.1
    }
    bias_filler {
      type: "constant"
      value: 0.2
    }
  }
}
layer {
  name: "inception_4a/relu_pool_proj"
  type: "ReLU"
  bottom: "inception_4a/pool_proj"
  top: "inception_4a/pool_proj"
}
layer {
  name: "inception_4a/output"
  type: "Concat"
  bottom: "inception_4a/1x1"
  bottom: "inception_4a/3x3"
  bottom: "inception_4a/5x5"
  bottom: "inception_4a/pool_proj"
  top: "inception_4a/output"
}
layer {
  name: "loss1/ave_pool"
  type: "Pooling"
  bottom: "inception_4a/output"
  top: "loss1/ave_pool"
  pooling_param {
    pool: AVE
    kernel_size: 5
    stride: 3
  }
}
layer {
  name: "loss1/conv"
  type: "Convolution"
  bottom: "loss1/ave_pool"
  top: "loss1/conv"
  param {
    lr_mult: 1
    decay_mult: 1
  }
  param {
    lr_mult: 2
    decay_mult: 0
  }
  convolution_param {
    num_output: 128
    kernel_size: 1
    weight_filler {
      type: "xavier"
      std: 0.08
    }
    bias_filler {
      type: "constant"
      value: 0.2
    }
  }
}
layer {
  name: "loss1/relu_conv"
  type: "ReLU"
  bottom: "loss1/conv"
  top: "loss1/conv"
}
layer {
  name: "loss1/fc"
  type: "InnerProduct"
  bottom: "loss1/conv"
  top: "loss1/fc"
  param {
    lr_mult: 1
    decay_mult: 1
  }
  param {
    lr_mult: 2
    decay_mult: 0
  }
  inner_product_param {
    num_output: 1024
    weight_filler {
      type: "xavier"
      std: 0.02
    }
    bias_filler {
      type: "constant"
      value: 0.2
    }
  }
}
layer {
  name: "loss1/relu_fc"
  type: "ReLU"
  bottom: "loss1/fc"
  top: "loss1/fc"
}
layer {
  name: "loss1/drop_fc"
  type: "Dropout"
  bottom: "loss1/fc"
  top: "loss1/fc"
  dropout_param {
    dropout_ratio: 0.7
  }
}
layer {
  name: "loss1/classifier_plantvillage"
  type: "InnerProduct"
  bottom: "loss1/fc"
  top: "loss1/classifier_plantvillage"
  param {
    lr_mult: 1
    decay_mult: 1
  }
  param {
    lr_mult: 2
    decay_mult: 0
  }
  inner_product_param {
    num_output: 38
    weight_filler {
      type: "xavier"
      std: 0.0009765625
    }
    bias_filler {
      type: "constant"
      value: 0
    }
  }
}
layer {
  name: "inception_4b/1x1"
  type: "Convolution"
  bottom: "inception_4a/output"
  top: "inception_4b/1x1"
  param {
    lr_mult: 1
    decay_mult: 1
  }
  param {
    lr_mult: 2
    decay_mult: 0
  }
  convolution_param {
    num_output: 160
    kernel_size: 1
    weight_filler {
      type: "xavier"
      std: 0.03
    }
    bias_filler {
      type: "constant"
      value: 0.2
    }
  }
}
layer {
  name: "inception_4b/relu_1x1"
  type: "ReLU"
  bottom: "inception_4b/1x1"
  top: "inception_4b/1x1"
}
layer {
  name: "inception_4b/3x3_reduce"
  type: "Convolution"
  bottom: "inception_4a/output"
  top: "inception_4b/3x3_reduce"
  param {
    lr_mult: 1
    decay_mult: 1
  }
  param {
    lr_mult: 2
    decay_mult: 0
  }
  convolution_param {
    num_output: 112
    kernel_size: 1
    weight_filler {
      type: "xavier"
      std: 0.09
    }
    bias_filler {
      type: "constant"
      value: 0.2
    }
  }
}
layer {
  name: "inception_4b/relu_3x3_reduce"
  type: "ReLU"
  bottom: "inception_4b/3x3_reduce"
  top: "inception_4b/3x3_reduce"
}
layer {
  name: "inception_4b/3x3"
  type: "Convolution"
  bottom: "inception_4b/3x3_reduce"
  top: "inception_4b/3x3"
  param {
    lr_mult: 1
    decay_mult: 1
  }
  param {
    lr_mult: 2
    decay_mult: 0
  }
  convolution_param {
    num_output: 224
    pad: 1
    kernel_size: 3
    weight_filler {
      type: "xavier"
      std: 0.03
    }
    bias_filler {
      type: "constant"
      value: 0.2
    }
  }
}
layer {
  name: "inception_4b/relu_3x3"
  type: "ReLU"
  bottom: "inception_4b/3x3"
  top: "inception_4b/3x3"
}
layer {
  name: "inception_4b/5x5_reduce"
  type: "Convolution"
  bottom: "inception_4a/output"
  top: "inception_4b/5x5_reduce"
  param {
    lr_mult: 1
    decay_mult: 1
  }
  param {
    lr_mult: 2
    decay_mult: 0
  }
  convolution_param {
    num_output: 24
    kernel_size: 1
    weight_filler {
      type: "xavier"
      std: 0.2
    }
    bias_filler {
      type: "constant"
      value: 0.2
    }
  }
}
layer {
  name: "inception_4b/relu_5x5_reduce"
  type: "ReLU"
  bottom: "inception_4b/5x5_reduce"
  top: "inception_4b/5x5_reduce"
}
layer {
  name: "inception_4b/5x5"
  type: "Convolution"
  bottom: "inception_4b/5x5_reduce"
  top: "inception_4b/5x5"
  param {
    lr_mult: 1
    decay_mult: 1
  }
  param {
    lr_mult: 2
    decay_mult: 0
  }
  convolution_param {
    num_output: 64
    pad: 2
    kernel_size: 5
    weight_filler {
      type: "xavier"
      std: 0.03
    }
    bias_filler {
      type: "constant"
      value: 0.2
    }
  }
}
layer {
  name: "inception_4b/relu_5x5"
  type: "ReLU"
  bottom: "inception_4b/5x5"
  top: "inception_4b/5x5"
}
layer {
  name: "inception_4b/pool"
  type: "Pooling"
  bottom: "inception_4a/output"
  top: "inception_4b/pool"
  pooling_param {
    pool: MAX
    kernel_size: 3
    stride: 1
    pad: 1
  }
}
layer {
  name: "inception_4b/pool_proj"
  type: "Convolution"
  bottom: "inception_4b/pool"
  top: "inception_4b/pool_proj"
  param {
    lr_mult: 1
    decay_mult: 1
  }
  param {
    lr_mult: 2
    decay_mult: 0
  }
  convolution_param {
    num_output: 64
    kernel_size: 1
    weight_filler {
      type: "xavier"
      std: 0.1
    }
    bias_filler {
      type: "constant"
      value: 0.2
    }
  }
}
layer {
  name: "inception_4b/relu_pool_proj"
  type: "ReLU"
  bottom: "inception_4b/pool_proj"
  top: "inception_4b/pool_proj"
}
layer {
  name: "inception_4b/output"
  type: "Concat"
  bottom: "inception_4b/1x1"
  bottom: "inception_4b/3x3"
  bottom: "inception_4b/5x5"
  bottom: "inception_4b/pool_proj"
  top: "inception_4b/output"
}
layer {
  name: "inception_4c/1x1"
  type: "Convolution"
  bottom: "inception_4b/output"
  top: "inception_4c/1x1"
  param {
    lr_mult: 1
    decay_mult: 1
  }
  param {
    lr_mult: 2
    decay_mult: 0
  }
  convolution_param {
    num_output: 128
    kernel_size: 1
    weight_filler {
      type: "xavier"
      std: 0.03
    }
    bias_filler {
      type: "constant"
      value: 0.2
    }
  }
}
layer {
  name: "inception_4c/relu_1x1"
  type: "ReLU"
  bottom: "inception_4c/1x1"
  top: "inception_4c/1x1"
}
layer {
  name: "inception_4c/3x3_reduce"
  type: "Convolution"
  bottom: "inception_4b/output"
  top: "inception_4c/3x3_reduce"
  param {
    lr_mult: 1
    decay_mult: 1
  }
  param {
    lr_mult: 2
    decay_mult: 0
  }
  convolution_param {
    num_output: 128
    kernel_size: 1
    weight_filler {
      type: "xavier"
      std: 0.09
    }
    bias_filler {
      type: "constant"
      value: 0.2
    }
  }
}
layer {
  name: "inception_4c/relu_3x3_reduce"
  type: "ReLU"
  bottom: "inception_4c/3x3_reduce"
  top: "inception_4c/3x3_reduce"
}
layer {
  name: "inception_4c/3x3"
  type: "Convolution"
  bottom: "inception_4c/3x3_reduce"
  top: "inception_4c/3x3"
  param {
    lr_mult: 1
    decay_mult: 1
  }
  param {
    lr_mult: 2
    decay_mult: 0
  }
  convolution_param {
    num_output: 256
    pad: 1
    kernel_size: 3
    weight_filler {
      type: "xavier"
      std: 0.03
    }
    bias_filler {
      type: "constant"
      value: 0.2
    }
  }
}
layer {
  name: "inception_4c/relu_3x3"
  type: "ReLU"
  bottom: "inception_4c/3x3"
  top: "inception_4c/3x3"
}
layer {
  name: "inception_4c/5x5_reduce"
  type: "Convolution"
  bottom: "inception_4b/output"
  top: "inception_4c/5x5_reduce"
  param {
    lr_mult: 1
    decay_mult: 1
  }
  param {
    lr_mult: 2
    decay_mult: 0
  }
  convolution_param {
    num_output: 24
    kernel_size: 1
    weight_filler {
      type: "xavier"
      std: 0.2
    }
    bias_filler {
      type: "constant"
      value: 0.2
    }
  }
}
layer {
  name: "inception_4c/relu_5x5_reduce"
  type: "ReLU"
  bottom: "inception_4c/5x5_reduce"
  top: "inception_4c/5x5_reduce"
}
layer {
  name: "inception_4c/5x5"
  type: "Convolution"
  bottom: "inception_4c/5x5_reduce"
  top: "inception_4c/5x5"
  param {
    lr_mult: 1
    decay_mult: 1
  }
  param {
    lr_mult: 2
    decay_mult: 0
  }
  convolution_param {
    num_output: 64
    pad: 2
    kernel_size: 5
    weight_filler {
      type: "xavier"
      std: 0.03
    }
    bias_filler {
      type: "constant"
      value: 0.2
    }
  }
}
layer {
  name: "inception_4c/relu_5x5"
  type: "ReLU"
  bottom: "inception_4c/5x5"
  top: "inception_4c/5x5"
}
layer {
  name: "inception_4c/pool"
  type: "Pooling"
  bottom: "inception_4b/output"
  top: "inception_4c/pool"
  pooling_param {
    pool: MAX
    kernel_size: 3
    stride: 1
    pad: 1
  }
}
layer {
  name: "inception_4c/pool_proj"
  type: "Convolution"
  bottom: "inception_4c/pool"
  top: "inception_4c/pool_proj"
  param {
    lr_mult: 1
    decay_mult: 1
  }
  param {
    lr_mult: 2
    decay_mult: 0
  }
  convolution_param {
    num_output: 64
    kernel_size: 1
    weight_filler {
      type: "xavier"
      std: 0.1
    }
    bias_filler {
      type: "constant"
      value: 0.2
    }
  }
}
layer {
  name: "inception_4c/relu_pool_proj"
  type: "ReLU"
  bottom: "inception_4c/pool_proj"
  top: "inception_4c/pool_proj"
}
layer {
  name: "inception_4c/output"
  type: "Concat"
  bottom: "inception_4c/1x1"
  bottom: "inception_4c/3x3"
  bottom: "inception_4c/5x5"
  bottom: "inception_4c/pool_proj"
  top: "inception_4c/output"
}
layer {
  name: "inception_4d/1x1"
  type: "Convolution"
  bottom: "inception_4c/output"
  top: "inception_4d/1x1"
  param {
    lr_mult: 1
    decay_mult: 1
  }
  param {
    lr_mult: 2
    decay_mult: 0
  }
  convolution_param {
    num_output: 112
    kernel_size: 1
    weight_filler {
      type: "xavier"
      std: 0.03
    }
    bias_filler {
      type: "constant"
      value: 0.2
    }
  }
}
layer {
  name: "inception_4d/relu_1x1"
  type: "ReLU"
  bottom: "inception_4d/1x1"
  top: "inception_4d/1x1"
}
layer {
  name: "inception_4d/3x3_reduce"
  type: "Convolution"
  bottom: "inception_4c/output"
  top: "inception_4d/3x3_reduce"
  param {
    lr_mult: 1
    decay_mult: 1
  }
  param {
    lr_mult: 2
    decay_mult: 0
  }
  convolution_param {
    num_output: 144
    kernel_size: 1
    weight_filler {
      type: "xavier"
      std: 0.09
    }
    bias_filler {
      type: "constant"
      value: 0.2
    }
  }
}
layer {
  name: "inception_4d/relu_3x3_reduce"
  type: "ReLU"
  bottom: "inception_4d/3x3_reduce"
  top: "inception_4d/3x3_reduce"
}
layer {
  name: "inception_4d/3x3"
  type: "Convolution"
  bottom: "inception_4d/3x3_reduce"
  top: "inception_4d/3x3"
  param {
    lr_mult: 1
    decay_mult: 1
  }
  param {
    lr_mult: 2
    decay_mult: 0
  }
  convolution_param {
    num_output: 288
    pad: 1
    kernel_size: 3
    weight_filler {
      type: "xavier"
      std: 0.03
    }
    bias_filler {
      type: "constant"
      value: 0.2
    }
  }
}
layer {
  name: "inception_4d/relu_3x3"
  type: "ReLU"
  bottom: "inception_4d/3x3"
  top: "inception_4d/3x3"
}
layer {
  name: "inception_4d/5x5_reduce"
  type: "Convolution"
  bottom: "inception_4c/output"
  top: "inception_4d/5x5_reduce"
  param {
    lr_mult: 1
    decay_mult: 1
  }
  param {
    lr_mult: 2
    decay_mult: 0
  }
  convolution_param {
    num_output: 32
    kernel_size: 1
    weight_filler {
      type: "xavier"
      std: 0.2
    }
    bias_filler {
      type: "constant"
      value: 0.2
    }
  }
}
layer {
  name: "inception_4d/relu_5x5_reduce"
  type: "ReLU"
  bottom: "inception_4d/5x5_reduce"
  top: "inception_4d/5x5_reduce"
}
layer {
  name: "inception_4d/5x5"
  type: "Convolution"
  bottom: "inception_4d/5x5_reduce"
  top: "inception_4d/5x5"
  param {
    lr_mult: 1
    decay_mult: 1
  }
  param {
    lr_mult: 2
    decay_mult: 0
  }
  convolution_param {
    num_output: 64
    pad: 2
    kernel_size: 5
    weight_filler {
      type: "xavier"
      std: 0.03
    }
    bias_filler {
      type: "constant"
      value: 0.2
    }
  }
}
layer {
  name: "inception_4d/relu_5x5"
  type: "ReLU"
  bottom: "inception_4d/5x5"
  top: "inception_4d/5x5"
}
layer {
  name: "inception_4d/pool"
  type: "Pooling"
  bottom: "inception_4c/output"
  top: "inception_4d/pool"
  pooling_param {
    pool: MAX
    kernel_size: 3
    stride: 1
    pad: 1
  }
}
layer {
  name: "inception_4d/pool_proj"
  type: "Convolution"
  bottom: "inception_4d/pool"
  top: "inception_4d/pool_proj"
  param {
    lr_mult: 1
    decay_mult: 1
  }
  param {
    lr_mult: 2
    decay_mult: 0
  }
  convolution_param {
    num_output: 64
    kernel_size: 1
    weight_filler {
      type: "xavier"
      std: 0.1
    }
    bias_filler {
      type: "constant"
      value: 0.2
    }
  }
}
layer {
  name: "inception_4d/relu_pool_proj"
  type: "ReLU"
  bottom: "inception_4d/pool_proj"
  top: "inception_4d/pool_proj"
}
layer {
  name: "inception_4d/output"
  type: "Concat"
  bottom: "inception_4d/1x1"
  bottom: "inception_4d/3x3"
  bottom: "inception_4d/5x5"
  bottom: "inception_4d/pool_proj"
  top: "inception_4d/output"
}
layer {
  name: "loss2/ave_pool"
  type: "Pooling"
  bottom: "inception_4d/output"
  top: "loss2/ave_pool"
  pooling_param {
    pool: AVE
    kernel_size: 5
    stride: 3
  }
}
layer {
  name: "loss2/conv"
  type: "Convolution"
  bottom: "loss2/ave_pool"
  top: "loss2/conv"
  param {
    lr_mult: 1
    decay_mult: 1
  }
  param {
    lr_mult: 2
    decay_mult: 0
  }
  convolution_param {
    num_output: 128
    kernel_size: 1
    weight_filler {
      type: "xavier"
      std: 0.08
    }
    bias_filler {
      type: "constant"
      value: 0.2
    }
  }
}
layer {
  name: "loss2/relu_conv"
  type: "ReLU"
  bottom: "loss2/conv"
  top: "loss2/conv"
}
layer {
  name: "loss2/fc"
  type: "InnerProduct"
  bottom: "loss2/conv"
  top: "loss2/fc"
  param {
    lr_mult: 1
    decay_mult: 1
  }
  param {
    lr_mult: 2
    decay_mult: 0
  }
  inner_product_param {
    num_output: 1024
    weight_filler {
      type: "xavier"
      std: 0.02
    }
    bias_filler {
      type: "constant"
      value: 0.2
    }
  }
}
layer {
  name: "loss2/relu_fc"
  type: "ReLU"
  bottom: "loss2/fc"
  top: "loss2/fc"
}
layer {
  name: "loss2/drop_fc"
  type: "Dropout"
  bottom: "loss2/fc"
  top: "loss2/fc"
  dropout_param {
    dropout_ratio: 0.7
  }
}
layer {
  name: "loss2/classifier_plantvillage"
  type: "InnerProduct"
  bottom: "loss2/fc"
  top: "loss2/classifier_plantvillage"
  param {
    lr_mult: 1
    decay_mult: 1
  }
  param {
    lr_mult: 2
    decay_mult: 0
  }
  inner_product_param {
    num_output: 38
    weight_filler {
      type: "xavier"
      std: 0.0009765625
    }
    bias_filler {
      type: "constant"
      value: 0
    }
  }
}
layer {
  name: "inception_4e/1x1"
  type: "Convolution"
  bottom: "inception_4d/output"
  top: "inception_4e/1x1"
  param {
    lr_mult: 1
    decay_mult: 1
  }
  param {
    lr_mult: 2
    decay_mult: 0
  }
  convolution_param {
    num_output: 256
    kernel_size: 1
    weight_filler {
      type: "xavier"
      std: 0.03
    }
    bias_filler {
      type: "constant"
      value: 0.2
    }
  }
}
layer {
  name: "inception_4e/relu_1x1"
  type: "ReLU"
  bottom: "inception_4e/1x1"
  top: "inception_4e/1x1"
}
layer {
  name: "inception_4e/3x3_reduce"
  type: "Convolution"
  bottom: "inception_4d/output"
  top: "inception_4e/3x3_reduce"
  param {
    lr_mult: 1
    decay_mult: 1
  }
  param {
    lr_mult: 2
    decay_mult: 0
  }
  convolution_param {
    num_output: 160
    kernel_size: 1
    weight_filler {
      type: "xavier"
      std: 0.09
    }
    bias_filler {
      type: "constant"
      value: 0.2
    }
  }
}
layer {
  name: "inception_4e/relu_3x3_reduce"
  type: "ReLU"
  bottom: "inception_4e/3x3_reduce"
  top: "inception_4e/3x3_reduce"
}
layer {
  name: "inception_4e/3x3"
  type: "Convolution"
  bottom: "inception_4e/3x3_reduce"
  top: "inception_4e/3x3"
  param {
    lr_mult: 1
    decay_mult: 1
  }
  param {
    lr_mult: 2
    decay_mult: 0
  }
  convolution_param {
    num_output: 320
    pad: 1
    kernel_size: 3
    weight_filler {
      type: "xavier"
      std: 0.03
    }
    bias_filler {
      type: "constant"
      value: 0.2
    }
  }
}
layer {
  name: "inception_4e/relu_3x3"
  type: "ReLU"
  bottom: "inception_4e/3x3"
  top: "inception_4e/3x3"
}
layer {
  name: "inception_4e/5x5_reduce"
  type: "Convolution"
  bottom: "inception_4d/output"
  top: "inception_4e/5x5_reduce"
  param {
    lr_mult: 1
    decay_mult: 1
  }
  param {
    lr_mult: 2
    decay_mult: 0
  }
  convolution_param {
    num_output: 32
    kernel_size: 1
    weight_filler {
      type: "xavier"
      std: 0.2
    }
    bias_filler {
      type: "constant"
      value: 0.2
    }
  }
}
layer {
  name: "inception_4e/relu_5x5_reduce"
  type: "ReLU"
  bottom: "inception_4e/5x5_reduce"
  top: "inception_4e/5x5_reduce"
}
layer {
  name: "inception_4e/5x5"
  type: "Convolution"
  bottom: "inception_4e/5x5_reduce"
  top: "inception_4e/
I0403 18:48:18.852390 23525 layer_factory.hpp:77] Creating layer data
I0403 18:48:18.853003 23525 net.cpp:91] Creating Layer data
I0403 18:48:18.853035 23525 net.cpp:399] data -> data
I0403 18:48:18.853086 23525 net.cpp:399] data -> label
I0403 18:48:18.853123 23525 data_transformer.cpp:25] Loading mean file from: /home/mohanty/data/final_dataset/lmdb/segmented-40-60/mean.binaryproto
I0403 18:48:18.854241 23530 db_lmdb.cpp:38] Opened lmdb /home/mohanty/data/final_dataset/lmdb/segmented-40-60/test_db
I0403 18:48:18.866575 23525 data_layer.cpp:41] output data size: 24,3,224,224
I0403 18:48:18.895287 23525 net.cpp:141] Setting up data
I0403 18:48:18.895366 23525 net.cpp:148] Top shape: 24 3 224 224 (3612672)
I0403 18:48:18.895390 23525 net.cpp:148] Top shape: 24 (24)
I0403 18:48:18.895406 23525 net.cpp:156] Memory required for data: 14450784
I0403 18:48:18.895434 23525 layer_factory.hpp:77] Creating layer label_data_1_split
I0403 18:48:18.895462 23525 net.cpp:91] Creating Layer label_data_1_split
I0403 18:48:18.895481 23525 net.cpp:425] label_data_1_split <- label
I0403 18:48:18.895516 23525 net.cpp:399] label_data_1_split -> label_data_1_split_0
I0403 18:48:18.895556 23525 net.cpp:399] label_data_1_split -> label_data_1_split_1
I0403 18:48:18.895582 23525 net.cpp:399] label_data_1_split -> label_data_1_split_2
I0403 18:48:18.895606 23525 net.cpp:399] label_data_1_split -> label_data_1_split_3
I0403 18:48:18.895627 23525 net.cpp:399] label_data_1_split -> label_data_1_split_4
I0403 18:48:18.895648 23525 net.cpp:399] label_data_1_split -> label_data_1_split_5
I0403 18:48:18.895669 23525 net.cpp:399] label_data_1_split -> label_data_1_split_6
I0403 18:48:18.895691 23525 net.cpp:399] label_data_1_split -> label_data_1_split_7
I0403 18:48:18.895714 23525 net.cpp:399] label_data_1_split -> label_data_1_split_8
I0403 18:48:18.895735 23525 net.cpp:399] label_data_1_split -> label_data_1_split_9
I0403 18:48:18.895853 23525 net.cpp:141] Setting up label_data_1_split
I0403 18:48:18.895877 23525 net.cpp:148] Top shape: 24 (24)
I0403 18:48:18.895895 23525 net.cpp:148] Top shape: 24 (24)
I0403 18:48:18.895911 23525 net.cpp:148] Top shape: 24 (24)
I0403 18:48:18.895928 23525 net.cpp:148] Top shape: 24 (24)
I0403 18:48:18.895944 23525 net.cpp:148] Top shape: 24 (24)
I0403 18:48:18.895961 23525 net.cpp:148] Top shape: 24 (24)
I0403 18:48:18.895977 23525 net.cpp:148] Top shape: 24 (24)
I0403 18:48:18.895992 23525 net.cpp:148] Top shape: 24 (24)
I0403 18:48:18.896008 23525 net.cpp:148] Top shape: 24 (24)
I0403 18:48:18.896025 23525 net.cpp:148] Top shape: 24 (24)
I0403 18:48:18.896080 23525 net.cpp:156] Memory required for data: 14451744
I0403 18:48:18.896096 23525 layer_factory.hpp:77] Creating layer conv1/7x7_s2
I0403 18:48:18.896129 23525 net.cpp:91] Creating Layer conv1/7x7_s2
I0403 18:48:18.896149 23525 net.cpp:425] conv1/7x7_s2 <- data
I0403 18:48:18.896169 23525 net.cpp:399] conv1/7x7_s2 -> conv1/7x7_s2
I0403 18:48:19.040928 23525 net.cpp:141] Setting up conv1/7x7_s2
I0403 18:48:19.040995 23525 net.cpp:148] Top shape: 24 64 112 112 (19267584)
I0403 18:48:19.041013 23525 net.cpp:156] Memory required for data: 91522080
I0403 18:48:19.041045 23525 layer_factory.hpp:77] Creating layer conv1/relu_7x7
I0403 18:48:19.041072 23525 net.cpp:91] Creating Layer conv1/relu_7x7
I0403 18:48:19.041091 23525 net.cpp:425] conv1/relu_7x7 <- conv1/7x7_s2
I0403 18:48:19.041112 23525 net.cpp:386] conv1/relu_7x7 -> conv1/7x7_s2 (in-place)
I0403 18:48:19.041371 23525 net.cpp:141] Setting up conv1/relu_7x7
I0403 18:48:19.041399 23525 net.cpp:148] Top shape: 24 64 112 112 (19267584)
I0403 18:48:19.041414 23525 net.cpp:156] Memory required for data: 168592416
I0403 18:48:19.041430 23525 layer_factory.hpp:77] Creating layer pool1/3x3_s2
I0403 18:48:19.041456 23525 net.cpp:91] Creating Layer pool1/3x3_s2
I0403 18:48:19.041474 23525 net.cpp:425] pool1/3x3_s2 <- conv1/7x7_s2
I0403 18:48:19.041493 23525 net.cpp:399] pool1/3x3_s2 -> pool1/3x3_s2
I0403 18:48:19.041574 23525 net.cpp:141] Setting up pool1/3x3_s2
I0403 18:48:19.041599 23525 net.cpp:148] Top shape: 24 64 56 56 (4816896)
I0403 18:48:19.041615 23525 net.cpp:156] Memory required for data: 187860000
I0403 18:48:19.041630 23525 layer_factory.hpp:77] Creating layer pool1/norm1
I0403 18:48:19.041654 23525 net.cpp:91] Creating Layer pool1/norm1
I0403 18:48:19.041672 23525 net.cpp:425] pool1/norm1 <- pool1/3x3_s2
I0403 18:48:19.041692 23525 net.cpp:399] pool1/norm1 -> pool1/norm1
I0403 18:48:19.042006 23525 net.cpp:141] Setting up pool1/norm1
I0403 18:48:19.042034 23525 net.cpp:148] Top shape: 24 64 56 56 (4816896)
I0403 18:48:19.042049 23525 net.cpp:156] Memory required for data: 207127584
I0403 18:48:19.042065 23525 layer_factory.hpp:77] Creating layer conv2/3x3_reduce
I0403 18:48:19.042090 23525 net.cpp:91] Creating Layer conv2/3x3_reduce
I0403 18:48:19.042107 23525 net.cpp:425] conv2/3x3_reduce <- pool1/norm1
I0403 18:48:19.042125 23525 net.cpp:399] conv2/3x3_reduce -> conv2/3x3_reduce
I0403 18:48:19.043468 23525 net.cpp:141] Setting up conv2/3x3_reduce
I0403 18:48:19.043498 23525 net.cpp:148] Top shape: 24 64 56 56 (4816896)
I0403 18:48:19.043514 23525 net.cpp:156] Memory required for data: 226395168
I0403 18:48:19.043540 23525 layer_factory.hpp:77] Creating layer conv2/relu_3x3_reduce
I0403 18:48:19.043561 23525 net.cpp:91] Creating Layer conv2/relu_3x3_reduce
I0403 18:48:19.043578 23525 net.cpp:425] conv2/relu_3x3_reduce <- conv2/3x3_reduce
I0403 18:48:19.043596 23525 net.cpp:386] conv2/relu_3x3_reduce -> conv2/3x3_reduce (in-place)
I0403 18:48:19.043850 23525 net.cpp:141] Setting up conv2/relu_3x3_reduce
I0403 18:48:19.043879 23525 net.cpp:148] Top shape: 24 64 56 56 (4816896)
I0403 18:48:19.043894 23525 net.cpp:156] Memory required for data: 245662752
I0403 18:48:19.043910 23525 layer_factory.hpp:77] Creating layer conv2/3x3
I0403 18:48:19.043931 23525 net.cpp:91] Creating Layer conv2/3x3
I0403 18:48:19.043948 23525 net.cpp:425] conv2/3x3 <- conv2/3x3_reduce
I0403 18:48:19.043967 23525 net.cpp:399] conv2/3x3 -> conv2/3x3
I0403 18:48:19.046275 23525 net.cpp:141] Setting up conv2/3x3
I0403 18:48:19.046308 23525 net.cpp:148] Top shape: 24 192 56 56 (14450688)
I0403 18:48:19.046325 23525 net.cpp:156] Memory required for data: 303465504
I0403 18:48:19.046347 23525 layer_factory.hpp:77] Creating layer conv2/relu_3x3
I0403 18:48:19.046367 23525 net.cpp:91] Creating Layer conv2/relu_3x3
I0403 18:48:19.046383 23525 net.cpp:425] conv2/relu_3x3 <- conv2/3x3
I0403 18:48:19.046401 23525 net.cpp:386] conv2/relu_3x3 -> conv2/3x3 (in-place)
I0403 18:48:19.046591 23525 net.cpp:141] Setting up conv2/relu_3x3
I0403 18:48:19.046619 23525 net.cpp:148] Top shape: 24 192 56 56 (14450688)
I0403 18:48:19.046674 23525 net.cpp:156] Memory required for data: 361268256
I0403 18:48:19.046690 23525 layer_factory.hpp:77] Creating layer conv2/norm2
I0403 18:48:19.046711 23525 net.cpp:91] Creating Layer conv2/norm2
I0403 18:48:19.046728 23525 net.cpp:425] conv2/norm2 <- conv2/3x3
I0403 18:48:19.046746 23525 net.cpp:399] conv2/norm2 -> conv2/norm2
I0403 18:48:19.047056 23525 net.cpp:141] Setting up conv2/norm2
I0403 18:48:19.047085 23525 net.cpp:148] Top shape: 24 192 56 56 (14450688)
I0403 18:48:19.047101 23525 net.cpp:156] Memory required for data: 419071008
I0403 18:48:19.047116 23525 layer_factory.hpp:77] Creating layer pool2/3x3_s2
I0403 18:48:19.047137 23525 net.cpp:91] Creating Layer pool2/3x3_s2
I0403 18:48:19.047154 23525 net.cpp:425] pool2/3x3_s2 <- conv2/norm2
I0403 18:48:19.047173 23525 net.cpp:399] pool2/3x3_s2 -> pool2/3x3_s2
I0403 18:48:19.047226 23525 net.cpp:141] Setting up pool2/3x3_s2
I0403 18:48:19.047250 23525 net.cpp:148] Top shape: 24 192 28 28 (3612672)
I0403 18:48:19.047266 23525 net.cpp:156] Memory required for data: 433521696
I0403 18:48:19.047281 23525 layer_factory.hpp:77] Creating layer pool2/3x3_s2_pool2/3x3_s2_0_split
I0403 18:48:19.047298 23525 net.cpp:91] Creating Layer pool2/3x3_s2_pool2/3x3_s2_0_split
I0403 18:48:19.047314 23525 net.cpp:425] pool2/3x3_s2_pool2/3x3_s2_0_split <- pool2/3x3_s2
I0403 18:48:19.047334 23525 net.cpp:399] pool2/3x3_s2_pool2/3x3_s2_0_split -> pool2/3x3_s2_pool2/3x3_s2_0_split_0
I0403 18:48:19.047355 23525 net.cpp:399] pool2/3x3_s2_pool2/3x3_s2_0_split -> pool2/3x3_s2_pool2/3x3_s2_0_split_1
I0403 18:48:19.047376 23525 net.cpp:399] pool2/3x3_s2_pool2/3x3_s2_0_split -> pool2/3x3_s2_pool2/3x3_s2_0_split_2
I0403 18:48:19.047397 23525 net.cpp:399] pool2/3x3_s2_pool2/3x3_s2_0_split -> pool2/3x3_s2_pool2/3x3_s2_0_split_3
I0403 18:48:19.047469 23525 net.cpp:141] Setting up pool2/3x3_s2_pool2/3x3_s2_0_split
I0403 18:48:19.047495 23525 net.cpp:148] Top shape: 24 192 28 28 (3612672)
I0403 18:48:19.047513 23525 net.cpp:148] Top shape: 24 192 28 28 (3612672)
I0403 18:48:19.047529 23525 net.cpp:148] Top shape: 24 192 28 28 (3612672)
I0403 18:48:19.047550 23525 net.cpp:148] Top shape: 24 192 28 28 (3612672)
I0403 18:48:19.047566 23525 net.cpp:156] Memory required for data: 491324448
I0403 18:48:19.047580 23525 layer_factory.hpp:77] Creating layer inception_3a/1x1
I0403 18:48:19.047603 23525 net.cpp:91] Creating Layer inception_3a/1x1
I0403 18:48:19.047621 23525 net.cpp:425] inception_3a/1x1 <- pool2/3x3_s2_pool2/3x3_s2_0_split_0
I0403 18:48:19.047641 23525 net.cpp:399] inception_3a/1x1 -> inception_3a/1x1
I0403 18:48:19.049222 23525 net.cpp:141] Setting up inception_3a/1x1
I0403 18:48:19.049252 23525 net.cpp:148] Top shape: 24 64 28 28 (1204224)
I0403 18:48:19.049269 23525 net.cpp:156] Memory required for data: 496141344
I0403 18:48:19.049288 23525 layer_factory.hpp:77] Creating layer inception_3a/relu_1x1
I0403 18:48:19.049314 23525 net.cpp:91] Creating Layer inception_3a/relu_1x1
I0403 18:48:19.049331 23525 net.cpp:425] inception_3a/relu_1x1 <- inception_3a/1x1
I0403 18:48:19.049350 23525 net.cpp:386] inception_3a/relu_1x1 -> inception_3a/1x1 (in-place)
I0403 18:48:19.049530 23525 net.cpp:141] Setting up inception_3a/relu_1x1
I0403 18:48:19.049559 23525 net.cpp:148] Top shape: 24 64 28 28 (1204224)
I0403 18:48:19.049574 23525 net.cpp:156] Memory required for data: 500958240
I0403 18:48:19.049590 23525 layer_factory.hpp:77] Creating layer inception_3a/3x3_reduce
I0403 18:48:19.049613 23525 net.cpp:91] Creating Layer inception_3a/3x3_reduce
I0403 18:48:19.049631 23525 net.cpp:425] inception_3a/3x3_reduce <- pool2/3x3_s2_pool2/3x3_s2_0_split_1
I0403 18:48:19.049654 23525 net.cpp:399] inception_3a/3x3_reduce -> inception_3a/3x3_reduce
I0403 18:48:19.051383 23525 net.cpp:141] Setting up inception_3a/3x3_reduce
I0403 18:48:19.051415 23525 net.cpp:148] Top shape: 24 96 28 28 (1806336)
I0403 18:48:19.051432 23525 net.cpp:156] Memory required for data: 508183584
I0403 18:48:19.051455 23525 layer_factory.hpp:77] Creating layer inception_3a/relu_3x3_reduce
I0403 18:48:19.051491 23525 net.cpp:91] Creating Layer inception_3a/relu_3x3_reduce
I0403 18:48:19.051509 23525 net.cpp:425] inception_3a/relu_3x3_reduce <- inception_3a/3x3_reduce
I0403 18:48:19.051530 23525 net.cpp:386] inception_3a/relu_3x3_reduce -> inception_3a/3x3_reduce (in-place)
I0403 18:48:19.051723 23525 net.cpp:141] Setting up inception_3a/relu_3x3_reduce
I0403 18:48:19.051749 23525 net.cpp:148] Top shape: 24 96 28 28 (1806336)
I0403 18:48:19.051764 23525 net.cpp:156] Memory required for data: 515408928
I0403 18:48:19.051779 23525 layer_factory.hpp:77] Creating layer inception_3a/3x3
I0403 18:48:19.051802 23525 net.cpp:91] Creating Layer inception_3a/3x3
I0403 18:48:19.051820 23525 net.cpp:425] inception_3a/3x3 <- inception_3a/3x3_reduce
I0403 18:48:19.051842 23525 net.cpp:399] inception_3a/3x3 -> inception_3a/3x3
I0403 18:48:19.053565 23525 net.cpp:141] Setting up inception_3a/3x3
I0403 18:48:19.053596 23525 net.cpp:148] Top shape: 24 128 28 28 (2408448)
I0403 18:48:19.053614 23525 net.cpp:156] Memory required for data: 525042720
I0403 18:48:19.053633 23525 layer_factory.hpp:77] Creating layer inception_3a/relu_3x3
I0403 18:48:19.053653 23525 net.cpp:91] Creating Layer inception_3a/relu_3x3
I0403 18:48:19.053668 23525 net.cpp:425] inception_3a/relu_3x3 <- inception_3a/3x3
I0403 18:48:19.053689 23525 net.cpp:386] inception_3a/relu_3x3 -> inception_3a/3x3 (in-place)
I0403 18:48:19.053966 23525 net.cpp:141] Setting up inception_3a/relu_3x3
I0403 18:48:19.053995 23525 net.cpp:148] Top shape: 24 128 28 28 (2408448)
I0403 18:48:19.054011 23525 net.cpp:156] Memory required for data: 534676512
I0403 18:48:19.054026 23525 layer_factory.hpp:77] Creating layer inception_3a/5x5_reduce
I0403 18:48:19.054049 23525 net.cpp:91] Creating Layer inception_3a/5x5_reduce
I0403 18:48:19.054067 23525 net.cpp:425] inception_3a/5x5_reduce <- pool2/3x3_s2_pool2/3x3_s2_0_split_2
I0403 18:48:19.054087 23525 net.cpp:399] inception_3a/5x5_reduce -> inception_3a/5x5_reduce
I0403 18:48:19.055061 23525 net.cpp:141] Setting up inception_3a/5x5_reduce
I0403 18:48:19.055094 23525 net.cpp:148] Top shape: 24 16 28 28 (301056)
I0403 18:48:19.055110 23525 net.cpp:156] Memory required for data: 535880736
I0403 18:48:19.055130 23525 layer_factory.hpp:77] Creating layer inception_3a/relu_5x5_reduce
I0403 18:48:19.055148 23525 net.cpp:91] Creating Layer inception_3a/relu_5x5_reduce
I0403 18:48:19.055165 23525 net.cpp:425] inception_3a/relu_5x5_reduce <- inception_3a/5x5_reduce
I0403 18:48:19.055186 23525 net.cpp:386] inception_3a/relu_5x5_reduce -> inception_3a/5x5_reduce (in-place)
I0403 18:48:19.055487 23525 net.cpp:141] Setting up inception_3a/relu_5x5_reduce
I0403 18:48:19.055516 23525 net.cpp:148] Top shape: 24 16 28 28 (301056)
I0403 18:48:19.055531 23525 net.cpp:156] Memory required for data: 537084960
I0403 18:48:19.055558 23525 layer_factory.hpp:77] Creating layer inception_3a/5x5
I0403 18:48:19.055584 23525 net.cpp:91] Creating Layer inception_3a/5x5
I0403 18:48:19.055606 23525 net.cpp:425] inception_3a/5x5 <- inception_3a/5x5_reduce
I0403 18:48:19.055627 23525 net.cpp:399] inception_3a/5x5 -> inception_3a/5x5
I0403 18:48:19.056653 23525 net.cpp:141] Setting up inception_3a/5x5
I0403 18:48:19.056680 23525 net.cpp:148] Top shape: 24 32 28 28 (602112)
I0403 18:48:19.056696 23525 net.cpp:156] Memory required for data: 539493408
I0403 18:48:19.056715 23525 layer_factory.hpp:77] Creating layer inception_3a/relu_5x5
I0403 18:48:19.056736 23525 net.cpp:91] Creating Layer inception_3a/relu_5x5
I0403 18:48:19.056753 23525 net.cpp:425] inception_3a/relu_5x5 <- inception_3a/5x5
I0403 18:48:19.056772 23525 net.cpp:386] inception_3a/relu_5x5 -> inception_3a/5x5 (in-place)
I0403 18:48:19.056949 23525 net.cpp:141] Setting up inception_3a/relu_5x5
I0403 18:48:19.056975 23525 net.cpp:148] Top shape: 24 32 28 28 (602112)
I0403 18:48:19.056990 23525 net.cpp:156] Memory required for data: 541901856
I0403 18:48:19.057005 23525 layer_factory.hpp:77] Creating layer inception_3a/pool
I0403 18:48:19.057024 23525 net.cpp:91] Creating Layer inception_3a/pool
I0403 18:48:19.057055 23525 net.cpp:425] inception_3a/pool <- pool2/3x3_s2_pool2/3x3_s2_0_split_3
I0403 18:48:19.057077 23525 net.cpp:399] inception_3a/pool -> inception_3a/pool
I0403 18:48:19.057138 23525 net.cpp:141] Setting up inception_3a/pool
I0403 18:48:19.057163 23525 net.cpp:148] Top shape: 24 192 28 28 (3612672)
I0403 18:48:19.057178 23525 net.cpp:156] Memory required for data: 556352544
I0403 18:48:19.057193 23525 layer_factory.hpp:77] Creating layer inception_3a/pool_proj
I0403 18:48:19.057219 23525 net.cpp:91] Creating Layer inception_3a/pool_proj
I0403 18:48:19.057235 23525 net.cpp:425] inception_3a/pool_proj <- inception_3a/pool
I0403 18:48:19.057255 23525 net.cpp:399] inception_3a/pool_proj -> inception_3a/pool_proj
I0403 18:48:19.058238 23525 net.cpp:141] Setting up inception_3a/pool_proj
I0403 18:48:19.058266 23525 net.cpp:148] Top shape: 24 32 28 28 (602112)
I0403 18:48:19.058282 23525 net.cpp:156] Memory required for data: 558760992
I0403 18:48:19.058307 23525 layer_factory.hpp:77] Creating layer inception_3a/relu_pool_proj
I0403 18:48:19.058327 23525 net.cpp:91] Creating Layer inception_3a/relu_pool_proj
I0403 18:48:19.058343 23525 net.cpp:425] inception_3a/relu_pool_proj <- inception_3a/pool_proj
I0403 18:48:19.058363 23525 net.cpp:386] inception_3a/relu_pool_proj -> inception_3a/pool_proj (in-place)
I0403 18:48:19.058666 23525 net.cpp:141] Setting up inception_3a/relu_pool_proj
I0403 18:48:19.058696 23525 net.cpp:148] Top shape: 24 32 28 28 (602112)
I0403 18:48:19.058714 23525 net.cpp:156] Memory required for data: 561169440
I0403 18:48:19.058730 23525 layer_factory.hpp:77] Creating layer inception_3a/output
I0403 18:48:19.058749 23525 net.cpp:91] Creating Layer inception_3a/output
I0403 18:48:19.058766 23525 net.cpp:425] inception_3a/output <- inception_3a/1x1
I0403 18:48:19.058784 23525 net.cpp:425] inception_3a/output <- inception_3a/3x3
I0403 18:48:19.058801 23525 net.cpp:425] inception_3a/output <- inception_3a/5x5
I0403 18:48:19.058817 23525 net.cpp:425] inception_3a/output <- inception_3a/pool_proj
I0403 18:48:19.058836 23525 net.cpp:399] inception_3a/output -> inception_3a/output
I0403 18:48:19.058887 23525 net.cpp:141] Setting up inception_3a/output
I0403 18:48:19.058912 23525 net.cpp:148] Top shape: 24 256 28 28 (4816896)
I0403 18:48:19.058928 23525 net.cpp:156] Memory required for data: 580437024
I0403 18:48:19.058943 23525 layer_factory.hpp:77] Creating layer inception_3a/output_inception_3a/output_0_split
I0403 18:48:19.058964 23525 net.cpp:91] Creating Layer inception_3a/output_inception_3a/output_0_split
I0403 18:48:19.058980 23525 net.cpp:425] inception_3a/output_inception_3a/output_0_split <- inception_3a/output
I0403 18:48:19.059000 23525 net.cpp:399] inception_3a/output_inception_3a/output_0_split -> inception_3a/output_inception_3a/output_0_split_0
I0403 18:48:19.059021 23525 net.cpp:399] inception_3a/output_inception_3a/output_0_split -> inception_3a/output_inception_3a/output_0_split_1
I0403 18:48:19.059047 23525 net.cpp:399] inception_3a/output_inception_3a/output_0_split -> inception_3a/output_inception_3a/output_0_split_2
I0403 18:48:19.059072 23525 net.cpp:399] inception_3a/output_inception_3a/output_0_split -> inception_3a/output_inception_3a/output_0_split_3
I0403 18:48:19.059146 23525 net.cpp:141] Setting up inception_3a/output_inception_3a/output_0_split
I0403 18:48:19.059171 23525 net.cpp:148] Top shape: 24 256 28 28 (4816896)
I0403 18:48:19.059190 23525 net.cpp:148] Top shape: 24 256 28 28 (4816896)
I0403 18:48:19.059208 23525 net.cpp:148] Top shape: 24 256 28 28 (4816896)
I0403 18:48:19.059224 23525 net.cpp:148] Top shape: 24 256 28 28 (4816896)
I0403 18:48:19.059238 23525 net.cpp:156] Memory required for data: 657507360
I0403 18:48:19.059253 23525 layer_factory.hpp:77] Creating layer inception_3b/1x1
I0403 18:48:19.059274 23525 net.cpp:91] Creating Layer inception_3b/1x1
I0403 18:48:19.059293 23525 net.cpp:425] inception_3b/1x1 <- inception_3a/output_inception_3a/output_0_split_0
I0403 18:48:19.059314 23525 net.cpp:399] inception_3b/1x1 -> inception_3b/1x1
I0403 18:48:19.060504 23525 net.cpp:141] Setting up inception_3b/1x1
I0403 18:48:19.060550 23525 net.cpp:148] Top shape: 24 128 28 28 (2408448)
I0403 18:48:19.060569 23525 net.cpp:156] Memory required for data: 667141152
I0403 18:48:19.060588 23525 layer_factory.hpp:77] Creating layer inception_3b/relu_1x1
I0403 18:48:19.060614 23525 net.cpp:91] Creating Layer inception_3b/relu_1x1
I0403 18:48:19.060632 23525 net.cpp:425] inception_3b/relu_1x1 <- inception_3b/1x1
I0403 18:48:19.060650 23525 net.cpp:386] inception_3b/relu_1x1 -> inception_3b/1x1 (in-place)
I0403 18:48:19.060835 23525 net.cpp:141] Setting up inception_3b/relu_1x1
I0403 18:48:19.060864 23525 net.cpp:148] Top shape: 24 128 28 28 (2408448)
I0403 18:48:19.060880 23525 net.cpp:156] Memory required for data: 676774944
I0403 18:48:19.060899 23525 layer_factory.hpp:77] Creating layer inception_3b/3x3_reduce
I0403 18:48:19.060922 23525 net.cpp:91] Creating Layer inception_3b/3x3_reduce
I0403 18:48:19.060941 23525 net.cpp:425] inception_3b/3x3_reduce <- inception_3a/output_inception_3a/output_0_split_1
I0403 18:48:19.060962 23525 net.cpp:399] inception_3b/3x3_reduce -> inception_3b/3x3_reduce
I0403 18:48:19.062150 23525 net.cpp:141] Setting up inception_3b/3x3_reduce
I0403 18:48:19.062180 23525 net.cpp:148] Top shape: 24 128 28 28 (2408448)
I0403 18:48:19.062196 23525 net.cpp:156] Memory required for data: 686408736
I0403 18:48:19.062216 23525 layer_factory.hpp:77] Creating layer inception_3b/relu_3x3_reduce
I0403 18:48:19.062238 23525 net.cpp:91] Creating Layer inception_3b/relu_3x3_reduce
I0403 18:48:19.062257 23525 net.cpp:425] inception_3b/relu_3x3_reduce <- inception_3b/3x3_reduce
I0403 18:48:19.062274 23525 net.cpp:386] inception_3b/relu_3x3_reduce -> inception_3b/3x3_reduce (in-place)
I0403 18:48:19.062458 23525 net.cpp:141] Setting up inception_3b/relu_3x3_reduce
I0403 18:48:19.062487 23525 net.cpp:148] Top shape: 24 128 28 28 (2408448)
I0403 18:48:19.062505 23525 net.cpp:156] Memory required for data: 696042528
I0403 18:48:19.062520 23525 layer_factory.hpp:77] Creating layer inception_3b/3x3
I0403 18:48:19.062549 23525 net.cpp:91] Creating Layer inception_3b/3x3
I0403 18:48:19.062569 23525 net.cpp:425] inception_3b/3x3 <- inception_3b/3x3_reduce
I0403 18:48:19.062592 23525 net.cpp:399] inception_3b/3x3 -> inception_3b/3x3
I0403 18:48:19.065680 23525 net.cpp:141] Setting up inception_3b/3x3
I0403 18:48:19.065713 23525 net.cpp:148] Top shape: 24 192 28 28 (3612672)
I0403 18:48:19.065731 23525 net.cpp:156] Memory required for data: 710493216
I0403 18:48:19.065750 23525 layer_factory.hpp:77] Creating layer inception_3b/relu_3x3
I0403 18:48:19.065770 23525 net.cpp:91] Creating Layer inception_3b/relu_3x3
I0403 18:48:19.065788 23525 net.cpp:425] inception_3b/relu_3x3 <- inception_3b/3x3
I0403 18:48:19.065807 23525 net.cpp:386] inception_3b/relu_3x3 -> inception_3b/3x3 (in-place)
I0403 18:48:19.066103 23525 net.cpp:141] Setting up inception_3b/relu_3x3
I0403 18:48:19.066133 23525 net.cpp:148] Top shape: 24 192 28 28 (3612672)
I0403 18:48:19.066150 23525 net.cpp:156] Memory required for data: 724943904
I0403 18:48:19.066165 23525 layer_factory.hpp:77] Creating layer inception_3b/5x5_reduce
I0403 18:48:19.066190 23525 net.cpp:91] Creating Layer inception_3b/5x5_reduce
I0403 18:48:19.066210 23525 net.cpp:425] inception_3b/5x5_reduce <- inception_3a/output_inception_3a/output_0_split_2
I0403 18:48:19.066229 23525 net.cpp:399] inception_3b/5x5_reduce -> inception_3b/5x5_reduce
I0403 18:48:19.067287 23525 net.cpp:141] Setting up inception_3b/5x5_reduce
I0403 18:48:19.067319 23525 net.cpp:148] Top shape: 24 32 28 28 (602112)
I0403 18:48:19.067337 23525 net.cpp:156] Memory required for data: 727352352
I0403 18:48:19.067356 23525 layer_factory.hpp:77] Creating layer inception_3b/relu_5x5_reduce
I0403 18:48:19.067376 23525 net.cpp:91] Creating Layer inception_3b/relu_5x5_reduce
I0403 18:48:19.067394 23525 net.cpp:425] inception_3b/relu_5x5_reduce <- inception_3b/5x5_reduce
I0403 18:48:19.067417 23525 net.cpp:386] inception_3b/relu_5x5_reduce -> inception_3b/5x5_reduce (in-place)
I0403 18:48:19.067625 23525 net.cpp:141] Setting up inception_3b/relu_5x5_reduce
I0403 18:48:19.067652 23525 net.cpp:148] Top shape: 24 32 28 28 (602112)
I0403 18:48:19.067668 23525 net.cpp:156] Memory required for data: 729760800
I0403 18:48:19.067684 23525 layer_factory.hpp:77] Creating layer inception_3b/5x5
I0403 18:48:19.067708 23525 net.cpp:91] Creating Layer inception_3b/5x5
I0403 18:48:19.067728 23525 net.cpp:425] inception_3b/5x5 <- inception_3b/5x5_reduce
I0403 18:48:19.067749 23525 net.cpp:399] inception_3b/5x5 -> inception_3b/5x5
I0403 18:48:19.069831 23525 net.cpp:141] Setting up inception_3b/5x5
I0403 18:48:19.069861 23525 net.cpp:148] Top shape: 24 96 28 28 (1806336)
I0403 18:48:19.069878 23525 net.cpp:156] Memory required for data: 736986144
I0403 18:48:19.069897 23525 layer_factory.hpp:77] Creating layer inception_3b/relu_5x5
I0403 18:48:19.069919 23525 net.cpp:91] Creating Layer inception_3b/relu_5x5
I0403 18:48:19.069938 23525 net.cpp:425] inception_3b/relu_5x5 <- inception_3b/5x5
I0403 18:48:19.069957 23525 net.cpp:386] inception_3b/relu_5x5 -> inception_3b/5x5 (in-place)
I0403 18:48:19.070163 23525 net.cpp:141] Setting up inception_3b/relu_5x5
I0403 18:48:19.070189 23525 net.cpp:148] Top shape: 24 96 28 28 (1806336)
I0403 18:48:19.070204 23525 net.cpp:156] Memory required for data: 744211488
I0403 18:48:19.070219 23525 layer_factory.hpp:77] Creating layer inception_3b/pool
I0403 18:48:19.070238 23525 net.cpp:91] Creating Layer inception_3b/pool
I0403 18:48:19.070255 23525 net.cpp:425] inception_3b/pool <- inception_3a/output_inception_3a/output_0_split_3
I0403 18:48:19.070274 23525 net.cpp:399] inception_3b/pool -> inception_3b/pool
I0403 18:48:19.070334 23525 net.cpp:141] Setting up inception_3b/pool
I0403 18:48:19.070359 23525 net.cpp:148] Top shape: 24 256 28 28 (4816896)
I0403 18:48:19.070374 23525 net.cpp:156] Memory required for data: 763479072
I0403 18:48:19.070390 23525 layer_factory.hpp:77] Creating layer inception_3b/pool_proj
I0403 18:48:19.070413 23525 net.cpp:91] Creating Layer inception_3b/pool_proj
I0403 18:48:19.070432 23525 net.cpp:425] inception_3b/pool_proj <- inception_3b/pool
I0403 18:48:19.070456 23525 net.cpp:399] inception_3b/pool_proj -> inception_3b/pool_proj
I0403 18:48:19.071571 23525 net.cpp:141] Setting up inception_3b/pool_proj
I0403 18:48:19.071600 23525 net.cpp:148] Top shape: 24 64 28 28 (1204224)
I0403 18:48:19.071616 23525 net.cpp:156] Memory required for data: 768295968
I0403 18:48:19.071636 23525 layer_factory.hpp:77] Creating layer inception_3b/relu_pool_proj
I0403 18:48:19.071655 23525 net.cpp:91] Creating Layer inception_3b/relu_pool_proj
I0403 18:48:19.071671 23525 net.cpp:425] inception_3b/relu_pool_proj <- inception_3b/pool_proj
I0403 18:48:19.071692 23525 net.cpp:386] inception_3b/relu_pool_proj -> inception_3b/pool_proj (in-place)
I0403 18:48:19.072098 23525 net.cpp:141] Setting up inception_3b/relu_pool_proj
I0403 18:48:19.072129 23525 net.cpp:148] Top shape: 24 64 28 28 (1204224)
I0403 18:48:19.072145 23525 net.cpp:156] Memory required for data: 773112864
I0403 18:48:19.072161 23525 layer_factory.hpp:77] Creating layer inception_3b/output
I0403 18:48:19.072180 23525 net.cpp:91] Creating Layer inception_3b/output
I0403 18:48:19.072197 23525 net.cpp:425] inception_3b/output <- inception_3b/1x1
I0403 18:48:19.072214 23525 net.cpp:425] inception_3b/output <- inception_3b/3x3
I0403 18:48:19.072232 23525 net.cpp:425] inception_3b/output <- inception_3b/5x5
I0403 18:48:19.072248 23525 net.cpp:425] inception_3b/output <- inception_3b/pool_proj
I0403 18:48:19.072268 23525 net.cpp:399] inception_3b/output -> inception_3b/output
I0403 18:48:19.072315 23525 net.cpp:141] Setting up inception_3b/output
I0403 18:48:19.072340 23525 net.cpp:148] Top shape: 24 480 28 28 (9031680)
I0403 18:48:19.072356 23525 net.cpp:156] Memory required for data: 809239584
I0403 18:48:19.072371 23525 layer_factory.hpp:77] Creating layer pool3/3x3_s2
I0403 18:48:19.072392 23525 net.cpp:91] Creating Layer pool3/3x3_s2
I0403 18:48:19.072412 23525 net.cpp:425] pool3/3x3_s2 <- inception_3b/output
I0403 18:48:19.072446 23525 net.cpp:399] pool3/3x3_s2 -> pool3/3x3_s2
I0403 18:48:19.072511 23525 net.cpp:141] Setting up pool3/3x3_s2
I0403 18:48:19.072540 23525 net.cpp:148] Top shape: 24 480 14 14 (2257920)
I0403 18:48:19.072557 23525 net.cpp:156] Memory required for data: 818271264
I0403 18:48:19.072573 23525 layer_factory.hpp:77] Creating layer pool3/3x3_s2_pool3/3x3_s2_0_split
I0403 18:48:19.072594 23525 net.cpp:91] Creating Layer pool3/3x3_s2_pool3/3x3_s2_0_split
I0403 18:48:19.072613 23525 net.cpp:425] pool3/3x3_s2_pool3/3x3_s2_0_split <- pool3/3x3_s2
I0403 18:48:19.072630 23525 net.cpp:399] pool3/3x3_s2_pool3/3x3_s2_0_split -> pool3/3x3_s2_pool3/3x3_s2_0_split_0
I0403 18:48:19.072651 23525 net.cpp:399] pool3/3x3_s2_pool3/3x3_s2_0_split -> pool3/3x3_s2_pool3/3x3_s2_0_split_1
I0403 18:48:19.072672 23525 net.cpp:399] pool3/3x3_s2_pool3/3x3_s2_0_split -> pool3/3x3_s2_pool3/3x3_s2_0_split_2
I0403 18:48:19.072692 23525 net.cpp:399] pool3/3x3_s2_pool3/3x3_s2_0_split -> pool3/3x3_s2_pool3/3x3_s2_0_split_3
I0403 18:48:19.072773 23525 net.cpp:141] Setting up pool3/3x3_s2_pool3/3x3_s2_0_split
I0403 18:48:19.072798 23525 net.cpp:148] Top shape: 24 480 14 14 (2257920)
I0403 18:48:19.072815 23525 net.cpp:148] Top shape: 24 480 14 14 (2257920)
I0403 18:48:19.072831 23525 net.cpp:148] Top shape: 24 480 14 14 (2257920)
I0403 18:48:19.072847 23525 net.cpp:148] Top shape: 24 480 14 14 (2257920)
I0403 18:48:19.072861 23525 net.cpp:156] Memory required for data: 854397984
I0403 18:48:19.072876 23525 layer_factory.hpp:77] Creating layer inception_4a/1x1
I0403 18:48:19.072901 23525 net.cpp:91] Creating Layer inception_4a/1x1
I0403 18:48:19.072919 23525 net.cpp:425] inception_4a/1x1 <- pool3/3x3_s2_pool3/3x3_s2_0_split_0
I0403 18:48:19.072945 23525 net.cpp:399] inception_4a/1x1 -> inception_4a/1x1
I0403 18:48:19.074609 23525 net.cpp:141] Setting up inception_4a/1x1
I0403 18:48:19.074637 23525 net.cpp:148] Top shape: 24 192 14 14 (903168)
I0403 18:48:19.074653 23525 net.cpp:156] Memory required for data: 858010656
I0403 18:48:19.074673 23525 layer_factory.hpp:77] Creating layer inception_4a/relu_1x1
I0403 18:48:19.074698 23525 net.cpp:91] Creating Layer inception_4a/relu_1x1
I0403 18:48:19.074717 23525 net.cpp:425] inception_4a/relu_1x1 <- inception_4a/1x1
I0403 18:48:19.074735 23525 net.cpp:386] inception_4a/relu_1x1 -> inception_4a/1x1 (in-place)
I0403 18:48:19.074923 23525 net.cpp:141] Setting up inception_4a/relu_1x1
I0403 18:48:19.074949 23525 net.cpp:148] Top shape: 24 192 14 14 (903168)
I0403 18:48:19.074967 23525 net.cpp:156] Memory required for data: 861623328
I0403 18:48:19.074982 23525 layer_factory.hpp:77] Creating layer inception_4a/3x3_reduce
I0403 18:48:19.075004 23525 net.cpp:91] Creating Layer inception_4a/3x3_reduce
I0403 18:48:19.075021 23525 net.cpp:425] inception_4a/3x3_reduce <- pool3/3x3_s2_pool3/3x3_s2_0_split_1
I0403 18:48:19.075044 23525 net.cpp:399] inception_4a/3x3_reduce -> inception_4a/3x3_reduce
I0403 18:48:19.076382 23525 net.cpp:141] Setting up inception_4a/3x3_reduce
I0403 18:48:19.076412 23525 net.cpp:148] Top shape: 24 96 14 14 (451584)
I0403 18:48:19.076428 23525 net.cpp:156] Memory required for data: 863429664
I0403 18:48:19.076455 23525 layer_factory.hpp:77] Creating layer inception_4a/relu_3x3_reduce
I0403 18:48:19.076477 23525 net.cpp:91] Creating Layer inception_4a/relu_3x3_reduce
I0403 18:48:19.076493 23525 net.cpp:425] inception_4a/relu_3x3_reduce <- inception_4a/3x3_reduce
I0403 18:48:19.076514 23525 net.cpp:386] inception_4a/relu_3x3_reduce -> inception_4a/3x3_reduce (in-place)
I0403 18:48:19.076709 23525 net.cpp:141] Setting up inception_4a/relu_3x3_reduce
I0403 18:48:19.076735 23525 net.cpp:148] Top shape: 24 96 14 14 (451584)
I0403 18:48:19.076751 23525 net.cpp:156] Memory required for data: 865236000
I0403 18:48:19.076773 23525 layer_factory.hpp:77] Creating layer inception_4a/3x3
I0403 18:48:19.076795 23525 net.cpp:91] Creating Layer inception_4a/3x3
I0403 18:48:19.076814 23525 net.cpp:425] inception_4a/3x3 <- inception_4a/3x3_reduce
I0403 18:48:19.076835 23525 net.cpp:399] inception_4a/3x3 -> inception_4a/3x3
I0403 18:48:19.079663 23525 net.cpp:141] Setting up inception_4a/3x3
I0403 18:48:19.079691 23525 net.cpp:148] Top shape: 24 208 14 14 (978432)
I0403 18:48:19.079707 23525 net.cpp:156] Memory required for data: 869149728
I0403 18:48:19.079725 23525 layer_factory.hpp:77] Creating layer inception_4a/relu_3x3
I0403 18:48:19.079746 23525 net.cpp:91] Creating Layer inception_4a/relu_3x3
I0403 18:48:19.079763 23525 net.cpp:425] inception_4a/relu_3x3 <- inception_4a/3x3
I0403 18:48:19.079780 23525 net.cpp:386] inception_4a/relu_3x3 -> inception_4a/3x3 (in-place)
I0403 18:48:19.080061 23525 net.cpp:141] Setting up inception_4a/relu_3x3
I0403 18:48:19.080088 23525 net.cpp:148] Top shape: 24 208 14 14 (978432)
I0403 18:48:19.080103 23525 net.cpp:156] Memory required for data: 873063456
I0403 18:48:19.080117 23525 layer_factory.hpp:77] Creating layer inception_4a/5x5_reduce
I0403 18:48:19.080140 23525 net.cpp:91] Creating Layer inception_4a/5x5_reduce
I0403 18:48:19.080162 23525 net.cpp:425] inception_4a/5x5_reduce <- pool3/3x3_s2_pool3/3x3_s2_0_split_2
I0403 18:48:19.080180 23525 net.cpp:399] inception_4a/5x5_reduce -> inception_4a/5x5_reduce
I0403 18:48:19.081194 23525 net.cpp:141] Setting up inception_4a/5x5_reduce
I0403 18:48:19.081223 23525 net.cpp:148] Top shape: 24 16 14 14 (75264)
I0403 18:48:19.081238 23525 net.cpp:156] Memory required for data: 873364512
I0403 18:48:19.081255 23525 layer_factory.hpp:77] Creating layer inception_4a/relu_5x5_reduce
I0403 18:48:19.081276 23525 net.cpp:91] Creating Layer inception_4a/relu_5x5_reduce
I0403 18:48:19.081293 23525 net.cpp:425] inception_4a/relu_5x5_reduce <- inception_4a/5x5_reduce
I0403 18:48:19.081311 23525 net.cpp:386] inception_4a/relu_5x5_reduce -> inception_4a/5x5_reduce (in-place)
I0403 18:48:19.081490 23525 net.cpp:141] Setting up inception_4a/relu_5x5_reduce
I0403 18:48:19.081516 23525 net.cpp:148] Top shape: 24 16 14 14 (75264)
I0403 18:48:19.081529 23525 net.cpp:156] Memory required for data: 873665568
I0403 18:48:19.081549 23525 layer_factory.hpp:77] Creating layer inception_4a/5x5
I0403 18:48:19.081573 23525 net.cpp:91] Creating Layer inception_4a/5x5
I0403 18:48:19.081591 23525 net.cpp:425] inception_4a/5x5 <- inception_4a/5x5_reduce
I0403 18:48:19.081617 23525 net.cpp:399] inception_4a/5x5 -> inception_4a/5x5
I0403 18:48:19.082698 23525 net.cpp:141] Setting up inception_4a/5x5
I0403 18:48:19.082726 23525 net.cpp:148] Top shape: 24 48 14 14 (225792)
I0403 18:48:19.082741 23525 net.cpp:156] Memory required for data: 874568736
I0403 18:48:19.082761 23525 layer_factory.hpp:77] Creating layer inception_4a/relu_5x5
I0403 18:48:19.082778 23525 net.cpp:91] Creating Layer inception_4a/relu_5x5
I0403 18:48:19.082794 23525 net.cpp:425] inception_4a/relu_5x5 <- inception_4a/5x5
I0403 18:48:19.082814 23525 net.cpp:386] inception_4a/relu_5x5 -> inception_4a/5x5 (in-place)
I0403 18:48:19.082988 23525 net.cpp:141] Setting up inception_4a/relu_5x5
I0403 18:48:19.083014 23525 net.cpp:148] Top shape: 24 48 14 14 (225792)
I0403 18:48:19.083029 23525 net.cpp:156] Memory required for data: 875471904
I0403 18:48:19.083042 23525 layer_factory.hpp:77] Creating layer inception_4a/pool
I0403 18:48:19.083062 23525 net.cpp:91] Creating Layer inception_4a/pool
I0403 18:48:19.083079 23525 net.cpp:425] inception_4a/pool <- pool3/3x3_s2_pool3/3x3_s2_0_split_3
I0403 18:48:19.083097 23525 net.cpp:399] inception_4a/pool -> inception_4a/pool
I0403 18:48:19.083159 23525 net.cpp:141] Setting up inception_4a/pool
I0403 18:48:19.083184 23525 net.cpp:148] Top shape: 24 480 14 14 (2257920)
I0403 18:48:19.083199 23525 net.cpp:156] Memory required for data: 884503584
I0403 18:48:19.083212 23525 layer_factory.hpp:77] Creating layer inception_4a/pool_proj
I0403 18:48:19.083235 23525 net.cpp:91] Creating Layer inception_4a/pool_proj
I0403 18:48:19.083252 23525 net.cpp:425] inception_4a/pool_proj <- inception_4a/pool
I0403 18:48:19.083273 23525 net.cpp:399] inception_4a/pool_proj -> inception_4a/pool_proj
I0403 18:48:19.084424 23525 net.cpp:141] Setting up inception_4a/pool_proj
I0403 18:48:19.084452 23525 net.cpp:148] Top shape: 24 64 14 14 (301056)
I0403 18:48:19.084482 23525 net.cpp:156] Memory required for data: 885707808
I0403 18:48:19.084502 23525 layer_factory.hpp:77] Creating layer inception_4a/relu_pool_proj
I0403 18:48:19.084523 23525 net.cpp:91] Creating Layer inception_4a/relu_pool_proj
I0403 18:48:19.084544 23525 net.cpp:425] inception_4a/relu_pool_proj <- inception_4a/pool_proj
I0403 18:48:19.084564 23525 net.cpp:386] inception_4a/relu_pool_proj -> inception_4a/pool_proj (in-place)
I0403 18:48:19.084843 23525 net.cpp:141] Setting up inception_4a/relu_pool_proj
I0403 18:48:19.084869 23525 net.cpp:148] Top shape: 24 64 14 14 (301056)
I0403 18:48:19.084884 23525 net.cpp:156] Memory required for data: 886912032
I0403 18:48:19.084898 23525 layer_factory.hpp:77] Creating layer inception_4a/output
I0403 18:48:19.084916 23525 net.cpp:91] Creating Layer inception_4a/output
I0403 18:48:19.084931 23525 net.cpp:425] inception_4a/output <- inception_4a/1x1
I0403 18:48:19.084949 23525 net.cpp:425] inception_4a/output <- inception_4a/3x3
I0403 18:48:19.084964 23525 net.cpp:425] inception_4a/output <- inception_4a/5x5
I0403 18:48:19.084980 23525 net.cpp:425] inception_4a/output <- inception_4a/pool_proj
I0403 18:48:19.085000 23525 net.cpp:399] inception_4a/output -> inception_4a/output
I0403 18:48:19.085043 23525 net.cpp:141] Setting up inception_4a/output
I0403 18:48:19.085072 23525 net.cpp:148] Top shape: 24 512 14 14 (2408448)
I0403 18:48:19.085088 23525 net.cpp:156] Memory required for data: 896545824
I0403 18:48:19.085103 23525 layer_factory.hpp:77] Creating layer inception_4a/output_inception_4a/output_0_split
I0403 18:48:19.085121 23525 net.cpp:91] Creating Layer inception_4a/output_inception_4a/output_0_split
I0403 18:48:19.085136 23525 net.cpp:425] inception_4a/output_inception_4a/output_0_split <- inception_4a/output
I0403 18:48:19.085155 23525 net.cpp:399] inception_4a/output_inception_4a/output_0_split -> inception_4a/output_inception_4a/output_0_split_0
I0403 18:48:19.085177 23525 net.cpp:399] inception_4a/output_inception_4a/output_0_split -> inception_4a/output_inception_4a/output_0_split_1
I0403 18:48:19.085198 23525 net.cpp:399] inception_4a/output_inception_4a/output_0_split -> inception_4a/output_inception_4a/output_0_split_2
I0403 18:48:19.085218 23525 net.cpp:399] inception_4a/output_inception_4a/output_0_split -> inception_4a/output_inception_4a/output_0_split_3
I0403 18:48:19.085238 23525 net.cpp:399] inception_4a/output_inception_4a/output_0_split -> inception_4a/output_inception_4a/output_0_split_4
I0403 18:48:19.085331 23525 net.cpp:141] Setting up inception_4a/output_inception_4a/output_0_split
I0403 18:48:19.085355 23525 net.cpp:148] Top shape: 24 512 14 14 (2408448)
I0403 18:48:19.085372 23525 net.cpp:148] Top shape: 24 512 14 14 (2408448)
I0403 18:48:19.085389 23525 net.cpp:148] Top shape: 24 512 14 14 (2408448)
I0403 18:48:19.085405 23525 net.cpp:148] Top shape: 24 512 14 14 (2408448)
I0403 18:48:19.085420 23525 net.cpp:148] Top shape: 24 512 14 14 (2408448)
I0403 18:48:19.085433 23525 net.cpp:156] Memory required for data: 944714784
I0403 18:48:19.085448 23525 layer_factory.hpp:77] Creating layer loss1/ave_pool
I0403 18:48:19.085465 23525 net.cpp:91] Creating Layer loss1/ave_pool
I0403 18:48:19.085481 23525 net.cpp:425] loss1/ave_pool <- inception_4a/output_inception_4a/output_0_split_0
I0403 18:48:19.085501 23525 net.cpp:399] loss1/ave_pool -> loss1/ave_pool
I0403 18:48:19.085716 23525 net.cpp:141] Setting up loss1/ave_pool
I0403 18:48:19.085741 23525 net.cpp:148] Top shape: 24 512 4 4 (196608)
I0403 18:48:19.085757 23525 net.cpp:156] Memory required for data: 945501216
I0403 18:48:19.085772 23525 layer_factory.hpp:77] Creating layer loss1/conv
I0403 18:48:19.085793 23525 net.cpp:91] Creating Layer loss1/conv
I0403 18:48:19.085810 23525 net.cpp:425] loss1/conv <- loss1/ave_pool
I0403 18:48:19.085831 23525 net.cpp:399] loss1/conv -> loss1/conv
I0403 18:48:19.087224 23525 net.cpp:141] Setting up loss1/conv
I0403 18:48:19.087254 23525 net.cpp:148] Top shape: 24 128 4 4 (49152)
I0403 18:48:19.087283 23525 net.cpp:156] Memory required for data: 945697824
I0403 18:48:19.087303 23525 layer_factory.hpp:77] Creating layer loss1/relu_conv
I0403 18:48:19.087324 23525 net.cpp:91] Creating Layer loss1/relu_conv
I0403 18:48:19.087342 23525 net.cpp:425] loss1/relu_conv <- loss1/conv
I0403 18:48:19.087359 23525 net.cpp:386] loss1/relu_conv -> loss1/conv (in-place)
I0403 18:48:19.087641 23525 net.cpp:141] Setting up loss1/relu_conv
I0403 18:48:19.087667 23525 net.cpp:148] Top shape: 24 128 4 4 (49152)
I0403 18:48:19.087682 23525 net.cpp:156] Memory required for data: 945894432
I0403 18:48:19.087697 23525 layer_factory.hpp:77] Creating layer loss1/fc
I0403 18:48:19.087723 23525 net.cpp:91] Creating Layer loss1/fc
I0403 18:48:19.087741 23525 net.cpp:425] loss1/fc <- loss1/conv
I0403 18:48:19.087764 23525 net.cpp:399] loss1/fc -> loss1/fc
I0403 18:48:19.106843 23525 net.cpp:141] Setting up loss1/fc
I0403 18:48:19.106876 23525 net.cpp:148] Top shape: 24 1024 (24576)
I0403 18:48:19.106892 23525 net.cpp:156] Memory required for data: 945992736
I0403 18:48:19.106911 23525 layer_factory.hpp:77] Creating layer loss1/relu_fc
I0403 18:48:19.106930 23525 net.cpp:91] Creating Layer loss1/relu_fc
I0403 18:48:19.106946 23525 net.cpp:425] loss1/relu_fc <- loss1/fc
I0403 18:48:19.106966 23525 net.cpp:386] loss1/relu_fc -> loss1/fc (in-place)
I0403 18:48:19.107164 23525 net.cpp:141] Setting up loss1/relu_fc
I0403 18:48:19.107192 23525 net.cpp:148] Top shape: 24 1024 (24576)
I0403 18:48:19.107208 23525 net.cpp:156] Memory required for data: 946091040
I0403 18:48:19.107223 23525 layer_factory.hpp:77] Creating layer loss1/drop_fc
I0403 18:48:19.107249 23525 net.cpp:91] Creating Layer loss1/drop_fc
I0403 18:48:19.107269 23525 net.cpp:425] loss1/drop_fc <- loss1/fc
I0403 18:48:19.107286 23525 net.cpp:386] loss1/drop_fc -> loss1/fc (in-place)
I0403 18:48:19.107342 23525 net.cpp:141] Setting up loss1/drop_fc
I0403 18:48:19.107367 23525 net.cpp:148] Top shape: 24 1024 (24576)
I0403 18:48:19.107383 23525 net.cpp:156] Memory required for data: 946189344
I0403 18:48:19.107398 23525 layer_factory.hpp:77] Creating layer loss1/classifier_plantvillage
I0403 18:48:19.107416 23525 net.cpp:91] Creating Layer loss1/classifier_plantvillage
I0403 18:48:19.107432 23525 net.cpp:425] loss1/classifier_plantvillage <- loss1/fc
I0403 18:48:19.107455 23525 net.cpp:399] loss1/classifier_plantvillage -> loss1/classifier_plantvillage
I0403 18:48:19.108433 23525 net.cpp:141] Setting up loss1/classifier_plantvillage
I0403 18:48:19.108463 23525 net.cpp:148] Top shape: 24 38 (912)
I0403 18:48:19.108479 23525 net.cpp:156] Memory required for data: 946192992
I0403 18:48:19.108497 23525 layer_factory.hpp:77] Creating layer loss1/classifier_plantvillage_loss1/classifier_plantvillage_0_split
I0403 18:48:19.108520 23525 net.cpp:91] Creating Layer loss1/classifier_plantvillage_loss1/classifier_plantvillage_0_split
I0403 18:48:19.108542 23525 net.cpp:425] loss1/classifier_plantvillage_loss1/classifier_plantvillage_0_split <- loss1/classifier_plantvillage
I0403 18:48:19.108563 23525 net.cpp:399] loss1/classifier_plantvillage_loss1/classifier_plantvillage_0_split -> loss1/classifier_plantvillage_loss1/classifier_plantvillage_0_split_0
I0403 18:48:19.108587 23525 net.cpp:399] loss1/classifier_plantvillage_loss1/classifier_plantvillage_0_split -> loss1/classifier_plantvillage_loss1/classifier_plantvillage_0_split_1
I0403 18:48:19.108608 23525 net.cpp:399] loss1/classifier_plantvillage_loss1/classifier_plantvillage_0_split -> loss1/classifier_plantvillage_loss1/classifier_plantvillage_0_split_2
I0403 18:48:19.108691 23525 net.cpp:141] Setting up loss1/classifier_plantvillage_loss1/classifier_plantvillage_0_split
I0403 18:48:19.108716 23525 net.cpp:148] Top shape: 24 38 (912)
I0403 18:48:19.108732 23525 net.cpp:148] Top shape: 24 38 (912)
I0403 18:48:19.108747 23525 net.cpp:148] Top shape: 24 38 (912)
I0403 18:48:19.108762 23525 net.cpp:156] Memory required for data: 946203936
I0403 18:48:19.108777 23525 layer_factory.hpp:77] Creating layer inception_4b/1x1
I0403 18:48:19.108800 23525 net.cpp:91] Creating Layer inception_4b/1x1
I0403 18:48:19.108839 23525 net.cpp:425] inception_4b/1x1 <- inception_4a/output_inception_4a/output_0_split_1
I0403 18:48:19.108860 23525 net.cpp:399] inception_4b/1x1 -> inception_4b/1x1
I0403 18:48:19.110525 23525 net.cpp:141] Setting up inception_4b/1x1
I0403 18:48:19.110559 23525 net.cpp:148] Top shape: 24 160 14 14 (752640)
I0403 18:48:19.110576 23525 net.cpp:156] Memory required for data: 949214496
I0403 18:48:19.110594 23525 layer_factory.hpp:77] Creating layer inception_4b/relu_1x1
I0403 18:48:19.110615 23525 net.cpp:91] Creating Layer inception_4b/relu_1x1
I0403 18:48:19.110632 23525 net.cpp:425] inception_4b/relu_1x1 <- inception_4b/1x1
I0403 18:48:19.110649 23525 net.cpp:386] inception_4b/relu_1x1 -> inception_4b/1x1 (in-place)
I0403 18:48:19.110828 23525 net.cpp:141] Setting up inception_4b/relu_1x1
I0403 18:48:19.110853 23525 net.cpp:148] Top shape: 24 160 14 14 (752640)
I0403 18:48:19.110868 23525 net.cpp:156] Memory required for data: 952225056
I0403 18:48:19.110883 23525 layer_factory.hpp:77] Creating layer inception_4b/3x3_reduce
I0403 18:48:19.110905 23525 net.cpp:91] Creating Layer inception_4b/3x3_reduce
I0403 18:48:19.110924 23525 net.cpp:425] inception_4b/3x3_reduce <- inception_4a/output_inception_4a/output_0_split_2
I0403 18:48:19.110944 23525 net.cpp:399] inception_4b/3x3_reduce -> inception_4b/3x3_reduce
I0403 18:48:19.112283 23525 net.cpp:141] Setting up inception_4b/3x3_reduce
I0403 18:48:19.112314 23525 net.cpp:148] Top shape: 24 112 14 14 (526848)
I0403 18:48:19.112330 23525 net.cpp:156] Memory required for data: 954332448
I0403 18:48:19.112349 23525 layer_factory.hpp:77] Creating layer inception_4b/relu_3x3_reduce
I0403 18:48:19.112366 23525 net.cpp:91] Creating Layer inception_4b/relu_3x3_reduce
I0403 18:48:19.112382 23525 net.cpp:425] inception_4b/relu_3x3_reduce <- inception_4b/3x3_reduce
I0403 18:48:19.112402 23525 net.cpp:386] inception_4b/relu_3x3_reduce -> inception_4b/3x3_reduce (in-place)
I0403 18:48:19.112690 23525 net.cpp:141] Setting up inception_4b/relu_3x3_reduce
I0403 18:48:19.112717 23525 net.cpp:148] Top shape: 24 112 14 14 (526848)
I0403 18:48:19.112732 23525 net.cpp:156] Memory required for data: 956439840
I0403 18:48:19.112746 23525 layer_factory.hpp:77] Creating layer inception_4b/3x3
I0403 18:48:19.112769 23525 net.cpp:91] Creating Layer inception_4b/3x3
I0403 18:48:19.112787 23525 net.cpp:425] inception_4b/3x3 <- inception_4b/3x3_reduce
I0403 18:48:19.112808 23525 net.cpp:399] inception_4b/3x3 -> inception_4b/3x3
I0403 18:48:19.115789 23525 net.cpp:141] Setting up inception_4b/3x3
I0403 18:48:19.115818 23525 net.cpp:148] Top shape: 24 224 14 14 (1053696)
I0403 18:48:19.115833 23525 net.cpp:156] Memory required for data: 960654624
I0403 18:48:19.115851 23525 layer_factory.hpp:77] Creating layer inception_4b/relu_3x3
I0403 18:48:19.115872 23525 net.cpp:91] Creating Layer inception_4b/relu_3x3
I0403 18:48:19.115892 23525 net.cpp:425] inception_4b/relu_3x3 <- inception_4b/3x3
I0403 18:48:19.115911 23525 net.cpp:386] inception_4b/relu_3x3 -> inception_4b/3x3 (in-place)
I0403 18:48:19.116089 23525 net.cpp:141] Setting up inception_4b/relu_3x3
I0403 18:48:19.116117 23525 net.cpp:148] Top shape: 24 224 14 14 (1053696)
I0403 18:48:19.116132 23525 net.cpp:156] Memory required for data: 964869408
I0403 18:48:19.116148 23525 layer_factory.hpp:77] Creating layer inception_4b/5x5_reduce
I0403 18:48:19.116168 23525 net.cpp:91] Creating Layer inception_4b/5x5_reduce
I0403 18:48:19.116186 23525 net.cpp:425] inception_4b/5x5_reduce <- inception_4a/output_inception_4a/output_0_split_3
I0403 18:48:19.116209 23525 net.cpp:399] inception_4b/5x5_reduce -> inception_4b/5x5_reduce
I0403 18:48:19.117296 23525 net.cpp:141] Setting up inception_4b/5x5_reduce
I0403 18:48:19.117326 23525 net.cpp:148] Top shape: 24 24 14 14 (112896)
I0403 18:48:19.117343 23525 net.cpp:156] Memory required for data: 965320992
I0403 18:48:19.117362 23525 layer_factory.hpp:77] Creating layer inception_4b/relu_5x5_reduce
I0403 18:48:19.117379 23525 net.cpp:91] Creating Layer inception_4b/relu_5x5_reduce
I0403 18:48:19.117410 23525 net.cpp:425] inception_4b/relu_5x5_reduce <- inception_4b/5x5_reduce
I0403 18:48:19.117430 23525 net.cpp:386] inception_4b/relu_5x5_reduce -> inception_4b/5x5_reduce (in-place)
I0403 18:48:19.117621 23525 net.cpp:141] Setting up inception_4b/relu_5x5_reduce
I0403 18:48:19.117646 23525 net.cpp:148] Top shape: 24 24 14 14 (112896)
I0403 18:48:19.117661 23525 net.cpp:156] Memory required for data: 965772576
I0403 18:48:19.117676 23525 layer_factory.hpp:77] Creating layer inception_4b/5x5
I0403 18:48:19.117702 23525 net.cpp:91] Creating Layer inception_4b/5x5
I0403 18:48:19.117720 23525 net.cpp:425] inception_4b/5x5 <- inception_4b/5x5_reduce
I0403 18:48:19.117741 23525 net.cpp:399] inception_4b/5x5 -> inception_4b/5x5
I0403 18:48:19.118958 23525 net.cpp:141] Setting up inception_4b/5x5
I0403 18:48:19.118986 23525 net.cpp:148] Top shape: 24 64 14 14 (301056)
I0403 18:48:19.119001 23525 net.cpp:156] Memory required for data: 966976800
I0403 18:48:19.119019 23525 layer_factory.hpp:77] Creating layer inception_4b/relu_5x5
I0403 18:48:19.119040 23525 net.cpp:91] Creating Layer inception_4b/relu_5x5
I0403 18:48:19.119058 23525 net.cpp:425] inception_4b/relu_5x5 <- inception_4b/5x5
I0403 18:48:19.119076 23525 net.cpp:386] inception_4b/relu_5x5 -> inception_4b/5x5 (in-place)
I0403 18:48:19.119355 23525 net.cpp:141] Setting up inception_4b/relu_5x5
I0403 18:48:19.119381 23525 net.cpp:148] Top shape: 24 64 14 14 (301056)
I0403 18:48:19.119396 23525 net.cpp:156] Memory required for data: 968181024
I0403 18:48:19.119411 23525 layer_factory.hpp:77] Creating layer inception_4b/pool
I0403 18:48:19.119434 23525 net.cpp:91] Creating Layer inception_4b/pool
I0403 18:48:19.119452 23525 net.cpp:425] inception_4b/pool <- inception_4a/output_inception_4a/output_0_split_4
I0403 18:48:19.119472 23525 net.cpp:399] inception_4b/pool -> inception_4b/pool
I0403 18:48:19.119541 23525 net.cpp:141] Setting up inception_4b/pool
I0403 18:48:19.119566 23525 net.cpp:148] Top shape: 24 512 14 14 (2408448)
I0403 18:48:19.119580 23525 net.cpp:156] Memory required for data: 977814816
I0403 18:48:19.119596 23525 layer_factory.hpp:77] Creating layer inception_4b/pool_proj
I0403 18:48:19.119619 23525 net.cpp:91] Creating Layer inception_4b/pool_proj
I0403 18:48:19.119637 23525 net.cpp:425] inception_4b/pool_proj <- inception_4b/pool
I0403 18:48:19.119657 23525 net.cpp:399] inception_4b/pool_proj -> inception_4b/pool_proj
I0403 18:48:19.120853 23525 net.cpp:141] Setting up inception_4b/pool_proj
I0403 18:48:19.120883 23525 net.cpp:148] Top shape: 24 64 14 14 (301056)
I0403 18:48:19.120899 23525 net.cpp:156] Memory required for data: 979019040
I0403 18:48:19.120918 23525 layer_factory.hpp:77] Creating layer inception_4b/relu_pool_proj
I0403 18:48:19.120936 23525 net.cpp:91] Creating Layer inception_4b/relu_pool_proj
I0403 18:48:19.120952 23525 net.cpp:425] inception_4b/relu_pool_proj <- inception_4b/pool_proj
I0403 18:48:19.120972 23525 net.cpp:386] inception_4b/relu_pool_proj -> inception_4b/pool_proj (in-place)
I0403 18:48:19.121152 23525 net.cpp:141] Setting up inception_4b/relu_pool_proj
I0403 18:48:19.121177 23525 net.cpp:148] Top shape: 24 64 14 14 (301056)
I0403 18:48:19.121192 23525 net.cpp:156] Memory required for data: 980223264
I0403 18:48:19.121207 23525 layer_factory.hpp:77] Creating layer inception_4b/output
I0403 18:48:19.121224 23525 net.cpp:91] Creating Layer inception_4b/output
I0403 18:48:19.121240 23525 net.cpp:425] inception_4b/output <- inception_4b/1x1
I0403 18:48:19.121258 23525 net.cpp:425] inception_4b/output <- inception_4b/3x3
I0403 18:48:19.121273 23525 net.cpp:425] inception_4b/output <- inception_4b/5x5
I0403 18:48:19.121289 23525 net.cpp:425] inception_4b/output <- inception_4b/pool_proj
I0403 18:48:19.121309 23525 net.cpp:399] inception_4b/output -> inception_4b/output
I0403 18:48:19.121354 23525 net.cpp:141] Setting up inception_4b/output
I0403 18:48:19.121379 23525 net.cpp:148] Top shape: 24 512 14 14 (2408448)
I0403 18:48:19.121394 23525 net.cpp:156] Memory required for data: 989857056
I0403 18:48:19.121428 23525 layer_factory.hpp:77] Creating layer inception_4b/output_inception_4b/output_0_split
I0403 18:48:19.121446 23525 net.cpp:91] Creating Layer inception_4b/output_inception_4b/output_0_split
I0403 18:48:19.121461 23525 net.cpp:425] inception_4b/output_inception_4b/output_0_split <- inception_4b/output
I0403 18:48:19.121479 23525 net.cpp:399] inception_4b/output_inception_4b/output_0_split -> inception_4b/output_inception_4b/output_0_split_0
I0403 18:48:19.121501 23525 net.cpp:399] inception_4b/output_inception_4b/output_0_split -> inception_4b/output_inception_4b/output_0_split_1
I0403 18:48:19.121523 23525 net.cpp:399] inception_4b/output_inception_4b/output_0_split -> inception_4b/output_inception_4b/output_0_split_2
I0403 18:48:19.121549 23525 net.cpp:399] inception_4b/output_inception_4b/output_0_split -> inception_4b/output_inception_4b/output_0_split_3
I0403 18:48:19.121636 23525 net.cpp:141] Setting up inception_4b/output_inception_4b/output_0_split
I0403 18:48:19.121660 23525 net.cpp:148] Top shape: 24 512 14 14 (2408448)
I0403 18:48:19.121676 23525 net.cpp:148] Top shape: 24 512 14 14 (2408448)
I0403 18:48:19.121692 23525 net.cpp:148] Top shape: 24 512 14 14 (2408448)
I0403 18:48:19.121707 23525 net.cpp:148] Top shape: 24 512 14 14 (2408448)
I0403 18:48:19.121721 23525 net.cpp:156] Memory required for data: 1028392224
I0403 18:48:19.121736 23525 layer_factory.hpp:77] Creating layer inception_4c/1x1
I0403 18:48:19.121757 23525 net.cpp:91] Creating Layer inception_4c/1x1
I0403 18:48:19.121775 23525 net.cpp:425] inception_4c/1x1 <- inception_4b/output_inception_4b/output_0_split_0
I0403 18:48:19.121798 23525 net.cpp:399] inception_4c/1x1 -> inception_4c/1x1
I0403 18:48:19.123224 23525 net.cpp:141] Setting up inception_4c/1x1
I0403 18:48:19.123251 23525 net.cpp:148] Top shape: 24 128 14 14 (602112)
I0403 18:48:19.123268 23525 net.cpp:156] Memory required for data: 1030800672
I0403 18:48:19.123287 23525 layer_factory.hpp:77] Creating layer inception_4c/relu_1x1
I0403 18:48:19.123306 23525 net.cpp:91] Creating Layer inception_4c/relu_1x1
I0403 18:48:19.123322 23525 net.cpp:425] inception_4c/relu_1x1 <- inception_4c/1x1
I0403 18:48:19.123342 23525 net.cpp:386] inception_4c/relu_1x1 -> inception_4c/1x1 (in-place)
I0403 18:48:19.123520 23525 net.cpp:141] Setting up inception_4c/relu_1x1
I0403 18:48:19.123549 23525 net.cpp:148] Top shape: 24 128 14 14 (602112)
I0403 18:48:19.123565 23525 net.cpp:156] Memory required for data: 1033209120
I0403 18:48:19.123580 23525 layer_factory.hpp:77] Creating layer inception_4c/3x3_reduce
I0403 18:48:19.123602 23525 net.cpp:91] Creating Layer inception_4c/3x3_reduce
I0403 18:48:19.123620 23525 net.cpp:425] inception_4c/3x3_reduce <- inception_4b/output_inception_4b/output_0_split_1
I0403 18:48:19.123644 23525 net.cpp:399] inception_4c/3x3_reduce -> inception_4c/3x3_reduce
I0403 18:48:19.125625 23525 net.cpp:141] Setting up inception_4c/3x3_reduce
I0403 18:48:19.125654 23525 net.cpp:148] Top shape: 24 128 14 14 (602112)
I0403 18:48:19.125672 23525 net.cpp:156] Memory required for data: 1035617568
I0403 18:48:19.125692 23525 layer_factory.hpp:77] Creating layer inception_4c/relu_3x3_reduce
I0403 18:48:19.125710 23525 net.cpp:91] Creating Layer inception_4c/relu_3x3_reduce
I0403 18:48:19.125726 23525 net.cpp:425] inception_4c/relu_3x3_reduce <- inception_4c/3x3_reduce
I0403 18:48:19.125744 23525 net.cpp:386] inception_4c/relu_3x3_reduce -> inception_4c/3x3_reduce (in-place)
I0403 18:48:19.126029 23525 net.cpp:141] Setting up inception_4c/relu_3x3_reduce
I0403 18:48:19.126055 23525 net.cpp:148] Top shape: 24 128 14 14 (602112)
I0403 18:48:19.126073 23525 net.cpp:156] Memory required for data: 1038026016
I0403 18:48:19.126090 23525 layer_factory.hpp:77] Creating layer inception_4c/3x3
I0403 18:48:19.126109 23525 net.cpp:91] Creating Layer inception_4c/3x3
I0403 18:48:19.126127 23525 net.cpp:425] inception_4c/3x3 <- inception_4c/3x3_reduce
I0403 18:48:19.126148 23525 net.cpp:399] inception_4c/3x3 -> inception_4c/3x3
I0403 18:48:19.129763 23525 net.cpp:141] Setting up inception_4c/3x3
I0403 18:48:19.129811 23525 net.cpp:148] Top shape: 24 256 14 14 (1204224)
I0403 18:48:19.129828 23525 net.cpp:156] Memory required for data: 1042842912
I0403 18:48:19.129859 23525 layer_factory.hpp:77] Creating layer inception_4c/relu_3x3
I0403 18:48:19.129880 23525 net.cpp:91] Creating Layer inception_4c/relu_3x3
I0403 18:48:19.129897 23525 net.cpp:425] inception_4c/relu_3x3 <- inception_4c/3x3
I0403 18:48:19.129917 23525 net.cpp:386] inception_4c/relu_3x3 -> inception_4c/3x3 (in-place)
I0403 18:48:19.130096 23525 net.cpp:141] Setting up inception_4c/relu_3x3
I0403 18:48:19.130123 23525 net.cpp:148] Top shape: 24 256 14 14 (1204224)
I0403 18:48:19.130138 23525 net.cpp:156] Memory required for data: 1047659808
I0403 18:48:19.130153 23525 layer_factory.hpp:77] Creating layer inception_4c/5x5_reduce
I0403 18:48:19.130177 23525 net.cpp:91] Creating Layer inception_4c/5x5_reduce
I0403 18:48:19.130195 23525 net.cpp:425] inception_4c/5x5_reduce <- inception_4b/output_inception_4b/output_0_split_2
I0403 18:48:19.130214 23525 net.cpp:399] inception_4c/5x5_reduce -> inception_4c/5x5_reduce
I0403 18:48:19.131300 23525 net.cpp:141] Setting up inception_4c/5x5_reduce
I0403 18:48:19.131331 23525 net.cpp:148] Top shape: 24 24 14 14 (112896)
I0403 18:48:19.131347 23525 net.cpp:156] Memory required for data: 1048111392
I0403 18:48:19.131366 23525 layer_factory.hpp:77] Creating layer inception_4c/relu_5x5_reduce
I0403 18:48:19.131384 23525 net.cpp:91] Creating Layer inception_4c/relu_5x5_reduce
I0403 18:48:19.131400 23525 net.cpp:425] inception_4c/relu_5x5_reduce <- inception_4c/5x5_reduce
I0403 18:48:19.131417 23525 net.cpp:386] inception_4c/relu_5x5_reduce -> inception_4c/5x5_reduce (in-place)
I0403 18:48:19.131609 23525 net.cpp:141] Setting up inception_4c/relu_5x5_reduce
I0403 18:48:19.131634 23525 net.cpp:148] Top shape: 24 24 14 14 (112896)
I0403 18:48:19.131649 23525 net.cpp:156] Memory required for data: 1048562976
I0403 18:48:19.131664 23525 layer_factory.hpp:77] Creating layer inception_4c/5x5
I0403 18:48:19.131686 23525 net.cpp:91] Creating Layer inception_4c/5x5
I0403 18:48:19.131705 23525 net.cpp:425] inception_4c/5x5 <- inception_4c/5x5_reduce
I0403 18:48:19.131726 23525 net.cpp:399] inception_4c/5x5 -> inception_4c/5x5
I0403 18:48:19.132964 23525 net.cpp:141] Setting up inception_4c/5x5
I0403 18:48:19.132992 23525 net.cpp:148] Top shape: 24 64 14 14 (301056)
I0403 18:48:19.133008 23525 net.cpp:156] Memory required for data: 1049767200
I0403 18:48:19.133026 23525 layer_factory.hpp:77] Creating layer inception_4c/relu_5x5
I0403 18:48:19.133044 23525 net.cpp:91] Creating Layer inception_4c/relu_5x5
I0403 18:48:19.133061 23525 net.cpp:425] inception_4c/relu_5x5 <- inception_4c/5x5
I0403 18:48:19.133081 23525 net.cpp:386] inception_4c/relu_5x5 -> inception_4c/5x5 (in-place)
I0403 18:48:19.133373 23525 net.cpp:141] Setting up inception_4c/relu_5x5
I0403 18:48:19.133399 23525 net.cpp:148] Top shape: 24 64 14 14 (301056)
I0403 18:48:19.133414 23525 net.cpp:156] Memory required for data: 1050971424
I0403 18:48:19.133429 23525 layer_factory.hpp:77] Creating layer inception_4c/pool
I0403 18:48:19.133446 23525 net.cpp:91] Creating Layer inception_4c/pool
I0403 18:48:19.133462 23525 net.cpp:425] inception_4c/pool <- inception_4b/output_inception_4b/output_0_split_3
I0403 18:48:19.133482 23525 net.cpp:399] inception_4c/pool -> inception_4c/pool
I0403 18:48:19.133553 23525 net.cpp:141] Setting up inception_4c/pool
I0403 18:48:19.133576 23525 net.cpp:148] Top shape: 24 512 14 14 (2408448)
I0403 18:48:19.133591 23525 net.cpp:156] Memory required for data: 1060605216
I0403 18:48:19.133607 23525 layer_factory.hpp:77] Creating layer inception_4c/pool_proj
I0403 18:48:19.133631 23525 net.cpp:91] Creating Layer inception_4c/pool_proj
I0403 18:48:19.133649 23525 net.cpp:425] inception_4c/pool_proj <- inception_4c/pool
I0403 18:48:19.133667 23525 net.cpp:399] inception_4c/pool_proj -> inception_4c/pool_proj
I0403 18:48:19.134891 23525 net.cpp:141] Setting up inception_4c/pool_proj
I0403 18:48:19.134920 23525 net.cpp:148] Top shape: 24 64 14 14 (301056)
I0403 18:48:19.134949 23525 net.cpp:156] Memory required for data: 1061809440
I0403 18:48:19.134969 23525 layer_factory.hpp:77] Creating layer inception_4c/relu_pool_proj
I0403 18:48:19.134987 23525 net.cpp:91] Creating Layer inception_4c/relu_pool_proj
I0403 18:48:19.135004 23525 net.cpp:425] inception_4c/relu_pool_proj <- inception_4c/pool_proj
I0403 18:48:19.135023 23525 net.cpp:386] inception_4c/relu_pool_proj -> inception_4c/pool_proj (in-place)
I0403 18:48:19.135205 23525 net.cpp:141] Setting up inception_4c/relu_pool_proj
I0403 18:48:19.135231 23525 net.cpp:148] Top shape: 24 64 14 14 (301056)
I0403 18:48:19.135244 23525 net.cpp:156] Memory required for data: 1063013664
I0403 18:48:19.135260 23525 layer_factory.hpp:77] Creating layer inception_4c/output
I0403 18:48:19.135277 23525 net.cpp:91] Creating Layer inception_4c/output
I0403 18:48:19.135293 23525 net.cpp:425] inception_4c/output <- inception_4c/1x1
I0403 18:48:19.135309 23525 net.cpp:425] inception_4c/output <- inception_4c/3x3
I0403 18:48:19.135325 23525 net.cpp:425] inception_4c/output <- inception_4c/5x5
I0403 18:48:19.135342 23525 net.cpp:425] inception_4c/output <- inception_4c/pool_proj
I0403 18:48:19.135362 23525 net.cpp:399] inception_4c/output -> inception_4c/output
I0403 18:48:19.135409 23525 net.cpp:141] Setting up inception_4c/output
I0403 18:48:19.135434 23525 net.cpp:148] Top shape: 24 512 14 14 (2408448)
I0403 18:48:19.135450 23525 net.cpp:156] Memory required for data: 1072647456
I0403 18:48:19.135464 23525 layer_factory.hpp:77] Creating layer inception_4c/output_inception_4c/output_0_split
I0403 18:48:19.135481 23525 net.cpp:91] Creating Layer inception_4c/output_inception_4c/output_0_split
I0403 18:48:19.135496 23525 net.cpp:425] inception_4c/output_inception_4c/output_0_split <- inception_4c/output
I0403 18:48:19.135514 23525 net.cpp:399] inception_4c/output_inception_4c/output_0_split -> inception_4c/output_inception_4c/output_0_split_0
I0403 18:48:19.135534 23525 net.cpp:399] inception_4c/output_inception_4c/output_0_split -> inception_4c/output_inception_4c/output_0_split_1
I0403 18:48:19.135571 23525 net.cpp:399] inception_4c/output_inception_4c/output_0_split -> inception_4c/output_inception_4c/output_0_split_2
I0403 18:48:19.135593 23525 net.cpp:399] inception_4c/output_inception_4c/output_0_split -> inception_4c/output_inception_4c/output_0_split_3
I0403 18:48:19.135682 23525 net.cpp:141] Setting up inception_4c/output_inception_4c/output_0_split
I0403 18:48:19.135706 23525 net.cpp:148] Top shape: 24 512 14 14 (2408448)
I0403 18:48:19.135722 23525 net.cpp:148] Top shape: 24 512 14 14 (2408448)
I0403 18:48:19.135737 23525 net.cpp:148] Top shape: 24 512 14 14 (2408448)
I0403 18:48:19.135752 23525 net.cpp:148] Top shape: 24 512 14 14 (2408448)
I0403 18:48:19.135766 23525 net.cpp:156] Memory required for data: 1111182624
I0403 18:48:19.135781 23525 layer_factory.hpp:77] Creating layer inception_4d/1x1
I0403 18:48:19.135802 23525 net.cpp:91] Creating Layer inception_4d/1x1
I0403 18:48:19.135820 23525 net.cpp:425] inception_4d/1x1 <- inception_4c/output_inception_4c/output_0_split_0
I0403 18:48:19.135840 23525 net.cpp:399] inception_4d/1x1 -> inception_4d/1x1
I0403 18:48:19.137223 23525 net.cpp:141] Setting up inception_4d/1x1
I0403 18:48:19.137250 23525 net.cpp:148] Top shape: 24 112 14 14 (526848)
I0403 18:48:19.137266 23525 net.cpp:156] Memory required for data: 1113290016
I0403 18:48:19.137284 23525 layer_factory.hpp:77] Creating layer inception_4d/relu_1x1
I0403 18:48:19.137308 23525 net.cpp:91] Creating Layer inception_4d/relu_1x1
I0403 18:48:19.137326 23525 net.cpp:425] inception_4d/relu_1x1 <- inception_4d/1x1
I0403 18:48:19.137344 23525 net.cpp:386] inception_4d/relu_1x1 -> inception_4d/1x1 (in-place)
I0403 18:48:19.137527 23525 net.cpp:141] Setting up inception_4d/relu_1x1
I0403 18:48:19.137558 23525 net.cpp:148] Top shape: 24 112 14 14 (526848)
I0403 18:48:19.137574 23525 net.cpp:156] Memory required for data: 1115397408
I0403 18:48:19.137589 23525 layer_factory.hpp:77] Creating layer inception_4d/3x3_reduce
I0403 18:48:19.137625 23525 net.cpp:91] Creating Layer inception_4d/3x3_reduce
I0403 18:48:19.137645 23525 net.cpp:425] inception_4d/3x3_reduce <- inception_4c/output_inception_4c/output_0_split_1
I0403 18:48:19.137665 23525 net.cpp:399] inception_4d/3x3_reduce -> inception_4d/3x3_reduce
I0403 18:48:19.139180 23525 net.cpp:141] Setting up inception_4d/3x3_reduce
I0403 18:48:19.139207 23525 net.cpp:148] Top shape: 24 144 14 14 (677376)
I0403 18:48:19.139222 23525 net.cpp:156] Memory required for data: 1118106912
I0403 18:48:19.139241 23525 layer_factory.hpp:77] Creating layer inception_4d/relu_3x3_reduce
I0403 18:48:19.139262 23525 net.cpp:91] Creating Layer inception_4d/relu_3x3_reduce
I0403 18:48:19.139279 23525 net.cpp:425] inception_4d/relu_3x3_reduce <- inception_4d/3x3_reduce
I0403 18:48:19.139297 23525 net.cpp:386] inception_4d/relu_3x3_reduce -> inception_4d/3x3_reduce (in-place)
I0403 18:48:19.139595 23525 net.cpp:141] Setting up inception_4d/relu_3x3_reduce
I0403 18:48:19.139622 23525 net.cpp:148] Top shape: 24 144 14 14 (677376)
I0403 18:48:19.139636 23525 net.cpp:156] Memory required for data: 1120816416
I0403 18:48:19.139652 23525 layer_factory.hpp:77] Creating layer inception_4d/3x3
I0403 18:48:19.139674 23525 net.cpp:91] Creating Layer inception_4d/3x3
I0403 18:48:19.139693 23525 net.cpp:425] inception_4d/3x3 <- inception_4d/3x3_reduce
I0403 18:48:19.139715 23525 net.cpp:399] inception_4d/3x3 -> inception_4d/3x3
I0403 18:48:19.144090 23525 net.cpp:141] Setting up inception_4d/3x3
I0403 18:48:19.144120 23525 net.cpp:148] Top shape: 24 288 14 14 (1354752)
I0403 18:48:19.144137 23525 net.cpp:156] Memory required for data: 1126235424
I0403 18:48:19.144156 23525 layer_factory.hpp:77] Creating layer inception_4d/relu_3x3
I0403 18:48:19.144177 23525 net.cpp:91] Creating Layer inception_4d/relu_3x3
I0403 18:48:19.144194 23525 net.cpp:425] inception_4d/relu_3x3 <- inception_4d/3x3
I0403 18:48:19.144212 23525 net.cpp:386] inception_4d/relu_3x3 -> inception_4d/3x3 (in-place)
I0403 18:48:19.144404 23525 net.cpp:141] Setting up inception_4d/relu_3x3
I0403 18:48:19.144435 23525 net.cpp:148] Top shape: 24 288 14 14 (1354752)
I0403 18:48:19.144453 23525 net.cpp:156] Memory required for data: 1131654432
I0403 18:48:19.144467 23525 layer_factory.hpp:77] Creating layer inception_4d/5x5_reduce
I0403 18:48:19.144490 23525 net.cpp:91] Creating Layer inception_4d/5x5_reduce
I0403 18:48:19.144508 23525 net.cpp:425] inception_4d/5x5_reduce <- inception_4c/output_inception_4c/output_0_split_2
I0403 18:48:19.144528 23525 net.cpp:399] inception_4d/5x5_reduce -> inception_4d/5x5_reduce
I0403 18:48:19.145728 23525 net.cpp:141] Setting up inception_4d/5x5_reduce
I0403 18:48:19.145757 23525 net.cpp:148] Top shape: 24 32 14 14 (150528)
I0403 18:48:19.145773 23525 net.cpp:156] Memory required for data: 1132256544
I0403 18:48:19.145792 23525 layer_factory.hpp:77] Creating layer inception_4d/relu_5x5_reduce
I0403 18:48:19.145812 23525 net.cpp:91] Creating Layer inception_4d/relu_5x5_reduce
I0403 18:48:19.145830 23525 net.cpp:425] inception_4d/relu_5x5_reduce <- inception_4d/5x5_reduce
I0403 18:48:19.145848 23525 net.cpp:386] inception_4d/relu_5x5_reduce -> inception_4d/5x5_reduce (in-place)
I0403 18:48:19.146040 23525 net.cpp:141] Setting up inception_4d/relu_5x5_reduce
I0403 18:48:19.146070 23525 net.cpp:148] Top shape: 24 32 14 14 (150528)
I0403 18:48:19.146086 23525 net.cpp:156] Memory required for data: 1132858656
I0403 18:48:19.146102 23525 layer_factory.hpp:77] Creating layer inception_4d/5x5
I0403 18:48:19.146124 23525 net.cpp:91] Creating Layer inception_4d/5x5
I0403 18:48:19.146143 23525 net.cpp:425] inception_4d/5x5 <- inception_4d/5x5_reduce
I0403 18:48:19.146163 23525 net.cpp:399] inception_4d/5x5 -> inception_4d/5x5
I0403 18:48:19.147683 23525 net.cpp:141] Setting up inception_4d/5x5
I0403 18:48:19.147714 23525 net.cpp:148] Top shape: 24 64 14 14 (301056)
I0403 18:48:19.147732 23525 net.cpp:156] Memory required for data: 1134062880
I0403 18:48:19.147750 23525 layer_factory.hpp:77] Creating layer inception_4d/relu_5x5
I0403 18:48:19.147784 23525 net.cpp:91] Creating Layer inception_4d/relu_5x5
I0403 18:48:19.147802 23525 net.cpp:425] inception_4d/relu_5x5 <- inception_4d/5x5
I0403 18:48:19.147824 23525 net.cpp:386] inception_4d/relu_5x5 -> inception_4d/5x5 (in-place)
I0403 18:48:19.148133 23525 net.cpp:141] Setting up inception_4d/relu_5x5
I0403 18:48:19.148161 23525 net.cpp:148] Top shape: 24 64 14 14 (301056)
I0403 18:48:19.148176 23525 net.cpp:156] Memory required for data: 1135267104
I0403 18:48:19.148191 23525 layer_factory.hpp:77] Creating layer inception_4d/pool
I0403 18:48:19.148211 23525 net.cpp:91] Creating Layer inception_4d/pool
I0403 18:48:19.148226 23525 net.cpp:425] inception_4d/pool <- inception_4c/output_inception_4c/output_0_split_3
I0403 18:48:19.148247 23525 net.cpp:399] inception_4d/pool -> inception_4d/pool
I0403 18:48:19.148321 23525 net.cpp:141] Setting up inception_4d/pool
I0403 18:48:19.148346 23525 net.cpp:148] Top shape: 24 512 14 14 (2408448)
I0403 18:48:19.148361 23525 net.cpp:156] Memory required for data: 1144900896
I0403 18:48:19.148375 23525 layer_factory.hpp:77] Creating layer inception_4d/pool_proj
I0403 18:48:19.148401 23525 net.cpp:91] Creating Layer inception_4d/pool_proj
I0403 18:48:19.148418 23525 net.cpp:425] inception_4d/pool_proj <- inception_4d/pool
I0403 18:48:19.148438 23525 net.cpp:399] inception_4d/pool_proj -> inception_4d/pool_proj
I0403 18:48:19.150272 23525 net.cpp:141] Setting up inception_4d/pool_proj
I0403 18:48:19.150302 23525 net.cpp:148] Top shape: 24 64 14 14 (301056)
I0403 18:48:19.150320 23525 net.cpp:156] Memory required for data: 1146105120
I0403 18:48:19.150338 23525 layer_factory.hpp:77] Creating layer inception_4d/relu_pool_proj
I0403 18:48:19.150360 23525 net.cpp:91] Creating Layer inception_4d/relu_pool_proj
I0403 18:48:19.150378 23525 net.cpp:425] inception_4d/relu_pool_proj <- inception_4d/pool_proj
I0403 18:48:19.150396 23525 net.cpp:386] inception_4d/relu_pool_proj -> inception_4d/pool_proj (in-place)
I0403 18:48:19.150591 23525 net.cpp:141] Setting up inception_4d/relu_pool_proj
I0403 18:48:19.150620 23525 net.cpp:148] Top shape: 24 64 14 14 (301056)
I0403 18:48:19.150636 23525 net.cpp:156] Memory required for data: 1147309344
I0403 18:48:19.150651 23525 layer_factory.hpp:77] Creating layer inception_4d/output
I0403 18:48:19.150668 23525 net.cpp:91] Creating Layer inception_4d/output
I0403 18:48:19.150684 23525 net.cpp:425] inception_4d/output <- inception_4d/1x1
I0403 18:48:19.150702 23525 net.cpp:425] inception_4d/output <- inception_4d/3x3
I0403 18:48:19.150719 23525 net.cpp:425] inception_4d/output <- inception_4d/5x5
I0403 18:48:19.150737 23525 net.cpp:425] inception_4d/output <- inception_4d/pool_proj
I0403 18:48:19.150758 23525 net.cpp:399] inception_4d/output -> inception_4d/output
I0403 18:48:19.150806 23525 net.cpp:141] Setting up inception_4d/output
I0403 18:48:19.150830 23525 net.cpp:148] Top shape: 24 528 14 14 (2483712)
I0403 18:48:19.150846 23525 net.cpp:156] Memory required for data: 1157244192
I0403 18:48:19.150861 23525 layer_factory.hpp:77] Creating layer inception_4d/output_inception_4d/output_0_split
I0403 18:48:19.150882 23525 net.cpp:91] Creating Layer inception_4d/output_inception_4d/output_0_split
I0403 18:48:19.150899 23525 net.cpp:425] inception_4d/output_inception_4d/output_0_split <- inception_4d/output
I0403 18:48:19.150918 23525 net.cpp:399] inception_4d/output_inception_4d/output_0_split -> inception_4d/output_inception_4d/output_0_split_0
I0403 18:48:19.150938 23525 net.cpp:399] inception_4d/output_inception_4d/output_0_split -> inception_4d/output_inception_4d/output_0_split_1
I0403 18:48:19.150964 23525 net.cpp:399] inception_4d/output_inception_4d/output_0_split -> inception_4d/output_inception_4d/output_0_split_2
I0403 18:48:19.150986 23525 net.cpp:399] inception_4d/output_inception_4d/output_0_split -> inception_4d/output_inception_4d/output_0_split_3
I0403 18:48:19.151007 23525 net.cpp:399] inception_4d/output_inception_4d/output_0_split -> inception_4d/output_inception_4d/output_0_split_4
I0403 18:48:19.151113 23525 net.cpp:141] Setting up inception_4d/output_inception_4d/output_0_split
I0403 18:48:19.151149 23525 net.cpp:148] Top shape: 24 528 14 14 (2483712)
I0403 18:48:19.151167 23525 net.cpp:148] Top shape: 24 528 14 14 (2483712)
I0403 18:48:19.151183 23525 net.cpp:148] Top shape: 24 528 14 14 (2483712)
I0403 18:48:19.151198 23525 net.cpp:148] Top shape: 24 528 14 14 (2483712)
I0403 18:48:19.151214 23525 net.cpp:148] Top shape: 24 528 14 14 (2483712)
I0403 18:48:19.151228 23525 net.cpp:156] Memory required for data: 1206918432
I0403 18:48:19.151243 23525 layer_factory.hpp:77] Creating layer loss2/ave_pool
I0403 18:48:19.151262 23525 net.cpp:91] Creating Layer loss2/ave_pool
I0403 18:48:19.151278 23525 net.cpp:425] loss2/ave_pool <- inception_4d/output_inception_4d/output_0_split_0
I0403 18:48:19.151299 23525 net.cpp:399] loss2/ave_pool -> loss2/ave_pool
I0403 18:48:19.151626 23525 net.cpp:141] Setting up loss2/ave_pool
I0403 18:48:19.151654 23525 net.cpp:148] Top shape: 24 528 4 4 (202752)
I0403 18:48:19.151669 23525 net.cpp:156] Memory required for data: 1207729440
I0403 18:48:19.151685 23525 layer_factory.hpp:77] Creating layer loss2/conv
I0403 18:48:19.151708 23525 net.cpp:91] Creating Layer loss2/conv
I0403 18:48:19.151726 23525 net.cpp:425] loss2/conv <- loss2/ave_pool
I0403 18:48:19.151748 23525 net.cpp:399] loss2/conv -> loss2/conv
I0403 18:48:19.153719 23525 net.cpp:141] Setting up loss2/conv
I0403 18:48:19.153753 23525 net.cpp:148] Top shape: 24 128 4 4 (49152)
I0403 18:48:19.153769 23525 net.cpp:156] Memory required for data: 1207926048
I0403 18:48:19.153789 23525 layer_factory.hpp:77] Creating layer loss2/relu_conv
I0403 18:48:19.153808 23525 net.cpp:91] Creating Layer loss2/relu_conv
I0403 18:48:19.153825 23525 net.cpp:425] loss2/relu_conv <- loss2/conv
I0403 18:48:19.153846 23525 net.cpp:386] loss2/relu_conv -> loss2/conv (in-place)
I0403 18:48:19.154136 23525 net.cpp:141] Setting up loss2/relu_conv
I0403 18:48:19.154165 23525 net.cpp:148] Top shape: 24 128 4 4 (49152)
I0403 18:48:19.154182 23525 net.cpp:156] Memory required for data: 1208122656
I0403 18:48:19.154198 23525 layer_factory.hpp:77] Creating layer loss2/fc
I0403 18:48:19.154217 23525 net.cpp:91] Creating Layer loss2/fc
I0403 18:48:19.154234 23525 net.cpp:425] loss2/fc <- loss2/conv
I0403 18:48:19.154258 23525 net.cpp:399] loss2/fc -> loss2/fc
I0403 18:48:19.172233 23525 net.cpp:141] Setting up loss2/fc
I0403 18:48:19.172265 23525 net.cpp:148] Top shape: 24 1024 (24576)
I0403 18:48:19.172281 23525 net.cpp:156] Memory required for data: 1208220960
I0403 18:48:19.172298 23525 layer_factory.hpp:77] Creating layer loss2/relu_fc
I0403 18:48:19.172319 23525 net.cpp:91] Creating Layer loss2/relu_fc
I0403 18:48:19.172335 23525 net.cpp:425] loss2/relu_fc <- loss2/fc
I0403 18:48:19.172353 23525 net.cpp:386] loss2/relu_fc -> loss2/fc (in-place)
I0403 18:48:19.172664 23525 net.cpp:141] Setting up loss2/relu_fc
I0403 18:48:19.172690 23525 net.cpp:148] Top shape: 24 1024 (24576)
I0403 18:48:19.172705 23525 net.cpp:156] Memory required for data: 1208319264
I0403 18:48:19.172720 23525 layer_factory.hpp:77] Creating layer loss2/drop_fc
I0403 18:48:19.172740 23525 net.cpp:91] Creating Layer loss2/drop_fc
I0403 18:48:19.172757 23525 net.cpp:425] loss2/drop_fc <- loss2/fc
I0403 18:48:19.172775 23525 net.cpp:386] loss2/drop_fc -> loss2/fc (in-place)
I0403 18:48:19.172826 23525 net.cpp:141] Setting up loss2/drop_fc
I0403 18:48:19.172848 23525 net.cpp:148] Top shape: 24 1024 (24576)
I0403 18:48:19.172863 23525 net.cpp:156] Memory required for data: 1208417568
I0403 18:48:19.172878 23525 layer_factory.hpp:77] Creating layer loss2/classifier_plantvillage
I0403 18:48:19.172899 23525 net.cpp:91] Creating Layer loss2/classifier_plantvillage
I0403 18:48:19.172915 23525 net.cpp:425] loss2/classifier_plantvillage <- loss2/fc
I0403 18:48:19.172935 23525 net.cpp:399] loss2/classifier_plantvillage -> loss2/classifier_plantvillage
I0403 18:48:19.173338 23525 net.cpp:141] Setting up loss2/classifier_plantvillage
I0403 18:48:19.173363 23525 net.cpp:148] Top shape: 24 38 (912)
I0403 18:48:19.173395 23525 net.cpp:156] Memory required for data: 1208421216
I0403 18:48:19.173414 23525 layer_factory.hpp:77] Creating layer loss2/classifier_plantvillage_loss2/classifier_plantvillage_0_split
I0403 18:48:19.173432 23525 net.cpp:91] Creating Layer loss2/classifier_plantvillage_loss2/classifier_plantvillage_0_split
I0403 18:48:19.173449 23525 net.cpp:425] loss2/classifier_plantvillage_loss2/classifier_plantvillage_0_split <- loss2/classifier_plantvillage
I0403 18:48:19.173470 23525 net.cpp:399] loss2/classifier_plantvillage_loss2/classifier_plantvillage_0_split -> loss2/classifier_plantvillage_loss2/classifier_plantvillage_0_split_0
I0403 18:48:19.173491 23525 net.cpp:399] loss2/classifier_plantvillage_loss2/classifier_plantvillage_0_split -> loss2/classifier_plantvillage_loss2/classifier_plantvillage_0_split_1
I0403 18:48:19.173511 23525 net.cpp:399] loss2/classifier_plantvillage_loss2/classifier_plantvillage_0_split -> loss2/classifier_plantvillage_loss2/classifier_plantvillage_0_split_2
I0403 18:48:19.173593 23525 net.cpp:141] Setting up loss2/classifier_plantvillage_loss2/classifier_plantvillage_0_split
I0403 18:48:19.173620 23525 net.cpp:148] Top shape: 24 38 (912)
I0403 18:48:19.173637 23525 net.cpp:148] Top shape: 24 38 (912)
I0403 18:48:19.173652 23525 net.cpp:148] Top shape: 24 38 (912)
I0403 18:48:19.173666 23525 net.cpp:156] Memory required for data: 1208432160
I0403 18:48:19.173681 23525 layer_factory.hpp:77] Creating layer inception_4e/1x1
I0403 18:48:19.173701 23525 net.cpp:91] Creating Layer inception_4e/1x1
I0403 18:48:19.173717 23525 net.cpp:425] inception_4e/1x1 <- inception_4d/output_inception_4d/output_0_split_1
I0403 18:48:19.173735 23525 net.cpp:399] inception_4e/1x1 -> inception_4e/1x1
I0403 18:48:19.175570 23525 net.cpp:141] Setting up inception_4e/1x1
I0403 18:48:19.175600 23525 net.cpp:148] Top shape: 24 256 14 14 (1204224)
I0403 18:48:19.175614 23525 net.cpp:156] Memory required for data: 1213249056
I0403 18:48:19.175632 23525 layer_factory.hpp:77] Creating layer inception_4e/relu_1x1
I0403 18:48:19.175650 23525 net.cpp:91] Creating Layer inception_4e/relu_1x1
I0403 18:48:19.175667 23525 net.cpp:425] inception_4e/relu_1x1 <- inception_4e/1x1
I0403 18:48:19.175686 23525 net.cpp:386] inception_4e/relu_1x1 -> inception_4e/1x1 (in-place)
I0403 18:48:19.175987 23525 net.cpp:141] Setting up inception_4e/relu_1x1
I0403 18:48:19.176012 23525 net.cpp:148] Top shape: 24 256 14 14 (1204224)
I0403 18:48:19.176028 23525 net.cpp:156] Memory required for data: 1218065952
I0403 18:48:19.176043 23525 layer_factory.hpp:77] Creating layer inception_4e/3x3_reduce
I0403 18:48:19.176065 23525 net.cpp:91] Creating Layer inception_4e/3x3_reduce
I0403 18:48:19.176084 23525 net.cpp:425] inception_4e/3x3_reduce <- inception_4d/output_inception_4d/output_0_split_2
I0403 18:48:19.176105 23525 net.cpp:399] inception_4e/3x3_reduce -> inception_4e/3x3_reduce
I0403 18:48:19.178308 23525 net.cpp:141] Setting up inception_4e/3x3_reduce
I0403 18:48:19.178345 23525 net.cpp:148] Top shape: 24 160 14 14 (752640)
I0403 18:48:19.178375 23525 net.cpp:156] Memory required for data: 1221076512
I0403 18:48:19.178393 23525 layer_factory.hpp:77] Creating layer inception_4e/relu_3x3_reduce
I0403 18:48:19.178412 23525 net.cpp:91] Creating Layer inception_4e/relu_3x3_reduce
I0403 18:48:19.178428 23525 net.cpp:425] inception_4e/relu_3x3_reduce <- inception_4e/3x3_reduce
I0403 18:48:19.178448 23525 net.cpp:386] inception_4e/relu_3x3_reduce -> inception_4e/3x3_reduce (in-place)
I0403 18:48:19.178640 23525 net.cpp:141] Setting up inception_4e/relu_3x3_reduce
I0403 18:48:19.178665 23525 net.cpp:148] Top shape: 24 160 14 14 (752640)
I0403 18:48:19.178680 23525 net.cpp:156] Memory required for data: 1224087072
I0403 18:48:19.178695 23525 layer_factory.hpp:77] Creating layer inception_4e/3x3
I0403 18:48:19.178717 23525 net.cpp:91] Creating Layer inception_4e/3x3
I0403 18:48:19.178735 23525 net.cpp:425] inception_4e/3x3 <- inception_4e/3x3_reduce
I0403 18:48:19.178757 23525 net.cpp:399] inception_4e/3x3 -> inception_4e/3x3
I0403 18:48:19.183795 23525 net.cpp:141] Setting up inception_4e/3x3
I0403 18:48:19.183837 23525 net.cpp:148] Top shape: 24 320 14 14 (1505280)
I0403 18:48:19.183854 23525 net.cpp:156] Memory required for data: 1230108192
I0403 18:48:19.183873 23525 layer_factory.hpp:77] Creating layer inception_4e/relu_3x3
I0403 18:48:19.183892 23525 net.cpp:91] Creating Layer inception_4e/relu_3x3
I0403 18:48:19.183909 23525 net.cpp:425] inception_4e/relu_3x3 <- inception_4e/3x3
I0403 18:48:19.183928 23525 net.cpp:386] inception_4e/relu_3x3 -> inception_4e/3x3 (in-place)
I0403 18:48:19.184227 23525 net.cpp:141] Setting up inception_4e/relu_3x3
I0403 18:48:19.184254 23525 net.cpp:148] Top shape: 24 320 14 14 (1505280)
I0403 18:48:19.184269 23525 net.cpp:156] Memory required for data: 1236129312
I0403 18:48:19.184284 23525 layer_factory.hpp:77] Creating layer inception_4e/5x5_reduce
I0403 18:48:19.184309 23525 net.cpp:91] Creating Layer inception_4e/5x5_reduce
I0403 18:48:19.184327 23525 net.cpp:425] inception_4e/5x5_reduce <- inception_4d/output_inception_4d/output_0_split_3
I0403 18:48:19.184350 23525 net.cpp:399] inception_4e/5x5_reduce -> inception_4e/5x5_reduce
I0403 18:48:19.185434 23525 net.cpp:141] Setting up inception_4e/5x5_reduce
I0403 18:48:19.185463 23525 net.cpp:148] Top shape: 24 32 14 14 (150528)
I0403 18:48:19.185478 23525 net.cpp:156] Memory required for data: 1236731424
I0403 18:48:19.185497 23525 layer_factory.hpp:77] Creating layer inception_4e/relu_5x5_reduce
I0403 18:48:19.185515 23525 net.cpp:91] Creating Layer inception_4e/relu_5x5_reduce
I0403 18:48:19.185531 23525 net.cpp:425] inception_4e/relu_5x5_reduce <- inception_4e/5x5_reduce
I0403 18:48:19.185562 23525 net.cpp:386] inception_4e/relu_5x5_reduce -> inception_4e/5x5_reduce (in-place)
I0403 18:48:19.185868 23525 net.cpp:141] Setting up inception_4e/relu_5x5_reduce
I0403 18:48:19.185895 23525 net.cpp:148] Top shape: 24 32 14 14 (150528)
I0403 18:48:19.185910 23525 net.cpp:156] Memory required for data: 1237333536
I0403 18:48:19.185925 23525 layer_factory.hpp:77] Creating layer inception_4e/5x5
I0403 18:48:19.185962 23525 net.cpp:91] Creating Layer inception_4e/5x5
I0403 18:48:19.185982 23525 net.cpp:425] inception_4e/5x5 <- inception_4e/5x5_reduce
I0403 18:48:19.186002 23525 net.cpp:399] inception_4e/5x5 -> inception_4e/5x5
I0403 18:48:19.187865 23525 net.cpp:141] Setting up inception_4e/5x5
I0403 18:48:19.187896 23525 net.cpp:148] Top shape: 24 128 14 14 (602112)
I0403 18:48:19.187911 23525 net.cpp:156] Memory required for data: 1239741984
I0403 18:48:19.187932 23525 layer_factory.hpp:77] Creating layer inception_4e/relu_5x5
I0403 18:48:19.187950 23525 net.cpp:91] Creating Layer inception_4e/relu_5x5
I0403 18:48:19.187966 23525 net.cpp:425] inception_4e/relu_5x5 <- inception_4e/5x5
I0403 18:48:19.187983 23525 net.cpp:386] inception_4e/relu_5x5 -> inception_4e/5x5 (in-place)
I0403 18:48:19.188180 23525 net.cpp:141] Setting up inception_4e/relu_5x5
I0403 18:48:19.188208 23525 net.cpp:148] Top shape: 24 128 14 14 (602112)
I0403 18:48:19.188225 23525 net.cpp:156] Memory required for data: 1242150432
I0403 18:48:19.188240 23525 layer_factory.hpp:77] Creating layer inception_4e/pool
I0403 18:48:19.188257 23525 net.cpp:91] Creating Layer inception_4e/pool
I0403 18:48:19.188273 23525 net.cpp:425] inception_4e/pool <- inception_4d/output_inception_4d/output_0_split_4
I0403 18:48:19.188294 23525 net.cpp:399] inception_4e/pool -> inception_4e/pool
I0403 18:48:19.188365 23525 net.cpp:141] Setting up inception_4e/pool
I0403 18:48:19.188391 23525 net.cpp:148] Top shape: 24 528 14 14 (2483712)
I0403 18:48:19.188407 23525 net.cpp:156] Memory required for data: 1252085280
I0403 18:48:19.188421 23525 layer_factory.hpp:77] Creating layer inception_4e/pool_proj
I0403 18:48:19.188443 23525 net.cpp:91] Creating Layer inception_4e/pool_proj
I0403 18:48:19.188462 23525 net.cpp:425] inception_4e/pool_proj <- inception_4e/pool
I0403 18:48:19.188480 23525 net.cpp:399] inception_4e/pool_proj -> inception_4e/pool_proj
I0403 18:48:19.189996 23525 net.cpp:141] Setting up inception_4e/pool_proj
I0403 18:48:19.190035 23525 net.cpp:148] Top shape: 24 128 14 14 (602112)
I0403 18:48:19.190052 23525 net.cpp:156] Memory required for data: 1254493728
I0403 18:48:19.190070 23525 layer_factory.hpp:77] Creating layer inception_4e/relu_pool_proj
I0403 18:48:19.190091 23525 net.cpp:91] Creating Layer inception_4e/relu_pool_proj
I0403 18:48:19.190107 23525 net.cpp:425] inception_4e/relu_pool_proj <- inception_4e/pool_proj
I0403 18:48:19.190125 23525 net.cpp:386] inception_4e/relu_pool_proj -> inception_4e/pool_proj (in-place)
I0403 18:48:19.190423 23525 net.cpp:141] Setting up inception_4e/relu_pool_proj
I0403 18:48:19.190451 23525 net.cpp:148] Top shape: 24 128 14 14 (602112)
I0403 18:48:19.190466 23525 net.cpp:156] Memory required for data: 1256902176
I0403 18:48:19.190481 23525 layer_factory.hpp:77] Creating layer inception_4e/output
I0403 18:48:19.190501 23525 net.cpp:91] Creating Layer inception_4e/output
I0403 18:48:19.190517 23525 net.cpp:425] inception_4e/output <- inception_4e/1x1
I0403 18:48:19.190534 23525 net.cpp:425] inception_4e/output <- inception_4e/3x3
I0403 18:48:19.190557 23525 net.cpp:425] inception_4e/output <- inception_4e/5x5
I0403 18:48:19.190573 23525 net.cpp:425] inception_4e/output <- inception_4e/pool_proj
I0403 18:48:19.190592 23525 net.cpp:399] inception_4e/output -> inception_4e/output
I0403 18:48:19.190644 23525 net.cpp:141] Setting up inception_4e/output
I0403 18:48:19.190668 23525 net.cpp:148] Top shape: 24 832 14 14 (3913728)
I0403 18:48:19.190683 23525 net.cpp:156] Memory required for data: 1272557088
I0403 18:48:19.190697 23525 layer_factory.hpp:77] Creating layer pool4/3x3_s2
I0403 18:48:19.190716 23525 net.cpp:91] Creating Layer pool4/3x3_s2
I0403 18:48:19.190732 23525 net.cpp:425] pool4/3x3_s2 <- inception_4e/output
I0403 18:48:19.190753 23525 net.cpp:399] pool4/3x3_s2 -> pool4/3x3_s2
I0403 18:48:19.190822 23525 net.cpp:141] Setting up pool4/3x3_s2
I0403 18:48:19.190846 23525 net.cpp:148] Top shape: 24 832 7 7 (978432)
I0403 18:48:19.190861 23525 net.cpp:156] Memory required for data: 1276470816
I0403 18:48:19.190876 23525 layer_factory.hpp:77] Creating layer pool4/3x3_s2_pool4/3x3_s2_0_split
I0403 18:48:19.190892 23525 net.cpp:91] Creating Layer pool4/3x3_s2_pool4/3x3_s2_0_split
I0403 18:48:19.190908 23525 net.cpp:425] pool4/3x3_s2_pool4/3x3_s2_0_split <- pool4/3x3_s2
I0403 18:48:19.190925 23525 net.cpp:399] pool4/3x3_s2_pool4/3x3_s2_0_split -> pool4/3x3_s2_pool4/3x3_s2_0_split_0
I0403 18:48:19.190948 23525 net.cpp:399] pool4/3x3_s2_pool4/3x3_s2_0_split -> pool4/3x3_s2_pool4/3x3_s2_0_split_1
I0403 18:48:19.190971 23525 net.cpp:399] pool4/3x3_s2_pool4/3x3_s2_0_split -> pool4/3x3_s2_pool4/3x3_s2_0_split_2
I0403 18:48:19.190991 23525 net.cpp:399] pool4/3x3_s2_pool4/3x3_s2_0_split -> pool4/3x3_s2_pool4/3x3_s2_0_split_3
I0403 18:48:19.191083 23525 net.cpp:141] Setting up pool4/3x3_s2_pool4/3x3_s2_0_split
I0403 18:48:19.191107 23525 net.cpp:148] Top shape: 24 832 7 7 (978432)
I0403 18:48:19.191123 23525 net.cpp:148] Top shape: 24 832 7 7 (978432)
I0403 18:48:19.191138 23525 net.cpp:148] Top shape: 24 832 7 7 (978432)
I0403 18:48:19.191154 23525 net.cpp:148] Top shape: 24 832 7 7 (978432)
I0403 18:48:19.191167 23525 net.cpp:156] Memory required for data: 1292125728
I0403 18:48:19.191181 23525 layer_factory.hpp:77] Creating layer inception_5a/1x1
I0403 18:48:19.191205 23525 net.cpp:91] Creating Layer inception_5a/1x1
I0403 18:48:19.191222 23525 net.cpp:425] inception_5a/1x1 <- pool4/3x3_s2_pool4/3x3_s2_0_split_0
I0403 18:48:19.191241 23525 net.cpp:399] inception_5a/1x1 -> inception_5a/1x1
I0403 18:48:19.194110 23525 net.cpp:141] Setting up inception_5a/1x1
I0403 18:48:19.194142 23525 net.cpp:148] Top shape: 24 256 7 7 (301056)
I0403 18:48:19.194159 23525 net.cpp:156] Memory required for data: 1293329952
I0403 18:48:19.194177 23525 layer_factory.hpp:77] Creating layer inception_5a/relu_1x1
I0403 18:48:19.194195 23525 net.cpp:91] Creating Layer inception_5a/relu_1x1
I0403 18:48:19.194211 23525 net.cpp:425] inception_5a/relu_1x1 <- inception_5a/1x1
I0403 18:48:19.194231 23525 net.cpp:386] inception_5a/relu_1x1 -> inception_5a/1x1 (in-place)
I0403 18:48:19.194547 23525 net.cpp:141] Setting up inception_5a/relu_1x1
I0403 18:48:19.194576 23525 net.cpp:148] Top shape: 24 256 7 7 (301056)
I0403 18:48:19.194596 23525 net.cpp:156] Memory required for data: 1294534176
I0403 18:48:19.194612 23525 layer_factory.hpp:77] Creating layer inception_5a/3x3_reduce
I0403 18:48:19.194634 23525 net.cpp:91] Creating Layer inception_5a/3x3_reduce
I0403 18:48:19.194653 23525 net.cpp:425] inception_5a/3x3_reduce <- pool4/3x3_s2_pool4/3x3_s2_0_split_1
I0403 18:48:19.194671 23525 net.cpp:399] inception_5a/3x3_reduce -> inception_5a/3x3_reduce
I0403 18:48:19.197155 23525 net.cpp:141] Setting up inception_5a/3x3_reduce
I0403 18:48:19.197185 23525 net.cpp:148] Top shape: 24 160 7 7 (188160)
I0403 18:48:19.197201 23525 net.cpp:156] Memory required for data: 1295286816
I0403 18:48:19.197219 23525 layer_factory.hpp:77] Creating layer inception_5a/relu_3x3_reduce
I0403 18:48:19.197240 23525 net.cpp:91] Creating Layer inception_5a/relu_3x3_reduce
I0403 18:48:19.197258 23525 net.cpp:425] inception_5a/relu_3x3_reduce <- inception_5a/3x3_reduce
I0403 18:48:19.197276 23525 net.cpp:386] inception_5a/relu_3x3_reduce -> inception_5a/3x3_reduce (in-place)
I0403 18:48:19.197468 23525 net.cpp:141] Setting up inception_5a/relu_3x3_reduce
I0403 18:48:19.197492 23525 net.cpp:148] Top shape: 24 160 7 7 (188160)
I0403 18:48:19.197507 23525 net.cpp:156] Memory required for data: 1296039456
I0403 18:48:19.197521 23525 layer_factory.hpp:77] Creating layer inception_5a/3x3
I0403 18:48:19.197551 23525 net.cpp:91] Creating Layer inception_5a/3x3
I0403 18:48:19.197571 23525 net.cpp:425] inception_5a/3x3 <- inception_5a/3x3_reduce
I0403 18:48:19.197590 23525 net.cpp:399] inception_5a/3x3 -> inception_5a/3x3
I0403 18:48:19.202857 23525 net.cpp:141] Setting up inception_5a/3x3
I0403 18:48:19.202889 23525 net.cpp:148] Top shape: 24 320 7 7 (376320)
I0403 18:48:19.202906 23525 net.cpp:156] Memory required for data: 1297544736
I0403 18:48:19.202926 23525 layer_factory.hpp:77] Creating layer inception_5a/relu_3x3
I0403 18:48:19.202945 23525 net.cpp:91] Creating Layer inception_5a/relu_3x3
I0403 18:48:19.202962 23525 net.cpp:425] inception_5a/relu_3x3 <- inception_5a/3x3
I0403 18:48:19.202982 23525 net.cpp:386] inception_5a/relu_3x3 -> inception_5a/3x3 (in-place)
I0403 18:48:19.203286 23525 net.cpp:141] Setting up inception_5a/relu_3x3
I0403 18:48:19.203316 23525 net.cpp:148] Top shape: 24 320 7 7 (376320)
I0403 18:48:19.203332 23525 net.cpp:156] Memory required for data: 1299050016
I0403 18:48:19.203347 23525 layer_factory.hpp:77] Creating layer inception_5a/5x5_reduce
I0403 18:48:19.203372 23525 net.cpp:91] Creating Layer inception_5a/5x5_reduce
I0403 18:48:19.203389 23525 net.cpp:425] inception_5a/5x5_reduce <- pool4/3x3_s2_pool4/3x3_s2_0_split_2
I0403 18:48:19.203410 23525 net.cpp:399] inception_5a/5x5_reduce -> inception_5a/5x5_reduce
I0403 18:48:19.204639 23525 net.cpp:141] Setting up inception_5a/5x5_reduce
I0403 18:48:19.204671 23525 net.cpp:148] Top shape: 24 32 7 7 (37632)
I0403 18:48:19.204689 23525 net.cpp:156] Memory required for data: 1299200544
I0403 18:48:19.204707 23525 layer_factory.hpp:77] Creating layer inception_5a/relu_5x5_reduce
I0403 18:48:19.204726 23525 net.cpp:91] Creating Layer inception_5a/relu_5x5_reduce
I0403 18:48:19.204743 23525 net.cpp:425] inception_5a/relu_5x5_reduce <- inception_5a/5x5_reduce
I0403 18:48:19.204763 23525 net.cpp:386] inception_5a/relu_5x5_reduce -> inception_5a/5x5_reduce (in-place)
I0403 18:48:19.205070 23525 net.cpp:141] Setting up inception_5a/relu_5x5_reduce
I0403 18:48:19.205099 23525 net.cpp:148] Top shape: 24 32 7 7 (37632)
I0403 18:48:19.205116 23525 net.cpp:156] Memory required for data: 1299351072
I0403 18:48:19.205130 23525 layer_factory.hpp:77] Creating layer inception_5a/5x5
I0403 18:48:19.205153 23525 net.cpp:91] Creating Layer inception_5a/5x5
I0403 18:48:19.205171 23525 net.cpp:425] inception_5a/5x5 <- inception_5a/5x5_reduce
I0403 18:48:19.205191 23525 net.cpp:399] inception_5a/5x5 -> inception_5a/5x5
I0403 18:48:19.206993 23525 net.cpp:141] Setting up inception_5a/5x5
I0403 18:48:19.207038 23525 net.cpp:148] Top shape: 24 128 7 7 (150528)
I0403 18:48:19.207056 23525 net.cpp:156] Memory required for data: 1299953184
I0403 18:48:19.207075 23525 layer_factory.hpp:77] Creating layer inception_5a/relu_5x5
I0403 18:48:19.207095 23525 net.cpp:91] Creating Layer inception_5a/relu_5x5
I0403 18:48:19.207111 23525 net.cpp:425] inception_5a/relu_5x5 <- inception_5a/5x5
I0403 18:48:19.207129 23525 net.cpp:386] inception_5a/relu_5x5 -> inception_5a/5x5 (in-place)
I0403 18:48:19.207330 23525 net.cpp:141] Setting up inception_5a/relu_5x5
I0403 18:48:19.207356 23525 net.cpp:148] Top shape: 24 128 7 7 (150528)
I0403 18:48:19.207371 23525 net.cpp:156] Memory required for data: 1300555296
I0403 18:48:19.207386 23525 layer_factory.hpp:77] Creating layer inception_5a/pool
I0403 18:48:19.207404 23525 net.cpp:91] Creating Layer inception_5a/pool
I0403 18:48:19.207422 23525 net.cpp:425] inception_5a/pool <- pool4/3x3_s2_pool4/3x3_s2_0_split_3
I0403 18:48:19.207442 23525 net.cpp:399] inception_5a/pool -> inception_5a/pool
I0403 18:48:19.207516 23525 net.cpp:141] Setting up inception_5a/pool
I0403 18:48:19.207548 23525 net.cpp:148] Top shape: 24 832 7 7 (978432)
I0403 18:48:19.207566 23525 net.cpp:156] Memory required for data: 1304469024
I0403 18:48:19.207581 23525 layer_factory.hpp:77] Creating layer inception_5a/pool_proj
I0403 18:48:19.207603 23525 net.cpp:91] Creating Layer inception_5a/pool_proj
I0403 18:48:19.207622 23525 net.cpp:425] inception_5a/pool_proj <- inception_5a/pool
I0403 18:48:19.207640 23525 net.cpp:399] inception_5a/pool_proj -> inception_5a/pool_proj
I0403 18:48:19.210048 23525 net.cpp:141] Setting up inception_5a/pool_proj
I0403 18:48:19.210078 23525 net.cpp:148] Top shape: 24 128 7 7 (150528)
I0403 18:48:19.210095 23525 net.cpp:156] Memory required for data: 1305071136
I0403 18:48:19.210114 23525 layer_factory.hpp:77] Creating layer inception_5a/relu_pool_proj
I0403 18:48:19.210136 23525 net.cpp:91] Creating Layer inception_5a/relu_pool_proj
I0403 18:48:19.210155 23525 net.cpp:425] inception_5a/relu_pool_proj <- inception_5a/pool_proj
I0403 18:48:19.210172 23525 net.cpp:386] inception_5a/relu_pool_proj -> inception_5a/pool_proj (in-place)
I0403 18:48:19.210476 23525 net.cpp:141] Setting up inception_5a/relu_pool_proj
I0403 18:48:19.210503 23525 net.cpp:148] Top shape: 24 128 7 7 (150528)
I0403 18:48:19.210518 23525 net.cpp:156] Memory required for data: 1305673248
I0403 18:48:19.210535 23525 layer_factory.hpp:77] Creating layer inception_5a/output
I0403 18:48:19.210561 23525 net.cpp:91] Creating Layer inception_5a/output
I0403 18:48:19.210578 23525 net.cpp:425] inception_5a/output <- inception_5a/1x1
I0403 18:48:19.210597 23525 net.cpp:425] inception_5a/output <- inception_5a/3x3
I0403 18:48:19.210613 23525 net.cpp:425] inception_5a/output <- inception_5a/5x5
I0403 18:48:19.210630 23525 net.cpp:425] inception_5a/output <- inception_5a/pool_proj
I0403 18:48:19.210649 23525 net.cpp:399] inception_5a/output -> inception_5a/output
I0403 18:48:19.210703 23525 net.cpp:141] Setting up inception_5a/output
I0403 18:48:19.210727 23525 net.cpp:148] Top shape: 24 832 7 7 (978432)
I0403 18:48:19.210742 23525 net.cpp:156] Memory required for data: 1309586976
I0403 18:48:19.210757 23525 layer_factory.hpp:77] Creating layer inception_5a/output_inception_5a/output_0_split
I0403 18:48:19.210774 23525 net.cpp:91] Creating Layer inception_5a/output_inception_5a/output_0_split
I0403 18:48:19.210789 23525 net.cpp:425] inception_5a/output_inception_5a/output_0_split <- inception_5a/output
I0403 18:48:19.210809 23525 net.cpp:399] inception_5a/output_inception_5a/output_0_split -> inception_5a/output_inception_5a/output_0_split_0
I0403 18:48:19.210831 23525 net.cpp:399] inception_5a/output_inception_5a/output_0_split -> inception_5a/output_inception_5a/output_0_split_1
I0403 18:48:19.210852 23525 net.cpp:399] inception_5a/output_inception_5a/output_0_split -> inception_5a/output_inception_5a/output_0_split_2
I0403 18:48:19.210872 23525 net.cpp:399] inception_5a/output_inception_5a/output_0_split -> inception_5a/output_inception_5a/output_0_split_3
I0403 18:48:19.210991 23525 net.cpp:141] Setting up inception_5a/output_inception_5a/output_0_split
I0403 18:48:19.211019 23525 net.cpp:148] Top shape: 24 832 7 7 (978432)
I0403 18:48:19.211036 23525 net.cpp:148] Top shape: 24 832 7 7 (978432)
I0403 18:48:19.211052 23525 net.cpp:148] Top shape: 24 832 7 7 (978432)
I0403 18:48:19.211068 23525 net.cpp:148] Top shape: 24 832 7 7 (978432)
I0403 18:48:19.211082 23525 net.cpp:156] Memory required for data: 1325241888
I0403 18:48:19.211097 23525 layer_factory.hpp:77] Creating layer inception_5b/1x1
I0403 18:48:19.211119 23525 net.cpp:91] Creating Layer inception_5b/1x1
I0403 18:48:19.211138 23525 net.cpp:425] inception_5b/1x1 <- inception_5a/output_inception_5a/output_0_split_0
I0403 18:48:19.211158 23525 net.cpp:399] inception_5b/1x1 -> inception_5b/1x1
I0403 18:48:19.215071 23525 net.cpp:141] Setting up inception_5b/1x1
I0403 18:48:19.215102 23525 net.cpp:148] Top shape: 24 384 7 7 (451584)
I0403 18:48:19.215119 23525 net.cpp:156] Memory required for data: 1327048224
I0403 18:48:19.215139 23525 layer_factory.hpp:77] Creating layer inception_5b/relu_1x1
I0403 18:48:19.215164 23525 net.cpp:91] Creating Layer inception_5b/relu_1x1
I0403 18:48:19.215183 23525 net.cpp:425] inception_5b/relu_1x1 <- inception_5b/1x1
I0403 18:48:19.215201 23525 net.cpp:386] inception_5b/relu_1x1 -> inception_5b/1x1 (in-place)
I0403 18:48:19.215518 23525 net.cpp:141] Setting up inception_5b/relu_1x1
I0403 18:48:19.215556 23525 net.cpp:148] Top shape: 24 384 7 7 (451584)
I0403 18:48:19.215574 23525 net.cpp:156] Memory required for data: 1328854560
I0403 18:48:19.215590 23525 layer_factory.hpp:77] Creating layer inception_5b/3x3_reduce
I0403 18:48:19.215615 23525 net.cpp:91] Creating Layer inception_5b/3x3_reduce
I0403 18:48:19.215634 23525 net.cpp:425] inception_5b/3x3_reduce <- inception_5a/output_inception_5a/output_0_split_1
I0403 18:48:19.215656 23525 net.cpp:399] inception_5b/3x3_reduce -> inception_5b/3x3_reduce
I0403 18:48:19.218458 23525 net.cpp:141] Setting up inception_5b/3x3_reduce
I0403 18:48:19.218488 23525 net.cpp:148] Top shape: 24 192 7 7 (225792)
I0403 18:48:19.218504 23525 net.cpp:156] Memory required for data: 1329757728
I0403 18:48:19.218523 23525 layer_factory.hpp:77] Creating layer inception_5b/relu_3x3_reduce
I0403 18:48:19.218549 23525 net.cpp:91] Creating Layer inception_5b/relu_3x3_reduce
I0403 18:48:19.218569 23525 net.cpp:425] inception_5b/relu_3x3_reduce <- inception_5b/3x3_reduce
I0403 18:48:19.218586 23525 net.cpp:386] inception_5b/relu_3x3_reduce -> inception_5b/3x3_reduce (in-place)
I0403 18:48:19.218780 23525 net.cpp:141] Setting up inception_5b/relu_3x3_reduce
I0403 18:48:19.218811 23525 net.cpp:148] Top shape: 24 192 7 7 (225792)
I0403 18:48:19.218827 23525 net.cpp:156] Memory required for data: 1330660896
I0403 18:48:19.218842 23525 layer_factory.hpp:77] Creating layer inception_5b/3x3
I0403 18:48:19.218863 23525 net.cpp:91] Creating Layer inception_5b/3x3
I0403 18:48:19.218880 23525 net.cpp:425] inception_5b/3x3 <- inception_5b/3x3_reduce
I0403 18:48:19.218899 23525 net.cpp:399] inception_5b/3x3 -> inception_5b/3x3
I0403 18:48:19.225689 23525 net.cpp:141] Setting up inception_5b/3x3
I0403 18:48:19.225718 23525 net.cpp:148] Top shape: 24 384 7 7 (451584)
I0403 18:48:19.225733 23525 net.cpp:156] Memory required for data: 1332467232
I0403 18:48:19.225752 23525 layer_factory.hpp:77] Creating layer inception_5b/relu_3x3
I0403 18:48:19.225772 23525 net.cpp:91] Creating Layer inception_5b/relu_3x3
I0403 18:48:19.225790 23525 net.cpp:425] inception_5b/relu_3x3 <- inception_5b/3x3
I0403 18:48:19.225807 23525 net.cpp:386] inception_5b/relu_3x3 -> inception_5b/3x3 (in-place)
I0403 18:48:19.226107 23525 net.cpp:141] Setting up inception_5b/relu_3x3
I0403 18:48:19.226133 23525 net.cpp:148] Top shape: 24 384 7 7 (451584)
I0403 18:48:19.226150 23525 net.cpp:156] Memory required for data: 1334273568
I0403 18:48:19.226164 23525 layer_factory.hpp:77] Creating layer inception_5b/5x5_reduce
I0403 18:48:19.226204 23525 net.cpp:91] Creating Layer inception_5b/5x5_reduce
I0403 18:48:19.226223 23525 net.cpp:425] inception_5b/5x5_reduce <- inception_5a/output_inception_5a/output_0_split_2
I0403 18:48:19.226243 23525 net.cpp:399] inception_5b/5x5_reduce -> inception_5b/5x5_reduce
I0403 18:48:19.227532 23525 net.cpp:141] Setting up inception_5b/5x5_reduce
I0403 18:48:19.227565 23525 net.cpp:148] Top shape: 24 48 7 7 (56448)
I0403 18:48:19.227581 23525 net.cpp:156] Memory required for data: 1334499360
I0403 18:48:19.227599 23525 layer_factory.hpp:77] Creating layer inception_5b/relu_5x5_reduce
I0403 18:48:19.227620 23525 net.cpp:91] Creating Layer inception_5b/relu_5x5_reduce
I0403 18:48:19.227638 23525 net.cpp:425] inception_5b/relu_5x5_reduce <- inception_5b/5x5_reduce
I0403 18:48:19.227655 23525 net.cpp:386] inception_5b/relu_5x5_reduce -> inception_5b/5x5_reduce (in-place)
I0403 18:48:19.228036 23525 net.cpp:141] Setting up inception_5b/relu_5x5_reduce
I0403 18:48:19.228063 23525 net.cpp:148] Top shape: 24 48 7 7 (56448)
I0403 18:48:19.228078 23525 net.cpp:156] Memory required for data: 1334725152
I0403 18:48:19.228093 23525 layer_factory.hpp:77] Creating layer inception_5b/5x5
I0403 18:48:19.228112 23525 net.cpp:91] Creating Layer inception_5b/5x5
I0403 18:48:19.228132 23525 net.cpp:425] inception_5b/5x5 <- inception_5b/5x5_reduce
I0403 18:48:19.228149 23525 net.cpp:399] inception_5b/5x5 -> inception_5b/5x5
I0403 18:48:19.230228 23525 net.cpp:141] Setting up inception_5b/5x5
I0403 18:48:19.230257 23525 net.cpp:148] Top shape: 24 128 7 7 (150528)
I0403 18:48:19.230274 23525 net.cpp:156] Memory required for data: 1335327264
I0403 18:48:19.230293 23525 layer_factory.hpp:77] Creating layer inception_5b/relu_5x5
I0403 18:48:19.230312 23525 net.cpp:91] Creating Layer inception_5b/relu_5x5
I0403 18:48:19.230329 23525 net.cpp:425] inception_5b/relu_5x5 <- inception_5b/5x5
I0403 18:48:19.230350 23525 net.cpp:386] inception_5b/relu_5x5 -> inception_5b/5x5 (in-place)
I0403 18:48:19.230547 23525 net.cpp:141] Setting up inception_5b/relu_5x5
I0403 18:48:19.230573 23525 net.cpp:148] Top shape: 24 128 7 7 (150528)
I0403 18:48:19.230587 23525 net.cpp:156] Memory required for data: 1335929376
I0403 18:48:19.230604 23525 layer_factory.hpp:77] Creating layer inception_5b/pool
I0403 18:48:19.230623 23525 net.cpp:91] Creating Layer inception_5b/pool
I0403 18:48:19.230639 23525 net.cpp:425] inception_5b/pool <- inception_5a/output_inception_5a/output_0_split_3
I0403 18:48:19.230659 23525 net.cpp:399] inception_5b/pool -> inception_5b/pool
I0403 18:48:19.230734 23525 net.cpp:141] Setting up inception_5b/pool
I0403 18:48:19.230758 23525 net.cpp:148] Top shape: 24 832 7 7 (978432)
I0403 18:48:19.230773 23525 net.cpp:156] Memory required for data: 1339843104
I0403 18:48:19.230787 23525 layer_factory.hpp:77] Creating layer inception_5b/pool_proj
I0403 18:48:19.230811 23525 net.cpp:91] Creating Layer inception_5b/pool_proj
I0403 18:48:19.230829 23525 net.cpp:425] inception_5b/pool_proj <- inception_5b/pool
I0403 18:48:19.230849 23525 net.cpp:399] inception_5b/pool_proj -> inception_5b/pool_proj
I0403 18:48:19.233199 23525 net.cpp:141] Setting up inception_5b/pool_proj
I0403 18:48:19.233229 23525 net.cpp:148] Top shape: 24 128 7 7 (150528)
I0403 18:48:19.233248 23525 net.cpp:156] Memory required for data: 1340445216
I0403 18:48:19.233266 23525 layer_factory.hpp:77] Creating layer inception_5b/relu_pool_proj
I0403 18:48:19.233285 23525 net.cpp:91] Creating Layer inception_5b/relu_pool_proj
I0403 18:48:19.233302 23525 net.cpp:425] inception_5b/relu_pool_proj <- inception_5b/pool_proj
I0403 18:48:19.233319 23525 net.cpp:386] inception_5b/relu_pool_proj -> inception_5b/pool_proj (in-place)
I0403 18:48:19.233626 23525 net.cpp:141] Setting up inception_5b/relu_pool_proj
I0403 18:48:19.233654 23525 net.cpp:148] Top shape: 24 128 7 7 (150528)
I0403 18:48:19.233670 23525 net.cpp:156] Memory required for data: 1341047328
I0403 18:48:19.233685 23525 layer_factory.hpp:77] Creating layer inception_5b/output
I0403 18:48:19.233703 23525 net.cpp:91] Creating Layer inception_5b/output
I0403 18:48:19.233733 23525 net.cpp:425] inception_5b/output <- inception_5b/1x1
I0403 18:48:19.233752 23525 net.cpp:425] inception_5b/output <- inception_5b/3x3
I0403 18:48:19.233768 23525 net.cpp:425] inception_5b/output <- inception_5b/5x5
I0403 18:48:19.233784 23525 net.cpp:425] inception_5b/output <- inception_5b/pool_proj
I0403 18:48:19.233801 23525 net.cpp:399] inception_5b/output -> inception_5b/output
I0403 18:48:19.233855 23525 net.cpp:141] Setting up inception_5b/output
I0403 18:48:19.233880 23525 net.cpp:148] Top shape: 24 1024 7 7 (1204224)
I0403 18:48:19.233893 23525 net.cpp:156] Memory required for data: 1345864224
I0403 18:48:19.233908 23525 layer_factory.hpp:77] Creating layer pool5/7x7_s1
I0403 18:48:19.233928 23525 net.cpp:91] Creating Layer pool5/7x7_s1
I0403 18:48:19.233944 23525 net.cpp:425] pool5/7x7_s1 <- inception_5b/output
I0403 18:48:19.233963 23525 net.cpp:399] pool5/7x7_s1 -> pool5/7x7_s1
I0403 18:48:19.234181 23525 net.cpp:141] Setting up pool5/7x7_s1
I0403 18:48:19.234210 23525 net.cpp:148] Top shape: 24 1024 1 1 (24576)
I0403 18:48:19.234225 23525 net.cpp:156] Memory required for data: 1345962528
I0403 18:48:19.234239 23525 layer_factory.hpp:77] Creating layer pool5/drop_7x7_s1
I0403 18:48:19.234256 23525 net.cpp:91] Creating Layer pool5/drop_7x7_s1
I0403 18:48:19.234273 23525 net.cpp:425] pool5/drop_7x7_s1 <- pool5/7x7_s1
I0403 18:48:19.234290 23525 net.cpp:386] pool5/drop_7x7_s1 -> pool5/7x7_s1 (in-place)
I0403 18:48:19.234343 23525 net.cpp:141] Setting up pool5/drop_7x7_s1
I0403 18:48:19.234365 23525 net.cpp:148] Top shape: 24 1024 1 1 (24576)
I0403 18:48:19.234380 23525 net.cpp:156] Memory required for data: 1346060832
I0403 18:48:19.234395 23525 layer_factory.hpp:77] Creating layer loss3/classifier_plantvillage
I0403 18:48:19.234418 23525 net.cpp:91] Creating Layer loss3/classifier_plantvillage
I0403 18:48:19.234436 23525 net.cpp:425] loss3/classifier_plantvillage <- pool5/7x7_s1
I0403 18:48:19.234455 23525 net.cpp:399] loss3/classifier_plantvillage -> loss3/classifier_plantvillage
I0403 18:48:19.234889 23525 net.cpp:141] Setting up loss3/classifier_plantvillage
I0403 18:48:19.234915 23525 net.cpp:148] Top shape: 24 38 (912)
I0403 18:48:19.234930 23525 net.cpp:156] Memory required for data: 1346064480
I0403 18:48:19.234947 23525 layer_factory.hpp:77] Creating layer loss3/classifier_plantvillage_loss3/classifier_plantvillage_0_split
I0403 18:48:19.234966 23525 net.cpp:91] Creating Layer loss3/classifier_plantvillage_loss3/classifier_plantvillage_0_split
I0403 18:48:19.234982 23525 net.cpp:425] loss3/classifier_plantvillage_loss3/classifier_plantvillage_0_split <- loss3/classifier_plantvillage
I0403 18:48:19.235002 23525 net.cpp:399] loss3/classifier_plantvillage_loss3/classifier_plantvillage_0_split -> loss3/classifier_plantvillage_loss3/classifier_plantvillage_0_split_0
I0403 18:48:19.235023 23525 net.cpp:399] loss3/classifier_plantvillage_loss3/classifier_plantvillage_0_split -> loss3/classifier_plantvillage_loss3/classifier_plantvillage_0_split_1
I0403 18:48:19.235044 23525 net.cpp:399] loss3/classifier_plantvillage_loss3/classifier_plantvillage_0_split -> loss3/classifier_plantvillage_loss3/classifier_plantvillage_0_split_2
I0403 18:48:19.235064 23525 net.cpp:399] loss3/classifier_plantvillage_loss3/classifier_plantvillage_0_split -> loss3/classifier_plantvillage_loss3/classifier_plantvillage_0_split_3
I0403 18:48:19.235168 23525 net.cpp:141] Setting up loss3/classifier_plantvillage_loss3/classifier_plantvillage_0_split
I0403 18:48:19.235194 23525 net.cpp:148] Top shape: 24 38 (912)
I0403 18:48:19.235211 23525 net.cpp:148] Top shape: 24 38 (912)
I0403 18:48:19.235226 23525 net.cpp:148] Top shape: 24 38 (912)
I0403 18:48:19.235240 23525 net.cpp:148] Top shape: 24 38 (912)
I0403 18:48:19.235255 23525 net.cpp:156] Memory required for data: 1346079072
I0403 18:48:19.235270 23525 layer_factory.hpp:77] Creating layer loss1/loss
I0403 18:48:19.235290 23525 net.cpp:91] Creating Layer loss1/loss
I0403 18:48:19.235307 23525 net.cpp:425] loss1/loss <- loss1/classifier_plantvillage_loss1/classifier_plantvillage_0_split_0
I0403 18:48:19.235338 23525 net.cpp:425] loss1/loss <- label_data_1_split_0
…
