…
I0403 19:00:39.190752 24178 net.cpp:313] The NetState phase (1) differed from the phase (0) specified by a rule in layer data
I0403 19:00:39.191905 24178 net.cpp:49] Initializing net from parameters: 
state {
  phase: TEST
}
layer {
  name: "data"
  type: "Data"
  top: "data"
  top: "label"
  include {
    phase: TEST
  }
  transform_param {
    mirror: false
    crop_size: 224
    mean_file: "/home/mohanty/data/final_dataset/lmdb/segmented-40-60/mean.binaryproto"
  }
  data_param {
    source: "/home/mohanty/data/final_dataset/lmdb/segmented-40-60/test_db"
    batch_size: 24
    backend: LMDB
  }
}
layer {
  name: "conv1/7x7_s2"
  type: "Convolution"
  bottom: "data"
  top: "conv1/7x7_s2"
  param {
    lr_mult: 1
    decay_mult: 1
  }
  param {
    lr_mult: 2
    decay_mult: 0
  }
  convolution_param {
    num_output: 64
    pad: 3
    kernel_size: 7
    stride: 2
    weight_filler {
      type: "xavier"
      std: 0.1
    }
    bias_filler {
      type: "constant"
      value: 0.2
    }
  }
}
layer {
  name: "conv1/relu_7x7"
  type: "ReLU"
  bottom: "conv1/7x7_s2"
  top: "conv1/7x7_s2"
}
layer {
  name: "pool1/3x3_s2"
  type: "Pooling"
  bottom: "conv1/7x7_s2"
  top: "pool1/3x3_s2"
  pooling_param {
    pool: MAX
    kernel_size: 3
    stride: 2
  }
}
layer {
  name: "pool1/norm1"
  type: "LRN"
  bottom: "pool1/3x3_s2"
  top: "pool1/norm1"
  lrn_param {
    local_size: 5
    alpha: 0.0001
    beta: 0.75
  }
}
layer {
  name: "conv2/3x3_reduce"
  type: "Convolution"
  bottom: "pool1/norm1"
  top: "conv2/3x3_reduce"
  param {
    lr_mult: 1
    decay_mult: 1
  }
  param {
    lr_mult: 2
    decay_mult: 0
  }
  convolution_param {
    num_output: 64
    kernel_size: 1
    weight_filler {
      type: "xavier"
      std: 0.1
    }
    bias_filler {
      type: "constant"
      value: 0.2
    }
  }
}
layer {
  name: "conv2/relu_3x3_reduce"
  type: "ReLU"
  bottom: "conv2/3x3_reduce"
  top: "conv2/3x3_reduce"
}
layer {
  name: "conv2/3x3"
  type: "Convolution"
  bottom: "conv2/3x3_reduce"
  top: "conv2/3x3"
  param {
    lr_mult: 1
    decay_mult: 1
  }
  param {
    lr_mult: 2
    decay_mult: 0
  }
  convolution_param {
    num_output: 192
    pad: 1
    kernel_size: 3
    weight_filler {
      type: "xavier"
      std: 0.03
    }
    bias_filler {
      type: "constant"
      value: 0.2
    }
  }
}
layer {
  name: "conv2/relu_3x3"
  type: "ReLU"
  bottom: "conv2/3x3"
  top: "conv2/3x3"
}
layer {
  name: "conv2/norm2"
  type: "LRN"
  bottom: "conv2/3x3"
  top: "conv2/norm2"
  lrn_param {
    local_size: 5
    alpha: 0.0001
    beta: 0.75
  }
}
layer {
  name: "pool2/3x3_s2"
  type: "Pooling"
  bottom: "conv2/norm2"
  top: "pool2/3x3_s2"
  pooling_param {
    pool: MAX
    kernel_size: 3
    stride: 2
  }
}
layer {
  name: "inception_3a/1x1"
  type: "Convolution"
  bottom: "pool2/3x3_s2"
  top: "inception_3a/1x1"
  param {
    lr_mult: 1
    decay_mult: 1
  }
  param {
    lr_mult: 2
    decay_mult: 0
  }
  convolution_param {
    num_output: 64
    kernel_size: 1
    weight_filler {
      type: "xavier"
      std: 0.03
    }
    bias_filler {
      type: "constant"
      value: 0.2
    }
  }
}
layer {
  name: "inception_3a/relu_1x1"
  type: "ReLU"
  bottom: "inception_3a/1x1"
  top: "inception_3a/1x1"
}
layer {
  name: "inception_3a/3x3_reduce"
  type: "Convolution"
  bottom: "pool2/3x3_s2"
  top: "inception_3a/3x3_reduce"
  param {
    lr_mult: 1
    decay_mult: 1
  }
  param {
    lr_mult: 2
    decay_mult: 0
  }
  convolution_param {
    num_output: 96
    kernel_size: 1
    weight_filler {
      type: "xavier"
      std: 0.09
    }
    bias_filler {
      type: "constant"
      value: 0.2
    }
  }
}
layer {
  name: "inception_3a/relu_3x3_reduce"
  type: "ReLU"
  bottom: "inception_3a/3x3_reduce"
  top: "inception_3a/3x3_reduce"
}
layer {
  name: "inception_3a/3x3"
  type: "Convolution"
  bottom: "inception_3a/3x3_reduce"
  top: "inception_3a/3x3"
  param {
    lr_mult: 1
    decay_mult: 1
  }
  param {
    lr_mult: 2
    decay_mult: 0
  }
  convolution_param {
    num_output: 128
    pad: 1
    kernel_size: 3
    weight_filler {
      type: "xavier"
      std: 0.03
    }
    bias_filler {
      type: "constant"
      value: 0.2
    }
  }
}
layer {
  name: "inception_3a/relu_3x3"
  type: "ReLU"
  bottom: "inception_3a/3x3"
  top: "inception_3a/3x3"
}
layer {
  name: "inception_3a/5x5_reduce"
  type: "Convolution"
  bottom: "pool2/3x3_s2"
  top: "inception_3a/5x5_reduce"
  param {
    lr_mult: 1
    decay_mult: 1
  }
  param {
    lr_mult: 2
    decay_mult: 0
  }
  convolution_param {
    num_output: 16
    kernel_size: 1
    weight_filler {
      type: "xavier"
      std: 0.2
    }
    bias_filler {
      type: "constant"
      value: 0.2
    }
  }
}
layer {
  name: "inception_3a/relu_5x5_reduce"
  type: "ReLU"
  bottom: "inception_3a/5x5_reduce"
  top: "inception_3a/5x5_reduce"
}
layer {
  name: "inception_3a/5x5"
  type: "Convolution"
  bottom: "inception_3a/5x5_reduce"
  top: "inception_3a/5x5"
  param {
    lr_mult: 1
    decay_mult: 1
  }
  param {
    lr_mult: 2
    decay_mult: 0
  }
  convolution_param {
    num_output: 32
    pad: 2
    kernel_size: 5
    weight_filler {
      type: "xavier"
      std: 0.03
    }
    bias_filler {
      type: "constant"
      value: 0.2
    }
  }
}
layer {
  name: "inception_3a/relu_5x5"
  type: "ReLU"
  bottom: "inception_3a/5x5"
  top: "inception_3a/5x5"
}
layer {
  name: "inception_3a/pool"
  type: "Pooling"
  bottom: "pool2/3x3_s2"
  top: "inception_3a/pool"
  pooling_param {
    pool: MAX
    kernel_size: 3
    stride: 1
    pad: 1
  }
}
layer {
  name: "inception_3a/pool_proj"
  type: "Convolution"
  bottom: "inception_3a/pool"
  top: "inception_3a/pool_proj"
  param {
    lr_mult: 1
    decay_mult: 1
  }
  param {
    lr_mult: 2
    decay_mult: 0
  }
  convolution_param {
    num_output: 32
    kernel_size: 1
    weight_filler {
      type: "xavier"
      std: 0.1
    }
    bias_filler {
      type: "constant"
      value: 0.2
    }
  }
}
layer {
  name: "inception_3a/relu_pool_proj"
  type: "ReLU"
  bottom: "inception_3a/pool_proj"
  top: "inception_3a/pool_proj"
}
layer {
  name: "inception_3a/output"
  type: "Concat"
  bottom: "inception_3a/1x1"
  bottom: "inception_3a/3x3"
  bottom: "inception_3a/5x5"
  bottom: "inception_3a/pool_proj"
  top: "inception_3a/output"
}
layer {
  name: "inception_3b/1x1"
  type: "Convolution"
  bottom: "inception_3a/output"
  top: "inception_3b/1x1"
  param {
    lr_mult: 1
    decay_mult: 1
  }
  param {
    lr_mult: 2
    decay_mult: 0
  }
  convolution_param {
    num_output: 128
    kernel_size: 1
    weight_filler {
      type: "xavier"
      std: 0.03
    }
    bias_filler {
      type: "constant"
      value: 0.2
    }
  }
}
layer {
  name: "inception_3b/relu_1x1"
  type: "ReLU"
  bottom: "inception_3b/1x1"
  top: "inception_3b/1x1"
}
layer {
  name: "inception_3b/3x3_reduce"
  type: "Convolution"
  bottom: "inception_3a/output"
  top: "inception_3b/3x3_reduce"
  param {
    lr_mult: 1
    decay_mult: 1
  }
  param {
    lr_mult: 2
    decay_mult: 0
  }
  convolution_param {
    num_output: 128
    kernel_size: 1
    weight_filler {
      type: "xavier"
      std: 0.09
    }
    bias_filler {
      type: "constant"
      value: 0.2
    }
  }
}
layer {
  name: "inception_3b/relu_3x3_reduce"
  type: "ReLU"
  bottom: "inception_3b/3x3_reduce"
  top: "inception_3b/3x3_reduce"
}
layer {
  name: "inception_3b/3x3"
  type: "Convolution"
  bottom: "inception_3b/3x3_reduce"
  top: "inception_3b/3x3"
  param {
    lr_mult: 1
    decay_mult: 1
  }
  param {
    lr_mult: 2
    decay_mult: 0
  }
  convolution_param {
    num_output: 192
    pad: 1
    kernel_size: 3
    weight_filler {
      type: "xavier"
      std: 0.03
    }
    bias_filler {
      type: "constant"
      value: 0.2
    }
  }
}
layer {
  name: "inception_3b/relu_3x3"
  type: "ReLU"
  bottom: "inception_3b/3x3"
  top: "inception_3b/3x3"
}
layer {
  name: "inception_3b/5x5_reduce"
  type: "Convolution"
  bottom: "inception_3a/output"
  top: "inception_3b/5x5_reduce"
  param {
    lr_mult: 1
    decay_mult: 1
  }
  param {
    lr_mult: 2
    decay_mult: 0
  }
  convolution_param {
    num_output: 32
    kernel_size: 1
    weight_filler {
      type: "xavier"
      std: 0.2
    }
    bias_filler {
      type: "constant"
      value: 0.2
    }
  }
}
layer {
  name: "inception_3b/relu_5x5_reduce"
  type: "ReLU"
  bottom: "inception_3b/5x5_reduce"
  top: "inception_3b/5x5_reduce"
}
layer {
  name: "inception_3b/5x5"
  type: "Convolution"
  bottom: "inception_3b/5x5_reduce"
  top: "inception_3b/5x5"
  param {
    lr_mult: 1
    decay_mult: 1
  }
  param {
    lr_mult: 2
    decay_mult: 0
  }
  convolution_param {
    num_output: 96
    pad: 2
    kernel_size: 5
    weight_filler {
      type: "xavier"
      std: 0.03
    }
    bias_filler {
      type: "constant"
      value: 0.2
    }
  }
}
layer {
  name: "inception_3b/relu_5x5"
  type: "ReLU"
  bottom: "inception_3b/5x5"
  top: "inception_3b/5x5"
}
layer {
  name: "inception_3b/pool"
  type: "Pooling"
  bottom: "inception_3a/output"
  top: "inception_3b/pool"
  pooling_param {
    pool: MAX
    kernel_size: 3
    stride: 1
    pad: 1
  }
}
layer {
  name: "inception_3b/pool_proj"
  type: "Convolution"
  bottom: "inception_3b/pool"
  top: "inception_3b/pool_proj"
  param {
    lr_mult: 1
    decay_mult: 1
  }
  param {
    lr_mult: 2
    decay_mult: 0
  }
  convolution_param {
    num_output: 64
    kernel_size: 1
    weight_filler {
      type: "xavier"
      std: 0.1
    }
    bias_filler {
      type: "constant"
      value: 0.2
    }
  }
}
layer {
  name: "inception_3b/relu_pool_proj"
  type: "ReLU"
  bottom: "inception_3b/pool_proj"
  top: "inception_3b/pool_proj"
}
layer {
  name: "inception_3b/output"
  type: "Concat"
  bottom: "inception_3b/1x1"
  bottom: "inception_3b/3x3"
  bottom: "inception_3b/5x5"
  bottom: "inception_3b/pool_proj"
  top: "inception_3b/output"
}
layer {
  name: "pool3/3x3_s2"
  type: "Pooling"
  bottom: "inception_3b/output"
  top: "pool3/3x3_s2"
  pooling_param {
    pool: MAX
    kernel_size: 3
    stride: 2
  }
}
layer {
  name: "inception_4a/1x1"
  type: "Convolution"
  bottom: "pool3/3x3_s2"
  top: "inception_4a/1x1"
  param {
    lr_mult: 1
    decay_mult: 1
  }
  param {
    lr_mult: 2
    decay_mult: 0
  }
  convolution_param {
    num_output: 192
    kernel_size: 1
    weight_filler {
      type: "xavier"
      std: 0.03
    }
    bias_filler {
      type: "constant"
      value: 0.2
    }
  }
}
layer {
  name: "inception_4a/relu_1x1"
  type: "ReLU"
  bottom: "inception_4a/1x1"
  top: "inception_4a/1x1"
}
layer {
  name: "inception_4a/3x3_reduce"
  type: "Convolution"
  bottom: "pool3/3x3_s2"
  top: "inception_4a/3x3_reduce"
  param {
    lr_mult: 1
    decay_mult: 1
  }
  param {
    lr_mult: 2
    decay_mult: 0
  }
  convolution_param {
    num_output: 96
    kernel_size: 1
    weight_filler {
      type: "xavier"
      std: 0.09
    }
    bias_filler {
      type: "constant"
      value: 0.2
    }
  }
}
layer {
  name: "inception_4a/relu_3x3_reduce"
  type: "ReLU"
  bottom: "inception_4a/3x3_reduce"
  top: "inception_4a/3x3_reduce"
}
layer {
  name: "inception_4a/3x3"
  type: "Convolution"
  bottom: "inception_4a/3x3_reduce"
  top: "inception_4a/3x3"
  param {
    lr_mult: 1
    decay_mult: 1
  }
  param {
    lr_mult: 2
    decay_mult: 0
  }
  convolution_param {
    num_output: 208
    pad: 1
    kernel_size: 3
    weight_filler {
      type: "xavier"
      std: 0.03
    }
    bias_filler {
      type: "constant"
      value: 0.2
    }
  }
}
layer {
  name: "inception_4a/relu_3x3"
  type: "ReLU"
  bottom: "inception_4a/3x3"
  top: "inception_4a/3x3"
}
layer {
  name: "inception_4a/5x5_reduce"
  type: "Convolution"
  bottom: "pool3/3x3_s2"
  top: "inception_4a/5x5_reduce"
  param {
    lr_mult: 1
    decay_mult: 1
  }
  param {
    lr_mult: 2
    decay_mult: 0
  }
  convolution_param {
    num_output: 16
    kernel_size: 1
    weight_filler {
      type: "xavier"
      std: 0.2
    }
    bias_filler {
      type: "constant"
      value: 0.2
    }
  }
}
layer {
  name: "inception_4a/relu_5x5_reduce"
  type: "ReLU"
  bottom: "inception_4a/5x5_reduce"
  top: "inception_4a/5x5_reduce"
}
layer {
  name: "inception_4a/5x5"
  type: "Convolution"
  bottom: "inception_4a/5x5_reduce"
  top: "inception_4a/5x5"
  param {
    lr_mult: 1
    decay_mult: 1
  }
  param {
    lr_mult: 2
    decay_mult: 0
  }
  convolution_param {
    num_output: 48
    pad: 2
    kernel_size: 5
    weight_filler {
      type: "xavier"
      std: 0.03
    }
    bias_filler {
      type: "constant"
      value: 0.2
    }
  }
}
layer {
  name: "inception_4a/relu_5x5"
  type: "ReLU"
  bottom: "inception_4a/5x5"
  top: "inception_4a/5x5"
}
layer {
  name: "inception_4a/pool"
  type: "Pooling"
  bottom: "pool3/3x3_s2"
  top: "inception_4a/pool"
  pooling_param {
    pool: MAX
    kernel_size: 3
    stride: 1
    pad: 1
  }
}
layer {
  name: "inception_4a/pool_proj"
  type: "Convolution"
  bottom: "inception_4a/pool"
  top: "inception_4a/pool_proj"
  param {
    lr_mult: 1
    decay_mult: 1
  }
  param {
    lr_mult: 2
    decay_mult: 0
  }
  convolution_param {
    num_output: 64
    kernel_size: 1
    weight_filler {
      type: "xavier"
      std: 0.1
    }
    bias_filler {
      type: "constant"
      value: 0.2
    }
  }
}
layer {
  name: "inception_4a/relu_pool_proj"
  type: "ReLU"
  bottom: "inception_4a/pool_proj"
  top: "inception_4a/pool_proj"
}
layer {
  name: "inception_4a/output"
  type: "Concat"
  bottom: "inception_4a/1x1"
  bottom: "inception_4a/3x3"
  bottom: "inception_4a/5x5"
  bottom: "inception_4a/pool_proj"
  top: "inception_4a/output"
}
layer {
  name: "loss1/ave_pool"
  type: "Pooling"
  bottom: "inception_4a/output"
  top: "loss1/ave_pool"
  pooling_param {
    pool: AVE
    kernel_size: 5
    stride: 3
  }
}
layer {
  name: "loss1/conv"
  type: "Convolution"
  bottom: "loss1/ave_pool"
  top: "loss1/conv"
  param {
    lr_mult: 1
    decay_mult: 1
  }
  param {
    lr_mult: 2
    decay_mult: 0
  }
  convolution_param {
    num_output: 128
    kernel_size: 1
    weight_filler {
      type: "xavier"
      std: 0.08
    }
    bias_filler {
      type: "constant"
      value: 0.2
    }
  }
}
layer {
  name: "loss1/relu_conv"
  type: "ReLU"
  bottom: "loss1/conv"
  top: "loss1/conv"
}
layer {
  name: "loss1/fc"
  type: "InnerProduct"
  bottom: "loss1/conv"
  top: "loss1/fc"
  param {
    lr_mult: 1
    decay_mult: 1
  }
  param {
    lr_mult: 2
    decay_mult: 0
  }
  inner_product_param {
    num_output: 1024
    weight_filler {
      type: "xavier"
      std: 0.02
    }
    bias_filler {
      type: "constant"
      value: 0.2
    }
  }
}
layer {
  name: "loss1/relu_fc"
  type: "ReLU"
  bottom: "loss1/fc"
  top: "loss1/fc"
}
layer {
  name: "loss1/drop_fc"
  type: "Dropout"
  bottom: "loss1/fc"
  top: "loss1/fc"
  dropout_param {
    dropout_ratio: 0.7
  }
}
layer {
  name: "loss1/classifier_plantvillage"
  type: "InnerProduct"
  bottom: "loss1/fc"
  top: "loss1/classifier_plantvillage"
  param {
    lr_mult: 1
    decay_mult: 1
  }
  param {
    lr_mult: 2
    decay_mult: 0
  }
  inner_product_param {
    num_output: 38
    weight_filler {
      type: "xavier"
      std: 0.0009765625
    }
    bias_filler {
      type: "constant"
      value: 0
    }
  }
}
layer {
  name: "inception_4b/1x1"
  type: "Convolution"
  bottom: "inception_4a/output"
  top: "inception_4b/1x1"
  param {
    lr_mult: 1
    decay_mult: 1
  }
  param {
    lr_mult: 2
    decay_mult: 0
  }
  convolution_param {
    num_output: 160
    kernel_size: 1
    weight_filler {
      type: "xavier"
      std: 0.03
    }
    bias_filler {
      type: "constant"
      value: 0.2
    }
  }
}
layer {
  name: "inception_4b/relu_1x1"
  type: "ReLU"
  bottom: "inception_4b/1x1"
  top: "inception_4b/1x1"
}
layer {
  name: "inception_4b/3x3_reduce"
  type: "Convolution"
  bottom: "inception_4a/output"
  top: "inception_4b/3x3_reduce"
  param {
    lr_mult: 1
    decay_mult: 1
  }
  param {
    lr_mult: 2
    decay_mult: 0
  }
  convolution_param {
    num_output: 112
    kernel_size: 1
    weight_filler {
      type: "xavier"
      std: 0.09
    }
    bias_filler {
      type: "constant"
      value: 0.2
    }
  }
}
layer {
  name: "inception_4b/relu_3x3_reduce"
  type: "ReLU"
  bottom: "inception_4b/3x3_reduce"
  top: "inception_4b/3x3_reduce"
}
layer {
  name: "inception_4b/3x3"
  type: "Convolution"
  bottom: "inception_4b/3x3_reduce"
  top: "inception_4b/3x3"
  param {
    lr_mult: 1
    decay_mult: 1
  }
  param {
    lr_mult: 2
    decay_mult: 0
  }
  convolution_param {
    num_output: 224
    pad: 1
    kernel_size: 3
    weight_filler {
      type: "xavier"
      std: 0.03
    }
    bias_filler {
      type: "constant"
      value: 0.2
    }
  }
}
layer {
  name: "inception_4b/relu_3x3"
  type: "ReLU"
  bottom: "inception_4b/3x3"
  top: "inception_4b/3x3"
}
layer {
  name: "inception_4b/5x5_reduce"
  type: "Convolution"
  bottom: "inception_4a/output"
  top: "inception_4b/5x5_reduce"
  param {
    lr_mult: 1
    decay_mult: 1
  }
  param {
    lr_mult: 2
    decay_mult: 0
  }
  convolution_param {
    num_output: 24
    kernel_size: 1
    weight_filler {
      type: "xavier"
      std: 0.2
    }
    bias_filler {
      type: "constant"
      value: 0.2
    }
  }
}
layer {
  name: "inception_4b/relu_5x5_reduce"
  type: "ReLU"
  bottom: "inception_4b/5x5_reduce"
  top: "inception_4b/5x5_reduce"
}
layer {
  name: "inception_4b/5x5"
  type: "Convolution"
  bottom: "inception_4b/5x5_reduce"
  top: "inception_4b/5x5"
  param {
    lr_mult: 1
    decay_mult: 1
  }
  param {
    lr_mult: 2
    decay_mult: 0
  }
  convolution_param {
    num_output: 64
    pad: 2
    kernel_size: 5
    weight_filler {
      type: "xavier"
      std: 0.03
    }
    bias_filler {
      type: "constant"
      value: 0.2
    }
  }
}
layer {
  name: "inception_4b/relu_5x5"
  type: "ReLU"
  bottom: "inception_4b/5x5"
  top: "inception_4b/5x5"
}
layer {
  name: "inception_4b/pool"
  type: "Pooling"
  bottom: "inception_4a/output"
  top: "inception_4b/pool"
  pooling_param {
    pool: MAX
    kernel_size: 3
    stride: 1
    pad: 1
  }
}
layer {
  name: "inception_4b/pool_proj"
  type: "Convolution"
  bottom: "inception_4b/pool"
  top: "inception_4b/pool_proj"
  param {
    lr_mult: 1
    decay_mult: 1
  }
  param {
    lr_mult: 2
    decay_mult: 0
  }
  convolution_param {
    num_output: 64
    kernel_size: 1
    weight_filler {
      type: "xavier"
      std: 0.1
    }
    bias_filler {
      type: "constant"
      value: 0.2
    }
  }
}
layer {
  name: "inception_4b/relu_pool_proj"
  type: "ReLU"
  bottom: "inception_4b/pool_proj"
  top: "inception_4b/pool_proj"
}
layer {
  name: "inception_4b/output"
  type: "Concat"
  bottom: "inception_4b/1x1"
  bottom: "inception_4b/3x3"
  bottom: "inception_4b/5x5"
  bottom: "inception_4b/pool_proj"
  top: "inception_4b/output"
}
layer {
  name: "inception_4c/1x1"
  type: "Convolution"
  bottom: "inception_4b/output"
  top: "inception_4c/1x1"
  param {
    lr_mult: 1
    decay_mult: 1
  }
  param {
    lr_mult: 2
    decay_mult: 0
  }
  convolution_param {
    num_output: 128
    kernel_size: 1
    weight_filler {
      type: "xavier"
      std: 0.03
    }
    bias_filler {
      type: "constant"
      value: 0.2
    }
  }
}
layer {
  name: "inception_4c/relu_1x1"
  type: "ReLU"
  bottom: "inception_4c/1x1"
  top: "inception_4c/1x1"
}
layer {
  name: "inception_4c/3x3_reduce"
  type: "Convolution"
  bottom: "inception_4b/output"
  top: "inception_4c/3x3_reduce"
  param {
    lr_mult: 1
    decay_mult: 1
  }
  param {
    lr_mult: 2
    decay_mult: 0
  }
  convolution_param {
    num_output: 128
    kernel_size: 1
    weight_filler {
      type: "xavier"
      std: 0.09
    }
    bias_filler {
      type: "constant"
      value: 0.2
    }
  }
}
layer {
  name: "inception_4c/relu_3x3_reduce"
  type: "ReLU"
  bottom: "inception_4c/3x3_reduce"
  top: "inception_4c/3x3_reduce"
}
layer {
  name: "inception_4c/3x3"
  type: "Convolution"
  bottom: "inception_4c/3x3_reduce"
  top: "inception_4c/3x3"
  param {
    lr_mult: 1
    decay_mult: 1
  }
  param {
    lr_mult: 2
    decay_mult: 0
  }
  convolution_param {
    num_output: 256
    pad: 1
    kernel_size: 3
    weight_filler {
      type: "xavier"
      std: 0.03
    }
    bias_filler {
      type: "constant"
      value: 0.2
    }
  }
}
layer {
  name: "inception_4c/relu_3x3"
  type: "ReLU"
  bottom: "inception_4c/3x3"
  top: "inception_4c/3x3"
}
layer {
  name: "inception_4c/5x5_reduce"
  type: "Convolution"
  bottom: "inception_4b/output"
  top: "inception_4c/5x5_reduce"
  param {
    lr_mult: 1
    decay_mult: 1
  }
  param {
    lr_mult: 2
    decay_mult: 0
  }
  convolution_param {
    num_output: 24
    kernel_size: 1
    weight_filler {
      type: "xavier"
      std: 0.2
    }
    bias_filler {
      type: "constant"
      value: 0.2
    }
  }
}
layer {
  name: "inception_4c/relu_5x5_reduce"
  type: "ReLU"
  bottom: "inception_4c/5x5_reduce"
  top: "inception_4c/5x5_reduce"
}
layer {
  name: "inception_4c/5x5"
  type: "Convolution"
  bottom: "inception_4c/5x5_reduce"
  top: "inception_4c/5x5"
  param {
    lr_mult: 1
    decay_mult: 1
  }
  param {
    lr_mult: 2
    decay_mult: 0
  }
  convolution_param {
    num_output: 64
    pad: 2
    kernel_size: 5
    weight_filler {
      type: "xavier"
      std: 0.03
    }
    bias_filler {
      type: "constant"
      value: 0.2
    }
  }
}
layer {
  name: "inception_4c/relu_5x5"
  type: "ReLU"
  bottom: "inception_4c/5x5"
  top: "inception_4c/5x5"
}
layer {
  name: "inception_4c/pool"
  type: "Pooling"
  bottom: "inception_4b/output"
  top: "inception_4c/pool"
  pooling_param {
    pool: MAX
    kernel_size: 3
    stride: 1
    pad: 1
  }
}
layer {
  name: "inception_4c/pool_proj"
  type: "Convolution"
  bottom: "inception_4c/pool"
  top: "inception_4c/pool_proj"
  param {
    lr_mult: 1
    decay_mult: 1
  }
  param {
    lr_mult: 2
    decay_mult: 0
  }
  convolution_param {
    num_output: 64
    kernel_size: 1
    weight_filler {
      type: "xavier"
      std: 0.1
    }
    bias_filler {
      type: "constant"
      value: 0.2
    }
  }
}
layer {
  name: "inception_4c/relu_pool_proj"
  type: "ReLU"
  bottom: "inception_4c/pool_proj"
  top: "inception_4c/pool_proj"
}
layer {
  name: "inception_4c/output"
  type: "Concat"
  bottom: "inception_4c/1x1"
  bottom: "inception_4c/3x3"
  bottom: "inception_4c/5x5"
  bottom: "inception_4c/pool_proj"
  top: "inception_4c/output"
}
layer {
  name: "inception_4d/1x1"
  type: "Convolution"
  bottom: "inception_4c/output"
  top: "inception_4d/1x1"
  param {
    lr_mult: 1
    decay_mult: 1
  }
  param {
    lr_mult: 2
    decay_mult: 0
  }
  convolution_param {
    num_output: 112
    kernel_size: 1
    weight_filler {
      type: "xavier"
      std: 0.03
    }
    bias_filler {
      type: "constant"
      value: 0.2
    }
  }
}
layer {
  name: "inception_4d/relu_1x1"
  type: "ReLU"
  bottom: "inception_4d/1x1"
  top: "inception_4d/1x1"
}
layer {
  name: "inception_4d/3x3_reduce"
  type: "Convolution"
  bottom: "inception_4c/output"
  top: "inception_4d/3x3_reduce"
  param {
    lr_mult: 1
    decay_mult: 1
  }
  param {
    lr_mult: 2
    decay_mult: 0
  }
  convolution_param {
    num_output: 144
    kernel_size: 1
    weight_filler {
      type: "xavier"
      std: 0.09
    }
    bias_filler {
      type: "constant"
      value: 0.2
    }
  }
}
layer {
  name: "inception_4d/relu_3x3_reduce"
  type: "ReLU"
  bottom: "inception_4d/3x3_reduce"
  top: "inception_4d/3x3_reduce"
}
layer {
  name: "inception_4d/3x3"
  type: "Convolution"
  bottom: "inception_4d/3x3_reduce"
  top: "inception_4d/3x3"
  param {
    lr_mult: 1
    decay_mult: 1
  }
  param {
    lr_mult: 2
    decay_mult: 0
  }
  convolution_param {
    num_output: 288
    pad: 1
    kernel_size: 3
    weight_filler {
      type: "xavier"
      std: 0.03
    }
    bias_filler {
      type: "constant"
      value: 0.2
    }
  }
}
layer {
  name: "inception_4d/relu_3x3"
  type: "ReLU"
  bottom: "inception_4d/3x3"
  top: "inception_4d/3x3"
}
layer {
  name: "inception_4d/5x5_reduce"
  type: "Convolution"
  bottom: "inception_4c/output"
  top: "inception_4d/5x5_reduce"
  param {
    lr_mult: 1
    decay_mult: 1
  }
  param {
    lr_mult: 2
    decay_mult: 0
  }
  convolution_param {
    num_output: 32
    kernel_size: 1
    weight_filler {
      type: "xavier"
      std: 0.2
    }
    bias_filler {
      type: "constant"
      value: 0.2
    }
  }
}
layer {
  name: "inception_4d/relu_5x5_reduce"
  type: "ReLU"
  bottom: "inception_4d/5x5_reduce"
  top: "inception_4d/5x5_reduce"
}
layer {
  name: "inception_4d/5x5"
  type: "Convolution"
  bottom: "inception_4d/5x5_reduce"
  top: "inception_4d/5x5"
  param {
    lr_mult: 1
    decay_mult: 1
  }
  param {
    lr_mult: 2
    decay_mult: 0
  }
  convolution_param {
    num_output: 64
    pad: 2
    kernel_size: 5
    weight_filler {
      type: "xavier"
      std: 0.03
    }
    bias_filler {
      type: "constant"
      value: 0.2
    }
  }
}
layer {
  name: "inception_4d/relu_5x5"
  type: "ReLU"
  bottom: "inception_4d/5x5"
  top: "inception_4d/5x5"
}
layer {
  name: "inception_4d/pool"
  type: "Pooling"
  bottom: "inception_4c/output"
  top: "inception_4d/pool"
  pooling_param {
    pool: MAX
    kernel_size: 3
    stride: 1
    pad: 1
  }
}
layer {
  name: "inception_4d/pool_proj"
  type: "Convolution"
  bottom: "inception_4d/pool"
  top: "inception_4d/pool_proj"
  param {
    lr_mult: 1
    decay_mult: 1
  }
  param {
    lr_mult: 2
    decay_mult: 0
  }
  convolution_param {
    num_output: 64
    kernel_size: 1
    weight_filler {
      type: "xavier"
      std: 0.1
    }
    bias_filler {
      type: "constant"
      value: 0.2
    }
  }
}
layer {
  name: "inception_4d/relu_pool_proj"
  type: "ReLU"
  bottom: "inception_4d/pool_proj"
  top: "inception_4d/pool_proj"
}
layer {
  name: "inception_4d/output"
  type: "Concat"
  bottom: "inception_4d/1x1"
  bottom: "inception_4d/3x3"
  bottom: "inception_4d/5x5"
  bottom: "inception_4d/pool_proj"
  top: "inception_4d/output"
}
layer {
  name: "loss2/ave_pool"
  type: "Pooling"
  bottom: "inception_4d/output"
  top: "loss2/ave_pool"
  pooling_param {
    pool: AVE
    kernel_size: 5
    stride: 3
  }
}
layer {
  name: "loss2/conv"
  type: "Convolution"
  bottom: "loss2/ave_pool"
  top: "loss2/conv"
  param {
    lr_mult: 1
    decay_mult: 1
  }
  param {
    lr_mult: 2
    decay_mult: 0
  }
  convolution_param {
    num_output: 128
    kernel_size: 1
    weight_filler {
      type: "xavier"
      std: 0.08
    }
    bias_filler {
      type: "constant"
      value: 0.2
    }
  }
}
layer {
  name: "loss2/relu_conv"
  type: "ReLU"
  bottom: "loss2/conv"
  top: "loss2/conv"
}
layer {
  name: "loss2/fc"
  type: "InnerProduct"
  bottom: "loss2/conv"
  top: "loss2/fc"
  param {
    lr_mult: 1
    decay_mult: 1
  }
  param {
    lr_mult: 2
    decay_mult: 0
  }
  inner_product_param {
    num_output: 1024
    weight_filler {
      type: "xavier"
      std: 0.02
    }
    bias_filler {
      type: "constant"
      value: 0.2
    }
  }
}
layer {
  name: "loss2/relu_fc"
  type: "ReLU"
  bottom: "loss2/fc"
  top: "loss2/fc"
}
layer {
  name: "loss2/drop_fc"
  type: "Dropout"
  bottom: "loss2/fc"
  top: "loss2/fc"
  dropout_param {
    dropout_ratio: 0.7
  }
}
layer {
  name: "loss2/classifier_plantvillage"
  type: "InnerProduct"
  bottom: "loss2/fc"
  top: "loss2/classifier_plantvillage"
  param {
    lr_mult: 1
    decay_mult: 1
  }
  param {
    lr_mult: 2
    decay_mult: 0
  }
  inner_product_param {
    num_output: 38
    weight_filler {
      type: "xavier"
      std: 0.0009765625
    }
    bias_filler {
      type: "constant"
      value: 0
    }
  }
}
layer {
  name: "inception_4e/1x1"
  type: "Convolution"
  bottom: "inception_4d/output"
  top: "inception_4e/1x1"
  param {
    lr_mult: 1
    decay_mult: 1
  }
  param {
    lr_mult: 2
    decay_mult: 0
  }
  convolution_param {
    num_output: 256
    kernel_size: 1
    weight_filler {
      type: "xavier"
      std: 0.03
    }
    bias_filler {
      type: "constant"
      value: 0.2
    }
  }
}
layer {
  name: "inception_4e/relu_1x1"
  type: "ReLU"
  bottom: "inception_4e/1x1"
  top: "inception_4e/1x1"
}
layer {
  name: "inception_4e/3x3_reduce"
  type: "Convolution"
  bottom: "inception_4d/output"
  top: "inception_4e/3x3_reduce"
  param {
    lr_mult: 1
    decay_mult: 1
  }
  param {
    lr_mult: 2
    decay_mult: 0
  }
  convolution_param {
    num_output: 160
    kernel_size: 1
    weight_filler {
      type: "xavier"
      std: 0.09
    }
    bias_filler {
      type: "constant"
      value: 0.2
    }
  }
}
layer {
  name: "inception_4e/relu_3x3_reduce"
  type: "ReLU"
  bottom: "inception_4e/3x3_reduce"
  top: "inception_4e/3x3_reduce"
}
layer {
  name: "inception_4e/3x3"
  type: "Convolution"
  bottom: "inception_4e/3x3_reduce"
  top: "inception_4e/3x3"
  param {
    lr_mult: 1
    decay_mult: 1
  }
  param {
    lr_mult: 2
    decay_mult: 0
  }
  convolution_param {
    num_output: 320
    pad: 1
    kernel_size: 3
    weight_filler {
      type: "xavier"
      std: 0.03
    }
    bias_filler {
      type: "constant"
      value: 0.2
    }
  }
}
layer {
  name: "inception_4e/relu_3x3"
  type: "ReLU"
  bottom: "inception_4e/3x3"
  top: "inception_4e/3x3"
}
layer {
  name: "inception_4e/5x5_reduce"
  type: "Convolution"
  bottom: "inception_4d/output"
  top: "inception_4e/5x5_reduce"
  param {
    lr_mult: 1
    decay_mult: 1
  }
  param {
    lr_mult: 2
    decay_mult: 0
  }
  convolution_param {
    num_output: 32
    kernel_size: 1
    weight_filler {
      type: "xavier"
      std: 0.2
    }
    bias_filler {
      type: "constant"
      value: 0.2
    }
  }
}
layer {
  name: "inception_4e/relu_5x5_reduce"
  type: "ReLU"
  bottom: "inception_4e/5x5_reduce"
  top: "inception_4e/5x5_reduce"
}
layer {
  name: "inception_4e/5x5"
  type: "Convolution"
  bottom: "inception_4e/5x5_reduce"
  top: "inception_4e/
I0403 19:00:39.193253 24178 layer_factory.hpp:77] Creating layer data
I0403 19:00:39.193874 24178 net.cpp:91] Creating Layer data
I0403 19:00:39.193903 24178 net.cpp:399] data -> data
I0403 19:00:39.193955 24178 net.cpp:399] data -> label
I0403 19:00:39.193991 24178 data_transformer.cpp:25] Loading mean file from: /home/mohanty/data/final_dataset/lmdb/segmented-40-60/mean.binaryproto
I0403 19:00:39.194996 24181 db_lmdb.cpp:38] Opened lmdb /home/mohanty/data/final_dataset/lmdb/segmented-40-60/test_db
I0403 19:00:39.217123 24178 data_layer.cpp:41] output data size: 24,3,224,224
I0403 19:00:39.246194 24178 net.cpp:141] Setting up data
I0403 19:00:39.246273 24178 net.cpp:148] Top shape: 24 3 224 224 (3612672)
I0403 19:00:39.246294 24178 net.cpp:148] Top shape: 24 (24)
I0403 19:00:39.246310 24178 net.cpp:156] Memory required for data: 14450784
I0403 19:00:39.246340 24178 layer_factory.hpp:77] Creating layer label_data_1_split
I0403 19:00:39.246366 24178 net.cpp:91] Creating Layer label_data_1_split
I0403 19:00:39.246383 24178 net.cpp:425] label_data_1_split <- label
I0403 19:00:39.246417 24178 net.cpp:399] label_data_1_split -> label_data_1_split_0
I0403 19:00:39.246445 24178 net.cpp:399] label_data_1_split -> label_data_1_split_1
I0403 19:00:39.246466 24178 net.cpp:399] label_data_1_split -> label_data_1_split_2
I0403 19:00:39.246486 24178 net.cpp:399] label_data_1_split -> label_data_1_split_3
I0403 19:00:39.246510 24178 net.cpp:399] label_data_1_split -> label_data_1_split_4
I0403 19:00:39.246532 24178 net.cpp:399] label_data_1_split -> label_data_1_split_5
I0403 19:00:39.246552 24178 net.cpp:399] label_data_1_split -> label_data_1_split_6
I0403 19:00:39.246572 24178 net.cpp:399] label_data_1_split -> label_data_1_split_7
I0403 19:00:39.246592 24178 net.cpp:399] label_data_1_split -> label_data_1_split_8
I0403 19:00:39.246613 24178 net.cpp:399] label_data_1_split -> label_data_1_split_9
I0403 19:00:39.246727 24178 net.cpp:141] Setting up label_data_1_split
I0403 19:00:39.246750 24178 net.cpp:148] Top shape: 24 (24)
I0403 19:00:39.246767 24178 net.cpp:148] Top shape: 24 (24)
I0403 19:00:39.246783 24178 net.cpp:148] Top shape: 24 (24)
I0403 19:00:39.246798 24178 net.cpp:148] Top shape: 24 (24)
I0403 19:00:39.246814 24178 net.cpp:148] Top shape: 24 (24)
I0403 19:00:39.246829 24178 net.cpp:148] Top shape: 24 (24)
I0403 19:00:39.246845 24178 net.cpp:148] Top shape: 24 (24)
I0403 19:00:39.246860 24178 net.cpp:148] Top shape: 24 (24)
I0403 19:00:39.246876 24178 net.cpp:148] Top shape: 24 (24)
I0403 19:00:39.246892 24178 net.cpp:148] Top shape: 24 (24)
I0403 19:00:39.246948 24178 net.cpp:156] Memory required for data: 14451744
I0403 19:00:39.246963 24178 layer_factory.hpp:77] Creating layer conv1/7x7_s2
I0403 19:00:39.246994 24178 net.cpp:91] Creating Layer conv1/7x7_s2
I0403 19:00:39.247014 24178 net.cpp:425] conv1/7x7_s2 <- data
I0403 19:00:39.247033 24178 net.cpp:399] conv1/7x7_s2 -> conv1/7x7_s2
I0403 19:00:39.392720 24178 net.cpp:141] Setting up conv1/7x7_s2
I0403 19:00:39.392784 24178 net.cpp:148] Top shape: 24 64 112 112 (19267584)
I0403 19:00:39.392801 24178 net.cpp:156] Memory required for data: 91522080
I0403 19:00:39.392830 24178 layer_factory.hpp:77] Creating layer conv1/relu_7x7
I0403 19:00:39.392856 24178 net.cpp:91] Creating Layer conv1/relu_7x7
I0403 19:00:39.392875 24178 net.cpp:425] conv1/relu_7x7 <- conv1/7x7_s2
I0403 19:00:39.392894 24178 net.cpp:386] conv1/relu_7x7 -> conv1/7x7_s2 (in-place)
I0403 19:00:39.393139 24178 net.cpp:141] Setting up conv1/relu_7x7
I0403 19:00:39.393165 24178 net.cpp:148] Top shape: 24 64 112 112 (19267584)
I0403 19:00:39.393180 24178 net.cpp:156] Memory required for data: 168592416
I0403 19:00:39.393195 24178 layer_factory.hpp:77] Creating layer pool1/3x3_s2
I0403 19:00:39.393218 24178 net.cpp:91] Creating Layer pool1/3x3_s2
I0403 19:00:39.393235 24178 net.cpp:425] pool1/3x3_s2 <- conv1/7x7_s2
I0403 19:00:39.393254 24178 net.cpp:399] pool1/3x3_s2 -> pool1/3x3_s2
I0403 19:00:39.393327 24178 net.cpp:141] Setting up pool1/3x3_s2
I0403 19:00:39.393350 24178 net.cpp:148] Top shape: 24 64 56 56 (4816896)
I0403 19:00:39.393368 24178 net.cpp:156] Memory required for data: 187860000
I0403 19:00:39.393381 24178 layer_factory.hpp:77] Creating layer pool1/norm1
I0403 19:00:39.393405 24178 net.cpp:91] Creating Layer pool1/norm1
I0403 19:00:39.393422 24178 net.cpp:425] pool1/norm1 <- pool1/3x3_s2
I0403 19:00:39.393440 24178 net.cpp:399] pool1/norm1 -> pool1/norm1
I0403 19:00:39.393717 24178 net.cpp:141] Setting up pool1/norm1
I0403 19:00:39.393743 24178 net.cpp:148] Top shape: 24 64 56 56 (4816896)
I0403 19:00:39.393757 24178 net.cpp:156] Memory required for data: 207127584
I0403 19:00:39.393772 24178 layer_factory.hpp:77] Creating layer conv2/3x3_reduce
I0403 19:00:39.393795 24178 net.cpp:91] Creating Layer conv2/3x3_reduce
I0403 19:00:39.393812 24178 net.cpp:425] conv2/3x3_reduce <- pool1/norm1
I0403 19:00:39.393831 24178 net.cpp:399] conv2/3x3_reduce -> conv2/3x3_reduce
I0403 19:00:39.395135 24178 net.cpp:141] Setting up conv2/3x3_reduce
I0403 19:00:39.395164 24178 net.cpp:148] Top shape: 24 64 56 56 (4816896)
I0403 19:00:39.395179 24178 net.cpp:156] Memory required for data: 226395168
I0403 19:00:39.395200 24178 layer_factory.hpp:77] Creating layer conv2/relu_3x3_reduce
I0403 19:00:39.395220 24178 net.cpp:91] Creating Layer conv2/relu_3x3_reduce
I0403 19:00:39.395236 24178 net.cpp:425] conv2/relu_3x3_reduce <- conv2/3x3_reduce
I0403 19:00:39.395252 24178 net.cpp:386] conv2/relu_3x3_reduce -> conv2/3x3_reduce (in-place)
I0403 19:00:39.395493 24178 net.cpp:141] Setting up conv2/relu_3x3_reduce
I0403 19:00:39.395534 24178 net.cpp:148] Top shape: 24 64 56 56 (4816896)
I0403 19:00:39.395551 24178 net.cpp:156] Memory required for data: 245662752
I0403 19:00:39.395565 24178 layer_factory.hpp:77] Creating layer conv2/3x3
I0403 19:00:39.395586 24178 net.cpp:91] Creating Layer conv2/3x3
I0403 19:00:39.395603 24178 net.cpp:425] conv2/3x3 <- conv2/3x3_reduce
I0403 19:00:39.395622 24178 net.cpp:399] conv2/3x3 -> conv2/3x3
I0403 19:00:39.397866 24178 net.cpp:141] Setting up conv2/3x3
I0403 19:00:39.397902 24178 net.cpp:148] Top shape: 24 192 56 56 (14450688)
I0403 19:00:39.397919 24178 net.cpp:156] Memory required for data: 303465504
I0403 19:00:39.397941 24178 layer_factory.hpp:77] Creating layer conv2/relu_3x3
I0403 19:00:39.397960 24178 net.cpp:91] Creating Layer conv2/relu_3x3
I0403 19:00:39.397976 24178 net.cpp:425] conv2/relu_3x3 <- conv2/3x3
I0403 19:00:39.397994 24178 net.cpp:386] conv2/relu_3x3 -> conv2/3x3 (in-place)
I0403 19:00:39.398175 24178 net.cpp:141] Setting up conv2/relu_3x3
I0403 19:00:39.398200 24178 net.cpp:148] Top shape: 24 192 56 56 (14450688)
I0403 19:00:39.398255 24178 net.cpp:156] Memory required for data: 361268256
I0403 19:00:39.398272 24178 layer_factory.hpp:77] Creating layer conv2/norm2
I0403 19:00:39.398291 24178 net.cpp:91] Creating Layer conv2/norm2
I0403 19:00:39.398308 24178 net.cpp:425] conv2/norm2 <- conv2/3x3
I0403 19:00:39.398325 24178 net.cpp:399] conv2/norm2 -> conv2/norm2
I0403 19:00:39.398629 24178 net.cpp:141] Setting up conv2/norm2
I0403 19:00:39.398656 24178 net.cpp:148] Top shape: 24 192 56 56 (14450688)
I0403 19:00:39.398671 24178 net.cpp:156] Memory required for data: 419071008
I0403 19:00:39.398686 24178 layer_factory.hpp:77] Creating layer pool2/3x3_s2
I0403 19:00:39.398707 24178 net.cpp:91] Creating Layer pool2/3x3_s2
I0403 19:00:39.398723 24178 net.cpp:425] pool2/3x3_s2 <- conv2/norm2
I0403 19:00:39.398741 24178 net.cpp:399] pool2/3x3_s2 -> pool2/3x3_s2
I0403 19:00:39.398793 24178 net.cpp:141] Setting up pool2/3x3_s2
I0403 19:00:39.398816 24178 net.cpp:148] Top shape: 24 192 28 28 (3612672)
I0403 19:00:39.398830 24178 net.cpp:156] Memory required for data: 433521696
I0403 19:00:39.398844 24178 layer_factory.hpp:77] Creating layer pool2/3x3_s2_pool2/3x3_s2_0_split
I0403 19:00:39.398861 24178 net.cpp:91] Creating Layer pool2/3x3_s2_pool2/3x3_s2_0_split
I0403 19:00:39.398876 24178 net.cpp:425] pool2/3x3_s2_pool2/3x3_s2_0_split <- pool2/3x3_s2
I0403 19:00:39.398896 24178 net.cpp:399] pool2/3x3_s2_pool2/3x3_s2_0_split -> pool2/3x3_s2_pool2/3x3_s2_0_split_0
I0403 19:00:39.398917 24178 net.cpp:399] pool2/3x3_s2_pool2/3x3_s2_0_split -> pool2/3x3_s2_pool2/3x3_s2_0_split_1
I0403 19:00:39.398936 24178 net.cpp:399] pool2/3x3_s2_pool2/3x3_s2_0_split -> pool2/3x3_s2_pool2/3x3_s2_0_split_2
I0403 19:00:39.398957 24178 net.cpp:399] pool2/3x3_s2_pool2/3x3_s2_0_split -> pool2/3x3_s2_pool2/3x3_s2_0_split_3
I0403 19:00:39.399024 24178 net.cpp:141] Setting up pool2/3x3_s2_pool2/3x3_s2_0_split
I0403 19:00:39.399049 24178 net.cpp:148] Top shape: 24 192 28 28 (3612672)
I0403 19:00:39.399066 24178 net.cpp:148] Top shape: 24 192 28 28 (3612672)
I0403 19:00:39.399081 24178 net.cpp:148] Top shape: 24 192 28 28 (3612672)
I0403 19:00:39.399096 24178 net.cpp:148] Top shape: 24 192 28 28 (3612672)
I0403 19:00:39.399109 24178 net.cpp:156] Memory required for data: 491324448
I0403 19:00:39.399124 24178 layer_factory.hpp:77] Creating layer inception_3a/1x1
I0403 19:00:39.399147 24178 net.cpp:91] Creating Layer inception_3a/1x1
I0403 19:00:39.399164 24178 net.cpp:425] inception_3a/1x1 <- pool2/3x3_s2_pool2/3x3_s2_0_split_0
I0403 19:00:39.399183 24178 net.cpp:399] inception_3a/1x1 -> inception_3a/1x1
I0403 19:00:39.400758 24178 net.cpp:141] Setting up inception_3a/1x1
I0403 19:00:39.400786 24178 net.cpp:148] Top shape: 24 64 28 28 (1204224)
I0403 19:00:39.400802 24178 net.cpp:156] Memory required for data: 496141344
I0403 19:00:39.400822 24178 layer_factory.hpp:77] Creating layer inception_3a/relu_1x1
I0403 19:00:39.400842 24178 net.cpp:91] Creating Layer inception_3a/relu_1x1
I0403 19:00:39.400858 24178 net.cpp:425] inception_3a/relu_1x1 <- inception_3a/1x1
I0403 19:00:39.400876 24178 net.cpp:386] inception_3a/relu_1x1 -> inception_3a/1x1 (in-place)
I0403 19:00:39.401054 24178 net.cpp:141] Setting up inception_3a/relu_1x1
I0403 19:00:39.401078 24178 net.cpp:148] Top shape: 24 64 28 28 (1204224)
I0403 19:00:39.401093 24178 net.cpp:156] Memory required for data: 500958240
I0403 19:00:39.401109 24178 layer_factory.hpp:77] Creating layer inception_3a/3x3_reduce
I0403 19:00:39.401131 24178 net.cpp:91] Creating Layer inception_3a/3x3_reduce
I0403 19:00:39.401150 24178 net.cpp:425] inception_3a/3x3_reduce <- pool2/3x3_s2_pool2/3x3_s2_0_split_1
I0403 19:00:39.401171 24178 net.cpp:399] inception_3a/3x3_reduce -> inception_3a/3x3_reduce
I0403 19:00:39.402845 24178 net.cpp:141] Setting up inception_3a/3x3_reduce
I0403 19:00:39.402878 24178 net.cpp:148] Top shape: 24 96 28 28 (1806336)
I0403 19:00:39.402894 24178 net.cpp:156] Memory required for data: 508183584
I0403 19:00:39.402915 24178 layer_factory.hpp:77] Creating layer inception_3a/relu_3x3_reduce
I0403 19:00:39.402953 24178 net.cpp:91] Creating Layer inception_3a/relu_3x3_reduce
I0403 19:00:39.402971 24178 net.cpp:425] inception_3a/relu_3x3_reduce <- inception_3a/3x3_reduce
I0403 19:00:39.402992 24178 net.cpp:386] inception_3a/relu_3x3_reduce -> inception_3a/3x3_reduce (in-place)
I0403 19:00:39.403173 24178 net.cpp:141] Setting up inception_3a/relu_3x3_reduce
I0403 19:00:39.403198 24178 net.cpp:148] Top shape: 24 96 28 28 (1806336)
I0403 19:00:39.403213 24178 net.cpp:156] Memory required for data: 515408928
I0403 19:00:39.403228 24178 layer_factory.hpp:77] Creating layer inception_3a/3x3
I0403 19:00:39.403249 24178 net.cpp:91] Creating Layer inception_3a/3x3
I0403 19:00:39.403266 24178 net.cpp:425] inception_3a/3x3 <- inception_3a/3x3_reduce
I0403 19:00:39.403288 24178 net.cpp:399] inception_3a/3x3 -> inception_3a/3x3
I0403 19:00:39.404932 24178 net.cpp:141] Setting up inception_3a/3x3
I0403 19:00:39.404963 24178 net.cpp:148] Top shape: 24 128 28 28 (2408448)
I0403 19:00:39.404978 24178 net.cpp:156] Memory required for data: 525042720
I0403 19:00:39.404996 24178 layer_factory.hpp:77] Creating layer inception_3a/relu_3x3
I0403 19:00:39.405014 24178 net.cpp:91] Creating Layer inception_3a/relu_3x3
I0403 19:00:39.405030 24178 net.cpp:425] inception_3a/relu_3x3 <- inception_3a/3x3
I0403 19:00:39.405050 24178 net.cpp:386] inception_3a/relu_3x3 -> inception_3a/3x3 (in-place)
I0403 19:00:39.405328 24178 net.cpp:141] Setting up inception_3a/relu_3x3
I0403 19:00:39.405355 24178 net.cpp:148] Top shape: 24 128 28 28 (2408448)
I0403 19:00:39.405370 24178 net.cpp:156] Memory required for data: 534676512
I0403 19:00:39.405385 24178 layer_factory.hpp:77] Creating layer inception_3a/5x5_reduce
I0403 19:00:39.405410 24178 net.cpp:91] Creating Layer inception_3a/5x5_reduce
I0403 19:00:39.405426 24178 net.cpp:425] inception_3a/5x5_reduce <- pool2/3x3_s2_pool2/3x3_s2_0_split_2
I0403 19:00:39.405444 24178 net.cpp:399] inception_3a/5x5_reduce -> inception_3a/5x5_reduce
I0403 19:00:39.406411 24178 net.cpp:141] Setting up inception_3a/5x5_reduce
I0403 19:00:39.406443 24178 net.cpp:148] Top shape: 24 16 28 28 (301056)
I0403 19:00:39.406460 24178 net.cpp:156] Memory required for data: 535880736
I0403 19:00:39.406477 24178 layer_factory.hpp:77] Creating layer inception_3a/relu_5x5_reduce
I0403 19:00:39.406496 24178 net.cpp:91] Creating Layer inception_3a/relu_5x5_reduce
I0403 19:00:39.406514 24178 net.cpp:425] inception_3a/relu_5x5_reduce <- inception_3a/5x5_reduce
I0403 19:00:39.406538 24178 net.cpp:386] inception_3a/relu_5x5_reduce -> inception_3a/5x5_reduce (in-place)
I0403 19:00:39.406819 24178 net.cpp:141] Setting up inception_3a/relu_5x5_reduce
I0403 19:00:39.406844 24178 net.cpp:148] Top shape: 24 16 28 28 (301056)
I0403 19:00:39.406859 24178 net.cpp:156] Memory required for data: 537084960
I0403 19:00:39.406873 24178 layer_factory.hpp:77] Creating layer inception_3a/5x5
I0403 19:00:39.406896 24178 net.cpp:91] Creating Layer inception_3a/5x5
I0403 19:00:39.406913 24178 net.cpp:425] inception_3a/5x5 <- inception_3a/5x5_reduce
I0403 19:00:39.406932 24178 net.cpp:399] inception_3a/5x5 -> inception_3a/5x5
I0403 19:00:39.407979 24178 net.cpp:141] Setting up inception_3a/5x5
I0403 19:00:39.408009 24178 net.cpp:148] Top shape: 24 32 28 28 (602112)
I0403 19:00:39.408025 24178 net.cpp:156] Memory required for data: 539493408
I0403 19:00:39.408042 24178 layer_factory.hpp:77] Creating layer inception_3a/relu_5x5
I0403 19:00:39.408061 24178 net.cpp:91] Creating Layer inception_3a/relu_5x5
I0403 19:00:39.408077 24178 net.cpp:425] inception_3a/relu_5x5 <- inception_3a/5x5
I0403 19:00:39.408097 24178 net.cpp:386] inception_3a/relu_5x5 -> inception_3a/5x5 (in-place)
I0403 19:00:39.408268 24178 net.cpp:141] Setting up inception_3a/relu_5x5
I0403 19:00:39.408293 24178 net.cpp:148] Top shape: 24 32 28 28 (602112)
I0403 19:00:39.408308 24178 net.cpp:156] Memory required for data: 541901856
I0403 19:00:39.408324 24178 layer_factory.hpp:77] Creating layer inception_3a/pool
I0403 19:00:39.408340 24178 net.cpp:91] Creating Layer inception_3a/pool
I0403 19:00:39.408371 24178 net.cpp:425] inception_3a/pool <- pool2/3x3_s2_pool2/3x3_s2_0_split_3
I0403 19:00:39.408392 24178 net.cpp:399] inception_3a/pool -> inception_3a/pool
I0403 19:00:39.408450 24178 net.cpp:141] Setting up inception_3a/pool
I0403 19:00:39.408473 24178 net.cpp:148] Top shape: 24 192 28 28 (3612672)
I0403 19:00:39.408488 24178 net.cpp:156] Memory required for data: 556352544
I0403 19:00:39.408504 24178 layer_factory.hpp:77] Creating layer inception_3a/pool_proj
I0403 19:00:39.408534 24178 net.cpp:91] Creating Layer inception_3a/pool_proj
I0403 19:00:39.408551 24178 net.cpp:425] inception_3a/pool_proj <- inception_3a/pool
I0403 19:00:39.408570 24178 net.cpp:399] inception_3a/pool_proj -> inception_3a/pool_proj
I0403 19:00:39.409524 24178 net.cpp:141] Setting up inception_3a/pool_proj
I0403 19:00:39.409551 24178 net.cpp:148] Top shape: 24 32 28 28 (602112)
I0403 19:00:39.409567 24178 net.cpp:156] Memory required for data: 558760992
I0403 19:00:39.409595 24178 layer_factory.hpp:77] Creating layer inception_3a/relu_pool_proj
I0403 19:00:39.409615 24178 net.cpp:91] Creating Layer inception_3a/relu_pool_proj
I0403 19:00:39.409629 24178 net.cpp:425] inception_3a/relu_pool_proj <- inception_3a/pool_proj
I0403 19:00:39.409649 24178 net.cpp:386] inception_3a/relu_pool_proj -> inception_3a/pool_proj (in-place)
I0403 19:00:39.409919 24178 net.cpp:141] Setting up inception_3a/relu_pool_proj
I0403 19:00:39.409946 24178 net.cpp:148] Top shape: 24 32 28 28 (602112)
I0403 19:00:39.409962 24178 net.cpp:156] Memory required for data: 561169440
I0403 19:00:39.409977 24178 layer_factory.hpp:77] Creating layer inception_3a/output
I0403 19:00:39.409994 24178 net.cpp:91] Creating Layer inception_3a/output
I0403 19:00:39.410008 24178 net.cpp:425] inception_3a/output <- inception_3a/1x1
I0403 19:00:39.410024 24178 net.cpp:425] inception_3a/output <- inception_3a/3x3
I0403 19:00:39.410040 24178 net.cpp:425] inception_3a/output <- inception_3a/5x5
I0403 19:00:39.410056 24178 net.cpp:425] inception_3a/output <- inception_3a/pool_proj
I0403 19:00:39.410075 24178 net.cpp:399] inception_3a/output -> inception_3a/output
I0403 19:00:39.410120 24178 net.cpp:141] Setting up inception_3a/output
I0403 19:00:39.410143 24178 net.cpp:148] Top shape: 24 256 28 28 (4816896)
I0403 19:00:39.410157 24178 net.cpp:156] Memory required for data: 580437024
I0403 19:00:39.410172 24178 layer_factory.hpp:77] Creating layer inception_3a/output_inception_3a/output_0_split
I0403 19:00:39.410192 24178 net.cpp:91] Creating Layer inception_3a/output_inception_3a/output_0_split
I0403 19:00:39.410208 24178 net.cpp:425] inception_3a/output_inception_3a/output_0_split <- inception_3a/output
I0403 19:00:39.410225 24178 net.cpp:399] inception_3a/output_inception_3a/output_0_split -> inception_3a/output_inception_3a/output_0_split_0
I0403 19:00:39.410246 24178 net.cpp:399] inception_3a/output_inception_3a/output_0_split -> inception_3a/output_inception_3a/output_0_split_1
I0403 19:00:39.410270 24178 net.cpp:399] inception_3a/output_inception_3a/output_0_split -> inception_3a/output_inception_3a/output_0_split_2
I0403 19:00:39.410292 24178 net.cpp:399] inception_3a/output_inception_3a/output_0_split -> inception_3a/output_inception_3a/output_0_split_3
I0403 19:00:39.410364 24178 net.cpp:141] Setting up inception_3a/output_inception_3a/output_0_split
I0403 19:00:39.410388 24178 net.cpp:148] Top shape: 24 256 28 28 (4816896)
I0403 19:00:39.410406 24178 net.cpp:148] Top shape: 24 256 28 28 (4816896)
I0403 19:00:39.410423 24178 net.cpp:148] Top shape: 24 256 28 28 (4816896)
I0403 19:00:39.410437 24178 net.cpp:148] Top shape: 24 256 28 28 (4816896)
I0403 19:00:39.410450 24178 net.cpp:156] Memory required for data: 657507360
I0403 19:00:39.410465 24178 layer_factory.hpp:77] Creating layer inception_3b/1x1
I0403 19:00:39.410487 24178 net.cpp:91] Creating Layer inception_3b/1x1
I0403 19:00:39.410509 24178 net.cpp:425] inception_3b/1x1 <- inception_3a/output_inception_3a/output_0_split_0
I0403 19:00:39.410529 24178 net.cpp:399] inception_3b/1x1 -> inception_3b/1x1
I0403 19:00:39.411654 24178 net.cpp:141] Setting up inception_3b/1x1
I0403 19:00:39.411694 24178 net.cpp:148] Top shape: 24 128 28 28 (2408448)
I0403 19:00:39.411710 24178 net.cpp:156] Memory required for data: 667141152
I0403 19:00:39.411727 24178 layer_factory.hpp:77] Creating layer inception_3b/relu_1x1
I0403 19:00:39.411747 24178 net.cpp:91] Creating Layer inception_3b/relu_1x1
I0403 19:00:39.411764 24178 net.cpp:425] inception_3b/relu_1x1 <- inception_3b/1x1
I0403 19:00:39.411780 24178 net.cpp:386] inception_3b/relu_1x1 -> inception_3b/1x1 (in-place)
I0403 19:00:39.411959 24178 net.cpp:141] Setting up inception_3b/relu_1x1
I0403 19:00:39.411986 24178 net.cpp:148] Top shape: 24 128 28 28 (2408448)
I0403 19:00:39.412003 24178 net.cpp:156] Memory required for data: 676774944
I0403 19:00:39.412016 24178 layer_factory.hpp:77] Creating layer inception_3b/3x3_reduce
I0403 19:00:39.412039 24178 net.cpp:91] Creating Layer inception_3b/3x3_reduce
I0403 19:00:39.412056 24178 net.cpp:425] inception_3b/3x3_reduce <- inception_3a/output_inception_3a/output_0_split_1
I0403 19:00:39.412075 24178 net.cpp:399] inception_3b/3x3_reduce -> inception_3b/3x3_reduce
I0403 19:00:39.413205 24178 net.cpp:141] Setting up inception_3b/3x3_reduce
I0403 19:00:39.413233 24178 net.cpp:148] Top shape: 24 128 28 28 (2408448)
I0403 19:00:39.413249 24178 net.cpp:156] Memory required for data: 686408736
I0403 19:00:39.413269 24178 layer_factory.hpp:77] Creating layer inception_3b/relu_3x3_reduce
I0403 19:00:39.413290 24178 net.cpp:91] Creating Layer inception_3b/relu_3x3_reduce
I0403 19:00:39.413307 24178 net.cpp:425] inception_3b/relu_3x3_reduce <- inception_3b/3x3_reduce
I0403 19:00:39.413324 24178 net.cpp:386] inception_3b/relu_3x3_reduce -> inception_3b/3x3_reduce (in-place)
I0403 19:00:39.413496 24178 net.cpp:141] Setting up inception_3b/relu_3x3_reduce
I0403 19:00:39.413527 24178 net.cpp:148] Top shape: 24 128 28 28 (2408448)
I0403 19:00:39.413542 24178 net.cpp:156] Memory required for data: 696042528
I0403 19:00:39.413558 24178 layer_factory.hpp:77] Creating layer inception_3b/3x3
I0403 19:00:39.413581 24178 net.cpp:91] Creating Layer inception_3b/3x3
I0403 19:00:39.413600 24178 net.cpp:425] inception_3b/3x3 <- inception_3b/3x3_reduce
I0403 19:00:39.413622 24178 net.cpp:399] inception_3b/3x3 -> inception_3b/3x3
I0403 19:00:39.416519 24178 net.cpp:141] Setting up inception_3b/3x3
I0403 19:00:39.416550 24178 net.cpp:148] Top shape: 24 192 28 28 (3612672)
I0403 19:00:39.416568 24178 net.cpp:156] Memory required for data: 710493216
I0403 19:00:39.416585 24178 layer_factory.hpp:77] Creating layer inception_3b/relu_3x3
I0403 19:00:39.416604 24178 net.cpp:91] Creating Layer inception_3b/relu_3x3
I0403 19:00:39.416617 24178 net.cpp:425] inception_3b/relu_3x3 <- inception_3b/3x3
I0403 19:00:39.416637 24178 net.cpp:386] inception_3b/relu_3x3 -> inception_3b/3x3 (in-place)
I0403 19:00:39.416903 24178 net.cpp:141] Setting up inception_3b/relu_3x3
I0403 19:00:39.416931 24178 net.cpp:148] Top shape: 24 192 28 28 (3612672)
I0403 19:00:39.416947 24178 net.cpp:156] Memory required for data: 724943904
I0403 19:00:39.416963 24178 layer_factory.hpp:77] Creating layer inception_3b/5x5_reduce
I0403 19:00:39.416986 24178 net.cpp:91] Creating Layer inception_3b/5x5_reduce
I0403 19:00:39.417003 24178 net.cpp:425] inception_3b/5x5_reduce <- inception_3a/output_inception_3a/output_0_split_2
I0403 19:00:39.417023 24178 net.cpp:399] inception_3b/5x5_reduce -> inception_3b/5x5_reduce
I0403 19:00:39.417976 24178 net.cpp:141] Setting up inception_3b/5x5_reduce
I0403 19:00:39.418005 24178 net.cpp:148] Top shape: 24 32 28 28 (602112)
I0403 19:00:39.418021 24178 net.cpp:156] Memory required for data: 727352352
I0403 19:00:39.418038 24178 layer_factory.hpp:77] Creating layer inception_3b/relu_5x5_reduce
I0403 19:00:39.418057 24178 net.cpp:91] Creating Layer inception_3b/relu_5x5_reduce
I0403 19:00:39.418072 24178 net.cpp:425] inception_3b/relu_5x5_reduce <- inception_3b/5x5_reduce
I0403 19:00:39.418092 24178 net.cpp:386] inception_3b/relu_5x5_reduce -> inception_3b/5x5_reduce (in-place)
I0403 19:00:39.418277 24178 net.cpp:141] Setting up inception_3b/relu_5x5_reduce
I0403 19:00:39.418300 24178 net.cpp:148] Top shape: 24 32 28 28 (602112)
I0403 19:00:39.418314 24178 net.cpp:156] Memory required for data: 729760800
I0403 19:00:39.418329 24178 layer_factory.hpp:77] Creating layer inception_3b/5x5
I0403 19:00:39.418351 24178 net.cpp:91] Creating Layer inception_3b/5x5
I0403 19:00:39.418368 24178 net.cpp:425] inception_3b/5x5 <- inception_3b/5x5_reduce
I0403 19:00:39.418390 24178 net.cpp:399] inception_3b/5x5 -> inception_3b/5x5
I0403 19:00:39.420321 24178 net.cpp:141] Setting up inception_3b/5x5
I0403 19:00:39.420349 24178 net.cpp:148] Top shape: 24 96 28 28 (1806336)
I0403 19:00:39.420364 24178 net.cpp:156] Memory required for data: 736986144
I0403 19:00:39.420383 24178 layer_factory.hpp:77] Creating layer inception_3b/relu_5x5
I0403 19:00:39.420406 24178 net.cpp:91] Creating Layer inception_3b/relu_5x5
I0403 19:00:39.420423 24178 net.cpp:425] inception_3b/relu_5x5 <- inception_3b/5x5
I0403 19:00:39.420439 24178 net.cpp:386] inception_3b/relu_5x5 -> inception_3b/5x5 (in-place)
I0403 19:00:39.420629 24178 net.cpp:141] Setting up inception_3b/relu_5x5
I0403 19:00:39.420652 24178 net.cpp:148] Top shape: 24 96 28 28 (1806336)
I0403 19:00:39.420666 24178 net.cpp:156] Memory required for data: 744211488
I0403 19:00:39.420680 24178 layer_factory.hpp:77] Creating layer inception_3b/pool
I0403 19:00:39.420697 24178 net.cpp:91] Creating Layer inception_3b/pool
I0403 19:00:39.420713 24178 net.cpp:425] inception_3b/pool <- inception_3a/output_inception_3a/output_0_split_3
I0403 19:00:39.420730 24178 net.cpp:399] inception_3b/pool -> inception_3b/pool
I0403 19:00:39.420783 24178 net.cpp:141] Setting up inception_3b/pool
I0403 19:00:39.420806 24178 net.cpp:148] Top shape: 24 256 28 28 (4816896)
I0403 19:00:39.420820 24178 net.cpp:156] Memory required for data: 763479072
I0403 19:00:39.420833 24178 layer_factory.hpp:77] Creating layer inception_3b/pool_proj
I0403 19:00:39.420855 24178 net.cpp:91] Creating Layer inception_3b/pool_proj
I0403 19:00:39.420873 24178 net.cpp:425] inception_3b/pool_proj <- inception_3b/pool
I0403 19:00:39.420892 24178 net.cpp:399] inception_3b/pool_proj -> inception_3b/pool_proj
I0403 19:00:39.421913 24178 net.cpp:141] Setting up inception_3b/pool_proj
I0403 19:00:39.421941 24178 net.cpp:148] Top shape: 24 64 28 28 (1204224)
I0403 19:00:39.421955 24178 net.cpp:156] Memory required for data: 768295968
I0403 19:00:39.421972 24178 layer_factory.hpp:77] Creating layer inception_3b/relu_pool_proj
I0403 19:00:39.421989 24178 net.cpp:91] Creating Layer inception_3b/relu_pool_proj
I0403 19:00:39.422004 24178 net.cpp:425] inception_3b/relu_pool_proj <- inception_3b/pool_proj
I0403 19:00:39.422024 24178 net.cpp:386] inception_3b/relu_pool_proj -> inception_3b/pool_proj (in-place)
I0403 19:00:39.422394 24178 net.cpp:141] Setting up inception_3b/relu_pool_proj
I0403 19:00:39.422420 24178 net.cpp:148] Top shape: 24 64 28 28 (1204224)
I0403 19:00:39.422435 24178 net.cpp:156] Memory required for data: 773112864
I0403 19:00:39.422448 24178 layer_factory.hpp:77] Creating layer inception_3b/output
I0403 19:00:39.422466 24178 net.cpp:91] Creating Layer inception_3b/output
I0403 19:00:39.422479 24178 net.cpp:425] inception_3b/output <- inception_3b/1x1
I0403 19:00:39.422497 24178 net.cpp:425] inception_3b/output <- inception_3b/3x3
I0403 19:00:39.422518 24178 net.cpp:425] inception_3b/output <- inception_3b/5x5
I0403 19:00:39.422533 24178 net.cpp:425] inception_3b/output <- inception_3b/pool_proj
I0403 19:00:39.422554 24178 net.cpp:399] inception_3b/output -> inception_3b/output
I0403 19:00:39.422595 24178 net.cpp:141] Setting up inception_3b/output
I0403 19:00:39.422619 24178 net.cpp:148] Top shape: 24 480 28 28 (9031680)
I0403 19:00:39.422634 24178 net.cpp:156] Memory required for data: 809239584
I0403 19:00:39.422649 24178 layer_factory.hpp:77] Creating layer pool3/3x3_s2
I0403 19:00:39.422667 24178 net.cpp:91] Creating Layer pool3/3x3_s2
I0403 19:00:39.422680 24178 net.cpp:425] pool3/3x3_s2 <- inception_3b/output
I0403 19:00:39.422716 24178 net.cpp:399] pool3/3x3_s2 -> pool3/3x3_s2
I0403 19:00:39.422773 24178 net.cpp:141] Setting up pool3/3x3_s2
I0403 19:00:39.422796 24178 net.cpp:148] Top shape: 24 480 14 14 (2257920)
I0403 19:00:39.422809 24178 net.cpp:156] Memory required for data: 818271264
I0403 19:00:39.422822 24178 layer_factory.hpp:77] Creating layer pool3/3x3_s2_pool3/3x3_s2_0_split
I0403 19:00:39.422842 24178 net.cpp:91] Creating Layer pool3/3x3_s2_pool3/3x3_s2_0_split
I0403 19:00:39.422857 24178 net.cpp:425] pool3/3x3_s2_pool3/3x3_s2_0_split <- pool3/3x3_s2
I0403 19:00:39.422873 24178 net.cpp:399] pool3/3x3_s2_pool3/3x3_s2_0_split -> pool3/3x3_s2_pool3/3x3_s2_0_split_0
I0403 19:00:39.422891 24178 net.cpp:399] pool3/3x3_s2_pool3/3x3_s2_0_split -> pool3/3x3_s2_pool3/3x3_s2_0_split_1
I0403 19:00:39.422911 24178 net.cpp:399] pool3/3x3_s2_pool3/3x3_s2_0_split -> pool3/3x3_s2_pool3/3x3_s2_0_split_2
I0403 19:00:39.422930 24178 net.cpp:399] pool3/3x3_s2_pool3/3x3_s2_0_split -> pool3/3x3_s2_pool3/3x3_s2_0_split_3
I0403 19:00:39.423005 24178 net.cpp:141] Setting up pool3/3x3_s2_pool3/3x3_s2_0_split
I0403 19:00:39.423027 24178 net.cpp:148] Top shape: 24 480 14 14 (2257920)
I0403 19:00:39.423043 24178 net.cpp:148] Top shape: 24 480 14 14 (2257920)
I0403 19:00:39.423058 24178 net.cpp:148] Top shape: 24 480 14 14 (2257920)
I0403 19:00:39.423074 24178 net.cpp:148] Top shape: 24 480 14 14 (2257920)
I0403 19:00:39.423087 24178 net.cpp:156] Memory required for data: 854397984
I0403 19:00:39.423102 24178 layer_factory.hpp:77] Creating layer inception_4a/1x1
I0403 19:00:39.423123 24178 net.cpp:91] Creating Layer inception_4a/1x1
I0403 19:00:39.423141 24178 net.cpp:425] inception_4a/1x1 <- pool3/3x3_s2_pool3/3x3_s2_0_split_0
I0403 19:00:39.423161 24178 net.cpp:399] inception_4a/1x1 -> inception_4a/1x1
I0403 19:00:39.424677 24178 net.cpp:141] Setting up inception_4a/1x1
I0403 19:00:39.424705 24178 net.cpp:148] Top shape: 24 192 14 14 (903168)
I0403 19:00:39.424721 24178 net.cpp:156] Memory required for data: 858010656
I0403 19:00:39.424738 24178 layer_factory.hpp:77] Creating layer inception_4a/relu_1x1
I0403 19:00:39.424758 24178 net.cpp:91] Creating Layer inception_4a/relu_1x1
I0403 19:00:39.424774 24178 net.cpp:425] inception_4a/relu_1x1 <- inception_4a/1x1
I0403 19:00:39.424792 24178 net.cpp:386] inception_4a/relu_1x1 -> inception_4a/1x1 (in-place)
I0403 19:00:39.424962 24178 net.cpp:141] Setting up inception_4a/relu_1x1
I0403 19:00:39.424988 24178 net.cpp:148] Top shape: 24 192 14 14 (903168)
I0403 19:00:39.425003 24178 net.cpp:156] Memory required for data: 861623328
I0403 19:00:39.425017 24178 layer_factory.hpp:77] Creating layer inception_4a/3x3_reduce
I0403 19:00:39.425036 24178 net.cpp:91] Creating Layer inception_4a/3x3_reduce
I0403 19:00:39.425052 24178 net.cpp:425] inception_4a/3x3_reduce <- pool3/3x3_s2_pool3/3x3_s2_0_split_1
I0403 19:00:39.425073 24178 net.cpp:399] inception_4a/3x3_reduce -> inception_4a/3x3_reduce
I0403 19:00:39.426306 24178 net.cpp:141] Setting up inception_4a/3x3_reduce
I0403 19:00:39.426333 24178 net.cpp:148] Top shape: 24 96 14 14 (451584)
I0403 19:00:39.426348 24178 net.cpp:156] Memory required for data: 863429664
I0403 19:00:39.426373 24178 layer_factory.hpp:77] Creating layer inception_4a/relu_3x3_reduce
I0403 19:00:39.426393 24178 net.cpp:91] Creating Layer inception_4a/relu_3x3_reduce
I0403 19:00:39.426409 24178 net.cpp:425] inception_4a/relu_3x3_reduce <- inception_4a/3x3_reduce
I0403 19:00:39.426429 24178 net.cpp:386] inception_4a/relu_3x3_reduce -> inception_4a/3x3_reduce (in-place)
I0403 19:00:39.426625 24178 net.cpp:141] Setting up inception_4a/relu_3x3_reduce
I0403 19:00:39.426651 24178 net.cpp:148] Top shape: 24 96 14 14 (451584)
I0403 19:00:39.426666 24178 net.cpp:156] Memory required for data: 865236000
I0403 19:00:39.426681 24178 layer_factory.hpp:77] Creating layer inception_4a/3x3
I0403 19:00:39.426707 24178 net.cpp:91] Creating Layer inception_4a/3x3
I0403 19:00:39.426724 24178 net.cpp:425] inception_4a/3x3 <- inception_4a/3x3_reduce
I0403 19:00:39.426748 24178 net.cpp:399] inception_4a/3x3 -> inception_4a/3x3
I0403 19:00:39.429414 24178 net.cpp:141] Setting up inception_4a/3x3
I0403 19:00:39.429443 24178 net.cpp:148] Top shape: 24 208 14 14 (978432)
I0403 19:00:39.429458 24178 net.cpp:156] Memory required for data: 869149728
I0403 19:00:39.429476 24178 layer_factory.hpp:77] Creating layer inception_4a/relu_3x3
I0403 19:00:39.429497 24178 net.cpp:91] Creating Layer inception_4a/relu_3x3
I0403 19:00:39.429519 24178 net.cpp:425] inception_4a/relu_3x3 <- inception_4a/3x3
I0403 19:00:39.429538 24178 net.cpp:386] inception_4a/relu_3x3 -> inception_4a/3x3 (in-place)
I0403 19:00:39.429812 24178 net.cpp:141] Setting up inception_4a/relu_3x3
I0403 19:00:39.429839 24178 net.cpp:148] Top shape: 24 208 14 14 (978432)
I0403 19:00:39.429854 24178 net.cpp:156] Memory required for data: 873063456
I0403 19:00:39.429868 24178 layer_factory.hpp:77] Creating layer inception_4a/5x5_reduce
I0403 19:00:39.429894 24178 net.cpp:91] Creating Layer inception_4a/5x5_reduce
I0403 19:00:39.429914 24178 net.cpp:425] inception_4a/5x5_reduce <- pool3/3x3_s2_pool3/3x3_s2_0_split_2
I0403 19:00:39.429934 24178 net.cpp:399] inception_4a/5x5_reduce -> inception_4a/5x5_reduce
I0403 19:00:39.430939 24178 net.cpp:141] Setting up inception_4a/5x5_reduce
I0403 19:00:39.430969 24178 net.cpp:148] Top shape: 24 16 14 14 (75264)
I0403 19:00:39.430987 24178 net.cpp:156] Memory required for data: 873364512
I0403 19:00:39.431005 24178 layer_factory.hpp:77] Creating layer inception_4a/relu_5x5_reduce
I0403 19:00:39.431023 24178 net.cpp:91] Creating Layer inception_4a/relu_5x5_reduce
I0403 19:00:39.431040 24178 net.cpp:425] inception_4a/relu_5x5_reduce <- inception_4a/5x5_reduce
I0403 19:00:39.431059 24178 net.cpp:386] inception_4a/relu_5x5_reduce -> inception_4a/5x5_reduce (in-place)
I0403 19:00:39.431241 24178 net.cpp:141] Setting up inception_4a/relu_5x5_reduce
I0403 19:00:39.431265 24178 net.cpp:148] Top shape: 24 16 14 14 (75264)
I0403 19:00:39.431280 24178 net.cpp:156] Memory required for data: 873665568
I0403 19:00:39.431295 24178 layer_factory.hpp:77] Creating layer inception_4a/5x5
I0403 19:00:39.431318 24178 net.cpp:91] Creating Layer inception_4a/5x5
I0403 19:00:39.431334 24178 net.cpp:425] inception_4a/5x5 <- inception_4a/5x5_reduce
I0403 19:00:39.431356 24178 net.cpp:399] inception_4a/5x5 -> inception_4a/5x5
I0403 19:00:39.432432 24178 net.cpp:141] Setting up inception_4a/5x5
I0403 19:00:39.432459 24178 net.cpp:148] Top shape: 24 48 14 14 (225792)
I0403 19:00:39.432474 24178 net.cpp:156] Memory required for data: 874568736
I0403 19:00:39.432493 24178 layer_factory.hpp:77] Creating layer inception_4a/relu_5x5
I0403 19:00:39.432515 24178 net.cpp:91] Creating Layer inception_4a/relu_5x5
I0403 19:00:39.432536 24178 net.cpp:425] inception_4a/relu_5x5 <- inception_4a/5x5
I0403 19:00:39.432554 24178 net.cpp:386] inception_4a/relu_5x5 -> inception_4a/5x5 (in-place)
I0403 19:00:39.432730 24178 net.cpp:141] Setting up inception_4a/relu_5x5
I0403 19:00:39.432755 24178 net.cpp:148] Top shape: 24 48 14 14 (225792)
I0403 19:00:39.432771 24178 net.cpp:156] Memory required for data: 875471904
I0403 19:00:39.432785 24178 layer_factory.hpp:77] Creating layer inception_4a/pool
I0403 19:00:39.432806 24178 net.cpp:91] Creating Layer inception_4a/pool
I0403 19:00:39.432822 24178 net.cpp:425] inception_4a/pool <- pool3/3x3_s2_pool3/3x3_s2_0_split_3
I0403 19:00:39.432840 24178 net.cpp:399] inception_4a/pool -> inception_4a/pool
I0403 19:00:39.432903 24178 net.cpp:141] Setting up inception_4a/pool
I0403 19:00:39.432926 24178 net.cpp:148] Top shape: 24 480 14 14 (2257920)
I0403 19:00:39.432941 24178 net.cpp:156] Memory required for data: 884503584
I0403 19:00:39.432955 24178 layer_factory.hpp:77] Creating layer inception_4a/pool_proj
I0403 19:00:39.432977 24178 net.cpp:91] Creating Layer inception_4a/pool_proj
I0403 19:00:39.432996 24178 net.cpp:425] inception_4a/pool_proj <- inception_4a/pool
I0403 19:00:39.433017 24178 net.cpp:399] inception_4a/pool_proj -> inception_4a/pool_proj
I0403 19:00:39.434178 24178 net.cpp:141] Setting up inception_4a/pool_proj
I0403 19:00:39.434208 24178 net.cpp:148] Top shape: 24 64 14 14 (301056)
I0403 19:00:39.434239 24178 net.cpp:156] Memory required for data: 885707808
I0403 19:00:39.434259 24178 layer_factory.hpp:77] Creating layer inception_4a/relu_pool_proj
I0403 19:00:39.434281 24178 net.cpp:91] Creating Layer inception_4a/relu_pool_proj
I0403 19:00:39.434299 24178 net.cpp:425] inception_4a/relu_pool_proj <- inception_4a/pool_proj
I0403 19:00:39.434316 24178 net.cpp:386] inception_4a/relu_pool_proj -> inception_4a/pool_proj (in-place)
I0403 19:00:39.434607 24178 net.cpp:141] Setting up inception_4a/relu_pool_proj
I0403 19:00:39.434633 24178 net.cpp:148] Top shape: 24 64 14 14 (301056)
I0403 19:00:39.434648 24178 net.cpp:156] Memory required for data: 886912032
I0403 19:00:39.434664 24178 layer_factory.hpp:77] Creating layer inception_4a/output
I0403 19:00:39.434681 24178 net.cpp:91] Creating Layer inception_4a/output
I0403 19:00:39.434696 24178 net.cpp:425] inception_4a/output <- inception_4a/1x1
I0403 19:00:39.434712 24178 net.cpp:425] inception_4a/output <- inception_4a/3x3
I0403 19:00:39.434731 24178 net.cpp:425] inception_4a/output <- inception_4a/5x5
I0403 19:00:39.434747 24178 net.cpp:425] inception_4a/output <- inception_4a/pool_proj
I0403 19:00:39.434764 24178 net.cpp:399] inception_4a/output -> inception_4a/output
I0403 19:00:39.434808 24178 net.cpp:141] Setting up inception_4a/output
I0403 19:00:39.434834 24178 net.cpp:148] Top shape: 24 512 14 14 (2408448)
I0403 19:00:39.434849 24178 net.cpp:156] Memory required for data: 896545824
I0403 19:00:39.434864 24178 layer_factory.hpp:77] Creating layer inception_4a/output_inception_4a/output_0_split
I0403 19:00:39.434880 24178 net.cpp:91] Creating Layer inception_4a/output_inception_4a/output_0_split
I0403 19:00:39.434896 24178 net.cpp:425] inception_4a/output_inception_4a/output_0_split <- inception_4a/output
I0403 19:00:39.434916 24178 net.cpp:399] inception_4a/output_inception_4a/output_0_split -> inception_4a/output_inception_4a/output_0_split_0
I0403 19:00:39.434939 24178 net.cpp:399] inception_4a/output_inception_4a/output_0_split -> inception_4a/output_inception_4a/output_0_split_1
I0403 19:00:39.434959 24178 net.cpp:399] inception_4a/output_inception_4a/output_0_split -> inception_4a/output_inception_4a/output_0_split_2
I0403 19:00:39.434981 24178 net.cpp:399] inception_4a/output_inception_4a/output_0_split -> inception_4a/output_inception_4a/output_0_split_3
I0403 19:00:39.435000 24178 net.cpp:399] inception_4a/output_inception_4a/output_0_split -> inception_4a/output_inception_4a/output_0_split_4
I0403 19:00:39.435091 24178 net.cpp:141] Setting up inception_4a/output_inception_4a/output_0_split
I0403 19:00:39.435114 24178 net.cpp:148] Top shape: 24 512 14 14 (2408448)
I0403 19:00:39.435132 24178 net.cpp:148] Top shape: 24 512 14 14 (2408448)
I0403 19:00:39.435148 24178 net.cpp:148] Top shape: 24 512 14 14 (2408448)
I0403 19:00:39.435164 24178 net.cpp:148] Top shape: 24 512 14 14 (2408448)
I0403 19:00:39.435179 24178 net.cpp:148] Top shape: 24 512 14 14 (2408448)
I0403 19:00:39.435194 24178 net.cpp:156] Memory required for data: 944714784
I0403 19:00:39.435207 24178 layer_factory.hpp:77] Creating layer loss1/ave_pool
I0403 19:00:39.435226 24178 net.cpp:91] Creating Layer loss1/ave_pool
I0403 19:00:39.435242 24178 net.cpp:425] loss1/ave_pool <- inception_4a/output_inception_4a/output_0_split_0
I0403 19:00:39.435263 24178 net.cpp:399] loss1/ave_pool -> loss1/ave_pool
I0403 19:00:39.435469 24178 net.cpp:141] Setting up loss1/ave_pool
I0403 19:00:39.435495 24178 net.cpp:148] Top shape: 24 512 4 4 (196608)
I0403 19:00:39.435523 24178 net.cpp:156] Memory required for data: 945501216
I0403 19:00:39.435539 24178 layer_factory.hpp:77] Creating layer loss1/conv
I0403 19:00:39.435562 24178 net.cpp:91] Creating Layer loss1/conv
I0403 19:00:39.435580 24178 net.cpp:425] loss1/conv <- loss1/ave_pool
I0403 19:00:39.435600 24178 net.cpp:399] loss1/conv -> loss1/conv
I0403 19:00:39.437005 24178 net.cpp:141] Setting up loss1/conv
I0403 19:00:39.437032 24178 net.cpp:148] Top shape: 24 128 4 4 (49152)
I0403 19:00:39.437062 24178 net.cpp:156] Memory required for data: 945697824
I0403 19:00:39.437083 24178 layer_factory.hpp:77] Creating layer loss1/relu_conv
I0403 19:00:39.437103 24178 net.cpp:91] Creating Layer loss1/relu_conv
I0403 19:00:39.437120 24178 net.cpp:425] loss1/relu_conv <- loss1/conv
I0403 19:00:39.437137 24178 net.cpp:386] loss1/relu_conv -> loss1/conv (in-place)
I0403 19:00:39.437422 24178 net.cpp:141] Setting up loss1/relu_conv
I0403 19:00:39.437448 24178 net.cpp:148] Top shape: 24 128 4 4 (49152)
I0403 19:00:39.437463 24178 net.cpp:156] Memory required for data: 945894432
I0403 19:00:39.437479 24178 layer_factory.hpp:77] Creating layer loss1/fc
I0403 19:00:39.437504 24178 net.cpp:91] Creating Layer loss1/fc
I0403 19:00:39.437528 24178 net.cpp:425] loss1/fc <- loss1/conv
I0403 19:00:39.437551 24178 net.cpp:399] loss1/fc -> loss1/fc
I0403 19:00:39.455188 24178 net.cpp:141] Setting up loss1/fc
I0403 19:00:39.455221 24178 net.cpp:148] Top shape: 24 1024 (24576)
I0403 19:00:39.455236 24178 net.cpp:156] Memory required for data: 945992736
I0403 19:00:39.455255 24178 layer_factory.hpp:77] Creating layer loss1/relu_fc
I0403 19:00:39.455271 24178 net.cpp:91] Creating Layer loss1/relu_fc
I0403 19:00:39.455286 24178 net.cpp:425] loss1/relu_fc <- loss1/fc
I0403 19:00:39.455305 24178 net.cpp:386] loss1/relu_fc -> loss1/fc (in-place)
I0403 19:00:39.455492 24178 net.cpp:141] Setting up loss1/relu_fc
I0403 19:00:39.455528 24178 net.cpp:148] Top shape: 24 1024 (24576)
I0403 19:00:39.455544 24178 net.cpp:156] Memory required for data: 946091040
I0403 19:00:39.455559 24178 layer_factory.hpp:77] Creating layer loss1/drop_fc
I0403 19:00:39.455584 24178 net.cpp:91] Creating Layer loss1/drop_fc
I0403 19:00:39.455600 24178 net.cpp:425] loss1/drop_fc <- loss1/fc
I0403 19:00:39.455617 24178 net.cpp:386] loss1/drop_fc -> loss1/fc (in-place)
I0403 19:00:39.455668 24178 net.cpp:141] Setting up loss1/drop_fc
I0403 19:00:39.455692 24178 net.cpp:148] Top shape: 24 1024 (24576)
I0403 19:00:39.455705 24178 net.cpp:156] Memory required for data: 946189344
I0403 19:00:39.455719 24178 layer_factory.hpp:77] Creating layer loss1/classifier_plantvillage
I0403 19:00:39.455736 24178 net.cpp:91] Creating Layer loss1/classifier_plantvillage
I0403 19:00:39.455752 24178 net.cpp:425] loss1/classifier_plantvillage <- loss1/fc
I0403 19:00:39.455772 24178 net.cpp:399] loss1/classifier_plantvillage -> loss1/classifier_plantvillage
I0403 19:00:39.456668 24178 net.cpp:141] Setting up loss1/classifier_plantvillage
I0403 19:00:39.456696 24178 net.cpp:148] Top shape: 24 38 (912)
I0403 19:00:39.456712 24178 net.cpp:156] Memory required for data: 946192992
I0403 19:00:39.456728 24178 layer_factory.hpp:77] Creating layer loss1/classifier_plantvillage_loss1/classifier_plantvillage_0_split
I0403 19:00:39.456749 24178 net.cpp:91] Creating Layer loss1/classifier_plantvillage_loss1/classifier_plantvillage_0_split
I0403 19:00:39.456765 24178 net.cpp:425] loss1/classifier_plantvillage_loss1/classifier_plantvillage_0_split <- loss1/classifier_plantvillage
I0403 19:00:39.456785 24178 net.cpp:399] loss1/classifier_plantvillage_loss1/classifier_plantvillage_0_split -> loss1/classifier_plantvillage_loss1/classifier_plantvillage_0_split_0
I0403 19:00:39.456804 24178 net.cpp:399] loss1/classifier_plantvillage_loss1/classifier_plantvillage_0_split -> loss1/classifier_plantvillage_loss1/classifier_plantvillage_0_split_1
I0403 19:00:39.456826 24178 net.cpp:399] loss1/classifier_plantvillage_loss1/classifier_plantvillage_0_split -> loss1/classifier_plantvillage_loss1/classifier_plantvillage_0_split_2
I0403 19:00:39.456893 24178 net.cpp:141] Setting up loss1/classifier_plantvillage_loss1/classifier_plantvillage_0_split
I0403 19:00:39.456917 24178 net.cpp:148] Top shape: 24 38 (912)
I0403 19:00:39.456931 24178 net.cpp:148] Top shape: 24 38 (912)
I0403 19:00:39.456946 24178 net.cpp:148] Top shape: 24 38 (912)
I0403 19:00:39.456960 24178 net.cpp:156] Memory required for data: 946203936
I0403 19:00:39.456974 24178 layer_factory.hpp:77] Creating layer inception_4b/1x1
I0403 19:00:39.456996 24178 net.cpp:91] Creating Layer inception_4b/1x1
I0403 19:00:39.457032 24178 net.cpp:425] inception_4b/1x1 <- inception_4a/output_inception_4a/output_0_split_1
I0403 19:00:39.457052 24178 net.cpp:399] inception_4b/1x1 -> inception_4b/1x1
I0403 19:00:39.458632 24178 net.cpp:141] Setting up inception_4b/1x1
I0403 19:00:39.458659 24178 net.cpp:148] Top shape: 24 160 14 14 (752640)
I0403 19:00:39.458675 24178 net.cpp:156] Memory required for data: 949214496
I0403 19:00:39.458696 24178 layer_factory.hpp:77] Creating layer inception_4b/relu_1x1
I0403 19:00:39.458719 24178 net.cpp:91] Creating Layer inception_4b/relu_1x1
I0403 19:00:39.458734 24178 net.cpp:425] inception_4b/relu_1x1 <- inception_4b/1x1
I0403 19:00:39.458750 24178 net.cpp:386] inception_4b/relu_1x1 -> inception_4b/1x1 (in-place)
I0403 19:00:39.458926 24178 net.cpp:141] Setting up inception_4b/relu_1x1
I0403 19:00:39.458951 24178 net.cpp:148] Top shape: 24 160 14 14 (752640)
I0403 19:00:39.458968 24178 net.cpp:156] Memory required for data: 952225056
I0403 19:00:39.458982 24178 layer_factory.hpp:77] Creating layer inception_4b/3x3_reduce
I0403 19:00:39.459002 24178 net.cpp:91] Creating Layer inception_4b/3x3_reduce
I0403 19:00:39.459019 24178 net.cpp:425] inception_4b/3x3_reduce <- inception_4a/output_inception_4a/output_0_split_2
I0403 19:00:39.459040 24178 net.cpp:399] inception_4b/3x3_reduce -> inception_4b/3x3_reduce
I0403 19:00:39.460351 24178 net.cpp:141] Setting up inception_4b/3x3_reduce
I0403 19:00:39.460377 24178 net.cpp:148] Top shape: 24 112 14 14 (526848)
I0403 19:00:39.460392 24178 net.cpp:156] Memory required for data: 954332448
I0403 19:00:39.460410 24178 layer_factory.hpp:77] Creating layer inception_4b/relu_3x3_reduce
I0403 19:00:39.460428 24178 net.cpp:91] Creating Layer inception_4b/relu_3x3_reduce
I0403 19:00:39.460443 24178 net.cpp:425] inception_4b/relu_3x3_reduce <- inception_4b/3x3_reduce
I0403 19:00:39.460464 24178 net.cpp:386] inception_4b/relu_3x3_reduce -> inception_4b/3x3_reduce (in-place)
I0403 19:00:39.460743 24178 net.cpp:141] Setting up inception_4b/relu_3x3_reduce
I0403 19:00:39.460768 24178 net.cpp:148] Top shape: 24 112 14 14 (526848)
I0403 19:00:39.460783 24178 net.cpp:156] Memory required for data: 956439840
I0403 19:00:39.460798 24178 layer_factory.hpp:77] Creating layer inception_4b/3x3
I0403 19:00:39.460820 24178 net.cpp:91] Creating Layer inception_4b/3x3
I0403 19:00:39.460837 24178 net.cpp:425] inception_4b/3x3 <- inception_4b/3x3_reduce
I0403 19:00:39.460858 24178 net.cpp:399] inception_4b/3x3 -> inception_4b/3x3
I0403 19:00:39.463752 24178 net.cpp:141] Setting up inception_4b/3x3
I0403 19:00:39.463780 24178 net.cpp:148] Top shape: 24 224 14 14 (1053696)
I0403 19:00:39.463795 24178 net.cpp:156] Memory required for data: 960654624
I0403 19:00:39.463814 24178 layer_factory.hpp:77] Creating layer inception_4b/relu_3x3
I0403 19:00:39.463835 24178 net.cpp:91] Creating Layer inception_4b/relu_3x3
I0403 19:00:39.463852 24178 net.cpp:425] inception_4b/relu_3x3 <- inception_4b/3x3
I0403 19:00:39.463871 24178 net.cpp:386] inception_4b/relu_3x3 -> inception_4b/3x3 (in-place)
I0403 19:00:39.464046 24178 net.cpp:141] Setting up inception_4b/relu_3x3
I0403 19:00:39.464073 24178 net.cpp:148] Top shape: 24 224 14 14 (1053696)
I0403 19:00:39.464088 24178 net.cpp:156] Memory required for data: 964869408
I0403 19:00:39.464103 24178 layer_factory.hpp:77] Creating layer inception_4b/5x5_reduce
I0403 19:00:39.464126 24178 net.cpp:91] Creating Layer inception_4b/5x5_reduce
I0403 19:00:39.464144 24178 net.cpp:425] inception_4b/5x5_reduce <- inception_4a/output_inception_4a/output_0_split_3
I0403 19:00:39.464164 24178 net.cpp:399] inception_4b/5x5_reduce -> inception_4b/5x5_reduce
I0403 19:00:39.465230 24178 net.cpp:141] Setting up inception_4b/5x5_reduce
I0403 19:00:39.465260 24178 net.cpp:148] Top shape: 24 24 14 14 (112896)
I0403 19:00:39.465276 24178 net.cpp:156] Memory required for data: 965320992
I0403 19:00:39.465293 24178 layer_factory.hpp:77] Creating layer inception_4b/relu_5x5_reduce
I0403 19:00:39.465311 24178 net.cpp:91] Creating Layer inception_4b/relu_5x5_reduce
I0403 19:00:39.465342 24178 net.cpp:425] inception_4b/relu_5x5_reduce <- inception_4b/5x5_reduce
I0403 19:00:39.465361 24178 net.cpp:386] inception_4b/relu_5x5_reduce -> inception_4b/5x5_reduce (in-place)
I0403 19:00:39.465555 24178 net.cpp:141] Setting up inception_4b/relu_5x5_reduce
I0403 19:00:39.465581 24178 net.cpp:148] Top shape: 24 24 14 14 (112896)
I0403 19:00:39.465595 24178 net.cpp:156] Memory required for data: 965772576
I0403 19:00:39.465610 24178 layer_factory.hpp:77] Creating layer inception_4b/5x5
I0403 19:00:39.465633 24178 net.cpp:91] Creating Layer inception_4b/5x5
I0403 19:00:39.465651 24178 net.cpp:425] inception_4b/5x5 <- inception_4b/5x5_reduce
I0403 19:00:39.465672 24178 net.cpp:399] inception_4b/5x5 -> inception_4b/5x5
I0403 19:00:39.466863 24178 net.cpp:141] Setting up inception_4b/5x5
I0403 19:00:39.466892 24178 net.cpp:148] Top shape: 24 64 14 14 (301056)
I0403 19:00:39.466907 24178 net.cpp:156] Memory required for data: 966976800
I0403 19:00:39.466928 24178 layer_factory.hpp:77] Creating layer inception_4b/relu_5x5
I0403 19:00:39.466945 24178 net.cpp:91] Creating Layer inception_4b/relu_5x5
I0403 19:00:39.466960 24178 net.cpp:425] inception_4b/relu_5x5 <- inception_4b/5x5
I0403 19:00:39.466977 24178 net.cpp:386] inception_4b/relu_5x5 -> inception_4b/5x5 (in-place)
I0403 19:00:39.467257 24178 net.cpp:141] Setting up inception_4b/relu_5x5
I0403 19:00:39.467283 24178 net.cpp:148] Top shape: 24 64 14 14 (301056)
I0403 19:00:39.467299 24178 net.cpp:156] Memory required for data: 968181024
I0403 19:00:39.467314 24178 layer_factory.hpp:77] Creating layer inception_4b/pool
I0403 19:00:39.467332 24178 net.cpp:91] Creating Layer inception_4b/pool
I0403 19:00:39.467350 24178 net.cpp:425] inception_4b/pool <- inception_4a/output_inception_4a/output_0_split_4
I0403 19:00:39.467370 24178 net.cpp:399] inception_4b/pool -> inception_4b/pool
I0403 19:00:39.467430 24178 net.cpp:141] Setting up inception_4b/pool
I0403 19:00:39.467454 24178 net.cpp:148] Top shape: 24 512 14 14 (2408448)
I0403 19:00:39.467470 24178 net.cpp:156] Memory required for data: 977814816
I0403 19:00:39.467484 24178 layer_factory.hpp:77] Creating layer inception_4b/pool_proj
I0403 19:00:39.467509 24178 net.cpp:91] Creating Layer inception_4b/pool_proj
I0403 19:00:39.467526 24178 net.cpp:425] inception_4b/pool_proj <- inception_4b/pool
I0403 19:00:39.467547 24178 net.cpp:399] inception_4b/pool_proj -> inception_4b/pool_proj
I0403 19:00:39.468711 24178 net.cpp:141] Setting up inception_4b/pool_proj
I0403 19:00:39.468740 24178 net.cpp:148] Top shape: 24 64 14 14 (301056)
I0403 19:00:39.468757 24178 net.cpp:156] Memory required for data: 979019040
I0403 19:00:39.468775 24178 layer_factory.hpp:77] Creating layer inception_4b/relu_pool_proj
I0403 19:00:39.468792 24178 net.cpp:91] Creating Layer inception_4b/relu_pool_proj
I0403 19:00:39.468809 24178 net.cpp:425] inception_4b/relu_pool_proj <- inception_4b/pool_proj
I0403 19:00:39.468828 24178 net.cpp:386] inception_4b/relu_pool_proj -> inception_4b/pool_proj (in-place)
I0403 19:00:39.469007 24178 net.cpp:141] Setting up inception_4b/relu_pool_proj
I0403 19:00:39.469029 24178 net.cpp:148] Top shape: 24 64 14 14 (301056)
I0403 19:00:39.469043 24178 net.cpp:156] Memory required for data: 980223264
I0403 19:00:39.469058 24178 layer_factory.hpp:77] Creating layer inception_4b/output
I0403 19:00:39.469075 24178 net.cpp:91] Creating Layer inception_4b/output
I0403 19:00:39.469090 24178 net.cpp:425] inception_4b/output <- inception_4b/1x1
I0403 19:00:39.469105 24178 net.cpp:425] inception_4b/output <- inception_4b/3x3
I0403 19:00:39.469120 24178 net.cpp:425] inception_4b/output <- inception_4b/5x5
I0403 19:00:39.469135 24178 net.cpp:425] inception_4b/output <- inception_4b/pool_proj
I0403 19:00:39.469153 24178 net.cpp:399] inception_4b/output -> inception_4b/output
I0403 19:00:39.469197 24178 net.cpp:141] Setting up inception_4b/output
I0403 19:00:39.469223 24178 net.cpp:148] Top shape: 24 512 14 14 (2408448)
I0403 19:00:39.469238 24178 net.cpp:156] Memory required for data: 989857056
I0403 19:00:39.469266 24178 layer_factory.hpp:77] Creating layer inception_4b/output_inception_4b/output_0_split
I0403 19:00:39.469283 24178 net.cpp:91] Creating Layer inception_4b/output_inception_4b/output_0_split
I0403 19:00:39.469298 24178 net.cpp:425] inception_4b/output_inception_4b/output_0_split <- inception_4b/output
I0403 19:00:39.469315 24178 net.cpp:399] inception_4b/output_inception_4b/output_0_split -> inception_4b/output_inception_4b/output_0_split_0
I0403 19:00:39.469336 24178 net.cpp:399] inception_4b/output_inception_4b/output_0_split -> inception_4b/output_inception_4b/output_0_split_1
I0403 19:00:39.469357 24178 net.cpp:399] inception_4b/output_inception_4b/output_0_split -> inception_4b/output_inception_4b/output_0_split_2
I0403 19:00:39.469378 24178 net.cpp:399] inception_4b/output_inception_4b/output_0_split -> inception_4b/output_inception_4b/output_0_split_3
I0403 19:00:39.469460 24178 net.cpp:141] Setting up inception_4b/output_inception_4b/output_0_split
I0403 19:00:39.469482 24178 net.cpp:148] Top shape: 24 512 14 14 (2408448)
I0403 19:00:39.469497 24178 net.cpp:148] Top shape: 24 512 14 14 (2408448)
I0403 19:00:39.469517 24178 net.cpp:148] Top shape: 24 512 14 14 (2408448)
I0403 19:00:39.469533 24178 net.cpp:148] Top shape: 24 512 14 14 (2408448)
I0403 19:00:39.469547 24178 net.cpp:156] Memory required for data: 1028392224
I0403 19:00:39.469560 24178 layer_factory.hpp:77] Creating layer inception_4c/1x1
I0403 19:00:39.469583 24178 net.cpp:91] Creating Layer inception_4c/1x1
I0403 19:00:39.469600 24178 net.cpp:425] inception_4c/1x1 <- inception_4b/output_inception_4b/output_0_split_0
I0403 19:00:39.469617 24178 net.cpp:399] inception_4c/1x1 -> inception_4c/1x1
I0403 19:00:39.471011 24178 net.cpp:141] Setting up inception_4c/1x1
I0403 19:00:39.471038 24178 net.cpp:148] Top shape: 24 128 14 14 (602112)
I0403 19:00:39.471055 24178 net.cpp:156] Memory required for data: 1030800672
I0403 19:00:39.471072 24178 layer_factory.hpp:77] Creating layer inception_4c/relu_1x1
I0403 19:00:39.471092 24178 net.cpp:91] Creating Layer inception_4c/relu_1x1
I0403 19:00:39.471108 24178 net.cpp:425] inception_4c/relu_1x1 <- inception_4c/1x1
I0403 19:00:39.471124 24178 net.cpp:386] inception_4c/relu_1x1 -> inception_4c/1x1 (in-place)
I0403 19:00:39.471298 24178 net.cpp:141] Setting up inception_4c/relu_1x1
I0403 19:00:39.471323 24178 net.cpp:148] Top shape: 24 128 14 14 (602112)
I0403 19:00:39.471338 24178 net.cpp:156] Memory required for data: 1033209120
I0403 19:00:39.471352 24178 layer_factory.hpp:77] Creating layer inception_4c/3x3_reduce
I0403 19:00:39.471375 24178 net.cpp:91] Creating Layer inception_4c/3x3_reduce
I0403 19:00:39.471392 24178 net.cpp:425] inception_4c/3x3_reduce <- inception_4b/output_inception_4b/output_0_split_1
I0403 19:00:39.471415 24178 net.cpp:399] inception_4c/3x3_reduce -> inception_4c/3x3_reduce
I0403 19:00:39.473320 24178 net.cpp:141] Setting up inception_4c/3x3_reduce
I0403 19:00:39.473350 24178 net.cpp:148] Top shape: 24 128 14 14 (602112)
I0403 19:00:39.473366 24178 net.cpp:156] Memory required for data: 1035617568
I0403 19:00:39.473386 24178 layer_factory.hpp:77] Creating layer inception_4c/relu_3x3_reduce
I0403 19:00:39.473403 24178 net.cpp:91] Creating Layer inception_4c/relu_3x3_reduce
I0403 19:00:39.473419 24178 net.cpp:425] inception_4c/relu_3x3_reduce <- inception_4c/3x3_reduce
I0403 19:00:39.473435 24178 net.cpp:386] inception_4c/relu_3x3_reduce -> inception_4c/3x3_reduce (in-place)
I0403 19:00:39.473717 24178 net.cpp:141] Setting up inception_4c/relu_3x3_reduce
I0403 19:00:39.473747 24178 net.cpp:148] Top shape: 24 128 14 14 (602112)
I0403 19:00:39.473760 24178 net.cpp:156] Memory required for data: 1038026016
I0403 19:00:39.473775 24178 layer_factory.hpp:77] Creating layer inception_4c/3x3
I0403 19:00:39.473798 24178 net.cpp:91] Creating Layer inception_4c/3x3
I0403 19:00:39.473816 24178 net.cpp:425] inception_4c/3x3 <- inception_4c/3x3_reduce
I0403 19:00:39.473835 24178 net.cpp:399] inception_4c/3x3 -> inception_4c/3x3
I0403 19:00:39.477447 24178 net.cpp:141] Setting up inception_4c/3x3
I0403 19:00:39.477490 24178 net.cpp:148] Top shape: 24 256 14 14 (1204224)
I0403 19:00:39.477511 24178 net.cpp:156] Memory required for data: 1042842912
I0403 19:00:39.477545 24178 layer_factory.hpp:77] Creating layer inception_4c/relu_3x3
I0403 19:00:39.477566 24178 net.cpp:91] Creating Layer inception_4c/relu_3x3
I0403 19:00:39.477582 24178 net.cpp:425] inception_4c/relu_3x3 <- inception_4c/3x3
I0403 19:00:39.477602 24178 net.cpp:386] inception_4c/relu_3x3 -> inception_4c/3x3 (in-place)
I0403 19:00:39.477783 24178 net.cpp:141] Setting up inception_4c/relu_3x3
I0403 19:00:39.477810 24178 net.cpp:148] Top shape: 24 256 14 14 (1204224)
I0403 19:00:39.477826 24178 net.cpp:156] Memory required for data: 1047659808
I0403 19:00:39.477841 24178 layer_factory.hpp:77] Creating layer inception_4c/5x5_reduce
I0403 19:00:39.477864 24178 net.cpp:91] Creating Layer inception_4c/5x5_reduce
I0403 19:00:39.477881 24178 net.cpp:425] inception_4c/5x5_reduce <- inception_4b/output_inception_4b/output_0_split_2
I0403 19:00:39.477903 24178 net.cpp:399] inception_4c/5x5_reduce -> inception_4c/5x5_reduce
I0403 19:00:39.478994 24178 net.cpp:141] Setting up inception_4c/5x5_reduce
I0403 19:00:39.479025 24178 net.cpp:148] Top shape: 24 24 14 14 (112896)
I0403 19:00:39.479043 24178 net.cpp:156] Memory required for data: 1048111392
I0403 19:00:39.479060 24178 layer_factory.hpp:77] Creating layer inception_4c/relu_5x5_reduce
I0403 19:00:39.479079 24178 net.cpp:91] Creating Layer inception_4c/relu_5x5_reduce
I0403 19:00:39.479094 24178 net.cpp:425] inception_4c/relu_5x5_reduce <- inception_4c/5x5_reduce
I0403 19:00:39.479111 24178 net.cpp:386] inception_4c/relu_5x5_reduce -> inception_4c/5x5_reduce (in-place)
I0403 19:00:39.479301 24178 net.cpp:141] Setting up inception_4c/relu_5x5_reduce
I0403 19:00:39.479327 24178 net.cpp:148] Top shape: 24 24 14 14 (112896)
I0403 19:00:39.479342 24178 net.cpp:156] Memory required for data: 1048562976
I0403 19:00:39.479358 24178 layer_factory.hpp:77] Creating layer inception_4c/5x5
I0403 19:00:39.479380 24178 net.cpp:91] Creating Layer inception_4c/5x5
I0403 19:00:39.479398 24178 net.cpp:425] inception_4c/5x5 <- inception_4c/5x5_reduce
I0403 19:00:39.479418 24178 net.cpp:399] inception_4c/5x5 -> inception_4c/5x5
I0403 19:00:39.480672 24178 net.cpp:141] Setting up inception_4c/5x5
I0403 19:00:39.480700 24178 net.cpp:148] Top shape: 24 64 14 14 (301056)
I0403 19:00:39.480715 24178 net.cpp:156] Memory required for data: 1049767200
I0403 19:00:39.480732 24178 layer_factory.hpp:77] Creating layer inception_4c/relu_5x5
I0403 19:00:39.480751 24178 net.cpp:91] Creating Layer inception_4c/relu_5x5
I0403 19:00:39.480765 24178 net.cpp:425] inception_4c/relu_5x5 <- inception_4c/5x5
I0403 19:00:39.480784 24178 net.cpp:386] inception_4c/relu_5x5 -> inception_4c/5x5 (in-place)
I0403 19:00:39.481072 24178 net.cpp:141] Setting up inception_4c/relu_5x5
I0403 19:00:39.481098 24178 net.cpp:148] Top shape: 24 64 14 14 (301056)
I0403 19:00:39.481113 24178 net.cpp:156] Memory required for data: 1050971424
I0403 19:00:39.481127 24178 layer_factory.hpp:77] Creating layer inception_4c/pool
I0403 19:00:39.481144 24178 net.cpp:91] Creating Layer inception_4c/pool
I0403 19:00:39.481160 24178 net.cpp:425] inception_4c/pool <- inception_4b/output_inception_4b/output_0_split_3
I0403 19:00:39.481180 24178 net.cpp:399] inception_4c/pool -> inception_4c/pool
I0403 19:00:39.481247 24178 net.cpp:141] Setting up inception_4c/pool
I0403 19:00:39.481271 24178 net.cpp:148] Top shape: 24 512 14 14 (2408448)
I0403 19:00:39.481287 24178 net.cpp:156] Memory required for data: 1060605216
I0403 19:00:39.481300 24178 layer_factory.hpp:77] Creating layer inception_4c/pool_proj
I0403 19:00:39.481324 24178 net.cpp:91] Creating Layer inception_4c/pool_proj
I0403 19:00:39.481341 24178 net.cpp:425] inception_4c/pool_proj <- inception_4c/pool
I0403 19:00:39.481360 24178 net.cpp:399] inception_4c/pool_proj -> inception_4c/pool_proj
I0403 19:00:39.482596 24178 net.cpp:141] Setting up inception_4c/pool_proj
I0403 19:00:39.482627 24178 net.cpp:148] Top shape: 24 64 14 14 (301056)
I0403 19:00:39.482656 24178 net.cpp:156] Memory required for data: 1061809440
I0403 19:00:39.482676 24178 layer_factory.hpp:77] Creating layer inception_4c/relu_pool_proj
I0403 19:00:39.482692 24178 net.cpp:91] Creating Layer inception_4c/relu_pool_proj
I0403 19:00:39.482708 24178 net.cpp:425] inception_4c/relu_pool_proj <- inception_4c/pool_proj
I0403 19:00:39.482728 24178 net.cpp:386] inception_4c/relu_pool_proj -> inception_4c/pool_proj (in-place)
I0403 19:00:39.482913 24178 net.cpp:141] Setting up inception_4c/relu_pool_proj
I0403 19:00:39.482939 24178 net.cpp:148] Top shape: 24 64 14 14 (301056)
I0403 19:00:39.482952 24178 net.cpp:156] Memory required for data: 1063013664
I0403 19:00:39.482966 24178 layer_factory.hpp:77] Creating layer inception_4c/output
I0403 19:00:39.482983 24178 net.cpp:91] Creating Layer inception_4c/output
I0403 19:00:39.482997 24178 net.cpp:425] inception_4c/output <- inception_4c/1x1
I0403 19:00:39.483013 24178 net.cpp:425] inception_4c/output <- inception_4c/3x3
I0403 19:00:39.483028 24178 net.cpp:425] inception_4c/output <- inception_4c/5x5
I0403 19:00:39.483043 24178 net.cpp:425] inception_4c/output <- inception_4c/pool_proj
I0403 19:00:39.483065 24178 net.cpp:399] inception_4c/output -> inception_4c/output
I0403 19:00:39.483113 24178 net.cpp:141] Setting up inception_4c/output
I0403 19:00:39.483139 24178 net.cpp:148] Top shape: 24 512 14 14 (2408448)
I0403 19:00:39.483153 24178 net.cpp:156] Memory required for data: 1072647456
I0403 19:00:39.483167 24178 layer_factory.hpp:77] Creating layer inception_4c/output_inception_4c/output_0_split
I0403 19:00:39.483185 24178 net.cpp:91] Creating Layer inception_4c/output_inception_4c/output_0_split
I0403 19:00:39.483199 24178 net.cpp:425] inception_4c/output_inception_4c/output_0_split <- inception_4c/output
I0403 19:00:39.483217 24178 net.cpp:399] inception_4c/output_inception_4c/output_0_split -> inception_4c/output_inception_4c/output_0_split_0
I0403 19:00:39.483238 24178 net.cpp:399] inception_4c/output_inception_4c/output_0_split -> inception_4c/output_inception_4c/output_0_split_1
I0403 19:00:39.483259 24178 net.cpp:399] inception_4c/output_inception_4c/output_0_split -> inception_4c/output_inception_4c/output_0_split_2
I0403 19:00:39.483279 24178 net.cpp:399] inception_4c/output_inception_4c/output_0_split -> inception_4c/output_inception_4c/output_0_split_3
I0403 19:00:39.483367 24178 net.cpp:141] Setting up inception_4c/output_inception_4c/output_0_split
I0403 19:00:39.483391 24178 net.cpp:148] Top shape: 24 512 14 14 (2408448)
I0403 19:00:39.483407 24178 net.cpp:148] Top shape: 24 512 14 14 (2408448)
I0403 19:00:39.483422 24178 net.cpp:148] Top shape: 24 512 14 14 (2408448)
I0403 19:00:39.483438 24178 net.cpp:148] Top shape: 24 512 14 14 (2408448)
I0403 19:00:39.483450 24178 net.cpp:156] Memory required for data: 1111182624
I0403 19:00:39.483464 24178 layer_factory.hpp:77] Creating layer inception_4d/1x1
I0403 19:00:39.483485 24178 net.cpp:91] Creating Layer inception_4d/1x1
I0403 19:00:39.483508 24178 net.cpp:425] inception_4d/1x1 <- inception_4c/output_inception_4c/output_0_split_0
I0403 19:00:39.483530 24178 net.cpp:399] inception_4d/1x1 -> inception_4d/1x1
I0403 19:00:39.484912 24178 net.cpp:141] Setting up inception_4d/1x1
I0403 19:00:39.484941 24178 net.cpp:148] Top shape: 24 112 14 14 (526848)
I0403 19:00:39.484956 24178 net.cpp:156] Memory required for data: 1113290016
I0403 19:00:39.484974 24178 layer_factory.hpp:77] Creating layer inception_4d/relu_1x1
I0403 19:00:39.484995 24178 net.cpp:91] Creating Layer inception_4d/relu_1x1
I0403 19:00:39.485013 24178 net.cpp:425] inception_4d/relu_1x1 <- inception_4d/1x1
I0403 19:00:39.485030 24178 net.cpp:386] inception_4d/relu_1x1 -> inception_4d/1x1 (in-place)
I0403 19:00:39.485214 24178 net.cpp:141] Setting up inception_4d/relu_1x1
I0403 19:00:39.485241 24178 net.cpp:148] Top shape: 24 112 14 14 (526848)
I0403 19:00:39.485258 24178 net.cpp:156] Memory required for data: 1115397408
I0403 19:00:39.485275 24178 layer_factory.hpp:77] Creating layer inception_4d/3x3_reduce
I0403 19:00:39.485311 24178 net.cpp:91] Creating Layer inception_4d/3x3_reduce
I0403 19:00:39.485330 24178 net.cpp:425] inception_4d/3x3_reduce <- inception_4c/output_inception_4c/output_0_split_1
I0403 19:00:39.485349 24178 net.cpp:399] inception_4d/3x3_reduce -> inception_4d/3x3_reduce
I0403 19:00:39.486881 24178 net.cpp:141] Setting up inception_4d/3x3_reduce
I0403 19:00:39.486909 24178 net.cpp:148] Top shape: 24 144 14 14 (677376)
I0403 19:00:39.486925 24178 net.cpp:156] Memory required for data: 1118106912
I0403 19:00:39.486943 24178 layer_factory.hpp:77] Creating layer inception_4d/relu_3x3_reduce
I0403 19:00:39.486964 24178 net.cpp:91] Creating Layer inception_4d/relu_3x3_reduce
I0403 19:00:39.486982 24178 net.cpp:425] inception_4d/relu_3x3_reduce <- inception_4d/3x3_reduce
I0403 19:00:39.486999 24178 net.cpp:386] inception_4d/relu_3x3_reduce -> inception_4d/3x3_reduce (in-place)
I0403 19:00:39.487290 24178 net.cpp:141] Setting up inception_4d/relu_3x3_reduce
I0403 19:00:39.487318 24178 net.cpp:148] Top shape: 24 144 14 14 (677376)
I0403 19:00:39.487332 24178 net.cpp:156] Memory required for data: 1120816416
I0403 19:00:39.487346 24178 layer_factory.hpp:77] Creating layer inception_4d/3x3
I0403 19:00:39.487368 24178 net.cpp:91] Creating Layer inception_4d/3x3
I0403 19:00:39.487386 24178 net.cpp:425] inception_4d/3x3 <- inception_4d/3x3_reduce
I0403 19:00:39.487406 24178 net.cpp:399] inception_4d/3x3 -> inception_4d/3x3
I0403 19:00:39.491706 24178 net.cpp:141] Setting up inception_4d/3x3
I0403 19:00:39.491735 24178 net.cpp:148] Top shape: 24 288 14 14 (1354752)
I0403 19:00:39.491750 24178 net.cpp:156] Memory required for data: 1126235424
I0403 19:00:39.491767 24178 layer_factory.hpp:77] Creating layer inception_4d/relu_3x3
I0403 19:00:39.491788 24178 net.cpp:91] Creating Layer inception_4d/relu_3x3
I0403 19:00:39.491806 24178 net.cpp:425] inception_4d/relu_3x3 <- inception_4d/3x3
I0403 19:00:39.491822 24178 net.cpp:386] inception_4d/relu_3x3 -> inception_4d/3x3 (in-place)
I0403 19:00:39.492010 24178 net.cpp:141] Setting up inception_4d/relu_3x3
I0403 19:00:39.492038 24178 net.cpp:148] Top shape: 24 288 14 14 (1354752)
I0403 19:00:39.492053 24178 net.cpp:156] Memory required for data: 1131654432
I0403 19:00:39.492069 24178 layer_factory.hpp:77] Creating layer inception_4d/5x5_reduce
I0403 19:00:39.492089 24178 net.cpp:91] Creating Layer inception_4d/5x5_reduce
I0403 19:00:39.492106 24178 net.cpp:425] inception_4d/5x5_reduce <- inception_4c/output_inception_4c/output_0_split_2
I0403 19:00:39.492125 24178 net.cpp:399] inception_4d/5x5_reduce -> inception_4d/5x5_reduce
I0403 19:00:39.493273 24178 net.cpp:141] Setting up inception_4d/5x5_reduce
I0403 19:00:39.493299 24178 net.cpp:148] Top shape: 24 32 14 14 (150528)
I0403 19:00:39.493315 24178 net.cpp:156] Memory required for data: 1132256544
I0403 19:00:39.493333 24178 layer_factory.hpp:77] Creating layer inception_4d/relu_5x5_reduce
I0403 19:00:39.493353 24178 net.cpp:91] Creating Layer inception_4d/relu_5x5_reduce
I0403 19:00:39.493369 24178 net.cpp:425] inception_4d/relu_5x5_reduce <- inception_4d/5x5_reduce
I0403 19:00:39.493386 24178 net.cpp:386] inception_4d/relu_5x5_reduce -> inception_4d/5x5_reduce (in-place)
I0403 19:00:39.493573 24178 net.cpp:141] Setting up inception_4d/relu_5x5_reduce
I0403 19:00:39.493600 24178 net.cpp:148] Top shape: 24 32 14 14 (150528)
I0403 19:00:39.493616 24178 net.cpp:156] Memory required for data: 1132858656
I0403 19:00:39.493631 24178 layer_factory.hpp:77] Creating layer inception_4d/5x5
I0403 19:00:39.493654 24178 net.cpp:91] Creating Layer inception_4d/5x5
I0403 19:00:39.493671 24178 net.cpp:425] inception_4d/5x5 <- inception_4d/5x5_reduce
I0403 19:00:39.493690 24178 net.cpp:399] inception_4d/5x5 -> inception_4d/5x5
I0403 19:00:39.495129 24178 net.cpp:141] Setting up inception_4d/5x5
I0403 19:00:39.495157 24178 net.cpp:148] Top shape: 24 64 14 14 (301056)
I0403 19:00:39.495172 24178 net.cpp:156] Memory required for data: 1134062880
I0403 19:00:39.495192 24178 layer_factory.hpp:77] Creating layer inception_4d/relu_5x5
I0403 19:00:39.495226 24178 net.cpp:91] Creating Layer inception_4d/relu_5x5
I0403 19:00:39.495242 24178 net.cpp:425] inception_4d/relu_5x5 <- inception_4d/5x5
I0403 19:00:39.495261 24178 net.cpp:386] inception_4d/relu_5x5 -> inception_4d/5x5 (in-place)
I0403 19:00:39.495573 24178 net.cpp:141] Setting up inception_4d/relu_5x5
I0403 19:00:39.495599 24178 net.cpp:148] Top shape: 24 64 14 14 (301056)
I0403 19:00:39.495615 24178 net.cpp:156] Memory required for data: 1135267104
I0403 19:00:39.495630 24178 layer_factory.hpp:77] Creating layer inception_4d/pool
I0403 19:00:39.495647 24178 net.cpp:91] Creating Layer inception_4d/pool
I0403 19:00:39.495662 24178 net.cpp:425] inception_4d/pool <- inception_4c/output_inception_4c/output_0_split_3
I0403 19:00:39.495682 24178 net.cpp:399] inception_4d/pool -> inception_4d/pool
I0403 19:00:39.495749 24178 net.cpp:141] Setting up inception_4d/pool
I0403 19:00:39.495772 24178 net.cpp:148] Top shape: 24 512 14 14 (2408448)
I0403 19:00:39.495787 24178 net.cpp:156] Memory required for data: 1144900896
I0403 19:00:39.495801 24178 layer_factory.hpp:77] Creating layer inception_4d/pool_proj
I0403 19:00:39.495825 24178 net.cpp:91] Creating Layer inception_4d/pool_proj
I0403 19:00:39.495841 24178 net.cpp:425] inception_4d/pool_proj <- inception_4d/pool
I0403 19:00:39.495858 24178 net.cpp:399] inception_4d/pool_proj -> inception_4d/pool_proj
I0403 19:00:39.497617 24178 net.cpp:141] Setting up inception_4d/pool_proj
I0403 19:00:39.497645 24178 net.cpp:148] Top shape: 24 64 14 14 (301056)
I0403 19:00:39.497660 24178 net.cpp:156] Memory required for data: 1146105120
I0403 19:00:39.497678 24178 layer_factory.hpp:77] Creating layer inception_4d/relu_pool_proj
I0403 19:00:39.497702 24178 net.cpp:91] Creating Layer inception_4d/relu_pool_proj
I0403 19:00:39.497719 24178 net.cpp:425] inception_4d/relu_pool_proj <- inception_4d/pool_proj
I0403 19:00:39.497735 24178 net.cpp:386] inception_4d/relu_pool_proj -> inception_4d/pool_proj (in-place)
I0403 19:00:39.497917 24178 net.cpp:141] Setting up inception_4d/relu_pool_proj
I0403 19:00:39.497946 24178 net.cpp:148] Top shape: 24 64 14 14 (301056)
I0403 19:00:39.497961 24178 net.cpp:156] Memory required for data: 1147309344
I0403 19:00:39.497975 24178 layer_factory.hpp:77] Creating layer inception_4d/output
I0403 19:00:39.497992 24178 net.cpp:91] Creating Layer inception_4d/output
I0403 19:00:39.498008 24178 net.cpp:425] inception_4d/output <- inception_4d/1x1
I0403 19:00:39.498023 24178 net.cpp:425] inception_4d/output <- inception_4d/3x3
I0403 19:00:39.498039 24178 net.cpp:425] inception_4d/output <- inception_4d/5x5
I0403 19:00:39.498054 24178 net.cpp:425] inception_4d/output <- inception_4d/pool_proj
I0403 19:00:39.498076 24178 net.cpp:399] inception_4d/output -> inception_4d/output
I0403 19:00:39.498124 24178 net.cpp:141] Setting up inception_4d/output
I0403 19:00:39.498147 24178 net.cpp:148] Top shape: 24 528 14 14 (2483712)
I0403 19:00:39.498160 24178 net.cpp:156] Memory required for data: 1157244192
I0403 19:00:39.498174 24178 layer_factory.hpp:77] Creating layer inception_4d/output_inception_4d/output_0_split
I0403 19:00:39.498194 24178 net.cpp:91] Creating Layer inception_4d/output_inception_4d/output_0_split
I0403 19:00:39.498211 24178 net.cpp:425] inception_4d/output_inception_4d/output_0_split <- inception_4d/output
I0403 19:00:39.498229 24178 net.cpp:399] inception_4d/output_inception_4d/output_0_split -> inception_4d/output_inception_4d/output_0_split_0
I0403 19:00:39.498252 24178 net.cpp:399] inception_4d/output_inception_4d/output_0_split -> inception_4d/output_inception_4d/output_0_split_1
I0403 19:00:39.498275 24178 net.cpp:399] inception_4d/output_inception_4d/output_0_split -> inception_4d/output_inception_4d/output_0_split_2
I0403 19:00:39.498296 24178 net.cpp:399] inception_4d/output_inception_4d/output_0_split -> inception_4d/output_inception_4d/output_0_split_3
I0403 19:00:39.498316 24178 net.cpp:399] inception_4d/output_inception_4d/output_0_split -> inception_4d/output_inception_4d/output_0_split_4
I0403 19:00:39.498415 24178 net.cpp:141] Setting up inception_4d/output_inception_4d/output_0_split
I0403 19:00:39.498450 24178 net.cpp:148] Top shape: 24 528 14 14 (2483712)
I0403 19:00:39.498467 24178 net.cpp:148] Top shape: 24 528 14 14 (2483712)
I0403 19:00:39.498481 24178 net.cpp:148] Top shape: 24 528 14 14 (2483712)
I0403 19:00:39.498497 24178 net.cpp:148] Top shape: 24 528 14 14 (2483712)
I0403 19:00:39.498515 24178 net.cpp:148] Top shape: 24 528 14 14 (2483712)
I0403 19:00:39.498529 24178 net.cpp:156] Memory required for data: 1206918432
I0403 19:00:39.498543 24178 layer_factory.hpp:77] Creating layer loss2/ave_pool
I0403 19:00:39.498563 24178 net.cpp:91] Creating Layer loss2/ave_pool
I0403 19:00:39.498579 24178 net.cpp:425] loss2/ave_pool <- inception_4d/output_inception_4d/output_0_split_0
I0403 19:00:39.498597 24178 net.cpp:399] loss2/ave_pool -> loss2/ave_pool
I0403 19:00:39.498901 24178 net.cpp:141] Setting up loss2/ave_pool
I0403 19:00:39.498926 24178 net.cpp:148] Top shape: 24 528 4 4 (202752)
I0403 19:00:39.498945 24178 net.cpp:156] Memory required for data: 1207729440
I0403 19:00:39.498960 24178 layer_factory.hpp:77] Creating layer loss2/conv
I0403 19:00:39.498978 24178 net.cpp:91] Creating Layer loss2/conv
I0403 19:00:39.498996 24178 net.cpp:425] loss2/conv <- loss2/ave_pool
I0403 19:00:39.499016 24178 net.cpp:399] loss2/conv -> loss2/conv
I0403 19:00:39.500885 24178 net.cpp:141] Setting up loss2/conv
I0403 19:00:39.500916 24178 net.cpp:148] Top shape: 24 128 4 4 (49152)
I0403 19:00:39.500931 24178 net.cpp:156] Memory required for data: 1207926048
I0403 19:00:39.500949 24178 layer_factory.hpp:77] Creating layer loss2/relu_conv
I0403 19:00:39.500967 24178 net.cpp:91] Creating Layer loss2/relu_conv
I0403 19:00:39.500982 24178 net.cpp:425] loss2/relu_conv <- loss2/conv
I0403 19:00:39.501001 24178 net.cpp:386] loss2/relu_conv -> loss2/conv (in-place)
I0403 19:00:39.501277 24178 net.cpp:141] Setting up loss2/relu_conv
I0403 19:00:39.501305 24178 net.cpp:148] Top shape: 24 128 4 4 (49152)
I0403 19:00:39.501322 24178 net.cpp:156] Memory required for data: 1208122656
I0403 19:00:39.501337 24178 layer_factory.hpp:77] Creating layer loss2/fc
I0403 19:00:39.501353 24178 net.cpp:91] Creating Layer loss2/fc
I0403 19:00:39.501369 24178 net.cpp:425] loss2/fc <- loss2/conv
I0403 19:00:39.501390 24178 net.cpp:399] loss2/fc -> loss2/fc
I0403 19:00:39.518776 24178 net.cpp:141] Setting up loss2/fc
I0403 19:00:39.518810 24178 net.cpp:148] Top shape: 24 1024 (24576)
I0403 19:00:39.518823 24178 net.cpp:156] Memory required for data: 1208220960
I0403 19:00:39.518841 24178 layer_factory.hpp:77] Creating layer loss2/relu_fc
I0403 19:00:39.518862 24178 net.cpp:91] Creating Layer loss2/relu_fc
I0403 19:00:39.518877 24178 net.cpp:425] loss2/relu_fc <- loss2/fc
I0403 19:00:39.518895 24178 net.cpp:386] loss2/relu_fc -> loss2/fc (in-place)
I0403 19:00:39.519198 24178 net.cpp:141] Setting up loss2/relu_fc
I0403 19:00:39.519224 24178 net.cpp:148] Top shape: 24 1024 (24576)
I0403 19:00:39.519240 24178 net.cpp:156] Memory required for data: 1208319264
I0403 19:00:39.519254 24178 layer_factory.hpp:77] Creating layer loss2/drop_fc
I0403 19:00:39.519274 24178 net.cpp:91] Creating Layer loss2/drop_fc
I0403 19:00:39.519294 24178 net.cpp:425] loss2/drop_fc <- loss2/fc
I0403 19:00:39.519311 24178 net.cpp:386] loss2/drop_fc -> loss2/fc (in-place)
I0403 19:00:39.519361 24178 net.cpp:141] Setting up loss2/drop_fc
I0403 19:00:39.519383 24178 net.cpp:148] Top shape: 24 1024 (24576)
I0403 19:00:39.519398 24178 net.cpp:156] Memory required for data: 1208417568
I0403 19:00:39.519412 24178 layer_factory.hpp:77] Creating layer loss2/classifier_plantvillage
I0403 19:00:39.519433 24178 net.cpp:91] Creating Layer loss2/classifier_plantvillage
I0403 19:00:39.519449 24178 net.cpp:425] loss2/classifier_plantvillage <- loss2/fc
I0403 19:00:39.519467 24178 net.cpp:399] loss2/classifier_plantvillage -> loss2/classifier_plantvillage
I0403 19:00:39.519863 24178 net.cpp:141] Setting up loss2/classifier_plantvillage
I0403 19:00:39.519888 24178 net.cpp:148] Top shape: 24 38 (912)
I0403 19:00:39.519919 24178 net.cpp:156] Memory required for data: 1208421216
I0403 19:00:39.519937 24178 layer_factory.hpp:77] Creating layer loss2/classifier_plantvillage_loss2/classifier_plantvillage_0_split
I0403 19:00:39.519955 24178 net.cpp:91] Creating Layer loss2/classifier_plantvillage_loss2/classifier_plantvillage_0_split
I0403 19:00:39.519970 24178 net.cpp:425] loss2/classifier_plantvillage_loss2/classifier_plantvillage_0_split <- loss2/classifier_plantvillage
I0403 19:00:39.519990 24178 net.cpp:399] loss2/classifier_plantvillage_loss2/classifier_plantvillage_0_split -> loss2/classifier_plantvillage_loss2/classifier_plantvillage_0_split_0
I0403 19:00:39.520010 24178 net.cpp:399] loss2/classifier_plantvillage_loss2/classifier_plantvillage_0_split -> loss2/classifier_plantvillage_loss2/classifier_plantvillage_0_split_1
I0403 19:00:39.520032 24178 net.cpp:399] loss2/classifier_plantvillage_loss2/classifier_plantvillage_0_split -> loss2/classifier_plantvillage_loss2/classifier_plantvillage_0_split_2
I0403 19:00:39.520108 24178 net.cpp:141] Setting up loss2/classifier_plantvillage_loss2/classifier_plantvillage_0_split
I0403 19:00:39.520134 24178 net.cpp:148] Top shape: 24 38 (912)
I0403 19:00:39.520151 24178 net.cpp:148] Top shape: 24 38 (912)
I0403 19:00:39.520166 24178 net.cpp:148] Top shape: 24 38 (912)
I0403 19:00:39.520180 24178 net.cpp:156] Memory required for data: 1208432160
I0403 19:00:39.520193 24178 layer_factory.hpp:77] Creating layer inception_4e/1x1
I0403 19:00:39.520212 24178 net.cpp:91] Creating Layer inception_4e/1x1
I0403 19:00:39.520228 24178 net.cpp:425] inception_4e/1x1 <- inception_4d/output_inception_4d/output_0_split_1
I0403 19:00:39.520246 24178 net.cpp:399] inception_4e/1x1 -> inception_4e/1x1
I0403 19:00:39.522025 24178 net.cpp:141] Setting up inception_4e/1x1
I0403 19:00:39.522053 24178 net.cpp:148] Top shape: 24 256 14 14 (1204224)
I0403 19:00:39.522068 24178 net.cpp:156] Memory required for data: 1213249056
I0403 19:00:39.522085 24178 layer_factory.hpp:77] Creating layer inception_4e/relu_1x1
I0403 19:00:39.522102 24178 net.cpp:91] Creating Layer inception_4e/relu_1x1
I0403 19:00:39.522117 24178 net.cpp:425] inception_4e/relu_1x1 <- inception_4e/1x1
I0403 19:00:39.522135 24178 net.cpp:386] inception_4e/relu_1x1 -> inception_4e/1x1 (in-place)
I0403 19:00:39.522423 24178 net.cpp:141] Setting up inception_4e/relu_1x1
I0403 19:00:39.522449 24178 net.cpp:148] Top shape: 24 256 14 14 (1204224)
I0403 19:00:39.522464 24178 net.cpp:156] Memory required for data: 1218065952
I0403 19:00:39.522477 24178 layer_factory.hpp:77] Creating layer inception_4e/3x3_reduce
I0403 19:00:39.522500 24178 net.cpp:91] Creating Layer inception_4e/3x3_reduce
I0403 19:00:39.522521 24178 net.cpp:425] inception_4e/3x3_reduce <- inception_4d/output_inception_4d/output_0_split_2
I0403 19:00:39.522541 24178 net.cpp:399] inception_4e/3x3_reduce -> inception_4e/3x3_reduce
I0403 19:00:39.524629 24178 net.cpp:141] Setting up inception_4e/3x3_reduce
I0403 19:00:39.524659 24178 net.cpp:148] Top shape: 24 160 14 14 (752640)
I0403 19:00:39.524675 24178 net.cpp:156] Memory required for data: 1221076512
I0403 19:00:39.524693 24178 layer_factory.hpp:77] Creating layer inception_4e/relu_3x3_reduce
I0403 19:00:39.524710 24178 net.cpp:91] Creating Layer inception_4e/relu_3x3_reduce
I0403 19:00:39.524726 24178 net.cpp:425] inception_4e/relu_3x3_reduce <- inception_4e/3x3_reduce
I0403 19:00:39.524744 24178 net.cpp:386] inception_4e/relu_3x3_reduce -> inception_4e/3x3_reduce (in-place)
I0403 19:00:39.524931 24178 net.cpp:141] Setting up inception_4e/relu_3x3_reduce
I0403 19:00:39.524955 24178 net.cpp:148] Top shape: 24 160 14 14 (752640)
I0403 19:00:39.524971 24178 net.cpp:156] Memory required for data: 1224087072
I0403 19:00:39.524984 24178 layer_factory.hpp:77] Creating layer inception_4e/3x3
I0403 19:00:39.525005 24178 net.cpp:91] Creating Layer inception_4e/3x3
I0403 19:00:39.525022 24178 net.cpp:425] inception_4e/3x3 <- inception_4e/3x3_reduce
I0403 19:00:39.525043 24178 net.cpp:399] inception_4e/3x3 -> inception_4e/3x3
I0403 19:00:39.530097 24178 net.cpp:141] Setting up inception_4e/3x3
I0403 19:00:39.530139 24178 net.cpp:148] Top shape: 24 320 14 14 (1505280)
I0403 19:00:39.530155 24178 net.cpp:156] Memory required for data: 1230108192
I0403 19:00:39.530172 24178 layer_factory.hpp:77] Creating layer inception_4e/relu_3x3
I0403 19:00:39.530194 24178 net.cpp:91] Creating Layer inception_4e/relu_3x3
I0403 19:00:39.530210 24178 net.cpp:425] inception_4e/relu_3x3 <- inception_4e/3x3
I0403 19:00:39.530228 24178 net.cpp:386] inception_4e/relu_3x3 -> inception_4e/3x3 (in-place)
I0403 19:00:39.530535 24178 net.cpp:141] Setting up inception_4e/relu_3x3
I0403 19:00:39.530561 24178 net.cpp:148] Top shape: 24 320 14 14 (1505280)
I0403 19:00:39.530576 24178 net.cpp:156] Memory required for data: 1236129312
I0403 19:00:39.530591 24178 layer_factory.hpp:77] Creating layer inception_4e/5x5_reduce
I0403 19:00:39.530614 24178 net.cpp:91] Creating Layer inception_4e/5x5_reduce
I0403 19:00:39.530633 24178 net.cpp:425] inception_4e/5x5_reduce <- inception_4d/output_inception_4d/output_0_split_3
I0403 19:00:39.530658 24178 net.cpp:399] inception_4e/5x5_reduce -> inception_4e/5x5_reduce
I0403 19:00:39.531746 24178 net.cpp:141] Setting up inception_4e/5x5_reduce
I0403 19:00:39.531774 24178 net.cpp:148] Top shape: 24 32 14 14 (150528)
I0403 19:00:39.531788 24178 net.cpp:156] Memory required for data: 1236731424
I0403 19:00:39.531806 24178 layer_factory.hpp:77] Creating layer inception_4e/relu_5x5_reduce
I0403 19:00:39.531823 24178 net.cpp:91] Creating Layer inception_4e/relu_5x5_reduce
I0403 19:00:39.531839 24178 net.cpp:425] inception_4e/relu_5x5_reduce <- inception_4e/5x5_reduce
I0403 19:00:39.531859 24178 net.cpp:386] inception_4e/relu_5x5_reduce -> inception_4e/5x5_reduce (in-place)
I0403 19:00:39.532155 24178 net.cpp:141] Setting up inception_4e/relu_5x5_reduce
I0403 19:00:39.532182 24178 net.cpp:148] Top shape: 24 32 14 14 (150528)
I0403 19:00:39.532197 24178 net.cpp:156] Memory required for data: 1237333536
I0403 19:00:39.532212 24178 layer_factory.hpp:77] Creating layer inception_4e/5x5
I0403 19:00:39.532248 24178 net.cpp:91] Creating Layer inception_4e/5x5
I0403 19:00:39.532266 24178 net.cpp:425] inception_4e/5x5 <- inception_4e/5x5_reduce
I0403 19:00:39.532284 24178 net.cpp:399] inception_4e/5x5 -> inception_4e/5x5
I0403 19:00:39.534128 24178 net.cpp:141] Setting up inception_4e/5x5
I0403 19:00:39.534159 24178 net.cpp:148] Top shape: 24 128 14 14 (602112)
I0403 19:00:39.534175 24178 net.cpp:156] Memory required for data: 1239741984
I0403 19:00:39.534194 24178 layer_factory.hpp:77] Creating layer inception_4e/relu_5x5
I0403 19:00:39.534212 24178 net.cpp:91] Creating Layer inception_4e/relu_5x5
I0403 19:00:39.534229 24178 net.cpp:425] inception_4e/relu_5x5 <- inception_4e/5x5
I0403 19:00:39.534246 24178 net.cpp:386] inception_4e/relu_5x5 -> inception_4e/5x5 (in-place)
I0403 19:00:39.534451 24178 net.cpp:141] Setting up inception_4e/relu_5x5
I0403 19:00:39.534476 24178 net.cpp:148] Top shape: 24 128 14 14 (602112)
I0403 19:00:39.534492 24178 net.cpp:156] Memory required for data: 1242150432
I0403 19:00:39.534510 24178 layer_factory.hpp:77] Creating layer inception_4e/pool
I0403 19:00:39.534530 24178 net.cpp:91] Creating Layer inception_4e/pool
I0403 19:00:39.534546 24178 net.cpp:425] inception_4e/pool <- inception_4d/output_inception_4d/output_0_split_4
I0403 19:00:39.534567 24178 net.cpp:399] inception_4e/pool -> inception_4e/pool
I0403 19:00:39.534638 24178 net.cpp:141] Setting up inception_4e/pool
I0403 19:00:39.534665 24178 net.cpp:148] Top shape: 24 528 14 14 (2483712)
I0403 19:00:39.534680 24178 net.cpp:156] Memory required for data: 1252085280
I0403 19:00:39.534695 24178 layer_factory.hpp:77] Creating layer inception_4e/pool_proj
I0403 19:00:39.534718 24178 net.cpp:91] Creating Layer inception_4e/pool_proj
I0403 19:00:39.534735 24178 net.cpp:425] inception_4e/pool_proj <- inception_4e/pool
I0403 19:00:39.534754 24178 net.cpp:399] inception_4e/pool_proj -> inception_4e/pool_proj
I0403 19:00:39.536274 24178 net.cpp:141] Setting up inception_4e/pool_proj
I0403 19:00:39.536314 24178 net.cpp:148] Top shape: 24 128 14 14 (602112)
I0403 19:00:39.536332 24178 net.cpp:156] Memory required for data: 1254493728
I0403 19:00:39.536351 24178 layer_factory.hpp:77] Creating layer inception_4e/relu_pool_proj
I0403 19:00:39.536370 24178 net.cpp:91] Creating Layer inception_4e/relu_pool_proj
I0403 19:00:39.536386 24178 net.cpp:425] inception_4e/relu_pool_proj <- inception_4e/pool_proj
I0403 19:00:39.536402 24178 net.cpp:386] inception_4e/relu_pool_proj -> inception_4e/pool_proj (in-place)
I0403 19:00:39.536705 24178 net.cpp:141] Setting up inception_4e/relu_pool_proj
I0403 19:00:39.536730 24178 net.cpp:148] Top shape: 24 128 14 14 (602112)
I0403 19:00:39.536747 24178 net.cpp:156] Memory required for data: 1256902176
I0403 19:00:39.536762 24178 layer_factory.hpp:77] Creating layer inception_4e/output
I0403 19:00:39.536782 24178 net.cpp:91] Creating Layer inception_4e/output
I0403 19:00:39.536795 24178 net.cpp:425] inception_4e/output <- inception_4e/1x1
I0403 19:00:39.536813 24178 net.cpp:425] inception_4e/output <- inception_4e/3x3
I0403 19:00:39.536828 24178 net.cpp:425] inception_4e/output <- inception_4e/5x5
I0403 19:00:39.536844 24178 net.cpp:425] inception_4e/output <- inception_4e/pool_proj
I0403 19:00:39.536860 24178 net.cpp:399] inception_4e/output -> inception_4e/output
I0403 19:00:39.536911 24178 net.cpp:141] Setting up inception_4e/output
I0403 19:00:39.536934 24178 net.cpp:148] Top shape: 24 832 14 14 (3913728)
I0403 19:00:39.536948 24178 net.cpp:156] Memory required for data: 1272557088
I0403 19:00:39.536963 24178 layer_factory.hpp:77] Creating layer pool4/3x3_s2
I0403 19:00:39.536983 24178 net.cpp:91] Creating Layer pool4/3x3_s2
I0403 19:00:39.536998 24178 net.cpp:425] pool4/3x3_s2 <- inception_4e/output
I0403 19:00:39.537016 24178 net.cpp:399] pool4/3x3_s2 -> pool4/3x3_s2
I0403 19:00:39.537086 24178 net.cpp:141] Setting up pool4/3x3_s2
I0403 19:00:39.537108 24178 net.cpp:148] Top shape: 24 832 7 7 (978432)
I0403 19:00:39.537122 24178 net.cpp:156] Memory required for data: 1276470816
I0403 19:00:39.537137 24178 layer_factory.hpp:77] Creating layer pool4/3x3_s2_pool4/3x3_s2_0_split
I0403 19:00:39.537153 24178 net.cpp:91] Creating Layer pool4/3x3_s2_pool4/3x3_s2_0_split
I0403 19:00:39.537169 24178 net.cpp:425] pool4/3x3_s2_pool4/3x3_s2_0_split <- pool4/3x3_s2
I0403 19:00:39.537188 24178 net.cpp:399] pool4/3x3_s2_pool4/3x3_s2_0_split -> pool4/3x3_s2_pool4/3x3_s2_0_split_0
I0403 19:00:39.537209 24178 net.cpp:399] pool4/3x3_s2_pool4/3x3_s2_0_split -> pool4/3x3_s2_pool4/3x3_s2_0_split_1
I0403 19:00:39.537230 24178 net.cpp:399] pool4/3x3_s2_pool4/3x3_s2_0_split -> pool4/3x3_s2_pool4/3x3_s2_0_split_2
I0403 19:00:39.537250 24178 net.cpp:399] pool4/3x3_s2_pool4/3x3_s2_0_split -> pool4/3x3_s2_pool4/3x3_s2_0_split_3
I0403 19:00:39.537340 24178 net.cpp:141] Setting up pool4/3x3_s2_pool4/3x3_s2_0_split
I0403 19:00:39.537364 24178 net.cpp:148] Top shape: 24 832 7 7 (978432)
I0403 19:00:39.537379 24178 net.cpp:148] Top shape: 24 832 7 7 (978432)
I0403 19:00:39.537395 24178 net.cpp:148] Top shape: 24 832 7 7 (978432)
I0403 19:00:39.537410 24178 net.cpp:148] Top shape: 24 832 7 7 (978432)
I0403 19:00:39.537423 24178 net.cpp:156] Memory required for data: 1292125728
I0403 19:00:39.537437 24178 layer_factory.hpp:77] Creating layer inception_5a/1x1
I0403 19:00:39.537461 24178 net.cpp:91] Creating Layer inception_5a/1x1
I0403 19:00:39.537479 24178 net.cpp:425] inception_5a/1x1 <- pool4/3x3_s2_pool4/3x3_s2_0_split_0
I0403 19:00:39.537497 24178 net.cpp:399] inception_5a/1x1 -> inception_5a/1x1
I0403 19:00:39.540566 24178 net.cpp:141] Setting up inception_5a/1x1
I0403 19:00:39.540599 24178 net.cpp:148] Top shape: 24 256 7 7 (301056)
I0403 19:00:39.540617 24178 net.cpp:156] Memory required for data: 1293329952
I0403 19:00:39.540638 24178 layer_factory.hpp:77] Creating layer inception_5a/relu_1x1
I0403 19:00:39.540657 24178 net.cpp:91] Creating Layer inception_5a/relu_1x1
I0403 19:00:39.540673 24178 net.cpp:425] inception_5a/relu_1x1 <- inception_5a/1x1
I0403 19:00:39.540693 24178 net.cpp:386] inception_5a/relu_1x1 -> inception_5a/1x1 (in-place)
I0403 19:00:39.541009 24178 net.cpp:141] Setting up inception_5a/relu_1x1
I0403 19:00:39.541038 24178 net.cpp:148] Top shape: 24 256 7 7 (301056)
I0403 19:00:39.541055 24178 net.cpp:156] Memory required for data: 1294534176
I0403 19:00:39.541071 24178 layer_factory.hpp:77] Creating layer inception_5a/3x3_reduce
I0403 19:00:39.541093 24178 net.cpp:91] Creating Layer inception_5a/3x3_reduce
I0403 19:00:39.541112 24178 net.cpp:425] inception_5a/3x3_reduce <- pool4/3x3_s2_pool4/3x3_s2_0_split_1
I0403 19:00:39.541131 24178 net.cpp:399] inception_5a/3x3_reduce -> inception_5a/3x3_reduce
I0403 19:00:39.543635 24178 net.cpp:141] Setting up inception_5a/3x3_reduce
I0403 19:00:39.543665 24178 net.cpp:148] Top shape: 24 160 7 7 (188160)
I0403 19:00:39.543681 24178 net.cpp:156] Memory required for data: 1295286816
I0403 19:00:39.543700 24178 layer_factory.hpp:77] Creating layer inception_5a/relu_3x3_reduce
I0403 19:00:39.543720 24178 net.cpp:91] Creating Layer inception_5a/relu_3x3_reduce
I0403 19:00:39.543737 24178 net.cpp:425] inception_5a/relu_3x3_reduce <- inception_5a/3x3_reduce
I0403 19:00:39.543754 24178 net.cpp:386] inception_5a/relu_3x3_reduce -> inception_5a/3x3_reduce (in-place)
I0403 19:00:39.543951 24178 net.cpp:141] Setting up inception_5a/relu_3x3_reduce
I0403 19:00:39.543979 24178 net.cpp:148] Top shape: 24 160 7 7 (188160)
I0403 19:00:39.543997 24178 net.cpp:156] Memory required for data: 1296039456
I0403 19:00:39.544013 24178 layer_factory.hpp:77] Creating layer inception_5a/3x3
I0403 19:00:39.544034 24178 net.cpp:91] Creating Layer inception_5a/3x3
I0403 19:00:39.544052 24178 net.cpp:425] inception_5a/3x3 <- inception_5a/3x3_reduce
I0403 19:00:39.544070 24178 net.cpp:399] inception_5a/3x3 -> inception_5a/3x3
I0403 19:00:39.549103 24178 net.cpp:141] Setting up inception_5a/3x3
I0403 19:00:39.549134 24178 net.cpp:148] Top shape: 24 320 7 7 (376320)
I0403 19:00:39.549150 24178 net.cpp:156] Memory required for data: 1297544736
I0403 19:00:39.549167 24178 layer_factory.hpp:77] Creating layer inception_5a/relu_3x3
I0403 19:00:39.549185 24178 net.cpp:91] Creating Layer inception_5a/relu_3x3
I0403 19:00:39.549201 24178 net.cpp:425] inception_5a/relu_3x3 <- inception_5a/3x3
I0403 19:00:39.549217 24178 net.cpp:386] inception_5a/relu_3x3 -> inception_5a/3x3 (in-place)
I0403 19:00:39.549512 24178 net.cpp:141] Setting up inception_5a/relu_3x3
I0403 19:00:39.549540 24178 net.cpp:148] Top shape: 24 320 7 7 (376320)
I0403 19:00:39.549556 24178 net.cpp:156] Memory required for data: 1299050016
I0403 19:00:39.549571 24178 layer_factory.hpp:77] Creating layer inception_5a/5x5_reduce
I0403 19:00:39.549592 24178 net.cpp:91] Creating Layer inception_5a/5x5_reduce
I0403 19:00:39.549608 24178 net.cpp:425] inception_5a/5x5_reduce <- pool4/3x3_s2_pool4/3x3_s2_0_split_2
I0403 19:00:39.549628 24178 net.cpp:399] inception_5a/5x5_reduce -> inception_5a/5x5_reduce
I0403 19:00:39.550782 24178 net.cpp:141] Setting up inception_5a/5x5_reduce
I0403 19:00:39.550812 24178 net.cpp:148] Top shape: 24 32 7 7 (37632)
I0403 19:00:39.550827 24178 net.cpp:156] Memory required for data: 1299200544
I0403 19:00:39.550845 24178 layer_factory.hpp:77] Creating layer inception_5a/relu_5x5_reduce
I0403 19:00:39.550863 24178 net.cpp:91] Creating Layer inception_5a/relu_5x5_reduce
I0403 19:00:39.550879 24178 net.cpp:425] inception_5a/relu_5x5_reduce <- inception_5a/5x5_reduce
I0403 19:00:39.550897 24178 net.cpp:386] inception_5a/relu_5x5_reduce -> inception_5a/5x5_reduce (in-place)
I0403 19:00:39.551189 24178 net.cpp:141] Setting up inception_5a/relu_5x5_reduce
I0403 19:00:39.551215 24178 net.cpp:148] Top shape: 24 32 7 7 (37632)
I0403 19:00:39.551230 24178 net.cpp:156] Memory required for data: 1299351072
I0403 19:00:39.551245 24178 layer_factory.hpp:77] Creating layer inception_5a/5x5
I0403 19:00:39.551266 24178 net.cpp:91] Creating Layer inception_5a/5x5
I0403 19:00:39.551285 24178 net.cpp:425] inception_5a/5x5 <- inception_5a/5x5_reduce
I0403 19:00:39.551304 24178 net.cpp:399] inception_5a/5x5 -> inception_5a/5x5
I0403 19:00:39.553001 24178 net.cpp:141] Setting up inception_5a/5x5
I0403 19:00:39.553043 24178 net.cpp:148] Top shape: 24 128 7 7 (150528)
I0403 19:00:39.553059 24178 net.cpp:156] Memory required for data: 1299953184
I0403 19:00:39.553078 24178 layer_factory.hpp:77] Creating layer inception_5a/relu_5x5
I0403 19:00:39.553097 24178 net.cpp:91] Creating Layer inception_5a/relu_5x5
I0403 19:00:39.553112 24178 net.cpp:425] inception_5a/relu_5x5 <- inception_5a/5x5
I0403 19:00:39.553128 24178 net.cpp:386] inception_5a/relu_5x5 -> inception_5a/5x5 (in-place)
I0403 19:00:39.553323 24178 net.cpp:141] Setting up inception_5a/relu_5x5
I0403 19:00:39.553349 24178 net.cpp:148] Top shape: 24 128 7 7 (150528)
I0403 19:00:39.553364 24178 net.cpp:156] Memory required for data: 1300555296
I0403 19:00:39.553378 24178 layer_factory.hpp:77] Creating layer inception_5a/pool
I0403 19:00:39.553395 24178 net.cpp:91] Creating Layer inception_5a/pool
I0403 19:00:39.553411 24178 net.cpp:425] inception_5a/pool <- pool4/3x3_s2_pool4/3x3_s2_0_split_3
I0403 19:00:39.553431 24178 net.cpp:399] inception_5a/pool -> inception_5a/pool
I0403 19:00:39.553500 24178 net.cpp:141] Setting up inception_5a/pool
I0403 19:00:39.553529 24178 net.cpp:148] Top shape: 24 832 7 7 (978432)
I0403 19:00:39.553545 24178 net.cpp:156] Memory required for data: 1304469024
I0403 19:00:39.553560 24178 layer_factory.hpp:77] Creating layer inception_5a/pool_proj
I0403 19:00:39.553582 24178 net.cpp:91] Creating Layer inception_5a/pool_proj
I0403 19:00:39.553599 24178 net.cpp:425] inception_5a/pool_proj <- inception_5a/pool
I0403 19:00:39.553617 24178 net.cpp:399] inception_5a/pool_proj -> inception_5a/pool_proj
I0403 19:00:39.555883 24178 net.cpp:141] Setting up inception_5a/pool_proj
I0403 19:00:39.555912 24178 net.cpp:148] Top shape: 24 128 7 7 (150528)
I0403 19:00:39.555927 24178 net.cpp:156] Memory required for data: 1305071136
I0403 19:00:39.555945 24178 layer_factory.hpp:77] Creating layer inception_5a/relu_pool_proj
I0403 19:00:39.555966 24178 net.cpp:91] Creating Layer inception_5a/relu_pool_proj
I0403 19:00:39.555984 24178 net.cpp:425] inception_5a/relu_pool_proj <- inception_5a/pool_proj
I0403 19:00:39.556000 24178 net.cpp:386] inception_5a/relu_pool_proj -> inception_5a/pool_proj (in-place)
I0403 19:00:39.556293 24178 net.cpp:141] Setting up inception_5a/relu_pool_proj
I0403 19:00:39.556319 24178 net.cpp:148] Top shape: 24 128 7 7 (150528)
I0403 19:00:39.556334 24178 net.cpp:156] Memory required for data: 1305673248
I0403 19:00:39.556349 24178 layer_factory.hpp:77] Creating layer inception_5a/output
I0403 19:00:39.556366 24178 net.cpp:91] Creating Layer inception_5a/output
I0403 19:00:39.556382 24178 net.cpp:425] inception_5a/output <- inception_5a/1x1
I0403 19:00:39.556399 24178 net.cpp:425] inception_5a/output <- inception_5a/3x3
I0403 19:00:39.556414 24178 net.cpp:425] inception_5a/output <- inception_5a/5x5
I0403 19:00:39.556432 24178 net.cpp:425] inception_5a/output <- inception_5a/pool_proj
I0403 19:00:39.556447 24178 net.cpp:399] inception_5a/output -> inception_5a/output
I0403 19:00:39.556499 24178 net.cpp:141] Setting up inception_5a/output
I0403 19:00:39.556525 24178 net.cpp:148] Top shape: 24 832 7 7 (978432)
I0403 19:00:39.556540 24178 net.cpp:156] Memory required for data: 1309586976
I0403 19:00:39.556555 24178 layer_factory.hpp:77] Creating layer inception_5a/output_inception_5a/output_0_split
I0403 19:00:39.556571 24178 net.cpp:91] Creating Layer inception_5a/output_inception_5a/output_0_split
I0403 19:00:39.556586 24178 net.cpp:425] inception_5a/output_inception_5a/output_0_split <- inception_5a/output
I0403 19:00:39.556605 24178 net.cpp:399] inception_5a/output_inception_5a/output_0_split -> inception_5a/output_inception_5a/output_0_split_0
I0403 19:00:39.556627 24178 net.cpp:399] inception_5a/output_inception_5a/output_0_split -> inception_5a/output_inception_5a/output_0_split_1
I0403 19:00:39.556646 24178 net.cpp:399] inception_5a/output_inception_5a/output_0_split -> inception_5a/output_inception_5a/output_0_split_2
I0403 19:00:39.556666 24178 net.cpp:399] inception_5a/output_inception_5a/output_0_split -> inception_5a/output_inception_5a/output_0_split_3
I0403 19:00:39.556783 24178 net.cpp:141] Setting up inception_5a/output_inception_5a/output_0_split
I0403 19:00:39.556808 24178 net.cpp:148] Top shape: 24 832 7 7 (978432)
I0403 19:00:39.556824 24178 net.cpp:148] Top shape: 24 832 7 7 (978432)
I0403 19:00:39.556839 24178 net.cpp:148] Top shape: 24 832 7 7 (978432)
I0403 19:00:39.556854 24178 net.cpp:148] Top shape: 24 832 7 7 (978432)
I0403 19:00:39.556867 24178 net.cpp:156] Memory required for data: 1325241888
I0403 19:00:39.556880 24178 layer_factory.hpp:77] Creating layer inception_5b/1x1
I0403 19:00:39.556902 24178 net.cpp:91] Creating Layer inception_5b/1x1
I0403 19:00:39.556920 24178 net.cpp:425] inception_5b/1x1 <- inception_5a/output_inception_5a/output_0_split_0
I0403 19:00:39.556941 24178 net.cpp:399] inception_5b/1x1 -> inception_5b/1x1
I0403 19:00:39.560626 24178 net.cpp:141] Setting up inception_5b/1x1
I0403 19:00:39.560655 24178 net.cpp:148] Top shape: 24 384 7 7 (451584)
I0403 19:00:39.560672 24178 net.cpp:156] Memory required for data: 1327048224
I0403 19:00:39.560689 24178 layer_factory.hpp:77] Creating layer inception_5b/relu_1x1
I0403 19:00:39.560709 24178 net.cpp:91] Creating Layer inception_5b/relu_1x1
I0403 19:00:39.560726 24178 net.cpp:425] inception_5b/relu_1x1 <- inception_5b/1x1
I0403 19:00:39.560742 24178 net.cpp:386] inception_5b/relu_1x1 -> inception_5b/1x1 (in-place)
I0403 19:00:39.561041 24178 net.cpp:141] Setting up inception_5b/relu_1x1
I0403 19:00:39.561066 24178 net.cpp:148] Top shape: 24 384 7 7 (451584)
I0403 19:00:39.561080 24178 net.cpp:156] Memory required for data: 1328854560
I0403 19:00:39.561094 24178 layer_factory.hpp:77] Creating layer inception_5b/3x3_reduce
I0403 19:00:39.561117 24178 net.cpp:91] Creating Layer inception_5b/3x3_reduce
I0403 19:00:39.561134 24178 net.cpp:425] inception_5b/3x3_reduce <- inception_5a/output_inception_5a/output_0_split_1
I0403 19:00:39.561156 24178 net.cpp:399] inception_5b/3x3_reduce -> inception_5b/3x3_reduce
I0403 19:00:39.563781 24178 net.cpp:141] Setting up inception_5b/3x3_reduce
I0403 19:00:39.563808 24178 net.cpp:148] Top shape: 24 192 7 7 (225792)
I0403 19:00:39.563823 24178 net.cpp:156] Memory required for data: 1329757728
I0403 19:00:39.563841 24178 layer_factory.hpp:77] Creating layer inception_5b/relu_3x3_reduce
I0403 19:00:39.563864 24178 net.cpp:91] Creating Layer inception_5b/relu_3x3_reduce
I0403 19:00:39.563881 24178 net.cpp:425] inception_5b/relu_3x3_reduce <- inception_5b/3x3_reduce
I0403 19:00:39.563897 24178 net.cpp:386] inception_5b/relu_3x3_reduce -> inception_5b/3x3_reduce (in-place)
I0403 19:00:39.564085 24178 net.cpp:141] Setting up inception_5b/relu_3x3_reduce
I0403 19:00:39.564110 24178 net.cpp:148] Top shape: 24 192 7 7 (225792)
I0403 19:00:39.564124 24178 net.cpp:156] Memory required for data: 1330660896
I0403 19:00:39.564139 24178 layer_factory.hpp:77] Creating layer inception_5b/3x3
I0403 19:00:39.564160 24178 net.cpp:91] Creating Layer inception_5b/3x3
I0403 19:00:39.564179 24178 net.cpp:425] inception_5b/3x3 <- inception_5b/3x3_reduce
I0403 19:00:39.564200 24178 net.cpp:399] inception_5b/3x3 -> inception_5b/3x3
I0403 19:00:39.570823 24178 net.cpp:141] Setting up inception_5b/3x3
I0403 19:00:39.570852 24178 net.cpp:148] Top shape: 24 384 7 7 (451584)
I0403 19:00:39.570866 24178 net.cpp:156] Memory required for data: 1332467232
I0403 19:00:39.570884 24178 layer_factory.hpp:77] Creating layer inception_5b/relu_3x3
I0403 19:00:39.570904 24178 net.cpp:91] Creating Layer inception_5b/relu_3x3
I0403 19:00:39.570920 24178 net.cpp:425] inception_5b/relu_3x3 <- inception_5b/3x3
I0403 19:00:39.570938 24178 net.cpp:386] inception_5b/relu_3x3 -> inception_5b/3x3 (in-place)
I0403 19:00:39.571236 24178 net.cpp:141] Setting up inception_5b/relu_3x3
I0403 19:00:39.571261 24178 net.cpp:148] Top shape: 24 384 7 7 (451584)
I0403 19:00:39.571277 24178 net.cpp:156] Memory required for data: 1334273568
I0403 19:00:39.571291 24178 layer_factory.hpp:77] Creating layer inception_5b/5x5_reduce
I0403 19:00:39.571331 24178 net.cpp:91] Creating Layer inception_5b/5x5_reduce
I0403 19:00:39.571351 24178 net.cpp:425] inception_5b/5x5_reduce <- inception_5a/output_inception_5a/output_0_split_2
I0403 19:00:39.571370 24178 net.cpp:399] inception_5b/5x5_reduce -> inception_5b/5x5_reduce
I0403 19:00:39.572640 24178 net.cpp:141] Setting up inception_5b/5x5_reduce
I0403 19:00:39.572669 24178 net.cpp:148] Top shape: 24 48 7 7 (56448)
I0403 19:00:39.572686 24178 net.cpp:156] Memory required for data: 1334499360
I0403 19:00:39.572705 24178 layer_factory.hpp:77] Creating layer inception_5b/relu_5x5_reduce
I0403 19:00:39.572722 24178 net.cpp:91] Creating Layer inception_5b/relu_5x5_reduce
I0403 19:00:39.572738 24178 net.cpp:425] inception_5b/relu_5x5_reduce <- inception_5b/5x5_reduce
I0403 19:00:39.572756 24178 net.cpp:386] inception_5b/relu_5x5_reduce -> inception_5b/5x5_reduce (in-place)
I0403 19:00:39.573132 24178 net.cpp:141] Setting up inception_5b/relu_5x5_reduce
I0403 19:00:39.573158 24178 net.cpp:148] Top shape: 24 48 7 7 (56448)
I0403 19:00:39.573171 24178 net.cpp:156] Memory required for data: 1334725152
I0403 19:00:39.573185 24178 layer_factory.hpp:77] Creating layer inception_5b/5x5
I0403 19:00:39.573204 24178 net.cpp:91] Creating Layer inception_5b/5x5
I0403 19:00:39.573221 24178 net.cpp:425] inception_5b/5x5 <- inception_5b/5x5_reduce
I0403 19:00:39.573240 24178 net.cpp:399] inception_5b/5x5 -> inception_5b/5x5
I0403 19:00:39.575253 24178 net.cpp:141] Setting up inception_5b/5x5
I0403 19:00:39.575281 24178 net.cpp:148] Top shape: 24 128 7 7 (150528)
I0403 19:00:39.575297 24178 net.cpp:156] Memory required for data: 1335327264
I0403 19:00:39.575314 24178 layer_factory.hpp:77] Creating layer inception_5b/relu_5x5
I0403 19:00:39.575331 24178 net.cpp:91] Creating Layer inception_5b/relu_5x5
I0403 19:00:39.575346 24178 net.cpp:425] inception_5b/relu_5x5 <- inception_5b/5x5
I0403 19:00:39.575366 24178 net.cpp:386] inception_5b/relu_5x5 -> inception_5b/5x5 (in-place)
I0403 19:00:39.575570 24178 net.cpp:141] Setting up inception_5b/relu_5x5
I0403 19:00:39.575595 24178 net.cpp:148] Top shape: 24 128 7 7 (150528)
I0403 19:00:39.575610 24178 net.cpp:156] Memory required for data: 1335929376
I0403 19:00:39.575625 24178 layer_factory.hpp:77] Creating layer inception_5b/pool
I0403 19:00:39.575642 24178 net.cpp:91] Creating Layer inception_5b/pool
I0403 19:00:39.575659 24178 net.cpp:425] inception_5b/pool <- inception_5a/output_inception_5a/output_0_split_3
I0403 19:00:39.575678 24178 net.cpp:399] inception_5b/pool -> inception_5b/pool
I0403 19:00:39.575750 24178 net.cpp:141] Setting up inception_5b/pool
I0403 19:00:39.575773 24178 net.cpp:148] Top shape: 24 832 7 7 (978432)
I0403 19:00:39.575788 24178 net.cpp:156] Memory required for data: 1339843104
I0403 19:00:39.575803 24178 layer_factory.hpp:77] Creating layer inception_5b/pool_proj
I0403 19:00:39.575825 24178 net.cpp:91] Creating Layer inception_5b/pool_proj
I0403 19:00:39.575842 24178 net.cpp:425] inception_5b/pool_proj <- inception_5b/pool
I0403 19:00:39.575861 24178 net.cpp:399] inception_5b/pool_proj -> inception_5b/pool_proj
I0403 19:00:39.578135 24178 net.cpp:141] Setting up inception_5b/pool_proj
I0403 19:00:39.578166 24178 net.cpp:148] Top shape: 24 128 7 7 (150528)
I0403 19:00:39.578182 24178 net.cpp:156] Memory required for data: 1340445216
I0403 19:00:39.578199 24178 layer_factory.hpp:77] Creating layer inception_5b/relu_pool_proj
I0403 19:00:39.578217 24178 net.cpp:91] Creating Layer inception_5b/relu_pool_proj
I0403 19:00:39.578234 24178 net.cpp:425] inception_5b/relu_pool_proj <- inception_5b/pool_proj
I0403 19:00:39.578250 24178 net.cpp:386] inception_5b/relu_pool_proj -> inception_5b/pool_proj (in-place)
I0403 19:00:39.578552 24178 net.cpp:141] Setting up inception_5b/relu_pool_proj
I0403 19:00:39.578579 24178 net.cpp:148] Top shape: 24 128 7 7 (150528)
I0403 19:00:39.578596 24178 net.cpp:156] Memory required for data: 1341047328
I0403 19:00:39.578610 24178 layer_factory.hpp:77] Creating layer inception_5b/output
I0403 19:00:39.578629 24178 net.cpp:91] Creating Layer inception_5b/output
I0403 19:00:39.578658 24178 net.cpp:425] inception_5b/output <- inception_5b/1x1
I0403 19:00:39.578675 24178 net.cpp:425] inception_5b/output <- inception_5b/3x3
I0403 19:00:39.578693 24178 net.cpp:425] inception_5b/output <- inception_5b/5x5
I0403 19:00:39.578708 24178 net.cpp:425] inception_5b/output <- inception_5b/pool_proj
I0403 19:00:39.578724 24178 net.cpp:399] inception_5b/output -> inception_5b/output
I0403 19:00:39.578778 24178 net.cpp:141] Setting up inception_5b/output
I0403 19:00:39.578801 24178 net.cpp:148] Top shape: 24 1024 7 7 (1204224)
I0403 19:00:39.578815 24178 net.cpp:156] Memory required for data: 1345864224
I0403 19:00:39.578830 24178 layer_factory.hpp:77] Creating layer pool5/7x7_s1
I0403 19:00:39.578848 24178 net.cpp:91] Creating Layer pool5/7x7_s1
I0403 19:00:39.578866 24178 net.cpp:425] pool5/7x7_s1 <- inception_5b/output
I0403 19:00:39.578883 24178 net.cpp:399] pool5/7x7_s1 -> pool5/7x7_s1
I0403 19:00:39.579099 24178 net.cpp:141] Setting up pool5/7x7_s1
I0403 19:00:39.579126 24178 net.cpp:148] Top shape: 24 1024 1 1 (24576)
I0403 19:00:39.579140 24178 net.cpp:156] Memory required for data: 1345962528
I0403 19:00:39.579155 24178 layer_factory.hpp:77] Creating layer pool5/drop_7x7_s1
I0403 19:00:39.579171 24178 net.cpp:91] Creating Layer pool5/drop_7x7_s1
I0403 19:00:39.579187 24178 net.cpp:425] pool5/drop_7x7_s1 <- pool5/7x7_s1
I0403 19:00:39.579203 24178 net.cpp:386] pool5/drop_7x7_s1 -> pool5/7x7_s1 (in-place)
I0403 19:00:39.579253 24178 net.cpp:141] Setting up pool5/drop_7x7_s1
I0403 19:00:39.579277 24178 net.cpp:148] Top shape: 24 1024 1 1 (24576)
I0403 19:00:39.579289 24178 net.cpp:156] Memory required for data: 1346060832
I0403 19:00:39.579304 24178 layer_factory.hpp:77] Creating layer loss3/classifier_plantvillage
I0403 19:00:39.579326 24178 net.cpp:91] Creating Layer loss3/classifier_plantvillage
I0403 19:00:39.579342 24178 net.cpp:425] loss3/classifier_plantvillage <- pool5/7x7_s1
I0403 19:00:39.579360 24178 net.cpp:399] loss3/classifier_plantvillage -> loss3/classifier_plantvillage
I0403 19:00:39.579804 24178 net.cpp:141] Setting up loss3/classifier_plantvillage
I0403 19:00:39.579829 24178 net.cpp:148] Top shape: 24 38 (912)
I0403 19:00:39.579843 24178 net.cpp:156] Memory required for data: 1346064480
I0403 19:00:39.579861 24178 layer_factory.hpp:77] Creating layer loss3/classifier_plantvillage_loss3/classifier_plantvillage_0_split
I0403 19:00:39.579879 24178 net.cpp:91] Creating Layer loss3/classifier_plantvillage_loss3/classifier_plantvillage_0_split
I0403 19:00:39.579895 24178 net.cpp:425] loss3/classifier_plantvillage_loss3/classifier_plantvillage_0_split <- loss3/classifier_plantvillage
I0403 19:00:39.579916 24178 net.cpp:399] loss3/classifier_plantvillage_loss3/classifier_plantvillage_0_split -> loss3/classifier_plantvillage_loss3/classifier_plantvillage_0_split_0
I0403 19:00:39.579936 24178 net.cpp:399] loss3/classifier_plantvillage_loss3/classifier_plantvillage_0_split -> loss3/classifier_plantvillage_loss3/classifier_plantvillage_0_split_1
I0403 19:00:39.579957 24178 net.cpp:399] loss3/classifier_plantvillage_loss3/classifier_plantvillage_0_split -> loss3/classifier_plantvillage_loss3/classifier_plantvillage_0_split_2
I0403 19:00:39.579977 24178 net.cpp:399] loss3/classifier_plantvillage_loss3/classifier_plantvillage_0_split -> loss3/classifier_plantvillage_loss3/classifier_plantvillage_0_split_3
I0403 19:00:39.580082 24178 net.cpp:141] Setting up loss3/classifier_plantvillage_loss3/classifier_plantvillage_0_split
I0403 19:00:39.580106 24178 net.cpp:148] Top shape: 24 38 (912)
I0403 19:00:39.580121 24178 net.cpp:148] Top shape: 24 38 (912)
I0403 19:00:39.580137 24178 net.cpp:148] Top shape: 24 38 (912)
I0403 19:00:39.580152 24178 net.cpp:148] Top shape: 24 38 (912)
I0403 19:00:39.580165 24178 net.cpp:156] Memory required for data: 1346079072
I0403 19:00:39.580179 24178 layer_factory.hpp:77] Creating layer loss1/loss
I0403 19:00:39.580200 24178 net.cpp:91] Creating Layer loss1/loss
I0403 19:00:39.580219 24178 net.cpp:425] loss1/loss <- loss1/classifier_plantvillage_loss1/classifier_plantvillage_0_split_0
I0403 19:00:39.580250 24178 net.cpp:425] loss1/loss <- label_data_1_split_0
…
