…
I0403 18:54:29.423324 23824 net.cpp:313] The NetState phase (1) differed from the phase (0) specified by a rule in layer data
I0403 18:54:29.425263 23824 net.cpp:49] Initializing net from parameters: 
state {
  phase: TEST
}
layer {
  name: "data"
  type: "Data"
  top: "data"
  top: "label"
  include {
    phase: TEST
  }
  transform_param {
    mirror: false
    crop_size: 224
    mean_file: "/home/mohanty/data/final_dataset/lmdb/segmented-40-60/mean.binaryproto"
  }
  data_param {
    source: "/home/mohanty/data/final_dataset/lmdb/segmented-40-60/test_db"
    batch_size: 24
    backend: LMDB
  }
}
layer {
  name: "conv1/7x7_s2"
  type: "Convolution"
  bottom: "data"
  top: "conv1/7x7_s2"
  param {
    lr_mult: 1
    decay_mult: 1
  }
  param {
    lr_mult: 2
    decay_mult: 0
  }
  convolution_param {
    num_output: 64
    pad: 3
    kernel_size: 7
    stride: 2
    weight_filler {
      type: "xavier"
      std: 0.1
    }
    bias_filler {
      type: "constant"
      value: 0.2
    }
  }
}
layer {
  name: "conv1/relu_7x7"
  type: "ReLU"
  bottom: "conv1/7x7_s2"
  top: "conv1/7x7_s2"
}
layer {
  name: "pool1/3x3_s2"
  type: "Pooling"
  bottom: "conv1/7x7_s2"
  top: "pool1/3x3_s2"
  pooling_param {
    pool: MAX
    kernel_size: 3
    stride: 2
  }
}
layer {
  name: "pool1/norm1"
  type: "LRN"
  bottom: "pool1/3x3_s2"
  top: "pool1/norm1"
  lrn_param {
    local_size: 5
    alpha: 0.0001
    beta: 0.75
  }
}
layer {
  name: "conv2/3x3_reduce"
  type: "Convolution"
  bottom: "pool1/norm1"
  top: "conv2/3x3_reduce"
  param {
    lr_mult: 1
    decay_mult: 1
  }
  param {
    lr_mult: 2
    decay_mult: 0
  }
  convolution_param {
    num_output: 64
    kernel_size: 1
    weight_filler {
      type: "xavier"
      std: 0.1
    }
    bias_filler {
      type: "constant"
      value: 0.2
    }
  }
}
layer {
  name: "conv2/relu_3x3_reduce"
  type: "ReLU"
  bottom: "conv2/3x3_reduce"
  top: "conv2/3x3_reduce"
}
layer {
  name: "conv2/3x3"
  type: "Convolution"
  bottom: "conv2/3x3_reduce"
  top: "conv2/3x3"
  param {
    lr_mult: 1
    decay_mult: 1
  }
  param {
    lr_mult: 2
    decay_mult: 0
  }
  convolution_param {
    num_output: 192
    pad: 1
    kernel_size: 3
    weight_filler {
      type: "xavier"
      std: 0.03
    }
    bias_filler {
      type: "constant"
      value: 0.2
    }
  }
}
layer {
  name: "conv2/relu_3x3"
  type: "ReLU"
  bottom: "conv2/3x3"
  top: "conv2/3x3"
}
layer {
  name: "conv2/norm2"
  type: "LRN"
  bottom: "conv2/3x3"
  top: "conv2/norm2"
  lrn_param {
    local_size: 5
    alpha: 0.0001
    beta: 0.75
  }
}
layer {
  name: "pool2/3x3_s2"
  type: "Pooling"
  bottom: "conv2/norm2"
  top: "pool2/3x3_s2"
  pooling_param {
    pool: MAX
    kernel_size: 3
    stride: 2
  }
}
layer {
  name: "inception_3a/1x1"
  type: "Convolution"
  bottom: "pool2/3x3_s2"
  top: "inception_3a/1x1"
  param {
    lr_mult: 1
    decay_mult: 1
  }
  param {
    lr_mult: 2
    decay_mult: 0
  }
  convolution_param {
    num_output: 64
    kernel_size: 1
    weight_filler {
      type: "xavier"
      std: 0.03
    }
    bias_filler {
      type: "constant"
      value: 0.2
    }
  }
}
layer {
  name: "inception_3a/relu_1x1"
  type: "ReLU"
  bottom: "inception_3a/1x1"
  top: "inception_3a/1x1"
}
layer {
  name: "inception_3a/3x3_reduce"
  type: "Convolution"
  bottom: "pool2/3x3_s2"
  top: "inception_3a/3x3_reduce"
  param {
    lr_mult: 1
    decay_mult: 1
  }
  param {
    lr_mult: 2
    decay_mult: 0
  }
  convolution_param {
    num_output: 96
    kernel_size: 1
    weight_filler {
      type: "xavier"
      std: 0.09
    }
    bias_filler {
      type: "constant"
      value: 0.2
    }
  }
}
layer {
  name: "inception_3a/relu_3x3_reduce"
  type: "ReLU"
  bottom: "inception_3a/3x3_reduce"
  top: "inception_3a/3x3_reduce"
}
layer {
  name: "inception_3a/3x3"
  type: "Convolution"
  bottom: "inception_3a/3x3_reduce"
  top: "inception_3a/3x3"
  param {
    lr_mult: 1
    decay_mult: 1
  }
  param {
    lr_mult: 2
    decay_mult: 0
  }
  convolution_param {
    num_output: 128
    pad: 1
    kernel_size: 3
    weight_filler {
      type: "xavier"
      std: 0.03
    }
    bias_filler {
      type: "constant"
      value: 0.2
    }
  }
}
layer {
  name: "inception_3a/relu_3x3"
  type: "ReLU"
  bottom: "inception_3a/3x3"
  top: "inception_3a/3x3"
}
layer {
  name: "inception_3a/5x5_reduce"
  type: "Convolution"
  bottom: "pool2/3x3_s2"
  top: "inception_3a/5x5_reduce"
  param {
    lr_mult: 1
    decay_mult: 1
  }
  param {
    lr_mult: 2
    decay_mult: 0
  }
  convolution_param {
    num_output: 16
    kernel_size: 1
    weight_filler {
      type: "xavier"
      std: 0.2
    }
    bias_filler {
      type: "constant"
      value: 0.2
    }
  }
}
layer {
  name: "inception_3a/relu_5x5_reduce"
  type: "ReLU"
  bottom: "inception_3a/5x5_reduce"
  top: "inception_3a/5x5_reduce"
}
layer {
  name: "inception_3a/5x5"
  type: "Convolution"
  bottom: "inception_3a/5x5_reduce"
  top: "inception_3a/5x5"
  param {
    lr_mult: 1
    decay_mult: 1
  }
  param {
    lr_mult: 2
    decay_mult: 0
  }
  convolution_param {
    num_output: 32
    pad: 2
    kernel_size: 5
    weight_filler {
      type: "xavier"
      std: 0.03
    }
    bias_filler {
      type: "constant"
      value: 0.2
    }
  }
}
layer {
  name: "inception_3a/relu_5x5"
  type: "ReLU"
  bottom: "inception_3a/5x5"
  top: "inception_3a/5x5"
}
layer {
  name: "inception_3a/pool"
  type: "Pooling"
  bottom: "pool2/3x3_s2"
  top: "inception_3a/pool"
  pooling_param {
    pool: MAX
    kernel_size: 3
    stride: 1
    pad: 1
  }
}
layer {
  name: "inception_3a/pool_proj"
  type: "Convolution"
  bottom: "inception_3a/pool"
  top: "inception_3a/pool_proj"
  param {
    lr_mult: 1
    decay_mult: 1
  }
  param {
    lr_mult: 2
    decay_mult: 0
  }
  convolution_param {
    num_output: 32
    kernel_size: 1
    weight_filler {
      type: "xavier"
      std: 0.1
    }
    bias_filler {
      type: "constant"
      value: 0.2
    }
  }
}
layer {
  name: "inception_3a/relu_pool_proj"
  type: "ReLU"
  bottom: "inception_3a/pool_proj"
  top: "inception_3a/pool_proj"
}
layer {
  name: "inception_3a/output"
  type: "Concat"
  bottom: "inception_3a/1x1"
  bottom: "inception_3a/3x3"
  bottom: "inception_3a/5x5"
  bottom: "inception_3a/pool_proj"
  top: "inception_3a/output"
}
layer {
  name: "inception_3b/1x1"
  type: "Convolution"
  bottom: "inception_3a/output"
  top: "inception_3b/1x1"
  param {
    lr_mult: 1
    decay_mult: 1
  }
  param {
    lr_mult: 2
    decay_mult: 0
  }
  convolution_param {
    num_output: 128
    kernel_size: 1
    weight_filler {
      type: "xavier"
      std: 0.03
    }
    bias_filler {
      type: "constant"
      value: 0.2
    }
  }
}
layer {
  name: "inception_3b/relu_1x1"
  type: "ReLU"
  bottom: "inception_3b/1x1"
  top: "inception_3b/1x1"
}
layer {
  name: "inception_3b/3x3_reduce"
  type: "Convolution"
  bottom: "inception_3a/output"
  top: "inception_3b/3x3_reduce"
  param {
    lr_mult: 1
    decay_mult: 1
  }
  param {
    lr_mult: 2
    decay_mult: 0
  }
  convolution_param {
    num_output: 128
    kernel_size: 1
    weight_filler {
      type: "xavier"
      std: 0.09
    }
    bias_filler {
      type: "constant"
      value: 0.2
    }
  }
}
layer {
  name: "inception_3b/relu_3x3_reduce"
  type: "ReLU"
  bottom: "inception_3b/3x3_reduce"
  top: "inception_3b/3x3_reduce"
}
layer {
  name: "inception_3b/3x3"
  type: "Convolution"
  bottom: "inception_3b/3x3_reduce"
  top: "inception_3b/3x3"
  param {
    lr_mult: 1
    decay_mult: 1
  }
  param {
    lr_mult: 2
    decay_mult: 0
  }
  convolution_param {
    num_output: 192
    pad: 1
    kernel_size: 3
    weight_filler {
      type: "xavier"
      std: 0.03
    }
    bias_filler {
      type: "constant"
      value: 0.2
    }
  }
}
layer {
  name: "inception_3b/relu_3x3"
  type: "ReLU"
  bottom: "inception_3b/3x3"
  top: "inception_3b/3x3"
}
layer {
  name: "inception_3b/5x5_reduce"
  type: "Convolution"
  bottom: "inception_3a/output"
  top: "inception_3b/5x5_reduce"
  param {
    lr_mult: 1
    decay_mult: 1
  }
  param {
    lr_mult: 2
    decay_mult: 0
  }
  convolution_param {
    num_output: 32
    kernel_size: 1
    weight_filler {
      type: "xavier"
      std: 0.2
    }
    bias_filler {
      type: "constant"
      value: 0.2
    }
  }
}
layer {
  name: "inception_3b/relu_5x5_reduce"
  type: "ReLU"
  bottom: "inception_3b/5x5_reduce"
  top: "inception_3b/5x5_reduce"
}
layer {
  name: "inception_3b/5x5"
  type: "Convolution"
  bottom: "inception_3b/5x5_reduce"
  top: "inception_3b/5x5"
  param {
    lr_mult: 1
    decay_mult: 1
  }
  param {
    lr_mult: 2
    decay_mult: 0
  }
  convolution_param {
    num_output: 96
    pad: 2
    kernel_size: 5
    weight_filler {
      type: "xavier"
      std: 0.03
    }
    bias_filler {
      type: "constant"
      value: 0.2
    }
  }
}
layer {
  name: "inception_3b/relu_5x5"
  type: "ReLU"
  bottom: "inception_3b/5x5"
  top: "inception_3b/5x5"
}
layer {
  name: "inception_3b/pool"
  type: "Pooling"
  bottom: "inception_3a/output"
  top: "inception_3b/pool"
  pooling_param {
    pool: MAX
    kernel_size: 3
    stride: 1
    pad: 1
  }
}
layer {
  name: "inception_3b/pool_proj"
  type: "Convolution"
  bottom: "inception_3b/pool"
  top: "inception_3b/pool_proj"
  param {
    lr_mult: 1
    decay_mult: 1
  }
  param {
    lr_mult: 2
    decay_mult: 0
  }
  convolution_param {
    num_output: 64
    kernel_size: 1
    weight_filler {
      type: "xavier"
      std: 0.1
    }
    bias_filler {
      type: "constant"
      value: 0.2
    }
  }
}
layer {
  name: "inception_3b/relu_pool_proj"
  type: "ReLU"
  bottom: "inception_3b/pool_proj"
  top: "inception_3b/pool_proj"
}
layer {
  name: "inception_3b/output"
  type: "Concat"
  bottom: "inception_3b/1x1"
  bottom: "inception_3b/3x3"
  bottom: "inception_3b/5x5"
  bottom: "inception_3b/pool_proj"
  top: "inception_3b/output"
}
layer {
  name: "pool3/3x3_s2"
  type: "Pooling"
  bottom: "inception_3b/output"
  top: "pool3/3x3_s2"
  pooling_param {
    pool: MAX
    kernel_size: 3
    stride: 2
  }
}
layer {
  name: "inception_4a/1x1"
  type: "Convolution"
  bottom: "pool3/3x3_s2"
  top: "inception_4a/1x1"
  param {
    lr_mult: 1
    decay_mult: 1
  }
  param {
    lr_mult: 2
    decay_mult: 0
  }
  convolution_param {
    num_output: 192
    kernel_size: 1
    weight_filler {
      type: "xavier"
      std: 0.03
    }
    bias_filler {
      type: "constant"
      value: 0.2
    }
  }
}
layer {
  name: "inception_4a/relu_1x1"
  type: "ReLU"
  bottom: "inception_4a/1x1"
  top: "inception_4a/1x1"
}
layer {
  name: "inception_4a/3x3_reduce"
  type: "Convolution"
  bottom: "pool3/3x3_s2"
  top: "inception_4a/3x3_reduce"
  param {
    lr_mult: 1
    decay_mult: 1
  }
  param {
    lr_mult: 2
    decay_mult: 0
  }
  convolution_param {
    num_output: 96
    kernel_size: 1
    weight_filler {
      type: "xavier"
      std: 0.09
    }
    bias_filler {
      type: "constant"
      value: 0.2
    }
  }
}
layer {
  name: "inception_4a/relu_3x3_reduce"
  type: "ReLU"
  bottom: "inception_4a/3x3_reduce"
  top: "inception_4a/3x3_reduce"
}
layer {
  name: "inception_4a/3x3"
  type: "Convolution"
  bottom: "inception_4a/3x3_reduce"
  top: "inception_4a/3x3"
  param {
    lr_mult: 1
    decay_mult: 1
  }
  param {
    lr_mult: 2
    decay_mult: 0
  }
  convolution_param {
    num_output: 208
    pad: 1
    kernel_size: 3
    weight_filler {
      type: "xavier"
      std: 0.03
    }
    bias_filler {
      type: "constant"
      value: 0.2
    }
  }
}
layer {
  name: "inception_4a/relu_3x3"
  type: "ReLU"
  bottom: "inception_4a/3x3"
  top: "inception_4a/3x3"
}
layer {
  name: "inception_4a/5x5_reduce"
  type: "Convolution"
  bottom: "pool3/3x3_s2"
  top: "inception_4a/5x5_reduce"
  param {
    lr_mult: 1
    decay_mult: 1
  }
  param {
    lr_mult: 2
    decay_mult: 0
  }
  convolution_param {
    num_output: 16
    kernel_size: 1
    weight_filler {
      type: "xavier"
      std: 0.2
    }
    bias_filler {
      type: "constant"
      value: 0.2
    }
  }
}
layer {
  name: "inception_4a/relu_5x5_reduce"
  type: "ReLU"
  bottom: "inception_4a/5x5_reduce"
  top: "inception_4a/5x5_reduce"
}
layer {
  name: "inception_4a/5x5"
  type: "Convolution"
  bottom: "inception_4a/5x5_reduce"
  top: "inception_4a/5x5"
  param {
    lr_mult: 1
    decay_mult: 1
  }
  param {
    lr_mult: 2
    decay_mult: 0
  }
  convolution_param {
    num_output: 48
    pad: 2
    kernel_size: 5
    weight_filler {
      type: "xavier"
      std: 0.03
    }
    bias_filler {
      type: "constant"
      value: 0.2
    }
  }
}
layer {
  name: "inception_4a/relu_5x5"
  type: "ReLU"
  bottom: "inception_4a/5x5"
  top: "inception_4a/5x5"
}
layer {
  name: "inception_4a/pool"
  type: "Pooling"
  bottom: "pool3/3x3_s2"
  top: "inception_4a/pool"
  pooling_param {
    pool: MAX
    kernel_size: 3
    stride: 1
    pad: 1
  }
}
layer {
  name: "inception_4a/pool_proj"
  type: "Convolution"
  bottom: "inception_4a/pool"
  top: "inception_4a/pool_proj"
  param {
    lr_mult: 1
    decay_mult: 1
  }
  param {
    lr_mult: 2
    decay_mult: 0
  }
  convolution_param {
    num_output: 64
    kernel_size: 1
    weight_filler {
      type: "xavier"
      std: 0.1
    }
    bias_filler {
      type: "constant"
      value: 0.2
    }
  }
}
layer {
  name: "inception_4a/relu_pool_proj"
  type: "ReLU"
  bottom: "inception_4a/pool_proj"
  top: "inception_4a/pool_proj"
}
layer {
  name: "inception_4a/output"
  type: "Concat"
  bottom: "inception_4a/1x1"
  bottom: "inception_4a/3x3"
  bottom: "inception_4a/5x5"
  bottom: "inception_4a/pool_proj"
  top: "inception_4a/output"
}
layer {
  name: "loss1/ave_pool"
  type: "Pooling"
  bottom: "inception_4a/output"
  top: "loss1/ave_pool"
  pooling_param {
    pool: AVE
    kernel_size: 5
    stride: 3
  }
}
layer {
  name: "loss1/conv"
  type: "Convolution"
  bottom: "loss1/ave_pool"
  top: "loss1/conv"
  param {
    lr_mult: 1
    decay_mult: 1
  }
  param {
    lr_mult: 2
    decay_mult: 0
  }
  convolution_param {
    num_output: 128
    kernel_size: 1
    weight_filler {
      type: "xavier"
      std: 0.08
    }
    bias_filler {
      type: "constant"
      value: 0.2
    }
  }
}
layer {
  name: "loss1/relu_conv"
  type: "ReLU"
  bottom: "loss1/conv"
  top: "loss1/conv"
}
layer {
  name: "loss1/fc"
  type: "InnerProduct"
  bottom: "loss1/conv"
  top: "loss1/fc"
  param {
    lr_mult: 1
    decay_mult: 1
  }
  param {
    lr_mult: 2
    decay_mult: 0
  }
  inner_product_param {
    num_output: 1024
    weight_filler {
      type: "xavier"
      std: 0.02
    }
    bias_filler {
      type: "constant"
      value: 0.2
    }
  }
}
layer {
  name: "loss1/relu_fc"
  type: "ReLU"
  bottom: "loss1/fc"
  top: "loss1/fc"
}
layer {
  name: "loss1/drop_fc"
  type: "Dropout"
  bottom: "loss1/fc"
  top: "loss1/fc"
  dropout_param {
    dropout_ratio: 0.7
  }
}
layer {
  name: "loss1/classifier_plantvillage"
  type: "InnerProduct"
  bottom: "loss1/fc"
  top: "loss1/classifier_plantvillage"
  param {
    lr_mult: 1
    decay_mult: 1
  }
  param {
    lr_mult: 2
    decay_mult: 0
  }
  inner_product_param {
    num_output: 38
    weight_filler {
      type: "xavier"
      std: 0.0009765625
    }
    bias_filler {
      type: "constant"
      value: 0
    }
  }
}
layer {
  name: "inception_4b/1x1"
  type: "Convolution"
  bottom: "inception_4a/output"
  top: "inception_4b/1x1"
  param {
    lr_mult: 1
    decay_mult: 1
  }
  param {
    lr_mult: 2
    decay_mult: 0
  }
  convolution_param {
    num_output: 160
    kernel_size: 1
    weight_filler {
      type: "xavier"
      std: 0.03
    }
    bias_filler {
      type: "constant"
      value: 0.2
    }
  }
}
layer {
  name: "inception_4b/relu_1x1"
  type: "ReLU"
  bottom: "inception_4b/1x1"
  top: "inception_4b/1x1"
}
layer {
  name: "inception_4b/3x3_reduce"
  type: "Convolution"
  bottom: "inception_4a/output"
  top: "inception_4b/3x3_reduce"
  param {
    lr_mult: 1
    decay_mult: 1
  }
  param {
    lr_mult: 2
    decay_mult: 0
  }
  convolution_param {
    num_output: 112
    kernel_size: 1
    weight_filler {
      type: "xavier"
      std: 0.09
    }
    bias_filler {
      type: "constant"
      value: 0.2
    }
  }
}
layer {
  name: "inception_4b/relu_3x3_reduce"
  type: "ReLU"
  bottom: "inception_4b/3x3_reduce"
  top: "inception_4b/3x3_reduce"
}
layer {
  name: "inception_4b/3x3"
  type: "Convolution"
  bottom: "inception_4b/3x3_reduce"
  top: "inception_4b/3x3"
  param {
    lr_mult: 1
    decay_mult: 1
  }
  param {
    lr_mult: 2
    decay_mult: 0
  }
  convolution_param {
    num_output: 224
    pad: 1
    kernel_size: 3
    weight_filler {
      type: "xavier"
      std: 0.03
    }
    bias_filler {
      type: "constant"
      value: 0.2
    }
  }
}
layer {
  name: "inception_4b/relu_3x3"
  type: "ReLU"
  bottom: "inception_4b/3x3"
  top: "inception_4b/3x3"
}
layer {
  name: "inception_4b/5x5_reduce"
  type: "Convolution"
  bottom: "inception_4a/output"
  top: "inception_4b/5x5_reduce"
  param {
    lr_mult: 1
    decay_mult: 1
  }
  param {
    lr_mult: 2
    decay_mult: 0
  }
  convolution_param {
    num_output: 24
    kernel_size: 1
    weight_filler {
      type: "xavier"
      std: 0.2
    }
    bias_filler {
      type: "constant"
      value: 0.2
    }
  }
}
layer {
  name: "inception_4b/relu_5x5_reduce"
  type: "ReLU"
  bottom: "inception_4b/5x5_reduce"
  top: "inception_4b/5x5_reduce"
}
layer {
  name: "inception_4b/5x5"
  type: "Convolution"
  bottom: "inception_4b/5x5_reduce"
  top: "inception_4b/5x5"
  param {
    lr_mult: 1
    decay_mult: 1
  }
  param {
    lr_mult: 2
    decay_mult: 0
  }
  convolution_param {
    num_output: 64
    pad: 2
    kernel_size: 5
    weight_filler {
      type: "xavier"
      std: 0.03
    }
    bias_filler {
      type: "constant"
      value: 0.2
    }
  }
}
layer {
  name: "inception_4b/relu_5x5"
  type: "ReLU"
  bottom: "inception_4b/5x5"
  top: "inception_4b/5x5"
}
layer {
  name: "inception_4b/pool"
  type: "Pooling"
  bottom: "inception_4a/output"
  top: "inception_4b/pool"
  pooling_param {
    pool: MAX
    kernel_size: 3
    stride: 1
    pad: 1
  }
}
layer {
  name: "inception_4b/pool_proj"
  type: "Convolution"
  bottom: "inception_4b/pool"
  top: "inception_4b/pool_proj"
  param {
    lr_mult: 1
    decay_mult: 1
  }
  param {
    lr_mult: 2
    decay_mult: 0
  }
  convolution_param {
    num_output: 64
    kernel_size: 1
    weight_filler {
      type: "xavier"
      std: 0.1
    }
    bias_filler {
      type: "constant"
      value: 0.2
    }
  }
}
layer {
  name: "inception_4b/relu_pool_proj"
  type: "ReLU"
  bottom: "inception_4b/pool_proj"
  top: "inception_4b/pool_proj"
}
layer {
  name: "inception_4b/output"
  type: "Concat"
  bottom: "inception_4b/1x1"
  bottom: "inception_4b/3x3"
  bottom: "inception_4b/5x5"
  bottom: "inception_4b/pool_proj"
  top: "inception_4b/output"
}
layer {
  name: "inception_4c/1x1"
  type: "Convolution"
  bottom: "inception_4b/output"
  top: "inception_4c/1x1"
  param {
    lr_mult: 1
    decay_mult: 1
  }
  param {
    lr_mult: 2
    decay_mult: 0
  }
  convolution_param {
    num_output: 128
    kernel_size: 1
    weight_filler {
      type: "xavier"
      std: 0.03
    }
    bias_filler {
      type: "constant"
      value: 0.2
    }
  }
}
layer {
  name: "inception_4c/relu_1x1"
  type: "ReLU"
  bottom: "inception_4c/1x1"
  top: "inception_4c/1x1"
}
layer {
  name: "inception_4c/3x3_reduce"
  type: "Convolution"
  bottom: "inception_4b/output"
  top: "inception_4c/3x3_reduce"
  param {
    lr_mult: 1
    decay_mult: 1
  }
  param {
    lr_mult: 2
    decay_mult: 0
  }
  convolution_param {
    num_output: 128
    kernel_size: 1
    weight_filler {
      type: "xavier"
      std: 0.09
    }
    bias_filler {
      type: "constant"
      value: 0.2
    }
  }
}
layer {
  name: "inception_4c/relu_3x3_reduce"
  type: "ReLU"
  bottom: "inception_4c/3x3_reduce"
  top: "inception_4c/3x3_reduce"
}
layer {
  name: "inception_4c/3x3"
  type: "Convolution"
  bottom: "inception_4c/3x3_reduce"
  top: "inception_4c/3x3"
  param {
    lr_mult: 1
    decay_mult: 1
  }
  param {
    lr_mult: 2
    decay_mult: 0
  }
  convolution_param {
    num_output: 256
    pad: 1
    kernel_size: 3
    weight_filler {
      type: "xavier"
      std: 0.03
    }
    bias_filler {
      type: "constant"
      value: 0.2
    }
  }
}
layer {
  name: "inception_4c/relu_3x3"
  type: "ReLU"
  bottom: "inception_4c/3x3"
  top: "inception_4c/3x3"
}
layer {
  name: "inception_4c/5x5_reduce"
  type: "Convolution"
  bottom: "inception_4b/output"
  top: "inception_4c/5x5_reduce"
  param {
    lr_mult: 1
    decay_mult: 1
  }
  param {
    lr_mult: 2
    decay_mult: 0
  }
  convolution_param {
    num_output: 24
    kernel_size: 1
    weight_filler {
      type: "xavier"
      std: 0.2
    }
    bias_filler {
      type: "constant"
      value: 0.2
    }
  }
}
layer {
  name: "inception_4c/relu_5x5_reduce"
  type: "ReLU"
  bottom: "inception_4c/5x5_reduce"
  top: "inception_4c/5x5_reduce"
}
layer {
  name: "inception_4c/5x5"
  type: "Convolution"
  bottom: "inception_4c/5x5_reduce"
  top: "inception_4c/5x5"
  param {
    lr_mult: 1
    decay_mult: 1
  }
  param {
    lr_mult: 2
    decay_mult: 0
  }
  convolution_param {
    num_output: 64
    pad: 2
    kernel_size: 5
    weight_filler {
      type: "xavier"
      std: 0.03
    }
    bias_filler {
      type: "constant"
      value: 0.2
    }
  }
}
layer {
  name: "inception_4c/relu_5x5"
  type: "ReLU"
  bottom: "inception_4c/5x5"
  top: "inception_4c/5x5"
}
layer {
  name: "inception_4c/pool"
  type: "Pooling"
  bottom: "inception_4b/output"
  top: "inception_4c/pool"
  pooling_param {
    pool: MAX
    kernel_size: 3
    stride: 1
    pad: 1
  }
}
layer {
  name: "inception_4c/pool_proj"
  type: "Convolution"
  bottom: "inception_4c/pool"
  top: "inception_4c/pool_proj"
  param {
    lr_mult: 1
    decay_mult: 1
  }
  param {
    lr_mult: 2
    decay_mult: 0
  }
  convolution_param {
    num_output: 64
    kernel_size: 1
    weight_filler {
      type: "xavier"
      std: 0.1
    }
    bias_filler {
      type: "constant"
      value: 0.2
    }
  }
}
layer {
  name: "inception_4c/relu_pool_proj"
  type: "ReLU"
  bottom: "inception_4c/pool_proj"
  top: "inception_4c/pool_proj"
}
layer {
  name: "inception_4c/output"
  type: "Concat"
  bottom: "inception_4c/1x1"
  bottom: "inception_4c/3x3"
  bottom: "inception_4c/5x5"
  bottom: "inception_4c/pool_proj"
  top: "inception_4c/output"
}
layer {
  name: "inception_4d/1x1"
  type: "Convolution"
  bottom: "inception_4c/output"
  top: "inception_4d/1x1"
  param {
    lr_mult: 1
    decay_mult: 1
  }
  param {
    lr_mult: 2
    decay_mult: 0
  }
  convolution_param {
    num_output: 112
    kernel_size: 1
    weight_filler {
      type: "xavier"
      std: 0.03
    }
    bias_filler {
      type: "constant"
      value: 0.2
    }
  }
}
layer {
  name: "inception_4d/relu_1x1"
  type: "ReLU"
  bottom: "inception_4d/1x1"
  top: "inception_4d/1x1"
}
layer {
  name: "inception_4d/3x3_reduce"
  type: "Convolution"
  bottom: "inception_4c/output"
  top: "inception_4d/3x3_reduce"
  param {
    lr_mult: 1
    decay_mult: 1
  }
  param {
    lr_mult: 2
    decay_mult: 0
  }
  convolution_param {
    num_output: 144
    kernel_size: 1
    weight_filler {
      type: "xavier"
      std: 0.09
    }
    bias_filler {
      type: "constant"
      value: 0.2
    }
  }
}
layer {
  name: "inception_4d/relu_3x3_reduce"
  type: "ReLU"
  bottom: "inception_4d/3x3_reduce"
  top: "inception_4d/3x3_reduce"
}
layer {
  name: "inception_4d/3x3"
  type: "Convolution"
  bottom: "inception_4d/3x3_reduce"
  top: "inception_4d/3x3"
  param {
    lr_mult: 1
    decay_mult: 1
  }
  param {
    lr_mult: 2
    decay_mult: 0
  }
  convolution_param {
    num_output: 288
    pad: 1
    kernel_size: 3
    weight_filler {
      type: "xavier"
      std: 0.03
    }
    bias_filler {
      type: "constant"
      value: 0.2
    }
  }
}
layer {
  name: "inception_4d/relu_3x3"
  type: "ReLU"
  bottom: "inception_4d/3x3"
  top: "inception_4d/3x3"
}
layer {
  name: "inception_4d/5x5_reduce"
  type: "Convolution"
  bottom: "inception_4c/output"
  top: "inception_4d/5x5_reduce"
  param {
    lr_mult: 1
    decay_mult: 1
  }
  param {
    lr_mult: 2
    decay_mult: 0
  }
  convolution_param {
    num_output: 32
    kernel_size: 1
    weight_filler {
      type: "xavier"
      std: 0.2
    }
    bias_filler {
      type: "constant"
      value: 0.2
    }
  }
}
layer {
  name: "inception_4d/relu_5x5_reduce"
  type: "ReLU"
  bottom: "inception_4d/5x5_reduce"
  top: "inception_4d/5x5_reduce"
}
layer {
  name: "inception_4d/5x5"
  type: "Convolution"
  bottom: "inception_4d/5x5_reduce"
  top: "inception_4d/5x5"
  param {
    lr_mult: 1
    decay_mult: 1
  }
  param {
    lr_mult: 2
    decay_mult: 0
  }
  convolution_param {
    num_output: 64
    pad: 2
    kernel_size: 5
    weight_filler {
      type: "xavier"
      std: 0.03
    }
    bias_filler {
      type: "constant"
      value: 0.2
    }
  }
}
layer {
  name: "inception_4d/relu_5x5"
  type: "ReLU"
  bottom: "inception_4d/5x5"
  top: "inception_4d/5x5"
}
layer {
  name: "inception_4d/pool"
  type: "Pooling"
  bottom: "inception_4c/output"
  top: "inception_4d/pool"
  pooling_param {
    pool: MAX
    kernel_size: 3
    stride: 1
    pad: 1
  }
}
layer {
  name: "inception_4d/pool_proj"
  type: "Convolution"
  bottom: "inception_4d/pool"
  top: "inception_4d/pool_proj"
  param {
    lr_mult: 1
    decay_mult: 1
  }
  param {
    lr_mult: 2
    decay_mult: 0
  }
  convolution_param {
    num_output: 64
    kernel_size: 1
    weight_filler {
      type: "xavier"
      std: 0.1
    }
    bias_filler {
      type: "constant"
      value: 0.2
    }
  }
}
layer {
  name: "inception_4d/relu_pool_proj"
  type: "ReLU"
  bottom: "inception_4d/pool_proj"
  top: "inception_4d/pool_proj"
}
layer {
  name: "inception_4d/output"
  type: "Concat"
  bottom: "inception_4d/1x1"
  bottom: "inception_4d/3x3"
  bottom: "inception_4d/5x5"
  bottom: "inception_4d/pool_proj"
  top: "inception_4d/output"
}
layer {
  name: "loss2/ave_pool"
  type: "Pooling"
  bottom: "inception_4d/output"
  top: "loss2/ave_pool"
  pooling_param {
    pool: AVE
    kernel_size: 5
    stride: 3
  }
}
layer {
  name: "loss2/conv"
  type: "Convolution"
  bottom: "loss2/ave_pool"
  top: "loss2/conv"
  param {
    lr_mult: 1
    decay_mult: 1
  }
  param {
    lr_mult: 2
    decay_mult: 0
  }
  convolution_param {
    num_output: 128
    kernel_size: 1
    weight_filler {
      type: "xavier"
      std: 0.08
    }
    bias_filler {
      type: "constant"
      value: 0.2
    }
  }
}
layer {
  name: "loss2/relu_conv"
  type: "ReLU"
  bottom: "loss2/conv"
  top: "loss2/conv"
}
layer {
  name: "loss2/fc"
  type: "InnerProduct"
  bottom: "loss2/conv"
  top: "loss2/fc"
  param {
    lr_mult: 1
    decay_mult: 1
  }
  param {
    lr_mult: 2
    decay_mult: 0
  }
  inner_product_param {
    num_output: 1024
    weight_filler {
      type: "xavier"
      std: 0.02
    }
    bias_filler {
      type: "constant"
      value: 0.2
    }
  }
}
layer {
  name: "loss2/relu_fc"
  type: "ReLU"
  bottom: "loss2/fc"
  top: "loss2/fc"
}
layer {
  name: "loss2/drop_fc"
  type: "Dropout"
  bottom: "loss2/fc"
  top: "loss2/fc"
  dropout_param {
    dropout_ratio: 0.7
  }
}
layer {
  name: "loss2/classifier_plantvillage"
  type: "InnerProduct"
  bottom: "loss2/fc"
  top: "loss2/classifier_plantvillage"
  param {
    lr_mult: 1
    decay_mult: 1
  }
  param {
    lr_mult: 2
    decay_mult: 0
  }
  inner_product_param {
    num_output: 38
    weight_filler {
      type: "xavier"
      std: 0.0009765625
    }
    bias_filler {
      type: "constant"
      value: 0
    }
  }
}
layer {
  name: "inception_4e/1x1"
  type: "Convolution"
  bottom: "inception_4d/output"
  top: "inception_4e/1x1"
  param {
    lr_mult: 1
    decay_mult: 1
  }
  param {
    lr_mult: 2
    decay_mult: 0
  }
  convolution_param {
    num_output: 256
    kernel_size: 1
    weight_filler {
      type: "xavier"
      std: 0.03
    }
    bias_filler {
      type: "constant"
      value: 0.2
    }
  }
}
layer {
  name: "inception_4e/relu_1x1"
  type: "ReLU"
  bottom: "inception_4e/1x1"
  top: "inception_4e/1x1"
}
layer {
  name: "inception_4e/3x3_reduce"
  type: "Convolution"
  bottom: "inception_4d/output"
  top: "inception_4e/3x3_reduce"
  param {
    lr_mult: 1
    decay_mult: 1
  }
  param {
    lr_mult: 2
    decay_mult: 0
  }
  convolution_param {
    num_output: 160
    kernel_size: 1
    weight_filler {
      type: "xavier"
      std: 0.09
    }
    bias_filler {
      type: "constant"
      value: 0.2
    }
  }
}
layer {
  name: "inception_4e/relu_3x3_reduce"
  type: "ReLU"
  bottom: "inception_4e/3x3_reduce"
  top: "inception_4e/3x3_reduce"
}
layer {
  name: "inception_4e/3x3"
  type: "Convolution"
  bottom: "inception_4e/3x3_reduce"
  top: "inception_4e/3x3"
  param {
    lr_mult: 1
    decay_mult: 1
  }
  param {
    lr_mult: 2
    decay_mult: 0
  }
  convolution_param {
    num_output: 320
    pad: 1
    kernel_size: 3
    weight_filler {
      type: "xavier"
      std: 0.03
    }
    bias_filler {
      type: "constant"
      value: 0.2
    }
  }
}
layer {
  name: "inception_4e/relu_3x3"
  type: "ReLU"
  bottom: "inception_4e/3x3"
  top: "inception_4e/3x3"
}
layer {
  name: "inception_4e/5x5_reduce"
  type: "Convolution"
  bottom: "inception_4d/output"
  top: "inception_4e/5x5_reduce"
  param {
    lr_mult: 1
    decay_mult: 1
  }
  param {
    lr_mult: 2
    decay_mult: 0
  }
  convolution_param {
    num_output: 32
    kernel_size: 1
    weight_filler {
      type: "xavier"
      std: 0.2
    }
    bias_filler {
      type: "constant"
      value: 0.2
    }
  }
}
layer {
  name: "inception_4e/relu_5x5_reduce"
  type: "ReLU"
  bottom: "inception_4e/5x5_reduce"
  top: "inception_4e/5x5_reduce"
}
layer {
  name: "inception_4e/5x5"
  type: "Convolution"
  bottom: "inception_4e/5x5_reduce"
  top: "inception_4e/
I0403 18:54:29.426568 23824 layer_factory.hpp:77] Creating layer data
I0403 18:54:29.427145 23824 net.cpp:91] Creating Layer data
I0403 18:54:29.427175 23824 net.cpp:399] data -> data
I0403 18:54:29.427224 23824 net.cpp:399] data -> label
I0403 18:54:29.427259 23824 data_transformer.cpp:25] Loading mean file from: /home/mohanty/data/final_dataset/lmdb/segmented-40-60/mean.binaryproto
I0403 18:54:29.428319 23826 db_lmdb.cpp:38] Opened lmdb /home/mohanty/data/final_dataset/lmdb/segmented-40-60/test_db
I0403 18:54:29.440168 23824 data_layer.cpp:41] output data size: 24,3,224,224
I0403 18:54:29.467015 23824 net.cpp:141] Setting up data
I0403 18:54:29.467092 23824 net.cpp:148] Top shape: 24 3 224 224 (3612672)
I0403 18:54:29.467113 23824 net.cpp:148] Top shape: 24 (24)
I0403 18:54:29.467128 23824 net.cpp:156] Memory required for data: 14450784
I0403 18:54:29.467154 23824 layer_factory.hpp:77] Creating layer label_data_1_split
I0403 18:54:29.467180 23824 net.cpp:91] Creating Layer label_data_1_split
I0403 18:54:29.467195 23824 net.cpp:425] label_data_1_split <- label
I0403 18:54:29.467226 23824 net.cpp:399] label_data_1_split -> label_data_1_split_0
I0403 18:54:29.467253 23824 net.cpp:399] label_data_1_split -> label_data_1_split_1
I0403 18:54:29.467273 23824 net.cpp:399] label_data_1_split -> label_data_1_split_2
I0403 18:54:29.467293 23824 net.cpp:399] label_data_1_split -> label_data_1_split_3
I0403 18:54:29.467313 23824 net.cpp:399] label_data_1_split -> label_data_1_split_4
I0403 18:54:29.467330 23824 net.cpp:399] label_data_1_split -> label_data_1_split_5
I0403 18:54:29.467350 23824 net.cpp:399] label_data_1_split -> label_data_1_split_6
I0403 18:54:29.467368 23824 net.cpp:399] label_data_1_split -> label_data_1_split_7
I0403 18:54:29.467387 23824 net.cpp:399] label_data_1_split -> label_data_1_split_8
I0403 18:54:29.467406 23824 net.cpp:399] label_data_1_split -> label_data_1_split_9
I0403 18:54:29.467519 23824 net.cpp:141] Setting up label_data_1_split
I0403 18:54:29.467546 23824 net.cpp:148] Top shape: 24 (24)
I0403 18:54:29.467564 23824 net.cpp:148] Top shape: 24 (24)
I0403 18:54:29.467579 23824 net.cpp:148] Top shape: 24 (24)
I0403 18:54:29.467593 23824 net.cpp:148] Top shape: 24 (24)
I0403 18:54:29.467607 23824 net.cpp:148] Top shape: 24 (24)
I0403 18:54:29.467622 23824 net.cpp:148] Top shape: 24 (24)
I0403 18:54:29.467636 23824 net.cpp:148] Top shape: 24 (24)
I0403 18:54:29.467651 23824 net.cpp:148] Top shape: 24 (24)
I0403 18:54:29.467665 23824 net.cpp:148] Top shape: 24 (24)
I0403 18:54:29.467680 23824 net.cpp:148] Top shape: 24 (24)
I0403 18:54:29.467733 23824 net.cpp:156] Memory required for data: 14451744
I0403 18:54:29.467749 23824 layer_factory.hpp:77] Creating layer conv1/7x7_s2
I0403 18:54:29.467780 23824 net.cpp:91] Creating Layer conv1/7x7_s2
I0403 18:54:29.467798 23824 net.cpp:425] conv1/7x7_s2 <- data
I0403 18:54:29.467816 23824 net.cpp:399] conv1/7x7_s2 -> conv1/7x7_s2
I0403 18:54:29.604462 23824 net.cpp:141] Setting up conv1/7x7_s2
I0403 18:54:29.604526 23824 net.cpp:148] Top shape: 24 64 112 112 (19267584)
I0403 18:54:29.604553 23824 net.cpp:156] Memory required for data: 91522080
I0403 18:54:29.604584 23824 layer_factory.hpp:77] Creating layer conv1/relu_7x7
I0403 18:54:29.604609 23824 net.cpp:91] Creating Layer conv1/relu_7x7
I0403 18:54:29.604625 23824 net.cpp:425] conv1/relu_7x7 <- conv1/7x7_s2
I0403 18:54:29.604643 23824 net.cpp:386] conv1/relu_7x7 -> conv1/7x7_s2 (in-place)
I0403 18:54:29.604882 23824 net.cpp:141] Setting up conv1/relu_7x7
I0403 18:54:29.604907 23824 net.cpp:148] Top shape: 24 64 112 112 (19267584)
I0403 18:54:29.604920 23824 net.cpp:156] Memory required for data: 168592416
I0403 18:54:29.604933 23824 layer_factory.hpp:77] Creating layer pool1/3x3_s2
I0403 18:54:29.604956 23824 net.cpp:91] Creating Layer pool1/3x3_s2
I0403 18:54:29.604972 23824 net.cpp:425] pool1/3x3_s2 <- conv1/7x7_s2
I0403 18:54:29.604990 23824 net.cpp:399] pool1/3x3_s2 -> pool1/3x3_s2
I0403 18:54:29.605058 23824 net.cpp:141] Setting up pool1/3x3_s2
I0403 18:54:29.605080 23824 net.cpp:148] Top shape: 24 64 56 56 (4816896)
I0403 18:54:29.605093 23824 net.cpp:156] Memory required for data: 187860000
I0403 18:54:29.605106 23824 layer_factory.hpp:77] Creating layer pool1/norm1
I0403 18:54:29.605129 23824 net.cpp:91] Creating Layer pool1/norm1
I0403 18:54:29.605145 23824 net.cpp:425] pool1/norm1 <- pool1/3x3_s2
I0403 18:54:29.605161 23824 net.cpp:399] pool1/norm1 -> pool1/norm1
I0403 18:54:29.605427 23824 net.cpp:141] Setting up pool1/norm1
I0403 18:54:29.605451 23824 net.cpp:148] Top shape: 24 64 56 56 (4816896)
I0403 18:54:29.605464 23824 net.cpp:156] Memory required for data: 207127584
I0403 18:54:29.605478 23824 layer_factory.hpp:77] Creating layer conv2/3x3_reduce
I0403 18:54:29.605500 23824 net.cpp:91] Creating Layer conv2/3x3_reduce
I0403 18:54:29.605515 23824 net.cpp:425] conv2/3x3_reduce <- pool1/norm1
I0403 18:54:29.605532 23824 net.cpp:399] conv2/3x3_reduce -> conv2/3x3_reduce
I0403 18:54:29.606784 23824 net.cpp:141] Setting up conv2/3x3_reduce
I0403 18:54:29.606811 23824 net.cpp:148] Top shape: 24 64 56 56 (4816896)
I0403 18:54:29.606825 23824 net.cpp:156] Memory required for data: 226395168
I0403 18:54:29.606843 23824 layer_factory.hpp:77] Creating layer conv2/relu_3x3_reduce
I0403 18:54:29.606860 23824 net.cpp:91] Creating Layer conv2/relu_3x3_reduce
I0403 18:54:29.606874 23824 net.cpp:425] conv2/relu_3x3_reduce <- conv2/3x3_reduce
I0403 18:54:29.606889 23824 net.cpp:386] conv2/relu_3x3_reduce -> conv2/3x3_reduce (in-place)
I0403 18:54:29.607128 23824 net.cpp:141] Setting up conv2/relu_3x3_reduce
I0403 18:54:29.607152 23824 net.cpp:148] Top shape: 24 64 56 56 (4816896)
I0403 18:54:29.607167 23824 net.cpp:156] Memory required for data: 245662752
I0403 18:54:29.607179 23824 layer_factory.hpp:77] Creating layer conv2/3x3
I0403 18:54:29.607199 23824 net.cpp:91] Creating Layer conv2/3x3
I0403 18:54:29.607215 23824 net.cpp:425] conv2/3x3 <- conv2/3x3_reduce
I0403 18:54:29.607231 23824 net.cpp:399] conv2/3x3 -> conv2/3x3
I0403 18:54:29.609321 23824 net.cpp:141] Setting up conv2/3x3
I0403 18:54:29.609349 23824 net.cpp:148] Top shape: 24 192 56 56 (14450688)
I0403 18:54:29.609364 23824 net.cpp:156] Memory required for data: 303465504
I0403 18:54:29.609383 23824 layer_factory.hpp:77] Creating layer conv2/relu_3x3
I0403 18:54:29.609400 23824 net.cpp:91] Creating Layer conv2/relu_3x3
I0403 18:54:29.609414 23824 net.cpp:425] conv2/relu_3x3 <- conv2/3x3
I0403 18:54:29.609431 23824 net.cpp:386] conv2/relu_3x3 -> conv2/3x3 (in-place)
I0403 18:54:29.609583 23824 net.cpp:141] Setting up conv2/relu_3x3
I0403 18:54:29.609606 23824 net.cpp:148] Top shape: 24 192 56 56 (14450688)
I0403 18:54:29.609653 23824 net.cpp:156] Memory required for data: 361268256
I0403 18:54:29.609668 23824 layer_factory.hpp:77] Creating layer conv2/norm2
I0403 18:54:29.609683 23824 net.cpp:91] Creating Layer conv2/norm2
I0403 18:54:29.609697 23824 net.cpp:425] conv2/norm2 <- conv2/3x3
I0403 18:54:29.609714 23824 net.cpp:399] conv2/norm2 -> conv2/norm2
I0403 18:54:29.609987 23824 net.cpp:141] Setting up conv2/norm2
I0403 18:54:29.610011 23824 net.cpp:148] Top shape: 24 192 56 56 (14450688)
I0403 18:54:29.610025 23824 net.cpp:156] Memory required for data: 419071008
I0403 18:54:29.610038 23824 layer_factory.hpp:77] Creating layer pool2/3x3_s2
I0403 18:54:29.610054 23824 net.cpp:91] Creating Layer pool2/3x3_s2
I0403 18:54:29.610069 23824 net.cpp:425] pool2/3x3_s2 <- conv2/norm2
I0403 18:54:29.610087 23824 net.cpp:399] pool2/3x3_s2 -> pool2/3x3_s2
I0403 18:54:29.610136 23824 net.cpp:141] Setting up pool2/3x3_s2
I0403 18:54:29.610157 23824 net.cpp:148] Top shape: 24 192 28 28 (3612672)
I0403 18:54:29.610169 23824 net.cpp:156] Memory required for data: 433521696
I0403 18:54:29.610183 23824 layer_factory.hpp:77] Creating layer pool2/3x3_s2_pool2/3x3_s2_0_split
I0403 18:54:29.610200 23824 net.cpp:91] Creating Layer pool2/3x3_s2_pool2/3x3_s2_0_split
I0403 18:54:29.610216 23824 net.cpp:425] pool2/3x3_s2_pool2/3x3_s2_0_split <- pool2/3x3_s2
I0403 18:54:29.610231 23824 net.cpp:399] pool2/3x3_s2_pool2/3x3_s2_0_split -> pool2/3x3_s2_pool2/3x3_s2_0_split_0
I0403 18:54:29.610252 23824 net.cpp:399] pool2/3x3_s2_pool2/3x3_s2_0_split -> pool2/3x3_s2_pool2/3x3_s2_0_split_1
I0403 18:54:29.610271 23824 net.cpp:399] pool2/3x3_s2_pool2/3x3_s2_0_split -> pool2/3x3_s2_pool2/3x3_s2_0_split_2
I0403 18:54:29.610291 23824 net.cpp:399] pool2/3x3_s2_pool2/3x3_s2_0_split -> pool2/3x3_s2_pool2/3x3_s2_0_split_3
I0403 18:54:29.610363 23824 net.cpp:141] Setting up pool2/3x3_s2_pool2/3x3_s2_0_split
I0403 18:54:29.610383 23824 net.cpp:148] Top shape: 24 192 28 28 (3612672)
I0403 18:54:29.610397 23824 net.cpp:148] Top shape: 24 192 28 28 (3612672)
I0403 18:54:29.610410 23824 net.cpp:148] Top shape: 24 192 28 28 (3612672)
I0403 18:54:29.610424 23824 net.cpp:148] Top shape: 24 192 28 28 (3612672)
I0403 18:54:29.610436 23824 net.cpp:156] Memory required for data: 491324448
I0403 18:54:29.610450 23824 layer_factory.hpp:77] Creating layer inception_3a/1x1
I0403 18:54:29.610471 23824 net.cpp:91] Creating Layer inception_3a/1x1
I0403 18:54:29.610486 23824 net.cpp:425] inception_3a/1x1 <- pool2/3x3_s2_pool2/3x3_s2_0_split_0
I0403 18:54:29.610505 23824 net.cpp:399] inception_3a/1x1 -> inception_3a/1x1
I0403 18:54:29.611956 23824 net.cpp:141] Setting up inception_3a/1x1
I0403 18:54:29.611984 23824 net.cpp:148] Top shape: 24 64 28 28 (1204224)
I0403 18:54:29.611999 23824 net.cpp:156] Memory required for data: 496141344
I0403 18:54:29.612015 23824 layer_factory.hpp:77] Creating layer inception_3a/relu_1x1
I0403 18:54:29.612035 23824 net.cpp:91] Creating Layer inception_3a/relu_1x1
I0403 18:54:29.612049 23824 net.cpp:425] inception_3a/relu_1x1 <- inception_3a/1x1
I0403 18:54:29.612066 23824 net.cpp:386] inception_3a/relu_1x1 -> inception_3a/1x1 (in-place)
I0403 18:54:29.612224 23824 net.cpp:141] Setting up inception_3a/relu_1x1
I0403 18:54:29.612247 23824 net.cpp:148] Top shape: 24 64 28 28 (1204224)
I0403 18:54:29.612260 23824 net.cpp:156] Memory required for data: 500958240
I0403 18:54:29.612273 23824 layer_factory.hpp:77] Creating layer inception_3a/3x3_reduce
I0403 18:54:29.612294 23824 net.cpp:91] Creating Layer inception_3a/3x3_reduce
I0403 18:54:29.612310 23824 net.cpp:425] inception_3a/3x3_reduce <- pool2/3x3_s2_pool2/3x3_s2_0_split_1
I0403 18:54:29.612329 23824 net.cpp:399] inception_3a/3x3_reduce -> inception_3a/3x3_reduce
I0403 18:54:29.613914 23824 net.cpp:141] Setting up inception_3a/3x3_reduce
I0403 18:54:29.613940 23824 net.cpp:148] Top shape: 24 96 28 28 (1806336)
I0403 18:54:29.613955 23824 net.cpp:156] Memory required for data: 508183584
I0403 18:54:29.613973 23824 layer_factory.hpp:77] Creating layer inception_3a/relu_3x3_reduce
I0403 18:54:29.614007 23824 net.cpp:91] Creating Layer inception_3a/relu_3x3_reduce
I0403 18:54:29.614024 23824 net.cpp:425] inception_3a/relu_3x3_reduce <- inception_3a/3x3_reduce
I0403 18:54:29.614040 23824 net.cpp:386] inception_3a/relu_3x3_reduce -> inception_3a/3x3_reduce (in-place)
I0403 18:54:29.614212 23824 net.cpp:141] Setting up inception_3a/relu_3x3_reduce
I0403 18:54:29.614235 23824 net.cpp:148] Top shape: 24 96 28 28 (1806336)
I0403 18:54:29.614248 23824 net.cpp:156] Memory required for data: 515408928
I0403 18:54:29.614262 23824 layer_factory.hpp:77] Creating layer inception_3a/3x3
I0403 18:54:29.614282 23824 net.cpp:91] Creating Layer inception_3a/3x3
I0403 18:54:29.614310 23824 net.cpp:425] inception_3a/3x3 <- inception_3a/3x3_reduce
I0403 18:54:29.614329 23824 net.cpp:399] inception_3a/3x3 -> inception_3a/3x3
I0403 18:54:29.615869 23824 net.cpp:141] Setting up inception_3a/3x3
I0403 18:54:29.615895 23824 net.cpp:148] Top shape: 24 128 28 28 (2408448)
I0403 18:54:29.615908 23824 net.cpp:156] Memory required for data: 525042720
I0403 18:54:29.615924 23824 layer_factory.hpp:77] Creating layer inception_3a/relu_3x3
I0403 18:54:29.615943 23824 net.cpp:91] Creating Layer inception_3a/relu_3x3
I0403 18:54:29.615959 23824 net.cpp:425] inception_3a/relu_3x3 <- inception_3a/3x3
I0403 18:54:29.615974 23824 net.cpp:386] inception_3a/relu_3x3 -> inception_3a/3x3 (in-place)
I0403 18:54:29.616230 23824 net.cpp:141] Setting up inception_3a/relu_3x3
I0403 18:54:29.616255 23824 net.cpp:148] Top shape: 24 128 28 28 (2408448)
I0403 18:54:29.616268 23824 net.cpp:156] Memory required for data: 534676512
I0403 18:54:29.616282 23824 layer_factory.hpp:77] Creating layer inception_3a/5x5_reduce
I0403 18:54:29.616312 23824 net.cpp:91] Creating Layer inception_3a/5x5_reduce
I0403 18:54:29.616328 23824 net.cpp:425] inception_3a/5x5_reduce <- pool2/3x3_s2_pool2/3x3_s2_0_split_2
I0403 18:54:29.616348 23824 net.cpp:399] inception_3a/5x5_reduce -> inception_3a/5x5_reduce
I0403 18:54:29.617243 23824 net.cpp:141] Setting up inception_3a/5x5_reduce
I0403 18:54:29.617269 23824 net.cpp:148] Top shape: 24 16 28 28 (301056)
I0403 18:54:29.617283 23824 net.cpp:156] Memory required for data: 535880736
I0403 18:54:29.617301 23824 layer_factory.hpp:77] Creating layer inception_3a/relu_5x5_reduce
I0403 18:54:29.617321 23824 net.cpp:91] Creating Layer inception_3a/relu_5x5_reduce
I0403 18:54:29.617336 23824 net.cpp:425] inception_3a/relu_5x5_reduce <- inception_3a/5x5_reduce
I0403 18:54:29.617352 23824 net.cpp:386] inception_3a/relu_5x5_reduce -> inception_3a/5x5_reduce (in-place)
I0403 18:54:29.617630 23824 net.cpp:141] Setting up inception_3a/relu_5x5_reduce
I0403 18:54:29.617656 23824 net.cpp:148] Top shape: 24 16 28 28 (301056)
I0403 18:54:29.617671 23824 net.cpp:156] Memory required for data: 537084960
I0403 18:54:29.617686 23824 layer_factory.hpp:77] Creating layer inception_3a/5x5
I0403 18:54:29.617707 23824 net.cpp:91] Creating Layer inception_3a/5x5
I0403 18:54:29.617722 23824 net.cpp:425] inception_3a/5x5 <- inception_3a/5x5_reduce
I0403 18:54:29.617739 23824 net.cpp:399] inception_3a/5x5 -> inception_3a/5x5
I0403 18:54:29.618690 23824 net.cpp:141] Setting up inception_3a/5x5
I0403 18:54:29.618716 23824 net.cpp:148] Top shape: 24 32 28 28 (602112)
I0403 18:54:29.618729 23824 net.cpp:156] Memory required for data: 539493408
I0403 18:54:29.618746 23824 layer_factory.hpp:77] Creating layer inception_3a/relu_5x5
I0403 18:54:29.618764 23824 net.cpp:91] Creating Layer inception_3a/relu_5x5
I0403 18:54:29.618779 23824 net.cpp:425] inception_3a/relu_5x5 <- inception_3a/5x5
I0403 18:54:29.618795 23824 net.cpp:386] inception_3a/relu_5x5 -> inception_3a/5x5 (in-place)
I0403 18:54:29.618957 23824 net.cpp:141] Setting up inception_3a/relu_5x5
I0403 18:54:29.618981 23824 net.cpp:148] Top shape: 24 32 28 28 (602112)
I0403 18:54:29.618994 23824 net.cpp:156] Memory required for data: 541901856
I0403 18:54:29.619007 23824 layer_factory.hpp:77] Creating layer inception_3a/pool
I0403 18:54:29.619025 23824 net.cpp:91] Creating Layer inception_3a/pool
I0403 18:54:29.619053 23824 net.cpp:425] inception_3a/pool <- pool2/3x3_s2_pool2/3x3_s2_0_split_3
I0403 18:54:29.619071 23824 net.cpp:399] inception_3a/pool -> inception_3a/pool
I0403 18:54:29.619125 23824 net.cpp:141] Setting up inception_3a/pool
I0403 18:54:29.619148 23824 net.cpp:148] Top shape: 24 192 28 28 (3612672)
I0403 18:54:29.619160 23824 net.cpp:156] Memory required for data: 556352544
I0403 18:54:29.619174 23824 layer_factory.hpp:77] Creating layer inception_3a/pool_proj
I0403 18:54:29.619194 23824 net.cpp:91] Creating Layer inception_3a/pool_proj
I0403 18:54:29.619210 23824 net.cpp:425] inception_3a/pool_proj <- inception_3a/pool
I0403 18:54:29.619230 23824 net.cpp:399] inception_3a/pool_proj -> inception_3a/pool_proj
I0403 18:54:29.620159 23824 net.cpp:141] Setting up inception_3a/pool_proj
I0403 18:54:29.620187 23824 net.cpp:148] Top shape: 24 32 28 28 (602112)
I0403 18:54:29.620203 23824 net.cpp:156] Memory required for data: 558760992
I0403 18:54:29.620223 23824 layer_factory.hpp:77] Creating layer inception_3a/relu_pool_proj
I0403 18:54:29.620256 23824 net.cpp:91] Creating Layer inception_3a/relu_pool_proj
I0403 18:54:29.620273 23824 net.cpp:425] inception_3a/relu_pool_proj <- inception_3a/pool_proj
I0403 18:54:29.620290 23824 net.cpp:386] inception_3a/relu_pool_proj -> inception_3a/pool_proj (in-place)
I0403 18:54:29.620594 23824 net.cpp:141] Setting up inception_3a/relu_pool_proj
I0403 18:54:29.620620 23824 net.cpp:148] Top shape: 24 32 28 28 (602112)
I0403 18:54:29.620635 23824 net.cpp:156] Memory required for data: 561169440
I0403 18:54:29.620648 23824 layer_factory.hpp:77] Creating layer inception_3a/output
I0403 18:54:29.620667 23824 net.cpp:91] Creating Layer inception_3a/output
I0403 18:54:29.620682 23824 net.cpp:425] inception_3a/output <- inception_3a/1x1
I0403 18:54:29.620698 23824 net.cpp:425] inception_3a/output <- inception_3a/3x3
I0403 18:54:29.620713 23824 net.cpp:425] inception_3a/output <- inception_3a/5x5
I0403 18:54:29.620728 23824 net.cpp:425] inception_3a/output <- inception_3a/pool_proj
I0403 18:54:29.620743 23824 net.cpp:399] inception_3a/output -> inception_3a/output
I0403 18:54:29.620790 23824 net.cpp:141] Setting up inception_3a/output
I0403 18:54:29.620811 23824 net.cpp:148] Top shape: 24 256 28 28 (4816896)
I0403 18:54:29.620825 23824 net.cpp:156] Memory required for data: 580437024
I0403 18:54:29.620837 23824 layer_factory.hpp:77] Creating layer inception_3a/output_inception_3a/output_0_split
I0403 18:54:29.620853 23824 net.cpp:91] Creating Layer inception_3a/output_inception_3a/output_0_split
I0403 18:54:29.620867 23824 net.cpp:425] inception_3a/output_inception_3a/output_0_split <- inception_3a/output
I0403 18:54:29.620885 23824 net.cpp:399] inception_3a/output_inception_3a/output_0_split -> inception_3a/output_inception_3a/output_0_split_0
I0403 18:54:29.620904 23824 net.cpp:399] inception_3a/output_inception_3a/output_0_split -> inception_3a/output_inception_3a/output_0_split_1
I0403 18:54:29.620925 23824 net.cpp:399] inception_3a/output_inception_3a/output_0_split -> inception_3a/output_inception_3a/output_0_split_2
I0403 18:54:29.620946 23824 net.cpp:399] inception_3a/output_inception_3a/output_0_split -> inception_3a/output_inception_3a/output_0_split_3
I0403 18:54:29.621016 23824 net.cpp:141] Setting up inception_3a/output_inception_3a/output_0_split
I0403 18:54:29.621038 23824 net.cpp:148] Top shape: 24 256 28 28 (4816896)
I0403 18:54:29.621053 23824 net.cpp:148] Top shape: 24 256 28 28 (4816896)
I0403 18:54:29.621068 23824 net.cpp:148] Top shape: 24 256 28 28 (4816896)
I0403 18:54:29.621081 23824 net.cpp:148] Top shape: 24 256 28 28 (4816896)
I0403 18:54:29.621093 23824 net.cpp:156] Memory required for data: 657507360
I0403 18:54:29.621106 23824 layer_factory.hpp:77] Creating layer inception_3b/1x1
I0403 18:54:29.621127 23824 net.cpp:91] Creating Layer inception_3b/1x1
I0403 18:54:29.621143 23824 net.cpp:425] inception_3b/1x1 <- inception_3a/output_inception_3a/output_0_split_0
I0403 18:54:29.621163 23824 net.cpp:399] inception_3b/1x1 -> inception_3b/1x1
I0403 18:54:29.622261 23824 net.cpp:141] Setting up inception_3b/1x1
I0403 18:54:29.622305 23824 net.cpp:148] Top shape: 24 128 28 28 (2408448)
I0403 18:54:29.622320 23824 net.cpp:156] Memory required for data: 667141152
I0403 18:54:29.622337 23824 layer_factory.hpp:77] Creating layer inception_3b/relu_1x1
I0403 18:54:29.622354 23824 net.cpp:91] Creating Layer inception_3b/relu_1x1
I0403 18:54:29.622369 23824 net.cpp:425] inception_3b/relu_1x1 <- inception_3b/1x1
I0403 18:54:29.622387 23824 net.cpp:386] inception_3b/relu_1x1 -> inception_3b/1x1 (in-place)
I0403 18:54:29.622561 23824 net.cpp:141] Setting up inception_3b/relu_1x1
I0403 18:54:29.622584 23824 net.cpp:148] Top shape: 24 128 28 28 (2408448)
I0403 18:54:29.622598 23824 net.cpp:156] Memory required for data: 676774944
I0403 18:54:29.622611 23824 layer_factory.hpp:77] Creating layer inception_3b/3x3_reduce
I0403 18:54:29.622633 23824 net.cpp:91] Creating Layer inception_3b/3x3_reduce
I0403 18:54:29.622649 23824 net.cpp:425] inception_3b/3x3_reduce <- inception_3a/output_inception_3a/output_0_split_1
I0403 18:54:29.622669 23824 net.cpp:399] inception_3b/3x3_reduce -> inception_3b/3x3_reduce
I0403 18:54:29.623766 23824 net.cpp:141] Setting up inception_3b/3x3_reduce
I0403 18:54:29.623792 23824 net.cpp:148] Top shape: 24 128 28 28 (2408448)
I0403 18:54:29.623807 23824 net.cpp:156] Memory required for data: 686408736
I0403 18:54:29.623824 23824 layer_factory.hpp:77] Creating layer inception_3b/relu_3x3_reduce
I0403 18:54:29.623842 23824 net.cpp:91] Creating Layer inception_3b/relu_3x3_reduce
I0403 18:54:29.623859 23824 net.cpp:425] inception_3b/relu_3x3_reduce <- inception_3b/3x3_reduce
I0403 18:54:29.623875 23824 net.cpp:386] inception_3b/relu_3x3_reduce -> inception_3b/3x3_reduce (in-place)
I0403 18:54:29.624045 23824 net.cpp:141] Setting up inception_3b/relu_3x3_reduce
I0403 18:54:29.624069 23824 net.cpp:148] Top shape: 24 128 28 28 (2408448)
I0403 18:54:29.624083 23824 net.cpp:156] Memory required for data: 696042528
I0403 18:54:29.624096 23824 layer_factory.hpp:77] Creating layer inception_3b/3x3
I0403 18:54:29.624120 23824 net.cpp:91] Creating Layer inception_3b/3x3
I0403 18:54:29.624137 23824 net.cpp:425] inception_3b/3x3 <- inception_3b/3x3_reduce
I0403 18:54:29.624155 23824 net.cpp:399] inception_3b/3x3 -> inception_3b/3x3
I0403 18:54:29.626973 23824 net.cpp:141] Setting up inception_3b/3x3
I0403 18:54:29.627001 23824 net.cpp:148] Top shape: 24 192 28 28 (3612672)
I0403 18:54:29.627015 23824 net.cpp:156] Memory required for data: 710493216
I0403 18:54:29.627032 23824 layer_factory.hpp:77] Creating layer inception_3b/relu_3x3
I0403 18:54:29.627051 23824 net.cpp:91] Creating Layer inception_3b/relu_3x3
I0403 18:54:29.627068 23824 net.cpp:425] inception_3b/relu_3x3 <- inception_3b/3x3
I0403 18:54:29.627084 23824 net.cpp:386] inception_3b/relu_3x3 -> inception_3b/3x3 (in-place)
I0403 18:54:29.627349 23824 net.cpp:141] Setting up inception_3b/relu_3x3
I0403 18:54:29.627374 23824 net.cpp:148] Top shape: 24 192 28 28 (3612672)
I0403 18:54:29.627389 23824 net.cpp:156] Memory required for data: 724943904
I0403 18:54:29.627403 23824 layer_factory.hpp:77] Creating layer inception_3b/5x5_reduce
I0403 18:54:29.627424 23824 net.cpp:91] Creating Layer inception_3b/5x5_reduce
I0403 18:54:29.627439 23824 net.cpp:425] inception_3b/5x5_reduce <- inception_3a/output_inception_3a/output_0_split_2
I0403 18:54:29.627463 23824 net.cpp:399] inception_3b/5x5_reduce -> inception_3b/5x5_reduce
I0403 18:54:29.628418 23824 net.cpp:141] Setting up inception_3b/5x5_reduce
I0403 18:54:29.628445 23824 net.cpp:148] Top shape: 24 32 28 28 (602112)
I0403 18:54:29.628459 23824 net.cpp:156] Memory required for data: 727352352
I0403 18:54:29.628476 23824 layer_factory.hpp:77] Creating layer inception_3b/relu_5x5_reduce
I0403 18:54:29.628496 23824 net.cpp:91] Creating Layer inception_3b/relu_5x5_reduce
I0403 18:54:29.628511 23824 net.cpp:425] inception_3b/relu_5x5_reduce <- inception_3b/5x5_reduce
I0403 18:54:29.628527 23824 net.cpp:386] inception_3b/relu_5x5_reduce -> inception_3b/5x5_reduce (in-place)
I0403 18:54:29.628717 23824 net.cpp:141] Setting up inception_3b/relu_5x5_reduce
I0403 18:54:29.628742 23824 net.cpp:148] Top shape: 24 32 28 28 (602112)
I0403 18:54:29.628756 23824 net.cpp:156] Memory required for data: 729760800
I0403 18:54:29.628769 23824 layer_factory.hpp:77] Creating layer inception_3b/5x5
I0403 18:54:29.628792 23824 net.cpp:91] Creating Layer inception_3b/5x5
I0403 18:54:29.628808 23824 net.cpp:425] inception_3b/5x5 <- inception_3b/5x5_reduce
I0403 18:54:29.628825 23824 net.cpp:399] inception_3b/5x5 -> inception_3b/5x5
I0403 18:54:29.630748 23824 net.cpp:141] Setting up inception_3b/5x5
I0403 18:54:29.630776 23824 net.cpp:148] Top shape: 24 96 28 28 (1806336)
I0403 18:54:29.630790 23824 net.cpp:156] Memory required for data: 736986144
I0403 18:54:29.630807 23824 layer_factory.hpp:77] Creating layer inception_3b/relu_5x5
I0403 18:54:29.630825 23824 net.cpp:91] Creating Layer inception_3b/relu_5x5
I0403 18:54:29.630839 23824 net.cpp:425] inception_3b/relu_5x5 <- inception_3b/5x5
I0403 18:54:29.630858 23824 net.cpp:386] inception_3b/relu_5x5 -> inception_3b/5x5 (in-place)
I0403 18:54:29.631052 23824 net.cpp:141] Setting up inception_3b/relu_5x5
I0403 18:54:29.631075 23824 net.cpp:148] Top shape: 24 96 28 28 (1806336)
I0403 18:54:29.631088 23824 net.cpp:156] Memory required for data: 744211488
I0403 18:54:29.631103 23824 layer_factory.hpp:77] Creating layer inception_3b/pool
I0403 18:54:29.631119 23824 net.cpp:91] Creating Layer inception_3b/pool
I0403 18:54:29.631134 23824 net.cpp:425] inception_3b/pool <- inception_3a/output_inception_3a/output_0_split_3
I0403 18:54:29.631151 23824 net.cpp:399] inception_3b/pool -> inception_3b/pool
I0403 18:54:29.631206 23824 net.cpp:141] Setting up inception_3b/pool
I0403 18:54:29.631228 23824 net.cpp:148] Top shape: 24 256 28 28 (4816896)
I0403 18:54:29.631242 23824 net.cpp:156] Memory required for data: 763479072
I0403 18:54:29.631255 23824 layer_factory.hpp:77] Creating layer inception_3b/pool_proj
I0403 18:54:29.631276 23824 net.cpp:91] Creating Layer inception_3b/pool_proj
I0403 18:54:29.631301 23824 net.cpp:425] inception_3b/pool_proj <- inception_3b/pool
I0403 18:54:29.631320 23824 net.cpp:399] inception_3b/pool_proj -> inception_3b/pool_proj
I0403 18:54:29.632347 23824 net.cpp:141] Setting up inception_3b/pool_proj
I0403 18:54:29.632376 23824 net.cpp:148] Top shape: 24 64 28 28 (1204224)
I0403 18:54:29.632392 23824 net.cpp:156] Memory required for data: 768295968
I0403 18:54:29.632410 23824 layer_factory.hpp:77] Creating layer inception_3b/relu_pool_proj
I0403 18:54:29.632426 23824 net.cpp:91] Creating Layer inception_3b/relu_pool_proj
I0403 18:54:29.632441 23824 net.cpp:425] inception_3b/relu_pool_proj <- inception_3b/pool_proj
I0403 18:54:29.632460 23824 net.cpp:386] inception_3b/relu_pool_proj -> inception_3b/pool_proj (in-place)
I0403 18:54:29.632840 23824 net.cpp:141] Setting up inception_3b/relu_pool_proj
I0403 18:54:29.632869 23824 net.cpp:148] Top shape: 24 64 28 28 (1204224)
I0403 18:54:29.632884 23824 net.cpp:156] Memory required for data: 773112864
I0403 18:54:29.632897 23824 layer_factory.hpp:77] Creating layer inception_3b/output
I0403 18:54:29.632913 23824 net.cpp:91] Creating Layer inception_3b/output
I0403 18:54:29.632927 23824 net.cpp:425] inception_3b/output <- inception_3b/1x1
I0403 18:54:29.632943 23824 net.cpp:425] inception_3b/output <- inception_3b/3x3
I0403 18:54:29.632958 23824 net.cpp:425] inception_3b/output <- inception_3b/5x5
I0403 18:54:29.632973 23824 net.cpp:425] inception_3b/output <- inception_3b/pool_proj
I0403 18:54:29.632990 23824 net.cpp:399] inception_3b/output -> inception_3b/output
I0403 18:54:29.633033 23824 net.cpp:141] Setting up inception_3b/output
I0403 18:54:29.633055 23824 net.cpp:148] Top shape: 24 480 28 28 (9031680)
I0403 18:54:29.633069 23824 net.cpp:156] Memory required for data: 809239584
I0403 18:54:29.633081 23824 layer_factory.hpp:77] Creating layer pool3/3x3_s2
I0403 18:54:29.633100 23824 net.cpp:91] Creating Layer pool3/3x3_s2
I0403 18:54:29.633116 23824 net.cpp:425] pool3/3x3_s2 <- inception_3b/output
I0403 18:54:29.633148 23824 net.cpp:399] pool3/3x3_s2 -> pool3/3x3_s2
I0403 18:54:29.633206 23824 net.cpp:141] Setting up pool3/3x3_s2
I0403 18:54:29.633229 23824 net.cpp:148] Top shape: 24 480 14 14 (2257920)
I0403 18:54:29.633242 23824 net.cpp:156] Memory required for data: 818271264
I0403 18:54:29.633255 23824 layer_factory.hpp:77] Creating layer pool3/3x3_s2_pool3/3x3_s2_0_split
I0403 18:54:29.633271 23824 net.cpp:91] Creating Layer pool3/3x3_s2_pool3/3x3_s2_0_split
I0403 18:54:29.633285 23824 net.cpp:425] pool3/3x3_s2_pool3/3x3_s2_0_split <- pool3/3x3_s2
I0403 18:54:29.633307 23824 net.cpp:399] pool3/3x3_s2_pool3/3x3_s2_0_split -> pool3/3x3_s2_pool3/3x3_s2_0_split_0
I0403 18:54:29.633327 23824 net.cpp:399] pool3/3x3_s2_pool3/3x3_s2_0_split -> pool3/3x3_s2_pool3/3x3_s2_0_split_1
I0403 18:54:29.633347 23824 net.cpp:399] pool3/3x3_s2_pool3/3x3_s2_0_split -> pool3/3x3_s2_pool3/3x3_s2_0_split_2
I0403 18:54:29.633365 23824 net.cpp:399] pool3/3x3_s2_pool3/3x3_s2_0_split -> pool3/3x3_s2_pool3/3x3_s2_0_split_3
I0403 18:54:29.633438 23824 net.cpp:141] Setting up pool3/3x3_s2_pool3/3x3_s2_0_split
I0403 18:54:29.633460 23824 net.cpp:148] Top shape: 24 480 14 14 (2257920)
I0403 18:54:29.633476 23824 net.cpp:148] Top shape: 24 480 14 14 (2257920)
I0403 18:54:29.633488 23824 net.cpp:148] Top shape: 24 480 14 14 (2257920)
I0403 18:54:29.633502 23824 net.cpp:148] Top shape: 24 480 14 14 (2257920)
I0403 18:54:29.633515 23824 net.cpp:156] Memory required for data: 854397984
I0403 18:54:29.633528 23824 layer_factory.hpp:77] Creating layer inception_4a/1x1
I0403 18:54:29.633558 23824 net.cpp:91] Creating Layer inception_4a/1x1
I0403 18:54:29.633574 23824 net.cpp:425] inception_4a/1x1 <- pool3/3x3_s2_pool3/3x3_s2_0_split_0
I0403 18:54:29.633592 23824 net.cpp:399] inception_4a/1x1 -> inception_4a/1x1
I0403 18:54:29.635149 23824 net.cpp:141] Setting up inception_4a/1x1
I0403 18:54:29.635177 23824 net.cpp:148] Top shape: 24 192 14 14 (903168)
I0403 18:54:29.635195 23824 net.cpp:156] Memory required for data: 858010656
I0403 18:54:29.635210 23824 layer_factory.hpp:77] Creating layer inception_4a/relu_1x1
I0403 18:54:29.635227 23824 net.cpp:91] Creating Layer inception_4a/relu_1x1
I0403 18:54:29.635242 23824 net.cpp:425] inception_4a/relu_1x1 <- inception_4a/1x1
I0403 18:54:29.635260 23824 net.cpp:386] inception_4a/relu_1x1 -> inception_4a/1x1 (in-place)
I0403 18:54:29.635433 23824 net.cpp:141] Setting up inception_4a/relu_1x1
I0403 18:54:29.635457 23824 net.cpp:148] Top shape: 24 192 14 14 (903168)
I0403 18:54:29.635470 23824 net.cpp:156] Memory required for data: 861623328
I0403 18:54:29.635484 23824 layer_factory.hpp:77] Creating layer inception_4a/3x3_reduce
I0403 18:54:29.635505 23824 net.cpp:91] Creating Layer inception_4a/3x3_reduce
I0403 18:54:29.635522 23824 net.cpp:425] inception_4a/3x3_reduce <- pool3/3x3_s2_pool3/3x3_s2_0_split_1
I0403 18:54:29.635546 23824 net.cpp:399] inception_4a/3x3_reduce -> inception_4a/3x3_reduce
I0403 18:54:29.636778 23824 net.cpp:141] Setting up inception_4a/3x3_reduce
I0403 18:54:29.636807 23824 net.cpp:148] Top shape: 24 96 14 14 (451584)
I0403 18:54:29.636822 23824 net.cpp:156] Memory required for data: 863429664
I0403 18:54:29.636843 23824 layer_factory.hpp:77] Creating layer inception_4a/relu_3x3_reduce
I0403 18:54:29.636864 23824 net.cpp:91] Creating Layer inception_4a/relu_3x3_reduce
I0403 18:54:29.636879 23824 net.cpp:425] inception_4a/relu_3x3_reduce <- inception_4a/3x3_reduce
I0403 18:54:29.636895 23824 net.cpp:386] inception_4a/relu_3x3_reduce -> inception_4a/3x3_reduce (in-place)
I0403 18:54:29.637068 23824 net.cpp:141] Setting up inception_4a/relu_3x3_reduce
I0403 18:54:29.637091 23824 net.cpp:148] Top shape: 24 96 14 14 (451584)
I0403 18:54:29.637104 23824 net.cpp:156] Memory required for data: 865236000
I0403 18:54:29.637118 23824 layer_factory.hpp:77] Creating layer inception_4a/3x3
I0403 18:54:29.637140 23824 net.cpp:91] Creating Layer inception_4a/3x3
I0403 18:54:29.637156 23824 net.cpp:425] inception_4a/3x3 <- inception_4a/3x3_reduce
I0403 18:54:29.637176 23824 net.cpp:399] inception_4a/3x3 -> inception_4a/3x3
I0403 18:54:29.639727 23824 net.cpp:141] Setting up inception_4a/3x3
I0403 18:54:29.639755 23824 net.cpp:148] Top shape: 24 208 14 14 (978432)
I0403 18:54:29.639770 23824 net.cpp:156] Memory required for data: 869149728
I0403 18:54:29.639786 23824 layer_factory.hpp:77] Creating layer inception_4a/relu_3x3
I0403 18:54:29.639806 23824 net.cpp:91] Creating Layer inception_4a/relu_3x3
I0403 18:54:29.639821 23824 net.cpp:425] inception_4a/relu_3x3 <- inception_4a/3x3
I0403 18:54:29.639837 23824 net.cpp:386] inception_4a/relu_3x3 -> inception_4a/3x3 (in-place)
I0403 18:54:29.640094 23824 net.cpp:141] Setting up inception_4a/relu_3x3
I0403 18:54:29.640120 23824 net.cpp:148] Top shape: 24 208 14 14 (978432)
I0403 18:54:29.640132 23824 net.cpp:156] Memory required for data: 873063456
I0403 18:54:29.640146 23824 layer_factory.hpp:77] Creating layer inception_4a/5x5_reduce
I0403 18:54:29.640167 23824 net.cpp:91] Creating Layer inception_4a/5x5_reduce
I0403 18:54:29.640184 23824 net.cpp:425] inception_4a/5x5_reduce <- pool3/3x3_s2_pool3/3x3_s2_0_split_2
I0403 18:54:29.640203 23824 net.cpp:399] inception_4a/5x5_reduce -> inception_4a/5x5_reduce
I0403 18:54:29.641157 23824 net.cpp:141] Setting up inception_4a/5x5_reduce
I0403 18:54:29.641183 23824 net.cpp:148] Top shape: 24 16 14 14 (75264)
I0403 18:54:29.641197 23824 net.cpp:156] Memory required for data: 873364512
I0403 18:54:29.641213 23824 layer_factory.hpp:77] Creating layer inception_4a/relu_5x5_reduce
I0403 18:54:29.641232 23824 net.cpp:91] Creating Layer inception_4a/relu_5x5_reduce
I0403 18:54:29.641248 23824 net.cpp:425] inception_4a/relu_5x5_reduce <- inception_4a/5x5_reduce
I0403 18:54:29.641264 23824 net.cpp:386] inception_4a/relu_5x5_reduce -> inception_4a/5x5_reduce (in-place)
I0403 18:54:29.641438 23824 net.cpp:141] Setting up inception_4a/relu_5x5_reduce
I0403 18:54:29.641460 23824 net.cpp:148] Top shape: 24 16 14 14 (75264)
I0403 18:54:29.641474 23824 net.cpp:156] Memory required for data: 873665568
I0403 18:54:29.641487 23824 layer_factory.hpp:77] Creating layer inception_4a/5x5
I0403 18:54:29.641508 23824 net.cpp:91] Creating Layer inception_4a/5x5
I0403 18:54:29.641525 23824 net.cpp:425] inception_4a/5x5 <- inception_4a/5x5_reduce
I0403 18:54:29.641546 23824 net.cpp:399] inception_4a/5x5 -> inception_4a/5x5
I0403 18:54:29.642572 23824 net.cpp:141] Setting up inception_4a/5x5
I0403 18:54:29.642608 23824 net.cpp:148] Top shape: 24 48 14 14 (225792)
I0403 18:54:29.642624 23824 net.cpp:156] Memory required for data: 874568736
I0403 18:54:29.642640 23824 layer_factory.hpp:77] Creating layer inception_4a/relu_5x5
I0403 18:54:29.642657 23824 net.cpp:91] Creating Layer inception_4a/relu_5x5
I0403 18:54:29.642671 23824 net.cpp:425] inception_4a/relu_5x5 <- inception_4a/5x5
I0403 18:54:29.642686 23824 net.cpp:386] inception_4a/relu_5x5 -> inception_4a/5x5 (in-place)
I0403 18:54:29.642853 23824 net.cpp:141] Setting up inception_4a/relu_5x5
I0403 18:54:29.642881 23824 net.cpp:148] Top shape: 24 48 14 14 (225792)
I0403 18:54:29.642895 23824 net.cpp:156] Memory required for data: 875471904
I0403 18:54:29.642910 23824 layer_factory.hpp:77] Creating layer inception_4a/pool
I0403 18:54:29.642925 23824 net.cpp:91] Creating Layer inception_4a/pool
I0403 18:54:29.642940 23824 net.cpp:425] inception_4a/pool <- pool3/3x3_s2_pool3/3x3_s2_0_split_3
I0403 18:54:29.642959 23824 net.cpp:399] inception_4a/pool -> inception_4a/pool
I0403 18:54:29.643015 23824 net.cpp:141] Setting up inception_4a/pool
I0403 18:54:29.643039 23824 net.cpp:148] Top shape: 24 480 14 14 (2257920)
I0403 18:54:29.643054 23824 net.cpp:156] Memory required for data: 884503584
I0403 18:54:29.643066 23824 layer_factory.hpp:77] Creating layer inception_4a/pool_proj
I0403 18:54:29.643086 23824 net.cpp:91] Creating Layer inception_4a/pool_proj
I0403 18:54:29.643102 23824 net.cpp:425] inception_4a/pool_proj <- inception_4a/pool
I0403 18:54:29.643120 23824 net.cpp:399] inception_4a/pool_proj -> inception_4a/pool_proj
I0403 18:54:29.644210 23824 net.cpp:141] Setting up inception_4a/pool_proj
I0403 18:54:29.644240 23824 net.cpp:148] Top shape: 24 64 14 14 (301056)
I0403 18:54:29.644268 23824 net.cpp:156] Memory required for data: 885707808
I0403 18:54:29.644286 23824 layer_factory.hpp:77] Creating layer inception_4a/relu_pool_proj
I0403 18:54:29.644304 23824 net.cpp:91] Creating Layer inception_4a/relu_pool_proj
I0403 18:54:29.644318 23824 net.cpp:425] inception_4a/relu_pool_proj <- inception_4a/pool_proj
I0403 18:54:29.644333 23824 net.cpp:386] inception_4a/relu_pool_proj -> inception_4a/pool_proj (in-place)
I0403 18:54:29.644611 23824 net.cpp:141] Setting up inception_4a/relu_pool_proj
I0403 18:54:29.644639 23824 net.cpp:148] Top shape: 24 64 14 14 (301056)
I0403 18:54:29.644654 23824 net.cpp:156] Memory required for data: 886912032
I0403 18:54:29.644666 23824 layer_factory.hpp:77] Creating layer inception_4a/output
I0403 18:54:29.644682 23824 net.cpp:91] Creating Layer inception_4a/output
I0403 18:54:29.644696 23824 net.cpp:425] inception_4a/output <- inception_4a/1x1
I0403 18:54:29.644711 23824 net.cpp:425] inception_4a/output <- inception_4a/3x3
I0403 18:54:29.644726 23824 net.cpp:425] inception_4a/output <- inception_4a/5x5
I0403 18:54:29.644739 23824 net.cpp:425] inception_4a/output <- inception_4a/pool_proj
I0403 18:54:29.644755 23824 net.cpp:399] inception_4a/output -> inception_4a/output
I0403 18:54:29.644799 23824 net.cpp:141] Setting up inception_4a/output
I0403 18:54:29.644821 23824 net.cpp:148] Top shape: 24 512 14 14 (2408448)
I0403 18:54:29.644834 23824 net.cpp:156] Memory required for data: 896545824
I0403 18:54:29.644847 23824 layer_factory.hpp:77] Creating layer inception_4a/output_inception_4a/output_0_split
I0403 18:54:29.644865 23824 net.cpp:91] Creating Layer inception_4a/output_inception_4a/output_0_split
I0403 18:54:29.644881 23824 net.cpp:425] inception_4a/output_inception_4a/output_0_split <- inception_4a/output
I0403 18:54:29.644897 23824 net.cpp:399] inception_4a/output_inception_4a/output_0_split -> inception_4a/output_inception_4a/output_0_split_0
I0403 18:54:29.644917 23824 net.cpp:399] inception_4a/output_inception_4a/output_0_split -> inception_4a/output_inception_4a/output_0_split_1
I0403 18:54:29.644935 23824 net.cpp:399] inception_4a/output_inception_4a/output_0_split -> inception_4a/output_inception_4a/output_0_split_2
I0403 18:54:29.644955 23824 net.cpp:399] inception_4a/output_inception_4a/output_0_split -> inception_4a/output_inception_4a/output_0_split_3
I0403 18:54:29.644975 23824 net.cpp:399] inception_4a/output_inception_4a/output_0_split -> inception_4a/output_inception_4a/output_0_split_4
I0403 18:54:29.645061 23824 net.cpp:141] Setting up inception_4a/output_inception_4a/output_0_split
I0403 18:54:29.645082 23824 net.cpp:148] Top shape: 24 512 14 14 (2408448)
I0403 18:54:29.645097 23824 net.cpp:148] Top shape: 24 512 14 14 (2408448)
I0403 18:54:29.645110 23824 net.cpp:148] Top shape: 24 512 14 14 (2408448)
I0403 18:54:29.645124 23824 net.cpp:148] Top shape: 24 512 14 14 (2408448)
I0403 18:54:29.645138 23824 net.cpp:148] Top shape: 24 512 14 14 (2408448)
I0403 18:54:29.645149 23824 net.cpp:156] Memory required for data: 944714784
I0403 18:54:29.645162 23824 layer_factory.hpp:77] Creating layer loss1/ave_pool
I0403 18:54:29.645181 23824 net.cpp:91] Creating Layer loss1/ave_pool
I0403 18:54:29.645195 23824 net.cpp:425] loss1/ave_pool <- inception_4a/output_inception_4a/output_0_split_0
I0403 18:54:29.645212 23824 net.cpp:399] loss1/ave_pool -> loss1/ave_pool
I0403 18:54:29.645401 23824 net.cpp:141] Setting up loss1/ave_pool
I0403 18:54:29.645426 23824 net.cpp:148] Top shape: 24 512 4 4 (196608)
I0403 18:54:29.645440 23824 net.cpp:156] Memory required for data: 945501216
I0403 18:54:29.645454 23824 layer_factory.hpp:77] Creating layer loss1/conv
I0403 18:54:29.645474 23824 net.cpp:91] Creating Layer loss1/conv
I0403 18:54:29.645490 23824 net.cpp:425] loss1/conv <- loss1/ave_pool
I0403 18:54:29.645508 23824 net.cpp:399] loss1/conv -> loss1/conv
I0403 18:54:29.646852 23824 net.cpp:141] Setting up loss1/conv
I0403 18:54:29.646878 23824 net.cpp:148] Top shape: 24 128 4 4 (49152)
I0403 18:54:29.646905 23824 net.cpp:156] Memory required for data: 945697824
I0403 18:54:29.646924 23824 layer_factory.hpp:77] Creating layer loss1/relu_conv
I0403 18:54:29.646942 23824 net.cpp:91] Creating Layer loss1/relu_conv
I0403 18:54:29.646957 23824 net.cpp:425] loss1/relu_conv <- loss1/conv
I0403 18:54:29.646973 23824 net.cpp:386] loss1/relu_conv -> loss1/conv (in-place)
I0403 18:54:29.647244 23824 net.cpp:141] Setting up loss1/relu_conv
I0403 18:54:29.647269 23824 net.cpp:148] Top shape: 24 128 4 4 (49152)
I0403 18:54:29.647284 23824 net.cpp:156] Memory required for data: 945894432
I0403 18:54:29.647299 23824 layer_factory.hpp:77] Creating layer loss1/fc
I0403 18:54:29.647322 23824 net.cpp:91] Creating Layer loss1/fc
I0403 18:54:29.647338 23824 net.cpp:425] loss1/fc <- loss1/conv
I0403 18:54:29.647356 23824 net.cpp:399] loss1/fc -> loss1/fc
I0403 18:54:29.664654 23824 net.cpp:141] Setting up loss1/fc
I0403 18:54:29.664685 23824 net.cpp:148] Top shape: 24 1024 (24576)
I0403 18:54:29.664700 23824 net.cpp:156] Memory required for data: 945992736
I0403 18:54:29.664718 23824 layer_factory.hpp:77] Creating layer loss1/relu_fc
I0403 18:54:29.664736 23824 net.cpp:91] Creating Layer loss1/relu_fc
I0403 18:54:29.664751 23824 net.cpp:425] loss1/relu_fc <- loss1/fc
I0403 18:54:29.664770 23824 net.cpp:386] loss1/relu_fc -> loss1/fc (in-place)
I0403 18:54:29.664950 23824 net.cpp:141] Setting up loss1/relu_fc
I0403 18:54:29.664974 23824 net.cpp:148] Top shape: 24 1024 (24576)
I0403 18:54:29.664988 23824 net.cpp:156] Memory required for data: 946091040
I0403 18:54:29.665001 23824 layer_factory.hpp:77] Creating layer loss1/drop_fc
I0403 18:54:29.665025 23824 net.cpp:91] Creating Layer loss1/drop_fc
I0403 18:54:29.665042 23824 net.cpp:425] loss1/drop_fc <- loss1/fc
I0403 18:54:29.665061 23824 net.cpp:386] loss1/drop_fc -> loss1/fc (in-place)
I0403 18:54:29.665110 23824 net.cpp:141] Setting up loss1/drop_fc
I0403 18:54:29.665132 23824 net.cpp:148] Top shape: 24 1024 (24576)
I0403 18:54:29.665145 23824 net.cpp:156] Memory required for data: 946189344
I0403 18:54:29.665158 23824 layer_factory.hpp:77] Creating layer loss1/classifier_plantvillage
I0403 18:54:29.665179 23824 net.cpp:91] Creating Layer loss1/classifier_plantvillage
I0403 18:54:29.665195 23824 net.cpp:425] loss1/classifier_plantvillage <- loss1/fc
I0403 18:54:29.665215 23824 net.cpp:399] loss1/classifier_plantvillage -> loss1/classifier_plantvillage
I0403 18:54:29.666113 23824 net.cpp:141] Setting up loss1/classifier_plantvillage
I0403 18:54:29.666142 23824 net.cpp:148] Top shape: 24 38 (912)
I0403 18:54:29.666158 23824 net.cpp:156] Memory required for data: 946192992
I0403 18:54:29.666175 23824 layer_factory.hpp:77] Creating layer loss1/classifier_plantvillage_loss1/classifier_plantvillage_0_split
I0403 18:54:29.666191 23824 net.cpp:91] Creating Layer loss1/classifier_plantvillage_loss1/classifier_plantvillage_0_split
I0403 18:54:29.666208 23824 net.cpp:425] loss1/classifier_plantvillage_loss1/classifier_plantvillage_0_split <- loss1/classifier_plantvillage
I0403 18:54:29.666226 23824 net.cpp:399] loss1/classifier_plantvillage_loss1/classifier_plantvillage_0_split -> loss1/classifier_plantvillage_loss1/classifier_plantvillage_0_split_0
I0403 18:54:29.666247 23824 net.cpp:399] loss1/classifier_plantvillage_loss1/classifier_plantvillage_0_split -> loss1/classifier_plantvillage_loss1/classifier_plantvillage_0_split_1
I0403 18:54:29.666267 23824 net.cpp:399] loss1/classifier_plantvillage_loss1/classifier_plantvillage_0_split -> loss1/classifier_plantvillage_loss1/classifier_plantvillage_0_split_2
I0403 18:54:29.666329 23824 net.cpp:141] Setting up loss1/classifier_plantvillage_loss1/classifier_plantvillage_0_split
I0403 18:54:29.666353 23824 net.cpp:148] Top shape: 24 38 (912)
I0403 18:54:29.666381 23824 net.cpp:148] Top shape: 24 38 (912)
I0403 18:54:29.666395 23824 net.cpp:148] Top shape: 24 38 (912)
I0403 18:54:29.666407 23824 net.cpp:156] Memory required for data: 946203936
I0403 18:54:29.666420 23824 layer_factory.hpp:77] Creating layer inception_4b/1x1
I0403 18:54:29.666440 23824 net.cpp:91] Creating Layer inception_4b/1x1
I0403 18:54:29.666471 23824 net.cpp:425] inception_4b/1x1 <- inception_4a/output_inception_4a/output_0_split_1
I0403 18:54:29.666489 23824 net.cpp:399] inception_4b/1x1 -> inception_4b/1x1
I0403 18:54:29.668066 23824 net.cpp:141] Setting up inception_4b/1x1
I0403 18:54:29.668092 23824 net.cpp:148] Top shape: 24 160 14 14 (752640)
I0403 18:54:29.668105 23824 net.cpp:156] Memory required for data: 949214496
I0403 18:54:29.668122 23824 layer_factory.hpp:77] Creating layer inception_4b/relu_1x1
I0403 18:54:29.668141 23824 net.cpp:91] Creating Layer inception_4b/relu_1x1
I0403 18:54:29.668156 23824 net.cpp:425] inception_4b/relu_1x1 <- inception_4b/1x1
I0403 18:54:29.668172 23824 net.cpp:386] inception_4b/relu_1x1 -> inception_4b/1x1 (in-place)
I0403 18:54:29.668340 23824 net.cpp:141] Setting up inception_4b/relu_1x1
I0403 18:54:29.668364 23824 net.cpp:148] Top shape: 24 160 14 14 (752640)
I0403 18:54:29.668376 23824 net.cpp:156] Memory required for data: 952225056
I0403 18:54:29.668390 23824 layer_factory.hpp:77] Creating layer inception_4b/3x3_reduce
I0403 18:54:29.668411 23824 net.cpp:91] Creating Layer inception_4b/3x3_reduce
I0403 18:54:29.668427 23824 net.cpp:425] inception_4b/3x3_reduce <- inception_4a/output_inception_4a/output_0_split_2
I0403 18:54:29.668445 23824 net.cpp:399] inception_4b/3x3_reduce -> inception_4b/3x3_reduce
I0403 18:54:29.669729 23824 net.cpp:141] Setting up inception_4b/3x3_reduce
I0403 18:54:29.669755 23824 net.cpp:148] Top shape: 24 112 14 14 (526848)
I0403 18:54:29.669770 23824 net.cpp:156] Memory required for data: 954332448
I0403 18:54:29.669786 23824 layer_factory.hpp:77] Creating layer inception_4b/relu_3x3_reduce
I0403 18:54:29.669806 23824 net.cpp:91] Creating Layer inception_4b/relu_3x3_reduce
I0403 18:54:29.669822 23824 net.cpp:425] inception_4b/relu_3x3_reduce <- inception_4b/3x3_reduce
I0403 18:54:29.669838 23824 net.cpp:386] inception_4b/relu_3x3_reduce -> inception_4b/3x3_reduce (in-place)
I0403 18:54:29.670105 23824 net.cpp:141] Setting up inception_4b/relu_3x3_reduce
I0403 18:54:29.670130 23824 net.cpp:148] Top shape: 24 112 14 14 (526848)
I0403 18:54:29.670143 23824 net.cpp:156] Memory required for data: 956439840
I0403 18:54:29.670157 23824 layer_factory.hpp:77] Creating layer inception_4b/3x3
I0403 18:54:29.670177 23824 net.cpp:91] Creating Layer inception_4b/3x3
I0403 18:54:29.670194 23824 net.cpp:425] inception_4b/3x3 <- inception_4b/3x3_reduce
I0403 18:54:29.670212 23824 net.cpp:399] inception_4b/3x3 -> inception_4b/3x3
I0403 18:54:29.673077 23824 net.cpp:141] Setting up inception_4b/3x3
I0403 18:54:29.673106 23824 net.cpp:148] Top shape: 24 224 14 14 (1053696)
I0403 18:54:29.673122 23824 net.cpp:156] Memory required for data: 960654624
I0403 18:54:29.673138 23824 layer_factory.hpp:77] Creating layer inception_4b/relu_3x3
I0403 18:54:29.673156 23824 net.cpp:91] Creating Layer inception_4b/relu_3x3
I0403 18:54:29.673171 23824 net.cpp:425] inception_4b/relu_3x3 <- inception_4b/3x3
I0403 18:54:29.673187 23824 net.cpp:386] inception_4b/relu_3x3 -> inception_4b/3x3 (in-place)
I0403 18:54:29.673357 23824 net.cpp:141] Setting up inception_4b/relu_3x3
I0403 18:54:29.673382 23824 net.cpp:148] Top shape: 24 224 14 14 (1053696)
I0403 18:54:29.673394 23824 net.cpp:156] Memory required for data: 964869408
I0403 18:54:29.673408 23824 layer_factory.hpp:77] Creating layer inception_4b/5x5_reduce
I0403 18:54:29.673429 23824 net.cpp:91] Creating Layer inception_4b/5x5_reduce
I0403 18:54:29.673444 23824 net.cpp:425] inception_4b/5x5_reduce <- inception_4a/output_inception_4a/output_0_split_3
I0403 18:54:29.673465 23824 net.cpp:399] inception_4b/5x5_reduce -> inception_4b/5x5_reduce
I0403 18:54:29.674486 23824 net.cpp:141] Setting up inception_4b/5x5_reduce
I0403 18:54:29.674512 23824 net.cpp:148] Top shape: 24 24 14 14 (112896)
I0403 18:54:29.674526 23824 net.cpp:156] Memory required for data: 965320992
I0403 18:54:29.674561 23824 layer_factory.hpp:77] Creating layer inception_4b/relu_5x5_reduce
I0403 18:54:29.674583 23824 net.cpp:91] Creating Layer inception_4b/relu_5x5_reduce
I0403 18:54:29.674612 23824 net.cpp:425] inception_4b/relu_5x5_reduce <- inception_4b/5x5_reduce
I0403 18:54:29.674628 23824 net.cpp:386] inception_4b/relu_5x5_reduce -> inception_4b/5x5_reduce (in-place)
I0403 18:54:29.674803 23824 net.cpp:141] Setting up inception_4b/relu_5x5_reduce
I0403 18:54:29.674829 23824 net.cpp:148] Top shape: 24 24 14 14 (112896)
I0403 18:54:29.674842 23824 net.cpp:156] Memory required for data: 965772576
I0403 18:54:29.674855 23824 layer_factory.hpp:77] Creating layer inception_4b/5x5
I0403 18:54:29.674876 23824 net.cpp:91] Creating Layer inception_4b/5x5
I0403 18:54:29.674892 23824 net.cpp:425] inception_4b/5x5 <- inception_4b/5x5_reduce
I0403 18:54:29.674909 23824 net.cpp:399] inception_4b/5x5 -> inception_4b/5x5
I0403 18:54:29.676065 23824 net.cpp:141] Setting up inception_4b/5x5
I0403 18:54:29.676091 23824 net.cpp:148] Top shape: 24 64 14 14 (301056)
I0403 18:54:29.676105 23824 net.cpp:156] Memory required for data: 966976800
I0403 18:54:29.676121 23824 layer_factory.hpp:77] Creating layer inception_4b/relu_5x5
I0403 18:54:29.676139 23824 net.cpp:91] Creating Layer inception_4b/relu_5x5
I0403 18:54:29.676156 23824 net.cpp:425] inception_4b/relu_5x5 <- inception_4b/5x5
I0403 18:54:29.676172 23824 net.cpp:386] inception_4b/relu_5x5 -> inception_4b/5x5 (in-place)
I0403 18:54:29.676440 23824 net.cpp:141] Setting up inception_4b/relu_5x5
I0403 18:54:29.676465 23824 net.cpp:148] Top shape: 24 64 14 14 (301056)
I0403 18:54:29.676477 23824 net.cpp:156] Memory required for data: 968181024
I0403 18:54:29.676491 23824 layer_factory.hpp:77] Creating layer inception_4b/pool
I0403 18:54:29.676509 23824 net.cpp:91] Creating Layer inception_4b/pool
I0403 18:54:29.676524 23824 net.cpp:425] inception_4b/pool <- inception_4a/output_inception_4a/output_0_split_4
I0403 18:54:29.676545 23824 net.cpp:399] inception_4b/pool -> inception_4b/pool
I0403 18:54:29.676607 23824 net.cpp:141] Setting up inception_4b/pool
I0403 18:54:29.676628 23824 net.cpp:148] Top shape: 24 512 14 14 (2408448)
I0403 18:54:29.676641 23824 net.cpp:156] Memory required for data: 977814816
I0403 18:54:29.676654 23824 layer_factory.hpp:77] Creating layer inception_4b/pool_proj
I0403 18:54:29.676674 23824 net.cpp:91] Creating Layer inception_4b/pool_proj
I0403 18:54:29.676690 23824 net.cpp:425] inception_4b/pool_proj <- inception_4b/pool
I0403 18:54:29.676709 23824 net.cpp:399] inception_4b/pool_proj -> inception_4b/pool_proj
I0403 18:54:29.677845 23824 net.cpp:141] Setting up inception_4b/pool_proj
I0403 18:54:29.677870 23824 net.cpp:148] Top shape: 24 64 14 14 (301056)
I0403 18:54:29.677884 23824 net.cpp:156] Memory required for data: 979019040
I0403 18:54:29.677901 23824 layer_factory.hpp:77] Creating layer inception_4b/relu_pool_proj
I0403 18:54:29.677920 23824 net.cpp:91] Creating Layer inception_4b/relu_pool_proj
I0403 18:54:29.677937 23824 net.cpp:425] inception_4b/relu_pool_proj <- inception_4b/pool_proj
I0403 18:54:29.677953 23824 net.cpp:386] inception_4b/relu_pool_proj -> inception_4b/pool_proj (in-place)
I0403 18:54:29.678128 23824 net.cpp:141] Setting up inception_4b/relu_pool_proj
I0403 18:54:29.678153 23824 net.cpp:148] Top shape: 24 64 14 14 (301056)
I0403 18:54:29.678166 23824 net.cpp:156] Memory required for data: 980223264
I0403 18:54:29.678179 23824 layer_factory.hpp:77] Creating layer inception_4b/output
I0403 18:54:29.678195 23824 net.cpp:91] Creating Layer inception_4b/output
I0403 18:54:29.678208 23824 net.cpp:425] inception_4b/output <- inception_4b/1x1
I0403 18:54:29.678223 23824 net.cpp:425] inception_4b/output <- inception_4b/3x3
I0403 18:54:29.678237 23824 net.cpp:425] inception_4b/output <- inception_4b/5x5
I0403 18:54:29.678252 23824 net.cpp:425] inception_4b/output <- inception_4b/pool_proj
I0403 18:54:29.678267 23824 net.cpp:399] inception_4b/output -> inception_4b/output
I0403 18:54:29.678311 23824 net.cpp:141] Setting up inception_4b/output
I0403 18:54:29.678333 23824 net.cpp:148] Top shape: 24 512 14 14 (2408448)
I0403 18:54:29.678345 23824 net.cpp:156] Memory required for data: 989857056
I0403 18:54:29.678371 23824 layer_factory.hpp:77] Creating layer inception_4b/output_inception_4b/output_0_split
I0403 18:54:29.678388 23824 net.cpp:91] Creating Layer inception_4b/output_inception_4b/output_0_split
I0403 18:54:29.678401 23824 net.cpp:425] inception_4b/output_inception_4b/output_0_split <- inception_4b/output
I0403 18:54:29.678421 23824 net.cpp:399] inception_4b/output_inception_4b/output_0_split -> inception_4b/output_inception_4b/output_0_split_0
I0403 18:54:29.678441 23824 net.cpp:399] inception_4b/output_inception_4b/output_0_split -> inception_4b/output_inception_4b/output_0_split_1
I0403 18:54:29.678460 23824 net.cpp:399] inception_4b/output_inception_4b/output_0_split -> inception_4b/output_inception_4b/output_0_split_2
I0403 18:54:29.678479 23824 net.cpp:399] inception_4b/output_inception_4b/output_0_split -> inception_4b/output_inception_4b/output_0_split_3
I0403 18:54:29.678572 23824 net.cpp:141] Setting up inception_4b/output_inception_4b/output_0_split
I0403 18:54:29.678594 23824 net.cpp:148] Top shape: 24 512 14 14 (2408448)
I0403 18:54:29.678608 23824 net.cpp:148] Top shape: 24 512 14 14 (2408448)
I0403 18:54:29.678623 23824 net.cpp:148] Top shape: 24 512 14 14 (2408448)
I0403 18:54:29.678637 23824 net.cpp:148] Top shape: 24 512 14 14 (2408448)
I0403 18:54:29.678648 23824 net.cpp:156] Memory required for data: 1028392224
I0403 18:54:29.678661 23824 layer_factory.hpp:77] Creating layer inception_4c/1x1
I0403 18:54:29.678683 23824 net.cpp:91] Creating Layer inception_4c/1x1
I0403 18:54:29.678697 23824 net.cpp:425] inception_4c/1x1 <- inception_4b/output_inception_4b/output_0_split_0
I0403 18:54:29.678717 23824 net.cpp:399] inception_4c/1x1 -> inception_4c/1x1
I0403 18:54:29.680065 23824 net.cpp:141] Setting up inception_4c/1x1
I0403 18:54:29.680094 23824 net.cpp:148] Top shape: 24 128 14 14 (602112)
I0403 18:54:29.680110 23824 net.cpp:156] Memory required for data: 1030800672
I0403 18:54:29.680127 23824 layer_factory.hpp:77] Creating layer inception_4c/relu_1x1
I0403 18:54:29.680145 23824 net.cpp:91] Creating Layer inception_4c/relu_1x1
I0403 18:54:29.680158 23824 net.cpp:425] inception_4c/relu_1x1 <- inception_4c/1x1
I0403 18:54:29.680176 23824 net.cpp:386] inception_4c/relu_1x1 -> inception_4c/1x1 (in-place)
I0403 18:54:29.680364 23824 net.cpp:141] Setting up inception_4c/relu_1x1
I0403 18:54:29.680388 23824 net.cpp:148] Top shape: 24 128 14 14 (602112)
I0403 18:54:29.680402 23824 net.cpp:156] Memory required for data: 1033209120
I0403 18:54:29.680415 23824 layer_factory.hpp:77] Creating layer inception_4c/3x3_reduce
I0403 18:54:29.680436 23824 net.cpp:91] Creating Layer inception_4c/3x3_reduce
I0403 18:54:29.680454 23824 net.cpp:425] inception_4c/3x3_reduce <- inception_4b/output_inception_4b/output_0_split_1
I0403 18:54:29.680474 23824 net.cpp:399] inception_4c/3x3_reduce -> inception_4c/3x3_reduce
I0403 18:54:29.682391 23824 net.cpp:141] Setting up inception_4c/3x3_reduce
I0403 18:54:29.682418 23824 net.cpp:148] Top shape: 24 128 14 14 (602112)
I0403 18:54:29.682432 23824 net.cpp:156] Memory required for data: 1035617568
I0403 18:54:29.682449 23824 layer_factory.hpp:77] Creating layer inception_4c/relu_3x3_reduce
I0403 18:54:29.682466 23824 net.cpp:91] Creating Layer inception_4c/relu_3x3_reduce
I0403 18:54:29.682479 23824 net.cpp:425] inception_4c/relu_3x3_reduce <- inception_4c/3x3_reduce
I0403 18:54:29.682497 23824 net.cpp:386] inception_4c/relu_3x3_reduce -> inception_4c/3x3_reduce (in-place)
I0403 18:54:29.682780 23824 net.cpp:141] Setting up inception_4c/relu_3x3_reduce
I0403 18:54:29.682804 23824 net.cpp:148] Top shape: 24 128 14 14 (602112)
I0403 18:54:29.682818 23824 net.cpp:156] Memory required for data: 1038026016
I0403 18:54:29.682838 23824 layer_factory.hpp:77] Creating layer inception_4c/3x3
I0403 18:54:29.682860 23824 net.cpp:91] Creating Layer inception_4c/3x3
I0403 18:54:29.682878 23824 net.cpp:425] inception_4c/3x3 <- inception_4c/3x3_reduce
I0403 18:54:29.682896 23824 net.cpp:399] inception_4c/3x3 -> inception_4c/3x3
I0403 18:54:29.686321 23824 net.cpp:141] Setting up inception_4c/3x3
I0403 18:54:29.686359 23824 net.cpp:148] Top shape: 24 256 14 14 (1204224)
I0403 18:54:29.686374 23824 net.cpp:156] Memory required for data: 1042842912
I0403 18:54:29.686404 23824 layer_factory.hpp:77] Creating layer inception_4c/relu_3x3
I0403 18:54:29.686425 23824 net.cpp:91] Creating Layer inception_4c/relu_3x3
I0403 18:54:29.686441 23824 net.cpp:425] inception_4c/relu_3x3 <- inception_4c/3x3
I0403 18:54:29.686457 23824 net.cpp:386] inception_4c/relu_3x3 -> inception_4c/3x3 (in-place)
I0403 18:54:29.686648 23824 net.cpp:141] Setting up inception_4c/relu_3x3
I0403 18:54:29.686671 23824 net.cpp:148] Top shape: 24 256 14 14 (1204224)
I0403 18:54:29.686684 23824 net.cpp:156] Memory required for data: 1047659808
I0403 18:54:29.686698 23824 layer_factory.hpp:77] Creating layer inception_4c/5x5_reduce
I0403 18:54:29.686718 23824 net.cpp:91] Creating Layer inception_4c/5x5_reduce
I0403 18:54:29.686734 23824 net.cpp:425] inception_4c/5x5_reduce <- inception_4b/output_inception_4b/output_0_split_2
I0403 18:54:29.686755 23824 net.cpp:399] inception_4c/5x5_reduce -> inception_4c/5x5_reduce
I0403 18:54:29.687791 23824 net.cpp:141] Setting up inception_4c/5x5_reduce
I0403 18:54:29.687818 23824 net.cpp:148] Top shape: 24 24 14 14 (112896)
I0403 18:54:29.687831 23824 net.cpp:156] Memory required for data: 1048111392
I0403 18:54:29.687847 23824 layer_factory.hpp:77] Creating layer inception_4c/relu_5x5_reduce
I0403 18:54:29.687866 23824 net.cpp:91] Creating Layer inception_4c/relu_5x5_reduce
I0403 18:54:29.687882 23824 net.cpp:425] inception_4c/relu_5x5_reduce <- inception_4c/5x5_reduce
I0403 18:54:29.687898 23824 net.cpp:386] inception_4c/relu_5x5_reduce -> inception_4c/5x5_reduce (in-place)
I0403 18:54:29.688071 23824 net.cpp:141] Setting up inception_4c/relu_5x5_reduce
I0403 18:54:29.688097 23824 net.cpp:148] Top shape: 24 24 14 14 (112896)
I0403 18:54:29.688110 23824 net.cpp:156] Memory required for data: 1048562976
I0403 18:54:29.688124 23824 layer_factory.hpp:77] Creating layer inception_4c/5x5
I0403 18:54:29.688144 23824 net.cpp:91] Creating Layer inception_4c/5x5
I0403 18:54:29.688160 23824 net.cpp:425] inception_4c/5x5 <- inception_4c/5x5_reduce
I0403 18:54:29.688177 23824 net.cpp:399] inception_4c/5x5 -> inception_4c/5x5
I0403 18:54:29.689354 23824 net.cpp:141] Setting up inception_4c/5x5
I0403 18:54:29.689381 23824 net.cpp:148] Top shape: 24 64 14 14 (301056)
I0403 18:54:29.689395 23824 net.cpp:156] Memory required for data: 1049767200
I0403 18:54:29.689411 23824 layer_factory.hpp:77] Creating layer inception_4c/relu_5x5
I0403 18:54:29.689430 23824 net.cpp:91] Creating Layer inception_4c/relu_5x5
I0403 18:54:29.689446 23824 net.cpp:425] inception_4c/relu_5x5 <- inception_4c/5x5
I0403 18:54:29.689463 23824 net.cpp:386] inception_4c/relu_5x5 -> inception_4c/5x5 (in-place)
I0403 18:54:29.689740 23824 net.cpp:141] Setting up inception_4c/relu_5x5
I0403 18:54:29.689764 23824 net.cpp:148] Top shape: 24 64 14 14 (301056)
I0403 18:54:29.689779 23824 net.cpp:156] Memory required for data: 1050971424
I0403 18:54:29.689791 23824 layer_factory.hpp:77] Creating layer inception_4c/pool
I0403 18:54:29.689810 23824 net.cpp:91] Creating Layer inception_4c/pool
I0403 18:54:29.689826 23824 net.cpp:425] inception_4c/pool <- inception_4b/output_inception_4b/output_0_split_3
I0403 18:54:29.689846 23824 net.cpp:399] inception_4c/pool -> inception_4c/pool
I0403 18:54:29.689906 23824 net.cpp:141] Setting up inception_4c/pool
I0403 18:54:29.689929 23824 net.cpp:148] Top shape: 24 512 14 14 (2408448)
I0403 18:54:29.689941 23824 net.cpp:156] Memory required for data: 1060605216
I0403 18:54:29.689954 23824 layer_factory.hpp:77] Creating layer inception_4c/pool_proj
I0403 18:54:29.689975 23824 net.cpp:91] Creating Layer inception_4c/pool_proj
I0403 18:54:29.689990 23824 net.cpp:425] inception_4c/pool_proj <- inception_4c/pool
I0403 18:54:29.690008 23824 net.cpp:399] inception_4c/pool_proj -> inception_4c/pool_proj
I0403 18:54:29.691159 23824 net.cpp:141] Setting up inception_4c/pool_proj
I0403 18:54:29.691184 23824 net.cpp:148] Top shape: 24 64 14 14 (301056)
I0403 18:54:29.691211 23824 net.cpp:156] Memory required for data: 1061809440
I0403 18:54:29.691229 23824 layer_factory.hpp:77] Creating layer inception_4c/relu_pool_proj
I0403 18:54:29.691249 23824 net.cpp:91] Creating Layer inception_4c/relu_pool_proj
I0403 18:54:29.691265 23824 net.cpp:425] inception_4c/relu_pool_proj <- inception_4c/pool_proj
I0403 18:54:29.691282 23824 net.cpp:386] inception_4c/relu_pool_proj -> inception_4c/pool_proj (in-place)
I0403 18:54:29.691455 23824 net.cpp:141] Setting up inception_4c/relu_pool_proj
I0403 18:54:29.691478 23824 net.cpp:148] Top shape: 24 64 14 14 (301056)
I0403 18:54:29.691491 23824 net.cpp:156] Memory required for data: 1063013664
I0403 18:54:29.691505 23824 layer_factory.hpp:77] Creating layer inception_4c/output
I0403 18:54:29.691524 23824 net.cpp:91] Creating Layer inception_4c/output
I0403 18:54:29.691541 23824 net.cpp:425] inception_4c/output <- inception_4c/1x1
I0403 18:54:29.691558 23824 net.cpp:425] inception_4c/output <- inception_4c/3x3
I0403 18:54:29.691575 23824 net.cpp:425] inception_4c/output <- inception_4c/5x5
I0403 18:54:29.691589 23824 net.cpp:425] inception_4c/output <- inception_4c/pool_proj
I0403 18:54:29.691606 23824 net.cpp:399] inception_4c/output -> inception_4c/output
I0403 18:54:29.691650 23824 net.cpp:141] Setting up inception_4c/output
I0403 18:54:29.691671 23824 net.cpp:148] Top shape: 24 512 14 14 (2408448)
I0403 18:54:29.691684 23824 net.cpp:156] Memory required for data: 1072647456
I0403 18:54:29.691697 23824 layer_factory.hpp:77] Creating layer inception_4c/output_inception_4c/output_0_split
I0403 18:54:29.691714 23824 net.cpp:91] Creating Layer inception_4c/output_inception_4c/output_0_split
I0403 18:54:29.691727 23824 net.cpp:425] inception_4c/output_inception_4c/output_0_split <- inception_4c/output
I0403 18:54:29.691745 23824 net.cpp:399] inception_4c/output_inception_4c/output_0_split -> inception_4c/output_inception_4c/output_0_split_0
I0403 18:54:29.691766 23824 net.cpp:399] inception_4c/output_inception_4c/output_0_split -> inception_4c/output_inception_4c/output_0_split_1
I0403 18:54:29.691784 23824 net.cpp:399] inception_4c/output_inception_4c/output_0_split -> inception_4c/output_inception_4c/output_0_split_2
I0403 18:54:29.691803 23824 net.cpp:399] inception_4c/output_inception_4c/output_0_split -> inception_4c/output_inception_4c/output_0_split_3
I0403 18:54:29.691890 23824 net.cpp:141] Setting up inception_4c/output_inception_4c/output_0_split
I0403 18:54:29.691911 23824 net.cpp:148] Top shape: 24 512 14 14 (2408448)
I0403 18:54:29.691926 23824 net.cpp:148] Top shape: 24 512 14 14 (2408448)
I0403 18:54:29.691939 23824 net.cpp:148] Top shape: 24 512 14 14 (2408448)
I0403 18:54:29.691952 23824 net.cpp:148] Top shape: 24 512 14 14 (2408448)
I0403 18:54:29.691964 23824 net.cpp:156] Memory required for data: 1111182624
I0403 18:54:29.691977 23824 layer_factory.hpp:77] Creating layer inception_4d/1x1
I0403 18:54:29.691998 23824 net.cpp:91] Creating Layer inception_4d/1x1
I0403 18:54:29.692013 23824 net.cpp:425] inception_4d/1x1 <- inception_4c/output_inception_4c/output_0_split_0
I0403 18:54:29.692031 23824 net.cpp:399] inception_4d/1x1 -> inception_4d/1x1
I0403 18:54:29.693330 23824 net.cpp:141] Setting up inception_4d/1x1
I0403 18:54:29.693357 23824 net.cpp:148] Top shape: 24 112 14 14 (526848)
I0403 18:54:29.693372 23824 net.cpp:156] Memory required for data: 1113290016
I0403 18:54:29.693388 23824 layer_factory.hpp:77] Creating layer inception_4d/relu_1x1
I0403 18:54:29.693405 23824 net.cpp:91] Creating Layer inception_4d/relu_1x1
I0403 18:54:29.693420 23824 net.cpp:425] inception_4d/relu_1x1 <- inception_4d/1x1
I0403 18:54:29.693438 23824 net.cpp:386] inception_4d/relu_1x1 -> inception_4d/1x1 (in-place)
I0403 18:54:29.693615 23824 net.cpp:141] Setting up inception_4d/relu_1x1
I0403 18:54:29.693639 23824 net.cpp:148] Top shape: 24 112 14 14 (526848)
I0403 18:54:29.693651 23824 net.cpp:156] Memory required for data: 1115397408
I0403 18:54:29.693665 23824 layer_factory.hpp:77] Creating layer inception_4d/3x3_reduce
I0403 18:54:29.693697 23824 net.cpp:91] Creating Layer inception_4d/3x3_reduce
I0403 18:54:29.693716 23824 net.cpp:425] inception_4d/3x3_reduce <- inception_4c/output_inception_4c/output_0_split_1
I0403 18:54:29.693735 23824 net.cpp:399] inception_4d/3x3_reduce -> inception_4d/3x3_reduce
I0403 18:54:29.695173 23824 net.cpp:141] Setting up inception_4d/3x3_reduce
I0403 18:54:29.695201 23824 net.cpp:148] Top shape: 24 144 14 14 (677376)
I0403 18:54:29.695216 23824 net.cpp:156] Memory required for data: 1118106912
I0403 18:54:29.695233 23824 layer_factory.hpp:77] Creating layer inception_4d/relu_3x3_reduce
I0403 18:54:29.695250 23824 net.cpp:91] Creating Layer inception_4d/relu_3x3_reduce
I0403 18:54:29.695263 23824 net.cpp:425] inception_4d/relu_3x3_reduce <- inception_4d/3x3_reduce
I0403 18:54:29.695278 23824 net.cpp:386] inception_4d/relu_3x3_reduce -> inception_4d/3x3_reduce (in-place)
I0403 18:54:29.695556 23824 net.cpp:141] Setting up inception_4d/relu_3x3_reduce
I0403 18:54:29.695583 23824 net.cpp:148] Top shape: 24 144 14 14 (677376)
I0403 18:54:29.695598 23824 net.cpp:156] Memory required for data: 1120816416
I0403 18:54:29.695611 23824 layer_factory.hpp:77] Creating layer inception_4d/3x3
I0403 18:54:29.695631 23824 net.cpp:91] Creating Layer inception_4d/3x3
I0403 18:54:29.695648 23824 net.cpp:425] inception_4d/3x3 <- inception_4d/3x3_reduce
I0403 18:54:29.695667 23824 net.cpp:399] inception_4d/3x3 -> inception_4d/3x3
I0403 18:54:29.699707 23824 net.cpp:141] Setting up inception_4d/3x3
I0403 18:54:29.699734 23824 net.cpp:148] Top shape: 24 288 14 14 (1354752)
I0403 18:54:29.699748 23824 net.cpp:156] Memory required for data: 1126235424
I0403 18:54:29.699765 23824 layer_factory.hpp:77] Creating layer inception_4d/relu_3x3
I0403 18:54:29.699781 23824 net.cpp:91] Creating Layer inception_4d/relu_3x3
I0403 18:54:29.699796 23824 net.cpp:425] inception_4d/relu_3x3 <- inception_4d/3x3
I0403 18:54:29.699815 23824 net.cpp:386] inception_4d/relu_3x3 -> inception_4d/3x3 (in-place)
I0403 18:54:29.699991 23824 net.cpp:141] Setting up inception_4d/relu_3x3
I0403 18:54:29.700016 23824 net.cpp:148] Top shape: 24 288 14 14 (1354752)
I0403 18:54:29.700028 23824 net.cpp:156] Memory required for data: 1131654432
I0403 18:54:29.700042 23824 layer_factory.hpp:77] Creating layer inception_4d/5x5_reduce
I0403 18:54:29.700062 23824 net.cpp:91] Creating Layer inception_4d/5x5_reduce
I0403 18:54:29.700078 23824 net.cpp:425] inception_4d/5x5_reduce <- inception_4c/output_inception_4c/output_0_split_2
I0403 18:54:29.700098 23824 net.cpp:399] inception_4d/5x5_reduce -> inception_4d/5x5_reduce
I0403 18:54:29.701217 23824 net.cpp:141] Setting up inception_4d/5x5_reduce
I0403 18:54:29.701244 23824 net.cpp:148] Top shape: 24 32 14 14 (150528)
I0403 18:54:29.701259 23824 net.cpp:156] Memory required for data: 1132256544
I0403 18:54:29.701275 23824 layer_factory.hpp:77] Creating layer inception_4d/relu_5x5_reduce
I0403 18:54:29.701294 23824 net.cpp:91] Creating Layer inception_4d/relu_5x5_reduce
I0403 18:54:29.701309 23824 net.cpp:425] inception_4d/relu_5x5_reduce <- inception_4d/5x5_reduce
I0403 18:54:29.701329 23824 net.cpp:386] inception_4d/relu_5x5_reduce -> inception_4d/5x5_reduce (in-place)
I0403 18:54:29.701510 23824 net.cpp:141] Setting up inception_4d/relu_5x5_reduce
I0403 18:54:29.701534 23824 net.cpp:148] Top shape: 24 32 14 14 (150528)
I0403 18:54:29.701552 23824 net.cpp:156] Memory required for data: 1132858656
I0403 18:54:29.701566 23824 layer_factory.hpp:77] Creating layer inception_4d/5x5
I0403 18:54:29.701587 23824 net.cpp:91] Creating Layer inception_4d/5x5
I0403 18:54:29.701606 23824 net.cpp:425] inception_4d/5x5 <- inception_4d/5x5_reduce
I0403 18:54:29.701625 23824 net.cpp:399] inception_4d/5x5 -> inception_4d/5x5
I0403 18:54:29.703063 23824 net.cpp:141] Setting up inception_4d/5x5
I0403 18:54:29.703088 23824 net.cpp:148] Top shape: 24 64 14 14 (301056)
I0403 18:54:29.703104 23824 net.cpp:156] Memory required for data: 1134062880
I0403 18:54:29.703120 23824 layer_factory.hpp:77] Creating layer inception_4d/relu_5x5
I0403 18:54:29.703155 23824 net.cpp:91] Creating Layer inception_4d/relu_5x5
I0403 18:54:29.703171 23824 net.cpp:425] inception_4d/relu_5x5 <- inception_4d/5x5
I0403 18:54:29.703188 23824 net.cpp:386] inception_4d/relu_5x5 -> inception_4d/5x5 (in-place)
I0403 18:54:29.703482 23824 net.cpp:141] Setting up inception_4d/relu_5x5
I0403 18:54:29.703508 23824 net.cpp:148] Top shape: 24 64 14 14 (301056)
I0403 18:54:29.703522 23824 net.cpp:156] Memory required for data: 1135267104
I0403 18:54:29.703541 23824 layer_factory.hpp:77] Creating layer inception_4d/pool
I0403 18:54:29.703569 23824 net.cpp:91] Creating Layer inception_4d/pool
I0403 18:54:29.703585 23824 net.cpp:425] inception_4d/pool <- inception_4c/output_inception_4c/output_0_split_3
I0403 18:54:29.703603 23824 net.cpp:399] inception_4d/pool -> inception_4d/pool
I0403 18:54:29.703668 23824 net.cpp:141] Setting up inception_4d/pool
I0403 18:54:29.703691 23824 net.cpp:148] Top shape: 24 512 14 14 (2408448)
I0403 18:54:29.703704 23824 net.cpp:156] Memory required for data: 1144900896
I0403 18:54:29.703718 23824 layer_factory.hpp:77] Creating layer inception_4d/pool_proj
I0403 18:54:29.703739 23824 net.cpp:91] Creating Layer inception_4d/pool_proj
I0403 18:54:29.703755 23824 net.cpp:425] inception_4d/pool_proj <- inception_4d/pool
I0403 18:54:29.703775 23824 net.cpp:399] inception_4d/pool_proj -> inception_4d/pool_proj
I0403 18:54:29.705498 23824 net.cpp:141] Setting up inception_4d/pool_proj
I0403 18:54:29.705526 23824 net.cpp:148] Top shape: 24 64 14 14 (301056)
I0403 18:54:29.705546 23824 net.cpp:156] Memory required for data: 1146105120
I0403 18:54:29.705564 23824 layer_factory.hpp:77] Creating layer inception_4d/relu_pool_proj
I0403 18:54:29.705581 23824 net.cpp:91] Creating Layer inception_4d/relu_pool_proj
I0403 18:54:29.705596 23824 net.cpp:425] inception_4d/relu_pool_proj <- inception_4d/pool_proj
I0403 18:54:29.705615 23824 net.cpp:386] inception_4d/relu_pool_proj -> inception_4d/pool_proj (in-place)
I0403 18:54:29.705795 23824 net.cpp:141] Setting up inception_4d/relu_pool_proj
I0403 18:54:29.705819 23824 net.cpp:148] Top shape: 24 64 14 14 (301056)
I0403 18:54:29.705833 23824 net.cpp:156] Memory required for data: 1147309344
I0403 18:54:29.705847 23824 layer_factory.hpp:77] Creating layer inception_4d/output
I0403 18:54:29.705865 23824 net.cpp:91] Creating Layer inception_4d/output
I0403 18:54:29.705881 23824 net.cpp:425] inception_4d/output <- inception_4d/1x1
I0403 18:54:29.705896 23824 net.cpp:425] inception_4d/output <- inception_4d/3x3
I0403 18:54:29.705912 23824 net.cpp:425] inception_4d/output <- inception_4d/5x5
I0403 18:54:29.705929 23824 net.cpp:425] inception_4d/output <- inception_4d/pool_proj
I0403 18:54:29.705945 23824 net.cpp:399] inception_4d/output -> inception_4d/output
I0403 18:54:29.705991 23824 net.cpp:141] Setting up inception_4d/output
I0403 18:54:29.706012 23824 net.cpp:148] Top shape: 24 528 14 14 (2483712)
I0403 18:54:29.706027 23824 net.cpp:156] Memory required for data: 1157244192
I0403 18:54:29.706039 23824 layer_factory.hpp:77] Creating layer inception_4d/output_inception_4d/output_0_split
I0403 18:54:29.706055 23824 net.cpp:91] Creating Layer inception_4d/output_inception_4d/output_0_split
I0403 18:54:29.706069 23824 net.cpp:425] inception_4d/output_inception_4d/output_0_split <- inception_4d/output
I0403 18:54:29.706087 23824 net.cpp:399] inception_4d/output_inception_4d/output_0_split -> inception_4d/output_inception_4d/output_0_split_0
I0403 18:54:29.706107 23824 net.cpp:399] inception_4d/output_inception_4d/output_0_split -> inception_4d/output_inception_4d/output_0_split_1
I0403 18:54:29.706127 23824 net.cpp:399] inception_4d/output_inception_4d/output_0_split -> inception_4d/output_inception_4d/output_0_split_2
I0403 18:54:29.706146 23824 net.cpp:399] inception_4d/output_inception_4d/output_0_split -> inception_4d/output_inception_4d/output_0_split_3
I0403 18:54:29.706166 23824 net.cpp:399] inception_4d/output_inception_4d/output_0_split -> inception_4d/output_inception_4d/output_0_split_4
I0403 18:54:29.706267 23824 net.cpp:141] Setting up inception_4d/output_inception_4d/output_0_split
I0403 18:54:29.706302 23824 net.cpp:148] Top shape: 24 528 14 14 (2483712)
I0403 18:54:29.706321 23824 net.cpp:148] Top shape: 24 528 14 14 (2483712)
I0403 18:54:29.706336 23824 net.cpp:148] Top shape: 24 528 14 14 (2483712)
I0403 18:54:29.706351 23824 net.cpp:148] Top shape: 24 528 14 14 (2483712)
I0403 18:54:29.706364 23824 net.cpp:148] Top shape: 24 528 14 14 (2483712)
I0403 18:54:29.706377 23824 net.cpp:156] Memory required for data: 1206918432
I0403 18:54:29.706390 23824 layer_factory.hpp:77] Creating layer loss2/ave_pool
I0403 18:54:29.706406 23824 net.cpp:91] Creating Layer loss2/ave_pool
I0403 18:54:29.706421 23824 net.cpp:425] loss2/ave_pool <- inception_4d/output_inception_4d/output_0_split_0
I0403 18:54:29.706440 23824 net.cpp:399] loss2/ave_pool -> loss2/ave_pool
I0403 18:54:29.706749 23824 net.cpp:141] Setting up loss2/ave_pool
I0403 18:54:29.706774 23824 net.cpp:148] Top shape: 24 528 4 4 (202752)
I0403 18:54:29.706789 23824 net.cpp:156] Memory required for data: 1207729440
I0403 18:54:29.706801 23824 layer_factory.hpp:77] Creating layer loss2/conv
I0403 18:54:29.706822 23824 net.cpp:91] Creating Layer loss2/conv
I0403 18:54:29.706848 23824 net.cpp:425] loss2/conv <- loss2/ave_pool
I0403 18:54:29.706868 23824 net.cpp:399] loss2/conv -> loss2/conv
I0403 18:54:29.708714 23824 net.cpp:141] Setting up loss2/conv
I0403 18:54:29.708740 23824 net.cpp:148] Top shape: 24 128 4 4 (49152)
I0403 18:54:29.708755 23824 net.cpp:156] Memory required for data: 1207926048
I0403 18:54:29.708771 23824 layer_factory.hpp:77] Creating layer loss2/relu_conv
I0403 18:54:29.708791 23824 net.cpp:91] Creating Layer loss2/relu_conv
I0403 18:54:29.708806 23824 net.cpp:425] loss2/relu_conv <- loss2/conv
I0403 18:54:29.708823 23824 net.cpp:386] loss2/relu_conv -> loss2/conv (in-place)
I0403 18:54:29.709106 23824 net.cpp:141] Setting up loss2/relu_conv
I0403 18:54:29.709131 23824 net.cpp:148] Top shape: 24 128 4 4 (49152)
I0403 18:54:29.709146 23824 net.cpp:156] Memory required for data: 1208122656
I0403 18:54:29.709159 23824 layer_factory.hpp:77] Creating layer loss2/fc
I0403 18:54:29.709179 23824 net.cpp:91] Creating Layer loss2/fc
I0403 18:54:29.709197 23824 net.cpp:425] loss2/fc <- loss2/conv
I0403 18:54:29.709218 23824 net.cpp:399] loss2/fc -> loss2/fc
I0403 18:54:29.726228 23824 net.cpp:141] Setting up loss2/fc
I0403 18:54:29.726270 23824 net.cpp:148] Top shape: 24 1024 (24576)
I0403 18:54:29.726284 23824 net.cpp:156] Memory required for data: 1208220960
I0403 18:54:29.726301 23824 layer_factory.hpp:77] Creating layer loss2/relu_fc
I0403 18:54:29.726317 23824 net.cpp:91] Creating Layer loss2/relu_fc
I0403 18:54:29.726332 23824 net.cpp:425] loss2/relu_fc <- loss2/fc
I0403 18:54:29.726351 23824 net.cpp:386] loss2/relu_fc -> loss2/fc (in-place)
I0403 18:54:29.726639 23824 net.cpp:141] Setting up loss2/relu_fc
I0403 18:54:29.726665 23824 net.cpp:148] Top shape: 24 1024 (24576)
I0403 18:54:29.726678 23824 net.cpp:156] Memory required for data: 1208319264
I0403 18:54:29.726692 23824 layer_factory.hpp:77] Creating layer loss2/drop_fc
I0403 18:54:29.726708 23824 net.cpp:91] Creating Layer loss2/drop_fc
I0403 18:54:29.726722 23824 net.cpp:425] loss2/drop_fc <- loss2/fc
I0403 18:54:29.726739 23824 net.cpp:386] loss2/drop_fc -> loss2/fc (in-place)
I0403 18:54:29.726784 23824 net.cpp:141] Setting up loss2/drop_fc
I0403 18:54:29.726809 23824 net.cpp:148] Top shape: 24 1024 (24576)
I0403 18:54:29.726822 23824 net.cpp:156] Memory required for data: 1208417568
I0403 18:54:29.726836 23824 layer_factory.hpp:77] Creating layer loss2/classifier_plantvillage
I0403 18:54:29.726852 23824 net.cpp:91] Creating Layer loss2/classifier_plantvillage
I0403 18:54:29.726866 23824 net.cpp:425] loss2/classifier_plantvillage <- loss2/fc
I0403 18:54:29.726886 23824 net.cpp:399] loss2/classifier_plantvillage -> loss2/classifier_plantvillage
I0403 18:54:29.727263 23824 net.cpp:141] Setting up loss2/classifier_plantvillage
I0403 18:54:29.727288 23824 net.cpp:148] Top shape: 24 38 (912)
I0403 18:54:29.727319 23824 net.cpp:156] Memory required for data: 1208421216
I0403 18:54:29.727336 23824 layer_factory.hpp:77] Creating layer loss2/classifier_plantvillage_loss2/classifier_plantvillage_0_split
I0403 18:54:29.727352 23824 net.cpp:91] Creating Layer loss2/classifier_plantvillage_loss2/classifier_plantvillage_0_split
I0403 18:54:29.727366 23824 net.cpp:425] loss2/classifier_plantvillage_loss2/classifier_plantvillage_0_split <- loss2/classifier_plantvillage
I0403 18:54:29.727381 23824 net.cpp:399] loss2/classifier_plantvillage_loss2/classifier_plantvillage_0_split -> loss2/classifier_plantvillage_loss2/classifier_plantvillage_0_split_0
I0403 18:54:29.727401 23824 net.cpp:399] loss2/classifier_plantvillage_loss2/classifier_plantvillage_0_split -> loss2/classifier_plantvillage_loss2/classifier_plantvillage_0_split_1
I0403 18:54:29.727421 23824 net.cpp:399] loss2/classifier_plantvillage_loss2/classifier_plantvillage_0_split -> loss2/classifier_plantvillage_loss2/classifier_plantvillage_0_split_2
I0403 18:54:29.727495 23824 net.cpp:141] Setting up loss2/classifier_plantvillage_loss2/classifier_plantvillage_0_split
I0403 18:54:29.727516 23824 net.cpp:148] Top shape: 24 38 (912)
I0403 18:54:29.727530 23824 net.cpp:148] Top shape: 24 38 (912)
I0403 18:54:29.727548 23824 net.cpp:148] Top shape: 24 38 (912)
I0403 18:54:29.727562 23824 net.cpp:156] Memory required for data: 1208432160
I0403 18:54:29.727576 23824 layer_factory.hpp:77] Creating layer inception_4e/1x1
I0403 18:54:29.727594 23824 net.cpp:91] Creating Layer inception_4e/1x1
I0403 18:54:29.727609 23824 net.cpp:425] inception_4e/1x1 <- inception_4d/output_inception_4d/output_0_split_1
I0403 18:54:29.727628 23824 net.cpp:399] inception_4e/1x1 -> inception_4e/1x1
I0403 18:54:29.729348 23824 net.cpp:141] Setting up inception_4e/1x1
I0403 18:54:29.729375 23824 net.cpp:148] Top shape: 24 256 14 14 (1204224)
I0403 18:54:29.729389 23824 net.cpp:156] Memory required for data: 1213249056
I0403 18:54:29.729406 23824 layer_factory.hpp:77] Creating layer inception_4e/relu_1x1
I0403 18:54:29.729425 23824 net.cpp:91] Creating Layer inception_4e/relu_1x1
I0403 18:54:29.729440 23824 net.cpp:425] inception_4e/relu_1x1 <- inception_4e/1x1
I0403 18:54:29.729455 23824 net.cpp:386] inception_4e/relu_1x1 -> inception_4e/1x1 (in-place)
I0403 18:54:29.729749 23824 net.cpp:141] Setting up inception_4e/relu_1x1
I0403 18:54:29.729773 23824 net.cpp:148] Top shape: 24 256 14 14 (1204224)
I0403 18:54:29.729787 23824 net.cpp:156] Memory required for data: 1218065952
I0403 18:54:29.729801 23824 layer_factory.hpp:77] Creating layer inception_4e/3x3_reduce
I0403 18:54:29.729823 23824 net.cpp:91] Creating Layer inception_4e/3x3_reduce
I0403 18:54:29.729840 23824 net.cpp:425] inception_4e/3x3_reduce <- inception_4d/output_inception_4d/output_0_split_2
I0403 18:54:29.729857 23824 net.cpp:399] inception_4e/3x3_reduce -> inception_4e/3x3_reduce
I0403 18:54:29.731873 23824 net.cpp:141] Setting up inception_4e/3x3_reduce
I0403 18:54:29.731899 23824 net.cpp:148] Top shape: 24 160 14 14 (752640)
I0403 18:54:29.731914 23824 net.cpp:156] Memory required for data: 1221076512
I0403 18:54:29.731931 23824 layer_factory.hpp:77] Creating layer inception_4e/relu_3x3_reduce
I0403 18:54:29.731950 23824 net.cpp:91] Creating Layer inception_4e/relu_3x3_reduce
I0403 18:54:29.731966 23824 net.cpp:425] inception_4e/relu_3x3_reduce <- inception_4e/3x3_reduce
I0403 18:54:29.731981 23824 net.cpp:386] inception_4e/relu_3x3_reduce -> inception_4e/3x3_reduce (in-place)
I0403 18:54:29.732158 23824 net.cpp:141] Setting up inception_4e/relu_3x3_reduce
I0403 18:54:29.732183 23824 net.cpp:148] Top shape: 24 160 14 14 (752640)
I0403 18:54:29.732198 23824 net.cpp:156] Memory required for data: 1224087072
I0403 18:54:29.732213 23824 layer_factory.hpp:77] Creating layer inception_4e/3x3
I0403 18:54:29.732234 23824 net.cpp:91] Creating Layer inception_4e/3x3
I0403 18:54:29.732249 23824 net.cpp:425] inception_4e/3x3 <- inception_4e/3x3_reduce
I0403 18:54:29.732266 23824 net.cpp:399] inception_4e/3x3 -> inception_4e/3x3
I0403 18:54:29.737020 23824 net.cpp:141] Setting up inception_4e/3x3
I0403 18:54:29.737059 23824 net.cpp:148] Top shape: 24 320 14 14 (1505280)
I0403 18:54:29.737076 23824 net.cpp:156] Memory required for data: 1230108192
I0403 18:54:29.737092 23824 layer_factory.hpp:77] Creating layer inception_4e/relu_3x3
I0403 18:54:29.737109 23824 net.cpp:91] Creating Layer inception_4e/relu_3x3
I0403 18:54:29.737124 23824 net.cpp:425] inception_4e/relu_3x3 <- inception_4e/3x3
I0403 18:54:29.737143 23824 net.cpp:386] inception_4e/relu_3x3 -> inception_4e/3x3 (in-place)
I0403 18:54:29.737424 23824 net.cpp:141] Setting up inception_4e/relu_3x3
I0403 18:54:29.737452 23824 net.cpp:148] Top shape: 24 320 14 14 (1505280)
I0403 18:54:29.737465 23824 net.cpp:156] Memory required for data: 1236129312
I0403 18:54:29.737478 23824 layer_factory.hpp:77] Creating layer inception_4e/5x5_reduce
I0403 18:54:29.737504 23824 net.cpp:91] Creating Layer inception_4e/5x5_reduce
I0403 18:54:29.737520 23824 net.cpp:425] inception_4e/5x5_reduce <- inception_4d/output_inception_4d/output_0_split_3
I0403 18:54:29.737545 23824 net.cpp:399] inception_4e/5x5_reduce -> inception_4e/5x5_reduce
I0403 18:54:29.738557 23824 net.cpp:141] Setting up inception_4e/5x5_reduce
I0403 18:54:29.738591 23824 net.cpp:148] Top shape: 24 32 14 14 (150528)
I0403 18:54:29.738606 23824 net.cpp:156] Memory required for data: 1236731424
I0403 18:54:29.738622 23824 layer_factory.hpp:77] Creating layer inception_4e/relu_5x5_reduce
I0403 18:54:29.738641 23824 net.cpp:91] Creating Layer inception_4e/relu_5x5_reduce
I0403 18:54:29.738657 23824 net.cpp:425] inception_4e/relu_5x5_reduce <- inception_4e/5x5_reduce
I0403 18:54:29.738673 23824 net.cpp:386] inception_4e/relu_5x5_reduce -> inception_4e/5x5_reduce (in-place)
I0403 18:54:29.738955 23824 net.cpp:141] Setting up inception_4e/relu_5x5_reduce
I0403 18:54:29.738978 23824 net.cpp:148] Top shape: 24 32 14 14 (150528)
I0403 18:54:29.738991 23824 net.cpp:156] Memory required for data: 1237333536
I0403 18:54:29.739004 23824 layer_factory.hpp:77] Creating layer inception_4e/5x5
I0403 18:54:29.739039 23824 net.cpp:91] Creating Layer inception_4e/5x5
I0403 18:54:29.739058 23824 net.cpp:425] inception_4e/5x5 <- inception_4e/5x5_reduce
I0403 18:54:29.739078 23824 net.cpp:399] inception_4e/5x5 -> inception_4e/5x5
I0403 18:54:29.740818 23824 net.cpp:141] Setting up inception_4e/5x5
I0403 18:54:29.740844 23824 net.cpp:148] Top shape: 24 128 14 14 (602112)
I0403 18:54:29.740859 23824 net.cpp:156] Memory required for data: 1239741984
I0403 18:54:29.740875 23824 layer_factory.hpp:77] Creating layer inception_4e/relu_5x5
I0403 18:54:29.740895 23824 net.cpp:91] Creating Layer inception_4e/relu_5x5
I0403 18:54:29.740911 23824 net.cpp:425] inception_4e/relu_5x5 <- inception_4e/5x5
I0403 18:54:29.740926 23824 net.cpp:386] inception_4e/relu_5x5 -> inception_4e/5x5 (in-place)
I0403 18:54:29.741112 23824 net.cpp:141] Setting up inception_4e/relu_5x5
I0403 18:54:29.741137 23824 net.cpp:148] Top shape: 24 128 14 14 (602112)
I0403 18:54:29.741149 23824 net.cpp:156] Memory required for data: 1242150432
I0403 18:54:29.741163 23824 layer_factory.hpp:77] Creating layer inception_4e/pool
I0403 18:54:29.741181 23824 net.cpp:91] Creating Layer inception_4e/pool
I0403 18:54:29.741196 23824 net.cpp:425] inception_4e/pool <- inception_4d/output_inception_4d/output_0_split_4
I0403 18:54:29.741214 23824 net.cpp:399] inception_4e/pool -> inception_4e/pool
I0403 18:54:29.741278 23824 net.cpp:141] Setting up inception_4e/pool
I0403 18:54:29.741302 23824 net.cpp:148] Top shape: 24 528 14 14 (2483712)
I0403 18:54:29.741315 23824 net.cpp:156] Memory required for data: 1252085280
I0403 18:54:29.741328 23824 layer_factory.hpp:77] Creating layer inception_4e/pool_proj
I0403 18:54:29.741350 23824 net.cpp:91] Creating Layer inception_4e/pool_proj
I0403 18:54:29.741367 23824 net.cpp:425] inception_4e/pool_proj <- inception_4e/pool
I0403 18:54:29.741387 23824 net.cpp:399] inception_4e/pool_proj -> inception_4e/pool_proj
I0403 18:54:29.742822 23824 net.cpp:141] Setting up inception_4e/pool_proj
I0403 18:54:29.742866 23824 net.cpp:148] Top shape: 24 128 14 14 (602112)
I0403 18:54:29.742882 23824 net.cpp:156] Memory required for data: 1254493728
I0403 18:54:29.742898 23824 layer_factory.hpp:77] Creating layer inception_4e/relu_pool_proj
I0403 18:54:29.742914 23824 net.cpp:91] Creating Layer inception_4e/relu_pool_proj
I0403 18:54:29.742928 23824 net.cpp:425] inception_4e/relu_pool_proj <- inception_4e/pool_proj
I0403 18:54:29.742946 23824 net.cpp:386] inception_4e/relu_pool_proj -> inception_4e/pool_proj (in-place)
I0403 18:54:29.743227 23824 net.cpp:141] Setting up inception_4e/relu_pool_proj
I0403 18:54:29.743252 23824 net.cpp:148] Top shape: 24 128 14 14 (602112)
I0403 18:54:29.743265 23824 net.cpp:156] Memory required for data: 1256902176
I0403 18:54:29.743278 23824 layer_factory.hpp:77] Creating layer inception_4e/output
I0403 18:54:29.743295 23824 net.cpp:91] Creating Layer inception_4e/output
I0403 18:54:29.743310 23824 net.cpp:425] inception_4e/output <- inception_4e/1x1
I0403 18:54:29.743324 23824 net.cpp:425] inception_4e/output <- inception_4e/3x3
I0403 18:54:29.743340 23824 net.cpp:425] inception_4e/output <- inception_4e/5x5
I0403 18:54:29.743355 23824 net.cpp:425] inception_4e/output <- inception_4e/pool_proj
I0403 18:54:29.743371 23824 net.cpp:399] inception_4e/output -> inception_4e/output
I0403 18:54:29.743417 23824 net.cpp:141] Setting up inception_4e/output
I0403 18:54:29.743441 23824 net.cpp:148] Top shape: 24 832 14 14 (3913728)
I0403 18:54:29.743455 23824 net.cpp:156] Memory required for data: 1272557088
I0403 18:54:29.743469 23824 layer_factory.hpp:77] Creating layer pool4/3x3_s2
I0403 18:54:29.743485 23824 net.cpp:91] Creating Layer pool4/3x3_s2
I0403 18:54:29.743499 23824 net.cpp:425] pool4/3x3_s2 <- inception_4e/output
I0403 18:54:29.743515 23824 net.cpp:399] pool4/3x3_s2 -> pool4/3x3_s2
I0403 18:54:29.743582 23824 net.cpp:141] Setting up pool4/3x3_s2
I0403 18:54:29.743605 23824 net.cpp:148] Top shape: 24 832 7 7 (978432)
I0403 18:54:29.743618 23824 net.cpp:156] Memory required for data: 1276470816
I0403 18:54:29.743631 23824 layer_factory.hpp:77] Creating layer pool4/3x3_s2_pool4/3x3_s2_0_split
I0403 18:54:29.743649 23824 net.cpp:91] Creating Layer pool4/3x3_s2_pool4/3x3_s2_0_split
I0403 18:54:29.743664 23824 net.cpp:425] pool4/3x3_s2_pool4/3x3_s2_0_split <- pool4/3x3_s2
I0403 18:54:29.743680 23824 net.cpp:399] pool4/3x3_s2_pool4/3x3_s2_0_split -> pool4/3x3_s2_pool4/3x3_s2_0_split_0
I0403 18:54:29.743698 23824 net.cpp:399] pool4/3x3_s2_pool4/3x3_s2_0_split -> pool4/3x3_s2_pool4/3x3_s2_0_split_1
I0403 18:54:29.743717 23824 net.cpp:399] pool4/3x3_s2_pool4/3x3_s2_0_split -> pool4/3x3_s2_pool4/3x3_s2_0_split_2
I0403 18:54:29.743739 23824 net.cpp:399] pool4/3x3_s2_pool4/3x3_s2_0_split -> pool4/3x3_s2_pool4/3x3_s2_0_split_3
I0403 18:54:29.743824 23824 net.cpp:141] Setting up pool4/3x3_s2_pool4/3x3_s2_0_split
I0403 18:54:29.743845 23824 net.cpp:148] Top shape: 24 832 7 7 (978432)
I0403 18:54:29.743860 23824 net.cpp:148] Top shape: 24 832 7 7 (978432)
I0403 18:54:29.743873 23824 net.cpp:148] Top shape: 24 832 7 7 (978432)
I0403 18:54:29.743887 23824 net.cpp:148] Top shape: 24 832 7 7 (978432)
I0403 18:54:29.743898 23824 net.cpp:156] Memory required for data: 1292125728
I0403 18:54:29.743912 23824 layer_factory.hpp:77] Creating layer inception_5a/1x1
I0403 18:54:29.743932 23824 net.cpp:91] Creating Layer inception_5a/1x1
I0403 18:54:29.743948 23824 net.cpp:425] inception_5a/1x1 <- pool4/3x3_s2_pool4/3x3_s2_0_split_0
I0403 18:54:29.743968 23824 net.cpp:399] inception_5a/1x1 -> inception_5a/1x1
I0403 18:54:29.746703 23824 net.cpp:141] Setting up inception_5a/1x1
I0403 18:54:29.746731 23824 net.cpp:148] Top shape: 24 256 7 7 (301056)
I0403 18:54:29.746745 23824 net.cpp:156] Memory required for data: 1293329952
I0403 18:54:29.746762 23824 layer_factory.hpp:77] Creating layer inception_5a/relu_1x1
I0403 18:54:29.746783 23824 net.cpp:91] Creating Layer inception_5a/relu_1x1
I0403 18:54:29.746799 23824 net.cpp:425] inception_5a/relu_1x1 <- inception_5a/1x1
I0403 18:54:29.746815 23824 net.cpp:386] inception_5a/relu_1x1 -> inception_5a/1x1 (in-place)
I0403 18:54:29.747124 23824 net.cpp:141] Setting up inception_5a/relu_1x1
I0403 18:54:29.747148 23824 net.cpp:148] Top shape: 24 256 7 7 (301056)
I0403 18:54:29.747162 23824 net.cpp:156] Memory required for data: 1294534176
I0403 18:54:29.747175 23824 layer_factory.hpp:77] Creating layer inception_5a/3x3_reduce
I0403 18:54:29.747196 23824 net.cpp:91] Creating Layer inception_5a/3x3_reduce
I0403 18:54:29.747212 23824 net.cpp:425] inception_5a/3x3_reduce <- pool4/3x3_s2_pool4/3x3_s2_0_split_1
I0403 18:54:29.747232 23824 net.cpp:399] inception_5a/3x3_reduce -> inception_5a/3x3_reduce
I0403 18:54:29.749577 23824 net.cpp:141] Setting up inception_5a/3x3_reduce
I0403 18:54:29.749604 23824 net.cpp:148] Top shape: 24 160 7 7 (188160)
I0403 18:54:29.749619 23824 net.cpp:156] Memory required for data: 1295286816
I0403 18:54:29.749635 23824 layer_factory.hpp:77] Creating layer inception_5a/relu_3x3_reduce
I0403 18:54:29.749652 23824 net.cpp:91] Creating Layer inception_5a/relu_3x3_reduce
I0403 18:54:29.749666 23824 net.cpp:425] inception_5a/relu_3x3_reduce <- inception_5a/3x3_reduce
I0403 18:54:29.749685 23824 net.cpp:386] inception_5a/relu_3x3_reduce -> inception_5a/3x3_reduce (in-place)
I0403 18:54:29.749866 23824 net.cpp:141] Setting up inception_5a/relu_3x3_reduce
I0403 18:54:29.749889 23824 net.cpp:148] Top shape: 24 160 7 7 (188160)
I0403 18:54:29.749902 23824 net.cpp:156] Memory required for data: 1296039456
I0403 18:54:29.749915 23824 layer_factory.hpp:77] Creating layer inception_5a/3x3
I0403 18:54:29.749936 23824 net.cpp:91] Creating Layer inception_5a/3x3
I0403 18:54:29.749953 23824 net.cpp:425] inception_5a/3x3 <- inception_5a/3x3_reduce
I0403 18:54:29.749972 23824 net.cpp:399] inception_5a/3x3 -> inception_5a/3x3
I0403 18:54:29.754789 23824 net.cpp:141] Setting up inception_5a/3x3
I0403 18:54:29.754817 23824 net.cpp:148] Top shape: 24 320 7 7 (376320)
I0403 18:54:29.754842 23824 net.cpp:156] Memory required for data: 1297544736
I0403 18:54:29.754858 23824 layer_factory.hpp:77] Creating layer inception_5a/relu_3x3
I0403 18:54:29.754876 23824 net.cpp:91] Creating Layer inception_5a/relu_3x3
I0403 18:54:29.754892 23824 net.cpp:425] inception_5a/relu_3x3 <- inception_5a/3x3
I0403 18:54:29.754909 23824 net.cpp:386] inception_5a/relu_3x3 -> inception_5a/3x3 (in-place)
I0403 18:54:29.755192 23824 net.cpp:141] Setting up inception_5a/relu_3x3
I0403 18:54:29.755216 23824 net.cpp:148] Top shape: 24 320 7 7 (376320)
I0403 18:54:29.755229 23824 net.cpp:156] Memory required for data: 1299050016
I0403 18:54:29.755244 23824 layer_factory.hpp:77] Creating layer inception_5a/5x5_reduce
I0403 18:54:29.755264 23824 net.cpp:91] Creating Layer inception_5a/5x5_reduce
I0403 18:54:29.755281 23824 net.cpp:425] inception_5a/5x5_reduce <- pool4/3x3_s2_pool4/3x3_s2_0_split_2
I0403 18:54:29.755305 23824 net.cpp:399] inception_5a/5x5_reduce -> inception_5a/5x5_reduce
I0403 18:54:29.756418 23824 net.cpp:141] Setting up inception_5a/5x5_reduce
I0403 18:54:29.756448 23824 net.cpp:148] Top shape: 24 32 7 7 (37632)
I0403 18:54:29.756463 23824 net.cpp:156] Memory required for data: 1299200544
I0403 18:54:29.756479 23824 layer_factory.hpp:77] Creating layer inception_5a/relu_5x5_reduce
I0403 18:54:29.756496 23824 net.cpp:91] Creating Layer inception_5a/relu_5x5_reduce
I0403 18:54:29.756510 23824 net.cpp:425] inception_5a/relu_5x5_reduce <- inception_5a/5x5_reduce
I0403 18:54:29.756525 23824 net.cpp:386] inception_5a/relu_5x5_reduce -> inception_5a/5x5_reduce (in-place)
I0403 18:54:29.756845 23824 net.cpp:141] Setting up inception_5a/relu_5x5_reduce
I0403 18:54:29.756870 23824 net.cpp:148] Top shape: 24 32 7 7 (37632)
I0403 18:54:29.756892 23824 net.cpp:156] Memory required for data: 1299351072
I0403 18:54:29.756906 23824 layer_factory.hpp:77] Creating layer inception_5a/5x5
I0403 18:54:29.756927 23824 net.cpp:91] Creating Layer inception_5a/5x5
I0403 18:54:29.756943 23824 net.cpp:425] inception_5a/5x5 <- inception_5a/5x5_reduce
I0403 18:54:29.756963 23824 net.cpp:399] inception_5a/5x5 -> inception_5a/5x5
I0403 18:54:29.758654 23824 net.cpp:141] Setting up inception_5a/5x5
I0403 18:54:29.758692 23824 net.cpp:148] Top shape: 24 128 7 7 (150528)
I0403 18:54:29.758708 23824 net.cpp:156] Memory required for data: 1299953184
I0403 18:54:29.758724 23824 layer_factory.hpp:77] Creating layer inception_5a/relu_5x5
I0403 18:54:29.758744 23824 net.cpp:91] Creating Layer inception_5a/relu_5x5
I0403 18:54:29.758759 23824 net.cpp:425] inception_5a/relu_5x5 <- inception_5a/5x5
I0403 18:54:29.758775 23824 net.cpp:386] inception_5a/relu_5x5 -> inception_5a/5x5 (in-place)
I0403 18:54:29.758960 23824 net.cpp:141] Setting up inception_5a/relu_5x5
I0403 18:54:29.758991 23824 net.cpp:148] Top shape: 24 128 7 7 (150528)
I0403 18:54:29.759006 23824 net.cpp:156] Memory required for data: 1300555296
I0403 18:54:29.759019 23824 layer_factory.hpp:77] Creating layer inception_5a/pool
I0403 18:54:29.759035 23824 net.cpp:91] Creating Layer inception_5a/pool
I0403 18:54:29.759049 23824 net.cpp:425] inception_5a/pool <- pool4/3x3_s2_pool4/3x3_s2_0_split_3
I0403 18:54:29.759066 23824 net.cpp:399] inception_5a/pool -> inception_5a/pool
I0403 18:54:29.759135 23824 net.cpp:141] Setting up inception_5a/pool
I0403 18:54:29.759157 23824 net.cpp:148] Top shape: 24 832 7 7 (978432)
I0403 18:54:29.759171 23824 net.cpp:156] Memory required for data: 1304469024
I0403 18:54:29.759183 23824 layer_factory.hpp:77] Creating layer inception_5a/pool_proj
I0403 18:54:29.759204 23824 net.cpp:91] Creating Layer inception_5a/pool_proj
I0403 18:54:29.759220 23824 net.cpp:425] inception_5a/pool_proj <- inception_5a/pool
I0403 18:54:29.759240 23824 net.cpp:399] inception_5a/pool_proj -> inception_5a/pool_proj
I0403 18:54:29.761478 23824 net.cpp:141] Setting up inception_5a/pool_proj
I0403 18:54:29.761507 23824 net.cpp:148] Top shape: 24 128 7 7 (150528)
I0403 18:54:29.761520 23824 net.cpp:156] Memory required for data: 1305071136
I0403 18:54:29.761541 23824 layer_factory.hpp:77] Creating layer inception_5a/relu_pool_proj
I0403 18:54:29.761562 23824 net.cpp:91] Creating Layer inception_5a/relu_pool_proj
I0403 18:54:29.761579 23824 net.cpp:425] inception_5a/relu_pool_proj <- inception_5a/pool_proj
I0403 18:54:29.761595 23824 net.cpp:386] inception_5a/relu_pool_proj -> inception_5a/pool_proj (in-place)
I0403 18:54:29.761883 23824 net.cpp:141] Setting up inception_5a/relu_pool_proj
I0403 18:54:29.761907 23824 net.cpp:148] Top shape: 24 128 7 7 (150528)
I0403 18:54:29.761921 23824 net.cpp:156] Memory required for data: 1305673248
I0403 18:54:29.761935 23824 layer_factory.hpp:77] Creating layer inception_5a/output
I0403 18:54:29.761951 23824 net.cpp:91] Creating Layer inception_5a/output
I0403 18:54:29.761965 23824 net.cpp:425] inception_5a/output <- inception_5a/1x1
I0403 18:54:29.761981 23824 net.cpp:425] inception_5a/output <- inception_5a/3x3
I0403 18:54:29.761996 23824 net.cpp:425] inception_5a/output <- inception_5a/5x5
I0403 18:54:29.762012 23824 net.cpp:425] inception_5a/output <- inception_5a/pool_proj
I0403 18:54:29.762029 23824 net.cpp:399] inception_5a/output -> inception_5a/output
I0403 18:54:29.762079 23824 net.cpp:141] Setting up inception_5a/output
I0403 18:54:29.762102 23824 net.cpp:148] Top shape: 24 832 7 7 (978432)
I0403 18:54:29.762117 23824 net.cpp:156] Memory required for data: 1309586976
I0403 18:54:29.762130 23824 layer_factory.hpp:77] Creating layer inception_5a/output_inception_5a/output_0_split
I0403 18:54:29.762146 23824 net.cpp:91] Creating Layer inception_5a/output_inception_5a/output_0_split
I0403 18:54:29.762161 23824 net.cpp:425] inception_5a/output_inception_5a/output_0_split <- inception_5a/output
I0403 18:54:29.762179 23824 net.cpp:399] inception_5a/output_inception_5a/output_0_split -> inception_5a/output_inception_5a/output_0_split_0
I0403 18:54:29.762199 23824 net.cpp:399] inception_5a/output_inception_5a/output_0_split -> inception_5a/output_inception_5a/output_0_split_1
I0403 18:54:29.762219 23824 net.cpp:399] inception_5a/output_inception_5a/output_0_split -> inception_5a/output_inception_5a/output_0_split_2
I0403 18:54:29.762239 23824 net.cpp:399] inception_5a/output_inception_5a/output_0_split -> inception_5a/output_inception_5a/output_0_split_3
I0403 18:54:29.762346 23824 net.cpp:141] Setting up inception_5a/output_inception_5a/output_0_split
I0403 18:54:29.762368 23824 net.cpp:148] Top shape: 24 832 7 7 (978432)
I0403 18:54:29.762383 23824 net.cpp:148] Top shape: 24 832 7 7 (978432)
I0403 18:54:29.762398 23824 net.cpp:148] Top shape: 24 832 7 7 (978432)
I0403 18:54:29.762411 23824 net.cpp:148] Top shape: 24 832 7 7 (978432)
I0403 18:54:29.762424 23824 net.cpp:156] Memory required for data: 1325241888
I0403 18:54:29.762437 23824 layer_factory.hpp:77] Creating layer inception_5b/1x1
I0403 18:54:29.762461 23824 net.cpp:91] Creating Layer inception_5b/1x1
I0403 18:54:29.762478 23824 net.cpp:425] inception_5b/1x1 <- inception_5a/output_inception_5a/output_0_split_0
I0403 18:54:29.762498 23824 net.cpp:399] inception_5b/1x1 -> inception_5b/1x1
I0403 18:54:29.766203 23824 net.cpp:141] Setting up inception_5b/1x1
I0403 18:54:29.766232 23824 net.cpp:148] Top shape: 24 384 7 7 (451584)
I0403 18:54:29.766254 23824 net.cpp:156] Memory required for data: 1327048224
I0403 18:54:29.766273 23824 layer_factory.hpp:77] Creating layer inception_5b/relu_1x1
I0403 18:54:29.766289 23824 net.cpp:91] Creating Layer inception_5b/relu_1x1
I0403 18:54:29.766304 23824 net.cpp:425] inception_5b/relu_1x1 <- inception_5b/1x1
I0403 18:54:29.766322 23824 net.cpp:386] inception_5b/relu_1x1 -> inception_5b/1x1 (in-place)
I0403 18:54:29.766630 23824 net.cpp:141] Setting up inception_5b/relu_1x1
I0403 18:54:29.766655 23824 net.cpp:148] Top shape: 24 384 7 7 (451584)
I0403 18:54:29.766669 23824 net.cpp:156] Memory required for data: 1328854560
I0403 18:54:29.766682 23824 layer_factory.hpp:77] Creating layer inception_5b/3x3_reduce
I0403 18:54:29.766703 23824 net.cpp:91] Creating Layer inception_5b/3x3_reduce
I0403 18:54:29.766721 23824 net.cpp:425] inception_5b/3x3_reduce <- inception_5a/output_inception_5a/output_0_split_1
I0403 18:54:29.766742 23824 net.cpp:399] inception_5b/3x3_reduce -> inception_5b/3x3_reduce
I0403 18:54:29.769347 23824 net.cpp:141] Setting up inception_5b/3x3_reduce
I0403 18:54:29.769376 23824 net.cpp:148] Top shape: 24 192 7 7 (225792)
I0403 18:54:29.769390 23824 net.cpp:156] Memory required for data: 1329757728
I0403 18:54:29.769407 23824 layer_factory.hpp:77] Creating layer inception_5b/relu_3x3_reduce
I0403 18:54:29.769424 23824 net.cpp:91] Creating Layer inception_5b/relu_3x3_reduce
I0403 18:54:29.769439 23824 net.cpp:425] inception_5b/relu_3x3_reduce <- inception_5b/3x3_reduce
I0403 18:54:29.769459 23824 net.cpp:386] inception_5b/relu_3x3_reduce -> inception_5b/3x3_reduce (in-place)
I0403 18:54:29.769650 23824 net.cpp:141] Setting up inception_5b/relu_3x3_reduce
I0403 18:54:29.769675 23824 net.cpp:148] Top shape: 24 192 7 7 (225792)
I0403 18:54:29.769688 23824 net.cpp:156] Memory required for data: 1330660896
I0403 18:54:29.769702 23824 layer_factory.hpp:77] Creating layer inception_5b/3x3
I0403 18:54:29.769723 23824 net.cpp:91] Creating Layer inception_5b/3x3
I0403 18:54:29.769740 23824 net.cpp:425] inception_5b/3x3 <- inception_5b/3x3_reduce
I0403 18:54:29.769762 23824 net.cpp:399] inception_5b/3x3 -> inception_5b/3x3
I0403 18:54:29.776357 23824 net.cpp:141] Setting up inception_5b/3x3
I0403 18:54:29.776384 23824 net.cpp:148] Top shape: 24 384 7 7 (451584)
I0403 18:54:29.776398 23824 net.cpp:156] Memory required for data: 1332467232
I0403 18:54:29.776414 23824 layer_factory.hpp:77] Creating layer inception_5b/relu_3x3
I0403 18:54:29.776434 23824 net.cpp:91] Creating Layer inception_5b/relu_3x3
I0403 18:54:29.776450 23824 net.cpp:425] inception_5b/relu_3x3 <- inception_5b/3x3
I0403 18:54:29.776466 23824 net.cpp:386] inception_5b/relu_3x3 -> inception_5b/3x3 (in-place)
I0403 18:54:29.776762 23824 net.cpp:141] Setting up inception_5b/relu_3x3
I0403 18:54:29.776787 23824 net.cpp:148] Top shape: 24 384 7 7 (451584)
I0403 18:54:29.776800 23824 net.cpp:156] Memory required for data: 1334273568
I0403 18:54:29.776814 23824 layer_factory.hpp:77] Creating layer inception_5b/5x5_reduce
I0403 18:54:29.776862 23824 net.cpp:91] Creating Layer inception_5b/5x5_reduce
I0403 18:54:29.776880 23824 net.cpp:425] inception_5b/5x5_reduce <- inception_5a/output_inception_5a/output_0_split_2
I0403 18:54:29.776901 23824 net.cpp:399] inception_5b/5x5_reduce -> inception_5b/5x5_reduce
I0403 18:54:29.778110 23824 net.cpp:141] Setting up inception_5b/5x5_reduce
I0403 18:54:29.778136 23824 net.cpp:148] Top shape: 24 48 7 7 (56448)
I0403 18:54:29.778151 23824 net.cpp:156] Memory required for data: 1334499360
I0403 18:54:29.778167 23824 layer_factory.hpp:77] Creating layer inception_5b/relu_5x5_reduce
I0403 18:54:29.778183 23824 net.cpp:91] Creating Layer inception_5b/relu_5x5_reduce
I0403 18:54:29.778198 23824 net.cpp:425] inception_5b/relu_5x5_reduce <- inception_5b/5x5_reduce
I0403 18:54:29.778218 23824 net.cpp:386] inception_5b/relu_5x5_reduce -> inception_5b/5x5_reduce (in-place)
I0403 18:54:29.778590 23824 net.cpp:141] Setting up inception_5b/relu_5x5_reduce
I0403 18:54:29.778615 23824 net.cpp:148] Top shape: 24 48 7 7 (56448)
I0403 18:54:29.778630 23824 net.cpp:156] Memory required for data: 1334725152
I0403 18:54:29.778643 23824 layer_factory.hpp:77] Creating layer inception_5b/5x5
I0403 18:54:29.778661 23824 net.cpp:91] Creating Layer inception_5b/5x5
I0403 18:54:29.778676 23824 net.cpp:425] inception_5b/5x5 <- inception_5b/5x5_reduce
I0403 18:54:29.778694 23824 net.cpp:399] inception_5b/5x5 -> inception_5b/5x5
I0403 18:54:29.780649 23824 net.cpp:141] Setting up inception_5b/5x5
I0403 18:54:29.780675 23824 net.cpp:148] Top shape: 24 128 7 7 (150528)
I0403 18:54:29.780689 23824 net.cpp:156] Memory required for data: 1335327264
I0403 18:54:29.780705 23824 layer_factory.hpp:77] Creating layer inception_5b/relu_5x5
I0403 18:54:29.780725 23824 net.cpp:91] Creating Layer inception_5b/relu_5x5
I0403 18:54:29.780740 23824 net.cpp:425] inception_5b/relu_5x5 <- inception_5b/5x5
I0403 18:54:29.780757 23824 net.cpp:386] inception_5b/relu_5x5 -> inception_5b/5x5 (in-place)
I0403 18:54:29.780941 23824 net.cpp:141] Setting up inception_5b/relu_5x5
I0403 18:54:29.780964 23824 net.cpp:148] Top shape: 24 128 7 7 (150528)
I0403 18:54:29.780978 23824 net.cpp:156] Memory required for data: 1335929376
I0403 18:54:29.780992 23824 layer_factory.hpp:77] Creating layer inception_5b/pool
I0403 18:54:29.781013 23824 net.cpp:91] Creating Layer inception_5b/pool
I0403 18:54:29.781040 23824 net.cpp:425] inception_5b/pool <- inception_5a/output_inception_5a/output_0_split_3
I0403 18:54:29.781059 23824 net.cpp:399] inception_5b/pool -> inception_5b/pool
I0403 18:54:29.781131 23824 net.cpp:141] Setting up inception_5b/pool
I0403 18:54:29.781153 23824 net.cpp:148] Top shape: 24 832 7 7 (978432)
I0403 18:54:29.781167 23824 net.cpp:156] Memory required for data: 1339843104
I0403 18:54:29.781179 23824 layer_factory.hpp:77] Creating layer inception_5b/pool_proj
I0403 18:54:29.781200 23824 net.cpp:91] Creating Layer inception_5b/pool_proj
I0403 18:54:29.781218 23824 net.cpp:425] inception_5b/pool_proj <- inception_5b/pool
I0403 18:54:29.781239 23824 net.cpp:399] inception_5b/pool_proj -> inception_5b/pool_proj
I0403 18:54:29.783463 23824 net.cpp:141] Setting up inception_5b/pool_proj
I0403 18:54:29.783489 23824 net.cpp:148] Top shape: 24 128 7 7 (150528)
I0403 18:54:29.783504 23824 net.cpp:156] Memory required for data: 1340445216
I0403 18:54:29.783520 23824 layer_factory.hpp:77] Creating layer inception_5b/relu_pool_proj
I0403 18:54:29.783540 23824 net.cpp:91] Creating Layer inception_5b/relu_pool_proj
I0403 18:54:29.783557 23824 net.cpp:425] inception_5b/relu_pool_proj <- inception_5b/pool_proj
I0403 18:54:29.783576 23824 net.cpp:386] inception_5b/relu_pool_proj -> inception_5b/pool_proj (in-place)
I0403 18:54:29.783861 23824 net.cpp:141] Setting up inception_5b/relu_pool_proj
I0403 18:54:29.783886 23824 net.cpp:148] Top shape: 24 128 7 7 (150528)
I0403 18:54:29.783900 23824 net.cpp:156] Memory required for data: 1341047328
I0403 18:54:29.783913 23824 layer_factory.hpp:77] Creating layer inception_5b/output
I0403 18:54:29.783929 23824 net.cpp:91] Creating Layer inception_5b/output
I0403 18:54:29.783958 23824 net.cpp:425] inception_5b/output <- inception_5b/1x1
I0403 18:54:29.783974 23824 net.cpp:425] inception_5b/output <- inception_5b/3x3
I0403 18:54:29.783989 23824 net.cpp:425] inception_5b/output <- inception_5b/5x5
I0403 18:54:29.784004 23824 net.cpp:425] inception_5b/output <- inception_5b/pool_proj
I0403 18:54:29.784023 23824 net.cpp:399] inception_5b/output -> inception_5b/output
I0403 18:54:29.784071 23824 net.cpp:141] Setting up inception_5b/output
I0403 18:54:29.784096 23824 net.cpp:148] Top shape: 24 1024 7 7 (1204224)
I0403 18:54:29.784111 23824 net.cpp:156] Memory required for data: 1345864224
I0403 18:54:29.784126 23824 layer_factory.hpp:77] Creating layer pool5/7x7_s1
I0403 18:54:29.784140 23824 net.cpp:91] Creating Layer pool5/7x7_s1
I0403 18:54:29.784155 23824 net.cpp:425] pool5/7x7_s1 <- inception_5b/output
I0403 18:54:29.784174 23824 net.cpp:399] pool5/7x7_s1 -> pool5/7x7_s1
I0403 18:54:29.784385 23824 net.cpp:141] Setting up pool5/7x7_s1
I0403 18:54:29.784409 23824 net.cpp:148] Top shape: 24 1024 1 1 (24576)
I0403 18:54:29.784423 23824 net.cpp:156] Memory required for data: 1345962528
I0403 18:54:29.784437 23824 layer_factory.hpp:77] Creating layer pool5/drop_7x7_s1
I0403 18:54:29.784453 23824 net.cpp:91] Creating Layer pool5/drop_7x7_s1
I0403 18:54:29.784467 23824 net.cpp:425] pool5/drop_7x7_s1 <- pool5/7x7_s1
I0403 18:54:29.784487 23824 net.cpp:386] pool5/drop_7x7_s1 -> pool5/7x7_s1 (in-place)
I0403 18:54:29.784544 23824 net.cpp:141] Setting up pool5/drop_7x7_s1
I0403 18:54:29.784567 23824 net.cpp:148] Top shape: 24 1024 1 1 (24576)
I0403 18:54:29.784581 23824 net.cpp:156] Memory required for data: 1346060832
I0403 18:54:29.784593 23824 layer_factory.hpp:77] Creating layer loss3/classifier_plantvillage
I0403 18:54:29.784611 23824 net.cpp:91] Creating Layer loss3/classifier_plantvillage
I0403 18:54:29.784626 23824 net.cpp:425] loss3/classifier_plantvillage <- pool5/7x7_s1
I0403 18:54:29.784646 23824 net.cpp:399] loss3/classifier_plantvillage -> loss3/classifier_plantvillage
I0403 18:54:29.785049 23824 net.cpp:141] Setting up loss3/classifier_plantvillage
I0403 18:54:29.785071 23824 net.cpp:148] Top shape: 24 38 (912)
I0403 18:54:29.785085 23824 net.cpp:156] Memory required for data: 1346064480
I0403 18:54:29.785101 23824 layer_factory.hpp:77] Creating layer loss3/classifier_plantvillage_loss3/classifier_plantvillage_0_split
I0403 18:54:29.785120 23824 net.cpp:91] Creating Layer loss3/classifier_plantvillage_loss3/classifier_plantvillage_0_split
I0403 18:54:29.785136 23824 net.cpp:425] loss3/classifier_plantvillage_loss3/classifier_plantvillage_0_split <- loss3/classifier_plantvillage
I0403 18:54:29.785154 23824 net.cpp:399] loss3/classifier_plantvillage_loss3/classifier_plantvillage_0_split -> loss3/classifier_plantvillage_loss3/classifier_plantvillage_0_split_0
I0403 18:54:29.785173 23824 net.cpp:399] loss3/classifier_plantvillage_loss3/classifier_plantvillage_0_split -> loss3/classifier_plantvillage_loss3/classifier_plantvillage_0_split_1
I0403 18:54:29.785192 23824 net.cpp:399] loss3/classifier_plantvillage_loss3/classifier_plantvillage_0_split -> loss3/classifier_plantvillage_loss3/classifier_plantvillage_0_split_2
I0403 18:54:29.785212 23824 net.cpp:399] loss3/classifier_plantvillage_loss3/classifier_plantvillage_0_split -> loss3/classifier_plantvillage_loss3/classifier_plantvillage_0_split_3
I0403 18:54:29.785305 23824 net.cpp:141] Setting up loss3/classifier_plantvillage_loss3/classifier_plantvillage_0_split
I0403 18:54:29.785327 23824 net.cpp:148] Top shape: 24 38 (912)
I0403 18:54:29.785341 23824 net.cpp:148] Top shape: 24 38 (912)
I0403 18:54:29.785356 23824 net.cpp:148] Top shape: 24 38 (912)
I0403 18:54:29.785368 23824 net.cpp:148] Top shape: 24 38 (912)
I0403 18:54:29.785380 23824 net.cpp:156] Memory required for data: 1346079072
I0403 18:54:29.785393 23824 layer_factory.hpp:77] Creating layer loss1/loss
I0403 18:54:29.785413 23824 net.cpp:91] Creating Layer loss1/loss
I0403 18:54:29.785429 23824 net.cpp:425] loss1/loss <- loss1/classifier_plantvillage_loss1/classifier_plantvillage_0_split_0
I0403 18:54:29.785456 23824 net.cpp:425] loss1/loss <- label_data_1_split_0
…
