…
I0403 18:38:01.912636 23026 net.cpp:313] The NetState phase (1) differed from the phase (0) specified by a rule in layer data
I0403 18:38:01.915011 23026 net.cpp:49] Initializing net from parameters: 
state {
  phase: TEST
}
layer {
  name: "data"
  type: "Data"
  top: "data"
  top: "label"
  include {
    phase: TEST
  }
  transform_param {
    mirror: false
    crop_size: 224
    mean_file: "/home/mohanty/data/final_dataset/lmdb/segmented-40-60/mean.binaryproto"
  }
  data_param {
    source: "/home/mohanty/data/final_dataset/lmdb/segmented-40-60/test_db"
    batch_size: 24
    backend: LMDB
  }
}
layer {
  name: "conv1/7x7_s2"
  type: "Convolution"
  bottom: "data"
  top: "conv1/7x7_s2"
  param {
    lr_mult: 1
    decay_mult: 1
  }
  param {
    lr_mult: 2
    decay_mult: 0
  }
  convolution_param {
    num_output: 64
    pad: 3
    kernel_size: 7
    stride: 2
    weight_filler {
      type: "xavier"
      std: 0.1
    }
    bias_filler {
      type: "constant"
      value: 0.2
    }
  }
}
layer {
  name: "conv1/relu_7x7"
  type: "ReLU"
  bottom: "conv1/7x7_s2"
  top: "conv1/7x7_s2"
}
layer {
  name: "pool1/3x3_s2"
  type: "Pooling"
  bottom: "conv1/7x7_s2"
  top: "pool1/3x3_s2"
  pooling_param {
    pool: MAX
    kernel_size: 3
    stride: 2
  }
}
layer {
  name: "pool1/norm1"
  type: "LRN"
  bottom: "pool1/3x3_s2"
  top: "pool1/norm1"
  lrn_param {
    local_size: 5
    alpha: 0.0001
    beta: 0.75
  }
}
layer {
  name: "conv2/3x3_reduce"
  type: "Convolution"
  bottom: "pool1/norm1"
  top: "conv2/3x3_reduce"
  param {
    lr_mult: 1
    decay_mult: 1
  }
  param {
    lr_mult: 2
    decay_mult: 0
  }
  convolution_param {
    num_output: 64
    kernel_size: 1
    weight_filler {
      type: "xavier"
      std: 0.1
    }
    bias_filler {
      type: "constant"
      value: 0.2
    }
  }
}
layer {
  name: "conv2/relu_3x3_reduce"
  type: "ReLU"
  bottom: "conv2/3x3_reduce"
  top: "conv2/3x3_reduce"
}
layer {
  name: "conv2/3x3"
  type: "Convolution"
  bottom: "conv2/3x3_reduce"
  top: "conv2/3x3"
  param {
    lr_mult: 1
    decay_mult: 1
  }
  param {
    lr_mult: 2
    decay_mult: 0
  }
  convolution_param {
    num_output: 192
    pad: 1
    kernel_size: 3
    weight_filler {
      type: "xavier"
      std: 0.03
    }
    bias_filler {
      type: "constant"
      value: 0.2
    }
  }
}
layer {
  name: "conv2/relu_3x3"
  type: "ReLU"
  bottom: "conv2/3x3"
  top: "conv2/3x3"
}
layer {
  name: "conv2/norm2"
  type: "LRN"
  bottom: "conv2/3x3"
  top: "conv2/norm2"
  lrn_param {
    local_size: 5
    alpha: 0.0001
    beta: 0.75
  }
}
layer {
  name: "pool2/3x3_s2"
  type: "Pooling"
  bottom: "conv2/norm2"
  top: "pool2/3x3_s2"
  pooling_param {
    pool: MAX
    kernel_size: 3
    stride: 2
  }
}
layer {
  name: "inception_3a/1x1"
  type: "Convolution"
  bottom: "pool2/3x3_s2"
  top: "inception_3a/1x1"
  param {
    lr_mult: 1
    decay_mult: 1
  }
  param {
    lr_mult: 2
    decay_mult: 0
  }
  convolution_param {
    num_output: 64
    kernel_size: 1
    weight_filler {
      type: "xavier"
      std: 0.03
    }
    bias_filler {
      type: "constant"
      value: 0.2
    }
  }
}
layer {
  name: "inception_3a/relu_1x1"
  type: "ReLU"
  bottom: "inception_3a/1x1"
  top: "inception_3a/1x1"
}
layer {
  name: "inception_3a/3x3_reduce"
  type: "Convolution"
  bottom: "pool2/3x3_s2"
  top: "inception_3a/3x3_reduce"
  param {
    lr_mult: 1
    decay_mult: 1
  }
  param {
    lr_mult: 2
    decay_mult: 0
  }
  convolution_param {
    num_output: 96
    kernel_size: 1
    weight_filler {
      type: "xavier"
      std: 0.09
    }
    bias_filler {
      type: "constant"
      value: 0.2
    }
  }
}
layer {
  name: "inception_3a/relu_3x3_reduce"
  type: "ReLU"
  bottom: "inception_3a/3x3_reduce"
  top: "inception_3a/3x3_reduce"
}
layer {
  name: "inception_3a/3x3"
  type: "Convolution"
  bottom: "inception_3a/3x3_reduce"
  top: "inception_3a/3x3"
  param {
    lr_mult: 1
    decay_mult: 1
  }
  param {
    lr_mult: 2
    decay_mult: 0
  }
  convolution_param {
    num_output: 128
    pad: 1
    kernel_size: 3
    weight_filler {
      type: "xavier"
      std: 0.03
    }
    bias_filler {
      type: "constant"
      value: 0.2
    }
  }
}
layer {
  name: "inception_3a/relu_3x3"
  type: "ReLU"
  bottom: "inception_3a/3x3"
  top: "inception_3a/3x3"
}
layer {
  name: "inception_3a/5x5_reduce"
  type: "Convolution"
  bottom: "pool2/3x3_s2"
  top: "inception_3a/5x5_reduce"
  param {
    lr_mult: 1
    decay_mult: 1
  }
  param {
    lr_mult: 2
    decay_mult: 0
  }
  convolution_param {
    num_output: 16
    kernel_size: 1
    weight_filler {
      type: "xavier"
      std: 0.2
    }
    bias_filler {
      type: "constant"
      value: 0.2
    }
  }
}
layer {
  name: "inception_3a/relu_5x5_reduce"
  type: "ReLU"
  bottom: "inception_3a/5x5_reduce"
  top: "inception_3a/5x5_reduce"
}
layer {
  name: "inception_3a/5x5"
  type: "Convolution"
  bottom: "inception_3a/5x5_reduce"
  top: "inception_3a/5x5"
  param {
    lr_mult: 1
    decay_mult: 1
  }
  param {
    lr_mult: 2
    decay_mult: 0
  }
  convolution_param {
    num_output: 32
    pad: 2
    kernel_size: 5
    weight_filler {
      type: "xavier"
      std: 0.03
    }
    bias_filler {
      type: "constant"
      value: 0.2
    }
  }
}
layer {
  name: "inception_3a/relu_5x5"
  type: "ReLU"
  bottom: "inception_3a/5x5"
  top: "inception_3a/5x5"
}
layer {
  name: "inception_3a/pool"
  type: "Pooling"
  bottom: "pool2/3x3_s2"
  top: "inception_3a/pool"
  pooling_param {
    pool: MAX
    kernel_size: 3
    stride: 1
    pad: 1
  }
}
layer {
  name: "inception_3a/pool_proj"
  type: "Convolution"
  bottom: "inception_3a/pool"
  top: "inception_3a/pool_proj"
  param {
    lr_mult: 1
    decay_mult: 1
  }
  param {
    lr_mult: 2
    decay_mult: 0
  }
  convolution_param {
    num_output: 32
    kernel_size: 1
    weight_filler {
      type: "xavier"
      std: 0.1
    }
    bias_filler {
      type: "constant"
      value: 0.2
    }
  }
}
layer {
  name: "inception_3a/relu_pool_proj"
  type: "ReLU"
  bottom: "inception_3a/pool_proj"
  top: "inception_3a/pool_proj"
}
layer {
  name: "inception_3a/output"
  type: "Concat"
  bottom: "inception_3a/1x1"
  bottom: "inception_3a/3x3"
  bottom: "inception_3a/5x5"
  bottom: "inception_3a/pool_proj"
  top: "inception_3a/output"
}
layer {
  name: "inception_3b/1x1"
  type: "Convolution"
  bottom: "inception_3a/output"
  top: "inception_3b/1x1"
  param {
    lr_mult: 1
    decay_mult: 1
  }
  param {
    lr_mult: 2
    decay_mult: 0
  }
  convolution_param {
    num_output: 128
    kernel_size: 1
    weight_filler {
      type: "xavier"
      std: 0.03
    }
    bias_filler {
      type: "constant"
      value: 0.2
    }
  }
}
layer {
  name: "inception_3b/relu_1x1"
  type: "ReLU"
  bottom: "inception_3b/1x1"
  top: "inception_3b/1x1"
}
layer {
  name: "inception_3b/3x3_reduce"
  type: "Convolution"
  bottom: "inception_3a/output"
  top: "inception_3b/3x3_reduce"
  param {
    lr_mult: 1
    decay_mult: 1
  }
  param {
    lr_mult: 2
    decay_mult: 0
  }
  convolution_param {
    num_output: 128
    kernel_size: 1
    weight_filler {
      type: "xavier"
      std: 0.09
    }
    bias_filler {
      type: "constant"
      value: 0.2
    }
  }
}
layer {
  name: "inception_3b/relu_3x3_reduce"
  type: "ReLU"
  bottom: "inception_3b/3x3_reduce"
  top: "inception_3b/3x3_reduce"
}
layer {
  name: "inception_3b/3x3"
  type: "Convolution"
  bottom: "inception_3b/3x3_reduce"
  top: "inception_3b/3x3"
  param {
    lr_mult: 1
    decay_mult: 1
  }
  param {
    lr_mult: 2
    decay_mult: 0
  }
  convolution_param {
    num_output: 192
    pad: 1
    kernel_size: 3
    weight_filler {
      type: "xavier"
      std: 0.03
    }
    bias_filler {
      type: "constant"
      value: 0.2
    }
  }
}
layer {
  name: "inception_3b/relu_3x3"
  type: "ReLU"
  bottom: "inception_3b/3x3"
  top: "inception_3b/3x3"
}
layer {
  name: "inception_3b/5x5_reduce"
  type: "Convolution"
  bottom: "inception_3a/output"
  top: "inception_3b/5x5_reduce"
  param {
    lr_mult: 1
    decay_mult: 1
  }
  param {
    lr_mult: 2
    decay_mult: 0
  }
  convolution_param {
    num_output: 32
    kernel_size: 1
    weight_filler {
      type: "xavier"
      std: 0.2
    }
    bias_filler {
      type: "constant"
      value: 0.2
    }
  }
}
layer {
  name: "inception_3b/relu_5x5_reduce"
  type: "ReLU"
  bottom: "inception_3b/5x5_reduce"
  top: "inception_3b/5x5_reduce"
}
layer {
  name: "inception_3b/5x5"
  type: "Convolution"
  bottom: "inception_3b/5x5_reduce"
  top: "inception_3b/5x5"
  param {
    lr_mult: 1
    decay_mult: 1
  }
  param {
    lr_mult: 2
    decay_mult: 0
  }
  convolution_param {
    num_output: 96
    pad: 2
    kernel_size: 5
    weight_filler {
      type: "xavier"
      std: 0.03
    }
    bias_filler {
      type: "constant"
      value: 0.2
    }
  }
}
layer {
  name: "inception_3b/relu_5x5"
  type: "ReLU"
  bottom: "inception_3b/5x5"
  top: "inception_3b/5x5"
}
layer {
  name: "inception_3b/pool"
  type: "Pooling"
  bottom: "inception_3a/output"
  top: "inception_3b/pool"
  pooling_param {
    pool: MAX
    kernel_size: 3
    stride: 1
    pad: 1
  }
}
layer {
  name: "inception_3b/pool_proj"
  type: "Convolution"
  bottom: "inception_3b/pool"
  top: "inception_3b/pool_proj"
  param {
    lr_mult: 1
    decay_mult: 1
  }
  param {
    lr_mult: 2
    decay_mult: 0
  }
  convolution_param {
    num_output: 64
    kernel_size: 1
    weight_filler {
      type: "xavier"
      std: 0.1
    }
    bias_filler {
      type: "constant"
      value: 0.2
    }
  }
}
layer {
  name: "inception_3b/relu_pool_proj"
  type: "ReLU"
  bottom: "inception_3b/pool_proj"
  top: "inception_3b/pool_proj"
}
layer {
  name: "inception_3b/output"
  type: "Concat"
  bottom: "inception_3b/1x1"
  bottom: "inception_3b/3x3"
  bottom: "inception_3b/5x5"
  bottom: "inception_3b/pool_proj"
  top: "inception_3b/output"
}
layer {
  name: "pool3/3x3_s2"
  type: "Pooling"
  bottom: "inception_3b/output"
  top: "pool3/3x3_s2"
  pooling_param {
    pool: MAX
    kernel_size: 3
    stride: 2
  }
}
layer {
  name: "inception_4a/1x1"
  type: "Convolution"
  bottom: "pool3/3x3_s2"
  top: "inception_4a/1x1"
  param {
    lr_mult: 1
    decay_mult: 1
  }
  param {
    lr_mult: 2
    decay_mult: 0
  }
  convolution_param {
    num_output: 192
    kernel_size: 1
    weight_filler {
      type: "xavier"
      std: 0.03
    }
    bias_filler {
      type: "constant"
      value: 0.2
    }
  }
}
layer {
  name: "inception_4a/relu_1x1"
  type: "ReLU"
  bottom: "inception_4a/1x1"
  top: "inception_4a/1x1"
}
layer {
  name: "inception_4a/3x3_reduce"
  type: "Convolution"
  bottom: "pool3/3x3_s2"
  top: "inception_4a/3x3_reduce"
  param {
    lr_mult: 1
    decay_mult: 1
  }
  param {
    lr_mult: 2
    decay_mult: 0
  }
  convolution_param {
    num_output: 96
    kernel_size: 1
    weight_filler {
      type: "xavier"
      std: 0.09
    }
    bias_filler {
      type: "constant"
      value: 0.2
    }
  }
}
layer {
  name: "inception_4a/relu_3x3_reduce"
  type: "ReLU"
  bottom: "inception_4a/3x3_reduce"
  top: "inception_4a/3x3_reduce"
}
layer {
  name: "inception_4a/3x3"
  type: "Convolution"
  bottom: "inception_4a/3x3_reduce"
  top: "inception_4a/3x3"
  param {
    lr_mult: 1
    decay_mult: 1
  }
  param {
    lr_mult: 2
    decay_mult: 0
  }
  convolution_param {
    num_output: 208
    pad: 1
    kernel_size: 3
    weight_filler {
      type: "xavier"
      std: 0.03
    }
    bias_filler {
      type: "constant"
      value: 0.2
    }
  }
}
layer {
  name: "inception_4a/relu_3x3"
  type: "ReLU"
  bottom: "inception_4a/3x3"
  top: "inception_4a/3x3"
}
layer {
  name: "inception_4a/5x5_reduce"
  type: "Convolution"
  bottom: "pool3/3x3_s2"
  top: "inception_4a/5x5_reduce"
  param {
    lr_mult: 1
    decay_mult: 1
  }
  param {
    lr_mult: 2
    decay_mult: 0
  }
  convolution_param {
    num_output: 16
    kernel_size: 1
    weight_filler {
      type: "xavier"
      std: 0.2
    }
    bias_filler {
      type: "constant"
      value: 0.2
    }
  }
}
layer {
  name: "inception_4a/relu_5x5_reduce"
  type: "ReLU"
  bottom: "inception_4a/5x5_reduce"
  top: "inception_4a/5x5_reduce"
}
layer {
  name: "inception_4a/5x5"
  type: "Convolution"
  bottom: "inception_4a/5x5_reduce"
  top: "inception_4a/5x5"
  param {
    lr_mult: 1
    decay_mult: 1
  }
  param {
    lr_mult: 2
    decay_mult: 0
  }
  convolution_param {
    num_output: 48
    pad: 2
    kernel_size: 5
    weight_filler {
      type: "xavier"
      std: 0.03
    }
    bias_filler {
      type: "constant"
      value: 0.2
    }
  }
}
layer {
  name: "inception_4a/relu_5x5"
  type: "ReLU"
  bottom: "inception_4a/5x5"
  top: "inception_4a/5x5"
}
layer {
  name: "inception_4a/pool"
  type: "Pooling"
  bottom: "pool3/3x3_s2"
  top: "inception_4a/pool"
  pooling_param {
    pool: MAX
    kernel_size: 3
    stride: 1
    pad: 1
  }
}
layer {
  name: "inception_4a/pool_proj"
  type: "Convolution"
  bottom: "inception_4a/pool"
  top: "inception_4a/pool_proj"
  param {
    lr_mult: 1
    decay_mult: 1
  }
  param {
    lr_mult: 2
    decay_mult: 0
  }
  convolution_param {
    num_output: 64
    kernel_size: 1
    weight_filler {
      type: "xavier"
      std: 0.1
    }
    bias_filler {
      type: "constant"
      value: 0.2
    }
  }
}
layer {
  name: "inception_4a/relu_pool_proj"
  type: "ReLU"
  bottom: "inception_4a/pool_proj"
  top: "inception_4a/pool_proj"
}
layer {
  name: "inception_4a/output"
  type: "Concat"
  bottom: "inception_4a/1x1"
  bottom: "inception_4a/3x3"
  bottom: "inception_4a/5x5"
  bottom: "inception_4a/pool_proj"
  top: "inception_4a/output"
}
layer {
  name: "loss1/ave_pool"
  type: "Pooling"
  bottom: "inception_4a/output"
  top: "loss1/ave_pool"
  pooling_param {
    pool: AVE
    kernel_size: 5
    stride: 3
  }
}
layer {
  name: "loss1/conv"
  type: "Convolution"
  bottom: "loss1/ave_pool"
  top: "loss1/conv"
  param {
    lr_mult: 1
    decay_mult: 1
  }
  param {
    lr_mult: 2
    decay_mult: 0
  }
  convolution_param {
    num_output: 128
    kernel_size: 1
    weight_filler {
      type: "xavier"
      std: 0.08
    }
    bias_filler {
      type: "constant"
      value: 0.2
    }
  }
}
layer {
  name: "loss1/relu_conv"
  type: "ReLU"
  bottom: "loss1/conv"
  top: "loss1/conv"
}
layer {
  name: "loss1/fc"
  type: "InnerProduct"
  bottom: "loss1/conv"
  top: "loss1/fc"
  param {
    lr_mult: 1
    decay_mult: 1
  }
  param {
    lr_mult: 2
    decay_mult: 0
  }
  inner_product_param {
    num_output: 1024
    weight_filler {
      type: "xavier"
      std: 0.02
    }
    bias_filler {
      type: "constant"
      value: 0.2
    }
  }
}
layer {
  name: "loss1/relu_fc"
  type: "ReLU"
  bottom: "loss1/fc"
  top: "loss1/fc"
}
layer {
  name: "loss1/drop_fc"
  type: "Dropout"
  bottom: "loss1/fc"
  top: "loss1/fc"
  dropout_param {
    dropout_ratio: 0.7
  }
}
layer {
  name: "loss1/classifier_plantvillage"
  type: "InnerProduct"
  bottom: "loss1/fc"
  top: "loss1/classifier_plantvillage"
  param {
    lr_mult: 1
    decay_mult: 1
  }
  param {
    lr_mult: 2
    decay_mult: 0
  }
  inner_product_param {
    num_output: 38
    weight_filler {
      type: "xavier"
      std: 0.0009765625
    }
    bias_filler {
      type: "constant"
      value: 0
    }
  }
}
layer {
  name: "inception_4b/1x1"
  type: "Convolution"
  bottom: "inception_4a/output"
  top: "inception_4b/1x1"
  param {
    lr_mult: 1
    decay_mult: 1
  }
  param {
    lr_mult: 2
    decay_mult: 0
  }
  convolution_param {
    num_output: 160
    kernel_size: 1
    weight_filler {
      type: "xavier"
      std: 0.03
    }
    bias_filler {
      type: "constant"
      value: 0.2
    }
  }
}
layer {
  name: "inception_4b/relu_1x1"
  type: "ReLU"
  bottom: "inception_4b/1x1"
  top: "inception_4b/1x1"
}
layer {
  name: "inception_4b/3x3_reduce"
  type: "Convolution"
  bottom: "inception_4a/output"
  top: "inception_4b/3x3_reduce"
  param {
    lr_mult: 1
    decay_mult: 1
  }
  param {
    lr_mult: 2
    decay_mult: 0
  }
  convolution_param {
    num_output: 112
    kernel_size: 1
    weight_filler {
      type: "xavier"
      std: 0.09
    }
    bias_filler {
      type: "constant"
      value: 0.2
    }
  }
}
layer {
  name: "inception_4b/relu_3x3_reduce"
  type: "ReLU"
  bottom: "inception_4b/3x3_reduce"
  top: "inception_4b/3x3_reduce"
}
layer {
  name: "inception_4b/3x3"
  type: "Convolution"
  bottom: "inception_4b/3x3_reduce"
  top: "inception_4b/3x3"
  param {
    lr_mult: 1
    decay_mult: 1
  }
  param {
    lr_mult: 2
    decay_mult: 0
  }
  convolution_param {
    num_output: 224
    pad: 1
    kernel_size: 3
    weight_filler {
      type: "xavier"
      std: 0.03
    }
    bias_filler {
      type: "constant"
      value: 0.2
    }
  }
}
layer {
  name: "inception_4b/relu_3x3"
  type: "ReLU"
  bottom: "inception_4b/3x3"
  top: "inception_4b/3x3"
}
layer {
  name: "inception_4b/5x5_reduce"
  type: "Convolution"
  bottom: "inception_4a/output"
  top: "inception_4b/5x5_reduce"
  param {
    lr_mult: 1
    decay_mult: 1
  }
  param {
    lr_mult: 2
    decay_mult: 0
  }
  convolution_param {
    num_output: 24
    kernel_size: 1
    weight_filler {
      type: "xavier"
      std: 0.2
    }
    bias_filler {
      type: "constant"
      value: 0.2
    }
  }
}
layer {
  name: "inception_4b/relu_5x5_reduce"
  type: "ReLU"
  bottom: "inception_4b/5x5_reduce"
  top: "inception_4b/5x5_reduce"
}
layer {
  name: "inception_4b/5x5"
  type: "Convolution"
  bottom: "inception_4b/5x5_reduce"
  top: "inception_4b/5x5"
  param {
    lr_mult: 1
    decay_mult: 1
  }
  param {
    lr_mult: 2
    decay_mult: 0
  }
  convolution_param {
    num_output: 64
    pad: 2
    kernel_size: 5
    weight_filler {
      type: "xavier"
      std: 0.03
    }
    bias_filler {
      type: "constant"
      value: 0.2
    }
  }
}
layer {
  name: "inception_4b/relu_5x5"
  type: "ReLU"
  bottom: "inception_4b/5x5"
  top: "inception_4b/5x5"
}
layer {
  name: "inception_4b/pool"
  type: "Pooling"
  bottom: "inception_4a/output"
  top: "inception_4b/pool"
  pooling_param {
    pool: MAX
    kernel_size: 3
    stride: 1
    pad: 1
  }
}
layer {
  name: "inception_4b/pool_proj"
  type: "Convolution"
  bottom: "inception_4b/pool"
  top: "inception_4b/pool_proj"
  param {
    lr_mult: 1
    decay_mult: 1
  }
  param {
    lr_mult: 2
    decay_mult: 0
  }
  convolution_param {
    num_output: 64
    kernel_size: 1
    weight_filler {
      type: "xavier"
      std: 0.1
    }
    bias_filler {
      type: "constant"
      value: 0.2
    }
  }
}
layer {
  name: "inception_4b/relu_pool_proj"
  type: "ReLU"
  bottom: "inception_4b/pool_proj"
  top: "inception_4b/pool_proj"
}
layer {
  name: "inception_4b/output"
  type: "Concat"
  bottom: "inception_4b/1x1"
  bottom: "inception_4b/3x3"
  bottom: "inception_4b/5x5"
  bottom: "inception_4b/pool_proj"
  top: "inception_4b/output"
}
layer {
  name: "inception_4c/1x1"
  type: "Convolution"
  bottom: "inception_4b/output"
  top: "inception_4c/1x1"
  param {
    lr_mult: 1
    decay_mult: 1
  }
  param {
    lr_mult: 2
    decay_mult: 0
  }
  convolution_param {
    num_output: 128
    kernel_size: 1
    weight_filler {
      type: "xavier"
      std: 0.03
    }
    bias_filler {
      type: "constant"
      value: 0.2
    }
  }
}
layer {
  name: "inception_4c/relu_1x1"
  type: "ReLU"
  bottom: "inception_4c/1x1"
  top: "inception_4c/1x1"
}
layer {
  name: "inception_4c/3x3_reduce"
  type: "Convolution"
  bottom: "inception_4b/output"
  top: "inception_4c/3x3_reduce"
  param {
    lr_mult: 1
    decay_mult: 1
  }
  param {
    lr_mult: 2
    decay_mult: 0
  }
  convolution_param {
    num_output: 128
    kernel_size: 1
    weight_filler {
      type: "xavier"
      std: 0.09
    }
    bias_filler {
      type: "constant"
      value: 0.2
    }
  }
}
layer {
  name: "inception_4c/relu_3x3_reduce"
  type: "ReLU"
  bottom: "inception_4c/3x3_reduce"
  top: "inception_4c/3x3_reduce"
}
layer {
  name: "inception_4c/3x3"
  type: "Convolution"
  bottom: "inception_4c/3x3_reduce"
  top: "inception_4c/3x3"
  param {
    lr_mult: 1
    decay_mult: 1
  }
  param {
    lr_mult: 2
    decay_mult: 0
  }
  convolution_param {
    num_output: 256
    pad: 1
    kernel_size: 3
    weight_filler {
      type: "xavier"
      std: 0.03
    }
    bias_filler {
      type: "constant"
      value: 0.2
    }
  }
}
layer {
  name: "inception_4c/relu_3x3"
  type: "ReLU"
  bottom: "inception_4c/3x3"
  top: "inception_4c/3x3"
}
layer {
  name: "inception_4c/5x5_reduce"
  type: "Convolution"
  bottom: "inception_4b/output"
  top: "inception_4c/5x5_reduce"
  param {
    lr_mult: 1
    decay_mult: 1
  }
  param {
    lr_mult: 2
    decay_mult: 0
  }
  convolution_param {
    num_output: 24
    kernel_size: 1
    weight_filler {
      type: "xavier"
      std: 0.2
    }
    bias_filler {
      type: "constant"
      value: 0.2
    }
  }
}
layer {
  name: "inception_4c/relu_5x5_reduce"
  type: "ReLU"
  bottom: "inception_4c/5x5_reduce"
  top: "inception_4c/5x5_reduce"
}
layer {
  name: "inception_4c/5x5"
  type: "Convolution"
  bottom: "inception_4c/5x5_reduce"
  top: "inception_4c/5x5"
  param {
    lr_mult: 1
    decay_mult: 1
  }
  param {
    lr_mult: 2
    decay_mult: 0
  }
  convolution_param {
    num_output: 64
    pad: 2
    kernel_size: 5
    weight_filler {
      type: "xavier"
      std: 0.03
    }
    bias_filler {
      type: "constant"
      value: 0.2
    }
  }
}
layer {
  name: "inception_4c/relu_5x5"
  type: "ReLU"
  bottom: "inception_4c/5x5"
  top: "inception_4c/5x5"
}
layer {
  name: "inception_4c/pool"
  type: "Pooling"
  bottom: "inception_4b/output"
  top: "inception_4c/pool"
  pooling_param {
    pool: MAX
    kernel_size: 3
    stride: 1
    pad: 1
  }
}
layer {
  name: "inception_4c/pool_proj"
  type: "Convolution"
  bottom: "inception_4c/pool"
  top: "inception_4c/pool_proj"
  param {
    lr_mult: 1
    decay_mult: 1
  }
  param {
    lr_mult: 2
    decay_mult: 0
  }
  convolution_param {
    num_output: 64
    kernel_size: 1
    weight_filler {
      type: "xavier"
      std: 0.1
    }
    bias_filler {
      type: "constant"
      value: 0.2
    }
  }
}
layer {
  name: "inception_4c/relu_pool_proj"
  type: "ReLU"
  bottom: "inception_4c/pool_proj"
  top: "inception_4c/pool_proj"
}
layer {
  name: "inception_4c/output"
  type: "Concat"
  bottom: "inception_4c/1x1"
  bottom: "inception_4c/3x3"
  bottom: "inception_4c/5x5"
  bottom: "inception_4c/pool_proj"
  top: "inception_4c/output"
}
layer {
  name: "inception_4d/1x1"
  type: "Convolution"
  bottom: "inception_4c/output"
  top: "inception_4d/1x1"
  param {
    lr_mult: 1
    decay_mult: 1
  }
  param {
    lr_mult: 2
    decay_mult: 0
  }
  convolution_param {
    num_output: 112
    kernel_size: 1
    weight_filler {
      type: "xavier"
      std: 0.03
    }
    bias_filler {
      type: "constant"
      value: 0.2
    }
  }
}
layer {
  name: "inception_4d/relu_1x1"
  type: "ReLU"
  bottom: "inception_4d/1x1"
  top: "inception_4d/1x1"
}
layer {
  name: "inception_4d/3x3_reduce"
  type: "Convolution"
  bottom: "inception_4c/output"
  top: "inception_4d/3x3_reduce"
  param {
    lr_mult: 1
    decay_mult: 1
  }
  param {
    lr_mult: 2
    decay_mult: 0
  }
  convolution_param {
    num_output: 144
    kernel_size: 1
    weight_filler {
      type: "xavier"
      std: 0.09
    }
    bias_filler {
      type: "constant"
      value: 0.2
    }
  }
}
layer {
  name: "inception_4d/relu_3x3_reduce"
  type: "ReLU"
  bottom: "inception_4d/3x3_reduce"
  top: "inception_4d/3x3_reduce"
}
layer {
  name: "inception_4d/3x3"
  type: "Convolution"
  bottom: "inception_4d/3x3_reduce"
  top: "inception_4d/3x3"
  param {
    lr_mult: 1
    decay_mult: 1
  }
  param {
    lr_mult: 2
    decay_mult: 0
  }
  convolution_param {
    num_output: 288
    pad: 1
    kernel_size: 3
    weight_filler {
      type: "xavier"
      std: 0.03
    }
    bias_filler {
      type: "constant"
      value: 0.2
    }
  }
}
layer {
  name: "inception_4d/relu_3x3"
  type: "ReLU"
  bottom: "inception_4d/3x3"
  top: "inception_4d/3x3"
}
layer {
  name: "inception_4d/5x5_reduce"
  type: "Convolution"
  bottom: "inception_4c/output"
  top: "inception_4d/5x5_reduce"
  param {
    lr_mult: 1
    decay_mult: 1
  }
  param {
    lr_mult: 2
    decay_mult: 0
  }
  convolution_param {
    num_output: 32
    kernel_size: 1
    weight_filler {
      type: "xavier"
      std: 0.2
    }
    bias_filler {
      type: "constant"
      value: 0.2
    }
  }
}
layer {
  name: "inception_4d/relu_5x5_reduce"
  type: "ReLU"
  bottom: "inception_4d/5x5_reduce"
  top: "inception_4d/5x5_reduce"
}
layer {
  name: "inception_4d/5x5"
  type: "Convolution"
  bottom: "inception_4d/5x5_reduce"
  top: "inception_4d/5x5"
  param {
    lr_mult: 1
    decay_mult: 1
  }
  param {
    lr_mult: 2
    decay_mult: 0
  }
  convolution_param {
    num_output: 64
    pad: 2
    kernel_size: 5
    weight_filler {
      type: "xavier"
      std: 0.03
    }
    bias_filler {
      type: "constant"
      value: 0.2
    }
  }
}
layer {
  name: "inception_4d/relu_5x5"
  type: "ReLU"
  bottom: "inception_4d/5x5"
  top: "inception_4d/5x5"
}
layer {
  name: "inception_4d/pool"
  type: "Pooling"
  bottom: "inception_4c/output"
  top: "inception_4d/pool"
  pooling_param {
    pool: MAX
    kernel_size: 3
    stride: 1
    pad: 1
  }
}
layer {
  name: "inception_4d/pool_proj"
  type: "Convolution"
  bottom: "inception_4d/pool"
  top: "inception_4d/pool_proj"
  param {
    lr_mult: 1
    decay_mult: 1
  }
  param {
    lr_mult: 2
    decay_mult: 0
  }
  convolution_param {
    num_output: 64
    kernel_size: 1
    weight_filler {
      type: "xavier"
      std: 0.1
    }
    bias_filler {
      type: "constant"
      value: 0.2
    }
  }
}
layer {
  name: "inception_4d/relu_pool_proj"
  type: "ReLU"
  bottom: "inception_4d/pool_proj"
  top: "inception_4d/pool_proj"
}
layer {
  name: "inception_4d/output"
  type: "Concat"
  bottom: "inception_4d/1x1"
  bottom: "inception_4d/3x3"
  bottom: "inception_4d/5x5"
  bottom: "inception_4d/pool_proj"
  top: "inception_4d/output"
}
layer {
  name: "loss2/ave_pool"
  type: "Pooling"
  bottom: "inception_4d/output"
  top: "loss2/ave_pool"
  pooling_param {
    pool: AVE
    kernel_size: 5
    stride: 3
  }
}
layer {
  name: "loss2/conv"
  type: "Convolution"
  bottom: "loss2/ave_pool"
  top: "loss2/conv"
  param {
    lr_mult: 1
    decay_mult: 1
  }
  param {
    lr_mult: 2
    decay_mult: 0
  }
  convolution_param {
    num_output: 128
    kernel_size: 1
    weight_filler {
      type: "xavier"
      std: 0.08
    }
    bias_filler {
      type: "constant"
      value: 0.2
    }
  }
}
layer {
  name: "loss2/relu_conv"
  type: "ReLU"
  bottom: "loss2/conv"
  top: "loss2/conv"
}
layer {
  name: "loss2/fc"
  type: "InnerProduct"
  bottom: "loss2/conv"
  top: "loss2/fc"
  param {
    lr_mult: 1
    decay_mult: 1
  }
  param {
    lr_mult: 2
    decay_mult: 0
  }
  inner_product_param {
    num_output: 1024
    weight_filler {
      type: "xavier"
      std: 0.02
    }
    bias_filler {
      type: "constant"
      value: 0.2
    }
  }
}
layer {
  name: "loss2/relu_fc"
  type: "ReLU"
  bottom: "loss2/fc"
  top: "loss2/fc"
}
layer {
  name: "loss2/drop_fc"
  type: "Dropout"
  bottom: "loss2/fc"
  top: "loss2/fc"
  dropout_param {
    dropout_ratio: 0.7
  }
}
layer {
  name: "loss2/classifier_plantvillage"
  type: "InnerProduct"
  bottom: "loss2/fc"
  top: "loss2/classifier_plantvillage"
  param {
    lr_mult: 1
    decay_mult: 1
  }
  param {
    lr_mult: 2
    decay_mult: 0
  }
  inner_product_param {
    num_output: 38
    weight_filler {
      type: "xavier"
      std: 0.0009765625
    }
    bias_filler {
      type: "constant"
      value: 0
    }
  }
}
layer {
  name: "inception_4e/1x1"
  type: "Convolution"
  bottom: "inception_4d/output"
  top: "inception_4e/1x1"
  param {
    lr_mult: 1
    decay_mult: 1
  }
  param {
    lr_mult: 2
    decay_mult: 0
  }
  convolution_param {
    num_output: 256
    kernel_size: 1
    weight_filler {
      type: "xavier"
      std: 0.03
    }
    bias_filler {
      type: "constant"
      value: 0.2
    }
  }
}
layer {
  name: "inception_4e/relu_1x1"
  type: "ReLU"
  bottom: "inception_4e/1x1"
  top: "inception_4e/1x1"
}
layer {
  name: "inception_4e/3x3_reduce"
  type: "Convolution"
  bottom: "inception_4d/output"
  top: "inception_4e/3x3_reduce"
  param {
    lr_mult: 1
    decay_mult: 1
  }
  param {
    lr_mult: 2
    decay_mult: 0
  }
  convolution_param {
    num_output: 160
    kernel_size: 1
    weight_filler {
      type: "xavier"
      std: 0.09
    }
    bias_filler {
      type: "constant"
      value: 0.2
    }
  }
}
layer {
  name: "inception_4e/relu_3x3_reduce"
  type: "ReLU"
  bottom: "inception_4e/3x3_reduce"
  top: "inception_4e/3x3_reduce"
}
layer {
  name: "inception_4e/3x3"
  type: "Convolution"
  bottom: "inception_4e/3x3_reduce"
  top: "inception_4e/3x3"
  param {
    lr_mult: 1
    decay_mult: 1
  }
  param {
    lr_mult: 2
    decay_mult: 0
  }
  convolution_param {
    num_output: 320
    pad: 1
    kernel_size: 3
    weight_filler {
      type: "xavier"
      std: 0.03
    }
    bias_filler {
      type: "constant"
      value: 0.2
    }
  }
}
layer {
  name: "inception_4e/relu_3x3"
  type: "ReLU"
  bottom: "inception_4e/3x3"
  top: "inception_4e/3x3"
}
layer {
  name: "inception_4e/5x5_reduce"
  type: "Convolution"
  bottom: "inception_4d/output"
  top: "inception_4e/5x5_reduce"
  param {
    lr_mult: 1
    decay_mult: 1
  }
  param {
    lr_mult: 2
    decay_mult: 0
  }
  convolution_param {
    num_output: 32
    kernel_size: 1
    weight_filler {
      type: "xavier"
      std: 0.2
    }
    bias_filler {
      type: "constant"
      value: 0.2
    }
  }
}
layer {
  name: "inception_4e/relu_5x5_reduce"
  type: "ReLU"
  bottom: "inception_4e/5x5_reduce"
  top: "inception_4e/5x5_reduce"
}
layer {
  name: "inception_4e/5x5"
  type: "Convolution"
  bottom: "inception_4e/5x5_reduce"
  top: "inception_4e/
I0403 18:38:01.916465 23026 layer_factory.hpp:77] Creating layer data
I0403 18:38:01.917068 23026 net.cpp:91] Creating Layer data
I0403 18:38:01.917100 23026 net.cpp:399] data -> data
I0403 18:38:01.917152 23026 net.cpp:399] data -> label
I0403 18:38:01.917188 23026 data_transformer.cpp:25] Loading mean file from: /home/mohanty/data/final_dataset/lmdb/segmented-40-60/mean.binaryproto
I0403 18:38:01.918407 23028 db_lmdb.cpp:38] Opened lmdb /home/mohanty/data/final_dataset/lmdb/segmented-40-60/test_db
I0403 18:38:01.930438 23026 data_layer.cpp:41] output data size: 24,3,224,224
I0403 18:38:01.957808 23026 net.cpp:141] Setting up data
I0403 18:38:01.957890 23026 net.cpp:148] Top shape: 24 3 224 224 (3612672)
I0403 18:38:01.957911 23026 net.cpp:148] Top shape: 24 (24)
I0403 18:38:01.957926 23026 net.cpp:156] Memory required for data: 14450784
I0403 18:38:01.957953 23026 layer_factory.hpp:77] Creating layer label_data_1_split
I0403 18:38:01.957980 23026 net.cpp:91] Creating Layer label_data_1_split
I0403 18:38:01.957998 23026 net.cpp:425] label_data_1_split <- label
I0403 18:38:01.958029 23026 net.cpp:399] label_data_1_split -> label_data_1_split_0
I0403 18:38:01.958055 23026 net.cpp:399] label_data_1_split -> label_data_1_split_1
I0403 18:38:01.958076 23026 net.cpp:399] label_data_1_split -> label_data_1_split_2
I0403 18:38:01.958096 23026 net.cpp:399] label_data_1_split -> label_data_1_split_3
I0403 18:38:01.958117 23026 net.cpp:399] label_data_1_split -> label_data_1_split_4
I0403 18:38:01.958135 23026 net.cpp:399] label_data_1_split -> label_data_1_split_5
I0403 18:38:01.958154 23026 net.cpp:399] label_data_1_split -> label_data_1_split_6
I0403 18:38:01.958174 23026 net.cpp:399] label_data_1_split -> label_data_1_split_7
I0403 18:38:01.958194 23026 net.cpp:399] label_data_1_split -> label_data_1_split_8
I0403 18:38:01.958214 23026 net.cpp:399] label_data_1_split -> label_data_1_split_9
I0403 18:38:01.958328 23026 net.cpp:141] Setting up label_data_1_split
I0403 18:38:01.958350 23026 net.cpp:148] Top shape: 24 (24)
I0403 18:38:01.958367 23026 net.cpp:148] Top shape: 24 (24)
I0403 18:38:01.958384 23026 net.cpp:148] Top shape: 24 (24)
I0403 18:38:01.958398 23026 net.cpp:148] Top shape: 24 (24)
I0403 18:38:01.958412 23026 net.cpp:148] Top shape: 24 (24)
I0403 18:38:01.958427 23026 net.cpp:148] Top shape: 24 (24)
I0403 18:38:01.958442 23026 net.cpp:148] Top shape: 24 (24)
I0403 18:38:01.958457 23026 net.cpp:148] Top shape: 24 (24)
I0403 18:38:01.958472 23026 net.cpp:148] Top shape: 24 (24)
I0403 18:38:01.958487 23026 net.cpp:148] Top shape: 24 (24)
I0403 18:38:01.958526 23026 net.cpp:156] Memory required for data: 14451744
I0403 18:38:01.958547 23026 layer_factory.hpp:77] Creating layer conv1/7x7_s2
I0403 18:38:01.958580 23026 net.cpp:91] Creating Layer conv1/7x7_s2
I0403 18:38:01.958597 23026 net.cpp:425] conv1/7x7_s2 <- data
I0403 18:38:01.958616 23026 net.cpp:399] conv1/7x7_s2 -> conv1/7x7_s2
I0403 18:38:02.096381 23026 net.cpp:141] Setting up conv1/7x7_s2
I0403 18:38:02.096458 23026 net.cpp:148] Top shape: 24 64 112 112 (19267584)
I0403 18:38:02.096475 23026 net.cpp:156] Memory required for data: 91522080
I0403 18:38:02.096503 23026 layer_factory.hpp:77] Creating layer conv1/relu_7x7
I0403 18:38:02.096529 23026 net.cpp:91] Creating Layer conv1/relu_7x7
I0403 18:38:02.096551 23026 net.cpp:425] conv1/relu_7x7 <- conv1/7x7_s2
I0403 18:38:02.096570 23026 net.cpp:386] conv1/relu_7x7 -> conv1/7x7_s2 (in-place)
I0403 18:38:02.096814 23026 net.cpp:141] Setting up conv1/relu_7x7
I0403 18:38:02.096839 23026 net.cpp:148] Top shape: 24 64 112 112 (19267584)
I0403 18:38:02.096853 23026 net.cpp:156] Memory required for data: 168592416
I0403 18:38:02.096868 23026 layer_factory.hpp:77] Creating layer pool1/3x3_s2
I0403 18:38:02.096891 23026 net.cpp:91] Creating Layer pool1/3x3_s2
I0403 18:38:02.096907 23026 net.cpp:425] pool1/3x3_s2 <- conv1/7x7_s2
I0403 18:38:02.096925 23026 net.cpp:399] pool1/3x3_s2 -> pool1/3x3_s2
I0403 18:38:02.096993 23026 net.cpp:141] Setting up pool1/3x3_s2
I0403 18:38:02.097017 23026 net.cpp:148] Top shape: 24 64 56 56 (4816896)
I0403 18:38:02.097030 23026 net.cpp:156] Memory required for data: 187860000
I0403 18:38:02.097043 23026 layer_factory.hpp:77] Creating layer pool1/norm1
I0403 18:38:02.097065 23026 net.cpp:91] Creating Layer pool1/norm1
I0403 18:38:02.097081 23026 net.cpp:425] pool1/norm1 <- pool1/3x3_s2
I0403 18:38:02.097098 23026 net.cpp:399] pool1/norm1 -> pool1/norm1
I0403 18:38:02.097367 23026 net.cpp:141] Setting up pool1/norm1
I0403 18:38:02.097391 23026 net.cpp:148] Top shape: 24 64 56 56 (4816896)
I0403 18:38:02.097405 23026 net.cpp:156] Memory required for data: 207127584
I0403 18:38:02.097419 23026 layer_factory.hpp:77] Creating layer conv2/3x3_reduce
I0403 18:38:02.097442 23026 net.cpp:91] Creating Layer conv2/3x3_reduce
I0403 18:38:02.097458 23026 net.cpp:425] conv2/3x3_reduce <- pool1/norm1
I0403 18:38:02.097476 23026 net.cpp:399] conv2/3x3_reduce -> conv2/3x3_reduce
I0403 18:38:02.098723 23026 net.cpp:141] Setting up conv2/3x3_reduce
I0403 18:38:02.098752 23026 net.cpp:148] Top shape: 24 64 56 56 (4816896)
I0403 18:38:02.098767 23026 net.cpp:156] Memory required for data: 226395168
I0403 18:38:02.098786 23026 layer_factory.hpp:77] Creating layer conv2/relu_3x3_reduce
I0403 18:38:02.098805 23026 net.cpp:91] Creating Layer conv2/relu_3x3_reduce
I0403 18:38:02.098819 23026 net.cpp:425] conv2/relu_3x3_reduce <- conv2/3x3_reduce
I0403 18:38:02.098835 23026 net.cpp:386] conv2/relu_3x3_reduce -> conv2/3x3_reduce (in-place)
I0403 18:38:02.099067 23026 net.cpp:141] Setting up conv2/relu_3x3_reduce
I0403 18:38:02.099092 23026 net.cpp:148] Top shape: 24 64 56 56 (4816896)
I0403 18:38:02.099107 23026 net.cpp:156] Memory required for data: 245662752
I0403 18:38:02.099120 23026 layer_factory.hpp:77] Creating layer conv2/3x3
I0403 18:38:02.099140 23026 net.cpp:91] Creating Layer conv2/3x3
I0403 18:38:02.099156 23026 net.cpp:425] conv2/3x3 <- conv2/3x3_reduce
I0403 18:38:02.099174 23026 net.cpp:399] conv2/3x3 -> conv2/3x3
I0403 18:38:02.101250 23026 net.cpp:141] Setting up conv2/3x3
I0403 18:38:02.101279 23026 net.cpp:148] Top shape: 24 192 56 56 (14450688)
I0403 18:38:02.101295 23026 net.cpp:156] Memory required for data: 303465504
I0403 18:38:02.101315 23026 layer_factory.hpp:77] Creating layer conv2/relu_3x3
I0403 18:38:02.101333 23026 net.cpp:91] Creating Layer conv2/relu_3x3
I0403 18:38:02.101347 23026 net.cpp:425] conv2/relu_3x3 <- conv2/3x3
I0403 18:38:02.101363 23026 net.cpp:386] conv2/relu_3x3 -> conv2/3x3 (in-place)
I0403 18:38:02.101511 23026 net.cpp:141] Setting up conv2/relu_3x3
I0403 18:38:02.101536 23026 net.cpp:148] Top shape: 24 192 56 56 (14450688)
I0403 18:38:02.101593 23026 net.cpp:156] Memory required for data: 361268256
I0403 18:38:02.101608 23026 layer_factory.hpp:77] Creating layer conv2/norm2
I0403 18:38:02.101624 23026 net.cpp:91] Creating Layer conv2/norm2
I0403 18:38:02.101639 23026 net.cpp:425] conv2/norm2 <- conv2/3x3
I0403 18:38:02.101655 23026 net.cpp:399] conv2/norm2 -> conv2/norm2
I0403 18:38:02.101919 23026 net.cpp:141] Setting up conv2/norm2
I0403 18:38:02.101944 23026 net.cpp:148] Top shape: 24 192 56 56 (14450688)
I0403 18:38:02.101959 23026 net.cpp:156] Memory required for data: 419071008
I0403 18:38:02.101974 23026 layer_factory.hpp:77] Creating layer pool2/3x3_s2
I0403 18:38:02.101991 23026 net.cpp:91] Creating Layer pool2/3x3_s2
I0403 18:38:02.102005 23026 net.cpp:425] pool2/3x3_s2 <- conv2/norm2
I0403 18:38:02.102020 23026 net.cpp:399] pool2/3x3_s2 -> pool2/3x3_s2
I0403 18:38:02.102066 23026 net.cpp:141] Setting up pool2/3x3_s2
I0403 18:38:02.102087 23026 net.cpp:148] Top shape: 24 192 28 28 (3612672)
I0403 18:38:02.102102 23026 net.cpp:156] Memory required for data: 433521696
I0403 18:38:02.102115 23026 layer_factory.hpp:77] Creating layer pool2/3x3_s2_pool2/3x3_s2_0_split
I0403 18:38:02.102133 23026 net.cpp:91] Creating Layer pool2/3x3_s2_pool2/3x3_s2_0_split
I0403 18:38:02.102145 23026 net.cpp:425] pool2/3x3_s2_pool2/3x3_s2_0_split <- pool2/3x3_s2
I0403 18:38:02.102161 23026 net.cpp:399] pool2/3x3_s2_pool2/3x3_s2_0_split -> pool2/3x3_s2_pool2/3x3_s2_0_split_0
I0403 18:38:02.102180 23026 net.cpp:399] pool2/3x3_s2_pool2/3x3_s2_0_split -> pool2/3x3_s2_pool2/3x3_s2_0_split_1
I0403 18:38:02.102200 23026 net.cpp:399] pool2/3x3_s2_pool2/3x3_s2_0_split -> pool2/3x3_s2_pool2/3x3_s2_0_split_2
I0403 18:38:02.102217 23026 net.cpp:399] pool2/3x3_s2_pool2/3x3_s2_0_split -> pool2/3x3_s2_pool2/3x3_s2_0_split_3
I0403 18:38:02.102277 23026 net.cpp:141] Setting up pool2/3x3_s2_pool2/3x3_s2_0_split
I0403 18:38:02.102298 23026 net.cpp:148] Top shape: 24 192 28 28 (3612672)
I0403 18:38:02.102313 23026 net.cpp:148] Top shape: 24 192 28 28 (3612672)
I0403 18:38:02.102327 23026 net.cpp:148] Top shape: 24 192 28 28 (3612672)
I0403 18:38:02.102342 23026 net.cpp:148] Top shape: 24 192 28 28 (3612672)
I0403 18:38:02.102355 23026 net.cpp:156] Memory required for data: 491324448
I0403 18:38:02.102370 23026 layer_factory.hpp:77] Creating layer inception_3a/1x1
I0403 18:38:02.102388 23026 net.cpp:91] Creating Layer inception_3a/1x1
I0403 18:38:02.102403 23026 net.cpp:425] inception_3a/1x1 <- pool2/3x3_s2_pool2/3x3_s2_0_split_0
I0403 18:38:02.102421 23026 net.cpp:399] inception_3a/1x1 -> inception_3a/1x1
I0403 18:38:02.103796 23026 net.cpp:141] Setting up inception_3a/1x1
I0403 18:38:02.103824 23026 net.cpp:148] Top shape: 24 64 28 28 (1204224)
I0403 18:38:02.103839 23026 net.cpp:156] Memory required for data: 496141344
I0403 18:38:02.103857 23026 layer_factory.hpp:77] Creating layer inception_3a/relu_1x1
I0403 18:38:02.103876 23026 net.cpp:91] Creating Layer inception_3a/relu_1x1
I0403 18:38:02.103893 23026 net.cpp:425] inception_3a/relu_1x1 <- inception_3a/1x1
I0403 18:38:02.103909 23026 net.cpp:386] inception_3a/relu_1x1 -> inception_3a/1x1 (in-place)
I0403 18:38:02.104068 23026 net.cpp:141] Setting up inception_3a/relu_1x1
I0403 18:38:02.104091 23026 net.cpp:148] Top shape: 24 64 28 28 (1204224)
I0403 18:38:02.104105 23026 net.cpp:156] Memory required for data: 500958240
I0403 18:38:02.104118 23026 layer_factory.hpp:77] Creating layer inception_3a/3x3_reduce
I0403 18:38:02.104140 23026 net.cpp:91] Creating Layer inception_3a/3x3_reduce
I0403 18:38:02.104156 23026 net.cpp:425] inception_3a/3x3_reduce <- pool2/3x3_s2_pool2/3x3_s2_0_split_1
I0403 18:38:02.104176 23026 net.cpp:399] inception_3a/3x3_reduce -> inception_3a/3x3_reduce
I0403 18:38:02.105780 23026 net.cpp:141] Setting up inception_3a/3x3_reduce
I0403 18:38:02.105808 23026 net.cpp:148] Top shape: 24 96 28 28 (1806336)
I0403 18:38:02.105823 23026 net.cpp:156] Memory required for data: 508183584
I0403 18:38:02.105844 23026 layer_factory.hpp:77] Creating layer inception_3a/relu_3x3_reduce
I0403 18:38:02.105878 23026 net.cpp:91] Creating Layer inception_3a/relu_3x3_reduce
I0403 18:38:02.105895 23026 net.cpp:425] inception_3a/relu_3x3_reduce <- inception_3a/3x3_reduce
I0403 18:38:02.105912 23026 net.cpp:386] inception_3a/relu_3x3_reduce -> inception_3a/3x3_reduce (in-place)
I0403 18:38:02.106082 23026 net.cpp:141] Setting up inception_3a/relu_3x3_reduce
I0403 18:38:02.106106 23026 net.cpp:148] Top shape: 24 96 28 28 (1806336)
I0403 18:38:02.106119 23026 net.cpp:156] Memory required for data: 515408928
I0403 18:38:02.106132 23026 layer_factory.hpp:77] Creating layer inception_3a/3x3
I0403 18:38:02.106153 23026 net.cpp:91] Creating Layer inception_3a/3x3
I0403 18:38:02.106169 23026 net.cpp:425] inception_3a/3x3 <- inception_3a/3x3_reduce
I0403 18:38:02.106190 23026 net.cpp:399] inception_3a/3x3 -> inception_3a/3x3
I0403 18:38:02.107810 23026 net.cpp:141] Setting up inception_3a/3x3
I0403 18:38:02.107838 23026 net.cpp:148] Top shape: 24 128 28 28 (2408448)
I0403 18:38:02.107853 23026 net.cpp:156] Memory required for data: 525042720
I0403 18:38:02.107870 23026 layer_factory.hpp:77] Creating layer inception_3a/relu_3x3
I0403 18:38:02.107890 23026 net.cpp:91] Creating Layer inception_3a/relu_3x3
I0403 18:38:02.107906 23026 net.cpp:425] inception_3a/relu_3x3 <- inception_3a/3x3
I0403 18:38:02.107923 23026 net.cpp:386] inception_3a/relu_3x3 -> inception_3a/3x3 (in-place)
I0403 18:38:02.108191 23026 net.cpp:141] Setting up inception_3a/relu_3x3
I0403 18:38:02.108217 23026 net.cpp:148] Top shape: 24 128 28 28 (2408448)
I0403 18:38:02.108232 23026 net.cpp:156] Memory required for data: 534676512
I0403 18:38:02.108245 23026 layer_factory.hpp:77] Creating layer inception_3a/5x5_reduce
I0403 18:38:02.108266 23026 net.cpp:91] Creating Layer inception_3a/5x5_reduce
I0403 18:38:02.108283 23026 net.cpp:425] inception_3a/5x5_reduce <- pool2/3x3_s2_pool2/3x3_s2_0_split_2
I0403 18:38:02.108304 23026 net.cpp:399] inception_3a/5x5_reduce -> inception_3a/5x5_reduce
I0403 18:38:02.109236 23026 net.cpp:141] Setting up inception_3a/5x5_reduce
I0403 18:38:02.109262 23026 net.cpp:148] Top shape: 24 16 28 28 (301056)
I0403 18:38:02.109277 23026 net.cpp:156] Memory required for data: 535880736
I0403 18:38:02.109295 23026 layer_factory.hpp:77] Creating layer inception_3a/relu_5x5_reduce
I0403 18:38:02.109315 23026 net.cpp:91] Creating Layer inception_3a/relu_5x5_reduce
I0403 18:38:02.109333 23026 net.cpp:425] inception_3a/relu_5x5_reduce <- inception_3a/5x5_reduce
I0403 18:38:02.109349 23026 net.cpp:386] inception_3a/relu_5x5_reduce -> inception_3a/5x5_reduce (in-place)
I0403 18:38:02.109635 23026 net.cpp:141] Setting up inception_3a/relu_5x5_reduce
I0403 18:38:02.109663 23026 net.cpp:148] Top shape: 24 16 28 28 (301056)
I0403 18:38:02.109678 23026 net.cpp:156] Memory required for data: 537084960
I0403 18:38:02.109694 23026 layer_factory.hpp:77] Creating layer inception_3a/5x5
I0403 18:38:02.109715 23026 net.cpp:91] Creating Layer inception_3a/5x5
I0403 18:38:02.109732 23026 net.cpp:425] inception_3a/5x5 <- inception_3a/5x5_reduce
I0403 18:38:02.109750 23026 net.cpp:399] inception_3a/5x5 -> inception_3a/5x5
I0403 18:38:02.110728 23026 net.cpp:141] Setting up inception_3a/5x5
I0403 18:38:02.110754 23026 net.cpp:148] Top shape: 24 32 28 28 (602112)
I0403 18:38:02.110769 23026 net.cpp:156] Memory required for data: 539493408
I0403 18:38:02.110787 23026 layer_factory.hpp:77] Creating layer inception_3a/relu_5x5
I0403 18:38:02.110807 23026 net.cpp:91] Creating Layer inception_3a/relu_5x5
I0403 18:38:02.110823 23026 net.cpp:425] inception_3a/relu_5x5 <- inception_3a/5x5
I0403 18:38:02.110841 23026 net.cpp:386] inception_3a/relu_5x5 -> inception_3a/5x5 (in-place)
I0403 18:38:02.111006 23026 net.cpp:141] Setting up inception_3a/relu_5x5
I0403 18:38:02.111029 23026 net.cpp:148] Top shape: 24 32 28 28 (602112)
I0403 18:38:02.111044 23026 net.cpp:156] Memory required for data: 541901856
I0403 18:38:02.111058 23026 layer_factory.hpp:77] Creating layer inception_3a/pool
I0403 18:38:02.111078 23026 net.cpp:91] Creating Layer inception_3a/pool
I0403 18:38:02.111106 23026 net.cpp:425] inception_3a/pool <- pool2/3x3_s2_pool2/3x3_s2_0_split_3
I0403 18:38:02.111124 23026 net.cpp:399] inception_3a/pool -> inception_3a/pool
I0403 18:38:02.111181 23026 net.cpp:141] Setting up inception_3a/pool
I0403 18:38:02.111203 23026 net.cpp:148] Top shape: 24 192 28 28 (3612672)
I0403 18:38:02.111217 23026 net.cpp:156] Memory required for data: 556352544
I0403 18:38:02.111232 23026 layer_factory.hpp:77] Creating layer inception_3a/pool_proj
I0403 18:38:02.111253 23026 net.cpp:91] Creating Layer inception_3a/pool_proj
I0403 18:38:02.111269 23026 net.cpp:425] inception_3a/pool_proj <- inception_3a/pool
I0403 18:38:02.111290 23026 net.cpp:399] inception_3a/pool_proj -> inception_3a/pool_proj
I0403 18:38:02.112217 23026 net.cpp:141] Setting up inception_3a/pool_proj
I0403 18:38:02.112246 23026 net.cpp:148] Top shape: 24 32 28 28 (602112)
I0403 18:38:02.112262 23026 net.cpp:156] Memory required for data: 558760992
I0403 18:38:02.112283 23026 layer_factory.hpp:77] Creating layer inception_3a/relu_pool_proj
I0403 18:38:02.112304 23026 net.cpp:91] Creating Layer inception_3a/relu_pool_proj
I0403 18:38:02.112320 23026 net.cpp:425] inception_3a/relu_pool_proj <- inception_3a/pool_proj
I0403 18:38:02.112337 23026 net.cpp:386] inception_3a/relu_pool_proj -> inception_3a/pool_proj (in-place)
I0403 18:38:02.112602 23026 net.cpp:141] Setting up inception_3a/relu_pool_proj
I0403 18:38:02.112628 23026 net.cpp:148] Top shape: 24 32 28 28 (602112)
I0403 18:38:02.112643 23026 net.cpp:156] Memory required for data: 561169440
I0403 18:38:02.112658 23026 layer_factory.hpp:77] Creating layer inception_3a/output
I0403 18:38:02.112676 23026 net.cpp:91] Creating Layer inception_3a/output
I0403 18:38:02.112692 23026 net.cpp:425] inception_3a/output <- inception_3a/1x1
I0403 18:38:02.112709 23026 net.cpp:425] inception_3a/output <- inception_3a/3x3
I0403 18:38:02.112723 23026 net.cpp:425] inception_3a/output <- inception_3a/5x5
I0403 18:38:02.112738 23026 net.cpp:425] inception_3a/output <- inception_3a/pool_proj
I0403 18:38:02.112754 23026 net.cpp:399] inception_3a/output -> inception_3a/output
I0403 18:38:02.112798 23026 net.cpp:141] Setting up inception_3a/output
I0403 18:38:02.112823 23026 net.cpp:148] Top shape: 24 256 28 28 (4816896)
I0403 18:38:02.112838 23026 net.cpp:156] Memory required for data: 580437024
I0403 18:38:02.112854 23026 layer_factory.hpp:77] Creating layer inception_3a/output_inception_3a/output_0_split
I0403 18:38:02.112870 23026 net.cpp:91] Creating Layer inception_3a/output_inception_3a/output_0_split
I0403 18:38:02.112885 23026 net.cpp:425] inception_3a/output_inception_3a/output_0_split <- inception_3a/output
I0403 18:38:02.112903 23026 net.cpp:399] inception_3a/output_inception_3a/output_0_split -> inception_3a/output_inception_3a/output_0_split_0
I0403 18:38:02.112923 23026 net.cpp:399] inception_3a/output_inception_3a/output_0_split -> inception_3a/output_inception_3a/output_0_split_1
I0403 18:38:02.112946 23026 net.cpp:399] inception_3a/output_inception_3a/output_0_split -> inception_3a/output_inception_3a/output_0_split_2
I0403 18:38:02.112965 23026 net.cpp:399] inception_3a/output_inception_3a/output_0_split -> inception_3a/output_inception_3a/output_0_split_3
I0403 18:38:02.113037 23026 net.cpp:141] Setting up inception_3a/output_inception_3a/output_0_split
I0403 18:38:02.113059 23026 net.cpp:148] Top shape: 24 256 28 28 (4816896)
I0403 18:38:02.113075 23026 net.cpp:148] Top shape: 24 256 28 28 (4816896)
I0403 18:38:02.113090 23026 net.cpp:148] Top shape: 24 256 28 28 (4816896)
I0403 18:38:02.113104 23026 net.cpp:148] Top shape: 24 256 28 28 (4816896)
I0403 18:38:02.113117 23026 net.cpp:156] Memory required for data: 657507360
I0403 18:38:02.113131 23026 layer_factory.hpp:77] Creating layer inception_3b/1x1
I0403 18:38:02.113152 23026 net.cpp:91] Creating Layer inception_3b/1x1
I0403 18:38:02.113169 23026 net.cpp:425] inception_3b/1x1 <- inception_3a/output_inception_3a/output_0_split_0
I0403 18:38:02.113189 23026 net.cpp:399] inception_3b/1x1 -> inception_3b/1x1
I0403 18:38:02.114279 23026 net.cpp:141] Setting up inception_3b/1x1
I0403 18:38:02.114317 23026 net.cpp:148] Top shape: 24 128 28 28 (2408448)
I0403 18:38:02.114333 23026 net.cpp:156] Memory required for data: 667141152
I0403 18:38:02.114351 23026 layer_factory.hpp:77] Creating layer inception_3b/relu_1x1
I0403 18:38:02.114369 23026 net.cpp:91] Creating Layer inception_3b/relu_1x1
I0403 18:38:02.114384 23026 net.cpp:425] inception_3b/relu_1x1 <- inception_3b/1x1
I0403 18:38:02.114406 23026 net.cpp:386] inception_3b/relu_1x1 -> inception_3b/1x1 (in-place)
I0403 18:38:02.114584 23026 net.cpp:141] Setting up inception_3b/relu_1x1
I0403 18:38:02.114609 23026 net.cpp:148] Top shape: 24 128 28 28 (2408448)
I0403 18:38:02.114624 23026 net.cpp:156] Memory required for data: 676774944
I0403 18:38:02.114639 23026 layer_factory.hpp:77] Creating layer inception_3b/3x3_reduce
I0403 18:38:02.114660 23026 net.cpp:91] Creating Layer inception_3b/3x3_reduce
I0403 18:38:02.114676 23026 net.cpp:425] inception_3b/3x3_reduce <- inception_3a/output_inception_3a/output_0_split_1
I0403 18:38:02.114696 23026 net.cpp:399] inception_3b/3x3_reduce -> inception_3b/3x3_reduce
I0403 18:38:02.115787 23026 net.cpp:141] Setting up inception_3b/3x3_reduce
I0403 18:38:02.115813 23026 net.cpp:148] Top shape: 24 128 28 28 (2408448)
I0403 18:38:02.115828 23026 net.cpp:156] Memory required for data: 686408736
I0403 18:38:02.115845 23026 layer_factory.hpp:77] Creating layer inception_3b/relu_3x3_reduce
I0403 18:38:02.115864 23026 net.cpp:91] Creating Layer inception_3b/relu_3x3_reduce
I0403 18:38:02.115878 23026 net.cpp:425] inception_3b/relu_3x3_reduce <- inception_3b/3x3_reduce
I0403 18:38:02.115897 23026 net.cpp:386] inception_3b/relu_3x3_reduce -> inception_3b/3x3_reduce (in-place)
I0403 18:38:02.116063 23026 net.cpp:141] Setting up inception_3b/relu_3x3_reduce
I0403 18:38:02.116087 23026 net.cpp:148] Top shape: 24 128 28 28 (2408448)
I0403 18:38:02.116102 23026 net.cpp:156] Memory required for data: 696042528
I0403 18:38:02.116116 23026 layer_factory.hpp:77] Creating layer inception_3b/3x3
I0403 18:38:02.116140 23026 net.cpp:91] Creating Layer inception_3b/3x3
I0403 18:38:02.116158 23026 net.cpp:425] inception_3b/3x3 <- inception_3b/3x3_reduce
I0403 18:38:02.116176 23026 net.cpp:399] inception_3b/3x3 -> inception_3b/3x3
I0403 18:38:02.118986 23026 net.cpp:141] Setting up inception_3b/3x3
I0403 18:38:02.119014 23026 net.cpp:148] Top shape: 24 192 28 28 (3612672)
I0403 18:38:02.119029 23026 net.cpp:156] Memory required for data: 710493216
I0403 18:38:02.119047 23026 layer_factory.hpp:77] Creating layer inception_3b/relu_3x3
I0403 18:38:02.119067 23026 net.cpp:91] Creating Layer inception_3b/relu_3x3
I0403 18:38:02.119083 23026 net.cpp:425] inception_3b/relu_3x3 <- inception_3b/3x3
I0403 18:38:02.119101 23026 net.cpp:386] inception_3b/relu_3x3 -> inception_3b/3x3 (in-place)
I0403 18:38:02.119366 23026 net.cpp:141] Setting up inception_3b/relu_3x3
I0403 18:38:02.119391 23026 net.cpp:148] Top shape: 24 192 28 28 (3612672)
I0403 18:38:02.119406 23026 net.cpp:156] Memory required for data: 724943904
I0403 18:38:02.119421 23026 layer_factory.hpp:77] Creating layer inception_3b/5x5_reduce
I0403 18:38:02.119442 23026 net.cpp:91] Creating Layer inception_3b/5x5_reduce
I0403 18:38:02.119459 23026 net.cpp:425] inception_3b/5x5_reduce <- inception_3a/output_inception_3a/output_0_split_2
I0403 18:38:02.119480 23026 net.cpp:399] inception_3b/5x5_reduce -> inception_3b/5x5_reduce
I0403 18:38:02.120431 23026 net.cpp:141] Setting up inception_3b/5x5_reduce
I0403 18:38:02.120458 23026 net.cpp:148] Top shape: 24 32 28 28 (602112)
I0403 18:38:02.120473 23026 net.cpp:156] Memory required for data: 727352352
I0403 18:38:02.120491 23026 layer_factory.hpp:77] Creating layer inception_3b/relu_5x5_reduce
I0403 18:38:02.120512 23026 net.cpp:91] Creating Layer inception_3b/relu_5x5_reduce
I0403 18:38:02.120527 23026 net.cpp:425] inception_3b/relu_5x5_reduce <- inception_3b/5x5_reduce
I0403 18:38:02.120548 23026 net.cpp:386] inception_3b/relu_5x5_reduce -> inception_3b/5x5_reduce (in-place)
I0403 18:38:02.120731 23026 net.cpp:141] Setting up inception_3b/relu_5x5_reduce
I0403 18:38:02.120755 23026 net.cpp:148] Top shape: 24 32 28 28 (602112)
I0403 18:38:02.120769 23026 net.cpp:156] Memory required for data: 729760800
I0403 18:38:02.120784 23026 layer_factory.hpp:77] Creating layer inception_3b/5x5
I0403 18:38:02.120807 23026 net.cpp:91] Creating Layer inception_3b/5x5
I0403 18:38:02.120825 23026 net.cpp:425] inception_3b/5x5 <- inception_3b/5x5_reduce
I0403 18:38:02.120842 23026 net.cpp:399] inception_3b/5x5 -> inception_3b/5x5
I0403 18:38:02.122745 23026 net.cpp:141] Setting up inception_3b/5x5
I0403 18:38:02.122774 23026 net.cpp:148] Top shape: 24 96 28 28 (1806336)
I0403 18:38:02.122792 23026 net.cpp:156] Memory required for data: 736986144
I0403 18:38:02.122809 23026 layer_factory.hpp:77] Creating layer inception_3b/relu_5x5
I0403 18:38:02.122828 23026 net.cpp:91] Creating Layer inception_3b/relu_5x5
I0403 18:38:02.122843 23026 net.cpp:425] inception_3b/relu_5x5 <- inception_3b/5x5
I0403 18:38:02.122860 23026 net.cpp:386] inception_3b/relu_5x5 -> inception_3b/5x5 (in-place)
I0403 18:38:02.123042 23026 net.cpp:141] Setting up inception_3b/relu_5x5
I0403 18:38:02.123066 23026 net.cpp:148] Top shape: 24 96 28 28 (1806336)
I0403 18:38:02.123081 23026 net.cpp:156] Memory required for data: 744211488
I0403 18:38:02.123095 23026 layer_factory.hpp:77] Creating layer inception_3b/pool
I0403 18:38:02.123112 23026 net.cpp:91] Creating Layer inception_3b/pool
I0403 18:38:02.123127 23026 net.cpp:425] inception_3b/pool <- inception_3a/output_inception_3a/output_0_split_3
I0403 18:38:02.123145 23026 net.cpp:399] inception_3b/pool -> inception_3b/pool
I0403 18:38:02.123201 23026 net.cpp:141] Setting up inception_3b/pool
I0403 18:38:02.123224 23026 net.cpp:148] Top shape: 24 256 28 28 (4816896)
I0403 18:38:02.123237 23026 net.cpp:156] Memory required for data: 763479072
I0403 18:38:02.123251 23026 layer_factory.hpp:77] Creating layer inception_3b/pool_proj
I0403 18:38:02.123271 23026 net.cpp:91] Creating Layer inception_3b/pool_proj
I0403 18:38:02.123288 23026 net.cpp:425] inception_3b/pool_proj <- inception_3b/pool
I0403 18:38:02.123308 23026 net.cpp:399] inception_3b/pool_proj -> inception_3b/pool_proj
I0403 18:38:02.124364 23026 net.cpp:141] Setting up inception_3b/pool_proj
I0403 18:38:02.124392 23026 net.cpp:148] Top shape: 24 64 28 28 (1204224)
I0403 18:38:02.124408 23026 net.cpp:156] Memory required for data: 768295968
I0403 18:38:02.124439 23026 layer_factory.hpp:77] Creating layer inception_3b/relu_pool_proj
I0403 18:38:02.124461 23026 net.cpp:91] Creating Layer inception_3b/relu_pool_proj
I0403 18:38:02.124478 23026 net.cpp:425] inception_3b/relu_pool_proj <- inception_3b/pool_proj
I0403 18:38:02.124508 23026 net.cpp:386] inception_3b/relu_pool_proj -> inception_3b/pool_proj (in-place)
I0403 18:38:02.124946 23026 net.cpp:141] Setting up inception_3b/relu_pool_proj
I0403 18:38:02.124972 23026 net.cpp:148] Top shape: 24 64 28 28 (1204224)
I0403 18:38:02.124986 23026 net.cpp:156] Memory required for data: 773112864
I0403 18:38:02.125000 23026 layer_factory.hpp:77] Creating layer inception_3b/output
I0403 18:38:02.125018 23026 net.cpp:91] Creating Layer inception_3b/output
I0403 18:38:02.125035 23026 net.cpp:425] inception_3b/output <- inception_3b/1x1
I0403 18:38:02.125051 23026 net.cpp:425] inception_3b/output <- inception_3b/3x3
I0403 18:38:02.125064 23026 net.cpp:425] inception_3b/output <- inception_3b/5x5
I0403 18:38:02.125079 23026 net.cpp:425] inception_3b/output <- inception_3b/pool_proj
I0403 18:38:02.125094 23026 net.cpp:399] inception_3b/output -> inception_3b/output
I0403 18:38:02.125138 23026 net.cpp:141] Setting up inception_3b/output
I0403 18:38:02.125159 23026 net.cpp:148] Top shape: 24 480 28 28 (9031680)
I0403 18:38:02.125172 23026 net.cpp:156] Memory required for data: 809239584
I0403 18:38:02.125186 23026 layer_factory.hpp:77] Creating layer pool3/3x3_s2
I0403 18:38:02.125202 23026 net.cpp:91] Creating Layer pool3/3x3_s2
I0403 18:38:02.125216 23026 net.cpp:425] pool3/3x3_s2 <- inception_3b/output
I0403 18:38:02.125252 23026 net.cpp:399] pool3/3x3_s2 -> pool3/3x3_s2
I0403 18:38:02.125308 23026 net.cpp:141] Setting up pool3/3x3_s2
I0403 18:38:02.125329 23026 net.cpp:148] Top shape: 24 480 14 14 (2257920)
I0403 18:38:02.125344 23026 net.cpp:156] Memory required for data: 818271264
I0403 18:38:02.125357 23026 layer_factory.hpp:77] Creating layer pool3/3x3_s2_pool3/3x3_s2_0_split
I0403 18:38:02.125372 23026 net.cpp:91] Creating Layer pool3/3x3_s2_pool3/3x3_s2_0_split
I0403 18:38:02.125386 23026 net.cpp:425] pool3/3x3_s2_pool3/3x3_s2_0_split <- pool3/3x3_s2
I0403 18:38:02.125403 23026 net.cpp:399] pool3/3x3_s2_pool3/3x3_s2_0_split -> pool3/3x3_s2_pool3/3x3_s2_0_split_0
I0403 18:38:02.125423 23026 net.cpp:399] pool3/3x3_s2_pool3/3x3_s2_0_split -> pool3/3x3_s2_pool3/3x3_s2_0_split_1
I0403 18:38:02.125442 23026 net.cpp:399] pool3/3x3_s2_pool3/3x3_s2_0_split -> pool3/3x3_s2_pool3/3x3_s2_0_split_2
I0403 18:38:02.125459 23026 net.cpp:399] pool3/3x3_s2_pool3/3x3_s2_0_split -> pool3/3x3_s2_pool3/3x3_s2_0_split_3
I0403 18:38:02.125530 23026 net.cpp:141] Setting up pool3/3x3_s2_pool3/3x3_s2_0_split
I0403 18:38:02.125556 23026 net.cpp:148] Top shape: 24 480 14 14 (2257920)
I0403 18:38:02.125572 23026 net.cpp:148] Top shape: 24 480 14 14 (2257920)
I0403 18:38:02.125586 23026 net.cpp:148] Top shape: 24 480 14 14 (2257920)
I0403 18:38:02.125600 23026 net.cpp:148] Top shape: 24 480 14 14 (2257920)
I0403 18:38:02.125613 23026 net.cpp:156] Memory required for data: 854397984
I0403 18:38:02.125627 23026 layer_factory.hpp:77] Creating layer inception_4a/1x1
I0403 18:38:02.125649 23026 net.cpp:91] Creating Layer inception_4a/1x1
I0403 18:38:02.125665 23026 net.cpp:425] inception_4a/1x1 <- pool3/3x3_s2_pool3/3x3_s2_0_split_0
I0403 18:38:02.125684 23026 net.cpp:399] inception_4a/1x1 -> inception_4a/1x1
I0403 18:38:02.127148 23026 net.cpp:141] Setting up inception_4a/1x1
I0403 18:38:02.127177 23026 net.cpp:148] Top shape: 24 192 14 14 (903168)
I0403 18:38:02.127192 23026 net.cpp:156] Memory required for data: 858010656
I0403 18:38:02.127208 23026 layer_factory.hpp:77] Creating layer inception_4a/relu_1x1
I0403 18:38:02.127225 23026 net.cpp:91] Creating Layer inception_4a/relu_1x1
I0403 18:38:02.127240 23026 net.cpp:425] inception_4a/relu_1x1 <- inception_4a/1x1
I0403 18:38:02.127259 23026 net.cpp:386] inception_4a/relu_1x1 -> inception_4a/1x1 (in-place)
I0403 18:38:02.127423 23026 net.cpp:141] Setting up inception_4a/relu_1x1
I0403 18:38:02.127446 23026 net.cpp:148] Top shape: 24 192 14 14 (903168)
I0403 18:38:02.127460 23026 net.cpp:156] Memory required for data: 861623328
I0403 18:38:02.127472 23026 layer_factory.hpp:77] Creating layer inception_4a/3x3_reduce
I0403 18:38:02.127493 23026 net.cpp:91] Creating Layer inception_4a/3x3_reduce
I0403 18:38:02.127509 23026 net.cpp:425] inception_4a/3x3_reduce <- pool3/3x3_s2_pool3/3x3_s2_0_split_1
I0403 18:38:02.127529 23026 net.cpp:399] inception_4a/3x3_reduce -> inception_4a/3x3_reduce
I0403 18:38:02.128723 23026 net.cpp:141] Setting up inception_4a/3x3_reduce
I0403 18:38:02.128751 23026 net.cpp:148] Top shape: 24 96 14 14 (451584)
I0403 18:38:02.128767 23026 net.cpp:156] Memory required for data: 863429664
I0403 18:38:02.128788 23026 layer_factory.hpp:77] Creating layer inception_4a/relu_3x3_reduce
I0403 18:38:02.128809 23026 net.cpp:91] Creating Layer inception_4a/relu_3x3_reduce
I0403 18:38:02.128824 23026 net.cpp:425] inception_4a/relu_3x3_reduce <- inception_4a/3x3_reduce
I0403 18:38:02.128841 23026 net.cpp:386] inception_4a/relu_3x3_reduce -> inception_4a/3x3_reduce (in-place)
I0403 18:38:02.129004 23026 net.cpp:141] Setting up inception_4a/relu_3x3_reduce
I0403 18:38:02.129029 23026 net.cpp:148] Top shape: 24 96 14 14 (451584)
I0403 18:38:02.129041 23026 net.cpp:156] Memory required for data: 865236000
I0403 18:38:02.129055 23026 layer_factory.hpp:77] Creating layer inception_4a/3x3
I0403 18:38:02.129076 23026 net.cpp:91] Creating Layer inception_4a/3x3
I0403 18:38:02.129093 23026 net.cpp:425] inception_4a/3x3 <- inception_4a/3x3_reduce
I0403 18:38:02.129113 23026 net.cpp:399] inception_4a/3x3 -> inception_4a/3x3
I0403 18:38:02.131634 23026 net.cpp:141] Setting up inception_4a/3x3
I0403 18:38:02.131661 23026 net.cpp:148] Top shape: 24 208 14 14 (978432)
I0403 18:38:02.131677 23026 net.cpp:156] Memory required for data: 869149728
I0403 18:38:02.131695 23026 layer_factory.hpp:77] Creating layer inception_4a/relu_3x3
I0403 18:38:02.131711 23026 net.cpp:91] Creating Layer inception_4a/relu_3x3
I0403 18:38:02.131726 23026 net.cpp:425] inception_4a/relu_3x3 <- inception_4a/3x3
I0403 18:38:02.131745 23026 net.cpp:386] inception_4a/relu_3x3 -> inception_4a/3x3 (in-place)
I0403 18:38:02.132010 23026 net.cpp:141] Setting up inception_4a/relu_3x3
I0403 18:38:02.132035 23026 net.cpp:148] Top shape: 24 208 14 14 (978432)
I0403 18:38:02.132050 23026 net.cpp:156] Memory required for data: 873063456
I0403 18:38:02.132064 23026 layer_factory.hpp:77] Creating layer inception_4a/5x5_reduce
I0403 18:38:02.132086 23026 net.cpp:91] Creating Layer inception_4a/5x5_reduce
I0403 18:38:02.132103 23026 net.cpp:425] inception_4a/5x5_reduce <- pool3/3x3_s2_pool3/3x3_s2_0_split_2
I0403 18:38:02.132123 23026 net.cpp:399] inception_4a/5x5_reduce -> inception_4a/5x5_reduce
I0403 18:38:02.133080 23026 net.cpp:141] Setting up inception_4a/5x5_reduce
I0403 18:38:02.133106 23026 net.cpp:148] Top shape: 24 16 14 14 (75264)
I0403 18:38:02.133121 23026 net.cpp:156] Memory required for data: 873364512
I0403 18:38:02.133138 23026 layer_factory.hpp:77] Creating layer inception_4a/relu_5x5_reduce
I0403 18:38:02.133158 23026 net.cpp:91] Creating Layer inception_4a/relu_5x5_reduce
I0403 18:38:02.133174 23026 net.cpp:425] inception_4a/relu_5x5_reduce <- inception_4a/5x5_reduce
I0403 18:38:02.133191 23026 net.cpp:386] inception_4a/relu_5x5_reduce -> inception_4a/5x5_reduce (in-place)
I0403 18:38:02.133355 23026 net.cpp:141] Setting up inception_4a/relu_5x5_reduce
I0403 18:38:02.133378 23026 net.cpp:148] Top shape: 24 16 14 14 (75264)
I0403 18:38:02.133393 23026 net.cpp:156] Memory required for data: 873665568
I0403 18:38:02.133406 23026 layer_factory.hpp:77] Creating layer inception_4a/5x5
I0403 18:38:02.133429 23026 net.cpp:91] Creating Layer inception_4a/5x5
I0403 18:38:02.133445 23026 net.cpp:425] inception_4a/5x5 <- inception_4a/5x5_reduce
I0403 18:38:02.133463 23026 net.cpp:399] inception_4a/5x5 -> inception_4a/5x5
I0403 18:38:02.134481 23026 net.cpp:141] Setting up inception_4a/5x5
I0403 18:38:02.134507 23026 net.cpp:148] Top shape: 24 48 14 14 (225792)
I0403 18:38:02.134526 23026 net.cpp:156] Memory required for data: 874568736
I0403 18:38:02.134553 23026 layer_factory.hpp:77] Creating layer inception_4a/relu_5x5
I0403 18:38:02.134573 23026 net.cpp:91] Creating Layer inception_4a/relu_5x5
I0403 18:38:02.134589 23026 net.cpp:425] inception_4a/relu_5x5 <- inception_4a/5x5
I0403 18:38:02.134605 23026 net.cpp:386] inception_4a/relu_5x5 -> inception_4a/5x5 (in-place)
I0403 18:38:02.134776 23026 net.cpp:141] Setting up inception_4a/relu_5x5
I0403 18:38:02.134804 23026 net.cpp:148] Top shape: 24 48 14 14 (225792)
I0403 18:38:02.134819 23026 net.cpp:156] Memory required for data: 875471904
I0403 18:38:02.134834 23026 layer_factory.hpp:77] Creating layer inception_4a/pool
I0403 18:38:02.134850 23026 net.cpp:91] Creating Layer inception_4a/pool
I0403 18:38:02.134865 23026 net.cpp:425] inception_4a/pool <- pool3/3x3_s2_pool3/3x3_s2_0_split_3
I0403 18:38:02.134883 23026 net.cpp:399] inception_4a/pool -> inception_4a/pool
I0403 18:38:02.134941 23026 net.cpp:141] Setting up inception_4a/pool
I0403 18:38:02.134965 23026 net.cpp:148] Top shape: 24 480 14 14 (2257920)
I0403 18:38:02.134980 23026 net.cpp:156] Memory required for data: 884503584
I0403 18:38:02.134994 23026 layer_factory.hpp:77] Creating layer inception_4a/pool_proj
I0403 18:38:02.135012 23026 net.cpp:91] Creating Layer inception_4a/pool_proj
I0403 18:38:02.135028 23026 net.cpp:425] inception_4a/pool_proj <- inception_4a/pool
I0403 18:38:02.135048 23026 net.cpp:399] inception_4a/pool_proj -> inception_4a/pool_proj
I0403 18:38:02.136148 23026 net.cpp:141] Setting up inception_4a/pool_proj
I0403 18:38:02.136178 23026 net.cpp:148] Top shape: 24 64 14 14 (301056)
I0403 18:38:02.136207 23026 net.cpp:156] Memory required for data: 885707808
I0403 18:38:02.136226 23026 layer_factory.hpp:77] Creating layer inception_4a/relu_pool_proj
I0403 18:38:02.136245 23026 net.cpp:91] Creating Layer inception_4a/relu_pool_proj
I0403 18:38:02.136260 23026 net.cpp:425] inception_4a/relu_pool_proj <- inception_4a/pool_proj
I0403 18:38:02.136276 23026 net.cpp:386] inception_4a/relu_pool_proj -> inception_4a/pool_proj (in-place)
I0403 18:38:02.136548 23026 net.cpp:141] Setting up inception_4a/relu_pool_proj
I0403 18:38:02.136575 23026 net.cpp:148] Top shape: 24 64 14 14 (301056)
I0403 18:38:02.136590 23026 net.cpp:156] Memory required for data: 886912032
I0403 18:38:02.136605 23026 layer_factory.hpp:77] Creating layer inception_4a/output
I0403 18:38:02.136620 23026 net.cpp:91] Creating Layer inception_4a/output
I0403 18:38:02.136636 23026 net.cpp:425] inception_4a/output <- inception_4a/1x1
I0403 18:38:02.136652 23026 net.cpp:425] inception_4a/output <- inception_4a/3x3
I0403 18:38:02.136668 23026 net.cpp:425] inception_4a/output <- inception_4a/5x5
I0403 18:38:02.136683 23026 net.cpp:425] inception_4a/output <- inception_4a/pool_proj
I0403 18:38:02.136699 23026 net.cpp:399] inception_4a/output -> inception_4a/output
I0403 18:38:02.136744 23026 net.cpp:141] Setting up inception_4a/output
I0403 18:38:02.136765 23026 net.cpp:148] Top shape: 24 512 14 14 (2408448)
I0403 18:38:02.136780 23026 net.cpp:156] Memory required for data: 896545824
I0403 18:38:02.136793 23026 layer_factory.hpp:77] Creating layer inception_4a/output_inception_4a/output_0_split
I0403 18:38:02.136811 23026 net.cpp:91] Creating Layer inception_4a/output_inception_4a/output_0_split
I0403 18:38:02.136827 23026 net.cpp:425] inception_4a/output_inception_4a/output_0_split <- inception_4a/output
I0403 18:38:02.136844 23026 net.cpp:399] inception_4a/output_inception_4a/output_0_split -> inception_4a/output_inception_4a/output_0_split_0
I0403 18:38:02.136864 23026 net.cpp:399] inception_4a/output_inception_4a/output_0_split -> inception_4a/output_inception_4a/output_0_split_1
I0403 18:38:02.136884 23026 net.cpp:399] inception_4a/output_inception_4a/output_0_split -> inception_4a/output_inception_4a/output_0_split_2
I0403 18:38:02.136906 23026 net.cpp:399] inception_4a/output_inception_4a/output_0_split -> inception_4a/output_inception_4a/output_0_split_3
I0403 18:38:02.136927 23026 net.cpp:399] inception_4a/output_inception_4a/output_0_split -> inception_4a/output_inception_4a/output_0_split_4
I0403 18:38:02.137014 23026 net.cpp:141] Setting up inception_4a/output_inception_4a/output_0_split
I0403 18:38:02.137037 23026 net.cpp:148] Top shape: 24 512 14 14 (2408448)
I0403 18:38:02.137051 23026 net.cpp:148] Top shape: 24 512 14 14 (2408448)
I0403 18:38:02.137066 23026 net.cpp:148] Top shape: 24 512 14 14 (2408448)
I0403 18:38:02.137080 23026 net.cpp:148] Top shape: 24 512 14 14 (2408448)
I0403 18:38:02.137094 23026 net.cpp:148] Top shape: 24 512 14 14 (2408448)
I0403 18:38:02.137107 23026 net.cpp:156] Memory required for data: 944714784
I0403 18:38:02.137120 23026 layer_factory.hpp:77] Creating layer loss1/ave_pool
I0403 18:38:02.137140 23026 net.cpp:91] Creating Layer loss1/ave_pool
I0403 18:38:02.137156 23026 net.cpp:425] loss1/ave_pool <- inception_4a/output_inception_4a/output_0_split_0
I0403 18:38:02.137172 23026 net.cpp:399] loss1/ave_pool -> loss1/ave_pool
I0403 18:38:02.137362 23026 net.cpp:141] Setting up loss1/ave_pool
I0403 18:38:02.137392 23026 net.cpp:148] Top shape: 24 512 4 4 (196608)
I0403 18:38:02.137406 23026 net.cpp:156] Memory required for data: 945501216
I0403 18:38:02.137419 23026 layer_factory.hpp:77] Creating layer loss1/conv
I0403 18:38:02.137440 23026 net.cpp:91] Creating Layer loss1/conv
I0403 18:38:02.137459 23026 net.cpp:425] loss1/conv <- loss1/ave_pool
I0403 18:38:02.137476 23026 net.cpp:399] loss1/conv -> loss1/conv
I0403 18:38:02.138885 23026 net.cpp:141] Setting up loss1/conv
I0403 18:38:02.138913 23026 net.cpp:148] Top shape: 24 128 4 4 (49152)
I0403 18:38:02.138942 23026 net.cpp:156] Memory required for data: 945697824
I0403 18:38:02.138962 23026 layer_factory.hpp:77] Creating layer loss1/relu_conv
I0403 18:38:02.138983 23026 net.cpp:91] Creating Layer loss1/relu_conv
I0403 18:38:02.138999 23026 net.cpp:425] loss1/relu_conv <- loss1/conv
I0403 18:38:02.139016 23026 net.cpp:386] loss1/relu_conv -> loss1/conv (in-place)
I0403 18:38:02.139289 23026 net.cpp:141] Setting up loss1/relu_conv
I0403 18:38:02.139314 23026 net.cpp:148] Top shape: 24 128 4 4 (49152)
I0403 18:38:02.139329 23026 net.cpp:156] Memory required for data: 945894432
I0403 18:38:02.139344 23026 layer_factory.hpp:77] Creating layer loss1/fc
I0403 18:38:02.139367 23026 net.cpp:91] Creating Layer loss1/fc
I0403 18:38:02.139387 23026 net.cpp:425] loss1/fc <- loss1/conv
I0403 18:38:02.139405 23026 net.cpp:399] loss1/fc -> loss1/fc
I0403 18:38:02.156718 23026 net.cpp:141] Setting up loss1/fc
I0403 18:38:02.156750 23026 net.cpp:148] Top shape: 24 1024 (24576)
I0403 18:38:02.156765 23026 net.cpp:156] Memory required for data: 945992736
I0403 18:38:02.156783 23026 layer_factory.hpp:77] Creating layer loss1/relu_fc
I0403 18:38:02.156803 23026 net.cpp:91] Creating Layer loss1/relu_fc
I0403 18:38:02.156819 23026 net.cpp:425] loss1/relu_fc <- loss1/fc
I0403 18:38:02.156836 23026 net.cpp:386] loss1/relu_fc -> loss1/fc (in-place)
I0403 18:38:02.157011 23026 net.cpp:141] Setting up loss1/relu_fc
I0403 18:38:02.157034 23026 net.cpp:148] Top shape: 24 1024 (24576)
I0403 18:38:02.157049 23026 net.cpp:156] Memory required for data: 946091040
I0403 18:38:02.157063 23026 layer_factory.hpp:77] Creating layer loss1/drop_fc
I0403 18:38:02.157090 23026 net.cpp:91] Creating Layer loss1/drop_fc
I0403 18:38:02.157107 23026 net.cpp:425] loss1/drop_fc <- loss1/fc
I0403 18:38:02.157126 23026 net.cpp:386] loss1/drop_fc -> loss1/fc (in-place)
I0403 18:38:02.157176 23026 net.cpp:141] Setting up loss1/drop_fc
I0403 18:38:02.157196 23026 net.cpp:148] Top shape: 24 1024 (24576)
I0403 18:38:02.157210 23026 net.cpp:156] Memory required for data: 946189344
I0403 18:38:02.157224 23026 layer_factory.hpp:77] Creating layer loss1/classifier_plantvillage
I0403 18:38:02.157245 23026 net.cpp:91] Creating Layer loss1/classifier_plantvillage
I0403 18:38:02.157263 23026 net.cpp:425] loss1/classifier_plantvillage <- loss1/fc
I0403 18:38:02.157280 23026 net.cpp:399] loss1/classifier_plantvillage -> loss1/classifier_plantvillage
I0403 18:38:02.158152 23026 net.cpp:141] Setting up loss1/classifier_plantvillage
I0403 18:38:02.158180 23026 net.cpp:148] Top shape: 24 38 (912)
I0403 18:38:02.158196 23026 net.cpp:156] Memory required for data: 946192992
I0403 18:38:02.158213 23026 layer_factory.hpp:77] Creating layer loss1/classifier_plantvillage_loss1/classifier_plantvillage_0_split
I0403 18:38:02.158231 23026 net.cpp:91] Creating Layer loss1/classifier_plantvillage_loss1/classifier_plantvillage_0_split
I0403 18:38:02.158246 23026 net.cpp:425] loss1/classifier_plantvillage_loss1/classifier_plantvillage_0_split <- loss1/classifier_plantvillage
I0403 18:38:02.158264 23026 net.cpp:399] loss1/classifier_plantvillage_loss1/classifier_plantvillage_0_split -> loss1/classifier_plantvillage_loss1/classifier_plantvillage_0_split_0
I0403 18:38:02.158285 23026 net.cpp:399] loss1/classifier_plantvillage_loss1/classifier_plantvillage_0_split -> loss1/classifier_plantvillage_loss1/classifier_plantvillage_0_split_1
I0403 18:38:02.158304 23026 net.cpp:399] loss1/classifier_plantvillage_loss1/classifier_plantvillage_0_split -> loss1/classifier_plantvillage_loss1/classifier_plantvillage_0_split_2
I0403 18:38:02.158366 23026 net.cpp:141] Setting up loss1/classifier_plantvillage_loss1/classifier_plantvillage_0_split
I0403 18:38:02.158388 23026 net.cpp:148] Top shape: 24 38 (912)
I0403 18:38:02.158403 23026 net.cpp:148] Top shape: 24 38 (912)
I0403 18:38:02.158417 23026 net.cpp:148] Top shape: 24 38 (912)
I0403 18:38:02.158432 23026 net.cpp:156] Memory required for data: 946203936
I0403 18:38:02.158444 23026 layer_factory.hpp:77] Creating layer inception_4b/1x1
I0403 18:38:02.158465 23026 net.cpp:91] Creating Layer inception_4b/1x1
I0403 18:38:02.158496 23026 net.cpp:425] inception_4b/1x1 <- inception_4a/output_inception_4a/output_0_split_1
I0403 18:38:02.158515 23026 net.cpp:399] inception_4b/1x1 -> inception_4b/1x1
I0403 18:38:02.160058 23026 net.cpp:141] Setting up inception_4b/1x1
I0403 18:38:02.160084 23026 net.cpp:148] Top shape: 24 160 14 14 (752640)
I0403 18:38:02.160099 23026 net.cpp:156] Memory required for data: 949214496
I0403 18:38:02.160116 23026 layer_factory.hpp:77] Creating layer inception_4b/relu_1x1
I0403 18:38:02.160136 23026 net.cpp:91] Creating Layer inception_4b/relu_1x1
I0403 18:38:02.160152 23026 net.cpp:425] inception_4b/relu_1x1 <- inception_4b/1x1
I0403 18:38:02.160168 23026 net.cpp:386] inception_4b/relu_1x1 -> inception_4b/1x1 (in-place)
I0403 18:38:02.160336 23026 net.cpp:141] Setting up inception_4b/relu_1x1
I0403 18:38:02.160359 23026 net.cpp:148] Top shape: 24 160 14 14 (752640)
I0403 18:38:02.160373 23026 net.cpp:156] Memory required for data: 952225056
I0403 18:38:02.160387 23026 layer_factory.hpp:77] Creating layer inception_4b/3x3_reduce
I0403 18:38:02.160408 23026 net.cpp:91] Creating Layer inception_4b/3x3_reduce
I0403 18:38:02.160430 23026 net.cpp:425] inception_4b/3x3_reduce <- inception_4a/output_inception_4a/output_0_split_2
I0403 18:38:02.160449 23026 net.cpp:399] inception_4b/3x3_reduce -> inception_4b/3x3_reduce
I0403 18:38:02.161723 23026 net.cpp:141] Setting up inception_4b/3x3_reduce
I0403 18:38:02.161749 23026 net.cpp:148] Top shape: 24 112 14 14 (526848)
I0403 18:38:02.161764 23026 net.cpp:156] Memory required for data: 954332448
I0403 18:38:02.161782 23026 layer_factory.hpp:77] Creating layer inception_4b/relu_3x3_reduce
I0403 18:38:02.161800 23026 net.cpp:91] Creating Layer inception_4b/relu_3x3_reduce
I0403 18:38:02.161816 23026 net.cpp:425] inception_4b/relu_3x3_reduce <- inception_4b/3x3_reduce
I0403 18:38:02.161834 23026 net.cpp:386] inception_4b/relu_3x3_reduce -> inception_4b/3x3_reduce (in-place)
I0403 18:38:02.162098 23026 net.cpp:141] Setting up inception_4b/relu_3x3_reduce
I0403 18:38:02.162123 23026 net.cpp:148] Top shape: 24 112 14 14 (526848)
I0403 18:38:02.162137 23026 net.cpp:156] Memory required for data: 956439840
I0403 18:38:02.162152 23026 layer_factory.hpp:77] Creating layer inception_4b/3x3
I0403 18:38:02.162173 23026 net.cpp:91] Creating Layer inception_4b/3x3
I0403 18:38:02.162189 23026 net.cpp:425] inception_4b/3x3 <- inception_4b/3x3_reduce
I0403 18:38:02.162209 23026 net.cpp:399] inception_4b/3x3 -> inception_4b/3x3
I0403 18:38:02.165063 23026 net.cpp:141] Setting up inception_4b/3x3
I0403 18:38:02.165093 23026 net.cpp:148] Top shape: 24 224 14 14 (1053696)
I0403 18:38:02.165109 23026 net.cpp:156] Memory required for data: 960654624
I0403 18:38:02.165127 23026 layer_factory.hpp:77] Creating layer inception_4b/relu_3x3
I0403 18:38:02.165144 23026 net.cpp:91] Creating Layer inception_4b/relu_3x3
I0403 18:38:02.165159 23026 net.cpp:425] inception_4b/relu_3x3 <- inception_4b/3x3
I0403 18:38:02.165179 23026 net.cpp:386] inception_4b/relu_3x3 -> inception_4b/3x3 (in-place)
I0403 18:38:02.165350 23026 net.cpp:141] Setting up inception_4b/relu_3x3
I0403 18:38:02.165374 23026 net.cpp:148] Top shape: 24 224 14 14 (1053696)
I0403 18:38:02.165388 23026 net.cpp:156] Memory required for data: 964869408
I0403 18:38:02.165401 23026 layer_factory.hpp:77] Creating layer inception_4b/5x5_reduce
I0403 18:38:02.165422 23026 net.cpp:91] Creating Layer inception_4b/5x5_reduce
I0403 18:38:02.165439 23026 net.cpp:425] inception_4b/5x5_reduce <- inception_4a/output_inception_4a/output_0_split_3
I0403 18:38:02.165460 23026 net.cpp:399] inception_4b/5x5_reduce -> inception_4b/5x5_reduce
I0403 18:38:02.166484 23026 net.cpp:141] Setting up inception_4b/5x5_reduce
I0403 18:38:02.166510 23026 net.cpp:148] Top shape: 24 24 14 14 (112896)
I0403 18:38:02.166525 23026 net.cpp:156] Memory required for data: 965320992
I0403 18:38:02.166548 23026 layer_factory.hpp:77] Creating layer inception_4b/relu_5x5_reduce
I0403 18:38:02.166568 23026 net.cpp:91] Creating Layer inception_4b/relu_5x5_reduce
I0403 18:38:02.166597 23026 net.cpp:425] inception_4b/relu_5x5_reduce <- inception_4b/5x5_reduce
I0403 18:38:02.166615 23026 net.cpp:386] inception_4b/relu_5x5_reduce -> inception_4b/5x5_reduce (in-place)
I0403 18:38:02.166787 23026 net.cpp:141] Setting up inception_4b/relu_5x5_reduce
I0403 18:38:02.166812 23026 net.cpp:148] Top shape: 24 24 14 14 (112896)
I0403 18:38:02.166827 23026 net.cpp:156] Memory required for data: 965772576
I0403 18:38:02.166841 23026 layer_factory.hpp:77] Creating layer inception_4b/5x5
I0403 18:38:02.166862 23026 net.cpp:91] Creating Layer inception_4b/5x5
I0403 18:38:02.166877 23026 net.cpp:425] inception_4b/5x5 <- inception_4b/5x5_reduce
I0403 18:38:02.166896 23026 net.cpp:399] inception_4b/5x5 -> inception_4b/5x5
I0403 18:38:02.168059 23026 net.cpp:141] Setting up inception_4b/5x5
I0403 18:38:02.168084 23026 net.cpp:148] Top shape: 24 64 14 14 (301056)
I0403 18:38:02.168099 23026 net.cpp:156] Memory required for data: 966976800
I0403 18:38:02.168117 23026 layer_factory.hpp:77] Creating layer inception_4b/relu_5x5
I0403 18:38:02.168135 23026 net.cpp:91] Creating Layer inception_4b/relu_5x5
I0403 18:38:02.168150 23026 net.cpp:425] inception_4b/relu_5x5 <- inception_4b/5x5
I0403 18:38:02.168167 23026 net.cpp:386] inception_4b/relu_5x5 -> inception_4b/5x5 (in-place)
I0403 18:38:02.168439 23026 net.cpp:141] Setting up inception_4b/relu_5x5
I0403 18:38:02.168464 23026 net.cpp:148] Top shape: 24 64 14 14 (301056)
I0403 18:38:02.168478 23026 net.cpp:156] Memory required for data: 968181024
I0403 18:38:02.168493 23026 layer_factory.hpp:77] Creating layer inception_4b/pool
I0403 18:38:02.168509 23026 net.cpp:91] Creating Layer inception_4b/pool
I0403 18:38:02.168524 23026 net.cpp:425] inception_4b/pool <- inception_4a/output_inception_4a/output_0_split_4
I0403 18:38:02.168547 23026 net.cpp:399] inception_4b/pool -> inception_4b/pool
I0403 18:38:02.168609 23026 net.cpp:141] Setting up inception_4b/pool
I0403 18:38:02.168632 23026 net.cpp:148] Top shape: 24 512 14 14 (2408448)
I0403 18:38:02.168645 23026 net.cpp:156] Memory required for data: 977814816
I0403 18:38:02.168659 23026 layer_factory.hpp:77] Creating layer inception_4b/pool_proj
I0403 18:38:02.168679 23026 net.cpp:91] Creating Layer inception_4b/pool_proj
I0403 18:38:02.168695 23026 net.cpp:425] inception_4b/pool_proj <- inception_4b/pool
I0403 18:38:02.168715 23026 net.cpp:399] inception_4b/pool_proj -> inception_4b/pool_proj
I0403 18:38:02.169888 23026 net.cpp:141] Setting up inception_4b/pool_proj
I0403 18:38:02.169914 23026 net.cpp:148] Top shape: 24 64 14 14 (301056)
I0403 18:38:02.169929 23026 net.cpp:156] Memory required for data: 979019040
I0403 18:38:02.169946 23026 layer_factory.hpp:77] Creating layer inception_4b/relu_pool_proj
I0403 18:38:02.169967 23026 net.cpp:91] Creating Layer inception_4b/relu_pool_proj
I0403 18:38:02.169983 23026 net.cpp:425] inception_4b/relu_pool_proj <- inception_4b/pool_proj
I0403 18:38:02.169999 23026 net.cpp:386] inception_4b/relu_pool_proj -> inception_4b/pool_proj (in-place)
I0403 18:38:02.170168 23026 net.cpp:141] Setting up inception_4b/relu_pool_proj
I0403 18:38:02.170192 23026 net.cpp:148] Top shape: 24 64 14 14 (301056)
I0403 18:38:02.170207 23026 net.cpp:156] Memory required for data: 980223264
I0403 18:38:02.170219 23026 layer_factory.hpp:77] Creating layer inception_4b/output
I0403 18:38:02.170238 23026 net.cpp:91] Creating Layer inception_4b/output
I0403 18:38:02.170253 23026 net.cpp:425] inception_4b/output <- inception_4b/1x1
I0403 18:38:02.170269 23026 net.cpp:425] inception_4b/output <- inception_4b/3x3
I0403 18:38:02.170284 23026 net.cpp:425] inception_4b/output <- inception_4b/5x5
I0403 18:38:02.170300 23026 net.cpp:425] inception_4b/output <- inception_4b/pool_proj
I0403 18:38:02.170315 23026 net.cpp:399] inception_4b/output -> inception_4b/output
I0403 18:38:02.170361 23026 net.cpp:141] Setting up inception_4b/output
I0403 18:38:02.170382 23026 net.cpp:148] Top shape: 24 512 14 14 (2408448)
I0403 18:38:02.170395 23026 net.cpp:156] Memory required for data: 989857056
I0403 18:38:02.170423 23026 layer_factory.hpp:77] Creating layer inception_4b/output_inception_4b/output_0_split
I0403 18:38:02.170439 23026 net.cpp:91] Creating Layer inception_4b/output_inception_4b/output_0_split
I0403 18:38:02.170454 23026 net.cpp:425] inception_4b/output_inception_4b/output_0_split <- inception_4b/output
I0403 18:38:02.170472 23026 net.cpp:399] inception_4b/output_inception_4b/output_0_split -> inception_4b/output_inception_4b/output_0_split_0
I0403 18:38:02.170492 23026 net.cpp:399] inception_4b/output_inception_4b/output_0_split -> inception_4b/output_inception_4b/output_0_split_1
I0403 18:38:02.170512 23026 net.cpp:399] inception_4b/output_inception_4b/output_0_split -> inception_4b/output_inception_4b/output_0_split_2
I0403 18:38:02.170531 23026 net.cpp:399] inception_4b/output_inception_4b/output_0_split -> inception_4b/output_inception_4b/output_0_split_3
I0403 18:38:02.170619 23026 net.cpp:141] Setting up inception_4b/output_inception_4b/output_0_split
I0403 18:38:02.170640 23026 net.cpp:148] Top shape: 24 512 14 14 (2408448)
I0403 18:38:02.170655 23026 net.cpp:148] Top shape: 24 512 14 14 (2408448)
I0403 18:38:02.170670 23026 net.cpp:148] Top shape: 24 512 14 14 (2408448)
I0403 18:38:02.170685 23026 net.cpp:148] Top shape: 24 512 14 14 (2408448)
I0403 18:38:02.170697 23026 net.cpp:156] Memory required for data: 1028392224
I0403 18:38:02.170711 23026 layer_factory.hpp:77] Creating layer inception_4c/1x1
I0403 18:38:02.170732 23026 net.cpp:91] Creating Layer inception_4c/1x1
I0403 18:38:02.170747 23026 net.cpp:425] inception_4c/1x1 <- inception_4b/output_inception_4b/output_0_split_0
I0403 18:38:02.170768 23026 net.cpp:399] inception_4c/1x1 -> inception_4c/1x1
I0403 18:38:02.172155 23026 net.cpp:141] Setting up inception_4c/1x1
I0403 18:38:02.172181 23026 net.cpp:148] Top shape: 24 128 14 14 (602112)
I0403 18:38:02.172197 23026 net.cpp:156] Memory required for data: 1030800672
I0403 18:38:02.172214 23026 layer_factory.hpp:77] Creating layer inception_4c/relu_1x1
I0403 18:38:02.172235 23026 net.cpp:91] Creating Layer inception_4c/relu_1x1
I0403 18:38:02.172251 23026 net.cpp:425] inception_4c/relu_1x1 <- inception_4c/1x1
I0403 18:38:02.172268 23026 net.cpp:386] inception_4c/relu_1x1 -> inception_4c/1x1 (in-place)
I0403 18:38:02.172441 23026 net.cpp:141] Setting up inception_4c/relu_1x1
I0403 18:38:02.172463 23026 net.cpp:148] Top shape: 24 128 14 14 (602112)
I0403 18:38:02.172477 23026 net.cpp:156] Memory required for data: 1033209120
I0403 18:38:02.172490 23026 layer_factory.hpp:77] Creating layer inception_4c/3x3_reduce
I0403 18:38:02.172511 23026 net.cpp:91] Creating Layer inception_4c/3x3_reduce
I0403 18:38:02.172528 23026 net.cpp:425] inception_4c/3x3_reduce <- inception_4b/output_inception_4b/output_0_split_1
I0403 18:38:02.172554 23026 net.cpp:399] inception_4c/3x3_reduce -> inception_4c/3x3_reduce
I0403 18:38:02.174428 23026 net.cpp:141] Setting up inception_4c/3x3_reduce
I0403 18:38:02.174455 23026 net.cpp:148] Top shape: 24 128 14 14 (602112)
I0403 18:38:02.174471 23026 net.cpp:156] Memory required for data: 1035617568
I0403 18:38:02.174489 23026 layer_factory.hpp:77] Creating layer inception_4c/relu_3x3_reduce
I0403 18:38:02.174505 23026 net.cpp:91] Creating Layer inception_4c/relu_3x3_reduce
I0403 18:38:02.174520 23026 net.cpp:425] inception_4c/relu_3x3_reduce <- inception_4c/3x3_reduce
I0403 18:38:02.174549 23026 net.cpp:386] inception_4c/relu_3x3_reduce -> inception_4c/3x3_reduce (in-place)
I0403 18:38:02.174824 23026 net.cpp:141] Setting up inception_4c/relu_3x3_reduce
I0403 18:38:02.174849 23026 net.cpp:148] Top shape: 24 128 14 14 (602112)
I0403 18:38:02.174863 23026 net.cpp:156] Memory required for data: 1038026016
I0403 18:38:02.174877 23026 layer_factory.hpp:77] Creating layer inception_4c/3x3
I0403 18:38:02.174899 23026 net.cpp:91] Creating Layer inception_4c/3x3
I0403 18:38:02.174916 23026 net.cpp:425] inception_4c/3x3 <- inception_4c/3x3_reduce
I0403 18:38:02.174937 23026 net.cpp:399] inception_4c/3x3 -> inception_4c/3x3
I0403 18:38:02.178344 23026 net.cpp:141] Setting up inception_4c/3x3
I0403 18:38:02.178383 23026 net.cpp:148] Top shape: 24 256 14 14 (1204224)
I0403 18:38:02.178398 23026 net.cpp:156] Memory required for data: 1042842912
I0403 18:38:02.178427 23026 layer_factory.hpp:77] Creating layer inception_4c/relu_3x3
I0403 18:38:02.178449 23026 net.cpp:91] Creating Layer inception_4c/relu_3x3
I0403 18:38:02.178467 23026 net.cpp:425] inception_4c/relu_3x3 <- inception_4c/3x3
I0403 18:38:02.178483 23026 net.cpp:386] inception_4c/relu_3x3 -> inception_4c/3x3 (in-place)
I0403 18:38:02.178666 23026 net.cpp:141] Setting up inception_4c/relu_3x3
I0403 18:38:02.178690 23026 net.cpp:148] Top shape: 24 256 14 14 (1204224)
I0403 18:38:02.178704 23026 net.cpp:156] Memory required for data: 1047659808
I0403 18:38:02.178717 23026 layer_factory.hpp:77] Creating layer inception_4c/5x5_reduce
I0403 18:38:02.178740 23026 net.cpp:91] Creating Layer inception_4c/5x5_reduce
I0403 18:38:02.178757 23026 net.cpp:425] inception_4c/5x5_reduce <- inception_4b/output_inception_4b/output_0_split_2
I0403 18:38:02.178781 23026 net.cpp:399] inception_4c/5x5_reduce -> inception_4c/5x5_reduce
I0403 18:38:02.179812 23026 net.cpp:141] Setting up inception_4c/5x5_reduce
I0403 18:38:02.179838 23026 net.cpp:148] Top shape: 24 24 14 14 (112896)
I0403 18:38:02.179853 23026 net.cpp:156] Memory required for data: 1048111392
I0403 18:38:02.179870 23026 layer_factory.hpp:77] Creating layer inception_4c/relu_5x5_reduce
I0403 18:38:02.179889 23026 net.cpp:91] Creating Layer inception_4c/relu_5x5_reduce
I0403 18:38:02.179905 23026 net.cpp:425] inception_4c/relu_5x5_reduce <- inception_4c/5x5_reduce
I0403 18:38:02.179921 23026 net.cpp:386] inception_4c/relu_5x5_reduce -> inception_4c/5x5_reduce (in-place)
I0403 18:38:02.180094 23026 net.cpp:141] Setting up inception_4c/relu_5x5_reduce
I0403 18:38:02.180117 23026 net.cpp:148] Top shape: 24 24 14 14 (112896)
I0403 18:38:02.180135 23026 net.cpp:156] Memory required for data: 1048562976
I0403 18:38:02.180148 23026 layer_factory.hpp:77] Creating layer inception_4c/5x5
I0403 18:38:02.180166 23026 net.cpp:91] Creating Layer inception_4c/5x5
I0403 18:38:02.180182 23026 net.cpp:425] inception_4c/5x5 <- inception_4c/5x5_reduce
I0403 18:38:02.180202 23026 net.cpp:399] inception_4c/5x5 -> inception_4c/5x5
I0403 18:38:02.181380 23026 net.cpp:141] Setting up inception_4c/5x5
I0403 18:38:02.181406 23026 net.cpp:148] Top shape: 24 64 14 14 (301056)
I0403 18:38:02.181421 23026 net.cpp:156] Memory required for data: 1049767200
I0403 18:38:02.181439 23026 layer_factory.hpp:77] Creating layer inception_4c/relu_5x5
I0403 18:38:02.181458 23026 net.cpp:91] Creating Layer inception_4c/relu_5x5
I0403 18:38:02.181473 23026 net.cpp:425] inception_4c/relu_5x5 <- inception_4c/5x5
I0403 18:38:02.181490 23026 net.cpp:386] inception_4c/relu_5x5 -> inception_4c/5x5 (in-place)
I0403 18:38:02.181766 23026 net.cpp:141] Setting up inception_4c/relu_5x5
I0403 18:38:02.181790 23026 net.cpp:148] Top shape: 24 64 14 14 (301056)
I0403 18:38:02.181804 23026 net.cpp:156] Memory required for data: 1050971424
I0403 18:38:02.181818 23026 layer_factory.hpp:77] Creating layer inception_4c/pool
I0403 18:38:02.181835 23026 net.cpp:91] Creating Layer inception_4c/pool
I0403 18:38:02.181852 23026 net.cpp:425] inception_4c/pool <- inception_4b/output_inception_4b/output_0_split_3
I0403 18:38:02.181869 23026 net.cpp:399] inception_4c/pool -> inception_4c/pool
I0403 18:38:02.181932 23026 net.cpp:141] Setting up inception_4c/pool
I0403 18:38:02.181956 23026 net.cpp:148] Top shape: 24 512 14 14 (2408448)
I0403 18:38:02.181968 23026 net.cpp:156] Memory required for data: 1060605216
I0403 18:38:02.181982 23026 layer_factory.hpp:77] Creating layer inception_4c/pool_proj
I0403 18:38:02.182003 23026 net.cpp:91] Creating Layer inception_4c/pool_proj
I0403 18:38:02.182019 23026 net.cpp:425] inception_4c/pool_proj <- inception_4c/pool
I0403 18:38:02.182041 23026 net.cpp:399] inception_4c/pool_proj -> inception_4c/pool_proj
I0403 18:38:02.183207 23026 net.cpp:141] Setting up inception_4c/pool_proj
I0403 18:38:02.183233 23026 net.cpp:148] Top shape: 24 64 14 14 (301056)
I0403 18:38:02.183260 23026 net.cpp:156] Memory required for data: 1061809440
I0403 18:38:02.183286 23026 layer_factory.hpp:77] Creating layer inception_4c/relu_pool_proj
I0403 18:38:02.183305 23026 net.cpp:91] Creating Layer inception_4c/relu_pool_proj
I0403 18:38:02.183321 23026 net.cpp:425] inception_4c/relu_pool_proj <- inception_4c/pool_proj
I0403 18:38:02.183338 23026 net.cpp:386] inception_4c/relu_pool_proj -> inception_4c/pool_proj (in-place)
I0403 18:38:02.183518 23026 net.cpp:141] Setting up inception_4c/relu_pool_proj
I0403 18:38:02.183547 23026 net.cpp:148] Top shape: 24 64 14 14 (301056)
I0403 18:38:02.183573 23026 net.cpp:156] Memory required for data: 1063013664
I0403 18:38:02.183585 23026 layer_factory.hpp:77] Creating layer inception_4c/output
I0403 18:38:02.183604 23026 net.cpp:91] Creating Layer inception_4c/output
I0403 18:38:02.183619 23026 net.cpp:425] inception_4c/output <- inception_4c/1x1
I0403 18:38:02.183635 23026 net.cpp:425] inception_4c/output <- inception_4c/3x3
I0403 18:38:02.183650 23026 net.cpp:425] inception_4c/output <- inception_4c/5x5
I0403 18:38:02.183665 23026 net.cpp:425] inception_4c/output <- inception_4c/pool_proj
I0403 18:38:02.183681 23026 net.cpp:399] inception_4c/output -> inception_4c/output
I0403 18:38:02.183727 23026 net.cpp:141] Setting up inception_4c/output
I0403 18:38:02.183749 23026 net.cpp:148] Top shape: 24 512 14 14 (2408448)
I0403 18:38:02.183763 23026 net.cpp:156] Memory required for data: 1072647456
I0403 18:38:02.183778 23026 layer_factory.hpp:77] Creating layer inception_4c/output_inception_4c/output_0_split
I0403 18:38:02.183794 23026 net.cpp:91] Creating Layer inception_4c/output_inception_4c/output_0_split
I0403 18:38:02.183809 23026 net.cpp:425] inception_4c/output_inception_4c/output_0_split <- inception_4c/output
I0403 18:38:02.183827 23026 net.cpp:399] inception_4c/output_inception_4c/output_0_split -> inception_4c/output_inception_4c/output_0_split_0
I0403 18:38:02.183847 23026 net.cpp:399] inception_4c/output_inception_4c/output_0_split -> inception_4c/output_inception_4c/output_0_split_1
I0403 18:38:02.183866 23026 net.cpp:399] inception_4c/output_inception_4c/output_0_split -> inception_4c/output_inception_4c/output_0_split_2
I0403 18:38:02.183886 23026 net.cpp:399] inception_4c/output_inception_4c/output_0_split -> inception_4c/output_inception_4c/output_0_split_3
I0403 18:38:02.183967 23026 net.cpp:141] Setting up inception_4c/output_inception_4c/output_0_split
I0403 18:38:02.183992 23026 net.cpp:148] Top shape: 24 512 14 14 (2408448)
I0403 18:38:02.184008 23026 net.cpp:148] Top shape: 24 512 14 14 (2408448)
I0403 18:38:02.184023 23026 net.cpp:148] Top shape: 24 512 14 14 (2408448)
I0403 18:38:02.184038 23026 net.cpp:148] Top shape: 24 512 14 14 (2408448)
I0403 18:38:02.184051 23026 net.cpp:156] Memory required for data: 1111182624
I0403 18:38:02.184064 23026 layer_factory.hpp:77] Creating layer inception_4d/1x1
I0403 18:38:02.184085 23026 net.cpp:91] Creating Layer inception_4d/1x1
I0403 18:38:02.184101 23026 net.cpp:425] inception_4d/1x1 <- inception_4c/output_inception_4c/output_0_split_0
I0403 18:38:02.184121 23026 net.cpp:399] inception_4d/1x1 -> inception_4d/1x1
I0403 18:38:02.185515 23026 net.cpp:141] Setting up inception_4d/1x1
I0403 18:38:02.185549 23026 net.cpp:148] Top shape: 24 112 14 14 (526848)
I0403 18:38:02.185565 23026 net.cpp:156] Memory required for data: 1113290016
I0403 18:38:02.185583 23026 layer_factory.hpp:77] Creating layer inception_4d/relu_1x1
I0403 18:38:02.185601 23026 net.cpp:91] Creating Layer inception_4d/relu_1x1
I0403 18:38:02.185617 23026 net.cpp:425] inception_4d/relu_1x1 <- inception_4d/1x1
I0403 18:38:02.185636 23026 net.cpp:386] inception_4d/relu_1x1 -> inception_4d/1x1 (in-place)
I0403 18:38:02.185816 23026 net.cpp:141] Setting up inception_4d/relu_1x1
I0403 18:38:02.185840 23026 net.cpp:148] Top shape: 24 112 14 14 (526848)
I0403 18:38:02.185854 23026 net.cpp:156] Memory required for data: 1115397408
I0403 18:38:02.185868 23026 layer_factory.hpp:77] Creating layer inception_4d/3x3_reduce
I0403 18:38:02.185904 23026 net.cpp:91] Creating Layer inception_4d/3x3_reduce
I0403 18:38:02.185922 23026 net.cpp:425] inception_4d/3x3_reduce <- inception_4c/output_inception_4c/output_0_split_1
I0403 18:38:02.185946 23026 net.cpp:399] inception_4d/3x3_reduce -> inception_4d/3x3_reduce
I0403 18:38:02.187424 23026 net.cpp:141] Setting up inception_4d/3x3_reduce
I0403 18:38:02.187453 23026 net.cpp:148] Top shape: 24 144 14 14 (677376)
I0403 18:38:02.187469 23026 net.cpp:156] Memory required for data: 1118106912
I0403 18:38:02.187486 23026 layer_factory.hpp:77] Creating layer inception_4d/relu_3x3_reduce
I0403 18:38:02.187505 23026 net.cpp:91] Creating Layer inception_4d/relu_3x3_reduce
I0403 18:38:02.187520 23026 net.cpp:425] inception_4d/relu_3x3_reduce <- inception_4d/3x3_reduce
I0403 18:38:02.187541 23026 net.cpp:386] inception_4d/relu_3x3_reduce -> inception_4d/3x3_reduce (in-place)
I0403 18:38:02.187826 23026 net.cpp:141] Setting up inception_4d/relu_3x3_reduce
I0403 18:38:02.187854 23026 net.cpp:148] Top shape: 24 144 14 14 (677376)
I0403 18:38:02.187868 23026 net.cpp:156] Memory required for data: 1120816416
I0403 18:38:02.187883 23026 layer_factory.hpp:77] Creating layer inception_4d/3x3
I0403 18:38:02.187904 23026 net.cpp:91] Creating Layer inception_4d/3x3
I0403 18:38:02.187922 23026 net.cpp:425] inception_4d/3x3 <- inception_4d/3x3_reduce
I0403 18:38:02.187940 23026 net.cpp:399] inception_4d/3x3 -> inception_4d/3x3
I0403 18:38:02.192124 23026 net.cpp:141] Setting up inception_4d/3x3
I0403 18:38:02.192152 23026 net.cpp:148] Top shape: 24 288 14 14 (1354752)
I0403 18:38:02.192168 23026 net.cpp:156] Memory required for data: 1126235424
I0403 18:38:02.192185 23026 layer_factory.hpp:77] Creating layer inception_4d/relu_3x3
I0403 18:38:02.192203 23026 net.cpp:91] Creating Layer inception_4d/relu_3x3
I0403 18:38:02.192219 23026 net.cpp:425] inception_4d/relu_3x3 <- inception_4d/3x3
I0403 18:38:02.192239 23026 net.cpp:386] inception_4d/relu_3x3 -> inception_4d/3x3 (in-place)
I0403 18:38:02.192416 23026 net.cpp:141] Setting up inception_4d/relu_3x3
I0403 18:38:02.192440 23026 net.cpp:148] Top shape: 24 288 14 14 (1354752)
I0403 18:38:02.192454 23026 net.cpp:156] Memory required for data: 1131654432
I0403 18:38:02.192469 23026 layer_factory.hpp:77] Creating layer inception_4d/5x5_reduce
I0403 18:38:02.192490 23026 net.cpp:91] Creating Layer inception_4d/5x5_reduce
I0403 18:38:02.192507 23026 net.cpp:425] inception_4d/5x5_reduce <- inception_4c/output_inception_4c/output_0_split_2
I0403 18:38:02.192528 23026 net.cpp:399] inception_4d/5x5_reduce -> inception_4d/5x5_reduce
I0403 18:38:02.193655 23026 net.cpp:141] Setting up inception_4d/5x5_reduce
I0403 18:38:02.193686 23026 net.cpp:148] Top shape: 24 32 14 14 (150528)
I0403 18:38:02.193701 23026 net.cpp:156] Memory required for data: 1132256544
I0403 18:38:02.193719 23026 layer_factory.hpp:77] Creating layer inception_4d/relu_5x5_reduce
I0403 18:38:02.193737 23026 net.cpp:91] Creating Layer inception_4d/relu_5x5_reduce
I0403 18:38:02.193753 23026 net.cpp:425] inception_4d/relu_5x5_reduce <- inception_4d/5x5_reduce
I0403 18:38:02.193773 23026 net.cpp:386] inception_4d/relu_5x5_reduce -> inception_4d/5x5_reduce (in-place)
I0403 18:38:02.193958 23026 net.cpp:141] Setting up inception_4d/relu_5x5_reduce
I0403 18:38:02.193981 23026 net.cpp:148] Top shape: 24 32 14 14 (150528)
I0403 18:38:02.193996 23026 net.cpp:156] Memory required for data: 1132858656
I0403 18:38:02.194010 23026 layer_factory.hpp:77] Creating layer inception_4d/5x5
I0403 18:38:02.194031 23026 net.cpp:91] Creating Layer inception_4d/5x5
I0403 18:38:02.194049 23026 net.cpp:425] inception_4d/5x5 <- inception_4d/5x5_reduce
I0403 18:38:02.194070 23026 net.cpp:399] inception_4d/5x5 -> inception_4d/5x5
I0403 18:38:02.195502 23026 net.cpp:141] Setting up inception_4d/5x5
I0403 18:38:02.195529 23026 net.cpp:148] Top shape: 24 64 14 14 (301056)
I0403 18:38:02.195550 23026 net.cpp:156] Memory required for data: 1134062880
I0403 18:38:02.195569 23026 layer_factory.hpp:77] Creating layer inception_4d/relu_5x5
I0403 18:38:02.195603 23026 net.cpp:91] Creating Layer inception_4d/relu_5x5
I0403 18:38:02.195621 23026 net.cpp:425] inception_4d/relu_5x5 <- inception_4d/5x5
I0403 18:38:02.195638 23026 net.cpp:386] inception_4d/relu_5x5 -> inception_4d/5x5 (in-place)
I0403 18:38:02.195930 23026 net.cpp:141] Setting up inception_4d/relu_5x5
I0403 18:38:02.195955 23026 net.cpp:148] Top shape: 24 64 14 14 (301056)
I0403 18:38:02.195971 23026 net.cpp:156] Memory required for data: 1135267104
I0403 18:38:02.195984 23026 layer_factory.hpp:77] Creating layer inception_4d/pool
I0403 18:38:02.196003 23026 net.cpp:91] Creating Layer inception_4d/pool
I0403 18:38:02.196019 23026 net.cpp:425] inception_4d/pool <- inception_4c/output_inception_4c/output_0_split_3
I0403 18:38:02.196038 23026 net.cpp:399] inception_4d/pool -> inception_4d/pool
I0403 18:38:02.196105 23026 net.cpp:141] Setting up inception_4d/pool
I0403 18:38:02.196128 23026 net.cpp:148] Top shape: 24 512 14 14 (2408448)
I0403 18:38:02.196142 23026 net.cpp:156] Memory required for data: 1144900896
I0403 18:38:02.196156 23026 layer_factory.hpp:77] Creating layer inception_4d/pool_proj
I0403 18:38:02.196177 23026 net.cpp:91] Creating Layer inception_4d/pool_proj
I0403 18:38:02.196195 23026 net.cpp:425] inception_4d/pool_proj <- inception_4d/pool
I0403 18:38:02.196215 23026 net.cpp:399] inception_4d/pool_proj -> inception_4d/pool_proj
I0403 18:38:02.197964 23026 net.cpp:141] Setting up inception_4d/pool_proj
I0403 18:38:02.197993 23026 net.cpp:148] Top shape: 24 64 14 14 (301056)
I0403 18:38:02.198009 23026 net.cpp:156] Memory required for data: 1146105120
I0403 18:38:02.198026 23026 layer_factory.hpp:77] Creating layer inception_4d/relu_pool_proj
I0403 18:38:02.198045 23026 net.cpp:91] Creating Layer inception_4d/relu_pool_proj
I0403 18:38:02.198061 23026 net.cpp:425] inception_4d/relu_pool_proj <- inception_4d/pool_proj
I0403 18:38:02.198081 23026 net.cpp:386] inception_4d/relu_pool_proj -> inception_4d/pool_proj (in-place)
I0403 18:38:02.198261 23026 net.cpp:141] Setting up inception_4d/relu_pool_proj
I0403 18:38:02.198284 23026 net.cpp:148] Top shape: 24 64 14 14 (301056)
I0403 18:38:02.198299 23026 net.cpp:156] Memory required for data: 1147309344
I0403 18:38:02.198314 23026 layer_factory.hpp:77] Creating layer inception_4d/output
I0403 18:38:02.198333 23026 net.cpp:91] Creating Layer inception_4d/output
I0403 18:38:02.198348 23026 net.cpp:425] inception_4d/output <- inception_4d/1x1
I0403 18:38:02.198364 23026 net.cpp:425] inception_4d/output <- inception_4d/3x3
I0403 18:38:02.198379 23026 net.cpp:425] inception_4d/output <- inception_4d/5x5
I0403 18:38:02.198395 23026 net.cpp:425] inception_4d/output <- inception_4d/pool_proj
I0403 18:38:02.198411 23026 net.cpp:399] inception_4d/output -> inception_4d/output
I0403 18:38:02.198457 23026 net.cpp:141] Setting up inception_4d/output
I0403 18:38:02.198482 23026 net.cpp:148] Top shape: 24 528 14 14 (2483712)
I0403 18:38:02.198498 23026 net.cpp:156] Memory required for data: 1157244192
I0403 18:38:02.198511 23026 layer_factory.hpp:77] Creating layer inception_4d/output_inception_4d/output_0_split
I0403 18:38:02.198528 23026 net.cpp:91] Creating Layer inception_4d/output_inception_4d/output_0_split
I0403 18:38:02.198549 23026 net.cpp:425] inception_4d/output_inception_4d/output_0_split <- inception_4d/output
I0403 18:38:02.198570 23026 net.cpp:399] inception_4d/output_inception_4d/output_0_split -> inception_4d/output_inception_4d/output_0_split_0
I0403 18:38:02.198591 23026 net.cpp:399] inception_4d/output_inception_4d/output_0_split -> inception_4d/output_inception_4d/output_0_split_1
I0403 18:38:02.198611 23026 net.cpp:399] inception_4d/output_inception_4d/output_0_split -> inception_4d/output_inception_4d/output_0_split_2
I0403 18:38:02.198632 23026 net.cpp:399] inception_4d/output_inception_4d/output_0_split -> inception_4d/output_inception_4d/output_0_split_3
I0403 18:38:02.198652 23026 net.cpp:399] inception_4d/output_inception_4d/output_0_split -> inception_4d/output_inception_4d/output_0_split_4
I0403 18:38:02.198752 23026 net.cpp:141] Setting up inception_4d/output_inception_4d/output_0_split
I0403 18:38:02.198787 23026 net.cpp:148] Top shape: 24 528 14 14 (2483712)
I0403 18:38:02.198806 23026 net.cpp:148] Top shape: 24 528 14 14 (2483712)
I0403 18:38:02.198822 23026 net.cpp:148] Top shape: 24 528 14 14 (2483712)
I0403 18:38:02.198837 23026 net.cpp:148] Top shape: 24 528 14 14 (2483712)
I0403 18:38:02.198851 23026 net.cpp:148] Top shape: 24 528 14 14 (2483712)
I0403 18:38:02.198864 23026 net.cpp:156] Memory required for data: 1206918432
I0403 18:38:02.198879 23026 layer_factory.hpp:77] Creating layer loss2/ave_pool
I0403 18:38:02.198895 23026 net.cpp:91] Creating Layer loss2/ave_pool
I0403 18:38:02.198910 23026 net.cpp:425] loss2/ave_pool <- inception_4d/output_inception_4d/output_0_split_0
I0403 18:38:02.198930 23026 net.cpp:399] loss2/ave_pool -> loss2/ave_pool
I0403 18:38:02.199239 23026 net.cpp:141] Setting up loss2/ave_pool
I0403 18:38:02.199265 23026 net.cpp:148] Top shape: 24 528 4 4 (202752)
I0403 18:38:02.199280 23026 net.cpp:156] Memory required for data: 1207729440
I0403 18:38:02.199295 23026 layer_factory.hpp:77] Creating layer loss2/conv
I0403 18:38:02.199317 23026 net.cpp:91] Creating Layer loss2/conv
I0403 18:38:02.199334 23026 net.cpp:425] loss2/conv <- loss2/ave_pool
I0403 18:38:02.199354 23026 net.cpp:399] loss2/conv -> loss2/conv
I0403 18:38:02.201225 23026 net.cpp:141] Setting up loss2/conv
I0403 18:38:02.201253 23026 net.cpp:148] Top shape: 24 128 4 4 (49152)
I0403 18:38:02.201269 23026 net.cpp:156] Memory required for data: 1207926048
I0403 18:38:02.201287 23026 layer_factory.hpp:77] Creating layer loss2/relu_conv
I0403 18:38:02.201308 23026 net.cpp:91] Creating Layer loss2/relu_conv
I0403 18:38:02.201323 23026 net.cpp:425] loss2/relu_conv <- loss2/conv
I0403 18:38:02.201341 23026 net.cpp:386] loss2/relu_conv -> loss2/conv (in-place)
I0403 18:38:02.201647 23026 net.cpp:141] Setting up loss2/relu_conv
I0403 18:38:02.201673 23026 net.cpp:148] Top shape: 24 128 4 4 (49152)
I0403 18:38:02.201689 23026 net.cpp:156] Memory required for data: 1208122656
I0403 18:38:02.201702 23026 layer_factory.hpp:77] Creating layer loss2/fc
I0403 18:38:02.201722 23026 net.cpp:91] Creating Layer loss2/fc
I0403 18:38:02.201740 23026 net.cpp:425] loss2/fc <- loss2/conv
I0403 18:38:02.201758 23026 net.cpp:399] loss2/fc -> loss2/fc
I0403 18:38:02.218598 23026 net.cpp:141] Setting up loss2/fc
I0403 18:38:02.218629 23026 net.cpp:148] Top shape: 24 1024 (24576)
I0403 18:38:02.218643 23026 net.cpp:156] Memory required for data: 1208220960
I0403 18:38:02.218660 23026 layer_factory.hpp:77] Creating layer loss2/relu_fc
I0403 18:38:02.218678 23026 net.cpp:91] Creating Layer loss2/relu_fc
I0403 18:38:02.218693 23026 net.cpp:425] loss2/relu_fc <- loss2/fc
I0403 18:38:02.218711 23026 net.cpp:386] loss2/relu_fc -> loss2/fc (in-place)
I0403 18:38:02.218999 23026 net.cpp:141] Setting up loss2/relu_fc
I0403 18:38:02.219024 23026 net.cpp:148] Top shape: 24 1024 (24576)
I0403 18:38:02.219038 23026 net.cpp:156] Memory required for data: 1208319264
I0403 18:38:02.219053 23026 layer_factory.hpp:77] Creating layer loss2/drop_fc
I0403 18:38:02.219069 23026 net.cpp:91] Creating Layer loss2/drop_fc
I0403 18:38:02.219084 23026 net.cpp:425] loss2/drop_fc <- loss2/fc
I0403 18:38:02.219104 23026 net.cpp:386] loss2/drop_fc -> loss2/fc (in-place)
I0403 18:38:02.219151 23026 net.cpp:141] Setting up loss2/drop_fc
I0403 18:38:02.219175 23026 net.cpp:148] Top shape: 24 1024 (24576)
I0403 18:38:02.219190 23026 net.cpp:156] Memory required for data: 1208417568
I0403 18:38:02.219204 23026 layer_factory.hpp:77] Creating layer loss2/classifier_plantvillage
I0403 18:38:02.219221 23026 net.cpp:91] Creating Layer loss2/classifier_plantvillage
I0403 18:38:02.219238 23026 net.cpp:425] loss2/classifier_plantvillage <- loss2/fc
I0403 18:38:02.219256 23026 net.cpp:399] loss2/classifier_plantvillage -> loss2/classifier_plantvillage
I0403 18:38:02.219650 23026 net.cpp:141] Setting up loss2/classifier_plantvillage
I0403 18:38:02.219676 23026 net.cpp:148] Top shape: 24 38 (912)
I0403 18:38:02.219704 23026 net.cpp:156] Memory required for data: 1208421216
I0403 18:38:02.219722 23026 layer_factory.hpp:77] Creating layer loss2/classifier_plantvillage_loss2/classifier_plantvillage_0_split
I0403 18:38:02.219740 23026 net.cpp:91] Creating Layer loss2/classifier_plantvillage_loss2/classifier_plantvillage_0_split
I0403 18:38:02.219756 23026 net.cpp:425] loss2/classifier_plantvillage_loss2/classifier_plantvillage_0_split <- loss2/classifier_plantvillage
I0403 18:38:02.219772 23026 net.cpp:399] loss2/classifier_plantvillage_loss2/classifier_plantvillage_0_split -> loss2/classifier_plantvillage_loss2/classifier_plantvillage_0_split_0
I0403 18:38:02.219791 23026 net.cpp:399] loss2/classifier_plantvillage_loss2/classifier_plantvillage_0_split -> loss2/classifier_plantvillage_loss2/classifier_plantvillage_0_split_1
I0403 18:38:02.219811 23026 net.cpp:399] loss2/classifier_plantvillage_loss2/classifier_plantvillage_0_split -> loss2/classifier_plantvillage_loss2/classifier_plantvillage_0_split_2
I0403 18:38:02.219884 23026 net.cpp:141] Setting up loss2/classifier_plantvillage_loss2/classifier_plantvillage_0_split
I0403 18:38:02.219907 23026 net.cpp:148] Top shape: 24 38 (912)
I0403 18:38:02.219923 23026 net.cpp:148] Top shape: 24 38 (912)
I0403 18:38:02.219936 23026 net.cpp:148] Top shape: 24 38 (912)
I0403 18:38:02.219949 23026 net.cpp:156] Memory required for data: 1208432160
I0403 18:38:02.219962 23026 layer_factory.hpp:77] Creating layer inception_4e/1x1
I0403 18:38:02.219980 23026 net.cpp:91] Creating Layer inception_4e/1x1
I0403 18:38:02.219995 23026 net.cpp:425] inception_4e/1x1 <- inception_4d/output_inception_4d/output_0_split_1
I0403 18:38:02.220015 23026 net.cpp:399] inception_4e/1x1 -> inception_4e/1x1
I0403 18:38:02.221740 23026 net.cpp:141] Setting up inception_4e/1x1
I0403 18:38:02.221766 23026 net.cpp:148] Top shape: 24 256 14 14 (1204224)
I0403 18:38:02.221781 23026 net.cpp:156] Memory required for data: 1213249056
I0403 18:38:02.221798 23026 layer_factory.hpp:77] Creating layer inception_4e/relu_1x1
I0403 18:38:02.221818 23026 net.cpp:91] Creating Layer inception_4e/relu_1x1
I0403 18:38:02.221834 23026 net.cpp:425] inception_4e/relu_1x1 <- inception_4e/1x1
I0403 18:38:02.221850 23026 net.cpp:386] inception_4e/relu_1x1 -> inception_4e/1x1 (in-place)
I0403 18:38:02.222129 23026 net.cpp:141] Setting up inception_4e/relu_1x1
I0403 18:38:02.222154 23026 net.cpp:148] Top shape: 24 256 14 14 (1204224)
I0403 18:38:02.222168 23026 net.cpp:156] Memory required for data: 1218065952
I0403 18:38:02.222182 23026 layer_factory.hpp:77] Creating layer inception_4e/3x3_reduce
I0403 18:38:02.222205 23026 net.cpp:91] Creating Layer inception_4e/3x3_reduce
I0403 18:38:02.222223 23026 net.cpp:425] inception_4e/3x3_reduce <- inception_4d/output_inception_4d/output_0_split_2
I0403 18:38:02.222241 23026 net.cpp:399] inception_4e/3x3_reduce -> inception_4e/3x3_reduce
I0403 18:38:02.224263 23026 net.cpp:141] Setting up inception_4e/3x3_reduce
I0403 18:38:02.224293 23026 net.cpp:148] Top shape: 24 160 14 14 (752640)
I0403 18:38:02.224308 23026 net.cpp:156] Memory required for data: 1221076512
I0403 18:38:02.224325 23026 layer_factory.hpp:77] Creating layer inception_4e/relu_3x3_reduce
I0403 18:38:02.224345 23026 net.cpp:91] Creating Layer inception_4e/relu_3x3_reduce
I0403 18:38:02.224361 23026 net.cpp:425] inception_4e/relu_3x3_reduce <- inception_4e/3x3_reduce
I0403 18:38:02.224378 23026 net.cpp:386] inception_4e/relu_3x3_reduce -> inception_4e/3x3_reduce (in-place)
I0403 18:38:02.224570 23026 net.cpp:141] Setting up inception_4e/relu_3x3_reduce
I0403 18:38:02.224594 23026 net.cpp:148] Top shape: 24 160 14 14 (752640)
I0403 18:38:02.224608 23026 net.cpp:156] Memory required for data: 1224087072
I0403 18:38:02.224622 23026 layer_factory.hpp:77] Creating layer inception_4e/3x3
I0403 18:38:02.224644 23026 net.cpp:91] Creating Layer inception_4e/3x3
I0403 18:38:02.224660 23026 net.cpp:425] inception_4e/3x3 <- inception_4e/3x3_reduce
I0403 18:38:02.224678 23026 net.cpp:399] inception_4e/3x3 -> inception_4e/3x3
I0403 18:38:02.229439 23026 net.cpp:141] Setting up inception_4e/3x3
I0403 18:38:02.229480 23026 net.cpp:148] Top shape: 24 320 14 14 (1505280)
I0403 18:38:02.229496 23026 net.cpp:156] Memory required for data: 1230108192
I0403 18:38:02.229513 23026 layer_factory.hpp:77] Creating layer inception_4e/relu_3x3
I0403 18:38:02.229531 23026 net.cpp:91] Creating Layer inception_4e/relu_3x3
I0403 18:38:02.229550 23026 net.cpp:425] inception_4e/relu_3x3 <- inception_4e/3x3
I0403 18:38:02.229576 23026 net.cpp:386] inception_4e/relu_3x3 -> inception_4e/3x3 (in-place)
I0403 18:38:02.229866 23026 net.cpp:141] Setting up inception_4e/relu_3x3
I0403 18:38:02.229892 23026 net.cpp:148] Top shape: 24 320 14 14 (1505280)
I0403 18:38:02.229907 23026 net.cpp:156] Memory required for data: 1236129312
I0403 18:38:02.229921 23026 layer_factory.hpp:77] Creating layer inception_4e/5x5_reduce
I0403 18:38:02.229943 23026 net.cpp:91] Creating Layer inception_4e/5x5_reduce
I0403 18:38:02.229960 23026 net.cpp:425] inception_4e/5x5_reduce <- inception_4d/output_inception_4d/output_0_split_3
I0403 18:38:02.229979 23026 net.cpp:399] inception_4e/5x5_reduce -> inception_4e/5x5_reduce
I0403 18:38:02.231003 23026 net.cpp:141] Setting up inception_4e/5x5_reduce
I0403 18:38:02.231029 23026 net.cpp:148] Top shape: 24 32 14 14 (150528)
I0403 18:38:02.231045 23026 net.cpp:156] Memory required for data: 1236731424
I0403 18:38:02.231061 23026 layer_factory.hpp:77] Creating layer inception_4e/relu_5x5_reduce
I0403 18:38:02.231081 23026 net.cpp:91] Creating Layer inception_4e/relu_5x5_reduce
I0403 18:38:02.231096 23026 net.cpp:425] inception_4e/relu_5x5_reduce <- inception_4e/5x5_reduce
I0403 18:38:02.231112 23026 net.cpp:386] inception_4e/relu_5x5_reduce -> inception_4e/5x5_reduce (in-place)
I0403 18:38:02.231405 23026 net.cpp:141] Setting up inception_4e/relu_5x5_reduce
I0403 18:38:02.231429 23026 net.cpp:148] Top shape: 24 32 14 14 (150528)
I0403 18:38:02.231444 23026 net.cpp:156] Memory required for data: 1237333536
I0403 18:38:02.231458 23026 layer_factory.hpp:77] Creating layer inception_4e/5x5
I0403 18:38:02.231493 23026 net.cpp:91] Creating Layer inception_4e/5x5
I0403 18:38:02.231511 23026 net.cpp:425] inception_4e/5x5 <- inception_4e/5x5_reduce
I0403 18:38:02.231531 23026 net.cpp:399] inception_4e/5x5 -> inception_4e/5x5
I0403 18:38:02.233295 23026 net.cpp:141] Setting up inception_4e/5x5
I0403 18:38:02.233321 23026 net.cpp:148] Top shape: 24 128 14 14 (602112)
I0403 18:38:02.233336 23026 net.cpp:156] Memory required for data: 1239741984
I0403 18:38:02.233355 23026 layer_factory.hpp:77] Creating layer inception_4e/relu_5x5
I0403 18:38:02.233371 23026 net.cpp:91] Creating Layer inception_4e/relu_5x5
I0403 18:38:02.233386 23026 net.cpp:425] inception_4e/relu_5x5 <- inception_4e/5x5
I0403 18:38:02.233404 23026 net.cpp:386] inception_4e/relu_5x5 -> inception_4e/5x5 (in-place)
I0403 18:38:02.233597 23026 net.cpp:141] Setting up inception_4e/relu_5x5
I0403 18:38:02.233621 23026 net.cpp:148] Top shape: 24 128 14 14 (602112)
I0403 18:38:02.233635 23026 net.cpp:156] Memory required for data: 1242150432
I0403 18:38:02.233649 23026 layer_factory.hpp:77] Creating layer inception_4e/pool
I0403 18:38:02.233667 23026 net.cpp:91] Creating Layer inception_4e/pool
I0403 18:38:02.233685 23026 net.cpp:425] inception_4e/pool <- inception_4d/output_inception_4d/output_0_split_4
I0403 18:38:02.233702 23026 net.cpp:399] inception_4e/pool -> inception_4e/pool
I0403 18:38:02.233769 23026 net.cpp:141] Setting up inception_4e/pool
I0403 18:38:02.233793 23026 net.cpp:148] Top shape: 24 528 14 14 (2483712)
I0403 18:38:02.233805 23026 net.cpp:156] Memory required for data: 1252085280
I0403 18:38:02.233819 23026 layer_factory.hpp:77] Creating layer inception_4e/pool_proj
I0403 18:38:02.233839 23026 net.cpp:91] Creating Layer inception_4e/pool_proj
I0403 18:38:02.233856 23026 net.cpp:425] inception_4e/pool_proj <- inception_4e/pool
I0403 18:38:02.233876 23026 net.cpp:399] inception_4e/pool_proj -> inception_4e/pool_proj
I0403 18:38:02.235306 23026 net.cpp:141] Setting up inception_4e/pool_proj
I0403 18:38:02.235342 23026 net.cpp:148] Top shape: 24 128 14 14 (602112)
I0403 18:38:02.235357 23026 net.cpp:156] Memory required for data: 1254493728
I0403 18:38:02.235375 23026 layer_factory.hpp:77] Creating layer inception_4e/relu_pool_proj
I0403 18:38:02.235393 23026 net.cpp:91] Creating Layer inception_4e/relu_pool_proj
I0403 18:38:02.235407 23026 net.cpp:425] inception_4e/relu_pool_proj <- inception_4e/pool_proj
I0403 18:38:02.235425 23026 net.cpp:386] inception_4e/relu_pool_proj -> inception_4e/pool_proj (in-place)
I0403 18:38:02.235709 23026 net.cpp:141] Setting up inception_4e/relu_pool_proj
I0403 18:38:02.235734 23026 net.cpp:148] Top shape: 24 128 14 14 (602112)
I0403 18:38:02.235749 23026 net.cpp:156] Memory required for data: 1256902176
I0403 18:38:02.235762 23026 layer_factory.hpp:77] Creating layer inception_4e/output
I0403 18:38:02.235780 23026 net.cpp:91] Creating Layer inception_4e/output
I0403 18:38:02.235793 23026 net.cpp:425] inception_4e/output <- inception_4e/1x1
I0403 18:38:02.235808 23026 net.cpp:425] inception_4e/output <- inception_4e/3x3
I0403 18:38:02.235823 23026 net.cpp:425] inception_4e/output <- inception_4e/5x5
I0403 18:38:02.235837 23026 net.cpp:425] inception_4e/output <- inception_4e/pool_proj
I0403 18:38:02.235857 23026 net.cpp:399] inception_4e/output -> inception_4e/output
I0403 18:38:02.235911 23026 net.cpp:141] Setting up inception_4e/output
I0403 18:38:02.235935 23026 net.cpp:148] Top shape: 24 832 14 14 (3913728)
I0403 18:38:02.235950 23026 net.cpp:156] Memory required for data: 1272557088
I0403 18:38:02.235965 23026 layer_factory.hpp:77] Creating layer pool4/3x3_s2
I0403 18:38:02.235981 23026 net.cpp:91] Creating Layer pool4/3x3_s2
I0403 18:38:02.235996 23026 net.cpp:425] pool4/3x3_s2 <- inception_4e/output
I0403 18:38:02.236013 23026 net.cpp:399] pool4/3x3_s2 -> pool4/3x3_s2
I0403 18:38:02.236083 23026 net.cpp:141] Setting up pool4/3x3_s2
I0403 18:38:02.236104 23026 net.cpp:148] Top shape: 24 832 7 7 (978432)
I0403 18:38:02.236119 23026 net.cpp:156] Memory required for data: 1276470816
I0403 18:38:02.236132 23026 layer_factory.hpp:77] Creating layer pool4/3x3_s2_pool4/3x3_s2_0_split
I0403 18:38:02.236148 23026 net.cpp:91] Creating Layer pool4/3x3_s2_pool4/3x3_s2_0_split
I0403 18:38:02.236163 23026 net.cpp:425] pool4/3x3_s2_pool4/3x3_s2_0_split <- pool4/3x3_s2
I0403 18:38:02.236181 23026 net.cpp:399] pool4/3x3_s2_pool4/3x3_s2_0_split -> pool4/3x3_s2_pool4/3x3_s2_0_split_0
I0403 18:38:02.236201 23026 net.cpp:399] pool4/3x3_s2_pool4/3x3_s2_0_split -> pool4/3x3_s2_pool4/3x3_s2_0_split_1
I0403 18:38:02.236219 23026 net.cpp:399] pool4/3x3_s2_pool4/3x3_s2_0_split -> pool4/3x3_s2_pool4/3x3_s2_0_split_2
I0403 18:38:02.236240 23026 net.cpp:399] pool4/3x3_s2_pool4/3x3_s2_0_split -> pool4/3x3_s2_pool4/3x3_s2_0_split_3
I0403 18:38:02.236327 23026 net.cpp:141] Setting up pool4/3x3_s2_pool4/3x3_s2_0_split
I0403 18:38:02.236351 23026 net.cpp:148] Top shape: 24 832 7 7 (978432)
I0403 18:38:02.236366 23026 net.cpp:148] Top shape: 24 832 7 7 (978432)
I0403 18:38:02.236379 23026 net.cpp:148] Top shape: 24 832 7 7 (978432)
I0403 18:38:02.236393 23026 net.cpp:148] Top shape: 24 832 7 7 (978432)
I0403 18:38:02.236405 23026 net.cpp:156] Memory required for data: 1292125728
I0403 18:38:02.236419 23026 layer_factory.hpp:77] Creating layer inception_5a/1x1
I0403 18:38:02.236440 23026 net.cpp:91] Creating Layer inception_5a/1x1
I0403 18:38:02.236459 23026 net.cpp:425] inception_5a/1x1 <- pool4/3x3_s2_pool4/3x3_s2_0_split_0
I0403 18:38:02.236477 23026 net.cpp:399] inception_5a/1x1 -> inception_5a/1x1
I0403 18:38:02.239450 23026 net.cpp:141] Setting up inception_5a/1x1
I0403 18:38:02.239480 23026 net.cpp:148] Top shape: 24 256 7 7 (301056)
I0403 18:38:02.239496 23026 net.cpp:156] Memory required for data: 1293329952
I0403 18:38:02.239514 23026 layer_factory.hpp:77] Creating layer inception_5a/relu_1x1
I0403 18:38:02.239534 23026 net.cpp:91] Creating Layer inception_5a/relu_1x1
I0403 18:38:02.239557 23026 net.cpp:425] inception_5a/relu_1x1 <- inception_5a/1x1
I0403 18:38:02.239576 23026 net.cpp:386] inception_5a/relu_1x1 -> inception_5a/1x1 (in-place)
I0403 18:38:02.239881 23026 net.cpp:141] Setting up inception_5a/relu_1x1
I0403 18:38:02.239905 23026 net.cpp:148] Top shape: 24 256 7 7 (301056)
I0403 18:38:02.239920 23026 net.cpp:156] Memory required for data: 1294534176
I0403 18:38:02.239934 23026 layer_factory.hpp:77] Creating layer inception_5a/3x3_reduce
I0403 18:38:02.239956 23026 net.cpp:91] Creating Layer inception_5a/3x3_reduce
I0403 18:38:02.239974 23026 net.cpp:425] inception_5a/3x3_reduce <- pool4/3x3_s2_pool4/3x3_s2_0_split_1
I0403 18:38:02.239994 23026 net.cpp:399] inception_5a/3x3_reduce -> inception_5a/3x3_reduce
I0403 18:38:02.242408 23026 net.cpp:141] Setting up inception_5a/3x3_reduce
I0403 18:38:02.242439 23026 net.cpp:148] Top shape: 24 160 7 7 (188160)
I0403 18:38:02.242455 23026 net.cpp:156] Memory required for data: 1295286816
I0403 18:38:02.242472 23026 layer_factory.hpp:77] Creating layer inception_5a/relu_3x3_reduce
I0403 18:38:02.242489 23026 net.cpp:91] Creating Layer inception_5a/relu_3x3_reduce
I0403 18:38:02.242504 23026 net.cpp:425] inception_5a/relu_3x3_reduce <- inception_5a/3x3_reduce
I0403 18:38:02.242523 23026 net.cpp:386] inception_5a/relu_3x3_reduce -> inception_5a/3x3_reduce (in-place)
I0403 18:38:02.242710 23026 net.cpp:141] Setting up inception_5a/relu_3x3_reduce
I0403 18:38:02.242735 23026 net.cpp:148] Top shape: 24 160 7 7 (188160)
I0403 18:38:02.242749 23026 net.cpp:156] Memory required for data: 1296039456
I0403 18:38:02.242763 23026 layer_factory.hpp:77] Creating layer inception_5a/3x3
I0403 18:38:02.242785 23026 net.cpp:91] Creating Layer inception_5a/3x3
I0403 18:38:02.242804 23026 net.cpp:425] inception_5a/3x3 <- inception_5a/3x3_reduce
I0403 18:38:02.242823 23026 net.cpp:399] inception_5a/3x3 -> inception_5a/3x3
I0403 18:38:02.247776 23026 net.cpp:141] Setting up inception_5a/3x3
I0403 18:38:02.247804 23026 net.cpp:148] Top shape: 24 320 7 7 (376320)
I0403 18:38:02.247822 23026 net.cpp:156] Memory required for data: 1297544736
I0403 18:38:02.247839 23026 layer_factory.hpp:77] Creating layer inception_5a/relu_3x3
I0403 18:38:02.247859 23026 net.cpp:91] Creating Layer inception_5a/relu_3x3
I0403 18:38:02.247875 23026 net.cpp:425] inception_5a/relu_3x3 <- inception_5a/3x3
I0403 18:38:02.247892 23026 net.cpp:386] inception_5a/relu_3x3 -> inception_5a/3x3 (in-place)
I0403 18:38:02.248183 23026 net.cpp:141] Setting up inception_5a/relu_3x3
I0403 18:38:02.248208 23026 net.cpp:148] Top shape: 24 320 7 7 (376320)
I0403 18:38:02.248224 23026 net.cpp:156] Memory required for data: 1299050016
I0403 18:38:02.248239 23026 layer_factory.hpp:77] Creating layer inception_5a/5x5_reduce
I0403 18:38:02.248260 23026 net.cpp:91] Creating Layer inception_5a/5x5_reduce
I0403 18:38:02.248276 23026 net.cpp:425] inception_5a/5x5_reduce <- pool4/3x3_s2_pool4/3x3_s2_0_split_2
I0403 18:38:02.248299 23026 net.cpp:399] inception_5a/5x5_reduce -> inception_5a/5x5_reduce
I0403 18:38:02.249451 23026 net.cpp:141] Setting up inception_5a/5x5_reduce
I0403 18:38:02.249481 23026 net.cpp:148] Top shape: 24 32 7 7 (37632)
I0403 18:38:02.249498 23026 net.cpp:156] Memory required for data: 1299200544
I0403 18:38:02.249516 23026 layer_factory.hpp:77] Creating layer inception_5a/relu_5x5_reduce
I0403 18:38:02.249533 23026 net.cpp:91] Creating Layer inception_5a/relu_5x5_reduce
I0403 18:38:02.249553 23026 net.cpp:425] inception_5a/relu_5x5_reduce <- inception_5a/5x5_reduce
I0403 18:38:02.249570 23026 net.cpp:386] inception_5a/relu_5x5_reduce -> inception_5a/5x5_reduce (in-place)
I0403 18:38:02.249860 23026 net.cpp:141] Setting up inception_5a/relu_5x5_reduce
I0403 18:38:02.249886 23026 net.cpp:148] Top shape: 24 32 7 7 (37632)
I0403 18:38:02.249899 23026 net.cpp:156] Memory required for data: 1299351072
I0403 18:38:02.249913 23026 layer_factory.hpp:77] Creating layer inception_5a/5x5
I0403 18:38:02.249938 23026 net.cpp:91] Creating Layer inception_5a/5x5
I0403 18:38:02.249956 23026 net.cpp:425] inception_5a/5x5 <- inception_5a/5x5_reduce
I0403 18:38:02.249977 23026 net.cpp:399] inception_5a/5x5 -> inception_5a/5x5
I0403 18:38:02.251667 23026 net.cpp:141] Setting up inception_5a/5x5
I0403 18:38:02.251705 23026 net.cpp:148] Top shape: 24 128 7 7 (150528)
I0403 18:38:02.251720 23026 net.cpp:156] Memory required for data: 1299953184
I0403 18:38:02.251739 23026 layer_factory.hpp:77] Creating layer inception_5a/relu_5x5
I0403 18:38:02.251756 23026 net.cpp:91] Creating Layer inception_5a/relu_5x5
I0403 18:38:02.251772 23026 net.cpp:425] inception_5a/relu_5x5 <- inception_5a/5x5
I0403 18:38:02.251791 23026 net.cpp:386] inception_5a/relu_5x5 -> inception_5a/5x5 (in-place)
I0403 18:38:02.251976 23026 net.cpp:141] Setting up inception_5a/relu_5x5
I0403 18:38:02.252002 23026 net.cpp:148] Top shape: 24 128 7 7 (150528)
I0403 18:38:02.252015 23026 net.cpp:156] Memory required for data: 1300555296
I0403 18:38:02.252029 23026 layer_factory.hpp:77] Creating layer inception_5a/pool
I0403 18:38:02.252048 23026 net.cpp:91] Creating Layer inception_5a/pool
I0403 18:38:02.252065 23026 net.cpp:425] inception_5a/pool <- pool4/3x3_s2_pool4/3x3_s2_0_split_3
I0403 18:38:02.252084 23026 net.cpp:399] inception_5a/pool -> inception_5a/pool
I0403 18:38:02.252153 23026 net.cpp:141] Setting up inception_5a/pool
I0403 18:38:02.252177 23026 net.cpp:148] Top shape: 24 832 7 7 (978432)
I0403 18:38:02.252190 23026 net.cpp:156] Memory required for data: 1304469024
I0403 18:38:02.252205 23026 layer_factory.hpp:77] Creating layer inception_5a/pool_proj
I0403 18:38:02.252226 23026 net.cpp:91] Creating Layer inception_5a/pool_proj
I0403 18:38:02.252243 23026 net.cpp:425] inception_5a/pool_proj <- inception_5a/pool
I0403 18:38:02.252264 23026 net.cpp:399] inception_5a/pool_proj -> inception_5a/pool_proj
I0403 18:38:02.254515 23026 net.cpp:141] Setting up inception_5a/pool_proj
I0403 18:38:02.254555 23026 net.cpp:148] Top shape: 24 128 7 7 (150528)
I0403 18:38:02.254575 23026 net.cpp:156] Memory required for data: 1305071136
I0403 18:38:02.254592 23026 layer_factory.hpp:77] Creating layer inception_5a/relu_pool_proj
I0403 18:38:02.254611 23026 net.cpp:91] Creating Layer inception_5a/relu_pool_proj
I0403 18:38:02.254627 23026 net.cpp:425] inception_5a/relu_pool_proj <- inception_5a/pool_proj
I0403 18:38:02.254650 23026 net.cpp:386] inception_5a/relu_pool_proj -> inception_5a/pool_proj (in-place)
I0403 18:38:02.254981 23026 net.cpp:141] Setting up inception_5a/relu_pool_proj
I0403 18:38:02.255007 23026 net.cpp:148] Top shape: 24 128 7 7 (150528)
I0403 18:38:02.255022 23026 net.cpp:156] Memory required for data: 1305673248
I0403 18:38:02.255036 23026 layer_factory.hpp:77] Creating layer inception_5a/output
I0403 18:38:02.255053 23026 net.cpp:91] Creating Layer inception_5a/output
I0403 18:38:02.255067 23026 net.cpp:425] inception_5a/output <- inception_5a/1x1
I0403 18:38:02.255084 23026 net.cpp:425] inception_5a/output <- inception_5a/3x3
I0403 18:38:02.255100 23026 net.cpp:425] inception_5a/output <- inception_5a/5x5
I0403 18:38:02.255115 23026 net.cpp:425] inception_5a/output <- inception_5a/pool_proj
I0403 18:38:02.255133 23026 net.cpp:399] inception_5a/output -> inception_5a/output
I0403 18:38:02.255182 23026 net.cpp:141] Setting up inception_5a/output
I0403 18:38:02.255204 23026 net.cpp:148] Top shape: 24 832 7 7 (978432)
I0403 18:38:02.255230 23026 net.cpp:156] Memory required for data: 1309586976
I0403 18:38:02.255244 23026 layer_factory.hpp:77] Creating layer inception_5a/output_inception_5a/output_0_split
I0403 18:38:02.255262 23026 net.cpp:91] Creating Layer inception_5a/output_inception_5a/output_0_split
I0403 18:38:02.255278 23026 net.cpp:425] inception_5a/output_inception_5a/output_0_split <- inception_5a/output
I0403 18:38:02.255297 23026 net.cpp:399] inception_5a/output_inception_5a/output_0_split -> inception_5a/output_inception_5a/output_0_split_0
I0403 18:38:02.255319 23026 net.cpp:399] inception_5a/output_inception_5a/output_0_split -> inception_5a/output_inception_5a/output_0_split_1
I0403 18:38:02.255341 23026 net.cpp:399] inception_5a/output_inception_5a/output_0_split -> inception_5a/output_inception_5a/output_0_split_2
I0403 18:38:02.255359 23026 net.cpp:399] inception_5a/output_inception_5a/output_0_split -> inception_5a/output_inception_5a/output_0_split_3
I0403 18:38:02.255465 23026 net.cpp:141] Setting up inception_5a/output_inception_5a/output_0_split
I0403 18:38:02.255487 23026 net.cpp:148] Top shape: 24 832 7 7 (978432)
I0403 18:38:02.255502 23026 net.cpp:148] Top shape: 24 832 7 7 (978432)
I0403 18:38:02.255517 23026 net.cpp:148] Top shape: 24 832 7 7 (978432)
I0403 18:38:02.255532 23026 net.cpp:148] Top shape: 24 832 7 7 (978432)
I0403 18:38:02.255549 23026 net.cpp:156] Memory required for data: 1325241888
I0403 18:38:02.255564 23026 layer_factory.hpp:77] Creating layer inception_5b/1x1
I0403 18:38:02.255585 23026 net.cpp:91] Creating Layer inception_5b/1x1
I0403 18:38:02.255602 23026 net.cpp:425] inception_5b/1x1 <- inception_5a/output_inception_5a/output_0_split_0
I0403 18:38:02.255622 23026 net.cpp:399] inception_5b/1x1 -> inception_5b/1x1
I0403 18:38:02.259207 23026 net.cpp:141] Setting up inception_5b/1x1
I0403 18:38:02.259238 23026 net.cpp:148] Top shape: 24 384 7 7 (451584)
I0403 18:38:02.259253 23026 net.cpp:156] Memory required for data: 1327048224
I0403 18:38:02.259269 23026 layer_factory.hpp:77] Creating layer inception_5b/relu_1x1
I0403 18:38:02.259287 23026 net.cpp:91] Creating Layer inception_5b/relu_1x1
I0403 18:38:02.259302 23026 net.cpp:425] inception_5b/relu_1x1 <- inception_5b/1x1
I0403 18:38:02.259321 23026 net.cpp:386] inception_5b/relu_1x1 -> inception_5b/1x1 (in-place)
I0403 18:38:02.259618 23026 net.cpp:141] Setting up inception_5b/relu_1x1
I0403 18:38:02.259644 23026 net.cpp:148] Top shape: 24 384 7 7 (451584)
I0403 18:38:02.259660 23026 net.cpp:156] Memory required for data: 1328854560
I0403 18:38:02.259673 23026 layer_factory.hpp:77] Creating layer inception_5b/3x3_reduce
I0403 18:38:02.259695 23026 net.cpp:91] Creating Layer inception_5b/3x3_reduce
I0403 18:38:02.259711 23026 net.cpp:425] inception_5b/3x3_reduce <- inception_5a/output_inception_5a/output_0_split_1
I0403 18:38:02.259735 23026 net.cpp:399] inception_5b/3x3_reduce -> inception_5b/3x3_reduce
I0403 18:38:02.262290 23026 net.cpp:141] Setting up inception_5b/3x3_reduce
I0403 18:38:02.262320 23026 net.cpp:148] Top shape: 24 192 7 7 (225792)
I0403 18:38:02.262337 23026 net.cpp:156] Memory required for data: 1329757728
I0403 18:38:02.262356 23026 layer_factory.hpp:77] Creating layer inception_5b/relu_3x3_reduce
I0403 18:38:02.262372 23026 net.cpp:91] Creating Layer inception_5b/relu_3x3_reduce
I0403 18:38:02.262387 23026 net.cpp:425] inception_5b/relu_3x3_reduce <- inception_5b/3x3_reduce
I0403 18:38:02.262405 23026 net.cpp:386] inception_5b/relu_3x3_reduce -> inception_5b/3x3_reduce (in-place)
I0403 18:38:02.262591 23026 net.cpp:141] Setting up inception_5b/relu_3x3_reduce
I0403 18:38:02.262615 23026 net.cpp:148] Top shape: 24 192 7 7 (225792)
I0403 18:38:02.262629 23026 net.cpp:156] Memory required for data: 1330660896
I0403 18:38:02.262642 23026 layer_factory.hpp:77] Creating layer inception_5b/3x3
I0403 18:38:02.262665 23026 net.cpp:91] Creating Layer inception_5b/3x3
I0403 18:38:02.262681 23026 net.cpp:425] inception_5b/3x3 <- inception_5b/3x3_reduce
I0403 18:38:02.262701 23026 net.cpp:399] inception_5b/3x3 -> inception_5b/3x3
I0403 18:38:02.269142 23026 net.cpp:141] Setting up inception_5b/3x3
I0403 18:38:02.269170 23026 net.cpp:148] Top shape: 24 384 7 7 (451584)
I0403 18:38:02.269186 23026 net.cpp:156] Memory required for data: 1332467232
I0403 18:38:02.269202 23026 layer_factory.hpp:77] Creating layer inception_5b/relu_3x3
I0403 18:38:02.269219 23026 net.cpp:91] Creating Layer inception_5b/relu_3x3
I0403 18:38:02.269234 23026 net.cpp:425] inception_5b/relu_3x3 <- inception_5b/3x3
I0403 18:38:02.269253 23026 net.cpp:386] inception_5b/relu_3x3 -> inception_5b/3x3 (in-place)
I0403 18:38:02.269544 23026 net.cpp:141] Setting up inception_5b/relu_3x3
I0403 18:38:02.269570 23026 net.cpp:148] Top shape: 24 384 7 7 (451584)
I0403 18:38:02.269584 23026 net.cpp:156] Memory required for data: 1334273568
I0403 18:38:02.269598 23026 layer_factory.hpp:77] Creating layer inception_5b/5x5_reduce
I0403 18:38:02.269632 23026 net.cpp:91] Creating Layer inception_5b/5x5_reduce
I0403 18:38:02.269660 23026 net.cpp:425] inception_5b/5x5_reduce <- inception_5a/output_inception_5a/output_0_split_2
I0403 18:38:02.269681 23026 net.cpp:399] inception_5b/5x5_reduce -> inception_5b/5x5_reduce
I0403 18:38:02.270895 23026 net.cpp:141] Setting up inception_5b/5x5_reduce
I0403 18:38:02.270921 23026 net.cpp:148] Top shape: 24 48 7 7 (56448)
I0403 18:38:02.270936 23026 net.cpp:156] Memory required for data: 1334499360
I0403 18:38:02.270953 23026 layer_factory.hpp:77] Creating layer inception_5b/relu_5x5_reduce
I0403 18:38:02.270970 23026 net.cpp:91] Creating Layer inception_5b/relu_5x5_reduce
I0403 18:38:02.270987 23026 net.cpp:425] inception_5b/relu_5x5_reduce <- inception_5b/5x5_reduce
I0403 18:38:02.271005 23026 net.cpp:386] inception_5b/relu_5x5_reduce -> inception_5b/5x5_reduce (in-place)
I0403 18:38:02.271381 23026 net.cpp:141] Setting up inception_5b/relu_5x5_reduce
I0403 18:38:02.271407 23026 net.cpp:148] Top shape: 24 48 7 7 (56448)
I0403 18:38:02.271422 23026 net.cpp:156] Memory required for data: 1334725152
I0403 18:38:02.271436 23026 layer_factory.hpp:77] Creating layer inception_5b/5x5
I0403 18:38:02.271456 23026 net.cpp:91] Creating Layer inception_5b/5x5
I0403 18:38:02.271473 23026 net.cpp:425] inception_5b/5x5 <- inception_5b/5x5_reduce
I0403 18:38:02.271492 23026 net.cpp:399] inception_5b/5x5 -> inception_5b/5x5
I0403 18:38:02.273457 23026 net.cpp:141] Setting up inception_5b/5x5
I0403 18:38:02.273483 23026 net.cpp:148] Top shape: 24 128 7 7 (150528)
I0403 18:38:02.273497 23026 net.cpp:156] Memory required for data: 1335327264
I0403 18:38:02.273514 23026 layer_factory.hpp:77] Creating layer inception_5b/relu_5x5
I0403 18:38:02.273535 23026 net.cpp:91] Creating Layer inception_5b/relu_5x5
I0403 18:38:02.273556 23026 net.cpp:425] inception_5b/relu_5x5 <- inception_5b/5x5
I0403 18:38:02.273572 23026 net.cpp:386] inception_5b/relu_5x5 -> inception_5b/5x5 (in-place)
I0403 18:38:02.273758 23026 net.cpp:141] Setting up inception_5b/relu_5x5
I0403 18:38:02.273782 23026 net.cpp:148] Top shape: 24 128 7 7 (150528)
I0403 18:38:02.273797 23026 net.cpp:156] Memory required for data: 1335929376
I0403 18:38:02.273810 23026 layer_factory.hpp:77] Creating layer inception_5b/pool
I0403 18:38:02.273829 23026 net.cpp:91] Creating Layer inception_5b/pool
I0403 18:38:02.273845 23026 net.cpp:425] inception_5b/pool <- inception_5a/output_inception_5a/output_0_split_3
I0403 18:38:02.273862 23026 net.cpp:399] inception_5b/pool -> inception_5b/pool
I0403 18:38:02.273932 23026 net.cpp:141] Setting up inception_5b/pool
I0403 18:38:02.273955 23026 net.cpp:148] Top shape: 24 832 7 7 (978432)
I0403 18:38:02.273969 23026 net.cpp:156] Memory required for data: 1339843104
I0403 18:38:02.273983 23026 layer_factory.hpp:77] Creating layer inception_5b/pool_proj
I0403 18:38:02.274004 23026 net.cpp:91] Creating Layer inception_5b/pool_proj
I0403 18:38:02.274021 23026 net.cpp:425] inception_5b/pool_proj <- inception_5b/pool
I0403 18:38:02.274040 23026 net.cpp:399] inception_5b/pool_proj -> inception_5b/pool_proj
I0403 18:38:02.276273 23026 net.cpp:141] Setting up inception_5b/pool_proj
I0403 18:38:02.276303 23026 net.cpp:148] Top shape: 24 128 7 7 (150528)
I0403 18:38:02.276319 23026 net.cpp:156] Memory required for data: 1340445216
I0403 18:38:02.276335 23026 layer_factory.hpp:77] Creating layer inception_5b/relu_pool_proj
I0403 18:38:02.276353 23026 net.cpp:91] Creating Layer inception_5b/relu_pool_proj
I0403 18:38:02.276368 23026 net.cpp:425] inception_5b/relu_pool_proj <- inception_5b/pool_proj
I0403 18:38:02.276387 23026 net.cpp:386] inception_5b/relu_pool_proj -> inception_5b/pool_proj (in-place)
I0403 18:38:02.276686 23026 net.cpp:141] Setting up inception_5b/relu_pool_proj
I0403 18:38:02.276711 23026 net.cpp:148] Top shape: 24 128 7 7 (150528)
I0403 18:38:02.276726 23026 net.cpp:156] Memory required for data: 1341047328
I0403 18:38:02.276741 23026 layer_factory.hpp:77] Creating layer inception_5b/output
I0403 18:38:02.276757 23026 net.cpp:91] Creating Layer inception_5b/output
I0403 18:38:02.276785 23026 net.cpp:425] inception_5b/output <- inception_5b/1x1
I0403 18:38:02.276803 23026 net.cpp:425] inception_5b/output <- inception_5b/3x3
I0403 18:38:02.276818 23026 net.cpp:425] inception_5b/output <- inception_5b/5x5
I0403 18:38:02.276834 23026 net.cpp:425] inception_5b/output <- inception_5b/pool_proj
I0403 18:38:02.276852 23026 net.cpp:399] inception_5b/output -> inception_5b/output
I0403 18:38:02.276902 23026 net.cpp:141] Setting up inception_5b/output
I0403 18:38:02.276927 23026 net.cpp:148] Top shape: 24 1024 7 7 (1204224)
I0403 18:38:02.276942 23026 net.cpp:156] Memory required for data: 1345864224
I0403 18:38:02.276957 23026 layer_factory.hpp:77] Creating layer pool5/7x7_s1
I0403 18:38:02.276973 23026 net.cpp:91] Creating Layer pool5/7x7_s1
I0403 18:38:02.276989 23026 net.cpp:425] pool5/7x7_s1 <- inception_5b/output
I0403 18:38:02.277006 23026 net.cpp:399] pool5/7x7_s1 -> pool5/7x7_s1
I0403 18:38:02.277214 23026 net.cpp:141] Setting up pool5/7x7_s1
I0403 18:38:02.277237 23026 net.cpp:148] Top shape: 24 1024 1 1 (24576)
I0403 18:38:02.277252 23026 net.cpp:156] Memory required for data: 1345962528
I0403 18:38:02.277274 23026 layer_factory.hpp:77] Creating layer pool5/drop_7x7_s1
I0403 18:38:02.277292 23026 net.cpp:91] Creating Layer pool5/drop_7x7_s1
I0403 18:38:02.277307 23026 net.cpp:425] pool5/drop_7x7_s1 <- pool5/7x7_s1
I0403 18:38:02.277325 23026 net.cpp:386] pool5/drop_7x7_s1 -> pool5/7x7_s1 (in-place)
I0403 18:38:02.277374 23026 net.cpp:141] Setting up pool5/drop_7x7_s1
I0403 18:38:02.277398 23026 net.cpp:148] Top shape: 24 1024 1 1 (24576)
I0403 18:38:02.277412 23026 net.cpp:156] Memory required for data: 1346060832
I0403 18:38:02.277426 23026 layer_factory.hpp:77] Creating layer loss3/classifier_plantvillage
I0403 18:38:02.277444 23026 net.cpp:91] Creating Layer loss3/classifier_plantvillage
I0403 18:38:02.277461 23026 net.cpp:425] loss3/classifier_plantvillage <- pool5/7x7_s1
I0403 18:38:02.277480 23026 net.cpp:399] loss3/classifier_plantvillage -> loss3/classifier_plantvillage
I0403 18:38:02.277891 23026 net.cpp:141] Setting up loss3/classifier_plantvillage
I0403 18:38:02.277915 23026 net.cpp:148] Top shape: 24 38 (912)
I0403 18:38:02.277930 23026 net.cpp:156] Memory required for data: 1346064480
I0403 18:38:02.277946 23026 layer_factory.hpp:77] Creating layer loss3/classifier_plantvillage_loss3/classifier_plantvillage_0_split
I0403 18:38:02.277966 23026 net.cpp:91] Creating Layer loss3/classifier_plantvillage_loss3/classifier_plantvillage_0_split
I0403 18:38:02.277982 23026 net.cpp:425] loss3/classifier_plantvillage_loss3/classifier_plantvillage_0_split <- loss3/classifier_plantvillage
I0403 18:38:02.278000 23026 net.cpp:399] loss3/classifier_plantvillage_loss3/classifier_plantvillage_0_split -> loss3/classifier_plantvillage_loss3/classifier_plantvillage_0_split_0
I0403 18:38:02.278024 23026 net.cpp:399] loss3/classifier_plantvillage_loss3/classifier_plantvillage_0_split -> loss3/classifier_plantvillage_loss3/classifier_plantvillage_0_split_1
I0403 18:38:02.278043 23026 net.cpp:399] loss3/classifier_plantvillage_loss3/classifier_plantvillage_0_split -> loss3/classifier_plantvillage_loss3/classifier_plantvillage_0_split_2
I0403 18:38:02.278064 23026 net.cpp:399] loss3/classifier_plantvillage_loss3/classifier_plantvillage_0_split -> loss3/classifier_plantvillage_loss3/classifier_plantvillage_0_split_3
I0403 18:38:02.278159 23026 net.cpp:141] Setting up loss3/classifier_plantvillage_loss3/classifier_plantvillage_0_split
I0403 18:38:02.278180 23026 net.cpp:148] Top shape: 24 38 (912)
I0403 18:38:02.278197 23026 net.cpp:148] Top shape: 24 38 (912)
I0403 18:38:02.278210 23026 net.cpp:148] Top shape: 24 38 (912)
I0403 18:38:02.278224 23026 net.cpp:148] Top shape: 24 38 (912)
I0403 18:38:02.278237 23026 net.cpp:156] Memory required for data: 1346079072
I0403 18:38:02.278251 23026 layer_factory.hpp:77] Creating layer loss1/loss
I0403 18:38:02.278270 23026 net.cpp:91] Creating Layer loss1/loss
I0403 18:38:02.278287 23026 net.cpp:425] loss1/loss <- loss1/classifier_plantvillage_loss1/classifier_plantvillage_0_split_0
I0403 18:38:02.278316 23026 net.cpp:425] loss1/loss <- label_data_1_split_0
…
