…
I0403 18:33:54.635033 22806 net.cpp:313] The NetState phase (1) differed from the phase (0) specified by a rule in layer data
I0403 18:33:54.636128 22806 net.cpp:49] Initializing net from parameters: 
state {
  phase: TEST
}
layer {
  name: "data"
  type: "Data"
  top: "data"
  top: "label"
  include {
    phase: TEST
  }
  transform_param {
    mirror: false
    crop_size: 224
    mean_file: "/home/mohanty/data/final_dataset/lmdb/segmented-40-60/mean.binaryproto"
  }
  data_param {
    source: "/home/mohanty/data/final_dataset/lmdb/segmented-40-60/test_db"
    batch_size: 24
    backend: LMDB
  }
}
layer {
  name: "conv1/7x7_s2"
  type: "Convolution"
  bottom: "data"
  top: "conv1/7x7_s2"
  param {
    lr_mult: 1
    decay_mult: 1
  }
  param {
    lr_mult: 2
    decay_mult: 0
  }
  convolution_param {
    num_output: 64
    pad: 3
    kernel_size: 7
    stride: 2
    weight_filler {
      type: "xavier"
      std: 0.1
    }
    bias_filler {
      type: "constant"
      value: 0.2
    }
  }
}
layer {
  name: "conv1/relu_7x7"
  type: "ReLU"
  bottom: "conv1/7x7_s2"
  top: "conv1/7x7_s2"
}
layer {
  name: "pool1/3x3_s2"
  type: "Pooling"
  bottom: "conv1/7x7_s2"
  top: "pool1/3x3_s2"
  pooling_param {
    pool: MAX
    kernel_size: 3
    stride: 2
  }
}
layer {
  name: "pool1/norm1"
  type: "LRN"
  bottom: "pool1/3x3_s2"
  top: "pool1/norm1"
  lrn_param {
    local_size: 5
    alpha: 0.0001
    beta: 0.75
  }
}
layer {
  name: "conv2/3x3_reduce"
  type: "Convolution"
  bottom: "pool1/norm1"
  top: "conv2/3x3_reduce"
  param {
    lr_mult: 1
    decay_mult: 1
  }
  param {
    lr_mult: 2
    decay_mult: 0
  }
  convolution_param {
    num_output: 64
    kernel_size: 1
    weight_filler {
      type: "xavier"
      std: 0.1
    }
    bias_filler {
      type: "constant"
      value: 0.2
    }
  }
}
layer {
  name: "conv2/relu_3x3_reduce"
  type: "ReLU"
  bottom: "conv2/3x3_reduce"
  top: "conv2/3x3_reduce"
}
layer {
  name: "conv2/3x3"
  type: "Convolution"
  bottom: "conv2/3x3_reduce"
  top: "conv2/3x3"
  param {
    lr_mult: 1
    decay_mult: 1
  }
  param {
    lr_mult: 2
    decay_mult: 0
  }
  convolution_param {
    num_output: 192
    pad: 1
    kernel_size: 3
    weight_filler {
      type: "xavier"
      std: 0.03
    }
    bias_filler {
      type: "constant"
      value: 0.2
    }
  }
}
layer {
  name: "conv2/relu_3x3"
  type: "ReLU"
  bottom: "conv2/3x3"
  top: "conv2/3x3"
}
layer {
  name: "conv2/norm2"
  type: "LRN"
  bottom: "conv2/3x3"
  top: "conv2/norm2"
  lrn_param {
    local_size: 5
    alpha: 0.0001
    beta: 0.75
  }
}
layer {
  name: "pool2/3x3_s2"
  type: "Pooling"
  bottom: "conv2/norm2"
  top: "pool2/3x3_s2"
  pooling_param {
    pool: MAX
    kernel_size: 3
    stride: 2
  }
}
layer {
  name: "inception_3a/1x1"
  type: "Convolution"
  bottom: "pool2/3x3_s2"
  top: "inception_3a/1x1"
  param {
    lr_mult: 1
    decay_mult: 1
  }
  param {
    lr_mult: 2
    decay_mult: 0
  }
  convolution_param {
    num_output: 64
    kernel_size: 1
    weight_filler {
      type: "xavier"
      std: 0.03
    }
    bias_filler {
      type: "constant"
      value: 0.2
    }
  }
}
layer {
  name: "inception_3a/relu_1x1"
  type: "ReLU"
  bottom: "inception_3a/1x1"
  top: "inception_3a/1x1"
}
layer {
  name: "inception_3a/3x3_reduce"
  type: "Convolution"
  bottom: "pool2/3x3_s2"
  top: "inception_3a/3x3_reduce"
  param {
    lr_mult: 1
    decay_mult: 1
  }
  param {
    lr_mult: 2
    decay_mult: 0
  }
  convolution_param {
    num_output: 96
    kernel_size: 1
    weight_filler {
      type: "xavier"
      std: 0.09
    }
    bias_filler {
      type: "constant"
      value: 0.2
    }
  }
}
layer {
  name: "inception_3a/relu_3x3_reduce"
  type: "ReLU"
  bottom: "inception_3a/3x3_reduce"
  top: "inception_3a/3x3_reduce"
}
layer {
  name: "inception_3a/3x3"
  type: "Convolution"
  bottom: "inception_3a/3x3_reduce"
  top: "inception_3a/3x3"
  param {
    lr_mult: 1
    decay_mult: 1
  }
  param {
    lr_mult: 2
    decay_mult: 0
  }
  convolution_param {
    num_output: 128
    pad: 1
    kernel_size: 3
    weight_filler {
      type: "xavier"
      std: 0.03
    }
    bias_filler {
      type: "constant"
      value: 0.2
    }
  }
}
layer {
  name: "inception_3a/relu_3x3"
  type: "ReLU"
  bottom: "inception_3a/3x3"
  top: "inception_3a/3x3"
}
layer {
  name: "inception_3a/5x5_reduce"
  type: "Convolution"
  bottom: "pool2/3x3_s2"
  top: "inception_3a/5x5_reduce"
  param {
    lr_mult: 1
    decay_mult: 1
  }
  param {
    lr_mult: 2
    decay_mult: 0
  }
  convolution_param {
    num_output: 16
    kernel_size: 1
    weight_filler {
      type: "xavier"
      std: 0.2
    }
    bias_filler {
      type: "constant"
      value: 0.2
    }
  }
}
layer {
  name: "inception_3a/relu_5x5_reduce"
  type: "ReLU"
  bottom: "inception_3a/5x5_reduce"
  top: "inception_3a/5x5_reduce"
}
layer {
  name: "inception_3a/5x5"
  type: "Convolution"
  bottom: "inception_3a/5x5_reduce"
  top: "inception_3a/5x5"
  param {
    lr_mult: 1
    decay_mult: 1
  }
  param {
    lr_mult: 2
    decay_mult: 0
  }
  convolution_param {
    num_output: 32
    pad: 2
    kernel_size: 5
    weight_filler {
      type: "xavier"
      std: 0.03
    }
    bias_filler {
      type: "constant"
      value: 0.2
    }
  }
}
layer {
  name: "inception_3a/relu_5x5"
  type: "ReLU"
  bottom: "inception_3a/5x5"
  top: "inception_3a/5x5"
}
layer {
  name: "inception_3a/pool"
  type: "Pooling"
  bottom: "pool2/3x3_s2"
  top: "inception_3a/pool"
  pooling_param {
    pool: MAX
    kernel_size: 3
    stride: 1
    pad: 1
  }
}
layer {
  name: "inception_3a/pool_proj"
  type: "Convolution"
  bottom: "inception_3a/pool"
  top: "inception_3a/pool_proj"
  param {
    lr_mult: 1
    decay_mult: 1
  }
  param {
    lr_mult: 2
    decay_mult: 0
  }
  convolution_param {
    num_output: 32
    kernel_size: 1
    weight_filler {
      type: "xavier"
      std: 0.1
    }
    bias_filler {
      type: "constant"
      value: 0.2
    }
  }
}
layer {
  name: "inception_3a/relu_pool_proj"
  type: "ReLU"
  bottom: "inception_3a/pool_proj"
  top: "inception_3a/pool_proj"
}
layer {
  name: "inception_3a/output"
  type: "Concat"
  bottom: "inception_3a/1x1"
  bottom: "inception_3a/3x3"
  bottom: "inception_3a/5x5"
  bottom: "inception_3a/pool_proj"
  top: "inception_3a/output"
}
layer {
  name: "inception_3b/1x1"
  type: "Convolution"
  bottom: "inception_3a/output"
  top: "inception_3b/1x1"
  param {
    lr_mult: 1
    decay_mult: 1
  }
  param {
    lr_mult: 2
    decay_mult: 0
  }
  convolution_param {
    num_output: 128
    kernel_size: 1
    weight_filler {
      type: "xavier"
      std: 0.03
    }
    bias_filler {
      type: "constant"
      value: 0.2
    }
  }
}
layer {
  name: "inception_3b/relu_1x1"
  type: "ReLU"
  bottom: "inception_3b/1x1"
  top: "inception_3b/1x1"
}
layer {
  name: "inception_3b/3x3_reduce"
  type: "Convolution"
  bottom: "inception_3a/output"
  top: "inception_3b/3x3_reduce"
  param {
    lr_mult: 1
    decay_mult: 1
  }
  param {
    lr_mult: 2
    decay_mult: 0
  }
  convolution_param {
    num_output: 128
    kernel_size: 1
    weight_filler {
      type: "xavier"
      std: 0.09
    }
    bias_filler {
      type: "constant"
      value: 0.2
    }
  }
}
layer {
  name: "inception_3b/relu_3x3_reduce"
  type: "ReLU"
  bottom: "inception_3b/3x3_reduce"
  top: "inception_3b/3x3_reduce"
}
layer {
  name: "inception_3b/3x3"
  type: "Convolution"
  bottom: "inception_3b/3x3_reduce"
  top: "inception_3b/3x3"
  param {
    lr_mult: 1
    decay_mult: 1
  }
  param {
    lr_mult: 2
    decay_mult: 0
  }
  convolution_param {
    num_output: 192
    pad: 1
    kernel_size: 3
    weight_filler {
      type: "xavier"
      std: 0.03
    }
    bias_filler {
      type: "constant"
      value: 0.2
    }
  }
}
layer {
  name: "inception_3b/relu_3x3"
  type: "ReLU"
  bottom: "inception_3b/3x3"
  top: "inception_3b/3x3"
}
layer {
  name: "inception_3b/5x5_reduce"
  type: "Convolution"
  bottom: "inception_3a/output"
  top: "inception_3b/5x5_reduce"
  param {
    lr_mult: 1
    decay_mult: 1
  }
  param {
    lr_mult: 2
    decay_mult: 0
  }
  convolution_param {
    num_output: 32
    kernel_size: 1
    weight_filler {
      type: "xavier"
      std: 0.2
    }
    bias_filler {
      type: "constant"
      value: 0.2
    }
  }
}
layer {
  name: "inception_3b/relu_5x5_reduce"
  type: "ReLU"
  bottom: "inception_3b/5x5_reduce"
  top: "inception_3b/5x5_reduce"
}
layer {
  name: "inception_3b/5x5"
  type: "Convolution"
  bottom: "inception_3b/5x5_reduce"
  top: "inception_3b/5x5"
  param {
    lr_mult: 1
    decay_mult: 1
  }
  param {
    lr_mult: 2
    decay_mult: 0
  }
  convolution_param {
    num_output: 96
    pad: 2
    kernel_size: 5
    weight_filler {
      type: "xavier"
      std: 0.03
    }
    bias_filler {
      type: "constant"
      value: 0.2
    }
  }
}
layer {
  name: "inception_3b/relu_5x5"
  type: "ReLU"
  bottom: "inception_3b/5x5"
  top: "inception_3b/5x5"
}
layer {
  name: "inception_3b/pool"
  type: "Pooling"
  bottom: "inception_3a/output"
  top: "inception_3b/pool"
  pooling_param {
    pool: MAX
    kernel_size: 3
    stride: 1
    pad: 1
  }
}
layer {
  name: "inception_3b/pool_proj"
  type: "Convolution"
  bottom: "inception_3b/pool"
  top: "inception_3b/pool_proj"
  param {
    lr_mult: 1
    decay_mult: 1
  }
  param {
    lr_mult: 2
    decay_mult: 0
  }
  convolution_param {
    num_output: 64
    kernel_size: 1
    weight_filler {
      type: "xavier"
      std: 0.1
    }
    bias_filler {
      type: "constant"
      value: 0.2
    }
  }
}
layer {
  name: "inception_3b/relu_pool_proj"
  type: "ReLU"
  bottom: "inception_3b/pool_proj"
  top: "inception_3b/pool_proj"
}
layer {
  name: "inception_3b/output"
  type: "Concat"
  bottom: "inception_3b/1x1"
  bottom: "inception_3b/3x3"
  bottom: "inception_3b/5x5"
  bottom: "inception_3b/pool_proj"
  top: "inception_3b/output"
}
layer {
  name: "pool3/3x3_s2"
  type: "Pooling"
  bottom: "inception_3b/output"
  top: "pool3/3x3_s2"
  pooling_param {
    pool: MAX
    kernel_size: 3
    stride: 2
  }
}
layer {
  name: "inception_4a/1x1"
  type: "Convolution"
  bottom: "pool3/3x3_s2"
  top: "inception_4a/1x1"
  param {
    lr_mult: 1
    decay_mult: 1
  }
  param {
    lr_mult: 2
    decay_mult: 0
  }
  convolution_param {
    num_output: 192
    kernel_size: 1
    weight_filler {
      type: "xavier"
      std: 0.03
    }
    bias_filler {
      type: "constant"
      value: 0.2
    }
  }
}
layer {
  name: "inception_4a/relu_1x1"
  type: "ReLU"
  bottom: "inception_4a/1x1"
  top: "inception_4a/1x1"
}
layer {
  name: "inception_4a/3x3_reduce"
  type: "Convolution"
  bottom: "pool3/3x3_s2"
  top: "inception_4a/3x3_reduce"
  param {
    lr_mult: 1
    decay_mult: 1
  }
  param {
    lr_mult: 2
    decay_mult: 0
  }
  convolution_param {
    num_output: 96
    kernel_size: 1
    weight_filler {
      type: "xavier"
      std: 0.09
    }
    bias_filler {
      type: "constant"
      value: 0.2
    }
  }
}
layer {
  name: "inception_4a/relu_3x3_reduce"
  type: "ReLU"
  bottom: "inception_4a/3x3_reduce"
  top: "inception_4a/3x3_reduce"
}
layer {
  name: "inception_4a/3x3"
  type: "Convolution"
  bottom: "inception_4a/3x3_reduce"
  top: "inception_4a/3x3"
  param {
    lr_mult: 1
    decay_mult: 1
  }
  param {
    lr_mult: 2
    decay_mult: 0
  }
  convolution_param {
    num_output: 208
    pad: 1
    kernel_size: 3
    weight_filler {
      type: "xavier"
      std: 0.03
    }
    bias_filler {
      type: "constant"
      value: 0.2
    }
  }
}
layer {
  name: "inception_4a/relu_3x3"
  type: "ReLU"
  bottom: "inception_4a/3x3"
  top: "inception_4a/3x3"
}
layer {
  name: "inception_4a/5x5_reduce"
  type: "Convolution"
  bottom: "pool3/3x3_s2"
  top: "inception_4a/5x5_reduce"
  param {
    lr_mult: 1
    decay_mult: 1
  }
  param {
    lr_mult: 2
    decay_mult: 0
  }
  convolution_param {
    num_output: 16
    kernel_size: 1
    weight_filler {
      type: "xavier"
      std: 0.2
    }
    bias_filler {
      type: "constant"
      value: 0.2
    }
  }
}
layer {
  name: "inception_4a/relu_5x5_reduce"
  type: "ReLU"
  bottom: "inception_4a/5x5_reduce"
  top: "inception_4a/5x5_reduce"
}
layer {
  name: "inception_4a/5x5"
  type: "Convolution"
  bottom: "inception_4a/5x5_reduce"
  top: "inception_4a/5x5"
  param {
    lr_mult: 1
    decay_mult: 1
  }
  param {
    lr_mult: 2
    decay_mult: 0
  }
  convolution_param {
    num_output: 48
    pad: 2
    kernel_size: 5
    weight_filler {
      type: "xavier"
      std: 0.03
    }
    bias_filler {
      type: "constant"
      value: 0.2
    }
  }
}
layer {
  name: "inception_4a/relu_5x5"
  type: "ReLU"
  bottom: "inception_4a/5x5"
  top: "inception_4a/5x5"
}
layer {
  name: "inception_4a/pool"
  type: "Pooling"
  bottom: "pool3/3x3_s2"
  top: "inception_4a/pool"
  pooling_param {
    pool: MAX
    kernel_size: 3
    stride: 1
    pad: 1
  }
}
layer {
  name: "inception_4a/pool_proj"
  type: "Convolution"
  bottom: "inception_4a/pool"
  top: "inception_4a/pool_proj"
  param {
    lr_mult: 1
    decay_mult: 1
  }
  param {
    lr_mult: 2
    decay_mult: 0
  }
  convolution_param {
    num_output: 64
    kernel_size: 1
    weight_filler {
      type: "xavier"
      std: 0.1
    }
    bias_filler {
      type: "constant"
      value: 0.2
    }
  }
}
layer {
  name: "inception_4a/relu_pool_proj"
  type: "ReLU"
  bottom: "inception_4a/pool_proj"
  top: "inception_4a/pool_proj"
}
layer {
  name: "inception_4a/output"
  type: "Concat"
  bottom: "inception_4a/1x1"
  bottom: "inception_4a/3x3"
  bottom: "inception_4a/5x5"
  bottom: "inception_4a/pool_proj"
  top: "inception_4a/output"
}
layer {
  name: "loss1/ave_pool"
  type: "Pooling"
  bottom: "inception_4a/output"
  top: "loss1/ave_pool"
  pooling_param {
    pool: AVE
    kernel_size: 5
    stride: 3
  }
}
layer {
  name: "loss1/conv"
  type: "Convolution"
  bottom: "loss1/ave_pool"
  top: "loss1/conv"
  param {
    lr_mult: 1
    decay_mult: 1
  }
  param {
    lr_mult: 2
    decay_mult: 0
  }
  convolution_param {
    num_output: 128
    kernel_size: 1
    weight_filler {
      type: "xavier"
      std: 0.08
    }
    bias_filler {
      type: "constant"
      value: 0.2
    }
  }
}
layer {
  name: "loss1/relu_conv"
  type: "ReLU"
  bottom: "loss1/conv"
  top: "loss1/conv"
}
layer {
  name: "loss1/fc"
  type: "InnerProduct"
  bottom: "loss1/conv"
  top: "loss1/fc"
  param {
    lr_mult: 1
    decay_mult: 1
  }
  param {
    lr_mult: 2
    decay_mult: 0
  }
  inner_product_param {
    num_output: 1024
    weight_filler {
      type: "xavier"
      std: 0.02
    }
    bias_filler {
      type: "constant"
      value: 0.2
    }
  }
}
layer {
  name: "loss1/relu_fc"
  type: "ReLU"
  bottom: "loss1/fc"
  top: "loss1/fc"
}
layer {
  name: "loss1/drop_fc"
  type: "Dropout"
  bottom: "loss1/fc"
  top: "loss1/fc"
  dropout_param {
    dropout_ratio: 0.7
  }
}
layer {
  name: "loss1/classifier_plantvillage"
  type: "InnerProduct"
  bottom: "loss1/fc"
  top: "loss1/classifier_plantvillage"
  param {
    lr_mult: 1
    decay_mult: 1
  }
  param {
    lr_mult: 2
    decay_mult: 0
  }
  inner_product_param {
    num_output: 38
    weight_filler {
      type: "xavier"
      std: 0.0009765625
    }
    bias_filler {
      type: "constant"
      value: 0
    }
  }
}
layer {
  name: "inception_4b/1x1"
  type: "Convolution"
  bottom: "inception_4a/output"
  top: "inception_4b/1x1"
  param {
    lr_mult: 1
    decay_mult: 1
  }
  param {
    lr_mult: 2
    decay_mult: 0
  }
  convolution_param {
    num_output: 160
    kernel_size: 1
    weight_filler {
      type: "xavier"
      std: 0.03
    }
    bias_filler {
      type: "constant"
      value: 0.2
    }
  }
}
layer {
  name: "inception_4b/relu_1x1"
  type: "ReLU"
  bottom: "inception_4b/1x1"
  top: "inception_4b/1x1"
}
layer {
  name: "inception_4b/3x3_reduce"
  type: "Convolution"
  bottom: "inception_4a/output"
  top: "inception_4b/3x3_reduce"
  param {
    lr_mult: 1
    decay_mult: 1
  }
  param {
    lr_mult: 2
    decay_mult: 0
  }
  convolution_param {
    num_output: 112
    kernel_size: 1
    weight_filler {
      type: "xavier"
      std: 0.09
    }
    bias_filler {
      type: "constant"
      value: 0.2
    }
  }
}
layer {
  name: "inception_4b/relu_3x3_reduce"
  type: "ReLU"
  bottom: "inception_4b/3x3_reduce"
  top: "inception_4b/3x3_reduce"
}
layer {
  name: "inception_4b/3x3"
  type: "Convolution"
  bottom: "inception_4b/3x3_reduce"
  top: "inception_4b/3x3"
  param {
    lr_mult: 1
    decay_mult: 1
  }
  param {
    lr_mult: 2
    decay_mult: 0
  }
  convolution_param {
    num_output: 224
    pad: 1
    kernel_size: 3
    weight_filler {
      type: "xavier"
      std: 0.03
    }
    bias_filler {
      type: "constant"
      value: 0.2
    }
  }
}
layer {
  name: "inception_4b/relu_3x3"
  type: "ReLU"
  bottom: "inception_4b/3x3"
  top: "inception_4b/3x3"
}
layer {
  name: "inception_4b/5x5_reduce"
  type: "Convolution"
  bottom: "inception_4a/output"
  top: "inception_4b/5x5_reduce"
  param {
    lr_mult: 1
    decay_mult: 1
  }
  param {
    lr_mult: 2
    decay_mult: 0
  }
  convolution_param {
    num_output: 24
    kernel_size: 1
    weight_filler {
      type: "xavier"
      std: 0.2
    }
    bias_filler {
      type: "constant"
      value: 0.2
    }
  }
}
layer {
  name: "inception_4b/relu_5x5_reduce"
  type: "ReLU"
  bottom: "inception_4b/5x5_reduce"
  top: "inception_4b/5x5_reduce"
}
layer {
  name: "inception_4b/5x5"
  type: "Convolution"
  bottom: "inception_4b/5x5_reduce"
  top: "inception_4b/5x5"
  param {
    lr_mult: 1
    decay_mult: 1
  }
  param {
    lr_mult: 2
    decay_mult: 0
  }
  convolution_param {
    num_output: 64
    pad: 2
    kernel_size: 5
    weight_filler {
      type: "xavier"
      std: 0.03
    }
    bias_filler {
      type: "constant"
      value: 0.2
    }
  }
}
layer {
  name: "inception_4b/relu_5x5"
  type: "ReLU"
  bottom: "inception_4b/5x5"
  top: "inception_4b/5x5"
}
layer {
  name: "inception_4b/pool"
  type: "Pooling"
  bottom: "inception_4a/output"
  top: "inception_4b/pool"
  pooling_param {
    pool: MAX
    kernel_size: 3
    stride: 1
    pad: 1
  }
}
layer {
  name: "inception_4b/pool_proj"
  type: "Convolution"
  bottom: "inception_4b/pool"
  top: "inception_4b/pool_proj"
  param {
    lr_mult: 1
    decay_mult: 1
  }
  param {
    lr_mult: 2
    decay_mult: 0
  }
  convolution_param {
    num_output: 64
    kernel_size: 1
    weight_filler {
      type: "xavier"
      std: 0.1
    }
    bias_filler {
      type: "constant"
      value: 0.2
    }
  }
}
layer {
  name: "inception_4b/relu_pool_proj"
  type: "ReLU"
  bottom: "inception_4b/pool_proj"
  top: "inception_4b/pool_proj"
}
layer {
  name: "inception_4b/output"
  type: "Concat"
  bottom: "inception_4b/1x1"
  bottom: "inception_4b/3x3"
  bottom: "inception_4b/5x5"
  bottom: "inception_4b/pool_proj"
  top: "inception_4b/output"
}
layer {
  name: "inception_4c/1x1"
  type: "Convolution"
  bottom: "inception_4b/output"
  top: "inception_4c/1x1"
  param {
    lr_mult: 1
    decay_mult: 1
  }
  param {
    lr_mult: 2
    decay_mult: 0
  }
  convolution_param {
    num_output: 128
    kernel_size: 1
    weight_filler {
      type: "xavier"
      std: 0.03
    }
    bias_filler {
      type: "constant"
      value: 0.2
    }
  }
}
layer {
  name: "inception_4c/relu_1x1"
  type: "ReLU"
  bottom: "inception_4c/1x1"
  top: "inception_4c/1x1"
}
layer {
  name: "inception_4c/3x3_reduce"
  type: "Convolution"
  bottom: "inception_4b/output"
  top: "inception_4c/3x3_reduce"
  param {
    lr_mult: 1
    decay_mult: 1
  }
  param {
    lr_mult: 2
    decay_mult: 0
  }
  convolution_param {
    num_output: 128
    kernel_size: 1
    weight_filler {
      type: "xavier"
      std: 0.09
    }
    bias_filler {
      type: "constant"
      value: 0.2
    }
  }
}
layer {
  name: "inception_4c/relu_3x3_reduce"
  type: "ReLU"
  bottom: "inception_4c/3x3_reduce"
  top: "inception_4c/3x3_reduce"
}
layer {
  name: "inception_4c/3x3"
  type: "Convolution"
  bottom: "inception_4c/3x3_reduce"
  top: "inception_4c/3x3"
  param {
    lr_mult: 1
    decay_mult: 1
  }
  param {
    lr_mult: 2
    decay_mult: 0
  }
  convolution_param {
    num_output: 256
    pad: 1
    kernel_size: 3
    weight_filler {
      type: "xavier"
      std: 0.03
    }
    bias_filler {
      type: "constant"
      value: 0.2
    }
  }
}
layer {
  name: "inception_4c/relu_3x3"
  type: "ReLU"
  bottom: "inception_4c/3x3"
  top: "inception_4c/3x3"
}
layer {
  name: "inception_4c/5x5_reduce"
  type: "Convolution"
  bottom: "inception_4b/output"
  top: "inception_4c/5x5_reduce"
  param {
    lr_mult: 1
    decay_mult: 1
  }
  param {
    lr_mult: 2
    decay_mult: 0
  }
  convolution_param {
    num_output: 24
    kernel_size: 1
    weight_filler {
      type: "xavier"
      std: 0.2
    }
    bias_filler {
      type: "constant"
      value: 0.2
    }
  }
}
layer {
  name: "inception_4c/relu_5x5_reduce"
  type: "ReLU"
  bottom: "inception_4c/5x5_reduce"
  top: "inception_4c/5x5_reduce"
}
layer {
  name: "inception_4c/5x5"
  type: "Convolution"
  bottom: "inception_4c/5x5_reduce"
  top: "inception_4c/5x5"
  param {
    lr_mult: 1
    decay_mult: 1
  }
  param {
    lr_mult: 2
    decay_mult: 0
  }
  convolution_param {
    num_output: 64
    pad: 2
    kernel_size: 5
    weight_filler {
      type: "xavier"
      std: 0.03
    }
    bias_filler {
      type: "constant"
      value: 0.2
    }
  }
}
layer {
  name: "inception_4c/relu_5x5"
  type: "ReLU"
  bottom: "inception_4c/5x5"
  top: "inception_4c/5x5"
}
layer {
  name: "inception_4c/pool"
  type: "Pooling"
  bottom: "inception_4b/output"
  top: "inception_4c/pool"
  pooling_param {
    pool: MAX
    kernel_size: 3
    stride: 1
    pad: 1
  }
}
layer {
  name: "inception_4c/pool_proj"
  type: "Convolution"
  bottom: "inception_4c/pool"
  top: "inception_4c/pool_proj"
  param {
    lr_mult: 1
    decay_mult: 1
  }
  param {
    lr_mult: 2
    decay_mult: 0
  }
  convolution_param {
    num_output: 64
    kernel_size: 1
    weight_filler {
      type: "xavier"
      std: 0.1
    }
    bias_filler {
      type: "constant"
      value: 0.2
    }
  }
}
layer {
  name: "inception_4c/relu_pool_proj"
  type: "ReLU"
  bottom: "inception_4c/pool_proj"
  top: "inception_4c/pool_proj"
}
layer {
  name: "inception_4c/output"
  type: "Concat"
  bottom: "inception_4c/1x1"
  bottom: "inception_4c/3x3"
  bottom: "inception_4c/5x5"
  bottom: "inception_4c/pool_proj"
  top: "inception_4c/output"
}
layer {
  name: "inception_4d/1x1"
  type: "Convolution"
  bottom: "inception_4c/output"
  top: "inception_4d/1x1"
  param {
    lr_mult: 1
    decay_mult: 1
  }
  param {
    lr_mult: 2
    decay_mult: 0
  }
  convolution_param {
    num_output: 112
    kernel_size: 1
    weight_filler {
      type: "xavier"
      std: 0.03
    }
    bias_filler {
      type: "constant"
      value: 0.2
    }
  }
}
layer {
  name: "inception_4d/relu_1x1"
  type: "ReLU"
  bottom: "inception_4d/1x1"
  top: "inception_4d/1x1"
}
layer {
  name: "inception_4d/3x3_reduce"
  type: "Convolution"
  bottom: "inception_4c/output"
  top: "inception_4d/3x3_reduce"
  param {
    lr_mult: 1
    decay_mult: 1
  }
  param {
    lr_mult: 2
    decay_mult: 0
  }
  convolution_param {
    num_output: 144
    kernel_size: 1
    weight_filler {
      type: "xavier"
      std: 0.09
    }
    bias_filler {
      type: "constant"
      value: 0.2
    }
  }
}
layer {
  name: "inception_4d/relu_3x3_reduce"
  type: "ReLU"
  bottom: "inception_4d/3x3_reduce"
  top: "inception_4d/3x3_reduce"
}
layer {
  name: "inception_4d/3x3"
  type: "Convolution"
  bottom: "inception_4d/3x3_reduce"
  top: "inception_4d/3x3"
  param {
    lr_mult: 1
    decay_mult: 1
  }
  param {
    lr_mult: 2
    decay_mult: 0
  }
  convolution_param {
    num_output: 288
    pad: 1
    kernel_size: 3
    weight_filler {
      type: "xavier"
      std: 0.03
    }
    bias_filler {
      type: "constant"
      value: 0.2
    }
  }
}
layer {
  name: "inception_4d/relu_3x3"
  type: "ReLU"
  bottom: "inception_4d/3x3"
  top: "inception_4d/3x3"
}
layer {
  name: "inception_4d/5x5_reduce"
  type: "Convolution"
  bottom: "inception_4c/output"
  top: "inception_4d/5x5_reduce"
  param {
    lr_mult: 1
    decay_mult: 1
  }
  param {
    lr_mult: 2
    decay_mult: 0
  }
  convolution_param {
    num_output: 32
    kernel_size: 1
    weight_filler {
      type: "xavier"
      std: 0.2
    }
    bias_filler {
      type: "constant"
      value: 0.2
    }
  }
}
layer {
  name: "inception_4d/relu_5x5_reduce"
  type: "ReLU"
  bottom: "inception_4d/5x5_reduce"
  top: "inception_4d/5x5_reduce"
}
layer {
  name: "inception_4d/5x5"
  type: "Convolution"
  bottom: "inception_4d/5x5_reduce"
  top: "inception_4d/5x5"
  param {
    lr_mult: 1
    decay_mult: 1
  }
  param {
    lr_mult: 2
    decay_mult: 0
  }
  convolution_param {
    num_output: 64
    pad: 2
    kernel_size: 5
    weight_filler {
      type: "xavier"
      std: 0.03
    }
    bias_filler {
      type: "constant"
      value: 0.2
    }
  }
}
layer {
  name: "inception_4d/relu_5x5"
  type: "ReLU"
  bottom: "inception_4d/5x5"
  top: "inception_4d/5x5"
}
layer {
  name: "inception_4d/pool"
  type: "Pooling"
  bottom: "inception_4c/output"
  top: "inception_4d/pool"
  pooling_param {
    pool: MAX
    kernel_size: 3
    stride: 1
    pad: 1
  }
}
layer {
  name: "inception_4d/pool_proj"
  type: "Convolution"
  bottom: "inception_4d/pool"
  top: "inception_4d/pool_proj"
  param {
    lr_mult: 1
    decay_mult: 1
  }
  param {
    lr_mult: 2
    decay_mult: 0
  }
  convolution_param {
    num_output: 64
    kernel_size: 1
    weight_filler {
      type: "xavier"
      std: 0.1
    }
    bias_filler {
      type: "constant"
      value: 0.2
    }
  }
}
layer {
  name: "inception_4d/relu_pool_proj"
  type: "ReLU"
  bottom: "inception_4d/pool_proj"
  top: "inception_4d/pool_proj"
}
layer {
  name: "inception_4d/output"
  type: "Concat"
  bottom: "inception_4d/1x1"
  bottom: "inception_4d/3x3"
  bottom: "inception_4d/5x5"
  bottom: "inception_4d/pool_proj"
  top: "inception_4d/output"
}
layer {
  name: "loss2/ave_pool"
  type: "Pooling"
  bottom: "inception_4d/output"
  top: "loss2/ave_pool"
  pooling_param {
    pool: AVE
    kernel_size: 5
    stride: 3
  }
}
layer {
  name: "loss2/conv"
  type: "Convolution"
  bottom: "loss2/ave_pool"
  top: "loss2/conv"
  param {
    lr_mult: 1
    decay_mult: 1
  }
  param {
    lr_mult: 2
    decay_mult: 0
  }
  convolution_param {
    num_output: 128
    kernel_size: 1
    weight_filler {
      type: "xavier"
      std: 0.08
    }
    bias_filler {
      type: "constant"
      value: 0.2
    }
  }
}
layer {
  name: "loss2/relu_conv"
  type: "ReLU"
  bottom: "loss2/conv"
  top: "loss2/conv"
}
layer {
  name: "loss2/fc"
  type: "InnerProduct"
  bottom: "loss2/conv"
  top: "loss2/fc"
  param {
    lr_mult: 1
    decay_mult: 1
  }
  param {
    lr_mult: 2
    decay_mult: 0
  }
  inner_product_param {
    num_output: 1024
    weight_filler {
      type: "xavier"
      std: 0.02
    }
    bias_filler {
      type: "constant"
      value: 0.2
    }
  }
}
layer {
  name: "loss2/relu_fc"
  type: "ReLU"
  bottom: "loss2/fc"
  top: "loss2/fc"
}
layer {
  name: "loss2/drop_fc"
  type: "Dropout"
  bottom: "loss2/fc"
  top: "loss2/fc"
  dropout_param {
    dropout_ratio: 0.7
  }
}
layer {
  name: "loss2/classifier_plantvillage"
  type: "InnerProduct"
  bottom: "loss2/fc"
  top: "loss2/classifier_plantvillage"
  param {
    lr_mult: 1
    decay_mult: 1
  }
  param {
    lr_mult: 2
    decay_mult: 0
  }
  inner_product_param {
    num_output: 38
    weight_filler {
      type: "xavier"
      std: 0.0009765625
    }
    bias_filler {
      type: "constant"
      value: 0
    }
  }
}
layer {
  name: "inception_4e/1x1"
  type: "Convolution"
  bottom: "inception_4d/output"
  top: "inception_4e/1x1"
  param {
    lr_mult: 1
    decay_mult: 1
  }
  param {
    lr_mult: 2
    decay_mult: 0
  }
  convolution_param {
    num_output: 256
    kernel_size: 1
    weight_filler {
      type: "xavier"
      std: 0.03
    }
    bias_filler {
      type: "constant"
      value: 0.2
    }
  }
}
layer {
  name: "inception_4e/relu_1x1"
  type: "ReLU"
  bottom: "inception_4e/1x1"
  top: "inception_4e/1x1"
}
layer {
  name: "inception_4e/3x3_reduce"
  type: "Convolution"
  bottom: "inception_4d/output"
  top: "inception_4e/3x3_reduce"
  param {
    lr_mult: 1
    decay_mult: 1
  }
  param {
    lr_mult: 2
    decay_mult: 0
  }
  convolution_param {
    num_output: 160
    kernel_size: 1
    weight_filler {
      type: "xavier"
      std: 0.09
    }
    bias_filler {
      type: "constant"
      value: 0.2
    }
  }
}
layer {
  name: "inception_4e/relu_3x3_reduce"
  type: "ReLU"
  bottom: "inception_4e/3x3_reduce"
  top: "inception_4e/3x3_reduce"
}
layer {
  name: "inception_4e/3x3"
  type: "Convolution"
  bottom: "inception_4e/3x3_reduce"
  top: "inception_4e/3x3"
  param {
    lr_mult: 1
    decay_mult: 1
  }
  param {
    lr_mult: 2
    decay_mult: 0
  }
  convolution_param {
    num_output: 320
    pad: 1
    kernel_size: 3
    weight_filler {
      type: "xavier"
      std: 0.03
    }
    bias_filler {
      type: "constant"
      value: 0.2
    }
  }
}
layer {
  name: "inception_4e/relu_3x3"
  type: "ReLU"
  bottom: "inception_4e/3x3"
  top: "inception_4e/3x3"
}
layer {
  name: "inception_4e/5x5_reduce"
  type: "Convolution"
  bottom: "inception_4d/output"
  top: "inception_4e/5x5_reduce"
  param {
    lr_mult: 1
    decay_mult: 1
  }
  param {
    lr_mult: 2
    decay_mult: 0
  }
  convolution_param {
    num_output: 32
    kernel_size: 1
    weight_filler {
      type: "xavier"
      std: 0.2
    }
    bias_filler {
      type: "constant"
      value: 0.2
    }
  }
}
layer {
  name: "inception_4e/relu_5x5_reduce"
  type: "ReLU"
  bottom: "inception_4e/5x5_reduce"
  top: "inception_4e/5x5_reduce"
}
layer {
  name: "inception_4e/5x5"
  type: "Convolution"
  bottom: "inception_4e/5x5_reduce"
  top: "inception_4e/
I0403 18:33:54.637408 22806 layer_factory.hpp:77] Creating layer data
I0403 18:33:54.637998 22806 net.cpp:91] Creating Layer data
I0403 18:33:54.638031 22806 net.cpp:399] data -> data
I0403 18:33:54.638080 22806 net.cpp:399] data -> label
I0403 18:33:54.638115 22806 data_transformer.cpp:25] Loading mean file from: /home/mohanty/data/final_dataset/lmdb/segmented-40-60/mean.binaryproto
I0403 18:33:54.639331 22808 db_lmdb.cpp:38] Opened lmdb /home/mohanty/data/final_dataset/lmdb/segmented-40-60/test_db
I0403 18:33:54.651000 22806 data_layer.cpp:41] output data size: 24,3,224,224
I0403 18:33:54.678125 22806 net.cpp:141] Setting up data
I0403 18:33:54.678202 22806 net.cpp:148] Top shape: 24 3 224 224 (3612672)
I0403 18:33:54.678225 22806 net.cpp:148] Top shape: 24 (24)
I0403 18:33:54.678238 22806 net.cpp:156] Memory required for data: 14450784
I0403 18:33:54.678264 22806 layer_factory.hpp:77] Creating layer label_data_1_split
I0403 18:33:54.678290 22806 net.cpp:91] Creating Layer label_data_1_split
I0403 18:33:54.678306 22806 net.cpp:425] label_data_1_split <- label
I0403 18:33:54.678338 22806 net.cpp:399] label_data_1_split -> label_data_1_split_0
I0403 18:33:54.678364 22806 net.cpp:399] label_data_1_split -> label_data_1_split_1
I0403 18:33:54.678383 22806 net.cpp:399] label_data_1_split -> label_data_1_split_2
I0403 18:33:54.678403 22806 net.cpp:399] label_data_1_split -> label_data_1_split_3
I0403 18:33:54.678421 22806 net.cpp:399] label_data_1_split -> label_data_1_split_4
I0403 18:33:54.678441 22806 net.cpp:399] label_data_1_split -> label_data_1_split_5
I0403 18:33:54.678458 22806 net.cpp:399] label_data_1_split -> label_data_1_split_6
I0403 18:33:54.678478 22806 net.cpp:399] label_data_1_split -> label_data_1_split_7
I0403 18:33:54.678495 22806 net.cpp:399] label_data_1_split -> label_data_1_split_8
I0403 18:33:54.678514 22806 net.cpp:399] label_data_1_split -> label_data_1_split_9
I0403 18:33:54.678630 22806 net.cpp:141] Setting up label_data_1_split
I0403 18:33:54.678653 22806 net.cpp:148] Top shape: 24 (24)
I0403 18:33:54.678668 22806 net.cpp:148] Top shape: 24 (24)
I0403 18:33:54.678681 22806 net.cpp:148] Top shape: 24 (24)
I0403 18:33:54.678696 22806 net.cpp:148] Top shape: 24 (24)
I0403 18:33:54.678710 22806 net.cpp:148] Top shape: 24 (24)
I0403 18:33:54.678725 22806 net.cpp:148] Top shape: 24 (24)
I0403 18:33:54.678740 22806 net.cpp:148] Top shape: 24 (24)
I0403 18:33:54.678753 22806 net.cpp:148] Top shape: 24 (24)
I0403 18:33:54.678767 22806 net.cpp:148] Top shape: 24 (24)
I0403 18:33:54.678781 22806 net.cpp:148] Top shape: 24 (24)
I0403 18:33:54.678822 22806 net.cpp:156] Memory required for data: 14451744
I0403 18:33:54.678836 22806 layer_factory.hpp:77] Creating layer conv1/7x7_s2
I0403 18:33:54.678866 22806 net.cpp:91] Creating Layer conv1/7x7_s2
I0403 18:33:54.678884 22806 net.cpp:425] conv1/7x7_s2 <- data
I0403 18:33:54.678901 22806 net.cpp:399] conv1/7x7_s2 -> conv1/7x7_s2
I0403 18:33:54.819128 22806 net.cpp:141] Setting up conv1/7x7_s2
I0403 18:33:54.819203 22806 net.cpp:148] Top shape: 24 64 112 112 (19267584)
I0403 18:33:54.819221 22806 net.cpp:156] Memory required for data: 91522080
I0403 18:33:54.819248 22806 layer_factory.hpp:77] Creating layer conv1/relu_7x7
I0403 18:33:54.819274 22806 net.cpp:91] Creating Layer conv1/relu_7x7
I0403 18:33:54.819293 22806 net.cpp:425] conv1/relu_7x7 <- conv1/7x7_s2
I0403 18:33:54.819311 22806 net.cpp:386] conv1/relu_7x7 -> conv1/7x7_s2 (in-place)
I0403 18:33:54.819562 22806 net.cpp:141] Setting up conv1/relu_7x7
I0403 18:33:54.819587 22806 net.cpp:148] Top shape: 24 64 112 112 (19267584)
I0403 18:33:54.819602 22806 net.cpp:156] Memory required for data: 168592416
I0403 18:33:54.819617 22806 layer_factory.hpp:77] Creating layer pool1/3x3_s2
I0403 18:33:54.819639 22806 net.cpp:91] Creating Layer pool1/3x3_s2
I0403 18:33:54.819656 22806 net.cpp:425] pool1/3x3_s2 <- conv1/7x7_s2
I0403 18:33:54.819675 22806 net.cpp:399] pool1/3x3_s2 -> pool1/3x3_s2
I0403 18:33:54.819746 22806 net.cpp:141] Setting up pool1/3x3_s2
I0403 18:33:54.819768 22806 net.cpp:148] Top shape: 24 64 56 56 (4816896)
I0403 18:33:54.819782 22806 net.cpp:156] Memory required for data: 187860000
I0403 18:33:54.819795 22806 layer_factory.hpp:77] Creating layer pool1/norm1
I0403 18:33:54.819818 22806 net.cpp:91] Creating Layer pool1/norm1
I0403 18:33:54.819834 22806 net.cpp:425] pool1/norm1 <- pool1/3x3_s2
I0403 18:33:54.819851 22806 net.cpp:399] pool1/norm1 -> pool1/norm1
I0403 18:33:54.820128 22806 net.cpp:141] Setting up pool1/norm1
I0403 18:33:54.820153 22806 net.cpp:148] Top shape: 24 64 56 56 (4816896)
I0403 18:33:54.820168 22806 net.cpp:156] Memory required for data: 207127584
I0403 18:33:54.820183 22806 layer_factory.hpp:77] Creating layer conv2/3x3_reduce
I0403 18:33:54.820205 22806 net.cpp:91] Creating Layer conv2/3x3_reduce
I0403 18:33:54.820221 22806 net.cpp:425] conv2/3x3_reduce <- pool1/norm1
I0403 18:33:54.820240 22806 net.cpp:399] conv2/3x3_reduce -> conv2/3x3_reduce
I0403 18:33:54.821578 22806 net.cpp:141] Setting up conv2/3x3_reduce
I0403 18:33:54.821609 22806 net.cpp:148] Top shape: 24 64 56 56 (4816896)
I0403 18:33:54.821624 22806 net.cpp:156] Memory required for data: 226395168
I0403 18:33:54.821643 22806 layer_factory.hpp:77] Creating layer conv2/relu_3x3_reduce
I0403 18:33:54.821661 22806 net.cpp:91] Creating Layer conv2/relu_3x3_reduce
I0403 18:33:54.821676 22806 net.cpp:425] conv2/relu_3x3_reduce <- conv2/3x3_reduce
I0403 18:33:54.821694 22806 net.cpp:386] conv2/relu_3x3_reduce -> conv2/3x3_reduce (in-place)
I0403 18:33:54.821954 22806 net.cpp:141] Setting up conv2/relu_3x3_reduce
I0403 18:33:54.821982 22806 net.cpp:148] Top shape: 24 64 56 56 (4816896)
I0403 18:33:54.821997 22806 net.cpp:156] Memory required for data: 245662752
I0403 18:33:54.822011 22806 layer_factory.hpp:77] Creating layer conv2/3x3
I0403 18:33:54.822033 22806 net.cpp:91] Creating Layer conv2/3x3
I0403 18:33:54.822051 22806 net.cpp:425] conv2/3x3 <- conv2/3x3_reduce
I0403 18:33:54.822070 22806 net.cpp:399] conv2/3x3 -> conv2/3x3
I0403 18:33:54.824280 22806 net.cpp:141] Setting up conv2/3x3
I0403 18:33:54.824316 22806 net.cpp:148] Top shape: 24 192 56 56 (14450688)
I0403 18:33:54.824332 22806 net.cpp:156] Memory required for data: 303465504
I0403 18:33:54.824352 22806 layer_factory.hpp:77] Creating layer conv2/relu_3x3
I0403 18:33:54.824370 22806 net.cpp:91] Creating Layer conv2/relu_3x3
I0403 18:33:54.824385 22806 net.cpp:425] conv2/relu_3x3 <- conv2/3x3
I0403 18:33:54.824404 22806 net.cpp:386] conv2/relu_3x3 -> conv2/3x3 (in-place)
I0403 18:33:54.824584 22806 net.cpp:141] Setting up conv2/relu_3x3
I0403 18:33:54.824609 22806 net.cpp:148] Top shape: 24 192 56 56 (14450688)
I0403 18:33:54.824661 22806 net.cpp:156] Memory required for data: 361268256
I0403 18:33:54.824676 22806 layer_factory.hpp:77] Creating layer conv2/norm2
I0403 18:33:54.824695 22806 net.cpp:91] Creating Layer conv2/norm2
I0403 18:33:54.824712 22806 net.cpp:425] conv2/norm2 <- conv2/3x3
I0403 18:33:54.824730 22806 net.cpp:399] conv2/norm2 -> conv2/norm2
I0403 18:33:54.825024 22806 net.cpp:141] Setting up conv2/norm2
I0403 18:33:54.825054 22806 net.cpp:148] Top shape: 24 192 56 56 (14450688)
I0403 18:33:54.825069 22806 net.cpp:156] Memory required for data: 419071008
I0403 18:33:54.825083 22806 layer_factory.hpp:77] Creating layer pool2/3x3_s2
I0403 18:33:54.825100 22806 net.cpp:91] Creating Layer pool2/3x3_s2
I0403 18:33:54.825115 22806 net.cpp:425] pool2/3x3_s2 <- conv2/norm2
I0403 18:33:54.825134 22806 net.cpp:399] pool2/3x3_s2 -> pool2/3x3_s2
I0403 18:33:54.825183 22806 net.cpp:141] Setting up pool2/3x3_s2
I0403 18:33:54.825206 22806 net.cpp:148] Top shape: 24 192 28 28 (3612672)
I0403 18:33:54.825220 22806 net.cpp:156] Memory required for data: 433521696
I0403 18:33:54.825234 22806 layer_factory.hpp:77] Creating layer pool2/3x3_s2_pool2/3x3_s2_0_split
I0403 18:33:54.825253 22806 net.cpp:91] Creating Layer pool2/3x3_s2_pool2/3x3_s2_0_split
I0403 18:33:54.825268 22806 net.cpp:425] pool2/3x3_s2_pool2/3x3_s2_0_split <- pool2/3x3_s2
I0403 18:33:54.825285 22806 net.cpp:399] pool2/3x3_s2_pool2/3x3_s2_0_split -> pool2/3x3_s2_pool2/3x3_s2_0_split_0
I0403 18:33:54.825305 22806 net.cpp:399] pool2/3x3_s2_pool2/3x3_s2_0_split -> pool2/3x3_s2_pool2/3x3_s2_0_split_1
I0403 18:33:54.825323 22806 net.cpp:399] pool2/3x3_s2_pool2/3x3_s2_0_split -> pool2/3x3_s2_pool2/3x3_s2_0_split_2
I0403 18:33:54.825342 22806 net.cpp:399] pool2/3x3_s2_pool2/3x3_s2_0_split -> pool2/3x3_s2_pool2/3x3_s2_0_split_3
I0403 18:33:54.825412 22806 net.cpp:141] Setting up pool2/3x3_s2_pool2/3x3_s2_0_split
I0403 18:33:54.825433 22806 net.cpp:148] Top shape: 24 192 28 28 (3612672)
I0403 18:33:54.825448 22806 net.cpp:148] Top shape: 24 192 28 28 (3612672)
I0403 18:33:54.825464 22806 net.cpp:148] Top shape: 24 192 28 28 (3612672)
I0403 18:33:54.825477 22806 net.cpp:148] Top shape: 24 192 28 28 (3612672)
I0403 18:33:54.825490 22806 net.cpp:156] Memory required for data: 491324448
I0403 18:33:54.825503 22806 layer_factory.hpp:77] Creating layer inception_3a/1x1
I0403 18:33:54.825525 22806 net.cpp:91] Creating Layer inception_3a/1x1
I0403 18:33:54.825546 22806 net.cpp:425] inception_3a/1x1 <- pool2/3x3_s2_pool2/3x3_s2_0_split_0
I0403 18:33:54.825568 22806 net.cpp:399] inception_3a/1x1 -> inception_3a/1x1
I0403 18:33:54.827049 22806 net.cpp:141] Setting up inception_3a/1x1
I0403 18:33:54.827078 22806 net.cpp:148] Top shape: 24 64 28 28 (1204224)
I0403 18:33:54.827095 22806 net.cpp:156] Memory required for data: 496141344
I0403 18:33:54.827112 22806 layer_factory.hpp:77] Creating layer inception_3a/relu_1x1
I0403 18:33:54.827129 22806 net.cpp:91] Creating Layer inception_3a/relu_1x1
I0403 18:33:54.827144 22806 net.cpp:425] inception_3a/relu_1x1 <- inception_3a/1x1
I0403 18:33:54.827163 22806 net.cpp:386] inception_3a/relu_1x1 -> inception_3a/1x1 (in-place)
I0403 18:33:54.827330 22806 net.cpp:141] Setting up inception_3a/relu_1x1
I0403 18:33:54.827355 22806 net.cpp:148] Top shape: 24 64 28 28 (1204224)
I0403 18:33:54.827368 22806 net.cpp:156] Memory required for data: 500958240
I0403 18:33:54.827383 22806 layer_factory.hpp:77] Creating layer inception_3a/3x3_reduce
I0403 18:33:54.827404 22806 net.cpp:91] Creating Layer inception_3a/3x3_reduce
I0403 18:33:54.827420 22806 net.cpp:425] inception_3a/3x3_reduce <- pool2/3x3_s2_pool2/3x3_s2_0_split_1
I0403 18:33:54.827440 22806 net.cpp:399] inception_3a/3x3_reduce -> inception_3a/3x3_reduce
I0403 18:33:54.829069 22806 net.cpp:141] Setting up inception_3a/3x3_reduce
I0403 18:33:54.829100 22806 net.cpp:148] Top shape: 24 96 28 28 (1806336)
I0403 18:33:54.829115 22806 net.cpp:156] Memory required for data: 508183584
I0403 18:33:54.829135 22806 layer_factory.hpp:77] Creating layer inception_3a/relu_3x3_reduce
I0403 18:33:54.829175 22806 net.cpp:91] Creating Layer inception_3a/relu_3x3_reduce
I0403 18:33:54.829192 22806 net.cpp:425] inception_3a/relu_3x3_reduce <- inception_3a/3x3_reduce
I0403 18:33:54.829208 22806 net.cpp:386] inception_3a/relu_3x3_reduce -> inception_3a/3x3_reduce (in-place)
I0403 18:33:54.829380 22806 net.cpp:141] Setting up inception_3a/relu_3x3_reduce
I0403 18:33:54.829406 22806 net.cpp:148] Top shape: 24 96 28 28 (1806336)
I0403 18:33:54.829421 22806 net.cpp:156] Memory required for data: 515408928
I0403 18:33:54.829434 22806 layer_factory.hpp:77] Creating layer inception_3a/3x3
I0403 18:33:54.829455 22806 net.cpp:91] Creating Layer inception_3a/3x3
I0403 18:33:54.829473 22806 net.cpp:425] inception_3a/3x3 <- inception_3a/3x3_reduce
I0403 18:33:54.829490 22806 net.cpp:399] inception_3a/3x3 -> inception_3a/3x3
I0403 18:33:54.831073 22806 net.cpp:141] Setting up inception_3a/3x3
I0403 18:33:54.831099 22806 net.cpp:148] Top shape: 24 128 28 28 (2408448)
I0403 18:33:54.831113 22806 net.cpp:156] Memory required for data: 525042720
I0403 18:33:54.831130 22806 layer_factory.hpp:77] Creating layer inception_3a/relu_3x3
I0403 18:33:54.831149 22806 net.cpp:91] Creating Layer inception_3a/relu_3x3
I0403 18:33:54.831164 22806 net.cpp:425] inception_3a/relu_3x3 <- inception_3a/3x3
I0403 18:33:54.831182 22806 net.cpp:386] inception_3a/relu_3x3 -> inception_3a/3x3 (in-place)
I0403 18:33:54.831441 22806 net.cpp:141] Setting up inception_3a/relu_3x3
I0403 18:33:54.831466 22806 net.cpp:148] Top shape: 24 128 28 28 (2408448)
I0403 18:33:54.831481 22806 net.cpp:156] Memory required for data: 534676512
I0403 18:33:54.831496 22806 layer_factory.hpp:77] Creating layer inception_3a/5x5_reduce
I0403 18:33:54.831516 22806 net.cpp:91] Creating Layer inception_3a/5x5_reduce
I0403 18:33:54.831532 22806 net.cpp:425] inception_3a/5x5_reduce <- pool2/3x3_s2_pool2/3x3_s2_0_split_2
I0403 18:33:54.831558 22806 net.cpp:399] inception_3a/5x5_reduce -> inception_3a/5x5_reduce
I0403 18:33:54.832473 22806 net.cpp:141] Setting up inception_3a/5x5_reduce
I0403 18:33:54.832499 22806 net.cpp:148] Top shape: 24 16 28 28 (301056)
I0403 18:33:54.832515 22806 net.cpp:156] Memory required for data: 535880736
I0403 18:33:54.832531 22806 layer_factory.hpp:77] Creating layer inception_3a/relu_5x5_reduce
I0403 18:33:54.832559 22806 net.cpp:91] Creating Layer inception_3a/relu_5x5_reduce
I0403 18:33:54.832576 22806 net.cpp:425] inception_3a/relu_5x5_reduce <- inception_3a/5x5_reduce
I0403 18:33:54.832593 22806 net.cpp:386] inception_3a/relu_5x5_reduce -> inception_3a/5x5_reduce (in-place)
I0403 18:33:54.832871 22806 net.cpp:141] Setting up inception_3a/relu_5x5_reduce
I0403 18:33:54.832896 22806 net.cpp:148] Top shape: 24 16 28 28 (301056)
I0403 18:33:54.832911 22806 net.cpp:156] Memory required for data: 537084960
I0403 18:33:54.832926 22806 layer_factory.hpp:77] Creating layer inception_3a/5x5
I0403 18:33:54.832947 22806 net.cpp:91] Creating Layer inception_3a/5x5
I0403 18:33:54.832962 22806 net.cpp:425] inception_3a/5x5 <- inception_3a/5x5_reduce
I0403 18:33:54.832983 22806 net.cpp:399] inception_3a/5x5 -> inception_3a/5x5
I0403 18:33:54.833971 22806 net.cpp:141] Setting up inception_3a/5x5
I0403 18:33:54.833997 22806 net.cpp:148] Top shape: 24 32 28 28 (602112)
I0403 18:33:54.834012 22806 net.cpp:156] Memory required for data: 539493408
I0403 18:33:54.834028 22806 layer_factory.hpp:77] Creating layer inception_3a/relu_5x5
I0403 18:33:54.834045 22806 net.cpp:91] Creating Layer inception_3a/relu_5x5
I0403 18:33:54.834060 22806 net.cpp:425] inception_3a/relu_5x5 <- inception_3a/5x5
I0403 18:33:54.834079 22806 net.cpp:386] inception_3a/relu_5x5 -> inception_3a/5x5 (in-place)
I0403 18:33:54.834244 22806 net.cpp:141] Setting up inception_3a/relu_5x5
I0403 18:33:54.834267 22806 net.cpp:148] Top shape: 24 32 28 28 (602112)
I0403 18:33:54.834281 22806 net.cpp:156] Memory required for data: 541901856
I0403 18:33:54.834296 22806 layer_factory.hpp:77] Creating layer inception_3a/pool
I0403 18:33:54.834316 22806 net.cpp:91] Creating Layer inception_3a/pool
I0403 18:33:54.834345 22806 net.cpp:425] inception_3a/pool <- pool2/3x3_s2_pool2/3x3_s2_0_split_3
I0403 18:33:54.834363 22806 net.cpp:399] inception_3a/pool -> inception_3a/pool
I0403 18:33:54.834419 22806 net.cpp:141] Setting up inception_3a/pool
I0403 18:33:54.834441 22806 net.cpp:148] Top shape: 24 192 28 28 (3612672)
I0403 18:33:54.834455 22806 net.cpp:156] Memory required for data: 556352544
I0403 18:33:54.834468 22806 layer_factory.hpp:77] Creating layer inception_3a/pool_proj
I0403 18:33:54.834489 22806 net.cpp:91] Creating Layer inception_3a/pool_proj
I0403 18:33:54.834506 22806 net.cpp:425] inception_3a/pool_proj <- inception_3a/pool
I0403 18:33:54.834527 22806 net.cpp:399] inception_3a/pool_proj -> inception_3a/pool_proj
I0403 18:33:54.835464 22806 net.cpp:141] Setting up inception_3a/pool_proj
I0403 18:33:54.835494 22806 net.cpp:148] Top shape: 24 32 28 28 (602112)
I0403 18:33:54.835508 22806 net.cpp:156] Memory required for data: 558760992
I0403 18:33:54.835528 22806 layer_factory.hpp:77] Creating layer inception_3a/relu_pool_proj
I0403 18:33:54.835556 22806 net.cpp:91] Creating Layer inception_3a/relu_pool_proj
I0403 18:33:54.835574 22806 net.cpp:425] inception_3a/relu_pool_proj <- inception_3a/pool_proj
I0403 18:33:54.835592 22806 net.cpp:386] inception_3a/relu_pool_proj -> inception_3a/pool_proj (in-place)
I0403 18:33:54.835858 22806 net.cpp:141] Setting up inception_3a/relu_pool_proj
I0403 18:33:54.835883 22806 net.cpp:148] Top shape: 24 32 28 28 (602112)
I0403 18:33:54.835898 22806 net.cpp:156] Memory required for data: 561169440
I0403 18:33:54.835912 22806 layer_factory.hpp:77] Creating layer inception_3a/output
I0403 18:33:54.835929 22806 net.cpp:91] Creating Layer inception_3a/output
I0403 18:33:54.835943 22806 net.cpp:425] inception_3a/output <- inception_3a/1x1
I0403 18:33:54.835959 22806 net.cpp:425] inception_3a/output <- inception_3a/3x3
I0403 18:33:54.835974 22806 net.cpp:425] inception_3a/output <- inception_3a/5x5
I0403 18:33:54.835989 22806 net.cpp:425] inception_3a/output <- inception_3a/pool_proj
I0403 18:33:54.836007 22806 net.cpp:399] inception_3a/output -> inception_3a/output
I0403 18:33:54.836051 22806 net.cpp:141] Setting up inception_3a/output
I0403 18:33:54.836076 22806 net.cpp:148] Top shape: 24 256 28 28 (4816896)
I0403 18:33:54.836091 22806 net.cpp:156] Memory required for data: 580437024
I0403 18:33:54.836105 22806 layer_factory.hpp:77] Creating layer inception_3a/output_inception_3a/output_0_split
I0403 18:33:54.836122 22806 net.cpp:91] Creating Layer inception_3a/output_inception_3a/output_0_split
I0403 18:33:54.836136 22806 net.cpp:425] inception_3a/output_inception_3a/output_0_split <- inception_3a/output
I0403 18:33:54.836153 22806 net.cpp:399] inception_3a/output_inception_3a/output_0_split -> inception_3a/output_inception_3a/output_0_split_0
I0403 18:33:54.836171 22806 net.cpp:399] inception_3a/output_inception_3a/output_0_split -> inception_3a/output_inception_3a/output_0_split_1
I0403 18:33:54.836195 22806 net.cpp:399] inception_3a/output_inception_3a/output_0_split -> inception_3a/output_inception_3a/output_0_split_2
I0403 18:33:54.836216 22806 net.cpp:399] inception_3a/output_inception_3a/output_0_split -> inception_3a/output_inception_3a/output_0_split_3
I0403 18:33:54.836289 22806 net.cpp:141] Setting up inception_3a/output_inception_3a/output_0_split
I0403 18:33:54.836313 22806 net.cpp:148] Top shape: 24 256 28 28 (4816896)
I0403 18:33:54.836329 22806 net.cpp:148] Top shape: 24 256 28 28 (4816896)
I0403 18:33:54.836344 22806 net.cpp:148] Top shape: 24 256 28 28 (4816896)
I0403 18:33:54.836359 22806 net.cpp:148] Top shape: 24 256 28 28 (4816896)
I0403 18:33:54.836372 22806 net.cpp:156] Memory required for data: 657507360
I0403 18:33:54.836385 22806 layer_factory.hpp:77] Creating layer inception_3b/1x1
I0403 18:33:54.836406 22806 net.cpp:91] Creating Layer inception_3b/1x1
I0403 18:33:54.836422 22806 net.cpp:425] inception_3b/1x1 <- inception_3a/output_inception_3a/output_0_split_0
I0403 18:33:54.836441 22806 net.cpp:399] inception_3b/1x1 -> inception_3b/1x1
I0403 18:33:54.837540 22806 net.cpp:141] Setting up inception_3b/1x1
I0403 18:33:54.837581 22806 net.cpp:148] Top shape: 24 128 28 28 (2408448)
I0403 18:33:54.837597 22806 net.cpp:156] Memory required for data: 667141152
I0403 18:33:54.837615 22806 layer_factory.hpp:77] Creating layer inception_3b/relu_1x1
I0403 18:33:54.837632 22806 net.cpp:91] Creating Layer inception_3b/relu_1x1
I0403 18:33:54.837647 22806 net.cpp:425] inception_3b/relu_1x1 <- inception_3b/1x1
I0403 18:33:54.837666 22806 net.cpp:386] inception_3b/relu_1x1 -> inception_3b/1x1 (in-place)
I0403 18:33:54.837831 22806 net.cpp:141] Setting up inception_3b/relu_1x1
I0403 18:33:54.837854 22806 net.cpp:148] Top shape: 24 128 28 28 (2408448)
I0403 18:33:54.837868 22806 net.cpp:156] Memory required for data: 676774944
I0403 18:33:54.837882 22806 layer_factory.hpp:77] Creating layer inception_3b/3x3_reduce
I0403 18:33:54.837903 22806 net.cpp:91] Creating Layer inception_3b/3x3_reduce
I0403 18:33:54.837920 22806 net.cpp:425] inception_3b/3x3_reduce <- inception_3a/output_inception_3a/output_0_split_1
I0403 18:33:54.837940 22806 net.cpp:399] inception_3b/3x3_reduce -> inception_3b/3x3_reduce
I0403 18:33:54.839028 22806 net.cpp:141] Setting up inception_3b/3x3_reduce
I0403 18:33:54.839061 22806 net.cpp:148] Top shape: 24 128 28 28 (2408448)
I0403 18:33:54.839077 22806 net.cpp:156] Memory required for data: 686408736
I0403 18:33:54.839094 22806 layer_factory.hpp:77] Creating layer inception_3b/relu_3x3_reduce
I0403 18:33:54.839112 22806 net.cpp:91] Creating Layer inception_3b/relu_3x3_reduce
I0403 18:33:54.839128 22806 net.cpp:425] inception_3b/relu_3x3_reduce <- inception_3b/3x3_reduce
I0403 18:33:54.839144 22806 net.cpp:386] inception_3b/relu_3x3_reduce -> inception_3b/3x3_reduce (in-place)
I0403 18:33:54.839311 22806 net.cpp:141] Setting up inception_3b/relu_3x3_reduce
I0403 18:33:54.839335 22806 net.cpp:148] Top shape: 24 128 28 28 (2408448)
I0403 18:33:54.839349 22806 net.cpp:156] Memory required for data: 696042528
I0403 18:33:54.839364 22806 layer_factory.hpp:77] Creating layer inception_3b/3x3
I0403 18:33:54.839386 22806 net.cpp:91] Creating Layer inception_3b/3x3
I0403 18:33:54.839402 22806 net.cpp:425] inception_3b/3x3 <- inception_3b/3x3_reduce
I0403 18:33:54.839423 22806 net.cpp:399] inception_3b/3x3 -> inception_3b/3x3
I0403 18:33:54.842227 22806 net.cpp:141] Setting up inception_3b/3x3
I0403 18:33:54.842255 22806 net.cpp:148] Top shape: 24 192 28 28 (3612672)
I0403 18:33:54.842270 22806 net.cpp:156] Memory required for data: 710493216
I0403 18:33:54.842288 22806 layer_factory.hpp:77] Creating layer inception_3b/relu_3x3
I0403 18:33:54.842305 22806 net.cpp:91] Creating Layer inception_3b/relu_3x3
I0403 18:33:54.842320 22806 net.cpp:425] inception_3b/relu_3x3 <- inception_3b/3x3
I0403 18:33:54.842339 22806 net.cpp:386] inception_3b/relu_3x3 -> inception_3b/3x3 (in-place)
I0403 18:33:54.842608 22806 net.cpp:141] Setting up inception_3b/relu_3x3
I0403 18:33:54.842633 22806 net.cpp:148] Top shape: 24 192 28 28 (3612672)
I0403 18:33:54.842648 22806 net.cpp:156] Memory required for data: 724943904
I0403 18:33:54.842663 22806 layer_factory.hpp:77] Creating layer inception_3b/5x5_reduce
I0403 18:33:54.842684 22806 net.cpp:91] Creating Layer inception_3b/5x5_reduce
I0403 18:33:54.842700 22806 net.cpp:425] inception_3b/5x5_reduce <- inception_3a/output_inception_3a/output_0_split_2
I0403 18:33:54.842721 22806 net.cpp:399] inception_3b/5x5_reduce -> inception_3b/5x5_reduce
I0403 18:33:54.843669 22806 net.cpp:141] Setting up inception_3b/5x5_reduce
I0403 18:33:54.843696 22806 net.cpp:148] Top shape: 24 32 28 28 (602112)
I0403 18:33:54.843711 22806 net.cpp:156] Memory required for data: 727352352
I0403 18:33:54.843729 22806 layer_factory.hpp:77] Creating layer inception_3b/relu_5x5_reduce
I0403 18:33:54.843746 22806 net.cpp:91] Creating Layer inception_3b/relu_5x5_reduce
I0403 18:33:54.843762 22806 net.cpp:425] inception_3b/relu_5x5_reduce <- inception_3b/5x5_reduce
I0403 18:33:54.843780 22806 net.cpp:386] inception_3b/relu_5x5_reduce -> inception_3b/5x5_reduce (in-place)
I0403 18:33:54.843961 22806 net.cpp:141] Setting up inception_3b/relu_5x5_reduce
I0403 18:33:54.843986 22806 net.cpp:148] Top shape: 24 32 28 28 (602112)
I0403 18:33:54.843999 22806 net.cpp:156] Memory required for data: 729760800
I0403 18:33:54.844013 22806 layer_factory.hpp:77] Creating layer inception_3b/5x5
I0403 18:33:54.844035 22806 net.cpp:91] Creating Layer inception_3b/5x5
I0403 18:33:54.844051 22806 net.cpp:425] inception_3b/5x5 <- inception_3b/5x5_reduce
I0403 18:33:54.844071 22806 net.cpp:399] inception_3b/5x5 -> inception_3b/5x5
I0403 18:33:54.846026 22806 net.cpp:141] Setting up inception_3b/5x5
I0403 18:33:54.846057 22806 net.cpp:148] Top shape: 24 96 28 28 (1806336)
I0403 18:33:54.846072 22806 net.cpp:156] Memory required for data: 736986144
I0403 18:33:54.846091 22806 layer_factory.hpp:77] Creating layer inception_3b/relu_5x5
I0403 18:33:54.846107 22806 net.cpp:91] Creating Layer inception_3b/relu_5x5
I0403 18:33:54.846122 22806 net.cpp:425] inception_3b/relu_5x5 <- inception_3b/5x5
I0403 18:33:54.846138 22806 net.cpp:386] inception_3b/relu_5x5 -> inception_3b/5x5 (in-place)
I0403 18:33:54.846326 22806 net.cpp:141] Setting up inception_3b/relu_5x5
I0403 18:33:54.846350 22806 net.cpp:148] Top shape: 24 96 28 28 (1806336)
I0403 18:33:54.846364 22806 net.cpp:156] Memory required for data: 744211488
I0403 18:33:54.846379 22806 layer_factory.hpp:77] Creating layer inception_3b/pool
I0403 18:33:54.846395 22806 net.cpp:91] Creating Layer inception_3b/pool
I0403 18:33:54.846410 22806 net.cpp:425] inception_3b/pool <- inception_3a/output_inception_3a/output_0_split_3
I0403 18:33:54.846427 22806 net.cpp:399] inception_3b/pool -> inception_3b/pool
I0403 18:33:54.846480 22806 net.cpp:141] Setting up inception_3b/pool
I0403 18:33:54.846504 22806 net.cpp:148] Top shape: 24 256 28 28 (4816896)
I0403 18:33:54.846519 22806 net.cpp:156] Memory required for data: 763479072
I0403 18:33:54.846532 22806 layer_factory.hpp:77] Creating layer inception_3b/pool_proj
I0403 18:33:54.846559 22806 net.cpp:91] Creating Layer inception_3b/pool_proj
I0403 18:33:54.846576 22806 net.cpp:425] inception_3b/pool_proj <- inception_3b/pool
I0403 18:33:54.846595 22806 net.cpp:399] inception_3b/pool_proj -> inception_3b/pool_proj
I0403 18:33:54.847602 22806 net.cpp:141] Setting up inception_3b/pool_proj
I0403 18:33:54.847628 22806 net.cpp:148] Top shape: 24 64 28 28 (1204224)
I0403 18:33:54.847642 22806 net.cpp:156] Memory required for data: 768295968
I0403 18:33:54.847661 22806 layer_factory.hpp:77] Creating layer inception_3b/relu_pool_proj
I0403 18:33:54.847679 22806 net.cpp:91] Creating Layer inception_3b/relu_pool_proj
I0403 18:33:54.847697 22806 net.cpp:425] inception_3b/relu_pool_proj <- inception_3b/pool_proj
I0403 18:33:54.847712 22806 net.cpp:386] inception_3b/relu_pool_proj -> inception_3b/pool_proj (in-place)
I0403 18:33:54.848088 22806 net.cpp:141] Setting up inception_3b/relu_pool_proj
I0403 18:33:54.848112 22806 net.cpp:148] Top shape: 24 64 28 28 (1204224)
I0403 18:33:54.848127 22806 net.cpp:156] Memory required for data: 773112864
I0403 18:33:54.848142 22806 layer_factory.hpp:77] Creating layer inception_3b/output
I0403 18:33:54.848158 22806 net.cpp:91] Creating Layer inception_3b/output
I0403 18:33:54.848173 22806 net.cpp:425] inception_3b/output <- inception_3b/1x1
I0403 18:33:54.848189 22806 net.cpp:425] inception_3b/output <- inception_3b/3x3
I0403 18:33:54.848206 22806 net.cpp:425] inception_3b/output <- inception_3b/5x5
I0403 18:33:54.848220 22806 net.cpp:425] inception_3b/output <- inception_3b/pool_proj
I0403 18:33:54.848239 22806 net.cpp:399] inception_3b/output -> inception_3b/output
I0403 18:33:54.848284 22806 net.cpp:141] Setting up inception_3b/output
I0403 18:33:54.848305 22806 net.cpp:148] Top shape: 24 480 28 28 (9031680)
I0403 18:33:54.848320 22806 net.cpp:156] Memory required for data: 809239584
I0403 18:33:54.848332 22806 layer_factory.hpp:77] Creating layer pool3/3x3_s2
I0403 18:33:54.848348 22806 net.cpp:91] Creating Layer pool3/3x3_s2
I0403 18:33:54.848363 22806 net.cpp:425] pool3/3x3_s2 <- inception_3b/output
I0403 18:33:54.848400 22806 net.cpp:399] pool3/3x3_s2 -> pool3/3x3_s2
I0403 18:33:54.848456 22806 net.cpp:141] Setting up pool3/3x3_s2
I0403 18:33:54.848479 22806 net.cpp:148] Top shape: 24 480 14 14 (2257920)
I0403 18:33:54.848491 22806 net.cpp:156] Memory required for data: 818271264
I0403 18:33:54.848505 22806 layer_factory.hpp:77] Creating layer pool3/3x3_s2_pool3/3x3_s2_0_split
I0403 18:33:54.848522 22806 net.cpp:91] Creating Layer pool3/3x3_s2_pool3/3x3_s2_0_split
I0403 18:33:54.848541 22806 net.cpp:425] pool3/3x3_s2_pool3/3x3_s2_0_split <- pool3/3x3_s2
I0403 18:33:54.848559 22806 net.cpp:399] pool3/3x3_s2_pool3/3x3_s2_0_split -> pool3/3x3_s2_pool3/3x3_s2_0_split_0
I0403 18:33:54.848578 22806 net.cpp:399] pool3/3x3_s2_pool3/3x3_s2_0_split -> pool3/3x3_s2_pool3/3x3_s2_0_split_1
I0403 18:33:54.848600 22806 net.cpp:399] pool3/3x3_s2_pool3/3x3_s2_0_split -> pool3/3x3_s2_pool3/3x3_s2_0_split_2
I0403 18:33:54.848619 22806 net.cpp:399] pool3/3x3_s2_pool3/3x3_s2_0_split -> pool3/3x3_s2_pool3/3x3_s2_0_split_3
I0403 18:33:54.848691 22806 net.cpp:141] Setting up pool3/3x3_s2_pool3/3x3_s2_0_split
I0403 18:33:54.848713 22806 net.cpp:148] Top shape: 24 480 14 14 (2257920)
I0403 18:33:54.848728 22806 net.cpp:148] Top shape: 24 480 14 14 (2257920)
I0403 18:33:54.848743 22806 net.cpp:148] Top shape: 24 480 14 14 (2257920)
I0403 18:33:54.848757 22806 net.cpp:148] Top shape: 24 480 14 14 (2257920)
I0403 18:33:54.848770 22806 net.cpp:156] Memory required for data: 854397984
I0403 18:33:54.848783 22806 layer_factory.hpp:77] Creating layer inception_4a/1x1
I0403 18:33:54.848804 22806 net.cpp:91] Creating Layer inception_4a/1x1
I0403 18:33:54.848822 22806 net.cpp:425] inception_4a/1x1 <- pool3/3x3_s2_pool3/3x3_s2_0_split_0
I0403 18:33:54.848842 22806 net.cpp:399] inception_4a/1x1 -> inception_4a/1x1
I0403 18:33:54.850379 22806 net.cpp:141] Setting up inception_4a/1x1
I0403 18:33:54.850405 22806 net.cpp:148] Top shape: 24 192 14 14 (903168)
I0403 18:33:54.850420 22806 net.cpp:156] Memory required for data: 858010656
I0403 18:33:54.850438 22806 layer_factory.hpp:77] Creating layer inception_4a/relu_1x1
I0403 18:33:54.850457 22806 net.cpp:91] Creating Layer inception_4a/relu_1x1
I0403 18:33:54.850473 22806 net.cpp:425] inception_4a/relu_1x1 <- inception_4a/1x1
I0403 18:33:54.850491 22806 net.cpp:386] inception_4a/relu_1x1 -> inception_4a/1x1 (in-place)
I0403 18:33:54.850663 22806 net.cpp:141] Setting up inception_4a/relu_1x1
I0403 18:33:54.850689 22806 net.cpp:148] Top shape: 24 192 14 14 (903168)
I0403 18:33:54.850704 22806 net.cpp:156] Memory required for data: 861623328
I0403 18:33:54.850718 22806 layer_factory.hpp:77] Creating layer inception_4a/3x3_reduce
I0403 18:33:54.850739 22806 net.cpp:91] Creating Layer inception_4a/3x3_reduce
I0403 18:33:54.850755 22806 net.cpp:425] inception_4a/3x3_reduce <- pool3/3x3_s2_pool3/3x3_s2_0_split_1
I0403 18:33:54.850772 22806 net.cpp:399] inception_4a/3x3_reduce -> inception_4a/3x3_reduce
I0403 18:33:54.852004 22806 net.cpp:141] Setting up inception_4a/3x3_reduce
I0403 18:33:54.852030 22806 net.cpp:148] Top shape: 24 96 14 14 (451584)
I0403 18:33:54.852043 22806 net.cpp:156] Memory required for data: 863429664
I0403 18:33:54.852067 22806 layer_factory.hpp:77] Creating layer inception_4a/relu_3x3_reduce
I0403 18:33:54.852088 22806 net.cpp:91] Creating Layer inception_4a/relu_3x3_reduce
I0403 18:33:54.852104 22806 net.cpp:425] inception_4a/relu_3x3_reduce <- inception_4a/3x3_reduce
I0403 18:33:54.852120 22806 net.cpp:386] inception_4a/relu_3x3_reduce -> inception_4a/3x3_reduce (in-place)
I0403 18:33:54.852289 22806 net.cpp:141] Setting up inception_4a/relu_3x3_reduce
I0403 18:33:54.852319 22806 net.cpp:148] Top shape: 24 96 14 14 (451584)
I0403 18:33:54.852334 22806 net.cpp:156] Memory required for data: 865236000
I0403 18:33:54.852347 22806 layer_factory.hpp:77] Creating layer inception_4a/3x3
I0403 18:33:54.852368 22806 net.cpp:91] Creating Layer inception_4a/3x3
I0403 18:33:54.852385 22806 net.cpp:425] inception_4a/3x3 <- inception_4a/3x3_reduce
I0403 18:33:54.852403 22806 net.cpp:399] inception_4a/3x3 -> inception_4a/3x3
I0403 18:33:54.855007 22806 net.cpp:141] Setting up inception_4a/3x3
I0403 18:33:54.855036 22806 net.cpp:148] Top shape: 24 208 14 14 (978432)
I0403 18:33:54.855052 22806 net.cpp:156] Memory required for data: 869149728
I0403 18:33:54.855069 22806 layer_factory.hpp:77] Creating layer inception_4a/relu_3x3
I0403 18:33:54.855087 22806 net.cpp:91] Creating Layer inception_4a/relu_3x3
I0403 18:33:54.855103 22806 net.cpp:425] inception_4a/relu_3x3 <- inception_4a/3x3
I0403 18:33:54.855118 22806 net.cpp:386] inception_4a/relu_3x3 -> inception_4a/3x3 (in-place)
I0403 18:33:54.855386 22806 net.cpp:141] Setting up inception_4a/relu_3x3
I0403 18:33:54.855413 22806 net.cpp:148] Top shape: 24 208 14 14 (978432)
I0403 18:33:54.855429 22806 net.cpp:156] Memory required for data: 873063456
I0403 18:33:54.855443 22806 layer_factory.hpp:77] Creating layer inception_4a/5x5_reduce
I0403 18:33:54.855465 22806 net.cpp:91] Creating Layer inception_4a/5x5_reduce
I0403 18:33:54.855481 22806 net.cpp:425] inception_4a/5x5_reduce <- pool3/3x3_s2_pool3/3x3_s2_0_split_2
I0403 18:33:54.855499 22806 net.cpp:399] inception_4a/5x5_reduce -> inception_4a/5x5_reduce
I0403 18:33:54.856485 22806 net.cpp:141] Setting up inception_4a/5x5_reduce
I0403 18:33:54.856513 22806 net.cpp:148] Top shape: 24 16 14 14 (75264)
I0403 18:33:54.856528 22806 net.cpp:156] Memory required for data: 873364512
I0403 18:33:54.856550 22806 layer_factory.hpp:77] Creating layer inception_4a/relu_5x5_reduce
I0403 18:33:54.856570 22806 net.cpp:91] Creating Layer inception_4a/relu_5x5_reduce
I0403 18:33:54.856585 22806 net.cpp:425] inception_4a/relu_5x5_reduce <- inception_4a/5x5_reduce
I0403 18:33:54.856602 22806 net.cpp:386] inception_4a/relu_5x5_reduce -> inception_4a/5x5_reduce (in-place)
I0403 18:33:54.856776 22806 net.cpp:141] Setting up inception_4a/relu_5x5_reduce
I0403 18:33:54.856801 22806 net.cpp:148] Top shape: 24 16 14 14 (75264)
I0403 18:33:54.856814 22806 net.cpp:156] Memory required for data: 873665568
I0403 18:33:54.856828 22806 layer_factory.hpp:77] Creating layer inception_4a/5x5
I0403 18:33:54.856848 22806 net.cpp:91] Creating Layer inception_4a/5x5
I0403 18:33:54.856865 22806 net.cpp:425] inception_4a/5x5 <- inception_4a/5x5_reduce
I0403 18:33:54.856886 22806 net.cpp:399] inception_4a/5x5 -> inception_4a/5x5
I0403 18:33:54.857933 22806 net.cpp:141] Setting up inception_4a/5x5
I0403 18:33:54.857959 22806 net.cpp:148] Top shape: 24 48 14 14 (225792)
I0403 18:33:54.857974 22806 net.cpp:156] Memory required for data: 874568736
I0403 18:33:54.857990 22806 layer_factory.hpp:77] Creating layer inception_4a/relu_5x5
I0403 18:33:54.858009 22806 net.cpp:91] Creating Layer inception_4a/relu_5x5
I0403 18:33:54.858026 22806 net.cpp:425] inception_4a/relu_5x5 <- inception_4a/5x5
I0403 18:33:54.858042 22806 net.cpp:386] inception_4a/relu_5x5 -> inception_4a/5x5 (in-place)
I0403 18:33:54.858212 22806 net.cpp:141] Setting up inception_4a/relu_5x5
I0403 18:33:54.858239 22806 net.cpp:148] Top shape: 24 48 14 14 (225792)
I0403 18:33:54.858254 22806 net.cpp:156] Memory required for data: 875471904
I0403 18:33:54.858268 22806 layer_factory.hpp:77] Creating layer inception_4a/pool
I0403 18:33:54.858285 22806 net.cpp:91] Creating Layer inception_4a/pool
I0403 18:33:54.858301 22806 net.cpp:425] inception_4a/pool <- pool3/3x3_s2_pool3/3x3_s2_0_split_3
I0403 18:33:54.858319 22806 net.cpp:399] inception_4a/pool -> inception_4a/pool
I0403 18:33:54.858378 22806 net.cpp:141] Setting up inception_4a/pool
I0403 18:33:54.858400 22806 net.cpp:148] Top shape: 24 480 14 14 (2257920)
I0403 18:33:54.858414 22806 net.cpp:156] Memory required for data: 884503584
I0403 18:33:54.858428 22806 layer_factory.hpp:77] Creating layer inception_4a/pool_proj
I0403 18:33:54.858449 22806 net.cpp:91] Creating Layer inception_4a/pool_proj
I0403 18:33:54.858466 22806 net.cpp:425] inception_4a/pool_proj <- inception_4a/pool
I0403 18:33:54.858486 22806 net.cpp:399] inception_4a/pool_proj -> inception_4a/pool_proj
I0403 18:33:54.859609 22806 net.cpp:141] Setting up inception_4a/pool_proj
I0403 18:33:54.859637 22806 net.cpp:148] Top shape: 24 64 14 14 (301056)
I0403 18:33:54.859665 22806 net.cpp:156] Memory required for data: 885707808
I0403 18:33:54.859683 22806 layer_factory.hpp:77] Creating layer inception_4a/relu_pool_proj
I0403 18:33:54.859704 22806 net.cpp:91] Creating Layer inception_4a/relu_pool_proj
I0403 18:33:54.859721 22806 net.cpp:425] inception_4a/relu_pool_proj <- inception_4a/pool_proj
I0403 18:33:54.859738 22806 net.cpp:386] inception_4a/relu_pool_proj -> inception_4a/pool_proj (in-place)
I0403 18:33:54.860008 22806 net.cpp:141] Setting up inception_4a/relu_pool_proj
I0403 18:33:54.860034 22806 net.cpp:148] Top shape: 24 64 14 14 (301056)
I0403 18:33:54.860049 22806 net.cpp:156] Memory required for data: 886912032
I0403 18:33:54.860062 22806 layer_factory.hpp:77] Creating layer inception_4a/output
I0403 18:33:54.860081 22806 net.cpp:91] Creating Layer inception_4a/output
I0403 18:33:54.860096 22806 net.cpp:425] inception_4a/output <- inception_4a/1x1
I0403 18:33:54.860112 22806 net.cpp:425] inception_4a/output <- inception_4a/3x3
I0403 18:33:54.860128 22806 net.cpp:425] inception_4a/output <- inception_4a/5x5
I0403 18:33:54.860143 22806 net.cpp:425] inception_4a/output <- inception_4a/pool_proj
I0403 18:33:54.860159 22806 net.cpp:399] inception_4a/output -> inception_4a/output
I0403 18:33:54.860203 22806 net.cpp:141] Setting up inception_4a/output
I0403 18:33:54.860226 22806 net.cpp:148] Top shape: 24 512 14 14 (2408448)
I0403 18:33:54.860240 22806 net.cpp:156] Memory required for data: 896545824
I0403 18:33:54.860254 22806 layer_factory.hpp:77] Creating layer inception_4a/output_inception_4a/output_0_split
I0403 18:33:54.860271 22806 net.cpp:91] Creating Layer inception_4a/output_inception_4a/output_0_split
I0403 18:33:54.860286 22806 net.cpp:425] inception_4a/output_inception_4a/output_0_split <- inception_4a/output
I0403 18:33:54.860306 22806 net.cpp:399] inception_4a/output_inception_4a/output_0_split -> inception_4a/output_inception_4a/output_0_split_0
I0403 18:33:54.860326 22806 net.cpp:399] inception_4a/output_inception_4a/output_0_split -> inception_4a/output_inception_4a/output_0_split_1
I0403 18:33:54.860344 22806 net.cpp:399] inception_4a/output_inception_4a/output_0_split -> inception_4a/output_inception_4a/output_0_split_2
I0403 18:33:54.860364 22806 net.cpp:399] inception_4a/output_inception_4a/output_0_split -> inception_4a/output_inception_4a/output_0_split_3
I0403 18:33:54.860383 22806 net.cpp:399] inception_4a/output_inception_4a/output_0_split -> inception_4a/output_inception_4a/output_0_split_4
I0403 18:33:54.860473 22806 net.cpp:141] Setting up inception_4a/output_inception_4a/output_0_split
I0403 18:33:54.860496 22806 net.cpp:148] Top shape: 24 512 14 14 (2408448)
I0403 18:33:54.860512 22806 net.cpp:148] Top shape: 24 512 14 14 (2408448)
I0403 18:33:54.860527 22806 net.cpp:148] Top shape: 24 512 14 14 (2408448)
I0403 18:33:54.860558 22806 net.cpp:148] Top shape: 24 512 14 14 (2408448)
I0403 18:33:54.860572 22806 net.cpp:148] Top shape: 24 512 14 14 (2408448)
I0403 18:33:54.860584 22806 net.cpp:156] Memory required for data: 944714784
I0403 18:33:54.860599 22806 layer_factory.hpp:77] Creating layer loss1/ave_pool
I0403 18:33:54.860615 22806 net.cpp:91] Creating Layer loss1/ave_pool
I0403 18:33:54.860628 22806 net.cpp:425] loss1/ave_pool <- inception_4a/output_inception_4a/output_0_split_0
I0403 18:33:54.860646 22806 net.cpp:399] loss1/ave_pool -> loss1/ave_pool
I0403 18:33:54.860836 22806 net.cpp:141] Setting up loss1/ave_pool
I0403 18:33:54.860859 22806 net.cpp:148] Top shape: 24 512 4 4 (196608)
I0403 18:33:54.860873 22806 net.cpp:156] Memory required for data: 945501216
I0403 18:33:54.860888 22806 layer_factory.hpp:77] Creating layer loss1/conv
I0403 18:33:54.860908 22806 net.cpp:91] Creating Layer loss1/conv
I0403 18:33:54.860924 22806 net.cpp:425] loss1/conv <- loss1/ave_pool
I0403 18:33:54.860944 22806 net.cpp:399] loss1/conv -> loss1/conv
I0403 18:33:54.862258 22806 net.cpp:141] Setting up loss1/conv
I0403 18:33:54.862287 22806 net.cpp:148] Top shape: 24 128 4 4 (49152)
I0403 18:33:54.862314 22806 net.cpp:156] Memory required for data: 945697824
I0403 18:33:54.862334 22806 layer_factory.hpp:77] Creating layer loss1/relu_conv
I0403 18:33:54.862350 22806 net.cpp:91] Creating Layer loss1/relu_conv
I0403 18:33:54.862365 22806 net.cpp:425] loss1/relu_conv <- loss1/conv
I0403 18:33:54.862381 22806 net.cpp:386] loss1/relu_conv -> loss1/conv (in-place)
I0403 18:33:54.862650 22806 net.cpp:141] Setting up loss1/relu_conv
I0403 18:33:54.862678 22806 net.cpp:148] Top shape: 24 128 4 4 (49152)
I0403 18:33:54.862694 22806 net.cpp:156] Memory required for data: 945894432
I0403 18:33:54.862707 22806 layer_factory.hpp:77] Creating layer loss1/fc
I0403 18:33:54.862728 22806 net.cpp:91] Creating Layer loss1/fc
I0403 18:33:54.862745 22806 net.cpp:425] loss1/fc <- loss1/conv
I0403 18:33:54.862763 22806 net.cpp:399] loss1/fc -> loss1/fc
I0403 18:33:54.879590 22806 net.cpp:141] Setting up loss1/fc
I0403 18:33:54.879621 22806 net.cpp:148] Top shape: 24 1024 (24576)
I0403 18:33:54.879638 22806 net.cpp:156] Memory required for data: 945992736
I0403 18:33:54.879657 22806 layer_factory.hpp:77] Creating layer loss1/relu_fc
I0403 18:33:54.879673 22806 net.cpp:91] Creating Layer loss1/relu_fc
I0403 18:33:54.879688 22806 net.cpp:425] loss1/relu_fc <- loss1/fc
I0403 18:33:54.879704 22806 net.cpp:386] loss1/relu_fc -> loss1/fc (in-place)
I0403 18:33:54.879875 22806 net.cpp:141] Setting up loss1/relu_fc
I0403 18:33:54.879901 22806 net.cpp:148] Top shape: 24 1024 (24576)
I0403 18:33:54.879916 22806 net.cpp:156] Memory required for data: 946091040
I0403 18:33:54.879930 22806 layer_factory.hpp:77] Creating layer loss1/drop_fc
I0403 18:33:54.879953 22806 net.cpp:91] Creating Layer loss1/drop_fc
I0403 18:33:54.879969 22806 net.cpp:425] loss1/drop_fc <- loss1/fc
I0403 18:33:54.879986 22806 net.cpp:386] loss1/drop_fc -> loss1/fc (in-place)
I0403 18:33:54.880034 22806 net.cpp:141] Setting up loss1/drop_fc
I0403 18:33:54.880055 22806 net.cpp:148] Top shape: 24 1024 (24576)
I0403 18:33:54.880069 22806 net.cpp:156] Memory required for data: 946189344
I0403 18:33:54.880082 22806 layer_factory.hpp:77] Creating layer loss1/classifier_plantvillage
I0403 18:33:54.880102 22806 net.cpp:91] Creating Layer loss1/classifier_plantvillage
I0403 18:33:54.880118 22806 net.cpp:425] loss1/classifier_plantvillage <- loss1/fc
I0403 18:33:54.880136 22806 net.cpp:399] loss1/classifier_plantvillage -> loss1/classifier_plantvillage
I0403 18:33:54.881016 22806 net.cpp:141] Setting up loss1/classifier_plantvillage
I0403 18:33:54.881044 22806 net.cpp:148] Top shape: 24 38 (912)
I0403 18:33:54.881059 22806 net.cpp:156] Memory required for data: 946192992
I0403 18:33:54.881075 22806 layer_factory.hpp:77] Creating layer loss1/classifier_plantvillage_loss1/classifier_plantvillage_0_split
I0403 18:33:54.881093 22806 net.cpp:91] Creating Layer loss1/classifier_plantvillage_loss1/classifier_plantvillage_0_split
I0403 18:33:54.881106 22806 net.cpp:425] loss1/classifier_plantvillage_loss1/classifier_plantvillage_0_split <- loss1/classifier_plantvillage
I0403 18:33:54.881124 22806 net.cpp:399] loss1/classifier_plantvillage_loss1/classifier_plantvillage_0_split -> loss1/classifier_plantvillage_loss1/classifier_plantvillage_0_split_0
I0403 18:33:54.881141 22806 net.cpp:399] loss1/classifier_plantvillage_loss1/classifier_plantvillage_0_split -> loss1/classifier_plantvillage_loss1/classifier_plantvillage_0_split_1
I0403 18:33:54.881161 22806 net.cpp:399] loss1/classifier_plantvillage_loss1/classifier_plantvillage_0_split -> loss1/classifier_plantvillage_loss1/classifier_plantvillage_0_split_2
I0403 18:33:54.881224 22806 net.cpp:141] Setting up loss1/classifier_plantvillage_loss1/classifier_plantvillage_0_split
I0403 18:33:54.881247 22806 net.cpp:148] Top shape: 24 38 (912)
I0403 18:33:54.881261 22806 net.cpp:148] Top shape: 24 38 (912)
I0403 18:33:54.881275 22806 net.cpp:148] Top shape: 24 38 (912)
I0403 18:33:54.881288 22806 net.cpp:156] Memory required for data: 946203936
I0403 18:33:54.881301 22806 layer_factory.hpp:77] Creating layer inception_4b/1x1
I0403 18:33:54.881319 22806 net.cpp:91] Creating Layer inception_4b/1x1
I0403 18:33:54.881350 22806 net.cpp:425] inception_4b/1x1 <- inception_4a/output_inception_4a/output_0_split_1
I0403 18:33:54.881369 22806 net.cpp:399] inception_4b/1x1 -> inception_4b/1x1
I0403 18:33:54.882922 22806 net.cpp:141] Setting up inception_4b/1x1
I0403 18:33:54.882951 22806 net.cpp:148] Top shape: 24 160 14 14 (752640)
I0403 18:33:54.882964 22806 net.cpp:156] Memory required for data: 949214496
I0403 18:33:54.882982 22806 layer_factory.hpp:77] Creating layer inception_4b/relu_1x1
I0403 18:33:54.882998 22806 net.cpp:91] Creating Layer inception_4b/relu_1x1
I0403 18:33:54.883013 22806 net.cpp:425] inception_4b/relu_1x1 <- inception_4b/1x1
I0403 18:33:54.883030 22806 net.cpp:386] inception_4b/relu_1x1 -> inception_4b/1x1 (in-place)
I0403 18:33:54.883199 22806 net.cpp:141] Setting up inception_4b/relu_1x1
I0403 18:33:54.883222 22806 net.cpp:148] Top shape: 24 160 14 14 (752640)
I0403 18:33:54.883236 22806 net.cpp:156] Memory required for data: 952225056
I0403 18:33:54.883250 22806 layer_factory.hpp:77] Creating layer inception_4b/3x3_reduce
I0403 18:33:54.883272 22806 net.cpp:91] Creating Layer inception_4b/3x3_reduce
I0403 18:33:54.883288 22806 net.cpp:425] inception_4b/3x3_reduce <- inception_4a/output_inception_4a/output_0_split_2
I0403 18:33:54.883311 22806 net.cpp:399] inception_4b/3x3_reduce -> inception_4b/3x3_reduce
I0403 18:33:54.884588 22806 net.cpp:141] Setting up inception_4b/3x3_reduce
I0403 18:33:54.884614 22806 net.cpp:148] Top shape: 24 112 14 14 (526848)
I0403 18:33:54.884629 22806 net.cpp:156] Memory required for data: 954332448
I0403 18:33:54.884646 22806 layer_factory.hpp:77] Creating layer inception_4b/relu_3x3_reduce
I0403 18:33:54.884665 22806 net.cpp:91] Creating Layer inception_4b/relu_3x3_reduce
I0403 18:33:54.884681 22806 net.cpp:425] inception_4b/relu_3x3_reduce <- inception_4b/3x3_reduce
I0403 18:33:54.884697 22806 net.cpp:386] inception_4b/relu_3x3_reduce -> inception_4b/3x3_reduce (in-place)
I0403 18:33:54.884965 22806 net.cpp:141] Setting up inception_4b/relu_3x3_reduce
I0403 18:33:54.884989 22806 net.cpp:148] Top shape: 24 112 14 14 (526848)
I0403 18:33:54.885004 22806 net.cpp:156] Memory required for data: 956439840
I0403 18:33:54.885017 22806 layer_factory.hpp:77] Creating layer inception_4b/3x3
I0403 18:33:54.885038 22806 net.cpp:91] Creating Layer inception_4b/3x3
I0403 18:33:54.885056 22806 net.cpp:425] inception_4b/3x3 <- inception_4b/3x3_reduce
I0403 18:33:54.885074 22806 net.cpp:399] inception_4b/3x3 -> inception_4b/3x3
I0403 18:33:54.887892 22806 net.cpp:141] Setting up inception_4b/3x3
I0403 18:33:54.887919 22806 net.cpp:148] Top shape: 24 224 14 14 (1053696)
I0403 18:33:54.887934 22806 net.cpp:156] Memory required for data: 960654624
I0403 18:33:54.887951 22806 layer_factory.hpp:77] Creating layer inception_4b/relu_3x3
I0403 18:33:54.887971 22806 net.cpp:91] Creating Layer inception_4b/relu_3x3
I0403 18:33:54.887987 22806 net.cpp:425] inception_4b/relu_3x3 <- inception_4b/3x3
I0403 18:33:54.888002 22806 net.cpp:386] inception_4b/relu_3x3 -> inception_4b/3x3 (in-place)
I0403 18:33:54.888172 22806 net.cpp:141] Setting up inception_4b/relu_3x3
I0403 18:33:54.888197 22806 net.cpp:148] Top shape: 24 224 14 14 (1053696)
I0403 18:33:54.888212 22806 net.cpp:156] Memory required for data: 964869408
I0403 18:33:54.888226 22806 layer_factory.hpp:77] Creating layer inception_4b/5x5_reduce
I0403 18:33:54.888247 22806 net.cpp:91] Creating Layer inception_4b/5x5_reduce
I0403 18:33:54.888264 22806 net.cpp:425] inception_4b/5x5_reduce <- inception_4a/output_inception_4a/output_0_split_3
I0403 18:33:54.888283 22806 net.cpp:399] inception_4b/5x5_reduce -> inception_4b/5x5_reduce
I0403 18:33:54.889298 22806 net.cpp:141] Setting up inception_4b/5x5_reduce
I0403 18:33:54.889324 22806 net.cpp:148] Top shape: 24 24 14 14 (112896)
I0403 18:33:54.889338 22806 net.cpp:156] Memory required for data: 965320992
I0403 18:33:54.889355 22806 layer_factory.hpp:77] Creating layer inception_4b/relu_5x5_reduce
I0403 18:33:54.889372 22806 net.cpp:91] Creating Layer inception_4b/relu_5x5_reduce
I0403 18:33:54.889401 22806 net.cpp:425] inception_4b/relu_5x5_reduce <- inception_4b/5x5_reduce
I0403 18:33:54.889420 22806 net.cpp:386] inception_4b/relu_5x5_reduce -> inception_4b/5x5_reduce (in-place)
I0403 18:33:54.889598 22806 net.cpp:141] Setting up inception_4b/relu_5x5_reduce
I0403 18:33:54.889621 22806 net.cpp:148] Top shape: 24 24 14 14 (112896)
I0403 18:33:54.889636 22806 net.cpp:156] Memory required for data: 965772576
I0403 18:33:54.889649 22806 layer_factory.hpp:77] Creating layer inception_4b/5x5
I0403 18:33:54.889670 22806 net.cpp:91] Creating Layer inception_4b/5x5
I0403 18:33:54.889686 22806 net.cpp:425] inception_4b/5x5 <- inception_4b/5x5_reduce
I0403 18:33:54.889706 22806 net.cpp:399] inception_4b/5x5 -> inception_4b/5x5
I0403 18:33:54.890851 22806 net.cpp:141] Setting up inception_4b/5x5
I0403 18:33:54.890878 22806 net.cpp:148] Top shape: 24 64 14 14 (301056)
I0403 18:33:54.890894 22806 net.cpp:156] Memory required for data: 966976800
I0403 18:33:54.890910 22806 layer_factory.hpp:77] Creating layer inception_4b/relu_5x5
I0403 18:33:54.890928 22806 net.cpp:91] Creating Layer inception_4b/relu_5x5
I0403 18:33:54.890943 22806 net.cpp:425] inception_4b/relu_5x5 <- inception_4b/5x5
I0403 18:33:54.890960 22806 net.cpp:386] inception_4b/relu_5x5 -> inception_4b/5x5 (in-place)
I0403 18:33:54.891227 22806 net.cpp:141] Setting up inception_4b/relu_5x5
I0403 18:33:54.891252 22806 net.cpp:148] Top shape: 24 64 14 14 (301056)
I0403 18:33:54.891266 22806 net.cpp:156] Memory required for data: 968181024
I0403 18:33:54.891280 22806 layer_factory.hpp:77] Creating layer inception_4b/pool
I0403 18:33:54.891297 22806 net.cpp:91] Creating Layer inception_4b/pool
I0403 18:33:54.891311 22806 net.cpp:425] inception_4b/pool <- inception_4a/output_inception_4a/output_0_split_4
I0403 18:33:54.891330 22806 net.cpp:399] inception_4b/pool -> inception_4b/pool
I0403 18:33:54.891389 22806 net.cpp:141] Setting up inception_4b/pool
I0403 18:33:54.891412 22806 net.cpp:148] Top shape: 24 512 14 14 (2408448)
I0403 18:33:54.891425 22806 net.cpp:156] Memory required for data: 977814816
I0403 18:33:54.891438 22806 layer_factory.hpp:77] Creating layer inception_4b/pool_proj
I0403 18:33:54.891460 22806 net.cpp:91] Creating Layer inception_4b/pool_proj
I0403 18:33:54.891476 22806 net.cpp:425] inception_4b/pool_proj <- inception_4b/pool
I0403 18:33:54.891494 22806 net.cpp:399] inception_4b/pool_proj -> inception_4b/pool_proj
I0403 18:33:54.892627 22806 net.cpp:141] Setting up inception_4b/pool_proj
I0403 18:33:54.892652 22806 net.cpp:148] Top shape: 24 64 14 14 (301056)
I0403 18:33:54.892666 22806 net.cpp:156] Memory required for data: 979019040
I0403 18:33:54.892683 22806 layer_factory.hpp:77] Creating layer inception_4b/relu_pool_proj
I0403 18:33:54.892699 22806 net.cpp:91] Creating Layer inception_4b/relu_pool_proj
I0403 18:33:54.892715 22806 net.cpp:425] inception_4b/relu_pool_proj <- inception_4b/pool_proj
I0403 18:33:54.892735 22806 net.cpp:386] inception_4b/relu_pool_proj -> inception_4b/pool_proj (in-place)
I0403 18:33:54.892906 22806 net.cpp:141] Setting up inception_4b/relu_pool_proj
I0403 18:33:54.892930 22806 net.cpp:148] Top shape: 24 64 14 14 (301056)
I0403 18:33:54.892943 22806 net.cpp:156] Memory required for data: 980223264
I0403 18:33:54.892957 22806 layer_factory.hpp:77] Creating layer inception_4b/output
I0403 18:33:54.892976 22806 net.cpp:91] Creating Layer inception_4b/output
I0403 18:33:54.892992 22806 net.cpp:425] inception_4b/output <- inception_4b/1x1
I0403 18:33:54.893007 22806 net.cpp:425] inception_4b/output <- inception_4b/3x3
I0403 18:33:54.893021 22806 net.cpp:425] inception_4b/output <- inception_4b/5x5
I0403 18:33:54.893036 22806 net.cpp:425] inception_4b/output <- inception_4b/pool_proj
I0403 18:33:54.893051 22806 net.cpp:399] inception_4b/output -> inception_4b/output
I0403 18:33:54.893095 22806 net.cpp:141] Setting up inception_4b/output
I0403 18:33:54.893117 22806 net.cpp:148] Top shape: 24 512 14 14 (2408448)
I0403 18:33:54.893131 22806 net.cpp:156] Memory required for data: 989857056
I0403 18:33:54.893158 22806 layer_factory.hpp:77] Creating layer inception_4b/output_inception_4b/output_0_split
I0403 18:33:54.893175 22806 net.cpp:91] Creating Layer inception_4b/output_inception_4b/output_0_split
I0403 18:33:54.893188 22806 net.cpp:425] inception_4b/output_inception_4b/output_0_split <- inception_4b/output
I0403 18:33:54.893208 22806 net.cpp:399] inception_4b/output_inception_4b/output_0_split -> inception_4b/output_inception_4b/output_0_split_0
I0403 18:33:54.893227 22806 net.cpp:399] inception_4b/output_inception_4b/output_0_split -> inception_4b/output_inception_4b/output_0_split_1
I0403 18:33:54.893246 22806 net.cpp:399] inception_4b/output_inception_4b/output_0_split -> inception_4b/output_inception_4b/output_0_split_2
I0403 18:33:54.893265 22806 net.cpp:399] inception_4b/output_inception_4b/output_0_split -> inception_4b/output_inception_4b/output_0_split_3
I0403 18:33:54.893342 22806 net.cpp:141] Setting up inception_4b/output_inception_4b/output_0_split
I0403 18:33:54.893364 22806 net.cpp:148] Top shape: 24 512 14 14 (2408448)
I0403 18:33:54.893380 22806 net.cpp:148] Top shape: 24 512 14 14 (2408448)
I0403 18:33:54.893395 22806 net.cpp:148] Top shape: 24 512 14 14 (2408448)
I0403 18:33:54.893409 22806 net.cpp:148] Top shape: 24 512 14 14 (2408448)
I0403 18:33:54.893421 22806 net.cpp:156] Memory required for data: 1028392224
I0403 18:33:54.893435 22806 layer_factory.hpp:77] Creating layer inception_4c/1x1
I0403 18:33:54.893456 22806 net.cpp:91] Creating Layer inception_4c/1x1
I0403 18:33:54.893472 22806 net.cpp:425] inception_4c/1x1 <- inception_4b/output_inception_4b/output_0_split_0
I0403 18:33:54.893491 22806 net.cpp:399] inception_4c/1x1 -> inception_4c/1x1
I0403 18:33:54.894861 22806 net.cpp:141] Setting up inception_4c/1x1
I0403 18:33:54.894887 22806 net.cpp:148] Top shape: 24 128 14 14 (602112)
I0403 18:33:54.894902 22806 net.cpp:156] Memory required for data: 1030800672
I0403 18:33:54.894919 22806 layer_factory.hpp:77] Creating layer inception_4c/relu_1x1
I0403 18:33:54.894938 22806 net.cpp:91] Creating Layer inception_4c/relu_1x1
I0403 18:33:54.894953 22806 net.cpp:425] inception_4c/relu_1x1 <- inception_4c/1x1
I0403 18:33:54.894970 22806 net.cpp:386] inception_4c/relu_1x1 -> inception_4c/1x1 (in-place)
I0403 18:33:54.895140 22806 net.cpp:141] Setting up inception_4c/relu_1x1
I0403 18:33:54.895169 22806 net.cpp:148] Top shape: 24 128 14 14 (602112)
I0403 18:33:54.895184 22806 net.cpp:156] Memory required for data: 1033209120
I0403 18:33:54.895198 22806 layer_factory.hpp:77] Creating layer inception_4c/3x3_reduce
I0403 18:33:54.895218 22806 net.cpp:91] Creating Layer inception_4c/3x3_reduce
I0403 18:33:54.895236 22806 net.cpp:425] inception_4c/3x3_reduce <- inception_4b/output_inception_4b/output_0_split_1
I0403 18:33:54.895254 22806 net.cpp:399] inception_4c/3x3_reduce -> inception_4c/3x3_reduce
I0403 18:33:54.897157 22806 net.cpp:141] Setting up inception_4c/3x3_reduce
I0403 18:33:54.897186 22806 net.cpp:148] Top shape: 24 128 14 14 (602112)
I0403 18:33:54.897202 22806 net.cpp:156] Memory required for data: 1035617568
I0403 18:33:54.897219 22806 layer_factory.hpp:77] Creating layer inception_4c/relu_3x3_reduce
I0403 18:33:54.897236 22806 net.cpp:91] Creating Layer inception_4c/relu_3x3_reduce
I0403 18:33:54.897251 22806 net.cpp:425] inception_4c/relu_3x3_reduce <- inception_4c/3x3_reduce
I0403 18:33:54.897271 22806 net.cpp:386] inception_4c/relu_3x3_reduce -> inception_4c/3x3_reduce (in-place)
I0403 18:33:54.897550 22806 net.cpp:141] Setting up inception_4c/relu_3x3_reduce
I0403 18:33:54.897578 22806 net.cpp:148] Top shape: 24 128 14 14 (602112)
I0403 18:33:54.897593 22806 net.cpp:156] Memory required for data: 1038026016
I0403 18:33:54.897606 22806 layer_factory.hpp:77] Creating layer inception_4c/3x3
I0403 18:33:54.897627 22806 net.cpp:91] Creating Layer inception_4c/3x3
I0403 18:33:54.897644 22806 net.cpp:425] inception_4c/3x3 <- inception_4c/3x3_reduce
I0403 18:33:54.897661 22806 net.cpp:399] inception_4c/3x3 -> inception_4c/3x3
I0403 18:33:54.901067 22806 net.cpp:141] Setting up inception_4c/3x3
I0403 18:33:54.901106 22806 net.cpp:148] Top shape: 24 256 14 14 (1204224)
I0403 18:33:54.901121 22806 net.cpp:156] Memory required for data: 1042842912
I0403 18:33:54.901151 22806 layer_factory.hpp:77] Creating layer inception_4c/relu_3x3
I0403 18:33:54.901170 22806 net.cpp:91] Creating Layer inception_4c/relu_3x3
I0403 18:33:54.901185 22806 net.cpp:425] inception_4c/relu_3x3 <- inception_4c/3x3
I0403 18:33:54.901204 22806 net.cpp:386] inception_4c/relu_3x3 -> inception_4c/3x3 (in-place)
I0403 18:33:54.901376 22806 net.cpp:141] Setting up inception_4c/relu_3x3
I0403 18:33:54.901399 22806 net.cpp:148] Top shape: 24 256 14 14 (1204224)
I0403 18:33:54.901413 22806 net.cpp:156] Memory required for data: 1047659808
I0403 18:33:54.901427 22806 layer_factory.hpp:77] Creating layer inception_4c/5x5_reduce
I0403 18:33:54.901448 22806 net.cpp:91] Creating Layer inception_4c/5x5_reduce
I0403 18:33:54.901464 22806 net.cpp:425] inception_4c/5x5_reduce <- inception_4b/output_inception_4b/output_0_split_2
I0403 18:33:54.901484 22806 net.cpp:399] inception_4c/5x5_reduce -> inception_4c/5x5_reduce
I0403 18:33:54.902509 22806 net.cpp:141] Setting up inception_4c/5x5_reduce
I0403 18:33:54.902540 22806 net.cpp:148] Top shape: 24 24 14 14 (112896)
I0403 18:33:54.902557 22806 net.cpp:156] Memory required for data: 1048111392
I0403 18:33:54.902575 22806 layer_factory.hpp:77] Creating layer inception_4c/relu_5x5_reduce
I0403 18:33:54.902591 22806 net.cpp:91] Creating Layer inception_4c/relu_5x5_reduce
I0403 18:33:54.902606 22806 net.cpp:425] inception_4c/relu_5x5_reduce <- inception_4c/5x5_reduce
I0403 18:33:54.902626 22806 net.cpp:386] inception_4c/relu_5x5_reduce -> inception_4c/5x5_reduce (in-place)
I0403 18:33:54.902798 22806 net.cpp:141] Setting up inception_4c/relu_5x5_reduce
I0403 18:33:54.902820 22806 net.cpp:148] Top shape: 24 24 14 14 (112896)
I0403 18:33:54.902834 22806 net.cpp:156] Memory required for data: 1048562976
I0403 18:33:54.902848 22806 layer_factory.hpp:77] Creating layer inception_4c/5x5
I0403 18:33:54.902871 22806 net.cpp:91] Creating Layer inception_4c/5x5
I0403 18:33:54.902887 22806 net.cpp:425] inception_4c/5x5 <- inception_4c/5x5_reduce
I0403 18:33:54.902907 22806 net.cpp:399] inception_4c/5x5 -> inception_4c/5x5
I0403 18:33:54.904078 22806 net.cpp:141] Setting up inception_4c/5x5
I0403 18:33:54.904104 22806 net.cpp:148] Top shape: 24 64 14 14 (301056)
I0403 18:33:54.904119 22806 net.cpp:156] Memory required for data: 1049767200
I0403 18:33:54.904135 22806 layer_factory.hpp:77] Creating layer inception_4c/relu_5x5
I0403 18:33:54.904155 22806 net.cpp:91] Creating Layer inception_4c/relu_5x5
I0403 18:33:54.904171 22806 net.cpp:425] inception_4c/relu_5x5 <- inception_4c/5x5
I0403 18:33:54.904188 22806 net.cpp:386] inception_4c/relu_5x5 -> inception_4c/5x5 (in-place)
I0403 18:33:54.904460 22806 net.cpp:141] Setting up inception_4c/relu_5x5
I0403 18:33:54.904485 22806 net.cpp:148] Top shape: 24 64 14 14 (301056)
I0403 18:33:54.904498 22806 net.cpp:156] Memory required for data: 1050971424
I0403 18:33:54.904512 22806 layer_factory.hpp:77] Creating layer inception_4c/pool
I0403 18:33:54.904553 22806 net.cpp:91] Creating Layer inception_4c/pool
I0403 18:33:54.904572 22806 net.cpp:425] inception_4c/pool <- inception_4b/output_inception_4b/output_0_split_3
I0403 18:33:54.904590 22806 net.cpp:399] inception_4c/pool -> inception_4c/pool
I0403 18:33:54.904654 22806 net.cpp:141] Setting up inception_4c/pool
I0403 18:33:54.904677 22806 net.cpp:148] Top shape: 24 512 14 14 (2408448)
I0403 18:33:54.904691 22806 net.cpp:156] Memory required for data: 1060605216
I0403 18:33:54.904706 22806 layer_factory.hpp:77] Creating layer inception_4c/pool_proj
I0403 18:33:54.904726 22806 net.cpp:91] Creating Layer inception_4c/pool_proj
I0403 18:33:54.904743 22806 net.cpp:425] inception_4c/pool_proj <- inception_4c/pool
I0403 18:33:54.904762 22806 net.cpp:399] inception_4c/pool_proj -> inception_4c/pool_proj
I0403 18:33:54.905932 22806 net.cpp:141] Setting up inception_4c/pool_proj
I0403 18:33:54.905958 22806 net.cpp:148] Top shape: 24 64 14 14 (301056)
I0403 18:33:54.905987 22806 net.cpp:156] Memory required for data: 1061809440
I0403 18:33:54.906004 22806 layer_factory.hpp:77] Creating layer inception_4c/relu_pool_proj
I0403 18:33:54.906021 22806 net.cpp:91] Creating Layer inception_4c/relu_pool_proj
I0403 18:33:54.906036 22806 net.cpp:425] inception_4c/relu_pool_proj <- inception_4c/pool_proj
I0403 18:33:54.906054 22806 net.cpp:386] inception_4c/relu_pool_proj -> inception_4c/pool_proj (in-place)
I0403 18:33:54.906227 22806 net.cpp:141] Setting up inception_4c/relu_pool_proj
I0403 18:33:54.906250 22806 net.cpp:148] Top shape: 24 64 14 14 (301056)
I0403 18:33:54.906265 22806 net.cpp:156] Memory required for data: 1063013664
I0403 18:33:54.906280 22806 layer_factory.hpp:77] Creating layer inception_4c/output
I0403 18:33:54.906296 22806 net.cpp:91] Creating Layer inception_4c/output
I0403 18:33:54.906311 22806 net.cpp:425] inception_4c/output <- inception_4c/1x1
I0403 18:33:54.906327 22806 net.cpp:425] inception_4c/output <- inception_4c/3x3
I0403 18:33:54.906342 22806 net.cpp:425] inception_4c/output <- inception_4c/5x5
I0403 18:33:54.906357 22806 net.cpp:425] inception_4c/output <- inception_4c/pool_proj
I0403 18:33:54.906371 22806 net.cpp:399] inception_4c/output -> inception_4c/output
I0403 18:33:54.906414 22806 net.cpp:141] Setting up inception_4c/output
I0403 18:33:54.906441 22806 net.cpp:148] Top shape: 24 512 14 14 (2408448)
I0403 18:33:54.906456 22806 net.cpp:156] Memory required for data: 1072647456
I0403 18:33:54.906469 22806 layer_factory.hpp:77] Creating layer inception_4c/output_inception_4c/output_0_split
I0403 18:33:54.906484 22806 net.cpp:91] Creating Layer inception_4c/output_inception_4c/output_0_split
I0403 18:33:54.906499 22806 net.cpp:425] inception_4c/output_inception_4c/output_0_split <- inception_4c/output
I0403 18:33:54.906517 22806 net.cpp:399] inception_4c/output_inception_4c/output_0_split -> inception_4c/output_inception_4c/output_0_split_0
I0403 18:33:54.906539 22806 net.cpp:399] inception_4c/output_inception_4c/output_0_split -> inception_4c/output_inception_4c/output_0_split_1
I0403 18:33:54.906560 22806 net.cpp:399] inception_4c/output_inception_4c/output_0_split -> inception_4c/output_inception_4c/output_0_split_2
I0403 18:33:54.906579 22806 net.cpp:399] inception_4c/output_inception_4c/output_0_split -> inception_4c/output_inception_4c/output_0_split_3
I0403 18:33:54.906657 22806 net.cpp:141] Setting up inception_4c/output_inception_4c/output_0_split
I0403 18:33:54.906688 22806 net.cpp:148] Top shape: 24 512 14 14 (2408448)
I0403 18:33:54.906704 22806 net.cpp:148] Top shape: 24 512 14 14 (2408448)
I0403 18:33:54.906718 22806 net.cpp:148] Top shape: 24 512 14 14 (2408448)
I0403 18:33:54.906733 22806 net.cpp:148] Top shape: 24 512 14 14 (2408448)
I0403 18:33:54.906745 22806 net.cpp:156] Memory required for data: 1111182624
I0403 18:33:54.906757 22806 layer_factory.hpp:77] Creating layer inception_4d/1x1
I0403 18:33:54.906779 22806 net.cpp:91] Creating Layer inception_4d/1x1
I0403 18:33:54.906795 22806 net.cpp:425] inception_4d/1x1 <- inception_4c/output_inception_4c/output_0_split_0
I0403 18:33:54.906812 22806 net.cpp:399] inception_4d/1x1 -> inception_4d/1x1
I0403 18:33:54.908124 22806 net.cpp:141] Setting up inception_4d/1x1
I0403 18:33:54.908152 22806 net.cpp:148] Top shape: 24 112 14 14 (526848)
I0403 18:33:54.908167 22806 net.cpp:156] Memory required for data: 1113290016
I0403 18:33:54.908185 22806 layer_factory.hpp:77] Creating layer inception_4d/relu_1x1
I0403 18:33:54.908201 22806 net.cpp:91] Creating Layer inception_4d/relu_1x1
I0403 18:33:54.908216 22806 net.cpp:425] inception_4d/relu_1x1 <- inception_4d/1x1
I0403 18:33:54.908232 22806 net.cpp:386] inception_4d/relu_1x1 -> inception_4d/1x1 (in-place)
I0403 18:33:54.908406 22806 net.cpp:141] Setting up inception_4d/relu_1x1
I0403 18:33:54.908430 22806 net.cpp:148] Top shape: 24 112 14 14 (526848)
I0403 18:33:54.908444 22806 net.cpp:156] Memory required for data: 1115397408
I0403 18:33:54.908458 22806 layer_factory.hpp:77] Creating layer inception_4d/3x3_reduce
I0403 18:33:54.908493 22806 net.cpp:91] Creating Layer inception_4d/3x3_reduce
I0403 18:33:54.908510 22806 net.cpp:425] inception_4d/3x3_reduce <- inception_4c/output_inception_4c/output_0_split_1
I0403 18:33:54.908529 22806 net.cpp:399] inception_4d/3x3_reduce -> inception_4d/3x3_reduce
I0403 18:33:54.909963 22806 net.cpp:141] Setting up inception_4d/3x3_reduce
I0403 18:33:54.909989 22806 net.cpp:148] Top shape: 24 144 14 14 (677376)
I0403 18:33:54.910003 22806 net.cpp:156] Memory required for data: 1118106912
I0403 18:33:54.910022 22806 layer_factory.hpp:77] Creating layer inception_4d/relu_3x3_reduce
I0403 18:33:54.910040 22806 net.cpp:91] Creating Layer inception_4d/relu_3x3_reduce
I0403 18:33:54.910056 22806 net.cpp:425] inception_4d/relu_3x3_reduce <- inception_4d/3x3_reduce
I0403 18:33:54.910073 22806 net.cpp:386] inception_4d/relu_3x3_reduce -> inception_4d/3x3_reduce (in-place)
I0403 18:33:54.910347 22806 net.cpp:141] Setting up inception_4d/relu_3x3_reduce
I0403 18:33:54.910372 22806 net.cpp:148] Top shape: 24 144 14 14 (677376)
I0403 18:33:54.910387 22806 net.cpp:156] Memory required for data: 1120816416
I0403 18:33:54.910399 22806 layer_factory.hpp:77] Creating layer inception_4d/3x3
I0403 18:33:54.910420 22806 net.cpp:91] Creating Layer inception_4d/3x3
I0403 18:33:54.910436 22806 net.cpp:425] inception_4d/3x3 <- inception_4d/3x3_reduce
I0403 18:33:54.910456 22806 net.cpp:399] inception_4d/3x3 -> inception_4d/3x3
I0403 18:33:54.914547 22806 net.cpp:141] Setting up inception_4d/3x3
I0403 18:33:54.914579 22806 net.cpp:148] Top shape: 24 288 14 14 (1354752)
I0403 18:33:54.914597 22806 net.cpp:156] Memory required for data: 1126235424
I0403 18:33:54.914613 22806 layer_factory.hpp:77] Creating layer inception_4d/relu_3x3
I0403 18:33:54.914630 22806 net.cpp:91] Creating Layer inception_4d/relu_3x3
I0403 18:33:54.914646 22806 net.cpp:425] inception_4d/relu_3x3 <- inception_4d/3x3
I0403 18:33:54.914669 22806 net.cpp:386] inception_4d/relu_3x3 -> inception_4d/3x3 (in-place)
I0403 18:33:54.914842 22806 net.cpp:141] Setting up inception_4d/relu_3x3
I0403 18:33:54.914866 22806 net.cpp:148] Top shape: 24 288 14 14 (1354752)
I0403 18:33:54.914880 22806 net.cpp:156] Memory required for data: 1131654432
I0403 18:33:54.914893 22806 layer_factory.hpp:77] Creating layer inception_4d/5x5_reduce
I0403 18:33:54.914912 22806 net.cpp:91] Creating Layer inception_4d/5x5_reduce
I0403 18:33:54.914929 22806 net.cpp:425] inception_4d/5x5_reduce <- inception_4c/output_inception_4c/output_0_split_2
I0403 18:33:54.914948 22806 net.cpp:399] inception_4d/5x5_reduce -> inception_4d/5x5_reduce
I0403 18:33:54.916030 22806 net.cpp:141] Setting up inception_4d/5x5_reduce
I0403 18:33:54.916059 22806 net.cpp:148] Top shape: 24 32 14 14 (150528)
I0403 18:33:54.916074 22806 net.cpp:156] Memory required for data: 1132256544
I0403 18:33:54.916090 22806 layer_factory.hpp:77] Creating layer inception_4d/relu_5x5_reduce
I0403 18:33:54.916106 22806 net.cpp:91] Creating Layer inception_4d/relu_5x5_reduce
I0403 18:33:54.916121 22806 net.cpp:425] inception_4d/relu_5x5_reduce <- inception_4d/5x5_reduce
I0403 18:33:54.916137 22806 net.cpp:386] inception_4d/relu_5x5_reduce -> inception_4d/5x5_reduce (in-place)
I0403 18:33:54.916314 22806 net.cpp:141] Setting up inception_4d/relu_5x5_reduce
I0403 18:33:54.916337 22806 net.cpp:148] Top shape: 24 32 14 14 (150528)
I0403 18:33:54.916350 22806 net.cpp:156] Memory required for data: 1132858656
I0403 18:33:54.916364 22806 layer_factory.hpp:77] Creating layer inception_4d/5x5
I0403 18:33:54.916384 22806 net.cpp:91] Creating Layer inception_4d/5x5
I0403 18:33:54.916400 22806 net.cpp:425] inception_4d/5x5 <- inception_4d/5x5_reduce
I0403 18:33:54.916420 22806 net.cpp:399] inception_4d/5x5 -> inception_4d/5x5
I0403 18:33:54.917819 22806 net.cpp:141] Setting up inception_4d/5x5
I0403 18:33:54.917845 22806 net.cpp:148] Top shape: 24 64 14 14 (301056)
I0403 18:33:54.917858 22806 net.cpp:156] Memory required for data: 1134062880
I0403 18:33:54.917876 22806 layer_factory.hpp:77] Creating layer inception_4d/relu_5x5
I0403 18:33:54.917909 22806 net.cpp:91] Creating Layer inception_4d/relu_5x5
I0403 18:33:54.917925 22806 net.cpp:425] inception_4d/relu_5x5 <- inception_4d/5x5
I0403 18:33:54.917942 22806 net.cpp:386] inception_4d/relu_5x5 -> inception_4d/5x5 (in-place)
I0403 18:33:54.918228 22806 net.cpp:141] Setting up inception_4d/relu_5x5
I0403 18:33:54.918253 22806 net.cpp:148] Top shape: 24 64 14 14 (301056)
I0403 18:33:54.918267 22806 net.cpp:156] Memory required for data: 1135267104
I0403 18:33:54.918280 22806 layer_factory.hpp:77] Creating layer inception_4d/pool
I0403 18:33:54.918297 22806 net.cpp:91] Creating Layer inception_4d/pool
I0403 18:33:54.918311 22806 net.cpp:425] inception_4d/pool <- inception_4c/output_inception_4c/output_0_split_3
I0403 18:33:54.918330 22806 net.cpp:399] inception_4d/pool -> inception_4d/pool
I0403 18:33:54.918392 22806 net.cpp:141] Setting up inception_4d/pool
I0403 18:33:54.918416 22806 net.cpp:148] Top shape: 24 512 14 14 (2408448)
I0403 18:33:54.918429 22806 net.cpp:156] Memory required for data: 1144900896
I0403 18:33:54.918442 22806 layer_factory.hpp:77] Creating layer inception_4d/pool_proj
I0403 18:33:54.918462 22806 net.cpp:91] Creating Layer inception_4d/pool_proj
I0403 18:33:54.918478 22806 net.cpp:425] inception_4d/pool_proj <- inception_4d/pool
I0403 18:33:54.918498 22806 net.cpp:399] inception_4d/pool_proj -> inception_4d/pool_proj
I0403 18:33:54.920176 22806 net.cpp:141] Setting up inception_4d/pool_proj
I0403 18:33:54.920204 22806 net.cpp:148] Top shape: 24 64 14 14 (301056)
I0403 18:33:54.920219 22806 net.cpp:156] Memory required for data: 1146105120
I0403 18:33:54.920236 22806 layer_factory.hpp:77] Creating layer inception_4d/relu_pool_proj
I0403 18:33:54.920253 22806 net.cpp:91] Creating Layer inception_4d/relu_pool_proj
I0403 18:33:54.920269 22806 net.cpp:425] inception_4d/relu_pool_proj <- inception_4d/pool_proj
I0403 18:33:54.920286 22806 net.cpp:386] inception_4d/relu_pool_proj -> inception_4d/pool_proj (in-place)
I0403 18:33:54.920457 22806 net.cpp:141] Setting up inception_4d/relu_pool_proj
I0403 18:33:54.920481 22806 net.cpp:148] Top shape: 24 64 14 14 (301056)
I0403 18:33:54.920495 22806 net.cpp:156] Memory required for data: 1147309344
I0403 18:33:54.920508 22806 layer_factory.hpp:77] Creating layer inception_4d/output
I0403 18:33:54.920524 22806 net.cpp:91] Creating Layer inception_4d/output
I0403 18:33:54.920542 22806 net.cpp:425] inception_4d/output <- inception_4d/1x1
I0403 18:33:54.920558 22806 net.cpp:425] inception_4d/output <- inception_4d/3x3
I0403 18:33:54.920572 22806 net.cpp:425] inception_4d/output <- inception_4d/5x5
I0403 18:33:54.920588 22806 net.cpp:425] inception_4d/output <- inception_4d/pool_proj
I0403 18:33:54.920604 22806 net.cpp:399] inception_4d/output -> inception_4d/output
I0403 18:33:54.920650 22806 net.cpp:141] Setting up inception_4d/output
I0403 18:33:54.920676 22806 net.cpp:148] Top shape: 24 528 14 14 (2483712)
I0403 18:33:54.920691 22806 net.cpp:156] Memory required for data: 1157244192
I0403 18:33:54.920704 22806 layer_factory.hpp:77] Creating layer inception_4d/output_inception_4d/output_0_split
I0403 18:33:54.920722 22806 net.cpp:91] Creating Layer inception_4d/output_inception_4d/output_0_split
I0403 18:33:54.920735 22806 net.cpp:425] inception_4d/output_inception_4d/output_0_split <- inception_4d/output
I0403 18:33:54.920752 22806 net.cpp:399] inception_4d/output_inception_4d/output_0_split -> inception_4d/output_inception_4d/output_0_split_0
I0403 18:33:54.920771 22806 net.cpp:399] inception_4d/output_inception_4d/output_0_split -> inception_4d/output_inception_4d/output_0_split_1
I0403 18:33:54.920791 22806 net.cpp:399] inception_4d/output_inception_4d/output_0_split -> inception_4d/output_inception_4d/output_0_split_2
I0403 18:33:54.920810 22806 net.cpp:399] inception_4d/output_inception_4d/output_0_split -> inception_4d/output_inception_4d/output_0_split_3
I0403 18:33:54.920830 22806 net.cpp:399] inception_4d/output_inception_4d/output_0_split -> inception_4d/output_inception_4d/output_0_split_4
I0403 18:33:54.920928 22806 net.cpp:141] Setting up inception_4d/output_inception_4d/output_0_split
I0403 18:33:54.920960 22806 net.cpp:148] Top shape: 24 528 14 14 (2483712)
I0403 18:33:54.920976 22806 net.cpp:148] Top shape: 24 528 14 14 (2483712)
I0403 18:33:54.920994 22806 net.cpp:148] Top shape: 24 528 14 14 (2483712)
I0403 18:33:54.921007 22806 net.cpp:148] Top shape: 24 528 14 14 (2483712)
I0403 18:33:54.921021 22806 net.cpp:148] Top shape: 24 528 14 14 (2483712)
I0403 18:33:54.921033 22806 net.cpp:156] Memory required for data: 1206918432
I0403 18:33:54.921046 22806 layer_factory.hpp:77] Creating layer loss2/ave_pool
I0403 18:33:54.921062 22806 net.cpp:91] Creating Layer loss2/ave_pool
I0403 18:33:54.921077 22806 net.cpp:425] loss2/ave_pool <- inception_4d/output_inception_4d/output_0_split_0
I0403 18:33:54.921093 22806 net.cpp:399] loss2/ave_pool -> loss2/ave_pool
I0403 18:33:54.921391 22806 net.cpp:141] Setting up loss2/ave_pool
I0403 18:33:54.921416 22806 net.cpp:148] Top shape: 24 528 4 4 (202752)
I0403 18:33:54.921432 22806 net.cpp:156] Memory required for data: 1207729440
I0403 18:33:54.921445 22806 layer_factory.hpp:77] Creating layer loss2/conv
I0403 18:33:54.921465 22806 net.cpp:91] Creating Layer loss2/conv
I0403 18:33:54.921483 22806 net.cpp:425] loss2/conv <- loss2/ave_pool
I0403 18:33:54.921499 22806 net.cpp:399] loss2/conv -> loss2/conv
I0403 18:33:54.923296 22806 net.cpp:141] Setting up loss2/conv
I0403 18:33:54.923323 22806 net.cpp:148] Top shape: 24 128 4 4 (49152)
I0403 18:33:54.923336 22806 net.cpp:156] Memory required for data: 1207926048
I0403 18:33:54.923353 22806 layer_factory.hpp:77] Creating layer loss2/relu_conv
I0403 18:33:54.923370 22806 net.cpp:91] Creating Layer loss2/relu_conv
I0403 18:33:54.923384 22806 net.cpp:425] loss2/relu_conv <- loss2/conv
I0403 18:33:54.923403 22806 net.cpp:386] loss2/relu_conv -> loss2/conv (in-place)
I0403 18:33:54.923679 22806 net.cpp:141] Setting up loss2/relu_conv
I0403 18:33:54.923704 22806 net.cpp:148] Top shape: 24 128 4 4 (49152)
I0403 18:33:54.923718 22806 net.cpp:156] Memory required for data: 1208122656
I0403 18:33:54.923732 22806 layer_factory.hpp:77] Creating layer loss2/fc
I0403 18:33:54.923749 22806 net.cpp:91] Creating Layer loss2/fc
I0403 18:33:54.923764 22806 net.cpp:425] loss2/fc <- loss2/conv
I0403 18:33:54.923784 22806 net.cpp:399] loss2/fc -> loss2/fc
I0403 18:33:54.940554 22806 net.cpp:141] Setting up loss2/fc
I0403 18:33:54.940585 22806 net.cpp:148] Top shape: 24 1024 (24576)
I0403 18:33:54.940600 22806 net.cpp:156] Memory required for data: 1208220960
I0403 18:33:54.940618 22806 layer_factory.hpp:77] Creating layer loss2/relu_fc
I0403 18:33:54.940634 22806 net.cpp:91] Creating Layer loss2/relu_fc
I0403 18:33:54.940649 22806 net.cpp:425] loss2/relu_fc <- loss2/fc
I0403 18:33:54.940665 22806 net.cpp:386] loss2/relu_fc -> loss2/fc (in-place)
I0403 18:33:54.940948 22806 net.cpp:141] Setting up loss2/relu_fc
I0403 18:33:54.940973 22806 net.cpp:148] Top shape: 24 1024 (24576)
I0403 18:33:54.940987 22806 net.cpp:156] Memory required for data: 1208319264
I0403 18:33:54.941001 22806 layer_factory.hpp:77] Creating layer loss2/drop_fc
I0403 18:33:54.941018 22806 net.cpp:91] Creating Layer loss2/drop_fc
I0403 18:33:54.941032 22806 net.cpp:425] loss2/drop_fc <- loss2/fc
I0403 18:33:54.941048 22806 net.cpp:386] loss2/drop_fc -> loss2/fc (in-place)
I0403 18:33:54.941095 22806 net.cpp:141] Setting up loss2/drop_fc
I0403 18:33:54.941117 22806 net.cpp:148] Top shape: 24 1024 (24576)
I0403 18:33:54.941129 22806 net.cpp:156] Memory required for data: 1208417568
I0403 18:33:54.941143 22806 layer_factory.hpp:77] Creating layer loss2/classifier_plantvillage
I0403 18:33:54.941161 22806 net.cpp:91] Creating Layer loss2/classifier_plantvillage
I0403 18:33:54.941176 22806 net.cpp:425] loss2/classifier_plantvillage <- loss2/fc
I0403 18:33:54.941192 22806 net.cpp:399] loss2/classifier_plantvillage -> loss2/classifier_plantvillage
I0403 18:33:54.941579 22806 net.cpp:141] Setting up loss2/classifier_plantvillage
I0403 18:33:54.941602 22806 net.cpp:148] Top shape: 24 38 (912)
I0403 18:33:54.941630 22806 net.cpp:156] Memory required for data: 1208421216
I0403 18:33:54.941649 22806 layer_factory.hpp:77] Creating layer loss2/classifier_plantvillage_loss2/classifier_plantvillage_0_split
I0403 18:33:54.941665 22806 net.cpp:91] Creating Layer loss2/classifier_plantvillage_loss2/classifier_plantvillage_0_split
I0403 18:33:54.941680 22806 net.cpp:425] loss2/classifier_plantvillage_loss2/classifier_plantvillage_0_split <- loss2/classifier_plantvillage
I0403 18:33:54.941699 22806 net.cpp:399] loss2/classifier_plantvillage_loss2/classifier_plantvillage_0_split -> loss2/classifier_plantvillage_loss2/classifier_plantvillage_0_split_0
I0403 18:33:54.941718 22806 net.cpp:399] loss2/classifier_plantvillage_loss2/classifier_plantvillage_0_split -> loss2/classifier_plantvillage_loss2/classifier_plantvillage_0_split_1
I0403 18:33:54.941737 22806 net.cpp:399] loss2/classifier_plantvillage_loss2/classifier_plantvillage_0_split -> loss2/classifier_plantvillage_loss2/classifier_plantvillage_0_split_2
I0403 18:33:54.941812 22806 net.cpp:141] Setting up loss2/classifier_plantvillage_loss2/classifier_plantvillage_0_split
I0403 18:33:54.941833 22806 net.cpp:148] Top shape: 24 38 (912)
I0403 18:33:54.941848 22806 net.cpp:148] Top shape: 24 38 (912)
I0403 18:33:54.941860 22806 net.cpp:148] Top shape: 24 38 (912)
I0403 18:33:54.941874 22806 net.cpp:156] Memory required for data: 1208432160
I0403 18:33:54.941886 22806 layer_factory.hpp:77] Creating layer inception_4e/1x1
I0403 18:33:54.941910 22806 net.cpp:91] Creating Layer inception_4e/1x1
I0403 18:33:54.941926 22806 net.cpp:425] inception_4e/1x1 <- inception_4d/output_inception_4d/output_0_split_1
I0403 18:33:54.941943 22806 net.cpp:399] inception_4e/1x1 -> inception_4e/1x1
I0403 18:33:54.943660 22806 net.cpp:141] Setting up inception_4e/1x1
I0403 18:33:54.943686 22806 net.cpp:148] Top shape: 24 256 14 14 (1204224)
I0403 18:33:54.943699 22806 net.cpp:156] Memory required for data: 1213249056
I0403 18:33:54.943717 22806 layer_factory.hpp:77] Creating layer inception_4e/relu_1x1
I0403 18:33:54.943739 22806 net.cpp:91] Creating Layer inception_4e/relu_1x1
I0403 18:33:54.943755 22806 net.cpp:425] inception_4e/relu_1x1 <- inception_4e/1x1
I0403 18:33:54.943771 22806 net.cpp:386] inception_4e/relu_1x1 -> inception_4e/1x1 (in-place)
I0403 18:33:54.944049 22806 net.cpp:141] Setting up inception_4e/relu_1x1
I0403 18:33:54.944073 22806 net.cpp:148] Top shape: 24 256 14 14 (1204224)
I0403 18:33:54.944087 22806 net.cpp:156] Memory required for data: 1218065952
I0403 18:33:54.944102 22806 layer_factory.hpp:77] Creating layer inception_4e/3x3_reduce
I0403 18:33:54.944121 22806 net.cpp:91] Creating Layer inception_4e/3x3_reduce
I0403 18:33:54.944138 22806 net.cpp:425] inception_4e/3x3_reduce <- inception_4d/output_inception_4d/output_0_split_2
I0403 18:33:54.944156 22806 net.cpp:399] inception_4e/3x3_reduce -> inception_4e/3x3_reduce
I0403 18:33:54.946176 22806 net.cpp:141] Setting up inception_4e/3x3_reduce
I0403 18:33:54.946203 22806 net.cpp:148] Top shape: 24 160 14 14 (752640)
I0403 18:33:54.946218 22806 net.cpp:156] Memory required for data: 1221076512
I0403 18:33:54.946234 22806 layer_factory.hpp:77] Creating layer inception_4e/relu_3x3_reduce
I0403 18:33:54.946251 22806 net.cpp:91] Creating Layer inception_4e/relu_3x3_reduce
I0403 18:33:54.946267 22806 net.cpp:425] inception_4e/relu_3x3_reduce <- inception_4e/3x3_reduce
I0403 18:33:54.946285 22806 net.cpp:386] inception_4e/relu_3x3_reduce -> inception_4e/3x3_reduce (in-place)
I0403 18:33:54.946458 22806 net.cpp:141] Setting up inception_4e/relu_3x3_reduce
I0403 18:33:54.946481 22806 net.cpp:148] Top shape: 24 160 14 14 (752640)
I0403 18:33:54.946496 22806 net.cpp:156] Memory required for data: 1224087072
I0403 18:33:54.946509 22806 layer_factory.hpp:77] Creating layer inception_4e/3x3
I0403 18:33:54.946532 22806 net.cpp:91] Creating Layer inception_4e/3x3
I0403 18:33:54.946553 22806 net.cpp:425] inception_4e/3x3 <- inception_4e/3x3_reduce
I0403 18:33:54.946574 22806 net.cpp:399] inception_4e/3x3 -> inception_4e/3x3
I0403 18:33:54.951349 22806 net.cpp:141] Setting up inception_4e/3x3
I0403 18:33:54.951390 22806 net.cpp:148] Top shape: 24 320 14 14 (1505280)
I0403 18:33:54.951406 22806 net.cpp:156] Memory required for data: 1230108192
I0403 18:33:54.951422 22806 layer_factory.hpp:77] Creating layer inception_4e/relu_3x3
I0403 18:33:54.951441 22806 net.cpp:91] Creating Layer inception_4e/relu_3x3
I0403 18:33:54.951457 22806 net.cpp:425] inception_4e/relu_3x3 <- inception_4e/3x3
I0403 18:33:54.951472 22806 net.cpp:386] inception_4e/relu_3x3 -> inception_4e/3x3 (in-place)
I0403 18:33:54.951764 22806 net.cpp:141] Setting up inception_4e/relu_3x3
I0403 18:33:54.951792 22806 net.cpp:148] Top shape: 24 320 14 14 (1505280)
I0403 18:33:54.951807 22806 net.cpp:156] Memory required for data: 1236129312
I0403 18:33:54.951819 22806 layer_factory.hpp:77] Creating layer inception_4e/5x5_reduce
I0403 18:33:54.951841 22806 net.cpp:91] Creating Layer inception_4e/5x5_reduce
I0403 18:33:54.951859 22806 net.cpp:425] inception_4e/5x5_reduce <- inception_4d/output_inception_4d/output_0_split_3
I0403 18:33:54.951877 22806 net.cpp:399] inception_4e/5x5_reduce -> inception_4e/5x5_reduce
I0403 18:33:54.952888 22806 net.cpp:141] Setting up inception_4e/5x5_reduce
I0403 18:33:54.952913 22806 net.cpp:148] Top shape: 24 32 14 14 (150528)
I0403 18:33:54.952929 22806 net.cpp:156] Memory required for data: 1236731424
I0403 18:33:54.952945 22806 layer_factory.hpp:77] Creating layer inception_4e/relu_5x5_reduce
I0403 18:33:54.952965 22806 net.cpp:91] Creating Layer inception_4e/relu_5x5_reduce
I0403 18:33:54.952981 22806 net.cpp:425] inception_4e/relu_5x5_reduce <- inception_4e/5x5_reduce
I0403 18:33:54.952998 22806 net.cpp:386] inception_4e/relu_5x5_reduce -> inception_4e/5x5_reduce (in-place)
I0403 18:33:54.953279 22806 net.cpp:141] Setting up inception_4e/relu_5x5_reduce
I0403 18:33:54.953304 22806 net.cpp:148] Top shape: 24 32 14 14 (150528)
I0403 18:33:54.953317 22806 net.cpp:156] Memory required for data: 1237333536
I0403 18:33:54.953331 22806 layer_factory.hpp:77] Creating layer inception_4e/5x5
I0403 18:33:54.953368 22806 net.cpp:91] Creating Layer inception_4e/5x5
I0403 18:33:54.953387 22806 net.cpp:425] inception_4e/5x5 <- inception_4e/5x5_reduce
I0403 18:33:54.953404 22806 net.cpp:399] inception_4e/5x5 -> inception_4e/5x5
I0403 18:33:54.955160 22806 net.cpp:141] Setting up inception_4e/5x5
I0403 18:33:54.955189 22806 net.cpp:148] Top shape: 24 128 14 14 (602112)
I0403 18:33:54.955204 22806 net.cpp:156] Memory required for data: 1239741984
I0403 18:33:54.955222 22806 layer_factory.hpp:77] Creating layer inception_4e/relu_5x5
I0403 18:33:54.955240 22806 net.cpp:91] Creating Layer inception_4e/relu_5x5
I0403 18:33:54.955255 22806 net.cpp:425] inception_4e/relu_5x5 <- inception_4e/5x5
I0403 18:33:54.955272 22806 net.cpp:386] inception_4e/relu_5x5 -> inception_4e/5x5 (in-place)
I0403 18:33:54.955458 22806 net.cpp:141] Setting up inception_4e/relu_5x5
I0403 18:33:54.955482 22806 net.cpp:148] Top shape: 24 128 14 14 (602112)
I0403 18:33:54.955494 22806 net.cpp:156] Memory required for data: 1242150432
I0403 18:33:54.955508 22806 layer_factory.hpp:77] Creating layer inception_4e/pool
I0403 18:33:54.955525 22806 net.cpp:91] Creating Layer inception_4e/pool
I0403 18:33:54.955544 22806 net.cpp:425] inception_4e/pool <- inception_4d/output_inception_4d/output_0_split_4
I0403 18:33:54.955569 22806 net.cpp:399] inception_4e/pool -> inception_4e/pool
I0403 18:33:54.955636 22806 net.cpp:141] Setting up inception_4e/pool
I0403 18:33:54.955657 22806 net.cpp:148] Top shape: 24 528 14 14 (2483712)
I0403 18:33:54.955670 22806 net.cpp:156] Memory required for data: 1252085280
I0403 18:33:54.955684 22806 layer_factory.hpp:77] Creating layer inception_4e/pool_proj
I0403 18:33:54.955708 22806 net.cpp:91] Creating Layer inception_4e/pool_proj
I0403 18:33:54.955724 22806 net.cpp:425] inception_4e/pool_proj <- inception_4e/pool
I0403 18:33:54.955741 22806 net.cpp:399] inception_4e/pool_proj -> inception_4e/pool_proj
I0403 18:33:54.957170 22806 net.cpp:141] Setting up inception_4e/pool_proj
I0403 18:33:54.957208 22806 net.cpp:148] Top shape: 24 128 14 14 (602112)
I0403 18:33:54.957224 22806 net.cpp:156] Memory required for data: 1254493728
I0403 18:33:54.957242 22806 layer_factory.hpp:77] Creating layer inception_4e/relu_pool_proj
I0403 18:33:54.957258 22806 net.cpp:91] Creating Layer inception_4e/relu_pool_proj
I0403 18:33:54.957273 22806 net.cpp:425] inception_4e/relu_pool_proj <- inception_4e/pool_proj
I0403 18:33:54.957291 22806 net.cpp:386] inception_4e/relu_pool_proj -> inception_4e/pool_proj (in-place)
I0403 18:33:54.957576 22806 net.cpp:141] Setting up inception_4e/relu_pool_proj
I0403 18:33:54.957602 22806 net.cpp:148] Top shape: 24 128 14 14 (602112)
I0403 18:33:54.957617 22806 net.cpp:156] Memory required for data: 1256902176
I0403 18:33:54.957629 22806 layer_factory.hpp:77] Creating layer inception_4e/output
I0403 18:33:54.957645 22806 net.cpp:91] Creating Layer inception_4e/output
I0403 18:33:54.957660 22806 net.cpp:425] inception_4e/output <- inception_4e/1x1
I0403 18:33:54.957675 22806 net.cpp:425] inception_4e/output <- inception_4e/3x3
I0403 18:33:54.957691 22806 net.cpp:425] inception_4e/output <- inception_4e/5x5
I0403 18:33:54.957706 22806 net.cpp:425] inception_4e/output <- inception_4e/pool_proj
I0403 18:33:54.957721 22806 net.cpp:399] inception_4e/output -> inception_4e/output
I0403 18:33:54.957770 22806 net.cpp:141] Setting up inception_4e/output
I0403 18:33:54.957792 22806 net.cpp:148] Top shape: 24 832 14 14 (3913728)
I0403 18:33:54.957805 22806 net.cpp:156] Memory required for data: 1272557088
I0403 18:33:54.957820 22806 layer_factory.hpp:77] Creating layer pool4/3x3_s2
I0403 18:33:54.957839 22806 net.cpp:91] Creating Layer pool4/3x3_s2
I0403 18:33:54.957854 22806 net.cpp:425] pool4/3x3_s2 <- inception_4e/output
I0403 18:33:54.957871 22806 net.cpp:399] pool4/3x3_s2 -> pool4/3x3_s2
I0403 18:33:54.957936 22806 net.cpp:141] Setting up pool4/3x3_s2
I0403 18:33:54.957957 22806 net.cpp:148] Top shape: 24 832 7 7 (978432)
I0403 18:33:54.957970 22806 net.cpp:156] Memory required for data: 1276470816
I0403 18:33:54.957983 22806 layer_factory.hpp:77] Creating layer pool4/3x3_s2_pool4/3x3_s2_0_split
I0403 18:33:54.957999 22806 net.cpp:91] Creating Layer pool4/3x3_s2_pool4/3x3_s2_0_split
I0403 18:33:54.958014 22806 net.cpp:425] pool4/3x3_s2_pool4/3x3_s2_0_split <- pool4/3x3_s2
I0403 18:33:54.958031 22806 net.cpp:399] pool4/3x3_s2_pool4/3x3_s2_0_split -> pool4/3x3_s2_pool4/3x3_s2_0_split_0
I0403 18:33:54.958051 22806 net.cpp:399] pool4/3x3_s2_pool4/3x3_s2_0_split -> pool4/3x3_s2_pool4/3x3_s2_0_split_1
I0403 18:33:54.958070 22806 net.cpp:399] pool4/3x3_s2_pool4/3x3_s2_0_split -> pool4/3x3_s2_pool4/3x3_s2_0_split_2
I0403 18:33:54.958089 22806 net.cpp:399] pool4/3x3_s2_pool4/3x3_s2_0_split -> pool4/3x3_s2_pool4/3x3_s2_0_split_3
I0403 18:33:54.958173 22806 net.cpp:141] Setting up pool4/3x3_s2_pool4/3x3_s2_0_split
I0403 18:33:54.958197 22806 net.cpp:148] Top shape: 24 832 7 7 (978432)
I0403 18:33:54.958212 22806 net.cpp:148] Top shape: 24 832 7 7 (978432)
I0403 18:33:54.958226 22806 net.cpp:148] Top shape: 24 832 7 7 (978432)
I0403 18:33:54.958240 22806 net.cpp:148] Top shape: 24 832 7 7 (978432)
I0403 18:33:54.958252 22806 net.cpp:156] Memory required for data: 1292125728
I0403 18:33:54.958266 22806 layer_factory.hpp:77] Creating layer inception_5a/1x1
I0403 18:33:54.958287 22806 net.cpp:91] Creating Layer inception_5a/1x1
I0403 18:33:54.958302 22806 net.cpp:425] inception_5a/1x1 <- pool4/3x3_s2_pool4/3x3_s2_0_split_0
I0403 18:33:54.958323 22806 net.cpp:399] inception_5a/1x1 -> inception_5a/1x1
I0403 18:33:54.961032 22806 net.cpp:141] Setting up inception_5a/1x1
I0403 18:33:54.961061 22806 net.cpp:148] Top shape: 24 256 7 7 (301056)
I0403 18:33:54.961074 22806 net.cpp:156] Memory required for data: 1293329952
I0403 18:33:54.961091 22806 layer_factory.hpp:77] Creating layer inception_5a/relu_1x1
I0403 18:33:54.961108 22806 net.cpp:91] Creating Layer inception_5a/relu_1x1
I0403 18:33:54.961123 22806 net.cpp:425] inception_5a/relu_1x1 <- inception_5a/1x1
I0403 18:33:54.961141 22806 net.cpp:386] inception_5a/relu_1x1 -> inception_5a/1x1 (in-place)
I0403 18:33:54.961436 22806 net.cpp:141] Setting up inception_5a/relu_1x1
I0403 18:33:54.961462 22806 net.cpp:148] Top shape: 24 256 7 7 (301056)
I0403 18:33:54.961475 22806 net.cpp:156] Memory required for data: 1294534176
I0403 18:33:54.961489 22806 layer_factory.hpp:77] Creating layer inception_5a/3x3_reduce
I0403 18:33:54.961509 22806 net.cpp:91] Creating Layer inception_5a/3x3_reduce
I0403 18:33:54.961526 22806 net.cpp:425] inception_5a/3x3_reduce <- pool4/3x3_s2_pool4/3x3_s2_0_split_1
I0403 18:33:54.961550 22806 net.cpp:399] inception_5a/3x3_reduce -> inception_5a/3x3_reduce
I0403 18:33:54.963881 22806 net.cpp:141] Setting up inception_5a/3x3_reduce
I0403 18:33:54.963908 22806 net.cpp:148] Top shape: 24 160 7 7 (188160)
I0403 18:33:54.963923 22806 net.cpp:156] Memory required for data: 1295286816
I0403 18:33:54.963940 22806 layer_factory.hpp:77] Creating layer inception_5a/relu_3x3_reduce
I0403 18:33:54.963958 22806 net.cpp:91] Creating Layer inception_5a/relu_3x3_reduce
I0403 18:33:54.963974 22806 net.cpp:425] inception_5a/relu_3x3_reduce <- inception_5a/3x3_reduce
I0403 18:33:54.963991 22806 net.cpp:386] inception_5a/relu_3x3_reduce -> inception_5a/3x3_reduce (in-place)
I0403 18:33:54.964185 22806 net.cpp:141] Setting up inception_5a/relu_3x3_reduce
I0403 18:33:54.964210 22806 net.cpp:148] Top shape: 24 160 7 7 (188160)
I0403 18:33:54.964224 22806 net.cpp:156] Memory required for data: 1296039456
I0403 18:33:54.964237 22806 layer_factory.hpp:77] Creating layer inception_5a/3x3
I0403 18:33:54.964259 22806 net.cpp:91] Creating Layer inception_5a/3x3
I0403 18:33:54.964277 22806 net.cpp:425] inception_5a/3x3 <- inception_5a/3x3_reduce
I0403 18:33:54.964298 22806 net.cpp:399] inception_5a/3x3 -> inception_5a/3x3
I0403 18:33:54.969118 22806 net.cpp:141] Setting up inception_5a/3x3
I0403 18:33:54.969149 22806 net.cpp:148] Top shape: 24 320 7 7 (376320)
I0403 18:33:54.969166 22806 net.cpp:156] Memory required for data: 1297544736
I0403 18:33:54.969182 22806 layer_factory.hpp:77] Creating layer inception_5a/relu_3x3
I0403 18:33:54.969199 22806 net.cpp:91] Creating Layer inception_5a/relu_3x3
I0403 18:33:54.969215 22806 net.cpp:425] inception_5a/relu_3x3 <- inception_5a/3x3
I0403 18:33:54.969235 22806 net.cpp:386] inception_5a/relu_3x3 -> inception_5a/3x3 (in-place)
I0403 18:33:54.969538 22806 net.cpp:141] Setting up inception_5a/relu_3x3
I0403 18:33:54.969565 22806 net.cpp:148] Top shape: 24 320 7 7 (376320)
I0403 18:33:54.969580 22806 net.cpp:156] Memory required for data: 1299050016
I0403 18:33:54.969594 22806 layer_factory.hpp:77] Creating layer inception_5a/5x5_reduce
I0403 18:33:54.969616 22806 net.cpp:91] Creating Layer inception_5a/5x5_reduce
I0403 18:33:54.969635 22806 net.cpp:425] inception_5a/5x5_reduce <- pool4/3x3_s2_pool4/3x3_s2_0_split_2
I0403 18:33:54.969651 22806 net.cpp:399] inception_5a/5x5_reduce -> inception_5a/5x5_reduce
I0403 18:33:54.970757 22806 net.cpp:141] Setting up inception_5a/5x5_reduce
I0403 18:33:54.970784 22806 net.cpp:148] Top shape: 24 32 7 7 (37632)
I0403 18:33:54.970798 22806 net.cpp:156] Memory required for data: 1299200544
I0403 18:33:54.970815 22806 layer_factory.hpp:77] Creating layer inception_5a/relu_5x5_reduce
I0403 18:33:54.970832 22806 net.cpp:91] Creating Layer inception_5a/relu_5x5_reduce
I0403 18:33:54.970847 22806 net.cpp:425] inception_5a/relu_5x5_reduce <- inception_5a/5x5_reduce
I0403 18:33:54.970865 22806 net.cpp:386] inception_5a/relu_5x5_reduce -> inception_5a/5x5_reduce (in-place)
I0403 18:33:54.971156 22806 net.cpp:141] Setting up inception_5a/relu_5x5_reduce
I0403 18:33:54.971180 22806 net.cpp:148] Top shape: 24 32 7 7 (37632)
I0403 18:33:54.971194 22806 net.cpp:156] Memory required for data: 1299351072
I0403 18:33:54.971207 22806 layer_factory.hpp:77] Creating layer inception_5a/5x5
I0403 18:33:54.971227 22806 net.cpp:91] Creating Layer inception_5a/5x5
I0403 18:33:54.971243 22806 net.cpp:425] inception_5a/5x5 <- inception_5a/5x5_reduce
I0403 18:33:54.971263 22806 net.cpp:399] inception_5a/5x5 -> inception_5a/5x5
I0403 18:33:54.972910 22806 net.cpp:141] Setting up inception_5a/5x5
I0403 18:33:54.972949 22806 net.cpp:148] Top shape: 24 128 7 7 (150528)
I0403 18:33:54.972965 22806 net.cpp:156] Memory required for data: 1299953184
I0403 18:33:54.972982 22806 layer_factory.hpp:77] Creating layer inception_5a/relu_5x5
I0403 18:33:54.973000 22806 net.cpp:91] Creating Layer inception_5a/relu_5x5
I0403 18:33:54.973013 22806 net.cpp:425] inception_5a/relu_5x5 <- inception_5a/5x5
I0403 18:33:54.973031 22806 net.cpp:386] inception_5a/relu_5x5 -> inception_5a/5x5 (in-place)
I0403 18:33:54.973215 22806 net.cpp:141] Setting up inception_5a/relu_5x5
I0403 18:33:54.973238 22806 net.cpp:148] Top shape: 24 128 7 7 (150528)
I0403 18:33:54.973253 22806 net.cpp:156] Memory required for data: 1300555296
I0403 18:33:54.973266 22806 layer_factory.hpp:77] Creating layer inception_5a/pool
I0403 18:33:54.973283 22806 net.cpp:91] Creating Layer inception_5a/pool
I0403 18:33:54.973296 22806 net.cpp:425] inception_5a/pool <- pool4/3x3_s2_pool4/3x3_s2_0_split_3
I0403 18:33:54.973315 22806 net.cpp:399] inception_5a/pool -> inception_5a/pool
I0403 18:33:54.973382 22806 net.cpp:141] Setting up inception_5a/pool
I0403 18:33:54.973404 22806 net.cpp:148] Top shape: 24 832 7 7 (978432)
I0403 18:33:54.973418 22806 net.cpp:156] Memory required for data: 1304469024
I0403 18:33:54.973431 22806 layer_factory.hpp:77] Creating layer inception_5a/pool_proj
I0403 18:33:54.973453 22806 net.cpp:91] Creating Layer inception_5a/pool_proj
I0403 18:33:54.973469 22806 net.cpp:425] inception_5a/pool_proj <- inception_5a/pool
I0403 18:33:54.973489 22806 net.cpp:399] inception_5a/pool_proj -> inception_5a/pool_proj
I0403 18:33:54.975788 22806 net.cpp:141] Setting up inception_5a/pool_proj
I0403 18:33:54.975818 22806 net.cpp:148] Top shape: 24 128 7 7 (150528)
I0403 18:33:54.975834 22806 net.cpp:156] Memory required for data: 1305071136
I0403 18:33:54.975850 22806 layer_factory.hpp:77] Creating layer inception_5a/relu_pool_proj
I0403 18:33:54.975867 22806 net.cpp:91] Creating Layer inception_5a/relu_pool_proj
I0403 18:33:54.975883 22806 net.cpp:425] inception_5a/relu_pool_proj <- inception_5a/pool_proj
I0403 18:33:54.975898 22806 net.cpp:386] inception_5a/relu_pool_proj -> inception_5a/pool_proj (in-place)
I0403 18:33:54.976177 22806 net.cpp:141] Setting up inception_5a/relu_pool_proj
I0403 18:33:54.976204 22806 net.cpp:148] Top shape: 24 128 7 7 (150528)
I0403 18:33:54.976219 22806 net.cpp:156] Memory required for data: 1305673248
I0403 18:33:54.976233 22806 layer_factory.hpp:77] Creating layer inception_5a/output
I0403 18:33:54.976248 22806 net.cpp:91] Creating Layer inception_5a/output
I0403 18:33:54.976264 22806 net.cpp:425] inception_5a/output <- inception_5a/1x1
I0403 18:33:54.976280 22806 net.cpp:425] inception_5a/output <- inception_5a/3x3
I0403 18:33:54.976295 22806 net.cpp:425] inception_5a/output <- inception_5a/5x5
I0403 18:33:54.976310 22806 net.cpp:425] inception_5a/output <- inception_5a/pool_proj
I0403 18:33:54.976326 22806 net.cpp:399] inception_5a/output -> inception_5a/output
I0403 18:33:54.976374 22806 net.cpp:141] Setting up inception_5a/output
I0403 18:33:54.976397 22806 net.cpp:148] Top shape: 24 832 7 7 (978432)
I0403 18:33:54.976410 22806 net.cpp:156] Memory required for data: 1309586976
I0403 18:33:54.976423 22806 layer_factory.hpp:77] Creating layer inception_5a/output_inception_5a/output_0_split
I0403 18:33:54.976441 22806 net.cpp:91] Creating Layer inception_5a/output_inception_5a/output_0_split
I0403 18:33:54.976456 22806 net.cpp:425] inception_5a/output_inception_5a/output_0_split <- inception_5a/output
I0403 18:33:54.976472 22806 net.cpp:399] inception_5a/output_inception_5a/output_0_split -> inception_5a/output_inception_5a/output_0_split_0
I0403 18:33:54.976490 22806 net.cpp:399] inception_5a/output_inception_5a/output_0_split -> inception_5a/output_inception_5a/output_0_split_1
I0403 18:33:54.976510 22806 net.cpp:399] inception_5a/output_inception_5a/output_0_split -> inception_5a/output_inception_5a/output_0_split_2
I0403 18:33:54.976529 22806 net.cpp:399] inception_5a/output_inception_5a/output_0_split -> inception_5a/output_inception_5a/output_0_split_3
I0403 18:33:54.976655 22806 net.cpp:141] Setting up inception_5a/output_inception_5a/output_0_split
I0403 18:33:54.976676 22806 net.cpp:148] Top shape: 24 832 7 7 (978432)
I0403 18:33:54.976691 22806 net.cpp:148] Top shape: 24 832 7 7 (978432)
I0403 18:33:54.976704 22806 net.cpp:148] Top shape: 24 832 7 7 (978432)
I0403 18:33:54.976718 22806 net.cpp:148] Top shape: 24 832 7 7 (978432)
I0403 18:33:54.976732 22806 net.cpp:156] Memory required for data: 1325241888
I0403 18:33:54.976744 22806 layer_factory.hpp:77] Creating layer inception_5b/1x1
I0403 18:33:54.976764 22806 net.cpp:91] Creating Layer inception_5b/1x1
I0403 18:33:54.976781 22806 net.cpp:425] inception_5b/1x1 <- inception_5a/output_inception_5a/output_0_split_0
I0403 18:33:54.976800 22806 net.cpp:399] inception_5b/1x1 -> inception_5b/1x1
I0403 18:33:54.980399 22806 net.cpp:141] Setting up inception_5b/1x1
I0403 18:33:54.980427 22806 net.cpp:148] Top shape: 24 384 7 7 (451584)
I0403 18:33:54.980443 22806 net.cpp:156] Memory required for data: 1327048224
I0403 18:33:54.980459 22806 layer_factory.hpp:77] Creating layer inception_5b/relu_1x1
I0403 18:33:54.980479 22806 net.cpp:91] Creating Layer inception_5b/relu_1x1
I0403 18:33:54.980494 22806 net.cpp:425] inception_5b/relu_1x1 <- inception_5b/1x1
I0403 18:33:54.980511 22806 net.cpp:386] inception_5b/relu_1x1 -> inception_5b/1x1 (in-place)
I0403 18:33:54.980808 22806 net.cpp:141] Setting up inception_5b/relu_1x1
I0403 18:33:54.980831 22806 net.cpp:148] Top shape: 24 384 7 7 (451584)
I0403 18:33:54.980846 22806 net.cpp:156] Memory required for data: 1328854560
I0403 18:33:54.980859 22806 layer_factory.hpp:77] Creating layer inception_5b/3x3_reduce
I0403 18:33:54.980883 22806 net.cpp:91] Creating Layer inception_5b/3x3_reduce
I0403 18:33:54.980901 22806 net.cpp:425] inception_5b/3x3_reduce <- inception_5a/output_inception_5a/output_0_split_1
I0403 18:33:54.980918 22806 net.cpp:399] inception_5b/3x3_reduce -> inception_5b/3x3_reduce
I0403 18:33:54.983501 22806 net.cpp:141] Setting up inception_5b/3x3_reduce
I0403 18:33:54.983532 22806 net.cpp:148] Top shape: 24 192 7 7 (225792)
I0403 18:33:54.983552 22806 net.cpp:156] Memory required for data: 1329757728
I0403 18:33:54.983572 22806 layer_factory.hpp:77] Creating layer inception_5b/relu_3x3_reduce
I0403 18:33:54.983588 22806 net.cpp:91] Creating Layer inception_5b/relu_3x3_reduce
I0403 18:33:54.983604 22806 net.cpp:425] inception_5b/relu_3x3_reduce <- inception_5b/3x3_reduce
I0403 18:33:54.983621 22806 net.cpp:386] inception_5b/relu_3x3_reduce -> inception_5b/3x3_reduce (in-place)
I0403 18:33:54.983808 22806 net.cpp:141] Setting up inception_5b/relu_3x3_reduce
I0403 18:33:54.983830 22806 net.cpp:148] Top shape: 24 192 7 7 (225792)
I0403 18:33:54.983845 22806 net.cpp:156] Memory required for data: 1330660896
I0403 18:33:54.983858 22806 layer_factory.hpp:77] Creating layer inception_5b/3x3
I0403 18:33:54.983880 22806 net.cpp:91] Creating Layer inception_5b/3x3
I0403 18:33:54.983897 22806 net.cpp:425] inception_5b/3x3 <- inception_5b/3x3_reduce
I0403 18:33:54.983918 22806 net.cpp:399] inception_5b/3x3 -> inception_5b/3x3
I0403 18:33:54.990339 22806 net.cpp:141] Setting up inception_5b/3x3
I0403 18:33:54.990368 22806 net.cpp:148] Top shape: 24 384 7 7 (451584)
I0403 18:33:54.990383 22806 net.cpp:156] Memory required for data: 1332467232
I0403 18:33:54.990401 22806 layer_factory.hpp:77] Creating layer inception_5b/relu_3x3
I0403 18:33:54.990417 22806 net.cpp:91] Creating Layer inception_5b/relu_3x3
I0403 18:33:54.990432 22806 net.cpp:425] inception_5b/relu_3x3 <- inception_5b/3x3
I0403 18:33:54.990448 22806 net.cpp:386] inception_5b/relu_3x3 -> inception_5b/3x3 (in-place)
I0403 18:33:54.990738 22806 net.cpp:141] Setting up inception_5b/relu_3x3
I0403 18:33:54.990766 22806 net.cpp:148] Top shape: 24 384 7 7 (451584)
I0403 18:33:54.990780 22806 net.cpp:156] Memory required for data: 1334273568
I0403 18:33:54.990794 22806 layer_factory.hpp:77] Creating layer inception_5b/5x5_reduce
I0403 18:33:54.990829 22806 net.cpp:91] Creating Layer inception_5b/5x5_reduce
I0403 18:33:54.990847 22806 net.cpp:425] inception_5b/5x5_reduce <- inception_5a/output_inception_5a/output_0_split_2
I0403 18:33:54.990865 22806 net.cpp:399] inception_5b/5x5_reduce -> inception_5b/5x5_reduce
I0403 18:33:54.992075 22806 net.cpp:141] Setting up inception_5b/5x5_reduce
I0403 18:33:54.992105 22806 net.cpp:148] Top shape: 24 48 7 7 (56448)
I0403 18:33:54.992120 22806 net.cpp:156] Memory required for data: 1334499360
I0403 18:33:54.992137 22806 layer_factory.hpp:77] Creating layer inception_5b/relu_5x5_reduce
I0403 18:33:54.992153 22806 net.cpp:91] Creating Layer inception_5b/relu_5x5_reduce
I0403 18:33:54.992168 22806 net.cpp:425] inception_5b/relu_5x5_reduce <- inception_5b/5x5_reduce
I0403 18:33:54.992187 22806 net.cpp:386] inception_5b/relu_5x5_reduce -> inception_5b/5x5_reduce (in-place)
I0403 18:33:54.992552 22806 net.cpp:141] Setting up inception_5b/relu_5x5_reduce
I0403 18:33:54.992576 22806 net.cpp:148] Top shape: 24 48 7 7 (56448)
I0403 18:33:54.992590 22806 net.cpp:156] Memory required for data: 1334725152
I0403 18:33:54.992604 22806 layer_factory.hpp:77] Creating layer inception_5b/5x5
I0403 18:33:54.992622 22806 net.cpp:91] Creating Layer inception_5b/5x5
I0403 18:33:54.992638 22806 net.cpp:425] inception_5b/5x5 <- inception_5b/5x5_reduce
I0403 18:33:54.992655 22806 net.cpp:399] inception_5b/5x5 -> inception_5b/5x5
I0403 18:33:54.994642 22806 net.cpp:141] Setting up inception_5b/5x5
I0403 18:33:54.994668 22806 net.cpp:148] Top shape: 24 128 7 7 (150528)
I0403 18:33:54.994683 22806 net.cpp:156] Memory required for data: 1335327264
I0403 18:33:54.994700 22806 layer_factory.hpp:77] Creating layer inception_5b/relu_5x5
I0403 18:33:54.994716 22806 net.cpp:91] Creating Layer inception_5b/relu_5x5
I0403 18:33:54.994731 22806 net.cpp:425] inception_5b/relu_5x5 <- inception_5b/5x5
I0403 18:33:54.994750 22806 net.cpp:386] inception_5b/relu_5x5 -> inception_5b/5x5 (in-place)
I0403 18:33:54.994937 22806 net.cpp:141] Setting up inception_5b/relu_5x5
I0403 18:33:54.994961 22806 net.cpp:148] Top shape: 24 128 7 7 (150528)
I0403 18:33:54.994974 22806 net.cpp:156] Memory required for data: 1335929376
I0403 18:33:54.994987 22806 layer_factory.hpp:77] Creating layer inception_5b/pool
I0403 18:33:54.995007 22806 net.cpp:91] Creating Layer inception_5b/pool
I0403 18:33:54.995023 22806 net.cpp:425] inception_5b/pool <- inception_5a/output_inception_5a/output_0_split_3
I0403 18:33:54.995039 22806 net.cpp:399] inception_5b/pool -> inception_5b/pool
I0403 18:33:54.995112 22806 net.cpp:141] Setting up inception_5b/pool
I0403 18:33:54.995134 22806 net.cpp:148] Top shape: 24 832 7 7 (978432)
I0403 18:33:54.995148 22806 net.cpp:156] Memory required for data: 1339843104
I0403 18:33:54.995162 22806 layer_factory.hpp:77] Creating layer inception_5b/pool_proj
I0403 18:33:54.995182 22806 net.cpp:91] Creating Layer inception_5b/pool_proj
I0403 18:33:54.995198 22806 net.cpp:425] inception_5b/pool_proj <- inception_5b/pool
I0403 18:33:54.995218 22806 net.cpp:399] inception_5b/pool_proj -> inception_5b/pool_proj
I0403 18:33:54.997416 22806 net.cpp:141] Setting up inception_5b/pool_proj
I0403 18:33:54.997447 22806 net.cpp:148] Top shape: 24 128 7 7 (150528)
I0403 18:33:54.997462 22806 net.cpp:156] Memory required for data: 1340445216
I0403 18:33:54.997478 22806 layer_factory.hpp:77] Creating layer inception_5b/relu_pool_proj
I0403 18:33:54.997495 22806 net.cpp:91] Creating Layer inception_5b/relu_pool_proj
I0403 18:33:54.997511 22806 net.cpp:425] inception_5b/relu_pool_proj <- inception_5b/pool_proj
I0403 18:33:54.997529 22806 net.cpp:386] inception_5b/relu_pool_proj -> inception_5b/pool_proj (in-place)
I0403 18:33:54.997817 22806 net.cpp:141] Setting up inception_5b/relu_pool_proj
I0403 18:33:54.997843 22806 net.cpp:148] Top shape: 24 128 7 7 (150528)
I0403 18:33:54.997859 22806 net.cpp:156] Memory required for data: 1341047328
I0403 18:33:54.997872 22806 layer_factory.hpp:77] Creating layer inception_5b/output
I0403 18:33:54.997889 22806 net.cpp:91] Creating Layer inception_5b/output
I0403 18:33:54.997917 22806 net.cpp:425] inception_5b/output <- inception_5b/1x1
I0403 18:33:54.997933 22806 net.cpp:425] inception_5b/output <- inception_5b/3x3
I0403 18:33:54.997948 22806 net.cpp:425] inception_5b/output <- inception_5b/5x5
I0403 18:33:54.997962 22806 net.cpp:425] inception_5b/output <- inception_5b/pool_proj
I0403 18:33:54.997980 22806 net.cpp:399] inception_5b/output -> inception_5b/output
I0403 18:33:54.998029 22806 net.cpp:141] Setting up inception_5b/output
I0403 18:33:54.998052 22806 net.cpp:148] Top shape: 24 1024 7 7 (1204224)
I0403 18:33:54.998067 22806 net.cpp:156] Memory required for data: 1345864224
I0403 18:33:54.998080 22806 layer_factory.hpp:77] Creating layer pool5/7x7_s1
I0403 18:33:54.998100 22806 net.cpp:91] Creating Layer pool5/7x7_s1
I0403 18:33:54.998116 22806 net.cpp:425] pool5/7x7_s1 <- inception_5b/output
I0403 18:33:54.998132 22806 net.cpp:399] pool5/7x7_s1 -> pool5/7x7_s1
I0403 18:33:54.998356 22806 net.cpp:141] Setting up pool5/7x7_s1
I0403 18:33:54.998380 22806 net.cpp:148] Top shape: 24 1024 1 1 (24576)
I0403 18:33:54.998394 22806 net.cpp:156] Memory required for data: 1345962528
I0403 18:33:54.998407 22806 layer_factory.hpp:77] Creating layer pool5/drop_7x7_s1
I0403 18:33:54.998425 22806 net.cpp:91] Creating Layer pool5/drop_7x7_s1
I0403 18:33:54.998440 22806 net.cpp:425] pool5/drop_7x7_s1 <- pool5/7x7_s1
I0403 18:33:54.998458 22806 net.cpp:386] pool5/drop_7x7_s1 -> pool5/7x7_s1 (in-place)
I0403 18:33:54.998507 22806 net.cpp:141] Setting up pool5/drop_7x7_s1
I0403 18:33:54.998548 22806 net.cpp:148] Top shape: 24 1024 1 1 (24576)
I0403 18:33:54.998569 22806 net.cpp:156] Memory required for data: 1346060832
I0403 18:33:54.998582 22806 layer_factory.hpp:77] Creating layer loss3/classifier_plantvillage
I0403 18:33:54.998615 22806 net.cpp:91] Creating Layer loss3/classifier_plantvillage
I0403 18:33:54.998632 22806 net.cpp:425] loss3/classifier_plantvillage <- pool5/7x7_s1
I0403 18:33:54.998653 22806 net.cpp:399] loss3/classifier_plantvillage -> loss3/classifier_plantvillage
I0403 18:33:54.999075 22806 net.cpp:141] Setting up loss3/classifier_plantvillage
I0403 18:33:54.999099 22806 net.cpp:148] Top shape: 24 38 (912)
I0403 18:33:54.999112 22806 net.cpp:156] Memory required for data: 1346064480
I0403 18:33:54.999130 22806 layer_factory.hpp:77] Creating layer loss3/classifier_plantvillage_loss3/classifier_plantvillage_0_split
I0403 18:33:54.999148 22806 net.cpp:91] Creating Layer loss3/classifier_plantvillage_loss3/classifier_plantvillage_0_split
I0403 18:33:54.999166 22806 net.cpp:425] loss3/classifier_plantvillage_loss3/classifier_plantvillage_0_split <- loss3/classifier_plantvillage
I0403 18:33:54.999181 22806 net.cpp:399] loss3/classifier_plantvillage_loss3/classifier_plantvillage_0_split -> loss3/classifier_plantvillage_loss3/classifier_plantvillage_0_split_0
I0403 18:33:54.999200 22806 net.cpp:399] loss3/classifier_plantvillage_loss3/classifier_plantvillage_0_split -> loss3/classifier_plantvillage_loss3/classifier_plantvillage_0_split_1
I0403 18:33:54.999219 22806 net.cpp:399] loss3/classifier_plantvillage_loss3/classifier_plantvillage_0_split -> loss3/classifier_plantvillage_loss3/classifier_plantvillage_0_split_2
I0403 18:33:54.999253 22806 net.cpp:399] loss3/classifier_plantvillage_loss3/classifier_plantvillage_0_split -> loss3/classifier_plantvillage_loss3/classifier_plantvillage_0_split_3
I0403 18:33:54.999352 22806 net.cpp:141] Setting up loss3/classifier_plantvillage_loss3/classifier_plantvillage_0_split
I0403 18:33:54.999375 22806 net.cpp:148] Top shape: 24 38 (912)
I0403 18:33:54.999392 22806 net.cpp:148] Top shape: 24 38 (912)
I0403 18:33:54.999405 22806 net.cpp:148] Top shape: 24 38 (912)
I0403 18:33:54.999419 22806 net.cpp:148] Top shape: 24 38 (912)
I0403 18:33:54.999433 22806 net.cpp:156] Memory required for data: 1346079072
I0403 18:33:54.999445 22806 layer_factory.hpp:77] Creating layer loss1/loss
I0403 18:33:54.999465 22806 net.cpp:91] Creating Layer loss1/loss
I0403 18:33:54.999481 22806 net.cpp:425] loss1/loss <- loss1/classifier_plantvillage_loss1/classifier_plantvillage_0_split_0
I0403 18:33:54.999512 22806 net.cpp:425] loss1/loss <- label_data_1_split_0
…
