…
I0403 18:13:23.122218 21745 net.cpp:313] The NetState phase (1) differed from the phase (0) specified by a rule in layer data
I0403 18:13:23.124822 21745 net.cpp:49] Initializing net from parameters: 
state {
  phase: TEST
}
layer {
  name: "data"
  type: "Data"
  top: "data"
  top: "label"
  include {
    phase: TEST
  }
  transform_param {
    mirror: false
    crop_size: 224
    mean_file: "/home/mohanty/data/final_dataset/lmdb/segmented-40-60/mean.binaryproto"
  }
  data_param {
    source: "/home/mohanty/data/final_dataset/lmdb/segmented-40-60/test_db"
    batch_size: 24
    backend: LMDB
  }
}
layer {
  name: "conv1/7x7_s2"
  type: "Convolution"
  bottom: "data"
  top: "conv1/7x7_s2"
  param {
    lr_mult: 1
    decay_mult: 1
  }
  param {
    lr_mult: 2
    decay_mult: 0
  }
  convolution_param {
    num_output: 64
    pad: 3
    kernel_size: 7
    stride: 2
    weight_filler {
      type: "xavier"
      std: 0.1
    }
    bias_filler {
      type: "constant"
      value: 0.2
    }
  }
}
layer {
  name: "conv1/relu_7x7"
  type: "ReLU"
  bottom: "conv1/7x7_s2"
  top: "conv1/7x7_s2"
}
layer {
  name: "pool1/3x3_s2"
  type: "Pooling"
  bottom: "conv1/7x7_s2"
  top: "pool1/3x3_s2"
  pooling_param {
    pool: MAX
    kernel_size: 3
    stride: 2
  }
}
layer {
  name: "pool1/norm1"
  type: "LRN"
  bottom: "pool1/3x3_s2"
  top: "pool1/norm1"
  lrn_param {
    local_size: 5
    alpha: 0.0001
    beta: 0.75
  }
}
layer {
  name: "conv2/3x3_reduce"
  type: "Convolution"
  bottom: "pool1/norm1"
  top: "conv2/3x3_reduce"
  param {
    lr_mult: 1
    decay_mult: 1
  }
  param {
    lr_mult: 2
    decay_mult: 0
  }
  convolution_param {
    num_output: 64
    kernel_size: 1
    weight_filler {
      type: "xavier"
      std: 0.1
    }
    bias_filler {
      type: "constant"
      value: 0.2
    }
  }
}
layer {
  name: "conv2/relu_3x3_reduce"
  type: "ReLU"
  bottom: "conv2/3x3_reduce"
  top: "conv2/3x3_reduce"
}
layer {
  name: "conv2/3x3"
  type: "Convolution"
  bottom: "conv2/3x3_reduce"
  top: "conv2/3x3"
  param {
    lr_mult: 1
    decay_mult: 1
  }
  param {
    lr_mult: 2
    decay_mult: 0
  }
  convolution_param {
    num_output: 192
    pad: 1
    kernel_size: 3
    weight_filler {
      type: "xavier"
      std: 0.03
    }
    bias_filler {
      type: "constant"
      value: 0.2
    }
  }
}
layer {
  name: "conv2/relu_3x3"
  type: "ReLU"
  bottom: "conv2/3x3"
  top: "conv2/3x3"
}
layer {
  name: "conv2/norm2"
  type: "LRN"
  bottom: "conv2/3x3"
  top: "conv2/norm2"
  lrn_param {
    local_size: 5
    alpha: 0.0001
    beta: 0.75
  }
}
layer {
  name: "pool2/3x3_s2"
  type: "Pooling"
  bottom: "conv2/norm2"
  top: "pool2/3x3_s2"
  pooling_param {
    pool: MAX
    kernel_size: 3
    stride: 2
  }
}
layer {
  name: "inception_3a/1x1"
  type: "Convolution"
  bottom: "pool2/3x3_s2"
  top: "inception_3a/1x1"
  param {
    lr_mult: 1
    decay_mult: 1
  }
  param {
    lr_mult: 2
    decay_mult: 0
  }
  convolution_param {
    num_output: 64
    kernel_size: 1
    weight_filler {
      type: "xavier"
      std: 0.03
    }
    bias_filler {
      type: "constant"
      value: 0.2
    }
  }
}
layer {
  name: "inception_3a/relu_1x1"
  type: "ReLU"
  bottom: "inception_3a/1x1"
  top: "inception_3a/1x1"
}
layer {
  name: "inception_3a/3x3_reduce"
  type: "Convolution"
  bottom: "pool2/3x3_s2"
  top: "inception_3a/3x3_reduce"
  param {
    lr_mult: 1
    decay_mult: 1
  }
  param {
    lr_mult: 2
    decay_mult: 0
  }
  convolution_param {
    num_output: 96
    kernel_size: 1
    weight_filler {
      type: "xavier"
      std: 0.09
    }
    bias_filler {
      type: "constant"
      value: 0.2
    }
  }
}
layer {
  name: "inception_3a/relu_3x3_reduce"
  type: "ReLU"
  bottom: "inception_3a/3x3_reduce"
  top: "inception_3a/3x3_reduce"
}
layer {
  name: "inception_3a/3x3"
  type: "Convolution"
  bottom: "inception_3a/3x3_reduce"
  top: "inception_3a/3x3"
  param {
    lr_mult: 1
    decay_mult: 1
  }
  param {
    lr_mult: 2
    decay_mult: 0
  }
  convolution_param {
    num_output: 128
    pad: 1
    kernel_size: 3
    weight_filler {
      type: "xavier"
      std: 0.03
    }
    bias_filler {
      type: "constant"
      value: 0.2
    }
  }
}
layer {
  name: "inception_3a/relu_3x3"
  type: "ReLU"
  bottom: "inception_3a/3x3"
  top: "inception_3a/3x3"
}
layer {
  name: "inception_3a/5x5_reduce"
  type: "Convolution"
  bottom: "pool2/3x3_s2"
  top: "inception_3a/5x5_reduce"
  param {
    lr_mult: 1
    decay_mult: 1
  }
  param {
    lr_mult: 2
    decay_mult: 0
  }
  convolution_param {
    num_output: 16
    kernel_size: 1
    weight_filler {
      type: "xavier"
      std: 0.2
    }
    bias_filler {
      type: "constant"
      value: 0.2
    }
  }
}
layer {
  name: "inception_3a/relu_5x5_reduce"
  type: "ReLU"
  bottom: "inception_3a/5x5_reduce"
  top: "inception_3a/5x5_reduce"
}
layer {
  name: "inception_3a/5x5"
  type: "Convolution"
  bottom: "inception_3a/5x5_reduce"
  top: "inception_3a/5x5"
  param {
    lr_mult: 1
    decay_mult: 1
  }
  param {
    lr_mult: 2
    decay_mult: 0
  }
  convolution_param {
    num_output: 32
    pad: 2
    kernel_size: 5
    weight_filler {
      type: "xavier"
      std: 0.03
    }
    bias_filler {
      type: "constant"
      value: 0.2
    }
  }
}
layer {
  name: "inception_3a/relu_5x5"
  type: "ReLU"
  bottom: "inception_3a/5x5"
  top: "inception_3a/5x5"
}
layer {
  name: "inception_3a/pool"
  type: "Pooling"
  bottom: "pool2/3x3_s2"
  top: "inception_3a/pool"
  pooling_param {
    pool: MAX
    kernel_size: 3
    stride: 1
    pad: 1
  }
}
layer {
  name: "inception_3a/pool_proj"
  type: "Convolution"
  bottom: "inception_3a/pool"
  top: "inception_3a/pool_proj"
  param {
    lr_mult: 1
    decay_mult: 1
  }
  param {
    lr_mult: 2
    decay_mult: 0
  }
  convolution_param {
    num_output: 32
    kernel_size: 1
    weight_filler {
      type: "xavier"
      std: 0.1
    }
    bias_filler {
      type: "constant"
      value: 0.2
    }
  }
}
layer {
  name: "inception_3a/relu_pool_proj"
  type: "ReLU"
  bottom: "inception_3a/pool_proj"
  top: "inception_3a/pool_proj"
}
layer {
  name: "inception_3a/output"
  type: "Concat"
  bottom: "inception_3a/1x1"
  bottom: "inception_3a/3x3"
  bottom: "inception_3a/5x5"
  bottom: "inception_3a/pool_proj"
  top: "inception_3a/output"
}
layer {
  name: "inception_3b/1x1"
  type: "Convolution"
  bottom: "inception_3a/output"
  top: "inception_3b/1x1"
  param {
    lr_mult: 1
    decay_mult: 1
  }
  param {
    lr_mult: 2
    decay_mult: 0
  }
  convolution_param {
    num_output: 128
    kernel_size: 1
    weight_filler {
      type: "xavier"
      std: 0.03
    }
    bias_filler {
      type: "constant"
      value: 0.2
    }
  }
}
layer {
  name: "inception_3b/relu_1x1"
  type: "ReLU"
  bottom: "inception_3b/1x1"
  top: "inception_3b/1x1"
}
layer {
  name: "inception_3b/3x3_reduce"
  type: "Convolution"
  bottom: "inception_3a/output"
  top: "inception_3b/3x3_reduce"
  param {
    lr_mult: 1
    decay_mult: 1
  }
  param {
    lr_mult: 2
    decay_mult: 0
  }
  convolution_param {
    num_output: 128
    kernel_size: 1
    weight_filler {
      type: "xavier"
      std: 0.09
    }
    bias_filler {
      type: "constant"
      value: 0.2
    }
  }
}
layer {
  name: "inception_3b/relu_3x3_reduce"
  type: "ReLU"
  bottom: "inception_3b/3x3_reduce"
  top: "inception_3b/3x3_reduce"
}
layer {
  name: "inception_3b/3x3"
  type: "Convolution"
  bottom: "inception_3b/3x3_reduce"
  top: "inception_3b/3x3"
  param {
    lr_mult: 1
    decay_mult: 1
  }
  param {
    lr_mult: 2
    decay_mult: 0
  }
  convolution_param {
    num_output: 192
    pad: 1
    kernel_size: 3
    weight_filler {
      type: "xavier"
      std: 0.03
    }
    bias_filler {
      type: "constant"
      value: 0.2
    }
  }
}
layer {
  name: "inception_3b/relu_3x3"
  type: "ReLU"
  bottom: "inception_3b/3x3"
  top: "inception_3b/3x3"
}
layer {
  name: "inception_3b/5x5_reduce"
  type: "Convolution"
  bottom: "inception_3a/output"
  top: "inception_3b/5x5_reduce"
  param {
    lr_mult: 1
    decay_mult: 1
  }
  param {
    lr_mult: 2
    decay_mult: 0
  }
  convolution_param {
    num_output: 32
    kernel_size: 1
    weight_filler {
      type: "xavier"
      std: 0.2
    }
    bias_filler {
      type: "constant"
      value: 0.2
    }
  }
}
layer {
  name: "inception_3b/relu_5x5_reduce"
  type: "ReLU"
  bottom: "inception_3b/5x5_reduce"
  top: "inception_3b/5x5_reduce"
}
layer {
  name: "inception_3b/5x5"
  type: "Convolution"
  bottom: "inception_3b/5x5_reduce"
  top: "inception_3b/5x5"
  param {
    lr_mult: 1
    decay_mult: 1
  }
  param {
    lr_mult: 2
    decay_mult: 0
  }
  convolution_param {
    num_output: 96
    pad: 2
    kernel_size: 5
    weight_filler {
      type: "xavier"
      std: 0.03
    }
    bias_filler {
      type: "constant"
      value: 0.2
    }
  }
}
layer {
  name: "inception_3b/relu_5x5"
  type: "ReLU"
  bottom: "inception_3b/5x5"
  top: "inception_3b/5x5"
}
layer {
  name: "inception_3b/pool"
  type: "Pooling"
  bottom: "inception_3a/output"
  top: "inception_3b/pool"
  pooling_param {
    pool: MAX
    kernel_size: 3
    stride: 1
    pad: 1
  }
}
layer {
  name: "inception_3b/pool_proj"
  type: "Convolution"
  bottom: "inception_3b/pool"
  top: "inception_3b/pool_proj"
  param {
    lr_mult: 1
    decay_mult: 1
  }
  param {
    lr_mult: 2
    decay_mult: 0
  }
  convolution_param {
    num_output: 64
    kernel_size: 1
    weight_filler {
      type: "xavier"
      std: 0.1
    }
    bias_filler {
      type: "constant"
      value: 0.2
    }
  }
}
layer {
  name: "inception_3b/relu_pool_proj"
  type: "ReLU"
  bottom: "inception_3b/pool_proj"
  top: "inception_3b/pool_proj"
}
layer {
  name: "inception_3b/output"
  type: "Concat"
  bottom: "inception_3b/1x1"
  bottom: "inception_3b/3x3"
  bottom: "inception_3b/5x5"
  bottom: "inception_3b/pool_proj"
  top: "inception_3b/output"
}
layer {
  name: "pool3/3x3_s2"
  type: "Pooling"
  bottom: "inception_3b/output"
  top: "pool3/3x3_s2"
  pooling_param {
    pool: MAX
    kernel_size: 3
    stride: 2
  }
}
layer {
  name: "inception_4a/1x1"
  type: "Convolution"
  bottom: "pool3/3x3_s2"
  top: "inception_4a/1x1"
  param {
    lr_mult: 1
    decay_mult: 1
  }
  param {
    lr_mult: 2
    decay_mult: 0
  }
  convolution_param {
    num_output: 192
    kernel_size: 1
    weight_filler {
      type: "xavier"
      std: 0.03
    }
    bias_filler {
      type: "constant"
      value: 0.2
    }
  }
}
layer {
  name: "inception_4a/relu_1x1"
  type: "ReLU"
  bottom: "inception_4a/1x1"
  top: "inception_4a/1x1"
}
layer {
  name: "inception_4a/3x3_reduce"
  type: "Convolution"
  bottom: "pool3/3x3_s2"
  top: "inception_4a/3x3_reduce"
  param {
    lr_mult: 1
    decay_mult: 1
  }
  param {
    lr_mult: 2
    decay_mult: 0
  }
  convolution_param {
    num_output: 96
    kernel_size: 1
    weight_filler {
      type: "xavier"
      std: 0.09
    }
    bias_filler {
      type: "constant"
      value: 0.2
    }
  }
}
layer {
  name: "inception_4a/relu_3x3_reduce"
  type: "ReLU"
  bottom: "inception_4a/3x3_reduce"
  top: "inception_4a/3x3_reduce"
}
layer {
  name: "inception_4a/3x3"
  type: "Convolution"
  bottom: "inception_4a/3x3_reduce"
  top: "inception_4a/3x3"
  param {
    lr_mult: 1
    decay_mult: 1
  }
  param {
    lr_mult: 2
    decay_mult: 0
  }
  convolution_param {
    num_output: 208
    pad: 1
    kernel_size: 3
    weight_filler {
      type: "xavier"
      std: 0.03
    }
    bias_filler {
      type: "constant"
      value: 0.2
    }
  }
}
layer {
  name: "inception_4a/relu_3x3"
  type: "ReLU"
  bottom: "inception_4a/3x3"
  top: "inception_4a/3x3"
}
layer {
  name: "inception_4a/5x5_reduce"
  type: "Convolution"
  bottom: "pool3/3x3_s2"
  top: "inception_4a/5x5_reduce"
  param {
    lr_mult: 1
    decay_mult: 1
  }
  param {
    lr_mult: 2
    decay_mult: 0
  }
  convolution_param {
    num_output: 16
    kernel_size: 1
    weight_filler {
      type: "xavier"
      std: 0.2
    }
    bias_filler {
      type: "constant"
      value: 0.2
    }
  }
}
layer {
  name: "inception_4a/relu_5x5_reduce"
  type: "ReLU"
  bottom: "inception_4a/5x5_reduce"
  top: "inception_4a/5x5_reduce"
}
layer {
  name: "inception_4a/5x5"
  type: "Convolution"
  bottom: "inception_4a/5x5_reduce"
  top: "inception_4a/5x5"
  param {
    lr_mult: 1
    decay_mult: 1
  }
  param {
    lr_mult: 2
    decay_mult: 0
  }
  convolution_param {
    num_output: 48
    pad: 2
    kernel_size: 5
    weight_filler {
      type: "xavier"
      std: 0.03
    }
    bias_filler {
      type: "constant"
      value: 0.2
    }
  }
}
layer {
  name: "inception_4a/relu_5x5"
  type: "ReLU"
  bottom: "inception_4a/5x5"
  top: "inception_4a/5x5"
}
layer {
  name: "inception_4a/pool"
  type: "Pooling"
  bottom: "pool3/3x3_s2"
  top: "inception_4a/pool"
  pooling_param {
    pool: MAX
    kernel_size: 3
    stride: 1
    pad: 1
  }
}
layer {
  name: "inception_4a/pool_proj"
  type: "Convolution"
  bottom: "inception_4a/pool"
  top: "inception_4a/pool_proj"
  param {
    lr_mult: 1
    decay_mult: 1
  }
  param {
    lr_mult: 2
    decay_mult: 0
  }
  convolution_param {
    num_output: 64
    kernel_size: 1
    weight_filler {
      type: "xavier"
      std: 0.1
    }
    bias_filler {
      type: "constant"
      value: 0.2
    }
  }
}
layer {
  name: "inception_4a/relu_pool_proj"
  type: "ReLU"
  bottom: "inception_4a/pool_proj"
  top: "inception_4a/pool_proj"
}
layer {
  name: "inception_4a/output"
  type: "Concat"
  bottom: "inception_4a/1x1"
  bottom: "inception_4a/3x3"
  bottom: "inception_4a/5x5"
  bottom: "inception_4a/pool_proj"
  top: "inception_4a/output"
}
layer {
  name: "loss1/ave_pool"
  type: "Pooling"
  bottom: "inception_4a/output"
  top: "loss1/ave_pool"
  pooling_param {
    pool: AVE
    kernel_size: 5
    stride: 3
  }
}
layer {
  name: "loss1/conv"
  type: "Convolution"
  bottom: "loss1/ave_pool"
  top: "loss1/conv"
  param {
    lr_mult: 1
    decay_mult: 1
  }
  param {
    lr_mult: 2
    decay_mult: 0
  }
  convolution_param {
    num_output: 128
    kernel_size: 1
    weight_filler {
      type: "xavier"
      std: 0.08
    }
    bias_filler {
      type: "constant"
      value: 0.2
    }
  }
}
layer {
  name: "loss1/relu_conv"
  type: "ReLU"
  bottom: "loss1/conv"
  top: "loss1/conv"
}
layer {
  name: "loss1/fc"
  type: "InnerProduct"
  bottom: "loss1/conv"
  top: "loss1/fc"
  param {
    lr_mult: 1
    decay_mult: 1
  }
  param {
    lr_mult: 2
    decay_mult: 0
  }
  inner_product_param {
    num_output: 1024
    weight_filler {
      type: "xavier"
      std: 0.02
    }
    bias_filler {
      type: "constant"
      value: 0.2
    }
  }
}
layer {
  name: "loss1/relu_fc"
  type: "ReLU"
  bottom: "loss1/fc"
  top: "loss1/fc"
}
layer {
  name: "loss1/drop_fc"
  type: "Dropout"
  bottom: "loss1/fc"
  top: "loss1/fc"
  dropout_param {
    dropout_ratio: 0.7
  }
}
layer {
  name: "loss1/classifier_plantvillage"
  type: "InnerProduct"
  bottom: "loss1/fc"
  top: "loss1/classifier_plantvillage"
  param {
    lr_mult: 1
    decay_mult: 1
  }
  param {
    lr_mult: 2
    decay_mult: 0
  }
  inner_product_param {
    num_output: 38
    weight_filler {
      type: "xavier"
      std: 0.0009765625
    }
    bias_filler {
      type: "constant"
      value: 0
    }
  }
}
layer {
  name: "inception_4b/1x1"
  type: "Convolution"
  bottom: "inception_4a/output"
  top: "inception_4b/1x1"
  param {
    lr_mult: 1
    decay_mult: 1
  }
  param {
    lr_mult: 2
    decay_mult: 0
  }
  convolution_param {
    num_output: 160
    kernel_size: 1
    weight_filler {
      type: "xavier"
      std: 0.03
    }
    bias_filler {
      type: "constant"
      value: 0.2
    }
  }
}
layer {
  name: "inception_4b/relu_1x1"
  type: "ReLU"
  bottom: "inception_4b/1x1"
  top: "inception_4b/1x1"
}
layer {
  name: "inception_4b/3x3_reduce"
  type: "Convolution"
  bottom: "inception_4a/output"
  top: "inception_4b/3x3_reduce"
  param {
    lr_mult: 1
    decay_mult: 1
  }
  param {
    lr_mult: 2
    decay_mult: 0
  }
  convolution_param {
    num_output: 112
    kernel_size: 1
    weight_filler {
      type: "xavier"
      std: 0.09
    }
    bias_filler {
      type: "constant"
      value: 0.2
    }
  }
}
layer {
  name: "inception_4b/relu_3x3_reduce"
  type: "ReLU"
  bottom: "inception_4b/3x3_reduce"
  top: "inception_4b/3x3_reduce"
}
layer {
  name: "inception_4b/3x3"
  type: "Convolution"
  bottom: "inception_4b/3x3_reduce"
  top: "inception_4b/3x3"
  param {
    lr_mult: 1
    decay_mult: 1
  }
  param {
    lr_mult: 2
    decay_mult: 0
  }
  convolution_param {
    num_output: 224
    pad: 1
    kernel_size: 3
    weight_filler {
      type: "xavier"
      std: 0.03
    }
    bias_filler {
      type: "constant"
      value: 0.2
    }
  }
}
layer {
  name: "inception_4b/relu_3x3"
  type: "ReLU"
  bottom: "inception_4b/3x3"
  top: "inception_4b/3x3"
}
layer {
  name: "inception_4b/5x5_reduce"
  type: "Convolution"
  bottom: "inception_4a/output"
  top: "inception_4b/5x5_reduce"
  param {
    lr_mult: 1
    decay_mult: 1
  }
  param {
    lr_mult: 2
    decay_mult: 0
  }
  convolution_param {
    num_output: 24
    kernel_size: 1
    weight_filler {
      type: "xavier"
      std: 0.2
    }
    bias_filler {
      type: "constant"
      value: 0.2
    }
  }
}
layer {
  name: "inception_4b/relu_5x5_reduce"
  type: "ReLU"
  bottom: "inception_4b/5x5_reduce"
  top: "inception_4b/5x5_reduce"
}
layer {
  name: "inception_4b/5x5"
  type: "Convolution"
  bottom: "inception_4b/5x5_reduce"
  top: "inception_4b/5x5"
  param {
    lr_mult: 1
    decay_mult: 1
  }
  param {
    lr_mult: 2
    decay_mult: 0
  }
  convolution_param {
    num_output: 64
    pad: 2
    kernel_size: 5
    weight_filler {
      type: "xavier"
      std: 0.03
    }
    bias_filler {
      type: "constant"
      value: 0.2
    }
  }
}
layer {
  name: "inception_4b/relu_5x5"
  type: "ReLU"
  bottom: "inception_4b/5x5"
  top: "inception_4b/5x5"
}
layer {
  name: "inception_4b/pool"
  type: "Pooling"
  bottom: "inception_4a/output"
  top: "inception_4b/pool"
  pooling_param {
    pool: MAX
    kernel_size: 3
    stride: 1
    pad: 1
  }
}
layer {
  name: "inception_4b/pool_proj"
  type: "Convolution"
  bottom: "inception_4b/pool"
  top: "inception_4b/pool_proj"
  param {
    lr_mult: 1
    decay_mult: 1
  }
  param {
    lr_mult: 2
    decay_mult: 0
  }
  convolution_param {
    num_output: 64
    kernel_size: 1
    weight_filler {
      type: "xavier"
      std: 0.1
    }
    bias_filler {
      type: "constant"
      value: 0.2
    }
  }
}
layer {
  name: "inception_4b/relu_pool_proj"
  type: "ReLU"
  bottom: "inception_4b/pool_proj"
  top: "inception_4b/pool_proj"
}
layer {
  name: "inception_4b/output"
  type: "Concat"
  bottom: "inception_4b/1x1"
  bottom: "inception_4b/3x3"
  bottom: "inception_4b/5x5"
  bottom: "inception_4b/pool_proj"
  top: "inception_4b/output"
}
layer {
  name: "inception_4c/1x1"
  type: "Convolution"
  bottom: "inception_4b/output"
  top: "inception_4c/1x1"
  param {
    lr_mult: 1
    decay_mult: 1
  }
  param {
    lr_mult: 2
    decay_mult: 0
  }
  convolution_param {
    num_output: 128
    kernel_size: 1
    weight_filler {
      type: "xavier"
      std: 0.03
    }
    bias_filler {
      type: "constant"
      value: 0.2
    }
  }
}
layer {
  name: "inception_4c/relu_1x1"
  type: "ReLU"
  bottom: "inception_4c/1x1"
  top: "inception_4c/1x1"
}
layer {
  name: "inception_4c/3x3_reduce"
  type: "Convolution"
  bottom: "inception_4b/output"
  top: "inception_4c/3x3_reduce"
  param {
    lr_mult: 1
    decay_mult: 1
  }
  param {
    lr_mult: 2
    decay_mult: 0
  }
  convolution_param {
    num_output: 128
    kernel_size: 1
    weight_filler {
      type: "xavier"
      std: 0.09
    }
    bias_filler {
      type: "constant"
      value: 0.2
    }
  }
}
layer {
  name: "inception_4c/relu_3x3_reduce"
  type: "ReLU"
  bottom: "inception_4c/3x3_reduce"
  top: "inception_4c/3x3_reduce"
}
layer {
  name: "inception_4c/3x3"
  type: "Convolution"
  bottom: "inception_4c/3x3_reduce"
  top: "inception_4c/3x3"
  param {
    lr_mult: 1
    decay_mult: 1
  }
  param {
    lr_mult: 2
    decay_mult: 0
  }
  convolution_param {
    num_output: 256
    pad: 1
    kernel_size: 3
    weight_filler {
      type: "xavier"
      std: 0.03
    }
    bias_filler {
      type: "constant"
      value: 0.2
    }
  }
}
layer {
  name: "inception_4c/relu_3x3"
  type: "ReLU"
  bottom: "inception_4c/3x3"
  top: "inception_4c/3x3"
}
layer {
  name: "inception_4c/5x5_reduce"
  type: "Convolution"
  bottom: "inception_4b/output"
  top: "inception_4c/5x5_reduce"
  param {
    lr_mult: 1
    decay_mult: 1
  }
  param {
    lr_mult: 2
    decay_mult: 0
  }
  convolution_param {
    num_output: 24
    kernel_size: 1
    weight_filler {
      type: "xavier"
      std: 0.2
    }
    bias_filler {
      type: "constant"
      value: 0.2
    }
  }
}
layer {
  name: "inception_4c/relu_5x5_reduce"
  type: "ReLU"
  bottom: "inception_4c/5x5_reduce"
  top: "inception_4c/5x5_reduce"
}
layer {
  name: "inception_4c/5x5"
  type: "Convolution"
  bottom: "inception_4c/5x5_reduce"
  top: "inception_4c/5x5"
  param {
    lr_mult: 1
    decay_mult: 1
  }
  param {
    lr_mult: 2
    decay_mult: 0
  }
  convolution_param {
    num_output: 64
    pad: 2
    kernel_size: 5
    weight_filler {
      type: "xavier"
      std: 0.03
    }
    bias_filler {
      type: "constant"
      value: 0.2
    }
  }
}
layer {
  name: "inception_4c/relu_5x5"
  type: "ReLU"
  bottom: "inception_4c/5x5"
  top: "inception_4c/5x5"
}
layer {
  name: "inception_4c/pool"
  type: "Pooling"
  bottom: "inception_4b/output"
  top: "inception_4c/pool"
  pooling_param {
    pool: MAX
    kernel_size: 3
    stride: 1
    pad: 1
  }
}
layer {
  name: "inception_4c/pool_proj"
  type: "Convolution"
  bottom: "inception_4c/pool"
  top: "inception_4c/pool_proj"
  param {
    lr_mult: 1
    decay_mult: 1
  }
  param {
    lr_mult: 2
    decay_mult: 0
  }
  convolution_param {
    num_output: 64
    kernel_size: 1
    weight_filler {
      type: "xavier"
      std: 0.1
    }
    bias_filler {
      type: "constant"
      value: 0.2
    }
  }
}
layer {
  name: "inception_4c/relu_pool_proj"
  type: "ReLU"
  bottom: "inception_4c/pool_proj"
  top: "inception_4c/pool_proj"
}
layer {
  name: "inception_4c/output"
  type: "Concat"
  bottom: "inception_4c/1x1"
  bottom: "inception_4c/3x3"
  bottom: "inception_4c/5x5"
  bottom: "inception_4c/pool_proj"
  top: "inception_4c/output"
}
layer {
  name: "inception_4d/1x1"
  type: "Convolution"
  bottom: "inception_4c/output"
  top: "inception_4d/1x1"
  param {
    lr_mult: 1
    decay_mult: 1
  }
  param {
    lr_mult: 2
    decay_mult: 0
  }
  convolution_param {
    num_output: 112
    kernel_size: 1
    weight_filler {
      type: "xavier"
      std: 0.03
    }
    bias_filler {
      type: "constant"
      value: 0.2
    }
  }
}
layer {
  name: "inception_4d/relu_1x1"
  type: "ReLU"
  bottom: "inception_4d/1x1"
  top: "inception_4d/1x1"
}
layer {
  name: "inception_4d/3x3_reduce"
  type: "Convolution"
  bottom: "inception_4c/output"
  top: "inception_4d/3x3_reduce"
  param {
    lr_mult: 1
    decay_mult: 1
  }
  param {
    lr_mult: 2
    decay_mult: 0
  }
  convolution_param {
    num_output: 144
    kernel_size: 1
    weight_filler {
      type: "xavier"
      std: 0.09
    }
    bias_filler {
      type: "constant"
      value: 0.2
    }
  }
}
layer {
  name: "inception_4d/relu_3x3_reduce"
  type: "ReLU"
  bottom: "inception_4d/3x3_reduce"
  top: "inception_4d/3x3_reduce"
}
layer {
  name: "inception_4d/3x3"
  type: "Convolution"
  bottom: "inception_4d/3x3_reduce"
  top: "inception_4d/3x3"
  param {
    lr_mult: 1
    decay_mult: 1
  }
  param {
    lr_mult: 2
    decay_mult: 0
  }
  convolution_param {
    num_output: 288
    pad: 1
    kernel_size: 3
    weight_filler {
      type: "xavier"
      std: 0.03
    }
    bias_filler {
      type: "constant"
      value: 0.2
    }
  }
}
layer {
  name: "inception_4d/relu_3x3"
  type: "ReLU"
  bottom: "inception_4d/3x3"
  top: "inception_4d/3x3"
}
layer {
  name: "inception_4d/5x5_reduce"
  type: "Convolution"
  bottom: "inception_4c/output"
  top: "inception_4d/5x5_reduce"
  param {
    lr_mult: 1
    decay_mult: 1
  }
  param {
    lr_mult: 2
    decay_mult: 0
  }
  convolution_param {
    num_output: 32
    kernel_size: 1
    weight_filler {
      type: "xavier"
      std: 0.2
    }
    bias_filler {
      type: "constant"
      value: 0.2
    }
  }
}
layer {
  name: "inception_4d/relu_5x5_reduce"
  type: "ReLU"
  bottom: "inception_4d/5x5_reduce"
  top: "inception_4d/5x5_reduce"
}
layer {
  name: "inception_4d/5x5"
  type: "Convolution"
  bottom: "inception_4d/5x5_reduce"
  top: "inception_4d/5x5"
  param {
    lr_mult: 1
    decay_mult: 1
  }
  param {
    lr_mult: 2
    decay_mult: 0
  }
  convolution_param {
    num_output: 64
    pad: 2
    kernel_size: 5
    weight_filler {
      type: "xavier"
      std: 0.03
    }
    bias_filler {
      type: "constant"
      value: 0.2
    }
  }
}
layer {
  name: "inception_4d/relu_5x5"
  type: "ReLU"
  bottom: "inception_4d/5x5"
  top: "inception_4d/5x5"
}
layer {
  name: "inception_4d/pool"
  type: "Pooling"
  bottom: "inception_4c/output"
  top: "inception_4d/pool"
  pooling_param {
    pool: MAX
    kernel_size: 3
    stride: 1
    pad: 1
  }
}
layer {
  name: "inception_4d/pool_proj"
  type: "Convolution"
  bottom: "inception_4d/pool"
  top: "inception_4d/pool_proj"
  param {
    lr_mult: 1
    decay_mult: 1
  }
  param {
    lr_mult: 2
    decay_mult: 0
  }
  convolution_param {
    num_output: 64
    kernel_size: 1
    weight_filler {
      type: "xavier"
      std: 0.1
    }
    bias_filler {
      type: "constant"
      value: 0.2
    }
  }
}
layer {
  name: "inception_4d/relu_pool_proj"
  type: "ReLU"
  bottom: "inception_4d/pool_proj"
  top: "inception_4d/pool_proj"
}
layer {
  name: "inception_4d/output"
  type: "Concat"
  bottom: "inception_4d/1x1"
  bottom: "inception_4d/3x3"
  bottom: "inception_4d/5x5"
  bottom: "inception_4d/pool_proj"
  top: "inception_4d/output"
}
layer {
  name: "loss2/ave_pool"
  type: "Pooling"
  bottom: "inception_4d/output"
  top: "loss2/ave_pool"
  pooling_param {
    pool: AVE
    kernel_size: 5
    stride: 3
  }
}
layer {
  name: "loss2/conv"
  type: "Convolution"
  bottom: "loss2/ave_pool"
  top: "loss2/conv"
  param {
    lr_mult: 1
    decay_mult: 1
  }
  param {
    lr_mult: 2
    decay_mult: 0
  }
  convolution_param {
    num_output: 128
    kernel_size: 1
    weight_filler {
      type: "xavier"
      std: 0.08
    }
    bias_filler {
      type: "constant"
      value: 0.2
    }
  }
}
layer {
  name: "loss2/relu_conv"
  type: "ReLU"
  bottom: "loss2/conv"
  top: "loss2/conv"
}
layer {
  name: "loss2/fc"
  type: "InnerProduct"
  bottom: "loss2/conv"
  top: "loss2/fc"
  param {
    lr_mult: 1
    decay_mult: 1
  }
  param {
    lr_mult: 2
    decay_mult: 0
  }
  inner_product_param {
    num_output: 1024
    weight_filler {
      type: "xavier"
      std: 0.02
    }
    bias_filler {
      type: "constant"
      value: 0.2
    }
  }
}
layer {
  name: "loss2/relu_fc"
  type: "ReLU"
  bottom: "loss2/fc"
  top: "loss2/fc"
}
layer {
  name: "loss2/drop_fc"
  type: "Dropout"
  bottom: "loss2/fc"
  top: "loss2/fc"
  dropout_param {
    dropout_ratio: 0.7
  }
}
layer {
  name: "loss2/classifier_plantvillage"
  type: "InnerProduct"
  bottom: "loss2/fc"
  top: "loss2/classifier_plantvillage"
  param {
    lr_mult: 1
    decay_mult: 1
  }
  param {
    lr_mult: 2
    decay_mult: 0
  }
  inner_product_param {
    num_output: 38
    weight_filler {
      type: "xavier"
      std: 0.0009765625
    }
    bias_filler {
      type: "constant"
      value: 0
    }
  }
}
layer {
  name: "inception_4e/1x1"
  type: "Convolution"
  bottom: "inception_4d/output"
  top: "inception_4e/1x1"
  param {
    lr_mult: 1
    decay_mult: 1
  }
  param {
    lr_mult: 2
    decay_mult: 0
  }
  convolution_param {
    num_output: 256
    kernel_size: 1
    weight_filler {
      type: "xavier"
      std: 0.03
    }
    bias_filler {
      type: "constant"
      value: 0.2
    }
  }
}
layer {
  name: "inception_4e/relu_1x1"
  type: "ReLU"
  bottom: "inception_4e/1x1"
  top: "inception_4e/1x1"
}
layer {
  name: "inception_4e/3x3_reduce"
  type: "Convolution"
  bottom: "inception_4d/output"
  top: "inception_4e/3x3_reduce"
  param {
    lr_mult: 1
    decay_mult: 1
  }
  param {
    lr_mult: 2
    decay_mult: 0
  }
  convolution_param {
    num_output: 160
    kernel_size: 1
    weight_filler {
      type: "xavier"
      std: 0.09
    }
    bias_filler {
      type: "constant"
      value: 0.2
    }
  }
}
layer {
  name: "inception_4e/relu_3x3_reduce"
  type: "ReLU"
  bottom: "inception_4e/3x3_reduce"
  top: "inception_4e/3x3_reduce"
}
layer {
  name: "inception_4e/3x3"
  type: "Convolution"
  bottom: "inception_4e/3x3_reduce"
  top: "inception_4e/3x3"
  param {
    lr_mult: 1
    decay_mult: 1
  }
  param {
    lr_mult: 2
    decay_mult: 0
  }
  convolution_param {
    num_output: 320
    pad: 1
    kernel_size: 3
    weight_filler {
      type: "xavier"
      std: 0.03
    }
    bias_filler {
      type: "constant"
      value: 0.2
    }
  }
}
layer {
  name: "inception_4e/relu_3x3"
  type: "ReLU"
  bottom: "inception_4e/3x3"
  top: "inception_4e/3x3"
}
layer {
  name: "inception_4e/5x5_reduce"
  type: "Convolution"
  bottom: "inception_4d/output"
  top: "inception_4e/5x5_reduce"
  param {
    lr_mult: 1
    decay_mult: 1
  }
  param {
    lr_mult: 2
    decay_mult: 0
  }
  convolution_param {
    num_output: 32
    kernel_size: 1
    weight_filler {
      type: "xavier"
      std: 0.2
    }
    bias_filler {
      type: "constant"
      value: 0.2
    }
  }
}
layer {
  name: "inception_4e/relu_5x5_reduce"
  type: "ReLU"
  bottom: "inception_4e/5x5_reduce"
  top: "inception_4e/5x5_reduce"
}
layer {
  name: "inception_4e/5x5"
  type: "Convolution"
  bottom: "inception_4e/5x5_reduce"
  top: "inception_4e/
I0403 18:13:23.126344 21745 layer_factory.hpp:77] Creating layer data
I0403 18:13:23.126919 21745 net.cpp:91] Creating Layer data
I0403 18:13:23.126950 21745 net.cpp:399] data -> data
I0403 18:13:23.126997 21745 net.cpp:399] data -> label
I0403 18:13:23.127034 21745 data_transformer.cpp:25] Loading mean file from: /home/mohanty/data/final_dataset/lmdb/segmented-40-60/mean.binaryproto
I0403 18:13:23.128201 21747 db_lmdb.cpp:38] Opened lmdb /home/mohanty/data/final_dataset/lmdb/segmented-40-60/test_db
I0403 18:13:23.140187 21745 data_layer.cpp:41] output data size: 24,3,224,224
I0403 18:13:23.167284 21745 net.cpp:141] Setting up data
I0403 18:13:23.167364 21745 net.cpp:148] Top shape: 24 3 224 224 (3612672)
I0403 18:13:23.167387 21745 net.cpp:148] Top shape: 24 (24)
I0403 18:13:23.167404 21745 net.cpp:156] Memory required for data: 14450784
I0403 18:13:23.167433 21745 layer_factory.hpp:77] Creating layer label_data_1_split
I0403 18:13:23.167460 21745 net.cpp:91] Creating Layer label_data_1_split
I0403 18:13:23.167477 21745 net.cpp:425] label_data_1_split <- label
I0403 18:13:23.167510 21745 net.cpp:399] label_data_1_split -> label_data_1_split_0
I0403 18:13:23.167541 21745 net.cpp:399] label_data_1_split -> label_data_1_split_1
I0403 18:13:23.167563 21745 net.cpp:399] label_data_1_split -> label_data_1_split_2
I0403 18:13:23.167583 21745 net.cpp:399] label_data_1_split -> label_data_1_split_3
I0403 18:13:23.167603 21745 net.cpp:399] label_data_1_split -> label_data_1_split_4
I0403 18:13:23.167623 21745 net.cpp:399] label_data_1_split -> label_data_1_split_5
I0403 18:13:23.167641 21745 net.cpp:399] label_data_1_split -> label_data_1_split_6
I0403 18:13:23.167661 21745 net.cpp:399] label_data_1_split -> label_data_1_split_7
I0403 18:13:23.167681 21745 net.cpp:399] label_data_1_split -> label_data_1_split_8
I0403 18:13:23.167701 21745 net.cpp:399] label_data_1_split -> label_data_1_split_9
I0403 18:13:23.167814 21745 net.cpp:141] Setting up label_data_1_split
I0403 18:13:23.167837 21745 net.cpp:148] Top shape: 24 (24)
I0403 18:13:23.167855 21745 net.cpp:148] Top shape: 24 (24)
I0403 18:13:23.167871 21745 net.cpp:148] Top shape: 24 (24)
I0403 18:13:23.167887 21745 net.cpp:148] Top shape: 24 (24)
I0403 18:13:23.167903 21745 net.cpp:148] Top shape: 24 (24)
I0403 18:13:23.167918 21745 net.cpp:148] Top shape: 24 (24)
I0403 18:13:23.167934 21745 net.cpp:148] Top shape: 24 (24)
I0403 18:13:23.167951 21745 net.cpp:148] Top shape: 24 (24)
I0403 18:13:23.167966 21745 net.cpp:148] Top shape: 24 (24)
I0403 18:13:23.167984 21745 net.cpp:148] Top shape: 24 (24)
I0403 18:13:23.168028 21745 net.cpp:156] Memory required for data: 14451744
I0403 18:13:23.168045 21745 layer_factory.hpp:77] Creating layer conv1/7x7_s2
I0403 18:13:23.168076 21745 net.cpp:91] Creating Layer conv1/7x7_s2
I0403 18:13:23.168095 21745 net.cpp:425] conv1/7x7_s2 <- data
I0403 18:13:23.168113 21745 net.cpp:399] conv1/7x7_s2 -> conv1/7x7_s2
I0403 18:13:23.307168 21745 net.cpp:141] Setting up conv1/7x7_s2
I0403 18:13:23.307237 21745 net.cpp:148] Top shape: 24 64 112 112 (19267584)
I0403 18:13:23.307260 21745 net.cpp:156] Memory required for data: 91522080
I0403 18:13:23.307299 21745 layer_factory.hpp:77] Creating layer conv1/relu_7x7
I0403 18:13:23.307333 21745 net.cpp:91] Creating Layer conv1/relu_7x7
I0403 18:13:23.307358 21745 net.cpp:425] conv1/relu_7x7 <- conv1/7x7_s2
I0403 18:13:23.307381 21745 net.cpp:386] conv1/relu_7x7 -> conv1/7x7_s2 (in-place)
I0403 18:13:23.307715 21745 net.cpp:141] Setting up conv1/relu_7x7
I0403 18:13:23.307750 21745 net.cpp:148] Top shape: 24 64 112 112 (19267584)
I0403 18:13:23.307771 21745 net.cpp:156] Memory required for data: 168592416
I0403 18:13:23.307791 21745 layer_factory.hpp:77] Creating layer pool1/3x3_s2
I0403 18:13:23.307823 21745 net.cpp:91] Creating Layer pool1/3x3_s2
I0403 18:13:23.307847 21745 net.cpp:425] pool1/3x3_s2 <- conv1/7x7_s2
I0403 18:13:23.307869 21745 net.cpp:399] pool1/3x3_s2 -> pool1/3x3_s2
I0403 18:13:23.307963 21745 net.cpp:141] Setting up pool1/3x3_s2
I0403 18:13:23.307994 21745 net.cpp:148] Top shape: 24 64 56 56 (4816896)
I0403 18:13:23.308015 21745 net.cpp:156] Memory required for data: 187860000
I0403 18:13:23.308035 21745 layer_factory.hpp:77] Creating layer pool1/norm1
I0403 18:13:23.308066 21745 net.cpp:91] Creating Layer pool1/norm1
I0403 18:13:23.308089 21745 net.cpp:425] pool1/norm1 <- pool1/3x3_s2
I0403 18:13:23.308112 21745 net.cpp:399] pool1/norm1 -> pool1/norm1
I0403 18:13:23.308480 21745 net.cpp:141] Setting up pool1/norm1
I0403 18:13:23.308516 21745 net.cpp:148] Top shape: 24 64 56 56 (4816896)
I0403 18:13:23.308544 21745 net.cpp:156] Memory required for data: 207127584
I0403 18:13:23.308568 21745 layer_factory.hpp:77] Creating layer conv2/3x3_reduce
I0403 18:13:23.308599 21745 net.cpp:91] Creating Layer conv2/3x3_reduce
I0403 18:13:23.308620 21745 net.cpp:425] conv2/3x3_reduce <- pool1/norm1
I0403 18:13:23.308645 21745 net.cpp:399] conv2/3x3_reduce -> conv2/3x3_reduce
I0403 18:13:23.310327 21745 net.cpp:141] Setting up conv2/3x3_reduce
I0403 18:13:23.310365 21745 net.cpp:148] Top shape: 24 64 56 56 (4816896)
I0403 18:13:23.310386 21745 net.cpp:156] Memory required for data: 226395168
I0403 18:13:23.310413 21745 layer_factory.hpp:77] Creating layer conv2/relu_3x3_reduce
I0403 18:13:23.310439 21745 net.cpp:91] Creating Layer conv2/relu_3x3_reduce
I0403 18:13:23.310459 21745 net.cpp:425] conv2/relu_3x3_reduce <- conv2/3x3_reduce
I0403 18:13:23.310482 21745 net.cpp:386] conv2/relu_3x3_reduce -> conv2/3x3_reduce (in-place)
I0403 18:13:23.310807 21745 net.cpp:141] Setting up conv2/relu_3x3_reduce
I0403 18:13:23.310843 21745 net.cpp:148] Top shape: 24 64 56 56 (4816896)
I0403 18:13:23.310864 21745 net.cpp:156] Memory required for data: 245662752
I0403 18:13:23.310884 21745 layer_factory.hpp:77] Creating layer conv2/3x3
I0403 18:13:23.310914 21745 net.cpp:91] Creating Layer conv2/3x3
I0403 18:13:23.310935 21745 net.cpp:425] conv2/3x3 <- conv2/3x3_reduce
I0403 18:13:23.310959 21745 net.cpp:399] conv2/3x3 -> conv2/3x3
I0403 18:13:23.313817 21745 net.cpp:141] Setting up conv2/3x3
I0403 18:13:23.313856 21745 net.cpp:148] Top shape: 24 192 56 56 (14450688)
I0403 18:13:23.313879 21745 net.cpp:156] Memory required for data: 303465504
I0403 18:13:23.313906 21745 layer_factory.hpp:77] Creating layer conv2/relu_3x3
I0403 18:13:23.313931 21745 net.cpp:91] Creating Layer conv2/relu_3x3
I0403 18:13:23.313951 21745 net.cpp:425] conv2/relu_3x3 <- conv2/3x3
I0403 18:13:23.313973 21745 net.cpp:386] conv2/relu_3x3 -> conv2/3x3 (in-place)
I0403 18:13:23.314184 21745 net.cpp:141] Setting up conv2/relu_3x3
I0403 18:13:23.314218 21745 net.cpp:148] Top shape: 24 192 56 56 (14450688)
I0403 18:13:23.314282 21745 net.cpp:156] Memory required for data: 361268256
I0403 18:13:23.314303 21745 layer_factory.hpp:77] Creating layer conv2/norm2
I0403 18:13:23.314328 21745 net.cpp:91] Creating Layer conv2/norm2
I0403 18:13:23.314348 21745 net.cpp:425] conv2/norm2 <- conv2/3x3
I0403 18:13:23.314371 21745 net.cpp:399] conv2/norm2 -> conv2/norm2
I0403 18:13:23.314729 21745 net.cpp:141] Setting up conv2/norm2
I0403 18:13:23.314756 21745 net.cpp:148] Top shape: 24 192 56 56 (14450688)
I0403 18:13:23.314772 21745 net.cpp:156] Memory required for data: 419071008
I0403 18:13:23.314787 21745 layer_factory.hpp:77] Creating layer pool2/3x3_s2
I0403 18:13:23.314805 21745 net.cpp:91] Creating Layer pool2/3x3_s2
I0403 18:13:23.314821 21745 net.cpp:425] pool2/3x3_s2 <- conv2/norm2
I0403 18:13:23.314851 21745 net.cpp:399] pool2/3x3_s2 -> pool2/3x3_s2
I0403 18:13:23.314898 21745 net.cpp:141] Setting up pool2/3x3_s2
I0403 18:13:23.314920 21745 net.cpp:148] Top shape: 24 192 28 28 (3612672)
I0403 18:13:23.314934 21745 net.cpp:156] Memory required for data: 433521696
I0403 18:13:23.314949 21745 layer_factory.hpp:77] Creating layer pool2/3x3_s2_pool2/3x3_s2_0_split
I0403 18:13:23.314966 21745 net.cpp:91] Creating Layer pool2/3x3_s2_pool2/3x3_s2_0_split
I0403 18:13:23.314981 21745 net.cpp:425] pool2/3x3_s2_pool2/3x3_s2_0_split <- pool2/3x3_s2
I0403 18:13:23.314997 21745 net.cpp:399] pool2/3x3_s2_pool2/3x3_s2_0_split -> pool2/3x3_s2_pool2/3x3_s2_0_split_0
I0403 18:13:23.315016 21745 net.cpp:399] pool2/3x3_s2_pool2/3x3_s2_0_split -> pool2/3x3_s2_pool2/3x3_s2_0_split_1
I0403 18:13:23.315035 21745 net.cpp:399] pool2/3x3_s2_pool2/3x3_s2_0_split -> pool2/3x3_s2_pool2/3x3_s2_0_split_2
I0403 18:13:23.315053 21745 net.cpp:399] pool2/3x3_s2_pool2/3x3_s2_0_split -> pool2/3x3_s2_pool2/3x3_s2_0_split_3
I0403 18:13:23.315115 21745 net.cpp:141] Setting up pool2/3x3_s2_pool2/3x3_s2_0_split
I0403 18:13:23.315137 21745 net.cpp:148] Top shape: 24 192 28 28 (3612672)
I0403 18:13:23.315153 21745 net.cpp:148] Top shape: 24 192 28 28 (3612672)
I0403 18:13:23.315170 21745 net.cpp:148] Top shape: 24 192 28 28 (3612672)
I0403 18:13:23.315186 21745 net.cpp:148] Top shape: 24 192 28 28 (3612672)
I0403 18:13:23.315199 21745 net.cpp:156] Memory required for data: 491324448
I0403 18:13:23.315214 21745 layer_factory.hpp:77] Creating layer inception_3a/1x1
I0403 18:13:23.315233 21745 net.cpp:91] Creating Layer inception_3a/1x1
I0403 18:13:23.315249 21745 net.cpp:425] inception_3a/1x1 <- pool2/3x3_s2_pool2/3x3_s2_0_split_0
I0403 18:13:23.315268 21745 net.cpp:399] inception_3a/1x1 -> inception_3a/1x1
I0403 18:13:23.316751 21745 net.cpp:141] Setting up inception_3a/1x1
I0403 18:13:23.316778 21745 net.cpp:148] Top shape: 24 64 28 28 (1204224)
I0403 18:13:23.316794 21745 net.cpp:156] Memory required for data: 496141344
I0403 18:13:23.316813 21745 layer_factory.hpp:77] Creating layer inception_3a/relu_1x1
I0403 18:13:23.316833 21745 net.cpp:91] Creating Layer inception_3a/relu_1x1
I0403 18:13:23.316849 21745 net.cpp:425] inception_3a/relu_1x1 <- inception_3a/1x1
I0403 18:13:23.316865 21745 net.cpp:386] inception_3a/relu_1x1 -> inception_3a/1x1 (in-place)
I0403 18:13:23.317033 21745 net.cpp:141] Setting up inception_3a/relu_1x1
I0403 18:13:23.317057 21745 net.cpp:148] Top shape: 24 64 28 28 (1204224)
I0403 18:13:23.317072 21745 net.cpp:156] Memory required for data: 500958240
I0403 18:13:23.317086 21745 layer_factory.hpp:77] Creating layer inception_3a/3x3_reduce
I0403 18:13:23.317107 21745 net.cpp:91] Creating Layer inception_3a/3x3_reduce
I0403 18:13:23.317124 21745 net.cpp:425] inception_3a/3x3_reduce <- pool2/3x3_s2_pool2/3x3_s2_0_split_1
I0403 18:13:23.317145 21745 net.cpp:399] inception_3a/3x3_reduce -> inception_3a/3x3_reduce
I0403 18:13:23.318837 21745 net.cpp:141] Setting up inception_3a/3x3_reduce
I0403 18:13:23.318868 21745 net.cpp:148] Top shape: 24 96 28 28 (1806336)
I0403 18:13:23.318886 21745 net.cpp:156] Memory required for data: 508183584
I0403 18:13:23.318919 21745 layer_factory.hpp:77] Creating layer inception_3a/relu_3x3_reduce
I0403 18:13:23.318958 21745 net.cpp:91] Creating Layer inception_3a/relu_3x3_reduce
I0403 18:13:23.318974 21745 net.cpp:425] inception_3a/relu_3x3_reduce <- inception_3a/3x3_reduce
I0403 18:13:23.318994 21745 net.cpp:386] inception_3a/relu_3x3_reduce -> inception_3a/3x3_reduce (in-place)
I0403 18:13:23.319166 21745 net.cpp:141] Setting up inception_3a/relu_3x3_reduce
I0403 18:13:23.319191 21745 net.cpp:148] Top shape: 24 96 28 28 (1806336)
I0403 18:13:23.319206 21745 net.cpp:156] Memory required for data: 515408928
I0403 18:13:23.319221 21745 layer_factory.hpp:77] Creating layer inception_3a/3x3
I0403 18:13:23.319242 21745 net.cpp:91] Creating Layer inception_3a/3x3
I0403 18:13:23.319262 21745 net.cpp:425] inception_3a/3x3 <- inception_3a/3x3_reduce
I0403 18:13:23.319281 21745 net.cpp:399] inception_3a/3x3 -> inception_3a/3x3
I0403 18:13:23.320935 21745 net.cpp:141] Setting up inception_3a/3x3
I0403 18:13:23.320963 21745 net.cpp:148] Top shape: 24 128 28 28 (2408448)
I0403 18:13:23.320979 21745 net.cpp:156] Memory required for data: 525042720
I0403 18:13:23.320997 21745 layer_factory.hpp:77] Creating layer inception_3a/relu_3x3
I0403 18:13:23.321015 21745 net.cpp:91] Creating Layer inception_3a/relu_3x3
I0403 18:13:23.321030 21745 net.cpp:425] inception_3a/relu_3x3 <- inception_3a/3x3
I0403 18:13:23.321049 21745 net.cpp:386] inception_3a/relu_3x3 -> inception_3a/3x3 (in-place)
I0403 18:13:23.321311 21745 net.cpp:141] Setting up inception_3a/relu_3x3
I0403 18:13:23.321339 21745 net.cpp:148] Top shape: 24 128 28 28 (2408448)
I0403 18:13:23.321354 21745 net.cpp:156] Memory required for data: 534676512
I0403 18:13:23.321369 21745 layer_factory.hpp:77] Creating layer inception_3a/5x5_reduce
I0403 18:13:23.321390 21745 net.cpp:91] Creating Layer inception_3a/5x5_reduce
I0403 18:13:23.321408 21745 net.cpp:425] inception_3a/5x5_reduce <- pool2/3x3_s2_pool2/3x3_s2_0_split_2
I0403 18:13:23.321426 21745 net.cpp:399] inception_3a/5x5_reduce -> inception_3a/5x5_reduce
I0403 18:13:23.322350 21745 net.cpp:141] Setting up inception_3a/5x5_reduce
I0403 18:13:23.322381 21745 net.cpp:148] Top shape: 24 16 28 28 (301056)
I0403 18:13:23.322399 21745 net.cpp:156] Memory required for data: 535880736
I0403 18:13:23.322417 21745 layer_factory.hpp:77] Creating layer inception_3a/relu_5x5_reduce
I0403 18:13:23.322434 21745 net.cpp:91] Creating Layer inception_3a/relu_5x5_reduce
I0403 18:13:23.322450 21745 net.cpp:425] inception_3a/relu_5x5_reduce <- inception_3a/5x5_reduce
I0403 18:13:23.322470 21745 net.cpp:386] inception_3a/relu_5x5_reduce -> inception_3a/5x5_reduce (in-place)
I0403 18:13:23.322773 21745 net.cpp:141] Setting up inception_3a/relu_5x5_reduce
I0403 18:13:23.322799 21745 net.cpp:148] Top shape: 24 16 28 28 (301056)
I0403 18:13:23.322815 21745 net.cpp:156] Memory required for data: 537084960
I0403 18:13:23.322842 21745 layer_factory.hpp:77] Creating layer inception_3a/5x5
I0403 18:13:23.322865 21745 net.cpp:91] Creating Layer inception_3a/5x5
I0403 18:13:23.322881 21745 net.cpp:425] inception_3a/5x5 <- inception_3a/5x5_reduce
I0403 18:13:23.322901 21745 net.cpp:399] inception_3a/5x5 -> inception_3a/5x5
I0403 18:13:23.323878 21745 net.cpp:141] Setting up inception_3a/5x5
I0403 18:13:23.323905 21745 net.cpp:148] Top shape: 24 32 28 28 (602112)
I0403 18:13:23.323921 21745 net.cpp:156] Memory required for data: 539493408
I0403 18:13:23.323945 21745 layer_factory.hpp:77] Creating layer inception_3a/relu_5x5
I0403 18:13:23.323964 21745 net.cpp:91] Creating Layer inception_3a/relu_5x5
I0403 18:13:23.323979 21745 net.cpp:425] inception_3a/relu_5x5 <- inception_3a/5x5
I0403 18:13:23.323998 21745 net.cpp:386] inception_3a/relu_5x5 -> inception_3a/5x5 (in-place)
I0403 18:13:23.324163 21745 net.cpp:141] Setting up inception_3a/relu_5x5
I0403 18:13:23.324188 21745 net.cpp:148] Top shape: 24 32 28 28 (602112)
I0403 18:13:23.324203 21745 net.cpp:156] Memory required for data: 541901856
I0403 18:13:23.324216 21745 layer_factory.hpp:77] Creating layer inception_3a/pool
I0403 18:13:23.324234 21745 net.cpp:91] Creating Layer inception_3a/pool
I0403 18:13:23.324265 21745 net.cpp:425] inception_3a/pool <- pool2/3x3_s2_pool2/3x3_s2_0_split_3
I0403 18:13:23.324285 21745 net.cpp:399] inception_3a/pool -> inception_3a/pool
I0403 18:13:23.324342 21745 net.cpp:141] Setting up inception_3a/pool
I0403 18:13:23.324364 21745 net.cpp:148] Top shape: 24 192 28 28 (3612672)
I0403 18:13:23.324379 21745 net.cpp:156] Memory required for data: 556352544
I0403 18:13:23.324393 21745 layer_factory.hpp:77] Creating layer inception_3a/pool_proj
I0403 18:13:23.324419 21745 net.cpp:91] Creating Layer inception_3a/pool_proj
I0403 18:13:23.324435 21745 net.cpp:425] inception_3a/pool_proj <- inception_3a/pool
I0403 18:13:23.324453 21745 net.cpp:399] inception_3a/pool_proj -> inception_3a/pool_proj
I0403 18:13:23.325423 21745 net.cpp:141] Setting up inception_3a/pool_proj
I0403 18:13:23.325450 21745 net.cpp:148] Top shape: 24 32 28 28 (602112)
I0403 18:13:23.325465 21745 net.cpp:156] Memory required for data: 558760992
I0403 18:13:23.325491 21745 layer_factory.hpp:77] Creating layer inception_3a/relu_pool_proj
I0403 18:13:23.325510 21745 net.cpp:91] Creating Layer inception_3a/relu_pool_proj
I0403 18:13:23.325526 21745 net.cpp:425] inception_3a/relu_pool_proj <- inception_3a/pool_proj
I0403 18:13:23.325549 21745 net.cpp:386] inception_3a/relu_pool_proj -> inception_3a/pool_proj (in-place)
I0403 18:13:23.325811 21745 net.cpp:141] Setting up inception_3a/relu_pool_proj
I0403 18:13:23.325840 21745 net.cpp:148] Top shape: 24 32 28 28 (602112)
I0403 18:13:23.325856 21745 net.cpp:156] Memory required for data: 561169440
I0403 18:13:23.325870 21745 layer_factory.hpp:77] Creating layer inception_3a/output
I0403 18:13:23.325887 21745 net.cpp:91] Creating Layer inception_3a/output
I0403 18:13:23.325902 21745 net.cpp:425] inception_3a/output <- inception_3a/1x1
I0403 18:13:23.325918 21745 net.cpp:425] inception_3a/output <- inception_3a/3x3
I0403 18:13:23.325934 21745 net.cpp:425] inception_3a/output <- inception_3a/5x5
I0403 18:13:23.325949 21745 net.cpp:425] inception_3a/output <- inception_3a/pool_proj
I0403 18:13:23.325968 21745 net.cpp:399] inception_3a/output -> inception_3a/output
I0403 18:13:23.326011 21745 net.cpp:141] Setting up inception_3a/output
I0403 18:13:23.326033 21745 net.cpp:148] Top shape: 24 256 28 28 (4816896)
I0403 18:13:23.326047 21745 net.cpp:156] Memory required for data: 580437024
I0403 18:13:23.326062 21745 layer_factory.hpp:77] Creating layer inception_3a/output_inception_3a/output_0_split
I0403 18:13:23.326081 21745 net.cpp:91] Creating Layer inception_3a/output_inception_3a/output_0_split
I0403 18:13:23.326097 21745 net.cpp:425] inception_3a/output_inception_3a/output_0_split <- inception_3a/output
I0403 18:13:23.326113 21745 net.cpp:399] inception_3a/output_inception_3a/output_0_split -> inception_3a/output_inception_3a/output_0_split_0
I0403 18:13:23.326133 21745 net.cpp:399] inception_3a/output_inception_3a/output_0_split -> inception_3a/output_inception_3a/output_0_split_1
I0403 18:13:23.326156 21745 net.cpp:399] inception_3a/output_inception_3a/output_0_split -> inception_3a/output_inception_3a/output_0_split_2
I0403 18:13:23.326176 21745 net.cpp:399] inception_3a/output_inception_3a/output_0_split -> inception_3a/output_inception_3a/output_0_split_3
I0403 18:13:23.326247 21745 net.cpp:141] Setting up inception_3a/output_inception_3a/output_0_split
I0403 18:13:23.326272 21745 net.cpp:148] Top shape: 24 256 28 28 (4816896)
I0403 18:13:23.326289 21745 net.cpp:148] Top shape: 24 256 28 28 (4816896)
I0403 18:13:23.326305 21745 net.cpp:148] Top shape: 24 256 28 28 (4816896)
I0403 18:13:23.326321 21745 net.cpp:148] Top shape: 24 256 28 28 (4816896)
I0403 18:13:23.326334 21745 net.cpp:156] Memory required for data: 657507360
I0403 18:13:23.326349 21745 layer_factory.hpp:77] Creating layer inception_3b/1x1
I0403 18:13:23.326371 21745 net.cpp:91] Creating Layer inception_3b/1x1
I0403 18:13:23.326388 21745 net.cpp:425] inception_3b/1x1 <- inception_3a/output_inception_3a/output_0_split_0
I0403 18:13:23.326406 21745 net.cpp:399] inception_3b/1x1 -> inception_3b/1x1
I0403 18:13:23.327504 21745 net.cpp:141] Setting up inception_3b/1x1
I0403 18:13:23.327546 21745 net.cpp:148] Top shape: 24 128 28 28 (2408448)
I0403 18:13:23.327564 21745 net.cpp:156] Memory required for data: 667141152
I0403 18:13:23.327582 21745 layer_factory.hpp:77] Creating layer inception_3b/relu_1x1
I0403 18:13:23.327603 21745 net.cpp:91] Creating Layer inception_3b/relu_1x1
I0403 18:13:23.327618 21745 net.cpp:425] inception_3b/relu_1x1 <- inception_3b/1x1
I0403 18:13:23.327635 21745 net.cpp:386] inception_3b/relu_1x1 -> inception_3b/1x1 (in-place)
I0403 18:13:23.327803 21745 net.cpp:141] Setting up inception_3b/relu_1x1
I0403 18:13:23.327831 21745 net.cpp:148] Top shape: 24 128 28 28 (2408448)
I0403 18:13:23.327846 21745 net.cpp:156] Memory required for data: 676774944
I0403 18:13:23.327860 21745 layer_factory.hpp:77] Creating layer inception_3b/3x3_reduce
I0403 18:13:23.327883 21745 net.cpp:91] Creating Layer inception_3b/3x3_reduce
I0403 18:13:23.327899 21745 net.cpp:425] inception_3b/3x3_reduce <- inception_3a/output_inception_3a/output_0_split_1
I0403 18:13:23.327918 21745 net.cpp:399] inception_3b/3x3_reduce -> inception_3b/3x3_reduce
I0403 18:13:23.329053 21745 net.cpp:141] Setting up inception_3b/3x3_reduce
I0403 18:13:23.329080 21745 net.cpp:148] Top shape: 24 128 28 28 (2408448)
I0403 18:13:23.329108 21745 net.cpp:156] Memory required for data: 686408736
I0403 18:13:23.329128 21745 layer_factory.hpp:77] Creating layer inception_3b/relu_3x3_reduce
I0403 18:13:23.329149 21745 net.cpp:91] Creating Layer inception_3b/relu_3x3_reduce
I0403 18:13:23.329165 21745 net.cpp:425] inception_3b/relu_3x3_reduce <- inception_3b/3x3_reduce
I0403 18:13:23.329182 21745 net.cpp:386] inception_3b/relu_3x3_reduce -> inception_3b/3x3_reduce (in-place)
I0403 18:13:23.329350 21745 net.cpp:141] Setting up inception_3b/relu_3x3_reduce
I0403 18:13:23.329385 21745 net.cpp:148] Top shape: 24 128 28 28 (2408448)
I0403 18:13:23.329401 21745 net.cpp:156] Memory required for data: 696042528
I0403 18:13:23.329416 21745 layer_factory.hpp:77] Creating layer inception_3b/3x3
I0403 18:13:23.329440 21745 net.cpp:91] Creating Layer inception_3b/3x3
I0403 18:13:23.329458 21745 net.cpp:425] inception_3b/3x3 <- inception_3b/3x3_reduce
I0403 18:13:23.329479 21745 net.cpp:399] inception_3b/3x3 -> inception_3b/3x3
I0403 18:13:23.332345 21745 net.cpp:141] Setting up inception_3b/3x3
I0403 18:13:23.332376 21745 net.cpp:148] Top shape: 24 192 28 28 (3612672)
I0403 18:13:23.332392 21745 net.cpp:156] Memory required for data: 710493216
I0403 18:13:23.332411 21745 layer_factory.hpp:77] Creating layer inception_3b/relu_3x3
I0403 18:13:23.332427 21745 net.cpp:91] Creating Layer inception_3b/relu_3x3
I0403 18:13:23.332442 21745 net.cpp:425] inception_3b/relu_3x3 <- inception_3b/3x3
I0403 18:13:23.332463 21745 net.cpp:386] inception_3b/relu_3x3 -> inception_3b/3x3 (in-place)
I0403 18:13:23.332751 21745 net.cpp:141] Setting up inception_3b/relu_3x3
I0403 18:13:23.332779 21745 net.cpp:148] Top shape: 24 192 28 28 (3612672)
I0403 18:13:23.332797 21745 net.cpp:156] Memory required for data: 724943904
I0403 18:13:23.332811 21745 layer_factory.hpp:77] Creating layer inception_3b/5x5_reduce
I0403 18:13:23.332846 21745 net.cpp:91] Creating Layer inception_3b/5x5_reduce
I0403 18:13:23.332864 21745 net.cpp:425] inception_3b/5x5_reduce <- inception_3a/output_inception_3a/output_0_split_2
I0403 18:13:23.332881 21745 net.cpp:399] inception_3b/5x5_reduce -> inception_3b/5x5_reduce
I0403 18:13:23.333874 21745 net.cpp:141] Setting up inception_3b/5x5_reduce
I0403 18:13:23.333904 21745 net.cpp:148] Top shape: 24 32 28 28 (602112)
I0403 18:13:23.333920 21745 net.cpp:156] Memory required for data: 727352352
I0403 18:13:23.333938 21745 layer_factory.hpp:77] Creating layer inception_3b/relu_5x5_reduce
I0403 18:13:23.333956 21745 net.cpp:91] Creating Layer inception_3b/relu_5x5_reduce
I0403 18:13:23.333971 21745 net.cpp:425] inception_3b/relu_5x5_reduce <- inception_3b/5x5_reduce
I0403 18:13:23.333991 21745 net.cpp:386] inception_3b/relu_5x5_reduce -> inception_3b/5x5_reduce (in-place)
I0403 18:13:23.334174 21745 net.cpp:141] Setting up inception_3b/relu_5x5_reduce
I0403 18:13:23.334198 21745 net.cpp:148] Top shape: 24 32 28 28 (602112)
I0403 18:13:23.334213 21745 net.cpp:156] Memory required for data: 729760800
I0403 18:13:23.334228 21745 layer_factory.hpp:77] Creating layer inception_3b/5x5
I0403 18:13:23.334259 21745 net.cpp:91] Creating Layer inception_3b/5x5
I0403 18:13:23.334275 21745 net.cpp:425] inception_3b/5x5 <- inception_3b/5x5_reduce
I0403 18:13:23.334295 21745 net.cpp:399] inception_3b/5x5 -> inception_3b/5x5
I0403 18:13:23.336218 21745 net.cpp:141] Setting up inception_3b/5x5
I0403 18:13:23.336246 21745 net.cpp:148] Top shape: 24 96 28 28 (1806336)
I0403 18:13:23.336263 21745 net.cpp:156] Memory required for data: 736986144
I0403 18:13:23.336282 21745 layer_factory.hpp:77] Creating layer inception_3b/relu_5x5
I0403 18:13:23.336303 21745 net.cpp:91] Creating Layer inception_3b/relu_5x5
I0403 18:13:23.336320 21745 net.cpp:425] inception_3b/relu_5x5 <- inception_3b/5x5
I0403 18:13:23.336338 21745 net.cpp:386] inception_3b/relu_5x5 -> inception_3b/5x5 (in-place)
I0403 18:13:23.336519 21745 net.cpp:141] Setting up inception_3b/relu_5x5
I0403 18:13:23.336561 21745 net.cpp:148] Top shape: 24 96 28 28 (1806336)
I0403 18:13:23.336578 21745 net.cpp:156] Memory required for data: 744211488
I0403 18:13:23.336593 21745 layer_factory.hpp:77] Creating layer inception_3b/pool
I0403 18:13:23.336611 21745 net.cpp:91] Creating Layer inception_3b/pool
I0403 18:13:23.336627 21745 net.cpp:425] inception_3b/pool <- inception_3a/output_inception_3a/output_0_split_3
I0403 18:13:23.336644 21745 net.cpp:399] inception_3b/pool -> inception_3b/pool
I0403 18:13:23.336700 21745 net.cpp:141] Setting up inception_3b/pool
I0403 18:13:23.336724 21745 net.cpp:148] Top shape: 24 256 28 28 (4816896)
I0403 18:13:23.336738 21745 net.cpp:156] Memory required for data: 763479072
I0403 18:13:23.336753 21745 layer_factory.hpp:77] Creating layer inception_3b/pool_proj
I0403 18:13:23.336776 21745 net.cpp:91] Creating Layer inception_3b/pool_proj
I0403 18:13:23.336794 21745 net.cpp:425] inception_3b/pool_proj <- inception_3b/pool
I0403 18:13:23.336813 21745 net.cpp:399] inception_3b/pool_proj -> inception_3b/pool_proj
I0403 18:13:23.337875 21745 net.cpp:141] Setting up inception_3b/pool_proj
I0403 18:13:23.337901 21745 net.cpp:148] Top shape: 24 64 28 28 (1204224)
I0403 18:13:23.337918 21745 net.cpp:156] Memory required for data: 768295968
I0403 18:13:23.337934 21745 layer_factory.hpp:77] Creating layer inception_3b/relu_pool_proj
I0403 18:13:23.337951 21745 net.cpp:91] Creating Layer inception_3b/relu_pool_proj
I0403 18:13:23.337967 21745 net.cpp:425] inception_3b/relu_pool_proj <- inception_3b/pool_proj
I0403 18:13:23.337985 21745 net.cpp:386] inception_3b/relu_pool_proj -> inception_3b/pool_proj (in-place)
I0403 18:13:23.338366 21745 net.cpp:141] Setting up inception_3b/relu_pool_proj
I0403 18:13:23.338392 21745 net.cpp:148] Top shape: 24 64 28 28 (1204224)
I0403 18:13:23.338407 21745 net.cpp:156] Memory required for data: 773112864
I0403 18:13:23.338421 21745 layer_factory.hpp:77] Creating layer inception_3b/output
I0403 18:13:23.338438 21745 net.cpp:91] Creating Layer inception_3b/output
I0403 18:13:23.338452 21745 net.cpp:425] inception_3b/output <- inception_3b/1x1
I0403 18:13:23.338469 21745 net.cpp:425] inception_3b/output <- inception_3b/3x3
I0403 18:13:23.338485 21745 net.cpp:425] inception_3b/output <- inception_3b/5x5
I0403 18:13:23.338500 21745 net.cpp:425] inception_3b/output <- inception_3b/pool_proj
I0403 18:13:23.338517 21745 net.cpp:399] inception_3b/output -> inception_3b/output
I0403 18:13:23.338563 21745 net.cpp:141] Setting up inception_3b/output
I0403 18:13:23.338590 21745 net.cpp:148] Top shape: 24 480 28 28 (9031680)
I0403 18:13:23.338606 21745 net.cpp:156] Memory required for data: 809239584
I0403 18:13:23.338620 21745 layer_factory.hpp:77] Creating layer pool3/3x3_s2
I0403 18:13:23.338637 21745 net.cpp:91] Creating Layer pool3/3x3_s2
I0403 18:13:23.338652 21745 net.cpp:425] pool3/3x3_s2 <- inception_3b/output
I0403 18:13:23.338690 21745 net.cpp:399] pool3/3x3_s2 -> pool3/3x3_s2
I0403 18:13:23.338747 21745 net.cpp:141] Setting up pool3/3x3_s2
I0403 18:13:23.338770 21745 net.cpp:148] Top shape: 24 480 14 14 (2257920)
I0403 18:13:23.338785 21745 net.cpp:156] Memory required for data: 818271264
I0403 18:13:23.338800 21745 layer_factory.hpp:77] Creating layer pool3/3x3_s2_pool3/3x3_s2_0_split
I0403 18:13:23.338819 21745 net.cpp:91] Creating Layer pool3/3x3_s2_pool3/3x3_s2_0_split
I0403 18:13:23.338834 21745 net.cpp:425] pool3/3x3_s2_pool3/3x3_s2_0_split <- pool3/3x3_s2
I0403 18:13:23.338850 21745 net.cpp:399] pool3/3x3_s2_pool3/3x3_s2_0_split -> pool3/3x3_s2_pool3/3x3_s2_0_split_0
I0403 18:13:23.338867 21745 net.cpp:399] pool3/3x3_s2_pool3/3x3_s2_0_split -> pool3/3x3_s2_pool3/3x3_s2_0_split_1
I0403 18:13:23.338886 21745 net.cpp:399] pool3/3x3_s2_pool3/3x3_s2_0_split -> pool3/3x3_s2_pool3/3x3_s2_0_split_2
I0403 18:13:23.338906 21745 net.cpp:399] pool3/3x3_s2_pool3/3x3_s2_0_split -> pool3/3x3_s2_pool3/3x3_s2_0_split_3
I0403 18:13:23.338980 21745 net.cpp:141] Setting up pool3/3x3_s2_pool3/3x3_s2_0_split
I0403 18:13:23.339001 21745 net.cpp:148] Top shape: 24 480 14 14 (2257920)
I0403 18:13:23.339017 21745 net.cpp:148] Top shape: 24 480 14 14 (2257920)
I0403 18:13:23.339033 21745 net.cpp:148] Top shape: 24 480 14 14 (2257920)
I0403 18:13:23.339049 21745 net.cpp:148] Top shape: 24 480 14 14 (2257920)
I0403 18:13:23.339062 21745 net.cpp:156] Memory required for data: 854397984
I0403 18:13:23.339077 21745 layer_factory.hpp:77] Creating layer inception_4a/1x1
I0403 18:13:23.339098 21745 net.cpp:91] Creating Layer inception_4a/1x1
I0403 18:13:23.339114 21745 net.cpp:425] inception_4a/1x1 <- pool3/3x3_s2_pool3/3x3_s2_0_split_0
I0403 18:13:23.339134 21745 net.cpp:399] inception_4a/1x1 -> inception_4a/1x1
I0403 18:13:23.340665 21745 net.cpp:141] Setting up inception_4a/1x1
I0403 18:13:23.340692 21745 net.cpp:148] Top shape: 24 192 14 14 (903168)
I0403 18:13:23.340708 21745 net.cpp:156] Memory required for data: 858010656
I0403 18:13:23.340728 21745 layer_factory.hpp:77] Creating layer inception_4a/relu_1x1
I0403 18:13:23.340749 21745 net.cpp:91] Creating Layer inception_4a/relu_1x1
I0403 18:13:23.340764 21745 net.cpp:425] inception_4a/relu_1x1 <- inception_4a/1x1
I0403 18:13:23.340781 21745 net.cpp:386] inception_4a/relu_1x1 -> inception_4a/1x1 (in-place)
I0403 18:13:23.340962 21745 net.cpp:141] Setting up inception_4a/relu_1x1
I0403 18:13:23.340989 21745 net.cpp:148] Top shape: 24 192 14 14 (903168)
I0403 18:13:23.341004 21745 net.cpp:156] Memory required for data: 861623328
I0403 18:13:23.341019 21745 layer_factory.hpp:77] Creating layer inception_4a/3x3_reduce
I0403 18:13:23.341038 21745 net.cpp:91] Creating Layer inception_4a/3x3_reduce
I0403 18:13:23.341055 21745 net.cpp:425] inception_4a/3x3_reduce <- pool3/3x3_s2_pool3/3x3_s2_0_split_1
I0403 18:13:23.341076 21745 net.cpp:399] inception_4a/3x3_reduce -> inception_4a/3x3_reduce
I0403 18:13:23.342363 21745 net.cpp:141] Setting up inception_4a/3x3_reduce
I0403 18:13:23.342391 21745 net.cpp:148] Top shape: 24 96 14 14 (451584)
I0403 18:13:23.342406 21745 net.cpp:156] Memory required for data: 863429664
I0403 18:13:23.342430 21745 layer_factory.hpp:77] Creating layer inception_4a/relu_3x3_reduce
I0403 18:13:23.342449 21745 net.cpp:91] Creating Layer inception_4a/relu_3x3_reduce
I0403 18:13:23.342465 21745 net.cpp:425] inception_4a/relu_3x3_reduce <- inception_4a/3x3_reduce
I0403 18:13:23.342484 21745 net.cpp:386] inception_4a/relu_3x3_reduce -> inception_4a/3x3_reduce (in-place)
I0403 18:13:23.342655 21745 net.cpp:141] Setting up inception_4a/relu_3x3_reduce
I0403 18:13:23.342680 21745 net.cpp:148] Top shape: 24 96 14 14 (451584)
I0403 18:13:23.342694 21745 net.cpp:156] Memory required for data: 865236000
I0403 18:13:23.342710 21745 layer_factory.hpp:77] Creating layer inception_4a/3x3
I0403 18:13:23.342733 21745 net.cpp:91] Creating Layer inception_4a/3x3
I0403 18:13:23.342751 21745 net.cpp:425] inception_4a/3x3 <- inception_4a/3x3_reduce
I0403 18:13:23.342772 21745 net.cpp:399] inception_4a/3x3 -> inception_4a/3x3
I0403 18:13:23.345402 21745 net.cpp:141] Setting up inception_4a/3x3
I0403 18:13:23.345432 21745 net.cpp:148] Top shape: 24 208 14 14 (978432)
I0403 18:13:23.345448 21745 net.cpp:156] Memory required for data: 869149728
I0403 18:13:23.345466 21745 layer_factory.hpp:77] Creating layer inception_4a/relu_3x3
I0403 18:13:23.345486 21745 net.cpp:91] Creating Layer inception_4a/relu_3x3
I0403 18:13:23.345502 21745 net.cpp:425] inception_4a/relu_3x3 <- inception_4a/3x3
I0403 18:13:23.345520 21745 net.cpp:386] inception_4a/relu_3x3 -> inception_4a/3x3 (in-place)
I0403 18:13:23.345798 21745 net.cpp:141] Setting up inception_4a/relu_3x3
I0403 18:13:23.345824 21745 net.cpp:148] Top shape: 24 208 14 14 (978432)
I0403 18:13:23.345839 21745 net.cpp:156] Memory required for data: 873063456
I0403 18:13:23.345852 21745 layer_factory.hpp:77] Creating layer inception_4a/5x5_reduce
I0403 18:13:23.345876 21745 net.cpp:91] Creating Layer inception_4a/5x5_reduce
I0403 18:13:23.345893 21745 net.cpp:425] inception_4a/5x5_reduce <- pool3/3x3_s2_pool3/3x3_s2_0_split_2
I0403 18:13:23.345912 21745 net.cpp:399] inception_4a/5x5_reduce -> inception_4a/5x5_reduce
I0403 18:13:23.346900 21745 net.cpp:141] Setting up inception_4a/5x5_reduce
I0403 18:13:23.346930 21745 net.cpp:148] Top shape: 24 16 14 14 (75264)
I0403 18:13:23.346946 21745 net.cpp:156] Memory required for data: 873364512
I0403 18:13:23.346963 21745 layer_factory.hpp:77] Creating layer inception_4a/relu_5x5_reduce
I0403 18:13:23.346982 21745 net.cpp:91] Creating Layer inception_4a/relu_5x5_reduce
I0403 18:13:23.346997 21745 net.cpp:425] inception_4a/relu_5x5_reduce <- inception_4a/5x5_reduce
I0403 18:13:23.347017 21745 net.cpp:386] inception_4a/relu_5x5_reduce -> inception_4a/5x5_reduce (in-place)
I0403 18:13:23.347192 21745 net.cpp:141] Setting up inception_4a/relu_5x5_reduce
I0403 18:13:23.347215 21745 net.cpp:148] Top shape: 24 16 14 14 (75264)
I0403 18:13:23.347229 21745 net.cpp:156] Memory required for data: 873665568
I0403 18:13:23.347244 21745 layer_factory.hpp:77] Creating layer inception_4a/5x5
I0403 18:13:23.347268 21745 net.cpp:91] Creating Layer inception_4a/5x5
I0403 18:13:23.347285 21745 net.cpp:425] inception_4a/5x5 <- inception_4a/5x5_reduce
I0403 18:13:23.347306 21745 net.cpp:399] inception_4a/5x5 -> inception_4a/5x5
I0403 18:13:23.348356 21745 net.cpp:141] Setting up inception_4a/5x5
I0403 18:13:23.348381 21745 net.cpp:148] Top shape: 24 48 14 14 (225792)
I0403 18:13:23.348397 21745 net.cpp:156] Memory required for data: 874568736
I0403 18:13:23.348414 21745 layer_factory.hpp:77] Creating layer inception_4a/relu_5x5
I0403 18:13:23.348431 21745 net.cpp:91] Creating Layer inception_4a/relu_5x5
I0403 18:13:23.348450 21745 net.cpp:425] inception_4a/relu_5x5 <- inception_4a/5x5
I0403 18:13:23.348466 21745 net.cpp:386] inception_4a/relu_5x5 -> inception_4a/5x5 (in-place)
I0403 18:13:23.348652 21745 net.cpp:141] Setting up inception_4a/relu_5x5
I0403 18:13:23.348676 21745 net.cpp:148] Top shape: 24 48 14 14 (225792)
I0403 18:13:23.348691 21745 net.cpp:156] Memory required for data: 875471904
I0403 18:13:23.348706 21745 layer_factory.hpp:77] Creating layer inception_4a/pool
I0403 18:13:23.348724 21745 net.cpp:91] Creating Layer inception_4a/pool
I0403 18:13:23.348740 21745 net.cpp:425] inception_4a/pool <- pool3/3x3_s2_pool3/3x3_s2_0_split_3
I0403 18:13:23.348758 21745 net.cpp:399] inception_4a/pool -> inception_4a/pool
I0403 18:13:23.348819 21745 net.cpp:141] Setting up inception_4a/pool
I0403 18:13:23.348855 21745 net.cpp:148] Top shape: 24 480 14 14 (2257920)
I0403 18:13:23.348868 21745 net.cpp:156] Memory required for data: 884503584
I0403 18:13:23.348882 21745 layer_factory.hpp:77] Creating layer inception_4a/pool_proj
I0403 18:13:23.348903 21745 net.cpp:91] Creating Layer inception_4a/pool_proj
I0403 18:13:23.348919 21745 net.cpp:425] inception_4a/pool_proj <- inception_4a/pool
I0403 18:13:23.348938 21745 net.cpp:399] inception_4a/pool_proj -> inception_4a/pool_proj
I0403 18:13:23.350038 21745 net.cpp:141] Setting up inception_4a/pool_proj
I0403 18:13:23.350064 21745 net.cpp:148] Top shape: 24 64 14 14 (301056)
I0403 18:13:23.350093 21745 net.cpp:156] Memory required for data: 885707808
I0403 18:13:23.350111 21745 layer_factory.hpp:77] Creating layer inception_4a/relu_pool_proj
I0403 18:13:23.350131 21745 net.cpp:91] Creating Layer inception_4a/relu_pool_proj
I0403 18:13:23.350147 21745 net.cpp:425] inception_4a/relu_pool_proj <- inception_4a/pool_proj
I0403 18:13:23.350164 21745 net.cpp:386] inception_4a/relu_pool_proj -> inception_4a/pool_proj (in-place)
I0403 18:13:23.350433 21745 net.cpp:141] Setting up inception_4a/relu_pool_proj
I0403 18:13:23.350458 21745 net.cpp:148] Top shape: 24 64 14 14 (301056)
I0403 18:13:23.350473 21745 net.cpp:156] Memory required for data: 886912032
I0403 18:13:23.350487 21745 layer_factory.hpp:77] Creating layer inception_4a/output
I0403 18:13:23.350503 21745 net.cpp:91] Creating Layer inception_4a/output
I0403 18:13:23.350518 21745 net.cpp:425] inception_4a/output <- inception_4a/1x1
I0403 18:13:23.350534 21745 net.cpp:425] inception_4a/output <- inception_4a/3x3
I0403 18:13:23.350558 21745 net.cpp:425] inception_4a/output <- inception_4a/5x5
I0403 18:13:23.350572 21745 net.cpp:425] inception_4a/output <- inception_4a/pool_proj
I0403 18:13:23.350589 21745 net.cpp:399] inception_4a/output -> inception_4a/output
I0403 18:13:23.350628 21745 net.cpp:141] Setting up inception_4a/output
I0403 18:13:23.350652 21745 net.cpp:148] Top shape: 24 512 14 14 (2408448)
I0403 18:13:23.350668 21745 net.cpp:156] Memory required for data: 896545824
I0403 18:13:23.350683 21745 layer_factory.hpp:77] Creating layer inception_4a/output_inception_4a/output_0_split
I0403 18:13:23.350698 21745 net.cpp:91] Creating Layer inception_4a/output_inception_4a/output_0_split
I0403 18:13:23.350713 21745 net.cpp:425] inception_4a/output_inception_4a/output_0_split <- inception_4a/output
I0403 18:13:23.350730 21745 net.cpp:399] inception_4a/output_inception_4a/output_0_split -> inception_4a/output_inception_4a/output_0_split_0
I0403 18:13:23.350750 21745 net.cpp:399] inception_4a/output_inception_4a/output_0_split -> inception_4a/output_inception_4a/output_0_split_1
I0403 18:13:23.350769 21745 net.cpp:399] inception_4a/output_inception_4a/output_0_split -> inception_4a/output_inception_4a/output_0_split_2
I0403 18:13:23.350790 21745 net.cpp:399] inception_4a/output_inception_4a/output_0_split -> inception_4a/output_inception_4a/output_0_split_3
I0403 18:13:23.350807 21745 net.cpp:399] inception_4a/output_inception_4a/output_0_split -> inception_4a/output_inception_4a/output_0_split_4
I0403 18:13:23.350894 21745 net.cpp:141] Setting up inception_4a/output_inception_4a/output_0_split
I0403 18:13:23.350916 21745 net.cpp:148] Top shape: 24 512 14 14 (2408448)
I0403 18:13:23.350934 21745 net.cpp:148] Top shape: 24 512 14 14 (2408448)
I0403 18:13:23.350951 21745 net.cpp:148] Top shape: 24 512 14 14 (2408448)
I0403 18:13:23.350966 21745 net.cpp:148] Top shape: 24 512 14 14 (2408448)
I0403 18:13:23.350982 21745 net.cpp:148] Top shape: 24 512 14 14 (2408448)
I0403 18:13:23.350996 21745 net.cpp:156] Memory required for data: 944714784
I0403 18:13:23.351008 21745 layer_factory.hpp:77] Creating layer loss1/ave_pool
I0403 18:13:23.351025 21745 net.cpp:91] Creating Layer loss1/ave_pool
I0403 18:13:23.351039 21745 net.cpp:425] loss1/ave_pool <- inception_4a/output_inception_4a/output_0_split_0
I0403 18:13:23.351058 21745 net.cpp:399] loss1/ave_pool -> loss1/ave_pool
I0403 18:13:23.351250 21745 net.cpp:141] Setting up loss1/ave_pool
I0403 18:13:23.351275 21745 net.cpp:148] Top shape: 24 512 4 4 (196608)
I0403 18:13:23.351289 21745 net.cpp:156] Memory required for data: 945501216
I0403 18:13:23.351305 21745 layer_factory.hpp:77] Creating layer loss1/conv
I0403 18:13:23.351325 21745 net.cpp:91] Creating Layer loss1/conv
I0403 18:13:23.351341 21745 net.cpp:425] loss1/conv <- loss1/ave_pool
I0403 18:13:23.351361 21745 net.cpp:399] loss1/conv -> loss1/conv
I0403 18:13:23.352737 21745 net.cpp:141] Setting up loss1/conv
I0403 18:13:23.352764 21745 net.cpp:148] Top shape: 24 128 4 4 (49152)
I0403 18:13:23.352793 21745 net.cpp:156] Memory required for data: 945697824
I0403 18:13:23.352813 21745 layer_factory.hpp:77] Creating layer loss1/relu_conv
I0403 18:13:23.352844 21745 net.cpp:91] Creating Layer loss1/relu_conv
I0403 18:13:23.352860 21745 net.cpp:425] loss1/relu_conv <- loss1/conv
I0403 18:13:23.352876 21745 net.cpp:386] loss1/relu_conv -> loss1/conv (in-place)
I0403 18:13:23.353142 21745 net.cpp:141] Setting up loss1/relu_conv
I0403 18:13:23.353165 21745 net.cpp:148] Top shape: 24 128 4 4 (49152)
I0403 18:13:23.353180 21745 net.cpp:156] Memory required for data: 945894432
I0403 18:13:23.353194 21745 layer_factory.hpp:77] Creating layer loss1/fc
I0403 18:13:23.353219 21745 net.cpp:91] Creating Layer loss1/fc
I0403 18:13:23.353235 21745 net.cpp:425] loss1/fc <- loss1/conv
I0403 18:13:23.353255 21745 net.cpp:399] loss1/fc -> loss1/fc
I0403 18:13:23.370285 21745 net.cpp:141] Setting up loss1/fc
I0403 18:13:23.370316 21745 net.cpp:148] Top shape: 24 1024 (24576)
I0403 18:13:23.370332 21745 net.cpp:156] Memory required for data: 945992736
I0403 18:13:23.370350 21745 layer_factory.hpp:77] Creating layer loss1/relu_fc
I0403 18:13:23.370369 21745 net.cpp:91] Creating Layer loss1/relu_fc
I0403 18:13:23.370384 21745 net.cpp:425] loss1/relu_fc <- loss1/fc
I0403 18:13:23.370403 21745 net.cpp:386] loss1/relu_fc -> loss1/fc (in-place)
I0403 18:13:23.370582 21745 net.cpp:141] Setting up loss1/relu_fc
I0403 18:13:23.370609 21745 net.cpp:148] Top shape: 24 1024 (24576)
I0403 18:13:23.370623 21745 net.cpp:156] Memory required for data: 946091040
I0403 18:13:23.370637 21745 layer_factory.hpp:77] Creating layer loss1/drop_fc
I0403 18:13:23.370661 21745 net.cpp:91] Creating Layer loss1/drop_fc
I0403 18:13:23.370678 21745 net.cpp:425] loss1/drop_fc <- loss1/fc
I0403 18:13:23.370694 21745 net.cpp:386] loss1/drop_fc -> loss1/fc (in-place)
I0403 18:13:23.370744 21745 net.cpp:141] Setting up loss1/drop_fc
I0403 18:13:23.370766 21745 net.cpp:148] Top shape: 24 1024 (24576)
I0403 18:13:23.370781 21745 net.cpp:156] Memory required for data: 946189344
I0403 18:13:23.370795 21745 layer_factory.hpp:77] Creating layer loss1/classifier_plantvillage
I0403 18:13:23.370812 21745 net.cpp:91] Creating Layer loss1/classifier_plantvillage
I0403 18:13:23.370827 21745 net.cpp:425] loss1/classifier_plantvillage <- loss1/fc
I0403 18:13:23.370848 21745 net.cpp:399] loss1/classifier_plantvillage -> loss1/classifier_plantvillage
I0403 18:13:23.371718 21745 net.cpp:141] Setting up loss1/classifier_plantvillage
I0403 18:13:23.371744 21745 net.cpp:148] Top shape: 24 38 (912)
I0403 18:13:23.371759 21745 net.cpp:156] Memory required for data: 946192992
I0403 18:13:23.371776 21745 layer_factory.hpp:77] Creating layer loss1/classifier_plantvillage_loss1/classifier_plantvillage_0_split
I0403 18:13:23.371795 21745 net.cpp:91] Creating Layer loss1/classifier_plantvillage_loss1/classifier_plantvillage_0_split
I0403 18:13:23.371811 21745 net.cpp:425] loss1/classifier_plantvillage_loss1/classifier_plantvillage_0_split <- loss1/classifier_plantvillage
I0403 18:13:23.371827 21745 net.cpp:399] loss1/classifier_plantvillage_loss1/classifier_plantvillage_0_split -> loss1/classifier_plantvillage_loss1/classifier_plantvillage_0_split_0
I0403 18:13:23.371846 21745 net.cpp:399] loss1/classifier_plantvillage_loss1/classifier_plantvillage_0_split -> loss1/classifier_plantvillage_loss1/classifier_plantvillage_0_split_1
I0403 18:13:23.371865 21745 net.cpp:399] loss1/classifier_plantvillage_loss1/classifier_plantvillage_0_split -> loss1/classifier_plantvillage_loss1/classifier_plantvillage_0_split_2
I0403 18:13:23.371932 21745 net.cpp:141] Setting up loss1/classifier_plantvillage_loss1/classifier_plantvillage_0_split
I0403 18:13:23.371953 21745 net.cpp:148] Top shape: 24 38 (912)
I0403 18:13:23.371968 21745 net.cpp:148] Top shape: 24 38 (912)
I0403 18:13:23.371984 21745 net.cpp:148] Top shape: 24 38 (912)
I0403 18:13:23.371997 21745 net.cpp:156] Memory required for data: 946203936
I0403 18:13:23.372011 21745 layer_factory.hpp:77] Creating layer inception_4b/1x1
I0403 18:13:23.372032 21745 net.cpp:91] Creating Layer inception_4b/1x1
I0403 18:13:23.372063 21745 net.cpp:425] inception_4b/1x1 <- inception_4a/output_inception_4a/output_0_split_1
I0403 18:13:23.372082 21745 net.cpp:399] inception_4b/1x1 -> inception_4b/1x1
I0403 18:13:23.373661 21745 net.cpp:141] Setting up inception_4b/1x1
I0403 18:13:23.373687 21745 net.cpp:148] Top shape: 24 160 14 14 (752640)
I0403 18:13:23.373703 21745 net.cpp:156] Memory required for data: 949214496
I0403 18:13:23.373723 21745 layer_factory.hpp:77] Creating layer inception_4b/relu_1x1
I0403 18:13:23.373739 21745 net.cpp:91] Creating Layer inception_4b/relu_1x1
I0403 18:13:23.373754 21745 net.cpp:425] inception_4b/relu_1x1 <- inception_4b/1x1
I0403 18:13:23.373769 21745 net.cpp:386] inception_4b/relu_1x1 -> inception_4b/1x1 (in-place)
I0403 18:13:23.373944 21745 net.cpp:141] Setting up inception_4b/relu_1x1
I0403 18:13:23.373967 21745 net.cpp:148] Top shape: 24 160 14 14 (752640)
I0403 18:13:23.373982 21745 net.cpp:156] Memory required for data: 952225056
I0403 18:13:23.373996 21745 layer_factory.hpp:77] Creating layer inception_4b/3x3_reduce
I0403 18:13:23.374017 21745 net.cpp:91] Creating Layer inception_4b/3x3_reduce
I0403 18:13:23.374033 21745 net.cpp:425] inception_4b/3x3_reduce <- inception_4a/output_inception_4a/output_0_split_2
I0403 18:13:23.374053 21745 net.cpp:399] inception_4b/3x3_reduce -> inception_4b/3x3_reduce
I0403 18:13:23.375339 21745 net.cpp:141] Setting up inception_4b/3x3_reduce
I0403 18:13:23.375366 21745 net.cpp:148] Top shape: 24 112 14 14 (526848)
I0403 18:13:23.375381 21745 net.cpp:156] Memory required for data: 954332448
I0403 18:13:23.375398 21745 layer_factory.hpp:77] Creating layer inception_4b/relu_3x3_reduce
I0403 18:13:23.375414 21745 net.cpp:91] Creating Layer inception_4b/relu_3x3_reduce
I0403 18:13:23.375429 21745 net.cpp:425] inception_4b/relu_3x3_reduce <- inception_4b/3x3_reduce
I0403 18:13:23.375447 21745 net.cpp:386] inception_4b/relu_3x3_reduce -> inception_4b/3x3_reduce (in-place)
I0403 18:13:23.375725 21745 net.cpp:141] Setting up inception_4b/relu_3x3_reduce
I0403 18:13:23.375751 21745 net.cpp:148] Top shape: 24 112 14 14 (526848)
I0403 18:13:23.375764 21745 net.cpp:156] Memory required for data: 956439840
I0403 18:13:23.375777 21745 layer_factory.hpp:77] Creating layer inception_4b/3x3
I0403 18:13:23.375798 21745 net.cpp:91] Creating Layer inception_4b/3x3
I0403 18:13:23.375815 21745 net.cpp:425] inception_4b/3x3 <- inception_4b/3x3_reduce
I0403 18:13:23.375835 21745 net.cpp:399] inception_4b/3x3 -> inception_4b/3x3
I0403 18:13:23.378695 21745 net.cpp:141] Setting up inception_4b/3x3
I0403 18:13:23.378722 21745 net.cpp:148] Top shape: 24 224 14 14 (1053696)
I0403 18:13:23.378737 21745 net.cpp:156] Memory required for data: 960654624
I0403 18:13:23.378756 21745 layer_factory.hpp:77] Creating layer inception_4b/relu_3x3
I0403 18:13:23.378774 21745 net.cpp:91] Creating Layer inception_4b/relu_3x3
I0403 18:13:23.378790 21745 net.cpp:425] inception_4b/relu_3x3 <- inception_4b/3x3
I0403 18:13:23.378808 21745 net.cpp:386] inception_4b/relu_3x3 -> inception_4b/3x3 (in-place)
I0403 18:13:23.378978 21745 net.cpp:141] Setting up inception_4b/relu_3x3
I0403 18:13:23.379004 21745 net.cpp:148] Top shape: 24 224 14 14 (1053696)
I0403 18:13:23.379019 21745 net.cpp:156] Memory required for data: 964869408
I0403 18:13:23.379032 21745 layer_factory.hpp:77] Creating layer inception_4b/5x5_reduce
I0403 18:13:23.379055 21745 net.cpp:91] Creating Layer inception_4b/5x5_reduce
I0403 18:13:23.379072 21745 net.cpp:425] inception_4b/5x5_reduce <- inception_4a/output_inception_4a/output_0_split_3
I0403 18:13:23.379091 21745 net.cpp:399] inception_4b/5x5_reduce -> inception_4b/5x5_reduce
I0403 18:13:23.380118 21745 net.cpp:141] Setting up inception_4b/5x5_reduce
I0403 18:13:23.380147 21745 net.cpp:148] Top shape: 24 24 14 14 (112896)
I0403 18:13:23.380163 21745 net.cpp:156] Memory required for data: 965320992
I0403 18:13:23.380182 21745 layer_factory.hpp:77] Creating layer inception_4b/relu_5x5_reduce
I0403 18:13:23.380198 21745 net.cpp:91] Creating Layer inception_4b/relu_5x5_reduce
I0403 18:13:23.380228 21745 net.cpp:425] inception_4b/relu_5x5_reduce <- inception_4b/5x5_reduce
I0403 18:13:23.380249 21745 net.cpp:386] inception_4b/relu_5x5_reduce -> inception_4b/5x5_reduce (in-place)
I0403 18:13:23.380424 21745 net.cpp:141] Setting up inception_4b/relu_5x5_reduce
I0403 18:13:23.380448 21745 net.cpp:148] Top shape: 24 24 14 14 (112896)
I0403 18:13:23.380463 21745 net.cpp:156] Memory required for data: 965772576
I0403 18:13:23.380477 21745 layer_factory.hpp:77] Creating layer inception_4b/5x5
I0403 18:13:23.380498 21745 net.cpp:91] Creating Layer inception_4b/5x5
I0403 18:13:23.380516 21745 net.cpp:425] inception_4b/5x5 <- inception_4b/5x5_reduce
I0403 18:13:23.380540 21745 net.cpp:399] inception_4b/5x5 -> inception_4b/5x5
I0403 18:13:23.381731 21745 net.cpp:141] Setting up inception_4b/5x5
I0403 18:13:23.381757 21745 net.cpp:148] Top shape: 24 64 14 14 (301056)
I0403 18:13:23.381772 21745 net.cpp:156] Memory required for data: 966976800
I0403 18:13:23.381791 21745 layer_factory.hpp:77] Creating layer inception_4b/relu_5x5
I0403 18:13:23.381808 21745 net.cpp:91] Creating Layer inception_4b/relu_5x5
I0403 18:13:23.381824 21745 net.cpp:425] inception_4b/relu_5x5 <- inception_4b/5x5
I0403 18:13:23.381840 21745 net.cpp:386] inception_4b/relu_5x5 -> inception_4b/5x5 (in-place)
I0403 18:13:23.382110 21745 net.cpp:141] Setting up inception_4b/relu_5x5
I0403 18:13:23.382138 21745 net.cpp:148] Top shape: 24 64 14 14 (301056)
I0403 18:13:23.382153 21745 net.cpp:156] Memory required for data: 968181024
I0403 18:13:23.382166 21745 layer_factory.hpp:77] Creating layer inception_4b/pool
I0403 18:13:23.382199 21745 net.cpp:91] Creating Layer inception_4b/pool
I0403 18:13:23.382215 21745 net.cpp:425] inception_4b/pool <- inception_4a/output_inception_4a/output_0_split_4
I0403 18:13:23.382236 21745 net.cpp:399] inception_4b/pool -> inception_4b/pool
I0403 18:13:23.382297 21745 net.cpp:141] Setting up inception_4b/pool
I0403 18:13:23.382320 21745 net.cpp:148] Top shape: 24 512 14 14 (2408448)
I0403 18:13:23.382334 21745 net.cpp:156] Memory required for data: 977814816
I0403 18:13:23.382349 21745 layer_factory.hpp:77] Creating layer inception_4b/pool_proj
I0403 18:13:23.382371 21745 net.cpp:91] Creating Layer inception_4b/pool_proj
I0403 18:13:23.382388 21745 net.cpp:425] inception_4b/pool_proj <- inception_4b/pool
I0403 18:13:23.382408 21745 net.cpp:399] inception_4b/pool_proj -> inception_4b/pool_proj
I0403 18:13:23.383574 21745 net.cpp:141] Setting up inception_4b/pool_proj
I0403 18:13:23.383604 21745 net.cpp:148] Top shape: 24 64 14 14 (301056)
I0403 18:13:23.383620 21745 net.cpp:156] Memory required for data: 979019040
I0403 18:13:23.383638 21745 layer_factory.hpp:77] Creating layer inception_4b/relu_pool_proj
I0403 18:13:23.383656 21745 net.cpp:91] Creating Layer inception_4b/relu_pool_proj
I0403 18:13:23.383671 21745 net.cpp:425] inception_4b/relu_pool_proj <- inception_4b/pool_proj
I0403 18:13:23.383690 21745 net.cpp:386] inception_4b/relu_pool_proj -> inception_4b/pool_proj (in-place)
I0403 18:13:23.383879 21745 net.cpp:141] Setting up inception_4b/relu_pool_proj
I0403 18:13:23.383903 21745 net.cpp:148] Top shape: 24 64 14 14 (301056)
I0403 18:13:23.383916 21745 net.cpp:156] Memory required for data: 980223264
I0403 18:13:23.383931 21745 layer_factory.hpp:77] Creating layer inception_4b/output
I0403 18:13:23.383947 21745 net.cpp:91] Creating Layer inception_4b/output
I0403 18:13:23.383962 21745 net.cpp:425] inception_4b/output <- inception_4b/1x1
I0403 18:13:23.383977 21745 net.cpp:425] inception_4b/output <- inception_4b/3x3
I0403 18:13:23.383992 21745 net.cpp:425] inception_4b/output <- inception_4b/5x5
I0403 18:13:23.384007 21745 net.cpp:425] inception_4b/output <- inception_4b/pool_proj
I0403 18:13:23.384026 21745 net.cpp:399] inception_4b/output -> inception_4b/output
I0403 18:13:23.384068 21745 net.cpp:141] Setting up inception_4b/output
I0403 18:13:23.384091 21745 net.cpp:148] Top shape: 24 512 14 14 (2408448)
I0403 18:13:23.384107 21745 net.cpp:156] Memory required for data: 989857056
I0403 18:13:23.384135 21745 layer_factory.hpp:77] Creating layer inception_4b/output_inception_4b/output_0_split
I0403 18:13:23.384152 21745 net.cpp:91] Creating Layer inception_4b/output_inception_4b/output_0_split
I0403 18:13:23.384167 21745 net.cpp:425] inception_4b/output_inception_4b/output_0_split <- inception_4b/output
I0403 18:13:23.384183 21745 net.cpp:399] inception_4b/output_inception_4b/output_0_split -> inception_4b/output_inception_4b/output_0_split_0
I0403 18:13:23.384205 21745 net.cpp:399] inception_4b/output_inception_4b/output_0_split -> inception_4b/output_inception_4b/output_0_split_1
I0403 18:13:23.384225 21745 net.cpp:399] inception_4b/output_inception_4b/output_0_split -> inception_4b/output_inception_4b/output_0_split_2
I0403 18:13:23.384244 21745 net.cpp:399] inception_4b/output_inception_4b/output_0_split -> inception_4b/output_inception_4b/output_0_split_3
I0403 18:13:23.384326 21745 net.cpp:141] Setting up inception_4b/output_inception_4b/output_0_split
I0403 18:13:23.384348 21745 net.cpp:148] Top shape: 24 512 14 14 (2408448)
I0403 18:13:23.384364 21745 net.cpp:148] Top shape: 24 512 14 14 (2408448)
I0403 18:13:23.384379 21745 net.cpp:148] Top shape: 24 512 14 14 (2408448)
I0403 18:13:23.384394 21745 net.cpp:148] Top shape: 24 512 14 14 (2408448)
I0403 18:13:23.384408 21745 net.cpp:156] Memory required for data: 1028392224
I0403 18:13:23.384423 21745 layer_factory.hpp:77] Creating layer inception_4c/1x1
I0403 18:13:23.384444 21745 net.cpp:91] Creating Layer inception_4c/1x1
I0403 18:13:23.384461 21745 net.cpp:425] inception_4c/1x1 <- inception_4b/output_inception_4b/output_0_split_0
I0403 18:13:23.384479 21745 net.cpp:399] inception_4c/1x1 -> inception_4c/1x1
I0403 18:13:23.385880 21745 net.cpp:141] Setting up inception_4c/1x1
I0403 18:13:23.385906 21745 net.cpp:148] Top shape: 24 128 14 14 (602112)
I0403 18:13:23.385921 21745 net.cpp:156] Memory required for data: 1030800672
I0403 18:13:23.385938 21745 layer_factory.hpp:77] Creating layer inception_4c/relu_1x1
I0403 18:13:23.385958 21745 net.cpp:91] Creating Layer inception_4c/relu_1x1
I0403 18:13:23.385974 21745 net.cpp:425] inception_4c/relu_1x1 <- inception_4c/1x1
I0403 18:13:23.385990 21745 net.cpp:386] inception_4c/relu_1x1 -> inception_4c/1x1 (in-place)
I0403 18:13:23.386157 21745 net.cpp:141] Setting up inception_4c/relu_1x1
I0403 18:13:23.386181 21745 net.cpp:148] Top shape: 24 128 14 14 (602112)
I0403 18:13:23.386195 21745 net.cpp:156] Memory required for data: 1033209120
I0403 18:13:23.386209 21745 layer_factory.hpp:77] Creating layer inception_4c/3x3_reduce
I0403 18:13:23.386234 21745 net.cpp:91] Creating Layer inception_4c/3x3_reduce
I0403 18:13:23.386250 21745 net.cpp:425] inception_4c/3x3_reduce <- inception_4b/output_inception_4b/output_0_split_1
I0403 18:13:23.386273 21745 net.cpp:399] inception_4c/3x3_reduce -> inception_4c/3x3_reduce
I0403 18:13:23.388131 21745 net.cpp:141] Setting up inception_4c/3x3_reduce
I0403 18:13:23.388159 21745 net.cpp:148] Top shape: 24 128 14 14 (602112)
I0403 18:13:23.388175 21745 net.cpp:156] Memory required for data: 1035617568
I0403 18:13:23.388193 21745 layer_factory.hpp:77] Creating layer inception_4c/relu_3x3_reduce
I0403 18:13:23.388209 21745 net.cpp:91] Creating Layer inception_4c/relu_3x3_reduce
I0403 18:13:23.388224 21745 net.cpp:425] inception_4c/relu_3x3_reduce <- inception_4c/3x3_reduce
I0403 18:13:23.388241 21745 net.cpp:386] inception_4c/relu_3x3_reduce -> inception_4c/3x3_reduce (in-place)
I0403 18:13:23.388512 21745 net.cpp:141] Setting up inception_4c/relu_3x3_reduce
I0403 18:13:23.388543 21745 net.cpp:148] Top shape: 24 128 14 14 (602112)
I0403 18:13:23.388572 21745 net.cpp:156] Memory required for data: 1038026016
I0403 18:13:23.388587 21745 layer_factory.hpp:77] Creating layer inception_4c/3x3
I0403 18:13:23.388610 21745 net.cpp:91] Creating Layer inception_4c/3x3
I0403 18:13:23.388629 21745 net.cpp:425] inception_4c/3x3 <- inception_4c/3x3_reduce
I0403 18:13:23.388648 21745 net.cpp:399] inception_4c/3x3 -> inception_4c/3x3
I0403 18:13:23.392103 21745 net.cpp:141] Setting up inception_4c/3x3
I0403 18:13:23.392148 21745 net.cpp:148] Top shape: 24 256 14 14 (1204224)
I0403 18:13:23.392164 21745 net.cpp:156] Memory required for data: 1042842912
I0403 18:13:23.392194 21745 layer_factory.hpp:77] Creating layer inception_4c/relu_3x3
I0403 18:13:23.392213 21745 net.cpp:91] Creating Layer inception_4c/relu_3x3
I0403 18:13:23.392230 21745 net.cpp:425] inception_4c/relu_3x3 <- inception_4c/3x3
I0403 18:13:23.392248 21745 net.cpp:386] inception_4c/relu_3x3 -> inception_4c/3x3 (in-place)
I0403 18:13:23.392418 21745 net.cpp:141] Setting up inception_4c/relu_3x3
I0403 18:13:23.392444 21745 net.cpp:148] Top shape: 24 256 14 14 (1204224)
I0403 18:13:23.392459 21745 net.cpp:156] Memory required for data: 1047659808
I0403 18:13:23.392474 21745 layer_factory.hpp:77] Creating layer inception_4c/5x5_reduce
I0403 18:13:23.392498 21745 net.cpp:91] Creating Layer inception_4c/5x5_reduce
I0403 18:13:23.392514 21745 net.cpp:425] inception_4c/5x5_reduce <- inception_4b/output_inception_4b/output_0_split_2
I0403 18:13:23.392534 21745 net.cpp:399] inception_4c/5x5_reduce -> inception_4c/5x5_reduce
I0403 18:13:23.393626 21745 net.cpp:141] Setting up inception_4c/5x5_reduce
I0403 18:13:23.393656 21745 net.cpp:148] Top shape: 24 24 14 14 (112896)
I0403 18:13:23.393671 21745 net.cpp:156] Memory required for data: 1048111392
I0403 18:13:23.393689 21745 layer_factory.hpp:77] Creating layer inception_4c/relu_5x5_reduce
I0403 18:13:23.393707 21745 net.cpp:91] Creating Layer inception_4c/relu_5x5_reduce
I0403 18:13:23.393721 21745 net.cpp:425] inception_4c/relu_5x5_reduce <- inception_4c/5x5_reduce
I0403 18:13:23.393738 21745 net.cpp:386] inception_4c/relu_5x5_reduce -> inception_4c/5x5_reduce (in-place)
I0403 18:13:23.393930 21745 net.cpp:141] Setting up inception_4c/relu_5x5_reduce
I0403 18:13:23.393954 21745 net.cpp:148] Top shape: 24 24 14 14 (112896)
I0403 18:13:23.393970 21745 net.cpp:156] Memory required for data: 1048562976
I0403 18:13:23.393983 21745 layer_factory.hpp:77] Creating layer inception_4c/5x5
I0403 18:13:23.394004 21745 net.cpp:91] Creating Layer inception_4c/5x5
I0403 18:13:23.394021 21745 net.cpp:425] inception_4c/5x5 <- inception_4c/5x5_reduce
I0403 18:13:23.394042 21745 net.cpp:399] inception_4c/5x5 -> inception_4c/5x5
I0403 18:13:23.395226 21745 net.cpp:141] Setting up inception_4c/5x5
I0403 18:13:23.395251 21745 net.cpp:148] Top shape: 24 64 14 14 (301056)
I0403 18:13:23.395267 21745 net.cpp:156] Memory required for data: 1049767200
I0403 18:13:23.395285 21745 layer_factory.hpp:77] Creating layer inception_4c/relu_5x5
I0403 18:13:23.395303 21745 net.cpp:91] Creating Layer inception_4c/relu_5x5
I0403 18:13:23.395318 21745 net.cpp:425] inception_4c/relu_5x5 <- inception_4c/5x5
I0403 18:13:23.395336 21745 net.cpp:386] inception_4c/relu_5x5 -> inception_4c/5x5 (in-place)
I0403 18:13:23.395617 21745 net.cpp:141] Setting up inception_4c/relu_5x5
I0403 18:13:23.395642 21745 net.cpp:148] Top shape: 24 64 14 14 (301056)
I0403 18:13:23.395656 21745 net.cpp:156] Memory required for data: 1050971424
I0403 18:13:23.395670 21745 layer_factory.hpp:77] Creating layer inception_4c/pool
I0403 18:13:23.395687 21745 net.cpp:91] Creating Layer inception_4c/pool
I0403 18:13:23.395702 21745 net.cpp:425] inception_4c/pool <- inception_4b/output_inception_4b/output_0_split_3
I0403 18:13:23.395721 21745 net.cpp:399] inception_4c/pool -> inception_4c/pool
I0403 18:13:23.395783 21745 net.cpp:141] Setting up inception_4c/pool
I0403 18:13:23.395807 21745 net.cpp:148] Top shape: 24 512 14 14 (2408448)
I0403 18:13:23.395820 21745 net.cpp:156] Memory required for data: 1060605216
I0403 18:13:23.395833 21745 layer_factory.hpp:77] Creating layer inception_4c/pool_proj
I0403 18:13:23.395856 21745 net.cpp:91] Creating Layer inception_4c/pool_proj
I0403 18:13:23.395874 21745 net.cpp:425] inception_4c/pool_proj <- inception_4c/pool
I0403 18:13:23.395890 21745 net.cpp:399] inception_4c/pool_proj -> inception_4c/pool_proj
I0403 18:13:23.397085 21745 net.cpp:141] Setting up inception_4c/pool_proj
I0403 18:13:23.397114 21745 net.cpp:148] Top shape: 24 64 14 14 (301056)
I0403 18:13:23.397143 21745 net.cpp:156] Memory required for data: 1061809440
I0403 18:13:23.397161 21745 layer_factory.hpp:77] Creating layer inception_4c/relu_pool_proj
I0403 18:13:23.397179 21745 net.cpp:91] Creating Layer inception_4c/relu_pool_proj
I0403 18:13:23.397195 21745 net.cpp:425] inception_4c/relu_pool_proj <- inception_4c/pool_proj
I0403 18:13:23.397213 21745 net.cpp:386] inception_4c/relu_pool_proj -> inception_4c/pool_proj (in-place)
I0403 18:13:23.397387 21745 net.cpp:141] Setting up inception_4c/relu_pool_proj
I0403 18:13:23.397411 21745 net.cpp:148] Top shape: 24 64 14 14 (301056)
I0403 18:13:23.397425 21745 net.cpp:156] Memory required for data: 1063013664
I0403 18:13:23.397439 21745 layer_factory.hpp:77] Creating layer inception_4c/output
I0403 18:13:23.397455 21745 net.cpp:91] Creating Layer inception_4c/output
I0403 18:13:23.397470 21745 net.cpp:425] inception_4c/output <- inception_4c/1x1
I0403 18:13:23.397485 21745 net.cpp:425] inception_4c/output <- inception_4c/3x3
I0403 18:13:23.397500 21745 net.cpp:425] inception_4c/output <- inception_4c/5x5
I0403 18:13:23.397516 21745 net.cpp:425] inception_4c/output <- inception_4c/pool_proj
I0403 18:13:23.397539 21745 net.cpp:399] inception_4c/output -> inception_4c/output
I0403 18:13:23.397585 21745 net.cpp:141] Setting up inception_4c/output
I0403 18:13:23.397609 21745 net.cpp:148] Top shape: 24 512 14 14 (2408448)
I0403 18:13:23.397624 21745 net.cpp:156] Memory required for data: 1072647456
I0403 18:13:23.397639 21745 layer_factory.hpp:77] Creating layer inception_4c/output_inception_4c/output_0_split
I0403 18:13:23.397655 21745 net.cpp:91] Creating Layer inception_4c/output_inception_4c/output_0_split
I0403 18:13:23.397668 21745 net.cpp:425] inception_4c/output_inception_4c/output_0_split <- inception_4c/output
I0403 18:13:23.397685 21745 net.cpp:399] inception_4c/output_inception_4c/output_0_split -> inception_4c/output_inception_4c/output_0_split_0
I0403 18:13:23.397706 21745 net.cpp:399] inception_4c/output_inception_4c/output_0_split -> inception_4c/output_inception_4c/output_0_split_1
I0403 18:13:23.397727 21745 net.cpp:399] inception_4c/output_inception_4c/output_0_split -> inception_4c/output_inception_4c/output_0_split_2
I0403 18:13:23.397745 21745 net.cpp:399] inception_4c/output_inception_4c/output_0_split -> inception_4c/output_inception_4c/output_0_split_3
I0403 18:13:23.397827 21745 net.cpp:141] Setting up inception_4c/output_inception_4c/output_0_split
I0403 18:13:23.397850 21745 net.cpp:148] Top shape: 24 512 14 14 (2408448)
I0403 18:13:23.397864 21745 net.cpp:148] Top shape: 24 512 14 14 (2408448)
I0403 18:13:23.397879 21745 net.cpp:148] Top shape: 24 512 14 14 (2408448)
I0403 18:13:23.397894 21745 net.cpp:148] Top shape: 24 512 14 14 (2408448)
I0403 18:13:23.397908 21745 net.cpp:156] Memory required for data: 1111182624
I0403 18:13:23.397922 21745 layer_factory.hpp:77] Creating layer inception_4d/1x1
I0403 18:13:23.397943 21745 net.cpp:91] Creating Layer inception_4d/1x1
I0403 18:13:23.397960 21745 net.cpp:425] inception_4d/1x1 <- inception_4c/output_inception_4c/output_0_split_0
I0403 18:13:23.397979 21745 net.cpp:399] inception_4d/1x1 -> inception_4d/1x1
I0403 18:13:23.399291 21745 net.cpp:141] Setting up inception_4d/1x1
I0403 18:13:23.399317 21745 net.cpp:148] Top shape: 24 112 14 14 (526848)
I0403 18:13:23.399333 21745 net.cpp:156] Memory required for data: 1113290016
I0403 18:13:23.399349 21745 layer_factory.hpp:77] Creating layer inception_4d/relu_1x1
I0403 18:13:23.399369 21745 net.cpp:91] Creating Layer inception_4d/relu_1x1
I0403 18:13:23.399385 21745 net.cpp:425] inception_4d/relu_1x1 <- inception_4d/1x1
I0403 18:13:23.399401 21745 net.cpp:386] inception_4d/relu_1x1 -> inception_4d/1x1 (in-place)
I0403 18:13:23.399590 21745 net.cpp:141] Setting up inception_4d/relu_1x1
I0403 18:13:23.399616 21745 net.cpp:148] Top shape: 24 112 14 14 (526848)
I0403 18:13:23.399631 21745 net.cpp:156] Memory required for data: 1115397408
I0403 18:13:23.399646 21745 layer_factory.hpp:77] Creating layer inception_4d/3x3_reduce
I0403 18:13:23.399679 21745 net.cpp:91] Creating Layer inception_4d/3x3_reduce
I0403 18:13:23.399698 21745 net.cpp:425] inception_4d/3x3_reduce <- inception_4c/output_inception_4c/output_0_split_1
I0403 18:13:23.399716 21745 net.cpp:399] inception_4d/3x3_reduce -> inception_4d/3x3_reduce
I0403 18:13:23.401183 21745 net.cpp:141] Setting up inception_4d/3x3_reduce
I0403 18:13:23.401209 21745 net.cpp:148] Top shape: 24 144 14 14 (677376)
I0403 18:13:23.401224 21745 net.cpp:156] Memory required for data: 1118106912
I0403 18:13:23.401242 21745 layer_factory.hpp:77] Creating layer inception_4d/relu_3x3_reduce
I0403 18:13:23.401260 21745 net.cpp:91] Creating Layer inception_4d/relu_3x3_reduce
I0403 18:13:23.401278 21745 net.cpp:425] inception_4d/relu_3x3_reduce <- inception_4d/3x3_reduce
I0403 18:13:23.401293 21745 net.cpp:386] inception_4d/relu_3x3_reduce -> inception_4d/3x3_reduce (in-place)
I0403 18:13:23.401587 21745 net.cpp:141] Setting up inception_4d/relu_3x3_reduce
I0403 18:13:23.401612 21745 net.cpp:148] Top shape: 24 144 14 14 (677376)
I0403 18:13:23.401628 21745 net.cpp:156] Memory required for data: 1120816416
I0403 18:13:23.401643 21745 layer_factory.hpp:77] Creating layer inception_4d/3x3
I0403 18:13:23.401664 21745 net.cpp:91] Creating Layer inception_4d/3x3
I0403 18:13:23.401682 21745 net.cpp:425] inception_4d/3x3 <- inception_4d/3x3_reduce
I0403 18:13:23.401702 21745 net.cpp:399] inception_4d/3x3 -> inception_4d/3x3
I0403 18:13:23.405802 21745 net.cpp:141] Setting up inception_4d/3x3
I0403 18:13:23.405829 21745 net.cpp:148] Top shape: 24 288 14 14 (1354752)
I0403 18:13:23.405844 21745 net.cpp:156] Memory required for data: 1126235424
I0403 18:13:23.405863 21745 layer_factory.hpp:77] Creating layer inception_4d/relu_3x3
I0403 18:13:23.405881 21745 net.cpp:91] Creating Layer inception_4d/relu_3x3
I0403 18:13:23.405899 21745 net.cpp:425] inception_4d/relu_3x3 <- inception_4d/3x3
I0403 18:13:23.405915 21745 net.cpp:386] inception_4d/relu_3x3 -> inception_4d/3x3 (in-place)
I0403 18:13:23.406090 21745 net.cpp:141] Setting up inception_4d/relu_3x3
I0403 18:13:23.406114 21745 net.cpp:148] Top shape: 24 288 14 14 (1354752)
I0403 18:13:23.406129 21745 net.cpp:156] Memory required for data: 1131654432
I0403 18:13:23.406143 21745 layer_factory.hpp:77] Creating layer inception_4d/5x5_reduce
I0403 18:13:23.406164 21745 net.cpp:91] Creating Layer inception_4d/5x5_reduce
I0403 18:13:23.406182 21745 net.cpp:425] inception_4d/5x5_reduce <- inception_4c/output_inception_4c/output_0_split_2
I0403 18:13:23.406199 21745 net.cpp:399] inception_4d/5x5_reduce -> inception_4d/5x5_reduce
I0403 18:13:23.407342 21745 net.cpp:141] Setting up inception_4d/5x5_reduce
I0403 18:13:23.407368 21745 net.cpp:148] Top shape: 24 32 14 14 (150528)
I0403 18:13:23.407383 21745 net.cpp:156] Memory required for data: 1132256544
I0403 18:13:23.407400 21745 layer_factory.hpp:77] Creating layer inception_4d/relu_5x5_reduce
I0403 18:13:23.407420 21745 net.cpp:91] Creating Layer inception_4d/relu_5x5_reduce
I0403 18:13:23.407435 21745 net.cpp:425] inception_4d/relu_5x5_reduce <- inception_4d/5x5_reduce
I0403 18:13:23.407451 21745 net.cpp:386] inception_4d/relu_5x5_reduce -> inception_4d/5x5_reduce (in-place)
I0403 18:13:23.407632 21745 net.cpp:141] Setting up inception_4d/relu_5x5_reduce
I0403 18:13:23.407658 21745 net.cpp:148] Top shape: 24 32 14 14 (150528)
I0403 18:13:23.407675 21745 net.cpp:156] Memory required for data: 1132858656
I0403 18:13:23.407687 21745 layer_factory.hpp:77] Creating layer inception_4d/5x5
I0403 18:13:23.407708 21745 net.cpp:91] Creating Layer inception_4d/5x5
I0403 18:13:23.407726 21745 net.cpp:425] inception_4d/5x5 <- inception_4d/5x5_reduce
I0403 18:13:23.407743 21745 net.cpp:399] inception_4d/5x5 -> inception_4d/5x5
I0403 18:13:23.409178 21745 net.cpp:141] Setting up inception_4d/5x5
I0403 18:13:23.409204 21745 net.cpp:148] Top shape: 24 64 14 14 (301056)
I0403 18:13:23.409219 21745 net.cpp:156] Memory required for data: 1134062880
I0403 18:13:23.409237 21745 layer_factory.hpp:77] Creating layer inception_4d/relu_5x5
I0403 18:13:23.409270 21745 net.cpp:91] Creating Layer inception_4d/relu_5x5
I0403 18:13:23.409286 21745 net.cpp:425] inception_4d/relu_5x5 <- inception_4d/5x5
I0403 18:13:23.409306 21745 net.cpp:386] inception_4d/relu_5x5 -> inception_4d/5x5 (in-place)
I0403 18:13:23.409600 21745 net.cpp:141] Setting up inception_4d/relu_5x5
I0403 18:13:23.409626 21745 net.cpp:148] Top shape: 24 64 14 14 (301056)
I0403 18:13:23.409641 21745 net.cpp:156] Memory required for data: 1135267104
I0403 18:13:23.409654 21745 layer_factory.hpp:77] Creating layer inception_4d/pool
I0403 18:13:23.409672 21745 net.cpp:91] Creating Layer inception_4d/pool
I0403 18:13:23.409687 21745 net.cpp:425] inception_4d/pool <- inception_4c/output_inception_4c/output_0_split_3
I0403 18:13:23.409705 21745 net.cpp:399] inception_4d/pool -> inception_4d/pool
I0403 18:13:23.409770 21745 net.cpp:141] Setting up inception_4d/pool
I0403 18:13:23.409792 21745 net.cpp:148] Top shape: 24 512 14 14 (2408448)
I0403 18:13:23.409806 21745 net.cpp:156] Memory required for data: 1144900896
I0403 18:13:23.409819 21745 layer_factory.hpp:77] Creating layer inception_4d/pool_proj
I0403 18:13:23.409842 21745 net.cpp:91] Creating Layer inception_4d/pool_proj
I0403 18:13:23.409859 21745 net.cpp:425] inception_4d/pool_proj <- inception_4d/pool
I0403 18:13:23.409878 21745 net.cpp:399] inception_4d/pool_proj -> inception_4d/pool_proj
I0403 18:13:23.411568 21745 net.cpp:141] Setting up inception_4d/pool_proj
I0403 18:13:23.411594 21745 net.cpp:148] Top shape: 24 64 14 14 (301056)
I0403 18:13:23.411610 21745 net.cpp:156] Memory required for data: 1146105120
I0403 18:13:23.411628 21745 layer_factory.hpp:77] Creating layer inception_4d/relu_pool_proj
I0403 18:13:23.411650 21745 net.cpp:91] Creating Layer inception_4d/relu_pool_proj
I0403 18:13:23.411665 21745 net.cpp:425] inception_4d/relu_pool_proj <- inception_4d/pool_proj
I0403 18:13:23.411682 21745 net.cpp:386] inception_4d/relu_pool_proj -> inception_4d/pool_proj (in-place)
I0403 18:13:23.411859 21745 net.cpp:141] Setting up inception_4d/relu_pool_proj
I0403 18:13:23.411885 21745 net.cpp:148] Top shape: 24 64 14 14 (301056)
I0403 18:13:23.411900 21745 net.cpp:156] Memory required for data: 1147309344
I0403 18:13:23.411914 21745 layer_factory.hpp:77] Creating layer inception_4d/output
I0403 18:13:23.411931 21745 net.cpp:91] Creating Layer inception_4d/output
I0403 18:13:23.411947 21745 net.cpp:425] inception_4d/output <- inception_4d/1x1
I0403 18:13:23.411962 21745 net.cpp:425] inception_4d/output <- inception_4d/3x3
I0403 18:13:23.411977 21745 net.cpp:425] inception_4d/output <- inception_4d/5x5
I0403 18:13:23.411991 21745 net.cpp:425] inception_4d/output <- inception_4d/pool_proj
I0403 18:13:23.412014 21745 net.cpp:399] inception_4d/output -> inception_4d/output
I0403 18:13:23.412058 21745 net.cpp:141] Setting up inception_4d/output
I0403 18:13:23.412081 21745 net.cpp:148] Top shape: 24 528 14 14 (2483712)
I0403 18:13:23.412094 21745 net.cpp:156] Memory required for data: 1157244192
I0403 18:13:23.412108 21745 layer_factory.hpp:77] Creating layer inception_4d/output_inception_4d/output_0_split
I0403 18:13:23.412127 21745 net.cpp:91] Creating Layer inception_4d/output_inception_4d/output_0_split
I0403 18:13:23.412142 21745 net.cpp:425] inception_4d/output_inception_4d/output_0_split <- inception_4d/output
I0403 18:13:23.412159 21745 net.cpp:399] inception_4d/output_inception_4d/output_0_split -> inception_4d/output_inception_4d/output_0_split_0
I0403 18:13:23.412181 21745 net.cpp:399] inception_4d/output_inception_4d/output_0_split -> inception_4d/output_inception_4d/output_0_split_1
I0403 18:13:23.412202 21745 net.cpp:399] inception_4d/output_inception_4d/output_0_split -> inception_4d/output_inception_4d/output_0_split_2
I0403 18:13:23.412222 21745 net.cpp:399] inception_4d/output_inception_4d/output_0_split -> inception_4d/output_inception_4d/output_0_split_3
I0403 18:13:23.412241 21745 net.cpp:399] inception_4d/output_inception_4d/output_0_split -> inception_4d/output_inception_4d/output_0_split_4
I0403 18:13:23.412338 21745 net.cpp:141] Setting up inception_4d/output_inception_4d/output_0_split
I0403 18:13:23.412372 21745 net.cpp:148] Top shape: 24 528 14 14 (2483712)
I0403 18:13:23.412389 21745 net.cpp:148] Top shape: 24 528 14 14 (2483712)
I0403 18:13:23.412405 21745 net.cpp:148] Top shape: 24 528 14 14 (2483712)
I0403 18:13:23.412420 21745 net.cpp:148] Top shape: 24 528 14 14 (2483712)
I0403 18:13:23.412436 21745 net.cpp:148] Top shape: 24 528 14 14 (2483712)
I0403 18:13:23.412449 21745 net.cpp:156] Memory required for data: 1206918432
I0403 18:13:23.412463 21745 layer_factory.hpp:77] Creating layer loss2/ave_pool
I0403 18:13:23.412482 21745 net.cpp:91] Creating Layer loss2/ave_pool
I0403 18:13:23.412499 21745 net.cpp:425] loss2/ave_pool <- inception_4d/output_inception_4d/output_0_split_0
I0403 18:13:23.412516 21745 net.cpp:399] loss2/ave_pool -> loss2/ave_pool
I0403 18:13:23.412848 21745 net.cpp:141] Setting up loss2/ave_pool
I0403 18:13:23.412873 21745 net.cpp:148] Top shape: 24 528 4 4 (202752)
I0403 18:13:23.412891 21745 net.cpp:156] Memory required for data: 1207729440
I0403 18:13:23.412905 21745 layer_factory.hpp:77] Creating layer loss2/conv
I0403 18:13:23.412925 21745 net.cpp:91] Creating Layer loss2/conv
I0403 18:13:23.412940 21745 net.cpp:425] loss2/conv <- loss2/ave_pool
I0403 18:13:23.412960 21745 net.cpp:399] loss2/conv -> loss2/conv
I0403 18:13:23.414777 21745 net.cpp:141] Setting up loss2/conv
I0403 18:13:23.414808 21745 net.cpp:148] Top shape: 24 128 4 4 (49152)
I0403 18:13:23.414824 21745 net.cpp:156] Memory required for data: 1207926048
I0403 18:13:23.414841 21745 layer_factory.hpp:77] Creating layer loss2/relu_conv
I0403 18:13:23.414858 21745 net.cpp:91] Creating Layer loss2/relu_conv
I0403 18:13:23.414873 21745 net.cpp:425] loss2/relu_conv <- loss2/conv
I0403 18:13:23.414891 21745 net.cpp:386] loss2/relu_conv -> loss2/conv (in-place)
I0403 18:13:23.415165 21745 net.cpp:141] Setting up loss2/relu_conv
I0403 18:13:23.415192 21745 net.cpp:148] Top shape: 24 128 4 4 (49152)
I0403 18:13:23.415208 21745 net.cpp:156] Memory required for data: 1208122656
I0403 18:13:23.415223 21745 layer_factory.hpp:77] Creating layer loss2/fc
I0403 18:13:23.415241 21745 net.cpp:91] Creating Layer loss2/fc
I0403 18:13:23.415256 21745 net.cpp:425] loss2/fc <- loss2/conv
I0403 18:13:23.415277 21745 net.cpp:399] loss2/fc -> loss2/fc
I0403 18:13:23.432230 21745 net.cpp:141] Setting up loss2/fc
I0403 18:13:23.432261 21745 net.cpp:148] Top shape: 24 1024 (24576)
I0403 18:13:23.432277 21745 net.cpp:156] Memory required for data: 1208220960
I0403 18:13:23.432296 21745 layer_factory.hpp:77] Creating layer loss2/relu_fc
I0403 18:13:23.432315 21745 net.cpp:91] Creating Layer loss2/relu_fc
I0403 18:13:23.432332 21745 net.cpp:425] loss2/relu_fc <- loss2/fc
I0403 18:13:23.432348 21745 net.cpp:386] loss2/relu_fc -> loss2/fc (in-place)
I0403 18:13:23.432648 21745 net.cpp:141] Setting up loss2/relu_fc
I0403 18:13:23.432674 21745 net.cpp:148] Top shape: 24 1024 (24576)
I0403 18:13:23.432689 21745 net.cpp:156] Memory required for data: 1208319264
I0403 18:13:23.432703 21745 layer_factory.hpp:77] Creating layer loss2/drop_fc
I0403 18:13:23.432724 21745 net.cpp:91] Creating Layer loss2/drop_fc
I0403 18:13:23.432740 21745 net.cpp:425] loss2/drop_fc <- loss2/fc
I0403 18:13:23.432759 21745 net.cpp:386] loss2/drop_fc -> loss2/fc (in-place)
I0403 18:13:23.432807 21745 net.cpp:141] Setting up loss2/drop_fc
I0403 18:13:23.432831 21745 net.cpp:148] Top shape: 24 1024 (24576)
I0403 18:13:23.432857 21745 net.cpp:156] Memory required for data: 1208417568
I0403 18:13:23.432870 21745 layer_factory.hpp:77] Creating layer loss2/classifier_plantvillage
I0403 18:13:23.432891 21745 net.cpp:91] Creating Layer loss2/classifier_plantvillage
I0403 18:13:23.432907 21745 net.cpp:425] loss2/classifier_plantvillage <- loss2/fc
I0403 18:13:23.432925 21745 net.cpp:399] loss2/classifier_plantvillage -> loss2/classifier_plantvillage
I0403 18:13:23.433305 21745 net.cpp:141] Setting up loss2/classifier_plantvillage
I0403 18:13:23.433329 21745 net.cpp:148] Top shape: 24 38 (912)
I0403 18:13:23.433359 21745 net.cpp:156] Memory required for data: 1208421216
I0403 18:13:23.433377 21745 layer_factory.hpp:77] Creating layer loss2/classifier_plantvillage_loss2/classifier_plantvillage_0_split
I0403 18:13:23.433395 21745 net.cpp:91] Creating Layer loss2/classifier_plantvillage_loss2/classifier_plantvillage_0_split
I0403 18:13:23.433410 21745 net.cpp:425] loss2/classifier_plantvillage_loss2/classifier_plantvillage_0_split <- loss2/classifier_plantvillage
I0403 18:13:23.433429 21745 net.cpp:399] loss2/classifier_plantvillage_loss2/classifier_plantvillage_0_split -> loss2/classifier_plantvillage_loss2/classifier_plantvillage_0_split_0
I0403 18:13:23.433450 21745 net.cpp:399] loss2/classifier_plantvillage_loss2/classifier_plantvillage_0_split -> loss2/classifier_plantvillage_loss2/classifier_plantvillage_0_split_1
I0403 18:13:23.433470 21745 net.cpp:399] loss2/classifier_plantvillage_loss2/classifier_plantvillage_0_split -> loss2/classifier_plantvillage_loss2/classifier_plantvillage_0_split_2
I0403 18:13:23.433560 21745 net.cpp:141] Setting up loss2/classifier_plantvillage_loss2/classifier_plantvillage_0_split
I0403 18:13:23.433589 21745 net.cpp:148] Top shape: 24 38 (912)
I0403 18:13:23.433607 21745 net.cpp:148] Top shape: 24 38 (912)
I0403 18:13:23.433624 21745 net.cpp:148] Top shape: 24 38 (912)
I0403 18:13:23.433637 21745 net.cpp:156] Memory required for data: 1208432160
I0403 18:13:23.433651 21745 layer_factory.hpp:77] Creating layer inception_4e/1x1
I0403 18:13:23.433670 21745 net.cpp:91] Creating Layer inception_4e/1x1
I0403 18:13:23.433686 21745 net.cpp:425] inception_4e/1x1 <- inception_4d/output_inception_4d/output_0_split_1
I0403 18:13:23.433704 21745 net.cpp:399] inception_4e/1x1 -> inception_4e/1x1
I0403 18:13:23.435453 21745 net.cpp:141] Setting up inception_4e/1x1
I0403 18:13:23.435479 21745 net.cpp:148] Top shape: 24 256 14 14 (1204224)
I0403 18:13:23.435494 21745 net.cpp:156] Memory required for data: 1213249056
I0403 18:13:23.435511 21745 layer_factory.hpp:77] Creating layer inception_4e/relu_1x1
I0403 18:13:23.435528 21745 net.cpp:91] Creating Layer inception_4e/relu_1x1
I0403 18:13:23.435549 21745 net.cpp:425] inception_4e/relu_1x1 <- inception_4e/1x1
I0403 18:13:23.435567 21745 net.cpp:386] inception_4e/relu_1x1 -> inception_4e/1x1 (in-place)
I0403 18:13:23.435856 21745 net.cpp:141] Setting up inception_4e/relu_1x1
I0403 18:13:23.435881 21745 net.cpp:148] Top shape: 24 256 14 14 (1204224)
I0403 18:13:23.435896 21745 net.cpp:156] Memory required for data: 1218065952
I0403 18:13:23.435910 21745 layer_factory.hpp:77] Creating layer inception_4e/3x3_reduce
I0403 18:13:23.435931 21745 net.cpp:91] Creating Layer inception_4e/3x3_reduce
I0403 18:13:23.435948 21745 net.cpp:425] inception_4e/3x3_reduce <- inception_4d/output_inception_4d/output_0_split_2
I0403 18:13:23.435968 21745 net.cpp:399] inception_4e/3x3_reduce -> inception_4e/3x3_reduce
I0403 18:13:23.438040 21745 net.cpp:141] Setting up inception_4e/3x3_reduce
I0403 18:13:23.438069 21745 net.cpp:148] Top shape: 24 160 14 14 (752640)
I0403 18:13:23.438086 21745 net.cpp:156] Memory required for data: 1221076512
I0403 18:13:23.438102 21745 layer_factory.hpp:77] Creating layer inception_4e/relu_3x3_reduce
I0403 18:13:23.438120 21745 net.cpp:91] Creating Layer inception_4e/relu_3x3_reduce
I0403 18:13:23.438136 21745 net.cpp:425] inception_4e/relu_3x3_reduce <- inception_4e/3x3_reduce
I0403 18:13:23.438154 21745 net.cpp:386] inception_4e/relu_3x3_reduce -> inception_4e/3x3_reduce (in-place)
I0403 18:13:23.438335 21745 net.cpp:141] Setting up inception_4e/relu_3x3_reduce
I0403 18:13:23.438359 21745 net.cpp:148] Top shape: 24 160 14 14 (752640)
I0403 18:13:23.438374 21745 net.cpp:156] Memory required for data: 1224087072
I0403 18:13:23.438388 21745 layer_factory.hpp:77] Creating layer inception_4e/3x3
I0403 18:13:23.438410 21745 net.cpp:91] Creating Layer inception_4e/3x3
I0403 18:13:23.438426 21745 net.cpp:425] inception_4e/3x3 <- inception_4e/3x3_reduce
I0403 18:13:23.438447 21745 net.cpp:399] inception_4e/3x3 -> inception_4e/3x3
I0403 18:13:23.443389 21745 net.cpp:141] Setting up inception_4e/3x3
I0403 18:13:23.443433 21745 net.cpp:148] Top shape: 24 320 14 14 (1505280)
I0403 18:13:23.443449 21745 net.cpp:156] Memory required for data: 1230108192
I0403 18:13:23.443467 21745 layer_factory.hpp:77] Creating layer inception_4e/relu_3x3
I0403 18:13:23.443488 21745 net.cpp:91] Creating Layer inception_4e/relu_3x3
I0403 18:13:23.443506 21745 net.cpp:425] inception_4e/relu_3x3 <- inception_4e/3x3
I0403 18:13:23.443522 21745 net.cpp:386] inception_4e/relu_3x3 -> inception_4e/3x3 (in-place)
I0403 18:13:23.443866 21745 net.cpp:141] Setting up inception_4e/relu_3x3
I0403 18:13:23.443905 21745 net.cpp:148] Top shape: 24 320 14 14 (1505280)
I0403 18:13:23.443922 21745 net.cpp:156] Memory required for data: 1236129312
I0403 18:13:23.443936 21745 layer_factory.hpp:77] Creating layer inception_4e/5x5_reduce
I0403 18:13:23.443960 21745 net.cpp:91] Creating Layer inception_4e/5x5_reduce
I0403 18:13:23.443979 21745 net.cpp:425] inception_4e/5x5_reduce <- inception_4d/output_inception_4d/output_0_split_3
I0403 18:13:23.444001 21745 net.cpp:399] inception_4e/5x5_reduce -> inception_4e/5x5_reduce
I0403 18:13:23.445128 21745 net.cpp:141] Setting up inception_4e/5x5_reduce
I0403 18:13:23.445157 21745 net.cpp:148] Top shape: 24 32 14 14 (150528)
I0403 18:13:23.445171 21745 net.cpp:156] Memory required for data: 1236731424
I0403 18:13:23.445190 21745 layer_factory.hpp:77] Creating layer inception_4e/relu_5x5_reduce
I0403 18:13:23.445207 21745 net.cpp:91] Creating Layer inception_4e/relu_5x5_reduce
I0403 18:13:23.445222 21745 net.cpp:425] inception_4e/relu_5x5_reduce <- inception_4e/5x5_reduce
I0403 18:13:23.445241 21745 net.cpp:386] inception_4e/relu_5x5_reduce -> inception_4e/5x5_reduce (in-place)
I0403 18:13:23.445555 21745 net.cpp:141] Setting up inception_4e/relu_5x5_reduce
I0403 18:13:23.445595 21745 net.cpp:148] Top shape: 24 32 14 14 (150528)
I0403 18:13:23.445611 21745 net.cpp:156] Memory required for data: 1237333536
I0403 18:13:23.445627 21745 layer_factory.hpp:77] Creating layer inception_4e/5x5
I0403 18:13:23.445667 21745 net.cpp:91] Creating Layer inception_4e/5x5
I0403 18:13:23.445688 21745 net.cpp:425] inception_4e/5x5 <- inception_4e/5x5_reduce
I0403 18:13:23.445708 21745 net.cpp:399] inception_4e/5x5 -> inception_4e/5x5
I0403 18:13:23.447643 21745 net.cpp:141] Setting up inception_4e/5x5
I0403 18:13:23.447675 21745 net.cpp:148] Top shape: 24 128 14 14 (602112)
I0403 18:13:23.447692 21745 net.cpp:156] Memory required for data: 1239741984
I0403 18:13:23.447712 21745 layer_factory.hpp:77] Creating layer inception_4e/relu_5x5
I0403 18:13:23.447731 21745 net.cpp:91] Creating Layer inception_4e/relu_5x5
I0403 18:13:23.447748 21745 net.cpp:425] inception_4e/relu_5x5 <- inception_4e/5x5
I0403 18:13:23.447765 21745 net.cpp:386] inception_4e/relu_5x5 -> inception_4e/5x5 (in-place)
I0403 18:13:23.447994 21745 net.cpp:141] Setting up inception_4e/relu_5x5
I0403 18:13:23.448019 21745 net.cpp:148] Top shape: 24 128 14 14 (602112)
I0403 18:13:23.448034 21745 net.cpp:156] Memory required for data: 1242150432
I0403 18:13:23.448047 21745 layer_factory.hpp:77] Creating layer inception_4e/pool
I0403 18:13:23.448065 21745 net.cpp:91] Creating Layer inception_4e/pool
I0403 18:13:23.448081 21745 net.cpp:425] inception_4e/pool <- inception_4d/output_inception_4d/output_0_split_4
I0403 18:13:23.448101 21745 net.cpp:399] inception_4e/pool -> inception_4e/pool
I0403 18:13:23.448169 21745 net.cpp:141] Setting up inception_4e/pool
I0403 18:13:23.448195 21745 net.cpp:148] Top shape: 24 528 14 14 (2483712)
I0403 18:13:23.448211 21745 net.cpp:156] Memory required for data: 1252085280
I0403 18:13:23.448225 21745 layer_factory.hpp:77] Creating layer inception_4e/pool_proj
I0403 18:13:23.448246 21745 net.cpp:91] Creating Layer inception_4e/pool_proj
I0403 18:13:23.448276 21745 net.cpp:425] inception_4e/pool_proj <- inception_4e/pool
I0403 18:13:23.448298 21745 net.cpp:399] inception_4e/pool_proj -> inception_4e/pool_proj
I0403 18:13:23.449897 21745 net.cpp:141] Setting up inception_4e/pool_proj
I0403 18:13:23.449947 21745 net.cpp:148] Top shape: 24 128 14 14 (602112)
I0403 18:13:23.449966 21745 net.cpp:156] Memory required for data: 1254493728
I0403 18:13:23.449985 21745 layer_factory.hpp:77] Creating layer inception_4e/relu_pool_proj
I0403 18:13:23.450002 21745 net.cpp:91] Creating Layer inception_4e/relu_pool_proj
I0403 18:13:23.450018 21745 net.cpp:425] inception_4e/relu_pool_proj <- inception_4e/pool_proj
I0403 18:13:23.450036 21745 net.cpp:386] inception_4e/relu_pool_proj -> inception_4e/pool_proj (in-place)
I0403 18:13:23.450327 21745 net.cpp:141] Setting up inception_4e/relu_pool_proj
I0403 18:13:23.450353 21745 net.cpp:148] Top shape: 24 128 14 14 (602112)
I0403 18:13:23.450371 21745 net.cpp:156] Memory required for data: 1256902176
I0403 18:13:23.450387 21745 layer_factory.hpp:77] Creating layer inception_4e/output
I0403 18:13:23.450404 21745 net.cpp:91] Creating Layer inception_4e/output
I0403 18:13:23.450419 21745 net.cpp:425] inception_4e/output <- inception_4e/1x1
I0403 18:13:23.450435 21745 net.cpp:425] inception_4e/output <- inception_4e/3x3
I0403 18:13:23.450451 21745 net.cpp:425] inception_4e/output <- inception_4e/5x5
I0403 18:13:23.450466 21745 net.cpp:425] inception_4e/output <- inception_4e/pool_proj
I0403 18:13:23.450484 21745 net.cpp:399] inception_4e/output -> inception_4e/output
I0403 18:13:23.450532 21745 net.cpp:141] Setting up inception_4e/output
I0403 18:13:23.450562 21745 net.cpp:148] Top shape: 24 832 14 14 (3913728)
I0403 18:13:23.450577 21745 net.cpp:156] Memory required for data: 1272557088
I0403 18:13:23.450603 21745 layer_factory.hpp:77] Creating layer pool4/3x3_s2
I0403 18:13:23.450623 21745 net.cpp:91] Creating Layer pool4/3x3_s2
I0403 18:13:23.450640 21745 net.cpp:425] pool4/3x3_s2 <- inception_4e/output
I0403 18:13:23.450659 21745 net.cpp:399] pool4/3x3_s2 -> pool4/3x3_s2
I0403 18:13:23.450728 21745 net.cpp:141] Setting up pool4/3x3_s2
I0403 18:13:23.450752 21745 net.cpp:148] Top shape: 24 832 7 7 (978432)
I0403 18:13:23.450767 21745 net.cpp:156] Memory required for data: 1276470816
I0403 18:13:23.450783 21745 layer_factory.hpp:77] Creating layer pool4/3x3_s2_pool4/3x3_s2_0_split
I0403 18:13:23.450799 21745 net.cpp:91] Creating Layer pool4/3x3_s2_pool4/3x3_s2_0_split
I0403 18:13:23.450814 21745 net.cpp:425] pool4/3x3_s2_pool4/3x3_s2_0_split <- pool4/3x3_s2
I0403 18:13:23.450834 21745 net.cpp:399] pool4/3x3_s2_pool4/3x3_s2_0_split -> pool4/3x3_s2_pool4/3x3_s2_0_split_0
I0403 18:13:23.450855 21745 net.cpp:399] pool4/3x3_s2_pool4/3x3_s2_0_split -> pool4/3x3_s2_pool4/3x3_s2_0_split_1
I0403 18:13:23.450887 21745 net.cpp:399] pool4/3x3_s2_pool4/3x3_s2_0_split -> pool4/3x3_s2_pool4/3x3_s2_0_split_2
I0403 18:13:23.450907 21745 net.cpp:399] pool4/3x3_s2_pool4/3x3_s2_0_split -> pool4/3x3_s2_pool4/3x3_s2_0_split_3
I0403 18:13:23.450996 21745 net.cpp:141] Setting up pool4/3x3_s2_pool4/3x3_s2_0_split
I0403 18:13:23.451020 21745 net.cpp:148] Top shape: 24 832 7 7 (978432)
I0403 18:13:23.451036 21745 net.cpp:148] Top shape: 24 832 7 7 (978432)
I0403 18:13:23.451052 21745 net.cpp:148] Top shape: 24 832 7 7 (978432)
I0403 18:13:23.451068 21745 net.cpp:148] Top shape: 24 832 7 7 (978432)
I0403 18:13:23.451082 21745 net.cpp:156] Memory required for data: 1292125728
I0403 18:13:23.451097 21745 layer_factory.hpp:77] Creating layer inception_5a/1x1
I0403 18:13:23.451119 21745 net.cpp:91] Creating Layer inception_5a/1x1
I0403 18:13:23.451138 21745 net.cpp:425] inception_5a/1x1 <- pool4/3x3_s2_pool4/3x3_s2_0_split_0
I0403 18:13:23.451156 21745 net.cpp:399] inception_5a/1x1 -> inception_5a/1x1
I0403 18:13:23.454098 21745 net.cpp:141] Setting up inception_5a/1x1
I0403 18:13:23.454129 21745 net.cpp:148] Top shape: 24 256 7 7 (301056)
I0403 18:13:23.454147 21745 net.cpp:156] Memory required for data: 1293329952
I0403 18:13:23.454165 21745 layer_factory.hpp:77] Creating layer inception_5a/relu_1x1
I0403 18:13:23.454183 21745 net.cpp:91] Creating Layer inception_5a/relu_1x1
I0403 18:13:23.454200 21745 net.cpp:425] inception_5a/relu_1x1 <- inception_5a/1x1
I0403 18:13:23.454219 21745 net.cpp:386] inception_5a/relu_1x1 -> inception_5a/1x1 (in-place)
I0403 18:13:23.454524 21745 net.cpp:141] Setting up inception_5a/relu_1x1
I0403 18:13:23.454563 21745 net.cpp:148] Top shape: 24 256 7 7 (301056)
I0403 18:13:23.454593 21745 net.cpp:156] Memory required for data: 1294534176
I0403 18:13:23.454608 21745 layer_factory.hpp:77] Creating layer inception_5a/3x3_reduce
I0403 18:13:23.454632 21745 net.cpp:91] Creating Layer inception_5a/3x3_reduce
I0403 18:13:23.454649 21745 net.cpp:425] inception_5a/3x3_reduce <- pool4/3x3_s2_pool4/3x3_s2_0_split_1
I0403 18:13:23.454668 21745 net.cpp:399] inception_5a/3x3_reduce -> inception_5a/3x3_reduce
I0403 18:13:23.457167 21745 net.cpp:141] Setting up inception_5a/3x3_reduce
I0403 18:13:23.457197 21745 net.cpp:148] Top shape: 24 160 7 7 (188160)
I0403 18:13:23.457213 21745 net.cpp:156] Memory required for data: 1295286816
I0403 18:13:23.457232 21745 layer_factory.hpp:77] Creating layer inception_5a/relu_3x3_reduce
I0403 18:13:23.457255 21745 net.cpp:91] Creating Layer inception_5a/relu_3x3_reduce
I0403 18:13:23.457273 21745 net.cpp:425] inception_5a/relu_3x3_reduce <- inception_5a/3x3_reduce
I0403 18:13:23.457291 21745 net.cpp:386] inception_5a/relu_3x3_reduce -> inception_5a/3x3_reduce (in-place)
I0403 18:13:23.457481 21745 net.cpp:141] Setting up inception_5a/relu_3x3_reduce
I0403 18:13:23.457509 21745 net.cpp:148] Top shape: 24 160 7 7 (188160)
I0403 18:13:23.457523 21745 net.cpp:156] Memory required for data: 1296039456
I0403 18:13:23.457546 21745 layer_factory.hpp:77] Creating layer inception_5a/3x3
I0403 18:13:23.457571 21745 net.cpp:91] Creating Layer inception_5a/3x3
I0403 18:13:23.457602 21745 net.cpp:425] inception_5a/3x3 <- inception_5a/3x3_reduce
I0403 18:13:23.457622 21745 net.cpp:399] inception_5a/3x3 -> inception_5a/3x3
I0403 18:13:23.462808 21745 net.cpp:141] Setting up inception_5a/3x3
I0403 18:13:23.462841 21745 net.cpp:148] Top shape: 24 320 7 7 (376320)
I0403 18:13:23.462857 21745 net.cpp:156] Memory required for data: 1297544736
I0403 18:13:23.462888 21745 layer_factory.hpp:77] Creating layer inception_5a/relu_3x3
I0403 18:13:23.462904 21745 net.cpp:91] Creating Layer inception_5a/relu_3x3
I0403 18:13:23.462919 21745 net.cpp:425] inception_5a/relu_3x3 <- inception_5a/3x3
I0403 18:13:23.462935 21745 net.cpp:386] inception_5a/relu_3x3 -> inception_5a/3x3 (in-place)
I0403 18:13:23.463220 21745 net.cpp:141] Setting up inception_5a/relu_3x3
I0403 18:13:23.463248 21745 net.cpp:148] Top shape: 24 320 7 7 (376320)
I0403 18:13:23.463263 21745 net.cpp:156] Memory required for data: 1299050016
I0403 18:13:23.463277 21745 layer_factory.hpp:77] Creating layer inception_5a/5x5_reduce
I0403 18:13:23.463299 21745 net.cpp:91] Creating Layer inception_5a/5x5_reduce
I0403 18:13:23.463316 21745 net.cpp:425] inception_5a/5x5_reduce <- pool4/3x3_s2_pool4/3x3_s2_0_split_2
I0403 18:13:23.463335 21745 net.cpp:399] inception_5a/5x5_reduce -> inception_5a/5x5_reduce
I0403 18:13:23.464532 21745 net.cpp:141] Setting up inception_5a/5x5_reduce
I0403 18:13:23.464573 21745 net.cpp:148] Top shape: 24 32 7 7 (37632)
I0403 18:13:23.464603 21745 net.cpp:156] Memory required for data: 1299200544
I0403 18:13:23.464622 21745 layer_factory.hpp:77] Creating layer inception_5a/relu_5x5_reduce
I0403 18:13:23.464639 21745 net.cpp:91] Creating Layer inception_5a/relu_5x5_reduce
I0403 18:13:23.464655 21745 net.cpp:425] inception_5a/relu_5x5_reduce <- inception_5a/5x5_reduce
I0403 18:13:23.464675 21745 net.cpp:386] inception_5a/relu_5x5_reduce -> inception_5a/5x5_reduce (in-place)
I0403 18:13:23.464995 21745 net.cpp:141] Setting up inception_5a/relu_5x5_reduce
I0403 18:13:23.465020 21745 net.cpp:148] Top shape: 24 32 7 7 (37632)
I0403 18:13:23.465034 21745 net.cpp:156] Memory required for data: 1299351072
I0403 18:13:23.465049 21745 layer_factory.hpp:77] Creating layer inception_5a/5x5
I0403 18:13:23.465070 21745 net.cpp:91] Creating Layer inception_5a/5x5
I0403 18:13:23.465087 21745 net.cpp:425] inception_5a/5x5 <- inception_5a/5x5_reduce
I0403 18:13:23.465108 21745 net.cpp:399] inception_5a/5x5 -> inception_5a/5x5
I0403 18:13:23.466897 21745 net.cpp:141] Setting up inception_5a/5x5
I0403 18:13:23.466936 21745 net.cpp:148] Top shape: 24 128 7 7 (150528)
I0403 18:13:23.466953 21745 net.cpp:156] Memory required for data: 1299953184
I0403 18:13:23.466970 21745 layer_factory.hpp:77] Creating layer inception_5a/relu_5x5
I0403 18:13:23.466987 21745 net.cpp:91] Creating Layer inception_5a/relu_5x5
I0403 18:13:23.467003 21745 net.cpp:425] inception_5a/relu_5x5 <- inception_5a/5x5
I0403 18:13:23.467020 21745 net.cpp:386] inception_5a/relu_5x5 -> inception_5a/5x5 (in-place)
I0403 18:13:23.467211 21745 net.cpp:141] Setting up inception_5a/relu_5x5
I0403 18:13:23.467236 21745 net.cpp:148] Top shape: 24 128 7 7 (150528)
I0403 18:13:23.467249 21745 net.cpp:156] Memory required for data: 1300555296
I0403 18:13:23.467263 21745 layer_factory.hpp:77] Creating layer inception_5a/pool
I0403 18:13:23.467280 21745 net.cpp:91] Creating Layer inception_5a/pool
I0403 18:13:23.467296 21745 net.cpp:425] inception_5a/pool <- pool4/3x3_s2_pool4/3x3_s2_0_split_3
I0403 18:13:23.467314 21745 net.cpp:399] inception_5a/pool -> inception_5a/pool
I0403 18:13:23.467381 21745 net.cpp:141] Setting up inception_5a/pool
I0403 18:13:23.467406 21745 net.cpp:148] Top shape: 24 832 7 7 (978432)
I0403 18:13:23.467422 21745 net.cpp:156] Memory required for data: 1304469024
I0403 18:13:23.467435 21745 layer_factory.hpp:77] Creating layer inception_5a/pool_proj
I0403 18:13:23.467456 21745 net.cpp:91] Creating Layer inception_5a/pool_proj
I0403 18:13:23.467473 21745 net.cpp:425] inception_5a/pool_proj <- inception_5a/pool
I0403 18:13:23.467491 21745 net.cpp:399] inception_5a/pool_proj -> inception_5a/pool_proj
I0403 18:13:23.469696 21745 net.cpp:141] Setting up inception_5a/pool_proj
I0403 18:13:23.469724 21745 net.cpp:148] Top shape: 24 128 7 7 (150528)
I0403 18:13:23.469739 21745 net.cpp:156] Memory required for data: 1305071136
I0403 18:13:23.469758 21745 layer_factory.hpp:77] Creating layer inception_5a/relu_pool_proj
I0403 18:13:23.469776 21745 net.cpp:91] Creating Layer inception_5a/relu_pool_proj
I0403 18:13:23.469792 21745 net.cpp:425] inception_5a/relu_pool_proj <- inception_5a/pool_proj
I0403 18:13:23.469810 21745 net.cpp:386] inception_5a/relu_pool_proj -> inception_5a/pool_proj (in-place)
I0403 18:13:23.470093 21745 net.cpp:141] Setting up inception_5a/relu_pool_proj
I0403 18:13:23.470118 21745 net.cpp:148] Top shape: 24 128 7 7 (150528)
I0403 18:13:23.470134 21745 net.cpp:156] Memory required for data: 1305673248
I0403 18:13:23.470147 21745 layer_factory.hpp:77] Creating layer inception_5a/output
I0403 18:13:23.470166 21745 net.cpp:91] Creating Layer inception_5a/output
I0403 18:13:23.470181 21745 net.cpp:425] inception_5a/output <- inception_5a/1x1
I0403 18:13:23.470197 21745 net.cpp:425] inception_5a/output <- inception_5a/3x3
I0403 18:13:23.470212 21745 net.cpp:425] inception_5a/output <- inception_5a/5x5
I0403 18:13:23.470228 21745 net.cpp:425] inception_5a/output <- inception_5a/pool_proj
I0403 18:13:23.470244 21745 net.cpp:399] inception_5a/output -> inception_5a/output
I0403 18:13:23.470293 21745 net.cpp:141] Setting up inception_5a/output
I0403 18:13:23.470315 21745 net.cpp:148] Top shape: 24 832 7 7 (978432)
I0403 18:13:23.470329 21745 net.cpp:156] Memory required for data: 1309586976
I0403 18:13:23.470343 21745 layer_factory.hpp:77] Creating layer inception_5a/output_inception_5a/output_0_split
I0403 18:13:23.470360 21745 net.cpp:91] Creating Layer inception_5a/output_inception_5a/output_0_split
I0403 18:13:23.470376 21745 net.cpp:425] inception_5a/output_inception_5a/output_0_split <- inception_5a/output
I0403 18:13:23.470393 21745 net.cpp:399] inception_5a/output_inception_5a/output_0_split -> inception_5a/output_inception_5a/output_0_split_0
I0403 18:13:23.470413 21745 net.cpp:399] inception_5a/output_inception_5a/output_0_split -> inception_5a/output_inception_5a/output_0_split_1
I0403 18:13:23.470432 21745 net.cpp:399] inception_5a/output_inception_5a/output_0_split -> inception_5a/output_inception_5a/output_0_split_2
I0403 18:13:23.470453 21745 net.cpp:399] inception_5a/output_inception_5a/output_0_split -> inception_5a/output_inception_5a/output_0_split_3
I0403 18:13:23.470572 21745 net.cpp:141] Setting up inception_5a/output_inception_5a/output_0_split
I0403 18:13:23.470597 21745 net.cpp:148] Top shape: 24 832 7 7 (978432)
I0403 18:13:23.470614 21745 net.cpp:148] Top shape: 24 832 7 7 (978432)
I0403 18:13:23.470630 21745 net.cpp:148] Top shape: 24 832 7 7 (978432)
I0403 18:13:23.470645 21745 net.cpp:148] Top shape: 24 832 7 7 (978432)
I0403 18:13:23.470659 21745 net.cpp:156] Memory required for data: 1325241888
I0403 18:13:23.470672 21745 layer_factory.hpp:77] Creating layer inception_5b/1x1
I0403 18:13:23.470695 21745 net.cpp:91] Creating Layer inception_5b/1x1
I0403 18:13:23.470710 21745 net.cpp:425] inception_5b/1x1 <- inception_5a/output_inception_5a/output_0_split_0
I0403 18:13:23.470731 21745 net.cpp:399] inception_5b/1x1 -> inception_5b/1x1
I0403 18:13:23.474359 21745 net.cpp:141] Setting up inception_5b/1x1
I0403 18:13:23.474390 21745 net.cpp:148] Top shape: 24 384 7 7 (451584)
I0403 18:13:23.474406 21745 net.cpp:156] Memory required for data: 1327048224
I0403 18:13:23.474423 21745 layer_factory.hpp:77] Creating layer inception_5b/relu_1x1
I0403 18:13:23.474444 21745 net.cpp:91] Creating Layer inception_5b/relu_1x1
I0403 18:13:23.474460 21745 net.cpp:425] inception_5b/relu_1x1 <- inception_5b/1x1
I0403 18:13:23.474477 21745 net.cpp:386] inception_5b/relu_1x1 -> inception_5b/1x1 (in-place)
I0403 18:13:23.474779 21745 net.cpp:141] Setting up inception_5b/relu_1x1
I0403 18:13:23.474804 21745 net.cpp:148] Top shape: 24 384 7 7 (451584)
I0403 18:13:23.474819 21745 net.cpp:156] Memory required for data: 1328854560
I0403 18:13:23.474833 21745 layer_factory.hpp:77] Creating layer inception_5b/3x3_reduce
I0403 18:13:23.474854 21745 net.cpp:91] Creating Layer inception_5b/3x3_reduce
I0403 18:13:23.474871 21745 net.cpp:425] inception_5b/3x3_reduce <- inception_5a/output_inception_5a/output_0_split_1
I0403 18:13:23.474892 21745 net.cpp:399] inception_5b/3x3_reduce -> inception_5b/3x3_reduce
I0403 18:13:23.477445 21745 net.cpp:141] Setting up inception_5b/3x3_reduce
I0403 18:13:23.477473 21745 net.cpp:148] Top shape: 24 192 7 7 (225792)
I0403 18:13:23.477488 21745 net.cpp:156] Memory required for data: 1329757728
I0403 18:13:23.477505 21745 layer_factory.hpp:77] Creating layer inception_5b/relu_3x3_reduce
I0403 18:13:23.477529 21745 net.cpp:91] Creating Layer inception_5b/relu_3x3_reduce
I0403 18:13:23.477551 21745 net.cpp:425] inception_5b/relu_3x3_reduce <- inception_5b/3x3_reduce
I0403 18:13:23.477568 21745 net.cpp:386] inception_5b/relu_3x3_reduce -> inception_5b/3x3_reduce (in-place)
I0403 18:13:23.477752 21745 net.cpp:141] Setting up inception_5b/relu_3x3_reduce
I0403 18:13:23.477777 21745 net.cpp:148] Top shape: 24 192 7 7 (225792)
I0403 18:13:23.477792 21745 net.cpp:156] Memory required for data: 1330660896
I0403 18:13:23.477807 21745 layer_factory.hpp:77] Creating layer inception_5b/3x3
I0403 18:13:23.477828 21745 net.cpp:91] Creating Layer inception_5b/3x3
I0403 18:13:23.477844 21745 net.cpp:425] inception_5b/3x3 <- inception_5b/3x3_reduce
I0403 18:13:23.477865 21745 net.cpp:399] inception_5b/3x3 -> inception_5b/3x3
I0403 18:13:23.484333 21745 net.cpp:141] Setting up inception_5b/3x3
I0403 18:13:23.484359 21745 net.cpp:148] Top shape: 24 384 7 7 (451584)
I0403 18:13:23.484375 21745 net.cpp:156] Memory required for data: 1332467232
I0403 18:13:23.484392 21745 layer_factory.hpp:77] Creating layer inception_5b/relu_3x3
I0403 18:13:23.484411 21745 net.cpp:91] Creating Layer inception_5b/relu_3x3
I0403 18:13:23.484428 21745 net.cpp:425] inception_5b/relu_3x3 <- inception_5b/3x3
I0403 18:13:23.484444 21745 net.cpp:386] inception_5b/relu_3x3 -> inception_5b/3x3 (in-place)
I0403 18:13:23.484746 21745 net.cpp:141] Setting up inception_5b/relu_3x3
I0403 18:13:23.484771 21745 net.cpp:148] Top shape: 24 384 7 7 (451584)
I0403 18:13:23.484786 21745 net.cpp:156] Memory required for data: 1334273568
I0403 18:13:23.484800 21745 layer_factory.hpp:77] Creating layer inception_5b/5x5_reduce
I0403 18:13:23.484839 21745 net.cpp:91] Creating Layer inception_5b/5x5_reduce
I0403 18:13:23.484858 21745 net.cpp:425] inception_5b/5x5_reduce <- inception_5a/output_inception_5a/output_0_split_2
I0403 18:13:23.484876 21745 net.cpp:399] inception_5b/5x5_reduce -> inception_5b/5x5_reduce
I0403 18:13:23.486093 21745 net.cpp:141] Setting up inception_5b/5x5_reduce
I0403 18:13:23.486119 21745 net.cpp:148] Top shape: 24 48 7 7 (56448)
I0403 18:13:23.486137 21745 net.cpp:156] Memory required for data: 1334499360
I0403 18:13:23.486155 21745 layer_factory.hpp:77] Creating layer inception_5b/relu_5x5_reduce
I0403 18:13:23.486172 21745 net.cpp:91] Creating Layer inception_5b/relu_5x5_reduce
I0403 18:13:23.486187 21745 net.cpp:425] inception_5b/relu_5x5_reduce <- inception_5b/5x5_reduce
I0403 18:13:23.486203 21745 net.cpp:386] inception_5b/relu_5x5_reduce -> inception_5b/5x5_reduce (in-place)
I0403 18:13:23.486601 21745 net.cpp:141] Setting up inception_5b/relu_5x5_reduce
I0403 18:13:23.486626 21745 net.cpp:148] Top shape: 24 48 7 7 (56448)
I0403 18:13:23.486640 21745 net.cpp:156] Memory required for data: 1334725152
I0403 18:13:23.486654 21745 layer_factory.hpp:77] Creating layer inception_5b/5x5
I0403 18:13:23.486673 21745 net.cpp:91] Creating Layer inception_5b/5x5
I0403 18:13:23.486690 21745 net.cpp:425] inception_5b/5x5 <- inception_5b/5x5_reduce
I0403 18:13:23.486707 21745 net.cpp:399] inception_5b/5x5 -> inception_5b/5x5
I0403 18:13:23.488658 21745 net.cpp:141] Setting up inception_5b/5x5
I0403 18:13:23.488687 21745 net.cpp:148] Top shape: 24 128 7 7 (150528)
I0403 18:13:23.488703 21745 net.cpp:156] Memory required for data: 1335327264
I0403 18:13:23.488721 21745 layer_factory.hpp:77] Creating layer inception_5b/relu_5x5
I0403 18:13:23.488739 21745 net.cpp:91] Creating Layer inception_5b/relu_5x5
I0403 18:13:23.488754 21745 net.cpp:425] inception_5b/relu_5x5 <- inception_5b/5x5
I0403 18:13:23.488771 21745 net.cpp:386] inception_5b/relu_5x5 -> inception_5b/5x5 (in-place)
I0403 18:13:23.488958 21745 net.cpp:141] Setting up inception_5b/relu_5x5
I0403 18:13:23.488982 21745 net.cpp:148] Top shape: 24 128 7 7 (150528)
I0403 18:13:23.488997 21745 net.cpp:156] Memory required for data: 1335929376
I0403 18:13:23.489012 21745 layer_factory.hpp:77] Creating layer inception_5b/pool
I0403 18:13:23.489028 21745 net.cpp:91] Creating Layer inception_5b/pool
I0403 18:13:23.489043 21745 net.cpp:425] inception_5b/pool <- inception_5a/output_inception_5a/output_0_split_3
I0403 18:13:23.489063 21745 net.cpp:399] inception_5b/pool -> inception_5b/pool
I0403 18:13:23.489132 21745 net.cpp:141] Setting up inception_5b/pool
I0403 18:13:23.489156 21745 net.cpp:148] Top shape: 24 832 7 7 (978432)
I0403 18:13:23.489169 21745 net.cpp:156] Memory required for data: 1339843104
I0403 18:13:23.489183 21745 layer_factory.hpp:77] Creating layer inception_5b/pool_proj
I0403 18:13:23.489207 21745 net.cpp:91] Creating Layer inception_5b/pool_proj
I0403 18:13:23.489223 21745 net.cpp:425] inception_5b/pool_proj <- inception_5b/pool
I0403 18:13:23.489240 21745 net.cpp:399] inception_5b/pool_proj -> inception_5b/pool_proj
I0403 18:13:23.491453 21745 net.cpp:141] Setting up inception_5b/pool_proj
I0403 18:13:23.491484 21745 net.cpp:148] Top shape: 24 128 7 7 (150528)
I0403 18:13:23.491502 21745 net.cpp:156] Memory required for data: 1340445216
I0403 18:13:23.491519 21745 layer_factory.hpp:77] Creating layer inception_5b/relu_pool_proj
I0403 18:13:23.491540 21745 net.cpp:91] Creating Layer inception_5b/relu_pool_proj
I0403 18:13:23.491570 21745 net.cpp:425] inception_5b/relu_pool_proj <- inception_5b/pool_proj
I0403 18:13:23.491587 21745 net.cpp:386] inception_5b/relu_pool_proj -> inception_5b/pool_proj (in-place)
I0403 18:13:23.491873 21745 net.cpp:141] Setting up inception_5b/relu_pool_proj
I0403 18:13:23.491899 21745 net.cpp:148] Top shape: 24 128 7 7 (150528)
I0403 18:13:23.491915 21745 net.cpp:156] Memory required for data: 1341047328
I0403 18:13:23.491930 21745 layer_factory.hpp:77] Creating layer inception_5b/output
I0403 18:13:23.491946 21745 net.cpp:91] Creating Layer inception_5b/output
I0403 18:13:23.491976 21745 net.cpp:425] inception_5b/output <- inception_5b/1x1
I0403 18:13:23.491992 21745 net.cpp:425] inception_5b/output <- inception_5b/3x3
I0403 18:13:23.492007 21745 net.cpp:425] inception_5b/output <- inception_5b/5x5
I0403 18:13:23.492022 21745 net.cpp:425] inception_5b/output <- inception_5b/pool_proj
I0403 18:13:23.492038 21745 net.cpp:399] inception_5b/output -> inception_5b/output
I0403 18:13:23.492089 21745 net.cpp:141] Setting up inception_5b/output
I0403 18:13:23.492111 21745 net.cpp:148] Top shape: 24 1024 7 7 (1204224)
I0403 18:13:23.492125 21745 net.cpp:156] Memory required for data: 1345864224
I0403 18:13:23.492141 21745 layer_factory.hpp:77] Creating layer pool5/7x7_s1
I0403 18:13:23.492159 21745 net.cpp:91] Creating Layer pool5/7x7_s1
I0403 18:13:23.492175 21745 net.cpp:425] pool5/7x7_s1 <- inception_5b/output
I0403 18:13:23.492192 21745 net.cpp:399] pool5/7x7_s1 -> pool5/7x7_s1
I0403 18:13:23.492398 21745 net.cpp:141] Setting up pool5/7x7_s1
I0403 18:13:23.492424 21745 net.cpp:148] Top shape: 24 1024 1 1 (24576)
I0403 18:13:23.492440 21745 net.cpp:156] Memory required for data: 1345962528
I0403 18:13:23.492455 21745 layer_factory.hpp:77] Creating layer pool5/drop_7x7_s1
I0403 18:13:23.492471 21745 net.cpp:91] Creating Layer pool5/drop_7x7_s1
I0403 18:13:23.492486 21745 net.cpp:425] pool5/drop_7x7_s1 <- pool5/7x7_s1
I0403 18:13:23.492502 21745 net.cpp:386] pool5/drop_7x7_s1 -> pool5/7x7_s1 (in-place)
I0403 18:13:23.492557 21745 net.cpp:141] Setting up pool5/drop_7x7_s1
I0403 18:13:23.492579 21745 net.cpp:148] Top shape: 24 1024 1 1 (24576)
I0403 18:13:23.492594 21745 net.cpp:156] Memory required for data: 1346060832
I0403 18:13:23.492609 21745 layer_factory.hpp:77] Creating layer loss3/classifier_plantvillage
I0403 18:13:23.492627 21745 net.cpp:91] Creating Layer loss3/classifier_plantvillage
I0403 18:13:23.492643 21745 net.cpp:425] loss3/classifier_plantvillage <- pool5/7x7_s1
I0403 18:13:23.492660 21745 net.cpp:399] loss3/classifier_plantvillage -> loss3/classifier_plantvillage
I0403 18:13:23.493067 21745 net.cpp:141] Setting up loss3/classifier_plantvillage
I0403 18:13:23.493089 21745 net.cpp:148] Top shape: 24 38 (912)
I0403 18:13:23.493103 21745 net.cpp:156] Memory required for data: 1346064480
I0403 18:13:23.493120 21745 layer_factory.hpp:77] Creating layer loss3/classifier_plantvillage_loss3/classifier_plantvillage_0_split
I0403 18:13:23.493137 21745 net.cpp:91] Creating Layer loss3/classifier_plantvillage_loss3/classifier_plantvillage_0_split
I0403 18:13:23.493152 21745 net.cpp:425] loss3/classifier_plantvillage_loss3/classifier_plantvillage_0_split <- loss3/classifier_plantvillage
I0403 18:13:23.493171 21745 net.cpp:399] loss3/classifier_plantvillage_loss3/classifier_plantvillage_0_split -> loss3/classifier_plantvillage_loss3/classifier_plantvillage_0_split_0
I0403 18:13:23.493192 21745 net.cpp:399] loss3/classifier_plantvillage_loss3/classifier_plantvillage_0_split -> loss3/classifier_plantvillage_loss3/classifier_plantvillage_0_split_1
I0403 18:13:23.493211 21745 net.cpp:399] loss3/classifier_plantvillage_loss3/classifier_plantvillage_0_split -> loss3/classifier_plantvillage_loss3/classifier_plantvillage_0_split_2
I0403 18:13:23.493230 21745 net.cpp:399] loss3/classifier_plantvillage_loss3/classifier_plantvillage_0_split -> loss3/classifier_plantvillage_loss3/classifier_plantvillage_0_split_3
I0403 18:13:23.493331 21745 net.cpp:141] Setting up loss3/classifier_plantvillage_loss3/classifier_plantvillage_0_split
I0403 18:13:23.493353 21745 net.cpp:148] Top shape: 24 38 (912)
I0403 18:13:23.493369 21745 net.cpp:148] Top shape: 24 38 (912)
I0403 18:13:23.493384 21745 net.cpp:148] Top shape: 24 38 (912)
I0403 18:13:23.493399 21745 net.cpp:148] Top shape: 24 38 (912)
I0403 18:13:23.493412 21745 net.cpp:156] Memory required for data: 1346079072
I0403 18:13:23.493427 21745 layer_factory.hpp:77] Creating layer loss1/loss
I0403 18:13:23.493446 21745 net.cpp:91] Creating Layer loss1/loss
I0403 18:13:23.493463 21745 net.cpp:425] loss1/loss <- loss1/classifier_plantvillage_loss1/classifier_plantvillage_0_split_0
I0403 18:13:23.493491 21745 net.cpp:425] loss1/loss <- label_data_1_split_0
…
