…
I0403 18:17:30.531111 21975 net.cpp:313] The NetState phase (1) differed from the phase (0) specified by a rule in layer data
I0403 18:17:30.534137 21975 net.cpp:49] Initializing net from parameters: 
state {
  phase: TEST
}
layer {
  name: "data"
  type: "Data"
  top: "data"
  top: "label"
  include {
    phase: TEST
  }
  transform_param {
    mirror: false
    crop_size: 224
    mean_file: "/home/mohanty/data/final_dataset/lmdb/segmented-40-60/mean.binaryproto"
  }
  data_param {
    source: "/home/mohanty/data/final_dataset/lmdb/segmented-40-60/test_db"
    batch_size: 24
    backend: LMDB
  }
}
layer {
  name: "conv1/7x7_s2"
  type: "Convolution"
  bottom: "data"
  top: "conv1/7x7_s2"
  param {
    lr_mult: 1
    decay_mult: 1
  }
  param {
    lr_mult: 2
    decay_mult: 0
  }
  convolution_param {
    num_output: 64
    pad: 3
    kernel_size: 7
    stride: 2
    weight_filler {
      type: "xavier"
      std: 0.1
    }
    bias_filler {
      type: "constant"
      value: 0.2
    }
  }
}
layer {
  name: "conv1/relu_7x7"
  type: "ReLU"
  bottom: "conv1/7x7_s2"
  top: "conv1/7x7_s2"
}
layer {
  name: "pool1/3x3_s2"
  type: "Pooling"
  bottom: "conv1/7x7_s2"
  top: "pool1/3x3_s2"
  pooling_param {
    pool: MAX
    kernel_size: 3
    stride: 2
  }
}
layer {
  name: "pool1/norm1"
  type: "LRN"
  bottom: "pool1/3x3_s2"
  top: "pool1/norm1"
  lrn_param {
    local_size: 5
    alpha: 0.0001
    beta: 0.75
  }
}
layer {
  name: "conv2/3x3_reduce"
  type: "Convolution"
  bottom: "pool1/norm1"
  top: "conv2/3x3_reduce"
  param {
    lr_mult: 1
    decay_mult: 1
  }
  param {
    lr_mult: 2
    decay_mult: 0
  }
  convolution_param {
    num_output: 64
    kernel_size: 1
    weight_filler {
      type: "xavier"
      std: 0.1
    }
    bias_filler {
      type: "constant"
      value: 0.2
    }
  }
}
layer {
  name: "conv2/relu_3x3_reduce"
  type: "ReLU"
  bottom: "conv2/3x3_reduce"
  top: "conv2/3x3_reduce"
}
layer {
  name: "conv2/3x3"
  type: "Convolution"
  bottom: "conv2/3x3_reduce"
  top: "conv2/3x3"
  param {
    lr_mult: 1
    decay_mult: 1
  }
  param {
    lr_mult: 2
    decay_mult: 0
  }
  convolution_param {
    num_output: 192
    pad: 1
    kernel_size: 3
    weight_filler {
      type: "xavier"
      std: 0.03
    }
    bias_filler {
      type: "constant"
      value: 0.2
    }
  }
}
layer {
  name: "conv2/relu_3x3"
  type: "ReLU"
  bottom: "conv2/3x3"
  top: "conv2/3x3"
}
layer {
  name: "conv2/norm2"
  type: "LRN"
  bottom: "conv2/3x3"
  top: "conv2/norm2"
  lrn_param {
    local_size: 5
    alpha: 0.0001
    beta: 0.75
  }
}
layer {
  name: "pool2/3x3_s2"
  type: "Pooling"
  bottom: "conv2/norm2"
  top: "pool2/3x3_s2"
  pooling_param {
    pool: MAX
    kernel_size: 3
    stride: 2
  }
}
layer {
  name: "inception_3a/1x1"
  type: "Convolution"
  bottom: "pool2/3x3_s2"
  top: "inception_3a/1x1"
  param {
    lr_mult: 1
    decay_mult: 1
  }
  param {
    lr_mult: 2
    decay_mult: 0
  }
  convolution_param {
    num_output: 64
    kernel_size: 1
    weight_filler {
      type: "xavier"
      std: 0.03
    }
    bias_filler {
      type: "constant"
      value: 0.2
    }
  }
}
layer {
  name: "inception_3a/relu_1x1"
  type: "ReLU"
  bottom: "inception_3a/1x1"
  top: "inception_3a/1x1"
}
layer {
  name: "inception_3a/3x3_reduce"
  type: "Convolution"
  bottom: "pool2/3x3_s2"
  top: "inception_3a/3x3_reduce"
  param {
    lr_mult: 1
    decay_mult: 1
  }
  param {
    lr_mult: 2
    decay_mult: 0
  }
  convolution_param {
    num_output: 96
    kernel_size: 1
    weight_filler {
      type: "xavier"
      std: 0.09
    }
    bias_filler {
      type: "constant"
      value: 0.2
    }
  }
}
layer {
  name: "inception_3a/relu_3x3_reduce"
  type: "ReLU"
  bottom: "inception_3a/3x3_reduce"
  top: "inception_3a/3x3_reduce"
}
layer {
  name: "inception_3a/3x3"
  type: "Convolution"
  bottom: "inception_3a/3x3_reduce"
  top: "inception_3a/3x3"
  param {
    lr_mult: 1
    decay_mult: 1
  }
  param {
    lr_mult: 2
    decay_mult: 0
  }
  convolution_param {
    num_output: 128
    pad: 1
    kernel_size: 3
    weight_filler {
      type: "xavier"
      std: 0.03
    }
    bias_filler {
      type: "constant"
      value: 0.2
    }
  }
}
layer {
  name: "inception_3a/relu_3x3"
  type: "ReLU"
  bottom: "inception_3a/3x3"
  top: "inception_3a/3x3"
}
layer {
  name: "inception_3a/5x5_reduce"
  type: "Convolution"
  bottom: "pool2/3x3_s2"
  top: "inception_3a/5x5_reduce"
  param {
    lr_mult: 1
    decay_mult: 1
  }
  param {
    lr_mult: 2
    decay_mult: 0
  }
  convolution_param {
    num_output: 16
    kernel_size: 1
    weight_filler {
      type: "xavier"
      std: 0.2
    }
    bias_filler {
      type: "constant"
      value: 0.2
    }
  }
}
layer {
  name: "inception_3a/relu_5x5_reduce"
  type: "ReLU"
  bottom: "inception_3a/5x5_reduce"
  top: "inception_3a/5x5_reduce"
}
layer {
  name: "inception_3a/5x5"
  type: "Convolution"
  bottom: "inception_3a/5x5_reduce"
  top: "inception_3a/5x5"
  param {
    lr_mult: 1
    decay_mult: 1
  }
  param {
    lr_mult: 2
    decay_mult: 0
  }
  convolution_param {
    num_output: 32
    pad: 2
    kernel_size: 5
    weight_filler {
      type: "xavier"
      std: 0.03
    }
    bias_filler {
      type: "constant"
      value: 0.2
    }
  }
}
layer {
  name: "inception_3a/relu_5x5"
  type: "ReLU"
  bottom: "inception_3a/5x5"
  top: "inception_3a/5x5"
}
layer {
  name: "inception_3a/pool"
  type: "Pooling"
  bottom: "pool2/3x3_s2"
  top: "inception_3a/pool"
  pooling_param {
    pool: MAX
    kernel_size: 3
    stride: 1
    pad: 1
  }
}
layer {
  name: "inception_3a/pool_proj"
  type: "Convolution"
  bottom: "inception_3a/pool"
  top: "inception_3a/pool_proj"
  param {
    lr_mult: 1
    decay_mult: 1
  }
  param {
    lr_mult: 2
    decay_mult: 0
  }
  convolution_param {
    num_output: 32
    kernel_size: 1
    weight_filler {
      type: "xavier"
      std: 0.1
    }
    bias_filler {
      type: "constant"
      value: 0.2
    }
  }
}
layer {
  name: "inception_3a/relu_pool_proj"
  type: "ReLU"
  bottom: "inception_3a/pool_proj"
  top: "inception_3a/pool_proj"
}
layer {
  name: "inception_3a/output"
  type: "Concat"
  bottom: "inception_3a/1x1"
  bottom: "inception_3a/3x3"
  bottom: "inception_3a/5x5"
  bottom: "inception_3a/pool_proj"
  top: "inception_3a/output"
}
layer {
  name: "inception_3b/1x1"
  type: "Convolution"
  bottom: "inception_3a/output"
  top: "inception_3b/1x1"
  param {
    lr_mult: 1
    decay_mult: 1
  }
  param {
    lr_mult: 2
    decay_mult: 0
  }
  convolution_param {
    num_output: 128
    kernel_size: 1
    weight_filler {
      type: "xavier"
      std: 0.03
    }
    bias_filler {
      type: "constant"
      value: 0.2
    }
  }
}
layer {
  name: "inception_3b/relu_1x1"
  type: "ReLU"
  bottom: "inception_3b/1x1"
  top: "inception_3b/1x1"
}
layer {
  name: "inception_3b/3x3_reduce"
  type: "Convolution"
  bottom: "inception_3a/output"
  top: "inception_3b/3x3_reduce"
  param {
    lr_mult: 1
    decay_mult: 1
  }
  param {
    lr_mult: 2
    decay_mult: 0
  }
  convolution_param {
    num_output: 128
    kernel_size: 1
    weight_filler {
      type: "xavier"
      std: 0.09
    }
    bias_filler {
      type: "constant"
      value: 0.2
    }
  }
}
layer {
  name: "inception_3b/relu_3x3_reduce"
  type: "ReLU"
  bottom: "inception_3b/3x3_reduce"
  top: "inception_3b/3x3_reduce"
}
layer {
  name: "inception_3b/3x3"
  type: "Convolution"
  bottom: "inception_3b/3x3_reduce"
  top: "inception_3b/3x3"
  param {
    lr_mult: 1
    decay_mult: 1
  }
  param {
    lr_mult: 2
    decay_mult: 0
  }
  convolution_param {
    num_output: 192
    pad: 1
    kernel_size: 3
    weight_filler {
      type: "xavier"
      std: 0.03
    }
    bias_filler {
      type: "constant"
      value: 0.2
    }
  }
}
layer {
  name: "inception_3b/relu_3x3"
  type: "ReLU"
  bottom: "inception_3b/3x3"
  top: "inception_3b/3x3"
}
layer {
  name: "inception_3b/5x5_reduce"
  type: "Convolution"
  bottom: "inception_3a/output"
  top: "inception_3b/5x5_reduce"
  param {
    lr_mult: 1
    decay_mult: 1
  }
  param {
    lr_mult: 2
    decay_mult: 0
  }
  convolution_param {
    num_output: 32
    kernel_size: 1
    weight_filler {
      type: "xavier"
      std: 0.2
    }
    bias_filler {
      type: "constant"
      value: 0.2
    }
  }
}
layer {
  name: "inception_3b/relu_5x5_reduce"
  type: "ReLU"
  bottom: "inception_3b/5x5_reduce"
  top: "inception_3b/5x5_reduce"
}
layer {
  name: "inception_3b/5x5"
  type: "Convolution"
  bottom: "inception_3b/5x5_reduce"
  top: "inception_3b/5x5"
  param {
    lr_mult: 1
    decay_mult: 1
  }
  param {
    lr_mult: 2
    decay_mult: 0
  }
  convolution_param {
    num_output: 96
    pad: 2
    kernel_size: 5
    weight_filler {
      type: "xavier"
      std: 0.03
    }
    bias_filler {
      type: "constant"
      value: 0.2
    }
  }
}
layer {
  name: "inception_3b/relu_5x5"
  type: "ReLU"
  bottom: "inception_3b/5x5"
  top: "inception_3b/5x5"
}
layer {
  name: "inception_3b/pool"
  type: "Pooling"
  bottom: "inception_3a/output"
  top: "inception_3b/pool"
  pooling_param {
    pool: MAX
    kernel_size: 3
    stride: 1
    pad: 1
  }
}
layer {
  name: "inception_3b/pool_proj"
  type: "Convolution"
  bottom: "inception_3b/pool"
  top: "inception_3b/pool_proj"
  param {
    lr_mult: 1
    decay_mult: 1
  }
  param {
    lr_mult: 2
    decay_mult: 0
  }
  convolution_param {
    num_output: 64
    kernel_size: 1
    weight_filler {
      type: "xavier"
      std: 0.1
    }
    bias_filler {
      type: "constant"
      value: 0.2
    }
  }
}
layer {
  name: "inception_3b/relu_pool_proj"
  type: "ReLU"
  bottom: "inception_3b/pool_proj"
  top: "inception_3b/pool_proj"
}
layer {
  name: "inception_3b/output"
  type: "Concat"
  bottom: "inception_3b/1x1"
  bottom: "inception_3b/3x3"
  bottom: "inception_3b/5x5"
  bottom: "inception_3b/pool_proj"
  top: "inception_3b/output"
}
layer {
  name: "pool3/3x3_s2"
  type: "Pooling"
  bottom: "inception_3b/output"
  top: "pool3/3x3_s2"
  pooling_param {
    pool: MAX
    kernel_size: 3
    stride: 2
  }
}
layer {
  name: "inception_4a/1x1"
  type: "Convolution"
  bottom: "pool3/3x3_s2"
  top: "inception_4a/1x1"
  param {
    lr_mult: 1
    decay_mult: 1
  }
  param {
    lr_mult: 2
    decay_mult: 0
  }
  convolution_param {
    num_output: 192
    kernel_size: 1
    weight_filler {
      type: "xavier"
      std: 0.03
    }
    bias_filler {
      type: "constant"
      value: 0.2
    }
  }
}
layer {
  name: "inception_4a/relu_1x1"
  type: "ReLU"
  bottom: "inception_4a/1x1"
  top: "inception_4a/1x1"
}
layer {
  name: "inception_4a/3x3_reduce"
  type: "Convolution"
  bottom: "pool3/3x3_s2"
  top: "inception_4a/3x3_reduce"
  param {
    lr_mult: 1
    decay_mult: 1
  }
  param {
    lr_mult: 2
    decay_mult: 0
  }
  convolution_param {
    num_output: 96
    kernel_size: 1
    weight_filler {
      type: "xavier"
      std: 0.09
    }
    bias_filler {
      type: "constant"
      value: 0.2
    }
  }
}
layer {
  name: "inception_4a/relu_3x3_reduce"
  type: "ReLU"
  bottom: "inception_4a/3x3_reduce"
  top: "inception_4a/3x3_reduce"
}
layer {
  name: "inception_4a/3x3"
  type: "Convolution"
  bottom: "inception_4a/3x3_reduce"
  top: "inception_4a/3x3"
  param {
    lr_mult: 1
    decay_mult: 1
  }
  param {
    lr_mult: 2
    decay_mult: 0
  }
  convolution_param {
    num_output: 208
    pad: 1
    kernel_size: 3
    weight_filler {
      type: "xavier"
      std: 0.03
    }
    bias_filler {
      type: "constant"
      value: 0.2
    }
  }
}
layer {
  name: "inception_4a/relu_3x3"
  type: "ReLU"
  bottom: "inception_4a/3x3"
  top: "inception_4a/3x3"
}
layer {
  name: "inception_4a/5x5_reduce"
  type: "Convolution"
  bottom: "pool3/3x3_s2"
  top: "inception_4a/5x5_reduce"
  param {
    lr_mult: 1
    decay_mult: 1
  }
  param {
    lr_mult: 2
    decay_mult: 0
  }
  convolution_param {
    num_output: 16
    kernel_size: 1
    weight_filler {
      type: "xavier"
      std: 0.2
    }
    bias_filler {
      type: "constant"
      value: 0.2
    }
  }
}
layer {
  name: "inception_4a/relu_5x5_reduce"
  type: "ReLU"
  bottom: "inception_4a/5x5_reduce"
  top: "inception_4a/5x5_reduce"
}
layer {
  name: "inception_4a/5x5"
  type: "Convolution"
  bottom: "inception_4a/5x5_reduce"
  top: "inception_4a/5x5"
  param {
    lr_mult: 1
    decay_mult: 1
  }
  param {
    lr_mult: 2
    decay_mult: 0
  }
  convolution_param {
    num_output: 48
    pad: 2
    kernel_size: 5
    weight_filler {
      type: "xavier"
      std: 0.03
    }
    bias_filler {
      type: "constant"
      value: 0.2
    }
  }
}
layer {
  name: "inception_4a/relu_5x5"
  type: "ReLU"
  bottom: "inception_4a/5x5"
  top: "inception_4a/5x5"
}
layer {
  name: "inception_4a/pool"
  type: "Pooling"
  bottom: "pool3/3x3_s2"
  top: "inception_4a/pool"
  pooling_param {
    pool: MAX
    kernel_size: 3
    stride: 1
    pad: 1
  }
}
layer {
  name: "inception_4a/pool_proj"
  type: "Convolution"
  bottom: "inception_4a/pool"
  top: "inception_4a/pool_proj"
  param {
    lr_mult: 1
    decay_mult: 1
  }
  param {
    lr_mult: 2
    decay_mult: 0
  }
  convolution_param {
    num_output: 64
    kernel_size: 1
    weight_filler {
      type: "xavier"
      std: 0.1
    }
    bias_filler {
      type: "constant"
      value: 0.2
    }
  }
}
layer {
  name: "inception_4a/relu_pool_proj"
  type: "ReLU"
  bottom: "inception_4a/pool_proj"
  top: "inception_4a/pool_proj"
}
layer {
  name: "inception_4a/output"
  type: "Concat"
  bottom: "inception_4a/1x1"
  bottom: "inception_4a/3x3"
  bottom: "inception_4a/5x5"
  bottom: "inception_4a/pool_proj"
  top: "inception_4a/output"
}
layer {
  name: "loss1/ave_pool"
  type: "Pooling"
  bottom: "inception_4a/output"
  top: "loss1/ave_pool"
  pooling_param {
    pool: AVE
    kernel_size: 5
    stride: 3
  }
}
layer {
  name: "loss1/conv"
  type: "Convolution"
  bottom: "loss1/ave_pool"
  top: "loss1/conv"
  param {
    lr_mult: 1
    decay_mult: 1
  }
  param {
    lr_mult: 2
    decay_mult: 0
  }
  convolution_param {
    num_output: 128
    kernel_size: 1
    weight_filler {
      type: "xavier"
      std: 0.08
    }
    bias_filler {
      type: "constant"
      value: 0.2
    }
  }
}
layer {
  name: "loss1/relu_conv"
  type: "ReLU"
  bottom: "loss1/conv"
  top: "loss1/conv"
}
layer {
  name: "loss1/fc"
  type: "InnerProduct"
  bottom: "loss1/conv"
  top: "loss1/fc"
  param {
    lr_mult: 1
    decay_mult: 1
  }
  param {
    lr_mult: 2
    decay_mult: 0
  }
  inner_product_param {
    num_output: 1024
    weight_filler {
      type: "xavier"
      std: 0.02
    }
    bias_filler {
      type: "constant"
      value: 0.2
    }
  }
}
layer {
  name: "loss1/relu_fc"
  type: "ReLU"
  bottom: "loss1/fc"
  top: "loss1/fc"
}
layer {
  name: "loss1/drop_fc"
  type: "Dropout"
  bottom: "loss1/fc"
  top: "loss1/fc"
  dropout_param {
    dropout_ratio: 0.7
  }
}
layer {
  name: "loss1/classifier_plantvillage"
  type: "InnerProduct"
  bottom: "loss1/fc"
  top: "loss1/classifier_plantvillage"
  param {
    lr_mult: 1
    decay_mult: 1
  }
  param {
    lr_mult: 2
    decay_mult: 0
  }
  inner_product_param {
    num_output: 38
    weight_filler {
      type: "xavier"
      std: 0.0009765625
    }
    bias_filler {
      type: "constant"
      value: 0
    }
  }
}
layer {
  name: "inception_4b/1x1"
  type: "Convolution"
  bottom: "inception_4a/output"
  top: "inception_4b/1x1"
  param {
    lr_mult: 1
    decay_mult: 1
  }
  param {
    lr_mult: 2
    decay_mult: 0
  }
  convolution_param {
    num_output: 160
    kernel_size: 1
    weight_filler {
      type: "xavier"
      std: 0.03
    }
    bias_filler {
      type: "constant"
      value: 0.2
    }
  }
}
layer {
  name: "inception_4b/relu_1x1"
  type: "ReLU"
  bottom: "inception_4b/1x1"
  top: "inception_4b/1x1"
}
layer {
  name: "inception_4b/3x3_reduce"
  type: "Convolution"
  bottom: "inception_4a/output"
  top: "inception_4b/3x3_reduce"
  param {
    lr_mult: 1
    decay_mult: 1
  }
  param {
    lr_mult: 2
    decay_mult: 0
  }
  convolution_param {
    num_output: 112
    kernel_size: 1
    weight_filler {
      type: "xavier"
      std: 0.09
    }
    bias_filler {
      type: "constant"
      value: 0.2
    }
  }
}
layer {
  name: "inception_4b/relu_3x3_reduce"
  type: "ReLU"
  bottom: "inception_4b/3x3_reduce"
  top: "inception_4b/3x3_reduce"
}
layer {
  name: "inception_4b/3x3"
  type: "Convolution"
  bottom: "inception_4b/3x3_reduce"
  top: "inception_4b/3x3"
  param {
    lr_mult: 1
    decay_mult: 1
  }
  param {
    lr_mult: 2
    decay_mult: 0
  }
  convolution_param {
    num_output: 224
    pad: 1
    kernel_size: 3
    weight_filler {
      type: "xavier"
      std: 0.03
    }
    bias_filler {
      type: "constant"
      value: 0.2
    }
  }
}
layer {
  name: "inception_4b/relu_3x3"
  type: "ReLU"
  bottom: "inception_4b/3x3"
  top: "inception_4b/3x3"
}
layer {
  name: "inception_4b/5x5_reduce"
  type: "Convolution"
  bottom: "inception_4a/output"
  top: "inception_4b/5x5_reduce"
  param {
    lr_mult: 1
    decay_mult: 1
  }
  param {
    lr_mult: 2
    decay_mult: 0
  }
  convolution_param {
    num_output: 24
    kernel_size: 1
    weight_filler {
      type: "xavier"
      std: 0.2
    }
    bias_filler {
      type: "constant"
      value: 0.2
    }
  }
}
layer {
  name: "inception_4b/relu_5x5_reduce"
  type: "ReLU"
  bottom: "inception_4b/5x5_reduce"
  top: "inception_4b/5x5_reduce"
}
layer {
  name: "inception_4b/5x5"
  type: "Convolution"
  bottom: "inception_4b/5x5_reduce"
  top: "inception_4b/5x5"
  param {
    lr_mult: 1
    decay_mult: 1
  }
  param {
    lr_mult: 2
    decay_mult: 0
  }
  convolution_param {
    num_output: 64
    pad: 2
    kernel_size: 5
    weight_filler {
      type: "xavier"
      std: 0.03
    }
    bias_filler {
      type: "constant"
      value: 0.2
    }
  }
}
layer {
  name: "inception_4b/relu_5x5"
  type: "ReLU"
  bottom: "inception_4b/5x5"
  top: "inception_4b/5x5"
}
layer {
  name: "inception_4b/pool"
  type: "Pooling"
  bottom: "inception_4a/output"
  top: "inception_4b/pool"
  pooling_param {
    pool: MAX
    kernel_size: 3
    stride: 1
    pad: 1
  }
}
layer {
  name: "inception_4b/pool_proj"
  type: "Convolution"
  bottom: "inception_4b/pool"
  top: "inception_4b/pool_proj"
  param {
    lr_mult: 1
    decay_mult: 1
  }
  param {
    lr_mult: 2
    decay_mult: 0
  }
  convolution_param {
    num_output: 64
    kernel_size: 1
    weight_filler {
      type: "xavier"
      std: 0.1
    }
    bias_filler {
      type: "constant"
      value: 0.2
    }
  }
}
layer {
  name: "inception_4b/relu_pool_proj"
  type: "ReLU"
  bottom: "inception_4b/pool_proj"
  top: "inception_4b/pool_proj"
}
layer {
  name: "inception_4b/output"
  type: "Concat"
  bottom: "inception_4b/1x1"
  bottom: "inception_4b/3x3"
  bottom: "inception_4b/5x5"
  bottom: "inception_4b/pool_proj"
  top: "inception_4b/output"
}
layer {
  name: "inception_4c/1x1"
  type: "Convolution"
  bottom: "inception_4b/output"
  top: "inception_4c/1x1"
  param {
    lr_mult: 1
    decay_mult: 1
  }
  param {
    lr_mult: 2
    decay_mult: 0
  }
  convolution_param {
    num_output: 128
    kernel_size: 1
    weight_filler {
      type: "xavier"
      std: 0.03
    }
    bias_filler {
      type: "constant"
      value: 0.2
    }
  }
}
layer {
  name: "inception_4c/relu_1x1"
  type: "ReLU"
  bottom: "inception_4c/1x1"
  top: "inception_4c/1x1"
}
layer {
  name: "inception_4c/3x3_reduce"
  type: "Convolution"
  bottom: "inception_4b/output"
  top: "inception_4c/3x3_reduce"
  param {
    lr_mult: 1
    decay_mult: 1
  }
  param {
    lr_mult: 2
    decay_mult: 0
  }
  convolution_param {
    num_output: 128
    kernel_size: 1
    weight_filler {
      type: "xavier"
      std: 0.09
    }
    bias_filler {
      type: "constant"
      value: 0.2
    }
  }
}
layer {
  name: "inception_4c/relu_3x3_reduce"
  type: "ReLU"
  bottom: "inception_4c/3x3_reduce"
  top: "inception_4c/3x3_reduce"
}
layer {
  name: "inception_4c/3x3"
  type: "Convolution"
  bottom: "inception_4c/3x3_reduce"
  top: "inception_4c/3x3"
  param {
    lr_mult: 1
    decay_mult: 1
  }
  param {
    lr_mult: 2
    decay_mult: 0
  }
  convolution_param {
    num_output: 256
    pad: 1
    kernel_size: 3
    weight_filler {
      type: "xavier"
      std: 0.03
    }
    bias_filler {
      type: "constant"
      value: 0.2
    }
  }
}
layer {
  name: "inception_4c/relu_3x3"
  type: "ReLU"
  bottom: "inception_4c/3x3"
  top: "inception_4c/3x3"
}
layer {
  name: "inception_4c/5x5_reduce"
  type: "Convolution"
  bottom: "inception_4b/output"
  top: "inception_4c/5x5_reduce"
  param {
    lr_mult: 1
    decay_mult: 1
  }
  param {
    lr_mult: 2
    decay_mult: 0
  }
  convolution_param {
    num_output: 24
    kernel_size: 1
    weight_filler {
      type: "xavier"
      std: 0.2
    }
    bias_filler {
      type: "constant"
      value: 0.2
    }
  }
}
layer {
  name: "inception_4c/relu_5x5_reduce"
  type: "ReLU"
  bottom: "inception_4c/5x5_reduce"
  top: "inception_4c/5x5_reduce"
}
layer {
  name: "inception_4c/5x5"
  type: "Convolution"
  bottom: "inception_4c/5x5_reduce"
  top: "inception_4c/5x5"
  param {
    lr_mult: 1
    decay_mult: 1
  }
  param {
    lr_mult: 2
    decay_mult: 0
  }
  convolution_param {
    num_output: 64
    pad: 2
    kernel_size: 5
    weight_filler {
      type: "xavier"
      std: 0.03
    }
    bias_filler {
      type: "constant"
      value: 0.2
    }
  }
}
layer {
  name: "inception_4c/relu_5x5"
  type: "ReLU"
  bottom: "inception_4c/5x5"
  top: "inception_4c/5x5"
}
layer {
  name: "inception_4c/pool"
  type: "Pooling"
  bottom: "inception_4b/output"
  top: "inception_4c/pool"
  pooling_param {
    pool: MAX
    kernel_size: 3
    stride: 1
    pad: 1
  }
}
layer {
  name: "inception_4c/pool_proj"
  type: "Convolution"
  bottom: "inception_4c/pool"
  top: "inception_4c/pool_proj"
  param {
    lr_mult: 1
    decay_mult: 1
  }
  param {
    lr_mult: 2
    decay_mult: 0
  }
  convolution_param {
    num_output: 64
    kernel_size: 1
    weight_filler {
      type: "xavier"
      std: 0.1
    }
    bias_filler {
      type: "constant"
      value: 0.2
    }
  }
}
layer {
  name: "inception_4c/relu_pool_proj"
  type: "ReLU"
  bottom: "inception_4c/pool_proj"
  top: "inception_4c/pool_proj"
}
layer {
  name: "inception_4c/output"
  type: "Concat"
  bottom: "inception_4c/1x1"
  bottom: "inception_4c/3x3"
  bottom: "inception_4c/5x5"
  bottom: "inception_4c/pool_proj"
  top: "inception_4c/output"
}
layer {
  name: "inception_4d/1x1"
  type: "Convolution"
  bottom: "inception_4c/output"
  top: "inception_4d/1x1"
  param {
    lr_mult: 1
    decay_mult: 1
  }
  param {
    lr_mult: 2
    decay_mult: 0
  }
  convolution_param {
    num_output: 112
    kernel_size: 1
    weight_filler {
      type: "xavier"
      std: 0.03
    }
    bias_filler {
      type: "constant"
      value: 0.2
    }
  }
}
layer {
  name: "inception_4d/relu_1x1"
  type: "ReLU"
  bottom: "inception_4d/1x1"
  top: "inception_4d/1x1"
}
layer {
  name: "inception_4d/3x3_reduce"
  type: "Convolution"
  bottom: "inception_4c/output"
  top: "inception_4d/3x3_reduce"
  param {
    lr_mult: 1
    decay_mult: 1
  }
  param {
    lr_mult: 2
    decay_mult: 0
  }
  convolution_param {
    num_output: 144
    kernel_size: 1
    weight_filler {
      type: "xavier"
      std: 0.09
    }
    bias_filler {
      type: "constant"
      value: 0.2
    }
  }
}
layer {
  name: "inception_4d/relu_3x3_reduce"
  type: "ReLU"
  bottom: "inception_4d/3x3_reduce"
  top: "inception_4d/3x3_reduce"
}
layer {
  name: "inception_4d/3x3"
  type: "Convolution"
  bottom: "inception_4d/3x3_reduce"
  top: "inception_4d/3x3"
  param {
    lr_mult: 1
    decay_mult: 1
  }
  param {
    lr_mult: 2
    decay_mult: 0
  }
  convolution_param {
    num_output: 288
    pad: 1
    kernel_size: 3
    weight_filler {
      type: "xavier"
      std: 0.03
    }
    bias_filler {
      type: "constant"
      value: 0.2
    }
  }
}
layer {
  name: "inception_4d/relu_3x3"
  type: "ReLU"
  bottom: "inception_4d/3x3"
  top: "inception_4d/3x3"
}
layer {
  name: "inception_4d/5x5_reduce"
  type: "Convolution"
  bottom: "inception_4c/output"
  top: "inception_4d/5x5_reduce"
  param {
    lr_mult: 1
    decay_mult: 1
  }
  param {
    lr_mult: 2
    decay_mult: 0
  }
  convolution_param {
    num_output: 32
    kernel_size: 1
    weight_filler {
      type: "xavier"
      std: 0.2
    }
    bias_filler {
      type: "constant"
      value: 0.2
    }
  }
}
layer {
  name: "inception_4d/relu_5x5_reduce"
  type: "ReLU"
  bottom: "inception_4d/5x5_reduce"
  top: "inception_4d/5x5_reduce"
}
layer {
  name: "inception_4d/5x5"
  type: "Convolution"
  bottom: "inception_4d/5x5_reduce"
  top: "inception_4d/5x5"
  param {
    lr_mult: 1
    decay_mult: 1
  }
  param {
    lr_mult: 2
    decay_mult: 0
  }
  convolution_param {
    num_output: 64
    pad: 2
    kernel_size: 5
    weight_filler {
      type: "xavier"
      std: 0.03
    }
    bias_filler {
      type: "constant"
      value: 0.2
    }
  }
}
layer {
  name: "inception_4d/relu_5x5"
  type: "ReLU"
  bottom: "inception_4d/5x5"
  top: "inception_4d/5x5"
}
layer {
  name: "inception_4d/pool"
  type: "Pooling"
  bottom: "inception_4c/output"
  top: "inception_4d/pool"
  pooling_param {
    pool: MAX
    kernel_size: 3
    stride: 1
    pad: 1
  }
}
layer {
  name: "inception_4d/pool_proj"
  type: "Convolution"
  bottom: "inception_4d/pool"
  top: "inception_4d/pool_proj"
  param {
    lr_mult: 1
    decay_mult: 1
  }
  param {
    lr_mult: 2
    decay_mult: 0
  }
  convolution_param {
    num_output: 64
    kernel_size: 1
    weight_filler {
      type: "xavier"
      std: 0.1
    }
    bias_filler {
      type: "constant"
      value: 0.2
    }
  }
}
layer {
  name: "inception_4d/relu_pool_proj"
  type: "ReLU"
  bottom: "inception_4d/pool_proj"
  top: "inception_4d/pool_proj"
}
layer {
  name: "inception_4d/output"
  type: "Concat"
  bottom: "inception_4d/1x1"
  bottom: "inception_4d/3x3"
  bottom: "inception_4d/5x5"
  bottom: "inception_4d/pool_proj"
  top: "inception_4d/output"
}
layer {
  name: "loss2/ave_pool"
  type: "Pooling"
  bottom: "inception_4d/output"
  top: "loss2/ave_pool"
  pooling_param {
    pool: AVE
    kernel_size: 5
    stride: 3
  }
}
layer {
  name: "loss2/conv"
  type: "Convolution"
  bottom: "loss2/ave_pool"
  top: "loss2/conv"
  param {
    lr_mult: 1
    decay_mult: 1
  }
  param {
    lr_mult: 2
    decay_mult: 0
  }
  convolution_param {
    num_output: 128
    kernel_size: 1
    weight_filler {
      type: "xavier"
      std: 0.08
    }
    bias_filler {
      type: "constant"
      value: 0.2
    }
  }
}
layer {
  name: "loss2/relu_conv"
  type: "ReLU"
  bottom: "loss2/conv"
  top: "loss2/conv"
}
layer {
  name: "loss2/fc"
  type: "InnerProduct"
  bottom: "loss2/conv"
  top: "loss2/fc"
  param {
    lr_mult: 1
    decay_mult: 1
  }
  param {
    lr_mult: 2
    decay_mult: 0
  }
  inner_product_param {
    num_output: 1024
    weight_filler {
      type: "xavier"
      std: 0.02
    }
    bias_filler {
      type: "constant"
      value: 0.2
    }
  }
}
layer {
  name: "loss2/relu_fc"
  type: "ReLU"
  bottom: "loss2/fc"
  top: "loss2/fc"
}
layer {
  name: "loss2/drop_fc"
  type: "Dropout"
  bottom: "loss2/fc"
  top: "loss2/fc"
  dropout_param {
    dropout_ratio: 0.7
  }
}
layer {
  name: "loss2/classifier_plantvillage"
  type: "InnerProduct"
  bottom: "loss2/fc"
  top: "loss2/classifier_plantvillage"
  param {
    lr_mult: 1
    decay_mult: 1
  }
  param {
    lr_mult: 2
    decay_mult: 0
  }
  inner_product_param {
    num_output: 38
    weight_filler {
      type: "xavier"
      std: 0.0009765625
    }
    bias_filler {
      type: "constant"
      value: 0
    }
  }
}
layer {
  name: "inception_4e/1x1"
  type: "Convolution"
  bottom: "inception_4d/output"
  top: "inception_4e/1x1"
  param {
    lr_mult: 1
    decay_mult: 1
  }
  param {
    lr_mult: 2
    decay_mult: 0
  }
  convolution_param {
    num_output: 256
    kernel_size: 1
    weight_filler {
      type: "xavier"
      std: 0.03
    }
    bias_filler {
      type: "constant"
      value: 0.2
    }
  }
}
layer {
  name: "inception_4e/relu_1x1"
  type: "ReLU"
  bottom: "inception_4e/1x1"
  top: "inception_4e/1x1"
}
layer {
  name: "inception_4e/3x3_reduce"
  type: "Convolution"
  bottom: "inception_4d/output"
  top: "inception_4e/3x3_reduce"
  param {
    lr_mult: 1
    decay_mult: 1
  }
  param {
    lr_mult: 2
    decay_mult: 0
  }
  convolution_param {
    num_output: 160
    kernel_size: 1
    weight_filler {
      type: "xavier"
      std: 0.09
    }
    bias_filler {
      type: "constant"
      value: 0.2
    }
  }
}
layer {
  name: "inception_4e/relu_3x3_reduce"
  type: "ReLU"
  bottom: "inception_4e/3x3_reduce"
  top: "inception_4e/3x3_reduce"
}
layer {
  name: "inception_4e/3x3"
  type: "Convolution"
  bottom: "inception_4e/3x3_reduce"
  top: "inception_4e/3x3"
  param {
    lr_mult: 1
    decay_mult: 1
  }
  param {
    lr_mult: 2
    decay_mult: 0
  }
  convolution_param {
    num_output: 320
    pad: 1
    kernel_size: 3
    weight_filler {
      type: "xavier"
      std: 0.03
    }
    bias_filler {
      type: "constant"
      value: 0.2
    }
  }
}
layer {
  name: "inception_4e/relu_3x3"
  type: "ReLU"
  bottom: "inception_4e/3x3"
  top: "inception_4e/3x3"
}
layer {
  name: "inception_4e/5x5_reduce"
  type: "Convolution"
  bottom: "inception_4d/output"
  top: "inception_4e/5x5_reduce"
  param {
    lr_mult: 1
    decay_mult: 1
  }
  param {
    lr_mult: 2
    decay_mult: 0
  }
  convolution_param {
    num_output: 32
    kernel_size: 1
    weight_filler {
      type: "xavier"
      std: 0.2
    }
    bias_filler {
      type: "constant"
      value: 0.2
    }
  }
}
layer {
  name: "inception_4e/relu_5x5_reduce"
  type: "ReLU"
  bottom: "inception_4e/5x5_reduce"
  top: "inception_4e/5x5_reduce"
}
layer {
  name: "inception_4e/5x5"
  type: "Convolution"
  bottom: "inception_4e/5x5_reduce"
  top: "inception_4e/
I0403 18:17:30.535452 21975 layer_factory.hpp:77] Creating layer data
I0403 18:17:30.536017 21975 net.cpp:91] Creating Layer data
I0403 18:17:30.536046 21975 net.cpp:399] data -> data
I0403 18:17:30.536093 21975 net.cpp:399] data -> label
I0403 18:17:30.536128 21975 data_transformer.cpp:25] Loading mean file from: /home/mohanty/data/final_dataset/lmdb/segmented-40-60/mean.binaryproto
I0403 18:17:30.537288 21977 db_lmdb.cpp:38] Opened lmdb /home/mohanty/data/final_dataset/lmdb/segmented-40-60/test_db
I0403 18:17:30.548748 21975 data_layer.cpp:41] output data size: 24,3,224,224
I0403 18:17:30.575673 21975 net.cpp:141] Setting up data
I0403 18:17:30.575752 21975 net.cpp:148] Top shape: 24 3 224 224 (3612672)
I0403 18:17:30.575773 21975 net.cpp:148] Top shape: 24 (24)
I0403 18:17:30.575788 21975 net.cpp:156] Memory required for data: 14450784
I0403 18:17:30.575815 21975 layer_factory.hpp:77] Creating layer label_data_1_split
I0403 18:17:30.575840 21975 net.cpp:91] Creating Layer label_data_1_split
I0403 18:17:30.575858 21975 net.cpp:425] label_data_1_split <- label
I0403 18:17:30.575889 21975 net.cpp:399] label_data_1_split -> label_data_1_split_0
I0403 18:17:30.575916 21975 net.cpp:399] label_data_1_split -> label_data_1_split_1
I0403 18:17:30.575937 21975 net.cpp:399] label_data_1_split -> label_data_1_split_2
I0403 18:17:30.575956 21975 net.cpp:399] label_data_1_split -> label_data_1_split_3
I0403 18:17:30.575975 21975 net.cpp:399] label_data_1_split -> label_data_1_split_4
I0403 18:17:30.575994 21975 net.cpp:399] label_data_1_split -> label_data_1_split_5
I0403 18:17:30.576011 21975 net.cpp:399] label_data_1_split -> label_data_1_split_6
I0403 18:17:30.576030 21975 net.cpp:399] label_data_1_split -> label_data_1_split_7
I0403 18:17:30.576048 21975 net.cpp:399] label_data_1_split -> label_data_1_split_8
I0403 18:17:30.576068 21975 net.cpp:399] label_data_1_split -> label_data_1_split_9
I0403 18:17:30.576180 21975 net.cpp:141] Setting up label_data_1_split
I0403 18:17:30.576203 21975 net.cpp:148] Top shape: 24 (24)
I0403 18:17:30.576218 21975 net.cpp:148] Top shape: 24 (24)
I0403 18:17:30.576234 21975 net.cpp:148] Top shape: 24 (24)
I0403 18:17:30.576248 21975 net.cpp:148] Top shape: 24 (24)
I0403 18:17:30.576263 21975 net.cpp:148] Top shape: 24 (24)
I0403 18:17:30.576277 21975 net.cpp:148] Top shape: 24 (24)
I0403 18:17:30.576293 21975 net.cpp:148] Top shape: 24 (24)
I0403 18:17:30.576306 21975 net.cpp:148] Top shape: 24 (24)
I0403 18:17:30.576320 21975 net.cpp:148] Top shape: 24 (24)
I0403 18:17:30.576335 21975 net.cpp:148] Top shape: 24 (24)
I0403 18:17:30.576373 21975 net.cpp:156] Memory required for data: 14451744
I0403 18:17:30.576390 21975 layer_factory.hpp:77] Creating layer conv1/7x7_s2
I0403 18:17:30.576418 21975 net.cpp:91] Creating Layer conv1/7x7_s2
I0403 18:17:30.576436 21975 net.cpp:425] conv1/7x7_s2 <- data
I0403 18:17:30.576453 21975 net.cpp:399] conv1/7x7_s2 -> conv1/7x7_s2
I0403 18:17:30.709801 21975 net.cpp:141] Setting up conv1/7x7_s2
I0403 18:17:30.709877 21975 net.cpp:148] Top shape: 24 64 112 112 (19267584)
I0403 18:17:30.709893 21975 net.cpp:156] Memory required for data: 91522080
I0403 18:17:30.709923 21975 layer_factory.hpp:77] Creating layer conv1/relu_7x7
I0403 18:17:30.709949 21975 net.cpp:91] Creating Layer conv1/relu_7x7
I0403 18:17:30.709969 21975 net.cpp:425] conv1/relu_7x7 <- conv1/7x7_s2
I0403 18:17:30.709986 21975 net.cpp:386] conv1/relu_7x7 -> conv1/7x7_s2 (in-place)
I0403 18:17:30.710232 21975 net.cpp:141] Setting up conv1/relu_7x7
I0403 18:17:30.710258 21975 net.cpp:148] Top shape: 24 64 112 112 (19267584)
I0403 18:17:30.710273 21975 net.cpp:156] Memory required for data: 168592416
I0403 18:17:30.710286 21975 layer_factory.hpp:77] Creating layer pool1/3x3_s2
I0403 18:17:30.710321 21975 net.cpp:91] Creating Layer pool1/3x3_s2
I0403 18:17:30.710340 21975 net.cpp:425] pool1/3x3_s2 <- conv1/7x7_s2
I0403 18:17:30.710356 21975 net.cpp:399] pool1/3x3_s2 -> pool1/3x3_s2
I0403 18:17:30.710427 21975 net.cpp:141] Setting up pool1/3x3_s2
I0403 18:17:30.710449 21975 net.cpp:148] Top shape: 24 64 56 56 (4816896)
I0403 18:17:30.710464 21975 net.cpp:156] Memory required for data: 187860000
I0403 18:17:30.710477 21975 layer_factory.hpp:77] Creating layer pool1/norm1
I0403 18:17:30.710500 21975 net.cpp:91] Creating Layer pool1/norm1
I0403 18:17:30.710516 21975 net.cpp:425] pool1/norm1 <- pool1/3x3_s2
I0403 18:17:30.710533 21975 net.cpp:399] pool1/norm1 -> pool1/norm1
I0403 18:17:30.710822 21975 net.cpp:141] Setting up pool1/norm1
I0403 18:17:30.710847 21975 net.cpp:148] Top shape: 24 64 56 56 (4816896)
I0403 18:17:30.710862 21975 net.cpp:156] Memory required for data: 207127584
I0403 18:17:30.710875 21975 layer_factory.hpp:77] Creating layer conv2/3x3_reduce
I0403 18:17:30.710899 21975 net.cpp:91] Creating Layer conv2/3x3_reduce
I0403 18:17:30.710914 21975 net.cpp:425] conv2/3x3_reduce <- pool1/norm1
I0403 18:17:30.710932 21975 net.cpp:399] conv2/3x3_reduce -> conv2/3x3_reduce
I0403 18:17:30.712221 21975 net.cpp:141] Setting up conv2/3x3_reduce
I0403 18:17:30.712252 21975 net.cpp:148] Top shape: 24 64 56 56 (4816896)
I0403 18:17:30.712268 21975 net.cpp:156] Memory required for data: 226395168
I0403 18:17:30.712287 21975 layer_factory.hpp:77] Creating layer conv2/relu_3x3_reduce
I0403 18:17:30.712306 21975 net.cpp:91] Creating Layer conv2/relu_3x3_reduce
I0403 18:17:30.712321 21975 net.cpp:425] conv2/relu_3x3_reduce <- conv2/3x3_reduce
I0403 18:17:30.712337 21975 net.cpp:386] conv2/relu_3x3_reduce -> conv2/3x3_reduce (in-place)
I0403 18:17:30.712597 21975 net.cpp:141] Setting up conv2/relu_3x3_reduce
I0403 18:17:30.712625 21975 net.cpp:148] Top shape: 24 64 56 56 (4816896)
I0403 18:17:30.712640 21975 net.cpp:156] Memory required for data: 245662752
I0403 18:17:30.712654 21975 layer_factory.hpp:77] Creating layer conv2/3x3
I0403 18:17:30.712677 21975 net.cpp:91] Creating Layer conv2/3x3
I0403 18:17:30.712692 21975 net.cpp:425] conv2/3x3 <- conv2/3x3_reduce
I0403 18:17:30.712712 21975 net.cpp:399] conv2/3x3 -> conv2/3x3
I0403 18:17:30.714912 21975 net.cpp:141] Setting up conv2/3x3
I0403 18:17:30.714943 21975 net.cpp:148] Top shape: 24 192 56 56 (14450688)
I0403 18:17:30.714959 21975 net.cpp:156] Memory required for data: 303465504
I0403 18:17:30.714979 21975 layer_factory.hpp:77] Creating layer conv2/relu_3x3
I0403 18:17:30.714998 21975 net.cpp:91] Creating Layer conv2/relu_3x3
I0403 18:17:30.715013 21975 net.cpp:425] conv2/relu_3x3 <- conv2/3x3
I0403 18:17:30.715030 21975 net.cpp:386] conv2/relu_3x3 -> conv2/3x3 (in-place)
I0403 18:17:30.715194 21975 net.cpp:141] Setting up conv2/relu_3x3
I0403 18:17:30.715219 21975 net.cpp:148] Top shape: 24 192 56 56 (14450688)
I0403 18:17:30.715272 21975 net.cpp:156] Memory required for data: 361268256
I0403 18:17:30.715287 21975 layer_factory.hpp:77] Creating layer conv2/norm2
I0403 18:17:30.715306 21975 net.cpp:91] Creating Layer conv2/norm2
I0403 18:17:30.715322 21975 net.cpp:425] conv2/norm2 <- conv2/3x3
I0403 18:17:30.715338 21975 net.cpp:399] conv2/norm2 -> conv2/norm2
I0403 18:17:30.715627 21975 net.cpp:141] Setting up conv2/norm2
I0403 18:17:30.715654 21975 net.cpp:148] Top shape: 24 192 56 56 (14450688)
I0403 18:17:30.715669 21975 net.cpp:156] Memory required for data: 419071008
I0403 18:17:30.715682 21975 layer_factory.hpp:77] Creating layer pool2/3x3_s2
I0403 18:17:30.715699 21975 net.cpp:91] Creating Layer pool2/3x3_s2
I0403 18:17:30.715713 21975 net.cpp:425] pool2/3x3_s2 <- conv2/norm2
I0403 18:17:30.715729 21975 net.cpp:399] pool2/3x3_s2 -> pool2/3x3_s2
I0403 18:17:30.715780 21975 net.cpp:141] Setting up pool2/3x3_s2
I0403 18:17:30.715802 21975 net.cpp:148] Top shape: 24 192 28 28 (3612672)
I0403 18:17:30.715816 21975 net.cpp:156] Memory required for data: 433521696
I0403 18:17:30.715829 21975 layer_factory.hpp:77] Creating layer pool2/3x3_s2_pool2/3x3_s2_0_split
I0403 18:17:30.715845 21975 net.cpp:91] Creating Layer pool2/3x3_s2_pool2/3x3_s2_0_split
I0403 18:17:30.715858 21975 net.cpp:425] pool2/3x3_s2_pool2/3x3_s2_0_split <- pool2/3x3_s2
I0403 18:17:30.715876 21975 net.cpp:399] pool2/3x3_s2_pool2/3x3_s2_0_split -> pool2/3x3_s2_pool2/3x3_s2_0_split_0
I0403 18:17:30.715895 21975 net.cpp:399] pool2/3x3_s2_pool2/3x3_s2_0_split -> pool2/3x3_s2_pool2/3x3_s2_0_split_1
I0403 18:17:30.715914 21975 net.cpp:399] pool2/3x3_s2_pool2/3x3_s2_0_split -> pool2/3x3_s2_pool2/3x3_s2_0_split_2
I0403 18:17:30.715934 21975 net.cpp:399] pool2/3x3_s2_pool2/3x3_s2_0_split -> pool2/3x3_s2_pool2/3x3_s2_0_split_3
I0403 18:17:30.716001 21975 net.cpp:141] Setting up pool2/3x3_s2_pool2/3x3_s2_0_split
I0403 18:17:30.716022 21975 net.cpp:148] Top shape: 24 192 28 28 (3612672)
I0403 18:17:30.716037 21975 net.cpp:148] Top shape: 24 192 28 28 (3612672)
I0403 18:17:30.716053 21975 net.cpp:148] Top shape: 24 192 28 28 (3612672)
I0403 18:17:30.716066 21975 net.cpp:148] Top shape: 24 192 28 28 (3612672)
I0403 18:17:30.716078 21975 net.cpp:156] Memory required for data: 491324448
I0403 18:17:30.716092 21975 layer_factory.hpp:77] Creating layer inception_3a/1x1
I0403 18:17:30.716114 21975 net.cpp:91] Creating Layer inception_3a/1x1
I0403 18:17:30.716130 21975 net.cpp:425] inception_3a/1x1 <- pool2/3x3_s2_pool2/3x3_s2_0_split_0
I0403 18:17:30.716148 21975 net.cpp:399] inception_3a/1x1 -> inception_3a/1x1
I0403 18:17:30.717644 21975 net.cpp:141] Setting up inception_3a/1x1
I0403 18:17:30.717674 21975 net.cpp:148] Top shape: 24 64 28 28 (1204224)
I0403 18:17:30.717690 21975 net.cpp:156] Memory required for data: 496141344
I0403 18:17:30.717707 21975 layer_factory.hpp:77] Creating layer inception_3a/relu_1x1
I0403 18:17:30.717725 21975 net.cpp:91] Creating Layer inception_3a/relu_1x1
I0403 18:17:30.717738 21975 net.cpp:425] inception_3a/relu_1x1 <- inception_3a/1x1
I0403 18:17:30.717759 21975 net.cpp:386] inception_3a/relu_1x1 -> inception_3a/1x1 (in-place)
I0403 18:17:30.717923 21975 net.cpp:141] Setting up inception_3a/relu_1x1
I0403 18:17:30.717946 21975 net.cpp:148] Top shape: 24 64 28 28 (1204224)
I0403 18:17:30.717959 21975 net.cpp:156] Memory required for data: 500958240
I0403 18:17:30.717973 21975 layer_factory.hpp:77] Creating layer inception_3a/3x3_reduce
I0403 18:17:30.717993 21975 net.cpp:91] Creating Layer inception_3a/3x3_reduce
I0403 18:17:30.718010 21975 net.cpp:425] inception_3a/3x3_reduce <- pool2/3x3_s2_pool2/3x3_s2_0_split_1
I0403 18:17:30.718029 21975 net.cpp:399] inception_3a/3x3_reduce -> inception_3a/3x3_reduce
I0403 18:17:30.719650 21975 net.cpp:141] Setting up inception_3a/3x3_reduce
I0403 18:17:30.719679 21975 net.cpp:148] Top shape: 24 96 28 28 (1806336)
I0403 18:17:30.719696 21975 net.cpp:156] Memory required for data: 508183584
I0403 18:17:30.719715 21975 layer_factory.hpp:77] Creating layer inception_3a/relu_3x3_reduce
I0403 18:17:30.719748 21975 net.cpp:91] Creating Layer inception_3a/relu_3x3_reduce
I0403 18:17:30.719764 21975 net.cpp:425] inception_3a/relu_3x3_reduce <- inception_3a/3x3_reduce
I0403 18:17:30.719784 21975 net.cpp:386] inception_3a/relu_3x3_reduce -> inception_3a/3x3_reduce (in-place)
I0403 18:17:30.719952 21975 net.cpp:141] Setting up inception_3a/relu_3x3_reduce
I0403 18:17:30.719976 21975 net.cpp:148] Top shape: 24 96 28 28 (1806336)
I0403 18:17:30.719997 21975 net.cpp:156] Memory required for data: 515408928
I0403 18:17:30.720011 21975 layer_factory.hpp:77] Creating layer inception_3a/3x3
I0403 18:17:30.720029 21975 net.cpp:91] Creating Layer inception_3a/3x3
I0403 18:17:30.720044 21975 net.cpp:425] inception_3a/3x3 <- inception_3a/3x3_reduce
I0403 18:17:30.720064 21975 net.cpp:399] inception_3a/3x3 -> inception_3a/3x3
I0403 18:17:30.721604 21975 net.cpp:141] Setting up inception_3a/3x3
I0403 18:17:30.721633 21975 net.cpp:148] Top shape: 24 128 28 28 (2408448)
I0403 18:17:30.721649 21975 net.cpp:156] Memory required for data: 525042720
I0403 18:17:30.721667 21975 layer_factory.hpp:77] Creating layer inception_3a/relu_3x3
I0403 18:17:30.721683 21975 net.cpp:91] Creating Layer inception_3a/relu_3x3
I0403 18:17:30.721698 21975 net.cpp:425] inception_3a/relu_3x3 <- inception_3a/3x3
I0403 18:17:30.721716 21975 net.cpp:386] inception_3a/relu_3x3 -> inception_3a/3x3 (in-place)
I0403 18:17:30.721976 21975 net.cpp:141] Setting up inception_3a/relu_3x3
I0403 18:17:30.722002 21975 net.cpp:148] Top shape: 24 128 28 28 (2408448)
I0403 18:17:30.722017 21975 net.cpp:156] Memory required for data: 534676512
I0403 18:17:30.722031 21975 layer_factory.hpp:77] Creating layer inception_3a/5x5_reduce
I0403 18:17:30.722051 21975 net.cpp:91] Creating Layer inception_3a/5x5_reduce
I0403 18:17:30.722067 21975 net.cpp:425] inception_3a/5x5_reduce <- pool2/3x3_s2_pool2/3x3_s2_0_split_2
I0403 18:17:30.722085 21975 net.cpp:399] inception_3a/5x5_reduce -> inception_3a/5x5_reduce
I0403 18:17:30.723014 21975 net.cpp:141] Setting up inception_3a/5x5_reduce
I0403 18:17:30.723042 21975 net.cpp:148] Top shape: 24 16 28 28 (301056)
I0403 18:17:30.723055 21975 net.cpp:156] Memory required for data: 535880736
I0403 18:17:30.723073 21975 layer_factory.hpp:77] Creating layer inception_3a/relu_5x5_reduce
I0403 18:17:30.723089 21975 net.cpp:91] Creating Layer inception_3a/relu_5x5_reduce
I0403 18:17:30.723109 21975 net.cpp:425] inception_3a/relu_5x5_reduce <- inception_3a/5x5_reduce
I0403 18:17:30.723124 21975 net.cpp:386] inception_3a/relu_5x5_reduce -> inception_3a/5x5_reduce (in-place)
I0403 18:17:30.723397 21975 net.cpp:141] Setting up inception_3a/relu_5x5_reduce
I0403 18:17:30.723422 21975 net.cpp:148] Top shape: 24 16 28 28 (301056)
I0403 18:17:30.723435 21975 net.cpp:156] Memory required for data: 537084960
I0403 18:17:30.723448 21975 layer_factory.hpp:77] Creating layer inception_3a/5x5
I0403 18:17:30.723474 21975 net.cpp:91] Creating Layer inception_3a/5x5
I0403 18:17:30.723490 21975 net.cpp:425] inception_3a/5x5 <- inception_3a/5x5_reduce
I0403 18:17:30.723510 21975 net.cpp:399] inception_3a/5x5 -> inception_3a/5x5
I0403 18:17:30.724462 21975 net.cpp:141] Setting up inception_3a/5x5
I0403 18:17:30.724491 21975 net.cpp:148] Top shape: 24 32 28 28 (602112)
I0403 18:17:30.724506 21975 net.cpp:156] Memory required for data: 539493408
I0403 18:17:30.724524 21975 layer_factory.hpp:77] Creating layer inception_3a/relu_5x5
I0403 18:17:30.724550 21975 net.cpp:91] Creating Layer inception_3a/relu_5x5
I0403 18:17:30.724570 21975 net.cpp:425] inception_3a/relu_5x5 <- inception_3a/5x5
I0403 18:17:30.724588 21975 net.cpp:386] inception_3a/relu_5x5 -> inception_3a/5x5 (in-place)
I0403 18:17:30.724751 21975 net.cpp:141] Setting up inception_3a/relu_5x5
I0403 18:17:30.724774 21975 net.cpp:148] Top shape: 24 32 28 28 (602112)
I0403 18:17:30.724798 21975 net.cpp:156] Memory required for data: 541901856
I0403 18:17:30.724812 21975 layer_factory.hpp:77] Creating layer inception_3a/pool
I0403 18:17:30.724828 21975 net.cpp:91] Creating Layer inception_3a/pool
I0403 18:17:30.724856 21975 net.cpp:425] inception_3a/pool <- pool2/3x3_s2_pool2/3x3_s2_0_split_3
I0403 18:17:30.724875 21975 net.cpp:399] inception_3a/pool -> inception_3a/pool
I0403 18:17:30.724930 21975 net.cpp:141] Setting up inception_3a/pool
I0403 18:17:30.724951 21975 net.cpp:148] Top shape: 24 192 28 28 (3612672)
I0403 18:17:30.724964 21975 net.cpp:156] Memory required for data: 556352544
I0403 18:17:30.724977 21975 layer_factory.hpp:77] Creating layer inception_3a/pool_proj
I0403 18:17:30.725000 21975 net.cpp:91] Creating Layer inception_3a/pool_proj
I0403 18:17:30.725021 21975 net.cpp:425] inception_3a/pool_proj <- inception_3a/pool
I0403 18:17:30.725039 21975 net.cpp:399] inception_3a/pool_proj -> inception_3a/pool_proj
I0403 18:17:30.725955 21975 net.cpp:141] Setting up inception_3a/pool_proj
I0403 18:17:30.725982 21975 net.cpp:148] Top shape: 24 32 28 28 (602112)
I0403 18:17:30.725997 21975 net.cpp:156] Memory required for data: 558760992
I0403 18:17:30.726019 21975 layer_factory.hpp:77] Creating layer inception_3a/relu_pool_proj
I0403 18:17:30.726040 21975 net.cpp:91] Creating Layer inception_3a/relu_pool_proj
I0403 18:17:30.726057 21975 net.cpp:425] inception_3a/relu_pool_proj <- inception_3a/pool_proj
I0403 18:17:30.726073 21975 net.cpp:386] inception_3a/relu_pool_proj -> inception_3a/pool_proj (in-place)
I0403 18:17:30.726347 21975 net.cpp:141] Setting up inception_3a/relu_pool_proj
I0403 18:17:30.726378 21975 net.cpp:148] Top shape: 24 32 28 28 (602112)
I0403 18:17:30.726394 21975 net.cpp:156] Memory required for data: 561169440
I0403 18:17:30.726408 21975 layer_factory.hpp:77] Creating layer inception_3a/output
I0403 18:17:30.726425 21975 net.cpp:91] Creating Layer inception_3a/output
I0403 18:17:30.726439 21975 net.cpp:425] inception_3a/output <- inception_3a/1x1
I0403 18:17:30.726454 21975 net.cpp:425] inception_3a/output <- inception_3a/3x3
I0403 18:17:30.726470 21975 net.cpp:425] inception_3a/output <- inception_3a/5x5
I0403 18:17:30.726485 21975 net.cpp:425] inception_3a/output <- inception_3a/pool_proj
I0403 18:17:30.726503 21975 net.cpp:399] inception_3a/output -> inception_3a/output
I0403 18:17:30.726552 21975 net.cpp:141] Setting up inception_3a/output
I0403 18:17:30.726574 21975 net.cpp:148] Top shape: 24 256 28 28 (4816896)
I0403 18:17:30.726599 21975 net.cpp:156] Memory required for data: 580437024
I0403 18:17:30.726613 21975 layer_factory.hpp:77] Creating layer inception_3a/output_inception_3a/output_0_split
I0403 18:17:30.726630 21975 net.cpp:91] Creating Layer inception_3a/output_inception_3a/output_0_split
I0403 18:17:30.726645 21975 net.cpp:425] inception_3a/output_inception_3a/output_0_split <- inception_3a/output
I0403 18:17:30.726661 21975 net.cpp:399] inception_3a/output_inception_3a/output_0_split -> inception_3a/output_inception_3a/output_0_split_0
I0403 18:17:30.726680 21975 net.cpp:399] inception_3a/output_inception_3a/output_0_split -> inception_3a/output_inception_3a/output_0_split_1
I0403 18:17:30.726703 21975 net.cpp:399] inception_3a/output_inception_3a/output_0_split -> inception_3a/output_inception_3a/output_0_split_2
I0403 18:17:30.726723 21975 net.cpp:399] inception_3a/output_inception_3a/output_0_split -> inception_3a/output_inception_3a/output_0_split_3
I0403 18:17:30.726791 21975 net.cpp:141] Setting up inception_3a/output_inception_3a/output_0_split
I0403 18:17:30.726815 21975 net.cpp:148] Top shape: 24 256 28 28 (4816896)
I0403 18:17:30.726831 21975 net.cpp:148] Top shape: 24 256 28 28 (4816896)
I0403 18:17:30.726846 21975 net.cpp:148] Top shape: 24 256 28 28 (4816896)
I0403 18:17:30.726861 21975 net.cpp:148] Top shape: 24 256 28 28 (4816896)
I0403 18:17:30.726872 21975 net.cpp:156] Memory required for data: 657507360
I0403 18:17:30.726886 21975 layer_factory.hpp:77] Creating layer inception_3b/1x1
I0403 18:17:30.726907 21975 net.cpp:91] Creating Layer inception_3b/1x1
I0403 18:17:30.726923 21975 net.cpp:425] inception_3b/1x1 <- inception_3a/output_inception_3a/output_0_split_0
I0403 18:17:30.726940 21975 net.cpp:399] inception_3b/1x1 -> inception_3b/1x1
I0403 18:17:30.728020 21975 net.cpp:141] Setting up inception_3b/1x1
I0403 18:17:30.728060 21975 net.cpp:148] Top shape: 24 128 28 28 (2408448)
I0403 18:17:30.728076 21975 net.cpp:156] Memory required for data: 667141152
I0403 18:17:30.728094 21975 layer_factory.hpp:77] Creating layer inception_3b/relu_1x1
I0403 18:17:30.728111 21975 net.cpp:91] Creating Layer inception_3b/relu_1x1
I0403 18:17:30.728127 21975 net.cpp:425] inception_3b/relu_1x1 <- inception_3b/1x1
I0403 18:17:30.728142 21975 net.cpp:386] inception_3b/relu_1x1 -> inception_3b/1x1 (in-place)
I0403 18:17:30.728309 21975 net.cpp:141] Setting up inception_3b/relu_1x1
I0403 18:17:30.728334 21975 net.cpp:148] Top shape: 24 128 28 28 (2408448)
I0403 18:17:30.728349 21975 net.cpp:156] Memory required for data: 676774944
I0403 18:17:30.728363 21975 layer_factory.hpp:77] Creating layer inception_3b/3x3_reduce
I0403 18:17:30.728384 21975 net.cpp:91] Creating Layer inception_3b/3x3_reduce
I0403 18:17:30.728399 21975 net.cpp:425] inception_3b/3x3_reduce <- inception_3a/output_inception_3a/output_0_split_1
I0403 18:17:30.728418 21975 net.cpp:399] inception_3b/3x3_reduce -> inception_3b/3x3_reduce
I0403 18:17:30.729490 21975 net.cpp:141] Setting up inception_3b/3x3_reduce
I0403 18:17:30.729516 21975 net.cpp:148] Top shape: 24 128 28 28 (2408448)
I0403 18:17:30.729531 21975 net.cpp:156] Memory required for data: 686408736
I0403 18:17:30.729552 21975 layer_factory.hpp:77] Creating layer inception_3b/relu_3x3_reduce
I0403 18:17:30.729573 21975 net.cpp:91] Creating Layer inception_3b/relu_3x3_reduce
I0403 18:17:30.729589 21975 net.cpp:425] inception_3b/relu_3x3_reduce <- inception_3b/3x3_reduce
I0403 18:17:30.729604 21975 net.cpp:386] inception_3b/relu_3x3_reduce -> inception_3b/3x3_reduce (in-place)
I0403 18:17:30.729771 21975 net.cpp:141] Setting up inception_3b/relu_3x3_reduce
I0403 18:17:30.729795 21975 net.cpp:148] Top shape: 24 128 28 28 (2408448)
I0403 18:17:30.729809 21975 net.cpp:156] Memory required for data: 696042528
I0403 18:17:30.729822 21975 layer_factory.hpp:77] Creating layer inception_3b/3x3
I0403 18:17:30.729846 21975 net.cpp:91] Creating Layer inception_3b/3x3
I0403 18:17:30.729862 21975 net.cpp:425] inception_3b/3x3 <- inception_3b/3x3_reduce
I0403 18:17:30.729882 21975 net.cpp:399] inception_3b/3x3 -> inception_3b/3x3
I0403 18:17:30.732648 21975 net.cpp:141] Setting up inception_3b/3x3
I0403 18:17:30.732677 21975 net.cpp:148] Top shape: 24 192 28 28 (3612672)
I0403 18:17:30.732693 21975 net.cpp:156] Memory required for data: 710493216
I0403 18:17:30.732710 21975 layer_factory.hpp:77] Creating layer inception_3b/relu_3x3
I0403 18:17:30.732728 21975 net.cpp:91] Creating Layer inception_3b/relu_3x3
I0403 18:17:30.732743 21975 net.cpp:425] inception_3b/relu_3x3 <- inception_3b/3x3
I0403 18:17:30.732760 21975 net.cpp:386] inception_3b/relu_3x3 -> inception_3b/3x3 (in-place)
I0403 18:17:30.733019 21975 net.cpp:141] Setting up inception_3b/relu_3x3
I0403 18:17:30.733047 21975 net.cpp:148] Top shape: 24 192 28 28 (3612672)
I0403 18:17:30.733060 21975 net.cpp:156] Memory required for data: 724943904
I0403 18:17:30.733074 21975 layer_factory.hpp:77] Creating layer inception_3b/5x5_reduce
I0403 18:17:30.733095 21975 net.cpp:91] Creating Layer inception_3b/5x5_reduce
I0403 18:17:30.733111 21975 net.cpp:425] inception_3b/5x5_reduce <- inception_3a/output_inception_3a/output_0_split_2
I0403 18:17:30.733129 21975 net.cpp:399] inception_3b/5x5_reduce -> inception_3b/5x5_reduce
I0403 18:17:30.734064 21975 net.cpp:141] Setting up inception_3b/5x5_reduce
I0403 18:17:30.734092 21975 net.cpp:148] Top shape: 24 32 28 28 (602112)
I0403 18:17:30.734108 21975 net.cpp:156] Memory required for data: 727352352
I0403 18:17:30.734124 21975 layer_factory.hpp:77] Creating layer inception_3b/relu_5x5_reduce
I0403 18:17:30.734141 21975 net.cpp:91] Creating Layer inception_3b/relu_5x5_reduce
I0403 18:17:30.734156 21975 net.cpp:425] inception_3b/relu_5x5_reduce <- inception_3b/5x5_reduce
I0403 18:17:30.734175 21975 net.cpp:386] inception_3b/relu_5x5_reduce -> inception_3b/5x5_reduce (in-place)
I0403 18:17:30.734375 21975 net.cpp:141] Setting up inception_3b/relu_5x5_reduce
I0403 18:17:30.734398 21975 net.cpp:148] Top shape: 24 32 28 28 (602112)
I0403 18:17:30.734412 21975 net.cpp:156] Memory required for data: 729760800
I0403 18:17:30.734426 21975 layer_factory.hpp:77] Creating layer inception_3b/5x5
I0403 18:17:30.734447 21975 net.cpp:91] Creating Layer inception_3b/5x5
I0403 18:17:30.734463 21975 net.cpp:425] inception_3b/5x5 <- inception_3b/5x5_reduce
I0403 18:17:30.734483 21975 net.cpp:399] inception_3b/5x5 -> inception_3b/5x5
I0403 18:17:30.736402 21975 net.cpp:141] Setting up inception_3b/5x5
I0403 18:17:30.736429 21975 net.cpp:148] Top shape: 24 96 28 28 (1806336)
I0403 18:17:30.736444 21975 net.cpp:156] Memory required for data: 736986144
I0403 18:17:30.736460 21975 layer_factory.hpp:77] Creating layer inception_3b/relu_5x5
I0403 18:17:30.736479 21975 net.cpp:91] Creating Layer inception_3b/relu_5x5
I0403 18:17:30.736496 21975 net.cpp:425] inception_3b/relu_5x5 <- inception_3b/5x5
I0403 18:17:30.736511 21975 net.cpp:386] inception_3b/relu_5x5 -> inception_3b/5x5 (in-place)
I0403 18:17:30.736697 21975 net.cpp:141] Setting up inception_3b/relu_5x5
I0403 18:17:30.736721 21975 net.cpp:148] Top shape: 24 96 28 28 (1806336)
I0403 18:17:30.736734 21975 net.cpp:156] Memory required for data: 744211488
I0403 18:17:30.736748 21975 layer_factory.hpp:77] Creating layer inception_3b/pool
I0403 18:17:30.736764 21975 net.cpp:91] Creating Layer inception_3b/pool
I0403 18:17:30.736779 21975 net.cpp:425] inception_3b/pool <- inception_3a/output_inception_3a/output_0_split_3
I0403 18:17:30.736795 21975 net.cpp:399] inception_3b/pool -> inception_3b/pool
I0403 18:17:30.736847 21975 net.cpp:141] Setting up inception_3b/pool
I0403 18:17:30.736870 21975 net.cpp:148] Top shape: 24 256 28 28 (4816896)
I0403 18:17:30.736882 21975 net.cpp:156] Memory required for data: 763479072
I0403 18:17:30.736896 21975 layer_factory.hpp:77] Creating layer inception_3b/pool_proj
I0403 18:17:30.736917 21975 net.cpp:91] Creating Layer inception_3b/pool_proj
I0403 18:17:30.736934 21975 net.cpp:425] inception_3b/pool_proj <- inception_3b/pool
I0403 18:17:30.736950 21975 net.cpp:399] inception_3b/pool_proj -> inception_3b/pool_proj
I0403 18:17:30.737941 21975 net.cpp:141] Setting up inception_3b/pool_proj
I0403 18:17:30.737967 21975 net.cpp:148] Top shape: 24 64 28 28 (1204224)
I0403 18:17:30.737980 21975 net.cpp:156] Memory required for data: 768295968
I0403 18:17:30.737998 21975 layer_factory.hpp:77] Creating layer inception_3b/relu_pool_proj
I0403 18:17:30.738018 21975 net.cpp:91] Creating Layer inception_3b/relu_pool_proj
I0403 18:17:30.738034 21975 net.cpp:425] inception_3b/relu_pool_proj <- inception_3b/pool_proj
I0403 18:17:30.738049 21975 net.cpp:386] inception_3b/relu_pool_proj -> inception_3b/pool_proj (in-place)
I0403 18:17:30.738432 21975 net.cpp:141] Setting up inception_3b/relu_pool_proj
I0403 18:17:30.738457 21975 net.cpp:148] Top shape: 24 64 28 28 (1204224)
I0403 18:17:30.738472 21975 net.cpp:156] Memory required for data: 773112864
I0403 18:17:30.738487 21975 layer_factory.hpp:77] Creating layer inception_3b/output
I0403 18:17:30.738502 21975 net.cpp:91] Creating Layer inception_3b/output
I0403 18:17:30.738517 21975 net.cpp:425] inception_3b/output <- inception_3b/1x1
I0403 18:17:30.738533 21975 net.cpp:425] inception_3b/output <- inception_3b/3x3
I0403 18:17:30.738553 21975 net.cpp:425] inception_3b/output <- inception_3b/5x5
I0403 18:17:30.738569 21975 net.cpp:425] inception_3b/output <- inception_3b/pool_proj
I0403 18:17:30.738600 21975 net.cpp:399] inception_3b/output -> inception_3b/output
I0403 18:17:30.738641 21975 net.cpp:141] Setting up inception_3b/output
I0403 18:17:30.738663 21975 net.cpp:148] Top shape: 24 480 28 28 (9031680)
I0403 18:17:30.738678 21975 net.cpp:156] Memory required for data: 809239584
I0403 18:17:30.738692 21975 layer_factory.hpp:77] Creating layer pool3/3x3_s2
I0403 18:17:30.738708 21975 net.cpp:91] Creating Layer pool3/3x3_s2
I0403 18:17:30.738721 21975 net.cpp:425] pool3/3x3_s2 <- inception_3b/output
I0403 18:17:30.738754 21975 net.cpp:399] pool3/3x3_s2 -> pool3/3x3_s2
I0403 18:17:30.738808 21975 net.cpp:141] Setting up pool3/3x3_s2
I0403 18:17:30.738831 21975 net.cpp:148] Top shape: 24 480 14 14 (2257920)
I0403 18:17:30.738844 21975 net.cpp:156] Memory required for data: 818271264
I0403 18:17:30.738857 21975 layer_factory.hpp:77] Creating layer pool3/3x3_s2_pool3/3x3_s2_0_split
I0403 18:17:30.738874 21975 net.cpp:91] Creating Layer pool3/3x3_s2_pool3/3x3_s2_0_split
I0403 18:17:30.738889 21975 net.cpp:425] pool3/3x3_s2_pool3/3x3_s2_0_split <- pool3/3x3_s2
I0403 18:17:30.738905 21975 net.cpp:399] pool3/3x3_s2_pool3/3x3_s2_0_split -> pool3/3x3_s2_pool3/3x3_s2_0_split_0
I0403 18:17:30.738924 21975 net.cpp:399] pool3/3x3_s2_pool3/3x3_s2_0_split -> pool3/3x3_s2_pool3/3x3_s2_0_split_1
I0403 18:17:30.738941 21975 net.cpp:399] pool3/3x3_s2_pool3/3x3_s2_0_split -> pool3/3x3_s2_pool3/3x3_s2_0_split_2
I0403 18:17:30.738962 21975 net.cpp:399] pool3/3x3_s2_pool3/3x3_s2_0_split -> pool3/3x3_s2_pool3/3x3_s2_0_split_3
I0403 18:17:30.739035 21975 net.cpp:141] Setting up pool3/3x3_s2_pool3/3x3_s2_0_split
I0403 18:17:30.739056 21975 net.cpp:148] Top shape: 24 480 14 14 (2257920)
I0403 18:17:30.739071 21975 net.cpp:148] Top shape: 24 480 14 14 (2257920)
I0403 18:17:30.739085 21975 net.cpp:148] Top shape: 24 480 14 14 (2257920)
I0403 18:17:30.739099 21975 net.cpp:148] Top shape: 24 480 14 14 (2257920)
I0403 18:17:30.739111 21975 net.cpp:156] Memory required for data: 854397984
I0403 18:17:30.739125 21975 layer_factory.hpp:77] Creating layer inception_4a/1x1
I0403 18:17:30.739145 21975 net.cpp:91] Creating Layer inception_4a/1x1
I0403 18:17:30.739161 21975 net.cpp:425] inception_4a/1x1 <- pool3/3x3_s2_pool3/3x3_s2_0_split_0
I0403 18:17:30.739182 21975 net.cpp:399] inception_4a/1x1 -> inception_4a/1x1
I0403 18:17:30.740666 21975 net.cpp:141] Setting up inception_4a/1x1
I0403 18:17:30.740692 21975 net.cpp:148] Top shape: 24 192 14 14 (903168)
I0403 18:17:30.740708 21975 net.cpp:156] Memory required for data: 858010656
I0403 18:17:30.740725 21975 layer_factory.hpp:77] Creating layer inception_4a/relu_1x1
I0403 18:17:30.740744 21975 net.cpp:91] Creating Layer inception_4a/relu_1x1
I0403 18:17:30.740759 21975 net.cpp:425] inception_4a/relu_1x1 <- inception_4a/1x1
I0403 18:17:30.740777 21975 net.cpp:386] inception_4a/relu_1x1 -> inception_4a/1x1 (in-place)
I0403 18:17:30.740942 21975 net.cpp:141] Setting up inception_4a/relu_1x1
I0403 18:17:30.740967 21975 net.cpp:148] Top shape: 24 192 14 14 (903168)
I0403 18:17:30.740983 21975 net.cpp:156] Memory required for data: 861623328
I0403 18:17:30.740996 21975 layer_factory.hpp:77] Creating layer inception_4a/3x3_reduce
I0403 18:17:30.741016 21975 net.cpp:91] Creating Layer inception_4a/3x3_reduce
I0403 18:17:30.741034 21975 net.cpp:425] inception_4a/3x3_reduce <- pool3/3x3_s2_pool3/3x3_s2_0_split_1
I0403 18:17:30.741050 21975 net.cpp:399] inception_4a/3x3_reduce -> inception_4a/3x3_reduce
I0403 18:17:30.742254 21975 net.cpp:141] Setting up inception_4a/3x3_reduce
I0403 18:17:30.742281 21975 net.cpp:148] Top shape: 24 96 14 14 (451584)
I0403 18:17:30.742296 21975 net.cpp:156] Memory required for data: 863429664
I0403 18:17:30.742334 21975 layer_factory.hpp:77] Creating layer inception_4a/relu_3x3_reduce
I0403 18:17:30.742353 21975 net.cpp:91] Creating Layer inception_4a/relu_3x3_reduce
I0403 18:17:30.742370 21975 net.cpp:425] inception_4a/relu_3x3_reduce <- inception_4a/3x3_reduce
I0403 18:17:30.742389 21975 net.cpp:386] inception_4a/relu_3x3_reduce -> inception_4a/3x3_reduce (in-place)
I0403 18:17:30.742581 21975 net.cpp:141] Setting up inception_4a/relu_3x3_reduce
I0403 18:17:30.742619 21975 net.cpp:148] Top shape: 24 96 14 14 (451584)
I0403 18:17:30.742635 21975 net.cpp:156] Memory required for data: 865236000
I0403 18:17:30.742648 21975 layer_factory.hpp:77] Creating layer inception_4a/3x3
I0403 18:17:30.742666 21975 net.cpp:91] Creating Layer inception_4a/3x3
I0403 18:17:30.742682 21975 net.cpp:425] inception_4a/3x3 <- inception_4a/3x3_reduce
I0403 18:17:30.742702 21975 net.cpp:399] inception_4a/3x3 -> inception_4a/3x3
I0403 18:17:30.745237 21975 net.cpp:141] Setting up inception_4a/3x3
I0403 18:17:30.745265 21975 net.cpp:148] Top shape: 24 208 14 14 (978432)
I0403 18:17:30.745280 21975 net.cpp:156] Memory required for data: 869149728
I0403 18:17:30.745297 21975 layer_factory.hpp:77] Creating layer inception_4a/relu_3x3
I0403 18:17:30.745316 21975 net.cpp:91] Creating Layer inception_4a/relu_3x3
I0403 18:17:30.745332 21975 net.cpp:425] inception_4a/relu_3x3 <- inception_4a/3x3
I0403 18:17:30.745348 21975 net.cpp:386] inception_4a/relu_3x3 -> inception_4a/3x3 (in-place)
I0403 18:17:30.745618 21975 net.cpp:141] Setting up inception_4a/relu_3x3
I0403 18:17:30.745642 21975 net.cpp:148] Top shape: 24 208 14 14 (978432)
I0403 18:17:30.745656 21975 net.cpp:156] Memory required for data: 873063456
I0403 18:17:30.745671 21975 layer_factory.hpp:77] Creating layer inception_4a/5x5_reduce
I0403 18:17:30.745693 21975 net.cpp:91] Creating Layer inception_4a/5x5_reduce
I0403 18:17:30.745712 21975 net.cpp:425] inception_4a/5x5_reduce <- pool3/3x3_s2_pool3/3x3_s2_0_split_2
I0403 18:17:30.745729 21975 net.cpp:399] inception_4a/5x5_reduce -> inception_4a/5x5_reduce
I0403 18:17:30.746721 21975 net.cpp:141] Setting up inception_4a/5x5_reduce
I0403 18:17:30.746749 21975 net.cpp:148] Top shape: 24 16 14 14 (75264)
I0403 18:17:30.746764 21975 net.cpp:156] Memory required for data: 873364512
I0403 18:17:30.746783 21975 layer_factory.hpp:77] Creating layer inception_4a/relu_5x5_reduce
I0403 18:17:30.746798 21975 net.cpp:91] Creating Layer inception_4a/relu_5x5_reduce
I0403 18:17:30.746814 21975 net.cpp:425] inception_4a/relu_5x5_reduce <- inception_4a/5x5_reduce
I0403 18:17:30.746832 21975 net.cpp:386] inception_4a/relu_5x5_reduce -> inception_4a/5x5_reduce (in-place)
I0403 18:17:30.747001 21975 net.cpp:141] Setting up inception_4a/relu_5x5_reduce
I0403 18:17:30.747025 21975 net.cpp:148] Top shape: 24 16 14 14 (75264)
I0403 18:17:30.747038 21975 net.cpp:156] Memory required for data: 873665568
I0403 18:17:30.747052 21975 layer_factory.hpp:77] Creating layer inception_4a/5x5
I0403 18:17:30.747072 21975 net.cpp:91] Creating Layer inception_4a/5x5
I0403 18:17:30.747088 21975 net.cpp:425] inception_4a/5x5 <- inception_4a/5x5_reduce
I0403 18:17:30.747108 21975 net.cpp:399] inception_4a/5x5 -> inception_4a/5x5
I0403 18:17:30.748174 21975 net.cpp:141] Setting up inception_4a/5x5
I0403 18:17:30.748200 21975 net.cpp:148] Top shape: 24 48 14 14 (225792)
I0403 18:17:30.748215 21975 net.cpp:156] Memory required for data: 874568736
I0403 18:17:30.748232 21975 layer_factory.hpp:77] Creating layer inception_4a/relu_5x5
I0403 18:17:30.748252 21975 net.cpp:91] Creating Layer inception_4a/relu_5x5
I0403 18:17:30.748267 21975 net.cpp:425] inception_4a/relu_5x5 <- inception_4a/5x5
I0403 18:17:30.748283 21975 net.cpp:386] inception_4a/relu_5x5 -> inception_4a/5x5 (in-place)
I0403 18:17:30.748448 21975 net.cpp:141] Setting up inception_4a/relu_5x5
I0403 18:17:30.748471 21975 net.cpp:148] Top shape: 24 48 14 14 (225792)
I0403 18:17:30.748486 21975 net.cpp:156] Memory required for data: 875471904
I0403 18:17:30.748499 21975 layer_factory.hpp:77] Creating layer inception_4a/pool
I0403 18:17:30.748518 21975 net.cpp:91] Creating Layer inception_4a/pool
I0403 18:17:30.748533 21975 net.cpp:425] inception_4a/pool <- pool3/3x3_s2_pool3/3x3_s2_0_split_3
I0403 18:17:30.748555 21975 net.cpp:399] inception_4a/pool -> inception_4a/pool
I0403 18:17:30.748615 21975 net.cpp:141] Setting up inception_4a/pool
I0403 18:17:30.748636 21975 net.cpp:148] Top shape: 24 480 14 14 (2257920)
I0403 18:17:30.748651 21975 net.cpp:156] Memory required for data: 884503584
I0403 18:17:30.748664 21975 layer_factory.hpp:77] Creating layer inception_4a/pool_proj
I0403 18:17:30.748684 21975 net.cpp:91] Creating Layer inception_4a/pool_proj
I0403 18:17:30.748700 21975 net.cpp:425] inception_4a/pool_proj <- inception_4a/pool
I0403 18:17:30.748719 21975 net.cpp:399] inception_4a/pool_proj -> inception_4a/pool_proj
I0403 18:17:30.749816 21975 net.cpp:141] Setting up inception_4a/pool_proj
I0403 18:17:30.749843 21975 net.cpp:148] Top shape: 24 64 14 14 (301056)
I0403 18:17:30.749872 21975 net.cpp:156] Memory required for data: 885707808
I0403 18:17:30.749891 21975 layer_factory.hpp:77] Creating layer inception_4a/relu_pool_proj
I0403 18:17:30.749912 21975 net.cpp:91] Creating Layer inception_4a/relu_pool_proj
I0403 18:17:30.749928 21975 net.cpp:425] inception_4a/relu_pool_proj <- inception_4a/pool_proj
I0403 18:17:30.749944 21975 net.cpp:386] inception_4a/relu_pool_proj -> inception_4a/pool_proj (in-place)
I0403 18:17:30.750212 21975 net.cpp:141] Setting up inception_4a/relu_pool_proj
I0403 18:17:30.750237 21975 net.cpp:148] Top shape: 24 64 14 14 (301056)
I0403 18:17:30.750252 21975 net.cpp:156] Memory required for data: 886912032
I0403 18:17:30.750267 21975 layer_factory.hpp:77] Creating layer inception_4a/output
I0403 18:17:30.750284 21975 net.cpp:91] Creating Layer inception_4a/output
I0403 18:17:30.750313 21975 net.cpp:425] inception_4a/output <- inception_4a/1x1
I0403 18:17:30.750329 21975 net.cpp:425] inception_4a/output <- inception_4a/3x3
I0403 18:17:30.750344 21975 net.cpp:425] inception_4a/output <- inception_4a/5x5
I0403 18:17:30.750358 21975 net.cpp:425] inception_4a/output <- inception_4a/pool_proj
I0403 18:17:30.750375 21975 net.cpp:399] inception_4a/output -> inception_4a/output
I0403 18:17:30.750418 21975 net.cpp:141] Setting up inception_4a/output
I0403 18:17:30.750442 21975 net.cpp:148] Top shape: 24 512 14 14 (2408448)
I0403 18:17:30.750455 21975 net.cpp:156] Memory required for data: 896545824
I0403 18:17:30.750468 21975 layer_factory.hpp:77] Creating layer inception_4a/output_inception_4a/output_0_split
I0403 18:17:30.750486 21975 net.cpp:91] Creating Layer inception_4a/output_inception_4a/output_0_split
I0403 18:17:30.750500 21975 net.cpp:425] inception_4a/output_inception_4a/output_0_split <- inception_4a/output
I0403 18:17:30.750519 21975 net.cpp:399] inception_4a/output_inception_4a/output_0_split -> inception_4a/output_inception_4a/output_0_split_0
I0403 18:17:30.750543 21975 net.cpp:399] inception_4a/output_inception_4a/output_0_split -> inception_4a/output_inception_4a/output_0_split_1
I0403 18:17:30.750566 21975 net.cpp:399] inception_4a/output_inception_4a/output_0_split -> inception_4a/output_inception_4a/output_0_split_2
I0403 18:17:30.750597 21975 net.cpp:399] inception_4a/output_inception_4a/output_0_split -> inception_4a/output_inception_4a/output_0_split_3
I0403 18:17:30.750617 21975 net.cpp:399] inception_4a/output_inception_4a/output_0_split -> inception_4a/output_inception_4a/output_0_split_4
I0403 18:17:30.750706 21975 net.cpp:141] Setting up inception_4a/output_inception_4a/output_0_split
I0403 18:17:30.750728 21975 net.cpp:148] Top shape: 24 512 14 14 (2408448)
I0403 18:17:30.750746 21975 net.cpp:148] Top shape: 24 512 14 14 (2408448)
I0403 18:17:30.750761 21975 net.cpp:148] Top shape: 24 512 14 14 (2408448)
I0403 18:17:30.750776 21975 net.cpp:148] Top shape: 24 512 14 14 (2408448)
I0403 18:17:30.750789 21975 net.cpp:148] Top shape: 24 512 14 14 (2408448)
I0403 18:17:30.750802 21975 net.cpp:156] Memory required for data: 944714784
I0403 18:17:30.750815 21975 layer_factory.hpp:77] Creating layer loss1/ave_pool
I0403 18:17:30.750833 21975 net.cpp:91] Creating Layer loss1/ave_pool
I0403 18:17:30.750846 21975 net.cpp:425] loss1/ave_pool <- inception_4a/output_inception_4a/output_0_split_0
I0403 18:17:30.750865 21975 net.cpp:399] loss1/ave_pool -> loss1/ave_pool
I0403 18:17:30.751057 21975 net.cpp:141] Setting up loss1/ave_pool
I0403 18:17:30.751081 21975 net.cpp:148] Top shape: 24 512 4 4 (196608)
I0403 18:17:30.751096 21975 net.cpp:156] Memory required for data: 945501216
I0403 18:17:30.751108 21975 layer_factory.hpp:77] Creating layer loss1/conv
I0403 18:17:30.751129 21975 net.cpp:91] Creating Layer loss1/conv
I0403 18:17:30.751145 21975 net.cpp:425] loss1/conv <- loss1/ave_pool
I0403 18:17:30.751164 21975 net.cpp:399] loss1/conv -> loss1/conv
I0403 18:17:30.752480 21975 net.cpp:141] Setting up loss1/conv
I0403 18:17:30.752508 21975 net.cpp:148] Top shape: 24 128 4 4 (49152)
I0403 18:17:30.752539 21975 net.cpp:156] Memory required for data: 945697824
I0403 18:17:30.752560 21975 layer_factory.hpp:77] Creating layer loss1/relu_conv
I0403 18:17:30.752578 21975 net.cpp:91] Creating Layer loss1/relu_conv
I0403 18:17:30.752593 21975 net.cpp:425] loss1/relu_conv <- loss1/conv
I0403 18:17:30.752611 21975 net.cpp:386] loss1/relu_conv -> loss1/conv (in-place)
I0403 18:17:30.752876 21975 net.cpp:141] Setting up loss1/relu_conv
I0403 18:17:30.752902 21975 net.cpp:148] Top shape: 24 128 4 4 (49152)
I0403 18:17:30.752917 21975 net.cpp:156] Memory required for data: 945894432
I0403 18:17:30.752929 21975 layer_factory.hpp:77] Creating layer loss1/fc
I0403 18:17:30.752951 21975 net.cpp:91] Creating Layer loss1/fc
I0403 18:17:30.752969 21975 net.cpp:425] loss1/fc <- loss1/conv
I0403 18:17:30.752988 21975 net.cpp:399] loss1/fc -> loss1/fc
I0403 18:17:30.769965 21975 net.cpp:141] Setting up loss1/fc
I0403 18:17:30.769995 21975 net.cpp:148] Top shape: 24 1024 (24576)
I0403 18:17:30.770010 21975 net.cpp:156] Memory required for data: 945992736
I0403 18:17:30.770028 21975 layer_factory.hpp:77] Creating layer loss1/relu_fc
I0403 18:17:30.770047 21975 net.cpp:91] Creating Layer loss1/relu_fc
I0403 18:17:30.770062 21975 net.cpp:425] loss1/relu_fc <- loss1/fc
I0403 18:17:30.770077 21975 net.cpp:386] loss1/relu_fc -> loss1/fc (in-place)
I0403 18:17:30.770256 21975 net.cpp:141] Setting up loss1/relu_fc
I0403 18:17:30.770282 21975 net.cpp:148] Top shape: 24 1024 (24576)
I0403 18:17:30.770308 21975 net.cpp:156] Memory required for data: 946091040
I0403 18:17:30.770323 21975 layer_factory.hpp:77] Creating layer loss1/drop_fc
I0403 18:17:30.770346 21975 net.cpp:91] Creating Layer loss1/drop_fc
I0403 18:17:30.770364 21975 net.cpp:425] loss1/drop_fc <- loss1/fc
I0403 18:17:30.770380 21975 net.cpp:386] loss1/drop_fc -> loss1/fc (in-place)
I0403 18:17:30.770431 21975 net.cpp:141] Setting up loss1/drop_fc
I0403 18:17:30.770453 21975 net.cpp:148] Top shape: 24 1024 (24576)
I0403 18:17:30.770467 21975 net.cpp:156] Memory required for data: 946189344
I0403 18:17:30.770483 21975 layer_factory.hpp:77] Creating layer loss1/classifier_plantvillage
I0403 18:17:30.770499 21975 net.cpp:91] Creating Layer loss1/classifier_plantvillage
I0403 18:17:30.770514 21975 net.cpp:425] loss1/classifier_plantvillage <- loss1/fc
I0403 18:17:30.770534 21975 net.cpp:399] loss1/classifier_plantvillage -> loss1/classifier_plantvillage
I0403 18:17:30.771421 21975 net.cpp:141] Setting up loss1/classifier_plantvillage
I0403 18:17:30.771448 21975 net.cpp:148] Top shape: 24 38 (912)
I0403 18:17:30.771462 21975 net.cpp:156] Memory required for data: 946192992
I0403 18:17:30.771479 21975 layer_factory.hpp:77] Creating layer loss1/classifier_plantvillage_loss1/classifier_plantvillage_0_split
I0403 18:17:30.771498 21975 net.cpp:91] Creating Layer loss1/classifier_plantvillage_loss1/classifier_plantvillage_0_split
I0403 18:17:30.771514 21975 net.cpp:425] loss1/classifier_plantvillage_loss1/classifier_plantvillage_0_split <- loss1/classifier_plantvillage
I0403 18:17:30.771531 21975 net.cpp:399] loss1/classifier_plantvillage_loss1/classifier_plantvillage_0_split -> loss1/classifier_plantvillage_loss1/classifier_plantvillage_0_split_0
I0403 18:17:30.771554 21975 net.cpp:399] loss1/classifier_plantvillage_loss1/classifier_plantvillage_0_split -> loss1/classifier_plantvillage_loss1/classifier_plantvillage_0_split_1
I0403 18:17:30.771577 21975 net.cpp:399] loss1/classifier_plantvillage_loss1/classifier_plantvillage_0_split -> loss1/classifier_plantvillage_loss1/classifier_plantvillage_0_split_2
I0403 18:17:30.771641 21975 net.cpp:141] Setting up loss1/classifier_plantvillage_loss1/classifier_plantvillage_0_split
I0403 18:17:30.771663 21975 net.cpp:148] Top shape: 24 38 (912)
I0403 18:17:30.771678 21975 net.cpp:148] Top shape: 24 38 (912)
I0403 18:17:30.771692 21975 net.cpp:148] Top shape: 24 38 (912)
I0403 18:17:30.771705 21975 net.cpp:156] Memory required for data: 946203936
I0403 18:17:30.771718 21975 layer_factory.hpp:77] Creating layer inception_4b/1x1
I0403 18:17:30.771739 21975 net.cpp:91] Creating Layer inception_4b/1x1
I0403 18:17:30.771770 21975 net.cpp:425] inception_4b/1x1 <- inception_4a/output_inception_4a/output_0_split_1
I0403 18:17:30.771788 21975 net.cpp:399] inception_4b/1x1 -> inception_4b/1x1
I0403 18:17:30.773335 21975 net.cpp:141] Setting up inception_4b/1x1
I0403 18:17:30.773367 21975 net.cpp:148] Top shape: 24 160 14 14 (752640)
I0403 18:17:30.773383 21975 net.cpp:156] Memory required for data: 949214496
I0403 18:17:30.773401 21975 layer_factory.hpp:77] Creating layer inception_4b/relu_1x1
I0403 18:17:30.773418 21975 net.cpp:91] Creating Layer inception_4b/relu_1x1
I0403 18:17:30.773433 21975 net.cpp:425] inception_4b/relu_1x1 <- inception_4b/1x1
I0403 18:17:30.773452 21975 net.cpp:386] inception_4b/relu_1x1 -> inception_4b/1x1 (in-place)
I0403 18:17:30.773628 21975 net.cpp:141] Setting up inception_4b/relu_1x1
I0403 18:17:30.773653 21975 net.cpp:148] Top shape: 24 160 14 14 (752640)
I0403 18:17:30.773666 21975 net.cpp:156] Memory required for data: 952225056
I0403 18:17:30.773679 21975 layer_factory.hpp:77] Creating layer inception_4b/3x3_reduce
I0403 18:17:30.773699 21975 net.cpp:91] Creating Layer inception_4b/3x3_reduce
I0403 18:17:30.773715 21975 net.cpp:425] inception_4b/3x3_reduce <- inception_4a/output_inception_4a/output_0_split_2
I0403 18:17:30.773736 21975 net.cpp:399] inception_4b/3x3_reduce -> inception_4b/3x3_reduce
I0403 18:17:30.775060 21975 net.cpp:141] Setting up inception_4b/3x3_reduce
I0403 18:17:30.775086 21975 net.cpp:148] Top shape: 24 112 14 14 (526848)
I0403 18:17:30.775101 21975 net.cpp:156] Memory required for data: 954332448
I0403 18:17:30.775117 21975 layer_factory.hpp:77] Creating layer inception_4b/relu_3x3_reduce
I0403 18:17:30.775135 21975 net.cpp:91] Creating Layer inception_4b/relu_3x3_reduce
I0403 18:17:30.775149 21975 net.cpp:425] inception_4b/relu_3x3_reduce <- inception_4b/3x3_reduce
I0403 18:17:30.775167 21975 net.cpp:386] inception_4b/relu_3x3_reduce -> inception_4b/3x3_reduce (in-place)
I0403 18:17:30.775435 21975 net.cpp:141] Setting up inception_4b/relu_3x3_reduce
I0403 18:17:30.775460 21975 net.cpp:148] Top shape: 24 112 14 14 (526848)
I0403 18:17:30.775475 21975 net.cpp:156] Memory required for data: 956439840
I0403 18:17:30.775487 21975 layer_factory.hpp:77] Creating layer inception_4b/3x3
I0403 18:17:30.775508 21975 net.cpp:91] Creating Layer inception_4b/3x3
I0403 18:17:30.775526 21975 net.cpp:425] inception_4b/3x3 <- inception_4b/3x3_reduce
I0403 18:17:30.775549 21975 net.cpp:399] inception_4b/3x3 -> inception_4b/3x3
I0403 18:17:30.778379 21975 net.cpp:141] Setting up inception_4b/3x3
I0403 18:17:30.778408 21975 net.cpp:148] Top shape: 24 224 14 14 (1053696)
I0403 18:17:30.778422 21975 net.cpp:156] Memory required for data: 960654624
I0403 18:17:30.778440 21975 layer_factory.hpp:77] Creating layer inception_4b/relu_3x3
I0403 18:17:30.778460 21975 net.cpp:91] Creating Layer inception_4b/relu_3x3
I0403 18:17:30.778476 21975 net.cpp:425] inception_4b/relu_3x3 <- inception_4b/3x3
I0403 18:17:30.778493 21975 net.cpp:386] inception_4b/relu_3x3 -> inception_4b/3x3 (in-place)
I0403 18:17:30.778686 21975 net.cpp:141] Setting up inception_4b/relu_3x3
I0403 18:17:30.778712 21975 net.cpp:148] Top shape: 24 224 14 14 (1053696)
I0403 18:17:30.778726 21975 net.cpp:156] Memory required for data: 964869408
I0403 18:17:30.778740 21975 layer_factory.hpp:77] Creating layer inception_4b/5x5_reduce
I0403 18:17:30.778761 21975 net.cpp:91] Creating Layer inception_4b/5x5_reduce
I0403 18:17:30.778777 21975 net.cpp:425] inception_4b/5x5_reduce <- inception_4a/output_inception_4a/output_0_split_3
I0403 18:17:30.778796 21975 net.cpp:399] inception_4b/5x5_reduce -> inception_4b/5x5_reduce
I0403 18:17:30.779834 21975 net.cpp:141] Setting up inception_4b/5x5_reduce
I0403 18:17:30.779860 21975 net.cpp:148] Top shape: 24 24 14 14 (112896)
I0403 18:17:30.779875 21975 net.cpp:156] Memory required for data: 965320992
I0403 18:17:30.779891 21975 layer_factory.hpp:77] Creating layer inception_4b/relu_5x5_reduce
I0403 18:17:30.779907 21975 net.cpp:91] Creating Layer inception_4b/relu_5x5_reduce
I0403 18:17:30.779937 21975 net.cpp:425] inception_4b/relu_5x5_reduce <- inception_4b/5x5_reduce
I0403 18:17:30.779958 21975 net.cpp:386] inception_4b/relu_5x5_reduce -> inception_4b/5x5_reduce (in-place)
I0403 18:17:30.780133 21975 net.cpp:141] Setting up inception_4b/relu_5x5_reduce
I0403 18:17:30.780156 21975 net.cpp:148] Top shape: 24 24 14 14 (112896)
I0403 18:17:30.780170 21975 net.cpp:156] Memory required for data: 965772576
I0403 18:17:30.780184 21975 layer_factory.hpp:77] Creating layer inception_4b/5x5
I0403 18:17:30.780205 21975 net.cpp:91] Creating Layer inception_4b/5x5
I0403 18:17:30.780220 21975 net.cpp:425] inception_4b/5x5 <- inception_4b/5x5_reduce
I0403 18:17:30.780251 21975 net.cpp:399] inception_4b/5x5 -> inception_4b/5x5
I0403 18:17:30.781466 21975 net.cpp:141] Setting up inception_4b/5x5
I0403 18:17:30.781504 21975 net.cpp:148] Top shape: 24 64 14 14 (301056)
I0403 18:17:30.781523 21975 net.cpp:156] Memory required for data: 966976800
I0403 18:17:30.781554 21975 layer_factory.hpp:77] Creating layer inception_4b/relu_5x5
I0403 18:17:30.781580 21975 net.cpp:91] Creating Layer inception_4b/relu_5x5
I0403 18:17:30.781617 21975 net.cpp:425] inception_4b/relu_5x5 <- inception_4b/5x5
I0403 18:17:30.781636 21975 net.cpp:386] inception_4b/relu_5x5 -> inception_4b/5x5 (in-place)
I0403 18:17:30.781927 21975 net.cpp:141] Setting up inception_4b/relu_5x5
I0403 18:17:30.781958 21975 net.cpp:148] Top shape: 24 64 14 14 (301056)
I0403 18:17:30.781975 21975 net.cpp:156] Memory required for data: 968181024
I0403 18:17:30.781990 21975 layer_factory.hpp:77] Creating layer inception_4b/pool
I0403 18:17:30.782007 21975 net.cpp:91] Creating Layer inception_4b/pool
I0403 18:17:30.782021 21975 net.cpp:425] inception_4b/pool <- inception_4a/output_inception_4a/output_0_split_4
I0403 18:17:30.782049 21975 net.cpp:399] inception_4b/pool -> inception_4b/pool
I0403 18:17:30.782114 21975 net.cpp:141] Setting up inception_4b/pool
I0403 18:17:30.782136 21975 net.cpp:148] Top shape: 24 512 14 14 (2408448)
I0403 18:17:30.782150 21975 net.cpp:156] Memory required for data: 977814816
I0403 18:17:30.782171 21975 layer_factory.hpp:77] Creating layer inception_4b/pool_proj
I0403 18:17:30.782191 21975 net.cpp:91] Creating Layer inception_4b/pool_proj
I0403 18:17:30.782208 21975 net.cpp:425] inception_4b/pool_proj <- inception_4b/pool
I0403 18:17:30.782228 21975 net.cpp:399] inception_4b/pool_proj -> inception_4b/pool_proj
I0403 18:17:30.783464 21975 net.cpp:141] Setting up inception_4b/pool_proj
I0403 18:17:30.783498 21975 net.cpp:148] Top shape: 24 64 14 14 (301056)
I0403 18:17:30.783514 21975 net.cpp:156] Memory required for data: 979019040
I0403 18:17:30.783530 21975 layer_factory.hpp:77] Creating layer inception_4b/relu_pool_proj
I0403 18:17:30.783552 21975 net.cpp:91] Creating Layer inception_4b/relu_pool_proj
I0403 18:17:30.783576 21975 net.cpp:425] inception_4b/relu_pool_proj <- inception_4b/pool_proj
I0403 18:17:30.783596 21975 net.cpp:386] inception_4b/relu_pool_proj -> inception_4b/pool_proj (in-place)
I0403 18:17:30.783771 21975 net.cpp:141] Setting up inception_4b/relu_pool_proj
I0403 18:17:30.783794 21975 net.cpp:148] Top shape: 24 64 14 14 (301056)
I0403 18:17:30.783807 21975 net.cpp:156] Memory required for data: 980223264
I0403 18:17:30.783821 21975 layer_factory.hpp:77] Creating layer inception_4b/output
I0403 18:17:30.783836 21975 net.cpp:91] Creating Layer inception_4b/output
I0403 18:17:30.783850 21975 net.cpp:425] inception_4b/output <- inception_4b/1x1
I0403 18:17:30.783865 21975 net.cpp:425] inception_4b/output <- inception_4b/3x3
I0403 18:17:30.783879 21975 net.cpp:425] inception_4b/output <- inception_4b/5x5
I0403 18:17:30.783895 21975 net.cpp:425] inception_4b/output <- inception_4b/pool_proj
I0403 18:17:30.783915 21975 net.cpp:399] inception_4b/output -> inception_4b/output
I0403 18:17:30.783960 21975 net.cpp:141] Setting up inception_4b/output
I0403 18:17:30.783982 21975 net.cpp:148] Top shape: 24 512 14 14 (2408448)
I0403 18:17:30.783995 21975 net.cpp:156] Memory required for data: 989857056
I0403 18:17:30.784024 21975 layer_factory.hpp:77] Creating layer inception_4b/output_inception_4b/output_0_split
I0403 18:17:30.784049 21975 net.cpp:91] Creating Layer inception_4b/output_inception_4b/output_0_split
I0403 18:17:30.784062 21975 net.cpp:425] inception_4b/output_inception_4b/output_0_split <- inception_4b/output
I0403 18:17:30.784085 21975 net.cpp:399] inception_4b/output_inception_4b/output_0_split -> inception_4b/output_inception_4b/output_0_split_0
I0403 18:17:30.784104 21975 net.cpp:399] inception_4b/output_inception_4b/output_0_split -> inception_4b/output_inception_4b/output_0_split_1
I0403 18:17:30.784124 21975 net.cpp:399] inception_4b/output_inception_4b/output_0_split -> inception_4b/output_inception_4b/output_0_split_2
I0403 18:17:30.784143 21975 net.cpp:399] inception_4b/output_inception_4b/output_0_split -> inception_4b/output_inception_4b/output_0_split_3
I0403 18:17:30.784224 21975 net.cpp:141] Setting up inception_4b/output_inception_4b/output_0_split
I0403 18:17:30.784246 21975 net.cpp:148] Top shape: 24 512 14 14 (2408448)
I0403 18:17:30.784262 21975 net.cpp:148] Top shape: 24 512 14 14 (2408448)
I0403 18:17:30.784276 21975 net.cpp:148] Top shape: 24 512 14 14 (2408448)
I0403 18:17:30.784291 21975 net.cpp:148] Top shape: 24 512 14 14 (2408448)
I0403 18:17:30.784303 21975 net.cpp:156] Memory required for data: 1028392224
I0403 18:17:30.784317 21975 layer_factory.hpp:77] Creating layer inception_4c/1x1
I0403 18:17:30.784338 21975 net.cpp:91] Creating Layer inception_4c/1x1
I0403 18:17:30.784354 21975 net.cpp:425] inception_4c/1x1 <- inception_4b/output_inception_4b/output_0_split_0
I0403 18:17:30.784371 21975 net.cpp:399] inception_4c/1x1 -> inception_4c/1x1
I0403 18:17:30.785753 21975 net.cpp:141] Setting up inception_4c/1x1
I0403 18:17:30.785779 21975 net.cpp:148] Top shape: 24 128 14 14 (602112)
I0403 18:17:30.785794 21975 net.cpp:156] Memory required for data: 1030800672
I0403 18:17:30.785811 21975 layer_factory.hpp:77] Creating layer inception_4c/relu_1x1
I0403 18:17:30.785830 21975 net.cpp:91] Creating Layer inception_4c/relu_1x1
I0403 18:17:30.785847 21975 net.cpp:425] inception_4c/relu_1x1 <- inception_4c/1x1
I0403 18:17:30.785862 21975 net.cpp:386] inception_4c/relu_1x1 -> inception_4c/1x1 (in-place)
I0403 18:17:30.786033 21975 net.cpp:141] Setting up inception_4c/relu_1x1
I0403 18:17:30.786059 21975 net.cpp:148] Top shape: 24 128 14 14 (602112)
I0403 18:17:30.786074 21975 net.cpp:156] Memory required for data: 1033209120
I0403 18:17:30.786088 21975 layer_factory.hpp:77] Creating layer inception_4c/3x3_reduce
I0403 18:17:30.786111 21975 net.cpp:91] Creating Layer inception_4c/3x3_reduce
I0403 18:17:30.786128 21975 net.cpp:425] inception_4c/3x3_reduce <- inception_4b/output_inception_4b/output_0_split_1
I0403 18:17:30.786145 21975 net.cpp:399] inception_4c/3x3_reduce -> inception_4c/3x3_reduce
I0403 18:17:30.788048 21975 net.cpp:141] Setting up inception_4c/3x3_reduce
I0403 18:17:30.788079 21975 net.cpp:148] Top shape: 24 128 14 14 (602112)
I0403 18:17:30.788094 21975 net.cpp:156] Memory required for data: 1035617568
I0403 18:17:30.788111 21975 layer_factory.hpp:77] Creating layer inception_4c/relu_3x3_reduce
I0403 18:17:30.788130 21975 net.cpp:91] Creating Layer inception_4c/relu_3x3_reduce
I0403 18:17:30.788144 21975 net.cpp:425] inception_4c/relu_3x3_reduce <- inception_4c/3x3_reduce
I0403 18:17:30.788161 21975 net.cpp:386] inception_4c/relu_3x3_reduce -> inception_4c/3x3_reduce (in-place)
I0403 18:17:30.788439 21975 net.cpp:141] Setting up inception_4c/relu_3x3_reduce
I0403 18:17:30.788466 21975 net.cpp:148] Top shape: 24 128 14 14 (602112)
I0403 18:17:30.788480 21975 net.cpp:156] Memory required for data: 1038026016
I0403 18:17:30.788494 21975 layer_factory.hpp:77] Creating layer inception_4c/3x3
I0403 18:17:30.788516 21975 net.cpp:91] Creating Layer inception_4c/3x3
I0403 18:17:30.788533 21975 net.cpp:425] inception_4c/3x3 <- inception_4c/3x3_reduce
I0403 18:17:30.788555 21975 net.cpp:399] inception_4c/3x3 -> inception_4c/3x3
I0403 18:17:30.792002 21975 net.cpp:141] Setting up inception_4c/3x3
I0403 18:17:30.792044 21975 net.cpp:148] Top shape: 24 256 14 14 (1204224)
I0403 18:17:30.792060 21975 net.cpp:156] Memory required for data: 1042842912
I0403 18:17:30.792093 21975 layer_factory.hpp:77] Creating layer inception_4c/relu_3x3
I0403 18:17:30.792112 21975 net.cpp:91] Creating Layer inception_4c/relu_3x3
I0403 18:17:30.792126 21975 net.cpp:425] inception_4c/relu_3x3 <- inception_4c/3x3
I0403 18:17:30.792145 21975 net.cpp:386] inception_4c/relu_3x3 -> inception_4c/3x3 (in-place)
I0403 18:17:30.792316 21975 net.cpp:141] Setting up inception_4c/relu_3x3
I0403 18:17:30.792340 21975 net.cpp:148] Top shape: 24 256 14 14 (1204224)
I0403 18:17:30.792352 21975 net.cpp:156] Memory required for data: 1047659808
I0403 18:17:30.792366 21975 layer_factory.hpp:77] Creating layer inception_4c/5x5_reduce
I0403 18:17:30.792388 21975 net.cpp:91] Creating Layer inception_4c/5x5_reduce
I0403 18:17:30.792405 21975 net.cpp:425] inception_4c/5x5_reduce <- inception_4b/output_inception_4b/output_0_split_2
I0403 18:17:30.792425 21975 net.cpp:399] inception_4c/5x5_reduce -> inception_4c/5x5_reduce
I0403 18:17:30.793460 21975 net.cpp:141] Setting up inception_4c/5x5_reduce
I0403 18:17:30.793489 21975 net.cpp:148] Top shape: 24 24 14 14 (112896)
I0403 18:17:30.793503 21975 net.cpp:156] Memory required for data: 1048111392
I0403 18:17:30.793520 21975 layer_factory.hpp:77] Creating layer inception_4c/relu_5x5_reduce
I0403 18:17:30.793541 21975 net.cpp:91] Creating Layer inception_4c/relu_5x5_reduce
I0403 18:17:30.793558 21975 net.cpp:425] inception_4c/relu_5x5_reduce <- inception_4c/5x5_reduce
I0403 18:17:30.793576 21975 net.cpp:386] inception_4c/relu_5x5_reduce -> inception_4c/5x5_reduce (in-place)
I0403 18:17:30.793753 21975 net.cpp:141] Setting up inception_4c/relu_5x5_reduce
I0403 18:17:30.793777 21975 net.cpp:148] Top shape: 24 24 14 14 (112896)
I0403 18:17:30.793792 21975 net.cpp:156] Memory required for data: 1048562976
I0403 18:17:30.793805 21975 layer_factory.hpp:77] Creating layer inception_4c/5x5
I0403 18:17:30.793826 21975 net.cpp:91] Creating Layer inception_4c/5x5
I0403 18:17:30.793843 21975 net.cpp:425] inception_4c/5x5 <- inception_4c/5x5_reduce
I0403 18:17:30.793862 21975 net.cpp:399] inception_4c/5x5 -> inception_4c/5x5
I0403 18:17:30.795120 21975 net.cpp:141] Setting up inception_4c/5x5
I0403 18:17:30.795147 21975 net.cpp:148] Top shape: 24 64 14 14 (301056)
I0403 18:17:30.795162 21975 net.cpp:156] Memory required for data: 1049767200
I0403 18:17:30.795178 21975 layer_factory.hpp:77] Creating layer inception_4c/relu_5x5
I0403 18:17:30.795197 21975 net.cpp:91] Creating Layer inception_4c/relu_5x5
I0403 18:17:30.795213 21975 net.cpp:425] inception_4c/relu_5x5 <- inception_4c/5x5
I0403 18:17:30.795229 21975 net.cpp:386] inception_4c/relu_5x5 -> inception_4c/5x5 (in-place)
I0403 18:17:30.795506 21975 net.cpp:141] Setting up inception_4c/relu_5x5
I0403 18:17:30.795531 21975 net.cpp:148] Top shape: 24 64 14 14 (301056)
I0403 18:17:30.795549 21975 net.cpp:156] Memory required for data: 1050971424
I0403 18:17:30.795563 21975 layer_factory.hpp:77] Creating layer inception_4c/pool
I0403 18:17:30.795579 21975 net.cpp:91] Creating Layer inception_4c/pool
I0403 18:17:30.795594 21975 net.cpp:425] inception_4c/pool <- inception_4b/output_inception_4b/output_0_split_3
I0403 18:17:30.795614 21975 net.cpp:399] inception_4c/pool -> inception_4c/pool
I0403 18:17:30.795675 21975 net.cpp:141] Setting up inception_4c/pool
I0403 18:17:30.795698 21975 net.cpp:148] Top shape: 24 512 14 14 (2408448)
I0403 18:17:30.795712 21975 net.cpp:156] Memory required for data: 1060605216
I0403 18:17:30.795725 21975 layer_factory.hpp:77] Creating layer inception_4c/pool_proj
I0403 18:17:30.795747 21975 net.cpp:91] Creating Layer inception_4c/pool_proj
I0403 18:17:30.795764 21975 net.cpp:425] inception_4c/pool_proj <- inception_4c/pool
I0403 18:17:30.795781 21975 net.cpp:399] inception_4c/pool_proj -> inception_4c/pool_proj
I0403 18:17:30.796952 21975 net.cpp:141] Setting up inception_4c/pool_proj
I0403 18:17:30.796980 21975 net.cpp:148] Top shape: 24 64 14 14 (301056)
I0403 18:17:30.797009 21975 net.cpp:156] Memory required for data: 1061809440
I0403 18:17:30.797029 21975 layer_factory.hpp:77] Creating layer inception_4c/relu_pool_proj
I0403 18:17:30.797045 21975 net.cpp:91] Creating Layer inception_4c/relu_pool_proj
I0403 18:17:30.797060 21975 net.cpp:425] inception_4c/relu_pool_proj <- inception_4c/pool_proj
I0403 18:17:30.797080 21975 net.cpp:386] inception_4c/relu_pool_proj -> inception_4c/pool_proj (in-place)
I0403 18:17:30.797253 21975 net.cpp:141] Setting up inception_4c/relu_pool_proj
I0403 18:17:30.797278 21975 net.cpp:148] Top shape: 24 64 14 14 (301056)
I0403 18:17:30.797292 21975 net.cpp:156] Memory required for data: 1063013664
I0403 18:17:30.797307 21975 layer_factory.hpp:77] Creating layer inception_4c/output
I0403 18:17:30.797322 21975 net.cpp:91] Creating Layer inception_4c/output
I0403 18:17:30.797336 21975 net.cpp:425] inception_4c/output <- inception_4c/1x1
I0403 18:17:30.797351 21975 net.cpp:425] inception_4c/output <- inception_4c/3x3
I0403 18:17:30.797365 21975 net.cpp:425] inception_4c/output <- inception_4c/5x5
I0403 18:17:30.797380 21975 net.cpp:425] inception_4c/output <- inception_4c/pool_proj
I0403 18:17:30.797399 21975 net.cpp:399] inception_4c/output -> inception_4c/output
I0403 18:17:30.797442 21975 net.cpp:141] Setting up inception_4c/output
I0403 18:17:30.797467 21975 net.cpp:148] Top shape: 24 512 14 14 (2408448)
I0403 18:17:30.797480 21975 net.cpp:156] Memory required for data: 1072647456
I0403 18:17:30.797494 21975 layer_factory.hpp:77] Creating layer inception_4c/output_inception_4c/output_0_split
I0403 18:17:30.797510 21975 net.cpp:91] Creating Layer inception_4c/output_inception_4c/output_0_split
I0403 18:17:30.797524 21975 net.cpp:425] inception_4c/output_inception_4c/output_0_split <- inception_4c/output
I0403 18:17:30.797544 21975 net.cpp:399] inception_4c/output_inception_4c/output_0_split -> inception_4c/output_inception_4c/output_0_split_0
I0403 18:17:30.797567 21975 net.cpp:399] inception_4c/output_inception_4c/output_0_split -> inception_4c/output_inception_4c/output_0_split_1
I0403 18:17:30.797590 21975 net.cpp:399] inception_4c/output_inception_4c/output_0_split -> inception_4c/output_inception_4c/output_0_split_2
I0403 18:17:30.797608 21975 net.cpp:399] inception_4c/output_inception_4c/output_0_split -> inception_4c/output_inception_4c/output_0_split_3
I0403 18:17:30.797691 21975 net.cpp:141] Setting up inception_4c/output_inception_4c/output_0_split
I0403 18:17:30.797713 21975 net.cpp:148] Top shape: 24 512 14 14 (2408448)
I0403 18:17:30.797729 21975 net.cpp:148] Top shape: 24 512 14 14 (2408448)
I0403 18:17:30.797742 21975 net.cpp:148] Top shape: 24 512 14 14 (2408448)
I0403 18:17:30.797757 21975 net.cpp:148] Top shape: 24 512 14 14 (2408448)
I0403 18:17:30.797770 21975 net.cpp:156] Memory required for data: 1111182624
I0403 18:17:30.797782 21975 layer_factory.hpp:77] Creating layer inception_4d/1x1
I0403 18:17:30.797804 21975 net.cpp:91] Creating Layer inception_4d/1x1
I0403 18:17:30.797821 21975 net.cpp:425] inception_4d/1x1 <- inception_4c/output_inception_4c/output_0_split_0
I0403 18:17:30.797837 21975 net.cpp:399] inception_4d/1x1 -> inception_4d/1x1
I0403 18:17:30.799180 21975 net.cpp:141] Setting up inception_4d/1x1
I0403 18:17:30.799206 21975 net.cpp:148] Top shape: 24 112 14 14 (526848)
I0403 18:17:30.799221 21975 net.cpp:156] Memory required for data: 1113290016
I0403 18:17:30.799237 21975 layer_factory.hpp:77] Creating layer inception_4d/relu_1x1
I0403 18:17:30.799257 21975 net.cpp:91] Creating Layer inception_4d/relu_1x1
I0403 18:17:30.799273 21975 net.cpp:425] inception_4d/relu_1x1 <- inception_4d/1x1
I0403 18:17:30.799288 21975 net.cpp:386] inception_4d/relu_1x1 -> inception_4d/1x1 (in-place)
I0403 18:17:30.799465 21975 net.cpp:141] Setting up inception_4d/relu_1x1
I0403 18:17:30.799490 21975 net.cpp:148] Top shape: 24 112 14 14 (526848)
I0403 18:17:30.799504 21975 net.cpp:156] Memory required for data: 1115397408
I0403 18:17:30.799518 21975 layer_factory.hpp:77] Creating layer inception_4d/3x3_reduce
I0403 18:17:30.799556 21975 net.cpp:91] Creating Layer inception_4d/3x3_reduce
I0403 18:17:30.799576 21975 net.cpp:425] inception_4d/3x3_reduce <- inception_4c/output_inception_4c/output_0_split_1
I0403 18:17:30.799594 21975 net.cpp:399] inception_4d/3x3_reduce -> inception_4d/3x3_reduce
I0403 18:17:30.801065 21975 net.cpp:141] Setting up inception_4d/3x3_reduce
I0403 18:17:30.801091 21975 net.cpp:148] Top shape: 24 144 14 14 (677376)
I0403 18:17:30.801105 21975 net.cpp:156] Memory required for data: 1118106912
I0403 18:17:30.801123 21975 layer_factory.hpp:77] Creating layer inception_4d/relu_3x3_reduce
I0403 18:17:30.801142 21975 net.cpp:91] Creating Layer inception_4d/relu_3x3_reduce
I0403 18:17:30.801158 21975 net.cpp:425] inception_4d/relu_3x3_reduce <- inception_4d/3x3_reduce
I0403 18:17:30.801174 21975 net.cpp:386] inception_4d/relu_3x3_reduce -> inception_4d/3x3_reduce (in-place)
I0403 18:17:30.801452 21975 net.cpp:141] Setting up inception_4d/relu_3x3_reduce
I0403 18:17:30.801476 21975 net.cpp:148] Top shape: 24 144 14 14 (677376)
I0403 18:17:30.801491 21975 net.cpp:156] Memory required for data: 1120816416
I0403 18:17:30.801504 21975 layer_factory.hpp:77] Creating layer inception_4d/3x3
I0403 18:17:30.801524 21975 net.cpp:91] Creating Layer inception_4d/3x3
I0403 18:17:30.801545 21975 net.cpp:425] inception_4d/3x3 <- inception_4d/3x3_reduce
I0403 18:17:30.801566 21975 net.cpp:399] inception_4d/3x3 -> inception_4d/3x3
I0403 18:17:30.805655 21975 net.cpp:141] Setting up inception_4d/3x3
I0403 18:17:30.805685 21975 net.cpp:148] Top shape: 24 288 14 14 (1354752)
I0403 18:17:30.805702 21975 net.cpp:156] Memory required for data: 1126235424
I0403 18:17:30.805719 21975 layer_factory.hpp:77] Creating layer inception_4d/relu_3x3
I0403 18:17:30.805735 21975 net.cpp:91] Creating Layer inception_4d/relu_3x3
I0403 18:17:30.805750 21975 net.cpp:425] inception_4d/relu_3x3 <- inception_4d/3x3
I0403 18:17:30.805766 21975 net.cpp:386] inception_4d/relu_3x3 -> inception_4d/3x3 (in-place)
I0403 18:17:30.805943 21975 net.cpp:141] Setting up inception_4d/relu_3x3
I0403 18:17:30.805968 21975 net.cpp:148] Top shape: 24 288 14 14 (1354752)
I0403 18:17:30.805982 21975 net.cpp:156] Memory required for data: 1131654432
I0403 18:17:30.805996 21975 layer_factory.hpp:77] Creating layer inception_4d/5x5_reduce
I0403 18:17:30.806020 21975 net.cpp:91] Creating Layer inception_4d/5x5_reduce
I0403 18:17:30.806036 21975 net.cpp:425] inception_4d/5x5_reduce <- inception_4c/output_inception_4c/output_0_split_2
I0403 18:17:30.806057 21975 net.cpp:399] inception_4d/5x5_reduce -> inception_4d/5x5_reduce
I0403 18:17:30.807178 21975 net.cpp:141] Setting up inception_4d/5x5_reduce
I0403 18:17:30.807214 21975 net.cpp:148] Top shape: 24 32 14 14 (150528)
I0403 18:17:30.807229 21975 net.cpp:156] Memory required for data: 1132256544
I0403 18:17:30.807246 21975 layer_factory.hpp:77] Creating layer inception_4d/relu_5x5_reduce
I0403 18:17:30.807265 21975 net.cpp:91] Creating Layer inception_4d/relu_5x5_reduce
I0403 18:17:30.807282 21975 net.cpp:425] inception_4d/relu_5x5_reduce <- inception_4d/5x5_reduce
I0403 18:17:30.807303 21975 net.cpp:386] inception_4d/relu_5x5_reduce -> inception_4d/5x5_reduce (in-place)
I0403 18:17:30.807484 21975 net.cpp:141] Setting up inception_4d/relu_5x5_reduce
I0403 18:17:30.807512 21975 net.cpp:148] Top shape: 24 32 14 14 (150528)
I0403 18:17:30.807550 21975 net.cpp:156] Memory required for data: 1132858656
I0403 18:17:30.807581 21975 layer_factory.hpp:77] Creating layer inception_4d/5x5
I0403 18:17:30.807631 21975 net.cpp:91] Creating Layer inception_4d/5x5
I0403 18:17:30.807662 21975 net.cpp:425] inception_4d/5x5 <- inception_4d/5x5_reduce
I0403 18:17:30.807682 21975 net.cpp:399] inception_4d/5x5 -> inception_4d/5x5
I0403 18:17:30.809149 21975 net.cpp:141] Setting up inception_4d/5x5
I0403 18:17:30.809176 21975 net.cpp:148] Top shape: 24 64 14 14 (301056)
I0403 18:17:30.809190 21975 net.cpp:156] Memory required for data: 1134062880
I0403 18:17:30.809208 21975 layer_factory.hpp:77] Creating layer inception_4d/relu_5x5
I0403 18:17:30.809239 21975 net.cpp:91] Creating Layer inception_4d/relu_5x5
I0403 18:17:30.809255 21975 net.cpp:425] inception_4d/relu_5x5 <- inception_4d/5x5
I0403 18:17:30.809274 21975 net.cpp:386] inception_4d/relu_5x5 -> inception_4d/5x5 (in-place)
I0403 18:17:30.809578 21975 net.cpp:141] Setting up inception_4d/relu_5x5
I0403 18:17:30.809612 21975 net.cpp:148] Top shape: 24 64 14 14 (301056)
I0403 18:17:30.809628 21975 net.cpp:156] Memory required for data: 1135267104
I0403 18:17:30.809641 21975 layer_factory.hpp:77] Creating layer inception_4d/pool
I0403 18:17:30.809658 21975 net.cpp:91] Creating Layer inception_4d/pool
I0403 18:17:30.809672 21975 net.cpp:425] inception_4d/pool <- inception_4c/output_inception_4c/output_0_split_3
I0403 18:17:30.809696 21975 net.cpp:399] inception_4d/pool -> inception_4d/pool
I0403 18:17:30.809767 21975 net.cpp:141] Setting up inception_4d/pool
I0403 18:17:30.809788 21975 net.cpp:148] Top shape: 24 512 14 14 (2408448)
I0403 18:17:30.809801 21975 net.cpp:156] Memory required for data: 1144900896
I0403 18:17:30.809815 21975 layer_factory.hpp:77] Creating layer inception_4d/pool_proj
I0403 18:17:30.809841 21975 net.cpp:91] Creating Layer inception_4d/pool_proj
I0403 18:17:30.809857 21975 net.cpp:425] inception_4d/pool_proj <- inception_4d/pool
I0403 18:17:30.809875 21975 net.cpp:399] inception_4d/pool_proj -> inception_4d/pool_proj
I0403 18:17:30.811606 21975 net.cpp:141] Setting up inception_4d/pool_proj
I0403 18:17:30.811636 21975 net.cpp:148] Top shape: 24 64 14 14 (301056)
I0403 18:17:30.811651 21975 net.cpp:156] Memory required for data: 1146105120
I0403 18:17:30.811669 21975 layer_factory.hpp:77] Creating layer inception_4d/relu_pool_proj
I0403 18:17:30.811694 21975 net.cpp:91] Creating Layer inception_4d/relu_pool_proj
I0403 18:17:30.811709 21975 net.cpp:425] inception_4d/relu_pool_proj <- inception_4d/pool_proj
I0403 18:17:30.811728 21975 net.cpp:386] inception_4d/relu_pool_proj -> inception_4d/pool_proj (in-place)
I0403 18:17:30.811913 21975 net.cpp:141] Setting up inception_4d/relu_pool_proj
I0403 18:17:30.811939 21975 net.cpp:148] Top shape: 24 64 14 14 (301056)
I0403 18:17:30.811952 21975 net.cpp:156] Memory required for data: 1147309344
I0403 18:17:30.811966 21975 layer_factory.hpp:77] Creating layer inception_4d/output
I0403 18:17:30.811982 21975 net.cpp:91] Creating Layer inception_4d/output
I0403 18:17:30.811996 21975 net.cpp:425] inception_4d/output <- inception_4d/1x1
I0403 18:17:30.812011 21975 net.cpp:425] inception_4d/output <- inception_4d/3x3
I0403 18:17:30.812026 21975 net.cpp:425] inception_4d/output <- inception_4d/5x5
I0403 18:17:30.812041 21975 net.cpp:425] inception_4d/output <- inception_4d/pool_proj
I0403 18:17:30.812058 21975 net.cpp:399] inception_4d/output -> inception_4d/output
I0403 18:17:30.812103 21975 net.cpp:141] Setting up inception_4d/output
I0403 18:17:30.812125 21975 net.cpp:148] Top shape: 24 528 14 14 (2483712)
I0403 18:17:30.812147 21975 net.cpp:156] Memory required for data: 1157244192
I0403 18:17:30.812161 21975 layer_factory.hpp:77] Creating layer inception_4d/output_inception_4d/output_0_split
I0403 18:17:30.812180 21975 net.cpp:91] Creating Layer inception_4d/output_inception_4d/output_0_split
I0403 18:17:30.812196 21975 net.cpp:425] inception_4d/output_inception_4d/output_0_split <- inception_4d/output
I0403 18:17:30.812219 21975 net.cpp:399] inception_4d/output_inception_4d/output_0_split -> inception_4d/output_inception_4d/output_0_split_0
I0403 18:17:30.812242 21975 net.cpp:399] inception_4d/output_inception_4d/output_0_split -> inception_4d/output_inception_4d/output_0_split_1
I0403 18:17:30.812274 21975 net.cpp:399] inception_4d/output_inception_4d/output_0_split -> inception_4d/output_inception_4d/output_0_split_2
I0403 18:17:30.812294 21975 net.cpp:399] inception_4d/output_inception_4d/output_0_split -> inception_4d/output_inception_4d/output_0_split_3
I0403 18:17:30.812314 21975 net.cpp:399] inception_4d/output_inception_4d/output_0_split -> inception_4d/output_inception_4d/output_0_split_4
I0403 18:17:30.812408 21975 net.cpp:141] Setting up inception_4d/output_inception_4d/output_0_split
I0403 18:17:30.812451 21975 net.cpp:148] Top shape: 24 528 14 14 (2483712)
I0403 18:17:30.812468 21975 net.cpp:148] Top shape: 24 528 14 14 (2483712)
I0403 18:17:30.812481 21975 net.cpp:148] Top shape: 24 528 14 14 (2483712)
I0403 18:17:30.812495 21975 net.cpp:148] Top shape: 24 528 14 14 (2483712)
I0403 18:17:30.812510 21975 net.cpp:148] Top shape: 24 528 14 14 (2483712)
I0403 18:17:30.812522 21975 net.cpp:156] Memory required for data: 1206918432
I0403 18:17:30.812539 21975 layer_factory.hpp:77] Creating layer loss2/ave_pool
I0403 18:17:30.812561 21975 net.cpp:91] Creating Layer loss2/ave_pool
I0403 18:17:30.812577 21975 net.cpp:425] loss2/ave_pool <- inception_4d/output_inception_4d/output_0_split_0
I0403 18:17:30.812593 21975 net.cpp:399] loss2/ave_pool -> loss2/ave_pool
I0403 18:17:30.812891 21975 net.cpp:141] Setting up loss2/ave_pool
I0403 18:17:30.812919 21975 net.cpp:148] Top shape: 24 528 4 4 (202752)
I0403 18:17:30.812934 21975 net.cpp:156] Memory required for data: 1207729440
I0403 18:17:30.812948 21975 layer_factory.hpp:77] Creating layer loss2/conv
I0403 18:17:30.812978 21975 net.cpp:91] Creating Layer loss2/conv
I0403 18:17:30.812994 21975 net.cpp:425] loss2/conv <- loss2/ave_pool
I0403 18:17:30.813014 21975 net.cpp:399] loss2/conv -> loss2/conv
I0403 18:17:30.814966 21975 net.cpp:141] Setting up loss2/conv
I0403 18:17:30.814996 21975 net.cpp:148] Top shape: 24 128 4 4 (49152)
I0403 18:17:30.815011 21975 net.cpp:156] Memory required for data: 1207926048
I0403 18:17:30.815028 21975 layer_factory.hpp:77] Creating layer loss2/relu_conv
I0403 18:17:30.815045 21975 net.cpp:91] Creating Layer loss2/relu_conv
I0403 18:17:30.815073 21975 net.cpp:425] loss2/relu_conv <- loss2/conv
I0403 18:17:30.815100 21975 net.cpp:386] loss2/relu_conv -> loss2/conv (in-place)
I0403 18:17:30.815395 21975 net.cpp:141] Setting up loss2/relu_conv
I0403 18:17:30.815420 21975 net.cpp:148] Top shape: 24 128 4 4 (49152)
I0403 18:17:30.815444 21975 net.cpp:156] Memory required for data: 1208122656
I0403 18:17:30.815460 21975 layer_factory.hpp:77] Creating layer loss2/fc
I0403 18:17:30.815479 21975 net.cpp:91] Creating Layer loss2/fc
I0403 18:17:30.815498 21975 net.cpp:425] loss2/fc <- loss2/conv
I0403 18:17:30.815515 21975 net.cpp:399] loss2/fc -> loss2/fc
I0403 18:17:30.833331 21975 net.cpp:141] Setting up loss2/fc
I0403 18:17:30.833366 21975 net.cpp:148] Top shape: 24 1024 (24576)
I0403 18:17:30.833382 21975 net.cpp:156] Memory required for data: 1208220960
I0403 18:17:30.833401 21975 layer_factory.hpp:77] Creating layer loss2/relu_fc
I0403 18:17:30.833421 21975 net.cpp:91] Creating Layer loss2/relu_fc
I0403 18:17:30.833438 21975 net.cpp:425] loss2/relu_fc <- loss2/fc
I0403 18:17:30.833456 21975 net.cpp:386] loss2/relu_fc -> loss2/fc (in-place)
I0403 18:17:30.833762 21975 net.cpp:141] Setting up loss2/relu_fc
I0403 18:17:30.833791 21975 net.cpp:148] Top shape: 24 1024 (24576)
I0403 18:17:30.833807 21975 net.cpp:156] Memory required for data: 1208319264
I0403 18:17:30.833822 21975 layer_factory.hpp:77] Creating layer loss2/drop_fc
I0403 18:17:30.833839 21975 net.cpp:91] Creating Layer loss2/drop_fc
I0403 18:17:30.833855 21975 net.cpp:425] loss2/drop_fc <- loss2/fc
I0403 18:17:30.833874 21975 net.cpp:386] loss2/drop_fc -> loss2/fc (in-place)
I0403 18:17:30.833925 21975 net.cpp:141] Setting up loss2/drop_fc
I0403 18:17:30.833946 21975 net.cpp:148] Top shape: 24 1024 (24576)
I0403 18:17:30.833961 21975 net.cpp:156] Memory required for data: 1208417568
I0403 18:17:30.833974 21975 layer_factory.hpp:77] Creating layer loss2/classifier_plantvillage
I0403 18:17:30.833997 21975 net.cpp:91] Creating Layer loss2/classifier_plantvillage
I0403 18:17:30.834012 21975 net.cpp:425] loss2/classifier_plantvillage <- loss2/fc
I0403 18:17:30.834033 21975 net.cpp:399] loss2/classifier_plantvillage -> loss2/classifier_plantvillage
I0403 18:17:30.834437 21975 net.cpp:141] Setting up loss2/classifier_plantvillage
I0403 18:17:30.834462 21975 net.cpp:148] Top shape: 24 38 (912)
I0403 18:17:30.834492 21975 net.cpp:156] Memory required for data: 1208421216
I0403 18:17:30.834511 21975 layer_factory.hpp:77] Creating layer loss2/classifier_plantvillage_loss2/classifier_plantvillage_0_split
I0403 18:17:30.834529 21975 net.cpp:91] Creating Layer loss2/classifier_plantvillage_loss2/classifier_plantvillage_0_split
I0403 18:17:30.834559 21975 net.cpp:425] loss2/classifier_plantvillage_loss2/classifier_plantvillage_0_split <- loss2/classifier_plantvillage
I0403 18:17:30.834578 21975 net.cpp:399] loss2/classifier_plantvillage_loss2/classifier_plantvillage_0_split -> loss2/classifier_plantvillage_loss2/classifier_plantvillage_0_split_0
I0403 18:17:30.834599 21975 net.cpp:399] loss2/classifier_plantvillage_loss2/classifier_plantvillage_0_split -> loss2/classifier_plantvillage_loss2/classifier_plantvillage_0_split_1
I0403 18:17:30.834620 21975 net.cpp:399] loss2/classifier_plantvillage_loss2/classifier_plantvillage_0_split -> loss2/classifier_plantvillage_loss2/classifier_plantvillage_0_split_2
I0403 18:17:30.834699 21975 net.cpp:141] Setting up loss2/classifier_plantvillage_loss2/classifier_plantvillage_0_split
I0403 18:17:30.834724 21975 net.cpp:148] Top shape: 24 38 (912)
I0403 18:17:30.834741 21975 net.cpp:148] Top shape: 24 38 (912)
I0403 18:17:30.834756 21975 net.cpp:148] Top shape: 24 38 (912)
I0403 18:17:30.834769 21975 net.cpp:156] Memory required for data: 1208432160
I0403 18:17:30.834784 21975 layer_factory.hpp:77] Creating layer inception_4e/1x1
I0403 18:17:30.834803 21975 net.cpp:91] Creating Layer inception_4e/1x1
I0403 18:17:30.834820 21975 net.cpp:425] inception_4e/1x1 <- inception_4d/output_inception_4d/output_0_split_1
I0403 18:17:30.834841 21975 net.cpp:399] inception_4e/1x1 -> inception_4e/1x1
I0403 18:17:30.836668 21975 net.cpp:141] Setting up inception_4e/1x1
I0403 18:17:30.836695 21975 net.cpp:148] Top shape: 24 256 14 14 (1204224)
I0403 18:17:30.836711 21975 net.cpp:156] Memory required for data: 1213249056
I0403 18:17:30.836730 21975 layer_factory.hpp:77] Creating layer inception_4e/relu_1x1
I0403 18:17:30.836746 21975 net.cpp:91] Creating Layer inception_4e/relu_1x1
I0403 18:17:30.836762 21975 net.cpp:425] inception_4e/relu_1x1 <- inception_4e/1x1
I0403 18:17:30.836781 21975 net.cpp:386] inception_4e/relu_1x1 -> inception_4e/1x1 (in-place)
I0403 18:17:30.837081 21975 net.cpp:141] Setting up inception_4e/relu_1x1
I0403 18:17:30.837107 21975 net.cpp:148] Top shape: 24 256 14 14 (1204224)
I0403 18:17:30.837122 21975 net.cpp:156] Memory required for data: 1218065952
I0403 18:17:30.837136 21975 layer_factory.hpp:77] Creating layer inception_4e/3x3_reduce
I0403 18:17:30.837158 21975 net.cpp:91] Creating Layer inception_4e/3x3_reduce
I0403 18:17:30.837177 21975 net.cpp:425] inception_4e/3x3_reduce <- inception_4d/output_inception_4d/output_0_split_2
I0403 18:17:30.837196 21975 net.cpp:399] inception_4e/3x3_reduce -> inception_4e/3x3_reduce
I0403 18:17:30.839365 21975 net.cpp:141] Setting up inception_4e/3x3_reduce
I0403 18:17:30.839397 21975 net.cpp:148] Top shape: 24 160 14 14 (752640)
I0403 18:17:30.839413 21975 net.cpp:156] Memory required for data: 1221076512
I0403 18:17:30.839432 21975 layer_factory.hpp:77] Creating layer inception_4e/relu_3x3_reduce
I0403 18:17:30.839449 21975 net.cpp:91] Creating Layer inception_4e/relu_3x3_reduce
I0403 18:17:30.839465 21975 net.cpp:425] inception_4e/relu_3x3_reduce <- inception_4e/3x3_reduce
I0403 18:17:30.839484 21975 net.cpp:386] inception_4e/relu_3x3_reduce -> inception_4e/3x3_reduce (in-place)
I0403 18:17:30.839678 21975 net.cpp:141] Setting up inception_4e/relu_3x3_reduce
I0403 18:17:30.839702 21975 net.cpp:148] Top shape: 24 160 14 14 (752640)
I0403 18:17:30.839717 21975 net.cpp:156] Memory required for data: 1224087072
I0403 18:17:30.839731 21975 layer_factory.hpp:77] Creating layer inception_4e/3x3
I0403 18:17:30.839753 21975 net.cpp:91] Creating Layer inception_4e/3x3
I0403 18:17:30.839771 21975 net.cpp:425] inception_4e/3x3 <- inception_4e/3x3_reduce
I0403 18:17:30.839790 21975 net.cpp:399] inception_4e/3x3 -> inception_4e/3x3
I0403 18:17:30.844835 21975 net.cpp:141] Setting up inception_4e/3x3
I0403 18:17:30.844878 21975 net.cpp:148] Top shape: 24 320 14 14 (1505280)
I0403 18:17:30.844895 21975 net.cpp:156] Memory required for data: 1230108192
I0403 18:17:30.844913 21975 layer_factory.hpp:77] Creating layer inception_4e/relu_3x3
I0403 18:17:30.844933 21975 net.cpp:91] Creating Layer inception_4e/relu_3x3
I0403 18:17:30.844950 21975 net.cpp:425] inception_4e/relu_3x3 <- inception_4e/3x3
I0403 18:17:30.844969 21975 net.cpp:386] inception_4e/relu_3x3 -> inception_4e/3x3 (in-place)
I0403 18:17:30.845269 21975 net.cpp:141] Setting up inception_4e/relu_3x3
I0403 18:17:30.845296 21975 net.cpp:148] Top shape: 24 320 14 14 (1505280)
I0403 18:17:30.845311 21975 net.cpp:156] Memory required for data: 1236129312
I0403 18:17:30.845325 21975 layer_factory.hpp:77] Creating layer inception_4e/5x5_reduce
I0403 18:17:30.845350 21975 net.cpp:91] Creating Layer inception_4e/5x5_reduce
I0403 18:17:30.845368 21975 net.cpp:425] inception_4e/5x5_reduce <- inception_4d/output_inception_4d/output_0_split_3
I0403 18:17:30.845387 21975 net.cpp:399] inception_4e/5x5_reduce -> inception_4e/5x5_reduce
I0403 18:17:30.846477 21975 net.cpp:141] Setting up inception_4e/5x5_reduce
I0403 18:17:30.846506 21975 net.cpp:148] Top shape: 24 32 14 14 (150528)
I0403 18:17:30.846521 21975 net.cpp:156] Memory required for data: 1236731424
I0403 18:17:30.846544 21975 layer_factory.hpp:77] Creating layer inception_4e/relu_5x5_reduce
I0403 18:17:30.846565 21975 net.cpp:91] Creating Layer inception_4e/relu_5x5_reduce
I0403 18:17:30.846581 21975 net.cpp:425] inception_4e/relu_5x5_reduce <- inception_4e/5x5_reduce
I0403 18:17:30.846601 21975 net.cpp:386] inception_4e/relu_5x5_reduce -> inception_4e/5x5_reduce (in-place)
I0403 18:17:30.846915 21975 net.cpp:141] Setting up inception_4e/relu_5x5_reduce
I0403 18:17:30.846940 21975 net.cpp:148] Top shape: 24 32 14 14 (150528)
I0403 18:17:30.846954 21975 net.cpp:156] Memory required for data: 1237333536
I0403 18:17:30.846969 21975 layer_factory.hpp:77] Creating layer inception_4e/5x5
I0403 18:17:30.847007 21975 net.cpp:91] Creating Layer inception_4e/5x5
I0403 18:17:30.847025 21975 net.cpp:425] inception_4e/5x5 <- inception_4e/5x5_reduce
I0403 18:17:30.847044 21975 net.cpp:399] inception_4e/5x5 -> inception_4e/5x5
I0403 18:17:30.848923 21975 net.cpp:141] Setting up inception_4e/5x5
I0403 18:17:30.848953 21975 net.cpp:148] Top shape: 24 128 14 14 (602112)
I0403 18:17:30.848969 21975 net.cpp:156] Memory required for data: 1239741984
I0403 18:17:30.848989 21975 layer_factory.hpp:77] Creating layer inception_4e/relu_5x5
I0403 18:17:30.849005 21975 net.cpp:91] Creating Layer inception_4e/relu_5x5
I0403 18:17:30.849021 21975 net.cpp:425] inception_4e/relu_5x5 <- inception_4e/5x5
I0403 18:17:30.849038 21975 net.cpp:386] inception_4e/relu_5x5 -> inception_4e/5x5 (in-place)
I0403 18:17:30.849242 21975 net.cpp:141] Setting up inception_4e/relu_5x5
I0403 18:17:30.849268 21975 net.cpp:148] Top shape: 24 128 14 14 (602112)
I0403 18:17:30.849283 21975 net.cpp:156] Memory required for data: 1242150432
I0403 18:17:30.849298 21975 layer_factory.hpp:77] Creating layer inception_4e/pool
I0403 18:17:30.849314 21975 net.cpp:91] Creating Layer inception_4e/pool
I0403 18:17:30.849329 21975 net.cpp:425] inception_4e/pool <- inception_4d/output_inception_4d/output_0_split_4
I0403 18:17:30.849349 21975 net.cpp:399] inception_4e/pool -> inception_4e/pool
I0403 18:17:30.849418 21975 net.cpp:141] Setting up inception_4e/pool
I0403 18:17:30.849443 21975 net.cpp:148] Top shape: 24 528 14 14 (2483712)
I0403 18:17:30.849458 21975 net.cpp:156] Memory required for data: 1252085280
I0403 18:17:30.849473 21975 layer_factory.hpp:77] Creating layer inception_4e/pool_proj
I0403 18:17:30.849494 21975 net.cpp:91] Creating Layer inception_4e/pool_proj
I0403 18:17:30.849512 21975 net.cpp:425] inception_4e/pool_proj <- inception_4e/pool
I0403 18:17:30.849529 21975 net.cpp:399] inception_4e/pool_proj -> inception_4e/pool_proj
I0403 18:17:30.851057 21975 net.cpp:141] Setting up inception_4e/pool_proj
I0403 18:17:30.851099 21975 net.cpp:148] Top shape: 24 128 14 14 (602112)
I0403 18:17:30.851115 21975 net.cpp:156] Memory required for data: 1254493728
I0403 18:17:30.851133 21975 layer_factory.hpp:77] Creating layer inception_4e/relu_pool_proj
I0403 18:17:30.851150 21975 net.cpp:91] Creating Layer inception_4e/relu_pool_proj
I0403 18:17:30.851167 21975 net.cpp:425] inception_4e/relu_pool_proj <- inception_4e/pool_proj
I0403 18:17:30.851184 21975 net.cpp:386] inception_4e/relu_pool_proj -> inception_4e/pool_proj (in-place)
I0403 18:17:30.851485 21975 net.cpp:141] Setting up inception_4e/relu_pool_proj
I0403 18:17:30.851513 21975 net.cpp:148] Top shape: 24 128 14 14 (602112)
I0403 18:17:30.851529 21975 net.cpp:156] Memory required for data: 1256902176
I0403 18:17:30.851549 21975 layer_factory.hpp:77] Creating layer inception_4e/output
I0403 18:17:30.851567 21975 net.cpp:91] Creating Layer inception_4e/output
I0403 18:17:30.851583 21975 net.cpp:425] inception_4e/output <- inception_4e/1x1
I0403 18:17:30.851598 21975 net.cpp:425] inception_4e/output <- inception_4e/3x3
I0403 18:17:30.851614 21975 net.cpp:425] inception_4e/output <- inception_4e/5x5
I0403 18:17:30.851629 21975 net.cpp:425] inception_4e/output <- inception_4e/pool_proj
I0403 18:17:30.851646 21975 net.cpp:399] inception_4e/output -> inception_4e/output
I0403 18:17:30.851697 21975 net.cpp:141] Setting up inception_4e/output
I0403 18:17:30.851722 21975 net.cpp:148] Top shape: 24 832 14 14 (3913728)
I0403 18:17:30.851735 21975 net.cpp:156] Memory required for data: 1272557088
I0403 18:17:30.851749 21975 layer_factory.hpp:77] Creating layer pool4/3x3_s2
I0403 18:17:30.851768 21975 net.cpp:91] Creating Layer pool4/3x3_s2
I0403 18:17:30.851784 21975 net.cpp:425] pool4/3x3_s2 <- inception_4e/output
I0403 18:17:30.851802 21975 net.cpp:399] pool4/3x3_s2 -> pool4/3x3_s2
I0403 18:17:30.851871 21975 net.cpp:141] Setting up pool4/3x3_s2
I0403 18:17:30.851893 21975 net.cpp:148] Top shape: 24 832 7 7 (978432)
I0403 18:17:30.851908 21975 net.cpp:156] Memory required for data: 1276470816
I0403 18:17:30.851922 21975 layer_factory.hpp:77] Creating layer pool4/3x3_s2_pool4/3x3_s2_0_split
I0403 18:17:30.851938 21975 net.cpp:91] Creating Layer pool4/3x3_s2_pool4/3x3_s2_0_split
I0403 18:17:30.851953 21975 net.cpp:425] pool4/3x3_s2_pool4/3x3_s2_0_split <- pool4/3x3_s2
I0403 18:17:30.851974 21975 net.cpp:399] pool4/3x3_s2_pool4/3x3_s2_0_split -> pool4/3x3_s2_pool4/3x3_s2_0_split_0
I0403 18:17:30.851994 21975 net.cpp:399] pool4/3x3_s2_pool4/3x3_s2_0_split -> pool4/3x3_s2_pool4/3x3_s2_0_split_1
I0403 18:17:30.852015 21975 net.cpp:399] pool4/3x3_s2_pool4/3x3_s2_0_split -> pool4/3x3_s2_pool4/3x3_s2_0_split_2
I0403 18:17:30.852035 21975 net.cpp:399] pool4/3x3_s2_pool4/3x3_s2_0_split -> pool4/3x3_s2_pool4/3x3_s2_0_split_3
I0403 18:17:30.852126 21975 net.cpp:141] Setting up pool4/3x3_s2_pool4/3x3_s2_0_split
I0403 18:17:30.852151 21975 net.cpp:148] Top shape: 24 832 7 7 (978432)
I0403 18:17:30.852169 21975 net.cpp:148] Top shape: 24 832 7 7 (978432)
I0403 18:17:30.852185 21975 net.cpp:148] Top shape: 24 832 7 7 (978432)
I0403 18:17:30.852200 21975 net.cpp:148] Top shape: 24 832 7 7 (978432)
I0403 18:17:30.852213 21975 net.cpp:156] Memory required for data: 1292125728
I0403 18:17:30.852227 21975 layer_factory.hpp:77] Creating layer inception_5a/1x1
I0403 18:17:30.852249 21975 net.cpp:91] Creating Layer inception_5a/1x1
I0403 18:17:30.852268 21975 net.cpp:425] inception_5a/1x1 <- pool4/3x3_s2_pool4/3x3_s2_0_split_0
I0403 18:17:30.852288 21975 net.cpp:399] inception_5a/1x1 -> inception_5a/1x1
I0403 18:17:30.855180 21975 net.cpp:141] Setting up inception_5a/1x1
I0403 18:17:30.855211 21975 net.cpp:148] Top shape: 24 256 7 7 (301056)
I0403 18:17:30.855228 21975 net.cpp:156] Memory required for data: 1293329952
I0403 18:17:30.855247 21975 layer_factory.hpp:77] Creating layer inception_5a/relu_1x1
I0403 18:17:30.855268 21975 net.cpp:91] Creating Layer inception_5a/relu_1x1
I0403 18:17:30.855283 21975 net.cpp:425] inception_5a/relu_1x1 <- inception_5a/1x1
I0403 18:17:30.855304 21975 net.cpp:386] inception_5a/relu_1x1 -> inception_5a/1x1 (in-place)
I0403 18:17:30.855626 21975 net.cpp:141] Setting up inception_5a/relu_1x1
I0403 18:17:30.855654 21975 net.cpp:148] Top shape: 24 256 7 7 (301056)
I0403 18:17:30.855670 21975 net.cpp:156] Memory required for data: 1294534176
I0403 18:17:30.855685 21975 layer_factory.hpp:77] Creating layer inception_5a/3x3_reduce
I0403 18:17:30.855708 21975 net.cpp:91] Creating Layer inception_5a/3x3_reduce
I0403 18:17:30.855726 21975 net.cpp:425] inception_5a/3x3_reduce <- pool4/3x3_s2_pool4/3x3_s2_0_split_1
I0403 18:17:30.855744 21975 net.cpp:399] inception_5a/3x3_reduce -> inception_5a/3x3_reduce
I0403 18:17:30.858225 21975 net.cpp:141] Setting up inception_5a/3x3_reduce
I0403 18:17:30.858256 21975 net.cpp:148] Top shape: 24 160 7 7 (188160)
I0403 18:17:30.858273 21975 net.cpp:156] Memory required for data: 1295286816
I0403 18:17:30.858290 21975 layer_factory.hpp:77] Creating layer inception_5a/relu_3x3_reduce
I0403 18:17:30.858310 21975 net.cpp:91] Creating Layer inception_5a/relu_3x3_reduce
I0403 18:17:30.858327 21975 net.cpp:425] inception_5a/relu_3x3_reduce <- inception_5a/3x3_reduce
I0403 18:17:30.858345 21975 net.cpp:386] inception_5a/relu_3x3_reduce -> inception_5a/3x3_reduce (in-place)
I0403 18:17:30.858542 21975 net.cpp:141] Setting up inception_5a/relu_3x3_reduce
I0403 18:17:30.858571 21975 net.cpp:148] Top shape: 24 160 7 7 (188160)
I0403 18:17:30.858585 21975 net.cpp:156] Memory required for data: 1296039456
I0403 18:17:30.858600 21975 layer_factory.hpp:77] Creating layer inception_5a/3x3
I0403 18:17:30.858623 21975 net.cpp:91] Creating Layer inception_5a/3x3
I0403 18:17:30.858640 21975 net.cpp:425] inception_5a/3x3 <- inception_5a/3x3_reduce
I0403 18:17:30.858659 21975 net.cpp:399] inception_5a/3x3 -> inception_5a/3x3
I0403 18:17:30.863826 21975 net.cpp:141] Setting up inception_5a/3x3
I0403 18:17:30.863862 21975 net.cpp:148] Top shape: 24 320 7 7 (376320)
I0403 18:17:30.863878 21975 net.cpp:156] Memory required for data: 1297544736
I0403 18:17:30.863895 21975 layer_factory.hpp:77] Creating layer inception_5a/relu_3x3
I0403 18:17:30.863914 21975 net.cpp:91] Creating Layer inception_5a/relu_3x3
I0403 18:17:30.863930 21975 net.cpp:425] inception_5a/relu_3x3 <- inception_5a/3x3
I0403 18:17:30.863950 21975 net.cpp:386] inception_5a/relu_3x3 -> inception_5a/3x3 (in-place)
I0403 18:17:30.864250 21975 net.cpp:141] Setting up inception_5a/relu_3x3
I0403 18:17:30.864279 21975 net.cpp:148] Top shape: 24 320 7 7 (376320)
I0403 18:17:30.864295 21975 net.cpp:156] Memory required for data: 1299050016
I0403 18:17:30.864308 21975 layer_factory.hpp:77] Creating layer inception_5a/5x5_reduce
I0403 18:17:30.864331 21975 net.cpp:91] Creating Layer inception_5a/5x5_reduce
I0403 18:17:30.864347 21975 net.cpp:425] inception_5a/5x5_reduce <- pool4/3x3_s2_pool4/3x3_s2_0_split_2
I0403 18:17:30.864369 21975 net.cpp:399] inception_5a/5x5_reduce -> inception_5a/5x5_reduce
I0403 18:17:30.865576 21975 net.cpp:141] Setting up inception_5a/5x5_reduce
I0403 18:17:30.865607 21975 net.cpp:148] Top shape: 24 32 7 7 (37632)
I0403 18:17:30.865623 21975 net.cpp:156] Memory required for data: 1299200544
I0403 18:17:30.865643 21975 layer_factory.hpp:77] Creating layer inception_5a/relu_5x5_reduce
I0403 18:17:30.865659 21975 net.cpp:91] Creating Layer inception_5a/relu_5x5_reduce
I0403 18:17:30.865675 21975 net.cpp:425] inception_5a/relu_5x5_reduce <- inception_5a/5x5_reduce
I0403 18:17:30.865695 21975 net.cpp:386] inception_5a/relu_5x5_reduce -> inception_5a/5x5_reduce (in-place)
I0403 18:17:30.866000 21975 net.cpp:141] Setting up inception_5a/relu_5x5_reduce
I0403 18:17:30.866025 21975 net.cpp:148] Top shape: 24 32 7 7 (37632)
I0403 18:17:30.866040 21975 net.cpp:156] Memory required for data: 1299351072
I0403 18:17:30.866055 21975 layer_factory.hpp:77] Creating layer inception_5a/5x5
I0403 18:17:30.866077 21975 net.cpp:91] Creating Layer inception_5a/5x5
I0403 18:17:30.866096 21975 net.cpp:425] inception_5a/5x5 <- inception_5a/5x5_reduce
I0403 18:17:30.866117 21975 net.cpp:399] inception_5a/5x5 -> inception_5a/5x5
I0403 18:17:30.867859 21975 net.cpp:141] Setting up inception_5a/5x5
I0403 18:17:30.867902 21975 net.cpp:148] Top shape: 24 128 7 7 (150528)
I0403 18:17:30.867919 21975 net.cpp:156] Memory required for data: 1299953184
I0403 18:17:30.867938 21975 layer_factory.hpp:77] Creating layer inception_5a/relu_5x5
I0403 18:17:30.867955 21975 net.cpp:91] Creating Layer inception_5a/relu_5x5
I0403 18:17:30.867971 21975 net.cpp:425] inception_5a/relu_5x5 <- inception_5a/5x5
I0403 18:17:30.867990 21975 net.cpp:386] inception_5a/relu_5x5 -> inception_5a/5x5 (in-place)
I0403 18:17:30.868185 21975 net.cpp:141] Setting up inception_5a/relu_5x5
I0403 18:17:30.868211 21975 net.cpp:148] Top shape: 24 128 7 7 (150528)
I0403 18:17:30.868224 21975 net.cpp:156] Memory required for data: 1300555296
I0403 18:17:30.868238 21975 layer_factory.hpp:77] Creating layer inception_5a/pool
I0403 18:17:30.868255 21975 net.cpp:91] Creating Layer inception_5a/pool
I0403 18:17:30.868270 21975 net.cpp:425] inception_5a/pool <- pool4/3x3_s2_pool4/3x3_s2_0_split_3
I0403 18:17:30.868293 21975 net.cpp:399] inception_5a/pool -> inception_5a/pool
I0403 18:17:30.868362 21975 net.cpp:141] Setting up inception_5a/pool
I0403 18:17:30.868386 21975 net.cpp:148] Top shape: 24 832 7 7 (978432)
I0403 18:17:30.868401 21975 net.cpp:156] Memory required for data: 1304469024
I0403 18:17:30.868414 21975 layer_factory.hpp:77] Creating layer inception_5a/pool_proj
I0403 18:17:30.868435 21975 net.cpp:91] Creating Layer inception_5a/pool_proj
I0403 18:17:30.868453 21975 net.cpp:425] inception_5a/pool_proj <- inception_5a/pool
I0403 18:17:30.868474 21975 net.cpp:399] inception_5a/pool_proj -> inception_5a/pool_proj
I0403 18:17:30.870795 21975 net.cpp:141] Setting up inception_5a/pool_proj
I0403 18:17:30.870826 21975 net.cpp:148] Top shape: 24 128 7 7 (150528)
I0403 18:17:30.870841 21975 net.cpp:156] Memory required for data: 1305071136
I0403 18:17:30.870858 21975 layer_factory.hpp:77] Creating layer inception_5a/relu_pool_proj
I0403 18:17:30.870878 21975 net.cpp:91] Creating Layer inception_5a/relu_pool_proj
I0403 18:17:30.870895 21975 net.cpp:425] inception_5a/relu_pool_proj <- inception_5a/pool_proj
I0403 18:17:30.870913 21975 net.cpp:386] inception_5a/relu_pool_proj -> inception_5a/pool_proj (in-place)
I0403 18:17:30.871213 21975 net.cpp:141] Setting up inception_5a/relu_pool_proj
I0403 18:17:30.871238 21975 net.cpp:148] Top shape: 24 128 7 7 (150528)
I0403 18:17:30.871253 21975 net.cpp:156] Memory required for data: 1305673248
I0403 18:17:30.871268 21975 layer_factory.hpp:77] Creating layer inception_5a/output
I0403 18:17:30.871287 21975 net.cpp:91] Creating Layer inception_5a/output
I0403 18:17:30.871304 21975 net.cpp:425] inception_5a/output <- inception_5a/1x1
I0403 18:17:30.871320 21975 net.cpp:425] inception_5a/output <- inception_5a/3x3
I0403 18:17:30.871336 21975 net.cpp:425] inception_5a/output <- inception_5a/5x5
I0403 18:17:30.871351 21975 net.cpp:425] inception_5a/output <- inception_5a/pool_proj
I0403 18:17:30.871367 21975 net.cpp:399] inception_5a/output -> inception_5a/output
I0403 18:17:30.871418 21975 net.cpp:141] Setting up inception_5a/output
I0403 18:17:30.871443 21975 net.cpp:148] Top shape: 24 832 7 7 (978432)
I0403 18:17:30.871456 21975 net.cpp:156] Memory required for data: 1309586976
I0403 18:17:30.871470 21975 layer_factory.hpp:77] Creating layer inception_5a/output_inception_5a/output_0_split
I0403 18:17:30.871486 21975 net.cpp:91] Creating Layer inception_5a/output_inception_5a/output_0_split
I0403 18:17:30.871500 21975 net.cpp:425] inception_5a/output_inception_5a/output_0_split <- inception_5a/output
I0403 18:17:30.871520 21975 net.cpp:399] inception_5a/output_inception_5a/output_0_split -> inception_5a/output_inception_5a/output_0_split_0
I0403 18:17:30.871546 21975 net.cpp:399] inception_5a/output_inception_5a/output_0_split -> inception_5a/output_inception_5a/output_0_split_1
I0403 18:17:30.871567 21975 net.cpp:399] inception_5a/output_inception_5a/output_0_split -> inception_5a/output_inception_5a/output_0_split_2
I0403 18:17:30.871588 21975 net.cpp:399] inception_5a/output_inception_5a/output_0_split -> inception_5a/output_inception_5a/output_0_split_3
I0403 18:17:30.871703 21975 net.cpp:141] Setting up inception_5a/output_inception_5a/output_0_split
I0403 18:17:30.871727 21975 net.cpp:148] Top shape: 24 832 7 7 (978432)
I0403 18:17:30.871743 21975 net.cpp:148] Top shape: 24 832 7 7 (978432)
I0403 18:17:30.871758 21975 net.cpp:148] Top shape: 24 832 7 7 (978432)
I0403 18:17:30.871773 21975 net.cpp:148] Top shape: 24 832 7 7 (978432)
I0403 18:17:30.871788 21975 net.cpp:156] Memory required for data: 1325241888
I0403 18:17:30.871800 21975 layer_factory.hpp:77] Creating layer inception_5b/1x1
I0403 18:17:30.871822 21975 net.cpp:91] Creating Layer inception_5b/1x1
I0403 18:17:30.871840 21975 net.cpp:425] inception_5b/1x1 <- inception_5a/output_inception_5a/output_0_split_0
I0403 18:17:30.871860 21975 net.cpp:399] inception_5b/1x1 -> inception_5b/1x1
I0403 18:17:30.875669 21975 net.cpp:141] Setting up inception_5b/1x1
I0403 18:17:30.875699 21975 net.cpp:148] Top shape: 24 384 7 7 (451584)
I0403 18:17:30.875715 21975 net.cpp:156] Memory required for data: 1327048224
I0403 18:17:30.875732 21975 layer_factory.hpp:77] Creating layer inception_5b/relu_1x1
I0403 18:17:30.875753 21975 net.cpp:91] Creating Layer inception_5b/relu_1x1
I0403 18:17:30.875771 21975 net.cpp:425] inception_5b/relu_1x1 <- inception_5b/1x1
I0403 18:17:30.875787 21975 net.cpp:386] inception_5b/relu_1x1 -> inception_5b/1x1 (in-place)
I0403 18:17:30.876099 21975 net.cpp:141] Setting up inception_5b/relu_1x1
I0403 18:17:30.876124 21975 net.cpp:148] Top shape: 24 384 7 7 (451584)
I0403 18:17:30.876139 21975 net.cpp:156] Memory required for data: 1328854560
I0403 18:17:30.876153 21975 layer_factory.hpp:77] Creating layer inception_5b/3x3_reduce
I0403 18:17:30.876176 21975 net.cpp:91] Creating Layer inception_5b/3x3_reduce
I0403 18:17:30.876194 21975 net.cpp:425] inception_5b/3x3_reduce <- inception_5a/output_inception_5a/output_0_split_1
I0403 18:17:30.876214 21975 net.cpp:399] inception_5b/3x3_reduce -> inception_5b/3x3_reduce
I0403 18:17:30.878928 21975 net.cpp:141] Setting up inception_5b/3x3_reduce
I0403 18:17:30.878958 21975 net.cpp:148] Top shape: 24 192 7 7 (225792)
I0403 18:17:30.878974 21975 net.cpp:156] Memory required for data: 1329757728
I0403 18:17:30.878993 21975 layer_factory.hpp:77] Creating layer inception_5b/relu_3x3_reduce
I0403 18:17:30.879012 21975 net.cpp:91] Creating Layer inception_5b/relu_3x3_reduce
I0403 18:17:30.879030 21975 net.cpp:425] inception_5b/relu_3x3_reduce <- inception_5b/3x3_reduce
I0403 18:17:30.879047 21975 net.cpp:386] inception_5b/relu_3x3_reduce -> inception_5b/3x3_reduce (in-place)
I0403 18:17:30.879241 21975 net.cpp:141] Setting up inception_5b/relu_3x3_reduce
I0403 18:17:30.879267 21975 net.cpp:148] Top shape: 24 192 7 7 (225792)
I0403 18:17:30.879282 21975 net.cpp:156] Memory required for data: 1330660896
I0403 18:17:30.879297 21975 layer_factory.hpp:77] Creating layer inception_5b/3x3
I0403 18:17:30.879322 21975 net.cpp:91] Creating Layer inception_5b/3x3
I0403 18:17:30.879338 21975 net.cpp:425] inception_5b/3x3 <- inception_5b/3x3_reduce
I0403 18:17:30.879360 21975 net.cpp:399] inception_5b/3x3 -> inception_5b/3x3
I0403 18:17:30.885993 21975 net.cpp:141] Setting up inception_5b/3x3
I0403 18:17:30.886023 21975 net.cpp:148] Top shape: 24 384 7 7 (451584)
I0403 18:17:30.886039 21975 net.cpp:156] Memory required for data: 1332467232
I0403 18:17:30.886059 21975 layer_factory.hpp:77] Creating layer inception_5b/relu_3x3
I0403 18:17:30.886076 21975 net.cpp:91] Creating Layer inception_5b/relu_3x3
I0403 18:17:30.886092 21975 net.cpp:425] inception_5b/relu_3x3 <- inception_5b/3x3
I0403 18:17:30.886108 21975 net.cpp:386] inception_5b/relu_3x3 -> inception_5b/3x3 (in-place)
I0403 18:17:30.886406 21975 net.cpp:141] Setting up inception_5b/relu_3x3
I0403 18:17:30.886431 21975 net.cpp:148] Top shape: 24 384 7 7 (451584)
I0403 18:17:30.886446 21975 net.cpp:156] Memory required for data: 1334273568
I0403 18:17:30.886459 21975 layer_factory.hpp:77] Creating layer inception_5b/5x5_reduce
I0403 18:17:30.886498 21975 net.cpp:91] Creating Layer inception_5b/5x5_reduce
I0403 18:17:30.886518 21975 net.cpp:425] inception_5b/5x5_reduce <- inception_5a/output_inception_5a/output_0_split_2
I0403 18:17:30.886539 21975 net.cpp:399] inception_5b/5x5_reduce -> inception_5b/5x5_reduce
I0403 18:17:30.887794 21975 net.cpp:141] Setting up inception_5b/5x5_reduce
I0403 18:17:30.887822 21975 net.cpp:148] Top shape: 24 48 7 7 (56448)
I0403 18:17:30.887838 21975 net.cpp:156] Memory required for data: 1334499360
I0403 18:17:30.887856 21975 layer_factory.hpp:77] Creating layer inception_5b/relu_5x5_reduce
I0403 18:17:30.887873 21975 net.cpp:91] Creating Layer inception_5b/relu_5x5_reduce
I0403 18:17:30.887889 21975 net.cpp:425] inception_5b/relu_5x5_reduce <- inception_5b/5x5_reduce
I0403 18:17:30.887907 21975 net.cpp:386] inception_5b/relu_5x5_reduce -> inception_5b/5x5_reduce (in-place)
I0403 18:17:30.888278 21975 net.cpp:141] Setting up inception_5b/relu_5x5_reduce
I0403 18:17:30.888303 21975 net.cpp:148] Top shape: 24 48 7 7 (56448)
I0403 18:17:30.888319 21975 net.cpp:156] Memory required for data: 1334725152
I0403 18:17:30.888332 21975 layer_factory.hpp:77] Creating layer inception_5b/5x5
I0403 18:17:30.888352 21975 net.cpp:91] Creating Layer inception_5b/5x5
I0403 18:17:30.888368 21975 net.cpp:425] inception_5b/5x5 <- inception_5b/5x5_reduce
I0403 18:17:30.888386 21975 net.cpp:399] inception_5b/5x5 -> inception_5b/5x5
I0403 18:17:30.890400 21975 net.cpp:141] Setting up inception_5b/5x5
I0403 18:17:30.890430 21975 net.cpp:148] Top shape: 24 128 7 7 (150528)
I0403 18:17:30.890446 21975 net.cpp:156] Memory required for data: 1335327264
I0403 18:17:30.890463 21975 layer_factory.hpp:77] Creating layer inception_5b/relu_5x5
I0403 18:17:30.890481 21975 net.cpp:91] Creating Layer inception_5b/relu_5x5
I0403 18:17:30.890497 21975 net.cpp:425] inception_5b/relu_5x5 <- inception_5b/5x5
I0403 18:17:30.890516 21975 net.cpp:386] inception_5b/relu_5x5 -> inception_5b/5x5 (in-place)
I0403 18:17:30.890712 21975 net.cpp:141] Setting up inception_5b/relu_5x5
I0403 18:17:30.890735 21975 net.cpp:148] Top shape: 24 128 7 7 (150528)
I0403 18:17:30.890749 21975 net.cpp:156] Memory required for data: 1335929376
I0403 18:17:30.890763 21975 layer_factory.hpp:77] Creating layer inception_5b/pool
I0403 18:17:30.890779 21975 net.cpp:91] Creating Layer inception_5b/pool
I0403 18:17:30.890795 21975 net.cpp:425] inception_5b/pool <- inception_5a/output_inception_5a/output_0_split_3
I0403 18:17:30.890815 21975 net.cpp:399] inception_5b/pool -> inception_5b/pool
I0403 18:17:30.890887 21975 net.cpp:141] Setting up inception_5b/pool
I0403 18:17:30.890911 21975 net.cpp:148] Top shape: 24 832 7 7 (978432)
I0403 18:17:30.890925 21975 net.cpp:156] Memory required for data: 1339843104
I0403 18:17:30.890939 21975 layer_factory.hpp:77] Creating layer inception_5b/pool_proj
I0403 18:17:30.890961 21975 net.cpp:91] Creating Layer inception_5b/pool_proj
I0403 18:17:30.890977 21975 net.cpp:425] inception_5b/pool_proj <- inception_5b/pool
I0403 18:17:30.890995 21975 net.cpp:399] inception_5b/pool_proj -> inception_5b/pool_proj
I0403 18:17:30.893327 21975 net.cpp:141] Setting up inception_5b/pool_proj
I0403 18:17:30.893359 21975 net.cpp:148] Top shape: 24 128 7 7 (150528)
I0403 18:17:30.893375 21975 net.cpp:156] Memory required for data: 1340445216
I0403 18:17:30.893393 21975 layer_factory.hpp:77] Creating layer inception_5b/relu_pool_proj
I0403 18:17:30.893411 21975 net.cpp:91] Creating Layer inception_5b/relu_pool_proj
I0403 18:17:30.893427 21975 net.cpp:425] inception_5b/relu_pool_proj <- inception_5b/pool_proj
I0403 18:17:30.893443 21975 net.cpp:386] inception_5b/relu_pool_proj -> inception_5b/pool_proj (in-place)
I0403 18:17:30.893744 21975 net.cpp:141] Setting up inception_5b/relu_pool_proj
I0403 18:17:30.893772 21975 net.cpp:148] Top shape: 24 128 7 7 (150528)
I0403 18:17:30.893789 21975 net.cpp:156] Memory required for data: 1341047328
I0403 18:17:30.893802 21975 layer_factory.hpp:77] Creating layer inception_5b/output
I0403 18:17:30.893820 21975 net.cpp:91] Creating Layer inception_5b/output
I0403 18:17:30.893849 21975 net.cpp:425] inception_5b/output <- inception_5b/1x1
I0403 18:17:30.893867 21975 net.cpp:425] inception_5b/output <- inception_5b/3x3
I0403 18:17:30.893882 21975 net.cpp:425] inception_5b/output <- inception_5b/5x5
I0403 18:17:30.893898 21975 net.cpp:425] inception_5b/output <- inception_5b/pool_proj
I0403 18:17:30.893914 21975 net.cpp:399] inception_5b/output -> inception_5b/output
I0403 18:17:30.893966 21975 net.cpp:141] Setting up inception_5b/output
I0403 18:17:30.893990 21975 net.cpp:148] Top shape: 24 1024 7 7 (1204224)
I0403 18:17:30.894004 21975 net.cpp:156] Memory required for data: 1345864224
I0403 18:17:30.894018 21975 layer_factory.hpp:77] Creating layer pool5/7x7_s1
I0403 18:17:30.894037 21975 net.cpp:91] Creating Layer pool5/7x7_s1
I0403 18:17:30.894054 21975 net.cpp:425] pool5/7x7_s1 <- inception_5b/output
I0403 18:17:30.894071 21975 net.cpp:399] pool5/7x7_s1 -> pool5/7x7_s1
I0403 18:17:30.894287 21975 net.cpp:141] Setting up pool5/7x7_s1
I0403 18:17:30.894312 21975 net.cpp:148] Top shape: 24 1024 1 1 (24576)
I0403 18:17:30.894327 21975 net.cpp:156] Memory required for data: 1345962528
I0403 18:17:30.894341 21975 layer_factory.hpp:77] Creating layer pool5/drop_7x7_s1
I0403 18:17:30.894358 21975 net.cpp:91] Creating Layer pool5/drop_7x7_s1
I0403 18:17:30.894373 21975 net.cpp:425] pool5/drop_7x7_s1 <- pool5/7x7_s1
I0403 18:17:30.894392 21975 net.cpp:386] pool5/drop_7x7_s1 -> pool5/7x7_s1 (in-place)
I0403 18:17:30.894440 21975 net.cpp:141] Setting up pool5/drop_7x7_s1
I0403 18:17:30.894464 21975 net.cpp:148] Top shape: 24 1024 1 1 (24576)
I0403 18:17:30.894476 21975 net.cpp:156] Memory required for data: 1346060832
I0403 18:17:30.894490 21975 layer_factory.hpp:77] Creating layer loss3/classifier_plantvillage
I0403 18:17:30.894510 21975 net.cpp:91] Creating Layer loss3/classifier_plantvillage
I0403 18:17:30.894526 21975 net.cpp:425] loss3/classifier_plantvillage <- pool5/7x7_s1
I0403 18:17:30.894559 21975 net.cpp:399] loss3/classifier_plantvillage -> loss3/classifier_plantvillage
I0403 18:17:30.895012 21975 net.cpp:141] Setting up loss3/classifier_plantvillage
I0403 18:17:30.895036 21975 net.cpp:148] Top shape: 24 38 (912)
I0403 18:17:30.895051 21975 net.cpp:156] Memory required for data: 1346064480
I0403 18:17:30.895068 21975 layer_factory.hpp:77] Creating layer loss3/classifier_plantvillage_loss3/classifier_plantvillage_0_split
I0403 18:17:30.895086 21975 net.cpp:91] Creating Layer loss3/classifier_plantvillage_loss3/classifier_plantvillage_0_split
I0403 18:17:30.895100 21975 net.cpp:425] loss3/classifier_plantvillage_loss3/classifier_plantvillage_0_split <- loss3/classifier_plantvillage
I0403 18:17:30.895119 21975 net.cpp:399] loss3/classifier_plantvillage_loss3/classifier_plantvillage_0_split -> loss3/classifier_plantvillage_loss3/classifier_plantvillage_0_split_0
I0403 18:17:30.895139 21975 net.cpp:399] loss3/classifier_plantvillage_loss3/classifier_plantvillage_0_split -> loss3/classifier_plantvillage_loss3/classifier_plantvillage_0_split_1
I0403 18:17:30.895159 21975 net.cpp:399] loss3/classifier_plantvillage_loss3/classifier_plantvillage_0_split -> loss3/classifier_plantvillage_loss3/classifier_plantvillage_0_split_2
I0403 18:17:30.895182 21975 net.cpp:399] loss3/classifier_plantvillage_loss3/classifier_plantvillage_0_split -> loss3/classifier_plantvillage_loss3/classifier_plantvillage_0_split_3
I0403 18:17:30.895282 21975 net.cpp:141] Setting up loss3/classifier_plantvillage_loss3/classifier_plantvillage_0_split
I0403 18:17:30.895306 21975 net.cpp:148] Top shape: 24 38 (912)
I0403 18:17:30.895321 21975 net.cpp:148] Top shape: 24 38 (912)
I0403 18:17:30.895335 21975 net.cpp:148] Top shape: 24 38 (912)
I0403 18:17:30.895350 21975 net.cpp:148] Top shape: 24 38 (912)
I0403 18:17:30.895364 21975 net.cpp:156] Memory required for data: 1346079072
I0403 18:17:30.895376 21975 layer_factory.hpp:77] Creating layer loss1/loss
I0403 18:17:30.895397 21975 net.cpp:91] Creating Layer loss1/loss
I0403 18:17:30.895414 21975 net.cpp:425] loss1/loss <- loss1/classifier_plantvillage_loss1/classifier_plantvillage_0_split_0
I0403 18:17:30.895444 21975 net.cpp:425] loss1/loss <- label_data_1_split_0
…
