…
I0403 18:27:47.204815 22477 net.cpp:313] The NetState phase (1) differed from the phase (0) specified by a rule in layer data
I0403 18:27:47.205929 22477 net.cpp:49] Initializing net from parameters: 
state {
  phase: TEST
}
layer {
  name: "data"
  type: "Data"
  top: "data"
  top: "label"
  include {
    phase: TEST
  }
  transform_param {
    mirror: false
    crop_size: 224
    mean_file: "/home/mohanty/data/final_dataset/lmdb/segmented-40-60/mean.binaryproto"
  }
  data_param {
    source: "/home/mohanty/data/final_dataset/lmdb/segmented-40-60/test_db"
    batch_size: 24
    backend: LMDB
  }
}
layer {
  name: "conv1/7x7_s2"
  type: "Convolution"
  bottom: "data"
  top: "conv1/7x7_s2"
  param {
    lr_mult: 1
    decay_mult: 1
  }
  param {
    lr_mult: 2
    decay_mult: 0
  }
  convolution_param {
    num_output: 64
    pad: 3
    kernel_size: 7
    stride: 2
    weight_filler {
      type: "xavier"
      std: 0.1
    }
    bias_filler {
      type: "constant"
      value: 0.2
    }
  }
}
layer {
  name: "conv1/relu_7x7"
  type: "ReLU"
  bottom: "conv1/7x7_s2"
  top: "conv1/7x7_s2"
}
layer {
  name: "pool1/3x3_s2"
  type: "Pooling"
  bottom: "conv1/7x7_s2"
  top: "pool1/3x3_s2"
  pooling_param {
    pool: MAX
    kernel_size: 3
    stride: 2
  }
}
layer {
  name: "pool1/norm1"
  type: "LRN"
  bottom: "pool1/3x3_s2"
  top: "pool1/norm1"
  lrn_param {
    local_size: 5
    alpha: 0.0001
    beta: 0.75
  }
}
layer {
  name: "conv2/3x3_reduce"
  type: "Convolution"
  bottom: "pool1/norm1"
  top: "conv2/3x3_reduce"
  param {
    lr_mult: 1
    decay_mult: 1
  }
  param {
    lr_mult: 2
    decay_mult: 0
  }
  convolution_param {
    num_output: 64
    kernel_size: 1
    weight_filler {
      type: "xavier"
      std: 0.1
    }
    bias_filler {
      type: "constant"
      value: 0.2
    }
  }
}
layer {
  name: "conv2/relu_3x3_reduce"
  type: "ReLU"
  bottom: "conv2/3x3_reduce"
  top: "conv2/3x3_reduce"
}
layer {
  name: "conv2/3x3"
  type: "Convolution"
  bottom: "conv2/3x3_reduce"
  top: "conv2/3x3"
  param {
    lr_mult: 1
    decay_mult: 1
  }
  param {
    lr_mult: 2
    decay_mult: 0
  }
  convolution_param {
    num_output: 192
    pad: 1
    kernel_size: 3
    weight_filler {
      type: "xavier"
      std: 0.03
    }
    bias_filler {
      type: "constant"
      value: 0.2
    }
  }
}
layer {
  name: "conv2/relu_3x3"
  type: "ReLU"
  bottom: "conv2/3x3"
  top: "conv2/3x3"
}
layer {
  name: "conv2/norm2"
  type: "LRN"
  bottom: "conv2/3x3"
  top: "conv2/norm2"
  lrn_param {
    local_size: 5
    alpha: 0.0001
    beta: 0.75
  }
}
layer {
  name: "pool2/3x3_s2"
  type: "Pooling"
  bottom: "conv2/norm2"
  top: "pool2/3x3_s2"
  pooling_param {
    pool: MAX
    kernel_size: 3
    stride: 2
  }
}
layer {
  name: "inception_3a/1x1"
  type: "Convolution"
  bottom: "pool2/3x3_s2"
  top: "inception_3a/1x1"
  param {
    lr_mult: 1
    decay_mult: 1
  }
  param {
    lr_mult: 2
    decay_mult: 0
  }
  convolution_param {
    num_output: 64
    kernel_size: 1
    weight_filler {
      type: "xavier"
      std: 0.03
    }
    bias_filler {
      type: "constant"
      value: 0.2
    }
  }
}
layer {
  name: "inception_3a/relu_1x1"
  type: "ReLU"
  bottom: "inception_3a/1x1"
  top: "inception_3a/1x1"
}
layer {
  name: "inception_3a/3x3_reduce"
  type: "Convolution"
  bottom: "pool2/3x3_s2"
  top: "inception_3a/3x3_reduce"
  param {
    lr_mult: 1
    decay_mult: 1
  }
  param {
    lr_mult: 2
    decay_mult: 0
  }
  convolution_param {
    num_output: 96
    kernel_size: 1
    weight_filler {
      type: "xavier"
      std: 0.09
    }
    bias_filler {
      type: "constant"
      value: 0.2
    }
  }
}
layer {
  name: "inception_3a/relu_3x3_reduce"
  type: "ReLU"
  bottom: "inception_3a/3x3_reduce"
  top: "inception_3a/3x3_reduce"
}
layer {
  name: "inception_3a/3x3"
  type: "Convolution"
  bottom: "inception_3a/3x3_reduce"
  top: "inception_3a/3x3"
  param {
    lr_mult: 1
    decay_mult: 1
  }
  param {
    lr_mult: 2
    decay_mult: 0
  }
  convolution_param {
    num_output: 128
    pad: 1
    kernel_size: 3
    weight_filler {
      type: "xavier"
      std: 0.03
    }
    bias_filler {
      type: "constant"
      value: 0.2
    }
  }
}
layer {
  name: "inception_3a/relu_3x3"
  type: "ReLU"
  bottom: "inception_3a/3x3"
  top: "inception_3a/3x3"
}
layer {
  name: "inception_3a/5x5_reduce"
  type: "Convolution"
  bottom: "pool2/3x3_s2"
  top: "inception_3a/5x5_reduce"
  param {
    lr_mult: 1
    decay_mult: 1
  }
  param {
    lr_mult: 2
    decay_mult: 0
  }
  convolution_param {
    num_output: 16
    kernel_size: 1
    weight_filler {
      type: "xavier"
      std: 0.2
    }
    bias_filler {
      type: "constant"
      value: 0.2
    }
  }
}
layer {
  name: "inception_3a/relu_5x5_reduce"
  type: "ReLU"
  bottom: "inception_3a/5x5_reduce"
  top: "inception_3a/5x5_reduce"
}
layer {
  name: "inception_3a/5x5"
  type: "Convolution"
  bottom: "inception_3a/5x5_reduce"
  top: "inception_3a/5x5"
  param {
    lr_mult: 1
    decay_mult: 1
  }
  param {
    lr_mult: 2
    decay_mult: 0
  }
  convolution_param {
    num_output: 32
    pad: 2
    kernel_size: 5
    weight_filler {
      type: "xavier"
      std: 0.03
    }
    bias_filler {
      type: "constant"
      value: 0.2
    }
  }
}
layer {
  name: "inception_3a/relu_5x5"
  type: "ReLU"
  bottom: "inception_3a/5x5"
  top: "inception_3a/5x5"
}
layer {
  name: "inception_3a/pool"
  type: "Pooling"
  bottom: "pool2/3x3_s2"
  top: "inception_3a/pool"
  pooling_param {
    pool: MAX
    kernel_size: 3
    stride: 1
    pad: 1
  }
}
layer {
  name: "inception_3a/pool_proj"
  type: "Convolution"
  bottom: "inception_3a/pool"
  top: "inception_3a/pool_proj"
  param {
    lr_mult: 1
    decay_mult: 1
  }
  param {
    lr_mult: 2
    decay_mult: 0
  }
  convolution_param {
    num_output: 32
    kernel_size: 1
    weight_filler {
      type: "xavier"
      std: 0.1
    }
    bias_filler {
      type: "constant"
      value: 0.2
    }
  }
}
layer {
  name: "inception_3a/relu_pool_proj"
  type: "ReLU"
  bottom: "inception_3a/pool_proj"
  top: "inception_3a/pool_proj"
}
layer {
  name: "inception_3a/output"
  type: "Concat"
  bottom: "inception_3a/1x1"
  bottom: "inception_3a/3x3"
  bottom: "inception_3a/5x5"
  bottom: "inception_3a/pool_proj"
  top: "inception_3a/output"
}
layer {
  name: "inception_3b/1x1"
  type: "Convolution"
  bottom: "inception_3a/output"
  top: "inception_3b/1x1"
  param {
    lr_mult: 1
    decay_mult: 1
  }
  param {
    lr_mult: 2
    decay_mult: 0
  }
  convolution_param {
    num_output: 128
    kernel_size: 1
    weight_filler {
      type: "xavier"
      std: 0.03
    }
    bias_filler {
      type: "constant"
      value: 0.2
    }
  }
}
layer {
  name: "inception_3b/relu_1x1"
  type: "ReLU"
  bottom: "inception_3b/1x1"
  top: "inception_3b/1x1"
}
layer {
  name: "inception_3b/3x3_reduce"
  type: "Convolution"
  bottom: "inception_3a/output"
  top: "inception_3b/3x3_reduce"
  param {
    lr_mult: 1
    decay_mult: 1
  }
  param {
    lr_mult: 2
    decay_mult: 0
  }
  convolution_param {
    num_output: 128
    kernel_size: 1
    weight_filler {
      type: "xavier"
      std: 0.09
    }
    bias_filler {
      type: "constant"
      value: 0.2
    }
  }
}
layer {
  name: "inception_3b/relu_3x3_reduce"
  type: "ReLU"
  bottom: "inception_3b/3x3_reduce"
  top: "inception_3b/3x3_reduce"
}
layer {
  name: "inception_3b/3x3"
  type: "Convolution"
  bottom: "inception_3b/3x3_reduce"
  top: "inception_3b/3x3"
  param {
    lr_mult: 1
    decay_mult: 1
  }
  param {
    lr_mult: 2
    decay_mult: 0
  }
  convolution_param {
    num_output: 192
    pad: 1
    kernel_size: 3
    weight_filler {
      type: "xavier"
      std: 0.03
    }
    bias_filler {
      type: "constant"
      value: 0.2
    }
  }
}
layer {
  name: "inception_3b/relu_3x3"
  type: "ReLU"
  bottom: "inception_3b/3x3"
  top: "inception_3b/3x3"
}
layer {
  name: "inception_3b/5x5_reduce"
  type: "Convolution"
  bottom: "inception_3a/output"
  top: "inception_3b/5x5_reduce"
  param {
    lr_mult: 1
    decay_mult: 1
  }
  param {
    lr_mult: 2
    decay_mult: 0
  }
  convolution_param {
    num_output: 32
    kernel_size: 1
    weight_filler {
      type: "xavier"
      std: 0.2
    }
    bias_filler {
      type: "constant"
      value: 0.2
    }
  }
}
layer {
  name: "inception_3b/relu_5x5_reduce"
  type: "ReLU"
  bottom: "inception_3b/5x5_reduce"
  top: "inception_3b/5x5_reduce"
}
layer {
  name: "inception_3b/5x5"
  type: "Convolution"
  bottom: "inception_3b/5x5_reduce"
  top: "inception_3b/5x5"
  param {
    lr_mult: 1
    decay_mult: 1
  }
  param {
    lr_mult: 2
    decay_mult: 0
  }
  convolution_param {
    num_output: 96
    pad: 2
    kernel_size: 5
    weight_filler {
      type: "xavier"
      std: 0.03
    }
    bias_filler {
      type: "constant"
      value: 0.2
    }
  }
}
layer {
  name: "inception_3b/relu_5x5"
  type: "ReLU"
  bottom: "inception_3b/5x5"
  top: "inception_3b/5x5"
}
layer {
  name: "inception_3b/pool"
  type: "Pooling"
  bottom: "inception_3a/output"
  top: "inception_3b/pool"
  pooling_param {
    pool: MAX
    kernel_size: 3
    stride: 1
    pad: 1
  }
}
layer {
  name: "inception_3b/pool_proj"
  type: "Convolution"
  bottom: "inception_3b/pool"
  top: "inception_3b/pool_proj"
  param {
    lr_mult: 1
    decay_mult: 1
  }
  param {
    lr_mult: 2
    decay_mult: 0
  }
  convolution_param {
    num_output: 64
    kernel_size: 1
    weight_filler {
      type: "xavier"
      std: 0.1
    }
    bias_filler {
      type: "constant"
      value: 0.2
    }
  }
}
layer {
  name: "inception_3b/relu_pool_proj"
  type: "ReLU"
  bottom: "inception_3b/pool_proj"
  top: "inception_3b/pool_proj"
}
layer {
  name: "inception_3b/output"
  type: "Concat"
  bottom: "inception_3b/1x1"
  bottom: "inception_3b/3x3"
  bottom: "inception_3b/5x5"
  bottom: "inception_3b/pool_proj"
  top: "inception_3b/output"
}
layer {
  name: "pool3/3x3_s2"
  type: "Pooling"
  bottom: "inception_3b/output"
  top: "pool3/3x3_s2"
  pooling_param {
    pool: MAX
    kernel_size: 3
    stride: 2
  }
}
layer {
  name: "inception_4a/1x1"
  type: "Convolution"
  bottom: "pool3/3x3_s2"
  top: "inception_4a/1x1"
  param {
    lr_mult: 1
    decay_mult: 1
  }
  param {
    lr_mult: 2
    decay_mult: 0
  }
  convolution_param {
    num_output: 192
    kernel_size: 1
    weight_filler {
      type: "xavier"
      std: 0.03
    }
    bias_filler {
      type: "constant"
      value: 0.2
    }
  }
}
layer {
  name: "inception_4a/relu_1x1"
  type: "ReLU"
  bottom: "inception_4a/1x1"
  top: "inception_4a/1x1"
}
layer {
  name: "inception_4a/3x3_reduce"
  type: "Convolution"
  bottom: "pool3/3x3_s2"
  top: "inception_4a/3x3_reduce"
  param {
    lr_mult: 1
    decay_mult: 1
  }
  param {
    lr_mult: 2
    decay_mult: 0
  }
  convolution_param {
    num_output: 96
    kernel_size: 1
    weight_filler {
      type: "xavier"
      std: 0.09
    }
    bias_filler {
      type: "constant"
      value: 0.2
    }
  }
}
layer {
  name: "inception_4a/relu_3x3_reduce"
  type: "ReLU"
  bottom: "inception_4a/3x3_reduce"
  top: "inception_4a/3x3_reduce"
}
layer {
  name: "inception_4a/3x3"
  type: "Convolution"
  bottom: "inception_4a/3x3_reduce"
  top: "inception_4a/3x3"
  param {
    lr_mult: 1
    decay_mult: 1
  }
  param {
    lr_mult: 2
    decay_mult: 0
  }
  convolution_param {
    num_output: 208
    pad: 1
    kernel_size: 3
    weight_filler {
      type: "xavier"
      std: 0.03
    }
    bias_filler {
      type: "constant"
      value: 0.2
    }
  }
}
layer {
  name: "inception_4a/relu_3x3"
  type: "ReLU"
  bottom: "inception_4a/3x3"
  top: "inception_4a/3x3"
}
layer {
  name: "inception_4a/5x5_reduce"
  type: "Convolution"
  bottom: "pool3/3x3_s2"
  top: "inception_4a/5x5_reduce"
  param {
    lr_mult: 1
    decay_mult: 1
  }
  param {
    lr_mult: 2
    decay_mult: 0
  }
  convolution_param {
    num_output: 16
    kernel_size: 1
    weight_filler {
      type: "xavier"
      std: 0.2
    }
    bias_filler {
      type: "constant"
      value: 0.2
    }
  }
}
layer {
  name: "inception_4a/relu_5x5_reduce"
  type: "ReLU"
  bottom: "inception_4a/5x5_reduce"
  top: "inception_4a/5x5_reduce"
}
layer {
  name: "inception_4a/5x5"
  type: "Convolution"
  bottom: "inception_4a/5x5_reduce"
  top: "inception_4a/5x5"
  param {
    lr_mult: 1
    decay_mult: 1
  }
  param {
    lr_mult: 2
    decay_mult: 0
  }
  convolution_param {
    num_output: 48
    pad: 2
    kernel_size: 5
    weight_filler {
      type: "xavier"
      std: 0.03
    }
    bias_filler {
      type: "constant"
      value: 0.2
    }
  }
}
layer {
  name: "inception_4a/relu_5x5"
  type: "ReLU"
  bottom: "inception_4a/5x5"
  top: "inception_4a/5x5"
}
layer {
  name: "inception_4a/pool"
  type: "Pooling"
  bottom: "pool3/3x3_s2"
  top: "inception_4a/pool"
  pooling_param {
    pool: MAX
    kernel_size: 3
    stride: 1
    pad: 1
  }
}
layer {
  name: "inception_4a/pool_proj"
  type: "Convolution"
  bottom: "inception_4a/pool"
  top: "inception_4a/pool_proj"
  param {
    lr_mult: 1
    decay_mult: 1
  }
  param {
    lr_mult: 2
    decay_mult: 0
  }
  convolution_param {
    num_output: 64
    kernel_size: 1
    weight_filler {
      type: "xavier"
      std: 0.1
    }
    bias_filler {
      type: "constant"
      value: 0.2
    }
  }
}
layer {
  name: "inception_4a/relu_pool_proj"
  type: "ReLU"
  bottom: "inception_4a/pool_proj"
  top: "inception_4a/pool_proj"
}
layer {
  name: "inception_4a/output"
  type: "Concat"
  bottom: "inception_4a/1x1"
  bottom: "inception_4a/3x3"
  bottom: "inception_4a/5x5"
  bottom: "inception_4a/pool_proj"
  top: "inception_4a/output"
}
layer {
  name: "loss1/ave_pool"
  type: "Pooling"
  bottom: "inception_4a/output"
  top: "loss1/ave_pool"
  pooling_param {
    pool: AVE
    kernel_size: 5
    stride: 3
  }
}
layer {
  name: "loss1/conv"
  type: "Convolution"
  bottom: "loss1/ave_pool"
  top: "loss1/conv"
  param {
    lr_mult: 1
    decay_mult: 1
  }
  param {
    lr_mult: 2
    decay_mult: 0
  }
  convolution_param {
    num_output: 128
    kernel_size: 1
    weight_filler {
      type: "xavier"
      std: 0.08
    }
    bias_filler {
      type: "constant"
      value: 0.2
    }
  }
}
layer {
  name: "loss1/relu_conv"
  type: "ReLU"
  bottom: "loss1/conv"
  top: "loss1/conv"
}
layer {
  name: "loss1/fc"
  type: "InnerProduct"
  bottom: "loss1/conv"
  top: "loss1/fc"
  param {
    lr_mult: 1
    decay_mult: 1
  }
  param {
    lr_mult: 2
    decay_mult: 0
  }
  inner_product_param {
    num_output: 1024
    weight_filler {
      type: "xavier"
      std: 0.02
    }
    bias_filler {
      type: "constant"
      value: 0.2
    }
  }
}
layer {
  name: "loss1/relu_fc"
  type: "ReLU"
  bottom: "loss1/fc"
  top: "loss1/fc"
}
layer {
  name: "loss1/drop_fc"
  type: "Dropout"
  bottom: "loss1/fc"
  top: "loss1/fc"
  dropout_param {
    dropout_ratio: 0.7
  }
}
layer {
  name: "loss1/classifier_plantvillage"
  type: "InnerProduct"
  bottom: "loss1/fc"
  top: "loss1/classifier_plantvillage"
  param {
    lr_mult: 1
    decay_mult: 1
  }
  param {
    lr_mult: 2
    decay_mult: 0
  }
  inner_product_param {
    num_output: 38
    weight_filler {
      type: "xavier"
      std: 0.0009765625
    }
    bias_filler {
      type: "constant"
      value: 0
    }
  }
}
layer {
  name: "inception_4b/1x1"
  type: "Convolution"
  bottom: "inception_4a/output"
  top: "inception_4b/1x1"
  param {
    lr_mult: 1
    decay_mult: 1
  }
  param {
    lr_mult: 2
    decay_mult: 0
  }
  convolution_param {
    num_output: 160
    kernel_size: 1
    weight_filler {
      type: "xavier"
      std: 0.03
    }
    bias_filler {
      type: "constant"
      value: 0.2
    }
  }
}
layer {
  name: "inception_4b/relu_1x1"
  type: "ReLU"
  bottom: "inception_4b/1x1"
  top: "inception_4b/1x1"
}
layer {
  name: "inception_4b/3x3_reduce"
  type: "Convolution"
  bottom: "inception_4a/output"
  top: "inception_4b/3x3_reduce"
  param {
    lr_mult: 1
    decay_mult: 1
  }
  param {
    lr_mult: 2
    decay_mult: 0
  }
  convolution_param {
    num_output: 112
    kernel_size: 1
    weight_filler {
      type: "xavier"
      std: 0.09
    }
    bias_filler {
      type: "constant"
      value: 0.2
    }
  }
}
layer {
  name: "inception_4b/relu_3x3_reduce"
  type: "ReLU"
  bottom: "inception_4b/3x3_reduce"
  top: "inception_4b/3x3_reduce"
}
layer {
  name: "inception_4b/3x3"
  type: "Convolution"
  bottom: "inception_4b/3x3_reduce"
  top: "inception_4b/3x3"
  param {
    lr_mult: 1
    decay_mult: 1
  }
  param {
    lr_mult: 2
    decay_mult: 0
  }
  convolution_param {
    num_output: 224
    pad: 1
    kernel_size: 3
    weight_filler {
      type: "xavier"
      std: 0.03
    }
    bias_filler {
      type: "constant"
      value: 0.2
    }
  }
}
layer {
  name: "inception_4b/relu_3x3"
  type: "ReLU"
  bottom: "inception_4b/3x3"
  top: "inception_4b/3x3"
}
layer {
  name: "inception_4b/5x5_reduce"
  type: "Convolution"
  bottom: "inception_4a/output"
  top: "inception_4b/5x5_reduce"
  param {
    lr_mult: 1
    decay_mult: 1
  }
  param {
    lr_mult: 2
    decay_mult: 0
  }
  convolution_param {
    num_output: 24
    kernel_size: 1
    weight_filler {
      type: "xavier"
      std: 0.2
    }
    bias_filler {
      type: "constant"
      value: 0.2
    }
  }
}
layer {
  name: "inception_4b/relu_5x5_reduce"
  type: "ReLU"
  bottom: "inception_4b/5x5_reduce"
  top: "inception_4b/5x5_reduce"
}
layer {
  name: "inception_4b/5x5"
  type: "Convolution"
  bottom: "inception_4b/5x5_reduce"
  top: "inception_4b/5x5"
  param {
    lr_mult: 1
    decay_mult: 1
  }
  param {
    lr_mult: 2
    decay_mult: 0
  }
  convolution_param {
    num_output: 64
    pad: 2
    kernel_size: 5
    weight_filler {
      type: "xavier"
      std: 0.03
    }
    bias_filler {
      type: "constant"
      value: 0.2
    }
  }
}
layer {
  name: "inception_4b/relu_5x5"
  type: "ReLU"
  bottom: "inception_4b/5x5"
  top: "inception_4b/5x5"
}
layer {
  name: "inception_4b/pool"
  type: "Pooling"
  bottom: "inception_4a/output"
  top: "inception_4b/pool"
  pooling_param {
    pool: MAX
    kernel_size: 3
    stride: 1
    pad: 1
  }
}
layer {
  name: "inception_4b/pool_proj"
  type: "Convolution"
  bottom: "inception_4b/pool"
  top: "inception_4b/pool_proj"
  param {
    lr_mult: 1
    decay_mult: 1
  }
  param {
    lr_mult: 2
    decay_mult: 0
  }
  convolution_param {
    num_output: 64
    kernel_size: 1
    weight_filler {
      type: "xavier"
      std: 0.1
    }
    bias_filler {
      type: "constant"
      value: 0.2
    }
  }
}
layer {
  name: "inception_4b/relu_pool_proj"
  type: "ReLU"
  bottom: "inception_4b/pool_proj"
  top: "inception_4b/pool_proj"
}
layer {
  name: "inception_4b/output"
  type: "Concat"
  bottom: "inception_4b/1x1"
  bottom: "inception_4b/3x3"
  bottom: "inception_4b/5x5"
  bottom: "inception_4b/pool_proj"
  top: "inception_4b/output"
}
layer {
  name: "inception_4c/1x1"
  type: "Convolution"
  bottom: "inception_4b/output"
  top: "inception_4c/1x1"
  param {
    lr_mult: 1
    decay_mult: 1
  }
  param {
    lr_mult: 2
    decay_mult: 0
  }
  convolution_param {
    num_output: 128
    kernel_size: 1
    weight_filler {
      type: "xavier"
      std: 0.03
    }
    bias_filler {
      type: "constant"
      value: 0.2
    }
  }
}
layer {
  name: "inception_4c/relu_1x1"
  type: "ReLU"
  bottom: "inception_4c/1x1"
  top: "inception_4c/1x1"
}
layer {
  name: "inception_4c/3x3_reduce"
  type: "Convolution"
  bottom: "inception_4b/output"
  top: "inception_4c/3x3_reduce"
  param {
    lr_mult: 1
    decay_mult: 1
  }
  param {
    lr_mult: 2
    decay_mult: 0
  }
  convolution_param {
    num_output: 128
    kernel_size: 1
    weight_filler {
      type: "xavier"
      std: 0.09
    }
    bias_filler {
      type: "constant"
      value: 0.2
    }
  }
}
layer {
  name: "inception_4c/relu_3x3_reduce"
  type: "ReLU"
  bottom: "inception_4c/3x3_reduce"
  top: "inception_4c/3x3_reduce"
}
layer {
  name: "inception_4c/3x3"
  type: "Convolution"
  bottom: "inception_4c/3x3_reduce"
  top: "inception_4c/3x3"
  param {
    lr_mult: 1
    decay_mult: 1
  }
  param {
    lr_mult: 2
    decay_mult: 0
  }
  convolution_param {
    num_output: 256
    pad: 1
    kernel_size: 3
    weight_filler {
      type: "xavier"
      std: 0.03
    }
    bias_filler {
      type: "constant"
      value: 0.2
    }
  }
}
layer {
  name: "inception_4c/relu_3x3"
  type: "ReLU"
  bottom: "inception_4c/3x3"
  top: "inception_4c/3x3"
}
layer {
  name: "inception_4c/5x5_reduce"
  type: "Convolution"
  bottom: "inception_4b/output"
  top: "inception_4c/5x5_reduce"
  param {
    lr_mult: 1
    decay_mult: 1
  }
  param {
    lr_mult: 2
    decay_mult: 0
  }
  convolution_param {
    num_output: 24
    kernel_size: 1
    weight_filler {
      type: "xavier"
      std: 0.2
    }
    bias_filler {
      type: "constant"
      value: 0.2
    }
  }
}
layer {
  name: "inception_4c/relu_5x5_reduce"
  type: "ReLU"
  bottom: "inception_4c/5x5_reduce"
  top: "inception_4c/5x5_reduce"
}
layer {
  name: "inception_4c/5x5"
  type: "Convolution"
  bottom: "inception_4c/5x5_reduce"
  top: "inception_4c/5x5"
  param {
    lr_mult: 1
    decay_mult: 1
  }
  param {
    lr_mult: 2
    decay_mult: 0
  }
  convolution_param {
    num_output: 64
    pad: 2
    kernel_size: 5
    weight_filler {
      type: "xavier"
      std: 0.03
    }
    bias_filler {
      type: "constant"
      value: 0.2
    }
  }
}
layer {
  name: "inception_4c/relu_5x5"
  type: "ReLU"
  bottom: "inception_4c/5x5"
  top: "inception_4c/5x5"
}
layer {
  name: "inception_4c/pool"
  type: "Pooling"
  bottom: "inception_4b/output"
  top: "inception_4c/pool"
  pooling_param {
    pool: MAX
    kernel_size: 3
    stride: 1
    pad: 1
  }
}
layer {
  name: "inception_4c/pool_proj"
  type: "Convolution"
  bottom: "inception_4c/pool"
  top: "inception_4c/pool_proj"
  param {
    lr_mult: 1
    decay_mult: 1
  }
  param {
    lr_mult: 2
    decay_mult: 0
  }
  convolution_param {
    num_output: 64
    kernel_size: 1
    weight_filler {
      type: "xavier"
      std: 0.1
    }
    bias_filler {
      type: "constant"
      value: 0.2
    }
  }
}
layer {
  name: "inception_4c/relu_pool_proj"
  type: "ReLU"
  bottom: "inception_4c/pool_proj"
  top: "inception_4c/pool_proj"
}
layer {
  name: "inception_4c/output"
  type: "Concat"
  bottom: "inception_4c/1x1"
  bottom: "inception_4c/3x3"
  bottom: "inception_4c/5x5"
  bottom: "inception_4c/pool_proj"
  top: "inception_4c/output"
}
layer {
  name: "inception_4d/1x1"
  type: "Convolution"
  bottom: "inception_4c/output"
  top: "inception_4d/1x1"
  param {
    lr_mult: 1
    decay_mult: 1
  }
  param {
    lr_mult: 2
    decay_mult: 0
  }
  convolution_param {
    num_output: 112
    kernel_size: 1
    weight_filler {
      type: "xavier"
      std: 0.03
    }
    bias_filler {
      type: "constant"
      value: 0.2
    }
  }
}
layer {
  name: "inception_4d/relu_1x1"
  type: "ReLU"
  bottom: "inception_4d/1x1"
  top: "inception_4d/1x1"
}
layer {
  name: "inception_4d/3x3_reduce"
  type: "Convolution"
  bottom: "inception_4c/output"
  top: "inception_4d/3x3_reduce"
  param {
    lr_mult: 1
    decay_mult: 1
  }
  param {
    lr_mult: 2
    decay_mult: 0
  }
  convolution_param {
    num_output: 144
    kernel_size: 1
    weight_filler {
      type: "xavier"
      std: 0.09
    }
    bias_filler {
      type: "constant"
      value: 0.2
    }
  }
}
layer {
  name: "inception_4d/relu_3x3_reduce"
  type: "ReLU"
  bottom: "inception_4d/3x3_reduce"
  top: "inception_4d/3x3_reduce"
}
layer {
  name: "inception_4d/3x3"
  type: "Convolution"
  bottom: "inception_4d/3x3_reduce"
  top: "inception_4d/3x3"
  param {
    lr_mult: 1
    decay_mult: 1
  }
  param {
    lr_mult: 2
    decay_mult: 0
  }
  convolution_param {
    num_output: 288
    pad: 1
    kernel_size: 3
    weight_filler {
      type: "xavier"
      std: 0.03
    }
    bias_filler {
      type: "constant"
      value: 0.2
    }
  }
}
layer {
  name: "inception_4d/relu_3x3"
  type: "ReLU"
  bottom: "inception_4d/3x3"
  top: "inception_4d/3x3"
}
layer {
  name: "inception_4d/5x5_reduce"
  type: "Convolution"
  bottom: "inception_4c/output"
  top: "inception_4d/5x5_reduce"
  param {
    lr_mult: 1
    decay_mult: 1
  }
  param {
    lr_mult: 2
    decay_mult: 0
  }
  convolution_param {
    num_output: 32
    kernel_size: 1
    weight_filler {
      type: "xavier"
      std: 0.2
    }
    bias_filler {
      type: "constant"
      value: 0.2
    }
  }
}
layer {
  name: "inception_4d/relu_5x5_reduce"
  type: "ReLU"
  bottom: "inception_4d/5x5_reduce"
  top: "inception_4d/5x5_reduce"
}
layer {
  name: "inception_4d/5x5"
  type: "Convolution"
  bottom: "inception_4d/5x5_reduce"
  top: "inception_4d/5x5"
  param {
    lr_mult: 1
    decay_mult: 1
  }
  param {
    lr_mult: 2
    decay_mult: 0
  }
  convolution_param {
    num_output: 64
    pad: 2
    kernel_size: 5
    weight_filler {
      type: "xavier"
      std: 0.03
    }
    bias_filler {
      type: "constant"
      value: 0.2
    }
  }
}
layer {
  name: "inception_4d/relu_5x5"
  type: "ReLU"
  bottom: "inception_4d/5x5"
  top: "inception_4d/5x5"
}
layer {
  name: "inception_4d/pool"
  type: "Pooling"
  bottom: "inception_4c/output"
  top: "inception_4d/pool"
  pooling_param {
    pool: MAX
    kernel_size: 3
    stride: 1
    pad: 1
  }
}
layer {
  name: "inception_4d/pool_proj"
  type: "Convolution"
  bottom: "inception_4d/pool"
  top: "inception_4d/pool_proj"
  param {
    lr_mult: 1
    decay_mult: 1
  }
  param {
    lr_mult: 2
    decay_mult: 0
  }
  convolution_param {
    num_output: 64
    kernel_size: 1
    weight_filler {
      type: "xavier"
      std: 0.1
    }
    bias_filler {
      type: "constant"
      value: 0.2
    }
  }
}
layer {
  name: "inception_4d/relu_pool_proj"
  type: "ReLU"
  bottom: "inception_4d/pool_proj"
  top: "inception_4d/pool_proj"
}
layer {
  name: "inception_4d/output"
  type: "Concat"
  bottom: "inception_4d/1x1"
  bottom: "inception_4d/3x3"
  bottom: "inception_4d/5x5"
  bottom: "inception_4d/pool_proj"
  top: "inception_4d/output"
}
layer {
  name: "loss2/ave_pool"
  type: "Pooling"
  bottom: "inception_4d/output"
  top: "loss2/ave_pool"
  pooling_param {
    pool: AVE
    kernel_size: 5
    stride: 3
  }
}
layer {
  name: "loss2/conv"
  type: "Convolution"
  bottom: "loss2/ave_pool"
  top: "loss2/conv"
  param {
    lr_mult: 1
    decay_mult: 1
  }
  param {
    lr_mult: 2
    decay_mult: 0
  }
  convolution_param {
    num_output: 128
    kernel_size: 1
    weight_filler {
      type: "xavier"
      std: 0.08
    }
    bias_filler {
      type: "constant"
      value: 0.2
    }
  }
}
layer {
  name: "loss2/relu_conv"
  type: "ReLU"
  bottom: "loss2/conv"
  top: "loss2/conv"
}
layer {
  name: "loss2/fc"
  type: "InnerProduct"
  bottom: "loss2/conv"
  top: "loss2/fc"
  param {
    lr_mult: 1
    decay_mult: 1
  }
  param {
    lr_mult: 2
    decay_mult: 0
  }
  inner_product_param {
    num_output: 1024
    weight_filler {
      type: "xavier"
      std: 0.02
    }
    bias_filler {
      type: "constant"
      value: 0.2
    }
  }
}
layer {
  name: "loss2/relu_fc"
  type: "ReLU"
  bottom: "loss2/fc"
  top: "loss2/fc"
}
layer {
  name: "loss2/drop_fc"
  type: "Dropout"
  bottom: "loss2/fc"
  top: "loss2/fc"
  dropout_param {
    dropout_ratio: 0.7
  }
}
layer {
  name: "loss2/classifier_plantvillage"
  type: "InnerProduct"
  bottom: "loss2/fc"
  top: "loss2/classifier_plantvillage"
  param {
    lr_mult: 1
    decay_mult: 1
  }
  param {
    lr_mult: 2
    decay_mult: 0
  }
  inner_product_param {
    num_output: 38
    weight_filler {
      type: "xavier"
      std: 0.0009765625
    }
    bias_filler {
      type: "constant"
      value: 0
    }
  }
}
layer {
  name: "inception_4e/1x1"
  type: "Convolution"
  bottom: "inception_4d/output"
  top: "inception_4e/1x1"
  param {
    lr_mult: 1
    decay_mult: 1
  }
  param {
    lr_mult: 2
    decay_mult: 0
  }
  convolution_param {
    num_output: 256
    kernel_size: 1
    weight_filler {
      type: "xavier"
      std: 0.03
    }
    bias_filler {
      type: "constant"
      value: 0.2
    }
  }
}
layer {
  name: "inception_4e/relu_1x1"
  type: "ReLU"
  bottom: "inception_4e/1x1"
  top: "inception_4e/1x1"
}
layer {
  name: "inception_4e/3x3_reduce"
  type: "Convolution"
  bottom: "inception_4d/output"
  top: "inception_4e/3x3_reduce"
  param {
    lr_mult: 1
    decay_mult: 1
  }
  param {
    lr_mult: 2
    decay_mult: 0
  }
  convolution_param {
    num_output: 160
    kernel_size: 1
    weight_filler {
      type: "xavier"
      std: 0.09
    }
    bias_filler {
      type: "constant"
      value: 0.2
    }
  }
}
layer {
  name: "inception_4e/relu_3x3_reduce"
  type: "ReLU"
  bottom: "inception_4e/3x3_reduce"
  top: "inception_4e/3x3_reduce"
}
layer {
  name: "inception_4e/3x3"
  type: "Convolution"
  bottom: "inception_4e/3x3_reduce"
  top: "inception_4e/3x3"
  param {
    lr_mult: 1
    decay_mult: 1
  }
  param {
    lr_mult: 2
    decay_mult: 0
  }
  convolution_param {
    num_output: 320
    pad: 1
    kernel_size: 3
    weight_filler {
      type: "xavier"
      std: 0.03
    }
    bias_filler {
      type: "constant"
      value: 0.2
    }
  }
}
layer {
  name: "inception_4e/relu_3x3"
  type: "ReLU"
  bottom: "inception_4e/3x3"
  top: "inception_4e/3x3"
}
layer {
  name: "inception_4e/5x5_reduce"
  type: "Convolution"
  bottom: "inception_4d/output"
  top: "inception_4e/5x5_reduce"
  param {
    lr_mult: 1
    decay_mult: 1
  }
  param {
    lr_mult: 2
    decay_mult: 0
  }
  convolution_param {
    num_output: 32
    kernel_size: 1
    weight_filler {
      type: "xavier"
      std: 0.2
    }
    bias_filler {
      type: "constant"
      value: 0.2
    }
  }
}
layer {
  name: "inception_4e/relu_5x5_reduce"
  type: "ReLU"
  bottom: "inception_4e/5x5_reduce"
  top: "inception_4e/5x5_reduce"
}
layer {
  name: "inception_4e/5x5"
  type: "Convolution"
  bottom: "inception_4e/5x5_reduce"
  top: "inception_4e/
I0403 18:27:47.207382 22477 layer_factory.hpp:77] Creating layer data
I0403 18:27:47.207953 22477 net.cpp:91] Creating Layer data
I0403 18:27:47.207984 22477 net.cpp:399] data -> data
I0403 18:27:47.208034 22477 net.cpp:399] data -> label
I0403 18:27:47.208070 22477 data_transformer.cpp:25] Loading mean file from: /home/mohanty/data/final_dataset/lmdb/segmented-40-60/mean.binaryproto
I0403 18:27:47.209152 22480 db_lmdb.cpp:38] Opened lmdb /home/mohanty/data/final_dataset/lmdb/segmented-40-60/test_db
I0403 18:27:47.220715 22477 data_layer.cpp:41] output data size: 24,3,224,224
I0403 18:27:47.247186 22477 net.cpp:141] Setting up data
I0403 18:27:47.247262 22477 net.cpp:148] Top shape: 24 3 224 224 (3612672)
I0403 18:27:47.247284 22477 net.cpp:148] Top shape: 24 (24)
I0403 18:27:47.247300 22477 net.cpp:156] Memory required for data: 14450784
I0403 18:27:47.247328 22477 layer_factory.hpp:77] Creating layer label_data_1_split
I0403 18:27:47.247354 22477 net.cpp:91] Creating Layer label_data_1_split
I0403 18:27:47.247371 22477 net.cpp:425] label_data_1_split <- label
I0403 18:27:47.247403 22477 net.cpp:399] label_data_1_split -> label_data_1_split_0
I0403 18:27:47.247431 22477 net.cpp:399] label_data_1_split -> label_data_1_split_1
I0403 18:27:47.247452 22477 net.cpp:399] label_data_1_split -> label_data_1_split_2
I0403 18:27:47.247473 22477 net.cpp:399] label_data_1_split -> label_data_1_split_3
I0403 18:27:47.247493 22477 net.cpp:399] label_data_1_split -> label_data_1_split_4
I0403 18:27:47.247521 22477 net.cpp:399] label_data_1_split -> label_data_1_split_5
I0403 18:27:47.247542 22477 net.cpp:399] label_data_1_split -> label_data_1_split_6
I0403 18:27:47.247562 22477 net.cpp:399] label_data_1_split -> label_data_1_split_7
I0403 18:27:47.247581 22477 net.cpp:399] label_data_1_split -> label_data_1_split_8
I0403 18:27:47.247601 22477 net.cpp:399] label_data_1_split -> label_data_1_split_9
I0403 18:27:47.247709 22477 net.cpp:141] Setting up label_data_1_split
I0403 18:27:47.247731 22477 net.cpp:148] Top shape: 24 (24)
I0403 18:27:47.247747 22477 net.cpp:148] Top shape: 24 (24)
I0403 18:27:47.247762 22477 net.cpp:148] Top shape: 24 (24)
I0403 18:27:47.247776 22477 net.cpp:148] Top shape: 24 (24)
I0403 18:27:47.247792 22477 net.cpp:148] Top shape: 24 (24)
I0403 18:27:47.247815 22477 net.cpp:148] Top shape: 24 (24)
I0403 18:27:47.247829 22477 net.cpp:148] Top shape: 24 (24)
I0403 18:27:47.247843 22477 net.cpp:148] Top shape: 24 (24)
I0403 18:27:47.247859 22477 net.cpp:148] Top shape: 24 (24)
I0403 18:27:47.247874 22477 net.cpp:148] Top shape: 24 (24)
I0403 18:27:47.247922 22477 net.cpp:156] Memory required for data: 14451744
I0403 18:27:47.247937 22477 layer_factory.hpp:77] Creating layer conv1/7x7_s2
I0403 18:27:47.247967 22477 net.cpp:91] Creating Layer conv1/7x7_s2
I0403 18:27:47.247985 22477 net.cpp:425] conv1/7x7_s2 <- data
I0403 18:27:47.248003 22477 net.cpp:399] conv1/7x7_s2 -> conv1/7x7_s2
I0403 18:27:47.384419 22477 net.cpp:141] Setting up conv1/7x7_s2
I0403 18:27:47.384493 22477 net.cpp:148] Top shape: 24 64 112 112 (19267584)
I0403 18:27:47.384521 22477 net.cpp:156] Memory required for data: 91522080
I0403 18:27:47.384552 22477 layer_factory.hpp:77] Creating layer conv1/relu_7x7
I0403 18:27:47.384578 22477 net.cpp:91] Creating Layer conv1/relu_7x7
I0403 18:27:47.384596 22477 net.cpp:425] conv1/relu_7x7 <- conv1/7x7_s2
I0403 18:27:47.384614 22477 net.cpp:386] conv1/relu_7x7 -> conv1/7x7_s2 (in-place)
I0403 18:27:47.384860 22477 net.cpp:141] Setting up conv1/relu_7x7
I0403 18:27:47.384886 22477 net.cpp:148] Top shape: 24 64 112 112 (19267584)
I0403 18:27:47.384901 22477 net.cpp:156] Memory required for data: 168592416
I0403 18:27:47.384914 22477 layer_factory.hpp:77] Creating layer pool1/3x3_s2
I0403 18:27:47.384938 22477 net.cpp:91] Creating Layer pool1/3x3_s2
I0403 18:27:47.384954 22477 net.cpp:425] pool1/3x3_s2 <- conv1/7x7_s2
I0403 18:27:47.384971 22477 net.cpp:399] pool1/3x3_s2 -> pool1/3x3_s2
I0403 18:27:47.385040 22477 net.cpp:141] Setting up pool1/3x3_s2
I0403 18:27:47.385061 22477 net.cpp:148] Top shape: 24 64 56 56 (4816896)
I0403 18:27:47.385076 22477 net.cpp:156] Memory required for data: 187860000
I0403 18:27:47.385088 22477 layer_factory.hpp:77] Creating layer pool1/norm1
I0403 18:27:47.385112 22477 net.cpp:91] Creating Layer pool1/norm1
I0403 18:27:47.385128 22477 net.cpp:425] pool1/norm1 <- pool1/3x3_s2
I0403 18:27:47.385143 22477 net.cpp:399] pool1/norm1 -> pool1/norm1
I0403 18:27:47.385414 22477 net.cpp:141] Setting up pool1/norm1
I0403 18:27:47.385440 22477 net.cpp:148] Top shape: 24 64 56 56 (4816896)
I0403 18:27:47.385454 22477 net.cpp:156] Memory required for data: 207127584
I0403 18:27:47.385468 22477 layer_factory.hpp:77] Creating layer conv2/3x3_reduce
I0403 18:27:47.385491 22477 net.cpp:91] Creating Layer conv2/3x3_reduce
I0403 18:27:47.385510 22477 net.cpp:425] conv2/3x3_reduce <- pool1/norm1
I0403 18:27:47.385529 22477 net.cpp:399] conv2/3x3_reduce -> conv2/3x3_reduce
I0403 18:27:47.386776 22477 net.cpp:141] Setting up conv2/3x3_reduce
I0403 18:27:47.386803 22477 net.cpp:148] Top shape: 24 64 56 56 (4816896)
I0403 18:27:47.386818 22477 net.cpp:156] Memory required for data: 226395168
I0403 18:27:47.386837 22477 layer_factory.hpp:77] Creating layer conv2/relu_3x3_reduce
I0403 18:27:47.386855 22477 net.cpp:91] Creating Layer conv2/relu_3x3_reduce
I0403 18:27:47.386870 22477 net.cpp:425] conv2/relu_3x3_reduce <- conv2/3x3_reduce
I0403 18:27:47.386885 22477 net.cpp:386] conv2/relu_3x3_reduce -> conv2/3x3_reduce (in-place)
I0403 18:27:47.387120 22477 net.cpp:141] Setting up conv2/relu_3x3_reduce
I0403 18:27:47.387143 22477 net.cpp:148] Top shape: 24 64 56 56 (4816896)
I0403 18:27:47.387158 22477 net.cpp:156] Memory required for data: 245662752
I0403 18:27:47.387171 22477 layer_factory.hpp:77] Creating layer conv2/3x3
I0403 18:27:47.387192 22477 net.cpp:91] Creating Layer conv2/3x3
I0403 18:27:47.387207 22477 net.cpp:425] conv2/3x3 <- conv2/3x3_reduce
I0403 18:27:47.387224 22477 net.cpp:399] conv2/3x3 -> conv2/3x3
I0403 18:27:47.389299 22477 net.cpp:141] Setting up conv2/3x3
I0403 18:27:47.389328 22477 net.cpp:148] Top shape: 24 192 56 56 (14450688)
I0403 18:27:47.389343 22477 net.cpp:156] Memory required for data: 303465504
I0403 18:27:47.389361 22477 layer_factory.hpp:77] Creating layer conv2/relu_3x3
I0403 18:27:47.389379 22477 net.cpp:91] Creating Layer conv2/relu_3x3
I0403 18:27:47.389394 22477 net.cpp:425] conv2/relu_3x3 <- conv2/3x3
I0403 18:27:47.389410 22477 net.cpp:386] conv2/relu_3x3 -> conv2/3x3 (in-place)
I0403 18:27:47.389564 22477 net.cpp:141] Setting up conv2/relu_3x3
I0403 18:27:47.389587 22477 net.cpp:148] Top shape: 24 192 56 56 (14450688)
I0403 18:27:47.389639 22477 net.cpp:156] Memory required for data: 361268256
I0403 18:27:47.389653 22477 layer_factory.hpp:77] Creating layer conv2/norm2
I0403 18:27:47.389670 22477 net.cpp:91] Creating Layer conv2/norm2
I0403 18:27:47.389685 22477 net.cpp:425] conv2/norm2 <- conv2/3x3
I0403 18:27:47.389701 22477 net.cpp:399] conv2/norm2 -> conv2/norm2
I0403 18:27:47.389966 22477 net.cpp:141] Setting up conv2/norm2
I0403 18:27:47.389991 22477 net.cpp:148] Top shape: 24 192 56 56 (14450688)
I0403 18:27:47.390005 22477 net.cpp:156] Memory required for data: 419071008
I0403 18:27:47.390019 22477 layer_factory.hpp:77] Creating layer pool2/3x3_s2
I0403 18:27:47.390036 22477 net.cpp:91] Creating Layer pool2/3x3_s2
I0403 18:27:47.390050 22477 net.cpp:425] pool2/3x3_s2 <- conv2/norm2
I0403 18:27:47.390065 22477 net.cpp:399] pool2/3x3_s2 -> pool2/3x3_s2
I0403 18:27:47.390111 22477 net.cpp:141] Setting up pool2/3x3_s2
I0403 18:27:47.390132 22477 net.cpp:148] Top shape: 24 192 28 28 (3612672)
I0403 18:27:47.390146 22477 net.cpp:156] Memory required for data: 433521696
I0403 18:27:47.390161 22477 layer_factory.hpp:77] Creating layer pool2/3x3_s2_pool2/3x3_s2_0_split
I0403 18:27:47.390177 22477 net.cpp:91] Creating Layer pool2/3x3_s2_pool2/3x3_s2_0_split
I0403 18:27:47.390190 22477 net.cpp:425] pool2/3x3_s2_pool2/3x3_s2_0_split <- pool2/3x3_s2
I0403 18:27:47.390205 22477 net.cpp:399] pool2/3x3_s2_pool2/3x3_s2_0_split -> pool2/3x3_s2_pool2/3x3_s2_0_split_0
I0403 18:27:47.390223 22477 net.cpp:399] pool2/3x3_s2_pool2/3x3_s2_0_split -> pool2/3x3_s2_pool2/3x3_s2_0_split_1
I0403 18:27:47.390241 22477 net.cpp:399] pool2/3x3_s2_pool2/3x3_s2_0_split -> pool2/3x3_s2_pool2/3x3_s2_0_split_2
I0403 18:27:47.390260 22477 net.cpp:399] pool2/3x3_s2_pool2/3x3_s2_0_split -> pool2/3x3_s2_pool2/3x3_s2_0_split_3
I0403 18:27:47.390319 22477 net.cpp:141] Setting up pool2/3x3_s2_pool2/3x3_s2_0_split
I0403 18:27:47.390339 22477 net.cpp:148] Top shape: 24 192 28 28 (3612672)
I0403 18:27:47.390354 22477 net.cpp:148] Top shape: 24 192 28 28 (3612672)
I0403 18:27:47.390369 22477 net.cpp:148] Top shape: 24 192 28 28 (3612672)
I0403 18:27:47.390384 22477 net.cpp:148] Top shape: 24 192 28 28 (3612672)
I0403 18:27:47.390398 22477 net.cpp:156] Memory required for data: 491324448
I0403 18:27:47.390410 22477 layer_factory.hpp:77] Creating layer inception_3a/1x1
I0403 18:27:47.390429 22477 net.cpp:91] Creating Layer inception_3a/1x1
I0403 18:27:47.390444 22477 net.cpp:425] inception_3a/1x1 <- pool2/3x3_s2_pool2/3x3_s2_0_split_0
I0403 18:27:47.390461 22477 net.cpp:399] inception_3a/1x1 -> inception_3a/1x1
I0403 18:27:47.391880 22477 net.cpp:141] Setting up inception_3a/1x1
I0403 18:27:47.391907 22477 net.cpp:148] Top shape: 24 64 28 28 (1204224)
I0403 18:27:47.391923 22477 net.cpp:156] Memory required for data: 496141344
I0403 18:27:47.391942 22477 layer_factory.hpp:77] Creating layer inception_3a/relu_1x1
I0403 18:27:47.391960 22477 net.cpp:91] Creating Layer inception_3a/relu_1x1
I0403 18:27:47.391975 22477 net.cpp:425] inception_3a/relu_1x1 <- inception_3a/1x1
I0403 18:27:47.391993 22477 net.cpp:386] inception_3a/relu_1x1 -> inception_3a/1x1 (in-place)
I0403 18:27:47.392159 22477 net.cpp:141] Setting up inception_3a/relu_1x1
I0403 18:27:47.392184 22477 net.cpp:148] Top shape: 24 64 28 28 (1204224)
I0403 18:27:47.392199 22477 net.cpp:156] Memory required for data: 500958240
I0403 18:27:47.392212 22477 layer_factory.hpp:77] Creating layer inception_3a/3x3_reduce
I0403 18:27:47.392232 22477 net.cpp:91] Creating Layer inception_3a/3x3_reduce
I0403 18:27:47.392249 22477 net.cpp:425] inception_3a/3x3_reduce <- pool2/3x3_s2_pool2/3x3_s2_0_split_1
I0403 18:27:47.392269 22477 net.cpp:399] inception_3a/3x3_reduce -> inception_3a/3x3_reduce
I0403 18:27:47.393937 22477 net.cpp:141] Setting up inception_3a/3x3_reduce
I0403 18:27:47.393965 22477 net.cpp:148] Top shape: 24 96 28 28 (1806336)
I0403 18:27:47.393983 22477 net.cpp:156] Memory required for data: 508183584
I0403 18:27:47.394004 22477 layer_factory.hpp:77] Creating layer inception_3a/relu_3x3_reduce
I0403 18:27:47.394037 22477 net.cpp:91] Creating Layer inception_3a/relu_3x3_reduce
I0403 18:27:47.394054 22477 net.cpp:425] inception_3a/relu_3x3_reduce <- inception_3a/3x3_reduce
I0403 18:27:47.394078 22477 net.cpp:386] inception_3a/relu_3x3_reduce -> inception_3a/3x3_reduce (in-place)
I0403 18:27:47.394261 22477 net.cpp:141] Setting up inception_3a/relu_3x3_reduce
I0403 18:27:47.394284 22477 net.cpp:148] Top shape: 24 96 28 28 (1806336)
I0403 18:27:47.394299 22477 net.cpp:156] Memory required for data: 515408928
I0403 18:27:47.394311 22477 layer_factory.hpp:77] Creating layer inception_3a/3x3
I0403 18:27:47.394331 22477 net.cpp:91] Creating Layer inception_3a/3x3
I0403 18:27:47.394348 22477 net.cpp:425] inception_3a/3x3 <- inception_3a/3x3_reduce
I0403 18:27:47.394369 22477 net.cpp:399] inception_3a/3x3 -> inception_3a/3x3
I0403 18:27:47.395931 22477 net.cpp:141] Setting up inception_3a/3x3
I0403 18:27:47.395959 22477 net.cpp:148] Top shape: 24 128 28 28 (2408448)
I0403 18:27:47.395974 22477 net.cpp:156] Memory required for data: 525042720
I0403 18:27:47.395992 22477 layer_factory.hpp:77] Creating layer inception_3a/relu_3x3
I0403 18:27:47.396008 22477 net.cpp:91] Creating Layer inception_3a/relu_3x3
I0403 18:27:47.396023 22477 net.cpp:425] inception_3a/relu_3x3 <- inception_3a/3x3
I0403 18:27:47.396041 22477 net.cpp:386] inception_3a/relu_3x3 -> inception_3a/3x3 (in-place)
I0403 18:27:47.396302 22477 net.cpp:141] Setting up inception_3a/relu_3x3
I0403 18:27:47.396329 22477 net.cpp:148] Top shape: 24 128 28 28 (2408448)
I0403 18:27:47.396344 22477 net.cpp:156] Memory required for data: 534676512
I0403 18:27:47.396358 22477 layer_factory.hpp:77] Creating layer inception_3a/5x5_reduce
I0403 18:27:47.396378 22477 net.cpp:91] Creating Layer inception_3a/5x5_reduce
I0403 18:27:47.396395 22477 net.cpp:425] inception_3a/5x5_reduce <- pool2/3x3_s2_pool2/3x3_s2_0_split_2
I0403 18:27:47.396412 22477 net.cpp:399] inception_3a/5x5_reduce -> inception_3a/5x5_reduce
I0403 18:27:47.397325 22477 net.cpp:141] Setting up inception_3a/5x5_reduce
I0403 18:27:47.397353 22477 net.cpp:148] Top shape: 24 16 28 28 (301056)
I0403 18:27:47.397368 22477 net.cpp:156] Memory required for data: 535880736
I0403 18:27:47.397385 22477 layer_factory.hpp:77] Creating layer inception_3a/relu_5x5_reduce
I0403 18:27:47.397402 22477 net.cpp:91] Creating Layer inception_3a/relu_5x5_reduce
I0403 18:27:47.397416 22477 net.cpp:425] inception_3a/relu_5x5_reduce <- inception_3a/5x5_reduce
I0403 18:27:47.397440 22477 net.cpp:386] inception_3a/relu_5x5_reduce -> inception_3a/5x5_reduce (in-place)
I0403 18:27:47.397722 22477 net.cpp:141] Setting up inception_3a/relu_5x5_reduce
I0403 18:27:47.397747 22477 net.cpp:148] Top shape: 24 16 28 28 (301056)
I0403 18:27:47.397760 22477 net.cpp:156] Memory required for data: 537084960
I0403 18:27:47.397773 22477 layer_factory.hpp:77] Creating layer inception_3a/5x5
I0403 18:27:47.397794 22477 net.cpp:91] Creating Layer inception_3a/5x5
I0403 18:27:47.397811 22477 net.cpp:425] inception_3a/5x5 <- inception_3a/5x5_reduce
I0403 18:27:47.397830 22477 net.cpp:399] inception_3a/5x5 -> inception_3a/5x5
I0403 18:27:47.398826 22477 net.cpp:141] Setting up inception_3a/5x5
I0403 18:27:47.398852 22477 net.cpp:148] Top shape: 24 32 28 28 (602112)
I0403 18:27:47.398866 22477 net.cpp:156] Memory required for data: 539493408
I0403 18:27:47.398883 22477 layer_factory.hpp:77] Creating layer inception_3a/relu_5x5
I0403 18:27:47.398902 22477 net.cpp:91] Creating Layer inception_3a/relu_5x5
I0403 18:27:47.398918 22477 net.cpp:425] inception_3a/relu_5x5 <- inception_3a/5x5
I0403 18:27:47.398934 22477 net.cpp:386] inception_3a/relu_5x5 -> inception_3a/5x5 (in-place)
I0403 18:27:47.399097 22477 net.cpp:141] Setting up inception_3a/relu_5x5
I0403 18:27:47.399121 22477 net.cpp:148] Top shape: 24 32 28 28 (602112)
I0403 18:27:47.399133 22477 net.cpp:156] Memory required for data: 541901856
I0403 18:27:47.399147 22477 layer_factory.hpp:77] Creating layer inception_3a/pool
I0403 18:27:47.399163 22477 net.cpp:91] Creating Layer inception_3a/pool
I0403 18:27:47.399191 22477 net.cpp:425] inception_3a/pool <- pool2/3x3_s2_pool2/3x3_s2_0_split_3
I0403 18:27:47.399210 22477 net.cpp:399] inception_3a/pool -> inception_3a/pool
I0403 18:27:47.399263 22477 net.cpp:141] Setting up inception_3a/pool
I0403 18:27:47.399284 22477 net.cpp:148] Top shape: 24 192 28 28 (3612672)
I0403 18:27:47.399298 22477 net.cpp:156] Memory required for data: 556352544
I0403 18:27:47.399312 22477 layer_factory.hpp:77] Creating layer inception_3a/pool_proj
I0403 18:27:47.399335 22477 net.cpp:91] Creating Layer inception_3a/pool_proj
I0403 18:27:47.399351 22477 net.cpp:425] inception_3a/pool_proj <- inception_3a/pool
I0403 18:27:47.399369 22477 net.cpp:399] inception_3a/pool_proj -> inception_3a/pool_proj
I0403 18:27:47.400277 22477 net.cpp:141] Setting up inception_3a/pool_proj
I0403 18:27:47.400303 22477 net.cpp:148] Top shape: 24 32 28 28 (602112)
I0403 18:27:47.400318 22477 net.cpp:156] Memory required for data: 558760992
I0403 18:27:47.400341 22477 layer_factory.hpp:77] Creating layer inception_3a/relu_pool_proj
I0403 18:27:47.400358 22477 net.cpp:91] Creating Layer inception_3a/relu_pool_proj
I0403 18:27:47.400372 22477 net.cpp:425] inception_3a/relu_pool_proj <- inception_3a/pool_proj
I0403 18:27:47.400393 22477 net.cpp:386] inception_3a/relu_pool_proj -> inception_3a/pool_proj (in-place)
I0403 18:27:47.400666 22477 net.cpp:141] Setting up inception_3a/relu_pool_proj
I0403 18:27:47.400693 22477 net.cpp:148] Top shape: 24 32 28 28 (602112)
I0403 18:27:47.400708 22477 net.cpp:156] Memory required for data: 561169440
I0403 18:27:47.400722 22477 layer_factory.hpp:77] Creating layer inception_3a/output
I0403 18:27:47.400738 22477 net.cpp:91] Creating Layer inception_3a/output
I0403 18:27:47.400753 22477 net.cpp:425] inception_3a/output <- inception_3a/1x1
I0403 18:27:47.400768 22477 net.cpp:425] inception_3a/output <- inception_3a/3x3
I0403 18:27:47.400782 22477 net.cpp:425] inception_3a/output <- inception_3a/5x5
I0403 18:27:47.400796 22477 net.cpp:425] inception_3a/output <- inception_3a/pool_proj
I0403 18:27:47.400811 22477 net.cpp:399] inception_3a/output -> inception_3a/output
I0403 18:27:47.400856 22477 net.cpp:141] Setting up inception_3a/output
I0403 18:27:47.400877 22477 net.cpp:148] Top shape: 24 256 28 28 (4816896)
I0403 18:27:47.400892 22477 net.cpp:156] Memory required for data: 580437024
I0403 18:27:47.400904 22477 layer_factory.hpp:77] Creating layer inception_3a/output_inception_3a/output_0_split
I0403 18:27:47.400920 22477 net.cpp:91] Creating Layer inception_3a/output_inception_3a/output_0_split
I0403 18:27:47.400934 22477 net.cpp:425] inception_3a/output_inception_3a/output_0_split <- inception_3a/output
I0403 18:27:47.400960 22477 net.cpp:399] inception_3a/output_inception_3a/output_0_split -> inception_3a/output_inception_3a/output_0_split_0
I0403 18:27:47.400979 22477 net.cpp:399] inception_3a/output_inception_3a/output_0_split -> inception_3a/output_inception_3a/output_0_split_1
I0403 18:27:47.401002 22477 net.cpp:399] inception_3a/output_inception_3a/output_0_split -> inception_3a/output_inception_3a/output_0_split_2
I0403 18:27:47.401022 22477 net.cpp:399] inception_3a/output_inception_3a/output_0_split -> inception_3a/output_inception_3a/output_0_split_3
I0403 18:27:47.401090 22477 net.cpp:141] Setting up inception_3a/output_inception_3a/output_0_split
I0403 18:27:47.401113 22477 net.cpp:148] Top shape: 24 256 28 28 (4816896)
I0403 18:27:47.401129 22477 net.cpp:148] Top shape: 24 256 28 28 (4816896)
I0403 18:27:47.401145 22477 net.cpp:148] Top shape: 24 256 28 28 (4816896)
I0403 18:27:47.401160 22477 net.cpp:148] Top shape: 24 256 28 28 (4816896)
I0403 18:27:47.401171 22477 net.cpp:156] Memory required for data: 657507360
I0403 18:27:47.401185 22477 layer_factory.hpp:77] Creating layer inception_3b/1x1
I0403 18:27:47.401202 22477 net.cpp:91] Creating Layer inception_3b/1x1
I0403 18:27:47.401218 22477 net.cpp:425] inception_3b/1x1 <- inception_3a/output_inception_3a/output_0_split_0
I0403 18:27:47.401237 22477 net.cpp:399] inception_3b/1x1 -> inception_3b/1x1
I0403 18:27:47.402302 22477 net.cpp:141] Setting up inception_3b/1x1
I0403 18:27:47.402338 22477 net.cpp:148] Top shape: 24 128 28 28 (2408448)
I0403 18:27:47.402354 22477 net.cpp:156] Memory required for data: 667141152
I0403 18:27:47.402370 22477 layer_factory.hpp:77] Creating layer inception_3b/relu_1x1
I0403 18:27:47.402390 22477 net.cpp:91] Creating Layer inception_3b/relu_1x1
I0403 18:27:47.402405 22477 net.cpp:425] inception_3b/relu_1x1 <- inception_3b/1x1
I0403 18:27:47.402420 22477 net.cpp:386] inception_3b/relu_1x1 -> inception_3b/1x1 (in-place)
I0403 18:27:47.402590 22477 net.cpp:141] Setting up inception_3b/relu_1x1
I0403 18:27:47.402616 22477 net.cpp:148] Top shape: 24 128 28 28 (2408448)
I0403 18:27:47.402631 22477 net.cpp:156] Memory required for data: 676774944
I0403 18:27:47.402645 22477 layer_factory.hpp:77] Creating layer inception_3b/3x3_reduce
I0403 18:27:47.402665 22477 net.cpp:91] Creating Layer inception_3b/3x3_reduce
I0403 18:27:47.402681 22477 net.cpp:425] inception_3b/3x3_reduce <- inception_3a/output_inception_3a/output_0_split_1
I0403 18:27:47.402699 22477 net.cpp:399] inception_3b/3x3_reduce -> inception_3b/3x3_reduce
I0403 18:27:47.403784 22477 net.cpp:141] Setting up inception_3b/3x3_reduce
I0403 18:27:47.403810 22477 net.cpp:148] Top shape: 24 128 28 28 (2408448)
I0403 18:27:47.403833 22477 net.cpp:156] Memory required for data: 686408736
I0403 18:27:47.403851 22477 layer_factory.hpp:77] Creating layer inception_3b/relu_3x3_reduce
I0403 18:27:47.403872 22477 net.cpp:91] Creating Layer inception_3b/relu_3x3_reduce
I0403 18:27:47.403898 22477 net.cpp:425] inception_3b/relu_3x3_reduce <- inception_3b/3x3_reduce
I0403 18:27:47.403913 22477 net.cpp:386] inception_3b/relu_3x3_reduce -> inception_3b/3x3_reduce (in-place)
I0403 18:27:47.404077 22477 net.cpp:141] Setting up inception_3b/relu_3x3_reduce
I0403 18:27:47.404103 22477 net.cpp:148] Top shape: 24 128 28 28 (2408448)
I0403 18:27:47.404116 22477 net.cpp:156] Memory required for data: 696042528
I0403 18:27:47.404130 22477 layer_factory.hpp:77] Creating layer inception_3b/3x3
I0403 18:27:47.404152 22477 net.cpp:91] Creating Layer inception_3b/3x3
I0403 18:27:47.404170 22477 net.cpp:425] inception_3b/3x3 <- inception_3b/3x3_reduce
I0403 18:27:47.404189 22477 net.cpp:399] inception_3b/3x3 -> inception_3b/3x3
I0403 18:27:47.406939 22477 net.cpp:141] Setting up inception_3b/3x3
I0403 18:27:47.406967 22477 net.cpp:148] Top shape: 24 192 28 28 (3612672)
I0403 18:27:47.406983 22477 net.cpp:156] Memory required for data: 710493216
I0403 18:27:47.407001 22477 layer_factory.hpp:77] Creating layer inception_3b/relu_3x3
I0403 18:27:47.407016 22477 net.cpp:91] Creating Layer inception_3b/relu_3x3
I0403 18:27:47.407032 22477 net.cpp:425] inception_3b/relu_3x3 <- inception_3b/3x3
I0403 18:27:47.407049 22477 net.cpp:386] inception_3b/relu_3x3 -> inception_3b/3x3 (in-place)
I0403 18:27:47.407311 22477 net.cpp:141] Setting up inception_3b/relu_3x3
I0403 18:27:47.407340 22477 net.cpp:148] Top shape: 24 192 28 28 (3612672)
I0403 18:27:47.407354 22477 net.cpp:156] Memory required for data: 724943904
I0403 18:27:47.407368 22477 layer_factory.hpp:77] Creating layer inception_3b/5x5_reduce
I0403 18:27:47.407389 22477 net.cpp:91] Creating Layer inception_3b/5x5_reduce
I0403 18:27:47.407407 22477 net.cpp:425] inception_3b/5x5_reduce <- inception_3a/output_inception_3a/output_0_split_2
I0403 18:27:47.407424 22477 net.cpp:399] inception_3b/5x5_reduce -> inception_3b/5x5_reduce
I0403 18:27:47.408357 22477 net.cpp:141] Setting up inception_3b/5x5_reduce
I0403 18:27:47.408385 22477 net.cpp:148] Top shape: 24 32 28 28 (602112)
I0403 18:27:47.408398 22477 net.cpp:156] Memory required for data: 727352352
I0403 18:27:47.408417 22477 layer_factory.hpp:77] Creating layer inception_3b/relu_5x5_reduce
I0403 18:27:47.408435 22477 net.cpp:91] Creating Layer inception_3b/relu_5x5_reduce
I0403 18:27:47.408450 22477 net.cpp:425] inception_3b/relu_5x5_reduce <- inception_3b/5x5_reduce
I0403 18:27:47.408468 22477 net.cpp:386] inception_3b/relu_5x5_reduce -> inception_3b/5x5_reduce (in-place)
I0403 18:27:47.408653 22477 net.cpp:141] Setting up inception_3b/relu_5x5_reduce
I0403 18:27:47.408676 22477 net.cpp:148] Top shape: 24 32 28 28 (602112)
I0403 18:27:47.408690 22477 net.cpp:156] Memory required for data: 729760800
I0403 18:27:47.408704 22477 layer_factory.hpp:77] Creating layer inception_3b/5x5
I0403 18:27:47.408725 22477 net.cpp:91] Creating Layer inception_3b/5x5
I0403 18:27:47.408741 22477 net.cpp:425] inception_3b/5x5 <- inception_3b/5x5_reduce
I0403 18:27:47.408761 22477 net.cpp:399] inception_3b/5x5 -> inception_3b/5x5
I0403 18:27:47.410641 22477 net.cpp:141] Setting up inception_3b/5x5
I0403 18:27:47.410668 22477 net.cpp:148] Top shape: 24 96 28 28 (1806336)
I0403 18:27:47.410683 22477 net.cpp:156] Memory required for data: 736986144
I0403 18:27:47.410701 22477 layer_factory.hpp:77] Creating layer inception_3b/relu_5x5
I0403 18:27:47.410719 22477 net.cpp:91] Creating Layer inception_3b/relu_5x5
I0403 18:27:47.410735 22477 net.cpp:425] inception_3b/relu_5x5 <- inception_3b/5x5
I0403 18:27:47.410751 22477 net.cpp:386] inception_3b/relu_5x5 -> inception_3b/5x5 (in-place)
I0403 18:27:47.410935 22477 net.cpp:141] Setting up inception_3b/relu_5x5
I0403 18:27:47.410959 22477 net.cpp:148] Top shape: 24 96 28 28 (1806336)
I0403 18:27:47.410972 22477 net.cpp:156] Memory required for data: 744211488
I0403 18:27:47.410986 22477 layer_factory.hpp:77] Creating layer inception_3b/pool
I0403 18:27:47.411002 22477 net.cpp:91] Creating Layer inception_3b/pool
I0403 18:27:47.411017 22477 net.cpp:425] inception_3b/pool <- inception_3a/output_inception_3a/output_0_split_3
I0403 18:27:47.411034 22477 net.cpp:399] inception_3b/pool -> inception_3b/pool
I0403 18:27:47.411087 22477 net.cpp:141] Setting up inception_3b/pool
I0403 18:27:47.411108 22477 net.cpp:148] Top shape: 24 256 28 28 (4816896)
I0403 18:27:47.411123 22477 net.cpp:156] Memory required for data: 763479072
I0403 18:27:47.411136 22477 layer_factory.hpp:77] Creating layer inception_3b/pool_proj
I0403 18:27:47.411156 22477 net.cpp:91] Creating Layer inception_3b/pool_proj
I0403 18:27:47.411173 22477 net.cpp:425] inception_3b/pool_proj <- inception_3b/pool
I0403 18:27:47.411192 22477 net.cpp:399] inception_3b/pool_proj -> inception_3b/pool_proj
I0403 18:27:47.412196 22477 net.cpp:141] Setting up inception_3b/pool_proj
I0403 18:27:47.412222 22477 net.cpp:148] Top shape: 24 64 28 28 (1204224)
I0403 18:27:47.412237 22477 net.cpp:156] Memory required for data: 768295968
I0403 18:27:47.412255 22477 layer_factory.hpp:77] Creating layer inception_3b/relu_pool_proj
I0403 18:27:47.412271 22477 net.cpp:91] Creating Layer inception_3b/relu_pool_proj
I0403 18:27:47.412286 22477 net.cpp:425] inception_3b/relu_pool_proj <- inception_3b/pool_proj
I0403 18:27:47.412304 22477 net.cpp:386] inception_3b/relu_pool_proj -> inception_3b/pool_proj (in-place)
I0403 18:27:47.412680 22477 net.cpp:141] Setting up inception_3b/relu_pool_proj
I0403 18:27:47.412708 22477 net.cpp:148] Top shape: 24 64 28 28 (1204224)
I0403 18:27:47.412722 22477 net.cpp:156] Memory required for data: 773112864
I0403 18:27:47.412737 22477 layer_factory.hpp:77] Creating layer inception_3b/output
I0403 18:27:47.412752 22477 net.cpp:91] Creating Layer inception_3b/output
I0403 18:27:47.412766 22477 net.cpp:425] inception_3b/output <- inception_3b/1x1
I0403 18:27:47.412781 22477 net.cpp:425] inception_3b/output <- inception_3b/3x3
I0403 18:27:47.412796 22477 net.cpp:425] inception_3b/output <- inception_3b/5x5
I0403 18:27:47.412811 22477 net.cpp:425] inception_3b/output <- inception_3b/pool_proj
I0403 18:27:47.412829 22477 net.cpp:399] inception_3b/output -> inception_3b/output
I0403 18:27:47.412870 22477 net.cpp:141] Setting up inception_3b/output
I0403 18:27:47.412891 22477 net.cpp:148] Top shape: 24 480 28 28 (9031680)
I0403 18:27:47.412905 22477 net.cpp:156] Memory required for data: 809239584
I0403 18:27:47.412919 22477 layer_factory.hpp:77] Creating layer pool3/3x3_s2
I0403 18:27:47.412936 22477 net.cpp:91] Creating Layer pool3/3x3_s2
I0403 18:27:47.412951 22477 net.cpp:425] pool3/3x3_s2 <- inception_3b/output
I0403 18:27:47.412982 22477 net.cpp:399] pool3/3x3_s2 -> pool3/3x3_s2
I0403 18:27:47.413041 22477 net.cpp:141] Setting up pool3/3x3_s2
I0403 18:27:47.413064 22477 net.cpp:148] Top shape: 24 480 14 14 (2257920)
I0403 18:27:47.413076 22477 net.cpp:156] Memory required for data: 818271264
I0403 18:27:47.413089 22477 layer_factory.hpp:77] Creating layer pool3/3x3_s2_pool3/3x3_s2_0_split
I0403 18:27:47.413105 22477 net.cpp:91] Creating Layer pool3/3x3_s2_pool3/3x3_s2_0_split
I0403 18:27:47.413122 22477 net.cpp:425] pool3/3x3_s2_pool3/3x3_s2_0_split <- pool3/3x3_s2
I0403 18:27:47.413138 22477 net.cpp:399] pool3/3x3_s2_pool3/3x3_s2_0_split -> pool3/3x3_s2_pool3/3x3_s2_0_split_0
I0403 18:27:47.413157 22477 net.cpp:399] pool3/3x3_s2_pool3/3x3_s2_0_split -> pool3/3x3_s2_pool3/3x3_s2_0_split_1
I0403 18:27:47.413175 22477 net.cpp:399] pool3/3x3_s2_pool3/3x3_s2_0_split -> pool3/3x3_s2_pool3/3x3_s2_0_split_2
I0403 18:27:47.413192 22477 net.cpp:399] pool3/3x3_s2_pool3/3x3_s2_0_split -> pool3/3x3_s2_pool3/3x3_s2_0_split_3
I0403 18:27:47.413264 22477 net.cpp:141] Setting up pool3/3x3_s2_pool3/3x3_s2_0_split
I0403 18:27:47.413286 22477 net.cpp:148] Top shape: 24 480 14 14 (2257920)
I0403 18:27:47.413301 22477 net.cpp:148] Top shape: 24 480 14 14 (2257920)
I0403 18:27:47.413316 22477 net.cpp:148] Top shape: 24 480 14 14 (2257920)
I0403 18:27:47.413329 22477 net.cpp:148] Top shape: 24 480 14 14 (2257920)
I0403 18:27:47.413341 22477 net.cpp:156] Memory required for data: 854397984
I0403 18:27:47.413354 22477 layer_factory.hpp:77] Creating layer inception_4a/1x1
I0403 18:27:47.413375 22477 net.cpp:91] Creating Layer inception_4a/1x1
I0403 18:27:47.413390 22477 net.cpp:425] inception_4a/1x1 <- pool3/3x3_s2_pool3/3x3_s2_0_split_0
I0403 18:27:47.413410 22477 net.cpp:399] inception_4a/1x1 -> inception_4a/1x1
I0403 18:27:47.414968 22477 net.cpp:141] Setting up inception_4a/1x1
I0403 18:27:47.414994 22477 net.cpp:148] Top shape: 24 192 14 14 (903168)
I0403 18:27:47.415007 22477 net.cpp:156] Memory required for data: 858010656
I0403 18:27:47.415024 22477 layer_factory.hpp:77] Creating layer inception_4a/relu_1x1
I0403 18:27:47.415040 22477 net.cpp:91] Creating Layer inception_4a/relu_1x1
I0403 18:27:47.415055 22477 net.cpp:425] inception_4a/relu_1x1 <- inception_4a/1x1
I0403 18:27:47.415073 22477 net.cpp:386] inception_4a/relu_1x1 -> inception_4a/1x1 (in-place)
I0403 18:27:47.415241 22477 net.cpp:141] Setting up inception_4a/relu_1x1
I0403 18:27:47.415263 22477 net.cpp:148] Top shape: 24 192 14 14 (903168)
I0403 18:27:47.415277 22477 net.cpp:156] Memory required for data: 861623328
I0403 18:27:47.415290 22477 layer_factory.hpp:77] Creating layer inception_4a/3x3_reduce
I0403 18:27:47.415312 22477 net.cpp:91] Creating Layer inception_4a/3x3_reduce
I0403 18:27:47.415328 22477 net.cpp:425] inception_4a/3x3_reduce <- pool3/3x3_s2_pool3/3x3_s2_0_split_1
I0403 18:27:47.415349 22477 net.cpp:399] inception_4a/3x3_reduce -> inception_4a/3x3_reduce
I0403 18:27:47.416561 22477 net.cpp:141] Setting up inception_4a/3x3_reduce
I0403 18:27:47.416589 22477 net.cpp:148] Top shape: 24 96 14 14 (451584)
I0403 18:27:47.416604 22477 net.cpp:156] Memory required for data: 863429664
I0403 18:27:47.416625 22477 layer_factory.hpp:77] Creating layer inception_4a/relu_3x3_reduce
I0403 18:27:47.416645 22477 net.cpp:91] Creating Layer inception_4a/relu_3x3_reduce
I0403 18:27:47.416659 22477 net.cpp:425] inception_4a/relu_3x3_reduce <- inception_4a/3x3_reduce
I0403 18:27:47.416677 22477 net.cpp:386] inception_4a/relu_3x3_reduce -> inception_4a/3x3_reduce (in-place)
I0403 18:27:47.416852 22477 net.cpp:141] Setting up inception_4a/relu_3x3_reduce
I0403 18:27:47.416875 22477 net.cpp:148] Top shape: 24 96 14 14 (451584)
I0403 18:27:47.416889 22477 net.cpp:156] Memory required for data: 865236000
I0403 18:27:47.416903 22477 layer_factory.hpp:77] Creating layer inception_4a/3x3
I0403 18:27:47.416923 22477 net.cpp:91] Creating Layer inception_4a/3x3
I0403 18:27:47.416939 22477 net.cpp:425] inception_4a/3x3 <- inception_4a/3x3_reduce
I0403 18:27:47.416961 22477 net.cpp:399] inception_4a/3x3 -> inception_4a/3x3
I0403 18:27:47.419492 22477 net.cpp:141] Setting up inception_4a/3x3
I0403 18:27:47.419523 22477 net.cpp:148] Top shape: 24 208 14 14 (978432)
I0403 18:27:47.419538 22477 net.cpp:156] Memory required for data: 869149728
I0403 18:27:47.419555 22477 layer_factory.hpp:77] Creating layer inception_4a/relu_3x3
I0403 18:27:47.419574 22477 net.cpp:91] Creating Layer inception_4a/relu_3x3
I0403 18:27:47.419590 22477 net.cpp:425] inception_4a/relu_3x3 <- inception_4a/3x3
I0403 18:27:47.419606 22477 net.cpp:386] inception_4a/relu_3x3 -> inception_4a/3x3 (in-place)
I0403 18:27:47.419869 22477 net.cpp:141] Setting up inception_4a/relu_3x3
I0403 18:27:47.419894 22477 net.cpp:148] Top shape: 24 208 14 14 (978432)
I0403 18:27:47.419909 22477 net.cpp:156] Memory required for data: 873063456
I0403 18:27:47.419922 22477 layer_factory.hpp:77] Creating layer inception_4a/5x5_reduce
I0403 18:27:47.419944 22477 net.cpp:91] Creating Layer inception_4a/5x5_reduce
I0403 18:27:47.419963 22477 net.cpp:425] inception_4a/5x5_reduce <- pool3/3x3_s2_pool3/3x3_s2_0_split_2
I0403 18:27:47.419981 22477 net.cpp:399] inception_4a/5x5_reduce -> inception_4a/5x5_reduce
I0403 18:27:47.420941 22477 net.cpp:141] Setting up inception_4a/5x5_reduce
I0403 18:27:47.420967 22477 net.cpp:148] Top shape: 24 16 14 14 (75264)
I0403 18:27:47.420982 22477 net.cpp:156] Memory required for data: 873364512
I0403 18:27:47.420999 22477 layer_factory.hpp:77] Creating layer inception_4a/relu_5x5_reduce
I0403 18:27:47.421018 22477 net.cpp:91] Creating Layer inception_4a/relu_5x5_reduce
I0403 18:27:47.421035 22477 net.cpp:425] inception_4a/relu_5x5_reduce <- inception_4a/5x5_reduce
I0403 18:27:47.421051 22477 net.cpp:386] inception_4a/relu_5x5_reduce -> inception_4a/5x5_reduce (in-place)
I0403 18:27:47.421222 22477 net.cpp:141] Setting up inception_4a/relu_5x5_reduce
I0403 18:27:47.421246 22477 net.cpp:148] Top shape: 24 16 14 14 (75264)
I0403 18:27:47.421260 22477 net.cpp:156] Memory required for data: 873665568
I0403 18:27:47.421274 22477 layer_factory.hpp:77] Creating layer inception_4a/5x5
I0403 18:27:47.421295 22477 net.cpp:91] Creating Layer inception_4a/5x5
I0403 18:27:47.421311 22477 net.cpp:425] inception_4a/5x5 <- inception_4a/5x5_reduce
I0403 18:27:47.421330 22477 net.cpp:399] inception_4a/5x5 -> inception_4a/5x5
I0403 18:27:47.422356 22477 net.cpp:141] Setting up inception_4a/5x5
I0403 18:27:47.422384 22477 net.cpp:148] Top shape: 24 48 14 14 (225792)
I0403 18:27:47.422399 22477 net.cpp:156] Memory required for data: 874568736
I0403 18:27:47.422416 22477 layer_factory.hpp:77] Creating layer inception_4a/relu_5x5
I0403 18:27:47.422435 22477 net.cpp:91] Creating Layer inception_4a/relu_5x5
I0403 18:27:47.422449 22477 net.cpp:425] inception_4a/relu_5x5 <- inception_4a/5x5
I0403 18:27:47.422467 22477 net.cpp:386] inception_4a/relu_5x5 -> inception_4a/5x5 (in-place)
I0403 18:27:47.422641 22477 net.cpp:141] Setting up inception_4a/relu_5x5
I0403 18:27:47.422663 22477 net.cpp:148] Top shape: 24 48 14 14 (225792)
I0403 18:27:47.422677 22477 net.cpp:156] Memory required for data: 875471904
I0403 18:27:47.422691 22477 layer_factory.hpp:77] Creating layer inception_4a/pool
I0403 18:27:47.422709 22477 net.cpp:91] Creating Layer inception_4a/pool
I0403 18:27:47.422725 22477 net.cpp:425] inception_4a/pool <- pool3/3x3_s2_pool3/3x3_s2_0_split_3
I0403 18:27:47.422741 22477 net.cpp:399] inception_4a/pool -> inception_4a/pool
I0403 18:27:47.422799 22477 net.cpp:141] Setting up inception_4a/pool
I0403 18:27:47.422821 22477 net.cpp:148] Top shape: 24 480 14 14 (2257920)
I0403 18:27:47.422835 22477 net.cpp:156] Memory required for data: 884503584
I0403 18:27:47.422849 22477 layer_factory.hpp:77] Creating layer inception_4a/pool_proj
I0403 18:27:47.422869 22477 net.cpp:91] Creating Layer inception_4a/pool_proj
I0403 18:27:47.422885 22477 net.cpp:425] inception_4a/pool_proj <- inception_4a/pool
I0403 18:27:47.422904 22477 net.cpp:399] inception_4a/pool_proj -> inception_4a/pool_proj
I0403 18:27:47.423998 22477 net.cpp:141] Setting up inception_4a/pool_proj
I0403 18:27:47.424026 22477 net.cpp:148] Top shape: 24 64 14 14 (301056)
I0403 18:27:47.424053 22477 net.cpp:156] Memory required for data: 885707808
I0403 18:27:47.424072 22477 layer_factory.hpp:77] Creating layer inception_4a/relu_pool_proj
I0403 18:27:47.424090 22477 net.cpp:91] Creating Layer inception_4a/relu_pool_proj
I0403 18:27:47.424106 22477 net.cpp:425] inception_4a/relu_pool_proj <- inception_4a/pool_proj
I0403 18:27:47.424123 22477 net.cpp:386] inception_4a/relu_pool_proj -> inception_4a/pool_proj (in-place)
I0403 18:27:47.424391 22477 net.cpp:141] Setting up inception_4a/relu_pool_proj
I0403 18:27:47.424415 22477 net.cpp:148] Top shape: 24 64 14 14 (301056)
I0403 18:27:47.424429 22477 net.cpp:156] Memory required for data: 886912032
I0403 18:27:47.424443 22477 layer_factory.hpp:77] Creating layer inception_4a/output
I0403 18:27:47.424459 22477 net.cpp:91] Creating Layer inception_4a/output
I0403 18:27:47.424474 22477 net.cpp:425] inception_4a/output <- inception_4a/1x1
I0403 18:27:47.424489 22477 net.cpp:425] inception_4a/output <- inception_4a/3x3
I0403 18:27:47.424512 22477 net.cpp:425] inception_4a/output <- inception_4a/5x5
I0403 18:27:47.424531 22477 net.cpp:425] inception_4a/output <- inception_4a/pool_proj
I0403 18:27:47.424551 22477 net.cpp:399] inception_4a/output -> inception_4a/output
I0403 18:27:47.424592 22477 net.cpp:141] Setting up inception_4a/output
I0403 18:27:47.424617 22477 net.cpp:148] Top shape: 24 512 14 14 (2408448)
I0403 18:27:47.424630 22477 net.cpp:156] Memory required for data: 896545824
I0403 18:27:47.424644 22477 layer_factory.hpp:77] Creating layer inception_4a/output_inception_4a/output_0_split
I0403 18:27:47.424661 22477 net.cpp:91] Creating Layer inception_4a/output_inception_4a/output_0_split
I0403 18:27:47.424675 22477 net.cpp:425] inception_4a/output_inception_4a/output_0_split <- inception_4a/output
I0403 18:27:47.424693 22477 net.cpp:399] inception_4a/output_inception_4a/output_0_split -> inception_4a/output_inception_4a/output_0_split_0
I0403 18:27:47.424712 22477 net.cpp:399] inception_4a/output_inception_4a/output_0_split -> inception_4a/output_inception_4a/output_0_split_1
I0403 18:27:47.424732 22477 net.cpp:399] inception_4a/output_inception_4a/output_0_split -> inception_4a/output_inception_4a/output_0_split_2
I0403 18:27:47.424751 22477 net.cpp:399] inception_4a/output_inception_4a/output_0_split -> inception_4a/output_inception_4a/output_0_split_3
I0403 18:27:47.424770 22477 net.cpp:399] inception_4a/output_inception_4a/output_0_split -> inception_4a/output_inception_4a/output_0_split_4
I0403 18:27:47.424856 22477 net.cpp:141] Setting up inception_4a/output_inception_4a/output_0_split
I0403 18:27:47.424878 22477 net.cpp:148] Top shape: 24 512 14 14 (2408448)
I0403 18:27:47.424893 22477 net.cpp:148] Top shape: 24 512 14 14 (2408448)
I0403 18:27:47.424907 22477 net.cpp:148] Top shape: 24 512 14 14 (2408448)
I0403 18:27:47.424921 22477 net.cpp:148] Top shape: 24 512 14 14 (2408448)
I0403 18:27:47.424937 22477 net.cpp:148] Top shape: 24 512 14 14 (2408448)
I0403 18:27:47.424949 22477 net.cpp:156] Memory required for data: 944714784
I0403 18:27:47.424962 22477 layer_factory.hpp:77] Creating layer loss1/ave_pool
I0403 18:27:47.424980 22477 net.cpp:91] Creating Layer loss1/ave_pool
I0403 18:27:47.424996 22477 net.cpp:425] loss1/ave_pool <- inception_4a/output_inception_4a/output_0_split_0
I0403 18:27:47.425015 22477 net.cpp:399] loss1/ave_pool -> loss1/ave_pool
I0403 18:27:47.425206 22477 net.cpp:141] Setting up loss1/ave_pool
I0403 18:27:47.425231 22477 net.cpp:148] Top shape: 24 512 4 4 (196608)
I0403 18:27:47.425246 22477 net.cpp:156] Memory required for data: 945501216
I0403 18:27:47.425261 22477 layer_factory.hpp:77] Creating layer loss1/conv
I0403 18:27:47.425282 22477 net.cpp:91] Creating Layer loss1/conv
I0403 18:27:47.425298 22477 net.cpp:425] loss1/conv <- loss1/ave_pool
I0403 18:27:47.425318 22477 net.cpp:399] loss1/conv -> loss1/conv
I0403 18:27:47.426690 22477 net.cpp:141] Setting up loss1/conv
I0403 18:27:47.426717 22477 net.cpp:148] Top shape: 24 128 4 4 (49152)
I0403 18:27:47.426744 22477 net.cpp:156] Memory required for data: 945697824
I0403 18:27:47.426762 22477 layer_factory.hpp:77] Creating layer loss1/relu_conv
I0403 18:27:47.426781 22477 net.cpp:91] Creating Layer loss1/relu_conv
I0403 18:27:47.426797 22477 net.cpp:425] loss1/relu_conv <- loss1/conv
I0403 18:27:47.426813 22477 net.cpp:386] loss1/relu_conv -> loss1/conv (in-place)
I0403 18:27:47.427088 22477 net.cpp:141] Setting up loss1/relu_conv
I0403 18:27:47.427114 22477 net.cpp:148] Top shape: 24 128 4 4 (49152)
I0403 18:27:47.427127 22477 net.cpp:156] Memory required for data: 945894432
I0403 18:27:47.427141 22477 layer_factory.hpp:77] Creating layer loss1/fc
I0403 18:27:47.427165 22477 net.cpp:91] Creating Layer loss1/fc
I0403 18:27:47.427182 22477 net.cpp:425] loss1/fc <- loss1/conv
I0403 18:27:47.427202 22477 net.cpp:399] loss1/fc -> loss1/fc
I0403 18:27:47.444033 22477 net.cpp:141] Setting up loss1/fc
I0403 18:27:47.444064 22477 net.cpp:148] Top shape: 24 1024 (24576)
I0403 18:27:47.444080 22477 net.cpp:156] Memory required for data: 945992736
I0403 18:27:47.444097 22477 layer_factory.hpp:77] Creating layer loss1/relu_fc
I0403 18:27:47.444114 22477 net.cpp:91] Creating Layer loss1/relu_fc
I0403 18:27:47.444129 22477 net.cpp:425] loss1/relu_fc <- loss1/fc
I0403 18:27:47.444149 22477 net.cpp:386] loss1/relu_fc -> loss1/fc (in-place)
I0403 18:27:47.444320 22477 net.cpp:141] Setting up loss1/relu_fc
I0403 18:27:47.444344 22477 net.cpp:148] Top shape: 24 1024 (24576)
I0403 18:27:47.444360 22477 net.cpp:156] Memory required for data: 946091040
I0403 18:27:47.444375 22477 layer_factory.hpp:77] Creating layer loss1/drop_fc
I0403 18:27:47.444397 22477 net.cpp:91] Creating Layer loss1/drop_fc
I0403 18:27:47.444414 22477 net.cpp:425] loss1/drop_fc <- loss1/fc
I0403 18:27:47.444430 22477 net.cpp:386] loss1/drop_fc -> loss1/fc (in-place)
I0403 18:27:47.444481 22477 net.cpp:141] Setting up loss1/drop_fc
I0403 18:27:47.444502 22477 net.cpp:148] Top shape: 24 1024 (24576)
I0403 18:27:47.444527 22477 net.cpp:156] Memory required for data: 946189344
I0403 18:27:47.444542 22477 layer_factory.hpp:77] Creating layer loss1/classifier_plantvillage
I0403 18:27:47.444560 22477 net.cpp:91] Creating Layer loss1/classifier_plantvillage
I0403 18:27:47.444576 22477 net.cpp:425] loss1/classifier_plantvillage <- loss1/fc
I0403 18:27:47.444594 22477 net.cpp:399] loss1/classifier_plantvillage -> loss1/classifier_plantvillage
I0403 18:27:47.445474 22477 net.cpp:141] Setting up loss1/classifier_plantvillage
I0403 18:27:47.445500 22477 net.cpp:148] Top shape: 24 38 (912)
I0403 18:27:47.445520 22477 net.cpp:156] Memory required for data: 946192992
I0403 18:27:47.445538 22477 layer_factory.hpp:77] Creating layer loss1/classifier_plantvillage_loss1/classifier_plantvillage_0_split
I0403 18:27:47.445557 22477 net.cpp:91] Creating Layer loss1/classifier_plantvillage_loss1/classifier_plantvillage_0_split
I0403 18:27:47.445574 22477 net.cpp:425] loss1/classifier_plantvillage_loss1/classifier_plantvillage_0_split <- loss1/classifier_plantvillage
I0403 18:27:47.445590 22477 net.cpp:399] loss1/classifier_plantvillage_loss1/classifier_plantvillage_0_split -> loss1/classifier_plantvillage_loss1/classifier_plantvillage_0_split_0
I0403 18:27:47.445608 22477 net.cpp:399] loss1/classifier_plantvillage_loss1/classifier_plantvillage_0_split -> loss1/classifier_plantvillage_loss1/classifier_plantvillage_0_split_1
I0403 18:27:47.445627 22477 net.cpp:399] loss1/classifier_plantvillage_loss1/classifier_plantvillage_0_split -> loss1/classifier_plantvillage_loss1/classifier_plantvillage_0_split_2
I0403 18:27:47.445690 22477 net.cpp:141] Setting up loss1/classifier_plantvillage_loss1/classifier_plantvillage_0_split
I0403 18:27:47.445713 22477 net.cpp:148] Top shape: 24 38 (912)
I0403 18:27:47.445729 22477 net.cpp:148] Top shape: 24 38 (912)
I0403 18:27:47.445742 22477 net.cpp:148] Top shape: 24 38 (912)
I0403 18:27:47.445755 22477 net.cpp:156] Memory required for data: 946203936
I0403 18:27:47.445767 22477 layer_factory.hpp:77] Creating layer inception_4b/1x1
I0403 18:27:47.445788 22477 net.cpp:91] Creating Layer inception_4b/1x1
I0403 18:27:47.445818 22477 net.cpp:425] inception_4b/1x1 <- inception_4a/output_inception_4a/output_0_split_1
I0403 18:27:47.445837 22477 net.cpp:399] inception_4b/1x1 -> inception_4b/1x1
I0403 18:27:47.447372 22477 net.cpp:141] Setting up inception_4b/1x1
I0403 18:27:47.447399 22477 net.cpp:148] Top shape: 24 160 14 14 (752640)
I0403 18:27:47.447414 22477 net.cpp:156] Memory required for data: 949214496
I0403 18:27:47.447432 22477 layer_factory.hpp:77] Creating layer inception_4b/relu_1x1
I0403 18:27:47.447449 22477 net.cpp:91] Creating Layer inception_4b/relu_1x1
I0403 18:27:47.447466 22477 net.cpp:425] inception_4b/relu_1x1 <- inception_4b/1x1
I0403 18:27:47.447482 22477 net.cpp:386] inception_4b/relu_1x1 -> inception_4b/1x1 (in-place)
I0403 18:27:47.447659 22477 net.cpp:141] Setting up inception_4b/relu_1x1
I0403 18:27:47.447682 22477 net.cpp:148] Top shape: 24 160 14 14 (752640)
I0403 18:27:47.447697 22477 net.cpp:156] Memory required for data: 952225056
I0403 18:27:47.447710 22477 layer_factory.hpp:77] Creating layer inception_4b/3x3_reduce
I0403 18:27:47.447733 22477 net.cpp:91] Creating Layer inception_4b/3x3_reduce
I0403 18:27:47.447751 22477 net.cpp:425] inception_4b/3x3_reduce <- inception_4a/output_inception_4a/output_0_split_2
I0403 18:27:47.447770 22477 net.cpp:399] inception_4b/3x3_reduce -> inception_4b/3x3_reduce
I0403 18:27:47.449044 22477 net.cpp:141] Setting up inception_4b/3x3_reduce
I0403 18:27:47.449074 22477 net.cpp:148] Top shape: 24 112 14 14 (526848)
I0403 18:27:47.449087 22477 net.cpp:156] Memory required for data: 954332448
I0403 18:27:47.449105 22477 layer_factory.hpp:77] Creating layer inception_4b/relu_3x3_reduce
I0403 18:27:47.449121 22477 net.cpp:91] Creating Layer inception_4b/relu_3x3_reduce
I0403 18:27:47.449137 22477 net.cpp:425] inception_4b/relu_3x3_reduce <- inception_4b/3x3_reduce
I0403 18:27:47.449156 22477 net.cpp:386] inception_4b/relu_3x3_reduce -> inception_4b/3x3_reduce (in-place)
I0403 18:27:47.449420 22477 net.cpp:141] Setting up inception_4b/relu_3x3_reduce
I0403 18:27:47.449446 22477 net.cpp:148] Top shape: 24 112 14 14 (526848)
I0403 18:27:47.449460 22477 net.cpp:156] Memory required for data: 956439840
I0403 18:27:47.449475 22477 layer_factory.hpp:77] Creating layer inception_4b/3x3
I0403 18:27:47.449497 22477 net.cpp:91] Creating Layer inception_4b/3x3
I0403 18:27:47.449520 22477 net.cpp:425] inception_4b/3x3 <- inception_4b/3x3_reduce
I0403 18:27:47.449542 22477 net.cpp:399] inception_4b/3x3 -> inception_4b/3x3
I0403 18:27:47.452358 22477 net.cpp:141] Setting up inception_4b/3x3
I0403 18:27:47.452384 22477 net.cpp:148] Top shape: 24 224 14 14 (1053696)
I0403 18:27:47.452407 22477 net.cpp:156] Memory required for data: 960654624
I0403 18:27:47.452425 22477 layer_factory.hpp:77] Creating layer inception_4b/relu_3x3
I0403 18:27:47.452443 22477 net.cpp:91] Creating Layer inception_4b/relu_3x3
I0403 18:27:47.452460 22477 net.cpp:425] inception_4b/relu_3x3 <- inception_4b/3x3
I0403 18:27:47.452476 22477 net.cpp:386] inception_4b/relu_3x3 -> inception_4b/3x3 (in-place)
I0403 18:27:47.452653 22477 net.cpp:141] Setting up inception_4b/relu_3x3
I0403 18:27:47.452679 22477 net.cpp:148] Top shape: 24 224 14 14 (1053696)
I0403 18:27:47.452694 22477 net.cpp:156] Memory required for data: 964869408
I0403 18:27:47.452708 22477 layer_factory.hpp:77] Creating layer inception_4b/5x5_reduce
I0403 18:27:47.452726 22477 net.cpp:91] Creating Layer inception_4b/5x5_reduce
I0403 18:27:47.452742 22477 net.cpp:425] inception_4b/5x5_reduce <- inception_4a/output_inception_4a/output_0_split_3
I0403 18:27:47.452764 22477 net.cpp:399] inception_4b/5x5_reduce -> inception_4b/5x5_reduce
I0403 18:27:47.453795 22477 net.cpp:141] Setting up inception_4b/5x5_reduce
I0403 18:27:47.453824 22477 net.cpp:148] Top shape: 24 24 14 14 (112896)
I0403 18:27:47.453838 22477 net.cpp:156] Memory required for data: 965320992
I0403 18:27:47.453855 22477 layer_factory.hpp:77] Creating layer inception_4b/relu_5x5_reduce
I0403 18:27:47.453871 22477 net.cpp:91] Creating Layer inception_4b/relu_5x5_reduce
I0403 18:27:47.453902 22477 net.cpp:425] inception_4b/relu_5x5_reduce <- inception_4b/5x5_reduce
I0403 18:27:47.453918 22477 net.cpp:386] inception_4b/relu_5x5_reduce -> inception_4b/5x5_reduce (in-place)
I0403 18:27:47.454097 22477 net.cpp:141] Setting up inception_4b/relu_5x5_reduce
I0403 18:27:47.454119 22477 net.cpp:148] Top shape: 24 24 14 14 (112896)
I0403 18:27:47.454133 22477 net.cpp:156] Memory required for data: 965772576
I0403 18:27:47.454146 22477 layer_factory.hpp:77] Creating layer inception_4b/5x5
I0403 18:27:47.454167 22477 net.cpp:91] Creating Layer inception_4b/5x5
I0403 18:27:47.454185 22477 net.cpp:425] inception_4b/5x5 <- inception_4b/5x5_reduce
I0403 18:27:47.454205 22477 net.cpp:399] inception_4b/5x5 -> inception_4b/5x5
I0403 18:27:47.455391 22477 net.cpp:141] Setting up inception_4b/5x5
I0403 18:27:47.455418 22477 net.cpp:148] Top shape: 24 64 14 14 (301056)
I0403 18:27:47.455432 22477 net.cpp:156] Memory required for data: 966976800
I0403 18:27:47.455449 22477 layer_factory.hpp:77] Creating layer inception_4b/relu_5x5
I0403 18:27:47.455468 22477 net.cpp:91] Creating Layer inception_4b/relu_5x5
I0403 18:27:47.455485 22477 net.cpp:425] inception_4b/relu_5x5 <- inception_4b/5x5
I0403 18:27:47.455502 22477 net.cpp:386] inception_4b/relu_5x5 -> inception_4b/5x5 (in-place)
I0403 18:27:47.455780 22477 net.cpp:141] Setting up inception_4b/relu_5x5
I0403 18:27:47.455804 22477 net.cpp:148] Top shape: 24 64 14 14 (301056)
I0403 18:27:47.455818 22477 net.cpp:156] Memory required for data: 968181024
I0403 18:27:47.455832 22477 layer_factory.hpp:77] Creating layer inception_4b/pool
I0403 18:27:47.455850 22477 net.cpp:91] Creating Layer inception_4b/pool
I0403 18:27:47.455867 22477 net.cpp:425] inception_4b/pool <- inception_4a/output_inception_4a/output_0_split_4
I0403 18:27:47.455883 22477 net.cpp:399] inception_4b/pool -> inception_4b/pool
I0403 18:27:47.455943 22477 net.cpp:141] Setting up inception_4b/pool
I0403 18:27:47.455965 22477 net.cpp:148] Top shape: 24 512 14 14 (2408448)
I0403 18:27:47.455979 22477 net.cpp:156] Memory required for data: 977814816
I0403 18:27:47.455993 22477 layer_factory.hpp:77] Creating layer inception_4b/pool_proj
I0403 18:27:47.456014 22477 net.cpp:91] Creating Layer inception_4b/pool_proj
I0403 18:27:47.456030 22477 net.cpp:425] inception_4b/pool_proj <- inception_4b/pool
I0403 18:27:47.456050 22477 net.cpp:399] inception_4b/pool_proj -> inception_4b/pool_proj
I0403 18:27:47.457198 22477 net.cpp:141] Setting up inception_4b/pool_proj
I0403 18:27:47.457227 22477 net.cpp:148] Top shape: 24 64 14 14 (301056)
I0403 18:27:47.457242 22477 net.cpp:156] Memory required for data: 979019040
I0403 18:27:47.457259 22477 layer_factory.hpp:77] Creating layer inception_4b/relu_pool_proj
I0403 18:27:47.457275 22477 net.cpp:91] Creating Layer inception_4b/relu_pool_proj
I0403 18:27:47.457290 22477 net.cpp:425] inception_4b/relu_pool_proj <- inception_4b/pool_proj
I0403 18:27:47.457309 22477 net.cpp:386] inception_4b/relu_pool_proj -> inception_4b/pool_proj (in-place)
I0403 18:27:47.457481 22477 net.cpp:141] Setting up inception_4b/relu_pool_proj
I0403 18:27:47.457510 22477 net.cpp:148] Top shape: 24 64 14 14 (301056)
I0403 18:27:47.457526 22477 net.cpp:156] Memory required for data: 980223264
I0403 18:27:47.457540 22477 layer_factory.hpp:77] Creating layer inception_4b/output
I0403 18:27:47.457556 22477 net.cpp:91] Creating Layer inception_4b/output
I0403 18:27:47.457569 22477 net.cpp:425] inception_4b/output <- inception_4b/1x1
I0403 18:27:47.457584 22477 net.cpp:425] inception_4b/output <- inception_4b/3x3
I0403 18:27:47.457599 22477 net.cpp:425] inception_4b/output <- inception_4b/5x5
I0403 18:27:47.457614 22477 net.cpp:425] inception_4b/output <- inception_4b/pool_proj
I0403 18:27:47.457633 22477 net.cpp:399] inception_4b/output -> inception_4b/output
I0403 18:27:47.457674 22477 net.cpp:141] Setting up inception_4b/output
I0403 18:27:47.457698 22477 net.cpp:148] Top shape: 24 512 14 14 (2408448)
I0403 18:27:47.457713 22477 net.cpp:156] Memory required for data: 989857056
I0403 18:27:47.457741 22477 layer_factory.hpp:77] Creating layer inception_4b/output_inception_4b/output_0_split
I0403 18:27:47.457757 22477 net.cpp:91] Creating Layer inception_4b/output_inception_4b/output_0_split
I0403 18:27:47.457772 22477 net.cpp:425] inception_4b/output_inception_4b/output_0_split <- inception_4b/output
I0403 18:27:47.457789 22477 net.cpp:399] inception_4b/output_inception_4b/output_0_split -> inception_4b/output_inception_4b/output_0_split_0
I0403 18:27:47.457808 22477 net.cpp:399] inception_4b/output_inception_4b/output_0_split -> inception_4b/output_inception_4b/output_0_split_1
I0403 18:27:47.457829 22477 net.cpp:399] inception_4b/output_inception_4b/output_0_split -> inception_4b/output_inception_4b/output_0_split_2
I0403 18:27:47.457851 22477 net.cpp:399] inception_4b/output_inception_4b/output_0_split -> inception_4b/output_inception_4b/output_0_split_3
I0403 18:27:47.457931 22477 net.cpp:141] Setting up inception_4b/output_inception_4b/output_0_split
I0403 18:27:47.457953 22477 net.cpp:148] Top shape: 24 512 14 14 (2408448)
I0403 18:27:47.457968 22477 net.cpp:148] Top shape: 24 512 14 14 (2408448)
I0403 18:27:47.457983 22477 net.cpp:148] Top shape: 24 512 14 14 (2408448)
I0403 18:27:47.457996 22477 net.cpp:148] Top shape: 24 512 14 14 (2408448)
I0403 18:27:47.458009 22477 net.cpp:156] Memory required for data: 1028392224
I0403 18:27:47.458022 22477 layer_factory.hpp:77] Creating layer inception_4c/1x1
I0403 18:27:47.458042 22477 net.cpp:91] Creating Layer inception_4c/1x1
I0403 18:27:47.458060 22477 net.cpp:425] inception_4c/1x1 <- inception_4b/output_inception_4b/output_0_split_0
I0403 18:27:47.458078 22477 net.cpp:399] inception_4c/1x1 -> inception_4c/1x1
I0403 18:27:47.459480 22477 net.cpp:141] Setting up inception_4c/1x1
I0403 18:27:47.459511 22477 net.cpp:148] Top shape: 24 128 14 14 (602112)
I0403 18:27:47.459528 22477 net.cpp:156] Memory required for data: 1030800672
I0403 18:27:47.459545 22477 layer_factory.hpp:77] Creating layer inception_4c/relu_1x1
I0403 18:27:47.459563 22477 net.cpp:91] Creating Layer inception_4c/relu_1x1
I0403 18:27:47.459578 22477 net.cpp:425] inception_4c/relu_1x1 <- inception_4c/1x1
I0403 18:27:47.459595 22477 net.cpp:386] inception_4c/relu_1x1 -> inception_4c/1x1 (in-place)
I0403 18:27:47.459767 22477 net.cpp:141] Setting up inception_4c/relu_1x1
I0403 18:27:47.459791 22477 net.cpp:148] Top shape: 24 128 14 14 (602112)
I0403 18:27:47.459805 22477 net.cpp:156] Memory required for data: 1033209120
I0403 18:27:47.459818 22477 layer_factory.hpp:77] Creating layer inception_4c/3x3_reduce
I0403 18:27:47.459839 22477 net.cpp:91] Creating Layer inception_4c/3x3_reduce
I0403 18:27:47.459856 22477 net.cpp:425] inception_4c/3x3_reduce <- inception_4b/output_inception_4b/output_0_split_1
I0403 18:27:47.459879 22477 net.cpp:399] inception_4c/3x3_reduce -> inception_4c/3x3_reduce
I0403 18:27:47.461732 22477 net.cpp:141] Setting up inception_4c/3x3_reduce
I0403 18:27:47.461760 22477 net.cpp:148] Top shape: 24 128 14 14 (602112)
I0403 18:27:47.461774 22477 net.cpp:156] Memory required for data: 1035617568
I0403 18:27:47.461791 22477 layer_factory.hpp:77] Creating layer inception_4c/relu_3x3_reduce
I0403 18:27:47.461810 22477 net.cpp:91] Creating Layer inception_4c/relu_3x3_reduce
I0403 18:27:47.461825 22477 net.cpp:425] inception_4c/relu_3x3_reduce <- inception_4c/3x3_reduce
I0403 18:27:47.461841 22477 net.cpp:386] inception_4c/relu_3x3_reduce -> inception_4c/3x3_reduce (in-place)
I0403 18:27:47.462111 22477 net.cpp:141] Setting up inception_4c/relu_3x3_reduce
I0403 18:27:47.462137 22477 net.cpp:148] Top shape: 24 128 14 14 (602112)
I0403 18:27:47.462151 22477 net.cpp:156] Memory required for data: 1038026016
I0403 18:27:47.462164 22477 layer_factory.hpp:77] Creating layer inception_4c/3x3
I0403 18:27:47.462185 22477 net.cpp:91] Creating Layer inception_4c/3x3
I0403 18:27:47.462203 22477 net.cpp:425] inception_4c/3x3 <- inception_4c/3x3_reduce
I0403 18:27:47.462224 22477 net.cpp:399] inception_4c/3x3 -> inception_4c/3x3
I0403 18:27:47.465654 22477 net.cpp:141] Setting up inception_4c/3x3
I0403 18:27:47.465692 22477 net.cpp:148] Top shape: 24 256 14 14 (1204224)
I0403 18:27:47.465708 22477 net.cpp:156] Memory required for data: 1042842912
I0403 18:27:47.465737 22477 layer_factory.hpp:77] Creating layer inception_4c/relu_3x3
I0403 18:27:47.465759 22477 net.cpp:91] Creating Layer inception_4c/relu_3x3
I0403 18:27:47.465775 22477 net.cpp:425] inception_4c/relu_3x3 <- inception_4c/3x3
I0403 18:27:47.465792 22477 net.cpp:386] inception_4c/relu_3x3 -> inception_4c/3x3 (in-place)
I0403 18:27:47.465967 22477 net.cpp:141] Setting up inception_4c/relu_3x3
I0403 18:27:47.465993 22477 net.cpp:148] Top shape: 24 256 14 14 (1204224)
I0403 18:27:47.466008 22477 net.cpp:156] Memory required for data: 1047659808
I0403 18:27:47.466022 22477 layer_factory.hpp:77] Creating layer inception_4c/5x5_reduce
I0403 18:27:47.466043 22477 net.cpp:91] Creating Layer inception_4c/5x5_reduce
I0403 18:27:47.466060 22477 net.cpp:425] inception_4c/5x5_reduce <- inception_4b/output_inception_4b/output_0_split_2
I0403 18:27:47.466078 22477 net.cpp:399] inception_4c/5x5_reduce -> inception_4c/5x5_reduce
I0403 18:27:47.467115 22477 net.cpp:141] Setting up inception_4c/5x5_reduce
I0403 18:27:47.467144 22477 net.cpp:148] Top shape: 24 24 14 14 (112896)
I0403 18:27:47.467159 22477 net.cpp:156] Memory required for data: 1048111392
I0403 18:27:47.467177 22477 layer_factory.hpp:77] Creating layer inception_4c/relu_5x5_reduce
I0403 18:27:47.467195 22477 net.cpp:91] Creating Layer inception_4c/relu_5x5_reduce
I0403 18:27:47.467209 22477 net.cpp:425] inception_4c/relu_5x5_reduce <- inception_4c/5x5_reduce
I0403 18:27:47.467226 22477 net.cpp:386] inception_4c/relu_5x5_reduce -> inception_4c/5x5_reduce (in-place)
I0403 18:27:47.467404 22477 net.cpp:141] Setting up inception_4c/relu_5x5_reduce
I0403 18:27:47.467427 22477 net.cpp:148] Top shape: 24 24 14 14 (112896)
I0403 18:27:47.467442 22477 net.cpp:156] Memory required for data: 1048562976
I0403 18:27:47.467454 22477 layer_factory.hpp:77] Creating layer inception_4c/5x5
I0403 18:27:47.467478 22477 net.cpp:91] Creating Layer inception_4c/5x5
I0403 18:27:47.467495 22477 net.cpp:425] inception_4c/5x5 <- inception_4c/5x5_reduce
I0403 18:27:47.467521 22477 net.cpp:399] inception_4c/5x5 -> inception_4c/5x5
I0403 18:27:47.468708 22477 net.cpp:141] Setting up inception_4c/5x5
I0403 18:27:47.468734 22477 net.cpp:148] Top shape: 24 64 14 14 (301056)
I0403 18:27:47.468747 22477 net.cpp:156] Memory required for data: 1049767200
I0403 18:27:47.468765 22477 layer_factory.hpp:77] Creating layer inception_4c/relu_5x5
I0403 18:27:47.468781 22477 net.cpp:91] Creating Layer inception_4c/relu_5x5
I0403 18:27:47.468796 22477 net.cpp:425] inception_4c/relu_5x5 <- inception_4c/5x5
I0403 18:27:47.468814 22477 net.cpp:386] inception_4c/relu_5x5 -> inception_4c/5x5 (in-place)
I0403 18:27:47.469105 22477 net.cpp:141] Setting up inception_4c/relu_5x5
I0403 18:27:47.469130 22477 net.cpp:148] Top shape: 24 64 14 14 (301056)
I0403 18:27:47.469144 22477 net.cpp:156] Memory required for data: 1050971424
I0403 18:27:47.469158 22477 layer_factory.hpp:77] Creating layer inception_4c/pool
I0403 18:27:47.469175 22477 net.cpp:91] Creating Layer inception_4c/pool
I0403 18:27:47.469190 22477 net.cpp:425] inception_4c/pool <- inception_4b/output_inception_4b/output_0_split_3
I0403 18:27:47.469209 22477 net.cpp:399] inception_4c/pool -> inception_4c/pool
I0403 18:27:47.469274 22477 net.cpp:141] Setting up inception_4c/pool
I0403 18:27:47.469297 22477 net.cpp:148] Top shape: 24 512 14 14 (2408448)
I0403 18:27:47.469310 22477 net.cpp:156] Memory required for data: 1060605216
I0403 18:27:47.469324 22477 layer_factory.hpp:77] Creating layer inception_4c/pool_proj
I0403 18:27:47.469347 22477 net.cpp:91] Creating Layer inception_4c/pool_proj
I0403 18:27:47.469377 22477 net.cpp:425] inception_4c/pool_proj <- inception_4c/pool
I0403 18:27:47.469393 22477 net.cpp:399] inception_4c/pool_proj -> inception_4c/pool_proj
I0403 18:27:47.470563 22477 net.cpp:141] Setting up inception_4c/pool_proj
I0403 18:27:47.470590 22477 net.cpp:148] Top shape: 24 64 14 14 (301056)
I0403 18:27:47.470618 22477 net.cpp:156] Memory required for data: 1061809440
I0403 18:27:47.470636 22477 layer_factory.hpp:77] Creating layer inception_4c/relu_pool_proj
I0403 18:27:47.470655 22477 net.cpp:91] Creating Layer inception_4c/relu_pool_proj
I0403 18:27:47.470671 22477 net.cpp:425] inception_4c/relu_pool_proj <- inception_4c/pool_proj
I0403 18:27:47.470688 22477 net.cpp:386] inception_4c/relu_pool_proj -> inception_4c/pool_proj (in-place)
I0403 18:27:47.470865 22477 net.cpp:141] Setting up inception_4c/relu_pool_proj
I0403 18:27:47.470890 22477 net.cpp:148] Top shape: 24 64 14 14 (301056)
I0403 18:27:47.470902 22477 net.cpp:156] Memory required for data: 1063013664
I0403 18:27:47.470916 22477 layer_factory.hpp:77] Creating layer inception_4c/output
I0403 18:27:47.470932 22477 net.cpp:91] Creating Layer inception_4c/output
I0403 18:27:47.470947 22477 net.cpp:425] inception_4c/output <- inception_4c/1x1
I0403 18:27:47.470962 22477 net.cpp:425] inception_4c/output <- inception_4c/3x3
I0403 18:27:47.470976 22477 net.cpp:425] inception_4c/output <- inception_4c/5x5
I0403 18:27:47.470991 22477 net.cpp:425] inception_4c/output <- inception_4c/pool_proj
I0403 18:27:47.471009 22477 net.cpp:399] inception_4c/output -> inception_4c/output
I0403 18:27:47.471052 22477 net.cpp:141] Setting up inception_4c/output
I0403 18:27:47.471079 22477 net.cpp:148] Top shape: 24 512 14 14 (2408448)
I0403 18:27:47.471094 22477 net.cpp:156] Memory required for data: 1072647456
I0403 18:27:47.471107 22477 layer_factory.hpp:77] Creating layer inception_4c/output_inception_4c/output_0_split
I0403 18:27:47.471123 22477 net.cpp:91] Creating Layer inception_4c/output_inception_4c/output_0_split
I0403 18:27:47.471138 22477 net.cpp:425] inception_4c/output_inception_4c/output_0_split <- inception_4c/output
I0403 18:27:47.471153 22477 net.cpp:399] inception_4c/output_inception_4c/output_0_split -> inception_4c/output_inception_4c/output_0_split_0
I0403 18:27:47.471171 22477 net.cpp:399] inception_4c/output_inception_4c/output_0_split -> inception_4c/output_inception_4c/output_0_split_1
I0403 18:27:47.471192 22477 net.cpp:399] inception_4c/output_inception_4c/output_0_split -> inception_4c/output_inception_4c/output_0_split_2
I0403 18:27:47.471213 22477 net.cpp:399] inception_4c/output_inception_4c/output_0_split -> inception_4c/output_inception_4c/output_0_split_3
I0403 18:27:47.471295 22477 net.cpp:141] Setting up inception_4c/output_inception_4c/output_0_split
I0403 18:27:47.471318 22477 net.cpp:148] Top shape: 24 512 14 14 (2408448)
I0403 18:27:47.471333 22477 net.cpp:148] Top shape: 24 512 14 14 (2408448)
I0403 18:27:47.471346 22477 net.cpp:148] Top shape: 24 512 14 14 (2408448)
I0403 18:27:47.471360 22477 net.cpp:148] Top shape: 24 512 14 14 (2408448)
I0403 18:27:47.471374 22477 net.cpp:156] Memory required for data: 1111182624
I0403 18:27:47.471386 22477 layer_factory.hpp:77] Creating layer inception_4d/1x1
I0403 18:27:47.471407 22477 net.cpp:91] Creating Layer inception_4d/1x1
I0403 18:27:47.471424 22477 net.cpp:425] inception_4d/1x1 <- inception_4c/output_inception_4c/output_0_split_0
I0403 18:27:47.471444 22477 net.cpp:399] inception_4d/1x1 -> inception_4d/1x1
I0403 18:27:47.472769 22477 net.cpp:141] Setting up inception_4d/1x1
I0403 18:27:47.472796 22477 net.cpp:148] Top shape: 24 112 14 14 (526848)
I0403 18:27:47.472810 22477 net.cpp:156] Memory required for data: 1113290016
I0403 18:27:47.472827 22477 layer_factory.hpp:77] Creating layer inception_4d/relu_1x1
I0403 18:27:47.472846 22477 net.cpp:91] Creating Layer inception_4d/relu_1x1
I0403 18:27:47.472862 22477 net.cpp:425] inception_4d/relu_1x1 <- inception_4d/1x1
I0403 18:27:47.472878 22477 net.cpp:386] inception_4d/relu_1x1 -> inception_4d/1x1 (in-place)
I0403 18:27:47.473053 22477 net.cpp:141] Setting up inception_4d/relu_1x1
I0403 18:27:47.473079 22477 net.cpp:148] Top shape: 24 112 14 14 (526848)
I0403 18:27:47.473093 22477 net.cpp:156] Memory required for data: 1115397408
I0403 18:27:47.473107 22477 layer_factory.hpp:77] Creating layer inception_4d/3x3_reduce
I0403 18:27:47.473141 22477 net.cpp:91] Creating Layer inception_4d/3x3_reduce
I0403 18:27:47.473160 22477 net.cpp:425] inception_4d/3x3_reduce <- inception_4c/output_inception_4c/output_0_split_1
I0403 18:27:47.473178 22477 net.cpp:399] inception_4d/3x3_reduce -> inception_4d/3x3_reduce
I0403 18:27:47.474629 22477 net.cpp:141] Setting up inception_4d/3x3_reduce
I0403 18:27:47.474655 22477 net.cpp:148] Top shape: 24 144 14 14 (677376)
I0403 18:27:47.474670 22477 net.cpp:156] Memory required for data: 1118106912
I0403 18:27:47.474688 22477 layer_factory.hpp:77] Creating layer inception_4d/relu_3x3_reduce
I0403 18:27:47.474706 22477 net.cpp:91] Creating Layer inception_4d/relu_3x3_reduce
I0403 18:27:47.474722 22477 net.cpp:425] inception_4d/relu_3x3_reduce <- inception_4d/3x3_reduce
I0403 18:27:47.474738 22477 net.cpp:386] inception_4d/relu_3x3_reduce -> inception_4d/3x3_reduce (in-place)
I0403 18:27:47.475015 22477 net.cpp:141] Setting up inception_4d/relu_3x3_reduce
I0403 18:27:47.475040 22477 net.cpp:148] Top shape: 24 144 14 14 (677376)
I0403 18:27:47.475055 22477 net.cpp:156] Memory required for data: 1120816416
I0403 18:27:47.475069 22477 layer_factory.hpp:77] Creating layer inception_4d/3x3
I0403 18:27:47.475090 22477 net.cpp:91] Creating Layer inception_4d/3x3
I0403 18:27:47.475106 22477 net.cpp:425] inception_4d/3x3 <- inception_4d/3x3_reduce
I0403 18:27:47.475126 22477 net.cpp:399] inception_4d/3x3 -> inception_4d/3x3
I0403 18:27:47.479226 22477 net.cpp:141] Setting up inception_4d/3x3
I0403 18:27:47.479255 22477 net.cpp:148] Top shape: 24 288 14 14 (1354752)
I0403 18:27:47.479270 22477 net.cpp:156] Memory required for data: 1126235424
I0403 18:27:47.479288 22477 layer_factory.hpp:77] Creating layer inception_4d/relu_3x3
I0403 18:27:47.479307 22477 net.cpp:91] Creating Layer inception_4d/relu_3x3
I0403 18:27:47.479324 22477 net.cpp:425] inception_4d/relu_3x3 <- inception_4d/3x3
I0403 18:27:47.479341 22477 net.cpp:386] inception_4d/relu_3x3 -> inception_4d/3x3 (in-place)
I0403 18:27:47.479524 22477 net.cpp:141] Setting up inception_4d/relu_3x3
I0403 18:27:47.479550 22477 net.cpp:148] Top shape: 24 288 14 14 (1354752)
I0403 18:27:47.479567 22477 net.cpp:156] Memory required for data: 1131654432
I0403 18:27:47.479579 22477 layer_factory.hpp:77] Creating layer inception_4d/5x5_reduce
I0403 18:27:47.479600 22477 net.cpp:91] Creating Layer inception_4d/5x5_reduce
I0403 18:27:47.479617 22477 net.cpp:425] inception_4d/5x5_reduce <- inception_4c/output_inception_4c/output_0_split_2
I0403 18:27:47.479635 22477 net.cpp:399] inception_4d/5x5_reduce -> inception_4d/5x5_reduce
I0403 18:27:47.480726 22477 net.cpp:141] Setting up inception_4d/5x5_reduce
I0403 18:27:47.480751 22477 net.cpp:148] Top shape: 24 32 14 14 (150528)
I0403 18:27:47.480765 22477 net.cpp:156] Memory required for data: 1132256544
I0403 18:27:47.480782 22477 layer_factory.hpp:77] Creating layer inception_4d/relu_5x5_reduce
I0403 18:27:47.480801 22477 net.cpp:91] Creating Layer inception_4d/relu_5x5_reduce
I0403 18:27:47.480818 22477 net.cpp:425] inception_4d/relu_5x5_reduce <- inception_4d/5x5_reduce
I0403 18:27:47.480834 22477 net.cpp:386] inception_4d/relu_5x5_reduce -> inception_4d/5x5_reduce (in-place)
I0403 18:27:47.481009 22477 net.cpp:141] Setting up inception_4d/relu_5x5_reduce
I0403 18:27:47.481034 22477 net.cpp:148] Top shape: 24 32 14 14 (150528)
I0403 18:27:47.481050 22477 net.cpp:156] Memory required for data: 1132858656
I0403 18:27:47.481063 22477 layer_factory.hpp:77] Creating layer inception_4d/5x5
I0403 18:27:47.481084 22477 net.cpp:91] Creating Layer inception_4d/5x5
I0403 18:27:47.481101 22477 net.cpp:425] inception_4d/5x5 <- inception_4d/5x5_reduce
I0403 18:27:47.481118 22477 net.cpp:399] inception_4d/5x5 -> inception_4d/5x5
I0403 18:27:47.482520 22477 net.cpp:141] Setting up inception_4d/5x5
I0403 18:27:47.482548 22477 net.cpp:148] Top shape: 24 64 14 14 (301056)
I0403 18:27:47.482564 22477 net.cpp:156] Memory required for data: 1134062880
I0403 18:27:47.482583 22477 layer_factory.hpp:77] Creating layer inception_4d/relu_5x5
I0403 18:27:47.482614 22477 net.cpp:91] Creating Layer inception_4d/relu_5x5
I0403 18:27:47.482630 22477 net.cpp:425] inception_4d/relu_5x5 <- inception_4d/5x5
I0403 18:27:47.482648 22477 net.cpp:386] inception_4d/relu_5x5 -> inception_4d/5x5 (in-place)
I0403 18:27:47.482936 22477 net.cpp:141] Setting up inception_4d/relu_5x5
I0403 18:27:47.482964 22477 net.cpp:148] Top shape: 24 64 14 14 (301056)
I0403 18:27:47.482978 22477 net.cpp:156] Memory required for data: 1135267104
I0403 18:27:47.482993 22477 layer_factory.hpp:77] Creating layer inception_4d/pool
I0403 18:27:47.483009 22477 net.cpp:91] Creating Layer inception_4d/pool
I0403 18:27:47.483024 22477 net.cpp:425] inception_4d/pool <- inception_4c/output_inception_4c/output_0_split_3
I0403 18:27:47.483042 22477 net.cpp:399] inception_4d/pool -> inception_4d/pool
I0403 18:27:47.483106 22477 net.cpp:141] Setting up inception_4d/pool
I0403 18:27:47.483129 22477 net.cpp:148] Top shape: 24 512 14 14 (2408448)
I0403 18:27:47.483142 22477 net.cpp:156] Memory required for data: 1144900896
I0403 18:27:47.483155 22477 layer_factory.hpp:77] Creating layer inception_4d/pool_proj
I0403 18:27:47.483177 22477 net.cpp:91] Creating Layer inception_4d/pool_proj
I0403 18:27:47.483194 22477 net.cpp:425] inception_4d/pool_proj <- inception_4d/pool
I0403 18:27:47.483212 22477 net.cpp:399] inception_4d/pool_proj -> inception_4d/pool_proj
I0403 18:27:47.484912 22477 net.cpp:141] Setting up inception_4d/pool_proj
I0403 18:27:47.484940 22477 net.cpp:148] Top shape: 24 64 14 14 (301056)
I0403 18:27:47.484954 22477 net.cpp:156] Memory required for data: 1146105120
I0403 18:27:47.484972 22477 layer_factory.hpp:77] Creating layer inception_4d/relu_pool_proj
I0403 18:27:47.484992 22477 net.cpp:91] Creating Layer inception_4d/relu_pool_proj
I0403 18:27:47.485008 22477 net.cpp:425] inception_4d/relu_pool_proj <- inception_4d/pool_proj
I0403 18:27:47.485023 22477 net.cpp:386] inception_4d/relu_pool_proj -> inception_4d/pool_proj (in-place)
I0403 18:27:47.485200 22477 net.cpp:141] Setting up inception_4d/relu_pool_proj
I0403 18:27:47.485226 22477 net.cpp:148] Top shape: 24 64 14 14 (301056)
I0403 18:27:47.485241 22477 net.cpp:156] Memory required for data: 1147309344
I0403 18:27:47.485255 22477 layer_factory.hpp:77] Creating layer inception_4d/output
I0403 18:27:47.485270 22477 net.cpp:91] Creating Layer inception_4d/output
I0403 18:27:47.485285 22477 net.cpp:425] inception_4d/output <- inception_4d/1x1
I0403 18:27:47.485301 22477 net.cpp:425] inception_4d/output <- inception_4d/3x3
I0403 18:27:47.485316 22477 net.cpp:425] inception_4d/output <- inception_4d/5x5
I0403 18:27:47.485329 22477 net.cpp:425] inception_4d/output <- inception_4d/pool_proj
I0403 18:27:47.485345 22477 net.cpp:399] inception_4d/output -> inception_4d/output
I0403 18:27:47.485393 22477 net.cpp:141] Setting up inception_4d/output
I0403 18:27:47.485414 22477 net.cpp:148] Top shape: 24 528 14 14 (2483712)
I0403 18:27:47.485429 22477 net.cpp:156] Memory required for data: 1157244192
I0403 18:27:47.485441 22477 layer_factory.hpp:77] Creating layer inception_4d/output_inception_4d/output_0_split
I0403 18:27:47.485465 22477 net.cpp:91] Creating Layer inception_4d/output_inception_4d/output_0_split
I0403 18:27:47.485481 22477 net.cpp:425] inception_4d/output_inception_4d/output_0_split <- inception_4d/output
I0403 18:27:47.485496 22477 net.cpp:399] inception_4d/output_inception_4d/output_0_split -> inception_4d/output_inception_4d/output_0_split_0
I0403 18:27:47.485522 22477 net.cpp:399] inception_4d/output_inception_4d/output_0_split -> inception_4d/output_inception_4d/output_0_split_1
I0403 18:27:47.485548 22477 net.cpp:399] inception_4d/output_inception_4d/output_0_split -> inception_4d/output_inception_4d/output_0_split_2
I0403 18:27:47.485569 22477 net.cpp:399] inception_4d/output_inception_4d/output_0_split -> inception_4d/output_inception_4d/output_0_split_3
I0403 18:27:47.485589 22477 net.cpp:399] inception_4d/output_inception_4d/output_0_split -> inception_4d/output_inception_4d/output_0_split_4
I0403 18:27:47.485684 22477 net.cpp:141] Setting up inception_4d/output_inception_4d/output_0_split
I0403 18:27:47.485718 22477 net.cpp:148] Top shape: 24 528 14 14 (2483712)
I0403 18:27:47.485734 22477 net.cpp:148] Top shape: 24 528 14 14 (2483712)
I0403 18:27:47.485749 22477 net.cpp:148] Top shape: 24 528 14 14 (2483712)
I0403 18:27:47.485764 22477 net.cpp:148] Top shape: 24 528 14 14 (2483712)
I0403 18:27:47.485777 22477 net.cpp:148] Top shape: 24 528 14 14 (2483712)
I0403 18:27:47.485790 22477 net.cpp:156] Memory required for data: 1206918432
I0403 18:27:47.485805 22477 layer_factory.hpp:77] Creating layer loss2/ave_pool
I0403 18:27:47.485821 22477 net.cpp:91] Creating Layer loss2/ave_pool
I0403 18:27:47.485836 22477 net.cpp:425] loss2/ave_pool <- inception_4d/output_inception_4d/output_0_split_0
I0403 18:27:47.485855 22477 net.cpp:399] loss2/ave_pool -> loss2/ave_pool
I0403 18:27:47.486152 22477 net.cpp:141] Setting up loss2/ave_pool
I0403 18:27:47.486177 22477 net.cpp:148] Top shape: 24 528 4 4 (202752)
I0403 18:27:47.486191 22477 net.cpp:156] Memory required for data: 1207729440
I0403 18:27:47.486205 22477 layer_factory.hpp:77] Creating layer loss2/conv
I0403 18:27:47.486227 22477 net.cpp:91] Creating Layer loss2/conv
I0403 18:27:47.486245 22477 net.cpp:425] loss2/conv <- loss2/ave_pool
I0403 18:27:47.486264 22477 net.cpp:399] loss2/conv -> loss2/conv
I0403 18:27:47.488082 22477 net.cpp:141] Setting up loss2/conv
I0403 18:27:47.488111 22477 net.cpp:148] Top shape: 24 128 4 4 (49152)
I0403 18:27:47.488127 22477 net.cpp:156] Memory required for data: 1207926048
I0403 18:27:47.488145 22477 layer_factory.hpp:77] Creating layer loss2/relu_conv
I0403 18:27:47.488162 22477 net.cpp:91] Creating Layer loss2/relu_conv
I0403 18:27:47.488178 22477 net.cpp:425] loss2/relu_conv <- loss2/conv
I0403 18:27:47.488196 22477 net.cpp:386] loss2/relu_conv -> loss2/conv (in-place)
I0403 18:27:47.488474 22477 net.cpp:141] Setting up loss2/relu_conv
I0403 18:27:47.488502 22477 net.cpp:148] Top shape: 24 128 4 4 (49152)
I0403 18:27:47.488523 22477 net.cpp:156] Memory required for data: 1208122656
I0403 18:27:47.488538 22477 layer_factory.hpp:77] Creating layer loss2/fc
I0403 18:27:47.488555 22477 net.cpp:91] Creating Layer loss2/fc
I0403 18:27:47.488571 22477 net.cpp:425] loss2/fc <- loss2/conv
I0403 18:27:47.488592 22477 net.cpp:399] loss2/fc -> loss2/fc
I0403 18:27:47.505364 22477 net.cpp:141] Setting up loss2/fc
I0403 18:27:47.505394 22477 net.cpp:148] Top shape: 24 1024 (24576)
I0403 18:27:47.505410 22477 net.cpp:156] Memory required for data: 1208220960
I0403 18:27:47.505429 22477 layer_factory.hpp:77] Creating layer loss2/relu_fc
I0403 18:27:47.505447 22477 net.cpp:91] Creating Layer loss2/relu_fc
I0403 18:27:47.505465 22477 net.cpp:425] loss2/relu_fc <- loss2/fc
I0403 18:27:47.505481 22477 net.cpp:386] loss2/relu_fc -> loss2/fc (in-place)
I0403 18:27:47.505765 22477 net.cpp:141] Setting up loss2/relu_fc
I0403 18:27:47.505790 22477 net.cpp:148] Top shape: 24 1024 (24576)
I0403 18:27:47.505805 22477 net.cpp:156] Memory required for data: 1208319264
I0403 18:27:47.505818 22477 layer_factory.hpp:77] Creating layer loss2/drop_fc
I0403 18:27:47.505837 22477 net.cpp:91] Creating Layer loss2/drop_fc
I0403 18:27:47.505853 22477 net.cpp:425] loss2/drop_fc <- loss2/fc
I0403 18:27:47.505869 22477 net.cpp:386] loss2/drop_fc -> loss2/fc (in-place)
I0403 18:27:47.505918 22477 net.cpp:141] Setting up loss2/drop_fc
I0403 18:27:47.505939 22477 net.cpp:148] Top shape: 24 1024 (24576)
I0403 18:27:47.505952 22477 net.cpp:156] Memory required for data: 1208417568
I0403 18:27:47.505965 22477 layer_factory.hpp:77] Creating layer loss2/classifier_plantvillage
I0403 18:27:47.505982 22477 net.cpp:91] Creating Layer loss2/classifier_plantvillage
I0403 18:27:47.505997 22477 net.cpp:425] loss2/classifier_plantvillage <- loss2/fc
I0403 18:27:47.506018 22477 net.cpp:399] loss2/classifier_plantvillage -> loss2/classifier_plantvillage
I0403 18:27:47.506435 22477 net.cpp:141] Setting up loss2/classifier_plantvillage
I0403 18:27:47.506460 22477 net.cpp:148] Top shape: 24 38 (912)
I0403 18:27:47.506490 22477 net.cpp:156] Memory required for data: 1208421216
I0403 18:27:47.506513 22477 layer_factory.hpp:77] Creating layer loss2/classifier_plantvillage_loss2/classifier_plantvillage_0_split
I0403 18:27:47.506533 22477 net.cpp:91] Creating Layer loss2/classifier_plantvillage_loss2/classifier_plantvillage_0_split
I0403 18:27:47.506549 22477 net.cpp:425] loss2/classifier_plantvillage_loss2/classifier_plantvillage_0_split <- loss2/classifier_plantvillage
I0403 18:27:47.506568 22477 net.cpp:399] loss2/classifier_plantvillage_loss2/classifier_plantvillage_0_split -> loss2/classifier_plantvillage_loss2/classifier_plantvillage_0_split_0
I0403 18:27:47.506590 22477 net.cpp:399] loss2/classifier_plantvillage_loss2/classifier_plantvillage_0_split -> loss2/classifier_plantvillage_loss2/classifier_plantvillage_0_split_1
I0403 18:27:47.506610 22477 net.cpp:399] loss2/classifier_plantvillage_loss2/classifier_plantvillage_0_split -> loss2/classifier_plantvillage_loss2/classifier_plantvillage_0_split_2
I0403 18:27:47.506695 22477 net.cpp:141] Setting up loss2/classifier_plantvillage_loss2/classifier_plantvillage_0_split
I0403 18:27:47.506722 22477 net.cpp:148] Top shape: 24 38 (912)
I0403 18:27:47.506738 22477 net.cpp:148] Top shape: 24 38 (912)
I0403 18:27:47.506753 22477 net.cpp:148] Top shape: 24 38 (912)
I0403 18:27:47.506767 22477 net.cpp:156] Memory required for data: 1208432160
I0403 18:27:47.506779 22477 layer_factory.hpp:77] Creating layer inception_4e/1x1
I0403 18:27:47.506798 22477 net.cpp:91] Creating Layer inception_4e/1x1
I0403 18:27:47.506813 22477 net.cpp:425] inception_4e/1x1 <- inception_4d/output_inception_4d/output_0_split_1
I0403 18:27:47.506829 22477 net.cpp:399] inception_4e/1x1 -> inception_4e/1x1
I0403 18:27:47.508561 22477 net.cpp:141] Setting up inception_4e/1x1
I0403 18:27:47.508587 22477 net.cpp:148] Top shape: 24 256 14 14 (1204224)
I0403 18:27:47.508604 22477 net.cpp:156] Memory required for data: 1213249056
I0403 18:27:47.508620 22477 layer_factory.hpp:77] Creating layer inception_4e/relu_1x1
I0403 18:27:47.508637 22477 net.cpp:91] Creating Layer inception_4e/relu_1x1
I0403 18:27:47.508651 22477 net.cpp:425] inception_4e/relu_1x1 <- inception_4e/1x1
I0403 18:27:47.508673 22477 net.cpp:386] inception_4e/relu_1x1 -> inception_4e/1x1 (in-place)
I0403 18:27:47.508960 22477 net.cpp:141] Setting up inception_4e/relu_1x1
I0403 18:27:47.508985 22477 net.cpp:148] Top shape: 24 256 14 14 (1204224)
I0403 18:27:47.508998 22477 net.cpp:156] Memory required for data: 1218065952
I0403 18:27:47.509011 22477 layer_factory.hpp:77] Creating layer inception_4e/3x3_reduce
I0403 18:27:47.509032 22477 net.cpp:91] Creating Layer inception_4e/3x3_reduce
I0403 18:27:47.509052 22477 net.cpp:425] inception_4e/3x3_reduce <- inception_4d/output_inception_4d/output_0_split_2
I0403 18:27:47.509071 22477 net.cpp:399] inception_4e/3x3_reduce -> inception_4e/3x3_reduce
I0403 18:27:47.511160 22477 net.cpp:141] Setting up inception_4e/3x3_reduce
I0403 18:27:47.511190 22477 net.cpp:148] Top shape: 24 160 14 14 (752640)
I0403 18:27:47.511206 22477 net.cpp:156] Memory required for data: 1221076512
I0403 18:27:47.511224 22477 layer_factory.hpp:77] Creating layer inception_4e/relu_3x3_reduce
I0403 18:27:47.511240 22477 net.cpp:91] Creating Layer inception_4e/relu_3x3_reduce
I0403 18:27:47.511256 22477 net.cpp:425] inception_4e/relu_3x3_reduce <- inception_4e/3x3_reduce
I0403 18:27:47.511275 22477 net.cpp:386] inception_4e/relu_3x3_reduce -> inception_4e/3x3_reduce (in-place)
I0403 18:27:47.511452 22477 net.cpp:141] Setting up inception_4e/relu_3x3_reduce
I0403 18:27:47.511476 22477 net.cpp:148] Top shape: 24 160 14 14 (752640)
I0403 18:27:47.511490 22477 net.cpp:156] Memory required for data: 1224087072
I0403 18:27:47.511508 22477 layer_factory.hpp:77] Creating layer inception_4e/3x3
I0403 18:27:47.511534 22477 net.cpp:91] Creating Layer inception_4e/3x3
I0403 18:27:47.511553 22477 net.cpp:425] inception_4e/3x3 <- inception_4e/3x3_reduce
I0403 18:27:47.511574 22477 net.cpp:399] inception_4e/3x3 -> inception_4e/3x3
I0403 18:27:47.516343 22477 net.cpp:141] Setting up inception_4e/3x3
I0403 18:27:47.516383 22477 net.cpp:148] Top shape: 24 320 14 14 (1505280)
I0403 18:27:47.516401 22477 net.cpp:156] Memory required for data: 1230108192
I0403 18:27:47.516417 22477 layer_factory.hpp:77] Creating layer inception_4e/relu_3x3
I0403 18:27:47.516436 22477 net.cpp:91] Creating Layer inception_4e/relu_3x3
I0403 18:27:47.516453 22477 net.cpp:425] inception_4e/relu_3x3 <- inception_4e/3x3
I0403 18:27:47.516471 22477 net.cpp:386] inception_4e/relu_3x3 -> inception_4e/3x3 (in-place)
I0403 18:27:47.516773 22477 net.cpp:141] Setting up inception_4e/relu_3x3
I0403 18:27:47.516798 22477 net.cpp:148] Top shape: 24 320 14 14 (1505280)
I0403 18:27:47.516813 22477 net.cpp:156] Memory required for data: 1236129312
I0403 18:27:47.516826 22477 layer_factory.hpp:77] Creating layer inception_4e/5x5_reduce
I0403 18:27:47.516849 22477 net.cpp:91] Creating Layer inception_4e/5x5_reduce
I0403 18:27:47.516865 22477 net.cpp:425] inception_4e/5x5_reduce <- inception_4d/output_inception_4d/output_0_split_3
I0403 18:27:47.516886 22477 net.cpp:399] inception_4e/5x5_reduce -> inception_4e/5x5_reduce
I0403 18:27:47.517918 22477 net.cpp:141] Setting up inception_4e/5x5_reduce
I0403 18:27:47.517946 22477 net.cpp:148] Top shape: 24 32 14 14 (150528)
I0403 18:27:47.517962 22477 net.cpp:156] Memory required for data: 1236731424
I0403 18:27:47.517981 22477 layer_factory.hpp:77] Creating layer inception_4e/relu_5x5_reduce
I0403 18:27:47.517997 22477 net.cpp:91] Creating Layer inception_4e/relu_5x5_reduce
I0403 18:27:47.518013 22477 net.cpp:425] inception_4e/relu_5x5_reduce <- inception_4e/5x5_reduce
I0403 18:27:47.518030 22477 net.cpp:386] inception_4e/relu_5x5_reduce -> inception_4e/5x5_reduce (in-place)
I0403 18:27:47.518312 22477 net.cpp:141] Setting up inception_4e/relu_5x5_reduce
I0403 18:27:47.518339 22477 net.cpp:148] Top shape: 24 32 14 14 (150528)
I0403 18:27:47.518355 22477 net.cpp:156] Memory required for data: 1237333536
I0403 18:27:47.518369 22477 layer_factory.hpp:77] Creating layer inception_4e/5x5
I0403 18:27:47.518407 22477 net.cpp:91] Creating Layer inception_4e/5x5
I0403 18:27:47.518425 22477 net.cpp:425] inception_4e/5x5 <- inception_4e/5x5_reduce
I0403 18:27:47.518445 22477 net.cpp:399] inception_4e/5x5 -> inception_4e/5x5
I0403 18:27:47.520210 22477 net.cpp:141] Setting up inception_4e/5x5
I0403 18:27:47.520236 22477 net.cpp:148] Top shape: 24 128 14 14 (602112)
I0403 18:27:47.520254 22477 net.cpp:156] Memory required for data: 1239741984
I0403 18:27:47.520272 22477 layer_factory.hpp:77] Creating layer inception_4e/relu_5x5
I0403 18:27:47.520289 22477 net.cpp:91] Creating Layer inception_4e/relu_5x5
I0403 18:27:47.520304 22477 net.cpp:425] inception_4e/relu_5x5 <- inception_4e/5x5
I0403 18:27:47.520320 22477 net.cpp:386] inception_4e/relu_5x5 -> inception_4e/5x5 (in-place)
I0403 18:27:47.520514 22477 net.cpp:141] Setting up inception_4e/relu_5x5
I0403 18:27:47.520540 22477 net.cpp:148] Top shape: 24 128 14 14 (602112)
I0403 18:27:47.520555 22477 net.cpp:156] Memory required for data: 1242150432
I0403 18:27:47.520570 22477 layer_factory.hpp:77] Creating layer inception_4e/pool
I0403 18:27:47.520586 22477 net.cpp:91] Creating Layer inception_4e/pool
I0403 18:27:47.520601 22477 net.cpp:425] inception_4e/pool <- inception_4d/output_inception_4d/output_0_split_4
I0403 18:27:47.520632 22477 net.cpp:399] inception_4e/pool -> inception_4e/pool
I0403 18:27:47.520699 22477 net.cpp:141] Setting up inception_4e/pool
I0403 18:27:47.520723 22477 net.cpp:148] Top shape: 24 528 14 14 (2483712)
I0403 18:27:47.520738 22477 net.cpp:156] Memory required for data: 1252085280
I0403 18:27:47.520752 22477 layer_factory.hpp:77] Creating layer inception_4e/pool_proj
I0403 18:27:47.520771 22477 net.cpp:91] Creating Layer inception_4e/pool_proj
I0403 18:27:47.520787 22477 net.cpp:425] inception_4e/pool_proj <- inception_4e/pool
I0403 18:27:47.520807 22477 net.cpp:399] inception_4e/pool_proj -> inception_4e/pool_proj
I0403 18:27:47.522253 22477 net.cpp:141] Setting up inception_4e/pool_proj
I0403 18:27:47.522289 22477 net.cpp:148] Top shape: 24 128 14 14 (602112)
I0403 18:27:47.522305 22477 net.cpp:156] Memory required for data: 1254493728
I0403 18:27:47.522321 22477 layer_factory.hpp:77] Creating layer inception_4e/relu_pool_proj
I0403 18:27:47.522341 22477 net.cpp:91] Creating Layer inception_4e/relu_pool_proj
I0403 18:27:47.522356 22477 net.cpp:425] inception_4e/relu_pool_proj <- inception_4e/pool_proj
I0403 18:27:47.522372 22477 net.cpp:386] inception_4e/relu_pool_proj -> inception_4e/pool_proj (in-place)
I0403 18:27:47.522661 22477 net.cpp:141] Setting up inception_4e/relu_pool_proj
I0403 18:27:47.522686 22477 net.cpp:148] Top shape: 24 128 14 14 (602112)
I0403 18:27:47.522699 22477 net.cpp:156] Memory required for data: 1256902176
I0403 18:27:47.522713 22477 layer_factory.hpp:77] Creating layer inception_4e/output
I0403 18:27:47.522732 22477 net.cpp:91] Creating Layer inception_4e/output
I0403 18:27:47.522747 22477 net.cpp:425] inception_4e/output <- inception_4e/1x1
I0403 18:27:47.522763 22477 net.cpp:425] inception_4e/output <- inception_4e/3x3
I0403 18:27:47.522779 22477 net.cpp:425] inception_4e/output <- inception_4e/5x5
I0403 18:27:47.522794 22477 net.cpp:425] inception_4e/output <- inception_4e/pool_proj
I0403 18:27:47.522809 22477 net.cpp:399] inception_4e/output -> inception_4e/output
I0403 18:27:47.522857 22477 net.cpp:141] Setting up inception_4e/output
I0403 18:27:47.522881 22477 net.cpp:148] Top shape: 24 832 14 14 (3913728)
I0403 18:27:47.522893 22477 net.cpp:156] Memory required for data: 1272557088
I0403 18:27:47.522907 22477 layer_factory.hpp:77] Creating layer pool4/3x3_s2
I0403 18:27:47.522922 22477 net.cpp:91] Creating Layer pool4/3x3_s2
I0403 18:27:47.522936 22477 net.cpp:425] pool4/3x3_s2 <- inception_4e/output
I0403 18:27:47.522956 22477 net.cpp:399] pool4/3x3_s2 -> pool4/3x3_s2
I0403 18:27:47.523020 22477 net.cpp:141] Setting up pool4/3x3_s2
I0403 18:27:47.523046 22477 net.cpp:148] Top shape: 24 832 7 7 (978432)
I0403 18:27:47.523058 22477 net.cpp:156] Memory required for data: 1276470816
I0403 18:27:47.523072 22477 layer_factory.hpp:77] Creating layer pool4/3x3_s2_pool4/3x3_s2_0_split
I0403 18:27:47.523087 22477 net.cpp:91] Creating Layer pool4/3x3_s2_pool4/3x3_s2_0_split
I0403 18:27:47.523102 22477 net.cpp:425] pool4/3x3_s2_pool4/3x3_s2_0_split <- pool4/3x3_s2
I0403 18:27:47.523118 22477 net.cpp:399] pool4/3x3_s2_pool4/3x3_s2_0_split -> pool4/3x3_s2_pool4/3x3_s2_0_split_0
I0403 18:27:47.523139 22477 net.cpp:399] pool4/3x3_s2_pool4/3x3_s2_0_split -> pool4/3x3_s2_pool4/3x3_s2_0_split_1
I0403 18:27:47.523159 22477 net.cpp:399] pool4/3x3_s2_pool4/3x3_s2_0_split -> pool4/3x3_s2_pool4/3x3_s2_0_split_2
I0403 18:27:47.523178 22477 net.cpp:399] pool4/3x3_s2_pool4/3x3_s2_0_split -> pool4/3x3_s2_pool4/3x3_s2_0_split_3
I0403 18:27:47.523264 22477 net.cpp:141] Setting up pool4/3x3_s2_pool4/3x3_s2_0_split
I0403 18:27:47.523286 22477 net.cpp:148] Top shape: 24 832 7 7 (978432)
I0403 18:27:47.523301 22477 net.cpp:148] Top shape: 24 832 7 7 (978432)
I0403 18:27:47.523316 22477 net.cpp:148] Top shape: 24 832 7 7 (978432)
I0403 18:27:47.523330 22477 net.cpp:148] Top shape: 24 832 7 7 (978432)
I0403 18:27:47.523344 22477 net.cpp:156] Memory required for data: 1292125728
I0403 18:27:47.523356 22477 layer_factory.hpp:77] Creating layer inception_5a/1x1
I0403 18:27:47.523378 22477 net.cpp:91] Creating Layer inception_5a/1x1
I0403 18:27:47.523394 22477 net.cpp:425] inception_5a/1x1 <- pool4/3x3_s2_pool4/3x3_s2_0_split_0
I0403 18:27:47.523412 22477 net.cpp:399] inception_5a/1x1 -> inception_5a/1x1
I0403 18:27:47.526149 22477 net.cpp:141] Setting up inception_5a/1x1
I0403 18:27:47.526178 22477 net.cpp:148] Top shape: 24 256 7 7 (301056)
I0403 18:27:47.526195 22477 net.cpp:156] Memory required for data: 1293329952
I0403 18:27:47.526211 22477 layer_factory.hpp:77] Creating layer inception_5a/relu_1x1
I0403 18:27:47.526228 22477 net.cpp:91] Creating Layer inception_5a/relu_1x1
I0403 18:27:47.526242 22477 net.cpp:425] inception_5a/relu_1x1 <- inception_5a/1x1
I0403 18:27:47.526262 22477 net.cpp:386] inception_5a/relu_1x1 -> inception_5a/1x1 (in-place)
I0403 18:27:47.526566 22477 net.cpp:141] Setting up inception_5a/relu_1x1
I0403 18:27:47.526594 22477 net.cpp:148] Top shape: 24 256 7 7 (301056)
I0403 18:27:47.526623 22477 net.cpp:156] Memory required for data: 1294534176
I0403 18:27:47.526638 22477 layer_factory.hpp:77] Creating layer inception_5a/3x3_reduce
I0403 18:27:47.526659 22477 net.cpp:91] Creating Layer inception_5a/3x3_reduce
I0403 18:27:47.526675 22477 net.cpp:425] inception_5a/3x3_reduce <- pool4/3x3_s2_pool4/3x3_s2_0_split_1
I0403 18:27:47.526695 22477 net.cpp:399] inception_5a/3x3_reduce -> inception_5a/3x3_reduce
I0403 18:27:47.529098 22477 net.cpp:141] Setting up inception_5a/3x3_reduce
I0403 18:27:47.529125 22477 net.cpp:148] Top shape: 24 160 7 7 (188160)
I0403 18:27:47.529140 22477 net.cpp:156] Memory required for data: 1295286816
I0403 18:27:47.529157 22477 layer_factory.hpp:77] Creating layer inception_5a/relu_3x3_reduce
I0403 18:27:47.529177 22477 net.cpp:91] Creating Layer inception_5a/relu_3x3_reduce
I0403 18:27:47.529193 22477 net.cpp:425] inception_5a/relu_3x3_reduce <- inception_5a/3x3_reduce
I0403 18:27:47.529209 22477 net.cpp:386] inception_5a/relu_3x3_reduce -> inception_5a/3x3_reduce (in-place)
I0403 18:27:47.529397 22477 net.cpp:141] Setting up inception_5a/relu_3x3_reduce
I0403 18:27:47.529419 22477 net.cpp:148] Top shape: 24 160 7 7 (188160)
I0403 18:27:47.529433 22477 net.cpp:156] Memory required for data: 1296039456
I0403 18:27:47.529448 22477 layer_factory.hpp:77] Creating layer inception_5a/3x3
I0403 18:27:47.529470 22477 net.cpp:91] Creating Layer inception_5a/3x3
I0403 18:27:47.529487 22477 net.cpp:425] inception_5a/3x3 <- inception_5a/3x3_reduce
I0403 18:27:47.529510 22477 net.cpp:399] inception_5a/3x3 -> inception_5a/3x3
I0403 18:27:47.534312 22477 net.cpp:141] Setting up inception_5a/3x3
I0403 18:27:47.534343 22477 net.cpp:148] Top shape: 24 320 7 7 (376320)
I0403 18:27:47.534358 22477 net.cpp:156] Memory required for data: 1297544736
I0403 18:27:47.534376 22477 layer_factory.hpp:77] Creating layer inception_5a/relu_3x3
I0403 18:27:47.534394 22477 net.cpp:91] Creating Layer inception_5a/relu_3x3
I0403 18:27:47.534409 22477 net.cpp:425] inception_5a/relu_3x3 <- inception_5a/3x3
I0403 18:27:47.534425 22477 net.cpp:386] inception_5a/relu_3x3 -> inception_5a/3x3 (in-place)
I0403 18:27:47.534725 22477 net.cpp:141] Setting up inception_5a/relu_3x3
I0403 18:27:47.534754 22477 net.cpp:148] Top shape: 24 320 7 7 (376320)
I0403 18:27:47.534768 22477 net.cpp:156] Memory required for data: 1299050016
I0403 18:27:47.534782 22477 layer_factory.hpp:77] Creating layer inception_5a/5x5_reduce
I0403 18:27:47.534803 22477 net.cpp:91] Creating Layer inception_5a/5x5_reduce
I0403 18:27:47.534821 22477 net.cpp:425] inception_5a/5x5_reduce <- pool4/3x3_s2_pool4/3x3_s2_0_split_2
I0403 18:27:47.534838 22477 net.cpp:399] inception_5a/5x5_reduce -> inception_5a/5x5_reduce
I0403 18:27:47.535970 22477 net.cpp:141] Setting up inception_5a/5x5_reduce
I0403 18:27:47.536001 22477 net.cpp:148] Top shape: 24 32 7 7 (37632)
I0403 18:27:47.536017 22477 net.cpp:156] Memory required for data: 1299200544
I0403 18:27:47.536034 22477 layer_factory.hpp:77] Creating layer inception_5a/relu_5x5_reduce
I0403 18:27:47.536051 22477 net.cpp:91] Creating Layer inception_5a/relu_5x5_reduce
I0403 18:27:47.536067 22477 net.cpp:425] inception_5a/relu_5x5_reduce <- inception_5a/5x5_reduce
I0403 18:27:47.536084 22477 net.cpp:386] inception_5a/relu_5x5_reduce -> inception_5a/5x5_reduce (in-place)
I0403 18:27:47.536552 22477 net.cpp:141] Setting up inception_5a/relu_5x5_reduce
I0403 18:27:47.536581 22477 net.cpp:148] Top shape: 24 32 7 7 (37632)
I0403 18:27:47.536595 22477 net.cpp:156] Memory required for data: 1299351072
I0403 18:27:47.536609 22477 layer_factory.hpp:77] Creating layer inception_5a/5x5
I0403 18:27:47.536630 22477 net.cpp:91] Creating Layer inception_5a/5x5
I0403 18:27:47.536648 22477 net.cpp:425] inception_5a/5x5 <- inception_5a/5x5_reduce
I0403 18:27:47.536665 22477 net.cpp:399] inception_5a/5x5 -> inception_5a/5x5
I0403 18:27:47.538312 22477 net.cpp:141] Setting up inception_5a/5x5
I0403 18:27:47.538352 22477 net.cpp:148] Top shape: 24 128 7 7 (150528)
I0403 18:27:47.538368 22477 net.cpp:156] Memory required for data: 1299953184
I0403 18:27:47.538385 22477 layer_factory.hpp:77] Creating layer inception_5a/relu_5x5
I0403 18:27:47.538403 22477 net.cpp:91] Creating Layer inception_5a/relu_5x5
I0403 18:27:47.538417 22477 net.cpp:425] inception_5a/relu_5x5 <- inception_5a/5x5
I0403 18:27:47.538434 22477 net.cpp:386] inception_5a/relu_5x5 -> inception_5a/5x5 (in-place)
I0403 18:27:47.538630 22477 net.cpp:141] Setting up inception_5a/relu_5x5
I0403 18:27:47.538655 22477 net.cpp:148] Top shape: 24 128 7 7 (150528)
I0403 18:27:47.538671 22477 net.cpp:156] Memory required for data: 1300555296
I0403 18:27:47.538684 22477 layer_factory.hpp:77] Creating layer inception_5a/pool
I0403 18:27:47.538700 22477 net.cpp:91] Creating Layer inception_5a/pool
I0403 18:27:47.538715 22477 net.cpp:425] inception_5a/pool <- pool4/3x3_s2_pool4/3x3_s2_0_split_3
I0403 18:27:47.538735 22477 net.cpp:399] inception_5a/pool -> inception_5a/pool
I0403 18:27:47.538801 22477 net.cpp:141] Setting up inception_5a/pool
I0403 18:27:47.538825 22477 net.cpp:148] Top shape: 24 832 7 7 (978432)
I0403 18:27:47.538839 22477 net.cpp:156] Memory required for data: 1304469024
I0403 18:27:47.538853 22477 layer_factory.hpp:77] Creating layer inception_5a/pool_proj
I0403 18:27:47.538874 22477 net.cpp:91] Creating Layer inception_5a/pool_proj
I0403 18:27:47.538890 22477 net.cpp:425] inception_5a/pool_proj <- inception_5a/pool
I0403 18:27:47.538908 22477 net.cpp:399] inception_5a/pool_proj -> inception_5a/pool_proj
I0403 18:27:47.541092 22477 net.cpp:141] Setting up inception_5a/pool_proj
I0403 18:27:47.541121 22477 net.cpp:148] Top shape: 24 128 7 7 (150528)
I0403 18:27:47.541134 22477 net.cpp:156] Memory required for data: 1305071136
I0403 18:27:47.541152 22477 layer_factory.hpp:77] Creating layer inception_5a/relu_pool_proj
I0403 18:27:47.541170 22477 net.cpp:91] Creating Layer inception_5a/relu_pool_proj
I0403 18:27:47.541188 22477 net.cpp:425] inception_5a/relu_pool_proj <- inception_5a/pool_proj
I0403 18:27:47.541203 22477 net.cpp:386] inception_5a/relu_pool_proj -> inception_5a/pool_proj (in-place)
I0403 18:27:47.541484 22477 net.cpp:141] Setting up inception_5a/relu_pool_proj
I0403 18:27:47.541515 22477 net.cpp:148] Top shape: 24 128 7 7 (150528)
I0403 18:27:47.541530 22477 net.cpp:156] Memory required for data: 1305673248
I0403 18:27:47.541544 22477 layer_factory.hpp:77] Creating layer inception_5a/output
I0403 18:27:47.541563 22477 net.cpp:91] Creating Layer inception_5a/output
I0403 18:27:47.541579 22477 net.cpp:425] inception_5a/output <- inception_5a/1x1
I0403 18:27:47.541594 22477 net.cpp:425] inception_5a/output <- inception_5a/3x3
I0403 18:27:47.541610 22477 net.cpp:425] inception_5a/output <- inception_5a/5x5
I0403 18:27:47.541623 22477 net.cpp:425] inception_5a/output <- inception_5a/pool_proj
I0403 18:27:47.541640 22477 net.cpp:399] inception_5a/output -> inception_5a/output
I0403 18:27:47.541689 22477 net.cpp:141] Setting up inception_5a/output
I0403 18:27:47.541712 22477 net.cpp:148] Top shape: 24 832 7 7 (978432)
I0403 18:27:47.541725 22477 net.cpp:156] Memory required for data: 1309586976
I0403 18:27:47.541738 22477 layer_factory.hpp:77] Creating layer inception_5a/output_inception_5a/output_0_split
I0403 18:27:47.541754 22477 net.cpp:91] Creating Layer inception_5a/output_inception_5a/output_0_split
I0403 18:27:47.541769 22477 net.cpp:425] inception_5a/output_inception_5a/output_0_split <- inception_5a/output
I0403 18:27:47.541787 22477 net.cpp:399] inception_5a/output_inception_5a/output_0_split -> inception_5a/output_inception_5a/output_0_split_0
I0403 18:27:47.541807 22477 net.cpp:399] inception_5a/output_inception_5a/output_0_split -> inception_5a/output_inception_5a/output_0_split_1
I0403 18:27:47.541826 22477 net.cpp:399] inception_5a/output_inception_5a/output_0_split -> inception_5a/output_inception_5a/output_0_split_2
I0403 18:27:47.541846 22477 net.cpp:399] inception_5a/output_inception_5a/output_0_split -> inception_5a/output_inception_5a/output_0_split_3
I0403 18:27:47.541957 22477 net.cpp:141] Setting up inception_5a/output_inception_5a/output_0_split
I0403 18:27:47.541981 22477 net.cpp:148] Top shape: 24 832 7 7 (978432)
I0403 18:27:47.541998 22477 net.cpp:148] Top shape: 24 832 7 7 (978432)
I0403 18:27:47.542013 22477 net.cpp:148] Top shape: 24 832 7 7 (978432)
I0403 18:27:47.542027 22477 net.cpp:148] Top shape: 24 832 7 7 (978432)
I0403 18:27:47.542039 22477 net.cpp:156] Memory required for data: 1325241888
I0403 18:27:47.542052 22477 layer_factory.hpp:77] Creating layer inception_5b/1x1
I0403 18:27:47.542073 22477 net.cpp:91] Creating Layer inception_5b/1x1
I0403 18:27:47.542089 22477 net.cpp:425] inception_5b/1x1 <- inception_5a/output_inception_5a/output_0_split_0
I0403 18:27:47.542107 22477 net.cpp:399] inception_5b/1x1 -> inception_5b/1x1
I0403 18:27:47.545709 22477 net.cpp:141] Setting up inception_5b/1x1
I0403 18:27:47.545738 22477 net.cpp:148] Top shape: 24 384 7 7 (451584)
I0403 18:27:47.545759 22477 net.cpp:156] Memory required for data: 1327048224
I0403 18:27:47.545778 22477 layer_factory.hpp:77] Creating layer inception_5b/relu_1x1
I0403 18:27:47.545796 22477 net.cpp:91] Creating Layer inception_5b/relu_1x1
I0403 18:27:47.545814 22477 net.cpp:425] inception_5b/relu_1x1 <- inception_5b/1x1
I0403 18:27:47.545830 22477 net.cpp:386] inception_5b/relu_1x1 -> inception_5b/1x1 (in-place)
I0403 18:27:47.546120 22477 net.cpp:141] Setting up inception_5b/relu_1x1
I0403 18:27:47.546145 22477 net.cpp:148] Top shape: 24 384 7 7 (451584)
I0403 18:27:47.546159 22477 net.cpp:156] Memory required for data: 1328854560
I0403 18:27:47.546172 22477 layer_factory.hpp:77] Creating layer inception_5b/3x3_reduce
I0403 18:27:47.546193 22477 net.cpp:91] Creating Layer inception_5b/3x3_reduce
I0403 18:27:47.546211 22477 net.cpp:425] inception_5b/3x3_reduce <- inception_5a/output_inception_5a/output_0_split_1
I0403 18:27:47.546229 22477 net.cpp:399] inception_5b/3x3_reduce -> inception_5b/3x3_reduce
I0403 18:27:47.548804 22477 net.cpp:141] Setting up inception_5b/3x3_reduce
I0403 18:27:47.548832 22477 net.cpp:148] Top shape: 24 192 7 7 (225792)
I0403 18:27:47.548847 22477 net.cpp:156] Memory required for data: 1329757728
I0403 18:27:47.548866 22477 layer_factory.hpp:77] Creating layer inception_5b/relu_3x3_reduce
I0403 18:27:47.548884 22477 net.cpp:91] Creating Layer inception_5b/relu_3x3_reduce
I0403 18:27:47.548900 22477 net.cpp:425] inception_5b/relu_3x3_reduce <- inception_5b/3x3_reduce
I0403 18:27:47.548916 22477 net.cpp:386] inception_5b/relu_3x3_reduce -> inception_5b/3x3_reduce (in-place)
I0403 18:27:47.549100 22477 net.cpp:141] Setting up inception_5b/relu_3x3_reduce
I0403 18:27:47.549125 22477 net.cpp:148] Top shape: 24 192 7 7 (225792)
I0403 18:27:47.549141 22477 net.cpp:156] Memory required for data: 1330660896
I0403 18:27:47.549154 22477 layer_factory.hpp:77] Creating layer inception_5b/3x3
I0403 18:27:47.549175 22477 net.cpp:91] Creating Layer inception_5b/3x3
I0403 18:27:47.549192 22477 net.cpp:425] inception_5b/3x3 <- inception_5b/3x3_reduce
I0403 18:27:47.549211 22477 net.cpp:399] inception_5b/3x3 -> inception_5b/3x3
I0403 18:27:47.555625 22477 net.cpp:141] Setting up inception_5b/3x3
I0403 18:27:47.555654 22477 net.cpp:148] Top shape: 24 384 7 7 (451584)
I0403 18:27:47.555668 22477 net.cpp:156] Memory required for data: 1332467232
I0403 18:27:47.555685 22477 layer_factory.hpp:77] Creating layer inception_5b/relu_3x3
I0403 18:27:47.555704 22477 net.cpp:91] Creating Layer inception_5b/relu_3x3
I0403 18:27:47.555721 22477 net.cpp:425] inception_5b/relu_3x3 <- inception_5b/3x3
I0403 18:27:47.555737 22477 net.cpp:386] inception_5b/relu_3x3 -> inception_5b/3x3 (in-place)
I0403 18:27:47.556022 22477 net.cpp:141] Setting up inception_5b/relu_3x3
I0403 18:27:47.556047 22477 net.cpp:148] Top shape: 24 384 7 7 (451584)
I0403 18:27:47.556061 22477 net.cpp:156] Memory required for data: 1334273568
I0403 18:27:47.556074 22477 layer_factory.hpp:77] Creating layer inception_5b/5x5_reduce
I0403 18:27:47.556110 22477 net.cpp:91] Creating Layer inception_5b/5x5_reduce
I0403 18:27:47.556131 22477 net.cpp:425] inception_5b/5x5_reduce <- inception_5a/output_inception_5a/output_0_split_2
I0403 18:27:47.556149 22477 net.cpp:399] inception_5b/5x5_reduce -> inception_5b/5x5_reduce
I0403 18:27:47.557379 22477 net.cpp:141] Setting up inception_5b/5x5_reduce
I0403 18:27:47.557405 22477 net.cpp:148] Top shape: 24 48 7 7 (56448)
I0403 18:27:47.557420 22477 net.cpp:156] Memory required for data: 1334499360
I0403 18:27:47.557437 22477 layer_factory.hpp:77] Creating layer inception_5b/relu_5x5_reduce
I0403 18:27:47.557456 22477 net.cpp:91] Creating Layer inception_5b/relu_5x5_reduce
I0403 18:27:47.557472 22477 net.cpp:425] inception_5b/relu_5x5_reduce <- inception_5b/5x5_reduce
I0403 18:27:47.557488 22477 net.cpp:386] inception_5b/relu_5x5_reduce -> inception_5b/5x5_reduce (in-place)
I0403 18:27:47.557852 22477 net.cpp:141] Setting up inception_5b/relu_5x5_reduce
I0403 18:27:47.557878 22477 net.cpp:148] Top shape: 24 48 7 7 (56448)
I0403 18:27:47.557893 22477 net.cpp:156] Memory required for data: 1334725152
I0403 18:27:47.557905 22477 layer_factory.hpp:77] Creating layer inception_5b/5x5
I0403 18:27:47.557924 22477 net.cpp:91] Creating Layer inception_5b/5x5
I0403 18:27:47.557940 22477 net.cpp:425] inception_5b/5x5 <- inception_5b/5x5_reduce
I0403 18:27:47.557958 22477 net.cpp:399] inception_5b/5x5 -> inception_5b/5x5
I0403 18:27:47.559918 22477 net.cpp:141] Setting up inception_5b/5x5
I0403 18:27:47.559947 22477 net.cpp:148] Top shape: 24 128 7 7 (150528)
I0403 18:27:47.559962 22477 net.cpp:156] Memory required for data: 1335327264
I0403 18:27:47.559979 22477 layer_factory.hpp:77] Creating layer inception_5b/relu_5x5
I0403 18:27:47.559996 22477 net.cpp:91] Creating Layer inception_5b/relu_5x5
I0403 18:27:47.560011 22477 net.cpp:425] inception_5b/relu_5x5 <- inception_5b/5x5
I0403 18:27:47.560029 22477 net.cpp:386] inception_5b/relu_5x5 -> inception_5b/5x5 (in-place)
I0403 18:27:47.560220 22477 net.cpp:141] Setting up inception_5b/relu_5x5
I0403 18:27:47.560243 22477 net.cpp:148] Top shape: 24 128 7 7 (150528)
I0403 18:27:47.560256 22477 net.cpp:156] Memory required for data: 1335929376
I0403 18:27:47.560271 22477 layer_factory.hpp:77] Creating layer inception_5b/pool
I0403 18:27:47.560286 22477 net.cpp:91] Creating Layer inception_5b/pool
I0403 18:27:47.560302 22477 net.cpp:425] inception_5b/pool <- inception_5a/output_inception_5a/output_0_split_3
I0403 18:27:47.560322 22477 net.cpp:399] inception_5b/pool -> inception_5b/pool
I0403 18:27:47.560394 22477 net.cpp:141] Setting up inception_5b/pool
I0403 18:27:47.560415 22477 net.cpp:148] Top shape: 24 832 7 7 (978432)
I0403 18:27:47.560431 22477 net.cpp:156] Memory required for data: 1339843104
I0403 18:27:47.560444 22477 layer_factory.hpp:77] Creating layer inception_5b/pool_proj
I0403 18:27:47.560467 22477 net.cpp:91] Creating Layer inception_5b/pool_proj
I0403 18:27:47.560483 22477 net.cpp:425] inception_5b/pool_proj <- inception_5b/pool
I0403 18:27:47.560500 22477 net.cpp:399] inception_5b/pool_proj -> inception_5b/pool_proj
I0403 18:27:47.562788 22477 net.cpp:141] Setting up inception_5b/pool_proj
I0403 18:27:47.562814 22477 net.cpp:148] Top shape: 24 128 7 7 (150528)
I0403 18:27:47.562829 22477 net.cpp:156] Memory required for data: 1340445216
I0403 18:27:47.562847 22477 layer_factory.hpp:77] Creating layer inception_5b/relu_pool_proj
I0403 18:27:47.562866 22477 net.cpp:91] Creating Layer inception_5b/relu_pool_proj
I0403 18:27:47.562882 22477 net.cpp:425] inception_5b/relu_pool_proj <- inception_5b/pool_proj
I0403 18:27:47.562898 22477 net.cpp:386] inception_5b/relu_pool_proj -> inception_5b/pool_proj (in-place)
I0403 18:27:47.563189 22477 net.cpp:141] Setting up inception_5b/relu_pool_proj
I0403 18:27:47.563215 22477 net.cpp:148] Top shape: 24 128 7 7 (150528)
I0403 18:27:47.563231 22477 net.cpp:156] Memory required for data: 1341047328
I0403 18:27:47.563246 22477 layer_factory.hpp:77] Creating layer inception_5b/output
I0403 18:27:47.563261 22477 net.cpp:91] Creating Layer inception_5b/output
I0403 18:27:47.563290 22477 net.cpp:425] inception_5b/output <- inception_5b/1x1
I0403 18:27:47.563308 22477 net.cpp:425] inception_5b/output <- inception_5b/3x3
I0403 18:27:47.563323 22477 net.cpp:425] inception_5b/output <- inception_5b/5x5
I0403 18:27:47.563338 22477 net.cpp:425] inception_5b/output <- inception_5b/pool_proj
I0403 18:27:47.563354 22477 net.cpp:399] inception_5b/output -> inception_5b/output
I0403 18:27:47.563405 22477 net.cpp:141] Setting up inception_5b/output
I0403 18:27:47.563427 22477 net.cpp:148] Top shape: 24 1024 7 7 (1204224)
I0403 18:27:47.563441 22477 net.cpp:156] Memory required for data: 1345864224
I0403 18:27:47.563454 22477 layer_factory.hpp:77] Creating layer pool5/7x7_s1
I0403 18:27:47.563473 22477 net.cpp:91] Creating Layer pool5/7x7_s1
I0403 18:27:47.563488 22477 net.cpp:425] pool5/7x7_s1 <- inception_5b/output
I0403 18:27:47.563510 22477 net.cpp:399] pool5/7x7_s1 -> pool5/7x7_s1
I0403 18:27:47.563724 22477 net.cpp:141] Setting up pool5/7x7_s1
I0403 18:27:47.563750 22477 net.cpp:148] Top shape: 24 1024 1 1 (24576)
I0403 18:27:47.563766 22477 net.cpp:156] Memory required for data: 1345962528
I0403 18:27:47.563779 22477 layer_factory.hpp:77] Creating layer pool5/drop_7x7_s1
I0403 18:27:47.563796 22477 net.cpp:91] Creating Layer pool5/drop_7x7_s1
I0403 18:27:47.563810 22477 net.cpp:425] pool5/drop_7x7_s1 <- pool5/7x7_s1
I0403 18:27:47.563827 22477 net.cpp:386] pool5/drop_7x7_s1 -> pool5/7x7_s1 (in-place)
I0403 18:27:47.563874 22477 net.cpp:141] Setting up pool5/drop_7x7_s1
I0403 18:27:47.563897 22477 net.cpp:148] Top shape: 24 1024 1 1 (24576)
I0403 18:27:47.563911 22477 net.cpp:156] Memory required for data: 1346060832
I0403 18:27:47.563925 22477 layer_factory.hpp:77] Creating layer loss3/classifier_plantvillage
I0403 18:27:47.563944 22477 net.cpp:91] Creating Layer loss3/classifier_plantvillage
I0403 18:27:47.563961 22477 net.cpp:425] loss3/classifier_plantvillage <- pool5/7x7_s1
I0403 18:27:47.563977 22477 net.cpp:399] loss3/classifier_plantvillage -> loss3/classifier_plantvillage
I0403 18:27:47.564383 22477 net.cpp:141] Setting up loss3/classifier_plantvillage
I0403 18:27:47.564406 22477 net.cpp:148] Top shape: 24 38 (912)
I0403 18:27:47.564420 22477 net.cpp:156] Memory required for data: 1346064480
I0403 18:27:47.564436 22477 layer_factory.hpp:77] Creating layer loss3/classifier_plantvillage_loss3/classifier_plantvillage_0_split
I0403 18:27:47.564453 22477 net.cpp:91] Creating Layer loss3/classifier_plantvillage_loss3/classifier_plantvillage_0_split
I0403 18:27:47.564468 22477 net.cpp:425] loss3/classifier_plantvillage_loss3/classifier_plantvillage_0_split <- loss3/classifier_plantvillage
I0403 18:27:47.564488 22477 net.cpp:399] loss3/classifier_plantvillage_loss3/classifier_plantvillage_0_split -> loss3/classifier_plantvillage_loss3/classifier_plantvillage_0_split_0
I0403 18:27:47.564520 22477 net.cpp:399] loss3/classifier_plantvillage_loss3/classifier_plantvillage_0_split -> loss3/classifier_plantvillage_loss3/classifier_plantvillage_0_split_1
I0403 18:27:47.564543 22477 net.cpp:399] loss3/classifier_plantvillage_loss3/classifier_plantvillage_0_split -> loss3/classifier_plantvillage_loss3/classifier_plantvillage_0_split_2
I0403 18:27:47.564564 22477 net.cpp:399] loss3/classifier_plantvillage_loss3/classifier_plantvillage_0_split -> loss3/classifier_plantvillage_loss3/classifier_plantvillage_0_split_3
I0403 18:27:47.564663 22477 net.cpp:141] Setting up loss3/classifier_plantvillage_loss3/classifier_plantvillage_0_split
I0403 18:27:47.564687 22477 net.cpp:148] Top shape: 24 38 (912)
I0403 18:27:47.564703 22477 net.cpp:148] Top shape: 24 38 (912)
I0403 18:27:47.564718 22477 net.cpp:148] Top shape: 24 38 (912)
I0403 18:27:47.564733 22477 net.cpp:148] Top shape: 24 38 (912)
I0403 18:27:47.564745 22477 net.cpp:156] Memory required for data: 1346079072
I0403 18:27:47.564759 22477 layer_factory.hpp:77] Creating layer loss1/loss
I0403 18:27:47.564779 22477 net.cpp:91] Creating Layer loss1/loss
I0403 18:27:47.564795 22477 net.cpp:425] loss1/loss <- loss1/classifier_plantvillage_loss1/classifier_plantvillage_0_split_0
I0403 18:27:47.564824 22477 net.cpp:425] loss1/loss <- label_data_1_split_0
…
