…
I0403 18:07:13.284240 21417 net.cpp:313] The NetState phase (1) differed from the phase (0) specified by a rule in layer data
I0403 18:07:13.285605 21417 net.cpp:49] Initializing net from parameters: 
state {
  phase: TEST
}
layer {
  name: "data"
  type: "Data"
  top: "data"
  top: "label"
  include {
    phase: TEST
  }
  transform_param {
    mirror: false
    crop_size: 224
    mean_file: "/home/mohanty/data/final_dataset/lmdb/segmented-40-60/mean.binaryproto"
  }
  data_param {
    source: "/home/mohanty/data/final_dataset/lmdb/segmented-40-60/test_db"
    batch_size: 24
    backend: LMDB
  }
}
layer {
  name: "conv1/7x7_s2"
  type: "Convolution"
  bottom: "data"
  top: "conv1/7x7_s2"
  param {
    lr_mult: 1
    decay_mult: 1
  }
  param {
    lr_mult: 2
    decay_mult: 0
  }
  convolution_param {
    num_output: 64
    pad: 3
    kernel_size: 7
    stride: 2
    weight_filler {
      type: "xavier"
      std: 0.1
    }
    bias_filler {
      type: "constant"
      value: 0.2
    }
  }
}
layer {
  name: "conv1/relu_7x7"
  type: "ReLU"
  bottom: "conv1/7x7_s2"
  top: "conv1/7x7_s2"
}
layer {
  name: "pool1/3x3_s2"
  type: "Pooling"
  bottom: "conv1/7x7_s2"
  top: "pool1/3x3_s2"
  pooling_param {
    pool: MAX
    kernel_size: 3
    stride: 2
  }
}
layer {
  name: "pool1/norm1"
  type: "LRN"
  bottom: "pool1/3x3_s2"
  top: "pool1/norm1"
  lrn_param {
    local_size: 5
    alpha: 0.0001
    beta: 0.75
  }
}
layer {
  name: "conv2/3x3_reduce"
  type: "Convolution"
  bottom: "pool1/norm1"
  top: "conv2/3x3_reduce"
  param {
    lr_mult: 1
    decay_mult: 1
  }
  param {
    lr_mult: 2
    decay_mult: 0
  }
  convolution_param {
    num_output: 64
    kernel_size: 1
    weight_filler {
      type: "xavier"
      std: 0.1
    }
    bias_filler {
      type: "constant"
      value: 0.2
    }
  }
}
layer {
  name: "conv2/relu_3x3_reduce"
  type: "ReLU"
  bottom: "conv2/3x3_reduce"
  top: "conv2/3x3_reduce"
}
layer {
  name: "conv2/3x3"
  type: "Convolution"
  bottom: "conv2/3x3_reduce"
  top: "conv2/3x3"
  param {
    lr_mult: 1
    decay_mult: 1
  }
  param {
    lr_mult: 2
    decay_mult: 0
  }
  convolution_param {
    num_output: 192
    pad: 1
    kernel_size: 3
    weight_filler {
      type: "xavier"
      std: 0.03
    }
    bias_filler {
      type: "constant"
      value: 0.2
    }
  }
}
layer {
  name: "conv2/relu_3x3"
  type: "ReLU"
  bottom: "conv2/3x3"
  top: "conv2/3x3"
}
layer {
  name: "conv2/norm2"
  type: "LRN"
  bottom: "conv2/3x3"
  top: "conv2/norm2"
  lrn_param {
    local_size: 5
    alpha: 0.0001
    beta: 0.75
  }
}
layer {
  name: "pool2/3x3_s2"
  type: "Pooling"
  bottom: "conv2/norm2"
  top: "pool2/3x3_s2"
  pooling_param {
    pool: MAX
    kernel_size: 3
    stride: 2
  }
}
layer {
  name: "inception_3a/1x1"
  type: "Convolution"
  bottom: "pool2/3x3_s2"
  top: "inception_3a/1x1"
  param {
    lr_mult: 1
    decay_mult: 1
  }
  param {
    lr_mult: 2
    decay_mult: 0
  }
  convolution_param {
    num_output: 64
    kernel_size: 1
    weight_filler {
      type: "xavier"
      std: 0.03
    }
    bias_filler {
      type: "constant"
      value: 0.2
    }
  }
}
layer {
  name: "inception_3a/relu_1x1"
  type: "ReLU"
  bottom: "inception_3a/1x1"
  top: "inception_3a/1x1"
}
layer {
  name: "inception_3a/3x3_reduce"
  type: "Convolution"
  bottom: "pool2/3x3_s2"
  top: "inception_3a/3x3_reduce"
  param {
    lr_mult: 1
    decay_mult: 1
  }
  param {
    lr_mult: 2
    decay_mult: 0
  }
  convolution_param {
    num_output: 96
    kernel_size: 1
    weight_filler {
      type: "xavier"
      std: 0.09
    }
    bias_filler {
      type: "constant"
      value: 0.2
    }
  }
}
layer {
  name: "inception_3a/relu_3x3_reduce"
  type: "ReLU"
  bottom: "inception_3a/3x3_reduce"
  top: "inception_3a/3x3_reduce"
}
layer {
  name: "inception_3a/3x3"
  type: "Convolution"
  bottom: "inception_3a/3x3_reduce"
  top: "inception_3a/3x3"
  param {
    lr_mult: 1
    decay_mult: 1
  }
  param {
    lr_mult: 2
    decay_mult: 0
  }
  convolution_param {
    num_output: 128
    pad: 1
    kernel_size: 3
    weight_filler {
      type: "xavier"
      std: 0.03
    }
    bias_filler {
      type: "constant"
      value: 0.2
    }
  }
}
layer {
  name: "inception_3a/relu_3x3"
  type: "ReLU"
  bottom: "inception_3a/3x3"
  top: "inception_3a/3x3"
}
layer {
  name: "inception_3a/5x5_reduce"
  type: "Convolution"
  bottom: "pool2/3x3_s2"
  top: "inception_3a/5x5_reduce"
  param {
    lr_mult: 1
    decay_mult: 1
  }
  param {
    lr_mult: 2
    decay_mult: 0
  }
  convolution_param {
    num_output: 16
    kernel_size: 1
    weight_filler {
      type: "xavier"
      std: 0.2
    }
    bias_filler {
      type: "constant"
      value: 0.2
    }
  }
}
layer {
  name: "inception_3a/relu_5x5_reduce"
  type: "ReLU"
  bottom: "inception_3a/5x5_reduce"
  top: "inception_3a/5x5_reduce"
}
layer {
  name: "inception_3a/5x5"
  type: "Convolution"
  bottom: "inception_3a/5x5_reduce"
  top: "inception_3a/5x5"
  param {
    lr_mult: 1
    decay_mult: 1
  }
  param {
    lr_mult: 2
    decay_mult: 0
  }
  convolution_param {
    num_output: 32
    pad: 2
    kernel_size: 5
    weight_filler {
      type: "xavier"
      std: 0.03
    }
    bias_filler {
      type: "constant"
      value: 0.2
    }
  }
}
layer {
  name: "inception_3a/relu_5x5"
  type: "ReLU"
  bottom: "inception_3a/5x5"
  top: "inception_3a/5x5"
}
layer {
  name: "inception_3a/pool"
  type: "Pooling"
  bottom: "pool2/3x3_s2"
  top: "inception_3a/pool"
  pooling_param {
    pool: MAX
    kernel_size: 3
    stride: 1
    pad: 1
  }
}
layer {
  name: "inception_3a/pool_proj"
  type: "Convolution"
  bottom: "inception_3a/pool"
  top: "inception_3a/pool_proj"
  param {
    lr_mult: 1
    decay_mult: 1
  }
  param {
    lr_mult: 2
    decay_mult: 0
  }
  convolution_param {
    num_output: 32
    kernel_size: 1
    weight_filler {
      type: "xavier"
      std: 0.1
    }
    bias_filler {
      type: "constant"
      value: 0.2
    }
  }
}
layer {
  name: "inception_3a/relu_pool_proj"
  type: "ReLU"
  bottom: "inception_3a/pool_proj"
  top: "inception_3a/pool_proj"
}
layer {
  name: "inception_3a/output"
  type: "Concat"
  bottom: "inception_3a/1x1"
  bottom: "inception_3a/3x3"
  bottom: "inception_3a/5x5"
  bottom: "inception_3a/pool_proj"
  top: "inception_3a/output"
}
layer {
  name: "inception_3b/1x1"
  type: "Convolution"
  bottom: "inception_3a/output"
  top: "inception_3b/1x1"
  param {
    lr_mult: 1
    decay_mult: 1
  }
  param {
    lr_mult: 2
    decay_mult: 0
  }
  convolution_param {
    num_output: 128
    kernel_size: 1
    weight_filler {
      type: "xavier"
      std: 0.03
    }
    bias_filler {
      type: "constant"
      value: 0.2
    }
  }
}
layer {
  name: "inception_3b/relu_1x1"
  type: "ReLU"
  bottom: "inception_3b/1x1"
  top: "inception_3b/1x1"
}
layer {
  name: "inception_3b/3x3_reduce"
  type: "Convolution"
  bottom: "inception_3a/output"
  top: "inception_3b/3x3_reduce"
  param {
    lr_mult: 1
    decay_mult: 1
  }
  param {
    lr_mult: 2
    decay_mult: 0
  }
  convolution_param {
    num_output: 128
    kernel_size: 1
    weight_filler {
      type: "xavier"
      std: 0.09
    }
    bias_filler {
      type: "constant"
      value: 0.2
    }
  }
}
layer {
  name: "inception_3b/relu_3x3_reduce"
  type: "ReLU"
  bottom: "inception_3b/3x3_reduce"
  top: "inception_3b/3x3_reduce"
}
layer {
  name: "inception_3b/3x3"
  type: "Convolution"
  bottom: "inception_3b/3x3_reduce"
  top: "inception_3b/3x3"
  param {
    lr_mult: 1
    decay_mult: 1
  }
  param {
    lr_mult: 2
    decay_mult: 0
  }
  convolution_param {
    num_output: 192
    pad: 1
    kernel_size: 3
    weight_filler {
      type: "xavier"
      std: 0.03
    }
    bias_filler {
      type: "constant"
      value: 0.2
    }
  }
}
layer {
  name: "inception_3b/relu_3x3"
  type: "ReLU"
  bottom: "inception_3b/3x3"
  top: "inception_3b/3x3"
}
layer {
  name: "inception_3b/5x5_reduce"
  type: "Convolution"
  bottom: "inception_3a/output"
  top: "inception_3b/5x5_reduce"
  param {
    lr_mult: 1
    decay_mult: 1
  }
  param {
    lr_mult: 2
    decay_mult: 0
  }
  convolution_param {
    num_output: 32
    kernel_size: 1
    weight_filler {
      type: "xavier"
      std: 0.2
    }
    bias_filler {
      type: "constant"
      value: 0.2
    }
  }
}
layer {
  name: "inception_3b/relu_5x5_reduce"
  type: "ReLU"
  bottom: "inception_3b/5x5_reduce"
  top: "inception_3b/5x5_reduce"
}
layer {
  name: "inception_3b/5x5"
  type: "Convolution"
  bottom: "inception_3b/5x5_reduce"
  top: "inception_3b/5x5"
  param {
    lr_mult: 1
    decay_mult: 1
  }
  param {
    lr_mult: 2
    decay_mult: 0
  }
  convolution_param {
    num_output: 96
    pad: 2
    kernel_size: 5
    weight_filler {
      type: "xavier"
      std: 0.03
    }
    bias_filler {
      type: "constant"
      value: 0.2
    }
  }
}
layer {
  name: "inception_3b/relu_5x5"
  type: "ReLU"
  bottom: "inception_3b/5x5"
  top: "inception_3b/5x5"
}
layer {
  name: "inception_3b/pool"
  type: "Pooling"
  bottom: "inception_3a/output"
  top: "inception_3b/pool"
  pooling_param {
    pool: MAX
    kernel_size: 3
    stride: 1
    pad: 1
  }
}
layer {
  name: "inception_3b/pool_proj"
  type: "Convolution"
  bottom: "inception_3b/pool"
  top: "inception_3b/pool_proj"
  param {
    lr_mult: 1
    decay_mult: 1
  }
  param {
    lr_mult: 2
    decay_mult: 0
  }
  convolution_param {
    num_output: 64
    kernel_size: 1
    weight_filler {
      type: "xavier"
      std: 0.1
    }
    bias_filler {
      type: "constant"
      value: 0.2
    }
  }
}
layer {
  name: "inception_3b/relu_pool_proj"
  type: "ReLU"
  bottom: "inception_3b/pool_proj"
  top: "inception_3b/pool_proj"
}
layer {
  name: "inception_3b/output"
  type: "Concat"
  bottom: "inception_3b/1x1"
  bottom: "inception_3b/3x3"
  bottom: "inception_3b/5x5"
  bottom: "inception_3b/pool_proj"
  top: "inception_3b/output"
}
layer {
  name: "pool3/3x3_s2"
  type: "Pooling"
  bottom: "inception_3b/output"
  top: "pool3/3x3_s2"
  pooling_param {
    pool: MAX
    kernel_size: 3
    stride: 2
  }
}
layer {
  name: "inception_4a/1x1"
  type: "Convolution"
  bottom: "pool3/3x3_s2"
  top: "inception_4a/1x1"
  param {
    lr_mult: 1
    decay_mult: 1
  }
  param {
    lr_mult: 2
    decay_mult: 0
  }
  convolution_param {
    num_output: 192
    kernel_size: 1
    weight_filler {
      type: "xavier"
      std: 0.03
    }
    bias_filler {
      type: "constant"
      value: 0.2
    }
  }
}
layer {
  name: "inception_4a/relu_1x1"
  type: "ReLU"
  bottom: "inception_4a/1x1"
  top: "inception_4a/1x1"
}
layer {
  name: "inception_4a/3x3_reduce"
  type: "Convolution"
  bottom: "pool3/3x3_s2"
  top: "inception_4a/3x3_reduce"
  param {
    lr_mult: 1
    decay_mult: 1
  }
  param {
    lr_mult: 2
    decay_mult: 0
  }
  convolution_param {
    num_output: 96
    kernel_size: 1
    weight_filler {
      type: "xavier"
      std: 0.09
    }
    bias_filler {
      type: "constant"
      value: 0.2
    }
  }
}
layer {
  name: "inception_4a/relu_3x3_reduce"
  type: "ReLU"
  bottom: "inception_4a/3x3_reduce"
  top: "inception_4a/3x3_reduce"
}
layer {
  name: "inception_4a/3x3"
  type: "Convolution"
  bottom: "inception_4a/3x3_reduce"
  top: "inception_4a/3x3"
  param {
    lr_mult: 1
    decay_mult: 1
  }
  param {
    lr_mult: 2
    decay_mult: 0
  }
  convolution_param {
    num_output: 208
    pad: 1
    kernel_size: 3
    weight_filler {
      type: "xavier"
      std: 0.03
    }
    bias_filler {
      type: "constant"
      value: 0.2
    }
  }
}
layer {
  name: "inception_4a/relu_3x3"
  type: "ReLU"
  bottom: "inception_4a/3x3"
  top: "inception_4a/3x3"
}
layer {
  name: "inception_4a/5x5_reduce"
  type: "Convolution"
  bottom: "pool3/3x3_s2"
  top: "inception_4a/5x5_reduce"
  param {
    lr_mult: 1
    decay_mult: 1
  }
  param {
    lr_mult: 2
    decay_mult: 0
  }
  convolution_param {
    num_output: 16
    kernel_size: 1
    weight_filler {
      type: "xavier"
      std: 0.2
    }
    bias_filler {
      type: "constant"
      value: 0.2
    }
  }
}
layer {
  name: "inception_4a/relu_5x5_reduce"
  type: "ReLU"
  bottom: "inception_4a/5x5_reduce"
  top: "inception_4a/5x5_reduce"
}
layer {
  name: "inception_4a/5x5"
  type: "Convolution"
  bottom: "inception_4a/5x5_reduce"
  top: "inception_4a/5x5"
  param {
    lr_mult: 1
    decay_mult: 1
  }
  param {
    lr_mult: 2
    decay_mult: 0
  }
  convolution_param {
    num_output: 48
    pad: 2
    kernel_size: 5
    weight_filler {
      type: "xavier"
      std: 0.03
    }
    bias_filler {
      type: "constant"
      value: 0.2
    }
  }
}
layer {
  name: "inception_4a/relu_5x5"
  type: "ReLU"
  bottom: "inception_4a/5x5"
  top: "inception_4a/5x5"
}
layer {
  name: "inception_4a/pool"
  type: "Pooling"
  bottom: "pool3/3x3_s2"
  top: "inception_4a/pool"
  pooling_param {
    pool: MAX
    kernel_size: 3
    stride: 1
    pad: 1
  }
}
layer {
  name: "inception_4a/pool_proj"
  type: "Convolution"
  bottom: "inception_4a/pool"
  top: "inception_4a/pool_proj"
  param {
    lr_mult: 1
    decay_mult: 1
  }
  param {
    lr_mult: 2
    decay_mult: 0
  }
  convolution_param {
    num_output: 64
    kernel_size: 1
    weight_filler {
      type: "xavier"
      std: 0.1
    }
    bias_filler {
      type: "constant"
      value: 0.2
    }
  }
}
layer {
  name: "inception_4a/relu_pool_proj"
  type: "ReLU"
  bottom: "inception_4a/pool_proj"
  top: "inception_4a/pool_proj"
}
layer {
  name: "inception_4a/output"
  type: "Concat"
  bottom: "inception_4a/1x1"
  bottom: "inception_4a/3x3"
  bottom: "inception_4a/5x5"
  bottom: "inception_4a/pool_proj"
  top: "inception_4a/output"
}
layer {
  name: "loss1/ave_pool"
  type: "Pooling"
  bottom: "inception_4a/output"
  top: "loss1/ave_pool"
  pooling_param {
    pool: AVE
    kernel_size: 5
    stride: 3
  }
}
layer {
  name: "loss1/conv"
  type: "Convolution"
  bottom: "loss1/ave_pool"
  top: "loss1/conv"
  param {
    lr_mult: 1
    decay_mult: 1
  }
  param {
    lr_mult: 2
    decay_mult: 0
  }
  convolution_param {
    num_output: 128
    kernel_size: 1
    weight_filler {
      type: "xavier"
      std: 0.08
    }
    bias_filler {
      type: "constant"
      value: 0.2
    }
  }
}
layer {
  name: "loss1/relu_conv"
  type: "ReLU"
  bottom: "loss1/conv"
  top: "loss1/conv"
}
layer {
  name: "loss1/fc"
  type: "InnerProduct"
  bottom: "loss1/conv"
  top: "loss1/fc"
  param {
    lr_mult: 1
    decay_mult: 1
  }
  param {
    lr_mult: 2
    decay_mult: 0
  }
  inner_product_param {
    num_output: 1024
    weight_filler {
      type: "xavier"
      std: 0.02
    }
    bias_filler {
      type: "constant"
      value: 0.2
    }
  }
}
layer {
  name: "loss1/relu_fc"
  type: "ReLU"
  bottom: "loss1/fc"
  top: "loss1/fc"
}
layer {
  name: "loss1/drop_fc"
  type: "Dropout"
  bottom: "loss1/fc"
  top: "loss1/fc"
  dropout_param {
    dropout_ratio: 0.7
  }
}
layer {
  name: "loss1/classifier_plantvillage"
  type: "InnerProduct"
  bottom: "loss1/fc"
  top: "loss1/classifier_plantvillage"
  param {
    lr_mult: 1
    decay_mult: 1
  }
  param {
    lr_mult: 2
    decay_mult: 0
  }
  inner_product_param {
    num_output: 38
    weight_filler {
      type: "xavier"
      std: 0.0009765625
    }
    bias_filler {
      type: "constant"
      value: 0
    }
  }
}
layer {
  name: "inception_4b/1x1"
  type: "Convolution"
  bottom: "inception_4a/output"
  top: "inception_4b/1x1"
  param {
    lr_mult: 1
    decay_mult: 1
  }
  param {
    lr_mult: 2
    decay_mult: 0
  }
  convolution_param {
    num_output: 160
    kernel_size: 1
    weight_filler {
      type: "xavier"
      std: 0.03
    }
    bias_filler {
      type: "constant"
      value: 0.2
    }
  }
}
layer {
  name: "inception_4b/relu_1x1"
  type: "ReLU"
  bottom: "inception_4b/1x1"
  top: "inception_4b/1x1"
}
layer {
  name: "inception_4b/3x3_reduce"
  type: "Convolution"
  bottom: "inception_4a/output"
  top: "inception_4b/3x3_reduce"
  param {
    lr_mult: 1
    decay_mult: 1
  }
  param {
    lr_mult: 2
    decay_mult: 0
  }
  convolution_param {
    num_output: 112
    kernel_size: 1
    weight_filler {
      type: "xavier"
      std: 0.09
    }
    bias_filler {
      type: "constant"
      value: 0.2
    }
  }
}
layer {
  name: "inception_4b/relu_3x3_reduce"
  type: "ReLU"
  bottom: "inception_4b/3x3_reduce"
  top: "inception_4b/3x3_reduce"
}
layer {
  name: "inception_4b/3x3"
  type: "Convolution"
  bottom: "inception_4b/3x3_reduce"
  top: "inception_4b/3x3"
  param {
    lr_mult: 1
    decay_mult: 1
  }
  param {
    lr_mult: 2
    decay_mult: 0
  }
  convolution_param {
    num_output: 224
    pad: 1
    kernel_size: 3
    weight_filler {
      type: "xavier"
      std: 0.03
    }
    bias_filler {
      type: "constant"
      value: 0.2
    }
  }
}
layer {
  name: "inception_4b/relu_3x3"
  type: "ReLU"
  bottom: "inception_4b/3x3"
  top: "inception_4b/3x3"
}
layer {
  name: "inception_4b/5x5_reduce"
  type: "Convolution"
  bottom: "inception_4a/output"
  top: "inception_4b/5x5_reduce"
  param {
    lr_mult: 1
    decay_mult: 1
  }
  param {
    lr_mult: 2
    decay_mult: 0
  }
  convolution_param {
    num_output: 24
    kernel_size: 1
    weight_filler {
      type: "xavier"
      std: 0.2
    }
    bias_filler {
      type: "constant"
      value: 0.2
    }
  }
}
layer {
  name: "inception_4b/relu_5x5_reduce"
  type: "ReLU"
  bottom: "inception_4b/5x5_reduce"
  top: "inception_4b/5x5_reduce"
}
layer {
  name: "inception_4b/5x5"
  type: "Convolution"
  bottom: "inception_4b/5x5_reduce"
  top: "inception_4b/5x5"
  param {
    lr_mult: 1
    decay_mult: 1
  }
  param {
    lr_mult: 2
    decay_mult: 0
  }
  convolution_param {
    num_output: 64
    pad: 2
    kernel_size: 5
    weight_filler {
      type: "xavier"
      std: 0.03
    }
    bias_filler {
      type: "constant"
      value: 0.2
    }
  }
}
layer {
  name: "inception_4b/relu_5x5"
  type: "ReLU"
  bottom: "inception_4b/5x5"
  top: "inception_4b/5x5"
}
layer {
  name: "inception_4b/pool"
  type: "Pooling"
  bottom: "inception_4a/output"
  top: "inception_4b/pool"
  pooling_param {
    pool: MAX
    kernel_size: 3
    stride: 1
    pad: 1
  }
}
layer {
  name: "inception_4b/pool_proj"
  type: "Convolution"
  bottom: "inception_4b/pool"
  top: "inception_4b/pool_proj"
  param {
    lr_mult: 1
    decay_mult: 1
  }
  param {
    lr_mult: 2
    decay_mult: 0
  }
  convolution_param {
    num_output: 64
    kernel_size: 1
    weight_filler {
      type: "xavier"
      std: 0.1
    }
    bias_filler {
      type: "constant"
      value: 0.2
    }
  }
}
layer {
  name: "inception_4b/relu_pool_proj"
  type: "ReLU"
  bottom: "inception_4b/pool_proj"
  top: "inception_4b/pool_proj"
}
layer {
  name: "inception_4b/output"
  type: "Concat"
  bottom: "inception_4b/1x1"
  bottom: "inception_4b/3x3"
  bottom: "inception_4b/5x5"
  bottom: "inception_4b/pool_proj"
  top: "inception_4b/output"
}
layer {
  name: "inception_4c/1x1"
  type: "Convolution"
  bottom: "inception_4b/output"
  top: "inception_4c/1x1"
  param {
    lr_mult: 1
    decay_mult: 1
  }
  param {
    lr_mult: 2
    decay_mult: 0
  }
  convolution_param {
    num_output: 128
    kernel_size: 1
    weight_filler {
      type: "xavier"
      std: 0.03
    }
    bias_filler {
      type: "constant"
      value: 0.2
    }
  }
}
layer {
  name: "inception_4c/relu_1x1"
  type: "ReLU"
  bottom: "inception_4c/1x1"
  top: "inception_4c/1x1"
}
layer {
  name: "inception_4c/3x3_reduce"
  type: "Convolution"
  bottom: "inception_4b/output"
  top: "inception_4c/3x3_reduce"
  param {
    lr_mult: 1
    decay_mult: 1
  }
  param {
    lr_mult: 2
    decay_mult: 0
  }
  convolution_param {
    num_output: 128
    kernel_size: 1
    weight_filler {
      type: "xavier"
      std: 0.09
    }
    bias_filler {
      type: "constant"
      value: 0.2
    }
  }
}
layer {
  name: "inception_4c/relu_3x3_reduce"
  type: "ReLU"
  bottom: "inception_4c/3x3_reduce"
  top: "inception_4c/3x3_reduce"
}
layer {
  name: "inception_4c/3x3"
  type: "Convolution"
  bottom: "inception_4c/3x3_reduce"
  top: "inception_4c/3x3"
  param {
    lr_mult: 1
    decay_mult: 1
  }
  param {
    lr_mult: 2
    decay_mult: 0
  }
  convolution_param {
    num_output: 256
    pad: 1
    kernel_size: 3
    weight_filler {
      type: "xavier"
      std: 0.03
    }
    bias_filler {
      type: "constant"
      value: 0.2
    }
  }
}
layer {
  name: "inception_4c/relu_3x3"
  type: "ReLU"
  bottom: "inception_4c/3x3"
  top: "inception_4c/3x3"
}
layer {
  name: "inception_4c/5x5_reduce"
  type: "Convolution"
  bottom: "inception_4b/output"
  top: "inception_4c/5x5_reduce"
  param {
    lr_mult: 1
    decay_mult: 1
  }
  param {
    lr_mult: 2
    decay_mult: 0
  }
  convolution_param {
    num_output: 24
    kernel_size: 1
    weight_filler {
      type: "xavier"
      std: 0.2
    }
    bias_filler {
      type: "constant"
      value: 0.2
    }
  }
}
layer {
  name: "inception_4c/relu_5x5_reduce"
  type: "ReLU"
  bottom: "inception_4c/5x5_reduce"
  top: "inception_4c/5x5_reduce"
}
layer {
  name: "inception_4c/5x5"
  type: "Convolution"
  bottom: "inception_4c/5x5_reduce"
  top: "inception_4c/5x5"
  param {
    lr_mult: 1
    decay_mult: 1
  }
  param {
    lr_mult: 2
    decay_mult: 0
  }
  convolution_param {
    num_output: 64
    pad: 2
    kernel_size: 5
    weight_filler {
      type: "xavier"
      std: 0.03
    }
    bias_filler {
      type: "constant"
      value: 0.2
    }
  }
}
layer {
  name: "inception_4c/relu_5x5"
  type: "ReLU"
  bottom: "inception_4c/5x5"
  top: "inception_4c/5x5"
}
layer {
  name: "inception_4c/pool"
  type: "Pooling"
  bottom: "inception_4b/output"
  top: "inception_4c/pool"
  pooling_param {
    pool: MAX
    kernel_size: 3
    stride: 1
    pad: 1
  }
}
layer {
  name: "inception_4c/pool_proj"
  type: "Convolution"
  bottom: "inception_4c/pool"
  top: "inception_4c/pool_proj"
  param {
    lr_mult: 1
    decay_mult: 1
  }
  param {
    lr_mult: 2
    decay_mult: 0
  }
  convolution_param {
    num_output: 64
    kernel_size: 1
    weight_filler {
      type: "xavier"
      std: 0.1
    }
    bias_filler {
      type: "constant"
      value: 0.2
    }
  }
}
layer {
  name: "inception_4c/relu_pool_proj"
  type: "ReLU"
  bottom: "inception_4c/pool_proj"
  top: "inception_4c/pool_proj"
}
layer {
  name: "inception_4c/output"
  type: "Concat"
  bottom: "inception_4c/1x1"
  bottom: "inception_4c/3x3"
  bottom: "inception_4c/5x5"
  bottom: "inception_4c/pool_proj"
  top: "inception_4c/output"
}
layer {
  name: "inception_4d/1x1"
  type: "Convolution"
  bottom: "inception_4c/output"
  top: "inception_4d/1x1"
  param {
    lr_mult: 1
    decay_mult: 1
  }
  param {
    lr_mult: 2
    decay_mult: 0
  }
  convolution_param {
    num_output: 112
    kernel_size: 1
    weight_filler {
      type: "xavier"
      std: 0.03
    }
    bias_filler {
      type: "constant"
      value: 0.2
    }
  }
}
layer {
  name: "inception_4d/relu_1x1"
  type: "ReLU"
  bottom: "inception_4d/1x1"
  top: "inception_4d/1x1"
}
layer {
  name: "inception_4d/3x3_reduce"
  type: "Convolution"
  bottom: "inception_4c/output"
  top: "inception_4d/3x3_reduce"
  param {
    lr_mult: 1
    decay_mult: 1
  }
  param {
    lr_mult: 2
    decay_mult: 0
  }
  convolution_param {
    num_output: 144
    kernel_size: 1
    weight_filler {
      type: "xavier"
      std: 0.09
    }
    bias_filler {
      type: "constant"
      value: 0.2
    }
  }
}
layer {
  name: "inception_4d/relu_3x3_reduce"
  type: "ReLU"
  bottom: "inception_4d/3x3_reduce"
  top: "inception_4d/3x3_reduce"
}
layer {
  name: "inception_4d/3x3"
  type: "Convolution"
  bottom: "inception_4d/3x3_reduce"
  top: "inception_4d/3x3"
  param {
    lr_mult: 1
    decay_mult: 1
  }
  param {
    lr_mult: 2
    decay_mult: 0
  }
  convolution_param {
    num_output: 288
    pad: 1
    kernel_size: 3
    weight_filler {
      type: "xavier"
      std: 0.03
    }
    bias_filler {
      type: "constant"
      value: 0.2
    }
  }
}
layer {
  name: "inception_4d/relu_3x3"
  type: "ReLU"
  bottom: "inception_4d/3x3"
  top: "inception_4d/3x3"
}
layer {
  name: "inception_4d/5x5_reduce"
  type: "Convolution"
  bottom: "inception_4c/output"
  top: "inception_4d/5x5_reduce"
  param {
    lr_mult: 1
    decay_mult: 1
  }
  param {
    lr_mult: 2
    decay_mult: 0
  }
  convolution_param {
    num_output: 32
    kernel_size: 1
    weight_filler {
      type: "xavier"
      std: 0.2
    }
    bias_filler {
      type: "constant"
      value: 0.2
    }
  }
}
layer {
  name: "inception_4d/relu_5x5_reduce"
  type: "ReLU"
  bottom: "inception_4d/5x5_reduce"
  top: "inception_4d/5x5_reduce"
}
layer {
  name: "inception_4d/5x5"
  type: "Convolution"
  bottom: "inception_4d/5x5_reduce"
  top: "inception_4d/5x5"
  param {
    lr_mult: 1
    decay_mult: 1
  }
  param {
    lr_mult: 2
    decay_mult: 0
  }
  convolution_param {
    num_output: 64
    pad: 2
    kernel_size: 5
    weight_filler {
      type: "xavier"
      std: 0.03
    }
    bias_filler {
      type: "constant"
      value: 0.2
    }
  }
}
layer {
  name: "inception_4d/relu_5x5"
  type: "ReLU"
  bottom: "inception_4d/5x5"
  top: "inception_4d/5x5"
}
layer {
  name: "inception_4d/pool"
  type: "Pooling"
  bottom: "inception_4c/output"
  top: "inception_4d/pool"
  pooling_param {
    pool: MAX
    kernel_size: 3
    stride: 1
    pad: 1
  }
}
layer {
  name: "inception_4d/pool_proj"
  type: "Convolution"
  bottom: "inception_4d/pool"
  top: "inception_4d/pool_proj"
  param {
    lr_mult: 1
    decay_mult: 1
  }
  param {
    lr_mult: 2
    decay_mult: 0
  }
  convolution_param {
    num_output: 64
    kernel_size: 1
    weight_filler {
      type: "xavier"
      std: 0.1
    }
    bias_filler {
      type: "constant"
      value: 0.2
    }
  }
}
layer {
  name: "inception_4d/relu_pool_proj"
  type: "ReLU"
  bottom: "inception_4d/pool_proj"
  top: "inception_4d/pool_proj"
}
layer {
  name: "inception_4d/output"
  type: "Concat"
  bottom: "inception_4d/1x1"
  bottom: "inception_4d/3x3"
  bottom: "inception_4d/5x5"
  bottom: "inception_4d/pool_proj"
  top: "inception_4d/output"
}
layer {
  name: "loss2/ave_pool"
  type: "Pooling"
  bottom: "inception_4d/output"
  top: "loss2/ave_pool"
  pooling_param {
    pool: AVE
    kernel_size: 5
    stride: 3
  }
}
layer {
  name: "loss2/conv"
  type: "Convolution"
  bottom: "loss2/ave_pool"
  top: "loss2/conv"
  param {
    lr_mult: 1
    decay_mult: 1
  }
  param {
    lr_mult: 2
    decay_mult: 0
  }
  convolution_param {
    num_output: 128
    kernel_size: 1
    weight_filler {
      type: "xavier"
      std: 0.08
    }
    bias_filler {
      type: "constant"
      value: 0.2
    }
  }
}
layer {
  name: "loss2/relu_conv"
  type: "ReLU"
  bottom: "loss2/conv"
  top: "loss2/conv"
}
layer {
  name: "loss2/fc"
  type: "InnerProduct"
  bottom: "loss2/conv"
  top: "loss2/fc"
  param {
    lr_mult: 1
    decay_mult: 1
  }
  param {
    lr_mult: 2
    decay_mult: 0
  }
  inner_product_param {
    num_output: 1024
    weight_filler {
      type: "xavier"
      std: 0.02
    }
    bias_filler {
      type: "constant"
      value: 0.2
    }
  }
}
layer {
  name: "loss2/relu_fc"
  type: "ReLU"
  bottom: "loss2/fc"
  top: "loss2/fc"
}
layer {
  name: "loss2/drop_fc"
  type: "Dropout"
  bottom: "loss2/fc"
  top: "loss2/fc"
  dropout_param {
    dropout_ratio: 0.7
  }
}
layer {
  name: "loss2/classifier_plantvillage"
  type: "InnerProduct"
  bottom: "loss2/fc"
  top: "loss2/classifier_plantvillage"
  param {
    lr_mult: 1
    decay_mult: 1
  }
  param {
    lr_mult: 2
    decay_mult: 0
  }
  inner_product_param {
    num_output: 38
    weight_filler {
      type: "xavier"
      std: 0.0009765625
    }
    bias_filler {
      type: "constant"
      value: 0
    }
  }
}
layer {
  name: "inception_4e/1x1"
  type: "Convolution"
  bottom: "inception_4d/output"
  top: "inception_4e/1x1"
  param {
    lr_mult: 1
    decay_mult: 1
  }
  param {
    lr_mult: 2
    decay_mult: 0
  }
  convolution_param {
    num_output: 256
    kernel_size: 1
    weight_filler {
      type: "xavier"
      std: 0.03
    }
    bias_filler {
      type: "constant"
      value: 0.2
    }
  }
}
layer {
  name: "inception_4e/relu_1x1"
  type: "ReLU"
  bottom: "inception_4e/1x1"
  top: "inception_4e/1x1"
}
layer {
  name: "inception_4e/3x3_reduce"
  type: "Convolution"
  bottom: "inception_4d/output"
  top: "inception_4e/3x3_reduce"
  param {
    lr_mult: 1
    decay_mult: 1
  }
  param {
    lr_mult: 2
    decay_mult: 0
  }
  convolution_param {
    num_output: 160
    kernel_size: 1
    weight_filler {
      type: "xavier"
      std: 0.09
    }
    bias_filler {
      type: "constant"
      value: 0.2
    }
  }
}
layer {
  name: "inception_4e/relu_3x3_reduce"
  type: "ReLU"
  bottom: "inception_4e/3x3_reduce"
  top: "inception_4e/3x3_reduce"
}
layer {
  name: "inception_4e/3x3"
  type: "Convolution"
  bottom: "inception_4e/3x3_reduce"
  top: "inception_4e/3x3"
  param {
    lr_mult: 1
    decay_mult: 1
  }
  param {
    lr_mult: 2
    decay_mult: 0
  }
  convolution_param {
    num_output: 320
    pad: 1
    kernel_size: 3
    weight_filler {
      type: "xavier"
      std: 0.03
    }
    bias_filler {
      type: "constant"
      value: 0.2
    }
  }
}
layer {
  name: "inception_4e/relu_3x3"
  type: "ReLU"
  bottom: "inception_4e/3x3"
  top: "inception_4e/3x3"
}
layer {
  name: "inception_4e/5x5_reduce"
  type: "Convolution"
  bottom: "inception_4d/output"
  top: "inception_4e/5x5_reduce"
  param {
    lr_mult: 1
    decay_mult: 1
  }
  param {
    lr_mult: 2
    decay_mult: 0
  }
  convolution_param {
    num_output: 32
    kernel_size: 1
    weight_filler {
      type: "xavier"
      std: 0.2
    }
    bias_filler {
      type: "constant"
      value: 0.2
    }
  }
}
layer {
  name: "inception_4e/relu_5x5_reduce"
  type: "ReLU"
  bottom: "inception_4e/5x5_reduce"
  top: "inception_4e/5x5_reduce"
}
layer {
  name: "inception_4e/5x5"
  type: "Convolution"
  bottom: "inception_4e/5x5_reduce"
  top: "inception_4e/
I0403 18:07:13.287147 21417 layer_factory.hpp:77] Creating layer data
I0403 18:07:13.287742 21417 net.cpp:91] Creating Layer data
I0403 18:07:13.287772 21417 net.cpp:399] data -> data
I0403 18:07:13.287820 21417 net.cpp:399] data -> label
I0403 18:07:13.287858 21417 data_transformer.cpp:25] Loading mean file from: /home/mohanty/data/final_dataset/lmdb/segmented-40-60/mean.binaryproto
I0403 18:07:13.289041 21419 db_lmdb.cpp:38] Opened lmdb /home/mohanty/data/final_dataset/lmdb/segmented-40-60/test_db
I0403 18:07:13.300705 21417 data_layer.cpp:41] output data size: 24,3,224,224
I0403 18:07:13.327642 21417 net.cpp:141] Setting up data
I0403 18:07:13.327724 21417 net.cpp:148] Top shape: 24 3 224 224 (3612672)
I0403 18:07:13.327747 21417 net.cpp:148] Top shape: 24 (24)
I0403 18:07:13.327761 21417 net.cpp:156] Memory required for data: 14450784
I0403 18:07:13.327788 21417 layer_factory.hpp:77] Creating layer label_data_1_split
I0403 18:07:13.327814 21417 net.cpp:91] Creating Layer label_data_1_split
I0403 18:07:13.327833 21417 net.cpp:425] label_data_1_split <- label
I0403 18:07:13.327867 21417 net.cpp:399] label_data_1_split -> label_data_1_split_0
I0403 18:07:13.327896 21417 net.cpp:399] label_data_1_split -> label_data_1_split_1
I0403 18:07:13.327916 21417 net.cpp:399] label_data_1_split -> label_data_1_split_2
I0403 18:07:13.327936 21417 net.cpp:399] label_data_1_split -> label_data_1_split_3
I0403 18:07:13.327956 21417 net.cpp:399] label_data_1_split -> label_data_1_split_4
I0403 18:07:13.327977 21417 net.cpp:399] label_data_1_split -> label_data_1_split_5
I0403 18:07:13.327997 21417 net.cpp:399] label_data_1_split -> label_data_1_split_6
I0403 18:07:13.328019 21417 net.cpp:399] label_data_1_split -> label_data_1_split_7
I0403 18:07:13.328039 21417 net.cpp:399] label_data_1_split -> label_data_1_split_8
I0403 18:07:13.328059 21417 net.cpp:399] label_data_1_split -> label_data_1_split_9
I0403 18:07:13.328168 21417 net.cpp:141] Setting up label_data_1_split
I0403 18:07:13.328191 21417 net.cpp:148] Top shape: 24 (24)
I0403 18:07:13.328207 21417 net.cpp:148] Top shape: 24 (24)
I0403 18:07:13.328222 21417 net.cpp:148] Top shape: 24 (24)
I0403 18:07:13.328235 21417 net.cpp:148] Top shape: 24 (24)
I0403 18:07:13.328249 21417 net.cpp:148] Top shape: 24 (24)
I0403 18:07:13.328265 21417 net.cpp:148] Top shape: 24 (24)
I0403 18:07:13.328279 21417 net.cpp:148] Top shape: 24 (24)
I0403 18:07:13.328294 21417 net.cpp:148] Top shape: 24 (24)
I0403 18:07:13.328307 21417 net.cpp:148] Top shape: 24 (24)
I0403 18:07:13.328322 21417 net.cpp:148] Top shape: 24 (24)
I0403 18:07:13.328361 21417 net.cpp:156] Memory required for data: 14451744
I0403 18:07:13.328375 21417 layer_factory.hpp:77] Creating layer conv1/7x7_s2
I0403 18:07:13.328405 21417 net.cpp:91] Creating Layer conv1/7x7_s2
I0403 18:07:13.328423 21417 net.cpp:425] conv1/7x7_s2 <- data
I0403 18:07:13.328440 21417 net.cpp:399] conv1/7x7_s2 -> conv1/7x7_s2
I0403 18:07:13.465450 21417 net.cpp:141] Setting up conv1/7x7_s2
I0403 18:07:13.465526 21417 net.cpp:148] Top shape: 24 64 112 112 (19267584)
I0403 18:07:13.465548 21417 net.cpp:156] Memory required for data: 91522080
I0403 18:07:13.465579 21417 layer_factory.hpp:77] Creating layer conv1/relu_7x7
I0403 18:07:13.465605 21417 net.cpp:91] Creating Layer conv1/relu_7x7
I0403 18:07:13.465621 21417 net.cpp:425] conv1/relu_7x7 <- conv1/7x7_s2
I0403 18:07:13.465641 21417 net.cpp:386] conv1/relu_7x7 -> conv1/7x7_s2 (in-place)
I0403 18:07:13.465881 21417 net.cpp:141] Setting up conv1/relu_7x7
I0403 18:07:13.465906 21417 net.cpp:148] Top shape: 24 64 112 112 (19267584)
I0403 18:07:13.465920 21417 net.cpp:156] Memory required for data: 168592416
I0403 18:07:13.465934 21417 layer_factory.hpp:77] Creating layer pool1/3x3_s2
I0403 18:07:13.465956 21417 net.cpp:91] Creating Layer pool1/3x3_s2
I0403 18:07:13.465972 21417 net.cpp:425] pool1/3x3_s2 <- conv1/7x7_s2
I0403 18:07:13.465989 21417 net.cpp:399] pool1/3x3_s2 -> pool1/3x3_s2
I0403 18:07:13.466058 21417 net.cpp:141] Setting up pool1/3x3_s2
I0403 18:07:13.466081 21417 net.cpp:148] Top shape: 24 64 56 56 (4816896)
I0403 18:07:13.466094 21417 net.cpp:156] Memory required for data: 187860000
I0403 18:07:13.466107 21417 layer_factory.hpp:77] Creating layer pool1/norm1
I0403 18:07:13.466130 21417 net.cpp:91] Creating Layer pool1/norm1
I0403 18:07:13.466145 21417 net.cpp:425] pool1/norm1 <- pool1/3x3_s2
I0403 18:07:13.466161 21417 net.cpp:399] pool1/norm1 -> pool1/norm1
I0403 18:07:13.466426 21417 net.cpp:141] Setting up pool1/norm1
I0403 18:07:13.466452 21417 net.cpp:148] Top shape: 24 64 56 56 (4816896)
I0403 18:07:13.466466 21417 net.cpp:156] Memory required for data: 207127584
I0403 18:07:13.466480 21417 layer_factory.hpp:77] Creating layer conv2/3x3_reduce
I0403 18:07:13.466503 21417 net.cpp:91] Creating Layer conv2/3x3_reduce
I0403 18:07:13.466519 21417 net.cpp:425] conv2/3x3_reduce <- pool1/norm1
I0403 18:07:13.466539 21417 net.cpp:399] conv2/3x3_reduce -> conv2/3x3_reduce
I0403 18:07:13.467789 21417 net.cpp:141] Setting up conv2/3x3_reduce
I0403 18:07:13.467818 21417 net.cpp:148] Top shape: 24 64 56 56 (4816896)
I0403 18:07:13.467833 21417 net.cpp:156] Memory required for data: 226395168
I0403 18:07:13.467851 21417 layer_factory.hpp:77] Creating layer conv2/relu_3x3_reduce
I0403 18:07:13.467869 21417 net.cpp:91] Creating Layer conv2/relu_3x3_reduce
I0403 18:07:13.467883 21417 net.cpp:425] conv2/relu_3x3_reduce <- conv2/3x3_reduce
I0403 18:07:13.467900 21417 net.cpp:386] conv2/relu_3x3_reduce -> conv2/3x3_reduce (in-place)
I0403 18:07:13.468132 21417 net.cpp:141] Setting up conv2/relu_3x3_reduce
I0403 18:07:13.468155 21417 net.cpp:148] Top shape: 24 64 56 56 (4816896)
I0403 18:07:13.468169 21417 net.cpp:156] Memory required for data: 245662752
I0403 18:07:13.468183 21417 layer_factory.hpp:77] Creating layer conv2/3x3
I0403 18:07:13.468204 21417 net.cpp:91] Creating Layer conv2/3x3
I0403 18:07:13.468220 21417 net.cpp:425] conv2/3x3 <- conv2/3x3_reduce
I0403 18:07:13.468236 21417 net.cpp:399] conv2/3x3 -> conv2/3x3
I0403 18:07:13.470321 21417 net.cpp:141] Setting up conv2/3x3
I0403 18:07:13.470350 21417 net.cpp:148] Top shape: 24 192 56 56 (14450688)
I0403 18:07:13.470366 21417 net.cpp:156] Memory required for data: 303465504
I0403 18:07:13.470384 21417 layer_factory.hpp:77] Creating layer conv2/relu_3x3
I0403 18:07:13.470402 21417 net.cpp:91] Creating Layer conv2/relu_3x3
I0403 18:07:13.470417 21417 net.cpp:425] conv2/relu_3x3 <- conv2/3x3
I0403 18:07:13.470433 21417 net.cpp:386] conv2/relu_3x3 -> conv2/3x3 (in-place)
I0403 18:07:13.470587 21417 net.cpp:141] Setting up conv2/relu_3x3
I0403 18:07:13.470609 21417 net.cpp:148] Top shape: 24 192 56 56 (14450688)
I0403 18:07:13.470664 21417 net.cpp:156] Memory required for data: 361268256
I0403 18:07:13.470679 21417 layer_factory.hpp:77] Creating layer conv2/norm2
I0403 18:07:13.470695 21417 net.cpp:91] Creating Layer conv2/norm2
I0403 18:07:13.470711 21417 net.cpp:425] conv2/norm2 <- conv2/3x3
I0403 18:07:13.470728 21417 net.cpp:399] conv2/norm2 -> conv2/norm2
I0403 18:07:13.470994 21417 net.cpp:141] Setting up conv2/norm2
I0403 18:07:13.471019 21417 net.cpp:148] Top shape: 24 192 56 56 (14450688)
I0403 18:07:13.471035 21417 net.cpp:156] Memory required for data: 419071008
I0403 18:07:13.471047 21417 layer_factory.hpp:77] Creating layer pool2/3x3_s2
I0403 18:07:13.471065 21417 net.cpp:91] Creating Layer pool2/3x3_s2
I0403 18:07:13.471078 21417 net.cpp:425] pool2/3x3_s2 <- conv2/norm2
I0403 18:07:13.471096 21417 net.cpp:399] pool2/3x3_s2 -> pool2/3x3_s2
I0403 18:07:13.471140 21417 net.cpp:141] Setting up pool2/3x3_s2
I0403 18:07:13.471160 21417 net.cpp:148] Top shape: 24 192 28 28 (3612672)
I0403 18:07:13.471174 21417 net.cpp:156] Memory required for data: 433521696
I0403 18:07:13.471187 21417 layer_factory.hpp:77] Creating layer pool2/3x3_s2_pool2/3x3_s2_0_split
I0403 18:07:13.471204 21417 net.cpp:91] Creating Layer pool2/3x3_s2_pool2/3x3_s2_0_split
I0403 18:07:13.471217 21417 net.cpp:425] pool2/3x3_s2_pool2/3x3_s2_0_split <- pool2/3x3_s2
I0403 18:07:13.471232 21417 net.cpp:399] pool2/3x3_s2_pool2/3x3_s2_0_split -> pool2/3x3_s2_pool2/3x3_s2_0_split_0
I0403 18:07:13.471251 21417 net.cpp:399] pool2/3x3_s2_pool2/3x3_s2_0_split -> pool2/3x3_s2_pool2/3x3_s2_0_split_1
I0403 18:07:13.471272 21417 net.cpp:399] pool2/3x3_s2_pool2/3x3_s2_0_split -> pool2/3x3_s2_pool2/3x3_s2_0_split_2
I0403 18:07:13.471290 21417 net.cpp:399] pool2/3x3_s2_pool2/3x3_s2_0_split -> pool2/3x3_s2_pool2/3x3_s2_0_split_3
I0403 18:07:13.471349 21417 net.cpp:141] Setting up pool2/3x3_s2_pool2/3x3_s2_0_split
I0403 18:07:13.471370 21417 net.cpp:148] Top shape: 24 192 28 28 (3612672)
I0403 18:07:13.471385 21417 net.cpp:148] Top shape: 24 192 28 28 (3612672)
I0403 18:07:13.471398 21417 net.cpp:148] Top shape: 24 192 28 28 (3612672)
I0403 18:07:13.471412 21417 net.cpp:148] Top shape: 24 192 28 28 (3612672)
I0403 18:07:13.471426 21417 net.cpp:156] Memory required for data: 491324448
I0403 18:07:13.471438 21417 layer_factory.hpp:77] Creating layer inception_3a/1x1
I0403 18:07:13.471457 21417 net.cpp:91] Creating Layer inception_3a/1x1
I0403 18:07:13.471473 21417 net.cpp:425] inception_3a/1x1 <- pool2/3x3_s2_pool2/3x3_s2_0_split_0
I0403 18:07:13.471489 21417 net.cpp:399] inception_3a/1x1 -> inception_3a/1x1
I0403 18:07:13.472862 21417 net.cpp:141] Setting up inception_3a/1x1
I0403 18:07:13.472889 21417 net.cpp:148] Top shape: 24 64 28 28 (1204224)
I0403 18:07:13.472903 21417 net.cpp:156] Memory required for data: 496141344
I0403 18:07:13.472920 21417 layer_factory.hpp:77] Creating layer inception_3a/relu_1x1
I0403 18:07:13.472937 21417 net.cpp:91] Creating Layer inception_3a/relu_1x1
I0403 18:07:13.472952 21417 net.cpp:425] inception_3a/relu_1x1 <- inception_3a/1x1
I0403 18:07:13.472967 21417 net.cpp:386] inception_3a/relu_1x1 -> inception_3a/1x1 (in-place)
I0403 18:07:13.473112 21417 net.cpp:141] Setting up inception_3a/relu_1x1
I0403 18:07:13.473136 21417 net.cpp:148] Top shape: 24 64 28 28 (1204224)
I0403 18:07:13.473150 21417 net.cpp:156] Memory required for data: 500958240
I0403 18:07:13.473162 21417 layer_factory.hpp:77] Creating layer inception_3a/3x3_reduce
I0403 18:07:13.473186 21417 net.cpp:91] Creating Layer inception_3a/3x3_reduce
I0403 18:07:13.473203 21417 net.cpp:425] inception_3a/3x3_reduce <- pool2/3x3_s2_pool2/3x3_s2_0_split_1
I0403 18:07:13.473220 21417 net.cpp:399] inception_3a/3x3_reduce -> inception_3a/3x3_reduce
I0403 18:07:13.474807 21417 net.cpp:141] Setting up inception_3a/3x3_reduce
I0403 18:07:13.474834 21417 net.cpp:148] Top shape: 24 96 28 28 (1806336)
I0403 18:07:13.474848 21417 net.cpp:156] Memory required for data: 508183584
I0403 18:07:13.474870 21417 layer_factory.hpp:77] Creating layer inception_3a/relu_3x3_reduce
I0403 18:07:13.474905 21417 net.cpp:91] Creating Layer inception_3a/relu_3x3_reduce
I0403 18:07:13.474920 21417 net.cpp:425] inception_3a/relu_3x3_reduce <- inception_3a/3x3_reduce
I0403 18:07:13.474939 21417 net.cpp:386] inception_3a/relu_3x3_reduce -> inception_3a/3x3_reduce (in-place)
I0403 18:07:13.475108 21417 net.cpp:141] Setting up inception_3a/relu_3x3_reduce
I0403 18:07:13.475131 21417 net.cpp:148] Top shape: 24 96 28 28 (1806336)
I0403 18:07:13.475144 21417 net.cpp:156] Memory required for data: 515408928
I0403 18:07:13.475158 21417 layer_factory.hpp:77] Creating layer inception_3a/3x3
I0403 18:07:13.475178 21417 net.cpp:91] Creating Layer inception_3a/3x3
I0403 18:07:13.475199 21417 net.cpp:425] inception_3a/3x3 <- inception_3a/3x3_reduce
I0403 18:07:13.475216 21417 net.cpp:399] inception_3a/3x3 -> inception_3a/3x3
I0403 18:07:13.476765 21417 net.cpp:141] Setting up inception_3a/3x3
I0403 18:07:13.476794 21417 net.cpp:148] Top shape: 24 128 28 28 (2408448)
I0403 18:07:13.476809 21417 net.cpp:156] Memory required for data: 525042720
I0403 18:07:13.476826 21417 layer_factory.hpp:77] Creating layer inception_3a/relu_3x3
I0403 18:07:13.476842 21417 net.cpp:91] Creating Layer inception_3a/relu_3x3
I0403 18:07:13.476857 21417 net.cpp:425] inception_3a/relu_3x3 <- inception_3a/3x3
I0403 18:07:13.476876 21417 net.cpp:386] inception_3a/relu_3x3 -> inception_3a/3x3 (in-place)
I0403 18:07:13.477133 21417 net.cpp:141] Setting up inception_3a/relu_3x3
I0403 18:07:13.477159 21417 net.cpp:148] Top shape: 24 128 28 28 (2408448)
I0403 18:07:13.477174 21417 net.cpp:156] Memory required for data: 534676512
I0403 18:07:13.477186 21417 layer_factory.hpp:77] Creating layer inception_3a/5x5_reduce
I0403 18:07:13.477210 21417 net.cpp:91] Creating Layer inception_3a/5x5_reduce
I0403 18:07:13.477226 21417 net.cpp:425] inception_3a/5x5_reduce <- pool2/3x3_s2_pool2/3x3_s2_0_split_2
I0403 18:07:13.477246 21417 net.cpp:399] inception_3a/5x5_reduce -> inception_3a/5x5_reduce
I0403 18:07:13.478157 21417 net.cpp:141] Setting up inception_3a/5x5_reduce
I0403 18:07:13.478183 21417 net.cpp:148] Top shape: 24 16 28 28 (301056)
I0403 18:07:13.478196 21417 net.cpp:156] Memory required for data: 535880736
I0403 18:07:13.478212 21417 layer_factory.hpp:77] Creating layer inception_3a/relu_5x5_reduce
I0403 18:07:13.478229 21417 net.cpp:91] Creating Layer inception_3a/relu_5x5_reduce
I0403 18:07:13.478243 21417 net.cpp:425] inception_3a/relu_5x5_reduce <- inception_3a/5x5_reduce
I0403 18:07:13.478262 21417 net.cpp:386] inception_3a/relu_5x5_reduce -> inception_3a/5x5_reduce (in-place)
I0403 18:07:13.478548 21417 net.cpp:141] Setting up inception_3a/relu_5x5_reduce
I0403 18:07:13.478571 21417 net.cpp:148] Top shape: 24 16 28 28 (301056)
I0403 18:07:13.478585 21417 net.cpp:156] Memory required for data: 537084960
I0403 18:07:13.478600 21417 layer_factory.hpp:77] Creating layer inception_3a/5x5
I0403 18:07:13.478621 21417 net.cpp:91] Creating Layer inception_3a/5x5
I0403 18:07:13.478636 21417 net.cpp:425] inception_3a/5x5 <- inception_3a/5x5_reduce
I0403 18:07:13.478659 21417 net.cpp:399] inception_3a/5x5 -> inception_3a/5x5
I0403 18:07:13.479614 21417 net.cpp:141] Setting up inception_3a/5x5
I0403 18:07:13.479642 21417 net.cpp:148] Top shape: 24 32 28 28 (602112)
I0403 18:07:13.479657 21417 net.cpp:156] Memory required for data: 539493408
I0403 18:07:13.479674 21417 layer_factory.hpp:77] Creating layer inception_3a/relu_5x5
I0403 18:07:13.479691 21417 net.cpp:91] Creating Layer inception_3a/relu_5x5
I0403 18:07:13.479707 21417 net.cpp:425] inception_3a/relu_5x5 <- inception_3a/5x5
I0403 18:07:13.479722 21417 net.cpp:386] inception_3a/relu_5x5 -> inception_3a/5x5 (in-place)
I0403 18:07:13.479883 21417 net.cpp:141] Setting up inception_3a/relu_5x5
I0403 18:07:13.479907 21417 net.cpp:148] Top shape: 24 32 28 28 (602112)
I0403 18:07:13.479920 21417 net.cpp:156] Memory required for data: 541901856
I0403 18:07:13.479933 21417 layer_factory.hpp:77] Creating layer inception_3a/pool
I0403 18:07:13.479949 21417 net.cpp:91] Creating Layer inception_3a/pool
I0403 18:07:13.479977 21417 net.cpp:425] inception_3a/pool <- pool2/3x3_s2_pool2/3x3_s2_0_split_3
I0403 18:07:13.479997 21417 net.cpp:399] inception_3a/pool -> inception_3a/pool
I0403 18:07:13.480051 21417 net.cpp:141] Setting up inception_3a/pool
I0403 18:07:13.480074 21417 net.cpp:148] Top shape: 24 192 28 28 (3612672)
I0403 18:07:13.480088 21417 net.cpp:156] Memory required for data: 556352544
I0403 18:07:13.480103 21417 layer_factory.hpp:77] Creating layer inception_3a/pool_proj
I0403 18:07:13.480123 21417 net.cpp:91] Creating Layer inception_3a/pool_proj
I0403 18:07:13.480137 21417 net.cpp:425] inception_3a/pool_proj <- inception_3a/pool
I0403 18:07:13.480155 21417 net.cpp:399] inception_3a/pool_proj -> inception_3a/pool_proj
I0403 18:07:13.481057 21417 net.cpp:141] Setting up inception_3a/pool_proj
I0403 18:07:13.481083 21417 net.cpp:148] Top shape: 24 32 28 28 (602112)
I0403 18:07:13.481097 21417 net.cpp:156] Memory required for data: 558760992
I0403 18:07:13.481119 21417 layer_factory.hpp:77] Creating layer inception_3a/relu_pool_proj
I0403 18:07:13.481138 21417 net.cpp:91] Creating Layer inception_3a/relu_pool_proj
I0403 18:07:13.481153 21417 net.cpp:425] inception_3a/relu_pool_proj <- inception_3a/pool_proj
I0403 18:07:13.481170 21417 net.cpp:386] inception_3a/relu_pool_proj -> inception_3a/pool_proj (in-place)
I0403 18:07:13.481428 21417 net.cpp:141] Setting up inception_3a/relu_pool_proj
I0403 18:07:13.481454 21417 net.cpp:148] Top shape: 24 32 28 28 (602112)
I0403 18:07:13.481468 21417 net.cpp:156] Memory required for data: 561169440
I0403 18:07:13.481482 21417 layer_factory.hpp:77] Creating layer inception_3a/output
I0403 18:07:13.481498 21417 net.cpp:91] Creating Layer inception_3a/output
I0403 18:07:13.481513 21417 net.cpp:425] inception_3a/output <- inception_3a/1x1
I0403 18:07:13.481528 21417 net.cpp:425] inception_3a/output <- inception_3a/3x3
I0403 18:07:13.481546 21417 net.cpp:425] inception_3a/output <- inception_3a/5x5
I0403 18:07:13.481562 21417 net.cpp:425] inception_3a/output <- inception_3a/pool_proj
I0403 18:07:13.481578 21417 net.cpp:399] inception_3a/output -> inception_3a/output
I0403 18:07:13.481621 21417 net.cpp:141] Setting up inception_3a/output
I0403 18:07:13.481642 21417 net.cpp:148] Top shape: 24 256 28 28 (4816896)
I0403 18:07:13.481657 21417 net.cpp:156] Memory required for data: 580437024
I0403 18:07:13.481668 21417 layer_factory.hpp:77] Creating layer inception_3a/output_inception_3a/output_0_split
I0403 18:07:13.481690 21417 net.cpp:91] Creating Layer inception_3a/output_inception_3a/output_0_split
I0403 18:07:13.481706 21417 net.cpp:425] inception_3a/output_inception_3a/output_0_split <- inception_3a/output
I0403 18:07:13.481722 21417 net.cpp:399] inception_3a/output_inception_3a/output_0_split -> inception_3a/output_inception_3a/output_0_split_0
I0403 18:07:13.481740 21417 net.cpp:399] inception_3a/output_inception_3a/output_0_split -> inception_3a/output_inception_3a/output_0_split_1
I0403 18:07:13.481763 21417 net.cpp:399] inception_3a/output_inception_3a/output_0_split -> inception_3a/output_inception_3a/output_0_split_2
I0403 18:07:13.481783 21417 net.cpp:399] inception_3a/output_inception_3a/output_0_split -> inception_3a/output_inception_3a/output_0_split_3
I0403 18:07:13.481854 21417 net.cpp:141] Setting up inception_3a/output_inception_3a/output_0_split
I0403 18:07:13.481875 21417 net.cpp:148] Top shape: 24 256 28 28 (4816896)
I0403 18:07:13.481890 21417 net.cpp:148] Top shape: 24 256 28 28 (4816896)
I0403 18:07:13.481904 21417 net.cpp:148] Top shape: 24 256 28 28 (4816896)
I0403 18:07:13.481919 21417 net.cpp:148] Top shape: 24 256 28 28 (4816896)
I0403 18:07:13.481930 21417 net.cpp:156] Memory required for data: 657507360
I0403 18:07:13.481943 21417 layer_factory.hpp:77] Creating layer inception_3b/1x1
I0403 18:07:13.481964 21417 net.cpp:91] Creating Layer inception_3b/1x1
I0403 18:07:13.481981 21417 net.cpp:425] inception_3b/1x1 <- inception_3a/output_inception_3a/output_0_split_0
I0403 18:07:13.481998 21417 net.cpp:399] inception_3b/1x1 -> inception_3b/1x1
I0403 18:07:13.483059 21417 net.cpp:141] Setting up inception_3b/1x1
I0403 18:07:13.483096 21417 net.cpp:148] Top shape: 24 128 28 28 (2408448)
I0403 18:07:13.483111 21417 net.cpp:156] Memory required for data: 667141152
I0403 18:07:13.483127 21417 layer_factory.hpp:77] Creating layer inception_3b/relu_1x1
I0403 18:07:13.483146 21417 net.cpp:91] Creating Layer inception_3b/relu_1x1
I0403 18:07:13.483162 21417 net.cpp:425] inception_3b/relu_1x1 <- inception_3b/1x1
I0403 18:07:13.483178 21417 net.cpp:386] inception_3b/relu_1x1 -> inception_3b/1x1 (in-place)
I0403 18:07:13.483342 21417 net.cpp:141] Setting up inception_3b/relu_1x1
I0403 18:07:13.483366 21417 net.cpp:148] Top shape: 24 128 28 28 (2408448)
I0403 18:07:13.483378 21417 net.cpp:156] Memory required for data: 676774944
I0403 18:07:13.483392 21417 layer_factory.hpp:77] Creating layer inception_3b/3x3_reduce
I0403 18:07:13.483412 21417 net.cpp:91] Creating Layer inception_3b/3x3_reduce
I0403 18:07:13.483428 21417 net.cpp:425] inception_3b/3x3_reduce <- inception_3a/output_inception_3a/output_0_split_1
I0403 18:07:13.483448 21417 net.cpp:399] inception_3b/3x3_reduce -> inception_3b/3x3_reduce
I0403 18:07:13.484508 21417 net.cpp:141] Setting up inception_3b/3x3_reduce
I0403 18:07:13.484535 21417 net.cpp:148] Top shape: 24 128 28 28 (2408448)
I0403 18:07:13.484565 21417 net.cpp:156] Memory required for data: 686408736
I0403 18:07:13.484582 21417 layer_factory.hpp:77] Creating layer inception_3b/relu_3x3_reduce
I0403 18:07:13.484598 21417 net.cpp:91] Creating Layer inception_3b/relu_3x3_reduce
I0403 18:07:13.484613 21417 net.cpp:425] inception_3b/relu_3x3_reduce <- inception_3b/3x3_reduce
I0403 18:07:13.484628 21417 net.cpp:386] inception_3b/relu_3x3_reduce -> inception_3b/3x3_reduce (in-place)
I0403 18:07:13.484791 21417 net.cpp:141] Setting up inception_3b/relu_3x3_reduce
I0403 18:07:13.484815 21417 net.cpp:148] Top shape: 24 128 28 28 (2408448)
I0403 18:07:13.484830 21417 net.cpp:156] Memory required for data: 696042528
I0403 18:07:13.484843 21417 layer_factory.hpp:77] Creating layer inception_3b/3x3
I0403 18:07:13.484869 21417 net.cpp:91] Creating Layer inception_3b/3x3
I0403 18:07:13.484886 21417 net.cpp:425] inception_3b/3x3 <- inception_3b/3x3_reduce
I0403 18:07:13.484905 21417 net.cpp:399] inception_3b/3x3 -> inception_3b/3x3
I0403 18:07:13.487682 21417 net.cpp:141] Setting up inception_3b/3x3
I0403 18:07:13.487710 21417 net.cpp:148] Top shape: 24 192 28 28 (3612672)
I0403 18:07:13.487725 21417 net.cpp:156] Memory required for data: 710493216
I0403 18:07:13.487742 21417 layer_factory.hpp:77] Creating layer inception_3b/relu_3x3
I0403 18:07:13.487758 21417 net.cpp:91] Creating Layer inception_3b/relu_3x3
I0403 18:07:13.487773 21417 net.cpp:425] inception_3b/relu_3x3 <- inception_3b/3x3
I0403 18:07:13.487792 21417 net.cpp:386] inception_3b/relu_3x3 -> inception_3b/3x3 (in-place)
I0403 18:07:13.488052 21417 net.cpp:141] Setting up inception_3b/relu_3x3
I0403 18:07:13.488078 21417 net.cpp:148] Top shape: 24 192 28 28 (3612672)
I0403 18:07:13.488093 21417 net.cpp:156] Memory required for data: 724943904
I0403 18:07:13.488106 21417 layer_factory.hpp:77] Creating layer inception_3b/5x5_reduce
I0403 18:07:13.488126 21417 net.cpp:91] Creating Layer inception_3b/5x5_reduce
I0403 18:07:13.488143 21417 net.cpp:425] inception_3b/5x5_reduce <- inception_3a/output_inception_3a/output_0_split_2
I0403 18:07:13.488164 21417 net.cpp:399] inception_3b/5x5_reduce -> inception_3b/5x5_reduce
I0403 18:07:13.489089 21417 net.cpp:141] Setting up inception_3b/5x5_reduce
I0403 18:07:13.489117 21417 net.cpp:148] Top shape: 24 32 28 28 (602112)
I0403 18:07:13.489132 21417 net.cpp:156] Memory required for data: 727352352
I0403 18:07:13.489148 21417 layer_factory.hpp:77] Creating layer inception_3b/relu_5x5_reduce
I0403 18:07:13.489166 21417 net.cpp:91] Creating Layer inception_3b/relu_5x5_reduce
I0403 18:07:13.489181 21417 net.cpp:425] inception_3b/relu_5x5_reduce <- inception_3b/5x5_reduce
I0403 18:07:13.489197 21417 net.cpp:386] inception_3b/relu_5x5_reduce -> inception_3b/5x5_reduce (in-place)
I0403 18:07:13.489380 21417 net.cpp:141] Setting up inception_3b/relu_5x5_reduce
I0403 18:07:13.489403 21417 net.cpp:148] Top shape: 24 32 28 28 (602112)
I0403 18:07:13.489418 21417 net.cpp:156] Memory required for data: 729760800
I0403 18:07:13.489430 21417 layer_factory.hpp:77] Creating layer inception_3b/5x5
I0403 18:07:13.489451 21417 net.cpp:91] Creating Layer inception_3b/5x5
I0403 18:07:13.489467 21417 net.cpp:425] inception_3b/5x5 <- inception_3b/5x5_reduce
I0403 18:07:13.489487 21417 net.cpp:399] inception_3b/5x5 -> inception_3b/5x5
I0403 18:07:13.491360 21417 net.cpp:141] Setting up inception_3b/5x5
I0403 18:07:13.491387 21417 net.cpp:148] Top shape: 24 96 28 28 (1806336)
I0403 18:07:13.491401 21417 net.cpp:156] Memory required for data: 736986144
I0403 18:07:13.491431 21417 layer_factory.hpp:77] Creating layer inception_3b/relu_5x5
I0403 18:07:13.491451 21417 net.cpp:91] Creating Layer inception_3b/relu_5x5
I0403 18:07:13.491467 21417 net.cpp:425] inception_3b/relu_5x5 <- inception_3b/5x5
I0403 18:07:13.491484 21417 net.cpp:386] inception_3b/relu_5x5 -> inception_3b/5x5 (in-place)
I0403 18:07:13.491675 21417 net.cpp:141] Setting up inception_3b/relu_5x5
I0403 18:07:13.491700 21417 net.cpp:148] Top shape: 24 96 28 28 (1806336)
I0403 18:07:13.491714 21417 net.cpp:156] Memory required for data: 744211488
I0403 18:07:13.491727 21417 layer_factory.hpp:77] Creating layer inception_3b/pool
I0403 18:07:13.491744 21417 net.cpp:91] Creating Layer inception_3b/pool
I0403 18:07:13.491760 21417 net.cpp:425] inception_3b/pool <- inception_3a/output_inception_3a/output_0_split_3
I0403 18:07:13.491776 21417 net.cpp:399] inception_3b/pool -> inception_3b/pool
I0403 18:07:13.491829 21417 net.cpp:141] Setting up inception_3b/pool
I0403 18:07:13.491852 21417 net.cpp:148] Top shape: 24 256 28 28 (4816896)
I0403 18:07:13.491864 21417 net.cpp:156] Memory required for data: 763479072
I0403 18:07:13.491878 21417 layer_factory.hpp:77] Creating layer inception_3b/pool_proj
I0403 18:07:13.491899 21417 net.cpp:91] Creating Layer inception_3b/pool_proj
I0403 18:07:13.491915 21417 net.cpp:425] inception_3b/pool_proj <- inception_3b/pool
I0403 18:07:13.491935 21417 net.cpp:399] inception_3b/pool_proj -> inception_3b/pool_proj
I0403 18:07:13.492947 21417 net.cpp:141] Setting up inception_3b/pool_proj
I0403 18:07:13.492974 21417 net.cpp:148] Top shape: 24 64 28 28 (1204224)
I0403 18:07:13.492987 21417 net.cpp:156] Memory required for data: 768295968
I0403 18:07:13.493005 21417 layer_factory.hpp:77] Creating layer inception_3b/relu_pool_proj
I0403 18:07:13.493023 21417 net.cpp:91] Creating Layer inception_3b/relu_pool_proj
I0403 18:07:13.493038 21417 net.cpp:425] inception_3b/relu_pool_proj <- inception_3b/pool_proj
I0403 18:07:13.493054 21417 net.cpp:386] inception_3b/relu_pool_proj -> inception_3b/pool_proj (in-place)
I0403 18:07:13.493424 21417 net.cpp:141] Setting up inception_3b/relu_pool_proj
I0403 18:07:13.493448 21417 net.cpp:148] Top shape: 24 64 28 28 (1204224)
I0403 18:07:13.493463 21417 net.cpp:156] Memory required for data: 773112864
I0403 18:07:13.493476 21417 layer_factory.hpp:77] Creating layer inception_3b/output
I0403 18:07:13.493492 21417 net.cpp:91] Creating Layer inception_3b/output
I0403 18:07:13.493506 21417 net.cpp:425] inception_3b/output <- inception_3b/1x1
I0403 18:07:13.493521 21417 net.cpp:425] inception_3b/output <- inception_3b/3x3
I0403 18:07:13.493538 21417 net.cpp:425] inception_3b/output <- inception_3b/5x5
I0403 18:07:13.493556 21417 net.cpp:425] inception_3b/output <- inception_3b/pool_proj
I0403 18:07:13.493574 21417 net.cpp:399] inception_3b/output -> inception_3b/output
I0403 18:07:13.493613 21417 net.cpp:141] Setting up inception_3b/output
I0403 18:07:13.493638 21417 net.cpp:148] Top shape: 24 480 28 28 (9031680)
I0403 18:07:13.493651 21417 net.cpp:156] Memory required for data: 809239584
I0403 18:07:13.493664 21417 layer_factory.hpp:77] Creating layer pool3/3x3_s2
I0403 18:07:13.493680 21417 net.cpp:91] Creating Layer pool3/3x3_s2
I0403 18:07:13.493693 21417 net.cpp:425] pool3/3x3_s2 <- inception_3b/output
I0403 18:07:13.493724 21417 net.cpp:399] pool3/3x3_s2 -> pool3/3x3_s2
I0403 18:07:13.493780 21417 net.cpp:141] Setting up pool3/3x3_s2
I0403 18:07:13.493801 21417 net.cpp:148] Top shape: 24 480 14 14 (2257920)
I0403 18:07:13.493815 21417 net.cpp:156] Memory required for data: 818271264
I0403 18:07:13.493829 21417 layer_factory.hpp:77] Creating layer pool3/3x3_s2_pool3/3x3_s2_0_split
I0403 18:07:13.493846 21417 net.cpp:91] Creating Layer pool3/3x3_s2_pool3/3x3_s2_0_split
I0403 18:07:13.493860 21417 net.cpp:425] pool3/3x3_s2_pool3/3x3_s2_0_split <- pool3/3x3_s2
I0403 18:07:13.493876 21417 net.cpp:399] pool3/3x3_s2_pool3/3x3_s2_0_split -> pool3/3x3_s2_pool3/3x3_s2_0_split_0
I0403 18:07:13.493894 21417 net.cpp:399] pool3/3x3_s2_pool3/3x3_s2_0_split -> pool3/3x3_s2_pool3/3x3_s2_0_split_1
I0403 18:07:13.493912 21417 net.cpp:399] pool3/3x3_s2_pool3/3x3_s2_0_split -> pool3/3x3_s2_pool3/3x3_s2_0_split_2
I0403 18:07:13.493933 21417 net.cpp:399] pool3/3x3_s2_pool3/3x3_s2_0_split -> pool3/3x3_s2_pool3/3x3_s2_0_split_3
I0403 18:07:13.494004 21417 net.cpp:141] Setting up pool3/3x3_s2_pool3/3x3_s2_0_split
I0403 18:07:13.494024 21417 net.cpp:148] Top shape: 24 480 14 14 (2257920)
I0403 18:07:13.494040 21417 net.cpp:148] Top shape: 24 480 14 14 (2257920)
I0403 18:07:13.494053 21417 net.cpp:148] Top shape: 24 480 14 14 (2257920)
I0403 18:07:13.494066 21417 net.cpp:148] Top shape: 24 480 14 14 (2257920)
I0403 18:07:13.494079 21417 net.cpp:156] Memory required for data: 854397984
I0403 18:07:13.494092 21417 layer_factory.hpp:77] Creating layer inception_4a/1x1
I0403 18:07:13.494113 21417 net.cpp:91] Creating Layer inception_4a/1x1
I0403 18:07:13.494129 21417 net.cpp:425] inception_4a/1x1 <- pool3/3x3_s2_pool3/3x3_s2_0_split_0
I0403 18:07:13.494148 21417 net.cpp:399] inception_4a/1x1 -> inception_4a/1x1
I0403 18:07:13.495650 21417 net.cpp:141] Setting up inception_4a/1x1
I0403 18:07:13.495676 21417 net.cpp:148] Top shape: 24 192 14 14 (903168)
I0403 18:07:13.495690 21417 net.cpp:156] Memory required for data: 858010656
I0403 18:07:13.495707 21417 layer_factory.hpp:77] Creating layer inception_4a/relu_1x1
I0403 18:07:13.495726 21417 net.cpp:91] Creating Layer inception_4a/relu_1x1
I0403 18:07:13.495743 21417 net.cpp:425] inception_4a/relu_1x1 <- inception_4a/1x1
I0403 18:07:13.495759 21417 net.cpp:386] inception_4a/relu_1x1 -> inception_4a/1x1 (in-place)
I0403 18:07:13.495926 21417 net.cpp:141] Setting up inception_4a/relu_1x1
I0403 18:07:13.495950 21417 net.cpp:148] Top shape: 24 192 14 14 (903168)
I0403 18:07:13.495964 21417 net.cpp:156] Memory required for data: 861623328
I0403 18:07:13.495978 21417 layer_factory.hpp:77] Creating layer inception_4a/3x3_reduce
I0403 18:07:13.496001 21417 net.cpp:91] Creating Layer inception_4a/3x3_reduce
I0403 18:07:13.496016 21417 net.cpp:425] inception_4a/3x3_reduce <- pool3/3x3_s2_pool3/3x3_s2_0_split_1
I0403 18:07:13.496034 21417 net.cpp:399] inception_4a/3x3_reduce -> inception_4a/3x3_reduce
I0403 18:07:13.497220 21417 net.cpp:141] Setting up inception_4a/3x3_reduce
I0403 18:07:13.497246 21417 net.cpp:148] Top shape: 24 96 14 14 (451584)
I0403 18:07:13.497262 21417 net.cpp:156] Memory required for data: 863429664
I0403 18:07:13.497284 21417 layer_factory.hpp:77] Creating layer inception_4a/relu_3x3_reduce
I0403 18:07:13.497303 21417 net.cpp:91] Creating Layer inception_4a/relu_3x3_reduce
I0403 18:07:13.497318 21417 net.cpp:425] inception_4a/relu_3x3_reduce <- inception_4a/3x3_reduce
I0403 18:07:13.497335 21417 net.cpp:386] inception_4a/relu_3x3_reduce -> inception_4a/3x3_reduce (in-place)
I0403 18:07:13.497498 21417 net.cpp:141] Setting up inception_4a/relu_3x3_reduce
I0403 18:07:13.497521 21417 net.cpp:148] Top shape: 24 96 14 14 (451584)
I0403 18:07:13.497534 21417 net.cpp:156] Memory required for data: 865236000
I0403 18:07:13.497552 21417 layer_factory.hpp:77] Creating layer inception_4a/3x3
I0403 18:07:13.497573 21417 net.cpp:91] Creating Layer inception_4a/3x3
I0403 18:07:13.497592 21417 net.cpp:425] inception_4a/3x3 <- inception_4a/3x3_reduce
I0403 18:07:13.497609 21417 net.cpp:399] inception_4a/3x3 -> inception_4a/3x3
I0403 18:07:13.500171 21417 net.cpp:141] Setting up inception_4a/3x3
I0403 18:07:13.500200 21417 net.cpp:148] Top shape: 24 208 14 14 (978432)
I0403 18:07:13.500216 21417 net.cpp:156] Memory required for data: 869149728
I0403 18:07:13.500232 21417 layer_factory.hpp:77] Creating layer inception_4a/relu_3x3
I0403 18:07:13.500248 21417 net.cpp:91] Creating Layer inception_4a/relu_3x3
I0403 18:07:13.500264 21417 net.cpp:425] inception_4a/relu_3x3 <- inception_4a/3x3
I0403 18:07:13.500280 21417 net.cpp:386] inception_4a/relu_3x3 -> inception_4a/3x3 (in-place)
I0403 18:07:13.500545 21417 net.cpp:141] Setting up inception_4a/relu_3x3
I0403 18:07:13.500571 21417 net.cpp:148] Top shape: 24 208 14 14 (978432)
I0403 18:07:13.500587 21417 net.cpp:156] Memory required for data: 873063456
I0403 18:07:13.500600 21417 layer_factory.hpp:77] Creating layer inception_4a/5x5_reduce
I0403 18:07:13.500618 21417 net.cpp:91] Creating Layer inception_4a/5x5_reduce
I0403 18:07:13.500634 21417 net.cpp:425] inception_4a/5x5_reduce <- pool3/3x3_s2_pool3/3x3_s2_0_split_2
I0403 18:07:13.500653 21417 net.cpp:399] inception_4a/5x5_reduce -> inception_4a/5x5_reduce
I0403 18:07:13.501607 21417 net.cpp:141] Setting up inception_4a/5x5_reduce
I0403 18:07:13.501636 21417 net.cpp:148] Top shape: 24 16 14 14 (75264)
I0403 18:07:13.501651 21417 net.cpp:156] Memory required for data: 873364512
I0403 18:07:13.501667 21417 layer_factory.hpp:77] Creating layer inception_4a/relu_5x5_reduce
I0403 18:07:13.501683 21417 net.cpp:91] Creating Layer inception_4a/relu_5x5_reduce
I0403 18:07:13.501698 21417 net.cpp:425] inception_4a/relu_5x5_reduce <- inception_4a/5x5_reduce
I0403 18:07:13.501715 21417 net.cpp:386] inception_4a/relu_5x5_reduce -> inception_4a/5x5_reduce (in-place)
I0403 18:07:13.501883 21417 net.cpp:141] Setting up inception_4a/relu_5x5_reduce
I0403 18:07:13.501905 21417 net.cpp:148] Top shape: 24 16 14 14 (75264)
I0403 18:07:13.501919 21417 net.cpp:156] Memory required for data: 873665568
I0403 18:07:13.501932 21417 layer_factory.hpp:77] Creating layer inception_4a/5x5
I0403 18:07:13.501952 21417 net.cpp:91] Creating Layer inception_4a/5x5
I0403 18:07:13.501970 21417 net.cpp:425] inception_4a/5x5 <- inception_4a/5x5_reduce
I0403 18:07:13.501988 21417 net.cpp:399] inception_4a/5x5 -> inception_4a/5x5
I0403 18:07:13.503008 21417 net.cpp:141] Setting up inception_4a/5x5
I0403 18:07:13.503034 21417 net.cpp:148] Top shape: 24 48 14 14 (225792)
I0403 18:07:13.503048 21417 net.cpp:156] Memory required for data: 874568736
I0403 18:07:13.503065 21417 layer_factory.hpp:77] Creating layer inception_4a/relu_5x5
I0403 18:07:13.503082 21417 net.cpp:91] Creating Layer inception_4a/relu_5x5
I0403 18:07:13.503098 21417 net.cpp:425] inception_4a/relu_5x5 <- inception_4a/5x5
I0403 18:07:13.503115 21417 net.cpp:386] inception_4a/relu_5x5 -> inception_4a/5x5 (in-place)
I0403 18:07:13.503283 21417 net.cpp:141] Setting up inception_4a/relu_5x5
I0403 18:07:13.503305 21417 net.cpp:148] Top shape: 24 48 14 14 (225792)
I0403 18:07:13.503319 21417 net.cpp:156] Memory required for data: 875471904
I0403 18:07:13.503332 21417 layer_factory.hpp:77] Creating layer inception_4a/pool
I0403 18:07:13.503350 21417 net.cpp:91] Creating Layer inception_4a/pool
I0403 18:07:13.503366 21417 net.cpp:425] inception_4a/pool <- pool3/3x3_s2_pool3/3x3_s2_0_split_3
I0403 18:07:13.503382 21417 net.cpp:399] inception_4a/pool -> inception_4a/pool
I0403 18:07:13.503439 21417 net.cpp:141] Setting up inception_4a/pool
I0403 18:07:13.503461 21417 net.cpp:148] Top shape: 24 480 14 14 (2257920)
I0403 18:07:13.503474 21417 net.cpp:156] Memory required for data: 884503584
I0403 18:07:13.503489 21417 layer_factory.hpp:77] Creating layer inception_4a/pool_proj
I0403 18:07:13.503509 21417 net.cpp:91] Creating Layer inception_4a/pool_proj
I0403 18:07:13.503525 21417 net.cpp:425] inception_4a/pool_proj <- inception_4a/pool
I0403 18:07:13.503547 21417 net.cpp:399] inception_4a/pool_proj -> inception_4a/pool_proj
I0403 18:07:13.504645 21417 net.cpp:141] Setting up inception_4a/pool_proj
I0403 18:07:13.504673 21417 net.cpp:148] Top shape: 24 64 14 14 (301056)
I0403 18:07:13.504700 21417 net.cpp:156] Memory required for data: 885707808
I0403 18:07:13.504719 21417 layer_factory.hpp:77] Creating layer inception_4a/relu_pool_proj
I0403 18:07:13.504739 21417 net.cpp:91] Creating Layer inception_4a/relu_pool_proj
I0403 18:07:13.504755 21417 net.cpp:425] inception_4a/relu_pool_proj <- inception_4a/pool_proj
I0403 18:07:13.504771 21417 net.cpp:386] inception_4a/relu_pool_proj -> inception_4a/pool_proj (in-place)
I0403 18:07:13.505035 21417 net.cpp:141] Setting up inception_4a/relu_pool_proj
I0403 18:07:13.505060 21417 net.cpp:148] Top shape: 24 64 14 14 (301056)
I0403 18:07:13.505074 21417 net.cpp:156] Memory required for data: 886912032
I0403 18:07:13.505089 21417 layer_factory.hpp:77] Creating layer inception_4a/output
I0403 18:07:13.505103 21417 net.cpp:91] Creating Layer inception_4a/output
I0403 18:07:13.505117 21417 net.cpp:425] inception_4a/output <- inception_4a/1x1
I0403 18:07:13.505132 21417 net.cpp:425] inception_4a/output <- inception_4a/3x3
I0403 18:07:13.505147 21417 net.cpp:425] inception_4a/output <- inception_4a/5x5
I0403 18:07:13.505162 21417 net.cpp:425] inception_4a/output <- inception_4a/pool_proj
I0403 18:07:13.505179 21417 net.cpp:399] inception_4a/output -> inception_4a/output
I0403 18:07:13.505223 21417 net.cpp:141] Setting up inception_4a/output
I0403 18:07:13.505257 21417 net.cpp:148] Top shape: 24 512 14 14 (2408448)
I0403 18:07:13.505271 21417 net.cpp:156] Memory required for data: 896545824
I0403 18:07:13.505285 21417 layer_factory.hpp:77] Creating layer inception_4a/output_inception_4a/output_0_split
I0403 18:07:13.505301 21417 net.cpp:91] Creating Layer inception_4a/output_inception_4a/output_0_split
I0403 18:07:13.505316 21417 net.cpp:425] inception_4a/output_inception_4a/output_0_split <- inception_4a/output
I0403 18:07:13.505334 21417 net.cpp:399] inception_4a/output_inception_4a/output_0_split -> inception_4a/output_inception_4a/output_0_split_0
I0403 18:07:13.505355 21417 net.cpp:399] inception_4a/output_inception_4a/output_0_split -> inception_4a/output_inception_4a/output_0_split_1
I0403 18:07:13.505374 21417 net.cpp:399] inception_4a/output_inception_4a/output_0_split -> inception_4a/output_inception_4a/output_0_split_2
I0403 18:07:13.505394 21417 net.cpp:399] inception_4a/output_inception_4a/output_0_split -> inception_4a/output_inception_4a/output_0_split_3
I0403 18:07:13.505414 21417 net.cpp:399] inception_4a/output_inception_4a/output_0_split -> inception_4a/output_inception_4a/output_0_split_4
I0403 18:07:13.505504 21417 net.cpp:141] Setting up inception_4a/output_inception_4a/output_0_split
I0403 18:07:13.505529 21417 net.cpp:148] Top shape: 24 512 14 14 (2408448)
I0403 18:07:13.505563 21417 net.cpp:148] Top shape: 24 512 14 14 (2408448)
I0403 18:07:13.505578 21417 net.cpp:148] Top shape: 24 512 14 14 (2408448)
I0403 18:07:13.505591 21417 net.cpp:148] Top shape: 24 512 14 14 (2408448)
I0403 18:07:13.505605 21417 net.cpp:148] Top shape: 24 512 14 14 (2408448)
I0403 18:07:13.505619 21417 net.cpp:156] Memory required for data: 944714784
I0403 18:07:13.505631 21417 layer_factory.hpp:77] Creating layer loss1/ave_pool
I0403 18:07:13.505647 21417 net.cpp:91] Creating Layer loss1/ave_pool
I0403 18:07:13.505661 21417 net.cpp:425] loss1/ave_pool <- inception_4a/output_inception_4a/output_0_split_0
I0403 18:07:13.505679 21417 net.cpp:399] loss1/ave_pool -> loss1/ave_pool
I0403 18:07:13.505870 21417 net.cpp:141] Setting up loss1/ave_pool
I0403 18:07:13.505895 21417 net.cpp:148] Top shape: 24 512 4 4 (196608)
I0403 18:07:13.505909 21417 net.cpp:156] Memory required for data: 945501216
I0403 18:07:13.505923 21417 layer_factory.hpp:77] Creating layer loss1/conv
I0403 18:07:13.505944 21417 net.cpp:91] Creating Layer loss1/conv
I0403 18:07:13.505960 21417 net.cpp:425] loss1/conv <- loss1/ave_pool
I0403 18:07:13.505980 21417 net.cpp:399] loss1/conv -> loss1/conv
I0403 18:07:13.507302 21417 net.cpp:141] Setting up loss1/conv
I0403 18:07:13.507329 21417 net.cpp:148] Top shape: 24 128 4 4 (49152)
I0403 18:07:13.507356 21417 net.cpp:156] Memory required for data: 945697824
I0403 18:07:13.507375 21417 layer_factory.hpp:77] Creating layer loss1/relu_conv
I0403 18:07:13.507391 21417 net.cpp:91] Creating Layer loss1/relu_conv
I0403 18:07:13.507406 21417 net.cpp:425] loss1/relu_conv <- loss1/conv
I0403 18:07:13.507422 21417 net.cpp:386] loss1/relu_conv -> loss1/conv (in-place)
I0403 18:07:13.507699 21417 net.cpp:141] Setting up loss1/relu_conv
I0403 18:07:13.507725 21417 net.cpp:148] Top shape: 24 128 4 4 (49152)
I0403 18:07:13.507740 21417 net.cpp:156] Memory required for data: 945894432
I0403 18:07:13.507755 21417 layer_factory.hpp:77] Creating layer loss1/fc
I0403 18:07:13.507776 21417 net.cpp:91] Creating Layer loss1/fc
I0403 18:07:13.507792 21417 net.cpp:425] loss1/fc <- loss1/conv
I0403 18:07:13.507812 21417 net.cpp:399] loss1/fc -> loss1/fc
I0403 18:07:13.524680 21417 net.cpp:141] Setting up loss1/fc
I0403 18:07:13.524711 21417 net.cpp:148] Top shape: 24 1024 (24576)
I0403 18:07:13.524727 21417 net.cpp:156] Memory required for data: 945992736
I0403 18:07:13.524744 21417 layer_factory.hpp:77] Creating layer loss1/relu_fc
I0403 18:07:13.524762 21417 net.cpp:91] Creating Layer loss1/relu_fc
I0403 18:07:13.524778 21417 net.cpp:425] loss1/relu_fc <- loss1/fc
I0403 18:07:13.524793 21417 net.cpp:386] loss1/relu_fc -> loss1/fc (in-place)
I0403 18:07:13.524967 21417 net.cpp:141] Setting up loss1/relu_fc
I0403 18:07:13.524991 21417 net.cpp:148] Top shape: 24 1024 (24576)
I0403 18:07:13.525004 21417 net.cpp:156] Memory required for data: 946091040
I0403 18:07:13.525018 21417 layer_factory.hpp:77] Creating layer loss1/drop_fc
I0403 18:07:13.525043 21417 net.cpp:91] Creating Layer loss1/drop_fc
I0403 18:07:13.525060 21417 net.cpp:425] loss1/drop_fc <- loss1/fc
I0403 18:07:13.525076 21417 net.cpp:386] loss1/drop_fc -> loss1/fc (in-place)
I0403 18:07:13.525125 21417 net.cpp:141] Setting up loss1/drop_fc
I0403 18:07:13.525146 21417 net.cpp:148] Top shape: 24 1024 (24576)
I0403 18:07:13.525158 21417 net.cpp:156] Memory required for data: 946189344
I0403 18:07:13.525171 21417 layer_factory.hpp:77] Creating layer loss1/classifier_plantvillage
I0403 18:07:13.525188 21417 net.cpp:91] Creating Layer loss1/classifier_plantvillage
I0403 18:07:13.525207 21417 net.cpp:425] loss1/classifier_plantvillage <- loss1/fc
I0403 18:07:13.525223 21417 net.cpp:399] loss1/classifier_plantvillage -> loss1/classifier_plantvillage
I0403 18:07:13.526095 21417 net.cpp:141] Setting up loss1/classifier_plantvillage
I0403 18:07:13.526124 21417 net.cpp:148] Top shape: 24 38 (912)
I0403 18:07:13.526139 21417 net.cpp:156] Memory required for data: 946192992
I0403 18:07:13.526155 21417 layer_factory.hpp:77] Creating layer loss1/classifier_plantvillage_loss1/classifier_plantvillage_0_split
I0403 18:07:13.526172 21417 net.cpp:91] Creating Layer loss1/classifier_plantvillage_loss1/classifier_plantvillage_0_split
I0403 18:07:13.526187 21417 net.cpp:425] loss1/classifier_plantvillage_loss1/classifier_plantvillage_0_split <- loss1/classifier_plantvillage
I0403 18:07:13.526202 21417 net.cpp:399] loss1/classifier_plantvillage_loss1/classifier_plantvillage_0_split -> loss1/classifier_plantvillage_loss1/classifier_plantvillage_0_split_0
I0403 18:07:13.526221 21417 net.cpp:399] loss1/classifier_plantvillage_loss1/classifier_plantvillage_0_split -> loss1/classifier_plantvillage_loss1/classifier_plantvillage_0_split_1
I0403 18:07:13.526239 21417 net.cpp:399] loss1/classifier_plantvillage_loss1/classifier_plantvillage_0_split -> loss1/classifier_plantvillage_loss1/classifier_plantvillage_0_split_2
I0403 18:07:13.526303 21417 net.cpp:141] Setting up loss1/classifier_plantvillage_loss1/classifier_plantvillage_0_split
I0403 18:07:13.526324 21417 net.cpp:148] Top shape: 24 38 (912)
I0403 18:07:13.526338 21417 net.cpp:148] Top shape: 24 38 (912)
I0403 18:07:13.526352 21417 net.cpp:148] Top shape: 24 38 (912)
I0403 18:07:13.526365 21417 net.cpp:156] Memory required for data: 946203936
I0403 18:07:13.526377 21417 layer_factory.hpp:77] Creating layer inception_4b/1x1
I0403 18:07:13.526396 21417 net.cpp:91] Creating Layer inception_4b/1x1
I0403 18:07:13.526427 21417 net.cpp:425] inception_4b/1x1 <- inception_4a/output_inception_4a/output_0_split_1
I0403 18:07:13.526448 21417 net.cpp:399] inception_4b/1x1 -> inception_4b/1x1
I0403 18:07:13.527993 21417 net.cpp:141] Setting up inception_4b/1x1
I0403 18:07:13.528023 21417 net.cpp:148] Top shape: 24 160 14 14 (752640)
I0403 18:07:13.528038 21417 net.cpp:156] Memory required for data: 949214496
I0403 18:07:13.528055 21417 layer_factory.hpp:77] Creating layer inception_4b/relu_1x1
I0403 18:07:13.528072 21417 net.cpp:91] Creating Layer inception_4b/relu_1x1
I0403 18:07:13.528087 21417 net.cpp:425] inception_4b/relu_1x1 <- inception_4b/1x1
I0403 18:07:13.528103 21417 net.cpp:386] inception_4b/relu_1x1 -> inception_4b/1x1 (in-place)
I0403 18:07:13.528276 21417 net.cpp:141] Setting up inception_4b/relu_1x1
I0403 18:07:13.528300 21417 net.cpp:148] Top shape: 24 160 14 14 (752640)
I0403 18:07:13.528312 21417 net.cpp:156] Memory required for data: 952225056
I0403 18:07:13.528326 21417 layer_factory.hpp:77] Creating layer inception_4b/3x3_reduce
I0403 18:07:13.528347 21417 net.cpp:91] Creating Layer inception_4b/3x3_reduce
I0403 18:07:13.528362 21417 net.cpp:425] inception_4b/3x3_reduce <- inception_4a/output_inception_4a/output_0_split_2
I0403 18:07:13.528383 21417 net.cpp:399] inception_4b/3x3_reduce -> inception_4b/3x3_reduce
I0403 18:07:13.529664 21417 net.cpp:141] Setting up inception_4b/3x3_reduce
I0403 18:07:13.529691 21417 net.cpp:148] Top shape: 24 112 14 14 (526848)
I0403 18:07:13.529707 21417 net.cpp:156] Memory required for data: 954332448
I0403 18:07:13.529724 21417 layer_factory.hpp:77] Creating layer inception_4b/relu_3x3_reduce
I0403 18:07:13.529742 21417 net.cpp:91] Creating Layer inception_4b/relu_3x3_reduce
I0403 18:07:13.529757 21417 net.cpp:425] inception_4b/relu_3x3_reduce <- inception_4b/3x3_reduce
I0403 18:07:13.529774 21417 net.cpp:386] inception_4b/relu_3x3_reduce -> inception_4b/3x3_reduce (in-place)
I0403 18:07:13.530041 21417 net.cpp:141] Setting up inception_4b/relu_3x3_reduce
I0403 18:07:13.530068 21417 net.cpp:148] Top shape: 24 112 14 14 (526848)
I0403 18:07:13.530083 21417 net.cpp:156] Memory required for data: 956439840
I0403 18:07:13.530097 21417 layer_factory.hpp:77] Creating layer inception_4b/3x3
I0403 18:07:13.530117 21417 net.cpp:91] Creating Layer inception_4b/3x3
I0403 18:07:13.530134 21417 net.cpp:425] inception_4b/3x3 <- inception_4b/3x3_reduce
I0403 18:07:13.530153 21417 net.cpp:399] inception_4b/3x3 -> inception_4b/3x3
I0403 18:07:13.532979 21417 net.cpp:141] Setting up inception_4b/3x3
I0403 18:07:13.533006 21417 net.cpp:148] Top shape: 24 224 14 14 (1053696)
I0403 18:07:13.533021 21417 net.cpp:156] Memory required for data: 960654624
I0403 18:07:13.533037 21417 layer_factory.hpp:77] Creating layer inception_4b/relu_3x3
I0403 18:07:13.533057 21417 net.cpp:91] Creating Layer inception_4b/relu_3x3
I0403 18:07:13.533073 21417 net.cpp:425] inception_4b/relu_3x3 <- inception_4b/3x3
I0403 18:07:13.533089 21417 net.cpp:386] inception_4b/relu_3x3 -> inception_4b/3x3 (in-place)
I0403 18:07:13.533260 21417 net.cpp:141] Setting up inception_4b/relu_3x3
I0403 18:07:13.533285 21417 net.cpp:148] Top shape: 24 224 14 14 (1053696)
I0403 18:07:13.533299 21417 net.cpp:156] Memory required for data: 964869408
I0403 18:07:13.533313 21417 layer_factory.hpp:77] Creating layer inception_4b/5x5_reduce
I0403 18:07:13.533334 21417 net.cpp:91] Creating Layer inception_4b/5x5_reduce
I0403 18:07:13.533349 21417 net.cpp:425] inception_4b/5x5_reduce <- inception_4a/output_inception_4a/output_0_split_3
I0403 18:07:13.533367 21417 net.cpp:399] inception_4b/5x5_reduce -> inception_4b/5x5_reduce
I0403 18:07:13.534396 21417 net.cpp:141] Setting up inception_4b/5x5_reduce
I0403 18:07:13.534425 21417 net.cpp:148] Top shape: 24 24 14 14 (112896)
I0403 18:07:13.534440 21417 net.cpp:156] Memory required for data: 965320992
I0403 18:07:13.534456 21417 layer_factory.hpp:77] Creating layer inception_4b/relu_5x5_reduce
I0403 18:07:13.534472 21417 net.cpp:91] Creating Layer inception_4b/relu_5x5_reduce
I0403 18:07:13.534502 21417 net.cpp:425] inception_4b/relu_5x5_reduce <- inception_4b/5x5_reduce
I0403 18:07:13.534521 21417 net.cpp:386] inception_4b/relu_5x5_reduce -> inception_4b/5x5_reduce (in-place)
I0403 18:07:13.534706 21417 net.cpp:141] Setting up inception_4b/relu_5x5_reduce
I0403 18:07:13.534730 21417 net.cpp:148] Top shape: 24 24 14 14 (112896)
I0403 18:07:13.534744 21417 net.cpp:156] Memory required for data: 965772576
I0403 18:07:13.534759 21417 layer_factory.hpp:77] Creating layer inception_4b/5x5
I0403 18:07:13.534778 21417 net.cpp:91] Creating Layer inception_4b/5x5
I0403 18:07:13.534795 21417 net.cpp:425] inception_4b/5x5 <- inception_4b/5x5_reduce
I0403 18:07:13.534816 21417 net.cpp:399] inception_4b/5x5 -> inception_4b/5x5
I0403 18:07:13.535989 21417 net.cpp:141] Setting up inception_4b/5x5
I0403 18:07:13.536017 21417 net.cpp:148] Top shape: 24 64 14 14 (301056)
I0403 18:07:13.536032 21417 net.cpp:156] Memory required for data: 966976800
I0403 18:07:13.536049 21417 layer_factory.hpp:77] Creating layer inception_4b/relu_5x5
I0403 18:07:13.536067 21417 net.cpp:91] Creating Layer inception_4b/relu_5x5
I0403 18:07:13.536082 21417 net.cpp:425] inception_4b/relu_5x5 <- inception_4b/5x5
I0403 18:07:13.536098 21417 net.cpp:386] inception_4b/relu_5x5 -> inception_4b/5x5 (in-place)
I0403 18:07:13.536371 21417 net.cpp:141] Setting up inception_4b/relu_5x5
I0403 18:07:13.536398 21417 net.cpp:148] Top shape: 24 64 14 14 (301056)
I0403 18:07:13.536413 21417 net.cpp:156] Memory required for data: 968181024
I0403 18:07:13.536427 21417 layer_factory.hpp:77] Creating layer inception_4b/pool
I0403 18:07:13.536444 21417 net.cpp:91] Creating Layer inception_4b/pool
I0403 18:07:13.536459 21417 net.cpp:425] inception_4b/pool <- inception_4a/output_inception_4a/output_0_split_4
I0403 18:07:13.536478 21417 net.cpp:399] inception_4b/pool -> inception_4b/pool
I0403 18:07:13.536543 21417 net.cpp:141] Setting up inception_4b/pool
I0403 18:07:13.536566 21417 net.cpp:148] Top shape: 24 512 14 14 (2408448)
I0403 18:07:13.536579 21417 net.cpp:156] Memory required for data: 977814816
I0403 18:07:13.536592 21417 layer_factory.hpp:77] Creating layer inception_4b/pool_proj
I0403 18:07:13.536612 21417 net.cpp:91] Creating Layer inception_4b/pool_proj
I0403 18:07:13.536628 21417 net.cpp:425] inception_4b/pool_proj <- inception_4b/pool
I0403 18:07:13.536648 21417 net.cpp:399] inception_4b/pool_proj -> inception_4b/pool_proj
I0403 18:07:13.537799 21417 net.cpp:141] Setting up inception_4b/pool_proj
I0403 18:07:13.537828 21417 net.cpp:148] Top shape: 24 64 14 14 (301056)
I0403 18:07:13.537843 21417 net.cpp:156] Memory required for data: 979019040
I0403 18:07:13.537860 21417 layer_factory.hpp:77] Creating layer inception_4b/relu_pool_proj
I0403 18:07:13.537878 21417 net.cpp:91] Creating Layer inception_4b/relu_pool_proj
I0403 18:07:13.537891 21417 net.cpp:425] inception_4b/relu_pool_proj <- inception_4b/pool_proj
I0403 18:07:13.537910 21417 net.cpp:386] inception_4b/relu_pool_proj -> inception_4b/pool_proj (in-place)
I0403 18:07:13.538084 21417 net.cpp:141] Setting up inception_4b/relu_pool_proj
I0403 18:07:13.538107 21417 net.cpp:148] Top shape: 24 64 14 14 (301056)
I0403 18:07:13.538120 21417 net.cpp:156] Memory required for data: 980223264
I0403 18:07:13.538135 21417 layer_factory.hpp:77] Creating layer inception_4b/output
I0403 18:07:13.538149 21417 net.cpp:91] Creating Layer inception_4b/output
I0403 18:07:13.538163 21417 net.cpp:425] inception_4b/output <- inception_4b/1x1
I0403 18:07:13.538178 21417 net.cpp:425] inception_4b/output <- inception_4b/3x3
I0403 18:07:13.538193 21417 net.cpp:425] inception_4b/output <- inception_4b/5x5
I0403 18:07:13.538208 21417 net.cpp:425] inception_4b/output <- inception_4b/pool_proj
I0403 18:07:13.538226 21417 net.cpp:399] inception_4b/output -> inception_4b/output
I0403 18:07:13.538267 21417 net.cpp:141] Setting up inception_4b/output
I0403 18:07:13.538291 21417 net.cpp:148] Top shape: 24 512 14 14 (2408448)
I0403 18:07:13.538305 21417 net.cpp:156] Memory required for data: 989857056
I0403 18:07:13.538332 21417 layer_factory.hpp:77] Creating layer inception_4b/output_inception_4b/output_0_split
I0403 18:07:13.538349 21417 net.cpp:91] Creating Layer inception_4b/output_inception_4b/output_0_split
I0403 18:07:13.538364 21417 net.cpp:425] inception_4b/output_inception_4b/output_0_split <- inception_4b/output
I0403 18:07:13.538383 21417 net.cpp:399] inception_4b/output_inception_4b/output_0_split -> inception_4b/output_inception_4b/output_0_split_0
I0403 18:07:13.538403 21417 net.cpp:399] inception_4b/output_inception_4b/output_0_split -> inception_4b/output_inception_4b/output_0_split_1
I0403 18:07:13.538422 21417 net.cpp:399] inception_4b/output_inception_4b/output_0_split -> inception_4b/output_inception_4b/output_0_split_2
I0403 18:07:13.538440 21417 net.cpp:399] inception_4b/output_inception_4b/output_0_split -> inception_4b/output_inception_4b/output_0_split_3
I0403 18:07:13.538521 21417 net.cpp:141] Setting up inception_4b/output_inception_4b/output_0_split
I0403 18:07:13.538548 21417 net.cpp:148] Top shape: 24 512 14 14 (2408448)
I0403 18:07:13.538568 21417 net.cpp:148] Top shape: 24 512 14 14 (2408448)
I0403 18:07:13.538583 21417 net.cpp:148] Top shape: 24 512 14 14 (2408448)
I0403 18:07:13.538596 21417 net.cpp:148] Top shape: 24 512 14 14 (2408448)
I0403 18:07:13.538609 21417 net.cpp:156] Memory required for data: 1028392224
I0403 18:07:13.538624 21417 layer_factory.hpp:77] Creating layer inception_4c/1x1
I0403 18:07:13.538641 21417 net.cpp:91] Creating Layer inception_4c/1x1
I0403 18:07:13.538656 21417 net.cpp:425] inception_4c/1x1 <- inception_4b/output_inception_4b/output_0_split_0
I0403 18:07:13.538676 21417 net.cpp:399] inception_4c/1x1 -> inception_4c/1x1
I0403 18:07:13.540050 21417 net.cpp:141] Setting up inception_4c/1x1
I0403 18:07:13.540076 21417 net.cpp:148] Top shape: 24 128 14 14 (602112)
I0403 18:07:13.540091 21417 net.cpp:156] Memory required for data: 1030800672
I0403 18:07:13.540107 21417 layer_factory.hpp:77] Creating layer inception_4c/relu_1x1
I0403 18:07:13.540127 21417 net.cpp:91] Creating Layer inception_4c/relu_1x1
I0403 18:07:13.540143 21417 net.cpp:425] inception_4c/relu_1x1 <- inception_4c/1x1
I0403 18:07:13.540158 21417 net.cpp:386] inception_4c/relu_1x1 -> inception_4c/1x1 (in-place)
I0403 18:07:13.540331 21417 net.cpp:141] Setting up inception_4c/relu_1x1
I0403 18:07:13.540354 21417 net.cpp:148] Top shape: 24 128 14 14 (602112)
I0403 18:07:13.540369 21417 net.cpp:156] Memory required for data: 1033209120
I0403 18:07:13.540381 21417 layer_factory.hpp:77] Creating layer inception_4c/3x3_reduce
I0403 18:07:13.540402 21417 net.cpp:91] Creating Layer inception_4c/3x3_reduce
I0403 18:07:13.540419 21417 net.cpp:425] inception_4c/3x3_reduce <- inception_4b/output_inception_4b/output_0_split_1
I0403 18:07:13.540436 21417 net.cpp:399] inception_4c/3x3_reduce -> inception_4c/3x3_reduce
I0403 18:07:13.542299 21417 net.cpp:141] Setting up inception_4c/3x3_reduce
I0403 18:07:13.542326 21417 net.cpp:148] Top shape: 24 128 14 14 (602112)
I0403 18:07:13.542341 21417 net.cpp:156] Memory required for data: 1035617568
I0403 18:07:13.542358 21417 layer_factory.hpp:77] Creating layer inception_4c/relu_3x3_reduce
I0403 18:07:13.542376 21417 net.cpp:91] Creating Layer inception_4c/relu_3x3_reduce
I0403 18:07:13.542392 21417 net.cpp:425] inception_4c/relu_3x3_reduce <- inception_4c/3x3_reduce
I0403 18:07:13.542407 21417 net.cpp:386] inception_4c/relu_3x3_reduce -> inception_4c/3x3_reduce (in-place)
I0403 18:07:13.542685 21417 net.cpp:141] Setting up inception_4c/relu_3x3_reduce
I0403 18:07:13.542711 21417 net.cpp:148] Top shape: 24 128 14 14 (602112)
I0403 18:07:13.542724 21417 net.cpp:156] Memory required for data: 1038026016
I0403 18:07:13.542737 21417 layer_factory.hpp:77] Creating layer inception_4c/3x3
I0403 18:07:13.542760 21417 net.cpp:91] Creating Layer inception_4c/3x3
I0403 18:07:13.542778 21417 net.cpp:425] inception_4c/3x3 <- inception_4c/3x3_reduce
I0403 18:07:13.542795 21417 net.cpp:399] inception_4c/3x3 -> inception_4c/3x3
I0403 18:07:13.546169 21417 net.cpp:141] Setting up inception_4c/3x3
I0403 18:07:13.546211 21417 net.cpp:148] Top shape: 24 256 14 14 (1204224)
I0403 18:07:13.546227 21417 net.cpp:156] Memory required for data: 1042842912
I0403 18:07:13.546255 21417 layer_factory.hpp:77] Creating layer inception_4c/relu_3x3
I0403 18:07:13.546274 21417 net.cpp:91] Creating Layer inception_4c/relu_3x3
I0403 18:07:13.546289 21417 net.cpp:425] inception_4c/relu_3x3 <- inception_4c/3x3
I0403 18:07:13.546305 21417 net.cpp:386] inception_4c/relu_3x3 -> inception_4c/3x3 (in-place)
I0403 18:07:13.546484 21417 net.cpp:141] Setting up inception_4c/relu_3x3
I0403 18:07:13.546510 21417 net.cpp:148] Top shape: 24 256 14 14 (1204224)
I0403 18:07:13.546525 21417 net.cpp:156] Memory required for data: 1047659808
I0403 18:07:13.546545 21417 layer_factory.hpp:77] Creating layer inception_4c/5x5_reduce
I0403 18:07:13.546568 21417 net.cpp:91] Creating Layer inception_4c/5x5_reduce
I0403 18:07:13.546586 21417 net.cpp:425] inception_4c/5x5_reduce <- inception_4b/output_inception_4b/output_0_split_2
I0403 18:07:13.546603 21417 net.cpp:399] inception_4c/5x5_reduce -> inception_4c/5x5_reduce
I0403 18:07:13.547657 21417 net.cpp:141] Setting up inception_4c/5x5_reduce
I0403 18:07:13.547685 21417 net.cpp:148] Top shape: 24 24 14 14 (112896)
I0403 18:07:13.547703 21417 net.cpp:156] Memory required for data: 1048111392
I0403 18:07:13.547719 21417 layer_factory.hpp:77] Creating layer inception_4c/relu_5x5_reduce
I0403 18:07:13.547736 21417 net.cpp:91] Creating Layer inception_4c/relu_5x5_reduce
I0403 18:07:13.547752 21417 net.cpp:425] inception_4c/relu_5x5_reduce <- inception_4c/5x5_reduce
I0403 18:07:13.547772 21417 net.cpp:386] inception_4c/relu_5x5_reduce -> inception_4c/5x5_reduce (in-place)
I0403 18:07:13.547958 21417 net.cpp:141] Setting up inception_4c/relu_5x5_reduce
I0403 18:07:13.547982 21417 net.cpp:148] Top shape: 24 24 14 14 (112896)
I0403 18:07:13.547996 21417 net.cpp:156] Memory required for data: 1048562976
I0403 18:07:13.548009 21417 layer_factory.hpp:77] Creating layer inception_4c/5x5
I0403 18:07:13.548030 21417 net.cpp:91] Creating Layer inception_4c/5x5
I0403 18:07:13.548046 21417 net.cpp:425] inception_4c/5x5 <- inception_4c/5x5_reduce
I0403 18:07:13.548066 21417 net.cpp:399] inception_4c/5x5 -> inception_4c/5x5
I0403 18:07:13.549243 21417 net.cpp:141] Setting up inception_4c/5x5
I0403 18:07:13.549269 21417 net.cpp:148] Top shape: 24 64 14 14 (301056)
I0403 18:07:13.549283 21417 net.cpp:156] Memory required for data: 1049767200
I0403 18:07:13.549300 21417 layer_factory.hpp:77] Creating layer inception_4c/relu_5x5
I0403 18:07:13.549319 21417 net.cpp:91] Creating Layer inception_4c/relu_5x5
I0403 18:07:13.549335 21417 net.cpp:425] inception_4c/relu_5x5 <- inception_4c/5x5
I0403 18:07:13.549350 21417 net.cpp:386] inception_4c/relu_5x5 -> inception_4c/5x5 (in-place)
I0403 18:07:13.549631 21417 net.cpp:141] Setting up inception_4c/relu_5x5
I0403 18:07:13.549656 21417 net.cpp:148] Top shape: 24 64 14 14 (301056)
I0403 18:07:13.549670 21417 net.cpp:156] Memory required for data: 1050971424
I0403 18:07:13.549685 21417 layer_factory.hpp:77] Creating layer inception_4c/pool
I0403 18:07:13.549700 21417 net.cpp:91] Creating Layer inception_4c/pool
I0403 18:07:13.549715 21417 net.cpp:425] inception_4c/pool <- inception_4b/output_inception_4b/output_0_split_3
I0403 18:07:13.549734 21417 net.cpp:399] inception_4c/pool -> inception_4c/pool
I0403 18:07:13.549798 21417 net.cpp:141] Setting up inception_4c/pool
I0403 18:07:13.549819 21417 net.cpp:148] Top shape: 24 512 14 14 (2408448)
I0403 18:07:13.549834 21417 net.cpp:156] Memory required for data: 1060605216
I0403 18:07:13.549846 21417 layer_factory.hpp:77] Creating layer inception_4c/pool_proj
I0403 18:07:13.549867 21417 net.cpp:91] Creating Layer inception_4c/pool_proj
I0403 18:07:13.549885 21417 net.cpp:425] inception_4c/pool_proj <- inception_4c/pool
I0403 18:07:13.549903 21417 net.cpp:399] inception_4c/pool_proj -> inception_4c/pool_proj
I0403 18:07:13.551064 21417 net.cpp:141] Setting up inception_4c/pool_proj
I0403 18:07:13.551093 21417 net.cpp:148] Top shape: 24 64 14 14 (301056)
I0403 18:07:13.551121 21417 net.cpp:156] Memory required for data: 1061809440
I0403 18:07:13.551139 21417 layer_factory.hpp:77] Creating layer inception_4c/relu_pool_proj
I0403 18:07:13.551156 21417 net.cpp:91] Creating Layer inception_4c/relu_pool_proj
I0403 18:07:13.551172 21417 net.cpp:425] inception_4c/relu_pool_proj <- inception_4c/pool_proj
I0403 18:07:13.551187 21417 net.cpp:386] inception_4c/relu_pool_proj -> inception_4c/pool_proj (in-place)
I0403 18:07:13.551362 21417 net.cpp:141] Setting up inception_4c/relu_pool_proj
I0403 18:07:13.551385 21417 net.cpp:148] Top shape: 24 64 14 14 (301056)
I0403 18:07:13.551400 21417 net.cpp:156] Memory required for data: 1063013664
I0403 18:07:13.551412 21417 layer_factory.hpp:77] Creating layer inception_4c/output
I0403 18:07:13.551429 21417 net.cpp:91] Creating Layer inception_4c/output
I0403 18:07:13.551442 21417 net.cpp:425] inception_4c/output <- inception_4c/1x1
I0403 18:07:13.551457 21417 net.cpp:425] inception_4c/output <- inception_4c/3x3
I0403 18:07:13.551472 21417 net.cpp:425] inception_4c/output <- inception_4c/5x5
I0403 18:07:13.551486 21417 net.cpp:425] inception_4c/output <- inception_4c/pool_proj
I0403 18:07:13.551504 21417 net.cpp:399] inception_4c/output -> inception_4c/output
I0403 18:07:13.551554 21417 net.cpp:141] Setting up inception_4c/output
I0403 18:07:13.551578 21417 net.cpp:148] Top shape: 24 512 14 14 (2408448)
I0403 18:07:13.551594 21417 net.cpp:156] Memory required for data: 1072647456
I0403 18:07:13.551606 21417 layer_factory.hpp:77] Creating layer inception_4c/output_inception_4c/output_0_split
I0403 18:07:13.551622 21417 net.cpp:91] Creating Layer inception_4c/output_inception_4c/output_0_split
I0403 18:07:13.551636 21417 net.cpp:425] inception_4c/output_inception_4c/output_0_split <- inception_4c/output
I0403 18:07:13.551654 21417 net.cpp:399] inception_4c/output_inception_4c/output_0_split -> inception_4c/output_inception_4c/output_0_split_0
I0403 18:07:13.551676 21417 net.cpp:399] inception_4c/output_inception_4c/output_0_split -> inception_4c/output_inception_4c/output_0_split_1
I0403 18:07:13.551694 21417 net.cpp:399] inception_4c/output_inception_4c/output_0_split -> inception_4c/output_inception_4c/output_0_split_2
I0403 18:07:13.551714 21417 net.cpp:399] inception_4c/output_inception_4c/output_0_split -> inception_4c/output_inception_4c/output_0_split_3
I0403 18:07:13.551795 21417 net.cpp:141] Setting up inception_4c/output_inception_4c/output_0_split
I0403 18:07:13.551817 21417 net.cpp:148] Top shape: 24 512 14 14 (2408448)
I0403 18:07:13.551832 21417 net.cpp:148] Top shape: 24 512 14 14 (2408448)
I0403 18:07:13.551846 21417 net.cpp:148] Top shape: 24 512 14 14 (2408448)
I0403 18:07:13.551859 21417 net.cpp:148] Top shape: 24 512 14 14 (2408448)
I0403 18:07:13.551872 21417 net.cpp:156] Memory required for data: 1111182624
I0403 18:07:13.551885 21417 layer_factory.hpp:77] Creating layer inception_4d/1x1
I0403 18:07:13.551905 21417 net.cpp:91] Creating Layer inception_4d/1x1
I0403 18:07:13.551921 21417 net.cpp:425] inception_4d/1x1 <- inception_4c/output_inception_4c/output_0_split_0
I0403 18:07:13.551940 21417 net.cpp:399] inception_4d/1x1 -> inception_4d/1x1
I0403 18:07:13.553248 21417 net.cpp:141] Setting up inception_4d/1x1
I0403 18:07:13.553275 21417 net.cpp:148] Top shape: 24 112 14 14 (526848)
I0403 18:07:13.553290 21417 net.cpp:156] Memory required for data: 1113290016
I0403 18:07:13.553306 21417 layer_factory.hpp:77] Creating layer inception_4d/relu_1x1
I0403 18:07:13.553325 21417 net.cpp:91] Creating Layer inception_4d/relu_1x1
I0403 18:07:13.553341 21417 net.cpp:425] inception_4d/relu_1x1 <- inception_4d/1x1
I0403 18:07:13.553356 21417 net.cpp:386] inception_4d/relu_1x1 -> inception_4d/1x1 (in-place)
I0403 18:07:13.553535 21417 net.cpp:141] Setting up inception_4d/relu_1x1
I0403 18:07:13.553566 21417 net.cpp:148] Top shape: 24 112 14 14 (526848)
I0403 18:07:13.553581 21417 net.cpp:156] Memory required for data: 1115397408
I0403 18:07:13.553596 21417 layer_factory.hpp:77] Creating layer inception_4d/3x3_reduce
I0403 18:07:13.553629 21417 net.cpp:91] Creating Layer inception_4d/3x3_reduce
I0403 18:07:13.553647 21417 net.cpp:425] inception_4d/3x3_reduce <- inception_4c/output_inception_4c/output_0_split_1
I0403 18:07:13.553665 21417 net.cpp:399] inception_4d/3x3_reduce -> inception_4d/3x3_reduce
I0403 18:07:13.555117 21417 net.cpp:141] Setting up inception_4d/3x3_reduce
I0403 18:07:13.555145 21417 net.cpp:148] Top shape: 24 144 14 14 (677376)
I0403 18:07:13.555161 21417 net.cpp:156] Memory required for data: 1118106912
I0403 18:07:13.555178 21417 layer_factory.hpp:77] Creating layer inception_4d/relu_3x3_reduce
I0403 18:07:13.555197 21417 net.cpp:91] Creating Layer inception_4d/relu_3x3_reduce
I0403 18:07:13.555214 21417 net.cpp:425] inception_4d/relu_3x3_reduce <- inception_4d/3x3_reduce
I0403 18:07:13.555233 21417 net.cpp:386] inception_4d/relu_3x3_reduce -> inception_4d/3x3_reduce (in-place)
I0403 18:07:13.555510 21417 net.cpp:141] Setting up inception_4d/relu_3x3_reduce
I0403 18:07:13.555536 21417 net.cpp:148] Top shape: 24 144 14 14 (677376)
I0403 18:07:13.555557 21417 net.cpp:156] Memory required for data: 1120816416
I0403 18:07:13.555570 21417 layer_factory.hpp:77] Creating layer inception_4d/3x3
I0403 18:07:13.555590 21417 net.cpp:91] Creating Layer inception_4d/3x3
I0403 18:07:13.555608 21417 net.cpp:425] inception_4d/3x3 <- inception_4d/3x3_reduce
I0403 18:07:13.555627 21417 net.cpp:399] inception_4d/3x3 -> inception_4d/3x3
I0403 18:07:13.559689 21417 net.cpp:141] Setting up inception_4d/3x3
I0403 18:07:13.559716 21417 net.cpp:148] Top shape: 24 288 14 14 (1354752)
I0403 18:07:13.559732 21417 net.cpp:156] Memory required for data: 1126235424
I0403 18:07:13.559748 21417 layer_factory.hpp:77] Creating layer inception_4d/relu_3x3
I0403 18:07:13.559767 21417 net.cpp:91] Creating Layer inception_4d/relu_3x3
I0403 18:07:13.559783 21417 net.cpp:425] inception_4d/relu_3x3 <- inception_4d/3x3
I0403 18:07:13.559799 21417 net.cpp:386] inception_4d/relu_3x3 -> inception_4d/3x3 (in-place)
I0403 18:07:13.559973 21417 net.cpp:141] Setting up inception_4d/relu_3x3
I0403 18:07:13.559998 21417 net.cpp:148] Top shape: 24 288 14 14 (1354752)
I0403 18:07:13.560012 21417 net.cpp:156] Memory required for data: 1131654432
I0403 18:07:13.560025 21417 layer_factory.hpp:77] Creating layer inception_4d/5x5_reduce
I0403 18:07:13.560046 21417 net.cpp:91] Creating Layer inception_4d/5x5_reduce
I0403 18:07:13.560063 21417 net.cpp:425] inception_4d/5x5_reduce <- inception_4c/output_inception_4c/output_0_split_2
I0403 18:07:13.560082 21417 net.cpp:399] inception_4d/5x5_reduce -> inception_4d/5x5_reduce
I0403 18:07:13.561177 21417 net.cpp:141] Setting up inception_4d/5x5_reduce
I0403 18:07:13.561203 21417 net.cpp:148] Top shape: 24 32 14 14 (150528)
I0403 18:07:13.561218 21417 net.cpp:156] Memory required for data: 1132256544
I0403 18:07:13.561235 21417 layer_factory.hpp:77] Creating layer inception_4d/relu_5x5_reduce
I0403 18:07:13.561265 21417 net.cpp:91] Creating Layer inception_4d/relu_5x5_reduce
I0403 18:07:13.561283 21417 net.cpp:425] inception_4d/relu_5x5_reduce <- inception_4d/5x5_reduce
I0403 18:07:13.561300 21417 net.cpp:386] inception_4d/relu_5x5_reduce -> inception_4d/5x5_reduce (in-place)
I0403 18:07:13.561481 21417 net.cpp:141] Setting up inception_4d/relu_5x5_reduce
I0403 18:07:13.561507 21417 net.cpp:148] Top shape: 24 32 14 14 (150528)
I0403 18:07:13.561522 21417 net.cpp:156] Memory required for data: 1132858656
I0403 18:07:13.561539 21417 layer_factory.hpp:77] Creating layer inception_4d/5x5
I0403 18:07:13.561574 21417 net.cpp:91] Creating Layer inception_4d/5x5
I0403 18:07:13.561591 21417 net.cpp:425] inception_4d/5x5 <- inception_4d/5x5_reduce
I0403 18:07:13.561609 21417 net.cpp:399] inception_4d/5x5 -> inception_4d/5x5
I0403 18:07:13.563002 21417 net.cpp:141] Setting up inception_4d/5x5
I0403 18:07:13.563031 21417 net.cpp:148] Top shape: 24 64 14 14 (301056)
I0403 18:07:13.563046 21417 net.cpp:156] Memory required for data: 1134062880
I0403 18:07:13.563065 21417 layer_factory.hpp:77] Creating layer inception_4d/relu_5x5
I0403 18:07:13.563097 21417 net.cpp:91] Creating Layer inception_4d/relu_5x5
I0403 18:07:13.563112 21417 net.cpp:425] inception_4d/relu_5x5 <- inception_4d/5x5
I0403 18:07:13.563130 21417 net.cpp:386] inception_4d/relu_5x5 -> inception_4d/5x5 (in-place)
I0403 18:07:13.563416 21417 net.cpp:141] Setting up inception_4d/relu_5x5
I0403 18:07:13.563442 21417 net.cpp:148] Top shape: 24 64 14 14 (301056)
I0403 18:07:13.563457 21417 net.cpp:156] Memory required for data: 1135267104
I0403 18:07:13.563472 21417 layer_factory.hpp:77] Creating layer inception_4d/pool
I0403 18:07:13.563488 21417 net.cpp:91] Creating Layer inception_4d/pool
I0403 18:07:13.563501 21417 net.cpp:425] inception_4d/pool <- inception_4c/output_inception_4c/output_0_split_3
I0403 18:07:13.563520 21417 net.cpp:399] inception_4d/pool -> inception_4d/pool
I0403 18:07:13.563588 21417 net.cpp:141] Setting up inception_4d/pool
I0403 18:07:13.563613 21417 net.cpp:148] Top shape: 24 512 14 14 (2408448)
I0403 18:07:13.563628 21417 net.cpp:156] Memory required for data: 1144900896
I0403 18:07:13.563642 21417 layer_factory.hpp:77] Creating layer inception_4d/pool_proj
I0403 18:07:13.563665 21417 net.cpp:91] Creating Layer inception_4d/pool_proj
I0403 18:07:13.563683 21417 net.cpp:425] inception_4d/pool_proj <- inception_4d/pool
I0403 18:07:13.563700 21417 net.cpp:399] inception_4d/pool_proj -> inception_4d/pool_proj
I0403 18:07:13.565397 21417 net.cpp:141] Setting up inception_4d/pool_proj
I0403 18:07:13.565425 21417 net.cpp:148] Top shape: 24 64 14 14 (301056)
I0403 18:07:13.565440 21417 net.cpp:156] Memory required for data: 1146105120
I0403 18:07:13.565456 21417 layer_factory.hpp:77] Creating layer inception_4d/relu_pool_proj
I0403 18:07:13.565475 21417 net.cpp:91] Creating Layer inception_4d/relu_pool_proj
I0403 18:07:13.565491 21417 net.cpp:425] inception_4d/relu_pool_proj <- inception_4d/pool_proj
I0403 18:07:13.565507 21417 net.cpp:386] inception_4d/relu_pool_proj -> inception_4d/pool_proj (in-place)
I0403 18:07:13.565690 21417 net.cpp:141] Setting up inception_4d/relu_pool_proj
I0403 18:07:13.565714 21417 net.cpp:148] Top shape: 24 64 14 14 (301056)
I0403 18:07:13.565728 21417 net.cpp:156] Memory required for data: 1147309344
I0403 18:07:13.565740 21417 layer_factory.hpp:77] Creating layer inception_4d/output
I0403 18:07:13.565757 21417 net.cpp:91] Creating Layer inception_4d/output
I0403 18:07:13.565771 21417 net.cpp:425] inception_4d/output <- inception_4d/1x1
I0403 18:07:13.565788 21417 net.cpp:425] inception_4d/output <- inception_4d/3x3
I0403 18:07:13.565801 21417 net.cpp:425] inception_4d/output <- inception_4d/5x5
I0403 18:07:13.565816 21417 net.cpp:425] inception_4d/output <- inception_4d/pool_proj
I0403 18:07:13.565831 21417 net.cpp:399] inception_4d/output -> inception_4d/output
I0403 18:07:13.565877 21417 net.cpp:141] Setting up inception_4d/output
I0403 18:07:13.565899 21417 net.cpp:148] Top shape: 24 528 14 14 (2483712)
I0403 18:07:13.565913 21417 net.cpp:156] Memory required for data: 1157244192
I0403 18:07:13.565927 21417 layer_factory.hpp:77] Creating layer inception_4d/output_inception_4d/output_0_split
I0403 18:07:13.565944 21417 net.cpp:91] Creating Layer inception_4d/output_inception_4d/output_0_split
I0403 18:07:13.565959 21417 net.cpp:425] inception_4d/output_inception_4d/output_0_split <- inception_4d/output
I0403 18:07:13.565975 21417 net.cpp:399] inception_4d/output_inception_4d/output_0_split -> inception_4d/output_inception_4d/output_0_split_0
I0403 18:07:13.565994 21417 net.cpp:399] inception_4d/output_inception_4d/output_0_split -> inception_4d/output_inception_4d/output_0_split_1
I0403 18:07:13.566017 21417 net.cpp:399] inception_4d/output_inception_4d/output_0_split -> inception_4d/output_inception_4d/output_0_split_2
I0403 18:07:13.566038 21417 net.cpp:399] inception_4d/output_inception_4d/output_0_split -> inception_4d/output_inception_4d/output_0_split_3
I0403 18:07:13.566058 21417 net.cpp:399] inception_4d/output_inception_4d/output_0_split -> inception_4d/output_inception_4d/output_0_split_4
I0403 18:07:13.566154 21417 net.cpp:141] Setting up inception_4d/output_inception_4d/output_0_split
I0403 18:07:13.566189 21417 net.cpp:148] Top shape: 24 528 14 14 (2483712)
I0403 18:07:13.566203 21417 net.cpp:148] Top shape: 24 528 14 14 (2483712)
I0403 18:07:13.566218 21417 net.cpp:148] Top shape: 24 528 14 14 (2483712)
I0403 18:07:13.566232 21417 net.cpp:148] Top shape: 24 528 14 14 (2483712)
I0403 18:07:13.566246 21417 net.cpp:148] Top shape: 24 528 14 14 (2483712)
I0403 18:07:13.566258 21417 net.cpp:156] Memory required for data: 1206918432
I0403 18:07:13.566272 21417 layer_factory.hpp:77] Creating layer loss2/ave_pool
I0403 18:07:13.566290 21417 net.cpp:91] Creating Layer loss2/ave_pool
I0403 18:07:13.566306 21417 net.cpp:425] loss2/ave_pool <- inception_4d/output_inception_4d/output_0_split_0
I0403 18:07:13.566323 21417 net.cpp:399] loss2/ave_pool -> loss2/ave_pool
I0403 18:07:13.566628 21417 net.cpp:141] Setting up loss2/ave_pool
I0403 18:07:13.566653 21417 net.cpp:148] Top shape: 24 528 4 4 (202752)
I0403 18:07:13.566668 21417 net.cpp:156] Memory required for data: 1207729440
I0403 18:07:13.566681 21417 layer_factory.hpp:77] Creating layer loss2/conv
I0403 18:07:13.566704 21417 net.cpp:91] Creating Layer loss2/conv
I0403 18:07:13.566720 21417 net.cpp:425] loss2/conv <- loss2/ave_pool
I0403 18:07:13.566738 21417 net.cpp:399] loss2/conv -> loss2/conv
I0403 18:07:13.568569 21417 net.cpp:141] Setting up loss2/conv
I0403 18:07:13.568596 21417 net.cpp:148] Top shape: 24 128 4 4 (49152)
I0403 18:07:13.568610 21417 net.cpp:156] Memory required for data: 1207926048
I0403 18:07:13.568627 21417 layer_factory.hpp:77] Creating layer loss2/relu_conv
I0403 18:07:13.568645 21417 net.cpp:91] Creating Layer loss2/relu_conv
I0403 18:07:13.568660 21417 net.cpp:425] loss2/relu_conv <- loss2/conv
I0403 18:07:13.568677 21417 net.cpp:386] loss2/relu_conv -> loss2/conv (in-place)
I0403 18:07:13.568966 21417 net.cpp:141] Setting up loss2/relu_conv
I0403 18:07:13.568991 21417 net.cpp:148] Top shape: 24 128 4 4 (49152)
I0403 18:07:13.569005 21417 net.cpp:156] Memory required for data: 1208122656
I0403 18:07:13.569020 21417 layer_factory.hpp:77] Creating layer loss2/fc
I0403 18:07:13.569037 21417 net.cpp:91] Creating Layer loss2/fc
I0403 18:07:13.569052 21417 net.cpp:425] loss2/fc <- loss2/conv
I0403 18:07:13.569072 21417 net.cpp:399] loss2/fc -> loss2/fc
I0403 18:07:13.585933 21417 net.cpp:141] Setting up loss2/fc
I0403 18:07:13.585966 21417 net.cpp:148] Top shape: 24 1024 (24576)
I0403 18:07:13.585983 21417 net.cpp:156] Memory required for data: 1208220960
I0403 18:07:13.586000 21417 layer_factory.hpp:77] Creating layer loss2/relu_fc
I0403 18:07:13.586019 21417 net.cpp:91] Creating Layer loss2/relu_fc
I0403 18:07:13.586035 21417 net.cpp:425] loss2/relu_fc <- loss2/fc
I0403 18:07:13.586051 21417 net.cpp:386] loss2/relu_fc -> loss2/fc (in-place)
I0403 18:07:13.586335 21417 net.cpp:141] Setting up loss2/relu_fc
I0403 18:07:13.586362 21417 net.cpp:148] Top shape: 24 1024 (24576)
I0403 18:07:13.586377 21417 net.cpp:156] Memory required for data: 1208319264
I0403 18:07:13.586390 21417 layer_factory.hpp:77] Creating layer loss2/drop_fc
I0403 18:07:13.586407 21417 net.cpp:91] Creating Layer loss2/drop_fc
I0403 18:07:13.586421 21417 net.cpp:425] loss2/drop_fc <- loss2/fc
I0403 18:07:13.586436 21417 net.cpp:386] loss2/drop_fc -> loss2/fc (in-place)
I0403 18:07:13.586483 21417 net.cpp:141] Setting up loss2/drop_fc
I0403 18:07:13.586503 21417 net.cpp:148] Top shape: 24 1024 (24576)
I0403 18:07:13.586518 21417 net.cpp:156] Memory required for data: 1208417568
I0403 18:07:13.586530 21417 layer_factory.hpp:77] Creating layer loss2/classifier_plantvillage
I0403 18:07:13.586555 21417 net.cpp:91] Creating Layer loss2/classifier_plantvillage
I0403 18:07:13.586572 21417 net.cpp:425] loss2/classifier_plantvillage <- loss2/fc
I0403 18:07:13.586588 21417 net.cpp:399] loss2/classifier_plantvillage -> loss2/classifier_plantvillage
I0403 18:07:13.586959 21417 net.cpp:141] Setting up loss2/classifier_plantvillage
I0403 18:07:13.586983 21417 net.cpp:148] Top shape: 24 38 (912)
I0403 18:07:13.587013 21417 net.cpp:156] Memory required for data: 1208421216
I0403 18:07:13.587030 21417 layer_factory.hpp:77] Creating layer loss2/classifier_plantvillage_loss2/classifier_plantvillage_0_split
I0403 18:07:13.587047 21417 net.cpp:91] Creating Layer loss2/classifier_plantvillage_loss2/classifier_plantvillage_0_split
I0403 18:07:13.587062 21417 net.cpp:425] loss2/classifier_plantvillage_loss2/classifier_plantvillage_0_split <- loss2/classifier_plantvillage
I0403 18:07:13.587081 21417 net.cpp:399] loss2/classifier_plantvillage_loss2/classifier_plantvillage_0_split -> loss2/classifier_plantvillage_loss2/classifier_plantvillage_0_split_0
I0403 18:07:13.587102 21417 net.cpp:399] loss2/classifier_plantvillage_loss2/classifier_plantvillage_0_split -> loss2/classifier_plantvillage_loss2/classifier_plantvillage_0_split_1
I0403 18:07:13.587122 21417 net.cpp:399] loss2/classifier_plantvillage_loss2/classifier_plantvillage_0_split -> loss2/classifier_plantvillage_loss2/classifier_plantvillage_0_split_2
I0403 18:07:13.587195 21417 net.cpp:141] Setting up loss2/classifier_plantvillage_loss2/classifier_plantvillage_0_split
I0403 18:07:13.587218 21417 net.cpp:148] Top shape: 24 38 (912)
I0403 18:07:13.587232 21417 net.cpp:148] Top shape: 24 38 (912)
I0403 18:07:13.587245 21417 net.cpp:148] Top shape: 24 38 (912)
I0403 18:07:13.587258 21417 net.cpp:156] Memory required for data: 1208432160
I0403 18:07:13.587272 21417 layer_factory.hpp:77] Creating layer inception_4e/1x1
I0403 18:07:13.587293 21417 net.cpp:91] Creating Layer inception_4e/1x1
I0403 18:07:13.587309 21417 net.cpp:425] inception_4e/1x1 <- inception_4d/output_inception_4d/output_0_split_1
I0403 18:07:13.587327 21417 net.cpp:399] inception_4e/1x1 -> inception_4e/1x1
I0403 18:07:13.589054 21417 net.cpp:141] Setting up inception_4e/1x1
I0403 18:07:13.589082 21417 net.cpp:148] Top shape: 24 256 14 14 (1204224)
I0403 18:07:13.589095 21417 net.cpp:156] Memory required for data: 1213249056
I0403 18:07:13.589112 21417 layer_factory.hpp:77] Creating layer inception_4e/relu_1x1
I0403 18:07:13.589128 21417 net.cpp:91] Creating Layer inception_4e/relu_1x1
I0403 18:07:13.589148 21417 net.cpp:425] inception_4e/relu_1x1 <- inception_4e/1x1
I0403 18:07:13.589162 21417 net.cpp:386] inception_4e/relu_1x1 -> inception_4e/1x1 (in-place)
I0403 18:07:13.589442 21417 net.cpp:141] Setting up inception_4e/relu_1x1
I0403 18:07:13.589468 21417 net.cpp:148] Top shape: 24 256 14 14 (1204224)
I0403 18:07:13.589480 21417 net.cpp:156] Memory required for data: 1218065952
I0403 18:07:13.589493 21417 layer_factory.hpp:77] Creating layer inception_4e/3x3_reduce
I0403 18:07:13.589517 21417 net.cpp:91] Creating Layer inception_4e/3x3_reduce
I0403 18:07:13.589534 21417 net.cpp:425] inception_4e/3x3_reduce <- inception_4d/output_inception_4d/output_0_split_2
I0403 18:07:13.589560 21417 net.cpp:399] inception_4e/3x3_reduce -> inception_4e/3x3_reduce
I0403 18:07:13.591600 21417 net.cpp:141] Setting up inception_4e/3x3_reduce
I0403 18:07:13.591629 21417 net.cpp:148] Top shape: 24 160 14 14 (752640)
I0403 18:07:13.591642 21417 net.cpp:156] Memory required for data: 1221076512
I0403 18:07:13.591658 21417 layer_factory.hpp:77] Creating layer inception_4e/relu_3x3_reduce
I0403 18:07:13.591675 21417 net.cpp:91] Creating Layer inception_4e/relu_3x3_reduce
I0403 18:07:13.591689 21417 net.cpp:425] inception_4e/relu_3x3_reduce <- inception_4e/3x3_reduce
I0403 18:07:13.591708 21417 net.cpp:386] inception_4e/relu_3x3_reduce -> inception_4e/3x3_reduce (in-place)
I0403 18:07:13.591886 21417 net.cpp:141] Setting up inception_4e/relu_3x3_reduce
I0403 18:07:13.591909 21417 net.cpp:148] Top shape: 24 160 14 14 (752640)
I0403 18:07:13.591922 21417 net.cpp:156] Memory required for data: 1224087072
I0403 18:07:13.591936 21417 layer_factory.hpp:77] Creating layer inception_4e/3x3
I0403 18:07:13.591956 21417 net.cpp:91] Creating Layer inception_4e/3x3
I0403 18:07:13.591972 21417 net.cpp:425] inception_4e/3x3 <- inception_4e/3x3_reduce
I0403 18:07:13.591991 21417 net.cpp:399] inception_4e/3x3 -> inception_4e/3x3
I0403 18:07:13.596776 21417 net.cpp:141] Setting up inception_4e/3x3
I0403 18:07:13.596817 21417 net.cpp:148] Top shape: 24 320 14 14 (1505280)
I0403 18:07:13.596832 21417 net.cpp:156] Memory required for data: 1230108192
I0403 18:07:13.596848 21417 layer_factory.hpp:77] Creating layer inception_4e/relu_3x3
I0403 18:07:13.596866 21417 net.cpp:91] Creating Layer inception_4e/relu_3x3
I0403 18:07:13.596882 21417 net.cpp:425] inception_4e/relu_3x3 <- inception_4e/3x3
I0403 18:07:13.596899 21417 net.cpp:386] inception_4e/relu_3x3 -> inception_4e/3x3 (in-place)
I0403 18:07:13.597188 21417 net.cpp:141] Setting up inception_4e/relu_3x3
I0403 18:07:13.597213 21417 net.cpp:148] Top shape: 24 320 14 14 (1505280)
I0403 18:07:13.597226 21417 net.cpp:156] Memory required for data: 1236129312
I0403 18:07:13.597240 21417 layer_factory.hpp:77] Creating layer inception_4e/5x5_reduce
I0403 18:07:13.597261 21417 net.cpp:91] Creating Layer inception_4e/5x5_reduce
I0403 18:07:13.597277 21417 net.cpp:425] inception_4e/5x5_reduce <- inception_4d/output_inception_4d/output_0_split_3
I0403 18:07:13.597296 21417 net.cpp:399] inception_4e/5x5_reduce -> inception_4e/5x5_reduce
I0403 18:07:13.598320 21417 net.cpp:141] Setting up inception_4e/5x5_reduce
I0403 18:07:13.598348 21417 net.cpp:148] Top shape: 24 32 14 14 (150528)
I0403 18:07:13.598363 21417 net.cpp:156] Memory required for data: 1236731424
I0403 18:07:13.598381 21417 layer_factory.hpp:77] Creating layer inception_4e/relu_5x5_reduce
I0403 18:07:13.598397 21417 net.cpp:91] Creating Layer inception_4e/relu_5x5_reduce
I0403 18:07:13.598412 21417 net.cpp:425] inception_4e/relu_5x5_reduce <- inception_4e/5x5_reduce
I0403 18:07:13.598428 21417 net.cpp:386] inception_4e/relu_5x5_reduce -> inception_4e/5x5_reduce (in-place)
I0403 18:07:13.598723 21417 net.cpp:141] Setting up inception_4e/relu_5x5_reduce
I0403 18:07:13.598749 21417 net.cpp:148] Top shape: 24 32 14 14 (150528)
I0403 18:07:13.598764 21417 net.cpp:156] Memory required for data: 1237333536
I0403 18:07:13.598778 21417 layer_factory.hpp:77] Creating layer inception_4e/5x5
I0403 18:07:13.598814 21417 net.cpp:91] Creating Layer inception_4e/5x5
I0403 18:07:13.598831 21417 net.cpp:425] inception_4e/5x5 <- inception_4e/5x5_reduce
I0403 18:07:13.598850 21417 net.cpp:399] inception_4e/5x5 -> inception_4e/5x5
I0403 18:07:13.600605 21417 net.cpp:141] Setting up inception_4e/5x5
I0403 18:07:13.600632 21417 net.cpp:148] Top shape: 24 128 14 14 (602112)
I0403 18:07:13.600646 21417 net.cpp:156] Memory required for data: 1239741984
I0403 18:07:13.600666 21417 layer_factory.hpp:77] Creating layer inception_4e/relu_5x5
I0403 18:07:13.600683 21417 net.cpp:91] Creating Layer inception_4e/relu_5x5
I0403 18:07:13.600697 21417 net.cpp:425] inception_4e/relu_5x5 <- inception_4e/5x5
I0403 18:07:13.600713 21417 net.cpp:386] inception_4e/relu_5x5 -> inception_4e/5x5 (in-place)
I0403 18:07:13.600903 21417 net.cpp:141] Setting up inception_4e/relu_5x5
I0403 18:07:13.600926 21417 net.cpp:148] Top shape: 24 128 14 14 (602112)
I0403 18:07:13.600939 21417 net.cpp:156] Memory required for data: 1242150432
I0403 18:07:13.600952 21417 layer_factory.hpp:77] Creating layer inception_4e/pool
I0403 18:07:13.600968 21417 net.cpp:91] Creating Layer inception_4e/pool
I0403 18:07:13.600983 21417 net.cpp:425] inception_4e/pool <- inception_4d/output_inception_4d/output_0_split_4
I0403 18:07:13.601001 21417 net.cpp:399] inception_4e/pool -> inception_4e/pool
I0403 18:07:13.601068 21417 net.cpp:141] Setting up inception_4e/pool
I0403 18:07:13.601089 21417 net.cpp:148] Top shape: 24 528 14 14 (2483712)
I0403 18:07:13.601102 21417 net.cpp:156] Memory required for data: 1252085280
I0403 18:07:13.601115 21417 layer_factory.hpp:77] Creating layer inception_4e/pool_proj
I0403 18:07:13.601137 21417 net.cpp:91] Creating Layer inception_4e/pool_proj
I0403 18:07:13.601153 21417 net.cpp:425] inception_4e/pool_proj <- inception_4e/pool
I0403 18:07:13.601171 21417 net.cpp:399] inception_4e/pool_proj -> inception_4e/pool_proj
I0403 18:07:13.602643 21417 net.cpp:141] Setting up inception_4e/pool_proj
I0403 18:07:13.602680 21417 net.cpp:148] Top shape: 24 128 14 14 (602112)
I0403 18:07:13.602695 21417 net.cpp:156] Memory required for data: 1254493728
I0403 18:07:13.602711 21417 layer_factory.hpp:77] Creating layer inception_4e/relu_pool_proj
I0403 18:07:13.602731 21417 net.cpp:91] Creating Layer inception_4e/relu_pool_proj
I0403 18:07:13.602747 21417 net.cpp:425] inception_4e/relu_pool_proj <- inception_4e/pool_proj
I0403 18:07:13.602763 21417 net.cpp:386] inception_4e/relu_pool_proj -> inception_4e/pool_proj (in-place)
I0403 18:07:13.603045 21417 net.cpp:141] Setting up inception_4e/relu_pool_proj
I0403 18:07:13.603070 21417 net.cpp:148] Top shape: 24 128 14 14 (602112)
I0403 18:07:13.603085 21417 net.cpp:156] Memory required for data: 1256902176
I0403 18:07:13.603097 21417 layer_factory.hpp:77] Creating layer inception_4e/output
I0403 18:07:13.603116 21417 net.cpp:91] Creating Layer inception_4e/output
I0403 18:07:13.603132 21417 net.cpp:425] inception_4e/output <- inception_4e/1x1
I0403 18:07:13.603147 21417 net.cpp:425] inception_4e/output <- inception_4e/3x3
I0403 18:07:13.603163 21417 net.cpp:425] inception_4e/output <- inception_4e/5x5
I0403 18:07:13.603178 21417 net.cpp:425] inception_4e/output <- inception_4e/pool_proj
I0403 18:07:13.603193 21417 net.cpp:399] inception_4e/output -> inception_4e/output
I0403 18:07:13.603241 21417 net.cpp:141] Setting up inception_4e/output
I0403 18:07:13.603263 21417 net.cpp:148] Top shape: 24 832 14 14 (3913728)
I0403 18:07:13.603277 21417 net.cpp:156] Memory required for data: 1272557088
I0403 18:07:13.603291 21417 layer_factory.hpp:77] Creating layer pool4/3x3_s2
I0403 18:07:13.603307 21417 net.cpp:91] Creating Layer pool4/3x3_s2
I0403 18:07:13.603320 21417 net.cpp:425] pool4/3x3_s2 <- inception_4e/output
I0403 18:07:13.603339 21417 net.cpp:399] pool4/3x3_s2 -> pool4/3x3_s2
I0403 18:07:13.603402 21417 net.cpp:141] Setting up pool4/3x3_s2
I0403 18:07:13.603425 21417 net.cpp:148] Top shape: 24 832 7 7 (978432)
I0403 18:07:13.603438 21417 net.cpp:156] Memory required for data: 1276470816
I0403 18:07:13.603451 21417 layer_factory.hpp:77] Creating layer pool4/3x3_s2_pool4/3x3_s2_0_split
I0403 18:07:13.603471 21417 net.cpp:91] Creating Layer pool4/3x3_s2_pool4/3x3_s2_0_split
I0403 18:07:13.603487 21417 net.cpp:425] pool4/3x3_s2_pool4/3x3_s2_0_split <- pool4/3x3_s2
I0403 18:07:13.603504 21417 net.cpp:399] pool4/3x3_s2_pool4/3x3_s2_0_split -> pool4/3x3_s2_pool4/3x3_s2_0_split_0
I0403 18:07:13.603524 21417 net.cpp:399] pool4/3x3_s2_pool4/3x3_s2_0_split -> pool4/3x3_s2_pool4/3x3_s2_0_split_1
I0403 18:07:13.603550 21417 net.cpp:399] pool4/3x3_s2_pool4/3x3_s2_0_split -> pool4/3x3_s2_pool4/3x3_s2_0_split_2
I0403 18:07:13.603571 21417 net.cpp:399] pool4/3x3_s2_pool4/3x3_s2_0_split -> pool4/3x3_s2_pool4/3x3_s2_0_split_3
I0403 18:07:13.603657 21417 net.cpp:141] Setting up pool4/3x3_s2_pool4/3x3_s2_0_split
I0403 18:07:13.603680 21417 net.cpp:148] Top shape: 24 832 7 7 (978432)
I0403 18:07:13.603695 21417 net.cpp:148] Top shape: 24 832 7 7 (978432)
I0403 18:07:13.603710 21417 net.cpp:148] Top shape: 24 832 7 7 (978432)
I0403 18:07:13.603724 21417 net.cpp:148] Top shape: 24 832 7 7 (978432)
I0403 18:07:13.603736 21417 net.cpp:156] Memory required for data: 1292125728
I0403 18:07:13.603750 21417 layer_factory.hpp:77] Creating layer inception_5a/1x1
I0403 18:07:13.603771 21417 net.cpp:91] Creating Layer inception_5a/1x1
I0403 18:07:13.603788 21417 net.cpp:425] inception_5a/1x1 <- pool4/3x3_s2_pool4/3x3_s2_0_split_0
I0403 18:07:13.603806 21417 net.cpp:399] inception_5a/1x1 -> inception_5a/1x1
I0403 18:07:13.606534 21417 net.cpp:141] Setting up inception_5a/1x1
I0403 18:07:13.606569 21417 net.cpp:148] Top shape: 24 256 7 7 (301056)
I0403 18:07:13.606585 21417 net.cpp:156] Memory required for data: 1293329952
I0403 18:07:13.606601 21417 layer_factory.hpp:77] Creating layer inception_5a/relu_1x1
I0403 18:07:13.606618 21417 net.cpp:91] Creating Layer inception_5a/relu_1x1
I0403 18:07:13.606633 21417 net.cpp:425] inception_5a/relu_1x1 <- inception_5a/1x1
I0403 18:07:13.606652 21417 net.cpp:386] inception_5a/relu_1x1 -> inception_5a/1x1 (in-place)
I0403 18:07:13.606955 21417 net.cpp:141] Setting up inception_5a/relu_1x1
I0403 18:07:13.606982 21417 net.cpp:148] Top shape: 24 256 7 7 (301056)
I0403 18:07:13.606997 21417 net.cpp:156] Memory required for data: 1294534176
I0403 18:07:13.607010 21417 layer_factory.hpp:77] Creating layer inception_5a/3x3_reduce
I0403 18:07:13.607031 21417 net.cpp:91] Creating Layer inception_5a/3x3_reduce
I0403 18:07:13.607048 21417 net.cpp:425] inception_5a/3x3_reduce <- pool4/3x3_s2_pool4/3x3_s2_0_split_1
I0403 18:07:13.607067 21417 net.cpp:399] inception_5a/3x3_reduce -> inception_5a/3x3_reduce
I0403 18:07:13.609386 21417 net.cpp:141] Setting up inception_5a/3x3_reduce
I0403 18:07:13.609413 21417 net.cpp:148] Top shape: 24 160 7 7 (188160)
I0403 18:07:13.609427 21417 net.cpp:156] Memory required for data: 1295286816
I0403 18:07:13.609443 21417 layer_factory.hpp:77] Creating layer inception_5a/relu_3x3_reduce
I0403 18:07:13.609463 21417 net.cpp:91] Creating Layer inception_5a/relu_3x3_reduce
I0403 18:07:13.609479 21417 net.cpp:425] inception_5a/relu_3x3_reduce <- inception_5a/3x3_reduce
I0403 18:07:13.609496 21417 net.cpp:386] inception_5a/relu_3x3_reduce -> inception_5a/3x3_reduce (in-place)
I0403 18:07:13.609680 21417 net.cpp:141] Setting up inception_5a/relu_3x3_reduce
I0403 18:07:13.609706 21417 net.cpp:148] Top shape: 24 160 7 7 (188160)
I0403 18:07:13.609720 21417 net.cpp:156] Memory required for data: 1296039456
I0403 18:07:13.609735 21417 layer_factory.hpp:77] Creating layer inception_5a/3x3
I0403 18:07:13.609755 21417 net.cpp:91] Creating Layer inception_5a/3x3
I0403 18:07:13.609773 21417 net.cpp:425] inception_5a/3x3 <- inception_5a/3x3_reduce
I0403 18:07:13.609791 21417 net.cpp:399] inception_5a/3x3 -> inception_5a/3x3
I0403 18:07:13.614621 21417 net.cpp:141] Setting up inception_5a/3x3
I0403 18:07:13.614652 21417 net.cpp:148] Top shape: 24 320 7 7 (376320)
I0403 18:07:13.614667 21417 net.cpp:156] Memory required for data: 1297544736
I0403 18:07:13.614684 21417 layer_factory.hpp:77] Creating layer inception_5a/relu_3x3
I0403 18:07:13.614701 21417 net.cpp:91] Creating Layer inception_5a/relu_3x3
I0403 18:07:13.614717 21417 net.cpp:425] inception_5a/relu_3x3 <- inception_5a/3x3
I0403 18:07:13.614735 21417 net.cpp:386] inception_5a/relu_3x3 -> inception_5a/3x3 (in-place)
I0403 18:07:13.615021 21417 net.cpp:141] Setting up inception_5a/relu_3x3
I0403 18:07:13.615048 21417 net.cpp:148] Top shape: 24 320 7 7 (376320)
I0403 18:07:13.615063 21417 net.cpp:156] Memory required for data: 1299050016
I0403 18:07:13.615077 21417 layer_factory.hpp:77] Creating layer inception_5a/5x5_reduce
I0403 18:07:13.615098 21417 net.cpp:91] Creating Layer inception_5a/5x5_reduce
I0403 18:07:13.615114 21417 net.cpp:425] inception_5a/5x5_reduce <- pool4/3x3_s2_pool4/3x3_s2_0_split_2
I0403 18:07:13.615133 21417 net.cpp:399] inception_5a/5x5_reduce -> inception_5a/5x5_reduce
I0403 18:07:13.616250 21417 net.cpp:141] Setting up inception_5a/5x5_reduce
I0403 18:07:13.616279 21417 net.cpp:148] Top shape: 24 32 7 7 (37632)
I0403 18:07:13.616294 21417 net.cpp:156] Memory required for data: 1299200544
I0403 18:07:13.616312 21417 layer_factory.hpp:77] Creating layer inception_5a/relu_5x5_reduce
I0403 18:07:13.616328 21417 net.cpp:91] Creating Layer inception_5a/relu_5x5_reduce
I0403 18:07:13.616343 21417 net.cpp:425] inception_5a/relu_5x5_reduce <- inception_5a/5x5_reduce
I0403 18:07:13.616365 21417 net.cpp:386] inception_5a/relu_5x5_reduce -> inception_5a/5x5_reduce (in-place)
I0403 18:07:13.616657 21417 net.cpp:141] Setting up inception_5a/relu_5x5_reduce
I0403 18:07:13.616683 21417 net.cpp:148] Top shape: 24 32 7 7 (37632)
I0403 18:07:13.616696 21417 net.cpp:156] Memory required for data: 1299351072
I0403 18:07:13.616709 21417 layer_factory.hpp:77] Creating layer inception_5a/5x5
I0403 18:07:13.616730 21417 net.cpp:91] Creating Layer inception_5a/5x5
I0403 18:07:13.616747 21417 net.cpp:425] inception_5a/5x5 <- inception_5a/5x5_reduce
I0403 18:07:13.616767 21417 net.cpp:399] inception_5a/5x5 -> inception_5a/5x5
I0403 18:07:13.618402 21417 net.cpp:141] Setting up inception_5a/5x5
I0403 18:07:13.618441 21417 net.cpp:148] Top shape: 24 128 7 7 (150528)
I0403 18:07:13.618456 21417 net.cpp:156] Memory required for data: 1299953184
I0403 18:07:13.618474 21417 layer_factory.hpp:77] Creating layer inception_5a/relu_5x5
I0403 18:07:13.618491 21417 net.cpp:91] Creating Layer inception_5a/relu_5x5
I0403 18:07:13.618506 21417 net.cpp:425] inception_5a/relu_5x5 <- inception_5a/5x5
I0403 18:07:13.618525 21417 net.cpp:386] inception_5a/relu_5x5 -> inception_5a/5x5 (in-place)
I0403 18:07:13.618710 21417 net.cpp:141] Setting up inception_5a/relu_5x5
I0403 18:07:13.618734 21417 net.cpp:148] Top shape: 24 128 7 7 (150528)
I0403 18:07:13.618748 21417 net.cpp:156] Memory required for data: 1300555296
I0403 18:07:13.618762 21417 layer_factory.hpp:77] Creating layer inception_5a/pool
I0403 18:07:13.618778 21417 net.cpp:91] Creating Layer inception_5a/pool
I0403 18:07:13.618793 21417 net.cpp:425] inception_5a/pool <- pool4/3x3_s2_pool4/3x3_s2_0_split_3
I0403 18:07:13.618813 21417 net.cpp:399] inception_5a/pool -> inception_5a/pool
I0403 18:07:13.618880 21417 net.cpp:141] Setting up inception_5a/pool
I0403 18:07:13.618901 21417 net.cpp:148] Top shape: 24 832 7 7 (978432)
I0403 18:07:13.618914 21417 net.cpp:156] Memory required for data: 1304469024
I0403 18:07:13.618927 21417 layer_factory.hpp:77] Creating layer inception_5a/pool_proj
I0403 18:07:13.618950 21417 net.cpp:91] Creating Layer inception_5a/pool_proj
I0403 18:07:13.618968 21417 net.cpp:425] inception_5a/pool_proj <- inception_5a/pool
I0403 18:07:13.618984 21417 net.cpp:399] inception_5a/pool_proj -> inception_5a/pool_proj
I0403 18:07:13.621171 21417 net.cpp:141] Setting up inception_5a/pool_proj
I0403 18:07:13.621201 21417 net.cpp:148] Top shape: 24 128 7 7 (150528)
I0403 18:07:13.621217 21417 net.cpp:156] Memory required for data: 1305071136
I0403 18:07:13.621234 21417 layer_factory.hpp:77] Creating layer inception_5a/relu_pool_proj
I0403 18:07:13.621253 21417 net.cpp:91] Creating Layer inception_5a/relu_pool_proj
I0403 18:07:13.621268 21417 net.cpp:425] inception_5a/relu_pool_proj <- inception_5a/pool_proj
I0403 18:07:13.621284 21417 net.cpp:386] inception_5a/relu_pool_proj -> inception_5a/pool_proj (in-place)
I0403 18:07:13.621572 21417 net.cpp:141] Setting up inception_5a/relu_pool_proj
I0403 18:07:13.621598 21417 net.cpp:148] Top shape: 24 128 7 7 (150528)
I0403 18:07:13.621613 21417 net.cpp:156] Memory required for data: 1305673248
I0403 18:07:13.621626 21417 layer_factory.hpp:77] Creating layer inception_5a/output
I0403 18:07:13.621642 21417 net.cpp:91] Creating Layer inception_5a/output
I0403 18:07:13.621657 21417 net.cpp:425] inception_5a/output <- inception_5a/1x1
I0403 18:07:13.621672 21417 net.cpp:425] inception_5a/output <- inception_5a/3x3
I0403 18:07:13.621687 21417 net.cpp:425] inception_5a/output <- inception_5a/5x5
I0403 18:07:13.621702 21417 net.cpp:425] inception_5a/output <- inception_5a/pool_proj
I0403 18:07:13.621718 21417 net.cpp:399] inception_5a/output -> inception_5a/output
I0403 18:07:13.621768 21417 net.cpp:141] Setting up inception_5a/output
I0403 18:07:13.621790 21417 net.cpp:148] Top shape: 24 832 7 7 (978432)
I0403 18:07:13.621803 21417 net.cpp:156] Memory required for data: 1309586976
I0403 18:07:13.621817 21417 layer_factory.hpp:77] Creating layer inception_5a/output_inception_5a/output_0_split
I0403 18:07:13.621832 21417 net.cpp:91] Creating Layer inception_5a/output_inception_5a/output_0_split
I0403 18:07:13.621847 21417 net.cpp:425] inception_5a/output_inception_5a/output_0_split <- inception_5a/output
I0403 18:07:13.621865 21417 net.cpp:399] inception_5a/output_inception_5a/output_0_split -> inception_5a/output_inception_5a/output_0_split_0
I0403 18:07:13.621886 21417 net.cpp:399] inception_5a/output_inception_5a/output_0_split -> inception_5a/output_inception_5a/output_0_split_1
I0403 18:07:13.621904 21417 net.cpp:399] inception_5a/output_inception_5a/output_0_split -> inception_5a/output_inception_5a/output_0_split_2
I0403 18:07:13.621923 21417 net.cpp:399] inception_5a/output_inception_5a/output_0_split -> inception_5a/output_inception_5a/output_0_split_3
I0403 18:07:13.622031 21417 net.cpp:141] Setting up inception_5a/output_inception_5a/output_0_split
I0403 18:07:13.622053 21417 net.cpp:148] Top shape: 24 832 7 7 (978432)
I0403 18:07:13.622068 21417 net.cpp:148] Top shape: 24 832 7 7 (978432)
I0403 18:07:13.622083 21417 net.cpp:148] Top shape: 24 832 7 7 (978432)
I0403 18:07:13.622097 21417 net.cpp:148] Top shape: 24 832 7 7 (978432)
I0403 18:07:13.622109 21417 net.cpp:156] Memory required for data: 1325241888
I0403 18:07:13.622123 21417 layer_factory.hpp:77] Creating layer inception_5b/1x1
I0403 18:07:13.622143 21417 net.cpp:91] Creating Layer inception_5b/1x1
I0403 18:07:13.622160 21417 net.cpp:425] inception_5b/1x1 <- inception_5a/output_inception_5a/output_0_split_0
I0403 18:07:13.622179 21417 net.cpp:399] inception_5b/1x1 -> inception_5b/1x1
I0403 18:07:13.625834 21417 net.cpp:141] Setting up inception_5b/1x1
I0403 18:07:13.625862 21417 net.cpp:148] Top shape: 24 384 7 7 (451584)
I0403 18:07:13.625877 21417 net.cpp:156] Memory required for data: 1327048224
I0403 18:07:13.625895 21417 layer_factory.hpp:77] Creating layer inception_5b/relu_1x1
I0403 18:07:13.625913 21417 net.cpp:91] Creating Layer inception_5b/relu_1x1
I0403 18:07:13.625929 21417 net.cpp:425] inception_5b/relu_1x1 <- inception_5b/1x1
I0403 18:07:13.625944 21417 net.cpp:386] inception_5b/relu_1x1 -> inception_5b/1x1 (in-place)
I0403 18:07:13.626238 21417 net.cpp:141] Setting up inception_5b/relu_1x1
I0403 18:07:13.626262 21417 net.cpp:148] Top shape: 24 384 7 7 (451584)
I0403 18:07:13.626276 21417 net.cpp:156] Memory required for data: 1328854560
I0403 18:07:13.626291 21417 layer_factory.hpp:77] Creating layer inception_5b/3x3_reduce
I0403 18:07:13.626310 21417 net.cpp:91] Creating Layer inception_5b/3x3_reduce
I0403 18:07:13.626327 21417 net.cpp:425] inception_5b/3x3_reduce <- inception_5a/output_inception_5a/output_0_split_1
I0403 18:07:13.626349 21417 net.cpp:399] inception_5b/3x3_reduce -> inception_5b/3x3_reduce
I0403 18:07:13.628917 21417 net.cpp:141] Setting up inception_5b/3x3_reduce
I0403 18:07:13.628947 21417 net.cpp:148] Top shape: 24 192 7 7 (225792)
I0403 18:07:13.628960 21417 net.cpp:156] Memory required for data: 1329757728
I0403 18:07:13.628978 21417 layer_factory.hpp:77] Creating layer inception_5b/relu_3x3_reduce
I0403 18:07:13.628996 21417 net.cpp:91] Creating Layer inception_5b/relu_3x3_reduce
I0403 18:07:13.629011 21417 net.cpp:425] inception_5b/relu_3x3_reduce <- inception_5b/3x3_reduce
I0403 18:07:13.629026 21417 net.cpp:386] inception_5b/relu_3x3_reduce -> inception_5b/3x3_reduce (in-place)
I0403 18:07:13.629209 21417 net.cpp:141] Setting up inception_5b/relu_3x3_reduce
I0403 18:07:13.629235 21417 net.cpp:148] Top shape: 24 192 7 7 (225792)
I0403 18:07:13.629248 21417 net.cpp:156] Memory required for data: 1330660896
I0403 18:07:13.629262 21417 layer_factory.hpp:77] Creating layer inception_5b/3x3
I0403 18:07:13.629282 21417 net.cpp:91] Creating Layer inception_5b/3x3
I0403 18:07:13.629298 21417 net.cpp:425] inception_5b/3x3 <- inception_5b/3x3_reduce
I0403 18:07:13.629317 21417 net.cpp:399] inception_5b/3x3 -> inception_5b/3x3
I0403 18:07:13.635749 21417 net.cpp:141] Setting up inception_5b/3x3
I0403 18:07:13.635781 21417 net.cpp:148] Top shape: 24 384 7 7 (451584)
I0403 18:07:13.635797 21417 net.cpp:156] Memory required for data: 1332467232
I0403 18:07:13.635813 21417 layer_factory.hpp:77] Creating layer inception_5b/relu_3x3
I0403 18:07:13.635830 21417 net.cpp:91] Creating Layer inception_5b/relu_3x3
I0403 18:07:13.635845 21417 net.cpp:425] inception_5b/relu_3x3 <- inception_5b/3x3
I0403 18:07:13.635861 21417 net.cpp:386] inception_5b/relu_3x3 -> inception_5b/3x3 (in-place)
I0403 18:07:13.636147 21417 net.cpp:141] Setting up inception_5b/relu_3x3
I0403 18:07:13.636174 21417 net.cpp:148] Top shape: 24 384 7 7 (451584)
I0403 18:07:13.636189 21417 net.cpp:156] Memory required for data: 1334273568
I0403 18:07:13.636203 21417 layer_factory.hpp:77] Creating layer inception_5b/5x5_reduce
I0403 18:07:13.636236 21417 net.cpp:91] Creating Layer inception_5b/5x5_reduce
I0403 18:07:13.636253 21417 net.cpp:425] inception_5b/5x5_reduce <- inception_5a/output_inception_5a/output_0_split_2
I0403 18:07:13.636273 21417 net.cpp:399] inception_5b/5x5_reduce -> inception_5b/5x5_reduce
I0403 18:07:13.637492 21417 net.cpp:141] Setting up inception_5b/5x5_reduce
I0403 18:07:13.637518 21417 net.cpp:148] Top shape: 24 48 7 7 (56448)
I0403 18:07:13.637533 21417 net.cpp:156] Memory required for data: 1334499360
I0403 18:07:13.637557 21417 layer_factory.hpp:77] Creating layer inception_5b/relu_5x5_reduce
I0403 18:07:13.637576 21417 net.cpp:91] Creating Layer inception_5b/relu_5x5_reduce
I0403 18:07:13.637593 21417 net.cpp:425] inception_5b/relu_5x5_reduce <- inception_5b/5x5_reduce
I0403 18:07:13.637609 21417 net.cpp:386] inception_5b/relu_5x5_reduce -> inception_5b/5x5_reduce (in-place)
I0403 18:07:13.637966 21417 net.cpp:141] Setting up inception_5b/relu_5x5_reduce
I0403 18:07:13.637992 21417 net.cpp:148] Top shape: 24 48 7 7 (56448)
I0403 18:07:13.638005 21417 net.cpp:156] Memory required for data: 1334725152
I0403 18:07:13.638018 21417 layer_factory.hpp:77] Creating layer inception_5b/5x5
I0403 18:07:13.638036 21417 net.cpp:91] Creating Layer inception_5b/5x5
I0403 18:07:13.638053 21417 net.cpp:425] inception_5b/5x5 <- inception_5b/5x5_reduce
I0403 18:07:13.638072 21417 net.cpp:399] inception_5b/5x5 -> inception_5b/5x5
I0403 18:07:13.640032 21417 net.cpp:141] Setting up inception_5b/5x5
I0403 18:07:13.640060 21417 net.cpp:148] Top shape: 24 128 7 7 (150528)
I0403 18:07:13.640076 21417 net.cpp:156] Memory required for data: 1335327264
I0403 18:07:13.640094 21417 layer_factory.hpp:77] Creating layer inception_5b/relu_5x5
I0403 18:07:13.640111 21417 net.cpp:91] Creating Layer inception_5b/relu_5x5
I0403 18:07:13.640126 21417 net.cpp:425] inception_5b/relu_5x5 <- inception_5b/5x5
I0403 18:07:13.640146 21417 net.cpp:386] inception_5b/relu_5x5 -> inception_5b/5x5 (in-place)
I0403 18:07:13.640333 21417 net.cpp:141] Setting up inception_5b/relu_5x5
I0403 18:07:13.640357 21417 net.cpp:148] Top shape: 24 128 7 7 (150528)
I0403 18:07:13.640372 21417 net.cpp:156] Memory required for data: 1335929376
I0403 18:07:13.640385 21417 layer_factory.hpp:77] Creating layer inception_5b/pool
I0403 18:07:13.640403 21417 net.cpp:91] Creating Layer inception_5b/pool
I0403 18:07:13.640419 21417 net.cpp:425] inception_5b/pool <- inception_5a/output_inception_5a/output_0_split_3
I0403 18:07:13.640439 21417 net.cpp:399] inception_5b/pool -> inception_5b/pool
I0403 18:07:13.640508 21417 net.cpp:141] Setting up inception_5b/pool
I0403 18:07:13.640530 21417 net.cpp:148] Top shape: 24 832 7 7 (978432)
I0403 18:07:13.640550 21417 net.cpp:156] Memory required for data: 1339843104
I0403 18:07:13.640565 21417 layer_factory.hpp:77] Creating layer inception_5b/pool_proj
I0403 18:07:13.640586 21417 net.cpp:91] Creating Layer inception_5b/pool_proj
I0403 18:07:13.640604 21417 net.cpp:425] inception_5b/pool_proj <- inception_5b/pool
I0403 18:07:13.640622 21417 net.cpp:399] inception_5b/pool_proj -> inception_5b/pool_proj
I0403 18:07:13.642885 21417 net.cpp:141] Setting up inception_5b/pool_proj
I0403 18:07:13.642913 21417 net.cpp:148] Top shape: 24 128 7 7 (150528)
I0403 18:07:13.642930 21417 net.cpp:156] Memory required for data: 1340445216
I0403 18:07:13.642946 21417 layer_factory.hpp:77] Creating layer inception_5b/relu_pool_proj
I0403 18:07:13.642966 21417 net.cpp:91] Creating Layer inception_5b/relu_pool_proj
I0403 18:07:13.642982 21417 net.cpp:425] inception_5b/relu_pool_proj <- inception_5b/pool_proj
I0403 18:07:13.642998 21417 net.cpp:386] inception_5b/relu_pool_proj -> inception_5b/pool_proj (in-place)
I0403 18:07:13.643292 21417 net.cpp:141] Setting up inception_5b/relu_pool_proj
I0403 18:07:13.643317 21417 net.cpp:148] Top shape: 24 128 7 7 (150528)
I0403 18:07:13.643332 21417 net.cpp:156] Memory required for data: 1341047328
I0403 18:07:13.643345 21417 layer_factory.hpp:77] Creating layer inception_5b/output
I0403 18:07:13.643363 21417 net.cpp:91] Creating Layer inception_5b/output
I0403 18:07:13.643393 21417 net.cpp:425] inception_5b/output <- inception_5b/1x1
I0403 18:07:13.643409 21417 net.cpp:425] inception_5b/output <- inception_5b/3x3
I0403 18:07:13.643424 21417 net.cpp:425] inception_5b/output <- inception_5b/5x5
I0403 18:07:13.643440 21417 net.cpp:425] inception_5b/output <- inception_5b/pool_proj
I0403 18:07:13.643455 21417 net.cpp:399] inception_5b/output -> inception_5b/output
I0403 18:07:13.643507 21417 net.cpp:141] Setting up inception_5b/output
I0403 18:07:13.643529 21417 net.cpp:148] Top shape: 24 1024 7 7 (1204224)
I0403 18:07:13.643550 21417 net.cpp:156] Memory required for data: 1345864224
I0403 18:07:13.643564 21417 layer_factory.hpp:77] Creating layer pool5/7x7_s1
I0403 18:07:13.643584 21417 net.cpp:91] Creating Layer pool5/7x7_s1
I0403 18:07:13.643600 21417 net.cpp:425] pool5/7x7_s1 <- inception_5b/output
I0403 18:07:13.643617 21417 net.cpp:399] pool5/7x7_s1 -> pool5/7x7_s1
I0403 18:07:13.643827 21417 net.cpp:141] Setting up pool5/7x7_s1
I0403 18:07:13.643854 21417 net.cpp:148] Top shape: 24 1024 1 1 (24576)
I0403 18:07:13.643868 21417 net.cpp:156] Memory required for data: 1345962528
I0403 18:07:13.643882 21417 layer_factory.hpp:77] Creating layer pool5/drop_7x7_s1
I0403 18:07:13.643899 21417 net.cpp:91] Creating Layer pool5/drop_7x7_s1
I0403 18:07:13.643915 21417 net.cpp:425] pool5/drop_7x7_s1 <- pool5/7x7_s1
I0403 18:07:13.643934 21417 net.cpp:386] pool5/drop_7x7_s1 -> pool5/7x7_s1 (in-place)
I0403 18:07:13.643980 21417 net.cpp:141] Setting up pool5/drop_7x7_s1
I0403 18:07:13.644001 21417 net.cpp:148] Top shape: 24 1024 1 1 (24576)
I0403 18:07:13.644016 21417 net.cpp:156] Memory required for data: 1346060832
I0403 18:07:13.644029 21417 layer_factory.hpp:77] Creating layer loss3/classifier_plantvillage
I0403 18:07:13.644048 21417 net.cpp:91] Creating Layer loss3/classifier_plantvillage
I0403 18:07:13.644064 21417 net.cpp:425] loss3/classifier_plantvillage <- pool5/7x7_s1
I0403 18:07:13.644084 21417 net.cpp:399] loss3/classifier_plantvillage -> loss3/classifier_plantvillage
I0403 18:07:13.644490 21417 net.cpp:141] Setting up loss3/classifier_plantvillage
I0403 18:07:13.644513 21417 net.cpp:148] Top shape: 24 38 (912)
I0403 18:07:13.644527 21417 net.cpp:156] Memory required for data: 1346064480
I0403 18:07:13.644558 21417 layer_factory.hpp:77] Creating layer loss3/classifier_plantvillage_loss3/classifier_plantvillage_0_split
I0403 18:07:13.644578 21417 net.cpp:91] Creating Layer loss3/classifier_plantvillage_loss3/classifier_plantvillage_0_split
I0403 18:07:13.644598 21417 net.cpp:425] loss3/classifier_plantvillage_loss3/classifier_plantvillage_0_split <- loss3/classifier_plantvillage
I0403 18:07:13.644615 21417 net.cpp:399] loss3/classifier_plantvillage_loss3/classifier_plantvillage_0_split -> loss3/classifier_plantvillage_loss3/classifier_plantvillage_0_split_0
I0403 18:07:13.644634 21417 net.cpp:399] loss3/classifier_plantvillage_loss3/classifier_plantvillage_0_split -> loss3/classifier_plantvillage_loss3/classifier_plantvillage_0_split_1
I0403 18:07:13.644654 21417 net.cpp:399] loss3/classifier_plantvillage_loss3/classifier_plantvillage_0_split -> loss3/classifier_plantvillage_loss3/classifier_plantvillage_0_split_2
I0403 18:07:13.644675 21417 net.cpp:399] loss3/classifier_plantvillage_loss3/classifier_plantvillage_0_split -> loss3/classifier_plantvillage_loss3/classifier_plantvillage_0_split_3
I0403 18:07:13.644772 21417 net.cpp:141] Setting up loss3/classifier_plantvillage_loss3/classifier_plantvillage_0_split
I0403 18:07:13.644794 21417 net.cpp:148] Top shape: 24 38 (912)
I0403 18:07:13.644810 21417 net.cpp:148] Top shape: 24 38 (912)
I0403 18:07:13.644824 21417 net.cpp:148] Top shape: 24 38 (912)
I0403 18:07:13.644839 21417 net.cpp:148] Top shape: 24 38 (912)
I0403 18:07:13.644852 21417 net.cpp:156] Memory required for data: 1346079072
I0403 18:07:13.644866 21417 layer_factory.hpp:77] Creating layer loss1/loss
I0403 18:07:13.644886 21417 net.cpp:91] Creating Layer loss1/loss
I0403 18:07:13.644903 21417 net.cpp:425] loss1/loss <- loss1/classifier_plantvillage_loss1/classifier_plantvillage_0_split_0
I0403 18:07:13.644932 21417 net.cpp:425] loss1/loss <- label_data_1_split_0
…
