…
I0403 18:29:49.156213 22581 net.cpp:313] The NetState phase (1) differed from the phase (0) specified by a rule in layer data
I0403 18:29:49.157315 22581 net.cpp:49] Initializing net from parameters: 
state {
  phase: TEST
}
layer {
  name: "data"
  type: "Data"
  top: "data"
  top: "label"
  include {
    phase: TEST
  }
  transform_param {
    mirror: false
    crop_size: 224
    mean_file: "/home/mohanty/data/final_dataset/lmdb/segmented-40-60/mean.binaryproto"
  }
  data_param {
    source: "/home/mohanty/data/final_dataset/lmdb/segmented-40-60/test_db"
    batch_size: 24
    backend: LMDB
  }
}
layer {
  name: "conv1/7x7_s2"
  type: "Convolution"
  bottom: "data"
  top: "conv1/7x7_s2"
  param {
    lr_mult: 1
    decay_mult: 1
  }
  param {
    lr_mult: 2
    decay_mult: 0
  }
  convolution_param {
    num_output: 64
    pad: 3
    kernel_size: 7
    stride: 2
    weight_filler {
      type: "xavier"
      std: 0.1
    }
    bias_filler {
      type: "constant"
      value: 0.2
    }
  }
}
layer {
  name: "conv1/relu_7x7"
  type: "ReLU"
  bottom: "conv1/7x7_s2"
  top: "conv1/7x7_s2"
}
layer {
  name: "pool1/3x3_s2"
  type: "Pooling"
  bottom: "conv1/7x7_s2"
  top: "pool1/3x3_s2"
  pooling_param {
    pool: MAX
    kernel_size: 3
    stride: 2
  }
}
layer {
  name: "pool1/norm1"
  type: "LRN"
  bottom: "pool1/3x3_s2"
  top: "pool1/norm1"
  lrn_param {
    local_size: 5
    alpha: 0.0001
    beta: 0.75
  }
}
layer {
  name: "conv2/3x3_reduce"
  type: "Convolution"
  bottom: "pool1/norm1"
  top: "conv2/3x3_reduce"
  param {
    lr_mult: 1
    decay_mult: 1
  }
  param {
    lr_mult: 2
    decay_mult: 0
  }
  convolution_param {
    num_output: 64
    kernel_size: 1
    weight_filler {
      type: "xavier"
      std: 0.1
    }
    bias_filler {
      type: "constant"
      value: 0.2
    }
  }
}
layer {
  name: "conv2/relu_3x3_reduce"
  type: "ReLU"
  bottom: "conv2/3x3_reduce"
  top: "conv2/3x3_reduce"
}
layer {
  name: "conv2/3x3"
  type: "Convolution"
  bottom: "conv2/3x3_reduce"
  top: "conv2/3x3"
  param {
    lr_mult: 1
    decay_mult: 1
  }
  param {
    lr_mult: 2
    decay_mult: 0
  }
  convolution_param {
    num_output: 192
    pad: 1
    kernel_size: 3
    weight_filler {
      type: "xavier"
      std: 0.03
    }
    bias_filler {
      type: "constant"
      value: 0.2
    }
  }
}
layer {
  name: "conv2/relu_3x3"
  type: "ReLU"
  bottom: "conv2/3x3"
  top: "conv2/3x3"
}
layer {
  name: "conv2/norm2"
  type: "LRN"
  bottom: "conv2/3x3"
  top: "conv2/norm2"
  lrn_param {
    local_size: 5
    alpha: 0.0001
    beta: 0.75
  }
}
layer {
  name: "pool2/3x3_s2"
  type: "Pooling"
  bottom: "conv2/norm2"
  top: "pool2/3x3_s2"
  pooling_param {
    pool: MAX
    kernel_size: 3
    stride: 2
  }
}
layer {
  name: "inception_3a/1x1"
  type: "Convolution"
  bottom: "pool2/3x3_s2"
  top: "inception_3a/1x1"
  param {
    lr_mult: 1
    decay_mult: 1
  }
  param {
    lr_mult: 2
    decay_mult: 0
  }
  convolution_param {
    num_output: 64
    kernel_size: 1
    weight_filler {
      type: "xavier"
      std: 0.03
    }
    bias_filler {
      type: "constant"
      value: 0.2
    }
  }
}
layer {
  name: "inception_3a/relu_1x1"
  type: "ReLU"
  bottom: "inception_3a/1x1"
  top: "inception_3a/1x1"
}
layer {
  name: "inception_3a/3x3_reduce"
  type: "Convolution"
  bottom: "pool2/3x3_s2"
  top: "inception_3a/3x3_reduce"
  param {
    lr_mult: 1
    decay_mult: 1
  }
  param {
    lr_mult: 2
    decay_mult: 0
  }
  convolution_param {
    num_output: 96
    kernel_size: 1
    weight_filler {
      type: "xavier"
      std: 0.09
    }
    bias_filler {
      type: "constant"
      value: 0.2
    }
  }
}
layer {
  name: "inception_3a/relu_3x3_reduce"
  type: "ReLU"
  bottom: "inception_3a/3x3_reduce"
  top: "inception_3a/3x3_reduce"
}
layer {
  name: "inception_3a/3x3"
  type: "Convolution"
  bottom: "inception_3a/3x3_reduce"
  top: "inception_3a/3x3"
  param {
    lr_mult: 1
    decay_mult: 1
  }
  param {
    lr_mult: 2
    decay_mult: 0
  }
  convolution_param {
    num_output: 128
    pad: 1
    kernel_size: 3
    weight_filler {
      type: "xavier"
      std: 0.03
    }
    bias_filler {
      type: "constant"
      value: 0.2
    }
  }
}
layer {
  name: "inception_3a/relu_3x3"
  type: "ReLU"
  bottom: "inception_3a/3x3"
  top: "inception_3a/3x3"
}
layer {
  name: "inception_3a/5x5_reduce"
  type: "Convolution"
  bottom: "pool2/3x3_s2"
  top: "inception_3a/5x5_reduce"
  param {
    lr_mult: 1
    decay_mult: 1
  }
  param {
    lr_mult: 2
    decay_mult: 0
  }
  convolution_param {
    num_output: 16
    kernel_size: 1
    weight_filler {
      type: "xavier"
      std: 0.2
    }
    bias_filler {
      type: "constant"
      value: 0.2
    }
  }
}
layer {
  name: "inception_3a/relu_5x5_reduce"
  type: "ReLU"
  bottom: "inception_3a/5x5_reduce"
  top: "inception_3a/5x5_reduce"
}
layer {
  name: "inception_3a/5x5"
  type: "Convolution"
  bottom: "inception_3a/5x5_reduce"
  top: "inception_3a/5x5"
  param {
    lr_mult: 1
    decay_mult: 1
  }
  param {
    lr_mult: 2
    decay_mult: 0
  }
  convolution_param {
    num_output: 32
    pad: 2
    kernel_size: 5
    weight_filler {
      type: "xavier"
      std: 0.03
    }
    bias_filler {
      type: "constant"
      value: 0.2
    }
  }
}
layer {
  name: "inception_3a/relu_5x5"
  type: "ReLU"
  bottom: "inception_3a/5x5"
  top: "inception_3a/5x5"
}
layer {
  name: "inception_3a/pool"
  type: "Pooling"
  bottom: "pool2/3x3_s2"
  top: "inception_3a/pool"
  pooling_param {
    pool: MAX
    kernel_size: 3
    stride: 1
    pad: 1
  }
}
layer {
  name: "inception_3a/pool_proj"
  type: "Convolution"
  bottom: "inception_3a/pool"
  top: "inception_3a/pool_proj"
  param {
    lr_mult: 1
    decay_mult: 1
  }
  param {
    lr_mult: 2
    decay_mult: 0
  }
  convolution_param {
    num_output: 32
    kernel_size: 1
    weight_filler {
      type: "xavier"
      std: 0.1
    }
    bias_filler {
      type: "constant"
      value: 0.2
    }
  }
}
layer {
  name: "inception_3a/relu_pool_proj"
  type: "ReLU"
  bottom: "inception_3a/pool_proj"
  top: "inception_3a/pool_proj"
}
layer {
  name: "inception_3a/output"
  type: "Concat"
  bottom: "inception_3a/1x1"
  bottom: "inception_3a/3x3"
  bottom: "inception_3a/5x5"
  bottom: "inception_3a/pool_proj"
  top: "inception_3a/output"
}
layer {
  name: "inception_3b/1x1"
  type: "Convolution"
  bottom: "inception_3a/output"
  top: "inception_3b/1x1"
  param {
    lr_mult: 1
    decay_mult: 1
  }
  param {
    lr_mult: 2
    decay_mult: 0
  }
  convolution_param {
    num_output: 128
    kernel_size: 1
    weight_filler {
      type: "xavier"
      std: 0.03
    }
    bias_filler {
      type: "constant"
      value: 0.2
    }
  }
}
layer {
  name: "inception_3b/relu_1x1"
  type: "ReLU"
  bottom: "inception_3b/1x1"
  top: "inception_3b/1x1"
}
layer {
  name: "inception_3b/3x3_reduce"
  type: "Convolution"
  bottom: "inception_3a/output"
  top: "inception_3b/3x3_reduce"
  param {
    lr_mult: 1
    decay_mult: 1
  }
  param {
    lr_mult: 2
    decay_mult: 0
  }
  convolution_param {
    num_output: 128
    kernel_size: 1
    weight_filler {
      type: "xavier"
      std: 0.09
    }
    bias_filler {
      type: "constant"
      value: 0.2
    }
  }
}
layer {
  name: "inception_3b/relu_3x3_reduce"
  type: "ReLU"
  bottom: "inception_3b/3x3_reduce"
  top: "inception_3b/3x3_reduce"
}
layer {
  name: "inception_3b/3x3"
  type: "Convolution"
  bottom: "inception_3b/3x3_reduce"
  top: "inception_3b/3x3"
  param {
    lr_mult: 1
    decay_mult: 1
  }
  param {
    lr_mult: 2
    decay_mult: 0
  }
  convolution_param {
    num_output: 192
    pad: 1
    kernel_size: 3
    weight_filler {
      type: "xavier"
      std: 0.03
    }
    bias_filler {
      type: "constant"
      value: 0.2
    }
  }
}
layer {
  name: "inception_3b/relu_3x3"
  type: "ReLU"
  bottom: "inception_3b/3x3"
  top: "inception_3b/3x3"
}
layer {
  name: "inception_3b/5x5_reduce"
  type: "Convolution"
  bottom: "inception_3a/output"
  top: "inception_3b/5x5_reduce"
  param {
    lr_mult: 1
    decay_mult: 1
  }
  param {
    lr_mult: 2
    decay_mult: 0
  }
  convolution_param {
    num_output: 32
    kernel_size: 1
    weight_filler {
      type: "xavier"
      std: 0.2
    }
    bias_filler {
      type: "constant"
      value: 0.2
    }
  }
}
layer {
  name: "inception_3b/relu_5x5_reduce"
  type: "ReLU"
  bottom: "inception_3b/5x5_reduce"
  top: "inception_3b/5x5_reduce"
}
layer {
  name: "inception_3b/5x5"
  type: "Convolution"
  bottom: "inception_3b/5x5_reduce"
  top: "inception_3b/5x5"
  param {
    lr_mult: 1
    decay_mult: 1
  }
  param {
    lr_mult: 2
    decay_mult: 0
  }
  convolution_param {
    num_output: 96
    pad: 2
    kernel_size: 5
    weight_filler {
      type: "xavier"
      std: 0.03
    }
    bias_filler {
      type: "constant"
      value: 0.2
    }
  }
}
layer {
  name: "inception_3b/relu_5x5"
  type: "ReLU"
  bottom: "inception_3b/5x5"
  top: "inception_3b/5x5"
}
layer {
  name: "inception_3b/pool"
  type: "Pooling"
  bottom: "inception_3a/output"
  top: "inception_3b/pool"
  pooling_param {
    pool: MAX
    kernel_size: 3
    stride: 1
    pad: 1
  }
}
layer {
  name: "inception_3b/pool_proj"
  type: "Convolution"
  bottom: "inception_3b/pool"
  top: "inception_3b/pool_proj"
  param {
    lr_mult: 1
    decay_mult: 1
  }
  param {
    lr_mult: 2
    decay_mult: 0
  }
  convolution_param {
    num_output: 64
    kernel_size: 1
    weight_filler {
      type: "xavier"
      std: 0.1
    }
    bias_filler {
      type: "constant"
      value: 0.2
    }
  }
}
layer {
  name: "inception_3b/relu_pool_proj"
  type: "ReLU"
  bottom: "inception_3b/pool_proj"
  top: "inception_3b/pool_proj"
}
layer {
  name: "inception_3b/output"
  type: "Concat"
  bottom: "inception_3b/1x1"
  bottom: "inception_3b/3x3"
  bottom: "inception_3b/5x5"
  bottom: "inception_3b/pool_proj"
  top: "inception_3b/output"
}
layer {
  name: "pool3/3x3_s2"
  type: "Pooling"
  bottom: "inception_3b/output"
  top: "pool3/3x3_s2"
  pooling_param {
    pool: MAX
    kernel_size: 3
    stride: 2
  }
}
layer {
  name: "inception_4a/1x1"
  type: "Convolution"
  bottom: "pool3/3x3_s2"
  top: "inception_4a/1x1"
  param {
    lr_mult: 1
    decay_mult: 1
  }
  param {
    lr_mult: 2
    decay_mult: 0
  }
  convolution_param {
    num_output: 192
    kernel_size: 1
    weight_filler {
      type: "xavier"
      std: 0.03
    }
    bias_filler {
      type: "constant"
      value: 0.2
    }
  }
}
layer {
  name: "inception_4a/relu_1x1"
  type: "ReLU"
  bottom: "inception_4a/1x1"
  top: "inception_4a/1x1"
}
layer {
  name: "inception_4a/3x3_reduce"
  type: "Convolution"
  bottom: "pool3/3x3_s2"
  top: "inception_4a/3x3_reduce"
  param {
    lr_mult: 1
    decay_mult: 1
  }
  param {
    lr_mult: 2
    decay_mult: 0
  }
  convolution_param {
    num_output: 96
    kernel_size: 1
    weight_filler {
      type: "xavier"
      std: 0.09
    }
    bias_filler {
      type: "constant"
      value: 0.2
    }
  }
}
layer {
  name: "inception_4a/relu_3x3_reduce"
  type: "ReLU"
  bottom: "inception_4a/3x3_reduce"
  top: "inception_4a/3x3_reduce"
}
layer {
  name: "inception_4a/3x3"
  type: "Convolution"
  bottom: "inception_4a/3x3_reduce"
  top: "inception_4a/3x3"
  param {
    lr_mult: 1
    decay_mult: 1
  }
  param {
    lr_mult: 2
    decay_mult: 0
  }
  convolution_param {
    num_output: 208
    pad: 1
    kernel_size: 3
    weight_filler {
      type: "xavier"
      std: 0.03
    }
    bias_filler {
      type: "constant"
      value: 0.2
    }
  }
}
layer {
  name: "inception_4a/relu_3x3"
  type: "ReLU"
  bottom: "inception_4a/3x3"
  top: "inception_4a/3x3"
}
layer {
  name: "inception_4a/5x5_reduce"
  type: "Convolution"
  bottom: "pool3/3x3_s2"
  top: "inception_4a/5x5_reduce"
  param {
    lr_mult: 1
    decay_mult: 1
  }
  param {
    lr_mult: 2
    decay_mult: 0
  }
  convolution_param {
    num_output: 16
    kernel_size: 1
    weight_filler {
      type: "xavier"
      std: 0.2
    }
    bias_filler {
      type: "constant"
      value: 0.2
    }
  }
}
layer {
  name: "inception_4a/relu_5x5_reduce"
  type: "ReLU"
  bottom: "inception_4a/5x5_reduce"
  top: "inception_4a/5x5_reduce"
}
layer {
  name: "inception_4a/5x5"
  type: "Convolution"
  bottom: "inception_4a/5x5_reduce"
  top: "inception_4a/5x5"
  param {
    lr_mult: 1
    decay_mult: 1
  }
  param {
    lr_mult: 2
    decay_mult: 0
  }
  convolution_param {
    num_output: 48
    pad: 2
    kernel_size: 5
    weight_filler {
      type: "xavier"
      std: 0.03
    }
    bias_filler {
      type: "constant"
      value: 0.2
    }
  }
}
layer {
  name: "inception_4a/relu_5x5"
  type: "ReLU"
  bottom: "inception_4a/5x5"
  top: "inception_4a/5x5"
}
layer {
  name: "inception_4a/pool"
  type: "Pooling"
  bottom: "pool3/3x3_s2"
  top: "inception_4a/pool"
  pooling_param {
    pool: MAX
    kernel_size: 3
    stride: 1
    pad: 1
  }
}
layer {
  name: "inception_4a/pool_proj"
  type: "Convolution"
  bottom: "inception_4a/pool"
  top: "inception_4a/pool_proj"
  param {
    lr_mult: 1
    decay_mult: 1
  }
  param {
    lr_mult: 2
    decay_mult: 0
  }
  convolution_param {
    num_output: 64
    kernel_size: 1
    weight_filler {
      type: "xavier"
      std: 0.1
    }
    bias_filler {
      type: "constant"
      value: 0.2
    }
  }
}
layer {
  name: "inception_4a/relu_pool_proj"
  type: "ReLU"
  bottom: "inception_4a/pool_proj"
  top: "inception_4a/pool_proj"
}
layer {
  name: "inception_4a/output"
  type: "Concat"
  bottom: "inception_4a/1x1"
  bottom: "inception_4a/3x3"
  bottom: "inception_4a/5x5"
  bottom: "inception_4a/pool_proj"
  top: "inception_4a/output"
}
layer {
  name: "loss1/ave_pool"
  type: "Pooling"
  bottom: "inception_4a/output"
  top: "loss1/ave_pool"
  pooling_param {
    pool: AVE
    kernel_size: 5
    stride: 3
  }
}
layer {
  name: "loss1/conv"
  type: "Convolution"
  bottom: "loss1/ave_pool"
  top: "loss1/conv"
  param {
    lr_mult: 1
    decay_mult: 1
  }
  param {
    lr_mult: 2
    decay_mult: 0
  }
  convolution_param {
    num_output: 128
    kernel_size: 1
    weight_filler {
      type: "xavier"
      std: 0.08
    }
    bias_filler {
      type: "constant"
      value: 0.2
    }
  }
}
layer {
  name: "loss1/relu_conv"
  type: "ReLU"
  bottom: "loss1/conv"
  top: "loss1/conv"
}
layer {
  name: "loss1/fc"
  type: "InnerProduct"
  bottom: "loss1/conv"
  top: "loss1/fc"
  param {
    lr_mult: 1
    decay_mult: 1
  }
  param {
    lr_mult: 2
    decay_mult: 0
  }
  inner_product_param {
    num_output: 1024
    weight_filler {
      type: "xavier"
      std: 0.02
    }
    bias_filler {
      type: "constant"
      value: 0.2
    }
  }
}
layer {
  name: "loss1/relu_fc"
  type: "ReLU"
  bottom: "loss1/fc"
  top: "loss1/fc"
}
layer {
  name: "loss1/drop_fc"
  type: "Dropout"
  bottom: "loss1/fc"
  top: "loss1/fc"
  dropout_param {
    dropout_ratio: 0.7
  }
}
layer {
  name: "loss1/classifier_plantvillage"
  type: "InnerProduct"
  bottom: "loss1/fc"
  top: "loss1/classifier_plantvillage"
  param {
    lr_mult: 1
    decay_mult: 1
  }
  param {
    lr_mult: 2
    decay_mult: 0
  }
  inner_product_param {
    num_output: 38
    weight_filler {
      type: "xavier"
      std: 0.0009765625
    }
    bias_filler {
      type: "constant"
      value: 0
    }
  }
}
layer {
  name: "inception_4b/1x1"
  type: "Convolution"
  bottom: "inception_4a/output"
  top: "inception_4b/1x1"
  param {
    lr_mult: 1
    decay_mult: 1
  }
  param {
    lr_mult: 2
    decay_mult: 0
  }
  convolution_param {
    num_output: 160
    kernel_size: 1
    weight_filler {
      type: "xavier"
      std: 0.03
    }
    bias_filler {
      type: "constant"
      value: 0.2
    }
  }
}
layer {
  name: "inception_4b/relu_1x1"
  type: "ReLU"
  bottom: "inception_4b/1x1"
  top: "inception_4b/1x1"
}
layer {
  name: "inception_4b/3x3_reduce"
  type: "Convolution"
  bottom: "inception_4a/output"
  top: "inception_4b/3x3_reduce"
  param {
    lr_mult: 1
    decay_mult: 1
  }
  param {
    lr_mult: 2
    decay_mult: 0
  }
  convolution_param {
    num_output: 112
    kernel_size: 1
    weight_filler {
      type: "xavier"
      std: 0.09
    }
    bias_filler {
      type: "constant"
      value: 0.2
    }
  }
}
layer {
  name: "inception_4b/relu_3x3_reduce"
  type: "ReLU"
  bottom: "inception_4b/3x3_reduce"
  top: "inception_4b/3x3_reduce"
}
layer {
  name: "inception_4b/3x3"
  type: "Convolution"
  bottom: "inception_4b/3x3_reduce"
  top: "inception_4b/3x3"
  param {
    lr_mult: 1
    decay_mult: 1
  }
  param {
    lr_mult: 2
    decay_mult: 0
  }
  convolution_param {
    num_output: 224
    pad: 1
    kernel_size: 3
    weight_filler {
      type: "xavier"
      std: 0.03
    }
    bias_filler {
      type: "constant"
      value: 0.2
    }
  }
}
layer {
  name: "inception_4b/relu_3x3"
  type: "ReLU"
  bottom: "inception_4b/3x3"
  top: "inception_4b/3x3"
}
layer {
  name: "inception_4b/5x5_reduce"
  type: "Convolution"
  bottom: "inception_4a/output"
  top: "inception_4b/5x5_reduce"
  param {
    lr_mult: 1
    decay_mult: 1
  }
  param {
    lr_mult: 2
    decay_mult: 0
  }
  convolution_param {
    num_output: 24
    kernel_size: 1
    weight_filler {
      type: "xavier"
      std: 0.2
    }
    bias_filler {
      type: "constant"
      value: 0.2
    }
  }
}
layer {
  name: "inception_4b/relu_5x5_reduce"
  type: "ReLU"
  bottom: "inception_4b/5x5_reduce"
  top: "inception_4b/5x5_reduce"
}
layer {
  name: "inception_4b/5x5"
  type: "Convolution"
  bottom: "inception_4b/5x5_reduce"
  top: "inception_4b/5x5"
  param {
    lr_mult: 1
    decay_mult: 1
  }
  param {
    lr_mult: 2
    decay_mult: 0
  }
  convolution_param {
    num_output: 64
    pad: 2
    kernel_size: 5
    weight_filler {
      type: "xavier"
      std: 0.03
    }
    bias_filler {
      type: "constant"
      value: 0.2
    }
  }
}
layer {
  name: "inception_4b/relu_5x5"
  type: "ReLU"
  bottom: "inception_4b/5x5"
  top: "inception_4b/5x5"
}
layer {
  name: "inception_4b/pool"
  type: "Pooling"
  bottom: "inception_4a/output"
  top: "inception_4b/pool"
  pooling_param {
    pool: MAX
    kernel_size: 3
    stride: 1
    pad: 1
  }
}
layer {
  name: "inception_4b/pool_proj"
  type: "Convolution"
  bottom: "inception_4b/pool"
  top: "inception_4b/pool_proj"
  param {
    lr_mult: 1
    decay_mult: 1
  }
  param {
    lr_mult: 2
    decay_mult: 0
  }
  convolution_param {
    num_output: 64
    kernel_size: 1
    weight_filler {
      type: "xavier"
      std: 0.1
    }
    bias_filler {
      type: "constant"
      value: 0.2
    }
  }
}
layer {
  name: "inception_4b/relu_pool_proj"
  type: "ReLU"
  bottom: "inception_4b/pool_proj"
  top: "inception_4b/pool_proj"
}
layer {
  name: "inception_4b/output"
  type: "Concat"
  bottom: "inception_4b/1x1"
  bottom: "inception_4b/3x3"
  bottom: "inception_4b/5x5"
  bottom: "inception_4b/pool_proj"
  top: "inception_4b/output"
}
layer {
  name: "inception_4c/1x1"
  type: "Convolution"
  bottom: "inception_4b/output"
  top: "inception_4c/1x1"
  param {
    lr_mult: 1
    decay_mult: 1
  }
  param {
    lr_mult: 2
    decay_mult: 0
  }
  convolution_param {
    num_output: 128
    kernel_size: 1
    weight_filler {
      type: "xavier"
      std: 0.03
    }
    bias_filler {
      type: "constant"
      value: 0.2
    }
  }
}
layer {
  name: "inception_4c/relu_1x1"
  type: "ReLU"
  bottom: "inception_4c/1x1"
  top: "inception_4c/1x1"
}
layer {
  name: "inception_4c/3x3_reduce"
  type: "Convolution"
  bottom: "inception_4b/output"
  top: "inception_4c/3x3_reduce"
  param {
    lr_mult: 1
    decay_mult: 1
  }
  param {
    lr_mult: 2
    decay_mult: 0
  }
  convolution_param {
    num_output: 128
    kernel_size: 1
    weight_filler {
      type: "xavier"
      std: 0.09
    }
    bias_filler {
      type: "constant"
      value: 0.2
    }
  }
}
layer {
  name: "inception_4c/relu_3x3_reduce"
  type: "ReLU"
  bottom: "inception_4c/3x3_reduce"
  top: "inception_4c/3x3_reduce"
}
layer {
  name: "inception_4c/3x3"
  type: "Convolution"
  bottom: "inception_4c/3x3_reduce"
  top: "inception_4c/3x3"
  param {
    lr_mult: 1
    decay_mult: 1
  }
  param {
    lr_mult: 2
    decay_mult: 0
  }
  convolution_param {
    num_output: 256
    pad: 1
    kernel_size: 3
    weight_filler {
      type: "xavier"
      std: 0.03
    }
    bias_filler {
      type: "constant"
      value: 0.2
    }
  }
}
layer {
  name: "inception_4c/relu_3x3"
  type: "ReLU"
  bottom: "inception_4c/3x3"
  top: "inception_4c/3x3"
}
layer {
  name: "inception_4c/5x5_reduce"
  type: "Convolution"
  bottom: "inception_4b/output"
  top: "inception_4c/5x5_reduce"
  param {
    lr_mult: 1
    decay_mult: 1
  }
  param {
    lr_mult: 2
    decay_mult: 0
  }
  convolution_param {
    num_output: 24
    kernel_size: 1
    weight_filler {
      type: "xavier"
      std: 0.2
    }
    bias_filler {
      type: "constant"
      value: 0.2
    }
  }
}
layer {
  name: "inception_4c/relu_5x5_reduce"
  type: "ReLU"
  bottom: "inception_4c/5x5_reduce"
  top: "inception_4c/5x5_reduce"
}
layer {
  name: "inception_4c/5x5"
  type: "Convolution"
  bottom: "inception_4c/5x5_reduce"
  top: "inception_4c/5x5"
  param {
    lr_mult: 1
    decay_mult: 1
  }
  param {
    lr_mult: 2
    decay_mult: 0
  }
  convolution_param {
    num_output: 64
    pad: 2
    kernel_size: 5
    weight_filler {
      type: "xavier"
      std: 0.03
    }
    bias_filler {
      type: "constant"
      value: 0.2
    }
  }
}
layer {
  name: "inception_4c/relu_5x5"
  type: "ReLU"
  bottom: "inception_4c/5x5"
  top: "inception_4c/5x5"
}
layer {
  name: "inception_4c/pool"
  type: "Pooling"
  bottom: "inception_4b/output"
  top: "inception_4c/pool"
  pooling_param {
    pool: MAX
    kernel_size: 3
    stride: 1
    pad: 1
  }
}
layer {
  name: "inception_4c/pool_proj"
  type: "Convolution"
  bottom: "inception_4c/pool"
  top: "inception_4c/pool_proj"
  param {
    lr_mult: 1
    decay_mult: 1
  }
  param {
    lr_mult: 2
    decay_mult: 0
  }
  convolution_param {
    num_output: 64
    kernel_size: 1
    weight_filler {
      type: "xavier"
      std: 0.1
    }
    bias_filler {
      type: "constant"
      value: 0.2
    }
  }
}
layer {
  name: "inception_4c/relu_pool_proj"
  type: "ReLU"
  bottom: "inception_4c/pool_proj"
  top: "inception_4c/pool_proj"
}
layer {
  name: "inception_4c/output"
  type: "Concat"
  bottom: "inception_4c/1x1"
  bottom: "inception_4c/3x3"
  bottom: "inception_4c/5x5"
  bottom: "inception_4c/pool_proj"
  top: "inception_4c/output"
}
layer {
  name: "inception_4d/1x1"
  type: "Convolution"
  bottom: "inception_4c/output"
  top: "inception_4d/1x1"
  param {
    lr_mult: 1
    decay_mult: 1
  }
  param {
    lr_mult: 2
    decay_mult: 0
  }
  convolution_param {
    num_output: 112
    kernel_size: 1
    weight_filler {
      type: "xavier"
      std: 0.03
    }
    bias_filler {
      type: "constant"
      value: 0.2
    }
  }
}
layer {
  name: "inception_4d/relu_1x1"
  type: "ReLU"
  bottom: "inception_4d/1x1"
  top: "inception_4d/1x1"
}
layer {
  name: "inception_4d/3x3_reduce"
  type: "Convolution"
  bottom: "inception_4c/output"
  top: "inception_4d/3x3_reduce"
  param {
    lr_mult: 1
    decay_mult: 1
  }
  param {
    lr_mult: 2
    decay_mult: 0
  }
  convolution_param {
    num_output: 144
    kernel_size: 1
    weight_filler {
      type: "xavier"
      std: 0.09
    }
    bias_filler {
      type: "constant"
      value: 0.2
    }
  }
}
layer {
  name: "inception_4d/relu_3x3_reduce"
  type: "ReLU"
  bottom: "inception_4d/3x3_reduce"
  top: "inception_4d/3x3_reduce"
}
layer {
  name: "inception_4d/3x3"
  type: "Convolution"
  bottom: "inception_4d/3x3_reduce"
  top: "inception_4d/3x3"
  param {
    lr_mult: 1
    decay_mult: 1
  }
  param {
    lr_mult: 2
    decay_mult: 0
  }
  convolution_param {
    num_output: 288
    pad: 1
    kernel_size: 3
    weight_filler {
      type: "xavier"
      std: 0.03
    }
    bias_filler {
      type: "constant"
      value: 0.2
    }
  }
}
layer {
  name: "inception_4d/relu_3x3"
  type: "ReLU"
  bottom: "inception_4d/3x3"
  top: "inception_4d/3x3"
}
layer {
  name: "inception_4d/5x5_reduce"
  type: "Convolution"
  bottom: "inception_4c/output"
  top: "inception_4d/5x5_reduce"
  param {
    lr_mult: 1
    decay_mult: 1
  }
  param {
    lr_mult: 2
    decay_mult: 0
  }
  convolution_param {
    num_output: 32
    kernel_size: 1
    weight_filler {
      type: "xavier"
      std: 0.2
    }
    bias_filler {
      type: "constant"
      value: 0.2
    }
  }
}
layer {
  name: "inception_4d/relu_5x5_reduce"
  type: "ReLU"
  bottom: "inception_4d/5x5_reduce"
  top: "inception_4d/5x5_reduce"
}
layer {
  name: "inception_4d/5x5"
  type: "Convolution"
  bottom: "inception_4d/5x5_reduce"
  top: "inception_4d/5x5"
  param {
    lr_mult: 1
    decay_mult: 1
  }
  param {
    lr_mult: 2
    decay_mult: 0
  }
  convolution_param {
    num_output: 64
    pad: 2
    kernel_size: 5
    weight_filler {
      type: "xavier"
      std: 0.03
    }
    bias_filler {
      type: "constant"
      value: 0.2
    }
  }
}
layer {
  name: "inception_4d/relu_5x5"
  type: "ReLU"
  bottom: "inception_4d/5x5"
  top: "inception_4d/5x5"
}
layer {
  name: "inception_4d/pool"
  type: "Pooling"
  bottom: "inception_4c/output"
  top: "inception_4d/pool"
  pooling_param {
    pool: MAX
    kernel_size: 3
    stride: 1
    pad: 1
  }
}
layer {
  name: "inception_4d/pool_proj"
  type: "Convolution"
  bottom: "inception_4d/pool"
  top: "inception_4d/pool_proj"
  param {
    lr_mult: 1
    decay_mult: 1
  }
  param {
    lr_mult: 2
    decay_mult: 0
  }
  convolution_param {
    num_output: 64
    kernel_size: 1
    weight_filler {
      type: "xavier"
      std: 0.1
    }
    bias_filler {
      type: "constant"
      value: 0.2
    }
  }
}
layer {
  name: "inception_4d/relu_pool_proj"
  type: "ReLU"
  bottom: "inception_4d/pool_proj"
  top: "inception_4d/pool_proj"
}
layer {
  name: "inception_4d/output"
  type: "Concat"
  bottom: "inception_4d/1x1"
  bottom: "inception_4d/3x3"
  bottom: "inception_4d/5x5"
  bottom: "inception_4d/pool_proj"
  top: "inception_4d/output"
}
layer {
  name: "loss2/ave_pool"
  type: "Pooling"
  bottom: "inception_4d/output"
  top: "loss2/ave_pool"
  pooling_param {
    pool: AVE
    kernel_size: 5
    stride: 3
  }
}
layer {
  name: "loss2/conv"
  type: "Convolution"
  bottom: "loss2/ave_pool"
  top: "loss2/conv"
  param {
    lr_mult: 1
    decay_mult: 1
  }
  param {
    lr_mult: 2
    decay_mult: 0
  }
  convolution_param {
    num_output: 128
    kernel_size: 1
    weight_filler {
      type: "xavier"
      std: 0.08
    }
    bias_filler {
      type: "constant"
      value: 0.2
    }
  }
}
layer {
  name: "loss2/relu_conv"
  type: "ReLU"
  bottom: "loss2/conv"
  top: "loss2/conv"
}
layer {
  name: "loss2/fc"
  type: "InnerProduct"
  bottom: "loss2/conv"
  top: "loss2/fc"
  param {
    lr_mult: 1
    decay_mult: 1
  }
  param {
    lr_mult: 2
    decay_mult: 0
  }
  inner_product_param {
    num_output: 1024
    weight_filler {
      type: "xavier"
      std: 0.02
    }
    bias_filler {
      type: "constant"
      value: 0.2
    }
  }
}
layer {
  name: "loss2/relu_fc"
  type: "ReLU"
  bottom: "loss2/fc"
  top: "loss2/fc"
}
layer {
  name: "loss2/drop_fc"
  type: "Dropout"
  bottom: "loss2/fc"
  top: "loss2/fc"
  dropout_param {
    dropout_ratio: 0.7
  }
}
layer {
  name: "loss2/classifier_plantvillage"
  type: "InnerProduct"
  bottom: "loss2/fc"
  top: "loss2/classifier_plantvillage"
  param {
    lr_mult: 1
    decay_mult: 1
  }
  param {
    lr_mult: 2
    decay_mult: 0
  }
  inner_product_param {
    num_output: 38
    weight_filler {
      type: "xavier"
      std: 0.0009765625
    }
    bias_filler {
      type: "constant"
      value: 0
    }
  }
}
layer {
  name: "inception_4e/1x1"
  type: "Convolution"
  bottom: "inception_4d/output"
  top: "inception_4e/1x1"
  param {
    lr_mult: 1
    decay_mult: 1
  }
  param {
    lr_mult: 2
    decay_mult: 0
  }
  convolution_param {
    num_output: 256
    kernel_size: 1
    weight_filler {
      type: "xavier"
      std: 0.03
    }
    bias_filler {
      type: "constant"
      value: 0.2
    }
  }
}
layer {
  name: "inception_4e/relu_1x1"
  type: "ReLU"
  bottom: "inception_4e/1x1"
  top: "inception_4e/1x1"
}
layer {
  name: "inception_4e/3x3_reduce"
  type: "Convolution"
  bottom: "inception_4d/output"
  top: "inception_4e/3x3_reduce"
  param {
    lr_mult: 1
    decay_mult: 1
  }
  param {
    lr_mult: 2
    decay_mult: 0
  }
  convolution_param {
    num_output: 160
    kernel_size: 1
    weight_filler {
      type: "xavier"
      std: 0.09
    }
    bias_filler {
      type: "constant"
      value: 0.2
    }
  }
}
layer {
  name: "inception_4e/relu_3x3_reduce"
  type: "ReLU"
  bottom: "inception_4e/3x3_reduce"
  top: "inception_4e/3x3_reduce"
}
layer {
  name: "inception_4e/3x3"
  type: "Convolution"
  bottom: "inception_4e/3x3_reduce"
  top: "inception_4e/3x3"
  param {
    lr_mult: 1
    decay_mult: 1
  }
  param {
    lr_mult: 2
    decay_mult: 0
  }
  convolution_param {
    num_output: 320
    pad: 1
    kernel_size: 3
    weight_filler {
      type: "xavier"
      std: 0.03
    }
    bias_filler {
      type: "constant"
      value: 0.2
    }
  }
}
layer {
  name: "inception_4e/relu_3x3"
  type: "ReLU"
  bottom: "inception_4e/3x3"
  top: "inception_4e/3x3"
}
layer {
  name: "inception_4e/5x5_reduce"
  type: "Convolution"
  bottom: "inception_4d/output"
  top: "inception_4e/5x5_reduce"
  param {
    lr_mult: 1
    decay_mult: 1
  }
  param {
    lr_mult: 2
    decay_mult: 0
  }
  convolution_param {
    num_output: 32
    kernel_size: 1
    weight_filler {
      type: "xavier"
      std: 0.2
    }
    bias_filler {
      type: "constant"
      value: 0.2
    }
  }
}
layer {
  name: "inception_4e/relu_5x5_reduce"
  type: "ReLU"
  bottom: "inception_4e/5x5_reduce"
  top: "inception_4e/5x5_reduce"
}
layer {
  name: "inception_4e/5x5"
  type: "Convolution"
  bottom: "inception_4e/5x5_reduce"
  top: "inception_4e/
I0403 18:29:49.158723 22581 layer_factory.hpp:77] Creating layer data
I0403 18:29:49.159303 22581 net.cpp:91] Creating Layer data
I0403 18:29:49.159332 22581 net.cpp:399] data -> data
I0403 18:29:49.159382 22581 net.cpp:399] data -> label
I0403 18:29:49.159418 22581 data_transformer.cpp:25] Loading mean file from: /home/mohanty/data/final_dataset/lmdb/segmented-40-60/mean.binaryproto
I0403 18:29:49.160487 22584 db_lmdb.cpp:38] Opened lmdb /home/mohanty/data/final_dataset/lmdb/segmented-40-60/test_db
I0403 18:29:49.172400 22581 data_layer.cpp:41] output data size: 24,3,224,224
I0403 18:29:49.199203 22581 net.cpp:141] Setting up data
I0403 18:29:49.199281 22581 net.cpp:148] Top shape: 24 3 224 224 (3612672)
I0403 18:29:49.199304 22581 net.cpp:148] Top shape: 24 (24)
I0403 18:29:49.199319 22581 net.cpp:156] Memory required for data: 14450784
I0403 18:29:49.199345 22581 layer_factory.hpp:77] Creating layer label_data_1_split
I0403 18:29:49.199370 22581 net.cpp:91] Creating Layer label_data_1_split
I0403 18:29:49.199388 22581 net.cpp:425] label_data_1_split <- label
I0403 18:29:49.199419 22581 net.cpp:399] label_data_1_split -> label_data_1_split_0
I0403 18:29:49.199446 22581 net.cpp:399] label_data_1_split -> label_data_1_split_1
I0403 18:29:49.199466 22581 net.cpp:399] label_data_1_split -> label_data_1_split_2
I0403 18:29:49.199486 22581 net.cpp:399] label_data_1_split -> label_data_1_split_3
I0403 18:29:49.199504 22581 net.cpp:399] label_data_1_split -> label_data_1_split_4
I0403 18:29:49.199523 22581 net.cpp:399] label_data_1_split -> label_data_1_split_5
I0403 18:29:49.199560 22581 net.cpp:399] label_data_1_split -> label_data_1_split_6
I0403 18:29:49.199584 22581 net.cpp:399] label_data_1_split -> label_data_1_split_7
I0403 18:29:49.199604 22581 net.cpp:399] label_data_1_split -> label_data_1_split_8
I0403 18:29:49.199623 22581 net.cpp:399] label_data_1_split -> label_data_1_split_9
I0403 18:29:49.199739 22581 net.cpp:141] Setting up label_data_1_split
I0403 18:29:49.199762 22581 net.cpp:148] Top shape: 24 (24)
I0403 18:29:49.199779 22581 net.cpp:148] Top shape: 24 (24)
I0403 18:29:49.199795 22581 net.cpp:148] Top shape: 24 (24)
I0403 18:29:49.199810 22581 net.cpp:148] Top shape: 24 (24)
I0403 18:29:49.199825 22581 net.cpp:148] Top shape: 24 (24)
I0403 18:29:49.199839 22581 net.cpp:148] Top shape: 24 (24)
I0403 18:29:49.199853 22581 net.cpp:148] Top shape: 24 (24)
I0403 18:29:49.199868 22581 net.cpp:148] Top shape: 24 (24)
I0403 18:29:49.199883 22581 net.cpp:148] Top shape: 24 (24)
I0403 18:29:49.199898 22581 net.cpp:148] Top shape: 24 (24)
I0403 18:29:49.199951 22581 net.cpp:156] Memory required for data: 14451744
I0403 18:29:49.199967 22581 layer_factory.hpp:77] Creating layer conv1/7x7_s2
I0403 18:29:49.200000 22581 net.cpp:91] Creating Layer conv1/7x7_s2
I0403 18:29:49.200018 22581 net.cpp:425] conv1/7x7_s2 <- data
I0403 18:29:49.200037 22581 net.cpp:399] conv1/7x7_s2 -> conv1/7x7_s2
I0403 18:29:49.337332 22581 net.cpp:141] Setting up conv1/7x7_s2
I0403 18:29:49.337409 22581 net.cpp:148] Top shape: 24 64 112 112 (19267584)
I0403 18:29:49.337425 22581 net.cpp:156] Memory required for data: 91522080
I0403 18:29:49.337455 22581 layer_factory.hpp:77] Creating layer conv1/relu_7x7
I0403 18:29:49.337479 22581 net.cpp:91] Creating Layer conv1/relu_7x7
I0403 18:29:49.337497 22581 net.cpp:425] conv1/relu_7x7 <- conv1/7x7_s2
I0403 18:29:49.337515 22581 net.cpp:386] conv1/relu_7x7 -> conv1/7x7_s2 (in-place)
I0403 18:29:49.337766 22581 net.cpp:141] Setting up conv1/relu_7x7
I0403 18:29:49.337795 22581 net.cpp:148] Top shape: 24 64 112 112 (19267584)
I0403 18:29:49.337810 22581 net.cpp:156] Memory required for data: 168592416
I0403 18:29:49.337824 22581 layer_factory.hpp:77] Creating layer pool1/3x3_s2
I0403 18:29:49.337846 22581 net.cpp:91] Creating Layer pool1/3x3_s2
I0403 18:29:49.337862 22581 net.cpp:425] pool1/3x3_s2 <- conv1/7x7_s2
I0403 18:29:49.337882 22581 net.cpp:399] pool1/3x3_s2 -> pool1/3x3_s2
I0403 18:29:49.337954 22581 net.cpp:141] Setting up pool1/3x3_s2
I0403 18:29:49.337976 22581 net.cpp:148] Top shape: 24 64 56 56 (4816896)
I0403 18:29:49.337990 22581 net.cpp:156] Memory required for data: 187860000
I0403 18:29:49.338003 22581 layer_factory.hpp:77] Creating layer pool1/norm1
I0403 18:29:49.338028 22581 net.cpp:91] Creating Layer pool1/norm1
I0403 18:29:49.338044 22581 net.cpp:425] pool1/norm1 <- pool1/3x3_s2
I0403 18:29:49.338063 22581 net.cpp:399] pool1/norm1 -> pool1/norm1
I0403 18:29:49.338341 22581 net.cpp:141] Setting up pool1/norm1
I0403 18:29:49.338371 22581 net.cpp:148] Top shape: 24 64 56 56 (4816896)
I0403 18:29:49.338387 22581 net.cpp:156] Memory required for data: 207127584
I0403 18:29:49.338399 22581 layer_factory.hpp:77] Creating layer conv2/3x3_reduce
I0403 18:29:49.338424 22581 net.cpp:91] Creating Layer conv2/3x3_reduce
I0403 18:29:49.338441 22581 net.cpp:425] conv2/3x3_reduce <- pool1/norm1
I0403 18:29:49.338460 22581 net.cpp:399] conv2/3x3_reduce -> conv2/3x3_reduce
I0403 18:29:49.339783 22581 net.cpp:141] Setting up conv2/3x3_reduce
I0403 18:29:49.339810 22581 net.cpp:148] Top shape: 24 64 56 56 (4816896)
I0403 18:29:49.339825 22581 net.cpp:156] Memory required for data: 226395168
I0403 18:29:49.339844 22581 layer_factory.hpp:77] Creating layer conv2/relu_3x3_reduce
I0403 18:29:49.339865 22581 net.cpp:91] Creating Layer conv2/relu_3x3_reduce
I0403 18:29:49.339881 22581 net.cpp:425] conv2/relu_3x3_reduce <- conv2/3x3_reduce
I0403 18:29:49.339898 22581 net.cpp:386] conv2/relu_3x3_reduce -> conv2/3x3_reduce (in-place)
I0403 18:29:49.340145 22581 net.cpp:141] Setting up conv2/relu_3x3_reduce
I0403 18:29:49.340170 22581 net.cpp:148] Top shape: 24 64 56 56 (4816896)
I0403 18:29:49.340184 22581 net.cpp:156] Memory required for data: 245662752
I0403 18:29:49.340198 22581 layer_factory.hpp:77] Creating layer conv2/3x3
I0403 18:29:49.340222 22581 net.cpp:91] Creating Layer conv2/3x3
I0403 18:29:49.340240 22581 net.cpp:425] conv2/3x3 <- conv2/3x3_reduce
I0403 18:29:49.340257 22581 net.cpp:399] conv2/3x3 -> conv2/3x3
I0403 18:29:49.342411 22581 net.cpp:141] Setting up conv2/3x3
I0403 18:29:49.342440 22581 net.cpp:148] Top shape: 24 192 56 56 (14450688)
I0403 18:29:49.342455 22581 net.cpp:156] Memory required for data: 303465504
I0403 18:29:49.342474 22581 layer_factory.hpp:77] Creating layer conv2/relu_3x3
I0403 18:29:49.342494 22581 net.cpp:91] Creating Layer conv2/relu_3x3
I0403 18:29:49.342510 22581 net.cpp:425] conv2/relu_3x3 <- conv2/3x3
I0403 18:29:49.342525 22581 net.cpp:386] conv2/relu_3x3 -> conv2/3x3 (in-place)
I0403 18:29:49.342694 22581 net.cpp:141] Setting up conv2/relu_3x3
I0403 18:29:49.342717 22581 net.cpp:148] Top shape: 24 192 56 56 (14450688)
I0403 18:29:49.342766 22581 net.cpp:156] Memory required for data: 361268256
I0403 18:29:49.342780 22581 layer_factory.hpp:77] Creating layer conv2/norm2
I0403 18:29:49.342797 22581 net.cpp:91] Creating Layer conv2/norm2
I0403 18:29:49.342813 22581 net.cpp:425] conv2/norm2 <- conv2/3x3
I0403 18:29:49.342831 22581 net.cpp:399] conv2/norm2 -> conv2/norm2
I0403 18:29:49.343114 22581 net.cpp:141] Setting up conv2/norm2
I0403 18:29:49.343139 22581 net.cpp:148] Top shape: 24 192 56 56 (14450688)
I0403 18:29:49.343153 22581 net.cpp:156] Memory required for data: 419071008
I0403 18:29:49.343168 22581 layer_factory.hpp:77] Creating layer pool2/3x3_s2
I0403 18:29:49.343184 22581 net.cpp:91] Creating Layer pool2/3x3_s2
I0403 18:29:49.343199 22581 net.cpp:425] pool2/3x3_s2 <- conv2/norm2
I0403 18:29:49.343219 22581 net.cpp:399] pool2/3x3_s2 -> pool2/3x3_s2
I0403 18:29:49.343268 22581 net.cpp:141] Setting up pool2/3x3_s2
I0403 18:29:49.343291 22581 net.cpp:148] Top shape: 24 192 28 28 (3612672)
I0403 18:29:49.343304 22581 net.cpp:156] Memory required for data: 433521696
I0403 18:29:49.343317 22581 layer_factory.hpp:77] Creating layer pool2/3x3_s2_pool2/3x3_s2_0_split
I0403 18:29:49.343335 22581 net.cpp:91] Creating Layer pool2/3x3_s2_pool2/3x3_s2_0_split
I0403 18:29:49.343350 22581 net.cpp:425] pool2/3x3_s2_pool2/3x3_s2_0_split <- pool2/3x3_s2
I0403 18:29:49.343369 22581 net.cpp:399] pool2/3x3_s2_pool2/3x3_s2_0_split -> pool2/3x3_s2_pool2/3x3_s2_0_split_0
I0403 18:29:49.343386 22581 net.cpp:399] pool2/3x3_s2_pool2/3x3_s2_0_split -> pool2/3x3_s2_pool2/3x3_s2_0_split_1
I0403 18:29:49.343405 22581 net.cpp:399] pool2/3x3_s2_pool2/3x3_s2_0_split -> pool2/3x3_s2_pool2/3x3_s2_0_split_2
I0403 18:29:49.343422 22581 net.cpp:399] pool2/3x3_s2_pool2/3x3_s2_0_split -> pool2/3x3_s2_pool2/3x3_s2_0_split_3
I0403 18:29:49.343489 22581 net.cpp:141] Setting up pool2/3x3_s2_pool2/3x3_s2_0_split
I0403 18:29:49.343513 22581 net.cpp:148] Top shape: 24 192 28 28 (3612672)
I0403 18:29:49.343529 22581 net.cpp:148] Top shape: 24 192 28 28 (3612672)
I0403 18:29:49.343549 22581 net.cpp:148] Top shape: 24 192 28 28 (3612672)
I0403 18:29:49.343564 22581 net.cpp:148] Top shape: 24 192 28 28 (3612672)
I0403 18:29:49.343575 22581 net.cpp:156] Memory required for data: 491324448
I0403 18:29:49.343590 22581 layer_factory.hpp:77] Creating layer inception_3a/1x1
I0403 18:29:49.343611 22581 net.cpp:91] Creating Layer inception_3a/1x1
I0403 18:29:49.343626 22581 net.cpp:425] inception_3a/1x1 <- pool2/3x3_s2_pool2/3x3_s2_0_split_0
I0403 18:29:49.343643 22581 net.cpp:399] inception_3a/1x1 -> inception_3a/1x1
I0403 18:29:49.345080 22581 net.cpp:141] Setting up inception_3a/1x1
I0403 18:29:49.345108 22581 net.cpp:148] Top shape: 24 64 28 28 (1204224)
I0403 18:29:49.345123 22581 net.cpp:156] Memory required for data: 496141344
I0403 18:29:49.345140 22581 layer_factory.hpp:77] Creating layer inception_3a/relu_1x1
I0403 18:29:49.345160 22581 net.cpp:91] Creating Layer inception_3a/relu_1x1
I0403 18:29:49.345175 22581 net.cpp:425] inception_3a/relu_1x1 <- inception_3a/1x1
I0403 18:29:49.345191 22581 net.cpp:386] inception_3a/relu_1x1 -> inception_3a/1x1 (in-place)
I0403 18:29:49.345350 22581 net.cpp:141] Setting up inception_3a/relu_1x1
I0403 18:29:49.345376 22581 net.cpp:148] Top shape: 24 64 28 28 (1204224)
I0403 18:29:49.345391 22581 net.cpp:156] Memory required for data: 500958240
I0403 18:29:49.345404 22581 layer_factory.hpp:77] Creating layer inception_3a/3x3_reduce
I0403 18:29:49.345425 22581 net.cpp:91] Creating Layer inception_3a/3x3_reduce
I0403 18:29:49.345441 22581 net.cpp:425] inception_3a/3x3_reduce <- pool2/3x3_s2_pool2/3x3_s2_0_split_1
I0403 18:29:49.345458 22581 net.cpp:399] inception_3a/3x3_reduce -> inception_3a/3x3_reduce
I0403 18:29:49.347057 22581 net.cpp:141] Setting up inception_3a/3x3_reduce
I0403 18:29:49.347085 22581 net.cpp:148] Top shape: 24 96 28 28 (1806336)
I0403 18:29:49.347100 22581 net.cpp:156] Memory required for data: 508183584
I0403 18:29:49.347120 22581 layer_factory.hpp:77] Creating layer inception_3a/relu_3x3_reduce
I0403 18:29:49.347156 22581 net.cpp:91] Creating Layer inception_3a/relu_3x3_reduce
I0403 18:29:49.347172 22581 net.cpp:425] inception_3a/relu_3x3_reduce <- inception_3a/3x3_reduce
I0403 18:29:49.347190 22581 net.cpp:386] inception_3a/relu_3x3_reduce -> inception_3a/3x3_reduce (in-place)
I0403 18:29:49.347357 22581 net.cpp:141] Setting up inception_3a/relu_3x3_reduce
I0403 18:29:49.347381 22581 net.cpp:148] Top shape: 24 96 28 28 (1806336)
I0403 18:29:49.347395 22581 net.cpp:156] Memory required for data: 515408928
I0403 18:29:49.347409 22581 layer_factory.hpp:77] Creating layer inception_3a/3x3
I0403 18:29:49.347430 22581 net.cpp:91] Creating Layer inception_3a/3x3
I0403 18:29:49.347446 22581 net.cpp:425] inception_3a/3x3 <- inception_3a/3x3_reduce
I0403 18:29:49.347466 22581 net.cpp:399] inception_3a/3x3 -> inception_3a/3x3
I0403 18:29:49.349007 22581 net.cpp:141] Setting up inception_3a/3x3
I0403 18:29:49.349035 22581 net.cpp:148] Top shape: 24 128 28 28 (2408448)
I0403 18:29:49.349052 22581 net.cpp:156] Memory required for data: 525042720
I0403 18:29:49.349071 22581 layer_factory.hpp:77] Creating layer inception_3a/relu_3x3
I0403 18:29:49.349087 22581 net.cpp:91] Creating Layer inception_3a/relu_3x3
I0403 18:29:49.349102 22581 net.cpp:425] inception_3a/relu_3x3 <- inception_3a/3x3
I0403 18:29:49.349118 22581 net.cpp:386] inception_3a/relu_3x3 -> inception_3a/3x3 (in-place)
I0403 18:29:49.349378 22581 net.cpp:141] Setting up inception_3a/relu_3x3
I0403 18:29:49.349405 22581 net.cpp:148] Top shape: 24 128 28 28 (2408448)
I0403 18:29:49.349421 22581 net.cpp:156] Memory required for data: 534676512
I0403 18:29:49.349436 22581 layer_factory.hpp:77] Creating layer inception_3a/5x5_reduce
I0403 18:29:49.349454 22581 net.cpp:91] Creating Layer inception_3a/5x5_reduce
I0403 18:29:49.349470 22581 net.cpp:425] inception_3a/5x5_reduce <- pool2/3x3_s2_pool2/3x3_s2_0_split_2
I0403 18:29:49.349489 22581 net.cpp:399] inception_3a/5x5_reduce -> inception_3a/5x5_reduce
I0403 18:29:49.350389 22581 net.cpp:141] Setting up inception_3a/5x5_reduce
I0403 18:29:49.350419 22581 net.cpp:148] Top shape: 24 16 28 28 (301056)
I0403 18:29:49.350435 22581 net.cpp:156] Memory required for data: 535880736
I0403 18:29:49.350451 22581 layer_factory.hpp:77] Creating layer inception_3a/relu_5x5_reduce
I0403 18:29:49.350468 22581 net.cpp:91] Creating Layer inception_3a/relu_5x5_reduce
I0403 18:29:49.350482 22581 net.cpp:425] inception_3a/relu_5x5_reduce <- inception_3a/5x5_reduce
I0403 18:29:49.350498 22581 net.cpp:386] inception_3a/relu_5x5_reduce -> inception_3a/5x5_reduce (in-place)
I0403 18:29:49.350801 22581 net.cpp:141] Setting up inception_3a/relu_5x5_reduce
I0403 18:29:49.350827 22581 net.cpp:148] Top shape: 24 16 28 28 (301056)
I0403 18:29:49.350842 22581 net.cpp:156] Memory required for data: 537084960
I0403 18:29:49.350857 22581 layer_factory.hpp:77] Creating layer inception_3a/5x5
I0403 18:29:49.350878 22581 net.cpp:91] Creating Layer inception_3a/5x5
I0403 18:29:49.350895 22581 net.cpp:425] inception_3a/5x5 <- inception_3a/5x5_reduce
I0403 18:29:49.350915 22581 net.cpp:399] inception_3a/5x5 -> inception_3a/5x5
I0403 18:29:49.351893 22581 net.cpp:141] Setting up inception_3a/5x5
I0403 18:29:49.351919 22581 net.cpp:148] Top shape: 24 32 28 28 (602112)
I0403 18:29:49.351934 22581 net.cpp:156] Memory required for data: 539493408
I0403 18:29:49.351953 22581 layer_factory.hpp:77] Creating layer inception_3a/relu_5x5
I0403 18:29:49.351972 22581 net.cpp:91] Creating Layer inception_3a/relu_5x5
I0403 18:29:49.351989 22581 net.cpp:425] inception_3a/relu_5x5 <- inception_3a/5x5
I0403 18:29:49.352005 22581 net.cpp:386] inception_3a/relu_5x5 -> inception_3a/5x5 (in-place)
I0403 18:29:49.352172 22581 net.cpp:141] Setting up inception_3a/relu_5x5
I0403 18:29:49.352200 22581 net.cpp:148] Top shape: 24 32 28 28 (602112)
I0403 18:29:49.352215 22581 net.cpp:156] Memory required for data: 541901856
I0403 18:29:49.352228 22581 layer_factory.hpp:77] Creating layer inception_3a/pool
I0403 18:29:49.352246 22581 net.cpp:91] Creating Layer inception_3a/pool
I0403 18:29:49.352274 22581 net.cpp:425] inception_3a/pool <- pool2/3x3_s2_pool2/3x3_s2_0_split_3
I0403 18:29:49.352296 22581 net.cpp:399] inception_3a/pool -> inception_3a/pool
I0403 18:29:49.352355 22581 net.cpp:141] Setting up inception_3a/pool
I0403 18:29:49.352376 22581 net.cpp:148] Top shape: 24 192 28 28 (3612672)
I0403 18:29:49.352391 22581 net.cpp:156] Memory required for data: 556352544
I0403 18:29:49.352404 22581 layer_factory.hpp:77] Creating layer inception_3a/pool_proj
I0403 18:29:49.352426 22581 net.cpp:91] Creating Layer inception_3a/pool_proj
I0403 18:29:49.352442 22581 net.cpp:425] inception_3a/pool_proj <- inception_3a/pool
I0403 18:29:49.352463 22581 net.cpp:399] inception_3a/pool_proj -> inception_3a/pool_proj
I0403 18:29:49.353389 22581 net.cpp:141] Setting up inception_3a/pool_proj
I0403 18:29:49.353416 22581 net.cpp:148] Top shape: 24 32 28 28 (602112)
I0403 18:29:49.353431 22581 net.cpp:156] Memory required for data: 558760992
I0403 18:29:49.353454 22581 layer_factory.hpp:77] Creating layer inception_3a/relu_pool_proj
I0403 18:29:49.353474 22581 net.cpp:91] Creating Layer inception_3a/relu_pool_proj
I0403 18:29:49.353489 22581 net.cpp:425] inception_3a/relu_pool_proj <- inception_3a/pool_proj
I0403 18:29:49.353507 22581 net.cpp:386] inception_3a/relu_pool_proj -> inception_3a/pool_proj (in-place)
I0403 18:29:49.353773 22581 net.cpp:141] Setting up inception_3a/relu_pool_proj
I0403 18:29:49.353799 22581 net.cpp:148] Top shape: 24 32 28 28 (602112)
I0403 18:29:49.353816 22581 net.cpp:156] Memory required for data: 561169440
I0403 18:29:49.353831 22581 layer_factory.hpp:77] Creating layer inception_3a/output
I0403 18:29:49.353847 22581 net.cpp:91] Creating Layer inception_3a/output
I0403 18:29:49.353863 22581 net.cpp:425] inception_3a/output <- inception_3a/1x1
I0403 18:29:49.353878 22581 net.cpp:425] inception_3a/output <- inception_3a/3x3
I0403 18:29:49.353893 22581 net.cpp:425] inception_3a/output <- inception_3a/5x5
I0403 18:29:49.353907 22581 net.cpp:425] inception_3a/output <- inception_3a/pool_proj
I0403 18:29:49.353922 22581 net.cpp:399] inception_3a/output -> inception_3a/output
I0403 18:29:49.353968 22581 net.cpp:141] Setting up inception_3a/output
I0403 18:29:49.353991 22581 net.cpp:148] Top shape: 24 256 28 28 (4816896)
I0403 18:29:49.354006 22581 net.cpp:156] Memory required for data: 580437024
I0403 18:29:49.354019 22581 layer_factory.hpp:77] Creating layer inception_3a/output_inception_3a/output_0_split
I0403 18:29:49.354034 22581 net.cpp:91] Creating Layer inception_3a/output_inception_3a/output_0_split
I0403 18:29:49.354048 22581 net.cpp:425] inception_3a/output_inception_3a/output_0_split <- inception_3a/output
I0403 18:29:49.354068 22581 net.cpp:399] inception_3a/output_inception_3a/output_0_split -> inception_3a/output_inception_3a/output_0_split_0
I0403 18:29:49.354086 22581 net.cpp:399] inception_3a/output_inception_3a/output_0_split -> inception_3a/output_inception_3a/output_0_split_1
I0403 18:29:49.354110 22581 net.cpp:399] inception_3a/output_inception_3a/output_0_split -> inception_3a/output_inception_3a/output_0_split_2
I0403 18:29:49.354131 22581 net.cpp:399] inception_3a/output_inception_3a/output_0_split -> inception_3a/output_inception_3a/output_0_split_3
I0403 18:29:49.354203 22581 net.cpp:141] Setting up inception_3a/output_inception_3a/output_0_split
I0403 18:29:49.354225 22581 net.cpp:148] Top shape: 24 256 28 28 (4816896)
I0403 18:29:49.354241 22581 net.cpp:148] Top shape: 24 256 28 28 (4816896)
I0403 18:29:49.354256 22581 net.cpp:148] Top shape: 24 256 28 28 (4816896)
I0403 18:29:49.354271 22581 net.cpp:148] Top shape: 24 256 28 28 (4816896)
I0403 18:29:49.354284 22581 net.cpp:156] Memory required for data: 657507360
I0403 18:29:49.354297 22581 layer_factory.hpp:77] Creating layer inception_3b/1x1
I0403 18:29:49.354318 22581 net.cpp:91] Creating Layer inception_3b/1x1
I0403 18:29:49.354334 22581 net.cpp:425] inception_3b/1x1 <- inception_3a/output_inception_3a/output_0_split_0
I0403 18:29:49.354353 22581 net.cpp:399] inception_3b/1x1 -> inception_3b/1x1
I0403 18:29:49.355444 22581 net.cpp:141] Setting up inception_3b/1x1
I0403 18:29:49.355482 22581 net.cpp:148] Top shape: 24 128 28 28 (2408448)
I0403 18:29:49.355499 22581 net.cpp:156] Memory required for data: 667141152
I0403 18:29:49.355515 22581 layer_factory.hpp:77] Creating layer inception_3b/relu_1x1
I0403 18:29:49.355535 22581 net.cpp:91] Creating Layer inception_3b/relu_1x1
I0403 18:29:49.355556 22581 net.cpp:425] inception_3b/relu_1x1 <- inception_3b/1x1
I0403 18:29:49.355573 22581 net.cpp:386] inception_3b/relu_1x1 -> inception_3b/1x1 (in-place)
I0403 18:29:49.355741 22581 net.cpp:141] Setting up inception_3b/relu_1x1
I0403 18:29:49.355767 22581 net.cpp:148] Top shape: 24 128 28 28 (2408448)
I0403 18:29:49.355782 22581 net.cpp:156] Memory required for data: 676774944
I0403 18:29:49.355797 22581 layer_factory.hpp:77] Creating layer inception_3b/3x3_reduce
I0403 18:29:49.355815 22581 net.cpp:91] Creating Layer inception_3b/3x3_reduce
I0403 18:29:49.355831 22581 net.cpp:425] inception_3b/3x3_reduce <- inception_3a/output_inception_3a/output_0_split_1
I0403 18:29:49.355851 22581 net.cpp:399] inception_3b/3x3_reduce -> inception_3b/3x3_reduce
I0403 18:29:49.356933 22581 net.cpp:141] Setting up inception_3b/3x3_reduce
I0403 18:29:49.356961 22581 net.cpp:148] Top shape: 24 128 28 28 (2408448)
I0403 18:29:49.356976 22581 net.cpp:156] Memory required for data: 686408736
I0403 18:29:49.356992 22581 layer_factory.hpp:77] Creating layer inception_3b/relu_3x3_reduce
I0403 18:29:49.357012 22581 net.cpp:91] Creating Layer inception_3b/relu_3x3_reduce
I0403 18:29:49.357028 22581 net.cpp:425] inception_3b/relu_3x3_reduce <- inception_3b/3x3_reduce
I0403 18:29:49.357044 22581 net.cpp:386] inception_3b/relu_3x3_reduce -> inception_3b/3x3_reduce (in-place)
I0403 18:29:49.357209 22581 net.cpp:141] Setting up inception_3b/relu_3x3_reduce
I0403 18:29:49.357234 22581 net.cpp:148] Top shape: 24 128 28 28 (2408448)
I0403 18:29:49.357249 22581 net.cpp:156] Memory required for data: 696042528
I0403 18:29:49.357264 22581 layer_factory.hpp:77] Creating layer inception_3b/3x3
I0403 18:29:49.357290 22581 net.cpp:91] Creating Layer inception_3b/3x3
I0403 18:29:49.357306 22581 net.cpp:425] inception_3b/3x3 <- inception_3b/3x3_reduce
I0403 18:29:49.357326 22581 net.cpp:399] inception_3b/3x3 -> inception_3b/3x3
I0403 18:29:49.360116 22581 net.cpp:141] Setting up inception_3b/3x3
I0403 18:29:49.360144 22581 net.cpp:148] Top shape: 24 192 28 28 (3612672)
I0403 18:29:49.360162 22581 net.cpp:156] Memory required for data: 710493216
I0403 18:29:49.360180 22581 layer_factory.hpp:77] Creating layer inception_3b/relu_3x3
I0403 18:29:49.360198 22581 net.cpp:91] Creating Layer inception_3b/relu_3x3
I0403 18:29:49.360213 22581 net.cpp:425] inception_3b/relu_3x3 <- inception_3b/3x3
I0403 18:29:49.360229 22581 net.cpp:386] inception_3b/relu_3x3 -> inception_3b/3x3 (in-place)
I0403 18:29:49.360496 22581 net.cpp:141] Setting up inception_3b/relu_3x3
I0403 18:29:49.360522 22581 net.cpp:148] Top shape: 24 192 28 28 (3612672)
I0403 18:29:49.360544 22581 net.cpp:156] Memory required for data: 724943904
I0403 18:29:49.360560 22581 layer_factory.hpp:77] Creating layer inception_3b/5x5_reduce
I0403 18:29:49.360579 22581 net.cpp:91] Creating Layer inception_3b/5x5_reduce
I0403 18:29:49.360595 22581 net.cpp:425] inception_3b/5x5_reduce <- inception_3a/output_inception_3a/output_0_split_2
I0403 18:29:49.360615 22581 net.cpp:399] inception_3b/5x5_reduce -> inception_3b/5x5_reduce
I0403 18:29:49.361598 22581 net.cpp:141] Setting up inception_3b/5x5_reduce
I0403 18:29:49.361626 22581 net.cpp:148] Top shape: 24 32 28 28 (602112)
I0403 18:29:49.361641 22581 net.cpp:156] Memory required for data: 727352352
I0403 18:29:49.361659 22581 layer_factory.hpp:77] Creating layer inception_3b/relu_5x5_reduce
I0403 18:29:49.361677 22581 net.cpp:91] Creating Layer inception_3b/relu_5x5_reduce
I0403 18:29:49.361695 22581 net.cpp:425] inception_3b/relu_5x5_reduce <- inception_3b/5x5_reduce
I0403 18:29:49.361711 22581 net.cpp:386] inception_3b/relu_5x5_reduce -> inception_3b/5x5_reduce (in-place)
I0403 18:29:49.361893 22581 net.cpp:141] Setting up inception_3b/relu_5x5_reduce
I0403 18:29:49.361920 22581 net.cpp:148] Top shape: 24 32 28 28 (602112)
I0403 18:29:49.361937 22581 net.cpp:156] Memory required for data: 729760800
I0403 18:29:49.361950 22581 layer_factory.hpp:77] Creating layer inception_3b/5x5
I0403 18:29:49.361971 22581 net.cpp:91] Creating Layer inception_3b/5x5
I0403 18:29:49.361987 22581 net.cpp:425] inception_3b/5x5 <- inception_3b/5x5_reduce
I0403 18:29:49.362006 22581 net.cpp:399] inception_3b/5x5 -> inception_3b/5x5
I0403 18:29:49.363919 22581 net.cpp:141] Setting up inception_3b/5x5
I0403 18:29:49.363948 22581 net.cpp:148] Top shape: 24 96 28 28 (1806336)
I0403 18:29:49.363962 22581 net.cpp:156] Memory required for data: 736986144
I0403 18:29:49.363981 22581 layer_factory.hpp:77] Creating layer inception_3b/relu_5x5
I0403 18:29:49.363999 22581 net.cpp:91] Creating Layer inception_3b/relu_5x5
I0403 18:29:49.364017 22581 net.cpp:425] inception_3b/relu_5x5 <- inception_3b/5x5
I0403 18:29:49.364032 22581 net.cpp:386] inception_3b/relu_5x5 -> inception_3b/5x5 (in-place)
I0403 18:29:49.364217 22581 net.cpp:141] Setting up inception_3b/relu_5x5
I0403 18:29:49.364240 22581 net.cpp:148] Top shape: 24 96 28 28 (1806336)
I0403 18:29:49.364254 22581 net.cpp:156] Memory required for data: 744211488
I0403 18:29:49.364269 22581 layer_factory.hpp:77] Creating layer inception_3b/pool
I0403 18:29:49.364286 22581 net.cpp:91] Creating Layer inception_3b/pool
I0403 18:29:49.364301 22581 net.cpp:425] inception_3b/pool <- inception_3a/output_inception_3a/output_0_split_3
I0403 18:29:49.364318 22581 net.cpp:399] inception_3b/pool -> inception_3b/pool
I0403 18:29:49.364372 22581 net.cpp:141] Setting up inception_3b/pool
I0403 18:29:49.364393 22581 net.cpp:148] Top shape: 24 256 28 28 (4816896)
I0403 18:29:49.364408 22581 net.cpp:156] Memory required for data: 763479072
I0403 18:29:49.364421 22581 layer_factory.hpp:77] Creating layer inception_3b/pool_proj
I0403 18:29:49.364444 22581 net.cpp:91] Creating Layer inception_3b/pool_proj
I0403 18:29:49.364459 22581 net.cpp:425] inception_3b/pool_proj <- inception_3b/pool
I0403 18:29:49.364478 22581 net.cpp:399] inception_3b/pool_proj -> inception_3b/pool_proj
I0403 18:29:49.365501 22581 net.cpp:141] Setting up inception_3b/pool_proj
I0403 18:29:49.365530 22581 net.cpp:148] Top shape: 24 64 28 28 (1204224)
I0403 18:29:49.365551 22581 net.cpp:156] Memory required for data: 768295968
I0403 18:29:49.365571 22581 layer_factory.hpp:77] Creating layer inception_3b/relu_pool_proj
I0403 18:29:49.365588 22581 net.cpp:91] Creating Layer inception_3b/relu_pool_proj
I0403 18:29:49.365603 22581 net.cpp:425] inception_3b/relu_pool_proj <- inception_3b/pool_proj
I0403 18:29:49.365622 22581 net.cpp:386] inception_3b/relu_pool_proj -> inception_3b/pool_proj (in-place)
I0403 18:29:49.366003 22581 net.cpp:141] Setting up inception_3b/relu_pool_proj
I0403 18:29:49.366030 22581 net.cpp:148] Top shape: 24 64 28 28 (1204224)
I0403 18:29:49.366046 22581 net.cpp:156] Memory required for data: 773112864
I0403 18:29:49.366060 22581 layer_factory.hpp:77] Creating layer inception_3b/output
I0403 18:29:49.366076 22581 net.cpp:91] Creating Layer inception_3b/output
I0403 18:29:49.366091 22581 net.cpp:425] inception_3b/output <- inception_3b/1x1
I0403 18:29:49.366106 22581 net.cpp:425] inception_3b/output <- inception_3b/3x3
I0403 18:29:49.366122 22581 net.cpp:425] inception_3b/output <- inception_3b/5x5
I0403 18:29:49.366137 22581 net.cpp:425] inception_3b/output <- inception_3b/pool_proj
I0403 18:29:49.366153 22581 net.cpp:399] inception_3b/output -> inception_3b/output
I0403 18:29:49.366195 22581 net.cpp:141] Setting up inception_3b/output
I0403 18:29:49.366217 22581 net.cpp:148] Top shape: 24 480 28 28 (9031680)
I0403 18:29:49.366230 22581 net.cpp:156] Memory required for data: 809239584
I0403 18:29:49.366246 22581 layer_factory.hpp:77] Creating layer pool3/3x3_s2
I0403 18:29:49.366266 22581 net.cpp:91] Creating Layer pool3/3x3_s2
I0403 18:29:49.366281 22581 net.cpp:425] pool3/3x3_s2 <- inception_3b/output
I0403 18:29:49.366312 22581 net.cpp:399] pool3/3x3_s2 -> pool3/3x3_s2
I0403 18:29:49.366369 22581 net.cpp:141] Setting up pool3/3x3_s2
I0403 18:29:49.366392 22581 net.cpp:148] Top shape: 24 480 14 14 (2257920)
I0403 18:29:49.366405 22581 net.cpp:156] Memory required for data: 818271264
I0403 18:29:49.366420 22581 layer_factory.hpp:77] Creating layer pool3/3x3_s2_pool3/3x3_s2_0_split
I0403 18:29:49.366435 22581 net.cpp:91] Creating Layer pool3/3x3_s2_pool3/3x3_s2_0_split
I0403 18:29:49.366449 22581 net.cpp:425] pool3/3x3_s2_pool3/3x3_s2_0_split <- pool3/3x3_s2
I0403 18:29:49.366467 22581 net.cpp:399] pool3/3x3_s2_pool3/3x3_s2_0_split -> pool3/3x3_s2_pool3/3x3_s2_0_split_0
I0403 18:29:49.366487 22581 net.cpp:399] pool3/3x3_s2_pool3/3x3_s2_0_split -> pool3/3x3_s2_pool3/3x3_s2_0_split_1
I0403 18:29:49.366505 22581 net.cpp:399] pool3/3x3_s2_pool3/3x3_s2_0_split -> pool3/3x3_s2_pool3/3x3_s2_0_split_2
I0403 18:29:49.366523 22581 net.cpp:399] pool3/3x3_s2_pool3/3x3_s2_0_split -> pool3/3x3_s2_pool3/3x3_s2_0_split_3
I0403 18:29:49.366610 22581 net.cpp:141] Setting up pool3/3x3_s2_pool3/3x3_s2_0_split
I0403 18:29:49.366633 22581 net.cpp:148] Top shape: 24 480 14 14 (2257920)
I0403 18:29:49.366649 22581 net.cpp:148] Top shape: 24 480 14 14 (2257920)
I0403 18:29:49.366663 22581 net.cpp:148] Top shape: 24 480 14 14 (2257920)
I0403 18:29:49.366677 22581 net.cpp:148] Top shape: 24 480 14 14 (2257920)
I0403 18:29:49.366689 22581 net.cpp:156] Memory required for data: 854397984
I0403 18:29:49.366703 22581 layer_factory.hpp:77] Creating layer inception_4a/1x1
I0403 18:29:49.366725 22581 net.cpp:91] Creating Layer inception_4a/1x1
I0403 18:29:49.366741 22581 net.cpp:425] inception_4a/1x1 <- pool3/3x3_s2_pool3/3x3_s2_0_split_0
I0403 18:29:49.366758 22581 net.cpp:399] inception_4a/1x1 -> inception_4a/1x1
I0403 18:29:49.368263 22581 net.cpp:141] Setting up inception_4a/1x1
I0403 18:29:49.368289 22581 net.cpp:148] Top shape: 24 192 14 14 (903168)
I0403 18:29:49.368304 22581 net.cpp:156] Memory required for data: 858010656
I0403 18:29:49.368322 22581 layer_factory.hpp:77] Creating layer inception_4a/relu_1x1
I0403 18:29:49.368340 22581 net.cpp:91] Creating Layer inception_4a/relu_1x1
I0403 18:29:49.368355 22581 net.cpp:425] inception_4a/relu_1x1 <- inception_4a/1x1
I0403 18:29:49.368384 22581 net.cpp:386] inception_4a/relu_1x1 -> inception_4a/1x1 (in-place)
I0403 18:29:49.368551 22581 net.cpp:141] Setting up inception_4a/relu_1x1
I0403 18:29:49.368576 22581 net.cpp:148] Top shape: 24 192 14 14 (903168)
I0403 18:29:49.368589 22581 net.cpp:156] Memory required for data: 861623328
I0403 18:29:49.368602 22581 layer_factory.hpp:77] Creating layer inception_4a/3x3_reduce
I0403 18:29:49.368623 22581 net.cpp:91] Creating Layer inception_4a/3x3_reduce
I0403 18:29:49.368639 22581 net.cpp:425] inception_4a/3x3_reduce <- pool3/3x3_s2_pool3/3x3_s2_0_split_1
I0403 18:29:49.368659 22581 net.cpp:399] inception_4a/3x3_reduce -> inception_4a/3x3_reduce
I0403 18:29:49.369842 22581 net.cpp:141] Setting up inception_4a/3x3_reduce
I0403 18:29:49.369868 22581 net.cpp:148] Top shape: 24 96 14 14 (451584)
I0403 18:29:49.369881 22581 net.cpp:156] Memory required for data: 863429664
I0403 18:29:49.369905 22581 layer_factory.hpp:77] Creating layer inception_4a/relu_3x3_reduce
I0403 18:29:49.369922 22581 net.cpp:91] Creating Layer inception_4a/relu_3x3_reduce
I0403 18:29:49.369937 22581 net.cpp:425] inception_4a/relu_3x3_reduce <- inception_4a/3x3_reduce
I0403 18:29:49.369956 22581 net.cpp:386] inception_4a/relu_3x3_reduce -> inception_4a/3x3_reduce (in-place)
I0403 18:29:49.370123 22581 net.cpp:141] Setting up inception_4a/relu_3x3_reduce
I0403 18:29:49.370146 22581 net.cpp:148] Top shape: 24 96 14 14 (451584)
I0403 18:29:49.370162 22581 net.cpp:156] Memory required for data: 865236000
I0403 18:29:49.370175 22581 layer_factory.hpp:77] Creating layer inception_4a/3x3
I0403 18:29:49.370196 22581 net.cpp:91] Creating Layer inception_4a/3x3
I0403 18:29:49.370213 22581 net.cpp:425] inception_4a/3x3 <- inception_4a/3x3_reduce
I0403 18:29:49.370231 22581 net.cpp:399] inception_4a/3x3 -> inception_4a/3x3
I0403 18:29:49.372756 22581 net.cpp:141] Setting up inception_4a/3x3
I0403 18:29:49.372783 22581 net.cpp:148] Top shape: 24 208 14 14 (978432)
I0403 18:29:49.372798 22581 net.cpp:156] Memory required for data: 869149728
I0403 18:29:49.372814 22581 layer_factory.hpp:77] Creating layer inception_4a/relu_3x3
I0403 18:29:49.372834 22581 net.cpp:91] Creating Layer inception_4a/relu_3x3
I0403 18:29:49.372850 22581 net.cpp:425] inception_4a/relu_3x3 <- inception_4a/3x3
I0403 18:29:49.372865 22581 net.cpp:386] inception_4a/relu_3x3 -> inception_4a/3x3 (in-place)
I0403 18:29:49.373124 22581 net.cpp:141] Setting up inception_4a/relu_3x3
I0403 18:29:49.373149 22581 net.cpp:148] Top shape: 24 208 14 14 (978432)
I0403 18:29:49.373164 22581 net.cpp:156] Memory required for data: 873063456
I0403 18:29:49.373178 22581 layer_factory.hpp:77] Creating layer inception_4a/5x5_reduce
I0403 18:29:49.373198 22581 net.cpp:91] Creating Layer inception_4a/5x5_reduce
I0403 18:29:49.373214 22581 net.cpp:425] inception_4a/5x5_reduce <- pool3/3x3_s2_pool3/3x3_s2_0_split_2
I0403 18:29:49.373234 22581 net.cpp:399] inception_4a/5x5_reduce -> inception_4a/5x5_reduce
I0403 18:29:49.374182 22581 net.cpp:141] Setting up inception_4a/5x5_reduce
I0403 18:29:49.374208 22581 net.cpp:148] Top shape: 24 16 14 14 (75264)
I0403 18:29:49.374223 22581 net.cpp:156] Memory required for data: 873364512
I0403 18:29:49.374239 22581 layer_factory.hpp:77] Creating layer inception_4a/relu_5x5_reduce
I0403 18:29:49.374259 22581 net.cpp:91] Creating Layer inception_4a/relu_5x5_reduce
I0403 18:29:49.374275 22581 net.cpp:425] inception_4a/relu_5x5_reduce <- inception_4a/5x5_reduce
I0403 18:29:49.374290 22581 net.cpp:386] inception_4a/relu_5x5_reduce -> inception_4a/5x5_reduce (in-place)
I0403 18:29:49.374456 22581 net.cpp:141] Setting up inception_4a/relu_5x5_reduce
I0403 18:29:49.374482 22581 net.cpp:148] Top shape: 24 16 14 14 (75264)
I0403 18:29:49.374497 22581 net.cpp:156] Memory required for data: 873665568
I0403 18:29:49.374511 22581 layer_factory.hpp:77] Creating layer inception_4a/5x5
I0403 18:29:49.374532 22581 net.cpp:91] Creating Layer inception_4a/5x5
I0403 18:29:49.374559 22581 net.cpp:425] inception_4a/5x5 <- inception_4a/5x5_reduce
I0403 18:29:49.374578 22581 net.cpp:399] inception_4a/5x5 -> inception_4a/5x5
I0403 18:29:49.375583 22581 net.cpp:141] Setting up inception_4a/5x5
I0403 18:29:49.375612 22581 net.cpp:148] Top shape: 24 48 14 14 (225792)
I0403 18:29:49.375627 22581 net.cpp:156] Memory required for data: 874568736
I0403 18:29:49.375643 22581 layer_factory.hpp:77] Creating layer inception_4a/relu_5x5
I0403 18:29:49.375660 22581 net.cpp:91] Creating Layer inception_4a/relu_5x5
I0403 18:29:49.375676 22581 net.cpp:425] inception_4a/relu_5x5 <- inception_4a/5x5
I0403 18:29:49.375694 22581 net.cpp:386] inception_4a/relu_5x5 -> inception_4a/5x5 (in-place)
I0403 18:29:49.375860 22581 net.cpp:141] Setting up inception_4a/relu_5x5
I0403 18:29:49.375885 22581 net.cpp:148] Top shape: 24 48 14 14 (225792)
I0403 18:29:49.375898 22581 net.cpp:156] Memory required for data: 875471904
I0403 18:29:49.375912 22581 layer_factory.hpp:77] Creating layer inception_4a/pool
I0403 18:29:49.375928 22581 net.cpp:91] Creating Layer inception_4a/pool
I0403 18:29:49.375943 22581 net.cpp:425] inception_4a/pool <- pool3/3x3_s2_pool3/3x3_s2_0_split_3
I0403 18:29:49.375962 22581 net.cpp:399] inception_4a/pool -> inception_4a/pool
I0403 18:29:49.376018 22581 net.cpp:141] Setting up inception_4a/pool
I0403 18:29:49.376041 22581 net.cpp:148] Top shape: 24 480 14 14 (2257920)
I0403 18:29:49.376055 22581 net.cpp:156] Memory required for data: 884503584
I0403 18:29:49.376067 22581 layer_factory.hpp:77] Creating layer inception_4a/pool_proj
I0403 18:29:49.376087 22581 net.cpp:91] Creating Layer inception_4a/pool_proj
I0403 18:29:49.376103 22581 net.cpp:425] inception_4a/pool_proj <- inception_4a/pool
I0403 18:29:49.376126 22581 net.cpp:399] inception_4a/pool_proj -> inception_4a/pool_proj
I0403 18:29:49.377200 22581 net.cpp:141] Setting up inception_4a/pool_proj
I0403 18:29:49.377228 22581 net.cpp:148] Top shape: 24 64 14 14 (301056)
I0403 18:29:49.377256 22581 net.cpp:156] Memory required for data: 885707808
I0403 18:29:49.377275 22581 layer_factory.hpp:77] Creating layer inception_4a/relu_pool_proj
I0403 18:29:49.377292 22581 net.cpp:91] Creating Layer inception_4a/relu_pool_proj
I0403 18:29:49.377306 22581 net.cpp:425] inception_4a/relu_pool_proj <- inception_4a/pool_proj
I0403 18:29:49.377326 22581 net.cpp:386] inception_4a/relu_pool_proj -> inception_4a/pool_proj (in-place)
I0403 18:29:49.377594 22581 net.cpp:141] Setting up inception_4a/relu_pool_proj
I0403 18:29:49.377619 22581 net.cpp:148] Top shape: 24 64 14 14 (301056)
I0403 18:29:49.377632 22581 net.cpp:156] Memory required for data: 886912032
I0403 18:29:49.377646 22581 layer_factory.hpp:77] Creating layer inception_4a/output
I0403 18:29:49.377662 22581 net.cpp:91] Creating Layer inception_4a/output
I0403 18:29:49.377676 22581 net.cpp:425] inception_4a/output <- inception_4a/1x1
I0403 18:29:49.377691 22581 net.cpp:425] inception_4a/output <- inception_4a/3x3
I0403 18:29:49.377706 22581 net.cpp:425] inception_4a/output <- inception_4a/5x5
I0403 18:29:49.377719 22581 net.cpp:425] inception_4a/output <- inception_4a/pool_proj
I0403 18:29:49.377737 22581 net.cpp:399] inception_4a/output -> inception_4a/output
I0403 18:29:49.377779 22581 net.cpp:141] Setting up inception_4a/output
I0403 18:29:49.377801 22581 net.cpp:148] Top shape: 24 512 14 14 (2408448)
I0403 18:29:49.377816 22581 net.cpp:156] Memory required for data: 896545824
I0403 18:29:49.377830 22581 layer_factory.hpp:77] Creating layer inception_4a/output_inception_4a/output_0_split
I0403 18:29:49.377846 22581 net.cpp:91] Creating Layer inception_4a/output_inception_4a/output_0_split
I0403 18:29:49.377861 22581 net.cpp:425] inception_4a/output_inception_4a/output_0_split <- inception_4a/output
I0403 18:29:49.377876 22581 net.cpp:399] inception_4a/output_inception_4a/output_0_split -> inception_4a/output_inception_4a/output_0_split_0
I0403 18:29:49.377897 22581 net.cpp:399] inception_4a/output_inception_4a/output_0_split -> inception_4a/output_inception_4a/output_0_split_1
I0403 18:29:49.377918 22581 net.cpp:399] inception_4a/output_inception_4a/output_0_split -> inception_4a/output_inception_4a/output_0_split_2
I0403 18:29:49.377936 22581 net.cpp:399] inception_4a/output_inception_4a/output_0_split -> inception_4a/output_inception_4a/output_0_split_3
I0403 18:29:49.377955 22581 net.cpp:399] inception_4a/output_inception_4a/output_0_split -> inception_4a/output_inception_4a/output_0_split_4
I0403 18:29:49.378041 22581 net.cpp:141] Setting up inception_4a/output_inception_4a/output_0_split
I0403 18:29:49.378063 22581 net.cpp:148] Top shape: 24 512 14 14 (2408448)
I0403 18:29:49.378078 22581 net.cpp:148] Top shape: 24 512 14 14 (2408448)
I0403 18:29:49.378093 22581 net.cpp:148] Top shape: 24 512 14 14 (2408448)
I0403 18:29:49.378106 22581 net.cpp:148] Top shape: 24 512 14 14 (2408448)
I0403 18:29:49.378119 22581 net.cpp:148] Top shape: 24 512 14 14 (2408448)
I0403 18:29:49.378132 22581 net.cpp:156] Memory required for data: 944714784
I0403 18:29:49.378145 22581 layer_factory.hpp:77] Creating layer loss1/ave_pool
I0403 18:29:49.378164 22581 net.cpp:91] Creating Layer loss1/ave_pool
I0403 18:29:49.378178 22581 net.cpp:425] loss1/ave_pool <- inception_4a/output_inception_4a/output_0_split_0
I0403 18:29:49.378195 22581 net.cpp:399] loss1/ave_pool -> loss1/ave_pool
I0403 18:29:49.378384 22581 net.cpp:141] Setting up loss1/ave_pool
I0403 18:29:49.378410 22581 net.cpp:148] Top shape: 24 512 4 4 (196608)
I0403 18:29:49.378424 22581 net.cpp:156] Memory required for data: 945501216
I0403 18:29:49.378438 22581 layer_factory.hpp:77] Creating layer loss1/conv
I0403 18:29:49.378459 22581 net.cpp:91] Creating Layer loss1/conv
I0403 18:29:49.378475 22581 net.cpp:425] loss1/conv <- loss1/ave_pool
I0403 18:29:49.378494 22581 net.cpp:399] loss1/conv -> loss1/conv
I0403 18:29:49.379868 22581 net.cpp:141] Setting up loss1/conv
I0403 18:29:49.379894 22581 net.cpp:148] Top shape: 24 128 4 4 (49152)
I0403 18:29:49.379923 22581 net.cpp:156] Memory required for data: 945697824
I0403 18:29:49.379941 22581 layer_factory.hpp:77] Creating layer loss1/relu_conv
I0403 18:29:49.379964 22581 net.cpp:91] Creating Layer loss1/relu_conv
I0403 18:29:49.379981 22581 net.cpp:425] loss1/relu_conv <- loss1/conv
I0403 18:29:49.379997 22581 net.cpp:386] loss1/relu_conv -> loss1/conv (in-place)
I0403 18:29:49.380275 22581 net.cpp:141] Setting up loss1/relu_conv
I0403 18:29:49.380300 22581 net.cpp:148] Top shape: 24 128 4 4 (49152)
I0403 18:29:49.380316 22581 net.cpp:156] Memory required for data: 945894432
I0403 18:29:49.380329 22581 layer_factory.hpp:77] Creating layer loss1/fc
I0403 18:29:49.380353 22581 net.cpp:91] Creating Layer loss1/fc
I0403 18:29:49.380372 22581 net.cpp:425] loss1/fc <- loss1/conv
I0403 18:29:49.380388 22581 net.cpp:399] loss1/fc -> loss1/fc
I0403 18:29:49.397617 22581 net.cpp:141] Setting up loss1/fc
I0403 18:29:49.397649 22581 net.cpp:148] Top shape: 24 1024 (24576)
I0403 18:29:49.397662 22581 net.cpp:156] Memory required for data: 945992736
I0403 18:29:49.397680 22581 layer_factory.hpp:77] Creating layer loss1/relu_fc
I0403 18:29:49.397696 22581 net.cpp:91] Creating Layer loss1/relu_fc
I0403 18:29:49.397711 22581 net.cpp:425] loss1/relu_fc <- loss1/fc
I0403 18:29:49.397729 22581 net.cpp:386] loss1/relu_fc -> loss1/fc (in-place)
I0403 18:29:49.397903 22581 net.cpp:141] Setting up loss1/relu_fc
I0403 18:29:49.397927 22581 net.cpp:148] Top shape: 24 1024 (24576)
I0403 18:29:49.397941 22581 net.cpp:156] Memory required for data: 946091040
I0403 18:29:49.397955 22581 layer_factory.hpp:77] Creating layer loss1/drop_fc
I0403 18:29:49.397980 22581 net.cpp:91] Creating Layer loss1/drop_fc
I0403 18:29:49.397996 22581 net.cpp:425] loss1/drop_fc <- loss1/fc
I0403 18:29:49.398013 22581 net.cpp:386] loss1/drop_fc -> loss1/fc (in-place)
I0403 18:29:49.398058 22581 net.cpp:141] Setting up loss1/drop_fc
I0403 18:29:49.398083 22581 net.cpp:148] Top shape: 24 1024 (24576)
I0403 18:29:49.398098 22581 net.cpp:156] Memory required for data: 946189344
I0403 18:29:49.398113 22581 layer_factory.hpp:77] Creating layer loss1/classifier_plantvillage
I0403 18:29:49.398129 22581 net.cpp:91] Creating Layer loss1/classifier_plantvillage
I0403 18:29:49.398144 22581 net.cpp:425] loss1/classifier_plantvillage <- loss1/fc
I0403 18:29:49.398162 22581 net.cpp:399] loss1/classifier_plantvillage -> loss1/classifier_plantvillage
I0403 18:29:49.399029 22581 net.cpp:141] Setting up loss1/classifier_plantvillage
I0403 18:29:49.399055 22581 net.cpp:148] Top shape: 24 38 (912)
I0403 18:29:49.399070 22581 net.cpp:156] Memory required for data: 946192992
I0403 18:29:49.399086 22581 layer_factory.hpp:77] Creating layer loss1/classifier_plantvillage_loss1/classifier_plantvillage_0_split
I0403 18:29:49.399103 22581 net.cpp:91] Creating Layer loss1/classifier_plantvillage_loss1/classifier_plantvillage_0_split
I0403 18:29:49.399121 22581 net.cpp:425] loss1/classifier_plantvillage_loss1/classifier_plantvillage_0_split <- loss1/classifier_plantvillage
I0403 18:29:49.399137 22581 net.cpp:399] loss1/classifier_plantvillage_loss1/classifier_plantvillage_0_split -> loss1/classifier_plantvillage_loss1/classifier_plantvillage_0_split_0
I0403 18:29:49.399155 22581 net.cpp:399] loss1/classifier_plantvillage_loss1/classifier_plantvillage_0_split -> loss1/classifier_plantvillage_loss1/classifier_plantvillage_0_split_1
I0403 18:29:49.399173 22581 net.cpp:399] loss1/classifier_plantvillage_loss1/classifier_plantvillage_0_split -> loss1/classifier_plantvillage_loss1/classifier_plantvillage_0_split_2
I0403 18:29:49.399235 22581 net.cpp:141] Setting up loss1/classifier_plantvillage_loss1/classifier_plantvillage_0_split
I0403 18:29:49.399258 22581 net.cpp:148] Top shape: 24 38 (912)
I0403 18:29:49.399274 22581 net.cpp:148] Top shape: 24 38 (912)
I0403 18:29:49.399289 22581 net.cpp:148] Top shape: 24 38 (912)
I0403 18:29:49.399302 22581 net.cpp:156] Memory required for data: 946203936
I0403 18:29:49.399315 22581 layer_factory.hpp:77] Creating layer inception_4b/1x1
I0403 18:29:49.399334 22581 net.cpp:91] Creating Layer inception_4b/1x1
I0403 18:29:49.399365 22581 net.cpp:425] inception_4b/1x1 <- inception_4a/output_inception_4a/output_0_split_1
I0403 18:29:49.399385 22581 net.cpp:399] inception_4b/1x1 -> inception_4b/1x1
I0403 18:29:49.400920 22581 net.cpp:141] Setting up inception_4b/1x1
I0403 18:29:49.400948 22581 net.cpp:148] Top shape: 24 160 14 14 (752640)
I0403 18:29:49.400962 22581 net.cpp:156] Memory required for data: 949214496
I0403 18:29:49.400979 22581 layer_factory.hpp:77] Creating layer inception_4b/relu_1x1
I0403 18:29:49.400998 22581 net.cpp:91] Creating Layer inception_4b/relu_1x1
I0403 18:29:49.401015 22581 net.cpp:425] inception_4b/relu_1x1 <- inception_4b/1x1
I0403 18:29:49.401031 22581 net.cpp:386] inception_4b/relu_1x1 -> inception_4b/1x1 (in-place)
I0403 18:29:49.401196 22581 net.cpp:141] Setting up inception_4b/relu_1x1
I0403 18:29:49.401222 22581 net.cpp:148] Top shape: 24 160 14 14 (752640)
I0403 18:29:49.401237 22581 net.cpp:156] Memory required for data: 952225056
I0403 18:29:49.401252 22581 layer_factory.hpp:77] Creating layer inception_4b/3x3_reduce
I0403 18:29:49.401273 22581 net.cpp:91] Creating Layer inception_4b/3x3_reduce
I0403 18:29:49.401289 22581 net.cpp:425] inception_4b/3x3_reduce <- inception_4a/output_inception_4a/output_0_split_2
I0403 18:29:49.401306 22581 net.cpp:399] inception_4b/3x3_reduce -> inception_4b/3x3_reduce
I0403 18:29:49.402568 22581 net.cpp:141] Setting up inception_4b/3x3_reduce
I0403 18:29:49.402595 22581 net.cpp:148] Top shape: 24 112 14 14 (526848)
I0403 18:29:49.402609 22581 net.cpp:156] Memory required for data: 954332448
I0403 18:29:49.402631 22581 layer_factory.hpp:77] Creating layer inception_4b/relu_3x3_reduce
I0403 18:29:49.402648 22581 net.cpp:91] Creating Layer inception_4b/relu_3x3_reduce
I0403 18:29:49.402663 22581 net.cpp:425] inception_4b/relu_3x3_reduce <- inception_4b/3x3_reduce
I0403 18:29:49.402679 22581 net.cpp:386] inception_4b/relu_3x3_reduce -> inception_4b/3x3_reduce (in-place)
I0403 18:29:49.402950 22581 net.cpp:141] Setting up inception_4b/relu_3x3_reduce
I0403 18:29:49.402976 22581 net.cpp:148] Top shape: 24 112 14 14 (526848)
I0403 18:29:49.402990 22581 net.cpp:156] Memory required for data: 956439840
I0403 18:29:49.403004 22581 layer_factory.hpp:77] Creating layer inception_4b/3x3
I0403 18:29:49.403025 22581 net.cpp:91] Creating Layer inception_4b/3x3
I0403 18:29:49.403040 22581 net.cpp:425] inception_4b/3x3 <- inception_4b/3x3_reduce
I0403 18:29:49.403058 22581 net.cpp:399] inception_4b/3x3 -> inception_4b/3x3
I0403 18:29:49.405870 22581 net.cpp:141] Setting up inception_4b/3x3
I0403 18:29:49.405899 22581 net.cpp:148] Top shape: 24 224 14 14 (1053696)
I0403 18:29:49.405913 22581 net.cpp:156] Memory required for data: 960654624
I0403 18:29:49.405931 22581 layer_factory.hpp:77] Creating layer inception_4b/relu_3x3
I0403 18:29:49.405948 22581 net.cpp:91] Creating Layer inception_4b/relu_3x3
I0403 18:29:49.405966 22581 net.cpp:425] inception_4b/relu_3x3 <- inception_4b/3x3
I0403 18:29:49.405982 22581 net.cpp:386] inception_4b/relu_3x3 -> inception_4b/3x3 (in-place)
I0403 18:29:49.406148 22581 net.cpp:141] Setting up inception_4b/relu_3x3
I0403 18:29:49.406173 22581 net.cpp:148] Top shape: 24 224 14 14 (1053696)
I0403 18:29:49.406186 22581 net.cpp:156] Memory required for data: 964869408
I0403 18:29:49.406200 22581 layer_factory.hpp:77] Creating layer inception_4b/5x5_reduce
I0403 18:29:49.406220 22581 net.cpp:91] Creating Layer inception_4b/5x5_reduce
I0403 18:29:49.406236 22581 net.cpp:425] inception_4b/5x5_reduce <- inception_4a/output_inception_4a/output_0_split_3
I0403 18:29:49.406257 22581 net.cpp:399] inception_4b/5x5_reduce -> inception_4b/5x5_reduce
I0403 18:29:49.407271 22581 net.cpp:141] Setting up inception_4b/5x5_reduce
I0403 18:29:49.407297 22581 net.cpp:148] Top shape: 24 24 14 14 (112896)
I0403 18:29:49.407313 22581 net.cpp:156] Memory required for data: 965320992
I0403 18:29:49.407330 22581 layer_factory.hpp:77] Creating layer inception_4b/relu_5x5_reduce
I0403 18:29:49.407348 22581 net.cpp:91] Creating Layer inception_4b/relu_5x5_reduce
I0403 18:29:49.407377 22581 net.cpp:425] inception_4b/relu_5x5_reduce <- inception_4b/5x5_reduce
I0403 18:29:49.407394 22581 net.cpp:386] inception_4b/relu_5x5_reduce -> inception_4b/5x5_reduce (in-place)
I0403 18:29:49.407573 22581 net.cpp:141] Setting up inception_4b/relu_5x5_reduce
I0403 18:29:49.407598 22581 net.cpp:148] Top shape: 24 24 14 14 (112896)
I0403 18:29:49.407611 22581 net.cpp:156] Memory required for data: 965772576
I0403 18:29:49.407625 22581 layer_factory.hpp:77] Creating layer inception_4b/5x5
I0403 18:29:49.407645 22581 net.cpp:91] Creating Layer inception_4b/5x5
I0403 18:29:49.407662 22581 net.cpp:425] inception_4b/5x5 <- inception_4b/5x5_reduce
I0403 18:29:49.407682 22581 net.cpp:399] inception_4b/5x5 -> inception_4b/5x5
I0403 18:29:49.408840 22581 net.cpp:141] Setting up inception_4b/5x5
I0403 18:29:49.408866 22581 net.cpp:148] Top shape: 24 64 14 14 (301056)
I0403 18:29:49.408881 22581 net.cpp:156] Memory required for data: 966976800
I0403 18:29:49.408898 22581 layer_factory.hpp:77] Creating layer inception_4b/relu_5x5
I0403 18:29:49.408917 22581 net.cpp:91] Creating Layer inception_4b/relu_5x5
I0403 18:29:49.408933 22581 net.cpp:425] inception_4b/relu_5x5 <- inception_4b/5x5
I0403 18:29:49.408948 22581 net.cpp:386] inception_4b/relu_5x5 -> inception_4b/5x5 (in-place)
I0403 18:29:49.409220 22581 net.cpp:141] Setting up inception_4b/relu_5x5
I0403 18:29:49.409245 22581 net.cpp:148] Top shape: 24 64 14 14 (301056)
I0403 18:29:49.409262 22581 net.cpp:156] Memory required for data: 968181024
I0403 18:29:49.409276 22581 layer_factory.hpp:77] Creating layer inception_4b/pool
I0403 18:29:49.409296 22581 net.cpp:91] Creating Layer inception_4b/pool
I0403 18:29:49.409312 22581 net.cpp:425] inception_4b/pool <- inception_4a/output_inception_4a/output_0_split_4
I0403 18:29:49.409327 22581 net.cpp:399] inception_4b/pool -> inception_4b/pool
I0403 18:29:49.409387 22581 net.cpp:141] Setting up inception_4b/pool
I0403 18:29:49.409409 22581 net.cpp:148] Top shape: 24 512 14 14 (2408448)
I0403 18:29:49.409422 22581 net.cpp:156] Memory required for data: 977814816
I0403 18:29:49.409435 22581 layer_factory.hpp:77] Creating layer inception_4b/pool_proj
I0403 18:29:49.409456 22581 net.cpp:91] Creating Layer inception_4b/pool_proj
I0403 18:29:49.409472 22581 net.cpp:425] inception_4b/pool_proj <- inception_4b/pool
I0403 18:29:49.409492 22581 net.cpp:399] inception_4b/pool_proj -> inception_4b/pool_proj
I0403 18:29:49.410634 22581 net.cpp:141] Setting up inception_4b/pool_proj
I0403 18:29:49.410660 22581 net.cpp:148] Top shape: 24 64 14 14 (301056)
I0403 18:29:49.410676 22581 net.cpp:156] Memory required for data: 979019040
I0403 18:29:49.410692 22581 layer_factory.hpp:77] Creating layer inception_4b/relu_pool_proj
I0403 18:29:49.410713 22581 net.cpp:91] Creating Layer inception_4b/relu_pool_proj
I0403 18:29:49.410729 22581 net.cpp:425] inception_4b/relu_pool_proj <- inception_4b/pool_proj
I0403 18:29:49.410744 22581 net.cpp:386] inception_4b/relu_pool_proj -> inception_4b/pool_proj (in-place)
I0403 18:29:49.410914 22581 net.cpp:141] Setting up inception_4b/relu_pool_proj
I0403 18:29:49.410940 22581 net.cpp:148] Top shape: 24 64 14 14 (301056)
I0403 18:29:49.410954 22581 net.cpp:156] Memory required for data: 980223264
I0403 18:29:49.410969 22581 layer_factory.hpp:77] Creating layer inception_4b/output
I0403 18:29:49.410984 22581 net.cpp:91] Creating Layer inception_4b/output
I0403 18:29:49.410998 22581 net.cpp:425] inception_4b/output <- inception_4b/1x1
I0403 18:29:49.411012 22581 net.cpp:425] inception_4b/output <- inception_4b/3x3
I0403 18:29:49.411026 22581 net.cpp:425] inception_4b/output <- inception_4b/5x5
I0403 18:29:49.411041 22581 net.cpp:425] inception_4b/output <- inception_4b/pool_proj
I0403 18:29:49.411059 22581 net.cpp:399] inception_4b/output -> inception_4b/output
I0403 18:29:49.411101 22581 net.cpp:141] Setting up inception_4b/output
I0403 18:29:49.411123 22581 net.cpp:148] Top shape: 24 512 14 14 (2408448)
I0403 18:29:49.411136 22581 net.cpp:156] Memory required for data: 989857056
I0403 18:29:49.411164 22581 layer_factory.hpp:77] Creating layer inception_4b/output_inception_4b/output_0_split
I0403 18:29:49.411183 22581 net.cpp:91] Creating Layer inception_4b/output_inception_4b/output_0_split
I0403 18:29:49.411198 22581 net.cpp:425] inception_4b/output_inception_4b/output_0_split <- inception_4b/output
I0403 18:29:49.411216 22581 net.cpp:399] inception_4b/output_inception_4b/output_0_split -> inception_4b/output_inception_4b/output_0_split_0
I0403 18:29:49.411233 22581 net.cpp:399] inception_4b/output_inception_4b/output_0_split -> inception_4b/output_inception_4b/output_0_split_1
I0403 18:29:49.411254 22581 net.cpp:399] inception_4b/output_inception_4b/output_0_split -> inception_4b/output_inception_4b/output_0_split_2
I0403 18:29:49.411274 22581 net.cpp:399] inception_4b/output_inception_4b/output_0_split -> inception_4b/output_inception_4b/output_0_split_3
I0403 18:29:49.411351 22581 net.cpp:141] Setting up inception_4b/output_inception_4b/output_0_split
I0403 18:29:49.411373 22581 net.cpp:148] Top shape: 24 512 14 14 (2408448)
I0403 18:29:49.411388 22581 net.cpp:148] Top shape: 24 512 14 14 (2408448)
I0403 18:29:49.411402 22581 net.cpp:148] Top shape: 24 512 14 14 (2408448)
I0403 18:29:49.411415 22581 net.cpp:148] Top shape: 24 512 14 14 (2408448)
I0403 18:29:49.411428 22581 net.cpp:156] Memory required for data: 1028392224
I0403 18:29:49.411442 22581 layer_factory.hpp:77] Creating layer inception_4c/1x1
I0403 18:29:49.411461 22581 net.cpp:91] Creating Layer inception_4c/1x1
I0403 18:29:49.411478 22581 net.cpp:425] inception_4c/1x1 <- inception_4b/output_inception_4b/output_0_split_0
I0403 18:29:49.411496 22581 net.cpp:399] inception_4c/1x1 -> inception_4c/1x1
I0403 18:29:49.412844 22581 net.cpp:141] Setting up inception_4c/1x1
I0403 18:29:49.412874 22581 net.cpp:148] Top shape: 24 128 14 14 (602112)
I0403 18:29:49.412890 22581 net.cpp:156] Memory required for data: 1030800672
I0403 18:29:49.412907 22581 layer_factory.hpp:77] Creating layer inception_4c/relu_1x1
I0403 18:29:49.412925 22581 net.cpp:91] Creating Layer inception_4c/relu_1x1
I0403 18:29:49.412940 22581 net.cpp:425] inception_4c/relu_1x1 <- inception_4c/1x1
I0403 18:29:49.412957 22581 net.cpp:386] inception_4c/relu_1x1 -> inception_4c/1x1 (in-place)
I0403 18:29:49.413130 22581 net.cpp:141] Setting up inception_4c/relu_1x1
I0403 18:29:49.413153 22581 net.cpp:148] Top shape: 24 128 14 14 (602112)
I0403 18:29:49.413168 22581 net.cpp:156] Memory required for data: 1033209120
I0403 18:29:49.413182 22581 layer_factory.hpp:77] Creating layer inception_4c/3x3_reduce
I0403 18:29:49.413203 22581 net.cpp:91] Creating Layer inception_4c/3x3_reduce
I0403 18:29:49.413219 22581 net.cpp:425] inception_4c/3x3_reduce <- inception_4b/output_inception_4b/output_0_split_1
I0403 18:29:49.413239 22581 net.cpp:399] inception_4c/3x3_reduce -> inception_4c/3x3_reduce
I0403 18:29:49.415079 22581 net.cpp:141] Setting up inception_4c/3x3_reduce
I0403 18:29:49.415108 22581 net.cpp:148] Top shape: 24 128 14 14 (602112)
I0403 18:29:49.415123 22581 net.cpp:156] Memory required for data: 1035617568
I0403 18:29:49.415140 22581 layer_factory.hpp:77] Creating layer inception_4c/relu_3x3_reduce
I0403 18:29:49.415159 22581 net.cpp:91] Creating Layer inception_4c/relu_3x3_reduce
I0403 18:29:49.415175 22581 net.cpp:425] inception_4c/relu_3x3_reduce <- inception_4c/3x3_reduce
I0403 18:29:49.415190 22581 net.cpp:386] inception_4c/relu_3x3_reduce -> inception_4c/3x3_reduce (in-place)
I0403 18:29:49.415460 22581 net.cpp:141] Setting up inception_4c/relu_3x3_reduce
I0403 18:29:49.415485 22581 net.cpp:148] Top shape: 24 128 14 14 (602112)
I0403 18:29:49.415499 22581 net.cpp:156] Memory required for data: 1038026016
I0403 18:29:49.415513 22581 layer_factory.hpp:77] Creating layer inception_4c/3x3
I0403 18:29:49.415534 22581 net.cpp:91] Creating Layer inception_4c/3x3
I0403 18:29:49.415555 22581 net.cpp:425] inception_4c/3x3 <- inception_4c/3x3_reduce
I0403 18:29:49.415576 22581 net.cpp:399] inception_4c/3x3 -> inception_4c/3x3
I0403 18:29:49.418973 22581 net.cpp:141] Setting up inception_4c/3x3
I0403 18:29:49.419011 22581 net.cpp:148] Top shape: 24 256 14 14 (1204224)
I0403 18:29:49.419028 22581 net.cpp:156] Memory required for data: 1042842912
I0403 18:29:49.419057 22581 layer_factory.hpp:77] Creating layer inception_4c/relu_3x3
I0403 18:29:49.419078 22581 net.cpp:91] Creating Layer inception_4c/relu_3x3
I0403 18:29:49.419095 22581 net.cpp:425] inception_4c/relu_3x3 <- inception_4c/3x3
I0403 18:29:49.419109 22581 net.cpp:386] inception_4c/relu_3x3 -> inception_4c/3x3 (in-place)
I0403 18:29:49.419281 22581 net.cpp:141] Setting up inception_4c/relu_3x3
I0403 18:29:49.419306 22581 net.cpp:148] Top shape: 24 256 14 14 (1204224)
I0403 18:29:49.419319 22581 net.cpp:156] Memory required for data: 1047659808
I0403 18:29:49.419332 22581 layer_factory.hpp:77] Creating layer inception_4c/5x5_reduce
I0403 18:29:49.419355 22581 net.cpp:91] Creating Layer inception_4c/5x5_reduce
I0403 18:29:49.419371 22581 net.cpp:425] inception_4c/5x5_reduce <- inception_4b/output_inception_4b/output_0_split_2
I0403 18:29:49.419389 22581 net.cpp:399] inception_4c/5x5_reduce -> inception_4c/5x5_reduce
I0403 18:29:49.420411 22581 net.cpp:141] Setting up inception_4c/5x5_reduce
I0403 18:29:49.420438 22581 net.cpp:148] Top shape: 24 24 14 14 (112896)
I0403 18:29:49.420452 22581 net.cpp:156] Memory required for data: 1048111392
I0403 18:29:49.420469 22581 layer_factory.hpp:77] Creating layer inception_4c/relu_5x5_reduce
I0403 18:29:49.420487 22581 net.cpp:91] Creating Layer inception_4c/relu_5x5_reduce
I0403 18:29:49.420502 22581 net.cpp:425] inception_4c/relu_5x5_reduce <- inception_4c/5x5_reduce
I0403 18:29:49.420518 22581 net.cpp:386] inception_4c/relu_5x5_reduce -> inception_4c/5x5_reduce (in-place)
I0403 18:29:49.420696 22581 net.cpp:141] Setting up inception_4c/relu_5x5_reduce
I0403 18:29:49.420723 22581 net.cpp:148] Top shape: 24 24 14 14 (112896)
I0403 18:29:49.420738 22581 net.cpp:156] Memory required for data: 1048562976
I0403 18:29:49.420753 22581 layer_factory.hpp:77] Creating layer inception_4c/5x5
I0403 18:29:49.420773 22581 net.cpp:91] Creating Layer inception_4c/5x5
I0403 18:29:49.420789 22581 net.cpp:425] inception_4c/5x5 <- inception_4c/5x5_reduce
I0403 18:29:49.420806 22581 net.cpp:399] inception_4c/5x5 -> inception_4c/5x5
I0403 18:29:49.421973 22581 net.cpp:141] Setting up inception_4c/5x5
I0403 18:29:49.422001 22581 net.cpp:148] Top shape: 24 64 14 14 (301056)
I0403 18:29:49.422018 22581 net.cpp:156] Memory required for data: 1049767200
I0403 18:29:49.422034 22581 layer_factory.hpp:77] Creating layer inception_4c/relu_5x5
I0403 18:29:49.422051 22581 net.cpp:91] Creating Layer inception_4c/relu_5x5
I0403 18:29:49.422066 22581 net.cpp:425] inception_4c/relu_5x5 <- inception_4c/5x5
I0403 18:29:49.422086 22581 net.cpp:386] inception_4c/relu_5x5 -> inception_4c/5x5 (in-place)
I0403 18:29:49.422354 22581 net.cpp:141] Setting up inception_4c/relu_5x5
I0403 18:29:49.422380 22581 net.cpp:148] Top shape: 24 64 14 14 (301056)
I0403 18:29:49.422396 22581 net.cpp:156] Memory required for data: 1050971424
I0403 18:29:49.422410 22581 layer_factory.hpp:77] Creating layer inception_4c/pool
I0403 18:29:49.422426 22581 net.cpp:91] Creating Layer inception_4c/pool
I0403 18:29:49.422441 22581 net.cpp:425] inception_4c/pool <- inception_4b/output_inception_4b/output_0_split_3
I0403 18:29:49.422459 22581 net.cpp:399] inception_4c/pool -> inception_4c/pool
I0403 18:29:49.422520 22581 net.cpp:141] Setting up inception_4c/pool
I0403 18:29:49.422545 22581 net.cpp:148] Top shape: 24 512 14 14 (2408448)
I0403 18:29:49.422560 22581 net.cpp:156] Memory required for data: 1060605216
I0403 18:29:49.422574 22581 layer_factory.hpp:77] Creating layer inception_4c/pool_proj
I0403 18:29:49.422595 22581 net.cpp:91] Creating Layer inception_4c/pool_proj
I0403 18:29:49.422610 22581 net.cpp:425] inception_4c/pool_proj <- inception_4c/pool
I0403 18:29:49.422629 22581 net.cpp:399] inception_4c/pool_proj -> inception_4c/pool_proj
I0403 18:29:49.423789 22581 net.cpp:141] Setting up inception_4c/pool_proj
I0403 18:29:49.423816 22581 net.cpp:148] Top shape: 24 64 14 14 (301056)
I0403 18:29:49.423843 22581 net.cpp:156] Memory required for data: 1061809440
I0403 18:29:49.423861 22581 layer_factory.hpp:77] Creating layer inception_4c/relu_pool_proj
I0403 18:29:49.423882 22581 net.cpp:91] Creating Layer inception_4c/relu_pool_proj
I0403 18:29:49.423898 22581 net.cpp:425] inception_4c/relu_pool_proj <- inception_4c/pool_proj
I0403 18:29:49.423913 22581 net.cpp:386] inception_4c/relu_pool_proj -> inception_4c/pool_proj (in-place)
I0403 18:29:49.424089 22581 net.cpp:141] Setting up inception_4c/relu_pool_proj
I0403 18:29:49.424115 22581 net.cpp:148] Top shape: 24 64 14 14 (301056)
I0403 18:29:49.424130 22581 net.cpp:156] Memory required for data: 1063013664
I0403 18:29:49.424144 22581 layer_factory.hpp:77] Creating layer inception_4c/output
I0403 18:29:49.424160 22581 net.cpp:91] Creating Layer inception_4c/output
I0403 18:29:49.424173 22581 net.cpp:425] inception_4c/output <- inception_4c/1x1
I0403 18:29:49.424188 22581 net.cpp:425] inception_4c/output <- inception_4c/3x3
I0403 18:29:49.424203 22581 net.cpp:425] inception_4c/output <- inception_4c/5x5
I0403 18:29:49.424217 22581 net.cpp:425] inception_4c/output <- inception_4c/pool_proj
I0403 18:29:49.424234 22581 net.cpp:399] inception_4c/output -> inception_4c/output
I0403 18:29:49.424278 22581 net.cpp:141] Setting up inception_4c/output
I0403 18:29:49.424299 22581 net.cpp:148] Top shape: 24 512 14 14 (2408448)
I0403 18:29:49.424314 22581 net.cpp:156] Memory required for data: 1072647456
I0403 18:29:49.424326 22581 layer_factory.hpp:77] Creating layer inception_4c/output_inception_4c/output_0_split
I0403 18:29:49.424345 22581 net.cpp:91] Creating Layer inception_4c/output_inception_4c/output_0_split
I0403 18:29:49.424358 22581 net.cpp:425] inception_4c/output_inception_4c/output_0_split <- inception_4c/output
I0403 18:29:49.424374 22581 net.cpp:399] inception_4c/output_inception_4c/output_0_split -> inception_4c/output_inception_4c/output_0_split_0
I0403 18:29:49.424392 22581 net.cpp:399] inception_4c/output_inception_4c/output_0_split -> inception_4c/output_inception_4c/output_0_split_1
I0403 18:29:49.424410 22581 net.cpp:399] inception_4c/output_inception_4c/output_0_split -> inception_4c/output_inception_4c/output_0_split_2
I0403 18:29:49.424432 22581 net.cpp:399] inception_4c/output_inception_4c/output_0_split -> inception_4c/output_inception_4c/output_0_split_3
I0403 18:29:49.424515 22581 net.cpp:141] Setting up inception_4c/output_inception_4c/output_0_split
I0403 18:29:49.424546 22581 net.cpp:148] Top shape: 24 512 14 14 (2408448)
I0403 18:29:49.424563 22581 net.cpp:148] Top shape: 24 512 14 14 (2408448)
I0403 18:29:49.424578 22581 net.cpp:148] Top shape: 24 512 14 14 (2408448)
I0403 18:29:49.424592 22581 net.cpp:148] Top shape: 24 512 14 14 (2408448)
I0403 18:29:49.424604 22581 net.cpp:156] Memory required for data: 1111182624
I0403 18:29:49.424618 22581 layer_factory.hpp:77] Creating layer inception_4d/1x1
I0403 18:29:49.424638 22581 net.cpp:91] Creating Layer inception_4d/1x1
I0403 18:29:49.424654 22581 net.cpp:425] inception_4d/1x1 <- inception_4c/output_inception_4c/output_0_split_0
I0403 18:29:49.424674 22581 net.cpp:399] inception_4d/1x1 -> inception_4d/1x1
I0403 18:29:49.425987 22581 net.cpp:141] Setting up inception_4d/1x1
I0403 18:29:49.426012 22581 net.cpp:148] Top shape: 24 112 14 14 (526848)
I0403 18:29:49.426028 22581 net.cpp:156] Memory required for data: 1113290016
I0403 18:29:49.426045 22581 layer_factory.hpp:77] Creating layer inception_4d/relu_1x1
I0403 18:29:49.426064 22581 net.cpp:91] Creating Layer inception_4d/relu_1x1
I0403 18:29:49.426081 22581 net.cpp:425] inception_4d/relu_1x1 <- inception_4d/1x1
I0403 18:29:49.426097 22581 net.cpp:386] inception_4d/relu_1x1 -> inception_4d/1x1 (in-place)
I0403 18:29:49.426270 22581 net.cpp:141] Setting up inception_4d/relu_1x1
I0403 18:29:49.426295 22581 net.cpp:148] Top shape: 24 112 14 14 (526848)
I0403 18:29:49.426309 22581 net.cpp:156] Memory required for data: 1115397408
I0403 18:29:49.426323 22581 layer_factory.hpp:77] Creating layer inception_4d/3x3_reduce
I0403 18:29:49.426357 22581 net.cpp:91] Creating Layer inception_4d/3x3_reduce
I0403 18:29:49.426376 22581 net.cpp:425] inception_4d/3x3_reduce <- inception_4c/output_inception_4c/output_0_split_1
I0403 18:29:49.426394 22581 net.cpp:399] inception_4d/3x3_reduce -> inception_4d/3x3_reduce
I0403 18:29:49.427928 22581 net.cpp:141] Setting up inception_4d/3x3_reduce
I0403 18:29:49.427955 22581 net.cpp:148] Top shape: 24 144 14 14 (677376)
I0403 18:29:49.427970 22581 net.cpp:156] Memory required for data: 1118106912
I0403 18:29:49.427989 22581 layer_factory.hpp:77] Creating layer inception_4d/relu_3x3_reduce
I0403 18:29:49.428005 22581 net.cpp:91] Creating Layer inception_4d/relu_3x3_reduce
I0403 18:29:49.428021 22581 net.cpp:425] inception_4d/relu_3x3_reduce <- inception_4d/3x3_reduce
I0403 18:29:49.428040 22581 net.cpp:386] inception_4d/relu_3x3_reduce -> inception_4d/3x3_reduce (in-place)
I0403 18:29:49.428325 22581 net.cpp:141] Setting up inception_4d/relu_3x3_reduce
I0403 18:29:49.428351 22581 net.cpp:148] Top shape: 24 144 14 14 (677376)
I0403 18:29:49.428365 22581 net.cpp:156] Memory required for data: 1120816416
I0403 18:29:49.428380 22581 layer_factory.hpp:77] Creating layer inception_4d/3x3
I0403 18:29:49.428401 22581 net.cpp:91] Creating Layer inception_4d/3x3
I0403 18:29:49.428418 22581 net.cpp:425] inception_4d/3x3 <- inception_4d/3x3_reduce
I0403 18:29:49.428438 22581 net.cpp:399] inception_4d/3x3 -> inception_4d/3x3
I0403 18:29:49.432587 22581 net.cpp:141] Setting up inception_4d/3x3
I0403 18:29:49.432615 22581 net.cpp:148] Top shape: 24 288 14 14 (1354752)
I0403 18:29:49.432631 22581 net.cpp:156] Memory required for data: 1126235424
I0403 18:29:49.432647 22581 layer_factory.hpp:77] Creating layer inception_4d/relu_3x3
I0403 18:29:49.432667 22581 net.cpp:91] Creating Layer inception_4d/relu_3x3
I0403 18:29:49.432683 22581 net.cpp:425] inception_4d/relu_3x3 <- inception_4d/3x3
I0403 18:29:49.432700 22581 net.cpp:386] inception_4d/relu_3x3 -> inception_4d/3x3 (in-place)
I0403 18:29:49.432878 22581 net.cpp:141] Setting up inception_4d/relu_3x3
I0403 18:29:49.432904 22581 net.cpp:148] Top shape: 24 288 14 14 (1354752)
I0403 18:29:49.432919 22581 net.cpp:156] Memory required for data: 1131654432
I0403 18:29:49.432934 22581 layer_factory.hpp:77] Creating layer inception_4d/5x5_reduce
I0403 18:29:49.432952 22581 net.cpp:91] Creating Layer inception_4d/5x5_reduce
I0403 18:29:49.432970 22581 net.cpp:425] inception_4d/5x5_reduce <- inception_4c/output_inception_4c/output_0_split_2
I0403 18:29:49.432991 22581 net.cpp:399] inception_4d/5x5_reduce -> inception_4d/5x5_reduce
I0403 18:29:49.434139 22581 net.cpp:141] Setting up inception_4d/5x5_reduce
I0403 18:29:49.434167 22581 net.cpp:148] Top shape: 24 32 14 14 (150528)
I0403 18:29:49.434182 22581 net.cpp:156] Memory required for data: 1132256544
I0403 18:29:49.434200 22581 layer_factory.hpp:77] Creating layer inception_4d/relu_5x5_reduce
I0403 18:29:49.434219 22581 net.cpp:91] Creating Layer inception_4d/relu_5x5_reduce
I0403 18:29:49.434237 22581 net.cpp:425] inception_4d/relu_5x5_reduce <- inception_4d/5x5_reduce
I0403 18:29:49.434252 22581 net.cpp:386] inception_4d/relu_5x5_reduce -> inception_4d/5x5_reduce (in-place)
I0403 18:29:49.434434 22581 net.cpp:141] Setting up inception_4d/relu_5x5_reduce
I0403 18:29:49.434458 22581 net.cpp:148] Top shape: 24 32 14 14 (150528)
I0403 18:29:49.434473 22581 net.cpp:156] Memory required for data: 1132858656
I0403 18:29:49.434486 22581 layer_factory.hpp:77] Creating layer inception_4d/5x5
I0403 18:29:49.434509 22581 net.cpp:91] Creating Layer inception_4d/5x5
I0403 18:29:49.434527 22581 net.cpp:425] inception_4d/5x5 <- inception_4d/5x5_reduce
I0403 18:29:49.434556 22581 net.cpp:399] inception_4d/5x5 -> inception_4d/5x5
I0403 18:29:49.435986 22581 net.cpp:141] Setting up inception_4d/5x5
I0403 18:29:49.436013 22581 net.cpp:148] Top shape: 24 64 14 14 (301056)
I0403 18:29:49.436028 22581 net.cpp:156] Memory required for data: 1134062880
I0403 18:29:49.436046 22581 layer_factory.hpp:77] Creating layer inception_4d/relu_5x5
I0403 18:29:49.436080 22581 net.cpp:91] Creating Layer inception_4d/relu_5x5
I0403 18:29:49.436099 22581 net.cpp:425] inception_4d/relu_5x5 <- inception_4d/5x5
I0403 18:29:49.436115 22581 net.cpp:386] inception_4d/relu_5x5 -> inception_4d/5x5 (in-place)
I0403 18:29:49.436405 22581 net.cpp:141] Setting up inception_4d/relu_5x5
I0403 18:29:49.436431 22581 net.cpp:148] Top shape: 24 64 14 14 (301056)
I0403 18:29:49.436446 22581 net.cpp:156] Memory required for data: 1135267104
I0403 18:29:49.436461 22581 layer_factory.hpp:77] Creating layer inception_4d/pool
I0403 18:29:49.436480 22581 net.cpp:91] Creating Layer inception_4d/pool
I0403 18:29:49.436496 22581 net.cpp:425] inception_4d/pool <- inception_4c/output_inception_4c/output_0_split_3
I0403 18:29:49.436517 22581 net.cpp:399] inception_4d/pool -> inception_4d/pool
I0403 18:29:49.436585 22581 net.cpp:141] Setting up inception_4d/pool
I0403 18:29:49.436609 22581 net.cpp:148] Top shape: 24 512 14 14 (2408448)
I0403 18:29:49.436622 22581 net.cpp:156] Memory required for data: 1144900896
I0403 18:29:49.436636 22581 layer_factory.hpp:77] Creating layer inception_4d/pool_proj
I0403 18:29:49.436657 22581 net.cpp:91] Creating Layer inception_4d/pool_proj
I0403 18:29:49.436674 22581 net.cpp:425] inception_4d/pool_proj <- inception_4d/pool
I0403 18:29:49.436694 22581 net.cpp:399] inception_4d/pool_proj -> inception_4d/pool_proj
I0403 18:29:49.438418 22581 net.cpp:141] Setting up inception_4d/pool_proj
I0403 18:29:49.438446 22581 net.cpp:148] Top shape: 24 64 14 14 (301056)
I0403 18:29:49.438462 22581 net.cpp:156] Memory required for data: 1146105120
I0403 18:29:49.438479 22581 layer_factory.hpp:77] Creating layer inception_4d/relu_pool_proj
I0403 18:29:49.438499 22581 net.cpp:91] Creating Layer inception_4d/relu_pool_proj
I0403 18:29:49.438518 22581 net.cpp:425] inception_4d/relu_pool_proj <- inception_4d/pool_proj
I0403 18:29:49.438534 22581 net.cpp:386] inception_4d/relu_pool_proj -> inception_4d/pool_proj (in-place)
I0403 18:29:49.438721 22581 net.cpp:141] Setting up inception_4d/relu_pool_proj
I0403 18:29:49.438748 22581 net.cpp:148] Top shape: 24 64 14 14 (301056)
I0403 18:29:49.438765 22581 net.cpp:156] Memory required for data: 1147309344
I0403 18:29:49.438777 22581 layer_factory.hpp:77] Creating layer inception_4d/output
I0403 18:29:49.438793 22581 net.cpp:91] Creating Layer inception_4d/output
I0403 18:29:49.438808 22581 net.cpp:425] inception_4d/output <- inception_4d/1x1
I0403 18:29:49.438824 22581 net.cpp:425] inception_4d/output <- inception_4d/3x3
I0403 18:29:49.438839 22581 net.cpp:425] inception_4d/output <- inception_4d/5x5
I0403 18:29:49.438854 22581 net.cpp:425] inception_4d/output <- inception_4d/pool_proj
I0403 18:29:49.438870 22581 net.cpp:399] inception_4d/output -> inception_4d/output
I0403 18:29:49.438918 22581 net.cpp:141] Setting up inception_4d/output
I0403 18:29:49.438941 22581 net.cpp:148] Top shape: 24 528 14 14 (2483712)
I0403 18:29:49.438954 22581 net.cpp:156] Memory required for data: 1157244192
I0403 18:29:49.438968 22581 layer_factory.hpp:77] Creating layer inception_4d/output_inception_4d/output_0_split
I0403 18:29:49.438985 22581 net.cpp:91] Creating Layer inception_4d/output_inception_4d/output_0_split
I0403 18:29:49.439003 22581 net.cpp:425] inception_4d/output_inception_4d/output_0_split <- inception_4d/output
I0403 18:29:49.439020 22581 net.cpp:399] inception_4d/output_inception_4d/output_0_split -> inception_4d/output_inception_4d/output_0_split_0
I0403 18:29:49.439039 22581 net.cpp:399] inception_4d/output_inception_4d/output_0_split -> inception_4d/output_inception_4d/output_0_split_1
I0403 18:29:49.439059 22581 net.cpp:399] inception_4d/output_inception_4d/output_0_split -> inception_4d/output_inception_4d/output_0_split_2
I0403 18:29:49.439079 22581 net.cpp:399] inception_4d/output_inception_4d/output_0_split -> inception_4d/output_inception_4d/output_0_split_3
I0403 18:29:49.439100 22581 net.cpp:399] inception_4d/output_inception_4d/output_0_split -> inception_4d/output_inception_4d/output_0_split_4
I0403 18:29:49.439200 22581 net.cpp:141] Setting up inception_4d/output_inception_4d/output_0_split
I0403 18:29:49.439235 22581 net.cpp:148] Top shape: 24 528 14 14 (2483712)
I0403 18:29:49.439265 22581 net.cpp:148] Top shape: 24 528 14 14 (2483712)
I0403 18:29:49.439280 22581 net.cpp:148] Top shape: 24 528 14 14 (2483712)
I0403 18:29:49.439296 22581 net.cpp:148] Top shape: 24 528 14 14 (2483712)
I0403 18:29:49.439311 22581 net.cpp:148] Top shape: 24 528 14 14 (2483712)
I0403 18:29:49.439323 22581 net.cpp:156] Memory required for data: 1206918432
I0403 18:29:49.439337 22581 layer_factory.hpp:77] Creating layer loss2/ave_pool
I0403 18:29:49.439354 22581 net.cpp:91] Creating Layer loss2/ave_pool
I0403 18:29:49.439370 22581 net.cpp:425] loss2/ave_pool <- inception_4d/output_inception_4d/output_0_split_0
I0403 18:29:49.439390 22581 net.cpp:399] loss2/ave_pool -> loss2/ave_pool
I0403 18:29:49.439723 22581 net.cpp:141] Setting up loss2/ave_pool
I0403 18:29:49.439749 22581 net.cpp:148] Top shape: 24 528 4 4 (202752)
I0403 18:29:49.439764 22581 net.cpp:156] Memory required for data: 1207729440
I0403 18:29:49.439779 22581 layer_factory.hpp:77] Creating layer loss2/conv
I0403 18:29:49.439800 22581 net.cpp:91] Creating Layer loss2/conv
I0403 18:29:49.439816 22581 net.cpp:425] loss2/conv <- loss2/ave_pool
I0403 18:29:49.439836 22581 net.cpp:399] loss2/conv -> loss2/conv
I0403 18:29:49.441704 22581 net.cpp:141] Setting up loss2/conv
I0403 18:29:49.441733 22581 net.cpp:148] Top shape: 24 128 4 4 (49152)
I0403 18:29:49.441750 22581 net.cpp:156] Memory required for data: 1207926048
I0403 18:29:49.441766 22581 layer_factory.hpp:77] Creating layer loss2/relu_conv
I0403 18:29:49.441784 22581 net.cpp:91] Creating Layer loss2/relu_conv
I0403 18:29:49.441800 22581 net.cpp:425] loss2/relu_conv <- loss2/conv
I0403 18:29:49.441817 22581 net.cpp:386] loss2/relu_conv -> loss2/conv (in-place)
I0403 18:29:49.442100 22581 net.cpp:141] Setting up loss2/relu_conv
I0403 18:29:49.442127 22581 net.cpp:148] Top shape: 24 128 4 4 (49152)
I0403 18:29:49.442143 22581 net.cpp:156] Memory required for data: 1208122656
I0403 18:29:49.442157 22581 layer_factory.hpp:77] Creating layer loss2/fc
I0403 18:29:49.442175 22581 net.cpp:91] Creating Layer loss2/fc
I0403 18:29:49.442191 22581 net.cpp:425] loss2/fc <- loss2/conv
I0403 18:29:49.442211 22581 net.cpp:399] loss2/fc -> loss2/fc
I0403 18:29:49.459015 22581 net.cpp:141] Setting up loss2/fc
I0403 18:29:49.459045 22581 net.cpp:148] Top shape: 24 1024 (24576)
I0403 18:29:49.459059 22581 net.cpp:156] Memory required for data: 1208220960
I0403 18:29:49.459076 22581 layer_factory.hpp:77] Creating layer loss2/relu_fc
I0403 18:29:49.459095 22581 net.cpp:91] Creating Layer loss2/relu_fc
I0403 18:29:49.459111 22581 net.cpp:425] loss2/relu_fc <- loss2/fc
I0403 18:29:49.459128 22581 net.cpp:386] loss2/relu_fc -> loss2/fc (in-place)
I0403 18:29:49.459411 22581 net.cpp:141] Setting up loss2/relu_fc
I0403 18:29:49.459435 22581 net.cpp:148] Top shape: 24 1024 (24576)
I0403 18:29:49.459450 22581 net.cpp:156] Memory required for data: 1208319264
I0403 18:29:49.459463 22581 layer_factory.hpp:77] Creating layer loss2/drop_fc
I0403 18:29:49.459482 22581 net.cpp:91] Creating Layer loss2/drop_fc
I0403 18:29:49.459498 22581 net.cpp:425] loss2/drop_fc <- loss2/fc
I0403 18:29:49.459514 22581 net.cpp:386] loss2/drop_fc -> loss2/fc (in-place)
I0403 18:29:49.459565 22581 net.cpp:141] Setting up loss2/drop_fc
I0403 18:29:49.459588 22581 net.cpp:148] Top shape: 24 1024 (24576)
I0403 18:29:49.459601 22581 net.cpp:156] Memory required for data: 1208417568
I0403 18:29:49.459615 22581 layer_factory.hpp:77] Creating layer loss2/classifier_plantvillage
I0403 18:29:49.459632 22581 net.cpp:91] Creating Layer loss2/classifier_plantvillage
I0403 18:29:49.459647 22581 net.cpp:425] loss2/classifier_plantvillage <- loss2/fc
I0403 18:29:49.459666 22581 net.cpp:399] loss2/classifier_plantvillage -> loss2/classifier_plantvillage
I0403 18:29:49.460053 22581 net.cpp:141] Setting up loss2/classifier_plantvillage
I0403 18:29:49.460077 22581 net.cpp:148] Top shape: 24 38 (912)
I0403 18:29:49.460106 22581 net.cpp:156] Memory required for data: 1208421216
I0403 18:29:49.460124 22581 layer_factory.hpp:77] Creating layer loss2/classifier_plantvillage_loss2/classifier_plantvillage_0_split
I0403 18:29:49.460141 22581 net.cpp:91] Creating Layer loss2/classifier_plantvillage_loss2/classifier_plantvillage_0_split
I0403 18:29:49.460155 22581 net.cpp:425] loss2/classifier_plantvillage_loss2/classifier_plantvillage_0_split <- loss2/classifier_plantvillage
I0403 18:29:49.460171 22581 net.cpp:399] loss2/classifier_plantvillage_loss2/classifier_plantvillage_0_split -> loss2/classifier_plantvillage_loss2/classifier_plantvillage_0_split_0
I0403 18:29:49.460191 22581 net.cpp:399] loss2/classifier_plantvillage_loss2/classifier_plantvillage_0_split -> loss2/classifier_plantvillage_loss2/classifier_plantvillage_0_split_1
I0403 18:29:49.460212 22581 net.cpp:399] loss2/classifier_plantvillage_loss2/classifier_plantvillage_0_split -> loss2/classifier_plantvillage_loss2/classifier_plantvillage_0_split_2
I0403 18:29:49.460285 22581 net.cpp:141] Setting up loss2/classifier_plantvillage_loss2/classifier_plantvillage_0_split
I0403 18:29:49.460309 22581 net.cpp:148] Top shape: 24 38 (912)
I0403 18:29:49.460325 22581 net.cpp:148] Top shape: 24 38 (912)
I0403 18:29:49.460338 22581 net.cpp:148] Top shape: 24 38 (912)
I0403 18:29:49.460350 22581 net.cpp:156] Memory required for data: 1208432160
I0403 18:29:49.460363 22581 layer_factory.hpp:77] Creating layer inception_4e/1x1
I0403 18:29:49.460382 22581 net.cpp:91] Creating Layer inception_4e/1x1
I0403 18:29:49.460397 22581 net.cpp:425] inception_4e/1x1 <- inception_4d/output_inception_4d/output_0_split_1
I0403 18:29:49.460417 22581 net.cpp:399] inception_4e/1x1 -> inception_4e/1x1
I0403 18:29:49.462137 22581 net.cpp:141] Setting up inception_4e/1x1
I0403 18:29:49.462167 22581 net.cpp:148] Top shape: 24 256 14 14 (1204224)
I0403 18:29:49.462182 22581 net.cpp:156] Memory required for data: 1213249056
I0403 18:29:49.462199 22581 layer_factory.hpp:77] Creating layer inception_4e/relu_1x1
I0403 18:29:49.462216 22581 net.cpp:91] Creating Layer inception_4e/relu_1x1
I0403 18:29:49.462230 22581 net.cpp:425] inception_4e/relu_1x1 <- inception_4e/1x1
I0403 18:29:49.462249 22581 net.cpp:386] inception_4e/relu_1x1 -> inception_4e/1x1 (in-place)
I0403 18:29:49.462529 22581 net.cpp:141] Setting up inception_4e/relu_1x1
I0403 18:29:49.462560 22581 net.cpp:148] Top shape: 24 256 14 14 (1204224)
I0403 18:29:49.462575 22581 net.cpp:156] Memory required for data: 1218065952
I0403 18:29:49.462589 22581 layer_factory.hpp:77] Creating layer inception_4e/3x3_reduce
I0403 18:29:49.462610 22581 net.cpp:91] Creating Layer inception_4e/3x3_reduce
I0403 18:29:49.462626 22581 net.cpp:425] inception_4e/3x3_reduce <- inception_4d/output_inception_4d/output_0_split_2
I0403 18:29:49.462644 22581 net.cpp:399] inception_4e/3x3_reduce -> inception_4e/3x3_reduce
I0403 18:29:49.464666 22581 net.cpp:141] Setting up inception_4e/3x3_reduce
I0403 18:29:49.464697 22581 net.cpp:148] Top shape: 24 160 14 14 (752640)
I0403 18:29:49.464714 22581 net.cpp:156] Memory required for data: 1221076512
I0403 18:29:49.464730 22581 layer_factory.hpp:77] Creating layer inception_4e/relu_3x3_reduce
I0403 18:29:49.464746 22581 net.cpp:91] Creating Layer inception_4e/relu_3x3_reduce
I0403 18:29:49.464761 22581 net.cpp:425] inception_4e/relu_3x3_reduce <- inception_4e/3x3_reduce
I0403 18:29:49.464776 22581 net.cpp:386] inception_4e/relu_3x3_reduce -> inception_4e/3x3_reduce (in-place)
I0403 18:29:49.464957 22581 net.cpp:141] Setting up inception_4e/relu_3x3_reduce
I0403 18:29:49.464983 22581 net.cpp:148] Top shape: 24 160 14 14 (752640)
I0403 18:29:49.464999 22581 net.cpp:156] Memory required for data: 1224087072
I0403 18:29:49.465013 22581 layer_factory.hpp:77] Creating layer inception_4e/3x3
I0403 18:29:49.465032 22581 net.cpp:91] Creating Layer inception_4e/3x3
I0403 18:29:49.465049 22581 net.cpp:425] inception_4e/3x3 <- inception_4e/3x3_reduce
I0403 18:29:49.465066 22581 net.cpp:399] inception_4e/3x3 -> inception_4e/3x3
I0403 18:29:49.469837 22581 net.cpp:141] Setting up inception_4e/3x3
I0403 18:29:49.469877 22581 net.cpp:148] Top shape: 24 320 14 14 (1505280)
I0403 18:29:49.469894 22581 net.cpp:156] Memory required for data: 1230108192
I0403 18:29:49.469912 22581 layer_factory.hpp:77] Creating layer inception_4e/relu_3x3
I0403 18:29:49.469928 22581 net.cpp:91] Creating Layer inception_4e/relu_3x3
I0403 18:29:49.469944 22581 net.cpp:425] inception_4e/relu_3x3 <- inception_4e/3x3
I0403 18:29:49.469962 22581 net.cpp:386] inception_4e/relu_3x3 -> inception_4e/3x3 (in-place)
I0403 18:29:49.470257 22581 net.cpp:141] Setting up inception_4e/relu_3x3
I0403 18:29:49.470281 22581 net.cpp:148] Top shape: 24 320 14 14 (1505280)
I0403 18:29:49.470296 22581 net.cpp:156] Memory required for data: 1236129312
I0403 18:29:49.470309 22581 layer_factory.hpp:77] Creating layer inception_4e/5x5_reduce
I0403 18:29:49.470331 22581 net.cpp:91] Creating Layer inception_4e/5x5_reduce
I0403 18:29:49.470348 22581 net.cpp:425] inception_4e/5x5_reduce <- inception_4d/output_inception_4d/output_0_split_3
I0403 18:29:49.470368 22581 net.cpp:399] inception_4e/5x5_reduce -> inception_4e/5x5_reduce
I0403 18:29:49.471395 22581 net.cpp:141] Setting up inception_4e/5x5_reduce
I0403 18:29:49.471422 22581 net.cpp:148] Top shape: 24 32 14 14 (150528)
I0403 18:29:49.471436 22581 net.cpp:156] Memory required for data: 1236731424
I0403 18:29:49.471453 22581 layer_factory.hpp:77] Creating layer inception_4e/relu_5x5_reduce
I0403 18:29:49.471472 22581 net.cpp:91] Creating Layer inception_4e/relu_5x5_reduce
I0403 18:29:49.471489 22581 net.cpp:425] inception_4e/relu_5x5_reduce <- inception_4e/5x5_reduce
I0403 18:29:49.471505 22581 net.cpp:386] inception_4e/relu_5x5_reduce -> inception_4e/5x5_reduce (in-place)
I0403 18:29:49.471801 22581 net.cpp:141] Setting up inception_4e/relu_5x5_reduce
I0403 18:29:49.471825 22581 net.cpp:148] Top shape: 24 32 14 14 (150528)
I0403 18:29:49.471839 22581 net.cpp:156] Memory required for data: 1237333536
I0403 18:29:49.471853 22581 layer_factory.hpp:77] Creating layer inception_4e/5x5
I0403 18:29:49.471889 22581 net.cpp:91] Creating Layer inception_4e/5x5
I0403 18:29:49.471907 22581 net.cpp:425] inception_4e/5x5 <- inception_4e/5x5_reduce
I0403 18:29:49.471925 22581 net.cpp:399] inception_4e/5x5 -> inception_4e/5x5
I0403 18:29:49.473673 22581 net.cpp:141] Setting up inception_4e/5x5
I0403 18:29:49.473700 22581 net.cpp:148] Top shape: 24 128 14 14 (602112)
I0403 18:29:49.473714 22581 net.cpp:156] Memory required for data: 1239741984
I0403 18:29:49.473732 22581 layer_factory.hpp:77] Creating layer inception_4e/relu_5x5
I0403 18:29:49.473752 22581 net.cpp:91] Creating Layer inception_4e/relu_5x5
I0403 18:29:49.473767 22581 net.cpp:425] inception_4e/relu_5x5 <- inception_4e/5x5
I0403 18:29:49.473783 22581 net.cpp:386] inception_4e/relu_5x5 -> inception_4e/5x5 (in-place)
I0403 18:29:49.473970 22581 net.cpp:141] Setting up inception_4e/relu_5x5
I0403 18:29:49.473997 22581 net.cpp:148] Top shape: 24 128 14 14 (602112)
I0403 18:29:49.474012 22581 net.cpp:156] Memory required for data: 1242150432
I0403 18:29:49.474026 22581 layer_factory.hpp:77] Creating layer inception_4e/pool
I0403 18:29:49.474043 22581 net.cpp:91] Creating Layer inception_4e/pool
I0403 18:29:49.474058 22581 net.cpp:425] inception_4e/pool <- inception_4d/output_inception_4d/output_0_split_4
I0403 18:29:49.474074 22581 net.cpp:399] inception_4e/pool -> inception_4e/pool
I0403 18:29:49.474140 22581 net.cpp:141] Setting up inception_4e/pool
I0403 18:29:49.474162 22581 net.cpp:148] Top shape: 24 528 14 14 (2483712)
I0403 18:29:49.474176 22581 net.cpp:156] Memory required for data: 1252085280
I0403 18:29:49.474190 22581 layer_factory.hpp:77] Creating layer inception_4e/pool_proj
I0403 18:29:49.474210 22581 net.cpp:91] Creating Layer inception_4e/pool_proj
I0403 18:29:49.474226 22581 net.cpp:425] inception_4e/pool_proj <- inception_4e/pool
I0403 18:29:49.474246 22581 net.cpp:399] inception_4e/pool_proj -> inception_4e/pool_proj
I0403 18:29:49.475682 22581 net.cpp:141] Setting up inception_4e/pool_proj
I0403 18:29:49.475720 22581 net.cpp:148] Top shape: 24 128 14 14 (602112)
I0403 18:29:49.475735 22581 net.cpp:156] Memory required for data: 1254493728
I0403 18:29:49.475752 22581 layer_factory.hpp:77] Creating layer inception_4e/relu_pool_proj
I0403 18:29:49.475771 22581 net.cpp:91] Creating Layer inception_4e/relu_pool_proj
I0403 18:29:49.475786 22581 net.cpp:425] inception_4e/relu_pool_proj <- inception_4e/pool_proj
I0403 18:29:49.475803 22581 net.cpp:386] inception_4e/relu_pool_proj -> inception_4e/pool_proj (in-place)
I0403 18:29:49.476081 22581 net.cpp:141] Setting up inception_4e/relu_pool_proj
I0403 18:29:49.476106 22581 net.cpp:148] Top shape: 24 128 14 14 (602112)
I0403 18:29:49.476120 22581 net.cpp:156] Memory required for data: 1256902176
I0403 18:29:49.476135 22581 layer_factory.hpp:77] Creating layer inception_4e/output
I0403 18:29:49.476151 22581 net.cpp:91] Creating Layer inception_4e/output
I0403 18:29:49.476166 22581 net.cpp:425] inception_4e/output <- inception_4e/1x1
I0403 18:29:49.476181 22581 net.cpp:425] inception_4e/output <- inception_4e/3x3
I0403 18:29:49.476194 22581 net.cpp:425] inception_4e/output <- inception_4e/5x5
I0403 18:29:49.476209 22581 net.cpp:425] inception_4e/output <- inception_4e/pool_proj
I0403 18:29:49.476227 22581 net.cpp:399] inception_4e/output -> inception_4e/output
I0403 18:29:49.476275 22581 net.cpp:141] Setting up inception_4e/output
I0403 18:29:49.476297 22581 net.cpp:148] Top shape: 24 832 14 14 (3913728)
I0403 18:29:49.476311 22581 net.cpp:156] Memory required for data: 1272557088
I0403 18:29:49.476325 22581 layer_factory.hpp:77] Creating layer pool4/3x3_s2
I0403 18:29:49.476341 22581 net.cpp:91] Creating Layer pool4/3x3_s2
I0403 18:29:49.476356 22581 net.cpp:425] pool4/3x3_s2 <- inception_4e/output
I0403 18:29:49.476374 22581 net.cpp:399] pool4/3x3_s2 -> pool4/3x3_s2
I0403 18:29:49.476439 22581 net.cpp:141] Setting up pool4/3x3_s2
I0403 18:29:49.476461 22581 net.cpp:148] Top shape: 24 832 7 7 (978432)
I0403 18:29:49.476475 22581 net.cpp:156] Memory required for data: 1276470816
I0403 18:29:49.476488 22581 layer_factory.hpp:77] Creating layer pool4/3x3_s2_pool4/3x3_s2_0_split
I0403 18:29:49.476506 22581 net.cpp:91] Creating Layer pool4/3x3_s2_pool4/3x3_s2_0_split
I0403 18:29:49.476521 22581 net.cpp:425] pool4/3x3_s2_pool4/3x3_s2_0_split <- pool4/3x3_s2
I0403 18:29:49.476544 22581 net.cpp:399] pool4/3x3_s2_pool4/3x3_s2_0_split -> pool4/3x3_s2_pool4/3x3_s2_0_split_0
I0403 18:29:49.476567 22581 net.cpp:399] pool4/3x3_s2_pool4/3x3_s2_0_split -> pool4/3x3_s2_pool4/3x3_s2_0_split_1
I0403 18:29:49.476586 22581 net.cpp:399] pool4/3x3_s2_pool4/3x3_s2_0_split -> pool4/3x3_s2_pool4/3x3_s2_0_split_2
I0403 18:29:49.476605 22581 net.cpp:399] pool4/3x3_s2_pool4/3x3_s2_0_split -> pool4/3x3_s2_pool4/3x3_s2_0_split_3
I0403 18:29:49.476691 22581 net.cpp:141] Setting up pool4/3x3_s2_pool4/3x3_s2_0_split
I0403 18:29:49.476712 22581 net.cpp:148] Top shape: 24 832 7 7 (978432)
I0403 18:29:49.476727 22581 net.cpp:148] Top shape: 24 832 7 7 (978432)
I0403 18:29:49.476742 22581 net.cpp:148] Top shape: 24 832 7 7 (978432)
I0403 18:29:49.476757 22581 net.cpp:148] Top shape: 24 832 7 7 (978432)
I0403 18:29:49.476768 22581 net.cpp:156] Memory required for data: 1292125728
I0403 18:29:49.476781 22581 layer_factory.hpp:77] Creating layer inception_5a/1x1
I0403 18:29:49.476801 22581 net.cpp:91] Creating Layer inception_5a/1x1
I0403 18:29:49.476819 22581 net.cpp:425] inception_5a/1x1 <- pool4/3x3_s2_pool4/3x3_s2_0_split_0
I0403 18:29:49.476840 22581 net.cpp:399] inception_5a/1x1 -> inception_5a/1x1
I0403 18:29:49.479553 22581 net.cpp:141] Setting up inception_5a/1x1
I0403 18:29:49.479581 22581 net.cpp:148] Top shape: 24 256 7 7 (301056)
I0403 18:29:49.479596 22581 net.cpp:156] Memory required for data: 1293329952
I0403 18:29:49.479614 22581 layer_factory.hpp:77] Creating layer inception_5a/relu_1x1
I0403 18:29:49.479632 22581 net.cpp:91] Creating Layer inception_5a/relu_1x1
I0403 18:29:49.479647 22581 net.cpp:425] inception_5a/relu_1x1 <- inception_5a/1x1
I0403 18:29:49.479663 22581 net.cpp:386] inception_5a/relu_1x1 -> inception_5a/1x1 (in-place)
I0403 18:29:49.479960 22581 net.cpp:141] Setting up inception_5a/relu_1x1
I0403 18:29:49.479985 22581 net.cpp:148] Top shape: 24 256 7 7 (301056)
I0403 18:29:49.480000 22581 net.cpp:156] Memory required for data: 1294534176
I0403 18:29:49.480013 22581 layer_factory.hpp:77] Creating layer inception_5a/3x3_reduce
I0403 18:29:49.480034 22581 net.cpp:91] Creating Layer inception_5a/3x3_reduce
I0403 18:29:49.480051 22581 net.cpp:425] inception_5a/3x3_reduce <- pool4/3x3_s2_pool4/3x3_s2_0_split_1
I0403 18:29:49.480073 22581 net.cpp:399] inception_5a/3x3_reduce -> inception_5a/3x3_reduce
I0403 18:29:49.482491 22581 net.cpp:141] Setting up inception_5a/3x3_reduce
I0403 18:29:49.482520 22581 net.cpp:148] Top shape: 24 160 7 7 (188160)
I0403 18:29:49.482540 22581 net.cpp:156] Memory required for data: 1295286816
I0403 18:29:49.482560 22581 layer_factory.hpp:77] Creating layer inception_5a/relu_3x3_reduce
I0403 18:29:49.482578 22581 net.cpp:91] Creating Layer inception_5a/relu_3x3_reduce
I0403 18:29:49.482594 22581 net.cpp:425] inception_5a/relu_3x3_reduce <- inception_5a/3x3_reduce
I0403 18:29:49.482614 22581 net.cpp:386] inception_5a/relu_3x3_reduce -> inception_5a/3x3_reduce (in-place)
I0403 18:29:49.482796 22581 net.cpp:141] Setting up inception_5a/relu_3x3_reduce
I0403 18:29:49.482821 22581 net.cpp:148] Top shape: 24 160 7 7 (188160)
I0403 18:29:49.482836 22581 net.cpp:156] Memory required for data: 1296039456
I0403 18:29:49.482849 22581 layer_factory.hpp:77] Creating layer inception_5a/3x3
I0403 18:29:49.482872 22581 net.cpp:91] Creating Layer inception_5a/3x3
I0403 18:29:49.482888 22581 net.cpp:425] inception_5a/3x3 <- inception_5a/3x3_reduce
I0403 18:29:49.482909 22581 net.cpp:399] inception_5a/3x3 -> inception_5a/3x3
I0403 18:29:49.487860 22581 net.cpp:141] Setting up inception_5a/3x3
I0403 18:29:49.487890 22581 net.cpp:148] Top shape: 24 320 7 7 (376320)
I0403 18:29:49.487905 22581 net.cpp:156] Memory required for data: 1297544736
I0403 18:29:49.487923 22581 layer_factory.hpp:77] Creating layer inception_5a/relu_3x3
I0403 18:29:49.487943 22581 net.cpp:91] Creating Layer inception_5a/relu_3x3
I0403 18:29:49.487960 22581 net.cpp:425] inception_5a/relu_3x3 <- inception_5a/3x3
I0403 18:29:49.487977 22581 net.cpp:386] inception_5a/relu_3x3 -> inception_5a/3x3 (in-place)
I0403 18:29:49.488263 22581 net.cpp:141] Setting up inception_5a/relu_3x3
I0403 18:29:49.488289 22581 net.cpp:148] Top shape: 24 320 7 7 (376320)
I0403 18:29:49.488303 22581 net.cpp:156] Memory required for data: 1299050016
I0403 18:29:49.488317 22581 layer_factory.hpp:77] Creating layer inception_5a/5x5_reduce
I0403 18:29:49.488338 22581 net.cpp:91] Creating Layer inception_5a/5x5_reduce
I0403 18:29:49.488355 22581 net.cpp:425] inception_5a/5x5_reduce <- pool4/3x3_s2_pool4/3x3_s2_0_split_2
I0403 18:29:49.488379 22581 net.cpp:399] inception_5a/5x5_reduce -> inception_5a/5x5_reduce
I0403 18:29:49.489521 22581 net.cpp:141] Setting up inception_5a/5x5_reduce
I0403 18:29:49.489557 22581 net.cpp:148] Top shape: 24 32 7 7 (37632)
I0403 18:29:49.489573 22581 net.cpp:156] Memory required for data: 1299200544
I0403 18:29:49.489591 22581 layer_factory.hpp:77] Creating layer inception_5a/relu_5x5_reduce
I0403 18:29:49.489609 22581 net.cpp:91] Creating Layer inception_5a/relu_5x5_reduce
I0403 18:29:49.489624 22581 net.cpp:425] inception_5a/relu_5x5_reduce <- inception_5a/5x5_reduce
I0403 18:29:49.489640 22581 net.cpp:386] inception_5a/relu_5x5_reduce -> inception_5a/5x5_reduce (in-place)
I0403 18:29:49.489934 22581 net.cpp:141] Setting up inception_5a/relu_5x5_reduce
I0403 18:29:49.489962 22581 net.cpp:148] Top shape: 24 32 7 7 (37632)
I0403 18:29:49.489979 22581 net.cpp:156] Memory required for data: 1299351072
I0403 18:29:49.489992 22581 layer_factory.hpp:77] Creating layer inception_5a/5x5
I0403 18:29:49.490013 22581 net.cpp:91] Creating Layer inception_5a/5x5
I0403 18:29:49.490030 22581 net.cpp:425] inception_5a/5x5 <- inception_5a/5x5_reduce
I0403 18:29:49.490047 22581 net.cpp:399] inception_5a/5x5 -> inception_5a/5x5
I0403 18:29:49.491737 22581 net.cpp:141] Setting up inception_5a/5x5
I0403 18:29:49.491776 22581 net.cpp:148] Top shape: 24 128 7 7 (150528)
I0403 18:29:49.491792 22581 net.cpp:156] Memory required for data: 1299953184
I0403 18:29:49.491811 22581 layer_factory.hpp:77] Creating layer inception_5a/relu_5x5
I0403 18:29:49.491833 22581 net.cpp:91] Creating Layer inception_5a/relu_5x5
I0403 18:29:49.491850 22581 net.cpp:425] inception_5a/relu_5x5 <- inception_5a/5x5
I0403 18:29:49.491868 22581 net.cpp:386] inception_5a/relu_5x5 -> inception_5a/5x5 (in-place)
I0403 18:29:49.492054 22581 net.cpp:141] Setting up inception_5a/relu_5x5
I0403 18:29:49.492081 22581 net.cpp:148] Top shape: 24 128 7 7 (150528)
I0403 18:29:49.492096 22581 net.cpp:156] Memory required for data: 1300555296
I0403 18:29:49.492110 22581 layer_factory.hpp:77] Creating layer inception_5a/pool
I0403 18:29:49.492126 22581 net.cpp:91] Creating Layer inception_5a/pool
I0403 18:29:49.492142 22581 net.cpp:425] inception_5a/pool <- pool4/3x3_s2_pool4/3x3_s2_0_split_3
I0403 18:29:49.492162 22581 net.cpp:399] inception_5a/pool -> inception_5a/pool
I0403 18:29:49.492231 22581 net.cpp:141] Setting up inception_5a/pool
I0403 18:29:49.492254 22581 net.cpp:148] Top shape: 24 832 7 7 (978432)
I0403 18:29:49.492269 22581 net.cpp:156] Memory required for data: 1304469024
I0403 18:29:49.492282 22581 layer_factory.hpp:77] Creating layer inception_5a/pool_proj
I0403 18:29:49.492302 22581 net.cpp:91] Creating Layer inception_5a/pool_proj
I0403 18:29:49.492321 22581 net.cpp:425] inception_5a/pool_proj <- inception_5a/pool
I0403 18:29:49.492341 22581 net.cpp:399] inception_5a/pool_proj -> inception_5a/pool_proj
I0403 18:29:49.494603 22581 net.cpp:141] Setting up inception_5a/pool_proj
I0403 18:29:49.494632 22581 net.cpp:148] Top shape: 24 128 7 7 (150528)
I0403 18:29:49.494647 22581 net.cpp:156] Memory required for data: 1305071136
I0403 18:29:49.494665 22581 layer_factory.hpp:77] Creating layer inception_5a/relu_pool_proj
I0403 18:29:49.494684 22581 net.cpp:91] Creating Layer inception_5a/relu_pool_proj
I0403 18:29:49.494701 22581 net.cpp:425] inception_5a/relu_pool_proj <- inception_5a/pool_proj
I0403 18:29:49.494719 22581 net.cpp:386] inception_5a/relu_pool_proj -> inception_5a/pool_proj (in-place)
I0403 18:29:49.495012 22581 net.cpp:141] Setting up inception_5a/relu_pool_proj
I0403 18:29:49.495036 22581 net.cpp:148] Top shape: 24 128 7 7 (150528)
I0403 18:29:49.495051 22581 net.cpp:156] Memory required for data: 1305673248
I0403 18:29:49.495065 22581 layer_factory.hpp:77] Creating layer inception_5a/output
I0403 18:29:49.495085 22581 net.cpp:91] Creating Layer inception_5a/output
I0403 18:29:49.495101 22581 net.cpp:425] inception_5a/output <- inception_5a/1x1
I0403 18:29:49.495117 22581 net.cpp:425] inception_5a/output <- inception_5a/3x3
I0403 18:29:49.495131 22581 net.cpp:425] inception_5a/output <- inception_5a/5x5
I0403 18:29:49.495146 22581 net.cpp:425] inception_5a/output <- inception_5a/pool_proj
I0403 18:29:49.495162 22581 net.cpp:399] inception_5a/output -> inception_5a/output
I0403 18:29:49.495209 22581 net.cpp:141] Setting up inception_5a/output
I0403 18:29:49.495234 22581 net.cpp:148] Top shape: 24 832 7 7 (978432)
I0403 18:29:49.495249 22581 net.cpp:156] Memory required for data: 1309586976
I0403 18:29:49.495262 22581 layer_factory.hpp:77] Creating layer inception_5a/output_inception_5a/output_0_split
I0403 18:29:49.495278 22581 net.cpp:91] Creating Layer inception_5a/output_inception_5a/output_0_split
I0403 18:29:49.495293 22581 net.cpp:425] inception_5a/output_inception_5a/output_0_split <- inception_5a/output
I0403 18:29:49.495312 22581 net.cpp:399] inception_5a/output_inception_5a/output_0_split -> inception_5a/output_inception_5a/output_0_split_0
I0403 18:29:49.495332 22581 net.cpp:399] inception_5a/output_inception_5a/output_0_split -> inception_5a/output_inception_5a/output_0_split_1
I0403 18:29:49.495352 22581 net.cpp:399] inception_5a/output_inception_5a/output_0_split -> inception_5a/output_inception_5a/output_0_split_2
I0403 18:29:49.495371 22581 net.cpp:399] inception_5a/output_inception_5a/output_0_split -> inception_5a/output_inception_5a/output_0_split_3
I0403 18:29:49.495479 22581 net.cpp:141] Setting up inception_5a/output_inception_5a/output_0_split
I0403 18:29:49.495504 22581 net.cpp:148] Top shape: 24 832 7 7 (978432)
I0403 18:29:49.495520 22581 net.cpp:148] Top shape: 24 832 7 7 (978432)
I0403 18:29:49.495534 22581 net.cpp:148] Top shape: 24 832 7 7 (978432)
I0403 18:29:49.495558 22581 net.cpp:148] Top shape: 24 832 7 7 (978432)
I0403 18:29:49.495570 22581 net.cpp:156] Memory required for data: 1325241888
I0403 18:29:49.495584 22581 layer_factory.hpp:77] Creating layer inception_5b/1x1
I0403 18:29:49.495604 22581 net.cpp:91] Creating Layer inception_5b/1x1
I0403 18:29:49.495621 22581 net.cpp:425] inception_5b/1x1 <- inception_5a/output_inception_5a/output_0_split_0
I0403 18:29:49.495640 22581 net.cpp:399] inception_5b/1x1 -> inception_5b/1x1
I0403 18:29:49.499315 22581 net.cpp:141] Setting up inception_5b/1x1
I0403 18:29:49.499343 22581 net.cpp:148] Top shape: 24 384 7 7 (451584)
I0403 18:29:49.499357 22581 net.cpp:156] Memory required for data: 1327048224
I0403 18:29:49.499374 22581 layer_factory.hpp:77] Creating layer inception_5b/relu_1x1
I0403 18:29:49.499392 22581 net.cpp:91] Creating Layer inception_5b/relu_1x1
I0403 18:29:49.499408 22581 net.cpp:425] inception_5b/relu_1x1 <- inception_5b/1x1
I0403 18:29:49.499425 22581 net.cpp:386] inception_5b/relu_1x1 -> inception_5b/1x1 (in-place)
I0403 18:29:49.499724 22581 net.cpp:141] Setting up inception_5b/relu_1x1
I0403 18:29:49.499750 22581 net.cpp:148] Top shape: 24 384 7 7 (451584)
I0403 18:29:49.499764 22581 net.cpp:156] Memory required for data: 1328854560
I0403 18:29:49.499778 22581 layer_factory.hpp:77] Creating layer inception_5b/3x3_reduce
I0403 18:29:49.499799 22581 net.cpp:91] Creating Layer inception_5b/3x3_reduce
I0403 18:29:49.499816 22581 net.cpp:425] inception_5b/3x3_reduce <- inception_5a/output_inception_5a/output_0_split_1
I0403 18:29:49.499837 22581 net.cpp:399] inception_5b/3x3_reduce -> inception_5b/3x3_reduce
I0403 18:29:49.502398 22581 net.cpp:141] Setting up inception_5b/3x3_reduce
I0403 18:29:49.502426 22581 net.cpp:148] Top shape: 24 192 7 7 (225792)
I0403 18:29:49.502441 22581 net.cpp:156] Memory required for data: 1329757728
I0403 18:29:49.502457 22581 layer_factory.hpp:77] Creating layer inception_5b/relu_3x3_reduce
I0403 18:29:49.502477 22581 net.cpp:91] Creating Layer inception_5b/relu_3x3_reduce
I0403 18:29:49.502495 22581 net.cpp:425] inception_5b/relu_3x3_reduce <- inception_5b/3x3_reduce
I0403 18:29:49.502511 22581 net.cpp:386] inception_5b/relu_3x3_reduce -> inception_5b/3x3_reduce (in-place)
I0403 18:29:49.502698 22581 net.cpp:141] Setting up inception_5b/relu_3x3_reduce
I0403 18:29:49.502723 22581 net.cpp:148] Top shape: 24 192 7 7 (225792)
I0403 18:29:49.502737 22581 net.cpp:156] Memory required for data: 1330660896
I0403 18:29:49.502750 22581 layer_factory.hpp:77] Creating layer inception_5b/3x3
I0403 18:29:49.502774 22581 net.cpp:91] Creating Layer inception_5b/3x3
I0403 18:29:49.502790 22581 net.cpp:425] inception_5b/3x3 <- inception_5b/3x3_reduce
I0403 18:29:49.502807 22581 net.cpp:399] inception_5b/3x3 -> inception_5b/3x3
I0403 18:29:49.509212 22581 net.cpp:141] Setting up inception_5b/3x3
I0403 18:29:49.509241 22581 net.cpp:148] Top shape: 24 384 7 7 (451584)
I0403 18:29:49.509255 22581 net.cpp:156] Memory required for data: 1332467232
I0403 18:29:49.509273 22581 layer_factory.hpp:77] Creating layer inception_5b/relu_3x3
I0403 18:29:49.509291 22581 net.cpp:91] Creating Layer inception_5b/relu_3x3
I0403 18:29:49.509308 22581 net.cpp:425] inception_5b/relu_3x3 <- inception_5b/3x3
I0403 18:29:49.509325 22581 net.cpp:386] inception_5b/relu_3x3 -> inception_5b/3x3 (in-place)
I0403 18:29:49.509614 22581 net.cpp:141] Setting up inception_5b/relu_3x3
I0403 18:29:49.509640 22581 net.cpp:148] Top shape: 24 384 7 7 (451584)
I0403 18:29:49.509654 22581 net.cpp:156] Memory required for data: 1334273568
I0403 18:29:49.509668 22581 layer_factory.hpp:77] Creating layer inception_5b/5x5_reduce
I0403 18:29:49.509703 22581 net.cpp:91] Creating Layer inception_5b/5x5_reduce
I0403 18:29:49.509722 22581 net.cpp:425] inception_5b/5x5_reduce <- inception_5a/output_inception_5a/output_0_split_2
I0403 18:29:49.509742 22581 net.cpp:399] inception_5b/5x5_reduce -> inception_5b/5x5_reduce
I0403 18:29:49.510968 22581 net.cpp:141] Setting up inception_5b/5x5_reduce
I0403 18:29:49.510995 22581 net.cpp:148] Top shape: 24 48 7 7 (56448)
I0403 18:29:49.511010 22581 net.cpp:156] Memory required for data: 1334499360
I0403 18:29:49.511026 22581 layer_factory.hpp:77] Creating layer inception_5b/relu_5x5_reduce
I0403 18:29:49.511045 22581 net.cpp:91] Creating Layer inception_5b/relu_5x5_reduce
I0403 18:29:49.511061 22581 net.cpp:425] inception_5b/relu_5x5_reduce <- inception_5b/5x5_reduce
I0403 18:29:49.511078 22581 net.cpp:386] inception_5b/relu_5x5_reduce -> inception_5b/5x5_reduce (in-place)
I0403 18:29:49.511436 22581 net.cpp:141] Setting up inception_5b/relu_5x5_reduce
I0403 18:29:49.511462 22581 net.cpp:148] Top shape: 24 48 7 7 (56448)
I0403 18:29:49.511476 22581 net.cpp:156] Memory required for data: 1334725152
I0403 18:29:49.511490 22581 layer_factory.hpp:77] Creating layer inception_5b/5x5
I0403 18:29:49.511509 22581 net.cpp:91] Creating Layer inception_5b/5x5
I0403 18:29:49.511525 22581 net.cpp:425] inception_5b/5x5 <- inception_5b/5x5_reduce
I0403 18:29:49.511548 22581 net.cpp:399] inception_5b/5x5 -> inception_5b/5x5
I0403 18:29:49.513497 22581 net.cpp:141] Setting up inception_5b/5x5
I0403 18:29:49.513525 22581 net.cpp:148] Top shape: 24 128 7 7 (150528)
I0403 18:29:49.513545 22581 net.cpp:156] Memory required for data: 1335327264
I0403 18:29:49.513563 22581 layer_factory.hpp:77] Creating layer inception_5b/relu_5x5
I0403 18:29:49.513583 22581 net.cpp:91] Creating Layer inception_5b/relu_5x5
I0403 18:29:49.513599 22581 net.cpp:425] inception_5b/relu_5x5 <- inception_5b/5x5
I0403 18:29:49.513615 22581 net.cpp:386] inception_5b/relu_5x5 -> inception_5b/5x5 (in-place)
I0403 18:29:49.513803 22581 net.cpp:141] Setting up inception_5b/relu_5x5
I0403 18:29:49.513829 22581 net.cpp:148] Top shape: 24 128 7 7 (150528)
I0403 18:29:49.513844 22581 net.cpp:156] Memory required for data: 1335929376
I0403 18:29:49.513859 22581 layer_factory.hpp:77] Creating layer inception_5b/pool
I0403 18:29:49.513875 22581 net.cpp:91] Creating Layer inception_5b/pool
I0403 18:29:49.513890 22581 net.cpp:425] inception_5b/pool <- inception_5a/output_inception_5a/output_0_split_3
I0403 18:29:49.513908 22581 net.cpp:399] inception_5b/pool -> inception_5b/pool
I0403 18:29:49.513978 22581 net.cpp:141] Setting up inception_5b/pool
I0403 18:29:49.513999 22581 net.cpp:148] Top shape: 24 832 7 7 (978432)
I0403 18:29:49.514014 22581 net.cpp:156] Memory required for data: 1339843104
I0403 18:29:49.514026 22581 layer_factory.hpp:77] Creating layer inception_5b/pool_proj
I0403 18:29:49.514046 22581 net.cpp:91] Creating Layer inception_5b/pool_proj
I0403 18:29:49.514063 22581 net.cpp:425] inception_5b/pool_proj <- inception_5b/pool
I0403 18:29:49.514082 22581 net.cpp:399] inception_5b/pool_proj -> inception_5b/pool_proj
I0403 18:29:49.516321 22581 net.cpp:141] Setting up inception_5b/pool_proj
I0403 18:29:49.516351 22581 net.cpp:148] Top shape: 24 128 7 7 (150528)
I0403 18:29:49.516367 22581 net.cpp:156] Memory required for data: 1340445216
I0403 18:29:49.516383 22581 layer_factory.hpp:77] Creating layer inception_5b/relu_pool_proj
I0403 18:29:49.516402 22581 net.cpp:91] Creating Layer inception_5b/relu_pool_proj
I0403 18:29:49.516419 22581 net.cpp:425] inception_5b/relu_pool_proj <- inception_5b/pool_proj
I0403 18:29:49.516435 22581 net.cpp:386] inception_5b/relu_pool_proj -> inception_5b/pool_proj (in-place)
I0403 18:29:49.516736 22581 net.cpp:141] Setting up inception_5b/relu_pool_proj
I0403 18:29:49.516762 22581 net.cpp:148] Top shape: 24 128 7 7 (150528)
I0403 18:29:49.516777 22581 net.cpp:156] Memory required for data: 1341047328
I0403 18:29:49.516790 22581 layer_factory.hpp:77] Creating layer inception_5b/output
I0403 18:29:49.516806 22581 net.cpp:91] Creating Layer inception_5b/output
I0403 18:29:49.516834 22581 net.cpp:425] inception_5b/output <- inception_5b/1x1
I0403 18:29:49.516855 22581 net.cpp:425] inception_5b/output <- inception_5b/3x3
I0403 18:29:49.516870 22581 net.cpp:425] inception_5b/output <- inception_5b/5x5
I0403 18:29:49.516885 22581 net.cpp:425] inception_5b/output <- inception_5b/pool_proj
I0403 18:29:49.516901 22581 net.cpp:399] inception_5b/output -> inception_5b/output
I0403 18:29:49.516952 22581 net.cpp:141] Setting up inception_5b/output
I0403 18:29:49.516974 22581 net.cpp:148] Top shape: 24 1024 7 7 (1204224)
I0403 18:29:49.516988 22581 net.cpp:156] Memory required for data: 1345864224
I0403 18:29:49.517002 22581 layer_factory.hpp:77] Creating layer pool5/7x7_s1
I0403 18:29:49.517019 22581 net.cpp:91] Creating Layer pool5/7x7_s1
I0403 18:29:49.517032 22581 net.cpp:425] pool5/7x7_s1 <- inception_5b/output
I0403 18:29:49.517051 22581 net.cpp:399] pool5/7x7_s1 -> pool5/7x7_s1
I0403 18:29:49.517256 22581 net.cpp:141] Setting up pool5/7x7_s1
I0403 18:29:49.517279 22581 net.cpp:148] Top shape: 24 1024 1 1 (24576)
I0403 18:29:49.517293 22581 net.cpp:156] Memory required for data: 1345962528
I0403 18:29:49.517307 22581 layer_factory.hpp:77] Creating layer pool5/drop_7x7_s1
I0403 18:29:49.517325 22581 net.cpp:91] Creating Layer pool5/drop_7x7_s1
I0403 18:29:49.517341 22581 net.cpp:425] pool5/drop_7x7_s1 <- pool5/7x7_s1
I0403 18:29:49.517356 22581 net.cpp:386] pool5/drop_7x7_s1 -> pool5/7x7_s1 (in-place)
I0403 18:29:49.517405 22581 net.cpp:141] Setting up pool5/drop_7x7_s1
I0403 18:29:49.517427 22581 net.cpp:148] Top shape: 24 1024 1 1 (24576)
I0403 18:29:49.517441 22581 net.cpp:156] Memory required for data: 1346060832
I0403 18:29:49.517454 22581 layer_factory.hpp:77] Creating layer loss3/classifier_plantvillage
I0403 18:29:49.517472 22581 net.cpp:91] Creating Layer loss3/classifier_plantvillage
I0403 18:29:49.517487 22581 net.cpp:425] loss3/classifier_plantvillage <- pool5/7x7_s1
I0403 18:29:49.517506 22581 net.cpp:399] loss3/classifier_plantvillage -> loss3/classifier_plantvillage
I0403 18:29:49.517920 22581 net.cpp:141] Setting up loss3/classifier_plantvillage
I0403 18:29:49.517943 22581 net.cpp:148] Top shape: 24 38 (912)
I0403 18:29:49.517957 22581 net.cpp:156] Memory required for data: 1346064480
I0403 18:29:49.517973 22581 layer_factory.hpp:77] Creating layer loss3/classifier_plantvillage_loss3/classifier_plantvillage_0_split
I0403 18:29:49.517992 22581 net.cpp:91] Creating Layer loss3/classifier_plantvillage_loss3/classifier_plantvillage_0_split
I0403 18:29:49.518005 22581 net.cpp:425] loss3/classifier_plantvillage_loss3/classifier_plantvillage_0_split <- loss3/classifier_plantvillage
I0403 18:29:49.518024 22581 net.cpp:399] loss3/classifier_plantvillage_loss3/classifier_plantvillage_0_split -> loss3/classifier_plantvillage_loss3/classifier_plantvillage_0_split_0
I0403 18:29:49.518043 22581 net.cpp:399] loss3/classifier_plantvillage_loss3/classifier_plantvillage_0_split -> loss3/classifier_plantvillage_loss3/classifier_plantvillage_0_split_1
I0403 18:29:49.518062 22581 net.cpp:399] loss3/classifier_plantvillage_loss3/classifier_plantvillage_0_split -> loss3/classifier_plantvillage_loss3/classifier_plantvillage_0_split_2
I0403 18:29:49.518081 22581 net.cpp:399] loss3/classifier_plantvillage_loss3/classifier_plantvillage_0_split -> loss3/classifier_plantvillage_loss3/classifier_plantvillage_0_split_3
I0403 18:29:49.518192 22581 net.cpp:141] Setting up loss3/classifier_plantvillage_loss3/classifier_plantvillage_0_split
I0403 18:29:49.518214 22581 net.cpp:148] Top shape: 24 38 (912)
I0403 18:29:49.518230 22581 net.cpp:148] Top shape: 24 38 (912)
I0403 18:29:49.518244 22581 net.cpp:148] Top shape: 24 38 (912)
I0403 18:29:49.518260 22581 net.cpp:148] Top shape: 24 38 (912)
I0403 18:29:49.518271 22581 net.cpp:156] Memory required for data: 1346079072
I0403 18:29:49.518285 22581 layer_factory.hpp:77] Creating layer loss1/loss
I0403 18:29:49.518304 22581 net.cpp:91] Creating Layer loss1/loss
I0403 18:29:49.518321 22581 net.cpp:425] loss1/loss <- loss1/classifier_plantvillage_loss1/classifier_plantvillage_0_split_0
I0403 18:29:49.518350 22581 net.cpp:425] loss1/loss <- label_data_1_split_0
…
