…
I0403 17:59:01.635529 21039 net.cpp:313] The NetState phase (1) differed from the phase (0) specified by a rule in layer data
I0403 17:59:01.636797 21039 net.cpp:49] Initializing net from parameters: 
state {
  phase: TEST
}
layer {
  name: "data"
  type: "Data"
  top: "data"
  top: "label"
  include {
    phase: TEST
  }
  transform_param {
    mirror: false
    crop_size: 224
    mean_file: "/home/mohanty/data/final_dataset/lmdb/segmented-40-60/mean.binaryproto"
  }
  data_param {
    source: "/home/mohanty/data/final_dataset/lmdb/segmented-40-60/test_db"
    batch_size: 24
    backend: LMDB
  }
}
layer {
  name: "conv1/7x7_s2"
  type: "Convolution"
  bottom: "data"
  top: "conv1/7x7_s2"
  param {
    lr_mult: 1
    decay_mult: 1
  }
  param {
    lr_mult: 2
    decay_mult: 0
  }
  convolution_param {
    num_output: 64
    pad: 3
    kernel_size: 7
    stride: 2
    weight_filler {
      type: "xavier"
      std: 0.1
    }
    bias_filler {
      type: "constant"
      value: 0.2
    }
  }
}
layer {
  name: "conv1/relu_7x7"
  type: "ReLU"
  bottom: "conv1/7x7_s2"
  top: "conv1/7x7_s2"
}
layer {
  name: "pool1/3x3_s2"
  type: "Pooling"
  bottom: "conv1/7x7_s2"
  top: "pool1/3x3_s2"
  pooling_param {
    pool: MAX
    kernel_size: 3
    stride: 2
  }
}
layer {
  name: "pool1/norm1"
  type: "LRN"
  bottom: "pool1/3x3_s2"
  top: "pool1/norm1"
  lrn_param {
    local_size: 5
    alpha: 0.0001
    beta: 0.75
  }
}
layer {
  name: "conv2/3x3_reduce"
  type: "Convolution"
  bottom: "pool1/norm1"
  top: "conv2/3x3_reduce"
  param {
    lr_mult: 1
    decay_mult: 1
  }
  param {
    lr_mult: 2
    decay_mult: 0
  }
  convolution_param {
    num_output: 64
    kernel_size: 1
    weight_filler {
      type: "xavier"
      std: 0.1
    }
    bias_filler {
      type: "constant"
      value: 0.2
    }
  }
}
layer {
  name: "conv2/relu_3x3_reduce"
  type: "ReLU"
  bottom: "conv2/3x3_reduce"
  top: "conv2/3x3_reduce"
}
layer {
  name: "conv2/3x3"
  type: "Convolution"
  bottom: "conv2/3x3_reduce"
  top: "conv2/3x3"
  param {
    lr_mult: 1
    decay_mult: 1
  }
  param {
    lr_mult: 2
    decay_mult: 0
  }
  convolution_param {
    num_output: 192
    pad: 1
    kernel_size: 3
    weight_filler {
      type: "xavier"
      std: 0.03
    }
    bias_filler {
      type: "constant"
      value: 0.2
    }
  }
}
layer {
  name: "conv2/relu_3x3"
  type: "ReLU"
  bottom: "conv2/3x3"
  top: "conv2/3x3"
}
layer {
  name: "conv2/norm2"
  type: "LRN"
  bottom: "conv2/3x3"
  top: "conv2/norm2"
  lrn_param {
    local_size: 5
    alpha: 0.0001
    beta: 0.75
  }
}
layer {
  name: "pool2/3x3_s2"
  type: "Pooling"
  bottom: "conv2/norm2"
  top: "pool2/3x3_s2"
  pooling_param {
    pool: MAX
    kernel_size: 3
    stride: 2
  }
}
layer {
  name: "inception_3a/1x1"
  type: "Convolution"
  bottom: "pool2/3x3_s2"
  top: "inception_3a/1x1"
  param {
    lr_mult: 1
    decay_mult: 1
  }
  param {
    lr_mult: 2
    decay_mult: 0
  }
  convolution_param {
    num_output: 64
    kernel_size: 1
    weight_filler {
      type: "xavier"
      std: 0.03
    }
    bias_filler {
      type: "constant"
      value: 0.2
    }
  }
}
layer {
  name: "inception_3a/relu_1x1"
  type: "ReLU"
  bottom: "inception_3a/1x1"
  top: "inception_3a/1x1"
}
layer {
  name: "inception_3a/3x3_reduce"
  type: "Convolution"
  bottom: "pool2/3x3_s2"
  top: "inception_3a/3x3_reduce"
  param {
    lr_mult: 1
    decay_mult: 1
  }
  param {
    lr_mult: 2
    decay_mult: 0
  }
  convolution_param {
    num_output: 96
    kernel_size: 1
    weight_filler {
      type: "xavier"
      std: 0.09
    }
    bias_filler {
      type: "constant"
      value: 0.2
    }
  }
}
layer {
  name: "inception_3a/relu_3x3_reduce"
  type: "ReLU"
  bottom: "inception_3a/3x3_reduce"
  top: "inception_3a/3x3_reduce"
}
layer {
  name: "inception_3a/3x3"
  type: "Convolution"
  bottom: "inception_3a/3x3_reduce"
  top: "inception_3a/3x3"
  param {
    lr_mult: 1
    decay_mult: 1
  }
  param {
    lr_mult: 2
    decay_mult: 0
  }
  convolution_param {
    num_output: 128
    pad: 1
    kernel_size: 3
    weight_filler {
      type: "xavier"
      std: 0.03
    }
    bias_filler {
      type: "constant"
      value: 0.2
    }
  }
}
layer {
  name: "inception_3a/relu_3x3"
  type: "ReLU"
  bottom: "inception_3a/3x3"
  top: "inception_3a/3x3"
}
layer {
  name: "inception_3a/5x5_reduce"
  type: "Convolution"
  bottom: "pool2/3x3_s2"
  top: "inception_3a/5x5_reduce"
  param {
    lr_mult: 1
    decay_mult: 1
  }
  param {
    lr_mult: 2
    decay_mult: 0
  }
  convolution_param {
    num_output: 16
    kernel_size: 1
    weight_filler {
      type: "xavier"
      std: 0.2
    }
    bias_filler {
      type: "constant"
      value: 0.2
    }
  }
}
layer {
  name: "inception_3a/relu_5x5_reduce"
  type: "ReLU"
  bottom: "inception_3a/5x5_reduce"
  top: "inception_3a/5x5_reduce"
}
layer {
  name: "inception_3a/5x5"
  type: "Convolution"
  bottom: "inception_3a/5x5_reduce"
  top: "inception_3a/5x5"
  param {
    lr_mult: 1
    decay_mult: 1
  }
  param {
    lr_mult: 2
    decay_mult: 0
  }
  convolution_param {
    num_output: 32
    pad: 2
    kernel_size: 5
    weight_filler {
      type: "xavier"
      std: 0.03
    }
    bias_filler {
      type: "constant"
      value: 0.2
    }
  }
}
layer {
  name: "inception_3a/relu_5x5"
  type: "ReLU"
  bottom: "inception_3a/5x5"
  top: "inception_3a/5x5"
}
layer {
  name: "inception_3a/pool"
  type: "Pooling"
  bottom: "pool2/3x3_s2"
  top: "inception_3a/pool"
  pooling_param {
    pool: MAX
    kernel_size: 3
    stride: 1
    pad: 1
  }
}
layer {
  name: "inception_3a/pool_proj"
  type: "Convolution"
  bottom: "inception_3a/pool"
  top: "inception_3a/pool_proj"
  param {
    lr_mult: 1
    decay_mult: 1
  }
  param {
    lr_mult: 2
    decay_mult: 0
  }
  convolution_param {
    num_output: 32
    kernel_size: 1
    weight_filler {
      type: "xavier"
      std: 0.1
    }
    bias_filler {
      type: "constant"
      value: 0.2
    }
  }
}
layer {
  name: "inception_3a/relu_pool_proj"
  type: "ReLU"
  bottom: "inception_3a/pool_proj"
  top: "inception_3a/pool_proj"
}
layer {
  name: "inception_3a/output"
  type: "Concat"
  bottom: "inception_3a/1x1"
  bottom: "inception_3a/3x3"
  bottom: "inception_3a/5x5"
  bottom: "inception_3a/pool_proj"
  top: "inception_3a/output"
}
layer {
  name: "inception_3b/1x1"
  type: "Convolution"
  bottom: "inception_3a/output"
  top: "inception_3b/1x1"
  param {
    lr_mult: 1
    decay_mult: 1
  }
  param {
    lr_mult: 2
    decay_mult: 0
  }
  convolution_param {
    num_output: 128
    kernel_size: 1
    weight_filler {
      type: "xavier"
      std: 0.03
    }
    bias_filler {
      type: "constant"
      value: 0.2
    }
  }
}
layer {
  name: "inception_3b/relu_1x1"
  type: "ReLU"
  bottom: "inception_3b/1x1"
  top: "inception_3b/1x1"
}
layer {
  name: "inception_3b/3x3_reduce"
  type: "Convolution"
  bottom: "inception_3a/output"
  top: "inception_3b/3x3_reduce"
  param {
    lr_mult: 1
    decay_mult: 1
  }
  param {
    lr_mult: 2
    decay_mult: 0
  }
  convolution_param {
    num_output: 128
    kernel_size: 1
    weight_filler {
      type: "xavier"
      std: 0.09
    }
    bias_filler {
      type: "constant"
      value: 0.2
    }
  }
}
layer {
  name: "inception_3b/relu_3x3_reduce"
  type: "ReLU"
  bottom: "inception_3b/3x3_reduce"
  top: "inception_3b/3x3_reduce"
}
layer {
  name: "inception_3b/3x3"
  type: "Convolution"
  bottom: "inception_3b/3x3_reduce"
  top: "inception_3b/3x3"
  param {
    lr_mult: 1
    decay_mult: 1
  }
  param {
    lr_mult: 2
    decay_mult: 0
  }
  convolution_param {
    num_output: 192
    pad: 1
    kernel_size: 3
    weight_filler {
      type: "xavier"
      std: 0.03
    }
    bias_filler {
      type: "constant"
      value: 0.2
    }
  }
}
layer {
  name: "inception_3b/relu_3x3"
  type: "ReLU"
  bottom: "inception_3b/3x3"
  top: "inception_3b/3x3"
}
layer {
  name: "inception_3b/5x5_reduce"
  type: "Convolution"
  bottom: "inception_3a/output"
  top: "inception_3b/5x5_reduce"
  param {
    lr_mult: 1
    decay_mult: 1
  }
  param {
    lr_mult: 2
    decay_mult: 0
  }
  convolution_param {
    num_output: 32
    kernel_size: 1
    weight_filler {
      type: "xavier"
      std: 0.2
    }
    bias_filler {
      type: "constant"
      value: 0.2
    }
  }
}
layer {
  name: "inception_3b/relu_5x5_reduce"
  type: "ReLU"
  bottom: "inception_3b/5x5_reduce"
  top: "inception_3b/5x5_reduce"
}
layer {
  name: "inception_3b/5x5"
  type: "Convolution"
  bottom: "inception_3b/5x5_reduce"
  top: "inception_3b/5x5"
  param {
    lr_mult: 1
    decay_mult: 1
  }
  param {
    lr_mult: 2
    decay_mult: 0
  }
  convolution_param {
    num_output: 96
    pad: 2
    kernel_size: 5
    weight_filler {
      type: "xavier"
      std: 0.03
    }
    bias_filler {
      type: "constant"
      value: 0.2
    }
  }
}
layer {
  name: "inception_3b/relu_5x5"
  type: "ReLU"
  bottom: "inception_3b/5x5"
  top: "inception_3b/5x5"
}
layer {
  name: "inception_3b/pool"
  type: "Pooling"
  bottom: "inception_3a/output"
  top: "inception_3b/pool"
  pooling_param {
    pool: MAX
    kernel_size: 3
    stride: 1
    pad: 1
  }
}
layer {
  name: "inception_3b/pool_proj"
  type: "Convolution"
  bottom: "inception_3b/pool"
  top: "inception_3b/pool_proj"
  param {
    lr_mult: 1
    decay_mult: 1
  }
  param {
    lr_mult: 2
    decay_mult: 0
  }
  convolution_param {
    num_output: 64
    kernel_size: 1
    weight_filler {
      type: "xavier"
      std: 0.1
    }
    bias_filler {
      type: "constant"
      value: 0.2
    }
  }
}
layer {
  name: "inception_3b/relu_pool_proj"
  type: "ReLU"
  bottom: "inception_3b/pool_proj"
  top: "inception_3b/pool_proj"
}
layer {
  name: "inception_3b/output"
  type: "Concat"
  bottom: "inception_3b/1x1"
  bottom: "inception_3b/3x3"
  bottom: "inception_3b/5x5"
  bottom: "inception_3b/pool_proj"
  top: "inception_3b/output"
}
layer {
  name: "pool3/3x3_s2"
  type: "Pooling"
  bottom: "inception_3b/output"
  top: "pool3/3x3_s2"
  pooling_param {
    pool: MAX
    kernel_size: 3
    stride: 2
  }
}
layer {
  name: "inception_4a/1x1"
  type: "Convolution"
  bottom: "pool3/3x3_s2"
  top: "inception_4a/1x1"
  param {
    lr_mult: 1
    decay_mult: 1
  }
  param {
    lr_mult: 2
    decay_mult: 0
  }
  convolution_param {
    num_output: 192
    kernel_size: 1
    weight_filler {
      type: "xavier"
      std: 0.03
    }
    bias_filler {
      type: "constant"
      value: 0.2
    }
  }
}
layer {
  name: "inception_4a/relu_1x1"
  type: "ReLU"
  bottom: "inception_4a/1x1"
  top: "inception_4a/1x1"
}
layer {
  name: "inception_4a/3x3_reduce"
  type: "Convolution"
  bottom: "pool3/3x3_s2"
  top: "inception_4a/3x3_reduce"
  param {
    lr_mult: 1
    decay_mult: 1
  }
  param {
    lr_mult: 2
    decay_mult: 0
  }
  convolution_param {
    num_output: 96
    kernel_size: 1
    weight_filler {
      type: "xavier"
      std: 0.09
    }
    bias_filler {
      type: "constant"
      value: 0.2
    }
  }
}
layer {
  name: "inception_4a/relu_3x3_reduce"
  type: "ReLU"
  bottom: "inception_4a/3x3_reduce"
  top: "inception_4a/3x3_reduce"
}
layer {
  name: "inception_4a/3x3"
  type: "Convolution"
  bottom: "inception_4a/3x3_reduce"
  top: "inception_4a/3x3"
  param {
    lr_mult: 1
    decay_mult: 1
  }
  param {
    lr_mult: 2
    decay_mult: 0
  }
  convolution_param {
    num_output: 208
    pad: 1
    kernel_size: 3
    weight_filler {
      type: "xavier"
      std: 0.03
    }
    bias_filler {
      type: "constant"
      value: 0.2
    }
  }
}
layer {
  name: "inception_4a/relu_3x3"
  type: "ReLU"
  bottom: "inception_4a/3x3"
  top: "inception_4a/3x3"
}
layer {
  name: "inception_4a/5x5_reduce"
  type: "Convolution"
  bottom: "pool3/3x3_s2"
  top: "inception_4a/5x5_reduce"
  param {
    lr_mult: 1
    decay_mult: 1
  }
  param {
    lr_mult: 2
    decay_mult: 0
  }
  convolution_param {
    num_output: 16
    kernel_size: 1
    weight_filler {
      type: "xavier"
      std: 0.2
    }
    bias_filler {
      type: "constant"
      value: 0.2
    }
  }
}
layer {
  name: "inception_4a/relu_5x5_reduce"
  type: "ReLU"
  bottom: "inception_4a/5x5_reduce"
  top: "inception_4a/5x5_reduce"
}
layer {
  name: "inception_4a/5x5"
  type: "Convolution"
  bottom: "inception_4a/5x5_reduce"
  top: "inception_4a/5x5"
  param {
    lr_mult: 1
    decay_mult: 1
  }
  param {
    lr_mult: 2
    decay_mult: 0
  }
  convolution_param {
    num_output: 48
    pad: 2
    kernel_size: 5
    weight_filler {
      type: "xavier"
      std: 0.03
    }
    bias_filler {
      type: "constant"
      value: 0.2
    }
  }
}
layer {
  name: "inception_4a/relu_5x5"
  type: "ReLU"
  bottom: "inception_4a/5x5"
  top: "inception_4a/5x5"
}
layer {
  name: "inception_4a/pool"
  type: "Pooling"
  bottom: "pool3/3x3_s2"
  top: "inception_4a/pool"
  pooling_param {
    pool: MAX
    kernel_size: 3
    stride: 1
    pad: 1
  }
}
layer {
  name: "inception_4a/pool_proj"
  type: "Convolution"
  bottom: "inception_4a/pool"
  top: "inception_4a/pool_proj"
  param {
    lr_mult: 1
    decay_mult: 1
  }
  param {
    lr_mult: 2
    decay_mult: 0
  }
  convolution_param {
    num_output: 64
    kernel_size: 1
    weight_filler {
      type: "xavier"
      std: 0.1
    }
    bias_filler {
      type: "constant"
      value: 0.2
    }
  }
}
layer {
  name: "inception_4a/relu_pool_proj"
  type: "ReLU"
  bottom: "inception_4a/pool_proj"
  top: "inception_4a/pool_proj"
}
layer {
  name: "inception_4a/output"
  type: "Concat"
  bottom: "inception_4a/1x1"
  bottom: "inception_4a/3x3"
  bottom: "inception_4a/5x5"
  bottom: "inception_4a/pool_proj"
  top: "inception_4a/output"
}
layer {
  name: "loss1/ave_pool"
  type: "Pooling"
  bottom: "inception_4a/output"
  top: "loss1/ave_pool"
  pooling_param {
    pool: AVE
    kernel_size: 5
    stride: 3
  }
}
layer {
  name: "loss1/conv"
  type: "Convolution"
  bottom: "loss1/ave_pool"
  top: "loss1/conv"
  param {
    lr_mult: 1
    decay_mult: 1
  }
  param {
    lr_mult: 2
    decay_mult: 0
  }
  convolution_param {
    num_output: 128
    kernel_size: 1
    weight_filler {
      type: "xavier"
      std: 0.08
    }
    bias_filler {
      type: "constant"
      value: 0.2
    }
  }
}
layer {
  name: "loss1/relu_conv"
  type: "ReLU"
  bottom: "loss1/conv"
  top: "loss1/conv"
}
layer {
  name: "loss1/fc"
  type: "InnerProduct"
  bottom: "loss1/conv"
  top: "loss1/fc"
  param {
    lr_mult: 1
    decay_mult: 1
  }
  param {
    lr_mult: 2
    decay_mult: 0
  }
  inner_product_param {
    num_output: 1024
    weight_filler {
      type: "xavier"
      std: 0.02
    }
    bias_filler {
      type: "constant"
      value: 0.2
    }
  }
}
layer {
  name: "loss1/relu_fc"
  type: "ReLU"
  bottom: "loss1/fc"
  top: "loss1/fc"
}
layer {
  name: "loss1/drop_fc"
  type: "Dropout"
  bottom: "loss1/fc"
  top: "loss1/fc"
  dropout_param {
    dropout_ratio: 0.7
  }
}
layer {
  name: "loss1/classifier_plantvillage"
  type: "InnerProduct"
  bottom: "loss1/fc"
  top: "loss1/classifier_plantvillage"
  param {
    lr_mult: 1
    decay_mult: 1
  }
  param {
    lr_mult: 2
    decay_mult: 0
  }
  inner_product_param {
    num_output: 38
    weight_filler {
      type: "xavier"
      std: 0.0009765625
    }
    bias_filler {
      type: "constant"
      value: 0
    }
  }
}
layer {
  name: "inception_4b/1x1"
  type: "Convolution"
  bottom: "inception_4a/output"
  top: "inception_4b/1x1"
  param {
    lr_mult: 1
    decay_mult: 1
  }
  param {
    lr_mult: 2
    decay_mult: 0
  }
  convolution_param {
    num_output: 160
    kernel_size: 1
    weight_filler {
      type: "xavier"
      std: 0.03
    }
    bias_filler {
      type: "constant"
      value: 0.2
    }
  }
}
layer {
  name: "inception_4b/relu_1x1"
  type: "ReLU"
  bottom: "inception_4b/1x1"
  top: "inception_4b/1x1"
}
layer {
  name: "inception_4b/3x3_reduce"
  type: "Convolution"
  bottom: "inception_4a/output"
  top: "inception_4b/3x3_reduce"
  param {
    lr_mult: 1
    decay_mult: 1
  }
  param {
    lr_mult: 2
    decay_mult: 0
  }
  convolution_param {
    num_output: 112
    kernel_size: 1
    weight_filler {
      type: "xavier"
      std: 0.09
    }
    bias_filler {
      type: "constant"
      value: 0.2
    }
  }
}
layer {
  name: "inception_4b/relu_3x3_reduce"
  type: "ReLU"
  bottom: "inception_4b/3x3_reduce"
  top: "inception_4b/3x3_reduce"
}
layer {
  name: "inception_4b/3x3"
  type: "Convolution"
  bottom: "inception_4b/3x3_reduce"
  top: "inception_4b/3x3"
  param {
    lr_mult: 1
    decay_mult: 1
  }
  param {
    lr_mult: 2
    decay_mult: 0
  }
  convolution_param {
    num_output: 224
    pad: 1
    kernel_size: 3
    weight_filler {
      type: "xavier"
      std: 0.03
    }
    bias_filler {
      type: "constant"
      value: 0.2
    }
  }
}
layer {
  name: "inception_4b/relu_3x3"
  type: "ReLU"
  bottom: "inception_4b/3x3"
  top: "inception_4b/3x3"
}
layer {
  name: "inception_4b/5x5_reduce"
  type: "Convolution"
  bottom: "inception_4a/output"
  top: "inception_4b/5x5_reduce"
  param {
    lr_mult: 1
    decay_mult: 1
  }
  param {
    lr_mult: 2
    decay_mult: 0
  }
  convolution_param {
    num_output: 24
    kernel_size: 1
    weight_filler {
      type: "xavier"
      std: 0.2
    }
    bias_filler {
      type: "constant"
      value: 0.2
    }
  }
}
layer {
  name: "inception_4b/relu_5x5_reduce"
  type: "ReLU"
  bottom: "inception_4b/5x5_reduce"
  top: "inception_4b/5x5_reduce"
}
layer {
  name: "inception_4b/5x5"
  type: "Convolution"
  bottom: "inception_4b/5x5_reduce"
  top: "inception_4b/5x5"
  param {
    lr_mult: 1
    decay_mult: 1
  }
  param {
    lr_mult: 2
    decay_mult: 0
  }
  convolution_param {
    num_output: 64
    pad: 2
    kernel_size: 5
    weight_filler {
      type: "xavier"
      std: 0.03
    }
    bias_filler {
      type: "constant"
      value: 0.2
    }
  }
}
layer {
  name: "inception_4b/relu_5x5"
  type: "ReLU"
  bottom: "inception_4b/5x5"
  top: "inception_4b/5x5"
}
layer {
  name: "inception_4b/pool"
  type: "Pooling"
  bottom: "inception_4a/output"
  top: "inception_4b/pool"
  pooling_param {
    pool: MAX
    kernel_size: 3
    stride: 1
    pad: 1
  }
}
layer {
  name: "inception_4b/pool_proj"
  type: "Convolution"
  bottom: "inception_4b/pool"
  top: "inception_4b/pool_proj"
  param {
    lr_mult: 1
    decay_mult: 1
  }
  param {
    lr_mult: 2
    decay_mult: 0
  }
  convolution_param {
    num_output: 64
    kernel_size: 1
    weight_filler {
      type: "xavier"
      std: 0.1
    }
    bias_filler {
      type: "constant"
      value: 0.2
    }
  }
}
layer {
  name: "inception_4b/relu_pool_proj"
  type: "ReLU"
  bottom: "inception_4b/pool_proj"
  top: "inception_4b/pool_proj"
}
layer {
  name: "inception_4b/output"
  type: "Concat"
  bottom: "inception_4b/1x1"
  bottom: "inception_4b/3x3"
  bottom: "inception_4b/5x5"
  bottom: "inception_4b/pool_proj"
  top: "inception_4b/output"
}
layer {
  name: "inception_4c/1x1"
  type: "Convolution"
  bottom: "inception_4b/output"
  top: "inception_4c/1x1"
  param {
    lr_mult: 1
    decay_mult: 1
  }
  param {
    lr_mult: 2
    decay_mult: 0
  }
  convolution_param {
    num_output: 128
    kernel_size: 1
    weight_filler {
      type: "xavier"
      std: 0.03
    }
    bias_filler {
      type: "constant"
      value: 0.2
    }
  }
}
layer {
  name: "inception_4c/relu_1x1"
  type: "ReLU"
  bottom: "inception_4c/1x1"
  top: "inception_4c/1x1"
}
layer {
  name: "inception_4c/3x3_reduce"
  type: "Convolution"
  bottom: "inception_4b/output"
  top: "inception_4c/3x3_reduce"
  param {
    lr_mult: 1
    decay_mult: 1
  }
  param {
    lr_mult: 2
    decay_mult: 0
  }
  convolution_param {
    num_output: 128
    kernel_size: 1
    weight_filler {
      type: "xavier"
      std: 0.09
    }
    bias_filler {
      type: "constant"
      value: 0.2
    }
  }
}
layer {
  name: "inception_4c/relu_3x3_reduce"
  type: "ReLU"
  bottom: "inception_4c/3x3_reduce"
  top: "inception_4c/3x3_reduce"
}
layer {
  name: "inception_4c/3x3"
  type: "Convolution"
  bottom: "inception_4c/3x3_reduce"
  top: "inception_4c/3x3"
  param {
    lr_mult: 1
    decay_mult: 1
  }
  param {
    lr_mult: 2
    decay_mult: 0
  }
  convolution_param {
    num_output: 256
    pad: 1
    kernel_size: 3
    weight_filler {
      type: "xavier"
      std: 0.03
    }
    bias_filler {
      type: "constant"
      value: 0.2
    }
  }
}
layer {
  name: "inception_4c/relu_3x3"
  type: "ReLU"
  bottom: "inception_4c/3x3"
  top: "inception_4c/3x3"
}
layer {
  name: "inception_4c/5x5_reduce"
  type: "Convolution"
  bottom: "inception_4b/output"
  top: "inception_4c/5x5_reduce"
  param {
    lr_mult: 1
    decay_mult: 1
  }
  param {
    lr_mult: 2
    decay_mult: 0
  }
  convolution_param {
    num_output: 24
    kernel_size: 1
    weight_filler {
      type: "xavier"
      std: 0.2
    }
    bias_filler {
      type: "constant"
      value: 0.2
    }
  }
}
layer {
  name: "inception_4c/relu_5x5_reduce"
  type: "ReLU"
  bottom: "inception_4c/5x5_reduce"
  top: "inception_4c/5x5_reduce"
}
layer {
  name: "inception_4c/5x5"
  type: "Convolution"
  bottom: "inception_4c/5x5_reduce"
  top: "inception_4c/5x5"
  param {
    lr_mult: 1
    decay_mult: 1
  }
  param {
    lr_mult: 2
    decay_mult: 0
  }
  convolution_param {
    num_output: 64
    pad: 2
    kernel_size: 5
    weight_filler {
      type: "xavier"
      std: 0.03
    }
    bias_filler {
      type: "constant"
      value: 0.2
    }
  }
}
layer {
  name: "inception_4c/relu_5x5"
  type: "ReLU"
  bottom: "inception_4c/5x5"
  top: "inception_4c/5x5"
}
layer {
  name: "inception_4c/pool"
  type: "Pooling"
  bottom: "inception_4b/output"
  top: "inception_4c/pool"
  pooling_param {
    pool: MAX
    kernel_size: 3
    stride: 1
    pad: 1
  }
}
layer {
  name: "inception_4c/pool_proj"
  type: "Convolution"
  bottom: "inception_4c/pool"
  top: "inception_4c/pool_proj"
  param {
    lr_mult: 1
    decay_mult: 1
  }
  param {
    lr_mult: 2
    decay_mult: 0
  }
  convolution_param {
    num_output: 64
    kernel_size: 1
    weight_filler {
      type: "xavier"
      std: 0.1
    }
    bias_filler {
      type: "constant"
      value: 0.2
    }
  }
}
layer {
  name: "inception_4c/relu_pool_proj"
  type: "ReLU"
  bottom: "inception_4c/pool_proj"
  top: "inception_4c/pool_proj"
}
layer {
  name: "inception_4c/output"
  type: "Concat"
  bottom: "inception_4c/1x1"
  bottom: "inception_4c/3x3"
  bottom: "inception_4c/5x5"
  bottom: "inception_4c/pool_proj"
  top: "inception_4c/output"
}
layer {
  name: "inception_4d/1x1"
  type: "Convolution"
  bottom: "inception_4c/output"
  top: "inception_4d/1x1"
  param {
    lr_mult: 1
    decay_mult: 1
  }
  param {
    lr_mult: 2
    decay_mult: 0
  }
  convolution_param {
    num_output: 112
    kernel_size: 1
    weight_filler {
      type: "xavier"
      std: 0.03
    }
    bias_filler {
      type: "constant"
      value: 0.2
    }
  }
}
layer {
  name: "inception_4d/relu_1x1"
  type: "ReLU"
  bottom: "inception_4d/1x1"
  top: "inception_4d/1x1"
}
layer {
  name: "inception_4d/3x3_reduce"
  type: "Convolution"
  bottom: "inception_4c/output"
  top: "inception_4d/3x3_reduce"
  param {
    lr_mult: 1
    decay_mult: 1
  }
  param {
    lr_mult: 2
    decay_mult: 0
  }
  convolution_param {
    num_output: 144
    kernel_size: 1
    weight_filler {
      type: "xavier"
      std: 0.09
    }
    bias_filler {
      type: "constant"
      value: 0.2
    }
  }
}
layer {
  name: "inception_4d/relu_3x3_reduce"
  type: "ReLU"
  bottom: "inception_4d/3x3_reduce"
  top: "inception_4d/3x3_reduce"
}
layer {
  name: "inception_4d/3x3"
  type: "Convolution"
  bottom: "inception_4d/3x3_reduce"
  top: "inception_4d/3x3"
  param {
    lr_mult: 1
    decay_mult: 1
  }
  param {
    lr_mult: 2
    decay_mult: 0
  }
  convolution_param {
    num_output: 288
    pad: 1
    kernel_size: 3
    weight_filler {
      type: "xavier"
      std: 0.03
    }
    bias_filler {
      type: "constant"
      value: 0.2
    }
  }
}
layer {
  name: "inception_4d/relu_3x3"
  type: "ReLU"
  bottom: "inception_4d/3x3"
  top: "inception_4d/3x3"
}
layer {
  name: "inception_4d/5x5_reduce"
  type: "Convolution"
  bottom: "inception_4c/output"
  top: "inception_4d/5x5_reduce"
  param {
    lr_mult: 1
    decay_mult: 1
  }
  param {
    lr_mult: 2
    decay_mult: 0
  }
  convolution_param {
    num_output: 32
    kernel_size: 1
    weight_filler {
      type: "xavier"
      std: 0.2
    }
    bias_filler {
      type: "constant"
      value: 0.2
    }
  }
}
layer {
  name: "inception_4d/relu_5x5_reduce"
  type: "ReLU"
  bottom: "inception_4d/5x5_reduce"
  top: "inception_4d/5x5_reduce"
}
layer {
  name: "inception_4d/5x5"
  type: "Convolution"
  bottom: "inception_4d/5x5_reduce"
  top: "inception_4d/5x5"
  param {
    lr_mult: 1
    decay_mult: 1
  }
  param {
    lr_mult: 2
    decay_mult: 0
  }
  convolution_param {
    num_output: 64
    pad: 2
    kernel_size: 5
    weight_filler {
      type: "xavier"
      std: 0.03
    }
    bias_filler {
      type: "constant"
      value: 0.2
    }
  }
}
layer {
  name: "inception_4d/relu_5x5"
  type: "ReLU"
  bottom: "inception_4d/5x5"
  top: "inception_4d/5x5"
}
layer {
  name: "inception_4d/pool"
  type: "Pooling"
  bottom: "inception_4c/output"
  top: "inception_4d/pool"
  pooling_param {
    pool: MAX
    kernel_size: 3
    stride: 1
    pad: 1
  }
}
layer {
  name: "inception_4d/pool_proj"
  type: "Convolution"
  bottom: "inception_4d/pool"
  top: "inception_4d/pool_proj"
  param {
    lr_mult: 1
    decay_mult: 1
  }
  param {
    lr_mult: 2
    decay_mult: 0
  }
  convolution_param {
    num_output: 64
    kernel_size: 1
    weight_filler {
      type: "xavier"
      std: 0.1
    }
    bias_filler {
      type: "constant"
      value: 0.2
    }
  }
}
layer {
  name: "inception_4d/relu_pool_proj"
  type: "ReLU"
  bottom: "inception_4d/pool_proj"
  top: "inception_4d/pool_proj"
}
layer {
  name: "inception_4d/output"
  type: "Concat"
  bottom: "inception_4d/1x1"
  bottom: "inception_4d/3x3"
  bottom: "inception_4d/5x5"
  bottom: "inception_4d/pool_proj"
  top: "inception_4d/output"
}
layer {
  name: "loss2/ave_pool"
  type: "Pooling"
  bottom: "inception_4d/output"
  top: "loss2/ave_pool"
  pooling_param {
    pool: AVE
    kernel_size: 5
    stride: 3
  }
}
layer {
  name: "loss2/conv"
  type: "Convolution"
  bottom: "loss2/ave_pool"
  top: "loss2/conv"
  param {
    lr_mult: 1
    decay_mult: 1
  }
  param {
    lr_mult: 2
    decay_mult: 0
  }
  convolution_param {
    num_output: 128
    kernel_size: 1
    weight_filler {
      type: "xavier"
      std: 0.08
    }
    bias_filler {
      type: "constant"
      value: 0.2
    }
  }
}
layer {
  name: "loss2/relu_conv"
  type: "ReLU"
  bottom: "loss2/conv"
  top: "loss2/conv"
}
layer {
  name: "loss2/fc"
  type: "InnerProduct"
  bottom: "loss2/conv"
  top: "loss2/fc"
  param {
    lr_mult: 1
    decay_mult: 1
  }
  param {
    lr_mult: 2
    decay_mult: 0
  }
  inner_product_param {
    num_output: 1024
    weight_filler {
      type: "xavier"
      std: 0.02
    }
    bias_filler {
      type: "constant"
      value: 0.2
    }
  }
}
layer {
  name: "loss2/relu_fc"
  type: "ReLU"
  bottom: "loss2/fc"
  top: "loss2/fc"
}
layer {
  name: "loss2/drop_fc"
  type: "Dropout"
  bottom: "loss2/fc"
  top: "loss2/fc"
  dropout_param {
    dropout_ratio: 0.7
  }
}
layer {
  name: "loss2/classifier_plantvillage"
  type: "InnerProduct"
  bottom: "loss2/fc"
  top: "loss2/classifier_plantvillage"
  param {
    lr_mult: 1
    decay_mult: 1
  }
  param {
    lr_mult: 2
    decay_mult: 0
  }
  inner_product_param {
    num_output: 38
    weight_filler {
      type: "xavier"
      std: 0.0009765625
    }
    bias_filler {
      type: "constant"
      value: 0
    }
  }
}
layer {
  name: "inception_4e/1x1"
  type: "Convolution"
  bottom: "inception_4d/output"
  top: "inception_4e/1x1"
  param {
    lr_mult: 1
    decay_mult: 1
  }
  param {
    lr_mult: 2
    decay_mult: 0
  }
  convolution_param {
    num_output: 256
    kernel_size: 1
    weight_filler {
      type: "xavier"
      std: 0.03
    }
    bias_filler {
      type: "constant"
      value: 0.2
    }
  }
}
layer {
  name: "inception_4e/relu_1x1"
  type: "ReLU"
  bottom: "inception_4e/1x1"
  top: "inception_4e/1x1"
}
layer {
  name: "inception_4e/3x3_reduce"
  type: "Convolution"
  bottom: "inception_4d/output"
  top: "inception_4e/3x3_reduce"
  param {
    lr_mult: 1
    decay_mult: 1
  }
  param {
    lr_mult: 2
    decay_mult: 0
  }
  convolution_param {
    num_output: 160
    kernel_size: 1
    weight_filler {
      type: "xavier"
      std: 0.09
    }
    bias_filler {
      type: "constant"
      value: 0.2
    }
  }
}
layer {
  name: "inception_4e/relu_3x3_reduce"
  type: "ReLU"
  bottom: "inception_4e/3x3_reduce"
  top: "inception_4e/3x3_reduce"
}
layer {
  name: "inception_4e/3x3"
  type: "Convolution"
  bottom: "inception_4e/3x3_reduce"
  top: "inception_4e/3x3"
  param {
    lr_mult: 1
    decay_mult: 1
  }
  param {
    lr_mult: 2
    decay_mult: 0
  }
  convolution_param {
    num_output: 320
    pad: 1
    kernel_size: 3
    weight_filler {
      type: "xavier"
      std: 0.03
    }
    bias_filler {
      type: "constant"
      value: 0.2
    }
  }
}
layer {
  name: "inception_4e/relu_3x3"
  type: "ReLU"
  bottom: "inception_4e/3x3"
  top: "inception_4e/3x3"
}
layer {
  name: "inception_4e/5x5_reduce"
  type: "Convolution"
  bottom: "inception_4d/output"
  top: "inception_4e/5x5_reduce"
  param {
    lr_mult: 1
    decay_mult: 1
  }
  param {
    lr_mult: 2
    decay_mult: 0
  }
  convolution_param {
    num_output: 32
    kernel_size: 1
    weight_filler {
      type: "xavier"
      std: 0.2
    }
    bias_filler {
      type: "constant"
      value: 0.2
    }
  }
}
layer {
  name: "inception_4e/relu_5x5_reduce"
  type: "ReLU"
  bottom: "inception_4e/5x5_reduce"
  top: "inception_4e/5x5_reduce"
}
layer {
  name: "inception_4e/5x5"
  type: "Convolution"
  bottom: "inception_4e/5x5_reduce"
  top: "inception_4e/
I0403 17:59:01.639667 21039 layer_factory.hpp:77] Creating layer data
I0403 17:59:01.640547 21039 net.cpp:91] Creating Layer data
I0403 17:59:01.640578 21039 net.cpp:399] data -> data
I0403 17:59:01.640668 21039 net.cpp:399] data -> label
I0403 17:59:01.640738 21039 data_transformer.cpp:25] Loading mean file from: /home/mohanty/data/final_dataset/lmdb/segmented-40-60/mean.binaryproto
I0403 17:59:01.721161 21042 db_lmdb.cpp:38] Opened lmdb /home/mohanty/data/final_dataset/lmdb/segmented-40-60/test_db
I0403 17:59:01.742085 21039 data_layer.cpp:41] output data size: 24,3,224,224
I0403 17:59:01.771404 21039 net.cpp:141] Setting up data
I0403 17:59:01.771502 21039 net.cpp:148] Top shape: 24 3 224 224 (3612672)
I0403 17:59:01.771528 21039 net.cpp:148] Top shape: 24 (24)
I0403 17:59:01.771544 21039 net.cpp:156] Memory required for data: 14450784
I0403 17:59:01.771572 21039 layer_factory.hpp:77] Creating layer label_data_1_split
I0403 17:59:01.771598 21039 net.cpp:91] Creating Layer label_data_1_split
I0403 17:59:01.771616 21039 net.cpp:425] label_data_1_split <- label
I0403 17:59:01.771648 21039 net.cpp:399] label_data_1_split -> label_data_1_split_0
I0403 17:59:01.771677 21039 net.cpp:399] label_data_1_split -> label_data_1_split_1
I0403 17:59:01.771698 21039 net.cpp:399] label_data_1_split -> label_data_1_split_2
I0403 17:59:01.771726 21039 net.cpp:399] label_data_1_split -> label_data_1_split_3
I0403 17:59:01.771746 21039 net.cpp:399] label_data_1_split -> label_data_1_split_4
I0403 17:59:01.771767 21039 net.cpp:399] label_data_1_split -> label_data_1_split_5
I0403 17:59:01.771787 21039 net.cpp:399] label_data_1_split -> label_data_1_split_6
I0403 17:59:01.771807 21039 net.cpp:399] label_data_1_split -> label_data_1_split_7
I0403 17:59:01.771827 21039 net.cpp:399] label_data_1_split -> label_data_1_split_8
I0403 17:59:01.771847 21039 net.cpp:399] label_data_1_split -> label_data_1_split_9
I0403 17:59:01.771978 21039 net.cpp:141] Setting up label_data_1_split
I0403 17:59:01.772003 21039 net.cpp:148] Top shape: 24 (24)
I0403 17:59:01.772022 21039 net.cpp:148] Top shape: 24 (24)
I0403 17:59:01.772039 21039 net.cpp:148] Top shape: 24 (24)
I0403 17:59:01.772055 21039 net.cpp:148] Top shape: 24 (24)
I0403 17:59:01.772070 21039 net.cpp:148] Top shape: 24 (24)
I0403 17:59:01.772085 21039 net.cpp:148] Top shape: 24 (24)
I0403 17:59:01.772101 21039 net.cpp:148] Top shape: 24 (24)
I0403 17:59:01.772117 21039 net.cpp:148] Top shape: 24 (24)
I0403 17:59:01.772133 21039 net.cpp:148] Top shape: 24 (24)
I0403 17:59:01.772148 21039 net.cpp:148] Top shape: 24 (24)
I0403 17:59:01.772195 21039 net.cpp:156] Memory required for data: 14451744
I0403 17:59:01.772212 21039 layer_factory.hpp:77] Creating layer conv1/7x7_s2
I0403 17:59:01.772353 21039 net.cpp:91] Creating Layer conv1/7x7_s2
I0403 17:59:01.772378 21039 net.cpp:425] conv1/7x7_s2 <- data
I0403 17:59:01.772398 21039 net.cpp:399] conv1/7x7_s2 -> conv1/7x7_s2
I0403 17:59:01.913535 21039 net.cpp:141] Setting up conv1/7x7_s2
I0403 17:59:01.913600 21039 net.cpp:148] Top shape: 24 64 112 112 (19267584)
I0403 17:59:01.913619 21039 net.cpp:156] Memory required for data: 91522080
I0403 17:59:01.913651 21039 layer_factory.hpp:77] Creating layer conv1/relu_7x7
I0403 17:59:01.913691 21039 net.cpp:91] Creating Layer conv1/relu_7x7
I0403 17:59:01.913712 21039 net.cpp:425] conv1/relu_7x7 <- conv1/7x7_s2
I0403 17:59:01.913732 21039 net.cpp:386] conv1/relu_7x7 -> conv1/7x7_s2 (in-place)
I0403 17:59:01.914011 21039 net.cpp:141] Setting up conv1/relu_7x7
I0403 17:59:01.914037 21039 net.cpp:148] Top shape: 24 64 112 112 (19267584)
I0403 17:59:01.914052 21039 net.cpp:156] Memory required for data: 168592416
I0403 17:59:01.914067 21039 layer_factory.hpp:77] Creating layer pool1/3x3_s2
I0403 17:59:01.914105 21039 net.cpp:91] Creating Layer pool1/3x3_s2
I0403 17:59:01.914126 21039 net.cpp:425] pool1/3x3_s2 <- conv1/7x7_s2
I0403 17:59:01.914144 21039 net.cpp:399] pool1/3x3_s2 -> pool1/3x3_s2
I0403 17:59:01.914252 21039 net.cpp:141] Setting up pool1/3x3_s2
I0403 17:59:01.914276 21039 net.cpp:148] Top shape: 24 64 56 56 (4816896)
I0403 17:59:01.914291 21039 net.cpp:156] Memory required for data: 187860000
I0403 17:59:01.914305 21039 layer_factory.hpp:77] Creating layer pool1/norm1
I0403 17:59:01.914342 21039 net.cpp:91] Creating Layer pool1/norm1
I0403 17:59:01.914362 21039 net.cpp:425] pool1/norm1 <- pool1/3x3_s2
I0403 17:59:01.914381 21039 net.cpp:399] pool1/norm1 -> pool1/norm1
I0403 17:59:01.914722 21039 net.cpp:141] Setting up pool1/norm1
I0403 17:59:01.914751 21039 net.cpp:148] Top shape: 24 64 56 56 (4816896)
I0403 17:59:01.914765 21039 net.cpp:156] Memory required for data: 207127584
I0403 17:59:01.914780 21039 layer_factory.hpp:77] Creating layer conv2/3x3_reduce
I0403 17:59:01.914808 21039 net.cpp:91] Creating Layer conv2/3x3_reduce
I0403 17:59:01.914825 21039 net.cpp:425] conv2/3x3_reduce <- pool1/norm1
I0403 17:59:01.914844 21039 net.cpp:399] conv2/3x3_reduce -> conv2/3x3_reduce
I0403 17:59:01.916281 21039 net.cpp:141] Setting up conv2/3x3_reduce
I0403 17:59:01.916312 21039 net.cpp:148] Top shape: 24 64 56 56 (4816896)
I0403 17:59:01.916328 21039 net.cpp:156] Memory required for data: 226395168
I0403 17:59:01.916349 21039 layer_factory.hpp:77] Creating layer conv2/relu_3x3_reduce
I0403 17:59:01.916369 21039 net.cpp:91] Creating Layer conv2/relu_3x3_reduce
I0403 17:59:01.916389 21039 net.cpp:425] conv2/relu_3x3_reduce <- conv2/3x3_reduce
I0403 17:59:01.916406 21039 net.cpp:386] conv2/relu_3x3_reduce -> conv2/3x3_reduce (in-place)
I0403 17:59:01.916681 21039 net.cpp:141] Setting up conv2/relu_3x3_reduce
I0403 17:59:01.916707 21039 net.cpp:148] Top shape: 24 64 56 56 (4816896)
I0403 17:59:01.916723 21039 net.cpp:156] Memory required for data: 245662752
I0403 17:59:01.916738 21039 layer_factory.hpp:77] Creating layer conv2/3x3
I0403 17:59:01.916761 21039 net.cpp:91] Creating Layer conv2/3x3
I0403 17:59:01.916779 21039 net.cpp:425] conv2/3x3 <- conv2/3x3_reduce
I0403 17:59:01.916800 21039 net.cpp:399] conv2/3x3 -> conv2/3x3
I0403 17:59:01.919122 21039 net.cpp:141] Setting up conv2/3x3
I0403 17:59:01.919152 21039 net.cpp:148] Top shape: 24 192 56 56 (14450688)
I0403 17:59:01.919168 21039 net.cpp:156] Memory required for data: 303465504
I0403 17:59:01.919189 21039 layer_factory.hpp:77] Creating layer conv2/relu_3x3
I0403 17:59:01.919210 21039 net.cpp:91] Creating Layer conv2/relu_3x3
I0403 17:59:01.919226 21039 net.cpp:425] conv2/relu_3x3 <- conv2/3x3
I0403 17:59:01.919245 21039 net.cpp:386] conv2/relu_3x3 -> conv2/3x3 (in-place)
I0403 17:59:01.919420 21039 net.cpp:141] Setting up conv2/relu_3x3
I0403 17:59:01.919445 21039 net.cpp:148] Top shape: 24 192 56 56 (14450688)
I0403 17:59:01.919491 21039 net.cpp:156] Memory required for data: 361268256
I0403 17:59:01.919510 21039 layer_factory.hpp:77] Creating layer conv2/norm2
I0403 17:59:01.919533 21039 net.cpp:91] Creating Layer conv2/norm2
I0403 17:59:01.919550 21039 net.cpp:425] conv2/norm2 <- conv2/3x3
I0403 17:59:01.919569 21039 net.cpp:399] conv2/norm2 -> conv2/norm2
I0403 17:59:01.919867 21039 net.cpp:141] Setting up conv2/norm2
I0403 17:59:01.919896 21039 net.cpp:148] Top shape: 24 192 56 56 (14450688)
I0403 17:59:01.919912 21039 net.cpp:156] Memory required for data: 419071008
I0403 17:59:01.919927 21039 layer_factory.hpp:77] Creating layer pool2/3x3_s2
I0403 17:59:01.919945 21039 net.cpp:91] Creating Layer pool2/3x3_s2
I0403 17:59:01.919960 21039 net.cpp:425] pool2/3x3_s2 <- conv2/norm2
I0403 17:59:01.919978 21039 net.cpp:399] pool2/3x3_s2 -> pool2/3x3_s2
I0403 17:59:01.920030 21039 net.cpp:141] Setting up pool2/3x3_s2
I0403 17:59:01.920059 21039 net.cpp:148] Top shape: 24 192 28 28 (3612672)
I0403 17:59:01.920074 21039 net.cpp:156] Memory required for data: 433521696
I0403 17:59:01.920089 21039 layer_factory.hpp:77] Creating layer pool2/3x3_s2_pool2/3x3_s2_0_split
I0403 17:59:01.920105 21039 net.cpp:91] Creating Layer pool2/3x3_s2_pool2/3x3_s2_0_split
I0403 17:59:01.920120 21039 net.cpp:425] pool2/3x3_s2_pool2/3x3_s2_0_split <- pool2/3x3_s2
I0403 17:59:01.920137 21039 net.cpp:399] pool2/3x3_s2_pool2/3x3_s2_0_split -> pool2/3x3_s2_pool2/3x3_s2_0_split_0
I0403 17:59:01.920156 21039 net.cpp:399] pool2/3x3_s2_pool2/3x3_s2_0_split -> pool2/3x3_s2_pool2/3x3_s2_0_split_1
I0403 17:59:01.920178 21039 net.cpp:399] pool2/3x3_s2_pool2/3x3_s2_0_split -> pool2/3x3_s2_pool2/3x3_s2_0_split_2
I0403 17:59:01.920199 21039 net.cpp:399] pool2/3x3_s2_pool2/3x3_s2_0_split -> pool2/3x3_s2_pool2/3x3_s2_0_split_3
I0403 17:59:01.920271 21039 net.cpp:141] Setting up pool2/3x3_s2_pool2/3x3_s2_0_split
I0403 17:59:01.920295 21039 net.cpp:148] Top shape: 24 192 28 28 (3612672)
I0403 17:59:01.920310 21039 net.cpp:148] Top shape: 24 192 28 28 (3612672)
I0403 17:59:01.920325 21039 net.cpp:148] Top shape: 24 192 28 28 (3612672)
I0403 17:59:01.920341 21039 net.cpp:148] Top shape: 24 192 28 28 (3612672)
I0403 17:59:01.920354 21039 net.cpp:156] Memory required for data: 491324448
I0403 17:59:01.920368 21039 layer_factory.hpp:77] Creating layer inception_3a/1x1
I0403 17:59:01.920390 21039 net.cpp:91] Creating Layer inception_3a/1x1
I0403 17:59:01.920408 21039 net.cpp:425] inception_3a/1x1 <- pool2/3x3_s2_pool2/3x3_s2_0_split_0
I0403 17:59:01.920428 21039 net.cpp:399] inception_3a/1x1 -> inception_3a/1x1
I0403 17:59:01.921967 21039 net.cpp:141] Setting up inception_3a/1x1
I0403 17:59:01.921996 21039 net.cpp:148] Top shape: 24 64 28 28 (1204224)
I0403 17:59:01.922013 21039 net.cpp:156] Memory required for data: 496141344
I0403 17:59:01.922030 21039 layer_factory.hpp:77] Creating layer inception_3a/relu_1x1
I0403 17:59:01.922049 21039 net.cpp:91] Creating Layer inception_3a/relu_1x1
I0403 17:59:01.922063 21039 net.cpp:425] inception_3a/relu_1x1 <- inception_3a/1x1
I0403 17:59:01.922082 21039 net.cpp:386] inception_3a/relu_1x1 -> inception_3a/1x1 (in-place)
I0403 17:59:01.922253 21039 net.cpp:141] Setting up inception_3a/relu_1x1
I0403 17:59:01.922279 21039 net.cpp:148] Top shape: 24 64 28 28 (1204224)
I0403 17:59:01.922294 21039 net.cpp:156] Memory required for data: 500958240
I0403 17:59:01.922308 21039 layer_factory.hpp:77] Creating layer inception_3a/3x3_reduce
I0403 17:59:01.922330 21039 net.cpp:91] Creating Layer inception_3a/3x3_reduce
I0403 17:59:01.922348 21039 net.cpp:425] inception_3a/3x3_reduce <- pool2/3x3_s2_pool2/3x3_s2_0_split_1
I0403 17:59:01.922368 21039 net.cpp:399] inception_3a/3x3_reduce -> inception_3a/3x3_reduce
I0403 17:59:01.924060 21039 net.cpp:141] Setting up inception_3a/3x3_reduce
I0403 17:59:01.924089 21039 net.cpp:148] Top shape: 24 96 28 28 (1806336)
I0403 17:59:01.924105 21039 net.cpp:156] Memory required for data: 508183584
I0403 17:59:01.924126 21039 layer_factory.hpp:77] Creating layer inception_3a/relu_3x3_reduce
I0403 17:59:01.924163 21039 net.cpp:91] Creating Layer inception_3a/relu_3x3_reduce
I0403 17:59:01.924181 21039 net.cpp:425] inception_3a/relu_3x3_reduce <- inception_3a/3x3_reduce
I0403 17:59:01.924198 21039 net.cpp:386] inception_3a/relu_3x3_reduce -> inception_3a/3x3_reduce (in-place)
I0403 17:59:01.924376 21039 net.cpp:141] Setting up inception_3a/relu_3x3_reduce
I0403 17:59:01.924403 21039 net.cpp:148] Top shape: 24 96 28 28 (1806336)
I0403 17:59:01.924418 21039 net.cpp:156] Memory required for data: 515408928
I0403 17:59:01.924432 21039 layer_factory.hpp:77] Creating layer inception_3a/3x3
I0403 17:59:01.924455 21039 net.cpp:91] Creating Layer inception_3a/3x3
I0403 17:59:01.924473 21039 net.cpp:425] inception_3a/3x3 <- inception_3a/3x3_reduce
I0403 17:59:01.924490 21039 net.cpp:399] inception_3a/3x3 -> inception_3a/3x3
I0403 17:59:01.926122 21039 net.cpp:141] Setting up inception_3a/3x3
I0403 17:59:01.926151 21039 net.cpp:148] Top shape: 24 128 28 28 (2408448)
I0403 17:59:01.926167 21039 net.cpp:156] Memory required for data: 525042720
I0403 17:59:01.926183 21039 layer_factory.hpp:77] Creating layer inception_3a/relu_3x3
I0403 17:59:01.926204 21039 net.cpp:91] Creating Layer inception_3a/relu_3x3
I0403 17:59:01.926220 21039 net.cpp:425] inception_3a/relu_3x3 <- inception_3a/3x3
I0403 17:59:01.926237 21039 net.cpp:386] inception_3a/relu_3x3 -> inception_3a/3x3 (in-place)
I0403 17:59:01.926512 21039 net.cpp:141] Setting up inception_3a/relu_3x3
I0403 17:59:01.926537 21039 net.cpp:148] Top shape: 24 128 28 28 (2408448)
I0403 17:59:01.926553 21039 net.cpp:156] Memory required for data: 534676512
I0403 17:59:01.926568 21039 layer_factory.hpp:77] Creating layer inception_3a/5x5_reduce
I0403 17:59:01.926589 21039 net.cpp:91] Creating Layer inception_3a/5x5_reduce
I0403 17:59:01.926607 21039 net.cpp:425] inception_3a/5x5_reduce <- pool2/3x3_s2_pool2/3x3_s2_0_split_2
I0403 17:59:01.926628 21039 net.cpp:399] inception_3a/5x5_reduce -> inception_3a/5x5_reduce
I0403 17:59:01.927605 21039 net.cpp:141] Setting up inception_3a/5x5_reduce
I0403 17:59:01.927633 21039 net.cpp:148] Top shape: 24 16 28 28 (301056)
I0403 17:59:01.927647 21039 net.cpp:156] Memory required for data: 535880736
I0403 17:59:01.927664 21039 layer_factory.hpp:77] Creating layer inception_3a/relu_5x5_reduce
I0403 17:59:01.927686 21039 net.cpp:91] Creating Layer inception_3a/relu_5x5_reduce
I0403 17:59:01.927702 21039 net.cpp:425] inception_3a/relu_5x5_reduce <- inception_3a/5x5_reduce
I0403 17:59:01.927719 21039 net.cpp:386] inception_3a/relu_5x5_reduce -> inception_3a/5x5_reduce (in-place)
I0403 17:59:01.928007 21039 net.cpp:141] Setting up inception_3a/relu_5x5_reduce
I0403 17:59:01.928033 21039 net.cpp:148] Top shape: 24 16 28 28 (301056)
I0403 17:59:01.928048 21039 net.cpp:156] Memory required for data: 537084960
I0403 17:59:01.928063 21039 layer_factory.hpp:77] Creating layer inception_3a/5x5
I0403 17:59:01.928086 21039 net.cpp:91] Creating Layer inception_3a/5x5
I0403 17:59:01.928103 21039 net.cpp:425] inception_3a/5x5 <- inception_3a/5x5_reduce
I0403 17:59:01.928123 21039 net.cpp:399] inception_3a/5x5 -> inception_3a/5x5
I0403 17:59:01.929116 21039 net.cpp:141] Setting up inception_3a/5x5
I0403 17:59:01.929142 21039 net.cpp:148] Top shape: 24 32 28 28 (602112)
I0403 17:59:01.929157 21039 net.cpp:156] Memory required for data: 539493408
I0403 17:59:01.929175 21039 layer_factory.hpp:77] Creating layer inception_3a/relu_5x5
I0403 17:59:01.929193 21039 net.cpp:91] Creating Layer inception_3a/relu_5x5
I0403 17:59:01.929209 21039 net.cpp:425] inception_3a/relu_5x5 <- inception_3a/5x5
I0403 17:59:01.929229 21039 net.cpp:386] inception_3a/relu_5x5 -> inception_3a/5x5 (in-place)
I0403 17:59:01.929395 21039 net.cpp:141] Setting up inception_3a/relu_5x5
I0403 17:59:01.929420 21039 net.cpp:148] Top shape: 24 32 28 28 (602112)
I0403 17:59:01.929435 21039 net.cpp:156] Memory required for data: 541901856
I0403 17:59:01.929448 21039 layer_factory.hpp:77] Creating layer inception_3a/pool
I0403 17:59:01.929468 21039 net.cpp:91] Creating Layer inception_3a/pool
I0403 17:59:01.929502 21039 net.cpp:425] inception_3a/pool <- pool2/3x3_s2_pool2/3x3_s2_0_split_3
I0403 17:59:01.929525 21039 net.cpp:399] inception_3a/pool -> inception_3a/pool
I0403 17:59:01.929584 21039 net.cpp:141] Setting up inception_3a/pool
I0403 17:59:01.929606 21039 net.cpp:148] Top shape: 24 192 28 28 (3612672)
I0403 17:59:01.929620 21039 net.cpp:156] Memory required for data: 556352544
I0403 17:59:01.929636 21039 layer_factory.hpp:77] Creating layer inception_3a/pool_proj
I0403 17:59:01.929656 21039 net.cpp:91] Creating Layer inception_3a/pool_proj
I0403 17:59:01.929673 21039 net.cpp:425] inception_3a/pool_proj <- inception_3a/pool
I0403 17:59:01.929695 21039 net.cpp:399] inception_3a/pool_proj -> inception_3a/pool_proj
I0403 17:59:01.930644 21039 net.cpp:141] Setting up inception_3a/pool_proj
I0403 17:59:01.930672 21039 net.cpp:148] Top shape: 24 32 28 28 (602112)
I0403 17:59:01.930690 21039 net.cpp:156] Memory required for data: 558760992
I0403 17:59:01.930711 21039 layer_factory.hpp:77] Creating layer inception_3a/relu_pool_proj
I0403 17:59:01.930730 21039 net.cpp:91] Creating Layer inception_3a/relu_pool_proj
I0403 17:59:01.930747 21039 net.cpp:425] inception_3a/relu_pool_proj <- inception_3a/pool_proj
I0403 17:59:01.930763 21039 net.cpp:386] inception_3a/relu_pool_proj -> inception_3a/pool_proj (in-place)
I0403 17:59:01.931031 21039 net.cpp:141] Setting up inception_3a/relu_pool_proj
I0403 17:59:01.931057 21039 net.cpp:148] Top shape: 24 32 28 28 (602112)
I0403 17:59:01.931072 21039 net.cpp:156] Memory required for data: 561169440
I0403 17:59:01.931087 21039 layer_factory.hpp:77] Creating layer inception_3a/output
I0403 17:59:01.931103 21039 net.cpp:91] Creating Layer inception_3a/output
I0403 17:59:01.931118 21039 net.cpp:425] inception_3a/output <- inception_3a/1x1
I0403 17:59:01.931135 21039 net.cpp:425] inception_3a/output <- inception_3a/3x3
I0403 17:59:01.931150 21039 net.cpp:425] inception_3a/output <- inception_3a/5x5
I0403 17:59:01.931165 21039 net.cpp:425] inception_3a/output <- inception_3a/pool_proj
I0403 17:59:01.931185 21039 net.cpp:399] inception_3a/output -> inception_3a/output
I0403 17:59:01.931246 21039 net.cpp:141] Setting up inception_3a/output
I0403 17:59:01.931270 21039 net.cpp:148] Top shape: 24 256 28 28 (4816896)
I0403 17:59:01.931285 21039 net.cpp:156] Memory required for data: 580437024
I0403 17:59:01.931299 21039 layer_factory.hpp:77] Creating layer inception_3a/output_inception_3a/output_0_split
I0403 17:59:01.931316 21039 net.cpp:91] Creating Layer inception_3a/output_inception_3a/output_0_split
I0403 17:59:01.931331 21039 net.cpp:425] inception_3a/output_inception_3a/output_0_split <- inception_3a/output
I0403 17:59:01.931350 21039 net.cpp:399] inception_3a/output_inception_3a/output_0_split -> inception_3a/output_inception_3a/output_0_split_0
I0403 17:59:01.931371 21039 net.cpp:399] inception_3a/output_inception_3a/output_0_split -> inception_3a/output_inception_3a/output_0_split_1
I0403 17:59:01.931393 21039 net.cpp:399] inception_3a/output_inception_3a/output_0_split -> inception_3a/output_inception_3a/output_0_split_2
I0403 17:59:01.931414 21039 net.cpp:399] inception_3a/output_inception_3a/output_0_split -> inception_3a/output_inception_3a/output_0_split_3
I0403 17:59:01.931493 21039 net.cpp:141] Setting up inception_3a/output_inception_3a/output_0_split
I0403 17:59:01.931520 21039 net.cpp:148] Top shape: 24 256 28 28 (4816896)
I0403 17:59:01.931537 21039 net.cpp:148] Top shape: 24 256 28 28 (4816896)
I0403 17:59:01.931553 21039 net.cpp:148] Top shape: 24 256 28 28 (4816896)
I0403 17:59:01.931568 21039 net.cpp:148] Top shape: 24 256 28 28 (4816896)
I0403 17:59:01.931581 21039 net.cpp:156] Memory required for data: 657507360
I0403 17:59:01.931596 21039 layer_factory.hpp:77] Creating layer inception_3b/1x1
I0403 17:59:01.931617 21039 net.cpp:91] Creating Layer inception_3b/1x1
I0403 17:59:01.931634 21039 net.cpp:425] inception_3b/1x1 <- inception_3a/output_inception_3a/output_0_split_0
I0403 17:59:01.931655 21039 net.cpp:399] inception_3b/1x1 -> inception_3b/1x1
I0403 17:59:01.932775 21039 net.cpp:141] Setting up inception_3b/1x1
I0403 17:59:01.932816 21039 net.cpp:148] Top shape: 24 128 28 28 (2408448)
I0403 17:59:01.932833 21039 net.cpp:156] Memory required for data: 667141152
I0403 17:59:01.932850 21039 layer_factory.hpp:77] Creating layer inception_3b/relu_1x1
I0403 17:59:01.932868 21039 net.cpp:91] Creating Layer inception_3b/relu_1x1
I0403 17:59:01.932883 21039 net.cpp:425] inception_3b/relu_1x1 <- inception_3b/1x1
I0403 17:59:01.932903 21039 net.cpp:386] inception_3b/relu_1x1 -> inception_3b/1x1 (in-place)
I0403 17:59:01.933079 21039 net.cpp:141] Setting up inception_3b/relu_1x1
I0403 17:59:01.933104 21039 net.cpp:148] Top shape: 24 128 28 28 (2408448)
I0403 17:59:01.933117 21039 net.cpp:156] Memory required for data: 676774944
I0403 17:59:01.933131 21039 layer_factory.hpp:77] Creating layer inception_3b/3x3_reduce
I0403 17:59:01.933152 21039 net.cpp:91] Creating Layer inception_3b/3x3_reduce
I0403 17:59:01.933171 21039 net.cpp:425] inception_3b/3x3_reduce <- inception_3a/output_inception_3a/output_0_split_1
I0403 17:59:01.933192 21039 net.cpp:399] inception_3b/3x3_reduce -> inception_3b/3x3_reduce
I0403 17:59:01.934311 21039 net.cpp:141] Setting up inception_3b/3x3_reduce
I0403 17:59:01.934340 21039 net.cpp:148] Top shape: 24 128 28 28 (2408448)
I0403 17:59:01.934355 21039 net.cpp:156] Memory required for data: 686408736
I0403 17:59:01.934372 21039 layer_factory.hpp:77] Creating layer inception_3b/relu_3x3_reduce
I0403 17:59:01.934389 21039 net.cpp:91] Creating Layer inception_3b/relu_3x3_reduce
I0403 17:59:01.934404 21039 net.cpp:425] inception_3b/relu_3x3_reduce <- inception_3b/3x3_reduce
I0403 17:59:01.934423 21039 net.cpp:386] inception_3b/relu_3x3_reduce -> inception_3b/3x3_reduce (in-place)
I0403 17:59:01.934604 21039 net.cpp:141] Setting up inception_3b/relu_3x3_reduce
I0403 17:59:01.934630 21039 net.cpp:148] Top shape: 24 128 28 28 (2408448)
I0403 17:59:01.934645 21039 net.cpp:156] Memory required for data: 696042528
I0403 17:59:01.934659 21039 layer_factory.hpp:77] Creating layer inception_3b/3x3
I0403 17:59:01.934684 21039 net.cpp:91] Creating Layer inception_3b/3x3
I0403 17:59:01.934702 21039 net.cpp:425] inception_3b/3x3 <- inception_3b/3x3_reduce
I0403 17:59:01.934721 21039 net.cpp:399] inception_3b/3x3 -> inception_3b/3x3
I0403 17:59:01.937614 21039 net.cpp:141] Setting up inception_3b/3x3
I0403 17:59:01.937644 21039 net.cpp:148] Top shape: 24 192 28 28 (3612672)
I0403 17:59:01.937659 21039 net.cpp:156] Memory required for data: 710493216
I0403 17:59:01.937677 21039 layer_factory.hpp:77] Creating layer inception_3b/relu_3x3
I0403 17:59:01.937696 21039 net.cpp:91] Creating Layer inception_3b/relu_3x3
I0403 17:59:01.937713 21039 net.cpp:425] inception_3b/relu_3x3 <- inception_3b/3x3
I0403 17:59:01.937731 21039 net.cpp:386] inception_3b/relu_3x3 -> inception_3b/3x3 (in-place)
I0403 17:59:01.938004 21039 net.cpp:141] Setting up inception_3b/relu_3x3
I0403 17:59:01.938030 21039 net.cpp:148] Top shape: 24 192 28 28 (3612672)
I0403 17:59:01.938043 21039 net.cpp:156] Memory required for data: 724943904
I0403 17:59:01.938058 21039 layer_factory.hpp:77] Creating layer inception_3b/5x5_reduce
I0403 17:59:01.938081 21039 net.cpp:91] Creating Layer inception_3b/5x5_reduce
I0403 17:59:01.938099 21039 net.cpp:425] inception_3b/5x5_reduce <- inception_3a/output_inception_3a/output_0_split_2
I0403 17:59:01.938120 21039 net.cpp:399] inception_3b/5x5_reduce -> inception_3b/5x5_reduce
I0403 17:59:01.939110 21039 net.cpp:141] Setting up inception_3b/5x5_reduce
I0403 17:59:01.939136 21039 net.cpp:148] Top shape: 24 32 28 28 (602112)
I0403 17:59:01.939152 21039 net.cpp:156] Memory required for data: 727352352
I0403 17:59:01.939169 21039 layer_factory.hpp:77] Creating layer inception_3b/relu_5x5_reduce
I0403 17:59:01.939188 21039 net.cpp:91] Creating Layer inception_3b/relu_5x5_reduce
I0403 17:59:01.939204 21039 net.cpp:425] inception_3b/relu_5x5_reduce <- inception_3b/5x5_reduce
I0403 17:59:01.939224 21039 net.cpp:386] inception_3b/relu_5x5_reduce -> inception_3b/5x5_reduce (in-place)
I0403 17:59:01.939411 21039 net.cpp:141] Setting up inception_3b/relu_5x5_reduce
I0403 17:59:01.939436 21039 net.cpp:148] Top shape: 24 32 28 28 (602112)
I0403 17:59:01.939450 21039 net.cpp:156] Memory required for data: 729760800
I0403 17:59:01.939465 21039 layer_factory.hpp:77] Creating layer inception_3b/5x5
I0403 17:59:01.939487 21039 net.cpp:91] Creating Layer inception_3b/5x5
I0403 17:59:01.939507 21039 net.cpp:425] inception_3b/5x5 <- inception_3b/5x5_reduce
I0403 17:59:01.939530 21039 net.cpp:399] inception_3b/5x5 -> inception_3b/5x5
I0403 17:59:01.941478 21039 net.cpp:141] Setting up inception_3b/5x5
I0403 17:59:01.941511 21039 net.cpp:148] Top shape: 24 96 28 28 (1806336)
I0403 17:59:01.941529 21039 net.cpp:156] Memory required for data: 736986144
I0403 17:59:01.941546 21039 layer_factory.hpp:77] Creating layer inception_3b/relu_5x5
I0403 17:59:01.941565 21039 net.cpp:91] Creating Layer inception_3b/relu_5x5
I0403 17:59:01.941581 21039 net.cpp:425] inception_3b/relu_5x5 <- inception_3b/5x5
I0403 17:59:01.941599 21039 net.cpp:386] inception_3b/relu_5x5 -> inception_3b/5x5 (in-place)
I0403 17:59:01.941786 21039 net.cpp:141] Setting up inception_3b/relu_5x5
I0403 17:59:01.941810 21039 net.cpp:148] Top shape: 24 96 28 28 (1806336)
I0403 17:59:01.941824 21039 net.cpp:156] Memory required for data: 744211488
I0403 17:59:01.941838 21039 layer_factory.hpp:77] Creating layer inception_3b/pool
I0403 17:59:01.941856 21039 net.cpp:91] Creating Layer inception_3b/pool
I0403 17:59:01.941871 21039 net.cpp:425] inception_3b/pool <- inception_3a/output_inception_3a/output_0_split_3
I0403 17:59:01.941890 21039 net.cpp:399] inception_3b/pool -> inception_3b/pool
I0403 17:59:01.941947 21039 net.cpp:141] Setting up inception_3b/pool
I0403 17:59:01.941970 21039 net.cpp:148] Top shape: 24 256 28 28 (4816896)
I0403 17:59:01.941984 21039 net.cpp:156] Memory required for data: 763479072
I0403 17:59:01.941998 21039 layer_factory.hpp:77] Creating layer inception_3b/pool_proj
I0403 17:59:01.942019 21039 net.cpp:91] Creating Layer inception_3b/pool_proj
I0403 17:59:01.942037 21039 net.cpp:425] inception_3b/pool_proj <- inception_3b/pool
I0403 17:59:01.942057 21039 net.cpp:399] inception_3b/pool_proj -> inception_3b/pool_proj
I0403 17:59:01.943126 21039 net.cpp:141] Setting up inception_3b/pool_proj
I0403 17:59:01.943156 21039 net.cpp:148] Top shape: 24 64 28 28 (1204224)
I0403 17:59:01.943173 21039 net.cpp:156] Memory required for data: 768295968
I0403 17:59:01.943192 21039 layer_factory.hpp:77] Creating layer inception_3b/relu_pool_proj
I0403 17:59:01.943209 21039 net.cpp:91] Creating Layer inception_3b/relu_pool_proj
I0403 17:59:01.943225 21039 net.cpp:425] inception_3b/relu_pool_proj <- inception_3b/pool_proj
I0403 17:59:01.943243 21039 net.cpp:386] inception_3b/relu_pool_proj -> inception_3b/pool_proj (in-place)
I0403 17:59:01.943645 21039 net.cpp:141] Setting up inception_3b/relu_pool_proj
I0403 17:59:01.943672 21039 net.cpp:148] Top shape: 24 64 28 28 (1204224)
I0403 17:59:01.943687 21039 net.cpp:156] Memory required for data: 773112864
I0403 17:59:01.943702 21039 layer_factory.hpp:77] Creating layer inception_3b/output
I0403 17:59:01.943722 21039 net.cpp:91] Creating Layer inception_3b/output
I0403 17:59:01.943739 21039 net.cpp:425] inception_3b/output <- inception_3b/1x1
I0403 17:59:01.943755 21039 net.cpp:425] inception_3b/output <- inception_3b/3x3
I0403 17:59:01.943773 21039 net.cpp:425] inception_3b/output <- inception_3b/5x5
I0403 17:59:01.943789 21039 net.cpp:425] inception_3b/output <- inception_3b/pool_proj
I0403 17:59:01.943805 21039 net.cpp:399] inception_3b/output -> inception_3b/output
I0403 17:59:01.943852 21039 net.cpp:141] Setting up inception_3b/output
I0403 17:59:01.943876 21039 net.cpp:148] Top shape: 24 480 28 28 (9031680)
I0403 17:59:01.943891 21039 net.cpp:156] Memory required for data: 809239584
I0403 17:59:01.943905 21039 layer_factory.hpp:77] Creating layer pool3/3x3_s2
I0403 17:59:01.943922 21039 net.cpp:91] Creating Layer pool3/3x3_s2
I0403 17:59:01.943938 21039 net.cpp:425] pool3/3x3_s2 <- inception_3b/output
I0403 17:59:01.943974 21039 net.cpp:399] pool3/3x3_s2 -> pool3/3x3_s2
I0403 17:59:01.944033 21039 net.cpp:141] Setting up pool3/3x3_s2
I0403 17:59:01.944057 21039 net.cpp:148] Top shape: 24 480 14 14 (2257920)
I0403 17:59:01.944072 21039 net.cpp:156] Memory required for data: 818271264
I0403 17:59:01.944087 21039 layer_factory.hpp:77] Creating layer pool3/3x3_s2_pool3/3x3_s2_0_split
I0403 17:59:01.944106 21039 net.cpp:91] Creating Layer pool3/3x3_s2_pool3/3x3_s2_0_split
I0403 17:59:01.944123 21039 net.cpp:425] pool3/3x3_s2_pool3/3x3_s2_0_split <- pool3/3x3_s2
I0403 17:59:01.944141 21039 net.cpp:399] pool3/3x3_s2_pool3/3x3_s2_0_split -> pool3/3x3_s2_pool3/3x3_s2_0_split_0
I0403 17:59:01.944162 21039 net.cpp:399] pool3/3x3_s2_pool3/3x3_s2_0_split -> pool3/3x3_s2_pool3/3x3_s2_0_split_1
I0403 17:59:01.944182 21039 net.cpp:399] pool3/3x3_s2_pool3/3x3_s2_0_split -> pool3/3x3_s2_pool3/3x3_s2_0_split_2
I0403 17:59:01.944201 21039 net.cpp:399] pool3/3x3_s2_pool3/3x3_s2_0_split -> pool3/3x3_s2_pool3/3x3_s2_0_split_3
I0403 17:59:01.944277 21039 net.cpp:141] Setting up pool3/3x3_s2_pool3/3x3_s2_0_split
I0403 17:59:01.944299 21039 net.cpp:148] Top shape: 24 480 14 14 (2257920)
I0403 17:59:01.944319 21039 net.cpp:148] Top shape: 24 480 14 14 (2257920)
I0403 17:59:01.944335 21039 net.cpp:148] Top shape: 24 480 14 14 (2257920)
I0403 17:59:01.944350 21039 net.cpp:148] Top shape: 24 480 14 14 (2257920)
I0403 17:59:01.944365 21039 net.cpp:156] Memory required for data: 854397984
I0403 17:59:01.944378 21039 layer_factory.hpp:77] Creating layer inception_4a/1x1
I0403 17:59:01.944398 21039 net.cpp:91] Creating Layer inception_4a/1x1
I0403 17:59:01.944414 21039 net.cpp:425] inception_4a/1x1 <- pool3/3x3_s2_pool3/3x3_s2_0_split_0
I0403 17:59:01.944437 21039 net.cpp:399] inception_4a/1x1 -> inception_4a/1x1
I0403 17:59:01.946049 21039 net.cpp:141] Setting up inception_4a/1x1
I0403 17:59:01.946079 21039 net.cpp:148] Top shape: 24 192 14 14 (903168)
I0403 17:59:01.946096 21039 net.cpp:156] Memory required for data: 858010656
I0403 17:59:01.946115 21039 layer_factory.hpp:77] Creating layer inception_4a/relu_1x1
I0403 17:59:01.946133 21039 net.cpp:91] Creating Layer inception_4a/relu_1x1
I0403 17:59:01.946149 21039 net.cpp:425] inception_4a/relu_1x1 <- inception_4a/1x1
I0403 17:59:01.946166 21039 net.cpp:386] inception_4a/relu_1x1 -> inception_4a/1x1 (in-place)
I0403 17:59:01.946346 21039 net.cpp:141] Setting up inception_4a/relu_1x1
I0403 17:59:01.946372 21039 net.cpp:148] Top shape: 24 192 14 14 (903168)
I0403 17:59:01.946387 21039 net.cpp:156] Memory required for data: 861623328
I0403 17:59:01.946400 21039 layer_factory.hpp:77] Creating layer inception_4a/3x3_reduce
I0403 17:59:01.946422 21039 net.cpp:91] Creating Layer inception_4a/3x3_reduce
I0403 17:59:01.946439 21039 net.cpp:425] inception_4a/3x3_reduce <- pool3/3x3_s2_pool3/3x3_s2_0_split_1
I0403 17:59:01.946461 21039 net.cpp:399] inception_4a/3x3_reduce -> inception_4a/3x3_reduce
I0403 17:59:01.947751 21039 net.cpp:141] Setting up inception_4a/3x3_reduce
I0403 17:59:01.947778 21039 net.cpp:148] Top shape: 24 96 14 14 (451584)
I0403 17:59:01.947794 21039 net.cpp:156] Memory required for data: 863429664
I0403 17:59:01.947824 21039 layer_factory.hpp:77] Creating layer inception_4a/relu_3x3_reduce
I0403 17:59:01.947845 21039 net.cpp:91] Creating Layer inception_4a/relu_3x3_reduce
I0403 17:59:01.947862 21039 net.cpp:425] inception_4a/relu_3x3_reduce <- inception_4a/3x3_reduce
I0403 17:59:01.947880 21039 net.cpp:386] inception_4a/relu_3x3_reduce -> inception_4a/3x3_reduce (in-place)
I0403 17:59:01.948055 21039 net.cpp:141] Setting up inception_4a/relu_3x3_reduce
I0403 17:59:01.948082 21039 net.cpp:148] Top shape: 24 96 14 14 (451584)
I0403 17:59:01.948097 21039 net.cpp:156] Memory required for data: 865236000
I0403 17:59:01.948112 21039 layer_factory.hpp:77] Creating layer inception_4a/3x3
I0403 17:59:01.948134 21039 net.cpp:91] Creating Layer inception_4a/3x3
I0403 17:59:01.948153 21039 net.cpp:425] inception_4a/3x3 <- inception_4a/3x3_reduce
I0403 17:59:01.948173 21039 net.cpp:399] inception_4a/3x3 -> inception_4a/3x3
I0403 17:59:01.950906 21039 net.cpp:141] Setting up inception_4a/3x3
I0403 17:59:01.950937 21039 net.cpp:148] Top shape: 24 208 14 14 (978432)
I0403 17:59:01.950952 21039 net.cpp:156] Memory required for data: 869149728
I0403 17:59:01.950970 21039 layer_factory.hpp:77] Creating layer inception_4a/relu_3x3
I0403 17:59:01.950989 21039 net.cpp:91] Creating Layer inception_4a/relu_3x3
I0403 17:59:01.951005 21039 net.cpp:425] inception_4a/relu_3x3 <- inception_4a/3x3
I0403 17:59:01.951025 21039 net.cpp:386] inception_4a/relu_3x3 -> inception_4a/3x3 (in-place)
I0403 17:59:01.951315 21039 net.cpp:141] Setting up inception_4a/relu_3x3
I0403 17:59:01.951342 21039 net.cpp:148] Top shape: 24 208 14 14 (978432)
I0403 17:59:01.951357 21039 net.cpp:156] Memory required for data: 873063456
I0403 17:59:01.951371 21039 layer_factory.hpp:77] Creating layer inception_4a/5x5_reduce
I0403 17:59:01.951393 21039 net.cpp:91] Creating Layer inception_4a/5x5_reduce
I0403 17:59:01.951411 21039 net.cpp:425] inception_4a/5x5_reduce <- pool3/3x3_s2_pool3/3x3_s2_0_split_2
I0403 17:59:01.951434 21039 net.cpp:399] inception_4a/5x5_reduce -> inception_4a/5x5_reduce
I0403 17:59:01.952483 21039 net.cpp:141] Setting up inception_4a/5x5_reduce
I0403 17:59:01.952515 21039 net.cpp:148] Top shape: 24 16 14 14 (75264)
I0403 17:59:01.952533 21039 net.cpp:156] Memory required for data: 873364512
I0403 17:59:01.952551 21039 layer_factory.hpp:77] Creating layer inception_4a/relu_5x5_reduce
I0403 17:59:01.952569 21039 net.cpp:91] Creating Layer inception_4a/relu_5x5_reduce
I0403 17:59:01.952586 21039 net.cpp:425] inception_4a/relu_5x5_reduce <- inception_4a/5x5_reduce
I0403 17:59:01.952605 21039 net.cpp:386] inception_4a/relu_5x5_reduce -> inception_4a/5x5_reduce (in-place)
I0403 17:59:01.952790 21039 net.cpp:141] Setting up inception_4a/relu_5x5_reduce
I0403 17:59:01.952816 21039 net.cpp:148] Top shape: 24 16 14 14 (75264)
I0403 17:59:01.952831 21039 net.cpp:156] Memory required for data: 873665568
I0403 17:59:01.952846 21039 layer_factory.hpp:77] Creating layer inception_4a/5x5
I0403 17:59:01.952867 21039 net.cpp:91] Creating Layer inception_4a/5x5
I0403 17:59:01.952884 21039 net.cpp:425] inception_4a/5x5 <- inception_4a/5x5_reduce
I0403 17:59:01.952906 21039 net.cpp:399] inception_4a/5x5 -> inception_4a/5x5
I0403 17:59:01.954023 21039 net.cpp:141] Setting up inception_4a/5x5
I0403 17:59:01.954051 21039 net.cpp:148] Top shape: 24 48 14 14 (225792)
I0403 17:59:01.954067 21039 net.cpp:156] Memory required for data: 874568736
I0403 17:59:01.954085 21039 layer_factory.hpp:77] Creating layer inception_4a/relu_5x5
I0403 17:59:01.954107 21039 net.cpp:91] Creating Layer inception_4a/relu_5x5
I0403 17:59:01.954124 21039 net.cpp:425] inception_4a/relu_5x5 <- inception_4a/5x5
I0403 17:59:01.954141 21039 net.cpp:386] inception_4a/relu_5x5 -> inception_4a/5x5 (in-place)
I0403 17:59:01.954321 21039 net.cpp:141] Setting up inception_4a/relu_5x5
I0403 17:59:01.954349 21039 net.cpp:148] Top shape: 24 48 14 14 (225792)
I0403 17:59:01.954365 21039 net.cpp:156] Memory required for data: 875471904
I0403 17:59:01.954380 21039 layer_factory.hpp:77] Creating layer inception_4a/pool
I0403 17:59:01.954397 21039 net.cpp:91] Creating Layer inception_4a/pool
I0403 17:59:01.954412 21039 net.cpp:425] inception_4a/pool <- pool3/3x3_s2_pool3/3x3_s2_0_split_3
I0403 17:59:01.954433 21039 net.cpp:399] inception_4a/pool -> inception_4a/pool
I0403 17:59:01.954499 21039 net.cpp:141] Setting up inception_4a/pool
I0403 17:59:01.954535 21039 net.cpp:148] Top shape: 24 480 14 14 (2257920)
I0403 17:59:01.954550 21039 net.cpp:156] Memory required for data: 884503584
I0403 17:59:01.954563 21039 layer_factory.hpp:77] Creating layer inception_4a/pool_proj
I0403 17:59:01.954586 21039 net.cpp:91] Creating Layer inception_4a/pool_proj
I0403 17:59:01.954604 21039 net.cpp:425] inception_4a/pool_proj <- inception_4a/pool
I0403 17:59:01.954622 21039 net.cpp:399] inception_4a/pool_proj -> inception_4a/pool_proj
I0403 17:59:01.955817 21039 net.cpp:141] Setting up inception_4a/pool_proj
I0403 17:59:01.955847 21039 net.cpp:148] Top shape: 24 64 14 14 (301056)
I0403 17:59:01.955878 21039 net.cpp:156] Memory required for data: 885707808
I0403 17:59:01.955898 21039 layer_factory.hpp:77] Creating layer inception_4a/relu_pool_proj
I0403 17:59:01.955919 21039 net.cpp:91] Creating Layer inception_4a/relu_pool_proj
I0403 17:59:01.955937 21039 net.cpp:425] inception_4a/relu_pool_proj <- inception_4a/pool_proj
I0403 17:59:01.955955 21039 net.cpp:386] inception_4a/relu_pool_proj -> inception_4a/pool_proj (in-place)
I0403 17:59:01.956244 21039 net.cpp:141] Setting up inception_4a/relu_pool_proj
I0403 17:59:01.956272 21039 net.cpp:148] Top shape: 24 64 14 14 (301056)
I0403 17:59:01.956287 21039 net.cpp:156] Memory required for data: 886912032
I0403 17:59:01.956302 21039 layer_factory.hpp:77] Creating layer inception_4a/output
I0403 17:59:01.956322 21039 net.cpp:91] Creating Layer inception_4a/output
I0403 17:59:01.956339 21039 net.cpp:425] inception_4a/output <- inception_4a/1x1
I0403 17:59:01.956357 21039 net.cpp:425] inception_4a/output <- inception_4a/3x3
I0403 17:59:01.956372 21039 net.cpp:425] inception_4a/output <- inception_4a/5x5
I0403 17:59:01.956387 21039 net.cpp:425] inception_4a/output <- inception_4a/pool_proj
I0403 17:59:01.956404 21039 net.cpp:399] inception_4a/output -> inception_4a/output
I0403 17:59:01.956450 21039 net.cpp:141] Setting up inception_4a/output
I0403 17:59:01.956475 21039 net.cpp:148] Top shape: 24 512 14 14 (2408448)
I0403 17:59:01.956488 21039 net.cpp:156] Memory required for data: 896545824
I0403 17:59:01.956503 21039 layer_factory.hpp:77] Creating layer inception_4a/output_inception_4a/output_0_split
I0403 17:59:01.956526 21039 net.cpp:91] Creating Layer inception_4a/output_inception_4a/output_0_split
I0403 17:59:01.956542 21039 net.cpp:425] inception_4a/output_inception_4a/output_0_split <- inception_4a/output
I0403 17:59:01.956562 21039 net.cpp:399] inception_4a/output_inception_4a/output_0_split -> inception_4a/output_inception_4a/output_0_split_0
I0403 17:59:01.956583 21039 net.cpp:399] inception_4a/output_inception_4a/output_0_split -> inception_4a/output_inception_4a/output_0_split_1
I0403 17:59:01.956604 21039 net.cpp:399] inception_4a/output_inception_4a/output_0_split -> inception_4a/output_inception_4a/output_0_split_2
I0403 17:59:01.956627 21039 net.cpp:399] inception_4a/output_inception_4a/output_0_split -> inception_4a/output_inception_4a/output_0_split_3
I0403 17:59:01.956647 21039 net.cpp:399] inception_4a/output_inception_4a/output_0_split -> inception_4a/output_inception_4a/output_0_split_4
I0403 17:59:01.956740 21039 net.cpp:141] Setting up inception_4a/output_inception_4a/output_0_split
I0403 17:59:01.956764 21039 net.cpp:148] Top shape: 24 512 14 14 (2408448)
I0403 17:59:01.956780 21039 net.cpp:148] Top shape: 24 512 14 14 (2408448)
I0403 17:59:01.956796 21039 net.cpp:148] Top shape: 24 512 14 14 (2408448)
I0403 17:59:01.956811 21039 net.cpp:148] Top shape: 24 512 14 14 (2408448)
I0403 17:59:01.956827 21039 net.cpp:148] Top shape: 24 512 14 14 (2408448)
I0403 17:59:01.956840 21039 net.cpp:156] Memory required for data: 944714784
I0403 17:59:01.956854 21039 layer_factory.hpp:77] Creating layer loss1/ave_pool
I0403 17:59:01.956872 21039 net.cpp:91] Creating Layer loss1/ave_pool
I0403 17:59:01.956887 21039 net.cpp:425] loss1/ave_pool <- inception_4a/output_inception_4a/output_0_split_0
I0403 17:59:01.956908 21039 net.cpp:399] loss1/ave_pool -> loss1/ave_pool
I0403 17:59:01.957129 21039 net.cpp:141] Setting up loss1/ave_pool
I0403 17:59:01.957155 21039 net.cpp:148] Top shape: 24 512 4 4 (196608)
I0403 17:59:01.957170 21039 net.cpp:156] Memory required for data: 945501216
I0403 17:59:01.957185 21039 layer_factory.hpp:77] Creating layer loss1/conv
I0403 17:59:01.957208 21039 net.cpp:91] Creating Layer loss1/conv
I0403 17:59:01.957226 21039 net.cpp:425] loss1/conv <- loss1/ave_pool
I0403 17:59:01.957244 21039 net.cpp:399] loss1/conv -> loss1/conv
I0403 17:59:01.958698 21039 net.cpp:141] Setting up loss1/conv
I0403 17:59:01.958725 21039 net.cpp:148] Top shape: 24 128 4 4 (49152)
I0403 17:59:01.958756 21039 net.cpp:156] Memory required for data: 945697824
I0403 17:59:01.958776 21039 layer_factory.hpp:77] Creating layer loss1/relu_conv
I0403 17:59:01.958794 21039 net.cpp:91] Creating Layer loss1/relu_conv
I0403 17:59:01.958811 21039 net.cpp:425] loss1/relu_conv <- loss1/conv
I0403 17:59:01.958829 21039 net.cpp:386] loss1/relu_conv -> loss1/conv (in-place)
I0403 17:59:01.959116 21039 net.cpp:141] Setting up loss1/relu_conv
I0403 17:59:01.959143 21039 net.cpp:148] Top shape: 24 128 4 4 (49152)
I0403 17:59:01.959158 21039 net.cpp:156] Memory required for data: 945894432
I0403 17:59:01.959172 21039 layer_factory.hpp:77] Creating layer loss1/fc
I0403 17:59:01.959209 21039 net.cpp:91] Creating Layer loss1/fc
I0403 17:59:01.959229 21039 net.cpp:425] loss1/fc <- loss1/conv
I0403 17:59:01.959250 21039 net.cpp:399] loss1/fc -> loss1/fc
I0403 17:59:01.977079 21039 net.cpp:141] Setting up loss1/fc
I0403 17:59:01.977110 21039 net.cpp:148] Top shape: 24 1024 (24576)
I0403 17:59:01.977125 21039 net.cpp:156] Memory required for data: 945992736
I0403 17:59:01.977144 21039 layer_factory.hpp:77] Creating layer loss1/relu_fc
I0403 17:59:01.977161 21039 net.cpp:91] Creating Layer loss1/relu_fc
I0403 17:59:01.977176 21039 net.cpp:425] loss1/relu_fc <- loss1/fc
I0403 17:59:01.977193 21039 net.cpp:386] loss1/relu_fc -> loss1/fc (in-place)
I0403 17:59:01.977382 21039 net.cpp:141] Setting up loss1/relu_fc
I0403 17:59:01.977407 21039 net.cpp:148] Top shape: 24 1024 (24576)
I0403 17:59:01.977421 21039 net.cpp:156] Memory required for data: 946091040
I0403 17:59:01.977434 21039 layer_factory.hpp:77] Creating layer loss1/drop_fc
I0403 17:59:01.977463 21039 net.cpp:91] Creating Layer loss1/drop_fc
I0403 17:59:01.977480 21039 net.cpp:425] loss1/drop_fc <- loss1/fc
I0403 17:59:01.977499 21039 net.cpp:386] loss1/drop_fc -> loss1/fc (in-place)
I0403 17:59:01.977568 21039 net.cpp:141] Setting up loss1/drop_fc
I0403 17:59:01.977591 21039 net.cpp:148] Top shape: 24 1024 (24576)
I0403 17:59:01.977607 21039 net.cpp:156] Memory required for data: 946189344
I0403 17:59:01.977620 21039 layer_factory.hpp:77] Creating layer loss1/classifier_plantvillage
I0403 17:59:01.977641 21039 net.cpp:91] Creating Layer loss1/classifier_plantvillage
I0403 17:59:01.977658 21039 net.cpp:425] loss1/classifier_plantvillage <- loss1/fc
I0403 17:59:01.977675 21039 net.cpp:399] loss1/classifier_plantvillage -> loss1/classifier_plantvillage
I0403 17:59:01.978617 21039 net.cpp:141] Setting up loss1/classifier_plantvillage
I0403 17:59:01.978648 21039 net.cpp:148] Top shape: 24 38 (912)
I0403 17:59:01.978664 21039 net.cpp:156] Memory required for data: 946192992
I0403 17:59:01.978682 21039 layer_factory.hpp:77] Creating layer loss1/classifier_plantvillage_loss1/classifier_plantvillage_0_split
I0403 17:59:01.978699 21039 net.cpp:91] Creating Layer loss1/classifier_plantvillage_loss1/classifier_plantvillage_0_split
I0403 17:59:01.978715 21039 net.cpp:425] loss1/classifier_plantvillage_loss1/classifier_plantvillage_0_split <- loss1/classifier_plantvillage
I0403 17:59:01.978732 21039 net.cpp:399] loss1/classifier_plantvillage_loss1/classifier_plantvillage_0_split -> loss1/classifier_plantvillage_loss1/classifier_plantvillage_0_split_0
I0403 17:59:01.978754 21039 net.cpp:399] loss1/classifier_plantvillage_loss1/classifier_plantvillage_0_split -> loss1/classifier_plantvillage_loss1/classifier_plantvillage_0_split_1
I0403 17:59:01.978775 21039 net.cpp:399] loss1/classifier_plantvillage_loss1/classifier_plantvillage_0_split -> loss1/classifier_plantvillage_loss1/classifier_plantvillage_0_split_2
I0403 17:59:01.978842 21039 net.cpp:141] Setting up loss1/classifier_plantvillage_loss1/classifier_plantvillage_0_split
I0403 17:59:01.978863 21039 net.cpp:148] Top shape: 24 38 (912)
I0403 17:59:01.978879 21039 net.cpp:148] Top shape: 24 38 (912)
I0403 17:59:01.978894 21039 net.cpp:148] Top shape: 24 38 (912)
I0403 17:59:01.978907 21039 net.cpp:156] Memory required for data: 946203936
I0403 17:59:01.978921 21039 layer_factory.hpp:77] Creating layer inception_4b/1x1
I0403 17:59:01.978940 21039 net.cpp:91] Creating Layer inception_4b/1x1
I0403 17:59:01.978974 21039 net.cpp:425] inception_4b/1x1 <- inception_4a/output_inception_4a/output_0_split_1
I0403 17:59:01.978996 21039 net.cpp:399] inception_4b/1x1 -> inception_4b/1x1
I0403 17:59:01.980705 21039 net.cpp:141] Setting up inception_4b/1x1
I0403 17:59:01.980734 21039 net.cpp:148] Top shape: 24 160 14 14 (752640)
I0403 17:59:01.980751 21039 net.cpp:156] Memory required for data: 949214496
I0403 17:59:01.980768 21039 layer_factory.hpp:77] Creating layer inception_4b/relu_1x1
I0403 17:59:01.980787 21039 net.cpp:91] Creating Layer inception_4b/relu_1x1
I0403 17:59:01.980801 21039 net.cpp:425] inception_4b/relu_1x1 <- inception_4b/1x1
I0403 17:59:01.980829 21039 net.cpp:386] inception_4b/relu_1x1 -> inception_4b/1x1 (in-place)
I0403 17:59:01.981006 21039 net.cpp:141] Setting up inception_4b/relu_1x1
I0403 17:59:01.981031 21039 net.cpp:148] Top shape: 24 160 14 14 (752640)
I0403 17:59:01.981045 21039 net.cpp:156] Memory required for data: 952225056
I0403 17:59:01.981060 21039 layer_factory.hpp:77] Creating layer inception_4b/3x3_reduce
I0403 17:59:01.981082 21039 net.cpp:91] Creating Layer inception_4b/3x3_reduce
I0403 17:59:01.981099 21039 net.cpp:425] inception_4b/3x3_reduce <- inception_4a/output_inception_4a/output_0_split_2
I0403 17:59:01.981123 21039 net.cpp:399] inception_4b/3x3_reduce -> inception_4b/3x3_reduce
I0403 17:59:01.982483 21039 net.cpp:141] Setting up inception_4b/3x3_reduce
I0403 17:59:01.982516 21039 net.cpp:148] Top shape: 24 112 14 14 (526848)
I0403 17:59:01.982538 21039 net.cpp:156] Memory required for data: 954332448
I0403 17:59:01.982556 21039 layer_factory.hpp:77] Creating layer inception_4b/relu_3x3_reduce
I0403 17:59:01.982578 21039 net.cpp:91] Creating Layer inception_4b/relu_3x3_reduce
I0403 17:59:01.982594 21039 net.cpp:425] inception_4b/relu_3x3_reduce <- inception_4b/3x3_reduce
I0403 17:59:01.982611 21039 net.cpp:386] inception_4b/relu_3x3_reduce -> inception_4b/3x3_reduce (in-place)
I0403 17:59:01.982897 21039 net.cpp:141] Setting up inception_4b/relu_3x3_reduce
I0403 17:59:01.982923 21039 net.cpp:148] Top shape: 24 112 14 14 (526848)
I0403 17:59:01.982938 21039 net.cpp:156] Memory required for data: 956439840
I0403 17:59:01.982951 21039 layer_factory.hpp:77] Creating layer inception_4b/3x3
I0403 17:59:01.982975 21039 net.cpp:91] Creating Layer inception_4b/3x3
I0403 17:59:01.982991 21039 net.cpp:425] inception_4b/3x3 <- inception_4b/3x3_reduce
I0403 17:59:01.983012 21039 net.cpp:399] inception_4b/3x3 -> inception_4b/3x3
I0403 17:59:01.986002 21039 net.cpp:141] Setting up inception_4b/3x3
I0403 17:59:01.986033 21039 net.cpp:148] Top shape: 24 224 14 14 (1053696)
I0403 17:59:01.986049 21039 net.cpp:156] Memory required for data: 960654624
I0403 17:59:01.986068 21039 layer_factory.hpp:77] Creating layer inception_4b/relu_3x3
I0403 17:59:01.986086 21039 net.cpp:91] Creating Layer inception_4b/relu_3x3
I0403 17:59:01.986102 21039 net.cpp:425] inception_4b/relu_3x3 <- inception_4b/3x3
I0403 17:59:01.986119 21039 net.cpp:386] inception_4b/relu_3x3 -> inception_4b/3x3 (in-place)
I0403 17:59:01.986320 21039 net.cpp:141] Setting up inception_4b/relu_3x3
I0403 17:59:01.986346 21039 net.cpp:148] Top shape: 24 224 14 14 (1053696)
I0403 17:59:01.986361 21039 net.cpp:156] Memory required for data: 964869408
I0403 17:59:01.986374 21039 layer_factory.hpp:77] Creating layer inception_4b/5x5_reduce
I0403 17:59:01.986398 21039 net.cpp:91] Creating Layer inception_4b/5x5_reduce
I0403 17:59:01.986416 21039 net.cpp:425] inception_4b/5x5_reduce <- inception_4a/output_inception_4a/output_0_split_3
I0403 17:59:01.986438 21039 net.cpp:399] inception_4b/5x5_reduce -> inception_4b/5x5_reduce
I0403 17:59:01.987557 21039 net.cpp:141] Setting up inception_4b/5x5_reduce
I0403 17:59:01.987586 21039 net.cpp:148] Top shape: 24 24 14 14 (112896)
I0403 17:59:01.987601 21039 net.cpp:156] Memory required for data: 965320992
I0403 17:59:01.987620 21039 layer_factory.hpp:77] Creating layer inception_4b/relu_5x5_reduce
I0403 17:59:01.987642 21039 net.cpp:91] Creating Layer inception_4b/relu_5x5_reduce
I0403 17:59:01.987673 21039 net.cpp:425] inception_4b/relu_5x5_reduce <- inception_4b/5x5_reduce
I0403 17:59:01.987692 21039 net.cpp:386] inception_4b/relu_5x5_reduce -> inception_4b/5x5_reduce (in-place)
I0403 17:59:01.987890 21039 net.cpp:141] Setting up inception_4b/relu_5x5_reduce
I0403 17:59:01.987915 21039 net.cpp:148] Top shape: 24 24 14 14 (112896)
I0403 17:59:01.987929 21039 net.cpp:156] Memory required for data: 965772576
I0403 17:59:01.987943 21039 layer_factory.hpp:77] Creating layer inception_4b/5x5
I0403 17:59:01.987967 21039 net.cpp:91] Creating Layer inception_4b/5x5
I0403 17:59:01.987984 21039 net.cpp:425] inception_4b/5x5 <- inception_4b/5x5_reduce
I0403 17:59:01.988003 21039 net.cpp:399] inception_4b/5x5 -> inception_4b/5x5
I0403 17:59:01.989228 21039 net.cpp:141] Setting up inception_4b/5x5
I0403 17:59:01.989254 21039 net.cpp:148] Top shape: 24 64 14 14 (301056)
I0403 17:59:01.989270 21039 net.cpp:156] Memory required for data: 966976800
I0403 17:59:01.989287 21039 layer_factory.hpp:77] Creating layer inception_4b/relu_5x5
I0403 17:59:01.989305 21039 net.cpp:91] Creating Layer inception_4b/relu_5x5
I0403 17:59:01.989322 21039 net.cpp:425] inception_4b/relu_5x5 <- inception_4b/5x5
I0403 17:59:01.989341 21039 net.cpp:386] inception_4b/relu_5x5 -> inception_4b/5x5 (in-place)
I0403 17:59:01.989634 21039 net.cpp:141] Setting up inception_4b/relu_5x5
I0403 17:59:01.989660 21039 net.cpp:148] Top shape: 24 64 14 14 (301056)
I0403 17:59:01.989675 21039 net.cpp:156] Memory required for data: 968181024
I0403 17:59:01.989688 21039 layer_factory.hpp:77] Creating layer inception_4b/pool
I0403 17:59:01.989706 21039 net.cpp:91] Creating Layer inception_4b/pool
I0403 17:59:01.989722 21039 net.cpp:425] inception_4b/pool <- inception_4a/output_inception_4a/output_0_split_4
I0403 17:59:01.989743 21039 net.cpp:399] inception_4b/pool -> inception_4b/pool
I0403 17:59:01.989809 21039 net.cpp:141] Setting up inception_4b/pool
I0403 17:59:01.989832 21039 net.cpp:148] Top shape: 24 512 14 14 (2408448)
I0403 17:59:01.989847 21039 net.cpp:156] Memory required for data: 977814816
I0403 17:59:01.989862 21039 layer_factory.hpp:77] Creating layer inception_4b/pool_proj
I0403 17:59:01.989886 21039 net.cpp:91] Creating Layer inception_4b/pool_proj
I0403 17:59:01.989904 21039 net.cpp:425] inception_4b/pool_proj <- inception_4b/pool
I0403 17:59:01.989922 21039 net.cpp:399] inception_4b/pool_proj -> inception_4b/pool_proj
I0403 17:59:01.991173 21039 net.cpp:141] Setting up inception_4b/pool_proj
I0403 17:59:01.991201 21039 net.cpp:148] Top shape: 24 64 14 14 (301056)
I0403 17:59:01.991216 21039 net.cpp:156] Memory required for data: 979019040
I0403 17:59:01.991235 21039 layer_factory.hpp:77] Creating layer inception_4b/relu_pool_proj
I0403 17:59:01.991256 21039 net.cpp:91] Creating Layer inception_4b/relu_pool_proj
I0403 17:59:01.991273 21039 net.cpp:425] inception_4b/relu_pool_proj <- inception_4b/pool_proj
I0403 17:59:01.991291 21039 net.cpp:386] inception_4b/relu_pool_proj -> inception_4b/pool_proj (in-place)
I0403 17:59:01.991474 21039 net.cpp:141] Setting up inception_4b/relu_pool_proj
I0403 17:59:01.991499 21039 net.cpp:148] Top shape: 24 64 14 14 (301056)
I0403 17:59:01.991521 21039 net.cpp:156] Memory required for data: 980223264
I0403 17:59:01.991538 21039 layer_factory.hpp:77] Creating layer inception_4b/output
I0403 17:59:01.991554 21039 net.cpp:91] Creating Layer inception_4b/output
I0403 17:59:01.991570 21039 net.cpp:425] inception_4b/output <- inception_4b/1x1
I0403 17:59:01.991587 21039 net.cpp:425] inception_4b/output <- inception_4b/3x3
I0403 17:59:01.991603 21039 net.cpp:425] inception_4b/output <- inception_4b/5x5
I0403 17:59:01.991621 21039 net.cpp:425] inception_4b/output <- inception_4b/pool_proj
I0403 17:59:01.991636 21039 net.cpp:399] inception_4b/output -> inception_4b/output
I0403 17:59:01.991684 21039 net.cpp:141] Setting up inception_4b/output
I0403 17:59:01.991708 21039 net.cpp:148] Top shape: 24 512 14 14 (2408448)
I0403 17:59:01.991724 21039 net.cpp:156] Memory required for data: 989857056
I0403 17:59:01.991753 21039 layer_factory.hpp:77] Creating layer inception_4b/output_inception_4b/output_0_split
I0403 17:59:01.991771 21039 net.cpp:91] Creating Layer inception_4b/output_inception_4b/output_0_split
I0403 17:59:01.991787 21039 net.cpp:425] inception_4b/output_inception_4b/output_0_split <- inception_4b/output
I0403 17:59:01.991807 21039 net.cpp:399] inception_4b/output_inception_4b/output_0_split -> inception_4b/output_inception_4b/output_0_split_0
I0403 17:59:01.991828 21039 net.cpp:399] inception_4b/output_inception_4b/output_0_split -> inception_4b/output_inception_4b/output_0_split_1
I0403 17:59:01.991850 21039 net.cpp:399] inception_4b/output_inception_4b/output_0_split -> inception_4b/output_inception_4b/output_0_split_2
I0403 17:59:01.991871 21039 net.cpp:399] inception_4b/output_inception_4b/output_0_split -> inception_4b/output_inception_4b/output_0_split_3
I0403 17:59:01.991960 21039 net.cpp:141] Setting up inception_4b/output_inception_4b/output_0_split
I0403 17:59:01.991983 21039 net.cpp:148] Top shape: 24 512 14 14 (2408448)
I0403 17:59:01.991999 21039 net.cpp:148] Top shape: 24 512 14 14 (2408448)
I0403 17:59:01.992015 21039 net.cpp:148] Top shape: 24 512 14 14 (2408448)
I0403 17:59:01.992030 21039 net.cpp:148] Top shape: 24 512 14 14 (2408448)
I0403 17:59:01.992043 21039 net.cpp:156] Memory required for data: 1028392224
I0403 17:59:01.992058 21039 layer_factory.hpp:77] Creating layer inception_4c/1x1
I0403 17:59:01.992080 21039 net.cpp:91] Creating Layer inception_4c/1x1
I0403 17:59:01.992097 21039 net.cpp:425] inception_4c/1x1 <- inception_4b/output_inception_4b/output_0_split_0
I0403 17:59:01.992118 21039 net.cpp:399] inception_4c/1x1 -> inception_4c/1x1
I0403 17:59:01.993603 21039 net.cpp:141] Setting up inception_4c/1x1
I0403 17:59:01.993635 21039 net.cpp:148] Top shape: 24 128 14 14 (602112)
I0403 17:59:01.993652 21039 net.cpp:156] Memory required for data: 1030800672
I0403 17:59:01.993670 21039 layer_factory.hpp:77] Creating layer inception_4c/relu_1x1
I0403 17:59:01.993688 21039 net.cpp:91] Creating Layer inception_4c/relu_1x1
I0403 17:59:01.993705 21039 net.cpp:425] inception_4c/relu_1x1 <- inception_4c/1x1
I0403 17:59:01.993722 21039 net.cpp:386] inception_4c/relu_1x1 -> inception_4c/1x1 (in-place)
I0403 17:59:01.993906 21039 net.cpp:141] Setting up inception_4c/relu_1x1
I0403 17:59:01.993934 21039 net.cpp:148] Top shape: 24 128 14 14 (602112)
I0403 17:59:01.993950 21039 net.cpp:156] Memory required for data: 1033209120
I0403 17:59:01.993965 21039 layer_factory.hpp:77] Creating layer inception_4c/3x3_reduce
I0403 17:59:01.993986 21039 net.cpp:91] Creating Layer inception_4c/3x3_reduce
I0403 17:59:01.994004 21039 net.cpp:425] inception_4c/3x3_reduce <- inception_4b/output_inception_4b/output_0_split_1
I0403 17:59:01.994027 21039 net.cpp:399] inception_4c/3x3_reduce -> inception_4c/3x3_reduce
I0403 17:59:01.996057 21039 net.cpp:141] Setting up inception_4c/3x3_reduce
I0403 17:59:01.996088 21039 net.cpp:148] Top shape: 24 128 14 14 (602112)
I0403 17:59:01.996104 21039 net.cpp:156] Memory required for data: 1035617568
I0403 17:59:01.996121 21039 layer_factory.hpp:77] Creating layer inception_4c/relu_3x3_reduce
I0403 17:59:01.996140 21039 net.cpp:91] Creating Layer inception_4c/relu_3x3_reduce
I0403 17:59:01.996160 21039 net.cpp:425] inception_4c/relu_3x3_reduce <- inception_4c/3x3_reduce
I0403 17:59:01.996176 21039 net.cpp:386] inception_4c/relu_3x3_reduce -> inception_4c/3x3_reduce (in-place)
I0403 17:59:01.996470 21039 net.cpp:141] Setting up inception_4c/relu_3x3_reduce
I0403 17:59:01.996497 21039 net.cpp:148] Top shape: 24 128 14 14 (602112)
I0403 17:59:01.996518 21039 net.cpp:156] Memory required for data: 1038026016
I0403 17:59:01.996533 21039 layer_factory.hpp:77] Creating layer inception_4c/3x3
I0403 17:59:01.996556 21039 net.cpp:91] Creating Layer inception_4c/3x3
I0403 17:59:01.996575 21039 net.cpp:425] inception_4c/3x3 <- inception_4c/3x3_reduce
I0403 17:59:01.996598 21039 net.cpp:399] inception_4c/3x3 -> inception_4c/3x3
I0403 17:59:02.000335 21039 net.cpp:141] Setting up inception_4c/3x3
I0403 17:59:02.000380 21039 net.cpp:148] Top shape: 24 256 14 14 (1204224)
I0403 17:59:02.000396 21039 net.cpp:156] Memory required for data: 1042842912
I0403 17:59:02.000428 21039 layer_factory.hpp:77] Creating layer inception_4c/relu_3x3
I0403 17:59:02.000449 21039 net.cpp:91] Creating Layer inception_4c/relu_3x3
I0403 17:59:02.000466 21039 net.cpp:425] inception_4c/relu_3x3 <- inception_4c/3x3
I0403 17:59:02.000485 21039 net.cpp:386] inception_4c/relu_3x3 -> inception_4c/3x3 (in-place)
I0403 17:59:02.000681 21039 net.cpp:141] Setting up inception_4c/relu_3x3
I0403 17:59:02.000707 21039 net.cpp:148] Top shape: 24 256 14 14 (1204224)
I0403 17:59:02.000722 21039 net.cpp:156] Memory required for data: 1047659808
I0403 17:59:02.000736 21039 layer_factory.hpp:77] Creating layer inception_4c/5x5_reduce
I0403 17:59:02.000759 21039 net.cpp:91] Creating Layer inception_4c/5x5_reduce
I0403 17:59:02.000777 21039 net.cpp:425] inception_4c/5x5_reduce <- inception_4b/output_inception_4b/output_0_split_2
I0403 17:59:02.000802 21039 net.cpp:399] inception_4c/5x5_reduce -> inception_4c/5x5_reduce
I0403 17:59:02.001934 21039 net.cpp:141] Setting up inception_4c/5x5_reduce
I0403 17:59:02.001962 21039 net.cpp:148] Top shape: 24 24 14 14 (112896)
I0403 17:59:02.001977 21039 net.cpp:156] Memory required for data: 1048111392
I0403 17:59:02.001996 21039 layer_factory.hpp:77] Creating layer inception_4c/relu_5x5_reduce
I0403 17:59:02.002017 21039 net.cpp:91] Creating Layer inception_4c/relu_5x5_reduce
I0403 17:59:02.002035 21039 net.cpp:425] inception_4c/relu_5x5_reduce <- inception_4c/5x5_reduce
I0403 17:59:02.002053 21039 net.cpp:386] inception_4c/relu_5x5_reduce -> inception_4c/5x5_reduce (in-place)
I0403 17:59:02.002241 21039 net.cpp:141] Setting up inception_4c/relu_5x5_reduce
I0403 17:59:02.002267 21039 net.cpp:148] Top shape: 24 24 14 14 (112896)
I0403 17:59:02.002282 21039 net.cpp:156] Memory required for data: 1048562976
I0403 17:59:02.002297 21039 layer_factory.hpp:77] Creating layer inception_4c/5x5
I0403 17:59:02.002321 21039 net.cpp:91] Creating Layer inception_4c/5x5
I0403 17:59:02.002338 21039 net.cpp:425] inception_4c/5x5 <- inception_4c/5x5_reduce
I0403 17:59:02.002357 21039 net.cpp:399] inception_4c/5x5 -> inception_4c/5x5
I0403 17:59:02.003643 21039 net.cpp:141] Setting up inception_4c/5x5
I0403 17:59:02.003672 21039 net.cpp:148] Top shape: 24 64 14 14 (301056)
I0403 17:59:02.003687 21039 net.cpp:156] Memory required for data: 1049767200
I0403 17:59:02.003706 21039 layer_factory.hpp:77] Creating layer inception_4c/relu_5x5
I0403 17:59:02.003728 21039 net.cpp:91] Creating Layer inception_4c/relu_5x5
I0403 17:59:02.003746 21039 net.cpp:425] inception_4c/relu_5x5 <- inception_4c/5x5
I0403 17:59:02.003762 21039 net.cpp:386] inception_4c/relu_5x5 -> inception_4c/5x5 (in-place)
I0403 17:59:02.004058 21039 net.cpp:141] Setting up inception_4c/relu_5x5
I0403 17:59:02.004086 21039 net.cpp:148] Top shape: 24 64 14 14 (301056)
I0403 17:59:02.004103 21039 net.cpp:156] Memory required for data: 1050971424
I0403 17:59:02.004118 21039 layer_factory.hpp:77] Creating layer inception_4c/pool
I0403 17:59:02.004135 21039 net.cpp:91] Creating Layer inception_4c/pool
I0403 17:59:02.004153 21039 net.cpp:425] inception_4c/pool <- inception_4b/output_inception_4b/output_0_split_3
I0403 17:59:02.004170 21039 net.cpp:399] inception_4c/pool -> inception_4c/pool
I0403 17:59:02.004240 21039 net.cpp:141] Setting up inception_4c/pool
I0403 17:59:02.004264 21039 net.cpp:148] Top shape: 24 512 14 14 (2408448)
I0403 17:59:02.004279 21039 net.cpp:156] Memory required for data: 1060605216
I0403 17:59:02.004293 21039 layer_factory.hpp:77] Creating layer inception_4c/pool_proj
I0403 17:59:02.004315 21039 net.cpp:91] Creating Layer inception_4c/pool_proj
I0403 17:59:02.004333 21039 net.cpp:425] inception_4c/pool_proj <- inception_4c/pool
I0403 17:59:02.004359 21039 net.cpp:399] inception_4c/pool_proj -> inception_4c/pool_proj
I0403 17:59:02.005637 21039 net.cpp:141] Setting up inception_4c/pool_proj
I0403 17:59:02.005666 21039 net.cpp:148] Top shape: 24 64 14 14 (301056)
I0403 17:59:02.005697 21039 net.cpp:156] Memory required for data: 1061809440
I0403 17:59:02.005717 21039 layer_factory.hpp:77] Creating layer inception_4c/relu_pool_proj
I0403 17:59:02.005734 21039 net.cpp:91] Creating Layer inception_4c/relu_pool_proj
I0403 17:59:02.005751 21039 net.cpp:425] inception_4c/relu_pool_proj <- inception_4c/pool_proj
I0403 17:59:02.005772 21039 net.cpp:386] inception_4c/relu_pool_proj -> inception_4c/pool_proj (in-place)
I0403 17:59:02.005964 21039 net.cpp:141] Setting up inception_4c/relu_pool_proj
I0403 17:59:02.005990 21039 net.cpp:148] Top shape: 24 64 14 14 (301056)
I0403 17:59:02.006005 21039 net.cpp:156] Memory required for data: 1063013664
I0403 17:59:02.006019 21039 layer_factory.hpp:77] Creating layer inception_4c/output
I0403 17:59:02.006038 21039 net.cpp:91] Creating Layer inception_4c/output
I0403 17:59:02.006054 21039 net.cpp:425] inception_4c/output <- inception_4c/1x1
I0403 17:59:02.006070 21039 net.cpp:425] inception_4c/output <- inception_4c/3x3
I0403 17:59:02.006088 21039 net.cpp:425] inception_4c/output <- inception_4c/5x5
I0403 17:59:02.006103 21039 net.cpp:425] inception_4c/output <- inception_4c/pool_proj
I0403 17:59:02.006119 21039 net.cpp:399] inception_4c/output -> inception_4c/output
I0403 17:59:02.006168 21039 net.cpp:141] Setting up inception_4c/output
I0403 17:59:02.006193 21039 net.cpp:148] Top shape: 24 512 14 14 (2408448)
I0403 17:59:02.006208 21039 net.cpp:156] Memory required for data: 1072647456
I0403 17:59:02.006222 21039 layer_factory.hpp:77] Creating layer inception_4c/output_inception_4c/output_0_split
I0403 17:59:02.006238 21039 net.cpp:91] Creating Layer inception_4c/output_inception_4c/output_0_split
I0403 17:59:02.006254 21039 net.cpp:425] inception_4c/output_inception_4c/output_0_split <- inception_4c/output
I0403 17:59:02.006275 21039 net.cpp:399] inception_4c/output_inception_4c/output_0_split -> inception_4c/output_inception_4c/output_0_split_0
I0403 17:59:02.006297 21039 net.cpp:399] inception_4c/output_inception_4c/output_0_split -> inception_4c/output_inception_4c/output_0_split_1
I0403 17:59:02.006319 21039 net.cpp:399] inception_4c/output_inception_4c/output_0_split -> inception_4c/output_inception_4c/output_0_split_2
I0403 17:59:02.006338 21039 net.cpp:399] inception_4c/output_inception_4c/output_0_split -> inception_4c/output_inception_4c/output_0_split_3
I0403 17:59:02.006427 21039 net.cpp:141] Setting up inception_4c/output_inception_4c/output_0_split
I0403 17:59:02.006450 21039 net.cpp:148] Top shape: 24 512 14 14 (2408448)
I0403 17:59:02.006466 21039 net.cpp:148] Top shape: 24 512 14 14 (2408448)
I0403 17:59:02.006482 21039 net.cpp:148] Top shape: 24 512 14 14 (2408448)
I0403 17:59:02.006497 21039 net.cpp:148] Top shape: 24 512 14 14 (2408448)
I0403 17:59:02.006516 21039 net.cpp:156] Memory required for data: 1111182624
I0403 17:59:02.006532 21039 layer_factory.hpp:77] Creating layer inception_4d/1x1
I0403 17:59:02.006556 21039 net.cpp:91] Creating Layer inception_4d/1x1
I0403 17:59:02.006574 21039 net.cpp:425] inception_4d/1x1 <- inception_4c/output_inception_4c/output_0_split_0
I0403 17:59:02.006595 21039 net.cpp:399] inception_4d/1x1 -> inception_4d/1x1
I0403 17:59:02.008024 21039 net.cpp:141] Setting up inception_4d/1x1
I0403 17:59:02.008056 21039 net.cpp:148] Top shape: 24 112 14 14 (526848)
I0403 17:59:02.008072 21039 net.cpp:156] Memory required for data: 1113290016
I0403 17:59:02.008091 21039 layer_factory.hpp:77] Creating layer inception_4d/relu_1x1
I0403 17:59:02.008110 21039 net.cpp:91] Creating Layer inception_4d/relu_1x1
I0403 17:59:02.008126 21039 net.cpp:425] inception_4d/relu_1x1 <- inception_4d/1x1
I0403 17:59:02.008144 21039 net.cpp:386] inception_4d/relu_1x1 -> inception_4d/1x1 (in-place)
I0403 17:59:02.008335 21039 net.cpp:141] Setting up inception_4d/relu_1x1
I0403 17:59:02.008361 21039 net.cpp:148] Top shape: 24 112 14 14 (526848)
I0403 17:59:02.008376 21039 net.cpp:156] Memory required for data: 1115397408
I0403 17:59:02.008391 21039 layer_factory.hpp:77] Creating layer inception_4d/3x3_reduce
I0403 17:59:02.008431 21039 net.cpp:91] Creating Layer inception_4d/3x3_reduce
I0403 17:59:02.008451 21039 net.cpp:425] inception_4d/3x3_reduce <- inception_4c/output_inception_4c/output_0_split_1
I0403 17:59:02.008472 21039 net.cpp:399] inception_4d/3x3_reduce -> inception_4d/3x3_reduce
I0403 17:59:02.010027 21039 net.cpp:141] Setting up inception_4d/3x3_reduce
I0403 17:59:02.010054 21039 net.cpp:148] Top shape: 24 144 14 14 (677376)
I0403 17:59:02.010069 21039 net.cpp:156] Memory required for data: 1118106912
I0403 17:59:02.010087 21039 layer_factory.hpp:77] Creating layer inception_4d/relu_3x3_reduce
I0403 17:59:02.010107 21039 net.cpp:91] Creating Layer inception_4d/relu_3x3_reduce
I0403 17:59:02.010123 21039 net.cpp:425] inception_4d/relu_3x3_reduce <- inception_4d/3x3_reduce
I0403 17:59:02.010139 21039 net.cpp:386] inception_4d/relu_3x3_reduce -> inception_4d/3x3_reduce (in-place)
I0403 17:59:02.010418 21039 net.cpp:141] Setting up inception_4d/relu_3x3_reduce
I0403 17:59:02.010443 21039 net.cpp:148] Top shape: 24 144 14 14 (677376)
I0403 17:59:02.010457 21039 net.cpp:156] Memory required for data: 1120816416
I0403 17:59:02.010471 21039 layer_factory.hpp:77] Creating layer inception_4d/3x3
I0403 17:59:02.010494 21039 net.cpp:91] Creating Layer inception_4d/3x3
I0403 17:59:02.010514 21039 net.cpp:425] inception_4d/3x3 <- inception_4d/3x3_reduce
I0403 17:59:02.010535 21039 net.cpp:399] inception_4d/3x3 -> inception_4d/3x3
I0403 17:59:02.014731 21039 net.cpp:141] Setting up inception_4d/3x3
I0403 17:59:02.014762 21039 net.cpp:148] Top shape: 24 288 14 14 (1354752)
I0403 17:59:02.014778 21039 net.cpp:156] Memory required for data: 1126235424
I0403 17:59:02.014797 21039 layer_factory.hpp:77] Creating layer inception_4d/relu_3x3
I0403 17:59:02.014823 21039 net.cpp:91] Creating Layer inception_4d/relu_3x3
I0403 17:59:02.014838 21039 net.cpp:425] inception_4d/relu_3x3 <- inception_4d/3x3
I0403 17:59:02.014858 21039 net.cpp:386] inception_4d/relu_3x3 -> inception_4d/3x3 (in-place)
I0403 17:59:02.015035 21039 net.cpp:141] Setting up inception_4d/relu_3x3
I0403 17:59:02.015060 21039 net.cpp:148] Top shape: 24 288 14 14 (1354752)
I0403 17:59:02.015074 21039 net.cpp:156] Memory required for data: 1131654432
I0403 17:59:02.015089 21039 layer_factory.hpp:77] Creating layer inception_4d/5x5_reduce
I0403 17:59:02.015110 21039 net.cpp:91] Creating Layer inception_4d/5x5_reduce
I0403 17:59:02.015126 21039 net.cpp:425] inception_4d/5x5_reduce <- inception_4c/output_inception_4c/output_0_split_2
I0403 17:59:02.015146 21039 net.cpp:399] inception_4d/5x5_reduce -> inception_4d/5x5_reduce
I0403 17:59:02.016273 21039 net.cpp:141] Setting up inception_4d/5x5_reduce
I0403 17:59:02.016299 21039 net.cpp:148] Top shape: 24 32 14 14 (150528)
I0403 17:59:02.016314 21039 net.cpp:156] Memory required for data: 1132256544
I0403 17:59:02.016331 21039 layer_factory.hpp:77] Creating layer inception_4d/relu_5x5_reduce
I0403 17:59:02.016348 21039 net.cpp:91] Creating Layer inception_4d/relu_5x5_reduce
I0403 17:59:02.016365 21039 net.cpp:425] inception_4d/relu_5x5_reduce <- inception_4d/5x5_reduce
I0403 17:59:02.016382 21039 net.cpp:386] inception_4d/relu_5x5_reduce -> inception_4d/5x5_reduce (in-place)
I0403 17:59:02.016573 21039 net.cpp:141] Setting up inception_4d/relu_5x5_reduce
I0403 17:59:02.016597 21039 net.cpp:148] Top shape: 24 32 14 14 (150528)
I0403 17:59:02.016612 21039 net.cpp:156] Memory required for data: 1132858656
I0403 17:59:02.016625 21039 layer_factory.hpp:77] Creating layer inception_4d/5x5
I0403 17:59:02.016646 21039 net.cpp:91] Creating Layer inception_4d/5x5
I0403 17:59:02.016664 21039 net.cpp:425] inception_4d/5x5 <- inception_4d/5x5_reduce
I0403 17:59:02.016683 21039 net.cpp:399] inception_4d/5x5 -> inception_4d/5x5
I0403 17:59:02.018113 21039 net.cpp:141] Setting up inception_4d/5x5
I0403 17:59:02.018141 21039 net.cpp:148] Top shape: 24 64 14 14 (301056)
I0403 17:59:02.018156 21039 net.cpp:156] Memory required for data: 1134062880
I0403 17:59:02.018173 21039 layer_factory.hpp:77] Creating layer inception_4d/relu_5x5
I0403 17:59:02.018208 21039 net.cpp:91] Creating Layer inception_4d/relu_5x5
I0403 17:59:02.018225 21039 net.cpp:425] inception_4d/relu_5x5 <- inception_4d/5x5
I0403 17:59:02.018244 21039 net.cpp:386] inception_4d/relu_5x5 -> inception_4d/5x5 (in-place)
I0403 17:59:02.018543 21039 net.cpp:141] Setting up inception_4d/relu_5x5
I0403 17:59:02.018568 21039 net.cpp:148] Top shape: 24 64 14 14 (301056)
I0403 17:59:02.018582 21039 net.cpp:156] Memory required for data: 1135267104
I0403 17:59:02.018596 21039 layer_factory.hpp:77] Creating layer inception_4d/pool
I0403 17:59:02.018615 21039 net.cpp:91] Creating Layer inception_4d/pool
I0403 17:59:02.018631 21039 net.cpp:425] inception_4d/pool <- inception_4c/output_inception_4c/output_0_split_3
I0403 17:59:02.018648 21039 net.cpp:399] inception_4d/pool -> inception_4d/pool
I0403 17:59:02.018713 21039 net.cpp:141] Setting up inception_4d/pool
I0403 17:59:02.018736 21039 net.cpp:148] Top shape: 24 512 14 14 (2408448)
I0403 17:59:02.018750 21039 net.cpp:156] Memory required for data: 1144900896
I0403 17:59:02.018764 21039 layer_factory.hpp:77] Creating layer inception_4d/pool_proj
I0403 17:59:02.018784 21039 net.cpp:91] Creating Layer inception_4d/pool_proj
I0403 17:59:02.018802 21039 net.cpp:425] inception_4d/pool_proj <- inception_4d/pool
I0403 17:59:02.018821 21039 net.cpp:399] inception_4d/pool_proj -> inception_4d/pool_proj
I0403 17:59:02.020562 21039 net.cpp:141] Setting up inception_4d/pool_proj
I0403 17:59:02.020593 21039 net.cpp:148] Top shape: 24 64 14 14 (301056)
I0403 17:59:02.020609 21039 net.cpp:156] Memory required for data: 1146105120
I0403 17:59:02.020627 21039 layer_factory.hpp:77] Creating layer inception_4d/relu_pool_proj
I0403 17:59:02.020644 21039 net.cpp:91] Creating Layer inception_4d/relu_pool_proj
I0403 17:59:02.020661 21039 net.cpp:425] inception_4d/relu_pool_proj <- inception_4d/pool_proj
I0403 17:59:02.020680 21039 net.cpp:386] inception_4d/relu_pool_proj -> inception_4d/pool_proj (in-place)
I0403 17:59:02.020859 21039 net.cpp:141] Setting up inception_4d/relu_pool_proj
I0403 17:59:02.020884 21039 net.cpp:148] Top shape: 24 64 14 14 (301056)
I0403 17:59:02.020898 21039 net.cpp:156] Memory required for data: 1147309344
I0403 17:59:02.020912 21039 layer_factory.hpp:77] Creating layer inception_4d/output
I0403 17:59:02.020930 21039 net.cpp:91] Creating Layer inception_4d/output
I0403 17:59:02.020944 21039 net.cpp:425] inception_4d/output <- inception_4d/1x1
I0403 17:59:02.020959 21039 net.cpp:425] inception_4d/output <- inception_4d/3x3
I0403 17:59:02.020974 21039 net.cpp:425] inception_4d/output <- inception_4d/5x5
I0403 17:59:02.020990 21039 net.cpp:425] inception_4d/output <- inception_4d/pool_proj
I0403 17:59:02.021010 21039 net.cpp:399] inception_4d/output -> inception_4d/output
I0403 17:59:02.021059 21039 net.cpp:141] Setting up inception_4d/output
I0403 17:59:02.021082 21039 net.cpp:148] Top shape: 24 528 14 14 (2483712)
I0403 17:59:02.021096 21039 net.cpp:156] Memory required for data: 1157244192
I0403 17:59:02.021109 21039 layer_factory.hpp:77] Creating layer inception_4d/output_inception_4d/output_0_split
I0403 17:59:02.021126 21039 net.cpp:91] Creating Layer inception_4d/output_inception_4d/output_0_split
I0403 17:59:02.021142 21039 net.cpp:425] inception_4d/output_inception_4d/output_0_split <- inception_4d/output
I0403 17:59:02.021162 21039 net.cpp:399] inception_4d/output_inception_4d/output_0_split -> inception_4d/output_inception_4d/output_0_split_0
I0403 17:59:02.021183 21039 net.cpp:399] inception_4d/output_inception_4d/output_0_split -> inception_4d/output_inception_4d/output_0_split_1
I0403 17:59:02.021203 21039 net.cpp:399] inception_4d/output_inception_4d/output_0_split -> inception_4d/output_inception_4d/output_0_split_2
I0403 17:59:02.021222 21039 net.cpp:399] inception_4d/output_inception_4d/output_0_split -> inception_4d/output_inception_4d/output_0_split_3
I0403 17:59:02.021240 21039 net.cpp:399] inception_4d/output_inception_4d/output_0_split -> inception_4d/output_inception_4d/output_0_split_4
I0403 17:59:02.021342 21039 net.cpp:141] Setting up inception_4d/output_inception_4d/output_0_split
I0403 17:59:02.021378 21039 net.cpp:148] Top shape: 24 528 14 14 (2483712)
I0403 17:59:02.021395 21039 net.cpp:148] Top shape: 24 528 14 14 (2483712)
I0403 17:59:02.021411 21039 net.cpp:148] Top shape: 24 528 14 14 (2483712)
I0403 17:59:02.021426 21039 net.cpp:148] Top shape: 24 528 14 14 (2483712)
I0403 17:59:02.021440 21039 net.cpp:148] Top shape: 24 528 14 14 (2483712)
I0403 17:59:02.021453 21039 net.cpp:156] Memory required for data: 1206918432
I0403 17:59:02.021466 21039 layer_factory.hpp:77] Creating layer loss2/ave_pool
I0403 17:59:02.021483 21039 net.cpp:91] Creating Layer loss2/ave_pool
I0403 17:59:02.021497 21039 net.cpp:425] loss2/ave_pool <- inception_4d/output_inception_4d/output_0_split_0
I0403 17:59:02.021523 21039 net.cpp:399] loss2/ave_pool -> loss2/ave_pool
I0403 17:59:02.021826 21039 net.cpp:141] Setting up loss2/ave_pool
I0403 17:59:02.021853 21039 net.cpp:148] Top shape: 24 528 4 4 (202752)
I0403 17:59:02.021868 21039 net.cpp:156] Memory required for data: 1207729440
I0403 17:59:02.021883 21039 layer_factory.hpp:77] Creating layer loss2/conv
I0403 17:59:02.021904 21039 net.cpp:91] Creating Layer loss2/conv
I0403 17:59:02.021921 21039 net.cpp:425] loss2/conv <- loss2/ave_pool
I0403 17:59:02.021941 21039 net.cpp:399] loss2/conv -> loss2/conv
I0403 17:59:02.023804 21039 net.cpp:141] Setting up loss2/conv
I0403 17:59:02.023833 21039 net.cpp:148] Top shape: 24 128 4 4 (49152)
I0403 17:59:02.023857 21039 net.cpp:156] Memory required for data: 1207926048
I0403 17:59:02.023875 21039 layer_factory.hpp:77] Creating layer loss2/relu_conv
I0403 17:59:02.023895 21039 net.cpp:91] Creating Layer loss2/relu_conv
I0403 17:59:02.023912 21039 net.cpp:425] loss2/relu_conv <- loss2/conv
I0403 17:59:02.023928 21039 net.cpp:386] loss2/relu_conv -> loss2/conv (in-place)
I0403 17:59:02.024206 21039 net.cpp:141] Setting up loss2/relu_conv
I0403 17:59:02.024232 21039 net.cpp:148] Top shape: 24 128 4 4 (49152)
I0403 17:59:02.024247 21039 net.cpp:156] Memory required for data: 1208122656
I0403 17:59:02.024263 21039 layer_factory.hpp:77] Creating layer loss2/fc
I0403 17:59:02.024282 21039 net.cpp:91] Creating Layer loss2/fc
I0403 17:59:02.024299 21039 net.cpp:425] loss2/fc <- loss2/conv
I0403 17:59:02.024319 21039 net.cpp:399] loss2/fc -> loss2/fc
I0403 17:59:02.041556 21039 net.cpp:141] Setting up loss2/fc
I0403 17:59:02.041586 21039 net.cpp:148] Top shape: 24 1024 (24576)
I0403 17:59:02.041600 21039 net.cpp:156] Memory required for data: 1208220960
I0403 17:59:02.041618 21039 layer_factory.hpp:77] Creating layer loss2/relu_fc
I0403 17:59:02.041635 21039 net.cpp:91] Creating Layer loss2/relu_fc
I0403 17:59:02.041651 21039 net.cpp:425] loss2/relu_fc <- loss2/fc
I0403 17:59:02.041669 21039 net.cpp:386] loss2/relu_fc -> loss2/fc (in-place)
I0403 17:59:02.041961 21039 net.cpp:141] Setting up loss2/relu_fc
I0403 17:59:02.041987 21039 net.cpp:148] Top shape: 24 1024 (24576)
I0403 17:59:02.042001 21039 net.cpp:156] Memory required for data: 1208319264
I0403 17:59:02.042016 21039 layer_factory.hpp:77] Creating layer loss2/drop_fc
I0403 17:59:02.042032 21039 net.cpp:91] Creating Layer loss2/drop_fc
I0403 17:59:02.042049 21039 net.cpp:425] loss2/drop_fc <- loss2/fc
I0403 17:59:02.042068 21039 net.cpp:386] loss2/drop_fc -> loss2/fc (in-place)
I0403 17:59:02.042115 21039 net.cpp:141] Setting up loss2/drop_fc
I0403 17:59:02.042140 21039 net.cpp:148] Top shape: 24 1024 (24576)
I0403 17:59:02.042153 21039 net.cpp:156] Memory required for data: 1208417568
I0403 17:59:02.042167 21039 layer_factory.hpp:77] Creating layer loss2/classifier_plantvillage
I0403 17:59:02.042186 21039 net.cpp:91] Creating Layer loss2/classifier_plantvillage
I0403 17:59:02.042201 21039 net.cpp:425] loss2/classifier_plantvillage <- loss2/fc
I0403 17:59:02.042222 21039 net.cpp:399] loss2/classifier_plantvillage -> loss2/classifier_plantvillage
I0403 17:59:02.042635 21039 net.cpp:141] Setting up loss2/classifier_plantvillage
I0403 17:59:02.042660 21039 net.cpp:148] Top shape: 24 38 (912)
I0403 17:59:02.042690 21039 net.cpp:156] Memory required for data: 1208421216
I0403 17:59:02.042709 21039 layer_factory.hpp:77] Creating layer loss2/classifier_plantvillage_loss2/classifier_plantvillage_0_split
I0403 17:59:02.042731 21039 net.cpp:91] Creating Layer loss2/classifier_plantvillage_loss2/classifier_plantvillage_0_split
I0403 17:59:02.042747 21039 net.cpp:425] loss2/classifier_plantvillage_loss2/classifier_plantvillage_0_split <- loss2/classifier_plantvillage
I0403 17:59:02.042764 21039 net.cpp:399] loss2/classifier_plantvillage_loss2/classifier_plantvillage_0_split -> loss2/classifier_plantvillage_loss2/classifier_plantvillage_0_split_0
I0403 17:59:02.042784 21039 net.cpp:399] loss2/classifier_plantvillage_loss2/classifier_plantvillage_0_split -> loss2/classifier_plantvillage_loss2/classifier_plantvillage_0_split_1
I0403 17:59:02.042809 21039 net.cpp:399] loss2/classifier_plantvillage_loss2/classifier_plantvillage_0_split -> loss2/classifier_plantvillage_loss2/classifier_plantvillage_0_split_2
I0403 17:59:02.042886 21039 net.cpp:141] Setting up loss2/classifier_plantvillage_loss2/classifier_plantvillage_0_split
I0403 17:59:02.042909 21039 net.cpp:148] Top shape: 24 38 (912)
I0403 17:59:02.042925 21039 net.cpp:148] Top shape: 24 38 (912)
I0403 17:59:02.042940 21039 net.cpp:148] Top shape: 24 38 (912)
I0403 17:59:02.042953 21039 net.cpp:156] Memory required for data: 1208432160
I0403 17:59:02.042968 21039 layer_factory.hpp:77] Creating layer inception_4e/1x1
I0403 17:59:02.042989 21039 net.cpp:91] Creating Layer inception_4e/1x1
I0403 17:59:02.043005 21039 net.cpp:425] inception_4e/1x1 <- inception_4d/output_inception_4d/output_0_split_1
I0403 17:59:02.043025 21039 net.cpp:399] inception_4e/1x1 -> inception_4e/1x1
I0403 17:59:02.044860 21039 net.cpp:141] Setting up inception_4e/1x1
I0403 17:59:02.044888 21039 net.cpp:148] Top shape: 24 256 14 14 (1204224)
I0403 17:59:02.044903 21039 net.cpp:156] Memory required for data: 1213249056
I0403 17:59:02.044921 21039 layer_factory.hpp:77] Creating layer inception_4e/relu_1x1
I0403 17:59:02.044941 21039 net.cpp:91] Creating Layer inception_4e/relu_1x1
I0403 17:59:02.044958 21039 net.cpp:425] inception_4e/relu_1x1 <- inception_4e/1x1
I0403 17:59:02.044975 21039 net.cpp:386] inception_4e/relu_1x1 -> inception_4e/1x1 (in-place)
I0403 17:59:02.045274 21039 net.cpp:141] Setting up inception_4e/relu_1x1
I0403 17:59:02.045301 21039 net.cpp:148] Top shape: 24 256 14 14 (1204224)
I0403 17:59:02.045316 21039 net.cpp:156] Memory required for data: 1218065952
I0403 17:59:02.045331 21039 layer_factory.hpp:77] Creating layer inception_4e/3x3_reduce
I0403 17:59:02.045352 21039 net.cpp:91] Creating Layer inception_4e/3x3_reduce
I0403 17:59:02.045369 21039 net.cpp:425] inception_4e/3x3_reduce <- inception_4d/output_inception_4d/output_0_split_2
I0403 17:59:02.045390 21039 net.cpp:399] inception_4e/3x3_reduce -> inception_4e/3x3_reduce
I0403 17:59:02.047552 21039 net.cpp:141] Setting up inception_4e/3x3_reduce
I0403 17:59:02.047581 21039 net.cpp:148] Top shape: 24 160 14 14 (752640)
I0403 17:59:02.047597 21039 net.cpp:156] Memory required for data: 1221076512
I0403 17:59:02.047616 21039 layer_factory.hpp:77] Creating layer inception_4e/relu_3x3_reduce
I0403 17:59:02.047636 21039 net.cpp:91] Creating Layer inception_4e/relu_3x3_reduce
I0403 17:59:02.047652 21039 net.cpp:425] inception_4e/relu_3x3_reduce <- inception_4e/3x3_reduce
I0403 17:59:02.047670 21039 net.cpp:386] inception_4e/relu_3x3_reduce -> inception_4e/3x3_reduce (in-place)
I0403 17:59:02.047855 21039 net.cpp:141] Setting up inception_4e/relu_3x3_reduce
I0403 17:59:02.047883 21039 net.cpp:148] Top shape: 24 160 14 14 (752640)
I0403 17:59:02.047899 21039 net.cpp:156] Memory required for data: 1224087072
I0403 17:59:02.047912 21039 layer_factory.hpp:77] Creating layer inception_4e/3x3
I0403 17:59:02.047935 21039 net.cpp:91] Creating Layer inception_4e/3x3
I0403 17:59:02.047951 21039 net.cpp:425] inception_4e/3x3 <- inception_4e/3x3_reduce
I0403 17:59:02.047969 21039 net.cpp:399] inception_4e/3x3 -> inception_4e/3x3
I0403 17:59:02.053030 21039 net.cpp:141] Setting up inception_4e/3x3
I0403 17:59:02.053074 21039 net.cpp:148] Top shape: 24 320 14 14 (1505280)
I0403 17:59:02.053092 21039 net.cpp:156] Memory required for data: 1230108192
I0403 17:59:02.053109 21039 layer_factory.hpp:77] Creating layer inception_4e/relu_3x3
I0403 17:59:02.053128 21039 net.cpp:91] Creating Layer inception_4e/relu_3x3
I0403 17:59:02.053143 21039 net.cpp:425] inception_4e/relu_3x3 <- inception_4e/3x3
I0403 17:59:02.053160 21039 net.cpp:386] inception_4e/relu_3x3 -> inception_4e/3x3 (in-place)
I0403 17:59:02.053457 21039 net.cpp:141] Setting up inception_4e/relu_3x3
I0403 17:59:02.053485 21039 net.cpp:148] Top shape: 24 320 14 14 (1505280)
I0403 17:59:02.053500 21039 net.cpp:156] Memory required for data: 1236129312
I0403 17:59:02.053520 21039 layer_factory.hpp:77] Creating layer inception_4e/5x5_reduce
I0403 17:59:02.053544 21039 net.cpp:91] Creating Layer inception_4e/5x5_reduce
I0403 17:59:02.053568 21039 net.cpp:425] inception_4e/5x5_reduce <- inception_4d/output_inception_4d/output_0_split_3
I0403 17:59:02.053589 21039 net.cpp:399] inception_4e/5x5_reduce -> inception_4e/5x5_reduce
I0403 17:59:02.054674 21039 net.cpp:141] Setting up inception_4e/5x5_reduce
I0403 17:59:02.054702 21039 net.cpp:148] Top shape: 24 32 14 14 (150528)
I0403 17:59:02.054718 21039 net.cpp:156] Memory required for data: 1236731424
I0403 17:59:02.054735 21039 layer_factory.hpp:77] Creating layer inception_4e/relu_5x5_reduce
I0403 17:59:02.054755 21039 net.cpp:91] Creating Layer inception_4e/relu_5x5_reduce
I0403 17:59:02.054772 21039 net.cpp:425] inception_4e/relu_5x5_reduce <- inception_4e/5x5_reduce
I0403 17:59:02.054790 21039 net.cpp:386] inception_4e/relu_5x5_reduce -> inception_4e/5x5_reduce (in-place)
I0403 17:59:02.055088 21039 net.cpp:141] Setting up inception_4e/relu_5x5_reduce
I0403 17:59:02.055114 21039 net.cpp:148] Top shape: 24 32 14 14 (150528)
I0403 17:59:02.055130 21039 net.cpp:156] Memory required for data: 1237333536
I0403 17:59:02.055143 21039 layer_factory.hpp:77] Creating layer inception_4e/5x5
I0403 17:59:02.055181 21039 net.cpp:91] Creating Layer inception_4e/5x5
I0403 17:59:02.055202 21039 net.cpp:425] inception_4e/5x5 <- inception_4e/5x5_reduce
I0403 17:59:02.055220 21039 net.cpp:399] inception_4e/5x5 -> inception_4e/5x5
I0403 17:59:02.057093 21039 net.cpp:141] Setting up inception_4e/5x5
I0403 17:59:02.057121 21039 net.cpp:148] Top shape: 24 128 14 14 (602112)
I0403 17:59:02.057137 21039 net.cpp:156] Memory required for data: 1239741984
I0403 17:59:02.057154 21039 layer_factory.hpp:77] Creating layer inception_4e/relu_5x5
I0403 17:59:02.057173 21039 net.cpp:91] Creating Layer inception_4e/relu_5x5
I0403 17:59:02.057193 21039 net.cpp:425] inception_4e/relu_5x5 <- inception_4e/5x5
I0403 17:59:02.057209 21039 net.cpp:386] inception_4e/relu_5x5 -> inception_4e/5x5 (in-place)
I0403 17:59:02.057405 21039 net.cpp:141] Setting up inception_4e/relu_5x5
I0403 17:59:02.057430 21039 net.cpp:148] Top shape: 24 128 14 14 (602112)
I0403 17:59:02.057445 21039 net.cpp:156] Memory required for data: 1242150432
I0403 17:59:02.057458 21039 layer_factory.hpp:77] Creating layer inception_4e/pool
I0403 17:59:02.057477 21039 net.cpp:91] Creating Layer inception_4e/pool
I0403 17:59:02.057494 21039 net.cpp:425] inception_4e/pool <- inception_4d/output_inception_4d/output_0_split_4
I0403 17:59:02.057519 21039 net.cpp:399] inception_4e/pool -> inception_4e/pool
I0403 17:59:02.057592 21039 net.cpp:141] Setting up inception_4e/pool
I0403 17:59:02.057616 21039 net.cpp:148] Top shape: 24 528 14 14 (2483712)
I0403 17:59:02.057631 21039 net.cpp:156] Memory required for data: 1252085280
I0403 17:59:02.057644 21039 layer_factory.hpp:77] Creating layer inception_4e/pool_proj
I0403 17:59:02.057667 21039 net.cpp:91] Creating Layer inception_4e/pool_proj
I0403 17:59:02.057685 21039 net.cpp:425] inception_4e/pool_proj <- inception_4e/pool
I0403 17:59:02.057705 21039 net.cpp:399] inception_4e/pool_proj -> inception_4e/pool_proj
I0403 17:59:02.059243 21039 net.cpp:141] Setting up inception_4e/pool_proj
I0403 17:59:02.059285 21039 net.cpp:148] Top shape: 24 128 14 14 (602112)
I0403 17:59:02.059303 21039 net.cpp:156] Memory required for data: 1254493728
I0403 17:59:02.059334 21039 layer_factory.hpp:77] Creating layer inception_4e/relu_pool_proj
I0403 17:59:02.059352 21039 net.cpp:91] Creating Layer inception_4e/relu_pool_proj
I0403 17:59:02.059368 21039 net.cpp:425] inception_4e/relu_pool_proj <- inception_4e/pool_proj
I0403 17:59:02.059387 21039 net.cpp:386] inception_4e/relu_pool_proj -> inception_4e/pool_proj (in-place)
I0403 17:59:02.059690 21039 net.cpp:141] Setting up inception_4e/relu_pool_proj
I0403 17:59:02.059718 21039 net.cpp:148] Top shape: 24 128 14 14 (602112)
I0403 17:59:02.059734 21039 net.cpp:156] Memory required for data: 1256902176
I0403 17:59:02.059748 21039 layer_factory.hpp:77] Creating layer inception_4e/output
I0403 17:59:02.059765 21039 net.cpp:91] Creating Layer inception_4e/output
I0403 17:59:02.059780 21039 net.cpp:425] inception_4e/output <- inception_4e/1x1
I0403 17:59:02.059798 21039 net.cpp:425] inception_4e/output <- inception_4e/3x3
I0403 17:59:02.059813 21039 net.cpp:425] inception_4e/output <- inception_4e/5x5
I0403 17:59:02.059828 21039 net.cpp:425] inception_4e/output <- inception_4e/pool_proj
I0403 17:59:02.059847 21039 net.cpp:399] inception_4e/output -> inception_4e/output
I0403 17:59:02.059896 21039 net.cpp:141] Setting up inception_4e/output
I0403 17:59:02.059919 21039 net.cpp:148] Top shape: 24 832 14 14 (3913728)
I0403 17:59:02.059933 21039 net.cpp:156] Memory required for data: 1272557088
I0403 17:59:02.059947 21039 layer_factory.hpp:77] Creating layer pool4/3x3_s2
I0403 17:59:02.059969 21039 net.cpp:91] Creating Layer pool4/3x3_s2
I0403 17:59:02.059986 21039 net.cpp:425] pool4/3x3_s2 <- inception_4e/output
I0403 17:59:02.060004 21039 net.cpp:399] pool4/3x3_s2 -> pool4/3x3_s2
I0403 17:59:02.060073 21039 net.cpp:141] Setting up pool4/3x3_s2
I0403 17:59:02.060097 21039 net.cpp:148] Top shape: 24 832 7 7 (978432)
I0403 17:59:02.060120 21039 net.cpp:156] Memory required for data: 1276470816
I0403 17:59:02.060134 21039 layer_factory.hpp:77] Creating layer pool4/3x3_s2_pool4/3x3_s2_0_split
I0403 17:59:02.060153 21039 net.cpp:91] Creating Layer pool4/3x3_s2_pool4/3x3_s2_0_split
I0403 17:59:02.060169 21039 net.cpp:425] pool4/3x3_s2_pool4/3x3_s2_0_split <- pool4/3x3_s2
I0403 17:59:02.060187 21039 net.cpp:399] pool4/3x3_s2_pool4/3x3_s2_0_split -> pool4/3x3_s2_pool4/3x3_s2_0_split_0
I0403 17:59:02.060207 21039 net.cpp:399] pool4/3x3_s2_pool4/3x3_s2_0_split -> pool4/3x3_s2_pool4/3x3_s2_0_split_1
I0403 17:59:02.060227 21039 net.cpp:399] pool4/3x3_s2_pool4/3x3_s2_0_split -> pool4/3x3_s2_pool4/3x3_s2_0_split_2
I0403 17:59:02.060247 21039 net.cpp:399] pool4/3x3_s2_pool4/3x3_s2_0_split -> pool4/3x3_s2_pool4/3x3_s2_0_split_3
I0403 17:59:02.060339 21039 net.cpp:141] Setting up pool4/3x3_s2_pool4/3x3_s2_0_split
I0403 17:59:02.060364 21039 net.cpp:148] Top shape: 24 832 7 7 (978432)
I0403 17:59:02.060379 21039 net.cpp:148] Top shape: 24 832 7 7 (978432)
I0403 17:59:02.060406 21039 net.cpp:148] Top shape: 24 832 7 7 (978432)
I0403 17:59:02.060420 21039 net.cpp:148] Top shape: 24 832 7 7 (978432)
I0403 17:59:02.060433 21039 net.cpp:156] Memory required for data: 1292125728
I0403 17:59:02.060447 21039 layer_factory.hpp:77] Creating layer inception_5a/1x1
I0403 17:59:02.060468 21039 net.cpp:91] Creating Layer inception_5a/1x1
I0403 17:59:02.060485 21039 net.cpp:425] inception_5a/1x1 <- pool4/3x3_s2_pool4/3x3_s2_0_split_0
I0403 17:59:02.060510 21039 net.cpp:399] inception_5a/1x1 -> inception_5a/1x1
I0403 17:59:02.063313 21039 net.cpp:141] Setting up inception_5a/1x1
I0403 17:59:02.063343 21039 net.cpp:148] Top shape: 24 256 7 7 (301056)
I0403 17:59:02.063357 21039 net.cpp:156] Memory required for data: 1293329952
I0403 17:59:02.063375 21039 layer_factory.hpp:77] Creating layer inception_5a/relu_1x1
I0403 17:59:02.063395 21039 net.cpp:91] Creating Layer inception_5a/relu_1x1
I0403 17:59:02.063411 21039 net.cpp:425] inception_5a/relu_1x1 <- inception_5a/1x1
I0403 17:59:02.063428 21039 net.cpp:386] inception_5a/relu_1x1 -> inception_5a/1x1 (in-place)
I0403 17:59:02.063737 21039 net.cpp:141] Setting up inception_5a/relu_1x1
I0403 17:59:02.063763 21039 net.cpp:148] Top shape: 24 256 7 7 (301056)
I0403 17:59:02.063778 21039 net.cpp:156] Memory required for data: 1294534176
I0403 17:59:02.063792 21039 layer_factory.hpp:77] Creating layer inception_5a/3x3_reduce
I0403 17:59:02.063814 21039 net.cpp:91] Creating Layer inception_5a/3x3_reduce
I0403 17:59:02.063832 21039 net.cpp:425] inception_5a/3x3_reduce <- pool4/3x3_s2_pool4/3x3_s2_0_split_1
I0403 17:59:02.063851 21039 net.cpp:399] inception_5a/3x3_reduce -> inception_5a/3x3_reduce
I0403 17:59:02.066269 21039 net.cpp:141] Setting up inception_5a/3x3_reduce
I0403 17:59:02.066299 21039 net.cpp:148] Top shape: 24 160 7 7 (188160)
I0403 17:59:02.066316 21039 net.cpp:156] Memory required for data: 1295286816
I0403 17:59:02.066334 21039 layer_factory.hpp:77] Creating layer inception_5a/relu_3x3_reduce
I0403 17:59:02.066351 21039 net.cpp:91] Creating Layer inception_5a/relu_3x3_reduce
I0403 17:59:02.066366 21039 net.cpp:425] inception_5a/relu_3x3_reduce <- inception_5a/3x3_reduce
I0403 17:59:02.066385 21039 net.cpp:386] inception_5a/relu_3x3_reduce -> inception_5a/3x3_reduce (in-place)
I0403 17:59:02.066575 21039 net.cpp:141] Setting up inception_5a/relu_3x3_reduce
I0403 17:59:02.066599 21039 net.cpp:148] Top shape: 24 160 7 7 (188160)
I0403 17:59:02.066613 21039 net.cpp:156] Memory required for data: 1296039456
I0403 17:59:02.066627 21039 layer_factory.hpp:77] Creating layer inception_5a/3x3
I0403 17:59:02.066648 21039 net.cpp:91] Creating Layer inception_5a/3x3
I0403 17:59:02.066664 21039 net.cpp:425] inception_5a/3x3 <- inception_5a/3x3_reduce
I0403 17:59:02.066685 21039 net.cpp:399] inception_5a/3x3 -> inception_5a/3x3
I0403 17:59:02.071640 21039 net.cpp:141] Setting up inception_5a/3x3
I0403 17:59:02.071668 21039 net.cpp:148] Top shape: 24 320 7 7 (376320)
I0403 17:59:02.071683 21039 net.cpp:156] Memory required for data: 1297544736
I0403 17:59:02.071701 21039 layer_factory.hpp:77] Creating layer inception_5a/relu_3x3
I0403 17:59:02.071719 21039 net.cpp:91] Creating Layer inception_5a/relu_3x3
I0403 17:59:02.071737 21039 net.cpp:425] inception_5a/relu_3x3 <- inception_5a/3x3
I0403 17:59:02.071753 21039 net.cpp:386] inception_5a/relu_3x3 -> inception_5a/3x3 (in-place)
I0403 17:59:02.072039 21039 net.cpp:141] Setting up inception_5a/relu_3x3
I0403 17:59:02.072064 21039 net.cpp:148] Top shape: 24 320 7 7 (376320)
I0403 17:59:02.072079 21039 net.cpp:156] Memory required for data: 1299050016
I0403 17:59:02.072093 21039 layer_factory.hpp:77] Creating layer inception_5a/5x5_reduce
I0403 17:59:02.072114 21039 net.cpp:91] Creating Layer inception_5a/5x5_reduce
I0403 17:59:02.072131 21039 net.cpp:425] inception_5a/5x5_reduce <- pool4/3x3_s2_pool4/3x3_s2_0_split_2
I0403 17:59:02.072154 21039 net.cpp:399] inception_5a/5x5_reduce -> inception_5a/5x5_reduce
I0403 17:59:02.073298 21039 net.cpp:141] Setting up inception_5a/5x5_reduce
I0403 17:59:02.073325 21039 net.cpp:148] Top shape: 24 32 7 7 (37632)
I0403 17:59:02.073341 21039 net.cpp:156] Memory required for data: 1299200544
I0403 17:59:02.073359 21039 layer_factory.hpp:77] Creating layer inception_5a/relu_5x5_reduce
I0403 17:59:02.073379 21039 net.cpp:91] Creating Layer inception_5a/relu_5x5_reduce
I0403 17:59:02.073395 21039 net.cpp:425] inception_5a/relu_5x5_reduce <- inception_5a/5x5_reduce
I0403 17:59:02.073412 21039 net.cpp:386] inception_5a/relu_5x5_reduce -> inception_5a/5x5_reduce (in-place)
I0403 17:59:02.073722 21039 net.cpp:141] Setting up inception_5a/relu_5x5_reduce
I0403 17:59:02.073747 21039 net.cpp:148] Top shape: 24 32 7 7 (37632)
I0403 17:59:02.073761 21039 net.cpp:156] Memory required for data: 1299351072
I0403 17:59:02.073776 21039 layer_factory.hpp:77] Creating layer inception_5a/5x5
I0403 17:59:02.073796 21039 net.cpp:91] Creating Layer inception_5a/5x5
I0403 17:59:02.073814 21039 net.cpp:425] inception_5a/5x5 <- inception_5a/5x5_reduce
I0403 17:59:02.073835 21039 net.cpp:399] inception_5a/5x5 -> inception_5a/5x5
I0403 17:59:02.075536 21039 net.cpp:141] Setting up inception_5a/5x5
I0403 17:59:02.075573 21039 net.cpp:148] Top shape: 24 128 7 7 (150528)
I0403 17:59:02.075588 21039 net.cpp:156] Memory required for data: 1299953184
I0403 17:59:02.075606 21039 layer_factory.hpp:77] Creating layer inception_5a/relu_5x5
I0403 17:59:02.075628 21039 net.cpp:91] Creating Layer inception_5a/relu_5x5
I0403 17:59:02.075644 21039 net.cpp:425] inception_5a/relu_5x5 <- inception_5a/5x5
I0403 17:59:02.075660 21039 net.cpp:386] inception_5a/relu_5x5 -> inception_5a/5x5 (in-place)
I0403 17:59:02.075845 21039 net.cpp:141] Setting up inception_5a/relu_5x5
I0403 17:59:02.075870 21039 net.cpp:148] Top shape: 24 128 7 7 (150528)
I0403 17:59:02.075883 21039 net.cpp:156] Memory required for data: 1300555296
I0403 17:59:02.075897 21039 layer_factory.hpp:77] Creating layer inception_5a/pool
I0403 17:59:02.075917 21039 net.cpp:91] Creating Layer inception_5a/pool
I0403 17:59:02.075932 21039 net.cpp:425] inception_5a/pool <- pool4/3x3_s2_pool4/3x3_s2_0_split_3
I0403 17:59:02.075950 21039 net.cpp:399] inception_5a/pool -> inception_5a/pool
I0403 17:59:02.076020 21039 net.cpp:141] Setting up inception_5a/pool
I0403 17:59:02.076043 21039 net.cpp:148] Top shape: 24 832 7 7 (978432)
I0403 17:59:02.076057 21039 net.cpp:156] Memory required for data: 1304469024
I0403 17:59:02.076071 21039 layer_factory.hpp:77] Creating layer inception_5a/pool_proj
I0403 17:59:02.076092 21039 net.cpp:91] Creating Layer inception_5a/pool_proj
I0403 17:59:02.076109 21039 net.cpp:425] inception_5a/pool_proj <- inception_5a/pool
I0403 17:59:02.076129 21039 net.cpp:399] inception_5a/pool_proj -> inception_5a/pool_proj
I0403 17:59:02.078364 21039 net.cpp:141] Setting up inception_5a/pool_proj
I0403 17:59:02.078393 21039 net.cpp:148] Top shape: 24 128 7 7 (150528)
I0403 17:59:02.078408 21039 net.cpp:156] Memory required for data: 1305071136
I0403 17:59:02.078426 21039 layer_factory.hpp:77] Creating layer inception_5a/relu_pool_proj
I0403 17:59:02.078444 21039 net.cpp:91] Creating Layer inception_5a/relu_pool_proj
I0403 17:59:02.078459 21039 net.cpp:425] inception_5a/relu_pool_proj <- inception_5a/pool_proj
I0403 17:59:02.078481 21039 net.cpp:386] inception_5a/relu_pool_proj -> inception_5a/pool_proj (in-place)
I0403 17:59:02.078778 21039 net.cpp:141] Setting up inception_5a/relu_pool_proj
I0403 17:59:02.078802 21039 net.cpp:148] Top shape: 24 128 7 7 (150528)
I0403 17:59:02.078817 21039 net.cpp:156] Memory required for data: 1305673248
I0403 17:59:02.078831 21039 layer_factory.hpp:77] Creating layer inception_5a/output
I0403 17:59:02.078847 21039 net.cpp:91] Creating Layer inception_5a/output
I0403 17:59:02.078863 21039 net.cpp:425] inception_5a/output <- inception_5a/1x1
I0403 17:59:02.078879 21039 net.cpp:425] inception_5a/output <- inception_5a/3x3
I0403 17:59:02.078894 21039 net.cpp:425] inception_5a/output <- inception_5a/5x5
I0403 17:59:02.078910 21039 net.cpp:425] inception_5a/output <- inception_5a/pool_proj
I0403 17:59:02.078929 21039 net.cpp:399] inception_5a/output -> inception_5a/output
I0403 17:59:02.078979 21039 net.cpp:141] Setting up inception_5a/output
I0403 17:59:02.079004 21039 net.cpp:148] Top shape: 24 832 7 7 (978432)
I0403 17:59:02.079018 21039 net.cpp:156] Memory required for data: 1309586976
I0403 17:59:02.079031 21039 layer_factory.hpp:77] Creating layer inception_5a/output_inception_5a/output_0_split
I0403 17:59:02.079048 21039 net.cpp:91] Creating Layer inception_5a/output_inception_5a/output_0_split
I0403 17:59:02.079063 21039 net.cpp:425] inception_5a/output_inception_5a/output_0_split <- inception_5a/output
I0403 17:59:02.079080 21039 net.cpp:399] inception_5a/output_inception_5a/output_0_split -> inception_5a/output_inception_5a/output_0_split_0
I0403 17:59:02.079099 21039 net.cpp:399] inception_5a/output_inception_5a/output_0_split -> inception_5a/output_inception_5a/output_0_split_1
I0403 17:59:02.079123 21039 net.cpp:399] inception_5a/output_inception_5a/output_0_split -> inception_5a/output_inception_5a/output_0_split_2
I0403 17:59:02.079144 21039 net.cpp:399] inception_5a/output_inception_5a/output_0_split -> inception_5a/output_inception_5a/output_0_split_3
I0403 17:59:02.079253 21039 net.cpp:141] Setting up inception_5a/output_inception_5a/output_0_split
I0403 17:59:02.079277 21039 net.cpp:148] Top shape: 24 832 7 7 (978432)
I0403 17:59:02.079294 21039 net.cpp:148] Top shape: 24 832 7 7 (978432)
I0403 17:59:02.079308 21039 net.cpp:148] Top shape: 24 832 7 7 (978432)
I0403 17:59:02.079322 21039 net.cpp:148] Top shape: 24 832 7 7 (978432)
I0403 17:59:02.079335 21039 net.cpp:156] Memory required for data: 1325241888
I0403 17:59:02.079349 21039 layer_factory.hpp:77] Creating layer inception_5b/1x1
I0403 17:59:02.079370 21039 net.cpp:91] Creating Layer inception_5b/1x1
I0403 17:59:02.079386 21039 net.cpp:425] inception_5b/1x1 <- inception_5a/output_inception_5a/output_0_split_0
I0403 17:59:02.079406 21039 net.cpp:399] inception_5b/1x1 -> inception_5b/1x1
I0403 17:59:02.083094 21039 net.cpp:141] Setting up inception_5b/1x1
I0403 17:59:02.083124 21039 net.cpp:148] Top shape: 24 384 7 7 (451584)
I0403 17:59:02.083142 21039 net.cpp:156] Memory required for data: 1327048224
I0403 17:59:02.083158 21039 layer_factory.hpp:77] Creating layer inception_5b/relu_1x1
I0403 17:59:02.083175 21039 net.cpp:91] Creating Layer inception_5b/relu_1x1
I0403 17:59:02.083191 21039 net.cpp:425] inception_5b/relu_1x1 <- inception_5b/1x1
I0403 17:59:02.083210 21039 net.cpp:386] inception_5b/relu_1x1 -> inception_5b/1x1 (in-place)
I0403 17:59:02.083518 21039 net.cpp:141] Setting up inception_5b/relu_1x1
I0403 17:59:02.083546 21039 net.cpp:148] Top shape: 24 384 7 7 (451584)
I0403 17:59:02.083567 21039 net.cpp:156] Memory required for data: 1328854560
I0403 17:59:02.083581 21039 layer_factory.hpp:77] Creating layer inception_5b/3x3_reduce
I0403 17:59:02.083606 21039 net.cpp:91] Creating Layer inception_5b/3x3_reduce
I0403 17:59:02.083623 21039 net.cpp:425] inception_5b/3x3_reduce <- inception_5a/output_inception_5a/output_0_split_1
I0403 17:59:02.083642 21039 net.cpp:399] inception_5b/3x3_reduce -> inception_5b/3x3_reduce
I0403 17:59:02.086271 21039 net.cpp:141] Setting up inception_5b/3x3_reduce
I0403 17:59:02.086300 21039 net.cpp:148] Top shape: 24 192 7 7 (225792)
I0403 17:59:02.086318 21039 net.cpp:156] Memory required for data: 1329757728
I0403 17:59:02.086335 21039 layer_factory.hpp:77] Creating layer inception_5b/relu_3x3_reduce
I0403 17:59:02.086354 21039 net.cpp:91] Creating Layer inception_5b/relu_3x3_reduce
I0403 17:59:02.086370 21039 net.cpp:425] inception_5b/relu_3x3_reduce <- inception_5b/3x3_reduce
I0403 17:59:02.086390 21039 net.cpp:386] inception_5b/relu_3x3_reduce -> inception_5b/3x3_reduce (in-place)
I0403 17:59:02.086596 21039 net.cpp:141] Setting up inception_5b/relu_3x3_reduce
I0403 17:59:02.086621 21039 net.cpp:148] Top shape: 24 192 7 7 (225792)
I0403 17:59:02.086634 21039 net.cpp:156] Memory required for data: 1330660896
I0403 17:59:02.086648 21039 layer_factory.hpp:77] Creating layer inception_5b/3x3
I0403 17:59:02.086669 21039 net.cpp:91] Creating Layer inception_5b/3x3
I0403 17:59:02.086688 21039 net.cpp:425] inception_5b/3x3 <- inception_5b/3x3_reduce
I0403 17:59:02.086709 21039 net.cpp:399] inception_5b/3x3 -> inception_5b/3x3
I0403 17:59:02.093324 21039 net.cpp:141] Setting up inception_5b/3x3
I0403 17:59:02.093351 21039 net.cpp:148] Top shape: 24 384 7 7 (451584)
I0403 17:59:02.093366 21039 net.cpp:156] Memory required for data: 1332467232
I0403 17:59:02.093384 21039 layer_factory.hpp:77] Creating layer inception_5b/relu_3x3
I0403 17:59:02.093400 21039 net.cpp:91] Creating Layer inception_5b/relu_3x3
I0403 17:59:02.093417 21039 net.cpp:425] inception_5b/relu_3x3 <- inception_5b/3x3
I0403 17:59:02.093436 21039 net.cpp:386] inception_5b/relu_3x3 -> inception_5b/3x3 (in-place)
I0403 17:59:02.093737 21039 net.cpp:141] Setting up inception_5b/relu_3x3
I0403 17:59:02.093762 21039 net.cpp:148] Top shape: 24 384 7 7 (451584)
I0403 17:59:02.093777 21039 net.cpp:156] Memory required for data: 1334273568
I0403 17:59:02.093791 21039 layer_factory.hpp:77] Creating layer inception_5b/5x5_reduce
I0403 17:59:02.093828 21039 net.cpp:91] Creating Layer inception_5b/5x5_reduce
I0403 17:59:02.093847 21039 net.cpp:425] inception_5b/5x5_reduce <- inception_5a/output_inception_5a/output_0_split_2
I0403 17:59:02.093870 21039 net.cpp:399] inception_5b/5x5_reduce -> inception_5b/5x5_reduce
I0403 17:59:02.095152 21039 net.cpp:141] Setting up inception_5b/5x5_reduce
I0403 17:59:02.095182 21039 net.cpp:148] Top shape: 24 48 7 7 (56448)
I0403 17:59:02.095198 21039 net.cpp:156] Memory required for data: 1334499360
I0403 17:59:02.095216 21039 layer_factory.hpp:77] Creating layer inception_5b/relu_5x5_reduce
I0403 17:59:02.095234 21039 net.cpp:91] Creating Layer inception_5b/relu_5x5_reduce
I0403 17:59:02.095252 21039 net.cpp:425] inception_5b/relu_5x5_reduce <- inception_5b/5x5_reduce
I0403 17:59:02.095270 21039 net.cpp:386] inception_5b/relu_5x5_reduce -> inception_5b/5x5_reduce (in-place)
I0403 17:59:02.095652 21039 net.cpp:141] Setting up inception_5b/relu_5x5_reduce
I0403 17:59:02.095679 21039 net.cpp:148] Top shape: 24 48 7 7 (56448)
I0403 17:59:02.095693 21039 net.cpp:156] Memory required for data: 1334725152
I0403 17:59:02.095707 21039 layer_factory.hpp:77] Creating layer inception_5b/5x5
I0403 17:59:02.095727 21039 net.cpp:91] Creating Layer inception_5b/5x5
I0403 17:59:02.095746 21039 net.cpp:425] inception_5b/5x5 <- inception_5b/5x5_reduce
I0403 17:59:02.095763 21039 net.cpp:399] inception_5b/5x5 -> inception_5b/5x5
I0403 17:59:02.097826 21039 net.cpp:141] Setting up inception_5b/5x5
I0403 17:59:02.097854 21039 net.cpp:148] Top shape: 24 128 7 7 (150528)
I0403 17:59:02.097869 21039 net.cpp:156] Memory required for data: 1335327264
I0403 17:59:02.097888 21039 layer_factory.hpp:77] Creating layer inception_5b/relu_5x5
I0403 17:59:02.097909 21039 net.cpp:91] Creating Layer inception_5b/relu_5x5
I0403 17:59:02.097925 21039 net.cpp:425] inception_5b/relu_5x5 <- inception_5b/5x5
I0403 17:59:02.097944 21039 net.cpp:386] inception_5b/relu_5x5 -> inception_5b/5x5 (in-place)
I0403 17:59:02.098139 21039 net.cpp:141] Setting up inception_5b/relu_5x5
I0403 17:59:02.098162 21039 net.cpp:148] Top shape: 24 128 7 7 (150528)
I0403 17:59:02.098177 21039 net.cpp:156] Memory required for data: 1335929376
I0403 17:59:02.098191 21039 layer_factory.hpp:77] Creating layer inception_5b/pool
I0403 17:59:02.098212 21039 net.cpp:91] Creating Layer inception_5b/pool
I0403 17:59:02.098227 21039 net.cpp:425] inception_5b/pool <- inception_5a/output_inception_5a/output_0_split_3
I0403 17:59:02.098245 21039 net.cpp:399] inception_5b/pool -> inception_5b/pool
I0403 17:59:02.098320 21039 net.cpp:141] Setting up inception_5b/pool
I0403 17:59:02.098343 21039 net.cpp:148] Top shape: 24 832 7 7 (978432)
I0403 17:59:02.098357 21039 net.cpp:156] Memory required for data: 1339843104
I0403 17:59:02.098371 21039 layer_factory.hpp:77] Creating layer inception_5b/pool_proj
I0403 17:59:02.098392 21039 net.cpp:91] Creating Layer inception_5b/pool_proj
I0403 17:59:02.098410 21039 net.cpp:425] inception_5b/pool_proj <- inception_5b/pool
I0403 17:59:02.098430 21039 net.cpp:399] inception_5b/pool_proj -> inception_5b/pool_proj
I0403 17:59:02.100760 21039 net.cpp:141] Setting up inception_5b/pool_proj
I0403 17:59:02.100790 21039 net.cpp:148] Top shape: 24 128 7 7 (150528)
I0403 17:59:02.100805 21039 net.cpp:156] Memory required for data: 1340445216
I0403 17:59:02.100822 21039 layer_factory.hpp:77] Creating layer inception_5b/relu_pool_proj
I0403 17:59:02.100841 21039 net.cpp:91] Creating Layer inception_5b/relu_pool_proj
I0403 17:59:02.100857 21039 net.cpp:425] inception_5b/relu_pool_proj <- inception_5b/pool_proj
I0403 17:59:02.100880 21039 net.cpp:386] inception_5b/relu_pool_proj -> inception_5b/pool_proj (in-place)
I0403 17:59:02.101178 21039 net.cpp:141] Setting up inception_5b/relu_pool_proj
I0403 17:59:02.101204 21039 net.cpp:148] Top shape: 24 128 7 7 (150528)
I0403 17:59:02.101219 21039 net.cpp:156] Memory required for data: 1341047328
I0403 17:59:02.101233 21039 layer_factory.hpp:77] Creating layer inception_5b/output
I0403 17:59:02.101250 21039 net.cpp:91] Creating Layer inception_5b/output
I0403 17:59:02.101291 21039 net.cpp:425] inception_5b/output <- inception_5b/1x1
I0403 17:59:02.101310 21039 net.cpp:425] inception_5b/output <- inception_5b/3x3
I0403 17:59:02.101325 21039 net.cpp:425] inception_5b/output <- inception_5b/5x5
I0403 17:59:02.101341 21039 net.cpp:425] inception_5b/output <- inception_5b/pool_proj
I0403 17:59:02.101361 21039 net.cpp:399] inception_5b/output -> inception_5b/output
I0403 17:59:02.101413 21039 net.cpp:141] Setting up inception_5b/output
I0403 17:59:02.101438 21039 net.cpp:148] Top shape: 24 1024 7 7 (1204224)
I0403 17:59:02.101454 21039 net.cpp:156] Memory required for data: 1345864224
I0403 17:59:02.101467 21039 layer_factory.hpp:77] Creating layer pool5/7x7_s1
I0403 17:59:02.101485 21039 net.cpp:91] Creating Layer pool5/7x7_s1
I0403 17:59:02.101500 21039 net.cpp:425] pool5/7x7_s1 <- inception_5b/output
I0403 17:59:02.101527 21039 net.cpp:399] pool5/7x7_s1 -> pool5/7x7_s1
I0403 17:59:02.101744 21039 net.cpp:141] Setting up pool5/7x7_s1
I0403 17:59:02.101770 21039 net.cpp:148] Top shape: 24 1024 1 1 (24576)
I0403 17:59:02.101784 21039 net.cpp:156] Memory required for data: 1345962528
I0403 17:59:02.101799 21039 layer_factory.hpp:77] Creating layer pool5/drop_7x7_s1
I0403 17:59:02.101815 21039 net.cpp:91] Creating Layer pool5/drop_7x7_s1
I0403 17:59:02.101831 21039 net.cpp:425] pool5/drop_7x7_s1 <- pool5/7x7_s1
I0403 17:59:02.101850 21039 net.cpp:386] pool5/drop_7x7_s1 -> pool5/7x7_s1 (in-place)
I0403 17:59:02.101900 21039 net.cpp:141] Setting up pool5/drop_7x7_s1
I0403 17:59:02.101927 21039 net.cpp:148] Top shape: 24 1024 1 1 (24576)
I0403 17:59:02.101941 21039 net.cpp:156] Memory required for data: 1346060832
I0403 17:59:02.101955 21039 layer_factory.hpp:77] Creating layer loss3/classifier_plantvillage
I0403 17:59:02.101974 21039 net.cpp:91] Creating Layer loss3/classifier_plantvillage
I0403 17:59:02.101989 21039 net.cpp:425] loss3/classifier_plantvillage <- pool5/7x7_s1
I0403 17:59:02.102010 21039 net.cpp:399] loss3/classifier_plantvillage -> loss3/classifier_plantvillage
I0403 17:59:02.102435 21039 net.cpp:141] Setting up loss3/classifier_plantvillage
I0403 17:59:02.102463 21039 net.cpp:148] Top shape: 24 38 (912)
I0403 17:59:02.102478 21039 net.cpp:156] Memory required for data: 1346064480
I0403 17:59:02.102495 21039 layer_factory.hpp:77] Creating layer loss3/classifier_plantvillage_loss3/classifier_plantvillage_0_split
I0403 17:59:02.102519 21039 net.cpp:91] Creating Layer loss3/classifier_plantvillage_loss3/classifier_plantvillage_0_split
I0403 17:59:02.102536 21039 net.cpp:425] loss3/classifier_plantvillage_loss3/classifier_plantvillage_0_split <- loss3/classifier_plantvillage
I0403 17:59:02.102553 21039 net.cpp:399] loss3/classifier_plantvillage_loss3/classifier_plantvillage_0_split -> loss3/classifier_plantvillage_loss3/classifier_plantvillage_0_split_0
I0403 17:59:02.102573 21039 net.cpp:399] loss3/classifier_plantvillage_loss3/classifier_plantvillage_0_split -> loss3/classifier_plantvillage_loss3/classifier_plantvillage_0_split_1
I0403 17:59:02.102596 21039 net.cpp:399] loss3/classifier_plantvillage_loss3/classifier_plantvillage_0_split -> loss3/classifier_plantvillage_loss3/classifier_plantvillage_0_split_2
I0403 17:59:02.102617 21039 net.cpp:399] loss3/classifier_plantvillage_loss3/classifier_plantvillage_0_split -> loss3/classifier_plantvillage_loss3/classifier_plantvillage_0_split_3
I0403 17:59:02.102718 21039 net.cpp:141] Setting up loss3/classifier_plantvillage_loss3/classifier_plantvillage_0_split
I0403 17:59:02.102741 21039 net.cpp:148] Top shape: 24 38 (912)
I0403 17:59:02.102757 21039 net.cpp:148] Top shape: 24 38 (912)
I0403 17:59:02.102772 21039 net.cpp:148] Top shape: 24 38 (912)
I0403 17:59:02.102787 21039 net.cpp:148] Top shape: 24 38 (912)
I0403 17:59:02.102800 21039 net.cpp:156] Memory required for data: 1346079072
I0403 17:59:02.102814 21039 layer_factory.hpp:77] Creating layer loss1/loss
I0403 17:59:02.102865 21039 net.cpp:91] Creating Layer loss1/loss
I0403 17:59:02.102886 21039 net.cpp:425] loss1/loss <- loss1/classifier_plantvillage_loss1/classifier_plantvillage_0_split_0
I0403 17:59:02.102917 21039 net.cpp:425] loss1/loss <- label_data_1_split_0
…
