…
I0403 18:40:05.345280 23136 net.cpp:313] The NetState phase (1) differed from the phase (0) specified by a rule in layer data
I0403 18:40:05.346400 23136 net.cpp:49] Initializing net from parameters: 
state {
  phase: TEST
}
layer {
  name: "data"
  type: "Data"
  top: "data"
  top: "label"
  include {
    phase: TEST
  }
  transform_param {
    mirror: false
    crop_size: 224
    mean_file: "/home/mohanty/data/final_dataset/lmdb/segmented-40-60/mean.binaryproto"
  }
  data_param {
    source: "/home/mohanty/data/final_dataset/lmdb/segmented-40-60/test_db"
    batch_size: 24
    backend: LMDB
  }
}
layer {
  name: "conv1/7x7_s2"
  type: "Convolution"
  bottom: "data"
  top: "conv1/7x7_s2"
  param {
    lr_mult: 1
    decay_mult: 1
  }
  param {
    lr_mult: 2
    decay_mult: 0
  }
  convolution_param {
    num_output: 64
    pad: 3
    kernel_size: 7
    stride: 2
    weight_filler {
      type: "xavier"
      std: 0.1
    }
    bias_filler {
      type: "constant"
      value: 0.2
    }
  }
}
layer {
  name: "conv1/relu_7x7"
  type: "ReLU"
  bottom: "conv1/7x7_s2"
  top: "conv1/7x7_s2"
}
layer {
  name: "pool1/3x3_s2"
  type: "Pooling"
  bottom: "conv1/7x7_s2"
  top: "pool1/3x3_s2"
  pooling_param {
    pool: MAX
    kernel_size: 3
    stride: 2
  }
}
layer {
  name: "pool1/norm1"
  type: "LRN"
  bottom: "pool1/3x3_s2"
  top: "pool1/norm1"
  lrn_param {
    local_size: 5
    alpha: 0.0001
    beta: 0.75
  }
}
layer {
  name: "conv2/3x3_reduce"
  type: "Convolution"
  bottom: "pool1/norm1"
  top: "conv2/3x3_reduce"
  param {
    lr_mult: 1
    decay_mult: 1
  }
  param {
    lr_mult: 2
    decay_mult: 0
  }
  convolution_param {
    num_output: 64
    kernel_size: 1
    weight_filler {
      type: "xavier"
      std: 0.1
    }
    bias_filler {
      type: "constant"
      value: 0.2
    }
  }
}
layer {
  name: "conv2/relu_3x3_reduce"
  type: "ReLU"
  bottom: "conv2/3x3_reduce"
  top: "conv2/3x3_reduce"
}
layer {
  name: "conv2/3x3"
  type: "Convolution"
  bottom: "conv2/3x3_reduce"
  top: "conv2/3x3"
  param {
    lr_mult: 1
    decay_mult: 1
  }
  param {
    lr_mult: 2
    decay_mult: 0
  }
  convolution_param {
    num_output: 192
    pad: 1
    kernel_size: 3
    weight_filler {
      type: "xavier"
      std: 0.03
    }
    bias_filler {
      type: "constant"
      value: 0.2
    }
  }
}
layer {
  name: "conv2/relu_3x3"
  type: "ReLU"
  bottom: "conv2/3x3"
  top: "conv2/3x3"
}
layer {
  name: "conv2/norm2"
  type: "LRN"
  bottom: "conv2/3x3"
  top: "conv2/norm2"
  lrn_param {
    local_size: 5
    alpha: 0.0001
    beta: 0.75
  }
}
layer {
  name: "pool2/3x3_s2"
  type: "Pooling"
  bottom: "conv2/norm2"
  top: "pool2/3x3_s2"
  pooling_param {
    pool: MAX
    kernel_size: 3
    stride: 2
  }
}
layer {
  name: "inception_3a/1x1"
  type: "Convolution"
  bottom: "pool2/3x3_s2"
  top: "inception_3a/1x1"
  param {
    lr_mult: 1
    decay_mult: 1
  }
  param {
    lr_mult: 2
    decay_mult: 0
  }
  convolution_param {
    num_output: 64
    kernel_size: 1
    weight_filler {
      type: "xavier"
      std: 0.03
    }
    bias_filler {
      type: "constant"
      value: 0.2
    }
  }
}
layer {
  name: "inception_3a/relu_1x1"
  type: "ReLU"
  bottom: "inception_3a/1x1"
  top: "inception_3a/1x1"
}
layer {
  name: "inception_3a/3x3_reduce"
  type: "Convolution"
  bottom: "pool2/3x3_s2"
  top: "inception_3a/3x3_reduce"
  param {
    lr_mult: 1
    decay_mult: 1
  }
  param {
    lr_mult: 2
    decay_mult: 0
  }
  convolution_param {
    num_output: 96
    kernel_size: 1
    weight_filler {
      type: "xavier"
      std: 0.09
    }
    bias_filler {
      type: "constant"
      value: 0.2
    }
  }
}
layer {
  name: "inception_3a/relu_3x3_reduce"
  type: "ReLU"
  bottom: "inception_3a/3x3_reduce"
  top: "inception_3a/3x3_reduce"
}
layer {
  name: "inception_3a/3x3"
  type: "Convolution"
  bottom: "inception_3a/3x3_reduce"
  top: "inception_3a/3x3"
  param {
    lr_mult: 1
    decay_mult: 1
  }
  param {
    lr_mult: 2
    decay_mult: 0
  }
  convolution_param {
    num_output: 128
    pad: 1
    kernel_size: 3
    weight_filler {
      type: "xavier"
      std: 0.03
    }
    bias_filler {
      type: "constant"
      value: 0.2
    }
  }
}
layer {
  name: "inception_3a/relu_3x3"
  type: "ReLU"
  bottom: "inception_3a/3x3"
  top: "inception_3a/3x3"
}
layer {
  name: "inception_3a/5x5_reduce"
  type: "Convolution"
  bottom: "pool2/3x3_s2"
  top: "inception_3a/5x5_reduce"
  param {
    lr_mult: 1
    decay_mult: 1
  }
  param {
    lr_mult: 2
    decay_mult: 0
  }
  convolution_param {
    num_output: 16
    kernel_size: 1
    weight_filler {
      type: "xavier"
      std: 0.2
    }
    bias_filler {
      type: "constant"
      value: 0.2
    }
  }
}
layer {
  name: "inception_3a/relu_5x5_reduce"
  type: "ReLU"
  bottom: "inception_3a/5x5_reduce"
  top: "inception_3a/5x5_reduce"
}
layer {
  name: "inception_3a/5x5"
  type: "Convolution"
  bottom: "inception_3a/5x5_reduce"
  top: "inception_3a/5x5"
  param {
    lr_mult: 1
    decay_mult: 1
  }
  param {
    lr_mult: 2
    decay_mult: 0
  }
  convolution_param {
    num_output: 32
    pad: 2
    kernel_size: 5
    weight_filler {
      type: "xavier"
      std: 0.03
    }
    bias_filler {
      type: "constant"
      value: 0.2
    }
  }
}
layer {
  name: "inception_3a/relu_5x5"
  type: "ReLU"
  bottom: "inception_3a/5x5"
  top: "inception_3a/5x5"
}
layer {
  name: "inception_3a/pool"
  type: "Pooling"
  bottom: "pool2/3x3_s2"
  top: "inception_3a/pool"
  pooling_param {
    pool: MAX
    kernel_size: 3
    stride: 1
    pad: 1
  }
}
layer {
  name: "inception_3a/pool_proj"
  type: "Convolution"
  bottom: "inception_3a/pool"
  top: "inception_3a/pool_proj"
  param {
    lr_mult: 1
    decay_mult: 1
  }
  param {
    lr_mult: 2
    decay_mult: 0
  }
  convolution_param {
    num_output: 32
    kernel_size: 1
    weight_filler {
      type: "xavier"
      std: 0.1
    }
    bias_filler {
      type: "constant"
      value: 0.2
    }
  }
}
layer {
  name: "inception_3a/relu_pool_proj"
  type: "ReLU"
  bottom: "inception_3a/pool_proj"
  top: "inception_3a/pool_proj"
}
layer {
  name: "inception_3a/output"
  type: "Concat"
  bottom: "inception_3a/1x1"
  bottom: "inception_3a/3x3"
  bottom: "inception_3a/5x5"
  bottom: "inception_3a/pool_proj"
  top: "inception_3a/output"
}
layer {
  name: "inception_3b/1x1"
  type: "Convolution"
  bottom: "inception_3a/output"
  top: "inception_3b/1x1"
  param {
    lr_mult: 1
    decay_mult: 1
  }
  param {
    lr_mult: 2
    decay_mult: 0
  }
  convolution_param {
    num_output: 128
    kernel_size: 1
    weight_filler {
      type: "xavier"
      std: 0.03
    }
    bias_filler {
      type: "constant"
      value: 0.2
    }
  }
}
layer {
  name: "inception_3b/relu_1x1"
  type: "ReLU"
  bottom: "inception_3b/1x1"
  top: "inception_3b/1x1"
}
layer {
  name: "inception_3b/3x3_reduce"
  type: "Convolution"
  bottom: "inception_3a/output"
  top: "inception_3b/3x3_reduce"
  param {
    lr_mult: 1
    decay_mult: 1
  }
  param {
    lr_mult: 2
    decay_mult: 0
  }
  convolution_param {
    num_output: 128
    kernel_size: 1
    weight_filler {
      type: "xavier"
      std: 0.09
    }
    bias_filler {
      type: "constant"
      value: 0.2
    }
  }
}
layer {
  name: "inception_3b/relu_3x3_reduce"
  type: "ReLU"
  bottom: "inception_3b/3x3_reduce"
  top: "inception_3b/3x3_reduce"
}
layer {
  name: "inception_3b/3x3"
  type: "Convolution"
  bottom: "inception_3b/3x3_reduce"
  top: "inception_3b/3x3"
  param {
    lr_mult: 1
    decay_mult: 1
  }
  param {
    lr_mult: 2
    decay_mult: 0
  }
  convolution_param {
    num_output: 192
    pad: 1
    kernel_size: 3
    weight_filler {
      type: "xavier"
      std: 0.03
    }
    bias_filler {
      type: "constant"
      value: 0.2
    }
  }
}
layer {
  name: "inception_3b/relu_3x3"
  type: "ReLU"
  bottom: "inception_3b/3x3"
  top: "inception_3b/3x3"
}
layer {
  name: "inception_3b/5x5_reduce"
  type: "Convolution"
  bottom: "inception_3a/output"
  top: "inception_3b/5x5_reduce"
  param {
    lr_mult: 1
    decay_mult: 1
  }
  param {
    lr_mult: 2
    decay_mult: 0
  }
  convolution_param {
    num_output: 32
    kernel_size: 1
    weight_filler {
      type: "xavier"
      std: 0.2
    }
    bias_filler {
      type: "constant"
      value: 0.2
    }
  }
}
layer {
  name: "inception_3b/relu_5x5_reduce"
  type: "ReLU"
  bottom: "inception_3b/5x5_reduce"
  top: "inception_3b/5x5_reduce"
}
layer {
  name: "inception_3b/5x5"
  type: "Convolution"
  bottom: "inception_3b/5x5_reduce"
  top: "inception_3b/5x5"
  param {
    lr_mult: 1
    decay_mult: 1
  }
  param {
    lr_mult: 2
    decay_mult: 0
  }
  convolution_param {
    num_output: 96
    pad: 2
    kernel_size: 5
    weight_filler {
      type: "xavier"
      std: 0.03
    }
    bias_filler {
      type: "constant"
      value: 0.2
    }
  }
}
layer {
  name: "inception_3b/relu_5x5"
  type: "ReLU"
  bottom: "inception_3b/5x5"
  top: "inception_3b/5x5"
}
layer {
  name: "inception_3b/pool"
  type: "Pooling"
  bottom: "inception_3a/output"
  top: "inception_3b/pool"
  pooling_param {
    pool: MAX
    kernel_size: 3
    stride: 1
    pad: 1
  }
}
layer {
  name: "inception_3b/pool_proj"
  type: "Convolution"
  bottom: "inception_3b/pool"
  top: "inception_3b/pool_proj"
  param {
    lr_mult: 1
    decay_mult: 1
  }
  param {
    lr_mult: 2
    decay_mult: 0
  }
  convolution_param {
    num_output: 64
    kernel_size: 1
    weight_filler {
      type: "xavier"
      std: 0.1
    }
    bias_filler {
      type: "constant"
      value: 0.2
    }
  }
}
layer {
  name: "inception_3b/relu_pool_proj"
  type: "ReLU"
  bottom: "inception_3b/pool_proj"
  top: "inception_3b/pool_proj"
}
layer {
  name: "inception_3b/output"
  type: "Concat"
  bottom: "inception_3b/1x1"
  bottom: "inception_3b/3x3"
  bottom: "inception_3b/5x5"
  bottom: "inception_3b/pool_proj"
  top: "inception_3b/output"
}
layer {
  name: "pool3/3x3_s2"
  type: "Pooling"
  bottom: "inception_3b/output"
  top: "pool3/3x3_s2"
  pooling_param {
    pool: MAX
    kernel_size: 3
    stride: 2
  }
}
layer {
  name: "inception_4a/1x1"
  type: "Convolution"
  bottom: "pool3/3x3_s2"
  top: "inception_4a/1x1"
  param {
    lr_mult: 1
    decay_mult: 1
  }
  param {
    lr_mult: 2
    decay_mult: 0
  }
  convolution_param {
    num_output: 192
    kernel_size: 1
    weight_filler {
      type: "xavier"
      std: 0.03
    }
    bias_filler {
      type: "constant"
      value: 0.2
    }
  }
}
layer {
  name: "inception_4a/relu_1x1"
  type: "ReLU"
  bottom: "inception_4a/1x1"
  top: "inception_4a/1x1"
}
layer {
  name: "inception_4a/3x3_reduce"
  type: "Convolution"
  bottom: "pool3/3x3_s2"
  top: "inception_4a/3x3_reduce"
  param {
    lr_mult: 1
    decay_mult: 1
  }
  param {
    lr_mult: 2
    decay_mult: 0
  }
  convolution_param {
    num_output: 96
    kernel_size: 1
    weight_filler {
      type: "xavier"
      std: 0.09
    }
    bias_filler {
      type: "constant"
      value: 0.2
    }
  }
}
layer {
  name: "inception_4a/relu_3x3_reduce"
  type: "ReLU"
  bottom: "inception_4a/3x3_reduce"
  top: "inception_4a/3x3_reduce"
}
layer {
  name: "inception_4a/3x3"
  type: "Convolution"
  bottom: "inception_4a/3x3_reduce"
  top: "inception_4a/3x3"
  param {
    lr_mult: 1
    decay_mult: 1
  }
  param {
    lr_mult: 2
    decay_mult: 0
  }
  convolution_param {
    num_output: 208
    pad: 1
    kernel_size: 3
    weight_filler {
      type: "xavier"
      std: 0.03
    }
    bias_filler {
      type: "constant"
      value: 0.2
    }
  }
}
layer {
  name: "inception_4a/relu_3x3"
  type: "ReLU"
  bottom: "inception_4a/3x3"
  top: "inception_4a/3x3"
}
layer {
  name: "inception_4a/5x5_reduce"
  type: "Convolution"
  bottom: "pool3/3x3_s2"
  top: "inception_4a/5x5_reduce"
  param {
    lr_mult: 1
    decay_mult: 1
  }
  param {
    lr_mult: 2
    decay_mult: 0
  }
  convolution_param {
    num_output: 16
    kernel_size: 1
    weight_filler {
      type: "xavier"
      std: 0.2
    }
    bias_filler {
      type: "constant"
      value: 0.2
    }
  }
}
layer {
  name: "inception_4a/relu_5x5_reduce"
  type: "ReLU"
  bottom: "inception_4a/5x5_reduce"
  top: "inception_4a/5x5_reduce"
}
layer {
  name: "inception_4a/5x5"
  type: "Convolution"
  bottom: "inception_4a/5x5_reduce"
  top: "inception_4a/5x5"
  param {
    lr_mult: 1
    decay_mult: 1
  }
  param {
    lr_mult: 2
    decay_mult: 0
  }
  convolution_param {
    num_output: 48
    pad: 2
    kernel_size: 5
    weight_filler {
      type: "xavier"
      std: 0.03
    }
    bias_filler {
      type: "constant"
      value: 0.2
    }
  }
}
layer {
  name: "inception_4a/relu_5x5"
  type: "ReLU"
  bottom: "inception_4a/5x5"
  top: "inception_4a/5x5"
}
layer {
  name: "inception_4a/pool"
  type: "Pooling"
  bottom: "pool3/3x3_s2"
  top: "inception_4a/pool"
  pooling_param {
    pool: MAX
    kernel_size: 3
    stride: 1
    pad: 1
  }
}
layer {
  name: "inception_4a/pool_proj"
  type: "Convolution"
  bottom: "inception_4a/pool"
  top: "inception_4a/pool_proj"
  param {
    lr_mult: 1
    decay_mult: 1
  }
  param {
    lr_mult: 2
    decay_mult: 0
  }
  convolution_param {
    num_output: 64
    kernel_size: 1
    weight_filler {
      type: "xavier"
      std: 0.1
    }
    bias_filler {
      type: "constant"
      value: 0.2
    }
  }
}
layer {
  name: "inception_4a/relu_pool_proj"
  type: "ReLU"
  bottom: "inception_4a/pool_proj"
  top: "inception_4a/pool_proj"
}
layer {
  name: "inception_4a/output"
  type: "Concat"
  bottom: "inception_4a/1x1"
  bottom: "inception_4a/3x3"
  bottom: "inception_4a/5x5"
  bottom: "inception_4a/pool_proj"
  top: "inception_4a/output"
}
layer {
  name: "loss1/ave_pool"
  type: "Pooling"
  bottom: "inception_4a/output"
  top: "loss1/ave_pool"
  pooling_param {
    pool: AVE
    kernel_size: 5
    stride: 3
  }
}
layer {
  name: "loss1/conv"
  type: "Convolution"
  bottom: "loss1/ave_pool"
  top: "loss1/conv"
  param {
    lr_mult: 1
    decay_mult: 1
  }
  param {
    lr_mult: 2
    decay_mult: 0
  }
  convolution_param {
    num_output: 128
    kernel_size: 1
    weight_filler {
      type: "xavier"
      std: 0.08
    }
    bias_filler {
      type: "constant"
      value: 0.2
    }
  }
}
layer {
  name: "loss1/relu_conv"
  type: "ReLU"
  bottom: "loss1/conv"
  top: "loss1/conv"
}
layer {
  name: "loss1/fc"
  type: "InnerProduct"
  bottom: "loss1/conv"
  top: "loss1/fc"
  param {
    lr_mult: 1
    decay_mult: 1
  }
  param {
    lr_mult: 2
    decay_mult: 0
  }
  inner_product_param {
    num_output: 1024
    weight_filler {
      type: "xavier"
      std: 0.02
    }
    bias_filler {
      type: "constant"
      value: 0.2
    }
  }
}
layer {
  name: "loss1/relu_fc"
  type: "ReLU"
  bottom: "loss1/fc"
  top: "loss1/fc"
}
layer {
  name: "loss1/drop_fc"
  type: "Dropout"
  bottom: "loss1/fc"
  top: "loss1/fc"
  dropout_param {
    dropout_ratio: 0.7
  }
}
layer {
  name: "loss1/classifier_plantvillage"
  type: "InnerProduct"
  bottom: "loss1/fc"
  top: "loss1/classifier_plantvillage"
  param {
    lr_mult: 1
    decay_mult: 1
  }
  param {
    lr_mult: 2
    decay_mult: 0
  }
  inner_product_param {
    num_output: 38
    weight_filler {
      type: "xavier"
      std: 0.0009765625
    }
    bias_filler {
      type: "constant"
      value: 0
    }
  }
}
layer {
  name: "inception_4b/1x1"
  type: "Convolution"
  bottom: "inception_4a/output"
  top: "inception_4b/1x1"
  param {
    lr_mult: 1
    decay_mult: 1
  }
  param {
    lr_mult: 2
    decay_mult: 0
  }
  convolution_param {
    num_output: 160
    kernel_size: 1
    weight_filler {
      type: "xavier"
      std: 0.03
    }
    bias_filler {
      type: "constant"
      value: 0.2
    }
  }
}
layer {
  name: "inception_4b/relu_1x1"
  type: "ReLU"
  bottom: "inception_4b/1x1"
  top: "inception_4b/1x1"
}
layer {
  name: "inception_4b/3x3_reduce"
  type: "Convolution"
  bottom: "inception_4a/output"
  top: "inception_4b/3x3_reduce"
  param {
    lr_mult: 1
    decay_mult: 1
  }
  param {
    lr_mult: 2
    decay_mult: 0
  }
  convolution_param {
    num_output: 112
    kernel_size: 1
    weight_filler {
      type: "xavier"
      std: 0.09
    }
    bias_filler {
      type: "constant"
      value: 0.2
    }
  }
}
layer {
  name: "inception_4b/relu_3x3_reduce"
  type: "ReLU"
  bottom: "inception_4b/3x3_reduce"
  top: "inception_4b/3x3_reduce"
}
layer {
  name: "inception_4b/3x3"
  type: "Convolution"
  bottom: "inception_4b/3x3_reduce"
  top: "inception_4b/3x3"
  param {
    lr_mult: 1
    decay_mult: 1
  }
  param {
    lr_mult: 2
    decay_mult: 0
  }
  convolution_param {
    num_output: 224
    pad: 1
    kernel_size: 3
    weight_filler {
      type: "xavier"
      std: 0.03
    }
    bias_filler {
      type: "constant"
      value: 0.2
    }
  }
}
layer {
  name: "inception_4b/relu_3x3"
  type: "ReLU"
  bottom: "inception_4b/3x3"
  top: "inception_4b/3x3"
}
layer {
  name: "inception_4b/5x5_reduce"
  type: "Convolution"
  bottom: "inception_4a/output"
  top: "inception_4b/5x5_reduce"
  param {
    lr_mult: 1
    decay_mult: 1
  }
  param {
    lr_mult: 2
    decay_mult: 0
  }
  convolution_param {
    num_output: 24
    kernel_size: 1
    weight_filler {
      type: "xavier"
      std: 0.2
    }
    bias_filler {
      type: "constant"
      value: 0.2
    }
  }
}
layer {
  name: "inception_4b/relu_5x5_reduce"
  type: "ReLU"
  bottom: "inception_4b/5x5_reduce"
  top: "inception_4b/5x5_reduce"
}
layer {
  name: "inception_4b/5x5"
  type: "Convolution"
  bottom: "inception_4b/5x5_reduce"
  top: "inception_4b/5x5"
  param {
    lr_mult: 1
    decay_mult: 1
  }
  param {
    lr_mult: 2
    decay_mult: 0
  }
  convolution_param {
    num_output: 64
    pad: 2
    kernel_size: 5
    weight_filler {
      type: "xavier"
      std: 0.03
    }
    bias_filler {
      type: "constant"
      value: 0.2
    }
  }
}
layer {
  name: "inception_4b/relu_5x5"
  type: "ReLU"
  bottom: "inception_4b/5x5"
  top: "inception_4b/5x5"
}
layer {
  name: "inception_4b/pool"
  type: "Pooling"
  bottom: "inception_4a/output"
  top: "inception_4b/pool"
  pooling_param {
    pool: MAX
    kernel_size: 3
    stride: 1
    pad: 1
  }
}
layer {
  name: "inception_4b/pool_proj"
  type: "Convolution"
  bottom: "inception_4b/pool"
  top: "inception_4b/pool_proj"
  param {
    lr_mult: 1
    decay_mult: 1
  }
  param {
    lr_mult: 2
    decay_mult: 0
  }
  convolution_param {
    num_output: 64
    kernel_size: 1
    weight_filler {
      type: "xavier"
      std: 0.1
    }
    bias_filler {
      type: "constant"
      value: 0.2
    }
  }
}
layer {
  name: "inception_4b/relu_pool_proj"
  type: "ReLU"
  bottom: "inception_4b/pool_proj"
  top: "inception_4b/pool_proj"
}
layer {
  name: "inception_4b/output"
  type: "Concat"
  bottom: "inception_4b/1x1"
  bottom: "inception_4b/3x3"
  bottom: "inception_4b/5x5"
  bottom: "inception_4b/pool_proj"
  top: "inception_4b/output"
}
layer {
  name: "inception_4c/1x1"
  type: "Convolution"
  bottom: "inception_4b/output"
  top: "inception_4c/1x1"
  param {
    lr_mult: 1
    decay_mult: 1
  }
  param {
    lr_mult: 2
    decay_mult: 0
  }
  convolution_param {
    num_output: 128
    kernel_size: 1
    weight_filler {
      type: "xavier"
      std: 0.03
    }
    bias_filler {
      type: "constant"
      value: 0.2
    }
  }
}
layer {
  name: "inception_4c/relu_1x1"
  type: "ReLU"
  bottom: "inception_4c/1x1"
  top: "inception_4c/1x1"
}
layer {
  name: "inception_4c/3x3_reduce"
  type: "Convolution"
  bottom: "inception_4b/output"
  top: "inception_4c/3x3_reduce"
  param {
    lr_mult: 1
    decay_mult: 1
  }
  param {
    lr_mult: 2
    decay_mult: 0
  }
  convolution_param {
    num_output: 128
    kernel_size: 1
    weight_filler {
      type: "xavier"
      std: 0.09
    }
    bias_filler {
      type: "constant"
      value: 0.2
    }
  }
}
layer {
  name: "inception_4c/relu_3x3_reduce"
  type: "ReLU"
  bottom: "inception_4c/3x3_reduce"
  top: "inception_4c/3x3_reduce"
}
layer {
  name: "inception_4c/3x3"
  type: "Convolution"
  bottom: "inception_4c/3x3_reduce"
  top: "inception_4c/3x3"
  param {
    lr_mult: 1
    decay_mult: 1
  }
  param {
    lr_mult: 2
    decay_mult: 0
  }
  convolution_param {
    num_output: 256
    pad: 1
    kernel_size: 3
    weight_filler {
      type: "xavier"
      std: 0.03
    }
    bias_filler {
      type: "constant"
      value: 0.2
    }
  }
}
layer {
  name: "inception_4c/relu_3x3"
  type: "ReLU"
  bottom: "inception_4c/3x3"
  top: "inception_4c/3x3"
}
layer {
  name: "inception_4c/5x5_reduce"
  type: "Convolution"
  bottom: "inception_4b/output"
  top: "inception_4c/5x5_reduce"
  param {
    lr_mult: 1
    decay_mult: 1
  }
  param {
    lr_mult: 2
    decay_mult: 0
  }
  convolution_param {
    num_output: 24
    kernel_size: 1
    weight_filler {
      type: "xavier"
      std: 0.2
    }
    bias_filler {
      type: "constant"
      value: 0.2
    }
  }
}
layer {
  name: "inception_4c/relu_5x5_reduce"
  type: "ReLU"
  bottom: "inception_4c/5x5_reduce"
  top: "inception_4c/5x5_reduce"
}
layer {
  name: "inception_4c/5x5"
  type: "Convolution"
  bottom: "inception_4c/5x5_reduce"
  top: "inception_4c/5x5"
  param {
    lr_mult: 1
    decay_mult: 1
  }
  param {
    lr_mult: 2
    decay_mult: 0
  }
  convolution_param {
    num_output: 64
    pad: 2
    kernel_size: 5
    weight_filler {
      type: "xavier"
      std: 0.03
    }
    bias_filler {
      type: "constant"
      value: 0.2
    }
  }
}
layer {
  name: "inception_4c/relu_5x5"
  type: "ReLU"
  bottom: "inception_4c/5x5"
  top: "inception_4c/5x5"
}
layer {
  name: "inception_4c/pool"
  type: "Pooling"
  bottom: "inception_4b/output"
  top: "inception_4c/pool"
  pooling_param {
    pool: MAX
    kernel_size: 3
    stride: 1
    pad: 1
  }
}
layer {
  name: "inception_4c/pool_proj"
  type: "Convolution"
  bottom: "inception_4c/pool"
  top: "inception_4c/pool_proj"
  param {
    lr_mult: 1
    decay_mult: 1
  }
  param {
    lr_mult: 2
    decay_mult: 0
  }
  convolution_param {
    num_output: 64
    kernel_size: 1
    weight_filler {
      type: "xavier"
      std: 0.1
    }
    bias_filler {
      type: "constant"
      value: 0.2
    }
  }
}
layer {
  name: "inception_4c/relu_pool_proj"
  type: "ReLU"
  bottom: "inception_4c/pool_proj"
  top: "inception_4c/pool_proj"
}
layer {
  name: "inception_4c/output"
  type: "Concat"
  bottom: "inception_4c/1x1"
  bottom: "inception_4c/3x3"
  bottom: "inception_4c/5x5"
  bottom: "inception_4c/pool_proj"
  top: "inception_4c/output"
}
layer {
  name: "inception_4d/1x1"
  type: "Convolution"
  bottom: "inception_4c/output"
  top: "inception_4d/1x1"
  param {
    lr_mult: 1
    decay_mult: 1
  }
  param {
    lr_mult: 2
    decay_mult: 0
  }
  convolution_param {
    num_output: 112
    kernel_size: 1
    weight_filler {
      type: "xavier"
      std: 0.03
    }
    bias_filler {
      type: "constant"
      value: 0.2
    }
  }
}
layer {
  name: "inception_4d/relu_1x1"
  type: "ReLU"
  bottom: "inception_4d/1x1"
  top: "inception_4d/1x1"
}
layer {
  name: "inception_4d/3x3_reduce"
  type: "Convolution"
  bottom: "inception_4c/output"
  top: "inception_4d/3x3_reduce"
  param {
    lr_mult: 1
    decay_mult: 1
  }
  param {
    lr_mult: 2
    decay_mult: 0
  }
  convolution_param {
    num_output: 144
    kernel_size: 1
    weight_filler {
      type: "xavier"
      std: 0.09
    }
    bias_filler {
      type: "constant"
      value: 0.2
    }
  }
}
layer {
  name: "inception_4d/relu_3x3_reduce"
  type: "ReLU"
  bottom: "inception_4d/3x3_reduce"
  top: "inception_4d/3x3_reduce"
}
layer {
  name: "inception_4d/3x3"
  type: "Convolution"
  bottom: "inception_4d/3x3_reduce"
  top: "inception_4d/3x3"
  param {
    lr_mult: 1
    decay_mult: 1
  }
  param {
    lr_mult: 2
    decay_mult: 0
  }
  convolution_param {
    num_output: 288
    pad: 1
    kernel_size: 3
    weight_filler {
      type: "xavier"
      std: 0.03
    }
    bias_filler {
      type: "constant"
      value: 0.2
    }
  }
}
layer {
  name: "inception_4d/relu_3x3"
  type: "ReLU"
  bottom: "inception_4d/3x3"
  top: "inception_4d/3x3"
}
layer {
  name: "inception_4d/5x5_reduce"
  type: "Convolution"
  bottom: "inception_4c/output"
  top: "inception_4d/5x5_reduce"
  param {
    lr_mult: 1
    decay_mult: 1
  }
  param {
    lr_mult: 2
    decay_mult: 0
  }
  convolution_param {
    num_output: 32
    kernel_size: 1
    weight_filler {
      type: "xavier"
      std: 0.2
    }
    bias_filler {
      type: "constant"
      value: 0.2
    }
  }
}
layer {
  name: "inception_4d/relu_5x5_reduce"
  type: "ReLU"
  bottom: "inception_4d/5x5_reduce"
  top: "inception_4d/5x5_reduce"
}
layer {
  name: "inception_4d/5x5"
  type: "Convolution"
  bottom: "inception_4d/5x5_reduce"
  top: "inception_4d/5x5"
  param {
    lr_mult: 1
    decay_mult: 1
  }
  param {
    lr_mult: 2
    decay_mult: 0
  }
  convolution_param {
    num_output: 64
    pad: 2
    kernel_size: 5
    weight_filler {
      type: "xavier"
      std: 0.03
    }
    bias_filler {
      type: "constant"
      value: 0.2
    }
  }
}
layer {
  name: "inception_4d/relu_5x5"
  type: "ReLU"
  bottom: "inception_4d/5x5"
  top: "inception_4d/5x5"
}
layer {
  name: "inception_4d/pool"
  type: "Pooling"
  bottom: "inception_4c/output"
  top: "inception_4d/pool"
  pooling_param {
    pool: MAX
    kernel_size: 3
    stride: 1
    pad: 1
  }
}
layer {
  name: "inception_4d/pool_proj"
  type: "Convolution"
  bottom: "inception_4d/pool"
  top: "inception_4d/pool_proj"
  param {
    lr_mult: 1
    decay_mult: 1
  }
  param {
    lr_mult: 2
    decay_mult: 0
  }
  convolution_param {
    num_output: 64
    kernel_size: 1
    weight_filler {
      type: "xavier"
      std: 0.1
    }
    bias_filler {
      type: "constant"
      value: 0.2
    }
  }
}
layer {
  name: "inception_4d/relu_pool_proj"
  type: "ReLU"
  bottom: "inception_4d/pool_proj"
  top: "inception_4d/pool_proj"
}
layer {
  name: "inception_4d/output"
  type: "Concat"
  bottom: "inception_4d/1x1"
  bottom: "inception_4d/3x3"
  bottom: "inception_4d/5x5"
  bottom: "inception_4d/pool_proj"
  top: "inception_4d/output"
}
layer {
  name: "loss2/ave_pool"
  type: "Pooling"
  bottom: "inception_4d/output"
  top: "loss2/ave_pool"
  pooling_param {
    pool: AVE
    kernel_size: 5
    stride: 3
  }
}
layer {
  name: "loss2/conv"
  type: "Convolution"
  bottom: "loss2/ave_pool"
  top: "loss2/conv"
  param {
    lr_mult: 1
    decay_mult: 1
  }
  param {
    lr_mult: 2
    decay_mult: 0
  }
  convolution_param {
    num_output: 128
    kernel_size: 1
    weight_filler {
      type: "xavier"
      std: 0.08
    }
    bias_filler {
      type: "constant"
      value: 0.2
    }
  }
}
layer {
  name: "loss2/relu_conv"
  type: "ReLU"
  bottom: "loss2/conv"
  top: "loss2/conv"
}
layer {
  name: "loss2/fc"
  type: "InnerProduct"
  bottom: "loss2/conv"
  top: "loss2/fc"
  param {
    lr_mult: 1
    decay_mult: 1
  }
  param {
    lr_mult: 2
    decay_mult: 0
  }
  inner_product_param {
    num_output: 1024
    weight_filler {
      type: "xavier"
      std: 0.02
    }
    bias_filler {
      type: "constant"
      value: 0.2
    }
  }
}
layer {
  name: "loss2/relu_fc"
  type: "ReLU"
  bottom: "loss2/fc"
  top: "loss2/fc"
}
layer {
  name: "loss2/drop_fc"
  type: "Dropout"
  bottom: "loss2/fc"
  top: "loss2/fc"
  dropout_param {
    dropout_ratio: 0.7
  }
}
layer {
  name: "loss2/classifier_plantvillage"
  type: "InnerProduct"
  bottom: "loss2/fc"
  top: "loss2/classifier_plantvillage"
  param {
    lr_mult: 1
    decay_mult: 1
  }
  param {
    lr_mult: 2
    decay_mult: 0
  }
  inner_product_param {
    num_output: 38
    weight_filler {
      type: "xavier"
      std: 0.0009765625
    }
    bias_filler {
      type: "constant"
      value: 0
    }
  }
}
layer {
  name: "inception_4e/1x1"
  type: "Convolution"
  bottom: "inception_4d/output"
  top: "inception_4e/1x1"
  param {
    lr_mult: 1
    decay_mult: 1
  }
  param {
    lr_mult: 2
    decay_mult: 0
  }
  convolution_param {
    num_output: 256
    kernel_size: 1
    weight_filler {
      type: "xavier"
      std: 0.03
    }
    bias_filler {
      type: "constant"
      value: 0.2
    }
  }
}
layer {
  name: "inception_4e/relu_1x1"
  type: "ReLU"
  bottom: "inception_4e/1x1"
  top: "inception_4e/1x1"
}
layer {
  name: "inception_4e/3x3_reduce"
  type: "Convolution"
  bottom: "inception_4d/output"
  top: "inception_4e/3x3_reduce"
  param {
    lr_mult: 1
    decay_mult: 1
  }
  param {
    lr_mult: 2
    decay_mult: 0
  }
  convolution_param {
    num_output: 160
    kernel_size: 1
    weight_filler {
      type: "xavier"
      std: 0.09
    }
    bias_filler {
      type: "constant"
      value: 0.2
    }
  }
}
layer {
  name: "inception_4e/relu_3x3_reduce"
  type: "ReLU"
  bottom: "inception_4e/3x3_reduce"
  top: "inception_4e/3x3_reduce"
}
layer {
  name: "inception_4e/3x3"
  type: "Convolution"
  bottom: "inception_4e/3x3_reduce"
  top: "inception_4e/3x3"
  param {
    lr_mult: 1
    decay_mult: 1
  }
  param {
    lr_mult: 2
    decay_mult: 0
  }
  convolution_param {
    num_output: 320
    pad: 1
    kernel_size: 3
    weight_filler {
      type: "xavier"
      std: 0.03
    }
    bias_filler {
      type: "constant"
      value: 0.2
    }
  }
}
layer {
  name: "inception_4e/relu_3x3"
  type: "ReLU"
  bottom: "inception_4e/3x3"
  top: "inception_4e/3x3"
}
layer {
  name: "inception_4e/5x5_reduce"
  type: "Convolution"
  bottom: "inception_4d/output"
  top: "inception_4e/5x5_reduce"
  param {
    lr_mult: 1
    decay_mult: 1
  }
  param {
    lr_mult: 2
    decay_mult: 0
  }
  convolution_param {
    num_output: 32
    kernel_size: 1
    weight_filler {
      type: "xavier"
      std: 0.2
    }
    bias_filler {
      type: "constant"
      value: 0.2
    }
  }
}
layer {
  name: "inception_4e/relu_5x5_reduce"
  type: "ReLU"
  bottom: "inception_4e/5x5_reduce"
  top: "inception_4e/5x5_reduce"
}
layer {
  name: "inception_4e/5x5"
  type: "Convolution"
  bottom: "inception_4e/5x5_reduce"
  top: "inception_4e/
I0403 18:40:05.347759 23136 layer_factory.hpp:77] Creating layer data
I0403 18:40:05.348345 23136 net.cpp:91] Creating Layer data
I0403 18:40:05.348376 23136 net.cpp:399] data -> data
I0403 18:40:05.348425 23136 net.cpp:399] data -> label
I0403 18:40:05.348460 23136 data_transformer.cpp:25] Loading mean file from: /home/mohanty/data/final_dataset/lmdb/segmented-40-60/mean.binaryproto
I0403 18:40:05.349632 23139 db_lmdb.cpp:38] Opened lmdb /home/mohanty/data/final_dataset/lmdb/segmented-40-60/test_db
I0403 18:40:05.361591 23136 data_layer.cpp:41] output data size: 24,3,224,224
I0403 18:40:05.388713 23136 net.cpp:141] Setting up data
I0403 18:40:05.388792 23136 net.cpp:148] Top shape: 24 3 224 224 (3612672)
I0403 18:40:05.388813 23136 net.cpp:148] Top shape: 24 (24)
I0403 18:40:05.388828 23136 net.cpp:156] Memory required for data: 14450784
I0403 18:40:05.388854 23136 layer_factory.hpp:77] Creating layer label_data_1_split
I0403 18:40:05.388878 23136 net.cpp:91] Creating Layer label_data_1_split
I0403 18:40:05.388896 23136 net.cpp:425] label_data_1_split <- label
I0403 18:40:05.388927 23136 net.cpp:399] label_data_1_split -> label_data_1_split_0
I0403 18:40:05.388954 23136 net.cpp:399] label_data_1_split -> label_data_1_split_1
I0403 18:40:05.388975 23136 net.cpp:399] label_data_1_split -> label_data_1_split_2
I0403 18:40:05.388995 23136 net.cpp:399] label_data_1_split -> label_data_1_split_3
I0403 18:40:05.389014 23136 net.cpp:399] label_data_1_split -> label_data_1_split_4
I0403 18:40:05.389032 23136 net.cpp:399] label_data_1_split -> label_data_1_split_5
I0403 18:40:05.389051 23136 net.cpp:399] label_data_1_split -> label_data_1_split_6
I0403 18:40:05.389071 23136 net.cpp:399] label_data_1_split -> label_data_1_split_7
I0403 18:40:05.389091 23136 net.cpp:399] label_data_1_split -> label_data_1_split_8
I0403 18:40:05.389111 23136 net.cpp:399] label_data_1_split -> label_data_1_split_9
I0403 18:40:05.389225 23136 net.cpp:141] Setting up label_data_1_split
I0403 18:40:05.389248 23136 net.cpp:148] Top shape: 24 (24)
I0403 18:40:05.389266 23136 net.cpp:148] Top shape: 24 (24)
I0403 18:40:05.389281 23136 net.cpp:148] Top shape: 24 (24)
I0403 18:40:05.389295 23136 net.cpp:148] Top shape: 24 (24)
I0403 18:40:05.389310 23136 net.cpp:148] Top shape: 24 (24)
I0403 18:40:05.389324 23136 net.cpp:148] Top shape: 24 (24)
I0403 18:40:05.389339 23136 net.cpp:148] Top shape: 24 (24)
I0403 18:40:05.389353 23136 net.cpp:148] Top shape: 24 (24)
I0403 18:40:05.389369 23136 net.cpp:148] Top shape: 24 (24)
I0403 18:40:05.389384 23136 net.cpp:148] Top shape: 24 (24)
I0403 18:40:05.389436 23136 net.cpp:156] Memory required for data: 14451744
I0403 18:40:05.389451 23136 layer_factory.hpp:77] Creating layer conv1/7x7_s2
I0403 18:40:05.389482 23136 net.cpp:91] Creating Layer conv1/7x7_s2
I0403 18:40:05.389499 23136 net.cpp:425] conv1/7x7_s2 <- data
I0403 18:40:05.389518 23136 net.cpp:399] conv1/7x7_s2 -> conv1/7x7_s2
I0403 18:40:05.523835 23136 net.cpp:141] Setting up conv1/7x7_s2
I0403 18:40:05.523910 23136 net.cpp:148] Top shape: 24 64 112 112 (19267584)
I0403 18:40:05.523926 23136 net.cpp:156] Memory required for data: 91522080
I0403 18:40:05.523954 23136 layer_factory.hpp:77] Creating layer conv1/relu_7x7
I0403 18:40:05.523979 23136 net.cpp:91] Creating Layer conv1/relu_7x7
I0403 18:40:05.523996 23136 net.cpp:425] conv1/relu_7x7 <- conv1/7x7_s2
I0403 18:40:05.524013 23136 net.cpp:386] conv1/relu_7x7 -> conv1/7x7_s2 (in-place)
I0403 18:40:05.524255 23136 net.cpp:141] Setting up conv1/relu_7x7
I0403 18:40:05.524279 23136 net.cpp:148] Top shape: 24 64 112 112 (19267584)
I0403 18:40:05.524294 23136 net.cpp:156] Memory required for data: 168592416
I0403 18:40:05.524307 23136 layer_factory.hpp:77] Creating layer pool1/3x3_s2
I0403 18:40:05.524330 23136 net.cpp:91] Creating Layer pool1/3x3_s2
I0403 18:40:05.524346 23136 net.cpp:425] pool1/3x3_s2 <- conv1/7x7_s2
I0403 18:40:05.524363 23136 net.cpp:399] pool1/3x3_s2 -> pool1/3x3_s2
I0403 18:40:05.524431 23136 net.cpp:141] Setting up pool1/3x3_s2
I0403 18:40:05.524453 23136 net.cpp:148] Top shape: 24 64 56 56 (4816896)
I0403 18:40:05.524466 23136 net.cpp:156] Memory required for data: 187860000
I0403 18:40:05.524480 23136 layer_factory.hpp:77] Creating layer pool1/norm1
I0403 18:40:05.524502 23136 net.cpp:91] Creating Layer pool1/norm1
I0403 18:40:05.524518 23136 net.cpp:425] pool1/norm1 <- pool1/3x3_s2
I0403 18:40:05.524535 23136 net.cpp:399] pool1/norm1 -> pool1/norm1
I0403 18:40:05.524814 23136 net.cpp:141] Setting up pool1/norm1
I0403 18:40:05.524839 23136 net.cpp:148] Top shape: 24 64 56 56 (4816896)
I0403 18:40:05.524853 23136 net.cpp:156] Memory required for data: 207127584
I0403 18:40:05.524866 23136 layer_factory.hpp:77] Creating layer conv2/3x3_reduce
I0403 18:40:05.524889 23136 net.cpp:91] Creating Layer conv2/3x3_reduce
I0403 18:40:05.524905 23136 net.cpp:425] conv2/3x3_reduce <- pool1/norm1
I0403 18:40:05.524922 23136 net.cpp:399] conv2/3x3_reduce -> conv2/3x3_reduce
I0403 18:40:05.526170 23136 net.cpp:141] Setting up conv2/3x3_reduce
I0403 18:40:05.526197 23136 net.cpp:148] Top shape: 24 64 56 56 (4816896)
I0403 18:40:05.526212 23136 net.cpp:156] Memory required for data: 226395168
I0403 18:40:05.526232 23136 layer_factory.hpp:77] Creating layer conv2/relu_3x3_reduce
I0403 18:40:05.526248 23136 net.cpp:91] Creating Layer conv2/relu_3x3_reduce
I0403 18:40:05.526265 23136 net.cpp:425] conv2/relu_3x3_reduce <- conv2/3x3_reduce
I0403 18:40:05.526280 23136 net.cpp:386] conv2/relu_3x3_reduce -> conv2/3x3_reduce (in-place)
I0403 18:40:05.526518 23136 net.cpp:141] Setting up conv2/relu_3x3_reduce
I0403 18:40:05.526547 23136 net.cpp:148] Top shape: 24 64 56 56 (4816896)
I0403 18:40:05.526562 23136 net.cpp:156] Memory required for data: 245662752
I0403 18:40:05.526576 23136 layer_factory.hpp:77] Creating layer conv2/3x3
I0403 18:40:05.526597 23136 net.cpp:91] Creating Layer conv2/3x3
I0403 18:40:05.526612 23136 net.cpp:425] conv2/3x3 <- conv2/3x3_reduce
I0403 18:40:05.526628 23136 net.cpp:399] conv2/3x3 -> conv2/3x3
I0403 18:40:05.528707 23136 net.cpp:141] Setting up conv2/3x3
I0403 18:40:05.528736 23136 net.cpp:148] Top shape: 24 192 56 56 (14450688)
I0403 18:40:05.528751 23136 net.cpp:156] Memory required for data: 303465504
I0403 18:40:05.528770 23136 layer_factory.hpp:77] Creating layer conv2/relu_3x3
I0403 18:40:05.528789 23136 net.cpp:91] Creating Layer conv2/relu_3x3
I0403 18:40:05.528803 23136 net.cpp:425] conv2/relu_3x3 <- conv2/3x3
I0403 18:40:05.528818 23136 net.cpp:386] conv2/relu_3x3 -> conv2/3x3 (in-place)
I0403 18:40:05.528970 23136 net.cpp:141] Setting up conv2/relu_3x3
I0403 18:40:05.528992 23136 net.cpp:148] Top shape: 24 192 56 56 (14450688)
I0403 18:40:05.529043 23136 net.cpp:156] Memory required for data: 361268256
I0403 18:40:05.529058 23136 layer_factory.hpp:77] Creating layer conv2/norm2
I0403 18:40:05.529075 23136 net.cpp:91] Creating Layer conv2/norm2
I0403 18:40:05.529090 23136 net.cpp:425] conv2/norm2 <- conv2/3x3
I0403 18:40:05.529106 23136 net.cpp:399] conv2/norm2 -> conv2/norm2
I0403 18:40:05.529381 23136 net.cpp:141] Setting up conv2/norm2
I0403 18:40:05.529405 23136 net.cpp:148] Top shape: 24 192 56 56 (14450688)
I0403 18:40:05.529419 23136 net.cpp:156] Memory required for data: 419071008
I0403 18:40:05.529433 23136 layer_factory.hpp:77] Creating layer pool2/3x3_s2
I0403 18:40:05.529448 23136 net.cpp:91] Creating Layer pool2/3x3_s2
I0403 18:40:05.529464 23136 net.cpp:425] pool2/3x3_s2 <- conv2/norm2
I0403 18:40:05.529479 23136 net.cpp:399] pool2/3x3_s2 -> pool2/3x3_s2
I0403 18:40:05.529525 23136 net.cpp:141] Setting up pool2/3x3_s2
I0403 18:40:05.529551 23136 net.cpp:148] Top shape: 24 192 28 28 (3612672)
I0403 18:40:05.529564 23136 net.cpp:156] Memory required for data: 433521696
I0403 18:40:05.529577 23136 layer_factory.hpp:77] Creating layer pool2/3x3_s2_pool2/3x3_s2_0_split
I0403 18:40:05.529593 23136 net.cpp:91] Creating Layer pool2/3x3_s2_pool2/3x3_s2_0_split
I0403 18:40:05.529608 23136 net.cpp:425] pool2/3x3_s2_pool2/3x3_s2_0_split <- pool2/3x3_s2
I0403 18:40:05.529623 23136 net.cpp:399] pool2/3x3_s2_pool2/3x3_s2_0_split -> pool2/3x3_s2_pool2/3x3_s2_0_split_0
I0403 18:40:05.529641 23136 net.cpp:399] pool2/3x3_s2_pool2/3x3_s2_0_split -> pool2/3x3_s2_pool2/3x3_s2_0_split_1
I0403 18:40:05.529660 23136 net.cpp:399] pool2/3x3_s2_pool2/3x3_s2_0_split -> pool2/3x3_s2_pool2/3x3_s2_0_split_2
I0403 18:40:05.529678 23136 net.cpp:399] pool2/3x3_s2_pool2/3x3_s2_0_split -> pool2/3x3_s2_pool2/3x3_s2_0_split_3
I0403 18:40:05.529738 23136 net.cpp:141] Setting up pool2/3x3_s2_pool2/3x3_s2_0_split
I0403 18:40:05.529758 23136 net.cpp:148] Top shape: 24 192 28 28 (3612672)
I0403 18:40:05.529773 23136 net.cpp:148] Top shape: 24 192 28 28 (3612672)
I0403 18:40:05.529788 23136 net.cpp:148] Top shape: 24 192 28 28 (3612672)
I0403 18:40:05.529801 23136 net.cpp:148] Top shape: 24 192 28 28 (3612672)
I0403 18:40:05.529814 23136 net.cpp:156] Memory required for data: 491324448
I0403 18:40:05.529827 23136 layer_factory.hpp:77] Creating layer inception_3a/1x1
I0403 18:40:05.529846 23136 net.cpp:91] Creating Layer inception_3a/1x1
I0403 18:40:05.529861 23136 net.cpp:425] inception_3a/1x1 <- pool2/3x3_s2_pool2/3x3_s2_0_split_0
I0403 18:40:05.529878 23136 net.cpp:399] inception_3a/1x1 -> inception_3a/1x1
I0403 18:40:05.531339 23136 net.cpp:141] Setting up inception_3a/1x1
I0403 18:40:05.531366 23136 net.cpp:148] Top shape: 24 64 28 28 (1204224)
I0403 18:40:05.531380 23136 net.cpp:156] Memory required for data: 496141344
I0403 18:40:05.531399 23136 layer_factory.hpp:77] Creating layer inception_3a/relu_1x1
I0403 18:40:05.531417 23136 net.cpp:91] Creating Layer inception_3a/relu_1x1
I0403 18:40:05.531433 23136 net.cpp:425] inception_3a/relu_1x1 <- inception_3a/1x1
I0403 18:40:05.531450 23136 net.cpp:386] inception_3a/relu_1x1 -> inception_3a/1x1 (in-place)
I0403 18:40:05.531617 23136 net.cpp:141] Setting up inception_3a/relu_1x1
I0403 18:40:05.531641 23136 net.cpp:148] Top shape: 24 64 28 28 (1204224)
I0403 18:40:05.531654 23136 net.cpp:156] Memory required for data: 500958240
I0403 18:40:05.531667 23136 layer_factory.hpp:77] Creating layer inception_3a/3x3_reduce
I0403 18:40:05.531688 23136 net.cpp:91] Creating Layer inception_3a/3x3_reduce
I0403 18:40:05.531704 23136 net.cpp:425] inception_3a/3x3_reduce <- pool2/3x3_s2_pool2/3x3_s2_0_split_1
I0403 18:40:05.531723 23136 net.cpp:399] inception_3a/3x3_reduce -> inception_3a/3x3_reduce
I0403 18:40:05.533336 23136 net.cpp:141] Setting up inception_3a/3x3_reduce
I0403 18:40:05.533366 23136 net.cpp:148] Top shape: 24 96 28 28 (1806336)
I0403 18:40:05.533382 23136 net.cpp:156] Memory required for data: 508183584
I0403 18:40:05.533401 23136 layer_factory.hpp:77] Creating layer inception_3a/relu_3x3_reduce
I0403 18:40:05.533434 23136 net.cpp:91] Creating Layer inception_3a/relu_3x3_reduce
I0403 18:40:05.533452 23136 net.cpp:425] inception_3a/relu_3x3_reduce <- inception_3a/3x3_reduce
I0403 18:40:05.533469 23136 net.cpp:386] inception_3a/relu_3x3_reduce -> inception_3a/3x3_reduce (in-place)
I0403 18:40:05.533648 23136 net.cpp:141] Setting up inception_3a/relu_3x3_reduce
I0403 18:40:05.533671 23136 net.cpp:148] Top shape: 24 96 28 28 (1806336)
I0403 18:40:05.533684 23136 net.cpp:156] Memory required for data: 515408928
I0403 18:40:05.533699 23136 layer_factory.hpp:77] Creating layer inception_3a/3x3
I0403 18:40:05.533718 23136 net.cpp:91] Creating Layer inception_3a/3x3
I0403 18:40:05.533735 23136 net.cpp:425] inception_3a/3x3 <- inception_3a/3x3_reduce
I0403 18:40:05.533754 23136 net.cpp:399] inception_3a/3x3 -> inception_3a/3x3
I0403 18:40:05.535310 23136 net.cpp:141] Setting up inception_3a/3x3
I0403 18:40:05.535339 23136 net.cpp:148] Top shape: 24 128 28 28 (2408448)
I0403 18:40:05.535356 23136 net.cpp:156] Memory required for data: 525042720
I0403 18:40:05.535372 23136 layer_factory.hpp:77] Creating layer inception_3a/relu_3x3
I0403 18:40:05.535389 23136 net.cpp:91] Creating Layer inception_3a/relu_3x3
I0403 18:40:05.535404 23136 net.cpp:425] inception_3a/relu_3x3 <- inception_3a/3x3
I0403 18:40:05.535423 23136 net.cpp:386] inception_3a/relu_3x3 -> inception_3a/3x3 (in-place)
I0403 18:40:05.535684 23136 net.cpp:141] Setting up inception_3a/relu_3x3
I0403 18:40:05.535712 23136 net.cpp:148] Top shape: 24 128 28 28 (2408448)
I0403 18:40:05.535727 23136 net.cpp:156] Memory required for data: 534676512
I0403 18:40:05.535740 23136 layer_factory.hpp:77] Creating layer inception_3a/5x5_reduce
I0403 18:40:05.535761 23136 net.cpp:91] Creating Layer inception_3a/5x5_reduce
I0403 18:40:05.535778 23136 net.cpp:425] inception_3a/5x5_reduce <- pool2/3x3_s2_pool2/3x3_s2_0_split_2
I0403 18:40:05.535794 23136 net.cpp:399] inception_3a/5x5_reduce -> inception_3a/5x5_reduce
I0403 18:40:05.536700 23136 net.cpp:141] Setting up inception_3a/5x5_reduce
I0403 18:40:05.536725 23136 net.cpp:148] Top shape: 24 16 28 28 (301056)
I0403 18:40:05.536739 23136 net.cpp:156] Memory required for data: 535880736
I0403 18:40:05.536756 23136 layer_factory.hpp:77] Creating layer inception_3a/relu_5x5_reduce
I0403 18:40:05.536772 23136 net.cpp:91] Creating Layer inception_3a/relu_5x5_reduce
I0403 18:40:05.536787 23136 net.cpp:425] inception_3a/relu_5x5_reduce <- inception_3a/5x5_reduce
I0403 18:40:05.536806 23136 net.cpp:386] inception_3a/relu_5x5_reduce -> inception_3a/5x5_reduce (in-place)
I0403 18:40:05.537084 23136 net.cpp:141] Setting up inception_3a/relu_5x5_reduce
I0403 18:40:05.537109 23136 net.cpp:148] Top shape: 24 16 28 28 (301056)
I0403 18:40:05.537123 23136 net.cpp:156] Memory required for data: 537084960
I0403 18:40:05.537137 23136 layer_factory.hpp:77] Creating layer inception_3a/5x5
I0403 18:40:05.537158 23136 net.cpp:91] Creating Layer inception_3a/5x5
I0403 18:40:05.537174 23136 net.cpp:425] inception_3a/5x5 <- inception_3a/5x5_reduce
I0403 18:40:05.537194 23136 net.cpp:399] inception_3a/5x5 -> inception_3a/5x5
I0403 18:40:05.538144 23136 net.cpp:141] Setting up inception_3a/5x5
I0403 18:40:05.538172 23136 net.cpp:148] Top shape: 24 32 28 28 (602112)
I0403 18:40:05.538188 23136 net.cpp:156] Memory required for data: 539493408
I0403 18:40:05.538204 23136 layer_factory.hpp:77] Creating layer inception_3a/relu_5x5
I0403 18:40:05.538221 23136 net.cpp:91] Creating Layer inception_3a/relu_5x5
I0403 18:40:05.538236 23136 net.cpp:425] inception_3a/relu_5x5 <- inception_3a/5x5
I0403 18:40:05.538254 23136 net.cpp:386] inception_3a/relu_5x5 -> inception_3a/5x5 (in-place)
I0403 18:40:05.538416 23136 net.cpp:141] Setting up inception_3a/relu_5x5
I0403 18:40:05.538439 23136 net.cpp:148] Top shape: 24 32 28 28 (602112)
I0403 18:40:05.538452 23136 net.cpp:156] Memory required for data: 541901856
I0403 18:40:05.538465 23136 layer_factory.hpp:77] Creating layer inception_3a/pool
I0403 18:40:05.538481 23136 net.cpp:91] Creating Layer inception_3a/pool
I0403 18:40:05.538511 23136 net.cpp:425] inception_3a/pool <- pool2/3x3_s2_pool2/3x3_s2_0_split_3
I0403 18:40:05.538530 23136 net.cpp:399] inception_3a/pool -> inception_3a/pool
I0403 18:40:05.538589 23136 net.cpp:141] Setting up inception_3a/pool
I0403 18:40:05.538610 23136 net.cpp:148] Top shape: 24 192 28 28 (3612672)
I0403 18:40:05.538625 23136 net.cpp:156] Memory required for data: 556352544
I0403 18:40:05.538637 23136 layer_factory.hpp:77] Creating layer inception_3a/pool_proj
I0403 18:40:05.538661 23136 net.cpp:91] Creating Layer inception_3a/pool_proj
I0403 18:40:05.538676 23136 net.cpp:425] inception_3a/pool_proj <- inception_3a/pool
I0403 18:40:05.538694 23136 net.cpp:399] inception_3a/pool_proj -> inception_3a/pool_proj
I0403 18:40:05.539602 23136 net.cpp:141] Setting up inception_3a/pool_proj
I0403 18:40:05.539628 23136 net.cpp:148] Top shape: 24 32 28 28 (602112)
I0403 18:40:05.539643 23136 net.cpp:156] Memory required for data: 558760992
I0403 18:40:05.539664 23136 layer_factory.hpp:77] Creating layer inception_3a/relu_pool_proj
I0403 18:40:05.539683 23136 net.cpp:91] Creating Layer inception_3a/relu_pool_proj
I0403 18:40:05.539698 23136 net.cpp:425] inception_3a/relu_pool_proj <- inception_3a/pool_proj
I0403 18:40:05.539716 23136 net.cpp:386] inception_3a/relu_pool_proj -> inception_3a/pool_proj (in-place)
I0403 18:40:05.539976 23136 net.cpp:141] Setting up inception_3a/relu_pool_proj
I0403 18:40:05.540002 23136 net.cpp:148] Top shape: 24 32 28 28 (602112)
I0403 18:40:05.540017 23136 net.cpp:156] Memory required for data: 561169440
I0403 18:40:05.540030 23136 layer_factory.hpp:77] Creating layer inception_3a/output
I0403 18:40:05.540047 23136 net.cpp:91] Creating Layer inception_3a/output
I0403 18:40:05.540061 23136 net.cpp:425] inception_3a/output <- inception_3a/1x1
I0403 18:40:05.540076 23136 net.cpp:425] inception_3a/output <- inception_3a/3x3
I0403 18:40:05.540091 23136 net.cpp:425] inception_3a/output <- inception_3a/5x5
I0403 18:40:05.540105 23136 net.cpp:425] inception_3a/output <- inception_3a/pool_proj
I0403 18:40:05.540123 23136 net.cpp:399] inception_3a/output -> inception_3a/output
I0403 18:40:05.540166 23136 net.cpp:141] Setting up inception_3a/output
I0403 18:40:05.540187 23136 net.cpp:148] Top shape: 24 256 28 28 (4816896)
I0403 18:40:05.540200 23136 net.cpp:156] Memory required for data: 580437024
I0403 18:40:05.540212 23136 layer_factory.hpp:77] Creating layer inception_3a/output_inception_3a/output_0_split
I0403 18:40:05.540230 23136 net.cpp:91] Creating Layer inception_3a/output_inception_3a/output_0_split
I0403 18:40:05.540254 23136 net.cpp:425] inception_3a/output_inception_3a/output_0_split <- inception_3a/output
I0403 18:40:05.540271 23136 net.cpp:399] inception_3a/output_inception_3a/output_0_split -> inception_3a/output_inception_3a/output_0_split_0
I0403 18:40:05.540288 23136 net.cpp:399] inception_3a/output_inception_3a/output_0_split -> inception_3a/output_inception_3a/output_0_split_1
I0403 18:40:05.540312 23136 net.cpp:399] inception_3a/output_inception_3a/output_0_split -> inception_3a/output_inception_3a/output_0_split_2
I0403 18:40:05.540333 23136 net.cpp:399] inception_3a/output_inception_3a/output_0_split -> inception_3a/output_inception_3a/output_0_split_3
I0403 18:40:05.540401 23136 net.cpp:141] Setting up inception_3a/output_inception_3a/output_0_split
I0403 18:40:05.540424 23136 net.cpp:148] Top shape: 24 256 28 28 (4816896)
I0403 18:40:05.540441 23136 net.cpp:148] Top shape: 24 256 28 28 (4816896)
I0403 18:40:05.540455 23136 net.cpp:148] Top shape: 24 256 28 28 (4816896)
I0403 18:40:05.540469 23136 net.cpp:148] Top shape: 24 256 28 28 (4816896)
I0403 18:40:05.540482 23136 net.cpp:156] Memory required for data: 657507360
I0403 18:40:05.540495 23136 layer_factory.hpp:77] Creating layer inception_3b/1x1
I0403 18:40:05.540515 23136 net.cpp:91] Creating Layer inception_3b/1x1
I0403 18:40:05.540531 23136 net.cpp:425] inception_3b/1x1 <- inception_3a/output_inception_3a/output_0_split_0
I0403 18:40:05.540565 23136 net.cpp:399] inception_3b/1x1 -> inception_3b/1x1
I0403 18:40:05.541630 23136 net.cpp:141] Setting up inception_3b/1x1
I0403 18:40:05.541666 23136 net.cpp:148] Top shape: 24 128 28 28 (2408448)
I0403 18:40:05.541684 23136 net.cpp:156] Memory required for data: 667141152
I0403 18:40:05.541702 23136 layer_factory.hpp:77] Creating layer inception_3b/relu_1x1
I0403 18:40:05.541718 23136 net.cpp:91] Creating Layer inception_3b/relu_1x1
I0403 18:40:05.541733 23136 net.cpp:425] inception_3b/relu_1x1 <- inception_3b/1x1
I0403 18:40:05.541749 23136 net.cpp:386] inception_3b/relu_1x1 -> inception_3b/1x1 (in-place)
I0403 18:40:05.541913 23136 net.cpp:141] Setting up inception_3b/relu_1x1
I0403 18:40:05.541939 23136 net.cpp:148] Top shape: 24 128 28 28 (2408448)
I0403 18:40:05.541954 23136 net.cpp:156] Memory required for data: 676774944
I0403 18:40:05.541966 23136 layer_factory.hpp:77] Creating layer inception_3b/3x3_reduce
I0403 18:40:05.541987 23136 net.cpp:91] Creating Layer inception_3b/3x3_reduce
I0403 18:40:05.542003 23136 net.cpp:425] inception_3b/3x3_reduce <- inception_3a/output_inception_3a/output_0_split_1
I0403 18:40:05.542021 23136 net.cpp:399] inception_3b/3x3_reduce -> inception_3b/3x3_reduce
I0403 18:40:05.543117 23136 net.cpp:141] Setting up inception_3b/3x3_reduce
I0403 18:40:05.543143 23136 net.cpp:148] Top shape: 24 128 28 28 (2408448)
I0403 18:40:05.543159 23136 net.cpp:156] Memory required for data: 686408736
I0403 18:40:05.543176 23136 layer_factory.hpp:77] Creating layer inception_3b/relu_3x3_reduce
I0403 18:40:05.543196 23136 net.cpp:91] Creating Layer inception_3b/relu_3x3_reduce
I0403 18:40:05.543212 23136 net.cpp:425] inception_3b/relu_3x3_reduce <- inception_3b/3x3_reduce
I0403 18:40:05.543229 23136 net.cpp:386] inception_3b/relu_3x3_reduce -> inception_3b/3x3_reduce (in-place)
I0403 18:40:05.543398 23136 net.cpp:141] Setting up inception_3b/relu_3x3_reduce
I0403 18:40:05.543422 23136 net.cpp:148] Top shape: 24 128 28 28 (2408448)
I0403 18:40:05.543437 23136 net.cpp:156] Memory required for data: 696042528
I0403 18:40:05.543450 23136 layer_factory.hpp:77] Creating layer inception_3b/3x3
I0403 18:40:05.543473 23136 net.cpp:91] Creating Layer inception_3b/3x3
I0403 18:40:05.543491 23136 net.cpp:425] inception_3b/3x3 <- inception_3b/3x3_reduce
I0403 18:40:05.543511 23136 net.cpp:399] inception_3b/3x3 -> inception_3b/3x3
I0403 18:40:05.546325 23136 net.cpp:141] Setting up inception_3b/3x3
I0403 18:40:05.546355 23136 net.cpp:148] Top shape: 24 192 28 28 (3612672)
I0403 18:40:05.546370 23136 net.cpp:156] Memory required for data: 710493216
I0403 18:40:05.546388 23136 layer_factory.hpp:77] Creating layer inception_3b/relu_3x3
I0403 18:40:05.546406 23136 net.cpp:91] Creating Layer inception_3b/relu_3x3
I0403 18:40:05.546421 23136 net.cpp:425] inception_3b/relu_3x3 <- inception_3b/3x3
I0403 18:40:05.546439 23136 net.cpp:386] inception_3b/relu_3x3 -> inception_3b/3x3 (in-place)
I0403 18:40:05.546715 23136 net.cpp:141] Setting up inception_3b/relu_3x3
I0403 18:40:05.546742 23136 net.cpp:148] Top shape: 24 192 28 28 (3612672)
I0403 18:40:05.546757 23136 net.cpp:156] Memory required for data: 724943904
I0403 18:40:05.546772 23136 layer_factory.hpp:77] Creating layer inception_3b/5x5_reduce
I0403 18:40:05.546793 23136 net.cpp:91] Creating Layer inception_3b/5x5_reduce
I0403 18:40:05.546810 23136 net.cpp:425] inception_3b/5x5_reduce <- inception_3a/output_inception_3a/output_0_split_2
I0403 18:40:05.546828 23136 net.cpp:399] inception_3b/5x5_reduce -> inception_3b/5x5_reduce
I0403 18:40:05.547807 23136 net.cpp:141] Setting up inception_3b/5x5_reduce
I0403 18:40:05.547835 23136 net.cpp:148] Top shape: 24 32 28 28 (602112)
I0403 18:40:05.547852 23136 net.cpp:156] Memory required for data: 727352352
I0403 18:40:05.547868 23136 layer_factory.hpp:77] Creating layer inception_3b/relu_5x5_reduce
I0403 18:40:05.547886 23136 net.cpp:91] Creating Layer inception_3b/relu_5x5_reduce
I0403 18:40:05.547901 23136 net.cpp:425] inception_3b/relu_5x5_reduce <- inception_3b/5x5_reduce
I0403 18:40:05.547920 23136 net.cpp:386] inception_3b/relu_5x5_reduce -> inception_3b/5x5_reduce (in-place)
I0403 18:40:05.548104 23136 net.cpp:141] Setting up inception_3b/relu_5x5_reduce
I0403 18:40:05.548127 23136 net.cpp:148] Top shape: 24 32 28 28 (602112)
I0403 18:40:05.548141 23136 net.cpp:156] Memory required for data: 729760800
I0403 18:40:05.548156 23136 layer_factory.hpp:77] Creating layer inception_3b/5x5
I0403 18:40:05.548177 23136 net.cpp:91] Creating Layer inception_3b/5x5
I0403 18:40:05.548193 23136 net.cpp:425] inception_3b/5x5 <- inception_3b/5x5_reduce
I0403 18:40:05.548213 23136 net.cpp:399] inception_3b/5x5 -> inception_3b/5x5
I0403 18:40:05.550161 23136 net.cpp:141] Setting up inception_3b/5x5
I0403 18:40:05.550190 23136 net.cpp:148] Top shape: 24 96 28 28 (1806336)
I0403 18:40:05.550204 23136 net.cpp:156] Memory required for data: 736986144
I0403 18:40:05.550222 23136 layer_factory.hpp:77] Creating layer inception_3b/relu_5x5
I0403 18:40:05.550241 23136 net.cpp:91] Creating Layer inception_3b/relu_5x5
I0403 18:40:05.550258 23136 net.cpp:425] inception_3b/relu_5x5 <- inception_3b/5x5
I0403 18:40:05.550274 23136 net.cpp:386] inception_3b/relu_5x5 -> inception_3b/5x5 (in-place)
I0403 18:40:05.550463 23136 net.cpp:141] Setting up inception_3b/relu_5x5
I0403 18:40:05.550487 23136 net.cpp:148] Top shape: 24 96 28 28 (1806336)
I0403 18:40:05.550501 23136 net.cpp:156] Memory required for data: 744211488
I0403 18:40:05.550515 23136 layer_factory.hpp:77] Creating layer inception_3b/pool
I0403 18:40:05.550531 23136 net.cpp:91] Creating Layer inception_3b/pool
I0403 18:40:05.550551 23136 net.cpp:425] inception_3b/pool <- inception_3a/output_inception_3a/output_0_split_3
I0403 18:40:05.550570 23136 net.cpp:399] inception_3b/pool -> inception_3b/pool
I0403 18:40:05.550624 23136 net.cpp:141] Setting up inception_3b/pool
I0403 18:40:05.550647 23136 net.cpp:148] Top shape: 24 256 28 28 (4816896)
I0403 18:40:05.550660 23136 net.cpp:156] Memory required for data: 763479072
I0403 18:40:05.550674 23136 layer_factory.hpp:77] Creating layer inception_3b/pool_proj
I0403 18:40:05.550696 23136 net.cpp:91] Creating Layer inception_3b/pool_proj
I0403 18:40:05.550714 23136 net.cpp:425] inception_3b/pool_proj <- inception_3b/pool
I0403 18:40:05.550731 23136 net.cpp:399] inception_3b/pool_proj -> inception_3b/pool_proj
I0403 18:40:05.551758 23136 net.cpp:141] Setting up inception_3b/pool_proj
I0403 18:40:05.551784 23136 net.cpp:148] Top shape: 24 64 28 28 (1204224)
I0403 18:40:05.551798 23136 net.cpp:156] Memory required for data: 768295968
I0403 18:40:05.551816 23136 layer_factory.hpp:77] Creating layer inception_3b/relu_pool_proj
I0403 18:40:05.551836 23136 net.cpp:91] Creating Layer inception_3b/relu_pool_proj
I0403 18:40:05.551852 23136 net.cpp:425] inception_3b/relu_pool_proj <- inception_3b/pool_proj
I0403 18:40:05.551869 23136 net.cpp:386] inception_3b/relu_pool_proj -> inception_3b/pool_proj (in-place)
I0403 18:40:05.552249 23136 net.cpp:141] Setting up inception_3b/relu_pool_proj
I0403 18:40:05.552274 23136 net.cpp:148] Top shape: 24 64 28 28 (1204224)
I0403 18:40:05.552289 23136 net.cpp:156] Memory required for data: 773112864
I0403 18:40:05.552302 23136 layer_factory.hpp:77] Creating layer inception_3b/output
I0403 18:40:05.552319 23136 net.cpp:91] Creating Layer inception_3b/output
I0403 18:40:05.552332 23136 net.cpp:425] inception_3b/output <- inception_3b/1x1
I0403 18:40:05.552348 23136 net.cpp:425] inception_3b/output <- inception_3b/3x3
I0403 18:40:05.552363 23136 net.cpp:425] inception_3b/output <- inception_3b/5x5
I0403 18:40:05.552378 23136 net.cpp:425] inception_3b/output <- inception_3b/pool_proj
I0403 18:40:05.552397 23136 net.cpp:399] inception_3b/output -> inception_3b/output
I0403 18:40:05.552438 23136 net.cpp:141] Setting up inception_3b/output
I0403 18:40:05.552462 23136 net.cpp:148] Top shape: 24 480 28 28 (9031680)
I0403 18:40:05.552477 23136 net.cpp:156] Memory required for data: 809239584
I0403 18:40:05.552490 23136 layer_factory.hpp:77] Creating layer pool3/3x3_s2
I0403 18:40:05.552506 23136 net.cpp:91] Creating Layer pool3/3x3_s2
I0403 18:40:05.552521 23136 net.cpp:425] pool3/3x3_s2 <- inception_3b/output
I0403 18:40:05.552561 23136 net.cpp:399] pool3/3x3_s2 -> pool3/3x3_s2
I0403 18:40:05.552618 23136 net.cpp:141] Setting up pool3/3x3_s2
I0403 18:40:05.552639 23136 net.cpp:148] Top shape: 24 480 14 14 (2257920)
I0403 18:40:05.552652 23136 net.cpp:156] Memory required for data: 818271264
I0403 18:40:05.552666 23136 layer_factory.hpp:77] Creating layer pool3/3x3_s2_pool3/3x3_s2_0_split
I0403 18:40:05.552685 23136 net.cpp:91] Creating Layer pool3/3x3_s2_pool3/3x3_s2_0_split
I0403 18:40:05.552700 23136 net.cpp:425] pool3/3x3_s2_pool3/3x3_s2_0_split <- pool3/3x3_s2
I0403 18:40:05.552716 23136 net.cpp:399] pool3/3x3_s2_pool3/3x3_s2_0_split -> pool3/3x3_s2_pool3/3x3_s2_0_split_0
I0403 18:40:05.552736 23136 net.cpp:399] pool3/3x3_s2_pool3/3x3_s2_0_split -> pool3/3x3_s2_pool3/3x3_s2_0_split_1
I0403 18:40:05.552754 23136 net.cpp:399] pool3/3x3_s2_pool3/3x3_s2_0_split -> pool3/3x3_s2_pool3/3x3_s2_0_split_2
I0403 18:40:05.552772 23136 net.cpp:399] pool3/3x3_s2_pool3/3x3_s2_0_split -> pool3/3x3_s2_pool3/3x3_s2_0_split_3
I0403 18:40:05.552850 23136 net.cpp:141] Setting up pool3/3x3_s2_pool3/3x3_s2_0_split
I0403 18:40:05.552871 23136 net.cpp:148] Top shape: 24 480 14 14 (2257920)
I0403 18:40:05.552886 23136 net.cpp:148] Top shape: 24 480 14 14 (2257920)
I0403 18:40:05.552901 23136 net.cpp:148] Top shape: 24 480 14 14 (2257920)
I0403 18:40:05.552916 23136 net.cpp:148] Top shape: 24 480 14 14 (2257920)
I0403 18:40:05.552927 23136 net.cpp:156] Memory required for data: 854397984
I0403 18:40:05.552942 23136 layer_factory.hpp:77] Creating layer inception_4a/1x1
I0403 18:40:05.552963 23136 net.cpp:91] Creating Layer inception_4a/1x1
I0403 18:40:05.552978 23136 net.cpp:425] inception_4a/1x1 <- pool3/3x3_s2_pool3/3x3_s2_0_split_0
I0403 18:40:05.552999 23136 net.cpp:399] inception_4a/1x1 -> inception_4a/1x1
I0403 18:40:05.554518 23136 net.cpp:141] Setting up inception_4a/1x1
I0403 18:40:05.554555 23136 net.cpp:148] Top shape: 24 192 14 14 (903168)
I0403 18:40:05.554572 23136 net.cpp:156] Memory required for data: 858010656
I0403 18:40:05.554589 23136 layer_factory.hpp:77] Creating layer inception_4a/relu_1x1
I0403 18:40:05.554610 23136 net.cpp:91] Creating Layer inception_4a/relu_1x1
I0403 18:40:05.554627 23136 net.cpp:425] inception_4a/relu_1x1 <- inception_4a/1x1
I0403 18:40:05.554643 23136 net.cpp:386] inception_4a/relu_1x1 -> inception_4a/1x1 (in-place)
I0403 18:40:05.554811 23136 net.cpp:141] Setting up inception_4a/relu_1x1
I0403 18:40:05.554837 23136 net.cpp:148] Top shape: 24 192 14 14 (903168)
I0403 18:40:05.554852 23136 net.cpp:156] Memory required for data: 861623328
I0403 18:40:05.554865 23136 layer_factory.hpp:77] Creating layer inception_4a/3x3_reduce
I0403 18:40:05.554886 23136 net.cpp:91] Creating Layer inception_4a/3x3_reduce
I0403 18:40:05.554903 23136 net.cpp:425] inception_4a/3x3_reduce <- pool3/3x3_s2_pool3/3x3_s2_0_split_1
I0403 18:40:05.554920 23136 net.cpp:399] inception_4a/3x3_reduce -> inception_4a/3x3_reduce
I0403 18:40:05.556152 23136 net.cpp:141] Setting up inception_4a/3x3_reduce
I0403 18:40:05.556180 23136 net.cpp:148] Top shape: 24 96 14 14 (451584)
I0403 18:40:05.556193 23136 net.cpp:156] Memory required for data: 863429664
I0403 18:40:05.556216 23136 layer_factory.hpp:77] Creating layer inception_4a/relu_3x3_reduce
I0403 18:40:05.556236 23136 net.cpp:91] Creating Layer inception_4a/relu_3x3_reduce
I0403 18:40:05.556251 23136 net.cpp:425] inception_4a/relu_3x3_reduce <- inception_4a/3x3_reduce
I0403 18:40:05.556270 23136 net.cpp:386] inception_4a/relu_3x3_reduce -> inception_4a/3x3_reduce (in-place)
I0403 18:40:05.556442 23136 net.cpp:141] Setting up inception_4a/relu_3x3_reduce
I0403 18:40:05.556465 23136 net.cpp:148] Top shape: 24 96 14 14 (451584)
I0403 18:40:05.556479 23136 net.cpp:156] Memory required for data: 865236000
I0403 18:40:05.556493 23136 layer_factory.hpp:77] Creating layer inception_4a/3x3
I0403 18:40:05.556514 23136 net.cpp:91] Creating Layer inception_4a/3x3
I0403 18:40:05.556530 23136 net.cpp:425] inception_4a/3x3 <- inception_4a/3x3_reduce
I0403 18:40:05.556555 23136 net.cpp:399] inception_4a/3x3 -> inception_4a/3x3
I0403 18:40:05.559154 23136 net.cpp:141] Setting up inception_4a/3x3
I0403 18:40:05.559181 23136 net.cpp:148] Top shape: 24 208 14 14 (978432)
I0403 18:40:05.559196 23136 net.cpp:156] Memory required for data: 869149728
I0403 18:40:05.559213 23136 layer_factory.hpp:77] Creating layer inception_4a/relu_3x3
I0403 18:40:05.559234 23136 net.cpp:91] Creating Layer inception_4a/relu_3x3
I0403 18:40:05.559252 23136 net.cpp:425] inception_4a/relu_3x3 <- inception_4a/3x3
I0403 18:40:05.559269 23136 net.cpp:386] inception_4a/relu_3x3 -> inception_4a/3x3 (in-place)
I0403 18:40:05.559542 23136 net.cpp:141] Setting up inception_4a/relu_3x3
I0403 18:40:05.559568 23136 net.cpp:148] Top shape: 24 208 14 14 (978432)
I0403 18:40:05.559583 23136 net.cpp:156] Memory required for data: 873063456
I0403 18:40:05.559597 23136 layer_factory.hpp:77] Creating layer inception_4a/5x5_reduce
I0403 18:40:05.559620 23136 net.cpp:91] Creating Layer inception_4a/5x5_reduce
I0403 18:40:05.559638 23136 net.cpp:425] inception_4a/5x5_reduce <- pool3/3x3_s2_pool3/3x3_s2_0_split_2
I0403 18:40:05.559656 23136 net.cpp:399] inception_4a/5x5_reduce -> inception_4a/5x5_reduce
I0403 18:40:05.560741 23136 net.cpp:141] Setting up inception_4a/5x5_reduce
I0403 18:40:05.560770 23136 net.cpp:148] Top shape: 24 16 14 14 (75264)
I0403 18:40:05.560787 23136 net.cpp:156] Memory required for data: 873364512
I0403 18:40:05.560806 23136 layer_factory.hpp:77] Creating layer inception_4a/relu_5x5_reduce
I0403 18:40:05.560823 23136 net.cpp:91] Creating Layer inception_4a/relu_5x5_reduce
I0403 18:40:05.560839 23136 net.cpp:425] inception_4a/relu_5x5_reduce <- inception_4a/5x5_reduce
I0403 18:40:05.560858 23136 net.cpp:386] inception_4a/relu_5x5_reduce -> inception_4a/5x5_reduce (in-place)
I0403 18:40:05.561049 23136 net.cpp:141] Setting up inception_4a/relu_5x5_reduce
I0403 18:40:05.561074 23136 net.cpp:148] Top shape: 24 16 14 14 (75264)
I0403 18:40:05.561087 23136 net.cpp:156] Memory required for data: 873665568
I0403 18:40:05.561100 23136 layer_factory.hpp:77] Creating layer inception_4a/5x5
I0403 18:40:05.561121 23136 net.cpp:91] Creating Layer inception_4a/5x5
I0403 18:40:05.561138 23136 net.cpp:425] inception_4a/5x5 <- inception_4a/5x5_reduce
I0403 18:40:05.561159 23136 net.cpp:399] inception_4a/5x5 -> inception_4a/5x5
I0403 18:40:05.562223 23136 net.cpp:141] Setting up inception_4a/5x5
I0403 18:40:05.562249 23136 net.cpp:148] Top shape: 24 48 14 14 (225792)
I0403 18:40:05.562265 23136 net.cpp:156] Memory required for data: 874568736
I0403 18:40:05.562281 23136 layer_factory.hpp:77] Creating layer inception_4a/relu_5x5
I0403 18:40:05.562300 23136 net.cpp:91] Creating Layer inception_4a/relu_5x5
I0403 18:40:05.562316 23136 net.cpp:425] inception_4a/relu_5x5 <- inception_4a/5x5
I0403 18:40:05.562332 23136 net.cpp:386] inception_4a/relu_5x5 -> inception_4a/5x5 (in-place)
I0403 18:40:05.562499 23136 net.cpp:141] Setting up inception_4a/relu_5x5
I0403 18:40:05.562521 23136 net.cpp:148] Top shape: 24 48 14 14 (225792)
I0403 18:40:05.562535 23136 net.cpp:156] Memory required for data: 875471904
I0403 18:40:05.562553 23136 layer_factory.hpp:77] Creating layer inception_4a/pool
I0403 18:40:05.562573 23136 net.cpp:91] Creating Layer inception_4a/pool
I0403 18:40:05.562603 23136 net.cpp:425] inception_4a/pool <- pool3/3x3_s2_pool3/3x3_s2_0_split_3
I0403 18:40:05.562620 23136 net.cpp:399] inception_4a/pool -> inception_4a/pool
I0403 18:40:05.562680 23136 net.cpp:141] Setting up inception_4a/pool
I0403 18:40:05.562702 23136 net.cpp:148] Top shape: 24 480 14 14 (2257920)
I0403 18:40:05.562716 23136 net.cpp:156] Memory required for data: 884503584
I0403 18:40:05.562729 23136 layer_factory.hpp:77] Creating layer inception_4a/pool_proj
I0403 18:40:05.562750 23136 net.cpp:91] Creating Layer inception_4a/pool_proj
I0403 18:40:05.562767 23136 net.cpp:425] inception_4a/pool_proj <- inception_4a/pool
I0403 18:40:05.562788 23136 net.cpp:399] inception_4a/pool_proj -> inception_4a/pool_proj
I0403 18:40:05.563936 23136 net.cpp:141] Setting up inception_4a/pool_proj
I0403 18:40:05.563962 23136 net.cpp:148] Top shape: 24 64 14 14 (301056)
I0403 18:40:05.563990 23136 net.cpp:156] Memory required for data: 885707808
I0403 18:40:05.564008 23136 layer_factory.hpp:77] Creating layer inception_4a/relu_pool_proj
I0403 18:40:05.564028 23136 net.cpp:91] Creating Layer inception_4a/relu_pool_proj
I0403 18:40:05.564044 23136 net.cpp:425] inception_4a/relu_pool_proj <- inception_4a/pool_proj
I0403 18:40:05.564061 23136 net.cpp:386] inception_4a/relu_pool_proj -> inception_4a/pool_proj (in-place)
I0403 18:40:05.564337 23136 net.cpp:141] Setting up inception_4a/relu_pool_proj
I0403 18:40:05.564362 23136 net.cpp:148] Top shape: 24 64 14 14 (301056)
I0403 18:40:05.564374 23136 net.cpp:156] Memory required for data: 886912032
I0403 18:40:05.564388 23136 layer_factory.hpp:77] Creating layer inception_4a/output
I0403 18:40:05.564404 23136 net.cpp:91] Creating Layer inception_4a/output
I0403 18:40:05.564421 23136 net.cpp:425] inception_4a/output <- inception_4a/1x1
I0403 18:40:05.564437 23136 net.cpp:425] inception_4a/output <- inception_4a/3x3
I0403 18:40:05.564451 23136 net.cpp:425] inception_4a/output <- inception_4a/5x5
I0403 18:40:05.564466 23136 net.cpp:425] inception_4a/output <- inception_4a/pool_proj
I0403 18:40:05.564481 23136 net.cpp:399] inception_4a/output -> inception_4a/output
I0403 18:40:05.564522 23136 net.cpp:141] Setting up inception_4a/output
I0403 18:40:05.564555 23136 net.cpp:148] Top shape: 24 512 14 14 (2408448)
I0403 18:40:05.564573 23136 net.cpp:156] Memory required for data: 896545824
I0403 18:40:05.564599 23136 layer_factory.hpp:77] Creating layer inception_4a/output_inception_4a/output_0_split
I0403 18:40:05.564615 23136 net.cpp:91] Creating Layer inception_4a/output_inception_4a/output_0_split
I0403 18:40:05.564630 23136 net.cpp:425] inception_4a/output_inception_4a/output_0_split <- inception_4a/output
I0403 18:40:05.564649 23136 net.cpp:399] inception_4a/output_inception_4a/output_0_split -> inception_4a/output_inception_4a/output_0_split_0
I0403 18:40:05.564669 23136 net.cpp:399] inception_4a/output_inception_4a/output_0_split -> inception_4a/output_inception_4a/output_0_split_1
I0403 18:40:05.564689 23136 net.cpp:399] inception_4a/output_inception_4a/output_0_split -> inception_4a/output_inception_4a/output_0_split_2
I0403 18:40:05.564709 23136 net.cpp:399] inception_4a/output_inception_4a/output_0_split -> inception_4a/output_inception_4a/output_0_split_3
I0403 18:40:05.564729 23136 net.cpp:399] inception_4a/output_inception_4a/output_0_split -> inception_4a/output_inception_4a/output_0_split_4
I0403 18:40:05.564818 23136 net.cpp:141] Setting up inception_4a/output_inception_4a/output_0_split
I0403 18:40:05.564841 23136 net.cpp:148] Top shape: 24 512 14 14 (2408448)
I0403 18:40:05.564858 23136 net.cpp:148] Top shape: 24 512 14 14 (2408448)
I0403 18:40:05.564885 23136 net.cpp:148] Top shape: 24 512 14 14 (2408448)
I0403 18:40:05.564899 23136 net.cpp:148] Top shape: 24 512 14 14 (2408448)
I0403 18:40:05.564913 23136 net.cpp:148] Top shape: 24 512 14 14 (2408448)
I0403 18:40:05.564926 23136 net.cpp:156] Memory required for data: 944714784
I0403 18:40:05.564939 23136 layer_factory.hpp:77] Creating layer loss1/ave_pool
I0403 18:40:05.564955 23136 net.cpp:91] Creating Layer loss1/ave_pool
I0403 18:40:05.564970 23136 net.cpp:425] loss1/ave_pool <- inception_4a/output_inception_4a/output_0_split_0
I0403 18:40:05.564986 23136 net.cpp:399] loss1/ave_pool -> loss1/ave_pool
I0403 18:40:05.565178 23136 net.cpp:141] Setting up loss1/ave_pool
I0403 18:40:05.565202 23136 net.cpp:148] Top shape: 24 512 4 4 (196608)
I0403 18:40:05.565217 23136 net.cpp:156] Memory required for data: 945501216
I0403 18:40:05.565229 23136 layer_factory.hpp:77] Creating layer loss1/conv
I0403 18:40:05.565250 23136 net.cpp:91] Creating Layer loss1/conv
I0403 18:40:05.565268 23136 net.cpp:425] loss1/conv <- loss1/ave_pool
I0403 18:40:05.565286 23136 net.cpp:399] loss1/conv -> loss1/conv
I0403 18:40:05.566661 23136 net.cpp:141] Setting up loss1/conv
I0403 18:40:05.566689 23136 net.cpp:148] Top shape: 24 128 4 4 (49152)
I0403 18:40:05.566716 23136 net.cpp:156] Memory required for data: 945697824
I0403 18:40:05.566735 23136 layer_factory.hpp:77] Creating layer loss1/relu_conv
I0403 18:40:05.566756 23136 net.cpp:91] Creating Layer loss1/relu_conv
I0403 18:40:05.566771 23136 net.cpp:425] loss1/relu_conv <- loss1/conv
I0403 18:40:05.566788 23136 net.cpp:386] loss1/relu_conv -> loss1/conv (in-place)
I0403 18:40:05.567070 23136 net.cpp:141] Setting up loss1/relu_conv
I0403 18:40:05.567095 23136 net.cpp:148] Top shape: 24 128 4 4 (49152)
I0403 18:40:05.567108 23136 net.cpp:156] Memory required for data: 945894432
I0403 18:40:05.567121 23136 layer_factory.hpp:77] Creating layer loss1/fc
I0403 18:40:05.567148 23136 net.cpp:91] Creating Layer loss1/fc
I0403 18:40:05.567165 23136 net.cpp:425] loss1/fc <- loss1/conv
I0403 18:40:05.567185 23136 net.cpp:399] loss1/fc -> loss1/fc
I0403 18:40:05.584008 23136 net.cpp:141] Setting up loss1/fc
I0403 18:40:05.584038 23136 net.cpp:148] Top shape: 24 1024 (24576)
I0403 18:40:05.584053 23136 net.cpp:156] Memory required for data: 945992736
I0403 18:40:05.584069 23136 layer_factory.hpp:77] Creating layer loss1/relu_fc
I0403 18:40:05.584085 23136 net.cpp:91] Creating Layer loss1/relu_fc
I0403 18:40:05.584100 23136 net.cpp:425] loss1/relu_fc <- loss1/fc
I0403 18:40:05.584120 23136 net.cpp:386] loss1/relu_fc -> loss1/fc (in-place)
I0403 18:40:05.584290 23136 net.cpp:141] Setting up loss1/relu_fc
I0403 18:40:05.584316 23136 net.cpp:148] Top shape: 24 1024 (24576)
I0403 18:40:05.584329 23136 net.cpp:156] Memory required for data: 946091040
I0403 18:40:05.584343 23136 layer_factory.hpp:77] Creating layer loss1/drop_fc
I0403 18:40:05.584367 23136 net.cpp:91] Creating Layer loss1/drop_fc
I0403 18:40:05.584383 23136 net.cpp:425] loss1/drop_fc <- loss1/fc
I0403 18:40:05.584400 23136 net.cpp:386] loss1/drop_fc -> loss1/fc (in-place)
I0403 18:40:05.584449 23136 net.cpp:141] Setting up loss1/drop_fc
I0403 18:40:05.584470 23136 net.cpp:148] Top shape: 24 1024 (24576)
I0403 18:40:05.584483 23136 net.cpp:156] Memory required for data: 946189344
I0403 18:40:05.584496 23136 layer_factory.hpp:77] Creating layer loss1/classifier_plantvillage
I0403 18:40:05.584513 23136 net.cpp:91] Creating Layer loss1/classifier_plantvillage
I0403 18:40:05.584528 23136 net.cpp:425] loss1/classifier_plantvillage <- loss1/fc
I0403 18:40:05.584558 23136 net.cpp:399] loss1/classifier_plantvillage -> loss1/classifier_plantvillage
I0403 18:40:05.585422 23136 net.cpp:141] Setting up loss1/classifier_plantvillage
I0403 18:40:05.585449 23136 net.cpp:148] Top shape: 24 38 (912)
I0403 18:40:05.585464 23136 net.cpp:156] Memory required for data: 946192992
I0403 18:40:05.585479 23136 layer_factory.hpp:77] Creating layer loss1/classifier_plantvillage_loss1/classifier_plantvillage_0_split
I0403 18:40:05.585500 23136 net.cpp:91] Creating Layer loss1/classifier_plantvillage_loss1/classifier_plantvillage_0_split
I0403 18:40:05.585516 23136 net.cpp:425] loss1/classifier_plantvillage_loss1/classifier_plantvillage_0_split <- loss1/classifier_plantvillage
I0403 18:40:05.585533 23136 net.cpp:399] loss1/classifier_plantvillage_loss1/classifier_plantvillage_0_split -> loss1/classifier_plantvillage_loss1/classifier_plantvillage_0_split_0
I0403 18:40:05.585557 23136 net.cpp:399] loss1/classifier_plantvillage_loss1/classifier_plantvillage_0_split -> loss1/classifier_plantvillage_loss1/classifier_plantvillage_0_split_1
I0403 18:40:05.585577 23136 net.cpp:399] loss1/classifier_plantvillage_loss1/classifier_plantvillage_0_split -> loss1/classifier_plantvillage_loss1/classifier_plantvillage_0_split_2
I0403 18:40:05.585644 23136 net.cpp:141] Setting up loss1/classifier_plantvillage_loss1/classifier_plantvillage_0_split
I0403 18:40:05.585665 23136 net.cpp:148] Top shape: 24 38 (912)
I0403 18:40:05.585680 23136 net.cpp:148] Top shape: 24 38 (912)
I0403 18:40:05.585695 23136 net.cpp:148] Top shape: 24 38 (912)
I0403 18:40:05.585706 23136 net.cpp:156] Memory required for data: 946203936
I0403 18:40:05.585721 23136 layer_factory.hpp:77] Creating layer inception_4b/1x1
I0403 18:40:05.585741 23136 net.cpp:91] Creating Layer inception_4b/1x1
I0403 18:40:05.585770 23136 net.cpp:425] inception_4b/1x1 <- inception_4a/output_inception_4a/output_0_split_1
I0403 18:40:05.585788 23136 net.cpp:399] inception_4b/1x1 -> inception_4b/1x1
I0403 18:40:05.587328 23136 net.cpp:141] Setting up inception_4b/1x1
I0403 18:40:05.587357 23136 net.cpp:148] Top shape: 24 160 14 14 (752640)
I0403 18:40:05.587373 23136 net.cpp:156] Memory required for data: 949214496
I0403 18:40:05.587388 23136 layer_factory.hpp:77] Creating layer inception_4b/relu_1x1
I0403 18:40:05.587405 23136 net.cpp:91] Creating Layer inception_4b/relu_1x1
I0403 18:40:05.587420 23136 net.cpp:425] inception_4b/relu_1x1 <- inception_4b/1x1
I0403 18:40:05.587438 23136 net.cpp:386] inception_4b/relu_1x1 -> inception_4b/1x1 (in-place)
I0403 18:40:05.587610 23136 net.cpp:141] Setting up inception_4b/relu_1x1
I0403 18:40:05.587633 23136 net.cpp:148] Top shape: 24 160 14 14 (752640)
I0403 18:40:05.587647 23136 net.cpp:156] Memory required for data: 952225056
I0403 18:40:05.587661 23136 layer_factory.hpp:77] Creating layer inception_4b/3x3_reduce
I0403 18:40:05.587683 23136 net.cpp:91] Creating Layer inception_4b/3x3_reduce
I0403 18:40:05.587700 23136 net.cpp:425] inception_4b/3x3_reduce <- inception_4a/output_inception_4a/output_0_split_2
I0403 18:40:05.587720 23136 net.cpp:399] inception_4b/3x3_reduce -> inception_4b/3x3_reduce
I0403 18:40:05.588999 23136 net.cpp:141] Setting up inception_4b/3x3_reduce
I0403 18:40:05.589025 23136 net.cpp:148] Top shape: 24 112 14 14 (526848)
I0403 18:40:05.589041 23136 net.cpp:156] Memory required for data: 954332448
I0403 18:40:05.589058 23136 layer_factory.hpp:77] Creating layer inception_4b/relu_3x3_reduce
I0403 18:40:05.589074 23136 net.cpp:91] Creating Layer inception_4b/relu_3x3_reduce
I0403 18:40:05.589090 23136 net.cpp:425] inception_4b/relu_3x3_reduce <- inception_4b/3x3_reduce
I0403 18:40:05.589107 23136 net.cpp:386] inception_4b/relu_3x3_reduce -> inception_4b/3x3_reduce (in-place)
I0403 18:40:05.589376 23136 net.cpp:141] Setting up inception_4b/relu_3x3_reduce
I0403 18:40:05.589401 23136 net.cpp:148] Top shape: 24 112 14 14 (526848)
I0403 18:40:05.589414 23136 net.cpp:156] Memory required for data: 956439840
I0403 18:40:05.589427 23136 layer_factory.hpp:77] Creating layer inception_4b/3x3
I0403 18:40:05.589448 23136 net.cpp:91] Creating Layer inception_4b/3x3
I0403 18:40:05.589465 23136 net.cpp:425] inception_4b/3x3 <- inception_4b/3x3_reduce
I0403 18:40:05.589484 23136 net.cpp:399] inception_4b/3x3 -> inception_4b/3x3
I0403 18:40:05.592447 23136 net.cpp:141] Setting up inception_4b/3x3
I0403 18:40:05.592474 23136 net.cpp:148] Top shape: 24 224 14 14 (1053696)
I0403 18:40:05.592489 23136 net.cpp:156] Memory required for data: 960654624
I0403 18:40:05.592507 23136 layer_factory.hpp:77] Creating layer inception_4b/relu_3x3
I0403 18:40:05.592526 23136 net.cpp:91] Creating Layer inception_4b/relu_3x3
I0403 18:40:05.592547 23136 net.cpp:425] inception_4b/relu_3x3 <- inception_4b/3x3
I0403 18:40:05.592566 23136 net.cpp:386] inception_4b/relu_3x3 -> inception_4b/3x3 (in-place)
I0403 18:40:05.592741 23136 net.cpp:141] Setting up inception_4b/relu_3x3
I0403 18:40:05.592767 23136 net.cpp:148] Top shape: 24 224 14 14 (1053696)
I0403 18:40:05.592782 23136 net.cpp:156] Memory required for data: 964869408
I0403 18:40:05.592797 23136 layer_factory.hpp:77] Creating layer inception_4b/5x5_reduce
I0403 18:40:05.592818 23136 net.cpp:91] Creating Layer inception_4b/5x5_reduce
I0403 18:40:05.592835 23136 net.cpp:425] inception_4b/5x5_reduce <- inception_4a/output_inception_4a/output_0_split_3
I0403 18:40:05.592854 23136 net.cpp:399] inception_4b/5x5_reduce -> inception_4b/5x5_reduce
I0403 18:40:05.593919 23136 net.cpp:141] Setting up inception_4b/5x5_reduce
I0403 18:40:05.593947 23136 net.cpp:148] Top shape: 24 24 14 14 (112896)
I0403 18:40:05.593962 23136 net.cpp:156] Memory required for data: 965320992
I0403 18:40:05.593979 23136 layer_factory.hpp:77] Creating layer inception_4b/relu_5x5_reduce
I0403 18:40:05.593997 23136 net.cpp:91] Creating Layer inception_4b/relu_5x5_reduce
I0403 18:40:05.594027 23136 net.cpp:425] inception_4b/relu_5x5_reduce <- inception_4b/5x5_reduce
I0403 18:40:05.594048 23136 net.cpp:386] inception_4b/relu_5x5_reduce -> inception_4b/5x5_reduce (in-place)
I0403 18:40:05.594230 23136 net.cpp:141] Setting up inception_4b/relu_5x5_reduce
I0403 18:40:05.594254 23136 net.cpp:148] Top shape: 24 24 14 14 (112896)
I0403 18:40:05.594269 23136 net.cpp:156] Memory required for data: 965772576
I0403 18:40:05.594281 23136 layer_factory.hpp:77] Creating layer inception_4b/5x5
I0403 18:40:05.594302 23136 net.cpp:91] Creating Layer inception_4b/5x5
I0403 18:40:05.594319 23136 net.cpp:425] inception_4b/5x5 <- inception_4b/5x5_reduce
I0403 18:40:05.594339 23136 net.cpp:399] inception_4b/5x5 -> inception_4b/5x5
I0403 18:40:05.595551 23136 net.cpp:141] Setting up inception_4b/5x5
I0403 18:40:05.595579 23136 net.cpp:148] Top shape: 24 64 14 14 (301056)
I0403 18:40:05.595595 23136 net.cpp:156] Memory required for data: 966976800
I0403 18:40:05.595613 23136 layer_factory.hpp:77] Creating layer inception_4b/relu_5x5
I0403 18:40:05.595630 23136 net.cpp:91] Creating Layer inception_4b/relu_5x5
I0403 18:40:05.595645 23136 net.cpp:425] inception_4b/relu_5x5 <- inception_4b/5x5
I0403 18:40:05.595664 23136 net.cpp:386] inception_4b/relu_5x5 -> inception_4b/5x5 (in-place)
I0403 18:40:05.595943 23136 net.cpp:141] Setting up inception_4b/relu_5x5
I0403 18:40:05.595970 23136 net.cpp:148] Top shape: 24 64 14 14 (301056)
I0403 18:40:05.595985 23136 net.cpp:156] Memory required for data: 968181024
I0403 18:40:05.595999 23136 layer_factory.hpp:77] Creating layer inception_4b/pool
I0403 18:40:05.596016 23136 net.cpp:91] Creating Layer inception_4b/pool
I0403 18:40:05.596032 23136 net.cpp:425] inception_4b/pool <- inception_4a/output_inception_4a/output_0_split_4
I0403 18:40:05.596052 23136 net.cpp:399] inception_4b/pool -> inception_4b/pool
I0403 18:40:05.596113 23136 net.cpp:141] Setting up inception_4b/pool
I0403 18:40:05.596135 23136 net.cpp:148] Top shape: 24 512 14 14 (2408448)
I0403 18:40:05.596149 23136 net.cpp:156] Memory required for data: 977814816
I0403 18:40:05.596163 23136 layer_factory.hpp:77] Creating layer inception_4b/pool_proj
I0403 18:40:05.596184 23136 net.cpp:91] Creating Layer inception_4b/pool_proj
I0403 18:40:05.596201 23136 net.cpp:425] inception_4b/pool_proj <- inception_4b/pool
I0403 18:40:05.596221 23136 net.cpp:399] inception_4b/pool_proj -> inception_4b/pool_proj
I0403 18:40:05.597396 23136 net.cpp:141] Setting up inception_4b/pool_proj
I0403 18:40:05.597425 23136 net.cpp:148] Top shape: 24 64 14 14 (301056)
I0403 18:40:05.597441 23136 net.cpp:156] Memory required for data: 979019040
I0403 18:40:05.597458 23136 layer_factory.hpp:77] Creating layer inception_4b/relu_pool_proj
I0403 18:40:05.597476 23136 net.cpp:91] Creating Layer inception_4b/relu_pool_proj
I0403 18:40:05.597492 23136 net.cpp:425] inception_4b/relu_pool_proj <- inception_4b/pool_proj
I0403 18:40:05.597511 23136 net.cpp:386] inception_4b/relu_pool_proj -> inception_4b/pool_proj (in-place)
I0403 18:40:05.597694 23136 net.cpp:141] Setting up inception_4b/relu_pool_proj
I0403 18:40:05.597718 23136 net.cpp:148] Top shape: 24 64 14 14 (301056)
I0403 18:40:05.597733 23136 net.cpp:156] Memory required for data: 980223264
I0403 18:40:05.597746 23136 layer_factory.hpp:77] Creating layer inception_4b/output
I0403 18:40:05.597764 23136 net.cpp:91] Creating Layer inception_4b/output
I0403 18:40:05.597777 23136 net.cpp:425] inception_4b/output <- inception_4b/1x1
I0403 18:40:05.597792 23136 net.cpp:425] inception_4b/output <- inception_4b/3x3
I0403 18:40:05.597807 23136 net.cpp:425] inception_4b/output <- inception_4b/5x5
I0403 18:40:05.597822 23136 net.cpp:425] inception_4b/output <- inception_4b/pool_proj
I0403 18:40:05.597841 23136 net.cpp:399] inception_4b/output -> inception_4b/output
I0403 18:40:05.597884 23136 net.cpp:141] Setting up inception_4b/output
I0403 18:40:05.597909 23136 net.cpp:148] Top shape: 24 512 14 14 (2408448)
I0403 18:40:05.597924 23136 net.cpp:156] Memory required for data: 989857056
I0403 18:40:05.597952 23136 layer_factory.hpp:77] Creating layer inception_4b/output_inception_4b/output_0_split
I0403 18:40:05.597970 23136 net.cpp:91] Creating Layer inception_4b/output_inception_4b/output_0_split
I0403 18:40:05.597985 23136 net.cpp:425] inception_4b/output_inception_4b/output_0_split <- inception_4b/output
I0403 18:40:05.598001 23136 net.cpp:399] inception_4b/output_inception_4b/output_0_split -> inception_4b/output_inception_4b/output_0_split_0
I0403 18:40:05.598022 23136 net.cpp:399] inception_4b/output_inception_4b/output_0_split -> inception_4b/output_inception_4b/output_0_split_1
I0403 18:40:05.598044 23136 net.cpp:399] inception_4b/output_inception_4b/output_0_split -> inception_4b/output_inception_4b/output_0_split_2
I0403 18:40:05.598064 23136 net.cpp:399] inception_4b/output_inception_4b/output_0_split -> inception_4b/output_inception_4b/output_0_split_3
I0403 18:40:05.598146 23136 net.cpp:141] Setting up inception_4b/output_inception_4b/output_0_split
I0403 18:40:05.598168 23136 net.cpp:148] Top shape: 24 512 14 14 (2408448)
I0403 18:40:05.598183 23136 net.cpp:148] Top shape: 24 512 14 14 (2408448)
I0403 18:40:05.598198 23136 net.cpp:148] Top shape: 24 512 14 14 (2408448)
I0403 18:40:05.598212 23136 net.cpp:148] Top shape: 24 512 14 14 (2408448)
I0403 18:40:05.598225 23136 net.cpp:156] Memory required for data: 1028392224
I0403 18:40:05.598238 23136 layer_factory.hpp:77] Creating layer inception_4c/1x1
I0403 18:40:05.598261 23136 net.cpp:91] Creating Layer inception_4c/1x1
I0403 18:40:05.598278 23136 net.cpp:425] inception_4c/1x1 <- inception_4b/output_inception_4b/output_0_split_0
I0403 18:40:05.598296 23136 net.cpp:399] inception_4c/1x1 -> inception_4c/1x1
I0403 18:40:05.599691 23136 net.cpp:141] Setting up inception_4c/1x1
I0403 18:40:05.599717 23136 net.cpp:148] Top shape: 24 128 14 14 (602112)
I0403 18:40:05.599732 23136 net.cpp:156] Memory required for data: 1030800672
I0403 18:40:05.599750 23136 layer_factory.hpp:77] Creating layer inception_4c/relu_1x1
I0403 18:40:05.599771 23136 net.cpp:91] Creating Layer inception_4c/relu_1x1
I0403 18:40:05.599787 23136 net.cpp:425] inception_4c/relu_1x1 <- inception_4c/1x1
I0403 18:40:05.599803 23136 net.cpp:386] inception_4c/relu_1x1 -> inception_4c/1x1 (in-place)
I0403 18:40:05.599978 23136 net.cpp:141] Setting up inception_4c/relu_1x1
I0403 18:40:05.600002 23136 net.cpp:148] Top shape: 24 128 14 14 (602112)
I0403 18:40:05.600018 23136 net.cpp:156] Memory required for data: 1033209120
I0403 18:40:05.600033 23136 layer_factory.hpp:77] Creating layer inception_4c/3x3_reduce
I0403 18:40:05.600050 23136 net.cpp:91] Creating Layer inception_4c/3x3_reduce
I0403 18:40:05.600066 23136 net.cpp:425] inception_4c/3x3_reduce <- inception_4b/output_inception_4b/output_0_split_1
I0403 18:40:05.600086 23136 net.cpp:399] inception_4c/3x3_reduce -> inception_4c/3x3_reduce
I0403 18:40:05.601992 23136 net.cpp:141] Setting up inception_4c/3x3_reduce
I0403 18:40:05.602022 23136 net.cpp:148] Top shape: 24 128 14 14 (602112)
I0403 18:40:05.602038 23136 net.cpp:156] Memory required for data: 1035617568
I0403 18:40:05.602056 23136 layer_factory.hpp:77] Creating layer inception_4c/relu_3x3_reduce
I0403 18:40:05.602072 23136 net.cpp:91] Creating Layer inception_4c/relu_3x3_reduce
I0403 18:40:05.602089 23136 net.cpp:425] inception_4c/relu_3x3_reduce <- inception_4c/3x3_reduce
I0403 18:40:05.602105 23136 net.cpp:386] inception_4c/relu_3x3_reduce -> inception_4c/3x3_reduce (in-place)
I0403 18:40:05.602383 23136 net.cpp:141] Setting up inception_4c/relu_3x3_reduce
I0403 18:40:05.602411 23136 net.cpp:148] Top shape: 24 128 14 14 (602112)
I0403 18:40:05.602427 23136 net.cpp:156] Memory required for data: 1038026016
I0403 18:40:05.602440 23136 layer_factory.hpp:77] Creating layer inception_4c/3x3
I0403 18:40:05.602463 23136 net.cpp:91] Creating Layer inception_4c/3x3
I0403 18:40:05.602480 23136 net.cpp:425] inception_4c/3x3 <- inception_4c/3x3_reduce
I0403 18:40:05.602499 23136 net.cpp:399] inception_4c/3x3 -> inception_4c/3x3
I0403 18:40:05.606027 23136 net.cpp:141] Setting up inception_4c/3x3
I0403 18:40:05.606068 23136 net.cpp:148] Top shape: 24 256 14 14 (1204224)
I0403 18:40:05.606086 23136 net.cpp:156] Memory required for data: 1042842912
I0403 18:40:05.606117 23136 layer_factory.hpp:77] Creating layer inception_4c/relu_3x3
I0403 18:40:05.606137 23136 net.cpp:91] Creating Layer inception_4c/relu_3x3
I0403 18:40:05.606151 23136 net.cpp:425] inception_4c/relu_3x3 <- inception_4c/3x3
I0403 18:40:05.606170 23136 net.cpp:386] inception_4c/relu_3x3 -> inception_4c/3x3 (in-place)
I0403 18:40:05.606348 23136 net.cpp:141] Setting up inception_4c/relu_3x3
I0403 18:40:05.606374 23136 net.cpp:148] Top shape: 24 256 14 14 (1204224)
I0403 18:40:05.606387 23136 net.cpp:156] Memory required for data: 1047659808
I0403 18:40:05.606401 23136 layer_factory.hpp:77] Creating layer inception_4c/5x5_reduce
I0403 18:40:05.606422 23136 net.cpp:91] Creating Layer inception_4c/5x5_reduce
I0403 18:40:05.606441 23136 net.cpp:425] inception_4c/5x5_reduce <- inception_4b/output_inception_4b/output_0_split_2
I0403 18:40:05.606461 23136 net.cpp:399] inception_4c/5x5_reduce -> inception_4c/5x5_reduce
I0403 18:40:05.607579 23136 net.cpp:141] Setting up inception_4c/5x5_reduce
I0403 18:40:05.607607 23136 net.cpp:148] Top shape: 24 24 14 14 (112896)
I0403 18:40:05.607623 23136 net.cpp:156] Memory required for data: 1048111392
I0403 18:40:05.607640 23136 layer_factory.hpp:77] Creating layer inception_4c/relu_5x5_reduce
I0403 18:40:05.607656 23136 net.cpp:91] Creating Layer inception_4c/relu_5x5_reduce
I0403 18:40:05.607671 23136 net.cpp:425] inception_4c/relu_5x5_reduce <- inception_4c/5x5_reduce
I0403 18:40:05.607689 23136 net.cpp:386] inception_4c/relu_5x5_reduce -> inception_4c/5x5_reduce (in-place)
I0403 18:40:05.607863 23136 net.cpp:141] Setting up inception_4c/relu_5x5_reduce
I0403 18:40:05.607887 23136 net.cpp:148] Top shape: 24 24 14 14 (112896)
I0403 18:40:05.607900 23136 net.cpp:156] Memory required for data: 1048562976
I0403 18:40:05.607913 23136 layer_factory.hpp:77] Creating layer inception_4c/5x5
I0403 18:40:05.607933 23136 net.cpp:91] Creating Layer inception_4c/5x5
I0403 18:40:05.607950 23136 net.cpp:425] inception_4c/5x5 <- inception_4c/5x5_reduce
I0403 18:40:05.607969 23136 net.cpp:399] inception_4c/5x5 -> inception_4c/5x5
I0403 18:40:05.609168 23136 net.cpp:141] Setting up inception_4c/5x5
I0403 18:40:05.609194 23136 net.cpp:148] Top shape: 24 64 14 14 (301056)
I0403 18:40:05.609207 23136 net.cpp:156] Memory required for data: 1049767200
I0403 18:40:05.609223 23136 layer_factory.hpp:77] Creating layer inception_4c/relu_5x5
I0403 18:40:05.609241 23136 net.cpp:91] Creating Layer inception_4c/relu_5x5
I0403 18:40:05.609256 23136 net.cpp:425] inception_4c/relu_5x5 <- inception_4c/5x5
I0403 18:40:05.609274 23136 net.cpp:386] inception_4c/relu_5x5 -> inception_4c/5x5 (in-place)
I0403 18:40:05.609556 23136 net.cpp:141] Setting up inception_4c/relu_5x5
I0403 18:40:05.609580 23136 net.cpp:148] Top shape: 24 64 14 14 (301056)
I0403 18:40:05.609594 23136 net.cpp:156] Memory required for data: 1050971424
I0403 18:40:05.609607 23136 layer_factory.hpp:77] Creating layer inception_4c/pool
I0403 18:40:05.609624 23136 net.cpp:91] Creating Layer inception_4c/pool
I0403 18:40:05.609639 23136 net.cpp:425] inception_4c/pool <- inception_4b/output_inception_4b/output_0_split_3
I0403 18:40:05.609658 23136 net.cpp:399] inception_4c/pool -> inception_4c/pool
I0403 18:40:05.609720 23136 net.cpp:141] Setting up inception_4c/pool
I0403 18:40:05.609742 23136 net.cpp:148] Top shape: 24 512 14 14 (2408448)
I0403 18:40:05.609755 23136 net.cpp:156] Memory required for data: 1060605216
I0403 18:40:05.609768 23136 layer_factory.hpp:77] Creating layer inception_4c/pool_proj
I0403 18:40:05.609791 23136 net.cpp:91] Creating Layer inception_4c/pool_proj
I0403 18:40:05.609807 23136 net.cpp:425] inception_4c/pool_proj <- inception_4c/pool
I0403 18:40:05.609824 23136 net.cpp:399] inception_4c/pool_proj -> inception_4c/pool_proj
I0403 18:40:05.610996 23136 net.cpp:141] Setting up inception_4c/pool_proj
I0403 18:40:05.611023 23136 net.cpp:148] Top shape: 24 64 14 14 (301056)
I0403 18:40:05.611050 23136 net.cpp:156] Memory required for data: 1061809440
I0403 18:40:05.611069 23136 layer_factory.hpp:77] Creating layer inception_4c/relu_pool_proj
I0403 18:40:05.611086 23136 net.cpp:91] Creating Layer inception_4c/relu_pool_proj
I0403 18:40:05.611100 23136 net.cpp:425] inception_4c/relu_pool_proj <- inception_4c/pool_proj
I0403 18:40:05.611119 23136 net.cpp:386] inception_4c/relu_pool_proj -> inception_4c/pool_proj (in-place)
I0403 18:40:05.611294 23136 net.cpp:141] Setting up inception_4c/relu_pool_proj
I0403 18:40:05.611316 23136 net.cpp:148] Top shape: 24 64 14 14 (301056)
I0403 18:40:05.611330 23136 net.cpp:156] Memory required for data: 1063013664
I0403 18:40:05.611342 23136 layer_factory.hpp:77] Creating layer inception_4c/output
I0403 18:40:05.611358 23136 net.cpp:91] Creating Layer inception_4c/output
I0403 18:40:05.611373 23136 net.cpp:425] inception_4c/output <- inception_4c/1x1
I0403 18:40:05.611388 23136 net.cpp:425] inception_4c/output <- inception_4c/3x3
I0403 18:40:05.611402 23136 net.cpp:425] inception_4c/output <- inception_4c/5x5
I0403 18:40:05.611418 23136 net.cpp:425] inception_4c/output <- inception_4c/pool_proj
I0403 18:40:05.611435 23136 net.cpp:399] inception_4c/output -> inception_4c/output
I0403 18:40:05.611479 23136 net.cpp:141] Setting up inception_4c/output
I0403 18:40:05.611502 23136 net.cpp:148] Top shape: 24 512 14 14 (2408448)
I0403 18:40:05.611515 23136 net.cpp:156] Memory required for data: 1072647456
I0403 18:40:05.611529 23136 layer_factory.hpp:77] Creating layer inception_4c/output_inception_4c/output_0_split
I0403 18:40:05.611549 23136 net.cpp:91] Creating Layer inception_4c/output_inception_4c/output_0_split
I0403 18:40:05.611565 23136 net.cpp:425] inception_4c/output_inception_4c/output_0_split <- inception_4c/output
I0403 18:40:05.611582 23136 net.cpp:399] inception_4c/output_inception_4c/output_0_split -> inception_4c/output_inception_4c/output_0_split_0
I0403 18:40:05.611603 23136 net.cpp:399] inception_4c/output_inception_4c/output_0_split -> inception_4c/output_inception_4c/output_0_split_1
I0403 18:40:05.611623 23136 net.cpp:399] inception_4c/output_inception_4c/output_0_split -> inception_4c/output_inception_4c/output_0_split_2
I0403 18:40:05.611642 23136 net.cpp:399] inception_4c/output_inception_4c/output_0_split -> inception_4c/output_inception_4c/output_0_split_3
I0403 18:40:05.611727 23136 net.cpp:141] Setting up inception_4c/output_inception_4c/output_0_split
I0403 18:40:05.611749 23136 net.cpp:148] Top shape: 24 512 14 14 (2408448)
I0403 18:40:05.611764 23136 net.cpp:148] Top shape: 24 512 14 14 (2408448)
I0403 18:40:05.611778 23136 net.cpp:148] Top shape: 24 512 14 14 (2408448)
I0403 18:40:05.611791 23136 net.cpp:148] Top shape: 24 512 14 14 (2408448)
I0403 18:40:05.611804 23136 net.cpp:156] Memory required for data: 1111182624
I0403 18:40:05.611816 23136 layer_factory.hpp:77] Creating layer inception_4d/1x1
I0403 18:40:05.611838 23136 net.cpp:91] Creating Layer inception_4d/1x1
I0403 18:40:05.611855 23136 net.cpp:425] inception_4d/1x1 <- inception_4c/output_inception_4c/output_0_split_0
I0403 18:40:05.611872 23136 net.cpp:399] inception_4d/1x1 -> inception_4d/1x1
I0403 18:40:05.613222 23136 net.cpp:141] Setting up inception_4d/1x1
I0403 18:40:05.613248 23136 net.cpp:148] Top shape: 24 112 14 14 (526848)
I0403 18:40:05.613265 23136 net.cpp:156] Memory required for data: 1113290016
I0403 18:40:05.613281 23136 layer_factory.hpp:77] Creating layer inception_4d/relu_1x1
I0403 18:40:05.613299 23136 net.cpp:91] Creating Layer inception_4d/relu_1x1
I0403 18:40:05.613317 23136 net.cpp:425] inception_4d/relu_1x1 <- inception_4d/1x1
I0403 18:40:05.613332 23136 net.cpp:386] inception_4d/relu_1x1 -> inception_4d/1x1 (in-place)
I0403 18:40:05.613505 23136 net.cpp:141] Setting up inception_4d/relu_1x1
I0403 18:40:05.613530 23136 net.cpp:148] Top shape: 24 112 14 14 (526848)
I0403 18:40:05.613549 23136 net.cpp:156] Memory required for data: 1115397408
I0403 18:40:05.613564 23136 layer_factory.hpp:77] Creating layer inception_4d/3x3_reduce
I0403 18:40:05.613600 23136 net.cpp:91] Creating Layer inception_4d/3x3_reduce
I0403 18:40:05.613616 23136 net.cpp:425] inception_4d/3x3_reduce <- inception_4c/output_inception_4c/output_0_split_1
I0403 18:40:05.613634 23136 net.cpp:399] inception_4d/3x3_reduce -> inception_4d/3x3_reduce
I0403 18:40:05.615080 23136 net.cpp:141] Setting up inception_4d/3x3_reduce
I0403 18:40:05.615106 23136 net.cpp:148] Top shape: 24 144 14 14 (677376)
I0403 18:40:05.615120 23136 net.cpp:156] Memory required for data: 1118106912
I0403 18:40:05.615137 23136 layer_factory.hpp:77] Creating layer inception_4d/relu_3x3_reduce
I0403 18:40:05.615156 23136 net.cpp:91] Creating Layer inception_4d/relu_3x3_reduce
I0403 18:40:05.615173 23136 net.cpp:425] inception_4d/relu_3x3_reduce <- inception_4d/3x3_reduce
I0403 18:40:05.615188 23136 net.cpp:386] inception_4d/relu_3x3_reduce -> inception_4d/3x3_reduce (in-place)
I0403 18:40:05.615463 23136 net.cpp:141] Setting up inception_4d/relu_3x3_reduce
I0403 18:40:05.615489 23136 net.cpp:148] Top shape: 24 144 14 14 (677376)
I0403 18:40:05.615502 23136 net.cpp:156] Memory required for data: 1120816416
I0403 18:40:05.615516 23136 layer_factory.hpp:77] Creating layer inception_4d/3x3
I0403 18:40:05.615540 23136 net.cpp:91] Creating Layer inception_4d/3x3
I0403 18:40:05.615558 23136 net.cpp:425] inception_4d/3x3 <- inception_4d/3x3_reduce
I0403 18:40:05.615578 23136 net.cpp:399] inception_4d/3x3 -> inception_4d/3x3
I0403 18:40:05.619626 23136 net.cpp:141] Setting up inception_4d/3x3
I0403 18:40:05.619653 23136 net.cpp:148] Top shape: 24 288 14 14 (1354752)
I0403 18:40:05.619668 23136 net.cpp:156] Memory required for data: 1126235424
I0403 18:40:05.619684 23136 layer_factory.hpp:77] Creating layer inception_4d/relu_3x3
I0403 18:40:05.619704 23136 net.cpp:91] Creating Layer inception_4d/relu_3x3
I0403 18:40:05.619719 23136 net.cpp:425] inception_4d/relu_3x3 <- inception_4d/3x3
I0403 18:40:05.619735 23136 net.cpp:386] inception_4d/relu_3x3 -> inception_4d/3x3 (in-place)
I0403 18:40:05.619915 23136 net.cpp:141] Setting up inception_4d/relu_3x3
I0403 18:40:05.619940 23136 net.cpp:148] Top shape: 24 288 14 14 (1354752)
I0403 18:40:05.619953 23136 net.cpp:156] Memory required for data: 1131654432
I0403 18:40:05.619966 23136 layer_factory.hpp:77] Creating layer inception_4d/5x5_reduce
I0403 18:40:05.619987 23136 net.cpp:91] Creating Layer inception_4d/5x5_reduce
I0403 18:40:05.620003 23136 net.cpp:425] inception_4d/5x5_reduce <- inception_4c/output_inception_4c/output_0_split_2
I0403 18:40:05.620021 23136 net.cpp:399] inception_4d/5x5_reduce -> inception_4d/5x5_reduce
I0403 18:40:05.621112 23136 net.cpp:141] Setting up inception_4d/5x5_reduce
I0403 18:40:05.621139 23136 net.cpp:148] Top shape: 24 32 14 14 (150528)
I0403 18:40:05.621152 23136 net.cpp:156] Memory required for data: 1132256544
I0403 18:40:05.621168 23136 layer_factory.hpp:77] Creating layer inception_4d/relu_5x5_reduce
I0403 18:40:05.621187 23136 net.cpp:91] Creating Layer inception_4d/relu_5x5_reduce
I0403 18:40:05.621203 23136 net.cpp:425] inception_4d/relu_5x5_reduce <- inception_4d/5x5_reduce
I0403 18:40:05.621219 23136 net.cpp:386] inception_4d/relu_5x5_reduce -> inception_4d/5x5_reduce (in-place)
I0403 18:40:05.621397 23136 net.cpp:141] Setting up inception_4d/relu_5x5_reduce
I0403 18:40:05.621422 23136 net.cpp:148] Top shape: 24 32 14 14 (150528)
I0403 18:40:05.621435 23136 net.cpp:156] Memory required for data: 1132858656
I0403 18:40:05.621448 23136 layer_factory.hpp:77] Creating layer inception_4d/5x5
I0403 18:40:05.621469 23136 net.cpp:91] Creating Layer inception_4d/5x5
I0403 18:40:05.621485 23136 net.cpp:425] inception_4d/5x5 <- inception_4d/5x5_reduce
I0403 18:40:05.621505 23136 net.cpp:399] inception_4d/5x5 -> inception_4d/5x5
I0403 18:40:05.622915 23136 net.cpp:141] Setting up inception_4d/5x5
I0403 18:40:05.622941 23136 net.cpp:148] Top shape: 24 64 14 14 (301056)
I0403 18:40:05.622956 23136 net.cpp:156] Memory required for data: 1134062880
I0403 18:40:05.622974 23136 layer_factory.hpp:77] Creating layer inception_4d/relu_5x5
I0403 18:40:05.623005 23136 net.cpp:91] Creating Layer inception_4d/relu_5x5
I0403 18:40:05.623021 23136 net.cpp:425] inception_4d/relu_5x5 <- inception_4d/5x5
I0403 18:40:05.623040 23136 net.cpp:386] inception_4d/relu_5x5 -> inception_4d/5x5 (in-place)
I0403 18:40:05.623345 23136 net.cpp:141] Setting up inception_4d/relu_5x5
I0403 18:40:05.623370 23136 net.cpp:148] Top shape: 24 64 14 14 (301056)
I0403 18:40:05.623384 23136 net.cpp:156] Memory required for data: 1135267104
I0403 18:40:05.623397 23136 layer_factory.hpp:77] Creating layer inception_4d/pool
I0403 18:40:05.623414 23136 net.cpp:91] Creating Layer inception_4d/pool
I0403 18:40:05.623428 23136 net.cpp:425] inception_4d/pool <- inception_4c/output_inception_4c/output_0_split_3
I0403 18:40:05.623446 23136 net.cpp:399] inception_4d/pool -> inception_4d/pool
I0403 18:40:05.623509 23136 net.cpp:141] Setting up inception_4d/pool
I0403 18:40:05.623533 23136 net.cpp:148] Top shape: 24 512 14 14 (2408448)
I0403 18:40:05.623559 23136 net.cpp:156] Memory required for data: 1144900896
I0403 18:40:05.623574 23136 layer_factory.hpp:77] Creating layer inception_4d/pool_proj
I0403 18:40:05.623595 23136 net.cpp:91] Creating Layer inception_4d/pool_proj
I0403 18:40:05.623612 23136 net.cpp:425] inception_4d/pool_proj <- inception_4d/pool
I0403 18:40:05.623630 23136 net.cpp:399] inception_4d/pool_proj -> inception_4d/pool_proj
I0403 18:40:05.625329 23136 net.cpp:141] Setting up inception_4d/pool_proj
I0403 18:40:05.625356 23136 net.cpp:148] Top shape: 24 64 14 14 (301056)
I0403 18:40:05.625370 23136 net.cpp:156] Memory required for data: 1146105120
I0403 18:40:05.625387 23136 layer_factory.hpp:77] Creating layer inception_4d/relu_pool_proj
I0403 18:40:05.625407 23136 net.cpp:91] Creating Layer inception_4d/relu_pool_proj
I0403 18:40:05.625422 23136 net.cpp:425] inception_4d/relu_pool_proj <- inception_4d/pool_proj
I0403 18:40:05.625438 23136 net.cpp:386] inception_4d/relu_pool_proj -> inception_4d/pool_proj (in-place)
I0403 18:40:05.625618 23136 net.cpp:141] Setting up inception_4d/relu_pool_proj
I0403 18:40:05.625643 23136 net.cpp:148] Top shape: 24 64 14 14 (301056)
I0403 18:40:05.625658 23136 net.cpp:156] Memory required for data: 1147309344
I0403 18:40:05.625671 23136 layer_factory.hpp:77] Creating layer inception_4d/output
I0403 18:40:05.625686 23136 net.cpp:91] Creating Layer inception_4d/output
I0403 18:40:05.625700 23136 net.cpp:425] inception_4d/output <- inception_4d/1x1
I0403 18:40:05.625715 23136 net.cpp:425] inception_4d/output <- inception_4d/3x3
I0403 18:40:05.625730 23136 net.cpp:425] inception_4d/output <- inception_4d/5x5
I0403 18:40:05.625746 23136 net.cpp:425] inception_4d/output <- inception_4d/pool_proj
I0403 18:40:05.625764 23136 net.cpp:399] inception_4d/output -> inception_4d/output
I0403 18:40:05.625808 23136 net.cpp:141] Setting up inception_4d/output
I0403 18:40:05.625830 23136 net.cpp:148] Top shape: 24 528 14 14 (2483712)
I0403 18:40:05.625844 23136 net.cpp:156] Memory required for data: 1157244192
I0403 18:40:05.625857 23136 layer_factory.hpp:77] Creating layer inception_4d/output_inception_4d/output_0_split
I0403 18:40:05.625875 23136 net.cpp:91] Creating Layer inception_4d/output_inception_4d/output_0_split
I0403 18:40:05.625891 23136 net.cpp:425] inception_4d/output_inception_4d/output_0_split <- inception_4d/output
I0403 18:40:05.625907 23136 net.cpp:399] inception_4d/output_inception_4d/output_0_split -> inception_4d/output_inception_4d/output_0_split_0
I0403 18:40:05.625928 23136 net.cpp:399] inception_4d/output_inception_4d/output_0_split -> inception_4d/output_inception_4d/output_0_split_1
I0403 18:40:05.625951 23136 net.cpp:399] inception_4d/output_inception_4d/output_0_split -> inception_4d/output_inception_4d/output_0_split_2
I0403 18:40:05.625970 23136 net.cpp:399] inception_4d/output_inception_4d/output_0_split -> inception_4d/output_inception_4d/output_0_split_3
I0403 18:40:05.625989 23136 net.cpp:399] inception_4d/output_inception_4d/output_0_split -> inception_4d/output_inception_4d/output_0_split_4
I0403 18:40:05.626091 23136 net.cpp:141] Setting up inception_4d/output_inception_4d/output_0_split
I0403 18:40:05.626124 23136 net.cpp:148] Top shape: 24 528 14 14 (2483712)
I0403 18:40:05.626140 23136 net.cpp:148] Top shape: 24 528 14 14 (2483712)
I0403 18:40:05.626154 23136 net.cpp:148] Top shape: 24 528 14 14 (2483712)
I0403 18:40:05.626168 23136 net.cpp:148] Top shape: 24 528 14 14 (2483712)
I0403 18:40:05.626183 23136 net.cpp:148] Top shape: 24 528 14 14 (2483712)
I0403 18:40:05.626195 23136 net.cpp:156] Memory required for data: 1206918432
I0403 18:40:05.626209 23136 layer_factory.hpp:77] Creating layer loss2/ave_pool
I0403 18:40:05.626227 23136 net.cpp:91] Creating Layer loss2/ave_pool
I0403 18:40:05.626245 23136 net.cpp:425] loss2/ave_pool <- inception_4d/output_inception_4d/output_0_split_0
I0403 18:40:05.626261 23136 net.cpp:399] loss2/ave_pool -> loss2/ave_pool
I0403 18:40:05.626577 23136 net.cpp:141] Setting up loss2/ave_pool
I0403 18:40:05.626605 23136 net.cpp:148] Top shape: 24 528 4 4 (202752)
I0403 18:40:05.626621 23136 net.cpp:156] Memory required for data: 1207729440
I0403 18:40:05.626634 23136 layer_factory.hpp:77] Creating layer loss2/conv
I0403 18:40:05.626652 23136 net.cpp:91] Creating Layer loss2/conv
I0403 18:40:05.626668 23136 net.cpp:425] loss2/conv <- loss2/ave_pool
I0403 18:40:05.626689 23136 net.cpp:399] loss2/conv -> loss2/conv
I0403 18:40:05.628556 23136 net.cpp:141] Setting up loss2/conv
I0403 18:40:05.628582 23136 net.cpp:148] Top shape: 24 128 4 4 (49152)
I0403 18:40:05.628598 23136 net.cpp:156] Memory required for data: 1207926048
I0403 18:40:05.628614 23136 layer_factory.hpp:77] Creating layer loss2/relu_conv
I0403 18:40:05.628631 23136 net.cpp:91] Creating Layer loss2/relu_conv
I0403 18:40:05.628648 23136 net.cpp:425] loss2/relu_conv <- loss2/conv
I0403 18:40:05.628666 23136 net.cpp:386] loss2/relu_conv -> loss2/conv (in-place)
I0403 18:40:05.628948 23136 net.cpp:141] Setting up loss2/relu_conv
I0403 18:40:05.628974 23136 net.cpp:148] Top shape: 24 128 4 4 (49152)
I0403 18:40:05.628989 23136 net.cpp:156] Memory required for data: 1208122656
I0403 18:40:05.629004 23136 layer_factory.hpp:77] Creating layer loss2/fc
I0403 18:40:05.629020 23136 net.cpp:91] Creating Layer loss2/fc
I0403 18:40:05.629036 23136 net.cpp:425] loss2/fc <- loss2/conv
I0403 18:40:05.629057 23136 net.cpp:399] loss2/fc -> loss2/fc
I0403 18:40:05.646253 23136 net.cpp:141] Setting up loss2/fc
I0403 18:40:05.646286 23136 net.cpp:148] Top shape: 24 1024 (24576)
I0403 18:40:05.646301 23136 net.cpp:156] Memory required for data: 1208220960
I0403 18:40:05.646317 23136 layer_factory.hpp:77] Creating layer loss2/relu_fc
I0403 18:40:05.646337 23136 net.cpp:91] Creating Layer loss2/relu_fc
I0403 18:40:05.646353 23136 net.cpp:425] loss2/relu_fc <- loss2/fc
I0403 18:40:05.646368 23136 net.cpp:386] loss2/relu_fc -> loss2/fc (in-place)
I0403 18:40:05.646654 23136 net.cpp:141] Setting up loss2/relu_fc
I0403 18:40:05.646682 23136 net.cpp:148] Top shape: 24 1024 (24576)
I0403 18:40:05.646697 23136 net.cpp:156] Memory required for data: 1208319264
I0403 18:40:05.646710 23136 layer_factory.hpp:77] Creating layer loss2/drop_fc
I0403 18:40:05.646726 23136 net.cpp:91] Creating Layer loss2/drop_fc
I0403 18:40:05.646741 23136 net.cpp:425] loss2/drop_fc <- loss2/fc
I0403 18:40:05.646757 23136 net.cpp:386] loss2/drop_fc -> loss2/fc (in-place)
I0403 18:40:05.646805 23136 net.cpp:141] Setting up loss2/drop_fc
I0403 18:40:05.646826 23136 net.cpp:148] Top shape: 24 1024 (24576)
I0403 18:40:05.646839 23136 net.cpp:156] Memory required for data: 1208417568
I0403 18:40:05.646853 23136 layer_factory.hpp:77] Creating layer loss2/classifier_plantvillage
I0403 18:40:05.646873 23136 net.cpp:91] Creating Layer loss2/classifier_plantvillage
I0403 18:40:05.646889 23136 net.cpp:425] loss2/classifier_plantvillage <- loss2/fc
I0403 18:40:05.646906 23136 net.cpp:399] loss2/classifier_plantvillage -> loss2/classifier_plantvillage
I0403 18:40:05.647287 23136 net.cpp:141] Setting up loss2/classifier_plantvillage
I0403 18:40:05.647310 23136 net.cpp:148] Top shape: 24 38 (912)
I0403 18:40:05.647339 23136 net.cpp:156] Memory required for data: 1208421216
I0403 18:40:05.647356 23136 layer_factory.hpp:77] Creating layer loss2/classifier_plantvillage_loss2/classifier_plantvillage_0_split
I0403 18:40:05.647373 23136 net.cpp:91] Creating Layer loss2/classifier_plantvillage_loss2/classifier_plantvillage_0_split
I0403 18:40:05.647387 23136 net.cpp:425] loss2/classifier_plantvillage_loss2/classifier_plantvillage_0_split <- loss2/classifier_plantvillage
I0403 18:40:05.647406 23136 net.cpp:399] loss2/classifier_plantvillage_loss2/classifier_plantvillage_0_split -> loss2/classifier_plantvillage_loss2/classifier_plantvillage_0_split_0
I0403 18:40:05.647426 23136 net.cpp:399] loss2/classifier_plantvillage_loss2/classifier_plantvillage_0_split -> loss2/classifier_plantvillage_loss2/classifier_plantvillage_0_split_1
I0403 18:40:05.647446 23136 net.cpp:399] loss2/classifier_plantvillage_loss2/classifier_plantvillage_0_split -> loss2/classifier_plantvillage_loss2/classifier_plantvillage_0_split_2
I0403 18:40:05.647519 23136 net.cpp:141] Setting up loss2/classifier_plantvillage_loss2/classifier_plantvillage_0_split
I0403 18:40:05.647547 23136 net.cpp:148] Top shape: 24 38 (912)
I0403 18:40:05.647563 23136 net.cpp:148] Top shape: 24 38 (912)
I0403 18:40:05.647578 23136 net.cpp:148] Top shape: 24 38 (912)
I0403 18:40:05.647590 23136 net.cpp:156] Memory required for data: 1208432160
I0403 18:40:05.647603 23136 layer_factory.hpp:77] Creating layer inception_4e/1x1
I0403 18:40:05.647622 23136 net.cpp:91] Creating Layer inception_4e/1x1
I0403 18:40:05.647639 23136 net.cpp:425] inception_4e/1x1 <- inception_4d/output_inception_4d/output_0_split_1
I0403 18:40:05.647655 23136 net.cpp:399] inception_4e/1x1 -> inception_4e/1x1
I0403 18:40:05.649379 23136 net.cpp:141] Setting up inception_4e/1x1
I0403 18:40:05.649405 23136 net.cpp:148] Top shape: 24 256 14 14 (1204224)
I0403 18:40:05.649420 23136 net.cpp:156] Memory required for data: 1213249056
I0403 18:40:05.649436 23136 layer_factory.hpp:77] Creating layer inception_4e/relu_1x1
I0403 18:40:05.649452 23136 net.cpp:91] Creating Layer inception_4e/relu_1x1
I0403 18:40:05.649466 23136 net.cpp:425] inception_4e/relu_1x1 <- inception_4e/1x1
I0403 18:40:05.649484 23136 net.cpp:386] inception_4e/relu_1x1 -> inception_4e/1x1 (in-place)
I0403 18:40:05.649775 23136 net.cpp:141] Setting up inception_4e/relu_1x1
I0403 18:40:05.649801 23136 net.cpp:148] Top shape: 24 256 14 14 (1204224)
I0403 18:40:05.649814 23136 net.cpp:156] Memory required for data: 1218065952
I0403 18:40:05.649828 23136 layer_factory.hpp:77] Creating layer inception_4e/3x3_reduce
I0403 18:40:05.649848 23136 net.cpp:91] Creating Layer inception_4e/3x3_reduce
I0403 18:40:05.649865 23136 net.cpp:425] inception_4e/3x3_reduce <- inception_4d/output_inception_4d/output_0_split_2
I0403 18:40:05.649885 23136 net.cpp:399] inception_4e/3x3_reduce -> inception_4e/3x3_reduce
I0403 18:40:05.651919 23136 net.cpp:141] Setting up inception_4e/3x3_reduce
I0403 18:40:05.651948 23136 net.cpp:148] Top shape: 24 160 14 14 (752640)
I0403 18:40:05.651964 23136 net.cpp:156] Memory required for data: 1221076512
I0403 18:40:05.651980 23136 layer_factory.hpp:77] Creating layer inception_4e/relu_3x3_reduce
I0403 18:40:05.651998 23136 net.cpp:91] Creating Layer inception_4e/relu_3x3_reduce
I0403 18:40:05.652012 23136 net.cpp:425] inception_4e/relu_3x3_reduce <- inception_4e/3x3_reduce
I0403 18:40:05.652030 23136 net.cpp:386] inception_4e/relu_3x3_reduce -> inception_4e/3x3_reduce (in-place)
I0403 18:40:05.652206 23136 net.cpp:141] Setting up inception_4e/relu_3x3_reduce
I0403 18:40:05.652230 23136 net.cpp:148] Top shape: 24 160 14 14 (752640)
I0403 18:40:05.652243 23136 net.cpp:156] Memory required for data: 1224087072
I0403 18:40:05.652256 23136 layer_factory.hpp:77] Creating layer inception_4e/3x3
I0403 18:40:05.652277 23136 net.cpp:91] Creating Layer inception_4e/3x3
I0403 18:40:05.652294 23136 net.cpp:425] inception_4e/3x3 <- inception_4e/3x3_reduce
I0403 18:40:05.652314 23136 net.cpp:399] inception_4e/3x3 -> inception_4e/3x3
I0403 18:40:05.657089 23136 net.cpp:141] Setting up inception_4e/3x3
I0403 18:40:05.657127 23136 net.cpp:148] Top shape: 24 320 14 14 (1505280)
I0403 18:40:05.657143 23136 net.cpp:156] Memory required for data: 1230108192
I0403 18:40:05.657160 23136 layer_factory.hpp:77] Creating layer inception_4e/relu_3x3
I0403 18:40:05.657178 23136 net.cpp:91] Creating Layer inception_4e/relu_3x3
I0403 18:40:05.657196 23136 net.cpp:425] inception_4e/relu_3x3 <- inception_4e/3x3
I0403 18:40:05.657212 23136 net.cpp:386] inception_4e/relu_3x3 -> inception_4e/3x3 (in-place)
I0403 18:40:05.657500 23136 net.cpp:141] Setting up inception_4e/relu_3x3
I0403 18:40:05.657524 23136 net.cpp:148] Top shape: 24 320 14 14 (1505280)
I0403 18:40:05.657542 23136 net.cpp:156] Memory required for data: 1236129312
I0403 18:40:05.657557 23136 layer_factory.hpp:77] Creating layer inception_4e/5x5_reduce
I0403 18:40:05.657577 23136 net.cpp:91] Creating Layer inception_4e/5x5_reduce
I0403 18:40:05.657598 23136 net.cpp:425] inception_4e/5x5_reduce <- inception_4d/output_inception_4d/output_0_split_3
I0403 18:40:05.657616 23136 net.cpp:399] inception_4e/5x5_reduce -> inception_4e/5x5_reduce
I0403 18:40:05.658645 23136 net.cpp:141] Setting up inception_4e/5x5_reduce
I0403 18:40:05.658671 23136 net.cpp:148] Top shape: 24 32 14 14 (150528)
I0403 18:40:05.658686 23136 net.cpp:156] Memory required for data: 1236731424
I0403 18:40:05.658704 23136 layer_factory.hpp:77] Creating layer inception_4e/relu_5x5_reduce
I0403 18:40:05.658720 23136 net.cpp:91] Creating Layer inception_4e/relu_5x5_reduce
I0403 18:40:05.658735 23136 net.cpp:425] inception_4e/relu_5x5_reduce <- inception_4e/5x5_reduce
I0403 18:40:05.658753 23136 net.cpp:386] inception_4e/relu_5x5_reduce -> inception_4e/5x5_reduce (in-place)
I0403 18:40:05.659037 23136 net.cpp:141] Setting up inception_4e/relu_5x5_reduce
I0403 18:40:05.659062 23136 net.cpp:148] Top shape: 24 32 14 14 (150528)
I0403 18:40:05.659076 23136 net.cpp:156] Memory required for data: 1237333536
I0403 18:40:05.659090 23136 layer_factory.hpp:77] Creating layer inception_4e/5x5
I0403 18:40:05.659127 23136 net.cpp:91] Creating Layer inception_4e/5x5
I0403 18:40:05.659144 23136 net.cpp:425] inception_4e/5x5 <- inception_4e/5x5_reduce
I0403 18:40:05.659162 23136 net.cpp:399] inception_4e/5x5 -> inception_4e/5x5
I0403 18:40:05.660912 23136 net.cpp:141] Setting up inception_4e/5x5
I0403 18:40:05.660940 23136 net.cpp:148] Top shape: 24 128 14 14 (602112)
I0403 18:40:05.660955 23136 net.cpp:156] Memory required for data: 1239741984
I0403 18:40:05.660974 23136 layer_factory.hpp:77] Creating layer inception_4e/relu_5x5
I0403 18:40:05.660990 23136 net.cpp:91] Creating Layer inception_4e/relu_5x5
I0403 18:40:05.661005 23136 net.cpp:425] inception_4e/relu_5x5 <- inception_4e/5x5
I0403 18:40:05.661021 23136 net.cpp:386] inception_4e/relu_5x5 -> inception_4e/5x5 (in-place)
I0403 18:40:05.661208 23136 net.cpp:141] Setting up inception_4e/relu_5x5
I0403 18:40:05.661231 23136 net.cpp:148] Top shape: 24 128 14 14 (602112)
I0403 18:40:05.661244 23136 net.cpp:156] Memory required for data: 1242150432
I0403 18:40:05.661260 23136 layer_factory.hpp:77] Creating layer inception_4e/pool
I0403 18:40:05.661278 23136 net.cpp:91] Creating Layer inception_4e/pool
I0403 18:40:05.661293 23136 net.cpp:425] inception_4e/pool <- inception_4d/output_inception_4d/output_0_split_4
I0403 18:40:05.661310 23136 net.cpp:399] inception_4e/pool -> inception_4e/pool
I0403 18:40:05.661376 23136 net.cpp:141] Setting up inception_4e/pool
I0403 18:40:05.661401 23136 net.cpp:148] Top shape: 24 528 14 14 (2483712)
I0403 18:40:05.661415 23136 net.cpp:156] Memory required for data: 1252085280
I0403 18:40:05.661428 23136 layer_factory.hpp:77] Creating layer inception_4e/pool_proj
I0403 18:40:05.661451 23136 net.cpp:91] Creating Layer inception_4e/pool_proj
I0403 18:40:05.661468 23136 net.cpp:425] inception_4e/pool_proj <- inception_4e/pool
I0403 18:40:05.661486 23136 net.cpp:399] inception_4e/pool_proj -> inception_4e/pool_proj
I0403 18:40:05.662924 23136 net.cpp:141] Setting up inception_4e/pool_proj
I0403 18:40:05.662962 23136 net.cpp:148] Top shape: 24 128 14 14 (602112)
I0403 18:40:05.662978 23136 net.cpp:156] Memory required for data: 1254493728
I0403 18:40:05.662995 23136 layer_factory.hpp:77] Creating layer inception_4e/relu_pool_proj
I0403 18:40:05.663012 23136 net.cpp:91] Creating Layer inception_4e/relu_pool_proj
I0403 18:40:05.663028 23136 net.cpp:425] inception_4e/relu_pool_proj <- inception_4e/pool_proj
I0403 18:40:05.663043 23136 net.cpp:386] inception_4e/relu_pool_proj -> inception_4e/pool_proj (in-place)
I0403 18:40:05.663322 23136 net.cpp:141] Setting up inception_4e/relu_pool_proj
I0403 18:40:05.663349 23136 net.cpp:148] Top shape: 24 128 14 14 (602112)
I0403 18:40:05.663365 23136 net.cpp:156] Memory required for data: 1256902176
I0403 18:40:05.663378 23136 layer_factory.hpp:77] Creating layer inception_4e/output
I0403 18:40:05.663395 23136 net.cpp:91] Creating Layer inception_4e/output
I0403 18:40:05.663409 23136 net.cpp:425] inception_4e/output <- inception_4e/1x1
I0403 18:40:05.663425 23136 net.cpp:425] inception_4e/output <- inception_4e/3x3
I0403 18:40:05.663439 23136 net.cpp:425] inception_4e/output <- inception_4e/5x5
I0403 18:40:05.663455 23136 net.cpp:425] inception_4e/output <- inception_4e/pool_proj
I0403 18:40:05.663470 23136 net.cpp:399] inception_4e/output -> inception_4e/output
I0403 18:40:05.663518 23136 net.cpp:141] Setting up inception_4e/output
I0403 18:40:05.663543 23136 net.cpp:148] Top shape: 24 832 14 14 (3913728)
I0403 18:40:05.663558 23136 net.cpp:156] Memory required for data: 1272557088
I0403 18:40:05.663573 23136 layer_factory.hpp:77] Creating layer pool4/3x3_s2
I0403 18:40:05.663590 23136 net.cpp:91] Creating Layer pool4/3x3_s2
I0403 18:40:05.663606 23136 net.cpp:425] pool4/3x3_s2 <- inception_4e/output
I0403 18:40:05.663622 23136 net.cpp:399] pool4/3x3_s2 -> pool4/3x3_s2
I0403 18:40:05.663687 23136 net.cpp:141] Setting up pool4/3x3_s2
I0403 18:40:05.663709 23136 net.cpp:148] Top shape: 24 832 7 7 (978432)
I0403 18:40:05.663723 23136 net.cpp:156] Memory required for data: 1276470816
I0403 18:40:05.663736 23136 layer_factory.hpp:77] Creating layer pool4/3x3_s2_pool4/3x3_s2_0_split
I0403 18:40:05.663753 23136 net.cpp:91] Creating Layer pool4/3x3_s2_pool4/3x3_s2_0_split
I0403 18:40:05.663768 23136 net.cpp:425] pool4/3x3_s2_pool4/3x3_s2_0_split <- pool4/3x3_s2
I0403 18:40:05.663785 23136 net.cpp:399] pool4/3x3_s2_pool4/3x3_s2_0_split -> pool4/3x3_s2_pool4/3x3_s2_0_split_0
I0403 18:40:05.663805 23136 net.cpp:399] pool4/3x3_s2_pool4/3x3_s2_0_split -> pool4/3x3_s2_pool4/3x3_s2_0_split_1
I0403 18:40:05.663823 23136 net.cpp:399] pool4/3x3_s2_pool4/3x3_s2_0_split -> pool4/3x3_s2_pool4/3x3_s2_0_split_2
I0403 18:40:05.663842 23136 net.cpp:399] pool4/3x3_s2_pool4/3x3_s2_0_split -> pool4/3x3_s2_pool4/3x3_s2_0_split_3
I0403 18:40:05.663930 23136 net.cpp:141] Setting up pool4/3x3_s2_pool4/3x3_s2_0_split
I0403 18:40:05.663951 23136 net.cpp:148] Top shape: 24 832 7 7 (978432)
I0403 18:40:05.663966 23136 net.cpp:148] Top shape: 24 832 7 7 (978432)
I0403 18:40:05.663980 23136 net.cpp:148] Top shape: 24 832 7 7 (978432)
I0403 18:40:05.663993 23136 net.cpp:148] Top shape: 24 832 7 7 (978432)
I0403 18:40:05.664006 23136 net.cpp:156] Memory required for data: 1292125728
I0403 18:40:05.664019 23136 layer_factory.hpp:77] Creating layer inception_5a/1x1
I0403 18:40:05.664041 23136 net.cpp:91] Creating Layer inception_5a/1x1
I0403 18:40:05.664058 23136 net.cpp:425] inception_5a/1x1 <- pool4/3x3_s2_pool4/3x3_s2_0_split_0
I0403 18:40:05.664075 23136 net.cpp:399] inception_5a/1x1 -> inception_5a/1x1
I0403 18:40:05.666800 23136 net.cpp:141] Setting up inception_5a/1x1
I0403 18:40:05.666831 23136 net.cpp:148] Top shape: 24 256 7 7 (301056)
I0403 18:40:05.666846 23136 net.cpp:156] Memory required for data: 1293329952
I0403 18:40:05.666863 23136 layer_factory.hpp:77] Creating layer inception_5a/relu_1x1
I0403 18:40:05.666880 23136 net.cpp:91] Creating Layer inception_5a/relu_1x1
I0403 18:40:05.666895 23136 net.cpp:425] inception_5a/relu_1x1 <- inception_5a/1x1
I0403 18:40:05.666918 23136 net.cpp:386] inception_5a/relu_1x1 -> inception_5a/1x1 (in-place)
I0403 18:40:05.667213 23136 net.cpp:141] Setting up inception_5a/relu_1x1
I0403 18:40:05.667240 23136 net.cpp:148] Top shape: 24 256 7 7 (301056)
I0403 18:40:05.667256 23136 net.cpp:156] Memory required for data: 1294534176
I0403 18:40:05.667270 23136 layer_factory.hpp:77] Creating layer inception_5a/3x3_reduce
I0403 18:40:05.667290 23136 net.cpp:91] Creating Layer inception_5a/3x3_reduce
I0403 18:40:05.667306 23136 net.cpp:425] inception_5a/3x3_reduce <- pool4/3x3_s2_pool4/3x3_s2_0_split_1
I0403 18:40:05.667325 23136 net.cpp:399] inception_5a/3x3_reduce -> inception_5a/3x3_reduce
I0403 18:40:05.669690 23136 net.cpp:141] Setting up inception_5a/3x3_reduce
I0403 18:40:05.669718 23136 net.cpp:148] Top shape: 24 160 7 7 (188160)
I0403 18:40:05.669733 23136 net.cpp:156] Memory required for data: 1295286816
I0403 18:40:05.669749 23136 layer_factory.hpp:77] Creating layer inception_5a/relu_3x3_reduce
I0403 18:40:05.669767 23136 net.cpp:91] Creating Layer inception_5a/relu_3x3_reduce
I0403 18:40:05.669783 23136 net.cpp:425] inception_5a/relu_3x3_reduce <- inception_5a/3x3_reduce
I0403 18:40:05.669800 23136 net.cpp:386] inception_5a/relu_3x3_reduce -> inception_5a/3x3_reduce (in-place)
I0403 18:40:05.669983 23136 net.cpp:141] Setting up inception_5a/relu_3x3_reduce
I0403 18:40:05.670009 23136 net.cpp:148] Top shape: 24 160 7 7 (188160)
I0403 18:40:05.670023 23136 net.cpp:156] Memory required for data: 1296039456
I0403 18:40:05.670037 23136 layer_factory.hpp:77] Creating layer inception_5a/3x3
I0403 18:40:05.670058 23136 net.cpp:91] Creating Layer inception_5a/3x3
I0403 18:40:05.670075 23136 net.cpp:425] inception_5a/3x3 <- inception_5a/3x3_reduce
I0403 18:40:05.670092 23136 net.cpp:399] inception_5a/3x3 -> inception_5a/3x3
I0403 18:40:05.674931 23136 net.cpp:141] Setting up inception_5a/3x3
I0403 18:40:05.674960 23136 net.cpp:148] Top shape: 24 320 7 7 (376320)
I0403 18:40:05.674976 23136 net.cpp:156] Memory required for data: 1297544736
I0403 18:40:05.674993 23136 layer_factory.hpp:77] Creating layer inception_5a/relu_3x3
I0403 18:40:05.675010 23136 net.cpp:91] Creating Layer inception_5a/relu_3x3
I0403 18:40:05.675025 23136 net.cpp:425] inception_5a/relu_3x3 <- inception_5a/3x3
I0403 18:40:05.675041 23136 net.cpp:386] inception_5a/relu_3x3 -> inception_5a/3x3 (in-place)
I0403 18:40:05.675323 23136 net.cpp:141] Setting up inception_5a/relu_3x3
I0403 18:40:05.675354 23136 net.cpp:148] Top shape: 24 320 7 7 (376320)
I0403 18:40:05.675369 23136 net.cpp:156] Memory required for data: 1299050016
I0403 18:40:05.675384 23136 layer_factory.hpp:77] Creating layer inception_5a/5x5_reduce
I0403 18:40:05.675403 23136 net.cpp:91] Creating Layer inception_5a/5x5_reduce
I0403 18:40:05.675420 23136 net.cpp:425] inception_5a/5x5_reduce <- pool4/3x3_s2_pool4/3x3_s2_0_split_2
I0403 18:40:05.675437 23136 net.cpp:399] inception_5a/5x5_reduce -> inception_5a/5x5_reduce
I0403 18:40:05.676560 23136 net.cpp:141] Setting up inception_5a/5x5_reduce
I0403 18:40:05.676589 23136 net.cpp:148] Top shape: 24 32 7 7 (37632)
I0403 18:40:05.676605 23136 net.cpp:156] Memory required for data: 1299200544
I0403 18:40:05.676622 23136 layer_factory.hpp:77] Creating layer inception_5a/relu_5x5_reduce
I0403 18:40:05.676640 23136 net.cpp:91] Creating Layer inception_5a/relu_5x5_reduce
I0403 18:40:05.676656 23136 net.cpp:425] inception_5a/relu_5x5_reduce <- inception_5a/5x5_reduce
I0403 18:40:05.676673 23136 net.cpp:386] inception_5a/relu_5x5_reduce -> inception_5a/5x5_reduce (in-place)
I0403 18:40:05.676959 23136 net.cpp:141] Setting up inception_5a/relu_5x5_reduce
I0403 18:40:05.676982 23136 net.cpp:148] Top shape: 24 32 7 7 (37632)
I0403 18:40:05.676996 23136 net.cpp:156] Memory required for data: 1299351072
I0403 18:40:05.677011 23136 layer_factory.hpp:77] Creating layer inception_5a/5x5
I0403 18:40:05.677031 23136 net.cpp:91] Creating Layer inception_5a/5x5
I0403 18:40:05.677048 23136 net.cpp:425] inception_5a/5x5 <- inception_5a/5x5_reduce
I0403 18:40:05.677067 23136 net.cpp:399] inception_5a/5x5 -> inception_5a/5x5
I0403 18:40:05.678715 23136 net.cpp:141] Setting up inception_5a/5x5
I0403 18:40:05.678755 23136 net.cpp:148] Top shape: 24 128 7 7 (150528)
I0403 18:40:05.678772 23136 net.cpp:156] Memory required for data: 1299953184
I0403 18:40:05.678789 23136 layer_factory.hpp:77] Creating layer inception_5a/relu_5x5
I0403 18:40:05.678805 23136 net.cpp:91] Creating Layer inception_5a/relu_5x5
I0403 18:40:05.678820 23136 net.cpp:425] inception_5a/relu_5x5 <- inception_5a/5x5
I0403 18:40:05.678836 23136 net.cpp:386] inception_5a/relu_5x5 -> inception_5a/5x5 (in-place)
I0403 18:40:05.679021 23136 net.cpp:141] Setting up inception_5a/relu_5x5
I0403 18:40:05.679045 23136 net.cpp:148] Top shape: 24 128 7 7 (150528)
I0403 18:40:05.679059 23136 net.cpp:156] Memory required for data: 1300555296
I0403 18:40:05.679071 23136 layer_factory.hpp:77] Creating layer inception_5a/pool
I0403 18:40:05.679087 23136 net.cpp:91] Creating Layer inception_5a/pool
I0403 18:40:05.679102 23136 net.cpp:425] inception_5a/pool <- pool4/3x3_s2_pool4/3x3_s2_0_split_3
I0403 18:40:05.679124 23136 net.cpp:399] inception_5a/pool -> inception_5a/pool
I0403 18:40:05.679190 23136 net.cpp:141] Setting up inception_5a/pool
I0403 18:40:05.679214 23136 net.cpp:148] Top shape: 24 832 7 7 (978432)
I0403 18:40:05.679229 23136 net.cpp:156] Memory required for data: 1304469024
I0403 18:40:05.679240 23136 layer_factory.hpp:77] Creating layer inception_5a/pool_proj
I0403 18:40:05.679260 23136 net.cpp:91] Creating Layer inception_5a/pool_proj
I0403 18:40:05.679277 23136 net.cpp:425] inception_5a/pool_proj <- inception_5a/pool
I0403 18:40:05.679294 23136 net.cpp:399] inception_5a/pool_proj -> inception_5a/pool_proj
I0403 18:40:05.681473 23136 net.cpp:141] Setting up inception_5a/pool_proj
I0403 18:40:05.681500 23136 net.cpp:148] Top shape: 24 128 7 7 (150528)
I0403 18:40:05.681515 23136 net.cpp:156] Memory required for data: 1305071136
I0403 18:40:05.681532 23136 layer_factory.hpp:77] Creating layer inception_5a/relu_pool_proj
I0403 18:40:05.681556 23136 net.cpp:91] Creating Layer inception_5a/relu_pool_proj
I0403 18:40:05.681573 23136 net.cpp:425] inception_5a/relu_pool_proj <- inception_5a/pool_proj
I0403 18:40:05.681591 23136 net.cpp:386] inception_5a/relu_pool_proj -> inception_5a/pool_proj (in-place)
I0403 18:40:05.681871 23136 net.cpp:141] Setting up inception_5a/relu_pool_proj
I0403 18:40:05.681895 23136 net.cpp:148] Top shape: 24 128 7 7 (150528)
I0403 18:40:05.681910 23136 net.cpp:156] Memory required for data: 1305673248
I0403 18:40:05.681923 23136 layer_factory.hpp:77] Creating layer inception_5a/output
I0403 18:40:05.681941 23136 net.cpp:91] Creating Layer inception_5a/output
I0403 18:40:05.681957 23136 net.cpp:425] inception_5a/output <- inception_5a/1x1
I0403 18:40:05.681972 23136 net.cpp:425] inception_5a/output <- inception_5a/3x3
I0403 18:40:05.681999 23136 net.cpp:425] inception_5a/output <- inception_5a/5x5
I0403 18:40:05.682014 23136 net.cpp:425] inception_5a/output <- inception_5a/pool_proj
I0403 18:40:05.682031 23136 net.cpp:399] inception_5a/output -> inception_5a/output
I0403 18:40:05.682081 23136 net.cpp:141] Setting up inception_5a/output
I0403 18:40:05.682104 23136 net.cpp:148] Top shape: 24 832 7 7 (978432)
I0403 18:40:05.682118 23136 net.cpp:156] Memory required for data: 1309586976
I0403 18:40:05.682132 23136 layer_factory.hpp:77] Creating layer inception_5a/output_inception_5a/output_0_split
I0403 18:40:05.682147 23136 net.cpp:91] Creating Layer inception_5a/output_inception_5a/output_0_split
I0403 18:40:05.682163 23136 net.cpp:425] inception_5a/output_inception_5a/output_0_split <- inception_5a/output
I0403 18:40:05.682183 23136 net.cpp:399] inception_5a/output_inception_5a/output_0_split -> inception_5a/output_inception_5a/output_0_split_0
I0403 18:40:05.682204 23136 net.cpp:399] inception_5a/output_inception_5a/output_0_split -> inception_5a/output_inception_5a/output_0_split_1
I0403 18:40:05.682224 23136 net.cpp:399] inception_5a/output_inception_5a/output_0_split -> inception_5a/output_inception_5a/output_0_split_2
I0403 18:40:05.682243 23136 net.cpp:399] inception_5a/output_inception_5a/output_0_split -> inception_5a/output_inception_5a/output_0_split_3
I0403 18:40:05.682355 23136 net.cpp:141] Setting up inception_5a/output_inception_5a/output_0_split
I0403 18:40:05.682380 23136 net.cpp:148] Top shape: 24 832 7 7 (978432)
I0403 18:40:05.682396 23136 net.cpp:148] Top shape: 24 832 7 7 (978432)
I0403 18:40:05.682411 23136 net.cpp:148] Top shape: 24 832 7 7 (978432)
I0403 18:40:05.682425 23136 net.cpp:148] Top shape: 24 832 7 7 (978432)
I0403 18:40:05.682438 23136 net.cpp:156] Memory required for data: 1325241888
I0403 18:40:05.682452 23136 layer_factory.hpp:77] Creating layer inception_5b/1x1
I0403 18:40:05.682488 23136 net.cpp:91] Creating Layer inception_5b/1x1
I0403 18:40:05.682505 23136 net.cpp:425] inception_5b/1x1 <- inception_5a/output_inception_5a/output_0_split_0
I0403 18:40:05.682526 23136 net.cpp:399] inception_5b/1x1 -> inception_5b/1x1
I0403 18:40:05.686285 23136 net.cpp:141] Setting up inception_5b/1x1
I0403 18:40:05.686313 23136 net.cpp:148] Top shape: 24 384 7 7 (451584)
I0403 18:40:05.686328 23136 net.cpp:156] Memory required for data: 1327048224
I0403 18:40:05.686347 23136 layer_factory.hpp:77] Creating layer inception_5b/relu_1x1
I0403 18:40:05.686365 23136 net.cpp:91] Creating Layer inception_5b/relu_1x1
I0403 18:40:05.686383 23136 net.cpp:425] inception_5b/relu_1x1 <- inception_5b/1x1
I0403 18:40:05.686399 23136 net.cpp:386] inception_5b/relu_1x1 -> inception_5b/1x1 (in-place)
I0403 18:40:05.686707 23136 net.cpp:141] Setting up inception_5b/relu_1x1
I0403 18:40:05.686733 23136 net.cpp:148] Top shape: 24 384 7 7 (451584)
I0403 18:40:05.686748 23136 net.cpp:156] Memory required for data: 1328854560
I0403 18:40:05.686761 23136 layer_factory.hpp:77] Creating layer inception_5b/3x3_reduce
I0403 18:40:05.686782 23136 net.cpp:91] Creating Layer inception_5b/3x3_reduce
I0403 18:40:05.686800 23136 net.cpp:425] inception_5b/3x3_reduce <- inception_5a/output_inception_5a/output_0_split_1
I0403 18:40:05.686820 23136 net.cpp:399] inception_5b/3x3_reduce -> inception_5b/3x3_reduce
I0403 18:40:05.689435 23136 net.cpp:141] Setting up inception_5b/3x3_reduce
I0403 18:40:05.689463 23136 net.cpp:148] Top shape: 24 192 7 7 (225792)
I0403 18:40:05.689478 23136 net.cpp:156] Memory required for data: 1329757728
I0403 18:40:05.689496 23136 layer_factory.hpp:77] Creating layer inception_5b/relu_3x3_reduce
I0403 18:40:05.689517 23136 net.cpp:91] Creating Layer inception_5b/relu_3x3_reduce
I0403 18:40:05.689533 23136 net.cpp:425] inception_5b/relu_3x3_reduce <- inception_5b/3x3_reduce
I0403 18:40:05.689555 23136 net.cpp:386] inception_5b/relu_3x3_reduce -> inception_5b/3x3_reduce (in-place)
I0403 18:40:05.689748 23136 net.cpp:141] Setting up inception_5b/relu_3x3_reduce
I0403 18:40:05.689774 23136 net.cpp:148] Top shape: 24 192 7 7 (225792)
I0403 18:40:05.689787 23136 net.cpp:156] Memory required for data: 1330660896
I0403 18:40:05.689800 23136 layer_factory.hpp:77] Creating layer inception_5b/3x3
I0403 18:40:05.689821 23136 net.cpp:91] Creating Layer inception_5b/3x3
I0403 18:40:05.689838 23136 net.cpp:425] inception_5b/3x3 <- inception_5b/3x3_reduce
I0403 18:40:05.689859 23136 net.cpp:399] inception_5b/3x3 -> inception_5b/3x3
I0403 18:40:05.696456 23136 net.cpp:141] Setting up inception_5b/3x3
I0403 18:40:05.696485 23136 net.cpp:148] Top shape: 24 384 7 7 (451584)
I0403 18:40:05.696499 23136 net.cpp:156] Memory required for data: 1332467232
I0403 18:40:05.696517 23136 layer_factory.hpp:77] Creating layer inception_5b/relu_3x3
I0403 18:40:05.696540 23136 net.cpp:91] Creating Layer inception_5b/relu_3x3
I0403 18:40:05.696558 23136 net.cpp:425] inception_5b/relu_3x3 <- inception_5b/3x3
I0403 18:40:05.696574 23136 net.cpp:386] inception_5b/relu_3x3 -> inception_5b/3x3 (in-place)
I0403 18:40:05.696872 23136 net.cpp:141] Setting up inception_5b/relu_3x3
I0403 18:40:05.696897 23136 net.cpp:148] Top shape: 24 384 7 7 (451584)
I0403 18:40:05.696912 23136 net.cpp:156] Memory required for data: 1334273568
I0403 18:40:05.696925 23136 layer_factory.hpp:77] Creating layer inception_5b/5x5_reduce
I0403 18:40:05.696964 23136 net.cpp:91] Creating Layer inception_5b/5x5_reduce
I0403 18:40:05.696984 23136 net.cpp:425] inception_5b/5x5_reduce <- inception_5a/output_inception_5a/output_0_split_2
I0403 18:40:05.697001 23136 net.cpp:399] inception_5b/5x5_reduce -> inception_5b/5x5_reduce
I0403 18:40:05.698258 23136 net.cpp:141] Setting up inception_5b/5x5_reduce
I0403 18:40:05.698287 23136 net.cpp:148] Top shape: 24 48 7 7 (56448)
I0403 18:40:05.698303 23136 net.cpp:156] Memory required for data: 1334499360
I0403 18:40:05.698320 23136 layer_factory.hpp:77] Creating layer inception_5b/relu_5x5_reduce
I0403 18:40:05.698338 23136 net.cpp:91] Creating Layer inception_5b/relu_5x5_reduce
I0403 18:40:05.698354 23136 net.cpp:425] inception_5b/relu_5x5_reduce <- inception_5b/5x5_reduce
I0403 18:40:05.698369 23136 net.cpp:386] inception_5b/relu_5x5_reduce -> inception_5b/5x5_reduce (in-place)
I0403 18:40:05.698752 23136 net.cpp:141] Setting up inception_5b/relu_5x5_reduce
I0403 18:40:05.698777 23136 net.cpp:148] Top shape: 24 48 7 7 (56448)
I0403 18:40:05.698793 23136 net.cpp:156] Memory required for data: 1334725152
I0403 18:40:05.698807 23136 layer_factory.hpp:77] Creating layer inception_5b/5x5
I0403 18:40:05.698827 23136 net.cpp:91] Creating Layer inception_5b/5x5
I0403 18:40:05.698843 23136 net.cpp:425] inception_5b/5x5 <- inception_5b/5x5_reduce
I0403 18:40:05.698860 23136 net.cpp:399] inception_5b/5x5 -> inception_5b/5x5
I0403 18:40:05.700904 23136 net.cpp:141] Setting up inception_5b/5x5
I0403 18:40:05.700933 23136 net.cpp:148] Top shape: 24 128 7 7 (150528)
I0403 18:40:05.700949 23136 net.cpp:156] Memory required for data: 1335327264
I0403 18:40:05.700965 23136 layer_factory.hpp:77] Creating layer inception_5b/relu_5x5
I0403 18:40:05.700983 23136 net.cpp:91] Creating Layer inception_5b/relu_5x5
I0403 18:40:05.700997 23136 net.cpp:425] inception_5b/relu_5x5 <- inception_5b/5x5
I0403 18:40:05.701015 23136 net.cpp:386] inception_5b/relu_5x5 -> inception_5b/5x5 (in-place)
I0403 18:40:05.701202 23136 net.cpp:141] Setting up inception_5b/relu_5x5
I0403 18:40:05.701225 23136 net.cpp:148] Top shape: 24 128 7 7 (150528)
I0403 18:40:05.701238 23136 net.cpp:156] Memory required for data: 1335929376
I0403 18:40:05.701251 23136 layer_factory.hpp:77] Creating layer inception_5b/pool
I0403 18:40:05.701268 23136 net.cpp:91] Creating Layer inception_5b/pool
I0403 18:40:05.701283 23136 net.cpp:425] inception_5b/pool <- inception_5a/output_inception_5a/output_0_split_3
I0403 18:40:05.701303 23136 net.cpp:399] inception_5b/pool -> inception_5b/pool
I0403 18:40:05.701375 23136 net.cpp:141] Setting up inception_5b/pool
I0403 18:40:05.701397 23136 net.cpp:148] Top shape: 24 832 7 7 (978432)
I0403 18:40:05.701411 23136 net.cpp:156] Memory required for data: 1339843104
I0403 18:40:05.701423 23136 layer_factory.hpp:77] Creating layer inception_5b/pool_proj
I0403 18:40:05.701445 23136 net.cpp:91] Creating Layer inception_5b/pool_proj
I0403 18:40:05.701462 23136 net.cpp:425] inception_5b/pool_proj <- inception_5b/pool
I0403 18:40:05.701479 23136 net.cpp:399] inception_5b/pool_proj -> inception_5b/pool_proj
I0403 18:40:05.703742 23136 net.cpp:141] Setting up inception_5b/pool_proj
I0403 18:40:05.703771 23136 net.cpp:148] Top shape: 24 128 7 7 (150528)
I0403 18:40:05.703788 23136 net.cpp:156] Memory required for data: 1340445216
I0403 18:40:05.703804 23136 layer_factory.hpp:77] Creating layer inception_5b/relu_pool_proj
I0403 18:40:05.703821 23136 net.cpp:91] Creating Layer inception_5b/relu_pool_proj
I0403 18:40:05.703836 23136 net.cpp:425] inception_5b/relu_pool_proj <- inception_5b/pool_proj
I0403 18:40:05.703852 23136 net.cpp:386] inception_5b/relu_pool_proj -> inception_5b/pool_proj (in-place)
I0403 18:40:05.704138 23136 net.cpp:141] Setting up inception_5b/relu_pool_proj
I0403 18:40:05.704165 23136 net.cpp:148] Top shape: 24 128 7 7 (150528)
I0403 18:40:05.704180 23136 net.cpp:156] Memory required for data: 1341047328
I0403 18:40:05.704195 23136 layer_factory.hpp:77] Creating layer inception_5b/output
I0403 18:40:05.704210 23136 net.cpp:91] Creating Layer inception_5b/output
I0403 18:40:05.704238 23136 net.cpp:425] inception_5b/output <- inception_5b/1x1
I0403 18:40:05.704254 23136 net.cpp:425] inception_5b/output <- inception_5b/3x3
I0403 18:40:05.704272 23136 net.cpp:425] inception_5b/output <- inception_5b/5x5
I0403 18:40:05.704287 23136 net.cpp:425] inception_5b/output <- inception_5b/pool_proj
I0403 18:40:05.704303 23136 net.cpp:399] inception_5b/output -> inception_5b/output
I0403 18:40:05.704352 23136 net.cpp:141] Setting up inception_5b/output
I0403 18:40:05.704375 23136 net.cpp:148] Top shape: 24 1024 7 7 (1204224)
I0403 18:40:05.704387 23136 net.cpp:156] Memory required for data: 1345864224
I0403 18:40:05.704401 23136 layer_factory.hpp:77] Creating layer pool5/7x7_s1
I0403 18:40:05.704417 23136 net.cpp:91] Creating Layer pool5/7x7_s1
I0403 18:40:05.704433 23136 net.cpp:425] pool5/7x7_s1 <- inception_5b/output
I0403 18:40:05.704450 23136 net.cpp:399] pool5/7x7_s1 -> pool5/7x7_s1
I0403 18:40:05.704673 23136 net.cpp:141] Setting up pool5/7x7_s1
I0403 18:40:05.704699 23136 net.cpp:148] Top shape: 24 1024 1 1 (24576)
I0403 18:40:05.704713 23136 net.cpp:156] Memory required for data: 1345962528
I0403 18:40:05.704727 23136 layer_factory.hpp:77] Creating layer pool5/drop_7x7_s1
I0403 18:40:05.704743 23136 net.cpp:91] Creating Layer pool5/drop_7x7_s1
I0403 18:40:05.704758 23136 net.cpp:425] pool5/drop_7x7_s1 <- pool5/7x7_s1
I0403 18:40:05.704774 23136 net.cpp:386] pool5/drop_7x7_s1 -> pool5/7x7_s1 (in-place)
I0403 18:40:05.704823 23136 net.cpp:141] Setting up pool5/drop_7x7_s1
I0403 18:40:05.704844 23136 net.cpp:148] Top shape: 24 1024 1 1 (24576)
I0403 18:40:05.704859 23136 net.cpp:156] Memory required for data: 1346060832
I0403 18:40:05.704871 23136 layer_factory.hpp:77] Creating layer loss3/classifier_plantvillage
I0403 18:40:05.704890 23136 net.cpp:91] Creating Layer loss3/classifier_plantvillage
I0403 18:40:05.704906 23136 net.cpp:425] loss3/classifier_plantvillage <- pool5/7x7_s1
I0403 18:40:05.704923 23136 net.cpp:399] loss3/classifier_plantvillage -> loss3/classifier_plantvillage
I0403 18:40:05.705323 23136 net.cpp:141] Setting up loss3/classifier_plantvillage
I0403 18:40:05.705346 23136 net.cpp:148] Top shape: 24 38 (912)
I0403 18:40:05.705359 23136 net.cpp:156] Memory required for data: 1346064480
I0403 18:40:05.705375 23136 layer_factory.hpp:77] Creating layer loss3/classifier_plantvillage_loss3/classifier_plantvillage_0_split
I0403 18:40:05.705392 23136 net.cpp:91] Creating Layer loss3/classifier_plantvillage_loss3/classifier_plantvillage_0_split
I0403 18:40:05.705406 23136 net.cpp:425] loss3/classifier_plantvillage_loss3/classifier_plantvillage_0_split <- loss3/classifier_plantvillage
I0403 18:40:05.705425 23136 net.cpp:399] loss3/classifier_plantvillage_loss3/classifier_plantvillage_0_split -> loss3/classifier_plantvillage_loss3/classifier_plantvillage_0_split_0
I0403 18:40:05.705446 23136 net.cpp:399] loss3/classifier_plantvillage_loss3/classifier_plantvillage_0_split -> loss3/classifier_plantvillage_loss3/classifier_plantvillage_0_split_1
I0403 18:40:05.705466 23136 net.cpp:399] loss3/classifier_plantvillage_loss3/classifier_plantvillage_0_split -> loss3/classifier_plantvillage_loss3/classifier_plantvillage_0_split_2
I0403 18:40:05.705484 23136 net.cpp:399] loss3/classifier_plantvillage_loss3/classifier_plantvillage_0_split -> loss3/classifier_plantvillage_loss3/classifier_plantvillage_0_split_3
I0403 18:40:05.705590 23136 net.cpp:141] Setting up loss3/classifier_plantvillage_loss3/classifier_plantvillage_0_split
I0403 18:40:05.705612 23136 net.cpp:148] Top shape: 24 38 (912)
I0403 18:40:05.705626 23136 net.cpp:148] Top shape: 24 38 (912)
I0403 18:40:05.705639 23136 net.cpp:148] Top shape: 24 38 (912)
I0403 18:40:05.705653 23136 net.cpp:148] Top shape: 24 38 (912)
I0403 18:40:05.705667 23136 net.cpp:156] Memory required for data: 1346079072
I0403 18:40:05.705678 23136 layer_factory.hpp:77] Creating layer loss1/loss
I0403 18:40:05.705698 23136 net.cpp:91] Creating Layer loss1/loss
I0403 18:40:05.705713 23136 net.cpp:425] loss1/loss <- loss1/classifier_plantvillage_loss1/classifier_plantvillage_0_split_0
I0403 18:40:05.705742 23136 net.cpp:425] loss1/loss <- label_data_1_split_0
…
