…
I0403 18:11:20.746824 21641 net.cpp:313] The NetState phase (1) differed from the phase (0) specified by a rule in layer data
I0403 18:11:20.747910 21641 net.cpp:49] Initializing net from parameters: 
state {
  phase: TEST
}
layer {
  name: "data"
  type: "Data"
  top: "data"
  top: "label"
  include {
    phase: TEST
  }
  transform_param {
    mirror: false
    crop_size: 224
    mean_file: "/home/mohanty/data/final_dataset/lmdb/segmented-40-60/mean.binaryproto"
  }
  data_param {
    source: "/home/mohanty/data/final_dataset/lmdb/segmented-40-60/test_db"
    batch_size: 24
    backend: LMDB
  }
}
layer {
  name: "conv1/7x7_s2"
  type: "Convolution"
  bottom: "data"
  top: "conv1/7x7_s2"
  param {
    lr_mult: 1
    decay_mult: 1
  }
  param {
    lr_mult: 2
    decay_mult: 0
  }
  convolution_param {
    num_output: 64
    pad: 3
    kernel_size: 7
    stride: 2
    weight_filler {
      type: "xavier"
      std: 0.1
    }
    bias_filler {
      type: "constant"
      value: 0.2
    }
  }
}
layer {
  name: "conv1/relu_7x7"
  type: "ReLU"
  bottom: "conv1/7x7_s2"
  top: "conv1/7x7_s2"
}
layer {
  name: "pool1/3x3_s2"
  type: "Pooling"
  bottom: "conv1/7x7_s2"
  top: "pool1/3x3_s2"
  pooling_param {
    pool: MAX
    kernel_size: 3
    stride: 2
  }
}
layer {
  name: "pool1/norm1"
  type: "LRN"
  bottom: "pool1/3x3_s2"
  top: "pool1/norm1"
  lrn_param {
    local_size: 5
    alpha: 0.0001
    beta: 0.75
  }
}
layer {
  name: "conv2/3x3_reduce"
  type: "Convolution"
  bottom: "pool1/norm1"
  top: "conv2/3x3_reduce"
  param {
    lr_mult: 1
    decay_mult: 1
  }
  param {
    lr_mult: 2
    decay_mult: 0
  }
  convolution_param {
    num_output: 64
    kernel_size: 1
    weight_filler {
      type: "xavier"
      std: 0.1
    }
    bias_filler {
      type: "constant"
      value: 0.2
    }
  }
}
layer {
  name: "conv2/relu_3x3_reduce"
  type: "ReLU"
  bottom: "conv2/3x3_reduce"
  top: "conv2/3x3_reduce"
}
layer {
  name: "conv2/3x3"
  type: "Convolution"
  bottom: "conv2/3x3_reduce"
  top: "conv2/3x3"
  param {
    lr_mult: 1
    decay_mult: 1
  }
  param {
    lr_mult: 2
    decay_mult: 0
  }
  convolution_param {
    num_output: 192
    pad: 1
    kernel_size: 3
    weight_filler {
      type: "xavier"
      std: 0.03
    }
    bias_filler {
      type: "constant"
      value: 0.2
    }
  }
}
layer {
  name: "conv2/relu_3x3"
  type: "ReLU"
  bottom: "conv2/3x3"
  top: "conv2/3x3"
}
layer {
  name: "conv2/norm2"
  type: "LRN"
  bottom: "conv2/3x3"
  top: "conv2/norm2"
  lrn_param {
    local_size: 5
    alpha: 0.0001
    beta: 0.75
  }
}
layer {
  name: "pool2/3x3_s2"
  type: "Pooling"
  bottom: "conv2/norm2"
  top: "pool2/3x3_s2"
  pooling_param {
    pool: MAX
    kernel_size: 3
    stride: 2
  }
}
layer {
  name: "inception_3a/1x1"
  type: "Convolution"
  bottom: "pool2/3x3_s2"
  top: "inception_3a/1x1"
  param {
    lr_mult: 1
    decay_mult: 1
  }
  param {
    lr_mult: 2
    decay_mult: 0
  }
  convolution_param {
    num_output: 64
    kernel_size: 1
    weight_filler {
      type: "xavier"
      std: 0.03
    }
    bias_filler {
      type: "constant"
      value: 0.2
    }
  }
}
layer {
  name: "inception_3a/relu_1x1"
  type: "ReLU"
  bottom: "inception_3a/1x1"
  top: "inception_3a/1x1"
}
layer {
  name: "inception_3a/3x3_reduce"
  type: "Convolution"
  bottom: "pool2/3x3_s2"
  top: "inception_3a/3x3_reduce"
  param {
    lr_mult: 1
    decay_mult: 1
  }
  param {
    lr_mult: 2
    decay_mult: 0
  }
  convolution_param {
    num_output: 96
    kernel_size: 1
    weight_filler {
      type: "xavier"
      std: 0.09
    }
    bias_filler {
      type: "constant"
      value: 0.2
    }
  }
}
layer {
  name: "inception_3a/relu_3x3_reduce"
  type: "ReLU"
  bottom: "inception_3a/3x3_reduce"
  top: "inception_3a/3x3_reduce"
}
layer {
  name: "inception_3a/3x3"
  type: "Convolution"
  bottom: "inception_3a/3x3_reduce"
  top: "inception_3a/3x3"
  param {
    lr_mult: 1
    decay_mult: 1
  }
  param {
    lr_mult: 2
    decay_mult: 0
  }
  convolution_param {
    num_output: 128
    pad: 1
    kernel_size: 3
    weight_filler {
      type: "xavier"
      std: 0.03
    }
    bias_filler {
      type: "constant"
      value: 0.2
    }
  }
}
layer {
  name: "inception_3a/relu_3x3"
  type: "ReLU"
  bottom: "inception_3a/3x3"
  top: "inception_3a/3x3"
}
layer {
  name: "inception_3a/5x5_reduce"
  type: "Convolution"
  bottom: "pool2/3x3_s2"
  top: "inception_3a/5x5_reduce"
  param {
    lr_mult: 1
    decay_mult: 1
  }
  param {
    lr_mult: 2
    decay_mult: 0
  }
  convolution_param {
    num_output: 16
    kernel_size: 1
    weight_filler {
      type: "xavier"
      std: 0.2
    }
    bias_filler {
      type: "constant"
      value: 0.2
    }
  }
}
layer {
  name: "inception_3a/relu_5x5_reduce"
  type: "ReLU"
  bottom: "inception_3a/5x5_reduce"
  top: "inception_3a/5x5_reduce"
}
layer {
  name: "inception_3a/5x5"
  type: "Convolution"
  bottom: "inception_3a/5x5_reduce"
  top: "inception_3a/5x5"
  param {
    lr_mult: 1
    decay_mult: 1
  }
  param {
    lr_mult: 2
    decay_mult: 0
  }
  convolution_param {
    num_output: 32
    pad: 2
    kernel_size: 5
    weight_filler {
      type: "xavier"
      std: 0.03
    }
    bias_filler {
      type: "constant"
      value: 0.2
    }
  }
}
layer {
  name: "inception_3a/relu_5x5"
  type: "ReLU"
  bottom: "inception_3a/5x5"
  top: "inception_3a/5x5"
}
layer {
  name: "inception_3a/pool"
  type: "Pooling"
  bottom: "pool2/3x3_s2"
  top: "inception_3a/pool"
  pooling_param {
    pool: MAX
    kernel_size: 3
    stride: 1
    pad: 1
  }
}
layer {
  name: "inception_3a/pool_proj"
  type: "Convolution"
  bottom: "inception_3a/pool"
  top: "inception_3a/pool_proj"
  param {
    lr_mult: 1
    decay_mult: 1
  }
  param {
    lr_mult: 2
    decay_mult: 0
  }
  convolution_param {
    num_output: 32
    kernel_size: 1
    weight_filler {
      type: "xavier"
      std: 0.1
    }
    bias_filler {
      type: "constant"
      value: 0.2
    }
  }
}
layer {
  name: "inception_3a/relu_pool_proj"
  type: "ReLU"
  bottom: "inception_3a/pool_proj"
  top: "inception_3a/pool_proj"
}
layer {
  name: "inception_3a/output"
  type: "Concat"
  bottom: "inception_3a/1x1"
  bottom: "inception_3a/3x3"
  bottom: "inception_3a/5x5"
  bottom: "inception_3a/pool_proj"
  top: "inception_3a/output"
}
layer {
  name: "inception_3b/1x1"
  type: "Convolution"
  bottom: "inception_3a/output"
  top: "inception_3b/1x1"
  param {
    lr_mult: 1
    decay_mult: 1
  }
  param {
    lr_mult: 2
    decay_mult: 0
  }
  convolution_param {
    num_output: 128
    kernel_size: 1
    weight_filler {
      type: "xavier"
      std: 0.03
    }
    bias_filler {
      type: "constant"
      value: 0.2
    }
  }
}
layer {
  name: "inception_3b/relu_1x1"
  type: "ReLU"
  bottom: "inception_3b/1x1"
  top: "inception_3b/1x1"
}
layer {
  name: "inception_3b/3x3_reduce"
  type: "Convolution"
  bottom: "inception_3a/output"
  top: "inception_3b/3x3_reduce"
  param {
    lr_mult: 1
    decay_mult: 1
  }
  param {
    lr_mult: 2
    decay_mult: 0
  }
  convolution_param {
    num_output: 128
    kernel_size: 1
    weight_filler {
      type: "xavier"
      std: 0.09
    }
    bias_filler {
      type: "constant"
      value: 0.2
    }
  }
}
layer {
  name: "inception_3b/relu_3x3_reduce"
  type: "ReLU"
  bottom: "inception_3b/3x3_reduce"
  top: "inception_3b/3x3_reduce"
}
layer {
  name: "inception_3b/3x3"
  type: "Convolution"
  bottom: "inception_3b/3x3_reduce"
  top: "inception_3b/3x3"
  param {
    lr_mult: 1
    decay_mult: 1
  }
  param {
    lr_mult: 2
    decay_mult: 0
  }
  convolution_param {
    num_output: 192
    pad: 1
    kernel_size: 3
    weight_filler {
      type: "xavier"
      std: 0.03
    }
    bias_filler {
      type: "constant"
      value: 0.2
    }
  }
}
layer {
  name: "inception_3b/relu_3x3"
  type: "ReLU"
  bottom: "inception_3b/3x3"
  top: "inception_3b/3x3"
}
layer {
  name: "inception_3b/5x5_reduce"
  type: "Convolution"
  bottom: "inception_3a/output"
  top: "inception_3b/5x5_reduce"
  param {
    lr_mult: 1
    decay_mult: 1
  }
  param {
    lr_mult: 2
    decay_mult: 0
  }
  convolution_param {
    num_output: 32
    kernel_size: 1
    weight_filler {
      type: "xavier"
      std: 0.2
    }
    bias_filler {
      type: "constant"
      value: 0.2
    }
  }
}
layer {
  name: "inception_3b/relu_5x5_reduce"
  type: "ReLU"
  bottom: "inception_3b/5x5_reduce"
  top: "inception_3b/5x5_reduce"
}
layer {
  name: "inception_3b/5x5"
  type: "Convolution"
  bottom: "inception_3b/5x5_reduce"
  top: "inception_3b/5x5"
  param {
    lr_mult: 1
    decay_mult: 1
  }
  param {
    lr_mult: 2
    decay_mult: 0
  }
  convolution_param {
    num_output: 96
    pad: 2
    kernel_size: 5
    weight_filler {
      type: "xavier"
      std: 0.03
    }
    bias_filler {
      type: "constant"
      value: 0.2
    }
  }
}
layer {
  name: "inception_3b/relu_5x5"
  type: "ReLU"
  bottom: "inception_3b/5x5"
  top: "inception_3b/5x5"
}
layer {
  name: "inception_3b/pool"
  type: "Pooling"
  bottom: "inception_3a/output"
  top: "inception_3b/pool"
  pooling_param {
    pool: MAX
    kernel_size: 3
    stride: 1
    pad: 1
  }
}
layer {
  name: "inception_3b/pool_proj"
  type: "Convolution"
  bottom: "inception_3b/pool"
  top: "inception_3b/pool_proj"
  param {
    lr_mult: 1
    decay_mult: 1
  }
  param {
    lr_mult: 2
    decay_mult: 0
  }
  convolution_param {
    num_output: 64
    kernel_size: 1
    weight_filler {
      type: "xavier"
      std: 0.1
    }
    bias_filler {
      type: "constant"
      value: 0.2
    }
  }
}
layer {
  name: "inception_3b/relu_pool_proj"
  type: "ReLU"
  bottom: "inception_3b/pool_proj"
  top: "inception_3b/pool_proj"
}
layer {
  name: "inception_3b/output"
  type: "Concat"
  bottom: "inception_3b/1x1"
  bottom: "inception_3b/3x3"
  bottom: "inception_3b/5x5"
  bottom: "inception_3b/pool_proj"
  top: "inception_3b/output"
}
layer {
  name: "pool3/3x3_s2"
  type: "Pooling"
  bottom: "inception_3b/output"
  top: "pool3/3x3_s2"
  pooling_param {
    pool: MAX
    kernel_size: 3
    stride: 2
  }
}
layer {
  name: "inception_4a/1x1"
  type: "Convolution"
  bottom: "pool3/3x3_s2"
  top: "inception_4a/1x1"
  param {
    lr_mult: 1
    decay_mult: 1
  }
  param {
    lr_mult: 2
    decay_mult: 0
  }
  convolution_param {
    num_output: 192
    kernel_size: 1
    weight_filler {
      type: "xavier"
      std: 0.03
    }
    bias_filler {
      type: "constant"
      value: 0.2
    }
  }
}
layer {
  name: "inception_4a/relu_1x1"
  type: "ReLU"
  bottom: "inception_4a/1x1"
  top: "inception_4a/1x1"
}
layer {
  name: "inception_4a/3x3_reduce"
  type: "Convolution"
  bottom: "pool3/3x3_s2"
  top: "inception_4a/3x3_reduce"
  param {
    lr_mult: 1
    decay_mult: 1
  }
  param {
    lr_mult: 2
    decay_mult: 0
  }
  convolution_param {
    num_output: 96
    kernel_size: 1
    weight_filler {
      type: "xavier"
      std: 0.09
    }
    bias_filler {
      type: "constant"
      value: 0.2
    }
  }
}
layer {
  name: "inception_4a/relu_3x3_reduce"
  type: "ReLU"
  bottom: "inception_4a/3x3_reduce"
  top: "inception_4a/3x3_reduce"
}
layer {
  name: "inception_4a/3x3"
  type: "Convolution"
  bottom: "inception_4a/3x3_reduce"
  top: "inception_4a/3x3"
  param {
    lr_mult: 1
    decay_mult: 1
  }
  param {
    lr_mult: 2
    decay_mult: 0
  }
  convolution_param {
    num_output: 208
    pad: 1
    kernel_size: 3
    weight_filler {
      type: "xavier"
      std: 0.03
    }
    bias_filler {
      type: "constant"
      value: 0.2
    }
  }
}
layer {
  name: "inception_4a/relu_3x3"
  type: "ReLU"
  bottom: "inception_4a/3x3"
  top: "inception_4a/3x3"
}
layer {
  name: "inception_4a/5x5_reduce"
  type: "Convolution"
  bottom: "pool3/3x3_s2"
  top: "inception_4a/5x5_reduce"
  param {
    lr_mult: 1
    decay_mult: 1
  }
  param {
    lr_mult: 2
    decay_mult: 0
  }
  convolution_param {
    num_output: 16
    kernel_size: 1
    weight_filler {
      type: "xavier"
      std: 0.2
    }
    bias_filler {
      type: "constant"
      value: 0.2
    }
  }
}
layer {
  name: "inception_4a/relu_5x5_reduce"
  type: "ReLU"
  bottom: "inception_4a/5x5_reduce"
  top: "inception_4a/5x5_reduce"
}
layer {
  name: "inception_4a/5x5"
  type: "Convolution"
  bottom: "inception_4a/5x5_reduce"
  top: "inception_4a/5x5"
  param {
    lr_mult: 1
    decay_mult: 1
  }
  param {
    lr_mult: 2
    decay_mult: 0
  }
  convolution_param {
    num_output: 48
    pad: 2
    kernel_size: 5
    weight_filler {
      type: "xavier"
      std: 0.03
    }
    bias_filler {
      type: "constant"
      value: 0.2
    }
  }
}
layer {
  name: "inception_4a/relu_5x5"
  type: "ReLU"
  bottom: "inception_4a/5x5"
  top: "inception_4a/5x5"
}
layer {
  name: "inception_4a/pool"
  type: "Pooling"
  bottom: "pool3/3x3_s2"
  top: "inception_4a/pool"
  pooling_param {
    pool: MAX
    kernel_size: 3
    stride: 1
    pad: 1
  }
}
layer {
  name: "inception_4a/pool_proj"
  type: "Convolution"
  bottom: "inception_4a/pool"
  top: "inception_4a/pool_proj"
  param {
    lr_mult: 1
    decay_mult: 1
  }
  param {
    lr_mult: 2
    decay_mult: 0
  }
  convolution_param {
    num_output: 64
    kernel_size: 1
    weight_filler {
      type: "xavier"
      std: 0.1
    }
    bias_filler {
      type: "constant"
      value: 0.2
    }
  }
}
layer {
  name: "inception_4a/relu_pool_proj"
  type: "ReLU"
  bottom: "inception_4a/pool_proj"
  top: "inception_4a/pool_proj"
}
layer {
  name: "inception_4a/output"
  type: "Concat"
  bottom: "inception_4a/1x1"
  bottom: "inception_4a/3x3"
  bottom: "inception_4a/5x5"
  bottom: "inception_4a/pool_proj"
  top: "inception_4a/output"
}
layer {
  name: "loss1/ave_pool"
  type: "Pooling"
  bottom: "inception_4a/output"
  top: "loss1/ave_pool"
  pooling_param {
    pool: AVE
    kernel_size: 5
    stride: 3
  }
}
layer {
  name: "loss1/conv"
  type: "Convolution"
  bottom: "loss1/ave_pool"
  top: "loss1/conv"
  param {
    lr_mult: 1
    decay_mult: 1
  }
  param {
    lr_mult: 2
    decay_mult: 0
  }
  convolution_param {
    num_output: 128
    kernel_size: 1
    weight_filler {
      type: "xavier"
      std: 0.08
    }
    bias_filler {
      type: "constant"
      value: 0.2
    }
  }
}
layer {
  name: "loss1/relu_conv"
  type: "ReLU"
  bottom: "loss1/conv"
  top: "loss1/conv"
}
layer {
  name: "loss1/fc"
  type: "InnerProduct"
  bottom: "loss1/conv"
  top: "loss1/fc"
  param {
    lr_mult: 1
    decay_mult: 1
  }
  param {
    lr_mult: 2
    decay_mult: 0
  }
  inner_product_param {
    num_output: 1024
    weight_filler {
      type: "xavier"
      std: 0.02
    }
    bias_filler {
      type: "constant"
      value: 0.2
    }
  }
}
layer {
  name: "loss1/relu_fc"
  type: "ReLU"
  bottom: "loss1/fc"
  top: "loss1/fc"
}
layer {
  name: "loss1/drop_fc"
  type: "Dropout"
  bottom: "loss1/fc"
  top: "loss1/fc"
  dropout_param {
    dropout_ratio: 0.7
  }
}
layer {
  name: "loss1/classifier_plantvillage"
  type: "InnerProduct"
  bottom: "loss1/fc"
  top: "loss1/classifier_plantvillage"
  param {
    lr_mult: 1
    decay_mult: 1
  }
  param {
    lr_mult: 2
    decay_mult: 0
  }
  inner_product_param {
    num_output: 38
    weight_filler {
      type: "xavier"
      std: 0.0009765625
    }
    bias_filler {
      type: "constant"
      value: 0
    }
  }
}
layer {
  name: "inception_4b/1x1"
  type: "Convolution"
  bottom: "inception_4a/output"
  top: "inception_4b/1x1"
  param {
    lr_mult: 1
    decay_mult: 1
  }
  param {
    lr_mult: 2
    decay_mult: 0
  }
  convolution_param {
    num_output: 160
    kernel_size: 1
    weight_filler {
      type: "xavier"
      std: 0.03
    }
    bias_filler {
      type: "constant"
      value: 0.2
    }
  }
}
layer {
  name: "inception_4b/relu_1x1"
  type: "ReLU"
  bottom: "inception_4b/1x1"
  top: "inception_4b/1x1"
}
layer {
  name: "inception_4b/3x3_reduce"
  type: "Convolution"
  bottom: "inception_4a/output"
  top: "inception_4b/3x3_reduce"
  param {
    lr_mult: 1
    decay_mult: 1
  }
  param {
    lr_mult: 2
    decay_mult: 0
  }
  convolution_param {
    num_output: 112
    kernel_size: 1
    weight_filler {
      type: "xavier"
      std: 0.09
    }
    bias_filler {
      type: "constant"
      value: 0.2
    }
  }
}
layer {
  name: "inception_4b/relu_3x3_reduce"
  type: "ReLU"
  bottom: "inception_4b/3x3_reduce"
  top: "inception_4b/3x3_reduce"
}
layer {
  name: "inception_4b/3x3"
  type: "Convolution"
  bottom: "inception_4b/3x3_reduce"
  top: "inception_4b/3x3"
  param {
    lr_mult: 1
    decay_mult: 1
  }
  param {
    lr_mult: 2
    decay_mult: 0
  }
  convolution_param {
    num_output: 224
    pad: 1
    kernel_size: 3
    weight_filler {
      type: "xavier"
      std: 0.03
    }
    bias_filler {
      type: "constant"
      value: 0.2
    }
  }
}
layer {
  name: "inception_4b/relu_3x3"
  type: "ReLU"
  bottom: "inception_4b/3x3"
  top: "inception_4b/3x3"
}
layer {
  name: "inception_4b/5x5_reduce"
  type: "Convolution"
  bottom: "inception_4a/output"
  top: "inception_4b/5x5_reduce"
  param {
    lr_mult: 1
    decay_mult: 1
  }
  param {
    lr_mult: 2
    decay_mult: 0
  }
  convolution_param {
    num_output: 24
    kernel_size: 1
    weight_filler {
      type: "xavier"
      std: 0.2
    }
    bias_filler {
      type: "constant"
      value: 0.2
    }
  }
}
layer {
  name: "inception_4b/relu_5x5_reduce"
  type: "ReLU"
  bottom: "inception_4b/5x5_reduce"
  top: "inception_4b/5x5_reduce"
}
layer {
  name: "inception_4b/5x5"
  type: "Convolution"
  bottom: "inception_4b/5x5_reduce"
  top: "inception_4b/5x5"
  param {
    lr_mult: 1
    decay_mult: 1
  }
  param {
    lr_mult: 2
    decay_mult: 0
  }
  convolution_param {
    num_output: 64
    pad: 2
    kernel_size: 5
    weight_filler {
      type: "xavier"
      std: 0.03
    }
    bias_filler {
      type: "constant"
      value: 0.2
    }
  }
}
layer {
  name: "inception_4b/relu_5x5"
  type: "ReLU"
  bottom: "inception_4b/5x5"
  top: "inception_4b/5x5"
}
layer {
  name: "inception_4b/pool"
  type: "Pooling"
  bottom: "inception_4a/output"
  top: "inception_4b/pool"
  pooling_param {
    pool: MAX
    kernel_size: 3
    stride: 1
    pad: 1
  }
}
layer {
  name: "inception_4b/pool_proj"
  type: "Convolution"
  bottom: "inception_4b/pool"
  top: "inception_4b/pool_proj"
  param {
    lr_mult: 1
    decay_mult: 1
  }
  param {
    lr_mult: 2
    decay_mult: 0
  }
  convolution_param {
    num_output: 64
    kernel_size: 1
    weight_filler {
      type: "xavier"
      std: 0.1
    }
    bias_filler {
      type: "constant"
      value: 0.2
    }
  }
}
layer {
  name: "inception_4b/relu_pool_proj"
  type: "ReLU"
  bottom: "inception_4b/pool_proj"
  top: "inception_4b/pool_proj"
}
layer {
  name: "inception_4b/output"
  type: "Concat"
  bottom: "inception_4b/1x1"
  bottom: "inception_4b/3x3"
  bottom: "inception_4b/5x5"
  bottom: "inception_4b/pool_proj"
  top: "inception_4b/output"
}
layer {
  name: "inception_4c/1x1"
  type: "Convolution"
  bottom: "inception_4b/output"
  top: "inception_4c/1x1"
  param {
    lr_mult: 1
    decay_mult: 1
  }
  param {
    lr_mult: 2
    decay_mult: 0
  }
  convolution_param {
    num_output: 128
    kernel_size: 1
    weight_filler {
      type: "xavier"
      std: 0.03
    }
    bias_filler {
      type: "constant"
      value: 0.2
    }
  }
}
layer {
  name: "inception_4c/relu_1x1"
  type: "ReLU"
  bottom: "inception_4c/1x1"
  top: "inception_4c/1x1"
}
layer {
  name: "inception_4c/3x3_reduce"
  type: "Convolution"
  bottom: "inception_4b/output"
  top: "inception_4c/3x3_reduce"
  param {
    lr_mult: 1
    decay_mult: 1
  }
  param {
    lr_mult: 2
    decay_mult: 0
  }
  convolution_param {
    num_output: 128
    kernel_size: 1
    weight_filler {
      type: "xavier"
      std: 0.09
    }
    bias_filler {
      type: "constant"
      value: 0.2
    }
  }
}
layer {
  name: "inception_4c/relu_3x3_reduce"
  type: "ReLU"
  bottom: "inception_4c/3x3_reduce"
  top: "inception_4c/3x3_reduce"
}
layer {
  name: "inception_4c/3x3"
  type: "Convolution"
  bottom: "inception_4c/3x3_reduce"
  top: "inception_4c/3x3"
  param {
    lr_mult: 1
    decay_mult: 1
  }
  param {
    lr_mult: 2
    decay_mult: 0
  }
  convolution_param {
    num_output: 256
    pad: 1
    kernel_size: 3
    weight_filler {
      type: "xavier"
      std: 0.03
    }
    bias_filler {
      type: "constant"
      value: 0.2
    }
  }
}
layer {
  name: "inception_4c/relu_3x3"
  type: "ReLU"
  bottom: "inception_4c/3x3"
  top: "inception_4c/3x3"
}
layer {
  name: "inception_4c/5x5_reduce"
  type: "Convolution"
  bottom: "inception_4b/output"
  top: "inception_4c/5x5_reduce"
  param {
    lr_mult: 1
    decay_mult: 1
  }
  param {
    lr_mult: 2
    decay_mult: 0
  }
  convolution_param {
    num_output: 24
    kernel_size: 1
    weight_filler {
      type: "xavier"
      std: 0.2
    }
    bias_filler {
      type: "constant"
      value: 0.2
    }
  }
}
layer {
  name: "inception_4c/relu_5x5_reduce"
  type: "ReLU"
  bottom: "inception_4c/5x5_reduce"
  top: "inception_4c/5x5_reduce"
}
layer {
  name: "inception_4c/5x5"
  type: "Convolution"
  bottom: "inception_4c/5x5_reduce"
  top: "inception_4c/5x5"
  param {
    lr_mult: 1
    decay_mult: 1
  }
  param {
    lr_mult: 2
    decay_mult: 0
  }
  convolution_param {
    num_output: 64
    pad: 2
    kernel_size: 5
    weight_filler {
      type: "xavier"
      std: 0.03
    }
    bias_filler {
      type: "constant"
      value: 0.2
    }
  }
}
layer {
  name: "inception_4c/relu_5x5"
  type: "ReLU"
  bottom: "inception_4c/5x5"
  top: "inception_4c/5x5"
}
layer {
  name: "inception_4c/pool"
  type: "Pooling"
  bottom: "inception_4b/output"
  top: "inception_4c/pool"
  pooling_param {
    pool: MAX
    kernel_size: 3
    stride: 1
    pad: 1
  }
}
layer {
  name: "inception_4c/pool_proj"
  type: "Convolution"
  bottom: "inception_4c/pool"
  top: "inception_4c/pool_proj"
  param {
    lr_mult: 1
    decay_mult: 1
  }
  param {
    lr_mult: 2
    decay_mult: 0
  }
  convolution_param {
    num_output: 64
    kernel_size: 1
    weight_filler {
      type: "xavier"
      std: 0.1
    }
    bias_filler {
      type: "constant"
      value: 0.2
    }
  }
}
layer {
  name: "inception_4c/relu_pool_proj"
  type: "ReLU"
  bottom: "inception_4c/pool_proj"
  top: "inception_4c/pool_proj"
}
layer {
  name: "inception_4c/output"
  type: "Concat"
  bottom: "inception_4c/1x1"
  bottom: "inception_4c/3x3"
  bottom: "inception_4c/5x5"
  bottom: "inception_4c/pool_proj"
  top: "inception_4c/output"
}
layer {
  name: "inception_4d/1x1"
  type: "Convolution"
  bottom: "inception_4c/output"
  top: "inception_4d/1x1"
  param {
    lr_mult: 1
    decay_mult: 1
  }
  param {
    lr_mult: 2
    decay_mult: 0
  }
  convolution_param {
    num_output: 112
    kernel_size: 1
    weight_filler {
      type: "xavier"
      std: 0.03
    }
    bias_filler {
      type: "constant"
      value: 0.2
    }
  }
}
layer {
  name: "inception_4d/relu_1x1"
  type: "ReLU"
  bottom: "inception_4d/1x1"
  top: "inception_4d/1x1"
}
layer {
  name: "inception_4d/3x3_reduce"
  type: "Convolution"
  bottom: "inception_4c/output"
  top: "inception_4d/3x3_reduce"
  param {
    lr_mult: 1
    decay_mult: 1
  }
  param {
    lr_mult: 2
    decay_mult: 0
  }
  convolution_param {
    num_output: 144
    kernel_size: 1
    weight_filler {
      type: "xavier"
      std: 0.09
    }
    bias_filler {
      type: "constant"
      value: 0.2
    }
  }
}
layer {
  name: "inception_4d/relu_3x3_reduce"
  type: "ReLU"
  bottom: "inception_4d/3x3_reduce"
  top: "inception_4d/3x3_reduce"
}
layer {
  name: "inception_4d/3x3"
  type: "Convolution"
  bottom: "inception_4d/3x3_reduce"
  top: "inception_4d/3x3"
  param {
    lr_mult: 1
    decay_mult: 1
  }
  param {
    lr_mult: 2
    decay_mult: 0
  }
  convolution_param {
    num_output: 288
    pad: 1
    kernel_size: 3
    weight_filler {
      type: "xavier"
      std: 0.03
    }
    bias_filler {
      type: "constant"
      value: 0.2
    }
  }
}
layer {
  name: "inception_4d/relu_3x3"
  type: "ReLU"
  bottom: "inception_4d/3x3"
  top: "inception_4d/3x3"
}
layer {
  name: "inception_4d/5x5_reduce"
  type: "Convolution"
  bottom: "inception_4c/output"
  top: "inception_4d/5x5_reduce"
  param {
    lr_mult: 1
    decay_mult: 1
  }
  param {
    lr_mult: 2
    decay_mult: 0
  }
  convolution_param {
    num_output: 32
    kernel_size: 1
    weight_filler {
      type: "xavier"
      std: 0.2
    }
    bias_filler {
      type: "constant"
      value: 0.2
    }
  }
}
layer {
  name: "inception_4d/relu_5x5_reduce"
  type: "ReLU"
  bottom: "inception_4d/5x5_reduce"
  top: "inception_4d/5x5_reduce"
}
layer {
  name: "inception_4d/5x5"
  type: "Convolution"
  bottom: "inception_4d/5x5_reduce"
  top: "inception_4d/5x5"
  param {
    lr_mult: 1
    decay_mult: 1
  }
  param {
    lr_mult: 2
    decay_mult: 0
  }
  convolution_param {
    num_output: 64
    pad: 2
    kernel_size: 5
    weight_filler {
      type: "xavier"
      std: 0.03
    }
    bias_filler {
      type: "constant"
      value: 0.2
    }
  }
}
layer {
  name: "inception_4d/relu_5x5"
  type: "ReLU"
  bottom: "inception_4d/5x5"
  top: "inception_4d/5x5"
}
layer {
  name: "inception_4d/pool"
  type: "Pooling"
  bottom: "inception_4c/output"
  top: "inception_4d/pool"
  pooling_param {
    pool: MAX
    kernel_size: 3
    stride: 1
    pad: 1
  }
}
layer {
  name: "inception_4d/pool_proj"
  type: "Convolution"
  bottom: "inception_4d/pool"
  top: "inception_4d/pool_proj"
  param {
    lr_mult: 1
    decay_mult: 1
  }
  param {
    lr_mult: 2
    decay_mult: 0
  }
  convolution_param {
    num_output: 64
    kernel_size: 1
    weight_filler {
      type: "xavier"
      std: 0.1
    }
    bias_filler {
      type: "constant"
      value: 0.2
    }
  }
}
layer {
  name: "inception_4d/relu_pool_proj"
  type: "ReLU"
  bottom: "inception_4d/pool_proj"
  top: "inception_4d/pool_proj"
}
layer {
  name: "inception_4d/output"
  type: "Concat"
  bottom: "inception_4d/1x1"
  bottom: "inception_4d/3x3"
  bottom: "inception_4d/5x5"
  bottom: "inception_4d/pool_proj"
  top: "inception_4d/output"
}
layer {
  name: "loss2/ave_pool"
  type: "Pooling"
  bottom: "inception_4d/output"
  top: "loss2/ave_pool"
  pooling_param {
    pool: AVE
    kernel_size: 5
    stride: 3
  }
}
layer {
  name: "loss2/conv"
  type: "Convolution"
  bottom: "loss2/ave_pool"
  top: "loss2/conv"
  param {
    lr_mult: 1
    decay_mult: 1
  }
  param {
    lr_mult: 2
    decay_mult: 0
  }
  convolution_param {
    num_output: 128
    kernel_size: 1
    weight_filler {
      type: "xavier"
      std: 0.08
    }
    bias_filler {
      type: "constant"
      value: 0.2
    }
  }
}
layer {
  name: "loss2/relu_conv"
  type: "ReLU"
  bottom: "loss2/conv"
  top: "loss2/conv"
}
layer {
  name: "loss2/fc"
  type: "InnerProduct"
  bottom: "loss2/conv"
  top: "loss2/fc"
  param {
    lr_mult: 1
    decay_mult: 1
  }
  param {
    lr_mult: 2
    decay_mult: 0
  }
  inner_product_param {
    num_output: 1024
    weight_filler {
      type: "xavier"
      std: 0.02
    }
    bias_filler {
      type: "constant"
      value: 0.2
    }
  }
}
layer {
  name: "loss2/relu_fc"
  type: "ReLU"
  bottom: "loss2/fc"
  top: "loss2/fc"
}
layer {
  name: "loss2/drop_fc"
  type: "Dropout"
  bottom: "loss2/fc"
  top: "loss2/fc"
  dropout_param {
    dropout_ratio: 0.7
  }
}
layer {
  name: "loss2/classifier_plantvillage"
  type: "InnerProduct"
  bottom: "loss2/fc"
  top: "loss2/classifier_plantvillage"
  param {
    lr_mult: 1
    decay_mult: 1
  }
  param {
    lr_mult: 2
    decay_mult: 0
  }
  inner_product_param {
    num_output: 38
    weight_filler {
      type: "xavier"
      std: 0.0009765625
    }
    bias_filler {
      type: "constant"
      value: 0
    }
  }
}
layer {
  name: "inception_4e/1x1"
  type: "Convolution"
  bottom: "inception_4d/output"
  top: "inception_4e/1x1"
  param {
    lr_mult: 1
    decay_mult: 1
  }
  param {
    lr_mult: 2
    decay_mult: 0
  }
  convolution_param {
    num_output: 256
    kernel_size: 1
    weight_filler {
      type: "xavier"
      std: 0.03
    }
    bias_filler {
      type: "constant"
      value: 0.2
    }
  }
}
layer {
  name: "inception_4e/relu_1x1"
  type: "ReLU"
  bottom: "inception_4e/1x1"
  top: "inception_4e/1x1"
}
layer {
  name: "inception_4e/3x3_reduce"
  type: "Convolution"
  bottom: "inception_4d/output"
  top: "inception_4e/3x3_reduce"
  param {
    lr_mult: 1
    decay_mult: 1
  }
  param {
    lr_mult: 2
    decay_mult: 0
  }
  convolution_param {
    num_output: 160
    kernel_size: 1
    weight_filler {
      type: "xavier"
      std: 0.09
    }
    bias_filler {
      type: "constant"
      value: 0.2
    }
  }
}
layer {
  name: "inception_4e/relu_3x3_reduce"
  type: "ReLU"
  bottom: "inception_4e/3x3_reduce"
  top: "inception_4e/3x3_reduce"
}
layer {
  name: "inception_4e/3x3"
  type: "Convolution"
  bottom: "inception_4e/3x3_reduce"
  top: "inception_4e/3x3"
  param {
    lr_mult: 1
    decay_mult: 1
  }
  param {
    lr_mult: 2
    decay_mult: 0
  }
  convolution_param {
    num_output: 320
    pad: 1
    kernel_size: 3
    weight_filler {
      type: "xavier"
      std: 0.03
    }
    bias_filler {
      type: "constant"
      value: 0.2
    }
  }
}
layer {
  name: "inception_4e/relu_3x3"
  type: "ReLU"
  bottom: "inception_4e/3x3"
  top: "inception_4e/3x3"
}
layer {
  name: "inception_4e/5x5_reduce"
  type: "Convolution"
  bottom: "inception_4d/output"
  top: "inception_4e/5x5_reduce"
  param {
    lr_mult: 1
    decay_mult: 1
  }
  param {
    lr_mult: 2
    decay_mult: 0
  }
  convolution_param {
    num_output: 32
    kernel_size: 1
    weight_filler {
      type: "xavier"
      std: 0.2
    }
    bias_filler {
      type: "constant"
      value: 0.2
    }
  }
}
layer {
  name: "inception_4e/relu_5x5_reduce"
  type: "ReLU"
  bottom: "inception_4e/5x5_reduce"
  top: "inception_4e/5x5_reduce"
}
layer {
  name: "inception_4e/5x5"
  type: "Convolution"
  bottom: "inception_4e/5x5_reduce"
  top: "inception_4e/
I0403 18:11:20.749161 21641 layer_factory.hpp:77] Creating layer data
I0403 18:11:20.749740 21641 net.cpp:91] Creating Layer data
I0403 18:11:20.749773 21641 net.cpp:399] data -> data
I0403 18:11:20.749822 21641 net.cpp:399] data -> label
I0403 18:11:20.749858 21641 data_transformer.cpp:25] Loading mean file from: /home/mohanty/data/final_dataset/lmdb/segmented-40-60/mean.binaryproto
I0403 18:11:20.750998 21643 db_lmdb.cpp:38] Opened lmdb /home/mohanty/data/final_dataset/lmdb/segmented-40-60/test_db
I0403 18:11:20.762738 21641 data_layer.cpp:41] output data size: 24,3,224,224
I0403 18:11:20.789177 21641 net.cpp:141] Setting up data
I0403 18:11:20.789258 21641 net.cpp:148] Top shape: 24 3 224 224 (3612672)
I0403 18:11:20.789279 21641 net.cpp:148] Top shape: 24 (24)
I0403 18:11:20.789295 21641 net.cpp:156] Memory required for data: 14450784
I0403 18:11:20.789322 21641 layer_factory.hpp:77] Creating layer label_data_1_split
I0403 18:11:20.789348 21641 net.cpp:91] Creating Layer label_data_1_split
I0403 18:11:20.789366 21641 net.cpp:425] label_data_1_split <- label
I0403 18:11:20.789397 21641 net.cpp:399] label_data_1_split -> label_data_1_split_0
I0403 18:11:20.789423 21641 net.cpp:399] label_data_1_split -> label_data_1_split_1
I0403 18:11:20.789444 21641 net.cpp:399] label_data_1_split -> label_data_1_split_2
I0403 18:11:20.789464 21641 net.cpp:399] label_data_1_split -> label_data_1_split_3
I0403 18:11:20.789484 21641 net.cpp:399] label_data_1_split -> label_data_1_split_4
I0403 18:11:20.789502 21641 net.cpp:399] label_data_1_split -> label_data_1_split_5
I0403 18:11:20.789520 21641 net.cpp:399] label_data_1_split -> label_data_1_split_6
I0403 18:11:20.789544 21641 net.cpp:399] label_data_1_split -> label_data_1_split_7
I0403 18:11:20.789566 21641 net.cpp:399] label_data_1_split -> label_data_1_split_8
I0403 18:11:20.789585 21641 net.cpp:399] label_data_1_split -> label_data_1_split_9
I0403 18:11:20.789696 21641 net.cpp:141] Setting up label_data_1_split
I0403 18:11:20.789719 21641 net.cpp:148] Top shape: 24 (24)
I0403 18:11:20.789734 21641 net.cpp:148] Top shape: 24 (24)
I0403 18:11:20.789749 21641 net.cpp:148] Top shape: 24 (24)
I0403 18:11:20.789764 21641 net.cpp:148] Top shape: 24 (24)
I0403 18:11:20.789779 21641 net.cpp:148] Top shape: 24 (24)
I0403 18:11:20.789794 21641 net.cpp:148] Top shape: 24 (24)
I0403 18:11:20.789808 21641 net.cpp:148] Top shape: 24 (24)
I0403 18:11:20.789824 21641 net.cpp:148] Top shape: 24 (24)
I0403 18:11:20.789839 21641 net.cpp:148] Top shape: 24 (24)
I0403 18:11:20.789855 21641 net.cpp:148] Top shape: 24 (24)
I0403 18:11:20.789899 21641 net.cpp:156] Memory required for data: 14451744
I0403 18:11:20.789914 21641 layer_factory.hpp:77] Creating layer conv1/7x7_s2
I0403 18:11:20.789943 21641 net.cpp:91] Creating Layer conv1/7x7_s2
I0403 18:11:20.789960 21641 net.cpp:425] conv1/7x7_s2 <- data
I0403 18:11:20.789978 21641 net.cpp:399] conv1/7x7_s2 -> conv1/7x7_s2
I0403 18:11:20.926401 21641 net.cpp:141] Setting up conv1/7x7_s2
I0403 18:11:20.926481 21641 net.cpp:148] Top shape: 24 64 112 112 (19267584)
I0403 18:11:20.926498 21641 net.cpp:156] Memory required for data: 91522080
I0403 18:11:20.926528 21641 layer_factory.hpp:77] Creating layer conv1/relu_7x7
I0403 18:11:20.926573 21641 net.cpp:91] Creating Layer conv1/relu_7x7
I0403 18:11:20.926591 21641 net.cpp:425] conv1/relu_7x7 <- conv1/7x7_s2
I0403 18:11:20.926611 21641 net.cpp:386] conv1/relu_7x7 -> conv1/7x7_s2 (in-place)
I0403 18:11:20.926869 21641 net.cpp:141] Setting up conv1/relu_7x7
I0403 18:11:20.926895 21641 net.cpp:148] Top shape: 24 64 112 112 (19267584)
I0403 18:11:20.926909 21641 net.cpp:156] Memory required for data: 168592416
I0403 18:11:20.926923 21641 layer_factory.hpp:77] Creating layer pool1/3x3_s2
I0403 18:11:20.926949 21641 net.cpp:91] Creating Layer pool1/3x3_s2
I0403 18:11:20.926966 21641 net.cpp:425] pool1/3x3_s2 <- conv1/7x7_s2
I0403 18:11:20.926983 21641 net.cpp:399] pool1/3x3_s2 -> pool1/3x3_s2
I0403 18:11:20.927057 21641 net.cpp:141] Setting up pool1/3x3_s2
I0403 18:11:20.927081 21641 net.cpp:148] Top shape: 24 64 56 56 (4816896)
I0403 18:11:20.927095 21641 net.cpp:156] Memory required for data: 187860000
I0403 18:11:20.927109 21641 layer_factory.hpp:77] Creating layer pool1/norm1
I0403 18:11:20.927132 21641 net.cpp:91] Creating Layer pool1/norm1
I0403 18:11:20.927150 21641 net.cpp:425] pool1/norm1 <- pool1/3x3_s2
I0403 18:11:20.927170 21641 net.cpp:399] pool1/norm1 -> pool1/norm1
I0403 18:11:20.927453 21641 net.cpp:141] Setting up pool1/norm1
I0403 18:11:20.927479 21641 net.cpp:148] Top shape: 24 64 56 56 (4816896)
I0403 18:11:20.927494 21641 net.cpp:156] Memory required for data: 207127584
I0403 18:11:20.927507 21641 layer_factory.hpp:77] Creating layer conv2/3x3_reduce
I0403 18:11:20.927532 21641 net.cpp:91] Creating Layer conv2/3x3_reduce
I0403 18:11:20.927575 21641 net.cpp:425] conv2/3x3_reduce <- pool1/norm1
I0403 18:11:20.927597 21641 net.cpp:399] conv2/3x3_reduce -> conv2/3x3_reduce
I0403 18:11:20.928793 21641 net.cpp:141] Setting up conv2/3x3_reduce
I0403 18:11:20.928824 21641 net.cpp:148] Top shape: 24 64 56 56 (4816896)
I0403 18:11:20.928841 21641 net.cpp:156] Memory required for data: 226395168
I0403 18:11:20.928861 21641 layer_factory.hpp:77] Creating layer conv2/relu_3x3_reduce
I0403 18:11:20.928880 21641 net.cpp:91] Creating Layer conv2/relu_3x3_reduce
I0403 18:11:20.928895 21641 net.cpp:425] conv2/relu_3x3_reduce <- conv2/3x3_reduce
I0403 18:11:20.928915 21641 net.cpp:386] conv2/relu_3x3_reduce -> conv2/3x3_reduce (in-place)
I0403 18:11:20.929172 21641 net.cpp:141] Setting up conv2/relu_3x3_reduce
I0403 18:11:20.929203 21641 net.cpp:148] Top shape: 24 64 56 56 (4816896)
I0403 18:11:20.929219 21641 net.cpp:156] Memory required for data: 245662752
I0403 18:11:20.929234 21641 layer_factory.hpp:77] Creating layer conv2/3x3
I0403 18:11:20.929256 21641 net.cpp:91] Creating Layer conv2/3x3
I0403 18:11:20.929275 21641 net.cpp:425] conv2/3x3 <- conv2/3x3_reduce
I0403 18:11:20.929293 21641 net.cpp:399] conv2/3x3 -> conv2/3x3
I0403 18:11:20.931560 21641 net.cpp:141] Setting up conv2/3x3
I0403 18:11:20.931602 21641 net.cpp:148] Top shape: 24 192 56 56 (14450688)
I0403 18:11:20.931618 21641 net.cpp:156] Memory required for data: 303465504
I0403 18:11:20.931638 21641 layer_factory.hpp:77] Creating layer conv2/relu_3x3
I0403 18:11:20.931656 21641 net.cpp:91] Creating Layer conv2/relu_3x3
I0403 18:11:20.931673 21641 net.cpp:425] conv2/relu_3x3 <- conv2/3x3
I0403 18:11:20.931692 21641 net.cpp:386] conv2/relu_3x3 -> conv2/3x3 (in-place)
I0403 18:11:20.931862 21641 net.cpp:141] Setting up conv2/relu_3x3
I0403 18:11:20.931887 21641 net.cpp:148] Top shape: 24 192 56 56 (14450688)
I0403 18:11:20.931936 21641 net.cpp:156] Memory required for data: 361268256
I0403 18:11:20.931952 21641 layer_factory.hpp:77] Creating layer conv2/norm2
I0403 18:11:20.931972 21641 net.cpp:91] Creating Layer conv2/norm2
I0403 18:11:20.931989 21641 net.cpp:425] conv2/norm2 <- conv2/3x3
I0403 18:11:20.932008 21641 net.cpp:399] conv2/norm2 -> conv2/norm2
I0403 18:11:20.932308 21641 net.cpp:141] Setting up conv2/norm2
I0403 18:11:20.932335 21641 net.cpp:148] Top shape: 24 192 56 56 (14450688)
I0403 18:11:20.932351 21641 net.cpp:156] Memory required for data: 419071008
I0403 18:11:20.932365 21641 layer_factory.hpp:77] Creating layer pool2/3x3_s2
I0403 18:11:20.932385 21641 net.cpp:91] Creating Layer pool2/3x3_s2
I0403 18:11:20.932402 21641 net.cpp:425] pool2/3x3_s2 <- conv2/norm2
I0403 18:11:20.932420 21641 net.cpp:399] pool2/3x3_s2 -> pool2/3x3_s2
I0403 18:11:20.932473 21641 net.cpp:141] Setting up pool2/3x3_s2
I0403 18:11:20.932497 21641 net.cpp:148] Top shape: 24 192 28 28 (3612672)
I0403 18:11:20.932512 21641 net.cpp:156] Memory required for data: 433521696
I0403 18:11:20.932525 21641 layer_factory.hpp:77] Creating layer pool2/3x3_s2_pool2/3x3_s2_0_split
I0403 18:11:20.932548 21641 net.cpp:91] Creating Layer pool2/3x3_s2_pool2/3x3_s2_0_split
I0403 18:11:20.932571 21641 net.cpp:425] pool2/3x3_s2_pool2/3x3_s2_0_split <- pool2/3x3_s2
I0403 18:11:20.932588 21641 net.cpp:399] pool2/3x3_s2_pool2/3x3_s2_0_split -> pool2/3x3_s2_pool2/3x3_s2_0_split_0
I0403 18:11:20.932608 21641 net.cpp:399] pool2/3x3_s2_pool2/3x3_s2_0_split -> pool2/3x3_s2_pool2/3x3_s2_0_split_1
I0403 18:11:20.932627 21641 net.cpp:399] pool2/3x3_s2_pool2/3x3_s2_0_split -> pool2/3x3_s2_pool2/3x3_s2_0_split_2
I0403 18:11:20.932647 21641 net.cpp:399] pool2/3x3_s2_pool2/3x3_s2_0_split -> pool2/3x3_s2_pool2/3x3_s2_0_split_3
I0403 18:11:20.932718 21641 net.cpp:141] Setting up pool2/3x3_s2_pool2/3x3_s2_0_split
I0403 18:11:20.932741 21641 net.cpp:148] Top shape: 24 192 28 28 (3612672)
I0403 18:11:20.932757 21641 net.cpp:148] Top shape: 24 192 28 28 (3612672)
I0403 18:11:20.932773 21641 net.cpp:148] Top shape: 24 192 28 28 (3612672)
I0403 18:11:20.932788 21641 net.cpp:148] Top shape: 24 192 28 28 (3612672)
I0403 18:11:20.932801 21641 net.cpp:156] Memory required for data: 491324448
I0403 18:11:20.932816 21641 layer_factory.hpp:77] Creating layer inception_3a/1x1
I0403 18:11:20.932838 21641 net.cpp:91] Creating Layer inception_3a/1x1
I0403 18:11:20.932855 21641 net.cpp:425] inception_3a/1x1 <- pool2/3x3_s2_pool2/3x3_s2_0_split_0
I0403 18:11:20.932876 21641 net.cpp:399] inception_3a/1x1 -> inception_3a/1x1
I0403 18:11:20.934404 21641 net.cpp:141] Setting up inception_3a/1x1
I0403 18:11:20.934435 21641 net.cpp:148] Top shape: 24 64 28 28 (1204224)
I0403 18:11:20.934453 21641 net.cpp:156] Memory required for data: 496141344
I0403 18:11:20.934471 21641 layer_factory.hpp:77] Creating layer inception_3a/relu_1x1
I0403 18:11:20.934489 21641 net.cpp:91] Creating Layer inception_3a/relu_1x1
I0403 18:11:20.934505 21641 net.cpp:425] inception_3a/relu_1x1 <- inception_3a/1x1
I0403 18:11:20.934522 21641 net.cpp:386] inception_3a/relu_1x1 -> inception_3a/1x1 (in-place)
I0403 18:11:20.934705 21641 net.cpp:141] Setting up inception_3a/relu_1x1
I0403 18:11:20.934731 21641 net.cpp:148] Top shape: 24 64 28 28 (1204224)
I0403 18:11:20.934746 21641 net.cpp:156] Memory required for data: 500958240
I0403 18:11:20.934759 21641 layer_factory.hpp:77] Creating layer inception_3a/3x3_reduce
I0403 18:11:20.934782 21641 net.cpp:91] Creating Layer inception_3a/3x3_reduce
I0403 18:11:20.934798 21641 net.cpp:425] inception_3a/3x3_reduce <- pool2/3x3_s2_pool2/3x3_s2_0_split_1
I0403 18:11:20.934819 21641 net.cpp:399] inception_3a/3x3_reduce -> inception_3a/3x3_reduce
I0403 18:11:20.936509 21641 net.cpp:141] Setting up inception_3a/3x3_reduce
I0403 18:11:20.936545 21641 net.cpp:148] Top shape: 24 96 28 28 (1806336)
I0403 18:11:20.936570 21641 net.cpp:156] Memory required for data: 508183584
I0403 18:11:20.936591 21641 layer_factory.hpp:77] Creating layer inception_3a/relu_3x3_reduce
I0403 18:11:20.936627 21641 net.cpp:91] Creating Layer inception_3a/relu_3x3_reduce
I0403 18:11:20.936648 21641 net.cpp:425] inception_3a/relu_3x3_reduce <- inception_3a/3x3_reduce
I0403 18:11:20.936666 21641 net.cpp:386] inception_3a/relu_3x3_reduce -> inception_3a/3x3_reduce (in-place)
I0403 18:11:20.936841 21641 net.cpp:141] Setting up inception_3a/relu_3x3_reduce
I0403 18:11:20.936866 21641 net.cpp:148] Top shape: 24 96 28 28 (1806336)
I0403 18:11:20.936880 21641 net.cpp:156] Memory required for data: 515408928
I0403 18:11:20.936894 21641 layer_factory.hpp:77] Creating layer inception_3a/3x3
I0403 18:11:20.936918 21641 net.cpp:91] Creating Layer inception_3a/3x3
I0403 18:11:20.936935 21641 net.cpp:425] inception_3a/3x3 <- inception_3a/3x3_reduce
I0403 18:11:20.936954 21641 net.cpp:399] inception_3a/3x3 -> inception_3a/3x3
I0403 18:11:20.938592 21641 net.cpp:141] Setting up inception_3a/3x3
I0403 18:11:20.938621 21641 net.cpp:148] Top shape: 24 128 28 28 (2408448)
I0403 18:11:20.938637 21641 net.cpp:156] Memory required for data: 525042720
I0403 18:11:20.938654 21641 layer_factory.hpp:77] Creating layer inception_3a/relu_3x3
I0403 18:11:20.938673 21641 net.cpp:91] Creating Layer inception_3a/relu_3x3
I0403 18:11:20.938688 21641 net.cpp:425] inception_3a/relu_3x3 <- inception_3a/3x3
I0403 18:11:20.938706 21641 net.cpp:386] inception_3a/relu_3x3 -> inception_3a/3x3 (in-place)
I0403 18:11:20.938978 21641 net.cpp:141] Setting up inception_3a/relu_3x3
I0403 18:11:20.939005 21641 net.cpp:148] Top shape: 24 128 28 28 (2408448)
I0403 18:11:20.939020 21641 net.cpp:156] Memory required for data: 534676512
I0403 18:11:20.939035 21641 layer_factory.hpp:77] Creating layer inception_3a/5x5_reduce
I0403 18:11:20.939057 21641 net.cpp:91] Creating Layer inception_3a/5x5_reduce
I0403 18:11:20.939075 21641 net.cpp:425] inception_3a/5x5_reduce <- pool2/3x3_s2_pool2/3x3_s2_0_split_2
I0403 18:11:20.939095 21641 net.cpp:399] inception_3a/5x5_reduce -> inception_3a/5x5_reduce
I0403 18:11:20.940047 21641 net.cpp:141] Setting up inception_3a/5x5_reduce
I0403 18:11:20.940074 21641 net.cpp:148] Top shape: 24 16 28 28 (301056)
I0403 18:11:20.940090 21641 net.cpp:156] Memory required for data: 535880736
I0403 18:11:20.940109 21641 layer_factory.hpp:77] Creating layer inception_3a/relu_5x5_reduce
I0403 18:11:20.940126 21641 net.cpp:91] Creating Layer inception_3a/relu_5x5_reduce
I0403 18:11:20.940142 21641 net.cpp:425] inception_3a/relu_5x5_reduce <- inception_3a/5x5_reduce
I0403 18:11:20.940161 21641 net.cpp:386] inception_3a/relu_5x5_reduce -> inception_3a/5x5_reduce (in-place)
I0403 18:11:20.940451 21641 net.cpp:141] Setting up inception_3a/relu_5x5_reduce
I0403 18:11:20.940477 21641 net.cpp:148] Top shape: 24 16 28 28 (301056)
I0403 18:11:20.940492 21641 net.cpp:156] Memory required for data: 537084960
I0403 18:11:20.940506 21641 layer_factory.hpp:77] Creating layer inception_3a/5x5
I0403 18:11:20.940528 21641 net.cpp:91] Creating Layer inception_3a/5x5
I0403 18:11:20.940551 21641 net.cpp:425] inception_3a/5x5 <- inception_3a/5x5_reduce
I0403 18:11:20.940573 21641 net.cpp:399] inception_3a/5x5 -> inception_3a/5x5
I0403 18:11:20.941571 21641 net.cpp:141] Setting up inception_3a/5x5
I0403 18:11:20.941601 21641 net.cpp:148] Top shape: 24 32 28 28 (602112)
I0403 18:11:20.941618 21641 net.cpp:156] Memory required for data: 539493408
I0403 18:11:20.941637 21641 layer_factory.hpp:77] Creating layer inception_3a/relu_5x5
I0403 18:11:20.941654 21641 net.cpp:91] Creating Layer inception_3a/relu_5x5
I0403 18:11:20.941670 21641 net.cpp:425] inception_3a/relu_5x5 <- inception_3a/5x5
I0403 18:11:20.941687 21641 net.cpp:386] inception_3a/relu_5x5 -> inception_3a/5x5 (in-place)
I0403 18:11:20.941857 21641 net.cpp:141] Setting up inception_3a/relu_5x5
I0403 18:11:20.941881 21641 net.cpp:148] Top shape: 24 32 28 28 (602112)
I0403 18:11:20.941896 21641 net.cpp:156] Memory required for data: 541901856
I0403 18:11:20.941910 21641 layer_factory.hpp:77] Creating layer inception_3a/pool
I0403 18:11:20.941927 21641 net.cpp:91] Creating Layer inception_3a/pool
I0403 18:11:20.941961 21641 net.cpp:425] inception_3a/pool <- pool2/3x3_s2_pool2/3x3_s2_0_split_3
I0403 18:11:20.941982 21641 net.cpp:399] inception_3a/pool -> inception_3a/pool
I0403 18:11:20.942039 21641 net.cpp:141] Setting up inception_3a/pool
I0403 18:11:20.942065 21641 net.cpp:148] Top shape: 24 192 28 28 (3612672)
I0403 18:11:20.942080 21641 net.cpp:156] Memory required for data: 556352544
I0403 18:11:20.942093 21641 layer_factory.hpp:77] Creating layer inception_3a/pool_proj
I0403 18:11:20.942114 21641 net.cpp:91] Creating Layer inception_3a/pool_proj
I0403 18:11:20.942132 21641 net.cpp:425] inception_3a/pool_proj <- inception_3a/pool
I0403 18:11:20.942154 21641 net.cpp:399] inception_3a/pool_proj -> inception_3a/pool_proj
I0403 18:11:20.943100 21641 net.cpp:141] Setting up inception_3a/pool_proj
I0403 18:11:20.943128 21641 net.cpp:148] Top shape: 24 32 28 28 (602112)
I0403 18:11:20.943143 21641 net.cpp:156] Memory required for data: 558760992
I0403 18:11:20.943167 21641 layer_factory.hpp:77] Creating layer inception_3a/relu_pool_proj
I0403 18:11:20.943186 21641 net.cpp:91] Creating Layer inception_3a/relu_pool_proj
I0403 18:11:20.943202 21641 net.cpp:425] inception_3a/relu_pool_proj <- inception_3a/pool_proj
I0403 18:11:20.943222 21641 net.cpp:386] inception_3a/relu_pool_proj -> inception_3a/pool_proj (in-place)
I0403 18:11:20.943493 21641 net.cpp:141] Setting up inception_3a/relu_pool_proj
I0403 18:11:20.943519 21641 net.cpp:148] Top shape: 24 32 28 28 (602112)
I0403 18:11:20.943534 21641 net.cpp:156] Memory required for data: 561169440
I0403 18:11:20.943554 21641 layer_factory.hpp:77] Creating layer inception_3a/output
I0403 18:11:20.943573 21641 net.cpp:91] Creating Layer inception_3a/output
I0403 18:11:20.943598 21641 net.cpp:425] inception_3a/output <- inception_3a/1x1
I0403 18:11:20.943614 21641 net.cpp:425] inception_3a/output <- inception_3a/3x3
I0403 18:11:20.943629 21641 net.cpp:425] inception_3a/output <- inception_3a/5x5
I0403 18:11:20.943645 21641 net.cpp:425] inception_3a/output <- inception_3a/pool_proj
I0403 18:11:20.943662 21641 net.cpp:399] inception_3a/output -> inception_3a/output
I0403 18:11:20.943708 21641 net.cpp:141] Setting up inception_3a/output
I0403 18:11:20.943732 21641 net.cpp:148] Top shape: 24 256 28 28 (4816896)
I0403 18:11:20.943750 21641 net.cpp:156] Memory required for data: 580437024
I0403 18:11:20.943765 21641 layer_factory.hpp:77] Creating layer inception_3a/output_inception_3a/output_0_split
I0403 18:11:20.943783 21641 net.cpp:91] Creating Layer inception_3a/output_inception_3a/output_0_split
I0403 18:11:20.943797 21641 net.cpp:425] inception_3a/output_inception_3a/output_0_split <- inception_3a/output
I0403 18:11:20.943815 21641 net.cpp:399] inception_3a/output_inception_3a/output_0_split -> inception_3a/output_inception_3a/output_0_split_0
I0403 18:11:20.943835 21641 net.cpp:399] inception_3a/output_inception_3a/output_0_split -> inception_3a/output_inception_3a/output_0_split_1
I0403 18:11:20.943859 21641 net.cpp:399] inception_3a/output_inception_3a/output_0_split -> inception_3a/output_inception_3a/output_0_split_2
I0403 18:11:20.943881 21641 net.cpp:399] inception_3a/output_inception_3a/output_0_split -> inception_3a/output_inception_3a/output_0_split_3
I0403 18:11:20.943955 21641 net.cpp:141] Setting up inception_3a/output_inception_3a/output_0_split
I0403 18:11:20.943977 21641 net.cpp:148] Top shape: 24 256 28 28 (4816896)
I0403 18:11:20.943994 21641 net.cpp:148] Top shape: 24 256 28 28 (4816896)
I0403 18:11:20.944011 21641 net.cpp:148] Top shape: 24 256 28 28 (4816896)
I0403 18:11:20.944025 21641 net.cpp:148] Top shape: 24 256 28 28 (4816896)
I0403 18:11:20.944039 21641 net.cpp:156] Memory required for data: 657507360
I0403 18:11:20.944053 21641 layer_factory.hpp:77] Creating layer inception_3b/1x1
I0403 18:11:20.944077 21641 net.cpp:91] Creating Layer inception_3b/1x1
I0403 18:11:20.944094 21641 net.cpp:425] inception_3b/1x1 <- inception_3a/output_inception_3a/output_0_split_0
I0403 18:11:20.944113 21641 net.cpp:399] inception_3b/1x1 -> inception_3b/1x1
I0403 18:11:20.945248 21641 net.cpp:141] Setting up inception_3b/1x1
I0403 18:11:20.945288 21641 net.cpp:148] Top shape: 24 128 28 28 (2408448)
I0403 18:11:20.945305 21641 net.cpp:156] Memory required for data: 667141152
I0403 18:11:20.945323 21641 layer_factory.hpp:77] Creating layer inception_3b/relu_1x1
I0403 18:11:20.945343 21641 net.cpp:91] Creating Layer inception_3b/relu_1x1
I0403 18:11:20.945360 21641 net.cpp:425] inception_3b/relu_1x1 <- inception_3b/1x1
I0403 18:11:20.945377 21641 net.cpp:386] inception_3b/relu_1x1 -> inception_3b/1x1 (in-place)
I0403 18:11:20.945557 21641 net.cpp:141] Setting up inception_3b/relu_1x1
I0403 18:11:20.945582 21641 net.cpp:148] Top shape: 24 128 28 28 (2408448)
I0403 18:11:20.945597 21641 net.cpp:156] Memory required for data: 676774944
I0403 18:11:20.945612 21641 layer_factory.hpp:77] Creating layer inception_3b/3x3_reduce
I0403 18:11:20.945634 21641 net.cpp:91] Creating Layer inception_3b/3x3_reduce
I0403 18:11:20.945652 21641 net.cpp:425] inception_3b/3x3_reduce <- inception_3a/output_inception_3a/output_0_split_1
I0403 18:11:20.945672 21641 net.cpp:399] inception_3b/3x3_reduce -> inception_3b/3x3_reduce
I0403 18:11:20.946791 21641 net.cpp:141] Setting up inception_3b/3x3_reduce
I0403 18:11:20.946822 21641 net.cpp:148] Top shape: 24 128 28 28 (2408448)
I0403 18:11:20.946840 21641 net.cpp:156] Memory required for data: 686408736
I0403 18:11:20.946857 21641 layer_factory.hpp:77] Creating layer inception_3b/relu_3x3_reduce
I0403 18:11:20.946876 21641 net.cpp:91] Creating Layer inception_3b/relu_3x3_reduce
I0403 18:11:20.946892 21641 net.cpp:425] inception_3b/relu_3x3_reduce <- inception_3b/3x3_reduce
I0403 18:11:20.946908 21641 net.cpp:386] inception_3b/relu_3x3_reduce -> inception_3b/3x3_reduce (in-place)
I0403 18:11:20.947087 21641 net.cpp:141] Setting up inception_3b/relu_3x3_reduce
I0403 18:11:20.947113 21641 net.cpp:148] Top shape: 24 128 28 28 (2408448)
I0403 18:11:20.947129 21641 net.cpp:156] Memory required for data: 696042528
I0403 18:11:20.947144 21641 layer_factory.hpp:77] Creating layer inception_3b/3x3
I0403 18:11:20.947167 21641 net.cpp:91] Creating Layer inception_3b/3x3
I0403 18:11:20.947185 21641 net.cpp:425] inception_3b/3x3 <- inception_3b/3x3_reduce
I0403 18:11:20.947206 21641 net.cpp:399] inception_3b/3x3 -> inception_3b/3x3
I0403 18:11:20.950073 21641 net.cpp:141] Setting up inception_3b/3x3
I0403 18:11:20.950101 21641 net.cpp:148] Top shape: 24 192 28 28 (3612672)
I0403 18:11:20.950116 21641 net.cpp:156] Memory required for data: 710493216
I0403 18:11:20.950134 21641 layer_factory.hpp:77] Creating layer inception_3b/relu_3x3
I0403 18:11:20.950151 21641 net.cpp:91] Creating Layer inception_3b/relu_3x3
I0403 18:11:20.950166 21641 net.cpp:425] inception_3b/relu_3x3 <- inception_3b/3x3
I0403 18:11:20.950186 21641 net.cpp:386] inception_3b/relu_3x3 -> inception_3b/3x3 (in-place)
I0403 18:11:20.950453 21641 net.cpp:141] Setting up inception_3b/relu_3x3
I0403 18:11:20.950477 21641 net.cpp:148] Top shape: 24 192 28 28 (3612672)
I0403 18:11:20.950492 21641 net.cpp:156] Memory required for data: 724943904
I0403 18:11:20.950506 21641 layer_factory.hpp:77] Creating layer inception_3b/5x5_reduce
I0403 18:11:20.950527 21641 net.cpp:91] Creating Layer inception_3b/5x5_reduce
I0403 18:11:20.950549 21641 net.cpp:425] inception_3b/5x5_reduce <- inception_3a/output_inception_3a/output_0_split_2
I0403 18:11:20.950572 21641 net.cpp:399] inception_3b/5x5_reduce -> inception_3b/5x5_reduce
I0403 18:11:20.951526 21641 net.cpp:141] Setting up inception_3b/5x5_reduce
I0403 18:11:20.951565 21641 net.cpp:148] Top shape: 24 32 28 28 (602112)
I0403 18:11:20.951581 21641 net.cpp:156] Memory required for data: 727352352
I0403 18:11:20.951598 21641 layer_factory.hpp:77] Creating layer inception_3b/relu_5x5_reduce
I0403 18:11:20.951616 21641 net.cpp:91] Creating Layer inception_3b/relu_5x5_reduce
I0403 18:11:20.951632 21641 net.cpp:425] inception_3b/relu_5x5_reduce <- inception_3b/5x5_reduce
I0403 18:11:20.951649 21641 net.cpp:386] inception_3b/relu_5x5_reduce -> inception_3b/5x5_reduce (in-place)
I0403 18:11:20.951833 21641 net.cpp:141] Setting up inception_3b/relu_5x5_reduce
I0403 18:11:20.951858 21641 net.cpp:148] Top shape: 24 32 28 28 (602112)
I0403 18:11:20.951871 21641 net.cpp:156] Memory required for data: 729760800
I0403 18:11:20.951885 21641 layer_factory.hpp:77] Creating layer inception_3b/5x5
I0403 18:11:20.951907 21641 net.cpp:91] Creating Layer inception_3b/5x5
I0403 18:11:20.951925 21641 net.cpp:425] inception_3b/5x5 <- inception_3b/5x5_reduce
I0403 18:11:20.951944 21641 net.cpp:399] inception_3b/5x5 -> inception_3b/5x5
I0403 18:11:20.953847 21641 net.cpp:141] Setting up inception_3b/5x5
I0403 18:11:20.953876 21641 net.cpp:148] Top shape: 24 96 28 28 (1806336)
I0403 18:11:20.953893 21641 net.cpp:156] Memory required for data: 736986144
I0403 18:11:20.953912 21641 layer_factory.hpp:77] Creating layer inception_3b/relu_5x5
I0403 18:11:20.953928 21641 net.cpp:91] Creating Layer inception_3b/relu_5x5
I0403 18:11:20.953944 21641 net.cpp:425] inception_3b/relu_5x5 <- inception_3b/5x5
I0403 18:11:20.953961 21641 net.cpp:386] inception_3b/relu_5x5 -> inception_3b/5x5 (in-place)
I0403 18:11:20.954143 21641 net.cpp:141] Setting up inception_3b/relu_5x5
I0403 18:11:20.954167 21641 net.cpp:148] Top shape: 24 96 28 28 (1806336)
I0403 18:11:20.954181 21641 net.cpp:156] Memory required for data: 744211488
I0403 18:11:20.954195 21641 layer_factory.hpp:77] Creating layer inception_3b/pool
I0403 18:11:20.954212 21641 net.cpp:91] Creating Layer inception_3b/pool
I0403 18:11:20.954228 21641 net.cpp:425] inception_3b/pool <- inception_3a/output_inception_3a/output_0_split_3
I0403 18:11:20.954246 21641 net.cpp:399] inception_3b/pool -> inception_3b/pool
I0403 18:11:20.954298 21641 net.cpp:141] Setting up inception_3b/pool
I0403 18:11:20.954322 21641 net.cpp:148] Top shape: 24 256 28 28 (4816896)
I0403 18:11:20.954337 21641 net.cpp:156] Memory required for data: 763479072
I0403 18:11:20.954352 21641 layer_factory.hpp:77] Creating layer inception_3b/pool_proj
I0403 18:11:20.954371 21641 net.cpp:91] Creating Layer inception_3b/pool_proj
I0403 18:11:20.954386 21641 net.cpp:425] inception_3b/pool_proj <- inception_3b/pool
I0403 18:11:20.954407 21641 net.cpp:399] inception_3b/pool_proj -> inception_3b/pool_proj
I0403 18:11:20.955438 21641 net.cpp:141] Setting up inception_3b/pool_proj
I0403 18:11:20.955466 21641 net.cpp:148] Top shape: 24 64 28 28 (1204224)
I0403 18:11:20.955481 21641 net.cpp:156] Memory required for data: 768295968
I0403 18:11:20.955498 21641 layer_factory.hpp:77] Creating layer inception_3b/relu_pool_proj
I0403 18:11:20.955518 21641 net.cpp:91] Creating Layer inception_3b/relu_pool_proj
I0403 18:11:20.955534 21641 net.cpp:425] inception_3b/relu_pool_proj <- inception_3b/pool_proj
I0403 18:11:20.955556 21641 net.cpp:386] inception_3b/relu_pool_proj -> inception_3b/pool_proj (in-place)
I0403 18:11:20.955937 21641 net.cpp:141] Setting up inception_3b/relu_pool_proj
I0403 18:11:20.955962 21641 net.cpp:148] Top shape: 24 64 28 28 (1204224)
I0403 18:11:20.955977 21641 net.cpp:156] Memory required for data: 773112864
I0403 18:11:20.955991 21641 layer_factory.hpp:77] Creating layer inception_3b/output
I0403 18:11:20.956008 21641 net.cpp:91] Creating Layer inception_3b/output
I0403 18:11:20.956023 21641 net.cpp:425] inception_3b/output <- inception_3b/1x1
I0403 18:11:20.956038 21641 net.cpp:425] inception_3b/output <- inception_3b/3x3
I0403 18:11:20.956054 21641 net.cpp:425] inception_3b/output <- inception_3b/5x5
I0403 18:11:20.956069 21641 net.cpp:425] inception_3b/output <- inception_3b/pool_proj
I0403 18:11:20.956089 21641 net.cpp:399] inception_3b/output -> inception_3b/output
I0403 18:11:20.956130 21641 net.cpp:141] Setting up inception_3b/output
I0403 18:11:20.956156 21641 net.cpp:148] Top shape: 24 480 28 28 (9031680)
I0403 18:11:20.956171 21641 net.cpp:156] Memory required for data: 809239584
I0403 18:11:20.956184 21641 layer_factory.hpp:77] Creating layer pool3/3x3_s2
I0403 18:11:20.956200 21641 net.cpp:91] Creating Layer pool3/3x3_s2
I0403 18:11:20.956217 21641 net.cpp:425] pool3/3x3_s2 <- inception_3b/output
I0403 18:11:20.956250 21641 net.cpp:399] pool3/3x3_s2 -> pool3/3x3_s2
I0403 18:11:20.956321 21641 net.cpp:141] Setting up pool3/3x3_s2
I0403 18:11:20.956343 21641 net.cpp:148] Top shape: 24 480 14 14 (2257920)
I0403 18:11:20.956358 21641 net.cpp:156] Memory required for data: 818271264
I0403 18:11:20.956372 21641 layer_factory.hpp:77] Creating layer pool3/3x3_s2_pool3/3x3_s2_0_split
I0403 18:11:20.956392 21641 net.cpp:91] Creating Layer pool3/3x3_s2_pool3/3x3_s2_0_split
I0403 18:11:20.956408 21641 net.cpp:425] pool3/3x3_s2_pool3/3x3_s2_0_split <- pool3/3x3_s2
I0403 18:11:20.956424 21641 net.cpp:399] pool3/3x3_s2_pool3/3x3_s2_0_split -> pool3/3x3_s2_pool3/3x3_s2_0_split_0
I0403 18:11:20.956444 21641 net.cpp:399] pool3/3x3_s2_pool3/3x3_s2_0_split -> pool3/3x3_s2_pool3/3x3_s2_0_split_1
I0403 18:11:20.956464 21641 net.cpp:399] pool3/3x3_s2_pool3/3x3_s2_0_split -> pool3/3x3_s2_pool3/3x3_s2_0_split_2
I0403 18:11:20.956485 21641 net.cpp:399] pool3/3x3_s2_pool3/3x3_s2_0_split -> pool3/3x3_s2_pool3/3x3_s2_0_split_3
I0403 18:11:20.956579 21641 net.cpp:141] Setting up pool3/3x3_s2_pool3/3x3_s2_0_split
I0403 18:11:20.956603 21641 net.cpp:148] Top shape: 24 480 14 14 (2257920)
I0403 18:11:20.956619 21641 net.cpp:148] Top shape: 24 480 14 14 (2257920)
I0403 18:11:20.956634 21641 net.cpp:148] Top shape: 24 480 14 14 (2257920)
I0403 18:11:20.956647 21641 net.cpp:148] Top shape: 24 480 14 14 (2257920)
I0403 18:11:20.956660 21641 net.cpp:156] Memory required for data: 854397984
I0403 18:11:20.956675 21641 layer_factory.hpp:77] Creating layer inception_4a/1x1
I0403 18:11:20.956696 21641 net.cpp:91] Creating Layer inception_4a/1x1
I0403 18:11:20.956712 21641 net.cpp:425] inception_4a/1x1 <- pool3/3x3_s2_pool3/3x3_s2_0_split_0
I0403 18:11:20.956733 21641 net.cpp:399] inception_4a/1x1 -> inception_4a/1x1
I0403 18:11:20.958237 21641 net.cpp:141] Setting up inception_4a/1x1
I0403 18:11:20.958266 21641 net.cpp:148] Top shape: 24 192 14 14 (903168)
I0403 18:11:20.958281 21641 net.cpp:156] Memory required for data: 858010656
I0403 18:11:20.958298 21641 layer_factory.hpp:77] Creating layer inception_4a/relu_1x1
I0403 18:11:20.958318 21641 net.cpp:91] Creating Layer inception_4a/relu_1x1
I0403 18:11:20.958334 21641 net.cpp:425] inception_4a/relu_1x1 <- inception_4a/1x1
I0403 18:11:20.958353 21641 net.cpp:386] inception_4a/relu_1x1 -> inception_4a/1x1 (in-place)
I0403 18:11:20.958520 21641 net.cpp:141] Setting up inception_4a/relu_1x1
I0403 18:11:20.958551 21641 net.cpp:148] Top shape: 24 192 14 14 (903168)
I0403 18:11:20.958569 21641 net.cpp:156] Memory required for data: 861623328
I0403 18:11:20.958582 21641 layer_factory.hpp:77] Creating layer inception_4a/3x3_reduce
I0403 18:11:20.958605 21641 net.cpp:91] Creating Layer inception_4a/3x3_reduce
I0403 18:11:20.958621 21641 net.cpp:425] inception_4a/3x3_reduce <- pool3/3x3_s2_pool3/3x3_s2_0_split_1
I0403 18:11:20.958639 21641 net.cpp:399] inception_4a/3x3_reduce -> inception_4a/3x3_reduce
I0403 18:11:20.959880 21641 net.cpp:141] Setting up inception_4a/3x3_reduce
I0403 18:11:20.959918 21641 net.cpp:148] Top shape: 24 96 14 14 (451584)
I0403 18:11:20.959933 21641 net.cpp:156] Memory required for data: 863429664
I0403 18:11:20.959957 21641 layer_factory.hpp:77] Creating layer inception_4a/relu_3x3_reduce
I0403 18:11:20.959977 21641 net.cpp:91] Creating Layer inception_4a/relu_3x3_reduce
I0403 18:11:20.960000 21641 net.cpp:425] inception_4a/relu_3x3_reduce <- inception_4a/3x3_reduce
I0403 18:11:20.960017 21641 net.cpp:386] inception_4a/relu_3x3_reduce -> inception_4a/3x3_reduce (in-place)
I0403 18:11:20.960188 21641 net.cpp:141] Setting up inception_4a/relu_3x3_reduce
I0403 18:11:20.960213 21641 net.cpp:148] Top shape: 24 96 14 14 (451584)
I0403 18:11:20.960227 21641 net.cpp:156] Memory required for data: 865236000
I0403 18:11:20.960242 21641 layer_factory.hpp:77] Creating layer inception_4a/3x3
I0403 18:11:20.960265 21641 net.cpp:91] Creating Layer inception_4a/3x3
I0403 18:11:20.960283 21641 net.cpp:425] inception_4a/3x3 <- inception_4a/3x3_reduce
I0403 18:11:20.960301 21641 net.cpp:399] inception_4a/3x3 -> inception_4a/3x3
I0403 18:11:20.962961 21641 net.cpp:141] Setting up inception_4a/3x3
I0403 18:11:20.962992 21641 net.cpp:148] Top shape: 24 208 14 14 (978432)
I0403 18:11:20.963009 21641 net.cpp:156] Memory required for data: 869149728
I0403 18:11:20.963028 21641 layer_factory.hpp:77] Creating layer inception_4a/relu_3x3
I0403 18:11:20.963047 21641 net.cpp:91] Creating Layer inception_4a/relu_3x3
I0403 18:11:20.963063 21641 net.cpp:425] inception_4a/relu_3x3 <- inception_4a/3x3
I0403 18:11:20.963078 21641 net.cpp:386] inception_4a/relu_3x3 -> inception_4a/3x3 (in-place)
I0403 18:11:20.963357 21641 net.cpp:141] Setting up inception_4a/relu_3x3
I0403 18:11:20.963388 21641 net.cpp:148] Top shape: 24 208 14 14 (978432)
I0403 18:11:20.963405 21641 net.cpp:156] Memory required for data: 873063456
I0403 18:11:20.963419 21641 layer_factory.hpp:77] Creating layer inception_4a/5x5_reduce
I0403 18:11:20.963441 21641 net.cpp:91] Creating Layer inception_4a/5x5_reduce
I0403 18:11:20.963459 21641 net.cpp:425] inception_4a/5x5_reduce <- pool3/3x3_s2_pool3/3x3_s2_0_split_2
I0403 18:11:20.963479 21641 net.cpp:399] inception_4a/5x5_reduce -> inception_4a/5x5_reduce
I0403 18:11:20.964493 21641 net.cpp:141] Setting up inception_4a/5x5_reduce
I0403 18:11:20.964522 21641 net.cpp:148] Top shape: 24 16 14 14 (75264)
I0403 18:11:20.964550 21641 net.cpp:156] Memory required for data: 873364512
I0403 18:11:20.964570 21641 layer_factory.hpp:77] Creating layer inception_4a/relu_5x5_reduce
I0403 18:11:20.964589 21641 net.cpp:91] Creating Layer inception_4a/relu_5x5_reduce
I0403 18:11:20.964606 21641 net.cpp:425] inception_4a/relu_5x5_reduce <- inception_4a/5x5_reduce
I0403 18:11:20.964622 21641 net.cpp:386] inception_4a/relu_5x5_reduce -> inception_4a/5x5_reduce (in-place)
I0403 18:11:20.964800 21641 net.cpp:141] Setting up inception_4a/relu_5x5_reduce
I0403 18:11:20.964825 21641 net.cpp:148] Top shape: 24 16 14 14 (75264)
I0403 18:11:20.964840 21641 net.cpp:156] Memory required for data: 873665568
I0403 18:11:20.964855 21641 layer_factory.hpp:77] Creating layer inception_4a/5x5
I0403 18:11:20.964877 21641 net.cpp:91] Creating Layer inception_4a/5x5
I0403 18:11:20.964895 21641 net.cpp:425] inception_4a/5x5 <- inception_4a/5x5_reduce
I0403 18:11:20.964916 21641 net.cpp:399] inception_4a/5x5 -> inception_4a/5x5
I0403 18:11:20.965989 21641 net.cpp:141] Setting up inception_4a/5x5
I0403 18:11:20.966017 21641 net.cpp:148] Top shape: 24 48 14 14 (225792)
I0403 18:11:20.966032 21641 net.cpp:156] Memory required for data: 874568736
I0403 18:11:20.966050 21641 layer_factory.hpp:77] Creating layer inception_4a/relu_5x5
I0403 18:11:20.966068 21641 net.cpp:91] Creating Layer inception_4a/relu_5x5
I0403 18:11:20.966084 21641 net.cpp:425] inception_4a/relu_5x5 <- inception_4a/5x5
I0403 18:11:20.966104 21641 net.cpp:386] inception_4a/relu_5x5 -> inception_4a/5x5 (in-place)
I0403 18:11:20.966277 21641 net.cpp:141] Setting up inception_4a/relu_5x5
I0403 18:11:20.966302 21641 net.cpp:148] Top shape: 24 48 14 14 (225792)
I0403 18:11:20.966317 21641 net.cpp:156] Memory required for data: 875471904
I0403 18:11:20.966331 21641 layer_factory.hpp:77] Creating layer inception_4a/pool
I0403 18:11:20.966351 21641 net.cpp:91] Creating Layer inception_4a/pool
I0403 18:11:20.966368 21641 net.cpp:425] inception_4a/pool <- pool3/3x3_s2_pool3/3x3_s2_0_split_3
I0403 18:11:20.966387 21641 net.cpp:399] inception_4a/pool -> inception_4a/pool
I0403 18:11:20.966449 21641 net.cpp:141] Setting up inception_4a/pool
I0403 18:11:20.966471 21641 net.cpp:148] Top shape: 24 480 14 14 (2257920)
I0403 18:11:20.966486 21641 net.cpp:156] Memory required for data: 884503584
I0403 18:11:20.966500 21641 layer_factory.hpp:77] Creating layer inception_4a/pool_proj
I0403 18:11:20.966526 21641 net.cpp:91] Creating Layer inception_4a/pool_proj
I0403 18:11:20.966547 21641 net.cpp:425] inception_4a/pool_proj <- inception_4a/pool
I0403 18:11:20.966570 21641 net.cpp:399] inception_4a/pool_proj -> inception_4a/pool_proj
I0403 18:11:20.967730 21641 net.cpp:141] Setting up inception_4a/pool_proj
I0403 18:11:20.967758 21641 net.cpp:148] Top shape: 24 64 14 14 (301056)
I0403 18:11:20.967790 21641 net.cpp:156] Memory required for data: 885707808
I0403 18:11:20.967809 21641 layer_factory.hpp:77] Creating layer inception_4a/relu_pool_proj
I0403 18:11:20.967831 21641 net.cpp:91] Creating Layer inception_4a/relu_pool_proj
I0403 18:11:20.967849 21641 net.cpp:425] inception_4a/relu_pool_proj <- inception_4a/pool_proj
I0403 18:11:20.967866 21641 net.cpp:386] inception_4a/relu_pool_proj -> inception_4a/pool_proj (in-place)
I0403 18:11:20.968143 21641 net.cpp:141] Setting up inception_4a/relu_pool_proj
I0403 18:11:20.968170 21641 net.cpp:148] Top shape: 24 64 14 14 (301056)
I0403 18:11:20.968184 21641 net.cpp:156] Memory required for data: 886912032
I0403 18:11:20.968199 21641 layer_factory.hpp:77] Creating layer inception_4a/output
I0403 18:11:20.968216 21641 net.cpp:91] Creating Layer inception_4a/output
I0403 18:11:20.968232 21641 net.cpp:425] inception_4a/output <- inception_4a/1x1
I0403 18:11:20.968248 21641 net.cpp:425] inception_4a/output <- inception_4a/3x3
I0403 18:11:20.968266 21641 net.cpp:425] inception_4a/output <- inception_4a/5x5
I0403 18:11:20.968281 21641 net.cpp:425] inception_4a/output <- inception_4a/pool_proj
I0403 18:11:20.968307 21641 net.cpp:399] inception_4a/output -> inception_4a/output
I0403 18:11:20.968353 21641 net.cpp:141] Setting up inception_4a/output
I0403 18:11:20.968377 21641 net.cpp:148] Top shape: 24 512 14 14 (2408448)
I0403 18:11:20.968391 21641 net.cpp:156] Memory required for data: 896545824
I0403 18:11:20.968405 21641 layer_factory.hpp:77] Creating layer inception_4a/output_inception_4a/output_0_split
I0403 18:11:20.968422 21641 net.cpp:91] Creating Layer inception_4a/output_inception_4a/output_0_split
I0403 18:11:20.968437 21641 net.cpp:425] inception_4a/output_inception_4a/output_0_split <- inception_4a/output
I0403 18:11:20.968456 21641 net.cpp:399] inception_4a/output_inception_4a/output_0_split -> inception_4a/output_inception_4a/output_0_split_0
I0403 18:11:20.968477 21641 net.cpp:399] inception_4a/output_inception_4a/output_0_split -> inception_4a/output_inception_4a/output_0_split_1
I0403 18:11:20.968498 21641 net.cpp:399] inception_4a/output_inception_4a/output_0_split -> inception_4a/output_inception_4a/output_0_split_2
I0403 18:11:20.968518 21641 net.cpp:399] inception_4a/output_inception_4a/output_0_split -> inception_4a/output_inception_4a/output_0_split_3
I0403 18:11:20.968543 21641 net.cpp:399] inception_4a/output_inception_4a/output_0_split -> inception_4a/output_inception_4a/output_0_split_4
I0403 18:11:20.968636 21641 net.cpp:141] Setting up inception_4a/output_inception_4a/output_0_split
I0403 18:11:20.968662 21641 net.cpp:148] Top shape: 24 512 14 14 (2408448)
I0403 18:11:20.968677 21641 net.cpp:148] Top shape: 24 512 14 14 (2408448)
I0403 18:11:20.968693 21641 net.cpp:148] Top shape: 24 512 14 14 (2408448)
I0403 18:11:20.968708 21641 net.cpp:148] Top shape: 24 512 14 14 (2408448)
I0403 18:11:20.968722 21641 net.cpp:148] Top shape: 24 512 14 14 (2408448)
I0403 18:11:20.968736 21641 net.cpp:156] Memory required for data: 944714784
I0403 18:11:20.968750 21641 layer_factory.hpp:77] Creating layer loss1/ave_pool
I0403 18:11:20.968767 21641 net.cpp:91] Creating Layer loss1/ave_pool
I0403 18:11:20.968783 21641 net.cpp:425] loss1/ave_pool <- inception_4a/output_inception_4a/output_0_split_0
I0403 18:11:20.968802 21641 net.cpp:399] loss1/ave_pool -> loss1/ave_pool
I0403 18:11:20.969002 21641 net.cpp:141] Setting up loss1/ave_pool
I0403 18:11:20.969028 21641 net.cpp:148] Top shape: 24 512 4 4 (196608)
I0403 18:11:20.969043 21641 net.cpp:156] Memory required for data: 945501216
I0403 18:11:20.969058 21641 layer_factory.hpp:77] Creating layer loss1/conv
I0403 18:11:20.969079 21641 net.cpp:91] Creating Layer loss1/conv
I0403 18:11:20.969096 21641 net.cpp:425] loss1/conv <- loss1/ave_pool
I0403 18:11:20.969117 21641 net.cpp:399] loss1/conv -> loss1/conv
I0403 18:11:20.970542 21641 net.cpp:141] Setting up loss1/conv
I0403 18:11:20.970573 21641 net.cpp:148] Top shape: 24 128 4 4 (49152)
I0403 18:11:20.970603 21641 net.cpp:156] Memory required for data: 945697824
I0403 18:11:20.970623 21641 layer_factory.hpp:77] Creating layer loss1/relu_conv
I0403 18:11:20.970640 21641 net.cpp:91] Creating Layer loss1/relu_conv
I0403 18:11:20.970657 21641 net.cpp:425] loss1/relu_conv <- loss1/conv
I0403 18:11:20.970674 21641 net.cpp:386] loss1/relu_conv -> loss1/conv (in-place)
I0403 18:11:20.970950 21641 net.cpp:141] Setting up loss1/relu_conv
I0403 18:11:20.970979 21641 net.cpp:148] Top shape: 24 128 4 4 (49152)
I0403 18:11:20.970995 21641 net.cpp:156] Memory required for data: 945894432
I0403 18:11:20.971010 21641 layer_factory.hpp:77] Creating layer loss1/fc
I0403 18:11:20.971032 21641 net.cpp:91] Creating Layer loss1/fc
I0403 18:11:20.971050 21641 net.cpp:425] loss1/fc <- loss1/conv
I0403 18:11:20.971071 21641 net.cpp:399] loss1/fc -> loss1/fc
I0403 18:11:20.988519 21641 net.cpp:141] Setting up loss1/fc
I0403 18:11:20.988555 21641 net.cpp:148] Top shape: 24 1024 (24576)
I0403 18:11:20.988571 21641 net.cpp:156] Memory required for data: 945992736
I0403 18:11:20.988589 21641 layer_factory.hpp:77] Creating layer loss1/relu_fc
I0403 18:11:20.988608 21641 net.cpp:91] Creating Layer loss1/relu_fc
I0403 18:11:20.988626 21641 net.cpp:425] loss1/relu_fc <- loss1/fc
I0403 18:11:20.988642 21641 net.cpp:386] loss1/relu_fc -> loss1/fc (in-place)
I0403 18:11:20.988821 21641 net.cpp:141] Setting up loss1/relu_fc
I0403 18:11:20.988847 21641 net.cpp:148] Top shape: 24 1024 (24576)
I0403 18:11:20.988862 21641 net.cpp:156] Memory required for data: 946091040
I0403 18:11:20.988876 21641 layer_factory.hpp:77] Creating layer loss1/drop_fc
I0403 18:11:20.988903 21641 net.cpp:91] Creating Layer loss1/drop_fc
I0403 18:11:20.988919 21641 net.cpp:425] loss1/drop_fc <- loss1/fc
I0403 18:11:20.988936 21641 net.cpp:386] loss1/drop_fc -> loss1/fc (in-place)
I0403 18:11:20.988987 21641 net.cpp:141] Setting up loss1/drop_fc
I0403 18:11:20.989011 21641 net.cpp:148] Top shape: 24 1024 (24576)
I0403 18:11:20.989024 21641 net.cpp:156] Memory required for data: 946189344
I0403 18:11:20.989038 21641 layer_factory.hpp:77] Creating layer loss1/classifier_plantvillage
I0403 18:11:20.989059 21641 net.cpp:91] Creating Layer loss1/classifier_plantvillage
I0403 18:11:20.989075 21641 net.cpp:425] loss1/classifier_plantvillage <- loss1/fc
I0403 18:11:20.989094 21641 net.cpp:399] loss1/classifier_plantvillage -> loss1/classifier_plantvillage
I0403 18:11:20.989982 21641 net.cpp:141] Setting up loss1/classifier_plantvillage
I0403 18:11:20.990012 21641 net.cpp:148] Top shape: 24 38 (912)
I0403 18:11:20.990027 21641 net.cpp:156] Memory required for data: 946192992
I0403 18:11:20.990046 21641 layer_factory.hpp:77] Creating layer loss1/classifier_plantvillage_loss1/classifier_plantvillage_0_split
I0403 18:11:20.990063 21641 net.cpp:91] Creating Layer loss1/classifier_plantvillage_loss1/classifier_plantvillage_0_split
I0403 18:11:20.990079 21641 net.cpp:425] loss1/classifier_plantvillage_loss1/classifier_plantvillage_0_split <- loss1/classifier_plantvillage
I0403 18:11:20.990097 21641 net.cpp:399] loss1/classifier_plantvillage_loss1/classifier_plantvillage_0_split -> loss1/classifier_plantvillage_loss1/classifier_plantvillage_0_split_0
I0403 18:11:20.990116 21641 net.cpp:399] loss1/classifier_plantvillage_loss1/classifier_plantvillage_0_split -> loss1/classifier_plantvillage_loss1/classifier_plantvillage_0_split_1
I0403 18:11:20.990136 21641 net.cpp:399] loss1/classifier_plantvillage_loss1/classifier_plantvillage_0_split -> loss1/classifier_plantvillage_loss1/classifier_plantvillage_0_split_2
I0403 18:11:20.990200 21641 net.cpp:141] Setting up loss1/classifier_plantvillage_loss1/classifier_plantvillage_0_split
I0403 18:11:20.990222 21641 net.cpp:148] Top shape: 24 38 (912)
I0403 18:11:20.990238 21641 net.cpp:148] Top shape: 24 38 (912)
I0403 18:11:20.990253 21641 net.cpp:148] Top shape: 24 38 (912)
I0403 18:11:20.990267 21641 net.cpp:156] Memory required for data: 946203936
I0403 18:11:20.990280 21641 layer_factory.hpp:77] Creating layer inception_4b/1x1
I0403 18:11:20.990299 21641 net.cpp:91] Creating Layer inception_4b/1x1
I0403 18:11:20.990332 21641 net.cpp:425] inception_4b/1x1 <- inception_4a/output_inception_4a/output_0_split_1
I0403 18:11:20.990355 21641 net.cpp:399] inception_4b/1x1 -> inception_4b/1x1
I0403 18:11:20.991950 21641 net.cpp:141] Setting up inception_4b/1x1
I0403 18:11:20.991981 21641 net.cpp:148] Top shape: 24 160 14 14 (752640)
I0403 18:11:20.991997 21641 net.cpp:156] Memory required for data: 949214496
I0403 18:11:20.992014 21641 layer_factory.hpp:77] Creating layer inception_4b/relu_1x1
I0403 18:11:20.992033 21641 net.cpp:91] Creating Layer inception_4b/relu_1x1
I0403 18:11:20.992048 21641 net.cpp:425] inception_4b/relu_1x1 <- inception_4b/1x1
I0403 18:11:20.992065 21641 net.cpp:386] inception_4b/relu_1x1 -> inception_4b/1x1 (in-place)
I0403 18:11:20.992238 21641 net.cpp:141] Setting up inception_4b/relu_1x1
I0403 18:11:20.992264 21641 net.cpp:148] Top shape: 24 160 14 14 (752640)
I0403 18:11:20.992277 21641 net.cpp:156] Memory required for data: 952225056
I0403 18:11:20.992291 21641 layer_factory.hpp:77] Creating layer inception_4b/3x3_reduce
I0403 18:11:20.992313 21641 net.cpp:91] Creating Layer inception_4b/3x3_reduce
I0403 18:11:20.992331 21641 net.cpp:425] inception_4b/3x3_reduce <- inception_4a/output_inception_4a/output_0_split_2
I0403 18:11:20.992352 21641 net.cpp:399] inception_4b/3x3_reduce -> inception_4b/3x3_reduce
I0403 18:11:20.993669 21641 net.cpp:141] Setting up inception_4b/3x3_reduce
I0403 18:11:20.993695 21641 net.cpp:148] Top shape: 24 112 14 14 (526848)
I0403 18:11:20.993711 21641 net.cpp:156] Memory required for data: 954332448
I0403 18:11:20.993728 21641 layer_factory.hpp:77] Creating layer inception_4b/relu_3x3_reduce
I0403 18:11:20.993746 21641 net.cpp:91] Creating Layer inception_4b/relu_3x3_reduce
I0403 18:11:20.993762 21641 net.cpp:425] inception_4b/relu_3x3_reduce <- inception_4b/3x3_reduce
I0403 18:11:20.993785 21641 net.cpp:386] inception_4b/relu_3x3_reduce -> inception_4b/3x3_reduce (in-place)
I0403 18:11:20.994060 21641 net.cpp:141] Setting up inception_4b/relu_3x3_reduce
I0403 18:11:20.994086 21641 net.cpp:148] Top shape: 24 112 14 14 (526848)
I0403 18:11:20.994099 21641 net.cpp:156] Memory required for data: 956439840
I0403 18:11:20.994114 21641 layer_factory.hpp:77] Creating layer inception_4b/3x3
I0403 18:11:20.994137 21641 net.cpp:91] Creating Layer inception_4b/3x3
I0403 18:11:20.994153 21641 net.cpp:425] inception_4b/3x3 <- inception_4b/3x3_reduce
I0403 18:11:20.994175 21641 net.cpp:399] inception_4b/3x3 -> inception_4b/3x3
I0403 18:11:20.997066 21641 net.cpp:141] Setting up inception_4b/3x3
I0403 18:11:20.997094 21641 net.cpp:148] Top shape: 24 224 14 14 (1053696)
I0403 18:11:20.997109 21641 net.cpp:156] Memory required for data: 960654624
I0403 18:11:20.997128 21641 layer_factory.hpp:77] Creating layer inception_4b/relu_3x3
I0403 18:11:20.997148 21641 net.cpp:91] Creating Layer inception_4b/relu_3x3
I0403 18:11:20.997164 21641 net.cpp:425] inception_4b/relu_3x3 <- inception_4b/3x3
I0403 18:11:20.997180 21641 net.cpp:386] inception_4b/relu_3x3 -> inception_4b/3x3 (in-place)
I0403 18:11:20.997354 21641 net.cpp:141] Setting up inception_4b/relu_3x3
I0403 18:11:20.997383 21641 net.cpp:148] Top shape: 24 224 14 14 (1053696)
I0403 18:11:20.997400 21641 net.cpp:156] Memory required for data: 964869408
I0403 18:11:20.997414 21641 layer_factory.hpp:77] Creating layer inception_4b/5x5_reduce
I0403 18:11:20.997436 21641 net.cpp:91] Creating Layer inception_4b/5x5_reduce
I0403 18:11:20.997452 21641 net.cpp:425] inception_4b/5x5_reduce <- inception_4a/output_inception_4a/output_0_split_3
I0403 18:11:20.997470 21641 net.cpp:399] inception_4b/5x5_reduce -> inception_4b/5x5_reduce
I0403 18:11:20.998504 21641 net.cpp:141] Setting up inception_4b/5x5_reduce
I0403 18:11:20.998533 21641 net.cpp:148] Top shape: 24 24 14 14 (112896)
I0403 18:11:20.998553 21641 net.cpp:156] Memory required for data: 965320992
I0403 18:11:20.998570 21641 layer_factory.hpp:77] Creating layer inception_4b/relu_5x5_reduce
I0403 18:11:20.998589 21641 net.cpp:91] Creating Layer inception_4b/relu_5x5_reduce
I0403 18:11:20.998617 21641 net.cpp:425] inception_4b/relu_5x5_reduce <- inception_4b/5x5_reduce
I0403 18:11:20.998637 21641 net.cpp:386] inception_4b/relu_5x5_reduce -> inception_4b/5x5_reduce (in-place)
I0403 18:11:20.998807 21641 net.cpp:141] Setting up inception_4b/relu_5x5_reduce
I0403 18:11:20.998831 21641 net.cpp:148] Top shape: 24 24 14 14 (112896)
I0403 18:11:20.998844 21641 net.cpp:156] Memory required for data: 965772576
I0403 18:11:20.998858 21641 layer_factory.hpp:77] Creating layer inception_4b/5x5
I0403 18:11:20.998879 21641 net.cpp:91] Creating Layer inception_4b/5x5
I0403 18:11:20.998896 21641 net.cpp:425] inception_4b/5x5 <- inception_4b/5x5_reduce
I0403 18:11:20.998915 21641 net.cpp:399] inception_4b/5x5 -> inception_4b/5x5
I0403 18:11:21.000064 21641 net.cpp:141] Setting up inception_4b/5x5
I0403 18:11:21.000093 21641 net.cpp:148] Top shape: 24 64 14 14 (301056)
I0403 18:11:21.000108 21641 net.cpp:156] Memory required for data: 966976800
I0403 18:11:21.000126 21641 layer_factory.hpp:77] Creating layer inception_4b/relu_5x5
I0403 18:11:21.000144 21641 net.cpp:91] Creating Layer inception_4b/relu_5x5
I0403 18:11:21.000159 21641 net.cpp:425] inception_4b/relu_5x5 <- inception_4b/5x5
I0403 18:11:21.000174 21641 net.cpp:386] inception_4b/relu_5x5 -> inception_4b/5x5 (in-place)
I0403 18:11:21.000440 21641 net.cpp:141] Setting up inception_4b/relu_5x5
I0403 18:11:21.000468 21641 net.cpp:148] Top shape: 24 64 14 14 (301056)
I0403 18:11:21.000483 21641 net.cpp:156] Memory required for data: 968181024
I0403 18:11:21.000497 21641 layer_factory.hpp:77] Creating layer inception_4b/pool
I0403 18:11:21.000515 21641 net.cpp:91] Creating Layer inception_4b/pool
I0403 18:11:21.000530 21641 net.cpp:425] inception_4b/pool <- inception_4a/output_inception_4a/output_0_split_4
I0403 18:11:21.000557 21641 net.cpp:399] inception_4b/pool -> inception_4b/pool
I0403 18:11:21.000628 21641 net.cpp:141] Setting up inception_4b/pool
I0403 18:11:21.000659 21641 net.cpp:148] Top shape: 24 512 14 14 (2408448)
I0403 18:11:21.000674 21641 net.cpp:156] Memory required for data: 977814816
I0403 18:11:21.000687 21641 layer_factory.hpp:77] Creating layer inception_4b/pool_proj
I0403 18:11:21.000711 21641 net.cpp:91] Creating Layer inception_4b/pool_proj
I0403 18:11:21.000728 21641 net.cpp:425] inception_4b/pool_proj <- inception_4b/pool
I0403 18:11:21.000747 21641 net.cpp:399] inception_4b/pool_proj -> inception_4b/pool_proj
I0403 18:11:21.001880 21641 net.cpp:141] Setting up inception_4b/pool_proj
I0403 18:11:21.001906 21641 net.cpp:148] Top shape: 24 64 14 14 (301056)
I0403 18:11:21.001921 21641 net.cpp:156] Memory required for data: 979019040
I0403 18:11:21.001938 21641 layer_factory.hpp:77] Creating layer inception_4b/relu_pool_proj
I0403 18:11:21.001955 21641 net.cpp:91] Creating Layer inception_4b/relu_pool_proj
I0403 18:11:21.001971 21641 net.cpp:425] inception_4b/relu_pool_proj <- inception_4b/pool_proj
I0403 18:11:21.001991 21641 net.cpp:386] inception_4b/relu_pool_proj -> inception_4b/pool_proj (in-place)
I0403 18:11:21.002158 21641 net.cpp:141] Setting up inception_4b/relu_pool_proj
I0403 18:11:21.002182 21641 net.cpp:148] Top shape: 24 64 14 14 (301056)
I0403 18:11:21.002195 21641 net.cpp:156] Memory required for data: 980223264
I0403 18:11:21.002209 21641 layer_factory.hpp:77] Creating layer inception_4b/output
I0403 18:11:21.002225 21641 net.cpp:91] Creating Layer inception_4b/output
I0403 18:11:21.002252 21641 net.cpp:425] inception_4b/output <- inception_4b/1x1
I0403 18:11:21.002269 21641 net.cpp:425] inception_4b/output <- inception_4b/3x3
I0403 18:11:21.002288 21641 net.cpp:425] inception_4b/output <- inception_4b/5x5
I0403 18:11:21.002313 21641 net.cpp:425] inception_4b/output <- inception_4b/pool_proj
I0403 18:11:21.002331 21641 net.cpp:399] inception_4b/output -> inception_4b/output
I0403 18:11:21.002373 21641 net.cpp:141] Setting up inception_4b/output
I0403 18:11:21.002398 21641 net.cpp:148] Top shape: 24 512 14 14 (2408448)
I0403 18:11:21.002413 21641 net.cpp:156] Memory required for data: 989857056
I0403 18:11:21.002440 21641 layer_factory.hpp:77] Creating layer inception_4b/output_inception_4b/output_0_split
I0403 18:11:21.002459 21641 net.cpp:91] Creating Layer inception_4b/output_inception_4b/output_0_split
I0403 18:11:21.002475 21641 net.cpp:425] inception_4b/output_inception_4b/output_0_split <- inception_4b/output
I0403 18:11:21.002493 21641 net.cpp:399] inception_4b/output_inception_4b/output_0_split -> inception_4b/output_inception_4b/output_0_split_0
I0403 18:11:21.002513 21641 net.cpp:399] inception_4b/output_inception_4b/output_0_split -> inception_4b/output_inception_4b/output_0_split_1
I0403 18:11:21.002549 21641 net.cpp:399] inception_4b/output_inception_4b/output_0_split -> inception_4b/output_inception_4b/output_0_split_2
I0403 18:11:21.002570 21641 net.cpp:399] inception_4b/output_inception_4b/output_0_split -> inception_4b/output_inception_4b/output_0_split_3
I0403 18:11:21.002657 21641 net.cpp:141] Setting up inception_4b/output_inception_4b/output_0_split
I0403 18:11:21.002681 21641 net.cpp:148] Top shape: 24 512 14 14 (2408448)
I0403 18:11:21.002697 21641 net.cpp:148] Top shape: 24 512 14 14 (2408448)
I0403 18:11:21.002712 21641 net.cpp:148] Top shape: 24 512 14 14 (2408448)
I0403 18:11:21.002727 21641 net.cpp:148] Top shape: 24 512 14 14 (2408448)
I0403 18:11:21.002739 21641 net.cpp:156] Memory required for data: 1028392224
I0403 18:11:21.002753 21641 layer_factory.hpp:77] Creating layer inception_4c/1x1
I0403 18:11:21.002774 21641 net.cpp:91] Creating Layer inception_4c/1x1
I0403 18:11:21.002791 21641 net.cpp:425] inception_4c/1x1 <- inception_4b/output_inception_4b/output_0_split_0
I0403 18:11:21.002810 21641 net.cpp:399] inception_4c/1x1 -> inception_4c/1x1
I0403 18:11:21.004159 21641 net.cpp:141] Setting up inception_4c/1x1
I0403 18:11:21.004185 21641 net.cpp:148] Top shape: 24 128 14 14 (602112)
I0403 18:11:21.004200 21641 net.cpp:156] Memory required for data: 1030800672
I0403 18:11:21.004217 21641 layer_factory.hpp:77] Creating layer inception_4c/relu_1x1
I0403 18:11:21.004238 21641 net.cpp:91] Creating Layer inception_4c/relu_1x1
I0403 18:11:21.004254 21641 net.cpp:425] inception_4c/relu_1x1 <- inception_4c/1x1
I0403 18:11:21.004271 21641 net.cpp:386] inception_4c/relu_1x1 -> inception_4c/1x1 (in-place)
I0403 18:11:21.004444 21641 net.cpp:141] Setting up inception_4c/relu_1x1
I0403 18:11:21.004467 21641 net.cpp:148] Top shape: 24 128 14 14 (602112)
I0403 18:11:21.004482 21641 net.cpp:156] Memory required for data: 1033209120
I0403 18:11:21.004495 21641 layer_factory.hpp:77] Creating layer inception_4c/3x3_reduce
I0403 18:11:21.004518 21641 net.cpp:91] Creating Layer inception_4c/3x3_reduce
I0403 18:11:21.004534 21641 net.cpp:425] inception_4c/3x3_reduce <- inception_4b/output_inception_4b/output_0_split_1
I0403 18:11:21.004565 21641 net.cpp:399] inception_4c/3x3_reduce -> inception_4c/3x3_reduce
I0403 18:11:21.006403 21641 net.cpp:141] Setting up inception_4c/3x3_reduce
I0403 18:11:21.006433 21641 net.cpp:148] Top shape: 24 128 14 14 (602112)
I0403 18:11:21.006448 21641 net.cpp:156] Memory required for data: 1035617568
I0403 18:11:21.006465 21641 layer_factory.hpp:77] Creating layer inception_4c/relu_3x3_reduce
I0403 18:11:21.006482 21641 net.cpp:91] Creating Layer inception_4c/relu_3x3_reduce
I0403 18:11:21.006497 21641 net.cpp:425] inception_4c/relu_3x3_reduce <- inception_4c/3x3_reduce
I0403 18:11:21.006515 21641 net.cpp:386] inception_4c/relu_3x3_reduce -> inception_4c/3x3_reduce (in-place)
I0403 18:11:21.006786 21641 net.cpp:141] Setting up inception_4c/relu_3x3_reduce
I0403 18:11:21.006816 21641 net.cpp:148] Top shape: 24 128 14 14 (602112)
I0403 18:11:21.006832 21641 net.cpp:156] Memory required for data: 1038026016
I0403 18:11:21.006846 21641 layer_factory.hpp:77] Creating layer inception_4c/3x3
I0403 18:11:21.006868 21641 net.cpp:91] Creating Layer inception_4c/3x3
I0403 18:11:21.006886 21641 net.cpp:425] inception_4c/3x3 <- inception_4c/3x3_reduce
I0403 18:11:21.006902 21641 net.cpp:399] inception_4c/3x3 -> inception_4c/3x3
I0403 18:11:21.010412 21641 net.cpp:141] Setting up inception_4c/3x3
I0403 18:11:21.010454 21641 net.cpp:148] Top shape: 24 256 14 14 (1204224)
I0403 18:11:21.010470 21641 net.cpp:156] Memory required for data: 1042842912
I0403 18:11:21.010501 21641 layer_factory.hpp:77] Creating layer inception_4c/relu_3x3
I0403 18:11:21.010521 21641 net.cpp:91] Creating Layer inception_4c/relu_3x3
I0403 18:11:21.010541 21641 net.cpp:425] inception_4c/relu_3x3 <- inception_4c/3x3
I0403 18:11:21.010561 21641 net.cpp:386] inception_4c/relu_3x3 -> inception_4c/3x3 (in-place)
I0403 18:11:21.010737 21641 net.cpp:141] Setting up inception_4c/relu_3x3
I0403 18:11:21.010764 21641 net.cpp:148] Top shape: 24 256 14 14 (1204224)
I0403 18:11:21.010781 21641 net.cpp:156] Memory required for data: 1047659808
I0403 18:11:21.010794 21641 layer_factory.hpp:77] Creating layer inception_4c/5x5_reduce
I0403 18:11:21.010817 21641 net.cpp:91] Creating Layer inception_4c/5x5_reduce
I0403 18:11:21.010833 21641 net.cpp:425] inception_4c/5x5_reduce <- inception_4b/output_inception_4b/output_0_split_2
I0403 18:11:21.010853 21641 net.cpp:399] inception_4c/5x5_reduce -> inception_4c/5x5_reduce
I0403 18:11:21.011914 21641 net.cpp:141] Setting up inception_4c/5x5_reduce
I0403 18:11:21.011943 21641 net.cpp:148] Top shape: 24 24 14 14 (112896)
I0403 18:11:21.011960 21641 net.cpp:156] Memory required for data: 1048111392
I0403 18:11:21.011977 21641 layer_factory.hpp:77] Creating layer inception_4c/relu_5x5_reduce
I0403 18:11:21.011996 21641 net.cpp:91] Creating Layer inception_4c/relu_5x5_reduce
I0403 18:11:21.012011 21641 net.cpp:425] inception_4c/relu_5x5_reduce <- inception_4c/5x5_reduce
I0403 18:11:21.012032 21641 net.cpp:386] inception_4c/relu_5x5_reduce -> inception_4c/5x5_reduce (in-place)
I0403 18:11:21.012210 21641 net.cpp:141] Setting up inception_4c/relu_5x5_reduce
I0403 18:11:21.012234 21641 net.cpp:148] Top shape: 24 24 14 14 (112896)
I0403 18:11:21.012248 21641 net.cpp:156] Memory required for data: 1048562976
I0403 18:11:21.012264 21641 layer_factory.hpp:77] Creating layer inception_4c/5x5
I0403 18:11:21.012285 21641 net.cpp:91] Creating Layer inception_4c/5x5
I0403 18:11:21.012302 21641 net.cpp:425] inception_4c/5x5 <- inception_4c/5x5_reduce
I0403 18:11:21.012322 21641 net.cpp:399] inception_4c/5x5 -> inception_4c/5x5
I0403 18:11:21.013563 21641 net.cpp:141] Setting up inception_4c/5x5
I0403 18:11:21.013589 21641 net.cpp:148] Top shape: 24 64 14 14 (301056)
I0403 18:11:21.013605 21641 net.cpp:156] Memory required for data: 1049767200
I0403 18:11:21.013622 21641 layer_factory.hpp:77] Creating layer inception_4c/relu_5x5
I0403 18:11:21.013643 21641 net.cpp:91] Creating Layer inception_4c/relu_5x5
I0403 18:11:21.013660 21641 net.cpp:425] inception_4c/relu_5x5 <- inception_4c/5x5
I0403 18:11:21.013676 21641 net.cpp:386] inception_4c/relu_5x5 -> inception_4c/5x5 (in-place)
I0403 18:11:21.013952 21641 net.cpp:141] Setting up inception_4c/relu_5x5
I0403 18:11:21.013977 21641 net.cpp:148] Top shape: 24 64 14 14 (301056)
I0403 18:11:21.013991 21641 net.cpp:156] Memory required for data: 1050971424
I0403 18:11:21.014005 21641 layer_factory.hpp:77] Creating layer inception_4c/pool
I0403 18:11:21.014025 21641 net.cpp:91] Creating Layer inception_4c/pool
I0403 18:11:21.014042 21641 net.cpp:425] inception_4c/pool <- inception_4b/output_inception_4b/output_0_split_3
I0403 18:11:21.014060 21641 net.cpp:399] inception_4c/pool -> inception_4c/pool
I0403 18:11:21.014123 21641 net.cpp:141] Setting up inception_4c/pool
I0403 18:11:21.014147 21641 net.cpp:148] Top shape: 24 512 14 14 (2408448)
I0403 18:11:21.014160 21641 net.cpp:156] Memory required for data: 1060605216
I0403 18:11:21.014174 21641 layer_factory.hpp:77] Creating layer inception_4c/pool_proj
I0403 18:11:21.014196 21641 net.cpp:91] Creating Layer inception_4c/pool_proj
I0403 18:11:21.014214 21641 net.cpp:425] inception_4c/pool_proj <- inception_4c/pool
I0403 18:11:21.014233 21641 net.cpp:399] inception_4c/pool_proj -> inception_4c/pool_proj
I0403 18:11:21.015426 21641 net.cpp:141] Setting up inception_4c/pool_proj
I0403 18:11:21.015456 21641 net.cpp:148] Top shape: 24 64 14 14 (301056)
I0403 18:11:21.015486 21641 net.cpp:156] Memory required for data: 1061809440
I0403 18:11:21.015504 21641 layer_factory.hpp:77] Creating layer inception_4c/relu_pool_proj
I0403 18:11:21.015522 21641 net.cpp:91] Creating Layer inception_4c/relu_pool_proj
I0403 18:11:21.015542 21641 net.cpp:425] inception_4c/relu_pool_proj <- inception_4c/pool_proj
I0403 18:11:21.015563 21641 net.cpp:386] inception_4c/relu_pool_proj -> inception_4c/pool_proj (in-place)
I0403 18:11:21.015741 21641 net.cpp:141] Setting up inception_4c/relu_pool_proj
I0403 18:11:21.015766 21641 net.cpp:148] Top shape: 24 64 14 14 (301056)
I0403 18:11:21.015780 21641 net.cpp:156] Memory required for data: 1063013664
I0403 18:11:21.015794 21641 layer_factory.hpp:77] Creating layer inception_4c/output
I0403 18:11:21.015810 21641 net.cpp:91] Creating Layer inception_4c/output
I0403 18:11:21.015826 21641 net.cpp:425] inception_4c/output <- inception_4c/1x1
I0403 18:11:21.015841 21641 net.cpp:425] inception_4c/output <- inception_4c/3x3
I0403 18:11:21.015857 21641 net.cpp:425] inception_4c/output <- inception_4c/5x5
I0403 18:11:21.015873 21641 net.cpp:425] inception_4c/output <- inception_4c/pool_proj
I0403 18:11:21.015892 21641 net.cpp:399] inception_4c/output -> inception_4c/output
I0403 18:11:21.015936 21641 net.cpp:141] Setting up inception_4c/output
I0403 18:11:21.015961 21641 net.cpp:148] Top shape: 24 512 14 14 (2408448)
I0403 18:11:21.015975 21641 net.cpp:156] Memory required for data: 1072647456
I0403 18:11:21.015990 21641 layer_factory.hpp:77] Creating layer inception_4c/output_inception_4c/output_0_split
I0403 18:11:21.016006 21641 net.cpp:91] Creating Layer inception_4c/output_inception_4c/output_0_split
I0403 18:11:21.016021 21641 net.cpp:425] inception_4c/output_inception_4c/output_0_split <- inception_4c/output
I0403 18:11:21.016041 21641 net.cpp:399] inception_4c/output_inception_4c/output_0_split -> inception_4c/output_inception_4c/output_0_split_0
I0403 18:11:21.016060 21641 net.cpp:399] inception_4c/output_inception_4c/output_0_split -> inception_4c/output_inception_4c/output_0_split_1
I0403 18:11:21.016080 21641 net.cpp:399] inception_4c/output_inception_4c/output_0_split -> inception_4c/output_inception_4c/output_0_split_2
I0403 18:11:21.016100 21641 net.cpp:399] inception_4c/output_inception_4c/output_0_split -> inception_4c/output_inception_4c/output_0_split_3
I0403 18:11:21.016183 21641 net.cpp:141] Setting up inception_4c/output_inception_4c/output_0_split
I0403 18:11:21.016208 21641 net.cpp:148] Top shape: 24 512 14 14 (2408448)
I0403 18:11:21.016225 21641 net.cpp:148] Top shape: 24 512 14 14 (2408448)
I0403 18:11:21.016240 21641 net.cpp:148] Top shape: 24 512 14 14 (2408448)
I0403 18:11:21.016254 21641 net.cpp:148] Top shape: 24 512 14 14 (2408448)
I0403 18:11:21.016268 21641 net.cpp:156] Memory required for data: 1111182624
I0403 18:11:21.016283 21641 layer_factory.hpp:77] Creating layer inception_4d/1x1
I0403 18:11:21.016301 21641 net.cpp:91] Creating Layer inception_4d/1x1
I0403 18:11:21.016317 21641 net.cpp:425] inception_4d/1x1 <- inception_4c/output_inception_4c/output_0_split_0
I0403 18:11:21.016337 21641 net.cpp:399] inception_4d/1x1 -> inception_4d/1x1
I0403 18:11:21.017674 21641 net.cpp:141] Setting up inception_4d/1x1
I0403 18:11:21.017702 21641 net.cpp:148] Top shape: 24 112 14 14 (526848)
I0403 18:11:21.017717 21641 net.cpp:156] Memory required for data: 1113290016
I0403 18:11:21.017735 21641 layer_factory.hpp:77] Creating layer inception_4d/relu_1x1
I0403 18:11:21.017755 21641 net.cpp:91] Creating Layer inception_4d/relu_1x1
I0403 18:11:21.017771 21641 net.cpp:425] inception_4d/relu_1x1 <- inception_4d/1x1
I0403 18:11:21.017788 21641 net.cpp:386] inception_4d/relu_1x1 -> inception_4d/1x1 (in-place)
I0403 18:11:21.017964 21641 net.cpp:141] Setting up inception_4d/relu_1x1
I0403 18:11:21.017992 21641 net.cpp:148] Top shape: 24 112 14 14 (526848)
I0403 18:11:21.018007 21641 net.cpp:156] Memory required for data: 1115397408
I0403 18:11:21.018020 21641 layer_factory.hpp:77] Creating layer inception_4d/3x3_reduce
I0403 18:11:21.018056 21641 net.cpp:91] Creating Layer inception_4d/3x3_reduce
I0403 18:11:21.018075 21641 net.cpp:425] inception_4d/3x3_reduce <- inception_4c/output_inception_4c/output_0_split_1
I0403 18:11:21.018093 21641 net.cpp:399] inception_4d/3x3_reduce -> inception_4d/3x3_reduce
I0403 18:11:21.019556 21641 net.cpp:141] Setting up inception_4d/3x3_reduce
I0403 18:11:21.019583 21641 net.cpp:148] Top shape: 24 144 14 14 (677376)
I0403 18:11:21.019599 21641 net.cpp:156] Memory required for data: 1118106912
I0403 18:11:21.019616 21641 layer_factory.hpp:77] Creating layer inception_4d/relu_3x3_reduce
I0403 18:11:21.019639 21641 net.cpp:91] Creating Layer inception_4d/relu_3x3_reduce
I0403 18:11:21.019656 21641 net.cpp:425] inception_4d/relu_3x3_reduce <- inception_4d/3x3_reduce
I0403 18:11:21.019672 21641 net.cpp:386] inception_4d/relu_3x3_reduce -> inception_4d/3x3_reduce (in-place)
I0403 18:11:21.019951 21641 net.cpp:141] Setting up inception_4d/relu_3x3_reduce
I0403 18:11:21.019978 21641 net.cpp:148] Top shape: 24 144 14 14 (677376)
I0403 18:11:21.019991 21641 net.cpp:156] Memory required for data: 1120816416
I0403 18:11:21.020005 21641 layer_factory.hpp:77] Creating layer inception_4d/3x3
I0403 18:11:21.020027 21641 net.cpp:91] Creating Layer inception_4d/3x3
I0403 18:11:21.020045 21641 net.cpp:425] inception_4d/3x3 <- inception_4d/3x3_reduce
I0403 18:11:21.020066 21641 net.cpp:399] inception_4d/3x3 -> inception_4d/3x3
I0403 18:11:21.024214 21641 net.cpp:141] Setting up inception_4d/3x3
I0403 18:11:21.024241 21641 net.cpp:148] Top shape: 24 288 14 14 (1354752)
I0403 18:11:21.024257 21641 net.cpp:156] Memory required for data: 1126235424
I0403 18:11:21.024274 21641 layer_factory.hpp:77] Creating layer inception_4d/relu_3x3
I0403 18:11:21.024294 21641 net.cpp:91] Creating Layer inception_4d/relu_3x3
I0403 18:11:21.024312 21641 net.cpp:425] inception_4d/relu_3x3 <- inception_4d/3x3
I0403 18:11:21.024328 21641 net.cpp:386] inception_4d/relu_3x3 -> inception_4d/3x3 (in-place)
I0403 18:11:21.024505 21641 net.cpp:141] Setting up inception_4d/relu_3x3
I0403 18:11:21.024530 21641 net.cpp:148] Top shape: 24 288 14 14 (1354752)
I0403 18:11:21.024555 21641 net.cpp:156] Memory required for data: 1131654432
I0403 18:11:21.024571 21641 layer_factory.hpp:77] Creating layer inception_4d/5x5_reduce
I0403 18:11:21.024593 21641 net.cpp:91] Creating Layer inception_4d/5x5_reduce
I0403 18:11:21.024611 21641 net.cpp:425] inception_4d/5x5_reduce <- inception_4c/output_inception_4c/output_0_split_2
I0403 18:11:21.024632 21641 net.cpp:399] inception_4d/5x5_reduce -> inception_4d/5x5_reduce
I0403 18:11:21.025745 21641 net.cpp:141] Setting up inception_4d/5x5_reduce
I0403 18:11:21.025774 21641 net.cpp:148] Top shape: 24 32 14 14 (150528)
I0403 18:11:21.025789 21641 net.cpp:156] Memory required for data: 1132256544
I0403 18:11:21.025806 21641 layer_factory.hpp:77] Creating layer inception_4d/relu_5x5_reduce
I0403 18:11:21.025823 21641 net.cpp:91] Creating Layer inception_4d/relu_5x5_reduce
I0403 18:11:21.025840 21641 net.cpp:425] inception_4d/relu_5x5_reduce <- inception_4d/5x5_reduce
I0403 18:11:21.025856 21641 net.cpp:386] inception_4d/relu_5x5_reduce -> inception_4d/5x5_reduce (in-place)
I0403 18:11:21.026031 21641 net.cpp:141] Setting up inception_4d/relu_5x5_reduce
I0403 18:11:21.026057 21641 net.cpp:148] Top shape: 24 32 14 14 (150528)
I0403 18:11:21.026072 21641 net.cpp:156] Memory required for data: 1132858656
I0403 18:11:21.026087 21641 layer_factory.hpp:77] Creating layer inception_4d/5x5
I0403 18:11:21.026110 21641 net.cpp:91] Creating Layer inception_4d/5x5
I0403 18:11:21.026127 21641 net.cpp:425] inception_4d/5x5 <- inception_4d/5x5_reduce
I0403 18:11:21.026145 21641 net.cpp:399] inception_4d/5x5 -> inception_4d/5x5
I0403 18:11:21.027531 21641 net.cpp:141] Setting up inception_4d/5x5
I0403 18:11:21.027562 21641 net.cpp:148] Top shape: 24 64 14 14 (301056)
I0403 18:11:21.027577 21641 net.cpp:156] Memory required for data: 1134062880
I0403 18:11:21.027606 21641 layer_factory.hpp:77] Creating layer inception_4d/relu_5x5
I0403 18:11:21.027637 21641 net.cpp:91] Creating Layer inception_4d/relu_5x5
I0403 18:11:21.027652 21641 net.cpp:425] inception_4d/relu_5x5 <- inception_4d/5x5
I0403 18:11:21.027672 21641 net.cpp:386] inception_4d/relu_5x5 -> inception_4d/5x5 (in-place)
I0403 18:11:21.027954 21641 net.cpp:141] Setting up inception_4d/relu_5x5
I0403 18:11:21.027979 21641 net.cpp:148] Top shape: 24 64 14 14 (301056)
I0403 18:11:21.027993 21641 net.cpp:156] Memory required for data: 1135267104
I0403 18:11:21.028007 21641 layer_factory.hpp:77] Creating layer inception_4d/pool
I0403 18:11:21.028023 21641 net.cpp:91] Creating Layer inception_4d/pool
I0403 18:11:21.028038 21641 net.cpp:425] inception_4d/pool <- inception_4c/output_inception_4c/output_0_split_3
I0403 18:11:21.028059 21641 net.cpp:399] inception_4d/pool -> inception_4d/pool
I0403 18:11:21.028120 21641 net.cpp:141] Setting up inception_4d/pool
I0403 18:11:21.028144 21641 net.cpp:148] Top shape: 24 512 14 14 (2408448)
I0403 18:11:21.028159 21641 net.cpp:156] Memory required for data: 1144900896
I0403 18:11:21.028173 21641 layer_factory.hpp:77] Creating layer inception_4d/pool_proj
I0403 18:11:21.028194 21641 net.cpp:91] Creating Layer inception_4d/pool_proj
I0403 18:11:21.028211 21641 net.cpp:425] inception_4d/pool_proj <- inception_4d/pool
I0403 18:11:21.028228 21641 net.cpp:399] inception_4d/pool_proj -> inception_4d/pool_proj
I0403 18:11:21.029904 21641 net.cpp:141] Setting up inception_4d/pool_proj
I0403 18:11:21.029932 21641 net.cpp:148] Top shape: 24 64 14 14 (301056)
I0403 18:11:21.029947 21641 net.cpp:156] Memory required for data: 1146105120
I0403 18:11:21.029963 21641 layer_factory.hpp:77] Creating layer inception_4d/relu_pool_proj
I0403 18:11:21.029983 21641 net.cpp:91] Creating Layer inception_4d/relu_pool_proj
I0403 18:11:21.029999 21641 net.cpp:425] inception_4d/relu_pool_proj <- inception_4d/pool_proj
I0403 18:11:21.030015 21641 net.cpp:386] inception_4d/relu_pool_proj -> inception_4d/pool_proj (in-place)
I0403 18:11:21.030194 21641 net.cpp:141] Setting up inception_4d/relu_pool_proj
I0403 18:11:21.030217 21641 net.cpp:148] Top shape: 24 64 14 14 (301056)
I0403 18:11:21.030232 21641 net.cpp:156] Memory required for data: 1147309344
I0403 18:11:21.030246 21641 layer_factory.hpp:77] Creating layer inception_4d/output
I0403 18:11:21.030263 21641 net.cpp:91] Creating Layer inception_4d/output
I0403 18:11:21.030278 21641 net.cpp:425] inception_4d/output <- inception_4d/1x1
I0403 18:11:21.030293 21641 net.cpp:425] inception_4d/output <- inception_4d/3x3
I0403 18:11:21.030308 21641 net.cpp:425] inception_4d/output <- inception_4d/5x5
I0403 18:11:21.030323 21641 net.cpp:425] inception_4d/output <- inception_4d/pool_proj
I0403 18:11:21.030340 21641 net.cpp:399] inception_4d/output -> inception_4d/output
I0403 18:11:21.030385 21641 net.cpp:141] Setting up inception_4d/output
I0403 18:11:21.030408 21641 net.cpp:148] Top shape: 24 528 14 14 (2483712)
I0403 18:11:21.030423 21641 net.cpp:156] Memory required for data: 1157244192
I0403 18:11:21.030436 21641 layer_factory.hpp:77] Creating layer inception_4d/output_inception_4d/output_0_split
I0403 18:11:21.030453 21641 net.cpp:91] Creating Layer inception_4d/output_inception_4d/output_0_split
I0403 18:11:21.030467 21641 net.cpp:425] inception_4d/output_inception_4d/output_0_split <- inception_4d/output
I0403 18:11:21.030484 21641 net.cpp:399] inception_4d/output_inception_4d/output_0_split -> inception_4d/output_inception_4d/output_0_split_0
I0403 18:11:21.030503 21641 net.cpp:399] inception_4d/output_inception_4d/output_0_split -> inception_4d/output_inception_4d/output_0_split_1
I0403 18:11:21.030525 21641 net.cpp:399] inception_4d/output_inception_4d/output_0_split -> inception_4d/output_inception_4d/output_0_split_2
I0403 18:11:21.030551 21641 net.cpp:399] inception_4d/output_inception_4d/output_0_split -> inception_4d/output_inception_4d/output_0_split_3
I0403 18:11:21.030572 21641 net.cpp:399] inception_4d/output_inception_4d/output_0_split -> inception_4d/output_inception_4d/output_0_split_4
I0403 18:11:21.030669 21641 net.cpp:141] Setting up inception_4d/output_inception_4d/output_0_split
I0403 18:11:21.030704 21641 net.cpp:148] Top shape: 24 528 14 14 (2483712)
I0403 18:11:21.030719 21641 net.cpp:148] Top shape: 24 528 14 14 (2483712)
I0403 18:11:21.030733 21641 net.cpp:148] Top shape: 24 528 14 14 (2483712)
I0403 18:11:21.030748 21641 net.cpp:148] Top shape: 24 528 14 14 (2483712)
I0403 18:11:21.030762 21641 net.cpp:148] Top shape: 24 528 14 14 (2483712)
I0403 18:11:21.030776 21641 net.cpp:156] Memory required for data: 1206918432
I0403 18:11:21.030788 21641 layer_factory.hpp:77] Creating layer loss2/ave_pool
I0403 18:11:21.030807 21641 net.cpp:91] Creating Layer loss2/ave_pool
I0403 18:11:21.030824 21641 net.cpp:425] loss2/ave_pool <- inception_4d/output_inception_4d/output_0_split_0
I0403 18:11:21.030841 21641 net.cpp:399] loss2/ave_pool -> loss2/ave_pool
I0403 18:11:21.031136 21641 net.cpp:141] Setting up loss2/ave_pool
I0403 18:11:21.031162 21641 net.cpp:148] Top shape: 24 528 4 4 (202752)
I0403 18:11:21.031175 21641 net.cpp:156] Memory required for data: 1207729440
I0403 18:11:21.031189 21641 layer_factory.hpp:77] Creating layer loss2/conv
I0403 18:11:21.031211 21641 net.cpp:91] Creating Layer loss2/conv
I0403 18:11:21.031229 21641 net.cpp:425] loss2/conv <- loss2/ave_pool
I0403 18:11:21.031247 21641 net.cpp:399] loss2/conv -> loss2/conv
I0403 18:11:21.033064 21641 net.cpp:141] Setting up loss2/conv
I0403 18:11:21.033092 21641 net.cpp:148] Top shape: 24 128 4 4 (49152)
I0403 18:11:21.033107 21641 net.cpp:156] Memory required for data: 1207926048
I0403 18:11:21.033123 21641 layer_factory.hpp:77] Creating layer loss2/relu_conv
I0403 18:11:21.033141 21641 net.cpp:91] Creating Layer loss2/relu_conv
I0403 18:11:21.033156 21641 net.cpp:425] loss2/relu_conv <- loss2/conv
I0403 18:11:21.033175 21641 net.cpp:386] loss2/relu_conv -> loss2/conv (in-place)
I0403 18:11:21.033445 21641 net.cpp:141] Setting up loss2/relu_conv
I0403 18:11:21.033470 21641 net.cpp:148] Top shape: 24 128 4 4 (49152)
I0403 18:11:21.033484 21641 net.cpp:156] Memory required for data: 1208122656
I0403 18:11:21.033499 21641 layer_factory.hpp:77] Creating layer loss2/fc
I0403 18:11:21.033516 21641 net.cpp:91] Creating Layer loss2/fc
I0403 18:11:21.033532 21641 net.cpp:425] loss2/fc <- loss2/conv
I0403 18:11:21.033556 21641 net.cpp:399] loss2/fc -> loss2/fc
I0403 18:11:21.050340 21641 net.cpp:141] Setting up loss2/fc
I0403 18:11:21.050372 21641 net.cpp:148] Top shape: 24 1024 (24576)
I0403 18:11:21.050386 21641 net.cpp:156] Memory required for data: 1208220960
I0403 18:11:21.050403 21641 layer_factory.hpp:77] Creating layer loss2/relu_fc
I0403 18:11:21.050420 21641 net.cpp:91] Creating Layer loss2/relu_fc
I0403 18:11:21.050436 21641 net.cpp:425] loss2/relu_fc <- loss2/fc
I0403 18:11:21.050451 21641 net.cpp:386] loss2/relu_fc -> loss2/fc (in-place)
I0403 18:11:21.050735 21641 net.cpp:141] Setting up loss2/relu_fc
I0403 18:11:21.050762 21641 net.cpp:148] Top shape: 24 1024 (24576)
I0403 18:11:21.050777 21641 net.cpp:156] Memory required for data: 1208319264
I0403 18:11:21.050791 21641 layer_factory.hpp:77] Creating layer loss2/drop_fc
I0403 18:11:21.050807 21641 net.cpp:91] Creating Layer loss2/drop_fc
I0403 18:11:21.050822 21641 net.cpp:425] loss2/drop_fc <- loss2/fc
I0403 18:11:21.050839 21641 net.cpp:386] loss2/drop_fc -> loss2/fc (in-place)
I0403 18:11:21.050887 21641 net.cpp:141] Setting up loss2/drop_fc
I0403 18:11:21.050909 21641 net.cpp:148] Top shape: 24 1024 (24576)
I0403 18:11:21.050922 21641 net.cpp:156] Memory required for data: 1208417568
I0403 18:11:21.050936 21641 layer_factory.hpp:77] Creating layer loss2/classifier_plantvillage
I0403 18:11:21.050956 21641 net.cpp:91] Creating Layer loss2/classifier_plantvillage
I0403 18:11:21.050971 21641 net.cpp:425] loss2/classifier_plantvillage <- loss2/fc
I0403 18:11:21.050988 21641 net.cpp:399] loss2/classifier_plantvillage -> loss2/classifier_plantvillage
I0403 18:11:21.051370 21641 net.cpp:141] Setting up loss2/classifier_plantvillage
I0403 18:11:21.051393 21641 net.cpp:148] Top shape: 24 38 (912)
I0403 18:11:21.051424 21641 net.cpp:156] Memory required for data: 1208421216
I0403 18:11:21.051441 21641 layer_factory.hpp:77] Creating layer loss2/classifier_plantvillage_loss2/classifier_plantvillage_0_split
I0403 18:11:21.051458 21641 net.cpp:91] Creating Layer loss2/classifier_plantvillage_loss2/classifier_plantvillage_0_split
I0403 18:11:21.051473 21641 net.cpp:425] loss2/classifier_plantvillage_loss2/classifier_plantvillage_0_split <- loss2/classifier_plantvillage
I0403 18:11:21.051491 21641 net.cpp:399] loss2/classifier_plantvillage_loss2/classifier_plantvillage_0_split -> loss2/classifier_plantvillage_loss2/classifier_plantvillage_0_split_0
I0403 18:11:21.051512 21641 net.cpp:399] loss2/classifier_plantvillage_loss2/classifier_plantvillage_0_split -> loss2/classifier_plantvillage_loss2/classifier_plantvillage_0_split_1
I0403 18:11:21.051532 21641 net.cpp:399] loss2/classifier_plantvillage_loss2/classifier_plantvillage_0_split -> loss2/classifier_plantvillage_loss2/classifier_plantvillage_0_split_2
I0403 18:11:21.051610 21641 net.cpp:141] Setting up loss2/classifier_plantvillage_loss2/classifier_plantvillage_0_split
I0403 18:11:21.051633 21641 net.cpp:148] Top shape: 24 38 (912)
I0403 18:11:21.051648 21641 net.cpp:148] Top shape: 24 38 (912)
I0403 18:11:21.051662 21641 net.cpp:148] Top shape: 24 38 (912)
I0403 18:11:21.051676 21641 net.cpp:156] Memory required for data: 1208432160
I0403 18:11:21.051689 21641 layer_factory.hpp:77] Creating layer inception_4e/1x1
I0403 18:11:21.051710 21641 net.cpp:91] Creating Layer inception_4e/1x1
I0403 18:11:21.051728 21641 net.cpp:425] inception_4e/1x1 <- inception_4d/output_inception_4d/output_0_split_1
I0403 18:11:21.051744 21641 net.cpp:399] inception_4e/1x1 -> inception_4e/1x1
I0403 18:11:21.053453 21641 net.cpp:141] Setting up inception_4e/1x1
I0403 18:11:21.053480 21641 net.cpp:148] Top shape: 24 256 14 14 (1204224)
I0403 18:11:21.053494 21641 net.cpp:156] Memory required for data: 1213249056
I0403 18:11:21.053513 21641 layer_factory.hpp:77] Creating layer inception_4e/relu_1x1
I0403 18:11:21.053531 21641 net.cpp:91] Creating Layer inception_4e/relu_1x1
I0403 18:11:21.053552 21641 net.cpp:425] inception_4e/relu_1x1 <- inception_4e/1x1
I0403 18:11:21.053570 21641 net.cpp:386] inception_4e/relu_1x1 -> inception_4e/1x1 (in-place)
I0403 18:11:21.053855 21641 net.cpp:141] Setting up inception_4e/relu_1x1
I0403 18:11:21.053880 21641 net.cpp:148] Top shape: 24 256 14 14 (1204224)
I0403 18:11:21.053895 21641 net.cpp:156] Memory required for data: 1218065952
I0403 18:11:21.053908 21641 layer_factory.hpp:77] Creating layer inception_4e/3x3_reduce
I0403 18:11:21.053930 21641 net.cpp:91] Creating Layer inception_4e/3x3_reduce
I0403 18:11:21.053946 21641 net.cpp:425] inception_4e/3x3_reduce <- inception_4d/output_inception_4d/output_0_split_2
I0403 18:11:21.053966 21641 net.cpp:399] inception_4e/3x3_reduce -> inception_4e/3x3_reduce
I0403 18:11:21.056005 21641 net.cpp:141] Setting up inception_4e/3x3_reduce
I0403 18:11:21.056031 21641 net.cpp:148] Top shape: 24 160 14 14 (752640)
I0403 18:11:21.056047 21641 net.cpp:156] Memory required for data: 1221076512
I0403 18:11:21.056064 21641 layer_factory.hpp:77] Creating layer inception_4e/relu_3x3_reduce
I0403 18:11:21.056082 21641 net.cpp:91] Creating Layer inception_4e/relu_3x3_reduce
I0403 18:11:21.056097 21641 net.cpp:425] inception_4e/relu_3x3_reduce <- inception_4e/3x3_reduce
I0403 18:11:21.056118 21641 net.cpp:386] inception_4e/relu_3x3_reduce -> inception_4e/3x3_reduce (in-place)
I0403 18:11:21.056295 21641 net.cpp:141] Setting up inception_4e/relu_3x3_reduce
I0403 18:11:21.056319 21641 net.cpp:148] Top shape: 24 160 14 14 (752640)
I0403 18:11:21.056334 21641 net.cpp:156] Memory required for data: 1224087072
I0403 18:11:21.056346 21641 layer_factory.hpp:77] Creating layer inception_4e/3x3
I0403 18:11:21.056367 21641 net.cpp:91] Creating Layer inception_4e/3x3
I0403 18:11:21.056385 21641 net.cpp:425] inception_4e/3x3 <- inception_4e/3x3_reduce
I0403 18:11:21.056403 21641 net.cpp:399] inception_4e/3x3 -> inception_4e/3x3
I0403 18:11:21.061149 21641 net.cpp:141] Setting up inception_4e/3x3
I0403 18:11:21.061188 21641 net.cpp:148] Top shape: 24 320 14 14 (1505280)
I0403 18:11:21.061203 21641 net.cpp:156] Memory required for data: 1230108192
I0403 18:11:21.061221 21641 layer_factory.hpp:77] Creating layer inception_4e/relu_3x3
I0403 18:11:21.061244 21641 net.cpp:91] Creating Layer inception_4e/relu_3x3
I0403 18:11:21.061261 21641 net.cpp:425] inception_4e/relu_3x3 <- inception_4e/3x3
I0403 18:11:21.061278 21641 net.cpp:386] inception_4e/relu_3x3 -> inception_4e/3x3 (in-place)
I0403 18:11:21.061568 21641 net.cpp:141] Setting up inception_4e/relu_3x3
I0403 18:11:21.061594 21641 net.cpp:148] Top shape: 24 320 14 14 (1505280)
I0403 18:11:21.061611 21641 net.cpp:156] Memory required for data: 1236129312
I0403 18:11:21.061625 21641 layer_factory.hpp:77] Creating layer inception_4e/5x5_reduce
I0403 18:11:21.061645 21641 net.cpp:91] Creating Layer inception_4e/5x5_reduce
I0403 18:11:21.061661 21641 net.cpp:425] inception_4e/5x5_reduce <- inception_4d/output_inception_4d/output_0_split_3
I0403 18:11:21.061682 21641 net.cpp:399] inception_4e/5x5_reduce -> inception_4e/5x5_reduce
I0403 18:11:21.062713 21641 net.cpp:141] Setting up inception_4e/5x5_reduce
I0403 18:11:21.062741 21641 net.cpp:148] Top shape: 24 32 14 14 (150528)
I0403 18:11:21.062755 21641 net.cpp:156] Memory required for data: 1236731424
I0403 18:11:21.062773 21641 layer_factory.hpp:77] Creating layer inception_4e/relu_5x5_reduce
I0403 18:11:21.062791 21641 net.cpp:91] Creating Layer inception_4e/relu_5x5_reduce
I0403 18:11:21.062808 21641 net.cpp:425] inception_4e/relu_5x5_reduce <- inception_4e/5x5_reduce
I0403 18:11:21.062826 21641 net.cpp:386] inception_4e/relu_5x5_reduce -> inception_4e/5x5_reduce (in-place)
I0403 18:11:21.063124 21641 net.cpp:141] Setting up inception_4e/relu_5x5_reduce
I0403 18:11:21.063149 21641 net.cpp:148] Top shape: 24 32 14 14 (150528)
I0403 18:11:21.063163 21641 net.cpp:156] Memory required for data: 1237333536
I0403 18:11:21.063179 21641 layer_factory.hpp:77] Creating layer inception_4e/5x5
I0403 18:11:21.063215 21641 net.cpp:91] Creating Layer inception_4e/5x5
I0403 18:11:21.063235 21641 net.cpp:425] inception_4e/5x5 <- inception_4e/5x5_reduce
I0403 18:11:21.063253 21641 net.cpp:399] inception_4e/5x5 -> inception_4e/5x5
I0403 18:11:21.065050 21641 net.cpp:141] Setting up inception_4e/5x5
I0403 18:11:21.065080 21641 net.cpp:148] Top shape: 24 128 14 14 (602112)
I0403 18:11:21.065096 21641 net.cpp:156] Memory required for data: 1239741984
I0403 18:11:21.065115 21641 layer_factory.hpp:77] Creating layer inception_4e/relu_5x5
I0403 18:11:21.065132 21641 net.cpp:91] Creating Layer inception_4e/relu_5x5
I0403 18:11:21.065148 21641 net.cpp:425] inception_4e/relu_5x5 <- inception_4e/5x5
I0403 18:11:21.065171 21641 net.cpp:386] inception_4e/relu_5x5 -> inception_4e/5x5 (in-place)
I0403 18:11:21.065362 21641 net.cpp:141] Setting up inception_4e/relu_5x5
I0403 18:11:21.065387 21641 net.cpp:148] Top shape: 24 128 14 14 (602112)
I0403 18:11:21.065402 21641 net.cpp:156] Memory required for data: 1242150432
I0403 18:11:21.065415 21641 layer_factory.hpp:77] Creating layer inception_4e/pool
I0403 18:11:21.065433 21641 net.cpp:91] Creating Layer inception_4e/pool
I0403 18:11:21.065448 21641 net.cpp:425] inception_4e/pool <- inception_4d/output_inception_4d/output_0_split_4
I0403 18:11:21.065467 21641 net.cpp:399] inception_4e/pool -> inception_4e/pool
I0403 18:11:21.065534 21641 net.cpp:141] Setting up inception_4e/pool
I0403 18:11:21.065562 21641 net.cpp:148] Top shape: 24 528 14 14 (2483712)
I0403 18:11:21.065577 21641 net.cpp:156] Memory required for data: 1252085280
I0403 18:11:21.065592 21641 layer_factory.hpp:77] Creating layer inception_4e/pool_proj
I0403 18:11:21.065614 21641 net.cpp:91] Creating Layer inception_4e/pool_proj
I0403 18:11:21.065631 21641 net.cpp:425] inception_4e/pool_proj <- inception_4e/pool
I0403 18:11:21.065649 21641 net.cpp:399] inception_4e/pool_proj -> inception_4e/pool_proj
I0403 18:11:21.067111 21641 net.cpp:141] Setting up inception_4e/pool_proj
I0403 18:11:21.067148 21641 net.cpp:148] Top shape: 24 128 14 14 (602112)
I0403 18:11:21.067164 21641 net.cpp:156] Memory required for data: 1254493728
I0403 18:11:21.067183 21641 layer_factory.hpp:77] Creating layer inception_4e/relu_pool_proj
I0403 18:11:21.067201 21641 net.cpp:91] Creating Layer inception_4e/relu_pool_proj
I0403 18:11:21.067219 21641 net.cpp:425] inception_4e/relu_pool_proj <- inception_4e/pool_proj
I0403 18:11:21.067234 21641 net.cpp:386] inception_4e/relu_pool_proj -> inception_4e/pool_proj (in-place)
I0403 18:11:21.067519 21641 net.cpp:141] Setting up inception_4e/relu_pool_proj
I0403 18:11:21.067549 21641 net.cpp:148] Top shape: 24 128 14 14 (602112)
I0403 18:11:21.067565 21641 net.cpp:156] Memory required for data: 1256902176
I0403 18:11:21.067579 21641 layer_factory.hpp:77] Creating layer inception_4e/output
I0403 18:11:21.067605 21641 net.cpp:91] Creating Layer inception_4e/output
I0403 18:11:21.067620 21641 net.cpp:425] inception_4e/output <- inception_4e/1x1
I0403 18:11:21.067637 21641 net.cpp:425] inception_4e/output <- inception_4e/3x3
I0403 18:11:21.067653 21641 net.cpp:425] inception_4e/output <- inception_4e/5x5
I0403 18:11:21.067669 21641 net.cpp:425] inception_4e/output <- inception_4e/pool_proj
I0403 18:11:21.067685 21641 net.cpp:399] inception_4e/output -> inception_4e/output
I0403 18:11:21.067734 21641 net.cpp:141] Setting up inception_4e/output
I0403 18:11:21.067757 21641 net.cpp:148] Top shape: 24 832 14 14 (3913728)
I0403 18:11:21.067772 21641 net.cpp:156] Memory required for data: 1272557088
I0403 18:11:21.067786 21641 layer_factory.hpp:77] Creating layer pool4/3x3_s2
I0403 18:11:21.067803 21641 net.cpp:91] Creating Layer pool4/3x3_s2
I0403 18:11:21.067818 21641 net.cpp:425] pool4/3x3_s2 <- inception_4e/output
I0403 18:11:21.067838 21641 net.cpp:399] pool4/3x3_s2 -> pool4/3x3_s2
I0403 18:11:21.067906 21641 net.cpp:141] Setting up pool4/3x3_s2
I0403 18:11:21.067929 21641 net.cpp:148] Top shape: 24 832 7 7 (978432)
I0403 18:11:21.067944 21641 net.cpp:156] Memory required for data: 1276470816
I0403 18:11:21.067957 21641 layer_factory.hpp:77] Creating layer pool4/3x3_s2_pool4/3x3_s2_0_split
I0403 18:11:21.067973 21641 net.cpp:91] Creating Layer pool4/3x3_s2_pool4/3x3_s2_0_split
I0403 18:11:21.067988 21641 net.cpp:425] pool4/3x3_s2_pool4/3x3_s2_0_split <- pool4/3x3_s2
I0403 18:11:21.068008 21641 net.cpp:399] pool4/3x3_s2_pool4/3x3_s2_0_split -> pool4/3x3_s2_pool4/3x3_s2_0_split_0
I0403 18:11:21.068028 21641 net.cpp:399] pool4/3x3_s2_pool4/3x3_s2_0_split -> pool4/3x3_s2_pool4/3x3_s2_0_split_1
I0403 18:11:21.068048 21641 net.cpp:399] pool4/3x3_s2_pool4/3x3_s2_0_split -> pool4/3x3_s2_pool4/3x3_s2_0_split_2
I0403 18:11:21.068068 21641 net.cpp:399] pool4/3x3_s2_pool4/3x3_s2_0_split -> pool4/3x3_s2_pool4/3x3_s2_0_split_3
I0403 18:11:21.068161 21641 net.cpp:141] Setting up pool4/3x3_s2_pool4/3x3_s2_0_split
I0403 18:11:21.068186 21641 net.cpp:148] Top shape: 24 832 7 7 (978432)
I0403 18:11:21.068202 21641 net.cpp:148] Top shape: 24 832 7 7 (978432)
I0403 18:11:21.068217 21641 net.cpp:148] Top shape: 24 832 7 7 (978432)
I0403 18:11:21.068233 21641 net.cpp:148] Top shape: 24 832 7 7 (978432)
I0403 18:11:21.068246 21641 net.cpp:156] Memory required for data: 1292125728
I0403 18:11:21.068261 21641 layer_factory.hpp:77] Creating layer inception_5a/1x1
I0403 18:11:21.068282 21641 net.cpp:91] Creating Layer inception_5a/1x1
I0403 18:11:21.068298 21641 net.cpp:425] inception_5a/1x1 <- pool4/3x3_s2_pool4/3x3_s2_0_split_0
I0403 18:11:21.068317 21641 net.cpp:399] inception_5a/1x1 -> inception_5a/1x1
I0403 18:11:21.071120 21641 net.cpp:141] Setting up inception_5a/1x1
I0403 18:11:21.071148 21641 net.cpp:148] Top shape: 24 256 7 7 (301056)
I0403 18:11:21.071164 21641 net.cpp:156] Memory required for data: 1293329952
I0403 18:11:21.071182 21641 layer_factory.hpp:77] Creating layer inception_5a/relu_1x1
I0403 18:11:21.071197 21641 net.cpp:91] Creating Layer inception_5a/relu_1x1
I0403 18:11:21.071213 21641 net.cpp:425] inception_5a/relu_1x1 <- inception_5a/1x1
I0403 18:11:21.071233 21641 net.cpp:386] inception_5a/relu_1x1 -> inception_5a/1x1 (in-place)
I0403 18:11:21.071542 21641 net.cpp:141] Setting up inception_5a/relu_1x1
I0403 18:11:21.071568 21641 net.cpp:148] Top shape: 24 256 7 7 (301056)
I0403 18:11:21.071583 21641 net.cpp:156] Memory required for data: 1294534176
I0403 18:11:21.071605 21641 layer_factory.hpp:77] Creating layer inception_5a/3x3_reduce
I0403 18:11:21.071626 21641 net.cpp:91] Creating Layer inception_5a/3x3_reduce
I0403 18:11:21.071645 21641 net.cpp:425] inception_5a/3x3_reduce <- pool4/3x3_s2_pool4/3x3_s2_0_split_1
I0403 18:11:21.071666 21641 net.cpp:399] inception_5a/3x3_reduce -> inception_5a/3x3_reduce
I0403 18:11:21.074067 21641 net.cpp:141] Setting up inception_5a/3x3_reduce
I0403 18:11:21.074095 21641 net.cpp:148] Top shape: 24 160 7 7 (188160)
I0403 18:11:21.074110 21641 net.cpp:156] Memory required for data: 1295286816
I0403 18:11:21.074127 21641 layer_factory.hpp:77] Creating layer inception_5a/relu_3x3_reduce
I0403 18:11:21.074147 21641 net.cpp:91] Creating Layer inception_5a/relu_3x3_reduce
I0403 18:11:21.074164 21641 net.cpp:425] inception_5a/relu_3x3_reduce <- inception_5a/3x3_reduce
I0403 18:11:21.074182 21641 net.cpp:386] inception_5a/relu_3x3_reduce -> inception_5a/3x3_reduce (in-place)
I0403 18:11:21.074362 21641 net.cpp:141] Setting up inception_5a/relu_3x3_reduce
I0403 18:11:21.074388 21641 net.cpp:148] Top shape: 24 160 7 7 (188160)
I0403 18:11:21.074404 21641 net.cpp:156] Memory required for data: 1296039456
I0403 18:11:21.074417 21641 layer_factory.hpp:77] Creating layer inception_5a/3x3
I0403 18:11:21.074440 21641 net.cpp:91] Creating Layer inception_5a/3x3
I0403 18:11:21.074458 21641 net.cpp:425] inception_5a/3x3 <- inception_5a/3x3_reduce
I0403 18:11:21.074477 21641 net.cpp:399] inception_5a/3x3 -> inception_5a/3x3
I0403 18:11:21.079412 21641 net.cpp:141] Setting up inception_5a/3x3
I0403 18:11:21.079444 21641 net.cpp:148] Top shape: 24 320 7 7 (376320)
I0403 18:11:21.079462 21641 net.cpp:156] Memory required for data: 1297544736
I0403 18:11:21.079478 21641 layer_factory.hpp:77] Creating layer inception_5a/relu_3x3
I0403 18:11:21.079496 21641 net.cpp:91] Creating Layer inception_5a/relu_3x3
I0403 18:11:21.079512 21641 net.cpp:425] inception_5a/relu_3x3 <- inception_5a/3x3
I0403 18:11:21.079531 21641 net.cpp:386] inception_5a/relu_3x3 -> inception_5a/3x3 (in-place)
I0403 18:11:21.079823 21641 net.cpp:141] Setting up inception_5a/relu_3x3
I0403 18:11:21.079862 21641 net.cpp:148] Top shape: 24 320 7 7 (376320)
I0403 18:11:21.079877 21641 net.cpp:156] Memory required for data: 1299050016
I0403 18:11:21.079892 21641 layer_factory.hpp:77] Creating layer inception_5a/5x5_reduce
I0403 18:11:21.079915 21641 net.cpp:91] Creating Layer inception_5a/5x5_reduce
I0403 18:11:21.079931 21641 net.cpp:425] inception_5a/5x5_reduce <- pool4/3x3_s2_pool4/3x3_s2_0_split_2
I0403 18:11:21.079951 21641 net.cpp:399] inception_5a/5x5_reduce -> inception_5a/5x5_reduce
I0403 18:11:21.081080 21641 net.cpp:141] Setting up inception_5a/5x5_reduce
I0403 18:11:21.081110 21641 net.cpp:148] Top shape: 24 32 7 7 (37632)
I0403 18:11:21.081126 21641 net.cpp:156] Memory required for data: 1299200544
I0403 18:11:21.081146 21641 layer_factory.hpp:77] Creating layer inception_5a/relu_5x5_reduce
I0403 18:11:21.081163 21641 net.cpp:91] Creating Layer inception_5a/relu_5x5_reduce
I0403 18:11:21.081179 21641 net.cpp:425] inception_5a/relu_5x5_reduce <- inception_5a/5x5_reduce
I0403 18:11:21.081198 21641 net.cpp:386] inception_5a/relu_5x5_reduce -> inception_5a/5x5_reduce (in-place)
I0403 18:11:21.081497 21641 net.cpp:141] Setting up inception_5a/relu_5x5_reduce
I0403 18:11:21.081521 21641 net.cpp:148] Top shape: 24 32 7 7 (37632)
I0403 18:11:21.081539 21641 net.cpp:156] Memory required for data: 1299351072
I0403 18:11:21.081557 21641 layer_factory.hpp:77] Creating layer inception_5a/5x5
I0403 18:11:21.081578 21641 net.cpp:91] Creating Layer inception_5a/5x5
I0403 18:11:21.081594 21641 net.cpp:425] inception_5a/5x5 <- inception_5a/5x5_reduce
I0403 18:11:21.081614 21641 net.cpp:399] inception_5a/5x5 -> inception_5a/5x5
I0403 18:11:21.083258 21641 net.cpp:141] Setting up inception_5a/5x5
I0403 18:11:21.083302 21641 net.cpp:148] Top shape: 24 128 7 7 (150528)
I0403 18:11:21.083318 21641 net.cpp:156] Memory required for data: 1299953184
I0403 18:11:21.083336 21641 layer_factory.hpp:77] Creating layer inception_5a/relu_5x5
I0403 18:11:21.083353 21641 net.cpp:91] Creating Layer inception_5a/relu_5x5
I0403 18:11:21.083369 21641 net.cpp:425] inception_5a/relu_5x5 <- inception_5a/5x5
I0403 18:11:21.083386 21641 net.cpp:386] inception_5a/relu_5x5 -> inception_5a/5x5 (in-place)
I0403 18:11:21.083571 21641 net.cpp:141] Setting up inception_5a/relu_5x5
I0403 18:11:21.083595 21641 net.cpp:148] Top shape: 24 128 7 7 (150528)
I0403 18:11:21.083611 21641 net.cpp:156] Memory required for data: 1300555296
I0403 18:11:21.083624 21641 layer_factory.hpp:77] Creating layer inception_5a/pool
I0403 18:11:21.083641 21641 net.cpp:91] Creating Layer inception_5a/pool
I0403 18:11:21.083655 21641 net.cpp:425] inception_5a/pool <- pool4/3x3_s2_pool4/3x3_s2_0_split_3
I0403 18:11:21.083674 21641 net.cpp:399] inception_5a/pool -> inception_5a/pool
I0403 18:11:21.083742 21641 net.cpp:141] Setting up inception_5a/pool
I0403 18:11:21.083765 21641 net.cpp:148] Top shape: 24 832 7 7 (978432)
I0403 18:11:21.083777 21641 net.cpp:156] Memory required for data: 1304469024
I0403 18:11:21.083791 21641 layer_factory.hpp:77] Creating layer inception_5a/pool_proj
I0403 18:11:21.083813 21641 net.cpp:91] Creating Layer inception_5a/pool_proj
I0403 18:11:21.083830 21641 net.cpp:425] inception_5a/pool_proj <- inception_5a/pool
I0403 18:11:21.083848 21641 net.cpp:399] inception_5a/pool_proj -> inception_5a/pool_proj
I0403 18:11:21.086047 21641 net.cpp:141] Setting up inception_5a/pool_proj
I0403 18:11:21.086078 21641 net.cpp:148] Top shape: 24 128 7 7 (150528)
I0403 18:11:21.086093 21641 net.cpp:156] Memory required for data: 1305071136
I0403 18:11:21.086112 21641 layer_factory.hpp:77] Creating layer inception_5a/relu_pool_proj
I0403 18:11:21.086127 21641 net.cpp:91] Creating Layer inception_5a/relu_pool_proj
I0403 18:11:21.086143 21641 net.cpp:425] inception_5a/relu_pool_proj <- inception_5a/pool_proj
I0403 18:11:21.086159 21641 net.cpp:386] inception_5a/relu_pool_proj -> inception_5a/pool_proj (in-place)
I0403 18:11:21.086446 21641 net.cpp:141] Setting up inception_5a/relu_pool_proj
I0403 18:11:21.086472 21641 net.cpp:148] Top shape: 24 128 7 7 (150528)
I0403 18:11:21.086488 21641 net.cpp:156] Memory required for data: 1305673248
I0403 18:11:21.086501 21641 layer_factory.hpp:77] Creating layer inception_5a/output
I0403 18:11:21.086518 21641 net.cpp:91] Creating Layer inception_5a/output
I0403 18:11:21.086532 21641 net.cpp:425] inception_5a/output <- inception_5a/1x1
I0403 18:11:21.086552 21641 net.cpp:425] inception_5a/output <- inception_5a/3x3
I0403 18:11:21.086568 21641 net.cpp:425] inception_5a/output <- inception_5a/5x5
I0403 18:11:21.086583 21641 net.cpp:425] inception_5a/output <- inception_5a/pool_proj
I0403 18:11:21.086599 21641 net.cpp:399] inception_5a/output -> inception_5a/output
I0403 18:11:21.086649 21641 net.cpp:141] Setting up inception_5a/output
I0403 18:11:21.086671 21641 net.cpp:148] Top shape: 24 832 7 7 (978432)
I0403 18:11:21.086685 21641 net.cpp:156] Memory required for data: 1309586976
I0403 18:11:21.086699 21641 layer_factory.hpp:77] Creating layer inception_5a/output_inception_5a/output_0_split
I0403 18:11:21.086716 21641 net.cpp:91] Creating Layer inception_5a/output_inception_5a/output_0_split
I0403 18:11:21.086732 21641 net.cpp:425] inception_5a/output_inception_5a/output_0_split <- inception_5a/output
I0403 18:11:21.086748 21641 net.cpp:399] inception_5a/output_inception_5a/output_0_split -> inception_5a/output_inception_5a/output_0_split_0
I0403 18:11:21.086768 21641 net.cpp:399] inception_5a/output_inception_5a/output_0_split -> inception_5a/output_inception_5a/output_0_split_1
I0403 18:11:21.086787 21641 net.cpp:399] inception_5a/output_inception_5a/output_0_split -> inception_5a/output_inception_5a/output_0_split_2
I0403 18:11:21.086807 21641 net.cpp:399] inception_5a/output_inception_5a/output_0_split -> inception_5a/output_inception_5a/output_0_split_3
I0403 18:11:21.086915 21641 net.cpp:141] Setting up inception_5a/output_inception_5a/output_0_split
I0403 18:11:21.086936 21641 net.cpp:148] Top shape: 24 832 7 7 (978432)
I0403 18:11:21.086952 21641 net.cpp:148] Top shape: 24 832 7 7 (978432)
I0403 18:11:21.086966 21641 net.cpp:148] Top shape: 24 832 7 7 (978432)
I0403 18:11:21.086980 21641 net.cpp:148] Top shape: 24 832 7 7 (978432)
I0403 18:11:21.086993 21641 net.cpp:156] Memory required for data: 1325241888
I0403 18:11:21.087007 21641 layer_factory.hpp:77] Creating layer inception_5b/1x1
I0403 18:11:21.087026 21641 net.cpp:91] Creating Layer inception_5b/1x1
I0403 18:11:21.087044 21641 net.cpp:425] inception_5b/1x1 <- inception_5a/output_inception_5a/output_0_split_0
I0403 18:11:21.087062 21641 net.cpp:399] inception_5b/1x1 -> inception_5b/1x1
I0403 18:11:21.090661 21641 net.cpp:141] Setting up inception_5b/1x1
I0403 18:11:21.090687 21641 net.cpp:148] Top shape: 24 384 7 7 (451584)
I0403 18:11:21.090703 21641 net.cpp:156] Memory required for data: 1327048224
I0403 18:11:21.090720 21641 layer_factory.hpp:77] Creating layer inception_5b/relu_1x1
I0403 18:11:21.090739 21641 net.cpp:91] Creating Layer inception_5b/relu_1x1
I0403 18:11:21.090755 21641 net.cpp:425] inception_5b/relu_1x1 <- inception_5b/1x1
I0403 18:11:21.090772 21641 net.cpp:386] inception_5b/relu_1x1 -> inception_5b/1x1 (in-place)
I0403 18:11:21.091059 21641 net.cpp:141] Setting up inception_5b/relu_1x1
I0403 18:11:21.091084 21641 net.cpp:148] Top shape: 24 384 7 7 (451584)
I0403 18:11:21.091099 21641 net.cpp:156] Memory required for data: 1328854560
I0403 18:11:21.091111 21641 layer_factory.hpp:77] Creating layer inception_5b/3x3_reduce
I0403 18:11:21.091132 21641 net.cpp:91] Creating Layer inception_5b/3x3_reduce
I0403 18:11:21.091152 21641 net.cpp:425] inception_5b/3x3_reduce <- inception_5a/output_inception_5a/output_0_split_1
I0403 18:11:21.091171 21641 net.cpp:399] inception_5b/3x3_reduce -> inception_5b/3x3_reduce
I0403 18:11:21.093718 21641 net.cpp:141] Setting up inception_5b/3x3_reduce
I0403 18:11:21.093747 21641 net.cpp:148] Top shape: 24 192 7 7 (225792)
I0403 18:11:21.093763 21641 net.cpp:156] Memory required for data: 1329757728
I0403 18:11:21.093780 21641 layer_factory.hpp:77] Creating layer inception_5b/relu_3x3_reduce
I0403 18:11:21.093798 21641 net.cpp:91] Creating Layer inception_5b/relu_3x3_reduce
I0403 18:11:21.093814 21641 net.cpp:425] inception_5b/relu_3x3_reduce <- inception_5b/3x3_reduce
I0403 18:11:21.093830 21641 net.cpp:386] inception_5b/relu_3x3_reduce -> inception_5b/3x3_reduce (in-place)
I0403 18:11:21.094010 21641 net.cpp:141] Setting up inception_5b/relu_3x3_reduce
I0403 18:11:21.094036 21641 net.cpp:148] Top shape: 24 192 7 7 (225792)
I0403 18:11:21.094050 21641 net.cpp:156] Memory required for data: 1330660896
I0403 18:11:21.094064 21641 layer_factory.hpp:77] Creating layer inception_5b/3x3
I0403 18:11:21.094085 21641 net.cpp:91] Creating Layer inception_5b/3x3
I0403 18:11:21.094101 21641 net.cpp:425] inception_5b/3x3 <- inception_5b/3x3_reduce
I0403 18:11:21.094120 21641 net.cpp:399] inception_5b/3x3 -> inception_5b/3x3
I0403 18:11:21.100498 21641 net.cpp:141] Setting up inception_5b/3x3
I0403 18:11:21.100528 21641 net.cpp:148] Top shape: 24 384 7 7 (451584)
I0403 18:11:21.100548 21641 net.cpp:156] Memory required for data: 1332467232
I0403 18:11:21.100565 21641 layer_factory.hpp:77] Creating layer inception_5b/relu_3x3
I0403 18:11:21.100582 21641 net.cpp:91] Creating Layer inception_5b/relu_3x3
I0403 18:11:21.100599 21641 net.cpp:425] inception_5b/relu_3x3 <- inception_5b/3x3
I0403 18:11:21.100615 21641 net.cpp:386] inception_5b/relu_3x3 -> inception_5b/3x3 (in-place)
I0403 18:11:21.100903 21641 net.cpp:141] Setting up inception_5b/relu_3x3
I0403 18:11:21.100930 21641 net.cpp:148] Top shape: 24 384 7 7 (451584)
I0403 18:11:21.100945 21641 net.cpp:156] Memory required for data: 1334273568
I0403 18:11:21.100960 21641 layer_factory.hpp:77] Creating layer inception_5b/5x5_reduce
I0403 18:11:21.100994 21641 net.cpp:91] Creating Layer inception_5b/5x5_reduce
I0403 18:11:21.101012 21641 net.cpp:425] inception_5b/5x5_reduce <- inception_5a/output_inception_5a/output_0_split_2
I0403 18:11:21.101030 21641 net.cpp:399] inception_5b/5x5_reduce -> inception_5b/5x5_reduce
I0403 18:11:21.102247 21641 net.cpp:141] Setting up inception_5b/5x5_reduce
I0403 18:11:21.102275 21641 net.cpp:148] Top shape: 24 48 7 7 (56448)
I0403 18:11:21.102289 21641 net.cpp:156] Memory required for data: 1334499360
I0403 18:11:21.102306 21641 layer_factory.hpp:77] Creating layer inception_5b/relu_5x5_reduce
I0403 18:11:21.102325 21641 net.cpp:91] Creating Layer inception_5b/relu_5x5_reduce
I0403 18:11:21.102342 21641 net.cpp:425] inception_5b/relu_5x5_reduce <- inception_5b/5x5_reduce
I0403 18:11:21.102358 21641 net.cpp:386] inception_5b/relu_5x5_reduce -> inception_5b/5x5_reduce (in-place)
I0403 18:11:21.102720 21641 net.cpp:141] Setting up inception_5b/relu_5x5_reduce
I0403 18:11:21.102746 21641 net.cpp:148] Top shape: 24 48 7 7 (56448)
I0403 18:11:21.102759 21641 net.cpp:156] Memory required for data: 1334725152
I0403 18:11:21.102773 21641 layer_factory.hpp:77] Creating layer inception_5b/5x5
I0403 18:11:21.102792 21641 net.cpp:91] Creating Layer inception_5b/5x5
I0403 18:11:21.102808 21641 net.cpp:425] inception_5b/5x5 <- inception_5b/5x5_reduce
I0403 18:11:21.102826 21641 net.cpp:399] inception_5b/5x5 -> inception_5b/5x5
I0403 18:11:21.104815 21641 net.cpp:141] Setting up inception_5b/5x5
I0403 18:11:21.104842 21641 net.cpp:148] Top shape: 24 128 7 7 (150528)
I0403 18:11:21.104857 21641 net.cpp:156] Memory required for data: 1335327264
I0403 18:11:21.104874 21641 layer_factory.hpp:77] Creating layer inception_5b/relu_5x5
I0403 18:11:21.104892 21641 net.cpp:91] Creating Layer inception_5b/relu_5x5
I0403 18:11:21.104907 21641 net.cpp:425] inception_5b/relu_5x5 <- inception_5b/5x5
I0403 18:11:21.104925 21641 net.cpp:386] inception_5b/relu_5x5 -> inception_5b/5x5 (in-place)
I0403 18:11:21.105111 21641 net.cpp:141] Setting up inception_5b/relu_5x5
I0403 18:11:21.105135 21641 net.cpp:148] Top shape: 24 128 7 7 (150528)
I0403 18:11:21.105149 21641 net.cpp:156] Memory required for data: 1335929376
I0403 18:11:21.105164 21641 layer_factory.hpp:77] Creating layer inception_5b/pool
I0403 18:11:21.105182 21641 net.cpp:91] Creating Layer inception_5b/pool
I0403 18:11:21.105198 21641 net.cpp:425] inception_5b/pool <- inception_5a/output_inception_5a/output_0_split_3
I0403 18:11:21.105216 21641 net.cpp:399] inception_5b/pool -> inception_5b/pool
I0403 18:11:21.105284 21641 net.cpp:141] Setting up inception_5b/pool
I0403 18:11:21.105317 21641 net.cpp:148] Top shape: 24 832 7 7 (978432)
I0403 18:11:21.105330 21641 net.cpp:156] Memory required for data: 1339843104
I0403 18:11:21.105345 21641 layer_factory.hpp:77] Creating layer inception_5b/pool_proj
I0403 18:11:21.105365 21641 net.cpp:91] Creating Layer inception_5b/pool_proj
I0403 18:11:21.105382 21641 net.cpp:425] inception_5b/pool_proj <- inception_5b/pool
I0403 18:11:21.105401 21641 net.cpp:399] inception_5b/pool_proj -> inception_5b/pool_proj
I0403 18:11:21.107609 21641 net.cpp:141] Setting up inception_5b/pool_proj
I0403 18:11:21.107638 21641 net.cpp:148] Top shape: 24 128 7 7 (150528)
I0403 18:11:21.107655 21641 net.cpp:156] Memory required for data: 1340445216
I0403 18:11:21.107671 21641 layer_factory.hpp:77] Creating layer inception_5b/relu_pool_proj
I0403 18:11:21.107688 21641 net.cpp:91] Creating Layer inception_5b/relu_pool_proj
I0403 18:11:21.107704 21641 net.cpp:425] inception_5b/relu_pool_proj <- inception_5b/pool_proj
I0403 18:11:21.107723 21641 net.cpp:386] inception_5b/relu_pool_proj -> inception_5b/pool_proj (in-place)
I0403 18:11:21.108014 21641 net.cpp:141] Setting up inception_5b/relu_pool_proj
I0403 18:11:21.108042 21641 net.cpp:148] Top shape: 24 128 7 7 (150528)
I0403 18:11:21.108057 21641 net.cpp:156] Memory required for data: 1341047328
I0403 18:11:21.108070 21641 layer_factory.hpp:77] Creating layer inception_5b/output
I0403 18:11:21.108088 21641 net.cpp:91] Creating Layer inception_5b/output
I0403 18:11:21.108116 21641 net.cpp:425] inception_5b/output <- inception_5b/1x1
I0403 18:11:21.108134 21641 net.cpp:425] inception_5b/output <- inception_5b/3x3
I0403 18:11:21.108150 21641 net.cpp:425] inception_5b/output <- inception_5b/5x5
I0403 18:11:21.108165 21641 net.cpp:425] inception_5b/output <- inception_5b/pool_proj
I0403 18:11:21.108180 21641 net.cpp:399] inception_5b/output -> inception_5b/output
I0403 18:11:21.108232 21641 net.cpp:141] Setting up inception_5b/output
I0403 18:11:21.108254 21641 net.cpp:148] Top shape: 24 1024 7 7 (1204224)
I0403 18:11:21.108268 21641 net.cpp:156] Memory required for data: 1345864224
I0403 18:11:21.108281 21641 layer_factory.hpp:77] Creating layer pool5/7x7_s1
I0403 18:11:21.108300 21641 net.cpp:91] Creating Layer pool5/7x7_s1
I0403 18:11:21.108315 21641 net.cpp:425] pool5/7x7_s1 <- inception_5b/output
I0403 18:11:21.108332 21641 net.cpp:399] pool5/7x7_s1 -> pool5/7x7_s1
I0403 18:11:21.108539 21641 net.cpp:141] Setting up pool5/7x7_s1
I0403 18:11:21.108566 21641 net.cpp:148] Top shape: 24 1024 1 1 (24576)
I0403 18:11:21.108580 21641 net.cpp:156] Memory required for data: 1345962528
I0403 18:11:21.108595 21641 layer_factory.hpp:77] Creating layer pool5/drop_7x7_s1
I0403 18:11:21.108613 21641 net.cpp:91] Creating Layer pool5/drop_7x7_s1
I0403 18:11:21.108628 21641 net.cpp:425] pool5/drop_7x7_s1 <- pool5/7x7_s1
I0403 18:11:21.108645 21641 net.cpp:386] pool5/drop_7x7_s1 -> pool5/7x7_s1 (in-place)
I0403 18:11:21.108693 21641 net.cpp:141] Setting up pool5/drop_7x7_s1
I0403 18:11:21.108716 21641 net.cpp:148] Top shape: 24 1024 1 1 (24576)
I0403 18:11:21.108728 21641 net.cpp:156] Memory required for data: 1346060832
I0403 18:11:21.108741 21641 layer_factory.hpp:77] Creating layer loss3/classifier_plantvillage
I0403 18:11:21.108762 21641 net.cpp:91] Creating Layer loss3/classifier_plantvillage
I0403 18:11:21.108777 21641 net.cpp:425] loss3/classifier_plantvillage <- pool5/7x7_s1
I0403 18:11:21.108796 21641 net.cpp:399] loss3/classifier_plantvillage -> loss3/classifier_plantvillage
I0403 18:11:21.109200 21641 net.cpp:141] Setting up loss3/classifier_plantvillage
I0403 18:11:21.109230 21641 net.cpp:148] Top shape: 24 38 (912)
I0403 18:11:21.109243 21641 net.cpp:156] Memory required for data: 1346064480
I0403 18:11:21.109261 21641 layer_factory.hpp:77] Creating layer loss3/classifier_plantvillage_loss3/classifier_plantvillage_0_split
I0403 18:11:21.109280 21641 net.cpp:91] Creating Layer loss3/classifier_plantvillage_loss3/classifier_plantvillage_0_split
I0403 18:11:21.109297 21641 net.cpp:425] loss3/classifier_plantvillage_loss3/classifier_plantvillage_0_split <- loss3/classifier_plantvillage
I0403 18:11:21.109313 21641 net.cpp:399] loss3/classifier_plantvillage_loss3/classifier_plantvillage_0_split -> loss3/classifier_plantvillage_loss3/classifier_plantvillage_0_split_0
I0403 18:11:21.109333 21641 net.cpp:399] loss3/classifier_plantvillage_loss3/classifier_plantvillage_0_split -> loss3/classifier_plantvillage_loss3/classifier_plantvillage_0_split_1
I0403 18:11:21.109352 21641 net.cpp:399] loss3/classifier_plantvillage_loss3/classifier_plantvillage_0_split -> loss3/classifier_plantvillage_loss3/classifier_plantvillage_0_split_2
I0403 18:11:21.109371 21641 net.cpp:399] loss3/classifier_plantvillage_loss3/classifier_plantvillage_0_split -> loss3/classifier_plantvillage_loss3/classifier_plantvillage_0_split_3
I0403 18:11:21.109467 21641 net.cpp:141] Setting up loss3/classifier_plantvillage_loss3/classifier_plantvillage_0_split
I0403 18:11:21.109488 21641 net.cpp:148] Top shape: 24 38 (912)
I0403 18:11:21.109503 21641 net.cpp:148] Top shape: 24 38 (912)
I0403 18:11:21.109518 21641 net.cpp:148] Top shape: 24 38 (912)
I0403 18:11:21.109531 21641 net.cpp:148] Top shape: 24 38 (912)
I0403 18:11:21.109563 21641 net.cpp:156] Memory required for data: 1346079072
I0403 18:11:21.109578 21641 layer_factory.hpp:77] Creating layer loss1/loss
I0403 18:11:21.109598 21641 net.cpp:91] Creating Layer loss1/loss
I0403 18:11:21.109616 21641 net.cpp:425] loss1/loss <- loss1/classifier_plantvillage_loss1/classifier_plantvillage_0_split_0
I0403 18:11:21.109647 21641 net.cpp:425] loss1/loss <- label_data_1_split_0
…
