…
I0403 18:46:15.057287 23502 net.cpp:313] The NetState phase (1) differed from the phase (0) specified by a rule in layer data
I0403 18:46:15.058392 23502 net.cpp:49] Initializing net from parameters: 
state {
  phase: TEST
}
layer {
  name: "data"
  type: "Data"
  top: "data"
  top: "label"
  include {
    phase: TEST
  }
  transform_param {
    mirror: false
    crop_size: 224
    mean_file: "/home/mohanty/data/final_dataset/lmdb/segmented-40-60/mean.binaryproto"
  }
  data_param {
    source: "/home/mohanty/data/final_dataset/lmdb/segmented-40-60/test_db"
    batch_size: 24
    backend: LMDB
  }
}
layer {
  name: "conv1/7x7_s2"
  type: "Convolution"
  bottom: "data"
  top: "conv1/7x7_s2"
  param {
    lr_mult: 1
    decay_mult: 1
  }
  param {
    lr_mult: 2
    decay_mult: 0
  }
  convolution_param {
    num_output: 64
    pad: 3
    kernel_size: 7
    stride: 2
    weight_filler {
      type: "xavier"
      std: 0.1
    }
    bias_filler {
      type: "constant"
      value: 0.2
    }
  }
}
layer {
  name: "conv1/relu_7x7"
  type: "ReLU"
  bottom: "conv1/7x7_s2"
  top: "conv1/7x7_s2"
}
layer {
  name: "pool1/3x3_s2"
  type: "Pooling"
  bottom: "conv1/7x7_s2"
  top: "pool1/3x3_s2"
  pooling_param {
    pool: MAX
    kernel_size: 3
    stride: 2
  }
}
layer {
  name: "pool1/norm1"
  type: "LRN"
  bottom: "pool1/3x3_s2"
  top: "pool1/norm1"
  lrn_param {
    local_size: 5
    alpha: 0.0001
    beta: 0.75
  }
}
layer {
  name: "conv2/3x3_reduce"
  type: "Convolution"
  bottom: "pool1/norm1"
  top: "conv2/3x3_reduce"
  param {
    lr_mult: 1
    decay_mult: 1
  }
  param {
    lr_mult: 2
    decay_mult: 0
  }
  convolution_param {
    num_output: 64
    kernel_size: 1
    weight_filler {
      type: "xavier"
      std: 0.1
    }
    bias_filler {
      type: "constant"
      value: 0.2
    }
  }
}
layer {
  name: "conv2/relu_3x3_reduce"
  type: "ReLU"
  bottom: "conv2/3x3_reduce"
  top: "conv2/3x3_reduce"
}
layer {
  name: "conv2/3x3"
  type: "Convolution"
  bottom: "conv2/3x3_reduce"
  top: "conv2/3x3"
  param {
    lr_mult: 1
    decay_mult: 1
  }
  param {
    lr_mult: 2
    decay_mult: 0
  }
  convolution_param {
    num_output: 192
    pad: 1
    kernel_size: 3
    weight_filler {
      type: "xavier"
      std: 0.03
    }
    bias_filler {
      type: "constant"
      value: 0.2
    }
  }
}
layer {
  name: "conv2/relu_3x3"
  type: "ReLU"
  bottom: "conv2/3x3"
  top: "conv2/3x3"
}
layer {
  name: "conv2/norm2"
  type: "LRN"
  bottom: "conv2/3x3"
  top: "conv2/norm2"
  lrn_param {
    local_size: 5
    alpha: 0.0001
    beta: 0.75
  }
}
layer {
  name: "pool2/3x3_s2"
  type: "Pooling"
  bottom: "conv2/norm2"
  top: "pool2/3x3_s2"
  pooling_param {
    pool: MAX
    kernel_size: 3
    stride: 2
  }
}
layer {
  name: "inception_3a/1x1"
  type: "Convolution"
  bottom: "pool2/3x3_s2"
  top: "inception_3a/1x1"
  param {
    lr_mult: 1
    decay_mult: 1
  }
  param {
    lr_mult: 2
    decay_mult: 0
  }
  convolution_param {
    num_output: 64
    kernel_size: 1
    weight_filler {
      type: "xavier"
      std: 0.03
    }
    bias_filler {
      type: "constant"
      value: 0.2
    }
  }
}
layer {
  name: "inception_3a/relu_1x1"
  type: "ReLU"
  bottom: "inception_3a/1x1"
  top: "inception_3a/1x1"
}
layer {
  name: "inception_3a/3x3_reduce"
  type: "Convolution"
  bottom: "pool2/3x3_s2"
  top: "inception_3a/3x3_reduce"
  param {
    lr_mult: 1
    decay_mult: 1
  }
  param {
    lr_mult: 2
    decay_mult: 0
  }
  convolution_param {
    num_output: 96
    kernel_size: 1
    weight_filler {
      type: "xavier"
      std: 0.09
    }
    bias_filler {
      type: "constant"
      value: 0.2
    }
  }
}
layer {
  name: "inception_3a/relu_3x3_reduce"
  type: "ReLU"
  bottom: "inception_3a/3x3_reduce"
  top: "inception_3a/3x3_reduce"
}
layer {
  name: "inception_3a/3x3"
  type: "Convolution"
  bottom: "inception_3a/3x3_reduce"
  top: "inception_3a/3x3"
  param {
    lr_mult: 1
    decay_mult: 1
  }
  param {
    lr_mult: 2
    decay_mult: 0
  }
  convolution_param {
    num_output: 128
    pad: 1
    kernel_size: 3
    weight_filler {
      type: "xavier"
      std: 0.03
    }
    bias_filler {
      type: "constant"
      value: 0.2
    }
  }
}
layer {
  name: "inception_3a/relu_3x3"
  type: "ReLU"
  bottom: "inception_3a/3x3"
  top: "inception_3a/3x3"
}
layer {
  name: "inception_3a/5x5_reduce"
  type: "Convolution"
  bottom: "pool2/3x3_s2"
  top: "inception_3a/5x5_reduce"
  param {
    lr_mult: 1
    decay_mult: 1
  }
  param {
    lr_mult: 2
    decay_mult: 0
  }
  convolution_param {
    num_output: 16
    kernel_size: 1
    weight_filler {
      type: "xavier"
      std: 0.2
    }
    bias_filler {
      type: "constant"
      value: 0.2
    }
  }
}
layer {
  name: "inception_3a/relu_5x5_reduce"
  type: "ReLU"
  bottom: "inception_3a/5x5_reduce"
  top: "inception_3a/5x5_reduce"
}
layer {
  name: "inception_3a/5x5"
  type: "Convolution"
  bottom: "inception_3a/5x5_reduce"
  top: "inception_3a/5x5"
  param {
    lr_mult: 1
    decay_mult: 1
  }
  param {
    lr_mult: 2
    decay_mult: 0
  }
  convolution_param {
    num_output: 32
    pad: 2
    kernel_size: 5
    weight_filler {
      type: "xavier"
      std: 0.03
    }
    bias_filler {
      type: "constant"
      value: 0.2
    }
  }
}
layer {
  name: "inception_3a/relu_5x5"
  type: "ReLU"
  bottom: "inception_3a/5x5"
  top: "inception_3a/5x5"
}
layer {
  name: "inception_3a/pool"
  type: "Pooling"
  bottom: "pool2/3x3_s2"
  top: "inception_3a/pool"
  pooling_param {
    pool: MAX
    kernel_size: 3
    stride: 1
    pad: 1
  }
}
layer {
  name: "inception_3a/pool_proj"
  type: "Convolution"
  bottom: "inception_3a/pool"
  top: "inception_3a/pool_proj"
  param {
    lr_mult: 1
    decay_mult: 1
  }
  param {
    lr_mult: 2
    decay_mult: 0
  }
  convolution_param {
    num_output: 32
    kernel_size: 1
    weight_filler {
      type: "xavier"
      std: 0.1
    }
    bias_filler {
      type: "constant"
      value: 0.2
    }
  }
}
layer {
  name: "inception_3a/relu_pool_proj"
  type: "ReLU"
  bottom: "inception_3a/pool_proj"
  top: "inception_3a/pool_proj"
}
layer {
  name: "inception_3a/output"
  type: "Concat"
  bottom: "inception_3a/1x1"
  bottom: "inception_3a/3x3"
  bottom: "inception_3a/5x5"
  bottom: "inception_3a/pool_proj"
  top: "inception_3a/output"
}
layer {
  name: "inception_3b/1x1"
  type: "Convolution"
  bottom: "inception_3a/output"
  top: "inception_3b/1x1"
  param {
    lr_mult: 1
    decay_mult: 1
  }
  param {
    lr_mult: 2
    decay_mult: 0
  }
  convolution_param {
    num_output: 128
    kernel_size: 1
    weight_filler {
      type: "xavier"
      std: 0.03
    }
    bias_filler {
      type: "constant"
      value: 0.2
    }
  }
}
layer {
  name: "inception_3b/relu_1x1"
  type: "ReLU"
  bottom: "inception_3b/1x1"
  top: "inception_3b/1x1"
}
layer {
  name: "inception_3b/3x3_reduce"
  type: "Convolution"
  bottom: "inception_3a/output"
  top: "inception_3b/3x3_reduce"
  param {
    lr_mult: 1
    decay_mult: 1
  }
  param {
    lr_mult: 2
    decay_mult: 0
  }
  convolution_param {
    num_output: 128
    kernel_size: 1
    weight_filler {
      type: "xavier"
      std: 0.09
    }
    bias_filler {
      type: "constant"
      value: 0.2
    }
  }
}
layer {
  name: "inception_3b/relu_3x3_reduce"
  type: "ReLU"
  bottom: "inception_3b/3x3_reduce"
  top: "inception_3b/3x3_reduce"
}
layer {
  name: "inception_3b/3x3"
  type: "Convolution"
  bottom: "inception_3b/3x3_reduce"
  top: "inception_3b/3x3"
  param {
    lr_mult: 1
    decay_mult: 1
  }
  param {
    lr_mult: 2
    decay_mult: 0
  }
  convolution_param {
    num_output: 192
    pad: 1
    kernel_size: 3
    weight_filler {
      type: "xavier"
      std: 0.03
    }
    bias_filler {
      type: "constant"
      value: 0.2
    }
  }
}
layer {
  name: "inception_3b/relu_3x3"
  type: "ReLU"
  bottom: "inception_3b/3x3"
  top: "inception_3b/3x3"
}
layer {
  name: "inception_3b/5x5_reduce"
  type: "Convolution"
  bottom: "inception_3a/output"
  top: "inception_3b/5x5_reduce"
  param {
    lr_mult: 1
    decay_mult: 1
  }
  param {
    lr_mult: 2
    decay_mult: 0
  }
  convolution_param {
    num_output: 32
    kernel_size: 1
    weight_filler {
      type: "xavier"
      std: 0.2
    }
    bias_filler {
      type: "constant"
      value: 0.2
    }
  }
}
layer {
  name: "inception_3b/relu_5x5_reduce"
  type: "ReLU"
  bottom: "inception_3b/5x5_reduce"
  top: "inception_3b/5x5_reduce"
}
layer {
  name: "inception_3b/5x5"
  type: "Convolution"
  bottom: "inception_3b/5x5_reduce"
  top: "inception_3b/5x5"
  param {
    lr_mult: 1
    decay_mult: 1
  }
  param {
    lr_mult: 2
    decay_mult: 0
  }
  convolution_param {
    num_output: 96
    pad: 2
    kernel_size: 5
    weight_filler {
      type: "xavier"
      std: 0.03
    }
    bias_filler {
      type: "constant"
      value: 0.2
    }
  }
}
layer {
  name: "inception_3b/relu_5x5"
  type: "ReLU"
  bottom: "inception_3b/5x5"
  top: "inception_3b/5x5"
}
layer {
  name: "inception_3b/pool"
  type: "Pooling"
  bottom: "inception_3a/output"
  top: "inception_3b/pool"
  pooling_param {
    pool: MAX
    kernel_size: 3
    stride: 1
    pad: 1
  }
}
layer {
  name: "inception_3b/pool_proj"
  type: "Convolution"
  bottom: "inception_3b/pool"
  top: "inception_3b/pool_proj"
  param {
    lr_mult: 1
    decay_mult: 1
  }
  param {
    lr_mult: 2
    decay_mult: 0
  }
  convolution_param {
    num_output: 64
    kernel_size: 1
    weight_filler {
      type: "xavier"
      std: 0.1
    }
    bias_filler {
      type: "constant"
      value: 0.2
    }
  }
}
layer {
  name: "inception_3b/relu_pool_proj"
  type: "ReLU"
  bottom: "inception_3b/pool_proj"
  top: "inception_3b/pool_proj"
}
layer {
  name: "inception_3b/output"
  type: "Concat"
  bottom: "inception_3b/1x1"
  bottom: "inception_3b/3x3"
  bottom: "inception_3b/5x5"
  bottom: "inception_3b/pool_proj"
  top: "inception_3b/output"
}
layer {
  name: "pool3/3x3_s2"
  type: "Pooling"
  bottom: "inception_3b/output"
  top: "pool3/3x3_s2"
  pooling_param {
    pool: MAX
    kernel_size: 3
    stride: 2
  }
}
layer {
  name: "inception_4a/1x1"
  type: "Convolution"
  bottom: "pool3/3x3_s2"
  top: "inception_4a/1x1"
  param {
    lr_mult: 1
    decay_mult: 1
  }
  param {
    lr_mult: 2
    decay_mult: 0
  }
  convolution_param {
    num_output: 192
    kernel_size: 1
    weight_filler {
      type: "xavier"
      std: 0.03
    }
    bias_filler {
      type: "constant"
      value: 0.2
    }
  }
}
layer {
  name: "inception_4a/relu_1x1"
  type: "ReLU"
  bottom: "inception_4a/1x1"
  top: "inception_4a/1x1"
}
layer {
  name: "inception_4a/3x3_reduce"
  type: "Convolution"
  bottom: "pool3/3x3_s2"
  top: "inception_4a/3x3_reduce"
  param {
    lr_mult: 1
    decay_mult: 1
  }
  param {
    lr_mult: 2
    decay_mult: 0
  }
  convolution_param {
    num_output: 96
    kernel_size: 1
    weight_filler {
      type: "xavier"
      std: 0.09
    }
    bias_filler {
      type: "constant"
      value: 0.2
    }
  }
}
layer {
  name: "inception_4a/relu_3x3_reduce"
  type: "ReLU"
  bottom: "inception_4a/3x3_reduce"
  top: "inception_4a/3x3_reduce"
}
layer {
  name: "inception_4a/3x3"
  type: "Convolution"
  bottom: "inception_4a/3x3_reduce"
  top: "inception_4a/3x3"
  param {
    lr_mult: 1
    decay_mult: 1
  }
  param {
    lr_mult: 2
    decay_mult: 0
  }
  convolution_param {
    num_output: 208
    pad: 1
    kernel_size: 3
    weight_filler {
      type: "xavier"
      std: 0.03
    }
    bias_filler {
      type: "constant"
      value: 0.2
    }
  }
}
layer {
  name: "inception_4a/relu_3x3"
  type: "ReLU"
  bottom: "inception_4a/3x3"
  top: "inception_4a/3x3"
}
layer {
  name: "inception_4a/5x5_reduce"
  type: "Convolution"
  bottom: "pool3/3x3_s2"
  top: "inception_4a/5x5_reduce"
  param {
    lr_mult: 1
    decay_mult: 1
  }
  param {
    lr_mult: 2
    decay_mult: 0
  }
  convolution_param {
    num_output: 16
    kernel_size: 1
    weight_filler {
      type: "xavier"
      std: 0.2
    }
    bias_filler {
      type: "constant"
      value: 0.2
    }
  }
}
layer {
  name: "inception_4a/relu_5x5_reduce"
  type: "ReLU"
  bottom: "inception_4a/5x5_reduce"
  top: "inception_4a/5x5_reduce"
}
layer {
  name: "inception_4a/5x5"
  type: "Convolution"
  bottom: "inception_4a/5x5_reduce"
  top: "inception_4a/5x5"
  param {
    lr_mult: 1
    decay_mult: 1
  }
  param {
    lr_mult: 2
    decay_mult: 0
  }
  convolution_param {
    num_output: 48
    pad: 2
    kernel_size: 5
    weight_filler {
      type: "xavier"
      std: 0.03
    }
    bias_filler {
      type: "constant"
      value: 0.2
    }
  }
}
layer {
  name: "inception_4a/relu_5x5"
  type: "ReLU"
  bottom: "inception_4a/5x5"
  top: "inception_4a/5x5"
}
layer {
  name: "inception_4a/pool"
  type: "Pooling"
  bottom: "pool3/3x3_s2"
  top: "inception_4a/pool"
  pooling_param {
    pool: MAX
    kernel_size: 3
    stride: 1
    pad: 1
  }
}
layer {
  name: "inception_4a/pool_proj"
  type: "Convolution"
  bottom: "inception_4a/pool"
  top: "inception_4a/pool_proj"
  param {
    lr_mult: 1
    decay_mult: 1
  }
  param {
    lr_mult: 2
    decay_mult: 0
  }
  convolution_param {
    num_output: 64
    kernel_size: 1
    weight_filler {
      type: "xavier"
      std: 0.1
    }
    bias_filler {
      type: "constant"
      value: 0.2
    }
  }
}
layer {
  name: "inception_4a/relu_pool_proj"
  type: "ReLU"
  bottom: "inception_4a/pool_proj"
  top: "inception_4a/pool_proj"
}
layer {
  name: "inception_4a/output"
  type: "Concat"
  bottom: "inception_4a/1x1"
  bottom: "inception_4a/3x3"
  bottom: "inception_4a/5x5"
  bottom: "inception_4a/pool_proj"
  top: "inception_4a/output"
}
layer {
  name: "loss1/ave_pool"
  type: "Pooling"
  bottom: "inception_4a/output"
  top: "loss1/ave_pool"
  pooling_param {
    pool: AVE
    kernel_size: 5
    stride: 3
  }
}
layer {
  name: "loss1/conv"
  type: "Convolution"
  bottom: "loss1/ave_pool"
  top: "loss1/conv"
  param {
    lr_mult: 1
    decay_mult: 1
  }
  param {
    lr_mult: 2
    decay_mult: 0
  }
  convolution_param {
    num_output: 128
    kernel_size: 1
    weight_filler {
      type: "xavier"
      std: 0.08
    }
    bias_filler {
      type: "constant"
      value: 0.2
    }
  }
}
layer {
  name: "loss1/relu_conv"
  type: "ReLU"
  bottom: "loss1/conv"
  top: "loss1/conv"
}
layer {
  name: "loss1/fc"
  type: "InnerProduct"
  bottom: "loss1/conv"
  top: "loss1/fc"
  param {
    lr_mult: 1
    decay_mult: 1
  }
  param {
    lr_mult: 2
    decay_mult: 0
  }
  inner_product_param {
    num_output: 1024
    weight_filler {
      type: "xavier"
      std: 0.02
    }
    bias_filler {
      type: "constant"
      value: 0.2
    }
  }
}
layer {
  name: "loss1/relu_fc"
  type: "ReLU"
  bottom: "loss1/fc"
  top: "loss1/fc"
}
layer {
  name: "loss1/drop_fc"
  type: "Dropout"
  bottom: "loss1/fc"
  top: "loss1/fc"
  dropout_param {
    dropout_ratio: 0.7
  }
}
layer {
  name: "loss1/classifier_plantvillage"
  type: "InnerProduct"
  bottom: "loss1/fc"
  top: "loss1/classifier_plantvillage"
  param {
    lr_mult: 1
    decay_mult: 1
  }
  param {
    lr_mult: 2
    decay_mult: 0
  }
  inner_product_param {
    num_output: 38
    weight_filler {
      type: "xavier"
      std: 0.0009765625
    }
    bias_filler {
      type: "constant"
      value: 0
    }
  }
}
layer {
  name: "inception_4b/1x1"
  type: "Convolution"
  bottom: "inception_4a/output"
  top: "inception_4b/1x1"
  param {
    lr_mult: 1
    decay_mult: 1
  }
  param {
    lr_mult: 2
    decay_mult: 0
  }
  convolution_param {
    num_output: 160
    kernel_size: 1
    weight_filler {
      type: "xavier"
      std: 0.03
    }
    bias_filler {
      type: "constant"
      value: 0.2
    }
  }
}
layer {
  name: "inception_4b/relu_1x1"
  type: "ReLU"
  bottom: "inception_4b/1x1"
  top: "inception_4b/1x1"
}
layer {
  name: "inception_4b/3x3_reduce"
  type: "Convolution"
  bottom: "inception_4a/output"
  top: "inception_4b/3x3_reduce"
  param {
    lr_mult: 1
    decay_mult: 1
  }
  param {
    lr_mult: 2
    decay_mult: 0
  }
  convolution_param {
    num_output: 112
    kernel_size: 1
    weight_filler {
      type: "xavier"
      std: 0.09
    }
    bias_filler {
      type: "constant"
      value: 0.2
    }
  }
}
layer {
  name: "inception_4b/relu_3x3_reduce"
  type: "ReLU"
  bottom: "inception_4b/3x3_reduce"
  top: "inception_4b/3x3_reduce"
}
layer {
  name: "inception_4b/3x3"
  type: "Convolution"
  bottom: "inception_4b/3x3_reduce"
  top: "inception_4b/3x3"
  param {
    lr_mult: 1
    decay_mult: 1
  }
  param {
    lr_mult: 2
    decay_mult: 0
  }
  convolution_param {
    num_output: 224
    pad: 1
    kernel_size: 3
    weight_filler {
      type: "xavier"
      std: 0.03
    }
    bias_filler {
      type: "constant"
      value: 0.2
    }
  }
}
layer {
  name: "inception_4b/relu_3x3"
  type: "ReLU"
  bottom: "inception_4b/3x3"
  top: "inception_4b/3x3"
}
layer {
  name: "inception_4b/5x5_reduce"
  type: "Convolution"
  bottom: "inception_4a/output"
  top: "inception_4b/5x5_reduce"
  param {
    lr_mult: 1
    decay_mult: 1
  }
  param {
    lr_mult: 2
    decay_mult: 0
  }
  convolution_param {
    num_output: 24
    kernel_size: 1
    weight_filler {
      type: "xavier"
      std: 0.2
    }
    bias_filler {
      type: "constant"
      value: 0.2
    }
  }
}
layer {
  name: "inception_4b/relu_5x5_reduce"
  type: "ReLU"
  bottom: "inception_4b/5x5_reduce"
  top: "inception_4b/5x5_reduce"
}
layer {
  name: "inception_4b/5x5"
  type: "Convolution"
  bottom: "inception_4b/5x5_reduce"
  top: "inception_4b/5x5"
  param {
    lr_mult: 1
    decay_mult: 1
  }
  param {
    lr_mult: 2
    decay_mult: 0
  }
  convolution_param {
    num_output: 64
    pad: 2
    kernel_size: 5
    weight_filler {
      type: "xavier"
      std: 0.03
    }
    bias_filler {
      type: "constant"
      value: 0.2
    }
  }
}
layer {
  name: "inception_4b/relu_5x5"
  type: "ReLU"
  bottom: "inception_4b/5x5"
  top: "inception_4b/5x5"
}
layer {
  name: "inception_4b/pool"
  type: "Pooling"
  bottom: "inception_4a/output"
  top: "inception_4b/pool"
  pooling_param {
    pool: MAX
    kernel_size: 3
    stride: 1
    pad: 1
  }
}
layer {
  name: "inception_4b/pool_proj"
  type: "Convolution"
  bottom: "inception_4b/pool"
  top: "inception_4b/pool_proj"
  param {
    lr_mult: 1
    decay_mult: 1
  }
  param {
    lr_mult: 2
    decay_mult: 0
  }
  convolution_param {
    num_output: 64
    kernel_size: 1
    weight_filler {
      type: "xavier"
      std: 0.1
    }
    bias_filler {
      type: "constant"
      value: 0.2
    }
  }
}
layer {
  name: "inception_4b/relu_pool_proj"
  type: "ReLU"
  bottom: "inception_4b/pool_proj"
  top: "inception_4b/pool_proj"
}
layer {
  name: "inception_4b/output"
  type: "Concat"
  bottom: "inception_4b/1x1"
  bottom: "inception_4b/3x3"
  bottom: "inception_4b/5x5"
  bottom: "inception_4b/pool_proj"
  top: "inception_4b/output"
}
layer {
  name: "inception_4c/1x1"
  type: "Convolution"
  bottom: "inception_4b/output"
  top: "inception_4c/1x1"
  param {
    lr_mult: 1
    decay_mult: 1
  }
  param {
    lr_mult: 2
    decay_mult: 0
  }
  convolution_param {
    num_output: 128
    kernel_size: 1
    weight_filler {
      type: "xavier"
      std: 0.03
    }
    bias_filler {
      type: "constant"
      value: 0.2
    }
  }
}
layer {
  name: "inception_4c/relu_1x1"
  type: "ReLU"
  bottom: "inception_4c/1x1"
  top: "inception_4c/1x1"
}
layer {
  name: "inception_4c/3x3_reduce"
  type: "Convolution"
  bottom: "inception_4b/output"
  top: "inception_4c/3x3_reduce"
  param {
    lr_mult: 1
    decay_mult: 1
  }
  param {
    lr_mult: 2
    decay_mult: 0
  }
  convolution_param {
    num_output: 128
    kernel_size: 1
    weight_filler {
      type: "xavier"
      std: 0.09
    }
    bias_filler {
      type: "constant"
      value: 0.2
    }
  }
}
layer {
  name: "inception_4c/relu_3x3_reduce"
  type: "ReLU"
  bottom: "inception_4c/3x3_reduce"
  top: "inception_4c/3x3_reduce"
}
layer {
  name: "inception_4c/3x3"
  type: "Convolution"
  bottom: "inception_4c/3x3_reduce"
  top: "inception_4c/3x3"
  param {
    lr_mult: 1
    decay_mult: 1
  }
  param {
    lr_mult: 2
    decay_mult: 0
  }
  convolution_param {
    num_output: 256
    pad: 1
    kernel_size: 3
    weight_filler {
      type: "xavier"
      std: 0.03
    }
    bias_filler {
      type: "constant"
      value: 0.2
    }
  }
}
layer {
  name: "inception_4c/relu_3x3"
  type: "ReLU"
  bottom: "inception_4c/3x3"
  top: "inception_4c/3x3"
}
layer {
  name: "inception_4c/5x5_reduce"
  type: "Convolution"
  bottom: "inception_4b/output"
  top: "inception_4c/5x5_reduce"
  param {
    lr_mult: 1
    decay_mult: 1
  }
  param {
    lr_mult: 2
    decay_mult: 0
  }
  convolution_param {
    num_output: 24
    kernel_size: 1
    weight_filler {
      type: "xavier"
      std: 0.2
    }
    bias_filler {
      type: "constant"
      value: 0.2
    }
  }
}
layer {
  name: "inception_4c/relu_5x5_reduce"
  type: "ReLU"
  bottom: "inception_4c/5x5_reduce"
  top: "inception_4c/5x5_reduce"
}
layer {
  name: "inception_4c/5x5"
  type: "Convolution"
  bottom: "inception_4c/5x5_reduce"
  top: "inception_4c/5x5"
  param {
    lr_mult: 1
    decay_mult: 1
  }
  param {
    lr_mult: 2
    decay_mult: 0
  }
  convolution_param {
    num_output: 64
    pad: 2
    kernel_size: 5
    weight_filler {
      type: "xavier"
      std: 0.03
    }
    bias_filler {
      type: "constant"
      value: 0.2
    }
  }
}
layer {
  name: "inception_4c/relu_5x5"
  type: "ReLU"
  bottom: "inception_4c/5x5"
  top: "inception_4c/5x5"
}
layer {
  name: "inception_4c/pool"
  type: "Pooling"
  bottom: "inception_4b/output"
  top: "inception_4c/pool"
  pooling_param {
    pool: MAX
    kernel_size: 3
    stride: 1
    pad: 1
  }
}
layer {
  name: "inception_4c/pool_proj"
  type: "Convolution"
  bottom: "inception_4c/pool"
  top: "inception_4c/pool_proj"
  param {
    lr_mult: 1
    decay_mult: 1
  }
  param {
    lr_mult: 2
    decay_mult: 0
  }
  convolution_param {
    num_output: 64
    kernel_size: 1
    weight_filler {
      type: "xavier"
      std: 0.1
    }
    bias_filler {
      type: "constant"
      value: 0.2
    }
  }
}
layer {
  name: "inception_4c/relu_pool_proj"
  type: "ReLU"
  bottom: "inception_4c/pool_proj"
  top: "inception_4c/pool_proj"
}
layer {
  name: "inception_4c/output"
  type: "Concat"
  bottom: "inception_4c/1x1"
  bottom: "inception_4c/3x3"
  bottom: "inception_4c/5x5"
  bottom: "inception_4c/pool_proj"
  top: "inception_4c/output"
}
layer {
  name: "inception_4d/1x1"
  type: "Convolution"
  bottom: "inception_4c/output"
  top: "inception_4d/1x1"
  param {
    lr_mult: 1
    decay_mult: 1
  }
  param {
    lr_mult: 2
    decay_mult: 0
  }
  convolution_param {
    num_output: 112
    kernel_size: 1
    weight_filler {
      type: "xavier"
      std: 0.03
    }
    bias_filler {
      type: "constant"
      value: 0.2
    }
  }
}
layer {
  name: "inception_4d/relu_1x1"
  type: "ReLU"
  bottom: "inception_4d/1x1"
  top: "inception_4d/1x1"
}
layer {
  name: "inception_4d/3x3_reduce"
  type: "Convolution"
  bottom: "inception_4c/output"
  top: "inception_4d/3x3_reduce"
  param {
    lr_mult: 1
    decay_mult: 1
  }
  param {
    lr_mult: 2
    decay_mult: 0
  }
  convolution_param {
    num_output: 144
    kernel_size: 1
    weight_filler {
      type: "xavier"
      std: 0.09
    }
    bias_filler {
      type: "constant"
      value: 0.2
    }
  }
}
layer {
  name: "inception_4d/relu_3x3_reduce"
  type: "ReLU"
  bottom: "inception_4d/3x3_reduce"
  top: "inception_4d/3x3_reduce"
}
layer {
  name: "inception_4d/3x3"
  type: "Convolution"
  bottom: "inception_4d/3x3_reduce"
  top: "inception_4d/3x3"
  param {
    lr_mult: 1
    decay_mult: 1
  }
  param {
    lr_mult: 2
    decay_mult: 0
  }
  convolution_param {
    num_output: 288
    pad: 1
    kernel_size: 3
    weight_filler {
      type: "xavier"
      std: 0.03
    }
    bias_filler {
      type: "constant"
      value: 0.2
    }
  }
}
layer {
  name: "inception_4d/relu_3x3"
  type: "ReLU"
  bottom: "inception_4d/3x3"
  top: "inception_4d/3x3"
}
layer {
  name: "inception_4d/5x5_reduce"
  type: "Convolution"
  bottom: "inception_4c/output"
  top: "inception_4d/5x5_reduce"
  param {
    lr_mult: 1
    decay_mult: 1
  }
  param {
    lr_mult: 2
    decay_mult: 0
  }
  convolution_param {
    num_output: 32
    kernel_size: 1
    weight_filler {
      type: "xavier"
      std: 0.2
    }
    bias_filler {
      type: "constant"
      value: 0.2
    }
  }
}
layer {
  name: "inception_4d/relu_5x5_reduce"
  type: "ReLU"
  bottom: "inception_4d/5x5_reduce"
  top: "inception_4d/5x5_reduce"
}
layer {
  name: "inception_4d/5x5"
  type: "Convolution"
  bottom: "inception_4d/5x5_reduce"
  top: "inception_4d/5x5"
  param {
    lr_mult: 1
    decay_mult: 1
  }
  param {
    lr_mult: 2
    decay_mult: 0
  }
  convolution_param {
    num_output: 64
    pad: 2
    kernel_size: 5
    weight_filler {
      type: "xavier"
      std: 0.03
    }
    bias_filler {
      type: "constant"
      value: 0.2
    }
  }
}
layer {
  name: "inception_4d/relu_5x5"
  type: "ReLU"
  bottom: "inception_4d/5x5"
  top: "inception_4d/5x5"
}
layer {
  name: "inception_4d/pool"
  type: "Pooling"
  bottom: "inception_4c/output"
  top: "inception_4d/pool"
  pooling_param {
    pool: MAX
    kernel_size: 3
    stride: 1
    pad: 1
  }
}
layer {
  name: "inception_4d/pool_proj"
  type: "Convolution"
  bottom: "inception_4d/pool"
  top: "inception_4d/pool_proj"
  param {
    lr_mult: 1
    decay_mult: 1
  }
  param {
    lr_mult: 2
    decay_mult: 0
  }
  convolution_param {
    num_output: 64
    kernel_size: 1
    weight_filler {
      type: "xavier"
      std: 0.1
    }
    bias_filler {
      type: "constant"
      value: 0.2
    }
  }
}
layer {
  name: "inception_4d/relu_pool_proj"
  type: "ReLU"
  bottom: "inception_4d/pool_proj"
  top: "inception_4d/pool_proj"
}
layer {
  name: "inception_4d/output"
  type: "Concat"
  bottom: "inception_4d/1x1"
  bottom: "inception_4d/3x3"
  bottom: "inception_4d/5x5"
  bottom: "inception_4d/pool_proj"
  top: "inception_4d/output"
}
layer {
  name: "loss2/ave_pool"
  type: "Pooling"
  bottom: "inception_4d/output"
  top: "loss2/ave_pool"
  pooling_param {
    pool: AVE
    kernel_size: 5
    stride: 3
  }
}
layer {
  name: "loss2/conv"
  type: "Convolution"
  bottom: "loss2/ave_pool"
  top: "loss2/conv"
  param {
    lr_mult: 1
    decay_mult: 1
  }
  param {
    lr_mult: 2
    decay_mult: 0
  }
  convolution_param {
    num_output: 128
    kernel_size: 1
    weight_filler {
      type: "xavier"
      std: 0.08
    }
    bias_filler {
      type: "constant"
      value: 0.2
    }
  }
}
layer {
  name: "loss2/relu_conv"
  type: "ReLU"
  bottom: "loss2/conv"
  top: "loss2/conv"
}
layer {
  name: "loss2/fc"
  type: "InnerProduct"
  bottom: "loss2/conv"
  top: "loss2/fc"
  param {
    lr_mult: 1
    decay_mult: 1
  }
  param {
    lr_mult: 2
    decay_mult: 0
  }
  inner_product_param {
    num_output: 1024
    weight_filler {
      type: "xavier"
      std: 0.02
    }
    bias_filler {
      type: "constant"
      value: 0.2
    }
  }
}
layer {
  name: "loss2/relu_fc"
  type: "ReLU"
  bottom: "loss2/fc"
  top: "loss2/fc"
}
layer {
  name: "loss2/drop_fc"
  type: "Dropout"
  bottom: "loss2/fc"
  top: "loss2/fc"
  dropout_param {
    dropout_ratio: 0.7
  }
}
layer {
  name: "loss2/classifier_plantvillage"
  type: "InnerProduct"
  bottom: "loss2/fc"
  top: "loss2/classifier_plantvillage"
  param {
    lr_mult: 1
    decay_mult: 1
  }
  param {
    lr_mult: 2
    decay_mult: 0
  }
  inner_product_param {
    num_output: 38
    weight_filler {
      type: "xavier"
      std: 0.0009765625
    }
    bias_filler {
      type: "constant"
      value: 0
    }
  }
}
layer {
  name: "inception_4e/1x1"
  type: "Convolution"
  bottom: "inception_4d/output"
  top: "inception_4e/1x1"
  param {
    lr_mult: 1
    decay_mult: 1
  }
  param {
    lr_mult: 2
    decay_mult: 0
  }
  convolution_param {
    num_output: 256
    kernel_size: 1
    weight_filler {
      type: "xavier"
      std: 0.03
    }
    bias_filler {
      type: "constant"
      value: 0.2
    }
  }
}
layer {
  name: "inception_4e/relu_1x1"
  type: "ReLU"
  bottom: "inception_4e/1x1"
  top: "inception_4e/1x1"
}
layer {
  name: "inception_4e/3x3_reduce"
  type: "Convolution"
  bottom: "inception_4d/output"
  top: "inception_4e/3x3_reduce"
  param {
    lr_mult: 1
    decay_mult: 1
  }
  param {
    lr_mult: 2
    decay_mult: 0
  }
  convolution_param {
    num_output: 160
    kernel_size: 1
    weight_filler {
      type: "xavier"
      std: 0.09
    }
    bias_filler {
      type: "constant"
      value: 0.2
    }
  }
}
layer {
  name: "inception_4e/relu_3x3_reduce"
  type: "ReLU"
  bottom: "inception_4e/3x3_reduce"
  top: "inception_4e/3x3_reduce"
}
layer {
  name: "inception_4e/3x3"
  type: "Convolution"
  bottom: "inception_4e/3x3_reduce"
  top: "inception_4e/3x3"
  param {
    lr_mult: 1
    decay_mult: 1
  }
  param {
    lr_mult: 2
    decay_mult: 0
  }
  convolution_param {
    num_output: 320
    pad: 1
    kernel_size: 3
    weight_filler {
      type: "xavier"
      std: 0.03
    }
    bias_filler {
      type: "constant"
      value: 0.2
    }
  }
}
layer {
  name: "inception_4e/relu_3x3"
  type: "ReLU"
  bottom: "inception_4e/3x3"
  top: "inception_4e/3x3"
}
layer {
  name: "inception_4e/5x5_reduce"
  type: "Convolution"
  bottom: "inception_4d/output"
  top: "inception_4e/5x5_reduce"
  param {
    lr_mult: 1
    decay_mult: 1
  }
  param {
    lr_mult: 2
    decay_mult: 0
  }
  convolution_param {
    num_output: 32
    kernel_size: 1
    weight_filler {
      type: "xavier"
      std: 0.2
    }
    bias_filler {
      type: "constant"
      value: 0.2
    }
  }
}
layer {
  name: "inception_4e/relu_5x5_reduce"
  type: "ReLU"
  bottom: "inception_4e/5x5_reduce"
  top: "inception_4e/5x5_reduce"
}
layer {
  name: "inception_4e/5x5"
  type: "Convolution"
  bottom: "inception_4e/5x5_reduce"
  top: "inception_4e/
I0403 18:46:15.059664 23502 layer_factory.hpp:77] Creating layer data
I0403 18:46:15.060245 23502 net.cpp:91] Creating Layer data
I0403 18:46:15.060273 23502 net.cpp:399] data -> data
I0403 18:46:15.060322 23502 net.cpp:399] data -> label
I0403 18:46:15.060360 23502 data_transformer.cpp:25] Loading mean file from: /home/mohanty/data/final_dataset/lmdb/segmented-40-60/mean.binaryproto
I0403 18:46:15.061442 23505 db_lmdb.cpp:38] Opened lmdb /home/mohanty/data/final_dataset/lmdb/segmented-40-60/test_db
I0403 18:46:15.074270 23502 data_layer.cpp:41] output data size: 24,3,224,224
I0403 18:46:15.101305 23502 net.cpp:141] Setting up data
I0403 18:46:15.101377 23502 net.cpp:148] Top shape: 24 3 224 224 (3612672)
I0403 18:46:15.101398 23502 net.cpp:148] Top shape: 24 (24)
I0403 18:46:15.101413 23502 net.cpp:156] Memory required for data: 14450784
I0403 18:46:15.101438 23502 layer_factory.hpp:77] Creating layer label_data_1_split
I0403 18:46:15.101464 23502 net.cpp:91] Creating Layer label_data_1_split
I0403 18:46:15.101481 23502 net.cpp:425] label_data_1_split <- label
I0403 18:46:15.101517 23502 net.cpp:399] label_data_1_split -> label_data_1_split_0
I0403 18:46:15.101546 23502 net.cpp:399] label_data_1_split -> label_data_1_split_1
I0403 18:46:15.101567 23502 net.cpp:399] label_data_1_split -> label_data_1_split_2
I0403 18:46:15.101586 23502 net.cpp:399] label_data_1_split -> label_data_1_split_3
I0403 18:46:15.101605 23502 net.cpp:399] label_data_1_split -> label_data_1_split_4
I0403 18:46:15.101624 23502 net.cpp:399] label_data_1_split -> label_data_1_split_5
I0403 18:46:15.101644 23502 net.cpp:399] label_data_1_split -> label_data_1_split_6
I0403 18:46:15.101663 23502 net.cpp:399] label_data_1_split -> label_data_1_split_7
I0403 18:46:15.101683 23502 net.cpp:399] label_data_1_split -> label_data_1_split_8
I0403 18:46:15.101702 23502 net.cpp:399] label_data_1_split -> label_data_1_split_9
I0403 18:46:15.101817 23502 net.cpp:141] Setting up label_data_1_split
I0403 18:46:15.101840 23502 net.cpp:148] Top shape: 24 (24)
I0403 18:46:15.101855 23502 net.cpp:148] Top shape: 24 (24)
I0403 18:46:15.101871 23502 net.cpp:148] Top shape: 24 (24)
I0403 18:46:15.101886 23502 net.cpp:148] Top shape: 24 (24)
I0403 18:46:15.101899 23502 net.cpp:148] Top shape: 24 (24)
I0403 18:46:15.101913 23502 net.cpp:148] Top shape: 24 (24)
I0403 18:46:15.101928 23502 net.cpp:148] Top shape: 24 (24)
I0403 18:46:15.101943 23502 net.cpp:148] Top shape: 24 (24)
I0403 18:46:15.101958 23502 net.cpp:148] Top shape: 24 (24)
I0403 18:46:15.101972 23502 net.cpp:148] Top shape: 24 (24)
I0403 18:46:15.102020 23502 net.cpp:156] Memory required for data: 14451744
I0403 18:46:15.102035 23502 layer_factory.hpp:77] Creating layer conv1/7x7_s2
I0403 18:46:15.102064 23502 net.cpp:91] Creating Layer conv1/7x7_s2
I0403 18:46:15.102082 23502 net.cpp:425] conv1/7x7_s2 <- data
I0403 18:46:15.102102 23502 net.cpp:399] conv1/7x7_s2 -> conv1/7x7_s2
I0403 18:46:15.253296 23502 net.cpp:141] Setting up conv1/7x7_s2
I0403 18:46:15.253360 23502 net.cpp:148] Top shape: 24 64 112 112 (19267584)
I0403 18:46:15.253376 23502 net.cpp:156] Memory required for data: 91522080
I0403 18:46:15.253404 23502 layer_factory.hpp:77] Creating layer conv1/relu_7x7
I0403 18:46:15.253430 23502 net.cpp:91] Creating Layer conv1/relu_7x7
I0403 18:46:15.253448 23502 net.cpp:425] conv1/relu_7x7 <- conv1/7x7_s2
I0403 18:46:15.253466 23502 net.cpp:386] conv1/relu_7x7 -> conv1/7x7_s2 (in-place)
I0403 18:46:15.253718 23502 net.cpp:141] Setting up conv1/relu_7x7
I0403 18:46:15.253743 23502 net.cpp:148] Top shape: 24 64 112 112 (19267584)
I0403 18:46:15.253761 23502 net.cpp:156] Memory required for data: 168592416
I0403 18:46:15.253775 23502 layer_factory.hpp:77] Creating layer pool1/3x3_s2
I0403 18:46:15.253798 23502 net.cpp:91] Creating Layer pool1/3x3_s2
I0403 18:46:15.253816 23502 net.cpp:425] pool1/3x3_s2 <- conv1/7x7_s2
I0403 18:46:15.253834 23502 net.cpp:399] pool1/3x3_s2 -> pool1/3x3_s2
I0403 18:46:15.253903 23502 net.cpp:141] Setting up pool1/3x3_s2
I0403 18:46:15.253926 23502 net.cpp:148] Top shape: 24 64 56 56 (4816896)
I0403 18:46:15.253940 23502 net.cpp:156] Memory required for data: 187860000
I0403 18:46:15.253953 23502 layer_factory.hpp:77] Creating layer pool1/norm1
I0403 18:46:15.253976 23502 net.cpp:91] Creating Layer pool1/norm1
I0403 18:46:15.253993 23502 net.cpp:425] pool1/norm1 <- pool1/3x3_s2
I0403 18:46:15.254009 23502 net.cpp:399] pool1/norm1 -> pool1/norm1
I0403 18:46:15.254284 23502 net.cpp:141] Setting up pool1/norm1
I0403 18:46:15.254310 23502 net.cpp:148] Top shape: 24 64 56 56 (4816896)
I0403 18:46:15.254324 23502 net.cpp:156] Memory required for data: 207127584
I0403 18:46:15.254338 23502 layer_factory.hpp:77] Creating layer conv2/3x3_reduce
I0403 18:46:15.254360 23502 net.cpp:91] Creating Layer conv2/3x3_reduce
I0403 18:46:15.254376 23502 net.cpp:425] conv2/3x3_reduce <- pool1/norm1
I0403 18:46:15.254395 23502 net.cpp:399] conv2/3x3_reduce -> conv2/3x3_reduce
I0403 18:46:15.255686 23502 net.cpp:141] Setting up conv2/3x3_reduce
I0403 18:46:15.255713 23502 net.cpp:148] Top shape: 24 64 56 56 (4816896)
I0403 18:46:15.255728 23502 net.cpp:156] Memory required for data: 226395168
I0403 18:46:15.255748 23502 layer_factory.hpp:77] Creating layer conv2/relu_3x3_reduce
I0403 18:46:15.255766 23502 net.cpp:91] Creating Layer conv2/relu_3x3_reduce
I0403 18:46:15.255781 23502 net.cpp:425] conv2/relu_3x3_reduce <- conv2/3x3_reduce
I0403 18:46:15.255797 23502 net.cpp:386] conv2/relu_3x3_reduce -> conv2/3x3_reduce (in-place)
I0403 18:46:15.256037 23502 net.cpp:141] Setting up conv2/relu_3x3_reduce
I0403 18:46:15.256063 23502 net.cpp:148] Top shape: 24 64 56 56 (4816896)
I0403 18:46:15.256078 23502 net.cpp:156] Memory required for data: 245662752
I0403 18:46:15.256090 23502 layer_factory.hpp:77] Creating layer conv2/3x3
I0403 18:46:15.256111 23502 net.cpp:91] Creating Layer conv2/3x3
I0403 18:46:15.256127 23502 net.cpp:425] conv2/3x3 <- conv2/3x3_reduce
I0403 18:46:15.256145 23502 net.cpp:399] conv2/3x3 -> conv2/3x3
I0403 18:46:15.258280 23502 net.cpp:141] Setting up conv2/3x3
I0403 18:46:15.258307 23502 net.cpp:148] Top shape: 24 192 56 56 (14450688)
I0403 18:46:15.258323 23502 net.cpp:156] Memory required for data: 303465504
I0403 18:46:15.258342 23502 layer_factory.hpp:77] Creating layer conv2/relu_3x3
I0403 18:46:15.258361 23502 net.cpp:91] Creating Layer conv2/relu_3x3
I0403 18:46:15.258376 23502 net.cpp:425] conv2/relu_3x3 <- conv2/3x3
I0403 18:46:15.258393 23502 net.cpp:386] conv2/relu_3x3 -> conv2/3x3 (in-place)
I0403 18:46:15.258549 23502 net.cpp:141] Setting up conv2/relu_3x3
I0403 18:46:15.258574 23502 net.cpp:148] Top shape: 24 192 56 56 (14450688)
I0403 18:46:15.258622 23502 net.cpp:156] Memory required for data: 361268256
I0403 18:46:15.258637 23502 layer_factory.hpp:77] Creating layer conv2/norm2
I0403 18:46:15.258656 23502 net.cpp:91] Creating Layer conv2/norm2
I0403 18:46:15.258671 23502 net.cpp:425] conv2/norm2 <- conv2/3x3
I0403 18:46:15.258688 23502 net.cpp:399] conv2/norm2 -> conv2/norm2
I0403 18:46:15.258963 23502 net.cpp:141] Setting up conv2/norm2
I0403 18:46:15.258990 23502 net.cpp:148] Top shape: 24 192 56 56 (14450688)
I0403 18:46:15.259003 23502 net.cpp:156] Memory required for data: 419071008
I0403 18:46:15.259017 23502 layer_factory.hpp:77] Creating layer pool2/3x3_s2
I0403 18:46:15.259034 23502 net.cpp:91] Creating Layer pool2/3x3_s2
I0403 18:46:15.259050 23502 net.cpp:425] pool2/3x3_s2 <- conv2/norm2
I0403 18:46:15.259066 23502 net.cpp:399] pool2/3x3_s2 -> pool2/3x3_s2
I0403 18:46:15.259114 23502 net.cpp:141] Setting up pool2/3x3_s2
I0403 18:46:15.259135 23502 net.cpp:148] Top shape: 24 192 28 28 (3612672)
I0403 18:46:15.259150 23502 net.cpp:156] Memory required for data: 433521696
I0403 18:46:15.259162 23502 layer_factory.hpp:77] Creating layer pool2/3x3_s2_pool2/3x3_s2_0_split
I0403 18:46:15.259179 23502 net.cpp:91] Creating Layer pool2/3x3_s2_pool2/3x3_s2_0_split
I0403 18:46:15.259193 23502 net.cpp:425] pool2/3x3_s2_pool2/3x3_s2_0_split <- pool2/3x3_s2
I0403 18:46:15.259209 23502 net.cpp:399] pool2/3x3_s2_pool2/3x3_s2_0_split -> pool2/3x3_s2_pool2/3x3_s2_0_split_0
I0403 18:46:15.259227 23502 net.cpp:399] pool2/3x3_s2_pool2/3x3_s2_0_split -> pool2/3x3_s2_pool2/3x3_s2_0_split_1
I0403 18:46:15.259246 23502 net.cpp:399] pool2/3x3_s2_pool2/3x3_s2_0_split -> pool2/3x3_s2_pool2/3x3_s2_0_split_2
I0403 18:46:15.259266 23502 net.cpp:399] pool2/3x3_s2_pool2/3x3_s2_0_split -> pool2/3x3_s2_pool2/3x3_s2_0_split_3
I0403 18:46:15.259326 23502 net.cpp:141] Setting up pool2/3x3_s2_pool2/3x3_s2_0_split
I0403 18:46:15.259347 23502 net.cpp:148] Top shape: 24 192 28 28 (3612672)
I0403 18:46:15.259362 23502 net.cpp:148] Top shape: 24 192 28 28 (3612672)
I0403 18:46:15.259377 23502 net.cpp:148] Top shape: 24 192 28 28 (3612672)
I0403 18:46:15.259392 23502 net.cpp:148] Top shape: 24 192 28 28 (3612672)
I0403 18:46:15.259404 23502 net.cpp:156] Memory required for data: 491324448
I0403 18:46:15.259418 23502 layer_factory.hpp:77] Creating layer inception_3a/1x1
I0403 18:46:15.259436 23502 net.cpp:91] Creating Layer inception_3a/1x1
I0403 18:46:15.259451 23502 net.cpp:425] inception_3a/1x1 <- pool2/3x3_s2_pool2/3x3_s2_0_split_0
I0403 18:46:15.259475 23502 net.cpp:399] inception_3a/1x1 -> inception_3a/1x1
I0403 18:46:15.260936 23502 net.cpp:141] Setting up inception_3a/1x1
I0403 18:46:15.260964 23502 net.cpp:148] Top shape: 24 64 28 28 (1204224)
I0403 18:46:15.260983 23502 net.cpp:156] Memory required for data: 496141344
I0403 18:46:15.261001 23502 layer_factory.hpp:77] Creating layer inception_3a/relu_1x1
I0403 18:46:15.261018 23502 net.cpp:91] Creating Layer inception_3a/relu_1x1
I0403 18:46:15.261034 23502 net.cpp:425] inception_3a/relu_1x1 <- inception_3a/1x1
I0403 18:46:15.261050 23502 net.cpp:386] inception_3a/relu_1x1 -> inception_3a/1x1 (in-place)
I0403 18:46:15.261222 23502 net.cpp:141] Setting up inception_3a/relu_1x1
I0403 18:46:15.261250 23502 net.cpp:148] Top shape: 24 64 28 28 (1204224)
I0403 18:46:15.261263 23502 net.cpp:156] Memory required for data: 500958240
I0403 18:46:15.261278 23502 layer_factory.hpp:77] Creating layer inception_3a/3x3_reduce
I0403 18:46:15.261299 23502 net.cpp:91] Creating Layer inception_3a/3x3_reduce
I0403 18:46:15.261317 23502 net.cpp:425] inception_3a/3x3_reduce <- pool2/3x3_s2_pool2/3x3_s2_0_split_1
I0403 18:46:15.261334 23502 net.cpp:399] inception_3a/3x3_reduce -> inception_3a/3x3_reduce
I0403 18:46:15.263000 23502 net.cpp:141] Setting up inception_3a/3x3_reduce
I0403 18:46:15.263028 23502 net.cpp:148] Top shape: 24 96 28 28 (1806336)
I0403 18:46:15.263043 23502 net.cpp:156] Memory required for data: 508183584
I0403 18:46:15.263062 23502 layer_factory.hpp:77] Creating layer inception_3a/relu_3x3_reduce
I0403 18:46:15.263099 23502 net.cpp:91] Creating Layer inception_3a/relu_3x3_reduce
I0403 18:46:15.263118 23502 net.cpp:425] inception_3a/relu_3x3_reduce <- inception_3a/3x3_reduce
I0403 18:46:15.263136 23502 net.cpp:386] inception_3a/relu_3x3_reduce -> inception_3a/3x3_reduce (in-place)
I0403 18:46:15.263311 23502 net.cpp:141] Setting up inception_3a/relu_3x3_reduce
I0403 18:46:15.263335 23502 net.cpp:148] Top shape: 24 96 28 28 (1806336)
I0403 18:46:15.263350 23502 net.cpp:156] Memory required for data: 515408928
I0403 18:46:15.263363 23502 layer_factory.hpp:77] Creating layer inception_3a/3x3
I0403 18:46:15.263384 23502 net.cpp:91] Creating Layer inception_3a/3x3
I0403 18:46:15.263401 23502 net.cpp:425] inception_3a/3x3 <- inception_3a/3x3_reduce
I0403 18:46:15.263422 23502 net.cpp:399] inception_3a/3x3 -> inception_3a/3x3
I0403 18:46:15.265053 23502 net.cpp:141] Setting up inception_3a/3x3
I0403 18:46:15.265082 23502 net.cpp:148] Top shape: 24 128 28 28 (2408448)
I0403 18:46:15.265099 23502 net.cpp:156] Memory required for data: 525042720
I0403 18:46:15.265116 23502 layer_factory.hpp:77] Creating layer inception_3a/relu_3x3
I0403 18:46:15.265133 23502 net.cpp:91] Creating Layer inception_3a/relu_3x3
I0403 18:46:15.265148 23502 net.cpp:425] inception_3a/relu_3x3 <- inception_3a/3x3
I0403 18:46:15.265164 23502 net.cpp:386] inception_3a/relu_3x3 -> inception_3a/3x3 (in-place)
I0403 18:46:15.265430 23502 net.cpp:141] Setting up inception_3a/relu_3x3
I0403 18:46:15.265458 23502 net.cpp:148] Top shape: 24 128 28 28 (2408448)
I0403 18:46:15.265473 23502 net.cpp:156] Memory required for data: 534676512
I0403 18:46:15.265487 23502 layer_factory.hpp:77] Creating layer inception_3a/5x5_reduce
I0403 18:46:15.265512 23502 net.cpp:91] Creating Layer inception_3a/5x5_reduce
I0403 18:46:15.265530 23502 net.cpp:425] inception_3a/5x5_reduce <- pool2/3x3_s2_pool2/3x3_s2_0_split_2
I0403 18:46:15.265548 23502 net.cpp:399] inception_3a/5x5_reduce -> inception_3a/5x5_reduce
I0403 18:46:15.266469 23502 net.cpp:141] Setting up inception_3a/5x5_reduce
I0403 18:46:15.266495 23502 net.cpp:148] Top shape: 24 16 28 28 (301056)
I0403 18:46:15.266515 23502 net.cpp:156] Memory required for data: 535880736
I0403 18:46:15.266532 23502 layer_factory.hpp:77] Creating layer inception_3a/relu_5x5_reduce
I0403 18:46:15.266551 23502 net.cpp:91] Creating Layer inception_3a/relu_5x5_reduce
I0403 18:46:15.266566 23502 net.cpp:425] inception_3a/relu_5x5_reduce <- inception_3a/5x5_reduce
I0403 18:46:15.266584 23502 net.cpp:386] inception_3a/relu_5x5_reduce -> inception_3a/5x5_reduce (in-place)
I0403 18:46:15.266865 23502 net.cpp:141] Setting up inception_3a/relu_5x5_reduce
I0403 18:46:15.266891 23502 net.cpp:148] Top shape: 24 16 28 28 (301056)
I0403 18:46:15.266906 23502 net.cpp:156] Memory required for data: 537084960
I0403 18:46:15.266919 23502 layer_factory.hpp:77] Creating layer inception_3a/5x5
I0403 18:46:15.266940 23502 net.cpp:91] Creating Layer inception_3a/5x5
I0403 18:46:15.266957 23502 net.cpp:425] inception_3a/5x5 <- inception_3a/5x5_reduce
I0403 18:46:15.266978 23502 net.cpp:399] inception_3a/5x5 -> inception_3a/5x5
I0403 18:46:15.267956 23502 net.cpp:141] Setting up inception_3a/5x5
I0403 18:46:15.267985 23502 net.cpp:148] Top shape: 24 32 28 28 (602112)
I0403 18:46:15.268000 23502 net.cpp:156] Memory required for data: 539493408
I0403 18:46:15.268018 23502 layer_factory.hpp:77] Creating layer inception_3a/relu_5x5
I0403 18:46:15.268035 23502 net.cpp:91] Creating Layer inception_3a/relu_5x5
I0403 18:46:15.268050 23502 net.cpp:425] inception_3a/relu_5x5 <- inception_3a/5x5
I0403 18:46:15.268067 23502 net.cpp:386] inception_3a/relu_5x5 -> inception_3a/5x5 (in-place)
I0403 18:46:15.268252 23502 net.cpp:141] Setting up inception_3a/relu_5x5
I0403 18:46:15.268277 23502 net.cpp:148] Top shape: 24 32 28 28 (602112)
I0403 18:46:15.268291 23502 net.cpp:156] Memory required for data: 541901856
I0403 18:46:15.268306 23502 layer_factory.hpp:77] Creating layer inception_3a/pool
I0403 18:46:15.268323 23502 net.cpp:91] Creating Layer inception_3a/pool
I0403 18:46:15.268353 23502 net.cpp:425] inception_3a/pool <- pool2/3x3_s2_pool2/3x3_s2_0_split_3
I0403 18:46:15.268374 23502 net.cpp:399] inception_3a/pool -> inception_3a/pool
I0403 18:46:15.268430 23502 net.cpp:141] Setting up inception_3a/pool
I0403 18:46:15.268456 23502 net.cpp:148] Top shape: 24 192 28 28 (3612672)
I0403 18:46:15.268471 23502 net.cpp:156] Memory required for data: 556352544
I0403 18:46:15.268486 23502 layer_factory.hpp:77] Creating layer inception_3a/pool_proj
I0403 18:46:15.268512 23502 net.cpp:91] Creating Layer inception_3a/pool_proj
I0403 18:46:15.268530 23502 net.cpp:425] inception_3a/pool_proj <- inception_3a/pool
I0403 18:46:15.268560 23502 net.cpp:399] inception_3a/pool_proj -> inception_3a/pool_proj
I0403 18:46:15.269487 23502 net.cpp:141] Setting up inception_3a/pool_proj
I0403 18:46:15.269517 23502 net.cpp:148] Top shape: 24 32 28 28 (602112)
I0403 18:46:15.269533 23502 net.cpp:156] Memory required for data: 558760992
I0403 18:46:15.269557 23502 layer_factory.hpp:77] Creating layer inception_3a/relu_pool_proj
I0403 18:46:15.269577 23502 net.cpp:91] Creating Layer inception_3a/relu_pool_proj
I0403 18:46:15.269590 23502 net.cpp:425] inception_3a/relu_pool_proj <- inception_3a/pool_proj
I0403 18:46:15.269609 23502 net.cpp:386] inception_3a/relu_pool_proj -> inception_3a/pool_proj (in-place)
I0403 18:46:15.269876 23502 net.cpp:141] Setting up inception_3a/relu_pool_proj
I0403 18:46:15.269902 23502 net.cpp:148] Top shape: 24 32 28 28 (602112)
I0403 18:46:15.269917 23502 net.cpp:156] Memory required for data: 561169440
I0403 18:46:15.269932 23502 layer_factory.hpp:77] Creating layer inception_3a/output
I0403 18:46:15.269949 23502 net.cpp:91] Creating Layer inception_3a/output
I0403 18:46:15.269964 23502 net.cpp:425] inception_3a/output <- inception_3a/1x1
I0403 18:46:15.269980 23502 net.cpp:425] inception_3a/output <- inception_3a/3x3
I0403 18:46:15.269994 23502 net.cpp:425] inception_3a/output <- inception_3a/5x5
I0403 18:46:15.270009 23502 net.cpp:425] inception_3a/output <- inception_3a/pool_proj
I0403 18:46:15.270025 23502 net.cpp:399] inception_3a/output -> inception_3a/output
I0403 18:46:15.270071 23502 net.cpp:141] Setting up inception_3a/output
I0403 18:46:15.270093 23502 net.cpp:148] Top shape: 24 256 28 28 (4816896)
I0403 18:46:15.270107 23502 net.cpp:156] Memory required for data: 580437024
I0403 18:46:15.270122 23502 layer_factory.hpp:77] Creating layer inception_3a/output_inception_3a/output_0_split
I0403 18:46:15.270139 23502 net.cpp:91] Creating Layer inception_3a/output_inception_3a/output_0_split
I0403 18:46:15.270155 23502 net.cpp:425] inception_3a/output_inception_3a/output_0_split <- inception_3a/output
I0403 18:46:15.270171 23502 net.cpp:399] inception_3a/output_inception_3a/output_0_split -> inception_3a/output_inception_3a/output_0_split_0
I0403 18:46:15.270190 23502 net.cpp:399] inception_3a/output_inception_3a/output_0_split -> inception_3a/output_inception_3a/output_0_split_1
I0403 18:46:15.270213 23502 net.cpp:399] inception_3a/output_inception_3a/output_0_split -> inception_3a/output_inception_3a/output_0_split_2
I0403 18:46:15.270236 23502 net.cpp:399] inception_3a/output_inception_3a/output_0_split -> inception_3a/output_inception_3a/output_0_split_3
I0403 18:46:15.270308 23502 net.cpp:141] Setting up inception_3a/output_inception_3a/output_0_split
I0403 18:46:15.270328 23502 net.cpp:148] Top shape: 24 256 28 28 (4816896)
I0403 18:46:15.270344 23502 net.cpp:148] Top shape: 24 256 28 28 (4816896)
I0403 18:46:15.270359 23502 net.cpp:148] Top shape: 24 256 28 28 (4816896)
I0403 18:46:15.270373 23502 net.cpp:148] Top shape: 24 256 28 28 (4816896)
I0403 18:46:15.270386 23502 net.cpp:156] Memory required for data: 657507360
I0403 18:46:15.270401 23502 layer_factory.hpp:77] Creating layer inception_3b/1x1
I0403 18:46:15.270424 23502 net.cpp:91] Creating Layer inception_3b/1x1
I0403 18:46:15.270442 23502 net.cpp:425] inception_3b/1x1 <- inception_3a/output_inception_3a/output_0_split_0
I0403 18:46:15.270459 23502 net.cpp:399] inception_3b/1x1 -> inception_3b/1x1
I0403 18:46:15.271565 23502 net.cpp:141] Setting up inception_3b/1x1
I0403 18:46:15.271605 23502 net.cpp:148] Top shape: 24 128 28 28 (2408448)
I0403 18:46:15.271620 23502 net.cpp:156] Memory required for data: 667141152
I0403 18:46:15.271636 23502 layer_factory.hpp:77] Creating layer inception_3b/relu_1x1
I0403 18:46:15.271656 23502 net.cpp:91] Creating Layer inception_3b/relu_1x1
I0403 18:46:15.271672 23502 net.cpp:425] inception_3b/relu_1x1 <- inception_3b/1x1
I0403 18:46:15.271689 23502 net.cpp:386] inception_3b/relu_1x1 -> inception_3b/1x1 (in-place)
I0403 18:46:15.271859 23502 net.cpp:141] Setting up inception_3b/relu_1x1
I0403 18:46:15.271885 23502 net.cpp:148] Top shape: 24 128 28 28 (2408448)
I0403 18:46:15.271899 23502 net.cpp:156] Memory required for data: 676774944
I0403 18:46:15.271914 23502 layer_factory.hpp:77] Creating layer inception_3b/3x3_reduce
I0403 18:46:15.271934 23502 net.cpp:91] Creating Layer inception_3b/3x3_reduce
I0403 18:46:15.271950 23502 net.cpp:425] inception_3b/3x3_reduce <- inception_3a/output_inception_3a/output_0_split_1
I0403 18:46:15.271970 23502 net.cpp:399] inception_3b/3x3_reduce -> inception_3b/3x3_reduce
I0403 18:46:15.273068 23502 net.cpp:141] Setting up inception_3b/3x3_reduce
I0403 18:46:15.273095 23502 net.cpp:148] Top shape: 24 128 28 28 (2408448)
I0403 18:46:15.273109 23502 net.cpp:156] Memory required for data: 686408736
I0403 18:46:15.273126 23502 layer_factory.hpp:77] Creating layer inception_3b/relu_3x3_reduce
I0403 18:46:15.273146 23502 net.cpp:91] Creating Layer inception_3b/relu_3x3_reduce
I0403 18:46:15.273162 23502 net.cpp:425] inception_3b/relu_3x3_reduce <- inception_3b/3x3_reduce
I0403 18:46:15.273178 23502 net.cpp:386] inception_3b/relu_3x3_reduce -> inception_3b/3x3_reduce (in-place)
I0403 18:46:15.273350 23502 net.cpp:141] Setting up inception_3b/relu_3x3_reduce
I0403 18:46:15.273375 23502 net.cpp:148] Top shape: 24 128 28 28 (2408448)
I0403 18:46:15.273391 23502 net.cpp:156] Memory required for data: 696042528
I0403 18:46:15.273404 23502 layer_factory.hpp:77] Creating layer inception_3b/3x3
I0403 18:46:15.273427 23502 net.cpp:91] Creating Layer inception_3b/3x3
I0403 18:46:15.273444 23502 net.cpp:425] inception_3b/3x3 <- inception_3b/3x3_reduce
I0403 18:46:15.273464 23502 net.cpp:399] inception_3b/3x3 -> inception_3b/3x3
I0403 18:46:15.276301 23502 net.cpp:141] Setting up inception_3b/3x3
I0403 18:46:15.276331 23502 net.cpp:148] Top shape: 24 192 28 28 (3612672)
I0403 18:46:15.276347 23502 net.cpp:156] Memory required for data: 710493216
I0403 18:46:15.276365 23502 layer_factory.hpp:77] Creating layer inception_3b/relu_3x3
I0403 18:46:15.276381 23502 net.cpp:91] Creating Layer inception_3b/relu_3x3
I0403 18:46:15.276397 23502 net.cpp:425] inception_3b/relu_3x3 <- inception_3b/3x3
I0403 18:46:15.276413 23502 net.cpp:386] inception_3b/relu_3x3 -> inception_3b/3x3 (in-place)
I0403 18:46:15.276690 23502 net.cpp:141] Setting up inception_3b/relu_3x3
I0403 18:46:15.276718 23502 net.cpp:148] Top shape: 24 192 28 28 (3612672)
I0403 18:46:15.276733 23502 net.cpp:156] Memory required for data: 724943904
I0403 18:46:15.276747 23502 layer_factory.hpp:77] Creating layer inception_3b/5x5_reduce
I0403 18:46:15.276768 23502 net.cpp:91] Creating Layer inception_3b/5x5_reduce
I0403 18:46:15.276785 23502 net.cpp:425] inception_3b/5x5_reduce <- inception_3a/output_inception_3a/output_0_split_2
I0403 18:46:15.276804 23502 net.cpp:399] inception_3b/5x5_reduce -> inception_3b/5x5_reduce
I0403 18:46:15.277781 23502 net.cpp:141] Setting up inception_3b/5x5_reduce
I0403 18:46:15.277809 23502 net.cpp:148] Top shape: 24 32 28 28 (602112)
I0403 18:46:15.277827 23502 net.cpp:156] Memory required for data: 727352352
I0403 18:46:15.277844 23502 layer_factory.hpp:77] Creating layer inception_3b/relu_5x5_reduce
I0403 18:46:15.277861 23502 net.cpp:91] Creating Layer inception_3b/relu_5x5_reduce
I0403 18:46:15.277876 23502 net.cpp:425] inception_3b/relu_5x5_reduce <- inception_3b/5x5_reduce
I0403 18:46:15.277892 23502 net.cpp:386] inception_3b/relu_5x5_reduce -> inception_3b/5x5_reduce (in-place)
I0403 18:46:15.278084 23502 net.cpp:141] Setting up inception_3b/relu_5x5_reduce
I0403 18:46:15.278108 23502 net.cpp:148] Top shape: 24 32 28 28 (602112)
I0403 18:46:15.278122 23502 net.cpp:156] Memory required for data: 729760800
I0403 18:46:15.278136 23502 layer_factory.hpp:77] Creating layer inception_3b/5x5
I0403 18:46:15.278156 23502 net.cpp:91] Creating Layer inception_3b/5x5
I0403 18:46:15.278173 23502 net.cpp:425] inception_3b/5x5 <- inception_3b/5x5_reduce
I0403 18:46:15.278193 23502 net.cpp:399] inception_3b/5x5 -> inception_3b/5x5
I0403 18:46:15.280179 23502 net.cpp:141] Setting up inception_3b/5x5
I0403 18:46:15.280208 23502 net.cpp:148] Top shape: 24 96 28 28 (1806336)
I0403 18:46:15.280223 23502 net.cpp:156] Memory required for data: 736986144
I0403 18:46:15.280241 23502 layer_factory.hpp:77] Creating layer inception_3b/relu_5x5
I0403 18:46:15.280261 23502 net.cpp:91] Creating Layer inception_3b/relu_5x5
I0403 18:46:15.280278 23502 net.cpp:425] inception_3b/relu_5x5 <- inception_3b/5x5
I0403 18:46:15.280294 23502 net.cpp:386] inception_3b/relu_5x5 -> inception_3b/5x5 (in-place)
I0403 18:46:15.280489 23502 net.cpp:141] Setting up inception_3b/relu_5x5
I0403 18:46:15.280519 23502 net.cpp:148] Top shape: 24 96 28 28 (1806336)
I0403 18:46:15.280534 23502 net.cpp:156] Memory required for data: 744211488
I0403 18:46:15.280547 23502 layer_factory.hpp:77] Creating layer inception_3b/pool
I0403 18:46:15.280565 23502 net.cpp:91] Creating Layer inception_3b/pool
I0403 18:46:15.280580 23502 net.cpp:425] inception_3b/pool <- inception_3a/output_inception_3a/output_0_split_3
I0403 18:46:15.280597 23502 net.cpp:399] inception_3b/pool -> inception_3b/pool
I0403 18:46:15.280654 23502 net.cpp:141] Setting up inception_3b/pool
I0403 18:46:15.280676 23502 net.cpp:148] Top shape: 24 256 28 28 (4816896)
I0403 18:46:15.280690 23502 net.cpp:156] Memory required for data: 763479072
I0403 18:46:15.280704 23502 layer_factory.hpp:77] Creating layer inception_3b/pool_proj
I0403 18:46:15.280725 23502 net.cpp:91] Creating Layer inception_3b/pool_proj
I0403 18:46:15.280742 23502 net.cpp:425] inception_3b/pool_proj <- inception_3b/pool
I0403 18:46:15.280763 23502 net.cpp:399] inception_3b/pool_proj -> inception_3b/pool_proj
I0403 18:46:15.281827 23502 net.cpp:141] Setting up inception_3b/pool_proj
I0403 18:46:15.281854 23502 net.cpp:148] Top shape: 24 64 28 28 (1204224)
I0403 18:46:15.281870 23502 net.cpp:156] Memory required for data: 768295968
I0403 18:46:15.281888 23502 layer_factory.hpp:77] Creating layer inception_3b/relu_pool_proj
I0403 18:46:15.281908 23502 net.cpp:91] Creating Layer inception_3b/relu_pool_proj
I0403 18:46:15.281924 23502 net.cpp:425] inception_3b/relu_pool_proj <- inception_3b/pool_proj
I0403 18:46:15.281942 23502 net.cpp:386] inception_3b/relu_pool_proj -> inception_3b/pool_proj (in-place)
I0403 18:46:15.282330 23502 net.cpp:141] Setting up inception_3b/relu_pool_proj
I0403 18:46:15.282356 23502 net.cpp:148] Top shape: 24 64 28 28 (1204224)
I0403 18:46:15.282371 23502 net.cpp:156] Memory required for data: 773112864
I0403 18:46:15.282387 23502 layer_factory.hpp:77] Creating layer inception_3b/output
I0403 18:46:15.282403 23502 net.cpp:91] Creating Layer inception_3b/output
I0403 18:46:15.282418 23502 net.cpp:425] inception_3b/output <- inception_3b/1x1
I0403 18:46:15.282434 23502 net.cpp:425] inception_3b/output <- inception_3b/3x3
I0403 18:46:15.282449 23502 net.cpp:425] inception_3b/output <- inception_3b/5x5
I0403 18:46:15.282465 23502 net.cpp:425] inception_3b/output <- inception_3b/pool_proj
I0403 18:46:15.282483 23502 net.cpp:399] inception_3b/output -> inception_3b/output
I0403 18:46:15.282531 23502 net.cpp:141] Setting up inception_3b/output
I0403 18:46:15.282557 23502 net.cpp:148] Top shape: 24 480 28 28 (9031680)
I0403 18:46:15.282572 23502 net.cpp:156] Memory required for data: 809239584
I0403 18:46:15.282585 23502 layer_factory.hpp:77] Creating layer pool3/3x3_s2
I0403 18:46:15.282603 23502 net.cpp:91] Creating Layer pool3/3x3_s2
I0403 18:46:15.282618 23502 net.cpp:425] pool3/3x3_s2 <- inception_3b/output
I0403 18:46:15.282651 23502 net.cpp:399] pool3/3x3_s2 -> pool3/3x3_s2
I0403 18:46:15.282711 23502 net.cpp:141] Setting up pool3/3x3_s2
I0403 18:46:15.282733 23502 net.cpp:148] Top shape: 24 480 14 14 (2257920)
I0403 18:46:15.282747 23502 net.cpp:156] Memory required for data: 818271264
I0403 18:46:15.282762 23502 layer_factory.hpp:77] Creating layer pool3/3x3_s2_pool3/3x3_s2_0_split
I0403 18:46:15.282778 23502 net.cpp:91] Creating Layer pool3/3x3_s2_pool3/3x3_s2_0_split
I0403 18:46:15.282793 23502 net.cpp:425] pool3/3x3_s2_pool3/3x3_s2_0_split <- pool3/3x3_s2
I0403 18:46:15.282811 23502 net.cpp:399] pool3/3x3_s2_pool3/3x3_s2_0_split -> pool3/3x3_s2_pool3/3x3_s2_0_split_0
I0403 18:46:15.282831 23502 net.cpp:399] pool3/3x3_s2_pool3/3x3_s2_0_split -> pool3/3x3_s2_pool3/3x3_s2_0_split_1
I0403 18:46:15.282851 23502 net.cpp:399] pool3/3x3_s2_pool3/3x3_s2_0_split -> pool3/3x3_s2_pool3/3x3_s2_0_split_2
I0403 18:46:15.282872 23502 net.cpp:399] pool3/3x3_s2_pool3/3x3_s2_0_split -> pool3/3x3_s2_pool3/3x3_s2_0_split_3
I0403 18:46:15.282949 23502 net.cpp:141] Setting up pool3/3x3_s2_pool3/3x3_s2_0_split
I0403 18:46:15.282973 23502 net.cpp:148] Top shape: 24 480 14 14 (2257920)
I0403 18:46:15.282989 23502 net.cpp:148] Top shape: 24 480 14 14 (2257920)
I0403 18:46:15.283002 23502 net.cpp:148] Top shape: 24 480 14 14 (2257920)
I0403 18:46:15.283017 23502 net.cpp:148] Top shape: 24 480 14 14 (2257920)
I0403 18:46:15.283030 23502 net.cpp:156] Memory required for data: 854397984
I0403 18:46:15.283044 23502 layer_factory.hpp:77] Creating layer inception_4a/1x1
I0403 18:46:15.283066 23502 net.cpp:91] Creating Layer inception_4a/1x1
I0403 18:46:15.283082 23502 net.cpp:425] inception_4a/1x1 <- pool3/3x3_s2_pool3/3x3_s2_0_split_0
I0403 18:46:15.283103 23502 net.cpp:399] inception_4a/1x1 -> inception_4a/1x1
I0403 18:46:15.284687 23502 net.cpp:141] Setting up inception_4a/1x1
I0403 18:46:15.284713 23502 net.cpp:148] Top shape: 24 192 14 14 (903168)
I0403 18:46:15.284729 23502 net.cpp:156] Memory required for data: 858010656
I0403 18:46:15.284747 23502 layer_factory.hpp:77] Creating layer inception_4a/relu_1x1
I0403 18:46:15.284766 23502 net.cpp:91] Creating Layer inception_4a/relu_1x1
I0403 18:46:15.284783 23502 net.cpp:425] inception_4a/relu_1x1 <- inception_4a/1x1
I0403 18:46:15.284801 23502 net.cpp:386] inception_4a/relu_1x1 -> inception_4a/1x1 (in-place)
I0403 18:46:15.284979 23502 net.cpp:141] Setting up inception_4a/relu_1x1
I0403 18:46:15.285003 23502 net.cpp:148] Top shape: 24 192 14 14 (903168)
I0403 18:46:15.285017 23502 net.cpp:156] Memory required for data: 861623328
I0403 18:46:15.285032 23502 layer_factory.hpp:77] Creating layer inception_4a/3x3_reduce
I0403 18:46:15.285056 23502 net.cpp:91] Creating Layer inception_4a/3x3_reduce
I0403 18:46:15.285073 23502 net.cpp:425] inception_4a/3x3_reduce <- pool3/3x3_s2_pool3/3x3_s2_0_split_1
I0403 18:46:15.285092 23502 net.cpp:399] inception_4a/3x3_reduce -> inception_4a/3x3_reduce
I0403 18:46:15.286356 23502 net.cpp:141] Setting up inception_4a/3x3_reduce
I0403 18:46:15.286384 23502 net.cpp:148] Top shape: 24 96 14 14 (451584)
I0403 18:46:15.286399 23502 net.cpp:156] Memory required for data: 863429664
I0403 18:46:15.286423 23502 layer_factory.hpp:77] Creating layer inception_4a/relu_3x3_reduce
I0403 18:46:15.286442 23502 net.cpp:91] Creating Layer inception_4a/relu_3x3_reduce
I0403 18:46:15.286458 23502 net.cpp:425] inception_4a/relu_3x3_reduce <- inception_4a/3x3_reduce
I0403 18:46:15.286478 23502 net.cpp:386] inception_4a/relu_3x3_reduce -> inception_4a/3x3_reduce (in-place)
I0403 18:46:15.286659 23502 net.cpp:141] Setting up inception_4a/relu_3x3_reduce
I0403 18:46:15.286684 23502 net.cpp:148] Top shape: 24 96 14 14 (451584)
I0403 18:46:15.286697 23502 net.cpp:156] Memory required for data: 865236000
I0403 18:46:15.286712 23502 layer_factory.hpp:77] Creating layer inception_4a/3x3
I0403 18:46:15.286733 23502 net.cpp:91] Creating Layer inception_4a/3x3
I0403 18:46:15.286751 23502 net.cpp:425] inception_4a/3x3 <- inception_4a/3x3_reduce
I0403 18:46:15.286772 23502 net.cpp:399] inception_4a/3x3 -> inception_4a/3x3
I0403 18:46:15.289441 23502 net.cpp:141] Setting up inception_4a/3x3
I0403 18:46:15.289470 23502 net.cpp:148] Top shape: 24 208 14 14 (978432)
I0403 18:46:15.289485 23502 net.cpp:156] Memory required for data: 869149728
I0403 18:46:15.289504 23502 layer_factory.hpp:77] Creating layer inception_4a/relu_3x3
I0403 18:46:15.289530 23502 net.cpp:91] Creating Layer inception_4a/relu_3x3
I0403 18:46:15.289546 23502 net.cpp:425] inception_4a/relu_3x3 <- inception_4a/3x3
I0403 18:46:15.289563 23502 net.cpp:386] inception_4a/relu_3x3 -> inception_4a/3x3 (in-place)
I0403 18:46:15.289851 23502 net.cpp:141] Setting up inception_4a/relu_3x3
I0403 18:46:15.289877 23502 net.cpp:148] Top shape: 24 208 14 14 (978432)
I0403 18:46:15.289891 23502 net.cpp:156] Memory required for data: 873063456
I0403 18:46:15.289906 23502 layer_factory.hpp:77] Creating layer inception_4a/5x5_reduce
I0403 18:46:15.289928 23502 net.cpp:91] Creating Layer inception_4a/5x5_reduce
I0403 18:46:15.289947 23502 net.cpp:425] inception_4a/5x5_reduce <- pool3/3x3_s2_pool3/3x3_s2_0_split_2
I0403 18:46:15.289966 23502 net.cpp:399] inception_4a/5x5_reduce -> inception_4a/5x5_reduce
I0403 18:46:15.290998 23502 net.cpp:141] Setting up inception_4a/5x5_reduce
I0403 18:46:15.291028 23502 net.cpp:148] Top shape: 24 16 14 14 (75264)
I0403 18:46:15.291043 23502 net.cpp:156] Memory required for data: 873364512
I0403 18:46:15.291060 23502 layer_factory.hpp:77] Creating layer inception_4a/relu_5x5_reduce
I0403 18:46:15.291079 23502 net.cpp:91] Creating Layer inception_4a/relu_5x5_reduce
I0403 18:46:15.291095 23502 net.cpp:425] inception_4a/relu_5x5_reduce <- inception_4a/5x5_reduce
I0403 18:46:15.291111 23502 net.cpp:386] inception_4a/relu_5x5_reduce -> inception_4a/5x5_reduce (in-place)
I0403 18:46:15.291292 23502 net.cpp:141] Setting up inception_4a/relu_5x5_reduce
I0403 18:46:15.291317 23502 net.cpp:148] Top shape: 24 16 14 14 (75264)
I0403 18:46:15.291332 23502 net.cpp:156] Memory required for data: 873665568
I0403 18:46:15.291347 23502 layer_factory.hpp:77] Creating layer inception_4a/5x5
I0403 18:46:15.291368 23502 net.cpp:91] Creating Layer inception_4a/5x5
I0403 18:46:15.291384 23502 net.cpp:425] inception_4a/5x5 <- inception_4a/5x5_reduce
I0403 18:46:15.291405 23502 net.cpp:399] inception_4a/5x5 -> inception_4a/5x5
I0403 18:46:15.292502 23502 net.cpp:141] Setting up inception_4a/5x5
I0403 18:46:15.292533 23502 net.cpp:148] Top shape: 24 48 14 14 (225792)
I0403 18:46:15.292549 23502 net.cpp:156] Memory required for data: 874568736
I0403 18:46:15.292567 23502 layer_factory.hpp:77] Creating layer inception_4a/relu_5x5
I0403 18:46:15.292584 23502 net.cpp:91] Creating Layer inception_4a/relu_5x5
I0403 18:46:15.292600 23502 net.cpp:425] inception_4a/relu_5x5 <- inception_4a/5x5
I0403 18:46:15.292620 23502 net.cpp:386] inception_4a/relu_5x5 -> inception_4a/5x5 (in-place)
I0403 18:46:15.292805 23502 net.cpp:141] Setting up inception_4a/relu_5x5
I0403 18:46:15.292830 23502 net.cpp:148] Top shape: 24 48 14 14 (225792)
I0403 18:46:15.292845 23502 net.cpp:156] Memory required for data: 875471904
I0403 18:46:15.292860 23502 layer_factory.hpp:77] Creating layer inception_4a/pool
I0403 18:46:15.292878 23502 net.cpp:91] Creating Layer inception_4a/pool
I0403 18:46:15.292896 23502 net.cpp:425] inception_4a/pool <- pool3/3x3_s2_pool3/3x3_s2_0_split_3
I0403 18:46:15.292914 23502 net.cpp:399] inception_4a/pool -> inception_4a/pool
I0403 18:46:15.292975 23502 net.cpp:141] Setting up inception_4a/pool
I0403 18:46:15.292999 23502 net.cpp:148] Top shape: 24 480 14 14 (2257920)
I0403 18:46:15.293014 23502 net.cpp:156] Memory required for data: 884503584
I0403 18:46:15.293026 23502 layer_factory.hpp:77] Creating layer inception_4a/pool_proj
I0403 18:46:15.293048 23502 net.cpp:91] Creating Layer inception_4a/pool_proj
I0403 18:46:15.293066 23502 net.cpp:425] inception_4a/pool_proj <- inception_4a/pool
I0403 18:46:15.293087 23502 net.cpp:399] inception_4a/pool_proj -> inception_4a/pool_proj
I0403 18:46:15.294251 23502 net.cpp:141] Setting up inception_4a/pool_proj
I0403 18:46:15.294280 23502 net.cpp:148] Top shape: 24 64 14 14 (301056)
I0403 18:46:15.294309 23502 net.cpp:156] Memory required for data: 885707808
I0403 18:46:15.294328 23502 layer_factory.hpp:77] Creating layer inception_4a/relu_pool_proj
I0403 18:46:15.294350 23502 net.cpp:91] Creating Layer inception_4a/relu_pool_proj
I0403 18:46:15.294368 23502 net.cpp:425] inception_4a/relu_pool_proj <- inception_4a/pool_proj
I0403 18:46:15.294387 23502 net.cpp:386] inception_4a/relu_pool_proj -> inception_4a/pool_proj (in-place)
I0403 18:46:15.294674 23502 net.cpp:141] Setting up inception_4a/relu_pool_proj
I0403 18:46:15.294699 23502 net.cpp:148] Top shape: 24 64 14 14 (301056)
I0403 18:46:15.294714 23502 net.cpp:156] Memory required for data: 886912032
I0403 18:46:15.294728 23502 layer_factory.hpp:77] Creating layer inception_4a/output
I0403 18:46:15.294744 23502 net.cpp:91] Creating Layer inception_4a/output
I0403 18:46:15.294760 23502 net.cpp:425] inception_4a/output <- inception_4a/1x1
I0403 18:46:15.294776 23502 net.cpp:425] inception_4a/output <- inception_4a/3x3
I0403 18:46:15.294792 23502 net.cpp:425] inception_4a/output <- inception_4a/5x5
I0403 18:46:15.294807 23502 net.cpp:425] inception_4a/output <- inception_4a/pool_proj
I0403 18:46:15.294826 23502 net.cpp:399] inception_4a/output -> inception_4a/output
I0403 18:46:15.294870 23502 net.cpp:141] Setting up inception_4a/output
I0403 18:46:15.294895 23502 net.cpp:148] Top shape: 24 512 14 14 (2408448)
I0403 18:46:15.294910 23502 net.cpp:156] Memory required for data: 896545824
I0403 18:46:15.294924 23502 layer_factory.hpp:77] Creating layer inception_4a/output_inception_4a/output_0_split
I0403 18:46:15.294941 23502 net.cpp:91] Creating Layer inception_4a/output_inception_4a/output_0_split
I0403 18:46:15.294956 23502 net.cpp:425] inception_4a/output_inception_4a/output_0_split <- inception_4a/output
I0403 18:46:15.294975 23502 net.cpp:399] inception_4a/output_inception_4a/output_0_split -> inception_4a/output_inception_4a/output_0_split_0
I0403 18:46:15.294996 23502 net.cpp:399] inception_4a/output_inception_4a/output_0_split -> inception_4a/output_inception_4a/output_0_split_1
I0403 18:46:15.295017 23502 net.cpp:399] inception_4a/output_inception_4a/output_0_split -> inception_4a/output_inception_4a/output_0_split_2
I0403 18:46:15.295037 23502 net.cpp:399] inception_4a/output_inception_4a/output_0_split -> inception_4a/output_inception_4a/output_0_split_3
I0403 18:46:15.295058 23502 net.cpp:399] inception_4a/output_inception_4a/output_0_split -> inception_4a/output_inception_4a/output_0_split_4
I0403 18:46:15.295148 23502 net.cpp:141] Setting up inception_4a/output_inception_4a/output_0_split
I0403 18:46:15.295174 23502 net.cpp:148] Top shape: 24 512 14 14 (2408448)
I0403 18:46:15.295191 23502 net.cpp:148] Top shape: 24 512 14 14 (2408448)
I0403 18:46:15.295207 23502 net.cpp:148] Top shape: 24 512 14 14 (2408448)
I0403 18:46:15.295220 23502 net.cpp:148] Top shape: 24 512 14 14 (2408448)
I0403 18:46:15.295235 23502 net.cpp:148] Top shape: 24 512 14 14 (2408448)
I0403 18:46:15.295248 23502 net.cpp:156] Memory required for data: 944714784
I0403 18:46:15.295263 23502 layer_factory.hpp:77] Creating layer loss1/ave_pool
I0403 18:46:15.295279 23502 net.cpp:91] Creating Layer loss1/ave_pool
I0403 18:46:15.295295 23502 net.cpp:425] loss1/ave_pool <- inception_4a/output_inception_4a/output_0_split_0
I0403 18:46:15.295311 23502 net.cpp:399] loss1/ave_pool -> loss1/ave_pool
I0403 18:46:15.295531 23502 net.cpp:141] Setting up loss1/ave_pool
I0403 18:46:15.295557 23502 net.cpp:148] Top shape: 24 512 4 4 (196608)
I0403 18:46:15.295570 23502 net.cpp:156] Memory required for data: 945501216
I0403 18:46:15.295585 23502 layer_factory.hpp:77] Creating layer loss1/conv
I0403 18:46:15.295606 23502 net.cpp:91] Creating Layer loss1/conv
I0403 18:46:15.295624 23502 net.cpp:425] loss1/conv <- loss1/ave_pool
I0403 18:46:15.295644 23502 net.cpp:399] loss1/conv -> loss1/conv
I0403 18:46:15.297054 23502 net.cpp:141] Setting up loss1/conv
I0403 18:46:15.297083 23502 net.cpp:148] Top shape: 24 128 4 4 (49152)
I0403 18:46:15.297113 23502 net.cpp:156] Memory required for data: 945697824
I0403 18:46:15.297132 23502 layer_factory.hpp:77] Creating layer loss1/relu_conv
I0403 18:46:15.297152 23502 net.cpp:91] Creating Layer loss1/relu_conv
I0403 18:46:15.297168 23502 net.cpp:425] loss1/relu_conv <- loss1/conv
I0403 18:46:15.297184 23502 net.cpp:386] loss1/relu_conv -> loss1/conv (in-place)
I0403 18:46:15.297487 23502 net.cpp:141] Setting up loss1/relu_conv
I0403 18:46:15.297519 23502 net.cpp:148] Top shape: 24 128 4 4 (49152)
I0403 18:46:15.297536 23502 net.cpp:156] Memory required for data: 945894432
I0403 18:46:15.297551 23502 layer_factory.hpp:77] Creating layer loss1/fc
I0403 18:46:15.297574 23502 net.cpp:91] Creating Layer loss1/fc
I0403 18:46:15.297605 23502 net.cpp:425] loss1/fc <- loss1/conv
I0403 18:46:15.297626 23502 net.cpp:399] loss1/fc -> loss1/fc
I0403 18:46:15.314898 23502 net.cpp:141] Setting up loss1/fc
I0403 18:46:15.314927 23502 net.cpp:148] Top shape: 24 1024 (24576)
I0403 18:46:15.314942 23502 net.cpp:156] Memory required for data: 945992736
I0403 18:46:15.314960 23502 layer_factory.hpp:77] Creating layer loss1/relu_fc
I0403 18:46:15.314980 23502 net.cpp:91] Creating Layer loss1/relu_fc
I0403 18:46:15.314996 23502 net.cpp:425] loss1/relu_fc <- loss1/fc
I0403 18:46:15.315011 23502 net.cpp:386] loss1/relu_fc -> loss1/fc (in-place)
I0403 18:46:15.315197 23502 net.cpp:141] Setting up loss1/relu_fc
I0403 18:46:15.315222 23502 net.cpp:148] Top shape: 24 1024 (24576)
I0403 18:46:15.315237 23502 net.cpp:156] Memory required for data: 946091040
I0403 18:46:15.315250 23502 layer_factory.hpp:77] Creating layer loss1/drop_fc
I0403 18:46:15.315275 23502 net.cpp:91] Creating Layer loss1/drop_fc
I0403 18:46:15.315292 23502 net.cpp:425] loss1/drop_fc <- loss1/fc
I0403 18:46:15.315309 23502 net.cpp:386] loss1/drop_fc -> loss1/fc (in-place)
I0403 18:46:15.315357 23502 net.cpp:141] Setting up loss1/drop_fc
I0403 18:46:15.315382 23502 net.cpp:148] Top shape: 24 1024 (24576)
I0403 18:46:15.315397 23502 net.cpp:156] Memory required for data: 946189344
I0403 18:46:15.315412 23502 layer_factory.hpp:77] Creating layer loss1/classifier_plantvillage
I0403 18:46:15.315428 23502 net.cpp:91] Creating Layer loss1/classifier_plantvillage
I0403 18:46:15.315443 23502 net.cpp:425] loss1/classifier_plantvillage <- loss1/fc
I0403 18:46:15.315464 23502 net.cpp:399] loss1/classifier_plantvillage -> loss1/classifier_plantvillage
I0403 18:46:15.316366 23502 net.cpp:141] Setting up loss1/classifier_plantvillage
I0403 18:46:15.316397 23502 net.cpp:148] Top shape: 24 38 (912)
I0403 18:46:15.316414 23502 net.cpp:156] Memory required for data: 946192992
I0403 18:46:15.316431 23502 layer_factory.hpp:77] Creating layer loss1/classifier_plantvillage_loss1/classifier_plantvillage_0_split
I0403 18:46:15.316449 23502 net.cpp:91] Creating Layer loss1/classifier_plantvillage_loss1/classifier_plantvillage_0_split
I0403 18:46:15.316464 23502 net.cpp:425] loss1/classifier_plantvillage_loss1/classifier_plantvillage_0_split <- loss1/classifier_plantvillage
I0403 18:46:15.316483 23502 net.cpp:399] loss1/classifier_plantvillage_loss1/classifier_plantvillage_0_split -> loss1/classifier_plantvillage_loss1/classifier_plantvillage_0_split_0
I0403 18:46:15.316501 23502 net.cpp:399] loss1/classifier_plantvillage_loss1/classifier_plantvillage_0_split -> loss1/classifier_plantvillage_loss1/classifier_plantvillage_0_split_1
I0403 18:46:15.316527 23502 net.cpp:399] loss1/classifier_plantvillage_loss1/classifier_plantvillage_0_split -> loss1/classifier_plantvillage_loss1/classifier_plantvillage_0_split_2
I0403 18:46:15.316596 23502 net.cpp:141] Setting up loss1/classifier_plantvillage_loss1/classifier_plantvillage_0_split
I0403 18:46:15.316618 23502 net.cpp:148] Top shape: 24 38 (912)
I0403 18:46:15.316633 23502 net.cpp:148] Top shape: 24 38 (912)
I0403 18:46:15.316648 23502 net.cpp:148] Top shape: 24 38 (912)
I0403 18:46:15.316674 23502 net.cpp:156] Memory required for data: 946203936
I0403 18:46:15.316689 23502 layer_factory.hpp:77] Creating layer inception_4b/1x1
I0403 18:46:15.316706 23502 net.cpp:91] Creating Layer inception_4b/1x1
I0403 18:46:15.316740 23502 net.cpp:425] inception_4b/1x1 <- inception_4a/output_inception_4a/output_0_split_1
I0403 18:46:15.316761 23502 net.cpp:399] inception_4b/1x1 -> inception_4b/1x1
I0403 18:46:15.318367 23502 net.cpp:141] Setting up inception_4b/1x1
I0403 18:46:15.318398 23502 net.cpp:148] Top shape: 24 160 14 14 (752640)
I0403 18:46:15.318414 23502 net.cpp:156] Memory required for data: 949214496
I0403 18:46:15.318433 23502 layer_factory.hpp:77] Creating layer inception_4b/relu_1x1
I0403 18:46:15.318450 23502 net.cpp:91] Creating Layer inception_4b/relu_1x1
I0403 18:46:15.318465 23502 net.cpp:425] inception_4b/relu_1x1 <- inception_4b/1x1
I0403 18:46:15.318481 23502 net.cpp:386] inception_4b/relu_1x1 -> inception_4b/1x1 (in-place)
I0403 18:46:15.318683 23502 net.cpp:141] Setting up inception_4b/relu_1x1
I0403 18:46:15.318709 23502 net.cpp:148] Top shape: 24 160 14 14 (752640)
I0403 18:46:15.318724 23502 net.cpp:156] Memory required for data: 952225056
I0403 18:46:15.318738 23502 layer_factory.hpp:77] Creating layer inception_4b/3x3_reduce
I0403 18:46:15.318759 23502 net.cpp:91] Creating Layer inception_4b/3x3_reduce
I0403 18:46:15.318775 23502 net.cpp:425] inception_4b/3x3_reduce <- inception_4a/output_inception_4a/output_0_split_2
I0403 18:46:15.318797 23502 net.cpp:399] inception_4b/3x3_reduce -> inception_4b/3x3_reduce
I0403 18:46:15.320118 23502 net.cpp:141] Setting up inception_4b/3x3_reduce
I0403 18:46:15.320148 23502 net.cpp:148] Top shape: 24 112 14 14 (526848)
I0403 18:46:15.320164 23502 net.cpp:156] Memory required for data: 954332448
I0403 18:46:15.320181 23502 layer_factory.hpp:77] Creating layer inception_4b/relu_3x3_reduce
I0403 18:46:15.320199 23502 net.cpp:91] Creating Layer inception_4b/relu_3x3_reduce
I0403 18:46:15.320214 23502 net.cpp:425] inception_4b/relu_3x3_reduce <- inception_4b/3x3_reduce
I0403 18:46:15.320231 23502 net.cpp:386] inception_4b/relu_3x3_reduce -> inception_4b/3x3_reduce (in-place)
I0403 18:46:15.320511 23502 net.cpp:141] Setting up inception_4b/relu_3x3_reduce
I0403 18:46:15.320538 23502 net.cpp:148] Top shape: 24 112 14 14 (526848)
I0403 18:46:15.320554 23502 net.cpp:156] Memory required for data: 956439840
I0403 18:46:15.320569 23502 layer_factory.hpp:77] Creating layer inception_4b/3x3
I0403 18:46:15.320590 23502 net.cpp:91] Creating Layer inception_4b/3x3
I0403 18:46:15.320607 23502 net.cpp:425] inception_4b/3x3 <- inception_4b/3x3_reduce
I0403 18:46:15.320626 23502 net.cpp:399] inception_4b/3x3 -> inception_4b/3x3
I0403 18:46:15.323535 23502 net.cpp:141] Setting up inception_4b/3x3
I0403 18:46:15.323564 23502 net.cpp:148] Top shape: 24 224 14 14 (1053696)
I0403 18:46:15.323578 23502 net.cpp:156] Memory required for data: 960654624
I0403 18:46:15.323596 23502 layer_factory.hpp:77] Creating layer inception_4b/relu_3x3
I0403 18:46:15.323616 23502 net.cpp:91] Creating Layer inception_4b/relu_3x3
I0403 18:46:15.323634 23502 net.cpp:425] inception_4b/relu_3x3 <- inception_4b/3x3
I0403 18:46:15.323652 23502 net.cpp:386] inception_4b/relu_3x3 -> inception_4b/3x3 (in-place)
I0403 18:46:15.323830 23502 net.cpp:141] Setting up inception_4b/relu_3x3
I0403 18:46:15.323854 23502 net.cpp:148] Top shape: 24 224 14 14 (1053696)
I0403 18:46:15.323868 23502 net.cpp:156] Memory required for data: 964869408
I0403 18:46:15.323882 23502 layer_factory.hpp:77] Creating layer inception_4b/5x5_reduce
I0403 18:46:15.323905 23502 net.cpp:91] Creating Layer inception_4b/5x5_reduce
I0403 18:46:15.323922 23502 net.cpp:425] inception_4b/5x5_reduce <- inception_4a/output_inception_4a/output_0_split_3
I0403 18:46:15.323940 23502 net.cpp:399] inception_4b/5x5_reduce -> inception_4b/5x5_reduce
I0403 18:46:15.324995 23502 net.cpp:141] Setting up inception_4b/5x5_reduce
I0403 18:46:15.325023 23502 net.cpp:148] Top shape: 24 24 14 14 (112896)
I0403 18:46:15.325040 23502 net.cpp:156] Memory required for data: 965320992
I0403 18:46:15.325058 23502 layer_factory.hpp:77] Creating layer inception_4b/relu_5x5_reduce
I0403 18:46:15.325075 23502 net.cpp:91] Creating Layer inception_4b/relu_5x5_reduce
I0403 18:46:15.325105 23502 net.cpp:425] inception_4b/relu_5x5_reduce <- inception_4b/5x5_reduce
I0403 18:46:15.325125 23502 net.cpp:386] inception_4b/relu_5x5_reduce -> inception_4b/5x5_reduce (in-place)
I0403 18:46:15.325304 23502 net.cpp:141] Setting up inception_4b/relu_5x5_reduce
I0403 18:46:15.325327 23502 net.cpp:148] Top shape: 24 24 14 14 (112896)
I0403 18:46:15.325341 23502 net.cpp:156] Memory required for data: 965772576
I0403 18:46:15.325356 23502 layer_factory.hpp:77] Creating layer inception_4b/5x5
I0403 18:46:15.325376 23502 net.cpp:91] Creating Layer inception_4b/5x5
I0403 18:46:15.325392 23502 net.cpp:425] inception_4b/5x5 <- inception_4b/5x5_reduce
I0403 18:46:15.325412 23502 net.cpp:399] inception_4b/5x5 -> inception_4b/5x5
I0403 18:46:15.326671 23502 net.cpp:141] Setting up inception_4b/5x5
I0403 18:46:15.326701 23502 net.cpp:148] Top shape: 24 64 14 14 (301056)
I0403 18:46:15.326717 23502 net.cpp:156] Memory required for data: 966976800
I0403 18:46:15.326735 23502 layer_factory.hpp:77] Creating layer inception_4b/relu_5x5
I0403 18:46:15.326752 23502 net.cpp:91] Creating Layer inception_4b/relu_5x5
I0403 18:46:15.326767 23502 net.cpp:425] inception_4b/relu_5x5 <- inception_4b/5x5
I0403 18:46:15.326784 23502 net.cpp:386] inception_4b/relu_5x5 -> inception_4b/5x5 (in-place)
I0403 18:46:15.327075 23502 net.cpp:141] Setting up inception_4b/relu_5x5
I0403 18:46:15.327102 23502 net.cpp:148] Top shape: 24 64 14 14 (301056)
I0403 18:46:15.327118 23502 net.cpp:156] Memory required for data: 968181024
I0403 18:46:15.327132 23502 layer_factory.hpp:77] Creating layer inception_4b/pool
I0403 18:46:15.327150 23502 net.cpp:91] Creating Layer inception_4b/pool
I0403 18:46:15.327167 23502 net.cpp:425] inception_4b/pool <- inception_4a/output_inception_4a/output_0_split_4
I0403 18:46:15.327184 23502 net.cpp:399] inception_4b/pool -> inception_4b/pool
I0403 18:46:15.327247 23502 net.cpp:141] Setting up inception_4b/pool
I0403 18:46:15.327271 23502 net.cpp:148] Top shape: 24 512 14 14 (2408448)
I0403 18:46:15.327286 23502 net.cpp:156] Memory required for data: 977814816
I0403 18:46:15.327298 23502 layer_factory.hpp:77] Creating layer inception_4b/pool_proj
I0403 18:46:15.327319 23502 net.cpp:91] Creating Layer inception_4b/pool_proj
I0403 18:46:15.327337 23502 net.cpp:425] inception_4b/pool_proj <- inception_4b/pool
I0403 18:46:15.327358 23502 net.cpp:399] inception_4b/pool_proj -> inception_4b/pool_proj
I0403 18:46:15.328567 23502 net.cpp:141] Setting up inception_4b/pool_proj
I0403 18:46:15.328598 23502 net.cpp:148] Top shape: 24 64 14 14 (301056)
I0403 18:46:15.328613 23502 net.cpp:156] Memory required for data: 979019040
I0403 18:46:15.328631 23502 layer_factory.hpp:77] Creating layer inception_4b/relu_pool_proj
I0403 18:46:15.328649 23502 net.cpp:91] Creating Layer inception_4b/relu_pool_proj
I0403 18:46:15.328665 23502 net.cpp:425] inception_4b/relu_pool_proj <- inception_4b/pool_proj
I0403 18:46:15.328680 23502 net.cpp:386] inception_4b/relu_pool_proj -> inception_4b/pool_proj (in-place)
I0403 18:46:15.328865 23502 net.cpp:141] Setting up inception_4b/relu_pool_proj
I0403 18:46:15.328889 23502 net.cpp:148] Top shape: 24 64 14 14 (301056)
I0403 18:46:15.328903 23502 net.cpp:156] Memory required for data: 980223264
I0403 18:46:15.328917 23502 layer_factory.hpp:77] Creating layer inception_4b/output
I0403 18:46:15.328934 23502 net.cpp:91] Creating Layer inception_4b/output
I0403 18:46:15.328949 23502 net.cpp:425] inception_4b/output <- inception_4b/1x1
I0403 18:46:15.328964 23502 net.cpp:425] inception_4b/output <- inception_4b/3x3
I0403 18:46:15.328980 23502 net.cpp:425] inception_4b/output <- inception_4b/5x5
I0403 18:46:15.328995 23502 net.cpp:425] inception_4b/output <- inception_4b/pool_proj
I0403 18:46:15.329015 23502 net.cpp:399] inception_4b/output -> inception_4b/output
I0403 18:46:15.329061 23502 net.cpp:141] Setting up inception_4b/output
I0403 18:46:15.329085 23502 net.cpp:148] Top shape: 24 512 14 14 (2408448)
I0403 18:46:15.329100 23502 net.cpp:156] Memory required for data: 989857056
I0403 18:46:15.329128 23502 layer_factory.hpp:77] Creating layer inception_4b/output_inception_4b/output_0_split
I0403 18:46:15.329146 23502 net.cpp:91] Creating Layer inception_4b/output_inception_4b/output_0_split
I0403 18:46:15.329161 23502 net.cpp:425] inception_4b/output_inception_4b/output_0_split <- inception_4b/output
I0403 18:46:15.329180 23502 net.cpp:399] inception_4b/output_inception_4b/output_0_split -> inception_4b/output_inception_4b/output_0_split_0
I0403 18:46:15.329201 23502 net.cpp:399] inception_4b/output_inception_4b/output_0_split -> inception_4b/output_inception_4b/output_0_split_1
I0403 18:46:15.329222 23502 net.cpp:399] inception_4b/output_inception_4b/output_0_split -> inception_4b/output_inception_4b/output_0_split_2
I0403 18:46:15.329241 23502 net.cpp:399] inception_4b/output_inception_4b/output_0_split -> inception_4b/output_inception_4b/output_0_split_3
I0403 18:46:15.329324 23502 net.cpp:141] Setting up inception_4b/output_inception_4b/output_0_split
I0403 18:46:15.329346 23502 net.cpp:148] Top shape: 24 512 14 14 (2408448)
I0403 18:46:15.329362 23502 net.cpp:148] Top shape: 24 512 14 14 (2408448)
I0403 18:46:15.329377 23502 net.cpp:148] Top shape: 24 512 14 14 (2408448)
I0403 18:46:15.329392 23502 net.cpp:148] Top shape: 24 512 14 14 (2408448)
I0403 18:46:15.329406 23502 net.cpp:156] Memory required for data: 1028392224
I0403 18:46:15.329418 23502 layer_factory.hpp:77] Creating layer inception_4c/1x1
I0403 18:46:15.329439 23502 net.cpp:91] Creating Layer inception_4c/1x1
I0403 18:46:15.329457 23502 net.cpp:425] inception_4c/1x1 <- inception_4b/output_inception_4b/output_0_split_0
I0403 18:46:15.329478 23502 net.cpp:399] inception_4c/1x1 -> inception_4c/1x1
I0403 18:46:15.330956 23502 net.cpp:141] Setting up inception_4c/1x1
I0403 18:46:15.330984 23502 net.cpp:148] Top shape: 24 128 14 14 (602112)
I0403 18:46:15.330999 23502 net.cpp:156] Memory required for data: 1030800672
I0403 18:46:15.331017 23502 layer_factory.hpp:77] Creating layer inception_4c/relu_1x1
I0403 18:46:15.331037 23502 net.cpp:91] Creating Layer inception_4c/relu_1x1
I0403 18:46:15.331054 23502 net.cpp:425] inception_4c/relu_1x1 <- inception_4c/1x1
I0403 18:46:15.331071 23502 net.cpp:386] inception_4c/relu_1x1 -> inception_4c/1x1 (in-place)
I0403 18:46:15.331254 23502 net.cpp:141] Setting up inception_4c/relu_1x1
I0403 18:46:15.331279 23502 net.cpp:148] Top shape: 24 128 14 14 (602112)
I0403 18:46:15.331292 23502 net.cpp:156] Memory required for data: 1033209120
I0403 18:46:15.331306 23502 layer_factory.hpp:77] Creating layer inception_4c/3x3_reduce
I0403 18:46:15.331328 23502 net.cpp:91] Creating Layer inception_4c/3x3_reduce
I0403 18:46:15.331347 23502 net.cpp:425] inception_4c/3x3_reduce <- inception_4b/output_inception_4b/output_0_split_1
I0403 18:46:15.331367 23502 net.cpp:399] inception_4c/3x3_reduce -> inception_4c/3x3_reduce
I0403 18:46:15.333314 23502 net.cpp:141] Setting up inception_4c/3x3_reduce
I0403 18:46:15.333343 23502 net.cpp:148] Top shape: 24 128 14 14 (602112)
I0403 18:46:15.333359 23502 net.cpp:156] Memory required for data: 1035617568
I0403 18:46:15.333375 23502 layer_factory.hpp:77] Creating layer inception_4c/relu_3x3_reduce
I0403 18:46:15.333395 23502 net.cpp:91] Creating Layer inception_4c/relu_3x3_reduce
I0403 18:46:15.333412 23502 net.cpp:425] inception_4c/relu_3x3_reduce <- inception_4c/3x3_reduce
I0403 18:46:15.333431 23502 net.cpp:386] inception_4c/relu_3x3_reduce -> inception_4c/3x3_reduce (in-place)
I0403 18:46:15.333725 23502 net.cpp:141] Setting up inception_4c/relu_3x3_reduce
I0403 18:46:15.333751 23502 net.cpp:148] Top shape: 24 128 14 14 (602112)
I0403 18:46:15.333766 23502 net.cpp:156] Memory required for data: 1038026016
I0403 18:46:15.333781 23502 layer_factory.hpp:77] Creating layer inception_4c/3x3
I0403 18:46:15.333804 23502 net.cpp:91] Creating Layer inception_4c/3x3
I0403 18:46:15.333822 23502 net.cpp:425] inception_4c/3x3 <- inception_4c/3x3_reduce
I0403 18:46:15.333842 23502 net.cpp:399] inception_4c/3x3 -> inception_4c/3x3
I0403 18:46:15.337463 23502 net.cpp:141] Setting up inception_4c/3x3
I0403 18:46:15.337509 23502 net.cpp:148] Top shape: 24 256 14 14 (1204224)
I0403 18:46:15.337528 23502 net.cpp:156] Memory required for data: 1042842912
I0403 18:46:15.337560 23502 layer_factory.hpp:77] Creating layer inception_4c/relu_3x3
I0403 18:46:15.337580 23502 net.cpp:91] Creating Layer inception_4c/relu_3x3
I0403 18:46:15.337596 23502 net.cpp:425] inception_4c/relu_3x3 <- inception_4c/3x3
I0403 18:46:15.337615 23502 net.cpp:386] inception_4c/relu_3x3 -> inception_4c/3x3 (in-place)
I0403 18:46:15.337803 23502 net.cpp:141] Setting up inception_4c/relu_3x3
I0403 18:46:15.337831 23502 net.cpp:148] Top shape: 24 256 14 14 (1204224)
I0403 18:46:15.337846 23502 net.cpp:156] Memory required for data: 1047659808
I0403 18:46:15.337859 23502 layer_factory.hpp:77] Creating layer inception_4c/5x5_reduce
I0403 18:46:15.337882 23502 net.cpp:91] Creating Layer inception_4c/5x5_reduce
I0403 18:46:15.337900 23502 net.cpp:425] inception_4c/5x5_reduce <- inception_4b/output_inception_4b/output_0_split_2
I0403 18:46:15.337919 23502 net.cpp:399] inception_4c/5x5_reduce -> inception_4c/5x5_reduce
I0403 18:46:15.339018 23502 net.cpp:141] Setting up inception_4c/5x5_reduce
I0403 18:46:15.339048 23502 net.cpp:148] Top shape: 24 24 14 14 (112896)
I0403 18:46:15.339064 23502 net.cpp:156] Memory required for data: 1048111392
I0403 18:46:15.339082 23502 layer_factory.hpp:77] Creating layer inception_4c/relu_5x5_reduce
I0403 18:46:15.339099 23502 net.cpp:91] Creating Layer inception_4c/relu_5x5_reduce
I0403 18:46:15.339115 23502 net.cpp:425] inception_4c/relu_5x5_reduce <- inception_4c/5x5_reduce
I0403 18:46:15.339134 23502 net.cpp:386] inception_4c/relu_5x5_reduce -> inception_4c/5x5_reduce (in-place)
I0403 18:46:15.339318 23502 net.cpp:141] Setting up inception_4c/relu_5x5_reduce
I0403 18:46:15.339342 23502 net.cpp:148] Top shape: 24 24 14 14 (112896)
I0403 18:46:15.339356 23502 net.cpp:156] Memory required for data: 1048562976
I0403 18:46:15.339371 23502 layer_factory.hpp:77] Creating layer inception_4c/5x5
I0403 18:46:15.339393 23502 net.cpp:91] Creating Layer inception_4c/5x5
I0403 18:46:15.339411 23502 net.cpp:425] inception_4c/5x5 <- inception_4c/5x5_reduce
I0403 18:46:15.339432 23502 net.cpp:399] inception_4c/5x5 -> inception_4c/5x5
I0403 18:46:15.340680 23502 net.cpp:141] Setting up inception_4c/5x5
I0403 18:46:15.340708 23502 net.cpp:148] Top shape: 24 64 14 14 (301056)
I0403 18:46:15.340723 23502 net.cpp:156] Memory required for data: 1049767200
I0403 18:46:15.340740 23502 layer_factory.hpp:77] Creating layer inception_4c/relu_5x5
I0403 18:46:15.340759 23502 net.cpp:91] Creating Layer inception_4c/relu_5x5
I0403 18:46:15.340776 23502 net.cpp:425] inception_4c/relu_5x5 <- inception_4c/5x5
I0403 18:46:15.340793 23502 net.cpp:386] inception_4c/relu_5x5 -> inception_4c/5x5 (in-place)
I0403 18:46:15.341081 23502 net.cpp:141] Setting up inception_4c/relu_5x5
I0403 18:46:15.341107 23502 net.cpp:148] Top shape: 24 64 14 14 (301056)
I0403 18:46:15.341122 23502 net.cpp:156] Memory required for data: 1050971424
I0403 18:46:15.341136 23502 layer_factory.hpp:77] Creating layer inception_4c/pool
I0403 18:46:15.341153 23502 net.cpp:91] Creating Layer inception_4c/pool
I0403 18:46:15.341169 23502 net.cpp:425] inception_4c/pool <- inception_4b/output_inception_4b/output_0_split_3
I0403 18:46:15.341193 23502 net.cpp:399] inception_4c/pool -> inception_4c/pool
I0403 18:46:15.341259 23502 net.cpp:141] Setting up inception_4c/pool
I0403 18:46:15.341284 23502 net.cpp:148] Top shape: 24 512 14 14 (2408448)
I0403 18:46:15.341300 23502 net.cpp:156] Memory required for data: 1060605216
I0403 18:46:15.341315 23502 layer_factory.hpp:77] Creating layer inception_4c/pool_proj
I0403 18:46:15.341336 23502 net.cpp:91] Creating Layer inception_4c/pool_proj
I0403 18:46:15.341352 23502 net.cpp:425] inception_4c/pool_proj <- inception_4c/pool
I0403 18:46:15.341372 23502 net.cpp:399] inception_4c/pool_proj -> inception_4c/pool_proj
I0403 18:46:15.342602 23502 net.cpp:141] Setting up inception_4c/pool_proj
I0403 18:46:15.342633 23502 net.cpp:148] Top shape: 24 64 14 14 (301056)
I0403 18:46:15.342664 23502 net.cpp:156] Memory required for data: 1061809440
I0403 18:46:15.342682 23502 layer_factory.hpp:77] Creating layer inception_4c/relu_pool_proj
I0403 18:46:15.342700 23502 net.cpp:91] Creating Layer inception_4c/relu_pool_proj
I0403 18:46:15.342716 23502 net.cpp:425] inception_4c/relu_pool_proj <- inception_4c/pool_proj
I0403 18:46:15.342733 23502 net.cpp:386] inception_4c/relu_pool_proj -> inception_4c/pool_proj (in-place)
I0403 18:46:15.342919 23502 net.cpp:141] Setting up inception_4c/relu_pool_proj
I0403 18:46:15.342944 23502 net.cpp:148] Top shape: 24 64 14 14 (301056)
I0403 18:46:15.342958 23502 net.cpp:156] Memory required for data: 1063013664
I0403 18:46:15.342972 23502 layer_factory.hpp:77] Creating layer inception_4c/output
I0403 18:46:15.342988 23502 net.cpp:91] Creating Layer inception_4c/output
I0403 18:46:15.343003 23502 net.cpp:425] inception_4c/output <- inception_4c/1x1
I0403 18:46:15.343019 23502 net.cpp:425] inception_4c/output <- inception_4c/3x3
I0403 18:46:15.343034 23502 net.cpp:425] inception_4c/output <- inception_4c/5x5
I0403 18:46:15.343049 23502 net.cpp:425] inception_4c/output <- inception_4c/pool_proj
I0403 18:46:15.343070 23502 net.cpp:399] inception_4c/output -> inception_4c/output
I0403 18:46:15.343116 23502 net.cpp:141] Setting up inception_4c/output
I0403 18:46:15.343140 23502 net.cpp:148] Top shape: 24 512 14 14 (2408448)
I0403 18:46:15.343155 23502 net.cpp:156] Memory required for data: 1072647456
I0403 18:46:15.343169 23502 layer_factory.hpp:77] Creating layer inception_4c/output_inception_4c/output_0_split
I0403 18:46:15.343185 23502 net.cpp:91] Creating Layer inception_4c/output_inception_4c/output_0_split
I0403 18:46:15.343200 23502 net.cpp:425] inception_4c/output_inception_4c/output_0_split <- inception_4c/output
I0403 18:46:15.343217 23502 net.cpp:399] inception_4c/output_inception_4c/output_0_split -> inception_4c/output_inception_4c/output_0_split_0
I0403 18:46:15.343240 23502 net.cpp:399] inception_4c/output_inception_4c/output_0_split -> inception_4c/output_inception_4c/output_0_split_1
I0403 18:46:15.343261 23502 net.cpp:399] inception_4c/output_inception_4c/output_0_split -> inception_4c/output_inception_4c/output_0_split_2
I0403 18:46:15.343281 23502 net.cpp:399] inception_4c/output_inception_4c/output_0_split -> inception_4c/output_inception_4c/output_0_split_3
I0403 18:46:15.343366 23502 net.cpp:141] Setting up inception_4c/output_inception_4c/output_0_split
I0403 18:46:15.343389 23502 net.cpp:148] Top shape: 24 512 14 14 (2408448)
I0403 18:46:15.343406 23502 net.cpp:148] Top shape: 24 512 14 14 (2408448)
I0403 18:46:15.343420 23502 net.cpp:148] Top shape: 24 512 14 14 (2408448)
I0403 18:46:15.343436 23502 net.cpp:148] Top shape: 24 512 14 14 (2408448)
I0403 18:46:15.343449 23502 net.cpp:156] Memory required for data: 1111182624
I0403 18:46:15.343462 23502 layer_factory.hpp:77] Creating layer inception_4d/1x1
I0403 18:46:15.343483 23502 net.cpp:91] Creating Layer inception_4d/1x1
I0403 18:46:15.343500 23502 net.cpp:425] inception_4d/1x1 <- inception_4c/output_inception_4c/output_0_split_0
I0403 18:46:15.343526 23502 net.cpp:399] inception_4d/1x1 -> inception_4d/1x1
I0403 18:46:15.344925 23502 net.cpp:141] Setting up inception_4d/1x1
I0403 18:46:15.344951 23502 net.cpp:148] Top shape: 24 112 14 14 (526848)
I0403 18:46:15.344966 23502 net.cpp:156] Memory required for data: 1113290016
I0403 18:46:15.344985 23502 layer_factory.hpp:77] Creating layer inception_4d/relu_1x1
I0403 18:46:15.345003 23502 net.cpp:91] Creating Layer inception_4d/relu_1x1
I0403 18:46:15.345019 23502 net.cpp:425] inception_4d/relu_1x1 <- inception_4d/1x1
I0403 18:46:15.345036 23502 net.cpp:386] inception_4d/relu_1x1 -> inception_4d/1x1 (in-place)
I0403 18:46:15.345222 23502 net.cpp:141] Setting up inception_4d/relu_1x1
I0403 18:46:15.345247 23502 net.cpp:148] Top shape: 24 112 14 14 (526848)
I0403 18:46:15.345263 23502 net.cpp:156] Memory required for data: 1115397408
I0403 18:46:15.345278 23502 layer_factory.hpp:77] Creating layer inception_4d/3x3_reduce
I0403 18:46:15.345312 23502 net.cpp:91] Creating Layer inception_4d/3x3_reduce
I0403 18:46:15.345330 23502 net.cpp:425] inception_4d/3x3_reduce <- inception_4c/output_inception_4c/output_0_split_1
I0403 18:46:15.345350 23502 net.cpp:399] inception_4d/3x3_reduce -> inception_4d/3x3_reduce
I0403 18:46:15.346824 23502 net.cpp:141] Setting up inception_4d/3x3_reduce
I0403 18:46:15.346853 23502 net.cpp:148] Top shape: 24 144 14 14 (677376)
I0403 18:46:15.346868 23502 net.cpp:156] Memory required for data: 1118106912
I0403 18:46:15.346886 23502 layer_factory.hpp:77] Creating layer inception_4d/relu_3x3_reduce
I0403 18:46:15.346904 23502 net.cpp:91] Creating Layer inception_4d/relu_3x3_reduce
I0403 18:46:15.346918 23502 net.cpp:425] inception_4d/relu_3x3_reduce <- inception_4d/3x3_reduce
I0403 18:46:15.346937 23502 net.cpp:386] inception_4d/relu_3x3_reduce -> inception_4d/3x3_reduce (in-place)
I0403 18:46:15.347220 23502 net.cpp:141] Setting up inception_4d/relu_3x3_reduce
I0403 18:46:15.347246 23502 net.cpp:148] Top shape: 24 144 14 14 (677376)
I0403 18:46:15.347260 23502 net.cpp:156] Memory required for data: 1120816416
I0403 18:46:15.347273 23502 layer_factory.hpp:77] Creating layer inception_4d/3x3
I0403 18:46:15.347295 23502 net.cpp:91] Creating Layer inception_4d/3x3
I0403 18:46:15.347312 23502 net.cpp:425] inception_4d/3x3 <- inception_4d/3x3_reduce
I0403 18:46:15.347333 23502 net.cpp:399] inception_4d/3x3 -> inception_4d/3x3
I0403 18:46:15.351493 23502 net.cpp:141] Setting up inception_4d/3x3
I0403 18:46:15.351524 23502 net.cpp:148] Top shape: 24 288 14 14 (1354752)
I0403 18:46:15.351539 23502 net.cpp:156] Memory required for data: 1126235424
I0403 18:46:15.351557 23502 layer_factory.hpp:77] Creating layer inception_4d/relu_3x3
I0403 18:46:15.351575 23502 net.cpp:91] Creating Layer inception_4d/relu_3x3
I0403 18:46:15.351593 23502 net.cpp:425] inception_4d/relu_3x3 <- inception_4d/3x3
I0403 18:46:15.351611 23502 net.cpp:386] inception_4d/relu_3x3 -> inception_4d/3x3 (in-place)
I0403 18:46:15.351790 23502 net.cpp:141] Setting up inception_4d/relu_3x3
I0403 18:46:15.351816 23502 net.cpp:148] Top shape: 24 288 14 14 (1354752)
I0403 18:46:15.351831 23502 net.cpp:156] Memory required for data: 1131654432
I0403 18:46:15.351845 23502 layer_factory.hpp:77] Creating layer inception_4d/5x5_reduce
I0403 18:46:15.351866 23502 net.cpp:91] Creating Layer inception_4d/5x5_reduce
I0403 18:46:15.351883 23502 net.cpp:425] inception_4d/5x5_reduce <- inception_4c/output_inception_4c/output_0_split_2
I0403 18:46:15.351902 23502 net.cpp:399] inception_4d/5x5_reduce -> inception_4d/5x5_reduce
I0403 18:46:15.353030 23502 net.cpp:141] Setting up inception_4d/5x5_reduce
I0403 18:46:15.353056 23502 net.cpp:148] Top shape: 24 32 14 14 (150528)
I0403 18:46:15.353071 23502 net.cpp:156] Memory required for data: 1132256544
I0403 18:46:15.353087 23502 layer_factory.hpp:77] Creating layer inception_4d/relu_5x5_reduce
I0403 18:46:15.353107 23502 net.cpp:91] Creating Layer inception_4d/relu_5x5_reduce
I0403 18:46:15.353123 23502 net.cpp:425] inception_4d/relu_5x5_reduce <- inception_4d/5x5_reduce
I0403 18:46:15.353139 23502 net.cpp:386] inception_4d/relu_5x5_reduce -> inception_4d/5x5_reduce (in-place)
I0403 18:46:15.353325 23502 net.cpp:141] Setting up inception_4d/relu_5x5_reduce
I0403 18:46:15.353351 23502 net.cpp:148] Top shape: 24 32 14 14 (150528)
I0403 18:46:15.353366 23502 net.cpp:156] Memory required for data: 1132858656
I0403 18:46:15.353379 23502 layer_factory.hpp:77] Creating layer inception_4d/5x5
I0403 18:46:15.353400 23502 net.cpp:91] Creating Layer inception_4d/5x5
I0403 18:46:15.353416 23502 net.cpp:425] inception_4d/5x5 <- inception_4d/5x5_reduce
I0403 18:46:15.353435 23502 net.cpp:399] inception_4d/5x5 -> inception_4d/5x5
I0403 18:46:15.354873 23502 net.cpp:141] Setting up inception_4d/5x5
I0403 18:46:15.354903 23502 net.cpp:148] Top shape: 24 64 14 14 (301056)
I0403 18:46:15.354919 23502 net.cpp:156] Memory required for data: 1134062880
I0403 18:46:15.354938 23502 layer_factory.hpp:77] Creating layer inception_4d/relu_5x5
I0403 18:46:15.354969 23502 net.cpp:91] Creating Layer inception_4d/relu_5x5
I0403 18:46:15.354985 23502 net.cpp:425] inception_4d/relu_5x5 <- inception_4d/5x5
I0403 18:46:15.355005 23502 net.cpp:386] inception_4d/relu_5x5 -> inception_4d/5x5 (in-place)
I0403 18:46:15.355298 23502 net.cpp:141] Setting up inception_4d/relu_5x5
I0403 18:46:15.355324 23502 net.cpp:148] Top shape: 24 64 14 14 (301056)
I0403 18:46:15.355340 23502 net.cpp:156] Memory required for data: 1135267104
I0403 18:46:15.355355 23502 layer_factory.hpp:77] Creating layer inception_4d/pool
I0403 18:46:15.355372 23502 net.cpp:91] Creating Layer inception_4d/pool
I0403 18:46:15.355388 23502 net.cpp:425] inception_4d/pool <- inception_4c/output_inception_4c/output_0_split_3
I0403 18:46:15.355408 23502 net.cpp:399] inception_4d/pool -> inception_4d/pool
I0403 18:46:15.355473 23502 net.cpp:141] Setting up inception_4d/pool
I0403 18:46:15.355499 23502 net.cpp:148] Top shape: 24 512 14 14 (2408448)
I0403 18:46:15.355525 23502 net.cpp:156] Memory required for data: 1144900896
I0403 18:46:15.355541 23502 layer_factory.hpp:77] Creating layer inception_4d/pool_proj
I0403 18:46:15.355561 23502 net.cpp:91] Creating Layer inception_4d/pool_proj
I0403 18:46:15.355576 23502 net.cpp:425] inception_4d/pool_proj <- inception_4d/pool
I0403 18:46:15.355597 23502 net.cpp:399] inception_4d/pool_proj -> inception_4d/pool_proj
I0403 18:46:15.357327 23502 net.cpp:141] Setting up inception_4d/pool_proj
I0403 18:46:15.357355 23502 net.cpp:148] Top shape: 24 64 14 14 (301056)
I0403 18:46:15.357370 23502 net.cpp:156] Memory required for data: 1146105120
I0403 18:46:15.357386 23502 layer_factory.hpp:77] Creating layer inception_4d/relu_pool_proj
I0403 18:46:15.357405 23502 net.cpp:91] Creating Layer inception_4d/relu_pool_proj
I0403 18:46:15.357422 23502 net.cpp:425] inception_4d/relu_pool_proj <- inception_4d/pool_proj
I0403 18:46:15.357439 23502 net.cpp:386] inception_4d/relu_pool_proj -> inception_4d/pool_proj (in-place)
I0403 18:46:15.357625 23502 net.cpp:141] Setting up inception_4d/relu_pool_proj
I0403 18:46:15.357650 23502 net.cpp:148] Top shape: 24 64 14 14 (301056)
I0403 18:46:15.357666 23502 net.cpp:156] Memory required for data: 1147309344
I0403 18:46:15.357679 23502 layer_factory.hpp:77] Creating layer inception_4d/output
I0403 18:46:15.357697 23502 net.cpp:91] Creating Layer inception_4d/output
I0403 18:46:15.357712 23502 net.cpp:425] inception_4d/output <- inception_4d/1x1
I0403 18:46:15.357728 23502 net.cpp:425] inception_4d/output <- inception_4d/3x3
I0403 18:46:15.357741 23502 net.cpp:425] inception_4d/output <- inception_4d/5x5
I0403 18:46:15.357756 23502 net.cpp:425] inception_4d/output <- inception_4d/pool_proj
I0403 18:46:15.357771 23502 net.cpp:399] inception_4d/output -> inception_4d/output
I0403 18:46:15.357818 23502 net.cpp:141] Setting up inception_4d/output
I0403 18:46:15.357841 23502 net.cpp:148] Top shape: 24 528 14 14 (2483712)
I0403 18:46:15.357854 23502 net.cpp:156] Memory required for data: 1157244192
I0403 18:46:15.357868 23502 layer_factory.hpp:77] Creating layer inception_4d/output_inception_4d/output_0_split
I0403 18:46:15.357887 23502 net.cpp:91] Creating Layer inception_4d/output_inception_4d/output_0_split
I0403 18:46:15.357903 23502 net.cpp:425] inception_4d/output_inception_4d/output_0_split <- inception_4d/output
I0403 18:46:15.357919 23502 net.cpp:399] inception_4d/output_inception_4d/output_0_split -> inception_4d/output_inception_4d/output_0_split_0
I0403 18:46:15.357939 23502 net.cpp:399] inception_4d/output_inception_4d/output_0_split -> inception_4d/output_inception_4d/output_0_split_1
I0403 18:46:15.357959 23502 net.cpp:399] inception_4d/output_inception_4d/output_0_split -> inception_4d/output_inception_4d/output_0_split_2
I0403 18:46:15.357980 23502 net.cpp:399] inception_4d/output_inception_4d/output_0_split -> inception_4d/output_inception_4d/output_0_split_3
I0403 18:46:15.358000 23502 net.cpp:399] inception_4d/output_inception_4d/output_0_split -> inception_4d/output_inception_4d/output_0_split_4
I0403 18:46:15.358101 23502 net.cpp:141] Setting up inception_4d/output_inception_4d/output_0_split
I0403 18:46:15.358136 23502 net.cpp:148] Top shape: 24 528 14 14 (2483712)
I0403 18:46:15.358152 23502 net.cpp:148] Top shape: 24 528 14 14 (2483712)
I0403 18:46:15.358166 23502 net.cpp:148] Top shape: 24 528 14 14 (2483712)
I0403 18:46:15.358181 23502 net.cpp:148] Top shape: 24 528 14 14 (2483712)
I0403 18:46:15.358196 23502 net.cpp:148] Top shape: 24 528 14 14 (2483712)
I0403 18:46:15.358207 23502 net.cpp:156] Memory required for data: 1206918432
I0403 18:46:15.358220 23502 layer_factory.hpp:77] Creating layer loss2/ave_pool
I0403 18:46:15.358239 23502 net.cpp:91] Creating Layer loss2/ave_pool
I0403 18:46:15.358263 23502 net.cpp:425] loss2/ave_pool <- inception_4d/output_inception_4d/output_0_split_0
I0403 18:46:15.358283 23502 net.cpp:399] loss2/ave_pool -> loss2/ave_pool
I0403 18:46:15.358592 23502 net.cpp:141] Setting up loss2/ave_pool
I0403 18:46:15.358618 23502 net.cpp:148] Top shape: 24 528 4 4 (202752)
I0403 18:46:15.358631 23502 net.cpp:156] Memory required for data: 1207729440
I0403 18:46:15.358645 23502 layer_factory.hpp:77] Creating layer loss2/conv
I0403 18:46:15.358666 23502 net.cpp:91] Creating Layer loss2/conv
I0403 18:46:15.358685 23502 net.cpp:425] loss2/conv <- loss2/ave_pool
I0403 18:46:15.358703 23502 net.cpp:399] loss2/conv -> loss2/conv
I0403 18:46:15.360589 23502 net.cpp:141] Setting up loss2/conv
I0403 18:46:15.360617 23502 net.cpp:148] Top shape: 24 128 4 4 (49152)
I0403 18:46:15.360632 23502 net.cpp:156] Memory required for data: 1207926048
I0403 18:46:15.360651 23502 layer_factory.hpp:77] Creating layer loss2/relu_conv
I0403 18:46:15.360668 23502 net.cpp:91] Creating Layer loss2/relu_conv
I0403 18:46:15.360683 23502 net.cpp:425] loss2/relu_conv <- loss2/conv
I0403 18:46:15.360703 23502 net.cpp:386] loss2/relu_conv -> loss2/conv (in-place)
I0403 18:46:15.360991 23502 net.cpp:141] Setting up loss2/relu_conv
I0403 18:46:15.361017 23502 net.cpp:148] Top shape: 24 128 4 4 (49152)
I0403 18:46:15.361032 23502 net.cpp:156] Memory required for data: 1208122656
I0403 18:46:15.361047 23502 layer_factory.hpp:77] Creating layer loss2/fc
I0403 18:46:15.361063 23502 net.cpp:91] Creating Layer loss2/fc
I0403 18:46:15.361079 23502 net.cpp:425] loss2/fc <- loss2/conv
I0403 18:46:15.361099 23502 net.cpp:399] loss2/fc -> loss2/fc
I0403 18:46:15.379168 23502 net.cpp:141] Setting up loss2/fc
I0403 18:46:15.379204 23502 net.cpp:148] Top shape: 24 1024 (24576)
I0403 18:46:15.379220 23502 net.cpp:156] Memory required for data: 1208220960
I0403 18:46:15.379236 23502 layer_factory.hpp:77] Creating layer loss2/relu_fc
I0403 18:46:15.379254 23502 net.cpp:91] Creating Layer loss2/relu_fc
I0403 18:46:15.379269 23502 net.cpp:425] loss2/relu_fc <- loss2/fc
I0403 18:46:15.379286 23502 net.cpp:386] loss2/relu_fc -> loss2/fc (in-place)
I0403 18:46:15.379593 23502 net.cpp:141] Setting up loss2/relu_fc
I0403 18:46:15.379622 23502 net.cpp:148] Top shape: 24 1024 (24576)
I0403 18:46:15.379637 23502 net.cpp:156] Memory required for data: 1208319264
I0403 18:46:15.379652 23502 layer_factory.hpp:77] Creating layer loss2/drop_fc
I0403 18:46:15.379669 23502 net.cpp:91] Creating Layer loss2/drop_fc
I0403 18:46:15.379685 23502 net.cpp:425] loss2/drop_fc <- loss2/fc
I0403 18:46:15.379701 23502 net.cpp:386] loss2/drop_fc -> loss2/fc (in-place)
I0403 18:46:15.379750 23502 net.cpp:141] Setting up loss2/drop_fc
I0403 18:46:15.379773 23502 net.cpp:148] Top shape: 24 1024 (24576)
I0403 18:46:15.379786 23502 net.cpp:156] Memory required for data: 1208417568
I0403 18:46:15.379801 23502 layer_factory.hpp:77] Creating layer loss2/classifier_plantvillage
I0403 18:46:15.379819 23502 net.cpp:91] Creating Layer loss2/classifier_plantvillage
I0403 18:46:15.379835 23502 net.cpp:425] loss2/classifier_plantvillage <- loss2/fc
I0403 18:46:15.379853 23502 net.cpp:399] loss2/classifier_plantvillage -> loss2/classifier_plantvillage
I0403 18:46:15.380251 23502 net.cpp:141] Setting up loss2/classifier_plantvillage
I0403 18:46:15.380275 23502 net.cpp:148] Top shape: 24 38 (912)
I0403 18:46:15.380307 23502 net.cpp:156] Memory required for data: 1208421216
I0403 18:46:15.380326 23502 layer_factory.hpp:77] Creating layer loss2/classifier_plantvillage_loss2/classifier_plantvillage_0_split
I0403 18:46:15.380342 23502 net.cpp:91] Creating Layer loss2/classifier_plantvillage_loss2/classifier_plantvillage_0_split
I0403 18:46:15.380358 23502 net.cpp:425] loss2/classifier_plantvillage_loss2/classifier_plantvillage_0_split <- loss2/classifier_plantvillage
I0403 18:46:15.380378 23502 net.cpp:399] loss2/classifier_plantvillage_loss2/classifier_plantvillage_0_split -> loss2/classifier_plantvillage_loss2/classifier_plantvillage_0_split_0
I0403 18:46:15.380398 23502 net.cpp:399] loss2/classifier_plantvillage_loss2/classifier_plantvillage_0_split -> loss2/classifier_plantvillage_loss2/classifier_plantvillage_0_split_1
I0403 18:46:15.380419 23502 net.cpp:399] loss2/classifier_plantvillage_loss2/classifier_plantvillage_0_split -> loss2/classifier_plantvillage_loss2/classifier_plantvillage_0_split_2
I0403 18:46:15.380494 23502 net.cpp:141] Setting up loss2/classifier_plantvillage_loss2/classifier_plantvillage_0_split
I0403 18:46:15.380522 23502 net.cpp:148] Top shape: 24 38 (912)
I0403 18:46:15.380539 23502 net.cpp:148] Top shape: 24 38 (912)
I0403 18:46:15.380553 23502 net.cpp:148] Top shape: 24 38 (912)
I0403 18:46:15.380566 23502 net.cpp:156] Memory required for data: 1208432160
I0403 18:46:15.380579 23502 layer_factory.hpp:77] Creating layer inception_4e/1x1
I0403 18:46:15.380600 23502 net.cpp:91] Creating Layer inception_4e/1x1
I0403 18:46:15.380617 23502 net.cpp:425] inception_4e/1x1 <- inception_4d/output_inception_4d/output_0_split_1
I0403 18:46:15.380635 23502 net.cpp:399] inception_4e/1x1 -> inception_4e/1x1
I0403 18:46:15.382421 23502 net.cpp:141] Setting up inception_4e/1x1
I0403 18:46:15.382447 23502 net.cpp:148] Top shape: 24 256 14 14 (1204224)
I0403 18:46:15.382462 23502 net.cpp:156] Memory required for data: 1213249056
I0403 18:46:15.382480 23502 layer_factory.hpp:77] Creating layer inception_4e/relu_1x1
I0403 18:46:15.382498 23502 net.cpp:91] Creating Layer inception_4e/relu_1x1
I0403 18:46:15.382518 23502 net.cpp:425] inception_4e/relu_1x1 <- inception_4e/1x1
I0403 18:46:15.382537 23502 net.cpp:386] inception_4e/relu_1x1 -> inception_4e/1x1 (in-place)
I0403 18:46:15.382830 23502 net.cpp:141] Setting up inception_4e/relu_1x1
I0403 18:46:15.382855 23502 net.cpp:148] Top shape: 24 256 14 14 (1204224)
I0403 18:46:15.382870 23502 net.cpp:156] Memory required for data: 1218065952
I0403 18:46:15.382884 23502 layer_factory.hpp:77] Creating layer inception_4e/3x3_reduce
I0403 18:46:15.382905 23502 net.cpp:91] Creating Layer inception_4e/3x3_reduce
I0403 18:46:15.382923 23502 net.cpp:425] inception_4e/3x3_reduce <- inception_4d/output_inception_4d/output_0_split_2
I0403 18:46:15.382944 23502 net.cpp:399] inception_4e/3x3_reduce -> inception_4e/3x3_reduce
I0403 18:46:15.385056 23502 net.cpp:141] Setting up inception_4e/3x3_reduce
I0403 18:46:15.385087 23502 net.cpp:148] Top shape: 24 160 14 14 (752640)
I0403 18:46:15.385102 23502 net.cpp:156] Memory required for data: 1221076512
I0403 18:46:15.385120 23502 layer_factory.hpp:77] Creating layer inception_4e/relu_3x3_reduce
I0403 18:46:15.385138 23502 net.cpp:91] Creating Layer inception_4e/relu_3x3_reduce
I0403 18:46:15.385154 23502 net.cpp:425] inception_4e/relu_3x3_reduce <- inception_4e/3x3_reduce
I0403 18:46:15.385172 23502 net.cpp:386] inception_4e/relu_3x3_reduce -> inception_4e/3x3_reduce (in-place)
I0403 18:46:15.385356 23502 net.cpp:141] Setting up inception_4e/relu_3x3_reduce
I0403 18:46:15.385380 23502 net.cpp:148] Top shape: 24 160 14 14 (752640)
I0403 18:46:15.385395 23502 net.cpp:156] Memory required for data: 1224087072
I0403 18:46:15.385408 23502 layer_factory.hpp:77] Creating layer inception_4e/3x3
I0403 18:46:15.385428 23502 net.cpp:91] Creating Layer inception_4e/3x3
I0403 18:46:15.385447 23502 net.cpp:425] inception_4e/3x3 <- inception_4e/3x3_reduce
I0403 18:46:15.385467 23502 net.cpp:399] inception_4e/3x3 -> inception_4e/3x3
I0403 18:46:15.390364 23502 net.cpp:141] Setting up inception_4e/3x3
I0403 18:46:15.390404 23502 net.cpp:148] Top shape: 24 320 14 14 (1505280)
I0403 18:46:15.390420 23502 net.cpp:156] Memory required for data: 1230108192
I0403 18:46:15.390437 23502 layer_factory.hpp:77] Creating layer inception_4e/relu_3x3
I0403 18:46:15.390457 23502 net.cpp:91] Creating Layer inception_4e/relu_3x3
I0403 18:46:15.390475 23502 net.cpp:425] inception_4e/relu_3x3 <- inception_4e/3x3
I0403 18:46:15.390491 23502 net.cpp:386] inception_4e/relu_3x3 -> inception_4e/3x3 (in-place)
I0403 18:46:15.390789 23502 net.cpp:141] Setting up inception_4e/relu_3x3
I0403 18:46:15.390813 23502 net.cpp:148] Top shape: 24 320 14 14 (1505280)
I0403 18:46:15.390828 23502 net.cpp:156] Memory required for data: 1236129312
I0403 18:46:15.390841 23502 layer_factory.hpp:77] Creating layer inception_4e/5x5_reduce
I0403 18:46:15.390863 23502 net.cpp:91] Creating Layer inception_4e/5x5_reduce
I0403 18:46:15.390879 23502 net.cpp:425] inception_4e/5x5_reduce <- inception_4d/output_inception_4d/output_0_split_3
I0403 18:46:15.390900 23502 net.cpp:399] inception_4e/5x5_reduce -> inception_4e/5x5_reduce
I0403 18:46:15.391954 23502 net.cpp:141] Setting up inception_4e/5x5_reduce
I0403 18:46:15.391983 23502 net.cpp:148] Top shape: 24 32 14 14 (150528)
I0403 18:46:15.391999 23502 net.cpp:156] Memory required for data: 1236731424
I0403 18:46:15.392017 23502 layer_factory.hpp:77] Creating layer inception_4e/relu_5x5_reduce
I0403 18:46:15.392035 23502 net.cpp:91] Creating Layer inception_4e/relu_5x5_reduce
I0403 18:46:15.392050 23502 net.cpp:425] inception_4e/relu_5x5_reduce <- inception_4e/5x5_reduce
I0403 18:46:15.392068 23502 net.cpp:386] inception_4e/relu_5x5_reduce -> inception_4e/5x5_reduce (in-place)
I0403 18:46:15.392360 23502 net.cpp:141] Setting up inception_4e/relu_5x5_reduce
I0403 18:46:15.392390 23502 net.cpp:148] Top shape: 24 32 14 14 (150528)
I0403 18:46:15.392406 23502 net.cpp:156] Memory required for data: 1237333536
I0403 18:46:15.392421 23502 layer_factory.hpp:77] Creating layer inception_4e/5x5
I0403 18:46:15.392459 23502 net.cpp:91] Creating Layer inception_4e/5x5
I0403 18:46:15.392477 23502 net.cpp:425] inception_4e/5x5 <- inception_4e/5x5_reduce
I0403 18:46:15.392495 23502 net.cpp:399] inception_4e/5x5 -> inception_4e/5x5
I0403 18:46:15.394294 23502 net.cpp:141] Setting up inception_4e/5x5
I0403 18:46:15.394320 23502 net.cpp:148] Top shape: 24 128 14 14 (602112)
I0403 18:46:15.394336 23502 net.cpp:156] Memory required for data: 1239741984
I0403 18:46:15.394352 23502 layer_factory.hpp:77] Creating layer inception_4e/relu_5x5
I0403 18:46:15.394372 23502 net.cpp:91] Creating Layer inception_4e/relu_5x5
I0403 18:46:15.394389 23502 net.cpp:425] inception_4e/relu_5x5 <- inception_4e/5x5
I0403 18:46:15.394405 23502 net.cpp:386] inception_4e/relu_5x5 -> inception_4e/5x5 (in-place)
I0403 18:46:15.394604 23502 net.cpp:141] Setting up inception_4e/relu_5x5
I0403 18:46:15.394629 23502 net.cpp:148] Top shape: 24 128 14 14 (602112)
I0403 18:46:15.394644 23502 net.cpp:156] Memory required for data: 1242150432
I0403 18:46:15.394657 23502 layer_factory.hpp:77] Creating layer inception_4e/pool
I0403 18:46:15.394675 23502 net.cpp:91] Creating Layer inception_4e/pool
I0403 18:46:15.394690 23502 net.cpp:425] inception_4e/pool <- inception_4d/output_inception_4d/output_0_split_4
I0403 18:46:15.394709 23502 net.cpp:399] inception_4e/pool -> inception_4e/pool
I0403 18:46:15.394778 23502 net.cpp:141] Setting up inception_4e/pool
I0403 18:46:15.394801 23502 net.cpp:148] Top shape: 24 528 14 14 (2483712)
I0403 18:46:15.394815 23502 net.cpp:156] Memory required for data: 1252085280
I0403 18:46:15.394829 23502 layer_factory.hpp:77] Creating layer inception_4e/pool_proj
I0403 18:46:15.394851 23502 net.cpp:91] Creating Layer inception_4e/pool_proj
I0403 18:46:15.394868 23502 net.cpp:425] inception_4e/pool_proj <- inception_4e/pool
I0403 18:46:15.394887 23502 net.cpp:399] inception_4e/pool_proj -> inception_4e/pool_proj
I0403 18:46:15.396399 23502 net.cpp:141] Setting up inception_4e/pool_proj
I0403 18:46:15.396438 23502 net.cpp:148] Top shape: 24 128 14 14 (602112)
I0403 18:46:15.396455 23502 net.cpp:156] Memory required for data: 1254493728
I0403 18:46:15.396471 23502 layer_factory.hpp:77] Creating layer inception_4e/relu_pool_proj
I0403 18:46:15.396492 23502 net.cpp:91] Creating Layer inception_4e/relu_pool_proj
I0403 18:46:15.396512 23502 net.cpp:425] inception_4e/relu_pool_proj <- inception_4e/pool_proj
I0403 18:46:15.396530 23502 net.cpp:386] inception_4e/relu_pool_proj -> inception_4e/pool_proj (in-place)
I0403 18:46:15.396827 23502 net.cpp:141] Setting up inception_4e/relu_pool_proj
I0403 18:46:15.396852 23502 net.cpp:148] Top shape: 24 128 14 14 (602112)
I0403 18:46:15.396867 23502 net.cpp:156] Memory required for data: 1256902176
I0403 18:46:15.396881 23502 layer_factory.hpp:77] Creating layer inception_4e/output
I0403 18:46:15.396900 23502 net.cpp:91] Creating Layer inception_4e/output
I0403 18:46:15.396917 23502 net.cpp:425] inception_4e/output <- inception_4e/1x1
I0403 18:46:15.396932 23502 net.cpp:425] inception_4e/output <- inception_4e/3x3
I0403 18:46:15.396949 23502 net.cpp:425] inception_4e/output <- inception_4e/5x5
I0403 18:46:15.396963 23502 net.cpp:425] inception_4e/output <- inception_4e/pool_proj
I0403 18:46:15.396980 23502 net.cpp:399] inception_4e/output -> inception_4e/output
I0403 18:46:15.397027 23502 net.cpp:141] Setting up inception_4e/output
I0403 18:46:15.397049 23502 net.cpp:148] Top shape: 24 832 14 14 (3913728)
I0403 18:46:15.397063 23502 net.cpp:156] Memory required for data: 1272557088
I0403 18:46:15.397076 23502 layer_factory.hpp:77] Creating layer pool4/3x3_s2
I0403 18:46:15.397092 23502 net.cpp:91] Creating Layer pool4/3x3_s2
I0403 18:46:15.397107 23502 net.cpp:425] pool4/3x3_s2 <- inception_4e/output
I0403 18:46:15.397126 23502 net.cpp:399] pool4/3x3_s2 -> pool4/3x3_s2
I0403 18:46:15.397191 23502 net.cpp:141] Setting up pool4/3x3_s2
I0403 18:46:15.397213 23502 net.cpp:148] Top shape: 24 832 7 7 (978432)
I0403 18:46:15.397227 23502 net.cpp:156] Memory required for data: 1276470816
I0403 18:46:15.397240 23502 layer_factory.hpp:77] Creating layer pool4/3x3_s2_pool4/3x3_s2_0_split
I0403 18:46:15.397259 23502 net.cpp:91] Creating Layer pool4/3x3_s2_pool4/3x3_s2_0_split
I0403 18:46:15.397274 23502 net.cpp:425] pool4/3x3_s2_pool4/3x3_s2_0_split <- pool4/3x3_s2
I0403 18:46:15.397294 23502 net.cpp:399] pool4/3x3_s2_pool4/3x3_s2_0_split -> pool4/3x3_s2_pool4/3x3_s2_0_split_0
I0403 18:46:15.397315 23502 net.cpp:399] pool4/3x3_s2_pool4/3x3_s2_0_split -> pool4/3x3_s2_pool4/3x3_s2_0_split_1
I0403 18:46:15.397333 23502 net.cpp:399] pool4/3x3_s2_pool4/3x3_s2_0_split -> pool4/3x3_s2_pool4/3x3_s2_0_split_2
I0403 18:46:15.397353 23502 net.cpp:399] pool4/3x3_s2_pool4/3x3_s2_0_split -> pool4/3x3_s2_pool4/3x3_s2_0_split_3
I0403 18:46:15.397439 23502 net.cpp:141] Setting up pool4/3x3_s2_pool4/3x3_s2_0_split
I0403 18:46:15.397464 23502 net.cpp:148] Top shape: 24 832 7 7 (978432)
I0403 18:46:15.397481 23502 net.cpp:148] Top shape: 24 832 7 7 (978432)
I0403 18:46:15.397495 23502 net.cpp:148] Top shape: 24 832 7 7 (978432)
I0403 18:46:15.397513 23502 net.cpp:148] Top shape: 24 832 7 7 (978432)
I0403 18:46:15.397527 23502 net.cpp:156] Memory required for data: 1292125728
I0403 18:46:15.397541 23502 layer_factory.hpp:77] Creating layer inception_5a/1x1
I0403 18:46:15.397559 23502 net.cpp:91] Creating Layer inception_5a/1x1
I0403 18:46:15.397575 23502 net.cpp:425] inception_5a/1x1 <- pool4/3x3_s2_pool4/3x3_s2_0_split_0
I0403 18:46:15.397595 23502 net.cpp:399] inception_5a/1x1 -> inception_5a/1x1
I0403 18:46:15.400418 23502 net.cpp:141] Setting up inception_5a/1x1
I0403 18:46:15.400449 23502 net.cpp:148] Top shape: 24 256 7 7 (301056)
I0403 18:46:15.400463 23502 net.cpp:156] Memory required for data: 1293329952
I0403 18:46:15.400480 23502 layer_factory.hpp:77] Creating layer inception_5a/relu_1x1
I0403 18:46:15.400498 23502 net.cpp:91] Creating Layer inception_5a/relu_1x1
I0403 18:46:15.400518 23502 net.cpp:425] inception_5a/relu_1x1 <- inception_5a/1x1
I0403 18:46:15.400537 23502 net.cpp:386] inception_5a/relu_1x1 -> inception_5a/1x1 (in-place)
I0403 18:46:15.400857 23502 net.cpp:141] Setting up inception_5a/relu_1x1
I0403 18:46:15.400887 23502 net.cpp:148] Top shape: 24 256 7 7 (301056)
I0403 18:46:15.400902 23502 net.cpp:156] Memory required for data: 1294534176
I0403 18:46:15.400916 23502 layer_factory.hpp:77] Creating layer inception_5a/3x3_reduce
I0403 18:46:15.400938 23502 net.cpp:91] Creating Layer inception_5a/3x3_reduce
I0403 18:46:15.400956 23502 net.cpp:425] inception_5a/3x3_reduce <- pool4/3x3_s2_pool4/3x3_s2_0_split_1
I0403 18:46:15.400975 23502 net.cpp:399] inception_5a/3x3_reduce -> inception_5a/3x3_reduce
I0403 18:46:15.403404 23502 net.cpp:141] Setting up inception_5a/3x3_reduce
I0403 18:46:15.403431 23502 net.cpp:148] Top shape: 24 160 7 7 (188160)
I0403 18:46:15.403446 23502 net.cpp:156] Memory required for data: 1295286816
I0403 18:46:15.403463 23502 layer_factory.hpp:77] Creating layer inception_5a/relu_3x3_reduce
I0403 18:46:15.403482 23502 net.cpp:91] Creating Layer inception_5a/relu_3x3_reduce
I0403 18:46:15.403499 23502 net.cpp:425] inception_5a/relu_3x3_reduce <- inception_5a/3x3_reduce
I0403 18:46:15.403522 23502 net.cpp:386] inception_5a/relu_3x3_reduce -> inception_5a/3x3_reduce (in-place)
I0403 18:46:15.403705 23502 net.cpp:141] Setting up inception_5a/relu_3x3_reduce
I0403 18:46:15.403733 23502 net.cpp:148] Top shape: 24 160 7 7 (188160)
I0403 18:46:15.403748 23502 net.cpp:156] Memory required for data: 1296039456
I0403 18:46:15.403761 23502 layer_factory.hpp:77] Creating layer inception_5a/3x3
I0403 18:46:15.403784 23502 net.cpp:91] Creating Layer inception_5a/3x3
I0403 18:46:15.403800 23502 net.cpp:425] inception_5a/3x3 <- inception_5a/3x3_reduce
I0403 18:46:15.403818 23502 net.cpp:399] inception_5a/3x3 -> inception_5a/3x3
I0403 18:46:15.408751 23502 net.cpp:141] Setting up inception_5a/3x3
I0403 18:46:15.408781 23502 net.cpp:148] Top shape: 24 320 7 7 (376320)
I0403 18:46:15.408797 23502 net.cpp:156] Memory required for data: 1297544736
I0403 18:46:15.408814 23502 layer_factory.hpp:77] Creating layer inception_5a/relu_3x3
I0403 18:46:15.408831 23502 net.cpp:91] Creating Layer inception_5a/relu_3x3
I0403 18:46:15.408848 23502 net.cpp:425] inception_5a/relu_3x3 <- inception_5a/3x3
I0403 18:46:15.408866 23502 net.cpp:386] inception_5a/relu_3x3 -> inception_5a/3x3 (in-place)
I0403 18:46:15.409154 23502 net.cpp:141] Setting up inception_5a/relu_3x3
I0403 18:46:15.409183 23502 net.cpp:148] Top shape: 24 320 7 7 (376320)
I0403 18:46:15.409198 23502 net.cpp:156] Memory required for data: 1299050016
I0403 18:46:15.409212 23502 layer_factory.hpp:77] Creating layer inception_5a/5x5_reduce
I0403 18:46:15.409235 23502 net.cpp:91] Creating Layer inception_5a/5x5_reduce
I0403 18:46:15.409253 23502 net.cpp:425] inception_5a/5x5_reduce <- pool4/3x3_s2_pool4/3x3_s2_0_split_2
I0403 18:46:15.409271 23502 net.cpp:399] inception_5a/5x5_reduce -> inception_5a/5x5_reduce
I0403 18:46:15.410415 23502 net.cpp:141] Setting up inception_5a/5x5_reduce
I0403 18:46:15.410444 23502 net.cpp:148] Top shape: 24 32 7 7 (37632)
I0403 18:46:15.410460 23502 net.cpp:156] Memory required for data: 1299200544
I0403 18:46:15.410478 23502 layer_factory.hpp:77] Creating layer inception_5a/relu_5x5_reduce
I0403 18:46:15.410495 23502 net.cpp:91] Creating Layer inception_5a/relu_5x5_reduce
I0403 18:46:15.410516 23502 net.cpp:425] inception_5a/relu_5x5_reduce <- inception_5a/5x5_reduce
I0403 18:46:15.410534 23502 net.cpp:386] inception_5a/relu_5x5_reduce -> inception_5a/5x5_reduce (in-place)
I0403 18:46:15.410835 23502 net.cpp:141] Setting up inception_5a/relu_5x5_reduce
I0403 18:46:15.410861 23502 net.cpp:148] Top shape: 24 32 7 7 (37632)
I0403 18:46:15.410874 23502 net.cpp:156] Memory required for data: 1299351072
I0403 18:46:15.410888 23502 layer_factory.hpp:77] Creating layer inception_5a/5x5
I0403 18:46:15.410909 23502 net.cpp:91] Creating Layer inception_5a/5x5
I0403 18:46:15.410926 23502 net.cpp:425] inception_5a/5x5 <- inception_5a/5x5_reduce
I0403 18:46:15.410948 23502 net.cpp:399] inception_5a/5x5 -> inception_5a/5x5
I0403 18:46:15.412638 23502 net.cpp:141] Setting up inception_5a/5x5
I0403 18:46:15.412677 23502 net.cpp:148] Top shape: 24 128 7 7 (150528)
I0403 18:46:15.412693 23502 net.cpp:156] Memory required for data: 1299953184
I0403 18:46:15.412709 23502 layer_factory.hpp:77] Creating layer inception_5a/relu_5x5
I0403 18:46:15.412729 23502 net.cpp:91] Creating Layer inception_5a/relu_5x5
I0403 18:46:15.412747 23502 net.cpp:425] inception_5a/relu_5x5 <- inception_5a/5x5
I0403 18:46:15.412765 23502 net.cpp:386] inception_5a/relu_5x5 -> inception_5a/5x5 (in-place)
I0403 18:46:15.412953 23502 net.cpp:141] Setting up inception_5a/relu_5x5
I0403 18:46:15.412977 23502 net.cpp:148] Top shape: 24 128 7 7 (150528)
I0403 18:46:15.412992 23502 net.cpp:156] Memory required for data: 1300555296
I0403 18:46:15.413005 23502 layer_factory.hpp:77] Creating layer inception_5a/pool
I0403 18:46:15.413022 23502 net.cpp:91] Creating Layer inception_5a/pool
I0403 18:46:15.413038 23502 net.cpp:425] inception_5a/pool <- pool4/3x3_s2_pool4/3x3_s2_0_split_3
I0403 18:46:15.413056 23502 net.cpp:399] inception_5a/pool -> inception_5a/pool
I0403 18:46:15.413126 23502 net.cpp:141] Setting up inception_5a/pool
I0403 18:46:15.413149 23502 net.cpp:148] Top shape: 24 832 7 7 (978432)
I0403 18:46:15.413163 23502 net.cpp:156] Memory required for data: 1304469024
I0403 18:46:15.413177 23502 layer_factory.hpp:77] Creating layer inception_5a/pool_proj
I0403 18:46:15.413200 23502 net.cpp:91] Creating Layer inception_5a/pool_proj
I0403 18:46:15.413218 23502 net.cpp:425] inception_5a/pool_proj <- inception_5a/pool
I0403 18:46:15.413235 23502 net.cpp:399] inception_5a/pool_proj -> inception_5a/pool_proj
I0403 18:46:15.415490 23502 net.cpp:141] Setting up inception_5a/pool_proj
I0403 18:46:15.415530 23502 net.cpp:148] Top shape: 24 128 7 7 (150528)
I0403 18:46:15.415547 23502 net.cpp:156] Memory required for data: 1305071136
I0403 18:46:15.415565 23502 layer_factory.hpp:77] Creating layer inception_5a/relu_pool_proj
I0403 18:46:15.415583 23502 net.cpp:91] Creating Layer inception_5a/relu_pool_proj
I0403 18:46:15.415601 23502 net.cpp:425] inception_5a/relu_pool_proj <- inception_5a/pool_proj
I0403 18:46:15.415617 23502 net.cpp:386] inception_5a/relu_pool_proj -> inception_5a/pool_proj (in-place)
I0403 18:46:15.415906 23502 net.cpp:141] Setting up inception_5a/relu_pool_proj
I0403 18:46:15.415931 23502 net.cpp:148] Top shape: 24 128 7 7 (150528)
I0403 18:46:15.415946 23502 net.cpp:156] Memory required for data: 1305673248
I0403 18:46:15.415959 23502 layer_factory.hpp:77] Creating layer inception_5a/output
I0403 18:46:15.415978 23502 net.cpp:91] Creating Layer inception_5a/output
I0403 18:46:15.415993 23502 net.cpp:425] inception_5a/output <- inception_5a/1x1
I0403 18:46:15.416009 23502 net.cpp:425] inception_5a/output <- inception_5a/3x3
I0403 18:46:15.416024 23502 net.cpp:425] inception_5a/output <- inception_5a/5x5
I0403 18:46:15.416039 23502 net.cpp:425] inception_5a/output <- inception_5a/pool_proj
I0403 18:46:15.416055 23502 net.cpp:399] inception_5a/output -> inception_5a/output
I0403 18:46:15.416105 23502 net.cpp:141] Setting up inception_5a/output
I0403 18:46:15.416128 23502 net.cpp:148] Top shape: 24 832 7 7 (978432)
I0403 18:46:15.416142 23502 net.cpp:156] Memory required for data: 1309586976
I0403 18:46:15.416155 23502 layer_factory.hpp:77] Creating layer inception_5a/output_inception_5a/output_0_split
I0403 18:46:15.416172 23502 net.cpp:91] Creating Layer inception_5a/output_inception_5a/output_0_split
I0403 18:46:15.416185 23502 net.cpp:425] inception_5a/output_inception_5a/output_0_split <- inception_5a/output
I0403 18:46:15.416204 23502 net.cpp:399] inception_5a/output_inception_5a/output_0_split -> inception_5a/output_inception_5a/output_0_split_0
I0403 18:46:15.416225 23502 net.cpp:399] inception_5a/output_inception_5a/output_0_split -> inception_5a/output_inception_5a/output_0_split_1
I0403 18:46:15.416245 23502 net.cpp:399] inception_5a/output_inception_5a/output_0_split -> inception_5a/output_inception_5a/output_0_split_2
I0403 18:46:15.416265 23502 net.cpp:399] inception_5a/output_inception_5a/output_0_split -> inception_5a/output_inception_5a/output_0_split_3
I0403 18:46:15.416375 23502 net.cpp:141] Setting up inception_5a/output_inception_5a/output_0_split
I0403 18:46:15.416399 23502 net.cpp:148] Top shape: 24 832 7 7 (978432)
I0403 18:46:15.416414 23502 net.cpp:148] Top shape: 24 832 7 7 (978432)
I0403 18:46:15.416427 23502 net.cpp:148] Top shape: 24 832 7 7 (978432)
I0403 18:46:15.416441 23502 net.cpp:148] Top shape: 24 832 7 7 (978432)
I0403 18:46:15.416455 23502 net.cpp:156] Memory required for data: 1325241888
I0403 18:46:15.416468 23502 layer_factory.hpp:77] Creating layer inception_5b/1x1
I0403 18:46:15.416502 23502 net.cpp:91] Creating Layer inception_5b/1x1
I0403 18:46:15.416524 23502 net.cpp:425] inception_5b/1x1 <- inception_5a/output_inception_5a/output_0_split_0
I0403 18:46:15.416548 23502 net.cpp:399] inception_5b/1x1 -> inception_5b/1x1
I0403 18:46:15.420323 23502 net.cpp:141] Setting up inception_5b/1x1
I0403 18:46:15.420352 23502 net.cpp:148] Top shape: 24 384 7 7 (451584)
I0403 18:46:15.420367 23502 net.cpp:156] Memory required for data: 1327048224
I0403 18:46:15.420385 23502 layer_factory.hpp:77] Creating layer inception_5b/relu_1x1
I0403 18:46:15.420405 23502 net.cpp:91] Creating Layer inception_5b/relu_1x1
I0403 18:46:15.420423 23502 net.cpp:425] inception_5b/relu_1x1 <- inception_5b/1x1
I0403 18:46:15.420440 23502 net.cpp:386] inception_5b/relu_1x1 -> inception_5b/1x1 (in-place)
I0403 18:46:15.420754 23502 net.cpp:141] Setting up inception_5b/relu_1x1
I0403 18:46:15.420780 23502 net.cpp:148] Top shape: 24 384 7 7 (451584)
I0403 18:46:15.420795 23502 net.cpp:156] Memory required for data: 1328854560
I0403 18:46:15.420810 23502 layer_factory.hpp:77] Creating layer inception_5b/3x3_reduce
I0403 18:46:15.420831 23502 net.cpp:91] Creating Layer inception_5b/3x3_reduce
I0403 18:46:15.420850 23502 net.cpp:425] inception_5b/3x3_reduce <- inception_5a/output_inception_5a/output_0_split_1
I0403 18:46:15.420872 23502 net.cpp:399] inception_5b/3x3_reduce -> inception_5b/3x3_reduce
I0403 18:46:15.423566 23502 net.cpp:141] Setting up inception_5b/3x3_reduce
I0403 18:46:15.423595 23502 net.cpp:148] Top shape: 24 192 7 7 (225792)
I0403 18:46:15.423611 23502 net.cpp:156] Memory required for data: 1329757728
I0403 18:46:15.423629 23502 layer_factory.hpp:77] Creating layer inception_5b/relu_3x3_reduce
I0403 18:46:15.423650 23502 net.cpp:91] Creating Layer inception_5b/relu_3x3_reduce
I0403 18:46:15.423669 23502 net.cpp:425] inception_5b/relu_3x3_reduce <- inception_5b/3x3_reduce
I0403 18:46:15.423687 23502 net.cpp:386] inception_5b/relu_3x3_reduce -> inception_5b/3x3_reduce (in-place)
I0403 18:46:15.423882 23502 net.cpp:141] Setting up inception_5b/relu_3x3_reduce
I0403 18:46:15.423908 23502 net.cpp:148] Top shape: 24 192 7 7 (225792)
I0403 18:46:15.423923 23502 net.cpp:156] Memory required for data: 1330660896
I0403 18:46:15.423938 23502 layer_factory.hpp:77] Creating layer inception_5b/3x3
I0403 18:46:15.423959 23502 net.cpp:91] Creating Layer inception_5b/3x3
I0403 18:46:15.423976 23502 net.cpp:425] inception_5b/3x3 <- inception_5b/3x3_reduce
I0403 18:46:15.423995 23502 net.cpp:399] inception_5b/3x3 -> inception_5b/3x3
I0403 18:46:15.430810 23502 net.cpp:141] Setting up inception_5b/3x3
I0403 18:46:15.430840 23502 net.cpp:148] Top shape: 24 384 7 7 (451584)
I0403 18:46:15.430855 23502 net.cpp:156] Memory required for data: 1332467232
I0403 18:46:15.430873 23502 layer_factory.hpp:77] Creating layer inception_5b/relu_3x3
I0403 18:46:15.430893 23502 net.cpp:91] Creating Layer inception_5b/relu_3x3
I0403 18:46:15.430910 23502 net.cpp:425] inception_5b/relu_3x3 <- inception_5b/3x3
I0403 18:46:15.430928 23502 net.cpp:386] inception_5b/relu_3x3 -> inception_5b/3x3 (in-place)
I0403 18:46:15.431233 23502 net.cpp:141] Setting up inception_5b/relu_3x3
I0403 18:46:15.431260 23502 net.cpp:148] Top shape: 24 384 7 7 (451584)
I0403 18:46:15.431275 23502 net.cpp:156] Memory required for data: 1334273568
I0403 18:46:15.431289 23502 layer_factory.hpp:77] Creating layer inception_5b/5x5_reduce
I0403 18:46:15.431327 23502 net.cpp:91] Creating Layer inception_5b/5x5_reduce
I0403 18:46:15.431347 23502 net.cpp:425] inception_5b/5x5_reduce <- inception_5a/output_inception_5a/output_0_split_2
I0403 18:46:15.431370 23502 net.cpp:399] inception_5b/5x5_reduce -> inception_5b/5x5_reduce
I0403 18:46:15.432668 23502 net.cpp:141] Setting up inception_5b/5x5_reduce
I0403 18:46:15.432695 23502 net.cpp:148] Top shape: 24 48 7 7 (56448)
I0403 18:46:15.432711 23502 net.cpp:156] Memory required for data: 1334499360
I0403 18:46:15.432729 23502 layer_factory.hpp:77] Creating layer inception_5b/relu_5x5_reduce
I0403 18:46:15.432749 23502 net.cpp:91] Creating Layer inception_5b/relu_5x5_reduce
I0403 18:46:15.432766 23502 net.cpp:425] inception_5b/relu_5x5_reduce <- inception_5b/5x5_reduce
I0403 18:46:15.432783 23502 net.cpp:386] inception_5b/relu_5x5_reduce -> inception_5b/5x5_reduce (in-place)
I0403 18:46:15.433159 23502 net.cpp:141] Setting up inception_5b/relu_5x5_reduce
I0403 18:46:15.433187 23502 net.cpp:148] Top shape: 24 48 7 7 (56448)
I0403 18:46:15.433202 23502 net.cpp:156] Memory required for data: 1334725152
I0403 18:46:15.433215 23502 layer_factory.hpp:77] Creating layer inception_5b/5x5
I0403 18:46:15.433235 23502 net.cpp:91] Creating Layer inception_5b/5x5
I0403 18:46:15.433253 23502 net.cpp:425] inception_5b/5x5 <- inception_5b/5x5_reduce
I0403 18:46:15.433271 23502 net.cpp:399] inception_5b/5x5 -> inception_5b/5x5
I0403 18:46:15.435348 23502 net.cpp:141] Setting up inception_5b/5x5
I0403 18:46:15.435377 23502 net.cpp:148] Top shape: 24 128 7 7 (150528)
I0403 18:46:15.435394 23502 net.cpp:156] Memory required for data: 1335327264
I0403 18:46:15.435411 23502 layer_factory.hpp:77] Creating layer inception_5b/relu_5x5
I0403 18:46:15.435428 23502 net.cpp:91] Creating Layer inception_5b/relu_5x5
I0403 18:46:15.435444 23502 net.cpp:425] inception_5b/relu_5x5 <- inception_5b/5x5
I0403 18:46:15.435462 23502 net.cpp:386] inception_5b/relu_5x5 -> inception_5b/5x5 (in-place)
I0403 18:46:15.435675 23502 net.cpp:141] Setting up inception_5b/relu_5x5
I0403 18:46:15.435700 23502 net.cpp:148] Top shape: 24 128 7 7 (150528)
I0403 18:46:15.435714 23502 net.cpp:156] Memory required for data: 1335929376
I0403 18:46:15.435729 23502 layer_factory.hpp:77] Creating layer inception_5b/pool
I0403 18:46:15.435747 23502 net.cpp:91] Creating Layer inception_5b/pool
I0403 18:46:15.435762 23502 net.cpp:425] inception_5b/pool <- inception_5a/output_inception_5a/output_0_split_3
I0403 18:46:15.435783 23502 net.cpp:399] inception_5b/pool -> inception_5b/pool
I0403 18:46:15.435856 23502 net.cpp:141] Setting up inception_5b/pool
I0403 18:46:15.435883 23502 net.cpp:148] Top shape: 24 832 7 7 (978432)
I0403 18:46:15.435897 23502 net.cpp:156] Memory required for data: 1339843104
I0403 18:46:15.435911 23502 layer_factory.hpp:77] Creating layer inception_5b/pool_proj
I0403 18:46:15.435932 23502 net.cpp:91] Creating Layer inception_5b/pool_proj
I0403 18:46:15.435951 23502 net.cpp:425] inception_5b/pool_proj <- inception_5b/pool
I0403 18:46:15.435971 23502 net.cpp:399] inception_5b/pool_proj -> inception_5b/pool_proj
I0403 18:46:15.438277 23502 net.cpp:141] Setting up inception_5b/pool_proj
I0403 18:46:15.438304 23502 net.cpp:148] Top shape: 24 128 7 7 (150528)
I0403 18:46:15.438319 23502 net.cpp:156] Memory required for data: 1340445216
I0403 18:46:15.438336 23502 layer_factory.hpp:77] Creating layer inception_5b/relu_pool_proj
I0403 18:46:15.438356 23502 net.cpp:91] Creating Layer inception_5b/relu_pool_proj
I0403 18:46:15.438374 23502 net.cpp:425] inception_5b/relu_pool_proj <- inception_5b/pool_proj
I0403 18:46:15.438390 23502 net.cpp:386] inception_5b/relu_pool_proj -> inception_5b/pool_proj (in-place)
I0403 18:46:15.438686 23502 net.cpp:141] Setting up inception_5b/relu_pool_proj
I0403 18:46:15.438712 23502 net.cpp:148] Top shape: 24 128 7 7 (150528)
I0403 18:46:15.438727 23502 net.cpp:156] Memory required for data: 1341047328
I0403 18:46:15.438741 23502 layer_factory.hpp:77] Creating layer inception_5b/output
I0403 18:46:15.438760 23502 net.cpp:91] Creating Layer inception_5b/output
I0403 18:46:15.438791 23502 net.cpp:425] inception_5b/output <- inception_5b/1x1
I0403 18:46:15.438807 23502 net.cpp:425] inception_5b/output <- inception_5b/3x3
I0403 18:46:15.438822 23502 net.cpp:425] inception_5b/output <- inception_5b/5x5
I0403 18:46:15.438838 23502 net.cpp:425] inception_5b/output <- inception_5b/pool_proj
I0403 18:46:15.438854 23502 net.cpp:399] inception_5b/output -> inception_5b/output
I0403 18:46:15.438907 23502 net.cpp:141] Setting up inception_5b/output
I0403 18:46:15.438930 23502 net.cpp:148] Top shape: 24 1024 7 7 (1204224)
I0403 18:46:15.438943 23502 net.cpp:156] Memory required for data: 1345864224
I0403 18:46:15.438957 23502 layer_factory.hpp:77] Creating layer pool5/7x7_s1
I0403 18:46:15.438974 23502 net.cpp:91] Creating Layer pool5/7x7_s1
I0403 18:46:15.438989 23502 net.cpp:425] pool5/7x7_s1 <- inception_5b/output
I0403 18:46:15.439008 23502 net.cpp:399] pool5/7x7_s1 -> pool5/7x7_s1
I0403 18:46:15.439220 23502 net.cpp:141] Setting up pool5/7x7_s1
I0403 18:46:15.439247 23502 net.cpp:148] Top shape: 24 1024 1 1 (24576)
I0403 18:46:15.439261 23502 net.cpp:156] Memory required for data: 1345962528
I0403 18:46:15.439275 23502 layer_factory.hpp:77] Creating layer pool5/drop_7x7_s1
I0403 18:46:15.439304 23502 net.cpp:91] Creating Layer pool5/drop_7x7_s1
I0403 18:46:15.439321 23502 net.cpp:425] pool5/drop_7x7_s1 <- pool5/7x7_s1
I0403 18:46:15.439337 23502 net.cpp:386] pool5/drop_7x7_s1 -> pool5/7x7_s1 (in-place)
I0403 18:46:15.439388 23502 net.cpp:141] Setting up pool5/drop_7x7_s1
I0403 18:46:15.439411 23502 net.cpp:148] Top shape: 24 1024 1 1 (24576)
I0403 18:46:15.439425 23502 net.cpp:156] Memory required for data: 1346060832
I0403 18:46:15.439440 23502 layer_factory.hpp:77] Creating layer loss3/classifier_plantvillage
I0403 18:46:15.439460 23502 net.cpp:91] Creating Layer loss3/classifier_plantvillage
I0403 18:46:15.439476 23502 net.cpp:425] loss3/classifier_plantvillage <- pool5/7x7_s1
I0403 18:46:15.439494 23502 net.cpp:399] loss3/classifier_plantvillage -> loss3/classifier_plantvillage
I0403 18:46:15.439929 23502 net.cpp:141] Setting up loss3/classifier_plantvillage
I0403 18:46:15.439951 23502 net.cpp:148] Top shape: 24 38 (912)
I0403 18:46:15.439965 23502 net.cpp:156] Memory required for data: 1346064480
I0403 18:46:15.439982 23502 layer_factory.hpp:77] Creating layer loss3/classifier_plantvillage_loss3/classifier_plantvillage_0_split
I0403 18:46:15.440001 23502 net.cpp:91] Creating Layer loss3/classifier_plantvillage_loss3/classifier_plantvillage_0_split
I0403 18:46:15.440016 23502 net.cpp:425] loss3/classifier_plantvillage_loss3/classifier_plantvillage_0_split <- loss3/classifier_plantvillage
I0403 18:46:15.440037 23502 net.cpp:399] loss3/classifier_plantvillage_loss3/classifier_plantvillage_0_split -> loss3/classifier_plantvillage_loss3/classifier_plantvillage_0_split_0
I0403 18:46:15.440057 23502 net.cpp:399] loss3/classifier_plantvillage_loss3/classifier_plantvillage_0_split -> loss3/classifier_plantvillage_loss3/classifier_plantvillage_0_split_1
I0403 18:46:15.440078 23502 net.cpp:399] loss3/classifier_plantvillage_loss3/classifier_plantvillage_0_split -> loss3/classifier_plantvillage_loss3/classifier_plantvillage_0_split_2
I0403 18:46:15.440096 23502 net.cpp:399] loss3/classifier_plantvillage_loss3/classifier_plantvillage_0_split -> loss3/classifier_plantvillage_loss3/classifier_plantvillage_0_split_3
I0403 18:46:15.440196 23502 net.cpp:141] Setting up loss3/classifier_plantvillage_loss3/classifier_plantvillage_0_split
I0403 18:46:15.440219 23502 net.cpp:148] Top shape: 24 38 (912)
I0403 18:46:15.440234 23502 net.cpp:148] Top shape: 24 38 (912)
I0403 18:46:15.440249 23502 net.cpp:148] Top shape: 24 38 (912)
I0403 18:46:15.440263 23502 net.cpp:148] Top shape: 24 38 (912)
I0403 18:46:15.440275 23502 net.cpp:156] Memory required for data: 1346079072
I0403 18:46:15.440289 23502 layer_factory.hpp:77] Creating layer loss1/loss
I0403 18:46:15.440310 23502 net.cpp:91] Creating Layer loss1/loss
I0403 18:46:15.440326 23502 net.cpp:425] loss1/loss <- loss1/classifier_plantvillage_loss1/classifier_plantvillage_0_split_0
I0403 18:46:15.440356 23502 net.cpp:425] loss1/loss <- label_data_1_split_0
…
