…
I0403 18:03:08.862917 21191 net.cpp:313] The NetState phase (1) differed from the phase (0) specified by a rule in layer data
I0403 18:03:08.865216 21191 net.cpp:49] Initializing net from parameters: 
state {
  phase: TEST
}
layer {
  name: "data"
  type: "Data"
  top: "data"
  top: "label"
  include {
    phase: TEST
  }
  transform_param {
    mirror: false
    crop_size: 224
    mean_file: "/home/mohanty/data/final_dataset/lmdb/segmented-40-60/mean.binaryproto"
  }
  data_param {
    source: "/home/mohanty/data/final_dataset/lmdb/segmented-40-60/test_db"
    batch_size: 24
    backend: LMDB
  }
}
layer {
  name: "conv1/7x7_s2"
  type: "Convolution"
  bottom: "data"
  top: "conv1/7x7_s2"
  param {
    lr_mult: 1
    decay_mult: 1
  }
  param {
    lr_mult: 2
    decay_mult: 0
  }
  convolution_param {
    num_output: 64
    pad: 3
    kernel_size: 7
    stride: 2
    weight_filler {
      type: "xavier"
      std: 0.1
    }
    bias_filler {
      type: "constant"
      value: 0.2
    }
  }
}
layer {
  name: "conv1/relu_7x7"
  type: "ReLU"
  bottom: "conv1/7x7_s2"
  top: "conv1/7x7_s2"
}
layer {
  name: "pool1/3x3_s2"
  type: "Pooling"
  bottom: "conv1/7x7_s2"
  top: "pool1/3x3_s2"
  pooling_param {
    pool: MAX
    kernel_size: 3
    stride: 2
  }
}
layer {
  name: "pool1/norm1"
  type: "LRN"
  bottom: "pool1/3x3_s2"
  top: "pool1/norm1"
  lrn_param {
    local_size: 5
    alpha: 0.0001
    beta: 0.75
  }
}
layer {
  name: "conv2/3x3_reduce"
  type: "Convolution"
  bottom: "pool1/norm1"
  top: "conv2/3x3_reduce"
  param {
    lr_mult: 1
    decay_mult: 1
  }
  param {
    lr_mult: 2
    decay_mult: 0
  }
  convolution_param {
    num_output: 64
    kernel_size: 1
    weight_filler {
      type: "xavier"
      std: 0.1
    }
    bias_filler {
      type: "constant"
      value: 0.2
    }
  }
}
layer {
  name: "conv2/relu_3x3_reduce"
  type: "ReLU"
  bottom: "conv2/3x3_reduce"
  top: "conv2/3x3_reduce"
}
layer {
  name: "conv2/3x3"
  type: "Convolution"
  bottom: "conv2/3x3_reduce"
  top: "conv2/3x3"
  param {
    lr_mult: 1
    decay_mult: 1
  }
  param {
    lr_mult: 2
    decay_mult: 0
  }
  convolution_param {
    num_output: 192
    pad: 1
    kernel_size: 3
    weight_filler {
      type: "xavier"
      std: 0.03
    }
    bias_filler {
      type: "constant"
      value: 0.2
    }
  }
}
layer {
  name: "conv2/relu_3x3"
  type: "ReLU"
  bottom: "conv2/3x3"
  top: "conv2/3x3"
}
layer {
  name: "conv2/norm2"
  type: "LRN"
  bottom: "conv2/3x3"
  top: "conv2/norm2"
  lrn_param {
    local_size: 5
    alpha: 0.0001
    beta: 0.75
  }
}
layer {
  name: "pool2/3x3_s2"
  type: "Pooling"
  bottom: "conv2/norm2"
  top: "pool2/3x3_s2"
  pooling_param {
    pool: MAX
    kernel_size: 3
    stride: 2
  }
}
layer {
  name: "inception_3a/1x1"
  type: "Convolution"
  bottom: "pool2/3x3_s2"
  top: "inception_3a/1x1"
  param {
    lr_mult: 1
    decay_mult: 1
  }
  param {
    lr_mult: 2
    decay_mult: 0
  }
  convolution_param {
    num_output: 64
    kernel_size: 1
    weight_filler {
      type: "xavier"
      std: 0.03
    }
    bias_filler {
      type: "constant"
      value: 0.2
    }
  }
}
layer {
  name: "inception_3a/relu_1x1"
  type: "ReLU"
  bottom: "inception_3a/1x1"
  top: "inception_3a/1x1"
}
layer {
  name: "inception_3a/3x3_reduce"
  type: "Convolution"
  bottom: "pool2/3x3_s2"
  top: "inception_3a/3x3_reduce"
  param {
    lr_mult: 1
    decay_mult: 1
  }
  param {
    lr_mult: 2
    decay_mult: 0
  }
  convolution_param {
    num_output: 96
    kernel_size: 1
    weight_filler {
      type: "xavier"
      std: 0.09
    }
    bias_filler {
      type: "constant"
      value: 0.2
    }
  }
}
layer {
  name: "inception_3a/relu_3x3_reduce"
  type: "ReLU"
  bottom: "inception_3a/3x3_reduce"
  top: "inception_3a/3x3_reduce"
}
layer {
  name: "inception_3a/3x3"
  type: "Convolution"
  bottom: "inception_3a/3x3_reduce"
  top: "inception_3a/3x3"
  param {
    lr_mult: 1
    decay_mult: 1
  }
  param {
    lr_mult: 2
    decay_mult: 0
  }
  convolution_param {
    num_output: 128
    pad: 1
    kernel_size: 3
    weight_filler {
      type: "xavier"
      std: 0.03
    }
    bias_filler {
      type: "constant"
      value: 0.2
    }
  }
}
layer {
  name: "inception_3a/relu_3x3"
  type: "ReLU"
  bottom: "inception_3a/3x3"
  top: "inception_3a/3x3"
}
layer {
  name: "inception_3a/5x5_reduce"
  type: "Convolution"
  bottom: "pool2/3x3_s2"
  top: "inception_3a/5x5_reduce"
  param {
    lr_mult: 1
    decay_mult: 1
  }
  param {
    lr_mult: 2
    decay_mult: 0
  }
  convolution_param {
    num_output: 16
    kernel_size: 1
    weight_filler {
      type: "xavier"
      std: 0.2
    }
    bias_filler {
      type: "constant"
      value: 0.2
    }
  }
}
layer {
  name: "inception_3a/relu_5x5_reduce"
  type: "ReLU"
  bottom: "inception_3a/5x5_reduce"
  top: "inception_3a/5x5_reduce"
}
layer {
  name: "inception_3a/5x5"
  type: "Convolution"
  bottom: "inception_3a/5x5_reduce"
  top: "inception_3a/5x5"
  param {
    lr_mult: 1
    decay_mult: 1
  }
  param {
    lr_mult: 2
    decay_mult: 0
  }
  convolution_param {
    num_output: 32
    pad: 2
    kernel_size: 5
    weight_filler {
      type: "xavier"
      std: 0.03
    }
    bias_filler {
      type: "constant"
      value: 0.2
    }
  }
}
layer {
  name: "inception_3a/relu_5x5"
  type: "ReLU"
  bottom: "inception_3a/5x5"
  top: "inception_3a/5x5"
}
layer {
  name: "inception_3a/pool"
  type: "Pooling"
  bottom: "pool2/3x3_s2"
  top: "inception_3a/pool"
  pooling_param {
    pool: MAX
    kernel_size: 3
    stride: 1
    pad: 1
  }
}
layer {
  name: "inception_3a/pool_proj"
  type: "Convolution"
  bottom: "inception_3a/pool"
  top: "inception_3a/pool_proj"
  param {
    lr_mult: 1
    decay_mult: 1
  }
  param {
    lr_mult: 2
    decay_mult: 0
  }
  convolution_param {
    num_output: 32
    kernel_size: 1
    weight_filler {
      type: "xavier"
      std: 0.1
    }
    bias_filler {
      type: "constant"
      value: 0.2
    }
  }
}
layer {
  name: "inception_3a/relu_pool_proj"
  type: "ReLU"
  bottom: "inception_3a/pool_proj"
  top: "inception_3a/pool_proj"
}
layer {
  name: "inception_3a/output"
  type: "Concat"
  bottom: "inception_3a/1x1"
  bottom: "inception_3a/3x3"
  bottom: "inception_3a/5x5"
  bottom: "inception_3a/pool_proj"
  top: "inception_3a/output"
}
layer {
  name: "inception_3b/1x1"
  type: "Convolution"
  bottom: "inception_3a/output"
  top: "inception_3b/1x1"
  param {
    lr_mult: 1
    decay_mult: 1
  }
  param {
    lr_mult: 2
    decay_mult: 0
  }
  convolution_param {
    num_output: 128
    kernel_size: 1
    weight_filler {
      type: "xavier"
      std: 0.03
    }
    bias_filler {
      type: "constant"
      value: 0.2
    }
  }
}
layer {
  name: "inception_3b/relu_1x1"
  type: "ReLU"
  bottom: "inception_3b/1x1"
  top: "inception_3b/1x1"
}
layer {
  name: "inception_3b/3x3_reduce"
  type: "Convolution"
  bottom: "inception_3a/output"
  top: "inception_3b/3x3_reduce"
  param {
    lr_mult: 1
    decay_mult: 1
  }
  param {
    lr_mult: 2
    decay_mult: 0
  }
  convolution_param {
    num_output: 128
    kernel_size: 1
    weight_filler {
      type: "xavier"
      std: 0.09
    }
    bias_filler {
      type: "constant"
      value: 0.2
    }
  }
}
layer {
  name: "inception_3b/relu_3x3_reduce"
  type: "ReLU"
  bottom: "inception_3b/3x3_reduce"
  top: "inception_3b/3x3_reduce"
}
layer {
  name: "inception_3b/3x3"
  type: "Convolution"
  bottom: "inception_3b/3x3_reduce"
  top: "inception_3b/3x3"
  param {
    lr_mult: 1
    decay_mult: 1
  }
  param {
    lr_mult: 2
    decay_mult: 0
  }
  convolution_param {
    num_output: 192
    pad: 1
    kernel_size: 3
    weight_filler {
      type: "xavier"
      std: 0.03
    }
    bias_filler {
      type: "constant"
      value: 0.2
    }
  }
}
layer {
  name: "inception_3b/relu_3x3"
  type: "ReLU"
  bottom: "inception_3b/3x3"
  top: "inception_3b/3x3"
}
layer {
  name: "inception_3b/5x5_reduce"
  type: "Convolution"
  bottom: "inception_3a/output"
  top: "inception_3b/5x5_reduce"
  param {
    lr_mult: 1
    decay_mult: 1
  }
  param {
    lr_mult: 2
    decay_mult: 0
  }
  convolution_param {
    num_output: 32
    kernel_size: 1
    weight_filler {
      type: "xavier"
      std: 0.2
    }
    bias_filler {
      type: "constant"
      value: 0.2
    }
  }
}
layer {
  name: "inception_3b/relu_5x5_reduce"
  type: "ReLU"
  bottom: "inception_3b/5x5_reduce"
  top: "inception_3b/5x5_reduce"
}
layer {
  name: "inception_3b/5x5"
  type: "Convolution"
  bottom: "inception_3b/5x5_reduce"
  top: "inception_3b/5x5"
  param {
    lr_mult: 1
    decay_mult: 1
  }
  param {
    lr_mult: 2
    decay_mult: 0
  }
  convolution_param {
    num_output: 96
    pad: 2
    kernel_size: 5
    weight_filler {
      type: "xavier"
      std: 0.03
    }
    bias_filler {
      type: "constant"
      value: 0.2
    }
  }
}
layer {
  name: "inception_3b/relu_5x5"
  type: "ReLU"
  bottom: "inception_3b/5x5"
  top: "inception_3b/5x5"
}
layer {
  name: "inception_3b/pool"
  type: "Pooling"
  bottom: "inception_3a/output"
  top: "inception_3b/pool"
  pooling_param {
    pool: MAX
    kernel_size: 3
    stride: 1
    pad: 1
  }
}
layer {
  name: "inception_3b/pool_proj"
  type: "Convolution"
  bottom: "inception_3b/pool"
  top: "inception_3b/pool_proj"
  param {
    lr_mult: 1
    decay_mult: 1
  }
  param {
    lr_mult: 2
    decay_mult: 0
  }
  convolution_param {
    num_output: 64
    kernel_size: 1
    weight_filler {
      type: "xavier"
      std: 0.1
    }
    bias_filler {
      type: "constant"
      value: 0.2
    }
  }
}
layer {
  name: "inception_3b/relu_pool_proj"
  type: "ReLU"
  bottom: "inception_3b/pool_proj"
  top: "inception_3b/pool_proj"
}
layer {
  name: "inception_3b/output"
  type: "Concat"
  bottom: "inception_3b/1x1"
  bottom: "inception_3b/3x3"
  bottom: "inception_3b/5x5"
  bottom: "inception_3b/pool_proj"
  top: "inception_3b/output"
}
layer {
  name: "pool3/3x3_s2"
  type: "Pooling"
  bottom: "inception_3b/output"
  top: "pool3/3x3_s2"
  pooling_param {
    pool: MAX
    kernel_size: 3
    stride: 2
  }
}
layer {
  name: "inception_4a/1x1"
  type: "Convolution"
  bottom: "pool3/3x3_s2"
  top: "inception_4a/1x1"
  param {
    lr_mult: 1
    decay_mult: 1
  }
  param {
    lr_mult: 2
    decay_mult: 0
  }
  convolution_param {
    num_output: 192
    kernel_size: 1
    weight_filler {
      type: "xavier"
      std: 0.03
    }
    bias_filler {
      type: "constant"
      value: 0.2
    }
  }
}
layer {
  name: "inception_4a/relu_1x1"
  type: "ReLU"
  bottom: "inception_4a/1x1"
  top: "inception_4a/1x1"
}
layer {
  name: "inception_4a/3x3_reduce"
  type: "Convolution"
  bottom: "pool3/3x3_s2"
  top: "inception_4a/3x3_reduce"
  param {
    lr_mult: 1
    decay_mult: 1
  }
  param {
    lr_mult: 2
    decay_mult: 0
  }
  convolution_param {
    num_output: 96
    kernel_size: 1
    weight_filler {
      type: "xavier"
      std: 0.09
    }
    bias_filler {
      type: "constant"
      value: 0.2
    }
  }
}
layer {
  name: "inception_4a/relu_3x3_reduce"
  type: "ReLU"
  bottom: "inception_4a/3x3_reduce"
  top: "inception_4a/3x3_reduce"
}
layer {
  name: "inception_4a/3x3"
  type: "Convolution"
  bottom: "inception_4a/3x3_reduce"
  top: "inception_4a/3x3"
  param {
    lr_mult: 1
    decay_mult: 1
  }
  param {
    lr_mult: 2
    decay_mult: 0
  }
  convolution_param {
    num_output: 208
    pad: 1
    kernel_size: 3
    weight_filler {
      type: "xavier"
      std: 0.03
    }
    bias_filler {
      type: "constant"
      value: 0.2
    }
  }
}
layer {
  name: "inception_4a/relu_3x3"
  type: "ReLU"
  bottom: "inception_4a/3x3"
  top: "inception_4a/3x3"
}
layer {
  name: "inception_4a/5x5_reduce"
  type: "Convolution"
  bottom: "pool3/3x3_s2"
  top: "inception_4a/5x5_reduce"
  param {
    lr_mult: 1
    decay_mult: 1
  }
  param {
    lr_mult: 2
    decay_mult: 0
  }
  convolution_param {
    num_output: 16
    kernel_size: 1
    weight_filler {
      type: "xavier"
      std: 0.2
    }
    bias_filler {
      type: "constant"
      value: 0.2
    }
  }
}
layer {
  name: "inception_4a/relu_5x5_reduce"
  type: "ReLU"
  bottom: "inception_4a/5x5_reduce"
  top: "inception_4a/5x5_reduce"
}
layer {
  name: "inception_4a/5x5"
  type: "Convolution"
  bottom: "inception_4a/5x5_reduce"
  top: "inception_4a/5x5"
  param {
    lr_mult: 1
    decay_mult: 1
  }
  param {
    lr_mult: 2
    decay_mult: 0
  }
  convolution_param {
    num_output: 48
    pad: 2
    kernel_size: 5
    weight_filler {
      type: "xavier"
      std: 0.03
    }
    bias_filler {
      type: "constant"
      value: 0.2
    }
  }
}
layer {
  name: "inception_4a/relu_5x5"
  type: "ReLU"
  bottom: "inception_4a/5x5"
  top: "inception_4a/5x5"
}
layer {
  name: "inception_4a/pool"
  type: "Pooling"
  bottom: "pool3/3x3_s2"
  top: "inception_4a/pool"
  pooling_param {
    pool: MAX
    kernel_size: 3
    stride: 1
    pad: 1
  }
}
layer {
  name: "inception_4a/pool_proj"
  type: "Convolution"
  bottom: "inception_4a/pool"
  top: "inception_4a/pool_proj"
  param {
    lr_mult: 1
    decay_mult: 1
  }
  param {
    lr_mult: 2
    decay_mult: 0
  }
  convolution_param {
    num_output: 64
    kernel_size: 1
    weight_filler {
      type: "xavier"
      std: 0.1
    }
    bias_filler {
      type: "constant"
      value: 0.2
    }
  }
}
layer {
  name: "inception_4a/relu_pool_proj"
  type: "ReLU"
  bottom: "inception_4a/pool_proj"
  top: "inception_4a/pool_proj"
}
layer {
  name: "inception_4a/output"
  type: "Concat"
  bottom: "inception_4a/1x1"
  bottom: "inception_4a/3x3"
  bottom: "inception_4a/5x5"
  bottom: "inception_4a/pool_proj"
  top: "inception_4a/output"
}
layer {
  name: "loss1/ave_pool"
  type: "Pooling"
  bottom: "inception_4a/output"
  top: "loss1/ave_pool"
  pooling_param {
    pool: AVE
    kernel_size: 5
    stride: 3
  }
}
layer {
  name: "loss1/conv"
  type: "Convolution"
  bottom: "loss1/ave_pool"
  top: "loss1/conv"
  param {
    lr_mult: 1
    decay_mult: 1
  }
  param {
    lr_mult: 2
    decay_mult: 0
  }
  convolution_param {
    num_output: 128
    kernel_size: 1
    weight_filler {
      type: "xavier"
      std: 0.08
    }
    bias_filler {
      type: "constant"
      value: 0.2
    }
  }
}
layer {
  name: "loss1/relu_conv"
  type: "ReLU"
  bottom: "loss1/conv"
  top: "loss1/conv"
}
layer {
  name: "loss1/fc"
  type: "InnerProduct"
  bottom: "loss1/conv"
  top: "loss1/fc"
  param {
    lr_mult: 1
    decay_mult: 1
  }
  param {
    lr_mult: 2
    decay_mult: 0
  }
  inner_product_param {
    num_output: 1024
    weight_filler {
      type: "xavier"
      std: 0.02
    }
    bias_filler {
      type: "constant"
      value: 0.2
    }
  }
}
layer {
  name: "loss1/relu_fc"
  type: "ReLU"
  bottom: "loss1/fc"
  top: "loss1/fc"
}
layer {
  name: "loss1/drop_fc"
  type: "Dropout"
  bottom: "loss1/fc"
  top: "loss1/fc"
  dropout_param {
    dropout_ratio: 0.7
  }
}
layer {
  name: "loss1/classifier_plantvillage"
  type: "InnerProduct"
  bottom: "loss1/fc"
  top: "loss1/classifier_plantvillage"
  param {
    lr_mult: 1
    decay_mult: 1
  }
  param {
    lr_mult: 2
    decay_mult: 0
  }
  inner_product_param {
    num_output: 38
    weight_filler {
      type: "xavier"
      std: 0.0009765625
    }
    bias_filler {
      type: "constant"
      value: 0
    }
  }
}
layer {
  name: "inception_4b/1x1"
  type: "Convolution"
  bottom: "inception_4a/output"
  top: "inception_4b/1x1"
  param {
    lr_mult: 1
    decay_mult: 1
  }
  param {
    lr_mult: 2
    decay_mult: 0
  }
  convolution_param {
    num_output: 160
    kernel_size: 1
    weight_filler {
      type: "xavier"
      std: 0.03
    }
    bias_filler {
      type: "constant"
      value: 0.2
    }
  }
}
layer {
  name: "inception_4b/relu_1x1"
  type: "ReLU"
  bottom: "inception_4b/1x1"
  top: "inception_4b/1x1"
}
layer {
  name: "inception_4b/3x3_reduce"
  type: "Convolution"
  bottom: "inception_4a/output"
  top: "inception_4b/3x3_reduce"
  param {
    lr_mult: 1
    decay_mult: 1
  }
  param {
    lr_mult: 2
    decay_mult: 0
  }
  convolution_param {
    num_output: 112
    kernel_size: 1
    weight_filler {
      type: "xavier"
      std: 0.09
    }
    bias_filler {
      type: "constant"
      value: 0.2
    }
  }
}
layer {
  name: "inception_4b/relu_3x3_reduce"
  type: "ReLU"
  bottom: "inception_4b/3x3_reduce"
  top: "inception_4b/3x3_reduce"
}
layer {
  name: "inception_4b/3x3"
  type: "Convolution"
  bottom: "inception_4b/3x3_reduce"
  top: "inception_4b/3x3"
  param {
    lr_mult: 1
    decay_mult: 1
  }
  param {
    lr_mult: 2
    decay_mult: 0
  }
  convolution_param {
    num_output: 224
    pad: 1
    kernel_size: 3
    weight_filler {
      type: "xavier"
      std: 0.03
    }
    bias_filler {
      type: "constant"
      value: 0.2
    }
  }
}
layer {
  name: "inception_4b/relu_3x3"
  type: "ReLU"
  bottom: "inception_4b/3x3"
  top: "inception_4b/3x3"
}
layer {
  name: "inception_4b/5x5_reduce"
  type: "Convolution"
  bottom: "inception_4a/output"
  top: "inception_4b/5x5_reduce"
  param {
    lr_mult: 1
    decay_mult: 1
  }
  param {
    lr_mult: 2
    decay_mult: 0
  }
  convolution_param {
    num_output: 24
    kernel_size: 1
    weight_filler {
      type: "xavier"
      std: 0.2
    }
    bias_filler {
      type: "constant"
      value: 0.2
    }
  }
}
layer {
  name: "inception_4b/relu_5x5_reduce"
  type: "ReLU"
  bottom: "inception_4b/5x5_reduce"
  top: "inception_4b/5x5_reduce"
}
layer {
  name: "inception_4b/5x5"
  type: "Convolution"
  bottom: "inception_4b/5x5_reduce"
  top: "inception_4b/5x5"
  param {
    lr_mult: 1
    decay_mult: 1
  }
  param {
    lr_mult: 2
    decay_mult: 0
  }
  convolution_param {
    num_output: 64
    pad: 2
    kernel_size: 5
    weight_filler {
      type: "xavier"
      std: 0.03
    }
    bias_filler {
      type: "constant"
      value: 0.2
    }
  }
}
layer {
  name: "inception_4b/relu_5x5"
  type: "ReLU"
  bottom: "inception_4b/5x5"
  top: "inception_4b/5x5"
}
layer {
  name: "inception_4b/pool"
  type: "Pooling"
  bottom: "inception_4a/output"
  top: "inception_4b/pool"
  pooling_param {
    pool: MAX
    kernel_size: 3
    stride: 1
    pad: 1
  }
}
layer {
  name: "inception_4b/pool_proj"
  type: "Convolution"
  bottom: "inception_4b/pool"
  top: "inception_4b/pool_proj"
  param {
    lr_mult: 1
    decay_mult: 1
  }
  param {
    lr_mult: 2
    decay_mult: 0
  }
  convolution_param {
    num_output: 64
    kernel_size: 1
    weight_filler {
      type: "xavier"
      std: 0.1
    }
    bias_filler {
      type: "constant"
      value: 0.2
    }
  }
}
layer {
  name: "inception_4b/relu_pool_proj"
  type: "ReLU"
  bottom: "inception_4b/pool_proj"
  top: "inception_4b/pool_proj"
}
layer {
  name: "inception_4b/output"
  type: "Concat"
  bottom: "inception_4b/1x1"
  bottom: "inception_4b/3x3"
  bottom: "inception_4b/5x5"
  bottom: "inception_4b/pool_proj"
  top: "inception_4b/output"
}
layer {
  name: "inception_4c/1x1"
  type: "Convolution"
  bottom: "inception_4b/output"
  top: "inception_4c/1x1"
  param {
    lr_mult: 1
    decay_mult: 1
  }
  param {
    lr_mult: 2
    decay_mult: 0
  }
  convolution_param {
    num_output: 128
    kernel_size: 1
    weight_filler {
      type: "xavier"
      std: 0.03
    }
    bias_filler {
      type: "constant"
      value: 0.2
    }
  }
}
layer {
  name: "inception_4c/relu_1x1"
  type: "ReLU"
  bottom: "inception_4c/1x1"
  top: "inception_4c/1x1"
}
layer {
  name: "inception_4c/3x3_reduce"
  type: "Convolution"
  bottom: "inception_4b/output"
  top: "inception_4c/3x3_reduce"
  param {
    lr_mult: 1
    decay_mult: 1
  }
  param {
    lr_mult: 2
    decay_mult: 0
  }
  convolution_param {
    num_output: 128
    kernel_size: 1
    weight_filler {
      type: "xavier"
      std: 0.09
    }
    bias_filler {
      type: "constant"
      value: 0.2
    }
  }
}
layer {
  name: "inception_4c/relu_3x3_reduce"
  type: "ReLU"
  bottom: "inception_4c/3x3_reduce"
  top: "inception_4c/3x3_reduce"
}
layer {
  name: "inception_4c/3x3"
  type: "Convolution"
  bottom: "inception_4c/3x3_reduce"
  top: "inception_4c/3x3"
  param {
    lr_mult: 1
    decay_mult: 1
  }
  param {
    lr_mult: 2
    decay_mult: 0
  }
  convolution_param {
    num_output: 256
    pad: 1
    kernel_size: 3
    weight_filler {
      type: "xavier"
      std: 0.03
    }
    bias_filler {
      type: "constant"
      value: 0.2
    }
  }
}
layer {
  name: "inception_4c/relu_3x3"
  type: "ReLU"
  bottom: "inception_4c/3x3"
  top: "inception_4c/3x3"
}
layer {
  name: "inception_4c/5x5_reduce"
  type: "Convolution"
  bottom: "inception_4b/output"
  top: "inception_4c/5x5_reduce"
  param {
    lr_mult: 1
    decay_mult: 1
  }
  param {
    lr_mult: 2
    decay_mult: 0
  }
  convolution_param {
    num_output: 24
    kernel_size: 1
    weight_filler {
      type: "xavier"
      std: 0.2
    }
    bias_filler {
      type: "constant"
      value: 0.2
    }
  }
}
layer {
  name: "inception_4c/relu_5x5_reduce"
  type: "ReLU"
  bottom: "inception_4c/5x5_reduce"
  top: "inception_4c/5x5_reduce"
}
layer {
  name: "inception_4c/5x5"
  type: "Convolution"
  bottom: "inception_4c/5x5_reduce"
  top: "inception_4c/5x5"
  param {
    lr_mult: 1
    decay_mult: 1
  }
  param {
    lr_mult: 2
    decay_mult: 0
  }
  convolution_param {
    num_output: 64
    pad: 2
    kernel_size: 5
    weight_filler {
      type: "xavier"
      std: 0.03
    }
    bias_filler {
      type: "constant"
      value: 0.2
    }
  }
}
layer {
  name: "inception_4c/relu_5x5"
  type: "ReLU"
  bottom: "inception_4c/5x5"
  top: "inception_4c/5x5"
}
layer {
  name: "inception_4c/pool"
  type: "Pooling"
  bottom: "inception_4b/output"
  top: "inception_4c/pool"
  pooling_param {
    pool: MAX
    kernel_size: 3
    stride: 1
    pad: 1
  }
}
layer {
  name: "inception_4c/pool_proj"
  type: "Convolution"
  bottom: "inception_4c/pool"
  top: "inception_4c/pool_proj"
  param {
    lr_mult: 1
    decay_mult: 1
  }
  param {
    lr_mult: 2
    decay_mult: 0
  }
  convolution_param {
    num_output: 64
    kernel_size: 1
    weight_filler {
      type: "xavier"
      std: 0.1
    }
    bias_filler {
      type: "constant"
      value: 0.2
    }
  }
}
layer {
  name: "inception_4c/relu_pool_proj"
  type: "ReLU"
  bottom: "inception_4c/pool_proj"
  top: "inception_4c/pool_proj"
}
layer {
  name: "inception_4c/output"
  type: "Concat"
  bottom: "inception_4c/1x1"
  bottom: "inception_4c/3x3"
  bottom: "inception_4c/5x5"
  bottom: "inception_4c/pool_proj"
  top: "inception_4c/output"
}
layer {
  name: "inception_4d/1x1"
  type: "Convolution"
  bottom: "inception_4c/output"
  top: "inception_4d/1x1"
  param {
    lr_mult: 1
    decay_mult: 1
  }
  param {
    lr_mult: 2
    decay_mult: 0
  }
  convolution_param {
    num_output: 112
    kernel_size: 1
    weight_filler {
      type: "xavier"
      std: 0.03
    }
    bias_filler {
      type: "constant"
      value: 0.2
    }
  }
}
layer {
  name: "inception_4d/relu_1x1"
  type: "ReLU"
  bottom: "inception_4d/1x1"
  top: "inception_4d/1x1"
}
layer {
  name: "inception_4d/3x3_reduce"
  type: "Convolution"
  bottom: "inception_4c/output"
  top: "inception_4d/3x3_reduce"
  param {
    lr_mult: 1
    decay_mult: 1
  }
  param {
    lr_mult: 2
    decay_mult: 0
  }
  convolution_param {
    num_output: 144
    kernel_size: 1
    weight_filler {
      type: "xavier"
      std: 0.09
    }
    bias_filler {
      type: "constant"
      value: 0.2
    }
  }
}
layer {
  name: "inception_4d/relu_3x3_reduce"
  type: "ReLU"
  bottom: "inception_4d/3x3_reduce"
  top: "inception_4d/3x3_reduce"
}
layer {
  name: "inception_4d/3x3"
  type: "Convolution"
  bottom: "inception_4d/3x3_reduce"
  top: "inception_4d/3x3"
  param {
    lr_mult: 1
    decay_mult: 1
  }
  param {
    lr_mult: 2
    decay_mult: 0
  }
  convolution_param {
    num_output: 288
    pad: 1
    kernel_size: 3
    weight_filler {
      type: "xavier"
      std: 0.03
    }
    bias_filler {
      type: "constant"
      value: 0.2
    }
  }
}
layer {
  name: "inception_4d/relu_3x3"
  type: "ReLU"
  bottom: "inception_4d/3x3"
  top: "inception_4d/3x3"
}
layer {
  name: "inception_4d/5x5_reduce"
  type: "Convolution"
  bottom: "inception_4c/output"
  top: "inception_4d/5x5_reduce"
  param {
    lr_mult: 1
    decay_mult: 1
  }
  param {
    lr_mult: 2
    decay_mult: 0
  }
  convolution_param {
    num_output: 32
    kernel_size: 1
    weight_filler {
      type: "xavier"
      std: 0.2
    }
    bias_filler {
      type: "constant"
      value: 0.2
    }
  }
}
layer {
  name: "inception_4d/relu_5x5_reduce"
  type: "ReLU"
  bottom: "inception_4d/5x5_reduce"
  top: "inception_4d/5x5_reduce"
}
layer {
  name: "inception_4d/5x5"
  type: "Convolution"
  bottom: "inception_4d/5x5_reduce"
  top: "inception_4d/5x5"
  param {
    lr_mult: 1
    decay_mult: 1
  }
  param {
    lr_mult: 2
    decay_mult: 0
  }
  convolution_param {
    num_output: 64
    pad: 2
    kernel_size: 5
    weight_filler {
      type: "xavier"
      std: 0.03
    }
    bias_filler {
      type: "constant"
      value: 0.2
    }
  }
}
layer {
  name: "inception_4d/relu_5x5"
  type: "ReLU"
  bottom: "inception_4d/5x5"
  top: "inception_4d/5x5"
}
layer {
  name: "inception_4d/pool"
  type: "Pooling"
  bottom: "inception_4c/output"
  top: "inception_4d/pool"
  pooling_param {
    pool: MAX
    kernel_size: 3
    stride: 1
    pad: 1
  }
}
layer {
  name: "inception_4d/pool_proj"
  type: "Convolution"
  bottom: "inception_4d/pool"
  top: "inception_4d/pool_proj"
  param {
    lr_mult: 1
    decay_mult: 1
  }
  param {
    lr_mult: 2
    decay_mult: 0
  }
  convolution_param {
    num_output: 64
    kernel_size: 1
    weight_filler {
      type: "xavier"
      std: 0.1
    }
    bias_filler {
      type: "constant"
      value: 0.2
    }
  }
}
layer {
  name: "inception_4d/relu_pool_proj"
  type: "ReLU"
  bottom: "inception_4d/pool_proj"
  top: "inception_4d/pool_proj"
}
layer {
  name: "inception_4d/output"
  type: "Concat"
  bottom: "inception_4d/1x1"
  bottom: "inception_4d/3x3"
  bottom: "inception_4d/5x5"
  bottom: "inception_4d/pool_proj"
  top: "inception_4d/output"
}
layer {
  name: "loss2/ave_pool"
  type: "Pooling"
  bottom: "inception_4d/output"
  top: "loss2/ave_pool"
  pooling_param {
    pool: AVE
    kernel_size: 5
    stride: 3
  }
}
layer {
  name: "loss2/conv"
  type: "Convolution"
  bottom: "loss2/ave_pool"
  top: "loss2/conv"
  param {
    lr_mult: 1
    decay_mult: 1
  }
  param {
    lr_mult: 2
    decay_mult: 0
  }
  convolution_param {
    num_output: 128
    kernel_size: 1
    weight_filler {
      type: "xavier"
      std: 0.08
    }
    bias_filler {
      type: "constant"
      value: 0.2
    }
  }
}
layer {
  name: "loss2/relu_conv"
  type: "ReLU"
  bottom: "loss2/conv"
  top: "loss2/conv"
}
layer {
  name: "loss2/fc"
  type: "InnerProduct"
  bottom: "loss2/conv"
  top: "loss2/fc"
  param {
    lr_mult: 1
    decay_mult: 1
  }
  param {
    lr_mult: 2
    decay_mult: 0
  }
  inner_product_param {
    num_output: 1024
    weight_filler {
      type: "xavier"
      std: 0.02
    }
    bias_filler {
      type: "constant"
      value: 0.2
    }
  }
}
layer {
  name: "loss2/relu_fc"
  type: "ReLU"
  bottom: "loss2/fc"
  top: "loss2/fc"
}
layer {
  name: "loss2/drop_fc"
  type: "Dropout"
  bottom: "loss2/fc"
  top: "loss2/fc"
  dropout_param {
    dropout_ratio: 0.7
  }
}
layer {
  name: "loss2/classifier_plantvillage"
  type: "InnerProduct"
  bottom: "loss2/fc"
  top: "loss2/classifier_plantvillage"
  param {
    lr_mult: 1
    decay_mult: 1
  }
  param {
    lr_mult: 2
    decay_mult: 0
  }
  inner_product_param {
    num_output: 38
    weight_filler {
      type: "xavier"
      std: 0.0009765625
    }
    bias_filler {
      type: "constant"
      value: 0
    }
  }
}
layer {
  name: "inception_4e/1x1"
  type: "Convolution"
  bottom: "inception_4d/output"
  top: "inception_4e/1x1"
  param {
    lr_mult: 1
    decay_mult: 1
  }
  param {
    lr_mult: 2
    decay_mult: 0
  }
  convolution_param {
    num_output: 256
    kernel_size: 1
    weight_filler {
      type: "xavier"
      std: 0.03
    }
    bias_filler {
      type: "constant"
      value: 0.2
    }
  }
}
layer {
  name: "inception_4e/relu_1x1"
  type: "ReLU"
  bottom: "inception_4e/1x1"
  top: "inception_4e/1x1"
}
layer {
  name: "inception_4e/3x3_reduce"
  type: "Convolution"
  bottom: "inception_4d/output"
  top: "inception_4e/3x3_reduce"
  param {
    lr_mult: 1
    decay_mult: 1
  }
  param {
    lr_mult: 2
    decay_mult: 0
  }
  convolution_param {
    num_output: 160
    kernel_size: 1
    weight_filler {
      type: "xavier"
      std: 0.09
    }
    bias_filler {
      type: "constant"
      value: 0.2
    }
  }
}
layer {
  name: "inception_4e/relu_3x3_reduce"
  type: "ReLU"
  bottom: "inception_4e/3x3_reduce"
  top: "inception_4e/3x3_reduce"
}
layer {
  name: "inception_4e/3x3"
  type: "Convolution"
  bottom: "inception_4e/3x3_reduce"
  top: "inception_4e/3x3"
  param {
    lr_mult: 1
    decay_mult: 1
  }
  param {
    lr_mult: 2
    decay_mult: 0
  }
  convolution_param {
    num_output: 320
    pad: 1
    kernel_size: 3
    weight_filler {
      type: "xavier"
      std: 0.03
    }
    bias_filler {
      type: "constant"
      value: 0.2
    }
  }
}
layer {
  name: "inception_4e/relu_3x3"
  type: "ReLU"
  bottom: "inception_4e/3x3"
  top: "inception_4e/3x3"
}
layer {
  name: "inception_4e/5x5_reduce"
  type: "Convolution"
  bottom: "inception_4d/output"
  top: "inception_4e/5x5_reduce"
  param {
    lr_mult: 1
    decay_mult: 1
  }
  param {
    lr_mult: 2
    decay_mult: 0
  }
  convolution_param {
    num_output: 32
    kernel_size: 1
    weight_filler {
      type: "xavier"
      std: 0.2
    }
    bias_filler {
      type: "constant"
      value: 0.2
    }
  }
}
layer {
  name: "inception_4e/relu_5x5_reduce"
  type: "ReLU"
  bottom: "inception_4e/5x5_reduce"
  top: "inception_4e/5x5_reduce"
}
layer {
  name: "inception_4e/5x5"
  type: "Convolution"
  bottom: "inception_4e/5x5_reduce"
  top: "inception_4e/
I0403 18:03:08.866924 21191 layer_factory.hpp:77] Creating layer data
I0403 18:03:08.867653 21191 net.cpp:91] Creating Layer data
I0403 18:03:08.867693 21191 net.cpp:399] data -> data
I0403 18:03:08.867754 21191 net.cpp:399] data -> label
I0403 18:03:08.867797 21191 data_transformer.cpp:25] Loading mean file from: /home/mohanty/data/final_dataset/lmdb/segmented-40-60/mean.binaryproto
I0403 18:03:08.869148 21196 db_lmdb.cpp:38] Opened lmdb /home/mohanty/data/final_dataset/lmdb/segmented-40-60/test_db
I0403 18:03:08.883347 21191 data_layer.cpp:41] output data size: 24,3,224,224
I0403 18:03:08.915443 21191 net.cpp:141] Setting up data
I0403 18:03:08.915539 21191 net.cpp:148] Top shape: 24 3 224 224 (3612672)
I0403 18:03:08.915568 21191 net.cpp:148] Top shape: 24 (24)
I0403 18:03:08.915587 21191 net.cpp:156] Memory required for data: 14450784
I0403 18:03:08.915621 21191 layer_factory.hpp:77] Creating layer label_data_1_split
I0403 18:03:08.915653 21191 net.cpp:91] Creating Layer label_data_1_split
I0403 18:03:08.915676 21191 net.cpp:425] label_data_1_split <- label
I0403 18:03:08.915715 21191 net.cpp:399] label_data_1_split -> label_data_1_split_0
I0403 18:03:08.915750 21191 net.cpp:399] label_data_1_split -> label_data_1_split_1
I0403 18:03:08.915778 21191 net.cpp:399] label_data_1_split -> label_data_1_split_2
I0403 18:03:08.915804 21191 net.cpp:399] label_data_1_split -> label_data_1_split_3
I0403 18:03:08.915829 21191 net.cpp:399] label_data_1_split -> label_data_1_split_4
I0403 18:03:08.915853 21191 net.cpp:399] label_data_1_split -> label_data_1_split_5
I0403 18:03:08.915879 21191 net.cpp:399] label_data_1_split -> label_data_1_split_6
I0403 18:03:08.915904 21191 net.cpp:399] label_data_1_split -> label_data_1_split_7
I0403 18:03:08.915928 21191 net.cpp:399] label_data_1_split -> label_data_1_split_8
I0403 18:03:08.915952 21191 net.cpp:399] label_data_1_split -> label_data_1_split_9
I0403 18:03:08.916092 21191 net.cpp:141] Setting up label_data_1_split
I0403 18:03:08.916121 21191 net.cpp:148] Top shape: 24 (24)
I0403 18:03:08.916142 21191 net.cpp:148] Top shape: 24 (24)
I0403 18:03:08.916162 21191 net.cpp:148] Top shape: 24 (24)
I0403 18:03:08.916180 21191 net.cpp:148] Top shape: 24 (24)
I0403 18:03:08.916198 21191 net.cpp:148] Top shape: 24 (24)
I0403 18:03:08.916215 21191 net.cpp:148] Top shape: 24 (24)
I0403 18:03:08.916234 21191 net.cpp:148] Top shape: 24 (24)
I0403 18:03:08.916251 21191 net.cpp:148] Top shape: 24 (24)
I0403 18:03:08.916270 21191 net.cpp:148] Top shape: 24 (24)
I0403 18:03:08.916290 21191 net.cpp:148] Top shape: 24 (24)
I0403 18:03:08.916352 21191 net.cpp:156] Memory required for data: 14451744
I0403 18:03:08.916370 21191 layer_factory.hpp:77] Creating layer conv1/7x7_s2
I0403 18:03:08.916409 21191 net.cpp:91] Creating Layer conv1/7x7_s2
I0403 18:03:08.916434 21191 net.cpp:425] conv1/7x7_s2 <- data
I0403 18:03:08.916456 21191 net.cpp:399] conv1/7x7_s2 -> conv1/7x7_s2
I0403 18:03:09.081172 21191 net.cpp:141] Setting up conv1/7x7_s2
I0403 18:03:09.081260 21191 net.cpp:148] Top shape: 24 64 112 112 (19267584)
I0403 18:03:09.081281 21191 net.cpp:156] Memory required for data: 91522080
I0403 18:03:09.081318 21191 layer_factory.hpp:77] Creating layer conv1/relu_7x7
I0403 18:03:09.081349 21191 net.cpp:91] Creating Layer conv1/relu_7x7
I0403 18:03:09.081370 21191 net.cpp:425] conv1/relu_7x7 <- conv1/7x7_s2
I0403 18:03:09.081393 21191 net.cpp:386] conv1/relu_7x7 -> conv1/7x7_s2 (in-place)
I0403 18:03:09.081710 21191 net.cpp:141] Setting up conv1/relu_7x7
I0403 18:03:09.081744 21191 net.cpp:148] Top shape: 24 64 112 112 (19267584)
I0403 18:03:09.081763 21191 net.cpp:156] Memory required for data: 168592416
I0403 18:03:09.081782 21191 layer_factory.hpp:77] Creating layer pool1/3x3_s2
I0403 18:03:09.081812 21191 net.cpp:91] Creating Layer pool1/3x3_s2
I0403 18:03:09.081835 21191 net.cpp:425] pool1/3x3_s2 <- conv1/7x7_s2
I0403 18:03:09.081856 21191 net.cpp:399] pool1/3x3_s2 -> pool1/3x3_s2
I0403 18:03:09.081944 21191 net.cpp:141] Setting up pool1/3x3_s2
I0403 18:03:09.081974 21191 net.cpp:148] Top shape: 24 64 56 56 (4816896)
I0403 18:03:09.081992 21191 net.cpp:156] Memory required for data: 187860000
I0403 18:03:09.082010 21191 layer_factory.hpp:77] Creating layer pool1/norm1
I0403 18:03:09.082039 21191 net.cpp:91] Creating Layer pool1/norm1
I0403 18:03:09.082062 21191 net.cpp:425] pool1/norm1 <- pool1/3x3_s2
I0403 18:03:09.082082 21191 net.cpp:399] pool1/norm1 -> pool1/norm1
I0403 18:03:09.082422 21191 net.cpp:141] Setting up pool1/norm1
I0403 18:03:09.082454 21191 net.cpp:148] Top shape: 24 64 56 56 (4816896)
I0403 18:03:09.082473 21191 net.cpp:156] Memory required for data: 207127584
I0403 18:03:09.082490 21191 layer_factory.hpp:77] Creating layer conv2/3x3_reduce
I0403 18:03:09.082526 21191 net.cpp:91] Creating Layer conv2/3x3_reduce
I0403 18:03:09.082548 21191 net.cpp:425] conv2/3x3_reduce <- pool1/norm1
I0403 18:03:09.082571 21191 net.cpp:399] conv2/3x3_reduce -> conv2/3x3_reduce
I0403 18:03:09.084213 21191 net.cpp:141] Setting up conv2/3x3_reduce
I0403 18:03:09.084249 21191 net.cpp:148] Top shape: 24 64 56 56 (4816896)
I0403 18:03:09.084272 21191 net.cpp:156] Memory required for data: 226395168
I0403 18:03:09.084301 21191 layer_factory.hpp:77] Creating layer conv2/relu_3x3_reduce
I0403 18:03:09.084326 21191 net.cpp:91] Creating Layer conv2/relu_3x3_reduce
I0403 18:03:09.084345 21191 net.cpp:425] conv2/relu_3x3_reduce <- conv2/3x3_reduce
I0403 18:03:09.084365 21191 net.cpp:386] conv2/relu_3x3_reduce -> conv2/3x3_reduce (in-place)
I0403 18:03:09.084702 21191 net.cpp:141] Setting up conv2/relu_3x3_reduce
I0403 18:03:09.084738 21191 net.cpp:148] Top shape: 24 64 56 56 (4816896)
I0403 18:03:09.084758 21191 net.cpp:156] Memory required for data: 245662752
I0403 18:03:09.084776 21191 layer_factory.hpp:77] Creating layer conv2/3x3
I0403 18:03:09.084805 21191 net.cpp:91] Creating Layer conv2/3x3
I0403 18:03:09.084827 21191 net.cpp:425] conv2/3x3 <- conv2/3x3_reduce
I0403 18:03:09.084851 21191 net.cpp:399] conv2/3x3 -> conv2/3x3
I0403 18:03:09.087610 21191 net.cpp:141] Setting up conv2/3x3
I0403 18:03:09.087649 21191 net.cpp:148] Top shape: 24 192 56 56 (14450688)
I0403 18:03:09.087669 21191 net.cpp:156] Memory required for data: 303465504
I0403 18:03:09.087695 21191 layer_factory.hpp:77] Creating layer conv2/relu_3x3
I0403 18:03:09.087718 21191 net.cpp:91] Creating Layer conv2/relu_3x3
I0403 18:03:09.087738 21191 net.cpp:425] conv2/relu_3x3 <- conv2/3x3
I0403 18:03:09.087759 21191 net.cpp:386] conv2/relu_3x3 -> conv2/3x3 (in-place)
I0403 18:03:09.087972 21191 net.cpp:141] Setting up conv2/relu_3x3
I0403 18:03:09.088002 21191 net.cpp:148] Top shape: 24 192 56 56 (14450688)
I0403 18:03:09.088063 21191 net.cpp:156] Memory required for data: 361268256
I0403 18:03:09.088081 21191 layer_factory.hpp:77] Creating layer conv2/norm2
I0403 18:03:09.088107 21191 net.cpp:91] Creating Layer conv2/norm2
I0403 18:03:09.088129 21191 net.cpp:425] conv2/norm2 <- conv2/3x3
I0403 18:03:09.088150 21191 net.cpp:399] conv2/norm2 -> conv2/norm2
I0403 18:03:09.088513 21191 net.cpp:141] Setting up conv2/norm2
I0403 18:03:09.088546 21191 net.cpp:148] Top shape: 24 192 56 56 (14450688)
I0403 18:03:09.088565 21191 net.cpp:156] Memory required for data: 419071008
I0403 18:03:09.088583 21191 layer_factory.hpp:77] Creating layer pool2/3x3_s2
I0403 18:03:09.088608 21191 net.cpp:91] Creating Layer pool2/3x3_s2
I0403 18:03:09.088627 21191 net.cpp:425] pool2/3x3_s2 <- conv2/norm2
I0403 18:03:09.088649 21191 net.cpp:399] pool2/3x3_s2 -> pool2/3x3_s2
I0403 18:03:09.088716 21191 net.cpp:141] Setting up pool2/3x3_s2
I0403 18:03:09.088745 21191 net.cpp:148] Top shape: 24 192 28 28 (3612672)
I0403 18:03:09.088763 21191 net.cpp:156] Memory required for data: 433521696
I0403 18:03:09.088780 21191 layer_factory.hpp:77] Creating layer pool2/3x3_s2_pool2/3x3_s2_0_split
I0403 18:03:09.088803 21191 net.cpp:91] Creating Layer pool2/3x3_s2_pool2/3x3_s2_0_split
I0403 18:03:09.088819 21191 net.cpp:425] pool2/3x3_s2_pool2/3x3_s2_0_split <- pool2/3x3_s2
I0403 18:03:09.088842 21191 net.cpp:399] pool2/3x3_s2_pool2/3x3_s2_0_split -> pool2/3x3_s2_pool2/3x3_s2_0_split_0
I0403 18:03:09.088866 21191 net.cpp:399] pool2/3x3_s2_pool2/3x3_s2_0_split -> pool2/3x3_s2_pool2/3x3_s2_0_split_1
I0403 18:03:09.088891 21191 net.cpp:399] pool2/3x3_s2_pool2/3x3_s2_0_split -> pool2/3x3_s2_pool2/3x3_s2_0_split_2
I0403 18:03:09.088917 21191 net.cpp:399] pool2/3x3_s2_pool2/3x3_s2_0_split -> pool2/3x3_s2_pool2/3x3_s2_0_split_3
I0403 18:03:09.089004 21191 net.cpp:141] Setting up pool2/3x3_s2_pool2/3x3_s2_0_split
I0403 18:03:09.089032 21191 net.cpp:148] Top shape: 24 192 28 28 (3612672)
I0403 18:03:09.089053 21191 net.cpp:148] Top shape: 24 192 28 28 (3612672)
I0403 18:03:09.089071 21191 net.cpp:148] Top shape: 24 192 28 28 (3612672)
I0403 18:03:09.089089 21191 net.cpp:148] Top shape: 24 192 28 28 (3612672)
I0403 18:03:09.089107 21191 net.cpp:156] Memory required for data: 491324448
I0403 18:03:09.089124 21191 layer_factory.hpp:77] Creating layer inception_3a/1x1
I0403 18:03:09.089156 21191 net.cpp:91] Creating Layer inception_3a/1x1
I0403 18:03:09.089177 21191 net.cpp:425] inception_3a/1x1 <- pool2/3x3_s2_pool2/3x3_s2_0_split_0
I0403 18:03:09.089200 21191 net.cpp:399] inception_3a/1x1 -> inception_3a/1x1
I0403 18:03:09.091040 21191 net.cpp:141] Setting up inception_3a/1x1
I0403 18:03:09.091076 21191 net.cpp:148] Top shape: 24 64 28 28 (1204224)
I0403 18:03:09.091096 21191 net.cpp:156] Memory required for data: 496141344
I0403 18:03:09.091120 21191 layer_factory.hpp:77] Creating layer inception_3a/relu_1x1
I0403 18:03:09.091145 21191 net.cpp:91] Creating Layer inception_3a/relu_1x1
I0403 18:03:09.091166 21191 net.cpp:425] inception_3a/relu_1x1 <- inception_3a/1x1
I0403 18:03:09.091187 21191 net.cpp:386] inception_3a/relu_1x1 -> inception_3a/1x1 (in-place)
I0403 18:03:09.091397 21191 net.cpp:141] Setting up inception_3a/relu_1x1
I0403 18:03:09.091429 21191 net.cpp:148] Top shape: 24 64 28 28 (1204224)
I0403 18:03:09.091445 21191 net.cpp:156] Memory required for data: 500958240
I0403 18:03:09.091464 21191 layer_factory.hpp:77] Creating layer inception_3a/3x3_reduce
I0403 18:03:09.091490 21191 net.cpp:91] Creating Layer inception_3a/3x3_reduce
I0403 18:03:09.091518 21191 net.cpp:425] inception_3a/3x3_reduce <- pool2/3x3_s2_pool2/3x3_s2_0_split_1
I0403 18:03:09.091547 21191 net.cpp:399] inception_3a/3x3_reduce -> inception_3a/3x3_reduce
I0403 18:03:09.093583 21191 net.cpp:141] Setting up inception_3a/3x3_reduce
I0403 18:03:09.093624 21191 net.cpp:148] Top shape: 24 96 28 28 (1806336)
I0403 18:03:09.093646 21191 net.cpp:156] Memory required for data: 508183584
I0403 18:03:09.093672 21191 layer_factory.hpp:77] Creating layer inception_3a/relu_3x3_reduce
I0403 18:03:09.093715 21191 net.cpp:91] Creating Layer inception_3a/relu_3x3_reduce
I0403 18:03:09.093737 21191 net.cpp:425] inception_3a/relu_3x3_reduce <- inception_3a/3x3_reduce
I0403 18:03:09.093761 21191 net.cpp:386] inception_3a/relu_3x3_reduce -> inception_3a/3x3_reduce (in-place)
I0403 18:03:09.093984 21191 net.cpp:141] Setting up inception_3a/relu_3x3_reduce
I0403 18:03:09.094015 21191 net.cpp:148] Top shape: 24 96 28 28 (1806336)
I0403 18:03:09.094033 21191 net.cpp:156] Memory required for data: 515408928
I0403 18:03:09.094050 21191 layer_factory.hpp:77] Creating layer inception_3a/3x3
I0403 18:03:09.094079 21191 net.cpp:91] Creating Layer inception_3a/3x3
I0403 18:03:09.094100 21191 net.cpp:425] inception_3a/3x3 <- inception_3a/3x3_reduce
I0403 18:03:09.094126 21191 net.cpp:399] inception_3a/3x3 -> inception_3a/3x3
I0403 18:03:09.096149 21191 net.cpp:141] Setting up inception_3a/3x3
I0403 18:03:09.096189 21191 net.cpp:148] Top shape: 24 128 28 28 (2408448)
I0403 18:03:09.096210 21191 net.cpp:156] Memory required for data: 525042720
I0403 18:03:09.096231 21191 layer_factory.hpp:77] Creating layer inception_3a/relu_3x3
I0403 18:03:09.096254 21191 net.cpp:91] Creating Layer inception_3a/relu_3x3
I0403 18:03:09.096273 21191 net.cpp:425] inception_3a/relu_3x3 <- inception_3a/3x3
I0403 18:03:09.096298 21191 net.cpp:386] inception_3a/relu_3x3 -> inception_3a/3x3 (in-place)
I0403 18:03:09.096637 21191 net.cpp:141] Setting up inception_3a/relu_3x3
I0403 18:03:09.096670 21191 net.cpp:148] Top shape: 24 128 28 28 (2408448)
I0403 18:03:09.096689 21191 net.cpp:156] Memory required for data: 534676512
I0403 18:03:09.096709 21191 layer_factory.hpp:77] Creating layer inception_3a/5x5_reduce
I0403 18:03:09.096736 21191 net.cpp:91] Creating Layer inception_3a/5x5_reduce
I0403 18:03:09.096757 21191 net.cpp:425] inception_3a/5x5_reduce <- pool2/3x3_s2_pool2/3x3_s2_0_split_2
I0403 18:03:09.096781 21191 net.cpp:399] inception_3a/5x5_reduce -> inception_3a/5x5_reduce
I0403 18:03:09.097956 21191 net.cpp:141] Setting up inception_3a/5x5_reduce
I0403 18:03:09.097993 21191 net.cpp:148] Top shape: 24 16 28 28 (301056)
I0403 18:03:09.098014 21191 net.cpp:156] Memory required for data: 535880736
I0403 18:03:09.098036 21191 layer_factory.hpp:77] Creating layer inception_3a/relu_5x5_reduce
I0403 18:03:09.098058 21191 net.cpp:91] Creating Layer inception_3a/relu_5x5_reduce
I0403 18:03:09.098078 21191 net.cpp:425] inception_3a/relu_5x5_reduce <- inception_3a/5x5_reduce
I0403 18:03:09.098104 21191 net.cpp:386] inception_3a/relu_5x5_reduce -> inception_3a/5x5_reduce (in-place)
I0403 18:03:09.098449 21191 net.cpp:141] Setting up inception_3a/relu_5x5_reduce
I0403 18:03:09.098481 21191 net.cpp:148] Top shape: 24 16 28 28 (301056)
I0403 18:03:09.098500 21191 net.cpp:156] Memory required for data: 537084960
I0403 18:03:09.098523 21191 layer_factory.hpp:77] Creating layer inception_3a/5x5
I0403 18:03:09.098552 21191 net.cpp:91] Creating Layer inception_3a/5x5
I0403 18:03:09.098573 21191 net.cpp:425] inception_3a/5x5 <- inception_3a/5x5_reduce
I0403 18:03:09.098600 21191 net.cpp:399] inception_3a/5x5 -> inception_3a/5x5
I0403 18:03:09.099831 21191 net.cpp:141] Setting up inception_3a/5x5
I0403 18:03:09.099865 21191 net.cpp:148] Top shape: 24 32 28 28 (602112)
I0403 18:03:09.099884 21191 net.cpp:156] Memory required for data: 539493408
I0403 18:03:09.099906 21191 layer_factory.hpp:77] Creating layer inception_3a/relu_5x5
I0403 18:03:09.099931 21191 net.cpp:91] Creating Layer inception_3a/relu_5x5
I0403 18:03:09.099951 21191 net.cpp:425] inception_3a/relu_5x5 <- inception_3a/5x5
I0403 18:03:09.099972 21191 net.cpp:386] inception_3a/relu_5x5 -> inception_3a/5x5 (in-place)
I0403 18:03:09.100183 21191 net.cpp:141] Setting up inception_3a/relu_5x5
I0403 18:03:09.100213 21191 net.cpp:148] Top shape: 24 32 28 28 (602112)
I0403 18:03:09.100230 21191 net.cpp:156] Memory required for data: 541901856
I0403 18:03:09.100249 21191 layer_factory.hpp:77] Creating layer inception_3a/pool
I0403 18:03:09.100268 21191 net.cpp:91] Creating Layer inception_3a/pool
I0403 18:03:09.100306 21191 net.cpp:425] inception_3a/pool <- pool2/3x3_s2_pool2/3x3_s2_0_split_3
I0403 18:03:09.100332 21191 net.cpp:399] inception_3a/pool -> inception_3a/pool
I0403 18:03:09.100402 21191 net.cpp:141] Setting up inception_3a/pool
I0403 18:03:09.100431 21191 net.cpp:148] Top shape: 24 192 28 28 (3612672)
I0403 18:03:09.100448 21191 net.cpp:156] Memory required for data: 556352544
I0403 18:03:09.100466 21191 layer_factory.hpp:77] Creating layer inception_3a/pool_proj
I0403 18:03:09.100497 21191 net.cpp:91] Creating Layer inception_3a/pool_proj
I0403 18:03:09.100524 21191 net.cpp:425] inception_3a/pool_proj <- inception_3a/pool
I0403 18:03:09.100548 21191 net.cpp:399] inception_3a/pool_proj -> inception_3a/pool_proj
I0403 18:03:09.101724 21191 net.cpp:141] Setting up inception_3a/pool_proj
I0403 18:03:09.101758 21191 net.cpp:148] Top shape: 24 32 28 28 (602112)
I0403 18:03:09.101778 21191 net.cpp:156] Memory required for data: 558760992
I0403 18:03:09.101806 21191 layer_factory.hpp:77] Creating layer inception_3a/relu_pool_proj
I0403 18:03:09.101831 21191 net.cpp:91] Creating Layer inception_3a/relu_pool_proj
I0403 18:03:09.101850 21191 net.cpp:425] inception_3a/relu_pool_proj <- inception_3a/pool_proj
I0403 18:03:09.101874 21191 net.cpp:386] inception_3a/relu_pool_proj -> inception_3a/pool_proj (in-place)
I0403 18:03:09.102202 21191 net.cpp:141] Setting up inception_3a/relu_pool_proj
I0403 18:03:09.102237 21191 net.cpp:148] Top shape: 24 32 28 28 (602112)
I0403 18:03:09.102257 21191 net.cpp:156] Memory required for data: 561169440
I0403 18:03:09.102274 21191 layer_factory.hpp:77] Creating layer inception_3a/output
I0403 18:03:09.102296 21191 net.cpp:91] Creating Layer inception_3a/output
I0403 18:03:09.102316 21191 net.cpp:425] inception_3a/output <- inception_3a/1x1
I0403 18:03:09.102336 21191 net.cpp:425] inception_3a/output <- inception_3a/3x3
I0403 18:03:09.102355 21191 net.cpp:425] inception_3a/output <- inception_3a/5x5
I0403 18:03:09.102375 21191 net.cpp:425] inception_3a/output <- inception_3a/pool_proj
I0403 18:03:09.102394 21191 net.cpp:399] inception_3a/output -> inception_3a/output
I0403 18:03:09.102454 21191 net.cpp:141] Setting up inception_3a/output
I0403 18:03:09.102483 21191 net.cpp:148] Top shape: 24 256 28 28 (4816896)
I0403 18:03:09.102501 21191 net.cpp:156] Memory required for data: 580437024
I0403 18:03:09.102525 21191 layer_factory.hpp:77] Creating layer inception_3a/output_inception_3a/output_0_split
I0403 18:03:09.102547 21191 net.cpp:91] Creating Layer inception_3a/output_inception_3a/output_0_split
I0403 18:03:09.102566 21191 net.cpp:425] inception_3a/output_inception_3a/output_0_split <- inception_3a/output
I0403 18:03:09.102591 21191 net.cpp:399] inception_3a/output_inception_3a/output_0_split -> inception_3a/output_inception_3a/output_0_split_0
I0403 18:03:09.102617 21191 net.cpp:399] inception_3a/output_inception_3a/output_0_split -> inception_3a/output_inception_3a/output_0_split_1
I0403 18:03:09.102646 21191 net.cpp:399] inception_3a/output_inception_3a/output_0_split -> inception_3a/output_inception_3a/output_0_split_2
I0403 18:03:09.102674 21191 net.cpp:399] inception_3a/output_inception_3a/output_0_split -> inception_3a/output_inception_3a/output_0_split_3
I0403 18:03:09.102764 21191 net.cpp:141] Setting up inception_3a/output_inception_3a/output_0_split
I0403 18:03:09.102792 21191 net.cpp:148] Top shape: 24 256 28 28 (4816896)
I0403 18:03:09.102815 21191 net.cpp:148] Top shape: 24 256 28 28 (4816896)
I0403 18:03:09.102834 21191 net.cpp:148] Top shape: 24 256 28 28 (4816896)
I0403 18:03:09.102854 21191 net.cpp:148] Top shape: 24 256 28 28 (4816896)
I0403 18:03:09.102869 21191 net.cpp:156] Memory required for data: 657507360
I0403 18:03:09.102886 21191 layer_factory.hpp:77] Creating layer inception_3b/1x1
I0403 18:03:09.102912 21191 net.cpp:91] Creating Layer inception_3b/1x1
I0403 18:03:09.102933 21191 net.cpp:425] inception_3b/1x1 <- inception_3a/output_inception_3a/output_0_split_0
I0403 18:03:09.102958 21191 net.cpp:399] inception_3b/1x1 -> inception_3b/1x1
I0403 18:03:09.104339 21191 net.cpp:141] Setting up inception_3b/1x1
I0403 18:03:09.104387 21191 net.cpp:148] Top shape: 24 128 28 28 (2408448)
I0403 18:03:09.104408 21191 net.cpp:156] Memory required for data: 667141152
I0403 18:03:09.104430 21191 layer_factory.hpp:77] Creating layer inception_3b/relu_1x1
I0403 18:03:09.104455 21191 net.cpp:91] Creating Layer inception_3b/relu_1x1
I0403 18:03:09.104475 21191 net.cpp:425] inception_3b/relu_1x1 <- inception_3b/1x1
I0403 18:03:09.104496 21191 net.cpp:386] inception_3b/relu_1x1 -> inception_3b/1x1 (in-place)
I0403 18:03:09.104724 21191 net.cpp:141] Setting up inception_3b/relu_1x1
I0403 18:03:09.104758 21191 net.cpp:148] Top shape: 24 128 28 28 (2408448)
I0403 18:03:09.104778 21191 net.cpp:156] Memory required for data: 676774944
I0403 18:03:09.104795 21191 layer_factory.hpp:77] Creating layer inception_3b/3x3_reduce
I0403 18:03:09.104826 21191 net.cpp:91] Creating Layer inception_3b/3x3_reduce
I0403 18:03:09.104848 21191 net.cpp:425] inception_3b/3x3_reduce <- inception_3a/output_inception_3a/output_0_split_1
I0403 18:03:09.104871 21191 net.cpp:399] inception_3b/3x3_reduce -> inception_3b/3x3_reduce
I0403 18:03:09.106251 21191 net.cpp:141] Setting up inception_3b/3x3_reduce
I0403 18:03:09.106287 21191 net.cpp:148] Top shape: 24 128 28 28 (2408448)
I0403 18:03:09.106304 21191 net.cpp:156] Memory required for data: 686408736
I0403 18:03:09.106326 21191 layer_factory.hpp:77] Creating layer inception_3b/relu_3x3_reduce
I0403 18:03:09.106353 21191 net.cpp:91] Creating Layer inception_3b/relu_3x3_reduce
I0403 18:03:09.106374 21191 net.cpp:425] inception_3b/relu_3x3_reduce <- inception_3b/3x3_reduce
I0403 18:03:09.106395 21191 net.cpp:386] inception_3b/relu_3x3_reduce -> inception_3b/3x3_reduce (in-place)
I0403 18:03:09.106613 21191 net.cpp:141] Setting up inception_3b/relu_3x3_reduce
I0403 18:03:09.106647 21191 net.cpp:148] Top shape: 24 128 28 28 (2408448)
I0403 18:03:09.106665 21191 net.cpp:156] Memory required for data: 696042528
I0403 18:03:09.106683 21191 layer_factory.hpp:77] Creating layer inception_3b/3x3
I0403 18:03:09.106714 21191 net.cpp:91] Creating Layer inception_3b/3x3
I0403 18:03:09.106735 21191 net.cpp:425] inception_3b/3x3 <- inception_3b/3x3_reduce
I0403 18:03:09.106761 21191 net.cpp:399] inception_3b/3x3 -> inception_3b/3x3
I0403 18:03:09.110301 21191 net.cpp:141] Setting up inception_3b/3x3
I0403 18:03:09.110339 21191 net.cpp:148] Top shape: 24 192 28 28 (3612672)
I0403 18:03:09.110359 21191 net.cpp:156] Memory required for data: 710493216
I0403 18:03:09.110383 21191 layer_factory.hpp:77] Creating layer inception_3b/relu_3x3
I0403 18:03:09.110404 21191 net.cpp:91] Creating Layer inception_3b/relu_3x3
I0403 18:03:09.110424 21191 net.cpp:425] inception_3b/relu_3x3 <- inception_3b/3x3
I0403 18:03:09.110448 21191 net.cpp:386] inception_3b/relu_3x3 -> inception_3b/3x3 (in-place)
I0403 18:03:09.110793 21191 net.cpp:141] Setting up inception_3b/relu_3x3
I0403 18:03:09.110831 21191 net.cpp:148] Top shape: 24 192 28 28 (3612672)
I0403 18:03:09.110851 21191 net.cpp:156] Memory required for data: 724943904
I0403 18:03:09.110867 21191 layer_factory.hpp:77] Creating layer inception_3b/5x5_reduce
I0403 18:03:09.110896 21191 net.cpp:91] Creating Layer inception_3b/5x5_reduce
I0403 18:03:09.110918 21191 net.cpp:425] inception_3b/5x5_reduce <- inception_3a/output_inception_3a/output_0_split_2
I0403 18:03:09.110941 21191 net.cpp:399] inception_3b/5x5_reduce -> inception_3b/5x5_reduce
I0403 18:03:09.112155 21191 net.cpp:141] Setting up inception_3b/5x5_reduce
I0403 18:03:09.112190 21191 net.cpp:148] Top shape: 24 32 28 28 (602112)
I0403 18:03:09.112208 21191 net.cpp:156] Memory required for data: 727352352
I0403 18:03:09.112233 21191 layer_factory.hpp:77] Creating layer inception_3b/relu_5x5_reduce
I0403 18:03:09.112258 21191 net.cpp:91] Creating Layer inception_3b/relu_5x5_reduce
I0403 18:03:09.112277 21191 net.cpp:425] inception_3b/relu_5x5_reduce <- inception_3b/5x5_reduce
I0403 18:03:09.112301 21191 net.cpp:386] inception_3b/relu_5x5_reduce -> inception_3b/5x5_reduce (in-place)
I0403 18:03:09.112541 21191 net.cpp:141] Setting up inception_3b/relu_5x5_reduce
I0403 18:03:09.112572 21191 net.cpp:148] Top shape: 24 32 28 28 (602112)
I0403 18:03:09.112591 21191 net.cpp:156] Memory required for data: 729760800
I0403 18:03:09.112608 21191 layer_factory.hpp:77] Creating layer inception_3b/5x5
I0403 18:03:09.112637 21191 net.cpp:91] Creating Layer inception_3b/5x5
I0403 18:03:09.112658 21191 net.cpp:425] inception_3b/5x5 <- inception_3b/5x5_reduce
I0403 18:03:09.112682 21191 net.cpp:399] inception_3b/5x5 -> inception_3b/5x5
I0403 18:03:09.115284 21191 net.cpp:141] Setting up inception_3b/5x5
I0403 18:03:09.115321 21191 net.cpp:148] Top shape: 24 96 28 28 (1806336)
I0403 18:03:09.115340 21191 net.cpp:156] Memory required for data: 736986144
I0403 18:03:09.115362 21191 layer_factory.hpp:77] Creating layer inception_3b/relu_5x5
I0403 18:03:09.115388 21191 net.cpp:91] Creating Layer inception_3b/relu_5x5
I0403 18:03:09.115409 21191 net.cpp:425] inception_3b/relu_5x5 <- inception_3b/5x5
I0403 18:03:09.115430 21191 net.cpp:386] inception_3b/relu_5x5 -> inception_3b/5x5 (in-place)
I0403 18:03:09.115674 21191 net.cpp:141] Setting up inception_3b/relu_5x5
I0403 18:03:09.115705 21191 net.cpp:148] Top shape: 24 96 28 28 (1806336)
I0403 18:03:09.115722 21191 net.cpp:156] Memory required for data: 744211488
I0403 18:03:09.115741 21191 layer_factory.hpp:77] Creating layer inception_3b/pool
I0403 18:03:09.115761 21191 net.cpp:91] Creating Layer inception_3b/pool
I0403 18:03:09.115780 21191 net.cpp:425] inception_3b/pool <- inception_3a/output_inception_3a/output_0_split_3
I0403 18:03:09.115802 21191 net.cpp:399] inception_3b/pool -> inception_3b/pool
I0403 18:03:09.115869 21191 net.cpp:141] Setting up inception_3b/pool
I0403 18:03:09.115897 21191 net.cpp:148] Top shape: 24 256 28 28 (4816896)
I0403 18:03:09.115916 21191 net.cpp:156] Memory required for data: 763479072
I0403 18:03:09.115933 21191 layer_factory.hpp:77] Creating layer inception_3b/pool_proj
I0403 18:03:09.115959 21191 net.cpp:91] Creating Layer inception_3b/pool_proj
I0403 18:03:09.115980 21191 net.cpp:425] inception_3b/pool_proj <- inception_3b/pool
I0403 18:03:09.116006 21191 net.cpp:399] inception_3b/pool_proj -> inception_3b/pool_proj
I0403 18:03:09.117283 21191 net.cpp:141] Setting up inception_3b/pool_proj
I0403 18:03:09.117318 21191 net.cpp:148] Top shape: 24 64 28 28 (1204224)
I0403 18:03:09.117337 21191 net.cpp:156] Memory required for data: 768295968
I0403 18:03:09.117359 21191 layer_factory.hpp:77] Creating layer inception_3b/relu_pool_proj
I0403 18:03:09.117380 21191 net.cpp:91] Creating Layer inception_3b/relu_pool_proj
I0403 18:03:09.117400 21191 net.cpp:425] inception_3b/relu_pool_proj <- inception_3b/pool_proj
I0403 18:03:09.117424 21191 net.cpp:386] inception_3b/relu_pool_proj -> inception_3b/pool_proj (in-place)
I0403 18:03:09.117897 21191 net.cpp:141] Setting up inception_3b/relu_pool_proj
I0403 18:03:09.117935 21191 net.cpp:148] Top shape: 24 64 28 28 (1204224)
I0403 18:03:09.117956 21191 net.cpp:156] Memory required for data: 773112864
I0403 18:03:09.117974 21191 layer_factory.hpp:77] Creating layer inception_3b/output
I0403 18:03:09.117993 21191 net.cpp:91] Creating Layer inception_3b/output
I0403 18:03:09.118012 21191 net.cpp:425] inception_3b/output <- inception_3b/1x1
I0403 18:03:09.118031 21191 net.cpp:425] inception_3b/output <- inception_3b/3x3
I0403 18:03:09.118051 21191 net.cpp:425] inception_3b/output <- inception_3b/5x5
I0403 18:03:09.118068 21191 net.cpp:425] inception_3b/output <- inception_3b/pool_proj
I0403 18:03:09.118091 21191 net.cpp:399] inception_3b/output -> inception_3b/output
I0403 18:03:09.118144 21191 net.cpp:141] Setting up inception_3b/output
I0403 18:03:09.118172 21191 net.cpp:148] Top shape: 24 480 28 28 (9031680)
I0403 18:03:09.118191 21191 net.cpp:156] Memory required for data: 809239584
I0403 18:03:09.118208 21191 layer_factory.hpp:77] Creating layer pool3/3x3_s2
I0403 18:03:09.118232 21191 net.cpp:91] Creating Layer pool3/3x3_s2
I0403 18:03:09.118252 21191 net.cpp:425] pool3/3x3_s2 <- inception_3b/output
I0403 18:03:09.118293 21191 net.cpp:399] pool3/3x3_s2 -> pool3/3x3_s2
I0403 18:03:09.118365 21191 net.cpp:141] Setting up pool3/3x3_s2
I0403 18:03:09.118393 21191 net.cpp:148] Top shape: 24 480 14 14 (2257920)
I0403 18:03:09.118412 21191 net.cpp:156] Memory required for data: 818271264
I0403 18:03:09.118429 21191 layer_factory.hpp:77] Creating layer pool3/3x3_s2_pool3/3x3_s2_0_split
I0403 18:03:09.118453 21191 net.cpp:91] Creating Layer pool3/3x3_s2_pool3/3x3_s2_0_split
I0403 18:03:09.118477 21191 net.cpp:425] pool3/3x3_s2_pool3/3x3_s2_0_split <- pool3/3x3_s2
I0403 18:03:09.118499 21191 net.cpp:399] pool3/3x3_s2_pool3/3x3_s2_0_split -> pool3/3x3_s2_pool3/3x3_s2_0_split_0
I0403 18:03:09.118528 21191 net.cpp:399] pool3/3x3_s2_pool3/3x3_s2_0_split -> pool3/3x3_s2_pool3/3x3_s2_0_split_1
I0403 18:03:09.118554 21191 net.cpp:399] pool3/3x3_s2_pool3/3x3_s2_0_split -> pool3/3x3_s2_pool3/3x3_s2_0_split_2
I0403 18:03:09.118579 21191 net.cpp:399] pool3/3x3_s2_pool3/3x3_s2_0_split -> pool3/3x3_s2_pool3/3x3_s2_0_split_3
I0403 18:03:09.118675 21191 net.cpp:141] Setting up pool3/3x3_s2_pool3/3x3_s2_0_split
I0403 18:03:09.118703 21191 net.cpp:148] Top shape: 24 480 14 14 (2257920)
I0403 18:03:09.118723 21191 net.cpp:148] Top shape: 24 480 14 14 (2257920)
I0403 18:03:09.118741 21191 net.cpp:148] Top shape: 24 480 14 14 (2257920)
I0403 18:03:09.118762 21191 net.cpp:148] Top shape: 24 480 14 14 (2257920)
I0403 18:03:09.118784 21191 net.cpp:156] Memory required for data: 854397984
I0403 18:03:09.118803 21191 layer_factory.hpp:77] Creating layer inception_4a/1x1
I0403 18:03:09.118829 21191 net.cpp:91] Creating Layer inception_4a/1x1
I0403 18:03:09.118850 21191 net.cpp:425] inception_4a/1x1 <- pool3/3x3_s2_pool3/3x3_s2_0_split_0
I0403 18:03:09.118875 21191 net.cpp:399] inception_4a/1x1 -> inception_4a/1x1
I0403 18:03:09.120781 21191 net.cpp:141] Setting up inception_4a/1x1
I0403 18:03:09.120816 21191 net.cpp:148] Top shape: 24 192 14 14 (903168)
I0403 18:03:09.120836 21191 net.cpp:156] Memory required for data: 858010656
I0403 18:03:09.120857 21191 layer_factory.hpp:77] Creating layer inception_4a/relu_1x1
I0403 18:03:09.120879 21191 net.cpp:91] Creating Layer inception_4a/relu_1x1
I0403 18:03:09.120898 21191 net.cpp:425] inception_4a/relu_1x1 <- inception_4a/1x1
I0403 18:03:09.120921 21191 net.cpp:386] inception_4a/relu_1x1 -> inception_4a/1x1 (in-place)
I0403 18:03:09.121135 21191 net.cpp:141] Setting up inception_4a/relu_1x1
I0403 18:03:09.121166 21191 net.cpp:148] Top shape: 24 192 14 14 (903168)
I0403 18:03:09.121183 21191 net.cpp:156] Memory required for data: 861623328
I0403 18:03:09.121202 21191 layer_factory.hpp:77] Creating layer inception_4a/3x3_reduce
I0403 18:03:09.121229 21191 net.cpp:91] Creating Layer inception_4a/3x3_reduce
I0403 18:03:09.121251 21191 net.cpp:425] inception_4a/3x3_reduce <- pool3/3x3_s2_pool3/3x3_s2_0_split_1
I0403 18:03:09.121279 21191 net.cpp:399] inception_4a/3x3_reduce -> inception_4a/3x3_reduce
I0403 18:03:09.122822 21191 net.cpp:141] Setting up inception_4a/3x3_reduce
I0403 18:03:09.122858 21191 net.cpp:148] Top shape: 24 96 14 14 (451584)
I0403 18:03:09.122875 21191 net.cpp:156] Memory required for data: 863429664
I0403 18:03:09.122905 21191 layer_factory.hpp:77] Creating layer inception_4a/relu_3x3_reduce
I0403 18:03:09.122931 21191 net.cpp:91] Creating Layer inception_4a/relu_3x3_reduce
I0403 18:03:09.122951 21191 net.cpp:425] inception_4a/relu_3x3_reduce <- inception_4a/3x3_reduce
I0403 18:03:09.122974 21191 net.cpp:386] inception_4a/relu_3x3_reduce -> inception_4a/3x3_reduce (in-place)
I0403 18:03:09.123191 21191 net.cpp:141] Setting up inception_4a/relu_3x3_reduce
I0403 18:03:09.123222 21191 net.cpp:148] Top shape: 24 96 14 14 (451584)
I0403 18:03:09.123239 21191 net.cpp:156] Memory required for data: 865236000
I0403 18:03:09.123256 21191 layer_factory.hpp:77] Creating layer inception_4a/3x3
I0403 18:03:09.123283 21191 net.cpp:91] Creating Layer inception_4a/3x3
I0403 18:03:09.123306 21191 net.cpp:425] inception_4a/3x3 <- inception_4a/3x3_reduce
I0403 18:03:09.123332 21191 net.cpp:399] inception_4a/3x3 -> inception_4a/3x3
I0403 18:03:09.126628 21191 net.cpp:141] Setting up inception_4a/3x3
I0403 18:03:09.126663 21191 net.cpp:148] Top shape: 24 208 14 14 (978432)
I0403 18:03:09.126682 21191 net.cpp:156] Memory required for data: 869149728
I0403 18:03:09.126705 21191 layer_factory.hpp:77] Creating layer inception_4a/relu_3x3
I0403 18:03:09.126731 21191 net.cpp:91] Creating Layer inception_4a/relu_3x3
I0403 18:03:09.126751 21191 net.cpp:425] inception_4a/relu_3x3 <- inception_4a/3x3
I0403 18:03:09.126773 21191 net.cpp:386] inception_4a/relu_3x3 -> inception_4a/3x3 (in-place)
I0403 18:03:09.127110 21191 net.cpp:141] Setting up inception_4a/relu_3x3
I0403 18:03:09.127141 21191 net.cpp:148] Top shape: 24 208 14 14 (978432)
I0403 18:03:09.127158 21191 net.cpp:156] Memory required for data: 873063456
I0403 18:03:09.127177 21191 layer_factory.hpp:77] Creating layer inception_4a/5x5_reduce
I0403 18:03:09.127204 21191 net.cpp:91] Creating Layer inception_4a/5x5_reduce
I0403 18:03:09.127230 21191 net.cpp:425] inception_4a/5x5_reduce <- pool3/3x3_s2_pool3/3x3_s2_0_split_2
I0403 18:03:09.127254 21191 net.cpp:399] inception_4a/5x5_reduce -> inception_4a/5x5_reduce
I0403 18:03:09.128499 21191 net.cpp:141] Setting up inception_4a/5x5_reduce
I0403 18:03:09.128537 21191 net.cpp:148] Top shape: 24 16 14 14 (75264)
I0403 18:03:09.128558 21191 net.cpp:156] Memory required for data: 873364512
I0403 18:03:09.128581 21191 layer_factory.hpp:77] Creating layer inception_4a/relu_5x5_reduce
I0403 18:03:09.128607 21191 net.cpp:91] Creating Layer inception_4a/relu_5x5_reduce
I0403 18:03:09.128628 21191 net.cpp:425] inception_4a/relu_5x5_reduce <- inception_4a/5x5_reduce
I0403 18:03:09.128649 21191 net.cpp:386] inception_4a/relu_5x5_reduce -> inception_4a/5x5_reduce (in-place)
I0403 18:03:09.128865 21191 net.cpp:141] Setting up inception_4a/relu_5x5_reduce
I0403 18:03:09.128895 21191 net.cpp:148] Top shape: 24 16 14 14 (75264)
I0403 18:03:09.128912 21191 net.cpp:156] Memory required for data: 873665568
I0403 18:03:09.128931 21191 layer_factory.hpp:77] Creating layer inception_4a/5x5
I0403 18:03:09.128958 21191 net.cpp:91] Creating Layer inception_4a/5x5
I0403 18:03:09.128979 21191 net.cpp:425] inception_4a/5x5 <- inception_4a/5x5_reduce
I0403 18:03:09.129004 21191 net.cpp:399] inception_4a/5x5 -> inception_4a/5x5
I0403 18:03:09.130314 21191 net.cpp:141] Setting up inception_4a/5x5
I0403 18:03:09.130350 21191 net.cpp:148] Top shape: 24 48 14 14 (225792)
I0403 18:03:09.130370 21191 net.cpp:156] Memory required for data: 874568736
I0403 18:03:09.130393 21191 layer_factory.hpp:77] Creating layer inception_4a/relu_5x5
I0403 18:03:09.130414 21191 net.cpp:91] Creating Layer inception_4a/relu_5x5
I0403 18:03:09.130434 21191 net.cpp:425] inception_4a/relu_5x5 <- inception_4a/5x5
I0403 18:03:09.130457 21191 net.cpp:386] inception_4a/relu_5x5 -> inception_4a/5x5 (in-place)
I0403 18:03:09.130681 21191 net.cpp:141] Setting up inception_4a/relu_5x5
I0403 18:03:09.130712 21191 net.cpp:148] Top shape: 24 48 14 14 (225792)
I0403 18:03:09.130730 21191 net.cpp:156] Memory required for data: 875471904
I0403 18:03:09.130748 21191 layer_factory.hpp:77] Creating layer inception_4a/pool
I0403 18:03:09.130774 21191 net.cpp:91] Creating Layer inception_4a/pool
I0403 18:03:09.130795 21191 net.cpp:425] inception_4a/pool <- pool3/3x3_s2_pool3/3x3_s2_0_split_3
I0403 18:03:09.130816 21191 net.cpp:399] inception_4a/pool -> inception_4a/pool
I0403 18:03:09.130892 21191 net.cpp:141] Setting up inception_4a/pool
I0403 18:03:09.130921 21191 net.cpp:148] Top shape: 24 480 14 14 (2257920)
I0403 18:03:09.130939 21191 net.cpp:156] Memory required for data: 884503584
I0403 18:03:09.130955 21191 layer_factory.hpp:77] Creating layer inception_4a/pool_proj
I0403 18:03:09.130982 21191 net.cpp:91] Creating Layer inception_4a/pool_proj
I0403 18:03:09.131005 21191 net.cpp:425] inception_4a/pool_proj <- inception_4a/pool
I0403 18:03:09.131029 21191 net.cpp:399] inception_4a/pool_proj -> inception_4a/pool_proj
I0403 18:03:09.132442 21191 net.cpp:141] Setting up inception_4a/pool_proj
I0403 18:03:09.132477 21191 net.cpp:148] Top shape: 24 64 14 14 (301056)
I0403 18:03:09.132524 21191 net.cpp:156] Memory required for data: 885707808
I0403 18:03:09.132550 21191 layer_factory.hpp:77] Creating layer inception_4a/relu_pool_proj
I0403 18:03:09.132575 21191 net.cpp:91] Creating Layer inception_4a/relu_pool_proj
I0403 18:03:09.132596 21191 net.cpp:425] inception_4a/relu_pool_proj <- inception_4a/pool_proj
I0403 18:03:09.132616 21191 net.cpp:386] inception_4a/relu_pool_proj -> inception_4a/pool_proj (in-place)
I0403 18:03:09.132951 21191 net.cpp:141] Setting up inception_4a/relu_pool_proj
I0403 18:03:09.132984 21191 net.cpp:148] Top shape: 24 64 14 14 (301056)
I0403 18:03:09.133003 21191 net.cpp:156] Memory required for data: 886912032
I0403 18:03:09.133021 21191 layer_factory.hpp:77] Creating layer inception_4a/output
I0403 18:03:09.133041 21191 net.cpp:91] Creating Layer inception_4a/output
I0403 18:03:09.133060 21191 net.cpp:425] inception_4a/output <- inception_4a/1x1
I0403 18:03:09.133080 21191 net.cpp:425] inception_4a/output <- inception_4a/3x3
I0403 18:03:09.133101 21191 net.cpp:425] inception_4a/output <- inception_4a/5x5
I0403 18:03:09.133119 21191 net.cpp:425] inception_4a/output <- inception_4a/pool_proj
I0403 18:03:09.133143 21191 net.cpp:399] inception_4a/output -> inception_4a/output
I0403 18:03:09.133198 21191 net.cpp:141] Setting up inception_4a/output
I0403 18:03:09.133230 21191 net.cpp:148] Top shape: 24 512 14 14 (2408448)
I0403 18:03:09.133250 21191 net.cpp:156] Memory required for data: 896545824
I0403 18:03:09.133268 21191 layer_factory.hpp:77] Creating layer inception_4a/output_inception_4a/output_0_split
I0403 18:03:09.133290 21191 net.cpp:91] Creating Layer inception_4a/output_inception_4a/output_0_split
I0403 18:03:09.133308 21191 net.cpp:425] inception_4a/output_inception_4a/output_0_split <- inception_4a/output
I0403 18:03:09.133332 21191 net.cpp:399] inception_4a/output_inception_4a/output_0_split -> inception_4a/output_inception_4a/output_0_split_0
I0403 18:03:09.133358 21191 net.cpp:399] inception_4a/output_inception_4a/output_0_split -> inception_4a/output_inception_4a/output_0_split_1
I0403 18:03:09.133383 21191 net.cpp:399] inception_4a/output_inception_4a/output_0_split -> inception_4a/output_inception_4a/output_0_split_2
I0403 18:03:09.133409 21191 net.cpp:399] inception_4a/output_inception_4a/output_0_split -> inception_4a/output_inception_4a/output_0_split_3
I0403 18:03:09.133433 21191 net.cpp:399] inception_4a/output_inception_4a/output_0_split -> inception_4a/output_inception_4a/output_0_split_4
I0403 18:03:09.133553 21191 net.cpp:141] Setting up inception_4a/output_inception_4a/output_0_split
I0403 18:03:09.133582 21191 net.cpp:148] Top shape: 24 512 14 14 (2408448)
I0403 18:03:09.133601 21191 net.cpp:148] Top shape: 24 512 14 14 (2408448)
I0403 18:03:09.133620 21191 net.cpp:148] Top shape: 24 512 14 14 (2408448)
I0403 18:03:09.133638 21191 net.cpp:148] Top shape: 24 512 14 14 (2408448)
I0403 18:03:09.133657 21191 net.cpp:148] Top shape: 24 512 14 14 (2408448)
I0403 18:03:09.133673 21191 net.cpp:156] Memory required for data: 944714784
I0403 18:03:09.133692 21191 layer_factory.hpp:77] Creating layer loss1/ave_pool
I0403 18:03:09.133715 21191 net.cpp:91] Creating Layer loss1/ave_pool
I0403 18:03:09.133735 21191 net.cpp:425] loss1/ave_pool <- inception_4a/output_inception_4a/output_0_split_0
I0403 18:03:09.133759 21191 net.cpp:399] loss1/ave_pool -> loss1/ave_pool
I0403 18:03:09.134006 21191 net.cpp:141] Setting up loss1/ave_pool
I0403 18:03:09.134040 21191 net.cpp:148] Top shape: 24 512 4 4 (196608)
I0403 18:03:09.134058 21191 net.cpp:156] Memory required for data: 945501216
I0403 18:03:09.134075 21191 layer_factory.hpp:77] Creating layer loss1/conv
I0403 18:03:09.134104 21191 net.cpp:91] Creating Layer loss1/conv
I0403 18:03:09.134124 21191 net.cpp:425] loss1/conv <- loss1/ave_pool
I0403 18:03:09.134150 21191 net.cpp:399] loss1/conv -> loss1/conv
I0403 18:03:09.135857 21191 net.cpp:141] Setting up loss1/conv
I0403 18:03:09.135892 21191 net.cpp:148] Top shape: 24 128 4 4 (49152)
I0403 18:03:09.135928 21191 net.cpp:156] Memory required for data: 945697824
I0403 18:03:09.135951 21191 layer_factory.hpp:77] Creating layer loss1/relu_conv
I0403 18:03:09.135978 21191 net.cpp:91] Creating Layer loss1/relu_conv
I0403 18:03:09.135999 21191 net.cpp:425] loss1/relu_conv <- loss1/conv
I0403 18:03:09.136020 21191 net.cpp:386] loss1/relu_conv -> loss1/conv (in-place)
I0403 18:03:09.136363 21191 net.cpp:141] Setting up loss1/relu_conv
I0403 18:03:09.136396 21191 net.cpp:148] Top shape: 24 128 4 4 (49152)
I0403 18:03:09.136416 21191 net.cpp:156] Memory required for data: 945894432
I0403 18:03:09.136435 21191 layer_factory.hpp:77] Creating layer loss1/fc
I0403 18:03:09.136466 21191 net.cpp:91] Creating Layer loss1/fc
I0403 18:03:09.136487 21191 net.cpp:425] loss1/fc <- loss1/conv
I0403 18:03:09.136518 21191 net.cpp:399] loss1/fc -> loss1/fc
I0403 18:03:09.158445 21191 net.cpp:141] Setting up loss1/fc
I0403 18:03:09.158486 21191 net.cpp:148] Top shape: 24 1024 (24576)
I0403 18:03:09.158511 21191 net.cpp:156] Memory required for data: 945992736
I0403 18:03:09.158537 21191 layer_factory.hpp:77] Creating layer loss1/relu_fc
I0403 18:03:09.158562 21191 net.cpp:91] Creating Layer loss1/relu_fc
I0403 18:03:09.158583 21191 net.cpp:425] loss1/relu_fc <- loss1/fc
I0403 18:03:09.158607 21191 net.cpp:386] loss1/relu_fc -> loss1/fc (in-place)
I0403 18:03:09.158833 21191 net.cpp:141] Setting up loss1/relu_fc
I0403 18:03:09.158864 21191 net.cpp:148] Top shape: 24 1024 (24576)
I0403 18:03:09.158885 21191 net.cpp:156] Memory required for data: 946091040
I0403 18:03:09.158905 21191 layer_factory.hpp:77] Creating layer loss1/drop_fc
I0403 18:03:09.158936 21191 net.cpp:91] Creating Layer loss1/drop_fc
I0403 18:03:09.158957 21191 net.cpp:425] loss1/drop_fc <- loss1/fc
I0403 18:03:09.158977 21191 net.cpp:386] loss1/drop_fc -> loss1/fc (in-place)
I0403 18:03:09.159042 21191 net.cpp:141] Setting up loss1/drop_fc
I0403 18:03:09.159071 21191 net.cpp:148] Top shape: 24 1024 (24576)
I0403 18:03:09.159090 21191 net.cpp:156] Memory required for data: 946189344
I0403 18:03:09.159108 21191 layer_factory.hpp:77] Creating layer loss1/classifier_plantvillage
I0403 18:03:09.159131 21191 net.cpp:91] Creating Layer loss1/classifier_plantvillage
I0403 18:03:09.159149 21191 net.cpp:425] loss1/classifier_plantvillage <- loss1/fc
I0403 18:03:09.159175 21191 net.cpp:399] loss1/classifier_plantvillage -> loss1/classifier_plantvillage
I0403 18:03:09.160275 21191 net.cpp:141] Setting up loss1/classifier_plantvillage
I0403 18:03:09.160310 21191 net.cpp:148] Top shape: 24 38 (912)
I0403 18:03:09.160329 21191 net.cpp:156] Memory required for data: 946192992
I0403 18:03:09.160351 21191 layer_factory.hpp:77] Creating layer loss1/classifier_plantvillage_loss1/classifier_plantvillage_0_split
I0403 18:03:09.160377 21191 net.cpp:91] Creating Layer loss1/classifier_plantvillage_loss1/classifier_plantvillage_0_split
I0403 18:03:09.160397 21191 net.cpp:425] loss1/classifier_plantvillage_loss1/classifier_plantvillage_0_split <- loss1/classifier_plantvillage
I0403 18:03:09.160418 21191 net.cpp:399] loss1/classifier_plantvillage_loss1/classifier_plantvillage_0_split -> loss1/classifier_plantvillage_loss1/classifier_plantvillage_0_split_0
I0403 18:03:09.160442 21191 net.cpp:399] loss1/classifier_plantvillage_loss1/classifier_plantvillage_0_split -> loss1/classifier_plantvillage_loss1/classifier_plantvillage_0_split_1
I0403 18:03:09.160467 21191 net.cpp:399] loss1/classifier_plantvillage_loss1/classifier_plantvillage_0_split -> loss1/classifier_plantvillage_loss1/classifier_plantvillage_0_split_2
I0403 18:03:09.160557 21191 net.cpp:141] Setting up loss1/classifier_plantvillage_loss1/classifier_plantvillage_0_split
I0403 18:03:09.160585 21191 net.cpp:148] Top shape: 24 38 (912)
I0403 18:03:09.160605 21191 net.cpp:148] Top shape: 24 38 (912)
I0403 18:03:09.160624 21191 net.cpp:148] Top shape: 24 38 (912)
I0403 18:03:09.160640 21191 net.cpp:156] Memory required for data: 946203936
I0403 18:03:09.160657 21191 layer_factory.hpp:77] Creating layer inception_4b/1x1
I0403 18:03:09.160686 21191 net.cpp:91] Creating Layer inception_4b/1x1
I0403 18:03:09.160724 21191 net.cpp:425] inception_4b/1x1 <- inception_4a/output_inception_4a/output_0_split_1
I0403 18:03:09.160748 21191 net.cpp:399] inception_4b/1x1 -> inception_4b/1x1
I0403 18:03:09.162727 21191 net.cpp:141] Setting up inception_4b/1x1
I0403 18:03:09.162762 21191 net.cpp:148] Top shape: 24 160 14 14 (752640)
I0403 18:03:09.162781 21191 net.cpp:156] Memory required for data: 949214496
I0403 18:03:09.162803 21191 layer_factory.hpp:77] Creating layer inception_4b/relu_1x1
I0403 18:03:09.162829 21191 net.cpp:91] Creating Layer inception_4b/relu_1x1
I0403 18:03:09.162850 21191 net.cpp:425] inception_4b/relu_1x1 <- inception_4b/1x1
I0403 18:03:09.162871 21191 net.cpp:386] inception_4b/relu_1x1 -> inception_4b/1x1 (in-place)
I0403 18:03:09.163086 21191 net.cpp:141] Setting up inception_4b/relu_1x1
I0403 18:03:09.163117 21191 net.cpp:148] Top shape: 24 160 14 14 (752640)
I0403 18:03:09.163136 21191 net.cpp:156] Memory required for data: 952225056
I0403 18:03:09.163153 21191 layer_factory.hpp:77] Creating layer inception_4b/3x3_reduce
I0403 18:03:09.163182 21191 net.cpp:91] Creating Layer inception_4b/3x3_reduce
I0403 18:03:09.163204 21191 net.cpp:425] inception_4b/3x3_reduce <- inception_4a/output_inception_4a/output_0_split_2
I0403 18:03:09.163230 21191 net.cpp:399] inception_4b/3x3_reduce -> inception_4b/3x3_reduce
I0403 18:03:09.164880 21191 net.cpp:141] Setting up inception_4b/3x3_reduce
I0403 18:03:09.164916 21191 net.cpp:148] Top shape: 24 112 14 14 (526848)
I0403 18:03:09.164937 21191 net.cpp:156] Memory required for data: 954332448
I0403 18:03:09.164958 21191 layer_factory.hpp:77] Creating layer inception_4b/relu_3x3_reduce
I0403 18:03:09.164979 21191 net.cpp:91] Creating Layer inception_4b/relu_3x3_reduce
I0403 18:03:09.164999 21191 net.cpp:425] inception_4b/relu_3x3_reduce <- inception_4b/3x3_reduce
I0403 18:03:09.165022 21191 net.cpp:386] inception_4b/relu_3x3_reduce -> inception_4b/3x3_reduce (in-place)
I0403 18:03:09.165364 21191 net.cpp:141] Setting up inception_4b/relu_3x3_reduce
I0403 18:03:09.165398 21191 net.cpp:148] Top shape: 24 112 14 14 (526848)
I0403 18:03:09.165416 21191 net.cpp:156] Memory required for data: 956439840
I0403 18:03:09.165433 21191 layer_factory.hpp:77] Creating layer inception_4b/3x3
I0403 18:03:09.165460 21191 net.cpp:91] Creating Layer inception_4b/3x3
I0403 18:03:09.165482 21191 net.cpp:425] inception_4b/3x3 <- inception_4b/3x3_reduce
I0403 18:03:09.165513 21191 net.cpp:399] inception_4b/3x3 -> inception_4b/3x3
I0403 18:03:09.169129 21191 net.cpp:141] Setting up inception_4b/3x3
I0403 18:03:09.169164 21191 net.cpp:148] Top shape: 24 224 14 14 (1053696)
I0403 18:03:09.169183 21191 net.cpp:156] Memory required for data: 960654624
I0403 18:03:09.169206 21191 layer_factory.hpp:77] Creating layer inception_4b/relu_3x3
I0403 18:03:09.169231 21191 net.cpp:91] Creating Layer inception_4b/relu_3x3
I0403 18:03:09.169252 21191 net.cpp:425] inception_4b/relu_3x3 <- inception_4b/3x3
I0403 18:03:09.169273 21191 net.cpp:386] inception_4b/relu_3x3 -> inception_4b/3x3 (in-place)
I0403 18:03:09.169495 21191 net.cpp:141] Setting up inception_4b/relu_3x3
I0403 18:03:09.169533 21191 net.cpp:148] Top shape: 24 224 14 14 (1053696)
I0403 18:03:09.169551 21191 net.cpp:156] Memory required for data: 964869408
I0403 18:03:09.169569 21191 layer_factory.hpp:77] Creating layer inception_4b/5x5_reduce
I0403 18:03:09.169592 21191 net.cpp:91] Creating Layer inception_4b/5x5_reduce
I0403 18:03:09.169612 21191 net.cpp:425] inception_4b/5x5_reduce <- inception_4a/output_inception_4a/output_0_split_3
I0403 18:03:09.169639 21191 net.cpp:399] inception_4b/5x5_reduce -> inception_4b/5x5_reduce
I0403 18:03:09.170969 21191 net.cpp:141] Setting up inception_4b/5x5_reduce
I0403 18:03:09.171010 21191 net.cpp:148] Top shape: 24 24 14 14 (112896)
I0403 18:03:09.171030 21191 net.cpp:156] Memory required for data: 965320992
I0403 18:03:09.171051 21191 layer_factory.hpp:77] Creating layer inception_4b/relu_5x5_reduce
I0403 18:03:09.171073 21191 net.cpp:91] Creating Layer inception_4b/relu_5x5_reduce
I0403 18:03:09.171110 21191 net.cpp:425] inception_4b/relu_5x5_reduce <- inception_4b/5x5_reduce
I0403 18:03:09.171133 21191 net.cpp:386] inception_4b/relu_5x5_reduce -> inception_4b/5x5_reduce (in-place)
I0403 18:03:09.171356 21191 net.cpp:141] Setting up inception_4b/relu_5x5_reduce
I0403 18:03:09.171386 21191 net.cpp:148] Top shape: 24 24 14 14 (112896)
I0403 18:03:09.171404 21191 net.cpp:156] Memory required for data: 965772576
I0403 18:03:09.171422 21191 layer_factory.hpp:77] Creating layer inception_4b/5x5
I0403 18:03:09.171449 21191 net.cpp:91] Creating Layer inception_4b/5x5
I0403 18:03:09.171470 21191 net.cpp:425] inception_4b/5x5 <- inception_4b/5x5_reduce
I0403 18:03:09.171496 21191 net.cpp:399] inception_4b/5x5 -> inception_4b/5x5
I0403 18:03:09.173002 21191 net.cpp:141] Setting up inception_4b/5x5
I0403 18:03:09.173035 21191 net.cpp:148] Top shape: 24 64 14 14 (301056)
I0403 18:03:09.173053 21191 net.cpp:156] Memory required for data: 966976800
I0403 18:03:09.173074 21191 layer_factory.hpp:77] Creating layer inception_4b/relu_5x5
I0403 18:03:09.173099 21191 net.cpp:91] Creating Layer inception_4b/relu_5x5
I0403 18:03:09.173120 21191 net.cpp:425] inception_4b/relu_5x5 <- inception_4b/5x5
I0403 18:03:09.173140 21191 net.cpp:386] inception_4b/relu_5x5 -> inception_4b/5x5 (in-place)
I0403 18:03:09.173480 21191 net.cpp:141] Setting up inception_4b/relu_5x5
I0403 18:03:09.173516 21191 net.cpp:148] Top shape: 24 64 14 14 (301056)
I0403 18:03:09.173535 21191 net.cpp:156] Memory required for data: 968181024
I0403 18:03:09.173552 21191 layer_factory.hpp:77] Creating layer inception_4b/pool
I0403 18:03:09.173578 21191 net.cpp:91] Creating Layer inception_4b/pool
I0403 18:03:09.173598 21191 net.cpp:425] inception_4b/pool <- inception_4a/output_inception_4a/output_0_split_4
I0403 18:03:09.173619 21191 net.cpp:399] inception_4b/pool -> inception_4b/pool
I0403 18:03:09.173698 21191 net.cpp:141] Setting up inception_4b/pool
I0403 18:03:09.173727 21191 net.cpp:148] Top shape: 24 512 14 14 (2408448)
I0403 18:03:09.173743 21191 net.cpp:156] Memory required for data: 977814816
I0403 18:03:09.173760 21191 layer_factory.hpp:77] Creating layer inception_4b/pool_proj
I0403 18:03:09.173787 21191 net.cpp:91] Creating Layer inception_4b/pool_proj
I0403 18:03:09.173807 21191 net.cpp:425] inception_4b/pool_proj <- inception_4b/pool
I0403 18:03:09.173832 21191 net.cpp:399] inception_4b/pool_proj -> inception_4b/pool_proj
I0403 18:03:09.175307 21191 net.cpp:141] Setting up inception_4b/pool_proj
I0403 18:03:09.175348 21191 net.cpp:148] Top shape: 24 64 14 14 (301056)
I0403 18:03:09.175367 21191 net.cpp:156] Memory required for data: 979019040
I0403 18:03:09.175390 21191 layer_factory.hpp:77] Creating layer inception_4b/relu_pool_proj
I0403 18:03:09.175411 21191 net.cpp:91] Creating Layer inception_4b/relu_pool_proj
I0403 18:03:09.175431 21191 net.cpp:425] inception_4b/relu_pool_proj <- inception_4b/pool_proj
I0403 18:03:09.175453 21191 net.cpp:386] inception_4b/relu_pool_proj -> inception_4b/pool_proj (in-place)
I0403 18:03:09.175678 21191 net.cpp:141] Setting up inception_4b/relu_pool_proj
I0403 18:03:09.175709 21191 net.cpp:148] Top shape: 24 64 14 14 (301056)
I0403 18:03:09.175726 21191 net.cpp:156] Memory required for data: 980223264
I0403 18:03:09.175742 21191 layer_factory.hpp:77] Creating layer inception_4b/output
I0403 18:03:09.175763 21191 net.cpp:91] Creating Layer inception_4b/output
I0403 18:03:09.175781 21191 net.cpp:425] inception_4b/output <- inception_4b/1x1
I0403 18:03:09.175801 21191 net.cpp:425] inception_4b/output <- inception_4b/3x3
I0403 18:03:09.175820 21191 net.cpp:425] inception_4b/output <- inception_4b/5x5
I0403 18:03:09.175838 21191 net.cpp:425] inception_4b/output <- inception_4b/pool_proj
I0403 18:03:09.175861 21191 net.cpp:399] inception_4b/output -> inception_4b/output
I0403 18:03:09.175916 21191 net.cpp:141] Setting up inception_4b/output
I0403 18:03:09.175948 21191 net.cpp:148] Top shape: 24 512 14 14 (2408448)
I0403 18:03:09.175967 21191 net.cpp:156] Memory required for data: 989857056
I0403 18:03:09.176002 21191 layer_factory.hpp:77] Creating layer inception_4b/output_inception_4b/output_0_split
I0403 18:03:09.176023 21191 net.cpp:91] Creating Layer inception_4b/output_inception_4b/output_0_split
I0403 18:03:09.176041 21191 net.cpp:425] inception_4b/output_inception_4b/output_0_split <- inception_4b/output
I0403 18:03:09.176061 21191 net.cpp:399] inception_4b/output_inception_4b/output_0_split -> inception_4b/output_inception_4b/output_0_split_0
I0403 18:03:09.176085 21191 net.cpp:399] inception_4b/output_inception_4b/output_0_split -> inception_4b/output_inception_4b/output_0_split_1
I0403 18:03:09.176111 21191 net.cpp:399] inception_4b/output_inception_4b/output_0_split -> inception_4b/output_inception_4b/output_0_split_2
I0403 18:03:09.176137 21191 net.cpp:399] inception_4b/output_inception_4b/output_0_split -> inception_4b/output_inception_4b/output_0_split_3
I0403 18:03:09.176244 21191 net.cpp:141] Setting up inception_4b/output_inception_4b/output_0_split
I0403 18:03:09.176271 21191 net.cpp:148] Top shape: 24 512 14 14 (2408448)
I0403 18:03:09.176290 21191 net.cpp:148] Top shape: 24 512 14 14 (2408448)
I0403 18:03:09.176308 21191 net.cpp:148] Top shape: 24 512 14 14 (2408448)
I0403 18:03:09.176326 21191 net.cpp:148] Top shape: 24 512 14 14 (2408448)
I0403 18:03:09.176342 21191 net.cpp:156] Memory required for data: 1028392224
I0403 18:03:09.176358 21191 layer_factory.hpp:77] Creating layer inception_4c/1x1
I0403 18:03:09.176384 21191 net.cpp:91] Creating Layer inception_4c/1x1
I0403 18:03:09.176405 21191 net.cpp:425] inception_4c/1x1 <- inception_4b/output_inception_4b/output_0_split_0
I0403 18:03:09.176430 21191 net.cpp:399] inception_4c/1x1 -> inception_4c/1x1
I0403 18:03:09.178181 21191 net.cpp:141] Setting up inception_4c/1x1
I0403 18:03:09.178216 21191 net.cpp:148] Top shape: 24 128 14 14 (602112)
I0403 18:03:09.178234 21191 net.cpp:156] Memory required for data: 1030800672
I0403 18:03:09.178256 21191 layer_factory.hpp:77] Creating layer inception_4c/relu_1x1
I0403 18:03:09.178278 21191 net.cpp:91] Creating Layer inception_4c/relu_1x1
I0403 18:03:09.178298 21191 net.cpp:425] inception_4c/relu_1x1 <- inception_4c/1x1
I0403 18:03:09.178321 21191 net.cpp:386] inception_4c/relu_1x1 -> inception_4c/1x1 (in-place)
I0403 18:03:09.178552 21191 net.cpp:141] Setting up inception_4c/relu_1x1
I0403 18:03:09.178582 21191 net.cpp:148] Top shape: 24 128 14 14 (602112)
I0403 18:03:09.178599 21191 net.cpp:156] Memory required for data: 1033209120
I0403 18:03:09.178617 21191 layer_factory.hpp:77] Creating layer inception_4c/3x3_reduce
I0403 18:03:09.178643 21191 net.cpp:91] Creating Layer inception_4c/3x3_reduce
I0403 18:03:09.178664 21191 net.cpp:425] inception_4c/3x3_reduce <- inception_4b/output_inception_4b/output_0_split_1
I0403 18:03:09.178689 21191 net.cpp:399] inception_4c/3x3_reduce -> inception_4c/3x3_reduce
I0403 18:03:09.181046 21191 net.cpp:141] Setting up inception_4c/3x3_reduce
I0403 18:03:09.181080 21191 net.cpp:148] Top shape: 24 128 14 14 (602112)
I0403 18:03:09.181099 21191 net.cpp:156] Memory required for data: 1035617568
I0403 18:03:09.181120 21191 layer_factory.hpp:77] Creating layer inception_4c/relu_3x3_reduce
I0403 18:03:09.181146 21191 net.cpp:91] Creating Layer inception_4c/relu_3x3_reduce
I0403 18:03:09.181166 21191 net.cpp:425] inception_4c/relu_3x3_reduce <- inception_4c/3x3_reduce
I0403 18:03:09.181187 21191 net.cpp:386] inception_4c/relu_3x3_reduce -> inception_4c/3x3_reduce (in-place)
I0403 18:03:09.181535 21191 net.cpp:141] Setting up inception_4c/relu_3x3_reduce
I0403 18:03:09.181567 21191 net.cpp:148] Top shape: 24 128 14 14 (602112)
I0403 18:03:09.181586 21191 net.cpp:156] Memory required for data: 1038026016
I0403 18:03:09.181603 21191 layer_factory.hpp:77] Creating layer inception_4c/3x3
I0403 18:03:09.181630 21191 net.cpp:91] Creating Layer inception_4c/3x3
I0403 18:03:09.181651 21191 net.cpp:425] inception_4c/3x3 <- inception_4c/3x3_reduce
I0403 18:03:09.181679 21191 net.cpp:399] inception_4c/3x3 -> inception_4c/3x3
I0403 18:03:09.186122 21191 net.cpp:141] Setting up inception_4c/3x3
I0403 18:03:09.186172 21191 net.cpp:148] Top shape: 24 256 14 14 (1204224)
I0403 18:03:09.186192 21191 net.cpp:156] Memory required for data: 1042842912
I0403 18:03:09.186230 21191 layer_factory.hpp:77] Creating layer inception_4c/relu_3x3
I0403 18:03:09.186257 21191 net.cpp:91] Creating Layer inception_4c/relu_3x3
I0403 18:03:09.186278 21191 net.cpp:425] inception_4c/relu_3x3 <- inception_4c/3x3
I0403 18:03:09.186300 21191 net.cpp:386] inception_4c/relu_3x3 -> inception_4c/3x3 (in-place)
I0403 18:03:09.186527 21191 net.cpp:141] Setting up inception_4c/relu_3x3
I0403 18:03:09.186559 21191 net.cpp:148] Top shape: 24 256 14 14 (1204224)
I0403 18:03:09.186578 21191 net.cpp:156] Memory required for data: 1047659808
I0403 18:03:09.186595 21191 layer_factory.hpp:77] Creating layer inception_4c/5x5_reduce
I0403 18:03:09.186625 21191 net.cpp:91] Creating Layer inception_4c/5x5_reduce
I0403 18:03:09.186646 21191 net.cpp:425] inception_4c/5x5_reduce <- inception_4b/output_inception_4b/output_0_split_2
I0403 18:03:09.186669 21191 net.cpp:399] inception_4c/5x5_reduce -> inception_4c/5x5_reduce
I0403 18:03:09.188010 21191 net.cpp:141] Setting up inception_4c/5x5_reduce
I0403 18:03:09.188047 21191 net.cpp:148] Top shape: 24 24 14 14 (112896)
I0403 18:03:09.188066 21191 net.cpp:156] Memory required for data: 1048111392
I0403 18:03:09.188088 21191 layer_factory.hpp:77] Creating layer inception_4c/relu_5x5_reduce
I0403 18:03:09.188110 21191 net.cpp:91] Creating Layer inception_4c/relu_5x5_reduce
I0403 18:03:09.188129 21191 net.cpp:425] inception_4c/relu_5x5_reduce <- inception_4c/5x5_reduce
I0403 18:03:09.188149 21191 net.cpp:386] inception_4c/relu_5x5_reduce -> inception_4c/5x5_reduce (in-place)
I0403 18:03:09.188405 21191 net.cpp:141] Setting up inception_4c/relu_5x5_reduce
I0403 18:03:09.188436 21191 net.cpp:148] Top shape: 24 24 14 14 (112896)
I0403 18:03:09.188453 21191 net.cpp:156] Memory required for data: 1048562976
I0403 18:03:09.188470 21191 layer_factory.hpp:77] Creating layer inception_4c/5x5
I0403 18:03:09.188496 21191 net.cpp:91] Creating Layer inception_4c/5x5
I0403 18:03:09.188524 21191 net.cpp:425] inception_4c/5x5 <- inception_4c/5x5_reduce
I0403 18:03:09.188550 21191 net.cpp:399] inception_4c/5x5 -> inception_4c/5x5
I0403 18:03:09.190073 21191 net.cpp:141] Setting up inception_4c/5x5
I0403 18:03:09.190105 21191 net.cpp:148] Top shape: 24 64 14 14 (301056)
I0403 18:03:09.190124 21191 net.cpp:156] Memory required for data: 1049767200
I0403 18:03:09.190146 21191 layer_factory.hpp:77] Creating layer inception_4c/relu_5x5
I0403 18:03:09.190168 21191 net.cpp:91] Creating Layer inception_4c/relu_5x5
I0403 18:03:09.190187 21191 net.cpp:425] inception_4c/relu_5x5 <- inception_4c/5x5
I0403 18:03:09.190210 21191 net.cpp:386] inception_4c/relu_5x5 -> inception_4c/5x5 (in-place)
I0403 18:03:09.190567 21191 net.cpp:141] Setting up inception_4c/relu_5x5
I0403 18:03:09.190599 21191 net.cpp:148] Top shape: 24 64 14 14 (301056)
I0403 18:03:09.190618 21191 net.cpp:156] Memory required for data: 1050971424
I0403 18:03:09.190636 21191 layer_factory.hpp:77] Creating layer inception_4c/pool
I0403 18:03:09.190659 21191 net.cpp:91] Creating Layer inception_4c/pool
I0403 18:03:09.190677 21191 net.cpp:425] inception_4c/pool <- inception_4b/output_inception_4b/output_0_split_3
I0403 18:03:09.190702 21191 net.cpp:399] inception_4c/pool -> inception_4c/pool
I0403 18:03:09.190784 21191 net.cpp:141] Setting up inception_4c/pool
I0403 18:03:09.190814 21191 net.cpp:148] Top shape: 24 512 14 14 (2408448)
I0403 18:03:09.190830 21191 net.cpp:156] Memory required for data: 1060605216
I0403 18:03:09.190847 21191 layer_factory.hpp:77] Creating layer inception_4c/pool_proj
I0403 18:03:09.190876 21191 net.cpp:91] Creating Layer inception_4c/pool_proj
I0403 18:03:09.190897 21191 net.cpp:425] inception_4c/pool_proj <- inception_4c/pool
I0403 18:03:09.190920 21191 net.cpp:399] inception_4c/pool_proj -> inception_4c/pool_proj
I0403 18:03:09.192421 21191 net.cpp:141] Setting up inception_4c/pool_proj
I0403 18:03:09.192456 21191 net.cpp:148] Top shape: 24 64 14 14 (301056)
I0403 18:03:09.192492 21191 net.cpp:156] Memory required for data: 1061809440
I0403 18:03:09.192524 21191 layer_factory.hpp:77] Creating layer inception_4c/relu_pool_proj
I0403 18:03:09.192551 21191 net.cpp:91] Creating Layer inception_4c/relu_pool_proj
I0403 18:03:09.192572 21191 net.cpp:425] inception_4c/relu_pool_proj <- inception_4c/pool_proj
I0403 18:03:09.192595 21191 net.cpp:386] inception_4c/relu_pool_proj -> inception_4c/pool_proj (in-place)
I0403 18:03:09.192826 21191 net.cpp:141] Setting up inception_4c/relu_pool_proj
I0403 18:03:09.192857 21191 net.cpp:148] Top shape: 24 64 14 14 (301056)
I0403 18:03:09.192874 21191 net.cpp:156] Memory required for data: 1063013664
I0403 18:03:09.192891 21191 layer_factory.hpp:77] Creating layer inception_4c/output
I0403 18:03:09.192912 21191 net.cpp:91] Creating Layer inception_4c/output
I0403 18:03:09.192931 21191 net.cpp:425] inception_4c/output <- inception_4c/1x1
I0403 18:03:09.192951 21191 net.cpp:425] inception_4c/output <- inception_4c/3x3
I0403 18:03:09.192970 21191 net.cpp:425] inception_4c/output <- inception_4c/5x5
I0403 18:03:09.192988 21191 net.cpp:425] inception_4c/output <- inception_4c/pool_proj
I0403 18:03:09.193011 21191 net.cpp:399] inception_4c/output -> inception_4c/output
I0403 18:03:09.193068 21191 net.cpp:141] Setting up inception_4c/output
I0403 18:03:09.193100 21191 net.cpp:148] Top shape: 24 512 14 14 (2408448)
I0403 18:03:09.193119 21191 net.cpp:156] Memory required for data: 1072647456
I0403 18:03:09.193136 21191 layer_factory.hpp:77] Creating layer inception_4c/output_inception_4c/output_0_split
I0403 18:03:09.193156 21191 net.cpp:91] Creating Layer inception_4c/output_inception_4c/output_0_split
I0403 18:03:09.193176 21191 net.cpp:425] inception_4c/output_inception_4c/output_0_split <- inception_4c/output
I0403 18:03:09.193195 21191 net.cpp:399] inception_4c/output_inception_4c/output_0_split -> inception_4c/output_inception_4c/output_0_split_0
I0403 18:03:09.193220 21191 net.cpp:399] inception_4c/output_inception_4c/output_0_split -> inception_4c/output_inception_4c/output_0_split_1
I0403 18:03:09.193248 21191 net.cpp:399] inception_4c/output_inception_4c/output_0_split -> inception_4c/output_inception_4c/output_0_split_2
I0403 18:03:09.193275 21191 net.cpp:399] inception_4c/output_inception_4c/output_0_split -> inception_4c/output_inception_4c/output_0_split_3
I0403 18:03:09.193384 21191 net.cpp:141] Setting up inception_4c/output_inception_4c/output_0_split
I0403 18:03:09.193413 21191 net.cpp:148] Top shape: 24 512 14 14 (2408448)
I0403 18:03:09.193433 21191 net.cpp:148] Top shape: 24 512 14 14 (2408448)
I0403 18:03:09.193450 21191 net.cpp:148] Top shape: 24 512 14 14 (2408448)
I0403 18:03:09.193470 21191 net.cpp:148] Top shape: 24 512 14 14 (2408448)
I0403 18:03:09.193485 21191 net.cpp:156] Memory required for data: 1111182624
I0403 18:03:09.193502 21191 layer_factory.hpp:77] Creating layer inception_4d/1x1
I0403 18:03:09.193539 21191 net.cpp:91] Creating Layer inception_4d/1x1
I0403 18:03:09.193562 21191 net.cpp:425] inception_4d/1x1 <- inception_4c/output_inception_4c/output_0_split_0
I0403 18:03:09.193586 21191 net.cpp:399] inception_4d/1x1 -> inception_4d/1x1
I0403 18:03:09.195288 21191 net.cpp:141] Setting up inception_4d/1x1
I0403 18:03:09.195333 21191 net.cpp:148] Top shape: 24 112 14 14 (526848)
I0403 18:03:09.195350 21191 net.cpp:156] Memory required for data: 1113290016
I0403 18:03:09.195371 21191 layer_factory.hpp:77] Creating layer inception_4d/relu_1x1
I0403 18:03:09.195396 21191 net.cpp:91] Creating Layer inception_4d/relu_1x1
I0403 18:03:09.195416 21191 net.cpp:425] inception_4d/relu_1x1 <- inception_4d/1x1
I0403 18:03:09.195436 21191 net.cpp:386] inception_4d/relu_1x1 -> inception_4d/1x1 (in-place)
I0403 18:03:09.195669 21191 net.cpp:141] Setting up inception_4d/relu_1x1
I0403 18:03:09.195703 21191 net.cpp:148] Top shape: 24 112 14 14 (526848)
I0403 18:03:09.195720 21191 net.cpp:156] Memory required for data: 1115397408
I0403 18:03:09.195737 21191 layer_factory.hpp:77] Creating layer inception_4d/3x3_reduce
I0403 18:03:09.195782 21191 net.cpp:91] Creating Layer inception_4d/3x3_reduce
I0403 18:03:09.195806 21191 net.cpp:425] inception_4d/3x3_reduce <- inception_4c/output_inception_4c/output_0_split_1
I0403 18:03:09.195828 21191 net.cpp:399] inception_4d/3x3_reduce -> inception_4d/3x3_reduce
I0403 18:03:09.197676 21191 net.cpp:141] Setting up inception_4d/3x3_reduce
I0403 18:03:09.197710 21191 net.cpp:148] Top shape: 24 144 14 14 (677376)
I0403 18:03:09.197727 21191 net.cpp:156] Memory required for data: 1118106912
I0403 18:03:09.197748 21191 layer_factory.hpp:77] Creating layer inception_4d/relu_3x3_reduce
I0403 18:03:09.197772 21191 net.cpp:91] Creating Layer inception_4d/relu_3x3_reduce
I0403 18:03:09.197794 21191 net.cpp:425] inception_4d/relu_3x3_reduce <- inception_4d/3x3_reduce
I0403 18:03:09.197814 21191 net.cpp:386] inception_4d/relu_3x3_reduce -> inception_4d/3x3_reduce (in-place)
I0403 18:03:09.198163 21191 net.cpp:141] Setting up inception_4d/relu_3x3_reduce
I0403 18:03:09.198195 21191 net.cpp:148] Top shape: 24 144 14 14 (677376)
I0403 18:03:09.198213 21191 net.cpp:156] Memory required for data: 1120816416
I0403 18:03:09.198230 21191 layer_factory.hpp:77] Creating layer inception_4d/3x3
I0403 18:03:09.198256 21191 net.cpp:91] Creating Layer inception_4d/3x3
I0403 18:03:09.198277 21191 net.cpp:425] inception_4d/3x3 <- inception_4d/3x3_reduce
I0403 18:03:09.198302 21191 net.cpp:399] inception_4d/3x3 -> inception_4d/3x3
I0403 18:03:09.203580 21191 net.cpp:141] Setting up inception_4d/3x3
I0403 18:03:09.203619 21191 net.cpp:148] Top shape: 24 288 14 14 (1354752)
I0403 18:03:09.203639 21191 net.cpp:156] Memory required for data: 1126235424
I0403 18:03:09.203665 21191 layer_factory.hpp:77] Creating layer inception_4d/relu_3x3
I0403 18:03:09.203691 21191 net.cpp:91] Creating Layer inception_4d/relu_3x3
I0403 18:03:09.203713 21191 net.cpp:425] inception_4d/relu_3x3 <- inception_4d/3x3
I0403 18:03:09.203737 21191 net.cpp:386] inception_4d/relu_3x3 -> inception_4d/3x3 (in-place)
I0403 18:03:09.203960 21191 net.cpp:141] Setting up inception_4d/relu_3x3
I0403 18:03:09.203992 21191 net.cpp:148] Top shape: 24 288 14 14 (1354752)
I0403 18:03:09.204010 21191 net.cpp:156] Memory required for data: 1131654432
I0403 18:03:09.204027 21191 layer_factory.hpp:77] Creating layer inception_4d/5x5_reduce
I0403 18:03:09.204054 21191 net.cpp:91] Creating Layer inception_4d/5x5_reduce
I0403 18:03:09.204076 21191 net.cpp:425] inception_4d/5x5_reduce <- inception_4c/output_inception_4c/output_0_split_2
I0403 18:03:09.204098 21191 net.cpp:399] inception_4d/5x5_reduce -> inception_4d/5x5_reduce
I0403 18:03:09.205504 21191 net.cpp:141] Setting up inception_4d/5x5_reduce
I0403 18:03:09.205544 21191 net.cpp:148] Top shape: 24 32 14 14 (150528)
I0403 18:03:09.205562 21191 net.cpp:156] Memory required for data: 1132256544
I0403 18:03:09.205585 21191 layer_factory.hpp:77] Creating layer inception_4d/relu_5x5_reduce
I0403 18:03:09.205608 21191 net.cpp:91] Creating Layer inception_4d/relu_5x5_reduce
I0403 18:03:09.205629 21191 net.cpp:425] inception_4d/relu_5x5_reduce <- inception_4d/5x5_reduce
I0403 18:03:09.205649 21191 net.cpp:386] inception_4d/relu_5x5_reduce -> inception_4d/5x5_reduce (in-place)
I0403 18:03:09.205875 21191 net.cpp:141] Setting up inception_4d/relu_5x5_reduce
I0403 18:03:09.205909 21191 net.cpp:148] Top shape: 24 32 14 14 (150528)
I0403 18:03:09.205929 21191 net.cpp:156] Memory required for data: 1132858656
I0403 18:03:09.205945 21191 layer_factory.hpp:77] Creating layer inception_4d/5x5
I0403 18:03:09.205972 21191 net.cpp:91] Creating Layer inception_4d/5x5
I0403 18:03:09.205993 21191 net.cpp:425] inception_4d/5x5 <- inception_4d/5x5_reduce
I0403 18:03:09.206015 21191 net.cpp:399] inception_4d/5x5 -> inception_4d/5x5
I0403 18:03:09.207814 21191 net.cpp:141] Setting up inception_4d/5x5
I0403 18:03:09.207850 21191 net.cpp:148] Top shape: 24 64 14 14 (301056)
I0403 18:03:09.207870 21191 net.cpp:156] Memory required for data: 1134062880
I0403 18:03:09.207892 21191 layer_factory.hpp:77] Creating layer inception_4d/relu_5x5
I0403 18:03:09.207937 21191 net.cpp:91] Creating Layer inception_4d/relu_5x5
I0403 18:03:09.207957 21191 net.cpp:425] inception_4d/relu_5x5 <- inception_4d/5x5
I0403 18:03:09.207980 21191 net.cpp:386] inception_4d/relu_5x5 -> inception_4d/5x5 (in-place)
I0403 18:03:09.208339 21191 net.cpp:141] Setting up inception_4d/relu_5x5
I0403 18:03:09.208374 21191 net.cpp:148] Top shape: 24 64 14 14 (301056)
I0403 18:03:09.208392 21191 net.cpp:156] Memory required for data: 1135267104
I0403 18:03:09.208410 21191 layer_factory.hpp:77] Creating layer inception_4d/pool
I0403 18:03:09.208431 21191 net.cpp:91] Creating Layer inception_4d/pool
I0403 18:03:09.208451 21191 net.cpp:425] inception_4d/pool <- inception_4c/output_inception_4c/output_0_split_3
I0403 18:03:09.208474 21191 net.cpp:399] inception_4d/pool -> inception_4d/pool
I0403 18:03:09.208564 21191 net.cpp:141] Setting up inception_4d/pool
I0403 18:03:09.208593 21191 net.cpp:148] Top shape: 24 512 14 14 (2408448)
I0403 18:03:09.208611 21191 net.cpp:156] Memory required for data: 1144900896
I0403 18:03:09.208627 21191 layer_factory.hpp:77] Creating layer inception_4d/pool_proj
I0403 18:03:09.208655 21191 net.cpp:91] Creating Layer inception_4d/pool_proj
I0403 18:03:09.208676 21191 net.cpp:425] inception_4d/pool_proj <- inception_4d/pool
I0403 18:03:09.208698 21191 net.cpp:399] inception_4d/pool_proj -> inception_4d/pool_proj
I0403 18:03:09.211519 21191 net.cpp:141] Setting up inception_4d/pool_proj
I0403 18:03:09.211555 21191 net.cpp:148] Top shape: 24 64 14 14 (301056)
I0403 18:03:09.211575 21191 net.cpp:156] Memory required for data: 1146105120
I0403 18:03:09.211596 21191 layer_factory.hpp:77] Creating layer inception_4d/relu_pool_proj
I0403 18:03:09.211621 21191 net.cpp:91] Creating Layer inception_4d/relu_pool_proj
I0403 18:03:09.211642 21191 net.cpp:425] inception_4d/relu_pool_proj <- inception_4d/pool_proj
I0403 18:03:09.211663 21191 net.cpp:386] inception_4d/relu_pool_proj -> inception_4d/pool_proj (in-place)
I0403 18:03:09.211894 21191 net.cpp:141] Setting up inception_4d/relu_pool_proj
I0403 18:03:09.211925 21191 net.cpp:148] Top shape: 24 64 14 14 (301056)
I0403 18:03:09.211944 21191 net.cpp:156] Memory required for data: 1147309344
I0403 18:03:09.211961 21191 layer_factory.hpp:77] Creating layer inception_4d/output
I0403 18:03:09.211982 21191 net.cpp:91] Creating Layer inception_4d/output
I0403 18:03:09.212000 21191 net.cpp:425] inception_4d/output <- inception_4d/1x1
I0403 18:03:09.212020 21191 net.cpp:425] inception_4d/output <- inception_4d/3x3
I0403 18:03:09.212038 21191 net.cpp:425] inception_4d/output <- inception_4d/5x5
I0403 18:03:09.212057 21191 net.cpp:425] inception_4d/output <- inception_4d/pool_proj
I0403 18:03:09.212077 21191 net.cpp:399] inception_4d/output -> inception_4d/output
I0403 18:03:09.212137 21191 net.cpp:141] Setting up inception_4d/output
I0403 18:03:09.212165 21191 net.cpp:148] Top shape: 24 528 14 14 (2483712)
I0403 18:03:09.212182 21191 net.cpp:156] Memory required for data: 1157244192
I0403 18:03:09.212208 21191 layer_factory.hpp:77] Creating layer inception_4d/output_inception_4d/output_0_split
I0403 18:03:09.212230 21191 net.cpp:91] Creating Layer inception_4d/output_inception_4d/output_0_split
I0403 18:03:09.212249 21191 net.cpp:425] inception_4d/output_inception_4d/output_0_split <- inception_4d/output
I0403 18:03:09.212270 21191 net.cpp:399] inception_4d/output_inception_4d/output_0_split -> inception_4d/output_inception_4d/output_0_split_0
I0403 18:03:09.212296 21191 net.cpp:399] inception_4d/output_inception_4d/output_0_split -> inception_4d/output_inception_4d/output_0_split_1
I0403 18:03:09.212326 21191 net.cpp:399] inception_4d/output_inception_4d/output_0_split -> inception_4d/output_inception_4d/output_0_split_2
I0403 18:03:09.212352 21191 net.cpp:399] inception_4d/output_inception_4d/output_0_split -> inception_4d/output_inception_4d/output_0_split_3
I0403 18:03:09.212375 21191 net.cpp:399] inception_4d/output_inception_4d/output_0_split -> inception_4d/output_inception_4d/output_0_split_4
I0403 18:03:09.212501 21191 net.cpp:141] Setting up inception_4d/output_inception_4d/output_0_split
I0403 18:03:09.212548 21191 net.cpp:148] Top shape: 24 528 14 14 (2483712)
I0403 18:03:09.212569 21191 net.cpp:148] Top shape: 24 528 14 14 (2483712)
I0403 18:03:09.212587 21191 net.cpp:148] Top shape: 24 528 14 14 (2483712)
I0403 18:03:09.212605 21191 net.cpp:148] Top shape: 24 528 14 14 (2483712)
I0403 18:03:09.212623 21191 net.cpp:148] Top shape: 24 528 14 14 (2483712)
I0403 18:03:09.212640 21191 net.cpp:156] Memory required for data: 1206918432
I0403 18:03:09.212657 21191 layer_factory.hpp:77] Creating layer loss2/ave_pool
I0403 18:03:09.212678 21191 net.cpp:91] Creating Layer loss2/ave_pool
I0403 18:03:09.212697 21191 net.cpp:425] loss2/ave_pool <- inception_4d/output_inception_4d/output_0_split_0
I0403 18:03:09.212721 21191 net.cpp:399] loss2/ave_pool -> loss2/ave_pool
I0403 18:03:09.213104 21191 net.cpp:141] Setting up loss2/ave_pool
I0403 18:03:09.213135 21191 net.cpp:148] Top shape: 24 528 4 4 (202752)
I0403 18:03:09.213153 21191 net.cpp:156] Memory required for data: 1207729440
I0403 18:03:09.213171 21191 layer_factory.hpp:77] Creating layer loss2/conv
I0403 18:03:09.213197 21191 net.cpp:91] Creating Layer loss2/conv
I0403 18:03:09.213218 21191 net.cpp:425] loss2/conv <- loss2/ave_pool
I0403 18:03:09.213243 21191 net.cpp:399] loss2/conv -> loss2/conv
I0403 18:03:09.215590 21191 net.cpp:141] Setting up loss2/conv
I0403 18:03:09.215628 21191 net.cpp:148] Top shape: 24 128 4 4 (49152)
I0403 18:03:09.215649 21191 net.cpp:156] Memory required for data: 1207926048
I0403 18:03:09.215672 21191 layer_factory.hpp:77] Creating layer loss2/relu_conv
I0403 18:03:09.215693 21191 net.cpp:91] Creating Layer loss2/relu_conv
I0403 18:03:09.215713 21191 net.cpp:425] loss2/relu_conv <- loss2/conv
I0403 18:03:09.215742 21191 net.cpp:386] loss2/relu_conv -> loss2/conv (in-place)
I0403 18:03:09.216089 21191 net.cpp:141] Setting up loss2/relu_conv
I0403 18:03:09.216123 21191 net.cpp:148] Top shape: 24 128 4 4 (49152)
I0403 18:03:09.216143 21191 net.cpp:156] Memory required for data: 1208122656
I0403 18:03:09.216161 21191 layer_factory.hpp:77] Creating layer loss2/fc
I0403 18:03:09.216182 21191 net.cpp:91] Creating Layer loss2/fc
I0403 18:03:09.216202 21191 net.cpp:425] loss2/fc <- loss2/conv
I0403 18:03:09.216228 21191 net.cpp:399] loss2/fc -> loss2/fc
I0403 18:03:09.238164 21191 net.cpp:141] Setting up loss2/fc
I0403 18:03:09.238204 21191 net.cpp:148] Top shape: 24 1024 (24576)
I0403 18:03:09.238224 21191 net.cpp:156] Memory required for data: 1208220960
I0403 18:03:09.238246 21191 layer_factory.hpp:77] Creating layer loss2/relu_fc
I0403 18:03:09.238271 21191 net.cpp:91] Creating Layer loss2/relu_fc
I0403 18:03:09.238292 21191 net.cpp:425] loss2/relu_fc <- loss2/fc
I0403 18:03:09.238313 21191 net.cpp:386] loss2/relu_fc -> loss2/fc (in-place)
I0403 18:03:09.238678 21191 net.cpp:141] Setting up loss2/relu_fc
I0403 18:03:09.238711 21191 net.cpp:148] Top shape: 24 1024 (24576)
I0403 18:03:09.238729 21191 net.cpp:156] Memory required for data: 1208319264
I0403 18:03:09.238746 21191 layer_factory.hpp:77] Creating layer loss2/drop_fc
I0403 18:03:09.238770 21191 net.cpp:91] Creating Layer loss2/drop_fc
I0403 18:03:09.238790 21191 net.cpp:425] loss2/drop_fc <- loss2/fc
I0403 18:03:09.238811 21191 net.cpp:386] loss2/drop_fc -> loss2/fc (in-place)
I0403 18:03:09.238874 21191 net.cpp:141] Setting up loss2/drop_fc
I0403 18:03:09.238903 21191 net.cpp:148] Top shape: 24 1024 (24576)
I0403 18:03:09.238919 21191 net.cpp:156] Memory required for data: 1208417568
I0403 18:03:09.238936 21191 layer_factory.hpp:77] Creating layer loss2/classifier_plantvillage
I0403 18:03:09.238958 21191 net.cpp:91] Creating Layer loss2/classifier_plantvillage
I0403 18:03:09.238978 21191 net.cpp:425] loss2/classifier_plantvillage <- loss2/fc
I0403 18:03:09.239006 21191 net.cpp:399] loss2/classifier_plantvillage -> loss2/classifier_plantvillage
I0403 18:03:09.239512 21191 net.cpp:141] Setting up loss2/classifier_plantvillage
I0403 18:03:09.239544 21191 net.cpp:148] Top shape: 24 38 (912)
I0403 18:03:09.239588 21191 net.cpp:156] Memory required for data: 1208421216
I0403 18:03:09.239611 21191 layer_factory.hpp:77] Creating layer loss2/classifier_plantvillage_loss2/classifier_plantvillage_0_split
I0403 18:03:09.239634 21191 net.cpp:91] Creating Layer loss2/classifier_plantvillage_loss2/classifier_plantvillage_0_split
I0403 18:03:09.239652 21191 net.cpp:425] loss2/classifier_plantvillage_loss2/classifier_plantvillage_0_split <- loss2/classifier_plantvillage
I0403 18:03:09.239677 21191 net.cpp:399] loss2/classifier_plantvillage_loss2/classifier_plantvillage_0_split -> loss2/classifier_plantvillage_loss2/classifier_plantvillage_0_split_0
I0403 18:03:09.239703 21191 net.cpp:399] loss2/classifier_plantvillage_loss2/classifier_plantvillage_0_split -> loss2/classifier_plantvillage_loss2/classifier_plantvillage_0_split_1
I0403 18:03:09.239729 21191 net.cpp:399] loss2/classifier_plantvillage_loss2/classifier_plantvillage_0_split -> loss2/classifier_plantvillage_loss2/classifier_plantvillage_0_split_2
I0403 18:03:09.239825 21191 net.cpp:141] Setting up loss2/classifier_plantvillage_loss2/classifier_plantvillage_0_split
I0403 18:03:09.239856 21191 net.cpp:148] Top shape: 24 38 (912)
I0403 18:03:09.239876 21191 net.cpp:148] Top shape: 24 38 (912)
I0403 18:03:09.239897 21191 net.cpp:148] Top shape: 24 38 (912)
I0403 18:03:09.239912 21191 net.cpp:156] Memory required for data: 1208432160
I0403 18:03:09.239929 21191 layer_factory.hpp:77] Creating layer inception_4e/1x1
I0403 18:03:09.239953 21191 net.cpp:91] Creating Layer inception_4e/1x1
I0403 18:03:09.239974 21191 net.cpp:425] inception_4e/1x1 <- inception_4d/output_inception_4d/output_0_split_1
I0403 18:03:09.239997 21191 net.cpp:399] inception_4e/1x1 -> inception_4e/1x1
I0403 18:03:09.242243 21191 net.cpp:141] Setting up inception_4e/1x1
I0403 18:03:09.242277 21191 net.cpp:148] Top shape: 24 256 14 14 (1204224)
I0403 18:03:09.242296 21191 net.cpp:156] Memory required for data: 1213249056
I0403 18:03:09.242318 21191 layer_factory.hpp:77] Creating layer inception_4e/relu_1x1
I0403 18:03:09.242339 21191 net.cpp:91] Creating Layer inception_4e/relu_1x1
I0403 18:03:09.242358 21191 net.cpp:425] inception_4e/relu_1x1 <- inception_4e/1x1
I0403 18:03:09.242382 21191 net.cpp:386] inception_4e/relu_1x1 -> inception_4e/1x1 (in-place)
I0403 18:03:09.242748 21191 net.cpp:141] Setting up inception_4e/relu_1x1
I0403 18:03:09.242780 21191 net.cpp:148] Top shape: 24 256 14 14 (1204224)
I0403 18:03:09.242799 21191 net.cpp:156] Memory required for data: 1218065952
I0403 18:03:09.242816 21191 layer_factory.hpp:77] Creating layer inception_4e/3x3_reduce
I0403 18:03:09.242844 21191 net.cpp:91] Creating Layer inception_4e/3x3_reduce
I0403 18:03:09.242866 21191 net.cpp:425] inception_4e/3x3_reduce <- inception_4d/output_inception_4d/output_0_split_2
I0403 18:03:09.242892 21191 net.cpp:399] inception_4e/3x3_reduce -> inception_4e/3x3_reduce
I0403 18:03:09.245496 21191 net.cpp:141] Setting up inception_4e/3x3_reduce
I0403 18:03:09.245540 21191 net.cpp:148] Top shape: 24 160 14 14 (752640)
I0403 18:03:09.245563 21191 net.cpp:156] Memory required for data: 1221076512
I0403 18:03:09.245584 21191 layer_factory.hpp:77] Creating layer inception_4e/relu_3x3_reduce
I0403 18:03:09.245606 21191 net.cpp:91] Creating Layer inception_4e/relu_3x3_reduce
I0403 18:03:09.245626 21191 net.cpp:425] inception_4e/relu_3x3_reduce <- inception_4e/3x3_reduce
I0403 18:03:09.245651 21191 net.cpp:386] inception_4e/relu_3x3_reduce -> inception_4e/3x3_reduce (in-place)
I0403 18:03:09.245882 21191 net.cpp:141] Setting up inception_4e/relu_3x3_reduce
I0403 18:03:09.245913 21191 net.cpp:148] Top shape: 24 160 14 14 (752640)
I0403 18:03:09.245929 21191 net.cpp:156] Memory required for data: 1224087072
I0403 18:03:09.245949 21191 layer_factory.hpp:77] Creating layer inception_4e/3x3
I0403 18:03:09.245975 21191 net.cpp:91] Creating Layer inception_4e/3x3
I0403 18:03:09.245996 21191 net.cpp:425] inception_4e/3x3 <- inception_4e/3x3_reduce
I0403 18:03:09.246021 21191 net.cpp:399] inception_4e/3x3 -> inception_4e/3x3
I0403 18:03:09.252218 21191 net.cpp:141] Setting up inception_4e/3x3
I0403 18:03:09.252269 21191 net.cpp:148] Top shape: 24 320 14 14 (1505280)
I0403 18:03:09.252290 21191 net.cpp:156] Memory required for data: 1230108192
I0403 18:03:09.252312 21191 layer_factory.hpp:77] Creating layer inception_4e/relu_3x3
I0403 18:03:09.252334 21191 net.cpp:91] Creating Layer inception_4e/relu_3x3
I0403 18:03:09.252356 21191 net.cpp:425] inception_4e/relu_3x3 <- inception_4e/3x3
I0403 18:03:09.252378 21191 net.cpp:386] inception_4e/relu_3x3 -> inception_4e/3x3 (in-place)
I0403 18:03:09.252755 21191 net.cpp:141] Setting up inception_4e/relu_3x3
I0403 18:03:09.252789 21191 net.cpp:148] Top shape: 24 320 14 14 (1505280)
I0403 18:03:09.252807 21191 net.cpp:156] Memory required for data: 1236129312
I0403 18:03:09.252825 21191 layer_factory.hpp:77] Creating layer inception_4e/5x5_reduce
I0403 18:03:09.252856 21191 net.cpp:91] Creating Layer inception_4e/5x5_reduce
I0403 18:03:09.252879 21191 net.cpp:425] inception_4e/5x5_reduce <- inception_4d/output_inception_4d/output_0_split_3
I0403 18:03:09.252905 21191 net.cpp:399] inception_4e/5x5_reduce -> inception_4e/5x5_reduce
I0403 18:03:09.254230 21191 net.cpp:141] Setting up inception_4e/5x5_reduce
I0403 18:03:09.254267 21191 net.cpp:148] Top shape: 24 32 14 14 (150528)
I0403 18:03:09.254287 21191 net.cpp:156] Memory required for data: 1236731424
I0403 18:03:09.254310 21191 layer_factory.hpp:77] Creating layer inception_4e/relu_5x5_reduce
I0403 18:03:09.254333 21191 net.cpp:91] Creating Layer inception_4e/relu_5x5_reduce
I0403 18:03:09.254350 21191 net.cpp:425] inception_4e/relu_5x5_reduce <- inception_4e/5x5_reduce
I0403 18:03:09.254374 21191 net.cpp:386] inception_4e/relu_5x5_reduce -> inception_4e/5x5_reduce (in-place)
I0403 18:03:09.254746 21191 net.cpp:141] Setting up inception_4e/relu_5x5_reduce
I0403 18:03:09.254782 21191 net.cpp:148] Top shape: 24 32 14 14 (150528)
I0403 18:03:09.254802 21191 net.cpp:156] Memory required for data: 1237333536
I0403 18:03:09.254819 21191 layer_factory.hpp:77] Creating layer inception_4e/5x5
I0403 18:03:09.254865 21191 net.cpp:91] Creating Layer inception_4e/5x5
I0403 18:03:09.254889 21191 net.cpp:425] inception_4e/5x5 <- inception_4e/5x5_reduce
I0403 18:03:09.254912 21191 net.cpp:399] inception_4e/5x5 -> inception_4e/5x5
I0403 18:03:09.257179 21191 net.cpp:141] Setting up inception_4e/5x5
I0403 18:03:09.257213 21191 net.cpp:148] Top shape: 24 128 14 14 (602112)
I0403 18:03:09.257237 21191 net.cpp:156] Memory required for data: 1239741984
I0403 18:03:09.257261 21191 layer_factory.hpp:77] Creating layer inception_4e/relu_5x5
I0403 18:03:09.257282 21191 net.cpp:91] Creating Layer inception_4e/relu_5x5
I0403 18:03:09.257302 21191 net.cpp:425] inception_4e/relu_5x5 <- inception_4e/5x5
I0403 18:03:09.257323 21191 net.cpp:386] inception_4e/relu_5x5 -> inception_4e/5x5 (in-place)
I0403 18:03:09.257577 21191 net.cpp:141] Setting up inception_4e/relu_5x5
I0403 18:03:09.257611 21191 net.cpp:148] Top shape: 24 128 14 14 (602112)
I0403 18:03:09.257632 21191 net.cpp:156] Memory required for data: 1242150432
I0403 18:03:09.257648 21191 layer_factory.hpp:77] Creating layer inception_4e/pool
I0403 18:03:09.257669 21191 net.cpp:91] Creating Layer inception_4e/pool
I0403 18:03:09.257689 21191 net.cpp:425] inception_4e/pool <- inception_4d/output_inception_4d/output_0_split_4
I0403 18:03:09.257714 21191 net.cpp:399] inception_4e/pool -> inception_4e/pool
I0403 18:03:09.257799 21191 net.cpp:141] Setting up inception_4e/pool
I0403 18:03:09.257833 21191 net.cpp:148] Top shape: 24 528 14 14 (2483712)
I0403 18:03:09.257851 21191 net.cpp:156] Memory required for data: 1252085280
I0403 18:03:09.257869 21191 layer_factory.hpp:77] Creating layer inception_4e/pool_proj
I0403 18:03:09.257894 21191 net.cpp:91] Creating Layer inception_4e/pool_proj
I0403 18:03:09.257913 21191 net.cpp:425] inception_4e/pool_proj <- inception_4e/pool
I0403 18:03:09.257939 21191 net.cpp:399] inception_4e/pool_proj -> inception_4e/pool_proj
I0403 18:03:09.259801 21191 net.cpp:141] Setting up inception_4e/pool_proj
I0403 18:03:09.259850 21191 net.cpp:148] Top shape: 24 128 14 14 (602112)
I0403 18:03:09.259868 21191 net.cpp:156] Memory required for data: 1254493728
I0403 18:03:09.259891 21191 layer_factory.hpp:77] Creating layer inception_4e/relu_pool_proj
I0403 18:03:09.259917 21191 net.cpp:91] Creating Layer inception_4e/relu_pool_proj
I0403 18:03:09.259939 21191 net.cpp:425] inception_4e/relu_pool_proj <- inception_4e/pool_proj
I0403 18:03:09.259960 21191 net.cpp:386] inception_4e/relu_pool_proj -> inception_4e/pool_proj (in-place)
I0403 18:03:09.260321 21191 net.cpp:141] Setting up inception_4e/relu_pool_proj
I0403 18:03:09.260354 21191 net.cpp:148] Top shape: 24 128 14 14 (602112)
I0403 18:03:09.260371 21191 net.cpp:156] Memory required for data: 1256902176
I0403 18:03:09.260390 21191 layer_factory.hpp:77] Creating layer inception_4e/output
I0403 18:03:09.260414 21191 net.cpp:91] Creating Layer inception_4e/output
I0403 18:03:09.260434 21191 net.cpp:425] inception_4e/output <- inception_4e/1x1
I0403 18:03:09.260454 21191 net.cpp:425] inception_4e/output <- inception_4e/3x3
I0403 18:03:09.260474 21191 net.cpp:425] inception_4e/output <- inception_4e/5x5
I0403 18:03:09.260493 21191 net.cpp:425] inception_4e/output <- inception_4e/pool_proj
I0403 18:03:09.260521 21191 net.cpp:399] inception_4e/output -> inception_4e/output
I0403 18:03:09.260587 21191 net.cpp:141] Setting up inception_4e/output
I0403 18:03:09.260615 21191 net.cpp:148] Top shape: 24 832 14 14 (3913728)
I0403 18:03:09.260632 21191 net.cpp:156] Memory required for data: 1272557088
I0403 18:03:09.260650 21191 layer_factory.hpp:77] Creating layer pool4/3x3_s2
I0403 18:03:09.260670 21191 net.cpp:91] Creating Layer pool4/3x3_s2
I0403 18:03:09.260689 21191 net.cpp:425] pool4/3x3_s2 <- inception_4e/output
I0403 18:03:09.260715 21191 net.cpp:399] pool4/3x3_s2 -> pool4/3x3_s2
I0403 18:03:09.260798 21191 net.cpp:141] Setting up pool4/3x3_s2
I0403 18:03:09.260830 21191 net.cpp:148] Top shape: 24 832 7 7 (978432)
I0403 18:03:09.260848 21191 net.cpp:156] Memory required for data: 1276470816
I0403 18:03:09.260865 21191 layer_factory.hpp:77] Creating layer pool4/3x3_s2_pool4/3x3_s2_0_split
I0403 18:03:09.260886 21191 net.cpp:91] Creating Layer pool4/3x3_s2_pool4/3x3_s2_0_split
I0403 18:03:09.260905 21191 net.cpp:425] pool4/3x3_s2_pool4/3x3_s2_0_split <- pool4/3x3_s2
I0403 18:03:09.260926 21191 net.cpp:399] pool4/3x3_s2_pool4/3x3_s2_0_split -> pool4/3x3_s2_pool4/3x3_s2_0_split_0
I0403 18:03:09.260953 21191 net.cpp:399] pool4/3x3_s2_pool4/3x3_s2_0_split -> pool4/3x3_s2_pool4/3x3_s2_0_split_1
I0403 18:03:09.260978 21191 net.cpp:399] pool4/3x3_s2_pool4/3x3_s2_0_split -> pool4/3x3_s2_pool4/3x3_s2_0_split_2
I0403 18:03:09.261003 21191 net.cpp:399] pool4/3x3_s2_pool4/3x3_s2_0_split -> pool4/3x3_s2_pool4/3x3_s2_0_split_3
I0403 18:03:09.261116 21191 net.cpp:141] Setting up pool4/3x3_s2_pool4/3x3_s2_0_split
I0403 18:03:09.261144 21191 net.cpp:148] Top shape: 24 832 7 7 (978432)
I0403 18:03:09.261164 21191 net.cpp:148] Top shape: 24 832 7 7 (978432)
I0403 18:03:09.261183 21191 net.cpp:148] Top shape: 24 832 7 7 (978432)
I0403 18:03:09.261200 21191 net.cpp:148] Top shape: 24 832 7 7 (978432)
I0403 18:03:09.261216 21191 net.cpp:156] Memory required for data: 1292125728
I0403 18:03:09.261234 21191 layer_factory.hpp:77] Creating layer inception_5a/1x1
I0403 18:03:09.261261 21191 net.cpp:91] Creating Layer inception_5a/1x1
I0403 18:03:09.261283 21191 net.cpp:425] inception_5a/1x1 <- pool4/3x3_s2_pool4/3x3_s2_0_split_0
I0403 18:03:09.261307 21191 net.cpp:399] inception_5a/1x1 -> inception_5a/1x1
I0403 18:03:09.264858 21191 net.cpp:141] Setting up inception_5a/1x1
I0403 18:03:09.264896 21191 net.cpp:148] Top shape: 24 256 7 7 (301056)
I0403 18:03:09.264916 21191 net.cpp:156] Memory required for data: 1293329952
I0403 18:03:09.264938 21191 layer_factory.hpp:77] Creating layer inception_5a/relu_1x1
I0403 18:03:09.264961 21191 net.cpp:91] Creating Layer inception_5a/relu_1x1
I0403 18:03:09.264981 21191 net.cpp:425] inception_5a/relu_1x1 <- inception_5a/1x1
I0403 18:03:09.265004 21191 net.cpp:386] inception_5a/relu_1x1 -> inception_5a/1x1 (in-place)
I0403 18:03:09.265383 21191 net.cpp:141] Setting up inception_5a/relu_1x1
I0403 18:03:09.265419 21191 net.cpp:148] Top shape: 24 256 7 7 (301056)
I0403 18:03:09.265439 21191 net.cpp:156] Memory required for data: 1294534176
I0403 18:03:09.265456 21191 layer_factory.hpp:77] Creating layer inception_5a/3x3_reduce
I0403 18:03:09.265485 21191 net.cpp:91] Creating Layer inception_5a/3x3_reduce
I0403 18:03:09.265512 21191 net.cpp:425] inception_5a/3x3_reduce <- pool4/3x3_s2_pool4/3x3_s2_0_split_1
I0403 18:03:09.265538 21191 net.cpp:399] inception_5a/3x3_reduce -> inception_5a/3x3_reduce
I0403 18:03:09.268563 21191 net.cpp:141] Setting up inception_5a/3x3_reduce
I0403 18:03:09.268599 21191 net.cpp:148] Top shape: 24 160 7 7 (188160)
I0403 18:03:09.268618 21191 net.cpp:156] Memory required for data: 1295286816
I0403 18:03:09.268640 21191 layer_factory.hpp:77] Creating layer inception_5a/relu_3x3_reduce
I0403 18:03:09.268664 21191 net.cpp:91] Creating Layer inception_5a/relu_3x3_reduce
I0403 18:03:09.268684 21191 net.cpp:425] inception_5a/relu_3x3_reduce <- inception_5a/3x3_reduce
I0403 18:03:09.268705 21191 net.cpp:386] inception_5a/relu_3x3_reduce -> inception_5a/3x3_reduce (in-place)
I0403 18:03:09.268944 21191 net.cpp:141] Setting up inception_5a/relu_3x3_reduce
I0403 18:03:09.268975 21191 net.cpp:148] Top shape: 24 160 7 7 (188160)
I0403 18:03:09.268992 21191 net.cpp:156] Memory required for data: 1296039456
I0403 18:03:09.269011 21191 layer_factory.hpp:77] Creating layer inception_5a/3x3
I0403 18:03:09.269039 21191 net.cpp:91] Creating Layer inception_5a/3x3
I0403 18:03:09.269062 21191 net.cpp:425] inception_5a/3x3 <- inception_5a/3x3_reduce
I0403 18:03:09.269084 21191 net.cpp:399] inception_5a/3x3 -> inception_5a/3x3
I0403 18:03:09.275318 21191 net.cpp:141] Setting up inception_5a/3x3
I0403 18:03:09.275357 21191 net.cpp:148] Top shape: 24 320 7 7 (376320)
I0403 18:03:09.275379 21191 net.cpp:156] Memory required for data: 1297544736
I0403 18:03:09.275403 21191 layer_factory.hpp:77] Creating layer inception_5a/relu_3x3
I0403 18:03:09.275424 21191 net.cpp:91] Creating Layer inception_5a/relu_3x3
I0403 18:03:09.275444 21191 net.cpp:425] inception_5a/relu_3x3 <- inception_5a/3x3
I0403 18:03:09.275465 21191 net.cpp:386] inception_5a/relu_3x3 -> inception_5a/3x3 (in-place)
I0403 18:03:09.275843 21191 net.cpp:141] Setting up inception_5a/relu_3x3
I0403 18:03:09.275879 21191 net.cpp:148] Top shape: 24 320 7 7 (376320)
I0403 18:03:09.275898 21191 net.cpp:156] Memory required for data: 1299050016
I0403 18:03:09.275916 21191 layer_factory.hpp:77] Creating layer inception_5a/5x5_reduce
I0403 18:03:09.275943 21191 net.cpp:91] Creating Layer inception_5a/5x5_reduce
I0403 18:03:09.275965 21191 net.cpp:425] inception_5a/5x5_reduce <- pool4/3x3_s2_pool4/3x3_s2_0_split_2
I0403 18:03:09.275990 21191 net.cpp:399] inception_5a/5x5_reduce -> inception_5a/5x5_reduce
I0403 18:03:09.277447 21191 net.cpp:141] Setting up inception_5a/5x5_reduce
I0403 18:03:09.277485 21191 net.cpp:148] Top shape: 24 32 7 7 (37632)
I0403 18:03:09.277511 21191 net.cpp:156] Memory required for data: 1299200544
I0403 18:03:09.277536 21191 layer_factory.hpp:77] Creating layer inception_5a/relu_5x5_reduce
I0403 18:03:09.277559 21191 net.cpp:91] Creating Layer inception_5a/relu_5x5_reduce
I0403 18:03:09.277580 21191 net.cpp:425] inception_5a/relu_5x5_reduce <- inception_5a/5x5_reduce
I0403 18:03:09.277602 21191 net.cpp:386] inception_5a/relu_5x5_reduce -> inception_5a/5x5_reduce (in-place)
I0403 18:03:09.277972 21191 net.cpp:141] Setting up inception_5a/relu_5x5_reduce
I0403 18:03:09.278007 21191 net.cpp:148] Top shape: 24 32 7 7 (37632)
I0403 18:03:09.278026 21191 net.cpp:156] Memory required for data: 1299351072
I0403 18:03:09.278044 21191 layer_factory.hpp:77] Creating layer inception_5a/5x5
I0403 18:03:09.278071 21191 net.cpp:91] Creating Layer inception_5a/5x5
I0403 18:03:09.278095 21191 net.cpp:425] inception_5a/5x5 <- inception_5a/5x5_reduce
I0403 18:03:09.278117 21191 net.cpp:399] inception_5a/5x5 -> inception_5a/5x5
I0403 18:03:09.280248 21191 net.cpp:141] Setting up inception_5a/5x5
I0403 18:03:09.280299 21191 net.cpp:148] Top shape: 24 128 7 7 (150528)
I0403 18:03:09.280319 21191 net.cpp:156] Memory required for data: 1299953184
I0403 18:03:09.280342 21191 layer_factory.hpp:77] Creating layer inception_5a/relu_5x5
I0403 18:03:09.280364 21191 net.cpp:91] Creating Layer inception_5a/relu_5x5
I0403 18:03:09.280385 21191 net.cpp:425] inception_5a/relu_5x5 <- inception_5a/5x5
I0403 18:03:09.280406 21191 net.cpp:386] inception_5a/relu_5x5 -> inception_5a/5x5 (in-place)
I0403 18:03:09.280658 21191 net.cpp:141] Setting up inception_5a/relu_5x5
I0403 18:03:09.280692 21191 net.cpp:148] Top shape: 24 128 7 7 (150528)
I0403 18:03:09.280711 21191 net.cpp:156] Memory required for data: 1300555296
I0403 18:03:09.280730 21191 layer_factory.hpp:77] Creating layer inception_5a/pool
I0403 18:03:09.280750 21191 net.cpp:91] Creating Layer inception_5a/pool
I0403 18:03:09.280769 21191 net.cpp:425] inception_5a/pool <- pool4/3x3_s2_pool4/3x3_s2_0_split_3
I0403 18:03:09.280792 21191 net.cpp:399] inception_5a/pool -> inception_5a/pool
I0403 18:03:09.280879 21191 net.cpp:141] Setting up inception_5a/pool
I0403 18:03:09.280910 21191 net.cpp:148] Top shape: 24 832 7 7 (978432)
I0403 18:03:09.280930 21191 net.cpp:156] Memory required for data: 1304469024
I0403 18:03:09.280947 21191 layer_factory.hpp:77] Creating layer inception_5a/pool_proj
I0403 18:03:09.280974 21191 net.cpp:91] Creating Layer inception_5a/pool_proj
I0403 18:03:09.280997 21191 net.cpp:425] inception_5a/pool_proj <- inception_5a/pool
I0403 18:03:09.281019 21191 net.cpp:399] inception_5a/pool_proj -> inception_5a/pool_proj
I0403 18:03:09.283830 21191 net.cpp:141] Setting up inception_5a/pool_proj
I0403 18:03:09.283867 21191 net.cpp:148] Top shape: 24 128 7 7 (150528)
I0403 18:03:09.283886 21191 net.cpp:156] Memory required for data: 1305071136
I0403 18:03:09.283908 21191 layer_factory.hpp:77] Creating layer inception_5a/relu_pool_proj
I0403 18:03:09.283933 21191 net.cpp:91] Creating Layer inception_5a/relu_pool_proj
I0403 18:03:09.283954 21191 net.cpp:425] inception_5a/relu_pool_proj <- inception_5a/pool_proj
I0403 18:03:09.283975 21191 net.cpp:386] inception_5a/relu_pool_proj -> inception_5a/pool_proj (in-place)
I0403 18:03:09.284332 21191 net.cpp:141] Setting up inception_5a/relu_pool_proj
I0403 18:03:09.284364 21191 net.cpp:148] Top shape: 24 128 7 7 (150528)
I0403 18:03:09.284384 21191 net.cpp:156] Memory required for data: 1305673248
I0403 18:03:09.284401 21191 layer_factory.hpp:77] Creating layer inception_5a/output
I0403 18:03:09.284425 21191 net.cpp:91] Creating Layer inception_5a/output
I0403 18:03:09.284446 21191 net.cpp:425] inception_5a/output <- inception_5a/1x1
I0403 18:03:09.284466 21191 net.cpp:425] inception_5a/output <- inception_5a/3x3
I0403 18:03:09.284485 21191 net.cpp:425] inception_5a/output <- inception_5a/5x5
I0403 18:03:09.284518 21191 net.cpp:425] inception_5a/output <- inception_5a/pool_proj
I0403 18:03:09.284545 21191 net.cpp:399] inception_5a/output -> inception_5a/output
I0403 18:03:09.284615 21191 net.cpp:141] Setting up inception_5a/output
I0403 18:03:09.284644 21191 net.cpp:148] Top shape: 24 832 7 7 (978432)
I0403 18:03:09.284662 21191 net.cpp:156] Memory required for data: 1309586976
I0403 18:03:09.284678 21191 layer_factory.hpp:77] Creating layer inception_5a/output_inception_5a/output_0_split
I0403 18:03:09.284699 21191 net.cpp:91] Creating Layer inception_5a/output_inception_5a/output_0_split
I0403 18:03:09.284718 21191 net.cpp:425] inception_5a/output_inception_5a/output_0_split <- inception_5a/output
I0403 18:03:09.284742 21191 net.cpp:399] inception_5a/output_inception_5a/output_0_split -> inception_5a/output_inception_5a/output_0_split_0
I0403 18:03:09.284768 21191 net.cpp:399] inception_5a/output_inception_5a/output_0_split -> inception_5a/output_inception_5a/output_0_split_1
I0403 18:03:09.284792 21191 net.cpp:399] inception_5a/output_inception_5a/output_0_split -> inception_5a/output_inception_5a/output_0_split_2
I0403 18:03:09.284817 21191 net.cpp:399] inception_5a/output_inception_5a/output_0_split -> inception_5a/output_inception_5a/output_0_split_3
I0403 18:03:09.284960 21191 net.cpp:141] Setting up inception_5a/output_inception_5a/output_0_split
I0403 18:03:09.284991 21191 net.cpp:148] Top shape: 24 832 7 7 (978432)
I0403 18:03:09.285012 21191 net.cpp:148] Top shape: 24 832 7 7 (978432)
I0403 18:03:09.285032 21191 net.cpp:148] Top shape: 24 832 7 7 (978432)
I0403 18:03:09.285050 21191 net.cpp:148] Top shape: 24 832 7 7 (978432)
I0403 18:03:09.285065 21191 net.cpp:156] Memory required for data: 1325241888
I0403 18:03:09.285084 21191 layer_factory.hpp:77] Creating layer inception_5b/1x1
I0403 18:03:09.285111 21191 net.cpp:91] Creating Layer inception_5b/1x1
I0403 18:03:09.285132 21191 net.cpp:425] inception_5b/1x1 <- inception_5a/output_inception_5a/output_0_split_0
I0403 18:03:09.285156 21191 net.cpp:399] inception_5b/1x1 -> inception_5b/1x1
I0403 18:03:09.289795 21191 net.cpp:141] Setting up inception_5b/1x1
I0403 18:03:09.289832 21191 net.cpp:148] Top shape: 24 384 7 7 (451584)
I0403 18:03:09.289851 21191 net.cpp:156] Memory required for data: 1327048224
I0403 18:03:09.289875 21191 layer_factory.hpp:77] Creating layer inception_5b/relu_1x1
I0403 18:03:09.289898 21191 net.cpp:91] Creating Layer inception_5b/relu_1x1
I0403 18:03:09.289921 21191 net.cpp:425] inception_5b/relu_1x1 <- inception_5b/1x1
I0403 18:03:09.289942 21191 net.cpp:386] inception_5b/relu_1x1 -> inception_5b/1x1 (in-place)
I0403 18:03:09.290319 21191 net.cpp:141] Setting up inception_5b/relu_1x1
I0403 18:03:09.290352 21191 net.cpp:148] Top shape: 24 384 7 7 (451584)
I0403 18:03:09.290371 21191 net.cpp:156] Memory required for data: 1328854560
I0403 18:03:09.290390 21191 layer_factory.hpp:77] Creating layer inception_5b/3x3_reduce
I0403 18:03:09.290416 21191 net.cpp:91] Creating Layer inception_5b/3x3_reduce
I0403 18:03:09.290438 21191 net.cpp:425] inception_5b/3x3_reduce <- inception_5a/output_inception_5a/output_0_split_1
I0403 18:03:09.290464 21191 net.cpp:399] inception_5b/3x3_reduce -> inception_5b/3x3_reduce
I0403 18:03:09.293776 21191 net.cpp:141] Setting up inception_5b/3x3_reduce
I0403 18:03:09.293813 21191 net.cpp:148] Top shape: 24 192 7 7 (225792)
I0403 18:03:09.293833 21191 net.cpp:156] Memory required for data: 1329757728
I0403 18:03:09.293855 21191 layer_factory.hpp:77] Creating layer inception_5b/relu_3x3_reduce
I0403 18:03:09.293879 21191 net.cpp:91] Creating Layer inception_5b/relu_3x3_reduce
I0403 18:03:09.293900 21191 net.cpp:425] inception_5b/relu_3x3_reduce <- inception_5b/3x3_reduce
I0403 18:03:09.293920 21191 net.cpp:386] inception_5b/relu_3x3_reduce -> inception_5b/3x3_reduce (in-place)
I0403 18:03:09.294157 21191 net.cpp:141] Setting up inception_5b/relu_3x3_reduce
I0403 18:03:09.294191 21191 net.cpp:148] Top shape: 24 192 7 7 (225792)
I0403 18:03:09.294210 21191 net.cpp:156] Memory required for data: 1330660896
I0403 18:03:09.294229 21191 layer_factory.hpp:77] Creating layer inception_5b/3x3
I0403 18:03:09.294255 21191 net.cpp:91] Creating Layer inception_5b/3x3
I0403 18:03:09.294277 21191 net.cpp:425] inception_5b/3x3 <- inception_5b/3x3_reduce
I0403 18:03:09.294301 21191 net.cpp:399] inception_5b/3x3 -> inception_5b/3x3
I0403 18:03:09.302634 21191 net.cpp:141] Setting up inception_5b/3x3
I0403 18:03:09.302670 21191 net.cpp:148] Top shape: 24 384 7 7 (451584)
I0403 18:03:09.302688 21191 net.cpp:156] Memory required for data: 1332467232
I0403 18:03:09.302709 21191 layer_factory.hpp:77] Creating layer inception_5b/relu_3x3
I0403 18:03:09.302734 21191 net.cpp:91] Creating Layer inception_5b/relu_3x3
I0403 18:03:09.302757 21191 net.cpp:425] inception_5b/relu_3x3 <- inception_5b/3x3
I0403 18:03:09.302778 21191 net.cpp:386] inception_5b/relu_3x3 -> inception_5b/3x3 (in-place)
I0403 18:03:09.303140 21191 net.cpp:141] Setting up inception_5b/relu_3x3
I0403 18:03:09.303174 21191 net.cpp:148] Top shape: 24 384 7 7 (451584)
I0403 18:03:09.303194 21191 net.cpp:156] Memory required for data: 1334273568
I0403 18:03:09.303210 21191 layer_factory.hpp:77] Creating layer inception_5b/5x5_reduce
I0403 18:03:09.303259 21191 net.cpp:91] Creating Layer inception_5b/5x5_reduce
I0403 18:03:09.303287 21191 net.cpp:425] inception_5b/5x5_reduce <- inception_5a/output_inception_5a/output_0_split_2
I0403 18:03:09.303310 21191 net.cpp:399] inception_5b/5x5_reduce -> inception_5b/5x5_reduce
I0403 18:03:09.304913 21191 net.cpp:141] Setting up inception_5b/5x5_reduce
I0403 18:03:09.304951 21191 net.cpp:148] Top shape: 24 48 7 7 (56448)
I0403 18:03:09.304971 21191 net.cpp:156] Memory required for data: 1334499360
I0403 18:03:09.304993 21191 layer_factory.hpp:77] Creating layer inception_5b/relu_5x5_reduce
I0403 18:03:09.305018 21191 net.cpp:91] Creating Layer inception_5b/relu_5x5_reduce
I0403 18:03:09.305039 21191 net.cpp:425] inception_5b/relu_5x5_reduce <- inception_5b/5x5_reduce
I0403 18:03:09.305060 21191 net.cpp:386] inception_5b/relu_5x5_reduce -> inception_5b/5x5_reduce (in-place)
I0403 18:03:09.305528 21191 net.cpp:141] Setting up inception_5b/relu_5x5_reduce
I0403 18:03:09.305562 21191 net.cpp:148] Top shape: 24 48 7 7 (56448)
I0403 18:03:09.305580 21191 net.cpp:156] Memory required for data: 1334725152
I0403 18:03:09.305598 21191 layer_factory.hpp:77] Creating layer inception_5b/5x5
I0403 18:03:09.305624 21191 net.cpp:91] Creating Layer inception_5b/5x5
I0403 18:03:09.305644 21191 net.cpp:425] inception_5b/5x5 <- inception_5b/5x5_reduce
I0403 18:03:09.305667 21191 net.cpp:399] inception_5b/5x5 -> inception_5b/5x5
I0403 18:03:09.308243 21191 net.cpp:141] Setting up inception_5b/5x5
I0403 18:03:09.308281 21191 net.cpp:148] Top shape: 24 128 7 7 (150528)
I0403 18:03:09.308301 21191 net.cpp:156] Memory required for data: 1335327264
I0403 18:03:09.308326 21191 layer_factory.hpp:77] Creating layer inception_5b/relu_5x5
I0403 18:03:09.308346 21191 net.cpp:91] Creating Layer inception_5b/relu_5x5
I0403 18:03:09.308367 21191 net.cpp:425] inception_5b/relu_5x5 <- inception_5b/5x5
I0403 18:03:09.308388 21191 net.cpp:386] inception_5b/relu_5x5 -> inception_5b/5x5 (in-place)
I0403 18:03:09.308640 21191 net.cpp:141] Setting up inception_5b/relu_5x5
I0403 18:03:09.308672 21191 net.cpp:148] Top shape: 24 128 7 7 (150528)
I0403 18:03:09.308691 21191 net.cpp:156] Memory required for data: 1335929376
I0403 18:03:09.308709 21191 layer_factory.hpp:77] Creating layer inception_5b/pool
I0403 18:03:09.308730 21191 net.cpp:91] Creating Layer inception_5b/pool
I0403 18:03:09.308749 21191 net.cpp:425] inception_5b/pool <- inception_5a/output_inception_5a/output_0_split_3
I0403 18:03:09.308773 21191 net.cpp:399] inception_5b/pool -> inception_5b/pool
I0403 18:03:09.308866 21191 net.cpp:141] Setting up inception_5b/pool
I0403 18:03:09.308894 21191 net.cpp:148] Top shape: 24 832 7 7 (978432)
I0403 18:03:09.308912 21191 net.cpp:156] Memory required for data: 1339843104
I0403 18:03:09.308930 21191 layer_factory.hpp:77] Creating layer inception_5b/pool_proj
I0403 18:03:09.308957 21191 net.cpp:91] Creating Layer inception_5b/pool_proj
I0403 18:03:09.308980 21191 net.cpp:425] inception_5b/pool_proj <- inception_5b/pool
I0403 18:03:09.309002 21191 net.cpp:399] inception_5b/pool_proj -> inception_5b/pool_proj
I0403 18:03:09.311828 21191 net.cpp:141] Setting up inception_5b/pool_proj
I0403 18:03:09.311864 21191 net.cpp:148] Top shape: 24 128 7 7 (150528)
I0403 18:03:09.311884 21191 net.cpp:156] Memory required for data: 1340445216
I0403 18:03:09.311907 21191 layer_factory.hpp:77] Creating layer inception_5b/relu_pool_proj
I0403 18:03:09.311933 21191 net.cpp:91] Creating Layer inception_5b/relu_pool_proj
I0403 18:03:09.311952 21191 net.cpp:425] inception_5b/relu_pool_proj <- inception_5b/pool_proj
I0403 18:03:09.311974 21191 net.cpp:386] inception_5b/relu_pool_proj -> inception_5b/pool_proj (in-place)
I0403 18:03:09.312340 21191 net.cpp:141] Setting up inception_5b/relu_pool_proj
I0403 18:03:09.312372 21191 net.cpp:148] Top shape: 24 128 7 7 (150528)
I0403 18:03:09.312391 21191 net.cpp:156] Memory required for data: 1341047328
I0403 18:03:09.312409 21191 layer_factory.hpp:77] Creating layer inception_5b/output
I0403 18:03:09.312433 21191 net.cpp:91] Creating Layer inception_5b/output
I0403 18:03:09.312470 21191 net.cpp:425] inception_5b/output <- inception_5b/1x1
I0403 18:03:09.312492 21191 net.cpp:425] inception_5b/output <- inception_5b/3x3
I0403 18:03:09.312520 21191 net.cpp:425] inception_5b/output <- inception_5b/5x5
I0403 18:03:09.312542 21191 net.cpp:425] inception_5b/output <- inception_5b/pool_proj
I0403 18:03:09.312564 21191 net.cpp:399] inception_5b/output -> inception_5b/output
I0403 18:03:09.312633 21191 net.cpp:141] Setting up inception_5b/output
I0403 18:03:09.312662 21191 net.cpp:148] Top shape: 24 1024 7 7 (1204224)
I0403 18:03:09.312680 21191 net.cpp:156] Memory required for data: 1345864224
I0403 18:03:09.312697 21191 layer_factory.hpp:77] Creating layer pool5/7x7_s1
I0403 18:03:09.312722 21191 net.cpp:91] Creating Layer pool5/7x7_s1
I0403 18:03:09.312742 21191 net.cpp:425] pool5/7x7_s1 <- inception_5b/output
I0403 18:03:09.312764 21191 net.cpp:399] pool5/7x7_s1 -> pool5/7x7_s1
I0403 18:03:09.313355 21191 net.cpp:141] Setting up pool5/7x7_s1
I0403 18:03:09.313390 21191 net.cpp:148] Top shape: 24 1024 1 1 (24576)
I0403 18:03:09.313411 21191 net.cpp:156] Memory required for data: 1345962528
I0403 18:03:09.313429 21191 layer_factory.hpp:77] Creating layer pool5/drop_7x7_s1
I0403 18:03:09.313452 21191 net.cpp:91] Creating Layer pool5/drop_7x7_s1
I0403 18:03:09.313470 21191 net.cpp:425] pool5/drop_7x7_s1 <- pool5/7x7_s1
I0403 18:03:09.313491 21191 net.cpp:386] pool5/drop_7x7_s1 -> pool5/7x7_s1 (in-place)
I0403 18:03:09.313562 21191 net.cpp:141] Setting up pool5/drop_7x7_s1
I0403 18:03:09.313592 21191 net.cpp:148] Top shape: 24 1024 1 1 (24576)
I0403 18:03:09.313609 21191 net.cpp:156] Memory required for data: 1346060832
I0403 18:03:09.313627 21191 layer_factory.hpp:77] Creating layer loss3/classifier_plantvillage
I0403 18:03:09.313652 21191 net.cpp:91] Creating Layer loss3/classifier_plantvillage
I0403 18:03:09.313673 21191 net.cpp:425] loss3/classifier_plantvillage <- pool5/7x7_s1
I0403 18:03:09.313696 21191 net.cpp:399] loss3/classifier_plantvillage -> loss3/classifier_plantvillage
I0403 18:03:09.314224 21191 net.cpp:141] Setting up loss3/classifier_plantvillage
I0403 18:03:09.314254 21191 net.cpp:148] Top shape: 24 38 (912)
I0403 18:03:09.314272 21191 net.cpp:156] Memory required for data: 1346064480
I0403 18:03:09.314294 21191 layer_factory.hpp:77] Creating layer loss3/classifier_plantvillage_loss3/classifier_plantvillage_0_split
I0403 18:03:09.314316 21191 net.cpp:91] Creating Layer loss3/classifier_plantvillage_loss3/classifier_plantvillage_0_split
I0403 18:03:09.314335 21191 net.cpp:425] loss3/classifier_plantvillage_loss3/classifier_plantvillage_0_split <- loss3/classifier_plantvillage
I0403 18:03:09.314362 21191 net.cpp:399] loss3/classifier_plantvillage_loss3/classifier_plantvillage_0_split -> loss3/classifier_plantvillage_loss3/classifier_plantvillage_0_split_0
I0403 18:03:09.314388 21191 net.cpp:399] loss3/classifier_plantvillage_loss3/classifier_plantvillage_0_split -> loss3/classifier_plantvillage_loss3/classifier_plantvillage_0_split_1
I0403 18:03:09.314414 21191 net.cpp:399] loss3/classifier_plantvillage_loss3/classifier_plantvillage_0_split -> loss3/classifier_plantvillage_loss3/classifier_plantvillage_0_split_2
I0403 18:03:09.314440 21191 net.cpp:399] loss3/classifier_plantvillage_loss3/classifier_plantvillage_0_split -> loss3/classifier_plantvillage_loss3/classifier_plantvillage_0_split_3
I0403 18:03:09.314587 21191 net.cpp:141] Setting up loss3/classifier_plantvillage_loss3/classifier_plantvillage_0_split
I0403 18:03:09.314620 21191 net.cpp:148] Top shape: 24 38 (912)
I0403 18:03:09.314641 21191 net.cpp:148] Top shape: 24 38 (912)
I0403 18:03:09.314659 21191 net.cpp:148] Top shape: 24 38 (912)
I0403 18:03:09.314678 21191 net.cpp:148] Top shape: 24 38 (912)
I0403 18:03:09.314695 21191 net.cpp:156] Memory required for data: 1346079072
I0403 18:03:09.314712 21191 layer_factory.hpp:77] Creating layer loss1/loss
I0403 18:03:09.314736 21191 net.cpp:91] Creating Layer loss1/loss
I0403 18:03:09.314757 21191 net.cpp:425] loss1/loss <- loss1/classifier_plantvillage_loss1/classifier_plantvillage_0_split_0
I0403 18:03:09.314796 21191 net.cpp:425] loss1/loss <- label_data_1_split_0
…
