…
I0403 18:15:27.004889 21853 net.cpp:313] The NetState phase (1) differed from the phase (0) specified by a rule in layer data
I0403 18:15:27.005987 21853 net.cpp:49] Initializing net from parameters: 
state {
  phase: TEST
}
layer {
  name: "data"
  type: "Data"
  top: "data"
  top: "label"
  include {
    phase: TEST
  }
  transform_param {
    mirror: false
    crop_size: 224
    mean_file: "/home/mohanty/data/final_dataset/lmdb/segmented-40-60/mean.binaryproto"
  }
  data_param {
    source: "/home/mohanty/data/final_dataset/lmdb/segmented-40-60/test_db"
    batch_size: 24
    backend: LMDB
  }
}
layer {
  name: "conv1/7x7_s2"
  type: "Convolution"
  bottom: "data"
  top: "conv1/7x7_s2"
  param {
    lr_mult: 1
    decay_mult: 1
  }
  param {
    lr_mult: 2
    decay_mult: 0
  }
  convolution_param {
    num_output: 64
    pad: 3
    kernel_size: 7
    stride: 2
    weight_filler {
      type: "xavier"
      std: 0.1
    }
    bias_filler {
      type: "constant"
      value: 0.2
    }
  }
}
layer {
  name: "conv1/relu_7x7"
  type: "ReLU"
  bottom: "conv1/7x7_s2"
  top: "conv1/7x7_s2"
}
layer {
  name: "pool1/3x3_s2"
  type: "Pooling"
  bottom: "conv1/7x7_s2"
  top: "pool1/3x3_s2"
  pooling_param {
    pool: MAX
    kernel_size: 3
    stride: 2
  }
}
layer {
  name: "pool1/norm1"
  type: "LRN"
  bottom: "pool1/3x3_s2"
  top: "pool1/norm1"
  lrn_param {
    local_size: 5
    alpha: 0.0001
    beta: 0.75
  }
}
layer {
  name: "conv2/3x3_reduce"
  type: "Convolution"
  bottom: "pool1/norm1"
  top: "conv2/3x3_reduce"
  param {
    lr_mult: 1
    decay_mult: 1
  }
  param {
    lr_mult: 2
    decay_mult: 0
  }
  convolution_param {
    num_output: 64
    kernel_size: 1
    weight_filler {
      type: "xavier"
      std: 0.1
    }
    bias_filler {
      type: "constant"
      value: 0.2
    }
  }
}
layer {
  name: "conv2/relu_3x3_reduce"
  type: "ReLU"
  bottom: "conv2/3x3_reduce"
  top: "conv2/3x3_reduce"
}
layer {
  name: "conv2/3x3"
  type: "Convolution"
  bottom: "conv2/3x3_reduce"
  top: "conv2/3x3"
  param {
    lr_mult: 1
    decay_mult: 1
  }
  param {
    lr_mult: 2
    decay_mult: 0
  }
  convolution_param {
    num_output: 192
    pad: 1
    kernel_size: 3
    weight_filler {
      type: "xavier"
      std: 0.03
    }
    bias_filler {
      type: "constant"
      value: 0.2
    }
  }
}
layer {
  name: "conv2/relu_3x3"
  type: "ReLU"
  bottom: "conv2/3x3"
  top: "conv2/3x3"
}
layer {
  name: "conv2/norm2"
  type: "LRN"
  bottom: "conv2/3x3"
  top: "conv2/norm2"
  lrn_param {
    local_size: 5
    alpha: 0.0001
    beta: 0.75
  }
}
layer {
  name: "pool2/3x3_s2"
  type: "Pooling"
  bottom: "conv2/norm2"
  top: "pool2/3x3_s2"
  pooling_param {
    pool: MAX
    kernel_size: 3
    stride: 2
  }
}
layer {
  name: "inception_3a/1x1"
  type: "Convolution"
  bottom: "pool2/3x3_s2"
  top: "inception_3a/1x1"
  param {
    lr_mult: 1
    decay_mult: 1
  }
  param {
    lr_mult: 2
    decay_mult: 0
  }
  convolution_param {
    num_output: 64
    kernel_size: 1
    weight_filler {
      type: "xavier"
      std: 0.03
    }
    bias_filler {
      type: "constant"
      value: 0.2
    }
  }
}
layer {
  name: "inception_3a/relu_1x1"
  type: "ReLU"
  bottom: "inception_3a/1x1"
  top: "inception_3a/1x1"
}
layer {
  name: "inception_3a/3x3_reduce"
  type: "Convolution"
  bottom: "pool2/3x3_s2"
  top: "inception_3a/3x3_reduce"
  param {
    lr_mult: 1
    decay_mult: 1
  }
  param {
    lr_mult: 2
    decay_mult: 0
  }
  convolution_param {
    num_output: 96
    kernel_size: 1
    weight_filler {
      type: "xavier"
      std: 0.09
    }
    bias_filler {
      type: "constant"
      value: 0.2
    }
  }
}
layer {
  name: "inception_3a/relu_3x3_reduce"
  type: "ReLU"
  bottom: "inception_3a/3x3_reduce"
  top: "inception_3a/3x3_reduce"
}
layer {
  name: "inception_3a/3x3"
  type: "Convolution"
  bottom: "inception_3a/3x3_reduce"
  top: "inception_3a/3x3"
  param {
    lr_mult: 1
    decay_mult: 1
  }
  param {
    lr_mult: 2
    decay_mult: 0
  }
  convolution_param {
    num_output: 128
    pad: 1
    kernel_size: 3
    weight_filler {
      type: "xavier"
      std: 0.03
    }
    bias_filler {
      type: "constant"
      value: 0.2
    }
  }
}
layer {
  name: "inception_3a/relu_3x3"
  type: "ReLU"
  bottom: "inception_3a/3x3"
  top: "inception_3a/3x3"
}
layer {
  name: "inception_3a/5x5_reduce"
  type: "Convolution"
  bottom: "pool2/3x3_s2"
  top: "inception_3a/5x5_reduce"
  param {
    lr_mult: 1
    decay_mult: 1
  }
  param {
    lr_mult: 2
    decay_mult: 0
  }
  convolution_param {
    num_output: 16
    kernel_size: 1
    weight_filler {
      type: "xavier"
      std: 0.2
    }
    bias_filler {
      type: "constant"
      value: 0.2
    }
  }
}
layer {
  name: "inception_3a/relu_5x5_reduce"
  type: "ReLU"
  bottom: "inception_3a/5x5_reduce"
  top: "inception_3a/5x5_reduce"
}
layer {
  name: "inception_3a/5x5"
  type: "Convolution"
  bottom: "inception_3a/5x5_reduce"
  top: "inception_3a/5x5"
  param {
    lr_mult: 1
    decay_mult: 1
  }
  param {
    lr_mult: 2
    decay_mult: 0
  }
  convolution_param {
    num_output: 32
    pad: 2
    kernel_size: 5
    weight_filler {
      type: "xavier"
      std: 0.03
    }
    bias_filler {
      type: "constant"
      value: 0.2
    }
  }
}
layer {
  name: "inception_3a/relu_5x5"
  type: "ReLU"
  bottom: "inception_3a/5x5"
  top: "inception_3a/5x5"
}
layer {
  name: "inception_3a/pool"
  type: "Pooling"
  bottom: "pool2/3x3_s2"
  top: "inception_3a/pool"
  pooling_param {
    pool: MAX
    kernel_size: 3
    stride: 1
    pad: 1
  }
}
layer {
  name: "inception_3a/pool_proj"
  type: "Convolution"
  bottom: "inception_3a/pool"
  top: "inception_3a/pool_proj"
  param {
    lr_mult: 1
    decay_mult: 1
  }
  param {
    lr_mult: 2
    decay_mult: 0
  }
  convolution_param {
    num_output: 32
    kernel_size: 1
    weight_filler {
      type: "xavier"
      std: 0.1
    }
    bias_filler {
      type: "constant"
      value: 0.2
    }
  }
}
layer {
  name: "inception_3a/relu_pool_proj"
  type: "ReLU"
  bottom: "inception_3a/pool_proj"
  top: "inception_3a/pool_proj"
}
layer {
  name: "inception_3a/output"
  type: "Concat"
  bottom: "inception_3a/1x1"
  bottom: "inception_3a/3x3"
  bottom: "inception_3a/5x5"
  bottom: "inception_3a/pool_proj"
  top: "inception_3a/output"
}
layer {
  name: "inception_3b/1x1"
  type: "Convolution"
  bottom: "inception_3a/output"
  top: "inception_3b/1x1"
  param {
    lr_mult: 1
    decay_mult: 1
  }
  param {
    lr_mult: 2
    decay_mult: 0
  }
  convolution_param {
    num_output: 128
    kernel_size: 1
    weight_filler {
      type: "xavier"
      std: 0.03
    }
    bias_filler {
      type: "constant"
      value: 0.2
    }
  }
}
layer {
  name: "inception_3b/relu_1x1"
  type: "ReLU"
  bottom: "inception_3b/1x1"
  top: "inception_3b/1x1"
}
layer {
  name: "inception_3b/3x3_reduce"
  type: "Convolution"
  bottom: "inception_3a/output"
  top: "inception_3b/3x3_reduce"
  param {
    lr_mult: 1
    decay_mult: 1
  }
  param {
    lr_mult: 2
    decay_mult: 0
  }
  convolution_param {
    num_output: 128
    kernel_size: 1
    weight_filler {
      type: "xavier"
      std: 0.09
    }
    bias_filler {
      type: "constant"
      value: 0.2
    }
  }
}
layer {
  name: "inception_3b/relu_3x3_reduce"
  type: "ReLU"
  bottom: "inception_3b/3x3_reduce"
  top: "inception_3b/3x3_reduce"
}
layer {
  name: "inception_3b/3x3"
  type: "Convolution"
  bottom: "inception_3b/3x3_reduce"
  top: "inception_3b/3x3"
  param {
    lr_mult: 1
    decay_mult: 1
  }
  param {
    lr_mult: 2
    decay_mult: 0
  }
  convolution_param {
    num_output: 192
    pad: 1
    kernel_size: 3
    weight_filler {
      type: "xavier"
      std: 0.03
    }
    bias_filler {
      type: "constant"
      value: 0.2
    }
  }
}
layer {
  name: "inception_3b/relu_3x3"
  type: "ReLU"
  bottom: "inception_3b/3x3"
  top: "inception_3b/3x3"
}
layer {
  name: "inception_3b/5x5_reduce"
  type: "Convolution"
  bottom: "inception_3a/output"
  top: "inception_3b/5x5_reduce"
  param {
    lr_mult: 1
    decay_mult: 1
  }
  param {
    lr_mult: 2
    decay_mult: 0
  }
  convolution_param {
    num_output: 32
    kernel_size: 1
    weight_filler {
      type: "xavier"
      std: 0.2
    }
    bias_filler {
      type: "constant"
      value: 0.2
    }
  }
}
layer {
  name: "inception_3b/relu_5x5_reduce"
  type: "ReLU"
  bottom: "inception_3b/5x5_reduce"
  top: "inception_3b/5x5_reduce"
}
layer {
  name: "inception_3b/5x5"
  type: "Convolution"
  bottom: "inception_3b/5x5_reduce"
  top: "inception_3b/5x5"
  param {
    lr_mult: 1
    decay_mult: 1
  }
  param {
    lr_mult: 2
    decay_mult: 0
  }
  convolution_param {
    num_output: 96
    pad: 2
    kernel_size: 5
    weight_filler {
      type: "xavier"
      std: 0.03
    }
    bias_filler {
      type: "constant"
      value: 0.2
    }
  }
}
layer {
  name: "inception_3b/relu_5x5"
  type: "ReLU"
  bottom: "inception_3b/5x5"
  top: "inception_3b/5x5"
}
layer {
  name: "inception_3b/pool"
  type: "Pooling"
  bottom: "inception_3a/output"
  top: "inception_3b/pool"
  pooling_param {
    pool: MAX
    kernel_size: 3
    stride: 1
    pad: 1
  }
}
layer {
  name: "inception_3b/pool_proj"
  type: "Convolution"
  bottom: "inception_3b/pool"
  top: "inception_3b/pool_proj"
  param {
    lr_mult: 1
    decay_mult: 1
  }
  param {
    lr_mult: 2
    decay_mult: 0
  }
  convolution_param {
    num_output: 64
    kernel_size: 1
    weight_filler {
      type: "xavier"
      std: 0.1
    }
    bias_filler {
      type: "constant"
      value: 0.2
    }
  }
}
layer {
  name: "inception_3b/relu_pool_proj"
  type: "ReLU"
  bottom: "inception_3b/pool_proj"
  top: "inception_3b/pool_proj"
}
layer {
  name: "inception_3b/output"
  type: "Concat"
  bottom: "inception_3b/1x1"
  bottom: "inception_3b/3x3"
  bottom: "inception_3b/5x5"
  bottom: "inception_3b/pool_proj"
  top: "inception_3b/output"
}
layer {
  name: "pool3/3x3_s2"
  type: "Pooling"
  bottom: "inception_3b/output"
  top: "pool3/3x3_s2"
  pooling_param {
    pool: MAX
    kernel_size: 3
    stride: 2
  }
}
layer {
  name: "inception_4a/1x1"
  type: "Convolution"
  bottom: "pool3/3x3_s2"
  top: "inception_4a/1x1"
  param {
    lr_mult: 1
    decay_mult: 1
  }
  param {
    lr_mult: 2
    decay_mult: 0
  }
  convolution_param {
    num_output: 192
    kernel_size: 1
    weight_filler {
      type: "xavier"
      std: 0.03
    }
    bias_filler {
      type: "constant"
      value: 0.2
    }
  }
}
layer {
  name: "inception_4a/relu_1x1"
  type: "ReLU"
  bottom: "inception_4a/1x1"
  top: "inception_4a/1x1"
}
layer {
  name: "inception_4a/3x3_reduce"
  type: "Convolution"
  bottom: "pool3/3x3_s2"
  top: "inception_4a/3x3_reduce"
  param {
    lr_mult: 1
    decay_mult: 1
  }
  param {
    lr_mult: 2
    decay_mult: 0
  }
  convolution_param {
    num_output: 96
    kernel_size: 1
    weight_filler {
      type: "xavier"
      std: 0.09
    }
    bias_filler {
      type: "constant"
      value: 0.2
    }
  }
}
layer {
  name: "inception_4a/relu_3x3_reduce"
  type: "ReLU"
  bottom: "inception_4a/3x3_reduce"
  top: "inception_4a/3x3_reduce"
}
layer {
  name: "inception_4a/3x3"
  type: "Convolution"
  bottom: "inception_4a/3x3_reduce"
  top: "inception_4a/3x3"
  param {
    lr_mult: 1
    decay_mult: 1
  }
  param {
    lr_mult: 2
    decay_mult: 0
  }
  convolution_param {
    num_output: 208
    pad: 1
    kernel_size: 3
    weight_filler {
      type: "xavier"
      std: 0.03
    }
    bias_filler {
      type: "constant"
      value: 0.2
    }
  }
}
layer {
  name: "inception_4a/relu_3x3"
  type: "ReLU"
  bottom: "inception_4a/3x3"
  top: "inception_4a/3x3"
}
layer {
  name: "inception_4a/5x5_reduce"
  type: "Convolution"
  bottom: "pool3/3x3_s2"
  top: "inception_4a/5x5_reduce"
  param {
    lr_mult: 1
    decay_mult: 1
  }
  param {
    lr_mult: 2
    decay_mult: 0
  }
  convolution_param {
    num_output: 16
    kernel_size: 1
    weight_filler {
      type: "xavier"
      std: 0.2
    }
    bias_filler {
      type: "constant"
      value: 0.2
    }
  }
}
layer {
  name: "inception_4a/relu_5x5_reduce"
  type: "ReLU"
  bottom: "inception_4a/5x5_reduce"
  top: "inception_4a/5x5_reduce"
}
layer {
  name: "inception_4a/5x5"
  type: "Convolution"
  bottom: "inception_4a/5x5_reduce"
  top: "inception_4a/5x5"
  param {
    lr_mult: 1
    decay_mult: 1
  }
  param {
    lr_mult: 2
    decay_mult: 0
  }
  convolution_param {
    num_output: 48
    pad: 2
    kernel_size: 5
    weight_filler {
      type: "xavier"
      std: 0.03
    }
    bias_filler {
      type: "constant"
      value: 0.2
    }
  }
}
layer {
  name: "inception_4a/relu_5x5"
  type: "ReLU"
  bottom: "inception_4a/5x5"
  top: "inception_4a/5x5"
}
layer {
  name: "inception_4a/pool"
  type: "Pooling"
  bottom: "pool3/3x3_s2"
  top: "inception_4a/pool"
  pooling_param {
    pool: MAX
    kernel_size: 3
    stride: 1
    pad: 1
  }
}
layer {
  name: "inception_4a/pool_proj"
  type: "Convolution"
  bottom: "inception_4a/pool"
  top: "inception_4a/pool_proj"
  param {
    lr_mult: 1
    decay_mult: 1
  }
  param {
    lr_mult: 2
    decay_mult: 0
  }
  convolution_param {
    num_output: 64
    kernel_size: 1
    weight_filler {
      type: "xavier"
      std: 0.1
    }
    bias_filler {
      type: "constant"
      value: 0.2
    }
  }
}
layer {
  name: "inception_4a/relu_pool_proj"
  type: "ReLU"
  bottom: "inception_4a/pool_proj"
  top: "inception_4a/pool_proj"
}
layer {
  name: "inception_4a/output"
  type: "Concat"
  bottom: "inception_4a/1x1"
  bottom: "inception_4a/3x3"
  bottom: "inception_4a/5x5"
  bottom: "inception_4a/pool_proj"
  top: "inception_4a/output"
}
layer {
  name: "loss1/ave_pool"
  type: "Pooling"
  bottom: "inception_4a/output"
  top: "loss1/ave_pool"
  pooling_param {
    pool: AVE
    kernel_size: 5
    stride: 3
  }
}
layer {
  name: "loss1/conv"
  type: "Convolution"
  bottom: "loss1/ave_pool"
  top: "loss1/conv"
  param {
    lr_mult: 1
    decay_mult: 1
  }
  param {
    lr_mult: 2
    decay_mult: 0
  }
  convolution_param {
    num_output: 128
    kernel_size: 1
    weight_filler {
      type: "xavier"
      std: 0.08
    }
    bias_filler {
      type: "constant"
      value: 0.2
    }
  }
}
layer {
  name: "loss1/relu_conv"
  type: "ReLU"
  bottom: "loss1/conv"
  top: "loss1/conv"
}
layer {
  name: "loss1/fc"
  type: "InnerProduct"
  bottom: "loss1/conv"
  top: "loss1/fc"
  param {
    lr_mult: 1
    decay_mult: 1
  }
  param {
    lr_mult: 2
    decay_mult: 0
  }
  inner_product_param {
    num_output: 1024
    weight_filler {
      type: "xavier"
      std: 0.02
    }
    bias_filler {
      type: "constant"
      value: 0.2
    }
  }
}
layer {
  name: "loss1/relu_fc"
  type: "ReLU"
  bottom: "loss1/fc"
  top: "loss1/fc"
}
layer {
  name: "loss1/drop_fc"
  type: "Dropout"
  bottom: "loss1/fc"
  top: "loss1/fc"
  dropout_param {
    dropout_ratio: 0.7
  }
}
layer {
  name: "loss1/classifier_plantvillage"
  type: "InnerProduct"
  bottom: "loss1/fc"
  top: "loss1/classifier_plantvillage"
  param {
    lr_mult: 1
    decay_mult: 1
  }
  param {
    lr_mult: 2
    decay_mult: 0
  }
  inner_product_param {
    num_output: 38
    weight_filler {
      type: "xavier"
      std: 0.0009765625
    }
    bias_filler {
      type: "constant"
      value: 0
    }
  }
}
layer {
  name: "inception_4b/1x1"
  type: "Convolution"
  bottom: "inception_4a/output"
  top: "inception_4b/1x1"
  param {
    lr_mult: 1
    decay_mult: 1
  }
  param {
    lr_mult: 2
    decay_mult: 0
  }
  convolution_param {
    num_output: 160
    kernel_size: 1
    weight_filler {
      type: "xavier"
      std: 0.03
    }
    bias_filler {
      type: "constant"
      value: 0.2
    }
  }
}
layer {
  name: "inception_4b/relu_1x1"
  type: "ReLU"
  bottom: "inception_4b/1x1"
  top: "inception_4b/1x1"
}
layer {
  name: "inception_4b/3x3_reduce"
  type: "Convolution"
  bottom: "inception_4a/output"
  top: "inception_4b/3x3_reduce"
  param {
    lr_mult: 1
    decay_mult: 1
  }
  param {
    lr_mult: 2
    decay_mult: 0
  }
  convolution_param {
    num_output: 112
    kernel_size: 1
    weight_filler {
      type: "xavier"
      std: 0.09
    }
    bias_filler {
      type: "constant"
      value: 0.2
    }
  }
}
layer {
  name: "inception_4b/relu_3x3_reduce"
  type: "ReLU"
  bottom: "inception_4b/3x3_reduce"
  top: "inception_4b/3x3_reduce"
}
layer {
  name: "inception_4b/3x3"
  type: "Convolution"
  bottom: "inception_4b/3x3_reduce"
  top: "inception_4b/3x3"
  param {
    lr_mult: 1
    decay_mult: 1
  }
  param {
    lr_mult: 2
    decay_mult: 0
  }
  convolution_param {
    num_output: 224
    pad: 1
    kernel_size: 3
    weight_filler {
      type: "xavier"
      std: 0.03
    }
    bias_filler {
      type: "constant"
      value: 0.2
    }
  }
}
layer {
  name: "inception_4b/relu_3x3"
  type: "ReLU"
  bottom: "inception_4b/3x3"
  top: "inception_4b/3x3"
}
layer {
  name: "inception_4b/5x5_reduce"
  type: "Convolution"
  bottom: "inception_4a/output"
  top: "inception_4b/5x5_reduce"
  param {
    lr_mult: 1
    decay_mult: 1
  }
  param {
    lr_mult: 2
    decay_mult: 0
  }
  convolution_param {
    num_output: 24
    kernel_size: 1
    weight_filler {
      type: "xavier"
      std: 0.2
    }
    bias_filler {
      type: "constant"
      value: 0.2
    }
  }
}
layer {
  name: "inception_4b/relu_5x5_reduce"
  type: "ReLU"
  bottom: "inception_4b/5x5_reduce"
  top: "inception_4b/5x5_reduce"
}
layer {
  name: "inception_4b/5x5"
  type: "Convolution"
  bottom: "inception_4b/5x5_reduce"
  top: "inception_4b/5x5"
  param {
    lr_mult: 1
    decay_mult: 1
  }
  param {
    lr_mult: 2
    decay_mult: 0
  }
  convolution_param {
    num_output: 64
    pad: 2
    kernel_size: 5
    weight_filler {
      type: "xavier"
      std: 0.03
    }
    bias_filler {
      type: "constant"
      value: 0.2
    }
  }
}
layer {
  name: "inception_4b/relu_5x5"
  type: "ReLU"
  bottom: "inception_4b/5x5"
  top: "inception_4b/5x5"
}
layer {
  name: "inception_4b/pool"
  type: "Pooling"
  bottom: "inception_4a/output"
  top: "inception_4b/pool"
  pooling_param {
    pool: MAX
    kernel_size: 3
    stride: 1
    pad: 1
  }
}
layer {
  name: "inception_4b/pool_proj"
  type: "Convolution"
  bottom: "inception_4b/pool"
  top: "inception_4b/pool_proj"
  param {
    lr_mult: 1
    decay_mult: 1
  }
  param {
    lr_mult: 2
    decay_mult: 0
  }
  convolution_param {
    num_output: 64
    kernel_size: 1
    weight_filler {
      type: "xavier"
      std: 0.1
    }
    bias_filler {
      type: "constant"
      value: 0.2
    }
  }
}
layer {
  name: "inception_4b/relu_pool_proj"
  type: "ReLU"
  bottom: "inception_4b/pool_proj"
  top: "inception_4b/pool_proj"
}
layer {
  name: "inception_4b/output"
  type: "Concat"
  bottom: "inception_4b/1x1"
  bottom: "inception_4b/3x3"
  bottom: "inception_4b/5x5"
  bottom: "inception_4b/pool_proj"
  top: "inception_4b/output"
}
layer {
  name: "inception_4c/1x1"
  type: "Convolution"
  bottom: "inception_4b/output"
  top: "inception_4c/1x1"
  param {
    lr_mult: 1
    decay_mult: 1
  }
  param {
    lr_mult: 2
    decay_mult: 0
  }
  convolution_param {
    num_output: 128
    kernel_size: 1
    weight_filler {
      type: "xavier"
      std: 0.03
    }
    bias_filler {
      type: "constant"
      value: 0.2
    }
  }
}
layer {
  name: "inception_4c/relu_1x1"
  type: "ReLU"
  bottom: "inception_4c/1x1"
  top: "inception_4c/1x1"
}
layer {
  name: "inception_4c/3x3_reduce"
  type: "Convolution"
  bottom: "inception_4b/output"
  top: "inception_4c/3x3_reduce"
  param {
    lr_mult: 1
    decay_mult: 1
  }
  param {
    lr_mult: 2
    decay_mult: 0
  }
  convolution_param {
    num_output: 128
    kernel_size: 1
    weight_filler {
      type: "xavier"
      std: 0.09
    }
    bias_filler {
      type: "constant"
      value: 0.2
    }
  }
}
layer {
  name: "inception_4c/relu_3x3_reduce"
  type: "ReLU"
  bottom: "inception_4c/3x3_reduce"
  top: "inception_4c/3x3_reduce"
}
layer {
  name: "inception_4c/3x3"
  type: "Convolution"
  bottom: "inception_4c/3x3_reduce"
  top: "inception_4c/3x3"
  param {
    lr_mult: 1
    decay_mult: 1
  }
  param {
    lr_mult: 2
    decay_mult: 0
  }
  convolution_param {
    num_output: 256
    pad: 1
    kernel_size: 3
    weight_filler {
      type: "xavier"
      std: 0.03
    }
    bias_filler {
      type: "constant"
      value: 0.2
    }
  }
}
layer {
  name: "inception_4c/relu_3x3"
  type: "ReLU"
  bottom: "inception_4c/3x3"
  top: "inception_4c/3x3"
}
layer {
  name: "inception_4c/5x5_reduce"
  type: "Convolution"
  bottom: "inception_4b/output"
  top: "inception_4c/5x5_reduce"
  param {
    lr_mult: 1
    decay_mult: 1
  }
  param {
    lr_mult: 2
    decay_mult: 0
  }
  convolution_param {
    num_output: 24
    kernel_size: 1
    weight_filler {
      type: "xavier"
      std: 0.2
    }
    bias_filler {
      type: "constant"
      value: 0.2
    }
  }
}
layer {
  name: "inception_4c/relu_5x5_reduce"
  type: "ReLU"
  bottom: "inception_4c/5x5_reduce"
  top: "inception_4c/5x5_reduce"
}
layer {
  name: "inception_4c/5x5"
  type: "Convolution"
  bottom: "inception_4c/5x5_reduce"
  top: "inception_4c/5x5"
  param {
    lr_mult: 1
    decay_mult: 1
  }
  param {
    lr_mult: 2
    decay_mult: 0
  }
  convolution_param {
    num_output: 64
    pad: 2
    kernel_size: 5
    weight_filler {
      type: "xavier"
      std: 0.03
    }
    bias_filler {
      type: "constant"
      value: 0.2
    }
  }
}
layer {
  name: "inception_4c/relu_5x5"
  type: "ReLU"
  bottom: "inception_4c/5x5"
  top: "inception_4c/5x5"
}
layer {
  name: "inception_4c/pool"
  type: "Pooling"
  bottom: "inception_4b/output"
  top: "inception_4c/pool"
  pooling_param {
    pool: MAX
    kernel_size: 3
    stride: 1
    pad: 1
  }
}
layer {
  name: "inception_4c/pool_proj"
  type: "Convolution"
  bottom: "inception_4c/pool"
  top: "inception_4c/pool_proj"
  param {
    lr_mult: 1
    decay_mult: 1
  }
  param {
    lr_mult: 2
    decay_mult: 0
  }
  convolution_param {
    num_output: 64
    kernel_size: 1
    weight_filler {
      type: "xavier"
      std: 0.1
    }
    bias_filler {
      type: "constant"
      value: 0.2
    }
  }
}
layer {
  name: "inception_4c/relu_pool_proj"
  type: "ReLU"
  bottom: "inception_4c/pool_proj"
  top: "inception_4c/pool_proj"
}
layer {
  name: "inception_4c/output"
  type: "Concat"
  bottom: "inception_4c/1x1"
  bottom: "inception_4c/3x3"
  bottom: "inception_4c/5x5"
  bottom: "inception_4c/pool_proj"
  top: "inception_4c/output"
}
layer {
  name: "inception_4d/1x1"
  type: "Convolution"
  bottom: "inception_4c/output"
  top: "inception_4d/1x1"
  param {
    lr_mult: 1
    decay_mult: 1
  }
  param {
    lr_mult: 2
    decay_mult: 0
  }
  convolution_param {
    num_output: 112
    kernel_size: 1
    weight_filler {
      type: "xavier"
      std: 0.03
    }
    bias_filler {
      type: "constant"
      value: 0.2
    }
  }
}
layer {
  name: "inception_4d/relu_1x1"
  type: "ReLU"
  bottom: "inception_4d/1x1"
  top: "inception_4d/1x1"
}
layer {
  name: "inception_4d/3x3_reduce"
  type: "Convolution"
  bottom: "inception_4c/output"
  top: "inception_4d/3x3_reduce"
  param {
    lr_mult: 1
    decay_mult: 1
  }
  param {
    lr_mult: 2
    decay_mult: 0
  }
  convolution_param {
    num_output: 144
    kernel_size: 1
    weight_filler {
      type: "xavier"
      std: 0.09
    }
    bias_filler {
      type: "constant"
      value: 0.2
    }
  }
}
layer {
  name: "inception_4d/relu_3x3_reduce"
  type: "ReLU"
  bottom: "inception_4d/3x3_reduce"
  top: "inception_4d/3x3_reduce"
}
layer {
  name: "inception_4d/3x3"
  type: "Convolution"
  bottom: "inception_4d/3x3_reduce"
  top: "inception_4d/3x3"
  param {
    lr_mult: 1
    decay_mult: 1
  }
  param {
    lr_mult: 2
    decay_mult: 0
  }
  convolution_param {
    num_output: 288
    pad: 1
    kernel_size: 3
    weight_filler {
      type: "xavier"
      std: 0.03
    }
    bias_filler {
      type: "constant"
      value: 0.2
    }
  }
}
layer {
  name: "inception_4d/relu_3x3"
  type: "ReLU"
  bottom: "inception_4d/3x3"
  top: "inception_4d/3x3"
}
layer {
  name: "inception_4d/5x5_reduce"
  type: "Convolution"
  bottom: "inception_4c/output"
  top: "inception_4d/5x5_reduce"
  param {
    lr_mult: 1
    decay_mult: 1
  }
  param {
    lr_mult: 2
    decay_mult: 0
  }
  convolution_param {
    num_output: 32
    kernel_size: 1
    weight_filler {
      type: "xavier"
      std: 0.2
    }
    bias_filler {
      type: "constant"
      value: 0.2
    }
  }
}
layer {
  name: "inception_4d/relu_5x5_reduce"
  type: "ReLU"
  bottom: "inception_4d/5x5_reduce"
  top: "inception_4d/5x5_reduce"
}
layer {
  name: "inception_4d/5x5"
  type: "Convolution"
  bottom: "inception_4d/5x5_reduce"
  top: "inception_4d/5x5"
  param {
    lr_mult: 1
    decay_mult: 1
  }
  param {
    lr_mult: 2
    decay_mult: 0
  }
  convolution_param {
    num_output: 64
    pad: 2
    kernel_size: 5
    weight_filler {
      type: "xavier"
      std: 0.03
    }
    bias_filler {
      type: "constant"
      value: 0.2
    }
  }
}
layer {
  name: "inception_4d/relu_5x5"
  type: "ReLU"
  bottom: "inception_4d/5x5"
  top: "inception_4d/5x5"
}
layer {
  name: "inception_4d/pool"
  type: "Pooling"
  bottom: "inception_4c/output"
  top: "inception_4d/pool"
  pooling_param {
    pool: MAX
    kernel_size: 3
    stride: 1
    pad: 1
  }
}
layer {
  name: "inception_4d/pool_proj"
  type: "Convolution"
  bottom: "inception_4d/pool"
  top: "inception_4d/pool_proj"
  param {
    lr_mult: 1
    decay_mult: 1
  }
  param {
    lr_mult: 2
    decay_mult: 0
  }
  convolution_param {
    num_output: 64
    kernel_size: 1
    weight_filler {
      type: "xavier"
      std: 0.1
    }
    bias_filler {
      type: "constant"
      value: 0.2
    }
  }
}
layer {
  name: "inception_4d/relu_pool_proj"
  type: "ReLU"
  bottom: "inception_4d/pool_proj"
  top: "inception_4d/pool_proj"
}
layer {
  name: "inception_4d/output"
  type: "Concat"
  bottom: "inception_4d/1x1"
  bottom: "inception_4d/3x3"
  bottom: "inception_4d/5x5"
  bottom: "inception_4d/pool_proj"
  top: "inception_4d/output"
}
layer {
  name: "loss2/ave_pool"
  type: "Pooling"
  bottom: "inception_4d/output"
  top: "loss2/ave_pool"
  pooling_param {
    pool: AVE
    kernel_size: 5
    stride: 3
  }
}
layer {
  name: "loss2/conv"
  type: "Convolution"
  bottom: "loss2/ave_pool"
  top: "loss2/conv"
  param {
    lr_mult: 1
    decay_mult: 1
  }
  param {
    lr_mult: 2
    decay_mult: 0
  }
  convolution_param {
    num_output: 128
    kernel_size: 1
    weight_filler {
      type: "xavier"
      std: 0.08
    }
    bias_filler {
      type: "constant"
      value: 0.2
    }
  }
}
layer {
  name: "loss2/relu_conv"
  type: "ReLU"
  bottom: "loss2/conv"
  top: "loss2/conv"
}
layer {
  name: "loss2/fc"
  type: "InnerProduct"
  bottom: "loss2/conv"
  top: "loss2/fc"
  param {
    lr_mult: 1
    decay_mult: 1
  }
  param {
    lr_mult: 2
    decay_mult: 0
  }
  inner_product_param {
    num_output: 1024
    weight_filler {
      type: "xavier"
      std: 0.02
    }
    bias_filler {
      type: "constant"
      value: 0.2
    }
  }
}
layer {
  name: "loss2/relu_fc"
  type: "ReLU"
  bottom: "loss2/fc"
  top: "loss2/fc"
}
layer {
  name: "loss2/drop_fc"
  type: "Dropout"
  bottom: "loss2/fc"
  top: "loss2/fc"
  dropout_param {
    dropout_ratio: 0.7
  }
}
layer {
  name: "loss2/classifier_plantvillage"
  type: "InnerProduct"
  bottom: "loss2/fc"
  top: "loss2/classifier_plantvillage"
  param {
    lr_mult: 1
    decay_mult: 1
  }
  param {
    lr_mult: 2
    decay_mult: 0
  }
  inner_product_param {
    num_output: 38
    weight_filler {
      type: "xavier"
      std: 0.0009765625
    }
    bias_filler {
      type: "constant"
      value: 0
    }
  }
}
layer {
  name: "inception_4e/1x1"
  type: "Convolution"
  bottom: "inception_4d/output"
  top: "inception_4e/1x1"
  param {
    lr_mult: 1
    decay_mult: 1
  }
  param {
    lr_mult: 2
    decay_mult: 0
  }
  convolution_param {
    num_output: 256
    kernel_size: 1
    weight_filler {
      type: "xavier"
      std: 0.03
    }
    bias_filler {
      type: "constant"
      value: 0.2
    }
  }
}
layer {
  name: "inception_4e/relu_1x1"
  type: "ReLU"
  bottom: "inception_4e/1x1"
  top: "inception_4e/1x1"
}
layer {
  name: "inception_4e/3x3_reduce"
  type: "Convolution"
  bottom: "inception_4d/output"
  top: "inception_4e/3x3_reduce"
  param {
    lr_mult: 1
    decay_mult: 1
  }
  param {
    lr_mult: 2
    decay_mult: 0
  }
  convolution_param {
    num_output: 160
    kernel_size: 1
    weight_filler {
      type: "xavier"
      std: 0.09
    }
    bias_filler {
      type: "constant"
      value: 0.2
    }
  }
}
layer {
  name: "inception_4e/relu_3x3_reduce"
  type: "ReLU"
  bottom: "inception_4e/3x3_reduce"
  top: "inception_4e/3x3_reduce"
}
layer {
  name: "inception_4e/3x3"
  type: "Convolution"
  bottom: "inception_4e/3x3_reduce"
  top: "inception_4e/3x3"
  param {
    lr_mult: 1
    decay_mult: 1
  }
  param {
    lr_mult: 2
    decay_mult: 0
  }
  convolution_param {
    num_output: 320
    pad: 1
    kernel_size: 3
    weight_filler {
      type: "xavier"
      std: 0.03
    }
    bias_filler {
      type: "constant"
      value: 0.2
    }
  }
}
layer {
  name: "inception_4e/relu_3x3"
  type: "ReLU"
  bottom: "inception_4e/3x3"
  top: "inception_4e/3x3"
}
layer {
  name: "inception_4e/5x5_reduce"
  type: "Convolution"
  bottom: "inception_4d/output"
  top: "inception_4e/5x5_reduce"
  param {
    lr_mult: 1
    decay_mult: 1
  }
  param {
    lr_mult: 2
    decay_mult: 0
  }
  convolution_param {
    num_output: 32
    kernel_size: 1
    weight_filler {
      type: "xavier"
      std: 0.2
    }
    bias_filler {
      type: "constant"
      value: 0.2
    }
  }
}
layer {
  name: "inception_4e/relu_5x5_reduce"
  type: "ReLU"
  bottom: "inception_4e/5x5_reduce"
  top: "inception_4e/5x5_reduce"
}
layer {
  name: "inception_4e/5x5"
  type: "Convolution"
  bottom: "inception_4e/5x5_reduce"
  top: "inception_4e/
I0403 18:15:27.007452 21853 layer_factory.hpp:77] Creating layer data
I0403 18:15:27.008044 21853 net.cpp:91] Creating Layer data
I0403 18:15:27.008072 21853 net.cpp:399] data -> data
I0403 18:15:27.008121 21853 net.cpp:399] data -> label
I0403 18:15:27.008157 21853 data_transformer.cpp:25] Loading mean file from: /home/mohanty/data/final_dataset/lmdb/segmented-40-60/mean.binaryproto
I0403 18:15:27.009336 21855 db_lmdb.cpp:38] Opened lmdb /home/mohanty/data/final_dataset/lmdb/segmented-40-60/test_db
I0403 18:15:27.021145 21853 data_layer.cpp:41] output data size: 24,3,224,224
I0403 18:15:27.048336 21853 net.cpp:141] Setting up data
I0403 18:15:27.048414 21853 net.cpp:148] Top shape: 24 3 224 224 (3612672)
I0403 18:15:27.048437 21853 net.cpp:148] Top shape: 24 (24)
I0403 18:15:27.048451 21853 net.cpp:156] Memory required for data: 14450784
I0403 18:15:27.048480 21853 layer_factory.hpp:77] Creating layer label_data_1_split
I0403 18:15:27.048506 21853 net.cpp:91] Creating Layer label_data_1_split
I0403 18:15:27.048523 21853 net.cpp:425] label_data_1_split <- label
I0403 18:15:27.048559 21853 net.cpp:399] label_data_1_split -> label_data_1_split_0
I0403 18:15:27.048588 21853 net.cpp:399] label_data_1_split -> label_data_1_split_1
I0403 18:15:27.048609 21853 net.cpp:399] label_data_1_split -> label_data_1_split_2
I0403 18:15:27.048629 21853 net.cpp:399] label_data_1_split -> label_data_1_split_3
I0403 18:15:27.048650 21853 net.cpp:399] label_data_1_split -> label_data_1_split_4
I0403 18:15:27.048668 21853 net.cpp:399] label_data_1_split -> label_data_1_split_5
I0403 18:15:27.048688 21853 net.cpp:399] label_data_1_split -> label_data_1_split_6
I0403 18:15:27.048708 21853 net.cpp:399] label_data_1_split -> label_data_1_split_7
I0403 18:15:27.048728 21853 net.cpp:399] label_data_1_split -> label_data_1_split_8
I0403 18:15:27.048748 21853 net.cpp:399] label_data_1_split -> label_data_1_split_9
I0403 18:15:27.048857 21853 net.cpp:141] Setting up label_data_1_split
I0403 18:15:27.048880 21853 net.cpp:148] Top shape: 24 (24)
I0403 18:15:27.048897 21853 net.cpp:148] Top shape: 24 (24)
I0403 18:15:27.048913 21853 net.cpp:148] Top shape: 24 (24)
I0403 18:15:27.048928 21853 net.cpp:148] Top shape: 24 (24)
I0403 18:15:27.048943 21853 net.cpp:148] Top shape: 24 (24)
I0403 18:15:27.048957 21853 net.cpp:148] Top shape: 24 (24)
I0403 18:15:27.048972 21853 net.cpp:148] Top shape: 24 (24)
I0403 18:15:27.048986 21853 net.cpp:148] Top shape: 24 (24)
I0403 18:15:27.049001 21853 net.cpp:148] Top shape: 24 (24)
I0403 18:15:27.049016 21853 net.cpp:148] Top shape: 24 (24)
I0403 18:15:27.049068 21853 net.cpp:156] Memory required for data: 14451744
I0403 18:15:27.049083 21853 layer_factory.hpp:77] Creating layer conv1/7x7_s2
I0403 18:15:27.049115 21853 net.cpp:91] Creating Layer conv1/7x7_s2
I0403 18:15:27.049134 21853 net.cpp:425] conv1/7x7_s2 <- data
I0403 18:15:27.049154 21853 net.cpp:399] conv1/7x7_s2 -> conv1/7x7_s2
I0403 18:15:27.187047 21853 net.cpp:141] Setting up conv1/7x7_s2
I0403 18:15:27.187121 21853 net.cpp:148] Top shape: 24 64 112 112 (19267584)
I0403 18:15:27.187137 21853 net.cpp:156] Memory required for data: 91522080
I0403 18:15:27.187165 21853 layer_factory.hpp:77] Creating layer conv1/relu_7x7
I0403 18:15:27.187191 21853 net.cpp:91] Creating Layer conv1/relu_7x7
I0403 18:15:27.187207 21853 net.cpp:425] conv1/relu_7x7 <- conv1/7x7_s2
I0403 18:15:27.187224 21853 net.cpp:386] conv1/relu_7x7 -> conv1/7x7_s2 (in-place)
I0403 18:15:27.187465 21853 net.cpp:141] Setting up conv1/relu_7x7
I0403 18:15:27.187490 21853 net.cpp:148] Top shape: 24 64 112 112 (19267584)
I0403 18:15:27.187505 21853 net.cpp:156] Memory required for data: 168592416
I0403 18:15:27.187518 21853 layer_factory.hpp:77] Creating layer pool1/3x3_s2
I0403 18:15:27.187546 21853 net.cpp:91] Creating Layer pool1/3x3_s2
I0403 18:15:27.187562 21853 net.cpp:425] pool1/3x3_s2 <- conv1/7x7_s2
I0403 18:15:27.187580 21853 net.cpp:399] pool1/3x3_s2 -> pool1/3x3_s2
I0403 18:15:27.187649 21853 net.cpp:141] Setting up pool1/3x3_s2
I0403 18:15:27.187670 21853 net.cpp:148] Top shape: 24 64 56 56 (4816896)
I0403 18:15:27.187685 21853 net.cpp:156] Memory required for data: 187860000
I0403 18:15:27.187698 21853 layer_factory.hpp:77] Creating layer pool1/norm1
I0403 18:15:27.187721 21853 net.cpp:91] Creating Layer pool1/norm1
I0403 18:15:27.187736 21853 net.cpp:425] pool1/norm1 <- pool1/3x3_s2
I0403 18:15:27.187752 21853 net.cpp:399] pool1/norm1 -> pool1/norm1
I0403 18:15:27.188014 21853 net.cpp:141] Setting up pool1/norm1
I0403 18:15:27.188040 21853 net.cpp:148] Top shape: 24 64 56 56 (4816896)
I0403 18:15:27.188053 21853 net.cpp:156] Memory required for data: 207127584
I0403 18:15:27.188067 21853 layer_factory.hpp:77] Creating layer conv2/3x3_reduce
I0403 18:15:27.188091 21853 net.cpp:91] Creating Layer conv2/3x3_reduce
I0403 18:15:27.188105 21853 net.cpp:425] conv2/3x3_reduce <- pool1/norm1
I0403 18:15:27.188122 21853 net.cpp:399] conv2/3x3_reduce -> conv2/3x3_reduce
I0403 18:15:27.189375 21853 net.cpp:141] Setting up conv2/3x3_reduce
I0403 18:15:27.189402 21853 net.cpp:148] Top shape: 24 64 56 56 (4816896)
I0403 18:15:27.189419 21853 net.cpp:156] Memory required for data: 226395168
I0403 18:15:27.189437 21853 layer_factory.hpp:77] Creating layer conv2/relu_3x3_reduce
I0403 18:15:27.189455 21853 net.cpp:91] Creating Layer conv2/relu_3x3_reduce
I0403 18:15:27.189470 21853 net.cpp:425] conv2/relu_3x3_reduce <- conv2/3x3_reduce
I0403 18:15:27.189486 21853 net.cpp:386] conv2/relu_3x3_reduce -> conv2/3x3_reduce (in-place)
I0403 18:15:27.189735 21853 net.cpp:141] Setting up conv2/relu_3x3_reduce
I0403 18:15:27.189760 21853 net.cpp:148] Top shape: 24 64 56 56 (4816896)
I0403 18:15:27.189774 21853 net.cpp:156] Memory required for data: 245662752
I0403 18:15:27.189788 21853 layer_factory.hpp:77] Creating layer conv2/3x3
I0403 18:15:27.189808 21853 net.cpp:91] Creating Layer conv2/3x3
I0403 18:15:27.189824 21853 net.cpp:425] conv2/3x3 <- conv2/3x3_reduce
I0403 18:15:27.189842 21853 net.cpp:399] conv2/3x3 -> conv2/3x3
I0403 18:15:27.191906 21853 net.cpp:141] Setting up conv2/3x3
I0403 18:15:27.191933 21853 net.cpp:148] Top shape: 24 192 56 56 (14450688)
I0403 18:15:27.191948 21853 net.cpp:156] Memory required for data: 303465504
I0403 18:15:27.191975 21853 layer_factory.hpp:77] Creating layer conv2/relu_3x3
I0403 18:15:27.191993 21853 net.cpp:91] Creating Layer conv2/relu_3x3
I0403 18:15:27.192008 21853 net.cpp:425] conv2/relu_3x3 <- conv2/3x3
I0403 18:15:27.192023 21853 net.cpp:386] conv2/relu_3x3 -> conv2/3x3 (in-place)
I0403 18:15:27.192170 21853 net.cpp:141] Setting up conv2/relu_3x3
I0403 18:15:27.192200 21853 net.cpp:148] Top shape: 24 192 56 56 (14450688)
I0403 18:15:27.192247 21853 net.cpp:156] Memory required for data: 361268256
I0403 18:15:27.192263 21853 layer_factory.hpp:77] Creating layer conv2/norm2
I0403 18:15:27.192281 21853 net.cpp:91] Creating Layer conv2/norm2
I0403 18:15:27.192296 21853 net.cpp:425] conv2/norm2 <- conv2/3x3
I0403 18:15:27.192312 21853 net.cpp:399] conv2/norm2 -> conv2/norm2
I0403 18:15:27.192577 21853 net.cpp:141] Setting up conv2/norm2
I0403 18:15:27.192602 21853 net.cpp:148] Top shape: 24 192 56 56 (14450688)
I0403 18:15:27.192616 21853 net.cpp:156] Memory required for data: 419071008
I0403 18:15:27.192641 21853 layer_factory.hpp:77] Creating layer pool2/3x3_s2
I0403 18:15:27.192656 21853 net.cpp:91] Creating Layer pool2/3x3_s2
I0403 18:15:27.192672 21853 net.cpp:425] pool2/3x3_s2 <- conv2/norm2
I0403 18:15:27.192687 21853 net.cpp:399] pool2/3x3_s2 -> pool2/3x3_s2
I0403 18:15:27.192731 21853 net.cpp:141] Setting up pool2/3x3_s2
I0403 18:15:27.192752 21853 net.cpp:148] Top shape: 24 192 28 28 (3612672)
I0403 18:15:27.192765 21853 net.cpp:156] Memory required for data: 433521696
I0403 18:15:27.192778 21853 layer_factory.hpp:77] Creating layer pool2/3x3_s2_pool2/3x3_s2_0_split
I0403 18:15:27.192795 21853 net.cpp:91] Creating Layer pool2/3x3_s2_pool2/3x3_s2_0_split
I0403 18:15:27.192809 21853 net.cpp:425] pool2/3x3_s2_pool2/3x3_s2_0_split <- pool2/3x3_s2
I0403 18:15:27.192826 21853 net.cpp:399] pool2/3x3_s2_pool2/3x3_s2_0_split -> pool2/3x3_s2_pool2/3x3_s2_0_split_0
I0403 18:15:27.192842 21853 net.cpp:399] pool2/3x3_s2_pool2/3x3_s2_0_split -> pool2/3x3_s2_pool2/3x3_s2_0_split_1
I0403 18:15:27.192860 21853 net.cpp:399] pool2/3x3_s2_pool2/3x3_s2_0_split -> pool2/3x3_s2_pool2/3x3_s2_0_split_2
I0403 18:15:27.192878 21853 net.cpp:399] pool2/3x3_s2_pool2/3x3_s2_0_split -> pool2/3x3_s2_pool2/3x3_s2_0_split_3
I0403 18:15:27.192945 21853 net.cpp:141] Setting up pool2/3x3_s2_pool2/3x3_s2_0_split
I0403 18:15:27.192966 21853 net.cpp:148] Top shape: 24 192 28 28 (3612672)
I0403 18:15:27.192981 21853 net.cpp:148] Top shape: 24 192 28 28 (3612672)
I0403 18:15:27.192996 21853 net.cpp:148] Top shape: 24 192 28 28 (3612672)
I0403 18:15:27.193009 21853 net.cpp:148] Top shape: 24 192 28 28 (3612672)
I0403 18:15:27.193022 21853 net.cpp:156] Memory required for data: 491324448
I0403 18:15:27.193037 21853 layer_factory.hpp:77] Creating layer inception_3a/1x1
I0403 18:15:27.193055 21853 net.cpp:91] Creating Layer inception_3a/1x1
I0403 18:15:27.193070 21853 net.cpp:425] inception_3a/1x1 <- pool2/3x3_s2_pool2/3x3_s2_0_split_0
I0403 18:15:27.193087 21853 net.cpp:399] inception_3a/1x1 -> inception_3a/1x1
I0403 18:15:27.194524 21853 net.cpp:141] Setting up inception_3a/1x1
I0403 18:15:27.194563 21853 net.cpp:148] Top shape: 24 64 28 28 (1204224)
I0403 18:15:27.194581 21853 net.cpp:156] Memory required for data: 496141344
I0403 18:15:27.194598 21853 layer_factory.hpp:77] Creating layer inception_3a/relu_1x1
I0403 18:15:27.194615 21853 net.cpp:91] Creating Layer inception_3a/relu_1x1
I0403 18:15:27.194629 21853 net.cpp:425] inception_3a/relu_1x1 <- inception_3a/1x1
I0403 18:15:27.194645 21853 net.cpp:386] inception_3a/relu_1x1 -> inception_3a/1x1 (in-place)
I0403 18:15:27.194810 21853 net.cpp:141] Setting up inception_3a/relu_1x1
I0403 18:15:27.194845 21853 net.cpp:148] Top shape: 24 64 28 28 (1204224)
I0403 18:15:27.194860 21853 net.cpp:156] Memory required for data: 500958240
I0403 18:15:27.194874 21853 layer_factory.hpp:77] Creating layer inception_3a/3x3_reduce
I0403 18:15:27.194895 21853 net.cpp:91] Creating Layer inception_3a/3x3_reduce
I0403 18:15:27.194911 21853 net.cpp:425] inception_3a/3x3_reduce <- pool2/3x3_s2_pool2/3x3_s2_0_split_1
I0403 18:15:27.194931 21853 net.cpp:399] inception_3a/3x3_reduce -> inception_3a/3x3_reduce
I0403 18:15:27.196565 21853 net.cpp:141] Setting up inception_3a/3x3_reduce
I0403 18:15:27.196593 21853 net.cpp:148] Top shape: 24 96 28 28 (1806336)
I0403 18:15:27.196607 21853 net.cpp:156] Memory required for data: 508183584
I0403 18:15:27.196630 21853 layer_factory.hpp:77] Creating layer inception_3a/relu_3x3_reduce
I0403 18:15:27.196666 21853 net.cpp:91] Creating Layer inception_3a/relu_3x3_reduce
I0403 18:15:27.196683 21853 net.cpp:425] inception_3a/relu_3x3_reduce <- inception_3a/3x3_reduce
I0403 18:15:27.196702 21853 net.cpp:386] inception_3a/relu_3x3_reduce -> inception_3a/3x3_reduce (in-place)
I0403 18:15:27.196866 21853 net.cpp:141] Setting up inception_3a/relu_3x3_reduce
I0403 18:15:27.196890 21853 net.cpp:148] Top shape: 24 96 28 28 (1806336)
I0403 18:15:27.196904 21853 net.cpp:156] Memory required for data: 515408928
I0403 18:15:27.196918 21853 layer_factory.hpp:77] Creating layer inception_3a/3x3
I0403 18:15:27.196939 21853 net.cpp:91] Creating Layer inception_3a/3x3
I0403 18:15:27.196955 21853 net.cpp:425] inception_3a/3x3 <- inception_3a/3x3_reduce
I0403 18:15:27.196974 21853 net.cpp:399] inception_3a/3x3 -> inception_3a/3x3
I0403 18:15:27.198529 21853 net.cpp:141] Setting up inception_3a/3x3
I0403 18:15:27.198585 21853 net.cpp:148] Top shape: 24 128 28 28 (2408448)
I0403 18:15:27.198601 21853 net.cpp:156] Memory required for data: 525042720
I0403 18:15:27.198618 21853 layer_factory.hpp:77] Creating layer inception_3a/relu_3x3
I0403 18:15:27.198634 21853 net.cpp:91] Creating Layer inception_3a/relu_3x3
I0403 18:15:27.198649 21853 net.cpp:425] inception_3a/relu_3x3 <- inception_3a/3x3
I0403 18:15:27.198668 21853 net.cpp:386] inception_3a/relu_3x3 -> inception_3a/3x3 (in-place)
I0403 18:15:27.198925 21853 net.cpp:141] Setting up inception_3a/relu_3x3
I0403 18:15:27.198952 21853 net.cpp:148] Top shape: 24 128 28 28 (2408448)
I0403 18:15:27.198968 21853 net.cpp:156] Memory required for data: 534676512
I0403 18:15:27.198983 21853 layer_factory.hpp:77] Creating layer inception_3a/5x5_reduce
I0403 18:15:27.199003 21853 net.cpp:91] Creating Layer inception_3a/5x5_reduce
I0403 18:15:27.199020 21853 net.cpp:425] inception_3a/5x5_reduce <- pool2/3x3_s2_pool2/3x3_s2_0_split_2
I0403 18:15:27.199039 21853 net.cpp:399] inception_3a/5x5_reduce -> inception_3a/5x5_reduce
I0403 18:15:27.199940 21853 net.cpp:141] Setting up inception_3a/5x5_reduce
I0403 18:15:27.199966 21853 net.cpp:148] Top shape: 24 16 28 28 (301056)
I0403 18:15:27.199980 21853 net.cpp:156] Memory required for data: 535880736
I0403 18:15:27.199997 21853 layer_factory.hpp:77] Creating layer inception_3a/relu_5x5_reduce
I0403 18:15:27.200014 21853 net.cpp:91] Creating Layer inception_3a/relu_5x5_reduce
I0403 18:15:27.200028 21853 net.cpp:425] inception_3a/relu_5x5_reduce <- inception_3a/5x5_reduce
I0403 18:15:27.200050 21853 net.cpp:386] inception_3a/relu_5x5_reduce -> inception_3a/5x5_reduce (in-place)
I0403 18:15:27.200325 21853 net.cpp:141] Setting up inception_3a/relu_5x5_reduce
I0403 18:15:27.200350 21853 net.cpp:148] Top shape: 24 16 28 28 (301056)
I0403 18:15:27.200364 21853 net.cpp:156] Memory required for data: 537084960
I0403 18:15:27.200378 21853 layer_factory.hpp:77] Creating layer inception_3a/5x5
I0403 18:15:27.200398 21853 net.cpp:91] Creating Layer inception_3a/5x5
I0403 18:15:27.200414 21853 net.cpp:425] inception_3a/5x5 <- inception_3a/5x5_reduce
I0403 18:15:27.200434 21853 net.cpp:399] inception_3a/5x5 -> inception_3a/5x5
I0403 18:15:27.201383 21853 net.cpp:141] Setting up inception_3a/5x5
I0403 18:15:27.201412 21853 net.cpp:148] Top shape: 24 32 28 28 (602112)
I0403 18:15:27.201427 21853 net.cpp:156] Memory required for data: 539493408
I0403 18:15:27.201444 21853 layer_factory.hpp:77] Creating layer inception_3a/relu_5x5
I0403 18:15:27.201462 21853 net.cpp:91] Creating Layer inception_3a/relu_5x5
I0403 18:15:27.201475 21853 net.cpp:425] inception_3a/relu_5x5 <- inception_3a/5x5
I0403 18:15:27.201493 21853 net.cpp:386] inception_3a/relu_5x5 -> inception_3a/5x5 (in-place)
I0403 18:15:27.201661 21853 net.cpp:141] Setting up inception_3a/relu_5x5
I0403 18:15:27.201685 21853 net.cpp:148] Top shape: 24 32 28 28 (602112)
I0403 18:15:27.201700 21853 net.cpp:156] Memory required for data: 541901856
I0403 18:15:27.201714 21853 layer_factory.hpp:77] Creating layer inception_3a/pool
I0403 18:15:27.201730 21853 net.cpp:91] Creating Layer inception_3a/pool
I0403 18:15:27.201757 21853 net.cpp:425] inception_3a/pool <- pool2/3x3_s2_pool2/3x3_s2_0_split_3
I0403 18:15:27.201778 21853 net.cpp:399] inception_3a/pool -> inception_3a/pool
I0403 18:15:27.201830 21853 net.cpp:141] Setting up inception_3a/pool
I0403 18:15:27.201854 21853 net.cpp:148] Top shape: 24 192 28 28 (3612672)
I0403 18:15:27.201869 21853 net.cpp:156] Memory required for data: 556352544
I0403 18:15:27.201882 21853 layer_factory.hpp:77] Creating layer inception_3a/pool_proj
I0403 18:15:27.201902 21853 net.cpp:91] Creating Layer inception_3a/pool_proj
I0403 18:15:27.201920 21853 net.cpp:425] inception_3a/pool_proj <- inception_3a/pool
I0403 18:15:27.201936 21853 net.cpp:399] inception_3a/pool_proj -> inception_3a/pool_proj
I0403 18:15:27.202857 21853 net.cpp:141] Setting up inception_3a/pool_proj
I0403 18:15:27.202885 21853 net.cpp:148] Top shape: 24 32 28 28 (602112)
I0403 18:15:27.202899 21853 net.cpp:156] Memory required for data: 558760992
I0403 18:15:27.202922 21853 layer_factory.hpp:77] Creating layer inception_3a/relu_pool_proj
I0403 18:15:27.202941 21853 net.cpp:91] Creating Layer inception_3a/relu_pool_proj
I0403 18:15:27.202956 21853 net.cpp:425] inception_3a/relu_pool_proj <- inception_3a/pool_proj
I0403 18:15:27.202978 21853 net.cpp:386] inception_3a/relu_pool_proj -> inception_3a/pool_proj (in-place)
I0403 18:15:27.203241 21853 net.cpp:141] Setting up inception_3a/relu_pool_proj
I0403 18:15:27.203284 21853 net.cpp:148] Top shape: 24 32 28 28 (602112)
I0403 18:15:27.203299 21853 net.cpp:156] Memory required for data: 561169440
I0403 18:15:27.203315 21853 layer_factory.hpp:77] Creating layer inception_3a/output
I0403 18:15:27.203331 21853 net.cpp:91] Creating Layer inception_3a/output
I0403 18:15:27.203346 21853 net.cpp:425] inception_3a/output <- inception_3a/1x1
I0403 18:15:27.203362 21853 net.cpp:425] inception_3a/output <- inception_3a/3x3
I0403 18:15:27.203378 21853 net.cpp:425] inception_3a/output <- inception_3a/5x5
I0403 18:15:27.203393 21853 net.cpp:425] inception_3a/output <- inception_3a/pool_proj
I0403 18:15:27.203411 21853 net.cpp:399] inception_3a/output -> inception_3a/output
I0403 18:15:27.203457 21853 net.cpp:141] Setting up inception_3a/output
I0403 18:15:27.203480 21853 net.cpp:148] Top shape: 24 256 28 28 (4816896)
I0403 18:15:27.203495 21853 net.cpp:156] Memory required for data: 580437024
I0403 18:15:27.203508 21853 layer_factory.hpp:77] Creating layer inception_3a/output_inception_3a/output_0_split
I0403 18:15:27.203527 21853 net.cpp:91] Creating Layer inception_3a/output_inception_3a/output_0_split
I0403 18:15:27.203549 21853 net.cpp:425] inception_3a/output_inception_3a/output_0_split <- inception_3a/output
I0403 18:15:27.203568 21853 net.cpp:399] inception_3a/output_inception_3a/output_0_split -> inception_3a/output_inception_3a/output_0_split_0
I0403 18:15:27.203588 21853 net.cpp:399] inception_3a/output_inception_3a/output_0_split -> inception_3a/output_inception_3a/output_0_split_1
I0403 18:15:27.203611 21853 net.cpp:399] inception_3a/output_inception_3a/output_0_split -> inception_3a/output_inception_3a/output_0_split_2
I0403 18:15:27.203634 21853 net.cpp:399] inception_3a/output_inception_3a/output_0_split -> inception_3a/output_inception_3a/output_0_split_3
I0403 18:15:27.203706 21853 net.cpp:141] Setting up inception_3a/output_inception_3a/output_0_split
I0403 18:15:27.203729 21853 net.cpp:148] Top shape: 24 256 28 28 (4816896)
I0403 18:15:27.203745 21853 net.cpp:148] Top shape: 24 256 28 28 (4816896)
I0403 18:15:27.203760 21853 net.cpp:148] Top shape: 24 256 28 28 (4816896)
I0403 18:15:27.203775 21853 net.cpp:148] Top shape: 24 256 28 28 (4816896)
I0403 18:15:27.203788 21853 net.cpp:156] Memory required for data: 657507360
I0403 18:15:27.203802 21853 layer_factory.hpp:77] Creating layer inception_3b/1x1
I0403 18:15:27.203837 21853 net.cpp:91] Creating Layer inception_3b/1x1
I0403 18:15:27.203855 21853 net.cpp:425] inception_3b/1x1 <- inception_3a/output_inception_3a/output_0_split_0
I0403 18:15:27.203872 21853 net.cpp:399] inception_3b/1x1 -> inception_3b/1x1
I0403 18:15:27.204967 21853 net.cpp:141] Setting up inception_3b/1x1
I0403 18:15:27.205004 21853 net.cpp:148] Top shape: 24 128 28 28 (2408448)
I0403 18:15:27.205019 21853 net.cpp:156] Memory required for data: 667141152
I0403 18:15:27.205036 21853 layer_factory.hpp:77] Creating layer inception_3b/relu_1x1
I0403 18:15:27.205056 21853 net.cpp:91] Creating Layer inception_3b/relu_1x1
I0403 18:15:27.205072 21853 net.cpp:425] inception_3b/relu_1x1 <- inception_3b/1x1
I0403 18:15:27.205088 21853 net.cpp:386] inception_3b/relu_1x1 -> inception_3b/1x1 (in-place)
I0403 18:15:27.205255 21853 net.cpp:141] Setting up inception_3b/relu_1x1
I0403 18:15:27.205281 21853 net.cpp:148] Top shape: 24 128 28 28 (2408448)
I0403 18:15:27.205296 21853 net.cpp:156] Memory required for data: 676774944
I0403 18:15:27.205309 21853 layer_factory.hpp:77] Creating layer inception_3b/3x3_reduce
I0403 18:15:27.205330 21853 net.cpp:91] Creating Layer inception_3b/3x3_reduce
I0403 18:15:27.205348 21853 net.cpp:425] inception_3b/3x3_reduce <- inception_3a/output_inception_3a/output_0_split_1
I0403 18:15:27.205368 21853 net.cpp:399] inception_3b/3x3_reduce -> inception_3b/3x3_reduce
I0403 18:15:27.206457 21853 net.cpp:141] Setting up inception_3b/3x3_reduce
I0403 18:15:27.206485 21853 net.cpp:148] Top shape: 24 128 28 28 (2408448)
I0403 18:15:27.206499 21853 net.cpp:156] Memory required for data: 686408736
I0403 18:15:27.206517 21853 layer_factory.hpp:77] Creating layer inception_3b/relu_3x3_reduce
I0403 18:15:27.206544 21853 net.cpp:91] Creating Layer inception_3b/relu_3x3_reduce
I0403 18:15:27.206562 21853 net.cpp:425] inception_3b/relu_3x3_reduce <- inception_3b/3x3_reduce
I0403 18:15:27.206579 21853 net.cpp:386] inception_3b/relu_3x3_reduce -> inception_3b/3x3_reduce (in-place)
I0403 18:15:27.206746 21853 net.cpp:141] Setting up inception_3b/relu_3x3_reduce
I0403 18:15:27.206773 21853 net.cpp:148] Top shape: 24 128 28 28 (2408448)
I0403 18:15:27.206789 21853 net.cpp:156] Memory required for data: 696042528
I0403 18:15:27.206802 21853 layer_factory.hpp:77] Creating layer inception_3b/3x3
I0403 18:15:27.206825 21853 net.cpp:91] Creating Layer inception_3b/3x3
I0403 18:15:27.206842 21853 net.cpp:425] inception_3b/3x3 <- inception_3b/3x3_reduce
I0403 18:15:27.206863 21853 net.cpp:399] inception_3b/3x3 -> inception_3b/3x3
I0403 18:15:27.209707 21853 net.cpp:141] Setting up inception_3b/3x3
I0403 18:15:27.209736 21853 net.cpp:148] Top shape: 24 192 28 28 (3612672)
I0403 18:15:27.209753 21853 net.cpp:156] Memory required for data: 710493216
I0403 18:15:27.209769 21853 layer_factory.hpp:77] Creating layer inception_3b/relu_3x3
I0403 18:15:27.209786 21853 net.cpp:91] Creating Layer inception_3b/relu_3x3
I0403 18:15:27.209801 21853 net.cpp:425] inception_3b/relu_3x3 <- inception_3b/3x3
I0403 18:15:27.209820 21853 net.cpp:386] inception_3b/relu_3x3 -> inception_3b/3x3 (in-place)
I0403 18:15:27.210090 21853 net.cpp:141] Setting up inception_3b/relu_3x3
I0403 18:15:27.210119 21853 net.cpp:148] Top shape: 24 192 28 28 (3612672)
I0403 18:15:27.210134 21853 net.cpp:156] Memory required for data: 724943904
I0403 18:15:27.210147 21853 layer_factory.hpp:77] Creating layer inception_3b/5x5_reduce
I0403 18:15:27.210168 21853 net.cpp:91] Creating Layer inception_3b/5x5_reduce
I0403 18:15:27.210186 21853 net.cpp:425] inception_3b/5x5_reduce <- inception_3a/output_inception_3a/output_0_split_2
I0403 18:15:27.210204 21853 net.cpp:399] inception_3b/5x5_reduce -> inception_3b/5x5_reduce
I0403 18:15:27.211161 21853 net.cpp:141] Setting up inception_3b/5x5_reduce
I0403 18:15:27.211190 21853 net.cpp:148] Top shape: 24 32 28 28 (602112)
I0403 18:15:27.211205 21853 net.cpp:156] Memory required for data: 727352352
I0403 18:15:27.211222 21853 layer_factory.hpp:77] Creating layer inception_3b/relu_5x5_reduce
I0403 18:15:27.211239 21853 net.cpp:91] Creating Layer inception_3b/relu_5x5_reduce
I0403 18:15:27.211256 21853 net.cpp:425] inception_3b/relu_5x5_reduce <- inception_3b/5x5_reduce
I0403 18:15:27.211272 21853 net.cpp:386] inception_3b/relu_5x5_reduce -> inception_3b/5x5_reduce (in-place)
I0403 18:15:27.211459 21853 net.cpp:141] Setting up inception_3b/relu_5x5_reduce
I0403 18:15:27.211483 21853 net.cpp:148] Top shape: 24 32 28 28 (602112)
I0403 18:15:27.211498 21853 net.cpp:156] Memory required for data: 729760800
I0403 18:15:27.211511 21853 layer_factory.hpp:77] Creating layer inception_3b/5x5
I0403 18:15:27.211534 21853 net.cpp:91] Creating Layer inception_3b/5x5
I0403 18:15:27.211568 21853 net.cpp:425] inception_3b/5x5 <- inception_3b/5x5_reduce
I0403 18:15:27.211590 21853 net.cpp:399] inception_3b/5x5 -> inception_3b/5x5
I0403 18:15:27.213526 21853 net.cpp:141] Setting up inception_3b/5x5
I0403 18:15:27.213558 21853 net.cpp:148] Top shape: 24 96 28 28 (1806336)
I0403 18:15:27.213574 21853 net.cpp:156] Memory required for data: 736986144
I0403 18:15:27.213592 21853 layer_factory.hpp:77] Creating layer inception_3b/relu_5x5
I0403 18:15:27.213610 21853 net.cpp:91] Creating Layer inception_3b/relu_5x5
I0403 18:15:27.213627 21853 net.cpp:425] inception_3b/relu_5x5 <- inception_3b/5x5
I0403 18:15:27.213644 21853 net.cpp:386] inception_3b/relu_5x5 -> inception_3b/5x5 (in-place)
I0403 18:15:27.213829 21853 net.cpp:141] Setting up inception_3b/relu_5x5
I0403 18:15:27.213853 21853 net.cpp:148] Top shape: 24 96 28 28 (1806336)
I0403 18:15:27.213868 21853 net.cpp:156] Memory required for data: 744211488
I0403 18:15:27.213881 21853 layer_factory.hpp:77] Creating layer inception_3b/pool
I0403 18:15:27.213899 21853 net.cpp:91] Creating Layer inception_3b/pool
I0403 18:15:27.213914 21853 net.cpp:425] inception_3b/pool <- inception_3a/output_inception_3a/output_0_split_3
I0403 18:15:27.213932 21853 net.cpp:399] inception_3b/pool -> inception_3b/pool
I0403 18:15:27.213984 21853 net.cpp:141] Setting up inception_3b/pool
I0403 18:15:27.214006 21853 net.cpp:148] Top shape: 24 256 28 28 (4816896)
I0403 18:15:27.214020 21853 net.cpp:156] Memory required for data: 763479072
I0403 18:15:27.214033 21853 layer_factory.hpp:77] Creating layer inception_3b/pool_proj
I0403 18:15:27.214054 21853 net.cpp:91] Creating Layer inception_3b/pool_proj
I0403 18:15:27.214071 21853 net.cpp:425] inception_3b/pool_proj <- inception_3b/pool
I0403 18:15:27.214092 21853 net.cpp:399] inception_3b/pool_proj -> inception_3b/pool_proj
I0403 18:15:27.215123 21853 net.cpp:141] Setting up inception_3b/pool_proj
I0403 18:15:27.215149 21853 net.cpp:148] Top shape: 24 64 28 28 (1204224)
I0403 18:15:27.215164 21853 net.cpp:156] Memory required for data: 768295968
I0403 18:15:27.215183 21853 layer_factory.hpp:77] Creating layer inception_3b/relu_pool_proj
I0403 18:15:27.215201 21853 net.cpp:91] Creating Layer inception_3b/relu_pool_proj
I0403 18:15:27.215219 21853 net.cpp:425] inception_3b/relu_pool_proj <- inception_3b/pool_proj
I0403 18:15:27.215234 21853 net.cpp:386] inception_3b/relu_pool_proj -> inception_3b/pool_proj (in-place)
I0403 18:15:27.215674 21853 net.cpp:141] Setting up inception_3b/relu_pool_proj
I0403 18:15:27.215701 21853 net.cpp:148] Top shape: 24 64 28 28 (1204224)
I0403 18:15:27.215716 21853 net.cpp:156] Memory required for data: 773112864
I0403 18:15:27.215731 21853 layer_factory.hpp:77] Creating layer inception_3b/output
I0403 18:15:27.215749 21853 net.cpp:91] Creating Layer inception_3b/output
I0403 18:15:27.215764 21853 net.cpp:425] inception_3b/output <- inception_3b/1x1
I0403 18:15:27.215780 21853 net.cpp:425] inception_3b/output <- inception_3b/3x3
I0403 18:15:27.215795 21853 net.cpp:425] inception_3b/output <- inception_3b/5x5
I0403 18:15:27.215811 21853 net.cpp:425] inception_3b/output <- inception_3b/pool_proj
I0403 18:15:27.215829 21853 net.cpp:399] inception_3b/output -> inception_3b/output
I0403 18:15:27.215873 21853 net.cpp:141] Setting up inception_3b/output
I0403 18:15:27.215911 21853 net.cpp:148] Top shape: 24 480 28 28 (9031680)
I0403 18:15:27.215926 21853 net.cpp:156] Memory required for data: 809239584
I0403 18:15:27.215939 21853 layer_factory.hpp:77] Creating layer pool3/3x3_s2
I0403 18:15:27.215956 21853 net.cpp:91] Creating Layer pool3/3x3_s2
I0403 18:15:27.215971 21853 net.cpp:425] pool3/3x3_s2 <- inception_3b/output
I0403 18:15:27.216003 21853 net.cpp:399] pool3/3x3_s2 -> pool3/3x3_s2
I0403 18:15:27.216064 21853 net.cpp:141] Setting up pool3/3x3_s2
I0403 18:15:27.216086 21853 net.cpp:148] Top shape: 24 480 14 14 (2257920)
I0403 18:15:27.216100 21853 net.cpp:156] Memory required for data: 818271264
I0403 18:15:27.216114 21853 layer_factory.hpp:77] Creating layer pool3/3x3_s2_pool3/3x3_s2_0_split
I0403 18:15:27.216130 21853 net.cpp:91] Creating Layer pool3/3x3_s2_pool3/3x3_s2_0_split
I0403 18:15:27.216145 21853 net.cpp:425] pool3/3x3_s2_pool3/3x3_s2_0_split <- pool3/3x3_s2
I0403 18:15:27.216163 21853 net.cpp:399] pool3/3x3_s2_pool3/3x3_s2_0_split -> pool3/3x3_s2_pool3/3x3_s2_0_split_0
I0403 18:15:27.216183 21853 net.cpp:399] pool3/3x3_s2_pool3/3x3_s2_0_split -> pool3/3x3_s2_pool3/3x3_s2_0_split_1
I0403 18:15:27.216202 21853 net.cpp:399] pool3/3x3_s2_pool3/3x3_s2_0_split -> pool3/3x3_s2_pool3/3x3_s2_0_split_2
I0403 18:15:27.216223 21853 net.cpp:399] pool3/3x3_s2_pool3/3x3_s2_0_split -> pool3/3x3_s2_pool3/3x3_s2_0_split_3
I0403 18:15:27.216297 21853 net.cpp:141] Setting up pool3/3x3_s2_pool3/3x3_s2_0_split
I0403 18:15:27.216320 21853 net.cpp:148] Top shape: 24 480 14 14 (2257920)
I0403 18:15:27.216336 21853 net.cpp:148] Top shape: 24 480 14 14 (2257920)
I0403 18:15:27.216351 21853 net.cpp:148] Top shape: 24 480 14 14 (2257920)
I0403 18:15:27.216364 21853 net.cpp:148] Top shape: 24 480 14 14 (2257920)
I0403 18:15:27.216377 21853 net.cpp:156] Memory required for data: 854397984
I0403 18:15:27.216392 21853 layer_factory.hpp:77] Creating layer inception_4a/1x1
I0403 18:15:27.216413 21853 net.cpp:91] Creating Layer inception_4a/1x1
I0403 18:15:27.216428 21853 net.cpp:425] inception_4a/1x1 <- pool3/3x3_s2_pool3/3x3_s2_0_split_0
I0403 18:15:27.216449 21853 net.cpp:399] inception_4a/1x1 -> inception_4a/1x1
I0403 18:15:27.217963 21853 net.cpp:141] Setting up inception_4a/1x1
I0403 18:15:27.217990 21853 net.cpp:148] Top shape: 24 192 14 14 (903168)
I0403 18:15:27.218004 21853 net.cpp:156] Memory required for data: 858010656
I0403 18:15:27.218021 21853 layer_factory.hpp:77] Creating layer inception_4a/relu_1x1
I0403 18:15:27.218041 21853 net.cpp:91] Creating Layer inception_4a/relu_1x1
I0403 18:15:27.218057 21853 net.cpp:425] inception_4a/relu_1x1 <- inception_4a/1x1
I0403 18:15:27.218073 21853 net.cpp:386] inception_4a/relu_1x1 -> inception_4a/1x1 (in-place)
I0403 18:15:27.218245 21853 net.cpp:141] Setting up inception_4a/relu_1x1
I0403 18:15:27.218269 21853 net.cpp:148] Top shape: 24 192 14 14 (903168)
I0403 18:15:27.218283 21853 net.cpp:156] Memory required for data: 861623328
I0403 18:15:27.218297 21853 layer_factory.hpp:77] Creating layer inception_4a/3x3_reduce
I0403 18:15:27.218322 21853 net.cpp:91] Creating Layer inception_4a/3x3_reduce
I0403 18:15:27.218338 21853 net.cpp:425] inception_4a/3x3_reduce <- pool3/3x3_s2_pool3/3x3_s2_0_split_1
I0403 18:15:27.218356 21853 net.cpp:399] inception_4a/3x3_reduce -> inception_4a/3x3_reduce
I0403 18:15:27.219597 21853 net.cpp:141] Setting up inception_4a/3x3_reduce
I0403 18:15:27.219624 21853 net.cpp:148] Top shape: 24 96 14 14 (451584)
I0403 18:15:27.219640 21853 net.cpp:156] Memory required for data: 863429664
I0403 18:15:27.219666 21853 layer_factory.hpp:77] Creating layer inception_4a/relu_3x3_reduce
I0403 18:15:27.219684 21853 net.cpp:91] Creating Layer inception_4a/relu_3x3_reduce
I0403 18:15:27.219699 21853 net.cpp:425] inception_4a/relu_3x3_reduce <- inception_4a/3x3_reduce
I0403 18:15:27.219718 21853 net.cpp:386] inception_4a/relu_3x3_reduce -> inception_4a/3x3_reduce (in-place)
I0403 18:15:27.219902 21853 net.cpp:141] Setting up inception_4a/relu_3x3_reduce
I0403 18:15:27.219926 21853 net.cpp:148] Top shape: 24 96 14 14 (451584)
I0403 18:15:27.219940 21853 net.cpp:156] Memory required for data: 865236000
I0403 18:15:27.219954 21853 layer_factory.hpp:77] Creating layer inception_4a/3x3
I0403 18:15:27.219979 21853 net.cpp:91] Creating Layer inception_4a/3x3
I0403 18:15:27.219995 21853 net.cpp:425] inception_4a/3x3 <- inception_4a/3x3_reduce
I0403 18:15:27.220016 21853 net.cpp:399] inception_4a/3x3 -> inception_4a/3x3
I0403 18:15:27.222571 21853 net.cpp:141] Setting up inception_4a/3x3
I0403 18:15:27.222599 21853 net.cpp:148] Top shape: 24 208 14 14 (978432)
I0403 18:15:27.222615 21853 net.cpp:156] Memory required for data: 869149728
I0403 18:15:27.222632 21853 layer_factory.hpp:77] Creating layer inception_4a/relu_3x3
I0403 18:15:27.222650 21853 net.cpp:91] Creating Layer inception_4a/relu_3x3
I0403 18:15:27.222664 21853 net.cpp:425] inception_4a/relu_3x3 <- inception_4a/3x3
I0403 18:15:27.222679 21853 net.cpp:386] inception_4a/relu_3x3 -> inception_4a/3x3 (in-place)
I0403 18:15:27.222941 21853 net.cpp:141] Setting up inception_4a/relu_3x3
I0403 18:15:27.222966 21853 net.cpp:148] Top shape: 24 208 14 14 (978432)
I0403 18:15:27.222983 21853 net.cpp:156] Memory required for data: 873063456
I0403 18:15:27.222997 21853 layer_factory.hpp:77] Creating layer inception_4a/5x5_reduce
I0403 18:15:27.223016 21853 net.cpp:91] Creating Layer inception_4a/5x5_reduce
I0403 18:15:27.223031 21853 net.cpp:425] inception_4a/5x5_reduce <- pool3/3x3_s2_pool3/3x3_s2_0_split_2
I0403 18:15:27.223052 21853 net.cpp:399] inception_4a/5x5_reduce -> inception_4a/5x5_reduce
I0403 18:15:27.224043 21853 net.cpp:141] Setting up inception_4a/5x5_reduce
I0403 18:15:27.224071 21853 net.cpp:148] Top shape: 24 16 14 14 (75264)
I0403 18:15:27.224086 21853 net.cpp:156] Memory required for data: 873364512
I0403 18:15:27.224103 21853 layer_factory.hpp:77] Creating layer inception_4a/relu_5x5_reduce
I0403 18:15:27.224120 21853 net.cpp:91] Creating Layer inception_4a/relu_5x5_reduce
I0403 18:15:27.224135 21853 net.cpp:425] inception_4a/relu_5x5_reduce <- inception_4a/5x5_reduce
I0403 18:15:27.224153 21853 net.cpp:386] inception_4a/relu_5x5_reduce -> inception_4a/5x5_reduce (in-place)
I0403 18:15:27.224324 21853 net.cpp:141] Setting up inception_4a/relu_5x5_reduce
I0403 18:15:27.224349 21853 net.cpp:148] Top shape: 24 16 14 14 (75264)
I0403 18:15:27.224364 21853 net.cpp:156] Memory required for data: 873665568
I0403 18:15:27.224376 21853 layer_factory.hpp:77] Creating layer inception_4a/5x5
I0403 18:15:27.224397 21853 net.cpp:91] Creating Layer inception_4a/5x5
I0403 18:15:27.224413 21853 net.cpp:425] inception_4a/5x5 <- inception_4a/5x5_reduce
I0403 18:15:27.224433 21853 net.cpp:399] inception_4a/5x5 -> inception_4a/5x5
I0403 18:15:27.225458 21853 net.cpp:141] Setting up inception_4a/5x5
I0403 18:15:27.225483 21853 net.cpp:148] Top shape: 24 48 14 14 (225792)
I0403 18:15:27.225498 21853 net.cpp:156] Memory required for data: 874568736
I0403 18:15:27.225515 21853 layer_factory.hpp:77] Creating layer inception_4a/relu_5x5
I0403 18:15:27.225533 21853 net.cpp:91] Creating Layer inception_4a/relu_5x5
I0403 18:15:27.225551 21853 net.cpp:425] inception_4a/relu_5x5 <- inception_4a/5x5
I0403 18:15:27.225570 21853 net.cpp:386] inception_4a/relu_5x5 -> inception_4a/5x5 (in-place)
I0403 18:15:27.225736 21853 net.cpp:141] Setting up inception_4a/relu_5x5
I0403 18:15:27.225760 21853 net.cpp:148] Top shape: 24 48 14 14 (225792)
I0403 18:15:27.225775 21853 net.cpp:156] Memory required for data: 875471904
I0403 18:15:27.225788 21853 layer_factory.hpp:77] Creating layer inception_4a/pool
I0403 18:15:27.225806 21853 net.cpp:91] Creating Layer inception_4a/pool
I0403 18:15:27.225822 21853 net.cpp:425] inception_4a/pool <- pool3/3x3_s2_pool3/3x3_s2_0_split_3
I0403 18:15:27.225841 21853 net.cpp:399] inception_4a/pool -> inception_4a/pool
I0403 18:15:27.225898 21853 net.cpp:141] Setting up inception_4a/pool
I0403 18:15:27.225920 21853 net.cpp:148] Top shape: 24 480 14 14 (2257920)
I0403 18:15:27.225934 21853 net.cpp:156] Memory required for data: 884503584
I0403 18:15:27.225947 21853 layer_factory.hpp:77] Creating layer inception_4a/pool_proj
I0403 18:15:27.225968 21853 net.cpp:91] Creating Layer inception_4a/pool_proj
I0403 18:15:27.225985 21853 net.cpp:425] inception_4a/pool_proj <- inception_4a/pool
I0403 18:15:27.226003 21853 net.cpp:399] inception_4a/pool_proj -> inception_4a/pool_proj
I0403 18:15:27.227095 21853 net.cpp:141] Setting up inception_4a/pool_proj
I0403 18:15:27.227123 21853 net.cpp:148] Top shape: 24 64 14 14 (301056)
I0403 18:15:27.227159 21853 net.cpp:156] Memory required for data: 885707808
I0403 18:15:27.227177 21853 layer_factory.hpp:77] Creating layer inception_4a/relu_pool_proj
I0403 18:15:27.227197 21853 net.cpp:91] Creating Layer inception_4a/relu_pool_proj
I0403 18:15:27.227215 21853 net.cpp:425] inception_4a/relu_pool_proj <- inception_4a/pool_proj
I0403 18:15:27.227231 21853 net.cpp:386] inception_4a/relu_pool_proj -> inception_4a/pool_proj (in-place)
I0403 18:15:27.227509 21853 net.cpp:141] Setting up inception_4a/relu_pool_proj
I0403 18:15:27.227533 21853 net.cpp:148] Top shape: 24 64 14 14 (301056)
I0403 18:15:27.227565 21853 net.cpp:156] Memory required for data: 886912032
I0403 18:15:27.227579 21853 layer_factory.hpp:77] Creating layer inception_4a/output
I0403 18:15:27.227596 21853 net.cpp:91] Creating Layer inception_4a/output
I0403 18:15:27.227610 21853 net.cpp:425] inception_4a/output <- inception_4a/1x1
I0403 18:15:27.227627 21853 net.cpp:425] inception_4a/output <- inception_4a/3x3
I0403 18:15:27.227641 21853 net.cpp:425] inception_4a/output <- inception_4a/5x5
I0403 18:15:27.227658 21853 net.cpp:425] inception_4a/output <- inception_4a/pool_proj
I0403 18:15:27.227675 21853 net.cpp:399] inception_4a/output -> inception_4a/output
I0403 18:15:27.227721 21853 net.cpp:141] Setting up inception_4a/output
I0403 18:15:27.227743 21853 net.cpp:148] Top shape: 24 512 14 14 (2408448)
I0403 18:15:27.227757 21853 net.cpp:156] Memory required for data: 896545824
I0403 18:15:27.227771 21853 layer_factory.hpp:77] Creating layer inception_4a/output_inception_4a/output_0_split
I0403 18:15:27.227788 21853 net.cpp:91] Creating Layer inception_4a/output_inception_4a/output_0_split
I0403 18:15:27.227803 21853 net.cpp:425] inception_4a/output_inception_4a/output_0_split <- inception_4a/output
I0403 18:15:27.227823 21853 net.cpp:399] inception_4a/output_inception_4a/output_0_split -> inception_4a/output_inception_4a/output_0_split_0
I0403 18:15:27.227854 21853 net.cpp:399] inception_4a/output_inception_4a/output_0_split -> inception_4a/output_inception_4a/output_0_split_1
I0403 18:15:27.227874 21853 net.cpp:399] inception_4a/output_inception_4a/output_0_split -> inception_4a/output_inception_4a/output_0_split_2
I0403 18:15:27.227893 21853 net.cpp:399] inception_4a/output_inception_4a/output_0_split -> inception_4a/output_inception_4a/output_0_split_3
I0403 18:15:27.227912 21853 net.cpp:399] inception_4a/output_inception_4a/output_0_split -> inception_4a/output_inception_4a/output_0_split_4
I0403 18:15:27.227998 21853 net.cpp:141] Setting up inception_4a/output_inception_4a/output_0_split
I0403 18:15:27.228021 21853 net.cpp:148] Top shape: 24 512 14 14 (2408448)
I0403 18:15:27.228039 21853 net.cpp:148] Top shape: 24 512 14 14 (2408448)
I0403 18:15:27.228052 21853 net.cpp:148] Top shape: 24 512 14 14 (2408448)
I0403 18:15:27.228066 21853 net.cpp:148] Top shape: 24 512 14 14 (2408448)
I0403 18:15:27.228081 21853 net.cpp:148] Top shape: 24 512 14 14 (2408448)
I0403 18:15:27.228093 21853 net.cpp:156] Memory required for data: 944714784
I0403 18:15:27.228106 21853 layer_factory.hpp:77] Creating layer loss1/ave_pool
I0403 18:15:27.228122 21853 net.cpp:91] Creating Layer loss1/ave_pool
I0403 18:15:27.228137 21853 net.cpp:425] loss1/ave_pool <- inception_4a/output_inception_4a/output_0_split_0
I0403 18:15:27.228152 21853 net.cpp:399] loss1/ave_pool -> loss1/ave_pool
I0403 18:15:27.228346 21853 net.cpp:141] Setting up loss1/ave_pool
I0403 18:15:27.228370 21853 net.cpp:148] Top shape: 24 512 4 4 (196608)
I0403 18:15:27.228384 21853 net.cpp:156] Memory required for data: 945501216
I0403 18:15:27.228399 21853 layer_factory.hpp:77] Creating layer loss1/conv
I0403 18:15:27.228418 21853 net.cpp:91] Creating Layer loss1/conv
I0403 18:15:27.228435 21853 net.cpp:425] loss1/conv <- loss1/ave_pool
I0403 18:15:27.228454 21853 net.cpp:399] loss1/conv -> loss1/conv
I0403 18:15:27.229823 21853 net.cpp:141] Setting up loss1/conv
I0403 18:15:27.229852 21853 net.cpp:148] Top shape: 24 128 4 4 (49152)
I0403 18:15:27.229879 21853 net.cpp:156] Memory required for data: 945697824
I0403 18:15:27.229897 21853 layer_factory.hpp:77] Creating layer loss1/relu_conv
I0403 18:15:27.229915 21853 net.cpp:91] Creating Layer loss1/relu_conv
I0403 18:15:27.229930 21853 net.cpp:425] loss1/relu_conv <- loss1/conv
I0403 18:15:27.229946 21853 net.cpp:386] loss1/relu_conv -> loss1/conv (in-place)
I0403 18:15:27.230216 21853 net.cpp:141] Setting up loss1/relu_conv
I0403 18:15:27.230242 21853 net.cpp:148] Top shape: 24 128 4 4 (49152)
I0403 18:15:27.230259 21853 net.cpp:156] Memory required for data: 945894432
I0403 18:15:27.230273 21853 layer_factory.hpp:77] Creating layer loss1/fc
I0403 18:15:27.230295 21853 net.cpp:91] Creating Layer loss1/fc
I0403 18:15:27.230312 21853 net.cpp:425] loss1/fc <- loss1/conv
I0403 18:15:27.230332 21853 net.cpp:399] loss1/fc -> loss1/fc
I0403 18:15:27.247750 21853 net.cpp:141] Setting up loss1/fc
I0403 18:15:27.247781 21853 net.cpp:148] Top shape: 24 1024 (24576)
I0403 18:15:27.247797 21853 net.cpp:156] Memory required for data: 945992736
I0403 18:15:27.247814 21853 layer_factory.hpp:77] Creating layer loss1/relu_fc
I0403 18:15:27.247835 21853 net.cpp:91] Creating Layer loss1/relu_fc
I0403 18:15:27.247851 21853 net.cpp:425] loss1/relu_fc <- loss1/fc
I0403 18:15:27.247869 21853 net.cpp:386] loss1/relu_fc -> loss1/fc (in-place)
I0403 18:15:27.248051 21853 net.cpp:141] Setting up loss1/relu_fc
I0403 18:15:27.248075 21853 net.cpp:148] Top shape: 24 1024 (24576)
I0403 18:15:27.248090 21853 net.cpp:156] Memory required for data: 946091040
I0403 18:15:27.248102 21853 layer_factory.hpp:77] Creating layer loss1/drop_fc
I0403 18:15:27.248129 21853 net.cpp:91] Creating Layer loss1/drop_fc
I0403 18:15:27.248147 21853 net.cpp:425] loss1/drop_fc <- loss1/fc
I0403 18:15:27.248163 21853 net.cpp:386] loss1/drop_fc -> loss1/fc (in-place)
I0403 18:15:27.248214 21853 net.cpp:141] Setting up loss1/drop_fc
I0403 18:15:27.248236 21853 net.cpp:148] Top shape: 24 1024 (24576)
I0403 18:15:27.248250 21853 net.cpp:156] Memory required for data: 946189344
I0403 18:15:27.248265 21853 layer_factory.hpp:77] Creating layer loss1/classifier_plantvillage
I0403 18:15:27.248282 21853 net.cpp:91] Creating Layer loss1/classifier_plantvillage
I0403 18:15:27.248298 21853 net.cpp:425] loss1/classifier_plantvillage <- loss1/fc
I0403 18:15:27.248319 21853 net.cpp:399] loss1/classifier_plantvillage -> loss1/classifier_plantvillage
I0403 18:15:27.249208 21853 net.cpp:141] Setting up loss1/classifier_plantvillage
I0403 18:15:27.249238 21853 net.cpp:148] Top shape: 24 38 (912)
I0403 18:15:27.249253 21853 net.cpp:156] Memory required for data: 946192992
I0403 18:15:27.249271 21853 layer_factory.hpp:77] Creating layer loss1/classifier_plantvillage_loss1/classifier_plantvillage_0_split
I0403 18:15:27.249300 21853 net.cpp:91] Creating Layer loss1/classifier_plantvillage_loss1/classifier_plantvillage_0_split
I0403 18:15:27.249315 21853 net.cpp:425] loss1/classifier_plantvillage_loss1/classifier_plantvillage_0_split <- loss1/classifier_plantvillage
I0403 18:15:27.249331 21853 net.cpp:399] loss1/classifier_plantvillage_loss1/classifier_plantvillage_0_split -> loss1/classifier_plantvillage_loss1/classifier_plantvillage_0_split_0
I0403 18:15:27.249351 21853 net.cpp:399] loss1/classifier_plantvillage_loss1/classifier_plantvillage_0_split -> loss1/classifier_plantvillage_loss1/classifier_plantvillage_0_split_1
I0403 18:15:27.249378 21853 net.cpp:399] loss1/classifier_plantvillage_loss1/classifier_plantvillage_0_split -> loss1/classifier_plantvillage_loss1/classifier_plantvillage_0_split_2
I0403 18:15:27.249441 21853 net.cpp:141] Setting up loss1/classifier_plantvillage_loss1/classifier_plantvillage_0_split
I0403 18:15:27.249464 21853 net.cpp:148] Top shape: 24 38 (912)
I0403 18:15:27.249478 21853 net.cpp:148] Top shape: 24 38 (912)
I0403 18:15:27.249492 21853 net.cpp:148] Top shape: 24 38 (912)
I0403 18:15:27.249505 21853 net.cpp:156] Memory required for data: 946203936
I0403 18:15:27.249518 21853 layer_factory.hpp:77] Creating layer inception_4b/1x1
I0403 18:15:27.249541 21853 net.cpp:91] Creating Layer inception_4b/1x1
I0403 18:15:27.249591 21853 net.cpp:425] inception_4b/1x1 <- inception_4a/output_inception_4a/output_0_split_1
I0403 18:15:27.249614 21853 net.cpp:399] inception_4b/1x1 -> inception_4b/1x1
I0403 18:15:27.251174 21853 net.cpp:141] Setting up inception_4b/1x1
I0403 18:15:27.251204 21853 net.cpp:148] Top shape: 24 160 14 14 (752640)
I0403 18:15:27.251219 21853 net.cpp:156] Memory required for data: 949214496
I0403 18:15:27.251236 21853 layer_factory.hpp:77] Creating layer inception_4b/relu_1x1
I0403 18:15:27.251253 21853 net.cpp:91] Creating Layer inception_4b/relu_1x1
I0403 18:15:27.251268 21853 net.cpp:425] inception_4b/relu_1x1 <- inception_4b/1x1
I0403 18:15:27.251286 21853 net.cpp:386] inception_4b/relu_1x1 -> inception_4b/1x1 (in-place)
I0403 18:15:27.251456 21853 net.cpp:141] Setting up inception_4b/relu_1x1
I0403 18:15:27.251479 21853 net.cpp:148] Top shape: 24 160 14 14 (752640)
I0403 18:15:27.251493 21853 net.cpp:156] Memory required for data: 952225056
I0403 18:15:27.251507 21853 layer_factory.hpp:77] Creating layer inception_4b/3x3_reduce
I0403 18:15:27.251528 21853 net.cpp:91] Creating Layer inception_4b/3x3_reduce
I0403 18:15:27.251549 21853 net.cpp:425] inception_4b/3x3_reduce <- inception_4a/output_inception_4a/output_0_split_2
I0403 18:15:27.251569 21853 net.cpp:399] inception_4b/3x3_reduce -> inception_4b/3x3_reduce
I0403 18:15:27.252842 21853 net.cpp:141] Setting up inception_4b/3x3_reduce
I0403 18:15:27.252871 21853 net.cpp:148] Top shape: 24 112 14 14 (526848)
I0403 18:15:27.252887 21853 net.cpp:156] Memory required for data: 954332448
I0403 18:15:27.252904 21853 layer_factory.hpp:77] Creating layer inception_4b/relu_3x3_reduce
I0403 18:15:27.252920 21853 net.cpp:91] Creating Layer inception_4b/relu_3x3_reduce
I0403 18:15:27.252936 21853 net.cpp:425] inception_4b/relu_3x3_reduce <- inception_4b/3x3_reduce
I0403 18:15:27.252954 21853 net.cpp:386] inception_4b/relu_3x3_reduce -> inception_4b/3x3_reduce (in-place)
I0403 18:15:27.253223 21853 net.cpp:141] Setting up inception_4b/relu_3x3_reduce
I0403 18:15:27.253254 21853 net.cpp:148] Top shape: 24 112 14 14 (526848)
I0403 18:15:27.253269 21853 net.cpp:156] Memory required for data: 956439840
I0403 18:15:27.253283 21853 layer_factory.hpp:77] Creating layer inception_4b/3x3
I0403 18:15:27.253304 21853 net.cpp:91] Creating Layer inception_4b/3x3
I0403 18:15:27.253320 21853 net.cpp:425] inception_4b/3x3 <- inception_4b/3x3_reduce
I0403 18:15:27.253343 21853 net.cpp:399] inception_4b/3x3 -> inception_4b/3x3
I0403 18:15:27.256223 21853 net.cpp:141] Setting up inception_4b/3x3
I0403 18:15:27.256250 21853 net.cpp:148] Top shape: 24 224 14 14 (1053696)
I0403 18:15:27.256266 21853 net.cpp:156] Memory required for data: 960654624
I0403 18:15:27.256283 21853 layer_factory.hpp:77] Creating layer inception_4b/relu_3x3
I0403 18:15:27.256302 21853 net.cpp:91] Creating Layer inception_4b/relu_3x3
I0403 18:15:27.256319 21853 net.cpp:425] inception_4b/relu_3x3 <- inception_4b/3x3
I0403 18:15:27.256335 21853 net.cpp:386] inception_4b/relu_3x3 -> inception_4b/3x3 (in-place)
I0403 18:15:27.256505 21853 net.cpp:141] Setting up inception_4b/relu_3x3
I0403 18:15:27.256530 21853 net.cpp:148] Top shape: 24 224 14 14 (1053696)
I0403 18:15:27.256548 21853 net.cpp:156] Memory required for data: 964869408
I0403 18:15:27.256562 21853 layer_factory.hpp:77] Creating layer inception_4b/5x5_reduce
I0403 18:15:27.256584 21853 net.cpp:91] Creating Layer inception_4b/5x5_reduce
I0403 18:15:27.256600 21853 net.cpp:425] inception_4b/5x5_reduce <- inception_4a/output_inception_4a/output_0_split_3
I0403 18:15:27.256618 21853 net.cpp:399] inception_4b/5x5_reduce -> inception_4b/5x5_reduce
I0403 18:15:27.257664 21853 net.cpp:141] Setting up inception_4b/5x5_reduce
I0403 18:15:27.257694 21853 net.cpp:148] Top shape: 24 24 14 14 (112896)
I0403 18:15:27.257709 21853 net.cpp:156] Memory required for data: 965320992
I0403 18:15:27.257727 21853 layer_factory.hpp:77] Creating layer inception_4b/relu_5x5_reduce
I0403 18:15:27.257745 21853 net.cpp:91] Creating Layer inception_4b/relu_5x5_reduce
I0403 18:15:27.257773 21853 net.cpp:425] inception_4b/relu_5x5_reduce <- inception_4b/5x5_reduce
I0403 18:15:27.257794 21853 net.cpp:386] inception_4b/relu_5x5_reduce -> inception_4b/5x5_reduce (in-place)
I0403 18:15:27.257982 21853 net.cpp:141] Setting up inception_4b/relu_5x5_reduce
I0403 18:15:27.258007 21853 net.cpp:148] Top shape: 24 24 14 14 (112896)
I0403 18:15:27.258019 21853 net.cpp:156] Memory required for data: 965772576
I0403 18:15:27.258033 21853 layer_factory.hpp:77] Creating layer inception_4b/5x5
I0403 18:15:27.258054 21853 net.cpp:91] Creating Layer inception_4b/5x5
I0403 18:15:27.258070 21853 net.cpp:425] inception_4b/5x5 <- inception_4b/5x5_reduce
I0403 18:15:27.258090 21853 net.cpp:399] inception_4b/5x5 -> inception_4b/5x5
I0403 18:15:27.259256 21853 net.cpp:141] Setting up inception_4b/5x5
I0403 18:15:27.259284 21853 net.cpp:148] Top shape: 24 64 14 14 (301056)
I0403 18:15:27.259299 21853 net.cpp:156] Memory required for data: 966976800
I0403 18:15:27.259316 21853 layer_factory.hpp:77] Creating layer inception_4b/relu_5x5
I0403 18:15:27.259333 21853 net.cpp:91] Creating Layer inception_4b/relu_5x5
I0403 18:15:27.259348 21853 net.cpp:425] inception_4b/relu_5x5 <- inception_4b/5x5
I0403 18:15:27.259366 21853 net.cpp:386] inception_4b/relu_5x5 -> inception_4b/5x5 (in-place)
I0403 18:15:27.259654 21853 net.cpp:141] Setting up inception_4b/relu_5x5
I0403 18:15:27.259680 21853 net.cpp:148] Top shape: 24 64 14 14 (301056)
I0403 18:15:27.259696 21853 net.cpp:156] Memory required for data: 968181024
I0403 18:15:27.259709 21853 layer_factory.hpp:77] Creating layer inception_4b/pool
I0403 18:15:27.259727 21853 net.cpp:91] Creating Layer inception_4b/pool
I0403 18:15:27.259744 21853 net.cpp:425] inception_4b/pool <- inception_4a/output_inception_4a/output_0_split_4
I0403 18:15:27.259762 21853 net.cpp:399] inception_4b/pool -> inception_4b/pool
I0403 18:15:27.259824 21853 net.cpp:141] Setting up inception_4b/pool
I0403 18:15:27.259847 21853 net.cpp:148] Top shape: 24 512 14 14 (2408448)
I0403 18:15:27.259861 21853 net.cpp:156] Memory required for data: 977814816
I0403 18:15:27.259874 21853 layer_factory.hpp:77] Creating layer inception_4b/pool_proj
I0403 18:15:27.259894 21853 net.cpp:91] Creating Layer inception_4b/pool_proj
I0403 18:15:27.259912 21853 net.cpp:425] inception_4b/pool_proj <- inception_4b/pool
I0403 18:15:27.259930 21853 net.cpp:399] inception_4b/pool_proj -> inception_4b/pool_proj
I0403 18:15:27.261062 21853 net.cpp:141] Setting up inception_4b/pool_proj
I0403 18:15:27.261090 21853 net.cpp:148] Top shape: 24 64 14 14 (301056)
I0403 18:15:27.261106 21853 net.cpp:156] Memory required for data: 979019040
I0403 18:15:27.261128 21853 layer_factory.hpp:77] Creating layer inception_4b/relu_pool_proj
I0403 18:15:27.261145 21853 net.cpp:91] Creating Layer inception_4b/relu_pool_proj
I0403 18:15:27.261160 21853 net.cpp:425] inception_4b/relu_pool_proj <- inception_4b/pool_proj
I0403 18:15:27.261179 21853 net.cpp:386] inception_4b/relu_pool_proj -> inception_4b/pool_proj (in-place)
I0403 18:15:27.261358 21853 net.cpp:141] Setting up inception_4b/relu_pool_proj
I0403 18:15:27.261381 21853 net.cpp:148] Top shape: 24 64 14 14 (301056)
I0403 18:15:27.261395 21853 net.cpp:156] Memory required for data: 980223264
I0403 18:15:27.261415 21853 layer_factory.hpp:77] Creating layer inception_4b/output
I0403 18:15:27.261431 21853 net.cpp:91] Creating Layer inception_4b/output
I0403 18:15:27.261445 21853 net.cpp:425] inception_4b/output <- inception_4b/1x1
I0403 18:15:27.261461 21853 net.cpp:425] inception_4b/output <- inception_4b/3x3
I0403 18:15:27.261474 21853 net.cpp:425] inception_4b/output <- inception_4b/5x5
I0403 18:15:27.261489 21853 net.cpp:425] inception_4b/output <- inception_4b/pool_proj
I0403 18:15:27.261507 21853 net.cpp:399] inception_4b/output -> inception_4b/output
I0403 18:15:27.261565 21853 net.cpp:141] Setting up inception_4b/output
I0403 18:15:27.261590 21853 net.cpp:148] Top shape: 24 512 14 14 (2408448)
I0403 18:15:27.261605 21853 net.cpp:156] Memory required for data: 989857056
I0403 18:15:27.261633 21853 layer_factory.hpp:77] Creating layer inception_4b/output_inception_4b/output_0_split
I0403 18:15:27.261651 21853 net.cpp:91] Creating Layer inception_4b/output_inception_4b/output_0_split
I0403 18:15:27.261665 21853 net.cpp:425] inception_4b/output_inception_4b/output_0_split <- inception_4b/output
I0403 18:15:27.261684 21853 net.cpp:399] inception_4b/output_inception_4b/output_0_split -> inception_4b/output_inception_4b/output_0_split_0
I0403 18:15:27.261703 21853 net.cpp:399] inception_4b/output_inception_4b/output_0_split -> inception_4b/output_inception_4b/output_0_split_1
I0403 18:15:27.261723 21853 net.cpp:399] inception_4b/output_inception_4b/output_0_split -> inception_4b/output_inception_4b/output_0_split_2
I0403 18:15:27.261742 21853 net.cpp:399] inception_4b/output_inception_4b/output_0_split -> inception_4b/output_inception_4b/output_0_split_3
I0403 18:15:27.261821 21853 net.cpp:141] Setting up inception_4b/output_inception_4b/output_0_split
I0403 18:15:27.261854 21853 net.cpp:148] Top shape: 24 512 14 14 (2408448)
I0403 18:15:27.261869 21853 net.cpp:148] Top shape: 24 512 14 14 (2408448)
I0403 18:15:27.261884 21853 net.cpp:148] Top shape: 24 512 14 14 (2408448)
I0403 18:15:27.261898 21853 net.cpp:148] Top shape: 24 512 14 14 (2408448)
I0403 18:15:27.261910 21853 net.cpp:156] Memory required for data: 1028392224
I0403 18:15:27.261924 21853 layer_factory.hpp:77] Creating layer inception_4c/1x1
I0403 18:15:27.261945 21853 net.cpp:91] Creating Layer inception_4c/1x1
I0403 18:15:27.261962 21853 net.cpp:425] inception_4c/1x1 <- inception_4b/output_inception_4b/output_0_split_0
I0403 18:15:27.261981 21853 net.cpp:399] inception_4c/1x1 -> inception_4c/1x1
I0403 18:15:27.263365 21853 net.cpp:141] Setting up inception_4c/1x1
I0403 18:15:27.263392 21853 net.cpp:148] Top shape: 24 128 14 14 (602112)
I0403 18:15:27.263406 21853 net.cpp:156] Memory required for data: 1030800672
I0403 18:15:27.263423 21853 layer_factory.hpp:77] Creating layer inception_4c/relu_1x1
I0403 18:15:27.263443 21853 net.cpp:91] Creating Layer inception_4c/relu_1x1
I0403 18:15:27.263459 21853 net.cpp:425] inception_4c/relu_1x1 <- inception_4c/1x1
I0403 18:15:27.263475 21853 net.cpp:386] inception_4c/relu_1x1 -> inception_4c/1x1 (in-place)
I0403 18:15:27.263648 21853 net.cpp:141] Setting up inception_4c/relu_1x1
I0403 18:15:27.263672 21853 net.cpp:148] Top shape: 24 128 14 14 (602112)
I0403 18:15:27.263686 21853 net.cpp:156] Memory required for data: 1033209120
I0403 18:15:27.263700 21853 layer_factory.hpp:77] Creating layer inception_4c/3x3_reduce
I0403 18:15:27.263725 21853 net.cpp:91] Creating Layer inception_4c/3x3_reduce
I0403 18:15:27.263741 21853 net.cpp:425] inception_4c/3x3_reduce <- inception_4b/output_inception_4b/output_0_split_1
I0403 18:15:27.263759 21853 net.cpp:399] inception_4c/3x3_reduce -> inception_4c/3x3_reduce
I0403 18:15:27.265627 21853 net.cpp:141] Setting up inception_4c/3x3_reduce
I0403 18:15:27.265655 21853 net.cpp:148] Top shape: 24 128 14 14 (602112)
I0403 18:15:27.265671 21853 net.cpp:156] Memory required for data: 1035617568
I0403 18:15:27.265688 21853 layer_factory.hpp:77] Creating layer inception_4c/relu_3x3_reduce
I0403 18:15:27.265707 21853 net.cpp:91] Creating Layer inception_4c/relu_3x3_reduce
I0403 18:15:27.265724 21853 net.cpp:425] inception_4c/relu_3x3_reduce <- inception_4c/3x3_reduce
I0403 18:15:27.265740 21853 net.cpp:386] inception_4c/relu_3x3_reduce -> inception_4c/3x3_reduce (in-place)
I0403 18:15:27.266027 21853 net.cpp:141] Setting up inception_4c/relu_3x3_reduce
I0403 18:15:27.266053 21853 net.cpp:148] Top shape: 24 128 14 14 (602112)
I0403 18:15:27.266067 21853 net.cpp:156] Memory required for data: 1038026016
I0403 18:15:27.266080 21853 layer_factory.hpp:77] Creating layer inception_4c/3x3
I0403 18:15:27.266104 21853 net.cpp:91] Creating Layer inception_4c/3x3
I0403 18:15:27.266121 21853 net.cpp:425] inception_4c/3x3 <- inception_4c/3x3_reduce
I0403 18:15:27.266139 21853 net.cpp:399] inception_4c/3x3 -> inception_4c/3x3
I0403 18:15:27.269613 21853 net.cpp:141] Setting up inception_4c/3x3
I0403 18:15:27.269654 21853 net.cpp:148] Top shape: 24 256 14 14 (1204224)
I0403 18:15:27.269671 21853 net.cpp:156] Memory required for data: 1042842912
I0403 18:15:27.269701 21853 layer_factory.hpp:77] Creating layer inception_4c/relu_3x3
I0403 18:15:27.269721 21853 net.cpp:91] Creating Layer inception_4c/relu_3x3
I0403 18:15:27.269737 21853 net.cpp:425] inception_4c/relu_3x3 <- inception_4c/3x3
I0403 18:15:27.269753 21853 net.cpp:386] inception_4c/relu_3x3 -> inception_4c/3x3 (in-place)
I0403 18:15:27.269942 21853 net.cpp:141] Setting up inception_4c/relu_3x3
I0403 18:15:27.269968 21853 net.cpp:148] Top shape: 24 256 14 14 (1204224)
I0403 18:15:27.269984 21853 net.cpp:156] Memory required for data: 1047659808
I0403 18:15:27.269997 21853 layer_factory.hpp:77] Creating layer inception_4c/5x5_reduce
I0403 18:15:27.270018 21853 net.cpp:91] Creating Layer inception_4c/5x5_reduce
I0403 18:15:27.270035 21853 net.cpp:425] inception_4c/5x5_reduce <- inception_4b/output_inception_4b/output_0_split_2
I0403 18:15:27.270053 21853 net.cpp:399] inception_4c/5x5_reduce -> inception_4c/5x5_reduce
I0403 18:15:27.271080 21853 net.cpp:141] Setting up inception_4c/5x5_reduce
I0403 18:15:27.271107 21853 net.cpp:148] Top shape: 24 24 14 14 (112896)
I0403 18:15:27.271123 21853 net.cpp:156] Memory required for data: 1048111392
I0403 18:15:27.271141 21853 layer_factory.hpp:77] Creating layer inception_4c/relu_5x5_reduce
I0403 18:15:27.271157 21853 net.cpp:91] Creating Layer inception_4c/relu_5x5_reduce
I0403 18:15:27.271172 21853 net.cpp:425] inception_4c/relu_5x5_reduce <- inception_4c/5x5_reduce
I0403 18:15:27.271189 21853 net.cpp:386] inception_4c/relu_5x5_reduce -> inception_4c/5x5_reduce (in-place)
I0403 18:15:27.271373 21853 net.cpp:141] Setting up inception_4c/relu_5x5_reduce
I0403 18:15:27.271397 21853 net.cpp:148] Top shape: 24 24 14 14 (112896)
I0403 18:15:27.271412 21853 net.cpp:156] Memory required for data: 1048562976
I0403 18:15:27.271426 21853 layer_factory.hpp:77] Creating layer inception_4c/5x5
I0403 18:15:27.271451 21853 net.cpp:91] Creating Layer inception_4c/5x5
I0403 18:15:27.271468 21853 net.cpp:425] inception_4c/5x5 <- inception_4c/5x5_reduce
I0403 18:15:27.271489 21853 net.cpp:399] inception_4c/5x5 -> inception_4c/5x5
I0403 18:15:27.272698 21853 net.cpp:141] Setting up inception_4c/5x5
I0403 18:15:27.272724 21853 net.cpp:148] Top shape: 24 64 14 14 (301056)
I0403 18:15:27.272739 21853 net.cpp:156] Memory required for data: 1049767200
I0403 18:15:27.272758 21853 layer_factory.hpp:77] Creating layer inception_4c/relu_5x5
I0403 18:15:27.272778 21853 net.cpp:91] Creating Layer inception_4c/relu_5x5
I0403 18:15:27.272794 21853 net.cpp:425] inception_4c/relu_5x5 <- inception_4c/5x5
I0403 18:15:27.272810 21853 net.cpp:386] inception_4c/relu_5x5 -> inception_4c/5x5 (in-place)
I0403 18:15:27.273099 21853 net.cpp:141] Setting up inception_4c/relu_5x5
I0403 18:15:27.273124 21853 net.cpp:148] Top shape: 24 64 14 14 (301056)
I0403 18:15:27.273138 21853 net.cpp:156] Memory required for data: 1050971424
I0403 18:15:27.273152 21853 layer_factory.hpp:77] Creating layer inception_4c/pool
I0403 18:15:27.273169 21853 net.cpp:91] Creating Layer inception_4c/pool
I0403 18:15:27.273183 21853 net.cpp:425] inception_4c/pool <- inception_4b/output_inception_4b/output_0_split_3
I0403 18:15:27.273202 21853 net.cpp:399] inception_4c/pool -> inception_4c/pool
I0403 18:15:27.273264 21853 net.cpp:141] Setting up inception_4c/pool
I0403 18:15:27.273288 21853 net.cpp:148] Top shape: 24 512 14 14 (2408448)
I0403 18:15:27.273301 21853 net.cpp:156] Memory required for data: 1060605216
I0403 18:15:27.273314 21853 layer_factory.hpp:77] Creating layer inception_4c/pool_proj
I0403 18:15:27.273334 21853 net.cpp:91] Creating Layer inception_4c/pool_proj
I0403 18:15:27.273350 21853 net.cpp:425] inception_4c/pool_proj <- inception_4c/pool
I0403 18:15:27.273370 21853 net.cpp:399] inception_4c/pool_proj -> inception_4c/pool_proj
I0403 18:15:27.274565 21853 net.cpp:141] Setting up inception_4c/pool_proj
I0403 18:15:27.274595 21853 net.cpp:148] Top shape: 24 64 14 14 (301056)
I0403 18:15:27.274623 21853 net.cpp:156] Memory required for data: 1061809440
I0403 18:15:27.274641 21853 layer_factory.hpp:77] Creating layer inception_4c/relu_pool_proj
I0403 18:15:27.274657 21853 net.cpp:91] Creating Layer inception_4c/relu_pool_proj
I0403 18:15:27.274672 21853 net.cpp:425] inception_4c/relu_pool_proj <- inception_4c/pool_proj
I0403 18:15:27.274688 21853 net.cpp:386] inception_4c/relu_pool_proj -> inception_4c/pool_proj (in-place)
I0403 18:15:27.274862 21853 net.cpp:141] Setting up inception_4c/relu_pool_proj
I0403 18:15:27.274885 21853 net.cpp:148] Top shape: 24 64 14 14 (301056)
I0403 18:15:27.274899 21853 net.cpp:156] Memory required for data: 1063013664
I0403 18:15:27.274914 21853 layer_factory.hpp:77] Creating layer inception_4c/output
I0403 18:15:27.274929 21853 net.cpp:91] Creating Layer inception_4c/output
I0403 18:15:27.274943 21853 net.cpp:425] inception_4c/output <- inception_4c/1x1
I0403 18:15:27.274958 21853 net.cpp:425] inception_4c/output <- inception_4c/3x3
I0403 18:15:27.274973 21853 net.cpp:425] inception_4c/output <- inception_4c/5x5
I0403 18:15:27.274988 21853 net.cpp:425] inception_4c/output <- inception_4c/pool_proj
I0403 18:15:27.275009 21853 net.cpp:399] inception_4c/output -> inception_4c/output
I0403 18:15:27.275053 21853 net.cpp:141] Setting up inception_4c/output
I0403 18:15:27.275079 21853 net.cpp:148] Top shape: 24 512 14 14 (2408448)
I0403 18:15:27.275092 21853 net.cpp:156] Memory required for data: 1072647456
I0403 18:15:27.275105 21853 layer_factory.hpp:77] Creating layer inception_4c/output_inception_4c/output_0_split
I0403 18:15:27.275121 21853 net.cpp:91] Creating Layer inception_4c/output_inception_4c/output_0_split
I0403 18:15:27.275135 21853 net.cpp:425] inception_4c/output_inception_4c/output_0_split <- inception_4c/output
I0403 18:15:27.275153 21853 net.cpp:399] inception_4c/output_inception_4c/output_0_split -> inception_4c/output_inception_4c/output_0_split_0
I0403 18:15:27.275172 21853 net.cpp:399] inception_4c/output_inception_4c/output_0_split -> inception_4c/output_inception_4c/output_0_split_1
I0403 18:15:27.275192 21853 net.cpp:399] inception_4c/output_inception_4c/output_0_split -> inception_4c/output_inception_4c/output_0_split_2
I0403 18:15:27.275210 21853 net.cpp:399] inception_4c/output_inception_4c/output_0_split -> inception_4c/output_inception_4c/output_0_split_3
I0403 18:15:27.275290 21853 net.cpp:141] Setting up inception_4c/output_inception_4c/output_0_split
I0403 18:15:27.275312 21853 net.cpp:148] Top shape: 24 512 14 14 (2408448)
I0403 18:15:27.275327 21853 net.cpp:148] Top shape: 24 512 14 14 (2408448)
I0403 18:15:27.275341 21853 net.cpp:148] Top shape: 24 512 14 14 (2408448)
I0403 18:15:27.275355 21853 net.cpp:148] Top shape: 24 512 14 14 (2408448)
I0403 18:15:27.275368 21853 net.cpp:156] Memory required for data: 1111182624
I0403 18:15:27.275382 21853 layer_factory.hpp:77] Creating layer inception_4d/1x1
I0403 18:15:27.275403 21853 net.cpp:91] Creating Layer inception_4d/1x1
I0403 18:15:27.275418 21853 net.cpp:425] inception_4d/1x1 <- inception_4c/output_inception_4c/output_0_split_0
I0403 18:15:27.275439 21853 net.cpp:399] inception_4d/1x1 -> inception_4d/1x1
I0403 18:15:27.276754 21853 net.cpp:141] Setting up inception_4d/1x1
I0403 18:15:27.276782 21853 net.cpp:148] Top shape: 24 112 14 14 (526848)
I0403 18:15:27.276795 21853 net.cpp:156] Memory required for data: 1113290016
I0403 18:15:27.276813 21853 layer_factory.hpp:77] Creating layer inception_4d/relu_1x1
I0403 18:15:27.276831 21853 net.cpp:91] Creating Layer inception_4d/relu_1x1
I0403 18:15:27.276847 21853 net.cpp:425] inception_4d/relu_1x1 <- inception_4d/1x1
I0403 18:15:27.276864 21853 net.cpp:386] inception_4d/relu_1x1 -> inception_4d/1x1 (in-place)
I0403 18:15:27.277036 21853 net.cpp:141] Setting up inception_4d/relu_1x1
I0403 18:15:27.277062 21853 net.cpp:148] Top shape: 24 112 14 14 (526848)
I0403 18:15:27.277077 21853 net.cpp:156] Memory required for data: 1115397408
I0403 18:15:27.277091 21853 layer_factory.hpp:77] Creating layer inception_4d/3x3_reduce
I0403 18:15:27.277125 21853 net.cpp:91] Creating Layer inception_4d/3x3_reduce
I0403 18:15:27.277143 21853 net.cpp:425] inception_4d/3x3_reduce <- inception_4c/output_inception_4c/output_0_split_1
I0403 18:15:27.277160 21853 net.cpp:399] inception_4d/3x3_reduce -> inception_4d/3x3_reduce
I0403 18:15:27.278621 21853 net.cpp:141] Setting up inception_4d/3x3_reduce
I0403 18:15:27.278648 21853 net.cpp:148] Top shape: 24 144 14 14 (677376)
I0403 18:15:27.278662 21853 net.cpp:156] Memory required for data: 1118106912
I0403 18:15:27.278679 21853 layer_factory.hpp:77] Creating layer inception_4d/relu_3x3_reduce
I0403 18:15:27.278698 21853 net.cpp:91] Creating Layer inception_4d/relu_3x3_reduce
I0403 18:15:27.278714 21853 net.cpp:425] inception_4d/relu_3x3_reduce <- inception_4d/3x3_reduce
I0403 18:15:27.278731 21853 net.cpp:386] inception_4d/relu_3x3_reduce -> inception_4d/3x3_reduce (in-place)
I0403 18:15:27.279006 21853 net.cpp:141] Setting up inception_4d/relu_3x3_reduce
I0403 18:15:27.279031 21853 net.cpp:148] Top shape: 24 144 14 14 (677376)
I0403 18:15:27.279047 21853 net.cpp:156] Memory required for data: 1120816416
I0403 18:15:27.279060 21853 layer_factory.hpp:77] Creating layer inception_4d/3x3
I0403 18:15:27.279081 21853 net.cpp:91] Creating Layer inception_4d/3x3
I0403 18:15:27.279098 21853 net.cpp:425] inception_4d/3x3 <- inception_4d/3x3_reduce
I0403 18:15:27.279119 21853 net.cpp:399] inception_4d/3x3 -> inception_4d/3x3
I0403 18:15:27.283169 21853 net.cpp:141] Setting up inception_4d/3x3
I0403 18:15:27.283196 21853 net.cpp:148] Top shape: 24 288 14 14 (1354752)
I0403 18:15:27.283211 21853 net.cpp:156] Memory required for data: 1126235424
I0403 18:15:27.283227 21853 layer_factory.hpp:77] Creating layer inception_4d/relu_3x3
I0403 18:15:27.283246 21853 net.cpp:91] Creating Layer inception_4d/relu_3x3
I0403 18:15:27.283263 21853 net.cpp:425] inception_4d/relu_3x3 <- inception_4d/3x3
I0403 18:15:27.283280 21853 net.cpp:386] inception_4d/relu_3x3 -> inception_4d/3x3 (in-place)
I0403 18:15:27.283457 21853 net.cpp:141] Setting up inception_4d/relu_3x3
I0403 18:15:27.283481 21853 net.cpp:148] Top shape: 24 288 14 14 (1354752)
I0403 18:15:27.283496 21853 net.cpp:156] Memory required for data: 1131654432
I0403 18:15:27.283509 21853 layer_factory.hpp:77] Creating layer inception_4d/5x5_reduce
I0403 18:15:27.283531 21853 net.cpp:91] Creating Layer inception_4d/5x5_reduce
I0403 18:15:27.283552 21853 net.cpp:425] inception_4d/5x5_reduce <- inception_4c/output_inception_4c/output_0_split_2
I0403 18:15:27.283576 21853 net.cpp:399] inception_4d/5x5_reduce -> inception_4d/5x5_reduce
I0403 18:15:27.284687 21853 net.cpp:141] Setting up inception_4d/5x5_reduce
I0403 18:15:27.284715 21853 net.cpp:148] Top shape: 24 32 14 14 (150528)
I0403 18:15:27.284730 21853 net.cpp:156] Memory required for data: 1132256544
I0403 18:15:27.284747 21853 layer_factory.hpp:77] Creating layer inception_4d/relu_5x5_reduce
I0403 18:15:27.284766 21853 net.cpp:91] Creating Layer inception_4d/relu_5x5_reduce
I0403 18:15:27.284785 21853 net.cpp:425] inception_4d/relu_5x5_reduce <- inception_4d/5x5_reduce
I0403 18:15:27.284801 21853 net.cpp:386] inception_4d/relu_5x5_reduce -> inception_4d/5x5_reduce (in-place)
I0403 18:15:27.284996 21853 net.cpp:141] Setting up inception_4d/relu_5x5_reduce
I0403 18:15:27.285023 21853 net.cpp:148] Top shape: 24 32 14 14 (150528)
I0403 18:15:27.285038 21853 net.cpp:156] Memory required for data: 1132858656
I0403 18:15:27.285053 21853 layer_factory.hpp:77] Creating layer inception_4d/5x5
I0403 18:15:27.285074 21853 net.cpp:91] Creating Layer inception_4d/5x5
I0403 18:15:27.285092 21853 net.cpp:425] inception_4d/5x5 <- inception_4d/5x5_reduce
I0403 18:15:27.285120 21853 net.cpp:399] inception_4d/5x5 -> inception_4d/5x5
I0403 18:15:27.286576 21853 net.cpp:141] Setting up inception_4d/5x5
I0403 18:15:27.286604 21853 net.cpp:148] Top shape: 24 64 14 14 (301056)
I0403 18:15:27.286619 21853 net.cpp:156] Memory required for data: 1134062880
I0403 18:15:27.286638 21853 layer_factory.hpp:77] Creating layer inception_4d/relu_5x5
I0403 18:15:27.286670 21853 net.cpp:91] Creating Layer inception_4d/relu_5x5
I0403 18:15:27.286687 21853 net.cpp:425] inception_4d/relu_5x5 <- inception_4d/5x5
I0403 18:15:27.286706 21853 net.cpp:386] inception_4d/relu_5x5 -> inception_4d/5x5 (in-place)
I0403 18:15:27.287000 21853 net.cpp:141] Setting up inception_4d/relu_5x5
I0403 18:15:27.287029 21853 net.cpp:148] Top shape: 24 64 14 14 (301056)
I0403 18:15:27.287044 21853 net.cpp:156] Memory required for data: 1135267104
I0403 18:15:27.287058 21853 layer_factory.hpp:77] Creating layer inception_4d/pool
I0403 18:15:27.287075 21853 net.cpp:91] Creating Layer inception_4d/pool
I0403 18:15:27.287091 21853 net.cpp:425] inception_4d/pool <- inception_4c/output_inception_4c/output_0_split_3
I0403 18:15:27.287111 21853 net.cpp:399] inception_4d/pool -> inception_4d/pool
I0403 18:15:27.287173 21853 net.cpp:141] Setting up inception_4d/pool
I0403 18:15:27.287199 21853 net.cpp:148] Top shape: 24 512 14 14 (2408448)
I0403 18:15:27.287214 21853 net.cpp:156] Memory required for data: 1144900896
I0403 18:15:27.287228 21853 layer_factory.hpp:77] Creating layer inception_4d/pool_proj
I0403 18:15:27.287250 21853 net.cpp:91] Creating Layer inception_4d/pool_proj
I0403 18:15:27.287268 21853 net.cpp:425] inception_4d/pool_proj <- inception_4d/pool
I0403 18:15:27.287286 21853 net.cpp:399] inception_4d/pool_proj -> inception_4d/pool_proj
I0403 18:15:27.289037 21853 net.cpp:141] Setting up inception_4d/pool_proj
I0403 18:15:27.289067 21853 net.cpp:148] Top shape: 24 64 14 14 (301056)
I0403 18:15:27.289082 21853 net.cpp:156] Memory required for data: 1146105120
I0403 18:15:27.289099 21853 layer_factory.hpp:77] Creating layer inception_4d/relu_pool_proj
I0403 18:15:27.289119 21853 net.cpp:91] Creating Layer inception_4d/relu_pool_proj
I0403 18:15:27.289134 21853 net.cpp:425] inception_4d/relu_pool_proj <- inception_4d/pool_proj
I0403 18:15:27.289151 21853 net.cpp:386] inception_4d/relu_pool_proj -> inception_4d/pool_proj (in-place)
I0403 18:15:27.289327 21853 net.cpp:141] Setting up inception_4d/relu_pool_proj
I0403 18:15:27.289353 21853 net.cpp:148] Top shape: 24 64 14 14 (301056)
I0403 18:15:27.289367 21853 net.cpp:156] Memory required for data: 1147309344
I0403 18:15:27.289381 21853 layer_factory.hpp:77] Creating layer inception_4d/output
I0403 18:15:27.289397 21853 net.cpp:91] Creating Layer inception_4d/output
I0403 18:15:27.289412 21853 net.cpp:425] inception_4d/output <- inception_4d/1x1
I0403 18:15:27.289428 21853 net.cpp:425] inception_4d/output <- inception_4d/3x3
I0403 18:15:27.289444 21853 net.cpp:425] inception_4d/output <- inception_4d/5x5
I0403 18:15:27.289459 21853 net.cpp:425] inception_4d/output <- inception_4d/pool_proj
I0403 18:15:27.289475 21853 net.cpp:399] inception_4d/output -> inception_4d/output
I0403 18:15:27.289522 21853 net.cpp:141] Setting up inception_4d/output
I0403 18:15:27.289562 21853 net.cpp:148] Top shape: 24 528 14 14 (2483712)
I0403 18:15:27.289577 21853 net.cpp:156] Memory required for data: 1157244192
I0403 18:15:27.289592 21853 layer_factory.hpp:77] Creating layer inception_4d/output_inception_4d/output_0_split
I0403 18:15:27.289615 21853 net.cpp:91] Creating Layer inception_4d/output_inception_4d/output_0_split
I0403 18:15:27.289631 21853 net.cpp:425] inception_4d/output_inception_4d/output_0_split <- inception_4d/output
I0403 18:15:27.289649 21853 net.cpp:399] inception_4d/output_inception_4d/output_0_split -> inception_4d/output_inception_4d/output_0_split_0
I0403 18:15:27.289669 21853 net.cpp:399] inception_4d/output_inception_4d/output_0_split -> inception_4d/output_inception_4d/output_0_split_1
I0403 18:15:27.289691 21853 net.cpp:399] inception_4d/output_inception_4d/output_0_split -> inception_4d/output_inception_4d/output_0_split_2
I0403 18:15:27.289715 21853 net.cpp:399] inception_4d/output_inception_4d/output_0_split -> inception_4d/output_inception_4d/output_0_split_3
I0403 18:15:27.289734 21853 net.cpp:399] inception_4d/output_inception_4d/output_0_split -> inception_4d/output_inception_4d/output_0_split_4
I0403 18:15:27.289849 21853 net.cpp:141] Setting up inception_4d/output_inception_4d/output_0_split
I0403 18:15:27.289883 21853 net.cpp:148] Top shape: 24 528 14 14 (2483712)
I0403 18:15:27.289901 21853 net.cpp:148] Top shape: 24 528 14 14 (2483712)
I0403 18:15:27.289916 21853 net.cpp:148] Top shape: 24 528 14 14 (2483712)
I0403 18:15:27.289929 21853 net.cpp:148] Top shape: 24 528 14 14 (2483712)
I0403 18:15:27.289943 21853 net.cpp:148] Top shape: 24 528 14 14 (2483712)
I0403 18:15:27.289957 21853 net.cpp:156] Memory required for data: 1206918432
I0403 18:15:27.289970 21853 layer_factory.hpp:77] Creating layer loss2/ave_pool
I0403 18:15:27.289989 21853 net.cpp:91] Creating Layer loss2/ave_pool
I0403 18:15:27.290006 21853 net.cpp:425] loss2/ave_pool <- inception_4d/output_inception_4d/output_0_split_0
I0403 18:15:27.290024 21853 net.cpp:399] loss2/ave_pool -> loss2/ave_pool
I0403 18:15:27.290330 21853 net.cpp:141] Setting up loss2/ave_pool
I0403 18:15:27.290355 21853 net.cpp:148] Top shape: 24 528 4 4 (202752)
I0403 18:15:27.290370 21853 net.cpp:156] Memory required for data: 1207729440
I0403 18:15:27.290385 21853 layer_factory.hpp:77] Creating layer loss2/conv
I0403 18:15:27.290406 21853 net.cpp:91] Creating Layer loss2/conv
I0403 18:15:27.290423 21853 net.cpp:425] loss2/conv <- loss2/ave_pool
I0403 18:15:27.290442 21853 net.cpp:399] loss2/conv -> loss2/conv
I0403 18:15:27.292316 21853 net.cpp:141] Setting up loss2/conv
I0403 18:15:27.292345 21853 net.cpp:148] Top shape: 24 128 4 4 (49152)
I0403 18:15:27.292358 21853 net.cpp:156] Memory required for data: 1207926048
I0403 18:15:27.292376 21853 layer_factory.hpp:77] Creating layer loss2/relu_conv
I0403 18:15:27.292393 21853 net.cpp:91] Creating Layer loss2/relu_conv
I0403 18:15:27.292409 21853 net.cpp:425] loss2/relu_conv <- loss2/conv
I0403 18:15:27.292428 21853 net.cpp:386] loss2/relu_conv -> loss2/conv (in-place)
I0403 18:15:27.292714 21853 net.cpp:141] Setting up loss2/relu_conv
I0403 18:15:27.292740 21853 net.cpp:148] Top shape: 24 128 4 4 (49152)
I0403 18:15:27.292754 21853 net.cpp:156] Memory required for data: 1208122656
I0403 18:15:27.292768 21853 layer_factory.hpp:77] Creating layer loss2/fc
I0403 18:15:27.292786 21853 net.cpp:91] Creating Layer loss2/fc
I0403 18:15:27.292803 21853 net.cpp:425] loss2/fc <- loss2/conv
I0403 18:15:27.292822 21853 net.cpp:399] loss2/fc -> loss2/fc
I0403 18:15:27.310173 21853 net.cpp:141] Setting up loss2/fc
I0403 18:15:27.310207 21853 net.cpp:148] Top shape: 24 1024 (24576)
I0403 18:15:27.310222 21853 net.cpp:156] Memory required for data: 1208220960
I0403 18:15:27.310240 21853 layer_factory.hpp:77] Creating layer loss2/relu_fc
I0403 18:15:27.310256 21853 net.cpp:91] Creating Layer loss2/relu_fc
I0403 18:15:27.310271 21853 net.cpp:425] loss2/relu_fc <- loss2/fc
I0403 18:15:27.310286 21853 net.cpp:386] loss2/relu_fc -> loss2/fc (in-place)
I0403 18:15:27.310578 21853 net.cpp:141] Setting up loss2/relu_fc
I0403 18:15:27.310606 21853 net.cpp:148] Top shape: 24 1024 (24576)
I0403 18:15:27.310621 21853 net.cpp:156] Memory required for data: 1208319264
I0403 18:15:27.310636 21853 layer_factory.hpp:77] Creating layer loss2/drop_fc
I0403 18:15:27.310652 21853 net.cpp:91] Creating Layer loss2/drop_fc
I0403 18:15:27.310667 21853 net.cpp:425] loss2/drop_fc <- loss2/fc
I0403 18:15:27.310683 21853 net.cpp:386] loss2/drop_fc -> loss2/fc (in-place)
I0403 18:15:27.310730 21853 net.cpp:141] Setting up loss2/drop_fc
I0403 18:15:27.310752 21853 net.cpp:148] Top shape: 24 1024 (24576)
I0403 18:15:27.310766 21853 net.cpp:156] Memory required for data: 1208417568
I0403 18:15:27.310780 21853 layer_factory.hpp:77] Creating layer loss2/classifier_plantvillage
I0403 18:15:27.310798 21853 net.cpp:91] Creating Layer loss2/classifier_plantvillage
I0403 18:15:27.310813 21853 net.cpp:425] loss2/classifier_plantvillage <- loss2/fc
I0403 18:15:27.310830 21853 net.cpp:399] loss2/classifier_plantvillage -> loss2/classifier_plantvillage
I0403 18:15:27.311209 21853 net.cpp:141] Setting up loss2/classifier_plantvillage
I0403 18:15:27.311233 21853 net.cpp:148] Top shape: 24 38 (912)
I0403 18:15:27.311264 21853 net.cpp:156] Memory required for data: 1208421216
I0403 18:15:27.311281 21853 layer_factory.hpp:77] Creating layer loss2/classifier_plantvillage_loss2/classifier_plantvillage_0_split
I0403 18:15:27.311298 21853 net.cpp:91] Creating Layer loss2/classifier_plantvillage_loss2/classifier_plantvillage_0_split
I0403 18:15:27.311313 21853 net.cpp:425] loss2/classifier_plantvillage_loss2/classifier_plantvillage_0_split <- loss2/classifier_plantvillage
I0403 18:15:27.311331 21853 net.cpp:399] loss2/classifier_plantvillage_loss2/classifier_plantvillage_0_split -> loss2/classifier_plantvillage_loss2/classifier_plantvillage_0_split_0
I0403 18:15:27.311352 21853 net.cpp:399] loss2/classifier_plantvillage_loss2/classifier_plantvillage_0_split -> loss2/classifier_plantvillage_loss2/classifier_plantvillage_0_split_1
I0403 18:15:27.311372 21853 net.cpp:399] loss2/classifier_plantvillage_loss2/classifier_plantvillage_0_split -> loss2/classifier_plantvillage_loss2/classifier_plantvillage_0_split_2
I0403 18:15:27.311444 21853 net.cpp:141] Setting up loss2/classifier_plantvillage_loss2/classifier_plantvillage_0_split
I0403 18:15:27.311467 21853 net.cpp:148] Top shape: 24 38 (912)
I0403 18:15:27.311482 21853 net.cpp:148] Top shape: 24 38 (912)
I0403 18:15:27.311496 21853 net.cpp:148] Top shape: 24 38 (912)
I0403 18:15:27.311508 21853 net.cpp:156] Memory required for data: 1208432160
I0403 18:15:27.311522 21853 layer_factory.hpp:77] Creating layer inception_4e/1x1
I0403 18:15:27.311548 21853 net.cpp:91] Creating Layer inception_4e/1x1
I0403 18:15:27.311566 21853 net.cpp:425] inception_4e/1x1 <- inception_4d/output_inception_4d/output_0_split_1
I0403 18:15:27.311585 21853 net.cpp:399] inception_4e/1x1 -> inception_4e/1x1
I0403 18:15:27.313333 21853 net.cpp:141] Setting up inception_4e/1x1
I0403 18:15:27.313359 21853 net.cpp:148] Top shape: 24 256 14 14 (1204224)
I0403 18:15:27.313374 21853 net.cpp:156] Memory required for data: 1213249056
I0403 18:15:27.313390 21853 layer_factory.hpp:77] Creating layer inception_4e/relu_1x1
I0403 18:15:27.313406 21853 net.cpp:91] Creating Layer inception_4e/relu_1x1
I0403 18:15:27.313424 21853 net.cpp:425] inception_4e/relu_1x1 <- inception_4e/1x1
I0403 18:15:27.313441 21853 net.cpp:386] inception_4e/relu_1x1 -> inception_4e/1x1 (in-place)
I0403 18:15:27.313745 21853 net.cpp:141] Setting up inception_4e/relu_1x1
I0403 18:15:27.313771 21853 net.cpp:148] Top shape: 24 256 14 14 (1204224)
I0403 18:15:27.313784 21853 net.cpp:156] Memory required for data: 1218065952
I0403 18:15:27.313799 21853 layer_factory.hpp:77] Creating layer inception_4e/3x3_reduce
I0403 18:15:27.313822 21853 net.cpp:91] Creating Layer inception_4e/3x3_reduce
I0403 18:15:27.313850 21853 net.cpp:425] inception_4e/3x3_reduce <- inception_4d/output_inception_4d/output_0_split_2
I0403 18:15:27.313870 21853 net.cpp:399] inception_4e/3x3_reduce -> inception_4e/3x3_reduce
I0403 18:15:27.315883 21853 net.cpp:141] Setting up inception_4e/3x3_reduce
I0403 18:15:27.315912 21853 net.cpp:148] Top shape: 24 160 14 14 (752640)
I0403 18:15:27.315927 21853 net.cpp:156] Memory required for data: 1221076512
I0403 18:15:27.315943 21853 layer_factory.hpp:77] Creating layer inception_4e/relu_3x3_reduce
I0403 18:15:27.315959 21853 net.cpp:91] Creating Layer inception_4e/relu_3x3_reduce
I0403 18:15:27.315974 21853 net.cpp:425] inception_4e/relu_3x3_reduce <- inception_4e/3x3_reduce
I0403 18:15:27.315994 21853 net.cpp:386] inception_4e/relu_3x3_reduce -> inception_4e/3x3_reduce (in-place)
I0403 18:15:27.316174 21853 net.cpp:141] Setting up inception_4e/relu_3x3_reduce
I0403 18:15:27.316196 21853 net.cpp:148] Top shape: 24 160 14 14 (752640)
I0403 18:15:27.316210 21853 net.cpp:156] Memory required for data: 1224087072
I0403 18:15:27.316225 21853 layer_factory.hpp:77] Creating layer inception_4e/3x3
I0403 18:15:27.316244 21853 net.cpp:91] Creating Layer inception_4e/3x3
I0403 18:15:27.316262 21853 net.cpp:425] inception_4e/3x3 <- inception_4e/3x3_reduce
I0403 18:15:27.316282 21853 net.cpp:399] inception_4e/3x3 -> inception_4e/3x3
I0403 18:15:27.321163 21853 net.cpp:141] Setting up inception_4e/3x3
I0403 18:15:27.321202 21853 net.cpp:148] Top shape: 24 320 14 14 (1505280)
I0403 18:15:27.321216 21853 net.cpp:156] Memory required for data: 1230108192
I0403 18:15:27.321233 21853 layer_factory.hpp:77] Creating layer inception_4e/relu_3x3
I0403 18:15:27.321252 21853 net.cpp:91] Creating Layer inception_4e/relu_3x3
I0403 18:15:27.321269 21853 net.cpp:425] inception_4e/relu_3x3 <- inception_4e/3x3
I0403 18:15:27.321285 21853 net.cpp:386] inception_4e/relu_3x3 -> inception_4e/3x3 (in-place)
I0403 18:15:27.321599 21853 net.cpp:141] Setting up inception_4e/relu_3x3
I0403 18:15:27.321624 21853 net.cpp:148] Top shape: 24 320 14 14 (1505280)
I0403 18:15:27.321638 21853 net.cpp:156] Memory required for data: 1236129312
I0403 18:15:27.321652 21853 layer_factory.hpp:77] Creating layer inception_4e/5x5_reduce
I0403 18:15:27.321674 21853 net.cpp:91] Creating Layer inception_4e/5x5_reduce
I0403 18:15:27.321691 21853 net.cpp:425] inception_4e/5x5_reduce <- inception_4d/output_inception_4d/output_0_split_3
I0403 18:15:27.321712 21853 net.cpp:399] inception_4e/5x5_reduce -> inception_4e/5x5_reduce
I0403 18:15:27.322741 21853 net.cpp:141] Setting up inception_4e/5x5_reduce
I0403 18:15:27.322769 21853 net.cpp:148] Top shape: 24 32 14 14 (150528)
I0403 18:15:27.322784 21853 net.cpp:156] Memory required for data: 1236731424
I0403 18:15:27.322803 21853 layer_factory.hpp:77] Creating layer inception_4e/relu_5x5_reduce
I0403 18:15:27.322818 21853 net.cpp:91] Creating Layer inception_4e/relu_5x5_reduce
I0403 18:15:27.322834 21853 net.cpp:425] inception_4e/relu_5x5_reduce <- inception_4e/5x5_reduce
I0403 18:15:27.322852 21853 net.cpp:386] inception_4e/relu_5x5_reduce -> inception_4e/5x5_reduce (in-place)
I0403 18:15:27.323133 21853 net.cpp:141] Setting up inception_4e/relu_5x5_reduce
I0403 18:15:27.323160 21853 net.cpp:148] Top shape: 24 32 14 14 (150528)
I0403 18:15:27.323175 21853 net.cpp:156] Memory required for data: 1237333536
I0403 18:15:27.323189 21853 layer_factory.hpp:77] Creating layer inception_4e/5x5
I0403 18:15:27.323227 21853 net.cpp:91] Creating Layer inception_4e/5x5
I0403 18:15:27.323246 21853 net.cpp:425] inception_4e/5x5 <- inception_4e/5x5_reduce
I0403 18:15:27.323266 21853 net.cpp:399] inception_4e/5x5 -> inception_4e/5x5
I0403 18:15:27.325047 21853 net.cpp:141] Setting up inception_4e/5x5
I0403 18:15:27.325073 21853 net.cpp:148] Top shape: 24 128 14 14 (602112)
I0403 18:15:27.325088 21853 net.cpp:156] Memory required for data: 1239741984
I0403 18:15:27.325108 21853 layer_factory.hpp:77] Creating layer inception_4e/relu_5x5
I0403 18:15:27.325124 21853 net.cpp:91] Creating Layer inception_4e/relu_5x5
I0403 18:15:27.325139 21853 net.cpp:425] inception_4e/relu_5x5 <- inception_4e/5x5
I0403 18:15:27.325155 21853 net.cpp:386] inception_4e/relu_5x5 -> inception_4e/5x5 (in-place)
I0403 18:15:27.325341 21853 net.cpp:141] Setting up inception_4e/relu_5x5
I0403 18:15:27.325364 21853 net.cpp:148] Top shape: 24 128 14 14 (602112)
I0403 18:15:27.325378 21853 net.cpp:156] Memory required for data: 1242150432
I0403 18:15:27.325392 21853 layer_factory.hpp:77] Creating layer inception_4e/pool
I0403 18:15:27.325408 21853 net.cpp:91] Creating Layer inception_4e/pool
I0403 18:15:27.325423 21853 net.cpp:425] inception_4e/pool <- inception_4d/output_inception_4d/output_0_split_4
I0403 18:15:27.325444 21853 net.cpp:399] inception_4e/pool -> inception_4e/pool
I0403 18:15:27.325510 21853 net.cpp:141] Setting up inception_4e/pool
I0403 18:15:27.325532 21853 net.cpp:148] Top shape: 24 528 14 14 (2483712)
I0403 18:15:27.325564 21853 net.cpp:156] Memory required for data: 1252085280
I0403 18:15:27.325578 21853 layer_factory.hpp:77] Creating layer inception_4e/pool_proj
I0403 18:15:27.325601 21853 net.cpp:91] Creating Layer inception_4e/pool_proj
I0403 18:15:27.325618 21853 net.cpp:425] inception_4e/pool_proj <- inception_4e/pool
I0403 18:15:27.325636 21853 net.cpp:399] inception_4e/pool_proj -> inception_4e/pool_proj
I0403 18:15:27.327103 21853 net.cpp:141] Setting up inception_4e/pool_proj
I0403 18:15:27.327141 21853 net.cpp:148] Top shape: 24 128 14 14 (602112)
I0403 18:15:27.327155 21853 net.cpp:156] Memory required for data: 1254493728
I0403 18:15:27.327172 21853 layer_factory.hpp:77] Creating layer inception_4e/relu_pool_proj
I0403 18:15:27.327190 21853 net.cpp:91] Creating Layer inception_4e/relu_pool_proj
I0403 18:15:27.327206 21853 net.cpp:425] inception_4e/relu_pool_proj <- inception_4e/pool_proj
I0403 18:15:27.327224 21853 net.cpp:386] inception_4e/relu_pool_proj -> inception_4e/pool_proj (in-place)
I0403 18:15:27.327505 21853 net.cpp:141] Setting up inception_4e/relu_pool_proj
I0403 18:15:27.327530 21853 net.cpp:148] Top shape: 24 128 14 14 (602112)
I0403 18:15:27.327548 21853 net.cpp:156] Memory required for data: 1256902176
I0403 18:15:27.327567 21853 layer_factory.hpp:77] Creating layer inception_4e/output
I0403 18:15:27.327585 21853 net.cpp:91] Creating Layer inception_4e/output
I0403 18:15:27.327601 21853 net.cpp:425] inception_4e/output <- inception_4e/1x1
I0403 18:15:27.327616 21853 net.cpp:425] inception_4e/output <- inception_4e/3x3
I0403 18:15:27.327631 21853 net.cpp:425] inception_4e/output <- inception_4e/5x5
I0403 18:15:27.327646 21853 net.cpp:425] inception_4e/output <- inception_4e/pool_proj
I0403 18:15:27.327661 21853 net.cpp:399] inception_4e/output -> inception_4e/output
I0403 18:15:27.327709 21853 net.cpp:141] Setting up inception_4e/output
I0403 18:15:27.327731 21853 net.cpp:148] Top shape: 24 832 14 14 (3913728)
I0403 18:15:27.327745 21853 net.cpp:156] Memory required for data: 1272557088
I0403 18:15:27.327759 21853 layer_factory.hpp:77] Creating layer pool4/3x3_s2
I0403 18:15:27.327775 21853 net.cpp:91] Creating Layer pool4/3x3_s2
I0403 18:15:27.327790 21853 net.cpp:425] pool4/3x3_s2 <- inception_4e/output
I0403 18:15:27.327808 21853 net.cpp:399] pool4/3x3_s2 -> pool4/3x3_s2
I0403 18:15:27.327872 21853 net.cpp:141] Setting up pool4/3x3_s2
I0403 18:15:27.327894 21853 net.cpp:148] Top shape: 24 832 7 7 (978432)
I0403 18:15:27.327908 21853 net.cpp:156] Memory required for data: 1276470816
I0403 18:15:27.327920 21853 layer_factory.hpp:77] Creating layer pool4/3x3_s2_pool4/3x3_s2_0_split
I0403 18:15:27.327939 21853 net.cpp:91] Creating Layer pool4/3x3_s2_pool4/3x3_s2_0_split
I0403 18:15:27.327955 21853 net.cpp:425] pool4/3x3_s2_pool4/3x3_s2_0_split <- pool4/3x3_s2
I0403 18:15:27.327973 21853 net.cpp:399] pool4/3x3_s2_pool4/3x3_s2_0_split -> pool4/3x3_s2_pool4/3x3_s2_0_split_0
I0403 18:15:27.327993 21853 net.cpp:399] pool4/3x3_s2_pool4/3x3_s2_0_split -> pool4/3x3_s2_pool4/3x3_s2_0_split_1
I0403 18:15:27.328012 21853 net.cpp:399] pool4/3x3_s2_pool4/3x3_s2_0_split -> pool4/3x3_s2_pool4/3x3_s2_0_split_2
I0403 18:15:27.328032 21853 net.cpp:399] pool4/3x3_s2_pool4/3x3_s2_0_split -> pool4/3x3_s2_pool4/3x3_s2_0_split_3
I0403 18:15:27.328115 21853 net.cpp:141] Setting up pool4/3x3_s2_pool4/3x3_s2_0_split
I0403 18:15:27.328140 21853 net.cpp:148] Top shape: 24 832 7 7 (978432)
I0403 18:15:27.328155 21853 net.cpp:148] Top shape: 24 832 7 7 (978432)
I0403 18:15:27.328169 21853 net.cpp:148] Top shape: 24 832 7 7 (978432)
I0403 18:15:27.328183 21853 net.cpp:148] Top shape: 24 832 7 7 (978432)
I0403 18:15:27.328197 21853 net.cpp:156] Memory required for data: 1292125728
I0403 18:15:27.328209 21853 layer_factory.hpp:77] Creating layer inception_5a/1x1
I0403 18:15:27.328229 21853 net.cpp:91] Creating Layer inception_5a/1x1
I0403 18:15:27.328246 21853 net.cpp:425] inception_5a/1x1 <- pool4/3x3_s2_pool4/3x3_s2_0_split_0
I0403 18:15:27.328264 21853 net.cpp:399] inception_5a/1x1 -> inception_5a/1x1
I0403 18:15:27.331034 21853 net.cpp:141] Setting up inception_5a/1x1
I0403 18:15:27.331063 21853 net.cpp:148] Top shape: 24 256 7 7 (301056)
I0403 18:15:27.331079 21853 net.cpp:156] Memory required for data: 1293329952
I0403 18:15:27.331096 21853 layer_factory.hpp:77] Creating layer inception_5a/relu_1x1
I0403 18:15:27.331112 21853 net.cpp:91] Creating Layer inception_5a/relu_1x1
I0403 18:15:27.331127 21853 net.cpp:425] inception_5a/relu_1x1 <- inception_5a/1x1
I0403 18:15:27.331146 21853 net.cpp:386] inception_5a/relu_1x1 -> inception_5a/1x1 (in-place)
I0403 18:15:27.331442 21853 net.cpp:141] Setting up inception_5a/relu_1x1
I0403 18:15:27.331468 21853 net.cpp:148] Top shape: 24 256 7 7 (301056)
I0403 18:15:27.331485 21853 net.cpp:156] Memory required for data: 1294534176
I0403 18:15:27.331498 21853 layer_factory.hpp:77] Creating layer inception_5a/3x3_reduce
I0403 18:15:27.331518 21853 net.cpp:91] Creating Layer inception_5a/3x3_reduce
I0403 18:15:27.331539 21853 net.cpp:425] inception_5a/3x3_reduce <- pool4/3x3_s2_pool4/3x3_s2_0_split_1
I0403 18:15:27.331573 21853 net.cpp:399] inception_5a/3x3_reduce -> inception_5a/3x3_reduce
I0403 18:15:27.333992 21853 net.cpp:141] Setting up inception_5a/3x3_reduce
I0403 18:15:27.334018 21853 net.cpp:148] Top shape: 24 160 7 7 (188160)
I0403 18:15:27.334033 21853 net.cpp:156] Memory required for data: 1295286816
I0403 18:15:27.334050 21853 layer_factory.hpp:77] Creating layer inception_5a/relu_3x3_reduce
I0403 18:15:27.334069 21853 net.cpp:91] Creating Layer inception_5a/relu_3x3_reduce
I0403 18:15:27.334085 21853 net.cpp:425] inception_5a/relu_3x3_reduce <- inception_5a/3x3_reduce
I0403 18:15:27.334102 21853 net.cpp:386] inception_5a/relu_3x3_reduce -> inception_5a/3x3_reduce (in-place)
I0403 18:15:27.334281 21853 net.cpp:141] Setting up inception_5a/relu_3x3_reduce
I0403 18:15:27.334307 21853 net.cpp:148] Top shape: 24 160 7 7 (188160)
I0403 18:15:27.334322 21853 net.cpp:156] Memory required for data: 1296039456
I0403 18:15:27.334336 21853 layer_factory.hpp:77] Creating layer inception_5a/3x3
I0403 18:15:27.334357 21853 net.cpp:91] Creating Layer inception_5a/3x3
I0403 18:15:27.334374 21853 net.cpp:425] inception_5a/3x3 <- inception_5a/3x3_reduce
I0403 18:15:27.334393 21853 net.cpp:399] inception_5a/3x3 -> inception_5a/3x3
I0403 18:15:27.339236 21853 net.cpp:141] Setting up inception_5a/3x3
I0403 18:15:27.339267 21853 net.cpp:148] Top shape: 24 320 7 7 (376320)
I0403 18:15:27.339282 21853 net.cpp:156] Memory required for data: 1297544736
I0403 18:15:27.339299 21853 layer_factory.hpp:77] Creating layer inception_5a/relu_3x3
I0403 18:15:27.339318 21853 net.cpp:91] Creating Layer inception_5a/relu_3x3
I0403 18:15:27.339332 21853 net.cpp:425] inception_5a/relu_3x3 <- inception_5a/3x3
I0403 18:15:27.339350 21853 net.cpp:386] inception_5a/relu_3x3 -> inception_5a/3x3 (in-place)
I0403 18:15:27.339637 21853 net.cpp:141] Setting up inception_5a/relu_3x3
I0403 18:15:27.339663 21853 net.cpp:148] Top shape: 24 320 7 7 (376320)
I0403 18:15:27.339679 21853 net.cpp:156] Memory required for data: 1299050016
I0403 18:15:27.339692 21853 layer_factory.hpp:77] Creating layer inception_5a/5x5_reduce
I0403 18:15:27.339715 21853 net.cpp:91] Creating Layer inception_5a/5x5_reduce
I0403 18:15:27.339738 21853 net.cpp:425] inception_5a/5x5_reduce <- pool4/3x3_s2_pool4/3x3_s2_0_split_2
I0403 18:15:27.339756 21853 net.cpp:399] inception_5a/5x5_reduce -> inception_5a/5x5_reduce
I0403 18:15:27.340893 21853 net.cpp:141] Setting up inception_5a/5x5_reduce
I0403 18:15:27.340921 21853 net.cpp:148] Top shape: 24 32 7 7 (37632)
I0403 18:15:27.340937 21853 net.cpp:156] Memory required for data: 1299200544
I0403 18:15:27.340955 21853 layer_factory.hpp:77] Creating layer inception_5a/relu_5x5_reduce
I0403 18:15:27.340970 21853 net.cpp:91] Creating Layer inception_5a/relu_5x5_reduce
I0403 18:15:27.340986 21853 net.cpp:425] inception_5a/relu_5x5_reduce <- inception_5a/5x5_reduce
I0403 18:15:27.341003 21853 net.cpp:386] inception_5a/relu_5x5_reduce -> inception_5a/5x5_reduce (in-place)
I0403 18:15:27.341291 21853 net.cpp:141] Setting up inception_5a/relu_5x5_reduce
I0403 18:15:27.341328 21853 net.cpp:148] Top shape: 24 32 7 7 (37632)
I0403 18:15:27.341342 21853 net.cpp:156] Memory required for data: 1299351072
I0403 18:15:27.341356 21853 layer_factory.hpp:77] Creating layer inception_5a/5x5
I0403 18:15:27.341378 21853 net.cpp:91] Creating Layer inception_5a/5x5
I0403 18:15:27.341395 21853 net.cpp:425] inception_5a/5x5 <- inception_5a/5x5_reduce
I0403 18:15:27.341418 21853 net.cpp:399] inception_5a/5x5 -> inception_5a/5x5
I0403 18:15:27.343152 21853 net.cpp:141] Setting up inception_5a/5x5
I0403 18:15:27.343192 21853 net.cpp:148] Top shape: 24 128 7 7 (150528)
I0403 18:15:27.343209 21853 net.cpp:156] Memory required for data: 1299953184
I0403 18:15:27.343227 21853 layer_factory.hpp:77] Creating layer inception_5a/relu_5x5
I0403 18:15:27.343245 21853 net.cpp:91] Creating Layer inception_5a/relu_5x5
I0403 18:15:27.343261 21853 net.cpp:425] inception_5a/relu_5x5 <- inception_5a/5x5
I0403 18:15:27.343281 21853 net.cpp:386] inception_5a/relu_5x5 -> inception_5a/5x5 (in-place)
I0403 18:15:27.343468 21853 net.cpp:141] Setting up inception_5a/relu_5x5
I0403 18:15:27.343493 21853 net.cpp:148] Top shape: 24 128 7 7 (150528)
I0403 18:15:27.343508 21853 net.cpp:156] Memory required for data: 1300555296
I0403 18:15:27.343520 21853 layer_factory.hpp:77] Creating layer inception_5a/pool
I0403 18:15:27.343540 21853 net.cpp:91] Creating Layer inception_5a/pool
I0403 18:15:27.343557 21853 net.cpp:425] inception_5a/pool <- pool4/3x3_s2_pool4/3x3_s2_0_split_3
I0403 18:15:27.343577 21853 net.cpp:399] inception_5a/pool -> inception_5a/pool
I0403 18:15:27.343647 21853 net.cpp:141] Setting up inception_5a/pool
I0403 18:15:27.343669 21853 net.cpp:148] Top shape: 24 832 7 7 (978432)
I0403 18:15:27.343683 21853 net.cpp:156] Memory required for data: 1304469024
I0403 18:15:27.343696 21853 layer_factory.hpp:77] Creating layer inception_5a/pool_proj
I0403 18:15:27.343719 21853 net.cpp:91] Creating Layer inception_5a/pool_proj
I0403 18:15:27.343735 21853 net.cpp:425] inception_5a/pool_proj <- inception_5a/pool
I0403 18:15:27.343755 21853 net.cpp:399] inception_5a/pool_proj -> inception_5a/pool_proj
I0403 18:15:27.346024 21853 net.cpp:141] Setting up inception_5a/pool_proj
I0403 18:15:27.346051 21853 net.cpp:148] Top shape: 24 128 7 7 (150528)
I0403 18:15:27.346070 21853 net.cpp:156] Memory required for data: 1305071136
I0403 18:15:27.346087 21853 layer_factory.hpp:77] Creating layer inception_5a/relu_pool_proj
I0403 18:15:27.346104 21853 net.cpp:91] Creating Layer inception_5a/relu_pool_proj
I0403 18:15:27.346120 21853 net.cpp:425] inception_5a/relu_pool_proj <- inception_5a/pool_proj
I0403 18:15:27.346138 21853 net.cpp:386] inception_5a/relu_pool_proj -> inception_5a/pool_proj (in-place)
I0403 18:15:27.346426 21853 net.cpp:141] Setting up inception_5a/relu_pool_proj
I0403 18:15:27.346453 21853 net.cpp:148] Top shape: 24 128 7 7 (150528)
I0403 18:15:27.346469 21853 net.cpp:156] Memory required for data: 1305673248
I0403 18:15:27.346483 21853 layer_factory.hpp:77] Creating layer inception_5a/output
I0403 18:15:27.346499 21853 net.cpp:91] Creating Layer inception_5a/output
I0403 18:15:27.346513 21853 net.cpp:425] inception_5a/output <- inception_5a/1x1
I0403 18:15:27.346529 21853 net.cpp:425] inception_5a/output <- inception_5a/3x3
I0403 18:15:27.346549 21853 net.cpp:425] inception_5a/output <- inception_5a/5x5
I0403 18:15:27.346566 21853 net.cpp:425] inception_5a/output <- inception_5a/pool_proj
I0403 18:15:27.346582 21853 net.cpp:399] inception_5a/output -> inception_5a/output
I0403 18:15:27.346632 21853 net.cpp:141] Setting up inception_5a/output
I0403 18:15:27.346657 21853 net.cpp:148] Top shape: 24 832 7 7 (978432)
I0403 18:15:27.346670 21853 net.cpp:156] Memory required for data: 1309586976
I0403 18:15:27.346683 21853 layer_factory.hpp:77] Creating layer inception_5a/output_inception_5a/output_0_split
I0403 18:15:27.346699 21853 net.cpp:91] Creating Layer inception_5a/output_inception_5a/output_0_split
I0403 18:15:27.346714 21853 net.cpp:425] inception_5a/output_inception_5a/output_0_split <- inception_5a/output
I0403 18:15:27.346734 21853 net.cpp:399] inception_5a/output_inception_5a/output_0_split -> inception_5a/output_inception_5a/output_0_split_0
I0403 18:15:27.346755 21853 net.cpp:399] inception_5a/output_inception_5a/output_0_split -> inception_5a/output_inception_5a/output_0_split_1
I0403 18:15:27.346774 21853 net.cpp:399] inception_5a/output_inception_5a/output_0_split -> inception_5a/output_inception_5a/output_0_split_2
I0403 18:15:27.346794 21853 net.cpp:399] inception_5a/output_inception_5a/output_0_split -> inception_5a/output_inception_5a/output_0_split_3
I0403 18:15:27.346907 21853 net.cpp:141] Setting up inception_5a/output_inception_5a/output_0_split
I0403 18:15:27.346931 21853 net.cpp:148] Top shape: 24 832 7 7 (978432)
I0403 18:15:27.346947 21853 net.cpp:148] Top shape: 24 832 7 7 (978432)
I0403 18:15:27.346962 21853 net.cpp:148] Top shape: 24 832 7 7 (978432)
I0403 18:15:27.346977 21853 net.cpp:148] Top shape: 24 832 7 7 (978432)
I0403 18:15:27.346990 21853 net.cpp:156] Memory required for data: 1325241888
I0403 18:15:27.347003 21853 layer_factory.hpp:77] Creating layer inception_5b/1x1
I0403 18:15:27.347025 21853 net.cpp:91] Creating Layer inception_5b/1x1
I0403 18:15:27.347043 21853 net.cpp:425] inception_5b/1x1 <- inception_5a/output_inception_5a/output_0_split_0
I0403 18:15:27.347064 21853 net.cpp:399] inception_5b/1x1 -> inception_5b/1x1
I0403 18:15:27.350778 21853 net.cpp:141] Setting up inception_5b/1x1
I0403 18:15:27.350806 21853 net.cpp:148] Top shape: 24 384 7 7 (451584)
I0403 18:15:27.350821 21853 net.cpp:156] Memory required for data: 1327048224
I0403 18:15:27.350838 21853 layer_factory.hpp:77] Creating layer inception_5b/relu_1x1
I0403 18:15:27.350857 21853 net.cpp:91] Creating Layer inception_5b/relu_1x1
I0403 18:15:27.350874 21853 net.cpp:425] inception_5b/relu_1x1 <- inception_5b/1x1
I0403 18:15:27.350891 21853 net.cpp:386] inception_5b/relu_1x1 -> inception_5b/1x1 (in-place)
I0403 18:15:27.351196 21853 net.cpp:141] Setting up inception_5b/relu_1x1
I0403 18:15:27.351229 21853 net.cpp:148] Top shape: 24 384 7 7 (451584)
I0403 18:15:27.351244 21853 net.cpp:156] Memory required for data: 1328854560
I0403 18:15:27.351260 21853 layer_factory.hpp:77] Creating layer inception_5b/3x3_reduce
I0403 18:15:27.351281 21853 net.cpp:91] Creating Layer inception_5b/3x3_reduce
I0403 18:15:27.351300 21853 net.cpp:425] inception_5b/3x3_reduce <- inception_5a/output_inception_5a/output_0_split_1
I0403 18:15:27.351322 21853 net.cpp:399] inception_5b/3x3_reduce -> inception_5b/3x3_reduce
I0403 18:15:27.353970 21853 net.cpp:141] Setting up inception_5b/3x3_reduce
I0403 18:15:27.353997 21853 net.cpp:148] Top shape: 24 192 7 7 (225792)
I0403 18:15:27.354012 21853 net.cpp:156] Memory required for data: 1329757728
I0403 18:15:27.354030 21853 layer_factory.hpp:77] Creating layer inception_5b/relu_3x3_reduce
I0403 18:15:27.354050 21853 net.cpp:91] Creating Layer inception_5b/relu_3x3_reduce
I0403 18:15:27.354066 21853 net.cpp:425] inception_5b/relu_3x3_reduce <- inception_5b/3x3_reduce
I0403 18:15:27.354084 21853 net.cpp:386] inception_5b/relu_3x3_reduce -> inception_5b/3x3_reduce (in-place)
I0403 18:15:27.354272 21853 net.cpp:141] Setting up inception_5b/relu_3x3_reduce
I0403 18:15:27.354298 21853 net.cpp:148] Top shape: 24 192 7 7 (225792)
I0403 18:15:27.354313 21853 net.cpp:156] Memory required for data: 1330660896
I0403 18:15:27.354327 21853 layer_factory.hpp:77] Creating layer inception_5b/3x3
I0403 18:15:27.354349 21853 net.cpp:91] Creating Layer inception_5b/3x3
I0403 18:15:27.354365 21853 net.cpp:425] inception_5b/3x3 <- inception_5b/3x3_reduce
I0403 18:15:27.354384 21853 net.cpp:399] inception_5b/3x3 -> inception_5b/3x3
I0403 18:15:27.360988 21853 net.cpp:141] Setting up inception_5b/3x3
I0403 18:15:27.361018 21853 net.cpp:148] Top shape: 24 384 7 7 (451584)
I0403 18:15:27.361034 21853 net.cpp:156] Memory required for data: 1332467232
I0403 18:15:27.361052 21853 layer_factory.hpp:77] Creating layer inception_5b/relu_3x3
I0403 18:15:27.361068 21853 net.cpp:91] Creating Layer inception_5b/relu_3x3
I0403 18:15:27.361084 21853 net.cpp:425] inception_5b/relu_3x3 <- inception_5b/3x3
I0403 18:15:27.361100 21853 net.cpp:386] inception_5b/relu_3x3 -> inception_5b/3x3 (in-place)
I0403 18:15:27.361416 21853 net.cpp:141] Setting up inception_5b/relu_3x3
I0403 18:15:27.361445 21853 net.cpp:148] Top shape: 24 384 7 7 (451584)
I0403 18:15:27.361461 21853 net.cpp:156] Memory required for data: 1334273568
I0403 18:15:27.361476 21853 layer_factory.hpp:77] Creating layer inception_5b/5x5_reduce
I0403 18:15:27.361512 21853 net.cpp:91] Creating Layer inception_5b/5x5_reduce
I0403 18:15:27.361548 21853 net.cpp:425] inception_5b/5x5_reduce <- inception_5a/output_inception_5a/output_0_split_2
I0403 18:15:27.361570 21853 net.cpp:399] inception_5b/5x5_reduce -> inception_5b/5x5_reduce
I0403 18:15:27.362812 21853 net.cpp:141] Setting up inception_5b/5x5_reduce
I0403 18:15:27.362849 21853 net.cpp:148] Top shape: 24 48 7 7 (56448)
I0403 18:15:27.362864 21853 net.cpp:156] Memory required for data: 1334499360
I0403 18:15:27.362881 21853 layer_factory.hpp:77] Creating layer inception_5b/relu_5x5_reduce
I0403 18:15:27.362900 21853 net.cpp:91] Creating Layer inception_5b/relu_5x5_reduce
I0403 18:15:27.362916 21853 net.cpp:425] inception_5b/relu_5x5_reduce <- inception_5b/5x5_reduce
I0403 18:15:27.362932 21853 net.cpp:386] inception_5b/relu_5x5_reduce -> inception_5b/5x5_reduce (in-place)
I0403 18:15:27.363289 21853 net.cpp:141] Setting up inception_5b/relu_5x5_reduce
I0403 18:15:27.363315 21853 net.cpp:148] Top shape: 24 48 7 7 (56448)
I0403 18:15:27.363330 21853 net.cpp:156] Memory required for data: 1334725152
I0403 18:15:27.363343 21853 layer_factory.hpp:77] Creating layer inception_5b/5x5
I0403 18:15:27.363363 21853 net.cpp:91] Creating Layer inception_5b/5x5
I0403 18:15:27.363379 21853 net.cpp:425] inception_5b/5x5 <- inception_5b/5x5_reduce
I0403 18:15:27.363396 21853 net.cpp:399] inception_5b/5x5 -> inception_5b/5x5
I0403 18:15:27.365413 21853 net.cpp:141] Setting up inception_5b/5x5
I0403 18:15:27.365442 21853 net.cpp:148] Top shape: 24 128 7 7 (150528)
I0403 18:15:27.365456 21853 net.cpp:156] Memory required for data: 1335327264
I0403 18:15:27.365473 21853 layer_factory.hpp:77] Creating layer inception_5b/relu_5x5
I0403 18:15:27.365490 21853 net.cpp:91] Creating Layer inception_5b/relu_5x5
I0403 18:15:27.365505 21853 net.cpp:425] inception_5b/relu_5x5 <- inception_5b/5x5
I0403 18:15:27.365525 21853 net.cpp:386] inception_5b/relu_5x5 -> inception_5b/5x5 (in-place)
I0403 18:15:27.365734 21853 net.cpp:141] Setting up inception_5b/relu_5x5
I0403 18:15:27.365758 21853 net.cpp:148] Top shape: 24 128 7 7 (150528)
I0403 18:15:27.365773 21853 net.cpp:156] Memory required for data: 1335929376
I0403 18:15:27.365787 21853 layer_factory.hpp:77] Creating layer inception_5b/pool
I0403 18:15:27.365803 21853 net.cpp:91] Creating Layer inception_5b/pool
I0403 18:15:27.365818 21853 net.cpp:425] inception_5b/pool <- inception_5a/output_inception_5a/output_0_split_3
I0403 18:15:27.365839 21853 net.cpp:399] inception_5b/pool -> inception_5b/pool
I0403 18:15:27.365918 21853 net.cpp:141] Setting up inception_5b/pool
I0403 18:15:27.365942 21853 net.cpp:148] Top shape: 24 832 7 7 (978432)
I0403 18:15:27.365955 21853 net.cpp:156] Memory required for data: 1339843104
I0403 18:15:27.365969 21853 layer_factory.hpp:77] Creating layer inception_5b/pool_proj
I0403 18:15:27.365989 21853 net.cpp:91] Creating Layer inception_5b/pool_proj
I0403 18:15:27.366005 21853 net.cpp:425] inception_5b/pool_proj <- inception_5b/pool
I0403 18:15:27.366025 21853 net.cpp:399] inception_5b/pool_proj -> inception_5b/pool_proj
I0403 18:15:27.368242 21853 net.cpp:141] Setting up inception_5b/pool_proj
I0403 18:15:27.368271 21853 net.cpp:148] Top shape: 24 128 7 7 (150528)
I0403 18:15:27.368285 21853 net.cpp:156] Memory required for data: 1340445216
I0403 18:15:27.368302 21853 layer_factory.hpp:77] Creating layer inception_5b/relu_pool_proj
I0403 18:15:27.368321 21853 net.cpp:91] Creating Layer inception_5b/relu_pool_proj
I0403 18:15:27.368337 21853 net.cpp:425] inception_5b/relu_pool_proj <- inception_5b/pool_proj
I0403 18:15:27.368353 21853 net.cpp:386] inception_5b/relu_pool_proj -> inception_5b/pool_proj (in-place)
I0403 18:15:27.368656 21853 net.cpp:141] Setting up inception_5b/relu_pool_proj
I0403 18:15:27.368681 21853 net.cpp:148] Top shape: 24 128 7 7 (150528)
I0403 18:15:27.368696 21853 net.cpp:156] Memory required for data: 1341047328
I0403 18:15:27.368710 21853 layer_factory.hpp:77] Creating layer inception_5b/output
I0403 18:15:27.368729 21853 net.cpp:91] Creating Layer inception_5b/output
I0403 18:15:27.368758 21853 net.cpp:425] inception_5b/output <- inception_5b/1x1
I0403 18:15:27.368777 21853 net.cpp:425] inception_5b/output <- inception_5b/3x3
I0403 18:15:27.368791 21853 net.cpp:425] inception_5b/output <- inception_5b/5x5
I0403 18:15:27.368808 21853 net.cpp:425] inception_5b/output <- inception_5b/pool_proj
I0403 18:15:27.368824 21853 net.cpp:399] inception_5b/output -> inception_5b/output
I0403 18:15:27.368887 21853 net.cpp:141] Setting up inception_5b/output
I0403 18:15:27.368909 21853 net.cpp:148] Top shape: 24 1024 7 7 (1204224)
I0403 18:15:27.368923 21853 net.cpp:156] Memory required for data: 1345864224
I0403 18:15:27.368937 21853 layer_factory.hpp:77] Creating layer pool5/7x7_s1
I0403 18:15:27.368953 21853 net.cpp:91] Creating Layer pool5/7x7_s1
I0403 18:15:27.368968 21853 net.cpp:425] pool5/7x7_s1 <- inception_5b/output
I0403 18:15:27.368986 21853 net.cpp:399] pool5/7x7_s1 -> pool5/7x7_s1
I0403 18:15:27.369192 21853 net.cpp:141] Setting up pool5/7x7_s1
I0403 18:15:27.369218 21853 net.cpp:148] Top shape: 24 1024 1 1 (24576)
I0403 18:15:27.369233 21853 net.cpp:156] Memory required for data: 1345962528
I0403 18:15:27.369246 21853 layer_factory.hpp:77] Creating layer pool5/drop_7x7_s1
I0403 18:15:27.369266 21853 net.cpp:91] Creating Layer pool5/drop_7x7_s1
I0403 18:15:27.369279 21853 net.cpp:425] pool5/drop_7x7_s1 <- pool5/7x7_s1
I0403 18:15:27.369298 21853 net.cpp:386] pool5/drop_7x7_s1 -> pool5/7x7_s1 (in-place)
I0403 18:15:27.369345 21853 net.cpp:141] Setting up pool5/drop_7x7_s1
I0403 18:15:27.369367 21853 net.cpp:148] Top shape: 24 1024 1 1 (24576)
I0403 18:15:27.369380 21853 net.cpp:156] Memory required for data: 1346060832
I0403 18:15:27.369403 21853 layer_factory.hpp:77] Creating layer loss3/classifier_plantvillage
I0403 18:15:27.369423 21853 net.cpp:91] Creating Layer loss3/classifier_plantvillage
I0403 18:15:27.369439 21853 net.cpp:425] loss3/classifier_plantvillage <- pool5/7x7_s1
I0403 18:15:27.369459 21853 net.cpp:399] loss3/classifier_plantvillage -> loss3/classifier_plantvillage
I0403 18:15:27.369894 21853 net.cpp:141] Setting up loss3/classifier_plantvillage
I0403 18:15:27.369918 21853 net.cpp:148] Top shape: 24 38 (912)
I0403 18:15:27.369931 21853 net.cpp:156] Memory required for data: 1346064480
I0403 18:15:27.369948 21853 layer_factory.hpp:77] Creating layer loss3/classifier_plantvillage_loss3/classifier_plantvillage_0_split
I0403 18:15:27.369966 21853 net.cpp:91] Creating Layer loss3/classifier_plantvillage_loss3/classifier_plantvillage_0_split
I0403 18:15:27.369983 21853 net.cpp:425] loss3/classifier_plantvillage_loss3/classifier_plantvillage_0_split <- loss3/classifier_plantvillage
I0403 18:15:27.370000 21853 net.cpp:399] loss3/classifier_plantvillage_loss3/classifier_plantvillage_0_split -> loss3/classifier_plantvillage_loss3/classifier_plantvillage_0_split_0
I0403 18:15:27.370019 21853 net.cpp:399] loss3/classifier_plantvillage_loss3/classifier_plantvillage_0_split -> loss3/classifier_plantvillage_loss3/classifier_plantvillage_0_split_1
I0403 18:15:27.370038 21853 net.cpp:399] loss3/classifier_plantvillage_loss3/classifier_plantvillage_0_split -> loss3/classifier_plantvillage_loss3/classifier_plantvillage_0_split_2
I0403 18:15:27.370057 21853 net.cpp:399] loss3/classifier_plantvillage_loss3/classifier_plantvillage_0_split -> loss3/classifier_plantvillage_loss3/classifier_plantvillage_0_split_3
I0403 18:15:27.370151 21853 net.cpp:141] Setting up loss3/classifier_plantvillage_loss3/classifier_plantvillage_0_split
I0403 18:15:27.370172 21853 net.cpp:148] Top shape: 24 38 (912)
I0403 18:15:27.370187 21853 net.cpp:148] Top shape: 24 38 (912)
I0403 18:15:27.370201 21853 net.cpp:148] Top shape: 24 38 (912)
I0403 18:15:27.370215 21853 net.cpp:148] Top shape: 24 38 (912)
I0403 18:15:27.370229 21853 net.cpp:156] Memory required for data: 1346079072
I0403 18:15:27.370241 21853 layer_factory.hpp:77] Creating layer loss1/loss
I0403 18:15:27.370262 21853 net.cpp:91] Creating Layer loss1/loss
I0403 18:15:27.370278 21853 net.cpp:425] loss1/loss <- loss1/classifier_plantvillage_loss1/classifier_plantvillage_0_split_0
I0403 18:15:27.370306 21853 net.cpp:425] loss1/loss <- label_data_1_split_0
…
