…
I0403 18:31:51.014425 22699 net.cpp:313] The NetState phase (1) differed from the phase (0) specified by a rule in layer data
I0403 18:31:51.015636 22699 net.cpp:49] Initializing net from parameters: 
state {
  phase: TEST
}
layer {
  name: "data"
  type: "Data"
  top: "data"
  top: "label"
  include {
    phase: TEST
  }
  transform_param {
    mirror: false
    crop_size: 224
    mean_file: "/home/mohanty/data/final_dataset/lmdb/segmented-40-60/mean.binaryproto"
  }
  data_param {
    source: "/home/mohanty/data/final_dataset/lmdb/segmented-40-60/test_db"
    batch_size: 24
    backend: LMDB
  }
}
layer {
  name: "conv1/7x7_s2"
  type: "Convolution"
  bottom: "data"
  top: "conv1/7x7_s2"
  param {
    lr_mult: 1
    decay_mult: 1
  }
  param {
    lr_mult: 2
    decay_mult: 0
  }
  convolution_param {
    num_output: 64
    pad: 3
    kernel_size: 7
    stride: 2
    weight_filler {
      type: "xavier"
      std: 0.1
    }
    bias_filler {
      type: "constant"
      value: 0.2
    }
  }
}
layer {
  name: "conv1/relu_7x7"
  type: "ReLU"
  bottom: "conv1/7x7_s2"
  top: "conv1/7x7_s2"
}
layer {
  name: "pool1/3x3_s2"
  type: "Pooling"
  bottom: "conv1/7x7_s2"
  top: "pool1/3x3_s2"
  pooling_param {
    pool: MAX
    kernel_size: 3
    stride: 2
  }
}
layer {
  name: "pool1/norm1"
  type: "LRN"
  bottom: "pool1/3x3_s2"
  top: "pool1/norm1"
  lrn_param {
    local_size: 5
    alpha: 0.0001
    beta: 0.75
  }
}
layer {
  name: "conv2/3x3_reduce"
  type: "Convolution"
  bottom: "pool1/norm1"
  top: "conv2/3x3_reduce"
  param {
    lr_mult: 1
    decay_mult: 1
  }
  param {
    lr_mult: 2
    decay_mult: 0
  }
  convolution_param {
    num_output: 64
    kernel_size: 1
    weight_filler {
      type: "xavier"
      std: 0.1
    }
    bias_filler {
      type: "constant"
      value: 0.2
    }
  }
}
layer {
  name: "conv2/relu_3x3_reduce"
  type: "ReLU"
  bottom: "conv2/3x3_reduce"
  top: "conv2/3x3_reduce"
}
layer {
  name: "conv2/3x3"
  type: "Convolution"
  bottom: "conv2/3x3_reduce"
  top: "conv2/3x3"
  param {
    lr_mult: 1
    decay_mult: 1
  }
  param {
    lr_mult: 2
    decay_mult: 0
  }
  convolution_param {
    num_output: 192
    pad: 1
    kernel_size: 3
    weight_filler {
      type: "xavier"
      std: 0.03
    }
    bias_filler {
      type: "constant"
      value: 0.2
    }
  }
}
layer {
  name: "conv2/relu_3x3"
  type: "ReLU"
  bottom: "conv2/3x3"
  top: "conv2/3x3"
}
layer {
  name: "conv2/norm2"
  type: "LRN"
  bottom: "conv2/3x3"
  top: "conv2/norm2"
  lrn_param {
    local_size: 5
    alpha: 0.0001
    beta: 0.75
  }
}
layer {
  name: "pool2/3x3_s2"
  type: "Pooling"
  bottom: "conv2/norm2"
  top: "pool2/3x3_s2"
  pooling_param {
    pool: MAX
    kernel_size: 3
    stride: 2
  }
}
layer {
  name: "inception_3a/1x1"
  type: "Convolution"
  bottom: "pool2/3x3_s2"
  top: "inception_3a/1x1"
  param {
    lr_mult: 1
    decay_mult: 1
  }
  param {
    lr_mult: 2
    decay_mult: 0
  }
  convolution_param {
    num_output: 64
    kernel_size: 1
    weight_filler {
      type: "xavier"
      std: 0.03
    }
    bias_filler {
      type: "constant"
      value: 0.2
    }
  }
}
layer {
  name: "inception_3a/relu_1x1"
  type: "ReLU"
  bottom: "inception_3a/1x1"
  top: "inception_3a/1x1"
}
layer {
  name: "inception_3a/3x3_reduce"
  type: "Convolution"
  bottom: "pool2/3x3_s2"
  top: "inception_3a/3x3_reduce"
  param {
    lr_mult: 1
    decay_mult: 1
  }
  param {
    lr_mult: 2
    decay_mult: 0
  }
  convolution_param {
    num_output: 96
    kernel_size: 1
    weight_filler {
      type: "xavier"
      std: 0.09
    }
    bias_filler {
      type: "constant"
      value: 0.2
    }
  }
}
layer {
  name: "inception_3a/relu_3x3_reduce"
  type: "ReLU"
  bottom: "inception_3a/3x3_reduce"
  top: "inception_3a/3x3_reduce"
}
layer {
  name: "inception_3a/3x3"
  type: "Convolution"
  bottom: "inception_3a/3x3_reduce"
  top: "inception_3a/3x3"
  param {
    lr_mult: 1
    decay_mult: 1
  }
  param {
    lr_mult: 2
    decay_mult: 0
  }
  convolution_param {
    num_output: 128
    pad: 1
    kernel_size: 3
    weight_filler {
      type: "xavier"
      std: 0.03
    }
    bias_filler {
      type: "constant"
      value: 0.2
    }
  }
}
layer {
  name: "inception_3a/relu_3x3"
  type: "ReLU"
  bottom: "inception_3a/3x3"
  top: "inception_3a/3x3"
}
layer {
  name: "inception_3a/5x5_reduce"
  type: "Convolution"
  bottom: "pool2/3x3_s2"
  top: "inception_3a/5x5_reduce"
  param {
    lr_mult: 1
    decay_mult: 1
  }
  param {
    lr_mult: 2
    decay_mult: 0
  }
  convolution_param {
    num_output: 16
    kernel_size: 1
    weight_filler {
      type: "xavier"
      std: 0.2
    }
    bias_filler {
      type: "constant"
      value: 0.2
    }
  }
}
layer {
  name: "inception_3a/relu_5x5_reduce"
  type: "ReLU"
  bottom: "inception_3a/5x5_reduce"
  top: "inception_3a/5x5_reduce"
}
layer {
  name: "inception_3a/5x5"
  type: "Convolution"
  bottom: "inception_3a/5x5_reduce"
  top: "inception_3a/5x5"
  param {
    lr_mult: 1
    decay_mult: 1
  }
  param {
    lr_mult: 2
    decay_mult: 0
  }
  convolution_param {
    num_output: 32
    pad: 2
    kernel_size: 5
    weight_filler {
      type: "xavier"
      std: 0.03
    }
    bias_filler {
      type: "constant"
      value: 0.2
    }
  }
}
layer {
  name: "inception_3a/relu_5x5"
  type: "ReLU"
  bottom: "inception_3a/5x5"
  top: "inception_3a/5x5"
}
layer {
  name: "inception_3a/pool"
  type: "Pooling"
  bottom: "pool2/3x3_s2"
  top: "inception_3a/pool"
  pooling_param {
    pool: MAX
    kernel_size: 3
    stride: 1
    pad: 1
  }
}
layer {
  name: "inception_3a/pool_proj"
  type: "Convolution"
  bottom: "inception_3a/pool"
  top: "inception_3a/pool_proj"
  param {
    lr_mult: 1
    decay_mult: 1
  }
  param {
    lr_mult: 2
    decay_mult: 0
  }
  convolution_param {
    num_output: 32
    kernel_size: 1
    weight_filler {
      type: "xavier"
      std: 0.1
    }
    bias_filler {
      type: "constant"
      value: 0.2
    }
  }
}
layer {
  name: "inception_3a/relu_pool_proj"
  type: "ReLU"
  bottom: "inception_3a/pool_proj"
  top: "inception_3a/pool_proj"
}
layer {
  name: "inception_3a/output"
  type: "Concat"
  bottom: "inception_3a/1x1"
  bottom: "inception_3a/3x3"
  bottom: "inception_3a/5x5"
  bottom: "inception_3a/pool_proj"
  top: "inception_3a/output"
}
layer {
  name: "inception_3b/1x1"
  type: "Convolution"
  bottom: "inception_3a/output"
  top: "inception_3b/1x1"
  param {
    lr_mult: 1
    decay_mult: 1
  }
  param {
    lr_mult: 2
    decay_mult: 0
  }
  convolution_param {
    num_output: 128
    kernel_size: 1
    weight_filler {
      type: "xavier"
      std: 0.03
    }
    bias_filler {
      type: "constant"
      value: 0.2
    }
  }
}
layer {
  name: "inception_3b/relu_1x1"
  type: "ReLU"
  bottom: "inception_3b/1x1"
  top: "inception_3b/1x1"
}
layer {
  name: "inception_3b/3x3_reduce"
  type: "Convolution"
  bottom: "inception_3a/output"
  top: "inception_3b/3x3_reduce"
  param {
    lr_mult: 1
    decay_mult: 1
  }
  param {
    lr_mult: 2
    decay_mult: 0
  }
  convolution_param {
    num_output: 128
    kernel_size: 1
    weight_filler {
      type: "xavier"
      std: 0.09
    }
    bias_filler {
      type: "constant"
      value: 0.2
    }
  }
}
layer {
  name: "inception_3b/relu_3x3_reduce"
  type: "ReLU"
  bottom: "inception_3b/3x3_reduce"
  top: "inception_3b/3x3_reduce"
}
layer {
  name: "inception_3b/3x3"
  type: "Convolution"
  bottom: "inception_3b/3x3_reduce"
  top: "inception_3b/3x3"
  param {
    lr_mult: 1
    decay_mult: 1
  }
  param {
    lr_mult: 2
    decay_mult: 0
  }
  convolution_param {
    num_output: 192
    pad: 1
    kernel_size: 3
    weight_filler {
      type: "xavier"
      std: 0.03
    }
    bias_filler {
      type: "constant"
      value: 0.2
    }
  }
}
layer {
  name: "inception_3b/relu_3x3"
  type: "ReLU"
  bottom: "inception_3b/3x3"
  top: "inception_3b/3x3"
}
layer {
  name: "inception_3b/5x5_reduce"
  type: "Convolution"
  bottom: "inception_3a/output"
  top: "inception_3b/5x5_reduce"
  param {
    lr_mult: 1
    decay_mult: 1
  }
  param {
    lr_mult: 2
    decay_mult: 0
  }
  convolution_param {
    num_output: 32
    kernel_size: 1
    weight_filler {
      type: "xavier"
      std: 0.2
    }
    bias_filler {
      type: "constant"
      value: 0.2
    }
  }
}
layer {
  name: "inception_3b/relu_5x5_reduce"
  type: "ReLU"
  bottom: "inception_3b/5x5_reduce"
  top: "inception_3b/5x5_reduce"
}
layer {
  name: "inception_3b/5x5"
  type: "Convolution"
  bottom: "inception_3b/5x5_reduce"
  top: "inception_3b/5x5"
  param {
    lr_mult: 1
    decay_mult: 1
  }
  param {
    lr_mult: 2
    decay_mult: 0
  }
  convolution_param {
    num_output: 96
    pad: 2
    kernel_size: 5
    weight_filler {
      type: "xavier"
      std: 0.03
    }
    bias_filler {
      type: "constant"
      value: 0.2
    }
  }
}
layer {
  name: "inception_3b/relu_5x5"
  type: "ReLU"
  bottom: "inception_3b/5x5"
  top: "inception_3b/5x5"
}
layer {
  name: "inception_3b/pool"
  type: "Pooling"
  bottom: "inception_3a/output"
  top: "inception_3b/pool"
  pooling_param {
    pool: MAX
    kernel_size: 3
    stride: 1
    pad: 1
  }
}
layer {
  name: "inception_3b/pool_proj"
  type: "Convolution"
  bottom: "inception_3b/pool"
  top: "inception_3b/pool_proj"
  param {
    lr_mult: 1
    decay_mult: 1
  }
  param {
    lr_mult: 2
    decay_mult: 0
  }
  convolution_param {
    num_output: 64
    kernel_size: 1
    weight_filler {
      type: "xavier"
      std: 0.1
    }
    bias_filler {
      type: "constant"
      value: 0.2
    }
  }
}
layer {
  name: "inception_3b/relu_pool_proj"
  type: "ReLU"
  bottom: "inception_3b/pool_proj"
  top: "inception_3b/pool_proj"
}
layer {
  name: "inception_3b/output"
  type: "Concat"
  bottom: "inception_3b/1x1"
  bottom: "inception_3b/3x3"
  bottom: "inception_3b/5x5"
  bottom: "inception_3b/pool_proj"
  top: "inception_3b/output"
}
layer {
  name: "pool3/3x3_s2"
  type: "Pooling"
  bottom: "inception_3b/output"
  top: "pool3/3x3_s2"
  pooling_param {
    pool: MAX
    kernel_size: 3
    stride: 2
  }
}
layer {
  name: "inception_4a/1x1"
  type: "Convolution"
  bottom: "pool3/3x3_s2"
  top: "inception_4a/1x1"
  param {
    lr_mult: 1
    decay_mult: 1
  }
  param {
    lr_mult: 2
    decay_mult: 0
  }
  convolution_param {
    num_output: 192
    kernel_size: 1
    weight_filler {
      type: "xavier"
      std: 0.03
    }
    bias_filler {
      type: "constant"
      value: 0.2
    }
  }
}
layer {
  name: "inception_4a/relu_1x1"
  type: "ReLU"
  bottom: "inception_4a/1x1"
  top: "inception_4a/1x1"
}
layer {
  name: "inception_4a/3x3_reduce"
  type: "Convolution"
  bottom: "pool3/3x3_s2"
  top: "inception_4a/3x3_reduce"
  param {
    lr_mult: 1
    decay_mult: 1
  }
  param {
    lr_mult: 2
    decay_mult: 0
  }
  convolution_param {
    num_output: 96
    kernel_size: 1
    weight_filler {
      type: "xavier"
      std: 0.09
    }
    bias_filler {
      type: "constant"
      value: 0.2
    }
  }
}
layer {
  name: "inception_4a/relu_3x3_reduce"
  type: "ReLU"
  bottom: "inception_4a/3x3_reduce"
  top: "inception_4a/3x3_reduce"
}
layer {
  name: "inception_4a/3x3"
  type: "Convolution"
  bottom: "inception_4a/3x3_reduce"
  top: "inception_4a/3x3"
  param {
    lr_mult: 1
    decay_mult: 1
  }
  param {
    lr_mult: 2
    decay_mult: 0
  }
  convolution_param {
    num_output: 208
    pad: 1
    kernel_size: 3
    weight_filler {
      type: "xavier"
      std: 0.03
    }
    bias_filler {
      type: "constant"
      value: 0.2
    }
  }
}
layer {
  name: "inception_4a/relu_3x3"
  type: "ReLU"
  bottom: "inception_4a/3x3"
  top: "inception_4a/3x3"
}
layer {
  name: "inception_4a/5x5_reduce"
  type: "Convolution"
  bottom: "pool3/3x3_s2"
  top: "inception_4a/5x5_reduce"
  param {
    lr_mult: 1
    decay_mult: 1
  }
  param {
    lr_mult: 2
    decay_mult: 0
  }
  convolution_param {
    num_output: 16
    kernel_size: 1
    weight_filler {
      type: "xavier"
      std: 0.2
    }
    bias_filler {
      type: "constant"
      value: 0.2
    }
  }
}
layer {
  name: "inception_4a/relu_5x5_reduce"
  type: "ReLU"
  bottom: "inception_4a/5x5_reduce"
  top: "inception_4a/5x5_reduce"
}
layer {
  name: "inception_4a/5x5"
  type: "Convolution"
  bottom: "inception_4a/5x5_reduce"
  top: "inception_4a/5x5"
  param {
    lr_mult: 1
    decay_mult: 1
  }
  param {
    lr_mult: 2
    decay_mult: 0
  }
  convolution_param {
    num_output: 48
    pad: 2
    kernel_size: 5
    weight_filler {
      type: "xavier"
      std: 0.03
    }
    bias_filler {
      type: "constant"
      value: 0.2
    }
  }
}
layer {
  name: "inception_4a/relu_5x5"
  type: "ReLU"
  bottom: "inception_4a/5x5"
  top: "inception_4a/5x5"
}
layer {
  name: "inception_4a/pool"
  type: "Pooling"
  bottom: "pool3/3x3_s2"
  top: "inception_4a/pool"
  pooling_param {
    pool: MAX
    kernel_size: 3
    stride: 1
    pad: 1
  }
}
layer {
  name: "inception_4a/pool_proj"
  type: "Convolution"
  bottom: "inception_4a/pool"
  top: "inception_4a/pool_proj"
  param {
    lr_mult: 1
    decay_mult: 1
  }
  param {
    lr_mult: 2
    decay_mult: 0
  }
  convolution_param {
    num_output: 64
    kernel_size: 1
    weight_filler {
      type: "xavier"
      std: 0.1
    }
    bias_filler {
      type: "constant"
      value: 0.2
    }
  }
}
layer {
  name: "inception_4a/relu_pool_proj"
  type: "ReLU"
  bottom: "inception_4a/pool_proj"
  top: "inception_4a/pool_proj"
}
layer {
  name: "inception_4a/output"
  type: "Concat"
  bottom: "inception_4a/1x1"
  bottom: "inception_4a/3x3"
  bottom: "inception_4a/5x5"
  bottom: "inception_4a/pool_proj"
  top: "inception_4a/output"
}
layer {
  name: "loss1/ave_pool"
  type: "Pooling"
  bottom: "inception_4a/output"
  top: "loss1/ave_pool"
  pooling_param {
    pool: AVE
    kernel_size: 5
    stride: 3
  }
}
layer {
  name: "loss1/conv"
  type: "Convolution"
  bottom: "loss1/ave_pool"
  top: "loss1/conv"
  param {
    lr_mult: 1
    decay_mult: 1
  }
  param {
    lr_mult: 2
    decay_mult: 0
  }
  convolution_param {
    num_output: 128
    kernel_size: 1
    weight_filler {
      type: "xavier"
      std: 0.08
    }
    bias_filler {
      type: "constant"
      value: 0.2
    }
  }
}
layer {
  name: "loss1/relu_conv"
  type: "ReLU"
  bottom: "loss1/conv"
  top: "loss1/conv"
}
layer {
  name: "loss1/fc"
  type: "InnerProduct"
  bottom: "loss1/conv"
  top: "loss1/fc"
  param {
    lr_mult: 1
    decay_mult: 1
  }
  param {
    lr_mult: 2
    decay_mult: 0
  }
  inner_product_param {
    num_output: 1024
    weight_filler {
      type: "xavier"
      std: 0.02
    }
    bias_filler {
      type: "constant"
      value: 0.2
    }
  }
}
layer {
  name: "loss1/relu_fc"
  type: "ReLU"
  bottom: "loss1/fc"
  top: "loss1/fc"
}
layer {
  name: "loss1/drop_fc"
  type: "Dropout"
  bottom: "loss1/fc"
  top: "loss1/fc"
  dropout_param {
    dropout_ratio: 0.7
  }
}
layer {
  name: "loss1/classifier_plantvillage"
  type: "InnerProduct"
  bottom: "loss1/fc"
  top: "loss1/classifier_plantvillage"
  param {
    lr_mult: 1
    decay_mult: 1
  }
  param {
    lr_mult: 2
    decay_mult: 0
  }
  inner_product_param {
    num_output: 38
    weight_filler {
      type: "xavier"
      std: 0.0009765625
    }
    bias_filler {
      type: "constant"
      value: 0
    }
  }
}
layer {
  name: "inception_4b/1x1"
  type: "Convolution"
  bottom: "inception_4a/output"
  top: "inception_4b/1x1"
  param {
    lr_mult: 1
    decay_mult: 1
  }
  param {
    lr_mult: 2
    decay_mult: 0
  }
  convolution_param {
    num_output: 160
    kernel_size: 1
    weight_filler {
      type: "xavier"
      std: 0.03
    }
    bias_filler {
      type: "constant"
      value: 0.2
    }
  }
}
layer {
  name: "inception_4b/relu_1x1"
  type: "ReLU"
  bottom: "inception_4b/1x1"
  top: "inception_4b/1x1"
}
layer {
  name: "inception_4b/3x3_reduce"
  type: "Convolution"
  bottom: "inception_4a/output"
  top: "inception_4b/3x3_reduce"
  param {
    lr_mult: 1
    decay_mult: 1
  }
  param {
    lr_mult: 2
    decay_mult: 0
  }
  convolution_param {
    num_output: 112
    kernel_size: 1
    weight_filler {
      type: "xavier"
      std: 0.09
    }
    bias_filler {
      type: "constant"
      value: 0.2
    }
  }
}
layer {
  name: "inception_4b/relu_3x3_reduce"
  type: "ReLU"
  bottom: "inception_4b/3x3_reduce"
  top: "inception_4b/3x3_reduce"
}
layer {
  name: "inception_4b/3x3"
  type: "Convolution"
  bottom: "inception_4b/3x3_reduce"
  top: "inception_4b/3x3"
  param {
    lr_mult: 1
    decay_mult: 1
  }
  param {
    lr_mult: 2
    decay_mult: 0
  }
  convolution_param {
    num_output: 224
    pad: 1
    kernel_size: 3
    weight_filler {
      type: "xavier"
      std: 0.03
    }
    bias_filler {
      type: "constant"
      value: 0.2
    }
  }
}
layer {
  name: "inception_4b/relu_3x3"
  type: "ReLU"
  bottom: "inception_4b/3x3"
  top: "inception_4b/3x3"
}
layer {
  name: "inception_4b/5x5_reduce"
  type: "Convolution"
  bottom: "inception_4a/output"
  top: "inception_4b/5x5_reduce"
  param {
    lr_mult: 1
    decay_mult: 1
  }
  param {
    lr_mult: 2
    decay_mult: 0
  }
  convolution_param {
    num_output: 24
    kernel_size: 1
    weight_filler {
      type: "xavier"
      std: 0.2
    }
    bias_filler {
      type: "constant"
      value: 0.2
    }
  }
}
layer {
  name: "inception_4b/relu_5x5_reduce"
  type: "ReLU"
  bottom: "inception_4b/5x5_reduce"
  top: "inception_4b/5x5_reduce"
}
layer {
  name: "inception_4b/5x5"
  type: "Convolution"
  bottom: "inception_4b/5x5_reduce"
  top: "inception_4b/5x5"
  param {
    lr_mult: 1
    decay_mult: 1
  }
  param {
    lr_mult: 2
    decay_mult: 0
  }
  convolution_param {
    num_output: 64
    pad: 2
    kernel_size: 5
    weight_filler {
      type: "xavier"
      std: 0.03
    }
    bias_filler {
      type: "constant"
      value: 0.2
    }
  }
}
layer {
  name: "inception_4b/relu_5x5"
  type: "ReLU"
  bottom: "inception_4b/5x5"
  top: "inception_4b/5x5"
}
layer {
  name: "inception_4b/pool"
  type: "Pooling"
  bottom: "inception_4a/output"
  top: "inception_4b/pool"
  pooling_param {
    pool: MAX
    kernel_size: 3
    stride: 1
    pad: 1
  }
}
layer {
  name: "inception_4b/pool_proj"
  type: "Convolution"
  bottom: "inception_4b/pool"
  top: "inception_4b/pool_proj"
  param {
    lr_mult: 1
    decay_mult: 1
  }
  param {
    lr_mult: 2
    decay_mult: 0
  }
  convolution_param {
    num_output: 64
    kernel_size: 1
    weight_filler {
      type: "xavier"
      std: 0.1
    }
    bias_filler {
      type: "constant"
      value: 0.2
    }
  }
}
layer {
  name: "inception_4b/relu_pool_proj"
  type: "ReLU"
  bottom: "inception_4b/pool_proj"
  top: "inception_4b/pool_proj"
}
layer {
  name: "inception_4b/output"
  type: "Concat"
  bottom: "inception_4b/1x1"
  bottom: "inception_4b/3x3"
  bottom: "inception_4b/5x5"
  bottom: "inception_4b/pool_proj"
  top: "inception_4b/output"
}
layer {
  name: "inception_4c/1x1"
  type: "Convolution"
  bottom: "inception_4b/output"
  top: "inception_4c/1x1"
  param {
    lr_mult: 1
    decay_mult: 1
  }
  param {
    lr_mult: 2
    decay_mult: 0
  }
  convolution_param {
    num_output: 128
    kernel_size: 1
    weight_filler {
      type: "xavier"
      std: 0.03
    }
    bias_filler {
      type: "constant"
      value: 0.2
    }
  }
}
layer {
  name: "inception_4c/relu_1x1"
  type: "ReLU"
  bottom: "inception_4c/1x1"
  top: "inception_4c/1x1"
}
layer {
  name: "inception_4c/3x3_reduce"
  type: "Convolution"
  bottom: "inception_4b/output"
  top: "inception_4c/3x3_reduce"
  param {
    lr_mult: 1
    decay_mult: 1
  }
  param {
    lr_mult: 2
    decay_mult: 0
  }
  convolution_param {
    num_output: 128
    kernel_size: 1
    weight_filler {
      type: "xavier"
      std: 0.09
    }
    bias_filler {
      type: "constant"
      value: 0.2
    }
  }
}
layer {
  name: "inception_4c/relu_3x3_reduce"
  type: "ReLU"
  bottom: "inception_4c/3x3_reduce"
  top: "inception_4c/3x3_reduce"
}
layer {
  name: "inception_4c/3x3"
  type: "Convolution"
  bottom: "inception_4c/3x3_reduce"
  top: "inception_4c/3x3"
  param {
    lr_mult: 1
    decay_mult: 1
  }
  param {
    lr_mult: 2
    decay_mult: 0
  }
  convolution_param {
    num_output: 256
    pad: 1
    kernel_size: 3
    weight_filler {
      type: "xavier"
      std: 0.03
    }
    bias_filler {
      type: "constant"
      value: 0.2
    }
  }
}
layer {
  name: "inception_4c/relu_3x3"
  type: "ReLU"
  bottom: "inception_4c/3x3"
  top: "inception_4c/3x3"
}
layer {
  name: "inception_4c/5x5_reduce"
  type: "Convolution"
  bottom: "inception_4b/output"
  top: "inception_4c/5x5_reduce"
  param {
    lr_mult: 1
    decay_mult: 1
  }
  param {
    lr_mult: 2
    decay_mult: 0
  }
  convolution_param {
    num_output: 24
    kernel_size: 1
    weight_filler {
      type: "xavier"
      std: 0.2
    }
    bias_filler {
      type: "constant"
      value: 0.2
    }
  }
}
layer {
  name: "inception_4c/relu_5x5_reduce"
  type: "ReLU"
  bottom: "inception_4c/5x5_reduce"
  top: "inception_4c/5x5_reduce"
}
layer {
  name: "inception_4c/5x5"
  type: "Convolution"
  bottom: "inception_4c/5x5_reduce"
  top: "inception_4c/5x5"
  param {
    lr_mult: 1
    decay_mult: 1
  }
  param {
    lr_mult: 2
    decay_mult: 0
  }
  convolution_param {
    num_output: 64
    pad: 2
    kernel_size: 5
    weight_filler {
      type: "xavier"
      std: 0.03
    }
    bias_filler {
      type: "constant"
      value: 0.2
    }
  }
}
layer {
  name: "inception_4c/relu_5x5"
  type: "ReLU"
  bottom: "inception_4c/5x5"
  top: "inception_4c/5x5"
}
layer {
  name: "inception_4c/pool"
  type: "Pooling"
  bottom: "inception_4b/output"
  top: "inception_4c/pool"
  pooling_param {
    pool: MAX
    kernel_size: 3
    stride: 1
    pad: 1
  }
}
layer {
  name: "inception_4c/pool_proj"
  type: "Convolution"
  bottom: "inception_4c/pool"
  top: "inception_4c/pool_proj"
  param {
    lr_mult: 1
    decay_mult: 1
  }
  param {
    lr_mult: 2
    decay_mult: 0
  }
  convolution_param {
    num_output: 64
    kernel_size: 1
    weight_filler {
      type: "xavier"
      std: 0.1
    }
    bias_filler {
      type: "constant"
      value: 0.2
    }
  }
}
layer {
  name: "inception_4c/relu_pool_proj"
  type: "ReLU"
  bottom: "inception_4c/pool_proj"
  top: "inception_4c/pool_proj"
}
layer {
  name: "inception_4c/output"
  type: "Concat"
  bottom: "inception_4c/1x1"
  bottom: "inception_4c/3x3"
  bottom: "inception_4c/5x5"
  bottom: "inception_4c/pool_proj"
  top: "inception_4c/output"
}
layer {
  name: "inception_4d/1x1"
  type: "Convolution"
  bottom: "inception_4c/output"
  top: "inception_4d/1x1"
  param {
    lr_mult: 1
    decay_mult: 1
  }
  param {
    lr_mult: 2
    decay_mult: 0
  }
  convolution_param {
    num_output: 112
    kernel_size: 1
    weight_filler {
      type: "xavier"
      std: 0.03
    }
    bias_filler {
      type: "constant"
      value: 0.2
    }
  }
}
layer {
  name: "inception_4d/relu_1x1"
  type: "ReLU"
  bottom: "inception_4d/1x1"
  top: "inception_4d/1x1"
}
layer {
  name: "inception_4d/3x3_reduce"
  type: "Convolution"
  bottom: "inception_4c/output"
  top: "inception_4d/3x3_reduce"
  param {
    lr_mult: 1
    decay_mult: 1
  }
  param {
    lr_mult: 2
    decay_mult: 0
  }
  convolution_param {
    num_output: 144
    kernel_size: 1
    weight_filler {
      type: "xavier"
      std: 0.09
    }
    bias_filler {
      type: "constant"
      value: 0.2
    }
  }
}
layer {
  name: "inception_4d/relu_3x3_reduce"
  type: "ReLU"
  bottom: "inception_4d/3x3_reduce"
  top: "inception_4d/3x3_reduce"
}
layer {
  name: "inception_4d/3x3"
  type: "Convolution"
  bottom: "inception_4d/3x3_reduce"
  top: "inception_4d/3x3"
  param {
    lr_mult: 1
    decay_mult: 1
  }
  param {
    lr_mult: 2
    decay_mult: 0
  }
  convolution_param {
    num_output: 288
    pad: 1
    kernel_size: 3
    weight_filler {
      type: "xavier"
      std: 0.03
    }
    bias_filler {
      type: "constant"
      value: 0.2
    }
  }
}
layer {
  name: "inception_4d/relu_3x3"
  type: "ReLU"
  bottom: "inception_4d/3x3"
  top: "inception_4d/3x3"
}
layer {
  name: "inception_4d/5x5_reduce"
  type: "Convolution"
  bottom: "inception_4c/output"
  top: "inception_4d/5x5_reduce"
  param {
    lr_mult: 1
    decay_mult: 1
  }
  param {
    lr_mult: 2
    decay_mult: 0
  }
  convolution_param {
    num_output: 32
    kernel_size: 1
    weight_filler {
      type: "xavier"
      std: 0.2
    }
    bias_filler {
      type: "constant"
      value: 0.2
    }
  }
}
layer {
  name: "inception_4d/relu_5x5_reduce"
  type: "ReLU"
  bottom: "inception_4d/5x5_reduce"
  top: "inception_4d/5x5_reduce"
}
layer {
  name: "inception_4d/5x5"
  type: "Convolution"
  bottom: "inception_4d/5x5_reduce"
  top: "inception_4d/5x5"
  param {
    lr_mult: 1
    decay_mult: 1
  }
  param {
    lr_mult: 2
    decay_mult: 0
  }
  convolution_param {
    num_output: 64
    pad: 2
    kernel_size: 5
    weight_filler {
      type: "xavier"
      std: 0.03
    }
    bias_filler {
      type: "constant"
      value: 0.2
    }
  }
}
layer {
  name: "inception_4d/relu_5x5"
  type: "ReLU"
  bottom: "inception_4d/5x5"
  top: "inception_4d/5x5"
}
layer {
  name: "inception_4d/pool"
  type: "Pooling"
  bottom: "inception_4c/output"
  top: "inception_4d/pool"
  pooling_param {
    pool: MAX
    kernel_size: 3
    stride: 1
    pad: 1
  }
}
layer {
  name: "inception_4d/pool_proj"
  type: "Convolution"
  bottom: "inception_4d/pool"
  top: "inception_4d/pool_proj"
  param {
    lr_mult: 1
    decay_mult: 1
  }
  param {
    lr_mult: 2
    decay_mult: 0
  }
  convolution_param {
    num_output: 64
    kernel_size: 1
    weight_filler {
      type: "xavier"
      std: 0.1
    }
    bias_filler {
      type: "constant"
      value: 0.2
    }
  }
}
layer {
  name: "inception_4d/relu_pool_proj"
  type: "ReLU"
  bottom: "inception_4d/pool_proj"
  top: "inception_4d/pool_proj"
}
layer {
  name: "inception_4d/output"
  type: "Concat"
  bottom: "inception_4d/1x1"
  bottom: "inception_4d/3x3"
  bottom: "inception_4d/5x5"
  bottom: "inception_4d/pool_proj"
  top: "inception_4d/output"
}
layer {
  name: "loss2/ave_pool"
  type: "Pooling"
  bottom: "inception_4d/output"
  top: "loss2/ave_pool"
  pooling_param {
    pool: AVE
    kernel_size: 5
    stride: 3
  }
}
layer {
  name: "loss2/conv"
  type: "Convolution"
  bottom: "loss2/ave_pool"
  top: "loss2/conv"
  param {
    lr_mult: 1
    decay_mult: 1
  }
  param {
    lr_mult: 2
    decay_mult: 0
  }
  convolution_param {
    num_output: 128
    kernel_size: 1
    weight_filler {
      type: "xavier"
      std: 0.08
    }
    bias_filler {
      type: "constant"
      value: 0.2
    }
  }
}
layer {
  name: "loss2/relu_conv"
  type: "ReLU"
  bottom: "loss2/conv"
  top: "loss2/conv"
}
layer {
  name: "loss2/fc"
  type: "InnerProduct"
  bottom: "loss2/conv"
  top: "loss2/fc"
  param {
    lr_mult: 1
    decay_mult: 1
  }
  param {
    lr_mult: 2
    decay_mult: 0
  }
  inner_product_param {
    num_output: 1024
    weight_filler {
      type: "xavier"
      std: 0.02
    }
    bias_filler {
      type: "constant"
      value: 0.2
    }
  }
}
layer {
  name: "loss2/relu_fc"
  type: "ReLU"
  bottom: "loss2/fc"
  top: "loss2/fc"
}
layer {
  name: "loss2/drop_fc"
  type: "Dropout"
  bottom: "loss2/fc"
  top: "loss2/fc"
  dropout_param {
    dropout_ratio: 0.7
  }
}
layer {
  name: "loss2/classifier_plantvillage"
  type: "InnerProduct"
  bottom: "loss2/fc"
  top: "loss2/classifier_plantvillage"
  param {
    lr_mult: 1
    decay_mult: 1
  }
  param {
    lr_mult: 2
    decay_mult: 0
  }
  inner_product_param {
    num_output: 38
    weight_filler {
      type: "xavier"
      std: 0.0009765625
    }
    bias_filler {
      type: "constant"
      value: 0
    }
  }
}
layer {
  name: "inception_4e/1x1"
  type: "Convolution"
  bottom: "inception_4d/output"
  top: "inception_4e/1x1"
  param {
    lr_mult: 1
    decay_mult: 1
  }
  param {
    lr_mult: 2
    decay_mult: 0
  }
  convolution_param {
    num_output: 256
    kernel_size: 1
    weight_filler {
      type: "xavier"
      std: 0.03
    }
    bias_filler {
      type: "constant"
      value: 0.2
    }
  }
}
layer {
  name: "inception_4e/relu_1x1"
  type: "ReLU"
  bottom: "inception_4e/1x1"
  top: "inception_4e/1x1"
}
layer {
  name: "inception_4e/3x3_reduce"
  type: "Convolution"
  bottom: "inception_4d/output"
  top: "inception_4e/3x3_reduce"
  param {
    lr_mult: 1
    decay_mult: 1
  }
  param {
    lr_mult: 2
    decay_mult: 0
  }
  convolution_param {
    num_output: 160
    kernel_size: 1
    weight_filler {
      type: "xavier"
      std: 0.09
    }
    bias_filler {
      type: "constant"
      value: 0.2
    }
  }
}
layer {
  name: "inception_4e/relu_3x3_reduce"
  type: "ReLU"
  bottom: "inception_4e/3x3_reduce"
  top: "inception_4e/3x3_reduce"
}
layer {
  name: "inception_4e/3x3"
  type: "Convolution"
  bottom: "inception_4e/3x3_reduce"
  top: "inception_4e/3x3"
  param {
    lr_mult: 1
    decay_mult: 1
  }
  param {
    lr_mult: 2
    decay_mult: 0
  }
  convolution_param {
    num_output: 320
    pad: 1
    kernel_size: 3
    weight_filler {
      type: "xavier"
      std: 0.03
    }
    bias_filler {
      type: "constant"
      value: 0.2
    }
  }
}
layer {
  name: "inception_4e/relu_3x3"
  type: "ReLU"
  bottom: "inception_4e/3x3"
  top: "inception_4e/3x3"
}
layer {
  name: "inception_4e/5x5_reduce"
  type: "Convolution"
  bottom: "inception_4d/output"
  top: "inception_4e/5x5_reduce"
  param {
    lr_mult: 1
    decay_mult: 1
  }
  param {
    lr_mult: 2
    decay_mult: 0
  }
  convolution_param {
    num_output: 32
    kernel_size: 1
    weight_filler {
      type: "xavier"
      std: 0.2
    }
    bias_filler {
      type: "constant"
      value: 0.2
    }
  }
}
layer {
  name: "inception_4e/relu_5x5_reduce"
  type: "ReLU"
  bottom: "inception_4e/5x5_reduce"
  top: "inception_4e/5x5_reduce"
}
layer {
  name: "inception_4e/5x5"
  type: "Convolution"
  bottom: "inception_4e/5x5_reduce"
  top: "inception_4e/
I0403 18:31:51.017210 22699 layer_factory.hpp:77] Creating layer data
I0403 18:31:51.017791 22699 net.cpp:91] Creating Layer data
I0403 18:31:51.017820 22699 net.cpp:399] data -> data
I0403 18:31:51.017870 22699 net.cpp:399] data -> label
I0403 18:31:51.017906 22699 data_transformer.cpp:25] Loading mean file from: /home/mohanty/data/final_dataset/lmdb/segmented-40-60/mean.binaryproto
I0403 18:31:51.020840 22701 db_lmdb.cpp:38] Opened lmdb /home/mohanty/data/final_dataset/lmdb/segmented-40-60/test_db
I0403 18:31:51.038492 22699 data_layer.cpp:41] output data size: 24,3,224,224
I0403 18:31:51.065697 22699 net.cpp:141] Setting up data
I0403 18:31:51.065779 22699 net.cpp:148] Top shape: 24 3 224 224 (3612672)
I0403 18:31:51.065800 22699 net.cpp:148] Top shape: 24 (24)
I0403 18:31:51.065815 22699 net.cpp:156] Memory required for data: 14450784
I0403 18:31:51.065840 22699 layer_factory.hpp:77] Creating layer label_data_1_split
I0403 18:31:51.065866 22699 net.cpp:91] Creating Layer label_data_1_split
I0403 18:31:51.065883 22699 net.cpp:425] label_data_1_split <- label
I0403 18:31:51.065914 22699 net.cpp:399] label_data_1_split -> label_data_1_split_0
I0403 18:31:51.065943 22699 net.cpp:399] label_data_1_split -> label_data_1_split_1
I0403 18:31:51.065963 22699 net.cpp:399] label_data_1_split -> label_data_1_split_2
I0403 18:31:51.065982 22699 net.cpp:399] label_data_1_split -> label_data_1_split_3
I0403 18:31:51.066000 22699 net.cpp:399] label_data_1_split -> label_data_1_split_4
I0403 18:31:51.066020 22699 net.cpp:399] label_data_1_split -> label_data_1_split_5
I0403 18:31:51.066037 22699 net.cpp:399] label_data_1_split -> label_data_1_split_6
I0403 18:31:51.066056 22699 net.cpp:399] label_data_1_split -> label_data_1_split_7
I0403 18:31:51.066076 22699 net.cpp:399] label_data_1_split -> label_data_1_split_8
I0403 18:31:51.066094 22699 net.cpp:399] label_data_1_split -> label_data_1_split_9
I0403 18:31:51.066206 22699 net.cpp:141] Setting up label_data_1_split
I0403 18:31:51.066229 22699 net.cpp:148] Top shape: 24 (24)
I0403 18:31:51.066246 22699 net.cpp:148] Top shape: 24 (24)
I0403 18:31:51.066262 22699 net.cpp:148] Top shape: 24 (24)
I0403 18:31:51.066285 22699 net.cpp:148] Top shape: 24 (24)
I0403 18:31:51.066300 22699 net.cpp:148] Top shape: 24 (24)
I0403 18:31:51.066314 22699 net.cpp:148] Top shape: 24 (24)
I0403 18:31:51.066329 22699 net.cpp:148] Top shape: 24 (24)
I0403 18:31:51.066344 22699 net.cpp:148] Top shape: 24 (24)
I0403 18:31:51.066359 22699 net.cpp:148] Top shape: 24 (24)
I0403 18:31:51.066373 22699 net.cpp:148] Top shape: 24 (24)
I0403 18:31:51.066416 22699 net.cpp:156] Memory required for data: 14451744
I0403 18:31:51.066431 22699 layer_factory.hpp:77] Creating layer conv1/7x7_s2
I0403 18:31:51.066462 22699 net.cpp:91] Creating Layer conv1/7x7_s2
I0403 18:31:51.066479 22699 net.cpp:425] conv1/7x7_s2 <- data
I0403 18:31:51.066498 22699 net.cpp:399] conv1/7x7_s2 -> conv1/7x7_s2
I0403 18:31:51.205641 22699 net.cpp:141] Setting up conv1/7x7_s2
I0403 18:31:51.205715 22699 net.cpp:148] Top shape: 24 64 112 112 (19267584)
I0403 18:31:51.205730 22699 net.cpp:156] Memory required for data: 91522080
I0403 18:31:51.205760 22699 layer_factory.hpp:77] Creating layer conv1/relu_7x7
I0403 18:31:51.205785 22699 net.cpp:91] Creating Layer conv1/relu_7x7
I0403 18:31:51.205801 22699 net.cpp:425] conv1/relu_7x7 <- conv1/7x7_s2
I0403 18:31:51.205818 22699 net.cpp:386] conv1/relu_7x7 -> conv1/7x7_s2 (in-place)
I0403 18:31:51.206055 22699 net.cpp:141] Setting up conv1/relu_7x7
I0403 18:31:51.206080 22699 net.cpp:148] Top shape: 24 64 112 112 (19267584)
I0403 18:31:51.206094 22699 net.cpp:156] Memory required for data: 168592416
I0403 18:31:51.206107 22699 layer_factory.hpp:77] Creating layer pool1/3x3_s2
I0403 18:31:51.206130 22699 net.cpp:91] Creating Layer pool1/3x3_s2
I0403 18:31:51.206146 22699 net.cpp:425] pool1/3x3_s2 <- conv1/7x7_s2
I0403 18:31:51.206162 22699 net.cpp:399] pool1/3x3_s2 -> pool1/3x3_s2
I0403 18:31:51.206230 22699 net.cpp:141] Setting up pool1/3x3_s2
I0403 18:31:51.206253 22699 net.cpp:148] Top shape: 24 64 56 56 (4816896)
I0403 18:31:51.206267 22699 net.cpp:156] Memory required for data: 187860000
I0403 18:31:51.206280 22699 layer_factory.hpp:77] Creating layer pool1/norm1
I0403 18:31:51.206302 22699 net.cpp:91] Creating Layer pool1/norm1
I0403 18:31:51.206317 22699 net.cpp:425] pool1/norm1 <- pool1/3x3_s2
I0403 18:31:51.206334 22699 net.cpp:399] pool1/norm1 -> pool1/norm1
I0403 18:31:51.206601 22699 net.cpp:141] Setting up pool1/norm1
I0403 18:31:51.206626 22699 net.cpp:148] Top shape: 24 64 56 56 (4816896)
I0403 18:31:51.206641 22699 net.cpp:156] Memory required for data: 207127584
I0403 18:31:51.206655 22699 layer_factory.hpp:77] Creating layer conv2/3x3_reduce
I0403 18:31:51.206677 22699 net.cpp:91] Creating Layer conv2/3x3_reduce
I0403 18:31:51.206692 22699 net.cpp:425] conv2/3x3_reduce <- pool1/norm1
I0403 18:31:51.206708 22699 net.cpp:399] conv2/3x3_reduce -> conv2/3x3_reduce
I0403 18:31:51.207979 22699 net.cpp:141] Setting up conv2/3x3_reduce
I0403 18:31:51.208006 22699 net.cpp:148] Top shape: 24 64 56 56 (4816896)
I0403 18:31:51.208020 22699 net.cpp:156] Memory required for data: 226395168
I0403 18:31:51.208039 22699 layer_factory.hpp:77] Creating layer conv2/relu_3x3_reduce
I0403 18:31:51.208057 22699 net.cpp:91] Creating Layer conv2/relu_3x3_reduce
I0403 18:31:51.208071 22699 net.cpp:425] conv2/relu_3x3_reduce <- conv2/3x3_reduce
I0403 18:31:51.208087 22699 net.cpp:386] conv2/relu_3x3_reduce -> conv2/3x3_reduce (in-place)
I0403 18:31:51.208340 22699 net.cpp:141] Setting up conv2/relu_3x3_reduce
I0403 18:31:51.208366 22699 net.cpp:148] Top shape: 24 64 56 56 (4816896)
I0403 18:31:51.208380 22699 net.cpp:156] Memory required for data: 245662752
I0403 18:31:51.208395 22699 layer_factory.hpp:77] Creating layer conv2/3x3
I0403 18:31:51.208415 22699 net.cpp:91] Creating Layer conv2/3x3
I0403 18:31:51.208431 22699 net.cpp:425] conv2/3x3 <- conv2/3x3_reduce
I0403 18:31:51.208447 22699 net.cpp:399] conv2/3x3 -> conv2/3x3
I0403 18:31:51.210557 22699 net.cpp:141] Setting up conv2/3x3
I0403 18:31:51.210587 22699 net.cpp:148] Top shape: 24 192 56 56 (14450688)
I0403 18:31:51.210600 22699 net.cpp:156] Memory required for data: 303465504
I0403 18:31:51.210620 22699 layer_factory.hpp:77] Creating layer conv2/relu_3x3
I0403 18:31:51.210638 22699 net.cpp:91] Creating Layer conv2/relu_3x3
I0403 18:31:51.210652 22699 net.cpp:425] conv2/relu_3x3 <- conv2/3x3
I0403 18:31:51.210667 22699 net.cpp:386] conv2/relu_3x3 -> conv2/3x3 (in-place)
I0403 18:31:51.210818 22699 net.cpp:141] Setting up conv2/relu_3x3
I0403 18:31:51.210840 22699 net.cpp:148] Top shape: 24 192 56 56 (14450688)
I0403 18:31:51.210891 22699 net.cpp:156] Memory required for data: 361268256
I0403 18:31:51.210906 22699 layer_factory.hpp:77] Creating layer conv2/norm2
I0403 18:31:51.210923 22699 net.cpp:91] Creating Layer conv2/norm2
I0403 18:31:51.210937 22699 net.cpp:425] conv2/norm2 <- conv2/3x3
I0403 18:31:51.210953 22699 net.cpp:399] conv2/norm2 -> conv2/norm2
I0403 18:31:51.211217 22699 net.cpp:141] Setting up conv2/norm2
I0403 18:31:51.211242 22699 net.cpp:148] Top shape: 24 192 56 56 (14450688)
I0403 18:31:51.211256 22699 net.cpp:156] Memory required for data: 419071008
I0403 18:31:51.211271 22699 layer_factory.hpp:77] Creating layer pool2/3x3_s2
I0403 18:31:51.211287 22699 net.cpp:91] Creating Layer pool2/3x3_s2
I0403 18:31:51.211300 22699 net.cpp:425] pool2/3x3_s2 <- conv2/norm2
I0403 18:31:51.211316 22699 net.cpp:399] pool2/3x3_s2 -> pool2/3x3_s2
I0403 18:31:51.211362 22699 net.cpp:141] Setting up pool2/3x3_s2
I0403 18:31:51.211383 22699 net.cpp:148] Top shape: 24 192 28 28 (3612672)
I0403 18:31:51.211396 22699 net.cpp:156] Memory required for data: 433521696
I0403 18:31:51.211410 22699 layer_factory.hpp:77] Creating layer pool2/3x3_s2_pool2/3x3_s2_0_split
I0403 18:31:51.211426 22699 net.cpp:91] Creating Layer pool2/3x3_s2_pool2/3x3_s2_0_split
I0403 18:31:51.211438 22699 net.cpp:425] pool2/3x3_s2_pool2/3x3_s2_0_split <- pool2/3x3_s2
I0403 18:31:51.211454 22699 net.cpp:399] pool2/3x3_s2_pool2/3x3_s2_0_split -> pool2/3x3_s2_pool2/3x3_s2_0_split_0
I0403 18:31:51.211472 22699 net.cpp:399] pool2/3x3_s2_pool2/3x3_s2_0_split -> pool2/3x3_s2_pool2/3x3_s2_0_split_1
I0403 18:31:51.211489 22699 net.cpp:399] pool2/3x3_s2_pool2/3x3_s2_0_split -> pool2/3x3_s2_pool2/3x3_s2_0_split_2
I0403 18:31:51.211508 22699 net.cpp:399] pool2/3x3_s2_pool2/3x3_s2_0_split -> pool2/3x3_s2_pool2/3x3_s2_0_split_3
I0403 18:31:51.211571 22699 net.cpp:141] Setting up pool2/3x3_s2_pool2/3x3_s2_0_split
I0403 18:31:51.211594 22699 net.cpp:148] Top shape: 24 192 28 28 (3612672)
I0403 18:31:51.211608 22699 net.cpp:148] Top shape: 24 192 28 28 (3612672)
I0403 18:31:51.211622 22699 net.cpp:148] Top shape: 24 192 28 28 (3612672)
I0403 18:31:51.211637 22699 net.cpp:148] Top shape: 24 192 28 28 (3612672)
I0403 18:31:51.211648 22699 net.cpp:156] Memory required for data: 491324448
I0403 18:31:51.211663 22699 layer_factory.hpp:77] Creating layer inception_3a/1x1
I0403 18:31:51.211680 22699 net.cpp:91] Creating Layer inception_3a/1x1
I0403 18:31:51.211695 22699 net.cpp:425] inception_3a/1x1 <- pool2/3x3_s2_pool2/3x3_s2_0_split_0
I0403 18:31:51.211711 22699 net.cpp:399] inception_3a/1x1 -> inception_3a/1x1
I0403 18:31:51.213207 22699 net.cpp:141] Setting up inception_3a/1x1
I0403 18:31:51.213234 22699 net.cpp:148] Top shape: 24 64 28 28 (1204224)
I0403 18:31:51.213249 22699 net.cpp:156] Memory required for data: 496141344
I0403 18:31:51.213268 22699 layer_factory.hpp:77] Creating layer inception_3a/relu_1x1
I0403 18:31:51.213289 22699 net.cpp:91] Creating Layer inception_3a/relu_1x1
I0403 18:31:51.213304 22699 net.cpp:425] inception_3a/relu_1x1 <- inception_3a/1x1
I0403 18:31:51.213320 22699 net.cpp:386] inception_3a/relu_1x1 -> inception_3a/1x1 (in-place)
I0403 18:31:51.213488 22699 net.cpp:141] Setting up inception_3a/relu_1x1
I0403 18:31:51.213515 22699 net.cpp:148] Top shape: 24 64 28 28 (1204224)
I0403 18:31:51.213529 22699 net.cpp:156] Memory required for data: 500958240
I0403 18:31:51.213548 22699 layer_factory.hpp:77] Creating layer inception_3a/3x3_reduce
I0403 18:31:51.213570 22699 net.cpp:91] Creating Layer inception_3a/3x3_reduce
I0403 18:31:51.213587 22699 net.cpp:425] inception_3a/3x3_reduce <- pool2/3x3_s2_pool2/3x3_s2_0_split_1
I0403 18:31:51.213604 22699 net.cpp:399] inception_3a/3x3_reduce -> inception_3a/3x3_reduce
I0403 18:31:51.215262 22699 net.cpp:141] Setting up inception_3a/3x3_reduce
I0403 18:31:51.215291 22699 net.cpp:148] Top shape: 24 96 28 28 (1806336)
I0403 18:31:51.215306 22699 net.cpp:156] Memory required for data: 508183584
I0403 18:31:51.215327 22699 layer_factory.hpp:77] Creating layer inception_3a/relu_3x3_reduce
I0403 18:31:51.215361 22699 net.cpp:91] Creating Layer inception_3a/relu_3x3_reduce
I0403 18:31:51.215379 22699 net.cpp:425] inception_3a/relu_3x3_reduce <- inception_3a/3x3_reduce
I0403 18:31:51.215399 22699 net.cpp:386] inception_3a/relu_3x3_reduce -> inception_3a/3x3_reduce (in-place)
I0403 18:31:51.215575 22699 net.cpp:141] Setting up inception_3a/relu_3x3_reduce
I0403 18:31:51.215600 22699 net.cpp:148] Top shape: 24 96 28 28 (1806336)
I0403 18:31:51.215613 22699 net.cpp:156] Memory required for data: 515408928
I0403 18:31:51.215627 22699 layer_factory.hpp:77] Creating layer inception_3a/3x3
I0403 18:31:51.215649 22699 net.cpp:91] Creating Layer inception_3a/3x3
I0403 18:31:51.215665 22699 net.cpp:425] inception_3a/3x3 <- inception_3a/3x3_reduce
I0403 18:31:51.215687 22699 net.cpp:399] inception_3a/3x3 -> inception_3a/3x3
I0403 18:31:51.217268 22699 net.cpp:141] Setting up inception_3a/3x3
I0403 18:31:51.217298 22699 net.cpp:148] Top shape: 24 128 28 28 (2408448)
I0403 18:31:51.217314 22699 net.cpp:156] Memory required for data: 525042720
I0403 18:31:51.217331 22699 layer_factory.hpp:77] Creating layer inception_3a/relu_3x3
I0403 18:31:51.217349 22699 net.cpp:91] Creating Layer inception_3a/relu_3x3
I0403 18:31:51.217363 22699 net.cpp:425] inception_3a/relu_3x3 <- inception_3a/3x3
I0403 18:31:51.217380 22699 net.cpp:386] inception_3a/relu_3x3 -> inception_3a/3x3 (in-place)
I0403 18:31:51.217648 22699 net.cpp:141] Setting up inception_3a/relu_3x3
I0403 18:31:51.217675 22699 net.cpp:148] Top shape: 24 128 28 28 (2408448)
I0403 18:31:51.217690 22699 net.cpp:156] Memory required for data: 534676512
I0403 18:31:51.217705 22699 layer_factory.hpp:77] Creating layer inception_3a/5x5_reduce
I0403 18:31:51.217723 22699 net.cpp:91] Creating Layer inception_3a/5x5_reduce
I0403 18:31:51.217738 22699 net.cpp:425] inception_3a/5x5_reduce <- pool2/3x3_s2_pool2/3x3_s2_0_split_2
I0403 18:31:51.217758 22699 net.cpp:399] inception_3a/5x5_reduce -> inception_3a/5x5_reduce
I0403 18:31:51.218684 22699 net.cpp:141] Setting up inception_3a/5x5_reduce
I0403 18:31:51.218713 22699 net.cpp:148] Top shape: 24 16 28 28 (301056)
I0403 18:31:51.218729 22699 net.cpp:156] Memory required for data: 535880736
I0403 18:31:51.218745 22699 layer_factory.hpp:77] Creating layer inception_3a/relu_5x5_reduce
I0403 18:31:51.218761 22699 net.cpp:91] Creating Layer inception_3a/relu_5x5_reduce
I0403 18:31:51.218776 22699 net.cpp:425] inception_3a/relu_5x5_reduce <- inception_3a/5x5_reduce
I0403 18:31:51.218792 22699 net.cpp:386] inception_3a/relu_5x5_reduce -> inception_3a/5x5_reduce (in-place)
I0403 18:31:51.219074 22699 net.cpp:141] Setting up inception_3a/relu_5x5_reduce
I0403 18:31:51.219099 22699 net.cpp:148] Top shape: 24 16 28 28 (301056)
I0403 18:31:51.219113 22699 net.cpp:156] Memory required for data: 537084960
I0403 18:31:51.219126 22699 layer_factory.hpp:77] Creating layer inception_3a/5x5
I0403 18:31:51.219148 22699 net.cpp:91] Creating Layer inception_3a/5x5
I0403 18:31:51.219164 22699 net.cpp:425] inception_3a/5x5 <- inception_3a/5x5_reduce
I0403 18:31:51.219184 22699 net.cpp:399] inception_3a/5x5 -> inception_3a/5x5
I0403 18:31:51.220165 22699 net.cpp:141] Setting up inception_3a/5x5
I0403 18:31:51.220191 22699 net.cpp:148] Top shape: 24 32 28 28 (602112)
I0403 18:31:51.220206 22699 net.cpp:156] Memory required for data: 539493408
I0403 18:31:51.220222 22699 layer_factory.hpp:77] Creating layer inception_3a/relu_5x5
I0403 18:31:51.220242 22699 net.cpp:91] Creating Layer inception_3a/relu_5x5
I0403 18:31:51.220260 22699 net.cpp:425] inception_3a/relu_5x5 <- inception_3a/5x5
I0403 18:31:51.220276 22699 net.cpp:386] inception_3a/relu_5x5 -> inception_3a/5x5 (in-place)
I0403 18:31:51.220439 22699 net.cpp:141] Setting up inception_3a/relu_5x5
I0403 18:31:51.220466 22699 net.cpp:148] Top shape: 24 32 28 28 (602112)
I0403 18:31:51.220480 22699 net.cpp:156] Memory required for data: 541901856
I0403 18:31:51.220494 22699 layer_factory.hpp:77] Creating layer inception_3a/pool
I0403 18:31:51.220511 22699 net.cpp:91] Creating Layer inception_3a/pool
I0403 18:31:51.220543 22699 net.cpp:425] inception_3a/pool <- pool2/3x3_s2_pool2/3x3_s2_0_split_3
I0403 18:31:51.220566 22699 net.cpp:399] inception_3a/pool -> inception_3a/pool
I0403 18:31:51.220621 22699 net.cpp:141] Setting up inception_3a/pool
I0403 18:31:51.220644 22699 net.cpp:148] Top shape: 24 192 28 28 (3612672)
I0403 18:31:51.220659 22699 net.cpp:156] Memory required for data: 556352544
I0403 18:31:51.220671 22699 layer_factory.hpp:77] Creating layer inception_3a/pool_proj
I0403 18:31:51.220692 22699 net.cpp:91] Creating Layer inception_3a/pool_proj
I0403 18:31:51.220706 22699 net.cpp:425] inception_3a/pool_proj <- inception_3a/pool
I0403 18:31:51.220728 22699 net.cpp:399] inception_3a/pool_proj -> inception_3a/pool_proj
I0403 18:31:51.221650 22699 net.cpp:141] Setting up inception_3a/pool_proj
I0403 18:31:51.221678 22699 net.cpp:148] Top shape: 24 32 28 28 (602112)
I0403 18:31:51.221691 22699 net.cpp:156] Memory required for data: 558760992
I0403 18:31:51.221714 22699 layer_factory.hpp:77] Creating layer inception_3a/relu_pool_proj
I0403 18:31:51.221732 22699 net.cpp:91] Creating Layer inception_3a/relu_pool_proj
I0403 18:31:51.221747 22699 net.cpp:425] inception_3a/relu_pool_proj <- inception_3a/pool_proj
I0403 18:31:51.221762 22699 net.cpp:386] inception_3a/relu_pool_proj -> inception_3a/pool_proj (in-place)
I0403 18:31:51.222025 22699 net.cpp:141] Setting up inception_3a/relu_pool_proj
I0403 18:31:51.222054 22699 net.cpp:148] Top shape: 24 32 28 28 (602112)
I0403 18:31:51.222069 22699 net.cpp:156] Memory required for data: 561169440
I0403 18:31:51.222084 22699 layer_factory.hpp:77] Creating layer inception_3a/output
I0403 18:31:51.222100 22699 net.cpp:91] Creating Layer inception_3a/output
I0403 18:31:51.222115 22699 net.cpp:425] inception_3a/output <- inception_3a/1x1
I0403 18:31:51.222129 22699 net.cpp:425] inception_3a/output <- inception_3a/3x3
I0403 18:31:51.222144 22699 net.cpp:425] inception_3a/output <- inception_3a/5x5
I0403 18:31:51.222158 22699 net.cpp:425] inception_3a/output <- inception_3a/pool_proj
I0403 18:31:51.222174 22699 net.cpp:399] inception_3a/output -> inception_3a/output
I0403 18:31:51.222220 22699 net.cpp:141] Setting up inception_3a/output
I0403 18:31:51.222241 22699 net.cpp:148] Top shape: 24 256 28 28 (4816896)
I0403 18:31:51.222255 22699 net.cpp:156] Memory required for data: 580437024
I0403 18:31:51.222270 22699 layer_factory.hpp:77] Creating layer inception_3a/output_inception_3a/output_0_split
I0403 18:31:51.222285 22699 net.cpp:91] Creating Layer inception_3a/output_inception_3a/output_0_split
I0403 18:31:51.222300 22699 net.cpp:425] inception_3a/output_inception_3a/output_0_split <- inception_3a/output
I0403 18:31:51.222318 22699 net.cpp:399] inception_3a/output_inception_3a/output_0_split -> inception_3a/output_inception_3a/output_0_split_0
I0403 18:31:51.222338 22699 net.cpp:399] inception_3a/output_inception_3a/output_0_split -> inception_3a/output_inception_3a/output_0_split_1
I0403 18:31:51.222365 22699 net.cpp:399] inception_3a/output_inception_3a/output_0_split -> inception_3a/output_inception_3a/output_0_split_2
I0403 18:31:51.222386 22699 net.cpp:399] inception_3a/output_inception_3a/output_0_split -> inception_3a/output_inception_3a/output_0_split_3
I0403 18:31:51.222458 22699 net.cpp:141] Setting up inception_3a/output_inception_3a/output_0_split
I0403 18:31:51.222481 22699 net.cpp:148] Top shape: 24 256 28 28 (4816896)
I0403 18:31:51.222496 22699 net.cpp:148] Top shape: 24 256 28 28 (4816896)
I0403 18:31:51.222512 22699 net.cpp:148] Top shape: 24 256 28 28 (4816896)
I0403 18:31:51.222525 22699 net.cpp:148] Top shape: 24 256 28 28 (4816896)
I0403 18:31:51.222543 22699 net.cpp:156] Memory required for data: 657507360
I0403 18:31:51.222556 22699 layer_factory.hpp:77] Creating layer inception_3b/1x1
I0403 18:31:51.222578 22699 net.cpp:91] Creating Layer inception_3b/1x1
I0403 18:31:51.222594 22699 net.cpp:425] inception_3b/1x1 <- inception_3a/output_inception_3a/output_0_split_0
I0403 18:31:51.222614 22699 net.cpp:399] inception_3b/1x1 -> inception_3b/1x1
I0403 18:31:51.223722 22699 net.cpp:141] Setting up inception_3b/1x1
I0403 18:31:51.223759 22699 net.cpp:148] Top shape: 24 128 28 28 (2408448)
I0403 18:31:51.223774 22699 net.cpp:156] Memory required for data: 667141152
I0403 18:31:51.223791 22699 layer_factory.hpp:77] Creating layer inception_3b/relu_1x1
I0403 18:31:51.223810 22699 net.cpp:91] Creating Layer inception_3b/relu_1x1
I0403 18:31:51.223826 22699 net.cpp:425] inception_3b/relu_1x1 <- inception_3b/1x1
I0403 18:31:51.223842 22699 net.cpp:386] inception_3b/relu_1x1 -> inception_3b/1x1 (in-place)
I0403 18:31:51.224006 22699 net.cpp:141] Setting up inception_3b/relu_1x1
I0403 18:31:51.224033 22699 net.cpp:148] Top shape: 24 128 28 28 (2408448)
I0403 18:31:51.224047 22699 net.cpp:156] Memory required for data: 676774944
I0403 18:31:51.224061 22699 layer_factory.hpp:77] Creating layer inception_3b/3x3_reduce
I0403 18:31:51.224082 22699 net.cpp:91] Creating Layer inception_3b/3x3_reduce
I0403 18:31:51.224098 22699 net.cpp:425] inception_3b/3x3_reduce <- inception_3a/output_inception_3a/output_0_split_1
I0403 18:31:51.224117 22699 net.cpp:399] inception_3b/3x3_reduce -> inception_3b/3x3_reduce
I0403 18:31:51.225224 22699 net.cpp:141] Setting up inception_3b/3x3_reduce
I0403 18:31:51.225251 22699 net.cpp:148] Top shape: 24 128 28 28 (2408448)
I0403 18:31:51.225267 22699 net.cpp:156] Memory required for data: 686408736
I0403 18:31:51.225284 22699 layer_factory.hpp:77] Creating layer inception_3b/relu_3x3_reduce
I0403 18:31:51.225303 22699 net.cpp:91] Creating Layer inception_3b/relu_3x3_reduce
I0403 18:31:51.225319 22699 net.cpp:425] inception_3b/relu_3x3_reduce <- inception_3b/3x3_reduce
I0403 18:31:51.225335 22699 net.cpp:386] inception_3b/relu_3x3_reduce -> inception_3b/3x3_reduce (in-place)
I0403 18:31:51.225499 22699 net.cpp:141] Setting up inception_3b/relu_3x3_reduce
I0403 18:31:51.225523 22699 net.cpp:148] Top shape: 24 128 28 28 (2408448)
I0403 18:31:51.225540 22699 net.cpp:156] Memory required for data: 696042528
I0403 18:31:51.225556 22699 layer_factory.hpp:77] Creating layer inception_3b/3x3
I0403 18:31:51.225581 22699 net.cpp:91] Creating Layer inception_3b/3x3
I0403 18:31:51.225599 22699 net.cpp:425] inception_3b/3x3 <- inception_3b/3x3_reduce
I0403 18:31:51.225621 22699 net.cpp:399] inception_3b/3x3 -> inception_3b/3x3
I0403 18:31:51.228459 22699 net.cpp:141] Setting up inception_3b/3x3
I0403 18:31:51.228489 22699 net.cpp:148] Top shape: 24 192 28 28 (3612672)
I0403 18:31:51.228505 22699 net.cpp:156] Memory required for data: 710493216
I0403 18:31:51.228523 22699 layer_factory.hpp:77] Creating layer inception_3b/relu_3x3
I0403 18:31:51.228543 22699 net.cpp:91] Creating Layer inception_3b/relu_3x3
I0403 18:31:51.228560 22699 net.cpp:425] inception_3b/relu_3x3 <- inception_3b/3x3
I0403 18:31:51.228576 22699 net.cpp:386] inception_3b/relu_3x3 -> inception_3b/3x3 (in-place)
I0403 18:31:51.228842 22699 net.cpp:141] Setting up inception_3b/relu_3x3
I0403 18:31:51.228869 22699 net.cpp:148] Top shape: 24 192 28 28 (3612672)
I0403 18:31:51.228885 22699 net.cpp:156] Memory required for data: 724943904
I0403 18:31:51.228899 22699 layer_factory.hpp:77] Creating layer inception_3b/5x5_reduce
I0403 18:31:51.228919 22699 net.cpp:91] Creating Layer inception_3b/5x5_reduce
I0403 18:31:51.228935 22699 net.cpp:425] inception_3b/5x5_reduce <- inception_3a/output_inception_3a/output_0_split_2
I0403 18:31:51.228955 22699 net.cpp:399] inception_3b/5x5_reduce -> inception_3b/5x5_reduce
I0403 18:31:51.229904 22699 net.cpp:141] Setting up inception_3b/5x5_reduce
I0403 18:31:51.229931 22699 net.cpp:148] Top shape: 24 32 28 28 (602112)
I0403 18:31:51.229945 22699 net.cpp:156] Memory required for data: 727352352
I0403 18:31:51.229962 22699 layer_factory.hpp:77] Creating layer inception_3b/relu_5x5_reduce
I0403 18:31:51.229982 22699 net.cpp:91] Creating Layer inception_3b/relu_5x5_reduce
I0403 18:31:51.229997 22699 net.cpp:425] inception_3b/relu_5x5_reduce <- inception_3b/5x5_reduce
I0403 18:31:51.230013 22699 net.cpp:386] inception_3b/relu_5x5_reduce -> inception_3b/5x5_reduce (in-place)
I0403 18:31:51.230200 22699 net.cpp:141] Setting up inception_3b/relu_5x5_reduce
I0403 18:31:51.230226 22699 net.cpp:148] Top shape: 24 32 28 28 (602112)
I0403 18:31:51.230240 22699 net.cpp:156] Memory required for data: 729760800
I0403 18:31:51.230253 22699 layer_factory.hpp:77] Creating layer inception_3b/5x5
I0403 18:31:51.230275 22699 net.cpp:91] Creating Layer inception_3b/5x5
I0403 18:31:51.230291 22699 net.cpp:425] inception_3b/5x5 <- inception_3b/5x5_reduce
I0403 18:31:51.230309 22699 net.cpp:399] inception_3b/5x5 -> inception_3b/5x5
I0403 18:31:51.232234 22699 net.cpp:141] Setting up inception_3b/5x5
I0403 18:31:51.232270 22699 net.cpp:148] Top shape: 24 96 28 28 (1806336)
I0403 18:31:51.232285 22699 net.cpp:156] Memory required for data: 736986144
I0403 18:31:51.232301 22699 layer_factory.hpp:77] Creating layer inception_3b/relu_5x5
I0403 18:31:51.232329 22699 net.cpp:91] Creating Layer inception_3b/relu_5x5
I0403 18:31:51.232344 22699 net.cpp:425] inception_3b/relu_5x5 <- inception_3b/5x5
I0403 18:31:51.232362 22699 net.cpp:386] inception_3b/relu_5x5 -> inception_3b/5x5 (in-place)
I0403 18:31:51.232548 22699 net.cpp:141] Setting up inception_3b/relu_5x5
I0403 18:31:51.232573 22699 net.cpp:148] Top shape: 24 96 28 28 (1806336)
I0403 18:31:51.232585 22699 net.cpp:156] Memory required for data: 744211488
I0403 18:31:51.232599 22699 layer_factory.hpp:77] Creating layer inception_3b/pool
I0403 18:31:51.232625 22699 net.cpp:91] Creating Layer inception_3b/pool
I0403 18:31:51.232638 22699 net.cpp:425] inception_3b/pool <- inception_3a/output_inception_3a/output_0_split_3
I0403 18:31:51.232655 22699 net.cpp:399] inception_3b/pool -> inception_3b/pool
I0403 18:31:51.232707 22699 net.cpp:141] Setting up inception_3b/pool
I0403 18:31:51.232728 22699 net.cpp:148] Top shape: 24 256 28 28 (4816896)
I0403 18:31:51.232741 22699 net.cpp:156] Memory required for data: 763479072
I0403 18:31:51.232755 22699 layer_factory.hpp:77] Creating layer inception_3b/pool_proj
I0403 18:31:51.232775 22699 net.cpp:91] Creating Layer inception_3b/pool_proj
I0403 18:31:51.232790 22699 net.cpp:425] inception_3b/pool_proj <- inception_3b/pool
I0403 18:31:51.232810 22699 net.cpp:399] inception_3b/pool_proj -> inception_3b/pool_proj
I0403 18:31:51.233800 22699 net.cpp:141] Setting up inception_3b/pool_proj
I0403 18:31:51.233829 22699 net.cpp:148] Top shape: 24 64 28 28 (1204224)
I0403 18:31:51.233844 22699 net.cpp:156] Memory required for data: 768295968
I0403 18:31:51.233860 22699 layer_factory.hpp:77] Creating layer inception_3b/relu_pool_proj
I0403 18:31:51.233876 22699 net.cpp:91] Creating Layer inception_3b/relu_pool_proj
I0403 18:31:51.233891 22699 net.cpp:425] inception_3b/relu_pool_proj <- inception_3b/pool_proj
I0403 18:31:51.233908 22699 net.cpp:386] inception_3b/relu_pool_proj -> inception_3b/pool_proj (in-place)
I0403 18:31:51.234275 22699 net.cpp:141] Setting up inception_3b/relu_pool_proj
I0403 18:31:51.234302 22699 net.cpp:148] Top shape: 24 64 28 28 (1204224)
I0403 18:31:51.234316 22699 net.cpp:156] Memory required for data: 773112864
I0403 18:31:51.234330 22699 layer_factory.hpp:77] Creating layer inception_3b/output
I0403 18:31:51.234347 22699 net.cpp:91] Creating Layer inception_3b/output
I0403 18:31:51.234361 22699 net.cpp:425] inception_3b/output <- inception_3b/1x1
I0403 18:31:51.234376 22699 net.cpp:425] inception_3b/output <- inception_3b/3x3
I0403 18:31:51.234391 22699 net.cpp:425] inception_3b/output <- inception_3b/5x5
I0403 18:31:51.234406 22699 net.cpp:425] inception_3b/output <- inception_3b/pool_proj
I0403 18:31:51.234421 22699 net.cpp:399] inception_3b/output -> inception_3b/output
I0403 18:31:51.234463 22699 net.cpp:141] Setting up inception_3b/output
I0403 18:31:51.234484 22699 net.cpp:148] Top shape: 24 480 28 28 (9031680)
I0403 18:31:51.234498 22699 net.cpp:156] Memory required for data: 809239584
I0403 18:31:51.234510 22699 layer_factory.hpp:77] Creating layer pool3/3x3_s2
I0403 18:31:51.234529 22699 net.cpp:91] Creating Layer pool3/3x3_s2
I0403 18:31:51.234554 22699 net.cpp:425] pool3/3x3_s2 <- inception_3b/output
I0403 18:31:51.234586 22699 net.cpp:399] pool3/3x3_s2 -> pool3/3x3_s2
I0403 18:31:51.234642 22699 net.cpp:141] Setting up pool3/3x3_s2
I0403 18:31:51.234664 22699 net.cpp:148] Top shape: 24 480 14 14 (2257920)
I0403 18:31:51.234678 22699 net.cpp:156] Memory required for data: 818271264
I0403 18:31:51.234691 22699 layer_factory.hpp:77] Creating layer pool3/3x3_s2_pool3/3x3_s2_0_split
I0403 18:31:51.234706 22699 net.cpp:91] Creating Layer pool3/3x3_s2_pool3/3x3_s2_0_split
I0403 18:31:51.234719 22699 net.cpp:425] pool3/3x3_s2_pool3/3x3_s2_0_split <- pool3/3x3_s2
I0403 18:31:51.234737 22699 net.cpp:399] pool3/3x3_s2_pool3/3x3_s2_0_split -> pool3/3x3_s2_pool3/3x3_s2_0_split_0
I0403 18:31:51.234756 22699 net.cpp:399] pool3/3x3_s2_pool3/3x3_s2_0_split -> pool3/3x3_s2_pool3/3x3_s2_0_split_1
I0403 18:31:51.234774 22699 net.cpp:399] pool3/3x3_s2_pool3/3x3_s2_0_split -> pool3/3x3_s2_pool3/3x3_s2_0_split_2
I0403 18:31:51.234792 22699 net.cpp:399] pool3/3x3_s2_pool3/3x3_s2_0_split -> pool3/3x3_s2_pool3/3x3_s2_0_split_3
I0403 18:31:51.234864 22699 net.cpp:141] Setting up pool3/3x3_s2_pool3/3x3_s2_0_split
I0403 18:31:51.234889 22699 net.cpp:148] Top shape: 24 480 14 14 (2257920)
I0403 18:31:51.234905 22699 net.cpp:148] Top shape: 24 480 14 14 (2257920)
I0403 18:31:51.234918 22699 net.cpp:148] Top shape: 24 480 14 14 (2257920)
I0403 18:31:51.234932 22699 net.cpp:148] Top shape: 24 480 14 14 (2257920)
I0403 18:31:51.234946 22699 net.cpp:156] Memory required for data: 854397984
I0403 18:31:51.234958 22699 layer_factory.hpp:77] Creating layer inception_4a/1x1
I0403 18:31:51.234978 22699 net.cpp:91] Creating Layer inception_4a/1x1
I0403 18:31:51.234993 22699 net.cpp:425] inception_4a/1x1 <- pool3/3x3_s2_pool3/3x3_s2_0_split_0
I0403 18:31:51.235011 22699 net.cpp:399] inception_4a/1x1 -> inception_4a/1x1
I0403 18:31:51.236490 22699 net.cpp:141] Setting up inception_4a/1x1
I0403 18:31:51.236515 22699 net.cpp:148] Top shape: 24 192 14 14 (903168)
I0403 18:31:51.236528 22699 net.cpp:156] Memory required for data: 858010656
I0403 18:31:51.236551 22699 layer_factory.hpp:77] Creating layer inception_4a/relu_1x1
I0403 18:31:51.236568 22699 net.cpp:91] Creating Layer inception_4a/relu_1x1
I0403 18:31:51.236591 22699 net.cpp:425] inception_4a/relu_1x1 <- inception_4a/1x1
I0403 18:31:51.236609 22699 net.cpp:386] inception_4a/relu_1x1 -> inception_4a/1x1 (in-place)
I0403 18:31:51.236776 22699 net.cpp:141] Setting up inception_4a/relu_1x1
I0403 18:31:51.236800 22699 net.cpp:148] Top shape: 24 192 14 14 (903168)
I0403 18:31:51.236814 22699 net.cpp:156] Memory required for data: 861623328
I0403 18:31:51.236827 22699 layer_factory.hpp:77] Creating layer inception_4a/3x3_reduce
I0403 18:31:51.236847 22699 net.cpp:91] Creating Layer inception_4a/3x3_reduce
I0403 18:31:51.236863 22699 net.cpp:425] inception_4a/3x3_reduce <- pool3/3x3_s2_pool3/3x3_s2_0_split_1
I0403 18:31:51.236882 22699 net.cpp:399] inception_4a/3x3_reduce -> inception_4a/3x3_reduce
I0403 18:31:51.238075 22699 net.cpp:141] Setting up inception_4a/3x3_reduce
I0403 18:31:51.238101 22699 net.cpp:148] Top shape: 24 96 14 14 (451584)
I0403 18:31:51.238114 22699 net.cpp:156] Memory required for data: 863429664
I0403 18:31:51.238137 22699 layer_factory.hpp:77] Creating layer inception_4a/relu_3x3_reduce
I0403 18:31:51.238155 22699 net.cpp:91] Creating Layer inception_4a/relu_3x3_reduce
I0403 18:31:51.238169 22699 net.cpp:425] inception_4a/relu_3x3_reduce <- inception_4a/3x3_reduce
I0403 18:31:51.238188 22699 net.cpp:386] inception_4a/relu_3x3_reduce -> inception_4a/3x3_reduce (in-place)
I0403 18:31:51.238350 22699 net.cpp:141] Setting up inception_4a/relu_3x3_reduce
I0403 18:31:51.238374 22699 net.cpp:148] Top shape: 24 96 14 14 (451584)
I0403 18:31:51.238387 22699 net.cpp:156] Memory required for data: 865236000
I0403 18:31:51.238401 22699 layer_factory.hpp:77] Creating layer inception_4a/3x3
I0403 18:31:51.238421 22699 net.cpp:91] Creating Layer inception_4a/3x3
I0403 18:31:51.238437 22699 net.cpp:425] inception_4a/3x3 <- inception_4a/3x3_reduce
I0403 18:31:51.238456 22699 net.cpp:399] inception_4a/3x3 -> inception_4a/3x3
I0403 18:31:51.241042 22699 net.cpp:141] Setting up inception_4a/3x3
I0403 18:31:51.241070 22699 net.cpp:148] Top shape: 24 208 14 14 (978432)
I0403 18:31:51.241085 22699 net.cpp:156] Memory required for data: 869149728
I0403 18:31:51.241101 22699 layer_factory.hpp:77] Creating layer inception_4a/relu_3x3
I0403 18:31:51.241119 22699 net.cpp:91] Creating Layer inception_4a/relu_3x3
I0403 18:31:51.241135 22699 net.cpp:425] inception_4a/relu_3x3 <- inception_4a/3x3
I0403 18:31:51.241152 22699 net.cpp:386] inception_4a/relu_3x3 -> inception_4a/3x3 (in-place)
I0403 18:31:51.241412 22699 net.cpp:141] Setting up inception_4a/relu_3x3
I0403 18:31:51.241437 22699 net.cpp:148] Top shape: 24 208 14 14 (978432)
I0403 18:31:51.241451 22699 net.cpp:156] Memory required for data: 873063456
I0403 18:31:51.241464 22699 layer_factory.hpp:77] Creating layer inception_4a/5x5_reduce
I0403 18:31:51.241485 22699 net.cpp:91] Creating Layer inception_4a/5x5_reduce
I0403 18:31:51.241502 22699 net.cpp:425] inception_4a/5x5_reduce <- pool3/3x3_s2_pool3/3x3_s2_0_split_2
I0403 18:31:51.241521 22699 net.cpp:399] inception_4a/5x5_reduce -> inception_4a/5x5_reduce
I0403 18:31:51.242486 22699 net.cpp:141] Setting up inception_4a/5x5_reduce
I0403 18:31:51.242512 22699 net.cpp:148] Top shape: 24 16 14 14 (75264)
I0403 18:31:51.242527 22699 net.cpp:156] Memory required for data: 873364512
I0403 18:31:51.242547 22699 layer_factory.hpp:77] Creating layer inception_4a/relu_5x5_reduce
I0403 18:31:51.242568 22699 net.cpp:91] Creating Layer inception_4a/relu_5x5_reduce
I0403 18:31:51.242583 22699 net.cpp:425] inception_4a/relu_5x5_reduce <- inception_4a/5x5_reduce
I0403 18:31:51.242599 22699 net.cpp:386] inception_4a/relu_5x5_reduce -> inception_4a/5x5_reduce (in-place)
I0403 18:31:51.242764 22699 net.cpp:141] Setting up inception_4a/relu_5x5_reduce
I0403 18:31:51.242789 22699 net.cpp:148] Top shape: 24 16 14 14 (75264)
I0403 18:31:51.242804 22699 net.cpp:156] Memory required for data: 873665568
I0403 18:31:51.242817 22699 layer_factory.hpp:77] Creating layer inception_4a/5x5
I0403 18:31:51.242837 22699 net.cpp:91] Creating Layer inception_4a/5x5
I0403 18:31:51.242853 22699 net.cpp:425] inception_4a/5x5 <- inception_4a/5x5_reduce
I0403 18:31:51.242871 22699 net.cpp:399] inception_4a/5x5 -> inception_4a/5x5
I0403 18:31:51.243885 22699 net.cpp:141] Setting up inception_4a/5x5
I0403 18:31:51.243916 22699 net.cpp:148] Top shape: 24 48 14 14 (225792)
I0403 18:31:51.243932 22699 net.cpp:156] Memory required for data: 874568736
I0403 18:31:51.243947 22699 layer_factory.hpp:77] Creating layer inception_4a/relu_5x5
I0403 18:31:51.243965 22699 net.cpp:91] Creating Layer inception_4a/relu_5x5
I0403 18:31:51.243979 22699 net.cpp:425] inception_4a/relu_5x5 <- inception_4a/5x5
I0403 18:31:51.243998 22699 net.cpp:386] inception_4a/relu_5x5 -> inception_4a/5x5 (in-place)
I0403 18:31:51.244165 22699 net.cpp:141] Setting up inception_4a/relu_5x5
I0403 18:31:51.244189 22699 net.cpp:148] Top shape: 24 48 14 14 (225792)
I0403 18:31:51.244201 22699 net.cpp:156] Memory required for data: 875471904
I0403 18:31:51.244215 22699 layer_factory.hpp:77] Creating layer inception_4a/pool
I0403 18:31:51.244230 22699 net.cpp:91] Creating Layer inception_4a/pool
I0403 18:31:51.244247 22699 net.cpp:425] inception_4a/pool <- pool3/3x3_s2_pool3/3x3_s2_0_split_3
I0403 18:31:51.244266 22699 net.cpp:399] inception_4a/pool -> inception_4a/pool
I0403 18:31:51.244323 22699 net.cpp:141] Setting up inception_4a/pool
I0403 18:31:51.244345 22699 net.cpp:148] Top shape: 24 480 14 14 (2257920)
I0403 18:31:51.244359 22699 net.cpp:156] Memory required for data: 884503584
I0403 18:31:51.244372 22699 layer_factory.hpp:77] Creating layer inception_4a/pool_proj
I0403 18:31:51.244391 22699 net.cpp:91] Creating Layer inception_4a/pool_proj
I0403 18:31:51.244407 22699 net.cpp:425] inception_4a/pool_proj <- inception_4a/pool
I0403 18:31:51.244426 22699 net.cpp:399] inception_4a/pool_proj -> inception_4a/pool_proj
I0403 18:31:51.245609 22699 net.cpp:141] Setting up inception_4a/pool_proj
I0403 18:31:51.245636 22699 net.cpp:148] Top shape: 24 64 14 14 (301056)
I0403 18:31:51.245666 22699 net.cpp:156] Memory required for data: 885707808
I0403 18:31:51.245684 22699 layer_factory.hpp:77] Creating layer inception_4a/relu_pool_proj
I0403 18:31:51.245702 22699 net.cpp:91] Creating Layer inception_4a/relu_pool_proj
I0403 18:31:51.245717 22699 net.cpp:425] inception_4a/relu_pool_proj <- inception_4a/pool_proj
I0403 18:31:51.245735 22699 net.cpp:386] inception_4a/relu_pool_proj -> inception_4a/pool_proj (in-place)
I0403 18:31:51.246006 22699 net.cpp:141] Setting up inception_4a/relu_pool_proj
I0403 18:31:51.246031 22699 net.cpp:148] Top shape: 24 64 14 14 (301056)
I0403 18:31:51.246045 22699 net.cpp:156] Memory required for data: 886912032
I0403 18:31:51.246059 22699 layer_factory.hpp:77] Creating layer inception_4a/output
I0403 18:31:51.246075 22699 net.cpp:91] Creating Layer inception_4a/output
I0403 18:31:51.246090 22699 net.cpp:425] inception_4a/output <- inception_4a/1x1
I0403 18:31:51.246105 22699 net.cpp:425] inception_4a/output <- inception_4a/3x3
I0403 18:31:51.246121 22699 net.cpp:425] inception_4a/output <- inception_4a/5x5
I0403 18:31:51.246136 22699 net.cpp:425] inception_4a/output <- inception_4a/pool_proj
I0403 18:31:51.246155 22699 net.cpp:399] inception_4a/output -> inception_4a/output
I0403 18:31:51.246196 22699 net.cpp:141] Setting up inception_4a/output
I0403 18:31:51.246222 22699 net.cpp:148] Top shape: 24 512 14 14 (2408448)
I0403 18:31:51.246237 22699 net.cpp:156] Memory required for data: 896545824
I0403 18:31:51.246250 22699 layer_factory.hpp:77] Creating layer inception_4a/output_inception_4a/output_0_split
I0403 18:31:51.246268 22699 net.cpp:91] Creating Layer inception_4a/output_inception_4a/output_0_split
I0403 18:31:51.246282 22699 net.cpp:425] inception_4a/output_inception_4a/output_0_split <- inception_4a/output
I0403 18:31:51.246299 22699 net.cpp:399] inception_4a/output_inception_4a/output_0_split -> inception_4a/output_inception_4a/output_0_split_0
I0403 18:31:51.246320 22699 net.cpp:399] inception_4a/output_inception_4a/output_0_split -> inception_4a/output_inception_4a/output_0_split_1
I0403 18:31:51.246340 22699 net.cpp:399] inception_4a/output_inception_4a/output_0_split -> inception_4a/output_inception_4a/output_0_split_2
I0403 18:31:51.246361 22699 net.cpp:399] inception_4a/output_inception_4a/output_0_split -> inception_4a/output_inception_4a/output_0_split_3
I0403 18:31:51.246379 22699 net.cpp:399] inception_4a/output_inception_4a/output_0_split -> inception_4a/output_inception_4a/output_0_split_4
I0403 18:31:51.246472 22699 net.cpp:141] Setting up inception_4a/output_inception_4a/output_0_split
I0403 18:31:51.246495 22699 net.cpp:148] Top shape: 24 512 14 14 (2408448)
I0403 18:31:51.246510 22699 net.cpp:148] Top shape: 24 512 14 14 (2408448)
I0403 18:31:51.246526 22699 net.cpp:148] Top shape: 24 512 14 14 (2408448)
I0403 18:31:51.246543 22699 net.cpp:148] Top shape: 24 512 14 14 (2408448)
I0403 18:31:51.246559 22699 net.cpp:148] Top shape: 24 512 14 14 (2408448)
I0403 18:31:51.246573 22699 net.cpp:156] Memory required for data: 944714784
I0403 18:31:51.246595 22699 layer_factory.hpp:77] Creating layer loss1/ave_pool
I0403 18:31:51.246615 22699 net.cpp:91] Creating Layer loss1/ave_pool
I0403 18:31:51.246631 22699 net.cpp:425] loss1/ave_pool <- inception_4a/output_inception_4a/output_0_split_0
I0403 18:31:51.246647 22699 net.cpp:399] loss1/ave_pool -> loss1/ave_pool
I0403 18:31:51.246845 22699 net.cpp:141] Setting up loss1/ave_pool
I0403 18:31:51.246868 22699 net.cpp:148] Top shape: 24 512 4 4 (196608)
I0403 18:31:51.246883 22699 net.cpp:156] Memory required for data: 945501216
I0403 18:31:51.246897 22699 layer_factory.hpp:77] Creating layer loss1/conv
I0403 18:31:51.246918 22699 net.cpp:91] Creating Layer loss1/conv
I0403 18:31:51.246935 22699 net.cpp:425] loss1/conv <- loss1/ave_pool
I0403 18:31:51.246955 22699 net.cpp:399] loss1/conv -> loss1/conv
I0403 18:31:51.248303 22699 net.cpp:141] Setting up loss1/conv
I0403 18:31:51.248330 22699 net.cpp:148] Top shape: 24 128 4 4 (49152)
I0403 18:31:51.248358 22699 net.cpp:156] Memory required for data: 945697824
I0403 18:31:51.248376 22699 layer_factory.hpp:77] Creating layer loss1/relu_conv
I0403 18:31:51.248396 22699 net.cpp:91] Creating Layer loss1/relu_conv
I0403 18:31:51.248411 22699 net.cpp:425] loss1/relu_conv <- loss1/conv
I0403 18:31:51.248427 22699 net.cpp:386] loss1/relu_conv -> loss1/conv (in-place)
I0403 18:31:51.248702 22699 net.cpp:141] Setting up loss1/relu_conv
I0403 18:31:51.248726 22699 net.cpp:148] Top shape: 24 128 4 4 (49152)
I0403 18:31:51.248740 22699 net.cpp:156] Memory required for data: 945894432
I0403 18:31:51.248754 22699 layer_factory.hpp:77] Creating layer loss1/fc
I0403 18:31:51.248778 22699 net.cpp:91] Creating Layer loss1/fc
I0403 18:31:51.248795 22699 net.cpp:425] loss1/fc <- loss1/conv
I0403 18:31:51.248812 22699 net.cpp:399] loss1/fc -> loss1/fc
I0403 18:31:51.266026 22699 net.cpp:141] Setting up loss1/fc
I0403 18:31:51.266058 22699 net.cpp:148] Top shape: 24 1024 (24576)
I0403 18:31:51.266072 22699 net.cpp:156] Memory required for data: 945992736
I0403 18:31:51.266089 22699 layer_factory.hpp:77] Creating layer loss1/relu_fc
I0403 18:31:51.266106 22699 net.cpp:91] Creating Layer loss1/relu_fc
I0403 18:31:51.266121 22699 net.cpp:425] loss1/relu_fc <- loss1/fc
I0403 18:31:51.266139 22699 net.cpp:386] loss1/relu_fc -> loss1/fc (in-place)
I0403 18:31:51.266317 22699 net.cpp:141] Setting up loss1/relu_fc
I0403 18:31:51.266340 22699 net.cpp:148] Top shape: 24 1024 (24576)
I0403 18:31:51.266355 22699 net.cpp:156] Memory required for data: 946091040
I0403 18:31:51.266367 22699 layer_factory.hpp:77] Creating layer loss1/drop_fc
I0403 18:31:51.266392 22699 net.cpp:91] Creating Layer loss1/drop_fc
I0403 18:31:51.266408 22699 net.cpp:425] loss1/drop_fc <- loss1/fc
I0403 18:31:51.266424 22699 net.cpp:386] loss1/drop_fc -> loss1/fc (in-place)
I0403 18:31:51.266470 22699 net.cpp:141] Setting up loss1/drop_fc
I0403 18:31:51.266495 22699 net.cpp:148] Top shape: 24 1024 (24576)
I0403 18:31:51.266510 22699 net.cpp:156] Memory required for data: 946189344
I0403 18:31:51.266523 22699 layer_factory.hpp:77] Creating layer loss1/classifier_plantvillage
I0403 18:31:51.266543 22699 net.cpp:91] Creating Layer loss1/classifier_plantvillage
I0403 18:31:51.266559 22699 net.cpp:425] loss1/classifier_plantvillage <- loss1/fc
I0403 18:31:51.266578 22699 net.cpp:399] loss1/classifier_plantvillage -> loss1/classifier_plantvillage
I0403 18:31:51.267443 22699 net.cpp:141] Setting up loss1/classifier_plantvillage
I0403 18:31:51.267470 22699 net.cpp:148] Top shape: 24 38 (912)
I0403 18:31:51.267483 22699 net.cpp:156] Memory required for data: 946192992
I0403 18:31:51.267500 22699 layer_factory.hpp:77] Creating layer loss1/classifier_plantvillage_loss1/classifier_plantvillage_0_split
I0403 18:31:51.267519 22699 net.cpp:91] Creating Layer loss1/classifier_plantvillage_loss1/classifier_plantvillage_0_split
I0403 18:31:51.267539 22699 net.cpp:425] loss1/classifier_plantvillage_loss1/classifier_plantvillage_0_split <- loss1/classifier_plantvillage
I0403 18:31:51.267556 22699 net.cpp:399] loss1/classifier_plantvillage_loss1/classifier_plantvillage_0_split -> loss1/classifier_plantvillage_loss1/classifier_plantvillage_0_split_0
I0403 18:31:51.267575 22699 net.cpp:399] loss1/classifier_plantvillage_loss1/classifier_plantvillage_0_split -> loss1/classifier_plantvillage_loss1/classifier_plantvillage_0_split_1
I0403 18:31:51.267593 22699 net.cpp:399] loss1/classifier_plantvillage_loss1/classifier_plantvillage_0_split -> loss1/classifier_plantvillage_loss1/classifier_plantvillage_0_split_2
I0403 18:31:51.267655 22699 net.cpp:141] Setting up loss1/classifier_plantvillage_loss1/classifier_plantvillage_0_split
I0403 18:31:51.267678 22699 net.cpp:148] Top shape: 24 38 (912)
I0403 18:31:51.267694 22699 net.cpp:148] Top shape: 24 38 (912)
I0403 18:31:51.267709 22699 net.cpp:148] Top shape: 24 38 (912)
I0403 18:31:51.267721 22699 net.cpp:156] Memory required for data: 946203936
I0403 18:31:51.267735 22699 layer_factory.hpp:77] Creating layer inception_4b/1x1
I0403 18:31:51.267752 22699 net.cpp:91] Creating Layer inception_4b/1x1
I0403 18:31:51.267782 22699 net.cpp:425] inception_4b/1x1 <- inception_4a/output_inception_4a/output_0_split_1
I0403 18:31:51.267802 22699 net.cpp:399] inception_4b/1x1 -> inception_4b/1x1
I0403 18:31:51.269386 22699 net.cpp:141] Setting up inception_4b/1x1
I0403 18:31:51.269412 22699 net.cpp:148] Top shape: 24 160 14 14 (752640)
I0403 18:31:51.269426 22699 net.cpp:156] Memory required for data: 949214496
I0403 18:31:51.269443 22699 layer_factory.hpp:77] Creating layer inception_4b/relu_1x1
I0403 18:31:51.269462 22699 net.cpp:91] Creating Layer inception_4b/relu_1x1
I0403 18:31:51.269477 22699 net.cpp:425] inception_4b/relu_1x1 <- inception_4b/1x1
I0403 18:31:51.269493 22699 net.cpp:386] inception_4b/relu_1x1 -> inception_4b/1x1 (in-place)
I0403 18:31:51.269667 22699 net.cpp:141] Setting up inception_4b/relu_1x1
I0403 18:31:51.269693 22699 net.cpp:148] Top shape: 24 160 14 14 (752640)
I0403 18:31:51.269707 22699 net.cpp:156] Memory required for data: 952225056
I0403 18:31:51.269721 22699 layer_factory.hpp:77] Creating layer inception_4b/3x3_reduce
I0403 18:31:51.269742 22699 net.cpp:91] Creating Layer inception_4b/3x3_reduce
I0403 18:31:51.269757 22699 net.cpp:425] inception_4b/3x3_reduce <- inception_4a/output_inception_4a/output_0_split_2
I0403 18:31:51.269774 22699 net.cpp:399] inception_4b/3x3_reduce -> inception_4b/3x3_reduce
I0403 18:31:51.271041 22699 net.cpp:141] Setting up inception_4b/3x3_reduce
I0403 18:31:51.271070 22699 net.cpp:148] Top shape: 24 112 14 14 (526848)
I0403 18:31:51.271086 22699 net.cpp:156] Memory required for data: 954332448
I0403 18:31:51.271103 22699 layer_factory.hpp:77] Creating layer inception_4b/relu_3x3_reduce
I0403 18:31:51.271119 22699 net.cpp:91] Creating Layer inception_4b/relu_3x3_reduce
I0403 18:31:51.271133 22699 net.cpp:425] inception_4b/relu_3x3_reduce <- inception_4b/3x3_reduce
I0403 18:31:51.271152 22699 net.cpp:386] inception_4b/relu_3x3_reduce -> inception_4b/3x3_reduce (in-place)
I0403 18:31:51.271412 22699 net.cpp:141] Setting up inception_4b/relu_3x3_reduce
I0403 18:31:51.271440 22699 net.cpp:148] Top shape: 24 112 14 14 (526848)
I0403 18:31:51.271455 22699 net.cpp:156] Memory required for data: 956439840
I0403 18:31:51.271468 22699 layer_factory.hpp:77] Creating layer inception_4b/3x3
I0403 18:31:51.271489 22699 net.cpp:91] Creating Layer inception_4b/3x3
I0403 18:31:51.271505 22699 net.cpp:425] inception_4b/3x3 <- inception_4b/3x3_reduce
I0403 18:31:51.271523 22699 net.cpp:399] inception_4b/3x3 -> inception_4b/3x3
I0403 18:31:51.274334 22699 net.cpp:141] Setting up inception_4b/3x3
I0403 18:31:51.274363 22699 net.cpp:148] Top shape: 24 224 14 14 (1053696)
I0403 18:31:51.274376 22699 net.cpp:156] Memory required for data: 960654624
I0403 18:31:51.274394 22699 layer_factory.hpp:77] Creating layer inception_4b/relu_3x3
I0403 18:31:51.274412 22699 net.cpp:91] Creating Layer inception_4b/relu_3x3
I0403 18:31:51.274428 22699 net.cpp:425] inception_4b/relu_3x3 <- inception_4b/3x3
I0403 18:31:51.274444 22699 net.cpp:386] inception_4b/relu_3x3 -> inception_4b/3x3 (in-place)
I0403 18:31:51.274619 22699 net.cpp:141] Setting up inception_4b/relu_3x3
I0403 18:31:51.274644 22699 net.cpp:148] Top shape: 24 224 14 14 (1053696)
I0403 18:31:51.274658 22699 net.cpp:156] Memory required for data: 964869408
I0403 18:31:51.274672 22699 layer_factory.hpp:77] Creating layer inception_4b/5x5_reduce
I0403 18:31:51.274691 22699 net.cpp:91] Creating Layer inception_4b/5x5_reduce
I0403 18:31:51.274708 22699 net.cpp:425] inception_4b/5x5_reduce <- inception_4a/output_inception_4a/output_0_split_3
I0403 18:31:51.274729 22699 net.cpp:399] inception_4b/5x5_reduce -> inception_4b/5x5_reduce
I0403 18:31:51.275745 22699 net.cpp:141] Setting up inception_4b/5x5_reduce
I0403 18:31:51.275771 22699 net.cpp:148] Top shape: 24 24 14 14 (112896)
I0403 18:31:51.275785 22699 net.cpp:156] Memory required for data: 965320992
I0403 18:31:51.275801 22699 layer_factory.hpp:77] Creating layer inception_4b/relu_5x5_reduce
I0403 18:31:51.275821 22699 net.cpp:91] Creating Layer inception_4b/relu_5x5_reduce
I0403 18:31:51.275851 22699 net.cpp:425] inception_4b/relu_5x5_reduce <- inception_4b/5x5_reduce
I0403 18:31:51.275867 22699 net.cpp:386] inception_4b/relu_5x5_reduce -> inception_4b/5x5_reduce (in-place)
I0403 18:31:51.276037 22699 net.cpp:141] Setting up inception_4b/relu_5x5_reduce
I0403 18:31:51.276060 22699 net.cpp:148] Top shape: 24 24 14 14 (112896)
I0403 18:31:51.276074 22699 net.cpp:156] Memory required for data: 965772576
I0403 18:31:51.276087 22699 layer_factory.hpp:77] Creating layer inception_4b/5x5
I0403 18:31:51.276108 22699 net.cpp:91] Creating Layer inception_4b/5x5
I0403 18:31:51.276124 22699 net.cpp:425] inception_4b/5x5 <- inception_4b/5x5_reduce
I0403 18:31:51.276144 22699 net.cpp:399] inception_4b/5x5 -> inception_4b/5x5
I0403 18:31:51.277290 22699 net.cpp:141] Setting up inception_4b/5x5
I0403 18:31:51.277317 22699 net.cpp:148] Top shape: 24 64 14 14 (301056)
I0403 18:31:51.277330 22699 net.cpp:156] Memory required for data: 966976800
I0403 18:31:51.277348 22699 layer_factory.hpp:77] Creating layer inception_4b/relu_5x5
I0403 18:31:51.277369 22699 net.cpp:91] Creating Layer inception_4b/relu_5x5
I0403 18:31:51.277385 22699 net.cpp:425] inception_4b/relu_5x5 <- inception_4b/5x5
I0403 18:31:51.277401 22699 net.cpp:386] inception_4b/relu_5x5 -> inception_4b/5x5 (in-place)
I0403 18:31:51.277673 22699 net.cpp:141] Setting up inception_4b/relu_5x5
I0403 18:31:51.277698 22699 net.cpp:148] Top shape: 24 64 14 14 (301056)
I0403 18:31:51.277711 22699 net.cpp:156] Memory required for data: 968181024
I0403 18:31:51.277724 22699 layer_factory.hpp:77] Creating layer inception_4b/pool
I0403 18:31:51.277743 22699 net.cpp:91] Creating Layer inception_4b/pool
I0403 18:31:51.277758 22699 net.cpp:425] inception_4b/pool <- inception_4a/output_inception_4a/output_0_split_4
I0403 18:31:51.277776 22699 net.cpp:399] inception_4b/pool -> inception_4b/pool
I0403 18:31:51.277834 22699 net.cpp:141] Setting up inception_4b/pool
I0403 18:31:51.277856 22699 net.cpp:148] Top shape: 24 512 14 14 (2408448)
I0403 18:31:51.277869 22699 net.cpp:156] Memory required for data: 977814816
I0403 18:31:51.277884 22699 layer_factory.hpp:77] Creating layer inception_4b/pool_proj
I0403 18:31:51.277904 22699 net.cpp:91] Creating Layer inception_4b/pool_proj
I0403 18:31:51.277918 22699 net.cpp:425] inception_4b/pool_proj <- inception_4b/pool
I0403 18:31:51.277937 22699 net.cpp:399] inception_4b/pool_proj -> inception_4b/pool_proj
I0403 18:31:51.279067 22699 net.cpp:141] Setting up inception_4b/pool_proj
I0403 18:31:51.279093 22699 net.cpp:148] Top shape: 24 64 14 14 (301056)
I0403 18:31:51.279111 22699 net.cpp:156] Memory required for data: 979019040
I0403 18:31:51.279127 22699 layer_factory.hpp:77] Creating layer inception_4b/relu_pool_proj
I0403 18:31:51.279145 22699 net.cpp:91] Creating Layer inception_4b/relu_pool_proj
I0403 18:31:51.279158 22699 net.cpp:425] inception_4b/relu_pool_proj <- inception_4b/pool_proj
I0403 18:31:51.279175 22699 net.cpp:386] inception_4b/relu_pool_proj -> inception_4b/pool_proj (in-place)
I0403 18:31:51.279341 22699 net.cpp:141] Setting up inception_4b/relu_pool_proj
I0403 18:31:51.279366 22699 net.cpp:148] Top shape: 24 64 14 14 (301056)
I0403 18:31:51.279381 22699 net.cpp:156] Memory required for data: 980223264
I0403 18:31:51.279394 22699 layer_factory.hpp:77] Creating layer inception_4b/output
I0403 18:31:51.279410 22699 net.cpp:91] Creating Layer inception_4b/output
I0403 18:31:51.279424 22699 net.cpp:425] inception_4b/output <- inception_4b/1x1
I0403 18:31:51.279439 22699 net.cpp:425] inception_4b/output <- inception_4b/3x3
I0403 18:31:51.279453 22699 net.cpp:425] inception_4b/output <- inception_4b/5x5
I0403 18:31:51.279469 22699 net.cpp:425] inception_4b/output <- inception_4b/pool_proj
I0403 18:31:51.279485 22699 net.cpp:399] inception_4b/output -> inception_4b/output
I0403 18:31:51.279527 22699 net.cpp:141] Setting up inception_4b/output
I0403 18:31:51.279553 22699 net.cpp:148] Top shape: 24 512 14 14 (2408448)
I0403 18:31:51.279567 22699 net.cpp:156] Memory required for data: 989857056
I0403 18:31:51.279595 22699 layer_factory.hpp:77] Creating layer inception_4b/output_inception_4b/output_0_split
I0403 18:31:51.279614 22699 net.cpp:91] Creating Layer inception_4b/output_inception_4b/output_0_split
I0403 18:31:51.279628 22699 net.cpp:425] inception_4b/output_inception_4b/output_0_split <- inception_4b/output
I0403 18:31:51.279645 22699 net.cpp:399] inception_4b/output_inception_4b/output_0_split -> inception_4b/output_inception_4b/output_0_split_0
I0403 18:31:51.279664 22699 net.cpp:399] inception_4b/output_inception_4b/output_0_split -> inception_4b/output_inception_4b/output_0_split_1
I0403 18:31:51.279685 22699 net.cpp:399] inception_4b/output_inception_4b/output_0_split -> inception_4b/output_inception_4b/output_0_split_2
I0403 18:31:51.279705 22699 net.cpp:399] inception_4b/output_inception_4b/output_0_split -> inception_4b/output_inception_4b/output_0_split_3
I0403 18:31:51.279784 22699 net.cpp:141] Setting up inception_4b/output_inception_4b/output_0_split
I0403 18:31:51.279806 22699 net.cpp:148] Top shape: 24 512 14 14 (2408448)
I0403 18:31:51.279822 22699 net.cpp:148] Top shape: 24 512 14 14 (2408448)
I0403 18:31:51.279836 22699 net.cpp:148] Top shape: 24 512 14 14 (2408448)
I0403 18:31:51.279850 22699 net.cpp:148] Top shape: 24 512 14 14 (2408448)
I0403 18:31:51.279861 22699 net.cpp:156] Memory required for data: 1028392224
I0403 18:31:51.279875 22699 layer_factory.hpp:77] Creating layer inception_4c/1x1
I0403 18:31:51.279896 22699 net.cpp:91] Creating Layer inception_4c/1x1
I0403 18:31:51.279911 22699 net.cpp:425] inception_4c/1x1 <- inception_4b/output_inception_4b/output_0_split_0
I0403 18:31:51.279929 22699 net.cpp:399] inception_4c/1x1 -> inception_4c/1x1
I0403 18:31:51.281270 22699 net.cpp:141] Setting up inception_4c/1x1
I0403 18:31:51.281298 22699 net.cpp:148] Top shape: 24 128 14 14 (602112)
I0403 18:31:51.281314 22699 net.cpp:156] Memory required for data: 1030800672
I0403 18:31:51.281332 22699 layer_factory.hpp:77] Creating layer inception_4c/relu_1x1
I0403 18:31:51.281347 22699 net.cpp:91] Creating Layer inception_4c/relu_1x1
I0403 18:31:51.281361 22699 net.cpp:425] inception_4c/relu_1x1 <- inception_4c/1x1
I0403 18:31:51.281379 22699 net.cpp:386] inception_4c/relu_1x1 -> inception_4c/1x1 (in-place)
I0403 18:31:51.281553 22699 net.cpp:141] Setting up inception_4c/relu_1x1
I0403 18:31:51.281576 22699 net.cpp:148] Top shape: 24 128 14 14 (602112)
I0403 18:31:51.281589 22699 net.cpp:156] Memory required for data: 1033209120
I0403 18:31:51.281604 22699 layer_factory.hpp:77] Creating layer inception_4c/3x3_reduce
I0403 18:31:51.281623 22699 net.cpp:91] Creating Layer inception_4c/3x3_reduce
I0403 18:31:51.281640 22699 net.cpp:425] inception_4c/3x3_reduce <- inception_4b/output_inception_4b/output_0_split_1
I0403 18:31:51.281659 22699 net.cpp:399] inception_4c/3x3_reduce -> inception_4c/3x3_reduce
I0403 18:31:51.283496 22699 net.cpp:141] Setting up inception_4c/3x3_reduce
I0403 18:31:51.283524 22699 net.cpp:148] Top shape: 24 128 14 14 (602112)
I0403 18:31:51.283541 22699 net.cpp:156] Memory required for data: 1035617568
I0403 18:31:51.283560 22699 layer_factory.hpp:77] Creating layer inception_4c/relu_3x3_reduce
I0403 18:31:51.283578 22699 net.cpp:91] Creating Layer inception_4c/relu_3x3_reduce
I0403 18:31:51.283594 22699 net.cpp:425] inception_4c/relu_3x3_reduce <- inception_4c/3x3_reduce
I0403 18:31:51.283609 22699 net.cpp:386] inception_4c/relu_3x3_reduce -> inception_4c/3x3_reduce (in-place)
I0403 18:31:51.283876 22699 net.cpp:141] Setting up inception_4c/relu_3x3_reduce
I0403 18:31:51.283900 22699 net.cpp:148] Top shape: 24 128 14 14 (602112)
I0403 18:31:51.283915 22699 net.cpp:156] Memory required for data: 1038026016
I0403 18:31:51.283928 22699 layer_factory.hpp:77] Creating layer inception_4c/3x3
I0403 18:31:51.283949 22699 net.cpp:91] Creating Layer inception_4c/3x3
I0403 18:31:51.283965 22699 net.cpp:425] inception_4c/3x3 <- inception_4c/3x3_reduce
I0403 18:31:51.283987 22699 net.cpp:399] inception_4c/3x3 -> inception_4c/3x3
I0403 18:31:51.287411 22699 net.cpp:141] Setting up inception_4c/3x3
I0403 18:31:51.287451 22699 net.cpp:148] Top shape: 24 256 14 14 (1204224)
I0403 18:31:51.287466 22699 net.cpp:156] Memory required for data: 1042842912
I0403 18:31:51.287494 22699 layer_factory.hpp:77] Creating layer inception_4c/relu_3x3
I0403 18:31:51.287515 22699 net.cpp:91] Creating Layer inception_4c/relu_3x3
I0403 18:31:51.287531 22699 net.cpp:425] inception_4c/relu_3x3 <- inception_4c/3x3
I0403 18:31:51.287552 22699 net.cpp:386] inception_4c/relu_3x3 -> inception_4c/3x3 (in-place)
I0403 18:31:51.287725 22699 net.cpp:141] Setting up inception_4c/relu_3x3
I0403 18:31:51.287750 22699 net.cpp:148] Top shape: 24 256 14 14 (1204224)
I0403 18:31:51.287762 22699 net.cpp:156] Memory required for data: 1047659808
I0403 18:31:51.287775 22699 layer_factory.hpp:77] Creating layer inception_4c/5x5_reduce
I0403 18:31:51.287798 22699 net.cpp:91] Creating Layer inception_4c/5x5_reduce
I0403 18:31:51.287814 22699 net.cpp:425] inception_4c/5x5_reduce <- inception_4b/output_inception_4b/output_0_split_2
I0403 18:31:51.287832 22699 net.cpp:399] inception_4c/5x5_reduce -> inception_4c/5x5_reduce
I0403 18:31:51.288854 22699 net.cpp:141] Setting up inception_4c/5x5_reduce
I0403 18:31:51.288880 22699 net.cpp:148] Top shape: 24 24 14 14 (112896)
I0403 18:31:51.288894 22699 net.cpp:156] Memory required for data: 1048111392
I0403 18:31:51.288911 22699 layer_factory.hpp:77] Creating layer inception_4c/relu_5x5_reduce
I0403 18:31:51.288930 22699 net.cpp:91] Creating Layer inception_4c/relu_5x5_reduce
I0403 18:31:51.288946 22699 net.cpp:425] inception_4c/relu_5x5_reduce <- inception_4c/5x5_reduce
I0403 18:31:51.288964 22699 net.cpp:386] inception_4c/relu_5x5_reduce -> inception_4c/5x5_reduce (in-place)
I0403 18:31:51.289134 22699 net.cpp:141] Setting up inception_4c/relu_5x5_reduce
I0403 18:31:51.289160 22699 net.cpp:148] Top shape: 24 24 14 14 (112896)
I0403 18:31:51.289172 22699 net.cpp:156] Memory required for data: 1048562976
I0403 18:31:51.289186 22699 layer_factory.hpp:77] Creating layer inception_4c/5x5
I0403 18:31:51.289206 22699 net.cpp:91] Creating Layer inception_4c/5x5
I0403 18:31:51.289223 22699 net.cpp:425] inception_4c/5x5 <- inception_4c/5x5_reduce
I0403 18:31:51.289242 22699 net.cpp:399] inception_4c/5x5 -> inception_4c/5x5
I0403 18:31:51.290410 22699 net.cpp:141] Setting up inception_4c/5x5
I0403 18:31:51.290437 22699 net.cpp:148] Top shape: 24 64 14 14 (301056)
I0403 18:31:51.290452 22699 net.cpp:156] Memory required for data: 1049767200
I0403 18:31:51.290468 22699 layer_factory.hpp:77] Creating layer inception_4c/relu_5x5
I0403 18:31:51.290485 22699 net.cpp:91] Creating Layer inception_4c/relu_5x5
I0403 18:31:51.290499 22699 net.cpp:425] inception_4c/relu_5x5 <- inception_4c/5x5
I0403 18:31:51.290516 22699 net.cpp:386] inception_4c/relu_5x5 -> inception_4c/5x5 (in-place)
I0403 18:31:51.290792 22699 net.cpp:141] Setting up inception_4c/relu_5x5
I0403 18:31:51.290818 22699 net.cpp:148] Top shape: 24 64 14 14 (301056)
I0403 18:31:51.290833 22699 net.cpp:156] Memory required for data: 1050971424
I0403 18:31:51.290848 22699 layer_factory.hpp:77] Creating layer inception_4c/pool
I0403 18:31:51.290863 22699 net.cpp:91] Creating Layer inception_4c/pool
I0403 18:31:51.290879 22699 net.cpp:425] inception_4c/pool <- inception_4b/output_inception_4b/output_0_split_3
I0403 18:31:51.290896 22699 net.cpp:399] inception_4c/pool -> inception_4c/pool
I0403 18:31:51.290956 22699 net.cpp:141] Setting up inception_4c/pool
I0403 18:31:51.290980 22699 net.cpp:148] Top shape: 24 512 14 14 (2408448)
I0403 18:31:51.290995 22699 net.cpp:156] Memory required for data: 1060605216
I0403 18:31:51.291009 22699 layer_factory.hpp:77] Creating layer inception_4c/pool_proj
I0403 18:31:51.291028 22699 net.cpp:91] Creating Layer inception_4c/pool_proj
I0403 18:31:51.291044 22699 net.cpp:425] inception_4c/pool_proj <- inception_4c/pool
I0403 18:31:51.291064 22699 net.cpp:399] inception_4c/pool_proj -> inception_4c/pool_proj
I0403 18:31:51.292268 22699 net.cpp:141] Setting up inception_4c/pool_proj
I0403 18:31:51.292295 22699 net.cpp:148] Top shape: 24 64 14 14 (301056)
I0403 18:31:51.292323 22699 net.cpp:156] Memory required for data: 1061809440
I0403 18:31:51.292342 22699 layer_factory.hpp:77] Creating layer inception_4c/relu_pool_proj
I0403 18:31:51.292366 22699 net.cpp:91] Creating Layer inception_4c/relu_pool_proj
I0403 18:31:51.292382 22699 net.cpp:425] inception_4c/relu_pool_proj <- inception_4c/pool_proj
I0403 18:31:51.292397 22699 net.cpp:386] inception_4c/relu_pool_proj -> inception_4c/pool_proj (in-place)
I0403 18:31:51.292577 22699 net.cpp:141] Setting up inception_4c/relu_pool_proj
I0403 18:31:51.292603 22699 net.cpp:148] Top shape: 24 64 14 14 (301056)
I0403 18:31:51.292618 22699 net.cpp:156] Memory required for data: 1063013664
I0403 18:31:51.292631 22699 layer_factory.hpp:77] Creating layer inception_4c/output
I0403 18:31:51.292647 22699 net.cpp:91] Creating Layer inception_4c/output
I0403 18:31:51.292661 22699 net.cpp:425] inception_4c/output <- inception_4c/1x1
I0403 18:31:51.292677 22699 net.cpp:425] inception_4c/output <- inception_4c/3x3
I0403 18:31:51.292692 22699 net.cpp:425] inception_4c/output <- inception_4c/5x5
I0403 18:31:51.292707 22699 net.cpp:425] inception_4c/output <- inception_4c/pool_proj
I0403 18:31:51.292726 22699 net.cpp:399] inception_4c/output -> inception_4c/output
I0403 18:31:51.292770 22699 net.cpp:141] Setting up inception_4c/output
I0403 18:31:51.292793 22699 net.cpp:148] Top shape: 24 512 14 14 (2408448)
I0403 18:31:51.292806 22699 net.cpp:156] Memory required for data: 1072647456
I0403 18:31:51.292820 22699 layer_factory.hpp:77] Creating layer inception_4c/output_inception_4c/output_0_split
I0403 18:31:51.292839 22699 net.cpp:91] Creating Layer inception_4c/output_inception_4c/output_0_split
I0403 18:31:51.292853 22699 net.cpp:425] inception_4c/output_inception_4c/output_0_split <- inception_4c/output
I0403 18:31:51.292870 22699 net.cpp:399] inception_4c/output_inception_4c/output_0_split -> inception_4c/output_inception_4c/output_0_split_0
I0403 18:31:51.292889 22699 net.cpp:399] inception_4c/output_inception_4c/output_0_split -> inception_4c/output_inception_4c/output_0_split_1
I0403 18:31:51.292912 22699 net.cpp:399] inception_4c/output_inception_4c/output_0_split -> inception_4c/output_inception_4c/output_0_split_2
I0403 18:31:51.292932 22699 net.cpp:399] inception_4c/output_inception_4c/output_0_split -> inception_4c/output_inception_4c/output_0_split_3
I0403 18:31:51.293015 22699 net.cpp:141] Setting up inception_4c/output_inception_4c/output_0_split
I0403 18:31:51.293037 22699 net.cpp:148] Top shape: 24 512 14 14 (2408448)
I0403 18:31:51.293052 22699 net.cpp:148] Top shape: 24 512 14 14 (2408448)
I0403 18:31:51.293066 22699 net.cpp:148] Top shape: 24 512 14 14 (2408448)
I0403 18:31:51.293081 22699 net.cpp:148] Top shape: 24 512 14 14 (2408448)
I0403 18:31:51.293093 22699 net.cpp:156] Memory required for data: 1111182624
I0403 18:31:51.293107 22699 layer_factory.hpp:77] Creating layer inception_4d/1x1
I0403 18:31:51.293128 22699 net.cpp:91] Creating Layer inception_4d/1x1
I0403 18:31:51.293145 22699 net.cpp:425] inception_4d/1x1 <- inception_4c/output_inception_4c/output_0_split_0
I0403 18:31:51.293164 22699 net.cpp:399] inception_4d/1x1 -> inception_4d/1x1
I0403 18:31:51.294531 22699 net.cpp:141] Setting up inception_4d/1x1
I0403 18:31:51.294567 22699 net.cpp:148] Top shape: 24 112 14 14 (526848)
I0403 18:31:51.294584 22699 net.cpp:156] Memory required for data: 1113290016
I0403 18:31:51.294600 22699 layer_factory.hpp:77] Creating layer inception_4d/relu_1x1
I0403 18:31:51.294620 22699 net.cpp:91] Creating Layer inception_4d/relu_1x1
I0403 18:31:51.294636 22699 net.cpp:425] inception_4d/relu_1x1 <- inception_4d/1x1
I0403 18:31:51.294651 22699 net.cpp:386] inception_4d/relu_1x1 -> inception_4d/1x1 (in-place)
I0403 18:31:51.294832 22699 net.cpp:141] Setting up inception_4d/relu_1x1
I0403 18:31:51.294857 22699 net.cpp:148] Top shape: 24 112 14 14 (526848)
I0403 18:31:51.294870 22699 net.cpp:156] Memory required for data: 1115397408
I0403 18:31:51.294884 22699 layer_factory.hpp:77] Creating layer inception_4d/3x3_reduce
I0403 18:31:51.294920 22699 net.cpp:91] Creating Layer inception_4d/3x3_reduce
I0403 18:31:51.294939 22699 net.cpp:425] inception_4d/3x3_reduce <- inception_4c/output_inception_4c/output_0_split_1
I0403 18:31:51.294956 22699 net.cpp:399] inception_4d/3x3_reduce -> inception_4d/3x3_reduce
I0403 18:31:51.296416 22699 net.cpp:141] Setting up inception_4d/3x3_reduce
I0403 18:31:51.296443 22699 net.cpp:148] Top shape: 24 144 14 14 (677376)
I0403 18:31:51.296458 22699 net.cpp:156] Memory required for data: 1118106912
I0403 18:31:51.296475 22699 layer_factory.hpp:77] Creating layer inception_4d/relu_3x3_reduce
I0403 18:31:51.296492 22699 net.cpp:91] Creating Layer inception_4d/relu_3x3_reduce
I0403 18:31:51.296507 22699 net.cpp:425] inception_4d/relu_3x3_reduce <- inception_4d/3x3_reduce
I0403 18:31:51.296526 22699 net.cpp:386] inception_4d/relu_3x3_reduce -> inception_4d/3x3_reduce (in-place)
I0403 18:31:51.296810 22699 net.cpp:141] Setting up inception_4d/relu_3x3_reduce
I0403 18:31:51.296835 22699 net.cpp:148] Top shape: 24 144 14 14 (677376)
I0403 18:31:51.296849 22699 net.cpp:156] Memory required for data: 1120816416
I0403 18:31:51.296864 22699 layer_factory.hpp:77] Creating layer inception_4d/3x3
I0403 18:31:51.296885 22699 net.cpp:91] Creating Layer inception_4d/3x3
I0403 18:31:51.296901 22699 net.cpp:425] inception_4d/3x3 <- inception_4d/3x3_reduce
I0403 18:31:51.296922 22699 net.cpp:399] inception_4d/3x3 -> inception_4d/3x3
I0403 18:31:51.301076 22699 net.cpp:141] Setting up inception_4d/3x3
I0403 18:31:51.301105 22699 net.cpp:148] Top shape: 24 288 14 14 (1354752)
I0403 18:31:51.301120 22699 net.cpp:156] Memory required for data: 1126235424
I0403 18:31:51.301136 22699 layer_factory.hpp:77] Creating layer inception_4d/relu_3x3
I0403 18:31:51.301156 22699 net.cpp:91] Creating Layer inception_4d/relu_3x3
I0403 18:31:51.301172 22699 net.cpp:425] inception_4d/relu_3x3 <- inception_4d/3x3
I0403 18:31:51.301188 22699 net.cpp:386] inception_4d/relu_3x3 -> inception_4d/3x3 (in-place)
I0403 18:31:51.301363 22699 net.cpp:141] Setting up inception_4d/relu_3x3
I0403 18:31:51.301389 22699 net.cpp:148] Top shape: 24 288 14 14 (1354752)
I0403 18:31:51.301403 22699 net.cpp:156] Memory required for data: 1131654432
I0403 18:31:51.301417 22699 layer_factory.hpp:77] Creating layer inception_4d/5x5_reduce
I0403 18:31:51.301436 22699 net.cpp:91] Creating Layer inception_4d/5x5_reduce
I0403 18:31:51.301451 22699 net.cpp:425] inception_4d/5x5_reduce <- inception_4c/output_inception_4c/output_0_split_2
I0403 18:31:51.301472 22699 net.cpp:399] inception_4d/5x5_reduce -> inception_4d/5x5_reduce
I0403 18:31:51.302603 22699 net.cpp:141] Setting up inception_4d/5x5_reduce
I0403 18:31:51.302630 22699 net.cpp:148] Top shape: 24 32 14 14 (150528)
I0403 18:31:51.302645 22699 net.cpp:156] Memory required for data: 1132256544
I0403 18:31:51.302662 22699 layer_factory.hpp:77] Creating layer inception_4d/relu_5x5_reduce
I0403 18:31:51.302682 22699 net.cpp:91] Creating Layer inception_4d/relu_5x5_reduce
I0403 18:31:51.302698 22699 net.cpp:425] inception_4d/relu_5x5_reduce <- inception_4d/5x5_reduce
I0403 18:31:51.302714 22699 net.cpp:386] inception_4d/relu_5x5_reduce -> inception_4d/5x5_reduce (in-place)
I0403 18:31:51.302896 22699 net.cpp:141] Setting up inception_4d/relu_5x5_reduce
I0403 18:31:51.302919 22699 net.cpp:148] Top shape: 24 32 14 14 (150528)
I0403 18:31:51.302933 22699 net.cpp:156] Memory required for data: 1132858656
I0403 18:31:51.302947 22699 layer_factory.hpp:77] Creating layer inception_4d/5x5
I0403 18:31:51.302969 22699 net.cpp:91] Creating Layer inception_4d/5x5
I0403 18:31:51.302985 22699 net.cpp:425] inception_4d/5x5 <- inception_4d/5x5_reduce
I0403 18:31:51.303002 22699 net.cpp:399] inception_4d/5x5 -> inception_4d/5x5
I0403 18:31:51.304424 22699 net.cpp:141] Setting up inception_4d/5x5
I0403 18:31:51.304452 22699 net.cpp:148] Top shape: 24 64 14 14 (301056)
I0403 18:31:51.304467 22699 net.cpp:156] Memory required for data: 1134062880
I0403 18:31:51.304486 22699 layer_factory.hpp:77] Creating layer inception_4d/relu_5x5
I0403 18:31:51.304517 22699 net.cpp:91] Creating Layer inception_4d/relu_5x5
I0403 18:31:51.304533 22699 net.cpp:425] inception_4d/relu_5x5 <- inception_4d/5x5
I0403 18:31:51.304564 22699 net.cpp:386] inception_4d/relu_5x5 -> inception_4d/5x5 (in-place)
I0403 18:31:51.304857 22699 net.cpp:141] Setting up inception_4d/relu_5x5
I0403 18:31:51.304884 22699 net.cpp:148] Top shape: 24 64 14 14 (301056)
I0403 18:31:51.304899 22699 net.cpp:156] Memory required for data: 1135267104
I0403 18:31:51.304914 22699 layer_factory.hpp:77] Creating layer inception_4d/pool
I0403 18:31:51.304930 22699 net.cpp:91] Creating Layer inception_4d/pool
I0403 18:31:51.304945 22699 net.cpp:425] inception_4d/pool <- inception_4c/output_inception_4c/output_0_split_3
I0403 18:31:51.304965 22699 net.cpp:399] inception_4d/pool -> inception_4d/pool
I0403 18:31:51.305028 22699 net.cpp:141] Setting up inception_4d/pool
I0403 18:31:51.305052 22699 net.cpp:148] Top shape: 24 512 14 14 (2408448)
I0403 18:31:51.305065 22699 net.cpp:156] Memory required for data: 1144900896
I0403 18:31:51.305079 22699 layer_factory.hpp:77] Creating layer inception_4d/pool_proj
I0403 18:31:51.305100 22699 net.cpp:91] Creating Layer inception_4d/pool_proj
I0403 18:31:51.305116 22699 net.cpp:425] inception_4d/pool_proj <- inception_4d/pool
I0403 18:31:51.305136 22699 net.cpp:399] inception_4d/pool_proj -> inception_4d/pool_proj
I0403 18:31:51.306864 22699 net.cpp:141] Setting up inception_4d/pool_proj
I0403 18:31:51.306891 22699 net.cpp:148] Top shape: 24 64 14 14 (301056)
I0403 18:31:51.306906 22699 net.cpp:156] Memory required for data: 1146105120
I0403 18:31:51.306922 22699 layer_factory.hpp:77] Creating layer inception_4d/relu_pool_proj
I0403 18:31:51.306942 22699 net.cpp:91] Creating Layer inception_4d/relu_pool_proj
I0403 18:31:51.306957 22699 net.cpp:425] inception_4d/relu_pool_proj <- inception_4d/pool_proj
I0403 18:31:51.306974 22699 net.cpp:386] inception_4d/relu_pool_proj -> inception_4d/pool_proj (in-place)
I0403 18:31:51.307150 22699 net.cpp:141] Setting up inception_4d/relu_pool_proj
I0403 18:31:51.307176 22699 net.cpp:148] Top shape: 24 64 14 14 (301056)
I0403 18:31:51.307190 22699 net.cpp:156] Memory required for data: 1147309344
I0403 18:31:51.307204 22699 layer_factory.hpp:77] Creating layer inception_4d/output
I0403 18:31:51.307220 22699 net.cpp:91] Creating Layer inception_4d/output
I0403 18:31:51.307235 22699 net.cpp:425] inception_4d/output <- inception_4d/1x1
I0403 18:31:51.307251 22699 net.cpp:425] inception_4d/output <- inception_4d/3x3
I0403 18:31:51.307267 22699 net.cpp:425] inception_4d/output <- inception_4d/5x5
I0403 18:31:51.307282 22699 net.cpp:425] inception_4d/output <- inception_4d/pool_proj
I0403 18:31:51.307297 22699 net.cpp:399] inception_4d/output -> inception_4d/output
I0403 18:31:51.307343 22699 net.cpp:141] Setting up inception_4d/output
I0403 18:31:51.307365 22699 net.cpp:148] Top shape: 24 528 14 14 (2483712)
I0403 18:31:51.307379 22699 net.cpp:156] Memory required for data: 1157244192
I0403 18:31:51.307394 22699 layer_factory.hpp:77] Creating layer inception_4d/output_inception_4d/output_0_split
I0403 18:31:51.307411 22699 net.cpp:91] Creating Layer inception_4d/output_inception_4d/output_0_split
I0403 18:31:51.307427 22699 net.cpp:425] inception_4d/output_inception_4d/output_0_split <- inception_4d/output
I0403 18:31:51.307445 22699 net.cpp:399] inception_4d/output_inception_4d/output_0_split -> inception_4d/output_inception_4d/output_0_split_0
I0403 18:31:51.307462 22699 net.cpp:399] inception_4d/output_inception_4d/output_0_split -> inception_4d/output_inception_4d/output_0_split_1
I0403 18:31:51.307482 22699 net.cpp:399] inception_4d/output_inception_4d/output_0_split -> inception_4d/output_inception_4d/output_0_split_2
I0403 18:31:51.307502 22699 net.cpp:399] inception_4d/output_inception_4d/output_0_split -> inception_4d/output_inception_4d/output_0_split_3
I0403 18:31:51.307523 22699 net.cpp:399] inception_4d/output_inception_4d/output_0_split -> inception_4d/output_inception_4d/output_0_split_4
I0403 18:31:51.307629 22699 net.cpp:141] Setting up inception_4d/output_inception_4d/output_0_split
I0403 18:31:51.307663 22699 net.cpp:148] Top shape: 24 528 14 14 (2483712)
I0403 18:31:51.307679 22699 net.cpp:148] Top shape: 24 528 14 14 (2483712)
I0403 18:31:51.307694 22699 net.cpp:148] Top shape: 24 528 14 14 (2483712)
I0403 18:31:51.307709 22699 net.cpp:148] Top shape: 24 528 14 14 (2483712)
I0403 18:31:51.307723 22699 net.cpp:148] Top shape: 24 528 14 14 (2483712)
I0403 18:31:51.307736 22699 net.cpp:156] Memory required for data: 1206918432
I0403 18:31:51.307750 22699 layer_factory.hpp:77] Creating layer loss2/ave_pool
I0403 18:31:51.307766 22699 net.cpp:91] Creating Layer loss2/ave_pool
I0403 18:31:51.307781 22699 net.cpp:425] loss2/ave_pool <- inception_4d/output_inception_4d/output_0_split_0
I0403 18:31:51.307801 22699 net.cpp:399] loss2/ave_pool -> loss2/ave_pool
I0403 18:31:51.308106 22699 net.cpp:141] Setting up loss2/ave_pool
I0403 18:31:51.308131 22699 net.cpp:148] Top shape: 24 528 4 4 (202752)
I0403 18:31:51.308146 22699 net.cpp:156] Memory required for data: 1207729440
I0403 18:31:51.308161 22699 layer_factory.hpp:77] Creating layer loss2/conv
I0403 18:31:51.308182 22699 net.cpp:91] Creating Layer loss2/conv
I0403 18:31:51.308197 22699 net.cpp:425] loss2/conv <- loss2/ave_pool
I0403 18:31:51.308218 22699 net.cpp:399] loss2/conv -> loss2/conv
I0403 18:31:51.320396 22699 net.cpp:141] Setting up loss2/conv
I0403 18:31:51.320430 22699 net.cpp:148] Top shape: 24 128 4 4 (49152)
I0403 18:31:51.320446 22699 net.cpp:156] Memory required for data: 1207926048
I0403 18:31:51.320464 22699 layer_factory.hpp:77] Creating layer loss2/relu_conv
I0403 18:31:51.320482 22699 net.cpp:91] Creating Layer loss2/relu_conv
I0403 18:31:51.320497 22699 net.cpp:425] loss2/relu_conv <- loss2/conv
I0403 18:31:51.320513 22699 net.cpp:386] loss2/relu_conv -> loss2/conv (in-place)
I0403 18:31:51.321095 22699 net.cpp:141] Setting up loss2/relu_conv
I0403 18:31:51.321161 22699 net.cpp:148] Top shape: 24 128 4 4 (49152)
I0403 18:31:51.321194 22699 net.cpp:156] Memory required for data: 1208122656
I0403 18:31:51.321228 22699 layer_factory.hpp:77] Creating layer loss2/fc
I0403 18:31:51.321269 22699 net.cpp:91] Creating Layer loss2/fc
I0403 18:31:51.321303 22699 net.cpp:425] loss2/fc <- loss2/conv
I0403 18:31:51.321347 22699 net.cpp:399] loss2/fc -> loss2/fc
I0403 18:31:51.339833 22699 net.cpp:141] Setting up loss2/fc
I0403 18:31:51.339864 22699 net.cpp:148] Top shape: 24 1024 (24576)
I0403 18:31:51.339879 22699 net.cpp:156] Memory required for data: 1208220960
I0403 18:31:51.339895 22699 layer_factory.hpp:77] Creating layer loss2/relu_fc
I0403 18:31:51.339915 22699 net.cpp:91] Creating Layer loss2/relu_fc
I0403 18:31:51.339931 22699 net.cpp:425] loss2/relu_fc <- loss2/fc
I0403 18:31:51.339946 22699 net.cpp:386] loss2/relu_fc -> loss2/fc (in-place)
I0403 18:31:51.340221 22699 net.cpp:141] Setting up loss2/relu_fc
I0403 18:31:51.340246 22699 net.cpp:148] Top shape: 24 1024 (24576)
I0403 18:31:51.340263 22699 net.cpp:156] Memory required for data: 1208319264
I0403 18:31:51.340276 22699 layer_factory.hpp:77] Creating layer loss2/drop_fc
I0403 18:31:51.340296 22699 net.cpp:91] Creating Layer loss2/drop_fc
I0403 18:31:51.340312 22699 net.cpp:425] loss2/drop_fc <- loss2/fc
I0403 18:31:51.340327 22699 net.cpp:386] loss2/drop_fc -> loss2/fc (in-place)
I0403 18:31:51.340373 22699 net.cpp:141] Setting up loss2/drop_fc
I0403 18:31:51.340394 22699 net.cpp:148] Top shape: 24 1024 (24576)
I0403 18:31:51.340409 22699 net.cpp:156] Memory required for data: 1208417568
I0403 18:31:51.340422 22699 layer_factory.hpp:77] Creating layer loss2/classifier_plantvillage
I0403 18:31:51.340440 22699 net.cpp:91] Creating Layer loss2/classifier_plantvillage
I0403 18:31:51.340456 22699 net.cpp:425] loss2/classifier_plantvillage <- loss2/fc
I0403 18:31:51.340473 22699 net.cpp:399] loss2/classifier_plantvillage -> loss2/classifier_plantvillage
I0403 18:31:51.340853 22699 net.cpp:141] Setting up loss2/classifier_plantvillage
I0403 18:31:51.340876 22699 net.cpp:148] Top shape: 24 38 (912)
I0403 18:31:51.340908 22699 net.cpp:156] Memory required for data: 1208421216
I0403 18:31:51.340924 22699 layer_factory.hpp:77] Creating layer loss2/classifier_plantvillage_loss2/classifier_plantvillage_0_split
I0403 18:31:51.340941 22699 net.cpp:91] Creating Layer loss2/classifier_plantvillage_loss2/classifier_plantvillage_0_split
I0403 18:31:51.340955 22699 net.cpp:425] loss2/classifier_plantvillage_loss2/classifier_plantvillage_0_split <- loss2/classifier_plantvillage
I0403 18:31:51.340973 22699 net.cpp:399] loss2/classifier_plantvillage_loss2/classifier_plantvillage_0_split -> loss2/classifier_plantvillage_loss2/classifier_plantvillage_0_split_0
I0403 18:31:51.340993 22699 net.cpp:399] loss2/classifier_plantvillage_loss2/classifier_plantvillage_0_split -> loss2/classifier_plantvillage_loss2/classifier_plantvillage_0_split_1
I0403 18:31:51.341013 22699 net.cpp:399] loss2/classifier_plantvillage_loss2/classifier_plantvillage_0_split -> loss2/classifier_plantvillage_loss2/classifier_plantvillage_0_split_2
I0403 18:31:51.341083 22699 net.cpp:141] Setting up loss2/classifier_plantvillage_loss2/classifier_plantvillage_0_split
I0403 18:31:51.341106 22699 net.cpp:148] Top shape: 24 38 (912)
I0403 18:31:51.341122 22699 net.cpp:148] Top shape: 24 38 (912)
I0403 18:31:51.341136 22699 net.cpp:148] Top shape: 24 38 (912)
I0403 18:31:51.341150 22699 net.cpp:156] Memory required for data: 1208432160
I0403 18:31:51.341162 22699 layer_factory.hpp:77] Creating layer inception_4e/1x1
I0403 18:31:51.341183 22699 net.cpp:91] Creating Layer inception_4e/1x1
I0403 18:31:51.341199 22699 net.cpp:425] inception_4e/1x1 <- inception_4d/output_inception_4d/output_0_split_1
I0403 18:31:51.341217 22699 net.cpp:399] inception_4e/1x1 -> inception_4e/1x1
I0403 18:31:51.342914 22699 net.cpp:141] Setting up inception_4e/1x1
I0403 18:31:51.342942 22699 net.cpp:148] Top shape: 24 256 14 14 (1204224)
I0403 18:31:51.342958 22699 net.cpp:156] Memory required for data: 1213249056
I0403 18:31:51.342975 22699 layer_factory.hpp:77] Creating layer inception_4e/relu_1x1
I0403 18:31:51.342991 22699 net.cpp:91] Creating Layer inception_4e/relu_1x1
I0403 18:31:51.343006 22699 net.cpp:425] inception_4e/relu_1x1 <- inception_4e/1x1
I0403 18:31:51.343024 22699 net.cpp:386] inception_4e/relu_1x1 -> inception_4e/1x1 (in-place)
I0403 18:31:51.343338 22699 net.cpp:141] Setting up inception_4e/relu_1x1
I0403 18:31:51.343364 22699 net.cpp:148] Top shape: 24 256 14 14 (1204224)
I0403 18:31:51.343379 22699 net.cpp:156] Memory required for data: 1218065952
I0403 18:31:51.343392 22699 layer_factory.hpp:77] Creating layer inception_4e/3x3_reduce
I0403 18:31:51.343412 22699 net.cpp:91] Creating Layer inception_4e/3x3_reduce
I0403 18:31:51.343428 22699 net.cpp:425] inception_4e/3x3_reduce <- inception_4d/output_inception_4d/output_0_split_2
I0403 18:31:51.343446 22699 net.cpp:399] inception_4e/3x3_reduce -> inception_4e/3x3_reduce
I0403 18:31:51.345464 22699 net.cpp:141] Setting up inception_4e/3x3_reduce
I0403 18:31:51.345494 22699 net.cpp:148] Top shape: 24 160 14 14 (752640)
I0403 18:31:51.345510 22699 net.cpp:156] Memory required for data: 1221076512
I0403 18:31:51.345526 22699 layer_factory.hpp:77] Creating layer inception_4e/relu_3x3_reduce
I0403 18:31:51.345546 22699 net.cpp:91] Creating Layer inception_4e/relu_3x3_reduce
I0403 18:31:51.345562 22699 net.cpp:425] inception_4e/relu_3x3_reduce <- inception_4e/3x3_reduce
I0403 18:31:51.345578 22699 net.cpp:386] inception_4e/relu_3x3_reduce -> inception_4e/3x3_reduce (in-place)
I0403 18:31:51.345751 22699 net.cpp:141] Setting up inception_4e/relu_3x3_reduce
I0403 18:31:51.345775 22699 net.cpp:148] Top shape: 24 160 14 14 (752640)
I0403 18:31:51.345789 22699 net.cpp:156] Memory required for data: 1224087072
I0403 18:31:51.345803 22699 layer_factory.hpp:77] Creating layer inception_4e/3x3
I0403 18:31:51.345824 22699 net.cpp:91] Creating Layer inception_4e/3x3
I0403 18:31:51.345840 22699 net.cpp:425] inception_4e/3x3 <- inception_4e/3x3_reduce
I0403 18:31:51.345860 22699 net.cpp:399] inception_4e/3x3 -> inception_4e/3x3
I0403 18:31:51.350654 22699 net.cpp:141] Setting up inception_4e/3x3
I0403 18:31:51.350694 22699 net.cpp:148] Top shape: 24 320 14 14 (1505280)
I0403 18:31:51.350709 22699 net.cpp:156] Memory required for data: 1230108192
I0403 18:31:51.350726 22699 layer_factory.hpp:77] Creating layer inception_4e/relu_3x3
I0403 18:31:51.350744 22699 net.cpp:91] Creating Layer inception_4e/relu_3x3
I0403 18:31:51.350759 22699 net.cpp:425] inception_4e/relu_3x3 <- inception_4e/3x3
I0403 18:31:51.350777 22699 net.cpp:386] inception_4e/relu_3x3 -> inception_4e/3x3 (in-place)
I0403 18:31:51.351054 22699 net.cpp:141] Setting up inception_4e/relu_3x3
I0403 18:31:51.351079 22699 net.cpp:148] Top shape: 24 320 14 14 (1505280)
I0403 18:31:51.351094 22699 net.cpp:156] Memory required for data: 1236129312
I0403 18:31:51.351107 22699 layer_factory.hpp:77] Creating layer inception_4e/5x5_reduce
I0403 18:31:51.351128 22699 net.cpp:91] Creating Layer inception_4e/5x5_reduce
I0403 18:31:51.351145 22699 net.cpp:425] inception_4e/5x5_reduce <- inception_4d/output_inception_4d/output_0_split_3
I0403 18:31:51.351166 22699 net.cpp:399] inception_4e/5x5_reduce -> inception_4e/5x5_reduce
I0403 18:31:51.352147 22699 net.cpp:141] Setting up inception_4e/5x5_reduce
I0403 18:31:51.352175 22699 net.cpp:148] Top shape: 24 32 14 14 (150528)
I0403 18:31:51.352190 22699 net.cpp:156] Memory required for data: 1236731424
I0403 18:31:51.352207 22699 layer_factory.hpp:77] Creating layer inception_4e/relu_5x5_reduce
I0403 18:31:51.352224 22699 net.cpp:91] Creating Layer inception_4e/relu_5x5_reduce
I0403 18:31:51.352252 22699 net.cpp:425] inception_4e/relu_5x5_reduce <- inception_4e/5x5_reduce
I0403 18:31:51.352272 22699 net.cpp:386] inception_4e/relu_5x5_reduce -> inception_4e/5x5_reduce (in-place)
I0403 18:31:51.352571 22699 net.cpp:141] Setting up inception_4e/relu_5x5_reduce
I0403 18:31:51.352597 22699 net.cpp:148] Top shape: 24 32 14 14 (150528)
I0403 18:31:51.352612 22699 net.cpp:156] Memory required for data: 1237333536
I0403 18:31:51.352627 22699 layer_factory.hpp:77] Creating layer inception_4e/5x5
I0403 18:31:51.352663 22699 net.cpp:91] Creating Layer inception_4e/5x5
I0403 18:31:51.352681 22699 net.cpp:425] inception_4e/5x5 <- inception_4e/5x5_reduce
I0403 18:31:51.352700 22699 net.cpp:399] inception_4e/5x5 -> inception_4e/5x5
I0403 18:31:51.354406 22699 net.cpp:141] Setting up inception_4e/5x5
I0403 18:31:51.354431 22699 net.cpp:148] Top shape: 24 128 14 14 (602112)
I0403 18:31:51.354446 22699 net.cpp:156] Memory required for data: 1239741984
I0403 18:31:51.354463 22699 layer_factory.hpp:77] Creating layer inception_4e/relu_5x5
I0403 18:31:51.354482 22699 net.cpp:91] Creating Layer inception_4e/relu_5x5
I0403 18:31:51.354498 22699 net.cpp:425] inception_4e/relu_5x5 <- inception_4e/5x5
I0403 18:31:51.354514 22699 net.cpp:386] inception_4e/relu_5x5 -> inception_4e/5x5 (in-place)
I0403 18:31:51.354706 22699 net.cpp:141] Setting up inception_4e/relu_5x5
I0403 18:31:51.354732 22699 net.cpp:148] Top shape: 24 128 14 14 (602112)
I0403 18:31:51.354746 22699 net.cpp:156] Memory required for data: 1242150432
I0403 18:31:51.354760 22699 layer_factory.hpp:77] Creating layer inception_4e/pool
I0403 18:31:51.354776 22699 net.cpp:91] Creating Layer inception_4e/pool
I0403 18:31:51.354790 22699 net.cpp:425] inception_4e/pool <- inception_4d/output_inception_4d/output_0_split_4
I0403 18:31:51.354809 22699 net.cpp:399] inception_4e/pool -> inception_4e/pool
I0403 18:31:51.354872 22699 net.cpp:141] Setting up inception_4e/pool
I0403 18:31:51.354894 22699 net.cpp:148] Top shape: 24 528 14 14 (2483712)
I0403 18:31:51.354908 22699 net.cpp:156] Memory required for data: 1252085280
I0403 18:31:51.354921 22699 layer_factory.hpp:77] Creating layer inception_4e/pool_proj
I0403 18:31:51.354941 22699 net.cpp:91] Creating Layer inception_4e/pool_proj
I0403 18:31:51.354957 22699 net.cpp:425] inception_4e/pool_proj <- inception_4e/pool
I0403 18:31:51.354977 22699 net.cpp:399] inception_4e/pool_proj -> inception_4e/pool_proj
I0403 18:31:51.356367 22699 net.cpp:141] Setting up inception_4e/pool_proj
I0403 18:31:51.356405 22699 net.cpp:148] Top shape: 24 128 14 14 (602112)
I0403 18:31:51.356420 22699 net.cpp:156] Memory required for data: 1254493728
I0403 18:31:51.356437 22699 layer_factory.hpp:77] Creating layer inception_4e/relu_pool_proj
I0403 18:31:51.356456 22699 net.cpp:91] Creating Layer inception_4e/relu_pool_proj
I0403 18:31:51.356472 22699 net.cpp:425] inception_4e/relu_pool_proj <- inception_4e/pool_proj
I0403 18:31:51.356488 22699 net.cpp:386] inception_4e/relu_pool_proj -> inception_4e/pool_proj (in-place)
I0403 18:31:51.356767 22699 net.cpp:141] Setting up inception_4e/relu_pool_proj
I0403 18:31:51.356791 22699 net.cpp:148] Top shape: 24 128 14 14 (602112)
I0403 18:31:51.356806 22699 net.cpp:156] Memory required for data: 1256902176
I0403 18:31:51.356818 22699 layer_factory.hpp:77] Creating layer inception_4e/output
I0403 18:31:51.356835 22699 net.cpp:91] Creating Layer inception_4e/output
I0403 18:31:51.356851 22699 net.cpp:425] inception_4e/output <- inception_4e/1x1
I0403 18:31:51.356866 22699 net.cpp:425] inception_4e/output <- inception_4e/3x3
I0403 18:31:51.356881 22699 net.cpp:425] inception_4e/output <- inception_4e/5x5
I0403 18:31:51.356895 22699 net.cpp:425] inception_4e/output <- inception_4e/pool_proj
I0403 18:31:51.356914 22699 net.cpp:399] inception_4e/output -> inception_4e/output
I0403 18:31:51.356961 22699 net.cpp:141] Setting up inception_4e/output
I0403 18:31:51.356982 22699 net.cpp:148] Top shape: 24 832 14 14 (3913728)
I0403 18:31:51.356995 22699 net.cpp:156] Memory required for data: 1272557088
I0403 18:31:51.357009 22699 layer_factory.hpp:77] Creating layer pool4/3x3_s2
I0403 18:31:51.357025 22699 net.cpp:91] Creating Layer pool4/3x3_s2
I0403 18:31:51.357039 22699 net.cpp:425] pool4/3x3_s2 <- inception_4e/output
I0403 18:31:51.357058 22699 net.cpp:399] pool4/3x3_s2 -> pool4/3x3_s2
I0403 18:31:51.357118 22699 net.cpp:141] Setting up pool4/3x3_s2
I0403 18:31:51.357141 22699 net.cpp:148] Top shape: 24 832 7 7 (978432)
I0403 18:31:51.357154 22699 net.cpp:156] Memory required for data: 1276470816
I0403 18:31:51.357168 22699 layer_factory.hpp:77] Creating layer pool4/3x3_s2_pool4/3x3_s2_0_split
I0403 18:31:51.357187 22699 net.cpp:91] Creating Layer pool4/3x3_s2_pool4/3x3_s2_0_split
I0403 18:31:51.357203 22699 net.cpp:425] pool4/3x3_s2_pool4/3x3_s2_0_split <- pool4/3x3_s2
I0403 18:31:51.357218 22699 net.cpp:399] pool4/3x3_s2_pool4/3x3_s2_0_split -> pool4/3x3_s2_pool4/3x3_s2_0_split_0
I0403 18:31:51.357239 22699 net.cpp:399] pool4/3x3_s2_pool4/3x3_s2_0_split -> pool4/3x3_s2_pool4/3x3_s2_0_split_1
I0403 18:31:51.357259 22699 net.cpp:399] pool4/3x3_s2_pool4/3x3_s2_0_split -> pool4/3x3_s2_pool4/3x3_s2_0_split_2
I0403 18:31:51.357278 22699 net.cpp:399] pool4/3x3_s2_pool4/3x3_s2_0_split -> pool4/3x3_s2_pool4/3x3_s2_0_split_3
I0403 18:31:51.357360 22699 net.cpp:141] Setting up pool4/3x3_s2_pool4/3x3_s2_0_split
I0403 18:31:51.357381 22699 net.cpp:148] Top shape: 24 832 7 7 (978432)
I0403 18:31:51.357396 22699 net.cpp:148] Top shape: 24 832 7 7 (978432)
I0403 18:31:51.357410 22699 net.cpp:148] Top shape: 24 832 7 7 (978432)
I0403 18:31:51.357425 22699 net.cpp:148] Top shape: 24 832 7 7 (978432)
I0403 18:31:51.357439 22699 net.cpp:156] Memory required for data: 1292125728
I0403 18:31:51.357451 22699 layer_factory.hpp:77] Creating layer inception_5a/1x1
I0403 18:31:51.357471 22699 net.cpp:91] Creating Layer inception_5a/1x1
I0403 18:31:51.357487 22699 net.cpp:425] inception_5a/1x1 <- pool4/3x3_s2_pool4/3x3_s2_0_split_0
I0403 18:31:51.357506 22699 net.cpp:399] inception_5a/1x1 -> inception_5a/1x1
I0403 18:31:51.360329 22699 net.cpp:141] Setting up inception_5a/1x1
I0403 18:31:51.360358 22699 net.cpp:148] Top shape: 24 256 7 7 (301056)
I0403 18:31:51.360376 22699 net.cpp:156] Memory required for data: 1293329952
I0403 18:31:51.360394 22699 layer_factory.hpp:77] Creating layer inception_5a/relu_1x1
I0403 18:31:51.360410 22699 net.cpp:91] Creating Layer inception_5a/relu_1x1
I0403 18:31:51.360425 22699 net.cpp:425] inception_5a/relu_1x1 <- inception_5a/1x1
I0403 18:31:51.360441 22699 net.cpp:386] inception_5a/relu_1x1 -> inception_5a/1x1 (in-place)
I0403 18:31:51.360752 22699 net.cpp:141] Setting up inception_5a/relu_1x1
I0403 18:31:51.360779 22699 net.cpp:148] Top shape: 24 256 7 7 (301056)
I0403 18:31:51.360795 22699 net.cpp:156] Memory required for data: 1294534176
I0403 18:31:51.360810 22699 layer_factory.hpp:77] Creating layer inception_5a/3x3_reduce
I0403 18:31:51.360829 22699 net.cpp:91] Creating Layer inception_5a/3x3_reduce
I0403 18:31:51.360846 22699 net.cpp:425] inception_5a/3x3_reduce <- pool4/3x3_s2_pool4/3x3_s2_0_split_1
I0403 18:31:51.360865 22699 net.cpp:399] inception_5a/3x3_reduce -> inception_5a/3x3_reduce
I0403 18:31:51.363462 22699 net.cpp:141] Setting up inception_5a/3x3_reduce
I0403 18:31:51.363492 22699 net.cpp:148] Top shape: 24 160 7 7 (188160)
I0403 18:31:51.363507 22699 net.cpp:156] Memory required for data: 1295286816
I0403 18:31:51.363524 22699 layer_factory.hpp:77] Creating layer inception_5a/relu_3x3_reduce
I0403 18:31:51.363545 22699 net.cpp:91] Creating Layer inception_5a/relu_3x3_reduce
I0403 18:31:51.363561 22699 net.cpp:425] inception_5a/relu_3x3_reduce <- inception_5a/3x3_reduce
I0403 18:31:51.363581 22699 net.cpp:386] inception_5a/relu_3x3_reduce -> inception_5a/3x3_reduce (in-place)
I0403 18:31:51.363759 22699 net.cpp:141] Setting up inception_5a/relu_3x3_reduce
I0403 18:31:51.363782 22699 net.cpp:148] Top shape: 24 160 7 7 (188160)
I0403 18:31:51.363796 22699 net.cpp:156] Memory required for data: 1296039456
I0403 18:31:51.363811 22699 layer_factory.hpp:77] Creating layer inception_5a/3x3
I0403 18:31:51.363831 22699 net.cpp:91] Creating Layer inception_5a/3x3
I0403 18:31:51.363848 22699 net.cpp:425] inception_5a/3x3 <- inception_5a/3x3_reduce
I0403 18:31:51.363869 22699 net.cpp:399] inception_5a/3x3 -> inception_5a/3x3
I0403 18:31:51.368782 22699 net.cpp:141] Setting up inception_5a/3x3
I0403 18:31:51.368811 22699 net.cpp:148] Top shape: 24 320 7 7 (376320)
I0403 18:31:51.368826 22699 net.cpp:156] Memory required for data: 1297544736
I0403 18:31:51.368844 22699 layer_factory.hpp:77] Creating layer inception_5a/relu_3x3
I0403 18:31:51.368863 22699 net.cpp:91] Creating Layer inception_5a/relu_3x3
I0403 18:31:51.368880 22699 net.cpp:425] inception_5a/relu_3x3 <- inception_5a/3x3
I0403 18:31:51.368896 22699 net.cpp:386] inception_5a/relu_3x3 -> inception_5a/3x3 (in-place)
I0403 18:31:51.369175 22699 net.cpp:141] Setting up inception_5a/relu_3x3
I0403 18:31:51.369200 22699 net.cpp:148] Top shape: 24 320 7 7 (376320)
I0403 18:31:51.369215 22699 net.cpp:156] Memory required for data: 1299050016
I0403 18:31:51.369230 22699 layer_factory.hpp:77] Creating layer inception_5a/5x5_reduce
I0403 18:31:51.369251 22699 net.cpp:91] Creating Layer inception_5a/5x5_reduce
I0403 18:31:51.369271 22699 net.cpp:425] inception_5a/5x5_reduce <- pool4/3x3_s2_pool4/3x3_s2_0_split_2
I0403 18:31:51.369288 22699 net.cpp:399] inception_5a/5x5_reduce -> inception_5a/5x5_reduce
I0403 18:31:51.370403 22699 net.cpp:141] Setting up inception_5a/5x5_reduce
I0403 18:31:51.370431 22699 net.cpp:148] Top shape: 24 32 7 7 (37632)
I0403 18:31:51.370447 22699 net.cpp:156] Memory required for data: 1299200544
I0403 18:31:51.370465 22699 layer_factory.hpp:77] Creating layer inception_5a/relu_5x5_reduce
I0403 18:31:51.370482 22699 net.cpp:91] Creating Layer inception_5a/relu_5x5_reduce
I0403 18:31:51.370497 22699 net.cpp:425] inception_5a/relu_5x5_reduce <- inception_5a/5x5_reduce
I0403 18:31:51.370513 22699 net.cpp:386] inception_5a/relu_5x5_reduce -> inception_5a/5x5_reduce (in-place)
I0403 18:31:51.370806 22699 net.cpp:141] Setting up inception_5a/relu_5x5_reduce
I0403 18:31:51.370833 22699 net.cpp:148] Top shape: 24 32 7 7 (37632)
I0403 18:31:51.370849 22699 net.cpp:156] Memory required for data: 1299351072
I0403 18:31:51.370863 22699 layer_factory.hpp:77] Creating layer inception_5a/5x5
I0403 18:31:51.370884 22699 net.cpp:91] Creating Layer inception_5a/5x5
I0403 18:31:51.370901 22699 net.cpp:425] inception_5a/5x5 <- inception_5a/5x5_reduce
I0403 18:31:51.370919 22699 net.cpp:399] inception_5a/5x5 -> inception_5a/5x5
I0403 18:31:51.372573 22699 net.cpp:141] Setting up inception_5a/5x5
I0403 18:31:51.372613 22699 net.cpp:148] Top shape: 24 128 7 7 (150528)
I0403 18:31:51.372628 22699 net.cpp:156] Memory required for data: 1299953184
I0403 18:31:51.372645 22699 layer_factory.hpp:77] Creating layer inception_5a/relu_5x5
I0403 18:31:51.372664 22699 net.cpp:91] Creating Layer inception_5a/relu_5x5
I0403 18:31:51.372681 22699 net.cpp:425] inception_5a/relu_5x5 <- inception_5a/5x5
I0403 18:31:51.372697 22699 net.cpp:386] inception_5a/relu_5x5 -> inception_5a/5x5 (in-place)
I0403 18:31:51.372875 22699 net.cpp:141] Setting up inception_5a/relu_5x5
I0403 18:31:51.372901 22699 net.cpp:148] Top shape: 24 128 7 7 (150528)
I0403 18:31:51.372917 22699 net.cpp:156] Memory required for data: 1300555296
I0403 18:31:51.372931 22699 layer_factory.hpp:77] Creating layer inception_5a/pool
I0403 18:31:51.372948 22699 net.cpp:91] Creating Layer inception_5a/pool
I0403 18:31:51.372963 22699 net.cpp:425] inception_5a/pool <- pool4/3x3_s2_pool4/3x3_s2_0_split_3
I0403 18:31:51.372982 22699 net.cpp:399] inception_5a/pool -> inception_5a/pool
I0403 18:31:51.373049 22699 net.cpp:141] Setting up inception_5a/pool
I0403 18:31:51.373072 22699 net.cpp:148] Top shape: 24 832 7 7 (978432)
I0403 18:31:51.373086 22699 net.cpp:156] Memory required for data: 1304469024
I0403 18:31:51.373100 22699 layer_factory.hpp:77] Creating layer inception_5a/pool_proj
I0403 18:31:51.373121 22699 net.cpp:91] Creating Layer inception_5a/pool_proj
I0403 18:31:51.373138 22699 net.cpp:425] inception_5a/pool_proj <- inception_5a/pool
I0403 18:31:51.373157 22699 net.cpp:399] inception_5a/pool_proj -> inception_5a/pool_proj
I0403 18:31:51.375458 22699 net.cpp:141] Setting up inception_5a/pool_proj
I0403 18:31:51.375485 22699 net.cpp:148] Top shape: 24 128 7 7 (150528)
I0403 18:31:51.375499 22699 net.cpp:156] Memory required for data: 1305071136
I0403 18:31:51.375516 22699 layer_factory.hpp:77] Creating layer inception_5a/relu_pool_proj
I0403 18:31:51.375535 22699 net.cpp:91] Creating Layer inception_5a/relu_pool_proj
I0403 18:31:51.375555 22699 net.cpp:425] inception_5a/relu_pool_proj <- inception_5a/pool_proj
I0403 18:31:51.375571 22699 net.cpp:386] inception_5a/relu_pool_proj -> inception_5a/pool_proj (in-place)
I0403 18:31:51.375854 22699 net.cpp:141] Setting up inception_5a/relu_pool_proj
I0403 18:31:51.375877 22699 net.cpp:148] Top shape: 24 128 7 7 (150528)
I0403 18:31:51.375891 22699 net.cpp:156] Memory required for data: 1305673248
I0403 18:31:51.375905 22699 layer_factory.hpp:77] Creating layer inception_5a/output
I0403 18:31:51.375923 22699 net.cpp:91] Creating Layer inception_5a/output
I0403 18:31:51.375938 22699 net.cpp:425] inception_5a/output <- inception_5a/1x1
I0403 18:31:51.375953 22699 net.cpp:425] inception_5a/output <- inception_5a/3x3
I0403 18:31:51.375968 22699 net.cpp:425] inception_5a/output <- inception_5a/5x5
I0403 18:31:51.375983 22699 net.cpp:425] inception_5a/output <- inception_5a/pool_proj
I0403 18:31:51.375998 22699 net.cpp:399] inception_5a/output -> inception_5a/output
I0403 18:31:51.376044 22699 net.cpp:141] Setting up inception_5a/output
I0403 18:31:51.376067 22699 net.cpp:148] Top shape: 24 832 7 7 (978432)
I0403 18:31:51.376081 22699 net.cpp:156] Memory required for data: 1309586976
I0403 18:31:51.376094 22699 layer_factory.hpp:77] Creating layer inception_5a/output_inception_5a/output_0_split
I0403 18:31:51.376109 22699 net.cpp:91] Creating Layer inception_5a/output_inception_5a/output_0_split
I0403 18:31:51.376124 22699 net.cpp:425] inception_5a/output_inception_5a/output_0_split <- inception_5a/output
I0403 18:31:51.376142 22699 net.cpp:399] inception_5a/output_inception_5a/output_0_split -> inception_5a/output_inception_5a/output_0_split_0
I0403 18:31:51.376163 22699 net.cpp:399] inception_5a/output_inception_5a/output_0_split -> inception_5a/output_inception_5a/output_0_split_1
I0403 18:31:51.376181 22699 net.cpp:399] inception_5a/output_inception_5a/output_0_split -> inception_5a/output_inception_5a/output_0_split_2
I0403 18:31:51.376200 22699 net.cpp:399] inception_5a/output_inception_5a/output_0_split -> inception_5a/output_inception_5a/output_0_split_3
I0403 18:31:51.376302 22699 net.cpp:141] Setting up inception_5a/output_inception_5a/output_0_split
I0403 18:31:51.376327 22699 net.cpp:148] Top shape: 24 832 7 7 (978432)
I0403 18:31:51.376343 22699 net.cpp:148] Top shape: 24 832 7 7 (978432)
I0403 18:31:51.376358 22699 net.cpp:148] Top shape: 24 832 7 7 (978432)
I0403 18:31:51.376371 22699 net.cpp:148] Top shape: 24 832 7 7 (978432)
I0403 18:31:51.376384 22699 net.cpp:156] Memory required for data: 1325241888
I0403 18:31:51.376396 22699 layer_factory.hpp:77] Creating layer inception_5b/1x1
I0403 18:31:51.376416 22699 net.cpp:91] Creating Layer inception_5b/1x1
I0403 18:31:51.376432 22699 net.cpp:425] inception_5b/1x1 <- inception_5a/output_inception_5a/output_0_split_0
I0403 18:31:51.376451 22699 net.cpp:399] inception_5b/1x1 -> inception_5b/1x1
I0403 18:31:51.380017 22699 net.cpp:141] Setting up inception_5b/1x1
I0403 18:31:51.380044 22699 net.cpp:148] Top shape: 24 384 7 7 (451584)
I0403 18:31:51.380059 22699 net.cpp:156] Memory required for data: 1327048224
I0403 18:31:51.380075 22699 layer_factory.hpp:77] Creating layer inception_5b/relu_1x1
I0403 18:31:51.380092 22699 net.cpp:91] Creating Layer inception_5b/relu_1x1
I0403 18:31:51.380107 22699 net.cpp:425] inception_5b/relu_1x1 <- inception_5b/1x1
I0403 18:31:51.380125 22699 net.cpp:386] inception_5b/relu_1x1 -> inception_5b/1x1 (in-place)
I0403 18:31:51.380411 22699 net.cpp:141] Setting up inception_5b/relu_1x1
I0403 18:31:51.380436 22699 net.cpp:148] Top shape: 24 384 7 7 (451584)
I0403 18:31:51.380450 22699 net.cpp:156] Memory required for data: 1328854560
I0403 18:31:51.380463 22699 layer_factory.hpp:77] Creating layer inception_5b/3x3_reduce
I0403 18:31:51.380486 22699 net.cpp:91] Creating Layer inception_5b/3x3_reduce
I0403 18:31:51.380501 22699 net.cpp:425] inception_5b/3x3_reduce <- inception_5a/output_inception_5a/output_0_split_1
I0403 18:31:51.380522 22699 net.cpp:399] inception_5b/3x3_reduce -> inception_5b/3x3_reduce
I0403 18:31:51.383057 22699 net.cpp:141] Setting up inception_5b/3x3_reduce
I0403 18:31:51.383085 22699 net.cpp:148] Top shape: 24 192 7 7 (225792)
I0403 18:31:51.383100 22699 net.cpp:156] Memory required for data: 1329757728
I0403 18:31:51.383116 22699 layer_factory.hpp:77] Creating layer inception_5b/relu_3x3_reduce
I0403 18:31:51.383136 22699 net.cpp:91] Creating Layer inception_5b/relu_3x3_reduce
I0403 18:31:51.383150 22699 net.cpp:425] inception_5b/relu_3x3_reduce <- inception_5b/3x3_reduce
I0403 18:31:51.383167 22699 net.cpp:386] inception_5b/relu_3x3_reduce -> inception_5b/3x3_reduce (in-place)
I0403 18:31:51.383342 22699 net.cpp:141] Setting up inception_5b/relu_3x3_reduce
I0403 18:31:51.383365 22699 net.cpp:148] Top shape: 24 192 7 7 (225792)
I0403 18:31:51.383379 22699 net.cpp:156] Memory required for data: 1330660896
I0403 18:31:51.383394 22699 layer_factory.hpp:77] Creating layer inception_5b/3x3
I0403 18:31:51.383415 22699 net.cpp:91] Creating Layer inception_5b/3x3
I0403 18:31:51.383440 22699 net.cpp:425] inception_5b/3x3 <- inception_5b/3x3_reduce
I0403 18:31:51.383457 22699 net.cpp:399] inception_5b/3x3 -> inception_5b/3x3
I0403 18:31:51.389839 22699 net.cpp:141] Setting up inception_5b/3x3
I0403 18:31:51.389866 22699 net.cpp:148] Top shape: 24 384 7 7 (451584)
I0403 18:31:51.389881 22699 net.cpp:156] Memory required for data: 1332467232
I0403 18:31:51.389899 22699 layer_factory.hpp:77] Creating layer inception_5b/relu_3x3
I0403 18:31:51.389917 22699 net.cpp:91] Creating Layer inception_5b/relu_3x3
I0403 18:31:51.389933 22699 net.cpp:425] inception_5b/relu_3x3 <- inception_5b/3x3
I0403 18:31:51.389950 22699 net.cpp:386] inception_5b/relu_3x3 -> inception_5b/3x3 (in-place)
I0403 18:31:51.390233 22699 net.cpp:141] Setting up inception_5b/relu_3x3
I0403 18:31:51.390259 22699 net.cpp:148] Top shape: 24 384 7 7 (451584)
I0403 18:31:51.390272 22699 net.cpp:156] Memory required for data: 1334273568
I0403 18:31:51.390286 22699 layer_factory.hpp:77] Creating layer inception_5b/5x5_reduce
I0403 18:31:51.390329 22699 net.cpp:91] Creating Layer inception_5b/5x5_reduce
I0403 18:31:51.390347 22699 net.cpp:425] inception_5b/5x5_reduce <- inception_5a/output_inception_5a/output_0_split_2
I0403 18:31:51.390367 22699 net.cpp:399] inception_5b/5x5_reduce -> inception_5b/5x5_reduce
I0403 18:31:51.391564 22699 net.cpp:141] Setting up inception_5b/5x5_reduce
I0403 18:31:51.391590 22699 net.cpp:148] Top shape: 24 48 7 7 (56448)
I0403 18:31:51.391605 22699 net.cpp:156] Memory required for data: 1334499360
I0403 18:31:51.391621 22699 layer_factory.hpp:77] Creating layer inception_5b/relu_5x5_reduce
I0403 18:31:51.391640 22699 net.cpp:91] Creating Layer inception_5b/relu_5x5_reduce
I0403 18:31:51.391656 22699 net.cpp:425] inception_5b/relu_5x5_reduce <- inception_5b/5x5_reduce
I0403 18:31:51.391672 22699 net.cpp:386] inception_5b/relu_5x5_reduce -> inception_5b/5x5_reduce (in-place)
I0403 18:31:51.392030 22699 net.cpp:141] Setting up inception_5b/relu_5x5_reduce
I0403 18:31:51.392055 22699 net.cpp:148] Top shape: 24 48 7 7 (56448)
I0403 18:31:51.392069 22699 net.cpp:156] Memory required for data: 1334725152
I0403 18:31:51.392083 22699 layer_factory.hpp:77] Creating layer inception_5b/5x5
I0403 18:31:51.392102 22699 net.cpp:91] Creating Layer inception_5b/5x5
I0403 18:31:51.392117 22699 net.cpp:425] inception_5b/5x5 <- inception_5b/5x5_reduce
I0403 18:31:51.392135 22699 net.cpp:399] inception_5b/5x5 -> inception_5b/5x5
I0403 18:31:51.394068 22699 net.cpp:141] Setting up inception_5b/5x5
I0403 18:31:51.394095 22699 net.cpp:148] Top shape: 24 128 7 7 (150528)
I0403 18:31:51.394112 22699 net.cpp:156] Memory required for data: 1335327264
I0403 18:31:51.394129 22699 layer_factory.hpp:77] Creating layer inception_5b/relu_5x5
I0403 18:31:51.394145 22699 net.cpp:91] Creating Layer inception_5b/relu_5x5
I0403 18:31:51.394160 22699 net.cpp:425] inception_5b/relu_5x5 <- inception_5b/5x5
I0403 18:31:51.394176 22699 net.cpp:386] inception_5b/relu_5x5 -> inception_5b/5x5 (in-place)
I0403 18:31:51.394356 22699 net.cpp:141] Setting up inception_5b/relu_5x5
I0403 18:31:51.394381 22699 net.cpp:148] Top shape: 24 128 7 7 (150528)
I0403 18:31:51.394394 22699 net.cpp:156] Memory required for data: 1335929376
I0403 18:31:51.394408 22699 layer_factory.hpp:77] Creating layer inception_5b/pool
I0403 18:31:51.394424 22699 net.cpp:91] Creating Layer inception_5b/pool
I0403 18:31:51.394439 22699 net.cpp:425] inception_5b/pool <- inception_5a/output_inception_5a/output_0_split_3
I0403 18:31:51.394457 22699 net.cpp:399] inception_5b/pool -> inception_5b/pool
I0403 18:31:51.394525 22699 net.cpp:141] Setting up inception_5b/pool
I0403 18:31:51.394558 22699 net.cpp:148] Top shape: 24 832 7 7 (978432)
I0403 18:31:51.394575 22699 net.cpp:156] Memory required for data: 1339843104
I0403 18:31:51.394598 22699 layer_factory.hpp:77] Creating layer inception_5b/pool_proj
I0403 18:31:51.394618 22699 net.cpp:91] Creating Layer inception_5b/pool_proj
I0403 18:31:51.394632 22699 net.cpp:425] inception_5b/pool_proj <- inception_5b/pool
I0403 18:31:51.394651 22699 net.cpp:399] inception_5b/pool_proj -> inception_5b/pool_proj
I0403 18:31:51.396834 22699 net.cpp:141] Setting up inception_5b/pool_proj
I0403 18:31:51.396862 22699 net.cpp:148] Top shape: 24 128 7 7 (150528)
I0403 18:31:51.396877 22699 net.cpp:156] Memory required for data: 1340445216
I0403 18:31:51.396893 22699 layer_factory.hpp:77] Creating layer inception_5b/relu_pool_proj
I0403 18:31:51.396913 22699 net.cpp:91] Creating Layer inception_5b/relu_pool_proj
I0403 18:31:51.396929 22699 net.cpp:425] inception_5b/relu_pool_proj <- inception_5b/pool_proj
I0403 18:31:51.396944 22699 net.cpp:386] inception_5b/relu_pool_proj -> inception_5b/pool_proj (in-place)
I0403 18:31:51.397222 22699 net.cpp:141] Setting up inception_5b/relu_pool_proj
I0403 18:31:51.397246 22699 net.cpp:148] Top shape: 24 128 7 7 (150528)
I0403 18:31:51.397260 22699 net.cpp:156] Memory required for data: 1341047328
I0403 18:31:51.397274 22699 layer_factory.hpp:77] Creating layer inception_5b/output
I0403 18:31:51.397291 22699 net.cpp:91] Creating Layer inception_5b/output
I0403 18:31:51.397320 22699 net.cpp:425] inception_5b/output <- inception_5b/1x1
I0403 18:31:51.397338 22699 net.cpp:425] inception_5b/output <- inception_5b/3x3
I0403 18:31:51.397356 22699 net.cpp:425] inception_5b/output <- inception_5b/5x5
I0403 18:31:51.397370 22699 net.cpp:425] inception_5b/output <- inception_5b/pool_proj
I0403 18:31:51.397385 22699 net.cpp:399] inception_5b/output -> inception_5b/output
I0403 18:31:51.397434 22699 net.cpp:141] Setting up inception_5b/output
I0403 18:31:51.397456 22699 net.cpp:148] Top shape: 24 1024 7 7 (1204224)
I0403 18:31:51.397470 22699 net.cpp:156] Memory required for data: 1345864224
I0403 18:31:51.397483 22699 layer_factory.hpp:77] Creating layer pool5/7x7_s1
I0403 18:31:51.397500 22699 net.cpp:91] Creating Layer pool5/7x7_s1
I0403 18:31:51.397513 22699 net.cpp:425] pool5/7x7_s1 <- inception_5b/output
I0403 18:31:51.397532 22699 net.cpp:399] pool5/7x7_s1 -> pool5/7x7_s1
I0403 18:31:51.397735 22699 net.cpp:141] Setting up pool5/7x7_s1
I0403 18:31:51.397758 22699 net.cpp:148] Top shape: 24 1024 1 1 (24576)
I0403 18:31:51.397773 22699 net.cpp:156] Memory required for data: 1345962528
I0403 18:31:51.397785 22699 layer_factory.hpp:77] Creating layer pool5/drop_7x7_s1
I0403 18:31:51.397804 22699 net.cpp:91] Creating Layer pool5/drop_7x7_s1
I0403 18:31:51.397819 22699 net.cpp:425] pool5/drop_7x7_s1 <- pool5/7x7_s1
I0403 18:31:51.397835 22699 net.cpp:386] pool5/drop_7x7_s1 -> pool5/7x7_s1 (in-place)
I0403 18:31:51.397882 22699 net.cpp:141] Setting up pool5/drop_7x7_s1
I0403 18:31:51.397904 22699 net.cpp:148] Top shape: 24 1024 1 1 (24576)
I0403 18:31:51.397917 22699 net.cpp:156] Memory required for data: 1346060832
I0403 18:31:51.397930 22699 layer_factory.hpp:77] Creating layer loss3/classifier_plantvillage
I0403 18:31:51.397948 22699 net.cpp:91] Creating Layer loss3/classifier_plantvillage
I0403 18:31:51.397963 22699 net.cpp:425] loss3/classifier_plantvillage <- pool5/7x7_s1
I0403 18:31:51.397980 22699 net.cpp:399] loss3/classifier_plantvillage -> loss3/classifier_plantvillage
I0403 18:31:51.398391 22699 net.cpp:141] Setting up loss3/classifier_plantvillage
I0403 18:31:51.398414 22699 net.cpp:148] Top shape: 24 38 (912)
I0403 18:31:51.398427 22699 net.cpp:156] Memory required for data: 1346064480
I0403 18:31:51.398444 22699 layer_factory.hpp:77] Creating layer loss3/classifier_plantvillage_loss3/classifier_plantvillage_0_split
I0403 18:31:51.398460 22699 net.cpp:91] Creating Layer loss3/classifier_plantvillage_loss3/classifier_plantvillage_0_split
I0403 18:31:51.398473 22699 net.cpp:425] loss3/classifier_plantvillage_loss3/classifier_plantvillage_0_split <- loss3/classifier_plantvillage
I0403 18:31:51.398493 22699 net.cpp:399] loss3/classifier_plantvillage_loss3/classifier_plantvillage_0_split -> loss3/classifier_plantvillage_loss3/classifier_plantvillage_0_split_0
I0403 18:31:51.398511 22699 net.cpp:399] loss3/classifier_plantvillage_loss3/classifier_plantvillage_0_split -> loss3/classifier_plantvillage_loss3/classifier_plantvillage_0_split_1
I0403 18:31:51.398530 22699 net.cpp:399] loss3/classifier_plantvillage_loss3/classifier_plantvillage_0_split -> loss3/classifier_plantvillage_loss3/classifier_plantvillage_0_split_2
I0403 18:31:51.398553 22699 net.cpp:399] loss3/classifier_plantvillage_loss3/classifier_plantvillage_0_split -> loss3/classifier_plantvillage_loss3/classifier_plantvillage_0_split_3
I0403 18:31:51.398648 22699 net.cpp:141] Setting up loss3/classifier_plantvillage_loss3/classifier_plantvillage_0_split
I0403 18:31:51.398669 22699 net.cpp:148] Top shape: 24 38 (912)
I0403 18:31:51.398684 22699 net.cpp:148] Top shape: 24 38 (912)
I0403 18:31:51.398697 22699 net.cpp:148] Top shape: 24 38 (912)
I0403 18:31:51.398711 22699 net.cpp:148] Top shape: 24 38 (912)
I0403 18:31:51.398725 22699 net.cpp:156] Memory required for data: 1346079072
I0403 18:31:51.398737 22699 layer_factory.hpp:77] Creating layer loss1/loss
I0403 18:31:51.398757 22699 net.cpp:91] Creating Layer loss1/loss
I0403 18:31:51.398772 22699 net.cpp:425] loss1/loss <- loss1/classifier_plantvillage_loss1/classifier_plantvillage_0_split_0
I0403 18:31:51.398802 22699 net.cpp:425] loss1/loss <- label_data_1_split_0
…
