…
I0403 18:09:17.385138 21523 net.cpp:313] The NetState phase (1) differed from the phase (0) specified by a rule in layer data
I0403 18:09:17.386263 21523 net.cpp:49] Initializing net from parameters: 
state {
  phase: TEST
}
layer {
  name: "data"
  type: "Data"
  top: "data"
  top: "label"
  include {
    phase: TEST
  }
  transform_param {
    mirror: false
    crop_size: 224
    mean_file: "/home/mohanty/data/final_dataset/lmdb/segmented-40-60/mean.binaryproto"
  }
  data_param {
    source: "/home/mohanty/data/final_dataset/lmdb/segmented-40-60/test_db"
    batch_size: 24
    backend: LMDB
  }
}
layer {
  name: "conv1/7x7_s2"
  type: "Convolution"
  bottom: "data"
  top: "conv1/7x7_s2"
  param {
    lr_mult: 1
    decay_mult: 1
  }
  param {
    lr_mult: 2
    decay_mult: 0
  }
  convolution_param {
    num_output: 64
    pad: 3
    kernel_size: 7
    stride: 2
    weight_filler {
      type: "xavier"
      std: 0.1
    }
    bias_filler {
      type: "constant"
      value: 0.2
    }
  }
}
layer {
  name: "conv1/relu_7x7"
  type: "ReLU"
  bottom: "conv1/7x7_s2"
  top: "conv1/7x7_s2"
}
layer {
  name: "pool1/3x3_s2"
  type: "Pooling"
  bottom: "conv1/7x7_s2"
  top: "pool1/3x3_s2"
  pooling_param {
    pool: MAX
    kernel_size: 3
    stride: 2
  }
}
layer {
  name: "pool1/norm1"
  type: "LRN"
  bottom: "pool1/3x3_s2"
  top: "pool1/norm1"
  lrn_param {
    local_size: 5
    alpha: 0.0001
    beta: 0.75
  }
}
layer {
  name: "conv2/3x3_reduce"
  type: "Convolution"
  bottom: "pool1/norm1"
  top: "conv2/3x3_reduce"
  param {
    lr_mult: 1
    decay_mult: 1
  }
  param {
    lr_mult: 2
    decay_mult: 0
  }
  convolution_param {
    num_output: 64
    kernel_size: 1
    weight_filler {
      type: "xavier"
      std: 0.1
    }
    bias_filler {
      type: "constant"
      value: 0.2
    }
  }
}
layer {
  name: "conv2/relu_3x3_reduce"
  type: "ReLU"
  bottom: "conv2/3x3_reduce"
  top: "conv2/3x3_reduce"
}
layer {
  name: "conv2/3x3"
  type: "Convolution"
  bottom: "conv2/3x3_reduce"
  top: "conv2/3x3"
  param {
    lr_mult: 1
    decay_mult: 1
  }
  param {
    lr_mult: 2
    decay_mult: 0
  }
  convolution_param {
    num_output: 192
    pad: 1
    kernel_size: 3
    weight_filler {
      type: "xavier"
      std: 0.03
    }
    bias_filler {
      type: "constant"
      value: 0.2
    }
  }
}
layer {
  name: "conv2/relu_3x3"
  type: "ReLU"
  bottom: "conv2/3x3"
  top: "conv2/3x3"
}
layer {
  name: "conv2/norm2"
  type: "LRN"
  bottom: "conv2/3x3"
  top: "conv2/norm2"
  lrn_param {
    local_size: 5
    alpha: 0.0001
    beta: 0.75
  }
}
layer {
  name: "pool2/3x3_s2"
  type: "Pooling"
  bottom: "conv2/norm2"
  top: "pool2/3x3_s2"
  pooling_param {
    pool: MAX
    kernel_size: 3
    stride: 2
  }
}
layer {
  name: "inception_3a/1x1"
  type: "Convolution"
  bottom: "pool2/3x3_s2"
  top: "inception_3a/1x1"
  param {
    lr_mult: 1
    decay_mult: 1
  }
  param {
    lr_mult: 2
    decay_mult: 0
  }
  convolution_param {
    num_output: 64
    kernel_size: 1
    weight_filler {
      type: "xavier"
      std: 0.03
    }
    bias_filler {
      type: "constant"
      value: 0.2
    }
  }
}
layer {
  name: "inception_3a/relu_1x1"
  type: "ReLU"
  bottom: "inception_3a/1x1"
  top: "inception_3a/1x1"
}
layer {
  name: "inception_3a/3x3_reduce"
  type: "Convolution"
  bottom: "pool2/3x3_s2"
  top: "inception_3a/3x3_reduce"
  param {
    lr_mult: 1
    decay_mult: 1
  }
  param {
    lr_mult: 2
    decay_mult: 0
  }
  convolution_param {
    num_output: 96
    kernel_size: 1
    weight_filler {
      type: "xavier"
      std: 0.09
    }
    bias_filler {
      type: "constant"
      value: 0.2
    }
  }
}
layer {
  name: "inception_3a/relu_3x3_reduce"
  type: "ReLU"
  bottom: "inception_3a/3x3_reduce"
  top: "inception_3a/3x3_reduce"
}
layer {
  name: "inception_3a/3x3"
  type: "Convolution"
  bottom: "inception_3a/3x3_reduce"
  top: "inception_3a/3x3"
  param {
    lr_mult: 1
    decay_mult: 1
  }
  param {
    lr_mult: 2
    decay_mult: 0
  }
  convolution_param {
    num_output: 128
    pad: 1
    kernel_size: 3
    weight_filler {
      type: "xavier"
      std: 0.03
    }
    bias_filler {
      type: "constant"
      value: 0.2
    }
  }
}
layer {
  name: "inception_3a/relu_3x3"
  type: "ReLU"
  bottom: "inception_3a/3x3"
  top: "inception_3a/3x3"
}
layer {
  name: "inception_3a/5x5_reduce"
  type: "Convolution"
  bottom: "pool2/3x3_s2"
  top: "inception_3a/5x5_reduce"
  param {
    lr_mult: 1
    decay_mult: 1
  }
  param {
    lr_mult: 2
    decay_mult: 0
  }
  convolution_param {
    num_output: 16
    kernel_size: 1
    weight_filler {
      type: "xavier"
      std: 0.2
    }
    bias_filler {
      type: "constant"
      value: 0.2
    }
  }
}
layer {
  name: "inception_3a/relu_5x5_reduce"
  type: "ReLU"
  bottom: "inception_3a/5x5_reduce"
  top: "inception_3a/5x5_reduce"
}
layer {
  name: "inception_3a/5x5"
  type: "Convolution"
  bottom: "inception_3a/5x5_reduce"
  top: "inception_3a/5x5"
  param {
    lr_mult: 1
    decay_mult: 1
  }
  param {
    lr_mult: 2
    decay_mult: 0
  }
  convolution_param {
    num_output: 32
    pad: 2
    kernel_size: 5
    weight_filler {
      type: "xavier"
      std: 0.03
    }
    bias_filler {
      type: "constant"
      value: 0.2
    }
  }
}
layer {
  name: "inception_3a/relu_5x5"
  type: "ReLU"
  bottom: "inception_3a/5x5"
  top: "inception_3a/5x5"
}
layer {
  name: "inception_3a/pool"
  type: "Pooling"
  bottom: "pool2/3x3_s2"
  top: "inception_3a/pool"
  pooling_param {
    pool: MAX
    kernel_size: 3
    stride: 1
    pad: 1
  }
}
layer {
  name: "inception_3a/pool_proj"
  type: "Convolution"
  bottom: "inception_3a/pool"
  top: "inception_3a/pool_proj"
  param {
    lr_mult: 1
    decay_mult: 1
  }
  param {
    lr_mult: 2
    decay_mult: 0
  }
  convolution_param {
    num_output: 32
    kernel_size: 1
    weight_filler {
      type: "xavier"
      std: 0.1
    }
    bias_filler {
      type: "constant"
      value: 0.2
    }
  }
}
layer {
  name: "inception_3a/relu_pool_proj"
  type: "ReLU"
  bottom: "inception_3a/pool_proj"
  top: "inception_3a/pool_proj"
}
layer {
  name: "inception_3a/output"
  type: "Concat"
  bottom: "inception_3a/1x1"
  bottom: "inception_3a/3x3"
  bottom: "inception_3a/5x5"
  bottom: "inception_3a/pool_proj"
  top: "inception_3a/output"
}
layer {
  name: "inception_3b/1x1"
  type: "Convolution"
  bottom: "inception_3a/output"
  top: "inception_3b/1x1"
  param {
    lr_mult: 1
    decay_mult: 1
  }
  param {
    lr_mult: 2
    decay_mult: 0
  }
  convolution_param {
    num_output: 128
    kernel_size: 1
    weight_filler {
      type: "xavier"
      std: 0.03
    }
    bias_filler {
      type: "constant"
      value: 0.2
    }
  }
}
layer {
  name: "inception_3b/relu_1x1"
  type: "ReLU"
  bottom: "inception_3b/1x1"
  top: "inception_3b/1x1"
}
layer {
  name: "inception_3b/3x3_reduce"
  type: "Convolution"
  bottom: "inception_3a/output"
  top: "inception_3b/3x3_reduce"
  param {
    lr_mult: 1
    decay_mult: 1
  }
  param {
    lr_mult: 2
    decay_mult: 0
  }
  convolution_param {
    num_output: 128
    kernel_size: 1
    weight_filler {
      type: "xavier"
      std: 0.09
    }
    bias_filler {
      type: "constant"
      value: 0.2
    }
  }
}
layer {
  name: "inception_3b/relu_3x3_reduce"
  type: "ReLU"
  bottom: "inception_3b/3x3_reduce"
  top: "inception_3b/3x3_reduce"
}
layer {
  name: "inception_3b/3x3"
  type: "Convolution"
  bottom: "inception_3b/3x3_reduce"
  top: "inception_3b/3x3"
  param {
    lr_mult: 1
    decay_mult: 1
  }
  param {
    lr_mult: 2
    decay_mult: 0
  }
  convolution_param {
    num_output: 192
    pad: 1
    kernel_size: 3
    weight_filler {
      type: "xavier"
      std: 0.03
    }
    bias_filler {
      type: "constant"
      value: 0.2
    }
  }
}
layer {
  name: "inception_3b/relu_3x3"
  type: "ReLU"
  bottom: "inception_3b/3x3"
  top: "inception_3b/3x3"
}
layer {
  name: "inception_3b/5x5_reduce"
  type: "Convolution"
  bottom: "inception_3a/output"
  top: "inception_3b/5x5_reduce"
  param {
    lr_mult: 1
    decay_mult: 1
  }
  param {
    lr_mult: 2
    decay_mult: 0
  }
  convolution_param {
    num_output: 32
    kernel_size: 1
    weight_filler {
      type: "xavier"
      std: 0.2
    }
    bias_filler {
      type: "constant"
      value: 0.2
    }
  }
}
layer {
  name: "inception_3b/relu_5x5_reduce"
  type: "ReLU"
  bottom: "inception_3b/5x5_reduce"
  top: "inception_3b/5x5_reduce"
}
layer {
  name: "inception_3b/5x5"
  type: "Convolution"
  bottom: "inception_3b/5x5_reduce"
  top: "inception_3b/5x5"
  param {
    lr_mult: 1
    decay_mult: 1
  }
  param {
    lr_mult: 2
    decay_mult: 0
  }
  convolution_param {
    num_output: 96
    pad: 2
    kernel_size: 5
    weight_filler {
      type: "xavier"
      std: 0.03
    }
    bias_filler {
      type: "constant"
      value: 0.2
    }
  }
}
layer {
  name: "inception_3b/relu_5x5"
  type: "ReLU"
  bottom: "inception_3b/5x5"
  top: "inception_3b/5x5"
}
layer {
  name: "inception_3b/pool"
  type: "Pooling"
  bottom: "inception_3a/output"
  top: "inception_3b/pool"
  pooling_param {
    pool: MAX
    kernel_size: 3
    stride: 1
    pad: 1
  }
}
layer {
  name: "inception_3b/pool_proj"
  type: "Convolution"
  bottom: "inception_3b/pool"
  top: "inception_3b/pool_proj"
  param {
    lr_mult: 1
    decay_mult: 1
  }
  param {
    lr_mult: 2
    decay_mult: 0
  }
  convolution_param {
    num_output: 64
    kernel_size: 1
    weight_filler {
      type: "xavier"
      std: 0.1
    }
    bias_filler {
      type: "constant"
      value: 0.2
    }
  }
}
layer {
  name: "inception_3b/relu_pool_proj"
  type: "ReLU"
  bottom: "inception_3b/pool_proj"
  top: "inception_3b/pool_proj"
}
layer {
  name: "inception_3b/output"
  type: "Concat"
  bottom: "inception_3b/1x1"
  bottom: "inception_3b/3x3"
  bottom: "inception_3b/5x5"
  bottom: "inception_3b/pool_proj"
  top: "inception_3b/output"
}
layer {
  name: "pool3/3x3_s2"
  type: "Pooling"
  bottom: "inception_3b/output"
  top: "pool3/3x3_s2"
  pooling_param {
    pool: MAX
    kernel_size: 3
    stride: 2
  }
}
layer {
  name: "inception_4a/1x1"
  type: "Convolution"
  bottom: "pool3/3x3_s2"
  top: "inception_4a/1x1"
  param {
    lr_mult: 1
    decay_mult: 1
  }
  param {
    lr_mult: 2
    decay_mult: 0
  }
  convolution_param {
    num_output: 192
    kernel_size: 1
    weight_filler {
      type: "xavier"
      std: 0.03
    }
    bias_filler {
      type: "constant"
      value: 0.2
    }
  }
}
layer {
  name: "inception_4a/relu_1x1"
  type: "ReLU"
  bottom: "inception_4a/1x1"
  top: "inception_4a/1x1"
}
layer {
  name: "inception_4a/3x3_reduce"
  type: "Convolution"
  bottom: "pool3/3x3_s2"
  top: "inception_4a/3x3_reduce"
  param {
    lr_mult: 1
    decay_mult: 1
  }
  param {
    lr_mult: 2
    decay_mult: 0
  }
  convolution_param {
    num_output: 96
    kernel_size: 1
    weight_filler {
      type: "xavier"
      std: 0.09
    }
    bias_filler {
      type: "constant"
      value: 0.2
    }
  }
}
layer {
  name: "inception_4a/relu_3x3_reduce"
  type: "ReLU"
  bottom: "inception_4a/3x3_reduce"
  top: "inception_4a/3x3_reduce"
}
layer {
  name: "inception_4a/3x3"
  type: "Convolution"
  bottom: "inception_4a/3x3_reduce"
  top: "inception_4a/3x3"
  param {
    lr_mult: 1
    decay_mult: 1
  }
  param {
    lr_mult: 2
    decay_mult: 0
  }
  convolution_param {
    num_output: 208
    pad: 1
    kernel_size: 3
    weight_filler {
      type: "xavier"
      std: 0.03
    }
    bias_filler {
      type: "constant"
      value: 0.2
    }
  }
}
layer {
  name: "inception_4a/relu_3x3"
  type: "ReLU"
  bottom: "inception_4a/3x3"
  top: "inception_4a/3x3"
}
layer {
  name: "inception_4a/5x5_reduce"
  type: "Convolution"
  bottom: "pool3/3x3_s2"
  top: "inception_4a/5x5_reduce"
  param {
    lr_mult: 1
    decay_mult: 1
  }
  param {
    lr_mult: 2
    decay_mult: 0
  }
  convolution_param {
    num_output: 16
    kernel_size: 1
    weight_filler {
      type: "xavier"
      std: 0.2
    }
    bias_filler {
      type: "constant"
      value: 0.2
    }
  }
}
layer {
  name: "inception_4a/relu_5x5_reduce"
  type: "ReLU"
  bottom: "inception_4a/5x5_reduce"
  top: "inception_4a/5x5_reduce"
}
layer {
  name: "inception_4a/5x5"
  type: "Convolution"
  bottom: "inception_4a/5x5_reduce"
  top: "inception_4a/5x5"
  param {
    lr_mult: 1
    decay_mult: 1
  }
  param {
    lr_mult: 2
    decay_mult: 0
  }
  convolution_param {
    num_output: 48
    pad: 2
    kernel_size: 5
    weight_filler {
      type: "xavier"
      std: 0.03
    }
    bias_filler {
      type: "constant"
      value: 0.2
    }
  }
}
layer {
  name: "inception_4a/relu_5x5"
  type: "ReLU"
  bottom: "inception_4a/5x5"
  top: "inception_4a/5x5"
}
layer {
  name: "inception_4a/pool"
  type: "Pooling"
  bottom: "pool3/3x3_s2"
  top: "inception_4a/pool"
  pooling_param {
    pool: MAX
    kernel_size: 3
    stride: 1
    pad: 1
  }
}
layer {
  name: "inception_4a/pool_proj"
  type: "Convolution"
  bottom: "inception_4a/pool"
  top: "inception_4a/pool_proj"
  param {
    lr_mult: 1
    decay_mult: 1
  }
  param {
    lr_mult: 2
    decay_mult: 0
  }
  convolution_param {
    num_output: 64
    kernel_size: 1
    weight_filler {
      type: "xavier"
      std: 0.1
    }
    bias_filler {
      type: "constant"
      value: 0.2
    }
  }
}
layer {
  name: "inception_4a/relu_pool_proj"
  type: "ReLU"
  bottom: "inception_4a/pool_proj"
  top: "inception_4a/pool_proj"
}
layer {
  name: "inception_4a/output"
  type: "Concat"
  bottom: "inception_4a/1x1"
  bottom: "inception_4a/3x3"
  bottom: "inception_4a/5x5"
  bottom: "inception_4a/pool_proj"
  top: "inception_4a/output"
}
layer {
  name: "loss1/ave_pool"
  type: "Pooling"
  bottom: "inception_4a/output"
  top: "loss1/ave_pool"
  pooling_param {
    pool: AVE
    kernel_size: 5
    stride: 3
  }
}
layer {
  name: "loss1/conv"
  type: "Convolution"
  bottom: "loss1/ave_pool"
  top: "loss1/conv"
  param {
    lr_mult: 1
    decay_mult: 1
  }
  param {
    lr_mult: 2
    decay_mult: 0
  }
  convolution_param {
    num_output: 128
    kernel_size: 1
    weight_filler {
      type: "xavier"
      std: 0.08
    }
    bias_filler {
      type: "constant"
      value: 0.2
    }
  }
}
layer {
  name: "loss1/relu_conv"
  type: "ReLU"
  bottom: "loss1/conv"
  top: "loss1/conv"
}
layer {
  name: "loss1/fc"
  type: "InnerProduct"
  bottom: "loss1/conv"
  top: "loss1/fc"
  param {
    lr_mult: 1
    decay_mult: 1
  }
  param {
    lr_mult: 2
    decay_mult: 0
  }
  inner_product_param {
    num_output: 1024
    weight_filler {
      type: "xavier"
      std: 0.02
    }
    bias_filler {
      type: "constant"
      value: 0.2
    }
  }
}
layer {
  name: "loss1/relu_fc"
  type: "ReLU"
  bottom: "loss1/fc"
  top: "loss1/fc"
}
layer {
  name: "loss1/drop_fc"
  type: "Dropout"
  bottom: "loss1/fc"
  top: "loss1/fc"
  dropout_param {
    dropout_ratio: 0.7
  }
}
layer {
  name: "loss1/classifier_plantvillage"
  type: "InnerProduct"
  bottom: "loss1/fc"
  top: "loss1/classifier_plantvillage"
  param {
    lr_mult: 1
    decay_mult: 1
  }
  param {
    lr_mult: 2
    decay_mult: 0
  }
  inner_product_param {
    num_output: 38
    weight_filler {
      type: "xavier"
      std: 0.0009765625
    }
    bias_filler {
      type: "constant"
      value: 0
    }
  }
}
layer {
  name: "inception_4b/1x1"
  type: "Convolution"
  bottom: "inception_4a/output"
  top: "inception_4b/1x1"
  param {
    lr_mult: 1
    decay_mult: 1
  }
  param {
    lr_mult: 2
    decay_mult: 0
  }
  convolution_param {
    num_output: 160
    kernel_size: 1
    weight_filler {
      type: "xavier"
      std: 0.03
    }
    bias_filler {
      type: "constant"
      value: 0.2
    }
  }
}
layer {
  name: "inception_4b/relu_1x1"
  type: "ReLU"
  bottom: "inception_4b/1x1"
  top: "inception_4b/1x1"
}
layer {
  name: "inception_4b/3x3_reduce"
  type: "Convolution"
  bottom: "inception_4a/output"
  top: "inception_4b/3x3_reduce"
  param {
    lr_mult: 1
    decay_mult: 1
  }
  param {
    lr_mult: 2
    decay_mult: 0
  }
  convolution_param {
    num_output: 112
    kernel_size: 1
    weight_filler {
      type: "xavier"
      std: 0.09
    }
    bias_filler {
      type: "constant"
      value: 0.2
    }
  }
}
layer {
  name: "inception_4b/relu_3x3_reduce"
  type: "ReLU"
  bottom: "inception_4b/3x3_reduce"
  top: "inception_4b/3x3_reduce"
}
layer {
  name: "inception_4b/3x3"
  type: "Convolution"
  bottom: "inception_4b/3x3_reduce"
  top: "inception_4b/3x3"
  param {
    lr_mult: 1
    decay_mult: 1
  }
  param {
    lr_mult: 2
    decay_mult: 0
  }
  convolution_param {
    num_output: 224
    pad: 1
    kernel_size: 3
    weight_filler {
      type: "xavier"
      std: 0.03
    }
    bias_filler {
      type: "constant"
      value: 0.2
    }
  }
}
layer {
  name: "inception_4b/relu_3x3"
  type: "ReLU"
  bottom: "inception_4b/3x3"
  top: "inception_4b/3x3"
}
layer {
  name: "inception_4b/5x5_reduce"
  type: "Convolution"
  bottom: "inception_4a/output"
  top: "inception_4b/5x5_reduce"
  param {
    lr_mult: 1
    decay_mult: 1
  }
  param {
    lr_mult: 2
    decay_mult: 0
  }
  convolution_param {
    num_output: 24
    kernel_size: 1
    weight_filler {
      type: "xavier"
      std: 0.2
    }
    bias_filler {
      type: "constant"
      value: 0.2
    }
  }
}
layer {
  name: "inception_4b/relu_5x5_reduce"
  type: "ReLU"
  bottom: "inception_4b/5x5_reduce"
  top: "inception_4b/5x5_reduce"
}
layer {
  name: "inception_4b/5x5"
  type: "Convolution"
  bottom: "inception_4b/5x5_reduce"
  top: "inception_4b/5x5"
  param {
    lr_mult: 1
    decay_mult: 1
  }
  param {
    lr_mult: 2
    decay_mult: 0
  }
  convolution_param {
    num_output: 64
    pad: 2
    kernel_size: 5
    weight_filler {
      type: "xavier"
      std: 0.03
    }
    bias_filler {
      type: "constant"
      value: 0.2
    }
  }
}
layer {
  name: "inception_4b/relu_5x5"
  type: "ReLU"
  bottom: "inception_4b/5x5"
  top: "inception_4b/5x5"
}
layer {
  name: "inception_4b/pool"
  type: "Pooling"
  bottom: "inception_4a/output"
  top: "inception_4b/pool"
  pooling_param {
    pool: MAX
    kernel_size: 3
    stride: 1
    pad: 1
  }
}
layer {
  name: "inception_4b/pool_proj"
  type: "Convolution"
  bottom: "inception_4b/pool"
  top: "inception_4b/pool_proj"
  param {
    lr_mult: 1
    decay_mult: 1
  }
  param {
    lr_mult: 2
    decay_mult: 0
  }
  convolution_param {
    num_output: 64
    kernel_size: 1
    weight_filler {
      type: "xavier"
      std: 0.1
    }
    bias_filler {
      type: "constant"
      value: 0.2
    }
  }
}
layer {
  name: "inception_4b/relu_pool_proj"
  type: "ReLU"
  bottom: "inception_4b/pool_proj"
  top: "inception_4b/pool_proj"
}
layer {
  name: "inception_4b/output"
  type: "Concat"
  bottom: "inception_4b/1x1"
  bottom: "inception_4b/3x3"
  bottom: "inception_4b/5x5"
  bottom: "inception_4b/pool_proj"
  top: "inception_4b/output"
}
layer {
  name: "inception_4c/1x1"
  type: "Convolution"
  bottom: "inception_4b/output"
  top: "inception_4c/1x1"
  param {
    lr_mult: 1
    decay_mult: 1
  }
  param {
    lr_mult: 2
    decay_mult: 0
  }
  convolution_param {
    num_output: 128
    kernel_size: 1
    weight_filler {
      type: "xavier"
      std: 0.03
    }
    bias_filler {
      type: "constant"
      value: 0.2
    }
  }
}
layer {
  name: "inception_4c/relu_1x1"
  type: "ReLU"
  bottom: "inception_4c/1x1"
  top: "inception_4c/1x1"
}
layer {
  name: "inception_4c/3x3_reduce"
  type: "Convolution"
  bottom: "inception_4b/output"
  top: "inception_4c/3x3_reduce"
  param {
    lr_mult: 1
    decay_mult: 1
  }
  param {
    lr_mult: 2
    decay_mult: 0
  }
  convolution_param {
    num_output: 128
    kernel_size: 1
    weight_filler {
      type: "xavier"
      std: 0.09
    }
    bias_filler {
      type: "constant"
      value: 0.2
    }
  }
}
layer {
  name: "inception_4c/relu_3x3_reduce"
  type: "ReLU"
  bottom: "inception_4c/3x3_reduce"
  top: "inception_4c/3x3_reduce"
}
layer {
  name: "inception_4c/3x3"
  type: "Convolution"
  bottom: "inception_4c/3x3_reduce"
  top: "inception_4c/3x3"
  param {
    lr_mult: 1
    decay_mult: 1
  }
  param {
    lr_mult: 2
    decay_mult: 0
  }
  convolution_param {
    num_output: 256
    pad: 1
    kernel_size: 3
    weight_filler {
      type: "xavier"
      std: 0.03
    }
    bias_filler {
      type: "constant"
      value: 0.2
    }
  }
}
layer {
  name: "inception_4c/relu_3x3"
  type: "ReLU"
  bottom: "inception_4c/3x3"
  top: "inception_4c/3x3"
}
layer {
  name: "inception_4c/5x5_reduce"
  type: "Convolution"
  bottom: "inception_4b/output"
  top: "inception_4c/5x5_reduce"
  param {
    lr_mult: 1
    decay_mult: 1
  }
  param {
    lr_mult: 2
    decay_mult: 0
  }
  convolution_param {
    num_output: 24
    kernel_size: 1
    weight_filler {
      type: "xavier"
      std: 0.2
    }
    bias_filler {
      type: "constant"
      value: 0.2
    }
  }
}
layer {
  name: "inception_4c/relu_5x5_reduce"
  type: "ReLU"
  bottom: "inception_4c/5x5_reduce"
  top: "inception_4c/5x5_reduce"
}
layer {
  name: "inception_4c/5x5"
  type: "Convolution"
  bottom: "inception_4c/5x5_reduce"
  top: "inception_4c/5x5"
  param {
    lr_mult: 1
    decay_mult: 1
  }
  param {
    lr_mult: 2
    decay_mult: 0
  }
  convolution_param {
    num_output: 64
    pad: 2
    kernel_size: 5
    weight_filler {
      type: "xavier"
      std: 0.03
    }
    bias_filler {
      type: "constant"
      value: 0.2
    }
  }
}
layer {
  name: "inception_4c/relu_5x5"
  type: "ReLU"
  bottom: "inception_4c/5x5"
  top: "inception_4c/5x5"
}
layer {
  name: "inception_4c/pool"
  type: "Pooling"
  bottom: "inception_4b/output"
  top: "inception_4c/pool"
  pooling_param {
    pool: MAX
    kernel_size: 3
    stride: 1
    pad: 1
  }
}
layer {
  name: "inception_4c/pool_proj"
  type: "Convolution"
  bottom: "inception_4c/pool"
  top: "inception_4c/pool_proj"
  param {
    lr_mult: 1
    decay_mult: 1
  }
  param {
    lr_mult: 2
    decay_mult: 0
  }
  convolution_param {
    num_output: 64
    kernel_size: 1
    weight_filler {
      type: "xavier"
      std: 0.1
    }
    bias_filler {
      type: "constant"
      value: 0.2
    }
  }
}
layer {
  name: "inception_4c/relu_pool_proj"
  type: "ReLU"
  bottom: "inception_4c/pool_proj"
  top: "inception_4c/pool_proj"
}
layer {
  name: "inception_4c/output"
  type: "Concat"
  bottom: "inception_4c/1x1"
  bottom: "inception_4c/3x3"
  bottom: "inception_4c/5x5"
  bottom: "inception_4c/pool_proj"
  top: "inception_4c/output"
}
layer {
  name: "inception_4d/1x1"
  type: "Convolution"
  bottom: "inception_4c/output"
  top: "inception_4d/1x1"
  param {
    lr_mult: 1
    decay_mult: 1
  }
  param {
    lr_mult: 2
    decay_mult: 0
  }
  convolution_param {
    num_output: 112
    kernel_size: 1
    weight_filler {
      type: "xavier"
      std: 0.03
    }
    bias_filler {
      type: "constant"
      value: 0.2
    }
  }
}
layer {
  name: "inception_4d/relu_1x1"
  type: "ReLU"
  bottom: "inception_4d/1x1"
  top: "inception_4d/1x1"
}
layer {
  name: "inception_4d/3x3_reduce"
  type: "Convolution"
  bottom: "inception_4c/output"
  top: "inception_4d/3x3_reduce"
  param {
    lr_mult: 1
    decay_mult: 1
  }
  param {
    lr_mult: 2
    decay_mult: 0
  }
  convolution_param {
    num_output: 144
    kernel_size: 1
    weight_filler {
      type: "xavier"
      std: 0.09
    }
    bias_filler {
      type: "constant"
      value: 0.2
    }
  }
}
layer {
  name: "inception_4d/relu_3x3_reduce"
  type: "ReLU"
  bottom: "inception_4d/3x3_reduce"
  top: "inception_4d/3x3_reduce"
}
layer {
  name: "inception_4d/3x3"
  type: "Convolution"
  bottom: "inception_4d/3x3_reduce"
  top: "inception_4d/3x3"
  param {
    lr_mult: 1
    decay_mult: 1
  }
  param {
    lr_mult: 2
    decay_mult: 0
  }
  convolution_param {
    num_output: 288
    pad: 1
    kernel_size: 3
    weight_filler {
      type: "xavier"
      std: 0.03
    }
    bias_filler {
      type: "constant"
      value: 0.2
    }
  }
}
layer {
  name: "inception_4d/relu_3x3"
  type: "ReLU"
  bottom: "inception_4d/3x3"
  top: "inception_4d/3x3"
}
layer {
  name: "inception_4d/5x5_reduce"
  type: "Convolution"
  bottom: "inception_4c/output"
  top: "inception_4d/5x5_reduce"
  param {
    lr_mult: 1
    decay_mult: 1
  }
  param {
    lr_mult: 2
    decay_mult: 0
  }
  convolution_param {
    num_output: 32
    kernel_size: 1
    weight_filler {
      type: "xavier"
      std: 0.2
    }
    bias_filler {
      type: "constant"
      value: 0.2
    }
  }
}
layer {
  name: "inception_4d/relu_5x5_reduce"
  type: "ReLU"
  bottom: "inception_4d/5x5_reduce"
  top: "inception_4d/5x5_reduce"
}
layer {
  name: "inception_4d/5x5"
  type: "Convolution"
  bottom: "inception_4d/5x5_reduce"
  top: "inception_4d/5x5"
  param {
    lr_mult: 1
    decay_mult: 1
  }
  param {
    lr_mult: 2
    decay_mult: 0
  }
  convolution_param {
    num_output: 64
    pad: 2
    kernel_size: 5
    weight_filler {
      type: "xavier"
      std: 0.03
    }
    bias_filler {
      type: "constant"
      value: 0.2
    }
  }
}
layer {
  name: "inception_4d/relu_5x5"
  type: "ReLU"
  bottom: "inception_4d/5x5"
  top: "inception_4d/5x5"
}
layer {
  name: "inception_4d/pool"
  type: "Pooling"
  bottom: "inception_4c/output"
  top: "inception_4d/pool"
  pooling_param {
    pool: MAX
    kernel_size: 3
    stride: 1
    pad: 1
  }
}
layer {
  name: "inception_4d/pool_proj"
  type: "Convolution"
  bottom: "inception_4d/pool"
  top: "inception_4d/pool_proj"
  param {
    lr_mult: 1
    decay_mult: 1
  }
  param {
    lr_mult: 2
    decay_mult: 0
  }
  convolution_param {
    num_output: 64
    kernel_size: 1
    weight_filler {
      type: "xavier"
      std: 0.1
    }
    bias_filler {
      type: "constant"
      value: 0.2
    }
  }
}
layer {
  name: "inception_4d/relu_pool_proj"
  type: "ReLU"
  bottom: "inception_4d/pool_proj"
  top: "inception_4d/pool_proj"
}
layer {
  name: "inception_4d/output"
  type: "Concat"
  bottom: "inception_4d/1x1"
  bottom: "inception_4d/3x3"
  bottom: "inception_4d/5x5"
  bottom: "inception_4d/pool_proj"
  top: "inception_4d/output"
}
layer {
  name: "loss2/ave_pool"
  type: "Pooling"
  bottom: "inception_4d/output"
  top: "loss2/ave_pool"
  pooling_param {
    pool: AVE
    kernel_size: 5
    stride: 3
  }
}
layer {
  name: "loss2/conv"
  type: "Convolution"
  bottom: "loss2/ave_pool"
  top: "loss2/conv"
  param {
    lr_mult: 1
    decay_mult: 1
  }
  param {
    lr_mult: 2
    decay_mult: 0
  }
  convolution_param {
    num_output: 128
    kernel_size: 1
    weight_filler {
      type: "xavier"
      std: 0.08
    }
    bias_filler {
      type: "constant"
      value: 0.2
    }
  }
}
layer {
  name: "loss2/relu_conv"
  type: "ReLU"
  bottom: "loss2/conv"
  top: "loss2/conv"
}
layer {
  name: "loss2/fc"
  type: "InnerProduct"
  bottom: "loss2/conv"
  top: "loss2/fc"
  param {
    lr_mult: 1
    decay_mult: 1
  }
  param {
    lr_mult: 2
    decay_mult: 0
  }
  inner_product_param {
    num_output: 1024
    weight_filler {
      type: "xavier"
      std: 0.02
    }
    bias_filler {
      type: "constant"
      value: 0.2
    }
  }
}
layer {
  name: "loss2/relu_fc"
  type: "ReLU"
  bottom: "loss2/fc"
  top: "loss2/fc"
}
layer {
  name: "loss2/drop_fc"
  type: "Dropout"
  bottom: "loss2/fc"
  top: "loss2/fc"
  dropout_param {
    dropout_ratio: 0.7
  }
}
layer {
  name: "loss2/classifier_plantvillage"
  type: "InnerProduct"
  bottom: "loss2/fc"
  top: "loss2/classifier_plantvillage"
  param {
    lr_mult: 1
    decay_mult: 1
  }
  param {
    lr_mult: 2
    decay_mult: 0
  }
  inner_product_param {
    num_output: 38
    weight_filler {
      type: "xavier"
      std: 0.0009765625
    }
    bias_filler {
      type: "constant"
      value: 0
    }
  }
}
layer {
  name: "inception_4e/1x1"
  type: "Convolution"
  bottom: "inception_4d/output"
  top: "inception_4e/1x1"
  param {
    lr_mult: 1
    decay_mult: 1
  }
  param {
    lr_mult: 2
    decay_mult: 0
  }
  convolution_param {
    num_output: 256
    kernel_size: 1
    weight_filler {
      type: "xavier"
      std: 0.03
    }
    bias_filler {
      type: "constant"
      value: 0.2
    }
  }
}
layer {
  name: "inception_4e/relu_1x1"
  type: "ReLU"
  bottom: "inception_4e/1x1"
  top: "inception_4e/1x1"
}
layer {
  name: "inception_4e/3x3_reduce"
  type: "Convolution"
  bottom: "inception_4d/output"
  top: "inception_4e/3x3_reduce"
  param {
    lr_mult: 1
    decay_mult: 1
  }
  param {
    lr_mult: 2
    decay_mult: 0
  }
  convolution_param {
    num_output: 160
    kernel_size: 1
    weight_filler {
      type: "xavier"
      std: 0.09
    }
    bias_filler {
      type: "constant"
      value: 0.2
    }
  }
}
layer {
  name: "inception_4e/relu_3x3_reduce"
  type: "ReLU"
  bottom: "inception_4e/3x3_reduce"
  top: "inception_4e/3x3_reduce"
}
layer {
  name: "inception_4e/3x3"
  type: "Convolution"
  bottom: "inception_4e/3x3_reduce"
  top: "inception_4e/3x3"
  param {
    lr_mult: 1
    decay_mult: 1
  }
  param {
    lr_mult: 2
    decay_mult: 0
  }
  convolution_param {
    num_output: 320
    pad: 1
    kernel_size: 3
    weight_filler {
      type: "xavier"
      std: 0.03
    }
    bias_filler {
      type: "constant"
      value: 0.2
    }
  }
}
layer {
  name: "inception_4e/relu_3x3"
  type: "ReLU"
  bottom: "inception_4e/3x3"
  top: "inception_4e/3x3"
}
layer {
  name: "inception_4e/5x5_reduce"
  type: "Convolution"
  bottom: "inception_4d/output"
  top: "inception_4e/5x5_reduce"
  param {
    lr_mult: 1
    decay_mult: 1
  }
  param {
    lr_mult: 2
    decay_mult: 0
  }
  convolution_param {
    num_output: 32
    kernel_size: 1
    weight_filler {
      type: "xavier"
      std: 0.2
    }
    bias_filler {
      type: "constant"
      value: 0.2
    }
  }
}
layer {
  name: "inception_4e/relu_5x5_reduce"
  type: "ReLU"
  bottom: "inception_4e/5x5_reduce"
  top: "inception_4e/5x5_reduce"
}
layer {
  name: "inception_4e/5x5"
  type: "Convolution"
  bottom: "inception_4e/5x5_reduce"
  top: "inception_4e/
I0403 18:09:17.387542 21523 layer_factory.hpp:77] Creating layer data
I0403 18:09:17.388106 21523 net.cpp:91] Creating Layer data
I0403 18:09:17.388135 21523 net.cpp:399] data -> data
I0403 18:09:17.388185 21523 net.cpp:399] data -> label
I0403 18:09:17.388218 21523 data_transformer.cpp:25] Loading mean file from: /home/mohanty/data/final_dataset/lmdb/segmented-40-60/mean.binaryproto
I0403 18:09:17.389384 21526 db_lmdb.cpp:38] Opened lmdb /home/mohanty/data/final_dataset/lmdb/segmented-40-60/test_db
I0403 18:09:17.400898 21523 data_layer.cpp:41] output data size: 24,3,224,224
I0403 18:09:17.427460 21523 net.cpp:141] Setting up data
I0403 18:09:17.427539 21523 net.cpp:148] Top shape: 24 3 224 224 (3612672)
I0403 18:09:17.427562 21523 net.cpp:148] Top shape: 24 (24)
I0403 18:09:17.427577 21523 net.cpp:156] Memory required for data: 14450784
I0403 18:09:17.427603 21523 layer_factory.hpp:77] Creating layer label_data_1_split
I0403 18:09:17.427628 21523 net.cpp:91] Creating Layer label_data_1_split
I0403 18:09:17.427645 21523 net.cpp:425] label_data_1_split <- label
I0403 18:09:17.427675 21523 net.cpp:399] label_data_1_split -> label_data_1_split_0
I0403 18:09:17.427701 21523 net.cpp:399] label_data_1_split -> label_data_1_split_1
I0403 18:09:17.427721 21523 net.cpp:399] label_data_1_split -> label_data_1_split_2
I0403 18:09:17.427742 21523 net.cpp:399] label_data_1_split -> label_data_1_split_3
I0403 18:09:17.427759 21523 net.cpp:399] label_data_1_split -> label_data_1_split_4
I0403 18:09:17.427778 21523 net.cpp:399] label_data_1_split -> label_data_1_split_5
I0403 18:09:17.427796 21523 net.cpp:399] label_data_1_split -> label_data_1_split_6
I0403 18:09:17.427815 21523 net.cpp:399] label_data_1_split -> label_data_1_split_7
I0403 18:09:17.427834 21523 net.cpp:399] label_data_1_split -> label_data_1_split_8
I0403 18:09:17.427852 21523 net.cpp:399] label_data_1_split -> label_data_1_split_9
I0403 18:09:17.427960 21523 net.cpp:141] Setting up label_data_1_split
I0403 18:09:17.427983 21523 net.cpp:148] Top shape: 24 (24)
I0403 18:09:17.427999 21523 net.cpp:148] Top shape: 24 (24)
I0403 18:09:17.428014 21523 net.cpp:148] Top shape: 24 (24)
I0403 18:09:17.428027 21523 net.cpp:148] Top shape: 24 (24)
I0403 18:09:17.428041 21523 net.cpp:148] Top shape: 24 (24)
I0403 18:09:17.428056 21523 net.cpp:148] Top shape: 24 (24)
I0403 18:09:17.428069 21523 net.cpp:148] Top shape: 24 (24)
I0403 18:09:17.428083 21523 net.cpp:148] Top shape: 24 (24)
I0403 18:09:17.428097 21523 net.cpp:148] Top shape: 24 (24)
I0403 18:09:17.428112 21523 net.cpp:148] Top shape: 24 (24)
I0403 18:09:17.428163 21523 net.cpp:156] Memory required for data: 14451744
I0403 18:09:17.428177 21523 layer_factory.hpp:77] Creating layer conv1/7x7_s2
I0403 18:09:17.428207 21523 net.cpp:91] Creating Layer conv1/7x7_s2
I0403 18:09:17.428225 21523 net.cpp:425] conv1/7x7_s2 <- data
I0403 18:09:17.428243 21523 net.cpp:399] conv1/7x7_s2 -> conv1/7x7_s2
I0403 18:09:17.562436 21523 net.cpp:141] Setting up conv1/7x7_s2
I0403 18:09:17.562515 21523 net.cpp:148] Top shape: 24 64 112 112 (19267584)
I0403 18:09:17.562533 21523 net.cpp:156] Memory required for data: 91522080
I0403 18:09:17.562562 21523 layer_factory.hpp:77] Creating layer conv1/relu_7x7
I0403 18:09:17.562588 21523 net.cpp:91] Creating Layer conv1/relu_7x7
I0403 18:09:17.562607 21523 net.cpp:425] conv1/relu_7x7 <- conv1/7x7_s2
I0403 18:09:17.562624 21523 net.cpp:386] conv1/relu_7x7 -> conv1/7x7_s2 (in-place)
I0403 18:09:17.562865 21523 net.cpp:141] Setting up conv1/relu_7x7
I0403 18:09:17.562890 21523 net.cpp:148] Top shape: 24 64 112 112 (19267584)
I0403 18:09:17.562909 21523 net.cpp:156] Memory required for data: 168592416
I0403 18:09:17.562923 21523 layer_factory.hpp:77] Creating layer pool1/3x3_s2
I0403 18:09:17.562945 21523 net.cpp:91] Creating Layer pool1/3x3_s2
I0403 18:09:17.562963 21523 net.cpp:425] pool1/3x3_s2 <- conv1/7x7_s2
I0403 18:09:17.562979 21523 net.cpp:399] pool1/3x3_s2 -> pool1/3x3_s2
I0403 18:09:17.563048 21523 net.cpp:141] Setting up pool1/3x3_s2
I0403 18:09:17.563071 21523 net.cpp:148] Top shape: 24 64 56 56 (4816896)
I0403 18:09:17.563084 21523 net.cpp:156] Memory required for data: 187860000
I0403 18:09:17.563097 21523 layer_factory.hpp:77] Creating layer pool1/norm1
I0403 18:09:17.563119 21523 net.cpp:91] Creating Layer pool1/norm1
I0403 18:09:17.563136 21523 net.cpp:425] pool1/norm1 <- pool1/3x3_s2
I0403 18:09:17.563153 21523 net.cpp:399] pool1/norm1 -> pool1/norm1
I0403 18:09:17.563413 21523 net.cpp:141] Setting up pool1/norm1
I0403 18:09:17.563438 21523 net.cpp:148] Top shape: 24 64 56 56 (4816896)
I0403 18:09:17.563452 21523 net.cpp:156] Memory required for data: 207127584
I0403 18:09:17.563467 21523 layer_factory.hpp:77] Creating layer conv2/3x3_reduce
I0403 18:09:17.563488 21523 net.cpp:91] Creating Layer conv2/3x3_reduce
I0403 18:09:17.563503 21523 net.cpp:425] conv2/3x3_reduce <- pool1/norm1
I0403 18:09:17.563525 21523 net.cpp:399] conv2/3x3_reduce -> conv2/3x3_reduce
I0403 18:09:17.564802 21523 net.cpp:141] Setting up conv2/3x3_reduce
I0403 18:09:17.564831 21523 net.cpp:148] Top shape: 24 64 56 56 (4816896)
I0403 18:09:17.564846 21523 net.cpp:156] Memory required for data: 226395168
I0403 18:09:17.564865 21523 layer_factory.hpp:77] Creating layer conv2/relu_3x3_reduce
I0403 18:09:17.564882 21523 net.cpp:91] Creating Layer conv2/relu_3x3_reduce
I0403 18:09:17.564898 21523 net.cpp:425] conv2/relu_3x3_reduce <- conv2/3x3_reduce
I0403 18:09:17.564913 21523 net.cpp:386] conv2/relu_3x3_reduce -> conv2/3x3_reduce (in-place)
I0403 18:09:17.565143 21523 net.cpp:141] Setting up conv2/relu_3x3_reduce
I0403 18:09:17.565168 21523 net.cpp:148] Top shape: 24 64 56 56 (4816896)
I0403 18:09:17.565181 21523 net.cpp:156] Memory required for data: 245662752
I0403 18:09:17.565196 21523 layer_factory.hpp:77] Creating layer conv2/3x3
I0403 18:09:17.565217 21523 net.cpp:91] Creating Layer conv2/3x3
I0403 18:09:17.565232 21523 net.cpp:425] conv2/3x3 <- conv2/3x3_reduce
I0403 18:09:17.565248 21523 net.cpp:399] conv2/3x3 -> conv2/3x3
I0403 18:09:17.567312 21523 net.cpp:141] Setting up conv2/3x3
I0403 18:09:17.567338 21523 net.cpp:148] Top shape: 24 192 56 56 (14450688)
I0403 18:09:17.567353 21523 net.cpp:156] Memory required for data: 303465504
I0403 18:09:17.567373 21523 layer_factory.hpp:77] Creating layer conv2/relu_3x3
I0403 18:09:17.567390 21523 net.cpp:91] Creating Layer conv2/relu_3x3
I0403 18:09:17.567404 21523 net.cpp:425] conv2/relu_3x3 <- conv2/3x3
I0403 18:09:17.567420 21523 net.cpp:386] conv2/relu_3x3 -> conv2/3x3 (in-place)
I0403 18:09:17.567572 21523 net.cpp:141] Setting up conv2/relu_3x3
I0403 18:09:17.567596 21523 net.cpp:148] Top shape: 24 192 56 56 (14450688)
I0403 18:09:17.567637 21523 net.cpp:156] Memory required for data: 361268256
I0403 18:09:17.567652 21523 layer_factory.hpp:77] Creating layer conv2/norm2
I0403 18:09:17.567669 21523 net.cpp:91] Creating Layer conv2/norm2
I0403 18:09:17.567684 21523 net.cpp:425] conv2/norm2 <- conv2/3x3
I0403 18:09:17.567700 21523 net.cpp:399] conv2/norm2 -> conv2/norm2
I0403 18:09:17.567962 21523 net.cpp:141] Setting up conv2/norm2
I0403 18:09:17.567987 21523 net.cpp:148] Top shape: 24 192 56 56 (14450688)
I0403 18:09:17.568001 21523 net.cpp:156] Memory required for data: 419071008
I0403 18:09:17.568014 21523 layer_factory.hpp:77] Creating layer pool2/3x3_s2
I0403 18:09:17.568030 21523 net.cpp:91] Creating Layer pool2/3x3_s2
I0403 18:09:17.568045 21523 net.cpp:425] pool2/3x3_s2 <- conv2/norm2
I0403 18:09:17.568060 21523 net.cpp:399] pool2/3x3_s2 -> pool2/3x3_s2
I0403 18:09:17.568106 21523 net.cpp:141] Setting up pool2/3x3_s2
I0403 18:09:17.568128 21523 net.cpp:148] Top shape: 24 192 28 28 (3612672)
I0403 18:09:17.568141 21523 net.cpp:156] Memory required for data: 433521696
I0403 18:09:17.568156 21523 layer_factory.hpp:77] Creating layer pool2/3x3_s2_pool2/3x3_s2_0_split
I0403 18:09:17.568171 21523 net.cpp:91] Creating Layer pool2/3x3_s2_pool2/3x3_s2_0_split
I0403 18:09:17.568186 21523 net.cpp:425] pool2/3x3_s2_pool2/3x3_s2_0_split <- pool2/3x3_s2
I0403 18:09:17.568200 21523 net.cpp:399] pool2/3x3_s2_pool2/3x3_s2_0_split -> pool2/3x3_s2_pool2/3x3_s2_0_split_0
I0403 18:09:17.568218 21523 net.cpp:399] pool2/3x3_s2_pool2/3x3_s2_0_split -> pool2/3x3_s2_pool2/3x3_s2_0_split_1
I0403 18:09:17.568236 21523 net.cpp:399] pool2/3x3_s2_pool2/3x3_s2_0_split -> pool2/3x3_s2_pool2/3x3_s2_0_split_2
I0403 18:09:17.568254 21523 net.cpp:399] pool2/3x3_s2_pool2/3x3_s2_0_split -> pool2/3x3_s2_pool2/3x3_s2_0_split_3
I0403 18:09:17.568315 21523 net.cpp:141] Setting up pool2/3x3_s2_pool2/3x3_s2_0_split
I0403 18:09:17.568334 21523 net.cpp:148] Top shape: 24 192 28 28 (3612672)
I0403 18:09:17.568349 21523 net.cpp:148] Top shape: 24 192 28 28 (3612672)
I0403 18:09:17.568364 21523 net.cpp:148] Top shape: 24 192 28 28 (3612672)
I0403 18:09:17.568378 21523 net.cpp:148] Top shape: 24 192 28 28 (3612672)
I0403 18:09:17.568390 21523 net.cpp:156] Memory required for data: 491324448
I0403 18:09:17.568404 21523 layer_factory.hpp:77] Creating layer inception_3a/1x1
I0403 18:09:17.568423 21523 net.cpp:91] Creating Layer inception_3a/1x1
I0403 18:09:17.568439 21523 net.cpp:425] inception_3a/1x1 <- pool2/3x3_s2_pool2/3x3_s2_0_split_0
I0403 18:09:17.568454 21523 net.cpp:399] inception_3a/1x1 -> inception_3a/1x1
I0403 18:09:17.569864 21523 net.cpp:141] Setting up inception_3a/1x1
I0403 18:09:17.569891 21523 net.cpp:148] Top shape: 24 64 28 28 (1204224)
I0403 18:09:17.569905 21523 net.cpp:156] Memory required for data: 496141344
I0403 18:09:17.569923 21523 layer_factory.hpp:77] Creating layer inception_3a/relu_1x1
I0403 18:09:17.569942 21523 net.cpp:91] Creating Layer inception_3a/relu_1x1
I0403 18:09:17.569958 21523 net.cpp:425] inception_3a/relu_1x1 <- inception_3a/1x1
I0403 18:09:17.569974 21523 net.cpp:386] inception_3a/relu_1x1 -> inception_3a/1x1 (in-place)
I0403 18:09:17.570133 21523 net.cpp:141] Setting up inception_3a/relu_1x1
I0403 18:09:17.570158 21523 net.cpp:148] Top shape: 24 64 28 28 (1204224)
I0403 18:09:17.570171 21523 net.cpp:156] Memory required for data: 500958240
I0403 18:09:17.570184 21523 layer_factory.hpp:77] Creating layer inception_3a/3x3_reduce
I0403 18:09:17.570205 21523 net.cpp:91] Creating Layer inception_3a/3x3_reduce
I0403 18:09:17.570221 21523 net.cpp:425] inception_3a/3x3_reduce <- pool2/3x3_s2_pool2/3x3_s2_0_split_1
I0403 18:09:17.570240 21523 net.cpp:399] inception_3a/3x3_reduce -> inception_3a/3x3_reduce
I0403 18:09:17.571836 21523 net.cpp:141] Setting up inception_3a/3x3_reduce
I0403 18:09:17.571863 21523 net.cpp:148] Top shape: 24 96 28 28 (1806336)
I0403 18:09:17.571878 21523 net.cpp:156] Memory required for data: 508183584
I0403 18:09:17.571898 21523 layer_factory.hpp:77] Creating layer inception_3a/relu_3x3_reduce
I0403 18:09:17.571936 21523 net.cpp:91] Creating Layer inception_3a/relu_3x3_reduce
I0403 18:09:17.571954 21523 net.cpp:425] inception_3a/relu_3x3_reduce <- inception_3a/3x3_reduce
I0403 18:09:17.571970 21523 net.cpp:386] inception_3a/relu_3x3_reduce -> inception_3a/3x3_reduce (in-place)
I0403 18:09:17.572139 21523 net.cpp:141] Setting up inception_3a/relu_3x3_reduce
I0403 18:09:17.572163 21523 net.cpp:148] Top shape: 24 96 28 28 (1806336)
I0403 18:09:17.572177 21523 net.cpp:156] Memory required for data: 515408928
I0403 18:09:17.572190 21523 layer_factory.hpp:77] Creating layer inception_3a/3x3
I0403 18:09:17.572211 21523 net.cpp:91] Creating Layer inception_3a/3x3
I0403 18:09:17.572227 21523 net.cpp:425] inception_3a/3x3 <- inception_3a/3x3_reduce
I0403 18:09:17.572247 21523 net.cpp:399] inception_3a/3x3 -> inception_3a/3x3
I0403 18:09:17.573791 21523 net.cpp:141] Setting up inception_3a/3x3
I0403 18:09:17.573818 21523 net.cpp:148] Top shape: 24 128 28 28 (2408448)
I0403 18:09:17.573832 21523 net.cpp:156] Memory required for data: 525042720
I0403 18:09:17.573848 21523 layer_factory.hpp:77] Creating layer inception_3a/relu_3x3
I0403 18:09:17.573868 21523 net.cpp:91] Creating Layer inception_3a/relu_3x3
I0403 18:09:17.573884 21523 net.cpp:425] inception_3a/relu_3x3 <- inception_3a/3x3
I0403 18:09:17.573900 21523 net.cpp:386] inception_3a/relu_3x3 -> inception_3a/3x3 (in-place)
I0403 18:09:17.574159 21523 net.cpp:141] Setting up inception_3a/relu_3x3
I0403 18:09:17.574183 21523 net.cpp:148] Top shape: 24 128 28 28 (2408448)
I0403 18:09:17.574198 21523 net.cpp:156] Memory required for data: 534676512
I0403 18:09:17.574210 21523 layer_factory.hpp:77] Creating layer inception_3a/5x5_reduce
I0403 18:09:17.574231 21523 net.cpp:91] Creating Layer inception_3a/5x5_reduce
I0403 18:09:17.574247 21523 net.cpp:425] inception_3a/5x5_reduce <- pool2/3x3_s2_pool2/3x3_s2_0_split_2
I0403 18:09:17.574268 21523 net.cpp:399] inception_3a/5x5_reduce -> inception_3a/5x5_reduce
I0403 18:09:17.575178 21523 net.cpp:141] Setting up inception_3a/5x5_reduce
I0403 18:09:17.575204 21523 net.cpp:148] Top shape: 24 16 28 28 (301056)
I0403 18:09:17.575218 21523 net.cpp:156] Memory required for data: 535880736
I0403 18:09:17.575235 21523 layer_factory.hpp:77] Creating layer inception_3a/relu_5x5_reduce
I0403 18:09:17.575254 21523 net.cpp:91] Creating Layer inception_3a/relu_5x5_reduce
I0403 18:09:17.575270 21523 net.cpp:425] inception_3a/relu_5x5_reduce <- inception_3a/5x5_reduce
I0403 18:09:17.575286 21523 net.cpp:386] inception_3a/relu_5x5_reduce -> inception_3a/5x5_reduce (in-place)
I0403 18:09:17.575572 21523 net.cpp:141] Setting up inception_3a/relu_5x5_reduce
I0403 18:09:17.575598 21523 net.cpp:148] Top shape: 24 16 28 28 (301056)
I0403 18:09:17.575613 21523 net.cpp:156] Memory required for data: 537084960
I0403 18:09:17.575625 21523 layer_factory.hpp:77] Creating layer inception_3a/5x5
I0403 18:09:17.575646 21523 net.cpp:91] Creating Layer inception_3a/5x5
I0403 18:09:17.575662 21523 net.cpp:425] inception_3a/5x5 <- inception_3a/5x5_reduce
I0403 18:09:17.575680 21523 net.cpp:399] inception_3a/5x5 -> inception_3a/5x5
I0403 18:09:17.576622 21523 net.cpp:141] Setting up inception_3a/5x5
I0403 18:09:17.576649 21523 net.cpp:148] Top shape: 24 32 28 28 (602112)
I0403 18:09:17.576663 21523 net.cpp:156] Memory required for data: 539493408
I0403 18:09:17.576679 21523 layer_factory.hpp:77] Creating layer inception_3a/relu_5x5
I0403 18:09:17.576699 21523 net.cpp:91] Creating Layer inception_3a/relu_5x5
I0403 18:09:17.576715 21523 net.cpp:425] inception_3a/relu_5x5 <- inception_3a/5x5
I0403 18:09:17.576731 21523 net.cpp:386] inception_3a/relu_5x5 -> inception_3a/5x5 (in-place)
I0403 18:09:17.576887 21523 net.cpp:141] Setting up inception_3a/relu_5x5
I0403 18:09:17.576911 21523 net.cpp:148] Top shape: 24 32 28 28 (602112)
I0403 18:09:17.576925 21523 net.cpp:156] Memory required for data: 541901856
I0403 18:09:17.576937 21523 layer_factory.hpp:77] Creating layer inception_3a/pool
I0403 18:09:17.576956 21523 net.cpp:91] Creating Layer inception_3a/pool
I0403 18:09:17.576984 21523 net.cpp:425] inception_3a/pool <- pool2/3x3_s2_pool2/3x3_s2_0_split_3
I0403 18:09:17.577002 21523 net.cpp:399] inception_3a/pool -> inception_3a/pool
I0403 18:09:17.577055 21523 net.cpp:141] Setting up inception_3a/pool
I0403 18:09:17.577078 21523 net.cpp:148] Top shape: 24 192 28 28 (3612672)
I0403 18:09:17.577091 21523 net.cpp:156] Memory required for data: 556352544
I0403 18:09:17.577105 21523 layer_factory.hpp:77] Creating layer inception_3a/pool_proj
I0403 18:09:17.577126 21523 net.cpp:91] Creating Layer inception_3a/pool_proj
I0403 18:09:17.577142 21523 net.cpp:425] inception_3a/pool_proj <- inception_3a/pool
I0403 18:09:17.577162 21523 net.cpp:399] inception_3a/pool_proj -> inception_3a/pool_proj
I0403 18:09:17.578064 21523 net.cpp:141] Setting up inception_3a/pool_proj
I0403 18:09:17.578093 21523 net.cpp:148] Top shape: 24 32 28 28 (602112)
I0403 18:09:17.578109 21523 net.cpp:156] Memory required for data: 558760992
I0403 18:09:17.578129 21523 layer_factory.hpp:77] Creating layer inception_3a/relu_pool_proj
I0403 18:09:17.578150 21523 net.cpp:91] Creating Layer inception_3a/relu_pool_proj
I0403 18:09:17.578166 21523 net.cpp:425] inception_3a/relu_pool_proj <- inception_3a/pool_proj
I0403 18:09:17.578182 21523 net.cpp:386] inception_3a/relu_pool_proj -> inception_3a/pool_proj (in-place)
I0403 18:09:17.578438 21523 net.cpp:141] Setting up inception_3a/relu_pool_proj
I0403 18:09:17.578462 21523 net.cpp:148] Top shape: 24 32 28 28 (602112)
I0403 18:09:17.578476 21523 net.cpp:156] Memory required for data: 561169440
I0403 18:09:17.578490 21523 layer_factory.hpp:77] Creating layer inception_3a/output
I0403 18:09:17.578512 21523 net.cpp:91] Creating Layer inception_3a/output
I0403 18:09:17.578528 21523 net.cpp:425] inception_3a/output <- inception_3a/1x1
I0403 18:09:17.578544 21523 net.cpp:425] inception_3a/output <- inception_3a/3x3
I0403 18:09:17.578559 21523 net.cpp:425] inception_3a/output <- inception_3a/5x5
I0403 18:09:17.578574 21523 net.cpp:425] inception_3a/output <- inception_3a/pool_proj
I0403 18:09:17.578590 21523 net.cpp:399] inception_3a/output -> inception_3a/output
I0403 18:09:17.578634 21523 net.cpp:141] Setting up inception_3a/output
I0403 18:09:17.578656 21523 net.cpp:148] Top shape: 24 256 28 28 (4816896)
I0403 18:09:17.578678 21523 net.cpp:156] Memory required for data: 580437024
I0403 18:09:17.578691 21523 layer_factory.hpp:77] Creating layer inception_3a/output_inception_3a/output_0_split
I0403 18:09:17.578707 21523 net.cpp:91] Creating Layer inception_3a/output_inception_3a/output_0_split
I0403 18:09:17.578722 21523 net.cpp:425] inception_3a/output_inception_3a/output_0_split <- inception_3a/output
I0403 18:09:17.578739 21523 net.cpp:399] inception_3a/output_inception_3a/output_0_split -> inception_3a/output_inception_3a/output_0_split_0
I0403 18:09:17.578758 21523 net.cpp:399] inception_3a/output_inception_3a/output_0_split -> inception_3a/output_inception_3a/output_0_split_1
I0403 18:09:17.578778 21523 net.cpp:399] inception_3a/output_inception_3a/output_0_split -> inception_3a/output_inception_3a/output_0_split_2
I0403 18:09:17.578797 21523 net.cpp:399] inception_3a/output_inception_3a/output_0_split -> inception_3a/output_inception_3a/output_0_split_3
I0403 18:09:17.578867 21523 net.cpp:141] Setting up inception_3a/output_inception_3a/output_0_split
I0403 18:09:17.578889 21523 net.cpp:148] Top shape: 24 256 28 28 (4816896)
I0403 18:09:17.578905 21523 net.cpp:148] Top shape: 24 256 28 28 (4816896)
I0403 18:09:17.578919 21523 net.cpp:148] Top shape: 24 256 28 28 (4816896)
I0403 18:09:17.578933 21523 net.cpp:148] Top shape: 24 256 28 28 (4816896)
I0403 18:09:17.578945 21523 net.cpp:156] Memory required for data: 657507360
I0403 18:09:17.578966 21523 layer_factory.hpp:77] Creating layer inception_3b/1x1
I0403 18:09:17.578987 21523 net.cpp:91] Creating Layer inception_3b/1x1
I0403 18:09:17.579002 21523 net.cpp:425] inception_3b/1x1 <- inception_3a/output_inception_3a/output_0_split_0
I0403 18:09:17.579022 21523 net.cpp:399] inception_3b/1x1 -> inception_3b/1x1
I0403 18:09:17.580080 21523 net.cpp:141] Setting up inception_3b/1x1
I0403 18:09:17.580116 21523 net.cpp:148] Top shape: 24 128 28 28 (2408448)
I0403 18:09:17.580132 21523 net.cpp:156] Memory required for data: 667141152
I0403 18:09:17.580147 21523 layer_factory.hpp:77] Creating layer inception_3b/relu_1x1
I0403 18:09:17.580164 21523 net.cpp:91] Creating Layer inception_3b/relu_1x1
I0403 18:09:17.580178 21523 net.cpp:425] inception_3b/relu_1x1 <- inception_3b/1x1
I0403 18:09:17.580196 21523 net.cpp:386] inception_3b/relu_1x1 -> inception_3b/1x1 (in-place)
I0403 18:09:17.580360 21523 net.cpp:141] Setting up inception_3b/relu_1x1
I0403 18:09:17.580384 21523 net.cpp:148] Top shape: 24 128 28 28 (2408448)
I0403 18:09:17.580397 21523 net.cpp:156] Memory required for data: 676774944
I0403 18:09:17.580410 21523 layer_factory.hpp:77] Creating layer inception_3b/3x3_reduce
I0403 18:09:17.580430 21523 net.cpp:91] Creating Layer inception_3b/3x3_reduce
I0403 18:09:17.580447 21523 net.cpp:425] inception_3b/3x3_reduce <- inception_3a/output_inception_3a/output_0_split_1
I0403 18:09:17.580467 21523 net.cpp:399] inception_3b/3x3_reduce -> inception_3b/3x3_reduce
I0403 18:09:17.581542 21523 net.cpp:141] Setting up inception_3b/3x3_reduce
I0403 18:09:17.581568 21523 net.cpp:148] Top shape: 24 128 28 28 (2408448)
I0403 18:09:17.581583 21523 net.cpp:156] Memory required for data: 686408736
I0403 18:09:17.581599 21523 layer_factory.hpp:77] Creating layer inception_3b/relu_3x3_reduce
I0403 18:09:17.581615 21523 net.cpp:91] Creating Layer inception_3b/relu_3x3_reduce
I0403 18:09:17.581629 21523 net.cpp:425] inception_3b/relu_3x3_reduce <- inception_3b/3x3_reduce
I0403 18:09:17.581655 21523 net.cpp:386] inception_3b/relu_3x3_reduce -> inception_3b/3x3_reduce (in-place)
I0403 18:09:17.581815 21523 net.cpp:141] Setting up inception_3b/relu_3x3_reduce
I0403 18:09:17.581838 21523 net.cpp:148] Top shape: 24 128 28 28 (2408448)
I0403 18:09:17.581852 21523 net.cpp:156] Memory required for data: 696042528
I0403 18:09:17.581866 21523 layer_factory.hpp:77] Creating layer inception_3b/3x3
I0403 18:09:17.581889 21523 net.cpp:91] Creating Layer inception_3b/3x3
I0403 18:09:17.581907 21523 net.cpp:425] inception_3b/3x3 <- inception_3b/3x3_reduce
I0403 18:09:17.581924 21523 net.cpp:399] inception_3b/3x3 -> inception_3b/3x3
I0403 18:09:17.584678 21523 net.cpp:141] Setting up inception_3b/3x3
I0403 18:09:17.584707 21523 net.cpp:148] Top shape: 24 192 28 28 (3612672)
I0403 18:09:17.584720 21523 net.cpp:156] Memory required for data: 710493216
I0403 18:09:17.584738 21523 layer_factory.hpp:77] Creating layer inception_3b/relu_3x3
I0403 18:09:17.584755 21523 net.cpp:91] Creating Layer inception_3b/relu_3x3
I0403 18:09:17.584771 21523 net.cpp:425] inception_3b/relu_3x3 <- inception_3b/3x3
I0403 18:09:17.584789 21523 net.cpp:386] inception_3b/relu_3x3 -> inception_3b/3x3 (in-place)
I0403 18:09:17.585050 21523 net.cpp:141] Setting up inception_3b/relu_3x3
I0403 18:09:17.585074 21523 net.cpp:148] Top shape: 24 192 28 28 (3612672)
I0403 18:09:17.585088 21523 net.cpp:156] Memory required for data: 724943904
I0403 18:09:17.585101 21523 layer_factory.hpp:77] Creating layer inception_3b/5x5_reduce
I0403 18:09:17.585122 21523 net.cpp:91] Creating Layer inception_3b/5x5_reduce
I0403 18:09:17.585139 21523 net.cpp:425] inception_3b/5x5_reduce <- inception_3a/output_inception_3a/output_0_split_2
I0403 18:09:17.585160 21523 net.cpp:399] inception_3b/5x5_reduce -> inception_3b/5x5_reduce
I0403 18:09:17.586083 21523 net.cpp:141] Setting up inception_3b/5x5_reduce
I0403 18:09:17.586108 21523 net.cpp:148] Top shape: 24 32 28 28 (602112)
I0403 18:09:17.586123 21523 net.cpp:156] Memory required for data: 727352352
I0403 18:09:17.586139 21523 layer_factory.hpp:77] Creating layer inception_3b/relu_5x5_reduce
I0403 18:09:17.586158 21523 net.cpp:91] Creating Layer inception_3b/relu_5x5_reduce
I0403 18:09:17.586174 21523 net.cpp:425] inception_3b/relu_5x5_reduce <- inception_3b/5x5_reduce
I0403 18:09:17.586190 21523 net.cpp:386] inception_3b/relu_5x5_reduce -> inception_3b/5x5_reduce (in-place)
I0403 18:09:17.586367 21523 net.cpp:141] Setting up inception_3b/relu_5x5_reduce
I0403 18:09:17.586391 21523 net.cpp:148] Top shape: 24 32 28 28 (602112)
I0403 18:09:17.586405 21523 net.cpp:156] Memory required for data: 729760800
I0403 18:09:17.586418 21523 layer_factory.hpp:77] Creating layer inception_3b/5x5
I0403 18:09:17.586441 21523 net.cpp:91] Creating Layer inception_3b/5x5
I0403 18:09:17.586457 21523 net.cpp:425] inception_3b/5x5 <- inception_3b/5x5_reduce
I0403 18:09:17.586474 21523 net.cpp:399] inception_3b/5x5 -> inception_3b/5x5
I0403 18:09:17.588340 21523 net.cpp:141] Setting up inception_3b/5x5
I0403 18:09:17.588368 21523 net.cpp:148] Top shape: 24 96 28 28 (1806336)
I0403 18:09:17.588383 21523 net.cpp:156] Memory required for data: 736986144
I0403 18:09:17.588402 21523 layer_factory.hpp:77] Creating layer inception_3b/relu_5x5
I0403 18:09:17.588418 21523 net.cpp:91] Creating Layer inception_3b/relu_5x5
I0403 18:09:17.588433 21523 net.cpp:425] inception_3b/relu_5x5 <- inception_3b/5x5
I0403 18:09:17.588454 21523 net.cpp:386] inception_3b/relu_5x5 -> inception_3b/5x5 (in-place)
I0403 18:09:17.588634 21523 net.cpp:141] Setting up inception_3b/relu_5x5
I0403 18:09:17.588656 21523 net.cpp:148] Top shape: 24 96 28 28 (1806336)
I0403 18:09:17.588670 21523 net.cpp:156] Memory required for data: 744211488
I0403 18:09:17.588683 21523 layer_factory.hpp:77] Creating layer inception_3b/pool
I0403 18:09:17.588699 21523 net.cpp:91] Creating Layer inception_3b/pool
I0403 18:09:17.588714 21523 net.cpp:425] inception_3b/pool <- inception_3a/output_inception_3a/output_0_split_3
I0403 18:09:17.588731 21523 net.cpp:399] inception_3b/pool -> inception_3b/pool
I0403 18:09:17.588785 21523 net.cpp:141] Setting up inception_3b/pool
I0403 18:09:17.588809 21523 net.cpp:148] Top shape: 24 256 28 28 (4816896)
I0403 18:09:17.588821 21523 net.cpp:156] Memory required for data: 763479072
I0403 18:09:17.588835 21523 layer_factory.hpp:77] Creating layer inception_3b/pool_proj
I0403 18:09:17.588855 21523 net.cpp:91] Creating Layer inception_3b/pool_proj
I0403 18:09:17.588872 21523 net.cpp:425] inception_3b/pool_proj <- inception_3b/pool
I0403 18:09:17.588892 21523 net.cpp:399] inception_3b/pool_proj -> inception_3b/pool_proj
I0403 18:09:17.589917 21523 net.cpp:141] Setting up inception_3b/pool_proj
I0403 18:09:17.589943 21523 net.cpp:148] Top shape: 24 64 28 28 (1204224)
I0403 18:09:17.589957 21523 net.cpp:156] Memory required for data: 768295968
I0403 18:09:17.589977 21523 layer_factory.hpp:77] Creating layer inception_3b/relu_pool_proj
I0403 18:09:17.589994 21523 net.cpp:91] Creating Layer inception_3b/relu_pool_proj
I0403 18:09:17.590009 21523 net.cpp:425] inception_3b/relu_pool_proj <- inception_3b/pool_proj
I0403 18:09:17.590024 21523 net.cpp:386] inception_3b/relu_pool_proj -> inception_3b/pool_proj (in-place)
I0403 18:09:17.590402 21523 net.cpp:141] Setting up inception_3b/relu_pool_proj
I0403 18:09:17.590427 21523 net.cpp:148] Top shape: 24 64 28 28 (1204224)
I0403 18:09:17.590443 21523 net.cpp:156] Memory required for data: 773112864
I0403 18:09:17.590457 21523 layer_factory.hpp:77] Creating layer inception_3b/output
I0403 18:09:17.590473 21523 net.cpp:91] Creating Layer inception_3b/output
I0403 18:09:17.590487 21523 net.cpp:425] inception_3b/output <- inception_3b/1x1
I0403 18:09:17.590503 21523 net.cpp:425] inception_3b/output <- inception_3b/3x3
I0403 18:09:17.590523 21523 net.cpp:425] inception_3b/output <- inception_3b/5x5
I0403 18:09:17.590539 21523 net.cpp:425] inception_3b/output <- inception_3b/pool_proj
I0403 18:09:17.590554 21523 net.cpp:399] inception_3b/output -> inception_3b/output
I0403 18:09:17.590596 21523 net.cpp:141] Setting up inception_3b/output
I0403 18:09:17.590617 21523 net.cpp:148] Top shape: 24 480 28 28 (9031680)
I0403 18:09:17.590631 21523 net.cpp:156] Memory required for data: 809239584
I0403 18:09:17.590644 21523 layer_factory.hpp:77] Creating layer pool3/3x3_s2
I0403 18:09:17.590661 21523 net.cpp:91] Creating Layer pool3/3x3_s2
I0403 18:09:17.590677 21523 net.cpp:425] pool3/3x3_s2 <- inception_3b/output
I0403 18:09:17.590708 21523 net.cpp:399] pool3/3x3_s2 -> pool3/3x3_s2
I0403 18:09:17.590767 21523 net.cpp:141] Setting up pool3/3x3_s2
I0403 18:09:17.590790 21523 net.cpp:148] Top shape: 24 480 14 14 (2257920)
I0403 18:09:17.590802 21523 net.cpp:156] Memory required for data: 818271264
I0403 18:09:17.590816 21523 layer_factory.hpp:77] Creating layer pool3/3x3_s2_pool3/3x3_s2_0_split
I0403 18:09:17.590832 21523 net.cpp:91] Creating Layer pool3/3x3_s2_pool3/3x3_s2_0_split
I0403 18:09:17.590845 21523 net.cpp:425] pool3/3x3_s2_pool3/3x3_s2_0_split <- pool3/3x3_s2
I0403 18:09:17.590862 21523 net.cpp:399] pool3/3x3_s2_pool3/3x3_s2_0_split -> pool3/3x3_s2_pool3/3x3_s2_0_split_0
I0403 18:09:17.590881 21523 net.cpp:399] pool3/3x3_s2_pool3/3x3_s2_0_split -> pool3/3x3_s2_pool3/3x3_s2_0_split_1
I0403 18:09:17.590900 21523 net.cpp:399] pool3/3x3_s2_pool3/3x3_s2_0_split -> pool3/3x3_s2_pool3/3x3_s2_0_split_2
I0403 18:09:17.590919 21523 net.cpp:399] pool3/3x3_s2_pool3/3x3_s2_0_split -> pool3/3x3_s2_pool3/3x3_s2_0_split_3
I0403 18:09:17.590988 21523 net.cpp:141] Setting up pool3/3x3_s2_pool3/3x3_s2_0_split
I0403 18:09:17.591011 21523 net.cpp:148] Top shape: 24 480 14 14 (2257920)
I0403 18:09:17.591024 21523 net.cpp:148] Top shape: 24 480 14 14 (2257920)
I0403 18:09:17.591038 21523 net.cpp:148] Top shape: 24 480 14 14 (2257920)
I0403 18:09:17.591053 21523 net.cpp:148] Top shape: 24 480 14 14 (2257920)
I0403 18:09:17.591065 21523 net.cpp:156] Memory required for data: 854397984
I0403 18:09:17.591078 21523 layer_factory.hpp:77] Creating layer inception_4a/1x1
I0403 18:09:17.591100 21523 net.cpp:91] Creating Layer inception_4a/1x1
I0403 18:09:17.591116 21523 net.cpp:425] inception_4a/1x1 <- pool3/3x3_s2_pool3/3x3_s2_0_split_0
I0403 18:09:17.591135 21523 net.cpp:399] inception_4a/1x1 -> inception_4a/1x1
I0403 18:09:17.592598 21523 net.cpp:141] Setting up inception_4a/1x1
I0403 18:09:17.592627 21523 net.cpp:148] Top shape: 24 192 14 14 (903168)
I0403 18:09:17.592641 21523 net.cpp:156] Memory required for data: 858010656
I0403 18:09:17.592658 21523 layer_factory.hpp:77] Creating layer inception_4a/relu_1x1
I0403 18:09:17.592674 21523 net.cpp:91] Creating Layer inception_4a/relu_1x1
I0403 18:09:17.592689 21523 net.cpp:425] inception_4a/relu_1x1 <- inception_4a/1x1
I0403 18:09:17.592706 21523 net.cpp:386] inception_4a/relu_1x1 -> inception_4a/1x1 (in-place)
I0403 18:09:17.592869 21523 net.cpp:141] Setting up inception_4a/relu_1x1
I0403 18:09:17.592891 21523 net.cpp:148] Top shape: 24 192 14 14 (903168)
I0403 18:09:17.592905 21523 net.cpp:156] Memory required for data: 861623328
I0403 18:09:17.592918 21523 layer_factory.hpp:77] Creating layer inception_4a/3x3_reduce
I0403 18:09:17.592938 21523 net.cpp:91] Creating Layer inception_4a/3x3_reduce
I0403 18:09:17.592954 21523 net.cpp:425] inception_4a/3x3_reduce <- pool3/3x3_s2_pool3/3x3_s2_0_split_1
I0403 18:09:17.592974 21523 net.cpp:399] inception_4a/3x3_reduce -> inception_4a/3x3_reduce
I0403 18:09:17.594154 21523 net.cpp:141] Setting up inception_4a/3x3_reduce
I0403 18:09:17.594182 21523 net.cpp:148] Top shape: 24 96 14 14 (451584)
I0403 18:09:17.594197 21523 net.cpp:156] Memory required for data: 863429664
I0403 18:09:17.594218 21523 layer_factory.hpp:77] Creating layer inception_4a/relu_3x3_reduce
I0403 18:09:17.594238 21523 net.cpp:91] Creating Layer inception_4a/relu_3x3_reduce
I0403 18:09:17.594254 21523 net.cpp:425] inception_4a/relu_3x3_reduce <- inception_4a/3x3_reduce
I0403 18:09:17.594270 21523 net.cpp:386] inception_4a/relu_3x3_reduce -> inception_4a/3x3_reduce (in-place)
I0403 18:09:17.594432 21523 net.cpp:141] Setting up inception_4a/relu_3x3_reduce
I0403 18:09:17.594455 21523 net.cpp:148] Top shape: 24 96 14 14 (451584)
I0403 18:09:17.594470 21523 net.cpp:156] Memory required for data: 865236000
I0403 18:09:17.594482 21523 layer_factory.hpp:77] Creating layer inception_4a/3x3
I0403 18:09:17.594516 21523 net.cpp:91] Creating Layer inception_4a/3x3
I0403 18:09:17.594534 21523 net.cpp:425] inception_4a/3x3 <- inception_4a/3x3_reduce
I0403 18:09:17.594554 21523 net.cpp:399] inception_4a/3x3 -> inception_4a/3x3
I0403 18:09:17.597103 21523 net.cpp:141] Setting up inception_4a/3x3
I0403 18:09:17.597129 21523 net.cpp:148] Top shape: 24 208 14 14 (978432)
I0403 18:09:17.597144 21523 net.cpp:156] Memory required for data: 869149728
I0403 18:09:17.597160 21523 layer_factory.hpp:77] Creating layer inception_4a/relu_3x3
I0403 18:09:17.597177 21523 net.cpp:91] Creating Layer inception_4a/relu_3x3
I0403 18:09:17.597194 21523 net.cpp:425] inception_4a/relu_3x3 <- inception_4a/3x3
I0403 18:09:17.597211 21523 net.cpp:386] inception_4a/relu_3x3 -> inception_4a/3x3 (in-place)
I0403 18:09:17.597470 21523 net.cpp:141] Setting up inception_4a/relu_3x3
I0403 18:09:17.597494 21523 net.cpp:148] Top shape: 24 208 14 14 (978432)
I0403 18:09:17.597512 21523 net.cpp:156] Memory required for data: 873063456
I0403 18:09:17.597527 21523 layer_factory.hpp:77] Creating layer inception_4a/5x5_reduce
I0403 18:09:17.597549 21523 net.cpp:91] Creating Layer inception_4a/5x5_reduce
I0403 18:09:17.597566 21523 net.cpp:425] inception_4a/5x5_reduce <- pool3/3x3_s2_pool3/3x3_s2_0_split_2
I0403 18:09:17.597586 21523 net.cpp:399] inception_4a/5x5_reduce -> inception_4a/5x5_reduce
I0403 18:09:17.598539 21523 net.cpp:141] Setting up inception_4a/5x5_reduce
I0403 18:09:17.598565 21523 net.cpp:148] Top shape: 24 16 14 14 (75264)
I0403 18:09:17.598579 21523 net.cpp:156] Memory required for data: 873364512
I0403 18:09:17.598597 21523 layer_factory.hpp:77] Creating layer inception_4a/relu_5x5_reduce
I0403 18:09:17.598614 21523 net.cpp:91] Creating Layer inception_4a/relu_5x5_reduce
I0403 18:09:17.598630 21523 net.cpp:425] inception_4a/relu_5x5_reduce <- inception_4a/5x5_reduce
I0403 18:09:17.598646 21523 net.cpp:386] inception_4a/relu_5x5_reduce -> inception_4a/5x5_reduce (in-place)
I0403 18:09:17.598814 21523 net.cpp:141] Setting up inception_4a/relu_5x5_reduce
I0403 18:09:17.598839 21523 net.cpp:148] Top shape: 24 16 14 14 (75264)
I0403 18:09:17.598851 21523 net.cpp:156] Memory required for data: 873665568
I0403 18:09:17.598865 21523 layer_factory.hpp:77] Creating layer inception_4a/5x5
I0403 18:09:17.598887 21523 net.cpp:91] Creating Layer inception_4a/5x5
I0403 18:09:17.598903 21523 net.cpp:425] inception_4a/5x5 <- inception_4a/5x5_reduce
I0403 18:09:17.598920 21523 net.cpp:399] inception_4a/5x5 -> inception_4a/5x5
I0403 18:09:17.599936 21523 net.cpp:141] Setting up inception_4a/5x5
I0403 18:09:17.599961 21523 net.cpp:148] Top shape: 24 48 14 14 (225792)
I0403 18:09:17.599978 21523 net.cpp:156] Memory required for data: 874568736
I0403 18:09:17.599995 21523 layer_factory.hpp:77] Creating layer inception_4a/relu_5x5
I0403 18:09:17.600013 21523 net.cpp:91] Creating Layer inception_4a/relu_5x5
I0403 18:09:17.600026 21523 net.cpp:425] inception_4a/relu_5x5 <- inception_4a/5x5
I0403 18:09:17.600041 21523 net.cpp:386] inception_4a/relu_5x5 -> inception_4a/5x5 (in-place)
I0403 18:09:17.600205 21523 net.cpp:141] Setting up inception_4a/relu_5x5
I0403 18:09:17.600234 21523 net.cpp:148] Top shape: 24 48 14 14 (225792)
I0403 18:09:17.600249 21523 net.cpp:156] Memory required for data: 875471904
I0403 18:09:17.600263 21523 layer_factory.hpp:77] Creating layer inception_4a/pool
I0403 18:09:17.600280 21523 net.cpp:91] Creating Layer inception_4a/pool
I0403 18:09:17.600293 21523 net.cpp:425] inception_4a/pool <- pool3/3x3_s2_pool3/3x3_s2_0_split_3
I0403 18:09:17.600312 21523 net.cpp:399] inception_4a/pool -> inception_4a/pool
I0403 18:09:17.600368 21523 net.cpp:141] Setting up inception_4a/pool
I0403 18:09:17.600394 21523 net.cpp:148] Top shape: 24 480 14 14 (2257920)
I0403 18:09:17.600407 21523 net.cpp:156] Memory required for data: 884503584
I0403 18:09:17.600421 21523 layer_factory.hpp:77] Creating layer inception_4a/pool_proj
I0403 18:09:17.600440 21523 net.cpp:91] Creating Layer inception_4a/pool_proj
I0403 18:09:17.600455 21523 net.cpp:425] inception_4a/pool_proj <- inception_4a/pool
I0403 18:09:17.600474 21523 net.cpp:399] inception_4a/pool_proj -> inception_4a/pool_proj
I0403 18:09:17.601567 21523 net.cpp:141] Setting up inception_4a/pool_proj
I0403 18:09:17.601596 21523 net.cpp:148] Top shape: 24 64 14 14 (301056)
I0403 18:09:17.601624 21523 net.cpp:156] Memory required for data: 885707808
I0403 18:09:17.601642 21523 layer_factory.hpp:77] Creating layer inception_4a/relu_pool_proj
I0403 18:09:17.601660 21523 net.cpp:91] Creating Layer inception_4a/relu_pool_proj
I0403 18:09:17.601673 21523 net.cpp:425] inception_4a/relu_pool_proj <- inception_4a/pool_proj
I0403 18:09:17.601691 21523 net.cpp:386] inception_4a/relu_pool_proj -> inception_4a/pool_proj (in-place)
I0403 18:09:17.601956 21523 net.cpp:141] Setting up inception_4a/relu_pool_proj
I0403 18:09:17.601984 21523 net.cpp:148] Top shape: 24 64 14 14 (301056)
I0403 18:09:17.601997 21523 net.cpp:156] Memory required for data: 886912032
I0403 18:09:17.602010 21523 layer_factory.hpp:77] Creating layer inception_4a/output
I0403 18:09:17.602026 21523 net.cpp:91] Creating Layer inception_4a/output
I0403 18:09:17.602041 21523 net.cpp:425] inception_4a/output <- inception_4a/1x1
I0403 18:09:17.602056 21523 net.cpp:425] inception_4a/output <- inception_4a/3x3
I0403 18:09:17.602071 21523 net.cpp:425] inception_4a/output <- inception_4a/5x5
I0403 18:09:17.602085 21523 net.cpp:425] inception_4a/output <- inception_4a/pool_proj
I0403 18:09:17.602100 21523 net.cpp:399] inception_4a/output -> inception_4a/output
I0403 18:09:17.602144 21523 net.cpp:141] Setting up inception_4a/output
I0403 18:09:17.602165 21523 net.cpp:148] Top shape: 24 512 14 14 (2408448)
I0403 18:09:17.602179 21523 net.cpp:156] Memory required for data: 896545824
I0403 18:09:17.602192 21523 layer_factory.hpp:77] Creating layer inception_4a/output_inception_4a/output_0_split
I0403 18:09:17.602210 21523 net.cpp:91] Creating Layer inception_4a/output_inception_4a/output_0_split
I0403 18:09:17.602226 21523 net.cpp:425] inception_4a/output_inception_4a/output_0_split <- inception_4a/output
I0403 18:09:17.602241 21523 net.cpp:399] inception_4a/output_inception_4a/output_0_split -> inception_4a/output_inception_4a/output_0_split_0
I0403 18:09:17.602260 21523 net.cpp:399] inception_4a/output_inception_4a/output_0_split -> inception_4a/output_inception_4a/output_0_split_1
I0403 18:09:17.602279 21523 net.cpp:399] inception_4a/output_inception_4a/output_0_split -> inception_4a/output_inception_4a/output_0_split_2
I0403 18:09:17.602301 21523 net.cpp:399] inception_4a/output_inception_4a/output_0_split -> inception_4a/output_inception_4a/output_0_split_3
I0403 18:09:17.602321 21523 net.cpp:399] inception_4a/output_inception_4a/output_0_split -> inception_4a/output_inception_4a/output_0_split_4
I0403 18:09:17.602407 21523 net.cpp:141] Setting up inception_4a/output_inception_4a/output_0_split
I0403 18:09:17.602429 21523 net.cpp:148] Top shape: 24 512 14 14 (2408448)
I0403 18:09:17.602444 21523 net.cpp:148] Top shape: 24 512 14 14 (2408448)
I0403 18:09:17.602458 21523 net.cpp:148] Top shape: 24 512 14 14 (2408448)
I0403 18:09:17.602473 21523 net.cpp:148] Top shape: 24 512 14 14 (2408448)
I0403 18:09:17.602486 21523 net.cpp:148] Top shape: 24 512 14 14 (2408448)
I0403 18:09:17.602499 21523 net.cpp:156] Memory required for data: 944714784
I0403 18:09:17.602516 21523 layer_factory.hpp:77] Creating layer loss1/ave_pool
I0403 18:09:17.602536 21523 net.cpp:91] Creating Layer loss1/ave_pool
I0403 18:09:17.602552 21523 net.cpp:425] loss1/ave_pool <- inception_4a/output_inception_4a/output_0_split_0
I0403 18:09:17.602568 21523 net.cpp:399] loss1/ave_pool -> loss1/ave_pool
I0403 18:09:17.602758 21523 net.cpp:141] Setting up loss1/ave_pool
I0403 18:09:17.602784 21523 net.cpp:148] Top shape: 24 512 4 4 (196608)
I0403 18:09:17.602799 21523 net.cpp:156] Memory required for data: 945501216
I0403 18:09:17.602813 21523 layer_factory.hpp:77] Creating layer loss1/conv
I0403 18:09:17.602833 21523 net.cpp:91] Creating Layer loss1/conv
I0403 18:09:17.602849 21523 net.cpp:425] loss1/conv <- loss1/ave_pool
I0403 18:09:17.602865 21523 net.cpp:399] loss1/conv -> loss1/conv
I0403 18:09:17.604194 21523 net.cpp:141] Setting up loss1/conv
I0403 18:09:17.604220 21523 net.cpp:148] Top shape: 24 128 4 4 (49152)
I0403 18:09:17.604249 21523 net.cpp:156] Memory required for data: 945697824
I0403 18:09:17.604267 21523 layer_factory.hpp:77] Creating layer loss1/relu_conv
I0403 18:09:17.604286 21523 net.cpp:91] Creating Layer loss1/relu_conv
I0403 18:09:17.604302 21523 net.cpp:425] loss1/relu_conv <- loss1/conv
I0403 18:09:17.604318 21523 net.cpp:386] loss1/relu_conv -> loss1/conv (in-place)
I0403 18:09:17.604600 21523 net.cpp:141] Setting up loss1/relu_conv
I0403 18:09:17.604625 21523 net.cpp:148] Top shape: 24 128 4 4 (49152)
I0403 18:09:17.604640 21523 net.cpp:156] Memory required for data: 945894432
I0403 18:09:17.604652 21523 layer_factory.hpp:77] Creating layer loss1/fc
I0403 18:09:17.604677 21523 net.cpp:91] Creating Layer loss1/fc
I0403 18:09:17.604696 21523 net.cpp:425] loss1/fc <- loss1/conv
I0403 18:09:17.604712 21523 net.cpp:399] loss1/fc -> loss1/fc
I0403 18:09:17.621600 21523 net.cpp:141] Setting up loss1/fc
I0403 18:09:17.621631 21523 net.cpp:148] Top shape: 24 1024 (24576)
I0403 18:09:17.621645 21523 net.cpp:156] Memory required for data: 945992736
I0403 18:09:17.621662 21523 layer_factory.hpp:77] Creating layer loss1/relu_fc
I0403 18:09:17.621682 21523 net.cpp:91] Creating Layer loss1/relu_fc
I0403 18:09:17.621698 21523 net.cpp:425] loss1/relu_fc <- loss1/fc
I0403 18:09:17.621716 21523 net.cpp:386] loss1/relu_fc -> loss1/fc (in-place)
I0403 18:09:17.621887 21523 net.cpp:141] Setting up loss1/relu_fc
I0403 18:09:17.621911 21523 net.cpp:148] Top shape: 24 1024 (24576)
I0403 18:09:17.621924 21523 net.cpp:156] Memory required for data: 946091040
I0403 18:09:17.621937 21523 layer_factory.hpp:77] Creating layer loss1/drop_fc
I0403 18:09:17.621961 21523 net.cpp:91] Creating Layer loss1/drop_fc
I0403 18:09:17.621978 21523 net.cpp:425] loss1/drop_fc <- loss1/fc
I0403 18:09:17.621995 21523 net.cpp:386] loss1/drop_fc -> loss1/fc (in-place)
I0403 18:09:17.622043 21523 net.cpp:141] Setting up loss1/drop_fc
I0403 18:09:17.622064 21523 net.cpp:148] Top shape: 24 1024 (24576)
I0403 18:09:17.622077 21523 net.cpp:156] Memory required for data: 946189344
I0403 18:09:17.622092 21523 layer_factory.hpp:77] Creating layer loss1/classifier_plantvillage
I0403 18:09:17.622112 21523 net.cpp:91] Creating Layer loss1/classifier_plantvillage
I0403 18:09:17.622128 21523 net.cpp:425] loss1/classifier_plantvillage <- loss1/fc
I0403 18:09:17.622148 21523 net.cpp:399] loss1/classifier_plantvillage -> loss1/classifier_plantvillage
I0403 18:09:17.623018 21523 net.cpp:141] Setting up loss1/classifier_plantvillage
I0403 18:09:17.623045 21523 net.cpp:148] Top shape: 24 38 (912)
I0403 18:09:17.623061 21523 net.cpp:156] Memory required for data: 946192992
I0403 18:09:17.623077 21523 layer_factory.hpp:77] Creating layer loss1/classifier_plantvillage_loss1/classifier_plantvillage_0_split
I0403 18:09:17.623095 21523 net.cpp:91] Creating Layer loss1/classifier_plantvillage_loss1/classifier_plantvillage_0_split
I0403 18:09:17.623109 21523 net.cpp:425] loss1/classifier_plantvillage_loss1/classifier_plantvillage_0_split <- loss1/classifier_plantvillage
I0403 18:09:17.623127 21523 net.cpp:399] loss1/classifier_plantvillage_loss1/classifier_plantvillage_0_split -> loss1/classifier_plantvillage_loss1/classifier_plantvillage_0_split_0
I0403 18:09:17.623147 21523 net.cpp:399] loss1/classifier_plantvillage_loss1/classifier_plantvillage_0_split -> loss1/classifier_plantvillage_loss1/classifier_plantvillage_0_split_1
I0403 18:09:17.623167 21523 net.cpp:399] loss1/classifier_plantvillage_loss1/classifier_plantvillage_0_split -> loss1/classifier_plantvillage_loss1/classifier_plantvillage_0_split_2
I0403 18:09:17.623229 21523 net.cpp:141] Setting up loss1/classifier_plantvillage_loss1/classifier_plantvillage_0_split
I0403 18:09:17.623250 21523 net.cpp:148] Top shape: 24 38 (912)
I0403 18:09:17.623267 21523 net.cpp:148] Top shape: 24 38 (912)
I0403 18:09:17.623281 21523 net.cpp:148] Top shape: 24 38 (912)
I0403 18:09:17.623293 21523 net.cpp:156] Memory required for data: 946203936
I0403 18:09:17.623306 21523 layer_factory.hpp:77] Creating layer inception_4b/1x1
I0403 18:09:17.623327 21523 net.cpp:91] Creating Layer inception_4b/1x1
I0403 18:09:17.623355 21523 net.cpp:425] inception_4b/1x1 <- inception_4a/output_inception_4a/output_0_split_1
I0403 18:09:17.623373 21523 net.cpp:399] inception_4b/1x1 -> inception_4b/1x1
I0403 18:09:17.624918 21523 net.cpp:141] Setting up inception_4b/1x1
I0403 18:09:17.624944 21523 net.cpp:148] Top shape: 24 160 14 14 (752640)
I0403 18:09:17.624959 21523 net.cpp:156] Memory required for data: 949214496
I0403 18:09:17.624976 21523 layer_factory.hpp:77] Creating layer inception_4b/relu_1x1
I0403 18:09:17.624995 21523 net.cpp:91] Creating Layer inception_4b/relu_1x1
I0403 18:09:17.625010 21523 net.cpp:425] inception_4b/relu_1x1 <- inception_4b/1x1
I0403 18:09:17.625026 21523 net.cpp:386] inception_4b/relu_1x1 -> inception_4b/1x1 (in-place)
I0403 18:09:17.625191 21523 net.cpp:141] Setting up inception_4b/relu_1x1
I0403 18:09:17.625214 21523 net.cpp:148] Top shape: 24 160 14 14 (752640)
I0403 18:09:17.625228 21523 net.cpp:156] Memory required for data: 952225056
I0403 18:09:17.625242 21523 layer_factory.hpp:77] Creating layer inception_4b/3x3_reduce
I0403 18:09:17.625264 21523 net.cpp:91] Creating Layer inception_4b/3x3_reduce
I0403 18:09:17.625280 21523 net.cpp:425] inception_4b/3x3_reduce <- inception_4a/output_inception_4a/output_0_split_2
I0403 18:09:17.625298 21523 net.cpp:399] inception_4b/3x3_reduce -> inception_4b/3x3_reduce
I0403 18:09:17.626574 21523 net.cpp:141] Setting up inception_4b/3x3_reduce
I0403 18:09:17.626610 21523 net.cpp:148] Top shape: 24 112 14 14 (526848)
I0403 18:09:17.626623 21523 net.cpp:156] Memory required for data: 954332448
I0403 18:09:17.626641 21523 layer_factory.hpp:77] Creating layer inception_4b/relu_3x3_reduce
I0403 18:09:17.626658 21523 net.cpp:91] Creating Layer inception_4b/relu_3x3_reduce
I0403 18:09:17.626674 21523 net.cpp:425] inception_4b/relu_3x3_reduce <- inception_4b/3x3_reduce
I0403 18:09:17.626690 21523 net.cpp:386] inception_4b/relu_3x3_reduce -> inception_4b/3x3_reduce (in-place)
I0403 18:09:17.626952 21523 net.cpp:141] Setting up inception_4b/relu_3x3_reduce
I0403 18:09:17.626977 21523 net.cpp:148] Top shape: 24 112 14 14 (526848)
I0403 18:09:17.626992 21523 net.cpp:156] Memory required for data: 956439840
I0403 18:09:17.627007 21523 layer_factory.hpp:77] Creating layer inception_4b/3x3
I0403 18:09:17.627030 21523 net.cpp:91] Creating Layer inception_4b/3x3
I0403 18:09:17.627048 21523 net.cpp:425] inception_4b/3x3 <- inception_4b/3x3_reduce
I0403 18:09:17.627068 21523 net.cpp:399] inception_4b/3x3 -> inception_4b/3x3
I0403 18:09:17.629878 21523 net.cpp:141] Setting up inception_4b/3x3
I0403 18:09:17.629907 21523 net.cpp:148] Top shape: 24 224 14 14 (1053696)
I0403 18:09:17.629923 21523 net.cpp:156] Memory required for data: 960654624
I0403 18:09:17.629940 21523 layer_factory.hpp:77] Creating layer inception_4b/relu_3x3
I0403 18:09:17.629956 21523 net.cpp:91] Creating Layer inception_4b/relu_3x3
I0403 18:09:17.629972 21523 net.cpp:425] inception_4b/relu_3x3 <- inception_4b/3x3
I0403 18:09:17.629992 21523 net.cpp:386] inception_4b/relu_3x3 -> inception_4b/3x3 (in-place)
I0403 18:09:17.630162 21523 net.cpp:141] Setting up inception_4b/relu_3x3
I0403 18:09:17.630185 21523 net.cpp:148] Top shape: 24 224 14 14 (1053696)
I0403 18:09:17.630199 21523 net.cpp:156] Memory required for data: 964869408
I0403 18:09:17.630213 21523 layer_factory.hpp:77] Creating layer inception_4b/5x5_reduce
I0403 18:09:17.630233 21523 net.cpp:91] Creating Layer inception_4b/5x5_reduce
I0403 18:09:17.630249 21523 net.cpp:425] inception_4b/5x5_reduce <- inception_4a/output_inception_4a/output_0_split_3
I0403 18:09:17.630272 21523 net.cpp:399] inception_4b/5x5_reduce -> inception_4b/5x5_reduce
I0403 18:09:17.631292 21523 net.cpp:141] Setting up inception_4b/5x5_reduce
I0403 18:09:17.631319 21523 net.cpp:148] Top shape: 24 24 14 14 (112896)
I0403 18:09:17.631332 21523 net.cpp:156] Memory required for data: 965320992
I0403 18:09:17.631350 21523 layer_factory.hpp:77] Creating layer inception_4b/relu_5x5_reduce
I0403 18:09:17.631367 21523 net.cpp:91] Creating Layer inception_4b/relu_5x5_reduce
I0403 18:09:17.631397 21523 net.cpp:425] inception_4b/relu_5x5_reduce <- inception_4b/5x5_reduce
I0403 18:09:17.631414 21523 net.cpp:386] inception_4b/relu_5x5_reduce -> inception_4b/5x5_reduce (in-place)
I0403 18:09:17.631593 21523 net.cpp:141] Setting up inception_4b/relu_5x5_reduce
I0403 18:09:17.631618 21523 net.cpp:148] Top shape: 24 24 14 14 (112896)
I0403 18:09:17.631633 21523 net.cpp:156] Memory required for data: 965772576
I0403 18:09:17.631646 21523 layer_factory.hpp:77] Creating layer inception_4b/5x5
I0403 18:09:17.631666 21523 net.cpp:91] Creating Layer inception_4b/5x5
I0403 18:09:17.631683 21523 net.cpp:425] inception_4b/5x5 <- inception_4b/5x5_reduce
I0403 18:09:17.631700 21523 net.cpp:399] inception_4b/5x5 -> inception_4b/5x5
I0403 18:09:17.632872 21523 net.cpp:141] Setting up inception_4b/5x5
I0403 18:09:17.632899 21523 net.cpp:148] Top shape: 24 64 14 14 (301056)
I0403 18:09:17.632913 21523 net.cpp:156] Memory required for data: 966976800
I0403 18:09:17.632930 21523 layer_factory.hpp:77] Creating layer inception_4b/relu_5x5
I0403 18:09:17.632962 21523 net.cpp:91] Creating Layer inception_4b/relu_5x5
I0403 18:09:17.632978 21523 net.cpp:425] inception_4b/relu_5x5 <- inception_4b/5x5
I0403 18:09:17.632994 21523 net.cpp:386] inception_4b/relu_5x5 -> inception_4b/5x5 (in-place)
I0403 18:09:17.633265 21523 net.cpp:141] Setting up inception_4b/relu_5x5
I0403 18:09:17.633290 21523 net.cpp:148] Top shape: 24 64 14 14 (301056)
I0403 18:09:17.633303 21523 net.cpp:156] Memory required for data: 968181024
I0403 18:09:17.633317 21523 layer_factory.hpp:77] Creating layer inception_4b/pool
I0403 18:09:17.633333 21523 net.cpp:91] Creating Layer inception_4b/pool
I0403 18:09:17.633352 21523 net.cpp:425] inception_4b/pool <- inception_4a/output_inception_4a/output_0_split_4
I0403 18:09:17.633368 21523 net.cpp:399] inception_4b/pool -> inception_4b/pool
I0403 18:09:17.633429 21523 net.cpp:141] Setting up inception_4b/pool
I0403 18:09:17.633450 21523 net.cpp:148] Top shape: 24 512 14 14 (2408448)
I0403 18:09:17.633465 21523 net.cpp:156] Memory required for data: 977814816
I0403 18:09:17.633477 21523 layer_factory.hpp:77] Creating layer inception_4b/pool_proj
I0403 18:09:17.633498 21523 net.cpp:91] Creating Layer inception_4b/pool_proj
I0403 18:09:17.633519 21523 net.cpp:425] inception_4b/pool_proj <- inception_4b/pool
I0403 18:09:17.633539 21523 net.cpp:399] inception_4b/pool_proj -> inception_4b/pool_proj
I0403 18:09:17.634680 21523 net.cpp:141] Setting up inception_4b/pool_proj
I0403 18:09:17.634706 21523 net.cpp:148] Top shape: 24 64 14 14 (301056)
I0403 18:09:17.634721 21523 net.cpp:156] Memory required for data: 979019040
I0403 18:09:17.634737 21523 layer_factory.hpp:77] Creating layer inception_4b/relu_pool_proj
I0403 18:09:17.634757 21523 net.cpp:91] Creating Layer inception_4b/relu_pool_proj
I0403 18:09:17.634773 21523 net.cpp:425] inception_4b/relu_pool_proj <- inception_4b/pool_proj
I0403 18:09:17.634789 21523 net.cpp:386] inception_4b/relu_pool_proj -> inception_4b/pool_proj (in-place)
I0403 18:09:17.634961 21523 net.cpp:141] Setting up inception_4b/relu_pool_proj
I0403 18:09:17.634984 21523 net.cpp:148] Top shape: 24 64 14 14 (301056)
I0403 18:09:17.634999 21523 net.cpp:156] Memory required for data: 980223264
I0403 18:09:17.635011 21523 layer_factory.hpp:77] Creating layer inception_4b/output
I0403 18:09:17.635028 21523 net.cpp:91] Creating Layer inception_4b/output
I0403 18:09:17.635043 21523 net.cpp:425] inception_4b/output <- inception_4b/1x1
I0403 18:09:17.635058 21523 net.cpp:425] inception_4b/output <- inception_4b/3x3
I0403 18:09:17.635073 21523 net.cpp:425] inception_4b/output <- inception_4b/5x5
I0403 18:09:17.635089 21523 net.cpp:425] inception_4b/output <- inception_4b/pool_proj
I0403 18:09:17.635104 21523 net.cpp:399] inception_4b/output -> inception_4b/output
I0403 18:09:17.635149 21523 net.cpp:141] Setting up inception_4b/output
I0403 18:09:17.635170 21523 net.cpp:148] Top shape: 24 512 14 14 (2408448)
I0403 18:09:17.635184 21523 net.cpp:156] Memory required for data: 989857056
I0403 18:09:17.635210 21523 layer_factory.hpp:77] Creating layer inception_4b/output_inception_4b/output_0_split
I0403 18:09:17.635226 21523 net.cpp:91] Creating Layer inception_4b/output_inception_4b/output_0_split
I0403 18:09:17.635241 21523 net.cpp:425] inception_4b/output_inception_4b/output_0_split <- inception_4b/output
I0403 18:09:17.635259 21523 net.cpp:399] inception_4b/output_inception_4b/output_0_split -> inception_4b/output_inception_4b/output_0_split_0
I0403 18:09:17.635278 21523 net.cpp:399] inception_4b/output_inception_4b/output_0_split -> inception_4b/output_inception_4b/output_0_split_1
I0403 18:09:17.635298 21523 net.cpp:399] inception_4b/output_inception_4b/output_0_split -> inception_4b/output_inception_4b/output_0_split_2
I0403 18:09:17.635318 21523 net.cpp:399] inception_4b/output_inception_4b/output_0_split -> inception_4b/output_inception_4b/output_0_split_3
I0403 18:09:17.635401 21523 net.cpp:141] Setting up inception_4b/output_inception_4b/output_0_split
I0403 18:09:17.635421 21523 net.cpp:148] Top shape: 24 512 14 14 (2408448)
I0403 18:09:17.635437 21523 net.cpp:148] Top shape: 24 512 14 14 (2408448)
I0403 18:09:17.635450 21523 net.cpp:148] Top shape: 24 512 14 14 (2408448)
I0403 18:09:17.635463 21523 net.cpp:148] Top shape: 24 512 14 14 (2408448)
I0403 18:09:17.635475 21523 net.cpp:156] Memory required for data: 1028392224
I0403 18:09:17.635489 21523 layer_factory.hpp:77] Creating layer inception_4c/1x1
I0403 18:09:17.635515 21523 net.cpp:91] Creating Layer inception_4c/1x1
I0403 18:09:17.635538 21523 net.cpp:425] inception_4c/1x1 <- inception_4b/output_inception_4b/output_0_split_0
I0403 18:09:17.635571 21523 net.cpp:399] inception_4c/1x1 -> inception_4c/1x1
I0403 18:09:17.636935 21523 net.cpp:141] Setting up inception_4c/1x1
I0403 18:09:17.636965 21523 net.cpp:148] Top shape: 24 128 14 14 (602112)
I0403 18:09:17.636979 21523 net.cpp:156] Memory required for data: 1030800672
I0403 18:09:17.636996 21523 layer_factory.hpp:77] Creating layer inception_4c/relu_1x1
I0403 18:09:17.637013 21523 net.cpp:91] Creating Layer inception_4c/relu_1x1
I0403 18:09:17.637027 21523 net.cpp:425] inception_4c/relu_1x1 <- inception_4c/1x1
I0403 18:09:17.637045 21523 net.cpp:386] inception_4c/relu_1x1 -> inception_4c/1x1 (in-place)
I0403 18:09:17.637214 21523 net.cpp:141] Setting up inception_4c/relu_1x1
I0403 18:09:17.637238 21523 net.cpp:148] Top shape: 24 128 14 14 (602112)
I0403 18:09:17.637251 21523 net.cpp:156] Memory required for data: 1033209120
I0403 18:09:17.637266 21523 layer_factory.hpp:77] Creating layer inception_4c/3x3_reduce
I0403 18:09:17.637290 21523 net.cpp:91] Creating Layer inception_4c/3x3_reduce
I0403 18:09:17.637307 21523 net.cpp:425] inception_4c/3x3_reduce <- inception_4b/output_inception_4b/output_0_split_1
I0403 18:09:17.637327 21523 net.cpp:399] inception_4c/3x3_reduce -> inception_4c/3x3_reduce
I0403 18:09:17.639163 21523 net.cpp:141] Setting up inception_4c/3x3_reduce
I0403 18:09:17.639190 21523 net.cpp:148] Top shape: 24 128 14 14 (602112)
I0403 18:09:17.639204 21523 net.cpp:156] Memory required for data: 1035617568
I0403 18:09:17.639222 21523 layer_factory.hpp:77] Creating layer inception_4c/relu_3x3_reduce
I0403 18:09:17.639238 21523 net.cpp:91] Creating Layer inception_4c/relu_3x3_reduce
I0403 18:09:17.639253 21523 net.cpp:425] inception_4c/relu_3x3_reduce <- inception_4c/3x3_reduce
I0403 18:09:17.639271 21523 net.cpp:386] inception_4c/relu_3x3_reduce -> inception_4c/3x3_reduce (in-place)
I0403 18:09:17.639547 21523 net.cpp:141] Setting up inception_4c/relu_3x3_reduce
I0403 18:09:17.639572 21523 net.cpp:148] Top shape: 24 128 14 14 (602112)
I0403 18:09:17.639586 21523 net.cpp:156] Memory required for data: 1038026016
I0403 18:09:17.639600 21523 layer_factory.hpp:77] Creating layer inception_4c/3x3
I0403 18:09:17.639622 21523 net.cpp:91] Creating Layer inception_4c/3x3
I0403 18:09:17.639639 21523 net.cpp:425] inception_4c/3x3 <- inception_4c/3x3_reduce
I0403 18:09:17.639659 21523 net.cpp:399] inception_4c/3x3 -> inception_4c/3x3
I0403 18:09:17.643071 21523 net.cpp:141] Setting up inception_4c/3x3
I0403 18:09:17.643110 21523 net.cpp:148] Top shape: 24 256 14 14 (1204224)
I0403 18:09:17.643124 21523 net.cpp:156] Memory required for data: 1042842912
I0403 18:09:17.643154 21523 layer_factory.hpp:77] Creating layer inception_4c/relu_3x3
I0403 18:09:17.643175 21523 net.cpp:91] Creating Layer inception_4c/relu_3x3
I0403 18:09:17.643193 21523 net.cpp:425] inception_4c/relu_3x3 <- inception_4c/3x3
I0403 18:09:17.643209 21523 net.cpp:386] inception_4c/relu_3x3 -> inception_4c/3x3 (in-place)
I0403 18:09:17.643380 21523 net.cpp:141] Setting up inception_4c/relu_3x3
I0403 18:09:17.643404 21523 net.cpp:148] Top shape: 24 256 14 14 (1204224)
I0403 18:09:17.643417 21523 net.cpp:156] Memory required for data: 1047659808
I0403 18:09:17.643430 21523 layer_factory.hpp:77] Creating layer inception_4c/5x5_reduce
I0403 18:09:17.643451 21523 net.cpp:91] Creating Layer inception_4c/5x5_reduce
I0403 18:09:17.643468 21523 net.cpp:425] inception_4c/5x5_reduce <- inception_4b/output_inception_4b/output_0_split_2
I0403 18:09:17.643489 21523 net.cpp:399] inception_4c/5x5_reduce -> inception_4c/5x5_reduce
I0403 18:09:17.644527 21523 net.cpp:141] Setting up inception_4c/5x5_reduce
I0403 18:09:17.644553 21523 net.cpp:148] Top shape: 24 24 14 14 (112896)
I0403 18:09:17.644568 21523 net.cpp:156] Memory required for data: 1048111392
I0403 18:09:17.644585 21523 layer_factory.hpp:77] Creating layer inception_4c/relu_5x5_reduce
I0403 18:09:17.644604 21523 net.cpp:91] Creating Layer inception_4c/relu_5x5_reduce
I0403 18:09:17.644620 21523 net.cpp:425] inception_4c/relu_5x5_reduce <- inception_4c/5x5_reduce
I0403 18:09:17.644636 21523 net.cpp:386] inception_4c/relu_5x5_reduce -> inception_4c/5x5_reduce (in-place)
I0403 18:09:17.644809 21523 net.cpp:141] Setting up inception_4c/relu_5x5_reduce
I0403 18:09:17.644834 21523 net.cpp:148] Top shape: 24 24 14 14 (112896)
I0403 18:09:17.644848 21523 net.cpp:156] Memory required for data: 1048562976
I0403 18:09:17.644861 21523 layer_factory.hpp:77] Creating layer inception_4c/5x5
I0403 18:09:17.644881 21523 net.cpp:91] Creating Layer inception_4c/5x5
I0403 18:09:17.644896 21523 net.cpp:425] inception_4c/5x5 <- inception_4c/5x5_reduce
I0403 18:09:17.644918 21523 net.cpp:399] inception_4c/5x5 -> inception_4c/5x5
I0403 18:09:17.646093 21523 net.cpp:141] Setting up inception_4c/5x5
I0403 18:09:17.646119 21523 net.cpp:148] Top shape: 24 64 14 14 (301056)
I0403 18:09:17.646134 21523 net.cpp:156] Memory required for data: 1049767200
I0403 18:09:17.646152 21523 layer_factory.hpp:77] Creating layer inception_4c/relu_5x5
I0403 18:09:17.646169 21523 net.cpp:91] Creating Layer inception_4c/relu_5x5
I0403 18:09:17.646185 21523 net.cpp:425] inception_4c/relu_5x5 <- inception_4c/5x5
I0403 18:09:17.646201 21523 net.cpp:386] inception_4c/relu_5x5 -> inception_4c/5x5 (in-place)
I0403 18:09:17.646472 21523 net.cpp:141] Setting up inception_4c/relu_5x5
I0403 18:09:17.646497 21523 net.cpp:148] Top shape: 24 64 14 14 (301056)
I0403 18:09:17.646517 21523 net.cpp:156] Memory required for data: 1050971424
I0403 18:09:17.646531 21523 layer_factory.hpp:77] Creating layer inception_4c/pool
I0403 18:09:17.646550 21523 net.cpp:91] Creating Layer inception_4c/pool
I0403 18:09:17.646566 21523 net.cpp:425] inception_4c/pool <- inception_4b/output_inception_4b/output_0_split_3
I0403 18:09:17.646584 21523 net.cpp:399] inception_4c/pool -> inception_4c/pool
I0403 18:09:17.646646 21523 net.cpp:141] Setting up inception_4c/pool
I0403 18:09:17.646668 21523 net.cpp:148] Top shape: 24 512 14 14 (2408448)
I0403 18:09:17.646682 21523 net.cpp:156] Memory required for data: 1060605216
I0403 18:09:17.646695 21523 layer_factory.hpp:77] Creating layer inception_4c/pool_proj
I0403 18:09:17.646716 21523 net.cpp:91] Creating Layer inception_4c/pool_proj
I0403 18:09:17.646733 21523 net.cpp:425] inception_4c/pool_proj <- inception_4c/pool
I0403 18:09:17.646752 21523 net.cpp:399] inception_4c/pool_proj -> inception_4c/pool_proj
I0403 18:09:17.647910 21523 net.cpp:141] Setting up inception_4c/pool_proj
I0403 18:09:17.647936 21523 net.cpp:148] Top shape: 24 64 14 14 (301056)
I0403 18:09:17.647964 21523 net.cpp:156] Memory required for data: 1061809440
I0403 18:09:17.647982 21523 layer_factory.hpp:77] Creating layer inception_4c/relu_pool_proj
I0403 18:09:17.648001 21523 net.cpp:91] Creating Layer inception_4c/relu_pool_proj
I0403 18:09:17.648017 21523 net.cpp:425] inception_4c/relu_pool_proj <- inception_4c/pool_proj
I0403 18:09:17.648033 21523 net.cpp:386] inception_4c/relu_pool_proj -> inception_4c/pool_proj (in-place)
I0403 18:09:17.648207 21523 net.cpp:141] Setting up inception_4c/relu_pool_proj
I0403 18:09:17.648231 21523 net.cpp:148] Top shape: 24 64 14 14 (301056)
I0403 18:09:17.648246 21523 net.cpp:156] Memory required for data: 1063013664
I0403 18:09:17.648262 21523 layer_factory.hpp:77] Creating layer inception_4c/output
I0403 18:09:17.648282 21523 net.cpp:91] Creating Layer inception_4c/output
I0403 18:09:17.648298 21523 net.cpp:425] inception_4c/output <- inception_4c/1x1
I0403 18:09:17.648313 21523 net.cpp:425] inception_4c/output <- inception_4c/3x3
I0403 18:09:17.648327 21523 net.cpp:425] inception_4c/output <- inception_4c/5x5
I0403 18:09:17.648342 21523 net.cpp:425] inception_4c/output <- inception_4c/pool_proj
I0403 18:09:17.648357 21523 net.cpp:399] inception_4c/output -> inception_4c/output
I0403 18:09:17.648406 21523 net.cpp:141] Setting up inception_4c/output
I0403 18:09:17.648427 21523 net.cpp:148] Top shape: 24 512 14 14 (2408448)
I0403 18:09:17.648442 21523 net.cpp:156] Memory required for data: 1072647456
I0403 18:09:17.648454 21523 layer_factory.hpp:77] Creating layer inception_4c/output_inception_4c/output_0_split
I0403 18:09:17.648470 21523 net.cpp:91] Creating Layer inception_4c/output_inception_4c/output_0_split
I0403 18:09:17.648483 21523 net.cpp:425] inception_4c/output_inception_4c/output_0_split <- inception_4c/output
I0403 18:09:17.648501 21523 net.cpp:399] inception_4c/output_inception_4c/output_0_split -> inception_4c/output_inception_4c/output_0_split_0
I0403 18:09:17.648525 21523 net.cpp:399] inception_4c/output_inception_4c/output_0_split -> inception_4c/output_inception_4c/output_0_split_1
I0403 18:09:17.648545 21523 net.cpp:399] inception_4c/output_inception_4c/output_0_split -> inception_4c/output_inception_4c/output_0_split_2
I0403 18:09:17.648572 21523 net.cpp:399] inception_4c/output_inception_4c/output_0_split -> inception_4c/output_inception_4c/output_0_split_3
I0403 18:09:17.648658 21523 net.cpp:141] Setting up inception_4c/output_inception_4c/output_0_split
I0403 18:09:17.648682 21523 net.cpp:148] Top shape: 24 512 14 14 (2408448)
I0403 18:09:17.648697 21523 net.cpp:148] Top shape: 24 512 14 14 (2408448)
I0403 18:09:17.648712 21523 net.cpp:148] Top shape: 24 512 14 14 (2408448)
I0403 18:09:17.648726 21523 net.cpp:148] Top shape: 24 512 14 14 (2408448)
I0403 18:09:17.648739 21523 net.cpp:156] Memory required for data: 1111182624
I0403 18:09:17.648752 21523 layer_factory.hpp:77] Creating layer inception_4d/1x1
I0403 18:09:17.648772 21523 net.cpp:91] Creating Layer inception_4d/1x1
I0403 18:09:17.648789 21523 net.cpp:425] inception_4d/1x1 <- inception_4c/output_inception_4c/output_0_split_0
I0403 18:09:17.648808 21523 net.cpp:399] inception_4d/1x1 -> inception_4d/1x1
I0403 18:09:17.650113 21523 net.cpp:141] Setting up inception_4d/1x1
I0403 18:09:17.650141 21523 net.cpp:148] Top shape: 24 112 14 14 (526848)
I0403 18:09:17.650156 21523 net.cpp:156] Memory required for data: 1113290016
I0403 18:09:17.650173 21523 layer_factory.hpp:77] Creating layer inception_4d/relu_1x1
I0403 18:09:17.650189 21523 net.cpp:91] Creating Layer inception_4d/relu_1x1
I0403 18:09:17.650203 21523 net.cpp:425] inception_4d/relu_1x1 <- inception_4d/1x1
I0403 18:09:17.650221 21523 net.cpp:386] inception_4d/relu_1x1 -> inception_4d/1x1 (in-place)
I0403 18:09:17.650396 21523 net.cpp:141] Setting up inception_4d/relu_1x1
I0403 18:09:17.650420 21523 net.cpp:148] Top shape: 24 112 14 14 (526848)
I0403 18:09:17.650434 21523 net.cpp:156] Memory required for data: 1115397408
I0403 18:09:17.650446 21523 layer_factory.hpp:77] Creating layer inception_4d/3x3_reduce
I0403 18:09:17.650481 21523 net.cpp:91] Creating Layer inception_4d/3x3_reduce
I0403 18:09:17.650498 21523 net.cpp:425] inception_4d/3x3_reduce <- inception_4c/output_inception_4c/output_0_split_1
I0403 18:09:17.650527 21523 net.cpp:399] inception_4d/3x3_reduce -> inception_4d/3x3_reduce
I0403 18:09:17.651957 21523 net.cpp:141] Setting up inception_4d/3x3_reduce
I0403 18:09:17.651986 21523 net.cpp:148] Top shape: 24 144 14 14 (677376)
I0403 18:09:17.652001 21523 net.cpp:156] Memory required for data: 1118106912
I0403 18:09:17.652019 21523 layer_factory.hpp:77] Creating layer inception_4d/relu_3x3_reduce
I0403 18:09:17.652034 21523 net.cpp:91] Creating Layer inception_4d/relu_3x3_reduce
I0403 18:09:17.652050 21523 net.cpp:425] inception_4d/relu_3x3_reduce <- inception_4d/3x3_reduce
I0403 18:09:17.652065 21523 net.cpp:386] inception_4d/relu_3x3_reduce -> inception_4d/3x3_reduce (in-place)
I0403 18:09:17.652339 21523 net.cpp:141] Setting up inception_4d/relu_3x3_reduce
I0403 18:09:17.652369 21523 net.cpp:148] Top shape: 24 144 14 14 (677376)
I0403 18:09:17.652384 21523 net.cpp:156] Memory required for data: 1120816416
I0403 18:09:17.652397 21523 layer_factory.hpp:77] Creating layer inception_4d/3x3
I0403 18:09:17.652418 21523 net.cpp:91] Creating Layer inception_4d/3x3
I0403 18:09:17.652436 21523 net.cpp:425] inception_4d/3x3 <- inception_4d/3x3_reduce
I0403 18:09:17.652453 21523 net.cpp:399] inception_4d/3x3 -> inception_4d/3x3
I0403 18:09:17.656579 21523 net.cpp:141] Setting up inception_4d/3x3
I0403 18:09:17.656606 21523 net.cpp:148] Top shape: 24 288 14 14 (1354752)
I0403 18:09:17.656621 21523 net.cpp:156] Memory required for data: 1126235424
I0403 18:09:17.656638 21523 layer_factory.hpp:77] Creating layer inception_4d/relu_3x3
I0403 18:09:17.656654 21523 net.cpp:91] Creating Layer inception_4d/relu_3x3
I0403 18:09:17.656669 21523 net.cpp:425] inception_4d/relu_3x3 <- inception_4d/3x3
I0403 18:09:17.656688 21523 net.cpp:386] inception_4d/relu_3x3 -> inception_4d/3x3 (in-place)
I0403 18:09:17.656863 21523 net.cpp:141] Setting up inception_4d/relu_3x3
I0403 18:09:17.656888 21523 net.cpp:148] Top shape: 24 288 14 14 (1354752)
I0403 18:09:17.656900 21523 net.cpp:156] Memory required for data: 1131654432
I0403 18:09:17.656914 21523 layer_factory.hpp:77] Creating layer inception_4d/5x5_reduce
I0403 18:09:17.656934 21523 net.cpp:91] Creating Layer inception_4d/5x5_reduce
I0403 18:09:17.656950 21523 net.cpp:425] inception_4d/5x5_reduce <- inception_4c/output_inception_4c/output_0_split_2
I0403 18:09:17.656970 21523 net.cpp:399] inception_4d/5x5_reduce -> inception_4d/5x5_reduce
I0403 18:09:17.658056 21523 net.cpp:141] Setting up inception_4d/5x5_reduce
I0403 18:09:17.658085 21523 net.cpp:148] Top shape: 24 32 14 14 (150528)
I0403 18:09:17.658100 21523 net.cpp:156] Memory required for data: 1132256544
I0403 18:09:17.658118 21523 layer_factory.hpp:77] Creating layer inception_4d/relu_5x5_reduce
I0403 18:09:17.658133 21523 net.cpp:91] Creating Layer inception_4d/relu_5x5_reduce
I0403 18:09:17.658149 21523 net.cpp:425] inception_4d/relu_5x5_reduce <- inception_4d/5x5_reduce
I0403 18:09:17.658166 21523 net.cpp:386] inception_4d/relu_5x5_reduce -> inception_4d/5x5_reduce (in-place)
I0403 18:09:17.658342 21523 net.cpp:141] Setting up inception_4d/relu_5x5_reduce
I0403 18:09:17.658366 21523 net.cpp:148] Top shape: 24 32 14 14 (150528)
I0403 18:09:17.658380 21523 net.cpp:156] Memory required for data: 1132858656
I0403 18:09:17.658393 21523 layer_factory.hpp:77] Creating layer inception_4d/5x5
I0403 18:09:17.658414 21523 net.cpp:91] Creating Layer inception_4d/5x5
I0403 18:09:17.658430 21523 net.cpp:425] inception_4d/5x5 <- inception_4d/5x5_reduce
I0403 18:09:17.658450 21523 net.cpp:399] inception_4d/5x5 -> inception_4d/5x5
I0403 18:09:17.659847 21523 net.cpp:141] Setting up inception_4d/5x5
I0403 18:09:17.659873 21523 net.cpp:148] Top shape: 24 64 14 14 (301056)
I0403 18:09:17.659886 21523 net.cpp:156] Memory required for data: 1134062880
I0403 18:09:17.659904 21523 layer_factory.hpp:77] Creating layer inception_4d/relu_5x5
I0403 18:09:17.659935 21523 net.cpp:91] Creating Layer inception_4d/relu_5x5
I0403 18:09:17.659952 21523 net.cpp:425] inception_4d/relu_5x5 <- inception_4d/5x5
I0403 18:09:17.659968 21523 net.cpp:386] inception_4d/relu_5x5 -> inception_4d/5x5 (in-place)
I0403 18:09:17.660256 21523 net.cpp:141] Setting up inception_4d/relu_5x5
I0403 18:09:17.660280 21523 net.cpp:148] Top shape: 24 64 14 14 (301056)
I0403 18:09:17.660295 21523 net.cpp:156] Memory required for data: 1135267104
I0403 18:09:17.660308 21523 layer_factory.hpp:77] Creating layer inception_4d/pool
I0403 18:09:17.660326 21523 net.cpp:91] Creating Layer inception_4d/pool
I0403 18:09:17.660342 21523 net.cpp:425] inception_4d/pool <- inception_4c/output_inception_4c/output_0_split_3
I0403 18:09:17.660359 21523 net.cpp:399] inception_4d/pool -> inception_4d/pool
I0403 18:09:17.660424 21523 net.cpp:141] Setting up inception_4d/pool
I0403 18:09:17.660446 21523 net.cpp:148] Top shape: 24 512 14 14 (2408448)
I0403 18:09:17.660459 21523 net.cpp:156] Memory required for data: 1144900896
I0403 18:09:17.660473 21523 layer_factory.hpp:77] Creating layer inception_4d/pool_proj
I0403 18:09:17.660493 21523 net.cpp:91] Creating Layer inception_4d/pool_proj
I0403 18:09:17.660516 21523 net.cpp:425] inception_4d/pool_proj <- inception_4d/pool
I0403 18:09:17.660537 21523 net.cpp:399] inception_4d/pool_proj -> inception_4d/pool_proj
I0403 18:09:17.662220 21523 net.cpp:141] Setting up inception_4d/pool_proj
I0403 18:09:17.662247 21523 net.cpp:148] Top shape: 24 64 14 14 (301056)
I0403 18:09:17.662261 21523 net.cpp:156] Memory required for data: 1146105120
I0403 18:09:17.662278 21523 layer_factory.hpp:77] Creating layer inception_4d/relu_pool_proj
I0403 18:09:17.662294 21523 net.cpp:91] Creating Layer inception_4d/relu_pool_proj
I0403 18:09:17.662309 21523 net.cpp:425] inception_4d/relu_pool_proj <- inception_4d/pool_proj
I0403 18:09:17.662328 21523 net.cpp:386] inception_4d/relu_pool_proj -> inception_4d/pool_proj (in-place)
I0403 18:09:17.662503 21523 net.cpp:141] Setting up inception_4d/relu_pool_proj
I0403 18:09:17.662533 21523 net.cpp:148] Top shape: 24 64 14 14 (301056)
I0403 18:09:17.662546 21523 net.cpp:156] Memory required for data: 1147309344
I0403 18:09:17.662559 21523 layer_factory.hpp:77] Creating layer inception_4d/output
I0403 18:09:17.662577 21523 net.cpp:91] Creating Layer inception_4d/output
I0403 18:09:17.662593 21523 net.cpp:425] inception_4d/output <- inception_4d/1x1
I0403 18:09:17.662608 21523 net.cpp:425] inception_4d/output <- inception_4d/3x3
I0403 18:09:17.662622 21523 net.cpp:425] inception_4d/output <- inception_4d/5x5
I0403 18:09:17.662637 21523 net.cpp:425] inception_4d/output <- inception_4d/pool_proj
I0403 18:09:17.662652 21523 net.cpp:399] inception_4d/output -> inception_4d/output
I0403 18:09:17.662699 21523 net.cpp:141] Setting up inception_4d/output
I0403 18:09:17.662721 21523 net.cpp:148] Top shape: 24 528 14 14 (2483712)
I0403 18:09:17.662734 21523 net.cpp:156] Memory required for data: 1157244192
I0403 18:09:17.662749 21523 layer_factory.hpp:77] Creating layer inception_4d/output_inception_4d/output_0_split
I0403 18:09:17.662765 21523 net.cpp:91] Creating Layer inception_4d/output_inception_4d/output_0_split
I0403 18:09:17.662778 21523 net.cpp:425] inception_4d/output_inception_4d/output_0_split <- inception_4d/output
I0403 18:09:17.662801 21523 net.cpp:399] inception_4d/output_inception_4d/output_0_split -> inception_4d/output_inception_4d/output_0_split_0
I0403 18:09:17.662822 21523 net.cpp:399] inception_4d/output_inception_4d/output_0_split -> inception_4d/output_inception_4d/output_0_split_1
I0403 18:09:17.662842 21523 net.cpp:399] inception_4d/output_inception_4d/output_0_split -> inception_4d/output_inception_4d/output_0_split_2
I0403 18:09:17.662860 21523 net.cpp:399] inception_4d/output_inception_4d/output_0_split -> inception_4d/output_inception_4d/output_0_split_3
I0403 18:09:17.662879 21523 net.cpp:399] inception_4d/output_inception_4d/output_0_split -> inception_4d/output_inception_4d/output_0_split_4
I0403 18:09:17.662976 21523 net.cpp:141] Setting up inception_4d/output_inception_4d/output_0_split
I0403 18:09:17.663009 21523 net.cpp:148] Top shape: 24 528 14 14 (2483712)
I0403 18:09:17.663028 21523 net.cpp:148] Top shape: 24 528 14 14 (2483712)
I0403 18:09:17.663043 21523 net.cpp:148] Top shape: 24 528 14 14 (2483712)
I0403 18:09:17.663058 21523 net.cpp:148] Top shape: 24 528 14 14 (2483712)
I0403 18:09:17.663071 21523 net.cpp:148] Top shape: 24 528 14 14 (2483712)
I0403 18:09:17.663084 21523 net.cpp:156] Memory required for data: 1206918432
I0403 18:09:17.663096 21523 layer_factory.hpp:77] Creating layer loss2/ave_pool
I0403 18:09:17.663113 21523 net.cpp:91] Creating Layer loss2/ave_pool
I0403 18:09:17.663128 21523 net.cpp:425] loss2/ave_pool <- inception_4d/output_inception_4d/output_0_split_0
I0403 18:09:17.663147 21523 net.cpp:399] loss2/ave_pool -> loss2/ave_pool
I0403 18:09:17.663447 21523 net.cpp:141] Setting up loss2/ave_pool
I0403 18:09:17.663471 21523 net.cpp:148] Top shape: 24 528 4 4 (202752)
I0403 18:09:17.663486 21523 net.cpp:156] Memory required for data: 1207729440
I0403 18:09:17.663499 21523 layer_factory.hpp:77] Creating layer loss2/conv
I0403 18:09:17.663527 21523 net.cpp:91] Creating Layer loss2/conv
I0403 18:09:17.663544 21523 net.cpp:425] loss2/conv <- loss2/ave_pool
I0403 18:09:17.663563 21523 net.cpp:399] loss2/conv -> loss2/conv
I0403 18:09:17.665379 21523 net.cpp:141] Setting up loss2/conv
I0403 18:09:17.665405 21523 net.cpp:148] Top shape: 24 128 4 4 (49152)
I0403 18:09:17.665419 21523 net.cpp:156] Memory required for data: 1207926048
I0403 18:09:17.665436 21523 layer_factory.hpp:77] Creating layer loss2/relu_conv
I0403 18:09:17.665454 21523 net.cpp:91] Creating Layer loss2/relu_conv
I0403 18:09:17.665470 21523 net.cpp:425] loss2/relu_conv <- loss2/conv
I0403 18:09:17.665485 21523 net.cpp:386] loss2/relu_conv -> loss2/conv (in-place)
I0403 18:09:17.665768 21523 net.cpp:141] Setting up loss2/relu_conv
I0403 18:09:17.665793 21523 net.cpp:148] Top shape: 24 128 4 4 (49152)
I0403 18:09:17.665807 21523 net.cpp:156] Memory required for data: 1208122656
I0403 18:09:17.665822 21523 layer_factory.hpp:77] Creating layer loss2/fc
I0403 18:09:17.665841 21523 net.cpp:91] Creating Layer loss2/fc
I0403 18:09:17.665858 21523 net.cpp:425] loss2/fc <- loss2/conv
I0403 18:09:17.665874 21523 net.cpp:399] loss2/fc -> loss2/fc
I0403 18:09:17.682768 21523 net.cpp:141] Setting up loss2/fc
I0403 18:09:17.682801 21523 net.cpp:148] Top shape: 24 1024 (24576)
I0403 18:09:17.682816 21523 net.cpp:156] Memory required for data: 1208220960
I0403 18:09:17.682832 21523 layer_factory.hpp:77] Creating layer loss2/relu_fc
I0403 18:09:17.682850 21523 net.cpp:91] Creating Layer loss2/relu_fc
I0403 18:09:17.682865 21523 net.cpp:425] loss2/relu_fc <- loss2/fc
I0403 18:09:17.682883 21523 net.cpp:386] loss2/relu_fc -> loss2/fc (in-place)
I0403 18:09:17.683166 21523 net.cpp:141] Setting up loss2/relu_fc
I0403 18:09:17.683190 21523 net.cpp:148] Top shape: 24 1024 (24576)
I0403 18:09:17.683205 21523 net.cpp:156] Memory required for data: 1208319264
I0403 18:09:17.683218 21523 layer_factory.hpp:77] Creating layer loss2/drop_fc
I0403 18:09:17.683234 21523 net.cpp:91] Creating Layer loss2/drop_fc
I0403 18:09:17.683249 21523 net.cpp:425] loss2/drop_fc <- loss2/fc
I0403 18:09:17.683267 21523 net.cpp:386] loss2/drop_fc -> loss2/fc (in-place)
I0403 18:09:17.683315 21523 net.cpp:141] Setting up loss2/drop_fc
I0403 18:09:17.683338 21523 net.cpp:148] Top shape: 24 1024 (24576)
I0403 18:09:17.683353 21523 net.cpp:156] Memory required for data: 1208417568
I0403 18:09:17.683367 21523 layer_factory.hpp:77] Creating layer loss2/classifier_plantvillage
I0403 18:09:17.683384 21523 net.cpp:91] Creating Layer loss2/classifier_plantvillage
I0403 18:09:17.683398 21523 net.cpp:425] loss2/classifier_plantvillage <- loss2/fc
I0403 18:09:17.683418 21523 net.cpp:399] loss2/classifier_plantvillage -> loss2/classifier_plantvillage
I0403 18:09:17.683822 21523 net.cpp:141] Setting up loss2/classifier_plantvillage
I0403 18:09:17.683861 21523 net.cpp:148] Top shape: 24 38 (912)
I0403 18:09:17.683890 21523 net.cpp:156] Memory required for data: 1208421216
I0403 18:09:17.683908 21523 layer_factory.hpp:77] Creating layer loss2/classifier_plantvillage_loss2/classifier_plantvillage_0_split
I0403 18:09:17.683924 21523 net.cpp:91] Creating Layer loss2/classifier_plantvillage_loss2/classifier_plantvillage_0_split
I0403 18:09:17.683940 21523 net.cpp:425] loss2/classifier_plantvillage_loss2/classifier_plantvillage_0_split <- loss2/classifier_plantvillage
I0403 18:09:17.683956 21523 net.cpp:399] loss2/classifier_plantvillage_loss2/classifier_plantvillage_0_split -> loss2/classifier_plantvillage_loss2/classifier_plantvillage_0_split_0
I0403 18:09:17.683975 21523 net.cpp:399] loss2/classifier_plantvillage_loss2/classifier_plantvillage_0_split -> loss2/classifier_plantvillage_loss2/classifier_plantvillage_0_split_1
I0403 18:09:17.683996 21523 net.cpp:399] loss2/classifier_plantvillage_loss2/classifier_plantvillage_0_split -> loss2/classifier_plantvillage_loss2/classifier_plantvillage_0_split_2
I0403 18:09:17.684070 21523 net.cpp:141] Setting up loss2/classifier_plantvillage_loss2/classifier_plantvillage_0_split
I0403 18:09:17.684092 21523 net.cpp:148] Top shape: 24 38 (912)
I0403 18:09:17.684106 21523 net.cpp:148] Top shape: 24 38 (912)
I0403 18:09:17.684120 21523 net.cpp:148] Top shape: 24 38 (912)
I0403 18:09:17.684134 21523 net.cpp:156] Memory required for data: 1208432160
I0403 18:09:17.684146 21523 layer_factory.hpp:77] Creating layer inception_4e/1x1
I0403 18:09:17.684165 21523 net.cpp:91] Creating Layer inception_4e/1x1
I0403 18:09:17.684180 21523 net.cpp:425] inception_4e/1x1 <- inception_4d/output_inception_4d/output_0_split_1
I0403 18:09:17.684203 21523 net.cpp:399] inception_4e/1x1 -> inception_4e/1x1
I0403 18:09:17.685932 21523 net.cpp:141] Setting up inception_4e/1x1
I0403 18:09:17.685959 21523 net.cpp:148] Top shape: 24 256 14 14 (1204224)
I0403 18:09:17.685973 21523 net.cpp:156] Memory required for data: 1213249056
I0403 18:09:17.685991 21523 layer_factory.hpp:77] Creating layer inception_4e/relu_1x1
I0403 18:09:17.686012 21523 net.cpp:91] Creating Layer inception_4e/relu_1x1
I0403 18:09:17.686028 21523 net.cpp:425] inception_4e/relu_1x1 <- inception_4e/1x1
I0403 18:09:17.686043 21523 net.cpp:386] inception_4e/relu_1x1 -> inception_4e/1x1 (in-place)
I0403 18:09:17.686323 21523 net.cpp:141] Setting up inception_4e/relu_1x1
I0403 18:09:17.686348 21523 net.cpp:148] Top shape: 24 256 14 14 (1204224)
I0403 18:09:17.686362 21523 net.cpp:156] Memory required for data: 1218065952
I0403 18:09:17.686375 21523 layer_factory.hpp:77] Creating layer inception_4e/3x3_reduce
I0403 18:09:17.686398 21523 net.cpp:91] Creating Layer inception_4e/3x3_reduce
I0403 18:09:17.686415 21523 net.cpp:425] inception_4e/3x3_reduce <- inception_4d/output_inception_4d/output_0_split_2
I0403 18:09:17.686434 21523 net.cpp:399] inception_4e/3x3_reduce -> inception_4e/3x3_reduce
I0403 18:09:17.688455 21523 net.cpp:141] Setting up inception_4e/3x3_reduce
I0403 18:09:17.688482 21523 net.cpp:148] Top shape: 24 160 14 14 (752640)
I0403 18:09:17.688496 21523 net.cpp:156] Memory required for data: 1221076512
I0403 18:09:17.688519 21523 layer_factory.hpp:77] Creating layer inception_4e/relu_3x3_reduce
I0403 18:09:17.688540 21523 net.cpp:91] Creating Layer inception_4e/relu_3x3_reduce
I0403 18:09:17.688555 21523 net.cpp:425] inception_4e/relu_3x3_reduce <- inception_4e/3x3_reduce
I0403 18:09:17.688572 21523 net.cpp:386] inception_4e/relu_3x3_reduce -> inception_4e/3x3_reduce (in-place)
I0403 18:09:17.688748 21523 net.cpp:141] Setting up inception_4e/relu_3x3_reduce
I0403 18:09:17.688776 21523 net.cpp:148] Top shape: 24 160 14 14 (752640)
I0403 18:09:17.688791 21523 net.cpp:156] Memory required for data: 1224087072
I0403 18:09:17.688805 21523 layer_factory.hpp:77] Creating layer inception_4e/3x3
I0403 18:09:17.688825 21523 net.cpp:91] Creating Layer inception_4e/3x3
I0403 18:09:17.688843 21523 net.cpp:425] inception_4e/3x3 <- inception_4e/3x3_reduce
I0403 18:09:17.688859 21523 net.cpp:399] inception_4e/3x3 -> inception_4e/3x3
I0403 18:09:17.693636 21523 net.cpp:141] Setting up inception_4e/3x3
I0403 18:09:17.693677 21523 net.cpp:148] Top shape: 24 320 14 14 (1505280)
I0403 18:09:17.693693 21523 net.cpp:156] Memory required for data: 1230108192
I0403 18:09:17.693711 21523 layer_factory.hpp:77] Creating layer inception_4e/relu_3x3
I0403 18:09:17.693727 21523 net.cpp:91] Creating Layer inception_4e/relu_3x3
I0403 18:09:17.693742 21523 net.cpp:425] inception_4e/relu_3x3 <- inception_4e/3x3
I0403 18:09:17.693761 21523 net.cpp:386] inception_4e/relu_3x3 -> inception_4e/3x3 (in-place)
I0403 18:09:17.694052 21523 net.cpp:141] Setting up inception_4e/relu_3x3
I0403 18:09:17.694079 21523 net.cpp:148] Top shape: 24 320 14 14 (1505280)
I0403 18:09:17.694094 21523 net.cpp:156] Memory required for data: 1236129312
I0403 18:09:17.694108 21523 layer_factory.hpp:77] Creating layer inception_4e/5x5_reduce
I0403 18:09:17.694130 21523 net.cpp:91] Creating Layer inception_4e/5x5_reduce
I0403 18:09:17.694147 21523 net.cpp:425] inception_4e/5x5_reduce <- inception_4d/output_inception_4d/output_0_split_3
I0403 18:09:17.694167 21523 net.cpp:399] inception_4e/5x5_reduce -> inception_4e/5x5_reduce
I0403 18:09:17.695209 21523 net.cpp:141] Setting up inception_4e/5x5_reduce
I0403 18:09:17.695233 21523 net.cpp:148] Top shape: 24 32 14 14 (150528)
I0403 18:09:17.695248 21523 net.cpp:156] Memory required for data: 1236731424
I0403 18:09:17.695266 21523 layer_factory.hpp:77] Creating layer inception_4e/relu_5x5_reduce
I0403 18:09:17.695284 21523 net.cpp:91] Creating Layer inception_4e/relu_5x5_reduce
I0403 18:09:17.695300 21523 net.cpp:425] inception_4e/relu_5x5_reduce <- inception_4e/5x5_reduce
I0403 18:09:17.695317 21523 net.cpp:386] inception_4e/relu_5x5_reduce -> inception_4e/5x5_reduce (in-place)
I0403 18:09:17.695611 21523 net.cpp:141] Setting up inception_4e/relu_5x5_reduce
I0403 18:09:17.695636 21523 net.cpp:148] Top shape: 24 32 14 14 (150528)
I0403 18:09:17.695649 21523 net.cpp:156] Memory required for data: 1237333536
I0403 18:09:17.695663 21523 layer_factory.hpp:77] Creating layer inception_4e/5x5
I0403 18:09:17.695698 21523 net.cpp:91] Creating Layer inception_4e/5x5
I0403 18:09:17.695716 21523 net.cpp:425] inception_4e/5x5 <- inception_4e/5x5_reduce
I0403 18:09:17.695736 21523 net.cpp:399] inception_4e/5x5 -> inception_4e/5x5
I0403 18:09:17.697487 21523 net.cpp:141] Setting up inception_4e/5x5
I0403 18:09:17.697518 21523 net.cpp:148] Top shape: 24 128 14 14 (602112)
I0403 18:09:17.697535 21523 net.cpp:156] Memory required for data: 1239741984
I0403 18:09:17.697552 21523 layer_factory.hpp:77] Creating layer inception_4e/relu_5x5
I0403 18:09:17.697569 21523 net.cpp:91] Creating Layer inception_4e/relu_5x5
I0403 18:09:17.697584 21523 net.cpp:425] inception_4e/relu_5x5 <- inception_4e/5x5
I0403 18:09:17.697602 21523 net.cpp:386] inception_4e/relu_5x5 -> inception_4e/5x5 (in-place)
I0403 18:09:17.697791 21523 net.cpp:141] Setting up inception_4e/relu_5x5
I0403 18:09:17.697814 21523 net.cpp:148] Top shape: 24 128 14 14 (602112)
I0403 18:09:17.697829 21523 net.cpp:156] Memory required for data: 1242150432
I0403 18:09:17.697841 21523 layer_factory.hpp:77] Creating layer inception_4e/pool
I0403 18:09:17.697860 21523 net.cpp:91] Creating Layer inception_4e/pool
I0403 18:09:17.697875 21523 net.cpp:425] inception_4e/pool <- inception_4d/output_inception_4d/output_0_split_4
I0403 18:09:17.697893 21523 net.cpp:399] inception_4e/pool -> inception_4e/pool
I0403 18:09:17.697964 21523 net.cpp:141] Setting up inception_4e/pool
I0403 18:09:17.697988 21523 net.cpp:148] Top shape: 24 528 14 14 (2483712)
I0403 18:09:17.698001 21523 net.cpp:156] Memory required for data: 1252085280
I0403 18:09:17.698014 21523 layer_factory.hpp:77] Creating layer inception_4e/pool_proj
I0403 18:09:17.698035 21523 net.cpp:91] Creating Layer inception_4e/pool_proj
I0403 18:09:17.698050 21523 net.cpp:425] inception_4e/pool_proj <- inception_4e/pool
I0403 18:09:17.698071 21523 net.cpp:399] inception_4e/pool_proj -> inception_4e/pool_proj
I0403 18:09:17.699511 21523 net.cpp:141] Setting up inception_4e/pool_proj
I0403 18:09:17.699548 21523 net.cpp:148] Top shape: 24 128 14 14 (602112)
I0403 18:09:17.699569 21523 net.cpp:156] Memory required for data: 1254493728
I0403 18:09:17.699585 21523 layer_factory.hpp:77] Creating layer inception_4e/relu_pool_proj
I0403 18:09:17.699602 21523 net.cpp:91] Creating Layer inception_4e/relu_pool_proj
I0403 18:09:17.699616 21523 net.cpp:425] inception_4e/relu_pool_proj <- inception_4e/pool_proj
I0403 18:09:17.699635 21523 net.cpp:386] inception_4e/relu_pool_proj -> inception_4e/pool_proj (in-place)
I0403 18:09:17.699915 21523 net.cpp:141] Setting up inception_4e/relu_pool_proj
I0403 18:09:17.699940 21523 net.cpp:148] Top shape: 24 128 14 14 (602112)
I0403 18:09:17.699954 21523 net.cpp:156] Memory required for data: 1256902176
I0403 18:09:17.699968 21523 layer_factory.hpp:77] Creating layer inception_4e/output
I0403 18:09:17.699985 21523 net.cpp:91] Creating Layer inception_4e/output
I0403 18:09:17.699998 21523 net.cpp:425] inception_4e/output <- inception_4e/1x1
I0403 18:09:17.700013 21523 net.cpp:425] inception_4e/output <- inception_4e/3x3
I0403 18:09:17.700028 21523 net.cpp:425] inception_4e/output <- inception_4e/5x5
I0403 18:09:17.700042 21523 net.cpp:425] inception_4e/output <- inception_4e/pool_proj
I0403 18:09:17.700060 21523 net.cpp:399] inception_4e/output -> inception_4e/output
I0403 18:09:17.700108 21523 net.cpp:141] Setting up inception_4e/output
I0403 18:09:17.700131 21523 net.cpp:148] Top shape: 24 832 14 14 (3913728)
I0403 18:09:17.700146 21523 net.cpp:156] Memory required for data: 1272557088
I0403 18:09:17.700160 21523 layer_factory.hpp:77] Creating layer pool4/3x3_s2
I0403 18:09:17.700176 21523 net.cpp:91] Creating Layer pool4/3x3_s2
I0403 18:09:17.700191 21523 net.cpp:425] pool4/3x3_s2 <- inception_4e/output
I0403 18:09:17.700207 21523 net.cpp:399] pool4/3x3_s2 -> pool4/3x3_s2
I0403 18:09:17.700273 21523 net.cpp:141] Setting up pool4/3x3_s2
I0403 18:09:17.700295 21523 net.cpp:148] Top shape: 24 832 7 7 (978432)
I0403 18:09:17.700309 21523 net.cpp:156] Memory required for data: 1276470816
I0403 18:09:17.700322 21523 layer_factory.hpp:77] Creating layer pool4/3x3_s2_pool4/3x3_s2_0_split
I0403 18:09:17.700337 21523 net.cpp:91] Creating Layer pool4/3x3_s2_pool4/3x3_s2_0_split
I0403 18:09:17.700351 21523 net.cpp:425] pool4/3x3_s2_pool4/3x3_s2_0_split <- pool4/3x3_s2
I0403 18:09:17.700386 21523 net.cpp:399] pool4/3x3_s2_pool4/3x3_s2_0_split -> pool4/3x3_s2_pool4/3x3_s2_0_split_0
I0403 18:09:17.700405 21523 net.cpp:399] pool4/3x3_s2_pool4/3x3_s2_0_split -> pool4/3x3_s2_pool4/3x3_s2_0_split_1
I0403 18:09:17.700425 21523 net.cpp:399] pool4/3x3_s2_pool4/3x3_s2_0_split -> pool4/3x3_s2_pool4/3x3_s2_0_split_2
I0403 18:09:17.700446 21523 net.cpp:399] pool4/3x3_s2_pool4/3x3_s2_0_split -> pool4/3x3_s2_pool4/3x3_s2_0_split_3
I0403 18:09:17.700542 21523 net.cpp:141] Setting up pool4/3x3_s2_pool4/3x3_s2_0_split
I0403 18:09:17.700565 21523 net.cpp:148] Top shape: 24 832 7 7 (978432)
I0403 18:09:17.700582 21523 net.cpp:148] Top shape: 24 832 7 7 (978432)
I0403 18:09:17.700595 21523 net.cpp:148] Top shape: 24 832 7 7 (978432)
I0403 18:09:17.700609 21523 net.cpp:148] Top shape: 24 832 7 7 (978432)
I0403 18:09:17.700623 21523 net.cpp:156] Memory required for data: 1292125728
I0403 18:09:17.700644 21523 layer_factory.hpp:77] Creating layer inception_5a/1x1
I0403 18:09:17.700664 21523 net.cpp:91] Creating Layer inception_5a/1x1
I0403 18:09:17.700681 21523 net.cpp:425] inception_5a/1x1 <- pool4/3x3_s2_pool4/3x3_s2_0_split_0
I0403 18:09:17.700729 21523 net.cpp:399] inception_5a/1x1 -> inception_5a/1x1
I0403 18:09:17.703490 21523 net.cpp:141] Setting up inception_5a/1x1
I0403 18:09:17.703523 21523 net.cpp:148] Top shape: 24 256 7 7 (301056)
I0403 18:09:17.703538 21523 net.cpp:156] Memory required for data: 1293329952
I0403 18:09:17.703555 21523 layer_factory.hpp:77] Creating layer inception_5a/relu_1x1
I0403 18:09:17.703573 21523 net.cpp:91] Creating Layer inception_5a/relu_1x1
I0403 18:09:17.703590 21523 net.cpp:425] inception_5a/relu_1x1 <- inception_5a/1x1
I0403 18:09:17.703606 21523 net.cpp:386] inception_5a/relu_1x1 -> inception_5a/1x1 (in-place)
I0403 18:09:17.703902 21523 net.cpp:141] Setting up inception_5a/relu_1x1
I0403 18:09:17.703927 21523 net.cpp:148] Top shape: 24 256 7 7 (301056)
I0403 18:09:17.703940 21523 net.cpp:156] Memory required for data: 1294534176
I0403 18:09:17.703954 21523 layer_factory.hpp:77] Creating layer inception_5a/3x3_reduce
I0403 18:09:17.703975 21523 net.cpp:91] Creating Layer inception_5a/3x3_reduce
I0403 18:09:17.703992 21523 net.cpp:425] inception_5a/3x3_reduce <- pool4/3x3_s2_pool4/3x3_s2_0_split_1
I0403 18:09:17.704011 21523 net.cpp:399] inception_5a/3x3_reduce -> inception_5a/3x3_reduce
I0403 18:09:17.706538 21523 net.cpp:141] Setting up inception_5a/3x3_reduce
I0403 18:09:17.706568 21523 net.cpp:148] Top shape: 24 160 7 7 (188160)
I0403 18:09:17.706583 21523 net.cpp:156] Memory required for data: 1295286816
I0403 18:09:17.706600 21523 layer_factory.hpp:77] Creating layer inception_5a/relu_3x3_reduce
I0403 18:09:17.706617 21523 net.cpp:91] Creating Layer inception_5a/relu_3x3_reduce
I0403 18:09:17.706640 21523 net.cpp:425] inception_5a/relu_3x3_reduce <- inception_5a/3x3_reduce
I0403 18:09:17.706658 21523 net.cpp:386] inception_5a/relu_3x3_reduce -> inception_5a/3x3_reduce (in-place)
I0403 18:09:17.706840 21523 net.cpp:141] Setting up inception_5a/relu_3x3_reduce
I0403 18:09:17.706863 21523 net.cpp:148] Top shape: 24 160 7 7 (188160)
I0403 18:09:17.706877 21523 net.cpp:156] Memory required for data: 1296039456
I0403 18:09:17.706890 21523 layer_factory.hpp:77] Creating layer inception_5a/3x3
I0403 18:09:17.706912 21523 net.cpp:91] Creating Layer inception_5a/3x3
I0403 18:09:17.706929 21523 net.cpp:425] inception_5a/3x3 <- inception_5a/3x3_reduce
I0403 18:09:17.706948 21523 net.cpp:399] inception_5a/3x3 -> inception_5a/3x3
I0403 18:09:17.711786 21523 net.cpp:141] Setting up inception_5a/3x3
I0403 18:09:17.711813 21523 net.cpp:148] Top shape: 24 320 7 7 (376320)
I0403 18:09:17.711828 21523 net.cpp:156] Memory required for data: 1297544736
I0403 18:09:17.711845 21523 layer_factory.hpp:77] Creating layer inception_5a/relu_3x3
I0403 18:09:17.711864 21523 net.cpp:91] Creating Layer inception_5a/relu_3x3
I0403 18:09:17.711880 21523 net.cpp:425] inception_5a/relu_3x3 <- inception_5a/3x3
I0403 18:09:17.711896 21523 net.cpp:386] inception_5a/relu_3x3 -> inception_5a/3x3 (in-place)
I0403 18:09:17.712177 21523 net.cpp:141] Setting up inception_5a/relu_3x3
I0403 18:09:17.712203 21523 net.cpp:148] Top shape: 24 320 7 7 (376320)
I0403 18:09:17.712216 21523 net.cpp:156] Memory required for data: 1299050016
I0403 18:09:17.712230 21523 layer_factory.hpp:77] Creating layer inception_5a/5x5_reduce
I0403 18:09:17.712250 21523 net.cpp:91] Creating Layer inception_5a/5x5_reduce
I0403 18:09:17.712267 21523 net.cpp:425] inception_5a/5x5_reduce <- pool4/3x3_s2_pool4/3x3_s2_0_split_2
I0403 18:09:17.712287 21523 net.cpp:399] inception_5a/5x5_reduce -> inception_5a/5x5_reduce
I0403 18:09:17.713402 21523 net.cpp:141] Setting up inception_5a/5x5_reduce
I0403 18:09:17.713431 21523 net.cpp:148] Top shape: 24 32 7 7 (37632)
I0403 18:09:17.713446 21523 net.cpp:156] Memory required for data: 1299200544
I0403 18:09:17.713464 21523 layer_factory.hpp:77] Creating layer inception_5a/relu_5x5_reduce
I0403 18:09:17.713480 21523 net.cpp:91] Creating Layer inception_5a/relu_5x5_reduce
I0403 18:09:17.713495 21523 net.cpp:425] inception_5a/relu_5x5_reduce <- inception_5a/5x5_reduce
I0403 18:09:17.713516 21523 net.cpp:386] inception_5a/relu_5x5_reduce -> inception_5a/5x5_reduce (in-place)
I0403 18:09:17.713804 21523 net.cpp:141] Setting up inception_5a/relu_5x5_reduce
I0403 18:09:17.713829 21523 net.cpp:148] Top shape: 24 32 7 7 (37632)
I0403 18:09:17.713842 21523 net.cpp:156] Memory required for data: 1299351072
I0403 18:09:17.713856 21523 layer_factory.hpp:77] Creating layer inception_5a/5x5
I0403 18:09:17.713876 21523 net.cpp:91] Creating Layer inception_5a/5x5
I0403 18:09:17.713893 21523 net.cpp:425] inception_5a/5x5 <- inception_5a/5x5_reduce
I0403 18:09:17.713913 21523 net.cpp:399] inception_5a/5x5 -> inception_5a/5x5
I0403 18:09:17.715566 21523 net.cpp:141] Setting up inception_5a/5x5
I0403 18:09:17.715603 21523 net.cpp:148] Top shape: 24 128 7 7 (150528)
I0403 18:09:17.715618 21523 net.cpp:156] Memory required for data: 1299953184
I0403 18:09:17.715636 21523 layer_factory.hpp:77] Creating layer inception_5a/relu_5x5
I0403 18:09:17.715654 21523 net.cpp:91] Creating Layer inception_5a/relu_5x5
I0403 18:09:17.715670 21523 net.cpp:425] inception_5a/relu_5x5 <- inception_5a/5x5
I0403 18:09:17.715687 21523 net.cpp:386] inception_5a/relu_5x5 -> inception_5a/5x5 (in-place)
I0403 18:09:17.715870 21523 net.cpp:141] Setting up inception_5a/relu_5x5
I0403 18:09:17.715893 21523 net.cpp:148] Top shape: 24 128 7 7 (150528)
I0403 18:09:17.715910 21523 net.cpp:156] Memory required for data: 1300555296
I0403 18:09:17.715924 21523 layer_factory.hpp:77] Creating layer inception_5a/pool
I0403 18:09:17.715939 21523 net.cpp:91] Creating Layer inception_5a/pool
I0403 18:09:17.715955 21523 net.cpp:425] inception_5a/pool <- pool4/3x3_s2_pool4/3x3_s2_0_split_3
I0403 18:09:17.715971 21523 net.cpp:399] inception_5a/pool -> inception_5a/pool
I0403 18:09:17.716038 21523 net.cpp:141] Setting up inception_5a/pool
I0403 18:09:17.716061 21523 net.cpp:148] Top shape: 24 832 7 7 (978432)
I0403 18:09:17.716074 21523 net.cpp:156] Memory required for data: 1304469024
I0403 18:09:17.716089 21523 layer_factory.hpp:77] Creating layer inception_5a/pool_proj
I0403 18:09:17.716109 21523 net.cpp:91] Creating Layer inception_5a/pool_proj
I0403 18:09:17.716125 21523 net.cpp:425] inception_5a/pool_proj <- inception_5a/pool
I0403 18:09:17.716145 21523 net.cpp:399] inception_5a/pool_proj -> inception_5a/pool_proj
I0403 18:09:17.718328 21523 net.cpp:141] Setting up inception_5a/pool_proj
I0403 18:09:17.718355 21523 net.cpp:148] Top shape: 24 128 7 7 (150528)
I0403 18:09:17.718370 21523 net.cpp:156] Memory required for data: 1305071136
I0403 18:09:17.718387 21523 layer_factory.hpp:77] Creating layer inception_5a/relu_pool_proj
I0403 18:09:17.718403 21523 net.cpp:91] Creating Layer inception_5a/relu_pool_proj
I0403 18:09:17.718422 21523 net.cpp:425] inception_5a/relu_pool_proj <- inception_5a/pool_proj
I0403 18:09:17.718438 21523 net.cpp:386] inception_5a/relu_pool_proj -> inception_5a/pool_proj (in-place)
I0403 18:09:17.718724 21523 net.cpp:141] Setting up inception_5a/relu_pool_proj
I0403 18:09:17.718750 21523 net.cpp:148] Top shape: 24 128 7 7 (150528)
I0403 18:09:17.718763 21523 net.cpp:156] Memory required for data: 1305673248
I0403 18:09:17.718776 21523 layer_factory.hpp:77] Creating layer inception_5a/output
I0403 18:09:17.718793 21523 net.cpp:91] Creating Layer inception_5a/output
I0403 18:09:17.718807 21523 net.cpp:425] inception_5a/output <- inception_5a/1x1
I0403 18:09:17.718823 21523 net.cpp:425] inception_5a/output <- inception_5a/3x3
I0403 18:09:17.718838 21523 net.cpp:425] inception_5a/output <- inception_5a/5x5
I0403 18:09:17.718852 21523 net.cpp:425] inception_5a/output <- inception_5a/pool_proj
I0403 18:09:17.718871 21523 net.cpp:399] inception_5a/output -> inception_5a/output
I0403 18:09:17.718917 21523 net.cpp:141] Setting up inception_5a/output
I0403 18:09:17.718941 21523 net.cpp:148] Top shape: 24 832 7 7 (978432)
I0403 18:09:17.718955 21523 net.cpp:156] Memory required for data: 1309586976
I0403 18:09:17.718969 21523 layer_factory.hpp:77] Creating layer inception_5a/output_inception_5a/output_0_split
I0403 18:09:17.718984 21523 net.cpp:91] Creating Layer inception_5a/output_inception_5a/output_0_split
I0403 18:09:17.718999 21523 net.cpp:425] inception_5a/output_inception_5a/output_0_split <- inception_5a/output
I0403 18:09:17.719015 21523 net.cpp:399] inception_5a/output_inception_5a/output_0_split -> inception_5a/output_inception_5a/output_0_split_0
I0403 18:09:17.719039 21523 net.cpp:399] inception_5a/output_inception_5a/output_0_split -> inception_5a/output_inception_5a/output_0_split_1
I0403 18:09:17.719058 21523 net.cpp:399] inception_5a/output_inception_5a/output_0_split -> inception_5a/output_inception_5a/output_0_split_2
I0403 18:09:17.719077 21523 net.cpp:399] inception_5a/output_inception_5a/output_0_split -> inception_5a/output_inception_5a/output_0_split_3
I0403 18:09:17.719184 21523 net.cpp:141] Setting up inception_5a/output_inception_5a/output_0_split
I0403 18:09:17.719207 21523 net.cpp:148] Top shape: 24 832 7 7 (978432)
I0403 18:09:17.719221 21523 net.cpp:148] Top shape: 24 832 7 7 (978432)
I0403 18:09:17.719235 21523 net.cpp:148] Top shape: 24 832 7 7 (978432)
I0403 18:09:17.719249 21523 net.cpp:148] Top shape: 24 832 7 7 (978432)
I0403 18:09:17.719261 21523 net.cpp:156] Memory required for data: 1325241888
I0403 18:09:17.719274 21523 layer_factory.hpp:77] Creating layer inception_5b/1x1
I0403 18:09:17.719295 21523 net.cpp:91] Creating Layer inception_5b/1x1
I0403 18:09:17.719310 21523 net.cpp:425] inception_5b/1x1 <- inception_5a/output_inception_5a/output_0_split_0
I0403 18:09:17.719331 21523 net.cpp:399] inception_5b/1x1 -> inception_5b/1x1
I0403 18:09:17.722924 21523 net.cpp:141] Setting up inception_5b/1x1
I0403 18:09:17.722952 21523 net.cpp:148] Top shape: 24 384 7 7 (451584)
I0403 18:09:17.722966 21523 net.cpp:156] Memory required for data: 1327048224
I0403 18:09:17.722983 21523 layer_factory.hpp:77] Creating layer inception_5b/relu_1x1
I0403 18:09:17.723000 21523 net.cpp:91] Creating Layer inception_5b/relu_1x1
I0403 18:09:17.723014 21523 net.cpp:425] inception_5b/relu_1x1 <- inception_5b/1x1
I0403 18:09:17.723032 21523 net.cpp:386] inception_5b/relu_1x1 -> inception_5b/1x1 (in-place)
I0403 18:09:17.723328 21523 net.cpp:141] Setting up inception_5b/relu_1x1
I0403 18:09:17.723352 21523 net.cpp:148] Top shape: 24 384 7 7 (451584)
I0403 18:09:17.723366 21523 net.cpp:156] Memory required for data: 1328854560
I0403 18:09:17.723381 21523 layer_factory.hpp:77] Creating layer inception_5b/3x3_reduce
I0403 18:09:17.723400 21523 net.cpp:91] Creating Layer inception_5b/3x3_reduce
I0403 18:09:17.723417 21523 net.cpp:425] inception_5b/3x3_reduce <- inception_5a/output_inception_5a/output_0_split_1
I0403 18:09:17.723439 21523 net.cpp:399] inception_5b/3x3_reduce -> inception_5b/3x3_reduce
I0403 18:09:17.726001 21523 net.cpp:141] Setting up inception_5b/3x3_reduce
I0403 18:09:17.726032 21523 net.cpp:148] Top shape: 24 192 7 7 (225792)
I0403 18:09:17.726047 21523 net.cpp:156] Memory required for data: 1329757728
I0403 18:09:17.726064 21523 layer_factory.hpp:77] Creating layer inception_5b/relu_3x3_reduce
I0403 18:09:17.726081 21523 net.cpp:91] Creating Layer inception_5b/relu_3x3_reduce
I0403 18:09:17.726097 21523 net.cpp:425] inception_5b/relu_3x3_reduce <- inception_5b/3x3_reduce
I0403 18:09:17.726119 21523 net.cpp:386] inception_5b/relu_3x3_reduce -> inception_5b/3x3_reduce (in-place)
I0403 18:09:17.726299 21523 net.cpp:141] Setting up inception_5b/relu_3x3_reduce
I0403 18:09:17.726321 21523 net.cpp:148] Top shape: 24 192 7 7 (225792)
I0403 18:09:17.726335 21523 net.cpp:156] Memory required for data: 1330660896
I0403 18:09:17.726348 21523 layer_factory.hpp:77] Creating layer inception_5b/3x3
I0403 18:09:17.726367 21523 net.cpp:91] Creating Layer inception_5b/3x3
I0403 18:09:17.726384 21523 net.cpp:425] inception_5b/3x3 <- inception_5b/3x3_reduce
I0403 18:09:17.726405 21523 net.cpp:399] inception_5b/3x3 -> inception_5b/3x3
I0403 18:09:17.732815 21523 net.cpp:141] Setting up inception_5b/3x3
I0403 18:09:17.732842 21523 net.cpp:148] Top shape: 24 384 7 7 (451584)
I0403 18:09:17.732857 21523 net.cpp:156] Memory required for data: 1332467232
I0403 18:09:17.732874 21523 layer_factory.hpp:77] Creating layer inception_5b/relu_3x3
I0403 18:09:17.732892 21523 net.cpp:91] Creating Layer inception_5b/relu_3x3
I0403 18:09:17.732910 21523 net.cpp:425] inception_5b/relu_3x3 <- inception_5b/3x3
I0403 18:09:17.732926 21523 net.cpp:386] inception_5b/relu_3x3 -> inception_5b/3x3 (in-place)
I0403 18:09:17.733227 21523 net.cpp:141] Setting up inception_5b/relu_3x3
I0403 18:09:17.733250 21523 net.cpp:148] Top shape: 24 384 7 7 (451584)
I0403 18:09:17.733264 21523 net.cpp:156] Memory required for data: 1334273568
I0403 18:09:17.733278 21523 layer_factory.hpp:77] Creating layer inception_5b/5x5_reduce
I0403 18:09:17.733314 21523 net.cpp:91] Creating Layer inception_5b/5x5_reduce
I0403 18:09:17.733331 21523 net.cpp:425] inception_5b/5x5_reduce <- inception_5a/output_inception_5a/output_0_split_2
I0403 18:09:17.733352 21523 net.cpp:399] inception_5b/5x5_reduce -> inception_5b/5x5_reduce
I0403 18:09:17.734578 21523 net.cpp:141] Setting up inception_5b/5x5_reduce
I0403 18:09:17.734604 21523 net.cpp:148] Top shape: 24 48 7 7 (56448)
I0403 18:09:17.734619 21523 net.cpp:156] Memory required for data: 1334499360
I0403 18:09:17.734637 21523 layer_factory.hpp:77] Creating layer inception_5b/relu_5x5_reduce
I0403 18:09:17.734652 21523 net.cpp:91] Creating Layer inception_5b/relu_5x5_reduce
I0403 18:09:17.734668 21523 net.cpp:425] inception_5b/relu_5x5_reduce <- inception_5b/5x5_reduce
I0403 18:09:17.734688 21523 net.cpp:386] inception_5b/relu_5x5_reduce -> inception_5b/5x5_reduce (in-place)
I0403 18:09:17.735047 21523 net.cpp:141] Setting up inception_5b/relu_5x5_reduce
I0403 18:09:17.735072 21523 net.cpp:148] Top shape: 24 48 7 7 (56448)
I0403 18:09:17.735085 21523 net.cpp:156] Memory required for data: 1334725152
I0403 18:09:17.735100 21523 layer_factory.hpp:77] Creating layer inception_5b/5x5
I0403 18:09:17.735117 21523 net.cpp:91] Creating Layer inception_5b/5x5
I0403 18:09:17.735132 21523 net.cpp:425] inception_5b/5x5 <- inception_5b/5x5_reduce
I0403 18:09:17.735151 21523 net.cpp:399] inception_5b/5x5 -> inception_5b/5x5
I0403 18:09:17.737138 21523 net.cpp:141] Setting up inception_5b/5x5
I0403 18:09:17.737164 21523 net.cpp:148] Top shape: 24 128 7 7 (150528)
I0403 18:09:17.737179 21523 net.cpp:156] Memory required for data: 1335327264
I0403 18:09:17.737196 21523 layer_factory.hpp:77] Creating layer inception_5b/relu_5x5
I0403 18:09:17.737215 21523 net.cpp:91] Creating Layer inception_5b/relu_5x5
I0403 18:09:17.737231 21523 net.cpp:425] inception_5b/relu_5x5 <- inception_5b/5x5
I0403 18:09:17.737247 21523 net.cpp:386] inception_5b/relu_5x5 -> inception_5b/5x5 (in-place)
I0403 18:09:17.737435 21523 net.cpp:141] Setting up inception_5b/relu_5x5
I0403 18:09:17.737459 21523 net.cpp:148] Top shape: 24 128 7 7 (150528)
I0403 18:09:17.737473 21523 net.cpp:156] Memory required for data: 1335929376
I0403 18:09:17.737486 21523 layer_factory.hpp:77] Creating layer inception_5b/pool
I0403 18:09:17.737510 21523 net.cpp:91] Creating Layer inception_5b/pool
I0403 18:09:17.737529 21523 net.cpp:425] inception_5b/pool <- inception_5a/output_inception_5a/output_0_split_3
I0403 18:09:17.737545 21523 net.cpp:399] inception_5b/pool -> inception_5b/pool
I0403 18:09:17.737617 21523 net.cpp:141] Setting up inception_5b/pool
I0403 18:09:17.737639 21523 net.cpp:148] Top shape: 24 832 7 7 (978432)
I0403 18:09:17.737653 21523 net.cpp:156] Memory required for data: 1339843104
I0403 18:09:17.737666 21523 layer_factory.hpp:77] Creating layer inception_5b/pool_proj
I0403 18:09:17.737687 21523 net.cpp:91] Creating Layer inception_5b/pool_proj
I0403 18:09:17.737704 21523 net.cpp:425] inception_5b/pool_proj <- inception_5b/pool
I0403 18:09:17.737722 21523 net.cpp:399] inception_5b/pool_proj -> inception_5b/pool_proj
I0403 18:09:17.739935 21523 net.cpp:141] Setting up inception_5b/pool_proj
I0403 18:09:17.739964 21523 net.cpp:148] Top shape: 24 128 7 7 (150528)
I0403 18:09:17.739980 21523 net.cpp:156] Memory required for data: 1340445216
I0403 18:09:17.740000 21523 layer_factory.hpp:77] Creating layer inception_5b/relu_pool_proj
I0403 18:09:17.740017 21523 net.cpp:91] Creating Layer inception_5b/relu_pool_proj
I0403 18:09:17.740033 21523 net.cpp:425] inception_5b/relu_pool_proj <- inception_5b/pool_proj
I0403 18:09:17.740051 21523 net.cpp:386] inception_5b/relu_pool_proj -> inception_5b/pool_proj (in-place)
I0403 18:09:17.740344 21523 net.cpp:141] Setting up inception_5b/relu_pool_proj
I0403 18:09:17.740368 21523 net.cpp:148] Top shape: 24 128 7 7 (150528)
I0403 18:09:17.740382 21523 net.cpp:156] Memory required for data: 1341047328
I0403 18:09:17.740396 21523 layer_factory.hpp:77] Creating layer inception_5b/output
I0403 18:09:17.740412 21523 net.cpp:91] Creating Layer inception_5b/output
I0403 18:09:17.740442 21523 net.cpp:425] inception_5b/output <- inception_5b/1x1
I0403 18:09:17.740458 21523 net.cpp:425] inception_5b/output <- inception_5b/3x3
I0403 18:09:17.740474 21523 net.cpp:425] inception_5b/output <- inception_5b/5x5
I0403 18:09:17.740489 21523 net.cpp:425] inception_5b/output <- inception_5b/pool_proj
I0403 18:09:17.740512 21523 net.cpp:399] inception_5b/output -> inception_5b/output
I0403 18:09:17.740563 21523 net.cpp:141] Setting up inception_5b/output
I0403 18:09:17.740588 21523 net.cpp:148] Top shape: 24 1024 7 7 (1204224)
I0403 18:09:17.740602 21523 net.cpp:156] Memory required for data: 1345864224
I0403 18:09:17.740617 21523 layer_factory.hpp:77] Creating layer pool5/7x7_s1
I0403 18:09:17.740633 21523 net.cpp:91] Creating Layer pool5/7x7_s1
I0403 18:09:17.740646 21523 net.cpp:425] pool5/7x7_s1 <- inception_5b/output
I0403 18:09:17.740665 21523 net.cpp:399] pool5/7x7_s1 -> pool5/7x7_s1
I0403 18:09:17.740875 21523 net.cpp:141] Setting up pool5/7x7_s1
I0403 18:09:17.740898 21523 net.cpp:148] Top shape: 24 1024 1 1 (24576)
I0403 18:09:17.740912 21523 net.cpp:156] Memory required for data: 1345962528
I0403 18:09:17.740926 21523 layer_factory.hpp:77] Creating layer pool5/drop_7x7_s1
I0403 18:09:17.740942 21523 net.cpp:91] Creating Layer pool5/drop_7x7_s1
I0403 18:09:17.740957 21523 net.cpp:425] pool5/drop_7x7_s1 <- pool5/7x7_s1
I0403 18:09:17.740974 21523 net.cpp:386] pool5/drop_7x7_s1 -> pool5/7x7_s1 (in-place)
I0403 18:09:17.741024 21523 net.cpp:141] Setting up pool5/drop_7x7_s1
I0403 18:09:17.741045 21523 net.cpp:148] Top shape: 24 1024 1 1 (24576)
I0403 18:09:17.741060 21523 net.cpp:156] Memory required for data: 1346060832
I0403 18:09:17.741073 21523 layer_factory.hpp:77] Creating layer loss3/classifier_plantvillage
I0403 18:09:17.741091 21523 net.cpp:91] Creating Layer loss3/classifier_plantvillage
I0403 18:09:17.741106 21523 net.cpp:425] loss3/classifier_plantvillage <- pool5/7x7_s1
I0403 18:09:17.741124 21523 net.cpp:399] loss3/classifier_plantvillage -> loss3/classifier_plantvillage
I0403 18:09:17.741536 21523 net.cpp:141] Setting up loss3/classifier_plantvillage
I0403 18:09:17.741559 21523 net.cpp:148] Top shape: 24 38 (912)
I0403 18:09:17.741574 21523 net.cpp:156] Memory required for data: 1346064480
I0403 18:09:17.741590 21523 layer_factory.hpp:77] Creating layer loss3/classifier_plantvillage_loss3/classifier_plantvillage_0_split
I0403 18:09:17.741610 21523 net.cpp:91] Creating Layer loss3/classifier_plantvillage_loss3/classifier_plantvillage_0_split
I0403 18:09:17.741626 21523 net.cpp:425] loss3/classifier_plantvillage_loss3/classifier_plantvillage_0_split <- loss3/classifier_plantvillage
I0403 18:09:17.741643 21523 net.cpp:399] loss3/classifier_plantvillage_loss3/classifier_plantvillage_0_split -> loss3/classifier_plantvillage_loss3/classifier_plantvillage_0_split_0
I0403 18:09:17.741664 21523 net.cpp:399] loss3/classifier_plantvillage_loss3/classifier_plantvillage_0_split -> loss3/classifier_plantvillage_loss3/classifier_plantvillage_0_split_1
I0403 18:09:17.741683 21523 net.cpp:399] loss3/classifier_plantvillage_loss3/classifier_plantvillage_0_split -> loss3/classifier_plantvillage_loss3/classifier_plantvillage_0_split_2
I0403 18:09:17.741703 21523 net.cpp:399] loss3/classifier_plantvillage_loss3/classifier_plantvillage_0_split -> loss3/classifier_plantvillage_loss3/classifier_plantvillage_0_split_3
I0403 18:09:17.741796 21523 net.cpp:141] Setting up loss3/classifier_plantvillage_loss3/classifier_plantvillage_0_split
I0403 18:09:17.741818 21523 net.cpp:148] Top shape: 24 38 (912)
I0403 18:09:17.741833 21523 net.cpp:148] Top shape: 24 38 (912)
I0403 18:09:17.741847 21523 net.cpp:148] Top shape: 24 38 (912)
I0403 18:09:17.741861 21523 net.cpp:148] Top shape: 24 38 (912)
I0403 18:09:17.741873 21523 net.cpp:156] Memory required for data: 1346079072
I0403 18:09:17.741888 21523 layer_factory.hpp:77] Creating layer loss1/loss
I0403 18:09:17.741907 21523 net.cpp:91] Creating Layer loss1/loss
I0403 18:09:17.741924 21523 net.cpp:425] loss1/loss <- loss1/classifier_plantvillage_loss1/classifier_plantvillage_0_split_0
I0403 18:09:17.741952 21523 net.cpp:425] loss1/loss <- label_data_1_split_0
…
