…
I0403 18:42:09.040210 23250 net.cpp:313] The NetState phase (1) differed from the phase (0) specified by a rule in layer data
I0403 18:42:09.041632 23250 net.cpp:49] Initializing net from parameters: 
state {
  phase: TEST
}
layer {
  name: "data"
  type: "Data"
  top: "data"
  top: "label"
  include {
    phase: TEST
  }
  transform_param {
    mirror: false
    crop_size: 224
    mean_file: "/home/mohanty/data/final_dataset/lmdb/segmented-40-60/mean.binaryproto"
  }
  data_param {
    source: "/home/mohanty/data/final_dataset/lmdb/segmented-40-60/test_db"
    batch_size: 24
    backend: LMDB
  }
}
layer {
  name: "conv1/7x7_s2"
  type: "Convolution"
  bottom: "data"
  top: "conv1/7x7_s2"
  param {
    lr_mult: 1
    decay_mult: 1
  }
  param {
    lr_mult: 2
    decay_mult: 0
  }
  convolution_param {
    num_output: 64
    pad: 3
    kernel_size: 7
    stride: 2
    weight_filler {
      type: "xavier"
      std: 0.1
    }
    bias_filler {
      type: "constant"
      value: 0.2
    }
  }
}
layer {
  name: "conv1/relu_7x7"
  type: "ReLU"
  bottom: "conv1/7x7_s2"
  top: "conv1/7x7_s2"
}
layer {
  name: "pool1/3x3_s2"
  type: "Pooling"
  bottom: "conv1/7x7_s2"
  top: "pool1/3x3_s2"
  pooling_param {
    pool: MAX
    kernel_size: 3
    stride: 2
  }
}
layer {
  name: "pool1/norm1"
  type: "LRN"
  bottom: "pool1/3x3_s2"
  top: "pool1/norm1"
  lrn_param {
    local_size: 5
    alpha: 0.0001
    beta: 0.75
  }
}
layer {
  name: "conv2/3x3_reduce"
  type: "Convolution"
  bottom: "pool1/norm1"
  top: "conv2/3x3_reduce"
  param {
    lr_mult: 1
    decay_mult: 1
  }
  param {
    lr_mult: 2
    decay_mult: 0
  }
  convolution_param {
    num_output: 64
    kernel_size: 1
    weight_filler {
      type: "xavier"
      std: 0.1
    }
    bias_filler {
      type: "constant"
      value: 0.2
    }
  }
}
layer {
  name: "conv2/relu_3x3_reduce"
  type: "ReLU"
  bottom: "conv2/3x3_reduce"
  top: "conv2/3x3_reduce"
}
layer {
  name: "conv2/3x3"
  type: "Convolution"
  bottom: "conv2/3x3_reduce"
  top: "conv2/3x3"
  param {
    lr_mult: 1
    decay_mult: 1
  }
  param {
    lr_mult: 2
    decay_mult: 0
  }
  convolution_param {
    num_output: 192
    pad: 1
    kernel_size: 3
    weight_filler {
      type: "xavier"
      std: 0.03
    }
    bias_filler {
      type: "constant"
      value: 0.2
    }
  }
}
layer {
  name: "conv2/relu_3x3"
  type: "ReLU"
  bottom: "conv2/3x3"
  top: "conv2/3x3"
}
layer {
  name: "conv2/norm2"
  type: "LRN"
  bottom: "conv2/3x3"
  top: "conv2/norm2"
  lrn_param {
    local_size: 5
    alpha: 0.0001
    beta: 0.75
  }
}
layer {
  name: "pool2/3x3_s2"
  type: "Pooling"
  bottom: "conv2/norm2"
  top: "pool2/3x3_s2"
  pooling_param {
    pool: MAX
    kernel_size: 3
    stride: 2
  }
}
layer {
  name: "inception_3a/1x1"
  type: "Convolution"
  bottom: "pool2/3x3_s2"
  top: "inception_3a/1x1"
  param {
    lr_mult: 1
    decay_mult: 1
  }
  param {
    lr_mult: 2
    decay_mult: 0
  }
  convolution_param {
    num_output: 64
    kernel_size: 1
    weight_filler {
      type: "xavier"
      std: 0.03
    }
    bias_filler {
      type: "constant"
      value: 0.2
    }
  }
}
layer {
  name: "inception_3a/relu_1x1"
  type: "ReLU"
  bottom: "inception_3a/1x1"
  top: "inception_3a/1x1"
}
layer {
  name: "inception_3a/3x3_reduce"
  type: "Convolution"
  bottom: "pool2/3x3_s2"
  top: "inception_3a/3x3_reduce"
  param {
    lr_mult: 1
    decay_mult: 1
  }
  param {
    lr_mult: 2
    decay_mult: 0
  }
  convolution_param {
    num_output: 96
    kernel_size: 1
    weight_filler {
      type: "xavier"
      std: 0.09
    }
    bias_filler {
      type: "constant"
      value: 0.2
    }
  }
}
layer {
  name: "inception_3a/relu_3x3_reduce"
  type: "ReLU"
  bottom: "inception_3a/3x3_reduce"
  top: "inception_3a/3x3_reduce"
}
layer {
  name: "inception_3a/3x3"
  type: "Convolution"
  bottom: "inception_3a/3x3_reduce"
  top: "inception_3a/3x3"
  param {
    lr_mult: 1
    decay_mult: 1
  }
  param {
    lr_mult: 2
    decay_mult: 0
  }
  convolution_param {
    num_output: 128
    pad: 1
    kernel_size: 3
    weight_filler {
      type: "xavier"
      std: 0.03
    }
    bias_filler {
      type: "constant"
      value: 0.2
    }
  }
}
layer {
  name: "inception_3a/relu_3x3"
  type: "ReLU"
  bottom: "inception_3a/3x3"
  top: "inception_3a/3x3"
}
layer {
  name: "inception_3a/5x5_reduce"
  type: "Convolution"
  bottom: "pool2/3x3_s2"
  top: "inception_3a/5x5_reduce"
  param {
    lr_mult: 1
    decay_mult: 1
  }
  param {
    lr_mult: 2
    decay_mult: 0
  }
  convolution_param {
    num_output: 16
    kernel_size: 1
    weight_filler {
      type: "xavier"
      std: 0.2
    }
    bias_filler {
      type: "constant"
      value: 0.2
    }
  }
}
layer {
  name: "inception_3a/relu_5x5_reduce"
  type: "ReLU"
  bottom: "inception_3a/5x5_reduce"
  top: "inception_3a/5x5_reduce"
}
layer {
  name: "inception_3a/5x5"
  type: "Convolution"
  bottom: "inception_3a/5x5_reduce"
  top: "inception_3a/5x5"
  param {
    lr_mult: 1
    decay_mult: 1
  }
  param {
    lr_mult: 2
    decay_mult: 0
  }
  convolution_param {
    num_output: 32
    pad: 2
    kernel_size: 5
    weight_filler {
      type: "xavier"
      std: 0.03
    }
    bias_filler {
      type: "constant"
      value: 0.2
    }
  }
}
layer {
  name: "inception_3a/relu_5x5"
  type: "ReLU"
  bottom: "inception_3a/5x5"
  top: "inception_3a/5x5"
}
layer {
  name: "inception_3a/pool"
  type: "Pooling"
  bottom: "pool2/3x3_s2"
  top: "inception_3a/pool"
  pooling_param {
    pool: MAX
    kernel_size: 3
    stride: 1
    pad: 1
  }
}
layer {
  name: "inception_3a/pool_proj"
  type: "Convolution"
  bottom: "inception_3a/pool"
  top: "inception_3a/pool_proj"
  param {
    lr_mult: 1
    decay_mult: 1
  }
  param {
    lr_mult: 2
    decay_mult: 0
  }
  convolution_param {
    num_output: 32
    kernel_size: 1
    weight_filler {
      type: "xavier"
      std: 0.1
    }
    bias_filler {
      type: "constant"
      value: 0.2
    }
  }
}
layer {
  name: "inception_3a/relu_pool_proj"
  type: "ReLU"
  bottom: "inception_3a/pool_proj"
  top: "inception_3a/pool_proj"
}
layer {
  name: "inception_3a/output"
  type: "Concat"
  bottom: "inception_3a/1x1"
  bottom: "inception_3a/3x3"
  bottom: "inception_3a/5x5"
  bottom: "inception_3a/pool_proj"
  top: "inception_3a/output"
}
layer {
  name: "inception_3b/1x1"
  type: "Convolution"
  bottom: "inception_3a/output"
  top: "inception_3b/1x1"
  param {
    lr_mult: 1
    decay_mult: 1
  }
  param {
    lr_mult: 2
    decay_mult: 0
  }
  convolution_param {
    num_output: 128
    kernel_size: 1
    weight_filler {
      type: "xavier"
      std: 0.03
    }
    bias_filler {
      type: "constant"
      value: 0.2
    }
  }
}
layer {
  name: "inception_3b/relu_1x1"
  type: "ReLU"
  bottom: "inception_3b/1x1"
  top: "inception_3b/1x1"
}
layer {
  name: "inception_3b/3x3_reduce"
  type: "Convolution"
  bottom: "inception_3a/output"
  top: "inception_3b/3x3_reduce"
  param {
    lr_mult: 1
    decay_mult: 1
  }
  param {
    lr_mult: 2
    decay_mult: 0
  }
  convolution_param {
    num_output: 128
    kernel_size: 1
    weight_filler {
      type: "xavier"
      std: 0.09
    }
    bias_filler {
      type: "constant"
      value: 0.2
    }
  }
}
layer {
  name: "inception_3b/relu_3x3_reduce"
  type: "ReLU"
  bottom: "inception_3b/3x3_reduce"
  top: "inception_3b/3x3_reduce"
}
layer {
  name: "inception_3b/3x3"
  type: "Convolution"
  bottom: "inception_3b/3x3_reduce"
  top: "inception_3b/3x3"
  param {
    lr_mult: 1
    decay_mult: 1
  }
  param {
    lr_mult: 2
    decay_mult: 0
  }
  convolution_param {
    num_output: 192
    pad: 1
    kernel_size: 3
    weight_filler {
      type: "xavier"
      std: 0.03
    }
    bias_filler {
      type: "constant"
      value: 0.2
    }
  }
}
layer {
  name: "inception_3b/relu_3x3"
  type: "ReLU"
  bottom: "inception_3b/3x3"
  top: "inception_3b/3x3"
}
layer {
  name: "inception_3b/5x5_reduce"
  type: "Convolution"
  bottom: "inception_3a/output"
  top: "inception_3b/5x5_reduce"
  param {
    lr_mult: 1
    decay_mult: 1
  }
  param {
    lr_mult: 2
    decay_mult: 0
  }
  convolution_param {
    num_output: 32
    kernel_size: 1
    weight_filler {
      type: "xavier"
      std: 0.2
    }
    bias_filler {
      type: "constant"
      value: 0.2
    }
  }
}
layer {
  name: "inception_3b/relu_5x5_reduce"
  type: "ReLU"
  bottom: "inception_3b/5x5_reduce"
  top: "inception_3b/5x5_reduce"
}
layer {
  name: "inception_3b/5x5"
  type: "Convolution"
  bottom: "inception_3b/5x5_reduce"
  top: "inception_3b/5x5"
  param {
    lr_mult: 1
    decay_mult: 1
  }
  param {
    lr_mult: 2
    decay_mult: 0
  }
  convolution_param {
    num_output: 96
    pad: 2
    kernel_size: 5
    weight_filler {
      type: "xavier"
      std: 0.03
    }
    bias_filler {
      type: "constant"
      value: 0.2
    }
  }
}
layer {
  name: "inception_3b/relu_5x5"
  type: "ReLU"
  bottom: "inception_3b/5x5"
  top: "inception_3b/5x5"
}
layer {
  name: "inception_3b/pool"
  type: "Pooling"
  bottom: "inception_3a/output"
  top: "inception_3b/pool"
  pooling_param {
    pool: MAX
    kernel_size: 3
    stride: 1
    pad: 1
  }
}
layer {
  name: "inception_3b/pool_proj"
  type: "Convolution"
  bottom: "inception_3b/pool"
  top: "inception_3b/pool_proj"
  param {
    lr_mult: 1
    decay_mult: 1
  }
  param {
    lr_mult: 2
    decay_mult: 0
  }
  convolution_param {
    num_output: 64
    kernel_size: 1
    weight_filler {
      type: "xavier"
      std: 0.1
    }
    bias_filler {
      type: "constant"
      value: 0.2
    }
  }
}
layer {
  name: "inception_3b/relu_pool_proj"
  type: "ReLU"
  bottom: "inception_3b/pool_proj"
  top: "inception_3b/pool_proj"
}
layer {
  name: "inception_3b/output"
  type: "Concat"
  bottom: "inception_3b/1x1"
  bottom: "inception_3b/3x3"
  bottom: "inception_3b/5x5"
  bottom: "inception_3b/pool_proj"
  top: "inception_3b/output"
}
layer {
  name: "pool3/3x3_s2"
  type: "Pooling"
  bottom: "inception_3b/output"
  top: "pool3/3x3_s2"
  pooling_param {
    pool: MAX
    kernel_size: 3
    stride: 2
  }
}
layer {
  name: "inception_4a/1x1"
  type: "Convolution"
  bottom: "pool3/3x3_s2"
  top: "inception_4a/1x1"
  param {
    lr_mult: 1
    decay_mult: 1
  }
  param {
    lr_mult: 2
    decay_mult: 0
  }
  convolution_param {
    num_output: 192
    kernel_size: 1
    weight_filler {
      type: "xavier"
      std: 0.03
    }
    bias_filler {
      type: "constant"
      value: 0.2
    }
  }
}
layer {
  name: "inception_4a/relu_1x1"
  type: "ReLU"
  bottom: "inception_4a/1x1"
  top: "inception_4a/1x1"
}
layer {
  name: "inception_4a/3x3_reduce"
  type: "Convolution"
  bottom: "pool3/3x3_s2"
  top: "inception_4a/3x3_reduce"
  param {
    lr_mult: 1
    decay_mult: 1
  }
  param {
    lr_mult: 2
    decay_mult: 0
  }
  convolution_param {
    num_output: 96
    kernel_size: 1
    weight_filler {
      type: "xavier"
      std: 0.09
    }
    bias_filler {
      type: "constant"
      value: 0.2
    }
  }
}
layer {
  name: "inception_4a/relu_3x3_reduce"
  type: "ReLU"
  bottom: "inception_4a/3x3_reduce"
  top: "inception_4a/3x3_reduce"
}
layer {
  name: "inception_4a/3x3"
  type: "Convolution"
  bottom: "inception_4a/3x3_reduce"
  top: "inception_4a/3x3"
  param {
    lr_mult: 1
    decay_mult: 1
  }
  param {
    lr_mult: 2
    decay_mult: 0
  }
  convolution_param {
    num_output: 208
    pad: 1
    kernel_size: 3
    weight_filler {
      type: "xavier"
      std: 0.03
    }
    bias_filler {
      type: "constant"
      value: 0.2
    }
  }
}
layer {
  name: "inception_4a/relu_3x3"
  type: "ReLU"
  bottom: "inception_4a/3x3"
  top: "inception_4a/3x3"
}
layer {
  name: "inception_4a/5x5_reduce"
  type: "Convolution"
  bottom: "pool3/3x3_s2"
  top: "inception_4a/5x5_reduce"
  param {
    lr_mult: 1
    decay_mult: 1
  }
  param {
    lr_mult: 2
    decay_mult: 0
  }
  convolution_param {
    num_output: 16
    kernel_size: 1
    weight_filler {
      type: "xavier"
      std: 0.2
    }
    bias_filler {
      type: "constant"
      value: 0.2
    }
  }
}
layer {
  name: "inception_4a/relu_5x5_reduce"
  type: "ReLU"
  bottom: "inception_4a/5x5_reduce"
  top: "inception_4a/5x5_reduce"
}
layer {
  name: "inception_4a/5x5"
  type: "Convolution"
  bottom: "inception_4a/5x5_reduce"
  top: "inception_4a/5x5"
  param {
    lr_mult: 1
    decay_mult: 1
  }
  param {
    lr_mult: 2
    decay_mult: 0
  }
  convolution_param {
    num_output: 48
    pad: 2
    kernel_size: 5
    weight_filler {
      type: "xavier"
      std: 0.03
    }
    bias_filler {
      type: "constant"
      value: 0.2
    }
  }
}
layer {
  name: "inception_4a/relu_5x5"
  type: "ReLU"
  bottom: "inception_4a/5x5"
  top: "inception_4a/5x5"
}
layer {
  name: "inception_4a/pool"
  type: "Pooling"
  bottom: "pool3/3x3_s2"
  top: "inception_4a/pool"
  pooling_param {
    pool: MAX
    kernel_size: 3
    stride: 1
    pad: 1
  }
}
layer {
  name: "inception_4a/pool_proj"
  type: "Convolution"
  bottom: "inception_4a/pool"
  top: "inception_4a/pool_proj"
  param {
    lr_mult: 1
    decay_mult: 1
  }
  param {
    lr_mult: 2
    decay_mult: 0
  }
  convolution_param {
    num_output: 64
    kernel_size: 1
    weight_filler {
      type: "xavier"
      std: 0.1
    }
    bias_filler {
      type: "constant"
      value: 0.2
    }
  }
}
layer {
  name: "inception_4a/relu_pool_proj"
  type: "ReLU"
  bottom: "inception_4a/pool_proj"
  top: "inception_4a/pool_proj"
}
layer {
  name: "inception_4a/output"
  type: "Concat"
  bottom: "inception_4a/1x1"
  bottom: "inception_4a/3x3"
  bottom: "inception_4a/5x5"
  bottom: "inception_4a/pool_proj"
  top: "inception_4a/output"
}
layer {
  name: "loss1/ave_pool"
  type: "Pooling"
  bottom: "inception_4a/output"
  top: "loss1/ave_pool"
  pooling_param {
    pool: AVE
    kernel_size: 5
    stride: 3
  }
}
layer {
  name: "loss1/conv"
  type: "Convolution"
  bottom: "loss1/ave_pool"
  top: "loss1/conv"
  param {
    lr_mult: 1
    decay_mult: 1
  }
  param {
    lr_mult: 2
    decay_mult: 0
  }
  convolution_param {
    num_output: 128
    kernel_size: 1
    weight_filler {
      type: "xavier"
      std: 0.08
    }
    bias_filler {
      type: "constant"
      value: 0.2
    }
  }
}
layer {
  name: "loss1/relu_conv"
  type: "ReLU"
  bottom: "loss1/conv"
  top: "loss1/conv"
}
layer {
  name: "loss1/fc"
  type: "InnerProduct"
  bottom: "loss1/conv"
  top: "loss1/fc"
  param {
    lr_mult: 1
    decay_mult: 1
  }
  param {
    lr_mult: 2
    decay_mult: 0
  }
  inner_product_param {
    num_output: 1024
    weight_filler {
      type: "xavier"
      std: 0.02
    }
    bias_filler {
      type: "constant"
      value: 0.2
    }
  }
}
layer {
  name: "loss1/relu_fc"
  type: "ReLU"
  bottom: "loss1/fc"
  top: "loss1/fc"
}
layer {
  name: "loss1/drop_fc"
  type: "Dropout"
  bottom: "loss1/fc"
  top: "loss1/fc"
  dropout_param {
    dropout_ratio: 0.7
  }
}
layer {
  name: "loss1/classifier_plantvillage"
  type: "InnerProduct"
  bottom: "loss1/fc"
  top: "loss1/classifier_plantvillage"
  param {
    lr_mult: 1
    decay_mult: 1
  }
  param {
    lr_mult: 2
    decay_mult: 0
  }
  inner_product_param {
    num_output: 38
    weight_filler {
      type: "xavier"
      std: 0.0009765625
    }
    bias_filler {
      type: "constant"
      value: 0
    }
  }
}
layer {
  name: "inception_4b/1x1"
  type: "Convolution"
  bottom: "inception_4a/output"
  top: "inception_4b/1x1"
  param {
    lr_mult: 1
    decay_mult: 1
  }
  param {
    lr_mult: 2
    decay_mult: 0
  }
  convolution_param {
    num_output: 160
    kernel_size: 1
    weight_filler {
      type: "xavier"
      std: 0.03
    }
    bias_filler {
      type: "constant"
      value: 0.2
    }
  }
}
layer {
  name: "inception_4b/relu_1x1"
  type: "ReLU"
  bottom: "inception_4b/1x1"
  top: "inception_4b/1x1"
}
layer {
  name: "inception_4b/3x3_reduce"
  type: "Convolution"
  bottom: "inception_4a/output"
  top: "inception_4b/3x3_reduce"
  param {
    lr_mult: 1
    decay_mult: 1
  }
  param {
    lr_mult: 2
    decay_mult: 0
  }
  convolution_param {
    num_output: 112
    kernel_size: 1
    weight_filler {
      type: "xavier"
      std: 0.09
    }
    bias_filler {
      type: "constant"
      value: 0.2
    }
  }
}
layer {
  name: "inception_4b/relu_3x3_reduce"
  type: "ReLU"
  bottom: "inception_4b/3x3_reduce"
  top: "inception_4b/3x3_reduce"
}
layer {
  name: "inception_4b/3x3"
  type: "Convolution"
  bottom: "inception_4b/3x3_reduce"
  top: "inception_4b/3x3"
  param {
    lr_mult: 1
    decay_mult: 1
  }
  param {
    lr_mult: 2
    decay_mult: 0
  }
  convolution_param {
    num_output: 224
    pad: 1
    kernel_size: 3
    weight_filler {
      type: "xavier"
      std: 0.03
    }
    bias_filler {
      type: "constant"
      value: 0.2
    }
  }
}
layer {
  name: "inception_4b/relu_3x3"
  type: "ReLU"
  bottom: "inception_4b/3x3"
  top: "inception_4b/3x3"
}
layer {
  name: "inception_4b/5x5_reduce"
  type: "Convolution"
  bottom: "inception_4a/output"
  top: "inception_4b/5x5_reduce"
  param {
    lr_mult: 1
    decay_mult: 1
  }
  param {
    lr_mult: 2
    decay_mult: 0
  }
  convolution_param {
    num_output: 24
    kernel_size: 1
    weight_filler {
      type: "xavier"
      std: 0.2
    }
    bias_filler {
      type: "constant"
      value: 0.2
    }
  }
}
layer {
  name: "inception_4b/relu_5x5_reduce"
  type: "ReLU"
  bottom: "inception_4b/5x5_reduce"
  top: "inception_4b/5x5_reduce"
}
layer {
  name: "inception_4b/5x5"
  type: "Convolution"
  bottom: "inception_4b/5x5_reduce"
  top: "inception_4b/5x5"
  param {
    lr_mult: 1
    decay_mult: 1
  }
  param {
    lr_mult: 2
    decay_mult: 0
  }
  convolution_param {
    num_output: 64
    pad: 2
    kernel_size: 5
    weight_filler {
      type: "xavier"
      std: 0.03
    }
    bias_filler {
      type: "constant"
      value: 0.2
    }
  }
}
layer {
  name: "inception_4b/relu_5x5"
  type: "ReLU"
  bottom: "inception_4b/5x5"
  top: "inception_4b/5x5"
}
layer {
  name: "inception_4b/pool"
  type: "Pooling"
  bottom: "inception_4a/output"
  top: "inception_4b/pool"
  pooling_param {
    pool: MAX
    kernel_size: 3
    stride: 1
    pad: 1
  }
}
layer {
  name: "inception_4b/pool_proj"
  type: "Convolution"
  bottom: "inception_4b/pool"
  top: "inception_4b/pool_proj"
  param {
    lr_mult: 1
    decay_mult: 1
  }
  param {
    lr_mult: 2
    decay_mult: 0
  }
  convolution_param {
    num_output: 64
    kernel_size: 1
    weight_filler {
      type: "xavier"
      std: 0.1
    }
    bias_filler {
      type: "constant"
      value: 0.2
    }
  }
}
layer {
  name: "inception_4b/relu_pool_proj"
  type: "ReLU"
  bottom: "inception_4b/pool_proj"
  top: "inception_4b/pool_proj"
}
layer {
  name: "inception_4b/output"
  type: "Concat"
  bottom: "inception_4b/1x1"
  bottom: "inception_4b/3x3"
  bottom: "inception_4b/5x5"
  bottom: "inception_4b/pool_proj"
  top: "inception_4b/output"
}
layer {
  name: "inception_4c/1x1"
  type: "Convolution"
  bottom: "inception_4b/output"
  top: "inception_4c/1x1"
  param {
    lr_mult: 1
    decay_mult: 1
  }
  param {
    lr_mult: 2
    decay_mult: 0
  }
  convolution_param {
    num_output: 128
    kernel_size: 1
    weight_filler {
      type: "xavier"
      std: 0.03
    }
    bias_filler {
      type: "constant"
      value: 0.2
    }
  }
}
layer {
  name: "inception_4c/relu_1x1"
  type: "ReLU"
  bottom: "inception_4c/1x1"
  top: "inception_4c/1x1"
}
layer {
  name: "inception_4c/3x3_reduce"
  type: "Convolution"
  bottom: "inception_4b/output"
  top: "inception_4c/3x3_reduce"
  param {
    lr_mult: 1
    decay_mult: 1
  }
  param {
    lr_mult: 2
    decay_mult: 0
  }
  convolution_param {
    num_output: 128
    kernel_size: 1
    weight_filler {
      type: "xavier"
      std: 0.09
    }
    bias_filler {
      type: "constant"
      value: 0.2
    }
  }
}
layer {
  name: "inception_4c/relu_3x3_reduce"
  type: "ReLU"
  bottom: "inception_4c/3x3_reduce"
  top: "inception_4c/3x3_reduce"
}
layer {
  name: "inception_4c/3x3"
  type: "Convolution"
  bottom: "inception_4c/3x3_reduce"
  top: "inception_4c/3x3"
  param {
    lr_mult: 1
    decay_mult: 1
  }
  param {
    lr_mult: 2
    decay_mult: 0
  }
  convolution_param {
    num_output: 256
    pad: 1
    kernel_size: 3
    weight_filler {
      type: "xavier"
      std: 0.03
    }
    bias_filler {
      type: "constant"
      value: 0.2
    }
  }
}
layer {
  name: "inception_4c/relu_3x3"
  type: "ReLU"
  bottom: "inception_4c/3x3"
  top: "inception_4c/3x3"
}
layer {
  name: "inception_4c/5x5_reduce"
  type: "Convolution"
  bottom: "inception_4b/output"
  top: "inception_4c/5x5_reduce"
  param {
    lr_mult: 1
    decay_mult: 1
  }
  param {
    lr_mult: 2
    decay_mult: 0
  }
  convolution_param {
    num_output: 24
    kernel_size: 1
    weight_filler {
      type: "xavier"
      std: 0.2
    }
    bias_filler {
      type: "constant"
      value: 0.2
    }
  }
}
layer {
  name: "inception_4c/relu_5x5_reduce"
  type: "ReLU"
  bottom: "inception_4c/5x5_reduce"
  top: "inception_4c/5x5_reduce"
}
layer {
  name: "inception_4c/5x5"
  type: "Convolution"
  bottom: "inception_4c/5x5_reduce"
  top: "inception_4c/5x5"
  param {
    lr_mult: 1
    decay_mult: 1
  }
  param {
    lr_mult: 2
    decay_mult: 0
  }
  convolution_param {
    num_output: 64
    pad: 2
    kernel_size: 5
    weight_filler {
      type: "xavier"
      std: 0.03
    }
    bias_filler {
      type: "constant"
      value: 0.2
    }
  }
}
layer {
  name: "inception_4c/relu_5x5"
  type: "ReLU"
  bottom: "inception_4c/5x5"
  top: "inception_4c/5x5"
}
layer {
  name: "inception_4c/pool"
  type: "Pooling"
  bottom: "inception_4b/output"
  top: "inception_4c/pool"
  pooling_param {
    pool: MAX
    kernel_size: 3
    stride: 1
    pad: 1
  }
}
layer {
  name: "inception_4c/pool_proj"
  type: "Convolution"
  bottom: "inception_4c/pool"
  top: "inception_4c/pool_proj"
  param {
    lr_mult: 1
    decay_mult: 1
  }
  param {
    lr_mult: 2
    decay_mult: 0
  }
  convolution_param {
    num_output: 64
    kernel_size: 1
    weight_filler {
      type: "xavier"
      std: 0.1
    }
    bias_filler {
      type: "constant"
      value: 0.2
    }
  }
}
layer {
  name: "inception_4c/relu_pool_proj"
  type: "ReLU"
  bottom: "inception_4c/pool_proj"
  top: "inception_4c/pool_proj"
}
layer {
  name: "inception_4c/output"
  type: "Concat"
  bottom: "inception_4c/1x1"
  bottom: "inception_4c/3x3"
  bottom: "inception_4c/5x5"
  bottom: "inception_4c/pool_proj"
  top: "inception_4c/output"
}
layer {
  name: "inception_4d/1x1"
  type: "Convolution"
  bottom: "inception_4c/output"
  top: "inception_4d/1x1"
  param {
    lr_mult: 1
    decay_mult: 1
  }
  param {
    lr_mult: 2
    decay_mult: 0
  }
  convolution_param {
    num_output: 112
    kernel_size: 1
    weight_filler {
      type: "xavier"
      std: 0.03
    }
    bias_filler {
      type: "constant"
      value: 0.2
    }
  }
}
layer {
  name: "inception_4d/relu_1x1"
  type: "ReLU"
  bottom: "inception_4d/1x1"
  top: "inception_4d/1x1"
}
layer {
  name: "inception_4d/3x3_reduce"
  type: "Convolution"
  bottom: "inception_4c/output"
  top: "inception_4d/3x3_reduce"
  param {
    lr_mult: 1
    decay_mult: 1
  }
  param {
    lr_mult: 2
    decay_mult: 0
  }
  convolution_param {
    num_output: 144
    kernel_size: 1
    weight_filler {
      type: "xavier"
      std: 0.09
    }
    bias_filler {
      type: "constant"
      value: 0.2
    }
  }
}
layer {
  name: "inception_4d/relu_3x3_reduce"
  type: "ReLU"
  bottom: "inception_4d/3x3_reduce"
  top: "inception_4d/3x3_reduce"
}
layer {
  name: "inception_4d/3x3"
  type: "Convolution"
  bottom: "inception_4d/3x3_reduce"
  top: "inception_4d/3x3"
  param {
    lr_mult: 1
    decay_mult: 1
  }
  param {
    lr_mult: 2
    decay_mult: 0
  }
  convolution_param {
    num_output: 288
    pad: 1
    kernel_size: 3
    weight_filler {
      type: "xavier"
      std: 0.03
    }
    bias_filler {
      type: "constant"
      value: 0.2
    }
  }
}
layer {
  name: "inception_4d/relu_3x3"
  type: "ReLU"
  bottom: "inception_4d/3x3"
  top: "inception_4d/3x3"
}
layer {
  name: "inception_4d/5x5_reduce"
  type: "Convolution"
  bottom: "inception_4c/output"
  top: "inception_4d/5x5_reduce"
  param {
    lr_mult: 1
    decay_mult: 1
  }
  param {
    lr_mult: 2
    decay_mult: 0
  }
  convolution_param {
    num_output: 32
    kernel_size: 1
    weight_filler {
      type: "xavier"
      std: 0.2
    }
    bias_filler {
      type: "constant"
      value: 0.2
    }
  }
}
layer {
  name: "inception_4d/relu_5x5_reduce"
  type: "ReLU"
  bottom: "inception_4d/5x5_reduce"
  top: "inception_4d/5x5_reduce"
}
layer {
  name: "inception_4d/5x5"
  type: "Convolution"
  bottom: "inception_4d/5x5_reduce"
  top: "inception_4d/5x5"
  param {
    lr_mult: 1
    decay_mult: 1
  }
  param {
    lr_mult: 2
    decay_mult: 0
  }
  convolution_param {
    num_output: 64
    pad: 2
    kernel_size: 5
    weight_filler {
      type: "xavier"
      std: 0.03
    }
    bias_filler {
      type: "constant"
      value: 0.2
    }
  }
}
layer {
  name: "inception_4d/relu_5x5"
  type: "ReLU"
  bottom: "inception_4d/5x5"
  top: "inception_4d/5x5"
}
layer {
  name: "inception_4d/pool"
  type: "Pooling"
  bottom: "inception_4c/output"
  top: "inception_4d/pool"
  pooling_param {
    pool: MAX
    kernel_size: 3
    stride: 1
    pad: 1
  }
}
layer {
  name: "inception_4d/pool_proj"
  type: "Convolution"
  bottom: "inception_4d/pool"
  top: "inception_4d/pool_proj"
  param {
    lr_mult: 1
    decay_mult: 1
  }
  param {
    lr_mult: 2
    decay_mult: 0
  }
  convolution_param {
    num_output: 64
    kernel_size: 1
    weight_filler {
      type: "xavier"
      std: 0.1
    }
    bias_filler {
      type: "constant"
      value: 0.2
    }
  }
}
layer {
  name: "inception_4d/relu_pool_proj"
  type: "ReLU"
  bottom: "inception_4d/pool_proj"
  top: "inception_4d/pool_proj"
}
layer {
  name: "inception_4d/output"
  type: "Concat"
  bottom: "inception_4d/1x1"
  bottom: "inception_4d/3x3"
  bottom: "inception_4d/5x5"
  bottom: "inception_4d/pool_proj"
  top: "inception_4d/output"
}
layer {
  name: "loss2/ave_pool"
  type: "Pooling"
  bottom: "inception_4d/output"
  top: "loss2/ave_pool"
  pooling_param {
    pool: AVE
    kernel_size: 5
    stride: 3
  }
}
layer {
  name: "loss2/conv"
  type: "Convolution"
  bottom: "loss2/ave_pool"
  top: "loss2/conv"
  param {
    lr_mult: 1
    decay_mult: 1
  }
  param {
    lr_mult: 2
    decay_mult: 0
  }
  convolution_param {
    num_output: 128
    kernel_size: 1
    weight_filler {
      type: "xavier"
      std: 0.08
    }
    bias_filler {
      type: "constant"
      value: 0.2
    }
  }
}
layer {
  name: "loss2/relu_conv"
  type: "ReLU"
  bottom: "loss2/conv"
  top: "loss2/conv"
}
layer {
  name: "loss2/fc"
  type: "InnerProduct"
  bottom: "loss2/conv"
  top: "loss2/fc"
  param {
    lr_mult: 1
    decay_mult: 1
  }
  param {
    lr_mult: 2
    decay_mult: 0
  }
  inner_product_param {
    num_output: 1024
    weight_filler {
      type: "xavier"
      std: 0.02
    }
    bias_filler {
      type: "constant"
      value: 0.2
    }
  }
}
layer {
  name: "loss2/relu_fc"
  type: "ReLU"
  bottom: "loss2/fc"
  top: "loss2/fc"
}
layer {
  name: "loss2/drop_fc"
  type: "Dropout"
  bottom: "loss2/fc"
  top: "loss2/fc"
  dropout_param {
    dropout_ratio: 0.7
  }
}
layer {
  name: "loss2/classifier_plantvillage"
  type: "InnerProduct"
  bottom: "loss2/fc"
  top: "loss2/classifier_plantvillage"
  param {
    lr_mult: 1
    decay_mult: 1
  }
  param {
    lr_mult: 2
    decay_mult: 0
  }
  inner_product_param {
    num_output: 38
    weight_filler {
      type: "xavier"
      std: 0.0009765625
    }
    bias_filler {
      type: "constant"
      value: 0
    }
  }
}
layer {
  name: "inception_4e/1x1"
  type: "Convolution"
  bottom: "inception_4d/output"
  top: "inception_4e/1x1"
  param {
    lr_mult: 1
    decay_mult: 1
  }
  param {
    lr_mult: 2
    decay_mult: 0
  }
  convolution_param {
    num_output: 256
    kernel_size: 1
    weight_filler {
      type: "xavier"
      std: 0.03
    }
    bias_filler {
      type: "constant"
      value: 0.2
    }
  }
}
layer {
  name: "inception_4e/relu_1x1"
  type: "ReLU"
  bottom: "inception_4e/1x1"
  top: "inception_4e/1x1"
}
layer {
  name: "inception_4e/3x3_reduce"
  type: "Convolution"
  bottom: "inception_4d/output"
  top: "inception_4e/3x3_reduce"
  param {
    lr_mult: 1
    decay_mult: 1
  }
  param {
    lr_mult: 2
    decay_mult: 0
  }
  convolution_param {
    num_output: 160
    kernel_size: 1
    weight_filler {
      type: "xavier"
      std: 0.09
    }
    bias_filler {
      type: "constant"
      value: 0.2
    }
  }
}
layer {
  name: "inception_4e/relu_3x3_reduce"
  type: "ReLU"
  bottom: "inception_4e/3x3_reduce"
  top: "inception_4e/3x3_reduce"
}
layer {
  name: "inception_4e/3x3"
  type: "Convolution"
  bottom: "inception_4e/3x3_reduce"
  top: "inception_4e/3x3"
  param {
    lr_mult: 1
    decay_mult: 1
  }
  param {
    lr_mult: 2
    decay_mult: 0
  }
  convolution_param {
    num_output: 320
    pad: 1
    kernel_size: 3
    weight_filler {
      type: "xavier"
      std: 0.03
    }
    bias_filler {
      type: "constant"
      value: 0.2
    }
  }
}
layer {
  name: "inception_4e/relu_3x3"
  type: "ReLU"
  bottom: "inception_4e/3x3"
  top: "inception_4e/3x3"
}
layer {
  name: "inception_4e/5x5_reduce"
  type: "Convolution"
  bottom: "inception_4d/output"
  top: "inception_4e/5x5_reduce"
  param {
    lr_mult: 1
    decay_mult: 1
  }
  param {
    lr_mult: 2
    decay_mult: 0
  }
  convolution_param {
    num_output: 32
    kernel_size: 1
    weight_filler {
      type: "xavier"
      std: 0.2
    }
    bias_filler {
      type: "constant"
      value: 0.2
    }
  }
}
layer {
  name: "inception_4e/relu_5x5_reduce"
  type: "ReLU"
  bottom: "inception_4e/5x5_reduce"
  top: "inception_4e/5x5_reduce"
}
layer {
  name: "inception_4e/5x5"
  type: "Convolution"
  bottom: "inception_4e/5x5_reduce"
  top: "inception_4e/
I0403 18:42:09.043148 23250 layer_factory.hpp:77] Creating layer data
I0403 18:42:09.044656 23250 net.cpp:91] Creating Layer data
I0403 18:42:09.044695 23250 net.cpp:399] data -> data
I0403 18:42:09.044756 23250 net.cpp:399] data -> label
I0403 18:42:09.044801 23250 data_transformer.cpp:25] Loading mean file from: /home/mohanty/data/final_dataset/lmdb/segmented-40-60/mean.binaryproto
I0403 18:42:09.046183 23253 db_lmdb.cpp:38] Opened lmdb /home/mohanty/data/final_dataset/lmdb/segmented-40-60/test_db
I0403 18:42:09.060515 23250 data_layer.cpp:41] output data size: 24,3,224,224
I0403 18:42:09.093142 23250 net.cpp:141] Setting up data
I0403 18:42:09.093231 23250 net.cpp:148] Top shape: 24 3 224 224 (3612672)
I0403 18:42:09.093257 23250 net.cpp:148] Top shape: 24 (24)
I0403 18:42:09.093276 23250 net.cpp:156] Memory required for data: 14450784
I0403 18:42:09.093310 23250 layer_factory.hpp:77] Creating layer label_data_1_split
I0403 18:42:09.093343 23250 net.cpp:91] Creating Layer label_data_1_split
I0403 18:42:09.093364 23250 net.cpp:425] label_data_1_split <- label
I0403 18:42:09.093403 23250 net.cpp:399] label_data_1_split -> label_data_1_split_0
I0403 18:42:09.093436 23250 net.cpp:399] label_data_1_split -> label_data_1_split_1
I0403 18:42:09.093462 23250 net.cpp:399] label_data_1_split -> label_data_1_split_2
I0403 18:42:09.093488 23250 net.cpp:399] label_data_1_split -> label_data_1_split_3
I0403 18:42:09.093513 23250 net.cpp:399] label_data_1_split -> label_data_1_split_4
I0403 18:42:09.093541 23250 net.cpp:399] label_data_1_split -> label_data_1_split_5
I0403 18:42:09.093576 23250 net.cpp:399] label_data_1_split -> label_data_1_split_6
I0403 18:42:09.093600 23250 net.cpp:399] label_data_1_split -> label_data_1_split_7
I0403 18:42:09.093626 23250 net.cpp:399] label_data_1_split -> label_data_1_split_8
I0403 18:42:09.093649 23250 net.cpp:399] label_data_1_split -> label_data_1_split_9
I0403 18:42:09.093788 23250 net.cpp:141] Setting up label_data_1_split
I0403 18:42:09.093817 23250 net.cpp:148] Top shape: 24 (24)
I0403 18:42:09.093840 23250 net.cpp:148] Top shape: 24 (24)
I0403 18:42:09.093858 23250 net.cpp:148] Top shape: 24 (24)
I0403 18:42:09.093878 23250 net.cpp:148] Top shape: 24 (24)
I0403 18:42:09.093896 23250 net.cpp:148] Top shape: 24 (24)
I0403 18:42:09.093915 23250 net.cpp:148] Top shape: 24 (24)
I0403 18:42:09.093933 23250 net.cpp:148] Top shape: 24 (24)
I0403 18:42:09.093951 23250 net.cpp:148] Top shape: 24 (24)
I0403 18:42:09.093969 23250 net.cpp:148] Top shape: 24 (24)
I0403 18:42:09.093989 23250 net.cpp:148] Top shape: 24 (24)
I0403 18:42:09.094043 23250 net.cpp:156] Memory required for data: 14451744
I0403 18:42:09.094063 23250 layer_factory.hpp:77] Creating layer conv1/7x7_s2
I0403 18:42:09.094102 23250 net.cpp:91] Creating Layer conv1/7x7_s2
I0403 18:42:09.094125 23250 net.cpp:425] conv1/7x7_s2 <- data
I0403 18:42:09.094149 23250 net.cpp:399] conv1/7x7_s2 -> conv1/7x7_s2
I0403 18:42:09.258327 23250 net.cpp:141] Setting up conv1/7x7_s2
I0403 18:42:09.258414 23250 net.cpp:148] Top shape: 24 64 112 112 (19267584)
I0403 18:42:09.258435 23250 net.cpp:156] Memory required for data: 91522080
I0403 18:42:09.258472 23250 layer_factory.hpp:77] Creating layer conv1/relu_7x7
I0403 18:42:09.258505 23250 net.cpp:91] Creating Layer conv1/relu_7x7
I0403 18:42:09.258528 23250 net.cpp:425] conv1/relu_7x7 <- conv1/7x7_s2
I0403 18:42:09.258558 23250 net.cpp:386] conv1/relu_7x7 -> conv1/7x7_s2 (in-place)
I0403 18:42:09.258880 23250 net.cpp:141] Setting up conv1/relu_7x7
I0403 18:42:09.258913 23250 net.cpp:148] Top shape: 24 64 112 112 (19267584)
I0403 18:42:09.258932 23250 net.cpp:156] Memory required for data: 168592416
I0403 18:42:09.258950 23250 layer_factory.hpp:77] Creating layer pool1/3x3_s2
I0403 18:42:09.258981 23250 net.cpp:91] Creating Layer pool1/3x3_s2
I0403 18:42:09.259002 23250 net.cpp:425] pool1/3x3_s2 <- conv1/7x7_s2
I0403 18:42:09.259026 23250 net.cpp:399] pool1/3x3_s2 -> pool1/3x3_s2
I0403 18:42:09.259119 23250 net.cpp:141] Setting up pool1/3x3_s2
I0403 18:42:09.259148 23250 net.cpp:148] Top shape: 24 64 56 56 (4816896)
I0403 18:42:09.259166 23250 net.cpp:156] Memory required for data: 187860000
I0403 18:42:09.259183 23250 layer_factory.hpp:77] Creating layer pool1/norm1
I0403 18:42:09.259213 23250 net.cpp:91] Creating Layer pool1/norm1
I0403 18:42:09.259235 23250 net.cpp:425] pool1/norm1 <- pool1/3x3_s2
I0403 18:42:09.259258 23250 net.cpp:399] pool1/norm1 -> pool1/norm1
I0403 18:42:09.259621 23250 net.cpp:141] Setting up pool1/norm1
I0403 18:42:09.259654 23250 net.cpp:148] Top shape: 24 64 56 56 (4816896)
I0403 18:42:09.259676 23250 net.cpp:156] Memory required for data: 207127584
I0403 18:42:09.259695 23250 layer_factory.hpp:77] Creating layer conv2/3x3_reduce
I0403 18:42:09.259723 23250 net.cpp:91] Creating Layer conv2/3x3_reduce
I0403 18:42:09.259743 23250 net.cpp:425] conv2/3x3_reduce <- pool1/norm1
I0403 18:42:09.259768 23250 net.cpp:399] conv2/3x3_reduce -> conv2/3x3_reduce
I0403 18:42:09.261224 23250 net.cpp:141] Setting up conv2/3x3_reduce
I0403 18:42:09.261268 23250 net.cpp:148] Top shape: 24 64 56 56 (4816896)
I0403 18:42:09.261289 23250 net.cpp:156] Memory required for data: 226395168
I0403 18:42:09.261314 23250 layer_factory.hpp:77] Creating layer conv2/relu_3x3_reduce
I0403 18:42:09.261337 23250 net.cpp:91] Creating Layer conv2/relu_3x3_reduce
I0403 18:42:09.261356 23250 net.cpp:425] conv2/relu_3x3_reduce <- conv2/3x3_reduce
I0403 18:42:09.261379 23250 net.cpp:386] conv2/relu_3x3_reduce -> conv2/3x3_reduce (in-place)
I0403 18:42:09.261708 23250 net.cpp:141] Setting up conv2/relu_3x3_reduce
I0403 18:42:09.261739 23250 net.cpp:148] Top shape: 24 64 56 56 (4816896)
I0403 18:42:09.261759 23250 net.cpp:156] Memory required for data: 245662752
I0403 18:42:09.261775 23250 layer_factory.hpp:77] Creating layer conv2/3x3
I0403 18:42:09.261803 23250 net.cpp:91] Creating Layer conv2/3x3
I0403 18:42:09.261826 23250 net.cpp:425] conv2/3x3 <- conv2/3x3_reduce
I0403 18:42:09.261853 23250 net.cpp:399] conv2/3x3 -> conv2/3x3
I0403 18:42:09.264606 23250 net.cpp:141] Setting up conv2/3x3
I0403 18:42:09.264644 23250 net.cpp:148] Top shape: 24 192 56 56 (14450688)
I0403 18:42:09.264664 23250 net.cpp:156] Memory required for data: 303465504
I0403 18:42:09.264690 23250 layer_factory.hpp:77] Creating layer conv2/relu_3x3
I0403 18:42:09.264713 23250 net.cpp:91] Creating Layer conv2/relu_3x3
I0403 18:42:09.264732 23250 net.cpp:425] conv2/relu_3x3 <- conv2/3x3
I0403 18:42:09.264756 23250 net.cpp:386] conv2/relu_3x3 -> conv2/3x3 (in-place)
I0403 18:42:09.264972 23250 net.cpp:141] Setting up conv2/relu_3x3
I0403 18:42:09.265007 23250 net.cpp:148] Top shape: 24 192 56 56 (14450688)
I0403 18:42:09.265064 23250 net.cpp:156] Memory required for data: 361268256
I0403 18:42:09.265084 23250 layer_factory.hpp:77] Creating layer conv2/norm2
I0403 18:42:09.265105 23250 net.cpp:91] Creating Layer conv2/norm2
I0403 18:42:09.265125 23250 net.cpp:425] conv2/norm2 <- conv2/3x3
I0403 18:42:09.265149 23250 net.cpp:399] conv2/norm2 -> conv2/norm2
I0403 18:42:09.265527 23250 net.cpp:141] Setting up conv2/norm2
I0403 18:42:09.265566 23250 net.cpp:148] Top shape: 24 192 56 56 (14450688)
I0403 18:42:09.265588 23250 net.cpp:156] Memory required for data: 419071008
I0403 18:42:09.265604 23250 layer_factory.hpp:77] Creating layer pool2/3x3_s2
I0403 18:42:09.265626 23250 net.cpp:91] Creating Layer pool2/3x3_s2
I0403 18:42:09.265645 23250 net.cpp:425] pool2/3x3_s2 <- conv2/norm2
I0403 18:42:09.265671 23250 net.cpp:399] pool2/3x3_s2 -> pool2/3x3_s2
I0403 18:42:09.265734 23250 net.cpp:141] Setting up pool2/3x3_s2
I0403 18:42:09.265763 23250 net.cpp:148] Top shape: 24 192 28 28 (3612672)
I0403 18:42:09.265781 23250 net.cpp:156] Memory required for data: 433521696
I0403 18:42:09.265799 23250 layer_factory.hpp:77] Creating layer pool2/3x3_s2_pool2/3x3_s2_0_split
I0403 18:42:09.265822 23250 net.cpp:91] Creating Layer pool2/3x3_s2_pool2/3x3_s2_0_split
I0403 18:42:09.265843 23250 net.cpp:425] pool2/3x3_s2_pool2/3x3_s2_0_split <- pool2/3x3_s2
I0403 18:42:09.265864 23250 net.cpp:399] pool2/3x3_s2_pool2/3x3_s2_0_split -> pool2/3x3_s2_pool2/3x3_s2_0_split_0
I0403 18:42:09.265888 23250 net.cpp:399] pool2/3x3_s2_pool2/3x3_s2_0_split -> pool2/3x3_s2_pool2/3x3_s2_0_split_1
I0403 18:42:09.265918 23250 net.cpp:399] pool2/3x3_s2_pool2/3x3_s2_0_split -> pool2/3x3_s2_pool2/3x3_s2_0_split_2
I0403 18:42:09.265941 23250 net.cpp:399] pool2/3x3_s2_pool2/3x3_s2_0_split -> pool2/3x3_s2_pool2/3x3_s2_0_split_3
I0403 18:42:09.266026 23250 net.cpp:141] Setting up pool2/3x3_s2_pool2/3x3_s2_0_split
I0403 18:42:09.266053 23250 net.cpp:148] Top shape: 24 192 28 28 (3612672)
I0403 18:42:09.266073 23250 net.cpp:148] Top shape: 24 192 28 28 (3612672)
I0403 18:42:09.266091 23250 net.cpp:148] Top shape: 24 192 28 28 (3612672)
I0403 18:42:09.266110 23250 net.cpp:148] Top shape: 24 192 28 28 (3612672)
I0403 18:42:09.266126 23250 net.cpp:156] Memory required for data: 491324448
I0403 18:42:09.266144 23250 layer_factory.hpp:77] Creating layer inception_3a/1x1
I0403 18:42:09.266171 23250 net.cpp:91] Creating Layer inception_3a/1x1
I0403 18:42:09.266193 23250 net.cpp:425] inception_3a/1x1 <- pool2/3x3_s2_pool2/3x3_s2_0_split_0
I0403 18:42:09.266218 23250 net.cpp:399] inception_3a/1x1 -> inception_3a/1x1
I0403 18:42:09.268080 23250 net.cpp:141] Setting up inception_3a/1x1
I0403 18:42:09.268117 23250 net.cpp:148] Top shape: 24 64 28 28 (1204224)
I0403 18:42:09.268138 23250 net.cpp:156] Memory required for data: 496141344
I0403 18:42:09.268160 23250 layer_factory.hpp:77] Creating layer inception_3a/relu_1x1
I0403 18:42:09.268183 23250 net.cpp:91] Creating Layer inception_3a/relu_1x1
I0403 18:42:09.268229 23250 net.cpp:425] inception_3a/relu_1x1 <- inception_3a/1x1
I0403 18:42:09.268250 23250 net.cpp:386] inception_3a/relu_1x1 -> inception_3a/1x1 (in-place)
I0403 18:42:09.268460 23250 net.cpp:141] Setting up inception_3a/relu_1x1
I0403 18:42:09.268491 23250 net.cpp:148] Top shape: 24 64 28 28 (1204224)
I0403 18:42:09.268508 23250 net.cpp:156] Memory required for data: 500958240
I0403 18:42:09.268527 23250 layer_factory.hpp:77] Creating layer inception_3a/3x3_reduce
I0403 18:42:09.268570 23250 net.cpp:91] Creating Layer inception_3a/3x3_reduce
I0403 18:42:09.268594 23250 net.cpp:425] inception_3a/3x3_reduce <- pool2/3x3_s2_pool2/3x3_s2_0_split_1
I0403 18:42:09.268620 23250 net.cpp:399] inception_3a/3x3_reduce -> inception_3a/3x3_reduce
I0403 18:42:09.270642 23250 net.cpp:141] Setting up inception_3a/3x3_reduce
I0403 18:42:09.270678 23250 net.cpp:148] Top shape: 24 96 28 28 (1806336)
I0403 18:42:09.270697 23250 net.cpp:156] Memory required for data: 508183584
I0403 18:42:09.270723 23250 layer_factory.hpp:77] Creating layer inception_3a/relu_3x3_reduce
I0403 18:42:09.270769 23250 net.cpp:91] Creating Layer inception_3a/relu_3x3_reduce
I0403 18:42:09.270792 23250 net.cpp:425] inception_3a/relu_3x3_reduce <- inception_3a/3x3_reduce
I0403 18:42:09.270814 23250 net.cpp:386] inception_3a/relu_3x3_reduce -> inception_3a/3x3_reduce (in-place)
I0403 18:42:09.271039 23250 net.cpp:141] Setting up inception_3a/relu_3x3_reduce
I0403 18:42:09.271070 23250 net.cpp:148] Top shape: 24 96 28 28 (1806336)
I0403 18:42:09.271088 23250 net.cpp:156] Memory required for data: 515408928
I0403 18:42:09.271106 23250 layer_factory.hpp:77] Creating layer inception_3a/3x3
I0403 18:42:09.271133 23250 net.cpp:91] Creating Layer inception_3a/3x3
I0403 18:42:09.271155 23250 net.cpp:425] inception_3a/3x3 <- inception_3a/3x3_reduce
I0403 18:42:09.271181 23250 net.cpp:399] inception_3a/3x3 -> inception_3a/3x3
I0403 18:42:09.273177 23250 net.cpp:141] Setting up inception_3a/3x3
I0403 18:42:09.273211 23250 net.cpp:148] Top shape: 24 128 28 28 (2408448)
I0403 18:42:09.273231 23250 net.cpp:156] Memory required for data: 525042720
I0403 18:42:09.273254 23250 layer_factory.hpp:77] Creating layer inception_3a/relu_3x3
I0403 18:42:09.273279 23250 net.cpp:91] Creating Layer inception_3a/relu_3x3
I0403 18:42:09.273303 23250 net.cpp:425] inception_3a/relu_3x3 <- inception_3a/3x3
I0403 18:42:09.273322 23250 net.cpp:386] inception_3a/relu_3x3 -> inception_3a/3x3 (in-place)
I0403 18:42:09.273655 23250 net.cpp:141] Setting up inception_3a/relu_3x3
I0403 18:42:09.273687 23250 net.cpp:148] Top shape: 24 128 28 28 (2408448)
I0403 18:42:09.273706 23250 net.cpp:156] Memory required for data: 534676512
I0403 18:42:09.273725 23250 layer_factory.hpp:77] Creating layer inception_3a/5x5_reduce
I0403 18:42:09.273751 23250 net.cpp:91] Creating Layer inception_3a/5x5_reduce
I0403 18:42:09.273773 23250 net.cpp:425] inception_3a/5x5_reduce <- pool2/3x3_s2_pool2/3x3_s2_0_split_2
I0403 18:42:09.273798 23250 net.cpp:399] inception_3a/5x5_reduce -> inception_3a/5x5_reduce
I0403 18:42:09.274973 23250 net.cpp:141] Setting up inception_3a/5x5_reduce
I0403 18:42:09.275007 23250 net.cpp:148] Top shape: 24 16 28 28 (301056)
I0403 18:42:09.275027 23250 net.cpp:156] Memory required for data: 535880736
I0403 18:42:09.275051 23250 layer_factory.hpp:77] Creating layer inception_3a/relu_5x5_reduce
I0403 18:42:09.275076 23250 net.cpp:91] Creating Layer inception_3a/relu_5x5_reduce
I0403 18:42:09.275096 23250 net.cpp:425] inception_3a/relu_5x5_reduce <- inception_3a/5x5_reduce
I0403 18:42:09.275118 23250 net.cpp:386] inception_3a/relu_5x5_reduce -> inception_3a/5x5_reduce (in-place)
I0403 18:42:09.275466 23250 net.cpp:141] Setting up inception_3a/relu_5x5_reduce
I0403 18:42:09.275501 23250 net.cpp:148] Top shape: 24 16 28 28 (301056)
I0403 18:42:09.275521 23250 net.cpp:156] Memory required for data: 537084960
I0403 18:42:09.275544 23250 layer_factory.hpp:77] Creating layer inception_3a/5x5
I0403 18:42:09.275574 23250 net.cpp:91] Creating Layer inception_3a/5x5
I0403 18:42:09.275596 23250 net.cpp:425] inception_3a/5x5 <- inception_3a/5x5_reduce
I0403 18:42:09.275619 23250 net.cpp:399] inception_3a/5x5 -> inception_3a/5x5
I0403 18:42:09.276849 23250 net.cpp:141] Setting up inception_3a/5x5
I0403 18:42:09.276882 23250 net.cpp:148] Top shape: 24 32 28 28 (602112)
I0403 18:42:09.276901 23250 net.cpp:156] Memory required for data: 539493408
I0403 18:42:09.276923 23250 layer_factory.hpp:77] Creating layer inception_3a/relu_5x5
I0403 18:42:09.276947 23250 net.cpp:91] Creating Layer inception_3a/relu_5x5
I0403 18:42:09.276968 23250 net.cpp:425] inception_3a/relu_5x5 <- inception_3a/5x5
I0403 18:42:09.276989 23250 net.cpp:386] inception_3a/relu_5x5 -> inception_3a/5x5 (in-place)
I0403 18:42:09.277204 23250 net.cpp:141] Setting up inception_3a/relu_5x5
I0403 18:42:09.277235 23250 net.cpp:148] Top shape: 24 32 28 28 (602112)
I0403 18:42:09.277253 23250 net.cpp:156] Memory required for data: 541901856
I0403 18:42:09.277271 23250 layer_factory.hpp:77] Creating layer inception_3a/pool
I0403 18:42:09.277294 23250 net.cpp:91] Creating Layer inception_3a/pool
I0403 18:42:09.277333 23250 net.cpp:425] inception_3a/pool <- pool2/3x3_s2_pool2/3x3_s2_0_split_3
I0403 18:42:09.277357 23250 net.cpp:399] inception_3a/pool -> inception_3a/pool
I0403 18:42:09.277428 23250 net.cpp:141] Setting up inception_3a/pool
I0403 18:42:09.277457 23250 net.cpp:148] Top shape: 24 192 28 28 (3612672)
I0403 18:42:09.277475 23250 net.cpp:156] Memory required for data: 556352544
I0403 18:42:09.277493 23250 layer_factory.hpp:77] Creating layer inception_3a/pool_proj
I0403 18:42:09.277519 23250 net.cpp:91] Creating Layer inception_3a/pool_proj
I0403 18:42:09.277546 23250 net.cpp:425] inception_3a/pool_proj <- inception_3a/pool
I0403 18:42:09.277575 23250 net.cpp:399] inception_3a/pool_proj -> inception_3a/pool_proj
I0403 18:42:09.278739 23250 net.cpp:141] Setting up inception_3a/pool_proj
I0403 18:42:09.278777 23250 net.cpp:148] Top shape: 24 32 28 28 (602112)
I0403 18:42:09.278797 23250 net.cpp:156] Memory required for data: 558760992
I0403 18:42:09.278823 23250 layer_factory.hpp:77] Creating layer inception_3a/relu_pool_proj
I0403 18:42:09.278851 23250 net.cpp:91] Creating Layer inception_3a/relu_pool_proj
I0403 18:42:09.278872 23250 net.cpp:425] inception_3a/relu_pool_proj <- inception_3a/pool_proj
I0403 18:42:09.278893 23250 net.cpp:386] inception_3a/relu_pool_proj -> inception_3a/pool_proj (in-place)
I0403 18:42:09.279218 23250 net.cpp:141] Setting up inception_3a/relu_pool_proj
I0403 18:42:09.279250 23250 net.cpp:148] Top shape: 24 32 28 28 (602112)
I0403 18:42:09.279268 23250 net.cpp:156] Memory required for data: 561169440
I0403 18:42:09.279287 23250 layer_factory.hpp:77] Creating layer inception_3a/output
I0403 18:42:09.279309 23250 net.cpp:91] Creating Layer inception_3a/output
I0403 18:42:09.279332 23250 net.cpp:425] inception_3a/output <- inception_3a/1x1
I0403 18:42:09.279352 23250 net.cpp:425] inception_3a/output <- inception_3a/3x3
I0403 18:42:09.279371 23250 net.cpp:425] inception_3a/output <- inception_3a/5x5
I0403 18:42:09.279391 23250 net.cpp:425] inception_3a/output <- inception_3a/pool_proj
I0403 18:42:09.279412 23250 net.cpp:399] inception_3a/output -> inception_3a/output
I0403 18:42:09.279467 23250 net.cpp:141] Setting up inception_3a/output
I0403 18:42:09.279500 23250 net.cpp:148] Top shape: 24 256 28 28 (4816896)
I0403 18:42:09.279518 23250 net.cpp:156] Memory required for data: 580437024
I0403 18:42:09.279542 23250 layer_factory.hpp:77] Creating layer inception_3a/output_inception_3a/output_0_split
I0403 18:42:09.279566 23250 net.cpp:91] Creating Layer inception_3a/output_inception_3a/output_0_split
I0403 18:42:09.279584 23250 net.cpp:425] inception_3a/output_inception_3a/output_0_split <- inception_3a/output
I0403 18:42:09.279608 23250 net.cpp:399] inception_3a/output_inception_3a/output_0_split -> inception_3a/output_inception_3a/output_0_split_0
I0403 18:42:09.279633 23250 net.cpp:399] inception_3a/output_inception_3a/output_0_split -> inception_3a/output_inception_3a/output_0_split_1
I0403 18:42:09.279661 23250 net.cpp:399] inception_3a/output_inception_3a/output_0_split -> inception_3a/output_inception_3a/output_0_split_2
I0403 18:42:09.279687 23250 net.cpp:399] inception_3a/output_inception_3a/output_0_split -> inception_3a/output_inception_3a/output_0_split_3
I0403 18:42:09.279778 23250 net.cpp:141] Setting up inception_3a/output_inception_3a/output_0_split
I0403 18:42:09.279806 23250 net.cpp:148] Top shape: 24 256 28 28 (4816896)
I0403 18:42:09.279825 23250 net.cpp:148] Top shape: 24 256 28 28 (4816896)
I0403 18:42:09.279844 23250 net.cpp:148] Top shape: 24 256 28 28 (4816896)
I0403 18:42:09.279863 23250 net.cpp:148] Top shape: 24 256 28 28 (4816896)
I0403 18:42:09.279881 23250 net.cpp:156] Memory required for data: 657507360
I0403 18:42:09.279897 23250 layer_factory.hpp:77] Creating layer inception_3b/1x1
I0403 18:42:09.279923 23250 net.cpp:91] Creating Layer inception_3b/1x1
I0403 18:42:09.279944 23250 net.cpp:425] inception_3b/1x1 <- inception_3a/output_inception_3a/output_0_split_0
I0403 18:42:09.279970 23250 net.cpp:399] inception_3b/1x1 -> inception_3b/1x1
I0403 18:42:09.281365 23250 net.cpp:141] Setting up inception_3b/1x1
I0403 18:42:09.281414 23250 net.cpp:148] Top shape: 24 128 28 28 (2408448)
I0403 18:42:09.281435 23250 net.cpp:156] Memory required for data: 667141152
I0403 18:42:09.281456 23250 layer_factory.hpp:77] Creating layer inception_3b/relu_1x1
I0403 18:42:09.281479 23250 net.cpp:91] Creating Layer inception_3b/relu_1x1
I0403 18:42:09.281500 23250 net.cpp:425] inception_3b/relu_1x1 <- inception_3b/1x1
I0403 18:42:09.281528 23250 net.cpp:386] inception_3b/relu_1x1 -> inception_3b/1x1 (in-place)
I0403 18:42:09.281755 23250 net.cpp:141] Setting up inception_3b/relu_1x1
I0403 18:42:09.281786 23250 net.cpp:148] Top shape: 24 128 28 28 (2408448)
I0403 18:42:09.281805 23250 net.cpp:156] Memory required for data: 676774944
I0403 18:42:09.281822 23250 layer_factory.hpp:77] Creating layer inception_3b/3x3_reduce
I0403 18:42:09.281849 23250 net.cpp:91] Creating Layer inception_3b/3x3_reduce
I0403 18:42:09.281872 23250 net.cpp:425] inception_3b/3x3_reduce <- inception_3a/output_inception_3a/output_0_split_1
I0403 18:42:09.281898 23250 net.cpp:399] inception_3b/3x3_reduce -> inception_3b/3x3_reduce
I0403 18:42:09.283285 23250 net.cpp:141] Setting up inception_3b/3x3_reduce
I0403 18:42:09.283323 23250 net.cpp:148] Top shape: 24 128 28 28 (2408448)
I0403 18:42:09.283342 23250 net.cpp:156] Memory required for data: 686408736
I0403 18:42:09.283365 23250 layer_factory.hpp:77] Creating layer inception_3b/relu_3x3_reduce
I0403 18:42:09.283388 23250 net.cpp:91] Creating Layer inception_3b/relu_3x3_reduce
I0403 18:42:09.283409 23250 net.cpp:425] inception_3b/relu_3x3_reduce <- inception_3b/3x3_reduce
I0403 18:42:09.283432 23250 net.cpp:386] inception_3b/relu_3x3_reduce -> inception_3b/3x3_reduce (in-place)
I0403 18:42:09.283648 23250 net.cpp:141] Setting up inception_3b/relu_3x3_reduce
I0403 18:42:09.283679 23250 net.cpp:148] Top shape: 24 128 28 28 (2408448)
I0403 18:42:09.283696 23250 net.cpp:156] Memory required for data: 696042528
I0403 18:42:09.283713 23250 layer_factory.hpp:77] Creating layer inception_3b/3x3
I0403 18:42:09.283746 23250 net.cpp:91] Creating Layer inception_3b/3x3
I0403 18:42:09.283768 23250 net.cpp:425] inception_3b/3x3 <- inception_3b/3x3_reduce
I0403 18:42:09.283792 23250 net.cpp:399] inception_3b/3x3 -> inception_3b/3x3
I0403 18:42:09.287330 23250 net.cpp:141] Setting up inception_3b/3x3
I0403 18:42:09.287366 23250 net.cpp:148] Top shape: 24 192 28 28 (3612672)
I0403 18:42:09.287386 23250 net.cpp:156] Memory required for data: 710493216
I0403 18:42:09.287408 23250 layer_factory.hpp:77] Creating layer inception_3b/relu_3x3
I0403 18:42:09.287433 23250 net.cpp:91] Creating Layer inception_3b/relu_3x3
I0403 18:42:09.287454 23250 net.cpp:425] inception_3b/relu_3x3 <- inception_3b/3x3
I0403 18:42:09.287475 23250 net.cpp:386] inception_3b/relu_3x3 -> inception_3b/3x3 (in-place)
I0403 18:42:09.287818 23250 net.cpp:141] Setting up inception_3b/relu_3x3
I0403 18:42:09.287850 23250 net.cpp:148] Top shape: 24 192 28 28 (3612672)
I0403 18:42:09.287870 23250 net.cpp:156] Memory required for data: 724943904
I0403 18:42:09.287889 23250 layer_factory.hpp:77] Creating layer inception_3b/5x5_reduce
I0403 18:42:09.287916 23250 net.cpp:91] Creating Layer inception_3b/5x5_reduce
I0403 18:42:09.287937 23250 net.cpp:425] inception_3b/5x5_reduce <- inception_3a/output_inception_3a/output_0_split_2
I0403 18:42:09.287966 23250 net.cpp:399] inception_3b/5x5_reduce -> inception_3b/5x5_reduce
I0403 18:42:09.289173 23250 net.cpp:141] Setting up inception_3b/5x5_reduce
I0403 18:42:09.289208 23250 net.cpp:148] Top shape: 24 32 28 28 (602112)
I0403 18:42:09.289229 23250 net.cpp:156] Memory required for data: 727352352
I0403 18:42:09.289252 23250 layer_factory.hpp:77] Creating layer inception_3b/relu_5x5_reduce
I0403 18:42:09.289276 23250 net.cpp:91] Creating Layer inception_3b/relu_5x5_reduce
I0403 18:42:09.289299 23250 net.cpp:425] inception_3b/relu_5x5_reduce <- inception_3b/5x5_reduce
I0403 18:42:09.289319 23250 net.cpp:386] inception_3b/relu_5x5_reduce -> inception_3b/5x5_reduce (in-place)
I0403 18:42:09.289566 23250 net.cpp:141] Setting up inception_3b/relu_5x5_reduce
I0403 18:42:09.289597 23250 net.cpp:148] Top shape: 24 32 28 28 (602112)
I0403 18:42:09.289616 23250 net.cpp:156] Memory required for data: 729760800
I0403 18:42:09.289634 23250 layer_factory.hpp:77] Creating layer inception_3b/5x5
I0403 18:42:09.289664 23250 net.cpp:91] Creating Layer inception_3b/5x5
I0403 18:42:09.289685 23250 net.cpp:425] inception_3b/5x5 <- inception_3b/5x5_reduce
I0403 18:42:09.289707 23250 net.cpp:399] inception_3b/5x5 -> inception_3b/5x5
I0403 18:42:09.292098 23250 net.cpp:141] Setting up inception_3b/5x5
I0403 18:42:09.292136 23250 net.cpp:148] Top shape: 24 96 28 28 (1806336)
I0403 18:42:09.292157 23250 net.cpp:156] Memory required for data: 736986144
I0403 18:42:09.292179 23250 layer_factory.hpp:77] Creating layer inception_3b/relu_5x5
I0403 18:42:09.292201 23250 net.cpp:91] Creating Layer inception_3b/relu_5x5
I0403 18:42:09.292222 23250 net.cpp:425] inception_3b/relu_5x5 <- inception_3b/5x5
I0403 18:42:09.292245 23250 net.cpp:386] inception_3b/relu_5x5 -> inception_3b/5x5 (in-place)
I0403 18:42:09.292479 23250 net.cpp:141] Setting up inception_3b/relu_5x5
I0403 18:42:09.292511 23250 net.cpp:148] Top shape: 24 96 28 28 (1806336)
I0403 18:42:09.292529 23250 net.cpp:156] Memory required for data: 744211488
I0403 18:42:09.292563 23250 layer_factory.hpp:77] Creating layer inception_3b/pool
I0403 18:42:09.292587 23250 net.cpp:91] Creating Layer inception_3b/pool
I0403 18:42:09.292608 23250 net.cpp:425] inception_3b/pool <- inception_3a/output_inception_3a/output_0_split_3
I0403 18:42:09.292631 23250 net.cpp:399] inception_3b/pool -> inception_3b/pool
I0403 18:42:09.292702 23250 net.cpp:141] Setting up inception_3b/pool
I0403 18:42:09.292732 23250 net.cpp:148] Top shape: 24 256 28 28 (4816896)
I0403 18:42:09.292749 23250 net.cpp:156] Memory required for data: 763479072
I0403 18:42:09.292767 23250 layer_factory.hpp:77] Creating layer inception_3b/pool_proj
I0403 18:42:09.292793 23250 net.cpp:91] Creating Layer inception_3b/pool_proj
I0403 18:42:09.292815 23250 net.cpp:425] inception_3b/pool_proj <- inception_3b/pool
I0403 18:42:09.292842 23250 net.cpp:399] inception_3b/pool_proj -> inception_3b/pool_proj
I0403 18:42:09.294121 23250 net.cpp:141] Setting up inception_3b/pool_proj
I0403 18:42:09.294155 23250 net.cpp:148] Top shape: 24 64 28 28 (1204224)
I0403 18:42:09.294175 23250 net.cpp:156] Memory required for data: 768295968
I0403 18:42:09.294198 23250 layer_factory.hpp:77] Creating layer inception_3b/relu_pool_proj
I0403 18:42:09.294226 23250 net.cpp:91] Creating Layer inception_3b/relu_pool_proj
I0403 18:42:09.294248 23250 net.cpp:425] inception_3b/relu_pool_proj <- inception_3b/pool_proj
I0403 18:42:09.294270 23250 net.cpp:386] inception_3b/relu_pool_proj -> inception_3b/pool_proj (in-place)
I0403 18:42:09.294745 23250 net.cpp:141] Setting up inception_3b/relu_pool_proj
I0403 18:42:09.294778 23250 net.cpp:148] Top shape: 24 64 28 28 (1204224)
I0403 18:42:09.294797 23250 net.cpp:156] Memory required for data: 773112864
I0403 18:42:09.294816 23250 layer_factory.hpp:77] Creating layer inception_3b/output
I0403 18:42:09.294845 23250 net.cpp:91] Creating Layer inception_3b/output
I0403 18:42:09.294865 23250 net.cpp:425] inception_3b/output <- inception_3b/1x1
I0403 18:42:09.294886 23250 net.cpp:425] inception_3b/output <- inception_3b/3x3
I0403 18:42:09.294905 23250 net.cpp:425] inception_3b/output <- inception_3b/5x5
I0403 18:42:09.294924 23250 net.cpp:425] inception_3b/output <- inception_3b/pool_proj
I0403 18:42:09.294945 23250 net.cpp:399] inception_3b/output -> inception_3b/output
I0403 18:42:09.294998 23250 net.cpp:141] Setting up inception_3b/output
I0403 18:42:09.295027 23250 net.cpp:148] Top shape: 24 480 28 28 (9031680)
I0403 18:42:09.295044 23250 net.cpp:156] Memory required for data: 809239584
I0403 18:42:09.295061 23250 layer_factory.hpp:77] Creating layer pool3/3x3_s2
I0403 18:42:09.295083 23250 net.cpp:91] Creating Layer pool3/3x3_s2
I0403 18:42:09.295104 23250 net.cpp:425] pool3/3x3_s2 <- inception_3b/output
I0403 18:42:09.295146 23250 net.cpp:399] pool3/3x3_s2 -> pool3/3x3_s2
I0403 18:42:09.295218 23250 net.cpp:141] Setting up pool3/3x3_s2
I0403 18:42:09.295249 23250 net.cpp:148] Top shape: 24 480 14 14 (2257920)
I0403 18:42:09.295267 23250 net.cpp:156] Memory required for data: 818271264
I0403 18:42:09.295286 23250 layer_factory.hpp:77] Creating layer pool3/3x3_s2_pool3/3x3_s2_0_split
I0403 18:42:09.295306 23250 net.cpp:91] Creating Layer pool3/3x3_s2_pool3/3x3_s2_0_split
I0403 18:42:09.295326 23250 net.cpp:425] pool3/3x3_s2_pool3/3x3_s2_0_split <- pool3/3x3_s2
I0403 18:42:09.295347 23250 net.cpp:399] pool3/3x3_s2_pool3/3x3_s2_0_split -> pool3/3x3_s2_pool3/3x3_s2_0_split_0
I0403 18:42:09.295374 23250 net.cpp:399] pool3/3x3_s2_pool3/3x3_s2_0_split -> pool3/3x3_s2_pool3/3x3_s2_0_split_1
I0403 18:42:09.295400 23250 net.cpp:399] pool3/3x3_s2_pool3/3x3_s2_0_split -> pool3/3x3_s2_pool3/3x3_s2_0_split_2
I0403 18:42:09.295424 23250 net.cpp:399] pool3/3x3_s2_pool3/3x3_s2_0_split -> pool3/3x3_s2_pool3/3x3_s2_0_split_3
I0403 18:42:09.295518 23250 net.cpp:141] Setting up pool3/3x3_s2_pool3/3x3_s2_0_split
I0403 18:42:09.295552 23250 net.cpp:148] Top shape: 24 480 14 14 (2257920)
I0403 18:42:09.295575 23250 net.cpp:148] Top shape: 24 480 14 14 (2257920)
I0403 18:42:09.295594 23250 net.cpp:148] Top shape: 24 480 14 14 (2257920)
I0403 18:42:09.295613 23250 net.cpp:148] Top shape: 24 480 14 14 (2257920)
I0403 18:42:09.295629 23250 net.cpp:156] Memory required for data: 854397984
I0403 18:42:09.295646 23250 layer_factory.hpp:77] Creating layer inception_4a/1x1
I0403 18:42:09.295675 23250 net.cpp:91] Creating Layer inception_4a/1x1
I0403 18:42:09.295697 23250 net.cpp:425] inception_4a/1x1 <- pool3/3x3_s2_pool3/3x3_s2_0_split_0
I0403 18:42:09.295720 23250 net.cpp:399] inception_4a/1x1 -> inception_4a/1x1
I0403 18:42:09.297662 23250 net.cpp:141] Setting up inception_4a/1x1
I0403 18:42:09.297699 23250 net.cpp:148] Top shape: 24 192 14 14 (903168)
I0403 18:42:09.297719 23250 net.cpp:156] Memory required for data: 858010656
I0403 18:42:09.297741 23250 layer_factory.hpp:77] Creating layer inception_4a/relu_1x1
I0403 18:42:09.297763 23250 net.cpp:91] Creating Layer inception_4a/relu_1x1
I0403 18:42:09.297783 23250 net.cpp:425] inception_4a/relu_1x1 <- inception_4a/1x1
I0403 18:42:09.297806 23250 net.cpp:386] inception_4a/relu_1x1 -> inception_4a/1x1 (in-place)
I0403 18:42:09.298023 23250 net.cpp:141] Setting up inception_4a/relu_1x1
I0403 18:42:09.298053 23250 net.cpp:148] Top shape: 24 192 14 14 (903168)
I0403 18:42:09.298071 23250 net.cpp:156] Memory required for data: 861623328
I0403 18:42:09.298089 23250 layer_factory.hpp:77] Creating layer inception_4a/3x3_reduce
I0403 18:42:09.298116 23250 net.cpp:91] Creating Layer inception_4a/3x3_reduce
I0403 18:42:09.298138 23250 net.cpp:425] inception_4a/3x3_reduce <- pool3/3x3_s2_pool3/3x3_s2_0_split_1
I0403 18:42:09.298163 23250 net.cpp:399] inception_4a/3x3_reduce -> inception_4a/3x3_reduce
I0403 18:42:09.299726 23250 net.cpp:141] Setting up inception_4a/3x3_reduce
I0403 18:42:09.299763 23250 net.cpp:148] Top shape: 24 96 14 14 (451584)
I0403 18:42:09.299784 23250 net.cpp:156] Memory required for data: 863429664
I0403 18:42:09.299813 23250 layer_factory.hpp:77] Creating layer inception_4a/relu_3x3_reduce
I0403 18:42:09.299847 23250 net.cpp:91] Creating Layer inception_4a/relu_3x3_reduce
I0403 18:42:09.299870 23250 net.cpp:425] inception_4a/relu_3x3_reduce <- inception_4a/3x3_reduce
I0403 18:42:09.299891 23250 net.cpp:386] inception_4a/relu_3x3_reduce -> inception_4a/3x3_reduce (in-place)
I0403 18:42:09.300104 23250 net.cpp:141] Setting up inception_4a/relu_3x3_reduce
I0403 18:42:09.300135 23250 net.cpp:148] Top shape: 24 96 14 14 (451584)
I0403 18:42:09.300154 23250 net.cpp:156] Memory required for data: 865236000
I0403 18:42:09.300173 23250 layer_factory.hpp:77] Creating layer inception_4a/3x3
I0403 18:42:09.300199 23250 net.cpp:91] Creating Layer inception_4a/3x3
I0403 18:42:09.300220 23250 net.cpp:425] inception_4a/3x3 <- inception_4a/3x3_reduce
I0403 18:42:09.300246 23250 net.cpp:399] inception_4a/3x3 -> inception_4a/3x3
I0403 18:42:09.303510 23250 net.cpp:141] Setting up inception_4a/3x3
I0403 18:42:09.303551 23250 net.cpp:148] Top shape: 24 208 14 14 (978432)
I0403 18:42:09.303571 23250 net.cpp:156] Memory required for data: 869149728
I0403 18:42:09.303594 23250 layer_factory.hpp:77] Creating layer inception_4a/relu_3x3
I0403 18:42:09.303617 23250 net.cpp:91] Creating Layer inception_4a/relu_3x3
I0403 18:42:09.303637 23250 net.cpp:425] inception_4a/relu_3x3 <- inception_4a/3x3
I0403 18:42:09.303659 23250 net.cpp:386] inception_4a/relu_3x3 -> inception_4a/3x3 (in-place)
I0403 18:42:09.303997 23250 net.cpp:141] Setting up inception_4a/relu_3x3
I0403 18:42:09.304030 23250 net.cpp:148] Top shape: 24 208 14 14 (978432)
I0403 18:42:09.304049 23250 net.cpp:156] Memory required for data: 873063456
I0403 18:42:09.304066 23250 layer_factory.hpp:77] Creating layer inception_4a/5x5_reduce
I0403 18:42:09.304095 23250 net.cpp:91] Creating Layer inception_4a/5x5_reduce
I0403 18:42:09.304116 23250 net.cpp:425] inception_4a/5x5_reduce <- pool3/3x3_s2_pool3/3x3_s2_0_split_2
I0403 18:42:09.304142 23250 net.cpp:399] inception_4a/5x5_reduce -> inception_4a/5x5_reduce
I0403 18:42:09.305389 23250 net.cpp:141] Setting up inception_4a/5x5_reduce
I0403 18:42:09.305423 23250 net.cpp:148] Top shape: 24 16 14 14 (75264)
I0403 18:42:09.305444 23250 net.cpp:156] Memory required for data: 873364512
I0403 18:42:09.305465 23250 layer_factory.hpp:77] Creating layer inception_4a/relu_5x5_reduce
I0403 18:42:09.305490 23250 net.cpp:91] Creating Layer inception_4a/relu_5x5_reduce
I0403 18:42:09.305510 23250 net.cpp:425] inception_4a/relu_5x5_reduce <- inception_4a/5x5_reduce
I0403 18:42:09.305531 23250 net.cpp:386] inception_4a/relu_5x5_reduce -> inception_4a/5x5_reduce (in-place)
I0403 18:42:09.305752 23250 net.cpp:141] Setting up inception_4a/relu_5x5_reduce
I0403 18:42:09.305783 23250 net.cpp:148] Top shape: 24 16 14 14 (75264)
I0403 18:42:09.305801 23250 net.cpp:156] Memory required for data: 873665568
I0403 18:42:09.305819 23250 layer_factory.hpp:77] Creating layer inception_4a/5x5
I0403 18:42:09.305846 23250 net.cpp:91] Creating Layer inception_4a/5x5
I0403 18:42:09.305868 23250 net.cpp:425] inception_4a/5x5 <- inception_4a/5x5_reduce
I0403 18:42:09.305894 23250 net.cpp:399] inception_4a/5x5 -> inception_4a/5x5
I0403 18:42:09.307199 23250 net.cpp:141] Setting up inception_4a/5x5
I0403 18:42:09.307232 23250 net.cpp:148] Top shape: 24 48 14 14 (225792)
I0403 18:42:09.307252 23250 net.cpp:156] Memory required for data: 874568736
I0403 18:42:09.307276 23250 layer_factory.hpp:77] Creating layer inception_4a/relu_5x5
I0403 18:42:09.307301 23250 net.cpp:91] Creating Layer inception_4a/relu_5x5
I0403 18:42:09.307320 23250 net.cpp:425] inception_4a/relu_5x5 <- inception_4a/5x5
I0403 18:42:09.307343 23250 net.cpp:386] inception_4a/relu_5x5 -> inception_4a/5x5 (in-place)
I0403 18:42:09.307565 23250 net.cpp:141] Setting up inception_4a/relu_5x5
I0403 18:42:09.307598 23250 net.cpp:148] Top shape: 24 48 14 14 (225792)
I0403 18:42:09.307618 23250 net.cpp:156] Memory required for data: 875471904
I0403 18:42:09.307636 23250 layer_factory.hpp:77] Creating layer inception_4a/pool
I0403 18:42:09.307657 23250 net.cpp:91] Creating Layer inception_4a/pool
I0403 18:42:09.307677 23250 net.cpp:425] inception_4a/pool <- pool3/3x3_s2_pool3/3x3_s2_0_split_3
I0403 18:42:09.307703 23250 net.cpp:399] inception_4a/pool -> inception_4a/pool
I0403 18:42:09.307776 23250 net.cpp:141] Setting up inception_4a/pool
I0403 18:42:09.307806 23250 net.cpp:148] Top shape: 24 480 14 14 (2257920)
I0403 18:42:09.307823 23250 net.cpp:156] Memory required for data: 884503584
I0403 18:42:09.307840 23250 layer_factory.hpp:77] Creating layer inception_4a/pool_proj
I0403 18:42:09.307868 23250 net.cpp:91] Creating Layer inception_4a/pool_proj
I0403 18:42:09.307890 23250 net.cpp:425] inception_4a/pool_proj <- inception_4a/pool
I0403 18:42:09.307915 23250 net.cpp:399] inception_4a/pool_proj -> inception_4a/pool_proj
I0403 18:42:09.309329 23250 net.cpp:141] Setting up inception_4a/pool_proj
I0403 18:42:09.309368 23250 net.cpp:148] Top shape: 24 64 14 14 (301056)
I0403 18:42:09.309406 23250 net.cpp:156] Memory required for data: 885707808
I0403 18:42:09.309430 23250 layer_factory.hpp:77] Creating layer inception_4a/relu_pool_proj
I0403 18:42:09.309453 23250 net.cpp:91] Creating Layer inception_4a/relu_pool_proj
I0403 18:42:09.309473 23250 net.cpp:425] inception_4a/relu_pool_proj <- inception_4a/pool_proj
I0403 18:42:09.309495 23250 net.cpp:386] inception_4a/relu_pool_proj -> inception_4a/pool_proj (in-place)
I0403 18:42:09.309852 23250 net.cpp:141] Setting up inception_4a/relu_pool_proj
I0403 18:42:09.309886 23250 net.cpp:148] Top shape: 24 64 14 14 (301056)
I0403 18:42:09.309906 23250 net.cpp:156] Memory required for data: 886912032
I0403 18:42:09.309924 23250 layer_factory.hpp:77] Creating layer inception_4a/output
I0403 18:42:09.309947 23250 net.cpp:91] Creating Layer inception_4a/output
I0403 18:42:09.309965 23250 net.cpp:425] inception_4a/output <- inception_4a/1x1
I0403 18:42:09.309986 23250 net.cpp:425] inception_4a/output <- inception_4a/3x3
I0403 18:42:09.310006 23250 net.cpp:425] inception_4a/output <- inception_4a/5x5
I0403 18:42:09.310026 23250 net.cpp:425] inception_4a/output <- inception_4a/pool_proj
I0403 18:42:09.310046 23250 net.cpp:399] inception_4a/output -> inception_4a/output
I0403 18:42:09.310101 23250 net.cpp:141] Setting up inception_4a/output
I0403 18:42:09.310129 23250 net.cpp:148] Top shape: 24 512 14 14 (2408448)
I0403 18:42:09.310148 23250 net.cpp:156] Memory required for data: 896545824
I0403 18:42:09.310165 23250 layer_factory.hpp:77] Creating layer inception_4a/output_inception_4a/output_0_split
I0403 18:42:09.310190 23250 net.cpp:91] Creating Layer inception_4a/output_inception_4a/output_0_split
I0403 18:42:09.310209 23250 net.cpp:425] inception_4a/output_inception_4a/output_0_split <- inception_4a/output
I0403 18:42:09.310231 23250 net.cpp:399] inception_4a/output_inception_4a/output_0_split -> inception_4a/output_inception_4a/output_0_split_0
I0403 18:42:09.310256 23250 net.cpp:399] inception_4a/output_inception_4a/output_0_split -> inception_4a/output_inception_4a/output_0_split_1
I0403 18:42:09.310281 23250 net.cpp:399] inception_4a/output_inception_4a/output_0_split -> inception_4a/output_inception_4a/output_0_split_2
I0403 18:42:09.310305 23250 net.cpp:399] inception_4a/output_inception_4a/output_0_split -> inception_4a/output_inception_4a/output_0_split_3
I0403 18:42:09.310333 23250 net.cpp:399] inception_4a/output_inception_4a/output_0_split -> inception_4a/output_inception_4a/output_0_split_4
I0403 18:42:09.310451 23250 net.cpp:141] Setting up inception_4a/output_inception_4a/output_0_split
I0403 18:42:09.310478 23250 net.cpp:148] Top shape: 24 512 14 14 (2408448)
I0403 18:42:09.310498 23250 net.cpp:148] Top shape: 24 512 14 14 (2408448)
I0403 18:42:09.310518 23250 net.cpp:148] Top shape: 24 512 14 14 (2408448)
I0403 18:42:09.310540 23250 net.cpp:148] Top shape: 24 512 14 14 (2408448)
I0403 18:42:09.310571 23250 net.cpp:148] Top shape: 24 512 14 14 (2408448)
I0403 18:42:09.310587 23250 net.cpp:156] Memory required for data: 944714784
I0403 18:42:09.310606 23250 layer_factory.hpp:77] Creating layer loss1/ave_pool
I0403 18:42:09.310627 23250 net.cpp:91] Creating Layer loss1/ave_pool
I0403 18:42:09.310650 23250 net.cpp:425] loss1/ave_pool <- inception_4a/output_inception_4a/output_0_split_0
I0403 18:42:09.310672 23250 net.cpp:399] loss1/ave_pool -> loss1/ave_pool
I0403 18:42:09.310920 23250 net.cpp:141] Setting up loss1/ave_pool
I0403 18:42:09.310958 23250 net.cpp:148] Top shape: 24 512 4 4 (196608)
I0403 18:42:09.310978 23250 net.cpp:156] Memory required for data: 945501216
I0403 18:42:09.310997 23250 layer_factory.hpp:77] Creating layer loss1/conv
I0403 18:42:09.311022 23250 net.cpp:91] Creating Layer loss1/conv
I0403 18:42:09.311043 23250 net.cpp:425] loss1/conv <- loss1/ave_pool
I0403 18:42:09.311065 23250 net.cpp:399] loss1/conv -> loss1/conv
I0403 18:42:09.312783 23250 net.cpp:141] Setting up loss1/conv
I0403 18:42:09.312819 23250 net.cpp:148] Top shape: 24 128 4 4 (49152)
I0403 18:42:09.312855 23250 net.cpp:156] Memory required for data: 945697824
I0403 18:42:09.312880 23250 layer_factory.hpp:77] Creating layer loss1/relu_conv
I0403 18:42:09.312903 23250 net.cpp:91] Creating Layer loss1/relu_conv
I0403 18:42:09.312923 23250 net.cpp:425] loss1/relu_conv <- loss1/conv
I0403 18:42:09.312947 23250 net.cpp:386] loss1/relu_conv -> loss1/conv (in-place)
I0403 18:42:09.313288 23250 net.cpp:141] Setting up loss1/relu_conv
I0403 18:42:09.313321 23250 net.cpp:148] Top shape: 24 128 4 4 (49152)
I0403 18:42:09.313339 23250 net.cpp:156] Memory required for data: 945894432
I0403 18:42:09.313359 23250 layer_factory.hpp:77] Creating layer loss1/fc
I0403 18:42:09.313386 23250 net.cpp:91] Creating Layer loss1/fc
I0403 18:42:09.313408 23250 net.cpp:425] loss1/fc <- loss1/conv
I0403 18:42:09.313434 23250 net.cpp:399] loss1/fc -> loss1/fc
I0403 18:42:09.335439 23250 net.cpp:141] Setting up loss1/fc
I0403 18:42:09.335479 23250 net.cpp:148] Top shape: 24 1024 (24576)
I0403 18:42:09.335500 23250 net.cpp:156] Memory required for data: 945992736
I0403 18:42:09.335522 23250 layer_factory.hpp:77] Creating layer loss1/relu_fc
I0403 18:42:09.335552 23250 net.cpp:91] Creating Layer loss1/relu_fc
I0403 18:42:09.335575 23250 net.cpp:425] loss1/relu_fc <- loss1/fc
I0403 18:42:09.335597 23250 net.cpp:386] loss1/relu_fc -> loss1/fc (in-place)
I0403 18:42:09.335824 23250 net.cpp:141] Setting up loss1/relu_fc
I0403 18:42:09.335855 23250 net.cpp:148] Top shape: 24 1024 (24576)
I0403 18:42:09.335875 23250 net.cpp:156] Memory required for data: 946091040
I0403 18:42:09.335892 23250 layer_factory.hpp:77] Creating layer loss1/drop_fc
I0403 18:42:09.335927 23250 net.cpp:91] Creating Layer loss1/drop_fc
I0403 18:42:09.335950 23250 net.cpp:425] loss1/drop_fc <- loss1/fc
I0403 18:42:09.335975 23250 net.cpp:386] loss1/drop_fc -> loss1/fc (in-place)
I0403 18:42:09.336036 23250 net.cpp:141] Setting up loss1/drop_fc
I0403 18:42:09.336066 23250 net.cpp:148] Top shape: 24 1024 (24576)
I0403 18:42:09.336083 23250 net.cpp:156] Memory required for data: 946189344
I0403 18:42:09.336102 23250 layer_factory.hpp:77] Creating layer loss1/classifier_plantvillage
I0403 18:42:09.336128 23250 net.cpp:91] Creating Layer loss1/classifier_plantvillage
I0403 18:42:09.336149 23250 net.cpp:425] loss1/classifier_plantvillage <- loss1/fc
I0403 18:42:09.336175 23250 net.cpp:399] loss1/classifier_plantvillage -> loss1/classifier_plantvillage
I0403 18:42:09.337272 23250 net.cpp:141] Setting up loss1/classifier_plantvillage
I0403 18:42:09.337311 23250 net.cpp:148] Top shape: 24 38 (912)
I0403 18:42:09.337332 23250 net.cpp:156] Memory required for data: 946192992
I0403 18:42:09.337354 23250 layer_factory.hpp:77] Creating layer loss1/classifier_plantvillage_loss1/classifier_plantvillage_0_split
I0403 18:42:09.337376 23250 net.cpp:91] Creating Layer loss1/classifier_plantvillage_loss1/classifier_plantvillage_0_split
I0403 18:42:09.337396 23250 net.cpp:425] loss1/classifier_plantvillage_loss1/classifier_plantvillage_0_split <- loss1/classifier_plantvillage
I0403 18:42:09.337421 23250 net.cpp:399] loss1/classifier_plantvillage_loss1/classifier_plantvillage_0_split -> loss1/classifier_plantvillage_loss1/classifier_plantvillage_0_split_0
I0403 18:42:09.337447 23250 net.cpp:399] loss1/classifier_plantvillage_loss1/classifier_plantvillage_0_split -> loss1/classifier_plantvillage_loss1/classifier_plantvillage_0_split_1
I0403 18:42:09.337472 23250 net.cpp:399] loss1/classifier_plantvillage_loss1/classifier_plantvillage_0_split -> loss1/classifier_plantvillage_loss1/classifier_plantvillage_0_split_2
I0403 18:42:09.337558 23250 net.cpp:141] Setting up loss1/classifier_plantvillage_loss1/classifier_plantvillage_0_split
I0403 18:42:09.337587 23250 net.cpp:148] Top shape: 24 38 (912)
I0403 18:42:09.337607 23250 net.cpp:148] Top shape: 24 38 (912)
I0403 18:42:09.337625 23250 net.cpp:148] Top shape: 24 38 (912)
I0403 18:42:09.337642 23250 net.cpp:156] Memory required for data: 946203936
I0403 18:42:09.337661 23250 layer_factory.hpp:77] Creating layer inception_4b/1x1
I0403 18:42:09.337688 23250 net.cpp:91] Creating Layer inception_4b/1x1
I0403 18:42:09.337728 23250 net.cpp:425] inception_4b/1x1 <- inception_4a/output_inception_4a/output_0_split_1
I0403 18:42:09.337754 23250 net.cpp:399] inception_4b/1x1 -> inception_4b/1x1
I0403 18:42:09.339748 23250 net.cpp:141] Setting up inception_4b/1x1
I0403 18:42:09.339783 23250 net.cpp:148] Top shape: 24 160 14 14 (752640)
I0403 18:42:09.339802 23250 net.cpp:156] Memory required for data: 949214496
I0403 18:42:09.339824 23250 layer_factory.hpp:77] Creating layer inception_4b/relu_1x1
I0403 18:42:09.339849 23250 net.cpp:91] Creating Layer inception_4b/relu_1x1
I0403 18:42:09.339870 23250 net.cpp:425] inception_4b/relu_1x1 <- inception_4b/1x1
I0403 18:42:09.339891 23250 net.cpp:386] inception_4b/relu_1x1 -> inception_4b/1x1 (in-place)
I0403 18:42:09.340109 23250 net.cpp:141] Setting up inception_4b/relu_1x1
I0403 18:42:09.340139 23250 net.cpp:148] Top shape: 24 160 14 14 (752640)
I0403 18:42:09.340157 23250 net.cpp:156] Memory required for data: 952225056
I0403 18:42:09.340174 23250 layer_factory.hpp:77] Creating layer inception_4b/3x3_reduce
I0403 18:42:09.340201 23250 net.cpp:91] Creating Layer inception_4b/3x3_reduce
I0403 18:42:09.340224 23250 net.cpp:425] inception_4b/3x3_reduce <- inception_4a/output_inception_4a/output_0_split_2
I0403 18:42:09.340253 23250 net.cpp:399] inception_4b/3x3_reduce -> inception_4b/3x3_reduce
I0403 18:42:09.341927 23250 net.cpp:141] Setting up inception_4b/3x3_reduce
I0403 18:42:09.341960 23250 net.cpp:148] Top shape: 24 112 14 14 (526848)
I0403 18:42:09.341979 23250 net.cpp:156] Memory required for data: 954332448
I0403 18:42:09.342001 23250 layer_factory.hpp:77] Creating layer inception_4b/relu_3x3_reduce
I0403 18:42:09.342025 23250 net.cpp:91] Creating Layer inception_4b/relu_3x3_reduce
I0403 18:42:09.342047 23250 net.cpp:425] inception_4b/relu_3x3_reduce <- inception_4b/3x3_reduce
I0403 18:42:09.342068 23250 net.cpp:386] inception_4b/relu_3x3_reduce -> inception_4b/3x3_reduce (in-place)
I0403 18:42:09.342411 23250 net.cpp:141] Setting up inception_4b/relu_3x3_reduce
I0403 18:42:09.342443 23250 net.cpp:148] Top shape: 24 112 14 14 (526848)
I0403 18:42:09.342461 23250 net.cpp:156] Memory required for data: 956439840
I0403 18:42:09.342479 23250 layer_factory.hpp:77] Creating layer inception_4b/3x3
I0403 18:42:09.342506 23250 net.cpp:91] Creating Layer inception_4b/3x3
I0403 18:42:09.342530 23250 net.cpp:425] inception_4b/3x3 <- inception_4b/3x3_reduce
I0403 18:42:09.342571 23250 net.cpp:399] inception_4b/3x3 -> inception_4b/3x3
I0403 18:42:09.346225 23250 net.cpp:141] Setting up inception_4b/3x3
I0403 18:42:09.346263 23250 net.cpp:148] Top shape: 24 224 14 14 (1053696)
I0403 18:42:09.346284 23250 net.cpp:156] Memory required for data: 960654624
I0403 18:42:09.346307 23250 layer_factory.hpp:77] Creating layer inception_4b/relu_3x3
I0403 18:42:09.346329 23250 net.cpp:91] Creating Layer inception_4b/relu_3x3
I0403 18:42:09.346350 23250 net.cpp:425] inception_4b/relu_3x3 <- inception_4b/3x3
I0403 18:42:09.346374 23250 net.cpp:386] inception_4b/relu_3x3 -> inception_4b/3x3 (in-place)
I0403 18:42:09.346607 23250 net.cpp:141] Setting up inception_4b/relu_3x3
I0403 18:42:09.346638 23250 net.cpp:148] Top shape: 24 224 14 14 (1053696)
I0403 18:42:09.346657 23250 net.cpp:156] Memory required for data: 964869408
I0403 18:42:09.346674 23250 layer_factory.hpp:77] Creating layer inception_4b/5x5_reduce
I0403 18:42:09.346703 23250 net.cpp:91] Creating Layer inception_4b/5x5_reduce
I0403 18:42:09.346725 23250 net.cpp:425] inception_4b/5x5_reduce <- inception_4a/output_inception_4a/output_0_split_3
I0403 18:42:09.346752 23250 net.cpp:399] inception_4b/5x5_reduce -> inception_4b/5x5_reduce
I0403 18:42:09.348083 23250 net.cpp:141] Setting up inception_4b/5x5_reduce
I0403 18:42:09.348117 23250 net.cpp:148] Top shape: 24 24 14 14 (112896)
I0403 18:42:09.348136 23250 net.cpp:156] Memory required for data: 965320992
I0403 18:42:09.348158 23250 layer_factory.hpp:77] Creating layer inception_4b/relu_5x5_reduce
I0403 18:42:09.348183 23250 net.cpp:91] Creating Layer inception_4b/relu_5x5_reduce
I0403 18:42:09.348222 23250 net.cpp:425] inception_4b/relu_5x5_reduce <- inception_4b/5x5_reduce
I0403 18:42:09.348244 23250 net.cpp:386] inception_4b/relu_5x5_reduce -> inception_4b/5x5_reduce (in-place)
I0403 18:42:09.348467 23250 net.cpp:141] Setting up inception_4b/relu_5x5_reduce
I0403 18:42:09.348501 23250 net.cpp:148] Top shape: 24 24 14 14 (112896)
I0403 18:42:09.348520 23250 net.cpp:156] Memory required for data: 965772576
I0403 18:42:09.348544 23250 layer_factory.hpp:77] Creating layer inception_4b/5x5
I0403 18:42:09.348573 23250 net.cpp:91] Creating Layer inception_4b/5x5
I0403 18:42:09.348594 23250 net.cpp:425] inception_4b/5x5 <- inception_4b/5x5_reduce
I0403 18:42:09.348619 23250 net.cpp:399] inception_4b/5x5 -> inception_4b/5x5
I0403 18:42:09.350116 23250 net.cpp:141] Setting up inception_4b/5x5
I0403 18:42:09.350150 23250 net.cpp:148] Top shape: 24 64 14 14 (301056)
I0403 18:42:09.350169 23250 net.cpp:156] Memory required for data: 966976800
I0403 18:42:09.350191 23250 layer_factory.hpp:77] Creating layer inception_4b/relu_5x5
I0403 18:42:09.350216 23250 net.cpp:91] Creating Layer inception_4b/relu_5x5
I0403 18:42:09.350239 23250 net.cpp:425] inception_4b/relu_5x5 <- inception_4b/5x5
I0403 18:42:09.350260 23250 net.cpp:386] inception_4b/relu_5x5 -> inception_4b/5x5 (in-place)
I0403 18:42:09.350613 23250 net.cpp:141] Setting up inception_4b/relu_5x5
I0403 18:42:09.350646 23250 net.cpp:148] Top shape: 24 64 14 14 (301056)
I0403 18:42:09.350666 23250 net.cpp:156] Memory required for data: 968181024
I0403 18:42:09.350682 23250 layer_factory.hpp:77] Creating layer inception_4b/pool
I0403 18:42:09.350705 23250 net.cpp:91] Creating Layer inception_4b/pool
I0403 18:42:09.350724 23250 net.cpp:425] inception_4b/pool <- inception_4a/output_inception_4a/output_0_split_4
I0403 18:42:09.350750 23250 net.cpp:399] inception_4b/pool -> inception_4b/pool
I0403 18:42:09.350831 23250 net.cpp:141] Setting up inception_4b/pool
I0403 18:42:09.350862 23250 net.cpp:148] Top shape: 24 512 14 14 (2408448)
I0403 18:42:09.350880 23250 net.cpp:156] Memory required for data: 977814816
I0403 18:42:09.350898 23250 layer_factory.hpp:77] Creating layer inception_4b/pool_proj
I0403 18:42:09.350924 23250 net.cpp:91] Creating Layer inception_4b/pool_proj
I0403 18:42:09.350945 23250 net.cpp:425] inception_4b/pool_proj <- inception_4b/pool
I0403 18:42:09.350967 23250 net.cpp:399] inception_4b/pool_proj -> inception_4b/pool_proj
I0403 18:42:09.352430 23250 net.cpp:141] Setting up inception_4b/pool_proj
I0403 18:42:09.352465 23250 net.cpp:148] Top shape: 24 64 14 14 (301056)
I0403 18:42:09.352485 23250 net.cpp:156] Memory required for data: 979019040
I0403 18:42:09.352507 23250 layer_factory.hpp:77] Creating layer inception_4b/relu_pool_proj
I0403 18:42:09.352532 23250 net.cpp:91] Creating Layer inception_4b/relu_pool_proj
I0403 18:42:09.352568 23250 net.cpp:425] inception_4b/relu_pool_proj <- inception_4b/pool_proj
I0403 18:42:09.352591 23250 net.cpp:386] inception_4b/relu_pool_proj -> inception_4b/pool_proj (in-place)
I0403 18:42:09.352813 23250 net.cpp:141] Setting up inception_4b/relu_pool_proj
I0403 18:42:09.352852 23250 net.cpp:148] Top shape: 24 64 14 14 (301056)
I0403 18:42:09.352869 23250 net.cpp:156] Memory required for data: 980223264
I0403 18:42:09.352887 23250 layer_factory.hpp:77] Creating layer inception_4b/output
I0403 18:42:09.352911 23250 net.cpp:91] Creating Layer inception_4b/output
I0403 18:42:09.352932 23250 net.cpp:425] inception_4b/output <- inception_4b/1x1
I0403 18:42:09.352952 23250 net.cpp:425] inception_4b/output <- inception_4b/3x3
I0403 18:42:09.352972 23250 net.cpp:425] inception_4b/output <- inception_4b/5x5
I0403 18:42:09.352991 23250 net.cpp:425] inception_4b/output <- inception_4b/pool_proj
I0403 18:42:09.353011 23250 net.cpp:399] inception_4b/output -> inception_4b/output
I0403 18:42:09.353070 23250 net.cpp:141] Setting up inception_4b/output
I0403 18:42:09.353098 23250 net.cpp:148] Top shape: 24 512 14 14 (2408448)
I0403 18:42:09.353116 23250 net.cpp:156] Memory required for data: 989857056
I0403 18:42:09.353152 23250 layer_factory.hpp:77] Creating layer inception_4b/output_inception_4b/output_0_split
I0403 18:42:09.353175 23250 net.cpp:91] Creating Layer inception_4b/output_inception_4b/output_0_split
I0403 18:42:09.353195 23250 net.cpp:425] inception_4b/output_inception_4b/output_0_split <- inception_4b/output
I0403 18:42:09.353220 23250 net.cpp:399] inception_4b/output_inception_4b/output_0_split -> inception_4b/output_inception_4b/output_0_split_0
I0403 18:42:09.353247 23250 net.cpp:399] inception_4b/output_inception_4b/output_0_split -> inception_4b/output_inception_4b/output_0_split_1
I0403 18:42:09.353272 23250 net.cpp:399] inception_4b/output_inception_4b/output_0_split -> inception_4b/output_inception_4b/output_0_split_2
I0403 18:42:09.353299 23250 net.cpp:399] inception_4b/output_inception_4b/output_0_split -> inception_4b/output_inception_4b/output_0_split_3
I0403 18:42:09.353402 23250 net.cpp:141] Setting up inception_4b/output_inception_4b/output_0_split
I0403 18:42:09.353433 23250 net.cpp:148] Top shape: 24 512 14 14 (2408448)
I0403 18:42:09.353456 23250 net.cpp:148] Top shape: 24 512 14 14 (2408448)
I0403 18:42:09.353474 23250 net.cpp:148] Top shape: 24 512 14 14 (2408448)
I0403 18:42:09.353493 23250 net.cpp:148] Top shape: 24 512 14 14 (2408448)
I0403 18:42:09.353512 23250 net.cpp:156] Memory required for data: 1028392224
I0403 18:42:09.353528 23250 layer_factory.hpp:77] Creating layer inception_4c/1x1
I0403 18:42:09.353561 23250 net.cpp:91] Creating Layer inception_4c/1x1
I0403 18:42:09.353585 23250 net.cpp:425] inception_4c/1x1 <- inception_4b/output_inception_4b/output_0_split_0
I0403 18:42:09.353610 23250 net.cpp:399] inception_4c/1x1 -> inception_4c/1x1
I0403 18:42:09.355376 23250 net.cpp:141] Setting up inception_4c/1x1
I0403 18:42:09.355412 23250 net.cpp:148] Top shape: 24 128 14 14 (602112)
I0403 18:42:09.355430 23250 net.cpp:156] Memory required for data: 1030800672
I0403 18:42:09.355453 23250 layer_factory.hpp:77] Creating layer inception_4c/relu_1x1
I0403 18:42:09.355479 23250 net.cpp:91] Creating Layer inception_4c/relu_1x1
I0403 18:42:09.355500 23250 net.cpp:425] inception_4c/relu_1x1 <- inception_4c/1x1
I0403 18:42:09.355523 23250 net.cpp:386] inception_4c/relu_1x1 -> inception_4c/1x1 (in-place)
I0403 18:42:09.355748 23250 net.cpp:141] Setting up inception_4c/relu_1x1
I0403 18:42:09.355779 23250 net.cpp:148] Top shape: 24 128 14 14 (602112)
I0403 18:42:09.355797 23250 net.cpp:156] Memory required for data: 1033209120
I0403 18:42:09.355814 23250 layer_factory.hpp:77] Creating layer inception_4c/3x3_reduce
I0403 18:42:09.355842 23250 net.cpp:91] Creating Layer inception_4c/3x3_reduce
I0403 18:42:09.355865 23250 net.cpp:425] inception_4c/3x3_reduce <- inception_4b/output_inception_4b/output_0_split_1
I0403 18:42:09.355891 23250 net.cpp:399] inception_4c/3x3_reduce -> inception_4c/3x3_reduce
I0403 18:42:09.358290 23250 net.cpp:141] Setting up inception_4c/3x3_reduce
I0403 18:42:09.358326 23250 net.cpp:148] Top shape: 24 128 14 14 (602112)
I0403 18:42:09.358345 23250 net.cpp:156] Memory required for data: 1035617568
I0403 18:42:09.358368 23250 layer_factory.hpp:77] Creating layer inception_4c/relu_3x3_reduce
I0403 18:42:09.358392 23250 net.cpp:91] Creating Layer inception_4c/relu_3x3_reduce
I0403 18:42:09.358412 23250 net.cpp:425] inception_4c/relu_3x3_reduce <- inception_4c/3x3_reduce
I0403 18:42:09.358435 23250 net.cpp:386] inception_4c/relu_3x3_reduce -> inception_4c/3x3_reduce (in-place)
I0403 18:42:09.358794 23250 net.cpp:141] Setting up inception_4c/relu_3x3_reduce
I0403 18:42:09.358829 23250 net.cpp:148] Top shape: 24 128 14 14 (602112)
I0403 18:42:09.358855 23250 net.cpp:156] Memory required for data: 1038026016
I0403 18:42:09.358875 23250 layer_factory.hpp:77] Creating layer inception_4c/3x3
I0403 18:42:09.358903 23250 net.cpp:91] Creating Layer inception_4c/3x3
I0403 18:42:09.358925 23250 net.cpp:425] inception_4c/3x3 <- inception_4c/3x3_reduce
I0403 18:42:09.358952 23250 net.cpp:399] inception_4c/3x3 -> inception_4c/3x3
I0403 18:42:09.363353 23250 net.cpp:141] Setting up inception_4c/3x3
I0403 18:42:09.363405 23250 net.cpp:148] Top shape: 24 256 14 14 (1204224)
I0403 18:42:09.363427 23250 net.cpp:156] Memory required for data: 1042842912
I0403 18:42:09.363464 23250 layer_factory.hpp:77] Creating layer inception_4c/relu_3x3
I0403 18:42:09.363493 23250 net.cpp:91] Creating Layer inception_4c/relu_3x3
I0403 18:42:09.363515 23250 net.cpp:425] inception_4c/relu_3x3 <- inception_4c/3x3
I0403 18:42:09.363543 23250 net.cpp:386] inception_4c/relu_3x3 -> inception_4c/3x3 (in-place)
I0403 18:42:09.363767 23250 net.cpp:141] Setting up inception_4c/relu_3x3
I0403 18:42:09.363797 23250 net.cpp:148] Top shape: 24 256 14 14 (1204224)
I0403 18:42:09.363816 23250 net.cpp:156] Memory required for data: 1047659808
I0403 18:42:09.363834 23250 layer_factory.hpp:77] Creating layer inception_4c/5x5_reduce
I0403 18:42:09.363862 23250 net.cpp:91] Creating Layer inception_4c/5x5_reduce
I0403 18:42:09.363883 23250 net.cpp:425] inception_4c/5x5_reduce <- inception_4b/output_inception_4b/output_0_split_2
I0403 18:42:09.363914 23250 net.cpp:399] inception_4c/5x5_reduce -> inception_4c/5x5_reduce
I0403 18:42:09.365277 23250 net.cpp:141] Setting up inception_4c/5x5_reduce
I0403 18:42:09.365311 23250 net.cpp:148] Top shape: 24 24 14 14 (112896)
I0403 18:42:09.365330 23250 net.cpp:156] Memory required for data: 1048111392
I0403 18:42:09.365353 23250 layer_factory.hpp:77] Creating layer inception_4c/relu_5x5_reduce
I0403 18:42:09.365377 23250 net.cpp:91] Creating Layer inception_4c/relu_5x5_reduce
I0403 18:42:09.365398 23250 net.cpp:425] inception_4c/relu_5x5_reduce <- inception_4c/5x5_reduce
I0403 18:42:09.365419 23250 net.cpp:386] inception_4c/relu_5x5_reduce -> inception_4c/5x5_reduce (in-place)
I0403 18:42:09.365650 23250 net.cpp:141] Setting up inception_4c/relu_5x5_reduce
I0403 18:42:09.365681 23250 net.cpp:148] Top shape: 24 24 14 14 (112896)
I0403 18:42:09.365700 23250 net.cpp:156] Memory required for data: 1048562976
I0403 18:42:09.365717 23250 layer_factory.hpp:77] Creating layer inception_4c/5x5
I0403 18:42:09.365744 23250 net.cpp:91] Creating Layer inception_4c/5x5
I0403 18:42:09.365767 23250 net.cpp:425] inception_4c/5x5 <- inception_4c/5x5_reduce
I0403 18:42:09.365792 23250 net.cpp:399] inception_4c/5x5 -> inception_4c/5x5
I0403 18:42:09.367321 23250 net.cpp:141] Setting up inception_4c/5x5
I0403 18:42:09.367355 23250 net.cpp:148] Top shape: 24 64 14 14 (301056)
I0403 18:42:09.367374 23250 net.cpp:156] Memory required for data: 1049767200
I0403 18:42:09.367396 23250 layer_factory.hpp:77] Creating layer inception_4c/relu_5x5
I0403 18:42:09.367420 23250 net.cpp:91] Creating Layer inception_4c/relu_5x5
I0403 18:42:09.367441 23250 net.cpp:425] inception_4c/relu_5x5 <- inception_4c/5x5
I0403 18:42:09.367463 23250 net.cpp:386] inception_4c/relu_5x5 -> inception_4c/5x5 (in-place)
I0403 18:42:09.367821 23250 net.cpp:141] Setting up inception_4c/relu_5x5
I0403 18:42:09.367853 23250 net.cpp:148] Top shape: 24 64 14 14 (301056)
I0403 18:42:09.367871 23250 net.cpp:156] Memory required for data: 1050971424
I0403 18:42:09.367889 23250 layer_factory.hpp:77] Creating layer inception_4c/pool
I0403 18:42:09.367913 23250 net.cpp:91] Creating Layer inception_4c/pool
I0403 18:42:09.367935 23250 net.cpp:425] inception_4c/pool <- inception_4b/output_inception_4b/output_0_split_3
I0403 18:42:09.367959 23250 net.cpp:399] inception_4c/pool -> inception_4c/pool
I0403 18:42:09.368039 23250 net.cpp:141] Setting up inception_4c/pool
I0403 18:42:09.368068 23250 net.cpp:148] Top shape: 24 512 14 14 (2408448)
I0403 18:42:09.368086 23250 net.cpp:156] Memory required for data: 1060605216
I0403 18:42:09.368104 23250 layer_factory.hpp:77] Creating layer inception_4c/pool_proj
I0403 18:42:09.368131 23250 net.cpp:91] Creating Layer inception_4c/pool_proj
I0403 18:42:09.368154 23250 net.cpp:425] inception_4c/pool_proj <- inception_4c/pool
I0403 18:42:09.368183 23250 net.cpp:399] inception_4c/pool_proj -> inception_4c/pool_proj
I0403 18:42:09.369691 23250 net.cpp:141] Setting up inception_4c/pool_proj
I0403 18:42:09.369726 23250 net.cpp:148] Top shape: 24 64 14 14 (301056)
I0403 18:42:09.369763 23250 net.cpp:156] Memory required for data: 1061809440
I0403 18:42:09.369788 23250 layer_factory.hpp:77] Creating layer inception_4c/relu_pool_proj
I0403 18:42:09.369817 23250 net.cpp:91] Creating Layer inception_4c/relu_pool_proj
I0403 18:42:09.369837 23250 net.cpp:425] inception_4c/relu_pool_proj <- inception_4c/pool_proj
I0403 18:42:09.369860 23250 net.cpp:386] inception_4c/relu_pool_proj -> inception_4c/pool_proj (in-place)
I0403 18:42:09.370085 23250 net.cpp:141] Setting up inception_4c/relu_pool_proj
I0403 18:42:09.370116 23250 net.cpp:148] Top shape: 24 64 14 14 (301056)
I0403 18:42:09.370134 23250 net.cpp:156] Memory required for data: 1063013664
I0403 18:42:09.370153 23250 layer_factory.hpp:77] Creating layer inception_4c/output
I0403 18:42:09.370177 23250 net.cpp:91] Creating Layer inception_4c/output
I0403 18:42:09.370198 23250 net.cpp:425] inception_4c/output <- inception_4c/1x1
I0403 18:42:09.370219 23250 net.cpp:425] inception_4c/output <- inception_4c/3x3
I0403 18:42:09.370239 23250 net.cpp:425] inception_4c/output <- inception_4c/5x5
I0403 18:42:09.370257 23250 net.cpp:425] inception_4c/output <- inception_4c/pool_proj
I0403 18:42:09.370278 23250 net.cpp:399] inception_4c/output -> inception_4c/output
I0403 18:42:09.370339 23250 net.cpp:141] Setting up inception_4c/output
I0403 18:42:09.370368 23250 net.cpp:148] Top shape: 24 512 14 14 (2408448)
I0403 18:42:09.370386 23250 net.cpp:156] Memory required for data: 1072647456
I0403 18:42:09.370404 23250 layer_factory.hpp:77] Creating layer inception_4c/output_inception_4c/output_0_split
I0403 18:42:09.370425 23250 net.cpp:91] Creating Layer inception_4c/output_inception_4c/output_0_split
I0403 18:42:09.370445 23250 net.cpp:425] inception_4c/output_inception_4c/output_0_split <- inception_4c/output
I0403 18:42:09.370468 23250 net.cpp:399] inception_4c/output_inception_4c/output_0_split -> inception_4c/output_inception_4c/output_0_split_0
I0403 18:42:09.370494 23250 net.cpp:399] inception_4c/output_inception_4c/output_0_split -> inception_4c/output_inception_4c/output_0_split_1
I0403 18:42:09.370519 23250 net.cpp:399] inception_4c/output_inception_4c/output_0_split -> inception_4c/output_inception_4c/output_0_split_2
I0403 18:42:09.370550 23250 net.cpp:399] inception_4c/output_inception_4c/output_0_split -> inception_4c/output_inception_4c/output_0_split_3
I0403 18:42:09.370662 23250 net.cpp:141] Setting up inception_4c/output_inception_4c/output_0_split
I0403 18:42:09.370694 23250 net.cpp:148] Top shape: 24 512 14 14 (2408448)
I0403 18:42:09.370715 23250 net.cpp:148] Top shape: 24 512 14 14 (2408448)
I0403 18:42:09.370734 23250 net.cpp:148] Top shape: 24 512 14 14 (2408448)
I0403 18:42:09.370753 23250 net.cpp:148] Top shape: 24 512 14 14 (2408448)
I0403 18:42:09.370769 23250 net.cpp:156] Memory required for data: 1111182624
I0403 18:42:09.370787 23250 layer_factory.hpp:77] Creating layer inception_4d/1x1
I0403 18:42:09.370815 23250 net.cpp:91] Creating Layer inception_4d/1x1
I0403 18:42:09.370847 23250 net.cpp:425] inception_4d/1x1 <- inception_4c/output_inception_4c/output_0_split_0
I0403 18:42:09.370870 23250 net.cpp:399] inception_4d/1x1 -> inception_4d/1x1
I0403 18:42:09.372583 23250 net.cpp:141] Setting up inception_4d/1x1
I0403 18:42:09.372620 23250 net.cpp:148] Top shape: 24 112 14 14 (526848)
I0403 18:42:09.372640 23250 net.cpp:156] Memory required for data: 1113290016
I0403 18:42:09.372663 23250 layer_factory.hpp:77] Creating layer inception_4d/relu_1x1
I0403 18:42:09.372685 23250 net.cpp:91] Creating Layer inception_4d/relu_1x1
I0403 18:42:09.372705 23250 net.cpp:425] inception_4d/relu_1x1 <- inception_4d/1x1
I0403 18:42:09.372730 23250 net.cpp:386] inception_4d/relu_1x1 -> inception_4d/1x1 (in-place)
I0403 18:42:09.372958 23250 net.cpp:141] Setting up inception_4d/relu_1x1
I0403 18:42:09.372988 23250 net.cpp:148] Top shape: 24 112 14 14 (526848)
I0403 18:42:09.373006 23250 net.cpp:156] Memory required for data: 1115397408
I0403 18:42:09.373024 23250 layer_factory.hpp:77] Creating layer inception_4d/3x3_reduce
I0403 18:42:09.373070 23250 net.cpp:91] Creating Layer inception_4d/3x3_reduce
I0403 18:42:09.373093 23250 net.cpp:425] inception_4d/3x3_reduce <- inception_4c/output_inception_4c/output_0_split_1
I0403 18:42:09.373123 23250 net.cpp:399] inception_4d/3x3_reduce -> inception_4d/3x3_reduce
I0403 18:42:09.375020 23250 net.cpp:141] Setting up inception_4d/3x3_reduce
I0403 18:42:09.375057 23250 net.cpp:148] Top shape: 24 144 14 14 (677376)
I0403 18:42:09.375077 23250 net.cpp:156] Memory required for data: 1118106912
I0403 18:42:09.375099 23250 layer_factory.hpp:77] Creating layer inception_4d/relu_3x3_reduce
I0403 18:42:09.375121 23250 net.cpp:91] Creating Layer inception_4d/relu_3x3_reduce
I0403 18:42:09.375143 23250 net.cpp:425] inception_4d/relu_3x3_reduce <- inception_4d/3x3_reduce
I0403 18:42:09.375164 23250 net.cpp:386] inception_4d/relu_3x3_reduce -> inception_4d/3x3_reduce (in-place)
I0403 18:42:09.375517 23250 net.cpp:141] Setting up inception_4d/relu_3x3_reduce
I0403 18:42:09.375560 23250 net.cpp:148] Top shape: 24 144 14 14 (677376)
I0403 18:42:09.375579 23250 net.cpp:156] Memory required for data: 1120816416
I0403 18:42:09.375597 23250 layer_factory.hpp:77] Creating layer inception_4d/3x3
I0403 18:42:09.375624 23250 net.cpp:91] Creating Layer inception_4d/3x3
I0403 18:42:09.375646 23250 net.cpp:425] inception_4d/3x3 <- inception_4d/3x3_reduce
I0403 18:42:09.375669 23250 net.cpp:399] inception_4d/3x3 -> inception_4d/3x3
I0403 18:42:09.380970 23250 net.cpp:141] Setting up inception_4d/3x3
I0403 18:42:09.381006 23250 net.cpp:148] Top shape: 24 288 14 14 (1354752)
I0403 18:42:09.381027 23250 net.cpp:156] Memory required for data: 1126235424
I0403 18:42:09.381052 23250 layer_factory.hpp:77] Creating layer inception_4d/relu_3x3
I0403 18:42:09.381073 23250 net.cpp:91] Creating Layer inception_4d/relu_3x3
I0403 18:42:09.381093 23250 net.cpp:425] inception_4d/relu_3x3 <- inception_4d/3x3
I0403 18:42:09.381119 23250 net.cpp:386] inception_4d/relu_3x3 -> inception_4d/3x3 (in-place)
I0403 18:42:09.381347 23250 net.cpp:141] Setting up inception_4d/relu_3x3
I0403 18:42:09.381379 23250 net.cpp:148] Top shape: 24 288 14 14 (1354752)
I0403 18:42:09.381397 23250 net.cpp:156] Memory required for data: 1131654432
I0403 18:42:09.381415 23250 layer_factory.hpp:77] Creating layer inception_4d/5x5_reduce
I0403 18:42:09.381443 23250 net.cpp:91] Creating Layer inception_4d/5x5_reduce
I0403 18:42:09.381465 23250 net.cpp:425] inception_4d/5x5_reduce <- inception_4c/output_inception_4c/output_0_split_2
I0403 18:42:09.381492 23250 net.cpp:399] inception_4d/5x5_reduce -> inception_4d/5x5_reduce
I0403 18:42:09.382920 23250 net.cpp:141] Setting up inception_4d/5x5_reduce
I0403 18:42:09.382957 23250 net.cpp:148] Top shape: 24 32 14 14 (150528)
I0403 18:42:09.382978 23250 net.cpp:156] Memory required for data: 1132256544
I0403 18:42:09.383002 23250 layer_factory.hpp:77] Creating layer inception_4d/relu_5x5_reduce
I0403 18:42:09.383023 23250 net.cpp:91] Creating Layer inception_4d/relu_5x5_reduce
I0403 18:42:09.383043 23250 net.cpp:425] inception_4d/relu_5x5_reduce <- inception_4d/5x5_reduce
I0403 18:42:09.383066 23250 net.cpp:386] inception_4d/relu_5x5_reduce -> inception_4d/5x5_reduce (in-place)
I0403 18:42:09.383304 23250 net.cpp:141] Setting up inception_4d/relu_5x5_reduce
I0403 18:42:09.383334 23250 net.cpp:148] Top shape: 24 32 14 14 (150528)
I0403 18:42:09.383353 23250 net.cpp:156] Memory required for data: 1132858656
I0403 18:42:09.383371 23250 layer_factory.hpp:77] Creating layer inception_4d/5x5
I0403 18:42:09.383399 23250 net.cpp:91] Creating Layer inception_4d/5x5
I0403 18:42:09.383420 23250 net.cpp:425] inception_4d/5x5 <- inception_4d/5x5_reduce
I0403 18:42:09.383446 23250 net.cpp:399] inception_4d/5x5 -> inception_4d/5x5
I0403 18:42:09.385263 23250 net.cpp:141] Setting up inception_4d/5x5
I0403 18:42:09.385298 23250 net.cpp:148] Top shape: 24 64 14 14 (301056)
I0403 18:42:09.385316 23250 net.cpp:156] Memory required for data: 1134062880
I0403 18:42:09.385339 23250 layer_factory.hpp:77] Creating layer inception_4d/relu_5x5
I0403 18:42:09.385383 23250 net.cpp:91] Creating Layer inception_4d/relu_5x5
I0403 18:42:09.385406 23250 net.cpp:425] inception_4d/relu_5x5 <- inception_4d/5x5
I0403 18:42:09.385428 23250 net.cpp:386] inception_4d/relu_5x5 -> inception_4d/5x5 (in-place)
I0403 18:42:09.385797 23250 net.cpp:141] Setting up inception_4d/relu_5x5
I0403 18:42:09.385830 23250 net.cpp:148] Top shape: 24 64 14 14 (301056)
I0403 18:42:09.385849 23250 net.cpp:156] Memory required for data: 1135267104
I0403 18:42:09.385866 23250 layer_factory.hpp:77] Creating layer inception_4d/pool
I0403 18:42:09.385891 23250 net.cpp:91] Creating Layer inception_4d/pool
I0403 18:42:09.385912 23250 net.cpp:425] inception_4d/pool <- inception_4c/output_inception_4c/output_0_split_3
I0403 18:42:09.385936 23250 net.cpp:399] inception_4d/pool -> inception_4d/pool
I0403 18:42:09.386019 23250 net.cpp:141] Setting up inception_4d/pool
I0403 18:42:09.386049 23250 net.cpp:148] Top shape: 24 512 14 14 (2408448)
I0403 18:42:09.386065 23250 net.cpp:156] Memory required for data: 1144900896
I0403 18:42:09.386085 23250 layer_factory.hpp:77] Creating layer inception_4d/pool_proj
I0403 18:42:09.386111 23250 net.cpp:91] Creating Layer inception_4d/pool_proj
I0403 18:42:09.386133 23250 net.cpp:425] inception_4d/pool_proj <- inception_4d/pool
I0403 18:42:09.386159 23250 net.cpp:399] inception_4d/pool_proj -> inception_4d/pool_proj
I0403 18:42:09.388347 23250 net.cpp:141] Setting up inception_4d/pool_proj
I0403 18:42:09.388386 23250 net.cpp:148] Top shape: 24 64 14 14 (301056)
I0403 18:42:09.388404 23250 net.cpp:156] Memory required for data: 1146105120
I0403 18:42:09.388428 23250 layer_factory.hpp:77] Creating layer inception_4d/relu_pool_proj
I0403 18:42:09.388450 23250 net.cpp:91] Creating Layer inception_4d/relu_pool_proj
I0403 18:42:09.388471 23250 net.cpp:425] inception_4d/relu_pool_proj <- inception_4d/pool_proj
I0403 18:42:09.388495 23250 net.cpp:386] inception_4d/relu_pool_proj -> inception_4d/pool_proj (in-place)
I0403 18:42:09.388739 23250 net.cpp:141] Setting up inception_4d/relu_pool_proj
I0403 18:42:09.388770 23250 net.cpp:148] Top shape: 24 64 14 14 (301056)
I0403 18:42:09.388788 23250 net.cpp:156] Memory required for data: 1147309344
I0403 18:42:09.388805 23250 layer_factory.hpp:77] Creating layer inception_4d/output
I0403 18:42:09.388830 23250 net.cpp:91] Creating Layer inception_4d/output
I0403 18:42:09.388859 23250 net.cpp:425] inception_4d/output <- inception_4d/1x1
I0403 18:42:09.388878 23250 net.cpp:425] inception_4d/output <- inception_4d/3x3
I0403 18:42:09.388898 23250 net.cpp:425] inception_4d/output <- inception_4d/5x5
I0403 18:42:09.388918 23250 net.cpp:425] inception_4d/output <- inception_4d/pool_proj
I0403 18:42:09.388941 23250 net.cpp:399] inception_4d/output -> inception_4d/output
I0403 18:42:09.388998 23250 net.cpp:141] Setting up inception_4d/output
I0403 18:42:09.389029 23250 net.cpp:148] Top shape: 24 528 14 14 (2483712)
I0403 18:42:09.389048 23250 net.cpp:156] Memory required for data: 1157244192
I0403 18:42:09.389066 23250 layer_factory.hpp:77] Creating layer inception_4d/output_inception_4d/output_0_split
I0403 18:42:09.389087 23250 net.cpp:91] Creating Layer inception_4d/output_inception_4d/output_0_split
I0403 18:42:09.389107 23250 net.cpp:425] inception_4d/output_inception_4d/output_0_split <- inception_4d/output
I0403 18:42:09.389132 23250 net.cpp:399] inception_4d/output_inception_4d/output_0_split -> inception_4d/output_inception_4d/output_0_split_0
I0403 18:42:09.389156 23250 net.cpp:399] inception_4d/output_inception_4d/output_0_split -> inception_4d/output_inception_4d/output_0_split_1
I0403 18:42:09.389183 23250 net.cpp:399] inception_4d/output_inception_4d/output_0_split -> inception_4d/output_inception_4d/output_0_split_2
I0403 18:42:09.389209 23250 net.cpp:399] inception_4d/output_inception_4d/output_0_split -> inception_4d/output_inception_4d/output_0_split_3
I0403 18:42:09.389233 23250 net.cpp:399] inception_4d/output_inception_4d/output_0_split -> inception_4d/output_inception_4d/output_0_split_4
I0403 18:42:09.389370 23250 net.cpp:141] Setting up inception_4d/output_inception_4d/output_0_split
I0403 18:42:09.389415 23250 net.cpp:148] Top shape: 24 528 14 14 (2483712)
I0403 18:42:09.389441 23250 net.cpp:148] Top shape: 24 528 14 14 (2483712)
I0403 18:42:09.389461 23250 net.cpp:148] Top shape: 24 528 14 14 (2483712)
I0403 18:42:09.389480 23250 net.cpp:148] Top shape: 24 528 14 14 (2483712)
I0403 18:42:09.389498 23250 net.cpp:148] Top shape: 24 528 14 14 (2483712)
I0403 18:42:09.389515 23250 net.cpp:156] Memory required for data: 1206918432
I0403 18:42:09.389534 23250 layer_factory.hpp:77] Creating layer loss2/ave_pool
I0403 18:42:09.389564 23250 net.cpp:91] Creating Layer loss2/ave_pool
I0403 18:42:09.389583 23250 net.cpp:425] loss2/ave_pool <- inception_4d/output_inception_4d/output_0_split_0
I0403 18:42:09.389610 23250 net.cpp:399] loss2/ave_pool -> loss2/ave_pool
I0403 18:42:09.389999 23250 net.cpp:141] Setting up loss2/ave_pool
I0403 18:42:09.390033 23250 net.cpp:148] Top shape: 24 528 4 4 (202752)
I0403 18:42:09.390051 23250 net.cpp:156] Memory required for data: 1207729440
I0403 18:42:09.390069 23250 layer_factory.hpp:77] Creating layer loss2/conv
I0403 18:42:09.390096 23250 net.cpp:91] Creating Layer loss2/conv
I0403 18:42:09.390118 23250 net.cpp:425] loss2/conv <- loss2/ave_pool
I0403 18:42:09.390144 23250 net.cpp:399] loss2/conv -> loss2/conv
I0403 18:42:09.392498 23250 net.cpp:141] Setting up loss2/conv
I0403 18:42:09.392532 23250 net.cpp:148] Top shape: 24 128 4 4 (49152)
I0403 18:42:09.392570 23250 net.cpp:156] Memory required for data: 1207926048
I0403 18:42:09.392593 23250 layer_factory.hpp:77] Creating layer loss2/relu_conv
I0403 18:42:09.392617 23250 net.cpp:91] Creating Layer loss2/relu_conv
I0403 18:42:09.392639 23250 net.cpp:425] loss2/relu_conv <- loss2/conv
I0403 18:42:09.392660 23250 net.cpp:386] loss2/relu_conv -> loss2/conv (in-place)
I0403 18:42:09.393007 23250 net.cpp:141] Setting up loss2/relu_conv
I0403 18:42:09.393039 23250 net.cpp:148] Top shape: 24 128 4 4 (49152)
I0403 18:42:09.393059 23250 net.cpp:156] Memory required for data: 1208122656
I0403 18:42:09.393076 23250 layer_factory.hpp:77] Creating layer loss2/fc
I0403 18:42:09.393102 23250 net.cpp:91] Creating Layer loss2/fc
I0403 18:42:09.393123 23250 net.cpp:425] loss2/fc <- loss2/conv
I0403 18:42:09.393146 23250 net.cpp:399] loss2/fc -> loss2/fc
I0403 18:42:09.415132 23250 net.cpp:141] Setting up loss2/fc
I0403 18:42:09.415171 23250 net.cpp:148] Top shape: 24 1024 (24576)
I0403 18:42:09.415190 23250 net.cpp:156] Memory required for data: 1208220960
I0403 18:42:09.415213 23250 layer_factory.hpp:77] Creating layer loss2/relu_fc
I0403 18:42:09.415235 23250 net.cpp:91] Creating Layer loss2/relu_fc
I0403 18:42:09.415254 23250 net.cpp:425] loss2/relu_fc <- loss2/fc
I0403 18:42:09.415278 23250 net.cpp:386] loss2/relu_fc -> loss2/fc (in-place)
I0403 18:42:09.415652 23250 net.cpp:141] Setting up loss2/relu_fc
I0403 18:42:09.415685 23250 net.cpp:148] Top shape: 24 1024 (24576)
I0403 18:42:09.415704 23250 net.cpp:156] Memory required for data: 1208319264
I0403 18:42:09.415720 23250 layer_factory.hpp:77] Creating layer loss2/drop_fc
I0403 18:42:09.415742 23250 net.cpp:91] Creating Layer loss2/drop_fc
I0403 18:42:09.415762 23250 net.cpp:425] loss2/drop_fc <- loss2/fc
I0403 18:42:09.415787 23250 net.cpp:386] loss2/drop_fc -> loss2/fc (in-place)
I0403 18:42:09.415848 23250 net.cpp:141] Setting up loss2/drop_fc
I0403 18:42:09.415879 23250 net.cpp:148] Top shape: 24 1024 (24576)
I0403 18:42:09.415899 23250 net.cpp:156] Memory required for data: 1208417568
I0403 18:42:09.415916 23250 layer_factory.hpp:77] Creating layer loss2/classifier_plantvillage
I0403 18:42:09.415938 23250 net.cpp:91] Creating Layer loss2/classifier_plantvillage
I0403 18:42:09.415958 23250 net.cpp:425] loss2/classifier_plantvillage <- loss2/fc
I0403 18:42:09.415984 23250 net.cpp:399] loss2/classifier_plantvillage -> loss2/classifier_plantvillage
I0403 18:42:09.416479 23250 net.cpp:141] Setting up loss2/classifier_plantvillage
I0403 18:42:09.416513 23250 net.cpp:148] Top shape: 24 38 (912)
I0403 18:42:09.416566 23250 net.cpp:156] Memory required for data: 1208421216
I0403 18:42:09.416591 23250 layer_factory.hpp:77] Creating layer loss2/classifier_plantvillage_loss2/classifier_plantvillage_0_split
I0403 18:42:09.416613 23250 net.cpp:91] Creating Layer loss2/classifier_plantvillage_loss2/classifier_plantvillage_0_split
I0403 18:42:09.416633 23250 net.cpp:425] loss2/classifier_plantvillage_loss2/classifier_plantvillage_0_split <- loss2/classifier_plantvillage
I0403 18:42:09.416654 23250 net.cpp:399] loss2/classifier_plantvillage_loss2/classifier_plantvillage_0_split -> loss2/classifier_plantvillage_loss2/classifier_plantvillage_0_split_0
I0403 18:42:09.416679 23250 net.cpp:399] loss2/classifier_plantvillage_loss2/classifier_plantvillage_0_split -> loss2/classifier_plantvillage_loss2/classifier_plantvillage_0_split_1
I0403 18:42:09.416704 23250 net.cpp:399] loss2/classifier_plantvillage_loss2/classifier_plantvillage_0_split -> loss2/classifier_plantvillage_loss2/classifier_plantvillage_0_split_2
I0403 18:42:09.416801 23250 net.cpp:141] Setting up loss2/classifier_plantvillage_loss2/classifier_plantvillage_0_split
I0403 18:42:09.416831 23250 net.cpp:148] Top shape: 24 38 (912)
I0403 18:42:09.416851 23250 net.cpp:148] Top shape: 24 38 (912)
I0403 18:42:09.416870 23250 net.cpp:148] Top shape: 24 38 (912)
I0403 18:42:09.416887 23250 net.cpp:156] Memory required for data: 1208432160
I0403 18:42:09.416903 23250 layer_factory.hpp:77] Creating layer inception_4e/1x1
I0403 18:42:09.416928 23250 net.cpp:91] Creating Layer inception_4e/1x1
I0403 18:42:09.416947 23250 net.cpp:425] inception_4e/1x1 <- inception_4d/output_inception_4d/output_0_split_1
I0403 18:42:09.416972 23250 net.cpp:399] inception_4e/1x1 -> inception_4e/1x1
I0403 18:42:09.419239 23250 net.cpp:141] Setting up inception_4e/1x1
I0403 18:42:09.419273 23250 net.cpp:148] Top shape: 24 256 14 14 (1204224)
I0403 18:42:09.419294 23250 net.cpp:156] Memory required for data: 1213249056
I0403 18:42:09.419317 23250 layer_factory.hpp:77] Creating layer inception_4e/relu_1x1
I0403 18:42:09.419342 23250 net.cpp:91] Creating Layer inception_4e/relu_1x1
I0403 18:42:09.419364 23250 net.cpp:425] inception_4e/relu_1x1 <- inception_4e/1x1
I0403 18:42:09.419385 23250 net.cpp:386] inception_4e/relu_1x1 -> inception_4e/1x1 (in-place)
I0403 18:42:09.419749 23250 net.cpp:141] Setting up inception_4e/relu_1x1
I0403 18:42:09.419782 23250 net.cpp:148] Top shape: 24 256 14 14 (1204224)
I0403 18:42:09.419801 23250 net.cpp:156] Memory required for data: 1218065952
I0403 18:42:09.419819 23250 layer_factory.hpp:77] Creating layer inception_4e/3x3_reduce
I0403 18:42:09.419847 23250 net.cpp:91] Creating Layer inception_4e/3x3_reduce
I0403 18:42:09.419870 23250 net.cpp:425] inception_4e/3x3_reduce <- inception_4d/output_inception_4d/output_0_split_2
I0403 18:42:09.419894 23250 net.cpp:399] inception_4e/3x3_reduce -> inception_4e/3x3_reduce
I0403 18:42:09.422500 23250 net.cpp:141] Setting up inception_4e/3x3_reduce
I0403 18:42:09.422540 23250 net.cpp:148] Top shape: 24 160 14 14 (752640)
I0403 18:42:09.422572 23250 net.cpp:156] Memory required for data: 1221076512
I0403 18:42:09.422595 23250 layer_factory.hpp:77] Creating layer inception_4e/relu_3x3_reduce
I0403 18:42:09.422621 23250 net.cpp:91] Creating Layer inception_4e/relu_3x3_reduce
I0403 18:42:09.422642 23250 net.cpp:425] inception_4e/relu_3x3_reduce <- inception_4e/3x3_reduce
I0403 18:42:09.422664 23250 net.cpp:386] inception_4e/relu_3x3_reduce -> inception_4e/3x3_reduce (in-place)
I0403 18:42:09.422899 23250 net.cpp:141] Setting up inception_4e/relu_3x3_reduce
I0403 18:42:09.422930 23250 net.cpp:148] Top shape: 24 160 14 14 (752640)
I0403 18:42:09.422948 23250 net.cpp:156] Memory required for data: 1224087072
I0403 18:42:09.422966 23250 layer_factory.hpp:77] Creating layer inception_4e/3x3
I0403 18:42:09.422996 23250 net.cpp:91] Creating Layer inception_4e/3x3
I0403 18:42:09.423017 23250 net.cpp:425] inception_4e/3x3 <- inception_4e/3x3_reduce
I0403 18:42:09.423040 23250 net.cpp:399] inception_4e/3x3 -> inception_4e/3x3
I0403 18:42:09.429297 23250 net.cpp:141] Setting up inception_4e/3x3
I0403 18:42:09.429348 23250 net.cpp:148] Top shape: 24 320 14 14 (1505280)
I0403 18:42:09.429369 23250 net.cpp:156] Memory required for data: 1230108192
I0403 18:42:09.429393 23250 layer_factory.hpp:77] Creating layer inception_4e/relu_3x3
I0403 18:42:09.429417 23250 net.cpp:91] Creating Layer inception_4e/relu_3x3
I0403 18:42:09.429440 23250 net.cpp:425] inception_4e/relu_3x3 <- inception_4e/3x3
I0403 18:42:09.429462 23250 net.cpp:386] inception_4e/relu_3x3 -> inception_4e/3x3 (in-place)
I0403 18:42:09.429836 23250 net.cpp:141] Setting up inception_4e/relu_3x3
I0403 18:42:09.429872 23250 net.cpp:148] Top shape: 24 320 14 14 (1505280)
I0403 18:42:09.429891 23250 net.cpp:156] Memory required for data: 1236129312
I0403 18:42:09.429909 23250 layer_factory.hpp:77] Creating layer inception_4e/5x5_reduce
I0403 18:42:09.429939 23250 net.cpp:91] Creating Layer inception_4e/5x5_reduce
I0403 18:42:09.429960 23250 net.cpp:425] inception_4e/5x5_reduce <- inception_4d/output_inception_4d/output_0_split_3
I0403 18:42:09.429985 23250 net.cpp:399] inception_4e/5x5_reduce -> inception_4e/5x5_reduce
I0403 18:42:09.431308 23250 net.cpp:141] Setting up inception_4e/5x5_reduce
I0403 18:42:09.431341 23250 net.cpp:148] Top shape: 24 32 14 14 (150528)
I0403 18:42:09.431361 23250 net.cpp:156] Memory required for data: 1236731424
I0403 18:42:09.431383 23250 layer_factory.hpp:77] Creating layer inception_4e/relu_5x5_reduce
I0403 18:42:09.431409 23250 net.cpp:91] Creating Layer inception_4e/relu_5x5_reduce
I0403 18:42:09.431430 23250 net.cpp:425] inception_4e/relu_5x5_reduce <- inception_4e/5x5_reduce
I0403 18:42:09.431452 23250 net.cpp:386] inception_4e/relu_5x5_reduce -> inception_4e/5x5_reduce (in-place)
I0403 18:42:09.431818 23250 net.cpp:141] Setting up inception_4e/relu_5x5_reduce
I0403 18:42:09.431851 23250 net.cpp:148] Top shape: 24 32 14 14 (150528)
I0403 18:42:09.431870 23250 net.cpp:156] Memory required for data: 1237333536
I0403 18:42:09.431888 23250 layer_factory.hpp:77] Creating layer inception_4e/5x5
I0403 18:42:09.431932 23250 net.cpp:91] Creating Layer inception_4e/5x5
I0403 18:42:09.431957 23250 net.cpp:425] inception_4e/5x5 <- inception_4e/5x5_reduce
I0403 18:42:09.431984 23250 net.cpp:399] inception_4e/5x5 -> inception_4e/5x5
I0403 18:42:09.434262 23250 net.cpp:141] Setting up inception_4e/5x5
I0403 18:42:09.434298 23250 net.cpp:148] Top shape: 24 128 14 14 (602112)
I0403 18:42:09.434316 23250 net.cpp:156] Memory required for data: 1239741984
I0403 18:42:09.434340 23250 layer_factory.hpp:77] Creating layer inception_4e/relu_5x5
I0403 18:42:09.434362 23250 net.cpp:91] Creating Layer inception_4e/relu_5x5
I0403 18:42:09.434381 23250 net.cpp:425] inception_4e/relu_5x5 <- inception_4e/5x5
I0403 18:42:09.434406 23250 net.cpp:386] inception_4e/relu_5x5 -> inception_4e/5x5 (in-place)
I0403 18:42:09.434674 23250 net.cpp:141] Setting up inception_4e/relu_5x5
I0403 18:42:09.434707 23250 net.cpp:148] Top shape: 24 128 14 14 (602112)
I0403 18:42:09.434726 23250 net.cpp:156] Memory required for data: 1242150432
I0403 18:42:09.434744 23250 layer_factory.hpp:77] Creating layer inception_4e/pool
I0403 18:42:09.434770 23250 net.cpp:91] Creating Layer inception_4e/pool
I0403 18:42:09.434792 23250 net.cpp:425] inception_4e/pool <- inception_4d/output_inception_4d/output_0_split_4
I0403 18:42:09.434813 23250 net.cpp:399] inception_4e/pool -> inception_4e/pool
I0403 18:42:09.434900 23250 net.cpp:141] Setting up inception_4e/pool
I0403 18:42:09.434929 23250 net.cpp:148] Top shape: 24 528 14 14 (2483712)
I0403 18:42:09.434947 23250 net.cpp:156] Memory required for data: 1252085280
I0403 18:42:09.434964 23250 layer_factory.hpp:77] Creating layer inception_4e/pool_proj
I0403 18:42:09.434991 23250 net.cpp:91] Creating Layer inception_4e/pool_proj
I0403 18:42:09.435014 23250 net.cpp:425] inception_4e/pool_proj <- inception_4e/pool
I0403 18:42:09.435039 23250 net.cpp:399] inception_4e/pool_proj -> inception_4e/pool_proj
I0403 18:42:09.436908 23250 net.cpp:141] Setting up inception_4e/pool_proj
I0403 18:42:09.436957 23250 net.cpp:148] Top shape: 24 128 14 14 (602112)
I0403 18:42:09.436977 23250 net.cpp:156] Memory required for data: 1254493728
I0403 18:42:09.437000 23250 layer_factory.hpp:77] Creating layer inception_4e/relu_pool_proj
I0403 18:42:09.437024 23250 net.cpp:91] Creating Layer inception_4e/relu_pool_proj
I0403 18:42:09.437044 23250 net.cpp:425] inception_4e/relu_pool_proj <- inception_4e/pool_proj
I0403 18:42:09.437069 23250 net.cpp:386] inception_4e/relu_pool_proj -> inception_4e/pool_proj (in-place)
I0403 18:42:09.437429 23250 net.cpp:141] Setting up inception_4e/relu_pool_proj
I0403 18:42:09.437463 23250 net.cpp:148] Top shape: 24 128 14 14 (602112)
I0403 18:42:09.437480 23250 net.cpp:156] Memory required for data: 1256902176
I0403 18:42:09.437500 23250 layer_factory.hpp:77] Creating layer inception_4e/output
I0403 18:42:09.437521 23250 net.cpp:91] Creating Layer inception_4e/output
I0403 18:42:09.437546 23250 net.cpp:425] inception_4e/output <- inception_4e/1x1
I0403 18:42:09.437569 23250 net.cpp:425] inception_4e/output <- inception_4e/3x3
I0403 18:42:09.437589 23250 net.cpp:425] inception_4e/output <- inception_4e/5x5
I0403 18:42:09.437609 23250 net.cpp:425] inception_4e/output <- inception_4e/pool_proj
I0403 18:42:09.437633 23250 net.cpp:399] inception_4e/output -> inception_4e/output
I0403 18:42:09.437695 23250 net.cpp:141] Setting up inception_4e/output
I0403 18:42:09.437727 23250 net.cpp:148] Top shape: 24 832 14 14 (3913728)
I0403 18:42:09.437747 23250 net.cpp:156] Memory required for data: 1272557088
I0403 18:42:09.437764 23250 layer_factory.hpp:77] Creating layer pool4/3x3_s2
I0403 18:42:09.437785 23250 net.cpp:91] Creating Layer pool4/3x3_s2
I0403 18:42:09.437805 23250 net.cpp:425] pool4/3x3_s2 <- inception_4e/output
I0403 18:42:09.437827 23250 net.cpp:399] pool4/3x3_s2 -> pool4/3x3_s2
I0403 18:42:09.437923 23250 net.cpp:141] Setting up pool4/3x3_s2
I0403 18:42:09.437952 23250 net.cpp:148] Top shape: 24 832 7 7 (978432)
I0403 18:42:09.437970 23250 net.cpp:156] Memory required for data: 1276470816
I0403 18:42:09.437988 23250 layer_factory.hpp:77] Creating layer pool4/3x3_s2_pool4/3x3_s2_0_split
I0403 18:42:09.438009 23250 net.cpp:91] Creating Layer pool4/3x3_s2_pool4/3x3_s2_0_split
I0403 18:42:09.438030 23250 net.cpp:425] pool4/3x3_s2_pool4/3x3_s2_0_split <- pool4/3x3_s2
I0403 18:42:09.438053 23250 net.cpp:399] pool4/3x3_s2_pool4/3x3_s2_0_split -> pool4/3x3_s2_pool4/3x3_s2_0_split_0
I0403 18:42:09.438079 23250 net.cpp:399] pool4/3x3_s2_pool4/3x3_s2_0_split -> pool4/3x3_s2_pool4/3x3_s2_0_split_1
I0403 18:42:09.438104 23250 net.cpp:399] pool4/3x3_s2_pool4/3x3_s2_0_split -> pool4/3x3_s2_pool4/3x3_s2_0_split_2
I0403 18:42:09.438132 23250 net.cpp:399] pool4/3x3_s2_pool4/3x3_s2_0_split -> pool4/3x3_s2_pool4/3x3_s2_0_split_3
I0403 18:42:09.438247 23250 net.cpp:141] Setting up pool4/3x3_s2_pool4/3x3_s2_0_split
I0403 18:42:09.438276 23250 net.cpp:148] Top shape: 24 832 7 7 (978432)
I0403 18:42:09.438297 23250 net.cpp:148] Top shape: 24 832 7 7 (978432)
I0403 18:42:09.438316 23250 net.cpp:148] Top shape: 24 832 7 7 (978432)
I0403 18:42:09.438334 23250 net.cpp:148] Top shape: 24 832 7 7 (978432)
I0403 18:42:09.438350 23250 net.cpp:156] Memory required for data: 1292125728
I0403 18:42:09.438367 23250 layer_factory.hpp:77] Creating layer inception_5a/1x1
I0403 18:42:09.438395 23250 net.cpp:91] Creating Layer inception_5a/1x1
I0403 18:42:09.438417 23250 net.cpp:425] inception_5a/1x1 <- pool4/3x3_s2_pool4/3x3_s2_0_split_0
I0403 18:42:09.438444 23250 net.cpp:399] inception_5a/1x1 -> inception_5a/1x1
I0403 18:42:09.441980 23250 net.cpp:141] Setting up inception_5a/1x1
I0403 18:42:09.442018 23250 net.cpp:148] Top shape: 24 256 7 7 (301056)
I0403 18:42:09.442037 23250 net.cpp:156] Memory required for data: 1293329952
I0403 18:42:09.442060 23250 layer_factory.hpp:77] Creating layer inception_5a/relu_1x1
I0403 18:42:09.442086 23250 net.cpp:91] Creating Layer inception_5a/relu_1x1
I0403 18:42:09.442109 23250 net.cpp:425] inception_5a/relu_1x1 <- inception_5a/1x1
I0403 18:42:09.442131 23250 net.cpp:386] inception_5a/relu_1x1 -> inception_5a/1x1 (in-place)
I0403 18:42:09.442513 23250 net.cpp:141] Setting up inception_5a/relu_1x1
I0403 18:42:09.442551 23250 net.cpp:148] Top shape: 24 256 7 7 (301056)
I0403 18:42:09.442572 23250 net.cpp:156] Memory required for data: 1294534176
I0403 18:42:09.442590 23250 layer_factory.hpp:77] Creating layer inception_5a/3x3_reduce
I0403 18:42:09.442618 23250 net.cpp:91] Creating Layer inception_5a/3x3_reduce
I0403 18:42:09.442641 23250 net.cpp:425] inception_5a/3x3_reduce <- pool4/3x3_s2_pool4/3x3_s2_0_split_1
I0403 18:42:09.442667 23250 net.cpp:399] inception_5a/3x3_reduce -> inception_5a/3x3_reduce
I0403 18:42:09.445719 23250 net.cpp:141] Setting up inception_5a/3x3_reduce
I0403 18:42:09.445758 23250 net.cpp:148] Top shape: 24 160 7 7 (188160)
I0403 18:42:09.445780 23250 net.cpp:156] Memory required for data: 1295286816
I0403 18:42:09.445802 23250 layer_factory.hpp:77] Creating layer inception_5a/relu_3x3_reduce
I0403 18:42:09.445824 23250 net.cpp:91] Creating Layer inception_5a/relu_3x3_reduce
I0403 18:42:09.445844 23250 net.cpp:425] inception_5a/relu_3x3_reduce <- inception_5a/3x3_reduce
I0403 18:42:09.445869 23250 net.cpp:386] inception_5a/relu_3x3_reduce -> inception_5a/3x3_reduce (in-place)
I0403 18:42:09.446105 23250 net.cpp:141] Setting up inception_5a/relu_3x3_reduce
I0403 18:42:09.446136 23250 net.cpp:148] Top shape: 24 160 7 7 (188160)
I0403 18:42:09.446154 23250 net.cpp:156] Memory required for data: 1296039456
I0403 18:42:09.446172 23250 layer_factory.hpp:77] Creating layer inception_5a/3x3
I0403 18:42:09.446199 23250 net.cpp:91] Creating Layer inception_5a/3x3
I0403 18:42:09.446220 23250 net.cpp:425] inception_5a/3x3 <- inception_5a/3x3_reduce
I0403 18:42:09.446247 23250 net.cpp:399] inception_5a/3x3 -> inception_5a/3x3
I0403 18:42:09.452489 23250 net.cpp:141] Setting up inception_5a/3x3
I0403 18:42:09.452527 23250 net.cpp:148] Top shape: 24 320 7 7 (376320)
I0403 18:42:09.452553 23250 net.cpp:156] Memory required for data: 1297544736
I0403 18:42:09.452577 23250 layer_factory.hpp:77] Creating layer inception_5a/relu_3x3
I0403 18:42:09.452600 23250 net.cpp:91] Creating Layer inception_5a/relu_3x3
I0403 18:42:09.452620 23250 net.cpp:425] inception_5a/relu_3x3 <- inception_5a/3x3
I0403 18:42:09.452644 23250 net.cpp:386] inception_5a/relu_3x3 -> inception_5a/3x3 (in-place)
I0403 18:42:09.453006 23250 net.cpp:141] Setting up inception_5a/relu_3x3
I0403 18:42:09.453039 23250 net.cpp:148] Top shape: 24 320 7 7 (376320)
I0403 18:42:09.453058 23250 net.cpp:156] Memory required for data: 1299050016
I0403 18:42:09.453076 23250 layer_factory.hpp:77] Creating layer inception_5a/5x5_reduce
I0403 18:42:09.453104 23250 net.cpp:91] Creating Layer inception_5a/5x5_reduce
I0403 18:42:09.453127 23250 net.cpp:425] inception_5a/5x5_reduce <- pool4/3x3_s2_pool4/3x3_s2_0_split_2
I0403 18:42:09.453155 23250 net.cpp:399] inception_5a/5x5_reduce -> inception_5a/5x5_reduce
I0403 18:42:09.454627 23250 net.cpp:141] Setting up inception_5a/5x5_reduce
I0403 18:42:09.454665 23250 net.cpp:148] Top shape: 24 32 7 7 (37632)
I0403 18:42:09.454687 23250 net.cpp:156] Memory required for data: 1299200544
I0403 18:42:09.454710 23250 layer_factory.hpp:77] Creating layer inception_5a/relu_5x5_reduce
I0403 18:42:09.454731 23250 net.cpp:91] Creating Layer inception_5a/relu_5x5_reduce
I0403 18:42:09.454751 23250 net.cpp:425] inception_5a/relu_5x5_reduce <- inception_5a/5x5_reduce
I0403 18:42:09.454773 23250 net.cpp:386] inception_5a/relu_5x5_reduce -> inception_5a/5x5_reduce (in-place)
I0403 18:42:09.455147 23250 net.cpp:141] Setting up inception_5a/relu_5x5_reduce
I0403 18:42:09.455179 23250 net.cpp:148] Top shape: 24 32 7 7 (37632)
I0403 18:42:09.455198 23250 net.cpp:156] Memory required for data: 1299351072
I0403 18:42:09.455215 23250 layer_factory.hpp:77] Creating layer inception_5a/5x5
I0403 18:42:09.455246 23250 net.cpp:91] Creating Layer inception_5a/5x5
I0403 18:42:09.455270 23250 net.cpp:425] inception_5a/5x5 <- inception_5a/5x5_reduce
I0403 18:42:09.455296 23250 net.cpp:399] inception_5a/5x5 -> inception_5a/5x5
I0403 18:42:09.457442 23250 net.cpp:141] Setting up inception_5a/5x5
I0403 18:42:09.457492 23250 net.cpp:148] Top shape: 24 128 7 7 (150528)
I0403 18:42:09.457511 23250 net.cpp:156] Memory required for data: 1299953184
I0403 18:42:09.457535 23250 layer_factory.hpp:77] Creating layer inception_5a/relu_5x5
I0403 18:42:09.457563 23250 net.cpp:91] Creating Layer inception_5a/relu_5x5
I0403 18:42:09.457584 23250 net.cpp:425] inception_5a/relu_5x5 <- inception_5a/5x5
I0403 18:42:09.457608 23250 net.cpp:386] inception_5a/relu_5x5 -> inception_5a/5x5 (in-place)
I0403 18:42:09.457846 23250 net.cpp:141] Setting up inception_5a/relu_5x5
I0403 18:42:09.457877 23250 net.cpp:148] Top shape: 24 128 7 7 (150528)
I0403 18:42:09.457895 23250 net.cpp:156] Memory required for data: 1300555296
I0403 18:42:09.457912 23250 layer_factory.hpp:77] Creating layer inception_5a/pool
I0403 18:42:09.457937 23250 net.cpp:91] Creating Layer inception_5a/pool
I0403 18:42:09.457957 23250 net.cpp:425] inception_5a/pool <- pool4/3x3_s2_pool4/3x3_s2_0_split_3
I0403 18:42:09.457980 23250 net.cpp:399] inception_5a/pool -> inception_5a/pool
I0403 18:42:09.458068 23250 net.cpp:141] Setting up inception_5a/pool
I0403 18:42:09.458097 23250 net.cpp:148] Top shape: 24 832 7 7 (978432)
I0403 18:42:09.458114 23250 net.cpp:156] Memory required for data: 1304469024
I0403 18:42:09.458132 23250 layer_factory.hpp:77] Creating layer inception_5a/pool_proj
I0403 18:42:09.458158 23250 net.cpp:91] Creating Layer inception_5a/pool_proj
I0403 18:42:09.458181 23250 net.cpp:425] inception_5a/pool_proj <- inception_5a/pool
I0403 18:42:09.458206 23250 net.cpp:399] inception_5a/pool_proj -> inception_5a/pool_proj
I0403 18:42:09.461052 23250 net.cpp:141] Setting up inception_5a/pool_proj
I0403 18:42:09.461089 23250 net.cpp:148] Top shape: 24 128 7 7 (150528)
I0403 18:42:09.461109 23250 net.cpp:156] Memory required for data: 1305071136
I0403 18:42:09.461132 23250 layer_factory.hpp:77] Creating layer inception_5a/relu_pool_proj
I0403 18:42:09.461153 23250 net.cpp:91] Creating Layer inception_5a/relu_pool_proj
I0403 18:42:09.461174 23250 net.cpp:425] inception_5a/relu_pool_proj <- inception_5a/pool_proj
I0403 18:42:09.461202 23250 net.cpp:386] inception_5a/relu_pool_proj -> inception_5a/pool_proj (in-place)
I0403 18:42:09.461570 23250 net.cpp:141] Setting up inception_5a/relu_pool_proj
I0403 18:42:09.461603 23250 net.cpp:148] Top shape: 24 128 7 7 (150528)
I0403 18:42:09.461622 23250 net.cpp:156] Memory required for data: 1305673248
I0403 18:42:09.461642 23250 layer_factory.hpp:77] Creating layer inception_5a/output
I0403 18:42:09.461663 23250 net.cpp:91] Creating Layer inception_5a/output
I0403 18:42:09.461681 23250 net.cpp:425] inception_5a/output <- inception_5a/1x1
I0403 18:42:09.461700 23250 net.cpp:425] inception_5a/output <- inception_5a/3x3
I0403 18:42:09.461720 23250 net.cpp:425] inception_5a/output <- inception_5a/5x5
I0403 18:42:09.461740 23250 net.cpp:425] inception_5a/output <- inception_5a/pool_proj
I0403 18:42:09.461765 23250 net.cpp:399] inception_5a/output -> inception_5a/output
I0403 18:42:09.461827 23250 net.cpp:141] Setting up inception_5a/output
I0403 18:42:09.461855 23250 net.cpp:148] Top shape: 24 832 7 7 (978432)
I0403 18:42:09.461874 23250 net.cpp:156] Memory required for data: 1309586976
I0403 18:42:09.461890 23250 layer_factory.hpp:77] Creating layer inception_5a/output_inception_5a/output_0_split
I0403 18:42:09.461913 23250 net.cpp:91] Creating Layer inception_5a/output_inception_5a/output_0_split
I0403 18:42:09.461933 23250 net.cpp:425] inception_5a/output_inception_5a/output_0_split <- inception_5a/output
I0403 18:42:09.461956 23250 net.cpp:399] inception_5a/output_inception_5a/output_0_split -> inception_5a/output_inception_5a/output_0_split_0
I0403 18:42:09.461984 23250 net.cpp:399] inception_5a/output_inception_5a/output_0_split -> inception_5a/output_inception_5a/output_0_split_1
I0403 18:42:09.462012 23250 net.cpp:399] inception_5a/output_inception_5a/output_0_split -> inception_5a/output_inception_5a/output_0_split_2
I0403 18:42:09.462038 23250 net.cpp:399] inception_5a/output_inception_5a/output_0_split -> inception_5a/output_inception_5a/output_0_split_3
I0403 18:42:09.462177 23250 net.cpp:141] Setting up inception_5a/output_inception_5a/output_0_split
I0403 18:42:09.462205 23250 net.cpp:148] Top shape: 24 832 7 7 (978432)
I0403 18:42:09.462225 23250 net.cpp:148] Top shape: 24 832 7 7 (978432)
I0403 18:42:09.462244 23250 net.cpp:148] Top shape: 24 832 7 7 (978432)
I0403 18:42:09.462261 23250 net.cpp:148] Top shape: 24 832 7 7 (978432)
I0403 18:42:09.462278 23250 net.cpp:156] Memory required for data: 1325241888
I0403 18:42:09.462298 23250 layer_factory.hpp:77] Creating layer inception_5b/1x1
I0403 18:42:09.462327 23250 net.cpp:91] Creating Layer inception_5b/1x1
I0403 18:42:09.462348 23250 net.cpp:425] inception_5b/1x1 <- inception_5a/output_inception_5a/output_0_split_0
I0403 18:42:09.462374 23250 net.cpp:399] inception_5b/1x1 -> inception_5b/1x1
I0403 18:42:09.467064 23250 net.cpp:141] Setting up inception_5b/1x1
I0403 18:42:09.467104 23250 net.cpp:148] Top shape: 24 384 7 7 (451584)
I0403 18:42:09.467125 23250 net.cpp:156] Memory required for data: 1327048224
I0403 18:42:09.467149 23250 layer_factory.hpp:77] Creating layer inception_5b/relu_1x1
I0403 18:42:09.467172 23250 net.cpp:91] Creating Layer inception_5b/relu_1x1
I0403 18:42:09.467193 23250 net.cpp:425] inception_5b/relu_1x1 <- inception_5b/1x1
I0403 18:42:09.467217 23250 net.cpp:386] inception_5b/relu_1x1 -> inception_5b/1x1 (in-place)
I0403 18:42:09.467595 23250 net.cpp:141] Setting up inception_5b/relu_1x1
I0403 18:42:09.467631 23250 net.cpp:148] Top shape: 24 384 7 7 (451584)
I0403 18:42:09.467653 23250 net.cpp:156] Memory required for data: 1328854560
I0403 18:42:09.467671 23250 layer_factory.hpp:77] Creating layer inception_5b/3x3_reduce
I0403 18:42:09.467697 23250 net.cpp:91] Creating Layer inception_5b/3x3_reduce
I0403 18:42:09.467720 23250 net.cpp:425] inception_5b/3x3_reduce <- inception_5a/output_inception_5a/output_0_split_1
I0403 18:42:09.467751 23250 net.cpp:399] inception_5b/3x3_reduce -> inception_5b/3x3_reduce
I0403 18:42:09.471035 23250 net.cpp:141] Setting up inception_5b/3x3_reduce
I0403 18:42:09.471073 23250 net.cpp:148] Top shape: 24 192 7 7 (225792)
I0403 18:42:09.471096 23250 net.cpp:156] Memory required for data: 1329757728
I0403 18:42:09.471118 23250 layer_factory.hpp:77] Creating layer inception_5b/relu_3x3_reduce
I0403 18:42:09.471141 23250 net.cpp:91] Creating Layer inception_5b/relu_3x3_reduce
I0403 18:42:09.471161 23250 net.cpp:425] inception_5b/relu_3x3_reduce <- inception_5b/3x3_reduce
I0403 18:42:09.471185 23250 net.cpp:386] inception_5b/relu_3x3_reduce -> inception_5b/3x3_reduce (in-place)
I0403 18:42:09.471423 23250 net.cpp:141] Setting up inception_5b/relu_3x3_reduce
I0403 18:42:09.471454 23250 net.cpp:148] Top shape: 24 192 7 7 (225792)
I0403 18:42:09.471473 23250 net.cpp:156] Memory required for data: 1330660896
I0403 18:42:09.471492 23250 layer_factory.hpp:77] Creating layer inception_5b/3x3
I0403 18:42:09.471518 23250 net.cpp:91] Creating Layer inception_5b/3x3
I0403 18:42:09.471546 23250 net.cpp:425] inception_5b/3x3 <- inception_5b/3x3_reduce
I0403 18:42:09.471576 23250 net.cpp:399] inception_5b/3x3 -> inception_5b/3x3
I0403 18:42:09.479984 23250 net.cpp:141] Setting up inception_5b/3x3
I0403 18:42:09.480018 23250 net.cpp:148] Top shape: 24 384 7 7 (451584)
I0403 18:42:09.480038 23250 net.cpp:156] Memory required for data: 1332467232
I0403 18:42:09.480062 23250 layer_factory.hpp:77] Creating layer inception_5b/relu_3x3
I0403 18:42:09.480083 23250 net.cpp:91] Creating Layer inception_5b/relu_3x3
I0403 18:42:09.480104 23250 net.cpp:425] inception_5b/relu_3x3 <- inception_5b/3x3
I0403 18:42:09.480129 23250 net.cpp:386] inception_5b/relu_3x3 -> inception_5b/3x3 (in-place)
I0403 18:42:09.480506 23250 net.cpp:141] Setting up inception_5b/relu_3x3
I0403 18:42:09.480545 23250 net.cpp:148] Top shape: 24 384 7 7 (451584)
I0403 18:42:09.480566 23250 net.cpp:156] Memory required for data: 1334273568
I0403 18:42:09.480584 23250 layer_factory.hpp:77] Creating layer inception_5b/5x5_reduce
I0403 18:42:09.480631 23250 net.cpp:91] Creating Layer inception_5b/5x5_reduce
I0403 18:42:09.480656 23250 net.cpp:425] inception_5b/5x5_reduce <- inception_5a/output_inception_5a/output_0_split_2
I0403 18:42:09.480684 23250 net.cpp:399] inception_5b/5x5_reduce -> inception_5b/5x5_reduce
I0403 18:42:09.482277 23250 net.cpp:141] Setting up inception_5b/5x5_reduce
I0403 18:42:09.482313 23250 net.cpp:148] Top shape: 24 48 7 7 (56448)
I0403 18:42:09.482332 23250 net.cpp:156] Memory required for data: 1334499360
I0403 18:42:09.482354 23250 layer_factory.hpp:77] Creating layer inception_5b/relu_5x5_reduce
I0403 18:42:09.482378 23250 net.cpp:91] Creating Layer inception_5b/relu_5x5_reduce
I0403 18:42:09.482399 23250 net.cpp:425] inception_5b/relu_5x5_reduce <- inception_5b/5x5_reduce
I0403 18:42:09.482424 23250 net.cpp:386] inception_5b/relu_5x5_reduce -> inception_5b/5x5_reduce (in-place)
I0403 18:42:09.482898 23250 net.cpp:141] Setting up inception_5b/relu_5x5_reduce
I0403 18:42:09.482931 23250 net.cpp:148] Top shape: 24 48 7 7 (56448)
I0403 18:42:09.482950 23250 net.cpp:156] Memory required for data: 1334725152
I0403 18:42:09.482969 23250 layer_factory.hpp:77] Creating layer inception_5b/5x5
I0403 18:42:09.482993 23250 net.cpp:91] Creating Layer inception_5b/5x5
I0403 18:42:09.483014 23250 net.cpp:425] inception_5b/5x5 <- inception_5b/5x5_reduce
I0403 18:42:09.483037 23250 net.cpp:399] inception_5b/5x5 -> inception_5b/5x5
I0403 18:42:09.485606 23250 net.cpp:141] Setting up inception_5b/5x5
I0403 18:42:09.485641 23250 net.cpp:148] Top shape: 24 128 7 7 (150528)
I0403 18:42:09.485661 23250 net.cpp:156] Memory required for data: 1335327264
I0403 18:42:09.485683 23250 layer_factory.hpp:77] Creating layer inception_5b/relu_5x5
I0403 18:42:09.485707 23250 net.cpp:91] Creating Layer inception_5b/relu_5x5
I0403 18:42:09.485729 23250 net.cpp:425] inception_5b/relu_5x5 <- inception_5b/5x5
I0403 18:42:09.485751 23250 net.cpp:386] inception_5b/relu_5x5 -> inception_5b/5x5 (in-place)
I0403 18:42:09.485993 23250 net.cpp:141] Setting up inception_5b/relu_5x5
I0403 18:42:09.486024 23250 net.cpp:148] Top shape: 24 128 7 7 (150528)
I0403 18:42:09.486043 23250 net.cpp:156] Memory required for data: 1335929376
I0403 18:42:09.486063 23250 layer_factory.hpp:77] Creating layer inception_5b/pool
I0403 18:42:09.486086 23250 net.cpp:91] Creating Layer inception_5b/pool
I0403 18:42:09.486106 23250 net.cpp:425] inception_5b/pool <- inception_5a/output_inception_5a/output_0_split_3
I0403 18:42:09.486129 23250 net.cpp:399] inception_5b/pool -> inception_5b/pool
I0403 18:42:09.486219 23250 net.cpp:141] Setting up inception_5b/pool
I0403 18:42:09.486248 23250 net.cpp:148] Top shape: 24 832 7 7 (978432)
I0403 18:42:09.486266 23250 net.cpp:156] Memory required for data: 1339843104
I0403 18:42:09.486284 23250 layer_factory.hpp:77] Creating layer inception_5b/pool_proj
I0403 18:42:09.486311 23250 net.cpp:91] Creating Layer inception_5b/pool_proj
I0403 18:42:09.486333 23250 net.cpp:425] inception_5b/pool_proj <- inception_5b/pool
I0403 18:42:09.486358 23250 net.cpp:399] inception_5b/pool_proj -> inception_5b/pool_proj
I0403 18:42:09.489217 23250 net.cpp:141] Setting up inception_5b/pool_proj
I0403 18:42:09.489253 23250 net.cpp:148] Top shape: 24 128 7 7 (150528)
I0403 18:42:09.489274 23250 net.cpp:156] Memory required for data: 1340445216
I0403 18:42:09.489297 23250 layer_factory.hpp:77] Creating layer inception_5b/relu_pool_proj
I0403 18:42:09.489320 23250 net.cpp:91] Creating Layer inception_5b/relu_pool_proj
I0403 18:42:09.489341 23250 net.cpp:425] inception_5b/relu_pool_proj <- inception_5b/pool_proj
I0403 18:42:09.489365 23250 net.cpp:386] inception_5b/relu_pool_proj -> inception_5b/pool_proj (in-place)
I0403 18:42:09.489742 23250 net.cpp:141] Setting up inception_5b/relu_pool_proj
I0403 18:42:09.489774 23250 net.cpp:148] Top shape: 24 128 7 7 (150528)
I0403 18:42:09.489792 23250 net.cpp:156] Memory required for data: 1341047328
I0403 18:42:09.489820 23250 layer_factory.hpp:77] Creating layer inception_5b/output
I0403 18:42:09.489840 23250 net.cpp:91] Creating Layer inception_5b/output
I0403 18:42:09.489878 23250 net.cpp:425] inception_5b/output <- inception_5b/1x1
I0403 18:42:09.489903 23250 net.cpp:425] inception_5b/output <- inception_5b/3x3
I0403 18:42:09.489925 23250 net.cpp:425] inception_5b/output <- inception_5b/5x5
I0403 18:42:09.489945 23250 net.cpp:425] inception_5b/output <- inception_5b/pool_proj
I0403 18:42:09.489969 23250 net.cpp:399] inception_5b/output -> inception_5b/output
I0403 18:42:09.490033 23250 net.cpp:141] Setting up inception_5b/output
I0403 18:42:09.490067 23250 net.cpp:148] Top shape: 24 1024 7 7 (1204224)
I0403 18:42:09.490085 23250 net.cpp:156] Memory required for data: 1345864224
I0403 18:42:09.490103 23250 layer_factory.hpp:77] Creating layer pool5/7x7_s1
I0403 18:42:09.490125 23250 net.cpp:91] Creating Layer pool5/7x7_s1
I0403 18:42:09.490144 23250 net.cpp:425] pool5/7x7_s1 <- inception_5b/output
I0403 18:42:09.490165 23250 net.cpp:399] pool5/7x7_s1 -> pool5/7x7_s1
I0403 18:42:09.490437 23250 net.cpp:141] Setting up pool5/7x7_s1
I0403 18:42:09.490469 23250 net.cpp:148] Top shape: 24 1024 1 1 (24576)
I0403 18:42:09.490488 23250 net.cpp:156] Memory required for data: 1345962528
I0403 18:42:09.490506 23250 layer_factory.hpp:77] Creating layer pool5/drop_7x7_s1
I0403 18:42:09.490528 23250 net.cpp:91] Creating Layer pool5/drop_7x7_s1
I0403 18:42:09.490559 23250 net.cpp:425] pool5/drop_7x7_s1 <- pool5/7x7_s1
I0403 18:42:09.490586 23250 net.cpp:386] pool5/drop_7x7_s1 -> pool5/7x7_s1 (in-place)
I0403 18:42:09.490656 23250 net.cpp:141] Setting up pool5/drop_7x7_s1
I0403 18:42:09.490689 23250 net.cpp:148] Top shape: 24 1024 1 1 (24576)
I0403 18:42:09.490707 23250 net.cpp:156] Memory required for data: 1346060832
I0403 18:42:09.490725 23250 layer_factory.hpp:77] Creating layer loss3/classifier_plantvillage
I0403 18:42:09.490748 23250 net.cpp:91] Creating Layer loss3/classifier_plantvillage
I0403 18:42:09.490768 23250 net.cpp:425] loss3/classifier_plantvillage <- pool5/7x7_s1
I0403 18:42:09.490794 23250 net.cpp:399] loss3/classifier_plantvillage -> loss3/classifier_plantvillage
I0403 18:42:09.491324 23250 net.cpp:141] Setting up loss3/classifier_plantvillage
I0403 18:42:09.491355 23250 net.cpp:148] Top shape: 24 38 (912)
I0403 18:42:09.491374 23250 net.cpp:156] Memory required for data: 1346064480
I0403 18:42:09.491394 23250 layer_factory.hpp:77] Creating layer loss3/classifier_plantvillage_loss3/classifier_plantvillage_0_split
I0403 18:42:09.491420 23250 net.cpp:91] Creating Layer loss3/classifier_plantvillage_loss3/classifier_plantvillage_0_split
I0403 18:42:09.491442 23250 net.cpp:425] loss3/classifier_plantvillage_loss3/classifier_plantvillage_0_split <- loss3/classifier_plantvillage
I0403 18:42:09.491464 23250 net.cpp:399] loss3/classifier_plantvillage_loss3/classifier_plantvillage_0_split -> loss3/classifier_plantvillage_loss3/classifier_plantvillage_0_split_0
I0403 18:42:09.491492 23250 net.cpp:399] loss3/classifier_plantvillage_loss3/classifier_plantvillage_0_split -> loss3/classifier_plantvillage_loss3/classifier_plantvillage_0_split_1
I0403 18:42:09.491518 23250 net.cpp:399] loss3/classifier_plantvillage_loss3/classifier_plantvillage_0_split -> loss3/classifier_plantvillage_loss3/classifier_plantvillage_0_split_2
I0403 18:42:09.491549 23250 net.cpp:399] loss3/classifier_plantvillage_loss3/classifier_plantvillage_0_split -> loss3/classifier_plantvillage_loss3/classifier_plantvillage_0_split_3
I0403 18:42:09.491677 23250 net.cpp:141] Setting up loss3/classifier_plantvillage_loss3/classifier_plantvillage_0_split
I0403 18:42:09.491706 23250 net.cpp:148] Top shape: 24 38 (912)
I0403 18:42:09.491726 23250 net.cpp:148] Top shape: 24 38 (912)
I0403 18:42:09.491746 23250 net.cpp:148] Top shape: 24 38 (912)
I0403 18:42:09.491765 23250 net.cpp:148] Top shape: 24 38 (912)
I0403 18:42:09.491781 23250 net.cpp:156] Memory required for data: 1346079072
I0403 18:42:09.491799 23250 layer_factory.hpp:77] Creating layer loss1/loss
I0403 18:42:09.491825 23250 net.cpp:91] Creating Layer loss1/loss
I0403 18:42:09.491847 23250 net.cpp:425] loss1/loss <- loss1/classifier_plantvillage_loss1/classifier_plantvillage_0_split_0
I0403 18:42:09.491885 23250 net.cpp:425] loss1/loss <- label_data_1_split_0
…
