…
I0403 18:44:11.255636 23355 net.cpp:313] The NetState phase (1) differed from the phase (0) specified by a rule in layer data
I0403 18:44:11.256747 23355 net.cpp:49] Initializing net from parameters: 
state {
  phase: TEST
}
layer {
  name: "data"
  type: "Data"
  top: "data"
  top: "label"
  include {
    phase: TEST
  }
  transform_param {
    mirror: false
    crop_size: 224
    mean_file: "/home/mohanty/data/final_dataset/lmdb/segmented-40-60/mean.binaryproto"
  }
  data_param {
    source: "/home/mohanty/data/final_dataset/lmdb/segmented-40-60/test_db"
    batch_size: 24
    backend: LMDB
  }
}
layer {
  name: "conv1/7x7_s2"
  type: "Convolution"
  bottom: "data"
  top: "conv1/7x7_s2"
  param {
    lr_mult: 1
    decay_mult: 1
  }
  param {
    lr_mult: 2
    decay_mult: 0
  }
  convolution_param {
    num_output: 64
    pad: 3
    kernel_size: 7
    stride: 2
    weight_filler {
      type: "xavier"
      std: 0.1
    }
    bias_filler {
      type: "constant"
      value: 0.2
    }
  }
}
layer {
  name: "conv1/relu_7x7"
  type: "ReLU"
  bottom: "conv1/7x7_s2"
  top: "conv1/7x7_s2"
}
layer {
  name: "pool1/3x3_s2"
  type: "Pooling"
  bottom: "conv1/7x7_s2"
  top: "pool1/3x3_s2"
  pooling_param {
    pool: MAX
    kernel_size: 3
    stride: 2
  }
}
layer {
  name: "pool1/norm1"
  type: "LRN"
  bottom: "pool1/3x3_s2"
  top: "pool1/norm1"
  lrn_param {
    local_size: 5
    alpha: 0.0001
    beta: 0.75
  }
}
layer {
  name: "conv2/3x3_reduce"
  type: "Convolution"
  bottom: "pool1/norm1"
  top: "conv2/3x3_reduce"
  param {
    lr_mult: 1
    decay_mult: 1
  }
  param {
    lr_mult: 2
    decay_mult: 0
  }
  convolution_param {
    num_output: 64
    kernel_size: 1
    weight_filler {
      type: "xavier"
      std: 0.1
    }
    bias_filler {
      type: "constant"
      value: 0.2
    }
  }
}
layer {
  name: "conv2/relu_3x3_reduce"
  type: "ReLU"
  bottom: "conv2/3x3_reduce"
  top: "conv2/3x3_reduce"
}
layer {
  name: "conv2/3x3"
  type: "Convolution"
  bottom: "conv2/3x3_reduce"
  top: "conv2/3x3"
  param {
    lr_mult: 1
    decay_mult: 1
  }
  param {
    lr_mult: 2
    decay_mult: 0
  }
  convolution_param {
    num_output: 192
    pad: 1
    kernel_size: 3
    weight_filler {
      type: "xavier"
      std: 0.03
    }
    bias_filler {
      type: "constant"
      value: 0.2
    }
  }
}
layer {
  name: "conv2/relu_3x3"
  type: "ReLU"
  bottom: "conv2/3x3"
  top: "conv2/3x3"
}
layer {
  name: "conv2/norm2"
  type: "LRN"
  bottom: "conv2/3x3"
  top: "conv2/norm2"
  lrn_param {
    local_size: 5
    alpha: 0.0001
    beta: 0.75
  }
}
layer {
  name: "pool2/3x3_s2"
  type: "Pooling"
  bottom: "conv2/norm2"
  top: "pool2/3x3_s2"
  pooling_param {
    pool: MAX
    kernel_size: 3
    stride: 2
  }
}
layer {
  name: "inception_3a/1x1"
  type: "Convolution"
  bottom: "pool2/3x3_s2"
  top: "inception_3a/1x1"
  param {
    lr_mult: 1
    decay_mult: 1
  }
  param {
    lr_mult: 2
    decay_mult: 0
  }
  convolution_param {
    num_output: 64
    kernel_size: 1
    weight_filler {
      type: "xavier"
      std: 0.03
    }
    bias_filler {
      type: "constant"
      value: 0.2
    }
  }
}
layer {
  name: "inception_3a/relu_1x1"
  type: "ReLU"
  bottom: "inception_3a/1x1"
  top: "inception_3a/1x1"
}
layer {
  name: "inception_3a/3x3_reduce"
  type: "Convolution"
  bottom: "pool2/3x3_s2"
  top: "inception_3a/3x3_reduce"
  param {
    lr_mult: 1
    decay_mult: 1
  }
  param {
    lr_mult: 2
    decay_mult: 0
  }
  convolution_param {
    num_output: 96
    kernel_size: 1
    weight_filler {
      type: "xavier"
      std: 0.09
    }
    bias_filler {
      type: "constant"
      value: 0.2
    }
  }
}
layer {
  name: "inception_3a/relu_3x3_reduce"
  type: "ReLU"
  bottom: "inception_3a/3x3_reduce"
  top: "inception_3a/3x3_reduce"
}
layer {
  name: "inception_3a/3x3"
  type: "Convolution"
  bottom: "inception_3a/3x3_reduce"
  top: "inception_3a/3x3"
  param {
    lr_mult: 1
    decay_mult: 1
  }
  param {
    lr_mult: 2
    decay_mult: 0
  }
  convolution_param {
    num_output: 128
    pad: 1
    kernel_size: 3
    weight_filler {
      type: "xavier"
      std: 0.03
    }
    bias_filler {
      type: "constant"
      value: 0.2
    }
  }
}
layer {
  name: "inception_3a/relu_3x3"
  type: "ReLU"
  bottom: "inception_3a/3x3"
  top: "inception_3a/3x3"
}
layer {
  name: "inception_3a/5x5_reduce"
  type: "Convolution"
  bottom: "pool2/3x3_s2"
  top: "inception_3a/5x5_reduce"
  param {
    lr_mult: 1
    decay_mult: 1
  }
  param {
    lr_mult: 2
    decay_mult: 0
  }
  convolution_param {
    num_output: 16
    kernel_size: 1
    weight_filler {
      type: "xavier"
      std: 0.2
    }
    bias_filler {
      type: "constant"
      value: 0.2
    }
  }
}
layer {
  name: "inception_3a/relu_5x5_reduce"
  type: "ReLU"
  bottom: "inception_3a/5x5_reduce"
  top: "inception_3a/5x5_reduce"
}
layer {
  name: "inception_3a/5x5"
  type: "Convolution"
  bottom: "inception_3a/5x5_reduce"
  top: "inception_3a/5x5"
  param {
    lr_mult: 1
    decay_mult: 1
  }
  param {
    lr_mult: 2
    decay_mult: 0
  }
  convolution_param {
    num_output: 32
    pad: 2
    kernel_size: 5
    weight_filler {
      type: "xavier"
      std: 0.03
    }
    bias_filler {
      type: "constant"
      value: 0.2
    }
  }
}
layer {
  name: "inception_3a/relu_5x5"
  type: "ReLU"
  bottom: "inception_3a/5x5"
  top: "inception_3a/5x5"
}
layer {
  name: "inception_3a/pool"
  type: "Pooling"
  bottom: "pool2/3x3_s2"
  top: "inception_3a/pool"
  pooling_param {
    pool: MAX
    kernel_size: 3
    stride: 1
    pad: 1
  }
}
layer {
  name: "inception_3a/pool_proj"
  type: "Convolution"
  bottom: "inception_3a/pool"
  top: "inception_3a/pool_proj"
  param {
    lr_mult: 1
    decay_mult: 1
  }
  param {
    lr_mult: 2
    decay_mult: 0
  }
  convolution_param {
    num_output: 32
    kernel_size: 1
    weight_filler {
      type: "xavier"
      std: 0.1
    }
    bias_filler {
      type: "constant"
      value: 0.2
    }
  }
}
layer {
  name: "inception_3a/relu_pool_proj"
  type: "ReLU"
  bottom: "inception_3a/pool_proj"
  top: "inception_3a/pool_proj"
}
layer {
  name: "inception_3a/output"
  type: "Concat"
  bottom: "inception_3a/1x1"
  bottom: "inception_3a/3x3"
  bottom: "inception_3a/5x5"
  bottom: "inception_3a/pool_proj"
  top: "inception_3a/output"
}
layer {
  name: "inception_3b/1x1"
  type: "Convolution"
  bottom: "inception_3a/output"
  top: "inception_3b/1x1"
  param {
    lr_mult: 1
    decay_mult: 1
  }
  param {
    lr_mult: 2
    decay_mult: 0
  }
  convolution_param {
    num_output: 128
    kernel_size: 1
    weight_filler {
      type: "xavier"
      std: 0.03
    }
    bias_filler {
      type: "constant"
      value: 0.2
    }
  }
}
layer {
  name: "inception_3b/relu_1x1"
  type: "ReLU"
  bottom: "inception_3b/1x1"
  top: "inception_3b/1x1"
}
layer {
  name: "inception_3b/3x3_reduce"
  type: "Convolution"
  bottom: "inception_3a/output"
  top: "inception_3b/3x3_reduce"
  param {
    lr_mult: 1
    decay_mult: 1
  }
  param {
    lr_mult: 2
    decay_mult: 0
  }
  convolution_param {
    num_output: 128
    kernel_size: 1
    weight_filler {
      type: "xavier"
      std: 0.09
    }
    bias_filler {
      type: "constant"
      value: 0.2
    }
  }
}
layer {
  name: "inception_3b/relu_3x3_reduce"
  type: "ReLU"
  bottom: "inception_3b/3x3_reduce"
  top: "inception_3b/3x3_reduce"
}
layer {
  name: "inception_3b/3x3"
  type: "Convolution"
  bottom: "inception_3b/3x3_reduce"
  top: "inception_3b/3x3"
  param {
    lr_mult: 1
    decay_mult: 1
  }
  param {
    lr_mult: 2
    decay_mult: 0
  }
  convolution_param {
    num_output: 192
    pad: 1
    kernel_size: 3
    weight_filler {
      type: "xavier"
      std: 0.03
    }
    bias_filler {
      type: "constant"
      value: 0.2
    }
  }
}
layer {
  name: "inception_3b/relu_3x3"
  type: "ReLU"
  bottom: "inception_3b/3x3"
  top: "inception_3b/3x3"
}
layer {
  name: "inception_3b/5x5_reduce"
  type: "Convolution"
  bottom: "inception_3a/output"
  top: "inception_3b/5x5_reduce"
  param {
    lr_mult: 1
    decay_mult: 1
  }
  param {
    lr_mult: 2
    decay_mult: 0
  }
  convolution_param {
    num_output: 32
    kernel_size: 1
    weight_filler {
      type: "xavier"
      std: 0.2
    }
    bias_filler {
      type: "constant"
      value: 0.2
    }
  }
}
layer {
  name: "inception_3b/relu_5x5_reduce"
  type: "ReLU"
  bottom: "inception_3b/5x5_reduce"
  top: "inception_3b/5x5_reduce"
}
layer {
  name: "inception_3b/5x5"
  type: "Convolution"
  bottom: "inception_3b/5x5_reduce"
  top: "inception_3b/5x5"
  param {
    lr_mult: 1
    decay_mult: 1
  }
  param {
    lr_mult: 2
    decay_mult: 0
  }
  convolution_param {
    num_output: 96
    pad: 2
    kernel_size: 5
    weight_filler {
      type: "xavier"
      std: 0.03
    }
    bias_filler {
      type: "constant"
      value: 0.2
    }
  }
}
layer {
  name: "inception_3b/relu_5x5"
  type: "ReLU"
  bottom: "inception_3b/5x5"
  top: "inception_3b/5x5"
}
layer {
  name: "inception_3b/pool"
  type: "Pooling"
  bottom: "inception_3a/output"
  top: "inception_3b/pool"
  pooling_param {
    pool: MAX
    kernel_size: 3
    stride: 1
    pad: 1
  }
}
layer {
  name: "inception_3b/pool_proj"
  type: "Convolution"
  bottom: "inception_3b/pool"
  top: "inception_3b/pool_proj"
  param {
    lr_mult: 1
    decay_mult: 1
  }
  param {
    lr_mult: 2
    decay_mult: 0
  }
  convolution_param {
    num_output: 64
    kernel_size: 1
    weight_filler {
      type: "xavier"
      std: 0.1
    }
    bias_filler {
      type: "constant"
      value: 0.2
    }
  }
}
layer {
  name: "inception_3b/relu_pool_proj"
  type: "ReLU"
  bottom: "inception_3b/pool_proj"
  top: "inception_3b/pool_proj"
}
layer {
  name: "inception_3b/output"
  type: "Concat"
  bottom: "inception_3b/1x1"
  bottom: "inception_3b/3x3"
  bottom: "inception_3b/5x5"
  bottom: "inception_3b/pool_proj"
  top: "inception_3b/output"
}
layer {
  name: "pool3/3x3_s2"
  type: "Pooling"
  bottom: "inception_3b/output"
  top: "pool3/3x3_s2"
  pooling_param {
    pool: MAX
    kernel_size: 3
    stride: 2
  }
}
layer {
  name: "inception_4a/1x1"
  type: "Convolution"
  bottom: "pool3/3x3_s2"
  top: "inception_4a/1x1"
  param {
    lr_mult: 1
    decay_mult: 1
  }
  param {
    lr_mult: 2
    decay_mult: 0
  }
  convolution_param {
    num_output: 192
    kernel_size: 1
    weight_filler {
      type: "xavier"
      std: 0.03
    }
    bias_filler {
      type: "constant"
      value: 0.2
    }
  }
}
layer {
  name: "inception_4a/relu_1x1"
  type: "ReLU"
  bottom: "inception_4a/1x1"
  top: "inception_4a/1x1"
}
layer {
  name: "inception_4a/3x3_reduce"
  type: "Convolution"
  bottom: "pool3/3x3_s2"
  top: "inception_4a/3x3_reduce"
  param {
    lr_mult: 1
    decay_mult: 1
  }
  param {
    lr_mult: 2
    decay_mult: 0
  }
  convolution_param {
    num_output: 96
    kernel_size: 1
    weight_filler {
      type: "xavier"
      std: 0.09
    }
    bias_filler {
      type: "constant"
      value: 0.2
    }
  }
}
layer {
  name: "inception_4a/relu_3x3_reduce"
  type: "ReLU"
  bottom: "inception_4a/3x3_reduce"
  top: "inception_4a/3x3_reduce"
}
layer {
  name: "inception_4a/3x3"
  type: "Convolution"
  bottom: "inception_4a/3x3_reduce"
  top: "inception_4a/3x3"
  param {
    lr_mult: 1
    decay_mult: 1
  }
  param {
    lr_mult: 2
    decay_mult: 0
  }
  convolution_param {
    num_output: 208
    pad: 1
    kernel_size: 3
    weight_filler {
      type: "xavier"
      std: 0.03
    }
    bias_filler {
      type: "constant"
      value: 0.2
    }
  }
}
layer {
  name: "inception_4a/relu_3x3"
  type: "ReLU"
  bottom: "inception_4a/3x3"
  top: "inception_4a/3x3"
}
layer {
  name: "inception_4a/5x5_reduce"
  type: "Convolution"
  bottom: "pool3/3x3_s2"
  top: "inception_4a/5x5_reduce"
  param {
    lr_mult: 1
    decay_mult: 1
  }
  param {
    lr_mult: 2
    decay_mult: 0
  }
  convolution_param {
    num_output: 16
    kernel_size: 1
    weight_filler {
      type: "xavier"
      std: 0.2
    }
    bias_filler {
      type: "constant"
      value: 0.2
    }
  }
}
layer {
  name: "inception_4a/relu_5x5_reduce"
  type: "ReLU"
  bottom: "inception_4a/5x5_reduce"
  top: "inception_4a/5x5_reduce"
}
layer {
  name: "inception_4a/5x5"
  type: "Convolution"
  bottom: "inception_4a/5x5_reduce"
  top: "inception_4a/5x5"
  param {
    lr_mult: 1
    decay_mult: 1
  }
  param {
    lr_mult: 2
    decay_mult: 0
  }
  convolution_param {
    num_output: 48
    pad: 2
    kernel_size: 5
    weight_filler {
      type: "xavier"
      std: 0.03
    }
    bias_filler {
      type: "constant"
      value: 0.2
    }
  }
}
layer {
  name: "inception_4a/relu_5x5"
  type: "ReLU"
  bottom: "inception_4a/5x5"
  top: "inception_4a/5x5"
}
layer {
  name: "inception_4a/pool"
  type: "Pooling"
  bottom: "pool3/3x3_s2"
  top: "inception_4a/pool"
  pooling_param {
    pool: MAX
    kernel_size: 3
    stride: 1
    pad: 1
  }
}
layer {
  name: "inception_4a/pool_proj"
  type: "Convolution"
  bottom: "inception_4a/pool"
  top: "inception_4a/pool_proj"
  param {
    lr_mult: 1
    decay_mult: 1
  }
  param {
    lr_mult: 2
    decay_mult: 0
  }
  convolution_param {
    num_output: 64
    kernel_size: 1
    weight_filler {
      type: "xavier"
      std: 0.1
    }
    bias_filler {
      type: "constant"
      value: 0.2
    }
  }
}
layer {
  name: "inception_4a/relu_pool_proj"
  type: "ReLU"
  bottom: "inception_4a/pool_proj"
  top: "inception_4a/pool_proj"
}
layer {
  name: "inception_4a/output"
  type: "Concat"
  bottom: "inception_4a/1x1"
  bottom: "inception_4a/3x3"
  bottom: "inception_4a/5x5"
  bottom: "inception_4a/pool_proj"
  top: "inception_4a/output"
}
layer {
  name: "loss1/ave_pool"
  type: "Pooling"
  bottom: "inception_4a/output"
  top: "loss1/ave_pool"
  pooling_param {
    pool: AVE
    kernel_size: 5
    stride: 3
  }
}
layer {
  name: "loss1/conv"
  type: "Convolution"
  bottom: "loss1/ave_pool"
  top: "loss1/conv"
  param {
    lr_mult: 1
    decay_mult: 1
  }
  param {
    lr_mult: 2
    decay_mult: 0
  }
  convolution_param {
    num_output: 128
    kernel_size: 1
    weight_filler {
      type: "xavier"
      std: 0.08
    }
    bias_filler {
      type: "constant"
      value: 0.2
    }
  }
}
layer {
  name: "loss1/relu_conv"
  type: "ReLU"
  bottom: "loss1/conv"
  top: "loss1/conv"
}
layer {
  name: "loss1/fc"
  type: "InnerProduct"
  bottom: "loss1/conv"
  top: "loss1/fc"
  param {
    lr_mult: 1
    decay_mult: 1
  }
  param {
    lr_mult: 2
    decay_mult: 0
  }
  inner_product_param {
    num_output: 1024
    weight_filler {
      type: "xavier"
      std: 0.02
    }
    bias_filler {
      type: "constant"
      value: 0.2
    }
  }
}
layer {
  name: "loss1/relu_fc"
  type: "ReLU"
  bottom: "loss1/fc"
  top: "loss1/fc"
}
layer {
  name: "loss1/drop_fc"
  type: "Dropout"
  bottom: "loss1/fc"
  top: "loss1/fc"
  dropout_param {
    dropout_ratio: 0.7
  }
}
layer {
  name: "loss1/classifier_plantvillage"
  type: "InnerProduct"
  bottom: "loss1/fc"
  top: "loss1/classifier_plantvillage"
  param {
    lr_mult: 1
    decay_mult: 1
  }
  param {
    lr_mult: 2
    decay_mult: 0
  }
  inner_product_param {
    num_output: 38
    weight_filler {
      type: "xavier"
      std: 0.0009765625
    }
    bias_filler {
      type: "constant"
      value: 0
    }
  }
}
layer {
  name: "inception_4b/1x1"
  type: "Convolution"
  bottom: "inception_4a/output"
  top: "inception_4b/1x1"
  param {
    lr_mult: 1
    decay_mult: 1
  }
  param {
    lr_mult: 2
    decay_mult: 0
  }
  convolution_param {
    num_output: 160
    kernel_size: 1
    weight_filler {
      type: "xavier"
      std: 0.03
    }
    bias_filler {
      type: "constant"
      value: 0.2
    }
  }
}
layer {
  name: "inception_4b/relu_1x1"
  type: "ReLU"
  bottom: "inception_4b/1x1"
  top: "inception_4b/1x1"
}
layer {
  name: "inception_4b/3x3_reduce"
  type: "Convolution"
  bottom: "inception_4a/output"
  top: "inception_4b/3x3_reduce"
  param {
    lr_mult: 1
    decay_mult: 1
  }
  param {
    lr_mult: 2
    decay_mult: 0
  }
  convolution_param {
    num_output: 112
    kernel_size: 1
    weight_filler {
      type: "xavier"
      std: 0.09
    }
    bias_filler {
      type: "constant"
      value: 0.2
    }
  }
}
layer {
  name: "inception_4b/relu_3x3_reduce"
  type: "ReLU"
  bottom: "inception_4b/3x3_reduce"
  top: "inception_4b/3x3_reduce"
}
layer {
  name: "inception_4b/3x3"
  type: "Convolution"
  bottom: "inception_4b/3x3_reduce"
  top: "inception_4b/3x3"
  param {
    lr_mult: 1
    decay_mult: 1
  }
  param {
    lr_mult: 2
    decay_mult: 0
  }
  convolution_param {
    num_output: 224
    pad: 1
    kernel_size: 3
    weight_filler {
      type: "xavier"
      std: 0.03
    }
    bias_filler {
      type: "constant"
      value: 0.2
    }
  }
}
layer {
  name: "inception_4b/relu_3x3"
  type: "ReLU"
  bottom: "inception_4b/3x3"
  top: "inception_4b/3x3"
}
layer {
  name: "inception_4b/5x5_reduce"
  type: "Convolution"
  bottom: "inception_4a/output"
  top: "inception_4b/5x5_reduce"
  param {
    lr_mult: 1
    decay_mult: 1
  }
  param {
    lr_mult: 2
    decay_mult: 0
  }
  convolution_param {
    num_output: 24
    kernel_size: 1
    weight_filler {
      type: "xavier"
      std: 0.2
    }
    bias_filler {
      type: "constant"
      value: 0.2
    }
  }
}
layer {
  name: "inception_4b/relu_5x5_reduce"
  type: "ReLU"
  bottom: "inception_4b/5x5_reduce"
  top: "inception_4b/5x5_reduce"
}
layer {
  name: "inception_4b/5x5"
  type: "Convolution"
  bottom: "inception_4b/5x5_reduce"
  top: "inception_4b/5x5"
  param {
    lr_mult: 1
    decay_mult: 1
  }
  param {
    lr_mult: 2
    decay_mult: 0
  }
  convolution_param {
    num_output: 64
    pad: 2
    kernel_size: 5
    weight_filler {
      type: "xavier"
      std: 0.03
    }
    bias_filler {
      type: "constant"
      value: 0.2
    }
  }
}
layer {
  name: "inception_4b/relu_5x5"
  type: "ReLU"
  bottom: "inception_4b/5x5"
  top: "inception_4b/5x5"
}
layer {
  name: "inception_4b/pool"
  type: "Pooling"
  bottom: "inception_4a/output"
  top: "inception_4b/pool"
  pooling_param {
    pool: MAX
    kernel_size: 3
    stride: 1
    pad: 1
  }
}
layer {
  name: "inception_4b/pool_proj"
  type: "Convolution"
  bottom: "inception_4b/pool"
  top: "inception_4b/pool_proj"
  param {
    lr_mult: 1
    decay_mult: 1
  }
  param {
    lr_mult: 2
    decay_mult: 0
  }
  convolution_param {
    num_output: 64
    kernel_size: 1
    weight_filler {
      type: "xavier"
      std: 0.1
    }
    bias_filler {
      type: "constant"
      value: 0.2
    }
  }
}
layer {
  name: "inception_4b/relu_pool_proj"
  type: "ReLU"
  bottom: "inception_4b/pool_proj"
  top: "inception_4b/pool_proj"
}
layer {
  name: "inception_4b/output"
  type: "Concat"
  bottom: "inception_4b/1x1"
  bottom: "inception_4b/3x3"
  bottom: "inception_4b/5x5"
  bottom: "inception_4b/pool_proj"
  top: "inception_4b/output"
}
layer {
  name: "inception_4c/1x1"
  type: "Convolution"
  bottom: "inception_4b/output"
  top: "inception_4c/1x1"
  param {
    lr_mult: 1
    decay_mult: 1
  }
  param {
    lr_mult: 2
    decay_mult: 0
  }
  convolution_param {
    num_output: 128
    kernel_size: 1
    weight_filler {
      type: "xavier"
      std: 0.03
    }
    bias_filler {
      type: "constant"
      value: 0.2
    }
  }
}
layer {
  name: "inception_4c/relu_1x1"
  type: "ReLU"
  bottom: "inception_4c/1x1"
  top: "inception_4c/1x1"
}
layer {
  name: "inception_4c/3x3_reduce"
  type: "Convolution"
  bottom: "inception_4b/output"
  top: "inception_4c/3x3_reduce"
  param {
    lr_mult: 1
    decay_mult: 1
  }
  param {
    lr_mult: 2
    decay_mult: 0
  }
  convolution_param {
    num_output: 128
    kernel_size: 1
    weight_filler {
      type: "xavier"
      std: 0.09
    }
    bias_filler {
      type: "constant"
      value: 0.2
    }
  }
}
layer {
  name: "inception_4c/relu_3x3_reduce"
  type: "ReLU"
  bottom: "inception_4c/3x3_reduce"
  top: "inception_4c/3x3_reduce"
}
layer {
  name: "inception_4c/3x3"
  type: "Convolution"
  bottom: "inception_4c/3x3_reduce"
  top: "inception_4c/3x3"
  param {
    lr_mult: 1
    decay_mult: 1
  }
  param {
    lr_mult: 2
    decay_mult: 0
  }
  convolution_param {
    num_output: 256
    pad: 1
    kernel_size: 3
    weight_filler {
      type: "xavier"
      std: 0.03
    }
    bias_filler {
      type: "constant"
      value: 0.2
    }
  }
}
layer {
  name: "inception_4c/relu_3x3"
  type: "ReLU"
  bottom: "inception_4c/3x3"
  top: "inception_4c/3x3"
}
layer {
  name: "inception_4c/5x5_reduce"
  type: "Convolution"
  bottom: "inception_4b/output"
  top: "inception_4c/5x5_reduce"
  param {
    lr_mult: 1
    decay_mult: 1
  }
  param {
    lr_mult: 2
    decay_mult: 0
  }
  convolution_param {
    num_output: 24
    kernel_size: 1
    weight_filler {
      type: "xavier"
      std: 0.2
    }
    bias_filler {
      type: "constant"
      value: 0.2
    }
  }
}
layer {
  name: "inception_4c/relu_5x5_reduce"
  type: "ReLU"
  bottom: "inception_4c/5x5_reduce"
  top: "inception_4c/5x5_reduce"
}
layer {
  name: "inception_4c/5x5"
  type: "Convolution"
  bottom: "inception_4c/5x5_reduce"
  top: "inception_4c/5x5"
  param {
    lr_mult: 1
    decay_mult: 1
  }
  param {
    lr_mult: 2
    decay_mult: 0
  }
  convolution_param {
    num_output: 64
    pad: 2
    kernel_size: 5
    weight_filler {
      type: "xavier"
      std: 0.03
    }
    bias_filler {
      type: "constant"
      value: 0.2
    }
  }
}
layer {
  name: "inception_4c/relu_5x5"
  type: "ReLU"
  bottom: "inception_4c/5x5"
  top: "inception_4c/5x5"
}
layer {
  name: "inception_4c/pool"
  type: "Pooling"
  bottom: "inception_4b/output"
  top: "inception_4c/pool"
  pooling_param {
    pool: MAX
    kernel_size: 3
    stride: 1
    pad: 1
  }
}
layer {
  name: "inception_4c/pool_proj"
  type: "Convolution"
  bottom: "inception_4c/pool"
  top: "inception_4c/pool_proj"
  param {
    lr_mult: 1
    decay_mult: 1
  }
  param {
    lr_mult: 2
    decay_mult: 0
  }
  convolution_param {
    num_output: 64
    kernel_size: 1
    weight_filler {
      type: "xavier"
      std: 0.1
    }
    bias_filler {
      type: "constant"
      value: 0.2
    }
  }
}
layer {
  name: "inception_4c/relu_pool_proj"
  type: "ReLU"
  bottom: "inception_4c/pool_proj"
  top: "inception_4c/pool_proj"
}
layer {
  name: "inception_4c/output"
  type: "Concat"
  bottom: "inception_4c/1x1"
  bottom: "inception_4c/3x3"
  bottom: "inception_4c/5x5"
  bottom: "inception_4c/pool_proj"
  top: "inception_4c/output"
}
layer {
  name: "inception_4d/1x1"
  type: "Convolution"
  bottom: "inception_4c/output"
  top: "inception_4d/1x1"
  param {
    lr_mult: 1
    decay_mult: 1
  }
  param {
    lr_mult: 2
    decay_mult: 0
  }
  convolution_param {
    num_output: 112
    kernel_size: 1
    weight_filler {
      type: "xavier"
      std: 0.03
    }
    bias_filler {
      type: "constant"
      value: 0.2
    }
  }
}
layer {
  name: "inception_4d/relu_1x1"
  type: "ReLU"
  bottom: "inception_4d/1x1"
  top: "inception_4d/1x1"
}
layer {
  name: "inception_4d/3x3_reduce"
  type: "Convolution"
  bottom: "inception_4c/output"
  top: "inception_4d/3x3_reduce"
  param {
    lr_mult: 1
    decay_mult: 1
  }
  param {
    lr_mult: 2
    decay_mult: 0
  }
  convolution_param {
    num_output: 144
    kernel_size: 1
    weight_filler {
      type: "xavier"
      std: 0.09
    }
    bias_filler {
      type: "constant"
      value: 0.2
    }
  }
}
layer {
  name: "inception_4d/relu_3x3_reduce"
  type: "ReLU"
  bottom: "inception_4d/3x3_reduce"
  top: "inception_4d/3x3_reduce"
}
layer {
  name: "inception_4d/3x3"
  type: "Convolution"
  bottom: "inception_4d/3x3_reduce"
  top: "inception_4d/3x3"
  param {
    lr_mult: 1
    decay_mult: 1
  }
  param {
    lr_mult: 2
    decay_mult: 0
  }
  convolution_param {
    num_output: 288
    pad: 1
    kernel_size: 3
    weight_filler {
      type: "xavier"
      std: 0.03
    }
    bias_filler {
      type: "constant"
      value: 0.2
    }
  }
}
layer {
  name: "inception_4d/relu_3x3"
  type: "ReLU"
  bottom: "inception_4d/3x3"
  top: "inception_4d/3x3"
}
layer {
  name: "inception_4d/5x5_reduce"
  type: "Convolution"
  bottom: "inception_4c/output"
  top: "inception_4d/5x5_reduce"
  param {
    lr_mult: 1
    decay_mult: 1
  }
  param {
    lr_mult: 2
    decay_mult: 0
  }
  convolution_param {
    num_output: 32
    kernel_size: 1
    weight_filler {
      type: "xavier"
      std: 0.2
    }
    bias_filler {
      type: "constant"
      value: 0.2
    }
  }
}
layer {
  name: "inception_4d/relu_5x5_reduce"
  type: "ReLU"
  bottom: "inception_4d/5x5_reduce"
  top: "inception_4d/5x5_reduce"
}
layer {
  name: "inception_4d/5x5"
  type: "Convolution"
  bottom: "inception_4d/5x5_reduce"
  top: "inception_4d/5x5"
  param {
    lr_mult: 1
    decay_mult: 1
  }
  param {
    lr_mult: 2
    decay_mult: 0
  }
  convolution_param {
    num_output: 64
    pad: 2
    kernel_size: 5
    weight_filler {
      type: "xavier"
      std: 0.03
    }
    bias_filler {
      type: "constant"
      value: 0.2
    }
  }
}
layer {
  name: "inception_4d/relu_5x5"
  type: "ReLU"
  bottom: "inception_4d/5x5"
  top: "inception_4d/5x5"
}
layer {
  name: "inception_4d/pool"
  type: "Pooling"
  bottom: "inception_4c/output"
  top: "inception_4d/pool"
  pooling_param {
    pool: MAX
    kernel_size: 3
    stride: 1
    pad: 1
  }
}
layer {
  name: "inception_4d/pool_proj"
  type: "Convolution"
  bottom: "inception_4d/pool"
  top: "inception_4d/pool_proj"
  param {
    lr_mult: 1
    decay_mult: 1
  }
  param {
    lr_mult: 2
    decay_mult: 0
  }
  convolution_param {
    num_output: 64
    kernel_size: 1
    weight_filler {
      type: "xavier"
      std: 0.1
    }
    bias_filler {
      type: "constant"
      value: 0.2
    }
  }
}
layer {
  name: "inception_4d/relu_pool_proj"
  type: "ReLU"
  bottom: "inception_4d/pool_proj"
  top: "inception_4d/pool_proj"
}
layer {
  name: "inception_4d/output"
  type: "Concat"
  bottom: "inception_4d/1x1"
  bottom: "inception_4d/3x3"
  bottom: "inception_4d/5x5"
  bottom: "inception_4d/pool_proj"
  top: "inception_4d/output"
}
layer {
  name: "loss2/ave_pool"
  type: "Pooling"
  bottom: "inception_4d/output"
  top: "loss2/ave_pool"
  pooling_param {
    pool: AVE
    kernel_size: 5
    stride: 3
  }
}
layer {
  name: "loss2/conv"
  type: "Convolution"
  bottom: "loss2/ave_pool"
  top: "loss2/conv"
  param {
    lr_mult: 1
    decay_mult: 1
  }
  param {
    lr_mult: 2
    decay_mult: 0
  }
  convolution_param {
    num_output: 128
    kernel_size: 1
    weight_filler {
      type: "xavier"
      std: 0.08
    }
    bias_filler {
      type: "constant"
      value: 0.2
    }
  }
}
layer {
  name: "loss2/relu_conv"
  type: "ReLU"
  bottom: "loss2/conv"
  top: "loss2/conv"
}
layer {
  name: "loss2/fc"
  type: "InnerProduct"
  bottom: "loss2/conv"
  top: "loss2/fc"
  param {
    lr_mult: 1
    decay_mult: 1
  }
  param {
    lr_mult: 2
    decay_mult: 0
  }
  inner_product_param {
    num_output: 1024
    weight_filler {
      type: "xavier"
      std: 0.02
    }
    bias_filler {
      type: "constant"
      value: 0.2
    }
  }
}
layer {
  name: "loss2/relu_fc"
  type: "ReLU"
  bottom: "loss2/fc"
  top: "loss2/fc"
}
layer {
  name: "loss2/drop_fc"
  type: "Dropout"
  bottom: "loss2/fc"
  top: "loss2/fc"
  dropout_param {
    dropout_ratio: 0.7
  }
}
layer {
  name: "loss2/classifier_plantvillage"
  type: "InnerProduct"
  bottom: "loss2/fc"
  top: "loss2/classifier_plantvillage"
  param {
    lr_mult: 1
    decay_mult: 1
  }
  param {
    lr_mult: 2
    decay_mult: 0
  }
  inner_product_param {
    num_output: 38
    weight_filler {
      type: "xavier"
      std: 0.0009765625
    }
    bias_filler {
      type: "constant"
      value: 0
    }
  }
}
layer {
  name: "inception_4e/1x1"
  type: "Convolution"
  bottom: "inception_4d/output"
  top: "inception_4e/1x1"
  param {
    lr_mult: 1
    decay_mult: 1
  }
  param {
    lr_mult: 2
    decay_mult: 0
  }
  convolution_param {
    num_output: 256
    kernel_size: 1
    weight_filler {
      type: "xavier"
      std: 0.03
    }
    bias_filler {
      type: "constant"
      value: 0.2
    }
  }
}
layer {
  name: "inception_4e/relu_1x1"
  type: "ReLU"
  bottom: "inception_4e/1x1"
  top: "inception_4e/1x1"
}
layer {
  name: "inception_4e/3x3_reduce"
  type: "Convolution"
  bottom: "inception_4d/output"
  top: "inception_4e/3x3_reduce"
  param {
    lr_mult: 1
    decay_mult: 1
  }
  param {
    lr_mult: 2
    decay_mult: 0
  }
  convolution_param {
    num_output: 160
    kernel_size: 1
    weight_filler {
      type: "xavier"
      std: 0.09
    }
    bias_filler {
      type: "constant"
      value: 0.2
    }
  }
}
layer {
  name: "inception_4e/relu_3x3_reduce"
  type: "ReLU"
  bottom: "inception_4e/3x3_reduce"
  top: "inception_4e/3x3_reduce"
}
layer {
  name: "inception_4e/3x3"
  type: "Convolution"
  bottom: "inception_4e/3x3_reduce"
  top: "inception_4e/3x3"
  param {
    lr_mult: 1
    decay_mult: 1
  }
  param {
    lr_mult: 2
    decay_mult: 0
  }
  convolution_param {
    num_output: 320
    pad: 1
    kernel_size: 3
    weight_filler {
      type: "xavier"
      std: 0.03
    }
    bias_filler {
      type: "constant"
      value: 0.2
    }
  }
}
layer {
  name: "inception_4e/relu_3x3"
  type: "ReLU"
  bottom: "inception_4e/3x3"
  top: "inception_4e/3x3"
}
layer {
  name: "inception_4e/5x5_reduce"
  type: "Convolution"
  bottom: "inception_4d/output"
  top: "inception_4e/5x5_reduce"
  param {
    lr_mult: 1
    decay_mult: 1
  }
  param {
    lr_mult: 2
    decay_mult: 0
  }
  convolution_param {
    num_output: 32
    kernel_size: 1
    weight_filler {
      type: "xavier"
      std: 0.2
    }
    bias_filler {
      type: "constant"
      value: 0.2
    }
  }
}
layer {
  name: "inception_4e/relu_5x5_reduce"
  type: "ReLU"
  bottom: "inception_4e/5x5_reduce"
  top: "inception_4e/5x5_reduce"
}
layer {
  name: "inception_4e/5x5"
  type: "Convolution"
  bottom: "inception_4e/5x5_reduce"
  top: "inception_4e/
I0403 18:44:11.258229 23355 layer_factory.hpp:77] Creating layer data
I0403 18:44:11.258811 23355 net.cpp:91] Creating Layer data
I0403 18:44:11.258841 23355 net.cpp:399] data -> data
I0403 18:44:11.258893 23355 net.cpp:399] data -> label
I0403 18:44:11.258929 23355 data_transformer.cpp:25] Loading mean file from: /home/mohanty/data/final_dataset/lmdb/segmented-40-60/mean.binaryproto
I0403 18:44:11.260135 23360 db_lmdb.cpp:38] Opened lmdb /home/mohanty/data/final_dataset/lmdb/segmented-40-60/test_db
I0403 18:44:11.272032 23355 data_layer.cpp:41] output data size: 24,3,224,224
I0403 18:44:11.298830 23355 net.cpp:141] Setting up data
I0403 18:44:11.298907 23355 net.cpp:148] Top shape: 24 3 224 224 (3612672)
I0403 18:44:11.298930 23355 net.cpp:148] Top shape: 24 (24)
I0403 18:44:11.298944 23355 net.cpp:156] Memory required for data: 14450784
I0403 18:44:11.298972 23355 layer_factory.hpp:77] Creating layer label_data_1_split
I0403 18:44:11.298997 23355 net.cpp:91] Creating Layer label_data_1_split
I0403 18:44:11.299015 23355 net.cpp:425] label_data_1_split <- label
I0403 18:44:11.299046 23355 net.cpp:399] label_data_1_split -> label_data_1_split_0
I0403 18:44:11.299073 23355 net.cpp:399] label_data_1_split -> label_data_1_split_1
I0403 18:44:11.299095 23355 net.cpp:399] label_data_1_split -> label_data_1_split_2
I0403 18:44:11.299116 23355 net.cpp:399] label_data_1_split -> label_data_1_split_3
I0403 18:44:11.299136 23355 net.cpp:399] label_data_1_split -> label_data_1_split_4
I0403 18:44:11.299155 23355 net.cpp:399] label_data_1_split -> label_data_1_split_5
I0403 18:44:11.299175 23355 net.cpp:399] label_data_1_split -> label_data_1_split_6
I0403 18:44:11.299196 23355 net.cpp:399] label_data_1_split -> label_data_1_split_7
I0403 18:44:11.299214 23355 net.cpp:399] label_data_1_split -> label_data_1_split_8
I0403 18:44:11.299235 23355 net.cpp:399] label_data_1_split -> label_data_1_split_9
I0403 18:44:11.299348 23355 net.cpp:141] Setting up label_data_1_split
I0403 18:44:11.299371 23355 net.cpp:148] Top shape: 24 (24)
I0403 18:44:11.299387 23355 net.cpp:148] Top shape: 24 (24)
I0403 18:44:11.299403 23355 net.cpp:148] Top shape: 24 (24)
I0403 18:44:11.299418 23355 net.cpp:148] Top shape: 24 (24)
I0403 18:44:11.299433 23355 net.cpp:148] Top shape: 24 (24)
I0403 18:44:11.299448 23355 net.cpp:148] Top shape: 24 (24)
I0403 18:44:11.299463 23355 net.cpp:148] Top shape: 24 (24)
I0403 18:44:11.299477 23355 net.cpp:148] Top shape: 24 (24)
I0403 18:44:11.299491 23355 net.cpp:148] Top shape: 24 (24)
I0403 18:44:11.299506 23355 net.cpp:148] Top shape: 24 (24)
I0403 18:44:11.299563 23355 net.cpp:156] Memory required for data: 14451744
I0403 18:44:11.299579 23355 layer_factory.hpp:77] Creating layer conv1/7x7_s2
I0403 18:44:11.299609 23355 net.cpp:91] Creating Layer conv1/7x7_s2
I0403 18:44:11.299628 23355 net.cpp:425] conv1/7x7_s2 <- data
I0403 18:44:11.299648 23355 net.cpp:399] conv1/7x7_s2 -> conv1/7x7_s2
I0403 18:44:11.434200 23355 net.cpp:141] Setting up conv1/7x7_s2
I0403 18:44:11.434289 23355 net.cpp:148] Top shape: 24 64 112 112 (19267584)
I0403 18:44:11.434306 23355 net.cpp:156] Memory required for data: 91522080
I0403 18:44:11.434335 23355 layer_factory.hpp:77] Creating layer conv1/relu_7x7
I0403 18:44:11.434361 23355 net.cpp:91] Creating Layer conv1/relu_7x7
I0403 18:44:11.434378 23355 net.cpp:425] conv1/relu_7x7 <- conv1/7x7_s2
I0403 18:44:11.434397 23355 net.cpp:386] conv1/relu_7x7 -> conv1/7x7_s2 (in-place)
I0403 18:44:11.434662 23355 net.cpp:141] Setting up conv1/relu_7x7
I0403 18:44:11.434689 23355 net.cpp:148] Top shape: 24 64 112 112 (19267584)
I0403 18:44:11.434703 23355 net.cpp:156] Memory required for data: 168592416
I0403 18:44:11.434717 23355 layer_factory.hpp:77] Creating layer pool1/3x3_s2
I0403 18:44:11.434739 23355 net.cpp:91] Creating Layer pool1/3x3_s2
I0403 18:44:11.434756 23355 net.cpp:425] pool1/3x3_s2 <- conv1/7x7_s2
I0403 18:44:11.434774 23355 net.cpp:399] pool1/3x3_s2 -> pool1/3x3_s2
I0403 18:44:11.434844 23355 net.cpp:141] Setting up pool1/3x3_s2
I0403 18:44:11.434866 23355 net.cpp:148] Top shape: 24 64 56 56 (4816896)
I0403 18:44:11.434880 23355 net.cpp:156] Memory required for data: 187860000
I0403 18:44:11.434893 23355 layer_factory.hpp:77] Creating layer pool1/norm1
I0403 18:44:11.434916 23355 net.cpp:91] Creating Layer pool1/norm1
I0403 18:44:11.434932 23355 net.cpp:425] pool1/norm1 <- pool1/3x3_s2
I0403 18:44:11.434949 23355 net.cpp:399] pool1/norm1 -> pool1/norm1
I0403 18:44:11.435214 23355 net.cpp:141] Setting up pool1/norm1
I0403 18:44:11.435240 23355 net.cpp:148] Top shape: 24 64 56 56 (4816896)
I0403 18:44:11.435253 23355 net.cpp:156] Memory required for data: 207127584
I0403 18:44:11.435267 23355 layer_factory.hpp:77] Creating layer conv2/3x3_reduce
I0403 18:44:11.435291 23355 net.cpp:91] Creating Layer conv2/3x3_reduce
I0403 18:44:11.435305 23355 net.cpp:425] conv2/3x3_reduce <- pool1/norm1
I0403 18:44:11.435323 23355 net.cpp:399] conv2/3x3_reduce -> conv2/3x3_reduce
I0403 18:44:11.436590 23355 net.cpp:141] Setting up conv2/3x3_reduce
I0403 18:44:11.436619 23355 net.cpp:148] Top shape: 24 64 56 56 (4816896)
I0403 18:44:11.436633 23355 net.cpp:156] Memory required for data: 226395168
I0403 18:44:11.436652 23355 layer_factory.hpp:77] Creating layer conv2/relu_3x3_reduce
I0403 18:44:11.436671 23355 net.cpp:91] Creating Layer conv2/relu_3x3_reduce
I0403 18:44:11.436687 23355 net.cpp:425] conv2/relu_3x3_reduce <- conv2/3x3_reduce
I0403 18:44:11.436703 23355 net.cpp:386] conv2/relu_3x3_reduce -> conv2/3x3_reduce (in-place)
I0403 18:44:11.436960 23355 net.cpp:141] Setting up conv2/relu_3x3_reduce
I0403 18:44:11.436986 23355 net.cpp:148] Top shape: 24 64 56 56 (4816896)
I0403 18:44:11.437001 23355 net.cpp:156] Memory required for data: 245662752
I0403 18:44:11.437014 23355 layer_factory.hpp:77] Creating layer conv2/3x3
I0403 18:44:11.437038 23355 net.cpp:91] Creating Layer conv2/3x3
I0403 18:44:11.437055 23355 net.cpp:425] conv2/3x3 <- conv2/3x3_reduce
I0403 18:44:11.437073 23355 net.cpp:399] conv2/3x3 -> conv2/3x3
I0403 18:44:11.439246 23355 net.cpp:141] Setting up conv2/3x3
I0403 18:44:11.439276 23355 net.cpp:148] Top shape: 24 192 56 56 (14450688)
I0403 18:44:11.439292 23355 net.cpp:156] Memory required for data: 303465504
I0403 18:44:11.439311 23355 layer_factory.hpp:77] Creating layer conv2/relu_3x3
I0403 18:44:11.439330 23355 net.cpp:91] Creating Layer conv2/relu_3x3
I0403 18:44:11.439347 23355 net.cpp:425] conv2/relu_3x3 <- conv2/3x3
I0403 18:44:11.439363 23355 net.cpp:386] conv2/relu_3x3 -> conv2/3x3 (in-place)
I0403 18:44:11.439527 23355 net.cpp:141] Setting up conv2/relu_3x3
I0403 18:44:11.439555 23355 net.cpp:148] Top shape: 24 192 56 56 (14450688)
I0403 18:44:11.439607 23355 net.cpp:156] Memory required for data: 361268256
I0403 18:44:11.439621 23355 layer_factory.hpp:77] Creating layer conv2/norm2
I0403 18:44:11.439640 23355 net.cpp:91] Creating Layer conv2/norm2
I0403 18:44:11.439656 23355 net.cpp:425] conv2/norm2 <- conv2/3x3
I0403 18:44:11.439673 23355 net.cpp:399] conv2/norm2 -> conv2/norm2
I0403 18:44:11.439961 23355 net.cpp:141] Setting up conv2/norm2
I0403 18:44:11.439986 23355 net.cpp:148] Top shape: 24 192 56 56 (14450688)
I0403 18:44:11.440001 23355 net.cpp:156] Memory required for data: 419071008
I0403 18:44:11.440014 23355 layer_factory.hpp:77] Creating layer pool2/3x3_s2
I0403 18:44:11.440032 23355 net.cpp:91] Creating Layer pool2/3x3_s2
I0403 18:44:11.440047 23355 net.cpp:425] pool2/3x3_s2 <- conv2/norm2
I0403 18:44:11.440064 23355 net.cpp:399] pool2/3x3_s2 -> pool2/3x3_s2
I0403 18:44:11.440114 23355 net.cpp:141] Setting up pool2/3x3_s2
I0403 18:44:11.440136 23355 net.cpp:148] Top shape: 24 192 28 28 (3612672)
I0403 18:44:11.440150 23355 net.cpp:156] Memory required for data: 433521696
I0403 18:44:11.440163 23355 layer_factory.hpp:77] Creating layer pool2/3x3_s2_pool2/3x3_s2_0_split
I0403 18:44:11.440181 23355 net.cpp:91] Creating Layer pool2/3x3_s2_pool2/3x3_s2_0_split
I0403 18:44:11.440193 23355 net.cpp:425] pool2/3x3_s2_pool2/3x3_s2_0_split <- pool2/3x3_s2
I0403 18:44:11.440217 23355 net.cpp:399] pool2/3x3_s2_pool2/3x3_s2_0_split -> pool2/3x3_s2_pool2/3x3_s2_0_split_0
I0403 18:44:11.440235 23355 net.cpp:399] pool2/3x3_s2_pool2/3x3_s2_0_split -> pool2/3x3_s2_pool2/3x3_s2_0_split_1
I0403 18:44:11.440254 23355 net.cpp:399] pool2/3x3_s2_pool2/3x3_s2_0_split -> pool2/3x3_s2_pool2/3x3_s2_0_split_2
I0403 18:44:11.440274 23355 net.cpp:399] pool2/3x3_s2_pool2/3x3_s2_0_split -> pool2/3x3_s2_pool2/3x3_s2_0_split_3
I0403 18:44:11.440340 23355 net.cpp:141] Setting up pool2/3x3_s2_pool2/3x3_s2_0_split
I0403 18:44:11.440362 23355 net.cpp:148] Top shape: 24 192 28 28 (3612672)
I0403 18:44:11.440379 23355 net.cpp:148] Top shape: 24 192 28 28 (3612672)
I0403 18:44:11.440393 23355 net.cpp:148] Top shape: 24 192 28 28 (3612672)
I0403 18:44:11.440407 23355 net.cpp:148] Top shape: 24 192 28 28 (3612672)
I0403 18:44:11.440420 23355 net.cpp:156] Memory required for data: 491324448
I0403 18:44:11.440433 23355 layer_factory.hpp:77] Creating layer inception_3a/1x1
I0403 18:44:11.440454 23355 net.cpp:91] Creating Layer inception_3a/1x1
I0403 18:44:11.440469 23355 net.cpp:425] inception_3a/1x1 <- pool2/3x3_s2_pool2/3x3_s2_0_split_0
I0403 18:44:11.440490 23355 net.cpp:399] inception_3a/1x1 -> inception_3a/1x1
I0403 18:44:11.441939 23355 net.cpp:141] Setting up inception_3a/1x1
I0403 18:44:11.441968 23355 net.cpp:148] Top shape: 24 64 28 28 (1204224)
I0403 18:44:11.441983 23355 net.cpp:156] Memory required for data: 496141344
I0403 18:44:11.442000 23355 layer_factory.hpp:77] Creating layer inception_3a/relu_1x1
I0403 18:44:11.442020 23355 net.cpp:91] Creating Layer inception_3a/relu_1x1
I0403 18:44:11.442035 23355 net.cpp:425] inception_3a/relu_1x1 <- inception_3a/1x1
I0403 18:44:11.442052 23355 net.cpp:386] inception_3a/relu_1x1 -> inception_3a/1x1 (in-place)
I0403 18:44:11.442216 23355 net.cpp:141] Setting up inception_3a/relu_1x1
I0403 18:44:11.442242 23355 net.cpp:148] Top shape: 24 64 28 28 (1204224)
I0403 18:44:11.442266 23355 net.cpp:156] Memory required for data: 500958240
I0403 18:44:11.442281 23355 layer_factory.hpp:77] Creating layer inception_3a/3x3_reduce
I0403 18:44:11.442301 23355 net.cpp:91] Creating Layer inception_3a/3x3_reduce
I0403 18:44:11.442318 23355 net.cpp:425] inception_3a/3x3_reduce <- pool2/3x3_s2_pool2/3x3_s2_0_split_1
I0403 18:44:11.442335 23355 net.cpp:399] inception_3a/3x3_reduce -> inception_3a/3x3_reduce
I0403 18:44:11.443945 23355 net.cpp:141] Setting up inception_3a/3x3_reduce
I0403 18:44:11.443974 23355 net.cpp:148] Top shape: 24 96 28 28 (1806336)
I0403 18:44:11.443989 23355 net.cpp:156] Memory required for data: 508183584
I0403 18:44:11.444007 23355 layer_factory.hpp:77] Creating layer inception_3a/relu_3x3_reduce
I0403 18:44:11.444042 23355 net.cpp:91] Creating Layer inception_3a/relu_3x3_reduce
I0403 18:44:11.444061 23355 net.cpp:425] inception_3a/relu_3x3_reduce <- inception_3a/3x3_reduce
I0403 18:44:11.444079 23355 net.cpp:386] inception_3a/relu_3x3_reduce -> inception_3a/3x3_reduce (in-place)
I0403 18:44:11.444247 23355 net.cpp:141] Setting up inception_3a/relu_3x3_reduce
I0403 18:44:11.444272 23355 net.cpp:148] Top shape: 24 96 28 28 (1806336)
I0403 18:44:11.444285 23355 net.cpp:156] Memory required for data: 515408928
I0403 18:44:11.444298 23355 layer_factory.hpp:77] Creating layer inception_3a/3x3
I0403 18:44:11.444320 23355 net.cpp:91] Creating Layer inception_3a/3x3
I0403 18:44:11.444336 23355 net.cpp:425] inception_3a/3x3 <- inception_3a/3x3_reduce
I0403 18:44:11.444357 23355 net.cpp:399] inception_3a/3x3 -> inception_3a/3x3
I0403 18:44:11.445909 23355 net.cpp:141] Setting up inception_3a/3x3
I0403 18:44:11.445940 23355 net.cpp:148] Top shape: 24 128 28 28 (2408448)
I0403 18:44:11.445955 23355 net.cpp:156] Memory required for data: 525042720
I0403 18:44:11.445972 23355 layer_factory.hpp:77] Creating layer inception_3a/relu_3x3
I0403 18:44:11.445989 23355 net.cpp:91] Creating Layer inception_3a/relu_3x3
I0403 18:44:11.446004 23355 net.cpp:425] inception_3a/relu_3x3 <- inception_3a/3x3
I0403 18:44:11.446020 23355 net.cpp:386] inception_3a/relu_3x3 -> inception_3a/3x3 (in-place)
I0403 18:44:11.446277 23355 net.cpp:141] Setting up inception_3a/relu_3x3
I0403 18:44:11.446308 23355 net.cpp:148] Top shape: 24 128 28 28 (2408448)
I0403 18:44:11.446324 23355 net.cpp:156] Memory required for data: 534676512
I0403 18:44:11.446338 23355 layer_factory.hpp:77] Creating layer inception_3a/5x5_reduce
I0403 18:44:11.446359 23355 net.cpp:91] Creating Layer inception_3a/5x5_reduce
I0403 18:44:11.446375 23355 net.cpp:425] inception_3a/5x5_reduce <- pool2/3x3_s2_pool2/3x3_s2_0_split_2
I0403 18:44:11.446393 23355 net.cpp:399] inception_3a/5x5_reduce -> inception_3a/5x5_reduce
I0403 18:44:11.447299 23355 net.cpp:141] Setting up inception_3a/5x5_reduce
I0403 18:44:11.447325 23355 net.cpp:148] Top shape: 24 16 28 28 (301056)
I0403 18:44:11.447340 23355 net.cpp:156] Memory required for data: 535880736
I0403 18:44:11.447356 23355 layer_factory.hpp:77] Creating layer inception_3a/relu_5x5_reduce
I0403 18:44:11.447373 23355 net.cpp:91] Creating Layer inception_3a/relu_5x5_reduce
I0403 18:44:11.447388 23355 net.cpp:425] inception_3a/relu_5x5_reduce <- inception_3a/5x5_reduce
I0403 18:44:11.447407 23355 net.cpp:386] inception_3a/relu_5x5_reduce -> inception_3a/5x5_reduce (in-place)
I0403 18:44:11.447687 23355 net.cpp:141] Setting up inception_3a/relu_5x5_reduce
I0403 18:44:11.447711 23355 net.cpp:148] Top shape: 24 16 28 28 (301056)
I0403 18:44:11.447726 23355 net.cpp:156] Memory required for data: 537084960
I0403 18:44:11.447741 23355 layer_factory.hpp:77] Creating layer inception_3a/5x5
I0403 18:44:11.447762 23355 net.cpp:91] Creating Layer inception_3a/5x5
I0403 18:44:11.447778 23355 net.cpp:425] inception_3a/5x5 <- inception_3a/5x5_reduce
I0403 18:44:11.447798 23355 net.cpp:399] inception_3a/5x5 -> inception_3a/5x5
I0403 18:44:11.448740 23355 net.cpp:141] Setting up inception_3a/5x5
I0403 18:44:11.448770 23355 net.cpp:148] Top shape: 24 32 28 28 (602112)
I0403 18:44:11.448786 23355 net.cpp:156] Memory required for data: 539493408
I0403 18:44:11.448802 23355 layer_factory.hpp:77] Creating layer inception_3a/relu_5x5
I0403 18:44:11.448819 23355 net.cpp:91] Creating Layer inception_3a/relu_5x5
I0403 18:44:11.448833 23355 net.cpp:425] inception_3a/relu_5x5 <- inception_3a/5x5
I0403 18:44:11.448849 23355 net.cpp:386] inception_3a/relu_5x5 -> inception_3a/5x5 (in-place)
I0403 18:44:11.449010 23355 net.cpp:141] Setting up inception_3a/relu_5x5
I0403 18:44:11.449035 23355 net.cpp:148] Top shape: 24 32 28 28 (602112)
I0403 18:44:11.449050 23355 net.cpp:156] Memory required for data: 541901856
I0403 18:44:11.449064 23355 layer_factory.hpp:77] Creating layer inception_3a/pool
I0403 18:44:11.449080 23355 net.cpp:91] Creating Layer inception_3a/pool
I0403 18:44:11.449111 23355 net.cpp:425] inception_3a/pool <- pool2/3x3_s2_pool2/3x3_s2_0_split_3
I0403 18:44:11.449131 23355 net.cpp:399] inception_3a/pool -> inception_3a/pool
I0403 18:44:11.449187 23355 net.cpp:141] Setting up inception_3a/pool
I0403 18:44:11.449210 23355 net.cpp:148] Top shape: 24 192 28 28 (3612672)
I0403 18:44:11.449224 23355 net.cpp:156] Memory required for data: 556352544
I0403 18:44:11.449237 23355 layer_factory.hpp:77] Creating layer inception_3a/pool_proj
I0403 18:44:11.449259 23355 net.cpp:91] Creating Layer inception_3a/pool_proj
I0403 18:44:11.449276 23355 net.cpp:425] inception_3a/pool_proj <- inception_3a/pool
I0403 18:44:11.449295 23355 net.cpp:399] inception_3a/pool_proj -> inception_3a/pool_proj
I0403 18:44:11.450196 23355 net.cpp:141] Setting up inception_3a/pool_proj
I0403 18:44:11.450222 23355 net.cpp:148] Top shape: 24 32 28 28 (602112)
I0403 18:44:11.450237 23355 net.cpp:156] Memory required for data: 558760992
I0403 18:44:11.450258 23355 layer_factory.hpp:77] Creating layer inception_3a/relu_pool_proj
I0403 18:44:11.450278 23355 net.cpp:91] Creating Layer inception_3a/relu_pool_proj
I0403 18:44:11.450292 23355 net.cpp:425] inception_3a/relu_pool_proj <- inception_3a/pool_proj
I0403 18:44:11.450310 23355 net.cpp:386] inception_3a/relu_pool_proj -> inception_3a/pool_proj (in-place)
I0403 18:44:11.450572 23355 net.cpp:141] Setting up inception_3a/relu_pool_proj
I0403 18:44:11.450598 23355 net.cpp:148] Top shape: 24 32 28 28 (602112)
I0403 18:44:11.450613 23355 net.cpp:156] Memory required for data: 561169440
I0403 18:44:11.450628 23355 layer_factory.hpp:77] Creating layer inception_3a/output
I0403 18:44:11.450644 23355 net.cpp:91] Creating Layer inception_3a/output
I0403 18:44:11.450659 23355 net.cpp:425] inception_3a/output <- inception_3a/1x1
I0403 18:44:11.450673 23355 net.cpp:425] inception_3a/output <- inception_3a/3x3
I0403 18:44:11.450688 23355 net.cpp:425] inception_3a/output <- inception_3a/5x5
I0403 18:44:11.450703 23355 net.cpp:425] inception_3a/output <- inception_3a/pool_proj
I0403 18:44:11.450719 23355 net.cpp:399] inception_3a/output -> inception_3a/output
I0403 18:44:11.450765 23355 net.cpp:141] Setting up inception_3a/output
I0403 18:44:11.450788 23355 net.cpp:148] Top shape: 24 256 28 28 (4816896)
I0403 18:44:11.450800 23355 net.cpp:156] Memory required for data: 580437024
I0403 18:44:11.450814 23355 layer_factory.hpp:77] Creating layer inception_3a/output_inception_3a/output_0_split
I0403 18:44:11.450831 23355 net.cpp:91] Creating Layer inception_3a/output_inception_3a/output_0_split
I0403 18:44:11.450845 23355 net.cpp:425] inception_3a/output_inception_3a/output_0_split <- inception_3a/output
I0403 18:44:11.450861 23355 net.cpp:399] inception_3a/output_inception_3a/output_0_split -> inception_3a/output_inception_3a/output_0_split_0
I0403 18:44:11.450881 23355 net.cpp:399] inception_3a/output_inception_3a/output_0_split -> inception_3a/output_inception_3a/output_0_split_1
I0403 18:44:11.450903 23355 net.cpp:399] inception_3a/output_inception_3a/output_0_split -> inception_3a/output_inception_3a/output_0_split_2
I0403 18:44:11.450924 23355 net.cpp:399] inception_3a/output_inception_3a/output_0_split -> inception_3a/output_inception_3a/output_0_split_3
I0403 18:44:11.450994 23355 net.cpp:141] Setting up inception_3a/output_inception_3a/output_0_split
I0403 18:44:11.451015 23355 net.cpp:148] Top shape: 24 256 28 28 (4816896)
I0403 18:44:11.451031 23355 net.cpp:148] Top shape: 24 256 28 28 (4816896)
I0403 18:44:11.451045 23355 net.cpp:148] Top shape: 24 256 28 28 (4816896)
I0403 18:44:11.451059 23355 net.cpp:148] Top shape: 24 256 28 28 (4816896)
I0403 18:44:11.451071 23355 net.cpp:156] Memory required for data: 657507360
I0403 18:44:11.451084 23355 layer_factory.hpp:77] Creating layer inception_3b/1x1
I0403 18:44:11.451107 23355 net.cpp:91] Creating Layer inception_3b/1x1
I0403 18:44:11.451123 23355 net.cpp:425] inception_3b/1x1 <- inception_3a/output_inception_3a/output_0_split_0
I0403 18:44:11.451141 23355 net.cpp:399] inception_3b/1x1 -> inception_3b/1x1
I0403 18:44:11.452210 23355 net.cpp:141] Setting up inception_3b/1x1
I0403 18:44:11.452247 23355 net.cpp:148] Top shape: 24 128 28 28 (2408448)
I0403 18:44:11.452263 23355 net.cpp:156] Memory required for data: 667141152
I0403 18:44:11.452280 23355 layer_factory.hpp:77] Creating layer inception_3b/relu_1x1
I0403 18:44:11.452299 23355 net.cpp:91] Creating Layer inception_3b/relu_1x1
I0403 18:44:11.452316 23355 net.cpp:425] inception_3b/relu_1x1 <- inception_3b/1x1
I0403 18:44:11.452332 23355 net.cpp:386] inception_3b/relu_1x1 -> inception_3b/1x1 (in-place)
I0403 18:44:11.452499 23355 net.cpp:141] Setting up inception_3b/relu_1x1
I0403 18:44:11.452525 23355 net.cpp:148] Top shape: 24 128 28 28 (2408448)
I0403 18:44:11.452545 23355 net.cpp:156] Memory required for data: 676774944
I0403 18:44:11.452560 23355 layer_factory.hpp:77] Creating layer inception_3b/3x3_reduce
I0403 18:44:11.452581 23355 net.cpp:91] Creating Layer inception_3b/3x3_reduce
I0403 18:44:11.452599 23355 net.cpp:425] inception_3b/3x3_reduce <- inception_3a/output_inception_3a/output_0_split_1
I0403 18:44:11.452616 23355 net.cpp:399] inception_3b/3x3_reduce -> inception_3b/3x3_reduce
I0403 18:44:11.453683 23355 net.cpp:141] Setting up inception_3b/3x3_reduce
I0403 18:44:11.453711 23355 net.cpp:148] Top shape: 24 128 28 28 (2408448)
I0403 18:44:11.453724 23355 net.cpp:156] Memory required for data: 686408736
I0403 18:44:11.453742 23355 layer_factory.hpp:77] Creating layer inception_3b/relu_3x3_reduce
I0403 18:44:11.453761 23355 net.cpp:91] Creating Layer inception_3b/relu_3x3_reduce
I0403 18:44:11.453778 23355 net.cpp:425] inception_3b/relu_3x3_reduce <- inception_3b/3x3_reduce
I0403 18:44:11.453794 23355 net.cpp:386] inception_3b/relu_3x3_reduce -> inception_3b/3x3_reduce (in-place)
I0403 18:44:11.453953 23355 net.cpp:141] Setting up inception_3b/relu_3x3_reduce
I0403 18:44:11.453979 23355 net.cpp:148] Top shape: 24 128 28 28 (2408448)
I0403 18:44:11.453994 23355 net.cpp:156] Memory required for data: 696042528
I0403 18:44:11.454007 23355 layer_factory.hpp:77] Creating layer inception_3b/3x3
I0403 18:44:11.454030 23355 net.cpp:91] Creating Layer inception_3b/3x3
I0403 18:44:11.454047 23355 net.cpp:425] inception_3b/3x3 <- inception_3b/3x3_reduce
I0403 18:44:11.454066 23355 net.cpp:399] inception_3b/3x3 -> inception_3b/3x3
I0403 18:44:11.456810 23355 net.cpp:141] Setting up inception_3b/3x3
I0403 18:44:11.456843 23355 net.cpp:148] Top shape: 24 192 28 28 (3612672)
I0403 18:44:11.456859 23355 net.cpp:156] Memory required for data: 710493216
I0403 18:44:11.456876 23355 layer_factory.hpp:77] Creating layer inception_3b/relu_3x3
I0403 18:44:11.456893 23355 net.cpp:91] Creating Layer inception_3b/relu_3x3
I0403 18:44:11.456908 23355 net.cpp:425] inception_3b/relu_3x3 <- inception_3b/3x3
I0403 18:44:11.456924 23355 net.cpp:386] inception_3b/relu_3x3 -> inception_3b/3x3 (in-place)
I0403 18:44:11.457182 23355 net.cpp:141] Setting up inception_3b/relu_3x3
I0403 18:44:11.457211 23355 net.cpp:148] Top shape: 24 192 28 28 (3612672)
I0403 18:44:11.457226 23355 net.cpp:156] Memory required for data: 724943904
I0403 18:44:11.457239 23355 layer_factory.hpp:77] Creating layer inception_3b/5x5_reduce
I0403 18:44:11.457262 23355 net.cpp:91] Creating Layer inception_3b/5x5_reduce
I0403 18:44:11.457278 23355 net.cpp:425] inception_3b/5x5_reduce <- inception_3a/output_inception_3a/output_0_split_2
I0403 18:44:11.457296 23355 net.cpp:399] inception_3b/5x5_reduce -> inception_3b/5x5_reduce
I0403 18:44:11.458284 23355 net.cpp:141] Setting up inception_3b/5x5_reduce
I0403 18:44:11.458314 23355 net.cpp:148] Top shape: 24 32 28 28 (602112)
I0403 18:44:11.458330 23355 net.cpp:156] Memory required for data: 727352352
I0403 18:44:11.458348 23355 layer_factory.hpp:77] Creating layer inception_3b/relu_5x5_reduce
I0403 18:44:11.458365 23355 net.cpp:91] Creating Layer inception_3b/relu_5x5_reduce
I0403 18:44:11.458380 23355 net.cpp:425] inception_3b/relu_5x5_reduce <- inception_3b/5x5_reduce
I0403 18:44:11.458396 23355 net.cpp:386] inception_3b/relu_5x5_reduce -> inception_3b/5x5_reduce (in-place)
I0403 18:44:11.458585 23355 net.cpp:141] Setting up inception_3b/relu_5x5_reduce
I0403 18:44:11.458611 23355 net.cpp:148] Top shape: 24 32 28 28 (602112)
I0403 18:44:11.458626 23355 net.cpp:156] Memory required for data: 729760800
I0403 18:44:11.458638 23355 layer_factory.hpp:77] Creating layer inception_3b/5x5
I0403 18:44:11.458660 23355 net.cpp:91] Creating Layer inception_3b/5x5
I0403 18:44:11.458676 23355 net.cpp:425] inception_3b/5x5 <- inception_3b/5x5_reduce
I0403 18:44:11.458696 23355 net.cpp:399] inception_3b/5x5 -> inception_3b/5x5
I0403 18:44:11.460597 23355 net.cpp:141] Setting up inception_3b/5x5
I0403 18:44:11.460624 23355 net.cpp:148] Top shape: 24 96 28 28 (1806336)
I0403 18:44:11.460640 23355 net.cpp:156] Memory required for data: 736986144
I0403 18:44:11.460657 23355 layer_factory.hpp:77] Creating layer inception_3b/relu_5x5
I0403 18:44:11.460677 23355 net.cpp:91] Creating Layer inception_3b/relu_5x5
I0403 18:44:11.460693 23355 net.cpp:425] inception_3b/relu_5x5 <- inception_3b/5x5
I0403 18:44:11.460711 23355 net.cpp:386] inception_3b/relu_5x5 -> inception_3b/5x5 (in-place)
I0403 18:44:11.460893 23355 net.cpp:141] Setting up inception_3b/relu_5x5
I0403 18:44:11.460918 23355 net.cpp:148] Top shape: 24 96 28 28 (1806336)
I0403 18:44:11.460932 23355 net.cpp:156] Memory required for data: 744211488
I0403 18:44:11.460947 23355 layer_factory.hpp:77] Creating layer inception_3b/pool
I0403 18:44:11.460963 23355 net.cpp:91] Creating Layer inception_3b/pool
I0403 18:44:11.460978 23355 net.cpp:425] inception_3b/pool <- inception_3a/output_inception_3a/output_0_split_3
I0403 18:44:11.460995 23355 net.cpp:399] inception_3b/pool -> inception_3b/pool
I0403 18:44:11.461050 23355 net.cpp:141] Setting up inception_3b/pool
I0403 18:44:11.461072 23355 net.cpp:148] Top shape: 24 256 28 28 (4816896)
I0403 18:44:11.461086 23355 net.cpp:156] Memory required for data: 763479072
I0403 18:44:11.461099 23355 layer_factory.hpp:77] Creating layer inception_3b/pool_proj
I0403 18:44:11.461122 23355 net.cpp:91] Creating Layer inception_3b/pool_proj
I0403 18:44:11.461138 23355 net.cpp:425] inception_3b/pool_proj <- inception_3b/pool
I0403 18:44:11.461158 23355 net.cpp:399] inception_3b/pool_proj -> inception_3b/pool_proj
I0403 18:44:11.462179 23355 net.cpp:141] Setting up inception_3b/pool_proj
I0403 18:44:11.462206 23355 net.cpp:148] Top shape: 24 64 28 28 (1204224)
I0403 18:44:11.462221 23355 net.cpp:156] Memory required for data: 768295968
I0403 18:44:11.462239 23355 layer_factory.hpp:77] Creating layer inception_3b/relu_pool_proj
I0403 18:44:11.462255 23355 net.cpp:91] Creating Layer inception_3b/relu_pool_proj
I0403 18:44:11.462275 23355 net.cpp:425] inception_3b/relu_pool_proj <- inception_3b/pool_proj
I0403 18:44:11.462291 23355 net.cpp:386] inception_3b/relu_pool_proj -> inception_3b/pool_proj (in-place)
I0403 18:44:11.462674 23355 net.cpp:141] Setting up inception_3b/relu_pool_proj
I0403 18:44:11.462699 23355 net.cpp:148] Top shape: 24 64 28 28 (1204224)
I0403 18:44:11.462714 23355 net.cpp:156] Memory required for data: 773112864
I0403 18:44:11.462728 23355 layer_factory.hpp:77] Creating layer inception_3b/output
I0403 18:44:11.462744 23355 net.cpp:91] Creating Layer inception_3b/output
I0403 18:44:11.462759 23355 net.cpp:425] inception_3b/output <- inception_3b/1x1
I0403 18:44:11.462775 23355 net.cpp:425] inception_3b/output <- inception_3b/3x3
I0403 18:44:11.462790 23355 net.cpp:425] inception_3b/output <- inception_3b/5x5
I0403 18:44:11.462806 23355 net.cpp:425] inception_3b/output <- inception_3b/pool_proj
I0403 18:44:11.462824 23355 net.cpp:399] inception_3b/output -> inception_3b/output
I0403 18:44:11.462867 23355 net.cpp:141] Setting up inception_3b/output
I0403 18:44:11.462893 23355 net.cpp:148] Top shape: 24 480 28 28 (9031680)
I0403 18:44:11.462908 23355 net.cpp:156] Memory required for data: 809239584
I0403 18:44:11.462920 23355 layer_factory.hpp:77] Creating layer pool3/3x3_s2
I0403 18:44:11.462937 23355 net.cpp:91] Creating Layer pool3/3x3_s2
I0403 18:44:11.462952 23355 net.cpp:425] pool3/3x3_s2 <- inception_3b/output
I0403 18:44:11.462985 23355 net.cpp:399] pool3/3x3_s2 -> pool3/3x3_s2
I0403 18:44:11.463043 23355 net.cpp:141] Setting up pool3/3x3_s2
I0403 18:44:11.463065 23355 net.cpp:148] Top shape: 24 480 14 14 (2257920)
I0403 18:44:11.463079 23355 net.cpp:156] Memory required for data: 818271264
I0403 18:44:11.463093 23355 layer_factory.hpp:77] Creating layer pool3/3x3_s2_pool3/3x3_s2_0_split
I0403 18:44:11.463109 23355 net.cpp:91] Creating Layer pool3/3x3_s2_pool3/3x3_s2_0_split
I0403 18:44:11.463124 23355 net.cpp:425] pool3/3x3_s2_pool3/3x3_s2_0_split <- pool3/3x3_s2
I0403 18:44:11.463142 23355 net.cpp:399] pool3/3x3_s2_pool3/3x3_s2_0_split -> pool3/3x3_s2_pool3/3x3_s2_0_split_0
I0403 18:44:11.463162 23355 net.cpp:399] pool3/3x3_s2_pool3/3x3_s2_0_split -> pool3/3x3_s2_pool3/3x3_s2_0_split_1
I0403 18:44:11.463181 23355 net.cpp:399] pool3/3x3_s2_pool3/3x3_s2_0_split -> pool3/3x3_s2_pool3/3x3_s2_0_split_2
I0403 18:44:11.463199 23355 net.cpp:399] pool3/3x3_s2_pool3/3x3_s2_0_split -> pool3/3x3_s2_pool3/3x3_s2_0_split_3
I0403 18:44:11.463276 23355 net.cpp:141] Setting up pool3/3x3_s2_pool3/3x3_s2_0_split
I0403 18:44:11.463299 23355 net.cpp:148] Top shape: 24 480 14 14 (2257920)
I0403 18:44:11.463315 23355 net.cpp:148] Top shape: 24 480 14 14 (2257920)
I0403 18:44:11.463328 23355 net.cpp:148] Top shape: 24 480 14 14 (2257920)
I0403 18:44:11.463342 23355 net.cpp:148] Top shape: 24 480 14 14 (2257920)
I0403 18:44:11.463356 23355 net.cpp:156] Memory required for data: 854397984
I0403 18:44:11.463368 23355 layer_factory.hpp:77] Creating layer inception_4a/1x1
I0403 18:44:11.463389 23355 net.cpp:91] Creating Layer inception_4a/1x1
I0403 18:44:11.463407 23355 net.cpp:425] inception_4a/1x1 <- pool3/3x3_s2_pool3/3x3_s2_0_split_0
I0403 18:44:11.463426 23355 net.cpp:399] inception_4a/1x1 -> inception_4a/1x1
I0403 18:44:11.464949 23355 net.cpp:141] Setting up inception_4a/1x1
I0403 18:44:11.464977 23355 net.cpp:148] Top shape: 24 192 14 14 (903168)
I0403 18:44:11.464992 23355 net.cpp:156] Memory required for data: 858010656
I0403 18:44:11.465008 23355 layer_factory.hpp:77] Creating layer inception_4a/relu_1x1
I0403 18:44:11.465029 23355 net.cpp:91] Creating Layer inception_4a/relu_1x1
I0403 18:44:11.465046 23355 net.cpp:425] inception_4a/relu_1x1 <- inception_4a/1x1
I0403 18:44:11.465064 23355 net.cpp:386] inception_4a/relu_1x1 -> inception_4a/1x1 (in-place)
I0403 18:44:11.465230 23355 net.cpp:141] Setting up inception_4a/relu_1x1
I0403 18:44:11.465255 23355 net.cpp:148] Top shape: 24 192 14 14 (903168)
I0403 18:44:11.465270 23355 net.cpp:156] Memory required for data: 861623328
I0403 18:44:11.465283 23355 layer_factory.hpp:77] Creating layer inception_4a/3x3_reduce
I0403 18:44:11.465307 23355 net.cpp:91] Creating Layer inception_4a/3x3_reduce
I0403 18:44:11.465324 23355 net.cpp:425] inception_4a/3x3_reduce <- pool3/3x3_s2_pool3/3x3_s2_0_split_1
I0403 18:44:11.465342 23355 net.cpp:399] inception_4a/3x3_reduce -> inception_4a/3x3_reduce
I0403 18:44:11.466568 23355 net.cpp:141] Setting up inception_4a/3x3_reduce
I0403 18:44:11.466596 23355 net.cpp:148] Top shape: 24 96 14 14 (451584)
I0403 18:44:11.466611 23355 net.cpp:156] Memory required for data: 863429664
I0403 18:44:11.466634 23355 layer_factory.hpp:77] Creating layer inception_4a/relu_3x3_reduce
I0403 18:44:11.466655 23355 net.cpp:91] Creating Layer inception_4a/relu_3x3_reduce
I0403 18:44:11.466668 23355 net.cpp:425] inception_4a/relu_3x3_reduce <- inception_4a/3x3_reduce
I0403 18:44:11.466691 23355 net.cpp:386] inception_4a/relu_3x3_reduce -> inception_4a/3x3_reduce (in-place)
I0403 18:44:11.466861 23355 net.cpp:141] Setting up inception_4a/relu_3x3_reduce
I0403 18:44:11.466884 23355 net.cpp:148] Top shape: 24 96 14 14 (451584)
I0403 18:44:11.466898 23355 net.cpp:156] Memory required for data: 865236000
I0403 18:44:11.466912 23355 layer_factory.hpp:77] Creating layer inception_4a/3x3
I0403 18:44:11.466934 23355 net.cpp:91] Creating Layer inception_4a/3x3
I0403 18:44:11.466951 23355 net.cpp:425] inception_4a/3x3 <- inception_4a/3x3_reduce
I0403 18:44:11.466971 23355 net.cpp:399] inception_4a/3x3 -> inception_4a/3x3
I0403 18:44:11.469573 23355 net.cpp:141] Setting up inception_4a/3x3
I0403 18:44:11.469601 23355 net.cpp:148] Top shape: 24 208 14 14 (978432)
I0403 18:44:11.469616 23355 net.cpp:156] Memory required for data: 869149728
I0403 18:44:11.469635 23355 layer_factory.hpp:77] Creating layer inception_4a/relu_3x3
I0403 18:44:11.469655 23355 net.cpp:91] Creating Layer inception_4a/relu_3x3
I0403 18:44:11.469671 23355 net.cpp:425] inception_4a/relu_3x3 <- inception_4a/3x3
I0403 18:44:11.469687 23355 net.cpp:386] inception_4a/relu_3x3 -> inception_4a/3x3 (in-place)
I0403 18:44:11.469959 23355 net.cpp:141] Setting up inception_4a/relu_3x3
I0403 18:44:11.469985 23355 net.cpp:148] Top shape: 24 208 14 14 (978432)
I0403 18:44:11.470000 23355 net.cpp:156] Memory required for data: 873063456
I0403 18:44:11.470013 23355 layer_factory.hpp:77] Creating layer inception_4a/5x5_reduce
I0403 18:44:11.470037 23355 net.cpp:91] Creating Layer inception_4a/5x5_reduce
I0403 18:44:11.470054 23355 net.cpp:425] inception_4a/5x5_reduce <- pool3/3x3_s2_pool3/3x3_s2_0_split_2
I0403 18:44:11.470074 23355 net.cpp:399] inception_4a/5x5_reduce -> inception_4a/5x5_reduce
I0403 18:44:11.471057 23355 net.cpp:141] Setting up inception_4a/5x5_reduce
I0403 18:44:11.471086 23355 net.cpp:148] Top shape: 24 16 14 14 (75264)
I0403 18:44:11.471101 23355 net.cpp:156] Memory required for data: 873364512
I0403 18:44:11.471119 23355 layer_factory.hpp:77] Creating layer inception_4a/relu_5x5_reduce
I0403 18:44:11.471137 23355 net.cpp:91] Creating Layer inception_4a/relu_5x5_reduce
I0403 18:44:11.471151 23355 net.cpp:425] inception_4a/relu_5x5_reduce <- inception_4a/5x5_reduce
I0403 18:44:11.471168 23355 net.cpp:386] inception_4a/relu_5x5_reduce -> inception_4a/5x5_reduce (in-place)
I0403 18:44:11.471338 23355 net.cpp:141] Setting up inception_4a/relu_5x5_reduce
I0403 18:44:11.471365 23355 net.cpp:148] Top shape: 24 16 14 14 (75264)
I0403 18:44:11.471380 23355 net.cpp:156] Memory required for data: 873665568
I0403 18:44:11.471393 23355 layer_factory.hpp:77] Creating layer inception_4a/5x5
I0403 18:44:11.471415 23355 net.cpp:91] Creating Layer inception_4a/5x5
I0403 18:44:11.471431 23355 net.cpp:425] inception_4a/5x5 <- inception_4a/5x5_reduce
I0403 18:44:11.471451 23355 net.cpp:399] inception_4a/5x5 -> inception_4a/5x5
I0403 18:44:11.472494 23355 net.cpp:141] Setting up inception_4a/5x5
I0403 18:44:11.472522 23355 net.cpp:148] Top shape: 24 48 14 14 (225792)
I0403 18:44:11.472539 23355 net.cpp:156] Memory required for data: 874568736
I0403 18:44:11.472558 23355 layer_factory.hpp:77] Creating layer inception_4a/relu_5x5
I0403 18:44:11.472578 23355 net.cpp:91] Creating Layer inception_4a/relu_5x5
I0403 18:44:11.472591 23355 net.cpp:425] inception_4a/relu_5x5 <- inception_4a/5x5
I0403 18:44:11.472611 23355 net.cpp:386] inception_4a/relu_5x5 -> inception_4a/5x5 (in-place)
I0403 18:44:11.472780 23355 net.cpp:141] Setting up inception_4a/relu_5x5
I0403 18:44:11.472805 23355 net.cpp:148] Top shape: 24 48 14 14 (225792)
I0403 18:44:11.472820 23355 net.cpp:156] Memory required for data: 875471904
I0403 18:44:11.472832 23355 layer_factory.hpp:77] Creating layer inception_4a/pool
I0403 18:44:11.472852 23355 net.cpp:91] Creating Layer inception_4a/pool
I0403 18:44:11.472868 23355 net.cpp:425] inception_4a/pool <- pool3/3x3_s2_pool3/3x3_s2_0_split_3
I0403 18:44:11.472887 23355 net.cpp:399] inception_4a/pool -> inception_4a/pool
I0403 18:44:11.472946 23355 net.cpp:141] Setting up inception_4a/pool
I0403 18:44:11.472968 23355 net.cpp:148] Top shape: 24 480 14 14 (2257920)
I0403 18:44:11.472982 23355 net.cpp:156] Memory required for data: 884503584
I0403 18:44:11.472995 23355 layer_factory.hpp:77] Creating layer inception_4a/pool_proj
I0403 18:44:11.473019 23355 net.cpp:91] Creating Layer inception_4a/pool_proj
I0403 18:44:11.473037 23355 net.cpp:425] inception_4a/pool_proj <- inception_4a/pool
I0403 18:44:11.473057 23355 net.cpp:399] inception_4a/pool_proj -> inception_4a/pool_proj
I0403 18:44:11.474180 23355 net.cpp:141] Setting up inception_4a/pool_proj
I0403 18:44:11.474208 23355 net.cpp:148] Top shape: 24 64 14 14 (301056)
I0403 18:44:11.474237 23355 net.cpp:156] Memory required for data: 885707808
I0403 18:44:11.474256 23355 layer_factory.hpp:77] Creating layer inception_4a/relu_pool_proj
I0403 18:44:11.474273 23355 net.cpp:91] Creating Layer inception_4a/relu_pool_proj
I0403 18:44:11.474289 23355 net.cpp:425] inception_4a/relu_pool_proj <- inception_4a/pool_proj
I0403 18:44:11.474308 23355 net.cpp:386] inception_4a/relu_pool_proj -> inception_4a/pool_proj (in-place)
I0403 18:44:11.474592 23355 net.cpp:141] Setting up inception_4a/relu_pool_proj
I0403 18:44:11.474618 23355 net.cpp:148] Top shape: 24 64 14 14 (301056)
I0403 18:44:11.474633 23355 net.cpp:156] Memory required for data: 886912032
I0403 18:44:11.474648 23355 layer_factory.hpp:77] Creating layer inception_4a/output
I0403 18:44:11.474664 23355 net.cpp:91] Creating Layer inception_4a/output
I0403 18:44:11.474679 23355 net.cpp:425] inception_4a/output <- inception_4a/1x1
I0403 18:44:11.474694 23355 net.cpp:425] inception_4a/output <- inception_4a/3x3
I0403 18:44:11.474710 23355 net.cpp:425] inception_4a/output <- inception_4a/5x5
I0403 18:44:11.474726 23355 net.cpp:425] inception_4a/output <- inception_4a/pool_proj
I0403 18:44:11.474745 23355 net.cpp:399] inception_4a/output -> inception_4a/output
I0403 18:44:11.474791 23355 net.cpp:141] Setting up inception_4a/output
I0403 18:44:11.474828 23355 net.cpp:148] Top shape: 24 512 14 14 (2408448)
I0403 18:44:11.474843 23355 net.cpp:156] Memory required for data: 896545824
I0403 18:44:11.474858 23355 layer_factory.hpp:77] Creating layer inception_4a/output_inception_4a/output_0_split
I0403 18:44:11.474875 23355 net.cpp:91] Creating Layer inception_4a/output_inception_4a/output_0_split
I0403 18:44:11.474890 23355 net.cpp:425] inception_4a/output_inception_4a/output_0_split <- inception_4a/output
I0403 18:44:11.474910 23355 net.cpp:399] inception_4a/output_inception_4a/output_0_split -> inception_4a/output_inception_4a/output_0_split_0
I0403 18:44:11.474932 23355 net.cpp:399] inception_4a/output_inception_4a/output_0_split -> inception_4a/output_inception_4a/output_0_split_1
I0403 18:44:11.474952 23355 net.cpp:399] inception_4a/output_inception_4a/output_0_split -> inception_4a/output_inception_4a/output_0_split_2
I0403 18:44:11.474973 23355 net.cpp:399] inception_4a/output_inception_4a/output_0_split -> inception_4a/output_inception_4a/output_0_split_3
I0403 18:44:11.474993 23355 net.cpp:399] inception_4a/output_inception_4a/output_0_split -> inception_4a/output_inception_4a/output_0_split_4
I0403 18:44:11.475085 23355 net.cpp:141] Setting up inception_4a/output_inception_4a/output_0_split
I0403 18:44:11.475122 23355 net.cpp:148] Top shape: 24 512 14 14 (2408448)
I0403 18:44:11.475138 23355 net.cpp:148] Top shape: 24 512 14 14 (2408448)
I0403 18:44:11.475164 23355 net.cpp:148] Top shape: 24 512 14 14 (2408448)
I0403 18:44:11.475180 23355 net.cpp:148] Top shape: 24 512 14 14 (2408448)
I0403 18:44:11.475194 23355 net.cpp:148] Top shape: 24 512 14 14 (2408448)
I0403 18:44:11.475208 23355 net.cpp:156] Memory required for data: 944714784
I0403 18:44:11.475234 23355 layer_factory.hpp:77] Creating layer loss1/ave_pool
I0403 18:44:11.475251 23355 net.cpp:91] Creating Layer loss1/ave_pool
I0403 18:44:11.475267 23355 net.cpp:425] loss1/ave_pool <- inception_4a/output_inception_4a/output_0_split_0
I0403 18:44:11.475284 23355 net.cpp:399] loss1/ave_pool -> loss1/ave_pool
I0403 18:44:11.475483 23355 net.cpp:141] Setting up loss1/ave_pool
I0403 18:44:11.475508 23355 net.cpp:148] Top shape: 24 512 4 4 (196608)
I0403 18:44:11.475522 23355 net.cpp:156] Memory required for data: 945501216
I0403 18:44:11.475553 23355 layer_factory.hpp:77] Creating layer loss1/conv
I0403 18:44:11.475574 23355 net.cpp:91] Creating Layer loss1/conv
I0403 18:44:11.475591 23355 net.cpp:425] loss1/conv <- loss1/ave_pool
I0403 18:44:11.475610 23355 net.cpp:399] loss1/conv -> loss1/conv
I0403 18:44:11.476934 23355 net.cpp:141] Setting up loss1/conv
I0403 18:44:11.476960 23355 net.cpp:148] Top shape: 24 128 4 4 (49152)
I0403 18:44:11.476989 23355 net.cpp:156] Memory required for data: 945697824
I0403 18:44:11.477007 23355 layer_factory.hpp:77] Creating layer loss1/relu_conv
I0403 18:44:11.477027 23355 net.cpp:91] Creating Layer loss1/relu_conv
I0403 18:44:11.477041 23355 net.cpp:425] loss1/relu_conv <- loss1/conv
I0403 18:44:11.477057 23355 net.cpp:386] loss1/relu_conv -> loss1/conv (in-place)
I0403 18:44:11.477322 23355 net.cpp:141] Setting up loss1/relu_conv
I0403 18:44:11.477347 23355 net.cpp:148] Top shape: 24 128 4 4 (49152)
I0403 18:44:11.477361 23355 net.cpp:156] Memory required for data: 945894432
I0403 18:44:11.477375 23355 layer_factory.hpp:77] Creating layer loss1/fc
I0403 18:44:11.477398 23355 net.cpp:91] Creating Layer loss1/fc
I0403 18:44:11.477416 23355 net.cpp:425] loss1/fc <- loss1/conv
I0403 18:44:11.477434 23355 net.cpp:399] loss1/fc -> loss1/fc
I0403 18:44:11.494230 23355 net.cpp:141] Setting up loss1/fc
I0403 18:44:11.494261 23355 net.cpp:148] Top shape: 24 1024 (24576)
I0403 18:44:11.494274 23355 net.cpp:156] Memory required for data: 945992736
I0403 18:44:11.494292 23355 layer_factory.hpp:77] Creating layer loss1/relu_fc
I0403 18:44:11.494308 23355 net.cpp:91] Creating Layer loss1/relu_fc
I0403 18:44:11.494326 23355 net.cpp:425] loss1/relu_fc <- loss1/fc
I0403 18:44:11.494343 23355 net.cpp:386] loss1/relu_fc -> loss1/fc (in-place)
I0403 18:44:11.494518 23355 net.cpp:141] Setting up loss1/relu_fc
I0403 18:44:11.494551 23355 net.cpp:148] Top shape: 24 1024 (24576)
I0403 18:44:11.494567 23355 net.cpp:156] Memory required for data: 946091040
I0403 18:44:11.494582 23355 layer_factory.hpp:77] Creating layer loss1/drop_fc
I0403 18:44:11.494607 23355 net.cpp:91] Creating Layer loss1/drop_fc
I0403 18:44:11.494623 23355 net.cpp:425] loss1/drop_fc <- loss1/fc
I0403 18:44:11.494640 23355 net.cpp:386] loss1/drop_fc -> loss1/fc (in-place)
I0403 18:44:11.494688 23355 net.cpp:141] Setting up loss1/drop_fc
I0403 18:44:11.494712 23355 net.cpp:148] Top shape: 24 1024 (24576)
I0403 18:44:11.494726 23355 net.cpp:156] Memory required for data: 946189344
I0403 18:44:11.494740 23355 layer_factory.hpp:77] Creating layer loss1/classifier_plantvillage
I0403 18:44:11.494757 23355 net.cpp:91] Creating Layer loss1/classifier_plantvillage
I0403 18:44:11.494772 23355 net.cpp:425] loss1/classifier_plantvillage <- loss1/fc
I0403 18:44:11.494792 23355 net.cpp:399] loss1/classifier_plantvillage -> loss1/classifier_plantvillage
I0403 18:44:11.495658 23355 net.cpp:141] Setting up loss1/classifier_plantvillage
I0403 18:44:11.495684 23355 net.cpp:148] Top shape: 24 38 (912)
I0403 18:44:11.495698 23355 net.cpp:156] Memory required for data: 946192992
I0403 18:44:11.495715 23355 layer_factory.hpp:77] Creating layer loss1/classifier_plantvillage_loss1/classifier_plantvillage_0_split
I0403 18:44:11.495734 23355 net.cpp:91] Creating Layer loss1/classifier_plantvillage_loss1/classifier_plantvillage_0_split
I0403 18:44:11.495750 23355 net.cpp:425] loss1/classifier_plantvillage_loss1/classifier_plantvillage_0_split <- loss1/classifier_plantvillage
I0403 18:44:11.495767 23355 net.cpp:399] loss1/classifier_plantvillage_loss1/classifier_plantvillage_0_split -> loss1/classifier_plantvillage_loss1/classifier_plantvillage_0_split_0
I0403 18:44:11.495786 23355 net.cpp:399] loss1/classifier_plantvillage_loss1/classifier_plantvillage_0_split -> loss1/classifier_plantvillage_loss1/classifier_plantvillage_0_split_1
I0403 18:44:11.495805 23355 net.cpp:399] loss1/classifier_plantvillage_loss1/classifier_plantvillage_0_split -> loss1/classifier_plantvillage_loss1/classifier_plantvillage_0_split_2
I0403 18:44:11.495868 23355 net.cpp:141] Setting up loss1/classifier_plantvillage_loss1/classifier_plantvillage_0_split
I0403 18:44:11.495890 23355 net.cpp:148] Top shape: 24 38 (912)
I0403 18:44:11.495905 23355 net.cpp:148] Top shape: 24 38 (912)
I0403 18:44:11.495919 23355 net.cpp:148] Top shape: 24 38 (912)
I0403 18:44:11.495932 23355 net.cpp:156] Memory required for data: 946203936
I0403 18:44:11.495944 23355 layer_factory.hpp:77] Creating layer inception_4b/1x1
I0403 18:44:11.495964 23355 net.cpp:91] Creating Layer inception_4b/1x1
I0403 18:44:11.495995 23355 net.cpp:425] inception_4b/1x1 <- inception_4a/output_inception_4a/output_0_split_1
I0403 18:44:11.496016 23355 net.cpp:399] inception_4b/1x1 -> inception_4b/1x1
I0403 18:44:11.497571 23355 net.cpp:141] Setting up inception_4b/1x1
I0403 18:44:11.497601 23355 net.cpp:148] Top shape: 24 160 14 14 (752640)
I0403 18:44:11.497617 23355 net.cpp:156] Memory required for data: 949214496
I0403 18:44:11.497633 23355 layer_factory.hpp:77] Creating layer inception_4b/relu_1x1
I0403 18:44:11.497650 23355 net.cpp:91] Creating Layer inception_4b/relu_1x1
I0403 18:44:11.497665 23355 net.cpp:425] inception_4b/relu_1x1 <- inception_4b/1x1
I0403 18:44:11.497683 23355 net.cpp:386] inception_4b/relu_1x1 -> inception_4b/1x1 (in-place)
I0403 18:44:11.497849 23355 net.cpp:141] Setting up inception_4b/relu_1x1
I0403 18:44:11.497875 23355 net.cpp:148] Top shape: 24 160 14 14 (752640)
I0403 18:44:11.497890 23355 net.cpp:156] Memory required for data: 952225056
I0403 18:44:11.497903 23355 layer_factory.hpp:77] Creating layer inception_4b/3x3_reduce
I0403 18:44:11.497925 23355 net.cpp:91] Creating Layer inception_4b/3x3_reduce
I0403 18:44:11.497941 23355 net.cpp:425] inception_4b/3x3_reduce <- inception_4a/output_inception_4a/output_0_split_2
I0403 18:44:11.497958 23355 net.cpp:399] inception_4b/3x3_reduce -> inception_4b/3x3_reduce
I0403 18:44:11.499227 23355 net.cpp:141] Setting up inception_4b/3x3_reduce
I0403 18:44:11.499256 23355 net.cpp:148] Top shape: 24 112 14 14 (526848)
I0403 18:44:11.499272 23355 net.cpp:156] Memory required for data: 954332448
I0403 18:44:11.499289 23355 layer_factory.hpp:77] Creating layer inception_4b/relu_3x3_reduce
I0403 18:44:11.499305 23355 net.cpp:91] Creating Layer inception_4b/relu_3x3_reduce
I0403 18:44:11.499321 23355 net.cpp:425] inception_4b/relu_3x3_reduce <- inception_4b/3x3_reduce
I0403 18:44:11.499343 23355 net.cpp:386] inception_4b/relu_3x3_reduce -> inception_4b/3x3_reduce (in-place)
I0403 18:44:11.499614 23355 net.cpp:141] Setting up inception_4b/relu_3x3_reduce
I0403 18:44:11.499641 23355 net.cpp:148] Top shape: 24 112 14 14 (526848)
I0403 18:44:11.499656 23355 net.cpp:156] Memory required for data: 956439840
I0403 18:44:11.499670 23355 layer_factory.hpp:77] Creating layer inception_4b/3x3
I0403 18:44:11.499691 23355 net.cpp:91] Creating Layer inception_4b/3x3
I0403 18:44:11.499706 23355 net.cpp:425] inception_4b/3x3 <- inception_4b/3x3_reduce
I0403 18:44:11.499723 23355 net.cpp:399] inception_4b/3x3 -> inception_4b/3x3
I0403 18:44:11.502547 23355 net.cpp:141] Setting up inception_4b/3x3
I0403 18:44:11.502574 23355 net.cpp:148] Top shape: 24 224 14 14 (1053696)
I0403 18:44:11.502590 23355 net.cpp:156] Memory required for data: 960654624
I0403 18:44:11.502607 23355 layer_factory.hpp:77] Creating layer inception_4b/relu_3x3
I0403 18:44:11.502626 23355 net.cpp:91] Creating Layer inception_4b/relu_3x3
I0403 18:44:11.502642 23355 net.cpp:425] inception_4b/relu_3x3 <- inception_4b/3x3
I0403 18:44:11.502658 23355 net.cpp:386] inception_4b/relu_3x3 -> inception_4b/3x3 (in-place)
I0403 18:44:11.502826 23355 net.cpp:141] Setting up inception_4b/relu_3x3
I0403 18:44:11.502851 23355 net.cpp:148] Top shape: 24 224 14 14 (1053696)
I0403 18:44:11.502864 23355 net.cpp:156] Memory required for data: 964869408
I0403 18:44:11.502878 23355 layer_factory.hpp:77] Creating layer inception_4b/5x5_reduce
I0403 18:44:11.502904 23355 net.cpp:91] Creating Layer inception_4b/5x5_reduce
I0403 18:44:11.502923 23355 net.cpp:425] inception_4b/5x5_reduce <- inception_4a/output_inception_4a/output_0_split_3
I0403 18:44:11.502940 23355 net.cpp:399] inception_4b/5x5_reduce -> inception_4b/5x5_reduce
I0403 18:44:11.503960 23355 net.cpp:141] Setting up inception_4b/5x5_reduce
I0403 18:44:11.503988 23355 net.cpp:148] Top shape: 24 24 14 14 (112896)
I0403 18:44:11.504004 23355 net.cpp:156] Memory required for data: 965320992
I0403 18:44:11.504021 23355 layer_factory.hpp:77] Creating layer inception_4b/relu_5x5_reduce
I0403 18:44:11.504040 23355 net.cpp:91] Creating Layer inception_4b/relu_5x5_reduce
I0403 18:44:11.504070 23355 net.cpp:425] inception_4b/relu_5x5_reduce <- inception_4b/5x5_reduce
I0403 18:44:11.504089 23355 net.cpp:386] inception_4b/relu_5x5_reduce -> inception_4b/5x5_reduce (in-place)
I0403 18:44:11.504269 23355 net.cpp:141] Setting up inception_4b/relu_5x5_reduce
I0403 18:44:11.504293 23355 net.cpp:148] Top shape: 24 24 14 14 (112896)
I0403 18:44:11.504308 23355 net.cpp:156] Memory required for data: 965772576
I0403 18:44:11.504323 23355 layer_factory.hpp:77] Creating layer inception_4b/5x5
I0403 18:44:11.504343 23355 net.cpp:91] Creating Layer inception_4b/5x5
I0403 18:44:11.504359 23355 net.cpp:425] inception_4b/5x5 <- inception_4b/5x5_reduce
I0403 18:44:11.504379 23355 net.cpp:399] inception_4b/5x5 -> inception_4b/5x5
I0403 18:44:11.505625 23355 net.cpp:141] Setting up inception_4b/5x5
I0403 18:44:11.505656 23355 net.cpp:148] Top shape: 24 64 14 14 (301056)
I0403 18:44:11.505672 23355 net.cpp:156] Memory required for data: 966976800
I0403 18:44:11.505689 23355 layer_factory.hpp:77] Creating layer inception_4b/relu_5x5
I0403 18:44:11.505707 23355 net.cpp:91] Creating Layer inception_4b/relu_5x5
I0403 18:44:11.505722 23355 net.cpp:425] inception_4b/relu_5x5 <- inception_4b/5x5
I0403 18:44:11.505739 23355 net.cpp:386] inception_4b/relu_5x5 -> inception_4b/5x5 (in-place)
I0403 18:44:11.506016 23355 net.cpp:141] Setting up inception_4b/relu_5x5
I0403 18:44:11.506043 23355 net.cpp:148] Top shape: 24 64 14 14 (301056)
I0403 18:44:11.506058 23355 net.cpp:156] Memory required for data: 968181024
I0403 18:44:11.506072 23355 layer_factory.hpp:77] Creating layer inception_4b/pool
I0403 18:44:11.506088 23355 net.cpp:91] Creating Layer inception_4b/pool
I0403 18:44:11.506104 23355 net.cpp:425] inception_4b/pool <- inception_4a/output_inception_4a/output_0_split_4
I0403 18:44:11.506122 23355 net.cpp:399] inception_4b/pool -> inception_4b/pool
I0403 18:44:11.506187 23355 net.cpp:141] Setting up inception_4b/pool
I0403 18:44:11.506211 23355 net.cpp:148] Top shape: 24 512 14 14 (2408448)
I0403 18:44:11.506225 23355 net.cpp:156] Memory required for data: 977814816
I0403 18:44:11.506238 23355 layer_factory.hpp:77] Creating layer inception_4b/pool_proj
I0403 18:44:11.506263 23355 net.cpp:91] Creating Layer inception_4b/pool_proj
I0403 18:44:11.506280 23355 net.cpp:425] inception_4b/pool_proj <- inception_4b/pool
I0403 18:44:11.506301 23355 net.cpp:399] inception_4b/pool_proj -> inception_4b/pool_proj
I0403 18:44:11.507462 23355 net.cpp:141] Setting up inception_4b/pool_proj
I0403 18:44:11.507491 23355 net.cpp:148] Top shape: 24 64 14 14 (301056)
I0403 18:44:11.507508 23355 net.cpp:156] Memory required for data: 979019040
I0403 18:44:11.507526 23355 layer_factory.hpp:77] Creating layer inception_4b/relu_pool_proj
I0403 18:44:11.507549 23355 net.cpp:91] Creating Layer inception_4b/relu_pool_proj
I0403 18:44:11.507565 23355 net.cpp:425] inception_4b/relu_pool_proj <- inception_4b/pool_proj
I0403 18:44:11.507582 23355 net.cpp:386] inception_4b/relu_pool_proj -> inception_4b/pool_proj (in-place)
I0403 18:44:11.507761 23355 net.cpp:141] Setting up inception_4b/relu_pool_proj
I0403 18:44:11.507784 23355 net.cpp:148] Top shape: 24 64 14 14 (301056)
I0403 18:44:11.507798 23355 net.cpp:156] Memory required for data: 980223264
I0403 18:44:11.507813 23355 layer_factory.hpp:77] Creating layer inception_4b/output
I0403 18:44:11.507829 23355 net.cpp:91] Creating Layer inception_4b/output
I0403 18:44:11.507844 23355 net.cpp:425] inception_4b/output <- inception_4b/1x1
I0403 18:44:11.507860 23355 net.cpp:425] inception_4b/output <- inception_4b/3x3
I0403 18:44:11.507876 23355 net.cpp:425] inception_4b/output <- inception_4b/5x5
I0403 18:44:11.507892 23355 net.cpp:425] inception_4b/output <- inception_4b/pool_proj
I0403 18:44:11.507910 23355 net.cpp:399] inception_4b/output -> inception_4b/output
I0403 18:44:11.507956 23355 net.cpp:141] Setting up inception_4b/output
I0403 18:44:11.507980 23355 net.cpp:148] Top shape: 24 512 14 14 (2408448)
I0403 18:44:11.507995 23355 net.cpp:156] Memory required for data: 989857056
I0403 18:44:11.508023 23355 layer_factory.hpp:77] Creating layer inception_4b/output_inception_4b/output_0_split
I0403 18:44:11.508040 23355 net.cpp:91] Creating Layer inception_4b/output_inception_4b/output_0_split
I0403 18:44:11.508055 23355 net.cpp:425] inception_4b/output_inception_4b/output_0_split <- inception_4b/output
I0403 18:44:11.508072 23355 net.cpp:399] inception_4b/output_inception_4b/output_0_split -> inception_4b/output_inception_4b/output_0_split_0
I0403 18:44:11.508095 23355 net.cpp:399] inception_4b/output_inception_4b/output_0_split -> inception_4b/output_inception_4b/output_0_split_1
I0403 18:44:11.508116 23355 net.cpp:399] inception_4b/output_inception_4b/output_0_split -> inception_4b/output_inception_4b/output_0_split_2
I0403 18:44:11.508134 23355 net.cpp:399] inception_4b/output_inception_4b/output_0_split -> inception_4b/output_inception_4b/output_0_split_3
I0403 18:44:11.508214 23355 net.cpp:141] Setting up inception_4b/output_inception_4b/output_0_split
I0403 18:44:11.508237 23355 net.cpp:148] Top shape: 24 512 14 14 (2408448)
I0403 18:44:11.508252 23355 net.cpp:148] Top shape: 24 512 14 14 (2408448)
I0403 18:44:11.508267 23355 net.cpp:148] Top shape: 24 512 14 14 (2408448)
I0403 18:44:11.508282 23355 net.cpp:148] Top shape: 24 512 14 14 (2408448)
I0403 18:44:11.508294 23355 net.cpp:156] Memory required for data: 1028392224
I0403 18:44:11.508308 23355 layer_factory.hpp:77] Creating layer inception_4c/1x1
I0403 18:44:11.508329 23355 net.cpp:91] Creating Layer inception_4c/1x1
I0403 18:44:11.508345 23355 net.cpp:425] inception_4c/1x1 <- inception_4b/output_inception_4b/output_0_split_0
I0403 18:44:11.508366 23355 net.cpp:399] inception_4c/1x1 -> inception_4c/1x1
I0403 18:44:11.509758 23355 net.cpp:141] Setting up inception_4c/1x1
I0403 18:44:11.509786 23355 net.cpp:148] Top shape: 24 128 14 14 (602112)
I0403 18:44:11.509801 23355 net.cpp:156] Memory required for data: 1030800672
I0403 18:44:11.509819 23355 layer_factory.hpp:77] Creating layer inception_4c/relu_1x1
I0403 18:44:11.509841 23355 net.cpp:91] Creating Layer inception_4c/relu_1x1
I0403 18:44:11.509858 23355 net.cpp:425] inception_4c/relu_1x1 <- inception_4c/1x1
I0403 18:44:11.509876 23355 net.cpp:386] inception_4c/relu_1x1 -> inception_4c/1x1 (in-place)
I0403 18:44:11.510051 23355 net.cpp:141] Setting up inception_4c/relu_1x1
I0403 18:44:11.510074 23355 net.cpp:148] Top shape: 24 128 14 14 (602112)
I0403 18:44:11.510088 23355 net.cpp:156] Memory required for data: 1033209120
I0403 18:44:11.510102 23355 layer_factory.hpp:77] Creating layer inception_4c/3x3_reduce
I0403 18:44:11.510123 23355 net.cpp:91] Creating Layer inception_4c/3x3_reduce
I0403 18:44:11.510140 23355 net.cpp:425] inception_4c/3x3_reduce <- inception_4b/output_inception_4b/output_0_split_1
I0403 18:44:11.510161 23355 net.cpp:399] inception_4c/3x3_reduce -> inception_4c/3x3_reduce
I0403 18:44:11.512056 23355 net.cpp:141] Setting up inception_4c/3x3_reduce
I0403 18:44:11.512084 23355 net.cpp:148] Top shape: 24 128 14 14 (602112)
I0403 18:44:11.512099 23355 net.cpp:156] Memory required for data: 1035617568
I0403 18:44:11.512117 23355 layer_factory.hpp:77] Creating layer inception_4c/relu_3x3_reduce
I0403 18:44:11.512136 23355 net.cpp:91] Creating Layer inception_4c/relu_3x3_reduce
I0403 18:44:11.512153 23355 net.cpp:425] inception_4c/relu_3x3_reduce <- inception_4c/3x3_reduce
I0403 18:44:11.512169 23355 net.cpp:386] inception_4c/relu_3x3_reduce -> inception_4c/3x3_reduce (in-place)
I0403 18:44:11.512450 23355 net.cpp:141] Setting up inception_4c/relu_3x3_reduce
I0403 18:44:11.512476 23355 net.cpp:148] Top shape: 24 128 14 14 (602112)
I0403 18:44:11.512491 23355 net.cpp:156] Memory required for data: 1038026016
I0403 18:44:11.512506 23355 layer_factory.hpp:77] Creating layer inception_4c/3x3
I0403 18:44:11.512532 23355 net.cpp:91] Creating Layer inception_4c/3x3
I0403 18:44:11.512555 23355 net.cpp:425] inception_4c/3x3 <- inception_4c/3x3_reduce
I0403 18:44:11.512574 23355 net.cpp:399] inception_4c/3x3 -> inception_4c/3x3
I0403 18:44:11.516119 23355 net.cpp:141] Setting up inception_4c/3x3
I0403 18:44:11.516160 23355 net.cpp:148] Top shape: 24 256 14 14 (1204224)
I0403 18:44:11.516177 23355 net.cpp:156] Memory required for data: 1042842912
I0403 18:44:11.516207 23355 layer_factory.hpp:77] Creating layer inception_4c/relu_3x3
I0403 18:44:11.516227 23355 net.cpp:91] Creating Layer inception_4c/relu_3x3
I0403 18:44:11.516243 23355 net.cpp:425] inception_4c/relu_3x3 <- inception_4c/3x3
I0403 18:44:11.516260 23355 net.cpp:386] inception_4c/relu_3x3 -> inception_4c/3x3 (in-place)
I0403 18:44:11.516436 23355 net.cpp:141] Setting up inception_4c/relu_3x3
I0403 18:44:11.516463 23355 net.cpp:148] Top shape: 24 256 14 14 (1204224)
I0403 18:44:11.516479 23355 net.cpp:156] Memory required for data: 1047659808
I0403 18:44:11.516492 23355 layer_factory.hpp:77] Creating layer inception_4c/5x5_reduce
I0403 18:44:11.516513 23355 net.cpp:91] Creating Layer inception_4c/5x5_reduce
I0403 18:44:11.516530 23355 net.cpp:425] inception_4c/5x5_reduce <- inception_4b/output_inception_4b/output_0_split_2
I0403 18:44:11.516554 23355 net.cpp:399] inception_4c/5x5_reduce -> inception_4c/5x5_reduce
I0403 18:44:11.517611 23355 net.cpp:141] Setting up inception_4c/5x5_reduce
I0403 18:44:11.517640 23355 net.cpp:148] Top shape: 24 24 14 14 (112896)
I0403 18:44:11.517657 23355 net.cpp:156] Memory required for data: 1048111392
I0403 18:44:11.517673 23355 layer_factory.hpp:77] Creating layer inception_4c/relu_5x5_reduce
I0403 18:44:11.517690 23355 net.cpp:91] Creating Layer inception_4c/relu_5x5_reduce
I0403 18:44:11.517705 23355 net.cpp:425] inception_4c/relu_5x5_reduce <- inception_4c/5x5_reduce
I0403 18:44:11.517727 23355 net.cpp:386] inception_4c/relu_5x5_reduce -> inception_4c/5x5_reduce (in-place)
I0403 18:44:11.517907 23355 net.cpp:141] Setting up inception_4c/relu_5x5_reduce
I0403 18:44:11.517932 23355 net.cpp:148] Top shape: 24 24 14 14 (112896)
I0403 18:44:11.517946 23355 net.cpp:156] Memory required for data: 1048562976
I0403 18:44:11.517959 23355 layer_factory.hpp:77] Creating layer inception_4c/5x5
I0403 18:44:11.517979 23355 net.cpp:91] Creating Layer inception_4c/5x5
I0403 18:44:11.517997 23355 net.cpp:425] inception_4c/5x5 <- inception_4c/5x5_reduce
I0403 18:44:11.518018 23355 net.cpp:399] inception_4c/5x5 -> inception_4c/5x5
I0403 18:44:11.519222 23355 net.cpp:141] Setting up inception_4c/5x5
I0403 18:44:11.519248 23355 net.cpp:148] Top shape: 24 64 14 14 (301056)
I0403 18:44:11.519264 23355 net.cpp:156] Memory required for data: 1049767200
I0403 18:44:11.519281 23355 layer_factory.hpp:77] Creating layer inception_4c/relu_5x5
I0403 18:44:11.519297 23355 net.cpp:91] Creating Layer inception_4c/relu_5x5
I0403 18:44:11.519316 23355 net.cpp:425] inception_4c/relu_5x5 <- inception_4c/5x5
I0403 18:44:11.519333 23355 net.cpp:386] inception_4c/relu_5x5 -> inception_4c/5x5 (in-place)
I0403 18:44:11.519618 23355 net.cpp:141] Setting up inception_4c/relu_5x5
I0403 18:44:11.519644 23355 net.cpp:148] Top shape: 24 64 14 14 (301056)
I0403 18:44:11.519657 23355 net.cpp:156] Memory required for data: 1050971424
I0403 18:44:11.519672 23355 layer_factory.hpp:77] Creating layer inception_4c/pool
I0403 18:44:11.519688 23355 net.cpp:91] Creating Layer inception_4c/pool
I0403 18:44:11.519704 23355 net.cpp:425] inception_4c/pool <- inception_4b/output_inception_4b/output_0_split_3
I0403 18:44:11.519724 23355 net.cpp:399] inception_4c/pool -> inception_4c/pool
I0403 18:44:11.519788 23355 net.cpp:141] Setting up inception_4c/pool
I0403 18:44:11.519814 23355 net.cpp:148] Top shape: 24 512 14 14 (2408448)
I0403 18:44:11.519829 23355 net.cpp:156] Memory required for data: 1060605216
I0403 18:44:11.519842 23355 layer_factory.hpp:77] Creating layer inception_4c/pool_proj
I0403 18:44:11.519863 23355 net.cpp:91] Creating Layer inception_4c/pool_proj
I0403 18:44:11.519881 23355 net.cpp:425] inception_4c/pool_proj <- inception_4c/pool
I0403 18:44:11.519898 23355 net.cpp:399] inception_4c/pool_proj -> inception_4c/pool_proj
I0403 18:44:11.521085 23355 net.cpp:141] Setting up inception_4c/pool_proj
I0403 18:44:11.521116 23355 net.cpp:148] Top shape: 24 64 14 14 (301056)
I0403 18:44:11.521143 23355 net.cpp:156] Memory required for data: 1061809440
I0403 18:44:11.521162 23355 layer_factory.hpp:77] Creating layer inception_4c/relu_pool_proj
I0403 18:44:11.521179 23355 net.cpp:91] Creating Layer inception_4c/relu_pool_proj
I0403 18:44:11.521194 23355 net.cpp:425] inception_4c/relu_pool_proj <- inception_4c/pool_proj
I0403 18:44:11.521210 23355 net.cpp:386] inception_4c/relu_pool_proj -> inception_4c/pool_proj (in-place)
I0403 18:44:11.521394 23355 net.cpp:141] Setting up inception_4c/relu_pool_proj
I0403 18:44:11.521420 23355 net.cpp:148] Top shape: 24 64 14 14 (301056)
I0403 18:44:11.521433 23355 net.cpp:156] Memory required for data: 1063013664
I0403 18:44:11.521447 23355 layer_factory.hpp:77] Creating layer inception_4c/output
I0403 18:44:11.521464 23355 net.cpp:91] Creating Layer inception_4c/output
I0403 18:44:11.521479 23355 net.cpp:425] inception_4c/output <- inception_4c/1x1
I0403 18:44:11.521494 23355 net.cpp:425] inception_4c/output <- inception_4c/3x3
I0403 18:44:11.521510 23355 net.cpp:425] inception_4c/output <- inception_4c/5x5
I0403 18:44:11.521525 23355 net.cpp:425] inception_4c/output <- inception_4c/pool_proj
I0403 18:44:11.521549 23355 net.cpp:399] inception_4c/output -> inception_4c/output
I0403 18:44:11.521597 23355 net.cpp:141] Setting up inception_4c/output
I0403 18:44:11.521622 23355 net.cpp:148] Top shape: 24 512 14 14 (2408448)
I0403 18:44:11.521637 23355 net.cpp:156] Memory required for data: 1072647456
I0403 18:44:11.521651 23355 layer_factory.hpp:77] Creating layer inception_4c/output_inception_4c/output_0_split
I0403 18:44:11.521668 23355 net.cpp:91] Creating Layer inception_4c/output_inception_4c/output_0_split
I0403 18:44:11.521695 23355 net.cpp:425] inception_4c/output_inception_4c/output_0_split <- inception_4c/output
I0403 18:44:11.521713 23355 net.cpp:399] inception_4c/output_inception_4c/output_0_split -> inception_4c/output_inception_4c/output_0_split_0
I0403 18:44:11.521735 23355 net.cpp:399] inception_4c/output_inception_4c/output_0_split -> inception_4c/output_inception_4c/output_0_split_1
I0403 18:44:11.521756 23355 net.cpp:399] inception_4c/output_inception_4c/output_0_split -> inception_4c/output_inception_4c/output_0_split_2
I0403 18:44:11.521776 23355 net.cpp:399] inception_4c/output_inception_4c/output_0_split -> inception_4c/output_inception_4c/output_0_split_3
I0403 18:44:11.521862 23355 net.cpp:141] Setting up inception_4c/output_inception_4c/output_0_split
I0403 18:44:11.521885 23355 net.cpp:148] Top shape: 24 512 14 14 (2408448)
I0403 18:44:11.521900 23355 net.cpp:148] Top shape: 24 512 14 14 (2408448)
I0403 18:44:11.521916 23355 net.cpp:148] Top shape: 24 512 14 14 (2408448)
I0403 18:44:11.521930 23355 net.cpp:148] Top shape: 24 512 14 14 (2408448)
I0403 18:44:11.521942 23355 net.cpp:156] Memory required for data: 1111182624
I0403 18:44:11.521968 23355 layer_factory.hpp:77] Creating layer inception_4d/1x1
I0403 18:44:11.521989 23355 net.cpp:91] Creating Layer inception_4d/1x1
I0403 18:44:11.522006 23355 net.cpp:425] inception_4d/1x1 <- inception_4c/output_inception_4c/output_0_split_0
I0403 18:44:11.522027 23355 net.cpp:399] inception_4d/1x1 -> inception_4d/1x1
I0403 18:44:11.523351 23355 net.cpp:141] Setting up inception_4d/1x1
I0403 18:44:11.523378 23355 net.cpp:148] Top shape: 24 112 14 14 (526848)
I0403 18:44:11.523392 23355 net.cpp:156] Memory required for data: 1113290016
I0403 18:44:11.523411 23355 layer_factory.hpp:77] Creating layer inception_4d/relu_1x1
I0403 18:44:11.523428 23355 net.cpp:91] Creating Layer inception_4d/relu_1x1
I0403 18:44:11.523445 23355 net.cpp:425] inception_4d/relu_1x1 <- inception_4d/1x1
I0403 18:44:11.523460 23355 net.cpp:386] inception_4d/relu_1x1 -> inception_4d/1x1 (in-place)
I0403 18:44:11.523640 23355 net.cpp:141] Setting up inception_4d/relu_1x1
I0403 18:44:11.523666 23355 net.cpp:148] Top shape: 24 112 14 14 (526848)
I0403 18:44:11.523681 23355 net.cpp:156] Memory required for data: 1115397408
I0403 18:44:11.523695 23355 layer_factory.hpp:77] Creating layer inception_4d/3x3_reduce
I0403 18:44:11.523730 23355 net.cpp:91] Creating Layer inception_4d/3x3_reduce
I0403 18:44:11.523746 23355 net.cpp:425] inception_4d/3x3_reduce <- inception_4c/output_inception_4c/output_0_split_1
I0403 18:44:11.523766 23355 net.cpp:399] inception_4d/3x3_reduce -> inception_4d/3x3_reduce
I0403 18:44:11.525202 23355 net.cpp:141] Setting up inception_4d/3x3_reduce
I0403 18:44:11.525228 23355 net.cpp:148] Top shape: 24 144 14 14 (677376)
I0403 18:44:11.525243 23355 net.cpp:156] Memory required for data: 1118106912
I0403 18:44:11.525262 23355 layer_factory.hpp:77] Creating layer inception_4d/relu_3x3_reduce
I0403 18:44:11.525279 23355 net.cpp:91] Creating Layer inception_4d/relu_3x3_reduce
I0403 18:44:11.525295 23355 net.cpp:425] inception_4d/relu_3x3_reduce <- inception_4d/3x3_reduce
I0403 18:44:11.525315 23355 net.cpp:386] inception_4d/relu_3x3_reduce -> inception_4d/3x3_reduce (in-place)
I0403 18:44:11.525593 23355 net.cpp:141] Setting up inception_4d/relu_3x3_reduce
I0403 18:44:11.525619 23355 net.cpp:148] Top shape: 24 144 14 14 (677376)
I0403 18:44:11.525634 23355 net.cpp:156] Memory required for data: 1120816416
I0403 18:44:11.525647 23355 layer_factory.hpp:77] Creating layer inception_4d/3x3
I0403 18:44:11.525668 23355 net.cpp:91] Creating Layer inception_4d/3x3
I0403 18:44:11.525684 23355 net.cpp:425] inception_4d/3x3 <- inception_4d/3x3_reduce
I0403 18:44:11.525704 23355 net.cpp:399] inception_4d/3x3 -> inception_4d/3x3
I0403 18:44:11.529747 23355 net.cpp:141] Setting up inception_4d/3x3
I0403 18:44:11.529777 23355 net.cpp:148] Top shape: 24 288 14 14 (1354752)
I0403 18:44:11.529791 23355 net.cpp:156] Memory required for data: 1126235424
I0403 18:44:11.529808 23355 layer_factory.hpp:77] Creating layer inception_4d/relu_3x3
I0403 18:44:11.529827 23355 net.cpp:91] Creating Layer inception_4d/relu_3x3
I0403 18:44:11.529844 23355 net.cpp:425] inception_4d/relu_3x3 <- inception_4d/3x3
I0403 18:44:11.529860 23355 net.cpp:386] inception_4d/relu_3x3 -> inception_4d/3x3 (in-place)
I0403 18:44:11.530033 23355 net.cpp:141] Setting up inception_4d/relu_3x3
I0403 18:44:11.530060 23355 net.cpp:148] Top shape: 24 288 14 14 (1354752)
I0403 18:44:11.530073 23355 net.cpp:156] Memory required for data: 1131654432
I0403 18:44:11.530087 23355 layer_factory.hpp:77] Creating layer inception_4d/5x5_reduce
I0403 18:44:11.530107 23355 net.cpp:91] Creating Layer inception_4d/5x5_reduce
I0403 18:44:11.530124 23355 net.cpp:425] inception_4d/5x5_reduce <- inception_4c/output_inception_4c/output_0_split_2
I0403 18:44:11.530143 23355 net.cpp:399] inception_4d/5x5_reduce -> inception_4d/5x5_reduce
I0403 18:44:11.531239 23355 net.cpp:141] Setting up inception_4d/5x5_reduce
I0403 18:44:11.531265 23355 net.cpp:148] Top shape: 24 32 14 14 (150528)
I0403 18:44:11.531280 23355 net.cpp:156] Memory required for data: 1132256544
I0403 18:44:11.531296 23355 layer_factory.hpp:77] Creating layer inception_4d/relu_5x5_reduce
I0403 18:44:11.531316 23355 net.cpp:91] Creating Layer inception_4d/relu_5x5_reduce
I0403 18:44:11.531332 23355 net.cpp:425] inception_4d/relu_5x5_reduce <- inception_4d/5x5_reduce
I0403 18:44:11.531347 23355 net.cpp:386] inception_4d/relu_5x5_reduce -> inception_4d/5x5_reduce (in-place)
I0403 18:44:11.531525 23355 net.cpp:141] Setting up inception_4d/relu_5x5_reduce
I0403 18:44:11.531555 23355 net.cpp:148] Top shape: 24 32 14 14 (150528)
I0403 18:44:11.531570 23355 net.cpp:156] Memory required for data: 1132858656
I0403 18:44:11.531584 23355 layer_factory.hpp:77] Creating layer inception_4d/5x5
I0403 18:44:11.531608 23355 net.cpp:91] Creating Layer inception_4d/5x5
I0403 18:44:11.531625 23355 net.cpp:425] inception_4d/5x5 <- inception_4d/5x5_reduce
I0403 18:44:11.531643 23355 net.cpp:399] inception_4d/5x5 -> inception_4d/5x5
I0403 18:44:11.533037 23355 net.cpp:141] Setting up inception_4d/5x5
I0403 18:44:11.533066 23355 net.cpp:148] Top shape: 24 64 14 14 (301056)
I0403 18:44:11.533082 23355 net.cpp:156] Memory required for data: 1134062880
I0403 18:44:11.533099 23355 layer_factory.hpp:77] Creating layer inception_4d/relu_5x5
I0403 18:44:11.533130 23355 net.cpp:91] Creating Layer inception_4d/relu_5x5
I0403 18:44:11.533146 23355 net.cpp:425] inception_4d/relu_5x5 <- inception_4d/5x5
I0403 18:44:11.533165 23355 net.cpp:386] inception_4d/relu_5x5 -> inception_4d/5x5 (in-place)
I0403 18:44:11.533452 23355 net.cpp:141] Setting up inception_4d/relu_5x5
I0403 18:44:11.533479 23355 net.cpp:148] Top shape: 24 64 14 14 (301056)
I0403 18:44:11.533494 23355 net.cpp:156] Memory required for data: 1135267104
I0403 18:44:11.533509 23355 layer_factory.hpp:77] Creating layer inception_4d/pool
I0403 18:44:11.533526 23355 net.cpp:91] Creating Layer inception_4d/pool
I0403 18:44:11.533545 23355 net.cpp:425] inception_4d/pool <- inception_4c/output_inception_4c/output_0_split_3
I0403 18:44:11.533567 23355 net.cpp:399] inception_4d/pool -> inception_4d/pool
I0403 18:44:11.533630 23355 net.cpp:141] Setting up inception_4d/pool
I0403 18:44:11.533655 23355 net.cpp:148] Top shape: 24 512 14 14 (2408448)
I0403 18:44:11.533670 23355 net.cpp:156] Memory required for data: 1144900896
I0403 18:44:11.533684 23355 layer_factory.hpp:77] Creating layer inception_4d/pool_proj
I0403 18:44:11.533702 23355 net.cpp:91] Creating Layer inception_4d/pool_proj
I0403 18:44:11.533717 23355 net.cpp:425] inception_4d/pool_proj <- inception_4d/pool
I0403 18:44:11.533737 23355 net.cpp:399] inception_4d/pool_proj -> inception_4d/pool_proj
I0403 18:44:11.535459 23355 net.cpp:141] Setting up inception_4d/pool_proj
I0403 18:44:11.535486 23355 net.cpp:148] Top shape: 24 64 14 14 (301056)
I0403 18:44:11.535502 23355 net.cpp:156] Memory required for data: 1146105120
I0403 18:44:11.535519 23355 layer_factory.hpp:77] Creating layer inception_4d/relu_pool_proj
I0403 18:44:11.535542 23355 net.cpp:91] Creating Layer inception_4d/relu_pool_proj
I0403 18:44:11.535559 23355 net.cpp:425] inception_4d/relu_pool_proj <- inception_4d/pool_proj
I0403 18:44:11.535576 23355 net.cpp:386] inception_4d/relu_pool_proj -> inception_4d/pool_proj (in-place)
I0403 18:44:11.535753 23355 net.cpp:141] Setting up inception_4d/relu_pool_proj
I0403 18:44:11.535779 23355 net.cpp:148] Top shape: 24 64 14 14 (301056)
I0403 18:44:11.535795 23355 net.cpp:156] Memory required for data: 1147309344
I0403 18:44:11.535809 23355 layer_factory.hpp:77] Creating layer inception_4d/output
I0403 18:44:11.535823 23355 net.cpp:91] Creating Layer inception_4d/output
I0403 18:44:11.535838 23355 net.cpp:425] inception_4d/output <- inception_4d/1x1
I0403 18:44:11.535853 23355 net.cpp:425] inception_4d/output <- inception_4d/3x3
I0403 18:44:11.535869 23355 net.cpp:425] inception_4d/output <- inception_4d/5x5
I0403 18:44:11.535884 23355 net.cpp:425] inception_4d/output <- inception_4d/pool_proj
I0403 18:44:11.535900 23355 net.cpp:399] inception_4d/output -> inception_4d/output
I0403 18:44:11.535948 23355 net.cpp:141] Setting up inception_4d/output
I0403 18:44:11.535969 23355 net.cpp:148] Top shape: 24 528 14 14 (2483712)
I0403 18:44:11.535982 23355 net.cpp:156] Memory required for data: 1157244192
I0403 18:44:11.535996 23355 layer_factory.hpp:77] Creating layer inception_4d/output_inception_4d/output_0_split
I0403 18:44:11.536015 23355 net.cpp:91] Creating Layer inception_4d/output_inception_4d/output_0_split
I0403 18:44:11.536031 23355 net.cpp:425] inception_4d/output_inception_4d/output_0_split <- inception_4d/output
I0403 18:44:11.536047 23355 net.cpp:399] inception_4d/output_inception_4d/output_0_split -> inception_4d/output_inception_4d/output_0_split_0
I0403 18:44:11.536067 23355 net.cpp:399] inception_4d/output_inception_4d/output_0_split -> inception_4d/output_inception_4d/output_0_split_1
I0403 18:44:11.536087 23355 net.cpp:399] inception_4d/output_inception_4d/output_0_split -> inception_4d/output_inception_4d/output_0_split_2
I0403 18:44:11.536108 23355 net.cpp:399] inception_4d/output_inception_4d/output_0_split -> inception_4d/output_inception_4d/output_0_split_3
I0403 18:44:11.536129 23355 net.cpp:399] inception_4d/output_inception_4d/output_0_split -> inception_4d/output_inception_4d/output_0_split_4
I0403 18:44:11.536229 23355 net.cpp:141] Setting up inception_4d/output_inception_4d/output_0_split
I0403 18:44:11.536264 23355 net.cpp:148] Top shape: 24 528 14 14 (2483712)
I0403 18:44:11.536279 23355 net.cpp:148] Top shape: 24 528 14 14 (2483712)
I0403 18:44:11.536294 23355 net.cpp:148] Top shape: 24 528 14 14 (2483712)
I0403 18:44:11.536309 23355 net.cpp:148] Top shape: 24 528 14 14 (2483712)
I0403 18:44:11.536322 23355 net.cpp:148] Top shape: 24 528 14 14 (2483712)
I0403 18:44:11.536334 23355 net.cpp:156] Memory required for data: 1206918432
I0403 18:44:11.536347 23355 layer_factory.hpp:77] Creating layer loss2/ave_pool
I0403 18:44:11.536366 23355 net.cpp:91] Creating Layer loss2/ave_pool
I0403 18:44:11.536383 23355 net.cpp:425] loss2/ave_pool <- inception_4d/output_inception_4d/output_0_split_0
I0403 18:44:11.536401 23355 net.cpp:399] loss2/ave_pool -> loss2/ave_pool
I0403 18:44:11.536700 23355 net.cpp:141] Setting up loss2/ave_pool
I0403 18:44:11.536726 23355 net.cpp:148] Top shape: 24 528 4 4 (202752)
I0403 18:44:11.536739 23355 net.cpp:156] Memory required for data: 1207729440
I0403 18:44:11.536752 23355 layer_factory.hpp:77] Creating layer loss2/conv
I0403 18:44:11.536773 23355 net.cpp:91] Creating Layer loss2/conv
I0403 18:44:11.536789 23355 net.cpp:425] loss2/conv <- loss2/ave_pool
I0403 18:44:11.536809 23355 net.cpp:399] loss2/conv -> loss2/conv
I0403 18:44:11.538700 23355 net.cpp:141] Setting up loss2/conv
I0403 18:44:11.538728 23355 net.cpp:148] Top shape: 24 128 4 4 (49152)
I0403 18:44:11.538743 23355 net.cpp:156] Memory required for data: 1207926048
I0403 18:44:11.538760 23355 layer_factory.hpp:77] Creating layer loss2/relu_conv
I0403 18:44:11.538779 23355 net.cpp:91] Creating Layer loss2/relu_conv
I0403 18:44:11.538794 23355 net.cpp:425] loss2/relu_conv <- loss2/conv
I0403 18:44:11.538813 23355 net.cpp:386] loss2/relu_conv -> loss2/conv (in-place)
I0403 18:44:11.539093 23355 net.cpp:141] Setting up loss2/relu_conv
I0403 18:44:11.539118 23355 net.cpp:148] Top shape: 24 128 4 4 (49152)
I0403 18:44:11.539132 23355 net.cpp:156] Memory required for data: 1208122656
I0403 18:44:11.539146 23355 layer_factory.hpp:77] Creating layer loss2/fc
I0403 18:44:11.539165 23355 net.cpp:91] Creating Layer loss2/fc
I0403 18:44:11.539180 23355 net.cpp:425] loss2/fc <- loss2/conv
I0403 18:44:11.539201 23355 net.cpp:399] loss2/fc -> loss2/fc
I0403 18:44:11.556453 23355 net.cpp:141] Setting up loss2/fc
I0403 18:44:11.556488 23355 net.cpp:148] Top shape: 24 1024 (24576)
I0403 18:44:11.556504 23355 net.cpp:156] Memory required for data: 1208220960
I0403 18:44:11.556520 23355 layer_factory.hpp:77] Creating layer loss2/relu_fc
I0403 18:44:11.556542 23355 net.cpp:91] Creating Layer loss2/relu_fc
I0403 18:44:11.556572 23355 net.cpp:425] loss2/relu_fc <- loss2/fc
I0403 18:44:11.556588 23355 net.cpp:386] loss2/relu_fc -> loss2/fc (in-place)
I0403 18:44:11.556872 23355 net.cpp:141] Setting up loss2/relu_fc
I0403 18:44:11.556900 23355 net.cpp:148] Top shape: 24 1024 (24576)
I0403 18:44:11.556913 23355 net.cpp:156] Memory required for data: 1208319264
I0403 18:44:11.556927 23355 layer_factory.hpp:77] Creating layer loss2/drop_fc
I0403 18:44:11.556943 23355 net.cpp:91] Creating Layer loss2/drop_fc
I0403 18:44:11.556958 23355 net.cpp:425] loss2/drop_fc <- loss2/fc
I0403 18:44:11.556974 23355 net.cpp:386] loss2/drop_fc -> loss2/fc (in-place)
I0403 18:44:11.557023 23355 net.cpp:141] Setting up loss2/drop_fc
I0403 18:44:11.557044 23355 net.cpp:148] Top shape: 24 1024 (24576)
I0403 18:44:11.557057 23355 net.cpp:156] Memory required for data: 1208417568
I0403 18:44:11.557070 23355 layer_factory.hpp:77] Creating layer loss2/classifier_plantvillage
I0403 18:44:11.557090 23355 net.cpp:91] Creating Layer loss2/classifier_plantvillage
I0403 18:44:11.557106 23355 net.cpp:425] loss2/classifier_plantvillage <- loss2/fc
I0403 18:44:11.557122 23355 net.cpp:399] loss2/classifier_plantvillage -> loss2/classifier_plantvillage
I0403 18:44:11.557510 23355 net.cpp:141] Setting up loss2/classifier_plantvillage
I0403 18:44:11.557534 23355 net.cpp:148] Top shape: 24 38 (912)
I0403 18:44:11.557567 23355 net.cpp:156] Memory required for data: 1208421216
I0403 18:44:11.557585 23355 layer_factory.hpp:77] Creating layer loss2/classifier_plantvillage_loss2/classifier_plantvillage_0_split
I0403 18:44:11.557602 23355 net.cpp:91] Creating Layer loss2/classifier_plantvillage_loss2/classifier_plantvillage_0_split
I0403 18:44:11.557617 23355 net.cpp:425] loss2/classifier_plantvillage_loss2/classifier_plantvillage_0_split <- loss2/classifier_plantvillage
I0403 18:44:11.557637 23355 net.cpp:399] loss2/classifier_plantvillage_loss2/classifier_plantvillage_0_split -> loss2/classifier_plantvillage_loss2/classifier_plantvillage_0_split_0
I0403 18:44:11.557658 23355 net.cpp:399] loss2/classifier_plantvillage_loss2/classifier_plantvillage_0_split -> loss2/classifier_plantvillage_loss2/classifier_plantvillage_0_split_1
I0403 18:44:11.557678 23355 net.cpp:399] loss2/classifier_plantvillage_loss2/classifier_plantvillage_0_split -> loss2/classifier_plantvillage_loss2/classifier_plantvillage_0_split_2
I0403 18:44:11.557754 23355 net.cpp:141] Setting up loss2/classifier_plantvillage_loss2/classifier_plantvillage_0_split
I0403 18:44:11.557778 23355 net.cpp:148] Top shape: 24 38 (912)
I0403 18:44:11.557795 23355 net.cpp:148] Top shape: 24 38 (912)
I0403 18:44:11.557808 23355 net.cpp:148] Top shape: 24 38 (912)
I0403 18:44:11.557821 23355 net.cpp:156] Memory required for data: 1208432160
I0403 18:44:11.557835 23355 layer_factory.hpp:77] Creating layer inception_4e/1x1
I0403 18:44:11.557855 23355 net.cpp:91] Creating Layer inception_4e/1x1
I0403 18:44:11.557873 23355 net.cpp:425] inception_4e/1x1 <- inception_4d/output_inception_4d/output_0_split_1
I0403 18:44:11.557889 23355 net.cpp:399] inception_4e/1x1 -> inception_4e/1x1
I0403 18:44:11.559615 23355 net.cpp:141] Setting up inception_4e/1x1
I0403 18:44:11.559643 23355 net.cpp:148] Top shape: 24 256 14 14 (1204224)
I0403 18:44:11.559656 23355 net.cpp:156] Memory required for data: 1213249056
I0403 18:44:11.559674 23355 layer_factory.hpp:77] Creating layer inception_4e/relu_1x1
I0403 18:44:11.559690 23355 net.cpp:91] Creating Layer inception_4e/relu_1x1
I0403 18:44:11.559705 23355 net.cpp:425] inception_4e/relu_1x1 <- inception_4e/1x1
I0403 18:44:11.559723 23355 net.cpp:386] inception_4e/relu_1x1 -> inception_4e/1x1 (in-place)
I0403 18:44:11.560008 23355 net.cpp:141] Setting up inception_4e/relu_1x1
I0403 18:44:11.560032 23355 net.cpp:148] Top shape: 24 256 14 14 (1204224)
I0403 18:44:11.560046 23355 net.cpp:156] Memory required for data: 1218065952
I0403 18:44:11.560060 23355 layer_factory.hpp:77] Creating layer inception_4e/3x3_reduce
I0403 18:44:11.560081 23355 net.cpp:91] Creating Layer inception_4e/3x3_reduce
I0403 18:44:11.560096 23355 net.cpp:425] inception_4e/3x3_reduce <- inception_4d/output_inception_4d/output_0_split_2
I0403 18:44:11.560117 23355 net.cpp:399] inception_4e/3x3_reduce -> inception_4e/3x3_reduce
I0403 18:44:11.562145 23355 net.cpp:141] Setting up inception_4e/3x3_reduce
I0403 18:44:11.562175 23355 net.cpp:148] Top shape: 24 160 14 14 (752640)
I0403 18:44:11.562191 23355 net.cpp:156] Memory required for data: 1221076512
I0403 18:44:11.562208 23355 layer_factory.hpp:77] Creating layer inception_4e/relu_3x3_reduce
I0403 18:44:11.562225 23355 net.cpp:91] Creating Layer inception_4e/relu_3x3_reduce
I0403 18:44:11.562252 23355 net.cpp:425] inception_4e/relu_3x3_reduce <- inception_4e/3x3_reduce
I0403 18:44:11.562275 23355 net.cpp:386] inception_4e/relu_3x3_reduce -> inception_4e/3x3_reduce (in-place)
I0403 18:44:11.562458 23355 net.cpp:141] Setting up inception_4e/relu_3x3_reduce
I0403 18:44:11.562482 23355 net.cpp:148] Top shape: 24 160 14 14 (752640)
I0403 18:44:11.562496 23355 net.cpp:156] Memory required for data: 1224087072
I0403 18:44:11.562510 23355 layer_factory.hpp:77] Creating layer inception_4e/3x3
I0403 18:44:11.562547 23355 net.cpp:91] Creating Layer inception_4e/3x3
I0403 18:44:11.562566 23355 net.cpp:425] inception_4e/3x3 <- inception_4e/3x3_reduce
I0403 18:44:11.562585 23355 net.cpp:399] inception_4e/3x3 -> inception_4e/3x3
I0403 18:44:11.567342 23355 net.cpp:141] Setting up inception_4e/3x3
I0403 18:44:11.567385 23355 net.cpp:148] Top shape: 24 320 14 14 (1505280)
I0403 18:44:11.567401 23355 net.cpp:156] Memory required for data: 1230108192
I0403 18:44:11.567420 23355 layer_factory.hpp:77] Creating layer inception_4e/relu_3x3
I0403 18:44:11.567438 23355 net.cpp:91] Creating Layer inception_4e/relu_3x3
I0403 18:44:11.567454 23355 net.cpp:425] inception_4e/relu_3x3 <- inception_4e/3x3
I0403 18:44:11.567471 23355 net.cpp:386] inception_4e/relu_3x3 -> inception_4e/3x3 (in-place)
I0403 18:44:11.567755 23355 net.cpp:141] Setting up inception_4e/relu_3x3
I0403 18:44:11.567780 23355 net.cpp:148] Top shape: 24 320 14 14 (1505280)
I0403 18:44:11.567795 23355 net.cpp:156] Memory required for data: 1236129312
I0403 18:44:11.567808 23355 layer_factory.hpp:77] Creating layer inception_4e/5x5_reduce
I0403 18:44:11.567829 23355 net.cpp:91] Creating Layer inception_4e/5x5_reduce
I0403 18:44:11.567845 23355 net.cpp:425] inception_4e/5x5_reduce <- inception_4d/output_inception_4d/output_0_split_3
I0403 18:44:11.567867 23355 net.cpp:399] inception_4e/5x5_reduce -> inception_4e/5x5_reduce
I0403 18:44:11.568883 23355 net.cpp:141] Setting up inception_4e/5x5_reduce
I0403 18:44:11.568912 23355 net.cpp:148] Top shape: 24 32 14 14 (150528)
I0403 18:44:11.568928 23355 net.cpp:156] Memory required for data: 1236731424
I0403 18:44:11.568945 23355 layer_factory.hpp:77] Creating layer inception_4e/relu_5x5_reduce
I0403 18:44:11.568963 23355 net.cpp:91] Creating Layer inception_4e/relu_5x5_reduce
I0403 18:44:11.568977 23355 net.cpp:425] inception_4e/relu_5x5_reduce <- inception_4e/5x5_reduce
I0403 18:44:11.568996 23355 net.cpp:386] inception_4e/relu_5x5_reduce -> inception_4e/5x5_reduce (in-place)
I0403 18:44:11.569278 23355 net.cpp:141] Setting up inception_4e/relu_5x5_reduce
I0403 18:44:11.569304 23355 net.cpp:148] Top shape: 24 32 14 14 (150528)
I0403 18:44:11.569319 23355 net.cpp:156] Memory required for data: 1237333536
I0403 18:44:11.569334 23355 layer_factory.hpp:77] Creating layer inception_4e/5x5
I0403 18:44:11.569370 23355 net.cpp:91] Creating Layer inception_4e/5x5
I0403 18:44:11.569388 23355 net.cpp:425] inception_4e/5x5 <- inception_4e/5x5_reduce
I0403 18:44:11.569406 23355 net.cpp:399] inception_4e/5x5 -> inception_4e/5x5
I0403 18:44:11.571174 23355 net.cpp:141] Setting up inception_4e/5x5
I0403 18:44:11.571202 23355 net.cpp:148] Top shape: 24 128 14 14 (602112)
I0403 18:44:11.571215 23355 net.cpp:156] Memory required for data: 1239741984
I0403 18:44:11.571233 23355 layer_factory.hpp:77] Creating layer inception_4e/relu_5x5
I0403 18:44:11.571254 23355 net.cpp:91] Creating Layer inception_4e/relu_5x5
I0403 18:44:11.571270 23355 net.cpp:425] inception_4e/relu_5x5 <- inception_4e/5x5
I0403 18:44:11.571287 23355 net.cpp:386] inception_4e/relu_5x5 -> inception_4e/5x5 (in-place)
I0403 18:44:11.571481 23355 net.cpp:141] Setting up inception_4e/relu_5x5
I0403 18:44:11.571506 23355 net.cpp:148] Top shape: 24 128 14 14 (602112)
I0403 18:44:11.571521 23355 net.cpp:156] Memory required for data: 1242150432
I0403 18:44:11.571534 23355 layer_factory.hpp:77] Creating layer inception_4e/pool
I0403 18:44:11.571568 23355 net.cpp:91] Creating Layer inception_4e/pool
I0403 18:44:11.571583 23355 net.cpp:425] inception_4e/pool <- inception_4d/output_inception_4d/output_0_split_4
I0403 18:44:11.571602 23355 net.cpp:399] inception_4e/pool -> inception_4e/pool
I0403 18:44:11.571668 23355 net.cpp:141] Setting up inception_4e/pool
I0403 18:44:11.571691 23355 net.cpp:148] Top shape: 24 528 14 14 (2483712)
I0403 18:44:11.571705 23355 net.cpp:156] Memory required for data: 1252085280
I0403 18:44:11.571719 23355 layer_factory.hpp:77] Creating layer inception_4e/pool_proj
I0403 18:44:11.571743 23355 net.cpp:91] Creating Layer inception_4e/pool_proj
I0403 18:44:11.571758 23355 net.cpp:425] inception_4e/pool_proj <- inception_4e/pool
I0403 18:44:11.571777 23355 net.cpp:399] inception_4e/pool_proj -> inception_4e/pool_proj
I0403 18:44:11.573199 23355 net.cpp:141] Setting up inception_4e/pool_proj
I0403 18:44:11.573235 23355 net.cpp:148] Top shape: 24 128 14 14 (602112)
I0403 18:44:11.573251 23355 net.cpp:156] Memory required for data: 1254493728
I0403 18:44:11.573269 23355 layer_factory.hpp:77] Creating layer inception_4e/relu_pool_proj
I0403 18:44:11.573288 23355 net.cpp:91] Creating Layer inception_4e/relu_pool_proj
I0403 18:44:11.573304 23355 net.cpp:425] inception_4e/relu_pool_proj <- inception_4e/pool_proj
I0403 18:44:11.573320 23355 net.cpp:386] inception_4e/relu_pool_proj -> inception_4e/pool_proj (in-place)
I0403 18:44:11.573611 23355 net.cpp:141] Setting up inception_4e/relu_pool_proj
I0403 18:44:11.573635 23355 net.cpp:148] Top shape: 24 128 14 14 (602112)
I0403 18:44:11.573650 23355 net.cpp:156] Memory required for data: 1256902176
I0403 18:44:11.573663 23355 layer_factory.hpp:77] Creating layer inception_4e/output
I0403 18:44:11.573681 23355 net.cpp:91] Creating Layer inception_4e/output
I0403 18:44:11.573698 23355 net.cpp:425] inception_4e/output <- inception_4e/1x1
I0403 18:44:11.573714 23355 net.cpp:425] inception_4e/output <- inception_4e/3x3
I0403 18:44:11.573729 23355 net.cpp:425] inception_4e/output <- inception_4e/5x5
I0403 18:44:11.573745 23355 net.cpp:425] inception_4e/output <- inception_4e/pool_proj
I0403 18:44:11.573760 23355 net.cpp:399] inception_4e/output -> inception_4e/output
I0403 18:44:11.573810 23355 net.cpp:141] Setting up inception_4e/output
I0403 18:44:11.573833 23355 net.cpp:148] Top shape: 24 832 14 14 (3913728)
I0403 18:44:11.573846 23355 net.cpp:156] Memory required for data: 1272557088
I0403 18:44:11.573859 23355 layer_factory.hpp:77] Creating layer pool4/3x3_s2
I0403 18:44:11.573876 23355 net.cpp:91] Creating Layer pool4/3x3_s2
I0403 18:44:11.573891 23355 net.cpp:425] pool4/3x3_s2 <- inception_4e/output
I0403 18:44:11.573911 23355 net.cpp:399] pool4/3x3_s2 -> pool4/3x3_s2
I0403 18:44:11.573976 23355 net.cpp:141] Setting up pool4/3x3_s2
I0403 18:44:11.573998 23355 net.cpp:148] Top shape: 24 832 7 7 (978432)
I0403 18:44:11.574012 23355 net.cpp:156] Memory required for data: 1276470816
I0403 18:44:11.574025 23355 layer_factory.hpp:77] Creating layer pool4/3x3_s2_pool4/3x3_s2_0_split
I0403 18:44:11.574054 23355 net.cpp:91] Creating Layer pool4/3x3_s2_pool4/3x3_s2_0_split
I0403 18:44:11.574070 23355 net.cpp:425] pool4/3x3_s2_pool4/3x3_s2_0_split <- pool4/3x3_s2
I0403 18:44:11.574090 23355 net.cpp:399] pool4/3x3_s2_pool4/3x3_s2_0_split -> pool4/3x3_s2_pool4/3x3_s2_0_split_0
I0403 18:44:11.574108 23355 net.cpp:399] pool4/3x3_s2_pool4/3x3_s2_0_split -> pool4/3x3_s2_pool4/3x3_s2_0_split_1
I0403 18:44:11.574128 23355 net.cpp:399] pool4/3x3_s2_pool4/3x3_s2_0_split -> pool4/3x3_s2_pool4/3x3_s2_0_split_2
I0403 18:44:11.574147 23355 net.cpp:399] pool4/3x3_s2_pool4/3x3_s2_0_split -> pool4/3x3_s2_pool4/3x3_s2_0_split_3
I0403 18:44:11.574234 23355 net.cpp:141] Setting up pool4/3x3_s2_pool4/3x3_s2_0_split
I0403 18:44:11.574259 23355 net.cpp:148] Top shape: 24 832 7 7 (978432)
I0403 18:44:11.574276 23355 net.cpp:148] Top shape: 24 832 7 7 (978432)
I0403 18:44:11.574290 23355 net.cpp:148] Top shape: 24 832 7 7 (978432)
I0403 18:44:11.574304 23355 net.cpp:148] Top shape: 24 832 7 7 (978432)
I0403 18:44:11.574316 23355 net.cpp:156] Memory required for data: 1292125728
I0403 18:44:11.574329 23355 layer_factory.hpp:77] Creating layer inception_5a/1x1
I0403 18:44:11.574348 23355 net.cpp:91] Creating Layer inception_5a/1x1
I0403 18:44:11.574363 23355 net.cpp:425] inception_5a/1x1 <- pool4/3x3_s2_pool4/3x3_s2_0_split_0
I0403 18:44:11.574383 23355 net.cpp:399] inception_5a/1x1 -> inception_5a/1x1
I0403 18:44:11.577111 23355 net.cpp:141] Setting up inception_5a/1x1
I0403 18:44:11.577142 23355 net.cpp:148] Top shape: 24 256 7 7 (301056)
I0403 18:44:11.577157 23355 net.cpp:156] Memory required for data: 1293329952
I0403 18:44:11.577174 23355 layer_factory.hpp:77] Creating layer inception_5a/relu_1x1
I0403 18:44:11.577191 23355 net.cpp:91] Creating Layer inception_5a/relu_1x1
I0403 18:44:11.577206 23355 net.cpp:425] inception_5a/relu_1x1 <- inception_5a/1x1
I0403 18:44:11.577222 23355 net.cpp:386] inception_5a/relu_1x1 -> inception_5a/1x1 (in-place)
I0403 18:44:11.577519 23355 net.cpp:141] Setting up inception_5a/relu_1x1
I0403 18:44:11.577550 23355 net.cpp:148] Top shape: 24 256 7 7 (301056)
I0403 18:44:11.577567 23355 net.cpp:156] Memory required for data: 1294534176
I0403 18:44:11.577580 23355 layer_factory.hpp:77] Creating layer inception_5a/3x3_reduce
I0403 18:44:11.577601 23355 net.cpp:91] Creating Layer inception_5a/3x3_reduce
I0403 18:44:11.577618 23355 net.cpp:425] inception_5a/3x3_reduce <- pool4/3x3_s2_pool4/3x3_s2_0_split_1
I0403 18:44:11.577636 23355 net.cpp:399] inception_5a/3x3_reduce -> inception_5a/3x3_reduce
I0403 18:44:11.579982 23355 net.cpp:141] Setting up inception_5a/3x3_reduce
I0403 18:44:11.580010 23355 net.cpp:148] Top shape: 24 160 7 7 (188160)
I0403 18:44:11.580024 23355 net.cpp:156] Memory required for data: 1295286816
I0403 18:44:11.580041 23355 layer_factory.hpp:77] Creating layer inception_5a/relu_3x3_reduce
I0403 18:44:11.580060 23355 net.cpp:91] Creating Layer inception_5a/relu_3x3_reduce
I0403 18:44:11.580076 23355 net.cpp:425] inception_5a/relu_3x3_reduce <- inception_5a/3x3_reduce
I0403 18:44:11.580093 23355 net.cpp:386] inception_5a/relu_3x3_reduce -> inception_5a/3x3_reduce (in-place)
I0403 18:44:11.580271 23355 net.cpp:141] Setting up inception_5a/relu_3x3_reduce
I0403 18:44:11.580297 23355 net.cpp:148] Top shape: 24 160 7 7 (188160)
I0403 18:44:11.580312 23355 net.cpp:156] Memory required for data: 1296039456
I0403 18:44:11.580325 23355 layer_factory.hpp:77] Creating layer inception_5a/3x3
I0403 18:44:11.580346 23355 net.cpp:91] Creating Layer inception_5a/3x3
I0403 18:44:11.580363 23355 net.cpp:425] inception_5a/3x3 <- inception_5a/3x3_reduce
I0403 18:44:11.580382 23355 net.cpp:399] inception_5a/3x3 -> inception_5a/3x3
I0403 18:44:11.585165 23355 net.cpp:141] Setting up inception_5a/3x3
I0403 18:44:11.585193 23355 net.cpp:148] Top shape: 24 320 7 7 (376320)
I0403 18:44:11.585208 23355 net.cpp:156] Memory required for data: 1297544736
I0403 18:44:11.585228 23355 layer_factory.hpp:77] Creating layer inception_5a/relu_3x3
I0403 18:44:11.585247 23355 net.cpp:91] Creating Layer inception_5a/relu_3x3
I0403 18:44:11.585261 23355 net.cpp:425] inception_5a/relu_3x3 <- inception_5a/3x3
I0403 18:44:11.585278 23355 net.cpp:386] inception_5a/relu_3x3 -> inception_5a/3x3 (in-place)
I0403 18:44:11.585562 23355 net.cpp:141] Setting up inception_5a/relu_3x3
I0403 18:44:11.585588 23355 net.cpp:148] Top shape: 24 320 7 7 (376320)
I0403 18:44:11.585602 23355 net.cpp:156] Memory required for data: 1299050016
I0403 18:44:11.585615 23355 layer_factory.hpp:77] Creating layer inception_5a/5x5_reduce
I0403 18:44:11.585638 23355 net.cpp:91] Creating Layer inception_5a/5x5_reduce
I0403 18:44:11.585655 23355 net.cpp:425] inception_5a/5x5_reduce <- pool4/3x3_s2_pool4/3x3_s2_0_split_2
I0403 18:44:11.585674 23355 net.cpp:399] inception_5a/5x5_reduce -> inception_5a/5x5_reduce
I0403 18:44:11.586781 23355 net.cpp:141] Setting up inception_5a/5x5_reduce
I0403 18:44:11.586810 23355 net.cpp:148] Top shape: 24 32 7 7 (37632)
I0403 18:44:11.586825 23355 net.cpp:156] Memory required for data: 1299200544
I0403 18:44:11.586843 23355 layer_factory.hpp:77] Creating layer inception_5a/relu_5x5_reduce
I0403 18:44:11.586860 23355 net.cpp:91] Creating Layer inception_5a/relu_5x5_reduce
I0403 18:44:11.586876 23355 net.cpp:425] inception_5a/relu_5x5_reduce <- inception_5a/5x5_reduce
I0403 18:44:11.586894 23355 net.cpp:386] inception_5a/relu_5x5_reduce -> inception_5a/5x5_reduce (in-place)
I0403 18:44:11.587178 23355 net.cpp:141] Setting up inception_5a/relu_5x5_reduce
I0403 18:44:11.587203 23355 net.cpp:148] Top shape: 24 32 7 7 (37632)
I0403 18:44:11.587218 23355 net.cpp:156] Memory required for data: 1299351072
I0403 18:44:11.587231 23355 layer_factory.hpp:77] Creating layer inception_5a/5x5
I0403 18:44:11.587252 23355 net.cpp:91] Creating Layer inception_5a/5x5
I0403 18:44:11.587270 23355 net.cpp:425] inception_5a/5x5 <- inception_5a/5x5_reduce
I0403 18:44:11.587290 23355 net.cpp:399] inception_5a/5x5 -> inception_5a/5x5
I0403 18:44:11.588999 23355 net.cpp:141] Setting up inception_5a/5x5
I0403 18:44:11.589037 23355 net.cpp:148] Top shape: 24 128 7 7 (150528)
I0403 18:44:11.589052 23355 net.cpp:156] Memory required for data: 1299953184
I0403 18:44:11.589071 23355 layer_factory.hpp:77] Creating layer inception_5a/relu_5x5
I0403 18:44:11.589089 23355 net.cpp:91] Creating Layer inception_5a/relu_5x5
I0403 18:44:11.589105 23355 net.cpp:425] inception_5a/relu_5x5 <- inception_5a/5x5
I0403 18:44:11.589123 23355 net.cpp:386] inception_5a/relu_5x5 -> inception_5a/5x5 (in-place)
I0403 18:44:11.589304 23355 net.cpp:141] Setting up inception_5a/relu_5x5
I0403 18:44:11.589329 23355 net.cpp:148] Top shape: 24 128 7 7 (150528)
I0403 18:44:11.589342 23355 net.cpp:156] Memory required for data: 1300555296
I0403 18:44:11.589356 23355 layer_factory.hpp:77] Creating layer inception_5a/pool
I0403 18:44:11.589372 23355 net.cpp:91] Creating Layer inception_5a/pool
I0403 18:44:11.589387 23355 net.cpp:425] inception_5a/pool <- pool4/3x3_s2_pool4/3x3_s2_0_split_3
I0403 18:44:11.589407 23355 net.cpp:399] inception_5a/pool -> inception_5a/pool
I0403 18:44:11.589476 23355 net.cpp:141] Setting up inception_5a/pool
I0403 18:44:11.589498 23355 net.cpp:148] Top shape: 24 832 7 7 (978432)
I0403 18:44:11.589512 23355 net.cpp:156] Memory required for data: 1304469024
I0403 18:44:11.589525 23355 layer_factory.hpp:77] Creating layer inception_5a/pool_proj
I0403 18:44:11.589550 23355 net.cpp:91] Creating Layer inception_5a/pool_proj
I0403 18:44:11.589568 23355 net.cpp:425] inception_5a/pool_proj <- inception_5a/pool
I0403 18:44:11.589586 23355 net.cpp:399] inception_5a/pool_proj -> inception_5a/pool_proj
I0403 18:44:11.591773 23355 net.cpp:141] Setting up inception_5a/pool_proj
I0403 18:44:11.591802 23355 net.cpp:148] Top shape: 24 128 7 7 (150528)
I0403 18:44:11.591816 23355 net.cpp:156] Memory required for data: 1305071136
I0403 18:44:11.591835 23355 layer_factory.hpp:77] Creating layer inception_5a/relu_pool_proj
I0403 18:44:11.591855 23355 net.cpp:91] Creating Layer inception_5a/relu_pool_proj
I0403 18:44:11.591869 23355 net.cpp:425] inception_5a/relu_pool_proj <- inception_5a/pool_proj
I0403 18:44:11.591886 23355 net.cpp:386] inception_5a/relu_pool_proj -> inception_5a/pool_proj (in-place)
I0403 18:44:11.592170 23355 net.cpp:141] Setting up inception_5a/relu_pool_proj
I0403 18:44:11.592195 23355 net.cpp:148] Top shape: 24 128 7 7 (150528)
I0403 18:44:11.592209 23355 net.cpp:156] Memory required for data: 1305673248
I0403 18:44:11.592223 23355 layer_factory.hpp:77] Creating layer inception_5a/output
I0403 18:44:11.592242 23355 net.cpp:91] Creating Layer inception_5a/output
I0403 18:44:11.592257 23355 net.cpp:425] inception_5a/output <- inception_5a/1x1
I0403 18:44:11.592273 23355 net.cpp:425] inception_5a/output <- inception_5a/3x3
I0403 18:44:11.592289 23355 net.cpp:425] inception_5a/output <- inception_5a/5x5
I0403 18:44:11.592304 23355 net.cpp:425] inception_5a/output <- inception_5a/pool_proj
I0403 18:44:11.592321 23355 net.cpp:399] inception_5a/output -> inception_5a/output
I0403 18:44:11.592370 23355 net.cpp:141] Setting up inception_5a/output
I0403 18:44:11.592392 23355 net.cpp:148] Top shape: 24 832 7 7 (978432)
I0403 18:44:11.592406 23355 net.cpp:156] Memory required for data: 1309586976
I0403 18:44:11.592418 23355 layer_factory.hpp:77] Creating layer inception_5a/output_inception_5a/output_0_split
I0403 18:44:11.592434 23355 net.cpp:91] Creating Layer inception_5a/output_inception_5a/output_0_split
I0403 18:44:11.592448 23355 net.cpp:425] inception_5a/output_inception_5a/output_0_split <- inception_5a/output
I0403 18:44:11.592466 23355 net.cpp:399] inception_5a/output_inception_5a/output_0_split -> inception_5a/output_inception_5a/output_0_split_0
I0403 18:44:11.592486 23355 net.cpp:399] inception_5a/output_inception_5a/output_0_split -> inception_5a/output_inception_5a/output_0_split_1
I0403 18:44:11.592506 23355 net.cpp:399] inception_5a/output_inception_5a/output_0_split -> inception_5a/output_inception_5a/output_0_split_2
I0403 18:44:11.592525 23355 net.cpp:399] inception_5a/output_inception_5a/output_0_split -> inception_5a/output_inception_5a/output_0_split_3
I0403 18:44:11.592638 23355 net.cpp:141] Setting up inception_5a/output_inception_5a/output_0_split
I0403 18:44:11.592660 23355 net.cpp:148] Top shape: 24 832 7 7 (978432)
I0403 18:44:11.592675 23355 net.cpp:148] Top shape: 24 832 7 7 (978432)
I0403 18:44:11.592689 23355 net.cpp:148] Top shape: 24 832 7 7 (978432)
I0403 18:44:11.592703 23355 net.cpp:148] Top shape: 24 832 7 7 (978432)
I0403 18:44:11.592715 23355 net.cpp:156] Memory required for data: 1325241888
I0403 18:44:11.592728 23355 layer_factory.hpp:77] Creating layer inception_5b/1x1
I0403 18:44:11.592748 23355 net.cpp:91] Creating Layer inception_5b/1x1
I0403 18:44:11.592767 23355 net.cpp:425] inception_5b/1x1 <- inception_5a/output_inception_5a/output_0_split_0
I0403 18:44:11.592787 23355 net.cpp:399] inception_5b/1x1 -> inception_5b/1x1
I0403 18:44:11.596380 23355 net.cpp:141] Setting up inception_5b/1x1
I0403 18:44:11.596410 23355 net.cpp:148] Top shape: 24 384 7 7 (451584)
I0403 18:44:11.596424 23355 net.cpp:156] Memory required for data: 1327048224
I0403 18:44:11.596441 23355 layer_factory.hpp:77] Creating layer inception_5b/relu_1x1
I0403 18:44:11.596460 23355 net.cpp:91] Creating Layer inception_5b/relu_1x1
I0403 18:44:11.596477 23355 net.cpp:425] inception_5b/relu_1x1 <- inception_5b/1x1
I0403 18:44:11.596494 23355 net.cpp:386] inception_5b/relu_1x1 -> inception_5b/1x1 (in-place)
I0403 18:44:11.596787 23355 net.cpp:141] Setting up inception_5b/relu_1x1
I0403 18:44:11.596812 23355 net.cpp:148] Top shape: 24 384 7 7 (451584)
I0403 18:44:11.596825 23355 net.cpp:156] Memory required for data: 1328854560
I0403 18:44:11.596839 23355 layer_factory.hpp:77] Creating layer inception_5b/3x3_reduce
I0403 18:44:11.596860 23355 net.cpp:91] Creating Layer inception_5b/3x3_reduce
I0403 18:44:11.596878 23355 net.cpp:425] inception_5b/3x3_reduce <- inception_5a/output_inception_5a/output_0_split_1
I0403 18:44:11.596899 23355 net.cpp:399] inception_5b/3x3_reduce -> inception_5b/3x3_reduce
I0403 18:44:11.599449 23355 net.cpp:141] Setting up inception_5b/3x3_reduce
I0403 18:44:11.599478 23355 net.cpp:148] Top shape: 24 192 7 7 (225792)
I0403 18:44:11.599493 23355 net.cpp:156] Memory required for data: 1329757728
I0403 18:44:11.599510 23355 layer_factory.hpp:77] Creating layer inception_5b/relu_3x3_reduce
I0403 18:44:11.599530 23355 net.cpp:91] Creating Layer inception_5b/relu_3x3_reduce
I0403 18:44:11.599552 23355 net.cpp:425] inception_5b/relu_3x3_reduce <- inception_5b/3x3_reduce
I0403 18:44:11.599570 23355 net.cpp:386] inception_5b/relu_3x3_reduce -> inception_5b/3x3_reduce (in-place)
I0403 18:44:11.599750 23355 net.cpp:141] Setting up inception_5b/relu_3x3_reduce
I0403 18:44:11.599776 23355 net.cpp:148] Top shape: 24 192 7 7 (225792)
I0403 18:44:11.599792 23355 net.cpp:156] Memory required for data: 1330660896
I0403 18:44:11.599805 23355 layer_factory.hpp:77] Creating layer inception_5b/3x3
I0403 18:44:11.599825 23355 net.cpp:91] Creating Layer inception_5b/3x3
I0403 18:44:11.599843 23355 net.cpp:425] inception_5b/3x3 <- inception_5b/3x3_reduce
I0403 18:44:11.599860 23355 net.cpp:399] inception_5b/3x3 -> inception_5b/3x3
I0403 18:44:11.606472 23355 net.cpp:141] Setting up inception_5b/3x3
I0403 18:44:11.606499 23355 net.cpp:148] Top shape: 24 384 7 7 (451584)
I0403 18:44:11.606514 23355 net.cpp:156] Memory required for data: 1332467232
I0403 18:44:11.606533 23355 layer_factory.hpp:77] Creating layer inception_5b/relu_3x3
I0403 18:44:11.606557 23355 net.cpp:91] Creating Layer inception_5b/relu_3x3
I0403 18:44:11.606575 23355 net.cpp:425] inception_5b/relu_3x3 <- inception_5b/3x3
I0403 18:44:11.606592 23355 net.cpp:386] inception_5b/relu_3x3 -> inception_5b/3x3 (in-place)
I0403 18:44:11.606887 23355 net.cpp:141] Setting up inception_5b/relu_3x3
I0403 18:44:11.606914 23355 net.cpp:148] Top shape: 24 384 7 7 (451584)
I0403 18:44:11.606927 23355 net.cpp:156] Memory required for data: 1334273568
I0403 18:44:11.606941 23355 layer_factory.hpp:77] Creating layer inception_5b/5x5_reduce
I0403 18:44:11.606978 23355 net.cpp:91] Creating Layer inception_5b/5x5_reduce
I0403 18:44:11.606997 23355 net.cpp:425] inception_5b/5x5_reduce <- inception_5a/output_inception_5a/output_0_split_2
I0403 18:44:11.607018 23355 net.cpp:399] inception_5b/5x5_reduce -> inception_5b/5x5_reduce
I0403 18:44:11.608270 23355 net.cpp:141] Setting up inception_5b/5x5_reduce
I0403 18:44:11.608299 23355 net.cpp:148] Top shape: 24 48 7 7 (56448)
I0403 18:44:11.608314 23355 net.cpp:156] Memory required for data: 1334499360
I0403 18:44:11.608331 23355 layer_factory.hpp:77] Creating layer inception_5b/relu_5x5_reduce
I0403 18:44:11.608351 23355 net.cpp:91] Creating Layer inception_5b/relu_5x5_reduce
I0403 18:44:11.608368 23355 net.cpp:425] inception_5b/relu_5x5_reduce <- inception_5b/5x5_reduce
I0403 18:44:11.608386 23355 net.cpp:386] inception_5b/relu_5x5_reduce -> inception_5b/5x5_reduce (in-place)
I0403 18:44:11.608752 23355 net.cpp:141] Setting up inception_5b/relu_5x5_reduce
I0403 18:44:11.608778 23355 net.cpp:148] Top shape: 24 48 7 7 (56448)
I0403 18:44:11.608793 23355 net.cpp:156] Memory required for data: 1334725152
I0403 18:44:11.608808 23355 layer_factory.hpp:77] Creating layer inception_5b/5x5
I0403 18:44:11.608827 23355 net.cpp:91] Creating Layer inception_5b/5x5
I0403 18:44:11.608844 23355 net.cpp:425] inception_5b/5x5 <- inception_5b/5x5_reduce
I0403 18:44:11.608861 23355 net.cpp:399] inception_5b/5x5 -> inception_5b/5x5
I0403 18:44:11.610868 23355 net.cpp:141] Setting up inception_5b/5x5
I0403 18:44:11.610898 23355 net.cpp:148] Top shape: 24 128 7 7 (150528)
I0403 18:44:11.610914 23355 net.cpp:156] Memory required for data: 1335327264
I0403 18:44:11.610931 23355 layer_factory.hpp:77] Creating layer inception_5b/relu_5x5
I0403 18:44:11.610949 23355 net.cpp:91] Creating Layer inception_5b/relu_5x5
I0403 18:44:11.610965 23355 net.cpp:425] inception_5b/relu_5x5 <- inception_5b/5x5
I0403 18:44:11.610980 23355 net.cpp:386] inception_5b/relu_5x5 -> inception_5b/5x5 (in-place)
I0403 18:44:11.611173 23355 net.cpp:141] Setting up inception_5b/relu_5x5
I0403 18:44:11.611197 23355 net.cpp:148] Top shape: 24 128 7 7 (150528)
I0403 18:44:11.611212 23355 net.cpp:156] Memory required for data: 1335929376
I0403 18:44:11.611227 23355 layer_factory.hpp:77] Creating layer inception_5b/pool
I0403 18:44:11.611243 23355 net.cpp:91] Creating Layer inception_5b/pool
I0403 18:44:11.611260 23355 net.cpp:425] inception_5b/pool <- inception_5a/output_inception_5a/output_0_split_3
I0403 18:44:11.611280 23355 net.cpp:399] inception_5b/pool -> inception_5b/pool
I0403 18:44:11.611351 23355 net.cpp:141] Setting up inception_5b/pool
I0403 18:44:11.611377 23355 net.cpp:148] Top shape: 24 832 7 7 (978432)
I0403 18:44:11.611392 23355 net.cpp:156] Memory required for data: 1339843104
I0403 18:44:11.611407 23355 layer_factory.hpp:77] Creating layer inception_5b/pool_proj
I0403 18:44:11.611428 23355 net.cpp:91] Creating Layer inception_5b/pool_proj
I0403 18:44:11.611444 23355 net.cpp:425] inception_5b/pool_proj <- inception_5b/pool
I0403 18:44:11.611464 23355 net.cpp:399] inception_5b/pool_proj -> inception_5b/pool_proj
I0403 18:44:11.613731 23355 net.cpp:141] Setting up inception_5b/pool_proj
I0403 18:44:11.613760 23355 net.cpp:148] Top shape: 24 128 7 7 (150528)
I0403 18:44:11.613776 23355 net.cpp:156] Memory required for data: 1340445216
I0403 18:44:11.613793 23355 layer_factory.hpp:77] Creating layer inception_5b/relu_pool_proj
I0403 18:44:11.613813 23355 net.cpp:91] Creating Layer inception_5b/relu_pool_proj
I0403 18:44:11.613831 23355 net.cpp:425] inception_5b/relu_pool_proj <- inception_5b/pool_proj
I0403 18:44:11.613848 23355 net.cpp:386] inception_5b/relu_pool_proj -> inception_5b/pool_proj (in-place)
I0403 18:44:11.614143 23355 net.cpp:141] Setting up inception_5b/relu_pool_proj
I0403 18:44:11.614169 23355 net.cpp:148] Top shape: 24 128 7 7 (150528)
I0403 18:44:11.614183 23355 net.cpp:156] Memory required for data: 1341047328
I0403 18:44:11.614197 23355 layer_factory.hpp:77] Creating layer inception_5b/output
I0403 18:44:11.614217 23355 net.cpp:91] Creating Layer inception_5b/output
I0403 18:44:11.614246 23355 net.cpp:425] inception_5b/output <- inception_5b/1x1
I0403 18:44:11.614265 23355 net.cpp:425] inception_5b/output <- inception_5b/3x3
I0403 18:44:11.614282 23355 net.cpp:425] inception_5b/output <- inception_5b/5x5
I0403 18:44:11.614297 23355 net.cpp:425] inception_5b/output <- inception_5b/pool_proj
I0403 18:44:11.614315 23355 net.cpp:399] inception_5b/output -> inception_5b/output
I0403 18:44:11.614368 23355 net.cpp:141] Setting up inception_5b/output
I0403 18:44:11.614392 23355 net.cpp:148] Top shape: 24 1024 7 7 (1204224)
I0403 18:44:11.614404 23355 net.cpp:156] Memory required for data: 1345864224
I0403 18:44:11.614418 23355 layer_factory.hpp:77] Creating layer pool5/7x7_s1
I0403 18:44:11.614434 23355 net.cpp:91] Creating Layer pool5/7x7_s1
I0403 18:44:11.614449 23355 net.cpp:425] pool5/7x7_s1 <- inception_5b/output
I0403 18:44:11.614469 23355 net.cpp:399] pool5/7x7_s1 -> pool5/7x7_s1
I0403 18:44:11.614706 23355 net.cpp:141] Setting up pool5/7x7_s1
I0403 18:44:11.614734 23355 net.cpp:148] Top shape: 24 1024 1 1 (24576)
I0403 18:44:11.614750 23355 net.cpp:156] Memory required for data: 1345962528
I0403 18:44:11.614764 23355 layer_factory.hpp:77] Creating layer pool5/drop_7x7_s1
I0403 18:44:11.614781 23355 net.cpp:91] Creating Layer pool5/drop_7x7_s1
I0403 18:44:11.614797 23355 net.cpp:425] pool5/drop_7x7_s1 <- pool5/7x7_s1
I0403 18:44:11.614815 23355 net.cpp:386] pool5/drop_7x7_s1 -> pool5/7x7_s1 (in-place)
I0403 18:44:11.614867 23355 net.cpp:141] Setting up pool5/drop_7x7_s1
I0403 18:44:11.614892 23355 net.cpp:148] Top shape: 24 1024 1 1 (24576)
I0403 18:44:11.614905 23355 net.cpp:156] Memory required for data: 1346060832
I0403 18:44:11.614919 23355 layer_factory.hpp:77] Creating layer loss3/classifier_plantvillage
I0403 18:44:11.614939 23355 net.cpp:91] Creating Layer loss3/classifier_plantvillage
I0403 18:44:11.614956 23355 net.cpp:425] loss3/classifier_plantvillage <- pool5/7x7_s1
I0403 18:44:11.614975 23355 net.cpp:399] loss3/classifier_plantvillage -> loss3/classifier_plantvillage
I0403 18:44:11.615404 23355 net.cpp:141] Setting up loss3/classifier_plantvillage
I0403 18:44:11.615429 23355 net.cpp:148] Top shape: 24 38 (912)
I0403 18:44:11.615443 23355 net.cpp:156] Memory required for data: 1346064480
I0403 18:44:11.615460 23355 layer_factory.hpp:77] Creating layer loss3/classifier_plantvillage_loss3/classifier_plantvillage_0_split
I0403 18:44:11.615478 23355 net.cpp:91] Creating Layer loss3/classifier_plantvillage_loss3/classifier_plantvillage_0_split
I0403 18:44:11.615494 23355 net.cpp:425] loss3/classifier_plantvillage_loss3/classifier_plantvillage_0_split <- loss3/classifier_plantvillage
I0403 18:44:11.615514 23355 net.cpp:399] loss3/classifier_plantvillage_loss3/classifier_plantvillage_0_split -> loss3/classifier_plantvillage_loss3/classifier_plantvillage_0_split_0
I0403 18:44:11.615535 23355 net.cpp:399] loss3/classifier_plantvillage_loss3/classifier_plantvillage_0_split -> loss3/classifier_plantvillage_loss3/classifier_plantvillage_0_split_1
I0403 18:44:11.615559 23355 net.cpp:399] loss3/classifier_plantvillage_loss3/classifier_plantvillage_0_split -> loss3/classifier_plantvillage_loss3/classifier_plantvillage_0_split_2
I0403 18:44:11.615579 23355 net.cpp:399] loss3/classifier_plantvillage_loss3/classifier_plantvillage_0_split -> loss3/classifier_plantvillage_loss3/classifier_plantvillage_0_split_3
I0403 18:44:11.615679 23355 net.cpp:141] Setting up loss3/classifier_plantvillage_loss3/classifier_plantvillage_0_split
I0403 18:44:11.615701 23355 net.cpp:148] Top shape: 24 38 (912)
I0403 18:44:11.615716 23355 net.cpp:148] Top shape: 24 38 (912)
I0403 18:44:11.615731 23355 net.cpp:148] Top shape: 24 38 (912)
I0403 18:44:11.615746 23355 net.cpp:148] Top shape: 24 38 (912)
I0403 18:44:11.615758 23355 net.cpp:156] Memory required for data: 1346079072
I0403 18:44:11.615772 23355 layer_factory.hpp:77] Creating layer loss1/loss
I0403 18:44:11.615792 23355 net.cpp:91] Creating Layer loss1/loss
I0403 18:44:11.615808 23355 net.cpp:425] loss1/loss <- loss1/classifier_plantvillage_loss1/classifier_plantvillage_0_split_0
I0403 18:44:11.615838 23355 net.cpp:425] loss1/loss <- label_data_1_split_0
…
