…
I0403 18:19:34.592413 22078 net.cpp:313] The NetState phase (1) differed from the phase (0) specified by a rule in layer data
I0403 18:19:34.594940 22078 net.cpp:49] Initializing net from parameters: 
state {
  phase: TEST
}
layer {
  name: "data"
  type: "Data"
  top: "data"
  top: "label"
  include {
    phase: TEST
  }
  transform_param {
    mirror: false
    crop_size: 224
    mean_file: "/home/mohanty/data/final_dataset/lmdb/segmented-40-60/mean.binaryproto"
  }
  data_param {
    source: "/home/mohanty/data/final_dataset/lmdb/segmented-40-60/test_db"
    batch_size: 24
    backend: LMDB
  }
}
layer {
  name: "conv1/7x7_s2"
  type: "Convolution"
  bottom: "data"
  top: "conv1/7x7_s2"
  param {
    lr_mult: 1
    decay_mult: 1
  }
  param {
    lr_mult: 2
    decay_mult: 0
  }
  convolution_param {
    num_output: 64
    pad: 3
    kernel_size: 7
    stride: 2
    weight_filler {
      type: "xavier"
      std: 0.1
    }
    bias_filler {
      type: "constant"
      value: 0.2
    }
  }
}
layer {
  name: "conv1/relu_7x7"
  type: "ReLU"
  bottom: "conv1/7x7_s2"
  top: "conv1/7x7_s2"
}
layer {
  name: "pool1/3x3_s2"
  type: "Pooling"
  bottom: "conv1/7x7_s2"
  top: "pool1/3x3_s2"
  pooling_param {
    pool: MAX
    kernel_size: 3
    stride: 2
  }
}
layer {
  name: "pool1/norm1"
  type: "LRN"
  bottom: "pool1/3x3_s2"
  top: "pool1/norm1"
  lrn_param {
    local_size: 5
    alpha: 0.0001
    beta: 0.75
  }
}
layer {
  name: "conv2/3x3_reduce"
  type: "Convolution"
  bottom: "pool1/norm1"
  top: "conv2/3x3_reduce"
  param {
    lr_mult: 1
    decay_mult: 1
  }
  param {
    lr_mult: 2
    decay_mult: 0
  }
  convolution_param {
    num_output: 64
    kernel_size: 1
    weight_filler {
      type: "xavier"
      std: 0.1
    }
    bias_filler {
      type: "constant"
      value: 0.2
    }
  }
}
layer {
  name: "conv2/relu_3x3_reduce"
  type: "ReLU"
  bottom: "conv2/3x3_reduce"
  top: "conv2/3x3_reduce"
}
layer {
  name: "conv2/3x3"
  type: "Convolution"
  bottom: "conv2/3x3_reduce"
  top: "conv2/3x3"
  param {
    lr_mult: 1
    decay_mult: 1
  }
  param {
    lr_mult: 2
    decay_mult: 0
  }
  convolution_param {
    num_output: 192
    pad: 1
    kernel_size: 3
    weight_filler {
      type: "xavier"
      std: 0.03
    }
    bias_filler {
      type: "constant"
      value: 0.2
    }
  }
}
layer {
  name: "conv2/relu_3x3"
  type: "ReLU"
  bottom: "conv2/3x3"
  top: "conv2/3x3"
}
layer {
  name: "conv2/norm2"
  type: "LRN"
  bottom: "conv2/3x3"
  top: "conv2/norm2"
  lrn_param {
    local_size: 5
    alpha: 0.0001
    beta: 0.75
  }
}
layer {
  name: "pool2/3x3_s2"
  type: "Pooling"
  bottom: "conv2/norm2"
  top: "pool2/3x3_s2"
  pooling_param {
    pool: MAX
    kernel_size: 3
    stride: 2
  }
}
layer {
  name: "inception_3a/1x1"
  type: "Convolution"
  bottom: "pool2/3x3_s2"
  top: "inception_3a/1x1"
  param {
    lr_mult: 1
    decay_mult: 1
  }
  param {
    lr_mult: 2
    decay_mult: 0
  }
  convolution_param {
    num_output: 64
    kernel_size: 1
    weight_filler {
      type: "xavier"
      std: 0.03
    }
    bias_filler {
      type: "constant"
      value: 0.2
    }
  }
}
layer {
  name: "inception_3a/relu_1x1"
  type: "ReLU"
  bottom: "inception_3a/1x1"
  top: "inception_3a/1x1"
}
layer {
  name: "inception_3a/3x3_reduce"
  type: "Convolution"
  bottom: "pool2/3x3_s2"
  top: "inception_3a/3x3_reduce"
  param {
    lr_mult: 1
    decay_mult: 1
  }
  param {
    lr_mult: 2
    decay_mult: 0
  }
  convolution_param {
    num_output: 96
    kernel_size: 1
    weight_filler {
      type: "xavier"
      std: 0.09
    }
    bias_filler {
      type: "constant"
      value: 0.2
    }
  }
}
layer {
  name: "inception_3a/relu_3x3_reduce"
  type: "ReLU"
  bottom: "inception_3a/3x3_reduce"
  top: "inception_3a/3x3_reduce"
}
layer {
  name: "inception_3a/3x3"
  type: "Convolution"
  bottom: "inception_3a/3x3_reduce"
  top: "inception_3a/3x3"
  param {
    lr_mult: 1
    decay_mult: 1
  }
  param {
    lr_mult: 2
    decay_mult: 0
  }
  convolution_param {
    num_output: 128
    pad: 1
    kernel_size: 3
    weight_filler {
      type: "xavier"
      std: 0.03
    }
    bias_filler {
      type: "constant"
      value: 0.2
    }
  }
}
layer {
  name: "inception_3a/relu_3x3"
  type: "ReLU"
  bottom: "inception_3a/3x3"
  top: "inception_3a/3x3"
}
layer {
  name: "inception_3a/5x5_reduce"
  type: "Convolution"
  bottom: "pool2/3x3_s2"
  top: "inception_3a/5x5_reduce"
  param {
    lr_mult: 1
    decay_mult: 1
  }
  param {
    lr_mult: 2
    decay_mult: 0
  }
  convolution_param {
    num_output: 16
    kernel_size: 1
    weight_filler {
      type: "xavier"
      std: 0.2
    }
    bias_filler {
      type: "constant"
      value: 0.2
    }
  }
}
layer {
  name: "inception_3a/relu_5x5_reduce"
  type: "ReLU"
  bottom: "inception_3a/5x5_reduce"
  top: "inception_3a/5x5_reduce"
}
layer {
  name: "inception_3a/5x5"
  type: "Convolution"
  bottom: "inception_3a/5x5_reduce"
  top: "inception_3a/5x5"
  param {
    lr_mult: 1
    decay_mult: 1
  }
  param {
    lr_mult: 2
    decay_mult: 0
  }
  convolution_param {
    num_output: 32
    pad: 2
    kernel_size: 5
    weight_filler {
      type: "xavier"
      std: 0.03
    }
    bias_filler {
      type: "constant"
      value: 0.2
    }
  }
}
layer {
  name: "inception_3a/relu_5x5"
  type: "ReLU"
  bottom: "inception_3a/5x5"
  top: "inception_3a/5x5"
}
layer {
  name: "inception_3a/pool"
  type: "Pooling"
  bottom: "pool2/3x3_s2"
  top: "inception_3a/pool"
  pooling_param {
    pool: MAX
    kernel_size: 3
    stride: 1
    pad: 1
  }
}
layer {
  name: "inception_3a/pool_proj"
  type: "Convolution"
  bottom: "inception_3a/pool"
  top: "inception_3a/pool_proj"
  param {
    lr_mult: 1
    decay_mult: 1
  }
  param {
    lr_mult: 2
    decay_mult: 0
  }
  convolution_param {
    num_output: 32
    kernel_size: 1
    weight_filler {
      type: "xavier"
      std: 0.1
    }
    bias_filler {
      type: "constant"
      value: 0.2
    }
  }
}
layer {
  name: "inception_3a/relu_pool_proj"
  type: "ReLU"
  bottom: "inception_3a/pool_proj"
  top: "inception_3a/pool_proj"
}
layer {
  name: "inception_3a/output"
  type: "Concat"
  bottom: "inception_3a/1x1"
  bottom: "inception_3a/3x3"
  bottom: "inception_3a/5x5"
  bottom: "inception_3a/pool_proj"
  top: "inception_3a/output"
}
layer {
  name: "inception_3b/1x1"
  type: "Convolution"
  bottom: "inception_3a/output"
  top: "inception_3b/1x1"
  param {
    lr_mult: 1
    decay_mult: 1
  }
  param {
    lr_mult: 2
    decay_mult: 0
  }
  convolution_param {
    num_output: 128
    kernel_size: 1
    weight_filler {
      type: "xavier"
      std: 0.03
    }
    bias_filler {
      type: "constant"
      value: 0.2
    }
  }
}
layer {
  name: "inception_3b/relu_1x1"
  type: "ReLU"
  bottom: "inception_3b/1x1"
  top: "inception_3b/1x1"
}
layer {
  name: "inception_3b/3x3_reduce"
  type: "Convolution"
  bottom: "inception_3a/output"
  top: "inception_3b/3x3_reduce"
  param {
    lr_mult: 1
    decay_mult: 1
  }
  param {
    lr_mult: 2
    decay_mult: 0
  }
  convolution_param {
    num_output: 128
    kernel_size: 1
    weight_filler {
      type: "xavier"
      std: 0.09
    }
    bias_filler {
      type: "constant"
      value: 0.2
    }
  }
}
layer {
  name: "inception_3b/relu_3x3_reduce"
  type: "ReLU"
  bottom: "inception_3b/3x3_reduce"
  top: "inception_3b/3x3_reduce"
}
layer {
  name: "inception_3b/3x3"
  type: "Convolution"
  bottom: "inception_3b/3x3_reduce"
  top: "inception_3b/3x3"
  param {
    lr_mult: 1
    decay_mult: 1
  }
  param {
    lr_mult: 2
    decay_mult: 0
  }
  convolution_param {
    num_output: 192
    pad: 1
    kernel_size: 3
    weight_filler {
      type: "xavier"
      std: 0.03
    }
    bias_filler {
      type: "constant"
      value: 0.2
    }
  }
}
layer {
  name: "inception_3b/relu_3x3"
  type: "ReLU"
  bottom: "inception_3b/3x3"
  top: "inception_3b/3x3"
}
layer {
  name: "inception_3b/5x5_reduce"
  type: "Convolution"
  bottom: "inception_3a/output"
  top: "inception_3b/5x5_reduce"
  param {
    lr_mult: 1
    decay_mult: 1
  }
  param {
    lr_mult: 2
    decay_mult: 0
  }
  convolution_param {
    num_output: 32
    kernel_size: 1
    weight_filler {
      type: "xavier"
      std: 0.2
    }
    bias_filler {
      type: "constant"
      value: 0.2
    }
  }
}
layer {
  name: "inception_3b/relu_5x5_reduce"
  type: "ReLU"
  bottom: "inception_3b/5x5_reduce"
  top: "inception_3b/5x5_reduce"
}
layer {
  name: "inception_3b/5x5"
  type: "Convolution"
  bottom: "inception_3b/5x5_reduce"
  top: "inception_3b/5x5"
  param {
    lr_mult: 1
    decay_mult: 1
  }
  param {
    lr_mult: 2
    decay_mult: 0
  }
  convolution_param {
    num_output: 96
    pad: 2
    kernel_size: 5
    weight_filler {
      type: "xavier"
      std: 0.03
    }
    bias_filler {
      type: "constant"
      value: 0.2
    }
  }
}
layer {
  name: "inception_3b/relu_5x5"
  type: "ReLU"
  bottom: "inception_3b/5x5"
  top: "inception_3b/5x5"
}
layer {
  name: "inception_3b/pool"
  type: "Pooling"
  bottom: "inception_3a/output"
  top: "inception_3b/pool"
  pooling_param {
    pool: MAX
    kernel_size: 3
    stride: 1
    pad: 1
  }
}
layer {
  name: "inception_3b/pool_proj"
  type: "Convolution"
  bottom: "inception_3b/pool"
  top: "inception_3b/pool_proj"
  param {
    lr_mult: 1
    decay_mult: 1
  }
  param {
    lr_mult: 2
    decay_mult: 0
  }
  convolution_param {
    num_output: 64
    kernel_size: 1
    weight_filler {
      type: "xavier"
      std: 0.1
    }
    bias_filler {
      type: "constant"
      value: 0.2
    }
  }
}
layer {
  name: "inception_3b/relu_pool_proj"
  type: "ReLU"
  bottom: "inception_3b/pool_proj"
  top: "inception_3b/pool_proj"
}
layer {
  name: "inception_3b/output"
  type: "Concat"
  bottom: "inception_3b/1x1"
  bottom: "inception_3b/3x3"
  bottom: "inception_3b/5x5"
  bottom: "inception_3b/pool_proj"
  top: "inception_3b/output"
}
layer {
  name: "pool3/3x3_s2"
  type: "Pooling"
  bottom: "inception_3b/output"
  top: "pool3/3x3_s2"
  pooling_param {
    pool: MAX
    kernel_size: 3
    stride: 2
  }
}
layer {
  name: "inception_4a/1x1"
  type: "Convolution"
  bottom: "pool3/3x3_s2"
  top: "inception_4a/1x1"
  param {
    lr_mult: 1
    decay_mult: 1
  }
  param {
    lr_mult: 2
    decay_mult: 0
  }
  convolution_param {
    num_output: 192
    kernel_size: 1
    weight_filler {
      type: "xavier"
      std: 0.03
    }
    bias_filler {
      type: "constant"
      value: 0.2
    }
  }
}
layer {
  name: "inception_4a/relu_1x1"
  type: "ReLU"
  bottom: "inception_4a/1x1"
  top: "inception_4a/1x1"
}
layer {
  name: "inception_4a/3x3_reduce"
  type: "Convolution"
  bottom: "pool3/3x3_s2"
  top: "inception_4a/3x3_reduce"
  param {
    lr_mult: 1
    decay_mult: 1
  }
  param {
    lr_mult: 2
    decay_mult: 0
  }
  convolution_param {
    num_output: 96
    kernel_size: 1
    weight_filler {
      type: "xavier"
      std: 0.09
    }
    bias_filler {
      type: "constant"
      value: 0.2
    }
  }
}
layer {
  name: "inception_4a/relu_3x3_reduce"
  type: "ReLU"
  bottom: "inception_4a/3x3_reduce"
  top: "inception_4a/3x3_reduce"
}
layer {
  name: "inception_4a/3x3"
  type: "Convolution"
  bottom: "inception_4a/3x3_reduce"
  top: "inception_4a/3x3"
  param {
    lr_mult: 1
    decay_mult: 1
  }
  param {
    lr_mult: 2
    decay_mult: 0
  }
  convolution_param {
    num_output: 208
    pad: 1
    kernel_size: 3
    weight_filler {
      type: "xavier"
      std: 0.03
    }
    bias_filler {
      type: "constant"
      value: 0.2
    }
  }
}
layer {
  name: "inception_4a/relu_3x3"
  type: "ReLU"
  bottom: "inception_4a/3x3"
  top: "inception_4a/3x3"
}
layer {
  name: "inception_4a/5x5_reduce"
  type: "Convolution"
  bottom: "pool3/3x3_s2"
  top: "inception_4a/5x5_reduce"
  param {
    lr_mult: 1
    decay_mult: 1
  }
  param {
    lr_mult: 2
    decay_mult: 0
  }
  convolution_param {
    num_output: 16
    kernel_size: 1
    weight_filler {
      type: "xavier"
      std: 0.2
    }
    bias_filler {
      type: "constant"
      value: 0.2
    }
  }
}
layer {
  name: "inception_4a/relu_5x5_reduce"
  type: "ReLU"
  bottom: "inception_4a/5x5_reduce"
  top: "inception_4a/5x5_reduce"
}
layer {
  name: "inception_4a/5x5"
  type: "Convolution"
  bottom: "inception_4a/5x5_reduce"
  top: "inception_4a/5x5"
  param {
    lr_mult: 1
    decay_mult: 1
  }
  param {
    lr_mult: 2
    decay_mult: 0
  }
  convolution_param {
    num_output: 48
    pad: 2
    kernel_size: 5
    weight_filler {
      type: "xavier"
      std: 0.03
    }
    bias_filler {
      type: "constant"
      value: 0.2
    }
  }
}
layer {
  name: "inception_4a/relu_5x5"
  type: "ReLU"
  bottom: "inception_4a/5x5"
  top: "inception_4a/5x5"
}
layer {
  name: "inception_4a/pool"
  type: "Pooling"
  bottom: "pool3/3x3_s2"
  top: "inception_4a/pool"
  pooling_param {
    pool: MAX
    kernel_size: 3
    stride: 1
    pad: 1
  }
}
layer {
  name: "inception_4a/pool_proj"
  type: "Convolution"
  bottom: "inception_4a/pool"
  top: "inception_4a/pool_proj"
  param {
    lr_mult: 1
    decay_mult: 1
  }
  param {
    lr_mult: 2
    decay_mult: 0
  }
  convolution_param {
    num_output: 64
    kernel_size: 1
    weight_filler {
      type: "xavier"
      std: 0.1
    }
    bias_filler {
      type: "constant"
      value: 0.2
    }
  }
}
layer {
  name: "inception_4a/relu_pool_proj"
  type: "ReLU"
  bottom: "inception_4a/pool_proj"
  top: "inception_4a/pool_proj"
}
layer {
  name: "inception_4a/output"
  type: "Concat"
  bottom: "inception_4a/1x1"
  bottom: "inception_4a/3x3"
  bottom: "inception_4a/5x5"
  bottom: "inception_4a/pool_proj"
  top: "inception_4a/output"
}
layer {
  name: "loss1/ave_pool"
  type: "Pooling"
  bottom: "inception_4a/output"
  top: "loss1/ave_pool"
  pooling_param {
    pool: AVE
    kernel_size: 5
    stride: 3
  }
}
layer {
  name: "loss1/conv"
  type: "Convolution"
  bottom: "loss1/ave_pool"
  top: "loss1/conv"
  param {
    lr_mult: 1
    decay_mult: 1
  }
  param {
    lr_mult: 2
    decay_mult: 0
  }
  convolution_param {
    num_output: 128
    kernel_size: 1
    weight_filler {
      type: "xavier"
      std: 0.08
    }
    bias_filler {
      type: "constant"
      value: 0.2
    }
  }
}
layer {
  name: "loss1/relu_conv"
  type: "ReLU"
  bottom: "loss1/conv"
  top: "loss1/conv"
}
layer {
  name: "loss1/fc"
  type: "InnerProduct"
  bottom: "loss1/conv"
  top: "loss1/fc"
  param {
    lr_mult: 1
    decay_mult: 1
  }
  param {
    lr_mult: 2
    decay_mult: 0
  }
  inner_product_param {
    num_output: 1024
    weight_filler {
      type: "xavier"
      std: 0.02
    }
    bias_filler {
      type: "constant"
      value: 0.2
    }
  }
}
layer {
  name: "loss1/relu_fc"
  type: "ReLU"
  bottom: "loss1/fc"
  top: "loss1/fc"
}
layer {
  name: "loss1/drop_fc"
  type: "Dropout"
  bottom: "loss1/fc"
  top: "loss1/fc"
  dropout_param {
    dropout_ratio: 0.7
  }
}
layer {
  name: "loss1/classifier_plantvillage"
  type: "InnerProduct"
  bottom: "loss1/fc"
  top: "loss1/classifier_plantvillage"
  param {
    lr_mult: 1
    decay_mult: 1
  }
  param {
    lr_mult: 2
    decay_mult: 0
  }
  inner_product_param {
    num_output: 38
    weight_filler {
      type: "xavier"
      std: 0.0009765625
    }
    bias_filler {
      type: "constant"
      value: 0
    }
  }
}
layer {
  name: "inception_4b/1x1"
  type: "Convolution"
  bottom: "inception_4a/output"
  top: "inception_4b/1x1"
  param {
    lr_mult: 1
    decay_mult: 1
  }
  param {
    lr_mult: 2
    decay_mult: 0
  }
  convolution_param {
    num_output: 160
    kernel_size: 1
    weight_filler {
      type: "xavier"
      std: 0.03
    }
    bias_filler {
      type: "constant"
      value: 0.2
    }
  }
}
layer {
  name: "inception_4b/relu_1x1"
  type: "ReLU"
  bottom: "inception_4b/1x1"
  top: "inception_4b/1x1"
}
layer {
  name: "inception_4b/3x3_reduce"
  type: "Convolution"
  bottom: "inception_4a/output"
  top: "inception_4b/3x3_reduce"
  param {
    lr_mult: 1
    decay_mult: 1
  }
  param {
    lr_mult: 2
    decay_mult: 0
  }
  convolution_param {
    num_output: 112
    kernel_size: 1
    weight_filler {
      type: "xavier"
      std: 0.09
    }
    bias_filler {
      type: "constant"
      value: 0.2
    }
  }
}
layer {
  name: "inception_4b/relu_3x3_reduce"
  type: "ReLU"
  bottom: "inception_4b/3x3_reduce"
  top: "inception_4b/3x3_reduce"
}
layer {
  name: "inception_4b/3x3"
  type: "Convolution"
  bottom: "inception_4b/3x3_reduce"
  top: "inception_4b/3x3"
  param {
    lr_mult: 1
    decay_mult: 1
  }
  param {
    lr_mult: 2
    decay_mult: 0
  }
  convolution_param {
    num_output: 224
    pad: 1
    kernel_size: 3
    weight_filler {
      type: "xavier"
      std: 0.03
    }
    bias_filler {
      type: "constant"
      value: 0.2
    }
  }
}
layer {
  name: "inception_4b/relu_3x3"
  type: "ReLU"
  bottom: "inception_4b/3x3"
  top: "inception_4b/3x3"
}
layer {
  name: "inception_4b/5x5_reduce"
  type: "Convolution"
  bottom: "inception_4a/output"
  top: "inception_4b/5x5_reduce"
  param {
    lr_mult: 1
    decay_mult: 1
  }
  param {
    lr_mult: 2
    decay_mult: 0
  }
  convolution_param {
    num_output: 24
    kernel_size: 1
    weight_filler {
      type: "xavier"
      std: 0.2
    }
    bias_filler {
      type: "constant"
      value: 0.2
    }
  }
}
layer {
  name: "inception_4b/relu_5x5_reduce"
  type: "ReLU"
  bottom: "inception_4b/5x5_reduce"
  top: "inception_4b/5x5_reduce"
}
layer {
  name: "inception_4b/5x5"
  type: "Convolution"
  bottom: "inception_4b/5x5_reduce"
  top: "inception_4b/5x5"
  param {
    lr_mult: 1
    decay_mult: 1
  }
  param {
    lr_mult: 2
    decay_mult: 0
  }
  convolution_param {
    num_output: 64
    pad: 2
    kernel_size: 5
    weight_filler {
      type: "xavier"
      std: 0.03
    }
    bias_filler {
      type: "constant"
      value: 0.2
    }
  }
}
layer {
  name: "inception_4b/relu_5x5"
  type: "ReLU"
  bottom: "inception_4b/5x5"
  top: "inception_4b/5x5"
}
layer {
  name: "inception_4b/pool"
  type: "Pooling"
  bottom: "inception_4a/output"
  top: "inception_4b/pool"
  pooling_param {
    pool: MAX
    kernel_size: 3
    stride: 1
    pad: 1
  }
}
layer {
  name: "inception_4b/pool_proj"
  type: "Convolution"
  bottom: "inception_4b/pool"
  top: "inception_4b/pool_proj"
  param {
    lr_mult: 1
    decay_mult: 1
  }
  param {
    lr_mult: 2
    decay_mult: 0
  }
  convolution_param {
    num_output: 64
    kernel_size: 1
    weight_filler {
      type: "xavier"
      std: 0.1
    }
    bias_filler {
      type: "constant"
      value: 0.2
    }
  }
}
layer {
  name: "inception_4b/relu_pool_proj"
  type: "ReLU"
  bottom: "inception_4b/pool_proj"
  top: "inception_4b/pool_proj"
}
layer {
  name: "inception_4b/output"
  type: "Concat"
  bottom: "inception_4b/1x1"
  bottom: "inception_4b/3x3"
  bottom: "inception_4b/5x5"
  bottom: "inception_4b/pool_proj"
  top: "inception_4b/output"
}
layer {
  name: "inception_4c/1x1"
  type: "Convolution"
  bottom: "inception_4b/output"
  top: "inception_4c/1x1"
  param {
    lr_mult: 1
    decay_mult: 1
  }
  param {
    lr_mult: 2
    decay_mult: 0
  }
  convolution_param {
    num_output: 128
    kernel_size: 1
    weight_filler {
      type: "xavier"
      std: 0.03
    }
    bias_filler {
      type: "constant"
      value: 0.2
    }
  }
}
layer {
  name: "inception_4c/relu_1x1"
  type: "ReLU"
  bottom: "inception_4c/1x1"
  top: "inception_4c/1x1"
}
layer {
  name: "inception_4c/3x3_reduce"
  type: "Convolution"
  bottom: "inception_4b/output"
  top: "inception_4c/3x3_reduce"
  param {
    lr_mult: 1
    decay_mult: 1
  }
  param {
    lr_mult: 2
    decay_mult: 0
  }
  convolution_param {
    num_output: 128
    kernel_size: 1
    weight_filler {
      type: "xavier"
      std: 0.09
    }
    bias_filler {
      type: "constant"
      value: 0.2
    }
  }
}
layer {
  name: "inception_4c/relu_3x3_reduce"
  type: "ReLU"
  bottom: "inception_4c/3x3_reduce"
  top: "inception_4c/3x3_reduce"
}
layer {
  name: "inception_4c/3x3"
  type: "Convolution"
  bottom: "inception_4c/3x3_reduce"
  top: "inception_4c/3x3"
  param {
    lr_mult: 1
    decay_mult: 1
  }
  param {
    lr_mult: 2
    decay_mult: 0
  }
  convolution_param {
    num_output: 256
    pad: 1
    kernel_size: 3
    weight_filler {
      type: "xavier"
      std: 0.03
    }
    bias_filler {
      type: "constant"
      value: 0.2
    }
  }
}
layer {
  name: "inception_4c/relu_3x3"
  type: "ReLU"
  bottom: "inception_4c/3x3"
  top: "inception_4c/3x3"
}
layer {
  name: "inception_4c/5x5_reduce"
  type: "Convolution"
  bottom: "inception_4b/output"
  top: "inception_4c/5x5_reduce"
  param {
    lr_mult: 1
    decay_mult: 1
  }
  param {
    lr_mult: 2
    decay_mult: 0
  }
  convolution_param {
    num_output: 24
    kernel_size: 1
    weight_filler {
      type: "xavier"
      std: 0.2
    }
    bias_filler {
      type: "constant"
      value: 0.2
    }
  }
}
layer {
  name: "inception_4c/relu_5x5_reduce"
  type: "ReLU"
  bottom: "inception_4c/5x5_reduce"
  top: "inception_4c/5x5_reduce"
}
layer {
  name: "inception_4c/5x5"
  type: "Convolution"
  bottom: "inception_4c/5x5_reduce"
  top: "inception_4c/5x5"
  param {
    lr_mult: 1
    decay_mult: 1
  }
  param {
    lr_mult: 2
    decay_mult: 0
  }
  convolution_param {
    num_output: 64
    pad: 2
    kernel_size: 5
    weight_filler {
      type: "xavier"
      std: 0.03
    }
    bias_filler {
      type: "constant"
      value: 0.2
    }
  }
}
layer {
  name: "inception_4c/relu_5x5"
  type: "ReLU"
  bottom: "inception_4c/5x5"
  top: "inception_4c/5x5"
}
layer {
  name: "inception_4c/pool"
  type: "Pooling"
  bottom: "inception_4b/output"
  top: "inception_4c/pool"
  pooling_param {
    pool: MAX
    kernel_size: 3
    stride: 1
    pad: 1
  }
}
layer {
  name: "inception_4c/pool_proj"
  type: "Convolution"
  bottom: "inception_4c/pool"
  top: "inception_4c/pool_proj"
  param {
    lr_mult: 1
    decay_mult: 1
  }
  param {
    lr_mult: 2
    decay_mult: 0
  }
  convolution_param {
    num_output: 64
    kernel_size: 1
    weight_filler {
      type: "xavier"
      std: 0.1
    }
    bias_filler {
      type: "constant"
      value: 0.2
    }
  }
}
layer {
  name: "inception_4c/relu_pool_proj"
  type: "ReLU"
  bottom: "inception_4c/pool_proj"
  top: "inception_4c/pool_proj"
}
layer {
  name: "inception_4c/output"
  type: "Concat"
  bottom: "inception_4c/1x1"
  bottom: "inception_4c/3x3"
  bottom: "inception_4c/5x5"
  bottom: "inception_4c/pool_proj"
  top: "inception_4c/output"
}
layer {
  name: "inception_4d/1x1"
  type: "Convolution"
  bottom: "inception_4c/output"
  top: "inception_4d/1x1"
  param {
    lr_mult: 1
    decay_mult: 1
  }
  param {
    lr_mult: 2
    decay_mult: 0
  }
  convolution_param {
    num_output: 112
    kernel_size: 1
    weight_filler {
      type: "xavier"
      std: 0.03
    }
    bias_filler {
      type: "constant"
      value: 0.2
    }
  }
}
layer {
  name: "inception_4d/relu_1x1"
  type: "ReLU"
  bottom: "inception_4d/1x1"
  top: "inception_4d/1x1"
}
layer {
  name: "inception_4d/3x3_reduce"
  type: "Convolution"
  bottom: "inception_4c/output"
  top: "inception_4d/3x3_reduce"
  param {
    lr_mult: 1
    decay_mult: 1
  }
  param {
    lr_mult: 2
    decay_mult: 0
  }
  convolution_param {
    num_output: 144
    kernel_size: 1
    weight_filler {
      type: "xavier"
      std: 0.09
    }
    bias_filler {
      type: "constant"
      value: 0.2
    }
  }
}
layer {
  name: "inception_4d/relu_3x3_reduce"
  type: "ReLU"
  bottom: "inception_4d/3x3_reduce"
  top: "inception_4d/3x3_reduce"
}
layer {
  name: "inception_4d/3x3"
  type: "Convolution"
  bottom: "inception_4d/3x3_reduce"
  top: "inception_4d/3x3"
  param {
    lr_mult: 1
    decay_mult: 1
  }
  param {
    lr_mult: 2
    decay_mult: 0
  }
  convolution_param {
    num_output: 288
    pad: 1
    kernel_size: 3
    weight_filler {
      type: "xavier"
      std: 0.03
    }
    bias_filler {
      type: "constant"
      value: 0.2
    }
  }
}
layer {
  name: "inception_4d/relu_3x3"
  type: "ReLU"
  bottom: "inception_4d/3x3"
  top: "inception_4d/3x3"
}
layer {
  name: "inception_4d/5x5_reduce"
  type: "Convolution"
  bottom: "inception_4c/output"
  top: "inception_4d/5x5_reduce"
  param {
    lr_mult: 1
    decay_mult: 1
  }
  param {
    lr_mult: 2
    decay_mult: 0
  }
  convolution_param {
    num_output: 32
    kernel_size: 1
    weight_filler {
      type: "xavier"
      std: 0.2
    }
    bias_filler {
      type: "constant"
      value: 0.2
    }
  }
}
layer {
  name: "inception_4d/relu_5x5_reduce"
  type: "ReLU"
  bottom: "inception_4d/5x5_reduce"
  top: "inception_4d/5x5_reduce"
}
layer {
  name: "inception_4d/5x5"
  type: "Convolution"
  bottom: "inception_4d/5x5_reduce"
  top: "inception_4d/5x5"
  param {
    lr_mult: 1
    decay_mult: 1
  }
  param {
    lr_mult: 2
    decay_mult: 0
  }
  convolution_param {
    num_output: 64
    pad: 2
    kernel_size: 5
    weight_filler {
      type: "xavier"
      std: 0.03
    }
    bias_filler {
      type: "constant"
      value: 0.2
    }
  }
}
layer {
  name: "inception_4d/relu_5x5"
  type: "ReLU"
  bottom: "inception_4d/5x5"
  top: "inception_4d/5x5"
}
layer {
  name: "inception_4d/pool"
  type: "Pooling"
  bottom: "inception_4c/output"
  top: "inception_4d/pool"
  pooling_param {
    pool: MAX
    kernel_size: 3
    stride: 1
    pad: 1
  }
}
layer {
  name: "inception_4d/pool_proj"
  type: "Convolution"
  bottom: "inception_4d/pool"
  top: "inception_4d/pool_proj"
  param {
    lr_mult: 1
    decay_mult: 1
  }
  param {
    lr_mult: 2
    decay_mult: 0
  }
  convolution_param {
    num_output: 64
    kernel_size: 1
    weight_filler {
      type: "xavier"
      std: 0.1
    }
    bias_filler {
      type: "constant"
      value: 0.2
    }
  }
}
layer {
  name: "inception_4d/relu_pool_proj"
  type: "ReLU"
  bottom: "inception_4d/pool_proj"
  top: "inception_4d/pool_proj"
}
layer {
  name: "inception_4d/output"
  type: "Concat"
  bottom: "inception_4d/1x1"
  bottom: "inception_4d/3x3"
  bottom: "inception_4d/5x5"
  bottom: "inception_4d/pool_proj"
  top: "inception_4d/output"
}
layer {
  name: "loss2/ave_pool"
  type: "Pooling"
  bottom: "inception_4d/output"
  top: "loss2/ave_pool"
  pooling_param {
    pool: AVE
    kernel_size: 5
    stride: 3
  }
}
layer {
  name: "loss2/conv"
  type: "Convolution"
  bottom: "loss2/ave_pool"
  top: "loss2/conv"
  param {
    lr_mult: 1
    decay_mult: 1
  }
  param {
    lr_mult: 2
    decay_mult: 0
  }
  convolution_param {
    num_output: 128
    kernel_size: 1
    weight_filler {
      type: "xavier"
      std: 0.08
    }
    bias_filler {
      type: "constant"
      value: 0.2
    }
  }
}
layer {
  name: "loss2/relu_conv"
  type: "ReLU"
  bottom: "loss2/conv"
  top: "loss2/conv"
}
layer {
  name: "loss2/fc"
  type: "InnerProduct"
  bottom: "loss2/conv"
  top: "loss2/fc"
  param {
    lr_mult: 1
    decay_mult: 1
  }
  param {
    lr_mult: 2
    decay_mult: 0
  }
  inner_product_param {
    num_output: 1024
    weight_filler {
      type: "xavier"
      std: 0.02
    }
    bias_filler {
      type: "constant"
      value: 0.2
    }
  }
}
layer {
  name: "loss2/relu_fc"
  type: "ReLU"
  bottom: "loss2/fc"
  top: "loss2/fc"
}
layer {
  name: "loss2/drop_fc"
  type: "Dropout"
  bottom: "loss2/fc"
  top: "loss2/fc"
  dropout_param {
    dropout_ratio: 0.7
  }
}
layer {
  name: "loss2/classifier_plantvillage"
  type: "InnerProduct"
  bottom: "loss2/fc"
  top: "loss2/classifier_plantvillage"
  param {
    lr_mult: 1
    decay_mult: 1
  }
  param {
    lr_mult: 2
    decay_mult: 0
  }
  inner_product_param {
    num_output: 38
    weight_filler {
      type: "xavier"
      std: 0.0009765625
    }
    bias_filler {
      type: "constant"
      value: 0
    }
  }
}
layer {
  name: "inception_4e/1x1"
  type: "Convolution"
  bottom: "inception_4d/output"
  top: "inception_4e/1x1"
  param {
    lr_mult: 1
    decay_mult: 1
  }
  param {
    lr_mult: 2
    decay_mult: 0
  }
  convolution_param {
    num_output: 256
    kernel_size: 1
    weight_filler {
      type: "xavier"
      std: 0.03
    }
    bias_filler {
      type: "constant"
      value: 0.2
    }
  }
}
layer {
  name: "inception_4e/relu_1x1"
  type: "ReLU"
  bottom: "inception_4e/1x1"
  top: "inception_4e/1x1"
}
layer {
  name: "inception_4e/3x3_reduce"
  type: "Convolution"
  bottom: "inception_4d/output"
  top: "inception_4e/3x3_reduce"
  param {
    lr_mult: 1
    decay_mult: 1
  }
  param {
    lr_mult: 2
    decay_mult: 0
  }
  convolution_param {
    num_output: 160
    kernel_size: 1
    weight_filler {
      type: "xavier"
      std: 0.09
    }
    bias_filler {
      type: "constant"
      value: 0.2
    }
  }
}
layer {
  name: "inception_4e/relu_3x3_reduce"
  type: "ReLU"
  bottom: "inception_4e/3x3_reduce"
  top: "inception_4e/3x3_reduce"
}
layer {
  name: "inception_4e/3x3"
  type: "Convolution"
  bottom: "inception_4e/3x3_reduce"
  top: "inception_4e/3x3"
  param {
    lr_mult: 1
    decay_mult: 1
  }
  param {
    lr_mult: 2
    decay_mult: 0
  }
  convolution_param {
    num_output: 320
    pad: 1
    kernel_size: 3
    weight_filler {
      type: "xavier"
      std: 0.03
    }
    bias_filler {
      type: "constant"
      value: 0.2
    }
  }
}
layer {
  name: "inception_4e/relu_3x3"
  type: "ReLU"
  bottom: "inception_4e/3x3"
  top: "inception_4e/3x3"
}
layer {
  name: "inception_4e/5x5_reduce"
  type: "Convolution"
  bottom: "inception_4d/output"
  top: "inception_4e/5x5_reduce"
  param {
    lr_mult: 1
    decay_mult: 1
  }
  param {
    lr_mult: 2
    decay_mult: 0
  }
  convolution_param {
    num_output: 32
    kernel_size: 1
    weight_filler {
      type: "xavier"
      std: 0.2
    }
    bias_filler {
      type: "constant"
      value: 0.2
    }
  }
}
layer {
  name: "inception_4e/relu_5x5_reduce"
  type: "ReLU"
  bottom: "inception_4e/5x5_reduce"
  top: "inception_4e/5x5_reduce"
}
layer {
  name: "inception_4e/5x5"
  type: "Convolution"
  bottom: "inception_4e/5x5_reduce"
  top: "inception_4e/
I0403 18:19:34.596638 22078 layer_factory.hpp:77] Creating layer data
I0403 18:19:34.597368 22078 net.cpp:91] Creating Layer data
I0403 18:19:34.597404 22078 net.cpp:399] data -> data
I0403 18:19:34.597465 22078 net.cpp:399] data -> label
I0403 18:19:34.597514 22078 data_transformer.cpp:25] Loading mean file from: /home/mohanty/data/final_dataset/lmdb/segmented-40-60/mean.binaryproto
I0403 18:19:34.598865 22082 db_lmdb.cpp:38] Opened lmdb /home/mohanty/data/final_dataset/lmdb/segmented-40-60/test_db
I0403 18:19:34.613229 22078 data_layer.cpp:41] output data size: 24,3,224,224
I0403 18:19:34.645663 22078 net.cpp:141] Setting up data
I0403 18:19:34.645753 22078 net.cpp:148] Top shape: 24 3 224 224 (3612672)
I0403 18:19:34.645783 22078 net.cpp:148] Top shape: 24 (24)
I0403 18:19:34.645802 22078 net.cpp:156] Memory required for data: 14450784
I0403 18:19:34.645836 22078 layer_factory.hpp:77] Creating layer label_data_1_split
I0403 18:19:34.645869 22078 net.cpp:91] Creating Layer label_data_1_split
I0403 18:19:34.645890 22078 net.cpp:425] label_data_1_split <- label
I0403 18:19:34.645931 22078 net.cpp:399] label_data_1_split -> label_data_1_split_0
I0403 18:19:34.645964 22078 net.cpp:399] label_data_1_split -> label_data_1_split_1
I0403 18:19:34.645990 22078 net.cpp:399] label_data_1_split -> label_data_1_split_2
I0403 18:19:34.646016 22078 net.cpp:399] label_data_1_split -> label_data_1_split_3
I0403 18:19:34.646039 22078 net.cpp:399] label_data_1_split -> label_data_1_split_4
I0403 18:19:34.646064 22078 net.cpp:399] label_data_1_split -> label_data_1_split_5
I0403 18:19:34.646085 22078 net.cpp:399] label_data_1_split -> label_data_1_split_6
I0403 18:19:34.646111 22078 net.cpp:399] label_data_1_split -> label_data_1_split_7
I0403 18:19:34.646134 22078 net.cpp:399] label_data_1_split -> label_data_1_split_8
I0403 18:19:34.646158 22078 net.cpp:399] label_data_1_split -> label_data_1_split_9
I0403 18:19:34.646299 22078 net.cpp:141] Setting up label_data_1_split
I0403 18:19:34.646329 22078 net.cpp:148] Top shape: 24 (24)
I0403 18:19:34.646352 22078 net.cpp:148] Top shape: 24 (24)
I0403 18:19:34.646371 22078 net.cpp:148] Top shape: 24 (24)
I0403 18:19:34.646391 22078 net.cpp:148] Top shape: 24 (24)
I0403 18:19:34.646411 22078 net.cpp:148] Top shape: 24 (24)
I0403 18:19:34.646430 22078 net.cpp:148] Top shape: 24 (24)
I0403 18:19:34.646450 22078 net.cpp:148] Top shape: 24 (24)
I0403 18:19:34.646468 22078 net.cpp:148] Top shape: 24 (24)
I0403 18:19:34.646489 22078 net.cpp:148] Top shape: 24 (24)
I0403 18:19:34.646517 22078 net.cpp:148] Top shape: 24 (24)
I0403 18:19:34.646577 22078 net.cpp:156] Memory required for data: 14451744
I0403 18:19:34.646598 22078 layer_factory.hpp:77] Creating layer conv1/7x7_s2
I0403 18:19:34.646636 22078 net.cpp:91] Creating Layer conv1/7x7_s2
I0403 18:19:34.646659 22078 net.cpp:425] conv1/7x7_s2 <- data
I0403 18:19:34.646684 22078 net.cpp:399] conv1/7x7_s2 -> conv1/7x7_s2
I0403 18:19:34.814929 22078 net.cpp:141] Setting up conv1/7x7_s2
I0403 18:19:34.815019 22078 net.cpp:148] Top shape: 24 64 112 112 (19267584)
I0403 18:19:34.815039 22078 net.cpp:156] Memory required for data: 91522080
I0403 18:19:34.815076 22078 layer_factory.hpp:77] Creating layer conv1/relu_7x7
I0403 18:19:34.815109 22078 net.cpp:91] Creating Layer conv1/relu_7x7
I0403 18:19:34.815130 22078 net.cpp:425] conv1/relu_7x7 <- conv1/7x7_s2
I0403 18:19:34.815153 22078 net.cpp:386] conv1/relu_7x7 -> conv1/7x7_s2 (in-place)
I0403 18:19:34.815469 22078 net.cpp:141] Setting up conv1/relu_7x7
I0403 18:19:34.815503 22078 net.cpp:148] Top shape: 24 64 112 112 (19267584)
I0403 18:19:34.815528 22078 net.cpp:156] Memory required for data: 168592416
I0403 18:19:34.815549 22078 layer_factory.hpp:77] Creating layer pool1/3x3_s2
I0403 18:19:34.815578 22078 net.cpp:91] Creating Layer pool1/3x3_s2
I0403 18:19:34.815599 22078 net.cpp:425] pool1/3x3_s2 <- conv1/7x7_s2
I0403 18:19:34.815621 22078 net.cpp:399] pool1/3x3_s2 -> pool1/3x3_s2
I0403 18:19:34.815711 22078 net.cpp:141] Setting up pool1/3x3_s2
I0403 18:19:34.815740 22078 net.cpp:148] Top shape: 24 64 56 56 (4816896)
I0403 18:19:34.815758 22078 net.cpp:156] Memory required for data: 187860000
I0403 18:19:34.815776 22078 layer_factory.hpp:77] Creating layer pool1/norm1
I0403 18:19:34.815805 22078 net.cpp:91] Creating Layer pool1/norm1
I0403 18:19:34.815824 22078 net.cpp:425] pool1/norm1 <- pool1/3x3_s2
I0403 18:19:34.815846 22078 net.cpp:399] pool1/norm1 -> pool1/norm1
I0403 18:19:34.816184 22078 net.cpp:141] Setting up pool1/norm1
I0403 18:19:34.816217 22078 net.cpp:148] Top shape: 24 64 56 56 (4816896)
I0403 18:19:34.816236 22078 net.cpp:156] Memory required for data: 207127584
I0403 18:19:34.816254 22078 layer_factory.hpp:77] Creating layer conv2/3x3_reduce
I0403 18:19:34.816284 22078 net.cpp:91] Creating Layer conv2/3x3_reduce
I0403 18:19:34.816305 22078 net.cpp:425] conv2/3x3_reduce <- pool1/norm1
I0403 18:19:34.816329 22078 net.cpp:399] conv2/3x3_reduce -> conv2/3x3_reduce
I0403 18:19:34.817999 22078 net.cpp:141] Setting up conv2/3x3_reduce
I0403 18:19:34.818035 22078 net.cpp:148] Top shape: 24 64 56 56 (4816896)
I0403 18:19:34.818055 22078 net.cpp:156] Memory required for data: 226395168
I0403 18:19:34.818081 22078 layer_factory.hpp:77] Creating layer conv2/relu_3x3_reduce
I0403 18:19:34.818104 22078 net.cpp:91] Creating Layer conv2/relu_3x3_reduce
I0403 18:19:34.818123 22078 net.cpp:425] conv2/relu_3x3_reduce <- conv2/3x3_reduce
I0403 18:19:34.818148 22078 net.cpp:386] conv2/relu_3x3_reduce -> conv2/3x3_reduce (in-place)
I0403 18:19:34.818470 22078 net.cpp:141] Setting up conv2/relu_3x3_reduce
I0403 18:19:34.818502 22078 net.cpp:148] Top shape: 24 64 56 56 (4816896)
I0403 18:19:34.818528 22078 net.cpp:156] Memory required for data: 245662752
I0403 18:19:34.818547 22078 layer_factory.hpp:77] Creating layer conv2/3x3
I0403 18:19:34.818578 22078 net.cpp:91] Creating Layer conv2/3x3
I0403 18:19:34.818598 22078 net.cpp:425] conv2/3x3 <- conv2/3x3_reduce
I0403 18:19:34.818624 22078 net.cpp:399] conv2/3x3 -> conv2/3x3
I0403 18:19:34.821388 22078 net.cpp:141] Setting up conv2/3x3
I0403 18:19:34.821425 22078 net.cpp:148] Top shape: 24 192 56 56 (14450688)
I0403 18:19:34.821445 22078 net.cpp:156] Memory required for data: 303465504
I0403 18:19:34.821470 22078 layer_factory.hpp:77] Creating layer conv2/relu_3x3
I0403 18:19:34.821493 22078 net.cpp:91] Creating Layer conv2/relu_3x3
I0403 18:19:34.821521 22078 net.cpp:425] conv2/relu_3x3 <- conv2/3x3
I0403 18:19:34.821545 22078 net.cpp:386] conv2/relu_3x3 -> conv2/3x3 (in-place)
I0403 18:19:34.821760 22078 net.cpp:141] Setting up conv2/relu_3x3
I0403 18:19:34.821792 22078 net.cpp:148] Top shape: 24 192 56 56 (14450688)
I0403 18:19:34.821867 22078 net.cpp:156] Memory required for data: 361268256
I0403 18:19:34.821887 22078 layer_factory.hpp:77] Creating layer conv2/norm2
I0403 18:19:34.821913 22078 net.cpp:91] Creating Layer conv2/norm2
I0403 18:19:34.821933 22078 net.cpp:425] conv2/norm2 <- conv2/3x3
I0403 18:19:34.821954 22078 net.cpp:399] conv2/norm2 -> conv2/norm2
I0403 18:19:34.822316 22078 net.cpp:141] Setting up conv2/norm2
I0403 18:19:34.822360 22078 net.cpp:148] Top shape: 24 192 56 56 (14450688)
I0403 18:19:34.822381 22078 net.cpp:156] Memory required for data: 419071008
I0403 18:19:34.822399 22078 layer_factory.hpp:77] Creating layer pool2/3x3_s2
I0403 18:19:34.822422 22078 net.cpp:91] Creating Layer pool2/3x3_s2
I0403 18:19:34.822440 22078 net.cpp:425] pool2/3x3_s2 <- conv2/norm2
I0403 18:19:34.822463 22078 net.cpp:399] pool2/3x3_s2 -> pool2/3x3_s2
I0403 18:19:34.822541 22078 net.cpp:141] Setting up pool2/3x3_s2
I0403 18:19:34.822571 22078 net.cpp:148] Top shape: 24 192 28 28 (3612672)
I0403 18:19:34.822588 22078 net.cpp:156] Memory required for data: 433521696
I0403 18:19:34.822605 22078 layer_factory.hpp:77] Creating layer pool2/3x3_s2_pool2/3x3_s2_0_split
I0403 18:19:34.822630 22078 net.cpp:91] Creating Layer pool2/3x3_s2_pool2/3x3_s2_0_split
I0403 18:19:34.822649 22078 net.cpp:425] pool2/3x3_s2_pool2/3x3_s2_0_split <- pool2/3x3_s2
I0403 18:19:34.822670 22078 net.cpp:399] pool2/3x3_s2_pool2/3x3_s2_0_split -> pool2/3x3_s2_pool2/3x3_s2_0_split_0
I0403 18:19:34.822695 22078 net.cpp:399] pool2/3x3_s2_pool2/3x3_s2_0_split -> pool2/3x3_s2_pool2/3x3_s2_0_split_1
I0403 18:19:34.822717 22078 net.cpp:399] pool2/3x3_s2_pool2/3x3_s2_0_split -> pool2/3x3_s2_pool2/3x3_s2_0_split_2
I0403 18:19:34.822744 22078 net.cpp:399] pool2/3x3_s2_pool2/3x3_s2_0_split -> pool2/3x3_s2_pool2/3x3_s2_0_split_3
I0403 18:19:34.822834 22078 net.cpp:141] Setting up pool2/3x3_s2_pool2/3x3_s2_0_split
I0403 18:19:34.822863 22078 net.cpp:148] Top shape: 24 192 28 28 (3612672)
I0403 18:19:34.822883 22078 net.cpp:148] Top shape: 24 192 28 28 (3612672)
I0403 18:19:34.822902 22078 net.cpp:148] Top shape: 24 192 28 28 (3612672)
I0403 18:19:34.822921 22078 net.cpp:148] Top shape: 24 192 28 28 (3612672)
I0403 18:19:34.822938 22078 net.cpp:156] Memory required for data: 491324448
I0403 18:19:34.822957 22078 layer_factory.hpp:77] Creating layer inception_3a/1x1
I0403 18:19:34.822985 22078 net.cpp:91] Creating Layer inception_3a/1x1
I0403 18:19:34.823007 22078 net.cpp:425] inception_3a/1x1 <- pool2/3x3_s2_pool2/3x3_s2_0_split_0
I0403 18:19:34.823032 22078 net.cpp:399] inception_3a/1x1 -> inception_3a/1x1
I0403 18:19:34.824880 22078 net.cpp:141] Setting up inception_3a/1x1
I0403 18:19:34.824919 22078 net.cpp:148] Top shape: 24 64 28 28 (1204224)
I0403 18:19:34.824940 22078 net.cpp:156] Memory required for data: 496141344
I0403 18:19:34.824965 22078 layer_factory.hpp:77] Creating layer inception_3a/relu_1x1
I0403 18:19:34.824987 22078 net.cpp:91] Creating Layer inception_3a/relu_1x1
I0403 18:19:34.825006 22078 net.cpp:425] inception_3a/relu_1x1 <- inception_3a/1x1
I0403 18:19:34.825031 22078 net.cpp:386] inception_3a/relu_1x1 -> inception_3a/1x1 (in-place)
I0403 18:19:34.825242 22078 net.cpp:141] Setting up inception_3a/relu_1x1
I0403 18:19:34.825273 22078 net.cpp:148] Top shape: 24 64 28 28 (1204224)
I0403 18:19:34.825292 22078 net.cpp:156] Memory required for data: 500958240
I0403 18:19:34.825310 22078 layer_factory.hpp:77] Creating layer inception_3a/3x3_reduce
I0403 18:19:34.825336 22078 net.cpp:91] Creating Layer inception_3a/3x3_reduce
I0403 18:19:34.825356 22078 net.cpp:425] inception_3a/3x3_reduce <- pool2/3x3_s2_pool2/3x3_s2_0_split_1
I0403 18:19:34.825381 22078 net.cpp:399] inception_3a/3x3_reduce -> inception_3a/3x3_reduce
I0403 18:19:34.827415 22078 net.cpp:141] Setting up inception_3a/3x3_reduce
I0403 18:19:34.827450 22078 net.cpp:148] Top shape: 24 96 28 28 (1806336)
I0403 18:19:34.827469 22078 net.cpp:156] Memory required for data: 508183584
I0403 18:19:34.827496 22078 layer_factory.hpp:77] Creating layer inception_3a/relu_3x3_reduce
I0403 18:19:34.827550 22078 net.cpp:91] Creating Layer inception_3a/relu_3x3_reduce
I0403 18:19:34.827572 22078 net.cpp:425] inception_3a/relu_3x3_reduce <- inception_3a/3x3_reduce
I0403 18:19:34.827594 22078 net.cpp:386] inception_3a/relu_3x3_reduce -> inception_3a/3x3_reduce (in-place)
I0403 18:19:34.827812 22078 net.cpp:141] Setting up inception_3a/relu_3x3_reduce
I0403 18:19:34.827847 22078 net.cpp:148] Top shape: 24 96 28 28 (1806336)
I0403 18:19:34.827865 22078 net.cpp:156] Memory required for data: 515408928
I0403 18:19:34.827884 22078 layer_factory.hpp:77] Creating layer inception_3a/3x3
I0403 18:19:34.827913 22078 net.cpp:91] Creating Layer inception_3a/3x3
I0403 18:19:34.827932 22078 net.cpp:425] inception_3a/3x3 <- inception_3a/3x3_reduce
I0403 18:19:34.827955 22078 net.cpp:399] inception_3a/3x3 -> inception_3a/3x3
I0403 18:19:34.829972 22078 net.cpp:141] Setting up inception_3a/3x3
I0403 18:19:34.830008 22078 net.cpp:148] Top shape: 24 128 28 28 (2408448)
I0403 18:19:34.830029 22078 net.cpp:156] Memory required for data: 525042720
I0403 18:19:34.830051 22078 layer_factory.hpp:77] Creating layer inception_3a/relu_3x3
I0403 18:19:34.830073 22078 net.cpp:91] Creating Layer inception_3a/relu_3x3
I0403 18:19:34.830096 22078 net.cpp:425] inception_3a/relu_3x3 <- inception_3a/3x3
I0403 18:19:34.830117 22078 net.cpp:386] inception_3a/relu_3x3 -> inception_3a/3x3 (in-place)
I0403 18:19:34.830452 22078 net.cpp:141] Setting up inception_3a/relu_3x3
I0403 18:19:34.830484 22078 net.cpp:148] Top shape: 24 128 28 28 (2408448)
I0403 18:19:34.830509 22078 net.cpp:156] Memory required for data: 534676512
I0403 18:19:34.830530 22078 layer_factory.hpp:77] Creating layer inception_3a/5x5_reduce
I0403 18:19:34.830559 22078 net.cpp:91] Creating Layer inception_3a/5x5_reduce
I0403 18:19:34.830581 22078 net.cpp:425] inception_3a/5x5_reduce <- pool2/3x3_s2_pool2/3x3_s2_0_split_2
I0403 18:19:34.830607 22078 net.cpp:399] inception_3a/5x5_reduce -> inception_3a/5x5_reduce
I0403 18:19:34.831770 22078 net.cpp:141] Setting up inception_3a/5x5_reduce
I0403 18:19:34.831805 22078 net.cpp:148] Top shape: 24 16 28 28 (301056)
I0403 18:19:34.831823 22078 net.cpp:156] Memory required for data: 535880736
I0403 18:19:34.831845 22078 layer_factory.hpp:77] Creating layer inception_3a/relu_5x5_reduce
I0403 18:19:34.831871 22078 net.cpp:91] Creating Layer inception_3a/relu_5x5_reduce
I0403 18:19:34.831892 22078 net.cpp:425] inception_3a/relu_5x5_reduce <- inception_3a/5x5_reduce
I0403 18:19:34.831914 22078 net.cpp:386] inception_3a/relu_5x5_reduce -> inception_3a/5x5_reduce (in-place)
I0403 18:19:34.832259 22078 net.cpp:141] Setting up inception_3a/relu_5x5_reduce
I0403 18:19:34.832293 22078 net.cpp:148] Top shape: 24 16 28 28 (301056)
I0403 18:19:34.832311 22078 net.cpp:156] Memory required for data: 537084960
I0403 18:19:34.832329 22078 layer_factory.hpp:77] Creating layer inception_3a/5x5
I0403 18:19:34.832357 22078 net.cpp:91] Creating Layer inception_3a/5x5
I0403 18:19:34.832379 22078 net.cpp:425] inception_3a/5x5 <- inception_3a/5x5_reduce
I0403 18:19:34.832404 22078 net.cpp:399] inception_3a/5x5 -> inception_3a/5x5
I0403 18:19:34.833639 22078 net.cpp:141] Setting up inception_3a/5x5
I0403 18:19:34.833678 22078 net.cpp:148] Top shape: 24 32 28 28 (602112)
I0403 18:19:34.833698 22078 net.cpp:156] Memory required for data: 539493408
I0403 18:19:34.833720 22078 layer_factory.hpp:77] Creating layer inception_3a/relu_5x5
I0403 18:19:34.833744 22078 net.cpp:91] Creating Layer inception_3a/relu_5x5
I0403 18:19:34.833762 22078 net.cpp:425] inception_3a/relu_5x5 <- inception_3a/5x5
I0403 18:19:34.833787 22078 net.cpp:386] inception_3a/relu_5x5 -> inception_3a/5x5 (in-place)
I0403 18:19:34.834004 22078 net.cpp:141] Setting up inception_3a/relu_5x5
I0403 18:19:34.834035 22078 net.cpp:148] Top shape: 24 32 28 28 (602112)
I0403 18:19:34.834053 22078 net.cpp:156] Memory required for data: 541901856
I0403 18:19:34.834071 22078 layer_factory.hpp:77] Creating layer inception_3a/pool
I0403 18:19:34.834092 22078 net.cpp:91] Creating Layer inception_3a/pool
I0403 18:19:34.834130 22078 net.cpp:425] inception_3a/pool <- pool2/3x3_s2_pool2/3x3_s2_0_split_3
I0403 18:19:34.834156 22078 net.cpp:399] inception_3a/pool -> inception_3a/pool
I0403 18:19:34.834228 22078 net.cpp:141] Setting up inception_3a/pool
I0403 18:19:34.834257 22078 net.cpp:148] Top shape: 24 192 28 28 (3612672)
I0403 18:19:34.834275 22078 net.cpp:156] Memory required for data: 556352544
I0403 18:19:34.834295 22078 layer_factory.hpp:77] Creating layer inception_3a/pool_proj
I0403 18:19:34.834322 22078 net.cpp:91] Creating Layer inception_3a/pool_proj
I0403 18:19:34.834343 22078 net.cpp:425] inception_3a/pool_proj <- inception_3a/pool
I0403 18:19:34.834372 22078 net.cpp:399] inception_3a/pool_proj -> inception_3a/pool_proj
I0403 18:19:34.835546 22078 net.cpp:141] Setting up inception_3a/pool_proj
I0403 18:19:34.835582 22078 net.cpp:148] Top shape: 24 32 28 28 (602112)
I0403 18:19:34.835600 22078 net.cpp:156] Memory required for data: 558760992
I0403 18:19:34.835629 22078 layer_factory.hpp:77] Creating layer inception_3a/relu_pool_proj
I0403 18:19:34.835656 22078 net.cpp:91] Creating Layer inception_3a/relu_pool_proj
I0403 18:19:34.835676 22078 net.cpp:425] inception_3a/relu_pool_proj <- inception_3a/pool_proj
I0403 18:19:34.835697 22078 net.cpp:386] inception_3a/relu_pool_proj -> inception_3a/pool_proj (in-place)
I0403 18:19:34.836025 22078 net.cpp:141] Setting up inception_3a/relu_pool_proj
I0403 18:19:34.836060 22078 net.cpp:148] Top shape: 24 32 28 28 (602112)
I0403 18:19:34.836078 22078 net.cpp:156] Memory required for data: 561169440
I0403 18:19:34.836097 22078 layer_factory.hpp:77] Creating layer inception_3a/output
I0403 18:19:34.836117 22078 net.cpp:91] Creating Layer inception_3a/output
I0403 18:19:34.836136 22078 net.cpp:425] inception_3a/output <- inception_3a/1x1
I0403 18:19:34.836155 22078 net.cpp:425] inception_3a/output <- inception_3a/3x3
I0403 18:19:34.836174 22078 net.cpp:425] inception_3a/output <- inception_3a/5x5
I0403 18:19:34.836195 22078 net.cpp:425] inception_3a/output <- inception_3a/pool_proj
I0403 18:19:34.836220 22078 net.cpp:399] inception_3a/output -> inception_3a/output
I0403 18:19:34.836277 22078 net.cpp:141] Setting up inception_3a/output
I0403 18:19:34.836308 22078 net.cpp:148] Top shape: 24 256 28 28 (4816896)
I0403 18:19:34.836328 22078 net.cpp:156] Memory required for data: 580437024
I0403 18:19:34.836346 22078 layer_factory.hpp:77] Creating layer inception_3a/output_inception_3a/output_0_split
I0403 18:19:34.836365 22078 net.cpp:91] Creating Layer inception_3a/output_inception_3a/output_0_split
I0403 18:19:34.836385 22078 net.cpp:425] inception_3a/output_inception_3a/output_0_split <- inception_3a/output
I0403 18:19:34.836405 22078 net.cpp:399] inception_3a/output_inception_3a/output_0_split -> inception_3a/output_inception_3a/output_0_split_0
I0403 18:19:34.836433 22078 net.cpp:399] inception_3a/output_inception_3a/output_0_split -> inception_3a/output_inception_3a/output_0_split_1
I0403 18:19:34.836460 22078 net.cpp:399] inception_3a/output_inception_3a/output_0_split -> inception_3a/output_inception_3a/output_0_split_2
I0403 18:19:34.836486 22078 net.cpp:399] inception_3a/output_inception_3a/output_0_split -> inception_3a/output_inception_3a/output_0_split_3
I0403 18:19:34.836581 22078 net.cpp:141] Setting up inception_3a/output_inception_3a/output_0_split
I0403 18:19:34.836612 22078 net.cpp:148] Top shape: 24 256 28 28 (4816896)
I0403 18:19:34.836632 22078 net.cpp:148] Top shape: 24 256 28 28 (4816896)
I0403 18:19:34.836652 22078 net.cpp:148] Top shape: 24 256 28 28 (4816896)
I0403 18:19:34.836673 22078 net.cpp:148] Top shape: 24 256 28 28 (4816896)
I0403 18:19:34.836689 22078 net.cpp:156] Memory required for data: 657507360
I0403 18:19:34.836707 22078 layer_factory.hpp:77] Creating layer inception_3b/1x1
I0403 18:19:34.836735 22078 net.cpp:91] Creating Layer inception_3b/1x1
I0403 18:19:34.836756 22078 net.cpp:425] inception_3b/1x1 <- inception_3a/output_inception_3a/output_0_split_0
I0403 18:19:34.836782 22078 net.cpp:399] inception_3b/1x1 -> inception_3b/1x1
I0403 18:19:34.838186 22078 net.cpp:141] Setting up inception_3b/1x1
I0403 18:19:34.838238 22078 net.cpp:148] Top shape: 24 128 28 28 (2408448)
I0403 18:19:34.838259 22078 net.cpp:156] Memory required for data: 667141152
I0403 18:19:34.838282 22078 layer_factory.hpp:77] Creating layer inception_3b/relu_1x1
I0403 18:19:34.838305 22078 net.cpp:91] Creating Layer inception_3b/relu_1x1
I0403 18:19:34.838325 22078 net.cpp:425] inception_3b/relu_1x1 <- inception_3b/1x1
I0403 18:19:34.838346 22078 net.cpp:386] inception_3b/relu_1x1 -> inception_3b/1x1 (in-place)
I0403 18:19:34.838572 22078 net.cpp:141] Setting up inception_3b/relu_1x1
I0403 18:19:34.838603 22078 net.cpp:148] Top shape: 24 128 28 28 (2408448)
I0403 18:19:34.838621 22078 net.cpp:156] Memory required for data: 676774944
I0403 18:19:34.838639 22078 layer_factory.hpp:77] Creating layer inception_3b/3x3_reduce
I0403 18:19:34.838667 22078 net.cpp:91] Creating Layer inception_3b/3x3_reduce
I0403 18:19:34.838690 22078 net.cpp:425] inception_3b/3x3_reduce <- inception_3a/output_inception_3a/output_0_split_1
I0403 18:19:34.838716 22078 net.cpp:399] inception_3b/3x3_reduce -> inception_3b/3x3_reduce
I0403 18:19:34.840092 22078 net.cpp:141] Setting up inception_3b/3x3_reduce
I0403 18:19:34.840129 22078 net.cpp:148] Top shape: 24 128 28 28 (2408448)
I0403 18:19:34.840149 22078 net.cpp:156] Memory required for data: 686408736
I0403 18:19:34.840173 22078 layer_factory.hpp:77] Creating layer inception_3b/relu_3x3_reduce
I0403 18:19:34.840194 22078 net.cpp:91] Creating Layer inception_3b/relu_3x3_reduce
I0403 18:19:34.840215 22078 net.cpp:425] inception_3b/relu_3x3_reduce <- inception_3b/3x3_reduce
I0403 18:19:34.840239 22078 net.cpp:386] inception_3b/relu_3x3_reduce -> inception_3b/3x3_reduce (in-place)
I0403 18:19:34.840451 22078 net.cpp:141] Setting up inception_3b/relu_3x3_reduce
I0403 18:19:34.840481 22078 net.cpp:148] Top shape: 24 128 28 28 (2408448)
I0403 18:19:34.840499 22078 net.cpp:156] Memory required for data: 696042528
I0403 18:19:34.840524 22078 layer_factory.hpp:77] Creating layer inception_3b/3x3
I0403 18:19:34.840558 22078 net.cpp:91] Creating Layer inception_3b/3x3
I0403 18:19:34.840580 22078 net.cpp:425] inception_3b/3x3 <- inception_3b/3x3_reduce
I0403 18:19:34.840603 22078 net.cpp:399] inception_3b/3x3 -> inception_3b/3x3
I0403 18:19:34.844146 22078 net.cpp:141] Setting up inception_3b/3x3
I0403 18:19:34.844182 22078 net.cpp:148] Top shape: 24 192 28 28 (3612672)
I0403 18:19:34.844202 22078 net.cpp:156] Memory required for data: 710493216
I0403 18:19:34.844224 22078 layer_factory.hpp:77] Creating layer inception_3b/relu_3x3
I0403 18:19:34.844247 22078 net.cpp:91] Creating Layer inception_3b/relu_3x3
I0403 18:19:34.844270 22078 net.cpp:425] inception_3b/relu_3x3 <- inception_3b/3x3
I0403 18:19:34.844291 22078 net.cpp:386] inception_3b/relu_3x3 -> inception_3b/3x3 (in-place)
I0403 18:19:34.844637 22078 net.cpp:141] Setting up inception_3b/relu_3x3
I0403 18:19:34.844671 22078 net.cpp:148] Top shape: 24 192 28 28 (3612672)
I0403 18:19:34.844691 22078 net.cpp:156] Memory required for data: 724943904
I0403 18:19:34.844709 22078 layer_factory.hpp:77] Creating layer inception_3b/5x5_reduce
I0403 18:19:34.844738 22078 net.cpp:91] Creating Layer inception_3b/5x5_reduce
I0403 18:19:34.844761 22078 net.cpp:425] inception_3b/5x5_reduce <- inception_3a/output_inception_3a/output_0_split_2
I0403 18:19:34.844787 22078 net.cpp:399] inception_3b/5x5_reduce -> inception_3b/5x5_reduce
I0403 18:19:34.845998 22078 net.cpp:141] Setting up inception_3b/5x5_reduce
I0403 18:19:34.846031 22078 net.cpp:148] Top shape: 24 32 28 28 (602112)
I0403 18:19:34.846050 22078 net.cpp:156] Memory required for data: 727352352
I0403 18:19:34.846073 22078 layer_factory.hpp:77] Creating layer inception_3b/relu_5x5_reduce
I0403 18:19:34.846096 22078 net.cpp:91] Creating Layer inception_3b/relu_5x5_reduce
I0403 18:19:34.846115 22078 net.cpp:425] inception_3b/relu_5x5_reduce <- inception_3b/5x5_reduce
I0403 18:19:34.846139 22078 net.cpp:386] inception_3b/relu_5x5_reduce -> inception_3b/5x5_reduce (in-place)
I0403 18:19:34.846371 22078 net.cpp:141] Setting up inception_3b/relu_5x5_reduce
I0403 18:19:34.846403 22078 net.cpp:148] Top shape: 24 32 28 28 (602112)
I0403 18:19:34.846421 22078 net.cpp:156] Memory required for data: 729760800
I0403 18:19:34.846438 22078 layer_factory.hpp:77] Creating layer inception_3b/5x5
I0403 18:19:34.846467 22078 net.cpp:91] Creating Layer inception_3b/5x5
I0403 18:19:34.846487 22078 net.cpp:425] inception_3b/5x5 <- inception_3b/5x5_reduce
I0403 18:19:34.846519 22078 net.cpp:399] inception_3b/5x5 -> inception_3b/5x5
I0403 18:19:34.848911 22078 net.cpp:141] Setting up inception_3b/5x5
I0403 18:19:34.848948 22078 net.cpp:148] Top shape: 24 96 28 28 (1806336)
I0403 18:19:34.848969 22078 net.cpp:156] Memory required for data: 736986144
I0403 18:19:34.848991 22078 layer_factory.hpp:77] Creating layer inception_3b/relu_5x5
I0403 18:19:34.849014 22078 net.cpp:91] Creating Layer inception_3b/relu_5x5
I0403 18:19:34.849035 22078 net.cpp:425] inception_3b/relu_5x5 <- inception_3b/5x5
I0403 18:19:34.849058 22078 net.cpp:386] inception_3b/relu_5x5 -> inception_3b/5x5 (in-place)
I0403 18:19:34.849294 22078 net.cpp:141] Setting up inception_3b/relu_5x5
I0403 18:19:34.849328 22078 net.cpp:148] Top shape: 24 96 28 28 (1806336)
I0403 18:19:34.849345 22078 net.cpp:156] Memory required for data: 744211488
I0403 18:19:34.849364 22078 layer_factory.hpp:77] Creating layer inception_3b/pool
I0403 18:19:34.849385 22078 net.cpp:91] Creating Layer inception_3b/pool
I0403 18:19:34.849405 22078 net.cpp:425] inception_3b/pool <- inception_3a/output_inception_3a/output_0_split_3
I0403 18:19:34.849427 22078 net.cpp:399] inception_3b/pool -> inception_3b/pool
I0403 18:19:34.849498 22078 net.cpp:141] Setting up inception_3b/pool
I0403 18:19:34.849531 22078 net.cpp:148] Top shape: 24 256 28 28 (4816896)
I0403 18:19:34.849550 22078 net.cpp:156] Memory required for data: 763479072
I0403 18:19:34.849568 22078 layer_factory.hpp:77] Creating layer inception_3b/pool_proj
I0403 18:19:34.849598 22078 net.cpp:91] Creating Layer inception_3b/pool_proj
I0403 18:19:34.849619 22078 net.cpp:425] inception_3b/pool_proj <- inception_3b/pool
I0403 18:19:34.849642 22078 net.cpp:399] inception_3b/pool_proj -> inception_3b/pool_proj
I0403 18:19:34.850921 22078 net.cpp:141] Setting up inception_3b/pool_proj
I0403 18:19:34.850955 22078 net.cpp:148] Top shape: 24 64 28 28 (1204224)
I0403 18:19:34.850973 22078 net.cpp:156] Memory required for data: 768295968
I0403 18:19:34.850996 22078 layer_factory.hpp:77] Creating layer inception_3b/relu_pool_proj
I0403 18:19:34.851022 22078 net.cpp:91] Creating Layer inception_3b/relu_pool_proj
I0403 18:19:34.851042 22078 net.cpp:425] inception_3b/relu_pool_proj <- inception_3b/pool_proj
I0403 18:19:34.851063 22078 net.cpp:386] inception_3b/relu_pool_proj -> inception_3b/pool_proj (in-place)
I0403 18:19:34.851532 22078 net.cpp:141] Setting up inception_3b/relu_pool_proj
I0403 18:19:34.851567 22078 net.cpp:148] Top shape: 24 64 28 28 (1204224)
I0403 18:19:34.851586 22078 net.cpp:156] Memory required for data: 773112864
I0403 18:19:34.851604 22078 layer_factory.hpp:77] Creating layer inception_3b/output
I0403 18:19:34.851627 22078 net.cpp:91] Creating Layer inception_3b/output
I0403 18:19:34.851647 22078 net.cpp:425] inception_3b/output <- inception_3b/1x1
I0403 18:19:34.851670 22078 net.cpp:425] inception_3b/output <- inception_3b/3x3
I0403 18:19:34.851689 22078 net.cpp:425] inception_3b/output <- inception_3b/5x5
I0403 18:19:34.851709 22078 net.cpp:425] inception_3b/output <- inception_3b/pool_proj
I0403 18:19:34.851730 22078 net.cpp:399] inception_3b/output -> inception_3b/output
I0403 18:19:34.851783 22078 net.cpp:141] Setting up inception_3b/output
I0403 18:19:34.851814 22078 net.cpp:148] Top shape: 24 480 28 28 (9031680)
I0403 18:19:34.851835 22078 net.cpp:156] Memory required for data: 809239584
I0403 18:19:34.851852 22078 layer_factory.hpp:77] Creating layer pool3/3x3_s2
I0403 18:19:34.851874 22078 net.cpp:91] Creating Layer pool3/3x3_s2
I0403 18:19:34.851894 22078 net.cpp:425] pool3/3x3_s2 <- inception_3b/output
I0403 18:19:34.851938 22078 net.cpp:399] pool3/3x3_s2 -> pool3/3x3_s2
I0403 18:19:34.852010 22078 net.cpp:141] Setting up pool3/3x3_s2
I0403 18:19:34.852041 22078 net.cpp:148] Top shape: 24 480 14 14 (2257920)
I0403 18:19:34.852059 22078 net.cpp:156] Memory required for data: 818271264
I0403 18:19:34.852077 22078 layer_factory.hpp:77] Creating layer pool3/3x3_s2_pool3/3x3_s2_0_split
I0403 18:19:34.852098 22078 net.cpp:91] Creating Layer pool3/3x3_s2_pool3/3x3_s2_0_split
I0403 18:19:34.852116 22078 net.cpp:425] pool3/3x3_s2_pool3/3x3_s2_0_split <- pool3/3x3_s2
I0403 18:19:34.852138 22078 net.cpp:399] pool3/3x3_s2_pool3/3x3_s2_0_split -> pool3/3x3_s2_pool3/3x3_s2_0_split_0
I0403 18:19:34.852161 22078 net.cpp:399] pool3/3x3_s2_pool3/3x3_s2_0_split -> pool3/3x3_s2_pool3/3x3_s2_0_split_1
I0403 18:19:34.852187 22078 net.cpp:399] pool3/3x3_s2_pool3/3x3_s2_0_split -> pool3/3x3_s2_pool3/3x3_s2_0_split_2
I0403 18:19:34.852213 22078 net.cpp:399] pool3/3x3_s2_pool3/3x3_s2_0_split -> pool3/3x3_s2_pool3/3x3_s2_0_split_3
I0403 18:19:34.852308 22078 net.cpp:141] Setting up pool3/3x3_s2_pool3/3x3_s2_0_split
I0403 18:19:34.852337 22078 net.cpp:148] Top shape: 24 480 14 14 (2257920)
I0403 18:19:34.852357 22078 net.cpp:148] Top shape: 24 480 14 14 (2257920)
I0403 18:19:34.852376 22078 net.cpp:148] Top shape: 24 480 14 14 (2257920)
I0403 18:19:34.852394 22078 net.cpp:148] Top shape: 24 480 14 14 (2257920)
I0403 18:19:34.852411 22078 net.cpp:156] Memory required for data: 854397984
I0403 18:19:34.852429 22078 layer_factory.hpp:77] Creating layer inception_4a/1x1
I0403 18:19:34.852458 22078 net.cpp:91] Creating Layer inception_4a/1x1
I0403 18:19:34.852478 22078 net.cpp:425] inception_4a/1x1 <- pool3/3x3_s2_pool3/3x3_s2_0_split_0
I0403 18:19:34.852502 22078 net.cpp:399] inception_4a/1x1 -> inception_4a/1x1
I0403 18:19:34.854423 22078 net.cpp:141] Setting up inception_4a/1x1
I0403 18:19:34.854456 22078 net.cpp:148] Top shape: 24 192 14 14 (903168)
I0403 18:19:34.854476 22078 net.cpp:156] Memory required for data: 858010656
I0403 18:19:34.854498 22078 layer_factory.hpp:77] Creating layer inception_4a/relu_1x1
I0403 18:19:34.854538 22078 net.cpp:91] Creating Layer inception_4a/relu_1x1
I0403 18:19:34.854562 22078 net.cpp:425] inception_4a/relu_1x1 <- inception_4a/1x1
I0403 18:19:34.854583 22078 net.cpp:386] inception_4a/relu_1x1 -> inception_4a/1x1 (in-place)
I0403 18:19:34.854796 22078 net.cpp:141] Setting up inception_4a/relu_1x1
I0403 18:19:34.854830 22078 net.cpp:148] Top shape: 24 192 14 14 (903168)
I0403 18:19:34.854849 22078 net.cpp:156] Memory required for data: 861623328
I0403 18:19:34.854866 22078 layer_factory.hpp:77] Creating layer inception_4a/3x3_reduce
I0403 18:19:34.854893 22078 net.cpp:91] Creating Layer inception_4a/3x3_reduce
I0403 18:19:34.854917 22078 net.cpp:425] inception_4a/3x3_reduce <- pool3/3x3_s2_pool3/3x3_s2_0_split_1
I0403 18:19:34.854943 22078 net.cpp:399] inception_4a/3x3_reduce -> inception_4a/3x3_reduce
I0403 18:19:34.856490 22078 net.cpp:141] Setting up inception_4a/3x3_reduce
I0403 18:19:34.856530 22078 net.cpp:148] Top shape: 24 96 14 14 (451584)
I0403 18:19:34.856550 22078 net.cpp:156] Memory required for data: 863429664
I0403 18:19:34.856580 22078 layer_factory.hpp:77] Creating layer inception_4a/relu_3x3_reduce
I0403 18:19:34.856606 22078 net.cpp:91] Creating Layer inception_4a/relu_3x3_reduce
I0403 18:19:34.856626 22078 net.cpp:425] inception_4a/relu_3x3_reduce <- inception_4a/3x3_reduce
I0403 18:19:34.856648 22078 net.cpp:386] inception_4a/relu_3x3_reduce -> inception_4a/3x3_reduce (in-place)
I0403 18:19:34.856866 22078 net.cpp:141] Setting up inception_4a/relu_3x3_reduce
I0403 18:19:34.856900 22078 net.cpp:148] Top shape: 24 96 14 14 (451584)
I0403 18:19:34.856920 22078 net.cpp:156] Memory required for data: 865236000
I0403 18:19:34.856938 22078 layer_factory.hpp:77] Creating layer inception_4a/3x3
I0403 18:19:34.856964 22078 net.cpp:91] Creating Layer inception_4a/3x3
I0403 18:19:34.856984 22078 net.cpp:425] inception_4a/3x3 <- inception_4a/3x3_reduce
I0403 18:19:34.857008 22078 net.cpp:399] inception_4a/3x3 -> inception_4a/3x3
I0403 18:19:34.860275 22078 net.cpp:141] Setting up inception_4a/3x3
I0403 18:19:34.860316 22078 net.cpp:148] Top shape: 24 208 14 14 (978432)
I0403 18:19:34.860340 22078 net.cpp:156] Memory required for data: 869149728
I0403 18:19:34.860365 22078 layer_factory.hpp:77] Creating layer inception_4a/relu_3x3
I0403 18:19:34.860390 22078 net.cpp:91] Creating Layer inception_4a/relu_3x3
I0403 18:19:34.860410 22078 net.cpp:425] inception_4a/relu_3x3 <- inception_4a/3x3
I0403 18:19:34.860435 22078 net.cpp:386] inception_4a/relu_3x3 -> inception_4a/3x3 (in-place)
I0403 18:19:34.860790 22078 net.cpp:141] Setting up inception_4a/relu_3x3
I0403 18:19:34.860824 22078 net.cpp:148] Top shape: 24 208 14 14 (978432)
I0403 18:19:34.860844 22078 net.cpp:156] Memory required for data: 873063456
I0403 18:19:34.860862 22078 layer_factory.hpp:77] Creating layer inception_4a/5x5_reduce
I0403 18:19:34.860890 22078 net.cpp:91] Creating Layer inception_4a/5x5_reduce
I0403 18:19:34.860913 22078 net.cpp:425] inception_4a/5x5_reduce <- pool3/3x3_s2_pool3/3x3_s2_0_split_2
I0403 18:19:34.860936 22078 net.cpp:399] inception_4a/5x5_reduce -> inception_4a/5x5_reduce
I0403 18:19:34.862166 22078 net.cpp:141] Setting up inception_4a/5x5_reduce
I0403 18:19:34.862203 22078 net.cpp:148] Top shape: 24 16 14 14 (75264)
I0403 18:19:34.862224 22078 net.cpp:156] Memory required for data: 873364512
I0403 18:19:34.862247 22078 layer_factory.hpp:77] Creating layer inception_4a/relu_5x5_reduce
I0403 18:19:34.862269 22078 net.cpp:91] Creating Layer inception_4a/relu_5x5_reduce
I0403 18:19:34.862289 22078 net.cpp:425] inception_4a/relu_5x5_reduce <- inception_4a/5x5_reduce
I0403 18:19:34.862313 22078 net.cpp:386] inception_4a/relu_5x5_reduce -> inception_4a/5x5_reduce (in-place)
I0403 18:19:34.862537 22078 net.cpp:141] Setting up inception_4a/relu_5x5_reduce
I0403 18:19:34.862570 22078 net.cpp:148] Top shape: 24 16 14 14 (75264)
I0403 18:19:34.862589 22078 net.cpp:156] Memory required for data: 873665568
I0403 18:19:34.862607 22078 layer_factory.hpp:77] Creating layer inception_4a/5x5
I0403 18:19:34.862634 22078 net.cpp:91] Creating Layer inception_4a/5x5
I0403 18:19:34.862656 22078 net.cpp:425] inception_4a/5x5 <- inception_4a/5x5_reduce
I0403 18:19:34.862682 22078 net.cpp:399] inception_4a/5x5 -> inception_4a/5x5
I0403 18:19:34.863993 22078 net.cpp:141] Setting up inception_4a/5x5
I0403 18:19:34.864028 22078 net.cpp:148] Top shape: 24 48 14 14 (225792)
I0403 18:19:34.864048 22078 net.cpp:156] Memory required for data: 874568736
I0403 18:19:34.864070 22078 layer_factory.hpp:77] Creating layer inception_4a/relu_5x5
I0403 18:19:34.864095 22078 net.cpp:91] Creating Layer inception_4a/relu_5x5
I0403 18:19:34.864116 22078 net.cpp:425] inception_4a/relu_5x5 <- inception_4a/5x5
I0403 18:19:34.864138 22078 net.cpp:386] inception_4a/relu_5x5 -> inception_4a/5x5 (in-place)
I0403 18:19:34.864357 22078 net.cpp:141] Setting up inception_4a/relu_5x5
I0403 18:19:34.864388 22078 net.cpp:148] Top shape: 24 48 14 14 (225792)
I0403 18:19:34.864406 22078 net.cpp:156] Memory required for data: 875471904
I0403 18:19:34.864425 22078 layer_factory.hpp:77] Creating layer inception_4a/pool
I0403 18:19:34.864454 22078 net.cpp:91] Creating Layer inception_4a/pool
I0403 18:19:34.864473 22078 net.cpp:425] inception_4a/pool <- pool3/3x3_s2_pool3/3x3_s2_0_split_3
I0403 18:19:34.864497 22078 net.cpp:399] inception_4a/pool -> inception_4a/pool
I0403 18:19:34.864588 22078 net.cpp:141] Setting up inception_4a/pool
I0403 18:19:34.864617 22078 net.cpp:148] Top shape: 24 480 14 14 (2257920)
I0403 18:19:34.864635 22078 net.cpp:156] Memory required for data: 884503584
I0403 18:19:34.864652 22078 layer_factory.hpp:77] Creating layer inception_4a/pool_proj
I0403 18:19:34.864681 22078 net.cpp:91] Creating Layer inception_4a/pool_proj
I0403 18:19:34.864701 22078 net.cpp:425] inception_4a/pool_proj <- inception_4a/pool
I0403 18:19:34.864727 22078 net.cpp:399] inception_4a/pool_proj -> inception_4a/pool_proj
I0403 18:19:34.866145 22078 net.cpp:141] Setting up inception_4a/pool_proj
I0403 18:19:34.866180 22078 net.cpp:148] Top shape: 24 64 14 14 (301056)
I0403 18:19:34.866217 22078 net.cpp:156] Memory required for data: 885707808
I0403 18:19:34.866242 22078 layer_factory.hpp:77] Creating layer inception_4a/relu_pool_proj
I0403 18:19:34.866268 22078 net.cpp:91] Creating Layer inception_4a/relu_pool_proj
I0403 18:19:34.866288 22078 net.cpp:425] inception_4a/relu_pool_proj <- inception_4a/pool_proj
I0403 18:19:34.866310 22078 net.cpp:386] inception_4a/relu_pool_proj -> inception_4a/pool_proj (in-place)
I0403 18:19:34.866655 22078 net.cpp:141] Setting up inception_4a/relu_pool_proj
I0403 18:19:34.866688 22078 net.cpp:148] Top shape: 24 64 14 14 (301056)
I0403 18:19:34.866708 22078 net.cpp:156] Memory required for data: 886912032
I0403 18:19:34.866727 22078 layer_factory.hpp:77] Creating layer inception_4a/output
I0403 18:19:34.866751 22078 net.cpp:91] Creating Layer inception_4a/output
I0403 18:19:34.866771 22078 net.cpp:425] inception_4a/output <- inception_4a/1x1
I0403 18:19:34.866793 22078 net.cpp:425] inception_4a/output <- inception_4a/3x3
I0403 18:19:34.866813 22078 net.cpp:425] inception_4a/output <- inception_4a/5x5
I0403 18:19:34.866833 22078 net.cpp:425] inception_4a/output <- inception_4a/pool_proj
I0403 18:19:34.866854 22078 net.cpp:399] inception_4a/output -> inception_4a/output
I0403 18:19:34.866910 22078 net.cpp:141] Setting up inception_4a/output
I0403 18:19:34.866940 22078 net.cpp:148] Top shape: 24 512 14 14 (2408448)
I0403 18:19:34.866956 22078 net.cpp:156] Memory required for data: 896545824
I0403 18:19:34.866974 22078 layer_factory.hpp:77] Creating layer inception_4a/output_inception_4a/output_0_split
I0403 18:19:34.866996 22078 net.cpp:91] Creating Layer inception_4a/output_inception_4a/output_0_split
I0403 18:19:34.867014 22078 net.cpp:425] inception_4a/output_inception_4a/output_0_split <- inception_4a/output
I0403 18:19:34.867039 22078 net.cpp:399] inception_4a/output_inception_4a/output_0_split -> inception_4a/output_inception_4a/output_0_split_0
I0403 18:19:34.867065 22078 net.cpp:399] inception_4a/output_inception_4a/output_0_split -> inception_4a/output_inception_4a/output_0_split_1
I0403 18:19:34.867091 22078 net.cpp:399] inception_4a/output_inception_4a/output_0_split -> inception_4a/output_inception_4a/output_0_split_2
I0403 18:19:34.867116 22078 net.cpp:399] inception_4a/output_inception_4a/output_0_split -> inception_4a/output_inception_4a/output_0_split_3
I0403 18:19:34.867141 22078 net.cpp:399] inception_4a/output_inception_4a/output_0_split -> inception_4a/output_inception_4a/output_0_split_4
I0403 18:19:34.867254 22078 net.cpp:141] Setting up inception_4a/output_inception_4a/output_0_split
I0403 18:19:34.867283 22078 net.cpp:148] Top shape: 24 512 14 14 (2408448)
I0403 18:19:34.867305 22078 net.cpp:148] Top shape: 24 512 14 14 (2408448)
I0403 18:19:34.867324 22078 net.cpp:148] Top shape: 24 512 14 14 (2408448)
I0403 18:19:34.867342 22078 net.cpp:148] Top shape: 24 512 14 14 (2408448)
I0403 18:19:34.867362 22078 net.cpp:148] Top shape: 24 512 14 14 (2408448)
I0403 18:19:34.867378 22078 net.cpp:156] Memory required for data: 944714784
I0403 18:19:34.867396 22078 layer_factory.hpp:77] Creating layer loss1/ave_pool
I0403 18:19:34.867416 22078 net.cpp:91] Creating Layer loss1/ave_pool
I0403 18:19:34.867435 22078 net.cpp:425] loss1/ave_pool <- inception_4a/output_inception_4a/output_0_split_0
I0403 18:19:34.867460 22078 net.cpp:399] loss1/ave_pool -> loss1/ave_pool
I0403 18:19:34.867713 22078 net.cpp:141] Setting up loss1/ave_pool
I0403 18:19:34.867745 22078 net.cpp:148] Top shape: 24 512 4 4 (196608)
I0403 18:19:34.867764 22078 net.cpp:156] Memory required for data: 945501216
I0403 18:19:34.867784 22078 layer_factory.hpp:77] Creating layer loss1/conv
I0403 18:19:34.867810 22078 net.cpp:91] Creating Layer loss1/conv
I0403 18:19:34.867831 22078 net.cpp:425] loss1/conv <- loss1/ave_pool
I0403 18:19:34.867856 22078 net.cpp:399] loss1/conv -> loss1/conv
I0403 18:19:34.869565 22078 net.cpp:141] Setting up loss1/conv
I0403 18:19:34.869602 22078 net.cpp:148] Top shape: 24 128 4 4 (49152)
I0403 18:19:34.869638 22078 net.cpp:156] Memory required for data: 945697824
I0403 18:19:34.869663 22078 layer_factory.hpp:77] Creating layer loss1/relu_conv
I0403 18:19:34.869686 22078 net.cpp:91] Creating Layer loss1/relu_conv
I0403 18:19:34.869704 22078 net.cpp:425] loss1/relu_conv <- loss1/conv
I0403 18:19:34.869729 22078 net.cpp:386] loss1/relu_conv -> loss1/conv (in-place)
I0403 18:19:34.870066 22078 net.cpp:141] Setting up loss1/relu_conv
I0403 18:19:34.870102 22078 net.cpp:148] Top shape: 24 128 4 4 (49152)
I0403 18:19:34.870123 22078 net.cpp:156] Memory required for data: 945894432
I0403 18:19:34.870143 22078 layer_factory.hpp:77] Creating layer loss1/fc
I0403 18:19:34.870172 22078 net.cpp:91] Creating Layer loss1/fc
I0403 18:19:34.870195 22078 net.cpp:425] loss1/fc <- loss1/conv
I0403 18:19:34.870220 22078 net.cpp:399] loss1/fc -> loss1/fc
I0403 18:19:34.892385 22078 net.cpp:141] Setting up loss1/fc
I0403 18:19:34.892424 22078 net.cpp:148] Top shape: 24 1024 (24576)
I0403 18:19:34.892446 22078 net.cpp:156] Memory required for data: 945992736
I0403 18:19:34.892470 22078 layer_factory.hpp:77] Creating layer loss1/relu_fc
I0403 18:19:34.892498 22078 net.cpp:91] Creating Layer loss1/relu_fc
I0403 18:19:34.892524 22078 net.cpp:425] loss1/relu_fc <- loss1/fc
I0403 18:19:34.892549 22078 net.cpp:386] loss1/relu_fc -> loss1/fc (in-place)
I0403 18:19:34.892776 22078 net.cpp:141] Setting up loss1/relu_fc
I0403 18:19:34.892808 22078 net.cpp:148] Top shape: 24 1024 (24576)
I0403 18:19:34.892827 22078 net.cpp:156] Memory required for data: 946091040
I0403 18:19:34.892846 22078 layer_factory.hpp:77] Creating layer loss1/drop_fc
I0403 18:19:34.892879 22078 net.cpp:91] Creating Layer loss1/drop_fc
I0403 18:19:34.892901 22078 net.cpp:425] loss1/drop_fc <- loss1/fc
I0403 18:19:34.892925 22078 net.cpp:386] loss1/drop_fc -> loss1/fc (in-place)
I0403 18:19:34.892987 22078 net.cpp:141] Setting up loss1/drop_fc
I0403 18:19:34.893015 22078 net.cpp:148] Top shape: 24 1024 (24576)
I0403 18:19:34.893034 22078 net.cpp:156] Memory required for data: 946189344
I0403 18:19:34.893052 22078 layer_factory.hpp:77] Creating layer loss1/classifier_plantvillage
I0403 18:19:34.893084 22078 net.cpp:91] Creating Layer loss1/classifier_plantvillage
I0403 18:19:34.893105 22078 net.cpp:425] loss1/classifier_plantvillage <- loss1/fc
I0403 18:19:34.893129 22078 net.cpp:399] loss1/classifier_plantvillage -> loss1/classifier_plantvillage
I0403 18:19:34.894228 22078 net.cpp:141] Setting up loss1/classifier_plantvillage
I0403 18:19:34.894263 22078 net.cpp:148] Top shape: 24 38 (912)
I0403 18:19:34.894284 22078 net.cpp:156] Memory required for data: 946192992
I0403 18:19:34.894307 22078 layer_factory.hpp:77] Creating layer loss1/classifier_plantvillage_loss1/classifier_plantvillage_0_split
I0403 18:19:34.894332 22078 net.cpp:91] Creating Layer loss1/classifier_plantvillage_loss1/classifier_plantvillage_0_split
I0403 18:19:34.894353 22078 net.cpp:425] loss1/classifier_plantvillage_loss1/classifier_plantvillage_0_split <- loss1/classifier_plantvillage
I0403 18:19:34.894376 22078 net.cpp:399] loss1/classifier_plantvillage_loss1/classifier_plantvillage_0_split -> loss1/classifier_plantvillage_loss1/classifier_plantvillage_0_split_0
I0403 18:19:34.894404 22078 net.cpp:399] loss1/classifier_plantvillage_loss1/classifier_plantvillage_0_split -> loss1/classifier_plantvillage_loss1/classifier_plantvillage_0_split_1
I0403 18:19:34.894430 22078 net.cpp:399] loss1/classifier_plantvillage_loss1/classifier_plantvillage_0_split -> loss1/classifier_plantvillage_loss1/classifier_plantvillage_0_split_2
I0403 18:19:34.894522 22078 net.cpp:141] Setting up loss1/classifier_plantvillage_loss1/classifier_plantvillage_0_split
I0403 18:19:34.894552 22078 net.cpp:148] Top shape: 24 38 (912)
I0403 18:19:34.894573 22078 net.cpp:148] Top shape: 24 38 (912)
I0403 18:19:34.894592 22078 net.cpp:148] Top shape: 24 38 (912)
I0403 18:19:34.894608 22078 net.cpp:156] Memory required for data: 946203936
I0403 18:19:34.894625 22078 layer_factory.hpp:77] Creating layer inception_4b/1x1
I0403 18:19:34.894654 22078 net.cpp:91] Creating Layer inception_4b/1x1
I0403 18:19:34.894692 22078 net.cpp:425] inception_4b/1x1 <- inception_4a/output_inception_4a/output_0_split_1
I0403 18:19:34.894718 22078 net.cpp:399] inception_4b/1x1 -> inception_4b/1x1
I0403 18:19:34.896695 22078 net.cpp:141] Setting up inception_4b/1x1
I0403 18:19:34.896733 22078 net.cpp:148] Top shape: 24 160 14 14 (752640)
I0403 18:19:34.896754 22078 net.cpp:156] Memory required for data: 949214496
I0403 18:19:34.896777 22078 layer_factory.hpp:77] Creating layer inception_4b/relu_1x1
I0403 18:19:34.896801 22078 net.cpp:91] Creating Layer inception_4b/relu_1x1
I0403 18:19:34.896822 22078 net.cpp:425] inception_4b/relu_1x1 <- inception_4b/1x1
I0403 18:19:34.896847 22078 net.cpp:386] inception_4b/relu_1x1 -> inception_4b/1x1 (in-place)
I0403 18:19:34.897069 22078 net.cpp:141] Setting up inception_4b/relu_1x1
I0403 18:19:34.897100 22078 net.cpp:148] Top shape: 24 160 14 14 (752640)
I0403 18:19:34.897119 22078 net.cpp:156] Memory required for data: 952225056
I0403 18:19:34.897136 22078 layer_factory.hpp:77] Creating layer inception_4b/3x3_reduce
I0403 18:19:34.897166 22078 net.cpp:91] Creating Layer inception_4b/3x3_reduce
I0403 18:19:34.897188 22078 net.cpp:425] inception_4b/3x3_reduce <- inception_4a/output_inception_4a/output_0_split_2
I0403 18:19:34.897213 22078 net.cpp:399] inception_4b/3x3_reduce -> inception_4b/3x3_reduce
I0403 18:19:34.898874 22078 net.cpp:141] Setting up inception_4b/3x3_reduce
I0403 18:19:34.898910 22078 net.cpp:148] Top shape: 24 112 14 14 (526848)
I0403 18:19:34.898928 22078 net.cpp:156] Memory required for data: 954332448
I0403 18:19:34.898952 22078 layer_factory.hpp:77] Creating layer inception_4b/relu_3x3_reduce
I0403 18:19:34.898977 22078 net.cpp:91] Creating Layer inception_4b/relu_3x3_reduce
I0403 18:19:34.898998 22078 net.cpp:425] inception_4b/relu_3x3_reduce <- inception_4b/3x3_reduce
I0403 18:19:34.899019 22078 net.cpp:386] inception_4b/relu_3x3_reduce -> inception_4b/3x3_reduce (in-place)
I0403 18:19:34.899360 22078 net.cpp:141] Setting up inception_4b/relu_3x3_reduce
I0403 18:19:34.899394 22078 net.cpp:148] Top shape: 24 112 14 14 (526848)
I0403 18:19:34.899412 22078 net.cpp:156] Memory required for data: 956439840
I0403 18:19:34.899431 22078 layer_factory.hpp:77] Creating layer inception_4b/3x3
I0403 18:19:34.899459 22078 net.cpp:91] Creating Layer inception_4b/3x3
I0403 18:19:34.899482 22078 net.cpp:425] inception_4b/3x3 <- inception_4b/3x3_reduce
I0403 18:19:34.899513 22078 net.cpp:399] inception_4b/3x3 -> inception_4b/3x3
I0403 18:19:34.903151 22078 net.cpp:141] Setting up inception_4b/3x3
I0403 18:19:34.903187 22078 net.cpp:148] Top shape: 24 224 14 14 (1053696)
I0403 18:19:34.903208 22078 net.cpp:156] Memory required for data: 960654624
I0403 18:19:34.903230 22078 layer_factory.hpp:77] Creating layer inception_4b/relu_3x3
I0403 18:19:34.903255 22078 net.cpp:91] Creating Layer inception_4b/relu_3x3
I0403 18:19:34.903278 22078 net.cpp:425] inception_4b/relu_3x3 <- inception_4b/3x3
I0403 18:19:34.903302 22078 net.cpp:386] inception_4b/relu_3x3 -> inception_4b/3x3 (in-place)
I0403 18:19:34.903535 22078 net.cpp:141] Setting up inception_4b/relu_3x3
I0403 18:19:34.903566 22078 net.cpp:148] Top shape: 24 224 14 14 (1053696)
I0403 18:19:34.903585 22078 net.cpp:156] Memory required for data: 964869408
I0403 18:19:34.903604 22078 layer_factory.hpp:77] Creating layer inception_4b/5x5_reduce
I0403 18:19:34.903631 22078 net.cpp:91] Creating Layer inception_4b/5x5_reduce
I0403 18:19:34.903652 22078 net.cpp:425] inception_4b/5x5_reduce <- inception_4a/output_inception_4a/output_0_split_3
I0403 18:19:34.903681 22078 net.cpp:399] inception_4b/5x5_reduce -> inception_4b/5x5_reduce
I0403 18:19:34.905020 22078 net.cpp:141] Setting up inception_4b/5x5_reduce
I0403 18:19:34.905055 22078 net.cpp:148] Top shape: 24 24 14 14 (112896)
I0403 18:19:34.905076 22078 net.cpp:156] Memory required for data: 965320992
I0403 18:19:34.905097 22078 layer_factory.hpp:77] Creating layer inception_4b/relu_5x5_reduce
I0403 18:19:34.905120 22078 net.cpp:91] Creating Layer inception_4b/relu_5x5_reduce
I0403 18:19:34.905158 22078 net.cpp:425] inception_4b/relu_5x5_reduce <- inception_4b/5x5_reduce
I0403 18:19:34.905184 22078 net.cpp:386] inception_4b/relu_5x5_reduce -> inception_4b/5x5_reduce (in-place)
I0403 18:19:34.905597 22078 net.cpp:141] Setting up inception_4b/relu_5x5_reduce
I0403 18:19:34.905632 22078 net.cpp:148] Top shape: 24 24 14 14 (112896)
I0403 18:19:34.905652 22078 net.cpp:156] Memory required for data: 965772576
I0403 18:19:34.905668 22078 layer_factory.hpp:77] Creating layer inception_4b/5x5
I0403 18:19:34.905695 22078 net.cpp:91] Creating Layer inception_4b/5x5
I0403 18:19:34.905719 22078 net.cpp:425] inception_4b/5x5 <- inception_4b/5x5_reduce
I0403 18:19:34.905745 22078 net.cpp:399] inception_4b/5x5 -> inception_4b/5x5
I0403 18:19:34.907279 22078 net.cpp:141] Setting up inception_4b/5x5
I0403 18:19:34.907316 22078 net.cpp:148] Top shape: 24 64 14 14 (301056)
I0403 18:19:34.907337 22078 net.cpp:156] Memory required for data: 966976800
I0403 18:19:34.907361 22078 layer_factory.hpp:77] Creating layer inception_4b/relu_5x5
I0403 18:19:34.907382 22078 net.cpp:91] Creating Layer inception_4b/relu_5x5
I0403 18:19:34.907402 22078 net.cpp:425] inception_4b/relu_5x5 <- inception_4b/5x5
I0403 18:19:34.907425 22078 net.cpp:386] inception_4b/relu_5x5 -> inception_4b/5x5 (in-place)
I0403 18:19:34.907771 22078 net.cpp:141] Setting up inception_4b/relu_5x5
I0403 18:19:34.907812 22078 net.cpp:148] Top shape: 24 64 14 14 (301056)
I0403 18:19:34.907831 22078 net.cpp:156] Memory required for data: 968181024
I0403 18:19:34.907850 22078 layer_factory.hpp:77] Creating layer inception_4b/pool
I0403 18:19:34.907871 22078 net.cpp:91] Creating Layer inception_4b/pool
I0403 18:19:34.907891 22078 net.cpp:425] inception_4b/pool <- inception_4a/output_inception_4a/output_0_split_4
I0403 18:19:34.907917 22078 net.cpp:399] inception_4b/pool -> inception_4b/pool
I0403 18:19:34.907997 22078 net.cpp:141] Setting up inception_4b/pool
I0403 18:19:34.908030 22078 net.cpp:148] Top shape: 24 512 14 14 (2408448)
I0403 18:19:34.908049 22078 net.cpp:156] Memory required for data: 977814816
I0403 18:19:34.908067 22078 layer_factory.hpp:77] Creating layer inception_4b/pool_proj
I0403 18:19:34.908092 22078 net.cpp:91] Creating Layer inception_4b/pool_proj
I0403 18:19:34.908112 22078 net.cpp:425] inception_4b/pool_proj <- inception_4b/pool
I0403 18:19:34.908138 22078 net.cpp:399] inception_4b/pool_proj -> inception_4b/pool_proj
I0403 18:19:34.909613 22078 net.cpp:141] Setting up inception_4b/pool_proj
I0403 18:19:34.909647 22078 net.cpp:148] Top shape: 24 64 14 14 (301056)
I0403 18:19:34.909667 22078 net.cpp:156] Memory required for data: 979019040
I0403 18:19:34.909689 22078 layer_factory.hpp:77] Creating layer inception_4b/relu_pool_proj
I0403 18:19:34.909713 22078 net.cpp:91] Creating Layer inception_4b/relu_pool_proj
I0403 18:19:34.909737 22078 net.cpp:425] inception_4b/relu_pool_proj <- inception_4b/pool_proj
I0403 18:19:34.909759 22078 net.cpp:386] inception_4b/relu_pool_proj -> inception_4b/pool_proj (in-place)
I0403 18:19:34.909981 22078 net.cpp:141] Setting up inception_4b/relu_pool_proj
I0403 18:19:34.910012 22078 net.cpp:148] Top shape: 24 64 14 14 (301056)
I0403 18:19:34.910030 22078 net.cpp:156] Memory required for data: 980223264
I0403 18:19:34.910049 22078 layer_factory.hpp:77] Creating layer inception_4b/output
I0403 18:19:34.910069 22078 net.cpp:91] Creating Layer inception_4b/output
I0403 18:19:34.910087 22078 net.cpp:425] inception_4b/output <- inception_4b/1x1
I0403 18:19:34.910110 22078 net.cpp:425] inception_4b/output <- inception_4b/3x3
I0403 18:19:34.910132 22078 net.cpp:425] inception_4b/output <- inception_4b/5x5
I0403 18:19:34.910152 22078 net.cpp:425] inception_4b/output <- inception_4b/pool_proj
I0403 18:19:34.910174 22078 net.cpp:399] inception_4b/output -> inception_4b/output
I0403 18:19:34.910233 22078 net.cpp:141] Setting up inception_4b/output
I0403 18:19:34.910261 22078 net.cpp:148] Top shape: 24 512 14 14 (2408448)
I0403 18:19:34.910280 22078 net.cpp:156] Memory required for data: 989857056
I0403 18:19:34.910315 22078 layer_factory.hpp:77] Creating layer inception_4b/output_inception_4b/output_0_split
I0403 18:19:34.910338 22078 net.cpp:91] Creating Layer inception_4b/output_inception_4b/output_0_split
I0403 18:19:34.910357 22078 net.cpp:425] inception_4b/output_inception_4b/output_0_split <- inception_4b/output
I0403 18:19:34.910382 22078 net.cpp:399] inception_4b/output_inception_4b/output_0_split -> inception_4b/output_inception_4b/output_0_split_0
I0403 18:19:34.910408 22078 net.cpp:399] inception_4b/output_inception_4b/output_0_split -> inception_4b/output_inception_4b/output_0_split_1
I0403 18:19:34.910434 22078 net.cpp:399] inception_4b/output_inception_4b/output_0_split -> inception_4b/output_inception_4b/output_0_split_2
I0403 18:19:34.910459 22078 net.cpp:399] inception_4b/output_inception_4b/output_0_split -> inception_4b/output_inception_4b/output_0_split_3
I0403 18:19:34.910567 22078 net.cpp:141] Setting up inception_4b/output_inception_4b/output_0_split
I0403 18:19:34.910599 22078 net.cpp:148] Top shape: 24 512 14 14 (2408448)
I0403 18:19:34.910620 22078 net.cpp:148] Top shape: 24 512 14 14 (2408448)
I0403 18:19:34.910640 22078 net.cpp:148] Top shape: 24 512 14 14 (2408448)
I0403 18:19:34.910658 22078 net.cpp:148] Top shape: 24 512 14 14 (2408448)
I0403 18:19:34.910676 22078 net.cpp:156] Memory required for data: 1028392224
I0403 18:19:34.910693 22078 layer_factory.hpp:77] Creating layer inception_4c/1x1
I0403 18:19:34.910722 22078 net.cpp:91] Creating Layer inception_4c/1x1
I0403 18:19:34.910742 22078 net.cpp:425] inception_4c/1x1 <- inception_4b/output_inception_4b/output_0_split_0
I0403 18:19:34.910765 22078 net.cpp:399] inception_4c/1x1 -> inception_4c/1x1
I0403 18:19:34.912554 22078 net.cpp:141] Setting up inception_4c/1x1
I0403 18:19:34.912590 22078 net.cpp:148] Top shape: 24 128 14 14 (602112)
I0403 18:19:34.912611 22078 net.cpp:156] Memory required for data: 1030800672
I0403 18:19:34.912633 22078 layer_factory.hpp:77] Creating layer inception_4c/relu_1x1
I0403 18:19:34.912659 22078 net.cpp:91] Creating Layer inception_4c/relu_1x1
I0403 18:19:34.912681 22078 net.cpp:425] inception_4c/relu_1x1 <- inception_4c/1x1
I0403 18:19:34.912703 22078 net.cpp:386] inception_4c/relu_1x1 -> inception_4c/1x1 (in-place)
I0403 18:19:34.912925 22078 net.cpp:141] Setting up inception_4c/relu_1x1
I0403 18:19:34.912958 22078 net.cpp:148] Top shape: 24 128 14 14 (602112)
I0403 18:19:34.912978 22078 net.cpp:156] Memory required for data: 1033209120
I0403 18:19:34.912997 22078 layer_factory.hpp:77] Creating layer inception_4c/3x3_reduce
I0403 18:19:34.913024 22078 net.cpp:91] Creating Layer inception_4c/3x3_reduce
I0403 18:19:34.913046 22078 net.cpp:425] inception_4c/3x3_reduce <- inception_4b/output_inception_4b/output_0_split_1
I0403 18:19:34.913070 22078 net.cpp:399] inception_4c/3x3_reduce -> inception_4c/3x3_reduce
I0403 18:19:34.915441 22078 net.cpp:141] Setting up inception_4c/3x3_reduce
I0403 18:19:34.915479 22078 net.cpp:148] Top shape: 24 128 14 14 (602112)
I0403 18:19:34.915500 22078 net.cpp:156] Memory required for data: 1035617568
I0403 18:19:34.915529 22078 layer_factory.hpp:77] Creating layer inception_4c/relu_3x3_reduce
I0403 18:19:34.915554 22078 net.cpp:91] Creating Layer inception_4c/relu_3x3_reduce
I0403 18:19:34.915572 22078 net.cpp:425] inception_4c/relu_3x3_reduce <- inception_4c/3x3_reduce
I0403 18:19:34.915596 22078 net.cpp:386] inception_4c/relu_3x3_reduce -> inception_4c/3x3_reduce (in-place)
I0403 18:19:34.915943 22078 net.cpp:141] Setting up inception_4c/relu_3x3_reduce
I0403 18:19:34.915978 22078 net.cpp:148] Top shape: 24 128 14 14 (602112)
I0403 18:19:34.915998 22078 net.cpp:156] Memory required for data: 1038026016
I0403 18:19:34.916018 22078 layer_factory.hpp:77] Creating layer inception_4c/3x3
I0403 18:19:34.916045 22078 net.cpp:91] Creating Layer inception_4c/3x3
I0403 18:19:34.916067 22078 net.cpp:425] inception_4c/3x3 <- inception_4c/3x3_reduce
I0403 18:19:34.916093 22078 net.cpp:399] inception_4c/3x3 -> inception_4c/3x3
I0403 18:19:34.920516 22078 net.cpp:141] Setting up inception_4c/3x3
I0403 18:19:34.920577 22078 net.cpp:148] Top shape: 24 256 14 14 (1204224)
I0403 18:19:34.920598 22078 net.cpp:156] Memory required for data: 1042842912
I0403 18:19:34.920636 22078 layer_factory.hpp:77] Creating layer inception_4c/relu_3x3
I0403 18:19:34.920663 22078 net.cpp:91] Creating Layer inception_4c/relu_3x3
I0403 18:19:34.920683 22078 net.cpp:425] inception_4c/relu_3x3 <- inception_4c/3x3
I0403 18:19:34.920707 22078 net.cpp:386] inception_4c/relu_3x3 -> inception_4c/3x3 (in-place)
I0403 18:19:34.920931 22078 net.cpp:141] Setting up inception_4c/relu_3x3
I0403 18:19:34.920964 22078 net.cpp:148] Top shape: 24 256 14 14 (1204224)
I0403 18:19:34.920982 22078 net.cpp:156] Memory required for data: 1047659808
I0403 18:19:34.921000 22078 layer_factory.hpp:77] Creating layer inception_4c/5x5_reduce
I0403 18:19:34.921028 22078 net.cpp:91] Creating Layer inception_4c/5x5_reduce
I0403 18:19:34.921051 22078 net.cpp:425] inception_4c/5x5_reduce <- inception_4b/output_inception_4b/output_0_split_2
I0403 18:19:34.921077 22078 net.cpp:399] inception_4c/5x5_reduce -> inception_4c/5x5_reduce
I0403 18:19:34.922410 22078 net.cpp:141] Setting up inception_4c/5x5_reduce
I0403 18:19:34.922444 22078 net.cpp:148] Top shape: 24 24 14 14 (112896)
I0403 18:19:34.922464 22078 net.cpp:156] Memory required for data: 1048111392
I0403 18:19:34.922487 22078 layer_factory.hpp:77] Creating layer inception_4c/relu_5x5_reduce
I0403 18:19:34.922514 22078 net.cpp:91] Creating Layer inception_4c/relu_5x5_reduce
I0403 18:19:34.922536 22078 net.cpp:425] inception_4c/relu_5x5_reduce <- inception_4c/5x5_reduce
I0403 18:19:34.922560 22078 net.cpp:386] inception_4c/relu_5x5_reduce -> inception_4c/5x5_reduce (in-place)
I0403 18:19:34.922786 22078 net.cpp:141] Setting up inception_4c/relu_5x5_reduce
I0403 18:19:34.922818 22078 net.cpp:148] Top shape: 24 24 14 14 (112896)
I0403 18:19:34.922837 22078 net.cpp:156] Memory required for data: 1048562976
I0403 18:19:34.922854 22078 layer_factory.hpp:77] Creating layer inception_4c/5x5
I0403 18:19:34.922881 22078 net.cpp:91] Creating Layer inception_4c/5x5
I0403 18:19:34.922904 22078 net.cpp:425] inception_4c/5x5 <- inception_4c/5x5_reduce
I0403 18:19:34.922930 22078 net.cpp:399] inception_4c/5x5 -> inception_4c/5x5
I0403 18:19:34.924449 22078 net.cpp:141] Setting up inception_4c/5x5
I0403 18:19:34.924484 22078 net.cpp:148] Top shape: 24 64 14 14 (301056)
I0403 18:19:34.924502 22078 net.cpp:156] Memory required for data: 1049767200
I0403 18:19:34.924541 22078 layer_factory.hpp:77] Creating layer inception_4c/relu_5x5
I0403 18:19:34.924568 22078 net.cpp:91] Creating Layer inception_4c/relu_5x5
I0403 18:19:34.924590 22078 net.cpp:425] inception_4c/relu_5x5 <- inception_4c/5x5
I0403 18:19:34.924612 22078 net.cpp:386] inception_4c/relu_5x5 -> inception_4c/5x5 (in-place)
I0403 18:19:34.924965 22078 net.cpp:141] Setting up inception_4c/relu_5x5
I0403 18:19:34.924998 22078 net.cpp:148] Top shape: 24 64 14 14 (301056)
I0403 18:19:34.925017 22078 net.cpp:156] Memory required for data: 1050971424
I0403 18:19:34.925035 22078 layer_factory.hpp:77] Creating layer inception_4c/pool
I0403 18:19:34.925060 22078 net.cpp:91] Creating Layer inception_4c/pool
I0403 18:19:34.925083 22078 net.cpp:425] inception_4c/pool <- inception_4b/output_inception_4b/output_0_split_3
I0403 18:19:34.925107 22078 net.cpp:399] inception_4c/pool -> inception_4c/pool
I0403 18:19:34.925189 22078 net.cpp:141] Setting up inception_4c/pool
I0403 18:19:34.925220 22078 net.cpp:148] Top shape: 24 512 14 14 (2408448)
I0403 18:19:34.925238 22078 net.cpp:156] Memory required for data: 1060605216
I0403 18:19:34.925256 22078 layer_factory.hpp:77] Creating layer inception_4c/pool_proj
I0403 18:19:34.925285 22078 net.cpp:91] Creating Layer inception_4c/pool_proj
I0403 18:19:34.925307 22078 net.cpp:425] inception_4c/pool_proj <- inception_4c/pool
I0403 18:19:34.925333 22078 net.cpp:399] inception_4c/pool_proj -> inception_4c/pool_proj
I0403 18:19:34.926831 22078 net.cpp:141] Setting up inception_4c/pool_proj
I0403 18:19:34.926867 22078 net.cpp:148] Top shape: 24 64 14 14 (301056)
I0403 18:19:34.926903 22078 net.cpp:156] Memory required for data: 1061809440
I0403 18:19:34.926928 22078 layer_factory.hpp:77] Creating layer inception_4c/relu_pool_proj
I0403 18:19:34.926950 22078 net.cpp:91] Creating Layer inception_4c/relu_pool_proj
I0403 18:19:34.926970 22078 net.cpp:425] inception_4c/relu_pool_proj <- inception_4c/pool_proj
I0403 18:19:34.926995 22078 net.cpp:386] inception_4c/relu_pool_proj -> inception_4c/pool_proj (in-place)
I0403 18:19:34.927220 22078 net.cpp:141] Setting up inception_4c/relu_pool_proj
I0403 18:19:34.927253 22078 net.cpp:148] Top shape: 24 64 14 14 (301056)
I0403 18:19:34.927273 22078 net.cpp:156] Memory required for data: 1063013664
I0403 18:19:34.927292 22078 layer_factory.hpp:77] Creating layer inception_4c/output
I0403 18:19:34.927314 22078 net.cpp:91] Creating Layer inception_4c/output
I0403 18:19:34.927332 22078 net.cpp:425] inception_4c/output <- inception_4c/1x1
I0403 18:19:34.927353 22078 net.cpp:425] inception_4c/output <- inception_4c/3x3
I0403 18:19:34.927373 22078 net.cpp:425] inception_4c/output <- inception_4c/5x5
I0403 18:19:34.927393 22078 net.cpp:425] inception_4c/output <- inception_4c/pool_proj
I0403 18:19:34.927417 22078 net.cpp:399] inception_4c/output -> inception_4c/output
I0403 18:19:34.927479 22078 net.cpp:141] Setting up inception_4c/output
I0403 18:19:34.927511 22078 net.cpp:148] Top shape: 24 512 14 14 (2408448)
I0403 18:19:34.927531 22078 net.cpp:156] Memory required for data: 1072647456
I0403 18:19:34.927551 22078 layer_factory.hpp:77] Creating layer inception_4c/output_inception_4c/output_0_split
I0403 18:19:34.927570 22078 net.cpp:91] Creating Layer inception_4c/output_inception_4c/output_0_split
I0403 18:19:34.927588 22078 net.cpp:425] inception_4c/output_inception_4c/output_0_split <- inception_4c/output
I0403 18:19:34.927613 22078 net.cpp:399] inception_4c/output_inception_4c/output_0_split -> inception_4c/output_inception_4c/output_0_split_0
I0403 18:19:34.927639 22078 net.cpp:399] inception_4c/output_inception_4c/output_0_split -> inception_4c/output_inception_4c/output_0_split_1
I0403 18:19:34.927665 22078 net.cpp:399] inception_4c/output_inception_4c/output_0_split -> inception_4c/output_inception_4c/output_0_split_2
I0403 18:19:34.927690 22078 net.cpp:399] inception_4c/output_inception_4c/output_0_split -> inception_4c/output_inception_4c/output_0_split_3
I0403 18:19:34.927798 22078 net.cpp:141] Setting up inception_4c/output_inception_4c/output_0_split
I0403 18:19:34.927829 22078 net.cpp:148] Top shape: 24 512 14 14 (2408448)
I0403 18:19:34.927850 22078 net.cpp:148] Top shape: 24 512 14 14 (2408448)
I0403 18:19:34.927870 22078 net.cpp:148] Top shape: 24 512 14 14 (2408448)
I0403 18:19:34.927889 22078 net.cpp:148] Top shape: 24 512 14 14 (2408448)
I0403 18:19:34.927906 22078 net.cpp:156] Memory required for data: 1111182624
I0403 18:19:34.927923 22078 layer_factory.hpp:77] Creating layer inception_4d/1x1
I0403 18:19:34.927950 22078 net.cpp:91] Creating Layer inception_4d/1x1
I0403 18:19:34.927971 22078 net.cpp:425] inception_4d/1x1 <- inception_4c/output_inception_4c/output_0_split_0
I0403 18:19:34.927995 22078 net.cpp:399] inception_4d/1x1 -> inception_4d/1x1
I0403 18:19:34.929687 22078 net.cpp:141] Setting up inception_4d/1x1
I0403 18:19:34.929723 22078 net.cpp:148] Top shape: 24 112 14 14 (526848)
I0403 18:19:34.929743 22078 net.cpp:156] Memory required for data: 1113290016
I0403 18:19:34.929765 22078 layer_factory.hpp:77] Creating layer inception_4d/relu_1x1
I0403 18:19:34.929791 22078 net.cpp:91] Creating Layer inception_4d/relu_1x1
I0403 18:19:34.929812 22078 net.cpp:425] inception_4d/relu_1x1 <- inception_4d/1x1
I0403 18:19:34.929834 22078 net.cpp:386] inception_4d/relu_1x1 -> inception_4d/1x1 (in-place)
I0403 18:19:34.930064 22078 net.cpp:141] Setting up inception_4d/relu_1x1
I0403 18:19:34.930095 22078 net.cpp:148] Top shape: 24 112 14 14 (526848)
I0403 18:19:34.930114 22078 net.cpp:156] Memory required for data: 1115397408
I0403 18:19:34.930132 22078 layer_factory.hpp:77] Creating layer inception_4d/3x3_reduce
I0403 18:19:34.930178 22078 net.cpp:91] Creating Layer inception_4d/3x3_reduce
I0403 18:19:34.930202 22078 net.cpp:425] inception_4d/3x3_reduce <- inception_4c/output_inception_4c/output_0_split_1
I0403 18:19:34.930228 22078 net.cpp:399] inception_4d/3x3_reduce -> inception_4d/3x3_reduce
I0403 18:19:34.932108 22078 net.cpp:141] Setting up inception_4d/3x3_reduce
I0403 18:19:34.932142 22078 net.cpp:148] Top shape: 24 144 14 14 (677376)
I0403 18:19:34.932160 22078 net.cpp:156] Memory required for data: 1118106912
I0403 18:19:34.932183 22078 layer_factory.hpp:77] Creating layer inception_4d/relu_3x3_reduce
I0403 18:19:34.932209 22078 net.cpp:91] Creating Layer inception_4d/relu_3x3_reduce
I0403 18:19:34.932229 22078 net.cpp:425] inception_4d/relu_3x3_reduce <- inception_4d/3x3_reduce
I0403 18:19:34.932250 22078 net.cpp:386] inception_4d/relu_3x3_reduce -> inception_4d/3x3_reduce (in-place)
I0403 18:19:34.932612 22078 net.cpp:141] Setting up inception_4d/relu_3x3_reduce
I0403 18:19:34.932646 22078 net.cpp:148] Top shape: 24 144 14 14 (677376)
I0403 18:19:34.932665 22078 net.cpp:156] Memory required for data: 1120816416
I0403 18:19:34.932683 22078 layer_factory.hpp:77] Creating layer inception_4d/3x3
I0403 18:19:34.932711 22078 net.cpp:91] Creating Layer inception_4d/3x3
I0403 18:19:34.932731 22078 net.cpp:425] inception_4d/3x3 <- inception_4d/3x3_reduce
I0403 18:19:34.932759 22078 net.cpp:399] inception_4d/3x3 -> inception_4d/3x3
I0403 18:19:34.938029 22078 net.cpp:141] Setting up inception_4d/3x3
I0403 18:19:34.938071 22078 net.cpp:148] Top shape: 24 288 14 14 (1354752)
I0403 18:19:34.938091 22078 net.cpp:156] Memory required for data: 1126235424
I0403 18:19:34.938113 22078 layer_factory.hpp:77] Creating layer inception_4d/relu_3x3
I0403 18:19:34.938136 22078 net.cpp:91] Creating Layer inception_4d/relu_3x3
I0403 18:19:34.938155 22078 net.cpp:425] inception_4d/relu_3x3 <- inception_4d/3x3
I0403 18:19:34.938176 22078 net.cpp:386] inception_4d/relu_3x3 -> inception_4d/3x3 (in-place)
I0403 18:19:34.938407 22078 net.cpp:141] Setting up inception_4d/relu_3x3
I0403 18:19:34.938438 22078 net.cpp:148] Top shape: 24 288 14 14 (1354752)
I0403 18:19:34.938457 22078 net.cpp:156] Memory required for data: 1131654432
I0403 18:19:34.938473 22078 layer_factory.hpp:77] Creating layer inception_4d/5x5_reduce
I0403 18:19:34.938501 22078 net.cpp:91] Creating Layer inception_4d/5x5_reduce
I0403 18:19:34.938530 22078 net.cpp:425] inception_4d/5x5_reduce <- inception_4c/output_inception_4c/output_0_split_2
I0403 18:19:34.938560 22078 net.cpp:399] inception_4d/5x5_reduce -> inception_4d/5x5_reduce
I0403 18:19:34.939961 22078 net.cpp:141] Setting up inception_4d/5x5_reduce
I0403 18:19:34.939998 22078 net.cpp:148] Top shape: 24 32 14 14 (150528)
I0403 18:19:34.940018 22078 net.cpp:156] Memory required for data: 1132256544
I0403 18:19:34.940042 22078 layer_factory.hpp:77] Creating layer inception_4d/relu_5x5_reduce
I0403 18:19:34.940065 22078 net.cpp:91] Creating Layer inception_4d/relu_5x5_reduce
I0403 18:19:34.940085 22078 net.cpp:425] inception_4d/relu_5x5_reduce <- inception_4d/5x5_reduce
I0403 18:19:34.940110 22078 net.cpp:386] inception_4d/relu_5x5_reduce -> inception_4d/5x5_reduce (in-place)
I0403 18:19:34.940351 22078 net.cpp:141] Setting up inception_4d/relu_5x5_reduce
I0403 18:19:34.940382 22078 net.cpp:148] Top shape: 24 32 14 14 (150528)
I0403 18:19:34.940400 22078 net.cpp:156] Memory required for data: 1132858656
I0403 18:19:34.940418 22078 layer_factory.hpp:77] Creating layer inception_4d/5x5
I0403 18:19:34.940445 22078 net.cpp:91] Creating Layer inception_4d/5x5
I0403 18:19:34.940466 22078 net.cpp:425] inception_4d/5x5 <- inception_4d/5x5_reduce
I0403 18:19:34.940493 22078 net.cpp:399] inception_4d/5x5 -> inception_4d/5x5
I0403 18:19:34.942286 22078 net.cpp:141] Setting up inception_4d/5x5
I0403 18:19:34.942322 22078 net.cpp:148] Top shape: 24 64 14 14 (301056)
I0403 18:19:34.942342 22078 net.cpp:156] Memory required for data: 1134062880
I0403 18:19:34.942366 22078 layer_factory.hpp:77] Creating layer inception_4d/relu_5x5
I0403 18:19:34.942407 22078 net.cpp:91] Creating Layer inception_4d/relu_5x5
I0403 18:19:34.942428 22078 net.cpp:425] inception_4d/relu_5x5 <- inception_4d/5x5
I0403 18:19:34.942452 22078 net.cpp:386] inception_4d/relu_5x5 -> inception_4d/5x5 (in-place)
I0403 18:19:34.942826 22078 net.cpp:141] Setting up inception_4d/relu_5x5
I0403 18:19:34.942859 22078 net.cpp:148] Top shape: 24 64 14 14 (301056)
I0403 18:19:34.942878 22078 net.cpp:156] Memory required for data: 1135267104
I0403 18:19:34.942898 22078 layer_factory.hpp:77] Creating layer inception_4d/pool
I0403 18:19:34.942920 22078 net.cpp:91] Creating Layer inception_4d/pool
I0403 18:19:34.942940 22078 net.cpp:425] inception_4d/pool <- inception_4c/output_inception_4c/output_0_split_3
I0403 18:19:34.942965 22078 net.cpp:399] inception_4d/pool -> inception_4d/pool
I0403 18:19:34.943048 22078 net.cpp:141] Setting up inception_4d/pool
I0403 18:19:34.943078 22078 net.cpp:148] Top shape: 24 512 14 14 (2408448)
I0403 18:19:34.943096 22078 net.cpp:156] Memory required for data: 1144900896
I0403 18:19:34.943114 22078 layer_factory.hpp:77] Creating layer inception_4d/pool_proj
I0403 18:19:34.943141 22078 net.cpp:91] Creating Layer inception_4d/pool_proj
I0403 18:19:34.943162 22078 net.cpp:425] inception_4d/pool_proj <- inception_4d/pool
I0403 18:19:34.943186 22078 net.cpp:399] inception_4d/pool_proj -> inception_4d/pool_proj
I0403 18:19:34.945339 22078 net.cpp:141] Setting up inception_4d/pool_proj
I0403 18:19:34.945384 22078 net.cpp:148] Top shape: 24 64 14 14 (301056)
I0403 18:19:34.945405 22078 net.cpp:156] Memory required for data: 1146105120
I0403 18:19:34.945426 22078 layer_factory.hpp:77] Creating layer inception_4d/relu_pool_proj
I0403 18:19:34.945449 22078 net.cpp:91] Creating Layer inception_4d/relu_pool_proj
I0403 18:19:34.945469 22078 net.cpp:425] inception_4d/relu_pool_proj <- inception_4d/pool_proj
I0403 18:19:34.945492 22078 net.cpp:386] inception_4d/relu_pool_proj -> inception_4d/pool_proj (in-place)
I0403 18:19:34.945729 22078 net.cpp:141] Setting up inception_4d/relu_pool_proj
I0403 18:19:34.945761 22078 net.cpp:148] Top shape: 24 64 14 14 (301056)
I0403 18:19:34.945780 22078 net.cpp:156] Memory required for data: 1147309344
I0403 18:19:34.945797 22078 layer_factory.hpp:77] Creating layer inception_4d/output
I0403 18:19:34.945818 22078 net.cpp:91] Creating Layer inception_4d/output
I0403 18:19:34.945837 22078 net.cpp:425] inception_4d/output <- inception_4d/1x1
I0403 18:19:34.945858 22078 net.cpp:425] inception_4d/output <- inception_4d/3x3
I0403 18:19:34.945879 22078 net.cpp:425] inception_4d/output <- inception_4d/5x5
I0403 18:19:34.945899 22078 net.cpp:425] inception_4d/output <- inception_4d/pool_proj
I0403 18:19:34.945924 22078 net.cpp:399] inception_4d/output -> inception_4d/output
I0403 18:19:34.945982 22078 net.cpp:141] Setting up inception_4d/output
I0403 18:19:34.946015 22078 net.cpp:148] Top shape: 24 528 14 14 (2483712)
I0403 18:19:34.946034 22078 net.cpp:156] Memory required for data: 1157244192
I0403 18:19:34.946053 22078 layer_factory.hpp:77] Creating layer inception_4d/output_inception_4d/output_0_split
I0403 18:19:34.946074 22078 net.cpp:91] Creating Layer inception_4d/output_inception_4d/output_0_split
I0403 18:19:34.946094 22078 net.cpp:425] inception_4d/output_inception_4d/output_0_split <- inception_4d/output
I0403 18:19:34.946120 22078 net.cpp:399] inception_4d/output_inception_4d/output_0_split -> inception_4d/output_inception_4d/output_0_split_0
I0403 18:19:34.946146 22078 net.cpp:399] inception_4d/output_inception_4d/output_0_split -> inception_4d/output_inception_4d/output_0_split_1
I0403 18:19:34.946173 22078 net.cpp:399] inception_4d/output_inception_4d/output_0_split -> inception_4d/output_inception_4d/output_0_split_2
I0403 18:19:34.946199 22078 net.cpp:399] inception_4d/output_inception_4d/output_0_split -> inception_4d/output_inception_4d/output_0_split_3
I0403 18:19:34.946223 22078 net.cpp:399] inception_4d/output_inception_4d/output_0_split -> inception_4d/output_inception_4d/output_0_split_4
I0403 18:19:34.946346 22078 net.cpp:141] Setting up inception_4d/output_inception_4d/output_0_split
I0403 18:19:34.946391 22078 net.cpp:148] Top shape: 24 528 14 14 (2483712)
I0403 18:19:34.946413 22078 net.cpp:148] Top shape: 24 528 14 14 (2483712)
I0403 18:19:34.946431 22078 net.cpp:148] Top shape: 24 528 14 14 (2483712)
I0403 18:19:34.946451 22078 net.cpp:148] Top shape: 24 528 14 14 (2483712)
I0403 18:19:34.946470 22078 net.cpp:148] Top shape: 24 528 14 14 (2483712)
I0403 18:19:34.946487 22078 net.cpp:156] Memory required for data: 1206918432
I0403 18:19:34.946509 22078 layer_factory.hpp:77] Creating layer loss2/ave_pool
I0403 18:19:34.946537 22078 net.cpp:91] Creating Layer loss2/ave_pool
I0403 18:19:34.946557 22078 net.cpp:425] loss2/ave_pool <- inception_4d/output_inception_4d/output_0_split_0
I0403 18:19:34.946579 22078 net.cpp:399] loss2/ave_pool -> loss2/ave_pool
I0403 18:19:34.946957 22078 net.cpp:141] Setting up loss2/ave_pool
I0403 18:19:34.946995 22078 net.cpp:148] Top shape: 24 528 4 4 (202752)
I0403 18:19:34.947015 22078 net.cpp:156] Memory required for data: 1207729440
I0403 18:19:34.947033 22078 layer_factory.hpp:77] Creating layer loss2/conv
I0403 18:19:34.947060 22078 net.cpp:91] Creating Layer loss2/conv
I0403 18:19:34.947082 22078 net.cpp:425] loss2/conv <- loss2/ave_pool
I0403 18:19:34.947106 22078 net.cpp:399] loss2/conv -> loss2/conv
I0403 18:19:34.949435 22078 net.cpp:141] Setting up loss2/conv
I0403 18:19:34.949471 22078 net.cpp:148] Top shape: 24 128 4 4 (49152)
I0403 18:19:34.949492 22078 net.cpp:156] Memory required for data: 1207926048
I0403 18:19:34.949520 22078 layer_factory.hpp:77] Creating layer loss2/relu_conv
I0403 18:19:34.949548 22078 net.cpp:91] Creating Layer loss2/relu_conv
I0403 18:19:34.949569 22078 net.cpp:425] loss2/relu_conv <- loss2/conv
I0403 18:19:34.949591 22078 net.cpp:386] loss2/relu_conv -> loss2/conv (in-place)
I0403 18:19:34.949942 22078 net.cpp:141] Setting up loss2/relu_conv
I0403 18:19:34.949975 22078 net.cpp:148] Top shape: 24 128 4 4 (49152)
I0403 18:19:34.949995 22078 net.cpp:156] Memory required for data: 1208122656
I0403 18:19:34.950013 22078 layer_factory.hpp:77] Creating layer loss2/fc
I0403 18:19:34.950040 22078 net.cpp:91] Creating Layer loss2/fc
I0403 18:19:34.950060 22078 net.cpp:425] loss2/fc <- loss2/conv
I0403 18:19:34.950084 22078 net.cpp:399] loss2/fc -> loss2/fc
I0403 18:19:34.971940 22078 net.cpp:141] Setting up loss2/fc
I0403 18:19:34.971979 22078 net.cpp:148] Top shape: 24 1024 (24576)
I0403 18:19:34.971998 22078 net.cpp:156] Memory required for data: 1208220960
I0403 18:19:34.972021 22078 layer_factory.hpp:77] Creating layer loss2/relu_fc
I0403 18:19:34.972044 22078 net.cpp:91] Creating Layer loss2/relu_fc
I0403 18:19:34.972064 22078 net.cpp:425] loss2/relu_fc <- loss2/fc
I0403 18:19:34.972090 22078 net.cpp:386] loss2/relu_fc -> loss2/fc (in-place)
I0403 18:19:34.972450 22078 net.cpp:141] Setting up loss2/relu_fc
I0403 18:19:34.972486 22078 net.cpp:148] Top shape: 24 1024 (24576)
I0403 18:19:34.972509 22078 net.cpp:156] Memory required for data: 1208319264
I0403 18:19:34.972530 22078 layer_factory.hpp:77] Creating layer loss2/drop_fc
I0403 18:19:34.972553 22078 net.cpp:91] Creating Layer loss2/drop_fc
I0403 18:19:34.972573 22078 net.cpp:425] loss2/drop_fc <- loss2/fc
I0403 18:19:34.972601 22078 net.cpp:386] loss2/drop_fc -> loss2/fc (in-place)
I0403 18:19:34.972661 22078 net.cpp:141] Setting up loss2/drop_fc
I0403 18:19:34.972689 22078 net.cpp:148] Top shape: 24 1024 (24576)
I0403 18:19:34.972708 22078 net.cpp:156] Memory required for data: 1208417568
I0403 18:19:34.972726 22078 layer_factory.hpp:77] Creating layer loss2/classifier_plantvillage
I0403 18:19:34.972754 22078 net.cpp:91] Creating Layer loss2/classifier_plantvillage
I0403 18:19:34.972776 22078 net.cpp:425] loss2/classifier_plantvillage <- loss2/fc
I0403 18:19:34.972802 22078 net.cpp:399] loss2/classifier_plantvillage -> loss2/classifier_plantvillage
I0403 18:19:34.973292 22078 net.cpp:141] Setting up loss2/classifier_plantvillage
I0403 18:19:34.973323 22078 net.cpp:148] Top shape: 24 38 (912)
I0403 18:19:34.973361 22078 net.cpp:156] Memory required for data: 1208421216
I0403 18:19:34.973384 22078 layer_factory.hpp:77] Creating layer loss2/classifier_plantvillage_loss2/classifier_plantvillage_0_split
I0403 18:19:34.973410 22078 net.cpp:91] Creating Layer loss2/classifier_plantvillage_loss2/classifier_plantvillage_0_split
I0403 18:19:34.973433 22078 net.cpp:425] loss2/classifier_plantvillage_loss2/classifier_plantvillage_0_split <- loss2/classifier_plantvillage
I0403 18:19:34.973455 22078 net.cpp:399] loss2/classifier_plantvillage_loss2/classifier_plantvillage_0_split -> loss2/classifier_plantvillage_loss2/classifier_plantvillage_0_split_0
I0403 18:19:34.973481 22078 net.cpp:399] loss2/classifier_plantvillage_loss2/classifier_plantvillage_0_split -> loss2/classifier_plantvillage_loss2/classifier_plantvillage_0_split_1
I0403 18:19:34.973513 22078 net.cpp:399] loss2/classifier_plantvillage_loss2/classifier_plantvillage_0_split -> loss2/classifier_plantvillage_loss2/classifier_plantvillage_0_split_2
I0403 18:19:34.973613 22078 net.cpp:141] Setting up loss2/classifier_plantvillage_loss2/classifier_plantvillage_0_split
I0403 18:19:34.973641 22078 net.cpp:148] Top shape: 24 38 (912)
I0403 18:19:34.973662 22078 net.cpp:148] Top shape: 24 38 (912)
I0403 18:19:34.973681 22078 net.cpp:148] Top shape: 24 38 (912)
I0403 18:19:34.973698 22078 net.cpp:156] Memory required for data: 1208432160
I0403 18:19:34.973716 22078 layer_factory.hpp:77] Creating layer inception_4e/1x1
I0403 18:19:34.973742 22078 net.cpp:91] Creating Layer inception_4e/1x1
I0403 18:19:34.973763 22078 net.cpp:425] inception_4e/1x1 <- inception_4d/output_inception_4d/output_0_split_1
I0403 18:19:34.973789 22078 net.cpp:399] inception_4e/1x1 -> inception_4e/1x1
I0403 18:19:34.976037 22078 net.cpp:141] Setting up inception_4e/1x1
I0403 18:19:34.976073 22078 net.cpp:148] Top shape: 24 256 14 14 (1204224)
I0403 18:19:34.976092 22078 net.cpp:156] Memory required for data: 1213249056
I0403 18:19:34.976115 22078 layer_factory.hpp:77] Creating layer inception_4e/relu_1x1
I0403 18:19:34.976141 22078 net.cpp:91] Creating Layer inception_4e/relu_1x1
I0403 18:19:34.976162 22078 net.cpp:425] inception_4e/relu_1x1 <- inception_4e/1x1
I0403 18:19:34.976184 22078 net.cpp:386] inception_4e/relu_1x1 -> inception_4e/1x1 (in-place)
I0403 18:19:34.976550 22078 net.cpp:141] Setting up inception_4e/relu_1x1
I0403 18:19:34.976583 22078 net.cpp:148] Top shape: 24 256 14 14 (1204224)
I0403 18:19:34.976603 22078 net.cpp:156] Memory required for data: 1218065952
I0403 18:19:34.976621 22078 layer_factory.hpp:77] Creating layer inception_4e/3x3_reduce
I0403 18:19:34.976649 22078 net.cpp:91] Creating Layer inception_4e/3x3_reduce
I0403 18:19:34.976670 22078 net.cpp:425] inception_4e/3x3_reduce <- inception_4d/output_inception_4d/output_0_split_2
I0403 18:19:34.976697 22078 net.cpp:399] inception_4e/3x3_reduce -> inception_4e/3x3_reduce
I0403 18:19:34.979297 22078 net.cpp:141] Setting up inception_4e/3x3_reduce
I0403 18:19:34.979334 22078 net.cpp:148] Top shape: 24 160 14 14 (752640)
I0403 18:19:34.979354 22078 net.cpp:156] Memory required for data: 1221076512
I0403 18:19:34.979377 22078 layer_factory.hpp:77] Creating layer inception_4e/relu_3x3_reduce
I0403 18:19:34.979403 22078 net.cpp:91] Creating Layer inception_4e/relu_3x3_reduce
I0403 18:19:34.979423 22078 net.cpp:425] inception_4e/relu_3x3_reduce <- inception_4e/3x3_reduce
I0403 18:19:34.979445 22078 net.cpp:386] inception_4e/relu_3x3_reduce -> inception_4e/3x3_reduce (in-place)
I0403 18:19:34.979679 22078 net.cpp:141] Setting up inception_4e/relu_3x3_reduce
I0403 18:19:34.979712 22078 net.cpp:148] Top shape: 24 160 14 14 (752640)
I0403 18:19:34.979732 22078 net.cpp:156] Memory required for data: 1224087072
I0403 18:19:34.979750 22078 layer_factory.hpp:77] Creating layer inception_4e/3x3
I0403 18:19:34.979776 22078 net.cpp:91] Creating Layer inception_4e/3x3
I0403 18:19:34.979797 22078 net.cpp:425] inception_4e/3x3 <- inception_4e/3x3_reduce
I0403 18:19:34.979822 22078 net.cpp:399] inception_4e/3x3 -> inception_4e/3x3
I0403 18:19:34.986035 22078 net.cpp:141] Setting up inception_4e/3x3
I0403 18:19:34.986088 22078 net.cpp:148] Top shape: 24 320 14 14 (1505280)
I0403 18:19:34.986110 22078 net.cpp:156] Memory required for data: 1230108192
I0403 18:19:34.986134 22078 layer_factory.hpp:77] Creating layer inception_4e/relu_3x3
I0403 18:19:34.986160 22078 net.cpp:91] Creating Layer inception_4e/relu_3x3
I0403 18:19:34.986184 22078 net.cpp:425] inception_4e/relu_3x3 <- inception_4e/3x3
I0403 18:19:34.986208 22078 net.cpp:386] inception_4e/relu_3x3 -> inception_4e/3x3 (in-place)
I0403 18:19:34.986582 22078 net.cpp:141] Setting up inception_4e/relu_3x3
I0403 18:19:34.986618 22078 net.cpp:148] Top shape: 24 320 14 14 (1505280)
I0403 18:19:34.986637 22078 net.cpp:156] Memory required for data: 1236129312
I0403 18:19:34.986655 22078 layer_factory.hpp:77] Creating layer inception_4e/5x5_reduce
I0403 18:19:34.986683 22078 net.cpp:91] Creating Layer inception_4e/5x5_reduce
I0403 18:19:34.986706 22078 net.cpp:425] inception_4e/5x5_reduce <- inception_4d/output_inception_4d/output_0_split_3
I0403 18:19:34.986731 22078 net.cpp:399] inception_4e/5x5_reduce -> inception_4e/5x5_reduce
I0403 18:19:34.988045 22078 net.cpp:141] Setting up inception_4e/5x5_reduce
I0403 18:19:34.988080 22078 net.cpp:148] Top shape: 24 32 14 14 (150528)
I0403 18:19:34.988098 22078 net.cpp:156] Memory required for data: 1236731424
I0403 18:19:34.988121 22078 layer_factory.hpp:77] Creating layer inception_4e/relu_5x5_reduce
I0403 18:19:34.988142 22078 net.cpp:91] Creating Layer inception_4e/relu_5x5_reduce
I0403 18:19:34.988162 22078 net.cpp:425] inception_4e/relu_5x5_reduce <- inception_4e/5x5_reduce
I0403 18:19:34.988186 22078 net.cpp:386] inception_4e/relu_5x5_reduce -> inception_4e/5x5_reduce (in-place)
I0403 18:19:34.988554 22078 net.cpp:141] Setting up inception_4e/relu_5x5_reduce
I0403 18:19:34.988586 22078 net.cpp:148] Top shape: 24 32 14 14 (150528)
I0403 18:19:34.988605 22078 net.cpp:156] Memory required for data: 1237333536
I0403 18:19:34.988622 22078 layer_factory.hpp:77] Creating layer inception_4e/5x5
I0403 18:19:34.988667 22078 net.cpp:91] Creating Layer inception_4e/5x5
I0403 18:19:34.988690 22078 net.cpp:425] inception_4e/5x5 <- inception_4e/5x5_reduce
I0403 18:19:34.988713 22078 net.cpp:399] inception_4e/5x5 -> inception_4e/5x5
I0403 18:19:34.990972 22078 net.cpp:141] Setting up inception_4e/5x5
I0403 18:19:34.991005 22078 net.cpp:148] Top shape: 24 128 14 14 (602112)
I0403 18:19:34.991025 22078 net.cpp:156] Memory required for data: 1239741984
I0403 18:19:34.991047 22078 layer_factory.hpp:77] Creating layer inception_4e/relu_5x5
I0403 18:19:34.991070 22078 net.cpp:91] Creating Layer inception_4e/relu_5x5
I0403 18:19:34.991088 22078 net.cpp:425] inception_4e/relu_5x5 <- inception_4e/5x5
I0403 18:19:34.991112 22078 net.cpp:386] inception_4e/relu_5x5 -> inception_4e/5x5 (in-place)
I0403 18:19:34.991355 22078 net.cpp:141] Setting up inception_4e/relu_5x5
I0403 18:19:34.991386 22078 net.cpp:148] Top shape: 24 128 14 14 (602112)
I0403 18:19:34.991405 22078 net.cpp:156] Memory required for data: 1242150432
I0403 18:19:34.991421 22078 layer_factory.hpp:77] Creating layer inception_4e/pool
I0403 18:19:34.991446 22078 net.cpp:91] Creating Layer inception_4e/pool
I0403 18:19:34.991466 22078 net.cpp:425] inception_4e/pool <- inception_4d/output_inception_4d/output_0_split_4
I0403 18:19:34.991488 22078 net.cpp:399] inception_4e/pool -> inception_4e/pool
I0403 18:19:34.991578 22078 net.cpp:141] Setting up inception_4e/pool
I0403 18:19:34.991608 22078 net.cpp:148] Top shape: 24 528 14 14 (2483712)
I0403 18:19:34.991626 22078 net.cpp:156] Memory required for data: 1252085280
I0403 18:19:34.991644 22078 layer_factory.hpp:77] Creating layer inception_4e/pool_proj
I0403 18:19:34.991670 22078 net.cpp:91] Creating Layer inception_4e/pool_proj
I0403 18:19:34.991691 22078 net.cpp:425] inception_4e/pool_proj <- inception_4e/pool
I0403 18:19:34.991717 22078 net.cpp:399] inception_4e/pool_proj -> inception_4e/pool_proj
I0403 18:19:34.994215 22078 net.cpp:141] Setting up inception_4e/pool_proj
I0403 18:19:34.994273 22078 net.cpp:148] Top shape: 24 128 14 14 (602112)
I0403 18:19:34.994297 22078 net.cpp:156] Memory required for data: 1254493728
I0403 18:19:34.994321 22078 layer_factory.hpp:77] Creating layer inception_4e/relu_pool_proj
I0403 18:19:34.994343 22078 net.cpp:91] Creating Layer inception_4e/relu_pool_proj
I0403 18:19:34.994364 22078 net.cpp:425] inception_4e/relu_pool_proj <- inception_4e/pool_proj
I0403 18:19:34.994387 22078 net.cpp:386] inception_4e/relu_pool_proj -> inception_4e/pool_proj (in-place)
I0403 18:19:34.994766 22078 net.cpp:141] Setting up inception_4e/relu_pool_proj
I0403 18:19:34.994802 22078 net.cpp:148] Top shape: 24 128 14 14 (602112)
I0403 18:19:34.994822 22078 net.cpp:156] Memory required for data: 1256902176
I0403 18:19:34.994839 22078 layer_factory.hpp:77] Creating layer inception_4e/output
I0403 18:19:34.994860 22078 net.cpp:91] Creating Layer inception_4e/output
I0403 18:19:34.994879 22078 net.cpp:425] inception_4e/output <- inception_4e/1x1
I0403 18:19:34.994900 22078 net.cpp:425] inception_4e/output <- inception_4e/3x3
I0403 18:19:34.994920 22078 net.cpp:425] inception_4e/output <- inception_4e/5x5
I0403 18:19:34.994940 22078 net.cpp:425] inception_4e/output <- inception_4e/pool_proj
I0403 18:19:34.994959 22078 net.cpp:399] inception_4e/output -> inception_4e/output
I0403 18:19:34.995023 22078 net.cpp:141] Setting up inception_4e/output
I0403 18:19:34.995051 22078 net.cpp:148] Top shape: 24 832 14 14 (3913728)
I0403 18:19:34.995069 22078 net.cpp:156] Memory required for data: 1272557088
I0403 18:19:34.995087 22078 layer_factory.hpp:77] Creating layer pool4/3x3_s2
I0403 18:19:34.995111 22078 net.cpp:91] Creating Layer pool4/3x3_s2
I0403 18:19:34.995131 22078 net.cpp:425] pool4/3x3_s2 <- inception_4e/output
I0403 18:19:34.995153 22078 net.cpp:399] pool4/3x3_s2 -> pool4/3x3_s2
I0403 18:19:34.995235 22078 net.cpp:141] Setting up pool4/3x3_s2
I0403 18:19:34.995265 22078 net.cpp:148] Top shape: 24 832 7 7 (978432)
I0403 18:19:34.995282 22078 net.cpp:156] Memory required for data: 1276470816
I0403 18:19:34.995301 22078 layer_factory.hpp:77] Creating layer pool4/3x3_s2_pool4/3x3_s2_0_split
I0403 18:19:34.995321 22078 net.cpp:91] Creating Layer pool4/3x3_s2_pool4/3x3_s2_0_split
I0403 18:19:34.995339 22078 net.cpp:425] pool4/3x3_s2_pool4/3x3_s2_0_split <- pool4/3x3_s2
I0403 18:19:34.995368 22078 net.cpp:399] pool4/3x3_s2_pool4/3x3_s2_0_split -> pool4/3x3_s2_pool4/3x3_s2_0_split_0
I0403 18:19:34.995394 22078 net.cpp:399] pool4/3x3_s2_pool4/3x3_s2_0_split -> pool4/3x3_s2_pool4/3x3_s2_0_split_1
I0403 18:19:34.995419 22078 net.cpp:399] pool4/3x3_s2_pool4/3x3_s2_0_split -> pool4/3x3_s2_pool4/3x3_s2_0_split_2
I0403 18:19:34.995442 22078 net.cpp:399] pool4/3x3_s2_pool4/3x3_s2_0_split -> pool4/3x3_s2_pool4/3x3_s2_0_split_3
I0403 18:19:34.995560 22078 net.cpp:141] Setting up pool4/3x3_s2_pool4/3x3_s2_0_split
I0403 18:19:34.995592 22078 net.cpp:148] Top shape: 24 832 7 7 (978432)
I0403 18:19:34.995615 22078 net.cpp:148] Top shape: 24 832 7 7 (978432)
I0403 18:19:34.995633 22078 net.cpp:148] Top shape: 24 832 7 7 (978432)
I0403 18:19:34.995652 22078 net.cpp:148] Top shape: 24 832 7 7 (978432)
I0403 18:19:34.995669 22078 net.cpp:156] Memory required for data: 1292125728
I0403 18:19:34.995687 22078 layer_factory.hpp:77] Creating layer inception_5a/1x1
I0403 18:19:34.995714 22078 net.cpp:91] Creating Layer inception_5a/1x1
I0403 18:19:34.995735 22078 net.cpp:425] inception_5a/1x1 <- pool4/3x3_s2_pool4/3x3_s2_0_split_0
I0403 18:19:34.995759 22078 net.cpp:399] inception_5a/1x1 -> inception_5a/1x1
I0403 18:19:34.999297 22078 net.cpp:141] Setting up inception_5a/1x1
I0403 18:19:34.999336 22078 net.cpp:148] Top shape: 24 256 7 7 (301056)
I0403 18:19:34.999354 22078 net.cpp:156] Memory required for data: 1293329952
I0403 18:19:34.999377 22078 layer_factory.hpp:77] Creating layer inception_5a/relu_1x1
I0403 18:19:34.999398 22078 net.cpp:91] Creating Layer inception_5a/relu_1x1
I0403 18:19:34.999418 22078 net.cpp:425] inception_5a/relu_1x1 <- inception_5a/1x1
I0403 18:19:34.999442 22078 net.cpp:386] inception_5a/relu_1x1 -> inception_5a/1x1 (in-place)
I0403 18:19:34.999827 22078 net.cpp:141] Setting up inception_5a/relu_1x1
I0403 18:19:34.999861 22078 net.cpp:148] Top shape: 24 256 7 7 (301056)
I0403 18:19:34.999879 22078 net.cpp:156] Memory required for data: 1294534176
I0403 18:19:34.999897 22078 layer_factory.hpp:77] Creating layer inception_5a/3x3_reduce
I0403 18:19:34.999924 22078 net.cpp:91] Creating Layer inception_5a/3x3_reduce
I0403 18:19:34.999945 22078 net.cpp:425] inception_5a/3x3_reduce <- pool4/3x3_s2_pool4/3x3_s2_0_split_1
I0403 18:19:34.999971 22078 net.cpp:399] inception_5a/3x3_reduce -> inception_5a/3x3_reduce
I0403 18:19:35.002995 22078 net.cpp:141] Setting up inception_5a/3x3_reduce
I0403 18:19:35.003036 22078 net.cpp:148] Top shape: 24 160 7 7 (188160)
I0403 18:19:35.003057 22078 net.cpp:156] Memory required for data: 1295286816
I0403 18:19:35.003078 22078 layer_factory.hpp:77] Creating layer inception_5a/relu_3x3_reduce
I0403 18:19:35.003101 22078 net.cpp:91] Creating Layer inception_5a/relu_3x3_reduce
I0403 18:19:35.003120 22078 net.cpp:425] inception_5a/relu_3x3_reduce <- inception_5a/3x3_reduce
I0403 18:19:35.003142 22078 net.cpp:386] inception_5a/relu_3x3_reduce -> inception_5a/3x3_reduce (in-place)
I0403 18:19:35.003373 22078 net.cpp:141] Setting up inception_5a/relu_3x3_reduce
I0403 18:19:35.003407 22078 net.cpp:148] Top shape: 24 160 7 7 (188160)
I0403 18:19:35.003425 22078 net.cpp:156] Memory required for data: 1296039456
I0403 18:19:35.003443 22078 layer_factory.hpp:77] Creating layer inception_5a/3x3
I0403 18:19:35.003469 22078 net.cpp:91] Creating Layer inception_5a/3x3
I0403 18:19:35.003490 22078 net.cpp:425] inception_5a/3x3 <- inception_5a/3x3_reduce
I0403 18:19:35.003522 22078 net.cpp:399] inception_5a/3x3 -> inception_5a/3x3
I0403 18:19:35.009785 22078 net.cpp:141] Setting up inception_5a/3x3
I0403 18:19:35.009824 22078 net.cpp:148] Top shape: 24 320 7 7 (376320)
I0403 18:19:35.009842 22078 net.cpp:156] Memory required for data: 1297544736
I0403 18:19:35.009865 22078 layer_factory.hpp:77] Creating layer inception_5a/relu_3x3
I0403 18:19:35.009887 22078 net.cpp:91] Creating Layer inception_5a/relu_3x3
I0403 18:19:35.009907 22078 net.cpp:425] inception_5a/relu_3x3 <- inception_5a/3x3
I0403 18:19:35.009930 22078 net.cpp:386] inception_5a/relu_3x3 -> inception_5a/3x3 (in-place)
I0403 18:19:35.010298 22078 net.cpp:141] Setting up inception_5a/relu_3x3
I0403 18:19:35.010330 22078 net.cpp:148] Top shape: 24 320 7 7 (376320)
I0403 18:19:35.010349 22078 net.cpp:156] Memory required for data: 1299050016
I0403 18:19:35.010366 22078 layer_factory.hpp:77] Creating layer inception_5a/5x5_reduce
I0403 18:19:35.010393 22078 net.cpp:91] Creating Layer inception_5a/5x5_reduce
I0403 18:19:35.010414 22078 net.cpp:425] inception_5a/5x5_reduce <- pool4/3x3_s2_pool4/3x3_s2_0_split_2
I0403 18:19:35.010440 22078 net.cpp:399] inception_5a/5x5_reduce -> inception_5a/5x5_reduce
I0403 18:19:35.011883 22078 net.cpp:141] Setting up inception_5a/5x5_reduce
I0403 18:19:35.011921 22078 net.cpp:148] Top shape: 24 32 7 7 (37632)
I0403 18:19:35.011941 22078 net.cpp:156] Memory required for data: 1299200544
I0403 18:19:35.011965 22078 layer_factory.hpp:77] Creating layer inception_5a/relu_5x5_reduce
I0403 18:19:35.011989 22078 net.cpp:91] Creating Layer inception_5a/relu_5x5_reduce
I0403 18:19:35.012009 22078 net.cpp:425] inception_5a/relu_5x5_reduce <- inception_5a/5x5_reduce
I0403 18:19:35.012030 22078 net.cpp:386] inception_5a/relu_5x5_reduce -> inception_5a/5x5_reduce (in-place)
I0403 18:19:35.012392 22078 net.cpp:141] Setting up inception_5a/relu_5x5_reduce
I0403 18:19:35.012425 22078 net.cpp:148] Top shape: 24 32 7 7 (37632)
I0403 18:19:35.012444 22078 net.cpp:156] Memory required for data: 1299351072
I0403 18:19:35.012462 22078 layer_factory.hpp:77] Creating layer inception_5a/5x5
I0403 18:19:35.012488 22078 net.cpp:91] Creating Layer inception_5a/5x5
I0403 18:19:35.012514 22078 net.cpp:425] inception_5a/5x5 <- inception_5a/5x5_reduce
I0403 18:19:35.012547 22078 net.cpp:399] inception_5a/5x5 -> inception_5a/5x5
I0403 18:19:35.014667 22078 net.cpp:141] Setting up inception_5a/5x5
I0403 18:19:35.014715 22078 net.cpp:148] Top shape: 24 128 7 7 (150528)
I0403 18:19:35.014735 22078 net.cpp:156] Memory required for data: 1299953184
I0403 18:19:35.014757 22078 layer_factory.hpp:77] Creating layer inception_5a/relu_5x5
I0403 18:19:35.014780 22078 net.cpp:91] Creating Layer inception_5a/relu_5x5
I0403 18:19:35.014799 22078 net.cpp:425] inception_5a/relu_5x5 <- inception_5a/5x5
I0403 18:19:35.014823 22078 net.cpp:386] inception_5a/relu_5x5 -> inception_5a/5x5 (in-place)
I0403 18:19:35.015059 22078 net.cpp:141] Setting up inception_5a/relu_5x5
I0403 18:19:35.015090 22078 net.cpp:148] Top shape: 24 128 7 7 (150528)
I0403 18:19:35.015108 22078 net.cpp:156] Memory required for data: 1300555296
I0403 18:19:35.015126 22078 layer_factory.hpp:77] Creating layer inception_5a/pool
I0403 18:19:35.015151 22078 net.cpp:91] Creating Layer inception_5a/pool
I0403 18:19:35.015171 22078 net.cpp:425] inception_5a/pool <- pool4/3x3_s2_pool4/3x3_s2_0_split_3
I0403 18:19:35.015192 22078 net.cpp:399] inception_5a/pool -> inception_5a/pool
I0403 18:19:35.015280 22078 net.cpp:141] Setting up inception_5a/pool
I0403 18:19:35.015311 22078 net.cpp:148] Top shape: 24 832 7 7 (978432)
I0403 18:19:35.015328 22078 net.cpp:156] Memory required for data: 1304469024
I0403 18:19:35.015344 22078 layer_factory.hpp:77] Creating layer inception_5a/pool_proj
I0403 18:19:35.015372 22078 net.cpp:91] Creating Layer inception_5a/pool_proj
I0403 18:19:35.015393 22078 net.cpp:425] inception_5a/pool_proj <- inception_5a/pool
I0403 18:19:35.015418 22078 net.cpp:399] inception_5a/pool_proj -> inception_5a/pool_proj
I0403 18:19:35.018220 22078 net.cpp:141] Setting up inception_5a/pool_proj
I0403 18:19:35.018259 22078 net.cpp:148] Top shape: 24 128 7 7 (150528)
I0403 18:19:35.018280 22078 net.cpp:156] Memory required for data: 1305071136
I0403 18:19:35.018303 22078 layer_factory.hpp:77] Creating layer inception_5a/relu_pool_proj
I0403 18:19:35.018326 22078 net.cpp:91] Creating Layer inception_5a/relu_pool_proj
I0403 18:19:35.018345 22078 net.cpp:425] inception_5a/relu_pool_proj <- inception_5a/pool_proj
I0403 18:19:35.018369 22078 net.cpp:386] inception_5a/relu_pool_proj -> inception_5a/pool_proj (in-place)
I0403 18:19:35.018735 22078 net.cpp:141] Setting up inception_5a/relu_pool_proj
I0403 18:19:35.018769 22078 net.cpp:148] Top shape: 24 128 7 7 (150528)
I0403 18:19:35.018790 22078 net.cpp:156] Memory required for data: 1305673248
I0403 18:19:35.018807 22078 layer_factory.hpp:77] Creating layer inception_5a/output
I0403 18:19:35.018828 22078 net.cpp:91] Creating Layer inception_5a/output
I0403 18:19:35.018847 22078 net.cpp:425] inception_5a/output <- inception_5a/1x1
I0403 18:19:35.018868 22078 net.cpp:425] inception_5a/output <- inception_5a/3x3
I0403 18:19:35.018889 22078 net.cpp:425] inception_5a/output <- inception_5a/5x5
I0403 18:19:35.018908 22078 net.cpp:425] inception_5a/output <- inception_5a/pool_proj
I0403 18:19:35.018932 22078 net.cpp:399] inception_5a/output -> inception_5a/output
I0403 18:19:35.018993 22078 net.cpp:141] Setting up inception_5a/output
I0403 18:19:35.019021 22078 net.cpp:148] Top shape: 24 832 7 7 (978432)
I0403 18:19:35.019039 22078 net.cpp:156] Memory required for data: 1309586976
I0403 18:19:35.019057 22078 layer_factory.hpp:77] Creating layer inception_5a/output_inception_5a/output_0_split
I0403 18:19:35.019080 22078 net.cpp:91] Creating Layer inception_5a/output_inception_5a/output_0_split
I0403 18:19:35.019103 22078 net.cpp:425] inception_5a/output_inception_5a/output_0_split <- inception_5a/output
I0403 18:19:35.019124 22078 net.cpp:399] inception_5a/output_inception_5a/output_0_split -> inception_5a/output_inception_5a/output_0_split_0
I0403 18:19:35.019148 22078 net.cpp:399] inception_5a/output_inception_5a/output_0_split -> inception_5a/output_inception_5a/output_0_split_1
I0403 18:19:35.019172 22078 net.cpp:399] inception_5a/output_inception_5a/output_0_split -> inception_5a/output_inception_5a/output_0_split_2
I0403 18:19:35.019201 22078 net.cpp:399] inception_5a/output_inception_5a/output_0_split -> inception_5a/output_inception_5a/output_0_split_3
I0403 18:19:35.019337 22078 net.cpp:141] Setting up inception_5a/output_inception_5a/output_0_split
I0403 18:19:35.019366 22078 net.cpp:148] Top shape: 24 832 7 7 (978432)
I0403 18:19:35.019386 22078 net.cpp:148] Top shape: 24 832 7 7 (978432)
I0403 18:19:35.019404 22078 net.cpp:148] Top shape: 24 832 7 7 (978432)
I0403 18:19:35.019423 22078 net.cpp:148] Top shape: 24 832 7 7 (978432)
I0403 18:19:35.019439 22078 net.cpp:156] Memory required for data: 1325241888
I0403 18:19:35.019456 22078 layer_factory.hpp:77] Creating layer inception_5b/1x1
I0403 18:19:35.019484 22078 net.cpp:91] Creating Layer inception_5b/1x1
I0403 18:19:35.019508 22078 net.cpp:425] inception_5b/1x1 <- inception_5a/output_inception_5a/output_0_split_0
I0403 18:19:35.019536 22078 net.cpp:399] inception_5b/1x1 -> inception_5b/1x1
I0403 18:19:35.024179 22078 net.cpp:141] Setting up inception_5b/1x1
I0403 18:19:35.024219 22078 net.cpp:148] Top shape: 24 384 7 7 (451584)
I0403 18:19:35.024240 22078 net.cpp:156] Memory required for data: 1327048224
I0403 18:19:35.024260 22078 layer_factory.hpp:77] Creating layer inception_5b/relu_1x1
I0403 18:19:35.024282 22078 net.cpp:91] Creating Layer inception_5b/relu_1x1
I0403 18:19:35.024303 22078 net.cpp:425] inception_5b/relu_1x1 <- inception_5b/1x1
I0403 18:19:35.024324 22078 net.cpp:386] inception_5b/relu_1x1 -> inception_5b/1x1 (in-place)
I0403 18:19:35.024718 22078 net.cpp:141] Setting up inception_5b/relu_1x1
I0403 18:19:35.024755 22078 net.cpp:148] Top shape: 24 384 7 7 (451584)
I0403 18:19:35.024775 22078 net.cpp:156] Memory required for data: 1328854560
I0403 18:19:35.024793 22078 layer_factory.hpp:77] Creating layer inception_5b/3x3_reduce
I0403 18:19:35.024821 22078 net.cpp:91] Creating Layer inception_5b/3x3_reduce
I0403 18:19:35.024842 22078 net.cpp:425] inception_5b/3x3_reduce <- inception_5a/output_inception_5a/output_0_split_1
I0403 18:19:35.024864 22078 net.cpp:399] inception_5b/3x3_reduce -> inception_5b/3x3_reduce
I0403 18:19:35.028146 22078 net.cpp:141] Setting up inception_5b/3x3_reduce
I0403 18:19:35.028183 22078 net.cpp:148] Top shape: 24 192 7 7 (225792)
I0403 18:19:35.028204 22078 net.cpp:156] Memory required for data: 1329757728
I0403 18:19:35.028226 22078 layer_factory.hpp:77] Creating layer inception_5b/relu_3x3_reduce
I0403 18:19:35.028249 22078 net.cpp:91] Creating Layer inception_5b/relu_3x3_reduce
I0403 18:19:35.028269 22078 net.cpp:425] inception_5b/relu_3x3_reduce <- inception_5b/3x3_reduce
I0403 18:19:35.028292 22078 net.cpp:386] inception_5b/relu_3x3_reduce -> inception_5b/3x3_reduce (in-place)
I0403 18:19:35.028533 22078 net.cpp:141] Setting up inception_5b/relu_3x3_reduce
I0403 18:19:35.028564 22078 net.cpp:148] Top shape: 24 192 7 7 (225792)
I0403 18:19:35.028583 22078 net.cpp:156] Memory required for data: 1330660896
I0403 18:19:35.028600 22078 layer_factory.hpp:77] Creating layer inception_5b/3x3
I0403 18:19:35.028626 22078 net.cpp:91] Creating Layer inception_5b/3x3
I0403 18:19:35.028648 22078 net.cpp:425] inception_5b/3x3 <- inception_5b/3x3_reduce
I0403 18:19:35.028676 22078 net.cpp:399] inception_5b/3x3 -> inception_5b/3x3
I0403 18:19:35.037025 22078 net.cpp:141] Setting up inception_5b/3x3
I0403 18:19:35.037063 22078 net.cpp:148] Top shape: 24 384 7 7 (451584)
I0403 18:19:35.037084 22078 net.cpp:156] Memory required for data: 1332467232
I0403 18:19:35.037107 22078 layer_factory.hpp:77] Creating layer inception_5b/relu_3x3
I0403 18:19:35.037129 22078 net.cpp:91] Creating Layer inception_5b/relu_3x3
I0403 18:19:35.037148 22078 net.cpp:425] inception_5b/relu_3x3 <- inception_5b/3x3
I0403 18:19:35.037173 22078 net.cpp:386] inception_5b/relu_3x3 -> inception_5b/3x3 (in-place)
I0403 18:19:35.037536 22078 net.cpp:141] Setting up inception_5b/relu_3x3
I0403 18:19:35.037570 22078 net.cpp:148] Top shape: 24 384 7 7 (451584)
I0403 18:19:35.037590 22078 net.cpp:156] Memory required for data: 1334273568
I0403 18:19:35.037608 22078 layer_factory.hpp:77] Creating layer inception_5b/5x5_reduce
I0403 18:19:35.037659 22078 net.cpp:91] Creating Layer inception_5b/5x5_reduce
I0403 18:19:35.037683 22078 net.cpp:425] inception_5b/5x5_reduce <- inception_5a/output_inception_5a/output_0_split_2
I0403 18:19:35.037706 22078 net.cpp:399] inception_5b/5x5_reduce -> inception_5b/5x5_reduce
I0403 18:19:35.039274 22078 net.cpp:141] Setting up inception_5b/5x5_reduce
I0403 18:19:35.039316 22078 net.cpp:148] Top shape: 24 48 7 7 (56448)
I0403 18:19:35.039336 22078 net.cpp:156] Memory required for data: 1334499360
I0403 18:19:35.039358 22078 layer_factory.hpp:77] Creating layer inception_5b/relu_5x5_reduce
I0403 18:19:35.039381 22078 net.cpp:91] Creating Layer inception_5b/relu_5x5_reduce
I0403 18:19:35.039402 22078 net.cpp:425] inception_5b/relu_5x5_reduce <- inception_5b/5x5_reduce
I0403 18:19:35.039422 22078 net.cpp:386] inception_5b/relu_5x5_reduce -> inception_5b/5x5_reduce (in-place)
I0403 18:19:35.039885 22078 net.cpp:141] Setting up inception_5b/relu_5x5_reduce
I0403 18:19:35.039917 22078 net.cpp:148] Top shape: 24 48 7 7 (56448)
I0403 18:19:35.039937 22078 net.cpp:156] Memory required for data: 1334725152
I0403 18:19:35.039954 22078 layer_factory.hpp:77] Creating layer inception_5b/5x5
I0403 18:19:35.039978 22078 net.cpp:91] Creating Layer inception_5b/5x5
I0403 18:19:35.039999 22078 net.cpp:425] inception_5b/5x5 <- inception_5b/5x5_reduce
I0403 18:19:35.040021 22078 net.cpp:399] inception_5b/5x5 -> inception_5b/5x5
I0403 18:19:35.042572 22078 net.cpp:141] Setting up inception_5b/5x5
I0403 18:19:35.042608 22078 net.cpp:148] Top shape: 24 128 7 7 (150528)
I0403 18:19:35.042625 22078 net.cpp:156] Memory required for data: 1335327264
I0403 18:19:35.042647 22078 layer_factory.hpp:77] Creating layer inception_5b/relu_5x5
I0403 18:19:35.042670 22078 net.cpp:91] Creating Layer inception_5b/relu_5x5
I0403 18:19:35.042690 22078 net.cpp:425] inception_5b/relu_5x5 <- inception_5b/5x5
I0403 18:19:35.042714 22078 net.cpp:386] inception_5b/relu_5x5 -> inception_5b/5x5 (in-place)
I0403 18:19:35.042958 22078 net.cpp:141] Setting up inception_5b/relu_5x5
I0403 18:19:35.042989 22078 net.cpp:148] Top shape: 24 128 7 7 (150528)
I0403 18:19:35.043006 22078 net.cpp:156] Memory required for data: 1335929376
I0403 18:19:35.043023 22078 layer_factory.hpp:77] Creating layer inception_5b/pool
I0403 18:19:35.043048 22078 net.cpp:91] Creating Layer inception_5b/pool
I0403 18:19:35.043068 22078 net.cpp:425] inception_5b/pool <- inception_5a/output_inception_5a/output_0_split_3
I0403 18:19:35.043092 22078 net.cpp:399] inception_5b/pool -> inception_5b/pool
I0403 18:19:35.043181 22078 net.cpp:141] Setting up inception_5b/pool
I0403 18:19:35.043210 22078 net.cpp:148] Top shape: 24 832 7 7 (978432)
I0403 18:19:35.043227 22078 net.cpp:156] Memory required for data: 1339843104
I0403 18:19:35.043244 22078 layer_factory.hpp:77] Creating layer inception_5b/pool_proj
I0403 18:19:35.043272 22078 net.cpp:91] Creating Layer inception_5b/pool_proj
I0403 18:19:35.043293 22078 net.cpp:425] inception_5b/pool_proj <- inception_5b/pool
I0403 18:19:35.043318 22078 net.cpp:399] inception_5b/pool_proj -> inception_5b/pool_proj
I0403 18:19:35.046170 22078 net.cpp:141] Setting up inception_5b/pool_proj
I0403 18:19:35.046210 22078 net.cpp:148] Top shape: 24 128 7 7 (150528)
I0403 18:19:35.046228 22078 net.cpp:156] Memory required for data: 1340445216
I0403 18:19:35.046250 22078 layer_factory.hpp:77] Creating layer inception_5b/relu_pool_proj
I0403 18:19:35.046273 22078 net.cpp:91] Creating Layer inception_5b/relu_pool_proj
I0403 18:19:35.046294 22078 net.cpp:425] inception_5b/relu_pool_proj <- inception_5b/pool_proj
I0403 18:19:35.046317 22078 net.cpp:386] inception_5b/relu_pool_proj -> inception_5b/pool_proj (in-place)
I0403 18:19:35.046690 22078 net.cpp:141] Setting up inception_5b/relu_pool_proj
I0403 18:19:35.046725 22078 net.cpp:148] Top shape: 24 128 7 7 (150528)
I0403 18:19:35.046743 22078 net.cpp:156] Memory required for data: 1341047328
I0403 18:19:35.046761 22078 layer_factory.hpp:77] Creating layer inception_5b/output
I0403 18:19:35.046782 22078 net.cpp:91] Creating Layer inception_5b/output
I0403 18:19:35.046819 22078 net.cpp:425] inception_5b/output <- inception_5b/1x1
I0403 18:19:35.046841 22078 net.cpp:425] inception_5b/output <- inception_5b/3x3
I0403 18:19:35.046861 22078 net.cpp:425] inception_5b/output <- inception_5b/5x5
I0403 18:19:35.046881 22078 net.cpp:425] inception_5b/output <- inception_5b/pool_proj
I0403 18:19:35.046905 22078 net.cpp:399] inception_5b/output -> inception_5b/output
I0403 18:19:35.046969 22078 net.cpp:141] Setting up inception_5b/output
I0403 18:19:35.046998 22078 net.cpp:148] Top shape: 24 1024 7 7 (1204224)
I0403 18:19:35.047015 22078 net.cpp:156] Memory required for data: 1345864224
I0403 18:19:35.047034 22078 layer_factory.hpp:77] Creating layer pool5/7x7_s1
I0403 18:19:35.047057 22078 net.cpp:91] Creating Layer pool5/7x7_s1
I0403 18:19:35.047077 22078 net.cpp:425] pool5/7x7_s1 <- inception_5b/output
I0403 18:19:35.047098 22078 net.cpp:399] pool5/7x7_s1 -> pool5/7x7_s1
I0403 18:19:35.047369 22078 net.cpp:141] Setting up pool5/7x7_s1
I0403 18:19:35.047399 22078 net.cpp:148] Top shape: 24 1024 1 1 (24576)
I0403 18:19:35.047417 22078 net.cpp:156] Memory required for data: 1345962528
I0403 18:19:35.047435 22078 layer_factory.hpp:77] Creating layer pool5/drop_7x7_s1
I0403 18:19:35.047456 22078 net.cpp:91] Creating Layer pool5/drop_7x7_s1
I0403 18:19:35.047474 22078 net.cpp:425] pool5/drop_7x7_s1 <- pool5/7x7_s1
I0403 18:19:35.047498 22078 net.cpp:386] pool5/drop_7x7_s1 -> pool5/7x7_s1 (in-place)
I0403 18:19:35.047580 22078 net.cpp:141] Setting up pool5/drop_7x7_s1
I0403 18:19:35.047611 22078 net.cpp:148] Top shape: 24 1024 1 1 (24576)
I0403 18:19:35.047631 22078 net.cpp:156] Memory required for data: 1346060832
I0403 18:19:35.047647 22078 layer_factory.hpp:77] Creating layer loss3/classifier_plantvillage
I0403 18:19:35.047670 22078 net.cpp:91] Creating Layer loss3/classifier_plantvillage
I0403 18:19:35.047689 22078 net.cpp:425] loss3/classifier_plantvillage <- pool5/7x7_s1
I0403 18:19:35.047713 22078 net.cpp:399] loss3/classifier_plantvillage -> loss3/classifier_plantvillage
I0403 18:19:35.048236 22078 net.cpp:141] Setting up loss3/classifier_plantvillage
I0403 18:19:35.048266 22078 net.cpp:148] Top shape: 24 38 (912)
I0403 18:19:35.048285 22078 net.cpp:156] Memory required for data: 1346064480
I0403 18:19:35.048306 22078 layer_factory.hpp:77] Creating layer loss3/classifier_plantvillage_loss3/classifier_plantvillage_0_split
I0403 18:19:35.048332 22078 net.cpp:91] Creating Layer loss3/classifier_plantvillage_loss3/classifier_plantvillage_0_split
I0403 18:19:35.048352 22078 net.cpp:425] loss3/classifier_plantvillage_loss3/classifier_plantvillage_0_split <- loss3/classifier_plantvillage
I0403 18:19:35.048373 22078 net.cpp:399] loss3/classifier_plantvillage_loss3/classifier_plantvillage_0_split -> loss3/classifier_plantvillage_loss3/classifier_plantvillage_0_split_0
I0403 18:19:35.048398 22078 net.cpp:399] loss3/classifier_plantvillage_loss3/classifier_plantvillage_0_split -> loss3/classifier_plantvillage_loss3/classifier_plantvillage_0_split_1
I0403 18:19:35.048425 22078 net.cpp:399] loss3/classifier_plantvillage_loss3/classifier_plantvillage_0_split -> loss3/classifier_plantvillage_loss3/classifier_plantvillage_0_split_2
I0403 18:19:35.048451 22078 net.cpp:399] loss3/classifier_plantvillage_loss3/classifier_plantvillage_0_split -> loss3/classifier_plantvillage_loss3/classifier_plantvillage_0_split_3
I0403 18:19:35.048583 22078 net.cpp:141] Setting up loss3/classifier_plantvillage_loss3/classifier_plantvillage_0_split
I0403 18:19:35.048611 22078 net.cpp:148] Top shape: 24 38 (912)
I0403 18:19:35.048631 22078 net.cpp:148] Top shape: 24 38 (912)
I0403 18:19:35.048650 22078 net.cpp:148] Top shape: 24 38 (912)
I0403 18:19:35.048667 22078 net.cpp:148] Top shape: 24 38 (912)
I0403 18:19:35.048683 22078 net.cpp:156] Memory required for data: 1346079072
I0403 18:19:35.048701 22078 layer_factory.hpp:77] Creating layer loss1/loss
I0403 18:19:35.048727 22078 net.cpp:91] Creating Layer loss1/loss
I0403 18:19:35.048746 22078 net.cpp:425] loss1/loss <- loss1/classifier_plantvillage_loss1/classifier_plantvillage_0_split_0
I0403 18:19:35.048784 22078 net.cpp:425] loss1/loss <- label_data_1_split_0
…
