…
I0403 18:50:22.430795 23556 net.cpp:313] The NetState phase (1) differed from the phase (0) specified by a rule in layer data
I0403 18:50:22.431963 23556 net.cpp:49] Initializing net from parameters: 
state {
  phase: TEST
}
layer {
  name: "data"
  type: "Data"
  top: "data"
  top: "label"
  include {
    phase: TEST
  }
  transform_param {
    mirror: false
    crop_size: 224
    mean_file: "/home/mohanty/data/final_dataset/lmdb/segmented-40-60/mean.binaryproto"
  }
  data_param {
    source: "/home/mohanty/data/final_dataset/lmdb/segmented-40-60/test_db"
    batch_size: 24
    backend: LMDB
  }
}
layer {
  name: "conv1/7x7_s2"
  type: "Convolution"
  bottom: "data"
  top: "conv1/7x7_s2"
  param {
    lr_mult: 1
    decay_mult: 1
  }
  param {
    lr_mult: 2
    decay_mult: 0
  }
  convolution_param {
    num_output: 64
    pad: 3
    kernel_size: 7
    stride: 2
    weight_filler {
      type: "xavier"
      std: 0.1
    }
    bias_filler {
      type: "constant"
      value: 0.2
    }
  }
}
layer {
  name: "conv1/relu_7x7"
  type: "ReLU"
  bottom: "conv1/7x7_s2"
  top: "conv1/7x7_s2"
}
layer {
  name: "pool1/3x3_s2"
  type: "Pooling"
  bottom: "conv1/7x7_s2"
  top: "pool1/3x3_s2"
  pooling_param {
    pool: MAX
    kernel_size: 3
    stride: 2
  }
}
layer {
  name: "pool1/norm1"
  type: "LRN"
  bottom: "pool1/3x3_s2"
  top: "pool1/norm1"
  lrn_param {
    local_size: 5
    alpha: 0.0001
    beta: 0.75
  }
}
layer {
  name: "conv2/3x3_reduce"
  type: "Convolution"
  bottom: "pool1/norm1"
  top: "conv2/3x3_reduce"
  param {
    lr_mult: 1
    decay_mult: 1
  }
  param {
    lr_mult: 2
    decay_mult: 0
  }
  convolution_param {
    num_output: 64
    kernel_size: 1
    weight_filler {
      type: "xavier"
      std: 0.1
    }
    bias_filler {
      type: "constant"
      value: 0.2
    }
  }
}
layer {
  name: "conv2/relu_3x3_reduce"
  type: "ReLU"
  bottom: "conv2/3x3_reduce"
  top: "conv2/3x3_reduce"
}
layer {
  name: "conv2/3x3"
  type: "Convolution"
  bottom: "conv2/3x3_reduce"
  top: "conv2/3x3"
  param {
    lr_mult: 1
    decay_mult: 1
  }
  param {
    lr_mult: 2
    decay_mult: 0
  }
  convolution_param {
    num_output: 192
    pad: 1
    kernel_size: 3
    weight_filler {
      type: "xavier"
      std: 0.03
    }
    bias_filler {
      type: "constant"
      value: 0.2
    }
  }
}
layer {
  name: "conv2/relu_3x3"
  type: "ReLU"
  bottom: "conv2/3x3"
  top: "conv2/3x3"
}
layer {
  name: "conv2/norm2"
  type: "LRN"
  bottom: "conv2/3x3"
  top: "conv2/norm2"
  lrn_param {
    local_size: 5
    alpha: 0.0001
    beta: 0.75
  }
}
layer {
  name: "pool2/3x3_s2"
  type: "Pooling"
  bottom: "conv2/norm2"
  top: "pool2/3x3_s2"
  pooling_param {
    pool: MAX
    kernel_size: 3
    stride: 2
  }
}
layer {
  name: "inception_3a/1x1"
  type: "Convolution"
  bottom: "pool2/3x3_s2"
  top: "inception_3a/1x1"
  param {
    lr_mult: 1
    decay_mult: 1
  }
  param {
    lr_mult: 2
    decay_mult: 0
  }
  convolution_param {
    num_output: 64
    kernel_size: 1
    weight_filler {
      type: "xavier"
      std: 0.03
    }
    bias_filler {
      type: "constant"
      value: 0.2
    }
  }
}
layer {
  name: "inception_3a/relu_1x1"
  type: "ReLU"
  bottom: "inception_3a/1x1"
  top: "inception_3a/1x1"
}
layer {
  name: "inception_3a/3x3_reduce"
  type: "Convolution"
  bottom: "pool2/3x3_s2"
  top: "inception_3a/3x3_reduce"
  param {
    lr_mult: 1
    decay_mult: 1
  }
  param {
    lr_mult: 2
    decay_mult: 0
  }
  convolution_param {
    num_output: 96
    kernel_size: 1
    weight_filler {
      type: "xavier"
      std: 0.09
    }
    bias_filler {
      type: "constant"
      value: 0.2
    }
  }
}
layer {
  name: "inception_3a/relu_3x3_reduce"
  type: "ReLU"
  bottom: "inception_3a/3x3_reduce"
  top: "inception_3a/3x3_reduce"
}
layer {
  name: "inception_3a/3x3"
  type: "Convolution"
  bottom: "inception_3a/3x3_reduce"
  top: "inception_3a/3x3"
  param {
    lr_mult: 1
    decay_mult: 1
  }
  param {
    lr_mult: 2
    decay_mult: 0
  }
  convolution_param {
    num_output: 128
    pad: 1
    kernel_size: 3
    weight_filler {
      type: "xavier"
      std: 0.03
    }
    bias_filler {
      type: "constant"
      value: 0.2
    }
  }
}
layer {
  name: "inception_3a/relu_3x3"
  type: "ReLU"
  bottom: "inception_3a/3x3"
  top: "inception_3a/3x3"
}
layer {
  name: "inception_3a/5x5_reduce"
  type: "Convolution"
  bottom: "pool2/3x3_s2"
  top: "inception_3a/5x5_reduce"
  param {
    lr_mult: 1
    decay_mult: 1
  }
  param {
    lr_mult: 2
    decay_mult: 0
  }
  convolution_param {
    num_output: 16
    kernel_size: 1
    weight_filler {
      type: "xavier"
      std: 0.2
    }
    bias_filler {
      type: "constant"
      value: 0.2
    }
  }
}
layer {
  name: "inception_3a/relu_5x5_reduce"
  type: "ReLU"
  bottom: "inception_3a/5x5_reduce"
  top: "inception_3a/5x5_reduce"
}
layer {
  name: "inception_3a/5x5"
  type: "Convolution"
  bottom: "inception_3a/5x5_reduce"
  top: "inception_3a/5x5"
  param {
    lr_mult: 1
    decay_mult: 1
  }
  param {
    lr_mult: 2
    decay_mult: 0
  }
  convolution_param {
    num_output: 32
    pad: 2
    kernel_size: 5
    weight_filler {
      type: "xavier"
      std: 0.03
    }
    bias_filler {
      type: "constant"
      value: 0.2
    }
  }
}
layer {
  name: "inception_3a/relu_5x5"
  type: "ReLU"
  bottom: "inception_3a/5x5"
  top: "inception_3a/5x5"
}
layer {
  name: "inception_3a/pool"
  type: "Pooling"
  bottom: "pool2/3x3_s2"
  top: "inception_3a/pool"
  pooling_param {
    pool: MAX
    kernel_size: 3
    stride: 1
    pad: 1
  }
}
layer {
  name: "inception_3a/pool_proj"
  type: "Convolution"
  bottom: "inception_3a/pool"
  top: "inception_3a/pool_proj"
  param {
    lr_mult: 1
    decay_mult: 1
  }
  param {
    lr_mult: 2
    decay_mult: 0
  }
  convolution_param {
    num_output: 32
    kernel_size: 1
    weight_filler {
      type: "xavier"
      std: 0.1
    }
    bias_filler {
      type: "constant"
      value: 0.2
    }
  }
}
layer {
  name: "inception_3a/relu_pool_proj"
  type: "ReLU"
  bottom: "inception_3a/pool_proj"
  top: "inception_3a/pool_proj"
}
layer {
  name: "inception_3a/output"
  type: "Concat"
  bottom: "inception_3a/1x1"
  bottom: "inception_3a/3x3"
  bottom: "inception_3a/5x5"
  bottom: "inception_3a/pool_proj"
  top: "inception_3a/output"
}
layer {
  name: "inception_3b/1x1"
  type: "Convolution"
  bottom: "inception_3a/output"
  top: "inception_3b/1x1"
  param {
    lr_mult: 1
    decay_mult: 1
  }
  param {
    lr_mult: 2
    decay_mult: 0
  }
  convolution_param {
    num_output: 128
    kernel_size: 1
    weight_filler {
      type: "xavier"
      std: 0.03
    }
    bias_filler {
      type: "constant"
      value: 0.2
    }
  }
}
layer {
  name: "inception_3b/relu_1x1"
  type: "ReLU"
  bottom: "inception_3b/1x1"
  top: "inception_3b/1x1"
}
layer {
  name: "inception_3b/3x3_reduce"
  type: "Convolution"
  bottom: "inception_3a/output"
  top: "inception_3b/3x3_reduce"
  param {
    lr_mult: 1
    decay_mult: 1
  }
  param {
    lr_mult: 2
    decay_mult: 0
  }
  convolution_param {
    num_output: 128
    kernel_size: 1
    weight_filler {
      type: "xavier"
      std: 0.09
    }
    bias_filler {
      type: "constant"
      value: 0.2
    }
  }
}
layer {
  name: "inception_3b/relu_3x3_reduce"
  type: "ReLU"
  bottom: "inception_3b/3x3_reduce"
  top: "inception_3b/3x3_reduce"
}
layer {
  name: "inception_3b/3x3"
  type: "Convolution"
  bottom: "inception_3b/3x3_reduce"
  top: "inception_3b/3x3"
  param {
    lr_mult: 1
    decay_mult: 1
  }
  param {
    lr_mult: 2
    decay_mult: 0
  }
  convolution_param {
    num_output: 192
    pad: 1
    kernel_size: 3
    weight_filler {
      type: "xavier"
      std: 0.03
    }
    bias_filler {
      type: "constant"
      value: 0.2
    }
  }
}
layer {
  name: "inception_3b/relu_3x3"
  type: "ReLU"
  bottom: "inception_3b/3x3"
  top: "inception_3b/3x3"
}
layer {
  name: "inception_3b/5x5_reduce"
  type: "Convolution"
  bottom: "inception_3a/output"
  top: "inception_3b/5x5_reduce"
  param {
    lr_mult: 1
    decay_mult: 1
  }
  param {
    lr_mult: 2
    decay_mult: 0
  }
  convolution_param {
    num_output: 32
    kernel_size: 1
    weight_filler {
      type: "xavier"
      std: 0.2
    }
    bias_filler {
      type: "constant"
      value: 0.2
    }
  }
}
layer {
  name: "inception_3b/relu_5x5_reduce"
  type: "ReLU"
  bottom: "inception_3b/5x5_reduce"
  top: "inception_3b/5x5_reduce"
}
layer {
  name: "inception_3b/5x5"
  type: "Convolution"
  bottom: "inception_3b/5x5_reduce"
  top: "inception_3b/5x5"
  param {
    lr_mult: 1
    decay_mult: 1
  }
  param {
    lr_mult: 2
    decay_mult: 0
  }
  convolution_param {
    num_output: 96
    pad: 2
    kernel_size: 5
    weight_filler {
      type: "xavier"
      std: 0.03
    }
    bias_filler {
      type: "constant"
      value: 0.2
    }
  }
}
layer {
  name: "inception_3b/relu_5x5"
  type: "ReLU"
  bottom: "inception_3b/5x5"
  top: "inception_3b/5x5"
}
layer {
  name: "inception_3b/pool"
  type: "Pooling"
  bottom: "inception_3a/output"
  top: "inception_3b/pool"
  pooling_param {
    pool: MAX
    kernel_size: 3
    stride: 1
    pad: 1
  }
}
layer {
  name: "inception_3b/pool_proj"
  type: "Convolution"
  bottom: "inception_3b/pool"
  top: "inception_3b/pool_proj"
  param {
    lr_mult: 1
    decay_mult: 1
  }
  param {
    lr_mult: 2
    decay_mult: 0
  }
  convolution_param {
    num_output: 64
    kernel_size: 1
    weight_filler {
      type: "xavier"
      std: 0.1
    }
    bias_filler {
      type: "constant"
      value: 0.2
    }
  }
}
layer {
  name: "inception_3b/relu_pool_proj"
  type: "ReLU"
  bottom: "inception_3b/pool_proj"
  top: "inception_3b/pool_proj"
}
layer {
  name: "inception_3b/output"
  type: "Concat"
  bottom: "inception_3b/1x1"
  bottom: "inception_3b/3x3"
  bottom: "inception_3b/5x5"
  bottom: "inception_3b/pool_proj"
  top: "inception_3b/output"
}
layer {
  name: "pool3/3x3_s2"
  type: "Pooling"
  bottom: "inception_3b/output"
  top: "pool3/3x3_s2"
  pooling_param {
    pool: MAX
    kernel_size: 3
    stride: 2
  }
}
layer {
  name: "inception_4a/1x1"
  type: "Convolution"
  bottom: "pool3/3x3_s2"
  top: "inception_4a/1x1"
  param {
    lr_mult: 1
    decay_mult: 1
  }
  param {
    lr_mult: 2
    decay_mult: 0
  }
  convolution_param {
    num_output: 192
    kernel_size: 1
    weight_filler {
      type: "xavier"
      std: 0.03
    }
    bias_filler {
      type: "constant"
      value: 0.2
    }
  }
}
layer {
  name: "inception_4a/relu_1x1"
  type: "ReLU"
  bottom: "inception_4a/1x1"
  top: "inception_4a/1x1"
}
layer {
  name: "inception_4a/3x3_reduce"
  type: "Convolution"
  bottom: "pool3/3x3_s2"
  top: "inception_4a/3x3_reduce"
  param {
    lr_mult: 1
    decay_mult: 1
  }
  param {
    lr_mult: 2
    decay_mult: 0
  }
  convolution_param {
    num_output: 96
    kernel_size: 1
    weight_filler {
      type: "xavier"
      std: 0.09
    }
    bias_filler {
      type: "constant"
      value: 0.2
    }
  }
}
layer {
  name: "inception_4a/relu_3x3_reduce"
  type: "ReLU"
  bottom: "inception_4a/3x3_reduce"
  top: "inception_4a/3x3_reduce"
}
layer {
  name: "inception_4a/3x3"
  type: "Convolution"
  bottom: "inception_4a/3x3_reduce"
  top: "inception_4a/3x3"
  param {
    lr_mult: 1
    decay_mult: 1
  }
  param {
    lr_mult: 2
    decay_mult: 0
  }
  convolution_param {
    num_output: 208
    pad: 1
    kernel_size: 3
    weight_filler {
      type: "xavier"
      std: 0.03
    }
    bias_filler {
      type: "constant"
      value: 0.2
    }
  }
}
layer {
  name: "inception_4a/relu_3x3"
  type: "ReLU"
  bottom: "inception_4a/3x3"
  top: "inception_4a/3x3"
}
layer {
  name: "inception_4a/5x5_reduce"
  type: "Convolution"
  bottom: "pool3/3x3_s2"
  top: "inception_4a/5x5_reduce"
  param {
    lr_mult: 1
    decay_mult: 1
  }
  param {
    lr_mult: 2
    decay_mult: 0
  }
  convolution_param {
    num_output: 16
    kernel_size: 1
    weight_filler {
      type: "xavier"
      std: 0.2
    }
    bias_filler {
      type: "constant"
      value: 0.2
    }
  }
}
layer {
  name: "inception_4a/relu_5x5_reduce"
  type: "ReLU"
  bottom: "inception_4a/5x5_reduce"
  top: "inception_4a/5x5_reduce"
}
layer {
  name: "inception_4a/5x5"
  type: "Convolution"
  bottom: "inception_4a/5x5_reduce"
  top: "inception_4a/5x5"
  param {
    lr_mult: 1
    decay_mult: 1
  }
  param {
    lr_mult: 2
    decay_mult: 0
  }
  convolution_param {
    num_output: 48
    pad: 2
    kernel_size: 5
    weight_filler {
      type: "xavier"
      std: 0.03
    }
    bias_filler {
      type: "constant"
      value: 0.2
    }
  }
}
layer {
  name: "inception_4a/relu_5x5"
  type: "ReLU"
  bottom: "inception_4a/5x5"
  top: "inception_4a/5x5"
}
layer {
  name: "inception_4a/pool"
  type: "Pooling"
  bottom: "pool3/3x3_s2"
  top: "inception_4a/pool"
  pooling_param {
    pool: MAX
    kernel_size: 3
    stride: 1
    pad: 1
  }
}
layer {
  name: "inception_4a/pool_proj"
  type: "Convolution"
  bottom: "inception_4a/pool"
  top: "inception_4a/pool_proj"
  param {
    lr_mult: 1
    decay_mult: 1
  }
  param {
    lr_mult: 2
    decay_mult: 0
  }
  convolution_param {
    num_output: 64
    kernel_size: 1
    weight_filler {
      type: "xavier"
      std: 0.1
    }
    bias_filler {
      type: "constant"
      value: 0.2
    }
  }
}
layer {
  name: "inception_4a/relu_pool_proj"
  type: "ReLU"
  bottom: "inception_4a/pool_proj"
  top: "inception_4a/pool_proj"
}
layer {
  name: "inception_4a/output"
  type: "Concat"
  bottom: "inception_4a/1x1"
  bottom: "inception_4a/3x3"
  bottom: "inception_4a/5x5"
  bottom: "inception_4a/pool_proj"
  top: "inception_4a/output"
}
layer {
  name: "loss1/ave_pool"
  type: "Pooling"
  bottom: "inception_4a/output"
  top: "loss1/ave_pool"
  pooling_param {
    pool: AVE
    kernel_size: 5
    stride: 3
  }
}
layer {
  name: "loss1/conv"
  type: "Convolution"
  bottom: "loss1/ave_pool"
  top: "loss1/conv"
  param {
    lr_mult: 1
    decay_mult: 1
  }
  param {
    lr_mult: 2
    decay_mult: 0
  }
  convolution_param {
    num_output: 128
    kernel_size: 1
    weight_filler {
      type: "xavier"
      std: 0.08
    }
    bias_filler {
      type: "constant"
      value: 0.2
    }
  }
}
layer {
  name: "loss1/relu_conv"
  type: "ReLU"
  bottom: "loss1/conv"
  top: "loss1/conv"
}
layer {
  name: "loss1/fc"
  type: "InnerProduct"
  bottom: "loss1/conv"
  top: "loss1/fc"
  param {
    lr_mult: 1
    decay_mult: 1
  }
  param {
    lr_mult: 2
    decay_mult: 0
  }
  inner_product_param {
    num_output: 1024
    weight_filler {
      type: "xavier"
      std: 0.02
    }
    bias_filler {
      type: "constant"
      value: 0.2
    }
  }
}
layer {
  name: "loss1/relu_fc"
  type: "ReLU"
  bottom: "loss1/fc"
  top: "loss1/fc"
}
layer {
  name: "loss1/drop_fc"
  type: "Dropout"
  bottom: "loss1/fc"
  top: "loss1/fc"
  dropout_param {
    dropout_ratio: 0.7
  }
}
layer {
  name: "loss1/classifier_plantvillage"
  type: "InnerProduct"
  bottom: "loss1/fc"
  top: "loss1/classifier_plantvillage"
  param {
    lr_mult: 1
    decay_mult: 1
  }
  param {
    lr_mult: 2
    decay_mult: 0
  }
  inner_product_param {
    num_output: 38
    weight_filler {
      type: "xavier"
      std: 0.0009765625
    }
    bias_filler {
      type: "constant"
      value: 0
    }
  }
}
layer {
  name: "inception_4b/1x1"
  type: "Convolution"
  bottom: "inception_4a/output"
  top: "inception_4b/1x1"
  param {
    lr_mult: 1
    decay_mult: 1
  }
  param {
    lr_mult: 2
    decay_mult: 0
  }
  convolution_param {
    num_output: 160
    kernel_size: 1
    weight_filler {
      type: "xavier"
      std: 0.03
    }
    bias_filler {
      type: "constant"
      value: 0.2
    }
  }
}
layer {
  name: "inception_4b/relu_1x1"
  type: "ReLU"
  bottom: "inception_4b/1x1"
  top: "inception_4b/1x1"
}
layer {
  name: "inception_4b/3x3_reduce"
  type: "Convolution"
  bottom: "inception_4a/output"
  top: "inception_4b/3x3_reduce"
  param {
    lr_mult: 1
    decay_mult: 1
  }
  param {
    lr_mult: 2
    decay_mult: 0
  }
  convolution_param {
    num_output: 112
    kernel_size: 1
    weight_filler {
      type: "xavier"
      std: 0.09
    }
    bias_filler {
      type: "constant"
      value: 0.2
    }
  }
}
layer {
  name: "inception_4b/relu_3x3_reduce"
  type: "ReLU"
  bottom: "inception_4b/3x3_reduce"
  top: "inception_4b/3x3_reduce"
}
layer {
  name: "inception_4b/3x3"
  type: "Convolution"
  bottom: "inception_4b/3x3_reduce"
  top: "inception_4b/3x3"
  param {
    lr_mult: 1
    decay_mult: 1
  }
  param {
    lr_mult: 2
    decay_mult: 0
  }
  convolution_param {
    num_output: 224
    pad: 1
    kernel_size: 3
    weight_filler {
      type: "xavier"
      std: 0.03
    }
    bias_filler {
      type: "constant"
      value: 0.2
    }
  }
}
layer {
  name: "inception_4b/relu_3x3"
  type: "ReLU"
  bottom: "inception_4b/3x3"
  top: "inception_4b/3x3"
}
layer {
  name: "inception_4b/5x5_reduce"
  type: "Convolution"
  bottom: "inception_4a/output"
  top: "inception_4b/5x5_reduce"
  param {
    lr_mult: 1
    decay_mult: 1
  }
  param {
    lr_mult: 2
    decay_mult: 0
  }
  convolution_param {
    num_output: 24
    kernel_size: 1
    weight_filler {
      type: "xavier"
      std: 0.2
    }
    bias_filler {
      type: "constant"
      value: 0.2
    }
  }
}
layer {
  name: "inception_4b/relu_5x5_reduce"
  type: "ReLU"
  bottom: "inception_4b/5x5_reduce"
  top: "inception_4b/5x5_reduce"
}
layer {
  name: "inception_4b/5x5"
  type: "Convolution"
  bottom: "inception_4b/5x5_reduce"
  top: "inception_4b/5x5"
  param {
    lr_mult: 1
    decay_mult: 1
  }
  param {
    lr_mult: 2
    decay_mult: 0
  }
  convolution_param {
    num_output: 64
    pad: 2
    kernel_size: 5
    weight_filler {
      type: "xavier"
      std: 0.03
    }
    bias_filler {
      type: "constant"
      value: 0.2
    }
  }
}
layer {
  name: "inception_4b/relu_5x5"
  type: "ReLU"
  bottom: "inception_4b/5x5"
  top: "inception_4b/5x5"
}
layer {
  name: "inception_4b/pool"
  type: "Pooling"
  bottom: "inception_4a/output"
  top: "inception_4b/pool"
  pooling_param {
    pool: MAX
    kernel_size: 3
    stride: 1
    pad: 1
  }
}
layer {
  name: "inception_4b/pool_proj"
  type: "Convolution"
  bottom: "inception_4b/pool"
  top: "inception_4b/pool_proj"
  param {
    lr_mult: 1
    decay_mult: 1
  }
  param {
    lr_mult: 2
    decay_mult: 0
  }
  convolution_param {
    num_output: 64
    kernel_size: 1
    weight_filler {
      type: "xavier"
      std: 0.1
    }
    bias_filler {
      type: "constant"
      value: 0.2
    }
  }
}
layer {
  name: "inception_4b/relu_pool_proj"
  type: "ReLU"
  bottom: "inception_4b/pool_proj"
  top: "inception_4b/pool_proj"
}
layer {
  name: "inception_4b/output"
  type: "Concat"
  bottom: "inception_4b/1x1"
  bottom: "inception_4b/3x3"
  bottom: "inception_4b/5x5"
  bottom: "inception_4b/pool_proj"
  top: "inception_4b/output"
}
layer {
  name: "inception_4c/1x1"
  type: "Convolution"
  bottom: "inception_4b/output"
  top: "inception_4c/1x1"
  param {
    lr_mult: 1
    decay_mult: 1
  }
  param {
    lr_mult: 2
    decay_mult: 0
  }
  convolution_param {
    num_output: 128
    kernel_size: 1
    weight_filler {
      type: "xavier"
      std: 0.03
    }
    bias_filler {
      type: "constant"
      value: 0.2
    }
  }
}
layer {
  name: "inception_4c/relu_1x1"
  type: "ReLU"
  bottom: "inception_4c/1x1"
  top: "inception_4c/1x1"
}
layer {
  name: "inception_4c/3x3_reduce"
  type: "Convolution"
  bottom: "inception_4b/output"
  top: "inception_4c/3x3_reduce"
  param {
    lr_mult: 1
    decay_mult: 1
  }
  param {
    lr_mult: 2
    decay_mult: 0
  }
  convolution_param {
    num_output: 128
    kernel_size: 1
    weight_filler {
      type: "xavier"
      std: 0.09
    }
    bias_filler {
      type: "constant"
      value: 0.2
    }
  }
}
layer {
  name: "inception_4c/relu_3x3_reduce"
  type: "ReLU"
  bottom: "inception_4c/3x3_reduce"
  top: "inception_4c/3x3_reduce"
}
layer {
  name: "inception_4c/3x3"
  type: "Convolution"
  bottom: "inception_4c/3x3_reduce"
  top: "inception_4c/3x3"
  param {
    lr_mult: 1
    decay_mult: 1
  }
  param {
    lr_mult: 2
    decay_mult: 0
  }
  convolution_param {
    num_output: 256
    pad: 1
    kernel_size: 3
    weight_filler {
      type: "xavier"
      std: 0.03
    }
    bias_filler {
      type: "constant"
      value: 0.2
    }
  }
}
layer {
  name: "inception_4c/relu_3x3"
  type: "ReLU"
  bottom: "inception_4c/3x3"
  top: "inception_4c/3x3"
}
layer {
  name: "inception_4c/5x5_reduce"
  type: "Convolution"
  bottom: "inception_4b/output"
  top: "inception_4c/5x5_reduce"
  param {
    lr_mult: 1
    decay_mult: 1
  }
  param {
    lr_mult: 2
    decay_mult: 0
  }
  convolution_param {
    num_output: 24
    kernel_size: 1
    weight_filler {
      type: "xavier"
      std: 0.2
    }
    bias_filler {
      type: "constant"
      value: 0.2
    }
  }
}
layer {
  name: "inception_4c/relu_5x5_reduce"
  type: "ReLU"
  bottom: "inception_4c/5x5_reduce"
  top: "inception_4c/5x5_reduce"
}
layer {
  name: "inception_4c/5x5"
  type: "Convolution"
  bottom: "inception_4c/5x5_reduce"
  top: "inception_4c/5x5"
  param {
    lr_mult: 1
    decay_mult: 1
  }
  param {
    lr_mult: 2
    decay_mult: 0
  }
  convolution_param {
    num_output: 64
    pad: 2
    kernel_size: 5
    weight_filler {
      type: "xavier"
      std: 0.03
    }
    bias_filler {
      type: "constant"
      value: 0.2
    }
  }
}
layer {
  name: "inception_4c/relu_5x5"
  type: "ReLU"
  bottom: "inception_4c/5x5"
  top: "inception_4c/5x5"
}
layer {
  name: "inception_4c/pool"
  type: "Pooling"
  bottom: "inception_4b/output"
  top: "inception_4c/pool"
  pooling_param {
    pool: MAX
    kernel_size: 3
    stride: 1
    pad: 1
  }
}
layer {
  name: "inception_4c/pool_proj"
  type: "Convolution"
  bottom: "inception_4c/pool"
  top: "inception_4c/pool_proj"
  param {
    lr_mult: 1
    decay_mult: 1
  }
  param {
    lr_mult: 2
    decay_mult: 0
  }
  convolution_param {
    num_output: 64
    kernel_size: 1
    weight_filler {
      type: "xavier"
      std: 0.1
    }
    bias_filler {
      type: "constant"
      value: 0.2
    }
  }
}
layer {
  name: "inception_4c/relu_pool_proj"
  type: "ReLU"
  bottom: "inception_4c/pool_proj"
  top: "inception_4c/pool_proj"
}
layer {
  name: "inception_4c/output"
  type: "Concat"
  bottom: "inception_4c/1x1"
  bottom: "inception_4c/3x3"
  bottom: "inception_4c/5x5"
  bottom: "inception_4c/pool_proj"
  top: "inception_4c/output"
}
layer {
  name: "inception_4d/1x1"
  type: "Convolution"
  bottom: "inception_4c/output"
  top: "inception_4d/1x1"
  param {
    lr_mult: 1
    decay_mult: 1
  }
  param {
    lr_mult: 2
    decay_mult: 0
  }
  convolution_param {
    num_output: 112
    kernel_size: 1
    weight_filler {
      type: "xavier"
      std: 0.03
    }
    bias_filler {
      type: "constant"
      value: 0.2
    }
  }
}
layer {
  name: "inception_4d/relu_1x1"
  type: "ReLU"
  bottom: "inception_4d/1x1"
  top: "inception_4d/1x1"
}
layer {
  name: "inception_4d/3x3_reduce"
  type: "Convolution"
  bottom: "inception_4c/output"
  top: "inception_4d/3x3_reduce"
  param {
    lr_mult: 1
    decay_mult: 1
  }
  param {
    lr_mult: 2
    decay_mult: 0
  }
  convolution_param {
    num_output: 144
    kernel_size: 1
    weight_filler {
      type: "xavier"
      std: 0.09
    }
    bias_filler {
      type: "constant"
      value: 0.2
    }
  }
}
layer {
  name: "inception_4d/relu_3x3_reduce"
  type: "ReLU"
  bottom: "inception_4d/3x3_reduce"
  top: "inception_4d/3x3_reduce"
}
layer {
  name: "inception_4d/3x3"
  type: "Convolution"
  bottom: "inception_4d/3x3_reduce"
  top: "inception_4d/3x3"
  param {
    lr_mult: 1
    decay_mult: 1
  }
  param {
    lr_mult: 2
    decay_mult: 0
  }
  convolution_param {
    num_output: 288
    pad: 1
    kernel_size: 3
    weight_filler {
      type: "xavier"
      std: 0.03
    }
    bias_filler {
      type: "constant"
      value: 0.2
    }
  }
}
layer {
  name: "inception_4d/relu_3x3"
  type: "ReLU"
  bottom: "inception_4d/3x3"
  top: "inception_4d/3x3"
}
layer {
  name: "inception_4d/5x5_reduce"
  type: "Convolution"
  bottom: "inception_4c/output"
  top: "inception_4d/5x5_reduce"
  param {
    lr_mult: 1
    decay_mult: 1
  }
  param {
    lr_mult: 2
    decay_mult: 0
  }
  convolution_param {
    num_output: 32
    kernel_size: 1
    weight_filler {
      type: "xavier"
      std: 0.2
    }
    bias_filler {
      type: "constant"
      value: 0.2
    }
  }
}
layer {
  name: "inception_4d/relu_5x5_reduce"
  type: "ReLU"
  bottom: "inception_4d/5x5_reduce"
  top: "inception_4d/5x5_reduce"
}
layer {
  name: "inception_4d/5x5"
  type: "Convolution"
  bottom: "inception_4d/5x5_reduce"
  top: "inception_4d/5x5"
  param {
    lr_mult: 1
    decay_mult: 1
  }
  param {
    lr_mult: 2
    decay_mult: 0
  }
  convolution_param {
    num_output: 64
    pad: 2
    kernel_size: 5
    weight_filler {
      type: "xavier"
      std: 0.03
    }
    bias_filler {
      type: "constant"
      value: 0.2
    }
  }
}
layer {
  name: "inception_4d/relu_5x5"
  type: "ReLU"
  bottom: "inception_4d/5x5"
  top: "inception_4d/5x5"
}
layer {
  name: "inception_4d/pool"
  type: "Pooling"
  bottom: "inception_4c/output"
  top: "inception_4d/pool"
  pooling_param {
    pool: MAX
    kernel_size: 3
    stride: 1
    pad: 1
  }
}
layer {
  name: "inception_4d/pool_proj"
  type: "Convolution"
  bottom: "inception_4d/pool"
  top: "inception_4d/pool_proj"
  param {
    lr_mult: 1
    decay_mult: 1
  }
  param {
    lr_mult: 2
    decay_mult: 0
  }
  convolution_param {
    num_output: 64
    kernel_size: 1
    weight_filler {
      type: "xavier"
      std: 0.1
    }
    bias_filler {
      type: "constant"
      value: 0.2
    }
  }
}
layer {
  name: "inception_4d/relu_pool_proj"
  type: "ReLU"
  bottom: "inception_4d/pool_proj"
  top: "inception_4d/pool_proj"
}
layer {
  name: "inception_4d/output"
  type: "Concat"
  bottom: "inception_4d/1x1"
  bottom: "inception_4d/3x3"
  bottom: "inception_4d/5x5"
  bottom: "inception_4d/pool_proj"
  top: "inception_4d/output"
}
layer {
  name: "loss2/ave_pool"
  type: "Pooling"
  bottom: "inception_4d/output"
  top: "loss2/ave_pool"
  pooling_param {
    pool: AVE
    kernel_size: 5
    stride: 3
  }
}
layer {
  name: "loss2/conv"
  type: "Convolution"
  bottom: "loss2/ave_pool"
  top: "loss2/conv"
  param {
    lr_mult: 1
    decay_mult: 1
  }
  param {
    lr_mult: 2
    decay_mult: 0
  }
  convolution_param {
    num_output: 128
    kernel_size: 1
    weight_filler {
      type: "xavier"
      std: 0.08
    }
    bias_filler {
      type: "constant"
      value: 0.2
    }
  }
}
layer {
  name: "loss2/relu_conv"
  type: "ReLU"
  bottom: "loss2/conv"
  top: "loss2/conv"
}
layer {
  name: "loss2/fc"
  type: "InnerProduct"
  bottom: "loss2/conv"
  top: "loss2/fc"
  param {
    lr_mult: 1
    decay_mult: 1
  }
  param {
    lr_mult: 2
    decay_mult: 0
  }
  inner_product_param {
    num_output: 1024
    weight_filler {
      type: "xavier"
      std: 0.02
    }
    bias_filler {
      type: "constant"
      value: 0.2
    }
  }
}
layer {
  name: "loss2/relu_fc"
  type: "ReLU"
  bottom: "loss2/fc"
  top: "loss2/fc"
}
layer {
  name: "loss2/drop_fc"
  type: "Dropout"
  bottom: "loss2/fc"
  top: "loss2/fc"
  dropout_param {
    dropout_ratio: 0.7
  }
}
layer {
  name: "loss2/classifier_plantvillage"
  type: "InnerProduct"
  bottom: "loss2/fc"
  top: "loss2/classifier_plantvillage"
  param {
    lr_mult: 1
    decay_mult: 1
  }
  param {
    lr_mult: 2
    decay_mult: 0
  }
  inner_product_param {
    num_output: 38
    weight_filler {
      type: "xavier"
      std: 0.0009765625
    }
    bias_filler {
      type: "constant"
      value: 0
    }
  }
}
layer {
  name: "inception_4e/1x1"
  type: "Convolution"
  bottom: "inception_4d/output"
  top: "inception_4e/1x1"
  param {
    lr_mult: 1
    decay_mult: 1
  }
  param {
    lr_mult: 2
    decay_mult: 0
  }
  convolution_param {
    num_output: 256
    kernel_size: 1
    weight_filler {
      type: "xavier"
      std: 0.03
    }
    bias_filler {
      type: "constant"
      value: 0.2
    }
  }
}
layer {
  name: "inception_4e/relu_1x1"
  type: "ReLU"
  bottom: "inception_4e/1x1"
  top: "inception_4e/1x1"
}
layer {
  name: "inception_4e/3x3_reduce"
  type: "Convolution"
  bottom: "inception_4d/output"
  top: "inception_4e/3x3_reduce"
  param {
    lr_mult: 1
    decay_mult: 1
  }
  param {
    lr_mult: 2
    decay_mult: 0
  }
  convolution_param {
    num_output: 160
    kernel_size: 1
    weight_filler {
      type: "xavier"
      std: 0.09
    }
    bias_filler {
      type: "constant"
      value: 0.2
    }
  }
}
layer {
  name: "inception_4e/relu_3x3_reduce"
  type: "ReLU"
  bottom: "inception_4e/3x3_reduce"
  top: "inception_4e/3x3_reduce"
}
layer {
  name: "inception_4e/3x3"
  type: "Convolution"
  bottom: "inception_4e/3x3_reduce"
  top: "inception_4e/3x3"
  param {
    lr_mult: 1
    decay_mult: 1
  }
  param {
    lr_mult: 2
    decay_mult: 0
  }
  convolution_param {
    num_output: 320
    pad: 1
    kernel_size: 3
    weight_filler {
      type: "xavier"
      std: 0.03
    }
    bias_filler {
      type: "constant"
      value: 0.2
    }
  }
}
layer {
  name: "inception_4e/relu_3x3"
  type: "ReLU"
  bottom: "inception_4e/3x3"
  top: "inception_4e/3x3"
}
layer {
  name: "inception_4e/5x5_reduce"
  type: "Convolution"
  bottom: "inception_4d/output"
  top: "inception_4e/5x5_reduce"
  param {
    lr_mult: 1
    decay_mult: 1
  }
  param {
    lr_mult: 2
    decay_mult: 0
  }
  convolution_param {
    num_output: 32
    kernel_size: 1
    weight_filler {
      type: "xavier"
      std: 0.2
    }
    bias_filler {
      type: "constant"
      value: 0.2
    }
  }
}
layer {
  name: "inception_4e/relu_5x5_reduce"
  type: "ReLU"
  bottom: "inception_4e/5x5_reduce"
  top: "inception_4e/5x5_reduce"
}
layer {
  name: "inception_4e/5x5"
  type: "Convolution"
  bottom: "inception_4e/5x5_reduce"
  top: "inception_4e/
I0403 18:50:22.433250 23556 layer_factory.hpp:77] Creating layer data
I0403 18:50:22.433866 23556 net.cpp:91] Creating Layer data
I0403 18:50:22.433899 23556 net.cpp:399] data -> data
I0403 18:50:22.433950 23556 net.cpp:399] data -> label
I0403 18:50:22.433986 23556 data_transformer.cpp:25] Loading mean file from: /home/mohanty/data/final_dataset/lmdb/segmented-40-60/mean.binaryproto
I0403 18:50:22.435551 23559 db_lmdb.cpp:38] Opened lmdb /home/mohanty/data/final_dataset/lmdb/segmented-40-60/test_db
I0403 18:50:22.447620 23556 data_layer.cpp:41] output data size: 24,3,224,224
I0403 18:50:22.475433 23556 net.cpp:141] Setting up data
I0403 18:50:22.475508 23556 net.cpp:148] Top shape: 24 3 224 224 (3612672)
I0403 18:50:22.475531 23556 net.cpp:148] Top shape: 24 (24)
I0403 18:50:22.475551 23556 net.cpp:156] Memory required for data: 14450784
I0403 18:50:22.475579 23556 layer_factory.hpp:77] Creating layer label_data_1_split
I0403 18:50:22.475606 23556 net.cpp:91] Creating Layer label_data_1_split
I0403 18:50:22.475625 23556 net.cpp:425] label_data_1_split <- label
I0403 18:50:22.475656 23556 net.cpp:399] label_data_1_split -> label_data_1_split_0
I0403 18:50:22.475683 23556 net.cpp:399] label_data_1_split -> label_data_1_split_1
I0403 18:50:22.475704 23556 net.cpp:399] label_data_1_split -> label_data_1_split_2
I0403 18:50:22.475725 23556 net.cpp:399] label_data_1_split -> label_data_1_split_3
I0403 18:50:22.475744 23556 net.cpp:399] label_data_1_split -> label_data_1_split_4
I0403 18:50:22.475764 23556 net.cpp:399] label_data_1_split -> label_data_1_split_5
I0403 18:50:22.475783 23556 net.cpp:399] label_data_1_split -> label_data_1_split_6
I0403 18:50:22.475803 23556 net.cpp:399] label_data_1_split -> label_data_1_split_7
I0403 18:50:22.475823 23556 net.cpp:399] label_data_1_split -> label_data_1_split_8
I0403 18:50:22.475843 23556 net.cpp:399] label_data_1_split -> label_data_1_split_9
I0403 18:50:22.475960 23556 net.cpp:141] Setting up label_data_1_split
I0403 18:50:22.475985 23556 net.cpp:148] Top shape: 24 (24)
I0403 18:50:22.476001 23556 net.cpp:148] Top shape: 24 (24)
I0403 18:50:22.476016 23556 net.cpp:148] Top shape: 24 (24)
I0403 18:50:22.476032 23556 net.cpp:148] Top shape: 24 (24)
I0403 18:50:22.476047 23556 net.cpp:148] Top shape: 24 (24)
I0403 18:50:22.476063 23556 net.cpp:148] Top shape: 24 (24)
I0403 18:50:22.476078 23556 net.cpp:148] Top shape: 24 (24)
I0403 18:50:22.476092 23556 net.cpp:148] Top shape: 24 (24)
I0403 18:50:22.476107 23556 net.cpp:148] Top shape: 24 (24)
I0403 18:50:22.476124 23556 net.cpp:148] Top shape: 24 (24)
I0403 18:50:22.476169 23556 net.cpp:156] Memory required for data: 14451744
I0403 18:50:22.476186 23556 layer_factory.hpp:77] Creating layer conv1/7x7_s2
I0403 18:50:22.476217 23556 net.cpp:91] Creating Layer conv1/7x7_s2
I0403 18:50:22.476236 23556 net.cpp:425] conv1/7x7_s2 <- data
I0403 18:50:22.476255 23556 net.cpp:399] conv1/7x7_s2 -> conv1/7x7_s2
I0403 18:50:22.617998 23556 net.cpp:141] Setting up conv1/7x7_s2
I0403 18:50:22.618063 23556 net.cpp:148] Top shape: 24 64 112 112 (19267584)
I0403 18:50:22.618082 23556 net.cpp:156] Memory required for data: 91522080
I0403 18:50:22.618113 23556 layer_factory.hpp:77] Creating layer conv1/relu_7x7
I0403 18:50:22.618139 23556 net.cpp:91] Creating Layer conv1/relu_7x7
I0403 18:50:22.618157 23556 net.cpp:425] conv1/relu_7x7 <- conv1/7x7_s2
I0403 18:50:22.618177 23556 net.cpp:386] conv1/relu_7x7 -> conv1/7x7_s2 (in-place)
I0403 18:50:22.618439 23556 net.cpp:141] Setting up conv1/relu_7x7
I0403 18:50:22.618468 23556 net.cpp:148] Top shape: 24 64 112 112 (19267584)
I0403 18:50:22.618484 23556 net.cpp:156] Memory required for data: 168592416
I0403 18:50:22.618499 23556 layer_factory.hpp:77] Creating layer pool1/3x3_s2
I0403 18:50:22.618523 23556 net.cpp:91] Creating Layer pool1/3x3_s2
I0403 18:50:22.618546 23556 net.cpp:425] pool1/3x3_s2 <- conv1/7x7_s2
I0403 18:50:22.618566 23556 net.cpp:399] pool1/3x3_s2 -> pool1/3x3_s2
I0403 18:50:22.618641 23556 net.cpp:141] Setting up pool1/3x3_s2
I0403 18:50:22.618665 23556 net.cpp:148] Top shape: 24 64 56 56 (4816896)
I0403 18:50:22.618681 23556 net.cpp:156] Memory required for data: 187860000
I0403 18:50:22.618695 23556 layer_factory.hpp:77] Creating layer pool1/norm1
I0403 18:50:22.618721 23556 net.cpp:91] Creating Layer pool1/norm1
I0403 18:50:22.618738 23556 net.cpp:425] pool1/norm1 <- pool1/3x3_s2
I0403 18:50:22.618757 23556 net.cpp:399] pool1/norm1 -> pool1/norm1
I0403 18:50:22.619048 23556 net.cpp:141] Setting up pool1/norm1
I0403 18:50:22.619076 23556 net.cpp:148] Top shape: 24 64 56 56 (4816896)
I0403 18:50:22.619091 23556 net.cpp:156] Memory required for data: 207127584
I0403 18:50:22.619107 23556 layer_factory.hpp:77] Creating layer conv2/3x3_reduce
I0403 18:50:22.619132 23556 net.cpp:91] Creating Layer conv2/3x3_reduce
I0403 18:50:22.619149 23556 net.cpp:425] conv2/3x3_reduce <- pool1/norm1
I0403 18:50:22.619168 23556 net.cpp:399] conv2/3x3_reduce -> conv2/3x3_reduce
I0403 18:50:22.620579 23556 net.cpp:141] Setting up conv2/3x3_reduce
I0403 18:50:22.620609 23556 net.cpp:148] Top shape: 24 64 56 56 (4816896)
I0403 18:50:22.620625 23556 net.cpp:156] Memory required for data: 226395168
I0403 18:50:22.620646 23556 layer_factory.hpp:77] Creating layer conv2/relu_3x3_reduce
I0403 18:50:22.620666 23556 net.cpp:91] Creating Layer conv2/relu_3x3_reduce
I0403 18:50:22.620685 23556 net.cpp:425] conv2/relu_3x3_reduce <- conv2/3x3_reduce
I0403 18:50:22.620702 23556 net.cpp:386] conv2/relu_3x3_reduce -> conv2/3x3_reduce (in-place)
I0403 18:50:22.620980 23556 net.cpp:141] Setting up conv2/relu_3x3_reduce
I0403 18:50:22.621007 23556 net.cpp:148] Top shape: 24 64 56 56 (4816896)
I0403 18:50:22.621022 23556 net.cpp:156] Memory required for data: 245662752
I0403 18:50:22.621037 23556 layer_factory.hpp:77] Creating layer conv2/3x3
I0403 18:50:22.621062 23556 net.cpp:91] Creating Layer conv2/3x3
I0403 18:50:22.621079 23556 net.cpp:425] conv2/3x3 <- conv2/3x3_reduce
I0403 18:50:22.621101 23556 net.cpp:399] conv2/3x3 -> conv2/3x3
I0403 18:50:22.623450 23556 net.cpp:141] Setting up conv2/3x3
I0403 18:50:22.623481 23556 net.cpp:148] Top shape: 24 192 56 56 (14450688)
I0403 18:50:22.623497 23556 net.cpp:156] Memory required for data: 303465504
I0403 18:50:22.623517 23556 layer_factory.hpp:77] Creating layer conv2/relu_3x3
I0403 18:50:22.623543 23556 net.cpp:91] Creating Layer conv2/relu_3x3
I0403 18:50:22.623563 23556 net.cpp:425] conv2/relu_3x3 <- conv2/3x3
I0403 18:50:22.623580 23556 net.cpp:386] conv2/relu_3x3 -> conv2/3x3 (in-place)
I0403 18:50:22.623764 23556 net.cpp:141] Setting up conv2/relu_3x3
I0403 18:50:22.623788 23556 net.cpp:148] Top shape: 24 192 56 56 (14450688)
I0403 18:50:22.623837 23556 net.cpp:156] Memory required for data: 361268256
I0403 18:50:22.623853 23556 layer_factory.hpp:77] Creating layer conv2/norm2
I0403 18:50:22.623878 23556 net.cpp:91] Creating Layer conv2/norm2
I0403 18:50:22.623895 23556 net.cpp:425] conv2/norm2 <- conv2/3x3
I0403 18:50:22.623915 23556 net.cpp:399] conv2/norm2 -> conv2/norm2
I0403 18:50:22.624230 23556 net.cpp:141] Setting up conv2/norm2
I0403 18:50:22.624260 23556 net.cpp:148] Top shape: 24 192 56 56 (14450688)
I0403 18:50:22.624276 23556 net.cpp:156] Memory required for data: 419071008
I0403 18:50:22.624291 23556 layer_factory.hpp:77] Creating layer pool2/3x3_s2
I0403 18:50:22.624322 23556 net.cpp:91] Creating Layer pool2/3x3_s2
I0403 18:50:22.624338 23556 net.cpp:425] pool2/3x3_s2 <- conv2/norm2
I0403 18:50:22.624358 23556 net.cpp:399] pool2/3x3_s2 -> pool2/3x3_s2
I0403 18:50:22.624413 23556 net.cpp:141] Setting up pool2/3x3_s2
I0403 18:50:22.624440 23556 net.cpp:148] Top shape: 24 192 28 28 (3612672)
I0403 18:50:22.624456 23556 net.cpp:156] Memory required for data: 433521696
I0403 18:50:22.624472 23556 layer_factory.hpp:77] Creating layer pool2/3x3_s2_pool2/3x3_s2_0_split
I0403 18:50:22.624490 23556 net.cpp:91] Creating Layer pool2/3x3_s2_pool2/3x3_s2_0_split
I0403 18:50:22.624505 23556 net.cpp:425] pool2/3x3_s2_pool2/3x3_s2_0_split <- pool2/3x3_s2
I0403 18:50:22.624523 23556 net.cpp:399] pool2/3x3_s2_pool2/3x3_s2_0_split -> pool2/3x3_s2_pool2/3x3_s2_0_split_0
I0403 18:50:22.624554 23556 net.cpp:399] pool2/3x3_s2_pool2/3x3_s2_0_split -> pool2/3x3_s2_pool2/3x3_s2_0_split_1
I0403 18:50:22.624582 23556 net.cpp:399] pool2/3x3_s2_pool2/3x3_s2_0_split -> pool2/3x3_s2_pool2/3x3_s2_0_split_2
I0403 18:50:22.624615 23556 net.cpp:399] pool2/3x3_s2_pool2/3x3_s2_0_split -> pool2/3x3_s2_pool2/3x3_s2_0_split_3
I0403 18:50:22.624688 23556 net.cpp:141] Setting up pool2/3x3_s2_pool2/3x3_s2_0_split
I0403 18:50:22.624711 23556 net.cpp:148] Top shape: 24 192 28 28 (3612672)
I0403 18:50:22.624727 23556 net.cpp:148] Top shape: 24 192 28 28 (3612672)
I0403 18:50:22.624743 23556 net.cpp:148] Top shape: 24 192 28 28 (3612672)
I0403 18:50:22.624759 23556 net.cpp:148] Top shape: 24 192 28 28 (3612672)
I0403 18:50:22.624773 23556 net.cpp:156] Memory required for data: 491324448
I0403 18:50:22.624788 23556 layer_factory.hpp:77] Creating layer inception_3a/1x1
I0403 18:50:22.624810 23556 net.cpp:91] Creating Layer inception_3a/1x1
I0403 18:50:22.624827 23556 net.cpp:425] inception_3a/1x1 <- pool2/3x3_s2_pool2/3x3_s2_0_split_0
I0403 18:50:22.624848 23556 net.cpp:399] inception_3a/1x1 -> inception_3a/1x1
I0403 18:50:22.626423 23556 net.cpp:141] Setting up inception_3a/1x1
I0403 18:50:22.626454 23556 net.cpp:148] Top shape: 24 64 28 28 (1204224)
I0403 18:50:22.626471 23556 net.cpp:156] Memory required for data: 496141344
I0403 18:50:22.626489 23556 layer_factory.hpp:77] Creating layer inception_3a/relu_1x1
I0403 18:50:22.626507 23556 net.cpp:91] Creating Layer inception_3a/relu_1x1
I0403 18:50:22.626524 23556 net.cpp:425] inception_3a/relu_1x1 <- inception_3a/1x1
I0403 18:50:22.626549 23556 net.cpp:386] inception_3a/relu_1x1 -> inception_3a/1x1 (in-place)
I0403 18:50:22.626734 23556 net.cpp:141] Setting up inception_3a/relu_1x1
I0403 18:50:22.626759 23556 net.cpp:148] Top shape: 24 64 28 28 (1204224)
I0403 18:50:22.626773 23556 net.cpp:156] Memory required for data: 500958240
I0403 18:50:22.626788 23556 layer_factory.hpp:77] Creating layer inception_3a/3x3_reduce
I0403 18:50:22.626811 23556 net.cpp:91] Creating Layer inception_3a/3x3_reduce
I0403 18:50:22.626828 23556 net.cpp:425] inception_3a/3x3_reduce <- pool2/3x3_s2_pool2/3x3_s2_0_split_1
I0403 18:50:22.626850 23556 net.cpp:399] inception_3a/3x3_reduce -> inception_3a/3x3_reduce
I0403 18:50:22.628587 23556 net.cpp:141] Setting up inception_3a/3x3_reduce
I0403 18:50:22.628618 23556 net.cpp:148] Top shape: 24 96 28 28 (1806336)
I0403 18:50:22.628634 23556 net.cpp:156] Memory required for data: 508183584
I0403 18:50:22.628655 23556 layer_factory.hpp:77] Creating layer inception_3a/relu_3x3_reduce
I0403 18:50:22.628695 23556 net.cpp:91] Creating Layer inception_3a/relu_3x3_reduce
I0403 18:50:22.628715 23556 net.cpp:425] inception_3a/relu_3x3_reduce <- inception_3a/3x3_reduce
I0403 18:50:22.628731 23556 net.cpp:386] inception_3a/relu_3x3_reduce -> inception_3a/3x3_reduce (in-place)
I0403 18:50:22.628918 23556 net.cpp:141] Setting up inception_3a/relu_3x3_reduce
I0403 18:50:22.628945 23556 net.cpp:148] Top shape: 24 96 28 28 (1806336)
I0403 18:50:22.628962 23556 net.cpp:156] Memory required for data: 515408928
I0403 18:50:22.628976 23556 layer_factory.hpp:77] Creating layer inception_3a/3x3
I0403 18:50:22.629004 23556 net.cpp:91] Creating Layer inception_3a/3x3
I0403 18:50:22.629021 23556 net.cpp:425] inception_3a/3x3 <- inception_3a/3x3_reduce
I0403 18:50:22.629040 23556 net.cpp:399] inception_3a/3x3 -> inception_3a/3x3
I0403 18:50:22.630767 23556 net.cpp:141] Setting up inception_3a/3x3
I0403 18:50:22.630795 23556 net.cpp:148] Top shape: 24 128 28 28 (2408448)
I0403 18:50:22.630810 23556 net.cpp:156] Memory required for data: 525042720
I0403 18:50:22.630827 23556 layer_factory.hpp:77] Creating layer inception_3a/relu_3x3
I0403 18:50:22.630847 23556 net.cpp:91] Creating Layer inception_3a/relu_3x3
I0403 18:50:22.630864 23556 net.cpp:425] inception_3a/relu_3x3 <- inception_3a/3x3
I0403 18:50:22.630882 23556 net.cpp:386] inception_3a/relu_3x3 -> inception_3a/3x3 (in-place)
I0403 18:50:22.631155 23556 net.cpp:141] Setting up inception_3a/relu_3x3
I0403 18:50:22.631181 23556 net.cpp:148] Top shape: 24 128 28 28 (2408448)
I0403 18:50:22.631196 23556 net.cpp:156] Memory required for data: 534676512
I0403 18:50:22.631211 23556 layer_factory.hpp:77] Creating layer inception_3a/5x5_reduce
I0403 18:50:22.631232 23556 net.cpp:91] Creating Layer inception_3a/5x5_reduce
I0403 18:50:22.631250 23556 net.cpp:425] inception_3a/5x5_reduce <- pool2/3x3_s2_pool2/3x3_s2_0_split_2
I0403 18:50:22.631271 23556 net.cpp:399] inception_3a/5x5_reduce -> inception_3a/5x5_reduce
I0403 18:50:22.632226 23556 net.cpp:141] Setting up inception_3a/5x5_reduce
I0403 18:50:22.632253 23556 net.cpp:148] Top shape: 24 16 28 28 (301056)
I0403 18:50:22.632269 23556 net.cpp:156] Memory required for data: 535880736
I0403 18:50:22.632287 23556 layer_factory.hpp:77] Creating layer inception_3a/relu_5x5_reduce
I0403 18:50:22.632307 23556 net.cpp:91] Creating Layer inception_3a/relu_5x5_reduce
I0403 18:50:22.632323 23556 net.cpp:425] inception_3a/relu_5x5_reduce <- inception_3a/5x5_reduce
I0403 18:50:22.632340 23556 net.cpp:386] inception_3a/relu_5x5_reduce -> inception_3a/5x5_reduce (in-place)
I0403 18:50:22.632635 23556 net.cpp:141] Setting up inception_3a/relu_5x5_reduce
I0403 18:50:22.632661 23556 net.cpp:148] Top shape: 24 16 28 28 (301056)
I0403 18:50:22.632676 23556 net.cpp:156] Memory required for data: 537084960
I0403 18:50:22.632691 23556 layer_factory.hpp:77] Creating layer inception_3a/5x5
I0403 18:50:22.632717 23556 net.cpp:91] Creating Layer inception_3a/5x5
I0403 18:50:22.632735 23556 net.cpp:425] inception_3a/5x5 <- inception_3a/5x5_reduce
I0403 18:50:22.632755 23556 net.cpp:399] inception_3a/5x5 -> inception_3a/5x5
I0403 18:50:22.633759 23556 net.cpp:141] Setting up inception_3a/5x5
I0403 18:50:22.633785 23556 net.cpp:148] Top shape: 24 32 28 28 (602112)
I0403 18:50:22.633801 23556 net.cpp:156] Memory required for data: 539493408
I0403 18:50:22.633818 23556 layer_factory.hpp:77] Creating layer inception_3a/relu_5x5
I0403 18:50:22.633836 23556 net.cpp:91] Creating Layer inception_3a/relu_5x5
I0403 18:50:22.633852 23556 net.cpp:425] inception_3a/relu_5x5 <- inception_3a/5x5
I0403 18:50:22.633872 23556 net.cpp:386] inception_3a/relu_5x5 -> inception_3a/5x5 (in-place)
I0403 18:50:22.634045 23556 net.cpp:141] Setting up inception_3a/relu_5x5
I0403 18:50:22.634069 23556 net.cpp:148] Top shape: 24 32 28 28 (602112)
I0403 18:50:22.634084 23556 net.cpp:156] Memory required for data: 541901856
I0403 18:50:22.634099 23556 layer_factory.hpp:77] Creating layer inception_3a/pool
I0403 18:50:22.634119 23556 net.cpp:91] Creating Layer inception_3a/pool
I0403 18:50:22.634150 23556 net.cpp:425] inception_3a/pool <- pool2/3x3_s2_pool2/3x3_s2_0_split_3
I0403 18:50:22.634168 23556 net.cpp:399] inception_3a/pool -> inception_3a/pool
I0403 18:50:22.634227 23556 net.cpp:141] Setting up inception_3a/pool
I0403 18:50:22.634249 23556 net.cpp:148] Top shape: 24 192 28 28 (3612672)
I0403 18:50:22.634263 23556 net.cpp:156] Memory required for data: 556352544
I0403 18:50:22.634277 23556 layer_factory.hpp:77] Creating layer inception_3a/pool_proj
I0403 18:50:22.634311 23556 net.cpp:91] Creating Layer inception_3a/pool_proj
I0403 18:50:22.634330 23556 net.cpp:425] inception_3a/pool_proj <- inception_3a/pool
I0403 18:50:22.634351 23556 net.cpp:399] inception_3a/pool_proj -> inception_3a/pool_proj
I0403 18:50:22.635345 23556 net.cpp:141] Setting up inception_3a/pool_proj
I0403 18:50:22.635375 23556 net.cpp:148] Top shape: 24 32 28 28 (602112)
I0403 18:50:22.635391 23556 net.cpp:156] Memory required for data: 558760992
I0403 18:50:22.635413 23556 layer_factory.hpp:77] Creating layer inception_3a/relu_pool_proj
I0403 18:50:22.635434 23556 net.cpp:91] Creating Layer inception_3a/relu_pool_proj
I0403 18:50:22.635450 23556 net.cpp:425] inception_3a/relu_pool_proj <- inception_3a/pool_proj
I0403 18:50:22.635468 23556 net.cpp:386] inception_3a/relu_pool_proj -> inception_3a/pool_proj (in-place)
I0403 18:50:22.635747 23556 net.cpp:141] Setting up inception_3a/relu_pool_proj
I0403 18:50:22.635774 23556 net.cpp:148] Top shape: 24 32 28 28 (602112)
I0403 18:50:22.635789 23556 net.cpp:156] Memory required for data: 561169440
I0403 18:50:22.635803 23556 layer_factory.hpp:77] Creating layer inception_3a/output
I0403 18:50:22.635820 23556 net.cpp:91] Creating Layer inception_3a/output
I0403 18:50:22.635835 23556 net.cpp:425] inception_3a/output <- inception_3a/1x1
I0403 18:50:22.635851 23556 net.cpp:425] inception_3a/output <- inception_3a/3x3
I0403 18:50:22.635866 23556 net.cpp:425] inception_3a/output <- inception_3a/5x5
I0403 18:50:22.635881 23556 net.cpp:425] inception_3a/output <- inception_3a/pool_proj
I0403 18:50:22.635900 23556 net.cpp:399] inception_3a/output -> inception_3a/output
I0403 18:50:22.635951 23556 net.cpp:141] Setting up inception_3a/output
I0403 18:50:22.635972 23556 net.cpp:148] Top shape: 24 256 28 28 (4816896)
I0403 18:50:22.635987 23556 net.cpp:156] Memory required for data: 580437024
I0403 18:50:22.636001 23556 layer_factory.hpp:77] Creating layer inception_3a/output_inception_3a/output_0_split
I0403 18:50:22.636018 23556 net.cpp:91] Creating Layer inception_3a/output_inception_3a/output_0_split
I0403 18:50:22.636032 23556 net.cpp:425] inception_3a/output_inception_3a/output_0_split <- inception_3a/output
I0403 18:50:22.636052 23556 net.cpp:399] inception_3a/output_inception_3a/output_0_split -> inception_3a/output_inception_3a/output_0_split_0
I0403 18:50:22.636071 23556 net.cpp:399] inception_3a/output_inception_3a/output_0_split -> inception_3a/output_inception_3a/output_0_split_1
I0403 18:50:22.636093 23556 net.cpp:399] inception_3a/output_inception_3a/output_0_split -> inception_3a/output_inception_3a/output_0_split_2
I0403 18:50:22.636114 23556 net.cpp:399] inception_3a/output_inception_3a/output_0_split -> inception_3a/output_inception_3a/output_0_split_3
I0403 18:50:22.636191 23556 net.cpp:141] Setting up inception_3a/output_inception_3a/output_0_split
I0403 18:50:22.636214 23556 net.cpp:148] Top shape: 24 256 28 28 (4816896)
I0403 18:50:22.636229 23556 net.cpp:148] Top shape: 24 256 28 28 (4816896)
I0403 18:50:22.636245 23556 net.cpp:148] Top shape: 24 256 28 28 (4816896)
I0403 18:50:22.636260 23556 net.cpp:148] Top shape: 24 256 28 28 (4816896)
I0403 18:50:22.636273 23556 net.cpp:156] Memory required for data: 657507360
I0403 18:50:22.636287 23556 layer_factory.hpp:77] Creating layer inception_3b/1x1
I0403 18:50:22.636309 23556 net.cpp:91] Creating Layer inception_3b/1x1
I0403 18:50:22.636327 23556 net.cpp:425] inception_3b/1x1 <- inception_3a/output_inception_3a/output_0_split_0
I0403 18:50:22.636346 23556 net.cpp:399] inception_3b/1x1 -> inception_3b/1x1
I0403 18:50:22.637477 23556 net.cpp:141] Setting up inception_3b/1x1
I0403 18:50:22.637518 23556 net.cpp:148] Top shape: 24 128 28 28 (2408448)
I0403 18:50:22.637536 23556 net.cpp:156] Memory required for data: 667141152
I0403 18:50:22.637558 23556 layer_factory.hpp:77] Creating layer inception_3b/relu_1x1
I0403 18:50:22.637578 23556 net.cpp:91] Creating Layer inception_3b/relu_1x1
I0403 18:50:22.637593 23556 net.cpp:425] inception_3b/relu_1x1 <- inception_3b/1x1
I0403 18:50:22.637614 23556 net.cpp:386] inception_3b/relu_1x1 -> inception_3b/1x1 (in-place)
I0403 18:50:22.637791 23556 net.cpp:141] Setting up inception_3b/relu_1x1
I0403 18:50:22.637815 23556 net.cpp:148] Top shape: 24 128 28 28 (2408448)
I0403 18:50:22.637830 23556 net.cpp:156] Memory required for data: 676774944
I0403 18:50:22.637845 23556 layer_factory.hpp:77] Creating layer inception_3b/3x3_reduce
I0403 18:50:22.637866 23556 net.cpp:91] Creating Layer inception_3b/3x3_reduce
I0403 18:50:22.637883 23556 net.cpp:425] inception_3b/3x3_reduce <- inception_3a/output_inception_3a/output_0_split_1
I0403 18:50:22.637904 23556 net.cpp:399] inception_3b/3x3_reduce -> inception_3b/3x3_reduce
I0403 18:50:22.639048 23556 net.cpp:141] Setting up inception_3b/3x3_reduce
I0403 18:50:22.639075 23556 net.cpp:148] Top shape: 24 128 28 28 (2408448)
I0403 18:50:22.639091 23556 net.cpp:156] Memory required for data: 686408736
I0403 18:50:22.639109 23556 layer_factory.hpp:77] Creating layer inception_3b/relu_3x3_reduce
I0403 18:50:22.639127 23556 net.cpp:91] Creating Layer inception_3b/relu_3x3_reduce
I0403 18:50:22.639142 23556 net.cpp:425] inception_3b/relu_3x3_reduce <- inception_3b/3x3_reduce
I0403 18:50:22.639161 23556 net.cpp:386] inception_3b/relu_3x3_reduce -> inception_3b/3x3_reduce (in-place)
I0403 18:50:22.639348 23556 net.cpp:141] Setting up inception_3b/relu_3x3_reduce
I0403 18:50:22.639374 23556 net.cpp:148] Top shape: 24 128 28 28 (2408448)
I0403 18:50:22.639389 23556 net.cpp:156] Memory required for data: 696042528
I0403 18:50:22.639403 23556 layer_factory.hpp:77] Creating layer inception_3b/3x3
I0403 18:50:22.639433 23556 net.cpp:91] Creating Layer inception_3b/3x3
I0403 18:50:22.639451 23556 net.cpp:425] inception_3b/3x3 <- inception_3b/3x3_reduce
I0403 18:50:22.639470 23556 net.cpp:399] inception_3b/3x3 -> inception_3b/3x3
I0403 18:50:22.642379 23556 net.cpp:141] Setting up inception_3b/3x3
I0403 18:50:22.642407 23556 net.cpp:148] Top shape: 24 192 28 28 (3612672)
I0403 18:50:22.642422 23556 net.cpp:156] Memory required for data: 710493216
I0403 18:50:22.642439 23556 layer_factory.hpp:77] Creating layer inception_3b/relu_3x3
I0403 18:50:22.642459 23556 net.cpp:91] Creating Layer inception_3b/relu_3x3
I0403 18:50:22.642475 23556 net.cpp:425] inception_3b/relu_3x3 <- inception_3b/3x3
I0403 18:50:22.642491 23556 net.cpp:386] inception_3b/relu_3x3 -> inception_3b/3x3 (in-place)
I0403 18:50:22.642765 23556 net.cpp:141] Setting up inception_3b/relu_3x3
I0403 18:50:22.642791 23556 net.cpp:148] Top shape: 24 192 28 28 (3612672)
I0403 18:50:22.642805 23556 net.cpp:156] Memory required for data: 724943904
I0403 18:50:22.642820 23556 layer_factory.hpp:77] Creating layer inception_3b/5x5_reduce
I0403 18:50:22.642843 23556 net.cpp:91] Creating Layer inception_3b/5x5_reduce
I0403 18:50:22.642859 23556 net.cpp:425] inception_3b/5x5_reduce <- inception_3a/output_inception_3a/output_0_split_2
I0403 18:50:22.642879 23556 net.cpp:399] inception_3b/5x5_reduce -> inception_3b/5x5_reduce
I0403 18:50:22.643847 23556 net.cpp:141] Setting up inception_3b/5x5_reduce
I0403 18:50:22.643874 23556 net.cpp:148] Top shape: 24 32 28 28 (602112)
I0403 18:50:22.643889 23556 net.cpp:156] Memory required for data: 727352352
I0403 18:50:22.643906 23556 layer_factory.hpp:77] Creating layer inception_3b/relu_5x5_reduce
I0403 18:50:22.643924 23556 net.cpp:91] Creating Layer inception_3b/relu_5x5_reduce
I0403 18:50:22.643939 23556 net.cpp:425] inception_3b/relu_5x5_reduce <- inception_3b/5x5_reduce
I0403 18:50:22.643957 23556 net.cpp:386] inception_3b/relu_5x5_reduce -> inception_3b/5x5_reduce (in-place)
I0403 18:50:22.644150 23556 net.cpp:141] Setting up inception_3b/relu_5x5_reduce
I0403 18:50:22.644173 23556 net.cpp:148] Top shape: 24 32 28 28 (602112)
I0403 18:50:22.644187 23556 net.cpp:156] Memory required for data: 729760800
I0403 18:50:22.644201 23556 layer_factory.hpp:77] Creating layer inception_3b/5x5
I0403 18:50:22.644222 23556 net.cpp:91] Creating Layer inception_3b/5x5
I0403 18:50:22.644239 23556 net.cpp:425] inception_3b/5x5 <- inception_3b/5x5_reduce
I0403 18:50:22.644259 23556 net.cpp:399] inception_3b/5x5 -> inception_3b/5x5
I0403 18:50:22.646216 23556 net.cpp:141] Setting up inception_3b/5x5
I0403 18:50:22.646244 23556 net.cpp:148] Top shape: 24 96 28 28 (1806336)
I0403 18:50:22.646258 23556 net.cpp:156] Memory required for data: 736986144
I0403 18:50:22.646276 23556 layer_factory.hpp:77] Creating layer inception_3b/relu_5x5
I0403 18:50:22.646293 23556 net.cpp:91] Creating Layer inception_3b/relu_5x5
I0403 18:50:22.646309 23556 net.cpp:425] inception_3b/relu_5x5 <- inception_3b/5x5
I0403 18:50:22.646327 23556 net.cpp:386] inception_3b/relu_5x5 -> inception_3b/5x5 (in-place)
I0403 18:50:22.646517 23556 net.cpp:141] Setting up inception_3b/relu_5x5
I0403 18:50:22.646546 23556 net.cpp:148] Top shape: 24 96 28 28 (1806336)
I0403 18:50:22.646563 23556 net.cpp:156] Memory required for data: 744211488
I0403 18:50:22.646576 23556 layer_factory.hpp:77] Creating layer inception_3b/pool
I0403 18:50:22.646595 23556 net.cpp:91] Creating Layer inception_3b/pool
I0403 18:50:22.646610 23556 net.cpp:425] inception_3b/pool <- inception_3a/output_inception_3a/output_0_split_3
I0403 18:50:22.646627 23556 net.cpp:399] inception_3b/pool -> inception_3b/pool
I0403 18:50:22.646684 23556 net.cpp:141] Setting up inception_3b/pool
I0403 18:50:22.646708 23556 net.cpp:148] Top shape: 24 256 28 28 (4816896)
I0403 18:50:22.646721 23556 net.cpp:156] Memory required for data: 763479072
I0403 18:50:22.646735 23556 layer_factory.hpp:77] Creating layer inception_3b/pool_proj
I0403 18:50:22.646756 23556 net.cpp:91] Creating Layer inception_3b/pool_proj
I0403 18:50:22.646773 23556 net.cpp:425] inception_3b/pool_proj <- inception_3b/pool
I0403 18:50:22.646792 23556 net.cpp:399] inception_3b/pool_proj -> inception_3b/pool_proj
I0403 18:50:22.647851 23556 net.cpp:141] Setting up inception_3b/pool_proj
I0403 18:50:22.647879 23556 net.cpp:148] Top shape: 24 64 28 28 (1204224)
I0403 18:50:22.647896 23556 net.cpp:156] Memory required for data: 768295968
I0403 18:50:22.647913 23556 layer_factory.hpp:77] Creating layer inception_3b/relu_pool_proj
I0403 18:50:22.647930 23556 net.cpp:91] Creating Layer inception_3b/relu_pool_proj
I0403 18:50:22.647945 23556 net.cpp:425] inception_3b/relu_pool_proj <- inception_3b/pool_proj
I0403 18:50:22.647961 23556 net.cpp:386] inception_3b/relu_pool_proj -> inception_3b/pool_proj (in-place)
I0403 18:50:22.648339 23556 net.cpp:141] Setting up inception_3b/relu_pool_proj
I0403 18:50:22.648363 23556 net.cpp:148] Top shape: 24 64 28 28 (1204224)
I0403 18:50:22.648378 23556 net.cpp:156] Memory required for data: 773112864
I0403 18:50:22.648392 23556 layer_factory.hpp:77] Creating layer inception_3b/output
I0403 18:50:22.648411 23556 net.cpp:91] Creating Layer inception_3b/output
I0403 18:50:22.648427 23556 net.cpp:425] inception_3b/output <- inception_3b/1x1
I0403 18:50:22.648442 23556 net.cpp:425] inception_3b/output <- inception_3b/3x3
I0403 18:50:22.648458 23556 net.cpp:425] inception_3b/output <- inception_3b/5x5
I0403 18:50:22.648473 23556 net.cpp:425] inception_3b/output <- inception_3b/pool_proj
I0403 18:50:22.648489 23556 net.cpp:399] inception_3b/output -> inception_3b/output
I0403 18:50:22.648533 23556 net.cpp:141] Setting up inception_3b/output
I0403 18:50:22.648560 23556 net.cpp:148] Top shape: 24 480 28 28 (9031680)
I0403 18:50:22.648573 23556 net.cpp:156] Memory required for data: 809239584
I0403 18:50:22.648587 23556 layer_factory.hpp:77] Creating layer pool3/3x3_s2
I0403 18:50:22.648604 23556 net.cpp:91] Creating Layer pool3/3x3_s2
I0403 18:50:22.648619 23556 net.cpp:425] pool3/3x3_s2 <- inception_3b/output
I0403 18:50:22.648653 23556 net.cpp:399] pool3/3x3_s2 -> pool3/3x3_s2
I0403 18:50:22.648710 23556 net.cpp:141] Setting up pool3/3x3_s2
I0403 18:50:22.648731 23556 net.cpp:148] Top shape: 24 480 14 14 (2257920)
I0403 18:50:22.648746 23556 net.cpp:156] Memory required for data: 818271264
I0403 18:50:22.648758 23556 layer_factory.hpp:77] Creating layer pool3/3x3_s2_pool3/3x3_s2_0_split
I0403 18:50:22.648777 23556 net.cpp:91] Creating Layer pool3/3x3_s2_pool3/3x3_s2_0_split
I0403 18:50:22.648792 23556 net.cpp:425] pool3/3x3_s2_pool3/3x3_s2_0_split <- pool3/3x3_s2
I0403 18:50:22.648810 23556 net.cpp:399] pool3/3x3_s2_pool3/3x3_s2_0_split -> pool3/3x3_s2_pool3/3x3_s2_0_split_0
I0403 18:50:22.648829 23556 net.cpp:399] pool3/3x3_s2_pool3/3x3_s2_0_split -> pool3/3x3_s2_pool3/3x3_s2_0_split_1
I0403 18:50:22.648849 23556 net.cpp:399] pool3/3x3_s2_pool3/3x3_s2_0_split -> pool3/3x3_s2_pool3/3x3_s2_0_split_2
I0403 18:50:22.648866 23556 net.cpp:399] pool3/3x3_s2_pool3/3x3_s2_0_split -> pool3/3x3_s2_pool3/3x3_s2_0_split_3
I0403 18:50:22.648938 23556 net.cpp:141] Setting up pool3/3x3_s2_pool3/3x3_s2_0_split
I0403 18:50:22.648960 23556 net.cpp:148] Top shape: 24 480 14 14 (2257920)
I0403 18:50:22.648978 23556 net.cpp:148] Top shape: 24 480 14 14 (2257920)
I0403 18:50:22.648993 23556 net.cpp:148] Top shape: 24 480 14 14 (2257920)
I0403 18:50:22.649008 23556 net.cpp:148] Top shape: 24 480 14 14 (2257920)
I0403 18:50:22.649020 23556 net.cpp:156] Memory required for data: 854397984
I0403 18:50:22.649034 23556 layer_factory.hpp:77] Creating layer inception_4a/1x1
I0403 18:50:22.649054 23556 net.cpp:91] Creating Layer inception_4a/1x1
I0403 18:50:22.649068 23556 net.cpp:425] inception_4a/1x1 <- pool3/3x3_s2_pool3/3x3_s2_0_split_0
I0403 18:50:22.649088 23556 net.cpp:399] inception_4a/1x1 -> inception_4a/1x1
I0403 18:50:22.650692 23556 net.cpp:141] Setting up inception_4a/1x1
I0403 18:50:22.650722 23556 net.cpp:148] Top shape: 24 192 14 14 (903168)
I0403 18:50:22.650739 23556 net.cpp:156] Memory required for data: 858010656
I0403 18:50:22.650758 23556 layer_factory.hpp:77] Creating layer inception_4a/relu_1x1
I0403 18:50:22.650775 23556 net.cpp:91] Creating Layer inception_4a/relu_1x1
I0403 18:50:22.650792 23556 net.cpp:425] inception_4a/relu_1x1 <- inception_4a/1x1
I0403 18:50:22.650810 23556 net.cpp:386] inception_4a/relu_1x1 -> inception_4a/1x1 (in-place)
I0403 18:50:22.650992 23556 net.cpp:141] Setting up inception_4a/relu_1x1
I0403 18:50:22.651018 23556 net.cpp:148] Top shape: 24 192 14 14 (903168)
I0403 18:50:22.651032 23556 net.cpp:156] Memory required for data: 861623328
I0403 18:50:22.651047 23556 layer_factory.hpp:77] Creating layer inception_4a/3x3_reduce
I0403 18:50:22.651068 23556 net.cpp:91] Creating Layer inception_4a/3x3_reduce
I0403 18:50:22.651087 23556 net.cpp:425] inception_4a/3x3_reduce <- pool3/3x3_s2_pool3/3x3_s2_0_split_1
I0403 18:50:22.651108 23556 net.cpp:399] inception_4a/3x3_reduce -> inception_4a/3x3_reduce
I0403 18:50:22.652367 23556 net.cpp:141] Setting up inception_4a/3x3_reduce
I0403 18:50:22.652395 23556 net.cpp:148] Top shape: 24 96 14 14 (451584)
I0403 18:50:22.652410 23556 net.cpp:156] Memory required for data: 863429664
I0403 18:50:22.652436 23556 layer_factory.hpp:77] Creating layer inception_4a/relu_3x3_reduce
I0403 18:50:22.652456 23556 net.cpp:91] Creating Layer inception_4a/relu_3x3_reduce
I0403 18:50:22.652472 23556 net.cpp:425] inception_4a/relu_3x3_reduce <- inception_4a/3x3_reduce
I0403 18:50:22.652489 23556 net.cpp:386] inception_4a/relu_3x3_reduce -> inception_4a/3x3_reduce (in-place)
I0403 18:50:22.652668 23556 net.cpp:141] Setting up inception_4a/relu_3x3_reduce
I0403 18:50:22.652695 23556 net.cpp:148] Top shape: 24 96 14 14 (451584)
I0403 18:50:22.652711 23556 net.cpp:156] Memory required for data: 865236000
I0403 18:50:22.652725 23556 layer_factory.hpp:77] Creating layer inception_4a/3x3
I0403 18:50:22.652747 23556 net.cpp:91] Creating Layer inception_4a/3x3
I0403 18:50:22.652765 23556 net.cpp:425] inception_4a/3x3 <- inception_4a/3x3_reduce
I0403 18:50:22.652784 23556 net.cpp:399] inception_4a/3x3 -> inception_4a/3x3
I0403 18:50:22.655529 23556 net.cpp:141] Setting up inception_4a/3x3
I0403 18:50:22.655575 23556 net.cpp:148] Top shape: 24 208 14 14 (978432)
I0403 18:50:22.655591 23556 net.cpp:156] Memory required for data: 869149728
I0403 18:50:22.655608 23556 layer_factory.hpp:77] Creating layer inception_4a/relu_3x3
I0403 18:50:22.655627 23556 net.cpp:91] Creating Layer inception_4a/relu_3x3
I0403 18:50:22.655642 23556 net.cpp:425] inception_4a/relu_3x3 <- inception_4a/3x3
I0403 18:50:22.655661 23556 net.cpp:386] inception_4a/relu_3x3 -> inception_4a/3x3 (in-place)
I0403 18:50:22.655946 23556 net.cpp:141] Setting up inception_4a/relu_3x3
I0403 18:50:22.655973 23556 net.cpp:148] Top shape: 24 208 14 14 (978432)
I0403 18:50:22.655987 23556 net.cpp:156] Memory required for data: 873063456
I0403 18:50:22.656002 23556 layer_factory.hpp:77] Creating layer inception_4a/5x5_reduce
I0403 18:50:22.656024 23556 net.cpp:91] Creating Layer inception_4a/5x5_reduce
I0403 18:50:22.656043 23556 net.cpp:425] inception_4a/5x5_reduce <- pool3/3x3_s2_pool3/3x3_s2_0_split_2
I0403 18:50:22.656064 23556 net.cpp:399] inception_4a/5x5_reduce -> inception_4a/5x5_reduce
I0403 18:50:22.657099 23556 net.cpp:141] Setting up inception_4a/5x5_reduce
I0403 18:50:22.657125 23556 net.cpp:148] Top shape: 24 16 14 14 (75264)
I0403 18:50:22.657140 23556 net.cpp:156] Memory required for data: 873364512
I0403 18:50:22.657157 23556 layer_factory.hpp:77] Creating layer inception_4a/relu_5x5_reduce
I0403 18:50:22.657176 23556 net.cpp:91] Creating Layer inception_4a/relu_5x5_reduce
I0403 18:50:22.657191 23556 net.cpp:425] inception_4a/relu_5x5_reduce <- inception_4a/5x5_reduce
I0403 18:50:22.657210 23556 net.cpp:386] inception_4a/relu_5x5_reduce -> inception_4a/5x5_reduce (in-place)
I0403 18:50:22.657388 23556 net.cpp:141] Setting up inception_4a/relu_5x5_reduce
I0403 18:50:22.657413 23556 net.cpp:148] Top shape: 24 16 14 14 (75264)
I0403 18:50:22.657428 23556 net.cpp:156] Memory required for data: 873665568
I0403 18:50:22.657443 23556 layer_factory.hpp:77] Creating layer inception_4a/5x5
I0403 18:50:22.657464 23556 net.cpp:91] Creating Layer inception_4a/5x5
I0403 18:50:22.657481 23556 net.cpp:425] inception_4a/5x5 <- inception_4a/5x5_reduce
I0403 18:50:22.657502 23556 net.cpp:399] inception_4a/5x5 -> inception_4a/5x5
I0403 18:50:22.658627 23556 net.cpp:141] Setting up inception_4a/5x5
I0403 18:50:22.658653 23556 net.cpp:148] Top shape: 24 48 14 14 (225792)
I0403 18:50:22.658668 23556 net.cpp:156] Memory required for data: 874568736
I0403 18:50:22.658686 23556 layer_factory.hpp:77] Creating layer inception_4a/relu_5x5
I0403 18:50:22.658706 23556 net.cpp:91] Creating Layer inception_4a/relu_5x5
I0403 18:50:22.658722 23556 net.cpp:425] inception_4a/relu_5x5 <- inception_4a/5x5
I0403 18:50:22.658740 23556 net.cpp:386] inception_4a/relu_5x5 -> inception_4a/5x5 (in-place)
I0403 18:50:22.658915 23556 net.cpp:141] Setting up inception_4a/relu_5x5
I0403 18:50:22.658941 23556 net.cpp:148] Top shape: 24 48 14 14 (225792)
I0403 18:50:22.658957 23556 net.cpp:156] Memory required for data: 875471904
I0403 18:50:22.658972 23556 layer_factory.hpp:77] Creating layer inception_4a/pool
I0403 18:50:22.658988 23556 net.cpp:91] Creating Layer inception_4a/pool
I0403 18:50:22.659004 23556 net.cpp:425] inception_4a/pool <- pool3/3x3_s2_pool3/3x3_s2_0_split_3
I0403 18:50:22.659024 23556 net.cpp:399] inception_4a/pool -> inception_4a/pool
I0403 18:50:22.659085 23556 net.cpp:141] Setting up inception_4a/pool
I0403 18:50:22.659108 23556 net.cpp:148] Top shape: 24 480 14 14 (2257920)
I0403 18:50:22.659122 23556 net.cpp:156] Memory required for data: 884503584
I0403 18:50:22.659137 23556 layer_factory.hpp:77] Creating layer inception_4a/pool_proj
I0403 18:50:22.659157 23556 net.cpp:91] Creating Layer inception_4a/pool_proj
I0403 18:50:22.659178 23556 net.cpp:425] inception_4a/pool_proj <- inception_4a/pool
I0403 18:50:22.659195 23556 net.cpp:399] inception_4a/pool_proj -> inception_4a/pool_proj
I0403 18:50:22.660390 23556 net.cpp:141] Setting up inception_4a/pool_proj
I0403 18:50:22.660419 23556 net.cpp:148] Top shape: 24 64 14 14 (301056)
I0403 18:50:22.660449 23556 net.cpp:156] Memory required for data: 885707808
I0403 18:50:22.660468 23556 layer_factory.hpp:77] Creating layer inception_4a/relu_pool_proj
I0403 18:50:22.660490 23556 net.cpp:91] Creating Layer inception_4a/relu_pool_proj
I0403 18:50:22.660506 23556 net.cpp:425] inception_4a/relu_pool_proj <- inception_4a/pool_proj
I0403 18:50:22.660522 23556 net.cpp:386] inception_4a/relu_pool_proj -> inception_4a/pool_proj (in-place)
I0403 18:50:22.660811 23556 net.cpp:141] Setting up inception_4a/relu_pool_proj
I0403 18:50:22.660837 23556 net.cpp:148] Top shape: 24 64 14 14 (301056)
I0403 18:50:22.660852 23556 net.cpp:156] Memory required for data: 886912032
I0403 18:50:22.660866 23556 layer_factory.hpp:77] Creating layer inception_4a/output
I0403 18:50:22.660886 23556 net.cpp:91] Creating Layer inception_4a/output
I0403 18:50:22.660902 23556 net.cpp:425] inception_4a/output <- inception_4a/1x1
I0403 18:50:22.660918 23556 net.cpp:425] inception_4a/output <- inception_4a/3x3
I0403 18:50:22.660933 23556 net.cpp:425] inception_4a/output <- inception_4a/5x5
I0403 18:50:22.660949 23556 net.cpp:425] inception_4a/output <- inception_4a/pool_proj
I0403 18:50:22.660965 23556 net.cpp:399] inception_4a/output -> inception_4a/output
I0403 18:50:22.661010 23556 net.cpp:141] Setting up inception_4a/output
I0403 18:50:22.661033 23556 net.cpp:148] Top shape: 24 512 14 14 (2408448)
I0403 18:50:22.661048 23556 net.cpp:156] Memory required for data: 896545824
I0403 18:50:22.661062 23556 layer_factory.hpp:77] Creating layer inception_4a/output_inception_4a/output_0_split
I0403 18:50:22.661080 23556 net.cpp:91] Creating Layer inception_4a/output_inception_4a/output_0_split
I0403 18:50:22.661094 23556 net.cpp:425] inception_4a/output_inception_4a/output_0_split <- inception_4a/output
I0403 18:50:22.661114 23556 net.cpp:399] inception_4a/output_inception_4a/output_0_split -> inception_4a/output_inception_4a/output_0_split_0
I0403 18:50:22.661135 23556 net.cpp:399] inception_4a/output_inception_4a/output_0_split -> inception_4a/output_inception_4a/output_0_split_1
I0403 18:50:22.661156 23556 net.cpp:399] inception_4a/output_inception_4a/output_0_split -> inception_4a/output_inception_4a/output_0_split_2
I0403 18:50:22.661180 23556 net.cpp:399] inception_4a/output_inception_4a/output_0_split -> inception_4a/output_inception_4a/output_0_split_3
I0403 18:50:22.661200 23556 net.cpp:399] inception_4a/output_inception_4a/output_0_split -> inception_4a/output_inception_4a/output_0_split_4
I0403 18:50:22.661293 23556 net.cpp:141] Setting up inception_4a/output_inception_4a/output_0_split
I0403 18:50:22.661316 23556 net.cpp:148] Top shape: 24 512 14 14 (2408448)
I0403 18:50:22.661332 23556 net.cpp:148] Top shape: 24 512 14 14 (2408448)
I0403 18:50:22.661347 23556 net.cpp:148] Top shape: 24 512 14 14 (2408448)
I0403 18:50:22.661362 23556 net.cpp:148] Top shape: 24 512 14 14 (2408448)
I0403 18:50:22.661377 23556 net.cpp:148] Top shape: 24 512 14 14 (2408448)
I0403 18:50:22.661391 23556 net.cpp:156] Memory required for data: 944714784
I0403 18:50:22.661404 23556 layer_factory.hpp:77] Creating layer loss1/ave_pool
I0403 18:50:22.661422 23556 net.cpp:91] Creating Layer loss1/ave_pool
I0403 18:50:22.661437 23556 net.cpp:425] loss1/ave_pool <- inception_4a/output_inception_4a/output_0_split_0
I0403 18:50:22.661458 23556 net.cpp:399] loss1/ave_pool -> loss1/ave_pool
I0403 18:50:22.661669 23556 net.cpp:141] Setting up loss1/ave_pool
I0403 18:50:22.661696 23556 net.cpp:148] Top shape: 24 512 4 4 (196608)
I0403 18:50:22.661712 23556 net.cpp:156] Memory required for data: 945501216
I0403 18:50:22.661726 23556 layer_factory.hpp:77] Creating layer loss1/conv
I0403 18:50:22.661748 23556 net.cpp:91] Creating Layer loss1/conv
I0403 18:50:22.661767 23556 net.cpp:425] loss1/conv <- loss1/ave_pool
I0403 18:50:22.661785 23556 net.cpp:399] loss1/conv -> loss1/conv
I0403 18:50:22.663259 23556 net.cpp:141] Setting up loss1/conv
I0403 18:50:22.663285 23556 net.cpp:148] Top shape: 24 128 4 4 (49152)
I0403 18:50:22.663314 23556 net.cpp:156] Memory required for data: 945697824
I0403 18:50:22.663334 23556 layer_factory.hpp:77] Creating layer loss1/relu_conv
I0403 18:50:22.663352 23556 net.cpp:91] Creating Layer loss1/relu_conv
I0403 18:50:22.663367 23556 net.cpp:425] loss1/relu_conv <- loss1/conv
I0403 18:50:22.663385 23556 net.cpp:386] loss1/relu_conv -> loss1/conv (in-place)
I0403 18:50:22.663672 23556 net.cpp:141] Setting up loss1/relu_conv
I0403 18:50:22.663698 23556 net.cpp:148] Top shape: 24 128 4 4 (49152)
I0403 18:50:22.663714 23556 net.cpp:156] Memory required for data: 945894432
I0403 18:50:22.663728 23556 layer_factory.hpp:77] Creating layer loss1/fc
I0403 18:50:22.663750 23556 net.cpp:91] Creating Layer loss1/fc
I0403 18:50:22.663769 23556 net.cpp:425] loss1/fc <- loss1/conv
I0403 18:50:22.663789 23556 net.cpp:399] loss1/fc -> loss1/fc
I0403 18:50:22.681435 23556 net.cpp:141] Setting up loss1/fc
I0403 18:50:22.681468 23556 net.cpp:148] Top shape: 24 1024 (24576)
I0403 18:50:22.681483 23556 net.cpp:156] Memory required for data: 945992736
I0403 18:50:22.681500 23556 layer_factory.hpp:77] Creating layer loss1/relu_fc
I0403 18:50:22.681517 23556 net.cpp:91] Creating Layer loss1/relu_fc
I0403 18:50:22.681532 23556 net.cpp:425] loss1/relu_fc <- loss1/fc
I0403 18:50:22.681553 23556 net.cpp:386] loss1/relu_fc -> loss1/fc (in-place)
I0403 18:50:22.681741 23556 net.cpp:141] Setting up loss1/relu_fc
I0403 18:50:22.681766 23556 net.cpp:148] Top shape: 24 1024 (24576)
I0403 18:50:22.681779 23556 net.cpp:156] Memory required for data: 946091040
I0403 18:50:22.681793 23556 layer_factory.hpp:77] Creating layer loss1/drop_fc
I0403 18:50:22.681818 23556 net.cpp:91] Creating Layer loss1/drop_fc
I0403 18:50:22.681835 23556 net.cpp:425] loss1/drop_fc <- loss1/fc
I0403 18:50:22.681854 23556 net.cpp:386] loss1/drop_fc -> loss1/fc (in-place)
I0403 18:50:22.681901 23556 net.cpp:141] Setting up loss1/drop_fc
I0403 18:50:22.681924 23556 net.cpp:148] Top shape: 24 1024 (24576)
I0403 18:50:22.681937 23556 net.cpp:156] Memory required for data: 946189344
I0403 18:50:22.681951 23556 layer_factory.hpp:77] Creating layer loss1/classifier_plantvillage
I0403 18:50:22.681972 23556 net.cpp:91] Creating Layer loss1/classifier_plantvillage
I0403 18:50:22.681988 23556 net.cpp:425] loss1/classifier_plantvillage <- loss1/fc
I0403 18:50:22.682005 23556 net.cpp:399] loss1/classifier_plantvillage -> loss1/classifier_plantvillage
I0403 18:50:22.682893 23556 net.cpp:141] Setting up loss1/classifier_plantvillage
I0403 18:50:22.682921 23556 net.cpp:148] Top shape: 24 38 (912)
I0403 18:50:22.682935 23556 net.cpp:156] Memory required for data: 946192992
I0403 18:50:22.682953 23556 layer_factory.hpp:77] Creating layer loss1/classifier_plantvillage_loss1/classifier_plantvillage_0_split
I0403 18:50:22.682971 23556 net.cpp:91] Creating Layer loss1/classifier_plantvillage_loss1/classifier_plantvillage_0_split
I0403 18:50:22.682986 23556 net.cpp:425] loss1/classifier_plantvillage_loss1/classifier_plantvillage_0_split <- loss1/classifier_plantvillage
I0403 18:50:22.683002 23556 net.cpp:399] loss1/classifier_plantvillage_loss1/classifier_plantvillage_0_split -> loss1/classifier_plantvillage_loss1/classifier_plantvillage_0_split_0
I0403 18:50:22.683024 23556 net.cpp:399] loss1/classifier_plantvillage_loss1/classifier_plantvillage_0_split -> loss1/classifier_plantvillage_loss1/classifier_plantvillage_0_split_1
I0403 18:50:22.683045 23556 net.cpp:399] loss1/classifier_plantvillage_loss1/classifier_plantvillage_0_split -> loss1/classifier_plantvillage_loss1/classifier_plantvillage_0_split_2
I0403 18:50:22.683107 23556 net.cpp:141] Setting up loss1/classifier_plantvillage_loss1/classifier_plantvillage_0_split
I0403 18:50:22.683130 23556 net.cpp:148] Top shape: 24 38 (912)
I0403 18:50:22.683145 23556 net.cpp:148] Top shape: 24 38 (912)
I0403 18:50:22.683161 23556 net.cpp:148] Top shape: 24 38 (912)
I0403 18:50:22.683174 23556 net.cpp:156] Memory required for data: 946203936
I0403 18:50:22.683187 23556 layer_factory.hpp:77] Creating layer inception_4b/1x1
I0403 18:50:22.683207 23556 net.cpp:91] Creating Layer inception_4b/1x1
I0403 18:50:22.683239 23556 net.cpp:425] inception_4b/1x1 <- inception_4a/output_inception_4a/output_0_split_1
I0403 18:50:22.683261 23556 net.cpp:399] inception_4b/1x1 -> inception_4b/1x1
I0403 18:50:22.684883 23556 net.cpp:141] Setting up inception_4b/1x1
I0403 18:50:22.684911 23556 net.cpp:148] Top shape: 24 160 14 14 (752640)
I0403 18:50:22.684926 23556 net.cpp:156] Memory required for data: 949214496
I0403 18:50:22.684943 23556 layer_factory.hpp:77] Creating layer inception_4b/relu_1x1
I0403 18:50:22.684962 23556 net.cpp:91] Creating Layer inception_4b/relu_1x1
I0403 18:50:22.684976 23556 net.cpp:425] inception_4b/relu_1x1 <- inception_4b/1x1
I0403 18:50:22.684995 23556 net.cpp:386] inception_4b/relu_1x1 -> inception_4b/1x1 (in-place)
I0403 18:50:22.685171 23556 net.cpp:141] Setting up inception_4b/relu_1x1
I0403 18:50:22.685195 23556 net.cpp:148] Top shape: 24 160 14 14 (752640)
I0403 18:50:22.685209 23556 net.cpp:156] Memory required for data: 952225056
I0403 18:50:22.685222 23556 layer_factory.hpp:77] Creating layer inception_4b/3x3_reduce
I0403 18:50:22.685243 23556 net.cpp:91] Creating Layer inception_4b/3x3_reduce
I0403 18:50:22.685261 23556 net.cpp:425] inception_4b/3x3_reduce <- inception_4a/output_inception_4a/output_0_split_2
I0403 18:50:22.685281 23556 net.cpp:399] inception_4b/3x3_reduce -> inception_4b/3x3_reduce
I0403 18:50:22.686612 23556 net.cpp:141] Setting up inception_4b/3x3_reduce
I0403 18:50:22.686640 23556 net.cpp:148] Top shape: 24 112 14 14 (526848)
I0403 18:50:22.686655 23556 net.cpp:156] Memory required for data: 954332448
I0403 18:50:22.686672 23556 layer_factory.hpp:77] Creating layer inception_4b/relu_3x3_reduce
I0403 18:50:22.686692 23556 net.cpp:91] Creating Layer inception_4b/relu_3x3_reduce
I0403 18:50:22.686709 23556 net.cpp:425] inception_4b/relu_3x3_reduce <- inception_4b/3x3_reduce
I0403 18:50:22.686725 23556 net.cpp:386] inception_4b/relu_3x3_reduce -> inception_4b/3x3_reduce (in-place)
I0403 18:50:22.687005 23556 net.cpp:141] Setting up inception_4b/relu_3x3_reduce
I0403 18:50:22.687029 23556 net.cpp:148] Top shape: 24 112 14 14 (526848)
I0403 18:50:22.687044 23556 net.cpp:156] Memory required for data: 956439840
I0403 18:50:22.687058 23556 layer_factory.hpp:77] Creating layer inception_4b/3x3
I0403 18:50:22.687080 23556 net.cpp:91] Creating Layer inception_4b/3x3
I0403 18:50:22.687098 23556 net.cpp:425] inception_4b/3x3 <- inception_4b/3x3_reduce
I0403 18:50:22.687117 23556 net.cpp:399] inception_4b/3x3 -> inception_4b/3x3
I0403 18:50:22.690049 23556 net.cpp:141] Setting up inception_4b/3x3
I0403 18:50:22.690079 23556 net.cpp:148] Top shape: 24 224 14 14 (1053696)
I0403 18:50:22.690096 23556 net.cpp:156] Memory required for data: 960654624
I0403 18:50:22.690114 23556 layer_factory.hpp:77] Creating layer inception_4b/relu_3x3
I0403 18:50:22.690130 23556 net.cpp:91] Creating Layer inception_4b/relu_3x3
I0403 18:50:22.690146 23556 net.cpp:425] inception_4b/relu_3x3 <- inception_4b/3x3
I0403 18:50:22.690163 23556 net.cpp:386] inception_4b/relu_3x3 -> inception_4b/3x3 (in-place)
I0403 18:50:22.690341 23556 net.cpp:141] Setting up inception_4b/relu_3x3
I0403 18:50:22.690366 23556 net.cpp:148] Top shape: 24 224 14 14 (1053696)
I0403 18:50:22.690379 23556 net.cpp:156] Memory required for data: 964869408
I0403 18:50:22.690393 23556 layer_factory.hpp:77] Creating layer inception_4b/5x5_reduce
I0403 18:50:22.690417 23556 net.cpp:91] Creating Layer inception_4b/5x5_reduce
I0403 18:50:22.690433 23556 net.cpp:425] inception_4b/5x5_reduce <- inception_4a/output_inception_4a/output_0_split_3
I0403 18:50:22.690454 23556 net.cpp:399] inception_4b/5x5_reduce -> inception_4b/5x5_reduce
I0403 18:50:22.691507 23556 net.cpp:141] Setting up inception_4b/5x5_reduce
I0403 18:50:22.691534 23556 net.cpp:148] Top shape: 24 24 14 14 (112896)
I0403 18:50:22.691553 23556 net.cpp:156] Memory required for data: 965320992
I0403 18:50:22.691576 23556 layer_factory.hpp:77] Creating layer inception_4b/relu_5x5_reduce
I0403 18:50:22.691596 23556 net.cpp:91] Creating Layer inception_4b/relu_5x5_reduce
I0403 18:50:22.691625 23556 net.cpp:425] inception_4b/relu_5x5_reduce <- inception_4b/5x5_reduce
I0403 18:50:22.691644 23556 net.cpp:386] inception_4b/relu_5x5_reduce -> inception_4b/5x5_reduce (in-place)
I0403 18:50:22.691823 23556 net.cpp:141] Setting up inception_4b/relu_5x5_reduce
I0403 18:50:22.691848 23556 net.cpp:148] Top shape: 24 24 14 14 (112896)
I0403 18:50:22.691864 23556 net.cpp:156] Memory required for data: 965772576
I0403 18:50:22.691877 23556 layer_factory.hpp:77] Creating layer inception_4b/5x5
I0403 18:50:22.691900 23556 net.cpp:91] Creating Layer inception_4b/5x5
I0403 18:50:22.691916 23556 net.cpp:425] inception_4b/5x5 <- inception_4b/5x5_reduce
I0403 18:50:22.691936 23556 net.cpp:399] inception_4b/5x5 -> inception_4b/5x5
I0403 18:50:22.693140 23556 net.cpp:141] Setting up inception_4b/5x5
I0403 18:50:22.693166 23556 net.cpp:148] Top shape: 24 64 14 14 (301056)
I0403 18:50:22.693181 23556 net.cpp:156] Memory required for data: 966976800
I0403 18:50:22.693198 23556 layer_factory.hpp:77] Creating layer inception_4b/relu_5x5
I0403 18:50:22.693215 23556 net.cpp:91] Creating Layer inception_4b/relu_5x5
I0403 18:50:22.693231 23556 net.cpp:425] inception_4b/relu_5x5 <- inception_4b/5x5
I0403 18:50:22.693250 23556 net.cpp:386] inception_4b/relu_5x5 -> inception_4b/5x5 (in-place)
I0403 18:50:22.693550 23556 net.cpp:141] Setting up inception_4b/relu_5x5
I0403 18:50:22.693577 23556 net.cpp:148] Top shape: 24 64 14 14 (301056)
I0403 18:50:22.693591 23556 net.cpp:156] Memory required for data: 968181024
I0403 18:50:22.693617 23556 layer_factory.hpp:77] Creating layer inception_4b/pool
I0403 18:50:22.693634 23556 net.cpp:91] Creating Layer inception_4b/pool
I0403 18:50:22.693650 23556 net.cpp:425] inception_4b/pool <- inception_4a/output_inception_4a/output_0_split_4
I0403 18:50:22.693672 23556 net.cpp:399] inception_4b/pool -> inception_4b/pool
I0403 18:50:22.693735 23556 net.cpp:141] Setting up inception_4b/pool
I0403 18:50:22.693758 23556 net.cpp:148] Top shape: 24 512 14 14 (2408448)
I0403 18:50:22.693773 23556 net.cpp:156] Memory required for data: 977814816
I0403 18:50:22.693785 23556 layer_factory.hpp:77] Creating layer inception_4b/pool_proj
I0403 18:50:22.693809 23556 net.cpp:91] Creating Layer inception_4b/pool_proj
I0403 18:50:22.693825 23556 net.cpp:425] inception_4b/pool_proj <- inception_4b/pool
I0403 18:50:22.693842 23556 net.cpp:399] inception_4b/pool_proj -> inception_4b/pool_proj
I0403 18:50:22.695019 23556 net.cpp:141] Setting up inception_4b/pool_proj
I0403 18:50:22.695044 23556 net.cpp:148] Top shape: 24 64 14 14 (301056)
I0403 18:50:22.695060 23556 net.cpp:156] Memory required for data: 979019040
I0403 18:50:22.695076 23556 layer_factory.hpp:77] Creating layer inception_4b/relu_pool_proj
I0403 18:50:22.695096 23556 net.cpp:91] Creating Layer inception_4b/relu_pool_proj
I0403 18:50:22.695113 23556 net.cpp:425] inception_4b/relu_pool_proj <- inception_4b/pool_proj
I0403 18:50:22.695129 23556 net.cpp:386] inception_4b/relu_pool_proj -> inception_4b/pool_proj (in-place)
I0403 18:50:22.695308 23556 net.cpp:141] Setting up inception_4b/relu_pool_proj
I0403 18:50:22.695333 23556 net.cpp:148] Top shape: 24 64 14 14 (301056)
I0403 18:50:22.695349 23556 net.cpp:156] Memory required for data: 980223264
I0403 18:50:22.695363 23556 layer_factory.hpp:77] Creating layer inception_4b/output
I0403 18:50:22.695379 23556 net.cpp:91] Creating Layer inception_4b/output
I0403 18:50:22.695394 23556 net.cpp:425] inception_4b/output <- inception_4b/1x1
I0403 18:50:22.695410 23556 net.cpp:425] inception_4b/output <- inception_4b/3x3
I0403 18:50:22.695425 23556 net.cpp:425] inception_4b/output <- inception_4b/5x5
I0403 18:50:22.695441 23556 net.cpp:425] inception_4b/output <- inception_4b/pool_proj
I0403 18:50:22.695459 23556 net.cpp:399] inception_4b/output -> inception_4b/output
I0403 18:50:22.695507 23556 net.cpp:141] Setting up inception_4b/output
I0403 18:50:22.695529 23556 net.cpp:148] Top shape: 24 512 14 14 (2408448)
I0403 18:50:22.695554 23556 net.cpp:156] Memory required for data: 989857056
I0403 18:50:22.695588 23556 layer_factory.hpp:77] Creating layer inception_4b/output_inception_4b/output_0_split
I0403 18:50:22.695606 23556 net.cpp:91] Creating Layer inception_4b/output_inception_4b/output_0_split
I0403 18:50:22.695621 23556 net.cpp:425] inception_4b/output_inception_4b/output_0_split <- inception_4b/output
I0403 18:50:22.695641 23556 net.cpp:399] inception_4b/output_inception_4b/output_0_split -> inception_4b/output_inception_4b/output_0_split_0
I0403 18:50:22.695662 23556 net.cpp:399] inception_4b/output_inception_4b/output_0_split -> inception_4b/output_inception_4b/output_0_split_1
I0403 18:50:22.695682 23556 net.cpp:399] inception_4b/output_inception_4b/output_0_split -> inception_4b/output_inception_4b/output_0_split_2
I0403 18:50:22.695701 23556 net.cpp:399] inception_4b/output_inception_4b/output_0_split -> inception_4b/output_inception_4b/output_0_split_3
I0403 18:50:22.695785 23556 net.cpp:141] Setting up inception_4b/output_inception_4b/output_0_split
I0403 18:50:22.695808 23556 net.cpp:148] Top shape: 24 512 14 14 (2408448)
I0403 18:50:22.695824 23556 net.cpp:148] Top shape: 24 512 14 14 (2408448)
I0403 18:50:22.695838 23556 net.cpp:148] Top shape: 24 512 14 14 (2408448)
I0403 18:50:22.695853 23556 net.cpp:148] Top shape: 24 512 14 14 (2408448)
I0403 18:50:22.695868 23556 net.cpp:156] Memory required for data: 1028392224
I0403 18:50:22.695881 23556 layer_factory.hpp:77] Creating layer inception_4c/1x1
I0403 18:50:22.695902 23556 net.cpp:91] Creating Layer inception_4c/1x1
I0403 18:50:22.695919 23556 net.cpp:425] inception_4c/1x1 <- inception_4b/output_inception_4b/output_0_split_0
I0403 18:50:22.695940 23556 net.cpp:399] inception_4c/1x1 -> inception_4c/1x1
I0403 18:50:22.697337 23556 net.cpp:141] Setting up inception_4c/1x1
I0403 18:50:22.697368 23556 net.cpp:148] Top shape: 24 128 14 14 (602112)
I0403 18:50:22.697384 23556 net.cpp:156] Memory required for data: 1030800672
I0403 18:50:22.697402 23556 layer_factory.hpp:77] Creating layer inception_4c/relu_1x1
I0403 18:50:22.697418 23556 net.cpp:91] Creating Layer inception_4c/relu_1x1
I0403 18:50:22.697434 23556 net.cpp:425] inception_4c/relu_1x1 <- inception_4c/1x1
I0403 18:50:22.697450 23556 net.cpp:386] inception_4c/relu_1x1 -> inception_4c/1x1 (in-place)
I0403 18:50:22.697649 23556 net.cpp:141] Setting up inception_4c/relu_1x1
I0403 18:50:22.697675 23556 net.cpp:148] Top shape: 24 128 14 14 (602112)
I0403 18:50:22.697691 23556 net.cpp:156] Memory required for data: 1033209120
I0403 18:50:22.697705 23556 layer_factory.hpp:77] Creating layer inception_4c/3x3_reduce
I0403 18:50:22.697727 23556 net.cpp:91] Creating Layer inception_4c/3x3_reduce
I0403 18:50:22.697744 23556 net.cpp:425] inception_4c/3x3_reduce <- inception_4b/output_inception_4b/output_0_split_1
I0403 18:50:22.697767 23556 net.cpp:399] inception_4c/3x3_reduce -> inception_4c/3x3_reduce
I0403 18:50:22.699739 23556 net.cpp:141] Setting up inception_4c/3x3_reduce
I0403 18:50:22.699769 23556 net.cpp:148] Top shape: 24 128 14 14 (602112)
I0403 18:50:22.699784 23556 net.cpp:156] Memory required for data: 1035617568
I0403 18:50:22.699801 23556 layer_factory.hpp:77] Creating layer inception_4c/relu_3x3_reduce
I0403 18:50:22.699820 23556 net.cpp:91] Creating Layer inception_4c/relu_3x3_reduce
I0403 18:50:22.699839 23556 net.cpp:425] inception_4c/relu_3x3_reduce <- inception_4c/3x3_reduce
I0403 18:50:22.699856 23556 net.cpp:386] inception_4c/relu_3x3_reduce -> inception_4c/3x3_reduce (in-place)
I0403 18:50:22.700142 23556 net.cpp:141] Setting up inception_4c/relu_3x3_reduce
I0403 18:50:22.700168 23556 net.cpp:148] Top shape: 24 128 14 14 (602112)
I0403 18:50:22.700183 23556 net.cpp:156] Memory required for data: 1038026016
I0403 18:50:22.700198 23556 layer_factory.hpp:77] Creating layer inception_4c/3x3
I0403 18:50:22.700220 23556 net.cpp:91] Creating Layer inception_4c/3x3
I0403 18:50:22.700237 23556 net.cpp:425] inception_4c/3x3 <- inception_4c/3x3_reduce
I0403 18:50:22.700259 23556 net.cpp:399] inception_4c/3x3 -> inception_4c/3x3
I0403 18:50:22.703871 23556 net.cpp:141] Setting up inception_4c/3x3
I0403 18:50:22.703912 23556 net.cpp:148] Top shape: 24 256 14 14 (1204224)
I0403 18:50:22.703929 23556 net.cpp:156] Memory required for data: 1042842912
I0403 18:50:22.703961 23556 layer_factory.hpp:77] Creating layer inception_4c/relu_3x3
I0403 18:50:22.703981 23556 net.cpp:91] Creating Layer inception_4c/relu_3x3
I0403 18:50:22.703999 23556 net.cpp:425] inception_4c/relu_3x3 <- inception_4c/3x3
I0403 18:50:22.704020 23556 net.cpp:386] inception_4c/relu_3x3 -> inception_4c/3x3 (in-place)
I0403 18:50:22.704203 23556 net.cpp:141] Setting up inception_4c/relu_3x3
I0403 18:50:22.704227 23556 net.cpp:148] Top shape: 24 256 14 14 (1204224)
I0403 18:50:22.704242 23556 net.cpp:156] Memory required for data: 1047659808
I0403 18:50:22.704257 23556 layer_factory.hpp:77] Creating layer inception_4c/5x5_reduce
I0403 18:50:22.704279 23556 net.cpp:91] Creating Layer inception_4c/5x5_reduce
I0403 18:50:22.704296 23556 net.cpp:425] inception_4c/5x5_reduce <- inception_4b/output_inception_4b/output_0_split_2
I0403 18:50:22.704318 23556 net.cpp:399] inception_4c/5x5_reduce -> inception_4c/5x5_reduce
I0403 18:50:22.705435 23556 net.cpp:141] Setting up inception_4c/5x5_reduce
I0403 18:50:22.705462 23556 net.cpp:148] Top shape: 24 24 14 14 (112896)
I0403 18:50:22.705478 23556 net.cpp:156] Memory required for data: 1048111392
I0403 18:50:22.705497 23556 layer_factory.hpp:77] Creating layer inception_4c/relu_5x5_reduce
I0403 18:50:22.705516 23556 net.cpp:91] Creating Layer inception_4c/relu_5x5_reduce
I0403 18:50:22.705534 23556 net.cpp:425] inception_4c/relu_5x5_reduce <- inception_4c/5x5_reduce
I0403 18:50:22.705577 23556 net.cpp:386] inception_4c/relu_5x5_reduce -> inception_4c/5x5_reduce (in-place)
I0403 18:50:22.705765 23556 net.cpp:141] Setting up inception_4c/relu_5x5_reduce
I0403 18:50:22.705788 23556 net.cpp:148] Top shape: 24 24 14 14 (112896)
I0403 18:50:22.705803 23556 net.cpp:156] Memory required for data: 1048562976
I0403 18:50:22.705818 23556 layer_factory.hpp:77] Creating layer inception_4c/5x5
I0403 18:50:22.705842 23556 net.cpp:91] Creating Layer inception_4c/5x5
I0403 18:50:22.705858 23556 net.cpp:425] inception_4c/5x5 <- inception_4c/5x5_reduce
I0403 18:50:22.705876 23556 net.cpp:399] inception_4c/5x5 -> inception_4c/5x5
I0403 18:50:22.707126 23556 net.cpp:141] Setting up inception_4c/5x5
I0403 18:50:22.707154 23556 net.cpp:148] Top shape: 24 64 14 14 (301056)
I0403 18:50:22.707171 23556 net.cpp:156] Memory required for data: 1049767200
I0403 18:50:22.707190 23556 layer_factory.hpp:77] Creating layer inception_4c/relu_5x5
I0403 18:50:22.707207 23556 net.cpp:91] Creating Layer inception_4c/relu_5x5
I0403 18:50:22.707222 23556 net.cpp:425] inception_4c/relu_5x5 <- inception_4c/5x5
I0403 18:50:22.707239 23556 net.cpp:386] inception_4c/relu_5x5 -> inception_4c/5x5 (in-place)
I0403 18:50:22.707532 23556 net.cpp:141] Setting up inception_4c/relu_5x5
I0403 18:50:22.707561 23556 net.cpp:148] Top shape: 24 64 14 14 (301056)
I0403 18:50:22.707581 23556 net.cpp:156] Memory required for data: 1050971424
I0403 18:50:22.707595 23556 layer_factory.hpp:77] Creating layer inception_4c/pool
I0403 18:50:22.707613 23556 net.cpp:91] Creating Layer inception_4c/pool
I0403 18:50:22.707629 23556 net.cpp:425] inception_4c/pool <- inception_4b/output_inception_4b/output_0_split_3
I0403 18:50:22.707648 23556 net.cpp:399] inception_4c/pool -> inception_4c/pool
I0403 18:50:22.707713 23556 net.cpp:141] Setting up inception_4c/pool
I0403 18:50:22.707737 23556 net.cpp:148] Top shape: 24 512 14 14 (2408448)
I0403 18:50:22.707751 23556 net.cpp:156] Memory required for data: 1060605216
I0403 18:50:22.707765 23556 layer_factory.hpp:77] Creating layer inception_4c/pool_proj
I0403 18:50:22.707788 23556 net.cpp:91] Creating Layer inception_4c/pool_proj
I0403 18:50:22.707806 23556 net.cpp:425] inception_4c/pool_proj <- inception_4c/pool
I0403 18:50:22.707826 23556 net.cpp:399] inception_4c/pool_proj -> inception_4c/pool_proj
I0403 18:50:22.709048 23556 net.cpp:141] Setting up inception_4c/pool_proj
I0403 18:50:22.709074 23556 net.cpp:148] Top shape: 24 64 14 14 (301056)
I0403 18:50:22.709105 23556 net.cpp:156] Memory required for data: 1061809440
I0403 18:50:22.709123 23556 layer_factory.hpp:77] Creating layer inception_4c/relu_pool_proj
I0403 18:50:22.709141 23556 net.cpp:91] Creating Layer inception_4c/relu_pool_proj
I0403 18:50:22.709157 23556 net.cpp:425] inception_4c/relu_pool_proj <- inception_4c/pool_proj
I0403 18:50:22.709177 23556 net.cpp:386] inception_4c/relu_pool_proj -> inception_4c/pool_proj (in-place)
I0403 18:50:22.709358 23556 net.cpp:141] Setting up inception_4c/relu_pool_proj
I0403 18:50:22.709383 23556 net.cpp:148] Top shape: 24 64 14 14 (301056)
I0403 18:50:22.709398 23556 net.cpp:156] Memory required for data: 1063013664
I0403 18:50:22.709413 23556 layer_factory.hpp:77] Creating layer inception_4c/output
I0403 18:50:22.709431 23556 net.cpp:91] Creating Layer inception_4c/output
I0403 18:50:22.709447 23556 net.cpp:425] inception_4c/output <- inception_4c/1x1
I0403 18:50:22.709463 23556 net.cpp:425] inception_4c/output <- inception_4c/3x3
I0403 18:50:22.709478 23556 net.cpp:425] inception_4c/output <- inception_4c/5x5
I0403 18:50:22.709493 23556 net.cpp:425] inception_4c/output <- inception_4c/pool_proj
I0403 18:50:22.709509 23556 net.cpp:399] inception_4c/output -> inception_4c/output
I0403 18:50:22.709560 23556 net.cpp:141] Setting up inception_4c/output
I0403 18:50:22.709583 23556 net.cpp:148] Top shape: 24 512 14 14 (2408448)
I0403 18:50:22.709599 23556 net.cpp:156] Memory required for data: 1072647456
I0403 18:50:22.709612 23556 layer_factory.hpp:77] Creating layer inception_4c/output_inception_4c/output_0_split
I0403 18:50:22.709628 23556 net.cpp:91] Creating Layer inception_4c/output_inception_4c/output_0_split
I0403 18:50:22.709643 23556 net.cpp:425] inception_4c/output_inception_4c/output_0_split <- inception_4c/output
I0403 18:50:22.709663 23556 net.cpp:399] inception_4c/output_inception_4c/output_0_split -> inception_4c/output_inception_4c/output_0_split_0
I0403 18:50:22.709683 23556 net.cpp:399] inception_4c/output_inception_4c/output_0_split -> inception_4c/output_inception_4c/output_0_split_1
I0403 18:50:22.709703 23556 net.cpp:399] inception_4c/output_inception_4c/output_0_split -> inception_4c/output_inception_4c/output_0_split_2
I0403 18:50:22.709723 23556 net.cpp:399] inception_4c/output_inception_4c/output_0_split -> inception_4c/output_inception_4c/output_0_split_3
I0403 18:50:22.709807 23556 net.cpp:141] Setting up inception_4c/output_inception_4c/output_0_split
I0403 18:50:22.709830 23556 net.cpp:148] Top shape: 24 512 14 14 (2408448)
I0403 18:50:22.709846 23556 net.cpp:148] Top shape: 24 512 14 14 (2408448)
I0403 18:50:22.709861 23556 net.cpp:148] Top shape: 24 512 14 14 (2408448)
I0403 18:50:22.709875 23556 net.cpp:148] Top shape: 24 512 14 14 (2408448)
I0403 18:50:22.709889 23556 net.cpp:156] Memory required for data: 1111182624
I0403 18:50:22.709903 23556 layer_factory.hpp:77] Creating layer inception_4d/1x1
I0403 18:50:22.709925 23556 net.cpp:91] Creating Layer inception_4d/1x1
I0403 18:50:22.709942 23556 net.cpp:425] inception_4d/1x1 <- inception_4c/output_inception_4c/output_0_split_0
I0403 18:50:22.709964 23556 net.cpp:399] inception_4d/1x1 -> inception_4d/1x1
I0403 18:50:22.711382 23556 net.cpp:141] Setting up inception_4d/1x1
I0403 18:50:22.711412 23556 net.cpp:148] Top shape: 24 112 14 14 (526848)
I0403 18:50:22.711428 23556 net.cpp:156] Memory required for data: 1113290016
I0403 18:50:22.711447 23556 layer_factory.hpp:77] Creating layer inception_4d/relu_1x1
I0403 18:50:22.711464 23556 net.cpp:91] Creating Layer inception_4d/relu_1x1
I0403 18:50:22.711480 23556 net.cpp:425] inception_4d/relu_1x1 <- inception_4d/1x1
I0403 18:50:22.711498 23556 net.cpp:386] inception_4d/relu_1x1 -> inception_4d/1x1 (in-place)
I0403 18:50:22.711694 23556 net.cpp:141] Setting up inception_4d/relu_1x1
I0403 18:50:22.711719 23556 net.cpp:148] Top shape: 24 112 14 14 (526848)
I0403 18:50:22.711733 23556 net.cpp:156] Memory required for data: 1115397408
I0403 18:50:22.711748 23556 layer_factory.hpp:77] Creating layer inception_4d/3x3_reduce
I0403 18:50:22.711784 23556 net.cpp:91] Creating Layer inception_4d/3x3_reduce
I0403 18:50:22.711802 23556 net.cpp:425] inception_4d/3x3_reduce <- inception_4c/output_inception_4c/output_0_split_1
I0403 18:50:22.711823 23556 net.cpp:399] inception_4d/3x3_reduce -> inception_4d/3x3_reduce
I0403 18:50:22.713356 23556 net.cpp:141] Setting up inception_4d/3x3_reduce
I0403 18:50:22.713384 23556 net.cpp:148] Top shape: 24 144 14 14 (677376)
I0403 18:50:22.713400 23556 net.cpp:156] Memory required for data: 1118106912
I0403 18:50:22.713418 23556 layer_factory.hpp:77] Creating layer inception_4d/relu_3x3_reduce
I0403 18:50:22.713439 23556 net.cpp:91] Creating Layer inception_4d/relu_3x3_reduce
I0403 18:50:22.713456 23556 net.cpp:425] inception_4d/relu_3x3_reduce <- inception_4d/3x3_reduce
I0403 18:50:22.713474 23556 net.cpp:386] inception_4d/relu_3x3_reduce -> inception_4d/3x3_reduce (in-place)
I0403 18:50:22.713783 23556 net.cpp:141] Setting up inception_4d/relu_3x3_reduce
I0403 18:50:22.713807 23556 net.cpp:148] Top shape: 24 144 14 14 (677376)
I0403 18:50:22.713822 23556 net.cpp:156] Memory required for data: 1120816416
I0403 18:50:22.713836 23556 layer_factory.hpp:77] Creating layer inception_4d/3x3
I0403 18:50:22.713860 23556 net.cpp:91] Creating Layer inception_4d/3x3
I0403 18:50:22.713877 23556 net.cpp:425] inception_4d/3x3 <- inception_4d/3x3_reduce
I0403 18:50:22.713896 23556 net.cpp:399] inception_4d/3x3 -> inception_4d/3x3
I0403 18:50:22.718170 23556 net.cpp:141] Setting up inception_4d/3x3
I0403 18:50:22.718200 23556 net.cpp:148] Top shape: 24 288 14 14 (1354752)
I0403 18:50:22.718216 23556 net.cpp:156] Memory required for data: 1126235424
I0403 18:50:22.718235 23556 layer_factory.hpp:77] Creating layer inception_4d/relu_3x3
I0403 18:50:22.718252 23556 net.cpp:91] Creating Layer inception_4d/relu_3x3
I0403 18:50:22.718267 23556 net.cpp:425] inception_4d/relu_3x3 <- inception_4d/3x3
I0403 18:50:22.718286 23556 net.cpp:386] inception_4d/relu_3x3 -> inception_4d/3x3 (in-place)
I0403 18:50:22.718466 23556 net.cpp:141] Setting up inception_4d/relu_3x3
I0403 18:50:22.718489 23556 net.cpp:148] Top shape: 24 288 14 14 (1354752)
I0403 18:50:22.718503 23556 net.cpp:156] Memory required for data: 1131654432
I0403 18:50:22.718518 23556 layer_factory.hpp:77] Creating layer inception_4d/5x5_reduce
I0403 18:50:22.718543 23556 net.cpp:91] Creating Layer inception_4d/5x5_reduce
I0403 18:50:22.718560 23556 net.cpp:425] inception_4d/5x5_reduce <- inception_4c/output_inception_4c/output_0_split_2
I0403 18:50:22.718581 23556 net.cpp:399] inception_4d/5x5_reduce -> inception_4d/5x5_reduce
I0403 18:50:22.719712 23556 net.cpp:141] Setting up inception_4d/5x5_reduce
I0403 18:50:22.719738 23556 net.cpp:148] Top shape: 24 32 14 14 (150528)
I0403 18:50:22.719753 23556 net.cpp:156] Memory required for data: 1132256544
I0403 18:50:22.719769 23556 layer_factory.hpp:77] Creating layer inception_4d/relu_5x5_reduce
I0403 18:50:22.719786 23556 net.cpp:91] Creating Layer inception_4d/relu_5x5_reduce
I0403 18:50:22.719802 23556 net.cpp:425] inception_4d/relu_5x5_reduce <- inception_4d/5x5_reduce
I0403 18:50:22.719820 23556 net.cpp:386] inception_4d/relu_5x5_reduce -> inception_4d/5x5_reduce (in-place)
I0403 18:50:22.720006 23556 net.cpp:141] Setting up inception_4d/relu_5x5_reduce
I0403 18:50:22.720031 23556 net.cpp:148] Top shape: 24 32 14 14 (150528)
I0403 18:50:22.720047 23556 net.cpp:156] Memory required for data: 1132858656
I0403 18:50:22.720062 23556 layer_factory.hpp:77] Creating layer inception_4d/5x5
I0403 18:50:22.720082 23556 net.cpp:91] Creating Layer inception_4d/5x5
I0403 18:50:22.720099 23556 net.cpp:425] inception_4d/5x5 <- inception_4d/5x5_reduce
I0403 18:50:22.720119 23556 net.cpp:399] inception_4d/5x5 -> inception_4d/5x5
I0403 18:50:22.721590 23556 net.cpp:141] Setting up inception_4d/5x5
I0403 18:50:22.721618 23556 net.cpp:148] Top shape: 24 64 14 14 (301056)
I0403 18:50:22.721634 23556 net.cpp:156] Memory required for data: 1134062880
I0403 18:50:22.721652 23556 layer_factory.hpp:77] Creating layer inception_4d/relu_5x5
I0403 18:50:22.721688 23556 net.cpp:91] Creating Layer inception_4d/relu_5x5
I0403 18:50:22.721704 23556 net.cpp:425] inception_4d/relu_5x5 <- inception_4d/5x5
I0403 18:50:22.721721 23556 net.cpp:386] inception_4d/relu_5x5 -> inception_4d/5x5 (in-place)
I0403 18:50:22.722017 23556 net.cpp:141] Setting up inception_4d/relu_5x5
I0403 18:50:22.722041 23556 net.cpp:148] Top shape: 24 64 14 14 (301056)
I0403 18:50:22.722056 23556 net.cpp:156] Memory required for data: 1135267104
I0403 18:50:22.722071 23556 layer_factory.hpp:77] Creating layer inception_4d/pool
I0403 18:50:22.722090 23556 net.cpp:91] Creating Layer inception_4d/pool
I0403 18:50:22.722107 23556 net.cpp:425] inception_4d/pool <- inception_4c/output_inception_4c/output_0_split_3
I0403 18:50:22.722124 23556 net.cpp:399] inception_4d/pool -> inception_4d/pool
I0403 18:50:22.722189 23556 net.cpp:141] Setting up inception_4d/pool
I0403 18:50:22.722213 23556 net.cpp:148] Top shape: 24 512 14 14 (2408448)
I0403 18:50:22.722228 23556 net.cpp:156] Memory required for data: 1144900896
I0403 18:50:22.722240 23556 layer_factory.hpp:77] Creating layer inception_4d/pool_proj
I0403 18:50:22.722275 23556 net.cpp:91] Creating Layer inception_4d/pool_proj
I0403 18:50:22.722293 23556 net.cpp:425] inception_4d/pool_proj <- inception_4d/pool
I0403 18:50:22.722317 23556 net.cpp:399] inception_4d/pool_proj -> inception_4d/pool_proj
I0403 18:50:22.724091 23556 net.cpp:141] Setting up inception_4d/pool_proj
I0403 18:50:22.724120 23556 net.cpp:148] Top shape: 24 64 14 14 (301056)
I0403 18:50:22.724136 23556 net.cpp:156] Memory required for data: 1146105120
I0403 18:50:22.724154 23556 layer_factory.hpp:77] Creating layer inception_4d/relu_pool_proj
I0403 18:50:22.724171 23556 net.cpp:91] Creating Layer inception_4d/relu_pool_proj
I0403 18:50:22.724187 23556 net.cpp:425] inception_4d/relu_pool_proj <- inception_4d/pool_proj
I0403 18:50:22.724205 23556 net.cpp:386] inception_4d/relu_pool_proj -> inception_4d/pool_proj (in-place)
I0403 18:50:22.724388 23556 net.cpp:141] Setting up inception_4d/relu_pool_proj
I0403 18:50:22.724412 23556 net.cpp:148] Top shape: 24 64 14 14 (301056)
I0403 18:50:22.724426 23556 net.cpp:156] Memory required for data: 1147309344
I0403 18:50:22.724441 23556 layer_factory.hpp:77] Creating layer inception_4d/output
I0403 18:50:22.724457 23556 net.cpp:91] Creating Layer inception_4d/output
I0403 18:50:22.724472 23556 net.cpp:425] inception_4d/output <- inception_4d/1x1
I0403 18:50:22.724488 23556 net.cpp:425] inception_4d/output <- inception_4d/3x3
I0403 18:50:22.724503 23556 net.cpp:425] inception_4d/output <- inception_4d/5x5
I0403 18:50:22.724517 23556 net.cpp:425] inception_4d/output <- inception_4d/pool_proj
I0403 18:50:22.724539 23556 net.cpp:399] inception_4d/output -> inception_4d/output
I0403 18:50:22.724589 23556 net.cpp:141] Setting up inception_4d/output
I0403 18:50:22.724613 23556 net.cpp:148] Top shape: 24 528 14 14 (2483712)
I0403 18:50:22.724627 23556 net.cpp:156] Memory required for data: 1157244192
I0403 18:50:22.724642 23556 layer_factory.hpp:77] Creating layer inception_4d/output_inception_4d/output_0_split
I0403 18:50:22.724658 23556 net.cpp:91] Creating Layer inception_4d/output_inception_4d/output_0_split
I0403 18:50:22.724673 23556 net.cpp:425] inception_4d/output_inception_4d/output_0_split <- inception_4d/output
I0403 18:50:22.724692 23556 net.cpp:399] inception_4d/output_inception_4d/output_0_split -> inception_4d/output_inception_4d/output_0_split_0
I0403 18:50:22.724712 23556 net.cpp:399] inception_4d/output_inception_4d/output_0_split -> inception_4d/output_inception_4d/output_0_split_1
I0403 18:50:22.724732 23556 net.cpp:399] inception_4d/output_inception_4d/output_0_split -> inception_4d/output_inception_4d/output_0_split_2
I0403 18:50:22.724752 23556 net.cpp:399] inception_4d/output_inception_4d/output_0_split -> inception_4d/output_inception_4d/output_0_split_3
I0403 18:50:22.724771 23556 net.cpp:399] inception_4d/output_inception_4d/output_0_split -> inception_4d/output_inception_4d/output_0_split_4
I0403 18:50:22.724870 23556 net.cpp:141] Setting up inception_4d/output_inception_4d/output_0_split
I0403 18:50:22.724907 23556 net.cpp:148] Top shape: 24 528 14 14 (2483712)
I0403 18:50:22.724925 23556 net.cpp:148] Top shape: 24 528 14 14 (2483712)
I0403 18:50:22.724939 23556 net.cpp:148] Top shape: 24 528 14 14 (2483712)
I0403 18:50:22.724953 23556 net.cpp:148] Top shape: 24 528 14 14 (2483712)
I0403 18:50:22.724967 23556 net.cpp:148] Top shape: 24 528 14 14 (2483712)
I0403 18:50:22.724980 23556 net.cpp:156] Memory required for data: 1206918432
I0403 18:50:22.724994 23556 layer_factory.hpp:77] Creating layer loss2/ave_pool
I0403 18:50:22.725011 23556 net.cpp:91] Creating Layer loss2/ave_pool
I0403 18:50:22.725026 23556 net.cpp:425] loss2/ave_pool <- inception_4d/output_inception_4d/output_0_split_0
I0403 18:50:22.725045 23556 net.cpp:399] loss2/ave_pool -> loss2/ave_pool
I0403 18:50:22.725368 23556 net.cpp:141] Setting up loss2/ave_pool
I0403 18:50:22.725396 23556 net.cpp:148] Top shape: 24 528 4 4 (202752)
I0403 18:50:22.725412 23556 net.cpp:156] Memory required for data: 1207729440
I0403 18:50:22.725427 23556 layer_factory.hpp:77] Creating layer loss2/conv
I0403 18:50:22.725450 23556 net.cpp:91] Creating Layer loss2/conv
I0403 18:50:22.725467 23556 net.cpp:425] loss2/conv <- loss2/ave_pool
I0403 18:50:22.725487 23556 net.cpp:399] loss2/conv -> loss2/conv
I0403 18:50:22.727375 23556 net.cpp:141] Setting up loss2/conv
I0403 18:50:22.727403 23556 net.cpp:148] Top shape: 24 128 4 4 (49152)
I0403 18:50:22.727418 23556 net.cpp:156] Memory required for data: 1207926048
I0403 18:50:22.727437 23556 layer_factory.hpp:77] Creating layer loss2/relu_conv
I0403 18:50:22.727458 23556 net.cpp:91] Creating Layer loss2/relu_conv
I0403 18:50:22.727474 23556 net.cpp:425] loss2/relu_conv <- loss2/conv
I0403 18:50:22.727490 23556 net.cpp:386] loss2/relu_conv -> loss2/conv (in-place)
I0403 18:50:22.727776 23556 net.cpp:141] Setting up loss2/relu_conv
I0403 18:50:22.727802 23556 net.cpp:148] Top shape: 24 128 4 4 (49152)
I0403 18:50:22.727816 23556 net.cpp:156] Memory required for data: 1208122656
I0403 18:50:22.727830 23556 layer_factory.hpp:77] Creating layer loss2/fc
I0403 18:50:22.727850 23556 net.cpp:91] Creating Layer loss2/fc
I0403 18:50:22.727867 23556 net.cpp:425] loss2/fc <- loss2/conv
I0403 18:50:22.727887 23556 net.cpp:399] loss2/fc -> loss2/fc
I0403 18:50:22.745326 23556 net.cpp:141] Setting up loss2/fc
I0403 18:50:22.745355 23556 net.cpp:148] Top shape: 24 1024 (24576)
I0403 18:50:22.745369 23556 net.cpp:156] Memory required for data: 1208220960
I0403 18:50:22.745388 23556 layer_factory.hpp:77] Creating layer loss2/relu_fc
I0403 18:50:22.745405 23556 net.cpp:91] Creating Layer loss2/relu_fc
I0403 18:50:22.745421 23556 net.cpp:425] loss2/relu_fc <- loss2/fc
I0403 18:50:22.745440 23556 net.cpp:386] loss2/relu_fc -> loss2/fc (in-place)
I0403 18:50:22.745743 23556 net.cpp:141] Setting up loss2/relu_fc
I0403 18:50:22.745769 23556 net.cpp:148] Top shape: 24 1024 (24576)
I0403 18:50:22.745784 23556 net.cpp:156] Memory required for data: 1208319264
I0403 18:50:22.745797 23556 layer_factory.hpp:77] Creating layer loss2/drop_fc
I0403 18:50:22.745815 23556 net.cpp:91] Creating Layer loss2/drop_fc
I0403 18:50:22.745831 23556 net.cpp:425] loss2/drop_fc <- loss2/fc
I0403 18:50:22.745848 23556 net.cpp:386] loss2/drop_fc -> loss2/fc (in-place)
I0403 18:50:22.745896 23556 net.cpp:141] Setting up loss2/drop_fc
I0403 18:50:22.745920 23556 net.cpp:148] Top shape: 24 1024 (24576)
I0403 18:50:22.745935 23556 net.cpp:156] Memory required for data: 1208417568
I0403 18:50:22.745949 23556 layer_factory.hpp:77] Creating layer loss2/classifier_plantvillage
I0403 18:50:22.745966 23556 net.cpp:91] Creating Layer loss2/classifier_plantvillage
I0403 18:50:22.745981 23556 net.cpp:425] loss2/classifier_plantvillage <- loss2/fc
I0403 18:50:22.746002 23556 net.cpp:399] loss2/classifier_plantvillage -> loss2/classifier_plantvillage
I0403 18:50:22.746412 23556 net.cpp:141] Setting up loss2/classifier_plantvillage
I0403 18:50:22.746436 23556 net.cpp:148] Top shape: 24 38 (912)
I0403 18:50:22.746469 23556 net.cpp:156] Memory required for data: 1208421216
I0403 18:50:22.746489 23556 layer_factory.hpp:77] Creating layer loss2/classifier_plantvillage_loss2/classifier_plantvillage_0_split
I0403 18:50:22.746508 23556 net.cpp:91] Creating Layer loss2/classifier_plantvillage_loss2/classifier_plantvillage_0_split
I0403 18:50:22.746526 23556 net.cpp:425] loss2/classifier_plantvillage_loss2/classifier_plantvillage_0_split <- loss2/classifier_plantvillage
I0403 18:50:22.746547 23556 net.cpp:399] loss2/classifier_plantvillage_loss2/classifier_plantvillage_0_split -> loss2/classifier_plantvillage_loss2/classifier_plantvillage_0_split_0
I0403 18:50:22.746580 23556 net.cpp:399] loss2/classifier_plantvillage_loss2/classifier_plantvillage_0_split -> loss2/classifier_plantvillage_loss2/classifier_plantvillage_0_split_1
I0403 18:50:22.746604 23556 net.cpp:399] loss2/classifier_plantvillage_loss2/classifier_plantvillage_0_split -> loss2/classifier_plantvillage_loss2/classifier_plantvillage_0_split_2
I0403 18:50:22.746681 23556 net.cpp:141] Setting up loss2/classifier_plantvillage_loss2/classifier_plantvillage_0_split
I0403 18:50:22.746703 23556 net.cpp:148] Top shape: 24 38 (912)
I0403 18:50:22.746719 23556 net.cpp:148] Top shape: 24 38 (912)
I0403 18:50:22.746733 23556 net.cpp:148] Top shape: 24 38 (912)
I0403 18:50:22.746747 23556 net.cpp:156] Memory required for data: 1208432160
I0403 18:50:22.746760 23556 layer_factory.hpp:77] Creating layer inception_4e/1x1
I0403 18:50:22.746781 23556 net.cpp:91] Creating Layer inception_4e/1x1
I0403 18:50:22.746798 23556 net.cpp:425] inception_4e/1x1 <- inception_4d/output_inception_4d/output_0_split_1
I0403 18:50:22.746816 23556 net.cpp:399] inception_4e/1x1 -> inception_4e/1x1
I0403 18:50:22.748631 23556 net.cpp:141] Setting up inception_4e/1x1
I0403 18:50:22.748658 23556 net.cpp:148] Top shape: 24 256 14 14 (1204224)
I0403 18:50:22.748673 23556 net.cpp:156] Memory required for data: 1213249056
I0403 18:50:22.748692 23556 layer_factory.hpp:77] Creating layer inception_4e/relu_1x1
I0403 18:50:22.748711 23556 net.cpp:91] Creating Layer inception_4e/relu_1x1
I0403 18:50:22.748728 23556 net.cpp:425] inception_4e/relu_1x1 <- inception_4e/1x1
I0403 18:50:22.748745 23556 net.cpp:386] inception_4e/relu_1x1 -> inception_4e/1x1 (in-place)
I0403 18:50:22.749053 23556 net.cpp:141] Setting up inception_4e/relu_1x1
I0403 18:50:22.749080 23556 net.cpp:148] Top shape: 24 256 14 14 (1204224)
I0403 18:50:22.749094 23556 net.cpp:156] Memory required for data: 1218065952
I0403 18:50:22.749109 23556 layer_factory.hpp:77] Creating layer inception_4e/3x3_reduce
I0403 18:50:22.749130 23556 net.cpp:91] Creating Layer inception_4e/3x3_reduce
I0403 18:50:22.749147 23556 net.cpp:425] inception_4e/3x3_reduce <- inception_4d/output_inception_4d/output_0_split_2
I0403 18:50:22.749172 23556 net.cpp:399] inception_4e/3x3_reduce -> inception_4e/3x3_reduce
I0403 18:50:22.751354 23556 net.cpp:141] Setting up inception_4e/3x3_reduce
I0403 18:50:22.751384 23556 net.cpp:148] Top shape: 24 160 14 14 (752640)
I0403 18:50:22.751399 23556 net.cpp:156] Memory required for data: 1221076512
I0403 18:50:22.751416 23556 layer_factory.hpp:77] Creating layer inception_4e/relu_3x3_reduce
I0403 18:50:22.751436 23556 net.cpp:91] Creating Layer inception_4e/relu_3x3_reduce
I0403 18:50:22.751453 23556 net.cpp:425] inception_4e/relu_3x3_reduce <- inception_4e/3x3_reduce
I0403 18:50:22.751471 23556 net.cpp:386] inception_4e/relu_3x3_reduce -> inception_4e/3x3_reduce (in-place)
I0403 18:50:22.751665 23556 net.cpp:141] Setting up inception_4e/relu_3x3_reduce
I0403 18:50:22.751693 23556 net.cpp:148] Top shape: 24 160 14 14 (752640)
I0403 18:50:22.751708 23556 net.cpp:156] Memory required for data: 1224087072
I0403 18:50:22.751723 23556 layer_factory.hpp:77] Creating layer inception_4e/3x3
I0403 18:50:22.751744 23556 net.cpp:91] Creating Layer inception_4e/3x3
I0403 18:50:22.751760 23556 net.cpp:425] inception_4e/3x3 <- inception_4e/3x3_reduce
I0403 18:50:22.751778 23556 net.cpp:399] inception_4e/3x3 -> inception_4e/3x3
I0403 18:50:22.756858 23556 net.cpp:141] Setting up inception_4e/3x3
I0403 18:50:22.756906 23556 net.cpp:148] Top shape: 24 320 14 14 (1505280)
I0403 18:50:22.756922 23556 net.cpp:156] Memory required for data: 1230108192
I0403 18:50:22.756940 23556 layer_factory.hpp:77] Creating layer inception_4e/relu_3x3
I0403 18:50:22.756958 23556 net.cpp:91] Creating Layer inception_4e/relu_3x3
I0403 18:50:22.756974 23556 net.cpp:425] inception_4e/relu_3x3 <- inception_4e/3x3
I0403 18:50:22.756991 23556 net.cpp:386] inception_4e/relu_3x3 -> inception_4e/3x3 (in-place)
I0403 18:50:22.757295 23556 net.cpp:141] Setting up inception_4e/relu_3x3
I0403 18:50:22.757323 23556 net.cpp:148] Top shape: 24 320 14 14 (1505280)
I0403 18:50:22.757339 23556 net.cpp:156] Memory required for data: 1236129312
I0403 18:50:22.757354 23556 layer_factory.hpp:77] Creating layer inception_4e/5x5_reduce
I0403 18:50:22.757376 23556 net.cpp:91] Creating Layer inception_4e/5x5_reduce
I0403 18:50:22.757395 23556 net.cpp:425] inception_4e/5x5_reduce <- inception_4d/output_inception_4d/output_0_split_3
I0403 18:50:22.757416 23556 net.cpp:399] inception_4e/5x5_reduce -> inception_4e/5x5_reduce
I0403 18:50:22.758509 23556 net.cpp:141] Setting up inception_4e/5x5_reduce
I0403 18:50:22.758540 23556 net.cpp:148] Top shape: 24 32 14 14 (150528)
I0403 18:50:22.758558 23556 net.cpp:156] Memory required for data: 1236731424
I0403 18:50:22.758575 23556 layer_factory.hpp:77] Creating layer inception_4e/relu_5x5_reduce
I0403 18:50:22.758595 23556 net.cpp:91] Creating Layer inception_4e/relu_5x5_reduce
I0403 18:50:22.758615 23556 net.cpp:425] inception_4e/relu_5x5_reduce <- inception_4e/5x5_reduce
I0403 18:50:22.758631 23556 net.cpp:386] inception_4e/relu_5x5_reduce -> inception_4e/5x5_reduce (in-place)
I0403 18:50:22.758935 23556 net.cpp:141] Setting up inception_4e/relu_5x5_reduce
I0403 18:50:22.758961 23556 net.cpp:148] Top shape: 24 32 14 14 (150528)
I0403 18:50:22.758976 23556 net.cpp:156] Memory required for data: 1237333536
I0403 18:50:22.758991 23556 layer_factory.hpp:77] Creating layer inception_4e/5x5
I0403 18:50:22.759030 23556 net.cpp:91] Creating Layer inception_4e/5x5
I0403 18:50:22.759049 23556 net.cpp:425] inception_4e/5x5 <- inception_4e/5x5_reduce
I0403 18:50:22.759069 23556 net.cpp:399] inception_4e/5x5 -> inception_4e/5x5
I0403 18:50:22.760975 23556 net.cpp:141] Setting up inception_4e/5x5
I0403 18:50:22.761003 23556 net.cpp:148] Top shape: 24 128 14 14 (602112)
I0403 18:50:22.761018 23556 net.cpp:156] Memory required for data: 1239741984
I0403 18:50:22.761037 23556 layer_factory.hpp:77] Creating layer inception_4e/relu_5x5
I0403 18:50:22.761059 23556 net.cpp:91] Creating Layer inception_4e/relu_5x5
I0403 18:50:22.761075 23556 net.cpp:425] inception_4e/relu_5x5 <- inception_4e/5x5
I0403 18:50:22.761092 23556 net.cpp:386] inception_4e/relu_5x5 -> inception_4e/5x5 (in-place)
I0403 18:50:22.761307 23556 net.cpp:141] Setting up inception_4e/relu_5x5
I0403 18:50:22.761332 23556 net.cpp:148] Top shape: 24 128 14 14 (602112)
I0403 18:50:22.761348 23556 net.cpp:156] Memory required for data: 1242150432
I0403 18:50:22.761363 23556 layer_factory.hpp:77] Creating layer inception_4e/pool
I0403 18:50:22.761382 23556 net.cpp:91] Creating Layer inception_4e/pool
I0403 18:50:22.761399 23556 net.cpp:425] inception_4e/pool <- inception_4d/output_inception_4d/output_0_split_4
I0403 18:50:22.761417 23556 net.cpp:399] inception_4e/pool -> inception_4e/pool
I0403 18:50:22.761492 23556 net.cpp:141] Setting up inception_4e/pool
I0403 18:50:22.761515 23556 net.cpp:148] Top shape: 24 528 14 14 (2483712)
I0403 18:50:22.761530 23556 net.cpp:156] Memory required for data: 1252085280
I0403 18:50:22.761550 23556 layer_factory.hpp:77] Creating layer inception_4e/pool_proj
I0403 18:50:22.761586 23556 net.cpp:91] Creating Layer inception_4e/pool_proj
I0403 18:50:22.761603 23556 net.cpp:425] inception_4e/pool_proj <- inception_4e/pool
I0403 18:50:22.761625 23556 net.cpp:399] inception_4e/pool_proj -> inception_4e/pool_proj
I0403 18:50:22.763154 23556 net.cpp:141] Setting up inception_4e/pool_proj
I0403 18:50:22.763195 23556 net.cpp:148] Top shape: 24 128 14 14 (602112)
I0403 18:50:22.763211 23556 net.cpp:156] Memory required for data: 1254493728
I0403 18:50:22.763231 23556 layer_factory.hpp:77] Creating layer inception_4e/relu_pool_proj
I0403 18:50:22.763248 23556 net.cpp:91] Creating Layer inception_4e/relu_pool_proj
I0403 18:50:22.763263 23556 net.cpp:425] inception_4e/relu_pool_proj <- inception_4e/pool_proj
I0403 18:50:22.763283 23556 net.cpp:386] inception_4e/relu_pool_proj -> inception_4e/pool_proj (in-place)
I0403 18:50:22.763591 23556 net.cpp:141] Setting up inception_4e/relu_pool_proj
I0403 18:50:22.763617 23556 net.cpp:148] Top shape: 24 128 14 14 (602112)
I0403 18:50:22.763633 23556 net.cpp:156] Memory required for data: 1256902176
I0403 18:50:22.763648 23556 layer_factory.hpp:77] Creating layer inception_4e/output
I0403 18:50:22.763665 23556 net.cpp:91] Creating Layer inception_4e/output
I0403 18:50:22.763681 23556 net.cpp:425] inception_4e/output <- inception_4e/1x1
I0403 18:50:22.763697 23556 net.cpp:425] inception_4e/output <- inception_4e/3x3
I0403 18:50:22.763713 23556 net.cpp:425] inception_4e/output <- inception_4e/5x5
I0403 18:50:22.763730 23556 net.cpp:425] inception_4e/output <- inception_4e/pool_proj
I0403 18:50:22.763749 23556 net.cpp:399] inception_4e/output -> inception_4e/output
I0403 18:50:22.763798 23556 net.cpp:141] Setting up inception_4e/output
I0403 18:50:22.763823 23556 net.cpp:148] Top shape: 24 832 14 14 (3913728)
I0403 18:50:22.763836 23556 net.cpp:156] Memory required for data: 1272557088
I0403 18:50:22.763850 23556 layer_factory.hpp:77] Creating layer pool4/3x3_s2
I0403 18:50:22.763870 23556 net.cpp:91] Creating Layer pool4/3x3_s2
I0403 18:50:22.763886 23556 net.cpp:425] pool4/3x3_s2 <- inception_4e/output
I0403 18:50:22.763905 23556 net.cpp:399] pool4/3x3_s2 -> pool4/3x3_s2
I0403 18:50:22.763974 23556 net.cpp:141] Setting up pool4/3x3_s2
I0403 18:50:22.763998 23556 net.cpp:148] Top shape: 24 832 7 7 (978432)
I0403 18:50:22.764013 23556 net.cpp:156] Memory required for data: 1276470816
I0403 18:50:22.764026 23556 layer_factory.hpp:77] Creating layer pool4/3x3_s2_pool4/3x3_s2_0_split
I0403 18:50:22.764045 23556 net.cpp:91] Creating Layer pool4/3x3_s2_pool4/3x3_s2_0_split
I0403 18:50:22.764062 23556 net.cpp:425] pool4/3x3_s2_pool4/3x3_s2_0_split <- pool4/3x3_s2
I0403 18:50:22.764078 23556 net.cpp:399] pool4/3x3_s2_pool4/3x3_s2_0_split -> pool4/3x3_s2_pool4/3x3_s2_0_split_0
I0403 18:50:22.764098 23556 net.cpp:399] pool4/3x3_s2_pool4/3x3_s2_0_split -> pool4/3x3_s2_pool4/3x3_s2_0_split_1
I0403 18:50:22.764117 23556 net.cpp:399] pool4/3x3_s2_pool4/3x3_s2_0_split -> pool4/3x3_s2_pool4/3x3_s2_0_split_2
I0403 18:50:22.764137 23556 net.cpp:399] pool4/3x3_s2_pool4/3x3_s2_0_split -> pool4/3x3_s2_pool4/3x3_s2_0_split_3
I0403 18:50:22.764230 23556 net.cpp:141] Setting up pool4/3x3_s2_pool4/3x3_s2_0_split
I0403 18:50:22.764253 23556 net.cpp:148] Top shape: 24 832 7 7 (978432)
I0403 18:50:22.764282 23556 net.cpp:148] Top shape: 24 832 7 7 (978432)
I0403 18:50:22.764299 23556 net.cpp:148] Top shape: 24 832 7 7 (978432)
I0403 18:50:22.764314 23556 net.cpp:148] Top shape: 24 832 7 7 (978432)
I0403 18:50:22.764328 23556 net.cpp:156] Memory required for data: 1292125728
I0403 18:50:22.764343 23556 layer_factory.hpp:77] Creating layer inception_5a/1x1
I0403 18:50:22.764366 23556 net.cpp:91] Creating Layer inception_5a/1x1
I0403 18:50:22.764384 23556 net.cpp:425] inception_5a/1x1 <- pool4/3x3_s2_pool4/3x3_s2_0_split_0
I0403 18:50:22.764405 23556 net.cpp:399] inception_5a/1x1 -> inception_5a/1x1
I0403 18:50:22.767324 23556 net.cpp:141] Setting up inception_5a/1x1
I0403 18:50:22.767352 23556 net.cpp:148] Top shape: 24 256 7 7 (301056)
I0403 18:50:22.767367 23556 net.cpp:156] Memory required for data: 1293329952
I0403 18:50:22.767385 23556 layer_factory.hpp:77] Creating layer inception_5a/relu_1x1
I0403 18:50:22.767405 23556 net.cpp:91] Creating Layer inception_5a/relu_1x1
I0403 18:50:22.767421 23556 net.cpp:425] inception_5a/relu_1x1 <- inception_5a/1x1
I0403 18:50:22.767438 23556 net.cpp:386] inception_5a/relu_1x1 -> inception_5a/1x1 (in-place)
I0403 18:50:22.767755 23556 net.cpp:141] Setting up inception_5a/relu_1x1
I0403 18:50:22.767781 23556 net.cpp:148] Top shape: 24 256 7 7 (301056)
I0403 18:50:22.767796 23556 net.cpp:156] Memory required for data: 1294534176
I0403 18:50:22.767809 23556 layer_factory.hpp:77] Creating layer inception_5a/3x3_reduce
I0403 18:50:22.767832 23556 net.cpp:91] Creating Layer inception_5a/3x3_reduce
I0403 18:50:22.767848 23556 net.cpp:425] inception_5a/3x3_reduce <- pool4/3x3_s2_pool4/3x3_s2_0_split_1
I0403 18:50:22.767869 23556 net.cpp:399] inception_5a/3x3_reduce -> inception_5a/3x3_reduce
I0403 18:50:22.770324 23556 net.cpp:141] Setting up inception_5a/3x3_reduce
I0403 18:50:22.770354 23556 net.cpp:148] Top shape: 24 160 7 7 (188160)
I0403 18:50:22.770370 23556 net.cpp:156] Memory required for data: 1295286816
I0403 18:50:22.770388 23556 layer_factory.hpp:77] Creating layer inception_5a/relu_3x3_reduce
I0403 18:50:22.770406 23556 net.cpp:91] Creating Layer inception_5a/relu_3x3_reduce
I0403 18:50:22.770421 23556 net.cpp:425] inception_5a/relu_3x3_reduce <- inception_5a/3x3_reduce
I0403 18:50:22.770439 23556 net.cpp:386] inception_5a/relu_3x3_reduce -> inception_5a/3x3_reduce (in-place)
I0403 18:50:22.770630 23556 net.cpp:141] Setting up inception_5a/relu_3x3_reduce
I0403 18:50:22.770655 23556 net.cpp:148] Top shape: 24 160 7 7 (188160)
I0403 18:50:22.770669 23556 net.cpp:156] Memory required for data: 1296039456
I0403 18:50:22.770684 23556 layer_factory.hpp:77] Creating layer inception_5a/3x3
I0403 18:50:22.770704 23556 net.cpp:91] Creating Layer inception_5a/3x3
I0403 18:50:22.770721 23556 net.cpp:425] inception_5a/3x3 <- inception_5a/3x3_reduce
I0403 18:50:22.770742 23556 net.cpp:399] inception_5a/3x3 -> inception_5a/3x3
I0403 18:50:22.775763 23556 net.cpp:141] Setting up inception_5a/3x3
I0403 18:50:22.775790 23556 net.cpp:148] Top shape: 24 320 7 7 (376320)
I0403 18:50:22.775805 23556 net.cpp:156] Memory required for data: 1297544736
I0403 18:50:22.775823 23556 layer_factory.hpp:77] Creating layer inception_5a/relu_3x3
I0403 18:50:22.775843 23556 net.cpp:91] Creating Layer inception_5a/relu_3x3
I0403 18:50:22.775861 23556 net.cpp:425] inception_5a/relu_3x3 <- inception_5a/3x3
I0403 18:50:22.775877 23556 net.cpp:386] inception_5a/relu_3x3 -> inception_5a/3x3 (in-place)
I0403 18:50:22.776172 23556 net.cpp:141] Setting up inception_5a/relu_3x3
I0403 18:50:22.776198 23556 net.cpp:148] Top shape: 24 320 7 7 (376320)
I0403 18:50:22.776212 23556 net.cpp:156] Memory required for data: 1299050016
I0403 18:50:22.776227 23556 layer_factory.hpp:77] Creating layer inception_5a/5x5_reduce
I0403 18:50:22.776248 23556 net.cpp:91] Creating Layer inception_5a/5x5_reduce
I0403 18:50:22.776267 23556 net.cpp:425] inception_5a/5x5_reduce <- pool4/3x3_s2_pool4/3x3_s2_0_split_2
I0403 18:50:22.776288 23556 net.cpp:399] inception_5a/5x5_reduce -> inception_5a/5x5_reduce
I0403 18:50:22.777469 23556 net.cpp:141] Setting up inception_5a/5x5_reduce
I0403 18:50:22.777498 23556 net.cpp:148] Top shape: 24 32 7 7 (37632)
I0403 18:50:22.777513 23556 net.cpp:156] Memory required for data: 1299200544
I0403 18:50:22.777531 23556 layer_factory.hpp:77] Creating layer inception_5a/relu_5x5_reduce
I0403 18:50:22.777572 23556 net.cpp:91] Creating Layer inception_5a/relu_5x5_reduce
I0403 18:50:22.777590 23556 net.cpp:425] inception_5a/relu_5x5_reduce <- inception_5a/5x5_reduce
I0403 18:50:22.777606 23556 net.cpp:386] inception_5a/relu_5x5_reduce -> inception_5a/5x5_reduce (in-place)
I0403 18:50:22.777902 23556 net.cpp:141] Setting up inception_5a/relu_5x5_reduce
I0403 18:50:22.777927 23556 net.cpp:148] Top shape: 24 32 7 7 (37632)
I0403 18:50:22.777941 23556 net.cpp:156] Memory required for data: 1299351072
I0403 18:50:22.777956 23556 layer_factory.hpp:77] Creating layer inception_5a/5x5
I0403 18:50:22.777977 23556 net.cpp:91] Creating Layer inception_5a/5x5
I0403 18:50:22.777994 23556 net.cpp:425] inception_5a/5x5 <- inception_5a/5x5_reduce
I0403 18:50:22.778015 23556 net.cpp:399] inception_5a/5x5 -> inception_5a/5x5
I0403 18:50:22.779742 23556 net.cpp:141] Setting up inception_5a/5x5
I0403 18:50:22.779779 23556 net.cpp:148] Top shape: 24 128 7 7 (150528)
I0403 18:50:22.779795 23556 net.cpp:156] Memory required for data: 1299953184
I0403 18:50:22.779813 23556 layer_factory.hpp:77] Creating layer inception_5a/relu_5x5
I0403 18:50:22.779832 23556 net.cpp:91] Creating Layer inception_5a/relu_5x5
I0403 18:50:22.779849 23556 net.cpp:425] inception_5a/relu_5x5 <- inception_5a/5x5
I0403 18:50:22.779865 23556 net.cpp:386] inception_5a/relu_5x5 -> inception_5a/5x5 (in-place)
I0403 18:50:22.780052 23556 net.cpp:141] Setting up inception_5a/relu_5x5
I0403 18:50:22.780076 23556 net.cpp:148] Top shape: 24 128 7 7 (150528)
I0403 18:50:22.780091 23556 net.cpp:156] Memory required for data: 1300555296
I0403 18:50:22.780104 23556 layer_factory.hpp:77] Creating layer inception_5a/pool
I0403 18:50:22.780124 23556 net.cpp:91] Creating Layer inception_5a/pool
I0403 18:50:22.780140 23556 net.cpp:425] inception_5a/pool <- pool4/3x3_s2_pool4/3x3_s2_0_split_3
I0403 18:50:22.780158 23556 net.cpp:399] inception_5a/pool -> inception_5a/pool
I0403 18:50:22.780227 23556 net.cpp:141] Setting up inception_5a/pool
I0403 18:50:22.780251 23556 net.cpp:148] Top shape: 24 832 7 7 (978432)
I0403 18:50:22.780264 23556 net.cpp:156] Memory required for data: 1304469024
I0403 18:50:22.780278 23556 layer_factory.hpp:77] Creating layer inception_5a/pool_proj
I0403 18:50:22.780299 23556 net.cpp:91] Creating Layer inception_5a/pool_proj
I0403 18:50:22.780316 23556 net.cpp:425] inception_5a/pool_proj <- inception_5a/pool
I0403 18:50:22.780336 23556 net.cpp:399] inception_5a/pool_proj -> inception_5a/pool_proj
I0403 18:50:22.782626 23556 net.cpp:141] Setting up inception_5a/pool_proj
I0403 18:50:22.782655 23556 net.cpp:148] Top shape: 24 128 7 7 (150528)
I0403 18:50:22.782670 23556 net.cpp:156] Memory required for data: 1305071136
I0403 18:50:22.782688 23556 layer_factory.hpp:77] Creating layer inception_5a/relu_pool_proj
I0403 18:50:22.782706 23556 net.cpp:91] Creating Layer inception_5a/relu_pool_proj
I0403 18:50:22.782722 23556 net.cpp:425] inception_5a/relu_pool_proj <- inception_5a/pool_proj
I0403 18:50:22.782742 23556 net.cpp:386] inception_5a/relu_pool_proj -> inception_5a/pool_proj (in-place)
I0403 18:50:22.783033 23556 net.cpp:141] Setting up inception_5a/relu_pool_proj
I0403 18:50:22.783058 23556 net.cpp:148] Top shape: 24 128 7 7 (150528)
I0403 18:50:22.783073 23556 net.cpp:156] Memory required for data: 1305673248
I0403 18:50:22.783087 23556 layer_factory.hpp:77] Creating layer inception_5a/output
I0403 18:50:22.783104 23556 net.cpp:91] Creating Layer inception_5a/output
I0403 18:50:22.783119 23556 net.cpp:425] inception_5a/output <- inception_5a/1x1
I0403 18:50:22.783135 23556 net.cpp:425] inception_5a/output <- inception_5a/3x3
I0403 18:50:22.783151 23556 net.cpp:425] inception_5a/output <- inception_5a/5x5
I0403 18:50:22.783166 23556 net.cpp:425] inception_5a/output <- inception_5a/pool_proj
I0403 18:50:22.783185 23556 net.cpp:399] inception_5a/output -> inception_5a/output
I0403 18:50:22.783234 23556 net.cpp:141] Setting up inception_5a/output
I0403 18:50:22.783265 23556 net.cpp:148] Top shape: 24 832 7 7 (978432)
I0403 18:50:22.783280 23556 net.cpp:156] Memory required for data: 1309586976
I0403 18:50:22.783293 23556 layer_factory.hpp:77] Creating layer inception_5a/output_inception_5a/output_0_split
I0403 18:50:22.783310 23556 net.cpp:91] Creating Layer inception_5a/output_inception_5a/output_0_split
I0403 18:50:22.783324 23556 net.cpp:425] inception_5a/output_inception_5a/output_0_split <- inception_5a/output
I0403 18:50:22.783341 23556 net.cpp:399] inception_5a/output_inception_5a/output_0_split -> inception_5a/output_inception_5a/output_0_split_0
I0403 18:50:22.783360 23556 net.cpp:399] inception_5a/output_inception_5a/output_0_split -> inception_5a/output_inception_5a/output_0_split_1
I0403 18:50:22.783383 23556 net.cpp:399] inception_5a/output_inception_5a/output_0_split -> inception_5a/output_inception_5a/output_0_split_2
I0403 18:50:22.783404 23556 net.cpp:399] inception_5a/output_inception_5a/output_0_split -> inception_5a/output_inception_5a/output_0_split_3
I0403 18:50:22.783516 23556 net.cpp:141] Setting up inception_5a/output_inception_5a/output_0_split
I0403 18:50:22.783543 23556 net.cpp:148] Top shape: 24 832 7 7 (978432)
I0403 18:50:22.783560 23556 net.cpp:148] Top shape: 24 832 7 7 (978432)
I0403 18:50:22.783576 23556 net.cpp:148] Top shape: 24 832 7 7 (978432)
I0403 18:50:22.783589 23556 net.cpp:148] Top shape: 24 832 7 7 (978432)
I0403 18:50:22.783602 23556 net.cpp:156] Memory required for data: 1325241888
I0403 18:50:22.783615 23556 layer_factory.hpp:77] Creating layer inception_5b/1x1
I0403 18:50:22.783638 23556 net.cpp:91] Creating Layer inception_5b/1x1
I0403 18:50:22.783654 23556 net.cpp:425] inception_5b/1x1 <- inception_5a/output_inception_5a/output_0_split_0
I0403 18:50:22.783674 23556 net.cpp:399] inception_5b/1x1 -> inception_5b/1x1
I0403 18:50:22.787420 23556 net.cpp:141] Setting up inception_5b/1x1
I0403 18:50:22.787451 23556 net.cpp:148] Top shape: 24 384 7 7 (451584)
I0403 18:50:22.787467 23556 net.cpp:156] Memory required for data: 1327048224
I0403 18:50:22.787487 23556 layer_factory.hpp:77] Creating layer inception_5b/relu_1x1
I0403 18:50:22.787504 23556 net.cpp:91] Creating Layer inception_5b/relu_1x1
I0403 18:50:22.787521 23556 net.cpp:425] inception_5b/relu_1x1 <- inception_5b/1x1
I0403 18:50:22.787544 23556 net.cpp:386] inception_5b/relu_1x1 -> inception_5b/1x1 (in-place)
I0403 18:50:22.787863 23556 net.cpp:141] Setting up inception_5b/relu_1x1
I0403 18:50:22.787890 23556 net.cpp:148] Top shape: 24 384 7 7 (451584)
I0403 18:50:22.787906 23556 net.cpp:156] Memory required for data: 1328854560
I0403 18:50:22.787920 23556 layer_factory.hpp:77] Creating layer inception_5b/3x3_reduce
I0403 18:50:22.787942 23556 net.cpp:91] Creating Layer inception_5b/3x3_reduce
I0403 18:50:22.787961 23556 net.cpp:425] inception_5b/3x3_reduce <- inception_5a/output_inception_5a/output_0_split_1
I0403 18:50:22.787978 23556 net.cpp:399] inception_5b/3x3_reduce -> inception_5b/3x3_reduce
I0403 18:50:22.790642 23556 net.cpp:141] Setting up inception_5b/3x3_reduce
I0403 18:50:22.790671 23556 net.cpp:148] Top shape: 24 192 7 7 (225792)
I0403 18:50:22.790686 23556 net.cpp:156] Memory required for data: 1329757728
I0403 18:50:22.790704 23556 layer_factory.hpp:77] Creating layer inception_5b/relu_3x3_reduce
I0403 18:50:22.790721 23556 net.cpp:91] Creating Layer inception_5b/relu_3x3_reduce
I0403 18:50:22.790737 23556 net.cpp:425] inception_5b/relu_3x3_reduce <- inception_5b/3x3_reduce
I0403 18:50:22.790756 23556 net.cpp:386] inception_5b/relu_3x3_reduce -> inception_5b/3x3_reduce (in-place)
I0403 18:50:22.790945 23556 net.cpp:141] Setting up inception_5b/relu_3x3_reduce
I0403 18:50:22.790969 23556 net.cpp:148] Top shape: 24 192 7 7 (225792)
I0403 18:50:22.790984 23556 net.cpp:156] Memory required for data: 1330660896
I0403 18:50:22.790997 23556 layer_factory.hpp:77] Creating layer inception_5b/3x3
I0403 18:50:22.791018 23556 net.cpp:91] Creating Layer inception_5b/3x3
I0403 18:50:22.791035 23556 net.cpp:425] inception_5b/3x3 <- inception_5b/3x3_reduce
I0403 18:50:22.791055 23556 net.cpp:399] inception_5b/3x3 -> inception_5b/3x3
I0403 18:50:22.797747 23556 net.cpp:141] Setting up inception_5b/3x3
I0403 18:50:22.797775 23556 net.cpp:148] Top shape: 24 384 7 7 (451584)
I0403 18:50:22.797791 23556 net.cpp:156] Memory required for data: 1332467232
I0403 18:50:22.797808 23556 layer_factory.hpp:77] Creating layer inception_5b/relu_3x3
I0403 18:50:22.797826 23556 net.cpp:91] Creating Layer inception_5b/relu_3x3
I0403 18:50:22.797842 23556 net.cpp:425] inception_5b/relu_3x3 <- inception_5b/3x3
I0403 18:50:22.797859 23556 net.cpp:386] inception_5b/relu_3x3 -> inception_5b/3x3 (in-place)
I0403 18:50:22.798156 23556 net.cpp:141] Setting up inception_5b/relu_3x3
I0403 18:50:22.798180 23556 net.cpp:148] Top shape: 24 384 7 7 (451584)
I0403 18:50:22.798195 23556 net.cpp:156] Memory required for data: 1334273568
I0403 18:50:22.798209 23556 layer_factory.hpp:77] Creating layer inception_5b/5x5_reduce
I0403 18:50:22.798246 23556 net.cpp:91] Creating Layer inception_5b/5x5_reduce
I0403 18:50:22.798276 23556 net.cpp:425] inception_5b/5x5_reduce <- inception_5a/output_inception_5a/output_0_split_2
I0403 18:50:22.798301 23556 net.cpp:399] inception_5b/5x5_reduce -> inception_5b/5x5_reduce
I0403 18:50:22.799583 23556 net.cpp:141] Setting up inception_5b/5x5_reduce
I0403 18:50:22.799614 23556 net.cpp:148] Top shape: 24 48 7 7 (56448)
I0403 18:50:22.799630 23556 net.cpp:156] Memory required for data: 1334499360
I0403 18:50:22.799649 23556 layer_factory.hpp:77] Creating layer inception_5b/relu_5x5_reduce
I0403 18:50:22.799665 23556 net.cpp:91] Creating Layer inception_5b/relu_5x5_reduce
I0403 18:50:22.799681 23556 net.cpp:425] inception_5b/relu_5x5_reduce <- inception_5b/5x5_reduce
I0403 18:50:22.799700 23556 net.cpp:386] inception_5b/relu_5x5_reduce -> inception_5b/5x5_reduce (in-place)
I0403 18:50:22.800071 23556 net.cpp:141] Setting up inception_5b/relu_5x5_reduce
I0403 18:50:22.800097 23556 net.cpp:148] Top shape: 24 48 7 7 (56448)
I0403 18:50:22.800112 23556 net.cpp:156] Memory required for data: 1334725152
I0403 18:50:22.800127 23556 layer_factory.hpp:77] Creating layer inception_5b/5x5
I0403 18:50:22.800145 23556 net.cpp:91] Creating Layer inception_5b/5x5
I0403 18:50:22.800163 23556 net.cpp:425] inception_5b/5x5 <- inception_5b/5x5_reduce
I0403 18:50:22.800180 23556 net.cpp:399] inception_5b/5x5 -> inception_5b/5x5
I0403 18:50:22.802245 23556 net.cpp:141] Setting up inception_5b/5x5
I0403 18:50:22.802285 23556 net.cpp:148] Top shape: 24 128 7 7 (150528)
I0403 18:50:22.802301 23556 net.cpp:156] Memory required for data: 1335327264
I0403 18:50:22.802320 23556 layer_factory.hpp:77] Creating layer inception_5b/relu_5x5
I0403 18:50:22.802341 23556 net.cpp:91] Creating Layer inception_5b/relu_5x5
I0403 18:50:22.802359 23556 net.cpp:425] inception_5b/relu_5x5 <- inception_5b/5x5
I0403 18:50:22.802377 23556 net.cpp:386] inception_5b/relu_5x5 -> inception_5b/5x5 (in-place)
I0403 18:50:22.802599 23556 net.cpp:141] Setting up inception_5b/relu_5x5
I0403 18:50:22.802624 23556 net.cpp:148] Top shape: 24 128 7 7 (150528)
I0403 18:50:22.802641 23556 net.cpp:156] Memory required for data: 1335929376
I0403 18:50:22.802656 23556 layer_factory.hpp:77] Creating layer inception_5b/pool
I0403 18:50:22.802675 23556 net.cpp:91] Creating Layer inception_5b/pool
I0403 18:50:22.802690 23556 net.cpp:425] inception_5b/pool <- inception_5a/output_inception_5a/output_0_split_3
I0403 18:50:22.802707 23556 net.cpp:399] inception_5b/pool -> inception_5b/pool
I0403 18:50:22.802781 23556 net.cpp:141] Setting up inception_5b/pool
I0403 18:50:22.802804 23556 net.cpp:148] Top shape: 24 832 7 7 (978432)
I0403 18:50:22.802819 23556 net.cpp:156] Memory required for data: 1339843104
I0403 18:50:22.802834 23556 layer_factory.hpp:77] Creating layer inception_5b/pool_proj
I0403 18:50:22.802855 23556 net.cpp:91] Creating Layer inception_5b/pool_proj
I0403 18:50:22.802872 23556 net.cpp:425] inception_5b/pool_proj <- inception_5b/pool
I0403 18:50:22.802892 23556 net.cpp:399] inception_5b/pool_proj -> inception_5b/pool_proj
I0403 18:50:22.805246 23556 net.cpp:141] Setting up inception_5b/pool_proj
I0403 18:50:22.805290 23556 net.cpp:148] Top shape: 24 128 7 7 (150528)
I0403 18:50:22.805306 23556 net.cpp:156] Memory required for data: 1340445216
I0403 18:50:22.805325 23556 layer_factory.hpp:77] Creating layer inception_5b/relu_pool_proj
I0403 18:50:22.805343 23556 net.cpp:91] Creating Layer inception_5b/relu_pool_proj
I0403 18:50:22.805363 23556 net.cpp:425] inception_5b/relu_pool_proj <- inception_5b/pool_proj
I0403 18:50:22.805382 23556 net.cpp:386] inception_5b/relu_pool_proj -> inception_5b/pool_proj (in-place)
I0403 18:50:22.805713 23556 net.cpp:141] Setting up inception_5b/relu_pool_proj
I0403 18:50:22.805740 23556 net.cpp:148] Top shape: 24 128 7 7 (150528)
I0403 18:50:22.805755 23556 net.cpp:156] Memory required for data: 1341047328
I0403 18:50:22.805770 23556 layer_factory.hpp:77] Creating layer inception_5b/output
I0403 18:50:22.805788 23556 net.cpp:91] Creating Layer inception_5b/output
I0403 18:50:22.805817 23556 net.cpp:425] inception_5b/output <- inception_5b/1x1
I0403 18:50:22.805835 23556 net.cpp:425] inception_5b/output <- inception_5b/3x3
I0403 18:50:22.805851 23556 net.cpp:425] inception_5b/output <- inception_5b/5x5
I0403 18:50:22.805867 23556 net.cpp:425] inception_5b/output <- inception_5b/pool_proj
I0403 18:50:22.805886 23556 net.cpp:399] inception_5b/output -> inception_5b/output
I0403 18:50:22.805938 23556 net.cpp:141] Setting up inception_5b/output
I0403 18:50:22.805965 23556 net.cpp:148] Top shape: 24 1024 7 7 (1204224)
I0403 18:50:22.805981 23556 net.cpp:156] Memory required for data: 1345864224
I0403 18:50:22.805995 23556 layer_factory.hpp:77] Creating layer pool5/7x7_s1
I0403 18:50:22.806012 23556 net.cpp:91] Creating Layer pool5/7x7_s1
I0403 18:50:22.806028 23556 net.cpp:425] pool5/7x7_s1 <- inception_5b/output
I0403 18:50:22.806049 23556 net.cpp:399] pool5/7x7_s1 -> pool5/7x7_s1
I0403 18:50:22.806269 23556 net.cpp:141] Setting up pool5/7x7_s1
I0403 18:50:22.806295 23556 net.cpp:148] Top shape: 24 1024 1 1 (24576)
I0403 18:50:22.806309 23556 net.cpp:156] Memory required for data: 1345962528
I0403 18:50:22.806324 23556 layer_factory.hpp:77] Creating layer pool5/drop_7x7_s1
I0403 18:50:22.806340 23556 net.cpp:91] Creating Layer pool5/drop_7x7_s1
I0403 18:50:22.806356 23556 net.cpp:425] pool5/drop_7x7_s1 <- pool5/7x7_s1
I0403 18:50:22.806375 23556 net.cpp:386] pool5/drop_7x7_s1 -> pool5/7x7_s1 (in-place)
I0403 18:50:22.806427 23556 net.cpp:141] Setting up pool5/drop_7x7_s1
I0403 18:50:22.806452 23556 net.cpp:148] Top shape: 24 1024 1 1 (24576)
I0403 18:50:22.806466 23556 net.cpp:156] Memory required for data: 1346060832
I0403 18:50:22.806481 23556 layer_factory.hpp:77] Creating layer loss3/classifier_plantvillage
I0403 18:50:22.806499 23556 net.cpp:91] Creating Layer loss3/classifier_plantvillage
I0403 18:50:22.806515 23556 net.cpp:425] loss3/classifier_plantvillage <- pool5/7x7_s1
I0403 18:50:22.806540 23556 net.cpp:399] loss3/classifier_plantvillage -> loss3/classifier_plantvillage
I0403 18:50:22.806972 23556 net.cpp:141] Setting up loss3/classifier_plantvillage
I0403 18:50:22.807000 23556 net.cpp:148] Top shape: 24 38 (912)
I0403 18:50:22.807016 23556 net.cpp:156] Memory required for data: 1346064480
I0403 18:50:22.807034 23556 layer_factory.hpp:77] Creating layer loss3/classifier_plantvillage_loss3/classifier_plantvillage_0_split
I0403 18:50:22.807051 23556 net.cpp:91] Creating Layer loss3/classifier_plantvillage_loss3/classifier_plantvillage_0_split
I0403 18:50:22.807067 23556 net.cpp:425] loss3/classifier_plantvillage_loss3/classifier_plantvillage_0_split <- loss3/classifier_plantvillage
I0403 18:50:22.807085 23556 net.cpp:399] loss3/classifier_plantvillage_loss3/classifier_plantvillage_0_split -> loss3/classifier_plantvillage_loss3/classifier_plantvillage_0_split_0
I0403 18:50:22.807104 23556 net.cpp:399] loss3/classifier_plantvillage_loss3/classifier_plantvillage_0_split -> loss3/classifier_plantvillage_loss3/classifier_plantvillage_0_split_1
I0403 18:50:22.807126 23556 net.cpp:399] loss3/classifier_plantvillage_loss3/classifier_plantvillage_0_split -> loss3/classifier_plantvillage_loss3/classifier_plantvillage_0_split_2
I0403 18:50:22.807148 23556 net.cpp:399] loss3/classifier_plantvillage_loss3/classifier_plantvillage_0_split -> loss3/classifier_plantvillage_loss3/classifier_plantvillage_0_split_3
I0403 18:50:22.807250 23556 net.cpp:141] Setting up loss3/classifier_plantvillage_loss3/classifier_plantvillage_0_split
I0403 18:50:22.807288 23556 net.cpp:148] Top shape: 24 38 (912)
I0403 18:50:22.807304 23556 net.cpp:148] Top shape: 24 38 (912)
I0403 18:50:22.807320 23556 net.cpp:148] Top shape: 24 38 (912)
I0403 18:50:22.807334 23556 net.cpp:148] Top shape: 24 38 (912)
I0403 18:50:22.807348 23556 net.cpp:156] Memory required for data: 1346079072
I0403 18:50:22.807361 23556 layer_factory.hpp:77] Creating layer loss1/loss
I0403 18:50:22.807385 23556 net.cpp:91] Creating Layer loss1/loss
I0403 18:50:22.807404 23556 net.cpp:425] loss1/loss <- loss1/classifier_plantvillage_loss1/classifier_plantvillage_0_split_0
I0403 18:50:22.807435 23556 net.cpp:425] loss1/loss <- label_data_1_split_0
…
