…
I0403 15:10:45.244904 11968 net.cpp:313] The NetState phase (1) differed from the phase (0) specified by a rule in layer data
I0403 15:10:45.246068 11968 net.cpp:49] Initializing net from parameters: 
state {
  phase: TEST
}
layer {
  name: "data"
  type: "Data"
  top: "data"
  top: "label"
  include {
    phase: TEST
  }
  transform_param {
    mirror: false
    crop_size: 224
    mean_file: "/home/mohanty/data/final_dataset/lmdb/grayscale-60-40/mean.binaryproto"
  }
  data_param {
    source: "/home/mohanty/data/final_dataset/lmdb/grayscale-60-40/test_db"
    batch_size: 24
    backend: LMDB
  }
}
layer {
  name: "conv1/7x7_s2"
  type: "Convolution"
  bottom: "data"
  top: "conv1/7x7_s2"
  param {
    lr_mult: 1
    decay_mult: 1
  }
  param {
    lr_mult: 2
    decay_mult: 0
  }
  convolution_param {
    num_output: 64
    pad: 3
    kernel_size: 7
    stride: 2
    weight_filler {
      type: "xavier"
      std: 0.1
    }
    bias_filler {
      type: "constant"
      value: 0.2
    }
  }
}
layer {
  name: "conv1/relu_7x7"
  type: "ReLU"
  bottom: "conv1/7x7_s2"
  top: "conv1/7x7_s2"
}
layer {
  name: "pool1/3x3_s2"
  type: "Pooling"
  bottom: "conv1/7x7_s2"
  top: "pool1/3x3_s2"
  pooling_param {
    pool: MAX
    kernel_size: 3
    stride: 2
  }
}
layer {
  name: "pool1/norm1"
  type: "LRN"
  bottom: "pool1/3x3_s2"
  top: "pool1/norm1"
  lrn_param {
    local_size: 5
    alpha: 0.0001
    beta: 0.75
  }
}
layer {
  name: "conv2/3x3_reduce"
  type: "Convolution"
  bottom: "pool1/norm1"
  top: "conv2/3x3_reduce"
  param {
    lr_mult: 1
    decay_mult: 1
  }
  param {
    lr_mult: 2
    decay_mult: 0
  }
  convolution_param {
    num_output: 64
    kernel_size: 1
    weight_filler {
      type: "xavier"
      std: 0.1
    }
    bias_filler {
      type: "constant"
      value: 0.2
    }
  }
}
layer {
  name: "conv2/relu_3x3_reduce"
  type: "ReLU"
  bottom: "conv2/3x3_reduce"
  top: "conv2/3x3_reduce"
}
layer {
  name: "conv2/3x3"
  type: "Convolution"
  bottom: "conv2/3x3_reduce"
  top: "conv2/3x3"
  param {
    lr_mult: 1
    decay_mult: 1
  }
  param {
    lr_mult: 2
    decay_mult: 0
  }
  convolution_param {
    num_output: 192
    pad: 1
    kernel_size: 3
    weight_filler {
      type: "xavier"
      std: 0.03
    }
    bias_filler {
      type: "constant"
      value: 0.2
    }
  }
}
layer {
  name: "conv2/relu_3x3"
  type: "ReLU"
  bottom: "conv2/3x3"
  top: "conv2/3x3"
}
layer {
  name: "conv2/norm2"
  type: "LRN"
  bottom: "conv2/3x3"
  top: "conv2/norm2"
  lrn_param {
    local_size: 5
    alpha: 0.0001
    beta: 0.75
  }
}
layer {
  name: "pool2/3x3_s2"
  type: "Pooling"
  bottom: "conv2/norm2"
  top: "pool2/3x3_s2"
  pooling_param {
    pool: MAX
    kernel_size: 3
    stride: 2
  }
}
layer {
  name: "inception_3a/1x1"
  type: "Convolution"
  bottom: "pool2/3x3_s2"
  top: "inception_3a/1x1"
  param {
    lr_mult: 1
    decay_mult: 1
  }
  param {
    lr_mult: 2
    decay_mult: 0
  }
  convolution_param {
    num_output: 64
    kernel_size: 1
    weight_filler {
      type: "xavier"
      std: 0.03
    }
    bias_filler {
      type: "constant"
      value: 0.2
    }
  }
}
layer {
  name: "inception_3a/relu_1x1"
  type: "ReLU"
  bottom: "inception_3a/1x1"
  top: "inception_3a/1x1"
}
layer {
  name: "inception_3a/3x3_reduce"
  type: "Convolution"
  bottom: "pool2/3x3_s2"
  top: "inception_3a/3x3_reduce"
  param {
    lr_mult: 1
    decay_mult: 1
  }
  param {
    lr_mult: 2
    decay_mult: 0
  }
  convolution_param {
    num_output: 96
    kernel_size: 1
    weight_filler {
      type: "xavier"
      std: 0.09
    }
    bias_filler {
      type: "constant"
      value: 0.2
    }
  }
}
layer {
  name: "inception_3a/relu_3x3_reduce"
  type: "ReLU"
  bottom: "inception_3a/3x3_reduce"
  top: "inception_3a/3x3_reduce"
}
layer {
  name: "inception_3a/3x3"
  type: "Convolution"
  bottom: "inception_3a/3x3_reduce"
  top: "inception_3a/3x3"
  param {
    lr_mult: 1
    decay_mult: 1
  }
  param {
    lr_mult: 2
    decay_mult: 0
  }
  convolution_param {
    num_output: 128
    pad: 1
    kernel_size: 3
    weight_filler {
      type: "xavier"
      std: 0.03
    }
    bias_filler {
      type: "constant"
      value: 0.2
    }
  }
}
layer {
  name: "inception_3a/relu_3x3"
  type: "ReLU"
  bottom: "inception_3a/3x3"
  top: "inception_3a/3x3"
}
layer {
  name: "inception_3a/5x5_reduce"
  type: "Convolution"
  bottom: "pool2/3x3_s2"
  top: "inception_3a/5x5_reduce"
  param {
    lr_mult: 1
    decay_mult: 1
  }
  param {
    lr_mult: 2
    decay_mult: 0
  }
  convolution_param {
    num_output: 16
    kernel_size: 1
    weight_filler {
      type: "xavier"
      std: 0.2
    }
    bias_filler {
      type: "constant"
      value: 0.2
    }
  }
}
layer {
  name: "inception_3a/relu_5x5_reduce"
  type: "ReLU"
  bottom: "inception_3a/5x5_reduce"
  top: "inception_3a/5x5_reduce"
}
layer {
  name: "inception_3a/5x5"
  type: "Convolution"
  bottom: "inception_3a/5x5_reduce"
  top: "inception_3a/5x5"
  param {
    lr_mult: 1
    decay_mult: 1
  }
  param {
    lr_mult: 2
    decay_mult: 0
  }
  convolution_param {
    num_output: 32
    pad: 2
    kernel_size: 5
    weight_filler {
      type: "xavier"
      std: 0.03
    }
    bias_filler {
      type: "constant"
      value: 0.2
    }
  }
}
layer {
  name: "inception_3a/relu_5x5"
  type: "ReLU"
  bottom: "inception_3a/5x5"
  top: "inception_3a/5x5"
}
layer {
  name: "inception_3a/pool"
  type: "Pooling"
  bottom: "pool2/3x3_s2"
  top: "inception_3a/pool"
  pooling_param {
    pool: MAX
    kernel_size: 3
    stride: 1
    pad: 1
  }
}
layer {
  name: "inception_3a/pool_proj"
  type: "Convolution"
  bottom: "inception_3a/pool"
  top: "inception_3a/pool_proj"
  param {
    lr_mult: 1
    decay_mult: 1
  }
  param {
    lr_mult: 2
    decay_mult: 0
  }
  convolution_param {
    num_output: 32
    kernel_size: 1
    weight_filler {
      type: "xavier"
      std: 0.1
    }
    bias_filler {
      type: "constant"
      value: 0.2
    }
  }
}
layer {
  name: "inception_3a/relu_pool_proj"
  type: "ReLU"
  bottom: "inception_3a/pool_proj"
  top: "inception_3a/pool_proj"
}
layer {
  name: "inception_3a/output"
  type: "Concat"
  bottom: "inception_3a/1x1"
  bottom: "inception_3a/3x3"
  bottom: "inception_3a/5x5"
  bottom: "inception_3a/pool_proj"
  top: "inception_3a/output"
}
layer {
  name: "inception_3b/1x1"
  type: "Convolution"
  bottom: "inception_3a/output"
  top: "inception_3b/1x1"
  param {
    lr_mult: 1
    decay_mult: 1
  }
  param {
    lr_mult: 2
    decay_mult: 0
  }
  convolution_param {
    num_output: 128
    kernel_size: 1
    weight_filler {
      type: "xavier"
      std: 0.03
    }
    bias_filler {
      type: "constant"
      value: 0.2
    }
  }
}
layer {
  name: "inception_3b/relu_1x1"
  type: "ReLU"
  bottom: "inception_3b/1x1"
  top: "inception_3b/1x1"
}
layer {
  name: "inception_3b/3x3_reduce"
  type: "Convolution"
  bottom: "inception_3a/output"
  top: "inception_3b/3x3_reduce"
  param {
    lr_mult: 1
    decay_mult: 1
  }
  param {
    lr_mult: 2
    decay_mult: 0
  }
  convolution_param {
    num_output: 128
    kernel_size: 1
    weight_filler {
      type: "xavier"
      std: 0.09
    }
    bias_filler {
      type: "constant"
      value: 0.2
    }
  }
}
layer {
  name: "inception_3b/relu_3x3_reduce"
  type: "ReLU"
  bottom: "inception_3b/3x3_reduce"
  top: "inception_3b/3x3_reduce"
}
layer {
  name: "inception_3b/3x3"
  type: "Convolution"
  bottom: "inception_3b/3x3_reduce"
  top: "inception_3b/3x3"
  param {
    lr_mult: 1
    decay_mult: 1
  }
  param {
    lr_mult: 2
    decay_mult: 0
  }
  convolution_param {
    num_output: 192
    pad: 1
    kernel_size: 3
    weight_filler {
      type: "xavier"
      std: 0.03
    }
    bias_filler {
      type: "constant"
      value: 0.2
    }
  }
}
layer {
  name: "inception_3b/relu_3x3"
  type: "ReLU"
  bottom: "inception_3b/3x3"
  top: "inception_3b/3x3"
}
layer {
  name: "inception_3b/5x5_reduce"
  type: "Convolution"
  bottom: "inception_3a/output"
  top: "inception_3b/5x5_reduce"
  param {
    lr_mult: 1
    decay_mult: 1
  }
  param {
    lr_mult: 2
    decay_mult: 0
  }
  convolution_param {
    num_output: 32
    kernel_size: 1
    weight_filler {
      type: "xavier"
      std: 0.2
    }
    bias_filler {
      type: "constant"
      value: 0.2
    }
  }
}
layer {
  name: "inception_3b/relu_5x5_reduce"
  type: "ReLU"
  bottom: "inception_3b/5x5_reduce"
  top: "inception_3b/5x5_reduce"
}
layer {
  name: "inception_3b/5x5"
  type: "Convolution"
  bottom: "inception_3b/5x5_reduce"
  top: "inception_3b/5x5"
  param {
    lr_mult: 1
    decay_mult: 1
  }
  param {
    lr_mult: 2
    decay_mult: 0
  }
  convolution_param {
    num_output: 96
    pad: 2
    kernel_size: 5
    weight_filler {
      type: "xavier"
      std: 0.03
    }
    bias_filler {
      type: "constant"
      value: 0.2
    }
  }
}
layer {
  name: "inception_3b/relu_5x5"
  type: "ReLU"
  bottom: "inception_3b/5x5"
  top: "inception_3b/5x5"
}
layer {
  name: "inception_3b/pool"
  type: "Pooling"
  bottom: "inception_3a/output"
  top: "inception_3b/pool"
  pooling_param {
    pool: MAX
    kernel_size: 3
    stride: 1
    pad: 1
  }
}
layer {
  name: "inception_3b/pool_proj"
  type: "Convolution"
  bottom: "inception_3b/pool"
  top: "inception_3b/pool_proj"
  param {
    lr_mult: 1
    decay_mult: 1
  }
  param {
    lr_mult: 2
    decay_mult: 0
  }
  convolution_param {
    num_output: 64
    kernel_size: 1
    weight_filler {
      type: "xavier"
      std: 0.1
    }
    bias_filler {
      type: "constant"
      value: 0.2
    }
  }
}
layer {
  name: "inception_3b/relu_pool_proj"
  type: "ReLU"
  bottom: "inception_3b/pool_proj"
  top: "inception_3b/pool_proj"
}
layer {
  name: "inception_3b/output"
  type: "Concat"
  bottom: "inception_3b/1x1"
  bottom: "inception_3b/3x3"
  bottom: "inception_3b/5x5"
  bottom: "inception_3b/pool_proj"
  top: "inception_3b/output"
}
layer {
  name: "pool3/3x3_s2"
  type: "Pooling"
  bottom: "inception_3b/output"
  top: "pool3/3x3_s2"
  pooling_param {
    pool: MAX
    kernel_size: 3
    stride: 2
  }
}
layer {
  name: "inception_4a/1x1"
  type: "Convolution"
  bottom: "pool3/3x3_s2"
  top: "inception_4a/1x1"
  param {
    lr_mult: 1
    decay_mult: 1
  }
  param {
    lr_mult: 2
    decay_mult: 0
  }
  convolution_param {
    num_output: 192
    kernel_size: 1
    weight_filler {
      type: "xavier"
      std: 0.03
    }
    bias_filler {
      type: "constant"
      value: 0.2
    }
  }
}
layer {
  name: "inception_4a/relu_1x1"
  type: "ReLU"
  bottom: "inception_4a/1x1"
  top: "inception_4a/1x1"
}
layer {
  name: "inception_4a/3x3_reduce"
  type: "Convolution"
  bottom: "pool3/3x3_s2"
  top: "inception_4a/3x3_reduce"
  param {
    lr_mult: 1
    decay_mult: 1
  }
  param {
    lr_mult: 2
    decay_mult: 0
  }
  convolution_param {
    num_output: 96
    kernel_size: 1
    weight_filler {
      type: "xavier"
      std: 0.09
    }
    bias_filler {
      type: "constant"
      value: 0.2
    }
  }
}
layer {
  name: "inception_4a/relu_3x3_reduce"
  type: "ReLU"
  bottom: "inception_4a/3x3_reduce"
  top: "inception_4a/3x3_reduce"
}
layer {
  name: "inception_4a/3x3"
  type: "Convolution"
  bottom: "inception_4a/3x3_reduce"
  top: "inception_4a/3x3"
  param {
    lr_mult: 1
    decay_mult: 1
  }
  param {
    lr_mult: 2
    decay_mult: 0
  }
  convolution_param {
    num_output: 208
    pad: 1
    kernel_size: 3
    weight_filler {
      type: "xavier"
      std: 0.03
    }
    bias_filler {
      type: "constant"
      value: 0.2
    }
  }
}
layer {
  name: "inception_4a/relu_3x3"
  type: "ReLU"
  bottom: "inception_4a/3x3"
  top: "inception_4a/3x3"
}
layer {
  name: "inception_4a/5x5_reduce"
  type: "Convolution"
  bottom: "pool3/3x3_s2"
  top: "inception_4a/5x5_reduce"
  param {
    lr_mult: 1
    decay_mult: 1
  }
  param {
    lr_mult: 2
    decay_mult: 0
  }
  convolution_param {
    num_output: 16
    kernel_size: 1
    weight_filler {
      type: "xavier"
      std: 0.2
    }
    bias_filler {
      type: "constant"
      value: 0.2
    }
  }
}
layer {
  name: "inception_4a/relu_5x5_reduce"
  type: "ReLU"
  bottom: "inception_4a/5x5_reduce"
  top: "inception_4a/5x5_reduce"
}
layer {
  name: "inception_4a/5x5"
  type: "Convolution"
  bottom: "inception_4a/5x5_reduce"
  top: "inception_4a/5x5"
  param {
    lr_mult: 1
    decay_mult: 1
  }
  param {
    lr_mult: 2
    decay_mult: 0
  }
  convolution_param {
    num_output: 48
    pad: 2
    kernel_size: 5
    weight_filler {
      type: "xavier"
      std: 0.03
    }
    bias_filler {
      type: "constant"
      value: 0.2
    }
  }
}
layer {
  name: "inception_4a/relu_5x5"
  type: "ReLU"
  bottom: "inception_4a/5x5"
  top: "inception_4a/5x5"
}
layer {
  name: "inception_4a/pool"
  type: "Pooling"
  bottom: "pool3/3x3_s2"
  top: "inception_4a/pool"
  pooling_param {
    pool: MAX
    kernel_size: 3
    stride: 1
    pad: 1
  }
}
layer {
  name: "inception_4a/pool_proj"
  type: "Convolution"
  bottom: "inception_4a/pool"
  top: "inception_4a/pool_proj"
  param {
    lr_mult: 1
    decay_mult: 1
  }
  param {
    lr_mult: 2
    decay_mult: 0
  }
  convolution_param {
    num_output: 64
    kernel_size: 1
    weight_filler {
      type: "xavier"
      std: 0.1
    }
    bias_filler {
      type: "constant"
      value: 0.2
    }
  }
}
layer {
  name: "inception_4a/relu_pool_proj"
  type: "ReLU"
  bottom: "inception_4a/pool_proj"
  top: "inception_4a/pool_proj"
}
layer {
  name: "inception_4a/output"
  type: "Concat"
  bottom: "inception_4a/1x1"
  bottom: "inception_4a/3x3"
  bottom: "inception_4a/5x5"
  bottom: "inception_4a/pool_proj"
  top: "inception_4a/output"
}
layer {
  name: "loss1/ave_pool"
  type: "Pooling"
  bottom: "inception_4a/output"
  top: "loss1/ave_pool"
  pooling_param {
    pool: AVE
    kernel_size: 5
    stride: 3
  }
}
layer {
  name: "loss1/conv"
  type: "Convolution"
  bottom: "loss1/ave_pool"
  top: "loss1/conv"
  param {
    lr_mult: 1
    decay_mult: 1
  }
  param {
    lr_mult: 2
    decay_mult: 0
  }
  convolution_param {
    num_output: 128
    kernel_size: 1
    weight_filler {
      type: "xavier"
      std: 0.08
    }
    bias_filler {
      type: "constant"
      value: 0.2
    }
  }
}
layer {
  name: "loss1/relu_conv"
  type: "ReLU"
  bottom: "loss1/conv"
  top: "loss1/conv"
}
layer {
  name: "loss1/fc"
  type: "InnerProduct"
  bottom: "loss1/conv"
  top: "loss1/fc"
  param {
    lr_mult: 1
    decay_mult: 1
  }
  param {
    lr_mult: 2
    decay_mult: 0
  }
  inner_product_param {
    num_output: 1024
    weight_filler {
      type: "xavier"
      std: 0.02
    }
    bias_filler {
      type: "constant"
      value: 0.2
    }
  }
}
layer {
  name: "loss1/relu_fc"
  type: "ReLU"
  bottom: "loss1/fc"
  top: "loss1/fc"
}
layer {
  name: "loss1/drop_fc"
  type: "Dropout"
  bottom: "loss1/fc"
  top: "loss1/fc"
  dropout_param {
    dropout_ratio: 0.7
  }
}
layer {
  name: "loss1/classifier_plantvillage"
  type: "InnerProduct"
  bottom: "loss1/fc"
  top: "loss1/classifier_plantvillage"
  param {
    lr_mult: 1
    decay_mult: 1
  }
  param {
    lr_mult: 2
    decay_mult: 0
  }
  inner_product_param {
    num_output: 38
    weight_filler {
      type: "xavier"
      std: 0.0009765625
    }
    bias_filler {
      type: "constant"
      value: 0
    }
  }
}
layer {
  name: "inception_4b/1x1"
  type: "Convolution"
  bottom: "inception_4a/output"
  top: "inception_4b/1x1"
  param {
    lr_mult: 1
    decay_mult: 1
  }
  param {
    lr_mult: 2
    decay_mult: 0
  }
  convolution_param {
    num_output: 160
    kernel_size: 1
    weight_filler {
      type: "xavier"
      std: 0.03
    }
    bias_filler {
      type: "constant"
      value: 0.2
    }
  }
}
layer {
  name: "inception_4b/relu_1x1"
  type: "ReLU"
  bottom: "inception_4b/1x1"
  top: "inception_4b/1x1"
}
layer {
  name: "inception_4b/3x3_reduce"
  type: "Convolution"
  bottom: "inception_4a/output"
  top: "inception_4b/3x3_reduce"
  param {
    lr_mult: 1
    decay_mult: 1
  }
  param {
    lr_mult: 2
    decay_mult: 0
  }
  convolution_param {
    num_output: 112
    kernel_size: 1
    weight_filler {
      type: "xavier"
      std: 0.09
    }
    bias_filler {
      type: "constant"
      value: 0.2
    }
  }
}
layer {
  name: "inception_4b/relu_3x3_reduce"
  type: "ReLU"
  bottom: "inception_4b/3x3_reduce"
  top: "inception_4b/3x3_reduce"
}
layer {
  name: "inception_4b/3x3"
  type: "Convolution"
  bottom: "inception_4b/3x3_reduce"
  top: "inception_4b/3x3"
  param {
    lr_mult: 1
    decay_mult: 1
  }
  param {
    lr_mult: 2
    decay_mult: 0
  }
  convolution_param {
    num_output: 224
    pad: 1
    kernel_size: 3
    weight_filler {
      type: "xavier"
      std: 0.03
    }
    bias_filler {
      type: "constant"
      value: 0.2
    }
  }
}
layer {
  name: "inception_4b/relu_3x3"
  type: "ReLU"
  bottom: "inception_4b/3x3"
  top: "inception_4b/3x3"
}
layer {
  name: "inception_4b/5x5_reduce"
  type: "Convolution"
  bottom: "inception_4a/output"
  top: "inception_4b/5x5_reduce"
  param {
    lr_mult: 1
    decay_mult: 1
  }
  param {
    lr_mult: 2
    decay_mult: 0
  }
  convolution_param {
    num_output: 24
    kernel_size: 1
    weight_filler {
      type: "xavier"
      std: 0.2
    }
    bias_filler {
      type: "constant"
      value: 0.2
    }
  }
}
layer {
  name: "inception_4b/relu_5x5_reduce"
  type: "ReLU"
  bottom: "inception_4b/5x5_reduce"
  top: "inception_4b/5x5_reduce"
}
layer {
  name: "inception_4b/5x5"
  type: "Convolution"
  bottom: "inception_4b/5x5_reduce"
  top: "inception_4b/5x5"
  param {
    lr_mult: 1
    decay_mult: 1
  }
  param {
    lr_mult: 2
    decay_mult: 0
  }
  convolution_param {
    num_output: 64
    pad: 2
    kernel_size: 5
    weight_filler {
      type: "xavier"
      std: 0.03
    }
    bias_filler {
      type: "constant"
      value: 0.2
    }
  }
}
layer {
  name: "inception_4b/relu_5x5"
  type: "ReLU"
  bottom: "inception_4b/5x5"
  top: "inception_4b/5x5"
}
layer {
  name: "inception_4b/pool"
  type: "Pooling"
  bottom: "inception_4a/output"
  top: "inception_4b/pool"
  pooling_param {
    pool: MAX
    kernel_size: 3
    stride: 1
    pad: 1
  }
}
layer {
  name: "inception_4b/pool_proj"
  type: "Convolution"
  bottom: "inception_4b/pool"
  top: "inception_4b/pool_proj"
  param {
    lr_mult: 1
    decay_mult: 1
  }
  param {
    lr_mult: 2
    decay_mult: 0
  }
  convolution_param {
    num_output: 64
    kernel_size: 1
    weight_filler {
      type: "xavier"
      std: 0.1
    }
    bias_filler {
      type: "constant"
      value: 0.2
    }
  }
}
layer {
  name: "inception_4b/relu_pool_proj"
  type: "ReLU"
  bottom: "inception_4b/pool_proj"
  top: "inception_4b/pool_proj"
}
layer {
  name: "inception_4b/output"
  type: "Concat"
  bottom: "inception_4b/1x1"
  bottom: "inception_4b/3x3"
  bottom: "inception_4b/5x5"
  bottom: "inception_4b/pool_proj"
  top: "inception_4b/output"
}
layer {
  name: "inception_4c/1x1"
  type: "Convolution"
  bottom: "inception_4b/output"
  top: "inception_4c/1x1"
  param {
    lr_mult: 1
    decay_mult: 1
  }
  param {
    lr_mult: 2
    decay_mult: 0
  }
  convolution_param {
    num_output: 128
    kernel_size: 1
    weight_filler {
      type: "xavier"
      std: 0.03
    }
    bias_filler {
      type: "constant"
      value: 0.2
    }
  }
}
layer {
  name: "inception_4c/relu_1x1"
  type: "ReLU"
  bottom: "inception_4c/1x1"
  top: "inception_4c/1x1"
}
layer {
  name: "inception_4c/3x3_reduce"
  type: "Convolution"
  bottom: "inception_4b/output"
  top: "inception_4c/3x3_reduce"
  param {
    lr_mult: 1
    decay_mult: 1
  }
  param {
    lr_mult: 2
    decay_mult: 0
  }
  convolution_param {
    num_output: 128
    kernel_size: 1
    weight_filler {
      type: "xavier"
      std: 0.09
    }
    bias_filler {
      type: "constant"
      value: 0.2
    }
  }
}
layer {
  name: "inception_4c/relu_3x3_reduce"
  type: "ReLU"
  bottom: "inception_4c/3x3_reduce"
  top: "inception_4c/3x3_reduce"
}
layer {
  name: "inception_4c/3x3"
  type: "Convolution"
  bottom: "inception_4c/3x3_reduce"
  top: "inception_4c/3x3"
  param {
    lr_mult: 1
    decay_mult: 1
  }
  param {
    lr_mult: 2
    decay_mult: 0
  }
  convolution_param {
    num_output: 256
    pad: 1
    kernel_size: 3
    weight_filler {
      type: "xavier"
      std: 0.03
    }
    bias_filler {
      type: "constant"
      value: 0.2
    }
  }
}
layer {
  name: "inception_4c/relu_3x3"
  type: "ReLU"
  bottom: "inception_4c/3x3"
  top: "inception_4c/3x3"
}
layer {
  name: "inception_4c/5x5_reduce"
  type: "Convolution"
  bottom: "inception_4b/output"
  top: "inception_4c/5x5_reduce"
  param {
    lr_mult: 1
    decay_mult: 1
  }
  param {
    lr_mult: 2
    decay_mult: 0
  }
  convolution_param {
    num_output: 24
    kernel_size: 1
    weight_filler {
      type: "xavier"
      std: 0.2
    }
    bias_filler {
      type: "constant"
      value: 0.2
    }
  }
}
layer {
  name: "inception_4c/relu_5x5_reduce"
  type: "ReLU"
  bottom: "inception_4c/5x5_reduce"
  top: "inception_4c/5x5_reduce"
}
layer {
  name: "inception_4c/5x5"
  type: "Convolution"
  bottom: "inception_4c/5x5_reduce"
  top: "inception_4c/5x5"
  param {
    lr_mult: 1
    decay_mult: 1
  }
  param {
    lr_mult: 2
    decay_mult: 0
  }
  convolution_param {
    num_output: 64
    pad: 2
    kernel_size: 5
    weight_filler {
      type: "xavier"
      std: 0.03
    }
    bias_filler {
      type: "constant"
      value: 0.2
    }
  }
}
layer {
  name: "inception_4c/relu_5x5"
  type: "ReLU"
  bottom: "inception_4c/5x5"
  top: "inception_4c/5x5"
}
layer {
  name: "inception_4c/pool"
  type: "Pooling"
  bottom: "inception_4b/output"
  top: "inception_4c/pool"
  pooling_param {
    pool: MAX
    kernel_size: 3
    stride: 1
    pad: 1
  }
}
layer {
  name: "inception_4c/pool_proj"
  type: "Convolution"
  bottom: "inception_4c/pool"
  top: "inception_4c/pool_proj"
  param {
    lr_mult: 1
    decay_mult: 1
  }
  param {
    lr_mult: 2
    decay_mult: 0
  }
  convolution_param {
    num_output: 64
    kernel_size: 1
    weight_filler {
      type: "xavier"
      std: 0.1
    }
    bias_filler {
      type: "constant"
      value: 0.2
    }
  }
}
layer {
  name: "inception_4c/relu_pool_proj"
  type: "ReLU"
  bottom: "inception_4c/pool_proj"
  top: "inception_4c/pool_proj"
}
layer {
  name: "inception_4c/output"
  type: "Concat"
  bottom: "inception_4c/1x1"
  bottom: "inception_4c/3x3"
  bottom: "inception_4c/5x5"
  bottom: "inception_4c/pool_proj"
  top: "inception_4c/output"
}
layer {
  name: "inception_4d/1x1"
  type: "Convolution"
  bottom: "inception_4c/output"
  top: "inception_4d/1x1"
  param {
    lr_mult: 1
    decay_mult: 1
  }
  param {
    lr_mult: 2
    decay_mult: 0
  }
  convolution_param {
    num_output: 112
    kernel_size: 1
    weight_filler {
      type: "xavier"
      std: 0.03
    }
    bias_filler {
      type: "constant"
      value: 0.2
    }
  }
}
layer {
  name: "inception_4d/relu_1x1"
  type: "ReLU"
  bottom: "inception_4d/1x1"
  top: "inception_4d/1x1"
}
layer {
  name: "inception_4d/3x3_reduce"
  type: "Convolution"
  bottom: "inception_4c/output"
  top: "inception_4d/3x3_reduce"
  param {
    lr_mult: 1
    decay_mult: 1
  }
  param {
    lr_mult: 2
    decay_mult: 0
  }
  convolution_param {
    num_output: 144
    kernel_size: 1
    weight_filler {
      type: "xavier"
      std: 0.09
    }
    bias_filler {
      type: "constant"
      value: 0.2
    }
  }
}
layer {
  name: "inception_4d/relu_3x3_reduce"
  type: "ReLU"
  bottom: "inception_4d/3x3_reduce"
  top: "inception_4d/3x3_reduce"
}
layer {
  name: "inception_4d/3x3"
  type: "Convolution"
  bottom: "inception_4d/3x3_reduce"
  top: "inception_4d/3x3"
  param {
    lr_mult: 1
    decay_mult: 1
  }
  param {
    lr_mult: 2
    decay_mult: 0
  }
  convolution_param {
    num_output: 288
    pad: 1
    kernel_size: 3
    weight_filler {
      type: "xavier"
      std: 0.03
    }
    bias_filler {
      type: "constant"
      value: 0.2
    }
  }
}
layer {
  name: "inception_4d/relu_3x3"
  type: "ReLU"
  bottom: "inception_4d/3x3"
  top: "inception_4d/3x3"
}
layer {
  name: "inception_4d/5x5_reduce"
  type: "Convolution"
  bottom: "inception_4c/output"
  top: "inception_4d/5x5_reduce"
  param {
    lr_mult: 1
    decay_mult: 1
  }
  param {
    lr_mult: 2
    decay_mult: 0
  }
  convolution_param {
    num_output: 32
    kernel_size: 1
    weight_filler {
      type: "xavier"
      std: 0.2
    }
    bias_filler {
      type: "constant"
      value: 0.2
    }
  }
}
layer {
  name: "inception_4d/relu_5x5_reduce"
  type: "ReLU"
  bottom: "inception_4d/5x5_reduce"
  top: "inception_4d/5x5_reduce"
}
layer {
  name: "inception_4d/5x5"
  type: "Convolution"
  bottom: "inception_4d/5x5_reduce"
  top: "inception_4d/5x5"
  param {
    lr_mult: 1
    decay_mult: 1
  }
  param {
    lr_mult: 2
    decay_mult: 0
  }
  convolution_param {
    num_output: 64
    pad: 2
    kernel_size: 5
    weight_filler {
      type: "xavier"
      std: 0.03
    }
    bias_filler {
      type: "constant"
      value: 0.2
    }
  }
}
layer {
  name: "inception_4d/relu_5x5"
  type: "ReLU"
  bottom: "inception_4d/5x5"
  top: "inception_4d/5x5"
}
layer {
  name: "inception_4d/pool"
  type: "Pooling"
  bottom: "inception_4c/output"
  top: "inception_4d/pool"
  pooling_param {
    pool: MAX
    kernel_size: 3
    stride: 1
    pad: 1
  }
}
layer {
  name: "inception_4d/pool_proj"
  type: "Convolution"
  bottom: "inception_4d/pool"
  top: "inception_4d/pool_proj"
  param {
    lr_mult: 1
    decay_mult: 1
  }
  param {
    lr_mult: 2
    decay_mult: 0
  }
  convolution_param {
    num_output: 64
    kernel_size: 1
    weight_filler {
      type: "xavier"
      std: 0.1
    }
    bias_filler {
      type: "constant"
      value: 0.2
    }
  }
}
layer {
  name: "inception_4d/relu_pool_proj"
  type: "ReLU"
  bottom: "inception_4d/pool_proj"
  top: "inception_4d/pool_proj"
}
layer {
  name: "inception_4d/output"
  type: "Concat"
  bottom: "inception_4d/1x1"
  bottom: "inception_4d/3x3"
  bottom: "inception_4d/5x5"
  bottom: "inception_4d/pool_proj"
  top: "inception_4d/output"
}
layer {
  name: "loss2/ave_pool"
  type: "Pooling"
  bottom: "inception_4d/output"
  top: "loss2/ave_pool"
  pooling_param {
    pool: AVE
    kernel_size: 5
    stride: 3
  }
}
layer {
  name: "loss2/conv"
  type: "Convolution"
  bottom: "loss2/ave_pool"
  top: "loss2/conv"
  param {
    lr_mult: 1
    decay_mult: 1
  }
  param {
    lr_mult: 2
    decay_mult: 0
  }
  convolution_param {
    num_output: 128
    kernel_size: 1
    weight_filler {
      type: "xavier"
      std: 0.08
    }
    bias_filler {
      type: "constant"
      value: 0.2
    }
  }
}
layer {
  name: "loss2/relu_conv"
  type: "ReLU"
  bottom: "loss2/conv"
  top: "loss2/conv"
}
layer {
  name: "loss2/fc"
  type: "InnerProduct"
  bottom: "loss2/conv"
  top: "loss2/fc"
  param {
    lr_mult: 1
    decay_mult: 1
  }
  param {
    lr_mult: 2
    decay_mult: 0
  }
  inner_product_param {
    num_output: 1024
    weight_filler {
      type: "xavier"
      std: 0.02
    }
    bias_filler {
      type: "constant"
      value: 0.2
    }
  }
}
layer {
  name: "loss2/relu_fc"
  type: "ReLU"
  bottom: "loss2/fc"
  top: "loss2/fc"
}
layer {
  name: "loss2/drop_fc"
  type: "Dropout"
  bottom: "loss2/fc"
  top: "loss2/fc"
  dropout_param {
    dropout_ratio: 0.7
  }
}
layer {
  name: "loss2/classifier_plantvillage"
  type: "InnerProduct"
  bottom: "loss2/fc"
  top: "loss2/classifier_plantvillage"
  param {
    lr_mult: 1
    decay_mult: 1
  }
  param {
    lr_mult: 2
    decay_mult: 0
  }
  inner_product_param {
    num_output: 38
    weight_filler {
      type: "xavier"
      std: 0.0009765625
    }
    bias_filler {
      type: "constant"
      value: 0
    }
  }
}
layer {
  name: "inception_4e/1x1"
  type: "Convolution"
  bottom: "inception_4d/output"
  top: "inception_4e/1x1"
  param {
    lr_mult: 1
    decay_mult: 1
  }
  param {
    lr_mult: 2
    decay_mult: 0
  }
  convolution_param {
    num_output: 256
    kernel_size: 1
    weight_filler {
      type: "xavier"
      std: 0.03
    }
    bias_filler {
      type: "constant"
      value: 0.2
    }
  }
}
layer {
  name: "inception_4e/relu_1x1"
  type: "ReLU"
  bottom: "inception_4e/1x1"
  top: "inception_4e/1x1"
}
layer {
  name: "inception_4e/3x3_reduce"
  type: "Convolution"
  bottom: "inception_4d/output"
  top: "inception_4e/3x3_reduce"
  param {
    lr_mult: 1
    decay_mult: 1
  }
  param {
    lr_mult: 2
    decay_mult: 0
  }
  convolution_param {
    num_output: 160
    kernel_size: 1
    weight_filler {
      type: "xavier"
      std: 0.09
    }
    bias_filler {
      type: "constant"
      value: 0.2
    }
  }
}
layer {
  name: "inception_4e/relu_3x3_reduce"
  type: "ReLU"
  bottom: "inception_4e/3x3_reduce"
  top: "inception_4e/3x3_reduce"
}
layer {
  name: "inception_4e/3x3"
  type: "Convolution"
  bottom: "inception_4e/3x3_reduce"
  top: "inception_4e/3x3"
  param {
    lr_mult: 1
    decay_mult: 1
  }
  param {
    lr_mult: 2
    decay_mult: 0
  }
  convolution_param {
    num_output: 320
    pad: 1
    kernel_size: 3
    weight_filler {
      type: "xavier"
      std: 0.03
    }
    bias_filler {
      type: "constant"
      value: 0.2
    }
  }
}
layer {
  name: "inception_4e/relu_3x3"
  type: "ReLU"
  bottom: "inception_4e/3x3"
  top: "inception_4e/3x3"
}
layer {
  name: "inception_4e/5x5_reduce"
  type: "Convolution"
  bottom: "inception_4d/output"
  top: "inception_4e/5x5_reduce"
  param {
    lr_mult: 1
    decay_mult: 1
  }
  param {
    lr_mult: 2
    decay_mult: 0
  }
  convolution_param {
    num_output: 32
    kernel_size: 1
    weight_filler {
      type: "xavier"
      std: 0.2
    }
    bias_filler {
      type: "constant"
      value: 0.2
    }
  }
}
layer {
  name: "inception_4e/relu_5x5_reduce"
  type: "ReLU"
  bottom: "inception_4e/5x5_reduce"
  top: "inception_4e/5x5_reduce"
}
layer {
  name: "inception_4e/5x5"
  type: "Convolution"
  bottom: "inception_4e/5x5_reduce"
  top: "inception_4e/
I0403 15:10:45.247279 11968 layer_factory.hpp:77] Creating layer data
I0403 15:10:45.247871 11968 net.cpp:91] Creating Layer data
I0403 15:10:45.247901 11968 net.cpp:399] data -> data
I0403 15:10:45.247953 11968 net.cpp:399] data -> label
I0403 15:10:45.247990 11968 data_transformer.cpp:25] Loading mean file from: /home/mohanty/data/final_dataset/lmdb/grayscale-60-40/mean.binaryproto
I0403 15:10:45.250962 11971 db_lmdb.cpp:38] Opened lmdb /home/mohanty/data/final_dataset/lmdb/grayscale-60-40/test_db
I0403 15:10:45.261314 11968 data_layer.cpp:41] output data size: 24,3,224,224
I0403 15:10:45.287978 11968 net.cpp:141] Setting up data
I0403 15:10:45.288053 11968 net.cpp:148] Top shape: 24 3 224 224 (3612672)
I0403 15:10:45.288076 11968 net.cpp:148] Top shape: 24 (24)
I0403 15:10:45.288091 11968 net.cpp:156] Memory required for data: 14450784
I0403 15:10:45.288120 11968 layer_factory.hpp:77] Creating layer label_data_1_split
I0403 15:10:45.288151 11968 net.cpp:91] Creating Layer label_data_1_split
I0403 15:10:45.288172 11968 net.cpp:425] label_data_1_split <- label
I0403 15:10:45.288203 11968 net.cpp:399] label_data_1_split -> label_data_1_split_0
I0403 15:10:45.288230 11968 net.cpp:399] label_data_1_split -> label_data_1_split_1
I0403 15:10:45.288251 11968 net.cpp:399] label_data_1_split -> label_data_1_split_2
I0403 15:10:45.288274 11968 net.cpp:399] label_data_1_split -> label_data_1_split_3
I0403 15:10:45.288293 11968 net.cpp:399] label_data_1_split -> label_data_1_split_4
I0403 15:10:45.288312 11968 net.cpp:399] label_data_1_split -> label_data_1_split_5
I0403 15:10:45.288331 11968 net.cpp:399] label_data_1_split -> label_data_1_split_6
I0403 15:10:45.288352 11968 net.cpp:399] label_data_1_split -> label_data_1_split_7
I0403 15:10:45.288372 11968 net.cpp:399] label_data_1_split -> label_data_1_split_8
I0403 15:10:45.288391 11968 net.cpp:399] label_data_1_split -> label_data_1_split_9
I0403 15:10:45.288504 11968 net.cpp:141] Setting up label_data_1_split
I0403 15:10:45.288528 11968 net.cpp:148] Top shape: 24 (24)
I0403 15:10:45.288544 11968 net.cpp:148] Top shape: 24 (24)
I0403 15:10:45.288559 11968 net.cpp:148] Top shape: 24 (24)
I0403 15:10:45.288575 11968 net.cpp:148] Top shape: 24 (24)
I0403 15:10:45.288590 11968 net.cpp:148] Top shape: 24 (24)
I0403 15:10:45.288606 11968 net.cpp:148] Top shape: 24 (24)
I0403 15:10:45.288621 11968 net.cpp:148] Top shape: 24 (24)
I0403 15:10:45.288637 11968 net.cpp:148] Top shape: 24 (24)
I0403 15:10:45.288652 11968 net.cpp:148] Top shape: 24 (24)
I0403 15:10:45.288667 11968 net.cpp:148] Top shape: 24 (24)
I0403 15:10:45.288712 11968 net.cpp:156] Memory required for data: 14451744
I0403 15:10:45.288729 11968 layer_factory.hpp:77] Creating layer conv1/7x7_s2
I0403 15:10:45.288761 11968 net.cpp:91] Creating Layer conv1/7x7_s2
I0403 15:10:45.288781 11968 net.cpp:425] conv1/7x7_s2 <- data
I0403 15:10:45.288800 11968 net.cpp:399] conv1/7x7_s2 -> conv1/7x7_s2
I0403 15:10:45.429236 11968 net.cpp:141] Setting up conv1/7x7_s2
I0403 15:10:45.429311 11968 net.cpp:148] Top shape: 24 64 112 112 (19267584)
I0403 15:10:45.429327 11968 net.cpp:156] Memory required for data: 91522080
I0403 15:10:45.429358 11968 layer_factory.hpp:77] Creating layer conv1/relu_7x7
I0403 15:10:45.429385 11968 net.cpp:91] Creating Layer conv1/relu_7x7
I0403 15:10:45.429404 11968 net.cpp:425] conv1/relu_7x7 <- conv1/7x7_s2
I0403 15:10:45.429424 11968 net.cpp:386] conv1/relu_7x7 -> conv1/7x7_s2 (in-place)
I0403 15:10:45.429678 11968 net.cpp:141] Setting up conv1/relu_7x7
I0403 15:10:45.429707 11968 net.cpp:148] Top shape: 24 64 112 112 (19267584)
I0403 15:10:45.429721 11968 net.cpp:156] Memory required for data: 168592416
I0403 15:10:45.429736 11968 layer_factory.hpp:77] Creating layer pool1/3x3_s2
I0403 15:10:45.429760 11968 net.cpp:91] Creating Layer pool1/3x3_s2
I0403 15:10:45.429779 11968 net.cpp:425] pool1/3x3_s2 <- conv1/7x7_s2
I0403 15:10:45.429796 11968 net.cpp:399] pool1/3x3_s2 -> pool1/3x3_s2
I0403 15:10:45.429910 11968 net.cpp:141] Setting up pool1/3x3_s2
I0403 15:10:45.429935 11968 net.cpp:148] Top shape: 24 64 56 56 (4816896)
I0403 15:10:45.429950 11968 net.cpp:156] Memory required for data: 187860000
I0403 15:10:45.429966 11968 layer_factory.hpp:77] Creating layer pool1/norm1
I0403 15:10:45.429989 11968 net.cpp:91] Creating Layer pool1/norm1
I0403 15:10:45.430007 11968 net.cpp:425] pool1/norm1 <- pool1/3x3_s2
I0403 15:10:45.430025 11968 net.cpp:399] pool1/norm1 -> pool1/norm1
I0403 15:10:45.430312 11968 net.cpp:141] Setting up pool1/norm1
I0403 15:10:45.430341 11968 net.cpp:148] Top shape: 24 64 56 56 (4816896)
I0403 15:10:45.430356 11968 net.cpp:156] Memory required for data: 207127584
I0403 15:10:45.430371 11968 layer_factory.hpp:77] Creating layer conv2/3x3_reduce
I0403 15:10:45.430407 11968 net.cpp:91] Creating Layer conv2/3x3_reduce
I0403 15:10:45.430423 11968 net.cpp:425] conv2/3x3_reduce <- pool1/norm1
I0403 15:10:45.430443 11968 net.cpp:399] conv2/3x3_reduce -> conv2/3x3_reduce
I0403 15:10:45.431805 11968 net.cpp:141] Setting up conv2/3x3_reduce
I0403 15:10:45.431835 11968 net.cpp:148] Top shape: 24 64 56 56 (4816896)
I0403 15:10:45.431851 11968 net.cpp:156] Memory required for data: 226395168
I0403 15:10:45.431871 11968 layer_factory.hpp:77] Creating layer conv2/relu_3x3_reduce
I0403 15:10:45.431891 11968 net.cpp:91] Creating Layer conv2/relu_3x3_reduce
I0403 15:10:45.431905 11968 net.cpp:425] conv2/relu_3x3_reduce <- conv2/3x3_reduce
I0403 15:10:45.431923 11968 net.cpp:386] conv2/relu_3x3_reduce -> conv2/3x3_reduce (in-place)
I0403 15:10:45.432179 11968 net.cpp:141] Setting up conv2/relu_3x3_reduce
I0403 15:10:45.432207 11968 net.cpp:148] Top shape: 24 64 56 56 (4816896)
I0403 15:10:45.432221 11968 net.cpp:156] Memory required for data: 245662752
I0403 15:10:45.432236 11968 layer_factory.hpp:77] Creating layer conv2/3x3
I0403 15:10:45.432258 11968 net.cpp:91] Creating Layer conv2/3x3
I0403 15:10:45.432276 11968 net.cpp:425] conv2/3x3 <- conv2/3x3_reduce
I0403 15:10:45.432294 11968 net.cpp:399] conv2/3x3 -> conv2/3x3
I0403 15:10:45.434561 11968 net.cpp:141] Setting up conv2/3x3
I0403 15:10:45.434593 11968 net.cpp:148] Top shape: 24 192 56 56 (14450688)
I0403 15:10:45.434610 11968 net.cpp:156] Memory required for data: 303465504
I0403 15:10:45.434633 11968 layer_factory.hpp:77] Creating layer conv2/relu_3x3
I0403 15:10:45.434653 11968 net.cpp:91] Creating Layer conv2/relu_3x3
I0403 15:10:45.434669 11968 net.cpp:425] conv2/relu_3x3 <- conv2/3x3
I0403 15:10:45.434686 11968 net.cpp:386] conv2/relu_3x3 -> conv2/3x3 (in-place)
I0403 15:10:45.434845 11968 net.cpp:141] Setting up conv2/relu_3x3
I0403 15:10:45.434870 11968 net.cpp:148] Top shape: 24 192 56 56 (14450688)
I0403 15:10:45.434921 11968 net.cpp:156] Memory required for data: 361268256
I0403 15:10:45.434937 11968 layer_factory.hpp:77] Creating layer conv2/norm2
I0403 15:10:45.434957 11968 net.cpp:91] Creating Layer conv2/norm2
I0403 15:10:45.434973 11968 net.cpp:425] conv2/norm2 <- conv2/3x3
I0403 15:10:45.434990 11968 net.cpp:399] conv2/norm2 -> conv2/norm2
I0403 15:10:45.435312 11968 net.cpp:141] Setting up conv2/norm2
I0403 15:10:45.435339 11968 net.cpp:148] Top shape: 24 192 56 56 (14450688)
I0403 15:10:45.435354 11968 net.cpp:156] Memory required for data: 419071008
I0403 15:10:45.435369 11968 layer_factory.hpp:77] Creating layer pool2/3x3_s2
I0403 15:10:45.435400 11968 net.cpp:91] Creating Layer pool2/3x3_s2
I0403 15:10:45.435416 11968 net.cpp:425] pool2/3x3_s2 <- conv2/norm2
I0403 15:10:45.435436 11968 net.cpp:399] pool2/3x3_s2 -> pool2/3x3_s2
I0403 15:10:45.435487 11968 net.cpp:141] Setting up pool2/3x3_s2
I0403 15:10:45.435510 11968 net.cpp:148] Top shape: 24 192 28 28 (3612672)
I0403 15:10:45.435525 11968 net.cpp:156] Memory required for data: 433521696
I0403 15:10:45.435540 11968 layer_factory.hpp:77] Creating layer pool2/3x3_s2_pool2/3x3_s2_0_split
I0403 15:10:45.435559 11968 net.cpp:91] Creating Layer pool2/3x3_s2_pool2/3x3_s2_0_split
I0403 15:10:45.435573 11968 net.cpp:425] pool2/3x3_s2_pool2/3x3_s2_0_split <- pool2/3x3_s2
I0403 15:10:45.435591 11968 net.cpp:399] pool2/3x3_s2_pool2/3x3_s2_0_split -> pool2/3x3_s2_pool2/3x3_s2_0_split_0
I0403 15:10:45.435611 11968 net.cpp:399] pool2/3x3_s2_pool2/3x3_s2_0_split -> pool2/3x3_s2_pool2/3x3_s2_0_split_1
I0403 15:10:45.435631 11968 net.cpp:399] pool2/3x3_s2_pool2/3x3_s2_0_split -> pool2/3x3_s2_pool2/3x3_s2_0_split_2
I0403 15:10:45.435652 11968 net.cpp:399] pool2/3x3_s2_pool2/3x3_s2_0_split -> pool2/3x3_s2_pool2/3x3_s2_0_split_3
I0403 15:10:45.435726 11968 net.cpp:141] Setting up pool2/3x3_s2_pool2/3x3_s2_0_split
I0403 15:10:45.435750 11968 net.cpp:148] Top shape: 24 192 28 28 (3612672)
I0403 15:10:45.435765 11968 net.cpp:148] Top shape: 24 192 28 28 (3612672)
I0403 15:10:45.435781 11968 net.cpp:148] Top shape: 24 192 28 28 (3612672)
I0403 15:10:45.435797 11968 net.cpp:148] Top shape: 24 192 28 28 (3612672)
I0403 15:10:45.435811 11968 net.cpp:156] Memory required for data: 491324448
I0403 15:10:45.435825 11968 layer_factory.hpp:77] Creating layer inception_3a/1x1
I0403 15:10:45.435845 11968 net.cpp:91] Creating Layer inception_3a/1x1
I0403 15:10:45.435863 11968 net.cpp:425] inception_3a/1x1 <- pool2/3x3_s2_pool2/3x3_s2_0_split_0
I0403 15:10:45.435881 11968 net.cpp:399] inception_3a/1x1 -> inception_3a/1x1
I0403 15:10:45.437372 11968 net.cpp:141] Setting up inception_3a/1x1
I0403 15:10:45.437402 11968 net.cpp:148] Top shape: 24 64 28 28 (1204224)
I0403 15:10:45.437419 11968 net.cpp:156] Memory required for data: 496141344
I0403 15:10:45.437439 11968 layer_factory.hpp:77] Creating layer inception_3a/relu_1x1
I0403 15:10:45.437458 11968 net.cpp:91] Creating Layer inception_3a/relu_1x1
I0403 15:10:45.437474 11968 net.cpp:425] inception_3a/relu_1x1 <- inception_3a/1x1
I0403 15:10:45.437491 11968 net.cpp:386] inception_3a/relu_1x1 -> inception_3a/1x1 (in-place)
I0403 15:10:45.437652 11968 net.cpp:141] Setting up inception_3a/relu_1x1
I0403 15:10:45.437679 11968 net.cpp:148] Top shape: 24 64 28 28 (1204224)
I0403 15:10:45.437693 11968 net.cpp:156] Memory required for data: 500958240
I0403 15:10:45.437708 11968 layer_factory.hpp:77] Creating layer inception_3a/3x3_reduce
I0403 15:10:45.437729 11968 net.cpp:91] Creating Layer inception_3a/3x3_reduce
I0403 15:10:45.437747 11968 net.cpp:425] inception_3a/3x3_reduce <- pool2/3x3_s2_pool2/3x3_s2_0_split_1
I0403 15:10:45.437765 11968 net.cpp:399] inception_3a/3x3_reduce -> inception_3a/3x3_reduce
I0403 15:10:45.439458 11968 net.cpp:141] Setting up inception_3a/3x3_reduce
I0403 15:10:45.439488 11968 net.cpp:148] Top shape: 24 96 28 28 (1806336)
I0403 15:10:45.439505 11968 net.cpp:156] Memory required for data: 508183584
I0403 15:10:45.439527 11968 layer_factory.hpp:77] Creating layer inception_3a/relu_3x3_reduce
I0403 15:10:45.439565 11968 net.cpp:91] Creating Layer inception_3a/relu_3x3_reduce
I0403 15:10:45.439584 11968 net.cpp:425] inception_3a/relu_3x3_reduce <- inception_3a/3x3_reduce
I0403 15:10:45.439602 11968 net.cpp:386] inception_3a/relu_3x3_reduce -> inception_3a/3x3_reduce (in-place)
I0403 15:10:45.439793 11968 net.cpp:141] Setting up inception_3a/relu_3x3_reduce
I0403 15:10:45.439821 11968 net.cpp:148] Top shape: 24 96 28 28 (1806336)
I0403 15:10:45.439836 11968 net.cpp:156] Memory required for data: 515408928
I0403 15:10:45.439852 11968 layer_factory.hpp:77] Creating layer inception_3a/3x3
I0403 15:10:45.439874 11968 net.cpp:91] Creating Layer inception_3a/3x3
I0403 15:10:45.439893 11968 net.cpp:425] inception_3a/3x3 <- inception_3a/3x3_reduce
I0403 15:10:45.439911 11968 net.cpp:399] inception_3a/3x3 -> inception_3a/3x3
I0403 15:10:45.441558 11968 net.cpp:141] Setting up inception_3a/3x3
I0403 15:10:45.441587 11968 net.cpp:148] Top shape: 24 128 28 28 (2408448)
I0403 15:10:45.441604 11968 net.cpp:156] Memory required for data: 525042720
I0403 15:10:45.441622 11968 layer_factory.hpp:77] Creating layer inception_3a/relu_3x3
I0403 15:10:45.441643 11968 net.cpp:91] Creating Layer inception_3a/relu_3x3
I0403 15:10:45.441660 11968 net.cpp:425] inception_3a/relu_3x3 <- inception_3a/3x3
I0403 15:10:45.441679 11968 net.cpp:386] inception_3a/relu_3x3 -> inception_3a/3x3 (in-place)
I0403 15:10:45.441953 11968 net.cpp:141] Setting up inception_3a/relu_3x3
I0403 15:10:45.441982 11968 net.cpp:148] Top shape: 24 128 28 28 (2408448)
I0403 15:10:45.441997 11968 net.cpp:156] Memory required for data: 534676512
I0403 15:10:45.442010 11968 layer_factory.hpp:77] Creating layer inception_3a/5x5_reduce
I0403 15:10:45.442034 11968 net.cpp:91] Creating Layer inception_3a/5x5_reduce
I0403 15:10:45.442050 11968 net.cpp:425] inception_3a/5x5_reduce <- pool2/3x3_s2_pool2/3x3_s2_0_split_2
I0403 15:10:45.442072 11968 net.cpp:399] inception_3a/5x5_reduce -> inception_3a/5x5_reduce
I0403 15:10:45.443034 11968 net.cpp:141] Setting up inception_3a/5x5_reduce
I0403 15:10:45.443063 11968 net.cpp:148] Top shape: 24 16 28 28 (301056)
I0403 15:10:45.443078 11968 net.cpp:156] Memory required for data: 535880736
I0403 15:10:45.443105 11968 layer_factory.hpp:77] Creating layer inception_3a/relu_5x5_reduce
I0403 15:10:45.443130 11968 net.cpp:91] Creating Layer inception_3a/relu_5x5_reduce
I0403 15:10:45.443148 11968 net.cpp:425] inception_3a/relu_5x5_reduce <- inception_3a/5x5_reduce
I0403 15:10:45.443168 11968 net.cpp:386] inception_3a/relu_5x5_reduce -> inception_3a/5x5_reduce (in-place)
I0403 15:10:45.443457 11968 net.cpp:141] Setting up inception_3a/relu_5x5_reduce
I0403 15:10:45.443483 11968 net.cpp:148] Top shape: 24 16 28 28 (301056)
I0403 15:10:45.443498 11968 net.cpp:156] Memory required for data: 537084960
I0403 15:10:45.443514 11968 layer_factory.hpp:77] Creating layer inception_3a/5x5
I0403 15:10:45.443537 11968 net.cpp:91] Creating Layer inception_3a/5x5
I0403 15:10:45.443555 11968 net.cpp:425] inception_3a/5x5 <- inception_3a/5x5_reduce
I0403 15:10:45.443574 11968 net.cpp:399] inception_3a/5x5 -> inception_3a/5x5
I0403 15:10:45.444586 11968 net.cpp:141] Setting up inception_3a/5x5
I0403 15:10:45.444613 11968 net.cpp:148] Top shape: 24 32 28 28 (602112)
I0403 15:10:45.444629 11968 net.cpp:156] Memory required for data: 539493408
I0403 15:10:45.444648 11968 layer_factory.hpp:77] Creating layer inception_3a/relu_5x5
I0403 15:10:45.444665 11968 net.cpp:91] Creating Layer inception_3a/relu_5x5
I0403 15:10:45.444682 11968 net.cpp:425] inception_3a/relu_5x5 <- inception_3a/5x5
I0403 15:10:45.444702 11968 net.cpp:386] inception_3a/relu_5x5 -> inception_3a/5x5 (in-place)
I0403 15:10:45.444878 11968 net.cpp:141] Setting up inception_3a/relu_5x5
I0403 15:10:45.444905 11968 net.cpp:148] Top shape: 24 32 28 28 (602112)
I0403 15:10:45.444918 11968 net.cpp:156] Memory required for data: 541901856
I0403 15:10:45.444934 11968 layer_factory.hpp:77] Creating layer inception_3a/pool
I0403 15:10:45.444954 11968 net.cpp:91] Creating Layer inception_3a/pool
I0403 15:10:45.444984 11968 net.cpp:425] inception_3a/pool <- pool2/3x3_s2_pool2/3x3_s2_0_split_3
I0403 15:10:45.445003 11968 net.cpp:399] inception_3a/pool -> inception_3a/pool
I0403 15:10:45.445062 11968 net.cpp:141] Setting up inception_3a/pool
I0403 15:10:45.445087 11968 net.cpp:148] Top shape: 24 192 28 28 (3612672)
I0403 15:10:45.445107 11968 net.cpp:156] Memory required for data: 556352544
I0403 15:10:45.445123 11968 layer_factory.hpp:77] Creating layer inception_3a/pool_proj
I0403 15:10:45.445145 11968 net.cpp:91] Creating Layer inception_3a/pool_proj
I0403 15:10:45.445165 11968 net.cpp:425] inception_3a/pool_proj <- inception_3a/pool
I0403 15:10:45.445186 11968 net.cpp:399] inception_3a/pool_proj -> inception_3a/pool_proj
I0403 15:10:45.446178 11968 net.cpp:141] Setting up inception_3a/pool_proj
I0403 15:10:45.446209 11968 net.cpp:148] Top shape: 24 32 28 28 (602112)
I0403 15:10:45.446226 11968 net.cpp:156] Memory required for data: 558760992
I0403 15:10:45.446249 11968 layer_factory.hpp:77] Creating layer inception_3a/relu_pool_proj
I0403 15:10:45.446269 11968 net.cpp:91] Creating Layer inception_3a/relu_pool_proj
I0403 15:10:45.446286 11968 net.cpp:425] inception_3a/relu_pool_proj <- inception_3a/pool_proj
I0403 15:10:45.446303 11968 net.cpp:386] inception_3a/relu_pool_proj -> inception_3a/pool_proj (in-place)
I0403 15:10:45.446580 11968 net.cpp:141] Setting up inception_3a/relu_pool_proj
I0403 15:10:45.446607 11968 net.cpp:148] Top shape: 24 32 28 28 (602112)
I0403 15:10:45.446624 11968 net.cpp:156] Memory required for data: 561169440
I0403 15:10:45.446638 11968 layer_factory.hpp:77] Creating layer inception_3a/output
I0403 15:10:45.446656 11968 net.cpp:91] Creating Layer inception_3a/output
I0403 15:10:45.446671 11968 net.cpp:425] inception_3a/output <- inception_3a/1x1
I0403 15:10:45.446688 11968 net.cpp:425] inception_3a/output <- inception_3a/3x3
I0403 15:10:45.446704 11968 net.cpp:425] inception_3a/output <- inception_3a/5x5
I0403 15:10:45.446720 11968 net.cpp:425] inception_3a/output <- inception_3a/pool_proj
I0403 15:10:45.446739 11968 net.cpp:399] inception_3a/output -> inception_3a/output
I0403 15:10:45.446784 11968 net.cpp:141] Setting up inception_3a/output
I0403 15:10:45.446810 11968 net.cpp:148] Top shape: 24 256 28 28 (4816896)
I0403 15:10:45.446825 11968 net.cpp:156] Memory required for data: 580437024
I0403 15:10:45.446838 11968 layer_factory.hpp:77] Creating layer inception_3a/output_inception_3a/output_0_split
I0403 15:10:45.446856 11968 net.cpp:91] Creating Layer inception_3a/output_inception_3a/output_0_split
I0403 15:10:45.446869 11968 net.cpp:425] inception_3a/output_inception_3a/output_0_split <- inception_3a/output
I0403 15:10:45.446887 11968 net.cpp:399] inception_3a/output_inception_3a/output_0_split -> inception_3a/output_inception_3a/output_0_split_0
I0403 15:10:45.446908 11968 net.cpp:399] inception_3a/output_inception_3a/output_0_split -> inception_3a/output_inception_3a/output_0_split_1
I0403 15:10:45.446933 11968 net.cpp:399] inception_3a/output_inception_3a/output_0_split -> inception_3a/output_inception_3a/output_0_split_2
I0403 15:10:45.446954 11968 net.cpp:399] inception_3a/output_inception_3a/output_0_split -> inception_3a/output_inception_3a/output_0_split_3
I0403 15:10:45.447028 11968 net.cpp:141] Setting up inception_3a/output_inception_3a/output_0_split
I0403 15:10:45.447053 11968 net.cpp:148] Top shape: 24 256 28 28 (4816896)
I0403 15:10:45.447070 11968 net.cpp:148] Top shape: 24 256 28 28 (4816896)
I0403 15:10:45.447088 11968 net.cpp:148] Top shape: 24 256 28 28 (4816896)
I0403 15:10:45.447108 11968 net.cpp:148] Top shape: 24 256 28 28 (4816896)
I0403 15:10:45.447123 11968 net.cpp:156] Memory required for data: 657507360
I0403 15:10:45.447137 11968 layer_factory.hpp:77] Creating layer inception_3b/1x1
I0403 15:10:45.447160 11968 net.cpp:91] Creating Layer inception_3b/1x1
I0403 15:10:45.447177 11968 net.cpp:425] inception_3b/1x1 <- inception_3a/output_inception_3a/output_0_split_0
I0403 15:10:45.447197 11968 net.cpp:399] inception_3b/1x1 -> inception_3b/1x1
I0403 15:10:45.448324 11968 net.cpp:141] Setting up inception_3b/1x1
I0403 15:10:45.448366 11968 net.cpp:148] Top shape: 24 128 28 28 (2408448)
I0403 15:10:45.448385 11968 net.cpp:156] Memory required for data: 667141152
I0403 15:10:45.448405 11968 layer_factory.hpp:77] Creating layer inception_3b/relu_1x1
I0403 15:10:45.448423 11968 net.cpp:91] Creating Layer inception_3b/relu_1x1
I0403 15:10:45.448439 11968 net.cpp:425] inception_3b/relu_1x1 <- inception_3b/1x1
I0403 15:10:45.448458 11968 net.cpp:386] inception_3b/relu_1x1 -> inception_3b/1x1 (in-place)
I0403 15:10:45.448633 11968 net.cpp:141] Setting up inception_3b/relu_1x1
I0403 15:10:45.448659 11968 net.cpp:148] Top shape: 24 128 28 28 (2408448)
I0403 15:10:45.448674 11968 net.cpp:156] Memory required for data: 676774944
I0403 15:10:45.448689 11968 layer_factory.hpp:77] Creating layer inception_3b/3x3_reduce
I0403 15:10:45.448712 11968 net.cpp:91] Creating Layer inception_3b/3x3_reduce
I0403 15:10:45.448730 11968 net.cpp:425] inception_3b/3x3_reduce <- inception_3a/output_inception_3a/output_0_split_1
I0403 15:10:45.448752 11968 net.cpp:399] inception_3b/3x3_reduce -> inception_3b/3x3_reduce
I0403 15:10:45.449910 11968 net.cpp:141] Setting up inception_3b/3x3_reduce
I0403 15:10:45.449939 11968 net.cpp:148] Top shape: 24 128 28 28 (2408448)
I0403 15:10:45.449955 11968 net.cpp:156] Memory required for data: 686408736
I0403 15:10:45.449973 11968 layer_factory.hpp:77] Creating layer inception_3b/relu_3x3_reduce
I0403 15:10:45.449990 11968 net.cpp:91] Creating Layer inception_3b/relu_3x3_reduce
I0403 15:10:45.450007 11968 net.cpp:425] inception_3b/relu_3x3_reduce <- inception_3b/3x3_reduce
I0403 15:10:45.450027 11968 net.cpp:386] inception_3b/relu_3x3_reduce -> inception_3b/3x3_reduce (in-place)
I0403 15:10:45.450215 11968 net.cpp:141] Setting up inception_3b/relu_3x3_reduce
I0403 15:10:45.450242 11968 net.cpp:148] Top shape: 24 128 28 28 (2408448)
I0403 15:10:45.450256 11968 net.cpp:156] Memory required for data: 696042528
I0403 15:10:45.450271 11968 layer_factory.hpp:77] Creating layer inception_3b/3x3
I0403 15:10:45.450299 11968 net.cpp:91] Creating Layer inception_3b/3x3
I0403 15:10:45.450317 11968 net.cpp:425] inception_3b/3x3 <- inception_3b/3x3_reduce
I0403 15:10:45.450336 11968 net.cpp:399] inception_3b/3x3 -> inception_3b/3x3
I0403 15:10:45.453233 11968 net.cpp:141] Setting up inception_3b/3x3
I0403 15:10:45.453263 11968 net.cpp:148] Top shape: 24 192 28 28 (3612672)
I0403 15:10:45.453279 11968 net.cpp:156] Memory required for data: 710493216
I0403 15:10:45.453296 11968 layer_factory.hpp:77] Creating layer inception_3b/relu_3x3
I0403 15:10:45.453315 11968 net.cpp:91] Creating Layer inception_3b/relu_3x3
I0403 15:10:45.453331 11968 net.cpp:425] inception_3b/relu_3x3 <- inception_3b/3x3
I0403 15:10:45.453351 11968 net.cpp:386] inception_3b/relu_3x3 -> inception_3b/3x3 (in-place)
I0403 15:10:45.453650 11968 net.cpp:141] Setting up inception_3b/relu_3x3
I0403 15:10:45.453690 11968 net.cpp:148] Top shape: 24 192 28 28 (3612672)
I0403 15:10:45.453704 11968 net.cpp:156] Memory required for data: 724943904
I0403 15:10:45.453719 11968 layer_factory.hpp:77] Creating layer inception_3b/5x5_reduce
I0403 15:10:45.453740 11968 net.cpp:91] Creating Layer inception_3b/5x5_reduce
I0403 15:10:45.453758 11968 net.cpp:425] inception_3b/5x5_reduce <- inception_3a/output_inception_3a/output_0_split_2
I0403 15:10:45.453781 11968 net.cpp:399] inception_3b/5x5_reduce -> inception_3b/5x5_reduce
I0403 15:10:45.454772 11968 net.cpp:141] Setting up inception_3b/5x5_reduce
I0403 15:10:45.454802 11968 net.cpp:148] Top shape: 24 32 28 28 (602112)
I0403 15:10:45.454818 11968 net.cpp:156] Memory required for data: 727352352
I0403 15:10:45.454838 11968 layer_factory.hpp:77] Creating layer inception_3b/relu_5x5_reduce
I0403 15:10:45.454855 11968 net.cpp:91] Creating Layer inception_3b/relu_5x5_reduce
I0403 15:10:45.454871 11968 net.cpp:425] inception_3b/relu_5x5_reduce <- inception_3b/5x5_reduce
I0403 15:10:45.454890 11968 net.cpp:386] inception_3b/relu_5x5_reduce -> inception_3b/5x5_reduce (in-place)
I0403 15:10:45.455086 11968 net.cpp:141] Setting up inception_3b/relu_5x5_reduce
I0403 15:10:45.455117 11968 net.cpp:148] Top shape: 24 32 28 28 (602112)
I0403 15:10:45.455134 11968 net.cpp:156] Memory required for data: 729760800
I0403 15:10:45.455149 11968 layer_factory.hpp:77] Creating layer inception_3b/5x5
I0403 15:10:45.455171 11968 net.cpp:91] Creating Layer inception_3b/5x5
I0403 15:10:45.455190 11968 net.cpp:425] inception_3b/5x5 <- inception_3b/5x5_reduce
I0403 15:10:45.455211 11968 net.cpp:399] inception_3b/5x5 -> inception_3b/5x5
I0403 15:10:45.457170 11968 net.cpp:141] Setting up inception_3b/5x5
I0403 15:10:45.457203 11968 net.cpp:148] Top shape: 24 96 28 28 (1806336)
I0403 15:10:45.457221 11968 net.cpp:156] Memory required for data: 736986144
I0403 15:10:45.457239 11968 layer_factory.hpp:77] Creating layer inception_3b/relu_5x5
I0403 15:10:45.457257 11968 net.cpp:91] Creating Layer inception_3b/relu_5x5
I0403 15:10:45.457273 11968 net.cpp:425] inception_3b/relu_5x5 <- inception_3b/5x5
I0403 15:10:45.457293 11968 net.cpp:386] inception_3b/relu_5x5 -> inception_3b/5x5 (in-place)
I0403 15:10:45.457504 11968 net.cpp:141] Setting up inception_3b/relu_5x5
I0403 15:10:45.457530 11968 net.cpp:148] Top shape: 24 96 28 28 (1806336)
I0403 15:10:45.457545 11968 net.cpp:156] Memory required for data: 744211488
I0403 15:10:45.457561 11968 layer_factory.hpp:77] Creating layer inception_3b/pool
I0403 15:10:45.457578 11968 net.cpp:91] Creating Layer inception_3b/pool
I0403 15:10:45.457595 11968 net.cpp:425] inception_3b/pool <- inception_3a/output_inception_3a/output_0_split_3
I0403 15:10:45.457614 11968 net.cpp:399] inception_3b/pool -> inception_3b/pool
I0403 15:10:45.457685 11968 net.cpp:141] Setting up inception_3b/pool
I0403 15:10:45.457710 11968 net.cpp:148] Top shape: 24 256 28 28 (4816896)
I0403 15:10:45.457725 11968 net.cpp:156] Memory required for data: 763479072
I0403 15:10:45.457738 11968 layer_factory.hpp:77] Creating layer inception_3b/pool_proj
I0403 15:10:45.457761 11968 net.cpp:91] Creating Layer inception_3b/pool_proj
I0403 15:10:45.457777 11968 net.cpp:425] inception_3b/pool_proj <- inception_3b/pool
I0403 15:10:45.457798 11968 net.cpp:399] inception_3b/pool_proj -> inception_3b/pool_proj
I0403 15:10:45.458852 11968 net.cpp:141] Setting up inception_3b/pool_proj
I0403 15:10:45.458879 11968 net.cpp:148] Top shape: 24 64 28 28 (1204224)
I0403 15:10:45.458895 11968 net.cpp:156] Memory required for data: 768295968
I0403 15:10:45.458914 11968 layer_factory.hpp:77] Creating layer inception_3b/relu_pool_proj
I0403 15:10:45.458935 11968 net.cpp:91] Creating Layer inception_3b/relu_pool_proj
I0403 15:10:45.458952 11968 net.cpp:425] inception_3b/relu_pool_proj <- inception_3b/pool_proj
I0403 15:10:45.458971 11968 net.cpp:386] inception_3b/relu_pool_proj -> inception_3b/pool_proj (in-place)
I0403 15:10:45.459362 11968 net.cpp:141] Setting up inception_3b/relu_pool_proj
I0403 15:10:45.459388 11968 net.cpp:148] Top shape: 24 64 28 28 (1204224)
I0403 15:10:45.459404 11968 net.cpp:156] Memory required for data: 773112864
I0403 15:10:45.459419 11968 layer_factory.hpp:77] Creating layer inception_3b/output
I0403 15:10:45.459437 11968 net.cpp:91] Creating Layer inception_3b/output
I0403 15:10:45.459453 11968 net.cpp:425] inception_3b/output <- inception_3b/1x1
I0403 15:10:45.459471 11968 net.cpp:425] inception_3b/output <- inception_3b/3x3
I0403 15:10:45.459487 11968 net.cpp:425] inception_3b/output <- inception_3b/5x5
I0403 15:10:45.459503 11968 net.cpp:425] inception_3b/output <- inception_3b/pool_proj
I0403 15:10:45.459520 11968 net.cpp:399] inception_3b/output -> inception_3b/output
I0403 15:10:45.459568 11968 net.cpp:141] Setting up inception_3b/output
I0403 15:10:45.459590 11968 net.cpp:148] Top shape: 24 480 28 28 (9031680)
I0403 15:10:45.459604 11968 net.cpp:156] Memory required for data: 809239584
I0403 15:10:45.459619 11968 layer_factory.hpp:77] Creating layer pool3/3x3_s2
I0403 15:10:45.459637 11968 net.cpp:91] Creating Layer pool3/3x3_s2
I0403 15:10:45.459653 11968 net.cpp:425] pool3/3x3_s2 <- inception_3b/output
I0403 15:10:45.459689 11968 net.cpp:399] pool3/3x3_s2 -> pool3/3x3_s2
I0403 15:10:45.459750 11968 net.cpp:141] Setting up pool3/3x3_s2
I0403 15:10:45.459774 11968 net.cpp:148] Top shape: 24 480 14 14 (2257920)
I0403 15:10:45.459787 11968 net.cpp:156] Memory required for data: 818271264
I0403 15:10:45.459802 11968 layer_factory.hpp:77] Creating layer pool3/3x3_s2_pool3/3x3_s2_0_split
I0403 15:10:45.459821 11968 net.cpp:91] Creating Layer pool3/3x3_s2_pool3/3x3_s2_0_split
I0403 15:10:45.459838 11968 net.cpp:425] pool3/3x3_s2_pool3/3x3_s2_0_split <- pool3/3x3_s2
I0403 15:10:45.459858 11968 net.cpp:399] pool3/3x3_s2_pool3/3x3_s2_0_split -> pool3/3x3_s2_pool3/3x3_s2_0_split_0
I0403 15:10:45.459877 11968 net.cpp:399] pool3/3x3_s2_pool3/3x3_s2_0_split -> pool3/3x3_s2_pool3/3x3_s2_0_split_1
I0403 15:10:45.459897 11968 net.cpp:399] pool3/3x3_s2_pool3/3x3_s2_0_split -> pool3/3x3_s2_pool3/3x3_s2_0_split_2
I0403 15:10:45.459916 11968 net.cpp:399] pool3/3x3_s2_pool3/3x3_s2_0_split -> pool3/3x3_s2_pool3/3x3_s2_0_split_3
I0403 15:10:45.459992 11968 net.cpp:141] Setting up pool3/3x3_s2_pool3/3x3_s2_0_split
I0403 15:10:45.460016 11968 net.cpp:148] Top shape: 24 480 14 14 (2257920)
I0403 15:10:45.460033 11968 net.cpp:148] Top shape: 24 480 14 14 (2257920)
I0403 15:10:45.460049 11968 net.cpp:148] Top shape: 24 480 14 14 (2257920)
I0403 15:10:45.460065 11968 net.cpp:148] Top shape: 24 480 14 14 (2257920)
I0403 15:10:45.460091 11968 net.cpp:156] Memory required for data: 854397984
I0403 15:10:45.460113 11968 layer_factory.hpp:77] Creating layer inception_4a/1x1
I0403 15:10:45.460135 11968 net.cpp:91] Creating Layer inception_4a/1x1
I0403 15:10:45.460155 11968 net.cpp:425] inception_4a/1x1 <- pool3/3x3_s2_pool3/3x3_s2_0_split_0
I0403 15:10:45.460176 11968 net.cpp:399] inception_4a/1x1 -> inception_4a/1x1
I0403 15:10:45.461805 11968 net.cpp:141] Setting up inception_4a/1x1
I0403 15:10:45.461836 11968 net.cpp:148] Top shape: 24 192 14 14 (903168)
I0403 15:10:45.461853 11968 net.cpp:156] Memory required for data: 858010656
I0403 15:10:45.461874 11968 layer_factory.hpp:77] Creating layer inception_4a/relu_1x1
I0403 15:10:45.461891 11968 net.cpp:91] Creating Layer inception_4a/relu_1x1
I0403 15:10:45.461907 11968 net.cpp:425] inception_4a/relu_1x1 <- inception_4a/1x1
I0403 15:10:45.461925 11968 net.cpp:386] inception_4a/relu_1x1 -> inception_4a/1x1 (in-place)
I0403 15:10:45.462111 11968 net.cpp:141] Setting up inception_4a/relu_1x1
I0403 15:10:45.462141 11968 net.cpp:148] Top shape: 24 192 14 14 (903168)
I0403 15:10:45.462157 11968 net.cpp:156] Memory required for data: 861623328
I0403 15:10:45.462172 11968 layer_factory.hpp:77] Creating layer inception_4a/3x3_reduce
I0403 15:10:45.462194 11968 net.cpp:91] Creating Layer inception_4a/3x3_reduce
I0403 15:10:45.462213 11968 net.cpp:425] inception_4a/3x3_reduce <- pool3/3x3_s2_pool3/3x3_s2_0_split_1
I0403 15:10:45.462234 11968 net.cpp:399] inception_4a/3x3_reduce -> inception_4a/3x3_reduce
I0403 15:10:45.463516 11968 net.cpp:141] Setting up inception_4a/3x3_reduce
I0403 15:10:45.463546 11968 net.cpp:148] Top shape: 24 96 14 14 (451584)
I0403 15:10:45.463562 11968 net.cpp:156] Memory required for data: 863429664
I0403 15:10:45.463587 11968 layer_factory.hpp:77] Creating layer inception_4a/relu_3x3_reduce
I0403 15:10:45.463608 11968 net.cpp:91] Creating Layer inception_4a/relu_3x3_reduce
I0403 15:10:45.463624 11968 net.cpp:425] inception_4a/relu_3x3_reduce <- inception_4a/3x3_reduce
I0403 15:10:45.463641 11968 net.cpp:386] inception_4a/relu_3x3_reduce -> inception_4a/3x3_reduce (in-place)
I0403 15:10:45.463820 11968 net.cpp:141] Setting up inception_4a/relu_3x3_reduce
I0403 15:10:45.463848 11968 net.cpp:148] Top shape: 24 96 14 14 (451584)
I0403 15:10:45.463865 11968 net.cpp:156] Memory required for data: 865236000
I0403 15:10:45.463879 11968 layer_factory.hpp:77] Creating layer inception_4a/3x3
I0403 15:10:45.463901 11968 net.cpp:91] Creating Layer inception_4a/3x3
I0403 15:10:45.463918 11968 net.cpp:425] inception_4a/3x3 <- inception_4a/3x3_reduce
I0403 15:10:45.463937 11968 net.cpp:399] inception_4a/3x3 -> inception_4a/3x3
I0403 15:10:45.466647 11968 net.cpp:141] Setting up inception_4a/3x3
I0403 15:10:45.466676 11968 net.cpp:148] Top shape: 24 208 14 14 (978432)
I0403 15:10:45.466692 11968 net.cpp:156] Memory required for data: 869149728
I0403 15:10:45.466711 11968 layer_factory.hpp:77] Creating layer inception_4a/relu_3x3
I0403 15:10:45.466728 11968 net.cpp:91] Creating Layer inception_4a/relu_3x3
I0403 15:10:45.466744 11968 net.cpp:425] inception_4a/relu_3x3 <- inception_4a/3x3
I0403 15:10:45.466764 11968 net.cpp:386] inception_4a/relu_3x3 -> inception_4a/3x3 (in-place)
I0403 15:10:45.467047 11968 net.cpp:141] Setting up inception_4a/relu_3x3
I0403 15:10:45.467074 11968 net.cpp:148] Top shape: 24 208 14 14 (978432)
I0403 15:10:45.467090 11968 net.cpp:156] Memory required for data: 873063456
I0403 15:10:45.467109 11968 layer_factory.hpp:77] Creating layer inception_4a/5x5_reduce
I0403 15:10:45.467133 11968 net.cpp:91] Creating Layer inception_4a/5x5_reduce
I0403 15:10:45.467151 11968 net.cpp:425] inception_4a/5x5_reduce <- pool3/3x3_s2_pool3/3x3_s2_0_split_2
I0403 15:10:45.467176 11968 net.cpp:399] inception_4a/5x5_reduce -> inception_4a/5x5_reduce
I0403 15:10:45.468240 11968 net.cpp:141] Setting up inception_4a/5x5_reduce
I0403 15:10:45.468268 11968 net.cpp:148] Top shape: 24 16 14 14 (75264)
I0403 15:10:45.468284 11968 net.cpp:156] Memory required for data: 873364512
I0403 15:10:45.468302 11968 layer_factory.hpp:77] Creating layer inception_4a/relu_5x5_reduce
I0403 15:10:45.468322 11968 net.cpp:91] Creating Layer inception_4a/relu_5x5_reduce
I0403 15:10:45.468338 11968 net.cpp:425] inception_4a/relu_5x5_reduce <- inception_4a/5x5_reduce
I0403 15:10:45.468358 11968 net.cpp:386] inception_4a/relu_5x5_reduce -> inception_4a/5x5_reduce (in-place)
I0403 15:10:45.468543 11968 net.cpp:141] Setting up inception_4a/relu_5x5_reduce
I0403 15:10:45.468569 11968 net.cpp:148] Top shape: 24 16 14 14 (75264)
I0403 15:10:45.468583 11968 net.cpp:156] Memory required for data: 873665568
I0403 15:10:45.468598 11968 layer_factory.hpp:77] Creating layer inception_4a/5x5
I0403 15:10:45.468621 11968 net.cpp:91] Creating Layer inception_4a/5x5
I0403 15:10:45.468638 11968 net.cpp:425] inception_4a/5x5 <- inception_4a/5x5_reduce
I0403 15:10:45.468659 11968 net.cpp:399] inception_4a/5x5 -> inception_4a/5x5
I0403 15:10:45.469789 11968 net.cpp:141] Setting up inception_4a/5x5
I0403 15:10:45.469816 11968 net.cpp:148] Top shape: 24 48 14 14 (225792)
I0403 15:10:45.469831 11968 net.cpp:156] Memory required for data: 874568736
I0403 15:10:45.469849 11968 layer_factory.hpp:77] Creating layer inception_4a/relu_5x5
I0403 15:10:45.469869 11968 net.cpp:91] Creating Layer inception_4a/relu_5x5
I0403 15:10:45.469887 11968 net.cpp:425] inception_4a/relu_5x5 <- inception_4a/5x5
I0403 15:10:45.469904 11968 net.cpp:386] inception_4a/relu_5x5 -> inception_4a/5x5 (in-place)
I0403 15:10:45.470085 11968 net.cpp:141] Setting up inception_4a/relu_5x5
I0403 15:10:45.470118 11968 net.cpp:148] Top shape: 24 48 14 14 (225792)
I0403 15:10:45.470134 11968 net.cpp:156] Memory required for data: 875471904
I0403 15:10:45.470149 11968 layer_factory.hpp:77] Creating layer inception_4a/pool
I0403 15:10:45.470167 11968 net.cpp:91] Creating Layer inception_4a/pool
I0403 15:10:45.470183 11968 net.cpp:425] inception_4a/pool <- pool3/3x3_s2_pool3/3x3_s2_0_split_3
I0403 15:10:45.470203 11968 net.cpp:399] inception_4a/pool -> inception_4a/pool
I0403 15:10:45.470278 11968 net.cpp:141] Setting up inception_4a/pool
I0403 15:10:45.470302 11968 net.cpp:148] Top shape: 24 480 14 14 (2257920)
I0403 15:10:45.470317 11968 net.cpp:156] Memory required for data: 884503584
I0403 15:10:45.470334 11968 layer_factory.hpp:77] Creating layer inception_4a/pool_proj
I0403 15:10:45.470355 11968 net.cpp:91] Creating Layer inception_4a/pool_proj
I0403 15:10:45.470374 11968 net.cpp:425] inception_4a/pool_proj <- inception_4a/pool
I0403 15:10:45.470396 11968 net.cpp:399] inception_4a/pool_proj -> inception_4a/pool_proj
I0403 15:10:45.471581 11968 net.cpp:141] Setting up inception_4a/pool_proj
I0403 15:10:45.471609 11968 net.cpp:148] Top shape: 24 64 14 14 (301056)
I0403 15:10:45.471642 11968 net.cpp:156] Memory required for data: 885707808
I0403 15:10:45.471662 11968 layer_factory.hpp:77] Creating layer inception_4a/relu_pool_proj
I0403 15:10:45.471683 11968 net.cpp:91] Creating Layer inception_4a/relu_pool_proj
I0403 15:10:45.471703 11968 net.cpp:425] inception_4a/relu_pool_proj <- inception_4a/pool_proj
I0403 15:10:45.471720 11968 net.cpp:386] inception_4a/relu_pool_proj -> inception_4a/pool_proj (in-place)
I0403 15:10:45.472000 11968 net.cpp:141] Setting up inception_4a/relu_pool_proj
I0403 15:10:45.472028 11968 net.cpp:148] Top shape: 24 64 14 14 (301056)
I0403 15:10:45.472043 11968 net.cpp:156] Memory required for data: 886912032
I0403 15:10:45.472057 11968 layer_factory.hpp:77] Creating layer inception_4a/output
I0403 15:10:45.472076 11968 net.cpp:91] Creating Layer inception_4a/output
I0403 15:10:45.472097 11968 net.cpp:425] inception_4a/output <- inception_4a/1x1
I0403 15:10:45.472115 11968 net.cpp:425] inception_4a/output <- inception_4a/3x3
I0403 15:10:45.472133 11968 net.cpp:425] inception_4a/output <- inception_4a/5x5
I0403 15:10:45.472149 11968 net.cpp:425] inception_4a/output <- inception_4a/pool_proj
I0403 15:10:45.472168 11968 net.cpp:399] inception_4a/output -> inception_4a/output
I0403 15:10:45.472214 11968 net.cpp:141] Setting up inception_4a/output
I0403 15:10:45.472239 11968 net.cpp:148] Top shape: 24 512 14 14 (2408448)
I0403 15:10:45.472252 11968 net.cpp:156] Memory required for data: 896545824
I0403 15:10:45.472267 11968 layer_factory.hpp:77] Creating layer inception_4a/output_inception_4a/output_0_split
I0403 15:10:45.472285 11968 net.cpp:91] Creating Layer inception_4a/output_inception_4a/output_0_split
I0403 15:10:45.472301 11968 net.cpp:425] inception_4a/output_inception_4a/output_0_split <- inception_4a/output
I0403 15:10:45.472323 11968 net.cpp:399] inception_4a/output_inception_4a/output_0_split -> inception_4a/output_inception_4a/output_0_split_0
I0403 15:10:45.472345 11968 net.cpp:399] inception_4a/output_inception_4a/output_0_split -> inception_4a/output_inception_4a/output_0_split_1
I0403 15:10:45.472367 11968 net.cpp:399] inception_4a/output_inception_4a/output_0_split -> inception_4a/output_inception_4a/output_0_split_2
I0403 15:10:45.472388 11968 net.cpp:399] inception_4a/output_inception_4a/output_0_split -> inception_4a/output_inception_4a/output_0_split_3
I0403 15:10:45.472410 11968 net.cpp:399] inception_4a/output_inception_4a/output_0_split -> inception_4a/output_inception_4a/output_0_split_4
I0403 15:10:45.472503 11968 net.cpp:141] Setting up inception_4a/output_inception_4a/output_0_split
I0403 15:10:45.472527 11968 net.cpp:148] Top shape: 24 512 14 14 (2408448)
I0403 15:10:45.472543 11968 net.cpp:148] Top shape: 24 512 14 14 (2408448)
I0403 15:10:45.472558 11968 net.cpp:148] Top shape: 24 512 14 14 (2408448)
I0403 15:10:45.472574 11968 net.cpp:148] Top shape: 24 512 14 14 (2408448)
I0403 15:10:45.472590 11968 net.cpp:148] Top shape: 24 512 14 14 (2408448)
I0403 15:10:45.472604 11968 net.cpp:156] Memory required for data: 944714784
I0403 15:10:45.472620 11968 layer_factory.hpp:77] Creating layer loss1/ave_pool
I0403 15:10:45.472636 11968 net.cpp:91] Creating Layer loss1/ave_pool
I0403 15:10:45.472651 11968 net.cpp:425] loss1/ave_pool <- inception_4a/output_inception_4a/output_0_split_0
I0403 15:10:45.472671 11968 net.cpp:399] loss1/ave_pool -> loss1/ave_pool
I0403 15:10:45.472878 11968 net.cpp:141] Setting up loss1/ave_pool
I0403 15:10:45.472904 11968 net.cpp:148] Top shape: 24 512 4 4 (196608)
I0403 15:10:45.472919 11968 net.cpp:156] Memory required for data: 945501216
I0403 15:10:45.472934 11968 layer_factory.hpp:77] Creating layer loss1/conv
I0403 15:10:45.472957 11968 net.cpp:91] Creating Layer loss1/conv
I0403 15:10:45.472975 11968 net.cpp:425] loss1/conv <- loss1/ave_pool
I0403 15:10:45.472993 11968 net.cpp:399] loss1/conv -> loss1/conv
I0403 15:10:45.474438 11968 net.cpp:141] Setting up loss1/conv
I0403 15:10:45.474467 11968 net.cpp:148] Top shape: 24 128 4 4 (49152)
I0403 15:10:45.474498 11968 net.cpp:156] Memory required for data: 945697824
I0403 15:10:45.474517 11968 layer_factory.hpp:77] Creating layer loss1/relu_conv
I0403 15:10:45.474535 11968 net.cpp:91] Creating Layer loss1/relu_conv
I0403 15:10:45.474552 11968 net.cpp:425] loss1/relu_conv <- loss1/conv
I0403 15:10:45.474572 11968 net.cpp:386] loss1/relu_conv -> loss1/conv (in-place)
I0403 15:10:45.474855 11968 net.cpp:141] Setting up loss1/relu_conv
I0403 15:10:45.474882 11968 net.cpp:148] Top shape: 24 128 4 4 (49152)
I0403 15:10:45.474898 11968 net.cpp:156] Memory required for data: 945894432
I0403 15:10:45.474912 11968 layer_factory.hpp:77] Creating layer loss1/fc
I0403 15:10:45.474936 11968 net.cpp:91] Creating Layer loss1/fc
I0403 15:10:45.474954 11968 net.cpp:425] loss1/fc <- loss1/conv
I0403 15:10:45.474975 11968 net.cpp:399] loss1/fc -> loss1/fc
I0403 15:10:45.492749 11968 net.cpp:141] Setting up loss1/fc
I0403 15:10:45.492786 11968 net.cpp:148] Top shape: 24 1024 (24576)
I0403 15:10:45.492805 11968 net.cpp:156] Memory required for data: 945992736
I0403 15:10:45.492825 11968 layer_factory.hpp:77] Creating layer loss1/relu_fc
I0403 15:10:45.492842 11968 net.cpp:91] Creating Layer loss1/relu_fc
I0403 15:10:45.492858 11968 net.cpp:425] loss1/relu_fc <- loss1/fc
I0403 15:10:45.492876 11968 net.cpp:386] loss1/relu_fc -> loss1/fc (in-place)
I0403 15:10:45.493067 11968 net.cpp:141] Setting up loss1/relu_fc
I0403 15:10:45.493103 11968 net.cpp:148] Top shape: 24 1024 (24576)
I0403 15:10:45.493121 11968 net.cpp:156] Memory required for data: 946091040
I0403 15:10:45.493137 11968 layer_factory.hpp:77] Creating layer loss1/drop_fc
I0403 15:10:45.493163 11968 net.cpp:91] Creating Layer loss1/drop_fc
I0403 15:10:45.493182 11968 net.cpp:425] loss1/drop_fc <- loss1/fc
I0403 15:10:45.493203 11968 net.cpp:386] loss1/drop_fc -> loss1/fc (in-place)
I0403 15:10:45.493254 11968 net.cpp:141] Setting up loss1/drop_fc
I0403 15:10:45.493278 11968 net.cpp:148] Top shape: 24 1024 (24576)
I0403 15:10:45.493293 11968 net.cpp:156] Memory required for data: 946189344
I0403 15:10:45.493307 11968 layer_factory.hpp:77] Creating layer loss1/classifier_plantvillage
I0403 15:10:45.493330 11968 net.cpp:91] Creating Layer loss1/classifier_plantvillage
I0403 15:10:45.493348 11968 net.cpp:425] loss1/classifier_plantvillage <- loss1/fc
I0403 15:10:45.493366 11968 net.cpp:399] loss1/classifier_plantvillage -> loss1/classifier_plantvillage
I0403 15:10:45.494292 11968 net.cpp:141] Setting up loss1/classifier_plantvillage
I0403 15:10:45.494321 11968 net.cpp:148] Top shape: 24 38 (912)
I0403 15:10:45.494338 11968 net.cpp:156] Memory required for data: 946192992
I0403 15:10:45.494355 11968 layer_factory.hpp:77] Creating layer loss1/classifier_plantvillage_loss1/classifier_plantvillage_0_split
I0403 15:10:45.494374 11968 net.cpp:91] Creating Layer loss1/classifier_plantvillage_loss1/classifier_plantvillage_0_split
I0403 15:10:45.494390 11968 net.cpp:425] loss1/classifier_plantvillage_loss1/classifier_plantvillage_0_split <- loss1/classifier_plantvillage
I0403 15:10:45.494408 11968 net.cpp:399] loss1/classifier_plantvillage_loss1/classifier_plantvillage_0_split -> loss1/classifier_plantvillage_loss1/classifier_plantvillage_0_split_0
I0403 15:10:45.494431 11968 net.cpp:399] loss1/classifier_plantvillage_loss1/classifier_plantvillage_0_split -> loss1/classifier_plantvillage_loss1/classifier_plantvillage_0_split_1
I0403 15:10:45.494452 11968 net.cpp:399] loss1/classifier_plantvillage_loss1/classifier_plantvillage_0_split -> loss1/classifier_plantvillage_loss1/classifier_plantvillage_0_split_2
I0403 15:10:45.494518 11968 net.cpp:141] Setting up loss1/classifier_plantvillage_loss1/classifier_plantvillage_0_split
I0403 15:10:45.494542 11968 net.cpp:148] Top shape: 24 38 (912)
I0403 15:10:45.494559 11968 net.cpp:148] Top shape: 24 38 (912)
I0403 15:10:45.494573 11968 net.cpp:148] Top shape: 24 38 (912)
I0403 15:10:45.494587 11968 net.cpp:156] Memory required for data: 946203936
I0403 15:10:45.494602 11968 layer_factory.hpp:77] Creating layer inception_4b/1x1
I0403 15:10:45.494622 11968 net.cpp:91] Creating Layer inception_4b/1x1
I0403 15:10:45.494657 11968 net.cpp:425] inception_4b/1x1 <- inception_4a/output_inception_4a/output_0_split_1
I0403 15:10:45.494679 11968 net.cpp:399] inception_4b/1x1 -> inception_4b/1x1
I0403 15:10:45.496337 11968 net.cpp:141] Setting up inception_4b/1x1
I0403 15:10:45.496366 11968 net.cpp:148] Top shape: 24 160 14 14 (752640)
I0403 15:10:45.496382 11968 net.cpp:156] Memory required for data: 949214496
I0403 15:10:45.496400 11968 layer_factory.hpp:77] Creating layer inception_4b/relu_1x1
I0403 15:10:45.496418 11968 net.cpp:91] Creating Layer inception_4b/relu_1x1
I0403 15:10:45.496434 11968 net.cpp:425] inception_4b/relu_1x1 <- inception_4b/1x1
I0403 15:10:45.496455 11968 net.cpp:386] inception_4b/relu_1x1 -> inception_4b/1x1 (in-place)
I0403 15:10:45.496636 11968 net.cpp:141] Setting up inception_4b/relu_1x1
I0403 15:10:45.496664 11968 net.cpp:148] Top shape: 24 160 14 14 (752640)
I0403 15:10:45.496678 11968 net.cpp:156] Memory required for data: 952225056
I0403 15:10:45.496691 11968 layer_factory.hpp:77] Creating layer inception_4b/3x3_reduce
I0403 15:10:45.496713 11968 net.cpp:91] Creating Layer inception_4b/3x3_reduce
I0403 15:10:45.496732 11968 net.cpp:425] inception_4b/3x3_reduce <- inception_4a/output_inception_4a/output_0_split_2
I0403 15:10:45.496755 11968 net.cpp:399] inception_4b/3x3_reduce -> inception_4b/3x3_reduce
I0403 15:10:45.498158 11968 net.cpp:141] Setting up inception_4b/3x3_reduce
I0403 15:10:45.498195 11968 net.cpp:148] Top shape: 24 112 14 14 (526848)
I0403 15:10:45.498211 11968 net.cpp:156] Memory required for data: 954332448
I0403 15:10:45.498230 11968 layer_factory.hpp:77] Creating layer inception_4b/relu_3x3_reduce
I0403 15:10:45.498252 11968 net.cpp:91] Creating Layer inception_4b/relu_3x3_reduce
I0403 15:10:45.498270 11968 net.cpp:425] inception_4b/relu_3x3_reduce <- inception_4b/3x3_reduce
I0403 15:10:45.498288 11968 net.cpp:386] inception_4b/relu_3x3_reduce -> inception_4b/3x3_reduce (in-place)
I0403 15:10:45.498584 11968 net.cpp:141] Setting up inception_4b/relu_3x3_reduce
I0403 15:10:45.498611 11968 net.cpp:148] Top shape: 24 112 14 14 (526848)
I0403 15:10:45.498626 11968 net.cpp:156] Memory required for data: 956439840
I0403 15:10:45.498642 11968 layer_factory.hpp:77] Creating layer inception_4b/3x3
I0403 15:10:45.498666 11968 net.cpp:91] Creating Layer inception_4b/3x3
I0403 15:10:45.498683 11968 net.cpp:425] inception_4b/3x3 <- inception_4b/3x3_reduce
I0403 15:10:45.498705 11968 net.cpp:399] inception_4b/3x3 -> inception_4b/3x3
I0403 15:10:45.501709 11968 net.cpp:141] Setting up inception_4b/3x3
I0403 15:10:45.501741 11968 net.cpp:148] Top shape: 24 224 14 14 (1053696)
I0403 15:10:45.501759 11968 net.cpp:156] Memory required for data: 960654624
I0403 15:10:45.501778 11968 layer_factory.hpp:77] Creating layer inception_4b/relu_3x3
I0403 15:10:45.501796 11968 net.cpp:91] Creating Layer inception_4b/relu_3x3
I0403 15:10:45.501813 11968 net.cpp:425] inception_4b/relu_3x3 <- inception_4b/3x3
I0403 15:10:45.501832 11968 net.cpp:386] inception_4b/relu_3x3 -> inception_4b/3x3 (in-place)
I0403 15:10:45.502017 11968 net.cpp:141] Setting up inception_4b/relu_3x3
I0403 15:10:45.502043 11968 net.cpp:148] Top shape: 24 224 14 14 (1053696)
I0403 15:10:45.502058 11968 net.cpp:156] Memory required for data: 964869408
I0403 15:10:45.502071 11968 layer_factory.hpp:77] Creating layer inception_4b/5x5_reduce
I0403 15:10:45.502099 11968 net.cpp:91] Creating Layer inception_4b/5x5_reduce
I0403 15:10:45.502118 11968 net.cpp:425] inception_4b/5x5_reduce <- inception_4a/output_inception_4a/output_0_split_3
I0403 15:10:45.502141 11968 net.cpp:399] inception_4b/5x5_reduce -> inception_4b/5x5_reduce
I0403 15:10:45.503249 11968 net.cpp:141] Setting up inception_4b/5x5_reduce
I0403 15:10:45.503276 11968 net.cpp:148] Top shape: 24 24 14 14 (112896)
I0403 15:10:45.503293 11968 net.cpp:156] Memory required for data: 965320992
I0403 15:10:45.503309 11968 layer_factory.hpp:77] Creating layer inception_4b/relu_5x5_reduce
I0403 15:10:45.503330 11968 net.cpp:91] Creating Layer inception_4b/relu_5x5_reduce
I0403 15:10:45.503360 11968 net.cpp:425] inception_4b/relu_5x5_reduce <- inception_4b/5x5_reduce
I0403 15:10:45.503381 11968 net.cpp:386] inception_4b/relu_5x5_reduce -> inception_4b/5x5_reduce (in-place)
I0403 15:10:45.503561 11968 net.cpp:141] Setting up inception_4b/relu_5x5_reduce
I0403 15:10:45.503585 11968 net.cpp:148] Top shape: 24 24 14 14 (112896)
I0403 15:10:45.503600 11968 net.cpp:156] Memory required for data: 965772576
I0403 15:10:45.503614 11968 layer_factory.hpp:77] Creating layer inception_4b/5x5
I0403 15:10:45.503639 11968 net.cpp:91] Creating Layer inception_4b/5x5
I0403 15:10:45.503657 11968 net.cpp:425] inception_4b/5x5 <- inception_4b/5x5_reduce
I0403 15:10:45.503675 11968 net.cpp:399] inception_4b/5x5 -> inception_4b/5x5
I0403 15:10:45.504871 11968 net.cpp:141] Setting up inception_4b/5x5
I0403 15:10:45.504899 11968 net.cpp:148] Top shape: 24 64 14 14 (301056)
I0403 15:10:45.504914 11968 net.cpp:156] Memory required for data: 966976800
I0403 15:10:45.504932 11968 layer_factory.hpp:77] Creating layer inception_4b/relu_5x5
I0403 15:10:45.504950 11968 net.cpp:91] Creating Layer inception_4b/relu_5x5
I0403 15:10:45.504966 11968 net.cpp:425] inception_4b/relu_5x5 <- inception_4b/5x5
I0403 15:10:45.504986 11968 net.cpp:386] inception_4b/relu_5x5 -> inception_4b/5x5 (in-place)
I0403 15:10:45.505267 11968 net.cpp:141] Setting up inception_4b/relu_5x5
I0403 15:10:45.505295 11968 net.cpp:148] Top shape: 24 64 14 14 (301056)
I0403 15:10:45.505309 11968 net.cpp:156] Memory required for data: 968181024
I0403 15:10:45.505324 11968 layer_factory.hpp:77] Creating layer inception_4b/pool
I0403 15:10:45.505342 11968 net.cpp:91] Creating Layer inception_4b/pool
I0403 15:10:45.505358 11968 net.cpp:425] inception_4b/pool <- inception_4a/output_inception_4a/output_0_split_4
I0403 15:10:45.505379 11968 net.cpp:399] inception_4b/pool -> inception_4b/pool
I0403 15:10:45.505456 11968 net.cpp:141] Setting up inception_4b/pool
I0403 15:10:45.505481 11968 net.cpp:148] Top shape: 24 512 14 14 (2408448)
I0403 15:10:45.505496 11968 net.cpp:156] Memory required for data: 977814816
I0403 15:10:45.505511 11968 layer_factory.hpp:77] Creating layer inception_4b/pool_proj
I0403 15:10:45.505533 11968 net.cpp:91] Creating Layer inception_4b/pool_proj
I0403 15:10:45.505551 11968 net.cpp:425] inception_4b/pool_proj <- inception_4b/pool
I0403 15:10:45.505569 11968 net.cpp:399] inception_4b/pool_proj -> inception_4b/pool_proj
I0403 15:10:45.506763 11968 net.cpp:141] Setting up inception_4b/pool_proj
I0403 15:10:45.506791 11968 net.cpp:148] Top shape: 24 64 14 14 (301056)
I0403 15:10:45.506806 11968 net.cpp:156] Memory required for data: 979019040
I0403 15:10:45.506825 11968 layer_factory.hpp:77] Creating layer inception_4b/relu_pool_proj
I0403 15:10:45.506842 11968 net.cpp:91] Creating Layer inception_4b/relu_pool_proj
I0403 15:10:45.506858 11968 net.cpp:425] inception_4b/relu_pool_proj <- inception_4b/pool_proj
I0403 15:10:45.506876 11968 net.cpp:386] inception_4b/relu_pool_proj -> inception_4b/pool_proj (in-place)
I0403 15:10:45.507055 11968 net.cpp:141] Setting up inception_4b/relu_pool_proj
I0403 15:10:45.507079 11968 net.cpp:148] Top shape: 24 64 14 14 (301056)
I0403 15:10:45.507098 11968 net.cpp:156] Memory required for data: 980223264
I0403 15:10:45.507114 11968 layer_factory.hpp:77] Creating layer inception_4b/output
I0403 15:10:45.507133 11968 net.cpp:91] Creating Layer inception_4b/output
I0403 15:10:45.507150 11968 net.cpp:425] inception_4b/output <- inception_4b/1x1
I0403 15:10:45.507169 11968 net.cpp:425] inception_4b/output <- inception_4b/3x3
I0403 15:10:45.507184 11968 net.cpp:425] inception_4b/output <- inception_4b/5x5
I0403 15:10:45.507201 11968 net.cpp:425] inception_4b/output <- inception_4b/pool_proj
I0403 15:10:45.507217 11968 net.cpp:399] inception_4b/output -> inception_4b/output
I0403 15:10:45.507263 11968 net.cpp:141] Setting up inception_4b/output
I0403 15:10:45.507287 11968 net.cpp:148] Top shape: 24 512 14 14 (2408448)
I0403 15:10:45.507302 11968 net.cpp:156] Memory required for data: 989857056
I0403 15:10:45.507329 11968 layer_factory.hpp:77] Creating layer inception_4b/output_inception_4b/output_0_split
I0403 15:10:45.507347 11968 net.cpp:91] Creating Layer inception_4b/output_inception_4b/output_0_split
I0403 15:10:45.507364 11968 net.cpp:425] inception_4b/output_inception_4b/output_0_split <- inception_4b/output
I0403 15:10:45.507385 11968 net.cpp:399] inception_4b/output_inception_4b/output_0_split -> inception_4b/output_inception_4b/output_0_split_0
I0403 15:10:45.507406 11968 net.cpp:399] inception_4b/output_inception_4b/output_0_split -> inception_4b/output_inception_4b/output_0_split_1
I0403 15:10:45.507426 11968 net.cpp:399] inception_4b/output_inception_4b/output_0_split -> inception_4b/output_inception_4b/output_0_split_2
I0403 15:10:45.507446 11968 net.cpp:399] inception_4b/output_inception_4b/output_0_split -> inception_4b/output_inception_4b/output_0_split_3
I0403 15:10:45.507529 11968 net.cpp:141] Setting up inception_4b/output_inception_4b/output_0_split
I0403 15:10:45.507552 11968 net.cpp:148] Top shape: 24 512 14 14 (2408448)
I0403 15:10:45.507567 11968 net.cpp:148] Top shape: 24 512 14 14 (2408448)
I0403 15:10:45.507582 11968 net.cpp:148] Top shape: 24 512 14 14 (2408448)
I0403 15:10:45.507597 11968 net.cpp:148] Top shape: 24 512 14 14 (2408448)
I0403 15:10:45.507609 11968 net.cpp:156] Memory required for data: 1028392224
I0403 15:10:45.507624 11968 layer_factory.hpp:77] Creating layer inception_4c/1x1
I0403 15:10:45.507647 11968 net.cpp:91] Creating Layer inception_4c/1x1
I0403 15:10:45.507663 11968 net.cpp:425] inception_4c/1x1 <- inception_4b/output_inception_4b/output_0_split_0
I0403 15:10:45.507684 11968 net.cpp:399] inception_4c/1x1 -> inception_4c/1x1
I0403 15:10:45.509083 11968 net.cpp:141] Setting up inception_4c/1x1
I0403 15:10:45.509115 11968 net.cpp:148] Top shape: 24 128 14 14 (602112)
I0403 15:10:45.509135 11968 net.cpp:156] Memory required for data: 1030800672
I0403 15:10:45.509155 11968 layer_factory.hpp:77] Creating layer inception_4c/relu_1x1
I0403 15:10:45.509181 11968 net.cpp:91] Creating Layer inception_4c/relu_1x1
I0403 15:10:45.509197 11968 net.cpp:425] inception_4c/relu_1x1 <- inception_4c/1x1
I0403 15:10:45.509213 11968 net.cpp:386] inception_4c/relu_1x1 -> inception_4c/1x1 (in-place)
I0403 15:10:45.509407 11968 net.cpp:141] Setting up inception_4c/relu_1x1
I0403 15:10:45.509434 11968 net.cpp:148] Top shape: 24 128 14 14 (602112)
I0403 15:10:45.509450 11968 net.cpp:156] Memory required for data: 1033209120
I0403 15:10:45.509466 11968 layer_factory.hpp:77] Creating layer inception_4c/3x3_reduce
I0403 15:10:45.509497 11968 net.cpp:91] Creating Layer inception_4c/3x3_reduce
I0403 15:10:45.509516 11968 net.cpp:425] inception_4c/3x3_reduce <- inception_4b/output_inception_4b/output_0_split_1
I0403 15:10:45.509534 11968 net.cpp:399] inception_4c/3x3_reduce -> inception_4c/3x3_reduce
I0403 15:10:45.511510 11968 net.cpp:141] Setting up inception_4c/3x3_reduce
I0403 15:10:45.511543 11968 net.cpp:148] Top shape: 24 128 14 14 (602112)
I0403 15:10:45.511559 11968 net.cpp:156] Memory required for data: 1035617568
I0403 15:10:45.511579 11968 layer_factory.hpp:77] Creating layer inception_4c/relu_3x3_reduce
I0403 15:10:45.511596 11968 net.cpp:91] Creating Layer inception_4c/relu_3x3_reduce
I0403 15:10:45.511611 11968 net.cpp:425] inception_4c/relu_3x3_reduce <- inception_4c/3x3_reduce
I0403 15:10:45.511631 11968 net.cpp:386] inception_4c/relu_3x3_reduce -> inception_4c/3x3_reduce (in-place)
I0403 15:10:45.511914 11968 net.cpp:141] Setting up inception_4c/relu_3x3_reduce
I0403 15:10:45.511941 11968 net.cpp:148] Top shape: 24 128 14 14 (602112)
I0403 15:10:45.511956 11968 net.cpp:156] Memory required for data: 1038026016
I0403 15:10:45.511970 11968 layer_factory.hpp:77] Creating layer inception_4c/3x3
I0403 15:10:45.511994 11968 net.cpp:91] Creating Layer inception_4c/3x3
I0403 15:10:45.512012 11968 net.cpp:425] inception_4c/3x3 <- inception_4c/3x3_reduce
I0403 15:10:45.512032 11968 net.cpp:399] inception_4c/3x3 -> inception_4c/3x3
I0403 15:10:45.515568 11968 net.cpp:141] Setting up inception_4c/3x3
I0403 15:10:45.515609 11968 net.cpp:148] Top shape: 24 256 14 14 (1204224)
I0403 15:10:45.515625 11968 net.cpp:156] Memory required for data: 1042842912
I0403 15:10:45.515658 11968 layer_factory.hpp:77] Creating layer inception_4c/relu_3x3
I0403 15:10:45.515687 11968 net.cpp:91] Creating Layer inception_4c/relu_3x3
I0403 15:10:45.515714 11968 net.cpp:425] inception_4c/relu_3x3 <- inception_4c/3x3
I0403 15:10:45.515733 11968 net.cpp:386] inception_4c/relu_3x3 -> inception_4c/3x3 (in-place)
I0403 15:10:45.515915 11968 net.cpp:141] Setting up inception_4c/relu_3x3
I0403 15:10:45.515941 11968 net.cpp:148] Top shape: 24 256 14 14 (1204224)
I0403 15:10:45.515955 11968 net.cpp:156] Memory required for data: 1047659808
I0403 15:10:45.515980 11968 layer_factory.hpp:77] Creating layer inception_4c/5x5_reduce
I0403 15:10:45.516001 11968 net.cpp:91] Creating Layer inception_4c/5x5_reduce
I0403 15:10:45.516019 11968 net.cpp:425] inception_4c/5x5_reduce <- inception_4b/output_inception_4b/output_0_split_2
I0403 15:10:45.516041 11968 net.cpp:399] inception_4c/5x5_reduce -> inception_4c/5x5_reduce
I0403 15:10:45.517119 11968 net.cpp:141] Setting up inception_4c/5x5_reduce
I0403 15:10:45.517146 11968 net.cpp:148] Top shape: 24 24 14 14 (112896)
I0403 15:10:45.517163 11968 net.cpp:156] Memory required for data: 1048111392
I0403 15:10:45.517181 11968 layer_factory.hpp:77] Creating layer inception_4c/relu_5x5_reduce
I0403 15:10:45.517201 11968 net.cpp:91] Creating Layer inception_4c/relu_5x5_reduce
I0403 15:10:45.517218 11968 net.cpp:425] inception_4c/relu_5x5_reduce <- inception_4c/5x5_reduce
I0403 15:10:45.517235 11968 net.cpp:386] inception_4c/relu_5x5_reduce -> inception_4c/5x5_reduce (in-place)
I0403 15:10:45.517431 11968 net.cpp:141] Setting up inception_4c/relu_5x5_reduce
I0403 15:10:45.517457 11968 net.cpp:148] Top shape: 24 24 14 14 (112896)
I0403 15:10:45.517472 11968 net.cpp:156] Memory required for data: 1048562976
I0403 15:10:45.517487 11968 layer_factory.hpp:77] Creating layer inception_4c/5x5
I0403 15:10:45.517508 11968 net.cpp:91] Creating Layer inception_4c/5x5
I0403 15:10:45.517527 11968 net.cpp:425] inception_4c/5x5 <- inception_4c/5x5_reduce
I0403 15:10:45.517549 11968 net.cpp:399] inception_4c/5x5 -> inception_4c/5x5
I0403 15:10:45.518786 11968 net.cpp:141] Setting up inception_4c/5x5
I0403 15:10:45.518813 11968 net.cpp:148] Top shape: 24 64 14 14 (301056)
I0403 15:10:45.518829 11968 net.cpp:156] Memory required for data: 1049767200
I0403 15:10:45.518846 11968 layer_factory.hpp:77] Creating layer inception_4c/relu_5x5
I0403 15:10:45.518867 11968 net.cpp:91] Creating Layer inception_4c/relu_5x5
I0403 15:10:45.518884 11968 net.cpp:425] inception_4c/relu_5x5 <- inception_4c/5x5
I0403 15:10:45.518903 11968 net.cpp:386] inception_4c/relu_5x5 -> inception_4c/5x5 (in-place)
I0403 15:10:45.519193 11968 net.cpp:141] Setting up inception_4c/relu_5x5
I0403 15:10:45.519219 11968 net.cpp:148] Top shape: 24 64 14 14 (301056)
I0403 15:10:45.519234 11968 net.cpp:156] Memory required for data: 1050971424
I0403 15:10:45.519248 11968 layer_factory.hpp:77] Creating layer inception_4c/pool
I0403 15:10:45.519268 11968 net.cpp:91] Creating Layer inception_4c/pool
I0403 15:10:45.519284 11968 net.cpp:425] inception_4c/pool <- inception_4b/output_inception_4b/output_0_split_3
I0403 15:10:45.519304 11968 net.cpp:399] inception_4c/pool -> inception_4c/pool
I0403 15:10:45.519368 11968 net.cpp:141] Setting up inception_4c/pool
I0403 15:10:45.519392 11968 net.cpp:148] Top shape: 24 512 14 14 (2408448)
I0403 15:10:45.519405 11968 net.cpp:156] Memory required for data: 1060605216
I0403 15:10:45.519420 11968 layer_factory.hpp:77] Creating layer inception_4c/pool_proj
I0403 15:10:45.519441 11968 net.cpp:91] Creating Layer inception_4c/pool_proj
I0403 15:10:45.519459 11968 net.cpp:425] inception_4c/pool_proj <- inception_4c/pool
I0403 15:10:45.519479 11968 net.cpp:399] inception_4c/pool_proj -> inception_4c/pool_proj
I0403 15:10:45.520684 11968 net.cpp:141] Setting up inception_4c/pool_proj
I0403 15:10:45.520711 11968 net.cpp:148] Top shape: 24 64 14 14 (301056)
I0403 15:10:45.520740 11968 net.cpp:156] Memory required for data: 1061809440
I0403 15:10:45.520759 11968 layer_factory.hpp:77] Creating layer inception_4c/relu_pool_proj
I0403 15:10:45.520778 11968 net.cpp:91] Creating Layer inception_4c/relu_pool_proj
I0403 15:10:45.520794 11968 net.cpp:425] inception_4c/relu_pool_proj <- inception_4c/pool_proj
I0403 15:10:45.520815 11968 net.cpp:386] inception_4c/relu_pool_proj -> inception_4c/pool_proj (in-place)
I0403 15:10:45.520998 11968 net.cpp:141] Setting up inception_4c/relu_pool_proj
I0403 15:10:45.521023 11968 net.cpp:148] Top shape: 24 64 14 14 (301056)
I0403 15:10:45.521037 11968 net.cpp:156] Memory required for data: 1063013664
I0403 15:10:45.521051 11968 layer_factory.hpp:77] Creating layer inception_4c/output
I0403 15:10:45.521070 11968 net.cpp:91] Creating Layer inception_4c/output
I0403 15:10:45.521086 11968 net.cpp:425] inception_4c/output <- inception_4c/1x1
I0403 15:10:45.521108 11968 net.cpp:425] inception_4c/output <- inception_4c/3x3
I0403 15:10:45.521126 11968 net.cpp:425] inception_4c/output <- inception_4c/5x5
I0403 15:10:45.521141 11968 net.cpp:425] inception_4c/output <- inception_4c/pool_proj
I0403 15:10:45.521157 11968 net.cpp:399] inception_4c/output -> inception_4c/output
I0403 15:10:45.521205 11968 net.cpp:141] Setting up inception_4c/output
I0403 15:10:45.521227 11968 net.cpp:148] Top shape: 24 512 14 14 (2408448)
I0403 15:10:45.521240 11968 net.cpp:156] Memory required for data: 1072647456
I0403 15:10:45.521255 11968 layer_factory.hpp:77] Creating layer inception_4c/output_inception_4c/output_0_split
I0403 15:10:45.521271 11968 net.cpp:91] Creating Layer inception_4c/output_inception_4c/output_0_split
I0403 15:10:45.521286 11968 net.cpp:425] inception_4c/output_inception_4c/output_0_split <- inception_4c/output
I0403 15:10:45.521307 11968 net.cpp:399] inception_4c/output_inception_4c/output_0_split -> inception_4c/output_inception_4c/output_0_split_0
I0403 15:10:45.521328 11968 net.cpp:399] inception_4c/output_inception_4c/output_0_split -> inception_4c/output_inception_4c/output_0_split_1
I0403 15:10:45.521348 11968 net.cpp:399] inception_4c/output_inception_4c/output_0_split -> inception_4c/output_inception_4c/output_0_split_2
I0403 15:10:45.521368 11968 net.cpp:399] inception_4c/output_inception_4c/output_0_split -> inception_4c/output_inception_4c/output_0_split_3
I0403 15:10:45.521464 11968 net.cpp:141] Setting up inception_4c/output_inception_4c/output_0_split
I0403 15:10:45.521489 11968 net.cpp:148] Top shape: 24 512 14 14 (2408448)
I0403 15:10:45.521507 11968 net.cpp:148] Top shape: 24 512 14 14 (2408448)
I0403 15:10:45.521522 11968 net.cpp:148] Top shape: 24 512 14 14 (2408448)
I0403 15:10:45.521538 11968 net.cpp:148] Top shape: 24 512 14 14 (2408448)
I0403 15:10:45.521551 11968 net.cpp:156] Memory required for data: 1111182624
I0403 15:10:45.521566 11968 layer_factory.hpp:77] Creating layer inception_4d/1x1
I0403 15:10:45.521589 11968 net.cpp:91] Creating Layer inception_4d/1x1
I0403 15:10:45.521608 11968 net.cpp:425] inception_4d/1x1 <- inception_4c/output_inception_4c/output_0_split_0
I0403 15:10:45.521631 11968 net.cpp:399] inception_4d/1x1 -> inception_4d/1x1
I0403 15:10:45.523001 11968 net.cpp:141] Setting up inception_4d/1x1
I0403 15:10:45.523031 11968 net.cpp:148] Top shape: 24 112 14 14 (526848)
I0403 15:10:45.523048 11968 net.cpp:156] Memory required for data: 1113290016
I0403 15:10:45.523066 11968 layer_factory.hpp:77] Creating layer inception_4d/relu_1x1
I0403 15:10:45.523084 11968 net.cpp:91] Creating Layer inception_4d/relu_1x1
I0403 15:10:45.523111 11968 net.cpp:425] inception_4d/relu_1x1 <- inception_4d/1x1
I0403 15:10:45.523133 11968 net.cpp:386] inception_4d/relu_1x1 -> inception_4d/1x1 (in-place)
I0403 15:10:45.523319 11968 net.cpp:141] Setting up inception_4d/relu_1x1
I0403 15:10:45.523342 11968 net.cpp:148] Top shape: 24 112 14 14 (526848)
I0403 15:10:45.523357 11968 net.cpp:156] Memory required for data: 1115397408
I0403 15:10:45.523371 11968 layer_factory.hpp:77] Creating layer inception_4d/3x3_reduce
I0403 15:10:45.523407 11968 net.cpp:91] Creating Layer inception_4d/3x3_reduce
I0403 15:10:45.523427 11968 net.cpp:425] inception_4d/3x3_reduce <- inception_4c/output_inception_4c/output_0_split_1
I0403 15:10:45.523447 11968 net.cpp:399] inception_4d/3x3_reduce -> inception_4d/3x3_reduce
I0403 15:10:45.524932 11968 net.cpp:141] Setting up inception_4d/3x3_reduce
I0403 15:10:45.524960 11968 net.cpp:148] Top shape: 24 144 14 14 (677376)
I0403 15:10:45.524976 11968 net.cpp:156] Memory required for data: 1118106912
I0403 15:10:45.524993 11968 layer_factory.hpp:77] Creating layer inception_4d/relu_3x3_reduce
I0403 15:10:45.525013 11968 net.cpp:91] Creating Layer inception_4d/relu_3x3_reduce
I0403 15:10:45.525030 11968 net.cpp:425] inception_4d/relu_3x3_reduce <- inception_4d/3x3_reduce
I0403 15:10:45.525048 11968 net.cpp:386] inception_4d/relu_3x3_reduce -> inception_4d/3x3_reduce (in-place)
I0403 15:10:45.525333 11968 net.cpp:141] Setting up inception_4d/relu_3x3_reduce
I0403 15:10:45.525359 11968 net.cpp:148] Top shape: 24 144 14 14 (677376)
I0403 15:10:45.525374 11968 net.cpp:156] Memory required for data: 1120816416
I0403 15:10:45.525403 11968 layer_factory.hpp:77] Creating layer inception_4d/3x3
I0403 15:10:45.525426 11968 net.cpp:91] Creating Layer inception_4d/3x3
I0403 15:10:45.525444 11968 net.cpp:425] inception_4d/3x3 <- inception_4d/3x3_reduce
I0403 15:10:45.525463 11968 net.cpp:399] inception_4d/3x3 -> inception_4d/3x3
I0403 15:10:45.529661 11968 net.cpp:141] Setting up inception_4d/3x3
I0403 15:10:45.529705 11968 net.cpp:148] Top shape: 24 288 14 14 (1354752)
I0403 15:10:45.529721 11968 net.cpp:156] Memory required for data: 1126235424
I0403 15:10:45.529739 11968 layer_factory.hpp:77] Creating layer inception_4d/relu_3x3
I0403 15:10:45.529757 11968 net.cpp:91] Creating Layer inception_4d/relu_3x3
I0403 15:10:45.529773 11968 net.cpp:425] inception_4d/relu_3x3 <- inception_4d/3x3
I0403 15:10:45.529793 11968 net.cpp:386] inception_4d/relu_3x3 -> inception_4d/3x3 (in-place)
I0403 15:10:45.529974 11968 net.cpp:141] Setting up inception_4d/relu_3x3
I0403 15:10:45.529999 11968 net.cpp:148] Top shape: 24 288 14 14 (1354752)
I0403 15:10:45.530014 11968 net.cpp:156] Memory required for data: 1131654432
I0403 15:10:45.530028 11968 layer_factory.hpp:77] Creating layer inception_4d/5x5_reduce
I0403 15:10:45.530052 11968 net.cpp:91] Creating Layer inception_4d/5x5_reduce
I0403 15:10:45.530071 11968 net.cpp:425] inception_4d/5x5_reduce <- inception_4c/output_inception_4c/output_0_split_2
I0403 15:10:45.530092 11968 net.cpp:399] inception_4d/5x5_reduce -> inception_4d/5x5_reduce
I0403 15:10:45.531225 11968 net.cpp:141] Setting up inception_4d/5x5_reduce
I0403 15:10:45.531255 11968 net.cpp:148] Top shape: 24 32 14 14 (150528)
I0403 15:10:45.531273 11968 net.cpp:156] Memory required for data: 1132256544
I0403 15:10:45.531291 11968 layer_factory.hpp:77] Creating layer inception_4d/relu_5x5_reduce
I0403 15:10:45.531308 11968 net.cpp:91] Creating Layer inception_4d/relu_5x5_reduce
I0403 15:10:45.531323 11968 net.cpp:425] inception_4d/relu_5x5_reduce <- inception_4d/5x5_reduce
I0403 15:10:45.531342 11968 net.cpp:386] inception_4d/relu_5x5_reduce -> inception_4d/5x5_reduce (in-place)
I0403 15:10:45.531532 11968 net.cpp:141] Setting up inception_4d/relu_5x5_reduce
I0403 15:10:45.531556 11968 net.cpp:148] Top shape: 24 32 14 14 (150528)
I0403 15:10:45.531570 11968 net.cpp:156] Memory required for data: 1132858656
I0403 15:10:45.531586 11968 layer_factory.hpp:77] Creating layer inception_4d/5x5
I0403 15:10:45.531607 11968 net.cpp:91] Creating Layer inception_4d/5x5
I0403 15:10:45.531625 11968 net.cpp:425] inception_4d/5x5 <- inception_4d/5x5_reduce
I0403 15:10:45.531644 11968 net.cpp:399] inception_4d/5x5 -> inception_4d/5x5
I0403 15:10:45.533083 11968 net.cpp:141] Setting up inception_4d/5x5
I0403 15:10:45.533120 11968 net.cpp:148] Top shape: 24 64 14 14 (301056)
I0403 15:10:45.533138 11968 net.cpp:156] Memory required for data: 1134062880
I0403 15:10:45.533156 11968 layer_factory.hpp:77] Creating layer inception_4d/relu_5x5
I0403 15:10:45.533190 11968 net.cpp:91] Creating Layer inception_4d/relu_5x5
I0403 15:10:45.533208 11968 net.cpp:425] inception_4d/relu_5x5 <- inception_4d/5x5
I0403 15:10:45.533226 11968 net.cpp:386] inception_4d/relu_5x5 -> inception_4d/5x5 (in-place)
I0403 15:10:45.533536 11968 net.cpp:141] Setting up inception_4d/relu_5x5
I0403 15:10:45.533563 11968 net.cpp:148] Top shape: 24 64 14 14 (301056)
I0403 15:10:45.533578 11968 net.cpp:156] Memory required for data: 1135267104
I0403 15:10:45.533593 11968 layer_factory.hpp:77] Creating layer inception_4d/pool
I0403 15:10:45.533613 11968 net.cpp:91] Creating Layer inception_4d/pool
I0403 15:10:45.533630 11968 net.cpp:425] inception_4d/pool <- inception_4c/output_inception_4c/output_0_split_3
I0403 15:10:45.533649 11968 net.cpp:399] inception_4d/pool -> inception_4d/pool
I0403 15:10:45.533728 11968 net.cpp:141] Setting up inception_4d/pool
I0403 15:10:45.533752 11968 net.cpp:148] Top shape: 24 512 14 14 (2408448)
I0403 15:10:45.533766 11968 net.cpp:156] Memory required for data: 1144900896
I0403 15:10:45.533782 11968 layer_factory.hpp:77] Creating layer inception_4d/pool_proj
I0403 15:10:45.533802 11968 net.cpp:91] Creating Layer inception_4d/pool_proj
I0403 15:10:45.533821 11968 net.cpp:425] inception_4d/pool_proj <- inception_4d/pool
I0403 15:10:45.533841 11968 net.cpp:399] inception_4d/pool_proj -> inception_4d/pool_proj
I0403 15:10:45.535570 11968 net.cpp:141] Setting up inception_4d/pool_proj
I0403 15:10:45.535601 11968 net.cpp:148] Top shape: 24 64 14 14 (301056)
I0403 15:10:45.535619 11968 net.cpp:156] Memory required for data: 1146105120
I0403 15:10:45.535636 11968 layer_factory.hpp:77] Creating layer inception_4d/relu_pool_proj
I0403 15:10:45.535655 11968 net.cpp:91] Creating Layer inception_4d/relu_pool_proj
I0403 15:10:45.535670 11968 net.cpp:425] inception_4d/relu_pool_proj <- inception_4d/pool_proj
I0403 15:10:45.535691 11968 net.cpp:386] inception_4d/relu_pool_proj -> inception_4d/pool_proj (in-place)
I0403 15:10:45.535876 11968 net.cpp:141] Setting up inception_4d/relu_pool_proj
I0403 15:10:45.535899 11968 net.cpp:148] Top shape: 24 64 14 14 (301056)
I0403 15:10:45.535914 11968 net.cpp:156] Memory required for data: 1147309344
I0403 15:10:45.535928 11968 layer_factory.hpp:77] Creating layer inception_4d/output
I0403 15:10:45.535944 11968 net.cpp:91] Creating Layer inception_4d/output
I0403 15:10:45.535959 11968 net.cpp:425] inception_4d/output <- inception_4d/1x1
I0403 15:10:45.535975 11968 net.cpp:425] inception_4d/output <- inception_4d/3x3
I0403 15:10:45.535991 11968 net.cpp:425] inception_4d/output <- inception_4d/5x5
I0403 15:10:45.536006 11968 net.cpp:425] inception_4d/output <- inception_4d/pool_proj
I0403 15:10:45.536025 11968 net.cpp:399] inception_4d/output -> inception_4d/output
I0403 15:10:45.536072 11968 net.cpp:141] Setting up inception_4d/output
I0403 15:10:45.536100 11968 net.cpp:148] Top shape: 24 528 14 14 (2483712)
I0403 15:10:45.536116 11968 net.cpp:156] Memory required for data: 1157244192
I0403 15:10:45.536130 11968 layer_factory.hpp:77] Creating layer inception_4d/output_inception_4d/output_0_split
I0403 15:10:45.536149 11968 net.cpp:91] Creating Layer inception_4d/output_inception_4d/output_0_split
I0403 15:10:45.536165 11968 net.cpp:425] inception_4d/output_inception_4d/output_0_split <- inception_4d/output
I0403 15:10:45.536185 11968 net.cpp:399] inception_4d/output_inception_4d/output_0_split -> inception_4d/output_inception_4d/output_0_split_0
I0403 15:10:45.536207 11968 net.cpp:399] inception_4d/output_inception_4d/output_0_split -> inception_4d/output_inception_4d/output_0_split_1
I0403 15:10:45.536227 11968 net.cpp:399] inception_4d/output_inception_4d/output_0_split -> inception_4d/output_inception_4d/output_0_split_2
I0403 15:10:45.536248 11968 net.cpp:399] inception_4d/output_inception_4d/output_0_split -> inception_4d/output_inception_4d/output_0_split_3
I0403 15:10:45.536267 11968 net.cpp:399] inception_4d/output_inception_4d/output_0_split -> inception_4d/output_inception_4d/output_0_split_4
I0403 15:10:45.536368 11968 net.cpp:141] Setting up inception_4d/output_inception_4d/output_0_split
I0403 15:10:45.536406 11968 net.cpp:148] Top shape: 24 528 14 14 (2483712)
I0403 15:10:45.536423 11968 net.cpp:148] Top shape: 24 528 14 14 (2483712)
I0403 15:10:45.536438 11968 net.cpp:148] Top shape: 24 528 14 14 (2483712)
I0403 15:10:45.536453 11968 net.cpp:148] Top shape: 24 528 14 14 (2483712)
I0403 15:10:45.536468 11968 net.cpp:148] Top shape: 24 528 14 14 (2483712)
I0403 15:10:45.536481 11968 net.cpp:156] Memory required for data: 1206918432
I0403 15:10:45.536495 11968 layer_factory.hpp:77] Creating layer loss2/ave_pool
I0403 15:10:45.536511 11968 net.cpp:91] Creating Layer loss2/ave_pool
I0403 15:10:45.536527 11968 net.cpp:425] loss2/ave_pool <- inception_4d/output_inception_4d/output_0_split_0
I0403 15:10:45.536545 11968 net.cpp:399] loss2/ave_pool -> loss2/ave_pool
I0403 15:10:45.536855 11968 net.cpp:141] Setting up loss2/ave_pool
I0403 15:10:45.536885 11968 net.cpp:148] Top shape: 24 528 4 4 (202752)
I0403 15:10:45.536900 11968 net.cpp:156] Memory required for data: 1207729440
I0403 15:10:45.536916 11968 layer_factory.hpp:77] Creating layer loss2/conv
I0403 15:10:45.536936 11968 net.cpp:91] Creating Layer loss2/conv
I0403 15:10:45.536953 11968 net.cpp:425] loss2/conv <- loss2/ave_pool
I0403 15:10:45.536972 11968 net.cpp:399] loss2/conv -> loss2/conv
I0403 15:10:45.538882 11968 net.cpp:141] Setting up loss2/conv
I0403 15:10:45.538911 11968 net.cpp:148] Top shape: 24 128 4 4 (49152)
I0403 15:10:45.538928 11968 net.cpp:156] Memory required for data: 1207926048
I0403 15:10:45.538945 11968 layer_factory.hpp:77] Creating layer loss2/relu_conv
I0403 15:10:45.538965 11968 net.cpp:91] Creating Layer loss2/relu_conv
I0403 15:10:45.538982 11968 net.cpp:425] loss2/relu_conv <- loss2/conv
I0403 15:10:45.539000 11968 net.cpp:386] loss2/relu_conv -> loss2/conv (in-place)
I0403 15:10:45.539284 11968 net.cpp:141] Setting up loss2/relu_conv
I0403 15:10:45.539310 11968 net.cpp:148] Top shape: 24 128 4 4 (49152)
I0403 15:10:45.539325 11968 net.cpp:156] Memory required for data: 1208122656
I0403 15:10:45.539340 11968 layer_factory.hpp:77] Creating layer loss2/fc
I0403 15:10:45.539361 11968 net.cpp:91] Creating Layer loss2/fc
I0403 15:10:45.539376 11968 net.cpp:425] loss2/fc <- loss2/conv
I0403 15:10:45.539396 11968 net.cpp:399] loss2/fc -> loss2/fc
I0403 15:10:45.556694 11968 net.cpp:141] Setting up loss2/fc
I0403 15:10:45.556727 11968 net.cpp:148] Top shape: 24 1024 (24576)
I0403 15:10:45.556741 11968 net.cpp:156] Memory required for data: 1208220960
I0403 15:10:45.556759 11968 layer_factory.hpp:77] Creating layer loss2/relu_fc
I0403 15:10:45.556777 11968 net.cpp:91] Creating Layer loss2/relu_fc
I0403 15:10:45.556793 11968 net.cpp:425] loss2/relu_fc <- loss2/fc
I0403 15:10:45.556813 11968 net.cpp:386] loss2/relu_fc -> loss2/fc (in-place)
I0403 15:10:45.557118 11968 net.cpp:141] Setting up loss2/relu_fc
I0403 15:10:45.557143 11968 net.cpp:148] Top shape: 24 1024 (24576)
I0403 15:10:45.557158 11968 net.cpp:156] Memory required for data: 1208319264
I0403 15:10:45.557173 11968 layer_factory.hpp:77] Creating layer loss2/drop_fc
I0403 15:10:45.557190 11968 net.cpp:91] Creating Layer loss2/drop_fc
I0403 15:10:45.557206 11968 net.cpp:425] loss2/drop_fc <- loss2/fc
I0403 15:10:45.557225 11968 net.cpp:386] loss2/drop_fc -> loss2/fc (in-place)
I0403 15:10:45.557274 11968 net.cpp:141] Setting up loss2/drop_fc
I0403 15:10:45.557301 11968 net.cpp:148] Top shape: 24 1024 (24576)
I0403 15:10:45.557315 11968 net.cpp:156] Memory required for data: 1208417568
I0403 15:10:45.557330 11968 layer_factory.hpp:77] Creating layer loss2/classifier_plantvillage
I0403 15:10:45.557348 11968 net.cpp:91] Creating Layer loss2/classifier_plantvillage
I0403 15:10:45.557363 11968 net.cpp:425] loss2/classifier_plantvillage <- loss2/fc
I0403 15:10:45.557395 11968 net.cpp:399] loss2/classifier_plantvillage -> loss2/classifier_plantvillage
I0403 15:10:45.557806 11968 net.cpp:141] Setting up loss2/classifier_plantvillage
I0403 15:10:45.557832 11968 net.cpp:148] Top shape: 24 38 (912)
I0403 15:10:45.557862 11968 net.cpp:156] Memory required for data: 1208421216
I0403 15:10:45.557880 11968 layer_factory.hpp:77] Creating layer loss2/classifier_plantvillage_loss2/classifier_plantvillage_0_split
I0403 15:10:45.557901 11968 net.cpp:91] Creating Layer loss2/classifier_plantvillage_loss2/classifier_plantvillage_0_split
I0403 15:10:45.557919 11968 net.cpp:425] loss2/classifier_plantvillage_loss2/classifier_plantvillage_0_split <- loss2/classifier_plantvillage
I0403 15:10:45.557937 11968 net.cpp:399] loss2/classifier_plantvillage_loss2/classifier_plantvillage_0_split -> loss2/classifier_plantvillage_loss2/classifier_plantvillage_0_split_0
I0403 15:10:45.557956 11968 net.cpp:399] loss2/classifier_plantvillage_loss2/classifier_plantvillage_0_split -> loss2/classifier_plantvillage_loss2/classifier_plantvillage_0_split_1
I0403 15:10:45.557976 11968 net.cpp:399] loss2/classifier_plantvillage_loss2/classifier_plantvillage_0_split -> loss2/classifier_plantvillage_loss2/classifier_plantvillage_0_split_2
I0403 15:10:45.558053 11968 net.cpp:141] Setting up loss2/classifier_plantvillage_loss2/classifier_plantvillage_0_split
I0403 15:10:45.558076 11968 net.cpp:148] Top shape: 24 38 (912)
I0403 15:10:45.558092 11968 net.cpp:148] Top shape: 24 38 (912)
I0403 15:10:45.558111 11968 net.cpp:148] Top shape: 24 38 (912)
I0403 15:10:45.558125 11968 net.cpp:156] Memory required for data: 1208432160
I0403 15:10:45.558138 11968 layer_factory.hpp:77] Creating layer inception_4e/1x1
I0403 15:10:45.558159 11968 net.cpp:91] Creating Layer inception_4e/1x1
I0403 15:10:45.558176 11968 net.cpp:425] inception_4e/1x1 <- inception_4d/output_inception_4d/output_0_split_1
I0403 15:10:45.558195 11968 net.cpp:399] inception_4e/1x1 -> inception_4e/1x1
I0403 15:10:45.559983 11968 net.cpp:141] Setting up inception_4e/1x1
I0403 15:10:45.560010 11968 net.cpp:148] Top shape: 24 256 14 14 (1204224)
I0403 15:10:45.560025 11968 net.cpp:156] Memory required for data: 1213249056
I0403 15:10:45.560044 11968 layer_factory.hpp:77] Creating layer inception_4e/relu_1x1
I0403 15:10:45.560063 11968 net.cpp:91] Creating Layer inception_4e/relu_1x1
I0403 15:10:45.560081 11968 net.cpp:425] inception_4e/relu_1x1 <- inception_4e/1x1
I0403 15:10:45.560117 11968 net.cpp:386] inception_4e/relu_1x1 -> inception_4e/1x1 (in-place)
I0403 15:10:45.560439 11968 net.cpp:141] Setting up inception_4e/relu_1x1
I0403 15:10:45.560466 11968 net.cpp:148] Top shape: 24 256 14 14 (1204224)
I0403 15:10:45.560480 11968 net.cpp:156] Memory required for data: 1218065952
I0403 15:10:45.560494 11968 layer_factory.hpp:77] Creating layer inception_4e/3x3_reduce
I0403 15:10:45.560516 11968 net.cpp:91] Creating Layer inception_4e/3x3_reduce
I0403 15:10:45.560534 11968 net.cpp:425] inception_4e/3x3_reduce <- inception_4d/output_inception_4d/output_0_split_2
I0403 15:10:45.560554 11968 net.cpp:399] inception_4e/3x3_reduce -> inception_4e/3x3_reduce
I0403 15:10:45.562656 11968 net.cpp:141] Setting up inception_4e/3x3_reduce
I0403 15:10:45.562686 11968 net.cpp:148] Top shape: 24 160 14 14 (752640)
I0403 15:10:45.562702 11968 net.cpp:156] Memory required for data: 1221076512
I0403 15:10:45.562719 11968 layer_factory.hpp:77] Creating layer inception_4e/relu_3x3_reduce
I0403 15:10:45.562739 11968 net.cpp:91] Creating Layer inception_4e/relu_3x3_reduce
I0403 15:10:45.562757 11968 net.cpp:425] inception_4e/relu_3x3_reduce <- inception_4e/3x3_reduce
I0403 15:10:45.562774 11968 net.cpp:386] inception_4e/relu_3x3_reduce -> inception_4e/3x3_reduce (in-place)
I0403 15:10:45.562959 11968 net.cpp:141] Setting up inception_4e/relu_3x3_reduce
I0403 15:10:45.562985 11968 net.cpp:148] Top shape: 24 160 14 14 (752640)
I0403 15:10:45.563001 11968 net.cpp:156] Memory required for data: 1224087072
I0403 15:10:45.563016 11968 layer_factory.hpp:77] Creating layer inception_4e/3x3
I0403 15:10:45.563036 11968 net.cpp:91] Creating Layer inception_4e/3x3
I0403 15:10:45.563052 11968 net.cpp:425] inception_4e/3x3 <- inception_4e/3x3_reduce
I0403 15:10:45.563073 11968 net.cpp:399] inception_4e/3x3 -> inception_4e/3x3
I0403 15:10:45.568050 11968 net.cpp:141] Setting up inception_4e/3x3
I0403 15:10:45.568097 11968 net.cpp:148] Top shape: 24 320 14 14 (1505280)
I0403 15:10:45.568116 11968 net.cpp:156] Memory required for data: 1230108192
I0403 15:10:45.568135 11968 layer_factory.hpp:77] Creating layer inception_4e/relu_3x3
I0403 15:10:45.568152 11968 net.cpp:91] Creating Layer inception_4e/relu_3x3
I0403 15:10:45.568169 11968 net.cpp:425] inception_4e/relu_3x3 <- inception_4e/3x3
I0403 15:10:45.568186 11968 net.cpp:386] inception_4e/relu_3x3 -> inception_4e/3x3 (in-place)
I0403 15:10:45.568481 11968 net.cpp:141] Setting up inception_4e/relu_3x3
I0403 15:10:45.568509 11968 net.cpp:148] Top shape: 24 320 14 14 (1505280)
I0403 15:10:45.568526 11968 net.cpp:156] Memory required for data: 1236129312
I0403 15:10:45.568539 11968 layer_factory.hpp:77] Creating layer inception_4e/5x5_reduce
I0403 15:10:45.568562 11968 net.cpp:91] Creating Layer inception_4e/5x5_reduce
I0403 15:10:45.568579 11968 net.cpp:425] inception_4e/5x5_reduce <- inception_4d/output_inception_4d/output_0_split_3
I0403 15:10:45.568599 11968 net.cpp:399] inception_4e/5x5_reduce -> inception_4e/5x5_reduce
I0403 15:10:45.569689 11968 net.cpp:141] Setting up inception_4e/5x5_reduce
I0403 15:10:45.569716 11968 net.cpp:148] Top shape: 24 32 14 14 (150528)
I0403 15:10:45.569732 11968 net.cpp:156] Memory required for data: 1236731424
I0403 15:10:45.569751 11968 layer_factory.hpp:77] Creating layer inception_4e/relu_5x5_reduce
I0403 15:10:45.569772 11968 net.cpp:91] Creating Layer inception_4e/relu_5x5_reduce
I0403 15:10:45.569789 11968 net.cpp:425] inception_4e/relu_5x5_reduce <- inception_4e/5x5_reduce
I0403 15:10:45.569807 11968 net.cpp:386] inception_4e/relu_5x5_reduce -> inception_4e/5x5_reduce (in-place)
I0403 15:10:45.570106 11968 net.cpp:141] Setting up inception_4e/relu_5x5_reduce
I0403 15:10:45.570132 11968 net.cpp:148] Top shape: 24 32 14 14 (150528)
I0403 15:10:45.570147 11968 net.cpp:156] Memory required for data: 1237333536
I0403 15:10:45.570163 11968 layer_factory.hpp:77] Creating layer inception_4e/5x5
I0403 15:10:45.570200 11968 net.cpp:91] Creating Layer inception_4e/5x5
I0403 15:10:45.570219 11968 net.cpp:425] inception_4e/5x5 <- inception_4e/5x5_reduce
I0403 15:10:45.570238 11968 net.cpp:399] inception_4e/5x5 -> inception_4e/5x5
I0403 15:10:45.572060 11968 net.cpp:141] Setting up inception_4e/5x5
I0403 15:10:45.572088 11968 net.cpp:148] Top shape: 24 128 14 14 (602112)
I0403 15:10:45.572108 11968 net.cpp:156] Memory required for data: 1239741984
I0403 15:10:45.572127 11968 layer_factory.hpp:77] Creating layer inception_4e/relu_5x5
I0403 15:10:45.572145 11968 net.cpp:91] Creating Layer inception_4e/relu_5x5
I0403 15:10:45.572161 11968 net.cpp:425] inception_4e/relu_5x5 <- inception_4e/5x5
I0403 15:10:45.572180 11968 net.cpp:386] inception_4e/relu_5x5 -> inception_4e/5x5 (in-place)
I0403 15:10:45.572376 11968 net.cpp:141] Setting up inception_4e/relu_5x5
I0403 15:10:45.572402 11968 net.cpp:148] Top shape: 24 128 14 14 (602112)
I0403 15:10:45.572415 11968 net.cpp:156] Memory required for data: 1242150432
I0403 15:10:45.572430 11968 layer_factory.hpp:77] Creating layer inception_4e/pool
I0403 15:10:45.572449 11968 net.cpp:91] Creating Layer inception_4e/pool
I0403 15:10:45.572466 11968 net.cpp:425] inception_4e/pool <- inception_4d/output_inception_4d/output_0_split_4
I0403 15:10:45.572484 11968 net.cpp:399] inception_4e/pool -> inception_4e/pool
I0403 15:10:45.572554 11968 net.cpp:141] Setting up inception_4e/pool
I0403 15:10:45.572578 11968 net.cpp:148] Top shape: 24 528 14 14 (2483712)
I0403 15:10:45.572592 11968 net.cpp:156] Memory required for data: 1252085280
I0403 15:10:45.572607 11968 layer_factory.hpp:77] Creating layer inception_4e/pool_proj
I0403 15:10:45.572629 11968 net.cpp:91] Creating Layer inception_4e/pool_proj
I0403 15:10:45.572648 11968 net.cpp:425] inception_4e/pool_proj <- inception_4e/pool
I0403 15:10:45.572667 11968 net.cpp:399] inception_4e/pool_proj -> inception_4e/pool_proj
I0403 15:10:45.574203 11968 net.cpp:141] Setting up inception_4e/pool_proj
I0403 15:10:45.574244 11968 net.cpp:148] Top shape: 24 128 14 14 (602112)
I0403 15:10:45.574262 11968 net.cpp:156] Memory required for data: 1254493728
I0403 15:10:45.574281 11968 layer_factory.hpp:77] Creating layer inception_4e/relu_pool_proj
I0403 15:10:45.574300 11968 net.cpp:91] Creating Layer inception_4e/relu_pool_proj
I0403 15:10:45.574316 11968 net.cpp:425] inception_4e/relu_pool_proj <- inception_4e/pool_proj
I0403 15:10:45.574336 11968 net.cpp:386] inception_4e/relu_pool_proj -> inception_4e/pool_proj (in-place)
I0403 15:10:45.574632 11968 net.cpp:141] Setting up inception_4e/relu_pool_proj
I0403 15:10:45.574659 11968 net.cpp:148] Top shape: 24 128 14 14 (602112)
I0403 15:10:45.574674 11968 net.cpp:156] Memory required for data: 1256902176
I0403 15:10:45.574690 11968 layer_factory.hpp:77] Creating layer inception_4e/output
I0403 15:10:45.574707 11968 net.cpp:91] Creating Layer inception_4e/output
I0403 15:10:45.574723 11968 net.cpp:425] inception_4e/output <- inception_4e/1x1
I0403 15:10:45.574738 11968 net.cpp:425] inception_4e/output <- inception_4e/3x3
I0403 15:10:45.574754 11968 net.cpp:425] inception_4e/output <- inception_4e/5x5
I0403 15:10:45.574769 11968 net.cpp:425] inception_4e/output <- inception_4e/pool_proj
I0403 15:10:45.574789 11968 net.cpp:399] inception_4e/output -> inception_4e/output
I0403 15:10:45.574837 11968 net.cpp:141] Setting up inception_4e/output
I0403 15:10:45.574861 11968 net.cpp:148] Top shape: 24 832 14 14 (3913728)
I0403 15:10:45.574875 11968 net.cpp:156] Memory required for data: 1272557088
I0403 15:10:45.574890 11968 layer_factory.hpp:77] Creating layer pool4/3x3_s2
I0403 15:10:45.574909 11968 net.cpp:91] Creating Layer pool4/3x3_s2
I0403 15:10:45.574926 11968 net.cpp:425] pool4/3x3_s2 <- inception_4e/output
I0403 15:10:45.574944 11968 net.cpp:399] pool4/3x3_s2 -> pool4/3x3_s2
I0403 15:10:45.575011 11968 net.cpp:141] Setting up pool4/3x3_s2
I0403 15:10:45.575036 11968 net.cpp:148] Top shape: 24 832 7 7 (978432)
I0403 15:10:45.575050 11968 net.cpp:156] Memory required for data: 1276470816
I0403 15:10:45.575064 11968 layer_factory.hpp:77] Creating layer pool4/3x3_s2_pool4/3x3_s2_0_split
I0403 15:10:45.575081 11968 net.cpp:91] Creating Layer pool4/3x3_s2_pool4/3x3_s2_0_split
I0403 15:10:45.575104 11968 net.cpp:425] pool4/3x3_s2_pool4/3x3_s2_0_split <- pool4/3x3_s2
I0403 15:10:45.575124 11968 net.cpp:399] pool4/3x3_s2_pool4/3x3_s2_0_split -> pool4/3x3_s2_pool4/3x3_s2_0_split_0
I0403 15:10:45.575144 11968 net.cpp:399] pool4/3x3_s2_pool4/3x3_s2_0_split -> pool4/3x3_s2_pool4/3x3_s2_0_split_1
I0403 15:10:45.575166 11968 net.cpp:399] pool4/3x3_s2_pool4/3x3_s2_0_split -> pool4/3x3_s2_pool4/3x3_s2_0_split_2
I0403 15:10:45.575186 11968 net.cpp:399] pool4/3x3_s2_pool4/3x3_s2_0_split -> pool4/3x3_s2_pool4/3x3_s2_0_split_3
I0403 15:10:45.575276 11968 net.cpp:141] Setting up pool4/3x3_s2_pool4/3x3_s2_0_split
I0403 15:10:45.575299 11968 net.cpp:148] Top shape: 24 832 7 7 (978432)
I0403 15:10:45.575314 11968 net.cpp:148] Top shape: 24 832 7 7 (978432)
I0403 15:10:45.575328 11968 net.cpp:148] Top shape: 24 832 7 7 (978432)
I0403 15:10:45.575345 11968 net.cpp:148] Top shape: 24 832 7 7 (978432)
I0403 15:10:45.575358 11968 net.cpp:156] Memory required for data: 1292125728
I0403 15:10:45.575372 11968 layer_factory.hpp:77] Creating layer inception_5a/1x1
I0403 15:10:45.575393 11968 net.cpp:91] Creating Layer inception_5a/1x1
I0403 15:10:45.575412 11968 net.cpp:425] inception_5a/1x1 <- pool4/3x3_s2_pool4/3x3_s2_0_split_0
I0403 15:10:45.575433 11968 net.cpp:399] inception_5a/1x1 -> inception_5a/1x1
I0403 15:10:45.578259 11968 net.cpp:141] Setting up inception_5a/1x1
I0403 15:10:45.578287 11968 net.cpp:148] Top shape: 24 256 7 7 (301056)
I0403 15:10:45.578304 11968 net.cpp:156] Memory required for data: 1293329952
I0403 15:10:45.578321 11968 layer_factory.hpp:77] Creating layer inception_5a/relu_1x1
I0403 15:10:45.578339 11968 net.cpp:91] Creating Layer inception_5a/relu_1x1
I0403 15:10:45.578356 11968 net.cpp:425] inception_5a/relu_1x1 <- inception_5a/1x1
I0403 15:10:45.578374 11968 net.cpp:386] inception_5a/relu_1x1 -> inception_5a/1x1 (in-place)
I0403 15:10:45.578685 11968 net.cpp:141] Setting up inception_5a/relu_1x1
I0403 15:10:45.578711 11968 net.cpp:148] Top shape: 24 256 7 7 (301056)
I0403 15:10:45.578725 11968 net.cpp:156] Memory required for data: 1294534176
I0403 15:10:45.578740 11968 layer_factory.hpp:77] Creating layer inception_5a/3x3_reduce
I0403 15:10:45.578763 11968 net.cpp:91] Creating Layer inception_5a/3x3_reduce
I0403 15:10:45.578780 11968 net.cpp:425] inception_5a/3x3_reduce <- pool4/3x3_s2_pool4/3x3_s2_0_split_1
I0403 15:10:45.578800 11968 net.cpp:399] inception_5a/3x3_reduce -> inception_5a/3x3_reduce
I0403 15:10:45.581215 11968 net.cpp:141] Setting up inception_5a/3x3_reduce
I0403 15:10:45.581246 11968 net.cpp:148] Top shape: 24 160 7 7 (188160)
I0403 15:10:45.581264 11968 net.cpp:156] Memory required for data: 1295286816
I0403 15:10:45.581281 11968 layer_factory.hpp:77] Creating layer inception_5a/relu_3x3_reduce
I0403 15:10:45.581300 11968 net.cpp:91] Creating Layer inception_5a/relu_3x3_reduce
I0403 15:10:45.581315 11968 net.cpp:425] inception_5a/relu_3x3_reduce <- inception_5a/3x3_reduce
I0403 15:10:45.581334 11968 net.cpp:386] inception_5a/relu_3x3_reduce -> inception_5a/3x3_reduce (in-place)
I0403 15:10:45.581540 11968 net.cpp:141] Setting up inception_5a/relu_3x3_reduce
I0403 15:10:45.581567 11968 net.cpp:148] Top shape: 24 160 7 7 (188160)
I0403 15:10:45.581583 11968 net.cpp:156] Memory required for data: 1296039456
I0403 15:10:45.581598 11968 layer_factory.hpp:77] Creating layer inception_5a/3x3
I0403 15:10:45.581619 11968 net.cpp:91] Creating Layer inception_5a/3x3
I0403 15:10:45.581639 11968 net.cpp:425] inception_5a/3x3 <- inception_5a/3x3_reduce
I0403 15:10:45.581660 11968 net.cpp:399] inception_5a/3x3 -> inception_5a/3x3
I0403 15:10:45.586597 11968 net.cpp:141] Setting up inception_5a/3x3
I0403 15:10:45.586627 11968 net.cpp:148] Top shape: 24 320 7 7 (376320)
I0403 15:10:45.586644 11968 net.cpp:156] Memory required for data: 1297544736
I0403 15:10:45.586663 11968 layer_factory.hpp:77] Creating layer inception_5a/relu_3x3
I0403 15:10:45.586683 11968 net.cpp:91] Creating Layer inception_5a/relu_3x3
I0403 15:10:45.586700 11968 net.cpp:425] inception_5a/relu_3x3 <- inception_5a/3x3
I0403 15:10:45.586717 11968 net.cpp:386] inception_5a/relu_3x3 -> inception_5a/3x3 (in-place)
I0403 15:10:45.587010 11968 net.cpp:141] Setting up inception_5a/relu_3x3
I0403 15:10:45.587036 11968 net.cpp:148] Top shape: 24 320 7 7 (376320)
I0403 15:10:45.587052 11968 net.cpp:156] Memory required for data: 1299050016
I0403 15:10:45.587066 11968 layer_factory.hpp:77] Creating layer inception_5a/5x5_reduce
I0403 15:10:45.587090 11968 net.cpp:91] Creating Layer inception_5a/5x5_reduce
I0403 15:10:45.587113 11968 net.cpp:425] inception_5a/5x5_reduce <- pool4/3x3_s2_pool4/3x3_s2_0_split_2
I0403 15:10:45.587136 11968 net.cpp:399] inception_5a/5x5_reduce -> inception_5a/5x5_reduce
I0403 15:10:45.588305 11968 net.cpp:141] Setting up inception_5a/5x5_reduce
I0403 15:10:45.588335 11968 net.cpp:148] Top shape: 24 32 7 7 (37632)
I0403 15:10:45.588351 11968 net.cpp:156] Memory required for data: 1299200544
I0403 15:10:45.588369 11968 layer_factory.hpp:77] Creating layer inception_5a/relu_5x5_reduce
I0403 15:10:45.588389 11968 net.cpp:91] Creating Layer inception_5a/relu_5x5_reduce
I0403 15:10:45.588407 11968 net.cpp:425] inception_5a/relu_5x5_reduce <- inception_5a/5x5_reduce
I0403 15:10:45.588424 11968 net.cpp:386] inception_5a/relu_5x5_reduce -> inception_5a/5x5_reduce (in-place)
I0403 15:10:45.588721 11968 net.cpp:141] Setting up inception_5a/relu_5x5_reduce
I0403 15:10:45.588747 11968 net.cpp:148] Top shape: 24 32 7 7 (37632)
I0403 15:10:45.588760 11968 net.cpp:156] Memory required for data: 1299351072
I0403 15:10:45.588775 11968 layer_factory.hpp:77] Creating layer inception_5a/5x5
I0403 15:10:45.588798 11968 net.cpp:91] Creating Layer inception_5a/5x5
I0403 15:10:45.588816 11968 net.cpp:425] inception_5a/5x5 <- inception_5a/5x5_reduce
I0403 15:10:45.588837 11968 net.cpp:399] inception_5a/5x5 -> inception_5a/5x5
I0403 15:10:45.590579 11968 net.cpp:141] Setting up inception_5a/5x5
I0403 15:10:45.590617 11968 net.cpp:148] Top shape: 24 128 7 7 (150528)
I0403 15:10:45.590632 11968 net.cpp:156] Memory required for data: 1299953184
I0403 15:10:45.590651 11968 layer_factory.hpp:77] Creating layer inception_5a/relu_5x5
I0403 15:10:45.590668 11968 net.cpp:91] Creating Layer inception_5a/relu_5x5
I0403 15:10:45.590689 11968 net.cpp:425] inception_5a/relu_5x5 <- inception_5a/5x5
I0403 15:10:45.590708 11968 net.cpp:386] inception_5a/relu_5x5 -> inception_5a/5x5 (in-place)
I0403 15:10:45.590898 11968 net.cpp:141] Setting up inception_5a/relu_5x5
I0403 15:10:45.590924 11968 net.cpp:148] Top shape: 24 128 7 7 (150528)
I0403 15:10:45.590937 11968 net.cpp:156] Memory required for data: 1300555296
I0403 15:10:45.590952 11968 layer_factory.hpp:77] Creating layer inception_5a/pool
I0403 15:10:45.590970 11968 net.cpp:91] Creating Layer inception_5a/pool
I0403 15:10:45.590988 11968 net.cpp:425] inception_5a/pool <- pool4/3x3_s2_pool4/3x3_s2_0_split_3
I0403 15:10:45.591006 11968 net.cpp:399] inception_5a/pool -> inception_5a/pool
I0403 15:10:45.591078 11968 net.cpp:141] Setting up inception_5a/pool
I0403 15:10:45.591105 11968 net.cpp:148] Top shape: 24 832 7 7 (978432)
I0403 15:10:45.591121 11968 net.cpp:156] Memory required for data: 1304469024
I0403 15:10:45.591136 11968 layer_factory.hpp:77] Creating layer inception_5a/pool_proj
I0403 15:10:45.591157 11968 net.cpp:91] Creating Layer inception_5a/pool_proj
I0403 15:10:45.591174 11968 net.cpp:425] inception_5a/pool_proj <- inception_5a/pool
I0403 15:10:45.591194 11968 net.cpp:399] inception_5a/pool_proj -> inception_5a/pool_proj
I0403 15:10:45.593449 11968 net.cpp:141] Setting up inception_5a/pool_proj
I0403 15:10:45.593478 11968 net.cpp:148] Top shape: 24 128 7 7 (150528)
I0403 15:10:45.593493 11968 net.cpp:156] Memory required for data: 1305071136
I0403 15:10:45.593511 11968 layer_factory.hpp:77] Creating layer inception_5a/relu_pool_proj
I0403 15:10:45.593528 11968 net.cpp:91] Creating Layer inception_5a/relu_pool_proj
I0403 15:10:45.593544 11968 net.cpp:425] inception_5a/relu_pool_proj <- inception_5a/pool_proj
I0403 15:10:45.593564 11968 net.cpp:386] inception_5a/relu_pool_proj -> inception_5a/pool_proj (in-place)
I0403 15:10:45.593860 11968 net.cpp:141] Setting up inception_5a/relu_pool_proj
I0403 15:10:45.593886 11968 net.cpp:148] Top shape: 24 128 7 7 (150528)
I0403 15:10:45.593902 11968 net.cpp:156] Memory required for data: 1305673248
I0403 15:10:45.593916 11968 layer_factory.hpp:77] Creating layer inception_5a/output
I0403 15:10:45.593935 11968 net.cpp:91] Creating Layer inception_5a/output
I0403 15:10:45.593950 11968 net.cpp:425] inception_5a/output <- inception_5a/1x1
I0403 15:10:45.593966 11968 net.cpp:425] inception_5a/output <- inception_5a/3x3
I0403 15:10:45.593981 11968 net.cpp:425] inception_5a/output <- inception_5a/5x5
I0403 15:10:45.593996 11968 net.cpp:425] inception_5a/output <- inception_5a/pool_proj
I0403 15:10:45.594014 11968 net.cpp:399] inception_5a/output -> inception_5a/output
I0403 15:10:45.594063 11968 net.cpp:141] Setting up inception_5a/output
I0403 15:10:45.594087 11968 net.cpp:148] Top shape: 24 832 7 7 (978432)
I0403 15:10:45.594106 11968 net.cpp:156] Memory required for data: 1309586976
I0403 15:10:45.594121 11968 layer_factory.hpp:77] Creating layer inception_5a/output_inception_5a/output_0_split
I0403 15:10:45.594138 11968 net.cpp:91] Creating Layer inception_5a/output_inception_5a/output_0_split
I0403 15:10:45.594153 11968 net.cpp:425] inception_5a/output_inception_5a/output_0_split <- inception_5a/output
I0403 15:10:45.594172 11968 net.cpp:399] inception_5a/output_inception_5a/output_0_split -> inception_5a/output_inception_5a/output_0_split_0
I0403 15:10:45.594189 11968 net.cpp:399] inception_5a/output_inception_5a/output_0_split -> inception_5a/output_inception_5a/output_0_split_1
I0403 15:10:45.594209 11968 net.cpp:399] inception_5a/output_inception_5a/output_0_split -> inception_5a/output_inception_5a/output_0_split_2
I0403 15:10:45.594231 11968 net.cpp:399] inception_5a/output_inception_5a/output_0_split -> inception_5a/output_inception_5a/output_0_split_3
I0403 15:10:45.594344 11968 net.cpp:141] Setting up inception_5a/output_inception_5a/output_0_split
I0403 15:10:45.594367 11968 net.cpp:148] Top shape: 24 832 7 7 (978432)
I0403 15:10:45.594383 11968 net.cpp:148] Top shape: 24 832 7 7 (978432)
I0403 15:10:45.594396 11968 net.cpp:148] Top shape: 24 832 7 7 (978432)
I0403 15:10:45.594411 11968 net.cpp:148] Top shape: 24 832 7 7 (978432)
I0403 15:10:45.594424 11968 net.cpp:156] Memory required for data: 1325241888
I0403 15:10:45.594439 11968 layer_factory.hpp:77] Creating layer inception_5b/1x1
I0403 15:10:45.594460 11968 net.cpp:91] Creating Layer inception_5b/1x1
I0403 15:10:45.594476 11968 net.cpp:425] inception_5b/1x1 <- inception_5a/output_inception_5a/output_0_split_0
I0403 15:10:45.594496 11968 net.cpp:399] inception_5b/1x1 -> inception_5b/1x1
I0403 15:10:45.598193 11968 net.cpp:141] Setting up inception_5b/1x1
I0403 15:10:45.598227 11968 net.cpp:148] Top shape: 24 384 7 7 (451584)
I0403 15:10:45.598243 11968 net.cpp:156] Memory required for data: 1327048224
I0403 15:10:45.598260 11968 layer_factory.hpp:77] Creating layer inception_5b/relu_1x1
I0403 15:10:45.598278 11968 net.cpp:91] Creating Layer inception_5b/relu_1x1
I0403 15:10:45.598294 11968 net.cpp:425] inception_5b/relu_1x1 <- inception_5b/1x1
I0403 15:10:45.598312 11968 net.cpp:386] inception_5b/relu_1x1 -> inception_5b/1x1 (in-place)
I0403 15:10:45.598613 11968 net.cpp:141] Setting up inception_5b/relu_1x1
I0403 15:10:45.598640 11968 net.cpp:148] Top shape: 24 384 7 7 (451584)
I0403 15:10:45.598655 11968 net.cpp:156] Memory required for data: 1328854560
I0403 15:10:45.598670 11968 layer_factory.hpp:77] Creating layer inception_5b/3x3_reduce
I0403 15:10:45.598691 11968 net.cpp:91] Creating Layer inception_5b/3x3_reduce
I0403 15:10:45.598708 11968 net.cpp:425] inception_5b/3x3_reduce <- inception_5a/output_inception_5a/output_0_split_1
I0403 15:10:45.598727 11968 net.cpp:399] inception_5b/3x3_reduce -> inception_5b/3x3_reduce
I0403 15:10:45.601341 11968 net.cpp:141] Setting up inception_5b/3x3_reduce
I0403 15:10:45.601372 11968 net.cpp:148] Top shape: 24 192 7 7 (225792)
I0403 15:10:45.601388 11968 net.cpp:156] Memory required for data: 1329757728
I0403 15:10:45.601405 11968 layer_factory.hpp:77] Creating layer inception_5b/relu_3x3_reduce
I0403 15:10:45.601423 11968 net.cpp:91] Creating Layer inception_5b/relu_3x3_reduce
I0403 15:10:45.601440 11968 net.cpp:425] inception_5b/relu_3x3_reduce <- inception_5b/3x3_reduce
I0403 15:10:45.601459 11968 net.cpp:386] inception_5b/relu_3x3_reduce -> inception_5b/3x3_reduce (in-place)
I0403 15:10:45.601652 11968 net.cpp:141] Setting up inception_5b/relu_3x3_reduce
I0403 15:10:45.601677 11968 net.cpp:148] Top shape: 24 192 7 7 (225792)
I0403 15:10:45.601691 11968 net.cpp:156] Memory required for data: 1330660896
I0403 15:10:45.601706 11968 layer_factory.hpp:77] Creating layer inception_5b/3x3
I0403 15:10:45.601727 11968 net.cpp:91] Creating Layer inception_5b/3x3
I0403 15:10:45.601744 11968 net.cpp:425] inception_5b/3x3 <- inception_5b/3x3_reduce
I0403 15:10:45.601765 11968 net.cpp:399] inception_5b/3x3 -> inception_5b/3x3
I0403 15:10:45.608387 11968 net.cpp:141] Setting up inception_5b/3x3
I0403 15:10:45.608417 11968 net.cpp:148] Top shape: 24 384 7 7 (451584)
I0403 15:10:45.608431 11968 net.cpp:156] Memory required for data: 1332467232
I0403 15:10:45.608448 11968 layer_factory.hpp:77] Creating layer inception_5b/relu_3x3
I0403 15:10:45.608466 11968 net.cpp:91] Creating Layer inception_5b/relu_3x3
I0403 15:10:45.608481 11968 net.cpp:425] inception_5b/relu_3x3 <- inception_5b/3x3
I0403 15:10:45.608501 11968 net.cpp:386] inception_5b/relu_3x3 -> inception_5b/3x3 (in-place)
I0403 15:10:45.608798 11968 net.cpp:141] Setting up inception_5b/relu_3x3
I0403 15:10:45.608822 11968 net.cpp:148] Top shape: 24 384 7 7 (451584)
I0403 15:10:45.608836 11968 net.cpp:156] Memory required for data: 1334273568
I0403 15:10:45.608850 11968 layer_factory.hpp:77] Creating layer inception_5b/5x5_reduce
I0403 15:10:45.608887 11968 net.cpp:91] Creating Layer inception_5b/5x5_reduce
I0403 15:10:45.608906 11968 net.cpp:425] inception_5b/5x5_reduce <- inception_5a/output_inception_5a/output_0_split_2
I0403 15:10:45.608927 11968 net.cpp:399] inception_5b/5x5_reduce -> inception_5b/5x5_reduce
I0403 15:10:45.610191 11968 net.cpp:141] Setting up inception_5b/5x5_reduce
I0403 15:10:45.610221 11968 net.cpp:148] Top shape: 24 48 7 7 (56448)
I0403 15:10:45.610237 11968 net.cpp:156] Memory required for data: 1334499360
I0403 15:10:45.610255 11968 layer_factory.hpp:77] Creating layer inception_5b/relu_5x5_reduce
I0403 15:10:45.610272 11968 net.cpp:91] Creating Layer inception_5b/relu_5x5_reduce
I0403 15:10:45.610290 11968 net.cpp:425] inception_5b/relu_5x5_reduce <- inception_5b/5x5_reduce
I0403 15:10:45.610309 11968 net.cpp:386] inception_5b/relu_5x5_reduce -> inception_5b/5x5_reduce (in-place)
I0403 15:10:45.610678 11968 net.cpp:141] Setting up inception_5b/relu_5x5_reduce
I0403 15:10:45.610704 11968 net.cpp:148] Top shape: 24 48 7 7 (56448)
I0403 15:10:45.610718 11968 net.cpp:156] Memory required for data: 1334725152
I0403 15:10:45.610733 11968 layer_factory.hpp:77] Creating layer inception_5b/5x5
I0403 15:10:45.610754 11968 net.cpp:91] Creating Layer inception_5b/5x5
I0403 15:10:45.610770 11968 net.cpp:425] inception_5b/5x5 <- inception_5b/5x5_reduce
I0403 15:10:45.610790 11968 net.cpp:399] inception_5b/5x5 -> inception_5b/5x5
I0403 15:10:45.612818 11968 net.cpp:141] Setting up inception_5b/5x5
I0403 15:10:45.612844 11968 net.cpp:148] Top shape: 24 128 7 7 (150528)
I0403 15:10:45.612859 11968 net.cpp:156] Memory required for data: 1335327264
I0403 15:10:45.612879 11968 layer_factory.hpp:77] Creating layer inception_5b/relu_5x5
I0403 15:10:45.612895 11968 net.cpp:91] Creating Layer inception_5b/relu_5x5
I0403 15:10:45.612910 11968 net.cpp:425] inception_5b/relu_5x5 <- inception_5b/5x5
I0403 15:10:45.612931 11968 net.cpp:386] inception_5b/relu_5x5 -> inception_5b/5x5 (in-place)
I0403 15:10:45.613148 11968 net.cpp:141] Setting up inception_5b/relu_5x5
I0403 15:10:45.613174 11968 net.cpp:148] Top shape: 24 128 7 7 (150528)
I0403 15:10:45.613189 11968 net.cpp:156] Memory required for data: 1335929376
I0403 15:10:45.613204 11968 layer_factory.hpp:77] Creating layer inception_5b/pool
I0403 15:10:45.613224 11968 net.cpp:91] Creating Layer inception_5b/pool
I0403 15:10:45.613240 11968 net.cpp:425] inception_5b/pool <- inception_5a/output_inception_5a/output_0_split_3
I0403 15:10:45.613257 11968 net.cpp:399] inception_5b/pool -> inception_5b/pool
I0403 15:10:45.613340 11968 net.cpp:141] Setting up inception_5b/pool
I0403 15:10:45.613363 11968 net.cpp:148] Top shape: 24 832 7 7 (978432)
I0403 15:10:45.613378 11968 net.cpp:156] Memory required for data: 1339843104
I0403 15:10:45.613392 11968 layer_factory.hpp:77] Creating layer inception_5b/pool_proj
I0403 15:10:45.613414 11968 net.cpp:91] Creating Layer inception_5b/pool_proj
I0403 15:10:45.613431 11968 net.cpp:425] inception_5b/pool_proj <- inception_5b/pool
I0403 15:10:45.613451 11968 net.cpp:399] inception_5b/pool_proj -> inception_5b/pool_proj
I0403 15:10:45.615728 11968 net.cpp:141] Setting up inception_5b/pool_proj
I0403 15:10:45.615759 11968 net.cpp:148] Top shape: 24 128 7 7 (150528)
I0403 15:10:45.615777 11968 net.cpp:156] Memory required for data: 1340445216
I0403 15:10:45.615797 11968 layer_factory.hpp:77] Creating layer inception_5b/relu_pool_proj
I0403 15:10:45.615814 11968 net.cpp:91] Creating Layer inception_5b/relu_pool_proj
I0403 15:10:45.615830 11968 net.cpp:425] inception_5b/relu_pool_proj <- inception_5b/pool_proj
I0403 15:10:45.615849 11968 net.cpp:386] inception_5b/relu_pool_proj -> inception_5b/pool_proj (in-place)
I0403 15:10:45.616152 11968 net.cpp:141] Setting up inception_5b/relu_pool_proj
I0403 15:10:45.616180 11968 net.cpp:148] Top shape: 24 128 7 7 (150528)
I0403 15:10:45.616196 11968 net.cpp:156] Memory required for data: 1341047328
I0403 15:10:45.616211 11968 layer_factory.hpp:77] Creating layer inception_5b/output
I0403 15:10:45.616227 11968 net.cpp:91] Creating Layer inception_5b/output
I0403 15:10:45.616258 11968 net.cpp:425] inception_5b/output <- inception_5b/1x1
I0403 15:10:45.616276 11968 net.cpp:425] inception_5b/output <- inception_5b/3x3
I0403 15:10:45.616293 11968 net.cpp:425] inception_5b/output <- inception_5b/5x5
I0403 15:10:45.616309 11968 net.cpp:425] inception_5b/output <- inception_5b/pool_proj
I0403 15:10:45.616328 11968 net.cpp:399] inception_5b/output -> inception_5b/output
I0403 15:10:45.616379 11968 net.cpp:141] Setting up inception_5b/output
I0403 15:10:45.616401 11968 net.cpp:148] Top shape: 24 1024 7 7 (1204224)
I0403 15:10:45.616416 11968 net.cpp:156] Memory required for data: 1345864224
I0403 15:10:45.616431 11968 layer_factory.hpp:77] Creating layer pool5/7x7_s1
I0403 15:10:45.616451 11968 net.cpp:91] Creating Layer pool5/7x7_s1
I0403 15:10:45.616468 11968 net.cpp:425] pool5/7x7_s1 <- inception_5b/output
I0403 15:10:45.616487 11968 net.cpp:399] pool5/7x7_s1 -> pool5/7x7_s1
I0403 15:10:45.616708 11968 net.cpp:141] Setting up pool5/7x7_s1
I0403 15:10:45.616732 11968 net.cpp:148] Top shape: 24 1024 1 1 (24576)
I0403 15:10:45.616747 11968 net.cpp:156] Memory required for data: 1345962528
I0403 15:10:45.616761 11968 layer_factory.hpp:77] Creating layer pool5/drop_7x7_s1
I0403 15:10:45.616778 11968 net.cpp:91] Creating Layer pool5/drop_7x7_s1
I0403 15:10:45.616793 11968 net.cpp:425] pool5/drop_7x7_s1 <- pool5/7x7_s1
I0403 15:10:45.616811 11968 net.cpp:386] pool5/drop_7x7_s1 -> pool5/7x7_s1 (in-place)
I0403 15:10:45.616861 11968 net.cpp:141] Setting up pool5/drop_7x7_s1
I0403 15:10:45.616888 11968 net.cpp:148] Top shape: 24 1024 1 1 (24576)
I0403 15:10:45.616904 11968 net.cpp:156] Memory required for data: 1346060832
I0403 15:10:45.616919 11968 layer_factory.hpp:77] Creating layer loss3/classifier_plantvillage
I0403 15:10:45.616937 11968 net.cpp:91] Creating Layer loss3/classifier_plantvillage
I0403 15:10:45.616953 11968 net.cpp:425] loss3/classifier_plantvillage <- pool5/7x7_s1
I0403 15:10:45.616973 11968 net.cpp:399] loss3/classifier_plantvillage -> loss3/classifier_plantvillage
I0403 15:10:45.617394 11968 net.cpp:141] Setting up loss3/classifier_plantvillage
I0403 15:10:45.617422 11968 net.cpp:148] Top shape: 24 38 (912)
I0403 15:10:45.617439 11968 net.cpp:156] Memory required for data: 1346064480
I0403 15:10:45.617457 11968 layer_factory.hpp:77] Creating layer loss3/classifier_plantvillage_loss3/classifier_plantvillage_0_split
I0403 15:10:45.617475 11968 net.cpp:91] Creating Layer loss3/classifier_plantvillage_loss3/classifier_plantvillage_0_split
I0403 15:10:45.617491 11968 net.cpp:425] loss3/classifier_plantvillage_loss3/classifier_plantvillage_0_split <- loss3/classifier_plantvillage
I0403 15:10:45.617507 11968 net.cpp:399] loss3/classifier_plantvillage_loss3/classifier_plantvillage_0_split -> loss3/classifier_plantvillage_loss3/classifier_plantvillage_0_split_0
I0403 15:10:45.617527 11968 net.cpp:399] loss3/classifier_plantvillage_loss3/classifier_plantvillage_0_split -> loss3/classifier_plantvillage_loss3/classifier_plantvillage_0_split_1
I0403 15:10:45.617550 11968 net.cpp:399] loss3/classifier_plantvillage_loss3/classifier_plantvillage_0_split -> loss3/classifier_plantvillage_loss3/classifier_plantvillage_0_split_2
I0403 15:10:45.617573 11968 net.cpp:399] loss3/classifier_plantvillage_loss3/classifier_plantvillage_0_split -> loss3/classifier_plantvillage_loss3/classifier_plantvillage_0_split_3
I0403 15:10:45.617671 11968 net.cpp:141] Setting up loss3/classifier_plantvillage_loss3/classifier_plantvillage_0_split
I0403 15:10:45.617694 11968 net.cpp:148] Top shape: 24 38 (912)
I0403 15:10:45.617709 11968 net.cpp:148] Top shape: 24 38 (912)
I0403 15:10:45.617724 11968 net.cpp:148] Top shape: 24 38 (912)
I0403 15:10:45.617739 11968 net.cpp:148] Top shape: 24 38 (912)
I0403 15:10:45.617753 11968 net.cpp:156] Memory required for data: 1346079072
I0403 15:10:45.617769 11968 layer_factory.hpp:77] Creating layer loss1/loss
I0403 15:10:45.617791 11968 net.cpp:91] Creating Layer loss1/loss
I0403 15:10:45.617810 11968 net.cpp:425] loss1/loss <- loss1/classifier_plantvillage_loss1/classifier_plantvillage_0_split_0
I0403 15:10:45.617840 11968 net.cpp:425] loss1/loss <- label_data_1_split_0
…
