…
I0403 14:53:47.701225 11259 net.cpp:313] The NetState phase (1) differed from the phase (0) specified by a rule in layer data
I0403 14:53:47.702426 11259 net.cpp:49] Initializing net from parameters: 
state {
  phase: TEST
}
layer {
  name: "data"
  type: "Data"
  top: "data"
  top: "label"
  include {
    phase: TEST
  }
  transform_param {
    mirror: false
    crop_size: 224
    mean_file: "/home/mohanty/data/final_dataset/lmdb/grayscale-60-40/mean.binaryproto"
  }
  data_param {
    source: "/home/mohanty/data/final_dataset/lmdb/grayscale-60-40/test_db"
    batch_size: 24
    backend: LMDB
  }
}
layer {
  name: "conv1/7x7_s2"
  type: "Convolution"
  bottom: "data"
  top: "conv1/7x7_s2"
  param {
    lr_mult: 1
    decay_mult: 1
  }
  param {
    lr_mult: 2
    decay_mult: 0
  }
  convolution_param {
    num_output: 64
    pad: 3
    kernel_size: 7
    stride: 2
    weight_filler {
      type: "xavier"
      std: 0.1
    }
    bias_filler {
      type: "constant"
      value: 0.2
    }
  }
}
layer {
  name: "conv1/relu_7x7"
  type: "ReLU"
  bottom: "conv1/7x7_s2"
  top: "conv1/7x7_s2"
}
layer {
  name: "pool1/3x3_s2"
  type: "Pooling"
  bottom: "conv1/7x7_s2"
  top: "pool1/3x3_s2"
  pooling_param {
    pool: MAX
    kernel_size: 3
    stride: 2
  }
}
layer {
  name: "pool1/norm1"
  type: "LRN"
  bottom: "pool1/3x3_s2"
  top: "pool1/norm1"
  lrn_param {
    local_size: 5
    alpha: 0.0001
    beta: 0.75
  }
}
layer {
  name: "conv2/3x3_reduce"
  type: "Convolution"
  bottom: "pool1/norm1"
  top: "conv2/3x3_reduce"
  param {
    lr_mult: 1
    decay_mult: 1
  }
  param {
    lr_mult: 2
    decay_mult: 0
  }
  convolution_param {
    num_output: 64
    kernel_size: 1
    weight_filler {
      type: "xavier"
      std: 0.1
    }
    bias_filler {
      type: "constant"
      value: 0.2
    }
  }
}
layer {
  name: "conv2/relu_3x3_reduce"
  type: "ReLU"
  bottom: "conv2/3x3_reduce"
  top: "conv2/3x3_reduce"
}
layer {
  name: "conv2/3x3"
  type: "Convolution"
  bottom: "conv2/3x3_reduce"
  top: "conv2/3x3"
  param {
    lr_mult: 1
    decay_mult: 1
  }
  param {
    lr_mult: 2
    decay_mult: 0
  }
  convolution_param {
    num_output: 192
    pad: 1
    kernel_size: 3
    weight_filler {
      type: "xavier"
      std: 0.03
    }
    bias_filler {
      type: "constant"
      value: 0.2
    }
  }
}
layer {
  name: "conv2/relu_3x3"
  type: "ReLU"
  bottom: "conv2/3x3"
  top: "conv2/3x3"
}
layer {
  name: "conv2/norm2"
  type: "LRN"
  bottom: "conv2/3x3"
  top: "conv2/norm2"
  lrn_param {
    local_size: 5
    alpha: 0.0001
    beta: 0.75
  }
}
layer {
  name: "pool2/3x3_s2"
  type: "Pooling"
  bottom: "conv2/norm2"
  top: "pool2/3x3_s2"
  pooling_param {
    pool: MAX
    kernel_size: 3
    stride: 2
  }
}
layer {
  name: "inception_3a/1x1"
  type: "Convolution"
  bottom: "pool2/3x3_s2"
  top: "inception_3a/1x1"
  param {
    lr_mult: 1
    decay_mult: 1
  }
  param {
    lr_mult: 2
    decay_mult: 0
  }
  convolution_param {
    num_output: 64
    kernel_size: 1
    weight_filler {
      type: "xavier"
      std: 0.03
    }
    bias_filler {
      type: "constant"
      value: 0.2
    }
  }
}
layer {
  name: "inception_3a/relu_1x1"
  type: "ReLU"
  bottom: "inception_3a/1x1"
  top: "inception_3a/1x1"
}
layer {
  name: "inception_3a/3x3_reduce"
  type: "Convolution"
  bottom: "pool2/3x3_s2"
  top: "inception_3a/3x3_reduce"
  param {
    lr_mult: 1
    decay_mult: 1
  }
  param {
    lr_mult: 2
    decay_mult: 0
  }
  convolution_param {
    num_output: 96
    kernel_size: 1
    weight_filler {
      type: "xavier"
      std: 0.09
    }
    bias_filler {
      type: "constant"
      value: 0.2
    }
  }
}
layer {
  name: "inception_3a/relu_3x3_reduce"
  type: "ReLU"
  bottom: "inception_3a/3x3_reduce"
  top: "inception_3a/3x3_reduce"
}
layer {
  name: "inception_3a/3x3"
  type: "Convolution"
  bottom: "inception_3a/3x3_reduce"
  top: "inception_3a/3x3"
  param {
    lr_mult: 1
    decay_mult: 1
  }
  param {
    lr_mult: 2
    decay_mult: 0
  }
  convolution_param {
    num_output: 128
    pad: 1
    kernel_size: 3
    weight_filler {
      type: "xavier"
      std: 0.03
    }
    bias_filler {
      type: "constant"
      value: 0.2
    }
  }
}
layer {
  name: "inception_3a/relu_3x3"
  type: "ReLU"
  bottom: "inception_3a/3x3"
  top: "inception_3a/3x3"
}
layer {
  name: "inception_3a/5x5_reduce"
  type: "Convolution"
  bottom: "pool2/3x3_s2"
  top: "inception_3a/5x5_reduce"
  param {
    lr_mult: 1
    decay_mult: 1
  }
  param {
    lr_mult: 2
    decay_mult: 0
  }
  convolution_param {
    num_output: 16
    kernel_size: 1
    weight_filler {
      type: "xavier"
      std: 0.2
    }
    bias_filler {
      type: "constant"
      value: 0.2
    }
  }
}
layer {
  name: "inception_3a/relu_5x5_reduce"
  type: "ReLU"
  bottom: "inception_3a/5x5_reduce"
  top: "inception_3a/5x5_reduce"
}
layer {
  name: "inception_3a/5x5"
  type: "Convolution"
  bottom: "inception_3a/5x5_reduce"
  top: "inception_3a/5x5"
  param {
    lr_mult: 1
    decay_mult: 1
  }
  param {
    lr_mult: 2
    decay_mult: 0
  }
  convolution_param {
    num_output: 32
    pad: 2
    kernel_size: 5
    weight_filler {
      type: "xavier"
      std: 0.03
    }
    bias_filler {
      type: "constant"
      value: 0.2
    }
  }
}
layer {
  name: "inception_3a/relu_5x5"
  type: "ReLU"
  bottom: "inception_3a/5x5"
  top: "inception_3a/5x5"
}
layer {
  name: "inception_3a/pool"
  type: "Pooling"
  bottom: "pool2/3x3_s2"
  top: "inception_3a/pool"
  pooling_param {
    pool: MAX
    kernel_size: 3
    stride: 1
    pad: 1
  }
}
layer {
  name: "inception_3a/pool_proj"
  type: "Convolution"
  bottom: "inception_3a/pool"
  top: "inception_3a/pool_proj"
  param {
    lr_mult: 1
    decay_mult: 1
  }
  param {
    lr_mult: 2
    decay_mult: 0
  }
  convolution_param {
    num_output: 32
    kernel_size: 1
    weight_filler {
      type: "xavier"
      std: 0.1
    }
    bias_filler {
      type: "constant"
      value: 0.2
    }
  }
}
layer {
  name: "inception_3a/relu_pool_proj"
  type: "ReLU"
  bottom: "inception_3a/pool_proj"
  top: "inception_3a/pool_proj"
}
layer {
  name: "inception_3a/output"
  type: "Concat"
  bottom: "inception_3a/1x1"
  bottom: "inception_3a/3x3"
  bottom: "inception_3a/5x5"
  bottom: "inception_3a/pool_proj"
  top: "inception_3a/output"
}
layer {
  name: "inception_3b/1x1"
  type: "Convolution"
  bottom: "inception_3a/output"
  top: "inception_3b/1x1"
  param {
    lr_mult: 1
    decay_mult: 1
  }
  param {
    lr_mult: 2
    decay_mult: 0
  }
  convolution_param {
    num_output: 128
    kernel_size: 1
    weight_filler {
      type: "xavier"
      std: 0.03
    }
    bias_filler {
      type: "constant"
      value: 0.2
    }
  }
}
layer {
  name: "inception_3b/relu_1x1"
  type: "ReLU"
  bottom: "inception_3b/1x1"
  top: "inception_3b/1x1"
}
layer {
  name: "inception_3b/3x3_reduce"
  type: "Convolution"
  bottom: "inception_3a/output"
  top: "inception_3b/3x3_reduce"
  param {
    lr_mult: 1
    decay_mult: 1
  }
  param {
    lr_mult: 2
    decay_mult: 0
  }
  convolution_param {
    num_output: 128
    kernel_size: 1
    weight_filler {
      type: "xavier"
      std: 0.09
    }
    bias_filler {
      type: "constant"
      value: 0.2
    }
  }
}
layer {
  name: "inception_3b/relu_3x3_reduce"
  type: "ReLU"
  bottom: "inception_3b/3x3_reduce"
  top: "inception_3b/3x3_reduce"
}
layer {
  name: "inception_3b/3x3"
  type: "Convolution"
  bottom: "inception_3b/3x3_reduce"
  top: "inception_3b/3x3"
  param {
    lr_mult: 1
    decay_mult: 1
  }
  param {
    lr_mult: 2
    decay_mult: 0
  }
  convolution_param {
    num_output: 192
    pad: 1
    kernel_size: 3
    weight_filler {
      type: "xavier"
      std: 0.03
    }
    bias_filler {
      type: "constant"
      value: 0.2
    }
  }
}
layer {
  name: "inception_3b/relu_3x3"
  type: "ReLU"
  bottom: "inception_3b/3x3"
  top: "inception_3b/3x3"
}
layer {
  name: "inception_3b/5x5_reduce"
  type: "Convolution"
  bottom: "inception_3a/output"
  top: "inception_3b/5x5_reduce"
  param {
    lr_mult: 1
    decay_mult: 1
  }
  param {
    lr_mult: 2
    decay_mult: 0
  }
  convolution_param {
    num_output: 32
    kernel_size: 1
    weight_filler {
      type: "xavier"
      std: 0.2
    }
    bias_filler {
      type: "constant"
      value: 0.2
    }
  }
}
layer {
  name: "inception_3b/relu_5x5_reduce"
  type: "ReLU"
  bottom: "inception_3b/5x5_reduce"
  top: "inception_3b/5x5_reduce"
}
layer {
  name: "inception_3b/5x5"
  type: "Convolution"
  bottom: "inception_3b/5x5_reduce"
  top: "inception_3b/5x5"
  param {
    lr_mult: 1
    decay_mult: 1
  }
  param {
    lr_mult: 2
    decay_mult: 0
  }
  convolution_param {
    num_output: 96
    pad: 2
    kernel_size: 5
    weight_filler {
      type: "xavier"
      std: 0.03
    }
    bias_filler {
      type: "constant"
      value: 0.2
    }
  }
}
layer {
  name: "inception_3b/relu_5x5"
  type: "ReLU"
  bottom: "inception_3b/5x5"
  top: "inception_3b/5x5"
}
layer {
  name: "inception_3b/pool"
  type: "Pooling"
  bottom: "inception_3a/output"
  top: "inception_3b/pool"
  pooling_param {
    pool: MAX
    kernel_size: 3
    stride: 1
    pad: 1
  }
}
layer {
  name: "inception_3b/pool_proj"
  type: "Convolution"
  bottom: "inception_3b/pool"
  top: "inception_3b/pool_proj"
  param {
    lr_mult: 1
    decay_mult: 1
  }
  param {
    lr_mult: 2
    decay_mult: 0
  }
  convolution_param {
    num_output: 64
    kernel_size: 1
    weight_filler {
      type: "xavier"
      std: 0.1
    }
    bias_filler {
      type: "constant"
      value: 0.2
    }
  }
}
layer {
  name: "inception_3b/relu_pool_proj"
  type: "ReLU"
  bottom: "inception_3b/pool_proj"
  top: "inception_3b/pool_proj"
}
layer {
  name: "inception_3b/output"
  type: "Concat"
  bottom: "inception_3b/1x1"
  bottom: "inception_3b/3x3"
  bottom: "inception_3b/5x5"
  bottom: "inception_3b/pool_proj"
  top: "inception_3b/output"
}
layer {
  name: "pool3/3x3_s2"
  type: "Pooling"
  bottom: "inception_3b/output"
  top: "pool3/3x3_s2"
  pooling_param {
    pool: MAX
    kernel_size: 3
    stride: 2
  }
}
layer {
  name: "inception_4a/1x1"
  type: "Convolution"
  bottom: "pool3/3x3_s2"
  top: "inception_4a/1x1"
  param {
    lr_mult: 1
    decay_mult: 1
  }
  param {
    lr_mult: 2
    decay_mult: 0
  }
  convolution_param {
    num_output: 192
    kernel_size: 1
    weight_filler {
      type: "xavier"
      std: 0.03
    }
    bias_filler {
      type: "constant"
      value: 0.2
    }
  }
}
layer {
  name: "inception_4a/relu_1x1"
  type: "ReLU"
  bottom: "inception_4a/1x1"
  top: "inception_4a/1x1"
}
layer {
  name: "inception_4a/3x3_reduce"
  type: "Convolution"
  bottom: "pool3/3x3_s2"
  top: "inception_4a/3x3_reduce"
  param {
    lr_mult: 1
    decay_mult: 1
  }
  param {
    lr_mult: 2
    decay_mult: 0
  }
  convolution_param {
    num_output: 96
    kernel_size: 1
    weight_filler {
      type: "xavier"
      std: 0.09
    }
    bias_filler {
      type: "constant"
      value: 0.2
    }
  }
}
layer {
  name: "inception_4a/relu_3x3_reduce"
  type: "ReLU"
  bottom: "inception_4a/3x3_reduce"
  top: "inception_4a/3x3_reduce"
}
layer {
  name: "inception_4a/3x3"
  type: "Convolution"
  bottom: "inception_4a/3x3_reduce"
  top: "inception_4a/3x3"
  param {
    lr_mult: 1
    decay_mult: 1
  }
  param {
    lr_mult: 2
    decay_mult: 0
  }
  convolution_param {
    num_output: 208
    pad: 1
    kernel_size: 3
    weight_filler {
      type: "xavier"
      std: 0.03
    }
    bias_filler {
      type: "constant"
      value: 0.2
    }
  }
}
layer {
  name: "inception_4a/relu_3x3"
  type: "ReLU"
  bottom: "inception_4a/3x3"
  top: "inception_4a/3x3"
}
layer {
  name: "inception_4a/5x5_reduce"
  type: "Convolution"
  bottom: "pool3/3x3_s2"
  top: "inception_4a/5x5_reduce"
  param {
    lr_mult: 1
    decay_mult: 1
  }
  param {
    lr_mult: 2
    decay_mult: 0
  }
  convolution_param {
    num_output: 16
    kernel_size: 1
    weight_filler {
      type: "xavier"
      std: 0.2
    }
    bias_filler {
      type: "constant"
      value: 0.2
    }
  }
}
layer {
  name: "inception_4a/relu_5x5_reduce"
  type: "ReLU"
  bottom: "inception_4a/5x5_reduce"
  top: "inception_4a/5x5_reduce"
}
layer {
  name: "inception_4a/5x5"
  type: "Convolution"
  bottom: "inception_4a/5x5_reduce"
  top: "inception_4a/5x5"
  param {
    lr_mult: 1
    decay_mult: 1
  }
  param {
    lr_mult: 2
    decay_mult: 0
  }
  convolution_param {
    num_output: 48
    pad: 2
    kernel_size: 5
    weight_filler {
      type: "xavier"
      std: 0.03
    }
    bias_filler {
      type: "constant"
      value: 0.2
    }
  }
}
layer {
  name: "inception_4a/relu_5x5"
  type: "ReLU"
  bottom: "inception_4a/5x5"
  top: "inception_4a/5x5"
}
layer {
  name: "inception_4a/pool"
  type: "Pooling"
  bottom: "pool3/3x3_s2"
  top: "inception_4a/pool"
  pooling_param {
    pool: MAX
    kernel_size: 3
    stride: 1
    pad: 1
  }
}
layer {
  name: "inception_4a/pool_proj"
  type: "Convolution"
  bottom: "inception_4a/pool"
  top: "inception_4a/pool_proj"
  param {
    lr_mult: 1
    decay_mult: 1
  }
  param {
    lr_mult: 2
    decay_mult: 0
  }
  convolution_param {
    num_output: 64
    kernel_size: 1
    weight_filler {
      type: "xavier"
      std: 0.1
    }
    bias_filler {
      type: "constant"
      value: 0.2
    }
  }
}
layer {
  name: "inception_4a/relu_pool_proj"
  type: "ReLU"
  bottom: "inception_4a/pool_proj"
  top: "inception_4a/pool_proj"
}
layer {
  name: "inception_4a/output"
  type: "Concat"
  bottom: "inception_4a/1x1"
  bottom: "inception_4a/3x3"
  bottom: "inception_4a/5x5"
  bottom: "inception_4a/pool_proj"
  top: "inception_4a/output"
}
layer {
  name: "loss1/ave_pool"
  type: "Pooling"
  bottom: "inception_4a/output"
  top: "loss1/ave_pool"
  pooling_param {
    pool: AVE
    kernel_size: 5
    stride: 3
  }
}
layer {
  name: "loss1/conv"
  type: "Convolution"
  bottom: "loss1/ave_pool"
  top: "loss1/conv"
  param {
    lr_mult: 1
    decay_mult: 1
  }
  param {
    lr_mult: 2
    decay_mult: 0
  }
  convolution_param {
    num_output: 128
    kernel_size: 1
    weight_filler {
      type: "xavier"
      std: 0.08
    }
    bias_filler {
      type: "constant"
      value: 0.2
    }
  }
}
layer {
  name: "loss1/relu_conv"
  type: "ReLU"
  bottom: "loss1/conv"
  top: "loss1/conv"
}
layer {
  name: "loss1/fc"
  type: "InnerProduct"
  bottom: "loss1/conv"
  top: "loss1/fc"
  param {
    lr_mult: 1
    decay_mult: 1
  }
  param {
    lr_mult: 2
    decay_mult: 0
  }
  inner_product_param {
    num_output: 1024
    weight_filler {
      type: "xavier"
      std: 0.02
    }
    bias_filler {
      type: "constant"
      value: 0.2
    }
  }
}
layer {
  name: "loss1/relu_fc"
  type: "ReLU"
  bottom: "loss1/fc"
  top: "loss1/fc"
}
layer {
  name: "loss1/drop_fc"
  type: "Dropout"
  bottom: "loss1/fc"
  top: "loss1/fc"
  dropout_param {
    dropout_ratio: 0.7
  }
}
layer {
  name: "loss1/classifier_plantvillage"
  type: "InnerProduct"
  bottom: "loss1/fc"
  top: "loss1/classifier_plantvillage"
  param {
    lr_mult: 1
    decay_mult: 1
  }
  param {
    lr_mult: 2
    decay_mult: 0
  }
  inner_product_param {
    num_output: 38
    weight_filler {
      type: "xavier"
      std: 0.0009765625
    }
    bias_filler {
      type: "constant"
      value: 0
    }
  }
}
layer {
  name: "inception_4b/1x1"
  type: "Convolution"
  bottom: "inception_4a/output"
  top: "inception_4b/1x1"
  param {
    lr_mult: 1
    decay_mult: 1
  }
  param {
    lr_mult: 2
    decay_mult: 0
  }
  convolution_param {
    num_output: 160
    kernel_size: 1
    weight_filler {
      type: "xavier"
      std: 0.03
    }
    bias_filler {
      type: "constant"
      value: 0.2
    }
  }
}
layer {
  name: "inception_4b/relu_1x1"
  type: "ReLU"
  bottom: "inception_4b/1x1"
  top: "inception_4b/1x1"
}
layer {
  name: "inception_4b/3x3_reduce"
  type: "Convolution"
  bottom: "inception_4a/output"
  top: "inception_4b/3x3_reduce"
  param {
    lr_mult: 1
    decay_mult: 1
  }
  param {
    lr_mult: 2
    decay_mult: 0
  }
  convolution_param {
    num_output: 112
    kernel_size: 1
    weight_filler {
      type: "xavier"
      std: 0.09
    }
    bias_filler {
      type: "constant"
      value: 0.2
    }
  }
}
layer {
  name: "inception_4b/relu_3x3_reduce"
  type: "ReLU"
  bottom: "inception_4b/3x3_reduce"
  top: "inception_4b/3x3_reduce"
}
layer {
  name: "inception_4b/3x3"
  type: "Convolution"
  bottom: "inception_4b/3x3_reduce"
  top: "inception_4b/3x3"
  param {
    lr_mult: 1
    decay_mult: 1
  }
  param {
    lr_mult: 2
    decay_mult: 0
  }
  convolution_param {
    num_output: 224
    pad: 1
    kernel_size: 3
    weight_filler {
      type: "xavier"
      std: 0.03
    }
    bias_filler {
      type: "constant"
      value: 0.2
    }
  }
}
layer {
  name: "inception_4b/relu_3x3"
  type: "ReLU"
  bottom: "inception_4b/3x3"
  top: "inception_4b/3x3"
}
layer {
  name: "inception_4b/5x5_reduce"
  type: "Convolution"
  bottom: "inception_4a/output"
  top: "inception_4b/5x5_reduce"
  param {
    lr_mult: 1
    decay_mult: 1
  }
  param {
    lr_mult: 2
    decay_mult: 0
  }
  convolution_param {
    num_output: 24
    kernel_size: 1
    weight_filler {
      type: "xavier"
      std: 0.2
    }
    bias_filler {
      type: "constant"
      value: 0.2
    }
  }
}
layer {
  name: "inception_4b/relu_5x5_reduce"
  type: "ReLU"
  bottom: "inception_4b/5x5_reduce"
  top: "inception_4b/5x5_reduce"
}
layer {
  name: "inception_4b/5x5"
  type: "Convolution"
  bottom: "inception_4b/5x5_reduce"
  top: "inception_4b/5x5"
  param {
    lr_mult: 1
    decay_mult: 1
  }
  param {
    lr_mult: 2
    decay_mult: 0
  }
  convolution_param {
    num_output: 64
    pad: 2
    kernel_size: 5
    weight_filler {
      type: "xavier"
      std: 0.03
    }
    bias_filler {
      type: "constant"
      value: 0.2
    }
  }
}
layer {
  name: "inception_4b/relu_5x5"
  type: "ReLU"
  bottom: "inception_4b/5x5"
  top: "inception_4b/5x5"
}
layer {
  name: "inception_4b/pool"
  type: "Pooling"
  bottom: "inception_4a/output"
  top: "inception_4b/pool"
  pooling_param {
    pool: MAX
    kernel_size: 3
    stride: 1
    pad: 1
  }
}
layer {
  name: "inception_4b/pool_proj"
  type: "Convolution"
  bottom: "inception_4b/pool"
  top: "inception_4b/pool_proj"
  param {
    lr_mult: 1
    decay_mult: 1
  }
  param {
    lr_mult: 2
    decay_mult: 0
  }
  convolution_param {
    num_output: 64
    kernel_size: 1
    weight_filler {
      type: "xavier"
      std: 0.1
    }
    bias_filler {
      type: "constant"
      value: 0.2
    }
  }
}
layer {
  name: "inception_4b/relu_pool_proj"
  type: "ReLU"
  bottom: "inception_4b/pool_proj"
  top: "inception_4b/pool_proj"
}
layer {
  name: "inception_4b/output"
  type: "Concat"
  bottom: "inception_4b/1x1"
  bottom: "inception_4b/3x3"
  bottom: "inception_4b/5x5"
  bottom: "inception_4b/pool_proj"
  top: "inception_4b/output"
}
layer {
  name: "inception_4c/1x1"
  type: "Convolution"
  bottom: "inception_4b/output"
  top: "inception_4c/1x1"
  param {
    lr_mult: 1
    decay_mult: 1
  }
  param {
    lr_mult: 2
    decay_mult: 0
  }
  convolution_param {
    num_output: 128
    kernel_size: 1
    weight_filler {
      type: "xavier"
      std: 0.03
    }
    bias_filler {
      type: "constant"
      value: 0.2
    }
  }
}
layer {
  name: "inception_4c/relu_1x1"
  type: "ReLU"
  bottom: "inception_4c/1x1"
  top: "inception_4c/1x1"
}
layer {
  name: "inception_4c/3x3_reduce"
  type: "Convolution"
  bottom: "inception_4b/output"
  top: "inception_4c/3x3_reduce"
  param {
    lr_mult: 1
    decay_mult: 1
  }
  param {
    lr_mult: 2
    decay_mult: 0
  }
  convolution_param {
    num_output: 128
    kernel_size: 1
    weight_filler {
      type: "xavier"
      std: 0.09
    }
    bias_filler {
      type: "constant"
      value: 0.2
    }
  }
}
layer {
  name: "inception_4c/relu_3x3_reduce"
  type: "ReLU"
  bottom: "inception_4c/3x3_reduce"
  top: "inception_4c/3x3_reduce"
}
layer {
  name: "inception_4c/3x3"
  type: "Convolution"
  bottom: "inception_4c/3x3_reduce"
  top: "inception_4c/3x3"
  param {
    lr_mult: 1
    decay_mult: 1
  }
  param {
    lr_mult: 2
    decay_mult: 0
  }
  convolution_param {
    num_output: 256
    pad: 1
    kernel_size: 3
    weight_filler {
      type: "xavier"
      std: 0.03
    }
    bias_filler {
      type: "constant"
      value: 0.2
    }
  }
}
layer {
  name: "inception_4c/relu_3x3"
  type: "ReLU"
  bottom: "inception_4c/3x3"
  top: "inception_4c/3x3"
}
layer {
  name: "inception_4c/5x5_reduce"
  type: "Convolution"
  bottom: "inception_4b/output"
  top: "inception_4c/5x5_reduce"
  param {
    lr_mult: 1
    decay_mult: 1
  }
  param {
    lr_mult: 2
    decay_mult: 0
  }
  convolution_param {
    num_output: 24
    kernel_size: 1
    weight_filler {
      type: "xavier"
      std: 0.2
    }
    bias_filler {
      type: "constant"
      value: 0.2
    }
  }
}
layer {
  name: "inception_4c/relu_5x5_reduce"
  type: "ReLU"
  bottom: "inception_4c/5x5_reduce"
  top: "inception_4c/5x5_reduce"
}
layer {
  name: "inception_4c/5x5"
  type: "Convolution"
  bottom: "inception_4c/5x5_reduce"
  top: "inception_4c/5x5"
  param {
    lr_mult: 1
    decay_mult: 1
  }
  param {
    lr_mult: 2
    decay_mult: 0
  }
  convolution_param {
    num_output: 64
    pad: 2
    kernel_size: 5
    weight_filler {
      type: "xavier"
      std: 0.03
    }
    bias_filler {
      type: "constant"
      value: 0.2
    }
  }
}
layer {
  name: "inception_4c/relu_5x5"
  type: "ReLU"
  bottom: "inception_4c/5x5"
  top: "inception_4c/5x5"
}
layer {
  name: "inception_4c/pool"
  type: "Pooling"
  bottom: "inception_4b/output"
  top: "inception_4c/pool"
  pooling_param {
    pool: MAX
    kernel_size: 3
    stride: 1
    pad: 1
  }
}
layer {
  name: "inception_4c/pool_proj"
  type: "Convolution"
  bottom: "inception_4c/pool"
  top: "inception_4c/pool_proj"
  param {
    lr_mult: 1
    decay_mult: 1
  }
  param {
    lr_mult: 2
    decay_mult: 0
  }
  convolution_param {
    num_output: 64
    kernel_size: 1
    weight_filler {
      type: "xavier"
      std: 0.1
    }
    bias_filler {
      type: "constant"
      value: 0.2
    }
  }
}
layer {
  name: "inception_4c/relu_pool_proj"
  type: "ReLU"
  bottom: "inception_4c/pool_proj"
  top: "inception_4c/pool_proj"
}
layer {
  name: "inception_4c/output"
  type: "Concat"
  bottom: "inception_4c/1x1"
  bottom: "inception_4c/3x3"
  bottom: "inception_4c/5x5"
  bottom: "inception_4c/pool_proj"
  top: "inception_4c/output"
}
layer {
  name: "inception_4d/1x1"
  type: "Convolution"
  bottom: "inception_4c/output"
  top: "inception_4d/1x1"
  param {
    lr_mult: 1
    decay_mult: 1
  }
  param {
    lr_mult: 2
    decay_mult: 0
  }
  convolution_param {
    num_output: 112
    kernel_size: 1
    weight_filler {
      type: "xavier"
      std: 0.03
    }
    bias_filler {
      type: "constant"
      value: 0.2
    }
  }
}
layer {
  name: "inception_4d/relu_1x1"
  type: "ReLU"
  bottom: "inception_4d/1x1"
  top: "inception_4d/1x1"
}
layer {
  name: "inception_4d/3x3_reduce"
  type: "Convolution"
  bottom: "inception_4c/output"
  top: "inception_4d/3x3_reduce"
  param {
    lr_mult: 1
    decay_mult: 1
  }
  param {
    lr_mult: 2
    decay_mult: 0
  }
  convolution_param {
    num_output: 144
    kernel_size: 1
    weight_filler {
      type: "xavier"
      std: 0.09
    }
    bias_filler {
      type: "constant"
      value: 0.2
    }
  }
}
layer {
  name: "inception_4d/relu_3x3_reduce"
  type: "ReLU"
  bottom: "inception_4d/3x3_reduce"
  top: "inception_4d/3x3_reduce"
}
layer {
  name: "inception_4d/3x3"
  type: "Convolution"
  bottom: "inception_4d/3x3_reduce"
  top: "inception_4d/3x3"
  param {
    lr_mult: 1
    decay_mult: 1
  }
  param {
    lr_mult: 2
    decay_mult: 0
  }
  convolution_param {
    num_output: 288
    pad: 1
    kernel_size: 3
    weight_filler {
      type: "xavier"
      std: 0.03
    }
    bias_filler {
      type: "constant"
      value: 0.2
    }
  }
}
layer {
  name: "inception_4d/relu_3x3"
  type: "ReLU"
  bottom: "inception_4d/3x3"
  top: "inception_4d/3x3"
}
layer {
  name: "inception_4d/5x5_reduce"
  type: "Convolution"
  bottom: "inception_4c/output"
  top: "inception_4d/5x5_reduce"
  param {
    lr_mult: 1
    decay_mult: 1
  }
  param {
    lr_mult: 2
    decay_mult: 0
  }
  convolution_param {
    num_output: 32
    kernel_size: 1
    weight_filler {
      type: "xavier"
      std: 0.2
    }
    bias_filler {
      type: "constant"
      value: 0.2
    }
  }
}
layer {
  name: "inception_4d/relu_5x5_reduce"
  type: "ReLU"
  bottom: "inception_4d/5x5_reduce"
  top: "inception_4d/5x5_reduce"
}
layer {
  name: "inception_4d/5x5"
  type: "Convolution"
  bottom: "inception_4d/5x5_reduce"
  top: "inception_4d/5x5"
  param {
    lr_mult: 1
    decay_mult: 1
  }
  param {
    lr_mult: 2
    decay_mult: 0
  }
  convolution_param {
    num_output: 64
    pad: 2
    kernel_size: 5
    weight_filler {
      type: "xavier"
      std: 0.03
    }
    bias_filler {
      type: "constant"
      value: 0.2
    }
  }
}
layer {
  name: "inception_4d/relu_5x5"
  type: "ReLU"
  bottom: "inception_4d/5x5"
  top: "inception_4d/5x5"
}
layer {
  name: "inception_4d/pool"
  type: "Pooling"
  bottom: "inception_4c/output"
  top: "inception_4d/pool"
  pooling_param {
    pool: MAX
    kernel_size: 3
    stride: 1
    pad: 1
  }
}
layer {
  name: "inception_4d/pool_proj"
  type: "Convolution"
  bottom: "inception_4d/pool"
  top: "inception_4d/pool_proj"
  param {
    lr_mult: 1
    decay_mult: 1
  }
  param {
    lr_mult: 2
    decay_mult: 0
  }
  convolution_param {
    num_output: 64
    kernel_size: 1
    weight_filler {
      type: "xavier"
      std: 0.1
    }
    bias_filler {
      type: "constant"
      value: 0.2
    }
  }
}
layer {
  name: "inception_4d/relu_pool_proj"
  type: "ReLU"
  bottom: "inception_4d/pool_proj"
  top: "inception_4d/pool_proj"
}
layer {
  name: "inception_4d/output"
  type: "Concat"
  bottom: "inception_4d/1x1"
  bottom: "inception_4d/3x3"
  bottom: "inception_4d/5x5"
  bottom: "inception_4d/pool_proj"
  top: "inception_4d/output"
}
layer {
  name: "loss2/ave_pool"
  type: "Pooling"
  bottom: "inception_4d/output"
  top: "loss2/ave_pool"
  pooling_param {
    pool: AVE
    kernel_size: 5
    stride: 3
  }
}
layer {
  name: "loss2/conv"
  type: "Convolution"
  bottom: "loss2/ave_pool"
  top: "loss2/conv"
  param {
    lr_mult: 1
    decay_mult: 1
  }
  param {
    lr_mult: 2
    decay_mult: 0
  }
  convolution_param {
    num_output: 128
    kernel_size: 1
    weight_filler {
      type: "xavier"
      std: 0.08
    }
    bias_filler {
      type: "constant"
      value: 0.2
    }
  }
}
layer {
  name: "loss2/relu_conv"
  type: "ReLU"
  bottom: "loss2/conv"
  top: "loss2/conv"
}
layer {
  name: "loss2/fc"
  type: "InnerProduct"
  bottom: "loss2/conv"
  top: "loss2/fc"
  param {
    lr_mult: 1
    decay_mult: 1
  }
  param {
    lr_mult: 2
    decay_mult: 0
  }
  inner_product_param {
    num_output: 1024
    weight_filler {
      type: "xavier"
      std: 0.02
    }
    bias_filler {
      type: "constant"
      value: 0.2
    }
  }
}
layer {
  name: "loss2/relu_fc"
  type: "ReLU"
  bottom: "loss2/fc"
  top: "loss2/fc"
}
layer {
  name: "loss2/drop_fc"
  type: "Dropout"
  bottom: "loss2/fc"
  top: "loss2/fc"
  dropout_param {
    dropout_ratio: 0.7
  }
}
layer {
  name: "loss2/classifier_plantvillage"
  type: "InnerProduct"
  bottom: "loss2/fc"
  top: "loss2/classifier_plantvillage"
  param {
    lr_mult: 1
    decay_mult: 1
  }
  param {
    lr_mult: 2
    decay_mult: 0
  }
  inner_product_param {
    num_output: 38
    weight_filler {
      type: "xavier"
      std: 0.0009765625
    }
    bias_filler {
      type: "constant"
      value: 0
    }
  }
}
layer {
  name: "inception_4e/1x1"
  type: "Convolution"
  bottom: "inception_4d/output"
  top: "inception_4e/1x1"
  param {
    lr_mult: 1
    decay_mult: 1
  }
  param {
    lr_mult: 2
    decay_mult: 0
  }
  convolution_param {
    num_output: 256
    kernel_size: 1
    weight_filler {
      type: "xavier"
      std: 0.03
    }
    bias_filler {
      type: "constant"
      value: 0.2
    }
  }
}
layer {
  name: "inception_4e/relu_1x1"
  type: "ReLU"
  bottom: "inception_4e/1x1"
  top: "inception_4e/1x1"
}
layer {
  name: "inception_4e/3x3_reduce"
  type: "Convolution"
  bottom: "inception_4d/output"
  top: "inception_4e/3x3_reduce"
  param {
    lr_mult: 1
    decay_mult: 1
  }
  param {
    lr_mult: 2
    decay_mult: 0
  }
  convolution_param {
    num_output: 160
    kernel_size: 1
    weight_filler {
      type: "xavier"
      std: 0.09
    }
    bias_filler {
      type: "constant"
      value: 0.2
    }
  }
}
layer {
  name: "inception_4e/relu_3x3_reduce"
  type: "ReLU"
  bottom: "inception_4e/3x3_reduce"
  top: "inception_4e/3x3_reduce"
}
layer {
  name: "inception_4e/3x3"
  type: "Convolution"
  bottom: "inception_4e/3x3_reduce"
  top: "inception_4e/3x3"
  param {
    lr_mult: 1
    decay_mult: 1
  }
  param {
    lr_mult: 2
    decay_mult: 0
  }
  convolution_param {
    num_output: 320
    pad: 1
    kernel_size: 3
    weight_filler {
      type: "xavier"
      std: 0.03
    }
    bias_filler {
      type: "constant"
      value: 0.2
    }
  }
}
layer {
  name: "inception_4e/relu_3x3"
  type: "ReLU"
  bottom: "inception_4e/3x3"
  top: "inception_4e/3x3"
}
layer {
  name: "inception_4e/5x5_reduce"
  type: "Convolution"
  bottom: "inception_4d/output"
  top: "inception_4e/5x5_reduce"
  param {
    lr_mult: 1
    decay_mult: 1
  }
  param {
    lr_mult: 2
    decay_mult: 0
  }
  convolution_param {
    num_output: 32
    kernel_size: 1
    weight_filler {
      type: "xavier"
      std: 0.2
    }
    bias_filler {
      type: "constant"
      value: 0.2
    }
  }
}
layer {
  name: "inception_4e/relu_5x5_reduce"
  type: "ReLU"
  bottom: "inception_4e/5x5_reduce"
  top: "inception_4e/5x5_reduce"
}
layer {
  name: "inception_4e/5x5"
  type: "Convolution"
  bottom: "inception_4e/5x5_reduce"
  top: "inception_4e/
I0403 14:53:47.703671 11259 layer_factory.hpp:77] Creating layer data
I0403 14:53:47.704298 11259 net.cpp:91] Creating Layer data
I0403 14:53:47.704334 11259 net.cpp:399] data -> data
I0403 14:53:47.704387 11259 net.cpp:399] data -> label
I0403 14:53:47.704427 11259 data_transformer.cpp:25] Loading mean file from: /home/mohanty/data/final_dataset/lmdb/grayscale-60-40/mean.binaryproto
I0403 14:53:47.707248 11262 db_lmdb.cpp:38] Opened lmdb /home/mohanty/data/final_dataset/lmdb/grayscale-60-40/test_db
I0403 14:53:47.717994 11259 data_layer.cpp:41] output data size: 24,3,224,224
I0403 14:53:47.745860 11259 net.cpp:141] Setting up data
I0403 14:53:47.745950 11259 net.cpp:148] Top shape: 24 3 224 224 (3612672)
I0403 14:53:47.745975 11259 net.cpp:148] Top shape: 24 (24)
I0403 14:53:47.745991 11259 net.cpp:156] Memory required for data: 14450784
I0403 14:53:47.746021 11259 layer_factory.hpp:77] Creating layer label_data_1_split
I0403 14:53:47.746047 11259 net.cpp:91] Creating Layer label_data_1_split
I0403 14:53:47.746065 11259 net.cpp:425] label_data_1_split <- label
I0403 14:53:47.746099 11259 net.cpp:399] label_data_1_split -> label_data_1_split_0
I0403 14:53:47.746132 11259 net.cpp:399] label_data_1_split -> label_data_1_split_1
I0403 14:53:47.746156 11259 net.cpp:399] label_data_1_split -> label_data_1_split_2
I0403 14:53:47.746178 11259 net.cpp:399] label_data_1_split -> label_data_1_split_3
I0403 14:53:47.746199 11259 net.cpp:399] label_data_1_split -> label_data_1_split_4
I0403 14:53:47.746220 11259 net.cpp:399] label_data_1_split -> label_data_1_split_5
I0403 14:53:47.746240 11259 net.cpp:399] label_data_1_split -> label_data_1_split_6
I0403 14:53:47.746260 11259 net.cpp:399] label_data_1_split -> label_data_1_split_7
I0403 14:53:47.746280 11259 net.cpp:399] label_data_1_split -> label_data_1_split_8
I0403 14:53:47.746300 11259 net.cpp:399] label_data_1_split -> label_data_1_split_9
I0403 14:53:47.746420 11259 net.cpp:141] Setting up label_data_1_split
I0403 14:53:47.746445 11259 net.cpp:148] Top shape: 24 (24)
I0403 14:53:47.746464 11259 net.cpp:148] Top shape: 24 (24)
I0403 14:53:47.746480 11259 net.cpp:148] Top shape: 24 (24)
I0403 14:53:47.746496 11259 net.cpp:148] Top shape: 24 (24)
I0403 14:53:47.746512 11259 net.cpp:148] Top shape: 24 (24)
I0403 14:53:47.746527 11259 net.cpp:148] Top shape: 24 (24)
I0403 14:53:47.746543 11259 net.cpp:148] Top shape: 24 (24)
I0403 14:53:47.746559 11259 net.cpp:148] Top shape: 24 (24)
I0403 14:53:47.746575 11259 net.cpp:148] Top shape: 24 (24)
I0403 14:53:47.746592 11259 net.cpp:148] Top shape: 24 (24)
I0403 14:53:47.746639 11259 net.cpp:156] Memory required for data: 14451744
I0403 14:53:47.746655 11259 layer_factory.hpp:77] Creating layer conv1/7x7_s2
I0403 14:53:47.746688 11259 net.cpp:91] Creating Layer conv1/7x7_s2
I0403 14:53:47.746707 11259 net.cpp:425] conv1/7x7_s2 <- data
I0403 14:53:47.746728 11259 net.cpp:399] conv1/7x7_s2 -> conv1/7x7_s2
I0403 14:53:47.889267 11259 net.cpp:141] Setting up conv1/7x7_s2
I0403 14:53:47.889358 11259 net.cpp:148] Top shape: 24 64 112 112 (19267584)
I0403 14:53:47.889376 11259 net.cpp:156] Memory required for data: 91522080
I0403 14:53:47.889407 11259 layer_factory.hpp:77] Creating layer conv1/relu_7x7
I0403 14:53:47.889436 11259 net.cpp:91] Creating Layer conv1/relu_7x7
I0403 14:53:47.889456 11259 net.cpp:425] conv1/relu_7x7 <- conv1/7x7_s2
I0403 14:53:47.889474 11259 net.cpp:386] conv1/relu_7x7 -> conv1/7x7_s2 (in-place)
I0403 14:53:47.889780 11259 net.cpp:141] Setting up conv1/relu_7x7
I0403 14:53:47.889809 11259 net.cpp:148] Top shape: 24 64 112 112 (19267584)
I0403 14:53:47.889824 11259 net.cpp:156] Memory required for data: 168592416
I0403 14:53:47.889840 11259 layer_factory.hpp:77] Creating layer pool1/3x3_s2
I0403 14:53:47.889865 11259 net.cpp:91] Creating Layer pool1/3x3_s2
I0403 14:53:47.889884 11259 net.cpp:425] pool1/3x3_s2 <- conv1/7x7_s2
I0403 14:53:47.889904 11259 net.cpp:399] pool1/3x3_s2 -> pool1/3x3_s2
I0403 14:53:47.889978 11259 net.cpp:141] Setting up pool1/3x3_s2
I0403 14:53:47.890003 11259 net.cpp:148] Top shape: 24 64 56 56 (4816896)
I0403 14:53:47.890018 11259 net.cpp:156] Memory required for data: 187860000
I0403 14:53:47.890033 11259 layer_factory.hpp:77] Creating layer pool1/norm1
I0403 14:53:47.890058 11259 net.cpp:91] Creating Layer pool1/norm1
I0403 14:53:47.890076 11259 net.cpp:425] pool1/norm1 <- pool1/3x3_s2
I0403 14:53:47.890100 11259 net.cpp:399] pool1/norm1 -> pool1/norm1
I0403 14:53:47.890391 11259 net.cpp:141] Setting up pool1/norm1
I0403 14:53:47.890419 11259 net.cpp:148] Top shape: 24 64 56 56 (4816896)
I0403 14:53:47.890436 11259 net.cpp:156] Memory required for data: 207127584
I0403 14:53:47.890451 11259 layer_factory.hpp:77] Creating layer conv2/3x3_reduce
I0403 14:53:47.890476 11259 net.cpp:91] Creating Layer conv2/3x3_reduce
I0403 14:53:47.890493 11259 net.cpp:425] conv2/3x3_reduce <- pool1/norm1
I0403 14:53:47.890512 11259 net.cpp:399] conv2/3x3_reduce -> conv2/3x3_reduce
I0403 14:53:47.891892 11259 net.cpp:141] Setting up conv2/3x3_reduce
I0403 14:53:47.891923 11259 net.cpp:148] Top shape: 24 64 56 56 (4816896)
I0403 14:53:47.891939 11259 net.cpp:156] Memory required for data: 226395168
I0403 14:53:47.891960 11259 layer_factory.hpp:77] Creating layer conv2/relu_3x3_reduce
I0403 14:53:47.891980 11259 net.cpp:91] Creating Layer conv2/relu_3x3_reduce
I0403 14:53:47.891996 11259 net.cpp:425] conv2/relu_3x3_reduce <- conv2/3x3_reduce
I0403 14:53:47.892014 11259 net.cpp:386] conv2/relu_3x3_reduce -> conv2/3x3_reduce (in-place)
I0403 14:53:47.892304 11259 net.cpp:141] Setting up conv2/relu_3x3_reduce
I0403 14:53:47.892333 11259 net.cpp:148] Top shape: 24 64 56 56 (4816896)
I0403 14:53:47.892349 11259 net.cpp:156] Memory required for data: 245662752
I0403 14:53:47.892365 11259 layer_factory.hpp:77] Creating layer conv2/3x3
I0403 14:53:47.892388 11259 net.cpp:91] Creating Layer conv2/3x3
I0403 14:53:47.892407 11259 net.cpp:425] conv2/3x3 <- conv2/3x3_reduce
I0403 14:53:47.892427 11259 net.cpp:399] conv2/3x3 -> conv2/3x3
I0403 14:53:47.894814 11259 net.cpp:141] Setting up conv2/3x3
I0403 14:53:47.894846 11259 net.cpp:148] Top shape: 24 192 56 56 (14450688)
I0403 14:53:47.894863 11259 net.cpp:156] Memory required for data: 303465504
I0403 14:53:47.894886 11259 layer_factory.hpp:77] Creating layer conv2/relu_3x3
I0403 14:53:47.894906 11259 net.cpp:91] Creating Layer conv2/relu_3x3
I0403 14:53:47.894922 11259 net.cpp:425] conv2/relu_3x3 <- conv2/3x3
I0403 14:53:47.894942 11259 net.cpp:386] conv2/relu_3x3 -> conv2/3x3 (in-place)
I0403 14:53:47.895140 11259 net.cpp:141] Setting up conv2/relu_3x3
I0403 14:53:47.895169 11259 net.cpp:148] Top shape: 24 192 56 56 (14450688)
I0403 14:53:47.895215 11259 net.cpp:156] Memory required for data: 361268256
I0403 14:53:47.895231 11259 layer_factory.hpp:77] Creating layer conv2/norm2
I0403 14:53:47.895251 11259 net.cpp:91] Creating Layer conv2/norm2
I0403 14:53:47.895267 11259 net.cpp:425] conv2/norm2 <- conv2/3x3
I0403 14:53:47.895284 11259 net.cpp:399] conv2/norm2 -> conv2/norm2
I0403 14:53:47.895576 11259 net.cpp:141] Setting up conv2/norm2
I0403 14:53:47.895606 11259 net.cpp:148] Top shape: 24 192 56 56 (14450688)
I0403 14:53:47.895622 11259 net.cpp:156] Memory required for data: 419071008
I0403 14:53:47.895637 11259 layer_factory.hpp:77] Creating layer pool2/3x3_s2
I0403 14:53:47.895655 11259 net.cpp:91] Creating Layer pool2/3x3_s2
I0403 14:53:47.895671 11259 net.cpp:425] pool2/3x3_s2 <- conv2/norm2
I0403 14:53:47.895689 11259 net.cpp:399] pool2/3x3_s2 -> pool2/3x3_s2
I0403 14:53:47.895740 11259 net.cpp:141] Setting up pool2/3x3_s2
I0403 14:53:47.895763 11259 net.cpp:148] Top shape: 24 192 28 28 (3612672)
I0403 14:53:47.895778 11259 net.cpp:156] Memory required for data: 433521696
I0403 14:53:47.895794 11259 layer_factory.hpp:77] Creating layer pool2/3x3_s2_pool2/3x3_s2_0_split
I0403 14:53:47.895812 11259 net.cpp:91] Creating Layer pool2/3x3_s2_pool2/3x3_s2_0_split
I0403 14:53:47.895828 11259 net.cpp:425] pool2/3x3_s2_pool2/3x3_s2_0_split <- pool2/3x3_s2
I0403 14:53:47.895844 11259 net.cpp:399] pool2/3x3_s2_pool2/3x3_s2_0_split -> pool2/3x3_s2_pool2/3x3_s2_0_split_0
I0403 14:53:47.895864 11259 net.cpp:399] pool2/3x3_s2_pool2/3x3_s2_0_split -> pool2/3x3_s2_pool2/3x3_s2_0_split_1
I0403 14:53:47.895884 11259 net.cpp:399] pool2/3x3_s2_pool2/3x3_s2_0_split -> pool2/3x3_s2_pool2/3x3_s2_0_split_2
I0403 14:53:47.895905 11259 net.cpp:399] pool2/3x3_s2_pool2/3x3_s2_0_split -> pool2/3x3_s2_pool2/3x3_s2_0_split_3
I0403 14:53:47.895969 11259 net.cpp:141] Setting up pool2/3x3_s2_pool2/3x3_s2_0_split
I0403 14:53:47.895994 11259 net.cpp:148] Top shape: 24 192 28 28 (3612672)
I0403 14:53:47.896011 11259 net.cpp:148] Top shape: 24 192 28 28 (3612672)
I0403 14:53:47.896028 11259 net.cpp:148] Top shape: 24 192 28 28 (3612672)
I0403 14:53:47.896042 11259 net.cpp:148] Top shape: 24 192 28 28 (3612672)
I0403 14:53:47.896056 11259 net.cpp:156] Memory required for data: 491324448
I0403 14:53:47.896071 11259 layer_factory.hpp:77] Creating layer inception_3a/1x1
I0403 14:53:47.896100 11259 net.cpp:91] Creating Layer inception_3a/1x1
I0403 14:53:47.896118 11259 net.cpp:425] inception_3a/1x1 <- pool2/3x3_s2_pool2/3x3_s2_0_split_0
I0403 14:53:47.896138 11259 net.cpp:399] inception_3a/1x1 -> inception_3a/1x1
I0403 14:53:47.897747 11259 net.cpp:141] Setting up inception_3a/1x1
I0403 14:53:47.897779 11259 net.cpp:148] Top shape: 24 64 28 28 (1204224)
I0403 14:53:47.897799 11259 net.cpp:156] Memory required for data: 496141344
I0403 14:53:47.897817 11259 layer_factory.hpp:77] Creating layer inception_3a/relu_1x1
I0403 14:53:47.897836 11259 net.cpp:91] Creating Layer inception_3a/relu_1x1
I0403 14:53:47.897853 11259 net.cpp:425] inception_3a/relu_1x1 <- inception_3a/1x1
I0403 14:53:47.897871 11259 net.cpp:386] inception_3a/relu_1x1 -> inception_3a/1x1 (in-place)
I0403 14:53:47.898053 11259 net.cpp:141] Setting up inception_3a/relu_1x1
I0403 14:53:47.898079 11259 net.cpp:148] Top shape: 24 64 28 28 (1204224)
I0403 14:53:47.898102 11259 net.cpp:156] Memory required for data: 500958240
I0403 14:53:47.898119 11259 layer_factory.hpp:77] Creating layer inception_3a/3x3_reduce
I0403 14:53:47.898143 11259 net.cpp:91] Creating Layer inception_3a/3x3_reduce
I0403 14:53:47.898160 11259 net.cpp:425] inception_3a/3x3_reduce <- pool2/3x3_s2_pool2/3x3_s2_0_split_1
I0403 14:53:47.898181 11259 net.cpp:399] inception_3a/3x3_reduce -> inception_3a/3x3_reduce
I0403 14:53:47.899945 11259 net.cpp:141] Setting up inception_3a/3x3_reduce
I0403 14:53:47.899981 11259 net.cpp:148] Top shape: 24 96 28 28 (1806336)
I0403 14:53:47.899999 11259 net.cpp:156] Memory required for data: 508183584
I0403 14:53:47.900022 11259 layer_factory.hpp:77] Creating layer inception_3a/relu_3x3_reduce
I0403 14:53:47.900061 11259 net.cpp:91] Creating Layer inception_3a/relu_3x3_reduce
I0403 14:53:47.900080 11259 net.cpp:425] inception_3a/relu_3x3_reduce <- inception_3a/3x3_reduce
I0403 14:53:47.900105 11259 net.cpp:386] inception_3a/relu_3x3_reduce -> inception_3a/3x3_reduce (in-place)
I0403 14:53:47.900310 11259 net.cpp:141] Setting up inception_3a/relu_3x3_reduce
I0403 14:53:47.900337 11259 net.cpp:148] Top shape: 24 96 28 28 (1806336)
I0403 14:53:47.900353 11259 net.cpp:156] Memory required for data: 515408928
I0403 14:53:47.900369 11259 layer_factory.hpp:77] Creating layer inception_3a/3x3
I0403 14:53:47.900394 11259 net.cpp:91] Creating Layer inception_3a/3x3
I0403 14:53:47.900413 11259 net.cpp:425] inception_3a/3x3 <- inception_3a/3x3_reduce
I0403 14:53:47.900432 11259 net.cpp:399] inception_3a/3x3 -> inception_3a/3x3
I0403 14:53:47.902148 11259 net.cpp:141] Setting up inception_3a/3x3
I0403 14:53:47.902178 11259 net.cpp:148] Top shape: 24 128 28 28 (2408448)
I0403 14:53:47.902194 11259 net.cpp:156] Memory required for data: 525042720
I0403 14:53:47.902214 11259 layer_factory.hpp:77] Creating layer inception_3a/relu_3x3
I0403 14:53:47.902231 11259 net.cpp:91] Creating Layer inception_3a/relu_3x3
I0403 14:53:47.902247 11259 net.cpp:425] inception_3a/relu_3x3 <- inception_3a/3x3
I0403 14:53:47.902267 11259 net.cpp:386] inception_3a/relu_3x3 -> inception_3a/3x3 (in-place)
I0403 14:53:47.902546 11259 net.cpp:141] Setting up inception_3a/relu_3x3
I0403 14:53:47.902575 11259 net.cpp:148] Top shape: 24 128 28 28 (2408448)
I0403 14:53:47.902590 11259 net.cpp:156] Memory required for data: 534676512
I0403 14:53:47.902606 11259 layer_factory.hpp:77] Creating layer inception_3a/5x5_reduce
I0403 14:53:47.902628 11259 net.cpp:91] Creating Layer inception_3a/5x5_reduce
I0403 14:53:47.902645 11259 net.cpp:425] inception_3a/5x5_reduce <- pool2/3x3_s2_pool2/3x3_s2_0_split_2
I0403 14:53:47.902667 11259 net.cpp:399] inception_3a/5x5_reduce -> inception_3a/5x5_reduce
I0403 14:53:47.903652 11259 net.cpp:141] Setting up inception_3a/5x5_reduce
I0403 14:53:47.903682 11259 net.cpp:148] Top shape: 24 16 28 28 (301056)
I0403 14:53:47.903698 11259 net.cpp:156] Memory required for data: 535880736
I0403 14:53:47.903717 11259 layer_factory.hpp:77] Creating layer inception_3a/relu_5x5_reduce
I0403 14:53:47.903735 11259 net.cpp:91] Creating Layer inception_3a/relu_5x5_reduce
I0403 14:53:47.903750 11259 net.cpp:425] inception_3a/relu_5x5_reduce <- inception_3a/5x5_reduce
I0403 14:53:47.903770 11259 net.cpp:386] inception_3a/relu_5x5_reduce -> inception_3a/5x5_reduce (in-place)
I0403 14:53:47.904074 11259 net.cpp:141] Setting up inception_3a/relu_5x5_reduce
I0403 14:53:47.904108 11259 net.cpp:148] Top shape: 24 16 28 28 (301056)
I0403 14:53:47.904124 11259 net.cpp:156] Memory required for data: 537084960
I0403 14:53:47.904140 11259 layer_factory.hpp:77] Creating layer inception_3a/5x5
I0403 14:53:47.904163 11259 net.cpp:91] Creating Layer inception_3a/5x5
I0403 14:53:47.904181 11259 net.cpp:425] inception_3a/5x5 <- inception_3a/5x5_reduce
I0403 14:53:47.904203 11259 net.cpp:399] inception_3a/5x5 -> inception_3a/5x5
I0403 14:53:47.905254 11259 net.cpp:141] Setting up inception_3a/5x5
I0403 14:53:47.905288 11259 net.cpp:148] Top shape: 24 32 28 28 (602112)
I0403 14:53:47.905305 11259 net.cpp:156] Memory required for data: 539493408
I0403 14:53:47.905325 11259 layer_factory.hpp:77] Creating layer inception_3a/relu_5x5
I0403 14:53:47.905344 11259 net.cpp:91] Creating Layer inception_3a/relu_5x5
I0403 14:53:47.905361 11259 net.cpp:425] inception_3a/relu_5x5 <- inception_3a/5x5
I0403 14:53:47.905381 11259 net.cpp:386] inception_3a/relu_5x5 -> inception_3a/5x5 (in-place)
I0403 14:53:47.905575 11259 net.cpp:141] Setting up inception_3a/relu_5x5
I0403 14:53:47.905601 11259 net.cpp:148] Top shape: 24 32 28 28 (602112)
I0403 14:53:47.905616 11259 net.cpp:156] Memory required for data: 541901856
I0403 14:53:47.905630 11259 layer_factory.hpp:77] Creating layer inception_3a/pool
I0403 14:53:47.905648 11259 net.cpp:91] Creating Layer inception_3a/pool
I0403 14:53:47.905679 11259 net.cpp:425] inception_3a/pool <- pool2/3x3_s2_pool2/3x3_s2_0_split_3
I0403 14:53:47.905702 11259 net.cpp:399] inception_3a/pool -> inception_3a/pool
I0403 14:53:47.905762 11259 net.cpp:141] Setting up inception_3a/pool
I0403 14:53:47.905786 11259 net.cpp:148] Top shape: 24 192 28 28 (3612672)
I0403 14:53:47.905802 11259 net.cpp:156] Memory required for data: 556352544
I0403 14:53:47.905817 11259 layer_factory.hpp:77] Creating layer inception_3a/pool_proj
I0403 14:53:47.905839 11259 net.cpp:91] Creating Layer inception_3a/pool_proj
I0403 14:53:47.905858 11259 net.cpp:425] inception_3a/pool_proj <- inception_3a/pool
I0403 14:53:47.905880 11259 net.cpp:399] inception_3a/pool_proj -> inception_3a/pool_proj
I0403 14:53:47.906884 11259 net.cpp:141] Setting up inception_3a/pool_proj
I0403 14:53:47.906914 11259 net.cpp:148] Top shape: 24 32 28 28 (602112)
I0403 14:53:47.906929 11259 net.cpp:156] Memory required for data: 558760992
I0403 14:53:47.906955 11259 layer_factory.hpp:77] Creating layer inception_3a/relu_pool_proj
I0403 14:53:47.906975 11259 net.cpp:91] Creating Layer inception_3a/relu_pool_proj
I0403 14:53:47.906991 11259 net.cpp:425] inception_3a/relu_pool_proj <- inception_3a/pool_proj
I0403 14:53:47.907011 11259 net.cpp:386] inception_3a/relu_pool_proj -> inception_3a/pool_proj (in-place)
I0403 14:53:47.907299 11259 net.cpp:141] Setting up inception_3a/relu_pool_proj
I0403 14:53:47.907326 11259 net.cpp:148] Top shape: 24 32 28 28 (602112)
I0403 14:53:47.907341 11259 net.cpp:156] Memory required for data: 561169440
I0403 14:53:47.907357 11259 layer_factory.hpp:77] Creating layer inception_3a/output
I0403 14:53:47.907377 11259 net.cpp:91] Creating Layer inception_3a/output
I0403 14:53:47.907392 11259 net.cpp:425] inception_3a/output <- inception_3a/1x1
I0403 14:53:47.907408 11259 net.cpp:425] inception_3a/output <- inception_3a/3x3
I0403 14:53:47.907425 11259 net.cpp:425] inception_3a/output <- inception_3a/5x5
I0403 14:53:47.907440 11259 net.cpp:425] inception_3a/output <- inception_3a/pool_proj
I0403 14:53:47.907460 11259 net.cpp:399] inception_3a/output -> inception_3a/output
I0403 14:53:47.907508 11259 net.cpp:141] Setting up inception_3a/output
I0403 14:53:47.907536 11259 net.cpp:148] Top shape: 24 256 28 28 (4816896)
I0403 14:53:47.907552 11259 net.cpp:156] Memory required for data: 580437024
I0403 14:53:47.907565 11259 layer_factory.hpp:77] Creating layer inception_3a/output_inception_3a/output_0_split
I0403 14:53:47.907583 11259 net.cpp:91] Creating Layer inception_3a/output_inception_3a/output_0_split
I0403 14:53:47.907598 11259 net.cpp:425] inception_3a/output_inception_3a/output_0_split <- inception_3a/output
I0403 14:53:47.907616 11259 net.cpp:399] inception_3a/output_inception_3a/output_0_split -> inception_3a/output_inception_3a/output_0_split_0
I0403 14:53:47.907636 11259 net.cpp:399] inception_3a/output_inception_3a/output_0_split -> inception_3a/output_inception_3a/output_0_split_1
I0403 14:53:47.907661 11259 net.cpp:399] inception_3a/output_inception_3a/output_0_split -> inception_3a/output_inception_3a/output_0_split_2
I0403 14:53:47.907683 11259 net.cpp:399] inception_3a/output_inception_3a/output_0_split -> inception_3a/output_inception_3a/output_0_split_3
I0403 14:53:47.907763 11259 net.cpp:141] Setting up inception_3a/output_inception_3a/output_0_split
I0403 14:53:47.907790 11259 net.cpp:148] Top shape: 24 256 28 28 (4816896)
I0403 14:53:47.907807 11259 net.cpp:148] Top shape: 24 256 28 28 (4816896)
I0403 14:53:47.907824 11259 net.cpp:148] Top shape: 24 256 28 28 (4816896)
I0403 14:53:47.907840 11259 net.cpp:148] Top shape: 24 256 28 28 (4816896)
I0403 14:53:47.907853 11259 net.cpp:156] Memory required for data: 657507360
I0403 14:53:47.907868 11259 layer_factory.hpp:77] Creating layer inception_3b/1x1
I0403 14:53:47.907891 11259 net.cpp:91] Creating Layer inception_3b/1x1
I0403 14:53:47.907909 11259 net.cpp:425] inception_3b/1x1 <- inception_3a/output_inception_3a/output_0_split_0
I0403 14:53:47.907928 11259 net.cpp:399] inception_3b/1x1 -> inception_3b/1x1
I0403 14:53:47.909138 11259 net.cpp:141] Setting up inception_3b/1x1
I0403 14:53:47.909179 11259 net.cpp:148] Top shape: 24 128 28 28 (2408448)
I0403 14:53:47.909196 11259 net.cpp:156] Memory required for data: 667141152
I0403 14:53:47.909214 11259 layer_factory.hpp:77] Creating layer inception_3b/relu_1x1
I0403 14:53:47.909235 11259 net.cpp:91] Creating Layer inception_3b/relu_1x1
I0403 14:53:47.909252 11259 net.cpp:425] inception_3b/relu_1x1 <- inception_3b/1x1
I0403 14:53:47.909271 11259 net.cpp:386] inception_3b/relu_1x1 -> inception_3b/1x1 (in-place)
I0403 14:53:47.909454 11259 net.cpp:141] Setting up inception_3b/relu_1x1
I0403 14:53:47.909481 11259 net.cpp:148] Top shape: 24 128 28 28 (2408448)
I0403 14:53:47.909497 11259 net.cpp:156] Memory required for data: 676774944
I0403 14:53:47.909512 11259 layer_factory.hpp:77] Creating layer inception_3b/3x3_reduce
I0403 14:53:47.909533 11259 net.cpp:91] Creating Layer inception_3b/3x3_reduce
I0403 14:53:47.909553 11259 net.cpp:425] inception_3b/3x3_reduce <- inception_3a/output_inception_3a/output_0_split_1
I0403 14:53:47.909574 11259 net.cpp:399] inception_3b/3x3_reduce -> inception_3b/3x3_reduce
I0403 14:53:47.910763 11259 net.cpp:141] Setting up inception_3b/3x3_reduce
I0403 14:53:47.910796 11259 net.cpp:148] Top shape: 24 128 28 28 (2408448)
I0403 14:53:47.910815 11259 net.cpp:156] Memory required for data: 686408736
I0403 14:53:47.910832 11259 layer_factory.hpp:77] Creating layer inception_3b/relu_3x3_reduce
I0403 14:53:47.910851 11259 net.cpp:91] Creating Layer inception_3b/relu_3x3_reduce
I0403 14:53:47.910867 11259 net.cpp:425] inception_3b/relu_3x3_reduce <- inception_3b/3x3_reduce
I0403 14:53:47.910886 11259 net.cpp:386] inception_3b/relu_3x3_reduce -> inception_3b/3x3_reduce (in-place)
I0403 14:53:47.911064 11259 net.cpp:141] Setting up inception_3b/relu_3x3_reduce
I0403 14:53:47.911113 11259 net.cpp:148] Top shape: 24 128 28 28 (2408448)
I0403 14:53:47.911131 11259 net.cpp:156] Memory required for data: 696042528
I0403 14:53:47.911146 11259 layer_factory.hpp:77] Creating layer inception_3b/3x3
I0403 14:53:47.911171 11259 net.cpp:91] Creating Layer inception_3b/3x3
I0403 14:53:47.911192 11259 net.cpp:425] inception_3b/3x3 <- inception_3b/3x3_reduce
I0403 14:53:47.911216 11259 net.cpp:399] inception_3b/3x3 -> inception_3b/3x3
I0403 14:53:47.914276 11259 net.cpp:141] Setting up inception_3b/3x3
I0403 14:53:47.914306 11259 net.cpp:148] Top shape: 24 192 28 28 (3612672)
I0403 14:53:47.914324 11259 net.cpp:156] Memory required for data: 710493216
I0403 14:53:47.914343 11259 layer_factory.hpp:77] Creating layer inception_3b/relu_3x3
I0403 14:53:47.914361 11259 net.cpp:91] Creating Layer inception_3b/relu_3x3
I0403 14:53:47.914377 11259 net.cpp:425] inception_3b/relu_3x3 <- inception_3b/3x3
I0403 14:53:47.914397 11259 net.cpp:386] inception_3b/relu_3x3 -> inception_3b/3x3 (in-place)
I0403 14:53:47.914696 11259 net.cpp:141] Setting up inception_3b/relu_3x3
I0403 14:53:47.914726 11259 net.cpp:148] Top shape: 24 192 28 28 (3612672)
I0403 14:53:47.914741 11259 net.cpp:156] Memory required for data: 724943904
I0403 14:53:47.914757 11259 layer_factory.hpp:77] Creating layer inception_3b/5x5_reduce
I0403 14:53:47.914780 11259 net.cpp:91] Creating Layer inception_3b/5x5_reduce
I0403 14:53:47.914800 11259 net.cpp:425] inception_3b/5x5_reduce <- inception_3a/output_inception_3a/output_0_split_2
I0403 14:53:47.914824 11259 net.cpp:399] inception_3b/5x5_reduce -> inception_3b/5x5_reduce
I0403 14:53:47.915881 11259 net.cpp:141] Setting up inception_3b/5x5_reduce
I0403 14:53:47.915912 11259 net.cpp:148] Top shape: 24 32 28 28 (602112)
I0403 14:53:47.915927 11259 net.cpp:156] Memory required for data: 727352352
I0403 14:53:47.915946 11259 layer_factory.hpp:77] Creating layer inception_3b/relu_5x5_reduce
I0403 14:53:47.915964 11259 net.cpp:91] Creating Layer inception_3b/relu_5x5_reduce
I0403 14:53:47.915982 11259 net.cpp:425] inception_3b/relu_5x5_reduce <- inception_3b/5x5_reduce
I0403 14:53:47.916002 11259 net.cpp:386] inception_3b/relu_5x5_reduce -> inception_3b/5x5_reduce (in-place)
I0403 14:53:47.916221 11259 net.cpp:141] Setting up inception_3b/relu_5x5_reduce
I0403 14:53:47.916249 11259 net.cpp:148] Top shape: 24 32 28 28 (602112)
I0403 14:53:47.916265 11259 net.cpp:156] Memory required for data: 729760800
I0403 14:53:47.916278 11259 layer_factory.hpp:77] Creating layer inception_3b/5x5
I0403 14:53:47.916301 11259 net.cpp:91] Creating Layer inception_3b/5x5
I0403 14:53:47.916319 11259 net.cpp:425] inception_3b/5x5 <- inception_3b/5x5_reduce
I0403 14:53:47.916342 11259 net.cpp:399] inception_3b/5x5 -> inception_3b/5x5
I0403 14:53:47.918361 11259 net.cpp:141] Setting up inception_3b/5x5
I0403 14:53:47.918395 11259 net.cpp:148] Top shape: 24 96 28 28 (1806336)
I0403 14:53:47.918411 11259 net.cpp:156] Memory required for data: 736986144
I0403 14:53:47.918431 11259 layer_factory.hpp:77] Creating layer inception_3b/relu_5x5
I0403 14:53:47.918449 11259 net.cpp:91] Creating Layer inception_3b/relu_5x5
I0403 14:53:47.918465 11259 net.cpp:425] inception_3b/relu_5x5 <- inception_3b/5x5
I0403 14:53:47.918483 11259 net.cpp:386] inception_3b/relu_5x5 -> inception_3b/5x5 (in-place)
I0403 14:53:47.918680 11259 net.cpp:141] Setting up inception_3b/relu_5x5
I0403 14:53:47.918707 11259 net.cpp:148] Top shape: 24 96 28 28 (1806336)
I0403 14:53:47.918722 11259 net.cpp:156] Memory required for data: 744211488
I0403 14:53:47.918737 11259 layer_factory.hpp:77] Creating layer inception_3b/pool
I0403 14:53:47.918756 11259 net.cpp:91] Creating Layer inception_3b/pool
I0403 14:53:47.918772 11259 net.cpp:425] inception_3b/pool <- inception_3a/output_inception_3a/output_0_split_3
I0403 14:53:47.918792 11259 net.cpp:399] inception_3b/pool -> inception_3b/pool
I0403 14:53:47.918848 11259 net.cpp:141] Setting up inception_3b/pool
I0403 14:53:47.918874 11259 net.cpp:148] Top shape: 24 256 28 28 (4816896)
I0403 14:53:47.918890 11259 net.cpp:156] Memory required for data: 763479072
I0403 14:53:47.918905 11259 layer_factory.hpp:77] Creating layer inception_3b/pool_proj
I0403 14:53:47.918926 11259 net.cpp:91] Creating Layer inception_3b/pool_proj
I0403 14:53:47.918942 11259 net.cpp:425] inception_3b/pool_proj <- inception_3b/pool
I0403 14:53:47.918963 11259 net.cpp:399] inception_3b/pool_proj -> inception_3b/pool_proj
I0403 14:53:47.920048 11259 net.cpp:141] Setting up inception_3b/pool_proj
I0403 14:53:47.920078 11259 net.cpp:148] Top shape: 24 64 28 28 (1204224)
I0403 14:53:47.920107 11259 net.cpp:156] Memory required for data: 768295968
I0403 14:53:47.920127 11259 layer_factory.hpp:77] Creating layer inception_3b/relu_pool_proj
I0403 14:53:47.920148 11259 net.cpp:91] Creating Layer inception_3b/relu_pool_proj
I0403 14:53:47.920178 11259 net.cpp:425] inception_3b/relu_pool_proj <- inception_3b/pool_proj
I0403 14:53:47.920197 11259 net.cpp:386] inception_3b/relu_pool_proj -> inception_3b/pool_proj (in-place)
I0403 14:53:47.920621 11259 net.cpp:141] Setting up inception_3b/relu_pool_proj
I0403 14:53:47.920650 11259 net.cpp:148] Top shape: 24 64 28 28 (1204224)
I0403 14:53:47.920665 11259 net.cpp:156] Memory required for data: 773112864
I0403 14:53:47.920680 11259 layer_factory.hpp:77] Creating layer inception_3b/output
I0403 14:53:47.920696 11259 net.cpp:91] Creating Layer inception_3b/output
I0403 14:53:47.920713 11259 net.cpp:425] inception_3b/output <- inception_3b/1x1
I0403 14:53:47.920729 11259 net.cpp:425] inception_3b/output <- inception_3b/3x3
I0403 14:53:47.920747 11259 net.cpp:425] inception_3b/output <- inception_3b/5x5
I0403 14:53:47.920763 11259 net.cpp:425] inception_3b/output <- inception_3b/pool_proj
I0403 14:53:47.920781 11259 net.cpp:399] inception_3b/output -> inception_3b/output
I0403 14:53:47.920827 11259 net.cpp:141] Setting up inception_3b/output
I0403 14:53:47.920855 11259 net.cpp:148] Top shape: 24 480 28 28 (9031680)
I0403 14:53:47.920872 11259 net.cpp:156] Memory required for data: 809239584
I0403 14:53:47.920887 11259 layer_factory.hpp:77] Creating layer pool3/3x3_s2
I0403 14:53:47.920907 11259 net.cpp:91] Creating Layer pool3/3x3_s2
I0403 14:53:47.920922 11259 net.cpp:425] pool3/3x3_s2 <- inception_3b/output
I0403 14:53:47.920959 11259 net.cpp:399] pool3/3x3_s2 -> pool3/3x3_s2
I0403 14:53:47.921020 11259 net.cpp:141] Setting up pool3/3x3_s2
I0403 14:53:47.921046 11259 net.cpp:148] Top shape: 24 480 14 14 (2257920)
I0403 14:53:47.921061 11259 net.cpp:156] Memory required for data: 818271264
I0403 14:53:47.921077 11259 layer_factory.hpp:77] Creating layer pool3/3x3_s2_pool3/3x3_s2_0_split
I0403 14:53:47.921102 11259 net.cpp:91] Creating Layer pool3/3x3_s2_pool3/3x3_s2_0_split
I0403 14:53:47.921120 11259 net.cpp:425] pool3/3x3_s2_pool3/3x3_s2_0_split <- pool3/3x3_s2
I0403 14:53:47.921139 11259 net.cpp:399] pool3/3x3_s2_pool3/3x3_s2_0_split -> pool3/3x3_s2_pool3/3x3_s2_0_split_0
I0403 14:53:47.921159 11259 net.cpp:399] pool3/3x3_s2_pool3/3x3_s2_0_split -> pool3/3x3_s2_pool3/3x3_s2_0_split_1
I0403 14:53:47.921182 11259 net.cpp:399] pool3/3x3_s2_pool3/3x3_s2_0_split -> pool3/3x3_s2_pool3/3x3_s2_0_split_2
I0403 14:53:47.921203 11259 net.cpp:399] pool3/3x3_s2_pool3/3x3_s2_0_split -> pool3/3x3_s2_pool3/3x3_s2_0_split_3
I0403 14:53:47.921280 11259 net.cpp:141] Setting up pool3/3x3_s2_pool3/3x3_s2_0_split
I0403 14:53:47.921304 11259 net.cpp:148] Top shape: 24 480 14 14 (2257920)
I0403 14:53:47.921321 11259 net.cpp:148] Top shape: 24 480 14 14 (2257920)
I0403 14:53:47.921337 11259 net.cpp:148] Top shape: 24 480 14 14 (2257920)
I0403 14:53:47.921353 11259 net.cpp:148] Top shape: 24 480 14 14 (2257920)
I0403 14:53:47.921367 11259 net.cpp:156] Memory required for data: 854397984
I0403 14:53:47.921382 11259 layer_factory.hpp:77] Creating layer inception_4a/1x1
I0403 14:53:47.921406 11259 net.cpp:91] Creating Layer inception_4a/1x1
I0403 14:53:47.921422 11259 net.cpp:425] inception_4a/1x1 <- pool3/3x3_s2_pool3/3x3_s2_0_split_0
I0403 14:53:47.921444 11259 net.cpp:399] inception_4a/1x1 -> inception_4a/1x1
I0403 14:53:47.923074 11259 net.cpp:141] Setting up inception_4a/1x1
I0403 14:53:47.923110 11259 net.cpp:148] Top shape: 24 192 14 14 (903168)
I0403 14:53:47.923126 11259 net.cpp:156] Memory required for data: 858010656
I0403 14:53:47.923146 11259 layer_factory.hpp:77] Creating layer inception_4a/relu_1x1
I0403 14:53:47.923166 11259 net.cpp:91] Creating Layer inception_4a/relu_1x1
I0403 14:53:47.923182 11259 net.cpp:425] inception_4a/relu_1x1 <- inception_4a/1x1
I0403 14:53:47.923199 11259 net.cpp:386] inception_4a/relu_1x1 -> inception_4a/1x1 (in-place)
I0403 14:53:47.923379 11259 net.cpp:141] Setting up inception_4a/relu_1x1
I0403 14:53:47.923408 11259 net.cpp:148] Top shape: 24 192 14 14 (903168)
I0403 14:53:47.923425 11259 net.cpp:156] Memory required for data: 861623328
I0403 14:53:47.923441 11259 layer_factory.hpp:77] Creating layer inception_4a/3x3_reduce
I0403 14:53:47.923465 11259 net.cpp:91] Creating Layer inception_4a/3x3_reduce
I0403 14:53:47.923482 11259 net.cpp:425] inception_4a/3x3_reduce <- pool3/3x3_s2_pool3/3x3_s2_0_split_1
I0403 14:53:47.923502 11259 net.cpp:399] inception_4a/3x3_reduce -> inception_4a/3x3_reduce
I0403 14:53:47.924852 11259 net.cpp:141] Setting up inception_4a/3x3_reduce
I0403 14:53:47.924881 11259 net.cpp:148] Top shape: 24 96 14 14 (451584)
I0403 14:53:47.924898 11259 net.cpp:156] Memory required for data: 863429664
I0403 14:53:47.924924 11259 layer_factory.hpp:77] Creating layer inception_4a/relu_3x3_reduce
I0403 14:53:47.924947 11259 net.cpp:91] Creating Layer inception_4a/relu_3x3_reduce
I0403 14:53:47.924962 11259 net.cpp:425] inception_4a/relu_3x3_reduce <- inception_4a/3x3_reduce
I0403 14:53:47.924980 11259 net.cpp:386] inception_4a/relu_3x3_reduce -> inception_4a/3x3_reduce (in-place)
I0403 14:53:47.925180 11259 net.cpp:141] Setting up inception_4a/relu_3x3_reduce
I0403 14:53:47.925207 11259 net.cpp:148] Top shape: 24 96 14 14 (451584)
I0403 14:53:47.925223 11259 net.cpp:156] Memory required for data: 865236000
I0403 14:53:47.925240 11259 layer_factory.hpp:77] Creating layer inception_4a/3x3
I0403 14:53:47.925263 11259 net.cpp:91] Creating Layer inception_4a/3x3
I0403 14:53:47.925282 11259 net.cpp:425] inception_4a/3x3 <- inception_4a/3x3_reduce
I0403 14:53:47.925302 11259 net.cpp:399] inception_4a/3x3 -> inception_4a/3x3
I0403 14:53:47.928062 11259 net.cpp:141] Setting up inception_4a/3x3
I0403 14:53:47.928102 11259 net.cpp:148] Top shape: 24 208 14 14 (978432)
I0403 14:53:47.928119 11259 net.cpp:156] Memory required for data: 869149728
I0403 14:53:47.928138 11259 layer_factory.hpp:77] Creating layer inception_4a/relu_3x3
I0403 14:53:47.928156 11259 net.cpp:91] Creating Layer inception_4a/relu_3x3
I0403 14:53:47.928184 11259 net.cpp:425] inception_4a/relu_3x3 <- inception_4a/3x3
I0403 14:53:47.928201 11259 net.cpp:386] inception_4a/relu_3x3 -> inception_4a/3x3 (in-place)
I0403 14:53:47.928496 11259 net.cpp:141] Setting up inception_4a/relu_3x3
I0403 14:53:47.928537 11259 net.cpp:148] Top shape: 24 208 14 14 (978432)
I0403 14:53:47.928556 11259 net.cpp:156] Memory required for data: 873063456
I0403 14:53:47.928571 11259 layer_factory.hpp:77] Creating layer inception_4a/5x5_reduce
I0403 14:53:47.928593 11259 net.cpp:91] Creating Layer inception_4a/5x5_reduce
I0403 14:53:47.928611 11259 net.cpp:425] inception_4a/5x5_reduce <- pool3/3x3_s2_pool3/3x3_s2_0_split_2
I0403 14:53:47.928632 11259 net.cpp:399] inception_4a/5x5_reduce -> inception_4a/5x5_reduce
I0403 14:53:47.929663 11259 net.cpp:141] Setting up inception_4a/5x5_reduce
I0403 14:53:47.929693 11259 net.cpp:148] Top shape: 24 16 14 14 (75264)
I0403 14:53:47.929721 11259 net.cpp:156] Memory required for data: 873364512
I0403 14:53:47.929740 11259 layer_factory.hpp:77] Creating layer inception_4a/relu_5x5_reduce
I0403 14:53:47.929759 11259 net.cpp:91] Creating Layer inception_4a/relu_5x5_reduce
I0403 14:53:47.929774 11259 net.cpp:425] inception_4a/relu_5x5_reduce <- inception_4a/5x5_reduce
I0403 14:53:47.929797 11259 net.cpp:386] inception_4a/relu_5x5_reduce -> inception_4a/5x5_reduce (in-place)
I0403 14:53:47.929980 11259 net.cpp:141] Setting up inception_4a/relu_5x5_reduce
I0403 14:53:47.930018 11259 net.cpp:148] Top shape: 24 16 14 14 (75264)
I0403 14:53:47.930033 11259 net.cpp:156] Memory required for data: 873665568
I0403 14:53:47.930061 11259 layer_factory.hpp:77] Creating layer inception_4a/5x5
I0403 14:53:47.930084 11259 net.cpp:91] Creating Layer inception_4a/5x5
I0403 14:53:47.930110 11259 net.cpp:425] inception_4a/5x5 <- inception_4a/5x5_reduce
I0403 14:53:47.930133 11259 net.cpp:399] inception_4a/5x5 -> inception_4a/5x5
I0403 14:53:47.931262 11259 net.cpp:141] Setting up inception_4a/5x5
I0403 14:53:47.931290 11259 net.cpp:148] Top shape: 24 48 14 14 (225792)
I0403 14:53:47.931305 11259 net.cpp:156] Memory required for data: 874568736
I0403 14:53:47.931324 11259 layer_factory.hpp:77] Creating layer inception_4a/relu_5x5
I0403 14:53:47.931341 11259 net.cpp:91] Creating Layer inception_4a/relu_5x5
I0403 14:53:47.931357 11259 net.cpp:425] inception_4a/relu_5x5 <- inception_4a/5x5
I0403 14:53:47.931375 11259 net.cpp:386] inception_4a/relu_5x5 -> inception_4a/5x5 (in-place)
I0403 14:53:47.931550 11259 net.cpp:141] Setting up inception_4a/relu_5x5
I0403 14:53:47.931576 11259 net.cpp:148] Top shape: 24 48 14 14 (225792)
I0403 14:53:47.931591 11259 net.cpp:156] Memory required for data: 875471904
I0403 14:53:47.931605 11259 layer_factory.hpp:77] Creating layer inception_4a/pool
I0403 14:53:47.931625 11259 net.cpp:91] Creating Layer inception_4a/pool
I0403 14:53:47.931643 11259 net.cpp:425] inception_4a/pool <- pool3/3x3_s2_pool3/3x3_s2_0_split_3
I0403 14:53:47.931659 11259 net.cpp:399] inception_4a/pool -> inception_4a/pool
I0403 14:53:47.931735 11259 net.cpp:141] Setting up inception_4a/pool
I0403 14:53:47.931759 11259 net.cpp:148] Top shape: 24 480 14 14 (2257920)
I0403 14:53:47.931773 11259 net.cpp:156] Memory required for data: 884503584
I0403 14:53:47.931788 11259 layer_factory.hpp:77] Creating layer inception_4a/pool_proj
I0403 14:53:47.931810 11259 net.cpp:91] Creating Layer inception_4a/pool_proj
I0403 14:53:47.931828 11259 net.cpp:425] inception_4a/pool_proj <- inception_4a/pool
I0403 14:53:47.931849 11259 net.cpp:399] inception_4a/pool_proj -> inception_4a/pool_proj
I0403 14:53:47.933035 11259 net.cpp:141] Setting up inception_4a/pool_proj
I0403 14:53:47.933064 11259 net.cpp:148] Top shape: 24 64 14 14 (301056)
I0403 14:53:47.933102 11259 net.cpp:156] Memory required for data: 885707808
I0403 14:53:47.933125 11259 layer_factory.hpp:77] Creating layer inception_4a/relu_pool_proj
I0403 14:53:47.933145 11259 net.cpp:91] Creating Layer inception_4a/relu_pool_proj
I0403 14:53:47.933174 11259 net.cpp:425] inception_4a/relu_pool_proj <- inception_4a/pool_proj
I0403 14:53:47.933192 11259 net.cpp:386] inception_4a/relu_pool_proj -> inception_4a/pool_proj (in-place)
I0403 14:53:47.933506 11259 net.cpp:141] Setting up inception_4a/relu_pool_proj
I0403 14:53:47.933533 11259 net.cpp:148] Top shape: 24 64 14 14 (301056)
I0403 14:53:47.933549 11259 net.cpp:156] Memory required for data: 886912032
I0403 14:53:47.933565 11259 layer_factory.hpp:77] Creating layer inception_4a/output
I0403 14:53:47.933583 11259 net.cpp:91] Creating Layer inception_4a/output
I0403 14:53:47.933598 11259 net.cpp:425] inception_4a/output <- inception_4a/1x1
I0403 14:53:47.933614 11259 net.cpp:425] inception_4a/output <- inception_4a/3x3
I0403 14:53:47.933630 11259 net.cpp:425] inception_4a/output <- inception_4a/5x5
I0403 14:53:47.933646 11259 net.cpp:425] inception_4a/output <- inception_4a/pool_proj
I0403 14:53:47.933666 11259 net.cpp:399] inception_4a/output -> inception_4a/output
I0403 14:53:47.933725 11259 net.cpp:141] Setting up inception_4a/output
I0403 14:53:47.933749 11259 net.cpp:148] Top shape: 24 512 14 14 (2408448)
I0403 14:53:47.933763 11259 net.cpp:156] Memory required for data: 896545824
I0403 14:53:47.933779 11259 layer_factory.hpp:77] Creating layer inception_4a/output_inception_4a/output_0_split
I0403 14:53:47.933795 11259 net.cpp:91] Creating Layer inception_4a/output_inception_4a/output_0_split
I0403 14:53:47.933810 11259 net.cpp:425] inception_4a/output_inception_4a/output_0_split <- inception_4a/output
I0403 14:53:47.933830 11259 net.cpp:399] inception_4a/output_inception_4a/output_0_split -> inception_4a/output_inception_4a/output_0_split_0
I0403 14:53:47.933852 11259 net.cpp:399] inception_4a/output_inception_4a/output_0_split -> inception_4a/output_inception_4a/output_0_split_1
I0403 14:53:47.933873 11259 net.cpp:399] inception_4a/output_inception_4a/output_0_split -> inception_4a/output_inception_4a/output_0_split_2
I0403 14:53:47.933893 11259 net.cpp:399] inception_4a/output_inception_4a/output_0_split -> inception_4a/output_inception_4a/output_0_split_3
I0403 14:53:47.933913 11259 net.cpp:399] inception_4a/output_inception_4a/output_0_split -> inception_4a/output_inception_4a/output_0_split_4
I0403 14:53:47.934006 11259 net.cpp:141] Setting up inception_4a/output_inception_4a/output_0_split
I0403 14:53:47.934032 11259 net.cpp:148] Top shape: 24 512 14 14 (2408448)
I0403 14:53:47.934048 11259 net.cpp:148] Top shape: 24 512 14 14 (2408448)
I0403 14:53:47.934063 11259 net.cpp:148] Top shape: 24 512 14 14 (2408448)
I0403 14:53:47.934078 11259 net.cpp:148] Top shape: 24 512 14 14 (2408448)
I0403 14:53:47.934099 11259 net.cpp:148] Top shape: 24 512 14 14 (2408448)
I0403 14:53:47.934115 11259 net.cpp:156] Memory required for data: 944714784
I0403 14:53:47.934130 11259 layer_factory.hpp:77] Creating layer loss1/ave_pool
I0403 14:53:47.934147 11259 net.cpp:91] Creating Layer loss1/ave_pool
I0403 14:53:47.934175 11259 net.cpp:425] loss1/ave_pool <- inception_4a/output_inception_4a/output_0_split_0
I0403 14:53:47.934195 11259 net.cpp:399] loss1/ave_pool -> loss1/ave_pool
I0403 14:53:47.934406 11259 net.cpp:141] Setting up loss1/ave_pool
I0403 14:53:47.934433 11259 net.cpp:148] Top shape: 24 512 4 4 (196608)
I0403 14:53:47.934460 11259 net.cpp:156] Memory required for data: 945501216
I0403 14:53:47.934475 11259 layer_factory.hpp:77] Creating layer loss1/conv
I0403 14:53:47.934499 11259 net.cpp:91] Creating Layer loss1/conv
I0403 14:53:47.934515 11259 net.cpp:425] loss1/conv <- loss1/ave_pool
I0403 14:53:47.934535 11259 net.cpp:399] loss1/conv -> loss1/conv
I0403 14:53:47.935968 11259 net.cpp:141] Setting up loss1/conv
I0403 14:53:47.935998 11259 net.cpp:148] Top shape: 24 128 4 4 (49152)
I0403 14:53:47.936028 11259 net.cpp:156] Memory required for data: 945697824
I0403 14:53:47.936048 11259 layer_factory.hpp:77] Creating layer loss1/relu_conv
I0403 14:53:47.936066 11259 net.cpp:91] Creating Layer loss1/relu_conv
I0403 14:53:47.936084 11259 net.cpp:425] loss1/relu_conv <- loss1/conv
I0403 14:53:47.936107 11259 net.cpp:386] loss1/relu_conv -> loss1/conv (in-place)
I0403 14:53:47.936393 11259 net.cpp:141] Setting up loss1/relu_conv
I0403 14:53:47.936422 11259 net.cpp:148] Top shape: 24 128 4 4 (49152)
I0403 14:53:47.936450 11259 net.cpp:156] Memory required for data: 945894432
I0403 14:53:47.936465 11259 layer_factory.hpp:77] Creating layer loss1/fc
I0403 14:53:47.936491 11259 net.cpp:91] Creating Layer loss1/fc
I0403 14:53:47.936511 11259 net.cpp:425] loss1/fc <- loss1/conv
I0403 14:53:47.936532 11259 net.cpp:399] loss1/fc -> loss1/fc
I0403 14:53:47.954643 11259 net.cpp:141] Setting up loss1/fc
I0403 14:53:47.954707 11259 net.cpp:148] Top shape: 24 1024 (24576)
I0403 14:53:47.954723 11259 net.cpp:156] Memory required for data: 945992736
I0403 14:53:47.954743 11259 layer_factory.hpp:77] Creating layer loss1/relu_fc
I0403 14:53:47.954766 11259 net.cpp:91] Creating Layer loss1/relu_fc
I0403 14:53:47.954782 11259 net.cpp:425] loss1/relu_fc <- loss1/fc
I0403 14:53:47.954800 11259 net.cpp:386] loss1/relu_fc -> loss1/fc (in-place)
I0403 14:53:47.955014 11259 net.cpp:141] Setting up loss1/relu_fc
I0403 14:53:47.955042 11259 net.cpp:148] Top shape: 24 1024 (24576)
I0403 14:53:47.955059 11259 net.cpp:156] Memory required for data: 946091040
I0403 14:53:47.955073 11259 layer_factory.hpp:77] Creating layer loss1/drop_fc
I0403 14:53:47.955106 11259 net.cpp:91] Creating Layer loss1/drop_fc
I0403 14:53:47.955127 11259 net.cpp:425] loss1/drop_fc <- loss1/fc
I0403 14:53:47.955144 11259 net.cpp:386] loss1/drop_fc -> loss1/fc (in-place)
I0403 14:53:47.955199 11259 net.cpp:141] Setting up loss1/drop_fc
I0403 14:53:47.955224 11259 net.cpp:148] Top shape: 24 1024 (24576)
I0403 14:53:47.955237 11259 net.cpp:156] Memory required for data: 946189344
I0403 14:53:47.955252 11259 layer_factory.hpp:77] Creating layer loss1/classifier_plantvillage
I0403 14:53:47.955276 11259 net.cpp:91] Creating Layer loss1/classifier_plantvillage
I0403 14:53:47.955291 11259 net.cpp:425] loss1/classifier_plantvillage <- loss1/fc
I0403 14:53:47.955310 11259 net.cpp:399] loss1/classifier_plantvillage -> loss1/classifier_plantvillage
I0403 14:53:47.956271 11259 net.cpp:141] Setting up loss1/classifier_plantvillage
I0403 14:53:47.956303 11259 net.cpp:148] Top shape: 24 38 (912)
I0403 14:53:47.956321 11259 net.cpp:156] Memory required for data: 946192992
I0403 14:53:47.956341 11259 layer_factory.hpp:77] Creating layer loss1/classifier_plantvillage_loss1/classifier_plantvillage_0_split
I0403 14:53:47.956359 11259 net.cpp:91] Creating Layer loss1/classifier_plantvillage_loss1/classifier_plantvillage_0_split
I0403 14:53:47.956375 11259 net.cpp:425] loss1/classifier_plantvillage_loss1/classifier_plantvillage_0_split <- loss1/classifier_plantvillage
I0403 14:53:47.956393 11259 net.cpp:399] loss1/classifier_plantvillage_loss1/classifier_plantvillage_0_split -> loss1/classifier_plantvillage_loss1/classifier_plantvillage_0_split_0
I0403 14:53:47.956413 11259 net.cpp:399] loss1/classifier_plantvillage_loss1/classifier_plantvillage_0_split -> loss1/classifier_plantvillage_loss1/classifier_plantvillage_0_split_1
I0403 14:53:47.956434 11259 net.cpp:399] loss1/classifier_plantvillage_loss1/classifier_plantvillage_0_split -> loss1/classifier_plantvillage_loss1/classifier_plantvillage_0_split_2
I0403 14:53:47.956512 11259 net.cpp:141] Setting up loss1/classifier_plantvillage_loss1/classifier_plantvillage_0_split
I0403 14:53:47.956537 11259 net.cpp:148] Top shape: 24 38 (912)
I0403 14:53:47.956552 11259 net.cpp:148] Top shape: 24 38 (912)
I0403 14:53:47.956568 11259 net.cpp:148] Top shape: 24 38 (912)
I0403 14:53:47.956583 11259 net.cpp:156] Memory required for data: 946203936
I0403 14:53:47.956596 11259 layer_factory.hpp:77] Creating layer inception_4b/1x1
I0403 14:53:47.956619 11259 net.cpp:91] Creating Layer inception_4b/1x1
I0403 14:53:47.956662 11259 net.cpp:425] inception_4b/1x1 <- inception_4a/output_inception_4a/output_0_split_1
I0403 14:53:47.956686 11259 net.cpp:399] inception_4b/1x1 -> inception_4b/1x1
I0403 14:53:47.958461 11259 net.cpp:141] Setting up inception_4b/1x1
I0403 14:53:47.958493 11259 net.cpp:148] Top shape: 24 160 14 14 (752640)
I0403 14:53:47.958510 11259 net.cpp:156] Memory required for data: 949214496
I0403 14:53:47.958528 11259 layer_factory.hpp:77] Creating layer inception_4b/relu_1x1
I0403 14:53:47.958546 11259 net.cpp:91] Creating Layer inception_4b/relu_1x1
I0403 14:53:47.958561 11259 net.cpp:425] inception_4b/relu_1x1 <- inception_4b/1x1
I0403 14:53:47.958578 11259 net.cpp:386] inception_4b/relu_1x1 -> inception_4b/1x1 (in-place)
I0403 14:53:47.958760 11259 net.cpp:141] Setting up inception_4b/relu_1x1
I0403 14:53:47.958786 11259 net.cpp:148] Top shape: 24 160 14 14 (752640)
I0403 14:53:47.958801 11259 net.cpp:156] Memory required for data: 952225056
I0403 14:53:47.958816 11259 layer_factory.hpp:77] Creating layer inception_4b/3x3_reduce
I0403 14:53:47.958837 11259 net.cpp:91] Creating Layer inception_4b/3x3_reduce
I0403 14:53:47.958855 11259 net.cpp:425] inception_4b/3x3_reduce <- inception_4a/output_inception_4a/output_0_split_2
I0403 14:53:47.958878 11259 net.cpp:399] inception_4b/3x3_reduce -> inception_4b/3x3_reduce
I0403 14:53:47.960230 11259 net.cpp:141] Setting up inception_4b/3x3_reduce
I0403 14:53:47.960259 11259 net.cpp:148] Top shape: 24 112 14 14 (526848)
I0403 14:53:47.960274 11259 net.cpp:156] Memory required for data: 954332448
I0403 14:53:47.960294 11259 layer_factory.hpp:77] Creating layer inception_4b/relu_3x3_reduce
I0403 14:53:47.960312 11259 net.cpp:91] Creating Layer inception_4b/relu_3x3_reduce
I0403 14:53:47.960331 11259 net.cpp:425] inception_4b/relu_3x3_reduce <- inception_4b/3x3_reduce
I0403 14:53:47.960347 11259 net.cpp:386] inception_4b/relu_3x3_reduce -> inception_4b/3x3_reduce (in-place)
I0403 14:53:47.960624 11259 net.cpp:141] Setting up inception_4b/relu_3x3_reduce
I0403 14:53:47.960651 11259 net.cpp:148] Top shape: 24 112 14 14 (526848)
I0403 14:53:47.960666 11259 net.cpp:156] Memory required for data: 956439840
I0403 14:53:47.960681 11259 layer_factory.hpp:77] Creating layer inception_4b/3x3
I0403 14:53:47.960705 11259 net.cpp:91] Creating Layer inception_4b/3x3
I0403 14:53:47.960722 11259 net.cpp:425] inception_4b/3x3 <- inception_4b/3x3_reduce
I0403 14:53:47.960746 11259 net.cpp:399] inception_4b/3x3 -> inception_4b/3x3
I0403 14:53:47.963762 11259 net.cpp:141] Setting up inception_4b/3x3
I0403 14:53:47.963791 11259 net.cpp:148] Top shape: 24 224 14 14 (1053696)
I0403 14:53:47.963807 11259 net.cpp:156] Memory required for data: 960654624
I0403 14:53:47.963825 11259 layer_factory.hpp:77] Creating layer inception_4b/relu_3x3
I0403 14:53:47.963846 11259 net.cpp:91] Creating Layer inception_4b/relu_3x3
I0403 14:53:47.963865 11259 net.cpp:425] inception_4b/relu_3x3 <- inception_4b/3x3
I0403 14:53:47.963881 11259 net.cpp:386] inception_4b/relu_3x3 -> inception_4b/3x3 (in-place)
I0403 14:53:47.964061 11259 net.cpp:141] Setting up inception_4b/relu_3x3
I0403 14:53:47.964088 11259 net.cpp:148] Top shape: 24 224 14 14 (1053696)
I0403 14:53:47.964112 11259 net.cpp:156] Memory required for data: 964869408
I0403 14:53:47.964128 11259 layer_factory.hpp:77] Creating layer inception_4b/5x5_reduce
I0403 14:53:47.964150 11259 net.cpp:91] Creating Layer inception_4b/5x5_reduce
I0403 14:53:47.964169 11259 net.cpp:425] inception_4b/5x5_reduce <- inception_4a/output_inception_4a/output_0_split_3
I0403 14:53:47.964187 11259 net.cpp:399] inception_4b/5x5_reduce -> inception_4b/5x5_reduce
I0403 14:53:47.965271 11259 net.cpp:141] Setting up inception_4b/5x5_reduce
I0403 14:53:47.965301 11259 net.cpp:148] Top shape: 24 24 14 14 (112896)
I0403 14:53:47.965318 11259 net.cpp:156] Memory required for data: 965320992
I0403 14:53:47.965337 11259 layer_factory.hpp:77] Creating layer inception_4b/relu_5x5_reduce
I0403 14:53:47.965355 11259 net.cpp:91] Creating Layer inception_4b/relu_5x5_reduce
I0403 14:53:47.965389 11259 net.cpp:425] inception_4b/relu_5x5_reduce <- inception_4b/5x5_reduce
I0403 14:53:47.965410 11259 net.cpp:386] inception_4b/relu_5x5_reduce -> inception_4b/5x5_reduce (in-place)
I0403 14:53:47.965592 11259 net.cpp:141] Setting up inception_4b/relu_5x5_reduce
I0403 14:53:47.965618 11259 net.cpp:148] Top shape: 24 24 14 14 (112896)
I0403 14:53:47.965632 11259 net.cpp:156] Memory required for data: 965772576
I0403 14:53:47.965647 11259 layer_factory.hpp:77] Creating layer inception_4b/5x5
I0403 14:53:47.965669 11259 net.cpp:91] Creating Layer inception_4b/5x5
I0403 14:53:47.965687 11259 net.cpp:425] inception_4b/5x5 <- inception_4b/5x5_reduce
I0403 14:53:47.965708 11259 net.cpp:399] inception_4b/5x5 -> inception_4b/5x5
I0403 14:53:47.966966 11259 net.cpp:141] Setting up inception_4b/5x5
I0403 14:53:47.966997 11259 net.cpp:148] Top shape: 24 64 14 14 (301056)
I0403 14:53:47.967013 11259 net.cpp:156] Memory required for data: 966976800
I0403 14:53:47.967031 11259 layer_factory.hpp:77] Creating layer inception_4b/relu_5x5
I0403 14:53:47.967049 11259 net.cpp:91] Creating Layer inception_4b/relu_5x5
I0403 14:53:47.967066 11259 net.cpp:425] inception_4b/relu_5x5 <- inception_4b/5x5
I0403 14:53:47.967082 11259 net.cpp:386] inception_4b/relu_5x5 -> inception_4b/5x5 (in-place)
I0403 14:53:47.967376 11259 net.cpp:141] Setting up inception_4b/relu_5x5
I0403 14:53:47.967406 11259 net.cpp:148] Top shape: 24 64 14 14 (301056)
I0403 14:53:47.967422 11259 net.cpp:156] Memory required for data: 968181024
I0403 14:53:47.967437 11259 layer_factory.hpp:77] Creating layer inception_4b/pool
I0403 14:53:47.967456 11259 net.cpp:91] Creating Layer inception_4b/pool
I0403 14:53:47.967473 11259 net.cpp:425] inception_4b/pool <- inception_4a/output_inception_4a/output_0_split_4
I0403 14:53:47.967495 11259 net.cpp:399] inception_4b/pool -> inception_4b/pool
I0403 14:53:47.967561 11259 net.cpp:141] Setting up inception_4b/pool
I0403 14:53:47.967586 11259 net.cpp:148] Top shape: 24 512 14 14 (2408448)
I0403 14:53:47.967602 11259 net.cpp:156] Memory required for data: 977814816
I0403 14:53:47.967615 11259 layer_factory.hpp:77] Creating layer inception_4b/pool_proj
I0403 14:53:47.967638 11259 net.cpp:91] Creating Layer inception_4b/pool_proj
I0403 14:53:47.967658 11259 net.cpp:425] inception_4b/pool_proj <- inception_4b/pool
I0403 14:53:47.967676 11259 net.cpp:399] inception_4b/pool_proj -> inception_4b/pool_proj
I0403 14:53:47.968883 11259 net.cpp:141] Setting up inception_4b/pool_proj
I0403 14:53:47.968911 11259 net.cpp:148] Top shape: 24 64 14 14 (301056)
I0403 14:53:47.968927 11259 net.cpp:156] Memory required for data: 979019040
I0403 14:53:47.968945 11259 layer_factory.hpp:77] Creating layer inception_4b/relu_pool_proj
I0403 14:53:47.968963 11259 net.cpp:91] Creating Layer inception_4b/relu_pool_proj
I0403 14:53:47.968981 11259 net.cpp:425] inception_4b/relu_pool_proj <- inception_4b/pool_proj
I0403 14:53:47.969002 11259 net.cpp:386] inception_4b/relu_pool_proj -> inception_4b/pool_proj (in-place)
I0403 14:53:47.969192 11259 net.cpp:141] Setting up inception_4b/relu_pool_proj
I0403 14:53:47.969218 11259 net.cpp:148] Top shape: 24 64 14 14 (301056)
I0403 14:53:47.969233 11259 net.cpp:156] Memory required for data: 980223264
I0403 14:53:47.969246 11259 layer_factory.hpp:77] Creating layer inception_4b/output
I0403 14:53:47.969264 11259 net.cpp:91] Creating Layer inception_4b/output
I0403 14:53:47.969282 11259 net.cpp:425] inception_4b/output <- inception_4b/1x1
I0403 14:53:47.969300 11259 net.cpp:425] inception_4b/output <- inception_4b/3x3
I0403 14:53:47.969316 11259 net.cpp:425] inception_4b/output <- inception_4b/5x5
I0403 14:53:47.969331 11259 net.cpp:425] inception_4b/output <- inception_4b/pool_proj
I0403 14:53:47.969348 11259 net.cpp:399] inception_4b/output -> inception_4b/output
I0403 14:53:47.969393 11259 net.cpp:141] Setting up inception_4b/output
I0403 14:53:47.969420 11259 net.cpp:148] Top shape: 24 512 14 14 (2408448)
I0403 14:53:47.969436 11259 net.cpp:156] Memory required for data: 989857056
I0403 14:53:47.969465 11259 layer_factory.hpp:77] Creating layer inception_4b/output_inception_4b/output_0_split
I0403 14:53:47.969485 11259 net.cpp:91] Creating Layer inception_4b/output_inception_4b/output_0_split
I0403 14:53:47.969499 11259 net.cpp:425] inception_4b/output_inception_4b/output_0_split <- inception_4b/output
I0403 14:53:47.969519 11259 net.cpp:399] inception_4b/output_inception_4b/output_0_split -> inception_4b/output_inception_4b/output_0_split_0
I0403 14:53:47.969542 11259 net.cpp:399] inception_4b/output_inception_4b/output_0_split -> inception_4b/output_inception_4b/output_0_split_1
I0403 14:53:47.969561 11259 net.cpp:399] inception_4b/output_inception_4b/output_0_split -> inception_4b/output_inception_4b/output_0_split_2
I0403 14:53:47.969581 11259 net.cpp:399] inception_4b/output_inception_4b/output_0_split -> inception_4b/output_inception_4b/output_0_split_3
I0403 14:53:47.969665 11259 net.cpp:141] Setting up inception_4b/output_inception_4b/output_0_split
I0403 14:53:47.969691 11259 net.cpp:148] Top shape: 24 512 14 14 (2408448)
I0403 14:53:47.969707 11259 net.cpp:148] Top shape: 24 512 14 14 (2408448)
I0403 14:53:47.969723 11259 net.cpp:148] Top shape: 24 512 14 14 (2408448)
I0403 14:53:47.969739 11259 net.cpp:148] Top shape: 24 512 14 14 (2408448)
I0403 14:53:47.969753 11259 net.cpp:156] Memory required for data: 1028392224
I0403 14:53:47.969768 11259 layer_factory.hpp:77] Creating layer inception_4c/1x1
I0403 14:53:47.969789 11259 net.cpp:91] Creating Layer inception_4c/1x1
I0403 14:53:47.969807 11259 net.cpp:425] inception_4c/1x1 <- inception_4b/output_inception_4b/output_0_split_0
I0403 14:53:47.969826 11259 net.cpp:399] inception_4c/1x1 -> inception_4c/1x1
I0403 14:53:47.971285 11259 net.cpp:141] Setting up inception_4c/1x1
I0403 14:53:47.971314 11259 net.cpp:148] Top shape: 24 128 14 14 (602112)
I0403 14:53:47.971331 11259 net.cpp:156] Memory required for data: 1030800672
I0403 14:53:47.971350 11259 layer_factory.hpp:77] Creating layer inception_4c/relu_1x1
I0403 14:53:47.971370 11259 net.cpp:91] Creating Layer inception_4c/relu_1x1
I0403 14:53:47.971387 11259 net.cpp:425] inception_4c/relu_1x1 <- inception_4c/1x1
I0403 14:53:47.971405 11259 net.cpp:386] inception_4c/relu_1x1 -> inception_4c/1x1 (in-place)
I0403 14:53:47.971590 11259 net.cpp:141] Setting up inception_4c/relu_1x1
I0403 14:53:47.971627 11259 net.cpp:148] Top shape: 24 128 14 14 (602112)
I0403 14:53:47.971642 11259 net.cpp:156] Memory required for data: 1033209120
I0403 14:53:47.971657 11259 layer_factory.hpp:77] Creating layer inception_4c/3x3_reduce
I0403 14:53:47.971679 11259 net.cpp:91] Creating Layer inception_4c/3x3_reduce
I0403 14:53:47.971698 11259 net.cpp:425] inception_4c/3x3_reduce <- inception_4b/output_inception_4b/output_0_split_1
I0403 14:53:47.971715 11259 net.cpp:399] inception_4c/3x3_reduce -> inception_4c/3x3_reduce
I0403 14:53:47.973669 11259 net.cpp:141] Setting up inception_4c/3x3_reduce
I0403 14:53:47.973701 11259 net.cpp:148] Top shape: 24 128 14 14 (602112)
I0403 14:53:47.973716 11259 net.cpp:156] Memory required for data: 1035617568
I0403 14:53:47.973736 11259 layer_factory.hpp:77] Creating layer inception_4c/relu_3x3_reduce
I0403 14:53:47.973752 11259 net.cpp:91] Creating Layer inception_4c/relu_3x3_reduce
I0403 14:53:47.973767 11259 net.cpp:425] inception_4c/relu_3x3_reduce <- inception_4c/3x3_reduce
I0403 14:53:47.973786 11259 net.cpp:386] inception_4c/relu_3x3_reduce -> inception_4c/3x3_reduce (in-place)
I0403 14:53:47.974063 11259 net.cpp:141] Setting up inception_4c/relu_3x3_reduce
I0403 14:53:47.974092 11259 net.cpp:148] Top shape: 24 128 14 14 (602112)
I0403 14:53:47.974114 11259 net.cpp:156] Memory required for data: 1038026016
I0403 14:53:47.974129 11259 layer_factory.hpp:77] Creating layer inception_4c/3x3
I0403 14:53:47.974151 11259 net.cpp:91] Creating Layer inception_4c/3x3
I0403 14:53:47.974181 11259 net.cpp:425] inception_4c/3x3 <- inception_4c/3x3_reduce
I0403 14:53:47.974200 11259 net.cpp:399] inception_4c/3x3 -> inception_4c/3x3
I0403 14:53:47.977748 11259 net.cpp:141] Setting up inception_4c/3x3
I0403 14:53:47.977790 11259 net.cpp:148] Top shape: 24 256 14 14 (1204224)
I0403 14:53:47.977807 11259 net.cpp:156] Memory required for data: 1042842912
I0403 14:53:47.977840 11259 layer_factory.hpp:77] Creating layer inception_4c/relu_3x3
I0403 14:53:47.977860 11259 net.cpp:91] Creating Layer inception_4c/relu_3x3
I0403 14:53:47.977875 11259 net.cpp:425] inception_4c/relu_3x3 <- inception_4c/3x3
I0403 14:53:47.977895 11259 net.cpp:386] inception_4c/relu_3x3 -> inception_4c/3x3 (in-place)
I0403 14:53:47.978070 11259 net.cpp:141] Setting up inception_4c/relu_3x3
I0403 14:53:47.978104 11259 net.cpp:148] Top shape: 24 256 14 14 (1204224)
I0403 14:53:47.978121 11259 net.cpp:156] Memory required for data: 1047659808
I0403 14:53:47.978137 11259 layer_factory.hpp:77] Creating layer inception_4c/5x5_reduce
I0403 14:53:47.978158 11259 net.cpp:91] Creating Layer inception_4c/5x5_reduce
I0403 14:53:47.978188 11259 net.cpp:425] inception_4c/5x5_reduce <- inception_4b/output_inception_4b/output_0_split_2
I0403 14:53:47.978209 11259 net.cpp:399] inception_4c/5x5_reduce -> inception_4c/5x5_reduce
I0403 14:53:47.979339 11259 net.cpp:141] Setting up inception_4c/5x5_reduce
I0403 14:53:47.979372 11259 net.cpp:148] Top shape: 24 24 14 14 (112896)
I0403 14:53:47.979388 11259 net.cpp:156] Memory required for data: 1048111392
I0403 14:53:47.979406 11259 layer_factory.hpp:77] Creating layer inception_4c/relu_5x5_reduce
I0403 14:53:47.979424 11259 net.cpp:91] Creating Layer inception_4c/relu_5x5_reduce
I0403 14:53:47.979440 11259 net.cpp:425] inception_4c/relu_5x5_reduce <- inception_4c/5x5_reduce
I0403 14:53:47.979471 11259 net.cpp:386] inception_4c/relu_5x5_reduce -> inception_4c/5x5_reduce (in-place)
I0403 14:53:47.979652 11259 net.cpp:141] Setting up inception_4c/relu_5x5_reduce
I0403 14:53:47.979677 11259 net.cpp:148] Top shape: 24 24 14 14 (112896)
I0403 14:53:47.979692 11259 net.cpp:156] Memory required for data: 1048562976
I0403 14:53:47.979706 11259 layer_factory.hpp:77] Creating layer inception_4c/5x5
I0403 14:53:47.979727 11259 net.cpp:91] Creating Layer inception_4c/5x5
I0403 14:53:47.979743 11259 net.cpp:425] inception_4c/5x5 <- inception_4c/5x5_reduce
I0403 14:53:47.979763 11259 net.cpp:399] inception_4c/5x5 -> inception_4c/5x5
I0403 14:53:47.980990 11259 net.cpp:141] Setting up inception_4c/5x5
I0403 14:53:47.981019 11259 net.cpp:148] Top shape: 24 64 14 14 (301056)
I0403 14:53:47.981034 11259 net.cpp:156] Memory required for data: 1049767200
I0403 14:53:47.981052 11259 layer_factory.hpp:77] Creating layer inception_4c/relu_5x5
I0403 14:53:47.981071 11259 net.cpp:91] Creating Layer inception_4c/relu_5x5
I0403 14:53:47.981088 11259 net.cpp:425] inception_4c/relu_5x5 <- inception_4c/5x5
I0403 14:53:47.981113 11259 net.cpp:386] inception_4c/relu_5x5 -> inception_4c/5x5 (in-place)
I0403 14:53:47.981403 11259 net.cpp:141] Setting up inception_4c/relu_5x5
I0403 14:53:47.981429 11259 net.cpp:148] Top shape: 24 64 14 14 (301056)
I0403 14:53:47.981444 11259 net.cpp:156] Memory required for data: 1050971424
I0403 14:53:47.981459 11259 layer_factory.hpp:77] Creating layer inception_4c/pool
I0403 14:53:47.981479 11259 net.cpp:91] Creating Layer inception_4c/pool
I0403 14:53:47.981497 11259 net.cpp:425] inception_4c/pool <- inception_4b/output_inception_4b/output_0_split_3
I0403 14:53:47.981515 11259 net.cpp:399] inception_4c/pool -> inception_4c/pool
I0403 14:53:47.981582 11259 net.cpp:141] Setting up inception_4c/pool
I0403 14:53:47.981606 11259 net.cpp:148] Top shape: 24 512 14 14 (2408448)
I0403 14:53:47.981621 11259 net.cpp:156] Memory required for data: 1060605216
I0403 14:53:47.981636 11259 layer_factory.hpp:77] Creating layer inception_4c/pool_proj
I0403 14:53:47.981657 11259 net.cpp:91] Creating Layer inception_4c/pool_proj
I0403 14:53:47.981674 11259 net.cpp:425] inception_4c/pool_proj <- inception_4c/pool
I0403 14:53:47.981695 11259 net.cpp:399] inception_4c/pool_proj -> inception_4c/pool_proj
I0403 14:53:47.982965 11259 net.cpp:141] Setting up inception_4c/pool_proj
I0403 14:53:47.982997 11259 net.cpp:148] Top shape: 24 64 14 14 (301056)
I0403 14:53:47.983027 11259 net.cpp:156] Memory required for data: 1061809440
I0403 14:53:47.983047 11259 layer_factory.hpp:77] Creating layer inception_4c/relu_pool_proj
I0403 14:53:47.983065 11259 net.cpp:91] Creating Layer inception_4c/relu_pool_proj
I0403 14:53:47.983081 11259 net.cpp:425] inception_4c/relu_pool_proj <- inception_4c/pool_proj
I0403 14:53:47.983108 11259 net.cpp:386] inception_4c/relu_pool_proj -> inception_4c/pool_proj (in-place)
I0403 14:53:47.983296 11259 net.cpp:141] Setting up inception_4c/relu_pool_proj
I0403 14:53:47.983322 11259 net.cpp:148] Top shape: 24 64 14 14 (301056)
I0403 14:53:47.983337 11259 net.cpp:156] Memory required for data: 1063013664
I0403 14:53:47.983352 11259 layer_factory.hpp:77] Creating layer inception_4c/output
I0403 14:53:47.983369 11259 net.cpp:91] Creating Layer inception_4c/output
I0403 14:53:47.983386 11259 net.cpp:425] inception_4c/output <- inception_4c/1x1
I0403 14:53:47.983402 11259 net.cpp:425] inception_4c/output <- inception_4c/3x3
I0403 14:53:47.983422 11259 net.cpp:425] inception_4c/output <- inception_4c/5x5
I0403 14:53:47.983436 11259 net.cpp:425] inception_4c/output <- inception_4c/pool_proj
I0403 14:53:47.983453 11259 net.cpp:399] inception_4c/output -> inception_4c/output
I0403 14:53:47.983499 11259 net.cpp:141] Setting up inception_4c/output
I0403 14:53:47.983525 11259 net.cpp:148] Top shape: 24 512 14 14 (2408448)
I0403 14:53:47.983541 11259 net.cpp:156] Memory required for data: 1072647456
I0403 14:53:47.983554 11259 layer_factory.hpp:77] Creating layer inception_4c/output_inception_4c/output_0_split
I0403 14:53:47.983572 11259 net.cpp:91] Creating Layer inception_4c/output_inception_4c/output_0_split
I0403 14:53:47.983587 11259 net.cpp:425] inception_4c/output_inception_4c/output_0_split <- inception_4c/output
I0403 14:53:47.983606 11259 net.cpp:399] inception_4c/output_inception_4c/output_0_split -> inception_4c/output_inception_4c/output_0_split_0
I0403 14:53:47.983628 11259 net.cpp:399] inception_4c/output_inception_4c/output_0_split -> inception_4c/output_inception_4c/output_0_split_1
I0403 14:53:47.983647 11259 net.cpp:399] inception_4c/output_inception_4c/output_0_split -> inception_4c/output_inception_4c/output_0_split_2
I0403 14:53:47.983666 11259 net.cpp:399] inception_4c/output_inception_4c/output_0_split -> inception_4c/output_inception_4c/output_0_split_3
I0403 14:53:47.983750 11259 net.cpp:141] Setting up inception_4c/output_inception_4c/output_0_split
I0403 14:53:47.983777 11259 net.cpp:148] Top shape: 24 512 14 14 (2408448)
I0403 14:53:47.983794 11259 net.cpp:148] Top shape: 24 512 14 14 (2408448)
I0403 14:53:47.983810 11259 net.cpp:148] Top shape: 24 512 14 14 (2408448)
I0403 14:53:47.983826 11259 net.cpp:148] Top shape: 24 512 14 14 (2408448)
I0403 14:53:47.983839 11259 net.cpp:156] Memory required for data: 1111182624
I0403 14:53:47.983853 11259 layer_factory.hpp:77] Creating layer inception_4d/1x1
I0403 14:53:47.983873 11259 net.cpp:91] Creating Layer inception_4d/1x1
I0403 14:53:47.983891 11259 net.cpp:425] inception_4d/1x1 <- inception_4c/output_inception_4c/output_0_split_0
I0403 14:53:47.983912 11259 net.cpp:399] inception_4d/1x1 -> inception_4d/1x1
I0403 14:53:47.985308 11259 net.cpp:141] Setting up inception_4d/1x1
I0403 14:53:47.985337 11259 net.cpp:148] Top shape: 24 112 14 14 (526848)
I0403 14:53:47.985352 11259 net.cpp:156] Memory required for data: 1113290016
I0403 14:53:47.985369 11259 layer_factory.hpp:77] Creating layer inception_4d/relu_1x1
I0403 14:53:47.985391 11259 net.cpp:91] Creating Layer inception_4d/relu_1x1
I0403 14:53:47.985407 11259 net.cpp:425] inception_4d/relu_1x1 <- inception_4d/1x1
I0403 14:53:47.985424 11259 net.cpp:386] inception_4d/relu_1x1 -> inception_4d/1x1 (in-place)
I0403 14:53:47.985610 11259 net.cpp:141] Setting up inception_4d/relu_1x1
I0403 14:53:47.985637 11259 net.cpp:148] Top shape: 24 112 14 14 (526848)
I0403 14:53:47.985652 11259 net.cpp:156] Memory required for data: 1115397408
I0403 14:53:47.985666 11259 layer_factory.hpp:77] Creating layer inception_4d/3x3_reduce
I0403 14:53:47.985703 11259 net.cpp:91] Creating Layer inception_4d/3x3_reduce
I0403 14:53:47.985723 11259 net.cpp:425] inception_4d/3x3_reduce <- inception_4c/output_inception_4c/output_0_split_1
I0403 14:53:47.985741 11259 net.cpp:399] inception_4d/3x3_reduce -> inception_4d/3x3_reduce
I0403 14:53:47.987321 11259 net.cpp:141] Setting up inception_4d/3x3_reduce
I0403 14:53:47.987350 11259 net.cpp:148] Top shape: 24 144 14 14 (677376)
I0403 14:53:47.987365 11259 net.cpp:156] Memory required for data: 1118106912
I0403 14:53:47.987382 11259 layer_factory.hpp:77] Creating layer inception_4d/relu_3x3_reduce
I0403 14:53:47.987402 11259 net.cpp:91] Creating Layer inception_4d/relu_3x3_reduce
I0403 14:53:47.987419 11259 net.cpp:425] inception_4d/relu_3x3_reduce <- inception_4d/3x3_reduce
I0403 14:53:47.987437 11259 net.cpp:386] inception_4d/relu_3x3_reduce -> inception_4d/3x3_reduce (in-place)
I0403 14:53:47.987725 11259 net.cpp:141] Setting up inception_4d/relu_3x3_reduce
I0403 14:53:47.987752 11259 net.cpp:148] Top shape: 24 144 14 14 (677376)
I0403 14:53:47.987767 11259 net.cpp:156] Memory required for data: 1120816416
I0403 14:53:47.987782 11259 layer_factory.hpp:77] Creating layer inception_4d/3x3
I0403 14:53:47.987803 11259 net.cpp:91] Creating Layer inception_4d/3x3
I0403 14:53:47.987821 11259 net.cpp:425] inception_4d/3x3 <- inception_4d/3x3_reduce
I0403 14:53:47.987843 11259 net.cpp:399] inception_4d/3x3 -> inception_4d/3x3
I0403 14:53:47.992192 11259 net.cpp:141] Setting up inception_4d/3x3
I0403 14:53:47.992223 11259 net.cpp:148] Top shape: 24 288 14 14 (1354752)
I0403 14:53:47.992240 11259 net.cpp:156] Memory required for data: 1126235424
I0403 14:53:47.992259 11259 layer_factory.hpp:77] Creating layer inception_4d/relu_3x3
I0403 14:53:47.992280 11259 net.cpp:91] Creating Layer inception_4d/relu_3x3
I0403 14:53:47.992296 11259 net.cpp:425] inception_4d/relu_3x3 <- inception_4d/3x3
I0403 14:53:47.992314 11259 net.cpp:386] inception_4d/relu_3x3 -> inception_4d/3x3 (in-place)
I0403 14:53:47.992499 11259 net.cpp:141] Setting up inception_4d/relu_3x3
I0403 14:53:47.992524 11259 net.cpp:148] Top shape: 24 288 14 14 (1354752)
I0403 14:53:47.992539 11259 net.cpp:156] Memory required for data: 1131654432
I0403 14:53:47.992554 11259 layer_factory.hpp:77] Creating layer inception_4d/5x5_reduce
I0403 14:53:47.992576 11259 net.cpp:91] Creating Layer inception_4d/5x5_reduce
I0403 14:53:47.992594 11259 net.cpp:425] inception_4d/5x5_reduce <- inception_4c/output_inception_4c/output_0_split_2
I0403 14:53:47.992615 11259 net.cpp:399] inception_4d/5x5_reduce -> inception_4d/5x5_reduce
I0403 14:53:47.993804 11259 net.cpp:141] Setting up inception_4d/5x5_reduce
I0403 14:53:47.993837 11259 net.cpp:148] Top shape: 24 32 14 14 (150528)
I0403 14:53:47.993854 11259 net.cpp:156] Memory required for data: 1132256544
I0403 14:53:47.993872 11259 layer_factory.hpp:77] Creating layer inception_4d/relu_5x5_reduce
I0403 14:53:47.993891 11259 net.cpp:91] Creating Layer inception_4d/relu_5x5_reduce
I0403 14:53:47.993907 11259 net.cpp:425] inception_4d/relu_5x5_reduce <- inception_4d/5x5_reduce
I0403 14:53:47.993924 11259 net.cpp:386] inception_4d/relu_5x5_reduce -> inception_4d/5x5_reduce (in-place)
I0403 14:53:47.994125 11259 net.cpp:141] Setting up inception_4d/relu_5x5_reduce
I0403 14:53:47.994154 11259 net.cpp:148] Top shape: 24 32 14 14 (150528)
I0403 14:53:47.994169 11259 net.cpp:156] Memory required for data: 1132858656
I0403 14:53:47.994184 11259 layer_factory.hpp:77] Creating layer inception_4d/5x5
I0403 14:53:47.994207 11259 net.cpp:91] Creating Layer inception_4d/5x5
I0403 14:53:47.994225 11259 net.cpp:425] inception_4d/5x5 <- inception_4d/5x5_reduce
I0403 14:53:47.994246 11259 net.cpp:399] inception_4d/5x5 -> inception_4d/5x5
I0403 14:53:47.995774 11259 net.cpp:141] Setting up inception_4d/5x5
I0403 14:53:47.995803 11259 net.cpp:148] Top shape: 24 64 14 14 (301056)
I0403 14:53:47.995818 11259 net.cpp:156] Memory required for data: 1134062880
I0403 14:53:47.995838 11259 layer_factory.hpp:77] Creating layer inception_4d/relu_5x5
I0403 14:53:47.995873 11259 net.cpp:91] Creating Layer inception_4d/relu_5x5
I0403 14:53:47.995898 11259 net.cpp:425] inception_4d/relu_5x5 <- inception_4d/5x5
I0403 14:53:47.995915 11259 net.cpp:386] inception_4d/relu_5x5 -> inception_4d/5x5 (in-place)
I0403 14:53:47.996227 11259 net.cpp:141] Setting up inception_4d/relu_5x5
I0403 14:53:47.996255 11259 net.cpp:148] Top shape: 24 64 14 14 (301056)
I0403 14:53:47.996270 11259 net.cpp:156] Memory required for data: 1135267104
I0403 14:53:47.996285 11259 layer_factory.hpp:77] Creating layer inception_4d/pool
I0403 14:53:47.996304 11259 net.cpp:91] Creating Layer inception_4d/pool
I0403 14:53:47.996320 11259 net.cpp:425] inception_4d/pool <- inception_4c/output_inception_4c/output_0_split_3
I0403 14:53:47.996341 11259 net.cpp:399] inception_4d/pool -> inception_4d/pool
I0403 14:53:47.996412 11259 net.cpp:141] Setting up inception_4d/pool
I0403 14:53:47.996440 11259 net.cpp:148] Top shape: 24 512 14 14 (2408448)
I0403 14:53:47.996456 11259 net.cpp:156] Memory required for data: 1144900896
I0403 14:53:47.996471 11259 layer_factory.hpp:77] Creating layer inception_4d/pool_proj
I0403 14:53:47.996493 11259 net.cpp:91] Creating Layer inception_4d/pool_proj
I0403 14:53:47.996512 11259 net.cpp:425] inception_4d/pool_proj <- inception_4d/pool
I0403 14:53:47.996531 11259 net.cpp:399] inception_4d/pool_proj -> inception_4d/pool_proj
I0403 14:53:47.998378 11259 net.cpp:141] Setting up inception_4d/pool_proj
I0403 14:53:47.998409 11259 net.cpp:148] Top shape: 24 64 14 14 (301056)
I0403 14:53:47.998437 11259 net.cpp:156] Memory required for data: 1146105120
I0403 14:53:47.998457 11259 layer_factory.hpp:77] Creating layer inception_4d/relu_pool_proj
I0403 14:53:47.998477 11259 net.cpp:91] Creating Layer inception_4d/relu_pool_proj
I0403 14:53:47.998495 11259 net.cpp:425] inception_4d/relu_pool_proj <- inception_4d/pool_proj
I0403 14:53:47.998512 11259 net.cpp:386] inception_4d/relu_pool_proj -> inception_4d/pool_proj (in-place)
I0403 14:53:47.998704 11259 net.cpp:141] Setting up inception_4d/relu_pool_proj
I0403 14:53:47.998731 11259 net.cpp:148] Top shape: 24 64 14 14 (301056)
I0403 14:53:47.998746 11259 net.cpp:156] Memory required for data: 1147309344
I0403 14:53:47.998760 11259 layer_factory.hpp:77] Creating layer inception_4d/output
I0403 14:53:47.998780 11259 net.cpp:91] Creating Layer inception_4d/output
I0403 14:53:47.998795 11259 net.cpp:425] inception_4d/output <- inception_4d/1x1
I0403 14:53:47.998811 11259 net.cpp:425] inception_4d/output <- inception_4d/3x3
I0403 14:53:47.998827 11259 net.cpp:425] inception_4d/output <- inception_4d/5x5
I0403 14:53:47.998843 11259 net.cpp:425] inception_4d/output <- inception_4d/pool_proj
I0403 14:53:47.998864 11259 net.cpp:399] inception_4d/output -> inception_4d/output
I0403 14:53:47.998914 11259 net.cpp:141] Setting up inception_4d/output
I0403 14:53:47.998942 11259 net.cpp:148] Top shape: 24 528 14 14 (2483712)
I0403 14:53:47.998957 11259 net.cpp:156] Memory required for data: 1157244192
I0403 14:53:47.998972 11259 layer_factory.hpp:77] Creating layer inception_4d/output_inception_4d/output_0_split
I0403 14:53:47.998991 11259 net.cpp:91] Creating Layer inception_4d/output_inception_4d/output_0_split
I0403 14:53:47.999006 11259 net.cpp:425] inception_4d/output_inception_4d/output_0_split <- inception_4d/output
I0403 14:53:47.999025 11259 net.cpp:399] inception_4d/output_inception_4d/output_0_split -> inception_4d/output_inception_4d/output_0_split_0
I0403 14:53:47.999047 11259 net.cpp:399] inception_4d/output_inception_4d/output_0_split -> inception_4d/output_inception_4d/output_0_split_1
I0403 14:53:47.999069 11259 net.cpp:399] inception_4d/output_inception_4d/output_0_split -> inception_4d/output_inception_4d/output_0_split_2
I0403 14:53:47.999090 11259 net.cpp:399] inception_4d/output_inception_4d/output_0_split -> inception_4d/output_inception_4d/output_0_split_3
I0403 14:53:47.999124 11259 net.cpp:399] inception_4d/output_inception_4d/output_0_split -> inception_4d/output_inception_4d/output_0_split_4
I0403 14:53:47.999233 11259 net.cpp:141] Setting up inception_4d/output_inception_4d/output_0_split
I0403 14:53:47.999269 11259 net.cpp:148] Top shape: 24 528 14 14 (2483712)
I0403 14:53:47.999287 11259 net.cpp:148] Top shape: 24 528 14 14 (2483712)
I0403 14:53:47.999305 11259 net.cpp:148] Top shape: 24 528 14 14 (2483712)
I0403 14:53:47.999320 11259 net.cpp:148] Top shape: 24 528 14 14 (2483712)
I0403 14:53:47.999336 11259 net.cpp:148] Top shape: 24 528 14 14 (2483712)
I0403 14:53:47.999349 11259 net.cpp:156] Memory required for data: 1206918432
I0403 14:53:47.999364 11259 layer_factory.hpp:77] Creating layer loss2/ave_pool
I0403 14:53:47.999384 11259 net.cpp:91] Creating Layer loss2/ave_pool
I0403 14:53:47.999402 11259 net.cpp:425] loss2/ave_pool <- inception_4d/output_inception_4d/output_0_split_0
I0403 14:53:47.999421 11259 net.cpp:399] loss2/ave_pool -> loss2/ave_pool
I0403 14:53:47.999747 11259 net.cpp:141] Setting up loss2/ave_pool
I0403 14:53:47.999776 11259 net.cpp:148] Top shape: 24 528 4 4 (202752)
I0403 14:53:47.999791 11259 net.cpp:156] Memory required for data: 1207729440
I0403 14:53:47.999807 11259 layer_factory.hpp:77] Creating layer loss2/conv
I0403 14:53:47.999832 11259 net.cpp:91] Creating Layer loss2/conv
I0403 14:53:47.999850 11259 net.cpp:425] loss2/conv <- loss2/ave_pool
I0403 14:53:47.999869 11259 net.cpp:399] loss2/conv -> loss2/conv
I0403 14:53:48.001837 11259 net.cpp:141] Setting up loss2/conv
I0403 14:53:48.001868 11259 net.cpp:148] Top shape: 24 128 4 4 (49152)
I0403 14:53:48.001884 11259 net.cpp:156] Memory required for data: 1207926048
I0403 14:53:48.001902 11259 layer_factory.hpp:77] Creating layer loss2/relu_conv
I0403 14:53:48.001920 11259 net.cpp:91] Creating Layer loss2/relu_conv
I0403 14:53:48.001937 11259 net.cpp:425] loss2/relu_conv <- loss2/conv
I0403 14:53:48.001957 11259 net.cpp:386] loss2/relu_conv -> loss2/conv (in-place)
I0403 14:53:48.002271 11259 net.cpp:141] Setting up loss2/relu_conv
I0403 14:53:48.002300 11259 net.cpp:148] Top shape: 24 128 4 4 (49152)
I0403 14:53:48.002315 11259 net.cpp:156] Memory required for data: 1208122656
I0403 14:53:48.002331 11259 layer_factory.hpp:77] Creating layer loss2/fc
I0403 14:53:48.002349 11259 net.cpp:91] Creating Layer loss2/fc
I0403 14:53:48.002367 11259 net.cpp:425] loss2/fc <- loss2/conv
I0403 14:53:48.002388 11259 net.cpp:399] loss2/fc -> loss2/fc
I0403 14:53:48.020452 11259 net.cpp:141] Setting up loss2/fc
I0403 14:53:48.020514 11259 net.cpp:148] Top shape: 24 1024 (24576)
I0403 14:53:48.020530 11259 net.cpp:156] Memory required for data: 1208220960
I0403 14:53:48.020550 11259 layer_factory.hpp:77] Creating layer loss2/relu_fc
I0403 14:53:48.020570 11259 net.cpp:91] Creating Layer loss2/relu_fc
I0403 14:53:48.020587 11259 net.cpp:425] loss2/relu_fc <- loss2/fc
I0403 14:53:48.020606 11259 net.cpp:386] loss2/relu_fc -> loss2/fc (in-place)
I0403 14:53:48.020939 11259 net.cpp:141] Setting up loss2/relu_fc
I0403 14:53:48.020968 11259 net.cpp:148] Top shape: 24 1024 (24576)
I0403 14:53:48.020985 11259 net.cpp:156] Memory required for data: 1208319264
I0403 14:53:48.021000 11259 layer_factory.hpp:77] Creating layer loss2/drop_fc
I0403 14:53:48.021019 11259 net.cpp:91] Creating Layer loss2/drop_fc
I0403 14:53:48.021035 11259 net.cpp:425] loss2/drop_fc <- loss2/fc
I0403 14:53:48.021051 11259 net.cpp:386] loss2/drop_fc -> loss2/fc (in-place)
I0403 14:53:48.021108 11259 net.cpp:141] Setting up loss2/drop_fc
I0403 14:53:48.021133 11259 net.cpp:148] Top shape: 24 1024 (24576)
I0403 14:53:48.021148 11259 net.cpp:156] Memory required for data: 1208417568
I0403 14:53:48.021163 11259 layer_factory.hpp:77] Creating layer loss2/classifier_plantvillage
I0403 14:53:48.021184 11259 net.cpp:91] Creating Layer loss2/classifier_plantvillage
I0403 14:53:48.021201 11259 net.cpp:425] loss2/classifier_plantvillage <- loss2/fc
I0403 14:53:48.021220 11259 net.cpp:399] loss2/classifier_plantvillage -> loss2/classifier_plantvillage
I0403 14:53:48.021636 11259 net.cpp:141] Setting up loss2/classifier_plantvillage
I0403 14:53:48.021662 11259 net.cpp:148] Top shape: 24 38 (912)
I0403 14:53:48.021703 11259 net.cpp:156] Memory required for data: 1208421216
I0403 14:53:48.021720 11259 layer_factory.hpp:77] Creating layer loss2/classifier_plantvillage_loss2/classifier_plantvillage_0_split
I0403 14:53:48.021739 11259 net.cpp:91] Creating Layer loss2/classifier_plantvillage_loss2/classifier_plantvillage_0_split
I0403 14:53:48.021755 11259 net.cpp:425] loss2/classifier_plantvillage_loss2/classifier_plantvillage_0_split <- loss2/classifier_plantvillage
I0403 14:53:48.021775 11259 net.cpp:399] loss2/classifier_plantvillage_loss2/classifier_plantvillage_0_split -> loss2/classifier_plantvillage_loss2/classifier_plantvillage_0_split_0
I0403 14:53:48.021796 11259 net.cpp:399] loss2/classifier_plantvillage_loss2/classifier_plantvillage_0_split -> loss2/classifier_plantvillage_loss2/classifier_plantvillage_0_split_1
I0403 14:53:48.021817 11259 net.cpp:399] loss2/classifier_plantvillage_loss2/classifier_plantvillage_0_split -> loss2/classifier_plantvillage_loss2/classifier_plantvillage_0_split_2
I0403 14:53:48.021898 11259 net.cpp:141] Setting up loss2/classifier_plantvillage_loss2/classifier_plantvillage_0_split
I0403 14:53:48.021922 11259 net.cpp:148] Top shape: 24 38 (912)
I0403 14:53:48.021939 11259 net.cpp:148] Top shape: 24 38 (912)
I0403 14:53:48.021953 11259 net.cpp:148] Top shape: 24 38 (912)
I0403 14:53:48.021966 11259 net.cpp:156] Memory required for data: 1208432160
I0403 14:53:48.021982 11259 layer_factory.hpp:77] Creating layer inception_4e/1x1
I0403 14:53:48.022006 11259 net.cpp:91] Creating Layer inception_4e/1x1
I0403 14:53:48.022023 11259 net.cpp:425] inception_4e/1x1 <- inception_4d/output_inception_4d/output_0_split_1
I0403 14:53:48.022042 11259 net.cpp:399] inception_4e/1x1 -> inception_4e/1x1
I0403 14:53:48.023922 11259 net.cpp:141] Setting up inception_4e/1x1
I0403 14:53:48.023952 11259 net.cpp:148] Top shape: 24 256 14 14 (1204224)
I0403 14:53:48.023967 11259 net.cpp:156] Memory required for data: 1213249056
I0403 14:53:48.023984 11259 layer_factory.hpp:77] Creating layer inception_4e/relu_1x1
I0403 14:53:48.024005 11259 net.cpp:91] Creating Layer inception_4e/relu_1x1
I0403 14:53:48.024022 11259 net.cpp:425] inception_4e/relu_1x1 <- inception_4e/1x1
I0403 14:53:48.024040 11259 net.cpp:386] inception_4e/relu_1x1 -> inception_4e/1x1 (in-place)
I0403 14:53:48.024363 11259 net.cpp:141] Setting up inception_4e/relu_1x1
I0403 14:53:48.024391 11259 net.cpp:148] Top shape: 24 256 14 14 (1204224)
I0403 14:53:48.024406 11259 net.cpp:156] Memory required for data: 1218065952
I0403 14:53:48.024435 11259 layer_factory.hpp:77] Creating layer inception_4e/3x3_reduce
I0403 14:53:48.024456 11259 net.cpp:91] Creating Layer inception_4e/3x3_reduce
I0403 14:53:48.024476 11259 net.cpp:425] inception_4e/3x3_reduce <- inception_4d/output_inception_4d/output_0_split_2
I0403 14:53:48.024497 11259 net.cpp:399] inception_4e/3x3_reduce -> inception_4e/3x3_reduce
I0403 14:53:48.026638 11259 net.cpp:141] Setting up inception_4e/3x3_reduce
I0403 14:53:48.026667 11259 net.cpp:148] Top shape: 24 160 14 14 (752640)
I0403 14:53:48.026684 11259 net.cpp:156] Memory required for data: 1221076512
I0403 14:53:48.026701 11259 layer_factory.hpp:77] Creating layer inception_4e/relu_3x3_reduce
I0403 14:53:48.026720 11259 net.cpp:91] Creating Layer inception_4e/relu_3x3_reduce
I0403 14:53:48.026736 11259 net.cpp:425] inception_4e/relu_3x3_reduce <- inception_4e/3x3_reduce
I0403 14:53:48.026754 11259 net.cpp:386] inception_4e/relu_3x3_reduce -> inception_4e/3x3_reduce (in-place)
I0403 14:53:48.026944 11259 net.cpp:141] Setting up inception_4e/relu_3x3_reduce
I0403 14:53:48.026970 11259 net.cpp:148] Top shape: 24 160 14 14 (752640)
I0403 14:53:48.026985 11259 net.cpp:156] Memory required for data: 1224087072
I0403 14:53:48.026999 11259 layer_factory.hpp:77] Creating layer inception_4e/3x3
I0403 14:53:48.027022 11259 net.cpp:91] Creating Layer inception_4e/3x3
I0403 14:53:48.027040 11259 net.cpp:425] inception_4e/3x3 <- inception_4e/3x3_reduce
I0403 14:53:48.027061 11259 net.cpp:399] inception_4e/3x3 -> inception_4e/3x3
I0403 14:53:48.032073 11259 net.cpp:141] Setting up inception_4e/3x3
I0403 14:53:48.032129 11259 net.cpp:148] Top shape: 24 320 14 14 (1505280)
I0403 14:53:48.032145 11259 net.cpp:156] Memory required for data: 1230108192
I0403 14:53:48.032163 11259 layer_factory.hpp:77] Creating layer inception_4e/relu_3x3
I0403 14:53:48.032183 11259 net.cpp:91] Creating Layer inception_4e/relu_3x3
I0403 14:53:48.032203 11259 net.cpp:425] inception_4e/relu_3x3 <- inception_4e/3x3
I0403 14:53:48.032222 11259 net.cpp:386] inception_4e/relu_3x3 -> inception_4e/3x3 (in-place)
I0403 14:53:48.032524 11259 net.cpp:141] Setting up inception_4e/relu_3x3
I0403 14:53:48.032552 11259 net.cpp:148] Top shape: 24 320 14 14 (1505280)
I0403 14:53:48.032570 11259 net.cpp:156] Memory required for data: 1236129312
I0403 14:53:48.032585 11259 layer_factory.hpp:77] Creating layer inception_4e/5x5_reduce
I0403 14:53:48.032604 11259 net.cpp:91] Creating Layer inception_4e/5x5_reduce
I0403 14:53:48.032621 11259 net.cpp:425] inception_4e/5x5_reduce <- inception_4d/output_inception_4d/output_0_split_3
I0403 14:53:48.032644 11259 net.cpp:399] inception_4e/5x5_reduce -> inception_4e/5x5_reduce
I0403 14:53:48.033727 11259 net.cpp:141] Setting up inception_4e/5x5_reduce
I0403 14:53:48.033756 11259 net.cpp:148] Top shape: 24 32 14 14 (150528)
I0403 14:53:48.033772 11259 net.cpp:156] Memory required for data: 1236731424
I0403 14:53:48.033789 11259 layer_factory.hpp:77] Creating layer inception_4e/relu_5x5_reduce
I0403 14:53:48.033808 11259 net.cpp:91] Creating Layer inception_4e/relu_5x5_reduce
I0403 14:53:48.033826 11259 net.cpp:425] inception_4e/relu_5x5_reduce <- inception_4e/5x5_reduce
I0403 14:53:48.033844 11259 net.cpp:386] inception_4e/relu_5x5_reduce -> inception_4e/5x5_reduce (in-place)
I0403 14:53:48.034167 11259 net.cpp:141] Setting up inception_4e/relu_5x5_reduce
I0403 14:53:48.034194 11259 net.cpp:148] Top shape: 24 32 14 14 (150528)
I0403 14:53:48.034210 11259 net.cpp:156] Memory required for data: 1237333536
I0403 14:53:48.034225 11259 layer_factory.hpp:77] Creating layer inception_4e/5x5
I0403 14:53:48.034266 11259 net.cpp:91] Creating Layer inception_4e/5x5
I0403 14:53:48.034286 11259 net.cpp:425] inception_4e/5x5 <- inception_4e/5x5_reduce
I0403 14:53:48.034307 11259 net.cpp:399] inception_4e/5x5 -> inception_4e/5x5
I0403 14:53:48.036192 11259 net.cpp:141] Setting up inception_4e/5x5
I0403 14:53:48.036224 11259 net.cpp:148] Top shape: 24 128 14 14 (602112)
I0403 14:53:48.036242 11259 net.cpp:156] Memory required for data: 1239741984
I0403 14:53:48.036262 11259 layer_factory.hpp:77] Creating layer inception_4e/relu_5x5
I0403 14:53:48.036279 11259 net.cpp:91] Creating Layer inception_4e/relu_5x5
I0403 14:53:48.036295 11259 net.cpp:425] inception_4e/relu_5x5 <- inception_4e/5x5
I0403 14:53:48.036314 11259 net.cpp:386] inception_4e/relu_5x5 -> inception_4e/5x5 (in-place)
I0403 14:53:48.036530 11259 net.cpp:141] Setting up inception_4e/relu_5x5
I0403 14:53:48.036556 11259 net.cpp:148] Top shape: 24 128 14 14 (602112)
I0403 14:53:48.036571 11259 net.cpp:156] Memory required for data: 1242150432
I0403 14:53:48.036586 11259 layer_factory.hpp:77] Creating layer inception_4e/pool
I0403 14:53:48.036604 11259 net.cpp:91] Creating Layer inception_4e/pool
I0403 14:53:48.036622 11259 net.cpp:425] inception_4e/pool <- inception_4d/output_inception_4d/output_0_split_4
I0403 14:53:48.036641 11259 net.cpp:399] inception_4e/pool -> inception_4e/pool
I0403 14:53:48.036715 11259 net.cpp:141] Setting up inception_4e/pool
I0403 14:53:48.036739 11259 net.cpp:148] Top shape: 24 528 14 14 (2483712)
I0403 14:53:48.036754 11259 net.cpp:156] Memory required for data: 1252085280
I0403 14:53:48.036768 11259 layer_factory.hpp:77] Creating layer inception_4e/pool_proj
I0403 14:53:48.036792 11259 net.cpp:91] Creating Layer inception_4e/pool_proj
I0403 14:53:48.036809 11259 net.cpp:425] inception_4e/pool_proj <- inception_4e/pool
I0403 14:53:48.036828 11259 net.cpp:399] inception_4e/pool_proj -> inception_4e/pool_proj
I0403 14:53:48.038346 11259 net.cpp:141] Setting up inception_4e/pool_proj
I0403 14:53:48.038386 11259 net.cpp:148] Top shape: 24 128 14 14 (602112)
I0403 14:53:48.038403 11259 net.cpp:156] Memory required for data: 1254493728
I0403 14:53:48.038424 11259 layer_factory.hpp:77] Creating layer inception_4e/relu_pool_proj
I0403 14:53:48.038444 11259 net.cpp:91] Creating Layer inception_4e/relu_pool_proj
I0403 14:53:48.038460 11259 net.cpp:425] inception_4e/relu_pool_proj <- inception_4e/pool_proj
I0403 14:53:48.038476 11259 net.cpp:386] inception_4e/relu_pool_proj -> inception_4e/pool_proj (in-place)
I0403 14:53:48.038771 11259 net.cpp:141] Setting up inception_4e/relu_pool_proj
I0403 14:53:48.038801 11259 net.cpp:148] Top shape: 24 128 14 14 (602112)
I0403 14:53:48.038817 11259 net.cpp:156] Memory required for data: 1256902176
I0403 14:53:48.038832 11259 layer_factory.hpp:77] Creating layer inception_4e/output
I0403 14:53:48.038851 11259 net.cpp:91] Creating Layer inception_4e/output
I0403 14:53:48.038866 11259 net.cpp:425] inception_4e/output <- inception_4e/1x1
I0403 14:53:48.038882 11259 net.cpp:425] inception_4e/output <- inception_4e/3x3
I0403 14:53:48.038897 11259 net.cpp:425] inception_4e/output <- inception_4e/5x5
I0403 14:53:48.038913 11259 net.cpp:425] inception_4e/output <- inception_4e/pool_proj
I0403 14:53:48.038929 11259 net.cpp:399] inception_4e/output -> inception_4e/output
I0403 14:53:48.038981 11259 net.cpp:141] Setting up inception_4e/output
I0403 14:53:48.039006 11259 net.cpp:148] Top shape: 24 832 14 14 (3913728)
I0403 14:53:48.039021 11259 net.cpp:156] Memory required for data: 1272557088
I0403 14:53:48.039036 11259 layer_factory.hpp:77] Creating layer pool4/3x3_s2
I0403 14:53:48.039055 11259 net.cpp:91] Creating Layer pool4/3x3_s2
I0403 14:53:48.039073 11259 net.cpp:425] pool4/3x3_s2 <- inception_4e/output
I0403 14:53:48.039091 11259 net.cpp:399] pool4/3x3_s2 -> pool4/3x3_s2
I0403 14:53:48.039171 11259 net.cpp:141] Setting up pool4/3x3_s2
I0403 14:53:48.039196 11259 net.cpp:148] Top shape: 24 832 7 7 (978432)
I0403 14:53:48.039211 11259 net.cpp:156] Memory required for data: 1276470816
I0403 14:53:48.039225 11259 layer_factory.hpp:77] Creating layer pool4/3x3_s2_pool4/3x3_s2_0_split
I0403 14:53:48.039242 11259 net.cpp:91] Creating Layer pool4/3x3_s2_pool4/3x3_s2_0_split
I0403 14:53:48.039258 11259 net.cpp:425] pool4/3x3_s2_pool4/3x3_s2_0_split <- pool4/3x3_s2
I0403 14:53:48.039276 11259 net.cpp:399] pool4/3x3_s2_pool4/3x3_s2_0_split -> pool4/3x3_s2_pool4/3x3_s2_0_split_0
I0403 14:53:48.039296 11259 net.cpp:399] pool4/3x3_s2_pool4/3x3_s2_0_split -> pool4/3x3_s2_pool4/3x3_s2_0_split_1
I0403 14:53:48.039316 11259 net.cpp:399] pool4/3x3_s2_pool4/3x3_s2_0_split -> pool4/3x3_s2_pool4/3x3_s2_0_split_2
I0403 14:53:48.039336 11259 net.cpp:399] pool4/3x3_s2_pool4/3x3_s2_0_split -> pool4/3x3_s2_pool4/3x3_s2_0_split_3
I0403 14:53:48.039428 11259 net.cpp:141] Setting up pool4/3x3_s2_pool4/3x3_s2_0_split
I0403 14:53:48.039454 11259 net.cpp:148] Top shape: 24 832 7 7 (978432)
I0403 14:53:48.039472 11259 net.cpp:148] Top shape: 24 832 7 7 (978432)
I0403 14:53:48.039487 11259 net.cpp:148] Top shape: 24 832 7 7 (978432)
I0403 14:53:48.039504 11259 net.cpp:148] Top shape: 24 832 7 7 (978432)
I0403 14:53:48.039517 11259 net.cpp:156] Memory required for data: 1292125728
I0403 14:53:48.039531 11259 layer_factory.hpp:77] Creating layer inception_5a/1x1
I0403 14:53:48.039553 11259 net.cpp:91] Creating Layer inception_5a/1x1
I0403 14:53:48.039571 11259 net.cpp:425] inception_5a/1x1 <- pool4/3x3_s2_pool4/3x3_s2_0_split_0
I0403 14:53:48.039589 11259 net.cpp:399] inception_5a/1x1 -> inception_5a/1x1
I0403 14:53:48.042518 11259 net.cpp:141] Setting up inception_5a/1x1
I0403 14:53:48.042548 11259 net.cpp:148] Top shape: 24 256 7 7 (301056)
I0403 14:53:48.042563 11259 net.cpp:156] Memory required for data: 1293329952
I0403 14:53:48.042582 11259 layer_factory.hpp:77] Creating layer inception_5a/relu_1x1
I0403 14:53:48.042599 11259 net.cpp:91] Creating Layer inception_5a/relu_1x1
I0403 14:53:48.042614 11259 net.cpp:425] inception_5a/relu_1x1 <- inception_5a/1x1
I0403 14:53:48.042634 11259 net.cpp:386] inception_5a/relu_1x1 -> inception_5a/1x1 (in-place)
I0403 14:53:48.042953 11259 net.cpp:141] Setting up inception_5a/relu_1x1
I0403 14:53:48.042980 11259 net.cpp:148] Top shape: 24 256 7 7 (301056)
I0403 14:53:48.042995 11259 net.cpp:156] Memory required for data: 1294534176
I0403 14:53:48.043010 11259 layer_factory.hpp:77] Creating layer inception_5a/3x3_reduce
I0403 14:53:48.043032 11259 net.cpp:91] Creating Layer inception_5a/3x3_reduce
I0403 14:53:48.043050 11259 net.cpp:425] inception_5a/3x3_reduce <- pool4/3x3_s2_pool4/3x3_s2_0_split_1
I0403 14:53:48.043071 11259 net.cpp:399] inception_5a/3x3_reduce -> inception_5a/3x3_reduce
I0403 14:53:48.045596 11259 net.cpp:141] Setting up inception_5a/3x3_reduce
I0403 14:53:48.045626 11259 net.cpp:148] Top shape: 24 160 7 7 (188160)
I0403 14:53:48.045642 11259 net.cpp:156] Memory required for data: 1295286816
I0403 14:53:48.045660 11259 layer_factory.hpp:77] Creating layer inception_5a/relu_3x3_reduce
I0403 14:53:48.045680 11259 net.cpp:91] Creating Layer inception_5a/relu_3x3_reduce
I0403 14:53:48.045697 11259 net.cpp:425] inception_5a/relu_3x3_reduce <- inception_5a/3x3_reduce
I0403 14:53:48.045717 11259 net.cpp:386] inception_5a/relu_3x3_reduce -> inception_5a/3x3_reduce (in-place)
I0403 14:53:48.045907 11259 net.cpp:141] Setting up inception_5a/relu_3x3_reduce
I0403 14:53:48.045935 11259 net.cpp:148] Top shape: 24 160 7 7 (188160)
I0403 14:53:48.045950 11259 net.cpp:156] Memory required for data: 1296039456
I0403 14:53:48.045964 11259 layer_factory.hpp:77] Creating layer inception_5a/3x3
I0403 14:53:48.045986 11259 net.cpp:91] Creating Layer inception_5a/3x3
I0403 14:53:48.046005 11259 net.cpp:425] inception_5a/3x3 <- inception_5a/3x3_reduce
I0403 14:53:48.046026 11259 net.cpp:399] inception_5a/3x3 -> inception_5a/3x3
I0403 14:53:48.051264 11259 net.cpp:141] Setting up inception_5a/3x3
I0403 14:53:48.051296 11259 net.cpp:148] Top shape: 24 320 7 7 (376320)
I0403 14:53:48.051314 11259 net.cpp:156] Memory required for data: 1297544736
I0403 14:53:48.051333 11259 layer_factory.hpp:77] Creating layer inception_5a/relu_3x3
I0403 14:53:48.051352 11259 net.cpp:91] Creating Layer inception_5a/relu_3x3
I0403 14:53:48.051368 11259 net.cpp:425] inception_5a/relu_3x3 <- inception_5a/3x3
I0403 14:53:48.051388 11259 net.cpp:386] inception_5a/relu_3x3 -> inception_5a/3x3 (in-place)
I0403 14:53:48.051695 11259 net.cpp:141] Setting up inception_5a/relu_3x3
I0403 14:53:48.051725 11259 net.cpp:148] Top shape: 24 320 7 7 (376320)
I0403 14:53:48.051741 11259 net.cpp:156] Memory required for data: 1299050016
I0403 14:53:48.051756 11259 layer_factory.hpp:77] Creating layer inception_5a/5x5_reduce
I0403 14:53:48.051780 11259 net.cpp:91] Creating Layer inception_5a/5x5_reduce
I0403 14:53:48.051800 11259 net.cpp:425] inception_5a/5x5_reduce <- pool4/3x3_s2_pool4/3x3_s2_0_split_2
I0403 14:53:48.051818 11259 net.cpp:399] inception_5a/5x5_reduce -> inception_5a/5x5_reduce
I0403 14:53:48.053083 11259 net.cpp:141] Setting up inception_5a/5x5_reduce
I0403 14:53:48.053122 11259 net.cpp:148] Top shape: 24 32 7 7 (37632)
I0403 14:53:48.053138 11259 net.cpp:156] Memory required for data: 1299200544
I0403 14:53:48.053158 11259 layer_factory.hpp:77] Creating layer inception_5a/relu_5x5_reduce
I0403 14:53:48.053176 11259 net.cpp:91] Creating Layer inception_5a/relu_5x5_reduce
I0403 14:53:48.053194 11259 net.cpp:425] inception_5a/relu_5x5_reduce <- inception_5a/5x5_reduce
I0403 14:53:48.053212 11259 net.cpp:386] inception_5a/relu_5x5_reduce -> inception_5a/5x5_reduce (in-place)
I0403 14:53:48.053524 11259 net.cpp:141] Setting up inception_5a/relu_5x5_reduce
I0403 14:53:48.053551 11259 net.cpp:148] Top shape: 24 32 7 7 (37632)
I0403 14:53:48.053567 11259 net.cpp:156] Memory required for data: 1299351072
I0403 14:53:48.053582 11259 layer_factory.hpp:77] Creating layer inception_5a/5x5
I0403 14:53:48.053606 11259 net.cpp:91] Creating Layer inception_5a/5x5
I0403 14:53:48.053623 11259 net.cpp:425] inception_5a/5x5 <- inception_5a/5x5_reduce
I0403 14:53:48.053645 11259 net.cpp:399] inception_5a/5x5 -> inception_5a/5x5
I0403 14:53:48.055449 11259 net.cpp:141] Setting up inception_5a/5x5
I0403 14:53:48.055495 11259 net.cpp:148] Top shape: 24 128 7 7 (150528)
I0403 14:53:48.055511 11259 net.cpp:156] Memory required for data: 1299953184
I0403 14:53:48.055531 11259 layer_factory.hpp:77] Creating layer inception_5a/relu_5x5
I0403 14:53:48.055548 11259 net.cpp:91] Creating Layer inception_5a/relu_5x5
I0403 14:53:48.055565 11259 net.cpp:425] inception_5a/relu_5x5 <- inception_5a/5x5
I0403 14:53:48.055585 11259 net.cpp:386] inception_5a/relu_5x5 -> inception_5a/5x5 (in-place)
I0403 14:53:48.055786 11259 net.cpp:141] Setting up inception_5a/relu_5x5
I0403 14:53:48.055814 11259 net.cpp:148] Top shape: 24 128 7 7 (150528)
I0403 14:53:48.055827 11259 net.cpp:156] Memory required for data: 1300555296
I0403 14:53:48.055842 11259 layer_factory.hpp:77] Creating layer inception_5a/pool
I0403 14:53:48.055860 11259 net.cpp:91] Creating Layer inception_5a/pool
I0403 14:53:48.055876 11259 net.cpp:425] inception_5a/pool <- pool4/3x3_s2_pool4/3x3_s2_0_split_3
I0403 14:53:48.055897 11259 net.cpp:399] inception_5a/pool -> inception_5a/pool
I0403 14:53:48.055973 11259 net.cpp:141] Setting up inception_5a/pool
I0403 14:53:48.055997 11259 net.cpp:148] Top shape: 24 832 7 7 (978432)
I0403 14:53:48.056012 11259 net.cpp:156] Memory required for data: 1304469024
I0403 14:53:48.056028 11259 layer_factory.hpp:77] Creating layer inception_5a/pool_proj
I0403 14:53:48.056052 11259 net.cpp:91] Creating Layer inception_5a/pool_proj
I0403 14:53:48.056071 11259 net.cpp:425] inception_5a/pool_proj <- inception_5a/pool
I0403 14:53:48.056089 11259 net.cpp:399] inception_5a/pool_proj -> inception_5a/pool_proj
I0403 14:53:48.058476 11259 net.cpp:141] Setting up inception_5a/pool_proj
I0403 14:53:48.058511 11259 net.cpp:148] Top shape: 24 128 7 7 (150528)
I0403 14:53:48.058528 11259 net.cpp:156] Memory required for data: 1305071136
I0403 14:53:48.058547 11259 layer_factory.hpp:77] Creating layer inception_5a/relu_pool_proj
I0403 14:53:48.058567 11259 net.cpp:91] Creating Layer inception_5a/relu_pool_proj
I0403 14:53:48.058583 11259 net.cpp:425] inception_5a/relu_pool_proj <- inception_5a/pool_proj
I0403 14:53:48.058601 11259 net.cpp:386] inception_5a/relu_pool_proj -> inception_5a/pool_proj (in-place)
I0403 14:53:48.058912 11259 net.cpp:141] Setting up inception_5a/relu_pool_proj
I0403 14:53:48.058943 11259 net.cpp:148] Top shape: 24 128 7 7 (150528)
I0403 14:53:48.058957 11259 net.cpp:156] Memory required for data: 1305673248
I0403 14:53:48.058972 11259 layer_factory.hpp:77] Creating layer inception_5a/output
I0403 14:53:48.058990 11259 net.cpp:91] Creating Layer inception_5a/output
I0403 14:53:48.059006 11259 net.cpp:425] inception_5a/output <- inception_5a/1x1
I0403 14:53:48.059023 11259 net.cpp:425] inception_5a/output <- inception_5a/3x3
I0403 14:53:48.059039 11259 net.cpp:425] inception_5a/output <- inception_5a/5x5
I0403 14:53:48.059056 11259 net.cpp:425] inception_5a/output <- inception_5a/pool_proj
I0403 14:53:48.059073 11259 net.cpp:399] inception_5a/output -> inception_5a/output
I0403 14:53:48.059133 11259 net.cpp:141] Setting up inception_5a/output
I0403 14:53:48.059159 11259 net.cpp:148] Top shape: 24 832 7 7 (978432)
I0403 14:53:48.059172 11259 net.cpp:156] Memory required for data: 1309586976
I0403 14:53:48.059187 11259 layer_factory.hpp:77] Creating layer inception_5a/output_inception_5a/output_0_split
I0403 14:53:48.059207 11259 net.cpp:91] Creating Layer inception_5a/output_inception_5a/output_0_split
I0403 14:53:48.059226 11259 net.cpp:425] inception_5a/output_inception_5a/output_0_split <- inception_5a/output
I0403 14:53:48.059243 11259 net.cpp:399] inception_5a/output_inception_5a/output_0_split -> inception_5a/output_inception_5a/output_0_split_0
I0403 14:53:48.059264 11259 net.cpp:399] inception_5a/output_inception_5a/output_0_split -> inception_5a/output_inception_5a/output_0_split_1
I0403 14:53:48.059284 11259 net.cpp:399] inception_5a/output_inception_5a/output_0_split -> inception_5a/output_inception_5a/output_0_split_2
I0403 14:53:48.059306 11259 net.cpp:399] inception_5a/output_inception_5a/output_0_split -> inception_5a/output_inception_5a/output_0_split_3
I0403 14:53:48.059427 11259 net.cpp:141] Setting up inception_5a/output_inception_5a/output_0_split
I0403 14:53:48.059453 11259 net.cpp:148] Top shape: 24 832 7 7 (978432)
I0403 14:53:48.059470 11259 net.cpp:148] Top shape: 24 832 7 7 (978432)
I0403 14:53:48.059486 11259 net.cpp:148] Top shape: 24 832 7 7 (978432)
I0403 14:53:48.059502 11259 net.cpp:148] Top shape: 24 832 7 7 (978432)
I0403 14:53:48.059516 11259 net.cpp:156] Memory required for data: 1325241888
I0403 14:53:48.059531 11259 layer_factory.hpp:77] Creating layer inception_5b/1x1
I0403 14:53:48.059553 11259 net.cpp:91] Creating Layer inception_5b/1x1
I0403 14:53:48.059571 11259 net.cpp:425] inception_5b/1x1 <- inception_5a/output_inception_5a/output_0_split_0
I0403 14:53:48.059593 11259 net.cpp:399] inception_5b/1x1 -> inception_5b/1x1
I0403 14:53:48.063520 11259 net.cpp:141] Setting up inception_5b/1x1
I0403 14:53:48.063551 11259 net.cpp:148] Top shape: 24 384 7 7 (451584)
I0403 14:53:48.063567 11259 net.cpp:156] Memory required for data: 1327048224
I0403 14:53:48.063587 11259 layer_factory.hpp:77] Creating layer inception_5b/relu_1x1
I0403 14:53:48.063609 11259 net.cpp:91] Creating Layer inception_5b/relu_1x1
I0403 14:53:48.063628 11259 net.cpp:425] inception_5b/relu_1x1 <- inception_5b/1x1
I0403 14:53:48.063647 11259 net.cpp:386] inception_5b/relu_1x1 -> inception_5b/1x1 (in-place)
I0403 14:53:48.063961 11259 net.cpp:141] Setting up inception_5b/relu_1x1
I0403 14:53:48.063988 11259 net.cpp:148] Top shape: 24 384 7 7 (451584)
I0403 14:53:48.064004 11259 net.cpp:156] Memory required for data: 1328854560
I0403 14:53:48.064019 11259 layer_factory.hpp:77] Creating layer inception_5b/3x3_reduce
I0403 14:53:48.064044 11259 net.cpp:91] Creating Layer inception_5b/3x3_reduce
I0403 14:53:48.064064 11259 net.cpp:425] inception_5b/3x3_reduce <- inception_5a/output_inception_5a/output_0_split_1
I0403 14:53:48.064082 11259 net.cpp:399] inception_5b/3x3_reduce -> inception_5b/3x3_reduce
I0403 14:53:48.066822 11259 net.cpp:141] Setting up inception_5b/3x3_reduce
I0403 14:53:48.066854 11259 net.cpp:148] Top shape: 24 192 7 7 (225792)
I0403 14:53:48.066870 11259 net.cpp:156] Memory required for data: 1329757728
I0403 14:53:48.066890 11259 layer_factory.hpp:77] Creating layer inception_5b/relu_3x3_reduce
I0403 14:53:48.066907 11259 net.cpp:91] Creating Layer inception_5b/relu_3x3_reduce
I0403 14:53:48.066925 11259 net.cpp:425] inception_5b/relu_3x3_reduce <- inception_5b/3x3_reduce
I0403 14:53:48.066941 11259 net.cpp:386] inception_5b/relu_3x3_reduce -> inception_5b/3x3_reduce (in-place)
I0403 14:53:48.067142 11259 net.cpp:141] Setting up inception_5b/relu_3x3_reduce
I0403 14:53:48.067170 11259 net.cpp:148] Top shape: 24 192 7 7 (225792)
I0403 14:53:48.067185 11259 net.cpp:156] Memory required for data: 1330660896
I0403 14:53:48.067199 11259 layer_factory.hpp:77] Creating layer inception_5b/3x3
I0403 14:53:48.067220 11259 net.cpp:91] Creating Layer inception_5b/3x3
I0403 14:53:48.067239 11259 net.cpp:425] inception_5b/3x3 <- inception_5b/3x3_reduce
I0403 14:53:48.067261 11259 net.cpp:399] inception_5b/3x3 -> inception_5b/3x3
I0403 14:53:48.074035 11259 net.cpp:141] Setting up inception_5b/3x3
I0403 14:53:48.074067 11259 net.cpp:148] Top shape: 24 384 7 7 (451584)
I0403 14:53:48.074084 11259 net.cpp:156] Memory required for data: 1332467232
I0403 14:53:48.074111 11259 layer_factory.hpp:77] Creating layer inception_5b/relu_3x3
I0403 14:53:48.074131 11259 net.cpp:91] Creating Layer inception_5b/relu_3x3
I0403 14:53:48.074147 11259 net.cpp:425] inception_5b/relu_3x3 <- inception_5b/3x3
I0403 14:53:48.074164 11259 net.cpp:386] inception_5b/relu_3x3 -> inception_5b/3x3 (in-place)
I0403 14:53:48.074467 11259 net.cpp:141] Setting up inception_5b/relu_3x3
I0403 14:53:48.074497 11259 net.cpp:148] Top shape: 24 384 7 7 (451584)
I0403 14:53:48.074514 11259 net.cpp:156] Memory required for data: 1334273568
I0403 14:53:48.074529 11259 layer_factory.hpp:77] Creating layer inception_5b/5x5_reduce
I0403 14:53:48.074570 11259 net.cpp:91] Creating Layer inception_5b/5x5_reduce
I0403 14:53:48.074589 11259 net.cpp:425] inception_5b/5x5_reduce <- inception_5a/output_inception_5a/output_0_split_2
I0403 14:53:48.074609 11259 net.cpp:399] inception_5b/5x5_reduce -> inception_5b/5x5_reduce
I0403 14:53:48.075940 11259 net.cpp:141] Setting up inception_5b/5x5_reduce
I0403 14:53:48.075981 11259 net.cpp:148] Top shape: 24 48 7 7 (56448)
I0403 14:53:48.075997 11259 net.cpp:156] Memory required for data: 1334499360
I0403 14:53:48.076019 11259 layer_factory.hpp:77] Creating layer inception_5b/relu_5x5_reduce
I0403 14:53:48.076038 11259 net.cpp:91] Creating Layer inception_5b/relu_5x5_reduce
I0403 14:53:48.076056 11259 net.cpp:425] inception_5b/relu_5x5_reduce <- inception_5b/5x5_reduce
I0403 14:53:48.076072 11259 net.cpp:386] inception_5b/relu_5x5_reduce -> inception_5b/5x5_reduce (in-place)
I0403 14:53:48.076511 11259 net.cpp:141] Setting up inception_5b/relu_5x5_reduce
I0403 14:53:48.076539 11259 net.cpp:148] Top shape: 24 48 7 7 (56448)
I0403 14:53:48.076556 11259 net.cpp:156] Memory required for data: 1334725152
I0403 14:53:48.076571 11259 layer_factory.hpp:77] Creating layer inception_5b/5x5
I0403 14:53:48.076592 11259 net.cpp:91] Creating Layer inception_5b/5x5
I0403 14:53:48.076611 11259 net.cpp:425] inception_5b/5x5 <- inception_5b/5x5_reduce
I0403 14:53:48.076642 11259 net.cpp:399] inception_5b/5x5 -> inception_5b/5x5
I0403 14:53:48.078786 11259 net.cpp:141] Setting up inception_5b/5x5
I0403 14:53:48.078815 11259 net.cpp:148] Top shape: 24 128 7 7 (150528)
I0403 14:53:48.078830 11259 net.cpp:156] Memory required for data: 1335327264
I0403 14:53:48.078850 11259 layer_factory.hpp:77] Creating layer inception_5b/relu_5x5
I0403 14:53:48.078868 11259 net.cpp:91] Creating Layer inception_5b/relu_5x5
I0403 14:53:48.078884 11259 net.cpp:425] inception_5b/relu_5x5 <- inception_5b/5x5
I0403 14:53:48.078904 11259 net.cpp:386] inception_5b/relu_5x5 -> inception_5b/5x5 (in-place)
I0403 14:53:48.079112 11259 net.cpp:141] Setting up inception_5b/relu_5x5
I0403 14:53:48.079138 11259 net.cpp:148] Top shape: 24 128 7 7 (150528)
I0403 14:53:48.079152 11259 net.cpp:156] Memory required for data: 1335929376
I0403 14:53:48.079166 11259 layer_factory.hpp:77] Creating layer inception_5b/pool
I0403 14:53:48.079186 11259 net.cpp:91] Creating Layer inception_5b/pool
I0403 14:53:48.079205 11259 net.cpp:425] inception_5b/pool <- inception_5a/output_inception_5a/output_0_split_3
I0403 14:53:48.079223 11259 net.cpp:399] inception_5b/pool -> inception_5b/pool
I0403 14:53:48.079298 11259 net.cpp:141] Setting up inception_5b/pool
I0403 14:53:48.079322 11259 net.cpp:148] Top shape: 24 832 7 7 (978432)
I0403 14:53:48.079336 11259 net.cpp:156] Memory required for data: 1339843104
I0403 14:53:48.079351 11259 layer_factory.hpp:77] Creating layer inception_5b/pool_proj
I0403 14:53:48.079372 11259 net.cpp:91] Creating Layer inception_5b/pool_proj
I0403 14:53:48.079391 11259 net.cpp:425] inception_5b/pool_proj <- inception_5b/pool
I0403 14:53:48.079411 11259 net.cpp:399] inception_5b/pool_proj -> inception_5b/pool_proj
I0403 14:53:48.081735 11259 net.cpp:141] Setting up inception_5b/pool_proj
I0403 14:53:48.081768 11259 net.cpp:148] Top shape: 24 128 7 7 (150528)
I0403 14:53:48.081784 11259 net.cpp:156] Memory required for data: 1340445216
I0403 14:53:48.081801 11259 layer_factory.hpp:77] Creating layer inception_5b/relu_pool_proj
I0403 14:53:48.081820 11259 net.cpp:91] Creating Layer inception_5b/relu_pool_proj
I0403 14:53:48.081837 11259 net.cpp:425] inception_5b/relu_pool_proj <- inception_5b/pool_proj
I0403 14:53:48.081857 11259 net.cpp:386] inception_5b/relu_pool_proj -> inception_5b/pool_proj (in-place)
I0403 14:53:48.082170 11259 net.cpp:141] Setting up inception_5b/relu_pool_proj
I0403 14:53:48.082200 11259 net.cpp:148] Top shape: 24 128 7 7 (150528)
I0403 14:53:48.082214 11259 net.cpp:156] Memory required for data: 1341047328
I0403 14:53:48.082229 11259 layer_factory.hpp:77] Creating layer inception_5b/output
I0403 14:53:48.082247 11259 net.cpp:91] Creating Layer inception_5b/output
I0403 14:53:48.082279 11259 net.cpp:425] inception_5b/output <- inception_5b/1x1
I0403 14:53:48.082298 11259 net.cpp:425] inception_5b/output <- inception_5b/3x3
I0403 14:53:48.082314 11259 net.cpp:425] inception_5b/output <- inception_5b/5x5
I0403 14:53:48.082329 11259 net.cpp:425] inception_5b/output <- inception_5b/pool_proj
I0403 14:53:48.082345 11259 net.cpp:399] inception_5b/output -> inception_5b/output
I0403 14:53:48.082401 11259 net.cpp:141] Setting up inception_5b/output
I0403 14:53:48.082424 11259 net.cpp:148] Top shape: 24 1024 7 7 (1204224)
I0403 14:53:48.082438 11259 net.cpp:156] Memory required for data: 1345864224
I0403 14:53:48.082453 11259 layer_factory.hpp:77] Creating layer pool5/7x7_s1
I0403 14:53:48.082475 11259 net.cpp:91] Creating Layer pool5/7x7_s1
I0403 14:53:48.082494 11259 net.cpp:425] pool5/7x7_s1 <- inception_5b/output
I0403 14:53:48.082512 11259 net.cpp:399] pool5/7x7_s1 -> pool5/7x7_s1
I0403 14:53:48.082731 11259 net.cpp:141] Setting up pool5/7x7_s1
I0403 14:53:48.082758 11259 net.cpp:148] Top shape: 24 1024 1 1 (24576)
I0403 14:53:48.082775 11259 net.cpp:156] Memory required for data: 1345962528
I0403 14:53:48.082792 11259 layer_factory.hpp:77] Creating layer pool5/drop_7x7_s1
I0403 14:53:48.082808 11259 net.cpp:91] Creating Layer pool5/drop_7x7_s1
I0403 14:53:48.082824 11259 net.cpp:425] pool5/drop_7x7_s1 <- pool5/7x7_s1
I0403 14:53:48.082844 11259 net.cpp:386] pool5/drop_7x7_s1 -> pool5/7x7_s1 (in-place)
I0403 14:53:48.082895 11259 net.cpp:141] Setting up pool5/drop_7x7_s1
I0403 14:53:48.082919 11259 net.cpp:148] Top shape: 24 1024 1 1 (24576)
I0403 14:53:48.082934 11259 net.cpp:156] Memory required for data: 1346060832
I0403 14:53:48.082948 11259 layer_factory.hpp:77] Creating layer loss3/classifier_plantvillage
I0403 14:53:48.082969 11259 net.cpp:91] Creating Layer loss3/classifier_plantvillage
I0403 14:53:48.082988 11259 net.cpp:425] loss3/classifier_plantvillage <- pool5/7x7_s1
I0403 14:53:48.083009 11259 net.cpp:399] loss3/classifier_plantvillage -> loss3/classifier_plantvillage
I0403 14:53:48.083448 11259 net.cpp:141] Setting up loss3/classifier_plantvillage
I0403 14:53:48.083473 11259 net.cpp:148] Top shape: 24 38 (912)
I0403 14:53:48.083488 11259 net.cpp:156] Memory required for data: 1346064480
I0403 14:53:48.083506 11259 layer_factory.hpp:77] Creating layer loss3/classifier_plantvillage_loss3/classifier_plantvillage_0_split
I0403 14:53:48.083526 11259 net.cpp:91] Creating Layer loss3/classifier_plantvillage_loss3/classifier_plantvillage_0_split
I0403 14:53:48.083542 11259 net.cpp:425] loss3/classifier_plantvillage_loss3/classifier_plantvillage_0_split <- loss3/classifier_plantvillage
I0403 14:53:48.083560 11259 net.cpp:399] loss3/classifier_plantvillage_loss3/classifier_plantvillage_0_split -> loss3/classifier_plantvillage_loss3/classifier_plantvillage_0_split_0
I0403 14:53:48.083580 11259 net.cpp:399] loss3/classifier_plantvillage_loss3/classifier_plantvillage_0_split -> loss3/classifier_plantvillage_loss3/classifier_plantvillage_0_split_1
I0403 14:53:48.083600 11259 net.cpp:399] loss3/classifier_plantvillage_loss3/classifier_plantvillage_0_split -> loss3/classifier_plantvillage_loss3/classifier_plantvillage_0_split_2
I0403 14:53:48.083619 11259 net.cpp:399] loss3/classifier_plantvillage_loss3/classifier_plantvillage_0_split -> loss3/classifier_plantvillage_loss3/classifier_plantvillage_0_split_3
I0403 14:53:48.083724 11259 net.cpp:141] Setting up loss3/classifier_plantvillage_loss3/classifier_plantvillage_0_split
I0403 14:53:48.083748 11259 net.cpp:148] Top shape: 24 38 (912)
I0403 14:53:48.083765 11259 net.cpp:148] Top shape: 24 38 (912)
I0403 14:53:48.083781 11259 net.cpp:148] Top shape: 24 38 (912)
I0403 14:53:48.083796 11259 net.cpp:148] Top shape: 24 38 (912)
I0403 14:53:48.083811 11259 net.cpp:156] Memory required for data: 1346079072
I0403 14:53:48.083824 11259 layer_factory.hpp:77] Creating layer loss1/loss
I0403 14:53:48.083845 11259 net.cpp:91] Creating Layer loss1/loss
I0403 14:53:48.083863 11259 net.cpp:425] loss1/loss <- loss1/classifier_plantvillage_loss1/classifier_plantvillage_0_split_0
I0403 14:53:48.083896 11259 net.cpp:425] loss1/loss <- label_data_1_split_0
…
