…
I0403 14:59:29.487197 11397 net.cpp:313] The NetState phase (1) differed from the phase (0) specified by a rule in layer data
I0403 14:59:29.488386 11397 net.cpp:49] Initializing net from parameters: 
state {
  phase: TEST
}
layer {
  name: "data"
  type: "Data"
  top: "data"
  top: "label"
  include {
    phase: TEST
  }
  transform_param {
    mirror: false
    crop_size: 224
    mean_file: "/home/mohanty/data/final_dataset/lmdb/grayscale-60-40/mean.binaryproto"
  }
  data_param {
    source: "/home/mohanty/data/final_dataset/lmdb/grayscale-60-40/test_db"
    batch_size: 24
    backend: LMDB
  }
}
layer {
  name: "conv1/7x7_s2"
  type: "Convolution"
  bottom: "data"
  top: "conv1/7x7_s2"
  param {
    lr_mult: 1
    decay_mult: 1
  }
  param {
    lr_mult: 2
    decay_mult: 0
  }
  convolution_param {
    num_output: 64
    pad: 3
    kernel_size: 7
    stride: 2
    weight_filler {
      type: "xavier"
      std: 0.1
    }
    bias_filler {
      type: "constant"
      value: 0.2
    }
  }
}
layer {
  name: "conv1/relu_7x7"
  type: "ReLU"
  bottom: "conv1/7x7_s2"
  top: "conv1/7x7_s2"
}
layer {
  name: "pool1/3x3_s2"
  type: "Pooling"
  bottom: "conv1/7x7_s2"
  top: "pool1/3x3_s2"
  pooling_param {
    pool: MAX
    kernel_size: 3
    stride: 2
  }
}
layer {
  name: "pool1/norm1"
  type: "LRN"
  bottom: "pool1/3x3_s2"
  top: "pool1/norm1"
  lrn_param {
    local_size: 5
    alpha: 0.0001
    beta: 0.75
  }
}
layer {
  name: "conv2/3x3_reduce"
  type: "Convolution"
  bottom: "pool1/norm1"
  top: "conv2/3x3_reduce"
  param {
    lr_mult: 1
    decay_mult: 1
  }
  param {
    lr_mult: 2
    decay_mult: 0
  }
  convolution_param {
    num_output: 64
    kernel_size: 1
    weight_filler {
      type: "xavier"
      std: 0.1
    }
    bias_filler {
      type: "constant"
      value: 0.2
    }
  }
}
layer {
  name: "conv2/relu_3x3_reduce"
  type: "ReLU"
  bottom: "conv2/3x3_reduce"
  top: "conv2/3x3_reduce"
}
layer {
  name: "conv2/3x3"
  type: "Convolution"
  bottom: "conv2/3x3_reduce"
  top: "conv2/3x3"
  param {
    lr_mult: 1
    decay_mult: 1
  }
  param {
    lr_mult: 2
    decay_mult: 0
  }
  convolution_param {
    num_output: 192
    pad: 1
    kernel_size: 3
    weight_filler {
      type: "xavier"
      std: 0.03
    }
    bias_filler {
      type: "constant"
      value: 0.2
    }
  }
}
layer {
  name: "conv2/relu_3x3"
  type: "ReLU"
  bottom: "conv2/3x3"
  top: "conv2/3x3"
}
layer {
  name: "conv2/norm2"
  type: "LRN"
  bottom: "conv2/3x3"
  top: "conv2/norm2"
  lrn_param {
    local_size: 5
    alpha: 0.0001
    beta: 0.75
  }
}
layer {
  name: "pool2/3x3_s2"
  type: "Pooling"
  bottom: "conv2/norm2"
  top: "pool2/3x3_s2"
  pooling_param {
    pool: MAX
    kernel_size: 3
    stride: 2
  }
}
layer {
  name: "inception_3a/1x1"
  type: "Convolution"
  bottom: "pool2/3x3_s2"
  top: "inception_3a/1x1"
  param {
    lr_mult: 1
    decay_mult: 1
  }
  param {
    lr_mult: 2
    decay_mult: 0
  }
  convolution_param {
    num_output: 64
    kernel_size: 1
    weight_filler {
      type: "xavier"
      std: 0.03
    }
    bias_filler {
      type: "constant"
      value: 0.2
    }
  }
}
layer {
  name: "inception_3a/relu_1x1"
  type: "ReLU"
  bottom: "inception_3a/1x1"
  top: "inception_3a/1x1"
}
layer {
  name: "inception_3a/3x3_reduce"
  type: "Convolution"
  bottom: "pool2/3x3_s2"
  top: "inception_3a/3x3_reduce"
  param {
    lr_mult: 1
    decay_mult: 1
  }
  param {
    lr_mult: 2
    decay_mult: 0
  }
  convolution_param {
    num_output: 96
    kernel_size: 1
    weight_filler {
      type: "xavier"
      std: 0.09
    }
    bias_filler {
      type: "constant"
      value: 0.2
    }
  }
}
layer {
  name: "inception_3a/relu_3x3_reduce"
  type: "ReLU"
  bottom: "inception_3a/3x3_reduce"
  top: "inception_3a/3x3_reduce"
}
layer {
  name: "inception_3a/3x3"
  type: "Convolution"
  bottom: "inception_3a/3x3_reduce"
  top: "inception_3a/3x3"
  param {
    lr_mult: 1
    decay_mult: 1
  }
  param {
    lr_mult: 2
    decay_mult: 0
  }
  convolution_param {
    num_output: 128
    pad: 1
    kernel_size: 3
    weight_filler {
      type: "xavier"
      std: 0.03
    }
    bias_filler {
      type: "constant"
      value: 0.2
    }
  }
}
layer {
  name: "inception_3a/relu_3x3"
  type: "ReLU"
  bottom: "inception_3a/3x3"
  top: "inception_3a/3x3"
}
layer {
  name: "inception_3a/5x5_reduce"
  type: "Convolution"
  bottom: "pool2/3x3_s2"
  top: "inception_3a/5x5_reduce"
  param {
    lr_mult: 1
    decay_mult: 1
  }
  param {
    lr_mult: 2
    decay_mult: 0
  }
  convolution_param {
    num_output: 16
    kernel_size: 1
    weight_filler {
      type: "xavier"
      std: 0.2
    }
    bias_filler {
      type: "constant"
      value: 0.2
    }
  }
}
layer {
  name: "inception_3a/relu_5x5_reduce"
  type: "ReLU"
  bottom: "inception_3a/5x5_reduce"
  top: "inception_3a/5x5_reduce"
}
layer {
  name: "inception_3a/5x5"
  type: "Convolution"
  bottom: "inception_3a/5x5_reduce"
  top: "inception_3a/5x5"
  param {
    lr_mult: 1
    decay_mult: 1
  }
  param {
    lr_mult: 2
    decay_mult: 0
  }
  convolution_param {
    num_output: 32
    pad: 2
    kernel_size: 5
    weight_filler {
      type: "xavier"
      std: 0.03
    }
    bias_filler {
      type: "constant"
      value: 0.2
    }
  }
}
layer {
  name: "inception_3a/relu_5x5"
  type: "ReLU"
  bottom: "inception_3a/5x5"
  top: "inception_3a/5x5"
}
layer {
  name: "inception_3a/pool"
  type: "Pooling"
  bottom: "pool2/3x3_s2"
  top: "inception_3a/pool"
  pooling_param {
    pool: MAX
    kernel_size: 3
    stride: 1
    pad: 1
  }
}
layer {
  name: "inception_3a/pool_proj"
  type: "Convolution"
  bottom: "inception_3a/pool"
  top: "inception_3a/pool_proj"
  param {
    lr_mult: 1
    decay_mult: 1
  }
  param {
    lr_mult: 2
    decay_mult: 0
  }
  convolution_param {
    num_output: 32
    kernel_size: 1
    weight_filler {
      type: "xavier"
      std: 0.1
    }
    bias_filler {
      type: "constant"
      value: 0.2
    }
  }
}
layer {
  name: "inception_3a/relu_pool_proj"
  type: "ReLU"
  bottom: "inception_3a/pool_proj"
  top: "inception_3a/pool_proj"
}
layer {
  name: "inception_3a/output"
  type: "Concat"
  bottom: "inception_3a/1x1"
  bottom: "inception_3a/3x3"
  bottom: "inception_3a/5x5"
  bottom: "inception_3a/pool_proj"
  top: "inception_3a/output"
}
layer {
  name: "inception_3b/1x1"
  type: "Convolution"
  bottom: "inception_3a/output"
  top: "inception_3b/1x1"
  param {
    lr_mult: 1
    decay_mult: 1
  }
  param {
    lr_mult: 2
    decay_mult: 0
  }
  convolution_param {
    num_output: 128
    kernel_size: 1
    weight_filler {
      type: "xavier"
      std: 0.03
    }
    bias_filler {
      type: "constant"
      value: 0.2
    }
  }
}
layer {
  name: "inception_3b/relu_1x1"
  type: "ReLU"
  bottom: "inception_3b/1x1"
  top: "inception_3b/1x1"
}
layer {
  name: "inception_3b/3x3_reduce"
  type: "Convolution"
  bottom: "inception_3a/output"
  top: "inception_3b/3x3_reduce"
  param {
    lr_mult: 1
    decay_mult: 1
  }
  param {
    lr_mult: 2
    decay_mult: 0
  }
  convolution_param {
    num_output: 128
    kernel_size: 1
    weight_filler {
      type: "xavier"
      std: 0.09
    }
    bias_filler {
      type: "constant"
      value: 0.2
    }
  }
}
layer {
  name: "inception_3b/relu_3x3_reduce"
  type: "ReLU"
  bottom: "inception_3b/3x3_reduce"
  top: "inception_3b/3x3_reduce"
}
layer {
  name: "inception_3b/3x3"
  type: "Convolution"
  bottom: "inception_3b/3x3_reduce"
  top: "inception_3b/3x3"
  param {
    lr_mult: 1
    decay_mult: 1
  }
  param {
    lr_mult: 2
    decay_mult: 0
  }
  convolution_param {
    num_output: 192
    pad: 1
    kernel_size: 3
    weight_filler {
      type: "xavier"
      std: 0.03
    }
    bias_filler {
      type: "constant"
      value: 0.2
    }
  }
}
layer {
  name: "inception_3b/relu_3x3"
  type: "ReLU"
  bottom: "inception_3b/3x3"
  top: "inception_3b/3x3"
}
layer {
  name: "inception_3b/5x5_reduce"
  type: "Convolution"
  bottom: "inception_3a/output"
  top: "inception_3b/5x5_reduce"
  param {
    lr_mult: 1
    decay_mult: 1
  }
  param {
    lr_mult: 2
    decay_mult: 0
  }
  convolution_param {
    num_output: 32
    kernel_size: 1
    weight_filler {
      type: "xavier"
      std: 0.2
    }
    bias_filler {
      type: "constant"
      value: 0.2
    }
  }
}
layer {
  name: "inception_3b/relu_5x5_reduce"
  type: "ReLU"
  bottom: "inception_3b/5x5_reduce"
  top: "inception_3b/5x5_reduce"
}
layer {
  name: "inception_3b/5x5"
  type: "Convolution"
  bottom: "inception_3b/5x5_reduce"
  top: "inception_3b/5x5"
  param {
    lr_mult: 1
    decay_mult: 1
  }
  param {
    lr_mult: 2
    decay_mult: 0
  }
  convolution_param {
    num_output: 96
    pad: 2
    kernel_size: 5
    weight_filler {
      type: "xavier"
      std: 0.03
    }
    bias_filler {
      type: "constant"
      value: 0.2
    }
  }
}
layer {
  name: "inception_3b/relu_5x5"
  type: "ReLU"
  bottom: "inception_3b/5x5"
  top: "inception_3b/5x5"
}
layer {
  name: "inception_3b/pool"
  type: "Pooling"
  bottom: "inception_3a/output"
  top: "inception_3b/pool"
  pooling_param {
    pool: MAX
    kernel_size: 3
    stride: 1
    pad: 1
  }
}
layer {
  name: "inception_3b/pool_proj"
  type: "Convolution"
  bottom: "inception_3b/pool"
  top: "inception_3b/pool_proj"
  param {
    lr_mult: 1
    decay_mult: 1
  }
  param {
    lr_mult: 2
    decay_mult: 0
  }
  convolution_param {
    num_output: 64
    kernel_size: 1
    weight_filler {
      type: "xavier"
      std: 0.1
    }
    bias_filler {
      type: "constant"
      value: 0.2
    }
  }
}
layer {
  name: "inception_3b/relu_pool_proj"
  type: "ReLU"
  bottom: "inception_3b/pool_proj"
  top: "inception_3b/pool_proj"
}
layer {
  name: "inception_3b/output"
  type: "Concat"
  bottom: "inception_3b/1x1"
  bottom: "inception_3b/3x3"
  bottom: "inception_3b/5x5"
  bottom: "inception_3b/pool_proj"
  top: "inception_3b/output"
}
layer {
  name: "pool3/3x3_s2"
  type: "Pooling"
  bottom: "inception_3b/output"
  top: "pool3/3x3_s2"
  pooling_param {
    pool: MAX
    kernel_size: 3
    stride: 2
  }
}
layer {
  name: "inception_4a/1x1"
  type: "Convolution"
  bottom: "pool3/3x3_s2"
  top: "inception_4a/1x1"
  param {
    lr_mult: 1
    decay_mult: 1
  }
  param {
    lr_mult: 2
    decay_mult: 0
  }
  convolution_param {
    num_output: 192
    kernel_size: 1
    weight_filler {
      type: "xavier"
      std: 0.03
    }
    bias_filler {
      type: "constant"
      value: 0.2
    }
  }
}
layer {
  name: "inception_4a/relu_1x1"
  type: "ReLU"
  bottom: "inception_4a/1x1"
  top: "inception_4a/1x1"
}
layer {
  name: "inception_4a/3x3_reduce"
  type: "Convolution"
  bottom: "pool3/3x3_s2"
  top: "inception_4a/3x3_reduce"
  param {
    lr_mult: 1
    decay_mult: 1
  }
  param {
    lr_mult: 2
    decay_mult: 0
  }
  convolution_param {
    num_output: 96
    kernel_size: 1
    weight_filler {
      type: "xavier"
      std: 0.09
    }
    bias_filler {
      type: "constant"
      value: 0.2
    }
  }
}
layer {
  name: "inception_4a/relu_3x3_reduce"
  type: "ReLU"
  bottom: "inception_4a/3x3_reduce"
  top: "inception_4a/3x3_reduce"
}
layer {
  name: "inception_4a/3x3"
  type: "Convolution"
  bottom: "inception_4a/3x3_reduce"
  top: "inception_4a/3x3"
  param {
    lr_mult: 1
    decay_mult: 1
  }
  param {
    lr_mult: 2
    decay_mult: 0
  }
  convolution_param {
    num_output: 208
    pad: 1
    kernel_size: 3
    weight_filler {
      type: "xavier"
      std: 0.03
    }
    bias_filler {
      type: "constant"
      value: 0.2
    }
  }
}
layer {
  name: "inception_4a/relu_3x3"
  type: "ReLU"
  bottom: "inception_4a/3x3"
  top: "inception_4a/3x3"
}
layer {
  name: "inception_4a/5x5_reduce"
  type: "Convolution"
  bottom: "pool3/3x3_s2"
  top: "inception_4a/5x5_reduce"
  param {
    lr_mult: 1
    decay_mult: 1
  }
  param {
    lr_mult: 2
    decay_mult: 0
  }
  convolution_param {
    num_output: 16
    kernel_size: 1
    weight_filler {
      type: "xavier"
      std: 0.2
    }
    bias_filler {
      type: "constant"
      value: 0.2
    }
  }
}
layer {
  name: "inception_4a/relu_5x5_reduce"
  type: "ReLU"
  bottom: "inception_4a/5x5_reduce"
  top: "inception_4a/5x5_reduce"
}
layer {
  name: "inception_4a/5x5"
  type: "Convolution"
  bottom: "inception_4a/5x5_reduce"
  top: "inception_4a/5x5"
  param {
    lr_mult: 1
    decay_mult: 1
  }
  param {
    lr_mult: 2
    decay_mult: 0
  }
  convolution_param {
    num_output: 48
    pad: 2
    kernel_size: 5
    weight_filler {
      type: "xavier"
      std: 0.03
    }
    bias_filler {
      type: "constant"
      value: 0.2
    }
  }
}
layer {
  name: "inception_4a/relu_5x5"
  type: "ReLU"
  bottom: "inception_4a/5x5"
  top: "inception_4a/5x5"
}
layer {
  name: "inception_4a/pool"
  type: "Pooling"
  bottom: "pool3/3x3_s2"
  top: "inception_4a/pool"
  pooling_param {
    pool: MAX
    kernel_size: 3
    stride: 1
    pad: 1
  }
}
layer {
  name: "inception_4a/pool_proj"
  type: "Convolution"
  bottom: "inception_4a/pool"
  top: "inception_4a/pool_proj"
  param {
    lr_mult: 1
    decay_mult: 1
  }
  param {
    lr_mult: 2
    decay_mult: 0
  }
  convolution_param {
    num_output: 64
    kernel_size: 1
    weight_filler {
      type: "xavier"
      std: 0.1
    }
    bias_filler {
      type: "constant"
      value: 0.2
    }
  }
}
layer {
  name: "inception_4a/relu_pool_proj"
  type: "ReLU"
  bottom: "inception_4a/pool_proj"
  top: "inception_4a/pool_proj"
}
layer {
  name: "inception_4a/output"
  type: "Concat"
  bottom: "inception_4a/1x1"
  bottom: "inception_4a/3x3"
  bottom: "inception_4a/5x5"
  bottom: "inception_4a/pool_proj"
  top: "inception_4a/output"
}
layer {
  name: "loss1/ave_pool"
  type: "Pooling"
  bottom: "inception_4a/output"
  top: "loss1/ave_pool"
  pooling_param {
    pool: AVE
    kernel_size: 5
    stride: 3
  }
}
layer {
  name: "loss1/conv"
  type: "Convolution"
  bottom: "loss1/ave_pool"
  top: "loss1/conv"
  param {
    lr_mult: 1
    decay_mult: 1
  }
  param {
    lr_mult: 2
    decay_mult: 0
  }
  convolution_param {
    num_output: 128
    kernel_size: 1
    weight_filler {
      type: "xavier"
      std: 0.08
    }
    bias_filler {
      type: "constant"
      value: 0.2
    }
  }
}
layer {
  name: "loss1/relu_conv"
  type: "ReLU"
  bottom: "loss1/conv"
  top: "loss1/conv"
}
layer {
  name: "loss1/fc"
  type: "InnerProduct"
  bottom: "loss1/conv"
  top: "loss1/fc"
  param {
    lr_mult: 1
    decay_mult: 1
  }
  param {
    lr_mult: 2
    decay_mult: 0
  }
  inner_product_param {
    num_output: 1024
    weight_filler {
      type: "xavier"
      std: 0.02
    }
    bias_filler {
      type: "constant"
      value: 0.2
    }
  }
}
layer {
  name: "loss1/relu_fc"
  type: "ReLU"
  bottom: "loss1/fc"
  top: "loss1/fc"
}
layer {
  name: "loss1/drop_fc"
  type: "Dropout"
  bottom: "loss1/fc"
  top: "loss1/fc"
  dropout_param {
    dropout_ratio: 0.7
  }
}
layer {
  name: "loss1/classifier_plantvillage"
  type: "InnerProduct"
  bottom: "loss1/fc"
  top: "loss1/classifier_plantvillage"
  param {
    lr_mult: 1
    decay_mult: 1
  }
  param {
    lr_mult: 2
    decay_mult: 0
  }
  inner_product_param {
    num_output: 38
    weight_filler {
      type: "xavier"
      std: 0.0009765625
    }
    bias_filler {
      type: "constant"
      value: 0
    }
  }
}
layer {
  name: "inception_4b/1x1"
  type: "Convolution"
  bottom: "inception_4a/output"
  top: "inception_4b/1x1"
  param {
    lr_mult: 1
    decay_mult: 1
  }
  param {
    lr_mult: 2
    decay_mult: 0
  }
  convolution_param {
    num_output: 160
    kernel_size: 1
    weight_filler {
      type: "xavier"
      std: 0.03
    }
    bias_filler {
      type: "constant"
      value: 0.2
    }
  }
}
layer {
  name: "inception_4b/relu_1x1"
  type: "ReLU"
  bottom: "inception_4b/1x1"
  top: "inception_4b/1x1"
}
layer {
  name: "inception_4b/3x3_reduce"
  type: "Convolution"
  bottom: "inception_4a/output"
  top: "inception_4b/3x3_reduce"
  param {
    lr_mult: 1
    decay_mult: 1
  }
  param {
    lr_mult: 2
    decay_mult: 0
  }
  convolution_param {
    num_output: 112
    kernel_size: 1
    weight_filler {
      type: "xavier"
      std: 0.09
    }
    bias_filler {
      type: "constant"
      value: 0.2
    }
  }
}
layer {
  name: "inception_4b/relu_3x3_reduce"
  type: "ReLU"
  bottom: "inception_4b/3x3_reduce"
  top: "inception_4b/3x3_reduce"
}
layer {
  name: "inception_4b/3x3"
  type: "Convolution"
  bottom: "inception_4b/3x3_reduce"
  top: "inception_4b/3x3"
  param {
    lr_mult: 1
    decay_mult: 1
  }
  param {
    lr_mult: 2
    decay_mult: 0
  }
  convolution_param {
    num_output: 224
    pad: 1
    kernel_size: 3
    weight_filler {
      type: "xavier"
      std: 0.03
    }
    bias_filler {
      type: "constant"
      value: 0.2
    }
  }
}
layer {
  name: "inception_4b/relu_3x3"
  type: "ReLU"
  bottom: "inception_4b/3x3"
  top: "inception_4b/3x3"
}
layer {
  name: "inception_4b/5x5_reduce"
  type: "Convolution"
  bottom: "inception_4a/output"
  top: "inception_4b/5x5_reduce"
  param {
    lr_mult: 1
    decay_mult: 1
  }
  param {
    lr_mult: 2
    decay_mult: 0
  }
  convolution_param {
    num_output: 24
    kernel_size: 1
    weight_filler {
      type: "xavier"
      std: 0.2
    }
    bias_filler {
      type: "constant"
      value: 0.2
    }
  }
}
layer {
  name: "inception_4b/relu_5x5_reduce"
  type: "ReLU"
  bottom: "inception_4b/5x5_reduce"
  top: "inception_4b/5x5_reduce"
}
layer {
  name: "inception_4b/5x5"
  type: "Convolution"
  bottom: "inception_4b/5x5_reduce"
  top: "inception_4b/5x5"
  param {
    lr_mult: 1
    decay_mult: 1
  }
  param {
    lr_mult: 2
    decay_mult: 0
  }
  convolution_param {
    num_output: 64
    pad: 2
    kernel_size: 5
    weight_filler {
      type: "xavier"
      std: 0.03
    }
    bias_filler {
      type: "constant"
      value: 0.2
    }
  }
}
layer {
  name: "inception_4b/relu_5x5"
  type: "ReLU"
  bottom: "inception_4b/5x5"
  top: "inception_4b/5x5"
}
layer {
  name: "inception_4b/pool"
  type: "Pooling"
  bottom: "inception_4a/output"
  top: "inception_4b/pool"
  pooling_param {
    pool: MAX
    kernel_size: 3
    stride: 1
    pad: 1
  }
}
layer {
  name: "inception_4b/pool_proj"
  type: "Convolution"
  bottom: "inception_4b/pool"
  top: "inception_4b/pool_proj"
  param {
    lr_mult: 1
    decay_mult: 1
  }
  param {
    lr_mult: 2
    decay_mult: 0
  }
  convolution_param {
    num_output: 64
    kernel_size: 1
    weight_filler {
      type: "xavier"
      std: 0.1
    }
    bias_filler {
      type: "constant"
      value: 0.2
    }
  }
}
layer {
  name: "inception_4b/relu_pool_proj"
  type: "ReLU"
  bottom: "inception_4b/pool_proj"
  top: "inception_4b/pool_proj"
}
layer {
  name: "inception_4b/output"
  type: "Concat"
  bottom: "inception_4b/1x1"
  bottom: "inception_4b/3x3"
  bottom: "inception_4b/5x5"
  bottom: "inception_4b/pool_proj"
  top: "inception_4b/output"
}
layer {
  name: "inception_4c/1x1"
  type: "Convolution"
  bottom: "inception_4b/output"
  top: "inception_4c/1x1"
  param {
    lr_mult: 1
    decay_mult: 1
  }
  param {
    lr_mult: 2
    decay_mult: 0
  }
  convolution_param {
    num_output: 128
    kernel_size: 1
    weight_filler {
      type: "xavier"
      std: 0.03
    }
    bias_filler {
      type: "constant"
      value: 0.2
    }
  }
}
layer {
  name: "inception_4c/relu_1x1"
  type: "ReLU"
  bottom: "inception_4c/1x1"
  top: "inception_4c/1x1"
}
layer {
  name: "inception_4c/3x3_reduce"
  type: "Convolution"
  bottom: "inception_4b/output"
  top: "inception_4c/3x3_reduce"
  param {
    lr_mult: 1
    decay_mult: 1
  }
  param {
    lr_mult: 2
    decay_mult: 0
  }
  convolution_param {
    num_output: 128
    kernel_size: 1
    weight_filler {
      type: "xavier"
      std: 0.09
    }
    bias_filler {
      type: "constant"
      value: 0.2
    }
  }
}
layer {
  name: "inception_4c/relu_3x3_reduce"
  type: "ReLU"
  bottom: "inception_4c/3x3_reduce"
  top: "inception_4c/3x3_reduce"
}
layer {
  name: "inception_4c/3x3"
  type: "Convolution"
  bottom: "inception_4c/3x3_reduce"
  top: "inception_4c/3x3"
  param {
    lr_mult: 1
    decay_mult: 1
  }
  param {
    lr_mult: 2
    decay_mult: 0
  }
  convolution_param {
    num_output: 256
    pad: 1
    kernel_size: 3
    weight_filler {
      type: "xavier"
      std: 0.03
    }
    bias_filler {
      type: "constant"
      value: 0.2
    }
  }
}
layer {
  name: "inception_4c/relu_3x3"
  type: "ReLU"
  bottom: "inception_4c/3x3"
  top: "inception_4c/3x3"
}
layer {
  name: "inception_4c/5x5_reduce"
  type: "Convolution"
  bottom: "inception_4b/output"
  top: "inception_4c/5x5_reduce"
  param {
    lr_mult: 1
    decay_mult: 1
  }
  param {
    lr_mult: 2
    decay_mult: 0
  }
  convolution_param {
    num_output: 24
    kernel_size: 1
    weight_filler {
      type: "xavier"
      std: 0.2
    }
    bias_filler {
      type: "constant"
      value: 0.2
    }
  }
}
layer {
  name: "inception_4c/relu_5x5_reduce"
  type: "ReLU"
  bottom: "inception_4c/5x5_reduce"
  top: "inception_4c/5x5_reduce"
}
layer {
  name: "inception_4c/5x5"
  type: "Convolution"
  bottom: "inception_4c/5x5_reduce"
  top: "inception_4c/5x5"
  param {
    lr_mult: 1
    decay_mult: 1
  }
  param {
    lr_mult: 2
    decay_mult: 0
  }
  convolution_param {
    num_output: 64
    pad: 2
    kernel_size: 5
    weight_filler {
      type: "xavier"
      std: 0.03
    }
    bias_filler {
      type: "constant"
      value: 0.2
    }
  }
}
layer {
  name: "inception_4c/relu_5x5"
  type: "ReLU"
  bottom: "inception_4c/5x5"
  top: "inception_4c/5x5"
}
layer {
  name: "inception_4c/pool"
  type: "Pooling"
  bottom: "inception_4b/output"
  top: "inception_4c/pool"
  pooling_param {
    pool: MAX
    kernel_size: 3
    stride: 1
    pad: 1
  }
}
layer {
  name: "inception_4c/pool_proj"
  type: "Convolution"
  bottom: "inception_4c/pool"
  top: "inception_4c/pool_proj"
  param {
    lr_mult: 1
    decay_mult: 1
  }
  param {
    lr_mult: 2
    decay_mult: 0
  }
  convolution_param {
    num_output: 64
    kernel_size: 1
    weight_filler {
      type: "xavier"
      std: 0.1
    }
    bias_filler {
      type: "constant"
      value: 0.2
    }
  }
}
layer {
  name: "inception_4c/relu_pool_proj"
  type: "ReLU"
  bottom: "inception_4c/pool_proj"
  top: "inception_4c/pool_proj"
}
layer {
  name: "inception_4c/output"
  type: "Concat"
  bottom: "inception_4c/1x1"
  bottom: "inception_4c/3x3"
  bottom: "inception_4c/5x5"
  bottom: "inception_4c/pool_proj"
  top: "inception_4c/output"
}
layer {
  name: "inception_4d/1x1"
  type: "Convolution"
  bottom: "inception_4c/output"
  top: "inception_4d/1x1"
  param {
    lr_mult: 1
    decay_mult: 1
  }
  param {
    lr_mult: 2
    decay_mult: 0
  }
  convolution_param {
    num_output: 112
    kernel_size: 1
    weight_filler {
      type: "xavier"
      std: 0.03
    }
    bias_filler {
      type: "constant"
      value: 0.2
    }
  }
}
layer {
  name: "inception_4d/relu_1x1"
  type: "ReLU"
  bottom: "inception_4d/1x1"
  top: "inception_4d/1x1"
}
layer {
  name: "inception_4d/3x3_reduce"
  type: "Convolution"
  bottom: "inception_4c/output"
  top: "inception_4d/3x3_reduce"
  param {
    lr_mult: 1
    decay_mult: 1
  }
  param {
    lr_mult: 2
    decay_mult: 0
  }
  convolution_param {
    num_output: 144
    kernel_size: 1
    weight_filler {
      type: "xavier"
      std: 0.09
    }
    bias_filler {
      type: "constant"
      value: 0.2
    }
  }
}
layer {
  name: "inception_4d/relu_3x3_reduce"
  type: "ReLU"
  bottom: "inception_4d/3x3_reduce"
  top: "inception_4d/3x3_reduce"
}
layer {
  name: "inception_4d/3x3"
  type: "Convolution"
  bottom: "inception_4d/3x3_reduce"
  top: "inception_4d/3x3"
  param {
    lr_mult: 1
    decay_mult: 1
  }
  param {
    lr_mult: 2
    decay_mult: 0
  }
  convolution_param {
    num_output: 288
    pad: 1
    kernel_size: 3
    weight_filler {
      type: "xavier"
      std: 0.03
    }
    bias_filler {
      type: "constant"
      value: 0.2
    }
  }
}
layer {
  name: "inception_4d/relu_3x3"
  type: "ReLU"
  bottom: "inception_4d/3x3"
  top: "inception_4d/3x3"
}
layer {
  name: "inception_4d/5x5_reduce"
  type: "Convolution"
  bottom: "inception_4c/output"
  top: "inception_4d/5x5_reduce"
  param {
    lr_mult: 1
    decay_mult: 1
  }
  param {
    lr_mult: 2
    decay_mult: 0
  }
  convolution_param {
    num_output: 32
    kernel_size: 1
    weight_filler {
      type: "xavier"
      std: 0.2
    }
    bias_filler {
      type: "constant"
      value: 0.2
    }
  }
}
layer {
  name: "inception_4d/relu_5x5_reduce"
  type: "ReLU"
  bottom: "inception_4d/5x5_reduce"
  top: "inception_4d/5x5_reduce"
}
layer {
  name: "inception_4d/5x5"
  type: "Convolution"
  bottom: "inception_4d/5x5_reduce"
  top: "inception_4d/5x5"
  param {
    lr_mult: 1
    decay_mult: 1
  }
  param {
    lr_mult: 2
    decay_mult: 0
  }
  convolution_param {
    num_output: 64
    pad: 2
    kernel_size: 5
    weight_filler {
      type: "xavier"
      std: 0.03
    }
    bias_filler {
      type: "constant"
      value: 0.2
    }
  }
}
layer {
  name: "inception_4d/relu_5x5"
  type: "ReLU"
  bottom: "inception_4d/5x5"
  top: "inception_4d/5x5"
}
layer {
  name: "inception_4d/pool"
  type: "Pooling"
  bottom: "inception_4c/output"
  top: "inception_4d/pool"
  pooling_param {
    pool: MAX
    kernel_size: 3
    stride: 1
    pad: 1
  }
}
layer {
  name: "inception_4d/pool_proj"
  type: "Convolution"
  bottom: "inception_4d/pool"
  top: "inception_4d/pool_proj"
  param {
    lr_mult: 1
    decay_mult: 1
  }
  param {
    lr_mult: 2
    decay_mult: 0
  }
  convolution_param {
    num_output: 64
    kernel_size: 1
    weight_filler {
      type: "xavier"
      std: 0.1
    }
    bias_filler {
      type: "constant"
      value: 0.2
    }
  }
}
layer {
  name: "inception_4d/relu_pool_proj"
  type: "ReLU"
  bottom: "inception_4d/pool_proj"
  top: "inception_4d/pool_proj"
}
layer {
  name: "inception_4d/output"
  type: "Concat"
  bottom: "inception_4d/1x1"
  bottom: "inception_4d/3x3"
  bottom: "inception_4d/5x5"
  bottom: "inception_4d/pool_proj"
  top: "inception_4d/output"
}
layer {
  name: "loss2/ave_pool"
  type: "Pooling"
  bottom: "inception_4d/output"
  top: "loss2/ave_pool"
  pooling_param {
    pool: AVE
    kernel_size: 5
    stride: 3
  }
}
layer {
  name: "loss2/conv"
  type: "Convolution"
  bottom: "loss2/ave_pool"
  top: "loss2/conv"
  param {
    lr_mult: 1
    decay_mult: 1
  }
  param {
    lr_mult: 2
    decay_mult: 0
  }
  convolution_param {
    num_output: 128
    kernel_size: 1
    weight_filler {
      type: "xavier"
      std: 0.08
    }
    bias_filler {
      type: "constant"
      value: 0.2
    }
  }
}
layer {
  name: "loss2/relu_conv"
  type: "ReLU"
  bottom: "loss2/conv"
  top: "loss2/conv"
}
layer {
  name: "loss2/fc"
  type: "InnerProduct"
  bottom: "loss2/conv"
  top: "loss2/fc"
  param {
    lr_mult: 1
    decay_mult: 1
  }
  param {
    lr_mult: 2
    decay_mult: 0
  }
  inner_product_param {
    num_output: 1024
    weight_filler {
      type: "xavier"
      std: 0.02
    }
    bias_filler {
      type: "constant"
      value: 0.2
    }
  }
}
layer {
  name: "loss2/relu_fc"
  type: "ReLU"
  bottom: "loss2/fc"
  top: "loss2/fc"
}
layer {
  name: "loss2/drop_fc"
  type: "Dropout"
  bottom: "loss2/fc"
  top: "loss2/fc"
  dropout_param {
    dropout_ratio: 0.7
  }
}
layer {
  name: "loss2/classifier_plantvillage"
  type: "InnerProduct"
  bottom: "loss2/fc"
  top: "loss2/classifier_plantvillage"
  param {
    lr_mult: 1
    decay_mult: 1
  }
  param {
    lr_mult: 2
    decay_mult: 0
  }
  inner_product_param {
    num_output: 38
    weight_filler {
      type: "xavier"
      std: 0.0009765625
    }
    bias_filler {
      type: "constant"
      value: 0
    }
  }
}
layer {
  name: "inception_4e/1x1"
  type: "Convolution"
  bottom: "inception_4d/output"
  top: "inception_4e/1x1"
  param {
    lr_mult: 1
    decay_mult: 1
  }
  param {
    lr_mult: 2
    decay_mult: 0
  }
  convolution_param {
    num_output: 256
    kernel_size: 1
    weight_filler {
      type: "xavier"
      std: 0.03
    }
    bias_filler {
      type: "constant"
      value: 0.2
    }
  }
}
layer {
  name: "inception_4e/relu_1x1"
  type: "ReLU"
  bottom: "inception_4e/1x1"
  top: "inception_4e/1x1"
}
layer {
  name: "inception_4e/3x3_reduce"
  type: "Convolution"
  bottom: "inception_4d/output"
  top: "inception_4e/3x3_reduce"
  param {
    lr_mult: 1
    decay_mult: 1
  }
  param {
    lr_mult: 2
    decay_mult: 0
  }
  convolution_param {
    num_output: 160
    kernel_size: 1
    weight_filler {
      type: "xavier"
      std: 0.09
    }
    bias_filler {
      type: "constant"
      value: 0.2
    }
  }
}
layer {
  name: "inception_4e/relu_3x3_reduce"
  type: "ReLU"
  bottom: "inception_4e/3x3_reduce"
  top: "inception_4e/3x3_reduce"
}
layer {
  name: "inception_4e/3x3"
  type: "Convolution"
  bottom: "inception_4e/3x3_reduce"
  top: "inception_4e/3x3"
  param {
    lr_mult: 1
    decay_mult: 1
  }
  param {
    lr_mult: 2
    decay_mult: 0
  }
  convolution_param {
    num_output: 320
    pad: 1
    kernel_size: 3
    weight_filler {
      type: "xavier"
      std: 0.03
    }
    bias_filler {
      type: "constant"
      value: 0.2
    }
  }
}
layer {
  name: "inception_4e/relu_3x3"
  type: "ReLU"
  bottom: "inception_4e/3x3"
  top: "inception_4e/3x3"
}
layer {
  name: "inception_4e/5x5_reduce"
  type: "Convolution"
  bottom: "inception_4d/output"
  top: "inception_4e/5x5_reduce"
  param {
    lr_mult: 1
    decay_mult: 1
  }
  param {
    lr_mult: 2
    decay_mult: 0
  }
  convolution_param {
    num_output: 32
    kernel_size: 1
    weight_filler {
      type: "xavier"
      std: 0.2
    }
    bias_filler {
      type: "constant"
      value: 0.2
    }
  }
}
layer {
  name: "inception_4e/relu_5x5_reduce"
  type: "ReLU"
  bottom: "inception_4e/5x5_reduce"
  top: "inception_4e/5x5_reduce"
}
layer {
  name: "inception_4e/5x5"
  type: "Convolution"
  bottom: "inception_4e/5x5_reduce"
  top: "inception_4e/
I0403 14:59:29.489693 11397 layer_factory.hpp:77] Creating layer data
I0403 14:59:29.490319 11397 net.cpp:91] Creating Layer data
I0403 14:59:29.490352 11397 net.cpp:399] data -> data
I0403 14:59:29.490409 11397 net.cpp:399] data -> label
I0403 14:59:29.490448 11397 data_transformer.cpp:25] Loading mean file from: /home/mohanty/data/final_dataset/lmdb/grayscale-60-40/mean.binaryproto
I0403 14:59:29.493129 11400 db_lmdb.cpp:38] Opened lmdb /home/mohanty/data/final_dataset/lmdb/grayscale-60-40/test_db
I0403 14:59:29.503877 11397 data_layer.cpp:41] output data size: 24,3,224,224
I0403 14:59:29.531219 11397 net.cpp:141] Setting up data
I0403 14:59:29.531280 11397 net.cpp:148] Top shape: 24 3 224 224 (3612672)
I0403 14:59:29.531304 11397 net.cpp:148] Top shape: 24 (24)
I0403 14:59:29.531321 11397 net.cpp:156] Memory required for data: 14450784
I0403 14:59:29.531349 11397 layer_factory.hpp:77] Creating layer label_data_1_split
I0403 14:59:29.531378 11397 net.cpp:91] Creating Layer label_data_1_split
I0403 14:59:29.531396 11397 net.cpp:425] label_data_1_split <- label
I0403 14:59:29.531429 11397 net.cpp:399] label_data_1_split -> label_data_1_split_0
I0403 14:59:29.531457 11397 net.cpp:399] label_data_1_split -> label_data_1_split_1
I0403 14:59:29.531481 11397 net.cpp:399] label_data_1_split -> label_data_1_split_2
I0403 14:59:29.531502 11397 net.cpp:399] label_data_1_split -> label_data_1_split_3
I0403 14:59:29.531523 11397 net.cpp:399] label_data_1_split -> label_data_1_split_4
I0403 14:59:29.531545 11397 net.cpp:399] label_data_1_split -> label_data_1_split_5
I0403 14:59:29.531565 11397 net.cpp:399] label_data_1_split -> label_data_1_split_6
I0403 14:59:29.531587 11397 net.cpp:399] label_data_1_split -> label_data_1_split_7
I0403 14:59:29.531608 11397 net.cpp:399] label_data_1_split -> label_data_1_split_8
I0403 14:59:29.531630 11397 net.cpp:399] label_data_1_split -> label_data_1_split_9
I0403 14:59:29.531751 11397 net.cpp:141] Setting up label_data_1_split
I0403 14:59:29.531776 11397 net.cpp:148] Top shape: 24 (24)
I0403 14:59:29.531795 11397 net.cpp:148] Top shape: 24 (24)
I0403 14:59:29.531811 11397 net.cpp:148] Top shape: 24 (24)
I0403 14:59:29.531827 11397 net.cpp:148] Top shape: 24 (24)
I0403 14:59:29.531844 11397 net.cpp:148] Top shape: 24 (24)
I0403 14:59:29.531862 11397 net.cpp:148] Top shape: 24 (24)
I0403 14:59:29.531878 11397 net.cpp:148] Top shape: 24 (24)
I0403 14:59:29.531895 11397 net.cpp:148] Top shape: 24 (24)
I0403 14:59:29.531911 11397 net.cpp:148] Top shape: 24 (24)
I0403 14:59:29.531929 11397 net.cpp:148] Top shape: 24 (24)
I0403 14:59:29.531975 11397 net.cpp:156] Memory required for data: 14451744
I0403 14:59:29.531993 11397 layer_factory.hpp:77] Creating layer conv1/7x7_s2
I0403 14:59:29.532027 11397 net.cpp:91] Creating Layer conv1/7x7_s2
I0403 14:59:29.532047 11397 net.cpp:425] conv1/7x7_s2 <- data
I0403 14:59:29.532068 11397 net.cpp:399] conv1/7x7_s2 -> conv1/7x7_s2
I0403 14:59:29.679992 11397 net.cpp:141] Setting up conv1/7x7_s2
I0403 14:59:29.680081 11397 net.cpp:148] Top shape: 24 64 112 112 (19267584)
I0403 14:59:29.680105 11397 net.cpp:156] Memory required for data: 91522080
I0403 14:59:29.680140 11397 layer_factory.hpp:77] Creating layer conv1/relu_7x7
I0403 14:59:29.680167 11397 net.cpp:91] Creating Layer conv1/relu_7x7
I0403 14:59:29.680187 11397 net.cpp:425] conv1/relu_7x7 <- conv1/7x7_s2
I0403 14:59:29.680229 11397 net.cpp:386] conv1/relu_7x7 -> conv1/7x7_s2 (in-place)
I0403 14:59:29.680505 11397 net.cpp:141] Setting up conv1/relu_7x7
I0403 14:59:29.680533 11397 net.cpp:148] Top shape: 24 64 112 112 (19267584)
I0403 14:59:29.680549 11397 net.cpp:156] Memory required for data: 168592416
I0403 14:59:29.680567 11397 layer_factory.hpp:77] Creating layer pool1/3x3_s2
I0403 14:59:29.680591 11397 net.cpp:91] Creating Layer pool1/3x3_s2
I0403 14:59:29.680610 11397 net.cpp:425] pool1/3x3_s2 <- conv1/7x7_s2
I0403 14:59:29.680630 11397 net.cpp:399] pool1/3x3_s2 -> pool1/3x3_s2
I0403 14:59:29.680713 11397 net.cpp:141] Setting up pool1/3x3_s2
I0403 14:59:29.680738 11397 net.cpp:148] Top shape: 24 64 56 56 (4816896)
I0403 14:59:29.680754 11397 net.cpp:156] Memory required for data: 187860000
I0403 14:59:29.680770 11397 layer_factory.hpp:77] Creating layer pool1/norm1
I0403 14:59:29.680796 11397 net.cpp:91] Creating Layer pool1/norm1
I0403 14:59:29.680814 11397 net.cpp:425] pool1/norm1 <- pool1/3x3_s2
I0403 14:59:29.680832 11397 net.cpp:399] pool1/norm1 -> pool1/norm1
I0403 14:59:29.681126 11397 net.cpp:141] Setting up pool1/norm1
I0403 14:59:29.681155 11397 net.cpp:148] Top shape: 24 64 56 56 (4816896)
I0403 14:59:29.681170 11397 net.cpp:156] Memory required for data: 207127584
I0403 14:59:29.681187 11397 layer_factory.hpp:77] Creating layer conv2/3x3_reduce
I0403 14:59:29.681212 11397 net.cpp:91] Creating Layer conv2/3x3_reduce
I0403 14:59:29.681229 11397 net.cpp:425] conv2/3x3_reduce <- pool1/norm1
I0403 14:59:29.681252 11397 net.cpp:399] conv2/3x3_reduce -> conv2/3x3_reduce
I0403 14:59:29.682713 11397 net.cpp:141] Setting up conv2/3x3_reduce
I0403 14:59:29.682744 11397 net.cpp:148] Top shape: 24 64 56 56 (4816896)
I0403 14:59:29.682761 11397 net.cpp:156] Memory required for data: 226395168
I0403 14:59:29.682785 11397 layer_factory.hpp:77] Creating layer conv2/relu_3x3_reduce
I0403 14:59:29.682806 11397 net.cpp:91] Creating Layer conv2/relu_3x3_reduce
I0403 14:59:29.682826 11397 net.cpp:425] conv2/relu_3x3_reduce <- conv2/3x3_reduce
I0403 14:59:29.682843 11397 net.cpp:386] conv2/relu_3x3_reduce -> conv2/3x3_reduce (in-place)
I0403 14:59:29.683130 11397 net.cpp:141] Setting up conv2/relu_3x3_reduce
I0403 14:59:29.683158 11397 net.cpp:148] Top shape: 24 64 56 56 (4816896)
I0403 14:59:29.683173 11397 net.cpp:156] Memory required for data: 245662752
I0403 14:59:29.683190 11397 layer_factory.hpp:77] Creating layer conv2/3x3
I0403 14:59:29.683218 11397 net.cpp:91] Creating Layer conv2/3x3
I0403 14:59:29.683236 11397 net.cpp:425] conv2/3x3 <- conv2/3x3_reduce
I0403 14:59:29.683256 11397 net.cpp:399] conv2/3x3 -> conv2/3x3
I0403 14:59:29.685628 11397 net.cpp:141] Setting up conv2/3x3
I0403 14:59:29.685662 11397 net.cpp:148] Top shape: 24 192 56 56 (14450688)
I0403 14:59:29.685680 11397 net.cpp:156] Memory required for data: 303465504
I0403 14:59:29.685703 11397 layer_factory.hpp:77] Creating layer conv2/relu_3x3
I0403 14:59:29.685724 11397 net.cpp:91] Creating Layer conv2/relu_3x3
I0403 14:59:29.685742 11397 net.cpp:425] conv2/relu_3x3 <- conv2/3x3
I0403 14:59:29.685763 11397 net.cpp:386] conv2/relu_3x3 -> conv2/3x3 (in-place)
I0403 14:59:29.685942 11397 net.cpp:141] Setting up conv2/relu_3x3
I0403 14:59:29.685969 11397 net.cpp:148] Top shape: 24 192 56 56 (14450688)
I0403 14:59:29.686018 11397 net.cpp:156] Memory required for data: 361268256
I0403 14:59:29.686035 11397 layer_factory.hpp:77] Creating layer conv2/norm2
I0403 14:59:29.686056 11397 net.cpp:91] Creating Layer conv2/norm2
I0403 14:59:29.686074 11397 net.cpp:425] conv2/norm2 <- conv2/3x3
I0403 14:59:29.686097 11397 net.cpp:399] conv2/norm2 -> conv2/norm2
I0403 14:59:29.686408 11397 net.cpp:141] Setting up conv2/norm2
I0403 14:59:29.686436 11397 net.cpp:148] Top shape: 24 192 56 56 (14450688)
I0403 14:59:29.686452 11397 net.cpp:156] Memory required for data: 419071008
I0403 14:59:29.686467 11397 layer_factory.hpp:77] Creating layer pool2/3x3_s2
I0403 14:59:29.686491 11397 net.cpp:91] Creating Layer pool2/3x3_s2
I0403 14:59:29.686508 11397 net.cpp:425] pool2/3x3_s2 <- conv2/norm2
I0403 14:59:29.686528 11397 net.cpp:399] pool2/3x3_s2 -> pool2/3x3_s2
I0403 14:59:29.686584 11397 net.cpp:141] Setting up pool2/3x3_s2
I0403 14:59:29.686609 11397 net.cpp:148] Top shape: 24 192 28 28 (3612672)
I0403 14:59:29.686625 11397 net.cpp:156] Memory required for data: 433521696
I0403 14:59:29.686640 11397 layer_factory.hpp:77] Creating layer pool2/3x3_s2_pool2/3x3_s2_0_split
I0403 14:59:29.686658 11397 net.cpp:91] Creating Layer pool2/3x3_s2_pool2/3x3_s2_0_split
I0403 14:59:29.686674 11397 net.cpp:425] pool2/3x3_s2_pool2/3x3_s2_0_split <- pool2/3x3_s2
I0403 14:59:29.686694 11397 net.cpp:399] pool2/3x3_s2_pool2/3x3_s2_0_split -> pool2/3x3_s2_pool2/3x3_s2_0_split_0
I0403 14:59:29.686717 11397 net.cpp:399] pool2/3x3_s2_pool2/3x3_s2_0_split -> pool2/3x3_s2_pool2/3x3_s2_0_split_1
I0403 14:59:29.686738 11397 net.cpp:399] pool2/3x3_s2_pool2/3x3_s2_0_split -> pool2/3x3_s2_pool2/3x3_s2_0_split_2
I0403 14:59:29.686758 11397 net.cpp:399] pool2/3x3_s2_pool2/3x3_s2_0_split -> pool2/3x3_s2_pool2/3x3_s2_0_split_3
I0403 14:59:29.686835 11397 net.cpp:141] Setting up pool2/3x3_s2_pool2/3x3_s2_0_split
I0403 14:59:29.686859 11397 net.cpp:148] Top shape: 24 192 28 28 (3612672)
I0403 14:59:29.686877 11397 net.cpp:148] Top shape: 24 192 28 28 (3612672)
I0403 14:59:29.686893 11397 net.cpp:148] Top shape: 24 192 28 28 (3612672)
I0403 14:59:29.686909 11397 net.cpp:148] Top shape: 24 192 28 28 (3612672)
I0403 14:59:29.686923 11397 net.cpp:156] Memory required for data: 491324448
I0403 14:59:29.686939 11397 layer_factory.hpp:77] Creating layer inception_3a/1x1
I0403 14:59:29.686962 11397 net.cpp:91] Creating Layer inception_3a/1x1
I0403 14:59:29.686980 11397 net.cpp:425] inception_3a/1x1 <- pool2/3x3_s2_pool2/3x3_s2_0_split_0
I0403 14:59:29.687001 11397 net.cpp:399] inception_3a/1x1 -> inception_3a/1x1
I0403 14:59:29.688555 11397 net.cpp:141] Setting up inception_3a/1x1
I0403 14:59:29.688588 11397 net.cpp:148] Top shape: 24 64 28 28 (1204224)
I0403 14:59:29.688606 11397 net.cpp:156] Memory required for data: 496141344
I0403 14:59:29.688626 11397 layer_factory.hpp:77] Creating layer inception_3a/relu_1x1
I0403 14:59:29.688644 11397 net.cpp:91] Creating Layer inception_3a/relu_1x1
I0403 14:59:29.688662 11397 net.cpp:425] inception_3a/relu_1x1 <- inception_3a/1x1
I0403 14:59:29.688680 11397 net.cpp:386] inception_3a/relu_1x1 -> inception_3a/1x1 (in-place)
I0403 14:59:29.688858 11397 net.cpp:141] Setting up inception_3a/relu_1x1
I0403 14:59:29.688886 11397 net.cpp:148] Top shape: 24 64 28 28 (1204224)
I0403 14:59:29.688904 11397 net.cpp:156] Memory required for data: 500958240
I0403 14:59:29.688918 11397 layer_factory.hpp:77] Creating layer inception_3a/3x3_reduce
I0403 14:59:29.688941 11397 net.cpp:91] Creating Layer inception_3a/3x3_reduce
I0403 14:59:29.688961 11397 net.cpp:425] inception_3a/3x3_reduce <- pool2/3x3_s2_pool2/3x3_s2_0_split_1
I0403 14:59:29.688980 11397 net.cpp:399] inception_3a/3x3_reduce -> inception_3a/3x3_reduce
I0403 14:59:29.690707 11397 net.cpp:141] Setting up inception_3a/3x3_reduce
I0403 14:59:29.690738 11397 net.cpp:148] Top shape: 24 96 28 28 (1806336)
I0403 14:59:29.690757 11397 net.cpp:156] Memory required for data: 508183584
I0403 14:59:29.690783 11397 layer_factory.hpp:77] Creating layer inception_3a/relu_3x3_reduce
I0403 14:59:29.690819 11397 net.cpp:91] Creating Layer inception_3a/relu_3x3_reduce
I0403 14:59:29.690839 11397 net.cpp:425] inception_3a/relu_3x3_reduce <- inception_3a/3x3_reduce
I0403 14:59:29.690860 11397 net.cpp:386] inception_3a/relu_3x3_reduce -> inception_3a/3x3_reduce (in-place)
I0403 14:59:29.691045 11397 net.cpp:141] Setting up inception_3a/relu_3x3_reduce
I0403 14:59:29.691072 11397 net.cpp:148] Top shape: 24 96 28 28 (1806336)
I0403 14:59:29.691088 11397 net.cpp:156] Memory required for data: 515408928
I0403 14:59:29.691108 11397 layer_factory.hpp:77] Creating layer inception_3a/3x3
I0403 14:59:29.691133 11397 net.cpp:91] Creating Layer inception_3a/3x3
I0403 14:59:29.691153 11397 net.cpp:425] inception_3a/3x3 <- inception_3a/3x3_reduce
I0403 14:59:29.691175 11397 net.cpp:399] inception_3a/3x3 -> inception_3a/3x3
I0403 14:59:29.692935 11397 net.cpp:141] Setting up inception_3a/3x3
I0403 14:59:29.692970 11397 net.cpp:148] Top shape: 24 128 28 28 (2408448)
I0403 14:59:29.692987 11397 net.cpp:156] Memory required for data: 525042720
I0403 14:59:29.693008 11397 layer_factory.hpp:77] Creating layer inception_3a/relu_3x3
I0403 14:59:29.693027 11397 net.cpp:91] Creating Layer inception_3a/relu_3x3
I0403 14:59:29.693043 11397 net.cpp:425] inception_3a/relu_3x3 <- inception_3a/3x3
I0403 14:59:29.693064 11397 net.cpp:386] inception_3a/relu_3x3 -> inception_3a/3x3 (in-place)
I0403 14:59:29.693367 11397 net.cpp:141] Setting up inception_3a/relu_3x3
I0403 14:59:29.693399 11397 net.cpp:148] Top shape: 24 128 28 28 (2408448)
I0403 14:59:29.693416 11397 net.cpp:156] Memory required for data: 534676512
I0403 14:59:29.693434 11397 layer_factory.hpp:77] Creating layer inception_3a/5x5_reduce
I0403 14:59:29.693460 11397 net.cpp:91] Creating Layer inception_3a/5x5_reduce
I0403 14:59:29.693480 11397 net.cpp:425] inception_3a/5x5_reduce <- pool2/3x3_s2_pool2/3x3_s2_0_split_2
I0403 14:59:29.693500 11397 net.cpp:399] inception_3a/5x5_reduce -> inception_3a/5x5_reduce
I0403 14:59:29.694517 11397 net.cpp:141] Setting up inception_3a/5x5_reduce
I0403 14:59:29.694548 11397 net.cpp:148] Top shape: 24 16 28 28 (301056)
I0403 14:59:29.694566 11397 net.cpp:156] Memory required for data: 535880736
I0403 14:59:29.694586 11397 layer_factory.hpp:77] Creating layer inception_3a/relu_5x5_reduce
I0403 14:59:29.694604 11397 net.cpp:91] Creating Layer inception_3a/relu_5x5_reduce
I0403 14:59:29.694622 11397 net.cpp:425] inception_3a/relu_5x5_reduce <- inception_3a/5x5_reduce
I0403 14:59:29.694653 11397 net.cpp:386] inception_3a/relu_5x5_reduce -> inception_3a/5x5_reduce (in-place)
I0403 14:59:29.694962 11397 net.cpp:141] Setting up inception_3a/relu_5x5_reduce
I0403 14:59:29.694990 11397 net.cpp:148] Top shape: 24 16 28 28 (301056)
I0403 14:59:29.695008 11397 net.cpp:156] Memory required for data: 537084960
I0403 14:59:29.695024 11397 layer_factory.hpp:77] Creating layer inception_3a/5x5
I0403 14:59:29.695049 11397 net.cpp:91] Creating Layer inception_3a/5x5
I0403 14:59:29.695067 11397 net.cpp:425] inception_3a/5x5 <- inception_3a/5x5_reduce
I0403 14:59:29.695091 11397 net.cpp:399] inception_3a/5x5 -> inception_3a/5x5
I0403 14:59:29.696157 11397 net.cpp:141] Setting up inception_3a/5x5
I0403 14:59:29.696190 11397 net.cpp:148] Top shape: 24 32 28 28 (602112)
I0403 14:59:29.696209 11397 net.cpp:156] Memory required for data: 539493408
I0403 14:59:29.696230 11397 layer_factory.hpp:77] Creating layer inception_3a/relu_5x5
I0403 14:59:29.696250 11397 net.cpp:91] Creating Layer inception_3a/relu_5x5
I0403 14:59:29.696267 11397 net.cpp:425] inception_3a/relu_5x5 <- inception_3a/5x5
I0403 14:59:29.696286 11397 net.cpp:386] inception_3a/relu_5x5 -> inception_3a/5x5 (in-place)
I0403 14:59:29.696475 11397 net.cpp:141] Setting up inception_3a/relu_5x5
I0403 14:59:29.696501 11397 net.cpp:148] Top shape: 24 32 28 28 (602112)
I0403 14:59:29.696517 11397 net.cpp:156] Memory required for data: 541901856
I0403 14:59:29.696533 11397 layer_factory.hpp:77] Creating layer inception_3a/pool
I0403 14:59:29.696553 11397 net.cpp:91] Creating Layer inception_3a/pool
I0403 14:59:29.696588 11397 net.cpp:425] inception_3a/pool <- pool2/3x3_s2_pool2/3x3_s2_0_split_3
I0403 14:59:29.696614 11397 net.cpp:399] inception_3a/pool -> inception_3a/pool
I0403 14:59:29.696676 11397 net.cpp:141] Setting up inception_3a/pool
I0403 14:59:29.696704 11397 net.cpp:148] Top shape: 24 192 28 28 (3612672)
I0403 14:59:29.696722 11397 net.cpp:156] Memory required for data: 556352544
I0403 14:59:29.696738 11397 layer_factory.hpp:77] Creating layer inception_3a/pool_proj
I0403 14:59:29.696761 11397 net.cpp:91] Creating Layer inception_3a/pool_proj
I0403 14:59:29.696781 11397 net.cpp:425] inception_3a/pool_proj <- inception_3a/pool
I0403 14:59:29.696802 11397 net.cpp:399] inception_3a/pool_proj -> inception_3a/pool_proj
I0403 14:59:29.697811 11397 net.cpp:141] Setting up inception_3a/pool_proj
I0403 14:59:29.697841 11397 net.cpp:148] Top shape: 24 32 28 28 (602112)
I0403 14:59:29.697857 11397 net.cpp:156] Memory required for data: 558760992
I0403 14:59:29.697882 11397 layer_factory.hpp:77] Creating layer inception_3a/relu_pool_proj
I0403 14:59:29.697904 11397 net.cpp:91] Creating Layer inception_3a/relu_pool_proj
I0403 14:59:29.697922 11397 net.cpp:425] inception_3a/relu_pool_proj <- inception_3a/pool_proj
I0403 14:59:29.697943 11397 net.cpp:386] inception_3a/relu_pool_proj -> inception_3a/pool_proj (in-place)
I0403 14:59:29.698235 11397 net.cpp:141] Setting up inception_3a/relu_pool_proj
I0403 14:59:29.698267 11397 net.cpp:148] Top shape: 24 32 28 28 (602112)
I0403 14:59:29.698284 11397 net.cpp:156] Memory required for data: 561169440
I0403 14:59:29.698302 11397 layer_factory.hpp:77] Creating layer inception_3a/output
I0403 14:59:29.698320 11397 net.cpp:91] Creating Layer inception_3a/output
I0403 14:59:29.698338 11397 net.cpp:425] inception_3a/output <- inception_3a/1x1
I0403 14:59:29.698359 11397 net.cpp:425] inception_3a/output <- inception_3a/3x3
I0403 14:59:29.698376 11397 net.cpp:425] inception_3a/output <- inception_3a/5x5
I0403 14:59:29.698393 11397 net.cpp:425] inception_3a/output <- inception_3a/pool_proj
I0403 14:59:29.698412 11397 net.cpp:399] inception_3a/output -> inception_3a/output
I0403 14:59:29.698464 11397 net.cpp:141] Setting up inception_3a/output
I0403 14:59:29.698490 11397 net.cpp:148] Top shape: 24 256 28 28 (4816896)
I0403 14:59:29.698509 11397 net.cpp:156] Memory required for data: 580437024
I0403 14:59:29.698525 11397 layer_factory.hpp:77] Creating layer inception_3a/output_inception_3a/output_0_split
I0403 14:59:29.698546 11397 net.cpp:91] Creating Layer inception_3a/output_inception_3a/output_0_split
I0403 14:59:29.698565 11397 net.cpp:425] inception_3a/output_inception_3a/output_0_split <- inception_3a/output
I0403 14:59:29.698583 11397 net.cpp:399] inception_3a/output_inception_3a/output_0_split -> inception_3a/output_inception_3a/output_0_split_0
I0403 14:59:29.698604 11397 net.cpp:399] inception_3a/output_inception_3a/output_0_split -> inception_3a/output_inception_3a/output_0_split_1
I0403 14:59:29.698632 11397 net.cpp:399] inception_3a/output_inception_3a/output_0_split -> inception_3a/output_inception_3a/output_0_split_2
I0403 14:59:29.698655 11397 net.cpp:399] inception_3a/output_inception_3a/output_0_split -> inception_3a/output_inception_3a/output_0_split_3
I0403 14:59:29.698736 11397 net.cpp:141] Setting up inception_3a/output_inception_3a/output_0_split
I0403 14:59:29.698761 11397 net.cpp:148] Top shape: 24 256 28 28 (4816896)
I0403 14:59:29.698779 11397 net.cpp:148] Top shape: 24 256 28 28 (4816896)
I0403 14:59:29.698796 11397 net.cpp:148] Top shape: 24 256 28 28 (4816896)
I0403 14:59:29.698813 11397 net.cpp:148] Top shape: 24 256 28 28 (4816896)
I0403 14:59:29.698827 11397 net.cpp:156] Memory required for data: 657507360
I0403 14:59:29.698843 11397 layer_factory.hpp:77] Creating layer inception_3b/1x1
I0403 14:59:29.698869 11397 net.cpp:91] Creating Layer inception_3b/1x1
I0403 14:59:29.698889 11397 net.cpp:425] inception_3b/1x1 <- inception_3a/output_inception_3a/output_0_split_0
I0403 14:59:29.698909 11397 net.cpp:399] inception_3b/1x1 -> inception_3b/1x1
I0403 14:59:29.700110 11397 net.cpp:141] Setting up inception_3b/1x1
I0403 14:59:29.700153 11397 net.cpp:148] Top shape: 24 128 28 28 (2408448)
I0403 14:59:29.700171 11397 net.cpp:156] Memory required for data: 667141152
I0403 14:59:29.700192 11397 layer_factory.hpp:77] Creating layer inception_3b/relu_1x1
I0403 14:59:29.700217 11397 net.cpp:91] Creating Layer inception_3b/relu_1x1
I0403 14:59:29.700237 11397 net.cpp:425] inception_3b/relu_1x1 <- inception_3b/1x1
I0403 14:59:29.700255 11397 net.cpp:386] inception_3b/relu_1x1 -> inception_3b/1x1 (in-place)
I0403 14:59:29.700441 11397 net.cpp:141] Setting up inception_3b/relu_1x1
I0403 14:59:29.700470 11397 net.cpp:148] Top shape: 24 128 28 28 (2408448)
I0403 14:59:29.700487 11397 net.cpp:156] Memory required for data: 676774944
I0403 14:59:29.700503 11397 layer_factory.hpp:77] Creating layer inception_3b/3x3_reduce
I0403 14:59:29.700528 11397 net.cpp:91] Creating Layer inception_3b/3x3_reduce
I0403 14:59:29.700547 11397 net.cpp:425] inception_3b/3x3_reduce <- inception_3a/output_inception_3a/output_0_split_1
I0403 14:59:29.700570 11397 net.cpp:399] inception_3b/3x3_reduce -> inception_3b/3x3_reduce
I0403 14:59:29.701763 11397 net.cpp:141] Setting up inception_3b/3x3_reduce
I0403 14:59:29.701793 11397 net.cpp:148] Top shape: 24 128 28 28 (2408448)
I0403 14:59:29.701810 11397 net.cpp:156] Memory required for data: 686408736
I0403 14:59:29.701830 11397 layer_factory.hpp:77] Creating layer inception_3b/relu_3x3_reduce
I0403 14:59:29.701853 11397 net.cpp:91] Creating Layer inception_3b/relu_3x3_reduce
I0403 14:59:29.701871 11397 net.cpp:425] inception_3b/relu_3x3_reduce <- inception_3b/3x3_reduce
I0403 14:59:29.701891 11397 net.cpp:386] inception_3b/relu_3x3_reduce -> inception_3b/3x3_reduce (in-place)
I0403 14:59:29.702075 11397 net.cpp:141] Setting up inception_3b/relu_3x3_reduce
I0403 14:59:29.702108 11397 net.cpp:148] Top shape: 24 128 28 28 (2408448)
I0403 14:59:29.702127 11397 net.cpp:156] Memory required for data: 696042528
I0403 14:59:29.702143 11397 layer_factory.hpp:77] Creating layer inception_3b/3x3
I0403 14:59:29.702170 11397 net.cpp:91] Creating Layer inception_3b/3x3
I0403 14:59:29.702190 11397 net.cpp:425] inception_3b/3x3 <- inception_3b/3x3_reduce
I0403 14:59:29.702214 11397 net.cpp:399] inception_3b/3x3 -> inception_3b/3x3
I0403 14:59:29.705276 11397 net.cpp:141] Setting up inception_3b/3x3
I0403 14:59:29.705312 11397 net.cpp:148] Top shape: 24 192 28 28 (3612672)
I0403 14:59:29.705329 11397 net.cpp:156] Memory required for data: 710493216
I0403 14:59:29.705349 11397 layer_factory.hpp:77] Creating layer inception_3b/relu_3x3
I0403 14:59:29.705369 11397 net.cpp:91] Creating Layer inception_3b/relu_3x3
I0403 14:59:29.705386 11397 net.cpp:425] inception_3b/relu_3x3 <- inception_3b/3x3
I0403 14:59:29.705406 11397 net.cpp:386] inception_3b/relu_3x3 -> inception_3b/3x3 (in-place)
I0403 14:59:29.705701 11397 net.cpp:141] Setting up inception_3b/relu_3x3
I0403 14:59:29.705732 11397 net.cpp:148] Top shape: 24 192 28 28 (3612672)
I0403 14:59:29.705749 11397 net.cpp:156] Memory required for data: 724943904
I0403 14:59:29.705765 11397 layer_factory.hpp:77] Creating layer inception_3b/5x5_reduce
I0403 14:59:29.705790 11397 net.cpp:91] Creating Layer inception_3b/5x5_reduce
I0403 14:59:29.705808 11397 net.cpp:425] inception_3b/5x5_reduce <- inception_3a/output_inception_3a/output_0_split_2
I0403 14:59:29.705829 11397 net.cpp:399] inception_3b/5x5_reduce -> inception_3b/5x5_reduce
I0403 14:59:29.706894 11397 net.cpp:141] Setting up inception_3b/5x5_reduce
I0403 14:59:29.706926 11397 net.cpp:148] Top shape: 24 32 28 28 (602112)
I0403 14:59:29.706943 11397 net.cpp:156] Memory required for data: 727352352
I0403 14:59:29.706964 11397 layer_factory.hpp:77] Creating layer inception_3b/relu_5x5_reduce
I0403 14:59:29.706981 11397 net.cpp:91] Creating Layer inception_3b/relu_5x5_reduce
I0403 14:59:29.707000 11397 net.cpp:425] inception_3b/relu_5x5_reduce <- inception_3b/5x5_reduce
I0403 14:59:29.707017 11397 net.cpp:386] inception_3b/relu_5x5_reduce -> inception_3b/5x5_reduce (in-place)
I0403 14:59:29.707218 11397 net.cpp:141] Setting up inception_3b/relu_5x5_reduce
I0403 14:59:29.707247 11397 net.cpp:148] Top shape: 24 32 28 28 (602112)
I0403 14:59:29.707273 11397 net.cpp:156] Memory required for data: 729760800
I0403 14:59:29.707291 11397 layer_factory.hpp:77] Creating layer inception_3b/5x5
I0403 14:59:29.707316 11397 net.cpp:91] Creating Layer inception_3b/5x5
I0403 14:59:29.707336 11397 net.cpp:425] inception_3b/5x5 <- inception_3b/5x5_reduce
I0403 14:59:29.707360 11397 net.cpp:399] inception_3b/5x5 -> inception_3b/5x5
I0403 14:59:29.709414 11397 net.cpp:141] Setting up inception_3b/5x5
I0403 14:59:29.709446 11397 net.cpp:148] Top shape: 24 96 28 28 (1806336)
I0403 14:59:29.709463 11397 net.cpp:156] Memory required for data: 736986144
I0403 14:59:29.709482 11397 layer_factory.hpp:77] Creating layer inception_3b/relu_5x5
I0403 14:59:29.709506 11397 net.cpp:91] Creating Layer inception_3b/relu_5x5
I0403 14:59:29.709524 11397 net.cpp:425] inception_3b/relu_5x5 <- inception_3b/5x5
I0403 14:59:29.709544 11397 net.cpp:386] inception_3b/relu_5x5 -> inception_3b/5x5 (in-place)
I0403 14:59:29.709748 11397 net.cpp:141] Setting up inception_3b/relu_5x5
I0403 14:59:29.709775 11397 net.cpp:148] Top shape: 24 96 28 28 (1806336)
I0403 14:59:29.709791 11397 net.cpp:156] Memory required for data: 744211488
I0403 14:59:29.709807 11397 layer_factory.hpp:77] Creating layer inception_3b/pool
I0403 14:59:29.709826 11397 net.cpp:91] Creating Layer inception_3b/pool
I0403 14:59:29.709844 11397 net.cpp:425] inception_3b/pool <- inception_3a/output_inception_3a/output_0_split_3
I0403 14:59:29.709864 11397 net.cpp:399] inception_3b/pool -> inception_3b/pool
I0403 14:59:29.709924 11397 net.cpp:141] Setting up inception_3b/pool
I0403 14:59:29.709950 11397 net.cpp:148] Top shape: 24 256 28 28 (4816896)
I0403 14:59:29.709966 11397 net.cpp:156] Memory required for data: 763479072
I0403 14:59:29.709982 11397 layer_factory.hpp:77] Creating layer inception_3b/pool_proj
I0403 14:59:29.710006 11397 net.cpp:91] Creating Layer inception_3b/pool_proj
I0403 14:59:29.710024 11397 net.cpp:425] inception_3b/pool_proj <- inception_3b/pool
I0403 14:59:29.710047 11397 net.cpp:399] inception_3b/pool_proj -> inception_3b/pool_proj
I0403 14:59:29.711180 11397 net.cpp:141] Setting up inception_3b/pool_proj
I0403 14:59:29.711210 11397 net.cpp:148] Top shape: 24 64 28 28 (1204224)
I0403 14:59:29.711225 11397 net.cpp:156] Memory required for data: 768295968
I0403 14:59:29.711244 11397 layer_factory.hpp:77] Creating layer inception_3b/relu_pool_proj
I0403 14:59:29.711266 11397 net.cpp:91] Creating Layer inception_3b/relu_pool_proj
I0403 14:59:29.711284 11397 net.cpp:425] inception_3b/relu_pool_proj <- inception_3b/pool_proj
I0403 14:59:29.711303 11397 net.cpp:386] inception_3b/relu_pool_proj -> inception_3b/pool_proj (in-place)
I0403 14:59:29.711748 11397 net.cpp:141] Setting up inception_3b/relu_pool_proj
I0403 14:59:29.711776 11397 net.cpp:148] Top shape: 24 64 28 28 (1204224)
I0403 14:59:29.711791 11397 net.cpp:156] Memory required for data: 773112864
I0403 14:59:29.711805 11397 layer_factory.hpp:77] Creating layer inception_3b/output
I0403 14:59:29.711823 11397 net.cpp:91] Creating Layer inception_3b/output
I0403 14:59:29.711838 11397 net.cpp:425] inception_3b/output <- inception_3b/1x1
I0403 14:59:29.711855 11397 net.cpp:425] inception_3b/output <- inception_3b/3x3
I0403 14:59:29.711872 11397 net.cpp:425] inception_3b/output <- inception_3b/5x5
I0403 14:59:29.711889 11397 net.cpp:425] inception_3b/output <- inception_3b/pool_proj
I0403 14:59:29.711906 11397 net.cpp:399] inception_3b/output -> inception_3b/output
I0403 14:59:29.711951 11397 net.cpp:141] Setting up inception_3b/output
I0403 14:59:29.711977 11397 net.cpp:148] Top shape: 24 480 28 28 (9031680)
I0403 14:59:29.711992 11397 net.cpp:156] Memory required for data: 809239584
I0403 14:59:29.712007 11397 layer_factory.hpp:77] Creating layer pool3/3x3_s2
I0403 14:59:29.712024 11397 net.cpp:91] Creating Layer pool3/3x3_s2
I0403 14:59:29.712039 11397 net.cpp:425] pool3/3x3_s2 <- inception_3b/output
I0403 14:59:29.712072 11397 net.cpp:399] pool3/3x3_s2 -> pool3/3x3_s2
I0403 14:59:29.712136 11397 net.cpp:141] Setting up pool3/3x3_s2
I0403 14:59:29.712159 11397 net.cpp:148] Top shape: 24 480 14 14 (2257920)
I0403 14:59:29.712174 11397 net.cpp:156] Memory required for data: 818271264
I0403 14:59:29.712188 11397 layer_factory.hpp:77] Creating layer pool3/3x3_s2_pool3/3x3_s2_0_split
I0403 14:59:29.712206 11397 net.cpp:91] Creating Layer pool3/3x3_s2_pool3/3x3_s2_0_split
I0403 14:59:29.712221 11397 net.cpp:425] pool3/3x3_s2_pool3/3x3_s2_0_split <- pool3/3x3_s2
I0403 14:59:29.712241 11397 net.cpp:399] pool3/3x3_s2_pool3/3x3_s2_0_split -> pool3/3x3_s2_pool3/3x3_s2_0_split_0
I0403 14:59:29.712261 11397 net.cpp:399] pool3/3x3_s2_pool3/3x3_s2_0_split -> pool3/3x3_s2_pool3/3x3_s2_0_split_1
I0403 14:59:29.712281 11397 net.cpp:399] pool3/3x3_s2_pool3/3x3_s2_0_split -> pool3/3x3_s2_pool3/3x3_s2_0_split_2
I0403 14:59:29.712302 11397 net.cpp:399] pool3/3x3_s2_pool3/3x3_s2_0_split -> pool3/3x3_s2_pool3/3x3_s2_0_split_3
I0403 14:59:29.712379 11397 net.cpp:141] Setting up pool3/3x3_s2_pool3/3x3_s2_0_split
I0403 14:59:29.712414 11397 net.cpp:148] Top shape: 24 480 14 14 (2257920)
I0403 14:59:29.712431 11397 net.cpp:148] Top shape: 24 480 14 14 (2257920)
I0403 14:59:29.712448 11397 net.cpp:148] Top shape: 24 480 14 14 (2257920)
I0403 14:59:29.712465 11397 net.cpp:148] Top shape: 24 480 14 14 (2257920)
I0403 14:59:29.712478 11397 net.cpp:156] Memory required for data: 854397984
I0403 14:59:29.712494 11397 layer_factory.hpp:77] Creating layer inception_4a/1x1
I0403 14:59:29.712517 11397 net.cpp:91] Creating Layer inception_4a/1x1
I0403 14:59:29.712535 11397 net.cpp:425] inception_4a/1x1 <- pool3/3x3_s2_pool3/3x3_s2_0_split_0
I0403 14:59:29.712556 11397 net.cpp:399] inception_4a/1x1 -> inception_4a/1x1
I0403 14:59:29.714107 11397 net.cpp:141] Setting up inception_4a/1x1
I0403 14:59:29.714139 11397 net.cpp:148] Top shape: 24 192 14 14 (903168)
I0403 14:59:29.714155 11397 net.cpp:156] Memory required for data: 858010656
I0403 14:59:29.714174 11397 layer_factory.hpp:77] Creating layer inception_4a/relu_1x1
I0403 14:59:29.714195 11397 net.cpp:91] Creating Layer inception_4a/relu_1x1
I0403 14:59:29.714213 11397 net.cpp:425] inception_4a/relu_1x1 <- inception_4a/1x1
I0403 14:59:29.714231 11397 net.cpp:386] inception_4a/relu_1x1 -> inception_4a/1x1 (in-place)
I0403 14:59:29.714407 11397 net.cpp:141] Setting up inception_4a/relu_1x1
I0403 14:59:29.714432 11397 net.cpp:148] Top shape: 24 192 14 14 (903168)
I0403 14:59:29.714447 11397 net.cpp:156] Memory required for data: 861623328
I0403 14:59:29.714463 11397 layer_factory.hpp:77] Creating layer inception_4a/3x3_reduce
I0403 14:59:29.714489 11397 net.cpp:91] Creating Layer inception_4a/3x3_reduce
I0403 14:59:29.714509 11397 net.cpp:425] inception_4a/3x3_reduce <- pool3/3x3_s2_pool3/3x3_s2_0_split_1
I0403 14:59:29.714527 11397 net.cpp:399] inception_4a/3x3_reduce -> inception_4a/3x3_reduce
I0403 14:59:29.715793 11397 net.cpp:141] Setting up inception_4a/3x3_reduce
I0403 14:59:29.715824 11397 net.cpp:148] Top shape: 24 96 14 14 (451584)
I0403 14:59:29.715842 11397 net.cpp:156] Memory required for data: 863429664
I0403 14:59:29.715867 11397 layer_factory.hpp:77] Creating layer inception_4a/relu_3x3_reduce
I0403 14:59:29.715888 11397 net.cpp:91] Creating Layer inception_4a/relu_3x3_reduce
I0403 14:59:29.715905 11397 net.cpp:425] inception_4a/relu_3x3_reduce <- inception_4a/3x3_reduce
I0403 14:59:29.715924 11397 net.cpp:386] inception_4a/relu_3x3_reduce -> inception_4a/3x3_reduce (in-place)
I0403 14:59:29.716105 11397 net.cpp:141] Setting up inception_4a/relu_3x3_reduce
I0403 14:59:29.716131 11397 net.cpp:148] Top shape: 24 96 14 14 (451584)
I0403 14:59:29.716146 11397 net.cpp:156] Memory required for data: 865236000
I0403 14:59:29.716161 11397 layer_factory.hpp:77] Creating layer inception_4a/3x3
I0403 14:59:29.716184 11397 net.cpp:91] Creating Layer inception_4a/3x3
I0403 14:59:29.716202 11397 net.cpp:425] inception_4a/3x3 <- inception_4a/3x3_reduce
I0403 14:59:29.716223 11397 net.cpp:399] inception_4a/3x3 -> inception_4a/3x3
I0403 14:59:29.718875 11397 net.cpp:141] Setting up inception_4a/3x3
I0403 14:59:29.718904 11397 net.cpp:148] Top shape: 24 208 14 14 (978432)
I0403 14:59:29.718920 11397 net.cpp:156] Memory required for data: 869149728
I0403 14:59:29.718940 11397 layer_factory.hpp:77] Creating layer inception_4a/relu_3x3
I0403 14:59:29.718961 11397 net.cpp:91] Creating Layer inception_4a/relu_3x3
I0403 14:59:29.718979 11397 net.cpp:425] inception_4a/relu_3x3 <- inception_4a/3x3
I0403 14:59:29.718998 11397 net.cpp:386] inception_4a/relu_3x3 -> inception_4a/3x3 (in-place)
I0403 14:59:29.719282 11397 net.cpp:141] Setting up inception_4a/relu_3x3
I0403 14:59:29.719310 11397 net.cpp:148] Top shape: 24 208 14 14 (978432)
I0403 14:59:29.719324 11397 net.cpp:156] Memory required for data: 873063456
I0403 14:59:29.719339 11397 layer_factory.hpp:77] Creating layer inception_4a/5x5_reduce
I0403 14:59:29.719364 11397 net.cpp:91] Creating Layer inception_4a/5x5_reduce
I0403 14:59:29.719383 11397 net.cpp:425] inception_4a/5x5_reduce <- pool3/3x3_s2_pool3/3x3_s2_0_split_2
I0403 14:59:29.719406 11397 net.cpp:399] inception_4a/5x5_reduce -> inception_4a/5x5_reduce
I0403 14:59:29.720435 11397 net.cpp:141] Setting up inception_4a/5x5_reduce
I0403 14:59:29.720465 11397 net.cpp:148] Top shape: 24 16 14 14 (75264)
I0403 14:59:29.720484 11397 net.cpp:156] Memory required for data: 873364512
I0403 14:59:29.720502 11397 layer_factory.hpp:77] Creating layer inception_4a/relu_5x5_reduce
I0403 14:59:29.720520 11397 net.cpp:91] Creating Layer inception_4a/relu_5x5_reduce
I0403 14:59:29.720538 11397 net.cpp:425] inception_4a/relu_5x5_reduce <- inception_4a/5x5_reduce
I0403 14:59:29.720556 11397 net.cpp:386] inception_4a/relu_5x5_reduce -> inception_4a/5x5_reduce (in-place)
I0403 14:59:29.720736 11397 net.cpp:141] Setting up inception_4a/relu_5x5_reduce
I0403 14:59:29.720762 11397 net.cpp:148] Top shape: 24 16 14 14 (75264)
I0403 14:59:29.720777 11397 net.cpp:156] Memory required for data: 873665568
I0403 14:59:29.720793 11397 layer_factory.hpp:77] Creating layer inception_4a/5x5
I0403 14:59:29.720815 11397 net.cpp:91] Creating Layer inception_4a/5x5
I0403 14:59:29.720832 11397 net.cpp:425] inception_4a/5x5 <- inception_4a/5x5_reduce
I0403 14:59:29.720854 11397 net.cpp:399] inception_4a/5x5 -> inception_4a/5x5
I0403 14:59:29.721951 11397 net.cpp:141] Setting up inception_4a/5x5
I0403 14:59:29.721979 11397 net.cpp:148] Top shape: 24 48 14 14 (225792)
I0403 14:59:29.721994 11397 net.cpp:156] Memory required for data: 874568736
I0403 14:59:29.722013 11397 layer_factory.hpp:77] Creating layer inception_4a/relu_5x5
I0403 14:59:29.722033 11397 net.cpp:91] Creating Layer inception_4a/relu_5x5
I0403 14:59:29.722049 11397 net.cpp:425] inception_4a/relu_5x5 <- inception_4a/5x5
I0403 14:59:29.722070 11397 net.cpp:386] inception_4a/relu_5x5 -> inception_4a/5x5 (in-place)
I0403 14:59:29.722252 11397 net.cpp:141] Setting up inception_4a/relu_5x5
I0403 14:59:29.722278 11397 net.cpp:148] Top shape: 24 48 14 14 (225792)
I0403 14:59:29.722293 11397 net.cpp:156] Memory required for data: 875471904
I0403 14:59:29.722308 11397 layer_factory.hpp:77] Creating layer inception_4a/pool
I0403 14:59:29.722328 11397 net.cpp:91] Creating Layer inception_4a/pool
I0403 14:59:29.722347 11397 net.cpp:425] inception_4a/pool <- pool3/3x3_s2_pool3/3x3_s2_0_split_3
I0403 14:59:29.722365 11397 net.cpp:399] inception_4a/pool -> inception_4a/pool
I0403 14:59:29.722427 11397 net.cpp:141] Setting up inception_4a/pool
I0403 14:59:29.722452 11397 net.cpp:148] Top shape: 24 480 14 14 (2257920)
I0403 14:59:29.722467 11397 net.cpp:156] Memory required for data: 884503584
I0403 14:59:29.722482 11397 layer_factory.hpp:77] Creating layer inception_4a/pool_proj
I0403 14:59:29.722506 11397 net.cpp:91] Creating Layer inception_4a/pool_proj
I0403 14:59:29.722524 11397 net.cpp:425] inception_4a/pool_proj <- inception_4a/pool
I0403 14:59:29.722548 11397 net.cpp:399] inception_4a/pool_proj -> inception_4a/pool_proj
I0403 14:59:29.723731 11397 net.cpp:141] Setting up inception_4a/pool_proj
I0403 14:59:29.723759 11397 net.cpp:148] Top shape: 24 64 14 14 (301056)
I0403 14:59:29.723790 11397 net.cpp:156] Memory required for data: 885707808
I0403 14:59:29.723811 11397 layer_factory.hpp:77] Creating layer inception_4a/relu_pool_proj
I0403 14:59:29.723834 11397 net.cpp:91] Creating Layer inception_4a/relu_pool_proj
I0403 14:59:29.723851 11397 net.cpp:425] inception_4a/relu_pool_proj <- inception_4a/pool_proj
I0403 14:59:29.723870 11397 net.cpp:386] inception_4a/relu_pool_proj -> inception_4a/pool_proj (in-place)
I0403 14:59:29.724186 11397 net.cpp:141] Setting up inception_4a/relu_pool_proj
I0403 14:59:29.724215 11397 net.cpp:148] Top shape: 24 64 14 14 (301056)
I0403 14:59:29.724231 11397 net.cpp:156] Memory required for data: 886912032
I0403 14:59:29.724248 11397 layer_factory.hpp:77] Creating layer inception_4a/output
I0403 14:59:29.724267 11397 net.cpp:91] Creating Layer inception_4a/output
I0403 14:59:29.724283 11397 net.cpp:425] inception_4a/output <- inception_4a/1x1
I0403 14:59:29.724303 11397 net.cpp:425] inception_4a/output <- inception_4a/3x3
I0403 14:59:29.724319 11397 net.cpp:425] inception_4a/output <- inception_4a/5x5
I0403 14:59:29.724336 11397 net.cpp:425] inception_4a/output <- inception_4a/pool_proj
I0403 14:59:29.724359 11397 net.cpp:399] inception_4a/output -> inception_4a/output
I0403 14:59:29.724406 11397 net.cpp:141] Setting up inception_4a/output
I0403 14:59:29.724434 11397 net.cpp:148] Top shape: 24 512 14 14 (2408448)
I0403 14:59:29.724462 11397 net.cpp:156] Memory required for data: 896545824
I0403 14:59:29.724478 11397 layer_factory.hpp:77] Creating layer inception_4a/output_inception_4a/output_0_split
I0403 14:59:29.724496 11397 net.cpp:91] Creating Layer inception_4a/output_inception_4a/output_0_split
I0403 14:59:29.724512 11397 net.cpp:425] inception_4a/output_inception_4a/output_0_split <- inception_4a/output
I0403 14:59:29.724534 11397 net.cpp:399] inception_4a/output_inception_4a/output_0_split -> inception_4a/output_inception_4a/output_0_split_0
I0403 14:59:29.724557 11397 net.cpp:399] inception_4a/output_inception_4a/output_0_split -> inception_4a/output_inception_4a/output_0_split_1
I0403 14:59:29.724580 11397 net.cpp:399] inception_4a/output_inception_4a/output_0_split -> inception_4a/output_inception_4a/output_0_split_2
I0403 14:59:29.724602 11397 net.cpp:399] inception_4a/output_inception_4a/output_0_split -> inception_4a/output_inception_4a/output_0_split_3
I0403 14:59:29.724623 11397 net.cpp:399] inception_4a/output_inception_4a/output_0_split -> inception_4a/output_inception_4a/output_0_split_4
I0403 14:59:29.724719 11397 net.cpp:141] Setting up inception_4a/output_inception_4a/output_0_split
I0403 14:59:29.724746 11397 net.cpp:148] Top shape: 24 512 14 14 (2408448)
I0403 14:59:29.724764 11397 net.cpp:148] Top shape: 24 512 14 14 (2408448)
I0403 14:59:29.724781 11397 net.cpp:148] Top shape: 24 512 14 14 (2408448)
I0403 14:59:29.724797 11397 net.cpp:148] Top shape: 24 512 14 14 (2408448)
I0403 14:59:29.724825 11397 net.cpp:148] Top shape: 24 512 14 14 (2408448)
I0403 14:59:29.724839 11397 net.cpp:156] Memory required for data: 944714784
I0403 14:59:29.724854 11397 layer_factory.hpp:77] Creating layer loss1/ave_pool
I0403 14:59:29.724871 11397 net.cpp:91] Creating Layer loss1/ave_pool
I0403 14:59:29.724887 11397 net.cpp:425] loss1/ave_pool <- inception_4a/output_inception_4a/output_0_split_0
I0403 14:59:29.724906 11397 net.cpp:399] loss1/ave_pool -> loss1/ave_pool
I0403 14:59:29.725119 11397 net.cpp:141] Setting up loss1/ave_pool
I0403 14:59:29.725145 11397 net.cpp:148] Top shape: 24 512 4 4 (196608)
I0403 14:59:29.725160 11397 net.cpp:156] Memory required for data: 945501216
I0403 14:59:29.725175 11397 layer_factory.hpp:77] Creating layer loss1/conv
I0403 14:59:29.725198 11397 net.cpp:91] Creating Layer loss1/conv
I0403 14:59:29.725215 11397 net.cpp:425] loss1/conv <- loss1/ave_pool
I0403 14:59:29.725237 11397 net.cpp:399] loss1/conv -> loss1/conv
I0403 14:59:29.726763 11397 net.cpp:141] Setting up loss1/conv
I0403 14:59:29.726796 11397 net.cpp:148] Top shape: 24 128 4 4 (49152)
I0403 14:59:29.726826 11397 net.cpp:156] Memory required for data: 945697824
I0403 14:59:29.726846 11397 layer_factory.hpp:77] Creating layer loss1/relu_conv
I0403 14:59:29.726866 11397 net.cpp:91] Creating Layer loss1/relu_conv
I0403 14:59:29.726883 11397 net.cpp:425] loss1/relu_conv <- loss1/conv
I0403 14:59:29.726902 11397 net.cpp:386] loss1/relu_conv -> loss1/conv (in-place)
I0403 14:59:29.727190 11397 net.cpp:141] Setting up loss1/relu_conv
I0403 14:59:29.727218 11397 net.cpp:148] Top shape: 24 128 4 4 (49152)
I0403 14:59:29.727246 11397 net.cpp:156] Memory required for data: 945894432
I0403 14:59:29.727262 11397 layer_factory.hpp:77] Creating layer loss1/fc
I0403 14:59:29.727285 11397 net.cpp:91] Creating Layer loss1/fc
I0403 14:59:29.727304 11397 net.cpp:425] loss1/fc <- loss1/conv
I0403 14:59:29.727327 11397 net.cpp:399] loss1/fc -> loss1/fc
I0403 14:59:29.745676 11397 net.cpp:141] Setting up loss1/fc
I0403 14:59:29.745738 11397 net.cpp:148] Top shape: 24 1024 (24576)
I0403 14:59:29.745770 11397 net.cpp:156] Memory required for data: 945992736
I0403 14:59:29.745790 11397 layer_factory.hpp:77] Creating layer loss1/relu_fc
I0403 14:59:29.745826 11397 net.cpp:91] Creating Layer loss1/relu_fc
I0403 14:59:29.745844 11397 net.cpp:425] loss1/relu_fc <- loss1/fc
I0403 14:59:29.745867 11397 net.cpp:386] loss1/relu_fc -> loss1/fc (in-place)
I0403 14:59:29.746088 11397 net.cpp:141] Setting up loss1/relu_fc
I0403 14:59:29.746130 11397 net.cpp:148] Top shape: 24 1024 (24576)
I0403 14:59:29.746145 11397 net.cpp:156] Memory required for data: 946091040
I0403 14:59:29.746160 11397 layer_factory.hpp:77] Creating layer loss1/drop_fc
I0403 14:59:29.746201 11397 net.cpp:91] Creating Layer loss1/drop_fc
I0403 14:59:29.746219 11397 net.cpp:425] loss1/drop_fc <- loss1/fc
I0403 14:59:29.746237 11397 net.cpp:386] loss1/drop_fc -> loss1/fc (in-place)
I0403 14:59:29.746289 11397 net.cpp:141] Setting up loss1/drop_fc
I0403 14:59:29.746314 11397 net.cpp:148] Top shape: 24 1024 (24576)
I0403 14:59:29.746328 11397 net.cpp:156] Memory required for data: 946189344
I0403 14:59:29.746342 11397 layer_factory.hpp:77] Creating layer loss1/classifier_plantvillage
I0403 14:59:29.746362 11397 net.cpp:91] Creating Layer loss1/classifier_plantvillage
I0403 14:59:29.746378 11397 net.cpp:425] loss1/classifier_plantvillage <- loss1/fc
I0403 14:59:29.746400 11397 net.cpp:399] loss1/classifier_plantvillage -> loss1/classifier_plantvillage
I0403 14:59:29.747303 11397 net.cpp:141] Setting up loss1/classifier_plantvillage
I0403 14:59:29.747333 11397 net.cpp:148] Top shape: 24 38 (912)
I0403 14:59:29.747349 11397 net.cpp:156] Memory required for data: 946192992
I0403 14:59:29.747367 11397 layer_factory.hpp:77] Creating layer loss1/classifier_plantvillage_loss1/classifier_plantvillage_0_split
I0403 14:59:29.747386 11397 net.cpp:91] Creating Layer loss1/classifier_plantvillage_loss1/classifier_plantvillage_0_split
I0403 14:59:29.747402 11397 net.cpp:425] loss1/classifier_plantvillage_loss1/classifier_plantvillage_0_split <- loss1/classifier_plantvillage
I0403 14:59:29.747421 11397 net.cpp:399] loss1/classifier_plantvillage_loss1/classifier_plantvillage_0_split -> loss1/classifier_plantvillage_loss1/classifier_plantvillage_0_split_0
I0403 14:59:29.747439 11397 net.cpp:399] loss1/classifier_plantvillage_loss1/classifier_plantvillage_0_split -> loss1/classifier_plantvillage_loss1/classifier_plantvillage_0_split_1
I0403 14:59:29.747459 11397 net.cpp:399] loss1/classifier_plantvillage_loss1/classifier_plantvillage_0_split -> loss1/classifier_plantvillage_loss1/classifier_plantvillage_0_split_2
I0403 14:59:29.747539 11397 net.cpp:141] Setting up loss1/classifier_plantvillage_loss1/classifier_plantvillage_0_split
I0403 14:59:29.747565 11397 net.cpp:148] Top shape: 24 38 (912)
I0403 14:59:29.747581 11397 net.cpp:148] Top shape: 24 38 (912)
I0403 14:59:29.747597 11397 net.cpp:148] Top shape: 24 38 (912)
I0403 14:59:29.747612 11397 net.cpp:156] Memory required for data: 946203936
I0403 14:59:29.747627 11397 layer_factory.hpp:77] Creating layer inception_4b/1x1
I0403 14:59:29.747649 11397 net.cpp:91] Creating Layer inception_4b/1x1
I0403 14:59:29.747686 11397 net.cpp:425] inception_4b/1x1 <- inception_4a/output_inception_4a/output_0_split_1
I0403 14:59:29.747710 11397 net.cpp:399] inception_4b/1x1 -> inception_4b/1x1
I0403 14:59:29.749460 11397 net.cpp:141] Setting up inception_4b/1x1
I0403 14:59:29.749506 11397 net.cpp:148] Top shape: 24 160 14 14 (752640)
I0403 14:59:29.749524 11397 net.cpp:156] Memory required for data: 949214496
I0403 14:59:29.749546 11397 layer_factory.hpp:77] Creating layer inception_4b/relu_1x1
I0403 14:59:29.749564 11397 net.cpp:91] Creating Layer inception_4b/relu_1x1
I0403 14:59:29.749593 11397 net.cpp:425] inception_4b/relu_1x1 <- inception_4b/1x1
I0403 14:59:29.749610 11397 net.cpp:386] inception_4b/relu_1x1 -> inception_4b/1x1 (in-place)
I0403 14:59:29.749806 11397 net.cpp:141] Setting up inception_4b/relu_1x1
I0403 14:59:29.749835 11397 net.cpp:148] Top shape: 24 160 14 14 (752640)
I0403 14:59:29.749850 11397 net.cpp:156] Memory required for data: 952225056
I0403 14:59:29.749866 11397 layer_factory.hpp:77] Creating layer inception_4b/3x3_reduce
I0403 14:59:29.749888 11397 net.cpp:91] Creating Layer inception_4b/3x3_reduce
I0403 14:59:29.749907 11397 net.cpp:425] inception_4b/3x3_reduce <- inception_4a/output_inception_4a/output_0_split_2
I0403 14:59:29.749930 11397 net.cpp:399] inception_4b/3x3_reduce -> inception_4b/3x3_reduce
I0403 14:59:29.751337 11397 net.cpp:141] Setting up inception_4b/3x3_reduce
I0403 14:59:29.751368 11397 net.cpp:148] Top shape: 24 112 14 14 (526848)
I0403 14:59:29.751385 11397 net.cpp:156] Memory required for data: 954332448
I0403 14:59:29.751405 11397 layer_factory.hpp:77] Creating layer inception_4b/relu_3x3_reduce
I0403 14:59:29.751422 11397 net.cpp:91] Creating Layer inception_4b/relu_3x3_reduce
I0403 14:59:29.751438 11397 net.cpp:425] inception_4b/relu_3x3_reduce <- inception_4b/3x3_reduce
I0403 14:59:29.751458 11397 net.cpp:386] inception_4b/relu_3x3_reduce -> inception_4b/3x3_reduce (in-place)
I0403 14:59:29.751741 11397 net.cpp:141] Setting up inception_4b/relu_3x3_reduce
I0403 14:59:29.751770 11397 net.cpp:148] Top shape: 24 112 14 14 (526848)
I0403 14:59:29.751785 11397 net.cpp:156] Memory required for data: 956439840
I0403 14:59:29.751801 11397 layer_factory.hpp:77] Creating layer inception_4b/3x3
I0403 14:59:29.751823 11397 net.cpp:91] Creating Layer inception_4b/3x3
I0403 14:59:29.751842 11397 net.cpp:425] inception_4b/3x3 <- inception_4b/3x3_reduce
I0403 14:59:29.751860 11397 net.cpp:399] inception_4b/3x3 -> inception_4b/3x3
I0403 14:59:29.754822 11397 net.cpp:141] Setting up inception_4b/3x3
I0403 14:59:29.754850 11397 net.cpp:148] Top shape: 24 224 14 14 (1053696)
I0403 14:59:29.754865 11397 net.cpp:156] Memory required for data: 960654624
I0403 14:59:29.754884 11397 layer_factory.hpp:77] Creating layer inception_4b/relu_3x3
I0403 14:59:29.754904 11397 net.cpp:91] Creating Layer inception_4b/relu_3x3
I0403 14:59:29.754921 11397 net.cpp:425] inception_4b/relu_3x3 <- inception_4b/3x3
I0403 14:59:29.754938 11397 net.cpp:386] inception_4b/relu_3x3 -> inception_4b/3x3 (in-place)
I0403 14:59:29.755120 11397 net.cpp:141] Setting up inception_4b/relu_3x3
I0403 14:59:29.755146 11397 net.cpp:148] Top shape: 24 224 14 14 (1053696)
I0403 14:59:29.755161 11397 net.cpp:156] Memory required for data: 964869408
I0403 14:59:29.755175 11397 layer_factory.hpp:77] Creating layer inception_4b/5x5_reduce
I0403 14:59:29.755201 11397 net.cpp:91] Creating Layer inception_4b/5x5_reduce
I0403 14:59:29.755221 11397 net.cpp:425] inception_4b/5x5_reduce <- inception_4a/output_inception_4a/output_0_split_3
I0403 14:59:29.755240 11397 net.cpp:399] inception_4b/5x5_reduce -> inception_4b/5x5_reduce
I0403 14:59:29.756314 11397 net.cpp:141] Setting up inception_4b/5x5_reduce
I0403 14:59:29.756345 11397 net.cpp:148] Top shape: 24 24 14 14 (112896)
I0403 14:59:29.756361 11397 net.cpp:156] Memory required for data: 965320992
I0403 14:59:29.756381 11397 layer_factory.hpp:77] Creating layer inception_4b/relu_5x5_reduce
I0403 14:59:29.756412 11397 net.cpp:91] Creating Layer inception_4b/relu_5x5_reduce
I0403 14:59:29.756443 11397 net.cpp:425] inception_4b/relu_5x5_reduce <- inception_4b/5x5_reduce
I0403 14:59:29.756471 11397 net.cpp:386] inception_4b/relu_5x5_reduce -> inception_4b/5x5_reduce (in-place)
I0403 14:59:29.756649 11397 net.cpp:141] Setting up inception_4b/relu_5x5_reduce
I0403 14:59:29.756675 11397 net.cpp:148] Top shape: 24 24 14 14 (112896)
I0403 14:59:29.756690 11397 net.cpp:156] Memory required for data: 965772576
I0403 14:59:29.756705 11397 layer_factory.hpp:77] Creating layer inception_4b/5x5
I0403 14:59:29.756726 11397 net.cpp:91] Creating Layer inception_4b/5x5
I0403 14:59:29.756743 11397 net.cpp:425] inception_4b/5x5 <- inception_4b/5x5_reduce
I0403 14:59:29.756763 11397 net.cpp:399] inception_4b/5x5 -> inception_4b/5x5
I0403 14:59:29.757977 11397 net.cpp:141] Setting up inception_4b/5x5
I0403 14:59:29.758008 11397 net.cpp:148] Top shape: 24 64 14 14 (301056)
I0403 14:59:29.758023 11397 net.cpp:156] Memory required for data: 966976800
I0403 14:59:29.758043 11397 layer_factory.hpp:77] Creating layer inception_4b/relu_5x5
I0403 14:59:29.758061 11397 net.cpp:91] Creating Layer inception_4b/relu_5x5
I0403 14:59:29.758079 11397 net.cpp:425] inception_4b/relu_5x5 <- inception_4b/5x5
I0403 14:59:29.758100 11397 net.cpp:386] inception_4b/relu_5x5 -> inception_4b/5x5 (in-place)
I0403 14:59:29.758397 11397 net.cpp:141] Setting up inception_4b/relu_5x5
I0403 14:59:29.758426 11397 net.cpp:148] Top shape: 24 64 14 14 (301056)
I0403 14:59:29.758441 11397 net.cpp:156] Memory required for data: 968181024
I0403 14:59:29.758456 11397 layer_factory.hpp:77] Creating layer inception_4b/pool
I0403 14:59:29.758476 11397 net.cpp:91] Creating Layer inception_4b/pool
I0403 14:59:29.758491 11397 net.cpp:425] inception_4b/pool <- inception_4a/output_inception_4a/output_0_split_4
I0403 14:59:29.758508 11397 net.cpp:399] inception_4b/pool -> inception_4b/pool
I0403 14:59:29.758574 11397 net.cpp:141] Setting up inception_4b/pool
I0403 14:59:29.758597 11397 net.cpp:148] Top shape: 24 512 14 14 (2408448)
I0403 14:59:29.758611 11397 net.cpp:156] Memory required for data: 977814816
I0403 14:59:29.758627 11397 layer_factory.hpp:77] Creating layer inception_4b/pool_proj
I0403 14:59:29.758659 11397 net.cpp:91] Creating Layer inception_4b/pool_proj
I0403 14:59:29.758677 11397 net.cpp:425] inception_4b/pool_proj <- inception_4b/pool
I0403 14:59:29.758700 11397 net.cpp:399] inception_4b/pool_proj -> inception_4b/pool_proj
I0403 14:59:29.759891 11397 net.cpp:141] Setting up inception_4b/pool_proj
I0403 14:59:29.759922 11397 net.cpp:148] Top shape: 24 64 14 14 (301056)
I0403 14:59:29.759939 11397 net.cpp:156] Memory required for data: 979019040
I0403 14:59:29.759970 11397 layer_factory.hpp:77] Creating layer inception_4b/relu_pool_proj
I0403 14:59:29.759989 11397 net.cpp:91] Creating Layer inception_4b/relu_pool_proj
I0403 14:59:29.760004 11397 net.cpp:425] inception_4b/relu_pool_proj <- inception_4b/pool_proj
I0403 14:59:29.760020 11397 net.cpp:386] inception_4b/relu_pool_proj -> inception_4b/pool_proj (in-place)
I0403 14:59:29.760202 11397 net.cpp:141] Setting up inception_4b/relu_pool_proj
I0403 14:59:29.760227 11397 net.cpp:148] Top shape: 24 64 14 14 (301056)
I0403 14:59:29.760243 11397 net.cpp:156] Memory required for data: 980223264
I0403 14:59:29.760257 11397 layer_factory.hpp:77] Creating layer inception_4b/output
I0403 14:59:29.760275 11397 net.cpp:91] Creating Layer inception_4b/output
I0403 14:59:29.760291 11397 net.cpp:425] inception_4b/output <- inception_4b/1x1
I0403 14:59:29.760308 11397 net.cpp:425] inception_4b/output <- inception_4b/3x3
I0403 14:59:29.760324 11397 net.cpp:425] inception_4b/output <- inception_4b/5x5
I0403 14:59:29.760340 11397 net.cpp:425] inception_4b/output <- inception_4b/pool_proj
I0403 14:59:29.760361 11397 net.cpp:399] inception_4b/output -> inception_4b/output
I0403 14:59:29.760406 11397 net.cpp:141] Setting up inception_4b/output
I0403 14:59:29.760432 11397 net.cpp:148] Top shape: 24 512 14 14 (2408448)
I0403 14:59:29.760447 11397 net.cpp:156] Memory required for data: 989857056
I0403 14:59:29.760476 11397 layer_factory.hpp:77] Creating layer inception_4b/output_inception_4b/output_0_split
I0403 14:59:29.760495 11397 net.cpp:91] Creating Layer inception_4b/output_inception_4b/output_0_split
I0403 14:59:29.760511 11397 net.cpp:425] inception_4b/output_inception_4b/output_0_split <- inception_4b/output
I0403 14:59:29.760531 11397 net.cpp:399] inception_4b/output_inception_4b/output_0_split -> inception_4b/output_inception_4b/output_0_split_0
I0403 14:59:29.760553 11397 net.cpp:399] inception_4b/output_inception_4b/output_0_split -> inception_4b/output_inception_4b/output_0_split_1
I0403 14:59:29.760574 11397 net.cpp:399] inception_4b/output_inception_4b/output_0_split -> inception_4b/output_inception_4b/output_0_split_2
I0403 14:59:29.760594 11397 net.cpp:399] inception_4b/output_inception_4b/output_0_split -> inception_4b/output_inception_4b/output_0_split_3
I0403 14:59:29.760675 11397 net.cpp:141] Setting up inception_4b/output_inception_4b/output_0_split
I0403 14:59:29.760699 11397 net.cpp:148] Top shape: 24 512 14 14 (2408448)
I0403 14:59:29.760716 11397 net.cpp:148] Top shape: 24 512 14 14 (2408448)
I0403 14:59:29.760731 11397 net.cpp:148] Top shape: 24 512 14 14 (2408448)
I0403 14:59:29.760746 11397 net.cpp:148] Top shape: 24 512 14 14 (2408448)
I0403 14:59:29.760759 11397 net.cpp:156] Memory required for data: 1028392224
I0403 14:59:29.760774 11397 layer_factory.hpp:77] Creating layer inception_4c/1x1
I0403 14:59:29.760797 11397 net.cpp:91] Creating Layer inception_4c/1x1
I0403 14:59:29.760814 11397 net.cpp:425] inception_4c/1x1 <- inception_4b/output_inception_4b/output_0_split_0
I0403 14:59:29.760834 11397 net.cpp:399] inception_4c/1x1 -> inception_4c/1x1
I0403 14:59:29.762271 11397 net.cpp:141] Setting up inception_4c/1x1
I0403 14:59:29.762301 11397 net.cpp:148] Top shape: 24 128 14 14 (602112)
I0403 14:59:29.762316 11397 net.cpp:156] Memory required for data: 1030800672
I0403 14:59:29.762336 11397 layer_factory.hpp:77] Creating layer inception_4c/relu_1x1
I0403 14:59:29.762357 11397 net.cpp:91] Creating Layer inception_4c/relu_1x1
I0403 14:59:29.762377 11397 net.cpp:425] inception_4c/relu_1x1 <- inception_4c/1x1
I0403 14:59:29.762394 11397 net.cpp:386] inception_4c/relu_1x1 -> inception_4c/1x1 (in-place)
I0403 14:59:29.762579 11397 net.cpp:141] Setting up inception_4c/relu_1x1
I0403 14:59:29.762604 11397 net.cpp:148] Top shape: 24 128 14 14 (602112)
I0403 14:59:29.762619 11397 net.cpp:156] Memory required for data: 1033209120
I0403 14:59:29.762635 11397 layer_factory.hpp:77] Creating layer inception_4c/3x3_reduce
I0403 14:59:29.762658 11397 net.cpp:91] Creating Layer inception_4c/3x3_reduce
I0403 14:59:29.762678 11397 net.cpp:425] inception_4c/3x3_reduce <- inception_4b/output_inception_4b/output_0_split_1
I0403 14:59:29.762697 11397 net.cpp:399] inception_4c/3x3_reduce -> inception_4c/3x3_reduce
I0403 14:59:29.764629 11397 net.cpp:141] Setting up inception_4c/3x3_reduce
I0403 14:59:29.764659 11397 net.cpp:148] Top shape: 24 128 14 14 (602112)
I0403 14:59:29.764675 11397 net.cpp:156] Memory required for data: 1035617568
I0403 14:59:29.764694 11397 layer_factory.hpp:77] Creating layer inception_4c/relu_3x3_reduce
I0403 14:59:29.764715 11397 net.cpp:91] Creating Layer inception_4c/relu_3x3_reduce
I0403 14:59:29.764734 11397 net.cpp:425] inception_4c/relu_3x3_reduce <- inception_4c/3x3_reduce
I0403 14:59:29.764752 11397 net.cpp:386] inception_4c/relu_3x3_reduce -> inception_4c/3x3_reduce (in-place)
I0403 14:59:29.765046 11397 net.cpp:141] Setting up inception_4c/relu_3x3_reduce
I0403 14:59:29.765072 11397 net.cpp:148] Top shape: 24 128 14 14 (602112)
I0403 14:59:29.765087 11397 net.cpp:156] Memory required for data: 1038026016
I0403 14:59:29.765107 11397 layer_factory.hpp:77] Creating layer inception_4c/3x3
I0403 14:59:29.765136 11397 net.cpp:91] Creating Layer inception_4c/3x3
I0403 14:59:29.765154 11397 net.cpp:425] inception_4c/3x3 <- inception_4c/3x3_reduce
I0403 14:59:29.765174 11397 net.cpp:399] inception_4c/3x3 -> inception_4c/3x3
I0403 14:59:29.768762 11397 net.cpp:141] Setting up inception_4c/3x3
I0403 14:59:29.768807 11397 net.cpp:148] Top shape: 24 256 14 14 (1204224)
I0403 14:59:29.768824 11397 net.cpp:156] Memory required for data: 1042842912
I0403 14:59:29.768857 11397 layer_factory.hpp:77] Creating layer inception_4c/relu_3x3
I0403 14:59:29.768877 11397 net.cpp:91] Creating Layer inception_4c/relu_3x3
I0403 14:59:29.768894 11397 net.cpp:425] inception_4c/relu_3x3 <- inception_4c/3x3
I0403 14:59:29.768911 11397 net.cpp:386] inception_4c/relu_3x3 -> inception_4c/3x3 (in-place)
I0403 14:59:29.769091 11397 net.cpp:141] Setting up inception_4c/relu_3x3
I0403 14:59:29.769124 11397 net.cpp:148] Top shape: 24 256 14 14 (1204224)
I0403 14:59:29.769140 11397 net.cpp:156] Memory required for data: 1047659808
I0403 14:59:29.769153 11397 layer_factory.hpp:77] Creating layer inception_4c/5x5_reduce
I0403 14:59:29.769177 11397 net.cpp:91] Creating Layer inception_4c/5x5_reduce
I0403 14:59:29.769196 11397 net.cpp:425] inception_4c/5x5_reduce <- inception_4b/output_inception_4b/output_0_split_2
I0403 14:59:29.769215 11397 net.cpp:399] inception_4c/5x5_reduce -> inception_4c/5x5_reduce
I0403 14:59:29.770308 11397 net.cpp:141] Setting up inception_4c/5x5_reduce
I0403 14:59:29.770337 11397 net.cpp:148] Top shape: 24 24 14 14 (112896)
I0403 14:59:29.770356 11397 net.cpp:156] Memory required for data: 1048111392
I0403 14:59:29.770375 11397 layer_factory.hpp:77] Creating layer inception_4c/relu_5x5_reduce
I0403 14:59:29.770393 11397 net.cpp:91] Creating Layer inception_4c/relu_5x5_reduce
I0403 14:59:29.770409 11397 net.cpp:425] inception_4c/relu_5x5_reduce <- inception_4c/5x5_reduce
I0403 14:59:29.770429 11397 net.cpp:386] inception_4c/relu_5x5_reduce -> inception_4c/5x5_reduce (in-place)
I0403 14:59:29.770611 11397 net.cpp:141] Setting up inception_4c/relu_5x5_reduce
I0403 14:59:29.770635 11397 net.cpp:148] Top shape: 24 24 14 14 (112896)
I0403 14:59:29.770651 11397 net.cpp:156] Memory required for data: 1048562976
I0403 14:59:29.770666 11397 layer_factory.hpp:77] Creating layer inception_4c/5x5
I0403 14:59:29.770689 11397 net.cpp:91] Creating Layer inception_4c/5x5
I0403 14:59:29.770706 11397 net.cpp:425] inception_4c/5x5 <- inception_4c/5x5_reduce
I0403 14:59:29.770728 11397 net.cpp:399] inception_4c/5x5 -> inception_4c/5x5
I0403 14:59:29.771976 11397 net.cpp:141] Setting up inception_4c/5x5
I0403 14:59:29.772006 11397 net.cpp:148] Top shape: 24 64 14 14 (301056)
I0403 14:59:29.772022 11397 net.cpp:156] Memory required for data: 1049767200
I0403 14:59:29.772039 11397 layer_factory.hpp:77] Creating layer inception_4c/relu_5x5
I0403 14:59:29.772058 11397 net.cpp:91] Creating Layer inception_4c/relu_5x5
I0403 14:59:29.772078 11397 net.cpp:425] inception_4c/relu_5x5 <- inception_4c/5x5
I0403 14:59:29.772100 11397 net.cpp:386] inception_4c/relu_5x5 -> inception_4c/5x5 (in-place)
I0403 14:59:29.772388 11397 net.cpp:141] Setting up inception_4c/relu_5x5
I0403 14:59:29.772415 11397 net.cpp:148] Top shape: 24 64 14 14 (301056)
I0403 14:59:29.772431 11397 net.cpp:156] Memory required for data: 1050971424
I0403 14:59:29.772446 11397 layer_factory.hpp:77] Creating layer inception_4c/pool
I0403 14:59:29.772465 11397 net.cpp:91] Creating Layer inception_4c/pool
I0403 14:59:29.772481 11397 net.cpp:425] inception_4c/pool <- inception_4b/output_inception_4b/output_0_split_3
I0403 14:59:29.772502 11397 net.cpp:399] inception_4c/pool -> inception_4c/pool
I0403 14:59:29.772568 11397 net.cpp:141] Setting up inception_4c/pool
I0403 14:59:29.772595 11397 net.cpp:148] Top shape: 24 512 14 14 (2408448)
I0403 14:59:29.772611 11397 net.cpp:156] Memory required for data: 1060605216
I0403 14:59:29.772626 11397 layer_factory.hpp:77] Creating layer inception_4c/pool_proj
I0403 14:59:29.772650 11397 net.cpp:91] Creating Layer inception_4c/pool_proj
I0403 14:59:29.772668 11397 net.cpp:425] inception_4c/pool_proj <- inception_4c/pool
I0403 14:59:29.772688 11397 net.cpp:399] inception_4c/pool_proj -> inception_4c/pool_proj
I0403 14:59:29.773916 11397 net.cpp:141] Setting up inception_4c/pool_proj
I0403 14:59:29.773949 11397 net.cpp:148] Top shape: 24 64 14 14 (301056)
I0403 14:59:29.773980 11397 net.cpp:156] Memory required for data: 1061809440
I0403 14:59:29.774000 11397 layer_factory.hpp:77] Creating layer inception_4c/relu_pool_proj
I0403 14:59:29.774019 11397 net.cpp:91] Creating Layer inception_4c/relu_pool_proj
I0403 14:59:29.774039 11397 net.cpp:425] inception_4c/relu_pool_proj <- inception_4c/pool_proj
I0403 14:59:29.774057 11397 net.cpp:386] inception_4c/relu_pool_proj -> inception_4c/pool_proj (in-place)
I0403 14:59:29.774250 11397 net.cpp:141] Setting up inception_4c/relu_pool_proj
I0403 14:59:29.774276 11397 net.cpp:148] Top shape: 24 64 14 14 (301056)
I0403 14:59:29.774291 11397 net.cpp:156] Memory required for data: 1063013664
I0403 14:59:29.774307 11397 layer_factory.hpp:77] Creating layer inception_4c/output
I0403 14:59:29.774323 11397 net.cpp:91] Creating Layer inception_4c/output
I0403 14:59:29.774340 11397 net.cpp:425] inception_4c/output <- inception_4c/1x1
I0403 14:59:29.774358 11397 net.cpp:425] inception_4c/output <- inception_4c/3x3
I0403 14:59:29.774374 11397 net.cpp:425] inception_4c/output <- inception_4c/5x5
I0403 14:59:29.774390 11397 net.cpp:425] inception_4c/output <- inception_4c/pool_proj
I0403 14:59:29.774410 11397 net.cpp:399] inception_4c/output -> inception_4c/output
I0403 14:59:29.774457 11397 net.cpp:141] Setting up inception_4c/output
I0403 14:59:29.774484 11397 net.cpp:148] Top shape: 24 512 14 14 (2408448)
I0403 14:59:29.774500 11397 net.cpp:156] Memory required for data: 1072647456
I0403 14:59:29.774516 11397 layer_factory.hpp:77] Creating layer inception_4c/output_inception_4c/output_0_split
I0403 14:59:29.774544 11397 net.cpp:91] Creating Layer inception_4c/output_inception_4c/output_0_split
I0403 14:59:29.774560 11397 net.cpp:425] inception_4c/output_inception_4c/output_0_split <- inception_4c/output
I0403 14:59:29.774577 11397 net.cpp:399] inception_4c/output_inception_4c/output_0_split -> inception_4c/output_inception_4c/output_0_split_0
I0403 14:59:29.774601 11397 net.cpp:399] inception_4c/output_inception_4c/output_0_split -> inception_4c/output_inception_4c/output_0_split_1
I0403 14:59:29.774622 11397 net.cpp:399] inception_4c/output_inception_4c/output_0_split -> inception_4c/output_inception_4c/output_0_split_2
I0403 14:59:29.774643 11397 net.cpp:399] inception_4c/output_inception_4c/output_0_split -> inception_4c/output_inception_4c/output_0_split_3
I0403 14:59:29.774727 11397 net.cpp:141] Setting up inception_4c/output_inception_4c/output_0_split
I0403 14:59:29.774750 11397 net.cpp:148] Top shape: 24 512 14 14 (2408448)
I0403 14:59:29.774767 11397 net.cpp:148] Top shape: 24 512 14 14 (2408448)
I0403 14:59:29.774783 11397 net.cpp:148] Top shape: 24 512 14 14 (2408448)
I0403 14:59:29.774798 11397 net.cpp:148] Top shape: 24 512 14 14 (2408448)
I0403 14:59:29.774812 11397 net.cpp:156] Memory required for data: 1111182624
I0403 14:59:29.774827 11397 layer_factory.hpp:77] Creating layer inception_4d/1x1
I0403 14:59:29.774849 11397 net.cpp:91] Creating Layer inception_4d/1x1
I0403 14:59:29.774866 11397 net.cpp:425] inception_4d/1x1 <- inception_4c/output_inception_4c/output_0_split_0
I0403 14:59:29.774888 11397 net.cpp:399] inception_4d/1x1 -> inception_4d/1x1
I0403 14:59:29.776291 11397 net.cpp:141] Setting up inception_4d/1x1
I0403 14:59:29.776321 11397 net.cpp:148] Top shape: 24 112 14 14 (526848)
I0403 14:59:29.776337 11397 net.cpp:156] Memory required for data: 1113290016
I0403 14:59:29.776358 11397 layer_factory.hpp:77] Creating layer inception_4d/relu_1x1
I0403 14:59:29.776378 11397 net.cpp:91] Creating Layer inception_4d/relu_1x1
I0403 14:59:29.776396 11397 net.cpp:425] inception_4d/relu_1x1 <- inception_4d/1x1
I0403 14:59:29.776414 11397 net.cpp:386] inception_4d/relu_1x1 -> inception_4d/1x1 (in-place)
I0403 14:59:29.776600 11397 net.cpp:141] Setting up inception_4d/relu_1x1
I0403 14:59:29.776629 11397 net.cpp:148] Top shape: 24 112 14 14 (526848)
I0403 14:59:29.776645 11397 net.cpp:156] Memory required for data: 1115397408
I0403 14:59:29.776661 11397 layer_factory.hpp:77] Creating layer inception_4d/3x3_reduce
I0403 14:59:29.776700 11397 net.cpp:91] Creating Layer inception_4d/3x3_reduce
I0403 14:59:29.776718 11397 net.cpp:425] inception_4d/3x3_reduce <- inception_4c/output_inception_4c/output_0_split_1
I0403 14:59:29.776739 11397 net.cpp:399] inception_4d/3x3_reduce -> inception_4d/3x3_reduce
I0403 14:59:29.778264 11397 net.cpp:141] Setting up inception_4d/3x3_reduce
I0403 14:59:29.778292 11397 net.cpp:148] Top shape: 24 144 14 14 (677376)
I0403 14:59:29.778307 11397 net.cpp:156] Memory required for data: 1118106912
I0403 14:59:29.778326 11397 layer_factory.hpp:77] Creating layer inception_4d/relu_3x3_reduce
I0403 14:59:29.778343 11397 net.cpp:91] Creating Layer inception_4d/relu_3x3_reduce
I0403 14:59:29.778360 11397 net.cpp:425] inception_4d/relu_3x3_reduce <- inception_4d/3x3_reduce
I0403 14:59:29.778380 11397 net.cpp:386] inception_4d/relu_3x3_reduce -> inception_4d/3x3_reduce (in-place)
I0403 14:59:29.778676 11397 net.cpp:141] Setting up inception_4d/relu_3x3_reduce
I0403 14:59:29.778702 11397 net.cpp:148] Top shape: 24 144 14 14 (677376)
I0403 14:59:29.778718 11397 net.cpp:156] Memory required for data: 1120816416
I0403 14:59:29.778733 11397 layer_factory.hpp:77] Creating layer inception_4d/3x3
I0403 14:59:29.778754 11397 net.cpp:91] Creating Layer inception_4d/3x3
I0403 14:59:29.778774 11397 net.cpp:425] inception_4d/3x3 <- inception_4d/3x3_reduce
I0403 14:59:29.778795 11397 net.cpp:399] inception_4d/3x3 -> inception_4d/3x3
I0403 14:59:29.783243 11397 net.cpp:141] Setting up inception_4d/3x3
I0403 14:59:29.783275 11397 net.cpp:148] Top shape: 24 288 14 14 (1354752)
I0403 14:59:29.783293 11397 net.cpp:156] Memory required for data: 1126235424
I0403 14:59:29.783313 11397 layer_factory.hpp:77] Creating layer inception_4d/relu_3x3
I0403 14:59:29.783334 11397 net.cpp:91] Creating Layer inception_4d/relu_3x3
I0403 14:59:29.783354 11397 net.cpp:425] inception_4d/relu_3x3 <- inception_4d/3x3
I0403 14:59:29.783372 11397 net.cpp:386] inception_4d/relu_3x3 -> inception_4d/3x3 (in-place)
I0403 14:59:29.783565 11397 net.cpp:141] Setting up inception_4d/relu_3x3
I0403 14:59:29.783593 11397 net.cpp:148] Top shape: 24 288 14 14 (1354752)
I0403 14:59:29.783610 11397 net.cpp:156] Memory required for data: 1131654432
I0403 14:59:29.783625 11397 layer_factory.hpp:77] Creating layer inception_4d/5x5_reduce
I0403 14:59:29.783648 11397 net.cpp:91] Creating Layer inception_4d/5x5_reduce
I0403 14:59:29.783668 11397 net.cpp:425] inception_4d/5x5_reduce <- inception_4c/output_inception_4c/output_0_split_2
I0403 14:59:29.783689 11397 net.cpp:399] inception_4d/5x5_reduce -> inception_4d/5x5_reduce
I0403 14:59:29.784950 11397 net.cpp:141] Setting up inception_4d/5x5_reduce
I0403 14:59:29.784986 11397 net.cpp:148] Top shape: 24 32 14 14 (150528)
I0403 14:59:29.785003 11397 net.cpp:156] Memory required for data: 1132256544
I0403 14:59:29.785023 11397 layer_factory.hpp:77] Creating layer inception_4d/relu_5x5_reduce
I0403 14:59:29.785046 11397 net.cpp:91] Creating Layer inception_4d/relu_5x5_reduce
I0403 14:59:29.785064 11397 net.cpp:425] inception_4d/relu_5x5_reduce <- inception_4d/5x5_reduce
I0403 14:59:29.785084 11397 net.cpp:386] inception_4d/relu_5x5_reduce -> inception_4d/5x5_reduce (in-place)
I0403 14:59:29.785292 11397 net.cpp:141] Setting up inception_4d/relu_5x5_reduce
I0403 14:59:29.785322 11397 net.cpp:148] Top shape: 24 32 14 14 (150528)
I0403 14:59:29.785339 11397 net.cpp:156] Memory required for data: 1132858656
I0403 14:59:29.785356 11397 layer_factory.hpp:77] Creating layer inception_4d/5x5
I0403 14:59:29.785380 11397 net.cpp:91] Creating Layer inception_4d/5x5
I0403 14:59:29.785411 11397 net.cpp:425] inception_4d/5x5 <- inception_4d/5x5_reduce
I0403 14:59:29.785431 11397 net.cpp:399] inception_4d/5x5 -> inception_4d/5x5
I0403 14:59:29.786963 11397 net.cpp:141] Setting up inception_4d/5x5
I0403 14:59:29.786995 11397 net.cpp:148] Top shape: 24 64 14 14 (301056)
I0403 14:59:29.787014 11397 net.cpp:156] Memory required for data: 1134062880
I0403 14:59:29.787034 11397 layer_factory.hpp:77] Creating layer inception_4d/relu_5x5
I0403 14:59:29.787070 11397 net.cpp:91] Creating Layer inception_4d/relu_5x5
I0403 14:59:29.787088 11397 net.cpp:425] inception_4d/relu_5x5 <- inception_4d/5x5
I0403 14:59:29.787117 11397 net.cpp:386] inception_4d/relu_5x5 -> inception_4d/5x5 (in-place)
I0403 14:59:29.787431 11397 net.cpp:141] Setting up inception_4d/relu_5x5
I0403 14:59:29.787461 11397 net.cpp:148] Top shape: 24 64 14 14 (301056)
I0403 14:59:29.787477 11397 net.cpp:156] Memory required for data: 1135267104
I0403 14:59:29.787492 11397 layer_factory.hpp:77] Creating layer inception_4d/pool
I0403 14:59:29.787511 11397 net.cpp:91] Creating Layer inception_4d/pool
I0403 14:59:29.787528 11397 net.cpp:425] inception_4d/pool <- inception_4c/output_inception_4c/output_0_split_3
I0403 14:59:29.787550 11397 net.cpp:399] inception_4d/pool -> inception_4d/pool
I0403 14:59:29.787621 11397 net.cpp:141] Setting up inception_4d/pool
I0403 14:59:29.787648 11397 net.cpp:148] Top shape: 24 512 14 14 (2408448)
I0403 14:59:29.787667 11397 net.cpp:156] Memory required for data: 1144900896
I0403 14:59:29.787681 11397 layer_factory.hpp:77] Creating layer inception_4d/pool_proj
I0403 14:59:29.787703 11397 net.cpp:91] Creating Layer inception_4d/pool_proj
I0403 14:59:29.787720 11397 net.cpp:425] inception_4d/pool_proj <- inception_4d/pool
I0403 14:59:29.787744 11397 net.cpp:399] inception_4d/pool_proj -> inception_4d/pool_proj
I0403 14:59:29.789561 11397 net.cpp:141] Setting up inception_4d/pool_proj
I0403 14:59:29.789592 11397 net.cpp:148] Top shape: 24 64 14 14 (301056)
I0403 14:59:29.789608 11397 net.cpp:156] Memory required for data: 1146105120
I0403 14:59:29.789628 11397 layer_factory.hpp:77] Creating layer inception_4d/relu_pool_proj
I0403 14:59:29.789649 11397 net.cpp:91] Creating Layer inception_4d/relu_pool_proj
I0403 14:59:29.789667 11397 net.cpp:425] inception_4d/relu_pool_proj <- inception_4d/pool_proj
I0403 14:59:29.789687 11397 net.cpp:386] inception_4d/relu_pool_proj -> inception_4d/pool_proj (in-place)
I0403 14:59:29.789882 11397 net.cpp:141] Setting up inception_4d/relu_pool_proj
I0403 14:59:29.789913 11397 net.cpp:148] Top shape: 24 64 14 14 (301056)
I0403 14:59:29.789929 11397 net.cpp:156] Memory required for data: 1147309344
I0403 14:59:29.789945 11397 layer_factory.hpp:77] Creating layer inception_4d/output
I0403 14:59:29.789963 11397 net.cpp:91] Creating Layer inception_4d/output
I0403 14:59:29.789980 11397 net.cpp:425] inception_4d/output <- inception_4d/1x1
I0403 14:59:29.789999 11397 net.cpp:425] inception_4d/output <- inception_4d/3x3
I0403 14:59:29.790016 11397 net.cpp:425] inception_4d/output <- inception_4d/5x5
I0403 14:59:29.790032 11397 net.cpp:425] inception_4d/output <- inception_4d/pool_proj
I0403 14:59:29.790050 11397 net.cpp:399] inception_4d/output -> inception_4d/output
I0403 14:59:29.790105 11397 net.cpp:141] Setting up inception_4d/output
I0403 14:59:29.790132 11397 net.cpp:148] Top shape: 24 528 14 14 (2483712)
I0403 14:59:29.790146 11397 net.cpp:156] Memory required for data: 1157244192
I0403 14:59:29.790163 11397 layer_factory.hpp:77] Creating layer inception_4d/output_inception_4d/output_0_split
I0403 14:59:29.790184 11397 net.cpp:91] Creating Layer inception_4d/output_inception_4d/output_0_split
I0403 14:59:29.790201 11397 net.cpp:425] inception_4d/output_inception_4d/output_0_split <- inception_4d/output
I0403 14:59:29.790220 11397 net.cpp:399] inception_4d/output_inception_4d/output_0_split -> inception_4d/output_inception_4d/output_0_split_0
I0403 14:59:29.790242 11397 net.cpp:399] inception_4d/output_inception_4d/output_0_split -> inception_4d/output_inception_4d/output_0_split_1
I0403 14:59:29.790266 11397 net.cpp:399] inception_4d/output_inception_4d/output_0_split -> inception_4d/output_inception_4d/output_0_split_2
I0403 14:59:29.790289 11397 net.cpp:399] inception_4d/output_inception_4d/output_0_split -> inception_4d/output_inception_4d/output_0_split_3
I0403 14:59:29.790312 11397 net.cpp:399] inception_4d/output_inception_4d/output_0_split -> inception_4d/output_inception_4d/output_0_split_4
I0403 14:59:29.790417 11397 net.cpp:141] Setting up inception_4d/output_inception_4d/output_0_split
I0403 14:59:29.790457 11397 net.cpp:148] Top shape: 24 528 14 14 (2483712)
I0403 14:59:29.790474 11397 net.cpp:148] Top shape: 24 528 14 14 (2483712)
I0403 14:59:29.790491 11397 net.cpp:148] Top shape: 24 528 14 14 (2483712)
I0403 14:59:29.790508 11397 net.cpp:148] Top shape: 24 528 14 14 (2483712)
I0403 14:59:29.790524 11397 net.cpp:148] Top shape: 24 528 14 14 (2483712)
I0403 14:59:29.790539 11397 net.cpp:156] Memory required for data: 1206918432
I0403 14:59:29.790555 11397 layer_factory.hpp:77] Creating layer loss2/ave_pool
I0403 14:59:29.790575 11397 net.cpp:91] Creating Layer loss2/ave_pool
I0403 14:59:29.790594 11397 net.cpp:425] loss2/ave_pool <- inception_4d/output_inception_4d/output_0_split_0
I0403 14:59:29.790614 11397 net.cpp:399] loss2/ave_pool -> loss2/ave_pool
I0403 14:59:29.790942 11397 net.cpp:141] Setting up loss2/ave_pool
I0403 14:59:29.790971 11397 net.cpp:148] Top shape: 24 528 4 4 (202752)
I0403 14:59:29.790987 11397 net.cpp:156] Memory required for data: 1207729440
I0403 14:59:29.791002 11397 layer_factory.hpp:77] Creating layer loss2/conv
I0403 14:59:29.791025 11397 net.cpp:91] Creating Layer loss2/conv
I0403 14:59:29.791045 11397 net.cpp:425] loss2/conv <- loss2/ave_pool
I0403 14:59:29.791066 11397 net.cpp:399] loss2/conv -> loss2/conv
I0403 14:59:29.793018 11397 net.cpp:141] Setting up loss2/conv
I0403 14:59:29.793050 11397 net.cpp:148] Top shape: 24 128 4 4 (49152)
I0403 14:59:29.793066 11397 net.cpp:156] Memory required for data: 1207926048
I0403 14:59:29.793108 11397 layer_factory.hpp:77] Creating layer loss2/relu_conv
I0403 14:59:29.793133 11397 net.cpp:91] Creating Layer loss2/relu_conv
I0403 14:59:29.793150 11397 net.cpp:425] loss2/relu_conv <- loss2/conv
I0403 14:59:29.793172 11397 net.cpp:386] loss2/relu_conv -> loss2/conv (in-place)
I0403 14:59:29.793514 11397 net.cpp:141] Setting up loss2/relu_conv
I0403 14:59:29.793542 11397 net.cpp:148] Top shape: 24 128 4 4 (49152)
I0403 14:59:29.793558 11397 net.cpp:156] Memory required for data: 1208122656
I0403 14:59:29.793575 11397 layer_factory.hpp:77] Creating layer loss2/fc
I0403 14:59:29.793594 11397 net.cpp:91] Creating Layer loss2/fc
I0403 14:59:29.793612 11397 net.cpp:425] loss2/fc <- loss2/conv
I0403 14:59:29.793633 11397 net.cpp:399] loss2/fc -> loss2/fc
I0403 14:59:29.814364 11397 net.cpp:141] Setting up loss2/fc
I0403 14:59:29.814426 11397 net.cpp:148] Top shape: 24 1024 (24576)
I0403 14:59:29.814445 11397 net.cpp:156] Memory required for data: 1208220960
I0403 14:59:29.814466 11397 layer_factory.hpp:77] Creating layer loss2/relu_fc
I0403 14:59:29.814487 11397 net.cpp:91] Creating Layer loss2/relu_fc
I0403 14:59:29.814507 11397 net.cpp:425] loss2/relu_fc <- loss2/fc
I0403 14:59:29.814527 11397 net.cpp:386] loss2/relu_fc -> loss2/fc (in-place)
I0403 14:59:29.814879 11397 net.cpp:141] Setting up loss2/relu_fc
I0403 14:59:29.814910 11397 net.cpp:148] Top shape: 24 1024 (24576)
I0403 14:59:29.814927 11397 net.cpp:156] Memory required for data: 1208319264
I0403 14:59:29.814942 11397 layer_factory.hpp:77] Creating layer loss2/drop_fc
I0403 14:59:29.814961 11397 net.cpp:91] Creating Layer loss2/drop_fc
I0403 14:59:29.814980 11397 net.cpp:425] loss2/drop_fc <- loss2/fc
I0403 14:59:29.814998 11397 net.cpp:386] loss2/drop_fc -> loss2/fc (in-place)
I0403 14:59:29.815052 11397 net.cpp:141] Setting up loss2/drop_fc
I0403 14:59:29.815078 11397 net.cpp:148] Top shape: 24 1024 (24576)
I0403 14:59:29.815093 11397 net.cpp:156] Memory required for data: 1208417568
I0403 14:59:29.815112 11397 layer_factory.hpp:77] Creating layer loss2/classifier_plantvillage
I0403 14:59:29.815135 11397 net.cpp:91] Creating Layer loss2/classifier_plantvillage
I0403 14:59:29.815155 11397 net.cpp:425] loss2/classifier_plantvillage <- loss2/fc
I0403 14:59:29.815174 11397 net.cpp:399] loss2/classifier_plantvillage -> loss2/classifier_plantvillage
I0403 14:59:29.815604 11397 net.cpp:141] Setting up loss2/classifier_plantvillage
I0403 14:59:29.815631 11397 net.cpp:148] Top shape: 24 38 (912)
I0403 14:59:29.815670 11397 net.cpp:156] Memory required for data: 1208421216
I0403 14:59:29.815691 11397 layer_factory.hpp:77] Creating layer loss2/classifier_plantvillage_loss2/classifier_plantvillage_0_split
I0403 14:59:29.815711 11397 net.cpp:91] Creating Layer loss2/classifier_plantvillage_loss2/classifier_plantvillage_0_split
I0403 14:59:29.815728 11397 net.cpp:425] loss2/classifier_plantvillage_loss2/classifier_plantvillage_0_split <- loss2/classifier_plantvillage
I0403 14:59:29.815749 11397 net.cpp:399] loss2/classifier_plantvillage_loss2/classifier_plantvillage_0_split -> loss2/classifier_plantvillage_loss2/classifier_plantvillage_0_split_0
I0403 14:59:29.815771 11397 net.cpp:399] loss2/classifier_plantvillage_loss2/classifier_plantvillage_0_split -> loss2/classifier_plantvillage_loss2/classifier_plantvillage_0_split_1
I0403 14:59:29.815794 11397 net.cpp:399] loss2/classifier_plantvillage_loss2/classifier_plantvillage_0_split -> loss2/classifier_plantvillage_loss2/classifier_plantvillage_0_split_2
I0403 14:59:29.815876 11397 net.cpp:141] Setting up loss2/classifier_plantvillage_loss2/classifier_plantvillage_0_split
I0403 14:59:29.815903 11397 net.cpp:148] Top shape: 24 38 (912)
I0403 14:59:29.815922 11397 net.cpp:148] Top shape: 24 38 (912)
I0403 14:59:29.815938 11397 net.cpp:148] Top shape: 24 38 (912)
I0403 14:59:29.815953 11397 net.cpp:156] Memory required for data: 1208432160
I0403 14:59:29.815968 11397 layer_factory.hpp:77] Creating layer inception_4e/1x1
I0403 14:59:29.815992 11397 net.cpp:91] Creating Layer inception_4e/1x1
I0403 14:59:29.816011 11397 net.cpp:425] inception_4e/1x1 <- inception_4d/output_inception_4d/output_0_split_1
I0403 14:59:29.816032 11397 net.cpp:399] inception_4e/1x1 -> inception_4e/1x1
I0403 14:59:29.817960 11397 net.cpp:141] Setting up inception_4e/1x1
I0403 14:59:29.817991 11397 net.cpp:148] Top shape: 24 256 14 14 (1204224)
I0403 14:59:29.818007 11397 net.cpp:156] Memory required for data: 1213249056
I0403 14:59:29.818027 11397 layer_factory.hpp:77] Creating layer inception_4e/relu_1x1
I0403 14:59:29.818047 11397 net.cpp:91] Creating Layer inception_4e/relu_1x1
I0403 14:59:29.818063 11397 net.cpp:425] inception_4e/relu_1x1 <- inception_4e/1x1
I0403 14:59:29.818083 11397 net.cpp:386] inception_4e/relu_1x1 -> inception_4e/1x1 (in-place)
I0403 14:59:29.818393 11397 net.cpp:141] Setting up inception_4e/relu_1x1
I0403 14:59:29.818420 11397 net.cpp:148] Top shape: 24 256 14 14 (1204224)
I0403 14:59:29.818436 11397 net.cpp:156] Memory required for data: 1218065952
I0403 14:59:29.818452 11397 layer_factory.hpp:77] Creating layer inception_4e/3x3_reduce
I0403 14:59:29.818476 11397 net.cpp:91] Creating Layer inception_4e/3x3_reduce
I0403 14:59:29.818495 11397 net.cpp:425] inception_4e/3x3_reduce <- inception_4d/output_inception_4d/output_0_split_2
I0403 14:59:29.818517 11397 net.cpp:399] inception_4e/3x3_reduce -> inception_4e/3x3_reduce
I0403 14:59:29.820718 11397 net.cpp:141] Setting up inception_4e/3x3_reduce
I0403 14:59:29.820749 11397 net.cpp:148] Top shape: 24 160 14 14 (752640)
I0403 14:59:29.820767 11397 net.cpp:156] Memory required for data: 1221076512
I0403 14:59:29.820787 11397 layer_factory.hpp:77] Creating layer inception_4e/relu_3x3_reduce
I0403 14:59:29.820807 11397 net.cpp:91] Creating Layer inception_4e/relu_3x3_reduce
I0403 14:59:29.820823 11397 net.cpp:425] inception_4e/relu_3x3_reduce <- inception_4e/3x3_reduce
I0403 14:59:29.820844 11397 net.cpp:386] inception_4e/relu_3x3_reduce -> inception_4e/3x3_reduce (in-place)
I0403 14:59:29.821043 11397 net.cpp:141] Setting up inception_4e/relu_3x3_reduce
I0403 14:59:29.821070 11397 net.cpp:148] Top shape: 24 160 14 14 (752640)
I0403 14:59:29.821085 11397 net.cpp:156] Memory required for data: 1224087072
I0403 14:59:29.821107 11397 layer_factory.hpp:77] Creating layer inception_4e/3x3
I0403 14:59:29.821131 11397 net.cpp:91] Creating Layer inception_4e/3x3
I0403 14:59:29.821151 11397 net.cpp:425] inception_4e/3x3 <- inception_4e/3x3_reduce
I0403 14:59:29.821172 11397 net.cpp:399] inception_4e/3x3 -> inception_4e/3x3
I0403 14:59:29.826457 11397 net.cpp:141] Setting up inception_4e/3x3
I0403 14:59:29.826499 11397 net.cpp:148] Top shape: 24 320 14 14 (1505280)
I0403 14:59:29.826516 11397 net.cpp:156] Memory required for data: 1230108192
I0403 14:59:29.826536 11397 layer_factory.hpp:77] Creating layer inception_4e/relu_3x3
I0403 14:59:29.826560 11397 net.cpp:91] Creating Layer inception_4e/relu_3x3
I0403 14:59:29.826580 11397 net.cpp:425] inception_4e/relu_3x3 <- inception_4e/3x3
I0403 14:59:29.826599 11397 net.cpp:386] inception_4e/relu_3x3 -> inception_4e/3x3 (in-place)
I0403 14:59:29.826910 11397 net.cpp:141] Setting up inception_4e/relu_3x3
I0403 14:59:29.826938 11397 net.cpp:148] Top shape: 24 320 14 14 (1505280)
I0403 14:59:29.826954 11397 net.cpp:156] Memory required for data: 1236129312
I0403 14:59:29.826970 11397 layer_factory.hpp:77] Creating layer inception_4e/5x5_reduce
I0403 14:59:29.826994 11397 net.cpp:91] Creating Layer inception_4e/5x5_reduce
I0403 14:59:29.827013 11397 net.cpp:425] inception_4e/5x5_reduce <- inception_4d/output_inception_4d/output_0_split_3
I0403 14:59:29.827036 11397 net.cpp:399] inception_4e/5x5_reduce -> inception_4e/5x5_reduce
I0403 14:59:29.828161 11397 net.cpp:141] Setting up inception_4e/5x5_reduce
I0403 14:59:29.828192 11397 net.cpp:148] Top shape: 24 32 14 14 (150528)
I0403 14:59:29.828210 11397 net.cpp:156] Memory required for data: 1236731424
I0403 14:59:29.828229 11397 layer_factory.hpp:77] Creating layer inception_4e/relu_5x5_reduce
I0403 14:59:29.828249 11397 net.cpp:91] Creating Layer inception_4e/relu_5x5_reduce
I0403 14:59:29.828266 11397 net.cpp:425] inception_4e/relu_5x5_reduce <- inception_4e/5x5_reduce
I0403 14:59:29.828289 11397 net.cpp:386] inception_4e/relu_5x5_reduce -> inception_4e/5x5_reduce (in-place)
I0403 14:59:29.828601 11397 net.cpp:141] Setting up inception_4e/relu_5x5_reduce
I0403 14:59:29.828631 11397 net.cpp:148] Top shape: 24 32 14 14 (150528)
I0403 14:59:29.828649 11397 net.cpp:156] Memory required for data: 1237333536
I0403 14:59:29.828662 11397 layer_factory.hpp:77] Creating layer inception_4e/5x5
I0403 14:59:29.828702 11397 net.cpp:91] Creating Layer inception_4e/5x5
I0403 14:59:29.828723 11397 net.cpp:425] inception_4e/5x5 <- inception_4e/5x5_reduce
I0403 14:59:29.828743 11397 net.cpp:399] inception_4e/5x5 -> inception_4e/5x5
I0403 14:59:29.830597 11397 net.cpp:141] Setting up inception_4e/5x5
I0403 14:59:29.830626 11397 net.cpp:148] Top shape: 24 128 14 14 (602112)
I0403 14:59:29.830643 11397 net.cpp:156] Memory required for data: 1239741984
I0403 14:59:29.830662 11397 layer_factory.hpp:77] Creating layer inception_4e/relu_5x5
I0403 14:59:29.830683 11397 net.cpp:91] Creating Layer inception_4e/relu_5x5
I0403 14:59:29.830701 11397 net.cpp:425] inception_4e/relu_5x5 <- inception_4e/5x5
I0403 14:59:29.830719 11397 net.cpp:386] inception_4e/relu_5x5 -> inception_4e/5x5 (in-place)
I0403 14:59:29.830921 11397 net.cpp:141] Setting up inception_4e/relu_5x5
I0403 14:59:29.830947 11397 net.cpp:148] Top shape: 24 128 14 14 (602112)
I0403 14:59:29.830963 11397 net.cpp:156] Memory required for data: 1242150432
I0403 14:59:29.830977 11397 layer_factory.hpp:77] Creating layer inception_4e/pool
I0403 14:59:29.830996 11397 net.cpp:91] Creating Layer inception_4e/pool
I0403 14:59:29.831014 11397 net.cpp:425] inception_4e/pool <- inception_4d/output_inception_4d/output_0_split_4
I0403 14:59:29.831035 11397 net.cpp:399] inception_4e/pool -> inception_4e/pool
I0403 14:59:29.831115 11397 net.cpp:141] Setting up inception_4e/pool
I0403 14:59:29.831140 11397 net.cpp:148] Top shape: 24 528 14 14 (2483712)
I0403 14:59:29.831156 11397 net.cpp:156] Memory required for data: 1252085280
I0403 14:59:29.831169 11397 layer_factory.hpp:77] Creating layer inception_4e/pool_proj
I0403 14:59:29.831193 11397 net.cpp:91] Creating Layer inception_4e/pool_proj
I0403 14:59:29.831212 11397 net.cpp:425] inception_4e/pool_proj <- inception_4e/pool
I0403 14:59:29.831231 11397 net.cpp:399] inception_4e/pool_proj -> inception_4e/pool_proj
I0403 14:59:29.832732 11397 net.cpp:141] Setting up inception_4e/pool_proj
I0403 14:59:29.832772 11397 net.cpp:148] Top shape: 24 128 14 14 (602112)
I0403 14:59:29.832789 11397 net.cpp:156] Memory required for data: 1254493728
I0403 14:59:29.832808 11397 layer_factory.hpp:77] Creating layer inception_4e/relu_pool_proj
I0403 14:59:29.832829 11397 net.cpp:91] Creating Layer inception_4e/relu_pool_proj
I0403 14:59:29.832847 11397 net.cpp:425] inception_4e/relu_pool_proj <- inception_4e/pool_proj
I0403 14:59:29.832865 11397 net.cpp:386] inception_4e/relu_pool_proj -> inception_4e/pool_proj (in-place)
I0403 14:59:29.833169 11397 net.cpp:141] Setting up inception_4e/relu_pool_proj
I0403 14:59:29.833197 11397 net.cpp:148] Top shape: 24 128 14 14 (602112)
I0403 14:59:29.833212 11397 net.cpp:156] Memory required for data: 1256902176
I0403 14:59:29.833226 11397 layer_factory.hpp:77] Creating layer inception_4e/output
I0403 14:59:29.833247 11397 net.cpp:91] Creating Layer inception_4e/output
I0403 14:59:29.833266 11397 net.cpp:425] inception_4e/output <- inception_4e/1x1
I0403 14:59:29.833283 11397 net.cpp:425] inception_4e/output <- inception_4e/3x3
I0403 14:59:29.833299 11397 net.cpp:425] inception_4e/output <- inception_4e/5x5
I0403 14:59:29.833317 11397 net.cpp:425] inception_4e/output <- inception_4e/pool_proj
I0403 14:59:29.833333 11397 net.cpp:399] inception_4e/output -> inception_4e/output
I0403 14:59:29.833387 11397 net.cpp:141] Setting up inception_4e/output
I0403 14:59:29.833412 11397 net.cpp:148] Top shape: 24 832 14 14 (3913728)
I0403 14:59:29.833428 11397 net.cpp:156] Memory required for data: 1272557088
I0403 14:59:29.833443 11397 layer_factory.hpp:77] Creating layer pool4/3x3_s2
I0403 14:59:29.833461 11397 net.cpp:91] Creating Layer pool4/3x3_s2
I0403 14:59:29.833477 11397 net.cpp:425] pool4/3x3_s2 <- inception_4e/output
I0403 14:59:29.833498 11397 net.cpp:399] pool4/3x3_s2 -> pool4/3x3_s2
I0403 14:59:29.833566 11397 net.cpp:141] Setting up pool4/3x3_s2
I0403 14:59:29.833591 11397 net.cpp:148] Top shape: 24 832 7 7 (978432)
I0403 14:59:29.833606 11397 net.cpp:156] Memory required for data: 1276470816
I0403 14:59:29.833621 11397 layer_factory.hpp:77] Creating layer pool4/3x3_s2_pool4/3x3_s2_0_split
I0403 14:59:29.833642 11397 net.cpp:91] Creating Layer pool4/3x3_s2_pool4/3x3_s2_0_split
I0403 14:59:29.833660 11397 net.cpp:425] pool4/3x3_s2_pool4/3x3_s2_0_split <- pool4/3x3_s2
I0403 14:59:29.833680 11397 net.cpp:399] pool4/3x3_s2_pool4/3x3_s2_0_split -> pool4/3x3_s2_pool4/3x3_s2_0_split_0
I0403 14:59:29.833703 11397 net.cpp:399] pool4/3x3_s2_pool4/3x3_s2_0_split -> pool4/3x3_s2_pool4/3x3_s2_0_split_1
I0403 14:59:29.833724 11397 net.cpp:399] pool4/3x3_s2_pool4/3x3_s2_0_split -> pool4/3x3_s2_pool4/3x3_s2_0_split_2
I0403 14:59:29.833745 11397 net.cpp:399] pool4/3x3_s2_pool4/3x3_s2_0_split -> pool4/3x3_s2_pool4/3x3_s2_0_split_3
I0403 14:59:29.833835 11397 net.cpp:141] Setting up pool4/3x3_s2_pool4/3x3_s2_0_split
I0403 14:59:29.833863 11397 net.cpp:148] Top shape: 24 832 7 7 (978432)
I0403 14:59:29.833881 11397 net.cpp:148] Top shape: 24 832 7 7 (978432)
I0403 14:59:29.833899 11397 net.cpp:148] Top shape: 24 832 7 7 (978432)
I0403 14:59:29.833914 11397 net.cpp:148] Top shape: 24 832 7 7 (978432)
I0403 14:59:29.833930 11397 net.cpp:156] Memory required for data: 1292125728
I0403 14:59:29.833945 11397 layer_factory.hpp:77] Creating layer inception_5a/1x1
I0403 14:59:29.833964 11397 net.cpp:91] Creating Layer inception_5a/1x1
I0403 14:59:29.833981 11397 net.cpp:425] inception_5a/1x1 <- pool4/3x3_s2_pool4/3x3_s2_0_split_0
I0403 14:59:29.834002 11397 net.cpp:399] inception_5a/1x1 -> inception_5a/1x1
I0403 14:59:29.837031 11397 net.cpp:141] Setting up inception_5a/1x1
I0403 14:59:29.837064 11397 net.cpp:148] Top shape: 24 256 7 7 (301056)
I0403 14:59:29.837082 11397 net.cpp:156] Memory required for data: 1293329952
I0403 14:59:29.837107 11397 layer_factory.hpp:77] Creating layer inception_5a/relu_1x1
I0403 14:59:29.837128 11397 net.cpp:91] Creating Layer inception_5a/relu_1x1
I0403 14:59:29.837146 11397 net.cpp:425] inception_5a/relu_1x1 <- inception_5a/1x1
I0403 14:59:29.837164 11397 net.cpp:386] inception_5a/relu_1x1 -> inception_5a/1x1 (in-place)
I0403 14:59:29.837489 11397 net.cpp:141] Setting up inception_5a/relu_1x1
I0403 14:59:29.837519 11397 net.cpp:148] Top shape: 24 256 7 7 (301056)
I0403 14:59:29.837535 11397 net.cpp:156] Memory required for data: 1294534176
I0403 14:59:29.837551 11397 layer_factory.hpp:77] Creating layer inception_5a/3x3_reduce
I0403 14:59:29.837574 11397 net.cpp:91] Creating Layer inception_5a/3x3_reduce
I0403 14:59:29.837592 11397 net.cpp:425] inception_5a/3x3_reduce <- pool4/3x3_s2_pool4/3x3_s2_0_split_1
I0403 14:59:29.837613 11397 net.cpp:399] inception_5a/3x3_reduce -> inception_5a/3x3_reduce
I0403 14:59:29.840157 11397 net.cpp:141] Setting up inception_5a/3x3_reduce
I0403 14:59:29.840190 11397 net.cpp:148] Top shape: 24 160 7 7 (188160)
I0403 14:59:29.840209 11397 net.cpp:156] Memory required for data: 1295286816
I0403 14:59:29.840226 11397 layer_factory.hpp:77] Creating layer inception_5a/relu_3x3_reduce
I0403 14:59:29.840250 11397 net.cpp:91] Creating Layer inception_5a/relu_3x3_reduce
I0403 14:59:29.840267 11397 net.cpp:425] inception_5a/relu_3x3_reduce <- inception_5a/3x3_reduce
I0403 14:59:29.840286 11397 net.cpp:386] inception_5a/relu_3x3_reduce -> inception_5a/3x3_reduce (in-place)
I0403 14:59:29.840479 11397 net.cpp:141] Setting up inception_5a/relu_3x3_reduce
I0403 14:59:29.840508 11397 net.cpp:148] Top shape: 24 160 7 7 (188160)
I0403 14:59:29.840524 11397 net.cpp:156] Memory required for data: 1296039456
I0403 14:59:29.840540 11397 layer_factory.hpp:77] Creating layer inception_5a/3x3
I0403 14:59:29.840564 11397 net.cpp:91] Creating Layer inception_5a/3x3
I0403 14:59:29.840582 11397 net.cpp:425] inception_5a/3x3 <- inception_5a/3x3_reduce
I0403 14:59:29.840603 11397 net.cpp:399] inception_5a/3x3 -> inception_5a/3x3
I0403 14:59:29.845799 11397 net.cpp:141] Setting up inception_5a/3x3
I0403 14:59:29.845834 11397 net.cpp:148] Top shape: 24 320 7 7 (376320)
I0403 14:59:29.845850 11397 net.cpp:156] Memory required for data: 1297544736
I0403 14:59:29.845870 11397 layer_factory.hpp:77] Creating layer inception_5a/relu_3x3
I0403 14:59:29.845890 11397 net.cpp:91] Creating Layer inception_5a/relu_3x3
I0403 14:59:29.845906 11397 net.cpp:425] inception_5a/relu_3x3 <- inception_5a/3x3
I0403 14:59:29.845927 11397 net.cpp:386] inception_5a/relu_3x3 -> inception_5a/3x3 (in-place)
I0403 14:59:29.846266 11397 net.cpp:141] Setting up inception_5a/relu_3x3
I0403 14:59:29.846298 11397 net.cpp:148] Top shape: 24 320 7 7 (376320)
I0403 14:59:29.846315 11397 net.cpp:156] Memory required for data: 1299050016
I0403 14:59:29.846333 11397 layer_factory.hpp:77] Creating layer inception_5a/5x5_reduce
I0403 14:59:29.846359 11397 net.cpp:91] Creating Layer inception_5a/5x5_reduce
I0403 14:59:29.846377 11397 net.cpp:425] inception_5a/5x5_reduce <- pool4/3x3_s2_pool4/3x3_s2_0_split_2
I0403 14:59:29.846398 11397 net.cpp:399] inception_5a/5x5_reduce -> inception_5a/5x5_reduce
I0403 14:59:29.847611 11397 net.cpp:141] Setting up inception_5a/5x5_reduce
I0403 14:59:29.847643 11397 net.cpp:148] Top shape: 24 32 7 7 (37632)
I0403 14:59:29.847661 11397 net.cpp:156] Memory required for data: 1299200544
I0403 14:59:29.847681 11397 layer_factory.hpp:77] Creating layer inception_5a/relu_5x5_reduce
I0403 14:59:29.847699 11397 net.cpp:91] Creating Layer inception_5a/relu_5x5_reduce
I0403 14:59:29.847718 11397 net.cpp:425] inception_5a/relu_5x5_reduce <- inception_5a/5x5_reduce
I0403 14:59:29.847738 11397 net.cpp:386] inception_5a/relu_5x5_reduce -> inception_5a/5x5_reduce (in-place)
I0403 14:59:29.848050 11397 net.cpp:141] Setting up inception_5a/relu_5x5_reduce
I0403 14:59:29.848078 11397 net.cpp:148] Top shape: 24 32 7 7 (37632)
I0403 14:59:29.848098 11397 net.cpp:156] Memory required for data: 1299351072
I0403 14:59:29.848116 11397 layer_factory.hpp:77] Creating layer inception_5a/5x5
I0403 14:59:29.848140 11397 net.cpp:91] Creating Layer inception_5a/5x5
I0403 14:59:29.848160 11397 net.cpp:425] inception_5a/5x5 <- inception_5a/5x5_reduce
I0403 14:59:29.848182 11397 net.cpp:399] inception_5a/5x5 -> inception_5a/5x5
I0403 14:59:29.849967 11397 net.cpp:141] Setting up inception_5a/5x5
I0403 14:59:29.850011 11397 net.cpp:148] Top shape: 24 128 7 7 (150528)
I0403 14:59:29.850028 11397 net.cpp:156] Memory required for data: 1299953184
I0403 14:59:29.850049 11397 layer_factory.hpp:77] Creating layer inception_5a/relu_5x5
I0403 14:59:29.850070 11397 net.cpp:91] Creating Layer inception_5a/relu_5x5
I0403 14:59:29.850087 11397 net.cpp:425] inception_5a/relu_5x5 <- inception_5a/5x5
I0403 14:59:29.850111 11397 net.cpp:386] inception_5a/relu_5x5 -> inception_5a/5x5 (in-place)
I0403 14:59:29.850314 11397 net.cpp:141] Setting up inception_5a/relu_5x5
I0403 14:59:29.850342 11397 net.cpp:148] Top shape: 24 128 7 7 (150528)
I0403 14:59:29.850358 11397 net.cpp:156] Memory required for data: 1300555296
I0403 14:59:29.850373 11397 layer_factory.hpp:77] Creating layer inception_5a/pool
I0403 14:59:29.850391 11397 net.cpp:91] Creating Layer inception_5a/pool
I0403 14:59:29.850409 11397 net.cpp:425] inception_5a/pool <- pool4/3x3_s2_pool4/3x3_s2_0_split_3
I0403 14:59:29.850430 11397 net.cpp:399] inception_5a/pool -> inception_5a/pool
I0403 14:59:29.850505 11397 net.cpp:141] Setting up inception_5a/pool
I0403 14:59:29.850531 11397 net.cpp:148] Top shape: 24 832 7 7 (978432)
I0403 14:59:29.850548 11397 net.cpp:156] Memory required for data: 1304469024
I0403 14:59:29.850563 11397 layer_factory.hpp:77] Creating layer inception_5a/pool_proj
I0403 14:59:29.850589 11397 net.cpp:91] Creating Layer inception_5a/pool_proj
I0403 14:59:29.850606 11397 net.cpp:425] inception_5a/pool_proj <- inception_5a/pool
I0403 14:59:29.850626 11397 net.cpp:399] inception_5a/pool_proj -> inception_5a/pool_proj
I0403 14:59:29.853058 11397 net.cpp:141] Setting up inception_5a/pool_proj
I0403 14:59:29.853091 11397 net.cpp:148] Top shape: 24 128 7 7 (150528)
I0403 14:59:29.853121 11397 net.cpp:156] Memory required for data: 1305071136
I0403 14:59:29.853142 11397 layer_factory.hpp:77] Creating layer inception_5a/relu_pool_proj
I0403 14:59:29.853166 11397 net.cpp:91] Creating Layer inception_5a/relu_pool_proj
I0403 14:59:29.853185 11397 net.cpp:425] inception_5a/relu_pool_proj <- inception_5a/pool_proj
I0403 14:59:29.853204 11397 net.cpp:386] inception_5a/relu_pool_proj -> inception_5a/pool_proj (in-place)
I0403 14:59:29.853512 11397 net.cpp:141] Setting up inception_5a/relu_pool_proj
I0403 14:59:29.853540 11397 net.cpp:148] Top shape: 24 128 7 7 (150528)
I0403 14:59:29.853555 11397 net.cpp:156] Memory required for data: 1305673248
I0403 14:59:29.853572 11397 layer_factory.hpp:77] Creating layer inception_5a/output
I0403 14:59:29.853592 11397 net.cpp:91] Creating Layer inception_5a/output
I0403 14:59:29.853610 11397 net.cpp:425] inception_5a/output <- inception_5a/1x1
I0403 14:59:29.853626 11397 net.cpp:425] inception_5a/output <- inception_5a/3x3
I0403 14:59:29.853643 11397 net.cpp:425] inception_5a/output <- inception_5a/5x5
I0403 14:59:29.853662 11397 net.cpp:425] inception_5a/output <- inception_5a/pool_proj
I0403 14:59:29.853679 11397 net.cpp:399] inception_5a/output -> inception_5a/output
I0403 14:59:29.853734 11397 net.cpp:141] Setting up inception_5a/output
I0403 14:59:29.853760 11397 net.cpp:148] Top shape: 24 832 7 7 (978432)
I0403 14:59:29.853775 11397 net.cpp:156] Memory required for data: 1309586976
I0403 14:59:29.853790 11397 layer_factory.hpp:77] Creating layer inception_5a/output_inception_5a/output_0_split
I0403 14:59:29.853808 11397 net.cpp:91] Creating Layer inception_5a/output_inception_5a/output_0_split
I0403 14:59:29.853826 11397 net.cpp:425] inception_5a/output_inception_5a/output_0_split <- inception_5a/output
I0403 14:59:29.853847 11397 net.cpp:399] inception_5a/output_inception_5a/output_0_split -> inception_5a/output_inception_5a/output_0_split_0
I0403 14:59:29.853868 11397 net.cpp:399] inception_5a/output_inception_5a/output_0_split -> inception_5a/output_inception_5a/output_0_split_1
I0403 14:59:29.853890 11397 net.cpp:399] inception_5a/output_inception_5a/output_0_split -> inception_5a/output_inception_5a/output_0_split_2
I0403 14:59:29.853914 11397 net.cpp:399] inception_5a/output_inception_5a/output_0_split -> inception_5a/output_inception_5a/output_0_split_3
I0403 14:59:29.854032 11397 net.cpp:141] Setting up inception_5a/output_inception_5a/output_0_split
I0403 14:59:29.854058 11397 net.cpp:148] Top shape: 24 832 7 7 (978432)
I0403 14:59:29.854075 11397 net.cpp:148] Top shape: 24 832 7 7 (978432)
I0403 14:59:29.854092 11397 net.cpp:148] Top shape: 24 832 7 7 (978432)
I0403 14:59:29.854113 11397 net.cpp:148] Top shape: 24 832 7 7 (978432)
I0403 14:59:29.854127 11397 net.cpp:156] Memory required for data: 1325241888
I0403 14:59:29.854142 11397 layer_factory.hpp:77] Creating layer inception_5b/1x1
I0403 14:59:29.854166 11397 net.cpp:91] Creating Layer inception_5b/1x1
I0403 14:59:29.854184 11397 net.cpp:425] inception_5b/1x1 <- inception_5a/output_inception_5a/output_0_split_0
I0403 14:59:29.854207 11397 net.cpp:399] inception_5b/1x1 -> inception_5b/1x1
I0403 14:59:29.858125 11397 net.cpp:141] Setting up inception_5b/1x1
I0403 14:59:29.858156 11397 net.cpp:148] Top shape: 24 384 7 7 (451584)
I0403 14:59:29.858173 11397 net.cpp:156] Memory required for data: 1327048224
I0403 14:59:29.858193 11397 layer_factory.hpp:77] Creating layer inception_5b/relu_1x1
I0403 14:59:29.858214 11397 net.cpp:91] Creating Layer inception_5b/relu_1x1
I0403 14:59:29.858234 11397 net.cpp:425] inception_5b/relu_1x1 <- inception_5b/1x1
I0403 14:59:29.858253 11397 net.cpp:386] inception_5b/relu_1x1 -> inception_5b/1x1 (in-place)
I0403 14:59:29.858568 11397 net.cpp:141] Setting up inception_5b/relu_1x1
I0403 14:59:29.858597 11397 net.cpp:148] Top shape: 24 384 7 7 (451584)
I0403 14:59:29.858613 11397 net.cpp:156] Memory required for data: 1328854560
I0403 14:59:29.858628 11397 layer_factory.hpp:77] Creating layer inception_5b/3x3_reduce
I0403 14:59:29.858654 11397 net.cpp:91] Creating Layer inception_5b/3x3_reduce
I0403 14:59:29.858671 11397 net.cpp:425] inception_5b/3x3_reduce <- inception_5a/output_inception_5a/output_0_split_1
I0403 14:59:29.858695 11397 net.cpp:399] inception_5b/3x3_reduce -> inception_5b/3x3_reduce
I0403 14:59:29.861462 11397 net.cpp:141] Setting up inception_5b/3x3_reduce
I0403 14:59:29.861493 11397 net.cpp:148] Top shape: 24 192 7 7 (225792)
I0403 14:59:29.861510 11397 net.cpp:156] Memory required for data: 1329757728
I0403 14:59:29.861531 11397 layer_factory.hpp:77] Creating layer inception_5b/relu_3x3_reduce
I0403 14:59:29.861552 11397 net.cpp:91] Creating Layer inception_5b/relu_3x3_reduce
I0403 14:59:29.861570 11397 net.cpp:425] inception_5b/relu_3x3_reduce <- inception_5b/3x3_reduce
I0403 14:59:29.861589 11397 net.cpp:386] inception_5b/relu_3x3_reduce -> inception_5b/3x3_reduce (in-place)
I0403 14:59:29.861789 11397 net.cpp:141] Setting up inception_5b/relu_3x3_reduce
I0403 14:59:29.861819 11397 net.cpp:148] Top shape: 24 192 7 7 (225792)
I0403 14:59:29.861835 11397 net.cpp:156] Memory required for data: 1330660896
I0403 14:59:29.861851 11397 layer_factory.hpp:77] Creating layer inception_5b/3x3
I0403 14:59:29.861873 11397 net.cpp:91] Creating Layer inception_5b/3x3
I0403 14:59:29.861893 11397 net.cpp:425] inception_5b/3x3 <- inception_5b/3x3_reduce
I0403 14:59:29.861912 11397 net.cpp:399] inception_5b/3x3 -> inception_5b/3x3
I0403 14:59:29.868733 11397 net.cpp:141] Setting up inception_5b/3x3
I0403 14:59:29.868765 11397 net.cpp:148] Top shape: 24 384 7 7 (451584)
I0403 14:59:29.868782 11397 net.cpp:156] Memory required for data: 1332467232
I0403 14:59:29.868801 11397 layer_factory.hpp:77] Creating layer inception_5b/relu_3x3
I0403 14:59:29.868823 11397 net.cpp:91] Creating Layer inception_5b/relu_3x3
I0403 14:59:29.868840 11397 net.cpp:425] inception_5b/relu_3x3 <- inception_5b/3x3
I0403 14:59:29.868857 11397 net.cpp:386] inception_5b/relu_3x3 -> inception_5b/3x3 (in-place)
I0403 14:59:29.869161 11397 net.cpp:141] Setting up inception_5b/relu_3x3
I0403 14:59:29.869189 11397 net.cpp:148] Top shape: 24 384 7 7 (451584)
I0403 14:59:29.869204 11397 net.cpp:156] Memory required for data: 1334273568
I0403 14:59:29.869221 11397 layer_factory.hpp:77] Creating layer inception_5b/5x5_reduce
I0403 14:59:29.869261 11397 net.cpp:91] Creating Layer inception_5b/5x5_reduce
I0403 14:59:29.869282 11397 net.cpp:425] inception_5b/5x5_reduce <- inception_5a/output_inception_5a/output_0_split_2
I0403 14:59:29.869303 11397 net.cpp:399] inception_5b/5x5_reduce -> inception_5b/5x5_reduce
I0403 14:59:29.870589 11397 net.cpp:141] Setting up inception_5b/5x5_reduce
I0403 14:59:29.870618 11397 net.cpp:148] Top shape: 24 48 7 7 (56448)
I0403 14:59:29.870635 11397 net.cpp:156] Memory required for data: 1334499360
I0403 14:59:29.870654 11397 layer_factory.hpp:77] Creating layer inception_5b/relu_5x5_reduce
I0403 14:59:29.870676 11397 net.cpp:91] Creating Layer inception_5b/relu_5x5_reduce
I0403 14:59:29.870695 11397 net.cpp:425] inception_5b/relu_5x5_reduce <- inception_5b/5x5_reduce
I0403 14:59:29.870713 11397 net.cpp:386] inception_5b/relu_5x5_reduce -> inception_5b/5x5_reduce (in-place)
I0403 14:59:29.871089 11397 net.cpp:141] Setting up inception_5b/relu_5x5_reduce
I0403 14:59:29.871120 11397 net.cpp:148] Top shape: 24 48 7 7 (56448)
I0403 14:59:29.871136 11397 net.cpp:156] Memory required for data: 1334725152
I0403 14:59:29.871151 11397 layer_factory.hpp:77] Creating layer inception_5b/5x5
I0403 14:59:29.871173 11397 net.cpp:91] Creating Layer inception_5b/5x5
I0403 14:59:29.871191 11397 net.cpp:425] inception_5b/5x5 <- inception_5b/5x5_reduce
I0403 14:59:29.871211 11397 net.cpp:399] inception_5b/5x5 -> inception_5b/5x5
I0403 14:59:29.873338 11397 net.cpp:141] Setting up inception_5b/5x5
I0403 14:59:29.873373 11397 net.cpp:148] Top shape: 24 128 7 7 (150528)
I0403 14:59:29.873390 11397 net.cpp:156] Memory required for data: 1335327264
I0403 14:59:29.873409 11397 layer_factory.hpp:77] Creating layer inception_5b/relu_5x5
I0403 14:59:29.873428 11397 net.cpp:91] Creating Layer inception_5b/relu_5x5
I0403 14:59:29.873445 11397 net.cpp:425] inception_5b/relu_5x5 <- inception_5b/5x5
I0403 14:59:29.873461 11397 net.cpp:386] inception_5b/relu_5x5 -> inception_5b/5x5 (in-place)
I0403 14:59:29.873662 11397 net.cpp:141] Setting up inception_5b/relu_5x5
I0403 14:59:29.873687 11397 net.cpp:148] Top shape: 24 128 7 7 (150528)
I0403 14:59:29.873704 11397 net.cpp:156] Memory required for data: 1335929376
I0403 14:59:29.873719 11397 layer_factory.hpp:77] Creating layer inception_5b/pool
I0403 14:59:29.873739 11397 net.cpp:91] Creating Layer inception_5b/pool
I0403 14:59:29.873755 11397 net.cpp:425] inception_5b/pool <- inception_5a/output_inception_5a/output_0_split_3
I0403 14:59:29.873775 11397 net.cpp:399] inception_5b/pool -> inception_5b/pool
I0403 14:59:29.873850 11397 net.cpp:141] Setting up inception_5b/pool
I0403 14:59:29.873878 11397 net.cpp:148] Top shape: 24 832 7 7 (978432)
I0403 14:59:29.873893 11397 net.cpp:156] Memory required for data: 1339843104
I0403 14:59:29.873909 11397 layer_factory.hpp:77] Creating layer inception_5b/pool_proj
I0403 14:59:29.873932 11397 net.cpp:91] Creating Layer inception_5b/pool_proj
I0403 14:59:29.873950 11397 net.cpp:425] inception_5b/pool_proj <- inception_5b/pool
I0403 14:59:29.873970 11397 net.cpp:399] inception_5b/pool_proj -> inception_5b/pool_proj
I0403 14:59:29.876329 11397 net.cpp:141] Setting up inception_5b/pool_proj
I0403 14:59:29.876361 11397 net.cpp:148] Top shape: 24 128 7 7 (150528)
I0403 14:59:29.876377 11397 net.cpp:156] Memory required for data: 1340445216
I0403 14:59:29.876396 11397 layer_factory.hpp:77] Creating layer inception_5b/relu_pool_proj
I0403 14:59:29.876417 11397 net.cpp:91] Creating Layer inception_5b/relu_pool_proj
I0403 14:59:29.876435 11397 net.cpp:425] inception_5b/relu_pool_proj <- inception_5b/pool_proj
I0403 14:59:29.876452 11397 net.cpp:386] inception_5b/relu_pool_proj -> inception_5b/pool_proj (in-place)
I0403 14:59:29.876754 11397 net.cpp:141] Setting up inception_5b/relu_pool_proj
I0403 14:59:29.876781 11397 net.cpp:148] Top shape: 24 128 7 7 (150528)
I0403 14:59:29.876796 11397 net.cpp:156] Memory required for data: 1341047328
I0403 14:59:29.876811 11397 layer_factory.hpp:77] Creating layer inception_5b/output
I0403 14:59:29.876832 11397 net.cpp:91] Creating Layer inception_5b/output
I0403 14:59:29.876863 11397 net.cpp:425] inception_5b/output <- inception_5b/1x1
I0403 14:59:29.876881 11397 net.cpp:425] inception_5b/output <- inception_5b/3x3
I0403 14:59:29.876899 11397 net.cpp:425] inception_5b/output <- inception_5b/5x5
I0403 14:59:29.876916 11397 net.cpp:425] inception_5b/output <- inception_5b/pool_proj
I0403 14:59:29.876935 11397 net.cpp:399] inception_5b/output -> inception_5b/output
I0403 14:59:29.876989 11397 net.cpp:141] Setting up inception_5b/output
I0403 14:59:29.877015 11397 net.cpp:148] Top shape: 24 1024 7 7 (1204224)
I0403 14:59:29.877030 11397 net.cpp:156] Memory required for data: 1345864224
I0403 14:59:29.877044 11397 layer_factory.hpp:77] Creating layer pool5/7x7_s1
I0403 14:59:29.877063 11397 net.cpp:91] Creating Layer pool5/7x7_s1
I0403 14:59:29.877079 11397 net.cpp:425] pool5/7x7_s1 <- inception_5b/output
I0403 14:59:29.877104 11397 net.cpp:399] pool5/7x7_s1 -> pool5/7x7_s1
I0403 14:59:29.877326 11397 net.cpp:141] Setting up pool5/7x7_s1
I0403 14:59:29.877356 11397 net.cpp:148] Top shape: 24 1024 1 1 (24576)
I0403 14:59:29.877372 11397 net.cpp:156] Memory required for data: 1345962528
I0403 14:59:29.877388 11397 layer_factory.hpp:77] Creating layer pool5/drop_7x7_s1
I0403 14:59:29.877406 11397 net.cpp:91] Creating Layer pool5/drop_7x7_s1
I0403 14:59:29.877423 11397 net.cpp:425] pool5/drop_7x7_s1 <- pool5/7x7_s1
I0403 14:59:29.877441 11397 net.cpp:386] pool5/drop_7x7_s1 -> pool5/7x7_s1 (in-place)
I0403 14:59:29.877498 11397 net.cpp:141] Setting up pool5/drop_7x7_s1
I0403 14:59:29.877522 11397 net.cpp:148] Top shape: 24 1024 1 1 (24576)
I0403 14:59:29.877537 11397 net.cpp:156] Memory required for data: 1346060832
I0403 14:59:29.877552 11397 layer_factory.hpp:77] Creating layer loss3/classifier_plantvillage
I0403 14:59:29.877574 11397 net.cpp:91] Creating Layer loss3/classifier_plantvillage
I0403 14:59:29.877591 11397 net.cpp:425] loss3/classifier_plantvillage <- pool5/7x7_s1
I0403 14:59:29.877611 11397 net.cpp:399] loss3/classifier_plantvillage -> loss3/classifier_plantvillage
I0403 14:59:29.878042 11397 net.cpp:141] Setting up loss3/classifier_plantvillage
I0403 14:59:29.878068 11397 net.cpp:148] Top shape: 24 38 (912)
I0403 14:59:29.878083 11397 net.cpp:156] Memory required for data: 1346064480
I0403 14:59:29.878105 11397 layer_factory.hpp:77] Creating layer loss3/classifier_plantvillage_loss3/classifier_plantvillage_0_split
I0403 14:59:29.878126 11397 net.cpp:91] Creating Layer loss3/classifier_plantvillage_loss3/classifier_plantvillage_0_split
I0403 14:59:29.878142 11397 net.cpp:425] loss3/classifier_plantvillage_loss3/classifier_plantvillage_0_split <- loss3/classifier_plantvillage
I0403 14:59:29.878165 11397 net.cpp:399] loss3/classifier_plantvillage_loss3/classifier_plantvillage_0_split -> loss3/classifier_plantvillage_loss3/classifier_plantvillage_0_split_0
I0403 14:59:29.878186 11397 net.cpp:399] loss3/classifier_plantvillage_loss3/classifier_plantvillage_0_split -> loss3/classifier_plantvillage_loss3/classifier_plantvillage_0_split_1
I0403 14:59:29.878207 11397 net.cpp:399] loss3/classifier_plantvillage_loss3/classifier_plantvillage_0_split -> loss3/classifier_plantvillage_loss3/classifier_plantvillage_0_split_2
I0403 14:59:29.878228 11397 net.cpp:399] loss3/classifier_plantvillage_loss3/classifier_plantvillage_0_split -> loss3/classifier_plantvillage_loss3/classifier_plantvillage_0_split_3
I0403 14:59:29.878331 11397 net.cpp:141] Setting up loss3/classifier_plantvillage_loss3/classifier_plantvillage_0_split
I0403 14:59:29.878357 11397 net.cpp:148] Top shape: 24 38 (912)
I0403 14:59:29.878373 11397 net.cpp:148] Top shape: 24 38 (912)
I0403 14:59:29.878389 11397 net.cpp:148] Top shape: 24 38 (912)
I0403 14:59:29.878406 11397 net.cpp:148] Top shape: 24 38 (912)
I0403 14:59:29.878420 11397 net.cpp:156] Memory required for data: 1346079072
I0403 14:59:29.878434 11397 layer_factory.hpp:77] Creating layer loss1/loss
I0403 14:59:29.878458 11397 net.cpp:91] Creating Layer loss1/loss
I0403 14:59:29.878475 11397 net.cpp:425] loss1/loss <- loss1/classifier_plantvillage_loss1/classifier_plantvillage_0_split_0
I0403 14:59:29.878507 11397 net.cpp:425] loss1/loss <- label_data_1_split_0
…
