…
I0403 14:36:43.209139 10876 net.cpp:313] The NetState phase (1) differed from the phase (0) specified by a rule in layer data
I0403 14:36:43.210286 10876 net.cpp:49] Initializing net from parameters: 
state {
  phase: TEST
}
layer {
  name: "data"
  type: "Data"
  top: "data"
  top: "label"
  include {
    phase: TEST
  }
  transform_param {
    mirror: false
    crop_size: 224
    mean_file: "/home/mohanty/data/final_dataset/lmdb/grayscale-60-40/mean.binaryproto"
  }
  data_param {
    source: "/home/mohanty/data/final_dataset/lmdb/grayscale-60-40/test_db"
    batch_size: 24
    backend: LMDB
  }
}
layer {
  name: "conv1/7x7_s2"
  type: "Convolution"
  bottom: "data"
  top: "conv1/7x7_s2"
  param {
    lr_mult: 1
    decay_mult: 1
  }
  param {
    lr_mult: 2
    decay_mult: 0
  }
  convolution_param {
    num_output: 64
    pad: 3
    kernel_size: 7
    stride: 2
    weight_filler {
      type: "xavier"
      std: 0.1
    }
    bias_filler {
      type: "constant"
      value: 0.2
    }
  }
}
layer {
  name: "conv1/relu_7x7"
  type: "ReLU"
  bottom: "conv1/7x7_s2"
  top: "conv1/7x7_s2"
}
layer {
  name: "pool1/3x3_s2"
  type: "Pooling"
  bottom: "conv1/7x7_s2"
  top: "pool1/3x3_s2"
  pooling_param {
    pool: MAX
    kernel_size: 3
    stride: 2
  }
}
layer {
  name: "pool1/norm1"
  type: "LRN"
  bottom: "pool1/3x3_s2"
  top: "pool1/norm1"
  lrn_param {
    local_size: 5
    alpha: 0.0001
    beta: 0.75
  }
}
layer {
  name: "conv2/3x3_reduce"
  type: "Convolution"
  bottom: "pool1/norm1"
  top: "conv2/3x3_reduce"
  param {
    lr_mult: 1
    decay_mult: 1
  }
  param {
    lr_mult: 2
    decay_mult: 0
  }
  convolution_param {
    num_output: 64
    kernel_size: 1
    weight_filler {
      type: "xavier"
      std: 0.1
    }
    bias_filler {
      type: "constant"
      value: 0.2
    }
  }
}
layer {
  name: "conv2/relu_3x3_reduce"
  type: "ReLU"
  bottom: "conv2/3x3_reduce"
  top: "conv2/3x3_reduce"
}
layer {
  name: "conv2/3x3"
  type: "Convolution"
  bottom: "conv2/3x3_reduce"
  top: "conv2/3x3"
  param {
    lr_mult: 1
    decay_mult: 1
  }
  param {
    lr_mult: 2
    decay_mult: 0
  }
  convolution_param {
    num_output: 192
    pad: 1
    kernel_size: 3
    weight_filler {
      type: "xavier"
      std: 0.03
    }
    bias_filler {
      type: "constant"
      value: 0.2
    }
  }
}
layer {
  name: "conv2/relu_3x3"
  type: "ReLU"
  bottom: "conv2/3x3"
  top: "conv2/3x3"
}
layer {
  name: "conv2/norm2"
  type: "LRN"
  bottom: "conv2/3x3"
  top: "conv2/norm2"
  lrn_param {
    local_size: 5
    alpha: 0.0001
    beta: 0.75
  }
}
layer {
  name: "pool2/3x3_s2"
  type: "Pooling"
  bottom: "conv2/norm2"
  top: "pool2/3x3_s2"
  pooling_param {
    pool: MAX
    kernel_size: 3
    stride: 2
  }
}
layer {
  name: "inception_3a/1x1"
  type: "Convolution"
  bottom: "pool2/3x3_s2"
  top: "inception_3a/1x1"
  param {
    lr_mult: 1
    decay_mult: 1
  }
  param {
    lr_mult: 2
    decay_mult: 0
  }
  convolution_param {
    num_output: 64
    kernel_size: 1
    weight_filler {
      type: "xavier"
      std: 0.03
    }
    bias_filler {
      type: "constant"
      value: 0.2
    }
  }
}
layer {
  name: "inception_3a/relu_1x1"
  type: "ReLU"
  bottom: "inception_3a/1x1"
  top: "inception_3a/1x1"
}
layer {
  name: "inception_3a/3x3_reduce"
  type: "Convolution"
  bottom: "pool2/3x3_s2"
  top: "inception_3a/3x3_reduce"
  param {
    lr_mult: 1
    decay_mult: 1
  }
  param {
    lr_mult: 2
    decay_mult: 0
  }
  convolution_param {
    num_output: 96
    kernel_size: 1
    weight_filler {
      type: "xavier"
      std: 0.09
    }
    bias_filler {
      type: "constant"
      value: 0.2
    }
  }
}
layer {
  name: "inception_3a/relu_3x3_reduce"
  type: "ReLU"
  bottom: "inception_3a/3x3_reduce"
  top: "inception_3a/3x3_reduce"
}
layer {
  name: "inception_3a/3x3"
  type: "Convolution"
  bottom: "inception_3a/3x3_reduce"
  top: "inception_3a/3x3"
  param {
    lr_mult: 1
    decay_mult: 1
  }
  param {
    lr_mult: 2
    decay_mult: 0
  }
  convolution_param {
    num_output: 128
    pad: 1
    kernel_size: 3
    weight_filler {
      type: "xavier"
      std: 0.03
    }
    bias_filler {
      type: "constant"
      value: 0.2
    }
  }
}
layer {
  name: "inception_3a/relu_3x3"
  type: "ReLU"
  bottom: "inception_3a/3x3"
  top: "inception_3a/3x3"
}
layer {
  name: "inception_3a/5x5_reduce"
  type: "Convolution"
  bottom: "pool2/3x3_s2"
  top: "inception_3a/5x5_reduce"
  param {
    lr_mult: 1
    decay_mult: 1
  }
  param {
    lr_mult: 2
    decay_mult: 0
  }
  convolution_param {
    num_output: 16
    kernel_size: 1
    weight_filler {
      type: "xavier"
      std: 0.2
    }
    bias_filler {
      type: "constant"
      value: 0.2
    }
  }
}
layer {
  name: "inception_3a/relu_5x5_reduce"
  type: "ReLU"
  bottom: "inception_3a/5x5_reduce"
  top: "inception_3a/5x5_reduce"
}
layer {
  name: "inception_3a/5x5"
  type: "Convolution"
  bottom: "inception_3a/5x5_reduce"
  top: "inception_3a/5x5"
  param {
    lr_mult: 1
    decay_mult: 1
  }
  param {
    lr_mult: 2
    decay_mult: 0
  }
  convolution_param {
    num_output: 32
    pad: 2
    kernel_size: 5
    weight_filler {
      type: "xavier"
      std: 0.03
    }
    bias_filler {
      type: "constant"
      value: 0.2
    }
  }
}
layer {
  name: "inception_3a/relu_5x5"
  type: "ReLU"
  bottom: "inception_3a/5x5"
  top: "inception_3a/5x5"
}
layer {
  name: "inception_3a/pool"
  type: "Pooling"
  bottom: "pool2/3x3_s2"
  top: "inception_3a/pool"
  pooling_param {
    pool: MAX
    kernel_size: 3
    stride: 1
    pad: 1
  }
}
layer {
  name: "inception_3a/pool_proj"
  type: "Convolution"
  bottom: "inception_3a/pool"
  top: "inception_3a/pool_proj"
  param {
    lr_mult: 1
    decay_mult: 1
  }
  param {
    lr_mult: 2
    decay_mult: 0
  }
  convolution_param {
    num_output: 32
    kernel_size: 1
    weight_filler {
      type: "xavier"
      std: 0.1
    }
    bias_filler {
      type: "constant"
      value: 0.2
    }
  }
}
layer {
  name: "inception_3a/relu_pool_proj"
  type: "ReLU"
  bottom: "inception_3a/pool_proj"
  top: "inception_3a/pool_proj"
}
layer {
  name: "inception_3a/output"
  type: "Concat"
  bottom: "inception_3a/1x1"
  bottom: "inception_3a/3x3"
  bottom: "inception_3a/5x5"
  bottom: "inception_3a/pool_proj"
  top: "inception_3a/output"
}
layer {
  name: "inception_3b/1x1"
  type: "Convolution"
  bottom: "inception_3a/output"
  top: "inception_3b/1x1"
  param {
    lr_mult: 1
    decay_mult: 1
  }
  param {
    lr_mult: 2
    decay_mult: 0
  }
  convolution_param {
    num_output: 128
    kernel_size: 1
    weight_filler {
      type: "xavier"
      std: 0.03
    }
    bias_filler {
      type: "constant"
      value: 0.2
    }
  }
}
layer {
  name: "inception_3b/relu_1x1"
  type: "ReLU"
  bottom: "inception_3b/1x1"
  top: "inception_3b/1x1"
}
layer {
  name: "inception_3b/3x3_reduce"
  type: "Convolution"
  bottom: "inception_3a/output"
  top: "inception_3b/3x3_reduce"
  param {
    lr_mult: 1
    decay_mult: 1
  }
  param {
    lr_mult: 2
    decay_mult: 0
  }
  convolution_param {
    num_output: 128
    kernel_size: 1
    weight_filler {
      type: "xavier"
      std: 0.09
    }
    bias_filler {
      type: "constant"
      value: 0.2
    }
  }
}
layer {
  name: "inception_3b/relu_3x3_reduce"
  type: "ReLU"
  bottom: "inception_3b/3x3_reduce"
  top: "inception_3b/3x3_reduce"
}
layer {
  name: "inception_3b/3x3"
  type: "Convolution"
  bottom: "inception_3b/3x3_reduce"
  top: "inception_3b/3x3"
  param {
    lr_mult: 1
    decay_mult: 1
  }
  param {
    lr_mult: 2
    decay_mult: 0
  }
  convolution_param {
    num_output: 192
    pad: 1
    kernel_size: 3
    weight_filler {
      type: "xavier"
      std: 0.03
    }
    bias_filler {
      type: "constant"
      value: 0.2
    }
  }
}
layer {
  name: "inception_3b/relu_3x3"
  type: "ReLU"
  bottom: "inception_3b/3x3"
  top: "inception_3b/3x3"
}
layer {
  name: "inception_3b/5x5_reduce"
  type: "Convolution"
  bottom: "inception_3a/output"
  top: "inception_3b/5x5_reduce"
  param {
    lr_mult: 1
    decay_mult: 1
  }
  param {
    lr_mult: 2
    decay_mult: 0
  }
  convolution_param {
    num_output: 32
    kernel_size: 1
    weight_filler {
      type: "xavier"
      std: 0.2
    }
    bias_filler {
      type: "constant"
      value: 0.2
    }
  }
}
layer {
  name: "inception_3b/relu_5x5_reduce"
  type: "ReLU"
  bottom: "inception_3b/5x5_reduce"
  top: "inception_3b/5x5_reduce"
}
layer {
  name: "inception_3b/5x5"
  type: "Convolution"
  bottom: "inception_3b/5x5_reduce"
  top: "inception_3b/5x5"
  param {
    lr_mult: 1
    decay_mult: 1
  }
  param {
    lr_mult: 2
    decay_mult: 0
  }
  convolution_param {
    num_output: 96
    pad: 2
    kernel_size: 5
    weight_filler {
      type: "xavier"
      std: 0.03
    }
    bias_filler {
      type: "constant"
      value: 0.2
    }
  }
}
layer {
  name: "inception_3b/relu_5x5"
  type: "ReLU"
  bottom: "inception_3b/5x5"
  top: "inception_3b/5x5"
}
layer {
  name: "inception_3b/pool"
  type: "Pooling"
  bottom: "inception_3a/output"
  top: "inception_3b/pool"
  pooling_param {
    pool: MAX
    kernel_size: 3
    stride: 1
    pad: 1
  }
}
layer {
  name: "inception_3b/pool_proj"
  type: "Convolution"
  bottom: "inception_3b/pool"
  top: "inception_3b/pool_proj"
  param {
    lr_mult: 1
    decay_mult: 1
  }
  param {
    lr_mult: 2
    decay_mult: 0
  }
  convolution_param {
    num_output: 64
    kernel_size: 1
    weight_filler {
      type: "xavier"
      std: 0.1
    }
    bias_filler {
      type: "constant"
      value: 0.2
    }
  }
}
layer {
  name: "inception_3b/relu_pool_proj"
  type: "ReLU"
  bottom: "inception_3b/pool_proj"
  top: "inception_3b/pool_proj"
}
layer {
  name: "inception_3b/output"
  type: "Concat"
  bottom: "inception_3b/1x1"
  bottom: "inception_3b/3x3"
  bottom: "inception_3b/5x5"
  bottom: "inception_3b/pool_proj"
  top: "inception_3b/output"
}
layer {
  name: "pool3/3x3_s2"
  type: "Pooling"
  bottom: "inception_3b/output"
  top: "pool3/3x3_s2"
  pooling_param {
    pool: MAX
    kernel_size: 3
    stride: 2
  }
}
layer {
  name: "inception_4a/1x1"
  type: "Convolution"
  bottom: "pool3/3x3_s2"
  top: "inception_4a/1x1"
  param {
    lr_mult: 1
    decay_mult: 1
  }
  param {
    lr_mult: 2
    decay_mult: 0
  }
  convolution_param {
    num_output: 192
    kernel_size: 1
    weight_filler {
      type: "xavier"
      std: 0.03
    }
    bias_filler {
      type: "constant"
      value: 0.2
    }
  }
}
layer {
  name: "inception_4a/relu_1x1"
  type: "ReLU"
  bottom: "inception_4a/1x1"
  top: "inception_4a/1x1"
}
layer {
  name: "inception_4a/3x3_reduce"
  type: "Convolution"
  bottom: "pool3/3x3_s2"
  top: "inception_4a/3x3_reduce"
  param {
    lr_mult: 1
    decay_mult: 1
  }
  param {
    lr_mult: 2
    decay_mult: 0
  }
  convolution_param {
    num_output: 96
    kernel_size: 1
    weight_filler {
      type: "xavier"
      std: 0.09
    }
    bias_filler {
      type: "constant"
      value: 0.2
    }
  }
}
layer {
  name: "inception_4a/relu_3x3_reduce"
  type: "ReLU"
  bottom: "inception_4a/3x3_reduce"
  top: "inception_4a/3x3_reduce"
}
layer {
  name: "inception_4a/3x3"
  type: "Convolution"
  bottom: "inception_4a/3x3_reduce"
  top: "inception_4a/3x3"
  param {
    lr_mult: 1
    decay_mult: 1
  }
  param {
    lr_mult: 2
    decay_mult: 0
  }
  convolution_param {
    num_output: 208
    pad: 1
    kernel_size: 3
    weight_filler {
      type: "xavier"
      std: 0.03
    }
    bias_filler {
      type: "constant"
      value: 0.2
    }
  }
}
layer {
  name: "inception_4a/relu_3x3"
  type: "ReLU"
  bottom: "inception_4a/3x3"
  top: "inception_4a/3x3"
}
layer {
  name: "inception_4a/5x5_reduce"
  type: "Convolution"
  bottom: "pool3/3x3_s2"
  top: "inception_4a/5x5_reduce"
  param {
    lr_mult: 1
    decay_mult: 1
  }
  param {
    lr_mult: 2
    decay_mult: 0
  }
  convolution_param {
    num_output: 16
    kernel_size: 1
    weight_filler {
      type: "xavier"
      std: 0.2
    }
    bias_filler {
      type: "constant"
      value: 0.2
    }
  }
}
layer {
  name: "inception_4a/relu_5x5_reduce"
  type: "ReLU"
  bottom: "inception_4a/5x5_reduce"
  top: "inception_4a/5x5_reduce"
}
layer {
  name: "inception_4a/5x5"
  type: "Convolution"
  bottom: "inception_4a/5x5_reduce"
  top: "inception_4a/5x5"
  param {
    lr_mult: 1
    decay_mult: 1
  }
  param {
    lr_mult: 2
    decay_mult: 0
  }
  convolution_param {
    num_output: 48
    pad: 2
    kernel_size: 5
    weight_filler {
      type: "xavier"
      std: 0.03
    }
    bias_filler {
      type: "constant"
      value: 0.2
    }
  }
}
layer {
  name: "inception_4a/relu_5x5"
  type: "ReLU"
  bottom: "inception_4a/5x5"
  top: "inception_4a/5x5"
}
layer {
  name: "inception_4a/pool"
  type: "Pooling"
  bottom: "pool3/3x3_s2"
  top: "inception_4a/pool"
  pooling_param {
    pool: MAX
    kernel_size: 3
    stride: 1
    pad: 1
  }
}
layer {
  name: "inception_4a/pool_proj"
  type: "Convolution"
  bottom: "inception_4a/pool"
  top: "inception_4a/pool_proj"
  param {
    lr_mult: 1
    decay_mult: 1
  }
  param {
    lr_mult: 2
    decay_mult: 0
  }
  convolution_param {
    num_output: 64
    kernel_size: 1
    weight_filler {
      type: "xavier"
      std: 0.1
    }
    bias_filler {
      type: "constant"
      value: 0.2
    }
  }
}
layer {
  name: "inception_4a/relu_pool_proj"
  type: "ReLU"
  bottom: "inception_4a/pool_proj"
  top: "inception_4a/pool_proj"
}
layer {
  name: "inception_4a/output"
  type: "Concat"
  bottom: "inception_4a/1x1"
  bottom: "inception_4a/3x3"
  bottom: "inception_4a/5x5"
  bottom: "inception_4a/pool_proj"
  top: "inception_4a/output"
}
layer {
  name: "loss1/ave_pool"
  type: "Pooling"
  bottom: "inception_4a/output"
  top: "loss1/ave_pool"
  pooling_param {
    pool: AVE
    kernel_size: 5
    stride: 3
  }
}
layer {
  name: "loss1/conv"
  type: "Convolution"
  bottom: "loss1/ave_pool"
  top: "loss1/conv"
  param {
    lr_mult: 1
    decay_mult: 1
  }
  param {
    lr_mult: 2
    decay_mult: 0
  }
  convolution_param {
    num_output: 128
    kernel_size: 1
    weight_filler {
      type: "xavier"
      std: 0.08
    }
    bias_filler {
      type: "constant"
      value: 0.2
    }
  }
}
layer {
  name: "loss1/relu_conv"
  type: "ReLU"
  bottom: "loss1/conv"
  top: "loss1/conv"
}
layer {
  name: "loss1/fc"
  type: "InnerProduct"
  bottom: "loss1/conv"
  top: "loss1/fc"
  param {
    lr_mult: 1
    decay_mult: 1
  }
  param {
    lr_mult: 2
    decay_mult: 0
  }
  inner_product_param {
    num_output: 1024
    weight_filler {
      type: "xavier"
      std: 0.02
    }
    bias_filler {
      type: "constant"
      value: 0.2
    }
  }
}
layer {
  name: "loss1/relu_fc"
  type: "ReLU"
  bottom: "loss1/fc"
  top: "loss1/fc"
}
layer {
  name: "loss1/drop_fc"
  type: "Dropout"
  bottom: "loss1/fc"
  top: "loss1/fc"
  dropout_param {
    dropout_ratio: 0.7
  }
}
layer {
  name: "loss1/classifier_plantvillage"
  type: "InnerProduct"
  bottom: "loss1/fc"
  top: "loss1/classifier_plantvillage"
  param {
    lr_mult: 1
    decay_mult: 1
  }
  param {
    lr_mult: 2
    decay_mult: 0
  }
  inner_product_param {
    num_output: 38
    weight_filler {
      type: "xavier"
      std: 0.0009765625
    }
    bias_filler {
      type: "constant"
      value: 0
    }
  }
}
layer {
  name: "inception_4b/1x1"
  type: "Convolution"
  bottom: "inception_4a/output"
  top: "inception_4b/1x1"
  param {
    lr_mult: 1
    decay_mult: 1
  }
  param {
    lr_mult: 2
    decay_mult: 0
  }
  convolution_param {
    num_output: 160
    kernel_size: 1
    weight_filler {
      type: "xavier"
      std: 0.03
    }
    bias_filler {
      type: "constant"
      value: 0.2
    }
  }
}
layer {
  name: "inception_4b/relu_1x1"
  type: "ReLU"
  bottom: "inception_4b/1x1"
  top: "inception_4b/1x1"
}
layer {
  name: "inception_4b/3x3_reduce"
  type: "Convolution"
  bottom: "inception_4a/output"
  top: "inception_4b/3x3_reduce"
  param {
    lr_mult: 1
    decay_mult: 1
  }
  param {
    lr_mult: 2
    decay_mult: 0
  }
  convolution_param {
    num_output: 112
    kernel_size: 1
    weight_filler {
      type: "xavier"
      std: 0.09
    }
    bias_filler {
      type: "constant"
      value: 0.2
    }
  }
}
layer {
  name: "inception_4b/relu_3x3_reduce"
  type: "ReLU"
  bottom: "inception_4b/3x3_reduce"
  top: "inception_4b/3x3_reduce"
}
layer {
  name: "inception_4b/3x3"
  type: "Convolution"
  bottom: "inception_4b/3x3_reduce"
  top: "inception_4b/3x3"
  param {
    lr_mult: 1
    decay_mult: 1
  }
  param {
    lr_mult: 2
    decay_mult: 0
  }
  convolution_param {
    num_output: 224
    pad: 1
    kernel_size: 3
    weight_filler {
      type: "xavier"
      std: 0.03
    }
    bias_filler {
      type: "constant"
      value: 0.2
    }
  }
}
layer {
  name: "inception_4b/relu_3x3"
  type: "ReLU"
  bottom: "inception_4b/3x3"
  top: "inception_4b/3x3"
}
layer {
  name: "inception_4b/5x5_reduce"
  type: "Convolution"
  bottom: "inception_4a/output"
  top: "inception_4b/5x5_reduce"
  param {
    lr_mult: 1
    decay_mult: 1
  }
  param {
    lr_mult: 2
    decay_mult: 0
  }
  convolution_param {
    num_output: 24
    kernel_size: 1
    weight_filler {
      type: "xavier"
      std: 0.2
    }
    bias_filler {
      type: "constant"
      value: 0.2
    }
  }
}
layer {
  name: "inception_4b/relu_5x5_reduce"
  type: "ReLU"
  bottom: "inception_4b/5x5_reduce"
  top: "inception_4b/5x5_reduce"
}
layer {
  name: "inception_4b/5x5"
  type: "Convolution"
  bottom: "inception_4b/5x5_reduce"
  top: "inception_4b/5x5"
  param {
    lr_mult: 1
    decay_mult: 1
  }
  param {
    lr_mult: 2
    decay_mult: 0
  }
  convolution_param {
    num_output: 64
    pad: 2
    kernel_size: 5
    weight_filler {
      type: "xavier"
      std: 0.03
    }
    bias_filler {
      type: "constant"
      value: 0.2
    }
  }
}
layer {
  name: "inception_4b/relu_5x5"
  type: "ReLU"
  bottom: "inception_4b/5x5"
  top: "inception_4b/5x5"
}
layer {
  name: "inception_4b/pool"
  type: "Pooling"
  bottom: "inception_4a/output"
  top: "inception_4b/pool"
  pooling_param {
    pool: MAX
    kernel_size: 3
    stride: 1
    pad: 1
  }
}
layer {
  name: "inception_4b/pool_proj"
  type: "Convolution"
  bottom: "inception_4b/pool"
  top: "inception_4b/pool_proj"
  param {
    lr_mult: 1
    decay_mult: 1
  }
  param {
    lr_mult: 2
    decay_mult: 0
  }
  convolution_param {
    num_output: 64
    kernel_size: 1
    weight_filler {
      type: "xavier"
      std: 0.1
    }
    bias_filler {
      type: "constant"
      value: 0.2
    }
  }
}
layer {
  name: "inception_4b/relu_pool_proj"
  type: "ReLU"
  bottom: "inception_4b/pool_proj"
  top: "inception_4b/pool_proj"
}
layer {
  name: "inception_4b/output"
  type: "Concat"
  bottom: "inception_4b/1x1"
  bottom: "inception_4b/3x3"
  bottom: "inception_4b/5x5"
  bottom: "inception_4b/pool_proj"
  top: "inception_4b/output"
}
layer {
  name: "inception_4c/1x1"
  type: "Convolution"
  bottom: "inception_4b/output"
  top: "inception_4c/1x1"
  param {
    lr_mult: 1
    decay_mult: 1
  }
  param {
    lr_mult: 2
    decay_mult: 0
  }
  convolution_param {
    num_output: 128
    kernel_size: 1
    weight_filler {
      type: "xavier"
      std: 0.03
    }
    bias_filler {
      type: "constant"
      value: 0.2
    }
  }
}
layer {
  name: "inception_4c/relu_1x1"
  type: "ReLU"
  bottom: "inception_4c/1x1"
  top: "inception_4c/1x1"
}
layer {
  name: "inception_4c/3x3_reduce"
  type: "Convolution"
  bottom: "inception_4b/output"
  top: "inception_4c/3x3_reduce"
  param {
    lr_mult: 1
    decay_mult: 1
  }
  param {
    lr_mult: 2
    decay_mult: 0
  }
  convolution_param {
    num_output: 128
    kernel_size: 1
    weight_filler {
      type: "xavier"
      std: 0.09
    }
    bias_filler {
      type: "constant"
      value: 0.2
    }
  }
}
layer {
  name: "inception_4c/relu_3x3_reduce"
  type: "ReLU"
  bottom: "inception_4c/3x3_reduce"
  top: "inception_4c/3x3_reduce"
}
layer {
  name: "inception_4c/3x3"
  type: "Convolution"
  bottom: "inception_4c/3x3_reduce"
  top: "inception_4c/3x3"
  param {
    lr_mult: 1
    decay_mult: 1
  }
  param {
    lr_mult: 2
    decay_mult: 0
  }
  convolution_param {
    num_output: 256
    pad: 1
    kernel_size: 3
    weight_filler {
      type: "xavier"
      std: 0.03
    }
    bias_filler {
      type: "constant"
      value: 0.2
    }
  }
}
layer {
  name: "inception_4c/relu_3x3"
  type: "ReLU"
  bottom: "inception_4c/3x3"
  top: "inception_4c/3x3"
}
layer {
  name: "inception_4c/5x5_reduce"
  type: "Convolution"
  bottom: "inception_4b/output"
  top: "inception_4c/5x5_reduce"
  param {
    lr_mult: 1
    decay_mult: 1
  }
  param {
    lr_mult: 2
    decay_mult: 0
  }
  convolution_param {
    num_output: 24
    kernel_size: 1
    weight_filler {
      type: "xavier"
      std: 0.2
    }
    bias_filler {
      type: "constant"
      value: 0.2
    }
  }
}
layer {
  name: "inception_4c/relu_5x5_reduce"
  type: "ReLU"
  bottom: "inception_4c/5x5_reduce"
  top: "inception_4c/5x5_reduce"
}
layer {
  name: "inception_4c/5x5"
  type: "Convolution"
  bottom: "inception_4c/5x5_reduce"
  top: "inception_4c/5x5"
  param {
    lr_mult: 1
    decay_mult: 1
  }
  param {
    lr_mult: 2
    decay_mult: 0
  }
  convolution_param {
    num_output: 64
    pad: 2
    kernel_size: 5
    weight_filler {
      type: "xavier"
      std: 0.03
    }
    bias_filler {
      type: "constant"
      value: 0.2
    }
  }
}
layer {
  name: "inception_4c/relu_5x5"
  type: "ReLU"
  bottom: "inception_4c/5x5"
  top: "inception_4c/5x5"
}
layer {
  name: "inception_4c/pool"
  type: "Pooling"
  bottom: "inception_4b/output"
  top: "inception_4c/pool"
  pooling_param {
    pool: MAX
    kernel_size: 3
    stride: 1
    pad: 1
  }
}
layer {
  name: "inception_4c/pool_proj"
  type: "Convolution"
  bottom: "inception_4c/pool"
  top: "inception_4c/pool_proj"
  param {
    lr_mult: 1
    decay_mult: 1
  }
  param {
    lr_mult: 2
    decay_mult: 0
  }
  convolution_param {
    num_output: 64
    kernel_size: 1
    weight_filler {
      type: "xavier"
      std: 0.1
    }
    bias_filler {
      type: "constant"
      value: 0.2
    }
  }
}
layer {
  name: "inception_4c/relu_pool_proj"
  type: "ReLU"
  bottom: "inception_4c/pool_proj"
  top: "inception_4c/pool_proj"
}
layer {
  name: "inception_4c/output"
  type: "Concat"
  bottom: "inception_4c/1x1"
  bottom: "inception_4c/3x3"
  bottom: "inception_4c/5x5"
  bottom: "inception_4c/pool_proj"
  top: "inception_4c/output"
}
layer {
  name: "inception_4d/1x1"
  type: "Convolution"
  bottom: "inception_4c/output"
  top: "inception_4d/1x1"
  param {
    lr_mult: 1
    decay_mult: 1
  }
  param {
    lr_mult: 2
    decay_mult: 0
  }
  convolution_param {
    num_output: 112
    kernel_size: 1
    weight_filler {
      type: "xavier"
      std: 0.03
    }
    bias_filler {
      type: "constant"
      value: 0.2
    }
  }
}
layer {
  name: "inception_4d/relu_1x1"
  type: "ReLU"
  bottom: "inception_4d/1x1"
  top: "inception_4d/1x1"
}
layer {
  name: "inception_4d/3x3_reduce"
  type: "Convolution"
  bottom: "inception_4c/output"
  top: "inception_4d/3x3_reduce"
  param {
    lr_mult: 1
    decay_mult: 1
  }
  param {
    lr_mult: 2
    decay_mult: 0
  }
  convolution_param {
    num_output: 144
    kernel_size: 1
    weight_filler {
      type: "xavier"
      std: 0.09
    }
    bias_filler {
      type: "constant"
      value: 0.2
    }
  }
}
layer {
  name: "inception_4d/relu_3x3_reduce"
  type: "ReLU"
  bottom: "inception_4d/3x3_reduce"
  top: "inception_4d/3x3_reduce"
}
layer {
  name: "inception_4d/3x3"
  type: "Convolution"
  bottom: "inception_4d/3x3_reduce"
  top: "inception_4d/3x3"
  param {
    lr_mult: 1
    decay_mult: 1
  }
  param {
    lr_mult: 2
    decay_mult: 0
  }
  convolution_param {
    num_output: 288
    pad: 1
    kernel_size: 3
    weight_filler {
      type: "xavier"
      std: 0.03
    }
    bias_filler {
      type: "constant"
      value: 0.2
    }
  }
}
layer {
  name: "inception_4d/relu_3x3"
  type: "ReLU"
  bottom: "inception_4d/3x3"
  top: "inception_4d/3x3"
}
layer {
  name: "inception_4d/5x5_reduce"
  type: "Convolution"
  bottom: "inception_4c/output"
  top: "inception_4d/5x5_reduce"
  param {
    lr_mult: 1
    decay_mult: 1
  }
  param {
    lr_mult: 2
    decay_mult: 0
  }
  convolution_param {
    num_output: 32
    kernel_size: 1
    weight_filler {
      type: "xavier"
      std: 0.2
    }
    bias_filler {
      type: "constant"
      value: 0.2
    }
  }
}
layer {
  name: "inception_4d/relu_5x5_reduce"
  type: "ReLU"
  bottom: "inception_4d/5x5_reduce"
  top: "inception_4d/5x5_reduce"
}
layer {
  name: "inception_4d/5x5"
  type: "Convolution"
  bottom: "inception_4d/5x5_reduce"
  top: "inception_4d/5x5"
  param {
    lr_mult: 1
    decay_mult: 1
  }
  param {
    lr_mult: 2
    decay_mult: 0
  }
  convolution_param {
    num_output: 64
    pad: 2
    kernel_size: 5
    weight_filler {
      type: "xavier"
      std: 0.03
    }
    bias_filler {
      type: "constant"
      value: 0.2
    }
  }
}
layer {
  name: "inception_4d/relu_5x5"
  type: "ReLU"
  bottom: "inception_4d/5x5"
  top: "inception_4d/5x5"
}
layer {
  name: "inception_4d/pool"
  type: "Pooling"
  bottom: "inception_4c/output"
  top: "inception_4d/pool"
  pooling_param {
    pool: MAX
    kernel_size: 3
    stride: 1
    pad: 1
  }
}
layer {
  name: "inception_4d/pool_proj"
  type: "Convolution"
  bottom: "inception_4d/pool"
  top: "inception_4d/pool_proj"
  param {
    lr_mult: 1
    decay_mult: 1
  }
  param {
    lr_mult: 2
    decay_mult: 0
  }
  convolution_param {
    num_output: 64
    kernel_size: 1
    weight_filler {
      type: "xavier"
      std: 0.1
    }
    bias_filler {
      type: "constant"
      value: 0.2
    }
  }
}
layer {
  name: "inception_4d/relu_pool_proj"
  type: "ReLU"
  bottom: "inception_4d/pool_proj"
  top: "inception_4d/pool_proj"
}
layer {
  name: "inception_4d/output"
  type: "Concat"
  bottom: "inception_4d/1x1"
  bottom: "inception_4d/3x3"
  bottom: "inception_4d/5x5"
  bottom: "inception_4d/pool_proj"
  top: "inception_4d/output"
}
layer {
  name: "loss2/ave_pool"
  type: "Pooling"
  bottom: "inception_4d/output"
  top: "loss2/ave_pool"
  pooling_param {
    pool: AVE
    kernel_size: 5
    stride: 3
  }
}
layer {
  name: "loss2/conv"
  type: "Convolution"
  bottom: "loss2/ave_pool"
  top: "loss2/conv"
  param {
    lr_mult: 1
    decay_mult: 1
  }
  param {
    lr_mult: 2
    decay_mult: 0
  }
  convolution_param {
    num_output: 128
    kernel_size: 1
    weight_filler {
      type: "xavier"
      std: 0.08
    }
    bias_filler {
      type: "constant"
      value: 0.2
    }
  }
}
layer {
  name: "loss2/relu_conv"
  type: "ReLU"
  bottom: "loss2/conv"
  top: "loss2/conv"
}
layer {
  name: "loss2/fc"
  type: "InnerProduct"
  bottom: "loss2/conv"
  top: "loss2/fc"
  param {
    lr_mult: 1
    decay_mult: 1
  }
  param {
    lr_mult: 2
    decay_mult: 0
  }
  inner_product_param {
    num_output: 1024
    weight_filler {
      type: "xavier"
      std: 0.02
    }
    bias_filler {
      type: "constant"
      value: 0.2
    }
  }
}
layer {
  name: "loss2/relu_fc"
  type: "ReLU"
  bottom: "loss2/fc"
  top: "loss2/fc"
}
layer {
  name: "loss2/drop_fc"
  type: "Dropout"
  bottom: "loss2/fc"
  top: "loss2/fc"
  dropout_param {
    dropout_ratio: 0.7
  }
}
layer {
  name: "loss2/classifier_plantvillage"
  type: "InnerProduct"
  bottom: "loss2/fc"
  top: "loss2/classifier_plantvillage"
  param {
    lr_mult: 1
    decay_mult: 1
  }
  param {
    lr_mult: 2
    decay_mult: 0
  }
  inner_product_param {
    num_output: 38
    weight_filler {
      type: "xavier"
      std: 0.0009765625
    }
    bias_filler {
      type: "constant"
      value: 0
    }
  }
}
layer {
  name: "inception_4e/1x1"
  type: "Convolution"
  bottom: "inception_4d/output"
  top: "inception_4e/1x1"
  param {
    lr_mult: 1
    decay_mult: 1
  }
  param {
    lr_mult: 2
    decay_mult: 0
  }
  convolution_param {
    num_output: 256
    kernel_size: 1
    weight_filler {
      type: "xavier"
      std: 0.03
    }
    bias_filler {
      type: "constant"
      value: 0.2
    }
  }
}
layer {
  name: "inception_4e/relu_1x1"
  type: "ReLU"
  bottom: "inception_4e/1x1"
  top: "inception_4e/1x1"
}
layer {
  name: "inception_4e/3x3_reduce"
  type: "Convolution"
  bottom: "inception_4d/output"
  top: "inception_4e/3x3_reduce"
  param {
    lr_mult: 1
    decay_mult: 1
  }
  param {
    lr_mult: 2
    decay_mult: 0
  }
  convolution_param {
    num_output: 160
    kernel_size: 1
    weight_filler {
      type: "xavier"
      std: 0.09
    }
    bias_filler {
      type: "constant"
      value: 0.2
    }
  }
}
layer {
  name: "inception_4e/relu_3x3_reduce"
  type: "ReLU"
  bottom: "inception_4e/3x3_reduce"
  top: "inception_4e/3x3_reduce"
}
layer {
  name: "inception_4e/3x3"
  type: "Convolution"
  bottom: "inception_4e/3x3_reduce"
  top: "inception_4e/3x3"
  param {
    lr_mult: 1
    decay_mult: 1
  }
  param {
    lr_mult: 2
    decay_mult: 0
  }
  convolution_param {
    num_output: 320
    pad: 1
    kernel_size: 3
    weight_filler {
      type: "xavier"
      std: 0.03
    }
    bias_filler {
      type: "constant"
      value: 0.2
    }
  }
}
layer {
  name: "inception_4e/relu_3x3"
  type: "ReLU"
  bottom: "inception_4e/3x3"
  top: "inception_4e/3x3"
}
layer {
  name: "inception_4e/5x5_reduce"
  type: "Convolution"
  bottom: "inception_4d/output"
  top: "inception_4e/5x5_reduce"
  param {
    lr_mult: 1
    decay_mult: 1
  }
  param {
    lr_mult: 2
    decay_mult: 0
  }
  convolution_param {
    num_output: 32
    kernel_size: 1
    weight_filler {
      type: "xavier"
      std: 0.2
    }
    bias_filler {
      type: "constant"
      value: 0.2
    }
  }
}
layer {
  name: "inception_4e/relu_5x5_reduce"
  type: "ReLU"
  bottom: "inception_4e/5x5_reduce"
  top: "inception_4e/5x5_reduce"
}
layer {
  name: "inception_4e/5x5"
  type: "Convolution"
  bottom: "inception_4e/5x5_reduce"
  top: "inception_4e/
I0403 14:36:43.211544 10876 layer_factory.hpp:77] Creating layer data
I0403 14:36:43.212146 10876 net.cpp:91] Creating Layer data
I0403 14:36:43.212178 10876 net.cpp:399] data -> data
I0403 14:36:43.212241 10876 net.cpp:399] data -> label
I0403 14:36:43.212278 10876 data_transformer.cpp:25] Loading mean file from: /home/mohanty/data/final_dataset/lmdb/grayscale-60-40/mean.binaryproto
I0403 14:36:43.218845 10879 db_lmdb.cpp:38] Opened lmdb /home/mohanty/data/final_dataset/lmdb/grayscale-60-40/test_db
I0403 14:36:43.230423 10876 data_layer.cpp:41] output data size: 24,3,224,224
I0403 14:36:43.258854 10876 net.cpp:141] Setting up data
I0403 14:36:43.258960 10876 net.cpp:148] Top shape: 24 3 224 224 (3612672)
I0403 14:36:43.258985 10876 net.cpp:148] Top shape: 24 (24)
I0403 14:36:43.258999 10876 net.cpp:156] Memory required for data: 14450784
I0403 14:36:43.259029 10876 layer_factory.hpp:77] Creating layer label_data_1_split
I0403 14:36:43.259057 10876 net.cpp:91] Creating Layer label_data_1_split
I0403 14:36:43.259075 10876 net.cpp:425] label_data_1_split <- label
I0403 14:36:43.259122 10876 net.cpp:399] label_data_1_split -> label_data_1_split_0
I0403 14:36:43.259155 10876 net.cpp:399] label_data_1_split -> label_data_1_split_1
I0403 14:36:43.259177 10876 net.cpp:399] label_data_1_split -> label_data_1_split_2
I0403 14:36:43.259201 10876 net.cpp:399] label_data_1_split -> label_data_1_split_3
I0403 14:36:43.259222 10876 net.cpp:399] label_data_1_split -> label_data_1_split_4
I0403 14:36:43.259241 10876 net.cpp:399] label_data_1_split -> label_data_1_split_5
I0403 14:36:43.259261 10876 net.cpp:399] label_data_1_split -> label_data_1_split_6
I0403 14:36:43.259282 10876 net.cpp:399] label_data_1_split -> label_data_1_split_7
I0403 14:36:43.259302 10876 net.cpp:399] label_data_1_split -> label_data_1_split_8
I0403 14:36:43.259326 10876 net.cpp:399] label_data_1_split -> label_data_1_split_9
I0403 14:36:43.259449 10876 net.cpp:141] Setting up label_data_1_split
I0403 14:36:43.259474 10876 net.cpp:148] Top shape: 24 (24)
I0403 14:36:43.259492 10876 net.cpp:148] Top shape: 24 (24)
I0403 14:36:43.259508 10876 net.cpp:148] Top shape: 24 (24)
I0403 14:36:43.259524 10876 net.cpp:148] Top shape: 24 (24)
I0403 14:36:43.259541 10876 net.cpp:148] Top shape: 24 (24)
I0403 14:36:43.259557 10876 net.cpp:148] Top shape: 24 (24)
I0403 14:36:43.259574 10876 net.cpp:148] Top shape: 24 (24)
I0403 14:36:43.259590 10876 net.cpp:148] Top shape: 24 (24)
I0403 14:36:43.259608 10876 net.cpp:148] Top shape: 24 (24)
I0403 14:36:43.259624 10876 net.cpp:148] Top shape: 24 (24)
I0403 14:36:43.259672 10876 net.cpp:156] Memory required for data: 14451744
I0403 14:36:43.259696 10876 layer_factory.hpp:77] Creating layer conv1/7x7_s2
I0403 14:36:43.259728 10876 net.cpp:91] Creating Layer conv1/7x7_s2
I0403 14:36:43.259748 10876 net.cpp:425] conv1/7x7_s2 <- data
I0403 14:36:43.259768 10876 net.cpp:399] conv1/7x7_s2 -> conv1/7x7_s2
I0403 14:36:43.405076 10876 net.cpp:141] Setting up conv1/7x7_s2
I0403 14:36:43.405169 10876 net.cpp:148] Top shape: 24 64 112 112 (19267584)
I0403 14:36:43.405187 10876 net.cpp:156] Memory required for data: 91522080
I0403 14:36:43.405220 10876 layer_factory.hpp:77] Creating layer conv1/relu_7x7
I0403 14:36:43.405248 10876 net.cpp:91] Creating Layer conv1/relu_7x7
I0403 14:36:43.405267 10876 net.cpp:425] conv1/relu_7x7 <- conv1/7x7_s2
I0403 14:36:43.405287 10876 net.cpp:386] conv1/relu_7x7 -> conv1/7x7_s2 (in-place)
I0403 14:36:43.405549 10876 net.cpp:141] Setting up conv1/relu_7x7
I0403 14:36:43.405575 10876 net.cpp:148] Top shape: 24 64 112 112 (19267584)
I0403 14:36:43.405592 10876 net.cpp:156] Memory required for data: 168592416
I0403 14:36:43.405608 10876 layer_factory.hpp:77] Creating layer pool1/3x3_s2
I0403 14:36:43.405632 10876 net.cpp:91] Creating Layer pool1/3x3_s2
I0403 14:36:43.405660 10876 net.cpp:425] pool1/3x3_s2 <- conv1/7x7_s2
I0403 14:36:43.405709 10876 net.cpp:399] pool1/3x3_s2 -> pool1/3x3_s2
I0403 14:36:43.405788 10876 net.cpp:141] Setting up pool1/3x3_s2
I0403 14:36:43.405813 10876 net.cpp:148] Top shape: 24 64 56 56 (4816896)
I0403 14:36:43.405829 10876 net.cpp:156] Memory required for data: 187860000
I0403 14:36:43.405844 10876 layer_factory.hpp:77] Creating layer pool1/norm1
I0403 14:36:43.405869 10876 net.cpp:91] Creating Layer pool1/norm1
I0403 14:36:43.405887 10876 net.cpp:425] pool1/norm1 <- pool1/3x3_s2
I0403 14:36:43.405905 10876 net.cpp:399] pool1/norm1 -> pool1/norm1
I0403 14:36:43.406196 10876 net.cpp:141] Setting up pool1/norm1
I0403 14:36:43.406224 10876 net.cpp:148] Top shape: 24 64 56 56 (4816896)
I0403 14:36:43.406239 10876 net.cpp:156] Memory required for data: 207127584
I0403 14:36:43.406255 10876 layer_factory.hpp:77] Creating layer conv2/3x3_reduce
I0403 14:36:43.406280 10876 net.cpp:91] Creating Layer conv2/3x3_reduce
I0403 14:36:43.406297 10876 net.cpp:425] conv2/3x3_reduce <- pool1/norm1
I0403 14:36:43.406316 10876 net.cpp:399] conv2/3x3_reduce -> conv2/3x3_reduce
I0403 14:36:43.407706 10876 net.cpp:141] Setting up conv2/3x3_reduce
I0403 14:36:43.407737 10876 net.cpp:148] Top shape: 24 64 56 56 (4816896)
I0403 14:36:43.407753 10876 net.cpp:156] Memory required for data: 226395168
I0403 14:36:43.407775 10876 layer_factory.hpp:77] Creating layer conv2/relu_3x3_reduce
I0403 14:36:43.407794 10876 net.cpp:91] Creating Layer conv2/relu_3x3_reduce
I0403 14:36:43.407810 10876 net.cpp:425] conv2/relu_3x3_reduce <- conv2/3x3_reduce
I0403 14:36:43.407829 10876 net.cpp:386] conv2/relu_3x3_reduce -> conv2/3x3_reduce (in-place)
I0403 14:36:43.408087 10876 net.cpp:141] Setting up conv2/relu_3x3_reduce
I0403 14:36:43.408118 10876 net.cpp:148] Top shape: 24 64 56 56 (4816896)
I0403 14:36:43.408134 10876 net.cpp:156] Memory required for data: 245662752
I0403 14:36:43.408150 10876 layer_factory.hpp:77] Creating layer conv2/3x3
I0403 14:36:43.408174 10876 net.cpp:91] Creating Layer conv2/3x3
I0403 14:36:43.408191 10876 net.cpp:425] conv2/3x3 <- conv2/3x3_reduce
I0403 14:36:43.408211 10876 net.cpp:399] conv2/3x3 -> conv2/3x3
I0403 14:36:43.410562 10876 net.cpp:141] Setting up conv2/3x3
I0403 14:36:43.410594 10876 net.cpp:148] Top shape: 24 192 56 56 (14450688)
I0403 14:36:43.410612 10876 net.cpp:156] Memory required for data: 303465504
I0403 14:36:43.410634 10876 layer_factory.hpp:77] Creating layer conv2/relu_3x3
I0403 14:36:43.410661 10876 net.cpp:91] Creating Layer conv2/relu_3x3
I0403 14:36:43.410678 10876 net.cpp:425] conv2/relu_3x3 <- conv2/3x3
I0403 14:36:43.410696 10876 net.cpp:386] conv2/relu_3x3 -> conv2/3x3 (in-place)
I0403 14:36:43.410863 10876 net.cpp:141] Setting up conv2/relu_3x3
I0403 14:36:43.410890 10876 net.cpp:148] Top shape: 24 192 56 56 (14450688)
I0403 14:36:43.410938 10876 net.cpp:156] Memory required for data: 361268256
I0403 14:36:43.410954 10876 layer_factory.hpp:77] Creating layer conv2/norm2
I0403 14:36:43.410974 10876 net.cpp:91] Creating Layer conv2/norm2
I0403 14:36:43.410991 10876 net.cpp:425] conv2/norm2 <- conv2/3x3
I0403 14:36:43.411010 10876 net.cpp:399] conv2/norm2 -> conv2/norm2
I0403 14:36:43.411310 10876 net.cpp:141] Setting up conv2/norm2
I0403 14:36:43.411339 10876 net.cpp:148] Top shape: 24 192 56 56 (14450688)
I0403 14:36:43.411356 10876 net.cpp:156] Memory required for data: 419071008
I0403 14:36:43.411372 10876 layer_factory.hpp:77] Creating layer pool2/3x3_s2
I0403 14:36:43.411392 10876 net.cpp:91] Creating Layer pool2/3x3_s2
I0403 14:36:43.411408 10876 net.cpp:425] pool2/3x3_s2 <- conv2/norm2
I0403 14:36:43.411427 10876 net.cpp:399] pool2/3x3_s2 -> pool2/3x3_s2
I0403 14:36:43.411479 10876 net.cpp:141] Setting up pool2/3x3_s2
I0403 14:36:43.411504 10876 net.cpp:148] Top shape: 24 192 28 28 (3612672)
I0403 14:36:43.411520 10876 net.cpp:156] Memory required for data: 433521696
I0403 14:36:43.411535 10876 layer_factory.hpp:77] Creating layer pool2/3x3_s2_pool2/3x3_s2_0_split
I0403 14:36:43.411555 10876 net.cpp:91] Creating Layer pool2/3x3_s2_pool2/3x3_s2_0_split
I0403 14:36:43.411571 10876 net.cpp:425] pool2/3x3_s2_pool2/3x3_s2_0_split <- pool2/3x3_s2
I0403 14:36:43.411589 10876 net.cpp:399] pool2/3x3_s2_pool2/3x3_s2_0_split -> pool2/3x3_s2_pool2/3x3_s2_0_split_0
I0403 14:36:43.411609 10876 net.cpp:399] pool2/3x3_s2_pool2/3x3_s2_0_split -> pool2/3x3_s2_pool2/3x3_s2_0_split_1
I0403 14:36:43.411630 10876 net.cpp:399] pool2/3x3_s2_pool2/3x3_s2_0_split -> pool2/3x3_s2_pool2/3x3_s2_0_split_2
I0403 14:36:43.411651 10876 net.cpp:399] pool2/3x3_s2_pool2/3x3_s2_0_split -> pool2/3x3_s2_pool2/3x3_s2_0_split_3
I0403 14:36:43.411718 10876 net.cpp:141] Setting up pool2/3x3_s2_pool2/3x3_s2_0_split
I0403 14:36:43.411742 10876 net.cpp:148] Top shape: 24 192 28 28 (3612672)
I0403 14:36:43.411761 10876 net.cpp:148] Top shape: 24 192 28 28 (3612672)
I0403 14:36:43.411777 10876 net.cpp:148] Top shape: 24 192 28 28 (3612672)
I0403 14:36:43.411793 10876 net.cpp:148] Top shape: 24 192 28 28 (3612672)
I0403 14:36:43.411808 10876 net.cpp:156] Memory required for data: 491324448
I0403 14:36:43.411824 10876 layer_factory.hpp:77] Creating layer inception_3a/1x1
I0403 14:36:43.411846 10876 net.cpp:91] Creating Layer inception_3a/1x1
I0403 14:36:43.411864 10876 net.cpp:425] inception_3a/1x1 <- pool2/3x3_s2_pool2/3x3_s2_0_split_0
I0403 14:36:43.411882 10876 net.cpp:399] inception_3a/1x1 -> inception_3a/1x1
I0403 14:36:43.413421 10876 net.cpp:141] Setting up inception_3a/1x1
I0403 14:36:43.413455 10876 net.cpp:148] Top shape: 24 64 28 28 (1204224)
I0403 14:36:43.413475 10876 net.cpp:156] Memory required for data: 496141344
I0403 14:36:43.413496 10876 layer_factory.hpp:77] Creating layer inception_3a/relu_1x1
I0403 14:36:43.413514 10876 net.cpp:91] Creating Layer inception_3a/relu_1x1
I0403 14:36:43.413532 10876 net.cpp:425] inception_3a/relu_1x1 <- inception_3a/1x1
I0403 14:36:43.413553 10876 net.cpp:386] inception_3a/relu_1x1 -> inception_3a/1x1 (in-place)
I0403 14:36:43.413735 10876 net.cpp:141] Setting up inception_3a/relu_1x1
I0403 14:36:43.413763 10876 net.cpp:148] Top shape: 24 64 28 28 (1204224)
I0403 14:36:43.413779 10876 net.cpp:156] Memory required for data: 500958240
I0403 14:36:43.413795 10876 layer_factory.hpp:77] Creating layer inception_3a/3x3_reduce
I0403 14:36:43.413820 10876 net.cpp:91] Creating Layer inception_3a/3x3_reduce
I0403 14:36:43.413838 10876 net.cpp:425] inception_3a/3x3_reduce <- pool2/3x3_s2_pool2/3x3_s2_0_split_1
I0403 14:36:43.413861 10876 net.cpp:399] inception_3a/3x3_reduce -> inception_3a/3x3_reduce
I0403 14:36:43.415621 10876 net.cpp:141] Setting up inception_3a/3x3_reduce
I0403 14:36:43.415653 10876 net.cpp:148] Top shape: 24 96 28 28 (1806336)
I0403 14:36:43.415671 10876 net.cpp:156] Memory required for data: 508183584
I0403 14:36:43.415694 10876 layer_factory.hpp:77] Creating layer inception_3a/relu_3x3_reduce
I0403 14:36:43.415734 10876 net.cpp:91] Creating Layer inception_3a/relu_3x3_reduce
I0403 14:36:43.415751 10876 net.cpp:425] inception_3a/relu_3x3_reduce <- inception_3a/3x3_reduce
I0403 14:36:43.415773 10876 net.cpp:386] inception_3a/relu_3x3_reduce -> inception_3a/3x3_reduce (in-place)
I0403 14:36:43.415962 10876 net.cpp:141] Setting up inception_3a/relu_3x3_reduce
I0403 14:36:43.415992 10876 net.cpp:148] Top shape: 24 96 28 28 (1806336)
I0403 14:36:43.416009 10876 net.cpp:156] Memory required for data: 515408928
I0403 14:36:43.416026 10876 layer_factory.hpp:77] Creating layer inception_3a/3x3
I0403 14:36:43.416048 10876 net.cpp:91] Creating Layer inception_3a/3x3
I0403 14:36:43.416065 10876 net.cpp:425] inception_3a/3x3 <- inception_3a/3x3_reduce
I0403 14:36:43.416087 10876 net.cpp:399] inception_3a/3x3 -> inception_3a/3x3
I0403 14:36:43.417817 10876 net.cpp:141] Setting up inception_3a/3x3
I0403 14:36:43.417850 10876 net.cpp:148] Top shape: 24 128 28 28 (2408448)
I0403 14:36:43.417870 10876 net.cpp:156] Memory required for data: 525042720
I0403 14:36:43.417888 10876 layer_factory.hpp:77] Creating layer inception_3a/relu_3x3
I0403 14:36:43.417911 10876 net.cpp:91] Creating Layer inception_3a/relu_3x3
I0403 14:36:43.417927 10876 net.cpp:425] inception_3a/relu_3x3 <- inception_3a/3x3
I0403 14:36:43.417948 10876 net.cpp:386] inception_3a/relu_3x3 -> inception_3a/3x3 (in-place)
I0403 14:36:43.418238 10876 net.cpp:141] Setting up inception_3a/relu_3x3
I0403 14:36:43.418269 10876 net.cpp:148] Top shape: 24 128 28 28 (2408448)
I0403 14:36:43.418287 10876 net.cpp:156] Memory required for data: 534676512
I0403 14:36:43.418303 10876 layer_factory.hpp:77] Creating layer inception_3a/5x5_reduce
I0403 14:36:43.418325 10876 net.cpp:91] Creating Layer inception_3a/5x5_reduce
I0403 14:36:43.418344 10876 net.cpp:425] inception_3a/5x5_reduce <- pool2/3x3_s2_pool2/3x3_s2_0_split_2
I0403 14:36:43.418366 10876 net.cpp:399] inception_3a/5x5_reduce -> inception_3a/5x5_reduce
I0403 14:36:43.419368 10876 net.cpp:141] Setting up inception_3a/5x5_reduce
I0403 14:36:43.419397 10876 net.cpp:148] Top shape: 24 16 28 28 (301056)
I0403 14:36:43.419414 10876 net.cpp:156] Memory required for data: 535880736
I0403 14:36:43.419433 10876 layer_factory.hpp:77] Creating layer inception_3a/relu_5x5_reduce
I0403 14:36:43.419456 10876 net.cpp:91] Creating Layer inception_3a/relu_5x5_reduce
I0403 14:36:43.419474 10876 net.cpp:425] inception_3a/relu_5x5_reduce <- inception_3a/5x5_reduce
I0403 14:36:43.419493 10876 net.cpp:386] inception_3a/relu_5x5_reduce -> inception_3a/5x5_reduce (in-place)
I0403 14:36:43.419807 10876 net.cpp:141] Setting up inception_3a/relu_5x5_reduce
I0403 14:36:43.419836 10876 net.cpp:148] Top shape: 24 16 28 28 (301056)
I0403 14:36:43.419854 10876 net.cpp:156] Memory required for data: 537084960
I0403 14:36:43.419872 10876 layer_factory.hpp:77] Creating layer inception_3a/5x5
I0403 14:36:43.419895 10876 net.cpp:91] Creating Layer inception_3a/5x5
I0403 14:36:43.419914 10876 net.cpp:425] inception_3a/5x5 <- inception_3a/5x5_reduce
I0403 14:36:43.419935 10876 net.cpp:399] inception_3a/5x5 -> inception_3a/5x5
I0403 14:36:43.421000 10876 net.cpp:141] Setting up inception_3a/5x5
I0403 14:36:43.421033 10876 net.cpp:148] Top shape: 24 32 28 28 (602112)
I0403 14:36:43.421051 10876 net.cpp:156] Memory required for data: 539493408
I0403 14:36:43.421071 10876 layer_factory.hpp:77] Creating layer inception_3a/relu_5x5
I0403 14:36:43.421090 10876 net.cpp:91] Creating Layer inception_3a/relu_5x5
I0403 14:36:43.421118 10876 net.cpp:425] inception_3a/relu_5x5 <- inception_3a/5x5
I0403 14:36:43.421145 10876 net.cpp:386] inception_3a/relu_5x5 -> inception_3a/5x5 (in-place)
I0403 14:36:43.421329 10876 net.cpp:141] Setting up inception_3a/relu_5x5
I0403 14:36:43.421355 10876 net.cpp:148] Top shape: 24 32 28 28 (602112)
I0403 14:36:43.421371 10876 net.cpp:156] Memory required for data: 541901856
I0403 14:36:43.421386 10876 layer_factory.hpp:77] Creating layer inception_3a/pool
I0403 14:36:43.421406 10876 net.cpp:91] Creating Layer inception_3a/pool
I0403 14:36:43.421444 10876 net.cpp:425] inception_3a/pool <- pool2/3x3_s2_pool2/3x3_s2_0_split_3
I0403 14:36:43.421468 10876 net.cpp:399] inception_3a/pool -> inception_3a/pool
I0403 14:36:43.421528 10876 net.cpp:141] Setting up inception_3a/pool
I0403 14:36:43.421555 10876 net.cpp:148] Top shape: 24 192 28 28 (3612672)
I0403 14:36:43.421572 10876 net.cpp:156] Memory required for data: 556352544
I0403 14:36:43.421588 10876 layer_factory.hpp:77] Creating layer inception_3a/pool_proj
I0403 14:36:43.421615 10876 net.cpp:91] Creating Layer inception_3a/pool_proj
I0403 14:36:43.421634 10876 net.cpp:425] inception_3a/pool_proj <- inception_3a/pool
I0403 14:36:43.421653 10876 net.cpp:399] inception_3a/pool_proj -> inception_3a/pool_proj
I0403 14:36:43.422672 10876 net.cpp:141] Setting up inception_3a/pool_proj
I0403 14:36:43.422703 10876 net.cpp:148] Top shape: 24 32 28 28 (602112)
I0403 14:36:43.422719 10876 net.cpp:156] Memory required for data: 558760992
I0403 14:36:43.422744 10876 layer_factory.hpp:77] Creating layer inception_3a/relu_pool_proj
I0403 14:36:43.422768 10876 net.cpp:91] Creating Layer inception_3a/relu_pool_proj
I0403 14:36:43.422786 10876 net.cpp:425] inception_3a/relu_pool_proj <- inception_3a/pool_proj
I0403 14:36:43.422806 10876 net.cpp:386] inception_3a/relu_pool_proj -> inception_3a/pool_proj (in-place)
I0403 14:36:43.423110 10876 net.cpp:141] Setting up inception_3a/relu_pool_proj
I0403 14:36:43.423141 10876 net.cpp:148] Top shape: 24 32 28 28 (602112)
I0403 14:36:43.423159 10876 net.cpp:156] Memory required for data: 561169440
I0403 14:36:43.423177 10876 layer_factory.hpp:77] Creating layer inception_3a/output
I0403 14:36:43.423194 10876 net.cpp:91] Creating Layer inception_3a/output
I0403 14:36:43.423210 10876 net.cpp:425] inception_3a/output <- inception_3a/1x1
I0403 14:36:43.423228 10876 net.cpp:425] inception_3a/output <- inception_3a/3x3
I0403 14:36:43.423246 10876 net.cpp:425] inception_3a/output <- inception_3a/5x5
I0403 14:36:43.423264 10876 net.cpp:425] inception_3a/output <- inception_3a/pool_proj
I0403 14:36:43.423283 10876 net.cpp:399] inception_3a/output -> inception_3a/output
I0403 14:36:43.423332 10876 net.cpp:141] Setting up inception_3a/output
I0403 14:36:43.423358 10876 net.cpp:148] Top shape: 24 256 28 28 (4816896)
I0403 14:36:43.423373 10876 net.cpp:156] Memory required for data: 580437024
I0403 14:36:43.423389 10876 layer_factory.hpp:77] Creating layer inception_3a/output_inception_3a/output_0_split
I0403 14:36:43.423411 10876 net.cpp:91] Creating Layer inception_3a/output_inception_3a/output_0_split
I0403 14:36:43.423429 10876 net.cpp:425] inception_3a/output_inception_3a/output_0_split <- inception_3a/output
I0403 14:36:43.423447 10876 net.cpp:399] inception_3a/output_inception_3a/output_0_split -> inception_3a/output_inception_3a/output_0_split_0
I0403 14:36:43.423471 10876 net.cpp:399] inception_3a/output_inception_3a/output_0_split -> inception_3a/output_inception_3a/output_0_split_1
I0403 14:36:43.423496 10876 net.cpp:399] inception_3a/output_inception_3a/output_0_split -> inception_3a/output_inception_3a/output_0_split_2
I0403 14:36:43.423517 10876 net.cpp:399] inception_3a/output_inception_3a/output_0_split -> inception_3a/output_inception_3a/output_0_split_3
I0403 14:36:43.423593 10876 net.cpp:141] Setting up inception_3a/output_inception_3a/output_0_split
I0403 14:36:43.423621 10876 net.cpp:148] Top shape: 24 256 28 28 (4816896)
I0403 14:36:43.423640 10876 net.cpp:148] Top shape: 24 256 28 28 (4816896)
I0403 14:36:43.423658 10876 net.cpp:148] Top shape: 24 256 28 28 (4816896)
I0403 14:36:43.423674 10876 net.cpp:148] Top shape: 24 256 28 28 (4816896)
I0403 14:36:43.423691 10876 net.cpp:156] Memory required for data: 657507360
I0403 14:36:43.423707 10876 layer_factory.hpp:77] Creating layer inception_3b/1x1
I0403 14:36:43.423729 10876 net.cpp:91] Creating Layer inception_3b/1x1
I0403 14:36:43.423748 10876 net.cpp:425] inception_3b/1x1 <- inception_3a/output_inception_3a/output_0_split_0
I0403 14:36:43.423768 10876 net.cpp:399] inception_3b/1x1 -> inception_3b/1x1
I0403 14:36:43.424957 10876 net.cpp:141] Setting up inception_3b/1x1
I0403 14:36:43.425000 10876 net.cpp:148] Top shape: 24 128 28 28 (2408448)
I0403 14:36:43.425019 10876 net.cpp:156] Memory required for data: 667141152
I0403 14:36:43.425040 10876 layer_factory.hpp:77] Creating layer inception_3b/relu_1x1
I0403 14:36:43.425058 10876 net.cpp:91] Creating Layer inception_3b/relu_1x1
I0403 14:36:43.425076 10876 net.cpp:425] inception_3b/relu_1x1 <- inception_3b/1x1
I0403 14:36:43.425098 10876 net.cpp:386] inception_3b/relu_1x1 -> inception_3b/1x1 (in-place)
I0403 14:36:43.425287 10876 net.cpp:141] Setting up inception_3b/relu_1x1
I0403 14:36:43.425313 10876 net.cpp:148] Top shape: 24 128 28 28 (2408448)
I0403 14:36:43.425329 10876 net.cpp:156] Memory required for data: 676774944
I0403 14:36:43.425346 10876 layer_factory.hpp:77] Creating layer inception_3b/3x3_reduce
I0403 14:36:43.425370 10876 net.cpp:91] Creating Layer inception_3b/3x3_reduce
I0403 14:36:43.425389 10876 net.cpp:425] inception_3b/3x3_reduce <- inception_3a/output_inception_3a/output_0_split_1
I0403 14:36:43.425410 10876 net.cpp:399] inception_3b/3x3_reduce -> inception_3b/3x3_reduce
I0403 14:36:43.426597 10876 net.cpp:141] Setting up inception_3b/3x3_reduce
I0403 14:36:43.426627 10876 net.cpp:148] Top shape: 24 128 28 28 (2408448)
I0403 14:36:43.426643 10876 net.cpp:156] Memory required for data: 686408736
I0403 14:36:43.426663 10876 layer_factory.hpp:77] Creating layer inception_3b/relu_3x3_reduce
I0403 14:36:43.426684 10876 net.cpp:91] Creating Layer inception_3b/relu_3x3_reduce
I0403 14:36:43.426702 10876 net.cpp:425] inception_3b/relu_3x3_reduce <- inception_3b/3x3_reduce
I0403 14:36:43.426720 10876 net.cpp:386] inception_3b/relu_3x3_reduce -> inception_3b/3x3_reduce (in-place)
I0403 14:36:43.426906 10876 net.cpp:141] Setting up inception_3b/relu_3x3_reduce
I0403 14:36:43.426933 10876 net.cpp:148] Top shape: 24 128 28 28 (2408448)
I0403 14:36:43.426949 10876 net.cpp:156] Memory required for data: 696042528
I0403 14:36:43.426965 10876 layer_factory.hpp:77] Creating layer inception_3b/3x3
I0403 14:36:43.426992 10876 net.cpp:91] Creating Layer inception_3b/3x3
I0403 14:36:43.427013 10876 net.cpp:425] inception_3b/3x3 <- inception_3b/3x3_reduce
I0403 14:36:43.427033 10876 net.cpp:399] inception_3b/3x3 -> inception_3b/3x3
I0403 14:36:43.430083 10876 net.cpp:141] Setting up inception_3b/3x3
I0403 14:36:43.430120 10876 net.cpp:148] Top shape: 24 192 28 28 (3612672)
I0403 14:36:43.430138 10876 net.cpp:156] Memory required for data: 710493216
I0403 14:36:43.430158 10876 layer_factory.hpp:77] Creating layer inception_3b/relu_3x3
I0403 14:36:43.430176 10876 net.cpp:91] Creating Layer inception_3b/relu_3x3
I0403 14:36:43.430194 10876 net.cpp:425] inception_3b/relu_3x3 <- inception_3b/3x3
I0403 14:36:43.430215 10876 net.cpp:386] inception_3b/relu_3x3 -> inception_3b/3x3 (in-place)
I0403 14:36:43.430503 10876 net.cpp:141] Setting up inception_3b/relu_3x3
I0403 14:36:43.430533 10876 net.cpp:148] Top shape: 24 192 28 28 (3612672)
I0403 14:36:43.430552 10876 net.cpp:156] Memory required for data: 724943904
I0403 14:36:43.430567 10876 layer_factory.hpp:77] Creating layer inception_3b/5x5_reduce
I0403 14:36:43.430591 10876 net.cpp:91] Creating Layer inception_3b/5x5_reduce
I0403 14:36:43.430611 10876 net.cpp:425] inception_3b/5x5_reduce <- inception_3a/output_inception_3a/output_0_split_2
I0403 14:36:43.430634 10876 net.cpp:399] inception_3b/5x5_reduce -> inception_3b/5x5_reduce
I0403 14:36:43.431670 10876 net.cpp:141] Setting up inception_3b/5x5_reduce
I0403 14:36:43.431704 10876 net.cpp:148] Top shape: 24 32 28 28 (602112)
I0403 14:36:43.431721 10876 net.cpp:156] Memory required for data: 727352352
I0403 14:36:43.431740 10876 layer_factory.hpp:77] Creating layer inception_3b/relu_5x5_reduce
I0403 14:36:43.431761 10876 net.cpp:91] Creating Layer inception_3b/relu_5x5_reduce
I0403 14:36:43.431777 10876 net.cpp:425] inception_3b/relu_5x5_reduce <- inception_3b/5x5_reduce
I0403 14:36:43.431798 10876 net.cpp:386] inception_3b/relu_5x5_reduce -> inception_3b/5x5_reduce (in-place)
I0403 14:36:43.431999 10876 net.cpp:141] Setting up inception_3b/relu_5x5_reduce
I0403 14:36:43.432026 10876 net.cpp:148] Top shape: 24 32 28 28 (602112)
I0403 14:36:43.432044 10876 net.cpp:156] Memory required for data: 729760800
I0403 14:36:43.432060 10876 layer_factory.hpp:77] Creating layer inception_3b/5x5
I0403 14:36:43.432083 10876 net.cpp:91] Creating Layer inception_3b/5x5
I0403 14:36:43.432108 10876 net.cpp:425] inception_3b/5x5 <- inception_3b/5x5_reduce
I0403 14:36:43.432132 10876 net.cpp:399] inception_3b/5x5 -> inception_3b/5x5
I0403 14:36:43.434202 10876 net.cpp:141] Setting up inception_3b/5x5
I0403 14:36:43.434233 10876 net.cpp:148] Top shape: 24 96 28 28 (1806336)
I0403 14:36:43.434250 10876 net.cpp:156] Memory required for data: 736986144
I0403 14:36:43.434269 10876 layer_factory.hpp:77] Creating layer inception_3b/relu_5x5
I0403 14:36:43.434291 10876 net.cpp:91] Creating Layer inception_3b/relu_5x5
I0403 14:36:43.434309 10876 net.cpp:425] inception_3b/relu_5x5 <- inception_3b/5x5
I0403 14:36:43.434329 10876 net.cpp:386] inception_3b/relu_5x5 -> inception_3b/5x5 (in-place)
I0403 14:36:43.434536 10876 net.cpp:141] Setting up inception_3b/relu_5x5
I0403 14:36:43.434563 10876 net.cpp:148] Top shape: 24 96 28 28 (1806336)
I0403 14:36:43.434579 10876 net.cpp:156] Memory required for data: 744211488
I0403 14:36:43.434595 10876 layer_factory.hpp:77] Creating layer inception_3b/pool
I0403 14:36:43.434613 10876 net.cpp:91] Creating Layer inception_3b/pool
I0403 14:36:43.434630 10876 net.cpp:425] inception_3b/pool <- inception_3a/output_inception_3a/output_0_split_3
I0403 14:36:43.434650 10876 net.cpp:399] inception_3b/pool -> inception_3b/pool
I0403 14:36:43.434708 10876 net.cpp:141] Setting up inception_3b/pool
I0403 14:36:43.434733 10876 net.cpp:148] Top shape: 24 256 28 28 (4816896)
I0403 14:36:43.434748 10876 net.cpp:156] Memory required for data: 763479072
I0403 14:36:43.434764 10876 layer_factory.hpp:77] Creating layer inception_3b/pool_proj
I0403 14:36:43.434789 10876 net.cpp:91] Creating Layer inception_3b/pool_proj
I0403 14:36:43.434808 10876 net.cpp:425] inception_3b/pool_proj <- inception_3b/pool
I0403 14:36:43.434828 10876 net.cpp:399] inception_3b/pool_proj -> inception_3b/pool_proj
I0403 14:36:43.435930 10876 net.cpp:141] Setting up inception_3b/pool_proj
I0403 14:36:43.435961 10876 net.cpp:148] Top shape: 24 64 28 28 (1204224)
I0403 14:36:43.435977 10876 net.cpp:156] Memory required for data: 768295968
I0403 14:36:43.435997 10876 layer_factory.hpp:77] Creating layer inception_3b/relu_pool_proj
I0403 14:36:43.436017 10876 net.cpp:91] Creating Layer inception_3b/relu_pool_proj
I0403 14:36:43.436036 10876 net.cpp:425] inception_3b/relu_pool_proj <- inception_3b/pool_proj
I0403 14:36:43.436056 10876 net.cpp:386] inception_3b/relu_pool_proj -> inception_3b/pool_proj (in-place)
I0403 14:36:43.436489 10876 net.cpp:141] Setting up inception_3b/relu_pool_proj
I0403 14:36:43.436518 10876 net.cpp:148] Top shape: 24 64 28 28 (1204224)
I0403 14:36:43.436534 10876 net.cpp:156] Memory required for data: 773112864
I0403 14:36:43.436549 10876 layer_factory.hpp:77] Creating layer inception_3b/output
I0403 14:36:43.436568 10876 net.cpp:91] Creating Layer inception_3b/output
I0403 14:36:43.436585 10876 net.cpp:425] inception_3b/output <- inception_3b/1x1
I0403 14:36:43.436604 10876 net.cpp:425] inception_3b/output <- inception_3b/3x3
I0403 14:36:43.436620 10876 net.cpp:425] inception_3b/output <- inception_3b/5x5
I0403 14:36:43.436637 10876 net.cpp:425] inception_3b/output <- inception_3b/pool_proj
I0403 14:36:43.436657 10876 net.cpp:399] inception_3b/output -> inception_3b/output
I0403 14:36:43.436704 10876 net.cpp:141] Setting up inception_3b/output
I0403 14:36:43.436731 10876 net.cpp:148] Top shape: 24 480 28 28 (9031680)
I0403 14:36:43.436748 10876 net.cpp:156] Memory required for data: 809239584
I0403 14:36:43.436764 10876 layer_factory.hpp:77] Creating layer pool3/3x3_s2
I0403 14:36:43.436784 10876 net.cpp:91] Creating Layer pool3/3x3_s2
I0403 14:36:43.436800 10876 net.cpp:425] pool3/3x3_s2 <- inception_3b/output
I0403 14:36:43.436838 10876 net.cpp:399] pool3/3x3_s2 -> pool3/3x3_s2
I0403 14:36:43.436902 10876 net.cpp:141] Setting up pool3/3x3_s2
I0403 14:36:43.436928 10876 net.cpp:148] Top shape: 24 480 14 14 (2257920)
I0403 14:36:43.436942 10876 net.cpp:156] Memory required for data: 818271264
I0403 14:36:43.436959 10876 layer_factory.hpp:77] Creating layer pool3/3x3_s2_pool3/3x3_s2_0_split
I0403 14:36:43.436978 10876 net.cpp:91] Creating Layer pool3/3x3_s2_pool3/3x3_s2_0_split
I0403 14:36:43.436995 10876 net.cpp:425] pool3/3x3_s2_pool3/3x3_s2_0_split <- pool3/3x3_s2
I0403 14:36:43.437014 10876 net.cpp:399] pool3/3x3_s2_pool3/3x3_s2_0_split -> pool3/3x3_s2_pool3/3x3_s2_0_split_0
I0403 14:36:43.437033 10876 net.cpp:399] pool3/3x3_s2_pool3/3x3_s2_0_split -> pool3/3x3_s2_pool3/3x3_s2_0_split_1
I0403 14:36:43.437053 10876 net.cpp:399] pool3/3x3_s2_pool3/3x3_s2_0_split -> pool3/3x3_s2_pool3/3x3_s2_0_split_2
I0403 14:36:43.437077 10876 net.cpp:399] pool3/3x3_s2_pool3/3x3_s2_0_split -> pool3/3x3_s2_pool3/3x3_s2_0_split_3
I0403 14:36:43.437165 10876 net.cpp:141] Setting up pool3/3x3_s2_pool3/3x3_s2_0_split
I0403 14:36:43.437191 10876 net.cpp:148] Top shape: 24 480 14 14 (2257920)
I0403 14:36:43.437209 10876 net.cpp:148] Top shape: 24 480 14 14 (2257920)
I0403 14:36:43.437227 10876 net.cpp:148] Top shape: 24 480 14 14 (2257920)
I0403 14:36:43.437243 10876 net.cpp:148] Top shape: 24 480 14 14 (2257920)
I0403 14:36:43.437258 10876 net.cpp:156] Memory required for data: 854397984
I0403 14:36:43.437274 10876 layer_factory.hpp:77] Creating layer inception_4a/1x1
I0403 14:36:43.437297 10876 net.cpp:91] Creating Layer inception_4a/1x1
I0403 14:36:43.437317 10876 net.cpp:425] inception_4a/1x1 <- pool3/3x3_s2_pool3/3x3_s2_0_split_0
I0403 14:36:43.437340 10876 net.cpp:399] inception_4a/1x1 -> inception_4a/1x1
I0403 14:36:43.438990 10876 net.cpp:141] Setting up inception_4a/1x1
I0403 14:36:43.439020 10876 net.cpp:148] Top shape: 24 192 14 14 (903168)
I0403 14:36:43.439038 10876 net.cpp:156] Memory required for data: 858010656
I0403 14:36:43.439056 10876 layer_factory.hpp:77] Creating layer inception_4a/relu_1x1
I0403 14:36:43.439077 10876 net.cpp:91] Creating Layer inception_4a/relu_1x1
I0403 14:36:43.439100 10876 net.cpp:425] inception_4a/relu_1x1 <- inception_4a/1x1
I0403 14:36:43.439119 10876 net.cpp:386] inception_4a/relu_1x1 -> inception_4a/1x1 (in-place)
I0403 14:36:43.439306 10876 net.cpp:141] Setting up inception_4a/relu_1x1
I0403 14:36:43.439337 10876 net.cpp:148] Top shape: 24 192 14 14 (903168)
I0403 14:36:43.439355 10876 net.cpp:156] Memory required for data: 861623328
I0403 14:36:43.439371 10876 layer_factory.hpp:77] Creating layer inception_4a/3x3_reduce
I0403 14:36:43.439395 10876 net.cpp:91] Creating Layer inception_4a/3x3_reduce
I0403 14:36:43.439414 10876 net.cpp:425] inception_4a/3x3_reduce <- pool3/3x3_s2_pool3/3x3_s2_0_split_1
I0403 14:36:43.439435 10876 net.cpp:399] inception_4a/3x3_reduce -> inception_4a/3x3_reduce
I0403 14:36:43.440771 10876 net.cpp:141] Setting up inception_4a/3x3_reduce
I0403 14:36:43.440814 10876 net.cpp:148] Top shape: 24 96 14 14 (451584)
I0403 14:36:43.440829 10876 net.cpp:156] Memory required for data: 863429664
I0403 14:36:43.440865 10876 layer_factory.hpp:77] Creating layer inception_4a/relu_3x3_reduce
I0403 14:36:43.440887 10876 net.cpp:91] Creating Layer inception_4a/relu_3x3_reduce
I0403 14:36:43.440904 10876 net.cpp:425] inception_4a/relu_3x3_reduce <- inception_4a/3x3_reduce
I0403 14:36:43.440925 10876 net.cpp:386] inception_4a/relu_3x3_reduce -> inception_4a/3x3_reduce (in-place)
I0403 14:36:43.441109 10876 net.cpp:141] Setting up inception_4a/relu_3x3_reduce
I0403 14:36:43.441138 10876 net.cpp:148] Top shape: 24 96 14 14 (451584)
I0403 14:36:43.441161 10876 net.cpp:156] Memory required for data: 865236000
I0403 14:36:43.441176 10876 layer_factory.hpp:77] Creating layer inception_4a/3x3
I0403 14:36:43.441196 10876 net.cpp:91] Creating Layer inception_4a/3x3
I0403 14:36:43.441215 10876 net.cpp:425] inception_4a/3x3 <- inception_4a/3x3_reduce
I0403 14:36:43.441236 10876 net.cpp:399] inception_4a/3x3 -> inception_4a/3x3
I0403 14:36:43.443970 10876 net.cpp:141] Setting up inception_4a/3x3
I0403 14:36:43.444005 10876 net.cpp:148] Top shape: 24 208 14 14 (978432)
I0403 14:36:43.444023 10876 net.cpp:156] Memory required for data: 869149728
I0403 14:36:43.444043 10876 layer_factory.hpp:77] Creating layer inception_4a/relu_3x3
I0403 14:36:43.444061 10876 net.cpp:91] Creating Layer inception_4a/relu_3x3
I0403 14:36:43.444077 10876 net.cpp:425] inception_4a/relu_3x3 <- inception_4a/3x3
I0403 14:36:43.444102 10876 net.cpp:386] inception_4a/relu_3x3 -> inception_4a/3x3 (in-place)
I0403 14:36:43.444386 10876 net.cpp:141] Setting up inception_4a/relu_3x3
I0403 14:36:43.444416 10876 net.cpp:148] Top shape: 24 208 14 14 (978432)
I0403 14:36:43.444432 10876 net.cpp:156] Memory required for data: 873063456
I0403 14:36:43.444449 10876 layer_factory.hpp:77] Creating layer inception_4a/5x5_reduce
I0403 14:36:43.444473 10876 net.cpp:91] Creating Layer inception_4a/5x5_reduce
I0403 14:36:43.444491 10876 net.cpp:425] inception_4a/5x5_reduce <- pool3/3x3_s2_pool3/3x3_s2_0_split_2
I0403 14:36:43.444510 10876 net.cpp:399] inception_4a/5x5_reduce -> inception_4a/5x5_reduce
I0403 14:36:43.445544 10876 net.cpp:141] Setting up inception_4a/5x5_reduce
I0403 14:36:43.445575 10876 net.cpp:148] Top shape: 24 16 14 14 (75264)
I0403 14:36:43.445592 10876 net.cpp:156] Memory required for data: 873364512
I0403 14:36:43.445612 10876 layer_factory.hpp:77] Creating layer inception_4a/relu_5x5_reduce
I0403 14:36:43.445631 10876 net.cpp:91] Creating Layer inception_4a/relu_5x5_reduce
I0403 14:36:43.445647 10876 net.cpp:425] inception_4a/relu_5x5_reduce <- inception_4a/5x5_reduce
I0403 14:36:43.445667 10876 net.cpp:386] inception_4a/relu_5x5_reduce -> inception_4a/5x5_reduce (in-place)
I0403 14:36:43.445859 10876 net.cpp:141] Setting up inception_4a/relu_5x5_reduce
I0403 14:36:43.445885 10876 net.cpp:148] Top shape: 24 16 14 14 (75264)
I0403 14:36:43.445900 10876 net.cpp:156] Memory required for data: 873665568
I0403 14:36:43.445916 10876 layer_factory.hpp:77] Creating layer inception_4a/5x5
I0403 14:36:43.445940 10876 net.cpp:91] Creating Layer inception_4a/5x5
I0403 14:36:43.445956 10876 net.cpp:425] inception_4a/5x5 <- inception_4a/5x5_reduce
I0403 14:36:43.445976 10876 net.cpp:399] inception_4a/5x5 -> inception_4a/5x5
I0403 14:36:43.447079 10876 net.cpp:141] Setting up inception_4a/5x5
I0403 14:36:43.447113 10876 net.cpp:148] Top shape: 24 48 14 14 (225792)
I0403 14:36:43.447129 10876 net.cpp:156] Memory required for data: 874568736
I0403 14:36:43.447149 10876 layer_factory.hpp:77] Creating layer inception_4a/relu_5x5
I0403 14:36:43.447170 10876 net.cpp:91] Creating Layer inception_4a/relu_5x5
I0403 14:36:43.447185 10876 net.cpp:425] inception_4a/relu_5x5 <- inception_4a/5x5
I0403 14:36:43.447202 10876 net.cpp:386] inception_4a/relu_5x5 -> inception_4a/5x5 (in-place)
I0403 14:36:43.447379 10876 net.cpp:141] Setting up inception_4a/relu_5x5
I0403 14:36:43.447405 10876 net.cpp:148] Top shape: 24 48 14 14 (225792)
I0403 14:36:43.447420 10876 net.cpp:156] Memory required for data: 875471904
I0403 14:36:43.447437 10876 layer_factory.hpp:77] Creating layer inception_4a/pool
I0403 14:36:43.447459 10876 net.cpp:91] Creating Layer inception_4a/pool
I0403 14:36:43.447477 10876 net.cpp:425] inception_4a/pool <- pool3/3x3_s2_pool3/3x3_s2_0_split_3
I0403 14:36:43.447495 10876 net.cpp:399] inception_4a/pool -> inception_4a/pool
I0403 14:36:43.447559 10876 net.cpp:141] Setting up inception_4a/pool
I0403 14:36:43.447585 10876 net.cpp:148] Top shape: 24 480 14 14 (2257920)
I0403 14:36:43.447600 10876 net.cpp:156] Memory required for data: 884503584
I0403 14:36:43.447615 10876 layer_factory.hpp:77] Creating layer inception_4a/pool_proj
I0403 14:36:43.447638 10876 net.cpp:91] Creating Layer inception_4a/pool_proj
I0403 14:36:43.447657 10876 net.cpp:425] inception_4a/pool_proj <- inception_4a/pool
I0403 14:36:43.447679 10876 net.cpp:399] inception_4a/pool_proj -> inception_4a/pool_proj
I0403 14:36:43.449039 10876 net.cpp:141] Setting up inception_4a/pool_proj
I0403 14:36:43.449069 10876 net.cpp:148] Top shape: 24 64 14 14 (301056)
I0403 14:36:43.449105 10876 net.cpp:156] Memory required for data: 885707808
I0403 14:36:43.449126 10876 layer_factory.hpp:77] Creating layer inception_4a/relu_pool_proj
I0403 14:36:43.449149 10876 net.cpp:91] Creating Layer inception_4a/relu_pool_proj
I0403 14:36:43.449167 10876 net.cpp:425] inception_4a/relu_pool_proj <- inception_4a/pool_proj
I0403 14:36:43.449184 10876 net.cpp:386] inception_4a/relu_pool_proj -> inception_4a/pool_proj (in-place)
I0403 14:36:43.449470 10876 net.cpp:141] Setting up inception_4a/relu_pool_proj
I0403 14:36:43.449498 10876 net.cpp:148] Top shape: 24 64 14 14 (301056)
I0403 14:36:43.449515 10876 net.cpp:156] Memory required for data: 886912032
I0403 14:36:43.449530 10876 layer_factory.hpp:77] Creating layer inception_4a/output
I0403 14:36:43.449554 10876 net.cpp:91] Creating Layer inception_4a/output
I0403 14:36:43.449571 10876 net.cpp:425] inception_4a/output <- inception_4a/1x1
I0403 14:36:43.449587 10876 net.cpp:425] inception_4a/output <- inception_4a/3x3
I0403 14:36:43.449604 10876 net.cpp:425] inception_4a/output <- inception_4a/5x5
I0403 14:36:43.449621 10876 net.cpp:425] inception_4a/output <- inception_4a/pool_proj
I0403 14:36:43.449638 10876 net.cpp:399] inception_4a/output -> inception_4a/output
I0403 14:36:43.449684 10876 net.cpp:141] Setting up inception_4a/output
I0403 14:36:43.449709 10876 net.cpp:148] Top shape: 24 512 14 14 (2408448)
I0403 14:36:43.449724 10876 net.cpp:156] Memory required for data: 896545824
I0403 14:36:43.449739 10876 layer_factory.hpp:77] Creating layer inception_4a/output_inception_4a/output_0_split
I0403 14:36:43.449756 10876 net.cpp:91] Creating Layer inception_4a/output_inception_4a/output_0_split
I0403 14:36:43.449774 10876 net.cpp:425] inception_4a/output_inception_4a/output_0_split <- inception_4a/output
I0403 14:36:43.449793 10876 net.cpp:399] inception_4a/output_inception_4a/output_0_split -> inception_4a/output_inception_4a/output_0_split_0
I0403 14:36:43.449815 10876 net.cpp:399] inception_4a/output_inception_4a/output_0_split -> inception_4a/output_inception_4a/output_0_split_1
I0403 14:36:43.449836 10876 net.cpp:399] inception_4a/output_inception_4a/output_0_split -> inception_4a/output_inception_4a/output_0_split_2
I0403 14:36:43.449856 10876 net.cpp:399] inception_4a/output_inception_4a/output_0_split -> inception_4a/output_inception_4a/output_0_split_3
I0403 14:36:43.449875 10876 net.cpp:399] inception_4a/output_inception_4a/output_0_split -> inception_4a/output_inception_4a/output_0_split_4
I0403 14:36:43.449970 10876 net.cpp:141] Setting up inception_4a/output_inception_4a/output_0_split
I0403 14:36:43.449995 10876 net.cpp:148] Top shape: 24 512 14 14 (2408448)
I0403 14:36:43.450013 10876 net.cpp:148] Top shape: 24 512 14 14 (2408448)
I0403 14:36:43.450031 10876 net.cpp:148] Top shape: 24 512 14 14 (2408448)
I0403 14:36:43.450047 10876 net.cpp:148] Top shape: 24 512 14 14 (2408448)
I0403 14:36:43.450062 10876 net.cpp:148] Top shape: 24 512 14 14 (2408448)
I0403 14:36:43.450078 10876 net.cpp:156] Memory required for data: 944714784
I0403 14:36:43.450096 10876 layer_factory.hpp:77] Creating layer loss1/ave_pool
I0403 14:36:43.450115 10876 net.cpp:91] Creating Layer loss1/ave_pool
I0403 14:36:43.450132 10876 net.cpp:425] loss1/ave_pool <- inception_4a/output_inception_4a/output_0_split_0
I0403 14:36:43.450153 10876 net.cpp:399] loss1/ave_pool -> loss1/ave_pool
I0403 14:36:43.450367 10876 net.cpp:141] Setting up loss1/ave_pool
I0403 14:36:43.450394 10876 net.cpp:148] Top shape: 24 512 4 4 (196608)
I0403 14:36:43.450409 10876 net.cpp:156] Memory required for data: 945501216
I0403 14:36:43.450425 10876 layer_factory.hpp:77] Creating layer loss1/conv
I0403 14:36:43.450448 10876 net.cpp:91] Creating Layer loss1/conv
I0403 14:36:43.450466 10876 net.cpp:425] loss1/conv <- loss1/ave_pool
I0403 14:36:43.450487 10876 net.cpp:399] loss1/conv -> loss1/conv
I0403 14:36:43.451978 10876 net.cpp:141] Setting up loss1/conv
I0403 14:36:43.452011 10876 net.cpp:148] Top shape: 24 128 4 4 (49152)
I0403 14:36:43.452044 10876 net.cpp:156] Memory required for data: 945697824
I0403 14:36:43.452064 10876 layer_factory.hpp:77] Creating layer loss1/relu_conv
I0403 14:36:43.452083 10876 net.cpp:91] Creating Layer loss1/relu_conv
I0403 14:36:43.452105 10876 net.cpp:425] loss1/relu_conv <- loss1/conv
I0403 14:36:43.452128 10876 net.cpp:386] loss1/relu_conv -> loss1/conv (in-place)
I0403 14:36:43.452425 10876 net.cpp:141] Setting up loss1/relu_conv
I0403 14:36:43.452455 10876 net.cpp:148] Top shape: 24 128 4 4 (49152)
I0403 14:36:43.452472 10876 net.cpp:156] Memory required for data: 945894432
I0403 14:36:43.452488 10876 layer_factory.hpp:77] Creating layer loss1/fc
I0403 14:36:43.452513 10876 net.cpp:91] Creating Layer loss1/fc
I0403 14:36:43.452533 10876 net.cpp:425] loss1/fc <- loss1/conv
I0403 14:36:43.452555 10876 net.cpp:399] loss1/fc -> loss1/fc
I0403 14:36:43.471088 10876 net.cpp:141] Setting up loss1/fc
I0403 14:36:43.471158 10876 net.cpp:148] Top shape: 24 1024 (24576)
I0403 14:36:43.471174 10876 net.cpp:156] Memory required for data: 945992736
I0403 14:36:43.471194 10876 layer_factory.hpp:77] Creating layer loss1/relu_fc
I0403 14:36:43.471217 10876 net.cpp:91] Creating Layer loss1/relu_fc
I0403 14:36:43.471236 10876 net.cpp:425] loss1/relu_fc <- loss1/fc
I0403 14:36:43.471256 10876 net.cpp:386] loss1/relu_fc -> loss1/fc (in-place)
I0403 14:36:43.471462 10876 net.cpp:141] Setting up loss1/relu_fc
I0403 14:36:43.471490 10876 net.cpp:148] Top shape: 24 1024 (24576)
I0403 14:36:43.471508 10876 net.cpp:156] Memory required for data: 946091040
I0403 14:36:43.471521 10876 layer_factory.hpp:77] Creating layer loss1/drop_fc
I0403 14:36:43.471550 10876 net.cpp:91] Creating Layer loss1/drop_fc
I0403 14:36:43.471568 10876 net.cpp:425] loss1/drop_fc <- loss1/fc
I0403 14:36:43.471586 10876 net.cpp:386] loss1/drop_fc -> loss1/fc (in-place)
I0403 14:36:43.471642 10876 net.cpp:141] Setting up loss1/drop_fc
I0403 14:36:43.471665 10876 net.cpp:148] Top shape: 24 1024 (24576)
I0403 14:36:43.471680 10876 net.cpp:156] Memory required for data: 946189344
I0403 14:36:43.471695 10876 layer_factory.hpp:77] Creating layer loss1/classifier_plantvillage
I0403 14:36:43.471714 10876 net.cpp:91] Creating Layer loss1/classifier_plantvillage
I0403 14:36:43.471731 10876 net.cpp:425] loss1/classifier_plantvillage <- loss1/fc
I0403 14:36:43.471753 10876 net.cpp:399] loss1/classifier_plantvillage -> loss1/classifier_plantvillage
I0403 14:36:43.472682 10876 net.cpp:141] Setting up loss1/classifier_plantvillage
I0403 14:36:43.472710 10876 net.cpp:148] Top shape: 24 38 (912)
I0403 14:36:43.472726 10876 net.cpp:156] Memory required for data: 946192992
I0403 14:36:43.472743 10876 layer_factory.hpp:77] Creating layer loss1/classifier_plantvillage_loss1/classifier_plantvillage_0_split
I0403 14:36:43.472764 10876 net.cpp:91] Creating Layer loss1/classifier_plantvillage_loss1/classifier_plantvillage_0_split
I0403 14:36:43.472782 10876 net.cpp:425] loss1/classifier_plantvillage_loss1/classifier_plantvillage_0_split <- loss1/classifier_plantvillage
I0403 14:36:43.472800 10876 net.cpp:399] loss1/classifier_plantvillage_loss1/classifier_plantvillage_0_split -> loss1/classifier_plantvillage_loss1/classifier_plantvillage_0_split_0
I0403 14:36:43.472820 10876 net.cpp:399] loss1/classifier_plantvillage_loss1/classifier_plantvillage_0_split -> loss1/classifier_plantvillage_loss1/classifier_plantvillage_0_split_1
I0403 14:36:43.472842 10876 net.cpp:399] loss1/classifier_plantvillage_loss1/classifier_plantvillage_0_split -> loss1/classifier_plantvillage_loss1/classifier_plantvillage_0_split_2
I0403 14:36:43.472913 10876 net.cpp:141] Setting up loss1/classifier_plantvillage_loss1/classifier_plantvillage_0_split
I0403 14:36:43.472937 10876 net.cpp:148] Top shape: 24 38 (912)
I0403 14:36:43.472954 10876 net.cpp:148] Top shape: 24 38 (912)
I0403 14:36:43.472968 10876 net.cpp:148] Top shape: 24 38 (912)
I0403 14:36:43.472982 10876 net.cpp:156] Memory required for data: 946203936
I0403 14:36:43.472997 10876 layer_factory.hpp:77] Creating layer inception_4b/1x1
I0403 14:36:43.473021 10876 net.cpp:91] Creating Layer inception_4b/1x1
I0403 14:36:43.473062 10876 net.cpp:425] inception_4b/1x1 <- inception_4a/output_inception_4a/output_0_split_1
I0403 14:36:43.473105 10876 net.cpp:399] inception_4b/1x1 -> inception_4b/1x1
I0403 14:36:43.474843 10876 net.cpp:141] Setting up inception_4b/1x1
I0403 14:36:43.474874 10876 net.cpp:148] Top shape: 24 160 14 14 (752640)
I0403 14:36:43.474891 10876 net.cpp:156] Memory required for data: 949214496
I0403 14:36:43.474910 10876 layer_factory.hpp:77] Creating layer inception_4b/relu_1x1
I0403 14:36:43.474928 10876 net.cpp:91] Creating Layer inception_4b/relu_1x1
I0403 14:36:43.474946 10876 net.cpp:425] inception_4b/relu_1x1 <- inception_4b/1x1
I0403 14:36:43.474964 10876 net.cpp:386] inception_4b/relu_1x1 -> inception_4b/1x1 (in-place)
I0403 14:36:43.475147 10876 net.cpp:141] Setting up inception_4b/relu_1x1
I0403 14:36:43.475172 10876 net.cpp:148] Top shape: 24 160 14 14 (752640)
I0403 14:36:43.475186 10876 net.cpp:156] Memory required for data: 952225056
I0403 14:36:43.475201 10876 layer_factory.hpp:77] Creating layer inception_4b/3x3_reduce
I0403 14:36:43.475226 10876 net.cpp:91] Creating Layer inception_4b/3x3_reduce
I0403 14:36:43.475244 10876 net.cpp:425] inception_4b/3x3_reduce <- inception_4a/output_inception_4a/output_0_split_2
I0403 14:36:43.475265 10876 net.cpp:399] inception_4b/3x3_reduce -> inception_4b/3x3_reduce
I0403 14:36:43.476601 10876 net.cpp:141] Setting up inception_4b/3x3_reduce
I0403 14:36:43.476629 10876 net.cpp:148] Top shape: 24 112 14 14 (526848)
I0403 14:36:43.476644 10876 net.cpp:156] Memory required for data: 954332448
I0403 14:36:43.476662 10876 layer_factory.hpp:77] Creating layer inception_4b/relu_3x3_reduce
I0403 14:36:43.476680 10876 net.cpp:91] Creating Layer inception_4b/relu_3x3_reduce
I0403 14:36:43.476696 10876 net.cpp:425] inception_4b/relu_3x3_reduce <- inception_4b/3x3_reduce
I0403 14:36:43.476716 10876 net.cpp:386] inception_4b/relu_3x3_reduce -> inception_4b/3x3_reduce (in-place)
I0403 14:36:43.476995 10876 net.cpp:141] Setting up inception_4b/relu_3x3_reduce
I0403 14:36:43.477021 10876 net.cpp:148] Top shape: 24 112 14 14 (526848)
I0403 14:36:43.477037 10876 net.cpp:156] Memory required for data: 956439840
I0403 14:36:43.477052 10876 layer_factory.hpp:77] Creating layer inception_4b/3x3
I0403 14:36:43.477075 10876 net.cpp:91] Creating Layer inception_4b/3x3
I0403 14:36:43.477097 10876 net.cpp:425] inception_4b/3x3 <- inception_4b/3x3_reduce
I0403 14:36:43.477120 10876 net.cpp:399] inception_4b/3x3 -> inception_4b/3x3
I0403 14:36:43.480211 10876 net.cpp:141] Setting up inception_4b/3x3
I0403 14:36:43.480242 10876 net.cpp:148] Top shape: 24 224 14 14 (1053696)
I0403 14:36:43.480257 10876 net.cpp:156] Memory required for data: 960654624
I0403 14:36:43.480276 10876 layer_factory.hpp:77] Creating layer inception_4b/relu_3x3
I0403 14:36:43.480298 10876 net.cpp:91] Creating Layer inception_4b/relu_3x3
I0403 14:36:43.480315 10876 net.cpp:425] inception_4b/relu_3x3 <- inception_4b/3x3
I0403 14:36:43.480334 10876 net.cpp:386] inception_4b/relu_3x3 -> inception_4b/3x3 (in-place)
I0403 14:36:43.480511 10876 net.cpp:141] Setting up inception_4b/relu_3x3
I0403 14:36:43.480540 10876 net.cpp:148] Top shape: 24 224 14 14 (1053696)
I0403 14:36:43.480554 10876 net.cpp:156] Memory required for data: 964869408
I0403 14:36:43.480569 10876 layer_factory.hpp:77] Creating layer inception_4b/5x5_reduce
I0403 14:36:43.480592 10876 net.cpp:91] Creating Layer inception_4b/5x5_reduce
I0403 14:36:43.480610 10876 net.cpp:425] inception_4b/5x5_reduce <- inception_4a/output_inception_4a/output_0_split_3
I0403 14:36:43.480630 10876 net.cpp:399] inception_4b/5x5_reduce -> inception_4b/5x5_reduce
I0403 14:36:43.481711 10876 net.cpp:141] Setting up inception_4b/5x5_reduce
I0403 14:36:43.481739 10876 net.cpp:148] Top shape: 24 24 14 14 (112896)
I0403 14:36:43.481755 10876 net.cpp:156] Memory required for data: 965320992
I0403 14:36:43.481775 10876 layer_factory.hpp:77] Creating layer inception_4b/relu_5x5_reduce
I0403 14:36:43.481793 10876 net.cpp:91] Creating Layer inception_4b/relu_5x5_reduce
I0403 14:36:43.481825 10876 net.cpp:425] inception_4b/relu_5x5_reduce <- inception_4b/5x5_reduce
I0403 14:36:43.481848 10876 net.cpp:386] inception_4b/relu_5x5_reduce -> inception_4b/5x5_reduce (in-place)
I0403 14:36:43.482031 10876 net.cpp:141] Setting up inception_4b/relu_5x5_reduce
I0403 14:36:43.482058 10876 net.cpp:148] Top shape: 24 24 14 14 (112896)
I0403 14:36:43.482072 10876 net.cpp:156] Memory required for data: 965772576
I0403 14:36:43.482087 10876 layer_factory.hpp:77] Creating layer inception_4b/5x5
I0403 14:36:43.482115 10876 net.cpp:91] Creating Layer inception_4b/5x5
I0403 14:36:43.482134 10876 net.cpp:425] inception_4b/5x5 <- inception_4b/5x5_reduce
I0403 14:36:43.482156 10876 net.cpp:399] inception_4b/5x5 -> inception_4b/5x5
I0403 14:36:43.483387 10876 net.cpp:141] Setting up inception_4b/5x5
I0403 14:36:43.483417 10876 net.cpp:148] Top shape: 24 64 14 14 (301056)
I0403 14:36:43.483435 10876 net.cpp:156] Memory required for data: 966976800
I0403 14:36:43.483454 10876 layer_factory.hpp:77] Creating layer inception_4b/relu_5x5
I0403 14:36:43.483472 10876 net.cpp:91] Creating Layer inception_4b/relu_5x5
I0403 14:36:43.483490 10876 net.cpp:425] inception_4b/relu_5x5 <- inception_4b/5x5
I0403 14:36:43.483510 10876 net.cpp:386] inception_4b/relu_5x5 -> inception_4b/5x5 (in-place)
I0403 14:36:43.483798 10876 net.cpp:141] Setting up inception_4b/relu_5x5
I0403 14:36:43.483826 10876 net.cpp:148] Top shape: 24 64 14 14 (301056)
I0403 14:36:43.483844 10876 net.cpp:156] Memory required for data: 968181024
I0403 14:36:43.483858 10876 layer_factory.hpp:77] Creating layer inception_4b/pool
I0403 14:36:43.483876 10876 net.cpp:91] Creating Layer inception_4b/pool
I0403 14:36:43.483892 10876 net.cpp:425] inception_4b/pool <- inception_4a/output_inception_4a/output_0_split_4
I0403 14:36:43.483912 10876 net.cpp:399] inception_4b/pool -> inception_4b/pool
I0403 14:36:43.483978 10876 net.cpp:141] Setting up inception_4b/pool
I0403 14:36:43.484001 10876 net.cpp:148] Top shape: 24 512 14 14 (2408448)
I0403 14:36:43.484016 10876 net.cpp:156] Memory required for data: 977814816
I0403 14:36:43.484031 10876 layer_factory.hpp:77] Creating layer inception_4b/pool_proj
I0403 14:36:43.484053 10876 net.cpp:91] Creating Layer inception_4b/pool_proj
I0403 14:36:43.484069 10876 net.cpp:425] inception_4b/pool_proj <- inception_4b/pool
I0403 14:36:43.484091 10876 net.cpp:399] inception_4b/pool_proj -> inception_4b/pool_proj
I0403 14:36:43.485283 10876 net.cpp:141] Setting up inception_4b/pool_proj
I0403 14:36:43.485314 10876 net.cpp:148] Top shape: 24 64 14 14 (301056)
I0403 14:36:43.485330 10876 net.cpp:156] Memory required for data: 979019040
I0403 14:36:43.485348 10876 layer_factory.hpp:77] Creating layer inception_4b/relu_pool_proj
I0403 14:36:43.485368 10876 net.cpp:91] Creating Layer inception_4b/relu_pool_proj
I0403 14:36:43.485385 10876 net.cpp:425] inception_4b/relu_pool_proj <- inception_4b/pool_proj
I0403 14:36:43.485405 10876 net.cpp:386] inception_4b/relu_pool_proj -> inception_4b/pool_proj (in-place)
I0403 14:36:43.485584 10876 net.cpp:141] Setting up inception_4b/relu_pool_proj
I0403 14:36:43.485610 10876 net.cpp:148] Top shape: 24 64 14 14 (301056)
I0403 14:36:43.485623 10876 net.cpp:156] Memory required for data: 980223264
I0403 14:36:43.485638 10876 layer_factory.hpp:77] Creating layer inception_4b/output
I0403 14:36:43.485656 10876 net.cpp:91] Creating Layer inception_4b/output
I0403 14:36:43.485672 10876 net.cpp:425] inception_4b/output <- inception_4b/1x1
I0403 14:36:43.485688 10876 net.cpp:425] inception_4b/output <- inception_4b/3x3
I0403 14:36:43.485705 10876 net.cpp:425] inception_4b/output <- inception_4b/5x5
I0403 14:36:43.485721 10876 net.cpp:425] inception_4b/output <- inception_4b/pool_proj
I0403 14:36:43.485743 10876 net.cpp:399] inception_4b/output -> inception_4b/output
I0403 14:36:43.485792 10876 net.cpp:141] Setting up inception_4b/output
I0403 14:36:43.485816 10876 net.cpp:148] Top shape: 24 512 14 14 (2408448)
I0403 14:36:43.485831 10876 net.cpp:156] Memory required for data: 989857056
I0403 14:36:43.485858 10876 layer_factory.hpp:77] Creating layer inception_4b/output_inception_4b/output_0_split
I0403 14:36:43.485877 10876 net.cpp:91] Creating Layer inception_4b/output_inception_4b/output_0_split
I0403 14:36:43.485893 10876 net.cpp:425] inception_4b/output_inception_4b/output_0_split <- inception_4b/output
I0403 14:36:43.485913 10876 net.cpp:399] inception_4b/output_inception_4b/output_0_split -> inception_4b/output_inception_4b/output_0_split_0
I0403 14:36:43.485934 10876 net.cpp:399] inception_4b/output_inception_4b/output_0_split -> inception_4b/output_inception_4b/output_0_split_1
I0403 14:36:43.485954 10876 net.cpp:399] inception_4b/output_inception_4b/output_0_split -> inception_4b/output_inception_4b/output_0_split_2
I0403 14:36:43.485973 10876 net.cpp:399] inception_4b/output_inception_4b/output_0_split -> inception_4b/output_inception_4b/output_0_split_3
I0403 14:36:43.486057 10876 net.cpp:141] Setting up inception_4b/output_inception_4b/output_0_split
I0403 14:36:43.486081 10876 net.cpp:148] Top shape: 24 512 14 14 (2408448)
I0403 14:36:43.486102 10876 net.cpp:148] Top shape: 24 512 14 14 (2408448)
I0403 14:36:43.486120 10876 net.cpp:148] Top shape: 24 512 14 14 (2408448)
I0403 14:36:43.486136 10876 net.cpp:148] Top shape: 24 512 14 14 (2408448)
I0403 14:36:43.486150 10876 net.cpp:156] Memory required for data: 1028392224
I0403 14:36:43.486165 10876 layer_factory.hpp:77] Creating layer inception_4c/1x1
I0403 14:36:43.486187 10876 net.cpp:91] Creating Layer inception_4c/1x1
I0403 14:36:43.486205 10876 net.cpp:425] inception_4c/1x1 <- inception_4b/output_inception_4b/output_0_split_0
I0403 14:36:43.486224 10876 net.cpp:399] inception_4c/1x1 -> inception_4c/1x1
I0403 14:36:43.487651 10876 net.cpp:141] Setting up inception_4c/1x1
I0403 14:36:43.487680 10876 net.cpp:148] Top shape: 24 128 14 14 (602112)
I0403 14:36:43.487695 10876 net.cpp:156] Memory required for data: 1030800672
I0403 14:36:43.487715 10876 layer_factory.hpp:77] Creating layer inception_4c/relu_1x1
I0403 14:36:43.487735 10876 net.cpp:91] Creating Layer inception_4c/relu_1x1
I0403 14:36:43.487752 10876 net.cpp:425] inception_4c/relu_1x1 <- inception_4c/1x1
I0403 14:36:43.487771 10876 net.cpp:386] inception_4c/relu_1x1 -> inception_4c/1x1 (in-place)
I0403 14:36:43.487947 10876 net.cpp:141] Setting up inception_4c/relu_1x1
I0403 14:36:43.487975 10876 net.cpp:148] Top shape: 24 128 14 14 (602112)
I0403 14:36:43.487990 10876 net.cpp:156] Memory required for data: 1033209120
I0403 14:36:43.488004 10876 layer_factory.hpp:77] Creating layer inception_4c/3x3_reduce
I0403 14:36:43.488026 10876 net.cpp:91] Creating Layer inception_4c/3x3_reduce
I0403 14:36:43.488044 10876 net.cpp:425] inception_4c/3x3_reduce <- inception_4b/output_inception_4b/output_0_split_1
I0403 14:36:43.488064 10876 net.cpp:399] inception_4c/3x3_reduce -> inception_4c/3x3_reduce
I0403 14:36:43.489995 10876 net.cpp:141] Setting up inception_4c/3x3_reduce
I0403 14:36:43.490026 10876 net.cpp:148] Top shape: 24 128 14 14 (602112)
I0403 14:36:43.490044 10876 net.cpp:156] Memory required for data: 1035617568
I0403 14:36:43.490063 10876 layer_factory.hpp:77] Creating layer inception_4c/relu_3x3_reduce
I0403 14:36:43.490082 10876 net.cpp:91] Creating Layer inception_4c/relu_3x3_reduce
I0403 14:36:43.490100 10876 net.cpp:425] inception_4c/relu_3x3_reduce <- inception_4c/3x3_reduce
I0403 14:36:43.490120 10876 net.cpp:386] inception_4c/relu_3x3_reduce -> inception_4c/3x3_reduce (in-place)
I0403 14:36:43.490407 10876 net.cpp:141] Setting up inception_4c/relu_3x3_reduce
I0403 14:36:43.490437 10876 net.cpp:148] Top shape: 24 128 14 14 (602112)
I0403 14:36:43.490453 10876 net.cpp:156] Memory required for data: 1038026016
I0403 14:36:43.490469 10876 layer_factory.hpp:77] Creating layer inception_4c/3x3
I0403 14:36:43.490494 10876 net.cpp:91] Creating Layer inception_4c/3x3
I0403 14:36:43.490511 10876 net.cpp:425] inception_4c/3x3 <- inception_4c/3x3_reduce
I0403 14:36:43.490531 10876 net.cpp:399] inception_4c/3x3 -> inception_4c/3x3
I0403 14:36:43.494138 10876 net.cpp:141] Setting up inception_4c/3x3
I0403 14:36:43.494184 10876 net.cpp:148] Top shape: 24 256 14 14 (1204224)
I0403 14:36:43.494201 10876 net.cpp:156] Memory required for data: 1042842912
I0403 14:36:43.494233 10876 layer_factory.hpp:77] Creating layer inception_4c/relu_3x3
I0403 14:36:43.494254 10876 net.cpp:91] Creating Layer inception_4c/relu_3x3
I0403 14:36:43.494271 10876 net.cpp:425] inception_4c/relu_3x3 <- inception_4c/3x3
I0403 14:36:43.494289 10876 net.cpp:386] inception_4c/relu_3x3 -> inception_4c/3x3 (in-place)
I0403 14:36:43.494469 10876 net.cpp:141] Setting up inception_4c/relu_3x3
I0403 14:36:43.494495 10876 net.cpp:148] Top shape: 24 256 14 14 (1204224)
I0403 14:36:43.494511 10876 net.cpp:156] Memory required for data: 1047659808
I0403 14:36:43.494526 10876 layer_factory.hpp:77] Creating layer inception_4c/5x5_reduce
I0403 14:36:43.494550 10876 net.cpp:91] Creating Layer inception_4c/5x5_reduce
I0403 14:36:43.494570 10876 net.cpp:425] inception_4c/5x5_reduce <- inception_4b/output_inception_4b/output_0_split_2
I0403 14:36:43.494590 10876 net.cpp:399] inception_4c/5x5_reduce -> inception_4c/5x5_reduce
I0403 14:36:43.495678 10876 net.cpp:141] Setting up inception_4c/5x5_reduce
I0403 14:36:43.495707 10876 net.cpp:148] Top shape: 24 24 14 14 (112896)
I0403 14:36:43.495723 10876 net.cpp:156] Memory required for data: 1048111392
I0403 14:36:43.495740 10876 layer_factory.hpp:77] Creating layer inception_4c/relu_5x5_reduce
I0403 14:36:43.495759 10876 net.cpp:91] Creating Layer inception_4c/relu_5x5_reduce
I0403 14:36:43.495774 10876 net.cpp:425] inception_4c/relu_5x5_reduce <- inception_4c/5x5_reduce
I0403 14:36:43.495792 10876 net.cpp:386] inception_4c/relu_5x5_reduce -> inception_4c/5x5_reduce (in-place)
I0403 14:36:43.495975 10876 net.cpp:141] Setting up inception_4c/relu_5x5_reduce
I0403 14:36:43.496001 10876 net.cpp:148] Top shape: 24 24 14 14 (112896)
I0403 14:36:43.496016 10876 net.cpp:156] Memory required for data: 1048562976
I0403 14:36:43.496031 10876 layer_factory.hpp:77] Creating layer inception_4c/5x5
I0403 14:36:43.496052 10876 net.cpp:91] Creating Layer inception_4c/5x5
I0403 14:36:43.496069 10876 net.cpp:425] inception_4c/5x5 <- inception_4c/5x5_reduce
I0403 14:36:43.496090 10876 net.cpp:399] inception_4c/5x5 -> inception_4c/5x5
I0403 14:36:43.497339 10876 net.cpp:141] Setting up inception_4c/5x5
I0403 14:36:43.497367 10876 net.cpp:148] Top shape: 24 64 14 14 (301056)
I0403 14:36:43.497383 10876 net.cpp:156] Memory required for data: 1049767200
I0403 14:36:43.497402 10876 layer_factory.hpp:77] Creating layer inception_4c/relu_5x5
I0403 14:36:43.497424 10876 net.cpp:91] Creating Layer inception_4c/relu_5x5
I0403 14:36:43.497442 10876 net.cpp:425] inception_4c/relu_5x5 <- inception_4c/5x5
I0403 14:36:43.497459 10876 net.cpp:386] inception_4c/relu_5x5 -> inception_4c/5x5 (in-place)
I0403 14:36:43.497751 10876 net.cpp:141] Setting up inception_4c/relu_5x5
I0403 14:36:43.497777 10876 net.cpp:148] Top shape: 24 64 14 14 (301056)
I0403 14:36:43.497794 10876 net.cpp:156] Memory required for data: 1050971424
I0403 14:36:43.497809 10876 layer_factory.hpp:77] Creating layer inception_4c/pool
I0403 14:36:43.497828 10876 net.cpp:91] Creating Layer inception_4c/pool
I0403 14:36:43.497843 10876 net.cpp:425] inception_4c/pool <- inception_4b/output_inception_4b/output_0_split_3
I0403 14:36:43.497864 10876 net.cpp:399] inception_4c/pool -> inception_4c/pool
I0403 14:36:43.497932 10876 net.cpp:141] Setting up inception_4c/pool
I0403 14:36:43.497957 10876 net.cpp:148] Top shape: 24 512 14 14 (2408448)
I0403 14:36:43.497972 10876 net.cpp:156] Memory required for data: 1060605216
I0403 14:36:43.497987 10876 layer_factory.hpp:77] Creating layer inception_4c/pool_proj
I0403 14:36:43.498009 10876 net.cpp:91] Creating Layer inception_4c/pool_proj
I0403 14:36:43.498026 10876 net.cpp:425] inception_4c/pool_proj <- inception_4c/pool
I0403 14:36:43.498047 10876 net.cpp:399] inception_4c/pool_proj -> inception_4c/pool_proj
I0403 14:36:43.499270 10876 net.cpp:141] Setting up inception_4c/pool_proj
I0403 14:36:43.499301 10876 net.cpp:148] Top shape: 24 64 14 14 (301056)
I0403 14:36:43.499332 10876 net.cpp:156] Memory required for data: 1061809440
I0403 14:36:43.499354 10876 layer_factory.hpp:77] Creating layer inception_4c/relu_pool_proj
I0403 14:36:43.499372 10876 net.cpp:91] Creating Layer inception_4c/relu_pool_proj
I0403 14:36:43.499387 10876 net.cpp:425] inception_4c/relu_pool_proj <- inception_4c/pool_proj
I0403 14:36:43.499408 10876 net.cpp:386] inception_4c/relu_pool_proj -> inception_4c/pool_proj (in-place)
I0403 14:36:43.499586 10876 net.cpp:141] Setting up inception_4c/relu_pool_proj
I0403 14:36:43.499613 10876 net.cpp:148] Top shape: 24 64 14 14 (301056)
I0403 14:36:43.499627 10876 net.cpp:156] Memory required for data: 1063013664
I0403 14:36:43.499642 10876 layer_factory.hpp:77] Creating layer inception_4c/output
I0403 14:36:43.499660 10876 net.cpp:91] Creating Layer inception_4c/output
I0403 14:36:43.499677 10876 net.cpp:425] inception_4c/output <- inception_4c/1x1
I0403 14:36:43.499693 10876 net.cpp:425] inception_4c/output <- inception_4c/3x3
I0403 14:36:43.499711 10876 net.cpp:425] inception_4c/output <- inception_4c/5x5
I0403 14:36:43.499727 10876 net.cpp:425] inception_4c/output <- inception_4c/pool_proj
I0403 14:36:43.499747 10876 net.cpp:399] inception_4c/output -> inception_4c/output
I0403 14:36:43.499796 10876 net.cpp:141] Setting up inception_4c/output
I0403 14:36:43.499820 10876 net.cpp:148] Top shape: 24 512 14 14 (2408448)
I0403 14:36:43.499835 10876 net.cpp:156] Memory required for data: 1072647456
I0403 14:36:43.499850 10876 layer_factory.hpp:77] Creating layer inception_4c/output_inception_4c/output_0_split
I0403 14:36:43.499867 10876 net.cpp:91] Creating Layer inception_4c/output_inception_4c/output_0_split
I0403 14:36:43.499881 10876 net.cpp:425] inception_4c/output_inception_4c/output_0_split <- inception_4c/output
I0403 14:36:43.499900 10876 net.cpp:399] inception_4c/output_inception_4c/output_0_split -> inception_4c/output_inception_4c/output_0_split_0
I0403 14:36:43.499923 10876 net.cpp:399] inception_4c/output_inception_4c/output_0_split -> inception_4c/output_inception_4c/output_0_split_1
I0403 14:36:43.499943 10876 net.cpp:399] inception_4c/output_inception_4c/output_0_split -> inception_4c/output_inception_4c/output_0_split_2
I0403 14:36:43.499963 10876 net.cpp:399] inception_4c/output_inception_4c/output_0_split -> inception_4c/output_inception_4c/output_0_split_3
I0403 14:36:43.500049 10876 net.cpp:141] Setting up inception_4c/output_inception_4c/output_0_split
I0403 14:36:43.500072 10876 net.cpp:148] Top shape: 24 512 14 14 (2408448)
I0403 14:36:43.500088 10876 net.cpp:148] Top shape: 24 512 14 14 (2408448)
I0403 14:36:43.500110 10876 net.cpp:148] Top shape: 24 512 14 14 (2408448)
I0403 14:36:43.500128 10876 net.cpp:148] Top shape: 24 512 14 14 (2408448)
I0403 14:36:43.500141 10876 net.cpp:156] Memory required for data: 1111182624
I0403 14:36:43.500157 10876 layer_factory.hpp:77] Creating layer inception_4d/1x1
I0403 14:36:43.500182 10876 net.cpp:91] Creating Layer inception_4d/1x1
I0403 14:36:43.500201 10876 net.cpp:425] inception_4d/1x1 <- inception_4c/output_inception_4c/output_0_split_0
I0403 14:36:43.500219 10876 net.cpp:399] inception_4d/1x1 -> inception_4d/1x1
I0403 14:36:43.501586 10876 net.cpp:141] Setting up inception_4d/1x1
I0403 14:36:43.501615 10876 net.cpp:148] Top shape: 24 112 14 14 (526848)
I0403 14:36:43.501631 10876 net.cpp:156] Memory required for data: 1113290016
I0403 14:36:43.501649 10876 layer_factory.hpp:77] Creating layer inception_4d/relu_1x1
I0403 14:36:43.501678 10876 net.cpp:91] Creating Layer inception_4d/relu_1x1
I0403 14:36:43.501696 10876 net.cpp:425] inception_4d/relu_1x1 <- inception_4d/1x1
I0403 14:36:43.501713 10876 net.cpp:386] inception_4d/relu_1x1 -> inception_4d/1x1 (in-place)
I0403 14:36:43.501898 10876 net.cpp:141] Setting up inception_4d/relu_1x1
I0403 14:36:43.501922 10876 net.cpp:148] Top shape: 24 112 14 14 (526848)
I0403 14:36:43.501937 10876 net.cpp:156] Memory required for data: 1115397408
I0403 14:36:43.501953 10876 layer_factory.hpp:77] Creating layer inception_4d/3x3_reduce
I0403 14:36:43.501989 10876 net.cpp:91] Creating Layer inception_4d/3x3_reduce
I0403 14:36:43.502008 10876 net.cpp:425] inception_4d/3x3_reduce <- inception_4c/output_inception_4c/output_0_split_1
I0403 14:36:43.502030 10876 net.cpp:399] inception_4d/3x3_reduce -> inception_4d/3x3_reduce
I0403 14:36:43.503577 10876 net.cpp:141] Setting up inception_4d/3x3_reduce
I0403 14:36:43.503607 10876 net.cpp:148] Top shape: 24 144 14 14 (677376)
I0403 14:36:43.503623 10876 net.cpp:156] Memory required for data: 1118106912
I0403 14:36:43.503643 10876 layer_factory.hpp:77] Creating layer inception_4d/relu_3x3_reduce
I0403 14:36:43.503664 10876 net.cpp:91] Creating Layer inception_4d/relu_3x3_reduce
I0403 14:36:43.503681 10876 net.cpp:425] inception_4d/relu_3x3_reduce <- inception_4d/3x3_reduce
I0403 14:36:43.503700 10876 net.cpp:386] inception_4d/relu_3x3_reduce -> inception_4d/3x3_reduce (in-place)
I0403 14:36:43.503993 10876 net.cpp:141] Setting up inception_4d/relu_3x3_reduce
I0403 14:36:43.504020 10876 net.cpp:148] Top shape: 24 144 14 14 (677376)
I0403 14:36:43.504035 10876 net.cpp:156] Memory required for data: 1120816416
I0403 14:36:43.504051 10876 layer_factory.hpp:77] Creating layer inception_4d/3x3
I0403 14:36:43.504075 10876 net.cpp:91] Creating Layer inception_4d/3x3
I0403 14:36:43.504097 10876 net.cpp:425] inception_4d/3x3 <- inception_4d/3x3_reduce
I0403 14:36:43.504122 10876 net.cpp:399] inception_4d/3x3 -> inception_4d/3x3
I0403 14:36:43.508687 10876 net.cpp:141] Setting up inception_4d/3x3
I0403 14:36:43.508723 10876 net.cpp:148] Top shape: 24 288 14 14 (1354752)
I0403 14:36:43.508739 10876 net.cpp:156] Memory required for data: 1126235424
I0403 14:36:43.508759 10876 layer_factory.hpp:77] Creating layer inception_4d/relu_3x3
I0403 14:36:43.508777 10876 net.cpp:91] Creating Layer inception_4d/relu_3x3
I0403 14:36:43.508795 10876 net.cpp:425] inception_4d/relu_3x3 <- inception_4d/3x3
I0403 14:36:43.508813 10876 net.cpp:386] inception_4d/relu_3x3 -> inception_4d/3x3 (in-place)
I0403 14:36:43.509003 10876 net.cpp:141] Setting up inception_4d/relu_3x3
I0403 14:36:43.509032 10876 net.cpp:148] Top shape: 24 288 14 14 (1354752)
I0403 14:36:43.509048 10876 net.cpp:156] Memory required for data: 1131654432
I0403 14:36:43.509064 10876 layer_factory.hpp:77] Creating layer inception_4d/5x5_reduce
I0403 14:36:43.509088 10876 net.cpp:91] Creating Layer inception_4d/5x5_reduce
I0403 14:36:43.509110 10876 net.cpp:425] inception_4d/5x5_reduce <- inception_4c/output_inception_4c/output_0_split_2
I0403 14:36:43.509133 10876 net.cpp:399] inception_4d/5x5_reduce -> inception_4d/5x5_reduce
I0403 14:36:43.510309 10876 net.cpp:141] Setting up inception_4d/5x5_reduce
I0403 14:36:43.510339 10876 net.cpp:148] Top shape: 24 32 14 14 (150528)
I0403 14:36:43.510356 10876 net.cpp:156] Memory required for data: 1132256544
I0403 14:36:43.510375 10876 layer_factory.hpp:77] Creating layer inception_4d/relu_5x5_reduce
I0403 14:36:43.510396 10876 net.cpp:91] Creating Layer inception_4d/relu_5x5_reduce
I0403 14:36:43.510414 10876 net.cpp:425] inception_4d/relu_5x5_reduce <- inception_4d/5x5_reduce
I0403 14:36:43.510432 10876 net.cpp:386] inception_4d/relu_5x5_reduce -> inception_4d/5x5_reduce (in-place)
I0403 14:36:43.510624 10876 net.cpp:141] Setting up inception_4d/relu_5x5_reduce
I0403 14:36:43.510650 10876 net.cpp:148] Top shape: 24 32 14 14 (150528)
I0403 14:36:43.510666 10876 net.cpp:156] Memory required for data: 1132858656
I0403 14:36:43.510682 10876 layer_factory.hpp:77] Creating layer inception_4d/5x5
I0403 14:36:43.510704 10876 net.cpp:91] Creating Layer inception_4d/5x5
I0403 14:36:43.510723 10876 net.cpp:425] inception_4d/5x5 <- inception_4d/5x5_reduce
I0403 14:36:43.510745 10876 net.cpp:399] inception_4d/5x5 -> inception_4d/5x5
I0403 14:36:43.512279 10876 net.cpp:141] Setting up inception_4d/5x5
I0403 14:36:43.512310 10876 net.cpp:148] Top shape: 24 64 14 14 (301056)
I0403 14:36:43.512326 10876 net.cpp:156] Memory required for data: 1134062880
I0403 14:36:43.512346 10876 layer_factory.hpp:77] Creating layer inception_4d/relu_5x5
I0403 14:36:43.512383 10876 net.cpp:91] Creating Layer inception_4d/relu_5x5
I0403 14:36:43.512403 10876 net.cpp:425] inception_4d/relu_5x5 <- inception_4d/5x5
I0403 14:36:43.512421 10876 net.cpp:386] inception_4d/relu_5x5 -> inception_4d/5x5 (in-place)
I0403 14:36:43.512737 10876 net.cpp:141] Setting up inception_4d/relu_5x5
I0403 14:36:43.512764 10876 net.cpp:148] Top shape: 24 64 14 14 (301056)
I0403 14:36:43.512780 10876 net.cpp:156] Memory required for data: 1135267104
I0403 14:36:43.512795 10876 layer_factory.hpp:77] Creating layer inception_4d/pool
I0403 14:36:43.512814 10876 net.cpp:91] Creating Layer inception_4d/pool
I0403 14:36:43.512830 10876 net.cpp:425] inception_4d/pool <- inception_4c/output_inception_4c/output_0_split_3
I0403 14:36:43.512850 10876 net.cpp:399] inception_4d/pool -> inception_4d/pool
I0403 14:36:43.512920 10876 net.cpp:141] Setting up inception_4d/pool
I0403 14:36:43.512945 10876 net.cpp:148] Top shape: 24 512 14 14 (2408448)
I0403 14:36:43.512960 10876 net.cpp:156] Memory required for data: 1144900896
I0403 14:36:43.512974 10876 layer_factory.hpp:77] Creating layer inception_4d/pool_proj
I0403 14:36:43.513000 10876 net.cpp:91] Creating Layer inception_4d/pool_proj
I0403 14:36:43.513017 10876 net.cpp:425] inception_4d/pool_proj <- inception_4d/pool
I0403 14:36:43.513036 10876 net.cpp:399] inception_4d/pool_proj -> inception_4d/pool_proj
I0403 14:36:43.514865 10876 net.cpp:141] Setting up inception_4d/pool_proj
I0403 14:36:43.514899 10876 net.cpp:148] Top shape: 24 64 14 14 (301056)
I0403 14:36:43.514917 10876 net.cpp:156] Memory required for data: 1146105120
I0403 14:36:43.514935 10876 layer_factory.hpp:77] Creating layer inception_4d/relu_pool_proj
I0403 14:36:43.514955 10876 net.cpp:91] Creating Layer inception_4d/relu_pool_proj
I0403 14:36:43.514971 10876 net.cpp:425] inception_4d/relu_pool_proj <- inception_4d/pool_proj
I0403 14:36:43.514989 10876 net.cpp:386] inception_4d/relu_pool_proj -> inception_4d/pool_proj (in-place)
I0403 14:36:43.515195 10876 net.cpp:141] Setting up inception_4d/relu_pool_proj
I0403 14:36:43.515221 10876 net.cpp:148] Top shape: 24 64 14 14 (301056)
I0403 14:36:43.515236 10876 net.cpp:156] Memory required for data: 1147309344
I0403 14:36:43.515251 10876 layer_factory.hpp:77] Creating layer inception_4d/output
I0403 14:36:43.515269 10876 net.cpp:91] Creating Layer inception_4d/output
I0403 14:36:43.515285 10876 net.cpp:425] inception_4d/output <- inception_4d/1x1
I0403 14:36:43.515303 10876 net.cpp:425] inception_4d/output <- inception_4d/3x3
I0403 14:36:43.515319 10876 net.cpp:425] inception_4d/output <- inception_4d/5x5
I0403 14:36:43.515336 10876 net.cpp:425] inception_4d/output <- inception_4d/pool_proj
I0403 14:36:43.515357 10876 net.cpp:399] inception_4d/output -> inception_4d/output
I0403 14:36:43.515406 10876 net.cpp:141] Setting up inception_4d/output
I0403 14:36:43.515431 10876 net.cpp:148] Top shape: 24 528 14 14 (2483712)
I0403 14:36:43.515447 10876 net.cpp:156] Memory required for data: 1157244192
I0403 14:36:43.515463 10876 layer_factory.hpp:77] Creating layer inception_4d/output_inception_4d/output_0_split
I0403 14:36:43.515485 10876 net.cpp:91] Creating Layer inception_4d/output_inception_4d/output_0_split
I0403 14:36:43.515502 10876 net.cpp:425] inception_4d/output_inception_4d/output_0_split <- inception_4d/output
I0403 14:36:43.515523 10876 net.cpp:399] inception_4d/output_inception_4d/output_0_split -> inception_4d/output_inception_4d/output_0_split_0
I0403 14:36:43.515547 10876 net.cpp:399] inception_4d/output_inception_4d/output_0_split -> inception_4d/output_inception_4d/output_0_split_1
I0403 14:36:43.515568 10876 net.cpp:399] inception_4d/output_inception_4d/output_0_split -> inception_4d/output_inception_4d/output_0_split_2
I0403 14:36:43.515591 10876 net.cpp:399] inception_4d/output_inception_4d/output_0_split -> inception_4d/output_inception_4d/output_0_split_3
I0403 14:36:43.515611 10876 net.cpp:399] inception_4d/output_inception_4d/output_0_split -> inception_4d/output_inception_4d/output_0_split_4
I0403 14:36:43.515715 10876 net.cpp:141] Setting up inception_4d/output_inception_4d/output_0_split
I0403 14:36:43.515755 10876 net.cpp:148] Top shape: 24 528 14 14 (2483712)
I0403 14:36:43.515774 10876 net.cpp:148] Top shape: 24 528 14 14 (2483712)
I0403 14:36:43.515790 10876 net.cpp:148] Top shape: 24 528 14 14 (2483712)
I0403 14:36:43.515806 10876 net.cpp:148] Top shape: 24 528 14 14 (2483712)
I0403 14:36:43.515823 10876 net.cpp:148] Top shape: 24 528 14 14 (2483712)
I0403 14:36:43.515838 10876 net.cpp:156] Memory required for data: 1206918432
I0403 14:36:43.515853 10876 layer_factory.hpp:77] Creating layer loss2/ave_pool
I0403 14:36:43.515875 10876 net.cpp:91] Creating Layer loss2/ave_pool
I0403 14:36:43.515893 10876 net.cpp:425] loss2/ave_pool <- inception_4d/output_inception_4d/output_0_split_0
I0403 14:36:43.515913 10876 net.cpp:399] loss2/ave_pool -> loss2/ave_pool
I0403 14:36:43.516237 10876 net.cpp:141] Setting up loss2/ave_pool
I0403 14:36:43.516266 10876 net.cpp:148] Top shape: 24 528 4 4 (202752)
I0403 14:36:43.516283 10876 net.cpp:156] Memory required for data: 1207729440
I0403 14:36:43.516299 10876 layer_factory.hpp:77] Creating layer loss2/conv
I0403 14:36:43.516321 10876 net.cpp:91] Creating Layer loss2/conv
I0403 14:36:43.516340 10876 net.cpp:425] loss2/conv <- loss2/ave_pool
I0403 14:36:43.516360 10876 net.cpp:399] loss2/conv -> loss2/conv
I0403 14:36:43.518304 10876 net.cpp:141] Setting up loss2/conv
I0403 14:36:43.518334 10876 net.cpp:148] Top shape: 24 128 4 4 (49152)
I0403 14:36:43.518352 10876 net.cpp:156] Memory required for data: 1207926048
I0403 14:36:43.518373 10876 layer_factory.hpp:77] Creating layer loss2/relu_conv
I0403 14:36:43.518393 10876 net.cpp:91] Creating Layer loss2/relu_conv
I0403 14:36:43.518410 10876 net.cpp:425] loss2/relu_conv <- loss2/conv
I0403 14:36:43.518429 10876 net.cpp:386] loss2/relu_conv -> loss2/conv (in-place)
I0403 14:36:43.518712 10876 net.cpp:141] Setting up loss2/relu_conv
I0403 14:36:43.518740 10876 net.cpp:148] Top shape: 24 128 4 4 (49152)
I0403 14:36:43.518755 10876 net.cpp:156] Memory required for data: 1208122656
I0403 14:36:43.518771 10876 layer_factory.hpp:77] Creating layer loss2/fc
I0403 14:36:43.518797 10876 net.cpp:91] Creating Layer loss2/fc
I0403 14:36:43.518815 10876 net.cpp:425] loss2/fc <- loss2/conv
I0403 14:36:43.518834 10876 net.cpp:399] loss2/fc -> loss2/fc
I0403 14:36:43.536497 10876 net.cpp:141] Setting up loss2/fc
I0403 14:36:43.536561 10876 net.cpp:148] Top shape: 24 1024 (24576)
I0403 14:36:43.536576 10876 net.cpp:156] Memory required for data: 1208220960
I0403 14:36:43.536607 10876 layer_factory.hpp:77] Creating layer loss2/relu_fc
I0403 14:36:43.536629 10876 net.cpp:91] Creating Layer loss2/relu_fc
I0403 14:36:43.536648 10876 net.cpp:425] loss2/relu_fc <- loss2/fc
I0403 14:36:43.536669 10876 net.cpp:386] loss2/relu_fc -> loss2/fc (in-place)
I0403 14:36:43.536999 10876 net.cpp:141] Setting up loss2/relu_fc
I0403 14:36:43.537027 10876 net.cpp:148] Top shape: 24 1024 (24576)
I0403 14:36:43.537044 10876 net.cpp:156] Memory required for data: 1208319264
I0403 14:36:43.537057 10876 layer_factory.hpp:77] Creating layer loss2/drop_fc
I0403 14:36:43.537076 10876 net.cpp:91] Creating Layer loss2/drop_fc
I0403 14:36:43.537092 10876 net.cpp:425] loss2/drop_fc <- loss2/fc
I0403 14:36:43.537117 10876 net.cpp:386] loss2/drop_fc -> loss2/fc (in-place)
I0403 14:36:43.537168 10876 net.cpp:141] Setting up loss2/drop_fc
I0403 14:36:43.537190 10876 net.cpp:148] Top shape: 24 1024 (24576)
I0403 14:36:43.537204 10876 net.cpp:156] Memory required for data: 1208417568
I0403 14:36:43.537220 10876 layer_factory.hpp:77] Creating layer loss2/classifier_plantvillage
I0403 14:36:43.537241 10876 net.cpp:91] Creating Layer loss2/classifier_plantvillage
I0403 14:36:43.537258 10876 net.cpp:425] loss2/classifier_plantvillage <- loss2/fc
I0403 14:36:43.537278 10876 net.cpp:399] loss2/classifier_plantvillage -> loss2/classifier_plantvillage
I0403 14:36:43.537677 10876 net.cpp:141] Setting up loss2/classifier_plantvillage
I0403 14:36:43.537701 10876 net.cpp:148] Top shape: 24 38 (912)
I0403 14:36:43.537741 10876 net.cpp:156] Memory required for data: 1208421216
I0403 14:36:43.537761 10876 layer_factory.hpp:77] Creating layer loss2/classifier_plantvillage_loss2/classifier_plantvillage_0_split
I0403 14:36:43.537781 10876 net.cpp:91] Creating Layer loss2/classifier_plantvillage_loss2/classifier_plantvillage_0_split
I0403 14:36:43.537799 10876 net.cpp:425] loss2/classifier_plantvillage_loss2/classifier_plantvillage_0_split <- loss2/classifier_plantvillage
I0403 14:36:43.537817 10876 net.cpp:399] loss2/classifier_plantvillage_loss2/classifier_plantvillage_0_split -> loss2/classifier_plantvillage_loss2/classifier_plantvillage_0_split_0
I0403 14:36:43.537837 10876 net.cpp:399] loss2/classifier_plantvillage_loss2/classifier_plantvillage_0_split -> loss2/classifier_plantvillage_loss2/classifier_plantvillage_0_split_1
I0403 14:36:43.537856 10876 net.cpp:399] loss2/classifier_plantvillage_loss2/classifier_plantvillage_0_split -> loss2/classifier_plantvillage_loss2/classifier_plantvillage_0_split_2
I0403 14:36:43.537933 10876 net.cpp:141] Setting up loss2/classifier_plantvillage_loss2/classifier_plantvillage_0_split
I0403 14:36:43.537957 10876 net.cpp:148] Top shape: 24 38 (912)
I0403 14:36:43.537986 10876 net.cpp:148] Top shape: 24 38 (912)
I0403 14:36:43.538002 10876 net.cpp:148] Top shape: 24 38 (912)
I0403 14:36:43.538017 10876 net.cpp:156] Memory required for data: 1208432160
I0403 14:36:43.538030 10876 layer_factory.hpp:77] Creating layer inception_4e/1x1
I0403 14:36:43.538051 10876 net.cpp:91] Creating Layer inception_4e/1x1
I0403 14:36:43.538069 10876 net.cpp:425] inception_4e/1x1 <- inception_4d/output_inception_4d/output_0_split_1
I0403 14:36:43.538089 10876 net.cpp:399] inception_4e/1x1 -> inception_4e/1x1
I0403 14:36:43.539929 10876 net.cpp:141] Setting up inception_4e/1x1
I0403 14:36:43.539958 10876 net.cpp:148] Top shape: 24 256 14 14 (1204224)
I0403 14:36:43.539974 10876 net.cpp:156] Memory required for data: 1213249056
I0403 14:36:43.539994 10876 layer_factory.hpp:77] Creating layer inception_4e/relu_1x1
I0403 14:36:43.540025 10876 net.cpp:91] Creating Layer inception_4e/relu_1x1
I0403 14:36:43.540042 10876 net.cpp:425] inception_4e/relu_1x1 <- inception_4e/1x1
I0403 14:36:43.540060 10876 net.cpp:386] inception_4e/relu_1x1 -> inception_4e/1x1 (in-place)
I0403 14:36:43.540354 10876 net.cpp:141] Setting up inception_4e/relu_1x1
I0403 14:36:43.540380 10876 net.cpp:148] Top shape: 24 256 14 14 (1204224)
I0403 14:36:43.540395 10876 net.cpp:156] Memory required for data: 1218065952
I0403 14:36:43.540408 10876 layer_factory.hpp:77] Creating layer inception_4e/3x3_reduce
I0403 14:36:43.540431 10876 net.cpp:91] Creating Layer inception_4e/3x3_reduce
I0403 14:36:43.540448 10876 net.cpp:425] inception_4e/3x3_reduce <- inception_4d/output_inception_4d/output_0_split_2
I0403 14:36:43.540470 10876 net.cpp:399] inception_4e/3x3_reduce -> inception_4e/3x3_reduce
I0403 14:36:43.542594 10876 net.cpp:141] Setting up inception_4e/3x3_reduce
I0403 14:36:43.542623 10876 net.cpp:148] Top shape: 24 160 14 14 (752640)
I0403 14:36:43.542639 10876 net.cpp:156] Memory required for data: 1221076512
I0403 14:36:43.542657 10876 layer_factory.hpp:77] Creating layer inception_4e/relu_3x3_reduce
I0403 14:36:43.542675 10876 net.cpp:91] Creating Layer inception_4e/relu_3x3_reduce
I0403 14:36:43.542692 10876 net.cpp:425] inception_4e/relu_3x3_reduce <- inception_4e/3x3_reduce
I0403 14:36:43.542712 10876 net.cpp:386] inception_4e/relu_3x3_reduce -> inception_4e/3x3_reduce (in-place)
I0403 14:36:43.542892 10876 net.cpp:141] Setting up inception_4e/relu_3x3_reduce
I0403 14:36:43.542918 10876 net.cpp:148] Top shape: 24 160 14 14 (752640)
I0403 14:36:43.542932 10876 net.cpp:156] Memory required for data: 1224087072
I0403 14:36:43.542946 10876 layer_factory.hpp:77] Creating layer inception_4e/3x3
I0403 14:36:43.542968 10876 net.cpp:91] Creating Layer inception_4e/3x3
I0403 14:36:43.542987 10876 net.cpp:425] inception_4e/3x3 <- inception_4e/3x3_reduce
I0403 14:36:43.543009 10876 net.cpp:399] inception_4e/3x3 -> inception_4e/3x3
I0403 14:36:43.547987 10876 net.cpp:141] Setting up inception_4e/3x3
I0403 14:36:43.548030 10876 net.cpp:148] Top shape: 24 320 14 14 (1505280)
I0403 14:36:43.548048 10876 net.cpp:156] Memory required for data: 1230108192
I0403 14:36:43.548068 10876 layer_factory.hpp:77] Creating layer inception_4e/relu_3x3
I0403 14:36:43.548087 10876 net.cpp:91] Creating Layer inception_4e/relu_3x3
I0403 14:36:43.548110 10876 net.cpp:425] inception_4e/relu_3x3 <- inception_4e/3x3
I0403 14:36:43.548127 10876 net.cpp:386] inception_4e/relu_3x3 -> inception_4e/3x3 (in-place)
I0403 14:36:43.548429 10876 net.cpp:141] Setting up inception_4e/relu_3x3
I0403 14:36:43.548455 10876 net.cpp:148] Top shape: 24 320 14 14 (1505280)
I0403 14:36:43.548471 10876 net.cpp:156] Memory required for data: 1236129312
I0403 14:36:43.548487 10876 layer_factory.hpp:77] Creating layer inception_4e/5x5_reduce
I0403 14:36:43.548514 10876 net.cpp:91] Creating Layer inception_4e/5x5_reduce
I0403 14:36:43.548533 10876 net.cpp:425] inception_4e/5x5_reduce <- inception_4d/output_inception_4d/output_0_split_3
I0403 14:36:43.548552 10876 net.cpp:399] inception_4e/5x5_reduce -> inception_4e/5x5_reduce
I0403 14:36:43.549619 10876 net.cpp:141] Setting up inception_4e/5x5_reduce
I0403 14:36:43.549648 10876 net.cpp:148] Top shape: 24 32 14 14 (150528)
I0403 14:36:43.549664 10876 net.cpp:156] Memory required for data: 1236731424
I0403 14:36:43.549681 10876 layer_factory.hpp:77] Creating layer inception_4e/relu_5x5_reduce
I0403 14:36:43.549700 10876 net.cpp:91] Creating Layer inception_4e/relu_5x5_reduce
I0403 14:36:43.549715 10876 net.cpp:425] inception_4e/relu_5x5_reduce <- inception_4e/5x5_reduce
I0403 14:36:43.549733 10876 net.cpp:386] inception_4e/relu_5x5_reduce -> inception_4e/5x5_reduce (in-place)
I0403 14:36:43.550029 10876 net.cpp:141] Setting up inception_4e/relu_5x5_reduce
I0403 14:36:43.550056 10876 net.cpp:148] Top shape: 24 32 14 14 (150528)
I0403 14:36:43.550072 10876 net.cpp:156] Memory required for data: 1237333536
I0403 14:36:43.550088 10876 layer_factory.hpp:77] Creating layer inception_4e/5x5
I0403 14:36:43.550133 10876 net.cpp:91] Creating Layer inception_4e/5x5
I0403 14:36:43.550155 10876 net.cpp:425] inception_4e/5x5 <- inception_4e/5x5_reduce
I0403 14:36:43.550174 10876 net.cpp:399] inception_4e/5x5 -> inception_4e/5x5
I0403 14:36:43.552012 10876 net.cpp:141] Setting up inception_4e/5x5
I0403 14:36:43.552042 10876 net.cpp:148] Top shape: 24 128 14 14 (602112)
I0403 14:36:43.552059 10876 net.cpp:156] Memory required for data: 1239741984
I0403 14:36:43.552079 10876 layer_factory.hpp:77] Creating layer inception_4e/relu_5x5
I0403 14:36:43.552101 10876 net.cpp:91] Creating Layer inception_4e/relu_5x5
I0403 14:36:43.552119 10876 net.cpp:425] inception_4e/relu_5x5 <- inception_4e/5x5
I0403 14:36:43.552140 10876 net.cpp:386] inception_4e/relu_5x5 -> inception_4e/5x5 (in-place)
I0403 14:36:43.552337 10876 net.cpp:141] Setting up inception_4e/relu_5x5
I0403 14:36:43.552363 10876 net.cpp:148] Top shape: 24 128 14 14 (602112)
I0403 14:36:43.552378 10876 net.cpp:156] Memory required for data: 1242150432
I0403 14:36:43.552393 10876 layer_factory.hpp:77] Creating layer inception_4e/pool
I0403 14:36:43.552412 10876 net.cpp:91] Creating Layer inception_4e/pool
I0403 14:36:43.552428 10876 net.cpp:425] inception_4e/pool <- inception_4d/output_inception_4d/output_0_split_4
I0403 14:36:43.552448 10876 net.cpp:399] inception_4e/pool -> inception_4e/pool
I0403 14:36:43.552518 10876 net.cpp:141] Setting up inception_4e/pool
I0403 14:36:43.552543 10876 net.cpp:148] Top shape: 24 528 14 14 (2483712)
I0403 14:36:43.552558 10876 net.cpp:156] Memory required for data: 1252085280
I0403 14:36:43.552573 10876 layer_factory.hpp:77] Creating layer inception_4e/pool_proj
I0403 14:36:43.552595 10876 net.cpp:91] Creating Layer inception_4e/pool_proj
I0403 14:36:43.552613 10876 net.cpp:425] inception_4e/pool_proj <- inception_4e/pool
I0403 14:36:43.552634 10876 net.cpp:399] inception_4e/pool_proj -> inception_4e/pool_proj
I0403 14:36:43.554144 10876 net.cpp:141] Setting up inception_4e/pool_proj
I0403 14:36:43.554188 10876 net.cpp:148] Top shape: 24 128 14 14 (602112)
I0403 14:36:43.554205 10876 net.cpp:156] Memory required for data: 1254493728
I0403 14:36:43.554224 10876 layer_factory.hpp:77] Creating layer inception_4e/relu_pool_proj
I0403 14:36:43.554240 10876 net.cpp:91] Creating Layer inception_4e/relu_pool_proj
I0403 14:36:43.554256 10876 net.cpp:425] inception_4e/relu_pool_proj <- inception_4e/pool_proj
I0403 14:36:43.554273 10876 net.cpp:386] inception_4e/relu_pool_proj -> inception_4e/pool_proj (in-place)
I0403 14:36:43.554559 10876 net.cpp:141] Setting up inception_4e/relu_pool_proj
I0403 14:36:43.554587 10876 net.cpp:148] Top shape: 24 128 14 14 (602112)
I0403 14:36:43.554603 10876 net.cpp:156] Memory required for data: 1256902176
I0403 14:36:43.554620 10876 layer_factory.hpp:77] Creating layer inception_4e/output
I0403 14:36:43.554636 10876 net.cpp:91] Creating Layer inception_4e/output
I0403 14:36:43.554652 10876 net.cpp:425] inception_4e/output <- inception_4e/1x1
I0403 14:36:43.554668 10876 net.cpp:425] inception_4e/output <- inception_4e/3x3
I0403 14:36:43.554684 10876 net.cpp:425] inception_4e/output <- inception_4e/5x5
I0403 14:36:43.554700 10876 net.cpp:425] inception_4e/output <- inception_4e/pool_proj
I0403 14:36:43.554716 10876 net.cpp:399] inception_4e/output -> inception_4e/output
I0403 14:36:43.554766 10876 net.cpp:141] Setting up inception_4e/output
I0403 14:36:43.554790 10876 net.cpp:148] Top shape: 24 832 14 14 (3913728)
I0403 14:36:43.554805 10876 net.cpp:156] Memory required for data: 1272557088
I0403 14:36:43.554818 10876 layer_factory.hpp:77] Creating layer pool4/3x3_s2
I0403 14:36:43.554838 10876 net.cpp:91] Creating Layer pool4/3x3_s2
I0403 14:36:43.554854 10876 net.cpp:425] pool4/3x3_s2 <- inception_4e/output
I0403 14:36:43.554873 10876 net.cpp:399] pool4/3x3_s2 -> pool4/3x3_s2
I0403 14:36:43.554940 10876 net.cpp:141] Setting up pool4/3x3_s2
I0403 14:36:43.554963 10876 net.cpp:148] Top shape: 24 832 7 7 (978432)
I0403 14:36:43.554977 10876 net.cpp:156] Memory required for data: 1276470816
I0403 14:36:43.554992 10876 layer_factory.hpp:77] Creating layer pool4/3x3_s2_pool4/3x3_s2_0_split
I0403 14:36:43.555008 10876 net.cpp:91] Creating Layer pool4/3x3_s2_pool4/3x3_s2_0_split
I0403 14:36:43.555024 10876 net.cpp:425] pool4/3x3_s2_pool4/3x3_s2_0_split <- pool4/3x3_s2
I0403 14:36:43.555043 10876 net.cpp:399] pool4/3x3_s2_pool4/3x3_s2_0_split -> pool4/3x3_s2_pool4/3x3_s2_0_split_0
I0403 14:36:43.555064 10876 net.cpp:399] pool4/3x3_s2_pool4/3x3_s2_0_split -> pool4/3x3_s2_pool4/3x3_s2_0_split_1
I0403 14:36:43.555083 10876 net.cpp:399] pool4/3x3_s2_pool4/3x3_s2_0_split -> pool4/3x3_s2_pool4/3x3_s2_0_split_2
I0403 14:36:43.555110 10876 net.cpp:399] pool4/3x3_s2_pool4/3x3_s2_0_split -> pool4/3x3_s2_pool4/3x3_s2_0_split_3
I0403 14:36:43.555199 10876 net.cpp:141] Setting up pool4/3x3_s2_pool4/3x3_s2_0_split
I0403 14:36:43.555225 10876 net.cpp:148] Top shape: 24 832 7 7 (978432)
I0403 14:36:43.555254 10876 net.cpp:148] Top shape: 24 832 7 7 (978432)
I0403 14:36:43.555272 10876 net.cpp:148] Top shape: 24 832 7 7 (978432)
I0403 14:36:43.555289 10876 net.cpp:148] Top shape: 24 832 7 7 (978432)
I0403 14:36:43.555304 10876 net.cpp:156] Memory required for data: 1292125728
I0403 14:36:43.555318 10876 layer_factory.hpp:77] Creating layer inception_5a/1x1
I0403 14:36:43.555341 10876 net.cpp:91] Creating Layer inception_5a/1x1
I0403 14:36:43.555358 10876 net.cpp:425] inception_5a/1x1 <- pool4/3x3_s2_pool4/3x3_s2_0_split_0
I0403 14:36:43.555378 10876 net.cpp:399] inception_5a/1x1 -> inception_5a/1x1
I0403 14:36:43.558325 10876 net.cpp:141] Setting up inception_5a/1x1
I0403 14:36:43.558359 10876 net.cpp:148] Top shape: 24 256 7 7 (301056)
I0403 14:36:43.558377 10876 net.cpp:156] Memory required for data: 1293329952
I0403 14:36:43.558405 10876 layer_factory.hpp:77] Creating layer inception_5a/relu_1x1
I0403 14:36:43.558423 10876 net.cpp:91] Creating Layer inception_5a/relu_1x1
I0403 14:36:43.558440 10876 net.cpp:425] inception_5a/relu_1x1 <- inception_5a/1x1
I0403 14:36:43.558470 10876 net.cpp:386] inception_5a/relu_1x1 -> inception_5a/1x1 (in-place)
I0403 14:36:43.558799 10876 net.cpp:141] Setting up inception_5a/relu_1x1
I0403 14:36:43.558827 10876 net.cpp:148] Top shape: 24 256 7 7 (301056)
I0403 14:36:43.558845 10876 net.cpp:156] Memory required for data: 1294534176
I0403 14:36:43.558859 10876 layer_factory.hpp:77] Creating layer inception_5a/3x3_reduce
I0403 14:36:43.558882 10876 net.cpp:91] Creating Layer inception_5a/3x3_reduce
I0403 14:36:43.558902 10876 net.cpp:425] inception_5a/3x3_reduce <- pool4/3x3_s2_pool4/3x3_s2_0_split_1
I0403 14:36:43.558922 10876 net.cpp:399] inception_5a/3x3_reduce -> inception_5a/3x3_reduce
I0403 14:36:43.561489 10876 net.cpp:141] Setting up inception_5a/3x3_reduce
I0403 14:36:43.561522 10876 net.cpp:148] Top shape: 24 160 7 7 (188160)
I0403 14:36:43.561537 10876 net.cpp:156] Memory required for data: 1295286816
I0403 14:36:43.561558 10876 layer_factory.hpp:77] Creating layer inception_5a/relu_3x3_reduce
I0403 14:36:43.561579 10876 net.cpp:91] Creating Layer inception_5a/relu_3x3_reduce
I0403 14:36:43.561596 10876 net.cpp:425] inception_5a/relu_3x3_reduce <- inception_5a/3x3_reduce
I0403 14:36:43.561614 10876 net.cpp:386] inception_5a/relu_3x3_reduce -> inception_5a/3x3_reduce (in-place)
I0403 14:36:43.561811 10876 net.cpp:141] Setting up inception_5a/relu_3x3_reduce
I0403 14:36:43.561841 10876 net.cpp:148] Top shape: 24 160 7 7 (188160)
I0403 14:36:43.561857 10876 net.cpp:156] Memory required for data: 1296039456
I0403 14:36:43.561873 10876 layer_factory.hpp:77] Creating layer inception_5a/3x3
I0403 14:36:43.561899 10876 net.cpp:91] Creating Layer inception_5a/3x3
I0403 14:36:43.561919 10876 net.cpp:425] inception_5a/3x3 <- inception_5a/3x3_reduce
I0403 14:36:43.561939 10876 net.cpp:399] inception_5a/3x3 -> inception_5a/3x3
I0403 14:36:43.567242 10876 net.cpp:141] Setting up inception_5a/3x3
I0403 14:36:43.567276 10876 net.cpp:148] Top shape: 24 320 7 7 (376320)
I0403 14:36:43.567292 10876 net.cpp:156] Memory required for data: 1297544736
I0403 14:36:43.567312 10876 layer_factory.hpp:77] Creating layer inception_5a/relu_3x3
I0403 14:36:43.567330 10876 net.cpp:91] Creating Layer inception_5a/relu_3x3
I0403 14:36:43.567348 10876 net.cpp:425] inception_5a/relu_3x3 <- inception_5a/3x3
I0403 14:36:43.567368 10876 net.cpp:386] inception_5a/relu_3x3 -> inception_5a/3x3 (in-place)
I0403 14:36:43.567664 10876 net.cpp:141] Setting up inception_5a/relu_3x3
I0403 14:36:43.567700 10876 net.cpp:148] Top shape: 24 320 7 7 (376320)
I0403 14:36:43.567715 10876 net.cpp:156] Memory required for data: 1299050016
I0403 14:36:43.567730 10876 layer_factory.hpp:77] Creating layer inception_5a/5x5_reduce
I0403 14:36:43.567760 10876 net.cpp:91] Creating Layer inception_5a/5x5_reduce
I0403 14:36:43.567778 10876 net.cpp:425] inception_5a/5x5_reduce <- pool4/3x3_s2_pool4/3x3_s2_0_split_2
I0403 14:36:43.567802 10876 net.cpp:399] inception_5a/5x5_reduce -> inception_5a/5x5_reduce
I0403 14:36:43.569027 10876 net.cpp:141] Setting up inception_5a/5x5_reduce
I0403 14:36:43.569059 10876 net.cpp:148] Top shape: 24 32 7 7 (37632)
I0403 14:36:43.569077 10876 net.cpp:156] Memory required for data: 1299200544
I0403 14:36:43.569100 10876 layer_factory.hpp:77] Creating layer inception_5a/relu_5x5_reduce
I0403 14:36:43.569120 10876 net.cpp:91] Creating Layer inception_5a/relu_5x5_reduce
I0403 14:36:43.569140 10876 net.cpp:425] inception_5a/relu_5x5_reduce <- inception_5a/5x5_reduce
I0403 14:36:43.569159 10876 net.cpp:386] inception_5a/relu_5x5_reduce -> inception_5a/5x5_reduce (in-place)
I0403 14:36:43.569463 10876 net.cpp:141] Setting up inception_5a/relu_5x5_reduce
I0403 14:36:43.569489 10876 net.cpp:148] Top shape: 24 32 7 7 (37632)
I0403 14:36:43.569504 10876 net.cpp:156] Memory required for data: 1299351072
I0403 14:36:43.569520 10876 layer_factory.hpp:77] Creating layer inception_5a/5x5
I0403 14:36:43.569543 10876 net.cpp:91] Creating Layer inception_5a/5x5
I0403 14:36:43.569561 10876 net.cpp:425] inception_5a/5x5 <- inception_5a/5x5_reduce
I0403 14:36:43.569593 10876 net.cpp:399] inception_5a/5x5 -> inception_5a/5x5
I0403 14:36:43.571388 10876 net.cpp:141] Setting up inception_5a/5x5
I0403 14:36:43.571439 10876 net.cpp:148] Top shape: 24 128 7 7 (150528)
I0403 14:36:43.571463 10876 net.cpp:156] Memory required for data: 1299953184
I0403 14:36:43.571481 10876 layer_factory.hpp:77] Creating layer inception_5a/relu_5x5
I0403 14:36:43.571501 10876 net.cpp:91] Creating Layer inception_5a/relu_5x5
I0403 14:36:43.571517 10876 net.cpp:425] inception_5a/relu_5x5 <- inception_5a/5x5
I0403 14:36:43.571538 10876 net.cpp:386] inception_5a/relu_5x5 -> inception_5a/5x5 (in-place)
I0403 14:36:43.571745 10876 net.cpp:141] Setting up inception_5a/relu_5x5
I0403 14:36:43.571770 10876 net.cpp:148] Top shape: 24 128 7 7 (150528)
I0403 14:36:43.571786 10876 net.cpp:156] Memory required for data: 1300555296
I0403 14:36:43.571802 10876 layer_factory.hpp:77] Creating layer inception_5a/pool
I0403 14:36:43.571820 10876 net.cpp:91] Creating Layer inception_5a/pool
I0403 14:36:43.571841 10876 net.cpp:425] inception_5a/pool <- pool4/3x3_s2_pool4/3x3_s2_0_split_3
I0403 14:36:43.571859 10876 net.cpp:399] inception_5a/pool -> inception_5a/pool
I0403 14:36:43.571933 10876 net.cpp:141] Setting up inception_5a/pool
I0403 14:36:43.571959 10876 net.cpp:148] Top shape: 24 832 7 7 (978432)
I0403 14:36:43.571974 10876 net.cpp:156] Memory required for data: 1304469024
I0403 14:36:43.571990 10876 layer_factory.hpp:77] Creating layer inception_5a/pool_proj
I0403 14:36:43.572011 10876 net.cpp:91] Creating Layer inception_5a/pool_proj
I0403 14:36:43.572031 10876 net.cpp:425] inception_5a/pool_proj <- inception_5a/pool
I0403 14:36:43.572052 10876 net.cpp:399] inception_5a/pool_proj -> inception_5a/pool_proj
I0403 14:36:43.574442 10876 net.cpp:141] Setting up inception_5a/pool_proj
I0403 14:36:43.574481 10876 net.cpp:148] Top shape: 24 128 7 7 (150528)
I0403 14:36:43.574497 10876 net.cpp:156] Memory required for data: 1305071136
I0403 14:36:43.574515 10876 layer_factory.hpp:77] Creating layer inception_5a/relu_pool_proj
I0403 14:36:43.574533 10876 net.cpp:91] Creating Layer inception_5a/relu_pool_proj
I0403 14:36:43.574550 10876 net.cpp:425] inception_5a/relu_pool_proj <- inception_5a/pool_proj
I0403 14:36:43.574570 10876 net.cpp:386] inception_5a/relu_pool_proj -> inception_5a/pool_proj (in-place)
I0403 14:36:43.574878 10876 net.cpp:141] Setting up inception_5a/relu_pool_proj
I0403 14:36:43.574909 10876 net.cpp:148] Top shape: 24 128 7 7 (150528)
I0403 14:36:43.574925 10876 net.cpp:156] Memory required for data: 1305673248
I0403 14:36:43.574940 10876 layer_factory.hpp:77] Creating layer inception_5a/output
I0403 14:36:43.574959 10876 net.cpp:91] Creating Layer inception_5a/output
I0403 14:36:43.574976 10876 net.cpp:425] inception_5a/output <- inception_5a/1x1
I0403 14:36:43.574993 10876 net.cpp:425] inception_5a/output <- inception_5a/3x3
I0403 14:36:43.575011 10876 net.cpp:425] inception_5a/output <- inception_5a/5x5
I0403 14:36:43.575026 10876 net.cpp:425] inception_5a/output <- inception_5a/pool_proj
I0403 14:36:43.575044 10876 net.cpp:399] inception_5a/output -> inception_5a/output
I0403 14:36:43.575103 10876 net.cpp:141] Setting up inception_5a/output
I0403 14:36:43.575127 10876 net.cpp:148] Top shape: 24 832 7 7 (978432)
I0403 14:36:43.575144 10876 net.cpp:156] Memory required for data: 1309586976
I0403 14:36:43.575170 10876 layer_factory.hpp:77] Creating layer inception_5a/output_inception_5a/output_0_split
I0403 14:36:43.575188 10876 net.cpp:91] Creating Layer inception_5a/output_inception_5a/output_0_split
I0403 14:36:43.575203 10876 net.cpp:425] inception_5a/output_inception_5a/output_0_split <- inception_5a/output
I0403 14:36:43.575223 10876 net.cpp:399] inception_5a/output_inception_5a/output_0_split -> inception_5a/output_inception_5a/output_0_split_0
I0403 14:36:43.575244 10876 net.cpp:399] inception_5a/output_inception_5a/output_0_split -> inception_5a/output_inception_5a/output_0_split_1
I0403 14:36:43.575264 10876 net.cpp:399] inception_5a/output_inception_5a/output_0_split -> inception_5a/output_inception_5a/output_0_split_2
I0403 14:36:43.575289 10876 net.cpp:399] inception_5a/output_inception_5a/output_0_split -> inception_5a/output_inception_5a/output_0_split_3
I0403 14:36:43.575402 10876 net.cpp:141] Setting up inception_5a/output_inception_5a/output_0_split
I0403 14:36:43.575436 10876 net.cpp:148] Top shape: 24 832 7 7 (978432)
I0403 14:36:43.575453 10876 net.cpp:148] Top shape: 24 832 7 7 (978432)
I0403 14:36:43.575469 10876 net.cpp:148] Top shape: 24 832 7 7 (978432)
I0403 14:36:43.575484 10876 net.cpp:148] Top shape: 24 832 7 7 (978432)
I0403 14:36:43.575497 10876 net.cpp:156] Memory required for data: 1325241888
I0403 14:36:43.575512 10876 layer_factory.hpp:77] Creating layer inception_5b/1x1
I0403 14:36:43.575536 10876 net.cpp:91] Creating Layer inception_5b/1x1
I0403 14:36:43.575553 10876 net.cpp:425] inception_5b/1x1 <- inception_5a/output_inception_5a/output_0_split_0
I0403 14:36:43.575575 10876 net.cpp:399] inception_5b/1x1 -> inception_5b/1x1
I0403 14:36:43.579350 10876 net.cpp:141] Setting up inception_5b/1x1
I0403 14:36:43.579380 10876 net.cpp:148] Top shape: 24 384 7 7 (451584)
I0403 14:36:43.579403 10876 net.cpp:156] Memory required for data: 1327048224
I0403 14:36:43.579421 10876 layer_factory.hpp:77] Creating layer inception_5b/relu_1x1
I0403 14:36:43.579443 10876 net.cpp:91] Creating Layer inception_5b/relu_1x1
I0403 14:36:43.579466 10876 net.cpp:425] inception_5b/relu_1x1 <- inception_5b/1x1
I0403 14:36:43.579484 10876 net.cpp:386] inception_5b/relu_1x1 -> inception_5b/1x1 (in-place)
I0403 14:36:43.579785 10876 net.cpp:141] Setting up inception_5b/relu_1x1
I0403 14:36:43.579812 10876 net.cpp:148] Top shape: 24 384 7 7 (451584)
I0403 14:36:43.579826 10876 net.cpp:156] Memory required for data: 1328854560
I0403 14:36:43.579852 10876 layer_factory.hpp:77] Creating layer inception_5b/3x3_reduce
I0403 14:36:43.579875 10876 net.cpp:91] Creating Layer inception_5b/3x3_reduce
I0403 14:36:43.579895 10876 net.cpp:425] inception_5b/3x3_reduce <- inception_5a/output_inception_5a/output_0_split_1
I0403 14:36:43.579917 10876 net.cpp:399] inception_5b/3x3_reduce -> inception_5b/3x3_reduce
I0403 14:36:43.582602 10876 net.cpp:141] Setting up inception_5b/3x3_reduce
I0403 14:36:43.582633 10876 net.cpp:148] Top shape: 24 192 7 7 (225792)
I0403 14:36:43.582649 10876 net.cpp:156] Memory required for data: 1329757728
I0403 14:36:43.582667 10876 layer_factory.hpp:77] Creating layer inception_5b/relu_3x3_reduce
I0403 14:36:43.582696 10876 net.cpp:91] Creating Layer inception_5b/relu_3x3_reduce
I0403 14:36:43.582715 10876 net.cpp:425] inception_5b/relu_3x3_reduce <- inception_5b/3x3_reduce
I0403 14:36:43.582732 10876 net.cpp:386] inception_5b/relu_3x3_reduce -> inception_5b/3x3_reduce (in-place)
I0403 14:36:43.582921 10876 net.cpp:141] Setting up inception_5b/relu_3x3_reduce
I0403 14:36:43.582945 10876 net.cpp:148] Top shape: 24 192 7 7 (225792)
I0403 14:36:43.582960 10876 net.cpp:156] Memory required for data: 1330660896
I0403 14:36:43.582975 10876 layer_factory.hpp:77] Creating layer inception_5b/3x3
I0403 14:36:43.582996 10876 net.cpp:91] Creating Layer inception_5b/3x3
I0403 14:36:43.583014 10876 net.cpp:425] inception_5b/3x3 <- inception_5b/3x3_reduce
I0403 14:36:43.583036 10876 net.cpp:399] inception_5b/3x3 -> inception_5b/3x3
I0403 14:36:43.589694 10876 net.cpp:141] Setting up inception_5b/3x3
I0403 14:36:43.589725 10876 net.cpp:148] Top shape: 24 384 7 7 (451584)
I0403 14:36:43.589741 10876 net.cpp:156] Memory required for data: 1332467232
I0403 14:36:43.589758 10876 layer_factory.hpp:77] Creating layer inception_5b/relu_3x3
I0403 14:36:43.589777 10876 net.cpp:91] Creating Layer inception_5b/relu_3x3
I0403 14:36:43.589793 10876 net.cpp:425] inception_5b/relu_3x3 <- inception_5b/3x3
I0403 14:36:43.589813 10876 net.cpp:386] inception_5b/relu_3x3 -> inception_5b/3x3 (in-place)
I0403 14:36:43.590107 10876 net.cpp:141] Setting up inception_5b/relu_3x3
I0403 14:36:43.590137 10876 net.cpp:148] Top shape: 24 384 7 7 (451584)
I0403 14:36:43.590152 10876 net.cpp:156] Memory required for data: 1334273568
I0403 14:36:43.590167 10876 layer_factory.hpp:77] Creating layer inception_5b/5x5_reduce
I0403 14:36:43.590209 10876 net.cpp:91] Creating Layer inception_5b/5x5_reduce
I0403 14:36:43.590227 10876 net.cpp:425] inception_5b/5x5_reduce <- inception_5a/output_inception_5a/output_0_split_2
I0403 14:36:43.590247 10876 net.cpp:399] inception_5b/5x5_reduce -> inception_5b/5x5_reduce
I0403 14:36:43.591542 10876 net.cpp:141] Setting up inception_5b/5x5_reduce
I0403 14:36:43.591574 10876 net.cpp:148] Top shape: 24 48 7 7 (56448)
I0403 14:36:43.591591 10876 net.cpp:156] Memory required for data: 1334499360
I0403 14:36:43.591611 10876 layer_factory.hpp:77] Creating layer inception_5b/relu_5x5_reduce
I0403 14:36:43.591629 10876 net.cpp:91] Creating Layer inception_5b/relu_5x5_reduce
I0403 14:36:43.591647 10876 net.cpp:425] inception_5b/relu_5x5_reduce <- inception_5b/5x5_reduce
I0403 14:36:43.591665 10876 net.cpp:386] inception_5b/relu_5x5_reduce -> inception_5b/5x5_reduce (in-place)
I0403 14:36:43.592052 10876 net.cpp:141] Setting up inception_5b/relu_5x5_reduce
I0403 14:36:43.592078 10876 net.cpp:148] Top shape: 24 48 7 7 (56448)
I0403 14:36:43.592097 10876 net.cpp:156] Memory required for data: 1334725152
I0403 14:36:43.592114 10876 layer_factory.hpp:77] Creating layer inception_5b/5x5
I0403 14:36:43.592135 10876 net.cpp:91] Creating Layer inception_5b/5x5
I0403 14:36:43.592154 10876 net.cpp:425] inception_5b/5x5 <- inception_5b/5x5_reduce
I0403 14:36:43.592171 10876 net.cpp:399] inception_5b/5x5 -> inception_5b/5x5
I0403 14:36:43.594266 10876 net.cpp:141] Setting up inception_5b/5x5
I0403 14:36:43.594297 10876 net.cpp:148] Top shape: 24 128 7 7 (150528)
I0403 14:36:43.594313 10876 net.cpp:156] Memory required for data: 1335327264
I0403 14:36:43.594332 10876 layer_factory.hpp:77] Creating layer inception_5b/relu_5x5
I0403 14:36:43.594352 10876 net.cpp:91] Creating Layer inception_5b/relu_5x5
I0403 14:36:43.594369 10876 net.cpp:425] inception_5b/relu_5x5 <- inception_5b/5x5
I0403 14:36:43.594389 10876 net.cpp:386] inception_5b/relu_5x5 -> inception_5b/5x5 (in-place)
I0403 14:36:43.594586 10876 net.cpp:141] Setting up inception_5b/relu_5x5
I0403 14:36:43.594612 10876 net.cpp:148] Top shape: 24 128 7 7 (150528)
I0403 14:36:43.594627 10876 net.cpp:156] Memory required for data: 1335929376
I0403 14:36:43.594643 10876 layer_factory.hpp:77] Creating layer inception_5b/pool
I0403 14:36:43.594662 10876 net.cpp:91] Creating Layer inception_5b/pool
I0403 14:36:43.594677 10876 net.cpp:425] inception_5b/pool <- inception_5a/output_inception_5a/output_0_split_3
I0403 14:36:43.594698 10876 net.cpp:399] inception_5b/pool -> inception_5b/pool
I0403 14:36:43.594775 10876 net.cpp:141] Setting up inception_5b/pool
I0403 14:36:43.594799 10876 net.cpp:148] Top shape: 24 832 7 7 (978432)
I0403 14:36:43.594815 10876 net.cpp:156] Memory required for data: 1339843104
I0403 14:36:43.594830 10876 layer_factory.hpp:77] Creating layer inception_5b/pool_proj
I0403 14:36:43.594853 10876 net.cpp:91] Creating Layer inception_5b/pool_proj
I0403 14:36:43.594873 10876 net.cpp:425] inception_5b/pool_proj <- inception_5b/pool
I0403 14:36:43.594894 10876 net.cpp:399] inception_5b/pool_proj -> inception_5b/pool_proj
I0403 14:36:43.597213 10876 net.cpp:141] Setting up inception_5b/pool_proj
I0403 14:36:43.597245 10876 net.cpp:148] Top shape: 24 128 7 7 (150528)
I0403 14:36:43.597262 10876 net.cpp:156] Memory required for data: 1340445216
I0403 14:36:43.597282 10876 layer_factory.hpp:77] Creating layer inception_5b/relu_pool_proj
I0403 14:36:43.597301 10876 net.cpp:91] Creating Layer inception_5b/relu_pool_proj
I0403 14:36:43.597317 10876 net.cpp:425] inception_5b/relu_pool_proj <- inception_5b/pool_proj
I0403 14:36:43.597334 10876 net.cpp:386] inception_5b/relu_pool_proj -> inception_5b/pool_proj (in-place)
I0403 14:36:43.597637 10876 net.cpp:141] Setting up inception_5b/relu_pool_proj
I0403 14:36:43.597666 10876 net.cpp:148] Top shape: 24 128 7 7 (150528)
I0403 14:36:43.597681 10876 net.cpp:156] Memory required for data: 1341047328
I0403 14:36:43.597697 10876 layer_factory.hpp:77] Creating layer inception_5b/output
I0403 14:36:43.597714 10876 net.cpp:91] Creating Layer inception_5b/output
I0403 14:36:43.597746 10876 net.cpp:425] inception_5b/output <- inception_5b/1x1
I0403 14:36:43.597764 10876 net.cpp:425] inception_5b/output <- inception_5b/3x3
I0403 14:36:43.597779 10876 net.cpp:425] inception_5b/output <- inception_5b/5x5
I0403 14:36:43.597795 10876 net.cpp:425] inception_5b/output <- inception_5b/pool_proj
I0403 14:36:43.597812 10876 net.cpp:399] inception_5b/output -> inception_5b/output
I0403 14:36:43.597867 10876 net.cpp:141] Setting up inception_5b/output
I0403 14:36:43.597892 10876 net.cpp:148] Top shape: 24 1024 7 7 (1204224)
I0403 14:36:43.597908 10876 net.cpp:156] Memory required for data: 1345864224
I0403 14:36:43.597923 10876 layer_factory.hpp:77] Creating layer pool5/7x7_s1
I0403 14:36:43.597942 10876 net.cpp:91] Creating Layer pool5/7x7_s1
I0403 14:36:43.597959 10876 net.cpp:425] pool5/7x7_s1 <- inception_5b/output
I0403 14:36:43.597978 10876 net.cpp:399] pool5/7x7_s1 -> pool5/7x7_s1
I0403 14:36:43.598202 10876 net.cpp:141] Setting up pool5/7x7_s1
I0403 14:36:43.598229 10876 net.cpp:148] Top shape: 24 1024 1 1 (24576)
I0403 14:36:43.598243 10876 net.cpp:156] Memory required for data: 1345962528
I0403 14:36:43.598258 10876 layer_factory.hpp:77] Creating layer pool5/drop_7x7_s1
I0403 14:36:43.598276 10876 net.cpp:91] Creating Layer pool5/drop_7x7_s1
I0403 14:36:43.598292 10876 net.cpp:425] pool5/drop_7x7_s1 <- pool5/7x7_s1
I0403 14:36:43.598312 10876 net.cpp:386] pool5/drop_7x7_s1 -> pool5/7x7_s1 (in-place)
I0403 14:36:43.598363 10876 net.cpp:141] Setting up pool5/drop_7x7_s1
I0403 14:36:43.598387 10876 net.cpp:148] Top shape: 24 1024 1 1 (24576)
I0403 14:36:43.598403 10876 net.cpp:156] Memory required for data: 1346060832
I0403 14:36:43.598418 10876 layer_factory.hpp:77] Creating layer loss3/classifier_plantvillage
I0403 14:36:43.598440 10876 net.cpp:91] Creating Layer loss3/classifier_plantvillage
I0403 14:36:43.598459 10876 net.cpp:425] loss3/classifier_plantvillage <- pool5/7x7_s1
I0403 14:36:43.598479 10876 net.cpp:399] loss3/classifier_plantvillage -> loss3/classifier_plantvillage
I0403 14:36:43.598911 10876 net.cpp:141] Setting up loss3/classifier_plantvillage
I0403 14:36:43.598935 10876 net.cpp:148] Top shape: 24 38 (912)
I0403 14:36:43.598951 10876 net.cpp:156] Memory required for data: 1346064480
I0403 14:36:43.598969 10876 layer_factory.hpp:77] Creating layer loss3/classifier_plantvillage_loss3/classifier_plantvillage_0_split
I0403 14:36:43.598987 10876 net.cpp:91] Creating Layer loss3/classifier_plantvillage_loss3/classifier_plantvillage_0_split
I0403 14:36:43.599004 10876 net.cpp:425] loss3/classifier_plantvillage_loss3/classifier_plantvillage_0_split <- loss3/classifier_plantvillage
I0403 14:36:43.599025 10876 net.cpp:399] loss3/classifier_plantvillage_loss3/classifier_plantvillage_0_split -> loss3/classifier_plantvillage_loss3/classifier_plantvillage_0_split_0
I0403 14:36:43.599046 10876 net.cpp:399] loss3/classifier_plantvillage_loss3/classifier_plantvillage_0_split -> loss3/classifier_plantvillage_loss3/classifier_plantvillage_0_split_1
I0403 14:36:43.599066 10876 net.cpp:399] loss3/classifier_plantvillage_loss3/classifier_plantvillage_0_split -> loss3/classifier_plantvillage_loss3/classifier_plantvillage_0_split_2
I0403 14:36:43.599091 10876 net.cpp:399] loss3/classifier_plantvillage_loss3/classifier_plantvillage_0_split -> loss3/classifier_plantvillage_loss3/classifier_plantvillage_0_split_3
I0403 14:36:43.599200 10876 net.cpp:141] Setting up loss3/classifier_plantvillage_loss3/classifier_plantvillage_0_split
I0403 14:36:43.599223 10876 net.cpp:148] Top shape: 24 38 (912)
I0403 14:36:43.599241 10876 net.cpp:148] Top shape: 24 38 (912)
I0403 14:36:43.599256 10876 net.cpp:148] Top shape: 24 38 (912)
I0403 14:36:43.599272 10876 net.cpp:148] Top shape: 24 38 (912)
I0403 14:36:43.599287 10876 net.cpp:156] Memory required for data: 1346079072
I0403 14:36:43.599301 10876 layer_factory.hpp:77] Creating layer loss1/loss
I0403 14:36:43.599323 10876 net.cpp:91] Creating Layer loss1/loss
I0403 14:36:43.599340 10876 net.cpp:425] loss1/loss <- loss1/classifier_plantvillage_loss1/classifier_plantvillage_0_split_0
I0403 14:36:43.599375 10876 net.cpp:425] loss1/loss <- label_data_1_split_0
…
