…
I0403 15:05:09.825105 11636 net.cpp:313] The NetState phase (1) differed from the phase (0) specified by a rule in layer data
I0403 15:05:09.828132 11636 net.cpp:49] Initializing net from parameters: 
state {
  phase: TEST
}
layer {
  name: "data"
  type: "Data"
  top: "data"
  top: "label"
  include {
    phase: TEST
  }
  transform_param {
    mirror: false
    crop_size: 224
    mean_file: "/home/mohanty/data/final_dataset/lmdb/grayscale-60-40/mean.binaryproto"
  }
  data_param {
    source: "/home/mohanty/data/final_dataset/lmdb/grayscale-60-40/test_db"
    batch_size: 24
    backend: LMDB
  }
}
layer {
  name: "conv1/7x7_s2"
  type: "Convolution"
  bottom: "data"
  top: "conv1/7x7_s2"
  param {
    lr_mult: 1
    decay_mult: 1
  }
  param {
    lr_mult: 2
    decay_mult: 0
  }
  convolution_param {
    num_output: 64
    pad: 3
    kernel_size: 7
    stride: 2
    weight_filler {
      type: "xavier"
      std: 0.1
    }
    bias_filler {
      type: "constant"
      value: 0.2
    }
  }
}
layer {
  name: "conv1/relu_7x7"
  type: "ReLU"
  bottom: "conv1/7x7_s2"
  top: "conv1/7x7_s2"
}
layer {
  name: "pool1/3x3_s2"
  type: "Pooling"
  bottom: "conv1/7x7_s2"
  top: "pool1/3x3_s2"
  pooling_param {
    pool: MAX
    kernel_size: 3
    stride: 2
  }
}
layer {
  name: "pool1/norm1"
  type: "LRN"
  bottom: "pool1/3x3_s2"
  top: "pool1/norm1"
  lrn_param {
    local_size: 5
    alpha: 0.0001
    beta: 0.75
  }
}
layer {
  name: "conv2/3x3_reduce"
  type: "Convolution"
  bottom: "pool1/norm1"
  top: "conv2/3x3_reduce"
  param {
    lr_mult: 1
    decay_mult: 1
  }
  param {
    lr_mult: 2
    decay_mult: 0
  }
  convolution_param {
    num_output: 64
    kernel_size: 1
    weight_filler {
      type: "xavier"
      std: 0.1
    }
    bias_filler {
      type: "constant"
      value: 0.2
    }
  }
}
layer {
  name: "conv2/relu_3x3_reduce"
  type: "ReLU"
  bottom: "conv2/3x3_reduce"
  top: "conv2/3x3_reduce"
}
layer {
  name: "conv2/3x3"
  type: "Convolution"
  bottom: "conv2/3x3_reduce"
  top: "conv2/3x3"
  param {
    lr_mult: 1
    decay_mult: 1
  }
  param {
    lr_mult: 2
    decay_mult: 0
  }
  convolution_param {
    num_output: 192
    pad: 1
    kernel_size: 3
    weight_filler {
      type: "xavier"
      std: 0.03
    }
    bias_filler {
      type: "constant"
      value: 0.2
    }
  }
}
layer {
  name: "conv2/relu_3x3"
  type: "ReLU"
  bottom: "conv2/3x3"
  top: "conv2/3x3"
}
layer {
  name: "conv2/norm2"
  type: "LRN"
  bottom: "conv2/3x3"
  top: "conv2/norm2"
  lrn_param {
    local_size: 5
    alpha: 0.0001
    beta: 0.75
  }
}
layer {
  name: "pool2/3x3_s2"
  type: "Pooling"
  bottom: "conv2/norm2"
  top: "pool2/3x3_s2"
  pooling_param {
    pool: MAX
    kernel_size: 3
    stride: 2
  }
}
layer {
  name: "inception_3a/1x1"
  type: "Convolution"
  bottom: "pool2/3x3_s2"
  top: "inception_3a/1x1"
  param {
    lr_mult: 1
    decay_mult: 1
  }
  param {
    lr_mult: 2
    decay_mult: 0
  }
  convolution_param {
    num_output: 64
    kernel_size: 1
    weight_filler {
      type: "xavier"
      std: 0.03
    }
    bias_filler {
      type: "constant"
      value: 0.2
    }
  }
}
layer {
  name: "inception_3a/relu_1x1"
  type: "ReLU"
  bottom: "inception_3a/1x1"
  top: "inception_3a/1x1"
}
layer {
  name: "inception_3a/3x3_reduce"
  type: "Convolution"
  bottom: "pool2/3x3_s2"
  top: "inception_3a/3x3_reduce"
  param {
    lr_mult: 1
    decay_mult: 1
  }
  param {
    lr_mult: 2
    decay_mult: 0
  }
  convolution_param {
    num_output: 96
    kernel_size: 1
    weight_filler {
      type: "xavier"
      std: 0.09
    }
    bias_filler {
      type: "constant"
      value: 0.2
    }
  }
}
layer {
  name: "inception_3a/relu_3x3_reduce"
  type: "ReLU"
  bottom: "inception_3a/3x3_reduce"
  top: "inception_3a/3x3_reduce"
}
layer {
  name: "inception_3a/3x3"
  type: "Convolution"
  bottom: "inception_3a/3x3_reduce"
  top: "inception_3a/3x3"
  param {
    lr_mult: 1
    decay_mult: 1
  }
  param {
    lr_mult: 2
    decay_mult: 0
  }
  convolution_param {
    num_output: 128
    pad: 1
    kernel_size: 3
    weight_filler {
      type: "xavier"
      std: 0.03
    }
    bias_filler {
      type: "constant"
      value: 0.2
    }
  }
}
layer {
  name: "inception_3a/relu_3x3"
  type: "ReLU"
  bottom: "inception_3a/3x3"
  top: "inception_3a/3x3"
}
layer {
  name: "inception_3a/5x5_reduce"
  type: "Convolution"
  bottom: "pool2/3x3_s2"
  top: "inception_3a/5x5_reduce"
  param {
    lr_mult: 1
    decay_mult: 1
  }
  param {
    lr_mult: 2
    decay_mult: 0
  }
  convolution_param {
    num_output: 16
    kernel_size: 1
    weight_filler {
      type: "xavier"
      std: 0.2
    }
    bias_filler {
      type: "constant"
      value: 0.2
    }
  }
}
layer {
  name: "inception_3a/relu_5x5_reduce"
  type: "ReLU"
  bottom: "inception_3a/5x5_reduce"
  top: "inception_3a/5x5_reduce"
}
layer {
  name: "inception_3a/5x5"
  type: "Convolution"
  bottom: "inception_3a/5x5_reduce"
  top: "inception_3a/5x5"
  param {
    lr_mult: 1
    decay_mult: 1
  }
  param {
    lr_mult: 2
    decay_mult: 0
  }
  convolution_param {
    num_output: 32
    pad: 2
    kernel_size: 5
    weight_filler {
      type: "xavier"
      std: 0.03
    }
    bias_filler {
      type: "constant"
      value: 0.2
    }
  }
}
layer {
  name: "inception_3a/relu_5x5"
  type: "ReLU"
  bottom: "inception_3a/5x5"
  top: "inception_3a/5x5"
}
layer {
  name: "inception_3a/pool"
  type: "Pooling"
  bottom: "pool2/3x3_s2"
  top: "inception_3a/pool"
  pooling_param {
    pool: MAX
    kernel_size: 3
    stride: 1
    pad: 1
  }
}
layer {
  name: "inception_3a/pool_proj"
  type: "Convolution"
  bottom: "inception_3a/pool"
  top: "inception_3a/pool_proj"
  param {
    lr_mult: 1
    decay_mult: 1
  }
  param {
    lr_mult: 2
    decay_mult: 0
  }
  convolution_param {
    num_output: 32
    kernel_size: 1
    weight_filler {
      type: "xavier"
      std: 0.1
    }
    bias_filler {
      type: "constant"
      value: 0.2
    }
  }
}
layer {
  name: "inception_3a/relu_pool_proj"
  type: "ReLU"
  bottom: "inception_3a/pool_proj"
  top: "inception_3a/pool_proj"
}
layer {
  name: "inception_3a/output"
  type: "Concat"
  bottom: "inception_3a/1x1"
  bottom: "inception_3a/3x3"
  bottom: "inception_3a/5x5"
  bottom: "inception_3a/pool_proj"
  top: "inception_3a/output"
}
layer {
  name: "inception_3b/1x1"
  type: "Convolution"
  bottom: "inception_3a/output"
  top: "inception_3b/1x1"
  param {
    lr_mult: 1
    decay_mult: 1
  }
  param {
    lr_mult: 2
    decay_mult: 0
  }
  convolution_param {
    num_output: 128
    kernel_size: 1
    weight_filler {
      type: "xavier"
      std: 0.03
    }
    bias_filler {
      type: "constant"
      value: 0.2
    }
  }
}
layer {
  name: "inception_3b/relu_1x1"
  type: "ReLU"
  bottom: "inception_3b/1x1"
  top: "inception_3b/1x1"
}
layer {
  name: "inception_3b/3x3_reduce"
  type: "Convolution"
  bottom: "inception_3a/output"
  top: "inception_3b/3x3_reduce"
  param {
    lr_mult: 1
    decay_mult: 1
  }
  param {
    lr_mult: 2
    decay_mult: 0
  }
  convolution_param {
    num_output: 128
    kernel_size: 1
    weight_filler {
      type: "xavier"
      std: 0.09
    }
    bias_filler {
      type: "constant"
      value: 0.2
    }
  }
}
layer {
  name: "inception_3b/relu_3x3_reduce"
  type: "ReLU"
  bottom: "inception_3b/3x3_reduce"
  top: "inception_3b/3x3_reduce"
}
layer {
  name: "inception_3b/3x3"
  type: "Convolution"
  bottom: "inception_3b/3x3_reduce"
  top: "inception_3b/3x3"
  param {
    lr_mult: 1
    decay_mult: 1
  }
  param {
    lr_mult: 2
    decay_mult: 0
  }
  convolution_param {
    num_output: 192
    pad: 1
    kernel_size: 3
    weight_filler {
      type: "xavier"
      std: 0.03
    }
    bias_filler {
      type: "constant"
      value: 0.2
    }
  }
}
layer {
  name: "inception_3b/relu_3x3"
  type: "ReLU"
  bottom: "inception_3b/3x3"
  top: "inception_3b/3x3"
}
layer {
  name: "inception_3b/5x5_reduce"
  type: "Convolution"
  bottom: "inception_3a/output"
  top: "inception_3b/5x5_reduce"
  param {
    lr_mult: 1
    decay_mult: 1
  }
  param {
    lr_mult: 2
    decay_mult: 0
  }
  convolution_param {
    num_output: 32
    kernel_size: 1
    weight_filler {
      type: "xavier"
      std: 0.2
    }
    bias_filler {
      type: "constant"
      value: 0.2
    }
  }
}
layer {
  name: "inception_3b/relu_5x5_reduce"
  type: "ReLU"
  bottom: "inception_3b/5x5_reduce"
  top: "inception_3b/5x5_reduce"
}
layer {
  name: "inception_3b/5x5"
  type: "Convolution"
  bottom: "inception_3b/5x5_reduce"
  top: "inception_3b/5x5"
  param {
    lr_mult: 1
    decay_mult: 1
  }
  param {
    lr_mult: 2
    decay_mult: 0
  }
  convolution_param {
    num_output: 96
    pad: 2
    kernel_size: 5
    weight_filler {
      type: "xavier"
      std: 0.03
    }
    bias_filler {
      type: "constant"
      value: 0.2
    }
  }
}
layer {
  name: "inception_3b/relu_5x5"
  type: "ReLU"
  bottom: "inception_3b/5x5"
  top: "inception_3b/5x5"
}
layer {
  name: "inception_3b/pool"
  type: "Pooling"
  bottom: "inception_3a/output"
  top: "inception_3b/pool"
  pooling_param {
    pool: MAX
    kernel_size: 3
    stride: 1
    pad: 1
  }
}
layer {
  name: "inception_3b/pool_proj"
  type: "Convolution"
  bottom: "inception_3b/pool"
  top: "inception_3b/pool_proj"
  param {
    lr_mult: 1
    decay_mult: 1
  }
  param {
    lr_mult: 2
    decay_mult: 0
  }
  convolution_param {
    num_output: 64
    kernel_size: 1
    weight_filler {
      type: "xavier"
      std: 0.1
    }
    bias_filler {
      type: "constant"
      value: 0.2
    }
  }
}
layer {
  name: "inception_3b/relu_pool_proj"
  type: "ReLU"
  bottom: "inception_3b/pool_proj"
  top: "inception_3b/pool_proj"
}
layer {
  name: "inception_3b/output"
  type: "Concat"
  bottom: "inception_3b/1x1"
  bottom: "inception_3b/3x3"
  bottom: "inception_3b/5x5"
  bottom: "inception_3b/pool_proj"
  top: "inception_3b/output"
}
layer {
  name: "pool3/3x3_s2"
  type: "Pooling"
  bottom: "inception_3b/output"
  top: "pool3/3x3_s2"
  pooling_param {
    pool: MAX
    kernel_size: 3
    stride: 2
  }
}
layer {
  name: "inception_4a/1x1"
  type: "Convolution"
  bottom: "pool3/3x3_s2"
  top: "inception_4a/1x1"
  param {
    lr_mult: 1
    decay_mult: 1
  }
  param {
    lr_mult: 2
    decay_mult: 0
  }
  convolution_param {
    num_output: 192
    kernel_size: 1
    weight_filler {
      type: "xavier"
      std: 0.03
    }
    bias_filler {
      type: "constant"
      value: 0.2
    }
  }
}
layer {
  name: "inception_4a/relu_1x1"
  type: "ReLU"
  bottom: "inception_4a/1x1"
  top: "inception_4a/1x1"
}
layer {
  name: "inception_4a/3x3_reduce"
  type: "Convolution"
  bottom: "pool3/3x3_s2"
  top: "inception_4a/3x3_reduce"
  param {
    lr_mult: 1
    decay_mult: 1
  }
  param {
    lr_mult: 2
    decay_mult: 0
  }
  convolution_param {
    num_output: 96
    kernel_size: 1
    weight_filler {
      type: "xavier"
      std: 0.09
    }
    bias_filler {
      type: "constant"
      value: 0.2
    }
  }
}
layer {
  name: "inception_4a/relu_3x3_reduce"
  type: "ReLU"
  bottom: "inception_4a/3x3_reduce"
  top: "inception_4a/3x3_reduce"
}
layer {
  name: "inception_4a/3x3"
  type: "Convolution"
  bottom: "inception_4a/3x3_reduce"
  top: "inception_4a/3x3"
  param {
    lr_mult: 1
    decay_mult: 1
  }
  param {
    lr_mult: 2
    decay_mult: 0
  }
  convolution_param {
    num_output: 208
    pad: 1
    kernel_size: 3
    weight_filler {
      type: "xavier"
      std: 0.03
    }
    bias_filler {
      type: "constant"
      value: 0.2
    }
  }
}
layer {
  name: "inception_4a/relu_3x3"
  type: "ReLU"
  bottom: "inception_4a/3x3"
  top: "inception_4a/3x3"
}
layer {
  name: "inception_4a/5x5_reduce"
  type: "Convolution"
  bottom: "pool3/3x3_s2"
  top: "inception_4a/5x5_reduce"
  param {
    lr_mult: 1
    decay_mult: 1
  }
  param {
    lr_mult: 2
    decay_mult: 0
  }
  convolution_param {
    num_output: 16
    kernel_size: 1
    weight_filler {
      type: "xavier"
      std: 0.2
    }
    bias_filler {
      type: "constant"
      value: 0.2
    }
  }
}
layer {
  name: "inception_4a/relu_5x5_reduce"
  type: "ReLU"
  bottom: "inception_4a/5x5_reduce"
  top: "inception_4a/5x5_reduce"
}
layer {
  name: "inception_4a/5x5"
  type: "Convolution"
  bottom: "inception_4a/5x5_reduce"
  top: "inception_4a/5x5"
  param {
    lr_mult: 1
    decay_mult: 1
  }
  param {
    lr_mult: 2
    decay_mult: 0
  }
  convolution_param {
    num_output: 48
    pad: 2
    kernel_size: 5
    weight_filler {
      type: "xavier"
      std: 0.03
    }
    bias_filler {
      type: "constant"
      value: 0.2
    }
  }
}
layer {
  name: "inception_4a/relu_5x5"
  type: "ReLU"
  bottom: "inception_4a/5x5"
  top: "inception_4a/5x5"
}
layer {
  name: "inception_4a/pool"
  type: "Pooling"
  bottom: "pool3/3x3_s2"
  top: "inception_4a/pool"
  pooling_param {
    pool: MAX
    kernel_size: 3
    stride: 1
    pad: 1
  }
}
layer {
  name: "inception_4a/pool_proj"
  type: "Convolution"
  bottom: "inception_4a/pool"
  top: "inception_4a/pool_proj"
  param {
    lr_mult: 1
    decay_mult: 1
  }
  param {
    lr_mult: 2
    decay_mult: 0
  }
  convolution_param {
    num_output: 64
    kernel_size: 1
    weight_filler {
      type: "xavier"
      std: 0.1
    }
    bias_filler {
      type: "constant"
      value: 0.2
    }
  }
}
layer {
  name: "inception_4a/relu_pool_proj"
  type: "ReLU"
  bottom: "inception_4a/pool_proj"
  top: "inception_4a/pool_proj"
}
layer {
  name: "inception_4a/output"
  type: "Concat"
  bottom: "inception_4a/1x1"
  bottom: "inception_4a/3x3"
  bottom: "inception_4a/5x5"
  bottom: "inception_4a/pool_proj"
  top: "inception_4a/output"
}
layer {
  name: "loss1/ave_pool"
  type: "Pooling"
  bottom: "inception_4a/output"
  top: "loss1/ave_pool"
  pooling_param {
    pool: AVE
    kernel_size: 5
    stride: 3
  }
}
layer {
  name: "loss1/conv"
  type: "Convolution"
  bottom: "loss1/ave_pool"
  top: "loss1/conv"
  param {
    lr_mult: 1
    decay_mult: 1
  }
  param {
    lr_mult: 2
    decay_mult: 0
  }
  convolution_param {
    num_output: 128
    kernel_size: 1
    weight_filler {
      type: "xavier"
      std: 0.08
    }
    bias_filler {
      type: "constant"
      value: 0.2
    }
  }
}
layer {
  name: "loss1/relu_conv"
  type: "ReLU"
  bottom: "loss1/conv"
  top: "loss1/conv"
}
layer {
  name: "loss1/fc"
  type: "InnerProduct"
  bottom: "loss1/conv"
  top: "loss1/fc"
  param {
    lr_mult: 1
    decay_mult: 1
  }
  param {
    lr_mult: 2
    decay_mult: 0
  }
  inner_product_param {
    num_output: 1024
    weight_filler {
      type: "xavier"
      std: 0.02
    }
    bias_filler {
      type: "constant"
      value: 0.2
    }
  }
}
layer {
  name: "loss1/relu_fc"
  type: "ReLU"
  bottom: "loss1/fc"
  top: "loss1/fc"
}
layer {
  name: "loss1/drop_fc"
  type: "Dropout"
  bottom: "loss1/fc"
  top: "loss1/fc"
  dropout_param {
    dropout_ratio: 0.7
  }
}
layer {
  name: "loss1/classifier_plantvillage"
  type: "InnerProduct"
  bottom: "loss1/fc"
  top: "loss1/classifier_plantvillage"
  param {
    lr_mult: 1
    decay_mult: 1
  }
  param {
    lr_mult: 2
    decay_mult: 0
  }
  inner_product_param {
    num_output: 38
    weight_filler {
      type: "xavier"
      std: 0.0009765625
    }
    bias_filler {
      type: "constant"
      value: 0
    }
  }
}
layer {
  name: "inception_4b/1x1"
  type: "Convolution"
  bottom: "inception_4a/output"
  top: "inception_4b/1x1"
  param {
    lr_mult: 1
    decay_mult: 1
  }
  param {
    lr_mult: 2
    decay_mult: 0
  }
  convolution_param {
    num_output: 160
    kernel_size: 1
    weight_filler {
      type: "xavier"
      std: 0.03
    }
    bias_filler {
      type: "constant"
      value: 0.2
    }
  }
}
layer {
  name: "inception_4b/relu_1x1"
  type: "ReLU"
  bottom: "inception_4b/1x1"
  top: "inception_4b/1x1"
}
layer {
  name: "inception_4b/3x3_reduce"
  type: "Convolution"
  bottom: "inception_4a/output"
  top: "inception_4b/3x3_reduce"
  param {
    lr_mult: 1
    decay_mult: 1
  }
  param {
    lr_mult: 2
    decay_mult: 0
  }
  convolution_param {
    num_output: 112
    kernel_size: 1
    weight_filler {
      type: "xavier"
      std: 0.09
    }
    bias_filler {
      type: "constant"
      value: 0.2
    }
  }
}
layer {
  name: "inception_4b/relu_3x3_reduce"
  type: "ReLU"
  bottom: "inception_4b/3x3_reduce"
  top: "inception_4b/3x3_reduce"
}
layer {
  name: "inception_4b/3x3"
  type: "Convolution"
  bottom: "inception_4b/3x3_reduce"
  top: "inception_4b/3x3"
  param {
    lr_mult: 1
    decay_mult: 1
  }
  param {
    lr_mult: 2
    decay_mult: 0
  }
  convolution_param {
    num_output: 224
    pad: 1
    kernel_size: 3
    weight_filler {
      type: "xavier"
      std: 0.03
    }
    bias_filler {
      type: "constant"
      value: 0.2
    }
  }
}
layer {
  name: "inception_4b/relu_3x3"
  type: "ReLU"
  bottom: "inception_4b/3x3"
  top: "inception_4b/3x3"
}
layer {
  name: "inception_4b/5x5_reduce"
  type: "Convolution"
  bottom: "inception_4a/output"
  top: "inception_4b/5x5_reduce"
  param {
    lr_mult: 1
    decay_mult: 1
  }
  param {
    lr_mult: 2
    decay_mult: 0
  }
  convolution_param {
    num_output: 24
    kernel_size: 1
    weight_filler {
      type: "xavier"
      std: 0.2
    }
    bias_filler {
      type: "constant"
      value: 0.2
    }
  }
}
layer {
  name: "inception_4b/relu_5x5_reduce"
  type: "ReLU"
  bottom: "inception_4b/5x5_reduce"
  top: "inception_4b/5x5_reduce"
}
layer {
  name: "inception_4b/5x5"
  type: "Convolution"
  bottom: "inception_4b/5x5_reduce"
  top: "inception_4b/5x5"
  param {
    lr_mult: 1
    decay_mult: 1
  }
  param {
    lr_mult: 2
    decay_mult: 0
  }
  convolution_param {
    num_output: 64
    pad: 2
    kernel_size: 5
    weight_filler {
      type: "xavier"
      std: 0.03
    }
    bias_filler {
      type: "constant"
      value: 0.2
    }
  }
}
layer {
  name: "inception_4b/relu_5x5"
  type: "ReLU"
  bottom: "inception_4b/5x5"
  top: "inception_4b/5x5"
}
layer {
  name: "inception_4b/pool"
  type: "Pooling"
  bottom: "inception_4a/output"
  top: "inception_4b/pool"
  pooling_param {
    pool: MAX
    kernel_size: 3
    stride: 1
    pad: 1
  }
}
layer {
  name: "inception_4b/pool_proj"
  type: "Convolution"
  bottom: "inception_4b/pool"
  top: "inception_4b/pool_proj"
  param {
    lr_mult: 1
    decay_mult: 1
  }
  param {
    lr_mult: 2
    decay_mult: 0
  }
  convolution_param {
    num_output: 64
    kernel_size: 1
    weight_filler {
      type: "xavier"
      std: 0.1
    }
    bias_filler {
      type: "constant"
      value: 0.2
    }
  }
}
layer {
  name: "inception_4b/relu_pool_proj"
  type: "ReLU"
  bottom: "inception_4b/pool_proj"
  top: "inception_4b/pool_proj"
}
layer {
  name: "inception_4b/output"
  type: "Concat"
  bottom: "inception_4b/1x1"
  bottom: "inception_4b/3x3"
  bottom: "inception_4b/5x5"
  bottom: "inception_4b/pool_proj"
  top: "inception_4b/output"
}
layer {
  name: "inception_4c/1x1"
  type: "Convolution"
  bottom: "inception_4b/output"
  top: "inception_4c/1x1"
  param {
    lr_mult: 1
    decay_mult: 1
  }
  param {
    lr_mult: 2
    decay_mult: 0
  }
  convolution_param {
    num_output: 128
    kernel_size: 1
    weight_filler {
      type: "xavier"
      std: 0.03
    }
    bias_filler {
      type: "constant"
      value: 0.2
    }
  }
}
layer {
  name: "inception_4c/relu_1x1"
  type: "ReLU"
  bottom: "inception_4c/1x1"
  top: "inception_4c/1x1"
}
layer {
  name: "inception_4c/3x3_reduce"
  type: "Convolution"
  bottom: "inception_4b/output"
  top: "inception_4c/3x3_reduce"
  param {
    lr_mult: 1
    decay_mult: 1
  }
  param {
    lr_mult: 2
    decay_mult: 0
  }
  convolution_param {
    num_output: 128
    kernel_size: 1
    weight_filler {
      type: "xavier"
      std: 0.09
    }
    bias_filler {
      type: "constant"
      value: 0.2
    }
  }
}
layer {
  name: "inception_4c/relu_3x3_reduce"
  type: "ReLU"
  bottom: "inception_4c/3x3_reduce"
  top: "inception_4c/3x3_reduce"
}
layer {
  name: "inception_4c/3x3"
  type: "Convolution"
  bottom: "inception_4c/3x3_reduce"
  top: "inception_4c/3x3"
  param {
    lr_mult: 1
    decay_mult: 1
  }
  param {
    lr_mult: 2
    decay_mult: 0
  }
  convolution_param {
    num_output: 256
    pad: 1
    kernel_size: 3
    weight_filler {
      type: "xavier"
      std: 0.03
    }
    bias_filler {
      type: "constant"
      value: 0.2
    }
  }
}
layer {
  name: "inception_4c/relu_3x3"
  type: "ReLU"
  bottom: "inception_4c/3x3"
  top: "inception_4c/3x3"
}
layer {
  name: "inception_4c/5x5_reduce"
  type: "Convolution"
  bottom: "inception_4b/output"
  top: "inception_4c/5x5_reduce"
  param {
    lr_mult: 1
    decay_mult: 1
  }
  param {
    lr_mult: 2
    decay_mult: 0
  }
  convolution_param {
    num_output: 24
    kernel_size: 1
    weight_filler {
      type: "xavier"
      std: 0.2
    }
    bias_filler {
      type: "constant"
      value: 0.2
    }
  }
}
layer {
  name: "inception_4c/relu_5x5_reduce"
  type: "ReLU"
  bottom: "inception_4c/5x5_reduce"
  top: "inception_4c/5x5_reduce"
}
layer {
  name: "inception_4c/5x5"
  type: "Convolution"
  bottom: "inception_4c/5x5_reduce"
  top: "inception_4c/5x5"
  param {
    lr_mult: 1
    decay_mult: 1
  }
  param {
    lr_mult: 2
    decay_mult: 0
  }
  convolution_param {
    num_output: 64
    pad: 2
    kernel_size: 5
    weight_filler {
      type: "xavier"
      std: 0.03
    }
    bias_filler {
      type: "constant"
      value: 0.2
    }
  }
}
layer {
  name: "inception_4c/relu_5x5"
  type: "ReLU"
  bottom: "inception_4c/5x5"
  top: "inception_4c/5x5"
}
layer {
  name: "inception_4c/pool"
  type: "Pooling"
  bottom: "inception_4b/output"
  top: "inception_4c/pool"
  pooling_param {
    pool: MAX
    kernel_size: 3
    stride: 1
    pad: 1
  }
}
layer {
  name: "inception_4c/pool_proj"
  type: "Convolution"
  bottom: "inception_4c/pool"
  top: "inception_4c/pool_proj"
  param {
    lr_mult: 1
    decay_mult: 1
  }
  param {
    lr_mult: 2
    decay_mult: 0
  }
  convolution_param {
    num_output: 64
    kernel_size: 1
    weight_filler {
      type: "xavier"
      std: 0.1
    }
    bias_filler {
      type: "constant"
      value: 0.2
    }
  }
}
layer {
  name: "inception_4c/relu_pool_proj"
  type: "ReLU"
  bottom: "inception_4c/pool_proj"
  top: "inception_4c/pool_proj"
}
layer {
  name: "inception_4c/output"
  type: "Concat"
  bottom: "inception_4c/1x1"
  bottom: "inception_4c/3x3"
  bottom: "inception_4c/5x5"
  bottom: "inception_4c/pool_proj"
  top: "inception_4c/output"
}
layer {
  name: "inception_4d/1x1"
  type: "Convolution"
  bottom: "inception_4c/output"
  top: "inception_4d/1x1"
  param {
    lr_mult: 1
    decay_mult: 1
  }
  param {
    lr_mult: 2
    decay_mult: 0
  }
  convolution_param {
    num_output: 112
    kernel_size: 1
    weight_filler {
      type: "xavier"
      std: 0.03
    }
    bias_filler {
      type: "constant"
      value: 0.2
    }
  }
}
layer {
  name: "inception_4d/relu_1x1"
  type: "ReLU"
  bottom: "inception_4d/1x1"
  top: "inception_4d/1x1"
}
layer {
  name: "inception_4d/3x3_reduce"
  type: "Convolution"
  bottom: "inception_4c/output"
  top: "inception_4d/3x3_reduce"
  param {
    lr_mult: 1
    decay_mult: 1
  }
  param {
    lr_mult: 2
    decay_mult: 0
  }
  convolution_param {
    num_output: 144
    kernel_size: 1
    weight_filler {
      type: "xavier"
      std: 0.09
    }
    bias_filler {
      type: "constant"
      value: 0.2
    }
  }
}
layer {
  name: "inception_4d/relu_3x3_reduce"
  type: "ReLU"
  bottom: "inception_4d/3x3_reduce"
  top: "inception_4d/3x3_reduce"
}
layer {
  name: "inception_4d/3x3"
  type: "Convolution"
  bottom: "inception_4d/3x3_reduce"
  top: "inception_4d/3x3"
  param {
    lr_mult: 1
    decay_mult: 1
  }
  param {
    lr_mult: 2
    decay_mult: 0
  }
  convolution_param {
    num_output: 288
    pad: 1
    kernel_size: 3
    weight_filler {
      type: "xavier"
      std: 0.03
    }
    bias_filler {
      type: "constant"
      value: 0.2
    }
  }
}
layer {
  name: "inception_4d/relu_3x3"
  type: "ReLU"
  bottom: "inception_4d/3x3"
  top: "inception_4d/3x3"
}
layer {
  name: "inception_4d/5x5_reduce"
  type: "Convolution"
  bottom: "inception_4c/output"
  top: "inception_4d/5x5_reduce"
  param {
    lr_mult: 1
    decay_mult: 1
  }
  param {
    lr_mult: 2
    decay_mult: 0
  }
  convolution_param {
    num_output: 32
    kernel_size: 1
    weight_filler {
      type: "xavier"
      std: 0.2
    }
    bias_filler {
      type: "constant"
      value: 0.2
    }
  }
}
layer {
  name: "inception_4d/relu_5x5_reduce"
  type: "ReLU"
  bottom: "inception_4d/5x5_reduce"
  top: "inception_4d/5x5_reduce"
}
layer {
  name: "inception_4d/5x5"
  type: "Convolution"
  bottom: "inception_4d/5x5_reduce"
  top: "inception_4d/5x5"
  param {
    lr_mult: 1
    decay_mult: 1
  }
  param {
    lr_mult: 2
    decay_mult: 0
  }
  convolution_param {
    num_output: 64
    pad: 2
    kernel_size: 5
    weight_filler {
      type: "xavier"
      std: 0.03
    }
    bias_filler {
      type: "constant"
      value: 0.2
    }
  }
}
layer {
  name: "inception_4d/relu_5x5"
  type: "ReLU"
  bottom: "inception_4d/5x5"
  top: "inception_4d/5x5"
}
layer {
  name: "inception_4d/pool"
  type: "Pooling"
  bottom: "inception_4c/output"
  top: "inception_4d/pool"
  pooling_param {
    pool: MAX
    kernel_size: 3
    stride: 1
    pad: 1
  }
}
layer {
  name: "inception_4d/pool_proj"
  type: "Convolution"
  bottom: "inception_4d/pool"
  top: "inception_4d/pool_proj"
  param {
    lr_mult: 1
    decay_mult: 1
  }
  param {
    lr_mult: 2
    decay_mult: 0
  }
  convolution_param {
    num_output: 64
    kernel_size: 1
    weight_filler {
      type: "xavier"
      std: 0.1
    }
    bias_filler {
      type: "constant"
      value: 0.2
    }
  }
}
layer {
  name: "inception_4d/relu_pool_proj"
  type: "ReLU"
  bottom: "inception_4d/pool_proj"
  top: "inception_4d/pool_proj"
}
layer {
  name: "inception_4d/output"
  type: "Concat"
  bottom: "inception_4d/1x1"
  bottom: "inception_4d/3x3"
  bottom: "inception_4d/5x5"
  bottom: "inception_4d/pool_proj"
  top: "inception_4d/output"
}
layer {
  name: "loss2/ave_pool"
  type: "Pooling"
  bottom: "inception_4d/output"
  top: "loss2/ave_pool"
  pooling_param {
    pool: AVE
    kernel_size: 5
    stride: 3
  }
}
layer {
  name: "loss2/conv"
  type: "Convolution"
  bottom: "loss2/ave_pool"
  top: "loss2/conv"
  param {
    lr_mult: 1
    decay_mult: 1
  }
  param {
    lr_mult: 2
    decay_mult: 0
  }
  convolution_param {
    num_output: 128
    kernel_size: 1
    weight_filler {
      type: "xavier"
      std: 0.08
    }
    bias_filler {
      type: "constant"
      value: 0.2
    }
  }
}
layer {
  name: "loss2/relu_conv"
  type: "ReLU"
  bottom: "loss2/conv"
  top: "loss2/conv"
}
layer {
  name: "loss2/fc"
  type: "InnerProduct"
  bottom: "loss2/conv"
  top: "loss2/fc"
  param {
    lr_mult: 1
    decay_mult: 1
  }
  param {
    lr_mult: 2
    decay_mult: 0
  }
  inner_product_param {
    num_output: 1024
    weight_filler {
      type: "xavier"
      std: 0.02
    }
    bias_filler {
      type: "constant"
      value: 0.2
    }
  }
}
layer {
  name: "loss2/relu_fc"
  type: "ReLU"
  bottom: "loss2/fc"
  top: "loss2/fc"
}
layer {
  name: "loss2/drop_fc"
  type: "Dropout"
  bottom: "loss2/fc"
  top: "loss2/fc"
  dropout_param {
    dropout_ratio: 0.7
  }
}
layer {
  name: "loss2/classifier_plantvillage"
  type: "InnerProduct"
  bottom: "loss2/fc"
  top: "loss2/classifier_plantvillage"
  param {
    lr_mult: 1
    decay_mult: 1
  }
  param {
    lr_mult: 2
    decay_mult: 0
  }
  inner_product_param {
    num_output: 38
    weight_filler {
      type: "xavier"
      std: 0.0009765625
    }
    bias_filler {
      type: "constant"
      value: 0
    }
  }
}
layer {
  name: "inception_4e/1x1"
  type: "Convolution"
  bottom: "inception_4d/output"
  top: "inception_4e/1x1"
  param {
    lr_mult: 1
    decay_mult: 1
  }
  param {
    lr_mult: 2
    decay_mult: 0
  }
  convolution_param {
    num_output: 256
    kernel_size: 1
    weight_filler {
      type: "xavier"
      std: 0.03
    }
    bias_filler {
      type: "constant"
      value: 0.2
    }
  }
}
layer {
  name: "inception_4e/relu_1x1"
  type: "ReLU"
  bottom: "inception_4e/1x1"
  top: "inception_4e/1x1"
}
layer {
  name: "inception_4e/3x3_reduce"
  type: "Convolution"
  bottom: "inception_4d/output"
  top: "inception_4e/3x3_reduce"
  param {
    lr_mult: 1
    decay_mult: 1
  }
  param {
    lr_mult: 2
    decay_mult: 0
  }
  convolution_param {
    num_output: 160
    kernel_size: 1
    weight_filler {
      type: "xavier"
      std: 0.09
    }
    bias_filler {
      type: "constant"
      value: 0.2
    }
  }
}
layer {
  name: "inception_4e/relu_3x3_reduce"
  type: "ReLU"
  bottom: "inception_4e/3x3_reduce"
  top: "inception_4e/3x3_reduce"
}
layer {
  name: "inception_4e/3x3"
  type: "Convolution"
  bottom: "inception_4e/3x3_reduce"
  top: "inception_4e/3x3"
  param {
    lr_mult: 1
    decay_mult: 1
  }
  param {
    lr_mult: 2
    decay_mult: 0
  }
  convolution_param {
    num_output: 320
    pad: 1
    kernel_size: 3
    weight_filler {
      type: "xavier"
      std: 0.03
    }
    bias_filler {
      type: "constant"
      value: 0.2
    }
  }
}
layer {
  name: "inception_4e/relu_3x3"
  type: "ReLU"
  bottom: "inception_4e/3x3"
  top: "inception_4e/3x3"
}
layer {
  name: "inception_4e/5x5_reduce"
  type: "Convolution"
  bottom: "inception_4d/output"
  top: "inception_4e/5x5_reduce"
  param {
    lr_mult: 1
    decay_mult: 1
  }
  param {
    lr_mult: 2
    decay_mult: 0
  }
  convolution_param {
    num_output: 32
    kernel_size: 1
    weight_filler {
      type: "xavier"
      std: 0.2
    }
    bias_filler {
      type: "constant"
      value: 0.2
    }
  }
}
layer {
  name: "inception_4e/relu_5x5_reduce"
  type: "ReLU"
  bottom: "inception_4e/5x5_reduce"
  top: "inception_4e/5x5_reduce"
}
layer {
  name: "inception_4e/5x5"
  type: "Convolution"
  bottom: "inception_4e/5x5_reduce"
  top: "inception_4e/
I0403 15:05:09.831044 11636 layer_factory.hpp:77] Creating layer data
I0403 15:05:09.832561 11636 net.cpp:91] Creating Layer data
I0403 15:05:09.832645 11636 net.cpp:399] data -> data
I0403 15:05:09.832759 11636 net.cpp:399] data -> label
I0403 15:05:09.832845 11636 data_transformer.cpp:25] Loading mean file from: /home/mohanty/data/final_dataset/lmdb/grayscale-60-40/mean.binaryproto
I0403 15:05:09.836781 11638 db_lmdb.cpp:38] Opened lmdb /home/mohanty/data/final_dataset/lmdb/grayscale-60-40/test_db
I0403 15:05:09.852387 11636 data_layer.cpp:41] output data size: 24,3,224,224
I0403 15:05:09.880697 11636 net.cpp:141] Setting up data
I0403 15:05:09.880786 11636 net.cpp:148] Top shape: 24 3 224 224 (3612672)
I0403 15:05:09.880811 11636 net.cpp:148] Top shape: 24 (24)
I0403 15:05:09.880828 11636 net.cpp:156] Memory required for data: 14450784
I0403 15:05:09.880856 11636 layer_factory.hpp:77] Creating layer label_data_1_split
I0403 15:05:09.880883 11636 net.cpp:91] Creating Layer label_data_1_split
I0403 15:05:09.880903 11636 net.cpp:425] label_data_1_split <- label
I0403 15:05:09.880934 11636 net.cpp:399] label_data_1_split -> label_data_1_split_0
I0403 15:05:09.880964 11636 net.cpp:399] label_data_1_split -> label_data_1_split_1
I0403 15:05:09.880986 11636 net.cpp:399] label_data_1_split -> label_data_1_split_2
I0403 15:05:09.881007 11636 net.cpp:399] label_data_1_split -> label_data_1_split_3
I0403 15:05:09.881027 11636 net.cpp:399] label_data_1_split -> label_data_1_split_4
I0403 15:05:09.881048 11636 net.cpp:399] label_data_1_split -> label_data_1_split_5
I0403 15:05:09.881069 11636 net.cpp:399] label_data_1_split -> label_data_1_split_6
I0403 15:05:09.881091 11636 net.cpp:399] label_data_1_split -> label_data_1_split_7
I0403 15:05:09.881110 11636 net.cpp:399] label_data_1_split -> label_data_1_split_8
I0403 15:05:09.881135 11636 net.cpp:399] label_data_1_split -> label_data_1_split_9
I0403 15:05:09.881258 11636 net.cpp:141] Setting up label_data_1_split
I0403 15:05:09.881283 11636 net.cpp:148] Top shape: 24 (24)
I0403 15:05:09.881301 11636 net.cpp:148] Top shape: 24 (24)
I0403 15:05:09.881319 11636 net.cpp:148] Top shape: 24 (24)
I0403 15:05:09.881335 11636 net.cpp:148] Top shape: 24 (24)
I0403 15:05:09.881352 11636 net.cpp:148] Top shape: 24 (24)
I0403 15:05:09.881367 11636 net.cpp:148] Top shape: 24 (24)
I0403 15:05:09.881382 11636 net.cpp:148] Top shape: 24 (24)
I0403 15:05:09.881398 11636 net.cpp:148] Top shape: 24 (24)
I0403 15:05:09.881414 11636 net.cpp:148] Top shape: 24 (24)
I0403 15:05:09.881431 11636 net.cpp:148] Top shape: 24 (24)
I0403 15:05:09.881470 11636 net.cpp:156] Memory required for data: 14451744
I0403 15:05:09.881487 11636 layer_factory.hpp:77] Creating layer conv1/7x7_s2
I0403 15:05:09.881520 11636 net.cpp:91] Creating Layer conv1/7x7_s2
I0403 15:05:09.881541 11636 net.cpp:425] conv1/7x7_s2 <- data
I0403 15:05:09.881561 11636 net.cpp:399] conv1/7x7_s2 -> conv1/7x7_s2
I0403 15:05:10.022516 11636 net.cpp:141] Setting up conv1/7x7_s2
I0403 15:05:10.022604 11636 net.cpp:148] Top shape: 24 64 112 112 (19267584)
I0403 15:05:10.022622 11636 net.cpp:156] Memory required for data: 91522080
I0403 15:05:10.022651 11636 layer_factory.hpp:77] Creating layer conv1/relu_7x7
I0403 15:05:10.022678 11636 net.cpp:91] Creating Layer conv1/relu_7x7
I0403 15:05:10.022697 11636 net.cpp:425] conv1/relu_7x7 <- conv1/7x7_s2
I0403 15:05:10.022716 11636 net.cpp:386] conv1/relu_7x7 -> conv1/7x7_s2 (in-place)
I0403 15:05:10.022972 11636 net.cpp:141] Setting up conv1/relu_7x7
I0403 15:05:10.023048 11636 net.cpp:148] Top shape: 24 64 112 112 (19267584)
I0403 15:05:10.023069 11636 net.cpp:156] Memory required for data: 168592416
I0403 15:05:10.023111 11636 layer_factory.hpp:77] Creating layer pool1/3x3_s2
I0403 15:05:10.023149 11636 net.cpp:91] Creating Layer pool1/3x3_s2
I0403 15:05:10.023170 11636 net.cpp:425] pool1/3x3_s2 <- conv1/7x7_s2
I0403 15:05:10.023188 11636 net.cpp:399] pool1/3x3_s2 -> pool1/3x3_s2
I0403 15:05:10.023263 11636 net.cpp:141] Setting up pool1/3x3_s2
I0403 15:05:10.023288 11636 net.cpp:148] Top shape: 24 64 56 56 (4816896)
I0403 15:05:10.023303 11636 net.cpp:156] Memory required for data: 187860000
I0403 15:05:10.023318 11636 layer_factory.hpp:77] Creating layer pool1/norm1
I0403 15:05:10.023341 11636 net.cpp:91] Creating Layer pool1/norm1
I0403 15:05:10.023360 11636 net.cpp:425] pool1/norm1 <- pool1/3x3_s2
I0403 15:05:10.023376 11636 net.cpp:399] pool1/norm1 -> pool1/norm1
I0403 15:05:10.023663 11636 net.cpp:141] Setting up pool1/norm1
I0403 15:05:10.023690 11636 net.cpp:148] Top shape: 24 64 56 56 (4816896)
I0403 15:05:10.023705 11636 net.cpp:156] Memory required for data: 207127584
I0403 15:05:10.023720 11636 layer_factory.hpp:77] Creating layer conv2/3x3_reduce
I0403 15:05:10.023744 11636 net.cpp:91] Creating Layer conv2/3x3_reduce
I0403 15:05:10.023761 11636 net.cpp:425] conv2/3x3_reduce <- pool1/norm1
I0403 15:05:10.023780 11636 net.cpp:399] conv2/3x3_reduce -> conv2/3x3_reduce
I0403 15:05:10.025288 11636 net.cpp:141] Setting up conv2/3x3_reduce
I0403 15:05:10.025320 11636 net.cpp:148] Top shape: 24 64 56 56 (4816896)
I0403 15:05:10.025336 11636 net.cpp:156] Memory required for data: 226395168
I0403 15:05:10.025359 11636 layer_factory.hpp:77] Creating layer conv2/relu_3x3_reduce
I0403 15:05:10.025379 11636 net.cpp:91] Creating Layer conv2/relu_3x3_reduce
I0403 15:05:10.025395 11636 net.cpp:425] conv2/relu_3x3_reduce <- conv2/3x3_reduce
I0403 15:05:10.025414 11636 net.cpp:386] conv2/relu_3x3_reduce -> conv2/3x3_reduce (in-place)
I0403 15:05:10.025688 11636 net.cpp:141] Setting up conv2/relu_3x3_reduce
I0403 15:05:10.025715 11636 net.cpp:148] Top shape: 24 64 56 56 (4816896)
I0403 15:05:10.025732 11636 net.cpp:156] Memory required for data: 245662752
I0403 15:05:10.025748 11636 layer_factory.hpp:77] Creating layer conv2/3x3
I0403 15:05:10.025774 11636 net.cpp:91] Creating Layer conv2/3x3
I0403 15:05:10.025792 11636 net.cpp:425] conv2/3x3 <- conv2/3x3_reduce
I0403 15:05:10.025815 11636 net.cpp:399] conv2/3x3 -> conv2/3x3
I0403 15:05:10.028192 11636 net.cpp:141] Setting up conv2/3x3
I0403 15:05:10.028224 11636 net.cpp:148] Top shape: 24 192 56 56 (14450688)
I0403 15:05:10.028241 11636 net.cpp:156] Memory required for data: 303465504
I0403 15:05:10.028293 11636 layer_factory.hpp:77] Creating layer conv2/relu_3x3
I0403 15:05:10.028321 11636 net.cpp:91] Creating Layer conv2/relu_3x3
I0403 15:05:10.028337 11636 net.cpp:425] conv2/relu_3x3 <- conv2/3x3
I0403 15:05:10.028357 11636 net.cpp:386] conv2/relu_3x3 -> conv2/3x3 (in-place)
I0403 15:05:10.028540 11636 net.cpp:141] Setting up conv2/relu_3x3
I0403 15:05:10.028569 11636 net.cpp:148] Top shape: 24 192 56 56 (14450688)
I0403 15:05:10.028619 11636 net.cpp:156] Memory required for data: 361268256
I0403 15:05:10.028635 11636 layer_factory.hpp:77] Creating layer conv2/norm2
I0403 15:05:10.028655 11636 net.cpp:91] Creating Layer conv2/norm2
I0403 15:05:10.028671 11636 net.cpp:425] conv2/norm2 <- conv2/3x3
I0403 15:05:10.028692 11636 net.cpp:399] conv2/norm2 -> conv2/norm2
I0403 15:05:10.029003 11636 net.cpp:141] Setting up conv2/norm2
I0403 15:05:10.029031 11636 net.cpp:148] Top shape: 24 192 56 56 (14450688)
I0403 15:05:10.029047 11636 net.cpp:156] Memory required for data: 419071008
I0403 15:05:10.029062 11636 layer_factory.hpp:77] Creating layer pool2/3x3_s2
I0403 15:05:10.029080 11636 net.cpp:91] Creating Layer pool2/3x3_s2
I0403 15:05:10.029096 11636 net.cpp:425] pool2/3x3_s2 <- conv2/norm2
I0403 15:05:10.029117 11636 net.cpp:399] pool2/3x3_s2 -> pool2/3x3_s2
I0403 15:05:10.029177 11636 net.cpp:141] Setting up pool2/3x3_s2
I0403 15:05:10.029202 11636 net.cpp:148] Top shape: 24 192 28 28 (3612672)
I0403 15:05:10.029217 11636 net.cpp:156] Memory required for data: 433521696
I0403 15:05:10.029232 11636 layer_factory.hpp:77] Creating layer pool2/3x3_s2_pool2/3x3_s2_0_split
I0403 15:05:10.029253 11636 net.cpp:91] Creating Layer pool2/3x3_s2_pool2/3x3_s2_0_split
I0403 15:05:10.029270 11636 net.cpp:425] pool2/3x3_s2_pool2/3x3_s2_0_split <- pool2/3x3_s2
I0403 15:05:10.029289 11636 net.cpp:399] pool2/3x3_s2_pool2/3x3_s2_0_split -> pool2/3x3_s2_pool2/3x3_s2_0_split_0
I0403 15:05:10.029311 11636 net.cpp:399] pool2/3x3_s2_pool2/3x3_s2_0_split -> pool2/3x3_s2_pool2/3x3_s2_0_split_1
I0403 15:05:10.029332 11636 net.cpp:399] pool2/3x3_s2_pool2/3x3_s2_0_split -> pool2/3x3_s2_pool2/3x3_s2_0_split_2
I0403 15:05:10.029355 11636 net.cpp:399] pool2/3x3_s2_pool2/3x3_s2_0_split -> pool2/3x3_s2_pool2/3x3_s2_0_split_3
I0403 15:05:10.029427 11636 net.cpp:141] Setting up pool2/3x3_s2_pool2/3x3_s2_0_split
I0403 15:05:10.029450 11636 net.cpp:148] Top shape: 24 192 28 28 (3612672)
I0403 15:05:10.029467 11636 net.cpp:148] Top shape: 24 192 28 28 (3612672)
I0403 15:05:10.029482 11636 net.cpp:148] Top shape: 24 192 28 28 (3612672)
I0403 15:05:10.029497 11636 net.cpp:148] Top shape: 24 192 28 28 (3612672)
I0403 15:05:10.029511 11636 net.cpp:156] Memory required for data: 491324448
I0403 15:05:10.029526 11636 layer_factory.hpp:77] Creating layer inception_3a/1x1
I0403 15:05:10.029549 11636 net.cpp:91] Creating Layer inception_3a/1x1
I0403 15:05:10.029567 11636 net.cpp:425] inception_3a/1x1 <- pool2/3x3_s2_pool2/3x3_s2_0_split_0
I0403 15:05:10.029588 11636 net.cpp:399] inception_3a/1x1 -> inception_3a/1x1
I0403 15:05:10.031256 11636 net.cpp:141] Setting up inception_3a/1x1
I0403 15:05:10.031287 11636 net.cpp:148] Top shape: 24 64 28 28 (1204224)
I0403 15:05:10.031304 11636 net.cpp:156] Memory required for data: 496141344
I0403 15:05:10.031322 11636 layer_factory.hpp:77] Creating layer inception_3a/relu_1x1
I0403 15:05:10.031343 11636 net.cpp:91] Creating Layer inception_3a/relu_1x1
I0403 15:05:10.031361 11636 net.cpp:425] inception_3a/relu_1x1 <- inception_3a/1x1
I0403 15:05:10.031379 11636 net.cpp:386] inception_3a/relu_1x1 -> inception_3a/1x1 (in-place)
I0403 15:05:10.031554 11636 net.cpp:141] Setting up inception_3a/relu_1x1
I0403 15:05:10.031580 11636 net.cpp:148] Top shape: 24 64 28 28 (1204224)
I0403 15:05:10.031595 11636 net.cpp:156] Memory required for data: 500958240
I0403 15:05:10.031610 11636 layer_factory.hpp:77] Creating layer inception_3a/3x3_reduce
I0403 15:05:10.031635 11636 net.cpp:91] Creating Layer inception_3a/3x3_reduce
I0403 15:05:10.031653 11636 net.cpp:425] inception_3a/3x3_reduce <- pool2/3x3_s2_pool2/3x3_s2_0_split_1
I0403 15:05:10.031675 11636 net.cpp:399] inception_3a/3x3_reduce -> inception_3a/3x3_reduce
I0403 15:05:10.033421 11636 net.cpp:141] Setting up inception_3a/3x3_reduce
I0403 15:05:10.033452 11636 net.cpp:148] Top shape: 24 96 28 28 (1806336)
I0403 15:05:10.033469 11636 net.cpp:156] Memory required for data: 508183584
I0403 15:05:10.033489 11636 layer_factory.hpp:77] Creating layer inception_3a/relu_3x3_reduce
I0403 15:05:10.033529 11636 net.cpp:91] Creating Layer inception_3a/relu_3x3_reduce
I0403 15:05:10.033548 11636 net.cpp:425] inception_3a/relu_3x3_reduce <- inception_3a/3x3_reduce
I0403 15:05:10.033566 11636 net.cpp:386] inception_3a/relu_3x3_reduce -> inception_3a/3x3_reduce (in-place)
I0403 15:05:10.033753 11636 net.cpp:141] Setting up inception_3a/relu_3x3_reduce
I0403 15:05:10.033779 11636 net.cpp:148] Top shape: 24 96 28 28 (1806336)
I0403 15:05:10.033794 11636 net.cpp:156] Memory required for data: 515408928
I0403 15:05:10.033809 11636 layer_factory.hpp:77] Creating layer inception_3a/3x3
I0403 15:05:10.033833 11636 net.cpp:91] Creating Layer inception_3a/3x3
I0403 15:05:10.033850 11636 net.cpp:425] inception_3a/3x3 <- inception_3a/3x3_reduce
I0403 15:05:10.033874 11636 net.cpp:399] inception_3a/3x3 -> inception_3a/3x3
I0403 15:05:10.035606 11636 net.cpp:141] Setting up inception_3a/3x3
I0403 15:05:10.035637 11636 net.cpp:148] Top shape: 24 128 28 28 (2408448)
I0403 15:05:10.035653 11636 net.cpp:156] Memory required for data: 525042720
I0403 15:05:10.035671 11636 layer_factory.hpp:77] Creating layer inception_3a/relu_3x3
I0403 15:05:10.035724 11636 net.cpp:91] Creating Layer inception_3a/relu_3x3
I0403 15:05:10.035748 11636 net.cpp:425] inception_3a/relu_3x3 <- inception_3a/3x3
I0403 15:05:10.035765 11636 net.cpp:386] inception_3a/relu_3x3 -> inception_3a/3x3 (in-place)
I0403 15:05:10.036056 11636 net.cpp:141] Setting up inception_3a/relu_3x3
I0403 15:05:10.036084 11636 net.cpp:148] Top shape: 24 128 28 28 (2408448)
I0403 15:05:10.036100 11636 net.cpp:156] Memory required for data: 534676512
I0403 15:05:10.036115 11636 layer_factory.hpp:77] Creating layer inception_3a/5x5_reduce
I0403 15:05:10.036144 11636 net.cpp:91] Creating Layer inception_3a/5x5_reduce
I0403 15:05:10.036164 11636 net.cpp:425] inception_3a/5x5_reduce <- pool2/3x3_s2_pool2/3x3_s2_0_split_2
I0403 15:05:10.036185 11636 net.cpp:399] inception_3a/5x5_reduce -> inception_3a/5x5_reduce
I0403 15:05:10.037180 11636 net.cpp:141] Setting up inception_3a/5x5_reduce
I0403 15:05:10.037210 11636 net.cpp:148] Top shape: 24 16 28 28 (301056)
I0403 15:05:10.037225 11636 net.cpp:156] Memory required for data: 535880736
I0403 15:05:10.037245 11636 layer_factory.hpp:77] Creating layer inception_3a/relu_5x5_reduce
I0403 15:05:10.037266 11636 net.cpp:91] Creating Layer inception_3a/relu_5x5_reduce
I0403 15:05:10.037283 11636 net.cpp:425] inception_3a/relu_5x5_reduce <- inception_3a/5x5_reduce
I0403 15:05:10.037302 11636 net.cpp:386] inception_3a/relu_5x5_reduce -> inception_3a/5x5_reduce (in-place)
I0403 15:05:10.037598 11636 net.cpp:141] Setting up inception_3a/relu_5x5_reduce
I0403 15:05:10.037628 11636 net.cpp:148] Top shape: 24 16 28 28 (301056)
I0403 15:05:10.037643 11636 net.cpp:156] Memory required for data: 537084960
I0403 15:05:10.037659 11636 layer_factory.hpp:77] Creating layer inception_3a/5x5
I0403 15:05:10.037683 11636 net.cpp:91] Creating Layer inception_3a/5x5
I0403 15:05:10.037701 11636 net.cpp:425] inception_3a/5x5 <- inception_3a/5x5_reduce
I0403 15:05:10.037720 11636 net.cpp:399] inception_3a/5x5 -> inception_3a/5x5
I0403 15:05:10.038763 11636 net.cpp:141] Setting up inception_3a/5x5
I0403 15:05:10.038791 11636 net.cpp:148] Top shape: 24 32 28 28 (602112)
I0403 15:05:10.038807 11636 net.cpp:156] Memory required for data: 539493408
I0403 15:05:10.038826 11636 layer_factory.hpp:77] Creating layer inception_3a/relu_5x5
I0403 15:05:10.038847 11636 net.cpp:91] Creating Layer inception_3a/relu_5x5
I0403 15:05:10.038866 11636 net.cpp:425] inception_3a/relu_5x5 <- inception_3a/5x5
I0403 15:05:10.038883 11636 net.cpp:386] inception_3a/relu_5x5 -> inception_3a/5x5 (in-place)
I0403 15:05:10.039058 11636 net.cpp:141] Setting up inception_3a/relu_5x5
I0403 15:05:10.039085 11636 net.cpp:148] Top shape: 24 32 28 28 (602112)
I0403 15:05:10.039100 11636 net.cpp:156] Memory required for data: 541901856
I0403 15:05:10.039114 11636 layer_factory.hpp:77] Creating layer inception_3a/pool
I0403 15:05:10.039142 11636 net.cpp:91] Creating Layer inception_3a/pool
I0403 15:05:10.039175 11636 net.cpp:425] inception_3a/pool <- pool2/3x3_s2_pool2/3x3_s2_0_split_3
I0403 15:05:10.039196 11636 net.cpp:399] inception_3a/pool -> inception_3a/pool
I0403 15:05:10.039255 11636 net.cpp:141] Setting up inception_3a/pool
I0403 15:05:10.039280 11636 net.cpp:148] Top shape: 24 192 28 28 (3612672)
I0403 15:05:10.039295 11636 net.cpp:156] Memory required for data: 556352544
I0403 15:05:10.039311 11636 layer_factory.hpp:77] Creating layer inception_3a/pool_proj
I0403 15:05:10.039335 11636 net.cpp:91] Creating Layer inception_3a/pool_proj
I0403 15:05:10.039350 11636 net.cpp:425] inception_3a/pool_proj <- inception_3a/pool
I0403 15:05:10.039372 11636 net.cpp:399] inception_3a/pool_proj -> inception_3a/pool_proj
I0403 15:05:10.040366 11636 net.cpp:141] Setting up inception_3a/pool_proj
I0403 15:05:10.040405 11636 net.cpp:148] Top shape: 24 32 28 28 (602112)
I0403 15:05:10.040421 11636 net.cpp:156] Memory required for data: 558760992
I0403 15:05:10.040443 11636 layer_factory.hpp:77] Creating layer inception_3a/relu_pool_proj
I0403 15:05:10.040465 11636 net.cpp:91] Creating Layer inception_3a/relu_pool_proj
I0403 15:05:10.040482 11636 net.cpp:425] inception_3a/relu_pool_proj <- inception_3a/pool_proj
I0403 15:05:10.040499 11636 net.cpp:386] inception_3a/relu_pool_proj -> inception_3a/pool_proj (in-place)
I0403 15:05:10.040776 11636 net.cpp:141] Setting up inception_3a/relu_pool_proj
I0403 15:05:10.040804 11636 net.cpp:148] Top shape: 24 32 28 28 (602112)
I0403 15:05:10.040819 11636 net.cpp:156] Memory required for data: 561169440
I0403 15:05:10.040835 11636 layer_factory.hpp:77] Creating layer inception_3a/output
I0403 15:05:10.040856 11636 net.cpp:91] Creating Layer inception_3a/output
I0403 15:05:10.040874 11636 net.cpp:425] inception_3a/output <- inception_3a/1x1
I0403 15:05:10.040890 11636 net.cpp:425] inception_3a/output <- inception_3a/3x3
I0403 15:05:10.040906 11636 net.cpp:425] inception_3a/output <- inception_3a/5x5
I0403 15:05:10.040923 11636 net.cpp:425] inception_3a/output <- inception_3a/pool_proj
I0403 15:05:10.040940 11636 net.cpp:399] inception_3a/output -> inception_3a/output
I0403 15:05:10.040988 11636 net.cpp:141] Setting up inception_3a/output
I0403 15:05:10.041013 11636 net.cpp:148] Top shape: 24 256 28 28 (4816896)
I0403 15:05:10.041028 11636 net.cpp:156] Memory required for data: 580437024
I0403 15:05:10.041043 11636 layer_factory.hpp:77] Creating layer inception_3a/output_inception_3a/output_0_split
I0403 15:05:10.041060 11636 net.cpp:91] Creating Layer inception_3a/output_inception_3a/output_0_split
I0403 15:05:10.041075 11636 net.cpp:425] inception_3a/output_inception_3a/output_0_split <- inception_3a/output
I0403 15:05:10.041095 11636 net.cpp:399] inception_3a/output_inception_3a/output_0_split -> inception_3a/output_inception_3a/output_0_split_0
I0403 15:05:10.041115 11636 net.cpp:399] inception_3a/output_inception_3a/output_0_split -> inception_3a/output_inception_3a/output_0_split_1
I0403 15:05:10.041146 11636 net.cpp:399] inception_3a/output_inception_3a/output_0_split -> inception_3a/output_inception_3a/output_0_split_2
I0403 15:05:10.041167 11636 net.cpp:399] inception_3a/output_inception_3a/output_0_split -> inception_3a/output_inception_3a/output_0_split_3
I0403 15:05:10.041245 11636 net.cpp:141] Setting up inception_3a/output_inception_3a/output_0_split
I0403 15:05:10.041270 11636 net.cpp:148] Top shape: 24 256 28 28 (4816896)
I0403 15:05:10.041286 11636 net.cpp:148] Top shape: 24 256 28 28 (4816896)
I0403 15:05:10.041302 11636 net.cpp:148] Top shape: 24 256 28 28 (4816896)
I0403 15:05:10.041317 11636 net.cpp:148] Top shape: 24 256 28 28 (4816896)
I0403 15:05:10.041331 11636 net.cpp:156] Memory required for data: 657507360
I0403 15:05:10.041345 11636 layer_factory.hpp:77] Creating layer inception_3b/1x1
I0403 15:05:10.041368 11636 net.cpp:91] Creating Layer inception_3b/1x1
I0403 15:05:10.041386 11636 net.cpp:425] inception_3b/1x1 <- inception_3a/output_inception_3a/output_0_split_0
I0403 15:05:10.041407 11636 net.cpp:399] inception_3b/1x1 -> inception_3b/1x1
I0403 15:05:10.042569 11636 net.cpp:141] Setting up inception_3b/1x1
I0403 15:05:10.042610 11636 net.cpp:148] Top shape: 24 128 28 28 (2408448)
I0403 15:05:10.042626 11636 net.cpp:156] Memory required for data: 667141152
I0403 15:05:10.042645 11636 layer_factory.hpp:77] Creating layer inception_3b/relu_1x1
I0403 15:05:10.042664 11636 net.cpp:91] Creating Layer inception_3b/relu_1x1
I0403 15:05:10.042680 11636 net.cpp:425] inception_3b/relu_1x1 <- inception_3b/1x1
I0403 15:05:10.042700 11636 net.cpp:386] inception_3b/relu_1x1 -> inception_3b/1x1 (in-place)
I0403 15:05:10.042879 11636 net.cpp:141] Setting up inception_3b/relu_1x1
I0403 15:05:10.042906 11636 net.cpp:148] Top shape: 24 128 28 28 (2408448)
I0403 15:05:10.042920 11636 net.cpp:156] Memory required for data: 676774944
I0403 15:05:10.042937 11636 layer_factory.hpp:77] Creating layer inception_3b/3x3_reduce
I0403 15:05:10.042959 11636 net.cpp:91] Creating Layer inception_3b/3x3_reduce
I0403 15:05:10.042976 11636 net.cpp:425] inception_3b/3x3_reduce <- inception_3a/output_inception_3a/output_0_split_1
I0403 15:05:10.042999 11636 net.cpp:399] inception_3b/3x3_reduce -> inception_3b/3x3_reduce
I0403 15:05:10.044175 11636 net.cpp:141] Setting up inception_3b/3x3_reduce
I0403 15:05:10.044204 11636 net.cpp:148] Top shape: 24 128 28 28 (2408448)
I0403 15:05:10.044220 11636 net.cpp:156] Memory required for data: 686408736
I0403 15:05:10.044240 11636 layer_factory.hpp:77] Creating layer inception_3b/relu_3x3_reduce
I0403 15:05:10.044258 11636 net.cpp:91] Creating Layer inception_3b/relu_3x3_reduce
I0403 15:05:10.044275 11636 net.cpp:425] inception_3b/relu_3x3_reduce <- inception_3b/3x3_reduce
I0403 15:05:10.044296 11636 net.cpp:386] inception_3b/relu_3x3_reduce -> inception_3b/3x3_reduce (in-place)
I0403 15:05:10.044471 11636 net.cpp:141] Setting up inception_3b/relu_3x3_reduce
I0403 15:05:10.044497 11636 net.cpp:148] Top shape: 24 128 28 28 (2408448)
I0403 15:05:10.044524 11636 net.cpp:156] Memory required for data: 696042528
I0403 15:05:10.044539 11636 layer_factory.hpp:77] Creating layer inception_3b/3x3
I0403 15:05:10.044565 11636 net.cpp:91] Creating Layer inception_3b/3x3
I0403 15:05:10.044584 11636 net.cpp:425] inception_3b/3x3 <- inception_3b/3x3_reduce
I0403 15:05:10.044602 11636 net.cpp:399] inception_3b/3x3 -> inception_3b/3x3
I0403 15:05:10.047482 11636 net.cpp:141] Setting up inception_3b/3x3
I0403 15:05:10.047511 11636 net.cpp:148] Top shape: 24 192 28 28 (3612672)
I0403 15:05:10.047528 11636 net.cpp:156] Memory required for data: 710493216
I0403 15:05:10.047545 11636 layer_factory.hpp:77] Creating layer inception_3b/relu_3x3
I0403 15:05:10.047565 11636 net.cpp:91] Creating Layer inception_3b/relu_3x3
I0403 15:05:10.047583 11636 net.cpp:425] inception_3b/relu_3x3 <- inception_3b/3x3
I0403 15:05:10.047600 11636 net.cpp:386] inception_3b/relu_3x3 -> inception_3b/3x3 (in-place)
I0403 15:05:10.047875 11636 net.cpp:141] Setting up inception_3b/relu_3x3
I0403 15:05:10.047901 11636 net.cpp:148] Top shape: 24 192 28 28 (3612672)
I0403 15:05:10.047916 11636 net.cpp:156] Memory required for data: 724943904
I0403 15:05:10.047931 11636 layer_factory.hpp:77] Creating layer inception_3b/5x5_reduce
I0403 15:05:10.047953 11636 net.cpp:91] Creating Layer inception_3b/5x5_reduce
I0403 15:05:10.047971 11636 net.cpp:425] inception_3b/5x5_reduce <- inception_3a/output_inception_3a/output_0_split_2
I0403 15:05:10.047993 11636 net.cpp:399] inception_3b/5x5_reduce -> inception_3b/5x5_reduce
I0403 15:05:10.048976 11636 net.cpp:141] Setting up inception_3b/5x5_reduce
I0403 15:05:10.049005 11636 net.cpp:148] Top shape: 24 32 28 28 (602112)
I0403 15:05:10.049021 11636 net.cpp:156] Memory required for data: 727352352
I0403 15:05:10.049039 11636 layer_factory.hpp:77] Creating layer inception_3b/relu_5x5_reduce
I0403 15:05:10.049059 11636 net.cpp:91] Creating Layer inception_3b/relu_5x5_reduce
I0403 15:05:10.049077 11636 net.cpp:425] inception_3b/relu_5x5_reduce <- inception_3b/5x5_reduce
I0403 15:05:10.049103 11636 net.cpp:386] inception_3b/relu_5x5_reduce -> inception_3b/5x5_reduce (in-place)
I0403 15:05:10.049299 11636 net.cpp:141] Setting up inception_3b/relu_5x5_reduce
I0403 15:05:10.049324 11636 net.cpp:148] Top shape: 24 32 28 28 (602112)
I0403 15:05:10.049340 11636 net.cpp:156] Memory required for data: 729760800
I0403 15:05:10.049353 11636 layer_factory.hpp:77] Creating layer inception_3b/5x5
I0403 15:05:10.049386 11636 net.cpp:91] Creating Layer inception_3b/5x5
I0403 15:05:10.049402 11636 net.cpp:425] inception_3b/5x5 <- inception_3b/5x5_reduce
I0403 15:05:10.049422 11636 net.cpp:399] inception_3b/5x5 -> inception_3b/5x5
I0403 15:05:10.051357 11636 net.cpp:141] Setting up inception_3b/5x5
I0403 15:05:10.051388 11636 net.cpp:148] Top shape: 24 96 28 28 (1806336)
I0403 15:05:10.051403 11636 net.cpp:156] Memory required for data: 736986144
I0403 15:05:10.051422 11636 layer_factory.hpp:77] Creating layer inception_3b/relu_5x5
I0403 15:05:10.051440 11636 net.cpp:91] Creating Layer inception_3b/relu_5x5
I0403 15:05:10.051455 11636 net.cpp:425] inception_3b/relu_5x5 <- inception_3b/5x5
I0403 15:05:10.051475 11636 net.cpp:386] inception_3b/relu_5x5 -> inception_3b/5x5 (in-place)
I0403 15:05:10.051657 11636 net.cpp:141] Setting up inception_3b/relu_5x5
I0403 15:05:10.051683 11636 net.cpp:148] Top shape: 24 96 28 28 (1806336)
I0403 15:05:10.051697 11636 net.cpp:156] Memory required for data: 744211488
I0403 15:05:10.051712 11636 layer_factory.hpp:77] Creating layer inception_3b/pool
I0403 15:05:10.051729 11636 net.cpp:91] Creating Layer inception_3b/pool
I0403 15:05:10.051745 11636 net.cpp:425] inception_3b/pool <- inception_3a/output_inception_3a/output_0_split_3
I0403 15:05:10.051762 11636 net.cpp:399] inception_3b/pool -> inception_3b/pool
I0403 15:05:10.051818 11636 net.cpp:141] Setting up inception_3b/pool
I0403 15:05:10.051841 11636 net.cpp:148] Top shape: 24 256 28 28 (4816896)
I0403 15:05:10.051856 11636 net.cpp:156] Memory required for data: 763479072
I0403 15:05:10.051870 11636 layer_factory.hpp:77] Creating layer inception_3b/pool_proj
I0403 15:05:10.051892 11636 net.cpp:91] Creating Layer inception_3b/pool_proj
I0403 15:05:10.051909 11636 net.cpp:425] inception_3b/pool_proj <- inception_3b/pool
I0403 15:05:10.051929 11636 net.cpp:399] inception_3b/pool_proj -> inception_3b/pool_proj
I0403 15:05:10.052958 11636 net.cpp:141] Setting up inception_3b/pool_proj
I0403 15:05:10.052985 11636 net.cpp:148] Top shape: 24 64 28 28 (1204224)
I0403 15:05:10.053000 11636 net.cpp:156] Memory required for data: 768295968
I0403 15:05:10.053021 11636 layer_factory.hpp:77] Creating layer inception_3b/relu_pool_proj
I0403 15:05:10.053040 11636 net.cpp:91] Creating Layer inception_3b/relu_pool_proj
I0403 15:05:10.053056 11636 net.cpp:425] inception_3b/relu_pool_proj <- inception_3b/pool_proj
I0403 15:05:10.053071 11636 net.cpp:386] inception_3b/relu_pool_proj -> inception_3b/pool_proj (in-place)
I0403 15:05:10.053465 11636 net.cpp:141] Setting up inception_3b/relu_pool_proj
I0403 15:05:10.053491 11636 net.cpp:148] Top shape: 24 64 28 28 (1204224)
I0403 15:05:10.053509 11636 net.cpp:156] Memory required for data: 773112864
I0403 15:05:10.053524 11636 layer_factory.hpp:77] Creating layer inception_3b/output
I0403 15:05:10.053541 11636 net.cpp:91] Creating Layer inception_3b/output
I0403 15:05:10.053557 11636 net.cpp:425] inception_3b/output <- inception_3b/1x1
I0403 15:05:10.053572 11636 net.cpp:425] inception_3b/output <- inception_3b/3x3
I0403 15:05:10.053588 11636 net.cpp:425] inception_3b/output <- inception_3b/5x5
I0403 15:05:10.053603 11636 net.cpp:425] inception_3b/output <- inception_3b/pool_proj
I0403 15:05:10.053619 11636 net.cpp:399] inception_3b/output -> inception_3b/output
I0403 15:05:10.053665 11636 net.cpp:141] Setting up inception_3b/output
I0403 15:05:10.053688 11636 net.cpp:148] Top shape: 24 480 28 28 (9031680)
I0403 15:05:10.053701 11636 net.cpp:156] Memory required for data: 809239584
I0403 15:05:10.053715 11636 layer_factory.hpp:77] Creating layer pool3/3x3_s2
I0403 15:05:10.053732 11636 net.cpp:91] Creating Layer pool3/3x3_s2
I0403 15:05:10.053750 11636 net.cpp:425] pool3/3x3_s2 <- inception_3b/output
I0403 15:05:10.053783 11636 net.cpp:399] pool3/3x3_s2 -> pool3/3x3_s2
I0403 15:05:10.053841 11636 net.cpp:141] Setting up pool3/3x3_s2
I0403 15:05:10.053865 11636 net.cpp:148] Top shape: 24 480 14 14 (2257920)
I0403 15:05:10.053879 11636 net.cpp:156] Memory required for data: 818271264
I0403 15:05:10.053894 11636 layer_factory.hpp:77] Creating layer pool3/3x3_s2_pool3/3x3_s2_0_split
I0403 15:05:10.053910 11636 net.cpp:91] Creating Layer pool3/3x3_s2_pool3/3x3_s2_0_split
I0403 15:05:10.053923 11636 net.cpp:425] pool3/3x3_s2_pool3/3x3_s2_0_split <- pool3/3x3_s2
I0403 15:05:10.053941 11636 net.cpp:399] pool3/3x3_s2_pool3/3x3_s2_0_split -> pool3/3x3_s2_pool3/3x3_s2_0_split_0
I0403 15:05:10.053962 11636 net.cpp:399] pool3/3x3_s2_pool3/3x3_s2_0_split -> pool3/3x3_s2_pool3/3x3_s2_0_split_1
I0403 15:05:10.053980 11636 net.cpp:399] pool3/3x3_s2_pool3/3x3_s2_0_split -> pool3/3x3_s2_pool3/3x3_s2_0_split_2
I0403 15:05:10.053999 11636 net.cpp:399] pool3/3x3_s2_pool3/3x3_s2_0_split -> pool3/3x3_s2_pool3/3x3_s2_0_split_3
I0403 15:05:10.054074 11636 net.cpp:141] Setting up pool3/3x3_s2_pool3/3x3_s2_0_split
I0403 15:05:10.054095 11636 net.cpp:148] Top shape: 24 480 14 14 (2257920)
I0403 15:05:10.054111 11636 net.cpp:148] Top shape: 24 480 14 14 (2257920)
I0403 15:05:10.054132 11636 net.cpp:148] Top shape: 24 480 14 14 (2257920)
I0403 15:05:10.054150 11636 net.cpp:148] Top shape: 24 480 14 14 (2257920)
I0403 15:05:10.054164 11636 net.cpp:156] Memory required for data: 854397984
I0403 15:05:10.054178 11636 layer_factory.hpp:77] Creating layer inception_4a/1x1
I0403 15:05:10.054201 11636 net.cpp:91] Creating Layer inception_4a/1x1
I0403 15:05:10.054217 11636 net.cpp:425] inception_4a/1x1 <- pool3/3x3_s2_pool3/3x3_s2_0_split_0
I0403 15:05:10.054235 11636 net.cpp:399] inception_4a/1x1 -> inception_4a/1x1
I0403 15:05:10.055745 11636 net.cpp:141] Setting up inception_4a/1x1
I0403 15:05:10.055775 11636 net.cpp:148] Top shape: 24 192 14 14 (903168)
I0403 15:05:10.055791 11636 net.cpp:156] Memory required for data: 858010656
I0403 15:05:10.055810 11636 layer_factory.hpp:77] Creating layer inception_4a/relu_1x1
I0403 15:05:10.055830 11636 net.cpp:91] Creating Layer inception_4a/relu_1x1
I0403 15:05:10.055846 11636 net.cpp:425] inception_4a/relu_1x1 <- inception_4a/1x1
I0403 15:05:10.055865 11636 net.cpp:386] inception_4a/relu_1x1 -> inception_4a/1x1 (in-place)
I0403 15:05:10.056033 11636 net.cpp:141] Setting up inception_4a/relu_1x1
I0403 15:05:10.056058 11636 net.cpp:148] Top shape: 24 192 14 14 (903168)
I0403 15:05:10.056073 11636 net.cpp:156] Memory required for data: 861623328
I0403 15:05:10.056087 11636 layer_factory.hpp:77] Creating layer inception_4a/3x3_reduce
I0403 15:05:10.056109 11636 net.cpp:91] Creating Layer inception_4a/3x3_reduce
I0403 15:05:10.056145 11636 net.cpp:425] inception_4a/3x3_reduce <- pool3/3x3_s2_pool3/3x3_s2_0_split_1
I0403 15:05:10.056171 11636 net.cpp:399] inception_4a/3x3_reduce -> inception_4a/3x3_reduce
I0403 15:05:10.057430 11636 net.cpp:141] Setting up inception_4a/3x3_reduce
I0403 15:05:10.057461 11636 net.cpp:148] Top shape: 24 96 14 14 (451584)
I0403 15:05:10.057478 11636 net.cpp:156] Memory required for data: 863429664
I0403 15:05:10.057502 11636 layer_factory.hpp:77] Creating layer inception_4a/relu_3x3_reduce
I0403 15:05:10.057523 11636 net.cpp:91] Creating Layer inception_4a/relu_3x3_reduce
I0403 15:05:10.057540 11636 net.cpp:425] inception_4a/relu_3x3_reduce <- inception_4a/3x3_reduce
I0403 15:05:10.057556 11636 net.cpp:386] inception_4a/relu_3x3_reduce -> inception_4a/3x3_reduce (in-place)
I0403 15:05:10.057730 11636 net.cpp:141] Setting up inception_4a/relu_3x3_reduce
I0403 15:05:10.057756 11636 net.cpp:148] Top shape: 24 96 14 14 (451584)
I0403 15:05:10.057772 11636 net.cpp:156] Memory required for data: 865236000
I0403 15:05:10.057787 11636 layer_factory.hpp:77] Creating layer inception_4a/3x3
I0403 15:05:10.057811 11636 net.cpp:91] Creating Layer inception_4a/3x3
I0403 15:05:10.057828 11636 net.cpp:425] inception_4a/3x3 <- inception_4a/3x3_reduce
I0403 15:05:10.057849 11636 net.cpp:399] inception_4a/3x3 -> inception_4a/3x3
I0403 15:05:10.060513 11636 net.cpp:141] Setting up inception_4a/3x3
I0403 15:05:10.060542 11636 net.cpp:148] Top shape: 24 208 14 14 (978432)
I0403 15:05:10.060559 11636 net.cpp:156] Memory required for data: 869149728
I0403 15:05:10.060576 11636 layer_factory.hpp:77] Creating layer inception_4a/relu_3x3
I0403 15:05:10.060595 11636 net.cpp:91] Creating Layer inception_4a/relu_3x3
I0403 15:05:10.060613 11636 net.cpp:425] inception_4a/relu_3x3 <- inception_4a/3x3
I0403 15:05:10.060631 11636 net.cpp:386] inception_4a/relu_3x3 -> inception_4a/3x3 (in-place)
I0403 15:05:10.060906 11636 net.cpp:141] Setting up inception_4a/relu_3x3
I0403 15:05:10.060933 11636 net.cpp:148] Top shape: 24 208 14 14 (978432)
I0403 15:05:10.060948 11636 net.cpp:156] Memory required for data: 873063456
I0403 15:05:10.060963 11636 layer_factory.hpp:77] Creating layer inception_4a/5x5_reduce
I0403 15:05:10.060986 11636 net.cpp:91] Creating Layer inception_4a/5x5_reduce
I0403 15:05:10.061004 11636 net.cpp:425] inception_4a/5x5_reduce <- pool3/3x3_s2_pool3/3x3_s2_0_split_2
I0403 15:05:10.061027 11636 net.cpp:399] inception_4a/5x5_reduce -> inception_4a/5x5_reduce
I0403 15:05:10.062036 11636 net.cpp:141] Setting up inception_4a/5x5_reduce
I0403 15:05:10.062063 11636 net.cpp:148] Top shape: 24 16 14 14 (75264)
I0403 15:05:10.062079 11636 net.cpp:156] Memory required for data: 873364512
I0403 15:05:10.062098 11636 layer_factory.hpp:77] Creating layer inception_4a/relu_5x5_reduce
I0403 15:05:10.062116 11636 net.cpp:91] Creating Layer inception_4a/relu_5x5_reduce
I0403 15:05:10.062149 11636 net.cpp:425] inception_4a/relu_5x5_reduce <- inception_4a/5x5_reduce
I0403 15:05:10.062170 11636 net.cpp:386] inception_4a/relu_5x5_reduce -> inception_4a/5x5_reduce (in-place)
I0403 15:05:10.062348 11636 net.cpp:141] Setting up inception_4a/relu_5x5_reduce
I0403 15:05:10.062372 11636 net.cpp:148] Top shape: 24 16 14 14 (75264)
I0403 15:05:10.062388 11636 net.cpp:156] Memory required for data: 873665568
I0403 15:05:10.062402 11636 layer_factory.hpp:77] Creating layer inception_4a/5x5
I0403 15:05:10.062425 11636 net.cpp:91] Creating Layer inception_4a/5x5
I0403 15:05:10.062443 11636 net.cpp:425] inception_4a/5x5 <- inception_4a/5x5_reduce
I0403 15:05:10.062461 11636 net.cpp:399] inception_4a/5x5 -> inception_4a/5x5
I0403 15:05:10.063534 11636 net.cpp:141] Setting up inception_4a/5x5
I0403 15:05:10.063561 11636 net.cpp:148] Top shape: 24 48 14 14 (225792)
I0403 15:05:10.063580 11636 net.cpp:156] Memory required for data: 874568736
I0403 15:05:10.063599 11636 layer_factory.hpp:77] Creating layer inception_4a/relu_5x5
I0403 15:05:10.063616 11636 net.cpp:91] Creating Layer inception_4a/relu_5x5
I0403 15:05:10.063633 11636 net.cpp:425] inception_4a/relu_5x5 <- inception_4a/5x5
I0403 15:05:10.063650 11636 net.cpp:386] inception_4a/relu_5x5 -> inception_4a/5x5 (in-place)
I0403 15:05:10.063827 11636 net.cpp:141] Setting up inception_4a/relu_5x5
I0403 15:05:10.063853 11636 net.cpp:148] Top shape: 24 48 14 14 (225792)
I0403 15:05:10.063868 11636 net.cpp:156] Memory required for data: 875471904
I0403 15:05:10.063884 11636 layer_factory.hpp:77] Creating layer inception_4a/pool
I0403 15:05:10.063900 11636 net.cpp:91] Creating Layer inception_4a/pool
I0403 15:05:10.063916 11636 net.cpp:425] inception_4a/pool <- pool3/3x3_s2_pool3/3x3_s2_0_split_3
I0403 15:05:10.063936 11636 net.cpp:399] inception_4a/pool -> inception_4a/pool
I0403 15:05:10.063997 11636 net.cpp:141] Setting up inception_4a/pool
I0403 15:05:10.064023 11636 net.cpp:148] Top shape: 24 480 14 14 (2257920)
I0403 15:05:10.064038 11636 net.cpp:156] Memory required for data: 884503584
I0403 15:05:10.064052 11636 layer_factory.hpp:77] Creating layer inception_4a/pool_proj
I0403 15:05:10.064074 11636 net.cpp:91] Creating Layer inception_4a/pool_proj
I0403 15:05:10.064090 11636 net.cpp:425] inception_4a/pool_proj <- inception_4a/pool
I0403 15:05:10.064110 11636 net.cpp:399] inception_4a/pool_proj -> inception_4a/pool_proj
I0403 15:05:10.065274 11636 net.cpp:141] Setting up inception_4a/pool_proj
I0403 15:05:10.065306 11636 net.cpp:148] Top shape: 24 64 14 14 (301056)
I0403 15:05:10.065337 11636 net.cpp:156] Memory required for data: 885707808
I0403 15:05:10.065357 11636 layer_factory.hpp:77] Creating layer inception_4a/relu_pool_proj
I0403 15:05:10.065374 11636 net.cpp:91] Creating Layer inception_4a/relu_pool_proj
I0403 15:05:10.065390 11636 net.cpp:425] inception_4a/relu_pool_proj <- inception_4a/pool_proj
I0403 15:05:10.065407 11636 net.cpp:386] inception_4a/relu_pool_proj -> inception_4a/pool_proj (in-place)
I0403 15:05:10.065692 11636 net.cpp:141] Setting up inception_4a/relu_pool_proj
I0403 15:05:10.065722 11636 net.cpp:148] Top shape: 24 64 14 14 (301056)
I0403 15:05:10.065738 11636 net.cpp:156] Memory required for data: 886912032
I0403 15:05:10.065752 11636 layer_factory.hpp:77] Creating layer inception_4a/output
I0403 15:05:10.065769 11636 net.cpp:91] Creating Layer inception_4a/output
I0403 15:05:10.065785 11636 net.cpp:425] inception_4a/output <- inception_4a/1x1
I0403 15:05:10.065801 11636 net.cpp:425] inception_4a/output <- inception_4a/3x3
I0403 15:05:10.065817 11636 net.cpp:425] inception_4a/output <- inception_4a/5x5
I0403 15:05:10.065834 11636 net.cpp:425] inception_4a/output <- inception_4a/pool_proj
I0403 15:05:10.065850 11636 net.cpp:399] inception_4a/output -> inception_4a/output
I0403 15:05:10.065896 11636 net.cpp:141] Setting up inception_4a/output
I0403 15:05:10.065919 11636 net.cpp:148] Top shape: 24 512 14 14 (2408448)
I0403 15:05:10.065933 11636 net.cpp:156] Memory required for data: 896545824
I0403 15:05:10.065948 11636 layer_factory.hpp:77] Creating layer inception_4a/output_inception_4a/output_0_split
I0403 15:05:10.065968 11636 net.cpp:91] Creating Layer inception_4a/output_inception_4a/output_0_split
I0403 15:05:10.065984 11636 net.cpp:425] inception_4a/output_inception_4a/output_0_split <- inception_4a/output
I0403 15:05:10.066001 11636 net.cpp:399] inception_4a/output_inception_4a/output_0_split -> inception_4a/output_inception_4a/output_0_split_0
I0403 15:05:10.066021 11636 net.cpp:399] inception_4a/output_inception_4a/output_0_split -> inception_4a/output_inception_4a/output_0_split_1
I0403 15:05:10.066042 11636 net.cpp:399] inception_4a/output_inception_4a/output_0_split -> inception_4a/output_inception_4a/output_0_split_2
I0403 15:05:10.066064 11636 net.cpp:399] inception_4a/output_inception_4a/output_0_split -> inception_4a/output_inception_4a/output_0_split_3
I0403 15:05:10.066085 11636 net.cpp:399] inception_4a/output_inception_4a/output_0_split -> inception_4a/output_inception_4a/output_0_split_4
I0403 15:05:10.066185 11636 net.cpp:141] Setting up inception_4a/output_inception_4a/output_0_split
I0403 15:05:10.066210 11636 net.cpp:148] Top shape: 24 512 14 14 (2408448)
I0403 15:05:10.066226 11636 net.cpp:148] Top shape: 24 512 14 14 (2408448)
I0403 15:05:10.066241 11636 net.cpp:148] Top shape: 24 512 14 14 (2408448)
I0403 15:05:10.066257 11636 net.cpp:148] Top shape: 24 512 14 14 (2408448)
I0403 15:05:10.066272 11636 net.cpp:148] Top shape: 24 512 14 14 (2408448)
I0403 15:05:10.066285 11636 net.cpp:156] Memory required for data: 944714784
I0403 15:05:10.066300 11636 layer_factory.hpp:77] Creating layer loss1/ave_pool
I0403 15:05:10.066320 11636 net.cpp:91] Creating Layer loss1/ave_pool
I0403 15:05:10.066337 11636 net.cpp:425] loss1/ave_pool <- inception_4a/output_inception_4a/output_0_split_0
I0403 15:05:10.066355 11636 net.cpp:399] loss1/ave_pool -> loss1/ave_pool
I0403 15:05:10.066557 11636 net.cpp:141] Setting up loss1/ave_pool
I0403 15:05:10.066586 11636 net.cpp:148] Top shape: 24 512 4 4 (196608)
I0403 15:05:10.066602 11636 net.cpp:156] Memory required for data: 945501216
I0403 15:05:10.066617 11636 layer_factory.hpp:77] Creating layer loss1/conv
I0403 15:05:10.066639 11636 net.cpp:91] Creating Layer loss1/conv
I0403 15:05:10.066656 11636 net.cpp:425] loss1/conv <- loss1/ave_pool
I0403 15:05:10.066675 11636 net.cpp:399] loss1/conv -> loss1/conv
I0403 15:05:10.068078 11636 net.cpp:141] Setting up loss1/conv
I0403 15:05:10.068107 11636 net.cpp:148] Top shape: 24 128 4 4 (49152)
I0403 15:05:10.068145 11636 net.cpp:156] Memory required for data: 945697824
I0403 15:05:10.068164 11636 layer_factory.hpp:77] Creating layer loss1/relu_conv
I0403 15:05:10.068186 11636 net.cpp:91] Creating Layer loss1/relu_conv
I0403 15:05:10.068202 11636 net.cpp:425] loss1/relu_conv <- loss1/conv
I0403 15:05:10.068220 11636 net.cpp:386] loss1/relu_conv -> loss1/conv (in-place)
I0403 15:05:10.068501 11636 net.cpp:141] Setting up loss1/relu_conv
I0403 15:05:10.068528 11636 net.cpp:148] Top shape: 24 128 4 4 (49152)
I0403 15:05:10.068544 11636 net.cpp:156] Memory required for data: 945894432
I0403 15:05:10.068558 11636 layer_factory.hpp:77] Creating layer loss1/fc
I0403 15:05:10.068583 11636 net.cpp:91] Creating Layer loss1/fc
I0403 15:05:10.068603 11636 net.cpp:425] loss1/fc <- loss1/conv
I0403 15:05:10.068621 11636 net.cpp:399] loss1/fc -> loss1/fc
I0403 15:05:10.085970 11636 net.cpp:141] Setting up loss1/fc
I0403 15:05:10.086005 11636 net.cpp:148] Top shape: 24 1024 (24576)
I0403 15:05:10.086021 11636 net.cpp:156] Memory required for data: 945992736
I0403 15:05:10.086038 11636 layer_factory.hpp:77] Creating layer loss1/relu_fc
I0403 15:05:10.086058 11636 net.cpp:91] Creating Layer loss1/relu_fc
I0403 15:05:10.086076 11636 net.cpp:425] loss1/relu_fc <- loss1/fc
I0403 15:05:10.086093 11636 net.cpp:386] loss1/relu_fc -> loss1/fc (in-place)
I0403 15:05:10.086278 11636 net.cpp:141] Setting up loss1/relu_fc
I0403 15:05:10.086303 11636 net.cpp:148] Top shape: 24 1024 (24576)
I0403 15:05:10.086318 11636 net.cpp:156] Memory required for data: 946091040
I0403 15:05:10.086333 11636 layer_factory.hpp:77] Creating layer loss1/drop_fc
I0403 15:05:10.086357 11636 net.cpp:91] Creating Layer loss1/drop_fc
I0403 15:05:10.086374 11636 net.cpp:425] loss1/drop_fc <- loss1/fc
I0403 15:05:10.086392 11636 net.cpp:386] loss1/drop_fc -> loss1/fc (in-place)
I0403 15:05:10.086441 11636 net.cpp:141] Setting up loss1/drop_fc
I0403 15:05:10.086463 11636 net.cpp:148] Top shape: 24 1024 (24576)
I0403 15:05:10.086477 11636 net.cpp:156] Memory required for data: 946189344
I0403 15:05:10.086491 11636 layer_factory.hpp:77] Creating layer loss1/classifier_plantvillage
I0403 15:05:10.086513 11636 net.cpp:91] Creating Layer loss1/classifier_plantvillage
I0403 15:05:10.086529 11636 net.cpp:425] loss1/classifier_plantvillage <- loss1/fc
I0403 15:05:10.086549 11636 net.cpp:399] loss1/classifier_plantvillage -> loss1/classifier_plantvillage
I0403 15:05:10.087404 11636 net.cpp:141] Setting up loss1/classifier_plantvillage
I0403 15:05:10.087432 11636 net.cpp:148] Top shape: 24 38 (912)
I0403 15:05:10.087447 11636 net.cpp:156] Memory required for data: 946192992
I0403 15:05:10.087465 11636 layer_factory.hpp:77] Creating layer loss1/classifier_plantvillage_loss1/classifier_plantvillage_0_split
I0403 15:05:10.087481 11636 net.cpp:91] Creating Layer loss1/classifier_plantvillage_loss1/classifier_plantvillage_0_split
I0403 15:05:10.087496 11636 net.cpp:425] loss1/classifier_plantvillage_loss1/classifier_plantvillage_0_split <- loss1/classifier_plantvillage
I0403 15:05:10.087513 11636 net.cpp:399] loss1/classifier_plantvillage_loss1/classifier_plantvillage_0_split -> loss1/classifier_plantvillage_loss1/classifier_plantvillage_0_split_0
I0403 15:05:10.087534 11636 net.cpp:399] loss1/classifier_plantvillage_loss1/classifier_plantvillage_0_split -> loss1/classifier_plantvillage_loss1/classifier_plantvillage_0_split_1
I0403 15:05:10.087553 11636 net.cpp:399] loss1/classifier_plantvillage_loss1/classifier_plantvillage_0_split -> loss1/classifier_plantvillage_loss1/classifier_plantvillage_0_split_2
I0403 15:05:10.087615 11636 net.cpp:141] Setting up loss1/classifier_plantvillage_loss1/classifier_plantvillage_0_split
I0403 15:05:10.087637 11636 net.cpp:148] Top shape: 24 38 (912)
I0403 15:05:10.087651 11636 net.cpp:148] Top shape: 24 38 (912)
I0403 15:05:10.087666 11636 net.cpp:148] Top shape: 24 38 (912)
I0403 15:05:10.087678 11636 net.cpp:156] Memory required for data: 946203936
I0403 15:05:10.087692 11636 layer_factory.hpp:77] Creating layer inception_4b/1x1
I0403 15:05:10.087714 11636 net.cpp:91] Creating Layer inception_4b/1x1
I0403 15:05:10.087744 11636 net.cpp:425] inception_4b/1x1 <- inception_4a/output_inception_4a/output_0_split_1
I0403 15:05:10.087764 11636 net.cpp:399] inception_4b/1x1 -> inception_4b/1x1
I0403 15:05:10.089308 11636 net.cpp:141] Setting up inception_4b/1x1
I0403 15:05:10.089336 11636 net.cpp:148] Top shape: 24 160 14 14 (752640)
I0403 15:05:10.089351 11636 net.cpp:156] Memory required for data: 949214496
I0403 15:05:10.089368 11636 layer_factory.hpp:77] Creating layer inception_4b/relu_1x1
I0403 15:05:10.089387 11636 net.cpp:91] Creating Layer inception_4b/relu_1x1
I0403 15:05:10.089403 11636 net.cpp:425] inception_4b/relu_1x1 <- inception_4b/1x1
I0403 15:05:10.089421 11636 net.cpp:386] inception_4b/relu_1x1 -> inception_4b/1x1 (in-place)
I0403 15:05:10.089587 11636 net.cpp:141] Setting up inception_4b/relu_1x1
I0403 15:05:10.089612 11636 net.cpp:148] Top shape: 24 160 14 14 (752640)
I0403 15:05:10.089627 11636 net.cpp:156] Memory required for data: 952225056
I0403 15:05:10.089642 11636 layer_factory.hpp:77] Creating layer inception_4b/3x3_reduce
I0403 15:05:10.089663 11636 net.cpp:91] Creating Layer inception_4b/3x3_reduce
I0403 15:05:10.089681 11636 net.cpp:425] inception_4b/3x3_reduce <- inception_4a/output_inception_4a/output_0_split_2
I0403 15:05:10.089699 11636 net.cpp:399] inception_4b/3x3_reduce -> inception_4b/3x3_reduce
I0403 15:05:10.091033 11636 net.cpp:141] Setting up inception_4b/3x3_reduce
I0403 15:05:10.091060 11636 net.cpp:148] Top shape: 24 112 14 14 (526848)
I0403 15:05:10.091076 11636 net.cpp:156] Memory required for data: 954332448
I0403 15:05:10.091094 11636 layer_factory.hpp:77] Creating layer inception_4b/relu_3x3_reduce
I0403 15:05:10.091111 11636 net.cpp:91] Creating Layer inception_4b/relu_3x3_reduce
I0403 15:05:10.091130 11636 net.cpp:425] inception_4b/relu_3x3_reduce <- inception_4b/3x3_reduce
I0403 15:05:10.091148 11636 net.cpp:386] inception_4b/relu_3x3_reduce -> inception_4b/3x3_reduce (in-place)
I0403 15:05:10.091416 11636 net.cpp:141] Setting up inception_4b/relu_3x3_reduce
I0403 15:05:10.091442 11636 net.cpp:148] Top shape: 24 112 14 14 (526848)
I0403 15:05:10.091457 11636 net.cpp:156] Memory required for data: 956439840
I0403 15:05:10.091470 11636 layer_factory.hpp:77] Creating layer inception_4b/3x3
I0403 15:05:10.091492 11636 net.cpp:91] Creating Layer inception_4b/3x3
I0403 15:05:10.091511 11636 net.cpp:425] inception_4b/3x3 <- inception_4b/3x3_reduce
I0403 15:05:10.091531 11636 net.cpp:399] inception_4b/3x3 -> inception_4b/3x3
I0403 15:05:10.094341 11636 net.cpp:141] Setting up inception_4b/3x3
I0403 15:05:10.094372 11636 net.cpp:148] Top shape: 24 224 14 14 (1053696)
I0403 15:05:10.094388 11636 net.cpp:156] Memory required for data: 960654624
I0403 15:05:10.094408 11636 layer_factory.hpp:77] Creating layer inception_4b/relu_3x3
I0403 15:05:10.094424 11636 net.cpp:91] Creating Layer inception_4b/relu_3x3
I0403 15:05:10.094440 11636 net.cpp:425] inception_4b/relu_3x3 <- inception_4b/3x3
I0403 15:05:10.094460 11636 net.cpp:386] inception_4b/relu_3x3 -> inception_4b/3x3 (in-place)
I0403 15:05:10.094629 11636 net.cpp:141] Setting up inception_4b/relu_3x3
I0403 15:05:10.094653 11636 net.cpp:148] Top shape: 24 224 14 14 (1053696)
I0403 15:05:10.094667 11636 net.cpp:156] Memory required for data: 964869408
I0403 15:05:10.094681 11636 layer_factory.hpp:77] Creating layer inception_4b/5x5_reduce
I0403 15:05:10.094703 11636 net.cpp:91] Creating Layer inception_4b/5x5_reduce
I0403 15:05:10.094720 11636 net.cpp:425] inception_4b/5x5_reduce <- inception_4a/output_inception_4a/output_0_split_3
I0403 15:05:10.094741 11636 net.cpp:399] inception_4b/5x5_reduce -> inception_4b/5x5_reduce
I0403 15:05:10.095774 11636 net.cpp:141] Setting up inception_4b/5x5_reduce
I0403 15:05:10.095801 11636 net.cpp:148] Top shape: 24 24 14 14 (112896)
I0403 15:05:10.095816 11636 net.cpp:156] Memory required for data: 965320992
I0403 15:05:10.095834 11636 layer_factory.hpp:77] Creating layer inception_4b/relu_5x5_reduce
I0403 15:05:10.095857 11636 net.cpp:91] Creating Layer inception_4b/relu_5x5_reduce
I0403 15:05:10.095887 11636 net.cpp:425] inception_4b/relu_5x5_reduce <- inception_4b/5x5_reduce
I0403 15:05:10.095906 11636 net.cpp:386] inception_4b/relu_5x5_reduce -> inception_4b/5x5_reduce (in-place)
I0403 15:05:10.096077 11636 net.cpp:141] Setting up inception_4b/relu_5x5_reduce
I0403 15:05:10.096104 11636 net.cpp:148] Top shape: 24 24 14 14 (112896)
I0403 15:05:10.096119 11636 net.cpp:156] Memory required for data: 965772576
I0403 15:05:10.096139 11636 layer_factory.hpp:77] Creating layer inception_4b/5x5
I0403 15:05:10.096161 11636 net.cpp:91] Creating Layer inception_4b/5x5
I0403 15:05:10.096179 11636 net.cpp:425] inception_4b/5x5 <- inception_4b/5x5_reduce
I0403 15:05:10.096197 11636 net.cpp:399] inception_4b/5x5 -> inception_4b/5x5
I0403 15:05:10.097362 11636 net.cpp:141] Setting up inception_4b/5x5
I0403 15:05:10.097390 11636 net.cpp:148] Top shape: 24 64 14 14 (301056)
I0403 15:05:10.097405 11636 net.cpp:156] Memory required for data: 966976800
I0403 15:05:10.097422 11636 layer_factory.hpp:77] Creating layer inception_4b/relu_5x5
I0403 15:05:10.097440 11636 net.cpp:91] Creating Layer inception_4b/relu_5x5
I0403 15:05:10.097457 11636 net.cpp:425] inception_4b/relu_5x5 <- inception_4b/5x5
I0403 15:05:10.097475 11636 net.cpp:386] inception_4b/relu_5x5 -> inception_4b/5x5 (in-place)
I0403 15:05:10.097749 11636 net.cpp:141] Setting up inception_4b/relu_5x5
I0403 15:05:10.097775 11636 net.cpp:148] Top shape: 24 64 14 14 (301056)
I0403 15:05:10.097790 11636 net.cpp:156] Memory required for data: 968181024
I0403 15:05:10.097803 11636 layer_factory.hpp:77] Creating layer inception_4b/pool
I0403 15:05:10.097820 11636 net.cpp:91] Creating Layer inception_4b/pool
I0403 15:05:10.097837 11636 net.cpp:425] inception_4b/pool <- inception_4a/output_inception_4a/output_0_split_4
I0403 15:05:10.097854 11636 net.cpp:399] inception_4b/pool -> inception_4b/pool
I0403 15:05:10.097915 11636 net.cpp:141] Setting up inception_4b/pool
I0403 15:05:10.097939 11636 net.cpp:148] Top shape: 24 512 14 14 (2408448)
I0403 15:05:10.097951 11636 net.cpp:156] Memory required for data: 977814816
I0403 15:05:10.097965 11636 layer_factory.hpp:77] Creating layer inception_4b/pool_proj
I0403 15:05:10.097987 11636 net.cpp:91] Creating Layer inception_4b/pool_proj
I0403 15:05:10.098004 11636 net.cpp:425] inception_4b/pool_proj <- inception_4b/pool
I0403 15:05:10.098023 11636 net.cpp:399] inception_4b/pool_proj -> inception_4b/pool_proj
I0403 15:05:10.099164 11636 net.cpp:141] Setting up inception_4b/pool_proj
I0403 15:05:10.099191 11636 net.cpp:148] Top shape: 24 64 14 14 (301056)
I0403 15:05:10.099206 11636 net.cpp:156] Memory required for data: 979019040
I0403 15:05:10.099225 11636 layer_factory.hpp:77] Creating layer inception_4b/relu_pool_proj
I0403 15:05:10.099244 11636 net.cpp:91] Creating Layer inception_4b/relu_pool_proj
I0403 15:05:10.099261 11636 net.cpp:425] inception_4b/relu_pool_proj <- inception_4b/pool_proj
I0403 15:05:10.099277 11636 net.cpp:386] inception_4b/relu_pool_proj -> inception_4b/pool_proj (in-place)
I0403 15:05:10.099452 11636 net.cpp:141] Setting up inception_4b/relu_pool_proj
I0403 15:05:10.099477 11636 net.cpp:148] Top shape: 24 64 14 14 (301056)
I0403 15:05:10.099490 11636 net.cpp:156] Memory required for data: 980223264
I0403 15:05:10.099505 11636 layer_factory.hpp:77] Creating layer inception_4b/output
I0403 15:05:10.099522 11636 net.cpp:91] Creating Layer inception_4b/output
I0403 15:05:10.099539 11636 net.cpp:425] inception_4b/output <- inception_4b/1x1
I0403 15:05:10.099555 11636 net.cpp:425] inception_4b/output <- inception_4b/3x3
I0403 15:05:10.099570 11636 net.cpp:425] inception_4b/output <- inception_4b/5x5
I0403 15:05:10.099586 11636 net.cpp:425] inception_4b/output <- inception_4b/pool_proj
I0403 15:05:10.099601 11636 net.cpp:399] inception_4b/output -> inception_4b/output
I0403 15:05:10.099645 11636 net.cpp:141] Setting up inception_4b/output
I0403 15:05:10.099668 11636 net.cpp:148] Top shape: 24 512 14 14 (2408448)
I0403 15:05:10.099681 11636 net.cpp:156] Memory required for data: 989857056
I0403 15:05:10.099709 11636 layer_factory.hpp:77] Creating layer inception_4b/output_inception_4b/output_0_split
I0403 15:05:10.099726 11636 net.cpp:91] Creating Layer inception_4b/output_inception_4b/output_0_split
I0403 15:05:10.099742 11636 net.cpp:425] inception_4b/output_inception_4b/output_0_split <- inception_4b/output
I0403 15:05:10.099761 11636 net.cpp:399] inception_4b/output_inception_4b/output_0_split -> inception_4b/output_inception_4b/output_0_split_0
I0403 15:05:10.099781 11636 net.cpp:399] inception_4b/output_inception_4b/output_0_split -> inception_4b/output_inception_4b/output_0_split_1
I0403 15:05:10.099800 11636 net.cpp:399] inception_4b/output_inception_4b/output_0_split -> inception_4b/output_inception_4b/output_0_split_2
I0403 15:05:10.099818 11636 net.cpp:399] inception_4b/output_inception_4b/output_0_split -> inception_4b/output_inception_4b/output_0_split_3
I0403 15:05:10.099901 11636 net.cpp:141] Setting up inception_4b/output_inception_4b/output_0_split
I0403 15:05:10.099923 11636 net.cpp:148] Top shape: 24 512 14 14 (2408448)
I0403 15:05:10.099938 11636 net.cpp:148] Top shape: 24 512 14 14 (2408448)
I0403 15:05:10.099952 11636 net.cpp:148] Top shape: 24 512 14 14 (2408448)
I0403 15:05:10.099967 11636 net.cpp:148] Top shape: 24 512 14 14 (2408448)
I0403 15:05:10.099979 11636 net.cpp:156] Memory required for data: 1028392224
I0403 15:05:10.099993 11636 layer_factory.hpp:77] Creating layer inception_4c/1x1
I0403 15:05:10.100013 11636 net.cpp:91] Creating Layer inception_4c/1x1
I0403 15:05:10.100030 11636 net.cpp:425] inception_4c/1x1 <- inception_4b/output_inception_4b/output_0_split_0
I0403 15:05:10.100049 11636 net.cpp:399] inception_4c/1x1 -> inception_4c/1x1
I0403 15:05:10.101399 11636 net.cpp:141] Setting up inception_4c/1x1
I0403 15:05:10.101430 11636 net.cpp:148] Top shape: 24 128 14 14 (602112)
I0403 15:05:10.101446 11636 net.cpp:156] Memory required for data: 1030800672
I0403 15:05:10.101464 11636 layer_factory.hpp:77] Creating layer inception_4c/relu_1x1
I0403 15:05:10.101480 11636 net.cpp:91] Creating Layer inception_4c/relu_1x1
I0403 15:05:10.101495 11636 net.cpp:425] inception_4c/relu_1x1 <- inception_4c/1x1
I0403 15:05:10.101512 11636 net.cpp:386] inception_4c/relu_1x1 -> inception_4c/1x1 (in-place)
I0403 15:05:10.101683 11636 net.cpp:141] Setting up inception_4c/relu_1x1
I0403 15:05:10.101708 11636 net.cpp:148] Top shape: 24 128 14 14 (602112)
I0403 15:05:10.101722 11636 net.cpp:156] Memory required for data: 1033209120
I0403 15:05:10.101737 11636 layer_factory.hpp:77] Creating layer inception_4c/3x3_reduce
I0403 15:05:10.101758 11636 net.cpp:91] Creating Layer inception_4c/3x3_reduce
I0403 15:05:10.101774 11636 net.cpp:425] inception_4c/3x3_reduce <- inception_4b/output_inception_4b/output_0_split_1
I0403 15:05:10.101794 11636 net.cpp:399] inception_4c/3x3_reduce -> inception_4c/3x3_reduce
I0403 15:05:10.103636 11636 net.cpp:141] Setting up inception_4c/3x3_reduce
I0403 15:05:10.103663 11636 net.cpp:148] Top shape: 24 128 14 14 (602112)
I0403 15:05:10.103678 11636 net.cpp:156] Memory required for data: 1035617568
I0403 15:05:10.103696 11636 layer_factory.hpp:77] Creating layer inception_4c/relu_3x3_reduce
I0403 15:05:10.103714 11636 net.cpp:91] Creating Layer inception_4c/relu_3x3_reduce
I0403 15:05:10.103729 11636 net.cpp:425] inception_4c/relu_3x3_reduce <- inception_4c/3x3_reduce
I0403 15:05:10.103747 11636 net.cpp:386] inception_4c/relu_3x3_reduce -> inception_4c/3x3_reduce (in-place)
I0403 15:05:10.104017 11636 net.cpp:141] Setting up inception_4c/relu_3x3_reduce
I0403 15:05:10.104043 11636 net.cpp:148] Top shape: 24 128 14 14 (602112)
I0403 15:05:10.104058 11636 net.cpp:156] Memory required for data: 1038026016
I0403 15:05:10.104073 11636 layer_factory.hpp:77] Creating layer inception_4c/3x3
I0403 15:05:10.104094 11636 net.cpp:91] Creating Layer inception_4c/3x3
I0403 15:05:10.104112 11636 net.cpp:425] inception_4c/3x3 <- inception_4c/3x3_reduce
I0403 15:05:10.104136 11636 net.cpp:399] inception_4c/3x3 -> inception_4c/3x3
I0403 15:05:10.107641 11636 net.cpp:141] Setting up inception_4c/3x3
I0403 15:05:10.107682 11636 net.cpp:148] Top shape: 24 256 14 14 (1204224)
I0403 15:05:10.107699 11636 net.cpp:156] Memory required for data: 1042842912
I0403 15:05:10.107729 11636 layer_factory.hpp:77] Creating layer inception_4c/relu_3x3
I0403 15:05:10.107753 11636 net.cpp:91] Creating Layer inception_4c/relu_3x3
I0403 15:05:10.107769 11636 net.cpp:425] inception_4c/relu_3x3 <- inception_4c/3x3
I0403 15:05:10.107785 11636 net.cpp:386] inception_4c/relu_3x3 -> inception_4c/3x3 (in-place)
I0403 15:05:10.107961 11636 net.cpp:141] Setting up inception_4c/relu_3x3
I0403 15:05:10.107986 11636 net.cpp:148] Top shape: 24 256 14 14 (1204224)
I0403 15:05:10.108000 11636 net.cpp:156] Memory required for data: 1047659808
I0403 15:05:10.108014 11636 layer_factory.hpp:77] Creating layer inception_4c/5x5_reduce
I0403 15:05:10.108036 11636 net.cpp:91] Creating Layer inception_4c/5x5_reduce
I0403 15:05:10.108053 11636 net.cpp:425] inception_4c/5x5_reduce <- inception_4b/output_inception_4b/output_0_split_2
I0403 15:05:10.108075 11636 net.cpp:399] inception_4c/5x5_reduce -> inception_4c/5x5_reduce
I0403 15:05:10.109135 11636 net.cpp:141] Setting up inception_4c/5x5_reduce
I0403 15:05:10.109163 11636 net.cpp:148] Top shape: 24 24 14 14 (112896)
I0403 15:05:10.109179 11636 net.cpp:156] Memory required for data: 1048111392
I0403 15:05:10.109195 11636 layer_factory.hpp:77] Creating layer inception_4c/relu_5x5_reduce
I0403 15:05:10.109215 11636 net.cpp:91] Creating Layer inception_4c/relu_5x5_reduce
I0403 15:05:10.109233 11636 net.cpp:425] inception_4c/relu_5x5_reduce <- inception_4c/5x5_reduce
I0403 15:05:10.109251 11636 net.cpp:386] inception_4c/relu_5x5_reduce -> inception_4c/5x5_reduce (in-place)
I0403 15:05:10.109431 11636 net.cpp:141] Setting up inception_4c/relu_5x5_reduce
I0403 15:05:10.109457 11636 net.cpp:148] Top shape: 24 24 14 14 (112896)
I0403 15:05:10.109472 11636 net.cpp:156] Memory required for data: 1048562976
I0403 15:05:10.109488 11636 layer_factory.hpp:77] Creating layer inception_4c/5x5
I0403 15:05:10.109508 11636 net.cpp:91] Creating Layer inception_4c/5x5
I0403 15:05:10.109524 11636 net.cpp:425] inception_4c/5x5 <- inception_4c/5x5_reduce
I0403 15:05:10.109544 11636 net.cpp:399] inception_4c/5x5 -> inception_4c/5x5
I0403 15:05:10.110760 11636 net.cpp:141] Setting up inception_4c/5x5
I0403 15:05:10.110788 11636 net.cpp:148] Top shape: 24 64 14 14 (301056)
I0403 15:05:10.110803 11636 net.cpp:156] Memory required for data: 1049767200
I0403 15:05:10.110821 11636 layer_factory.hpp:77] Creating layer inception_4c/relu_5x5
I0403 15:05:10.110841 11636 net.cpp:91] Creating Layer inception_4c/relu_5x5
I0403 15:05:10.110857 11636 net.cpp:425] inception_4c/relu_5x5 <- inception_4c/5x5
I0403 15:05:10.110873 11636 net.cpp:386] inception_4c/relu_5x5 -> inception_4c/5x5 (in-place)
I0403 15:05:10.111160 11636 net.cpp:141] Setting up inception_4c/relu_5x5
I0403 15:05:10.111186 11636 net.cpp:148] Top shape: 24 64 14 14 (301056)
I0403 15:05:10.111202 11636 net.cpp:156] Memory required for data: 1050971424
I0403 15:05:10.111217 11636 layer_factory.hpp:77] Creating layer inception_4c/pool
I0403 15:05:10.111235 11636 net.cpp:91] Creating Layer inception_4c/pool
I0403 15:05:10.111251 11636 net.cpp:425] inception_4c/pool <- inception_4b/output_inception_4b/output_0_split_3
I0403 15:05:10.111269 11636 net.cpp:399] inception_4c/pool -> inception_4c/pool
I0403 15:05:10.111335 11636 net.cpp:141] Setting up inception_4c/pool
I0403 15:05:10.111359 11636 net.cpp:148] Top shape: 24 512 14 14 (2408448)
I0403 15:05:10.111373 11636 net.cpp:156] Memory required for data: 1060605216
I0403 15:05:10.111387 11636 layer_factory.hpp:77] Creating layer inception_4c/pool_proj
I0403 15:05:10.111408 11636 net.cpp:91] Creating Layer inception_4c/pool_proj
I0403 15:05:10.111428 11636 net.cpp:425] inception_4c/pool_proj <- inception_4c/pool
I0403 15:05:10.111446 11636 net.cpp:399] inception_4c/pool_proj -> inception_4c/pool_proj
I0403 15:05:10.112639 11636 net.cpp:141] Setting up inception_4c/pool_proj
I0403 15:05:10.112668 11636 net.cpp:148] Top shape: 24 64 14 14 (301056)
I0403 15:05:10.112697 11636 net.cpp:156] Memory required for data: 1061809440
I0403 15:05:10.112716 11636 layer_factory.hpp:77] Creating layer inception_4c/relu_pool_proj
I0403 15:05:10.112737 11636 net.cpp:91] Creating Layer inception_4c/relu_pool_proj
I0403 15:05:10.112754 11636 net.cpp:425] inception_4c/relu_pool_proj <- inception_4c/pool_proj
I0403 15:05:10.112771 11636 net.cpp:386] inception_4c/relu_pool_proj -> inception_4c/pool_proj (in-place)
I0403 15:05:10.112951 11636 net.cpp:141] Setting up inception_4c/relu_pool_proj
I0403 15:05:10.112977 11636 net.cpp:148] Top shape: 24 64 14 14 (301056)
I0403 15:05:10.112992 11636 net.cpp:156] Memory required for data: 1063013664
I0403 15:05:10.113005 11636 layer_factory.hpp:77] Creating layer inception_4c/output
I0403 15:05:10.113024 11636 net.cpp:91] Creating Layer inception_4c/output
I0403 15:05:10.113040 11636 net.cpp:425] inception_4c/output <- inception_4c/1x1
I0403 15:05:10.113056 11636 net.cpp:425] inception_4c/output <- inception_4c/3x3
I0403 15:05:10.113072 11636 net.cpp:425] inception_4c/output <- inception_4c/5x5
I0403 15:05:10.113087 11636 net.cpp:425] inception_4c/output <- inception_4c/pool_proj
I0403 15:05:10.113103 11636 net.cpp:399] inception_4c/output -> inception_4c/output
I0403 15:05:10.113160 11636 net.cpp:141] Setting up inception_4c/output
I0403 15:05:10.113184 11636 net.cpp:148] Top shape: 24 512 14 14 (2408448)
I0403 15:05:10.113198 11636 net.cpp:156] Memory required for data: 1072647456
I0403 15:05:10.113214 11636 layer_factory.hpp:77] Creating layer inception_4c/output_inception_4c/output_0_split
I0403 15:05:10.113230 11636 net.cpp:91] Creating Layer inception_4c/output_inception_4c/output_0_split
I0403 15:05:10.113245 11636 net.cpp:425] inception_4c/output_inception_4c/output_0_split <- inception_4c/output
I0403 15:05:10.113263 11636 net.cpp:399] inception_4c/output_inception_4c/output_0_split -> inception_4c/output_inception_4c/output_0_split_0
I0403 15:05:10.113284 11636 net.cpp:399] inception_4c/output_inception_4c/output_0_split -> inception_4c/output_inception_4c/output_0_split_1
I0403 15:05:10.113303 11636 net.cpp:399] inception_4c/output_inception_4c/output_0_split -> inception_4c/output_inception_4c/output_0_split_2
I0403 15:05:10.113323 11636 net.cpp:399] inception_4c/output_inception_4c/output_0_split -> inception_4c/output_inception_4c/output_0_split_3
I0403 15:05:10.113410 11636 net.cpp:141] Setting up inception_4c/output_inception_4c/output_0_split
I0403 15:05:10.113433 11636 net.cpp:148] Top shape: 24 512 14 14 (2408448)
I0403 15:05:10.113450 11636 net.cpp:148] Top shape: 24 512 14 14 (2408448)
I0403 15:05:10.113463 11636 net.cpp:148] Top shape: 24 512 14 14 (2408448)
I0403 15:05:10.113478 11636 net.cpp:148] Top shape: 24 512 14 14 (2408448)
I0403 15:05:10.113492 11636 net.cpp:156] Memory required for data: 1111182624
I0403 15:05:10.113505 11636 layer_factory.hpp:77] Creating layer inception_4d/1x1
I0403 15:05:10.113528 11636 net.cpp:91] Creating Layer inception_4d/1x1
I0403 15:05:10.113545 11636 net.cpp:425] inception_4d/1x1 <- inception_4c/output_inception_4c/output_0_split_0
I0403 15:05:10.113565 11636 net.cpp:399] inception_4d/1x1 -> inception_4d/1x1
I0403 15:05:10.114902 11636 net.cpp:141] Setting up inception_4d/1x1
I0403 15:05:10.114933 11636 net.cpp:148] Top shape: 24 112 14 14 (526848)
I0403 15:05:10.114948 11636 net.cpp:156] Memory required for data: 1113290016
I0403 15:05:10.114966 11636 layer_factory.hpp:77] Creating layer inception_4d/relu_1x1
I0403 15:05:10.114985 11636 net.cpp:91] Creating Layer inception_4d/relu_1x1
I0403 15:05:10.115001 11636 net.cpp:425] inception_4d/relu_1x1 <- inception_4d/1x1
I0403 15:05:10.115020 11636 net.cpp:386] inception_4d/relu_1x1 -> inception_4d/1x1 (in-place)
I0403 15:05:10.115205 11636 net.cpp:141] Setting up inception_4d/relu_1x1
I0403 15:05:10.115229 11636 net.cpp:148] Top shape: 24 112 14 14 (526848)
I0403 15:05:10.115243 11636 net.cpp:156] Memory required for data: 1115397408
I0403 15:05:10.115258 11636 layer_factory.hpp:77] Creating layer inception_4d/3x3_reduce
I0403 15:05:10.115294 11636 net.cpp:91] Creating Layer inception_4d/3x3_reduce
I0403 15:05:10.115314 11636 net.cpp:425] inception_4d/3x3_reduce <- inception_4c/output_inception_4c/output_0_split_1
I0403 15:05:10.115335 11636 net.cpp:399] inception_4d/3x3_reduce -> inception_4d/3x3_reduce
I0403 15:05:10.116798 11636 net.cpp:141] Setting up inception_4d/3x3_reduce
I0403 15:05:10.116828 11636 net.cpp:148] Top shape: 24 144 14 14 (677376)
I0403 15:05:10.116845 11636 net.cpp:156] Memory required for data: 1118106912
I0403 15:05:10.116864 11636 layer_factory.hpp:77] Creating layer inception_4d/relu_3x3_reduce
I0403 15:05:10.116883 11636 net.cpp:91] Creating Layer inception_4d/relu_3x3_reduce
I0403 15:05:10.116899 11636 net.cpp:425] inception_4d/relu_3x3_reduce <- inception_4d/3x3_reduce
I0403 15:05:10.116915 11636 net.cpp:386] inception_4d/relu_3x3_reduce -> inception_4d/3x3_reduce (in-place)
I0403 15:05:10.117202 11636 net.cpp:141] Setting up inception_4d/relu_3x3_reduce
I0403 15:05:10.117231 11636 net.cpp:148] Top shape: 24 144 14 14 (677376)
I0403 15:05:10.117246 11636 net.cpp:156] Memory required for data: 1120816416
I0403 15:05:10.117261 11636 layer_factory.hpp:77] Creating layer inception_4d/3x3
I0403 15:05:10.117282 11636 net.cpp:91] Creating Layer inception_4d/3x3
I0403 15:05:10.117300 11636 net.cpp:425] inception_4d/3x3 <- inception_4d/3x3_reduce
I0403 15:05:10.117319 11636 net.cpp:399] inception_4d/3x3 -> inception_4d/3x3
I0403 15:05:10.121439 11636 net.cpp:141] Setting up inception_4d/3x3
I0403 15:05:10.121469 11636 net.cpp:148] Top shape: 24 288 14 14 (1354752)
I0403 15:05:10.121484 11636 net.cpp:156] Memory required for data: 1126235424
I0403 15:05:10.121501 11636 layer_factory.hpp:77] Creating layer inception_4d/relu_3x3
I0403 15:05:10.121520 11636 net.cpp:91] Creating Layer inception_4d/relu_3x3
I0403 15:05:10.121536 11636 net.cpp:425] inception_4d/relu_3x3 <- inception_4d/3x3
I0403 15:05:10.121556 11636 net.cpp:386] inception_4d/relu_3x3 -> inception_4d/3x3 (in-place)
I0403 15:05:10.121733 11636 net.cpp:141] Setting up inception_4d/relu_3x3
I0403 15:05:10.121758 11636 net.cpp:148] Top shape: 24 288 14 14 (1354752)
I0403 15:05:10.121773 11636 net.cpp:156] Memory required for data: 1131654432
I0403 15:05:10.121788 11636 layer_factory.hpp:77] Creating layer inception_4d/5x5_reduce
I0403 15:05:10.121809 11636 net.cpp:91] Creating Layer inception_4d/5x5_reduce
I0403 15:05:10.121826 11636 net.cpp:425] inception_4d/5x5_reduce <- inception_4c/output_inception_4c/output_0_split_2
I0403 15:05:10.121847 11636 net.cpp:399] inception_4d/5x5_reduce -> inception_4d/5x5_reduce
I0403 15:05:10.123025 11636 net.cpp:141] Setting up inception_4d/5x5_reduce
I0403 15:05:10.123054 11636 net.cpp:148] Top shape: 24 32 14 14 (150528)
I0403 15:05:10.123067 11636 net.cpp:156] Memory required for data: 1132256544
I0403 15:05:10.123085 11636 layer_factory.hpp:77] Creating layer inception_4d/relu_5x5_reduce
I0403 15:05:10.123102 11636 net.cpp:91] Creating Layer inception_4d/relu_5x5_reduce
I0403 15:05:10.123118 11636 net.cpp:425] inception_4d/relu_5x5_reduce <- inception_4d/5x5_reduce
I0403 15:05:10.123149 11636 net.cpp:386] inception_4d/relu_5x5_reduce -> inception_4d/5x5_reduce (in-place)
I0403 15:05:10.123342 11636 net.cpp:141] Setting up inception_4d/relu_5x5_reduce
I0403 15:05:10.123366 11636 net.cpp:148] Top shape: 24 32 14 14 (150528)
I0403 15:05:10.123381 11636 net.cpp:156] Memory required for data: 1132858656
I0403 15:05:10.123395 11636 layer_factory.hpp:77] Creating layer inception_4d/5x5
I0403 15:05:10.123417 11636 net.cpp:91] Creating Layer inception_4d/5x5
I0403 15:05:10.123435 11636 net.cpp:425] inception_4d/5x5 <- inception_4d/5x5_reduce
I0403 15:05:10.123453 11636 net.cpp:399] inception_4d/5x5 -> inception_4d/5x5
I0403 15:05:10.124835 11636 net.cpp:141] Setting up inception_4d/5x5
I0403 15:05:10.124862 11636 net.cpp:148] Top shape: 24 64 14 14 (301056)
I0403 15:05:10.124877 11636 net.cpp:156] Memory required for data: 1134062880
I0403 15:05:10.124896 11636 layer_factory.hpp:77] Creating layer inception_4d/relu_5x5
I0403 15:05:10.124932 11636 net.cpp:91] Creating Layer inception_4d/relu_5x5
I0403 15:05:10.124949 11636 net.cpp:425] inception_4d/relu_5x5 <- inception_4d/5x5
I0403 15:05:10.124965 11636 net.cpp:386] inception_4d/relu_5x5 -> inception_4d/5x5 (in-place)
I0403 15:05:10.125253 11636 net.cpp:141] Setting up inception_4d/relu_5x5
I0403 15:05:10.125279 11636 net.cpp:148] Top shape: 24 64 14 14 (301056)
I0403 15:05:10.125294 11636 net.cpp:156] Memory required for data: 1135267104
I0403 15:05:10.125308 11636 layer_factory.hpp:77] Creating layer inception_4d/pool
I0403 15:05:10.125327 11636 net.cpp:91] Creating Layer inception_4d/pool
I0403 15:05:10.125344 11636 net.cpp:425] inception_4d/pool <- inception_4c/output_inception_4c/output_0_split_3
I0403 15:05:10.125360 11636 net.cpp:399] inception_4d/pool -> inception_4d/pool
I0403 15:05:10.125425 11636 net.cpp:141] Setting up inception_4d/pool
I0403 15:05:10.125449 11636 net.cpp:148] Top shape: 24 512 14 14 (2408448)
I0403 15:05:10.125463 11636 net.cpp:156] Memory required for data: 1144900896
I0403 15:05:10.125478 11636 layer_factory.hpp:77] Creating layer inception_4d/pool_proj
I0403 15:05:10.125499 11636 net.cpp:91] Creating Layer inception_4d/pool_proj
I0403 15:05:10.125515 11636 net.cpp:425] inception_4d/pool_proj <- inception_4d/pool
I0403 15:05:10.125535 11636 net.cpp:399] inception_4d/pool_proj -> inception_4d/pool_proj
I0403 15:05:10.127300 11636 net.cpp:141] Setting up inception_4d/pool_proj
I0403 15:05:10.127329 11636 net.cpp:148] Top shape: 24 64 14 14 (301056)
I0403 15:05:10.127344 11636 net.cpp:156] Memory required for data: 1146105120
I0403 15:05:10.127362 11636 layer_factory.hpp:77] Creating layer inception_4d/relu_pool_proj
I0403 15:05:10.127391 11636 net.cpp:91] Creating Layer inception_4d/relu_pool_proj
I0403 15:05:10.127406 11636 net.cpp:425] inception_4d/relu_pool_proj <- inception_4d/pool_proj
I0403 15:05:10.127425 11636 net.cpp:386] inception_4d/relu_pool_proj -> inception_4d/pool_proj (in-place)
I0403 15:05:10.127601 11636 net.cpp:141] Setting up inception_4d/relu_pool_proj
I0403 15:05:10.127626 11636 net.cpp:148] Top shape: 24 64 14 14 (301056)
I0403 15:05:10.127641 11636 net.cpp:156] Memory required for data: 1147309344
I0403 15:05:10.127653 11636 layer_factory.hpp:77] Creating layer inception_4d/output
I0403 15:05:10.127672 11636 net.cpp:91] Creating Layer inception_4d/output
I0403 15:05:10.127689 11636 net.cpp:425] inception_4d/output <- inception_4d/1x1
I0403 15:05:10.127706 11636 net.cpp:425] inception_4d/output <- inception_4d/3x3
I0403 15:05:10.127720 11636 net.cpp:425] inception_4d/output <- inception_4d/5x5
I0403 15:05:10.127735 11636 net.cpp:425] inception_4d/output <- inception_4d/pool_proj
I0403 15:05:10.127753 11636 net.cpp:399] inception_4d/output -> inception_4d/output
I0403 15:05:10.127799 11636 net.cpp:141] Setting up inception_4d/output
I0403 15:05:10.127821 11636 net.cpp:148] Top shape: 24 528 14 14 (2483712)
I0403 15:05:10.127835 11636 net.cpp:156] Memory required for data: 1157244192
I0403 15:05:10.127849 11636 layer_factory.hpp:77] Creating layer inception_4d/output_inception_4d/output_0_split
I0403 15:05:10.127866 11636 net.cpp:91] Creating Layer inception_4d/output_inception_4d/output_0_split
I0403 15:05:10.127879 11636 net.cpp:425] inception_4d/output_inception_4d/output_0_split <- inception_4d/output
I0403 15:05:10.127899 11636 net.cpp:399] inception_4d/output_inception_4d/output_0_split -> inception_4d/output_inception_4d/output_0_split_0
I0403 15:05:10.127920 11636 net.cpp:399] inception_4d/output_inception_4d/output_0_split -> inception_4d/output_inception_4d/output_0_split_1
I0403 15:05:10.127940 11636 net.cpp:399] inception_4d/output_inception_4d/output_0_split -> inception_4d/output_inception_4d/output_0_split_2
I0403 15:05:10.127960 11636 net.cpp:399] inception_4d/output_inception_4d/output_0_split -> inception_4d/output_inception_4d/output_0_split_3
I0403 15:05:10.127979 11636 net.cpp:399] inception_4d/output_inception_4d/output_0_split -> inception_4d/output_inception_4d/output_0_split_4
I0403 15:05:10.128075 11636 net.cpp:141] Setting up inception_4d/output_inception_4d/output_0_split
I0403 15:05:10.128109 11636 net.cpp:148] Top shape: 24 528 14 14 (2483712)
I0403 15:05:10.128131 11636 net.cpp:148] Top shape: 24 528 14 14 (2483712)
I0403 15:05:10.128149 11636 net.cpp:148] Top shape: 24 528 14 14 (2483712)
I0403 15:05:10.128165 11636 net.cpp:148] Top shape: 24 528 14 14 (2483712)
I0403 15:05:10.128180 11636 net.cpp:148] Top shape: 24 528 14 14 (2483712)
I0403 15:05:10.128192 11636 net.cpp:156] Memory required for data: 1206918432
I0403 15:05:10.128206 11636 layer_factory.hpp:77] Creating layer loss2/ave_pool
I0403 15:05:10.128223 11636 net.cpp:91] Creating Layer loss2/ave_pool
I0403 15:05:10.128239 11636 net.cpp:425] loss2/ave_pool <- inception_4d/output_inception_4d/output_0_split_0
I0403 15:05:10.128259 11636 net.cpp:399] loss2/ave_pool -> loss2/ave_pool
I0403 15:05:10.128556 11636 net.cpp:141] Setting up loss2/ave_pool
I0403 15:05:10.128582 11636 net.cpp:148] Top shape: 24 528 4 4 (202752)
I0403 15:05:10.128597 11636 net.cpp:156] Memory required for data: 1207729440
I0403 15:05:10.128610 11636 layer_factory.hpp:77] Creating layer loss2/conv
I0403 15:05:10.128633 11636 net.cpp:91] Creating Layer loss2/conv
I0403 15:05:10.128648 11636 net.cpp:425] loss2/conv <- loss2/ave_pool
I0403 15:05:10.128669 11636 net.cpp:399] loss2/conv -> loss2/conv
I0403 15:05:10.130460 11636 net.cpp:141] Setting up loss2/conv
I0403 15:05:10.130488 11636 net.cpp:148] Top shape: 24 128 4 4 (49152)
I0403 15:05:10.130503 11636 net.cpp:156] Memory required for data: 1207926048
I0403 15:05:10.130520 11636 layer_factory.hpp:77] Creating layer loss2/relu_conv
I0403 15:05:10.130540 11636 net.cpp:91] Creating Layer loss2/relu_conv
I0403 15:05:10.130558 11636 net.cpp:425] loss2/relu_conv <- loss2/conv
I0403 15:05:10.130574 11636 net.cpp:386] loss2/relu_conv -> loss2/conv (in-place)
I0403 15:05:10.130846 11636 net.cpp:141] Setting up loss2/relu_conv
I0403 15:05:10.130872 11636 net.cpp:148] Top shape: 24 128 4 4 (49152)
I0403 15:05:10.130887 11636 net.cpp:156] Memory required for data: 1208122656
I0403 15:05:10.130902 11636 layer_factory.hpp:77] Creating layer loss2/fc
I0403 15:05:10.130921 11636 net.cpp:91] Creating Layer loss2/fc
I0403 15:05:10.130936 11636 net.cpp:425] loss2/fc <- loss2/conv
I0403 15:05:10.130954 11636 net.cpp:399] loss2/fc -> loss2/fc
I0403 15:05:10.147662 11636 net.cpp:141] Setting up loss2/fc
I0403 15:05:10.147696 11636 net.cpp:148] Top shape: 24 1024 (24576)
I0403 15:05:10.147712 11636 net.cpp:156] Memory required for data: 1208220960
I0403 15:05:10.147729 11636 layer_factory.hpp:77] Creating layer loss2/relu_fc
I0403 15:05:10.147747 11636 net.cpp:91] Creating Layer loss2/relu_fc
I0403 15:05:10.147763 11636 net.cpp:425] loss2/relu_fc <- loss2/fc
I0403 15:05:10.147780 11636 net.cpp:386] loss2/relu_fc -> loss2/fc (in-place)
I0403 15:05:10.148066 11636 net.cpp:141] Setting up loss2/relu_fc
I0403 15:05:10.148102 11636 net.cpp:148] Top shape: 24 1024 (24576)
I0403 15:05:10.148118 11636 net.cpp:156] Memory required for data: 1208319264
I0403 15:05:10.148138 11636 layer_factory.hpp:77] Creating layer loss2/drop_fc
I0403 15:05:10.148157 11636 net.cpp:91] Creating Layer loss2/drop_fc
I0403 15:05:10.148172 11636 net.cpp:425] loss2/drop_fc <- loss2/fc
I0403 15:05:10.148192 11636 net.cpp:386] loss2/drop_fc -> loss2/fc (in-place)
I0403 15:05:10.148241 11636 net.cpp:141] Setting up loss2/drop_fc
I0403 15:05:10.148267 11636 net.cpp:148] Top shape: 24 1024 (24576)
I0403 15:05:10.148283 11636 net.cpp:156] Memory required for data: 1208417568
I0403 15:05:10.148298 11636 layer_factory.hpp:77] Creating layer loss2/classifier_plantvillage
I0403 15:05:10.148315 11636 net.cpp:91] Creating Layer loss2/classifier_plantvillage
I0403 15:05:10.148331 11636 net.cpp:425] loss2/classifier_plantvillage <- loss2/fc
I0403 15:05:10.148350 11636 net.cpp:399] loss2/classifier_plantvillage -> loss2/classifier_plantvillage
I0403 15:05:10.148742 11636 net.cpp:141] Setting up loss2/classifier_plantvillage
I0403 15:05:10.148769 11636 net.cpp:148] Top shape: 24 38 (912)
I0403 15:05:10.148799 11636 net.cpp:156] Memory required for data: 1208421216
I0403 15:05:10.148818 11636 layer_factory.hpp:77] Creating layer loss2/classifier_plantvillage_loss2/classifier_plantvillage_0_split
I0403 15:05:10.148833 11636 net.cpp:91] Creating Layer loss2/classifier_plantvillage_loss2/classifier_plantvillage_0_split
I0403 15:05:10.148849 11636 net.cpp:425] loss2/classifier_plantvillage_loss2/classifier_plantvillage_0_split <- loss2/classifier_plantvillage
I0403 15:05:10.148865 11636 net.cpp:399] loss2/classifier_plantvillage_loss2/classifier_plantvillage_0_split -> loss2/classifier_plantvillage_loss2/classifier_plantvillage_0_split_0
I0403 15:05:10.148885 11636 net.cpp:399] loss2/classifier_plantvillage_loss2/classifier_plantvillage_0_split -> loss2/classifier_plantvillage_loss2/classifier_plantvillage_0_split_1
I0403 15:05:10.148910 11636 net.cpp:399] loss2/classifier_plantvillage_loss2/classifier_plantvillage_0_split -> loss2/classifier_plantvillage_loss2/classifier_plantvillage_0_split_2
I0403 15:05:10.148984 11636 net.cpp:141] Setting up loss2/classifier_plantvillage_loss2/classifier_plantvillage_0_split
I0403 15:05:10.149008 11636 net.cpp:148] Top shape: 24 38 (912)
I0403 15:05:10.149022 11636 net.cpp:148] Top shape: 24 38 (912)
I0403 15:05:10.149036 11636 net.cpp:148] Top shape: 24 38 (912)
I0403 15:05:10.149049 11636 net.cpp:156] Memory required for data: 1208432160
I0403 15:05:10.149063 11636 layer_factory.hpp:77] Creating layer inception_4e/1x1
I0403 15:05:10.149082 11636 net.cpp:91] Creating Layer inception_4e/1x1
I0403 15:05:10.149098 11636 net.cpp:425] inception_4e/1x1 <- inception_4d/output_inception_4d/output_0_split_1
I0403 15:05:10.149118 11636 net.cpp:399] inception_4e/1x1 -> inception_4e/1x1
I0403 15:05:10.150862 11636 net.cpp:141] Setting up inception_4e/1x1
I0403 15:05:10.150890 11636 net.cpp:148] Top shape: 24 256 14 14 (1204224)
I0403 15:05:10.150905 11636 net.cpp:156] Memory required for data: 1213249056
I0403 15:05:10.150923 11636 layer_factory.hpp:77] Creating layer inception_4e/relu_1x1
I0403 15:05:10.150943 11636 net.cpp:91] Creating Layer inception_4e/relu_1x1
I0403 15:05:10.150959 11636 net.cpp:425] inception_4e/relu_1x1 <- inception_4e/1x1
I0403 15:05:10.150974 11636 net.cpp:386] inception_4e/relu_1x1 -> inception_4e/1x1 (in-place)
I0403 15:05:10.151258 11636 net.cpp:141] Setting up inception_4e/relu_1x1
I0403 15:05:10.151283 11636 net.cpp:148] Top shape: 24 256 14 14 (1204224)
I0403 15:05:10.151298 11636 net.cpp:156] Memory required for data: 1218065952
I0403 15:05:10.151311 11636 layer_factory.hpp:77] Creating layer inception_4e/3x3_reduce
I0403 15:05:10.151335 11636 net.cpp:91] Creating Layer inception_4e/3x3_reduce
I0403 15:05:10.151351 11636 net.cpp:425] inception_4e/3x3_reduce <- inception_4d/output_inception_4d/output_0_split_2
I0403 15:05:10.151370 11636 net.cpp:399] inception_4e/3x3_reduce -> inception_4e/3x3_reduce
I0403 15:05:10.153372 11636 net.cpp:141] Setting up inception_4e/3x3_reduce
I0403 15:05:10.153398 11636 net.cpp:148] Top shape: 24 160 14 14 (752640)
I0403 15:05:10.153414 11636 net.cpp:156] Memory required for data: 1221076512
I0403 15:05:10.153431 11636 layer_factory.hpp:77] Creating layer inception_4e/relu_3x3_reduce
I0403 15:05:10.153451 11636 net.cpp:91] Creating Layer inception_4e/relu_3x3_reduce
I0403 15:05:10.153468 11636 net.cpp:425] inception_4e/relu_3x3_reduce <- inception_4e/3x3_reduce
I0403 15:05:10.153484 11636 net.cpp:386] inception_4e/relu_3x3_reduce -> inception_4e/3x3_reduce (in-place)
I0403 15:05:10.153659 11636 net.cpp:141] Setting up inception_4e/relu_3x3_reduce
I0403 15:05:10.153687 11636 net.cpp:148] Top shape: 24 160 14 14 (752640)
I0403 15:05:10.153702 11636 net.cpp:156] Memory required for data: 1224087072
I0403 15:05:10.153717 11636 layer_factory.hpp:77] Creating layer inception_4e/3x3
I0403 15:05:10.153736 11636 net.cpp:91] Creating Layer inception_4e/3x3
I0403 15:05:10.153753 11636 net.cpp:425] inception_4e/3x3 <- inception_4e/3x3_reduce
I0403 15:05:10.153771 11636 net.cpp:399] inception_4e/3x3 -> inception_4e/3x3
I0403 15:05:10.158512 11636 net.cpp:141] Setting up inception_4e/3x3
I0403 15:05:10.158552 11636 net.cpp:148] Top shape: 24 320 14 14 (1505280)
I0403 15:05:10.158570 11636 net.cpp:156] Memory required for data: 1230108192
I0403 15:05:10.158587 11636 layer_factory.hpp:77] Creating layer inception_4e/relu_3x3
I0403 15:05:10.158606 11636 net.cpp:91] Creating Layer inception_4e/relu_3x3
I0403 15:05:10.158623 11636 net.cpp:425] inception_4e/relu_3x3 <- inception_4e/3x3
I0403 15:05:10.158643 11636 net.cpp:386] inception_4e/relu_3x3 -> inception_4e/3x3 (in-place)
I0403 15:05:10.158931 11636 net.cpp:141] Setting up inception_4e/relu_3x3
I0403 15:05:10.158959 11636 net.cpp:148] Top shape: 24 320 14 14 (1505280)
I0403 15:05:10.158975 11636 net.cpp:156] Memory required for data: 1236129312
I0403 15:05:10.158990 11636 layer_factory.hpp:77] Creating layer inception_4e/5x5_reduce
I0403 15:05:10.159011 11636 net.cpp:91] Creating Layer inception_4e/5x5_reduce
I0403 15:05:10.159029 11636 net.cpp:425] inception_4e/5x5_reduce <- inception_4d/output_inception_4d/output_0_split_3
I0403 15:05:10.159049 11636 net.cpp:399] inception_4e/5x5_reduce -> inception_4e/5x5_reduce
I0403 15:05:10.160061 11636 net.cpp:141] Setting up inception_4e/5x5_reduce
I0403 15:05:10.160089 11636 net.cpp:148] Top shape: 24 32 14 14 (150528)
I0403 15:05:10.160102 11636 net.cpp:156] Memory required for data: 1236731424
I0403 15:05:10.160120 11636 layer_factory.hpp:77] Creating layer inception_4e/relu_5x5_reduce
I0403 15:05:10.160161 11636 net.cpp:91] Creating Layer inception_4e/relu_5x5_reduce
I0403 15:05:10.160179 11636 net.cpp:425] inception_4e/relu_5x5_reduce <- inception_4e/5x5_reduce
I0403 15:05:10.160197 11636 net.cpp:386] inception_4e/relu_5x5_reduce -> inception_4e/5x5_reduce (in-place)
I0403 15:05:10.160495 11636 net.cpp:141] Setting up inception_4e/relu_5x5_reduce
I0403 15:05:10.160521 11636 net.cpp:148] Top shape: 24 32 14 14 (150528)
I0403 15:05:10.160537 11636 net.cpp:156] Memory required for data: 1237333536
I0403 15:05:10.160553 11636 layer_factory.hpp:77] Creating layer inception_4e/5x5
I0403 15:05:10.160593 11636 net.cpp:91] Creating Layer inception_4e/5x5
I0403 15:05:10.160612 11636 net.cpp:425] inception_4e/5x5 <- inception_4e/5x5_reduce
I0403 15:05:10.160634 11636 net.cpp:399] inception_4e/5x5 -> inception_4e/5x5
I0403 15:05:10.162442 11636 net.cpp:141] Setting up inception_4e/5x5
I0403 15:05:10.162470 11636 net.cpp:148] Top shape: 24 128 14 14 (602112)
I0403 15:05:10.162487 11636 net.cpp:156] Memory required for data: 1239741984
I0403 15:05:10.162506 11636 layer_factory.hpp:77] Creating layer inception_4e/relu_5x5
I0403 15:05:10.162524 11636 net.cpp:91] Creating Layer inception_4e/relu_5x5
I0403 15:05:10.162539 11636 net.cpp:425] inception_4e/relu_5x5 <- inception_4e/5x5
I0403 15:05:10.162559 11636 net.cpp:386] inception_4e/relu_5x5 -> inception_4e/5x5 (in-place)
I0403 15:05:10.162752 11636 net.cpp:141] Setting up inception_4e/relu_5x5
I0403 15:05:10.162777 11636 net.cpp:148] Top shape: 24 128 14 14 (602112)
I0403 15:05:10.162792 11636 net.cpp:156] Memory required for data: 1242150432
I0403 15:05:10.162806 11636 layer_factory.hpp:77] Creating layer inception_4e/pool
I0403 15:05:10.162825 11636 net.cpp:91] Creating Layer inception_4e/pool
I0403 15:05:10.162843 11636 net.cpp:425] inception_4e/pool <- inception_4d/output_inception_4d/output_0_split_4
I0403 15:05:10.162860 11636 net.cpp:399] inception_4e/pool -> inception_4e/pool
I0403 15:05:10.162930 11636 net.cpp:141] Setting up inception_4e/pool
I0403 15:05:10.162953 11636 net.cpp:148] Top shape: 24 528 14 14 (2483712)
I0403 15:05:10.162967 11636 net.cpp:156] Memory required for data: 1252085280
I0403 15:05:10.162981 11636 layer_factory.hpp:77] Creating layer inception_4e/pool_proj
I0403 15:05:10.163002 11636 net.cpp:91] Creating Layer inception_4e/pool_proj
I0403 15:05:10.163018 11636 net.cpp:425] inception_4e/pool_proj <- inception_4e/pool
I0403 15:05:10.163039 11636 net.cpp:399] inception_4e/pool_proj -> inception_4e/pool_proj
I0403 15:05:10.164513 11636 net.cpp:141] Setting up inception_4e/pool_proj
I0403 15:05:10.164552 11636 net.cpp:148] Top shape: 24 128 14 14 (602112)
I0403 15:05:10.164569 11636 net.cpp:156] Memory required for data: 1254493728
I0403 15:05:10.164587 11636 layer_factory.hpp:77] Creating layer inception_4e/relu_pool_proj
I0403 15:05:10.164605 11636 net.cpp:91] Creating Layer inception_4e/relu_pool_proj
I0403 15:05:10.164623 11636 net.cpp:425] inception_4e/relu_pool_proj <- inception_4e/pool_proj
I0403 15:05:10.164641 11636 net.cpp:386] inception_4e/relu_pool_proj -> inception_4e/pool_proj (in-place)
I0403 15:05:10.164924 11636 net.cpp:141] Setting up inception_4e/relu_pool_proj
I0403 15:05:10.164952 11636 net.cpp:148] Top shape: 24 128 14 14 (602112)
I0403 15:05:10.164966 11636 net.cpp:156] Memory required for data: 1256902176
I0403 15:05:10.164980 11636 layer_factory.hpp:77] Creating layer inception_4e/output
I0403 15:05:10.164999 11636 net.cpp:91] Creating Layer inception_4e/output
I0403 15:05:10.165014 11636 net.cpp:425] inception_4e/output <- inception_4e/1x1
I0403 15:05:10.165030 11636 net.cpp:425] inception_4e/output <- inception_4e/3x3
I0403 15:05:10.165046 11636 net.cpp:425] inception_4e/output <- inception_4e/5x5
I0403 15:05:10.165062 11636 net.cpp:425] inception_4e/output <- inception_4e/pool_proj
I0403 15:05:10.165081 11636 net.cpp:399] inception_4e/output -> inception_4e/output
I0403 15:05:10.165135 11636 net.cpp:141] Setting up inception_4e/output
I0403 15:05:10.165161 11636 net.cpp:148] Top shape: 24 832 14 14 (3913728)
I0403 15:05:10.165177 11636 net.cpp:156] Memory required for data: 1272557088
I0403 15:05:10.165192 11636 layer_factory.hpp:77] Creating layer pool4/3x3_s2
I0403 15:05:10.165210 11636 net.cpp:91] Creating Layer pool4/3x3_s2
I0403 15:05:10.165225 11636 net.cpp:425] pool4/3x3_s2 <- inception_4e/output
I0403 15:05:10.165242 11636 net.cpp:399] pool4/3x3_s2 -> pool4/3x3_s2
I0403 15:05:10.165309 11636 net.cpp:141] Setting up pool4/3x3_s2
I0403 15:05:10.165333 11636 net.cpp:148] Top shape: 24 832 7 7 (978432)
I0403 15:05:10.165349 11636 net.cpp:156] Memory required for data: 1276470816
I0403 15:05:10.165362 11636 layer_factory.hpp:77] Creating layer pool4/3x3_s2_pool4/3x3_s2_0_split
I0403 15:05:10.165381 11636 net.cpp:91] Creating Layer pool4/3x3_s2_pool4/3x3_s2_0_split
I0403 15:05:10.165397 11636 net.cpp:425] pool4/3x3_s2_pool4/3x3_s2_0_split <- pool4/3x3_s2
I0403 15:05:10.165415 11636 net.cpp:399] pool4/3x3_s2_pool4/3x3_s2_0_split -> pool4/3x3_s2_pool4/3x3_s2_0_split_0
I0403 15:05:10.165434 11636 net.cpp:399] pool4/3x3_s2_pool4/3x3_s2_0_split -> pool4/3x3_s2_pool4/3x3_s2_0_split_1
I0403 15:05:10.165454 11636 net.cpp:399] pool4/3x3_s2_pool4/3x3_s2_0_split -> pool4/3x3_s2_pool4/3x3_s2_0_split_2
I0403 15:05:10.165475 11636 net.cpp:399] pool4/3x3_s2_pool4/3x3_s2_0_split -> pool4/3x3_s2_pool4/3x3_s2_0_split_3
I0403 15:05:10.165565 11636 net.cpp:141] Setting up pool4/3x3_s2_pool4/3x3_s2_0_split
I0403 15:05:10.165588 11636 net.cpp:148] Top shape: 24 832 7 7 (978432)
I0403 15:05:10.165603 11636 net.cpp:148] Top shape: 24 832 7 7 (978432)
I0403 15:05:10.165618 11636 net.cpp:148] Top shape: 24 832 7 7 (978432)
I0403 15:05:10.165633 11636 net.cpp:148] Top shape: 24 832 7 7 (978432)
I0403 15:05:10.165647 11636 net.cpp:156] Memory required for data: 1292125728
I0403 15:05:10.165662 11636 layer_factory.hpp:77] Creating layer inception_5a/1x1
I0403 15:05:10.165683 11636 net.cpp:91] Creating Layer inception_5a/1x1
I0403 15:05:10.165700 11636 net.cpp:425] inception_5a/1x1 <- pool4/3x3_s2_pool4/3x3_s2_0_split_0
I0403 15:05:10.165721 11636 net.cpp:399] inception_5a/1x1 -> inception_5a/1x1
I0403 15:05:10.168494 11636 net.cpp:141] Setting up inception_5a/1x1
I0403 15:05:10.168522 11636 net.cpp:148] Top shape: 24 256 7 7 (301056)
I0403 15:05:10.168539 11636 net.cpp:156] Memory required for data: 1293329952
I0403 15:05:10.168555 11636 layer_factory.hpp:77] Creating layer inception_5a/relu_1x1
I0403 15:05:10.168575 11636 net.cpp:91] Creating Layer inception_5a/relu_1x1
I0403 15:05:10.168592 11636 net.cpp:425] inception_5a/relu_1x1 <- inception_5a/1x1
I0403 15:05:10.168609 11636 net.cpp:386] inception_5a/relu_1x1 -> inception_5a/1x1 (in-place)
I0403 15:05:10.168913 11636 net.cpp:141] Setting up inception_5a/relu_1x1
I0403 15:05:10.168939 11636 net.cpp:148] Top shape: 24 256 7 7 (301056)
I0403 15:05:10.168954 11636 net.cpp:156] Memory required for data: 1294534176
I0403 15:05:10.168968 11636 layer_factory.hpp:77] Creating layer inception_5a/3x3_reduce
I0403 15:05:10.168990 11636 net.cpp:91] Creating Layer inception_5a/3x3_reduce
I0403 15:05:10.169009 11636 net.cpp:425] inception_5a/3x3_reduce <- pool4/3x3_s2_pool4/3x3_s2_0_split_1
I0403 15:05:10.169031 11636 net.cpp:399] inception_5a/3x3_reduce -> inception_5a/3x3_reduce
I0403 15:05:10.171427 11636 net.cpp:141] Setting up inception_5a/3x3_reduce
I0403 15:05:10.171455 11636 net.cpp:148] Top shape: 24 160 7 7 (188160)
I0403 15:05:10.171470 11636 net.cpp:156] Memory required for data: 1295286816
I0403 15:05:10.171489 11636 layer_factory.hpp:77] Creating layer inception_5a/relu_3x3_reduce
I0403 15:05:10.171506 11636 net.cpp:91] Creating Layer inception_5a/relu_3x3_reduce
I0403 15:05:10.171522 11636 net.cpp:425] inception_5a/relu_3x3_reduce <- inception_5a/3x3_reduce
I0403 15:05:10.171541 11636 net.cpp:386] inception_5a/relu_3x3_reduce -> inception_5a/3x3_reduce (in-place)
I0403 15:05:10.171725 11636 net.cpp:141] Setting up inception_5a/relu_3x3_reduce
I0403 15:05:10.171749 11636 net.cpp:148] Top shape: 24 160 7 7 (188160)
I0403 15:05:10.171763 11636 net.cpp:156] Memory required for data: 1296039456
I0403 15:05:10.171777 11636 layer_factory.hpp:77] Creating layer inception_5a/3x3
I0403 15:05:10.171799 11636 net.cpp:91] Creating Layer inception_5a/3x3
I0403 15:05:10.171816 11636 net.cpp:425] inception_5a/3x3 <- inception_5a/3x3_reduce
I0403 15:05:10.171838 11636 net.cpp:399] inception_5a/3x3 -> inception_5a/3x3
I0403 15:05:10.176740 11636 net.cpp:141] Setting up inception_5a/3x3
I0403 15:05:10.176769 11636 net.cpp:148] Top shape: 24 320 7 7 (376320)
I0403 15:05:10.176784 11636 net.cpp:156] Memory required for data: 1297544736
I0403 15:05:10.176801 11636 layer_factory.hpp:77] Creating layer inception_5a/relu_3x3
I0403 15:05:10.176821 11636 net.cpp:91] Creating Layer inception_5a/relu_3x3
I0403 15:05:10.176838 11636 net.cpp:425] inception_5a/relu_3x3 <- inception_5a/3x3
I0403 15:05:10.176854 11636 net.cpp:386] inception_5a/relu_3x3 -> inception_5a/3x3 (in-place)
I0403 15:05:10.177147 11636 net.cpp:141] Setting up inception_5a/relu_3x3
I0403 15:05:10.177173 11636 net.cpp:148] Top shape: 24 320 7 7 (376320)
I0403 15:05:10.177188 11636 net.cpp:156] Memory required for data: 1299050016
I0403 15:05:10.177203 11636 layer_factory.hpp:77] Creating layer inception_5a/5x5_reduce
I0403 15:05:10.177225 11636 net.cpp:91] Creating Layer inception_5a/5x5_reduce
I0403 15:05:10.177243 11636 net.cpp:425] inception_5a/5x5_reduce <- pool4/3x3_s2_pool4/3x3_s2_0_split_2
I0403 15:05:10.177265 11636 net.cpp:399] inception_5a/5x5_reduce -> inception_5a/5x5_reduce
I0403 15:05:10.178434 11636 net.cpp:141] Setting up inception_5a/5x5_reduce
I0403 15:05:10.178463 11636 net.cpp:148] Top shape: 24 32 7 7 (37632)
I0403 15:05:10.178480 11636 net.cpp:156] Memory required for data: 1299200544
I0403 15:05:10.178498 11636 layer_factory.hpp:77] Creating layer inception_5a/relu_5x5_reduce
I0403 15:05:10.178515 11636 net.cpp:91] Creating Layer inception_5a/relu_5x5_reduce
I0403 15:05:10.178530 11636 net.cpp:425] inception_5a/relu_5x5_reduce <- inception_5a/5x5_reduce
I0403 15:05:10.178547 11636 net.cpp:386] inception_5a/relu_5x5_reduce -> inception_5a/5x5_reduce (in-place)
I0403 15:05:10.178833 11636 net.cpp:141] Setting up inception_5a/relu_5x5_reduce
I0403 15:05:10.178858 11636 net.cpp:148] Top shape: 24 32 7 7 (37632)
I0403 15:05:10.178872 11636 net.cpp:156] Memory required for data: 1299351072
I0403 15:05:10.178886 11636 layer_factory.hpp:77] Creating layer inception_5a/5x5
I0403 15:05:10.178908 11636 net.cpp:91] Creating Layer inception_5a/5x5
I0403 15:05:10.178925 11636 net.cpp:425] inception_5a/5x5 <- inception_5a/5x5_reduce
I0403 15:05:10.178946 11636 net.cpp:399] inception_5a/5x5 -> inception_5a/5x5
I0403 15:05:10.180579 11636 net.cpp:141] Setting up inception_5a/5x5
I0403 15:05:10.180618 11636 net.cpp:148] Top shape: 24 128 7 7 (150528)
I0403 15:05:10.180634 11636 net.cpp:156] Memory required for data: 1299953184
I0403 15:05:10.180650 11636 layer_factory.hpp:77] Creating layer inception_5a/relu_5x5
I0403 15:05:10.180670 11636 net.cpp:91] Creating Layer inception_5a/relu_5x5
I0403 15:05:10.180686 11636 net.cpp:425] inception_5a/relu_5x5 <- inception_5a/5x5
I0403 15:05:10.180702 11636 net.cpp:386] inception_5a/relu_5x5 -> inception_5a/5x5 (in-place)
I0403 15:05:10.180886 11636 net.cpp:141] Setting up inception_5a/relu_5x5
I0403 15:05:10.180909 11636 net.cpp:148] Top shape: 24 128 7 7 (150528)
I0403 15:05:10.180927 11636 net.cpp:156] Memory required for data: 1300555296
I0403 15:05:10.180939 11636 layer_factory.hpp:77] Creating layer inception_5a/pool
I0403 15:05:10.180956 11636 net.cpp:91] Creating Layer inception_5a/pool
I0403 15:05:10.180973 11636 net.cpp:425] inception_5a/pool <- pool4/3x3_s2_pool4/3x3_s2_0_split_3
I0403 15:05:10.180990 11636 net.cpp:399] inception_5a/pool -> inception_5a/pool
I0403 15:05:10.181057 11636 net.cpp:141] Setting up inception_5a/pool
I0403 15:05:10.181079 11636 net.cpp:148] Top shape: 24 832 7 7 (978432)
I0403 15:05:10.181093 11636 net.cpp:156] Memory required for data: 1304469024
I0403 15:05:10.181107 11636 layer_factory.hpp:77] Creating layer inception_5a/pool_proj
I0403 15:05:10.181133 11636 net.cpp:91] Creating Layer inception_5a/pool_proj
I0403 15:05:10.181151 11636 net.cpp:425] inception_5a/pool_proj <- inception_5a/pool
I0403 15:05:10.181171 11636 net.cpp:399] inception_5a/pool_proj -> inception_5a/pool_proj
I0403 15:05:10.183333 11636 net.cpp:141] Setting up inception_5a/pool_proj
I0403 15:05:10.183362 11636 net.cpp:148] Top shape: 24 128 7 7 (150528)
I0403 15:05:10.183377 11636 net.cpp:156] Memory required for data: 1305071136
I0403 15:05:10.183394 11636 layer_factory.hpp:77] Creating layer inception_5a/relu_pool_proj
I0403 15:05:10.183411 11636 net.cpp:91] Creating Layer inception_5a/relu_pool_proj
I0403 15:05:10.183431 11636 net.cpp:425] inception_5a/relu_pool_proj <- inception_5a/pool_proj
I0403 15:05:10.183449 11636 net.cpp:386] inception_5a/relu_pool_proj -> inception_5a/pool_proj (in-place)
I0403 15:05:10.183725 11636 net.cpp:141] Setting up inception_5a/relu_pool_proj
I0403 15:05:10.183750 11636 net.cpp:148] Top shape: 24 128 7 7 (150528)
I0403 15:05:10.183764 11636 net.cpp:156] Memory required for data: 1305673248
I0403 15:05:10.183779 11636 layer_factory.hpp:77] Creating layer inception_5a/output
I0403 15:05:10.183794 11636 net.cpp:91] Creating Layer inception_5a/output
I0403 15:05:10.183809 11636 net.cpp:425] inception_5a/output <- inception_5a/1x1
I0403 15:05:10.183825 11636 net.cpp:425] inception_5a/output <- inception_5a/3x3
I0403 15:05:10.183840 11636 net.cpp:425] inception_5a/output <- inception_5a/5x5
I0403 15:05:10.183854 11636 net.cpp:425] inception_5a/output <- inception_5a/pool_proj
I0403 15:05:10.183873 11636 net.cpp:399] inception_5a/output -> inception_5a/output
I0403 15:05:10.183920 11636 net.cpp:141] Setting up inception_5a/output
I0403 15:05:10.183946 11636 net.cpp:148] Top shape: 24 832 7 7 (978432)
I0403 15:05:10.183962 11636 net.cpp:156] Memory required for data: 1309586976
I0403 15:05:10.183976 11636 layer_factory.hpp:77] Creating layer inception_5a/output_inception_5a/output_0_split
I0403 15:05:10.183992 11636 net.cpp:91] Creating Layer inception_5a/output_inception_5a/output_0_split
I0403 15:05:10.184007 11636 net.cpp:425] inception_5a/output_inception_5a/output_0_split <- inception_5a/output
I0403 15:05:10.184023 11636 net.cpp:399] inception_5a/output_inception_5a/output_0_split -> inception_5a/output_inception_5a/output_0_split_0
I0403 15:05:10.184046 11636 net.cpp:399] inception_5a/output_inception_5a/output_0_split -> inception_5a/output_inception_5a/output_0_split_1
I0403 15:05:10.184067 11636 net.cpp:399] inception_5a/output_inception_5a/output_0_split -> inception_5a/output_inception_5a/output_0_split_2
I0403 15:05:10.184098 11636 net.cpp:399] inception_5a/output_inception_5a/output_0_split -> inception_5a/output_inception_5a/output_0_split_3
I0403 15:05:10.184209 11636 net.cpp:141] Setting up inception_5a/output_inception_5a/output_0_split
I0403 15:05:10.184233 11636 net.cpp:148] Top shape: 24 832 7 7 (978432)
I0403 15:05:10.184249 11636 net.cpp:148] Top shape: 24 832 7 7 (978432)
I0403 15:05:10.184264 11636 net.cpp:148] Top shape: 24 832 7 7 (978432)
I0403 15:05:10.184280 11636 net.cpp:148] Top shape: 24 832 7 7 (978432)
I0403 15:05:10.184293 11636 net.cpp:156] Memory required for data: 1325241888
I0403 15:05:10.184309 11636 layer_factory.hpp:77] Creating layer inception_5b/1x1
I0403 15:05:10.184330 11636 net.cpp:91] Creating Layer inception_5b/1x1
I0403 15:05:10.184350 11636 net.cpp:425] inception_5b/1x1 <- inception_5a/output_inception_5a/output_0_split_0
I0403 15:05:10.184370 11636 net.cpp:399] inception_5b/1x1 -> inception_5b/1x1
I0403 15:05:10.187955 11636 net.cpp:141] Setting up inception_5b/1x1
I0403 15:05:10.187983 11636 net.cpp:148] Top shape: 24 384 7 7 (451584)
I0403 15:05:10.187999 11636 net.cpp:156] Memory required for data: 1327048224
I0403 15:05:10.188016 11636 layer_factory.hpp:77] Creating layer inception_5b/relu_1x1
I0403 15:05:10.188035 11636 net.cpp:91] Creating Layer inception_5b/relu_1x1
I0403 15:05:10.188051 11636 net.cpp:425] inception_5b/relu_1x1 <- inception_5b/1x1
I0403 15:05:10.188069 11636 net.cpp:386] inception_5b/relu_1x1 -> inception_5b/1x1 (in-place)
I0403 15:05:10.188370 11636 net.cpp:141] Setting up inception_5b/relu_1x1
I0403 15:05:10.188396 11636 net.cpp:148] Top shape: 24 384 7 7 (451584)
I0403 15:05:10.188410 11636 net.cpp:156] Memory required for data: 1328854560
I0403 15:05:10.188424 11636 layer_factory.hpp:77] Creating layer inception_5b/3x3_reduce
I0403 15:05:10.188446 11636 net.cpp:91] Creating Layer inception_5b/3x3_reduce
I0403 15:05:10.188463 11636 net.cpp:425] inception_5b/3x3_reduce <- inception_5a/output_inception_5a/output_0_split_1
I0403 15:05:10.188484 11636 net.cpp:399] inception_5b/3x3_reduce -> inception_5b/3x3_reduce
I0403 15:05:10.191012 11636 net.cpp:141] Setting up inception_5b/3x3_reduce
I0403 15:05:10.191040 11636 net.cpp:148] Top shape: 24 192 7 7 (225792)
I0403 15:05:10.191056 11636 net.cpp:156] Memory required for data: 1329757728
I0403 15:05:10.191073 11636 layer_factory.hpp:77] Creating layer inception_5b/relu_3x3_reduce
I0403 15:05:10.191090 11636 net.cpp:91] Creating Layer inception_5b/relu_3x3_reduce
I0403 15:05:10.191107 11636 net.cpp:425] inception_5b/relu_3x3_reduce <- inception_5b/3x3_reduce
I0403 15:05:10.191124 11636 net.cpp:386] inception_5b/relu_3x3_reduce -> inception_5b/3x3_reduce (in-place)
I0403 15:05:10.191313 11636 net.cpp:141] Setting up inception_5b/relu_3x3_reduce
I0403 15:05:10.191336 11636 net.cpp:148] Top shape: 24 192 7 7 (225792)
I0403 15:05:10.191351 11636 net.cpp:156] Memory required for data: 1330660896
I0403 15:05:10.191365 11636 layer_factory.hpp:77] Creating layer inception_5b/3x3
I0403 15:05:10.191386 11636 net.cpp:91] Creating Layer inception_5b/3x3
I0403 15:05:10.191403 11636 net.cpp:425] inception_5b/3x3 <- inception_5b/3x3_reduce
I0403 15:05:10.191424 11636 net.cpp:399] inception_5b/3x3 -> inception_5b/3x3
I0403 15:05:10.197784 11636 net.cpp:141] Setting up inception_5b/3x3
I0403 15:05:10.197813 11636 net.cpp:148] Top shape: 24 384 7 7 (451584)
I0403 15:05:10.197829 11636 net.cpp:156] Memory required for data: 1332467232
I0403 15:05:10.197845 11636 layer_factory.hpp:77] Creating layer inception_5b/relu_3x3
I0403 15:05:10.197862 11636 net.cpp:91] Creating Layer inception_5b/relu_3x3
I0403 15:05:10.197882 11636 net.cpp:425] inception_5b/relu_3x3 <- inception_5b/3x3
I0403 15:05:10.197899 11636 net.cpp:386] inception_5b/relu_3x3 -> inception_5b/3x3 (in-place)
I0403 15:05:10.198186 11636 net.cpp:141] Setting up inception_5b/relu_3x3
I0403 15:05:10.198212 11636 net.cpp:148] Top shape: 24 384 7 7 (451584)
I0403 15:05:10.198227 11636 net.cpp:156] Memory required for data: 1334273568
I0403 15:05:10.198241 11636 layer_factory.hpp:77] Creating layer inception_5b/5x5_reduce
I0403 15:05:10.198278 11636 net.cpp:91] Creating Layer inception_5b/5x5_reduce
I0403 15:05:10.198297 11636 net.cpp:425] inception_5b/5x5_reduce <- inception_5a/output_inception_5a/output_0_split_2
I0403 15:05:10.198318 11636 net.cpp:399] inception_5b/5x5_reduce -> inception_5b/5x5_reduce
I0403 15:05:10.199522 11636 net.cpp:141] Setting up inception_5b/5x5_reduce
I0403 15:05:10.199548 11636 net.cpp:148] Top shape: 24 48 7 7 (56448)
I0403 15:05:10.199564 11636 net.cpp:156] Memory required for data: 1334499360
I0403 15:05:10.199581 11636 layer_factory.hpp:77] Creating layer inception_5b/relu_5x5_reduce
I0403 15:05:10.199599 11636 net.cpp:91] Creating Layer inception_5b/relu_5x5_reduce
I0403 15:05:10.199615 11636 net.cpp:425] inception_5b/relu_5x5_reduce <- inception_5b/5x5_reduce
I0403 15:05:10.199635 11636 net.cpp:386] inception_5b/relu_5x5_reduce -> inception_5b/5x5_reduce (in-place)
I0403 15:05:10.199992 11636 net.cpp:141] Setting up inception_5b/relu_5x5_reduce
I0403 15:05:10.200019 11636 net.cpp:148] Top shape: 24 48 7 7 (56448)
I0403 15:05:10.200033 11636 net.cpp:156] Memory required for data: 1334725152
I0403 15:05:10.200047 11636 layer_factory.hpp:77] Creating layer inception_5b/5x5
I0403 15:05:10.200067 11636 net.cpp:91] Creating Layer inception_5b/5x5
I0403 15:05:10.200083 11636 net.cpp:425] inception_5b/5x5 <- inception_5b/5x5_reduce
I0403 15:05:10.200101 11636 net.cpp:399] inception_5b/5x5 -> inception_5b/5x5
I0403 15:05:10.202054 11636 net.cpp:141] Setting up inception_5b/5x5
I0403 15:05:10.202081 11636 net.cpp:148] Top shape: 24 128 7 7 (150528)
I0403 15:05:10.202096 11636 net.cpp:156] Memory required for data: 1335327264
I0403 15:05:10.202113 11636 layer_factory.hpp:77] Creating layer inception_5b/relu_5x5
I0403 15:05:10.202147 11636 net.cpp:91] Creating Layer inception_5b/relu_5x5
I0403 15:05:10.202167 11636 net.cpp:425] inception_5b/relu_5x5 <- inception_5b/5x5
I0403 15:05:10.202183 11636 net.cpp:386] inception_5b/relu_5x5 -> inception_5b/5x5 (in-place)
I0403 15:05:10.202370 11636 net.cpp:141] Setting up inception_5b/relu_5x5
I0403 15:05:10.202394 11636 net.cpp:148] Top shape: 24 128 7 7 (150528)
I0403 15:05:10.202409 11636 net.cpp:156] Memory required for data: 1335929376
I0403 15:05:10.202422 11636 layer_factory.hpp:77] Creating layer inception_5b/pool
I0403 15:05:10.202441 11636 net.cpp:91] Creating Layer inception_5b/pool
I0403 15:05:10.202457 11636 net.cpp:425] inception_5b/pool <- inception_5a/output_inception_5a/output_0_split_3
I0403 15:05:10.202474 11636 net.cpp:399] inception_5b/pool -> inception_5b/pool
I0403 15:05:10.202546 11636 net.cpp:141] Setting up inception_5b/pool
I0403 15:05:10.202569 11636 net.cpp:148] Top shape: 24 832 7 7 (978432)
I0403 15:05:10.202584 11636 net.cpp:156] Memory required for data: 1339843104
I0403 15:05:10.202596 11636 layer_factory.hpp:77] Creating layer inception_5b/pool_proj
I0403 15:05:10.202618 11636 net.cpp:91] Creating Layer inception_5b/pool_proj
I0403 15:05:10.202635 11636 net.cpp:425] inception_5b/pool_proj <- inception_5b/pool
I0403 15:05:10.202653 11636 net.cpp:399] inception_5b/pool_proj -> inception_5b/pool_proj
I0403 15:05:10.204854 11636 net.cpp:141] Setting up inception_5b/pool_proj
I0403 15:05:10.204881 11636 net.cpp:148] Top shape: 24 128 7 7 (150528)
I0403 15:05:10.204897 11636 net.cpp:156] Memory required for data: 1340445216
I0403 15:05:10.204915 11636 layer_factory.hpp:77] Creating layer inception_5b/relu_pool_proj
I0403 15:05:10.204932 11636 net.cpp:91] Creating Layer inception_5b/relu_pool_proj
I0403 15:05:10.204947 11636 net.cpp:425] inception_5b/relu_pool_proj <- inception_5b/pool_proj
I0403 15:05:10.204965 11636 net.cpp:386] inception_5b/relu_pool_proj -> inception_5b/pool_proj (in-place)
I0403 15:05:10.205256 11636 net.cpp:141] Setting up inception_5b/relu_pool_proj
I0403 15:05:10.205282 11636 net.cpp:148] Top shape: 24 128 7 7 (150528)
I0403 15:05:10.205297 11636 net.cpp:156] Memory required for data: 1341047328
I0403 15:05:10.205312 11636 layer_factory.hpp:77] Creating layer inception_5b/output
I0403 15:05:10.205328 11636 net.cpp:91] Creating Layer inception_5b/output
I0403 15:05:10.205358 11636 net.cpp:425] inception_5b/output <- inception_5b/1x1
I0403 15:05:10.205374 11636 net.cpp:425] inception_5b/output <- inception_5b/3x3
I0403 15:05:10.205391 11636 net.cpp:425] inception_5b/output <- inception_5b/5x5
I0403 15:05:10.205406 11636 net.cpp:425] inception_5b/output <- inception_5b/pool_proj
I0403 15:05:10.205425 11636 net.cpp:399] inception_5b/output -> inception_5b/output
I0403 15:05:10.205474 11636 net.cpp:141] Setting up inception_5b/output
I0403 15:05:10.205503 11636 net.cpp:148] Top shape: 24 1024 7 7 (1204224)
I0403 15:05:10.205518 11636 net.cpp:156] Memory required for data: 1345864224
I0403 15:05:10.205533 11636 layer_factory.hpp:77] Creating layer pool5/7x7_s1
I0403 15:05:10.205549 11636 net.cpp:91] Creating Layer pool5/7x7_s1
I0403 15:05:10.205564 11636 net.cpp:425] pool5/7x7_s1 <- inception_5b/output
I0403 15:05:10.205584 11636 net.cpp:399] pool5/7x7_s1 -> pool5/7x7_s1
I0403 15:05:10.205787 11636 net.cpp:141] Setting up pool5/7x7_s1
I0403 15:05:10.205813 11636 net.cpp:148] Top shape: 24 1024 1 1 (24576)
I0403 15:05:10.205827 11636 net.cpp:156] Memory required for data: 1345962528
I0403 15:05:10.205842 11636 layer_factory.hpp:77] Creating layer pool5/drop_7x7_s1
I0403 15:05:10.205858 11636 net.cpp:91] Creating Layer pool5/drop_7x7_s1
I0403 15:05:10.205874 11636 net.cpp:425] pool5/drop_7x7_s1 <- pool5/7x7_s1
I0403 15:05:10.205893 11636 net.cpp:386] pool5/drop_7x7_s1 -> pool5/7x7_s1 (in-place)
I0403 15:05:10.205943 11636 net.cpp:141] Setting up pool5/drop_7x7_s1
I0403 15:05:10.205965 11636 net.cpp:148] Top shape: 24 1024 1 1 (24576)
I0403 15:05:10.205979 11636 net.cpp:156] Memory required for data: 1346060832
I0403 15:05:10.205993 11636 layer_factory.hpp:77] Creating layer loss3/classifier_plantvillage
I0403 15:05:10.206012 11636 net.cpp:91] Creating Layer loss3/classifier_plantvillage
I0403 15:05:10.206027 11636 net.cpp:425] loss3/classifier_plantvillage <- pool5/7x7_s1
I0403 15:05:10.206045 11636 net.cpp:399] loss3/classifier_plantvillage -> loss3/classifier_plantvillage
I0403 15:05:10.206516 11636 net.cpp:141] Setting up loss3/classifier_plantvillage
I0403 15:05:10.206542 11636 net.cpp:148] Top shape: 24 38 (912)
I0403 15:05:10.206555 11636 net.cpp:156] Memory required for data: 1346064480
I0403 15:05:10.206573 11636 layer_factory.hpp:77] Creating layer loss3/classifier_plantvillage_loss3/classifier_plantvillage_0_split
I0403 15:05:10.206594 11636 net.cpp:91] Creating Layer loss3/classifier_plantvillage_loss3/classifier_plantvillage_0_split
I0403 15:05:10.206610 11636 net.cpp:425] loss3/classifier_plantvillage_loss3/classifier_plantvillage_0_split <- loss3/classifier_plantvillage
I0403 15:05:10.206630 11636 net.cpp:399] loss3/classifier_plantvillage_loss3/classifier_plantvillage_0_split -> loss3/classifier_plantvillage_loss3/classifier_plantvillage_0_split_0
I0403 15:05:10.206650 11636 net.cpp:399] loss3/classifier_plantvillage_loss3/classifier_plantvillage_0_split -> loss3/classifier_plantvillage_loss3/classifier_plantvillage_0_split_1
I0403 15:05:10.206670 11636 net.cpp:399] loss3/classifier_plantvillage_loss3/classifier_plantvillage_0_split -> loss3/classifier_plantvillage_loss3/classifier_plantvillage_0_split_2
I0403 15:05:10.206691 11636 net.cpp:399] loss3/classifier_plantvillage_loss3/classifier_plantvillage_0_split -> loss3/classifier_plantvillage_loss3/classifier_plantvillage_0_split_3
I0403 15:05:10.206789 11636 net.cpp:141] Setting up loss3/classifier_plantvillage_loss3/classifier_plantvillage_0_split
I0403 15:05:10.206814 11636 net.cpp:148] Top shape: 24 38 (912)
I0403 15:05:10.206830 11636 net.cpp:148] Top shape: 24 38 (912)
I0403 15:05:10.206845 11636 net.cpp:148] Top shape: 24 38 (912)
I0403 15:05:10.206859 11636 net.cpp:148] Top shape: 24 38 (912)
I0403 15:05:10.206872 11636 net.cpp:156] Memory required for data: 1346079072
I0403 15:05:10.206887 11636 layer_factory.hpp:77] Creating layer loss1/loss
I0403 15:05:10.206907 11636 net.cpp:91] Creating Layer loss1/loss
I0403 15:05:10.206924 11636 net.cpp:425] loss1/loss <- loss1/classifier_plantvillage_loss1/classifier_plantvillage_0_split_0
I0403 15:05:10.206955 11636 net.cpp:425] loss1/loss <- label_data_1_split_0
…
