…
I0403 15:14:56.518172 12159 net.cpp:313] The NetState phase (1) differed from the phase (0) specified by a rule in layer data
I0403 15:14:56.519311 12159 net.cpp:49] Initializing net from parameters: 
state {
  phase: TEST
}
layer {
  name: "data"
  type: "Data"
  top: "data"
  top: "label"
  include {
    phase: TEST
  }
  transform_param {
    mirror: false
    crop_size: 224
    mean_file: "/home/mohanty/data/final_dataset/lmdb/grayscale-60-40/mean.binaryproto"
  }
  data_param {
    source: "/home/mohanty/data/final_dataset/lmdb/grayscale-60-40/test_db"
    batch_size: 24
    backend: LMDB
  }
}
layer {
  name: "conv1/7x7_s2"
  type: "Convolution"
  bottom: "data"
  top: "conv1/7x7_s2"
  param {
    lr_mult: 1
    decay_mult: 1
  }
  param {
    lr_mult: 2
    decay_mult: 0
  }
  convolution_param {
    num_output: 64
    pad: 3
    kernel_size: 7
    stride: 2
    weight_filler {
      type: "xavier"
      std: 0.1
    }
    bias_filler {
      type: "constant"
      value: 0.2
    }
  }
}
layer {
  name: "conv1/relu_7x7"
  type: "ReLU"
  bottom: "conv1/7x7_s2"
  top: "conv1/7x7_s2"
}
layer {
  name: "pool1/3x3_s2"
  type: "Pooling"
  bottom: "conv1/7x7_s2"
  top: "pool1/3x3_s2"
  pooling_param {
    pool: MAX
    kernel_size: 3
    stride: 2
  }
}
layer {
  name: "pool1/norm1"
  type: "LRN"
  bottom: "pool1/3x3_s2"
  top: "pool1/norm1"
  lrn_param {
    local_size: 5
    alpha: 0.0001
    beta: 0.75
  }
}
layer {
  name: "conv2/3x3_reduce"
  type: "Convolution"
  bottom: "pool1/norm1"
  top: "conv2/3x3_reduce"
  param {
    lr_mult: 1
    decay_mult: 1
  }
  param {
    lr_mult: 2
    decay_mult: 0
  }
  convolution_param {
    num_output: 64
    kernel_size: 1
    weight_filler {
      type: "xavier"
      std: 0.1
    }
    bias_filler {
      type: "constant"
      value: 0.2
    }
  }
}
layer {
  name: "conv2/relu_3x3_reduce"
  type: "ReLU"
  bottom: "conv2/3x3_reduce"
  top: "conv2/3x3_reduce"
}
layer {
  name: "conv2/3x3"
  type: "Convolution"
  bottom: "conv2/3x3_reduce"
  top: "conv2/3x3"
  param {
    lr_mult: 1
    decay_mult: 1
  }
  param {
    lr_mult: 2
    decay_mult: 0
  }
  convolution_param {
    num_output: 192
    pad: 1
    kernel_size: 3
    weight_filler {
      type: "xavier"
      std: 0.03
    }
    bias_filler {
      type: "constant"
      value: 0.2
    }
  }
}
layer {
  name: "conv2/relu_3x3"
  type: "ReLU"
  bottom: "conv2/3x3"
  top: "conv2/3x3"
}
layer {
  name: "conv2/norm2"
  type: "LRN"
  bottom: "conv2/3x3"
  top: "conv2/norm2"
  lrn_param {
    local_size: 5
    alpha: 0.0001
    beta: 0.75
  }
}
layer {
  name: "pool2/3x3_s2"
  type: "Pooling"
  bottom: "conv2/norm2"
  top: "pool2/3x3_s2"
  pooling_param {
    pool: MAX
    kernel_size: 3
    stride: 2
  }
}
layer {
  name: "inception_3a/1x1"
  type: "Convolution"
  bottom: "pool2/3x3_s2"
  top: "inception_3a/1x1"
  param {
    lr_mult: 1
    decay_mult: 1
  }
  param {
    lr_mult: 2
    decay_mult: 0
  }
  convolution_param {
    num_output: 64
    kernel_size: 1
    weight_filler {
      type: "xavier"
      std: 0.03
    }
    bias_filler {
      type: "constant"
      value: 0.2
    }
  }
}
layer {
  name: "inception_3a/relu_1x1"
  type: "ReLU"
  bottom: "inception_3a/1x1"
  top: "inception_3a/1x1"
}
layer {
  name: "inception_3a/3x3_reduce"
  type: "Convolution"
  bottom: "pool2/3x3_s2"
  top: "inception_3a/3x3_reduce"
  param {
    lr_mult: 1
    decay_mult: 1
  }
  param {
    lr_mult: 2
    decay_mult: 0
  }
  convolution_param {
    num_output: 96
    kernel_size: 1
    weight_filler {
      type: "xavier"
      std: 0.09
    }
    bias_filler {
      type: "constant"
      value: 0.2
    }
  }
}
layer {
  name: "inception_3a/relu_3x3_reduce"
  type: "ReLU"
  bottom: "inception_3a/3x3_reduce"
  top: "inception_3a/3x3_reduce"
}
layer {
  name: "inception_3a/3x3"
  type: "Convolution"
  bottom: "inception_3a/3x3_reduce"
  top: "inception_3a/3x3"
  param {
    lr_mult: 1
    decay_mult: 1
  }
  param {
    lr_mult: 2
    decay_mult: 0
  }
  convolution_param {
    num_output: 128
    pad: 1
    kernel_size: 3
    weight_filler {
      type: "xavier"
      std: 0.03
    }
    bias_filler {
      type: "constant"
      value: 0.2
    }
  }
}
layer {
  name: "inception_3a/relu_3x3"
  type: "ReLU"
  bottom: "inception_3a/3x3"
  top: "inception_3a/3x3"
}
layer {
  name: "inception_3a/5x5_reduce"
  type: "Convolution"
  bottom: "pool2/3x3_s2"
  top: "inception_3a/5x5_reduce"
  param {
    lr_mult: 1
    decay_mult: 1
  }
  param {
    lr_mult: 2
    decay_mult: 0
  }
  convolution_param {
    num_output: 16
    kernel_size: 1
    weight_filler {
      type: "xavier"
      std: 0.2
    }
    bias_filler {
      type: "constant"
      value: 0.2
    }
  }
}
layer {
  name: "inception_3a/relu_5x5_reduce"
  type: "ReLU"
  bottom: "inception_3a/5x5_reduce"
  top: "inception_3a/5x5_reduce"
}
layer {
  name: "inception_3a/5x5"
  type: "Convolution"
  bottom: "inception_3a/5x5_reduce"
  top: "inception_3a/5x5"
  param {
    lr_mult: 1
    decay_mult: 1
  }
  param {
    lr_mult: 2
    decay_mult: 0
  }
  convolution_param {
    num_output: 32
    pad: 2
    kernel_size: 5
    weight_filler {
      type: "xavier"
      std: 0.03
    }
    bias_filler {
      type: "constant"
      value: 0.2
    }
  }
}
layer {
  name: "inception_3a/relu_5x5"
  type: "ReLU"
  bottom: "inception_3a/5x5"
  top: "inception_3a/5x5"
}
layer {
  name: "inception_3a/pool"
  type: "Pooling"
  bottom: "pool2/3x3_s2"
  top: "inception_3a/pool"
  pooling_param {
    pool: MAX
    kernel_size: 3
    stride: 1
    pad: 1
  }
}
layer {
  name: "inception_3a/pool_proj"
  type: "Convolution"
  bottom: "inception_3a/pool"
  top: "inception_3a/pool_proj"
  param {
    lr_mult: 1
    decay_mult: 1
  }
  param {
    lr_mult: 2
    decay_mult: 0
  }
  convolution_param {
    num_output: 32
    kernel_size: 1
    weight_filler {
      type: "xavier"
      std: 0.1
    }
    bias_filler {
      type: "constant"
      value: 0.2
    }
  }
}
layer {
  name: "inception_3a/relu_pool_proj"
  type: "ReLU"
  bottom: "inception_3a/pool_proj"
  top: "inception_3a/pool_proj"
}
layer {
  name: "inception_3a/output"
  type: "Concat"
  bottom: "inception_3a/1x1"
  bottom: "inception_3a/3x3"
  bottom: "inception_3a/5x5"
  bottom: "inception_3a/pool_proj"
  top: "inception_3a/output"
}
layer {
  name: "inception_3b/1x1"
  type: "Convolution"
  bottom: "inception_3a/output"
  top: "inception_3b/1x1"
  param {
    lr_mult: 1
    decay_mult: 1
  }
  param {
    lr_mult: 2
    decay_mult: 0
  }
  convolution_param {
    num_output: 128
    kernel_size: 1
    weight_filler {
      type: "xavier"
      std: 0.03
    }
    bias_filler {
      type: "constant"
      value: 0.2
    }
  }
}
layer {
  name: "inception_3b/relu_1x1"
  type: "ReLU"
  bottom: "inception_3b/1x1"
  top: "inception_3b/1x1"
}
layer {
  name: "inception_3b/3x3_reduce"
  type: "Convolution"
  bottom: "inception_3a/output"
  top: "inception_3b/3x3_reduce"
  param {
    lr_mult: 1
    decay_mult: 1
  }
  param {
    lr_mult: 2
    decay_mult: 0
  }
  convolution_param {
    num_output: 128
    kernel_size: 1
    weight_filler {
      type: "xavier"
      std: 0.09
    }
    bias_filler {
      type: "constant"
      value: 0.2
    }
  }
}
layer {
  name: "inception_3b/relu_3x3_reduce"
  type: "ReLU"
  bottom: "inception_3b/3x3_reduce"
  top: "inception_3b/3x3_reduce"
}
layer {
  name: "inception_3b/3x3"
  type: "Convolution"
  bottom: "inception_3b/3x3_reduce"
  top: "inception_3b/3x3"
  param {
    lr_mult: 1
    decay_mult: 1
  }
  param {
    lr_mult: 2
    decay_mult: 0
  }
  convolution_param {
    num_output: 192
    pad: 1
    kernel_size: 3
    weight_filler {
      type: "xavier"
      std: 0.03
    }
    bias_filler {
      type: "constant"
      value: 0.2
    }
  }
}
layer {
  name: "inception_3b/relu_3x3"
  type: "ReLU"
  bottom: "inception_3b/3x3"
  top: "inception_3b/3x3"
}
layer {
  name: "inception_3b/5x5_reduce"
  type: "Convolution"
  bottom: "inception_3a/output"
  top: "inception_3b/5x5_reduce"
  param {
    lr_mult: 1
    decay_mult: 1
  }
  param {
    lr_mult: 2
    decay_mult: 0
  }
  convolution_param {
    num_output: 32
    kernel_size: 1
    weight_filler {
      type: "xavier"
      std: 0.2
    }
    bias_filler {
      type: "constant"
      value: 0.2
    }
  }
}
layer {
  name: "inception_3b/relu_5x5_reduce"
  type: "ReLU"
  bottom: "inception_3b/5x5_reduce"
  top: "inception_3b/5x5_reduce"
}
layer {
  name: "inception_3b/5x5"
  type: "Convolution"
  bottom: "inception_3b/5x5_reduce"
  top: "inception_3b/5x5"
  param {
    lr_mult: 1
    decay_mult: 1
  }
  param {
    lr_mult: 2
    decay_mult: 0
  }
  convolution_param {
    num_output: 96
    pad: 2
    kernel_size: 5
    weight_filler {
      type: "xavier"
      std: 0.03
    }
    bias_filler {
      type: "constant"
      value: 0.2
    }
  }
}
layer {
  name: "inception_3b/relu_5x5"
  type: "ReLU"
  bottom: "inception_3b/5x5"
  top: "inception_3b/5x5"
}
layer {
  name: "inception_3b/pool"
  type: "Pooling"
  bottom: "inception_3a/output"
  top: "inception_3b/pool"
  pooling_param {
    pool: MAX
    kernel_size: 3
    stride: 1
    pad: 1
  }
}
layer {
  name: "inception_3b/pool_proj"
  type: "Convolution"
  bottom: "inception_3b/pool"
  top: "inception_3b/pool_proj"
  param {
    lr_mult: 1
    decay_mult: 1
  }
  param {
    lr_mult: 2
    decay_mult: 0
  }
  convolution_param {
    num_output: 64
    kernel_size: 1
    weight_filler {
      type: "xavier"
      std: 0.1
    }
    bias_filler {
      type: "constant"
      value: 0.2
    }
  }
}
layer {
  name: "inception_3b/relu_pool_proj"
  type: "ReLU"
  bottom: "inception_3b/pool_proj"
  top: "inception_3b/pool_proj"
}
layer {
  name: "inception_3b/output"
  type: "Concat"
  bottom: "inception_3b/1x1"
  bottom: "inception_3b/3x3"
  bottom: "inception_3b/5x5"
  bottom: "inception_3b/pool_proj"
  top: "inception_3b/output"
}
layer {
  name: "pool3/3x3_s2"
  type: "Pooling"
  bottom: "inception_3b/output"
  top: "pool3/3x3_s2"
  pooling_param {
    pool: MAX
    kernel_size: 3
    stride: 2
  }
}
layer {
  name: "inception_4a/1x1"
  type: "Convolution"
  bottom: "pool3/3x3_s2"
  top: "inception_4a/1x1"
  param {
    lr_mult: 1
    decay_mult: 1
  }
  param {
    lr_mult: 2
    decay_mult: 0
  }
  convolution_param {
    num_output: 192
    kernel_size: 1
    weight_filler {
      type: "xavier"
      std: 0.03
    }
    bias_filler {
      type: "constant"
      value: 0.2
    }
  }
}
layer {
  name: "inception_4a/relu_1x1"
  type: "ReLU"
  bottom: "inception_4a/1x1"
  top: "inception_4a/1x1"
}
layer {
  name: "inception_4a/3x3_reduce"
  type: "Convolution"
  bottom: "pool3/3x3_s2"
  top: "inception_4a/3x3_reduce"
  param {
    lr_mult: 1
    decay_mult: 1
  }
  param {
    lr_mult: 2
    decay_mult: 0
  }
  convolution_param {
    num_output: 96
    kernel_size: 1
    weight_filler {
      type: "xavier"
      std: 0.09
    }
    bias_filler {
      type: "constant"
      value: 0.2
    }
  }
}
layer {
  name: "inception_4a/relu_3x3_reduce"
  type: "ReLU"
  bottom: "inception_4a/3x3_reduce"
  top: "inception_4a/3x3_reduce"
}
layer {
  name: "inception_4a/3x3"
  type: "Convolution"
  bottom: "inception_4a/3x3_reduce"
  top: "inception_4a/3x3"
  param {
    lr_mult: 1
    decay_mult: 1
  }
  param {
    lr_mult: 2
    decay_mult: 0
  }
  convolution_param {
    num_output: 208
    pad: 1
    kernel_size: 3
    weight_filler {
      type: "xavier"
      std: 0.03
    }
    bias_filler {
      type: "constant"
      value: 0.2
    }
  }
}
layer {
  name: "inception_4a/relu_3x3"
  type: "ReLU"
  bottom: "inception_4a/3x3"
  top: "inception_4a/3x3"
}
layer {
  name: "inception_4a/5x5_reduce"
  type: "Convolution"
  bottom: "pool3/3x3_s2"
  top: "inception_4a/5x5_reduce"
  param {
    lr_mult: 1
    decay_mult: 1
  }
  param {
    lr_mult: 2
    decay_mult: 0
  }
  convolution_param {
    num_output: 16
    kernel_size: 1
    weight_filler {
      type: "xavier"
      std: 0.2
    }
    bias_filler {
      type: "constant"
      value: 0.2
    }
  }
}
layer {
  name: "inception_4a/relu_5x5_reduce"
  type: "ReLU"
  bottom: "inception_4a/5x5_reduce"
  top: "inception_4a/5x5_reduce"
}
layer {
  name: "inception_4a/5x5"
  type: "Convolution"
  bottom: "inception_4a/5x5_reduce"
  top: "inception_4a/5x5"
  param {
    lr_mult: 1
    decay_mult: 1
  }
  param {
    lr_mult: 2
    decay_mult: 0
  }
  convolution_param {
    num_output: 48
    pad: 2
    kernel_size: 5
    weight_filler {
      type: "xavier"
      std: 0.03
    }
    bias_filler {
      type: "constant"
      value: 0.2
    }
  }
}
layer {
  name: "inception_4a/relu_5x5"
  type: "ReLU"
  bottom: "inception_4a/5x5"
  top: "inception_4a/5x5"
}
layer {
  name: "inception_4a/pool"
  type: "Pooling"
  bottom: "pool3/3x3_s2"
  top: "inception_4a/pool"
  pooling_param {
    pool: MAX
    kernel_size: 3
    stride: 1
    pad: 1
  }
}
layer {
  name: "inception_4a/pool_proj"
  type: "Convolution"
  bottom: "inception_4a/pool"
  top: "inception_4a/pool_proj"
  param {
    lr_mult: 1
    decay_mult: 1
  }
  param {
    lr_mult: 2
    decay_mult: 0
  }
  convolution_param {
    num_output: 64
    kernel_size: 1
    weight_filler {
      type: "xavier"
      std: 0.1
    }
    bias_filler {
      type: "constant"
      value: 0.2
    }
  }
}
layer {
  name: "inception_4a/relu_pool_proj"
  type: "ReLU"
  bottom: "inception_4a/pool_proj"
  top: "inception_4a/pool_proj"
}
layer {
  name: "inception_4a/output"
  type: "Concat"
  bottom: "inception_4a/1x1"
  bottom: "inception_4a/3x3"
  bottom: "inception_4a/5x5"
  bottom: "inception_4a/pool_proj"
  top: "inception_4a/output"
}
layer {
  name: "loss1/ave_pool"
  type: "Pooling"
  bottom: "inception_4a/output"
  top: "loss1/ave_pool"
  pooling_param {
    pool: AVE
    kernel_size: 5
    stride: 3
  }
}
layer {
  name: "loss1/conv"
  type: "Convolution"
  bottom: "loss1/ave_pool"
  top: "loss1/conv"
  param {
    lr_mult: 1
    decay_mult: 1
  }
  param {
    lr_mult: 2
    decay_mult: 0
  }
  convolution_param {
    num_output: 128
    kernel_size: 1
    weight_filler {
      type: "xavier"
      std: 0.08
    }
    bias_filler {
      type: "constant"
      value: 0.2
    }
  }
}
layer {
  name: "loss1/relu_conv"
  type: "ReLU"
  bottom: "loss1/conv"
  top: "loss1/conv"
}
layer {
  name: "loss1/fc"
  type: "InnerProduct"
  bottom: "loss1/conv"
  top: "loss1/fc"
  param {
    lr_mult: 1
    decay_mult: 1
  }
  param {
    lr_mult: 2
    decay_mult: 0
  }
  inner_product_param {
    num_output: 1024
    weight_filler {
      type: "xavier"
      std: 0.02
    }
    bias_filler {
      type: "constant"
      value: 0.2
    }
  }
}
layer {
  name: "loss1/relu_fc"
  type: "ReLU"
  bottom: "loss1/fc"
  top: "loss1/fc"
}
layer {
  name: "loss1/drop_fc"
  type: "Dropout"
  bottom: "loss1/fc"
  top: "loss1/fc"
  dropout_param {
    dropout_ratio: 0.7
  }
}
layer {
  name: "loss1/classifier_plantvillage"
  type: "InnerProduct"
  bottom: "loss1/fc"
  top: "loss1/classifier_plantvillage"
  param {
    lr_mult: 1
    decay_mult: 1
  }
  param {
    lr_mult: 2
    decay_mult: 0
  }
  inner_product_param {
    num_output: 38
    weight_filler {
      type: "xavier"
      std: 0.0009765625
    }
    bias_filler {
      type: "constant"
      value: 0
    }
  }
}
layer {
  name: "inception_4b/1x1"
  type: "Convolution"
  bottom: "inception_4a/output"
  top: "inception_4b/1x1"
  param {
    lr_mult: 1
    decay_mult: 1
  }
  param {
    lr_mult: 2
    decay_mult: 0
  }
  convolution_param {
    num_output: 160
    kernel_size: 1
    weight_filler {
      type: "xavier"
      std: 0.03
    }
    bias_filler {
      type: "constant"
      value: 0.2
    }
  }
}
layer {
  name: "inception_4b/relu_1x1"
  type: "ReLU"
  bottom: "inception_4b/1x1"
  top: "inception_4b/1x1"
}
layer {
  name: "inception_4b/3x3_reduce"
  type: "Convolution"
  bottom: "inception_4a/output"
  top: "inception_4b/3x3_reduce"
  param {
    lr_mult: 1
    decay_mult: 1
  }
  param {
    lr_mult: 2
    decay_mult: 0
  }
  convolution_param {
    num_output: 112
    kernel_size: 1
    weight_filler {
      type: "xavier"
      std: 0.09
    }
    bias_filler {
      type: "constant"
      value: 0.2
    }
  }
}
layer {
  name: "inception_4b/relu_3x3_reduce"
  type: "ReLU"
  bottom: "inception_4b/3x3_reduce"
  top: "inception_4b/3x3_reduce"
}
layer {
  name: "inception_4b/3x3"
  type: "Convolution"
  bottom: "inception_4b/3x3_reduce"
  top: "inception_4b/3x3"
  param {
    lr_mult: 1
    decay_mult: 1
  }
  param {
    lr_mult: 2
    decay_mult: 0
  }
  convolution_param {
    num_output: 224
    pad: 1
    kernel_size: 3
    weight_filler {
      type: "xavier"
      std: 0.03
    }
    bias_filler {
      type: "constant"
      value: 0.2
    }
  }
}
layer {
  name: "inception_4b/relu_3x3"
  type: "ReLU"
  bottom: "inception_4b/3x3"
  top: "inception_4b/3x3"
}
layer {
  name: "inception_4b/5x5_reduce"
  type: "Convolution"
  bottom: "inception_4a/output"
  top: "inception_4b/5x5_reduce"
  param {
    lr_mult: 1
    decay_mult: 1
  }
  param {
    lr_mult: 2
    decay_mult: 0
  }
  convolution_param {
    num_output: 24
    kernel_size: 1
    weight_filler {
      type: "xavier"
      std: 0.2
    }
    bias_filler {
      type: "constant"
      value: 0.2
    }
  }
}
layer {
  name: "inception_4b/relu_5x5_reduce"
  type: "ReLU"
  bottom: "inception_4b/5x5_reduce"
  top: "inception_4b/5x5_reduce"
}
layer {
  name: "inception_4b/5x5"
  type: "Convolution"
  bottom: "inception_4b/5x5_reduce"
  top: "inception_4b/5x5"
  param {
    lr_mult: 1
    decay_mult: 1
  }
  param {
    lr_mult: 2
    decay_mult: 0
  }
  convolution_param {
    num_output: 64
    pad: 2
    kernel_size: 5
    weight_filler {
      type: "xavier"
      std: 0.03
    }
    bias_filler {
      type: "constant"
      value: 0.2
    }
  }
}
layer {
  name: "inception_4b/relu_5x5"
  type: "ReLU"
  bottom: "inception_4b/5x5"
  top: "inception_4b/5x5"
}
layer {
  name: "inception_4b/pool"
  type: "Pooling"
  bottom: "inception_4a/output"
  top: "inception_4b/pool"
  pooling_param {
    pool: MAX
    kernel_size: 3
    stride: 1
    pad: 1
  }
}
layer {
  name: "inception_4b/pool_proj"
  type: "Convolution"
  bottom: "inception_4b/pool"
  top: "inception_4b/pool_proj"
  param {
    lr_mult: 1
    decay_mult: 1
  }
  param {
    lr_mult: 2
    decay_mult: 0
  }
  convolution_param {
    num_output: 64
    kernel_size: 1
    weight_filler {
      type: "xavier"
      std: 0.1
    }
    bias_filler {
      type: "constant"
      value: 0.2
    }
  }
}
layer {
  name: "inception_4b/relu_pool_proj"
  type: "ReLU"
  bottom: "inception_4b/pool_proj"
  top: "inception_4b/pool_proj"
}
layer {
  name: "inception_4b/output"
  type: "Concat"
  bottom: "inception_4b/1x1"
  bottom: "inception_4b/3x3"
  bottom: "inception_4b/5x5"
  bottom: "inception_4b/pool_proj"
  top: "inception_4b/output"
}
layer {
  name: "inception_4c/1x1"
  type: "Convolution"
  bottom: "inception_4b/output"
  top: "inception_4c/1x1"
  param {
    lr_mult: 1
    decay_mult: 1
  }
  param {
    lr_mult: 2
    decay_mult: 0
  }
  convolution_param {
    num_output: 128
    kernel_size: 1
    weight_filler {
      type: "xavier"
      std: 0.03
    }
    bias_filler {
      type: "constant"
      value: 0.2
    }
  }
}
layer {
  name: "inception_4c/relu_1x1"
  type: "ReLU"
  bottom: "inception_4c/1x1"
  top: "inception_4c/1x1"
}
layer {
  name: "inception_4c/3x3_reduce"
  type: "Convolution"
  bottom: "inception_4b/output"
  top: "inception_4c/3x3_reduce"
  param {
    lr_mult: 1
    decay_mult: 1
  }
  param {
    lr_mult: 2
    decay_mult: 0
  }
  convolution_param {
    num_output: 128
    kernel_size: 1
    weight_filler {
      type: "xavier"
      std: 0.09
    }
    bias_filler {
      type: "constant"
      value: 0.2
    }
  }
}
layer {
  name: "inception_4c/relu_3x3_reduce"
  type: "ReLU"
  bottom: "inception_4c/3x3_reduce"
  top: "inception_4c/3x3_reduce"
}
layer {
  name: "inception_4c/3x3"
  type: "Convolution"
  bottom: "inception_4c/3x3_reduce"
  top: "inception_4c/3x3"
  param {
    lr_mult: 1
    decay_mult: 1
  }
  param {
    lr_mult: 2
    decay_mult: 0
  }
  convolution_param {
    num_output: 256
    pad: 1
    kernel_size: 3
    weight_filler {
      type: "xavier"
      std: 0.03
    }
    bias_filler {
      type: "constant"
      value: 0.2
    }
  }
}
layer {
  name: "inception_4c/relu_3x3"
  type: "ReLU"
  bottom: "inception_4c/3x3"
  top: "inception_4c/3x3"
}
layer {
  name: "inception_4c/5x5_reduce"
  type: "Convolution"
  bottom: "inception_4b/output"
  top: "inception_4c/5x5_reduce"
  param {
    lr_mult: 1
    decay_mult: 1
  }
  param {
    lr_mult: 2
    decay_mult: 0
  }
  convolution_param {
    num_output: 24
    kernel_size: 1
    weight_filler {
      type: "xavier"
      std: 0.2
    }
    bias_filler {
      type: "constant"
      value: 0.2
    }
  }
}
layer {
  name: "inception_4c/relu_5x5_reduce"
  type: "ReLU"
  bottom: "inception_4c/5x5_reduce"
  top: "inception_4c/5x5_reduce"
}
layer {
  name: "inception_4c/5x5"
  type: "Convolution"
  bottom: "inception_4c/5x5_reduce"
  top: "inception_4c/5x5"
  param {
    lr_mult: 1
    decay_mult: 1
  }
  param {
    lr_mult: 2
    decay_mult: 0
  }
  convolution_param {
    num_output: 64
    pad: 2
    kernel_size: 5
    weight_filler {
      type: "xavier"
      std: 0.03
    }
    bias_filler {
      type: "constant"
      value: 0.2
    }
  }
}
layer {
  name: "inception_4c/relu_5x5"
  type: "ReLU"
  bottom: "inception_4c/5x5"
  top: "inception_4c/5x5"
}
layer {
  name: "inception_4c/pool"
  type: "Pooling"
  bottom: "inception_4b/output"
  top: "inception_4c/pool"
  pooling_param {
    pool: MAX
    kernel_size: 3
    stride: 1
    pad: 1
  }
}
layer {
  name: "inception_4c/pool_proj"
  type: "Convolution"
  bottom: "inception_4c/pool"
  top: "inception_4c/pool_proj"
  param {
    lr_mult: 1
    decay_mult: 1
  }
  param {
    lr_mult: 2
    decay_mult: 0
  }
  convolution_param {
    num_output: 64
    kernel_size: 1
    weight_filler {
      type: "xavier"
      std: 0.1
    }
    bias_filler {
      type: "constant"
      value: 0.2
    }
  }
}
layer {
  name: "inception_4c/relu_pool_proj"
  type: "ReLU"
  bottom: "inception_4c/pool_proj"
  top: "inception_4c/pool_proj"
}
layer {
  name: "inception_4c/output"
  type: "Concat"
  bottom: "inception_4c/1x1"
  bottom: "inception_4c/3x3"
  bottom: "inception_4c/5x5"
  bottom: "inception_4c/pool_proj"
  top: "inception_4c/output"
}
layer {
  name: "inception_4d/1x1"
  type: "Convolution"
  bottom: "inception_4c/output"
  top: "inception_4d/1x1"
  param {
    lr_mult: 1
    decay_mult: 1
  }
  param {
    lr_mult: 2
    decay_mult: 0
  }
  convolution_param {
    num_output: 112
    kernel_size: 1
    weight_filler {
      type: "xavier"
      std: 0.03
    }
    bias_filler {
      type: "constant"
      value: 0.2
    }
  }
}
layer {
  name: "inception_4d/relu_1x1"
  type: "ReLU"
  bottom: "inception_4d/1x1"
  top: "inception_4d/1x1"
}
layer {
  name: "inception_4d/3x3_reduce"
  type: "Convolution"
  bottom: "inception_4c/output"
  top: "inception_4d/3x3_reduce"
  param {
    lr_mult: 1
    decay_mult: 1
  }
  param {
    lr_mult: 2
    decay_mult: 0
  }
  convolution_param {
    num_output: 144
    kernel_size: 1
    weight_filler {
      type: "xavier"
      std: 0.09
    }
    bias_filler {
      type: "constant"
      value: 0.2
    }
  }
}
layer {
  name: "inception_4d/relu_3x3_reduce"
  type: "ReLU"
  bottom: "inception_4d/3x3_reduce"
  top: "inception_4d/3x3_reduce"
}
layer {
  name: "inception_4d/3x3"
  type: "Convolution"
  bottom: "inception_4d/3x3_reduce"
  top: "inception_4d/3x3"
  param {
    lr_mult: 1
    decay_mult: 1
  }
  param {
    lr_mult: 2
    decay_mult: 0
  }
  convolution_param {
    num_output: 288
    pad: 1
    kernel_size: 3
    weight_filler {
      type: "xavier"
      std: 0.03
    }
    bias_filler {
      type: "constant"
      value: 0.2
    }
  }
}
layer {
  name: "inception_4d/relu_3x3"
  type: "ReLU"
  bottom: "inception_4d/3x3"
  top: "inception_4d/3x3"
}
layer {
  name: "inception_4d/5x5_reduce"
  type: "Convolution"
  bottom: "inception_4c/output"
  top: "inception_4d/5x5_reduce"
  param {
    lr_mult: 1
    decay_mult: 1
  }
  param {
    lr_mult: 2
    decay_mult: 0
  }
  convolution_param {
    num_output: 32
    kernel_size: 1
    weight_filler {
      type: "xavier"
      std: 0.2
    }
    bias_filler {
      type: "constant"
      value: 0.2
    }
  }
}
layer {
  name: "inception_4d/relu_5x5_reduce"
  type: "ReLU"
  bottom: "inception_4d/5x5_reduce"
  top: "inception_4d/5x5_reduce"
}
layer {
  name: "inception_4d/5x5"
  type: "Convolution"
  bottom: "inception_4d/5x5_reduce"
  top: "inception_4d/5x5"
  param {
    lr_mult: 1
    decay_mult: 1
  }
  param {
    lr_mult: 2
    decay_mult: 0
  }
  convolution_param {
    num_output: 64
    pad: 2
    kernel_size: 5
    weight_filler {
      type: "xavier"
      std: 0.03
    }
    bias_filler {
      type: "constant"
      value: 0.2
    }
  }
}
layer {
  name: "inception_4d/relu_5x5"
  type: "ReLU"
  bottom: "inception_4d/5x5"
  top: "inception_4d/5x5"
}
layer {
  name: "inception_4d/pool"
  type: "Pooling"
  bottom: "inception_4c/output"
  top: "inception_4d/pool"
  pooling_param {
    pool: MAX
    kernel_size: 3
    stride: 1
    pad: 1
  }
}
layer {
  name: "inception_4d/pool_proj"
  type: "Convolution"
  bottom: "inception_4d/pool"
  top: "inception_4d/pool_proj"
  param {
    lr_mult: 1
    decay_mult: 1
  }
  param {
    lr_mult: 2
    decay_mult: 0
  }
  convolution_param {
    num_output: 64
    kernel_size: 1
    weight_filler {
      type: "xavier"
      std: 0.1
    }
    bias_filler {
      type: "constant"
      value: 0.2
    }
  }
}
layer {
  name: "inception_4d/relu_pool_proj"
  type: "ReLU"
  bottom: "inception_4d/pool_proj"
  top: "inception_4d/pool_proj"
}
layer {
  name: "inception_4d/output"
  type: "Concat"
  bottom: "inception_4d/1x1"
  bottom: "inception_4d/3x3"
  bottom: "inception_4d/5x5"
  bottom: "inception_4d/pool_proj"
  top: "inception_4d/output"
}
layer {
  name: "loss2/ave_pool"
  type: "Pooling"
  bottom: "inception_4d/output"
  top: "loss2/ave_pool"
  pooling_param {
    pool: AVE
    kernel_size: 5
    stride: 3
  }
}
layer {
  name: "loss2/conv"
  type: "Convolution"
  bottom: "loss2/ave_pool"
  top: "loss2/conv"
  param {
    lr_mult: 1
    decay_mult: 1
  }
  param {
    lr_mult: 2
    decay_mult: 0
  }
  convolution_param {
    num_output: 128
    kernel_size: 1
    weight_filler {
      type: "xavier"
      std: 0.08
    }
    bias_filler {
      type: "constant"
      value: 0.2
    }
  }
}
layer {
  name: "loss2/relu_conv"
  type: "ReLU"
  bottom: "loss2/conv"
  top: "loss2/conv"
}
layer {
  name: "loss2/fc"
  type: "InnerProduct"
  bottom: "loss2/conv"
  top: "loss2/fc"
  param {
    lr_mult: 1
    decay_mult: 1
  }
  param {
    lr_mult: 2
    decay_mult: 0
  }
  inner_product_param {
    num_output: 1024
    weight_filler {
      type: "xavier"
      std: 0.02
    }
    bias_filler {
      type: "constant"
      value: 0.2
    }
  }
}
layer {
  name: "loss2/relu_fc"
  type: "ReLU"
  bottom: "loss2/fc"
  top: "loss2/fc"
}
layer {
  name: "loss2/drop_fc"
  type: "Dropout"
  bottom: "loss2/fc"
  top: "loss2/fc"
  dropout_param {
    dropout_ratio: 0.7
  }
}
layer {
  name: "loss2/classifier_plantvillage"
  type: "InnerProduct"
  bottom: "loss2/fc"
  top: "loss2/classifier_plantvillage"
  param {
    lr_mult: 1
    decay_mult: 1
  }
  param {
    lr_mult: 2
    decay_mult: 0
  }
  inner_product_param {
    num_output: 38
    weight_filler {
      type: "xavier"
      std: 0.0009765625
    }
    bias_filler {
      type: "constant"
      value: 0
    }
  }
}
layer {
  name: "inception_4e/1x1"
  type: "Convolution"
  bottom: "inception_4d/output"
  top: "inception_4e/1x1"
  param {
    lr_mult: 1
    decay_mult: 1
  }
  param {
    lr_mult: 2
    decay_mult: 0
  }
  convolution_param {
    num_output: 256
    kernel_size: 1
    weight_filler {
      type: "xavier"
      std: 0.03
    }
    bias_filler {
      type: "constant"
      value: 0.2
    }
  }
}
layer {
  name: "inception_4e/relu_1x1"
  type: "ReLU"
  bottom: "inception_4e/1x1"
  top: "inception_4e/1x1"
}
layer {
  name: "inception_4e/3x3_reduce"
  type: "Convolution"
  bottom: "inception_4d/output"
  top: "inception_4e/3x3_reduce"
  param {
    lr_mult: 1
    decay_mult: 1
  }
  param {
    lr_mult: 2
    decay_mult: 0
  }
  convolution_param {
    num_output: 160
    kernel_size: 1
    weight_filler {
      type: "xavier"
      std: 0.09
    }
    bias_filler {
      type: "constant"
      value: 0.2
    }
  }
}
layer {
  name: "inception_4e/relu_3x3_reduce"
  type: "ReLU"
  bottom: "inception_4e/3x3_reduce"
  top: "inception_4e/3x3_reduce"
}
layer {
  name: "inception_4e/3x3"
  type: "Convolution"
  bottom: "inception_4e/3x3_reduce"
  top: "inception_4e/3x3"
  param {
    lr_mult: 1
    decay_mult: 1
  }
  param {
    lr_mult: 2
    decay_mult: 0
  }
  convolution_param {
    num_output: 320
    pad: 1
    kernel_size: 3
    weight_filler {
      type: "xavier"
      std: 0.03
    }
    bias_filler {
      type: "constant"
      value: 0.2
    }
  }
}
layer {
  name: "inception_4e/relu_3x3"
  type: "ReLU"
  bottom: "inception_4e/3x3"
  top: "inception_4e/3x3"
}
layer {
  name: "inception_4e/5x5_reduce"
  type: "Convolution"
  bottom: "inception_4d/output"
  top: "inception_4e/5x5_reduce"
  param {
    lr_mult: 1
    decay_mult: 1
  }
  param {
    lr_mult: 2
    decay_mult: 0
  }
  convolution_param {
    num_output: 32
    kernel_size: 1
    weight_filler {
      type: "xavier"
      std: 0.2
    }
    bias_filler {
      type: "constant"
      value: 0.2
    }
  }
}
layer {
  name: "inception_4e/relu_5x5_reduce"
  type: "ReLU"
  bottom: "inception_4e/5x5_reduce"
  top: "inception_4e/5x5_reduce"
}
layer {
  name: "inception_4e/5x5"
  type: "Convolution"
  bottom: "inception_4e/5x5_reduce"
  top: "inception_4e/
I0403 15:14:56.520560 12159 layer_factory.hpp:77] Creating layer data
I0403 15:14:56.521164 12159 net.cpp:91] Creating Layer data
I0403 15:14:56.521196 12159 net.cpp:399] data -> data
I0403 15:14:56.521247 12159 net.cpp:399] data -> label
I0403 15:14:56.521287 12159 data_transformer.cpp:25] Loading mean file from: /home/mohanty/data/final_dataset/lmdb/grayscale-60-40/mean.binaryproto
I0403 15:14:56.524056 12162 db_lmdb.cpp:38] Opened lmdb /home/mohanty/data/final_dataset/lmdb/grayscale-60-40/test_db
I0403 15:14:56.534644 12159 data_layer.cpp:41] output data size: 24,3,224,224
I0403 15:14:56.562206 12159 net.cpp:141] Setting up data
I0403 15:14:56.562295 12159 net.cpp:148] Top shape: 24 3 224 224 (3612672)
I0403 15:14:56.562319 12159 net.cpp:148] Top shape: 24 (24)
I0403 15:14:56.562336 12159 net.cpp:156] Memory required for data: 14450784
I0403 15:14:56.562364 12159 layer_factory.hpp:77] Creating layer label_data_1_split
I0403 15:14:56.562391 12159 net.cpp:91] Creating Layer label_data_1_split
I0403 15:14:56.562408 12159 net.cpp:425] label_data_1_split <- label
I0403 15:14:56.562439 12159 net.cpp:399] label_data_1_split -> label_data_1_split_0
I0403 15:14:56.562469 12159 net.cpp:399] label_data_1_split -> label_data_1_split_1
I0403 15:14:56.562491 12159 net.cpp:399] label_data_1_split -> label_data_1_split_2
I0403 15:14:56.562513 12159 net.cpp:399] label_data_1_split -> label_data_1_split_3
I0403 15:14:56.562535 12159 net.cpp:399] label_data_1_split -> label_data_1_split_4
I0403 15:14:56.562554 12159 net.cpp:399] label_data_1_split -> label_data_1_split_5
I0403 15:14:56.562574 12159 net.cpp:399] label_data_1_split -> label_data_1_split_6
I0403 15:14:56.562594 12159 net.cpp:399] label_data_1_split -> label_data_1_split_7
I0403 15:14:56.562616 12159 net.cpp:399] label_data_1_split -> label_data_1_split_8
I0403 15:14:56.562638 12159 net.cpp:399] label_data_1_split -> label_data_1_split_9
I0403 15:14:56.562760 12159 net.cpp:141] Setting up label_data_1_split
I0403 15:14:56.562785 12159 net.cpp:148] Top shape: 24 (24)
I0403 15:14:56.562803 12159 net.cpp:148] Top shape: 24 (24)
I0403 15:14:56.562819 12159 net.cpp:148] Top shape: 24 (24)
I0403 15:14:56.562834 12159 net.cpp:148] Top shape: 24 (24)
I0403 15:14:56.562850 12159 net.cpp:148] Top shape: 24 (24)
I0403 15:14:56.562866 12159 net.cpp:148] Top shape: 24 (24)
I0403 15:14:56.562882 12159 net.cpp:148] Top shape: 24 (24)
I0403 15:14:56.562898 12159 net.cpp:148] Top shape: 24 (24)
I0403 15:14:56.562914 12159 net.cpp:148] Top shape: 24 (24)
I0403 15:14:56.562929 12159 net.cpp:148] Top shape: 24 (24)
I0403 15:14:56.562975 12159 net.cpp:156] Memory required for data: 14451744
I0403 15:14:56.562993 12159 layer_factory.hpp:77] Creating layer conv1/7x7_s2
I0403 15:14:56.563024 12159 net.cpp:91] Creating Layer conv1/7x7_s2
I0403 15:14:56.563043 12159 net.cpp:425] conv1/7x7_s2 <- data
I0403 15:14:56.563063 12159 net.cpp:399] conv1/7x7_s2 -> conv1/7x7_s2
I0403 15:14:56.703225 12159 net.cpp:141] Setting up conv1/7x7_s2
I0403 15:14:56.703315 12159 net.cpp:148] Top shape: 24 64 112 112 (19267584)
I0403 15:14:56.703332 12159 net.cpp:156] Memory required for data: 91522080
I0403 15:14:56.703364 12159 layer_factory.hpp:77] Creating layer conv1/relu_7x7
I0403 15:14:56.703392 12159 net.cpp:91] Creating Layer conv1/relu_7x7
I0403 15:14:56.703413 12159 net.cpp:425] conv1/relu_7x7 <- conv1/7x7_s2
I0403 15:14:56.703431 12159 net.cpp:386] conv1/relu_7x7 -> conv1/7x7_s2 (in-place)
I0403 15:14:56.703696 12159 net.cpp:141] Setting up conv1/relu_7x7
I0403 15:14:56.703723 12159 net.cpp:148] Top shape: 24 64 112 112 (19267584)
I0403 15:14:56.703740 12159 net.cpp:156] Memory required for data: 168592416
I0403 15:14:56.703757 12159 layer_factory.hpp:77] Creating layer pool1/3x3_s2
I0403 15:14:56.703781 12159 net.cpp:91] Creating Layer pool1/3x3_s2
I0403 15:14:56.703801 12159 net.cpp:425] pool1/3x3_s2 <- conv1/7x7_s2
I0403 15:14:56.703820 12159 net.cpp:399] pool1/3x3_s2 -> pool1/3x3_s2
I0403 15:14:56.703896 12159 net.cpp:141] Setting up pool1/3x3_s2
I0403 15:14:56.703920 12159 net.cpp:148] Top shape: 24 64 56 56 (4816896)
I0403 15:14:56.703938 12159 net.cpp:156] Memory required for data: 187860000
I0403 15:14:56.703953 12159 layer_factory.hpp:77] Creating layer pool1/norm1
I0403 15:14:56.703979 12159 net.cpp:91] Creating Layer pool1/norm1
I0403 15:14:56.703996 12159 net.cpp:425] pool1/norm1 <- pool1/3x3_s2
I0403 15:14:56.704015 12159 net.cpp:399] pool1/norm1 -> pool1/norm1
I0403 15:14:56.704324 12159 net.cpp:141] Setting up pool1/norm1
I0403 15:14:56.704354 12159 net.cpp:148] Top shape: 24 64 56 56 (4816896)
I0403 15:14:56.704375 12159 net.cpp:156] Memory required for data: 207127584
I0403 15:14:56.704392 12159 layer_factory.hpp:77] Creating layer conv2/3x3_reduce
I0403 15:14:56.704417 12159 net.cpp:91] Creating Layer conv2/3x3_reduce
I0403 15:14:56.704445 12159 net.cpp:425] conv2/3x3_reduce <- pool1/norm1
I0403 15:14:56.704464 12159 net.cpp:399] conv2/3x3_reduce -> conv2/3x3_reduce
I0403 15:14:56.705762 12159 net.cpp:141] Setting up conv2/3x3_reduce
I0403 15:14:56.705795 12159 net.cpp:148] Top shape: 24 64 56 56 (4816896)
I0403 15:14:56.705811 12159 net.cpp:156] Memory required for data: 226395168
I0403 15:14:56.705848 12159 layer_factory.hpp:77] Creating layer conv2/relu_3x3_reduce
I0403 15:14:56.705871 12159 net.cpp:91] Creating Layer conv2/relu_3x3_reduce
I0403 15:14:56.705888 12159 net.cpp:425] conv2/relu_3x3_reduce <- conv2/3x3_reduce
I0403 15:14:56.705906 12159 net.cpp:386] conv2/relu_3x3_reduce -> conv2/3x3_reduce (in-place)
I0403 15:14:56.706195 12159 net.cpp:141] Setting up conv2/relu_3x3_reduce
I0403 15:14:56.706224 12159 net.cpp:148] Top shape: 24 64 56 56 (4816896)
I0403 15:14:56.706240 12159 net.cpp:156] Memory required for data: 245662752
I0403 15:14:56.706255 12159 layer_factory.hpp:77] Creating layer conv2/3x3
I0403 15:14:56.706279 12159 net.cpp:91] Creating Layer conv2/3x3
I0403 15:14:56.706296 12159 net.cpp:425] conv2/3x3 <- conv2/3x3_reduce
I0403 15:14:56.706315 12159 net.cpp:399] conv2/3x3 -> conv2/3x3
I0403 15:14:56.708525 12159 net.cpp:141] Setting up conv2/3x3
I0403 15:14:56.708556 12159 net.cpp:148] Top shape: 24 192 56 56 (14450688)
I0403 15:14:56.708573 12159 net.cpp:156] Memory required for data: 303465504
I0403 15:14:56.708595 12159 layer_factory.hpp:77] Creating layer conv2/relu_3x3
I0403 15:14:56.708613 12159 net.cpp:91] Creating Layer conv2/relu_3x3
I0403 15:14:56.708628 12159 net.cpp:425] conv2/relu_3x3 <- conv2/3x3
I0403 15:14:56.708655 12159 net.cpp:386] conv2/relu_3x3 -> conv2/3x3 (in-place)
I0403 15:14:56.708824 12159 net.cpp:141] Setting up conv2/relu_3x3
I0403 15:14:56.708850 12159 net.cpp:148] Top shape: 24 192 56 56 (14450688)
I0403 15:14:56.708897 12159 net.cpp:156] Memory required for data: 361268256
I0403 15:14:56.708914 12159 layer_factory.hpp:77] Creating layer conv2/norm2
I0403 15:14:56.708935 12159 net.cpp:91] Creating Layer conv2/norm2
I0403 15:14:56.708953 12159 net.cpp:425] conv2/norm2 <- conv2/3x3
I0403 15:14:56.708971 12159 net.cpp:399] conv2/norm2 -> conv2/norm2
I0403 15:14:56.709275 12159 net.cpp:141] Setting up conv2/norm2
I0403 15:14:56.709303 12159 net.cpp:148] Top shape: 24 192 56 56 (14450688)
I0403 15:14:56.709321 12159 net.cpp:156] Memory required for data: 419071008
I0403 15:14:56.709338 12159 layer_factory.hpp:77] Creating layer pool2/3x3_s2
I0403 15:14:56.709365 12159 net.cpp:91] Creating Layer pool2/3x3_s2
I0403 15:14:56.709388 12159 net.cpp:425] pool2/3x3_s2 <- conv2/norm2
I0403 15:14:56.709406 12159 net.cpp:399] pool2/3x3_s2 -> pool2/3x3_s2
I0403 15:14:56.709462 12159 net.cpp:141] Setting up pool2/3x3_s2
I0403 15:14:56.709487 12159 net.cpp:148] Top shape: 24 192 28 28 (3612672)
I0403 15:14:56.709502 12159 net.cpp:156] Memory required for data: 433521696
I0403 15:14:56.709518 12159 layer_factory.hpp:77] Creating layer pool2/3x3_s2_pool2/3x3_s2_0_split
I0403 15:14:56.709537 12159 net.cpp:91] Creating Layer pool2/3x3_s2_pool2/3x3_s2_0_split
I0403 15:14:56.709553 12159 net.cpp:425] pool2/3x3_s2_pool2/3x3_s2_0_split <- pool2/3x3_s2
I0403 15:14:56.709571 12159 net.cpp:399] pool2/3x3_s2_pool2/3x3_s2_0_split -> pool2/3x3_s2_pool2/3x3_s2_0_split_0
I0403 15:14:56.709592 12159 net.cpp:399] pool2/3x3_s2_pool2/3x3_s2_0_split -> pool2/3x3_s2_pool2/3x3_s2_0_split_1
I0403 15:14:56.709614 12159 net.cpp:399] pool2/3x3_s2_pool2/3x3_s2_0_split -> pool2/3x3_s2_pool2/3x3_s2_0_split_2
I0403 15:14:56.709633 12159 net.cpp:399] pool2/3x3_s2_pool2/3x3_s2_0_split -> pool2/3x3_s2_pool2/3x3_s2_0_split_3
I0403 15:14:56.709705 12159 net.cpp:141] Setting up pool2/3x3_s2_pool2/3x3_s2_0_split
I0403 15:14:56.709729 12159 net.cpp:148] Top shape: 24 192 28 28 (3612672)
I0403 15:14:56.709745 12159 net.cpp:148] Top shape: 24 192 28 28 (3612672)
I0403 15:14:56.709760 12159 net.cpp:148] Top shape: 24 192 28 28 (3612672)
I0403 15:14:56.709776 12159 net.cpp:148] Top shape: 24 192 28 28 (3612672)
I0403 15:14:56.709790 12159 net.cpp:156] Memory required for data: 491324448
I0403 15:14:56.709805 12159 layer_factory.hpp:77] Creating layer inception_3a/1x1
I0403 15:14:56.709828 12159 net.cpp:91] Creating Layer inception_3a/1x1
I0403 15:14:56.709846 12159 net.cpp:425] inception_3a/1x1 <- pool2/3x3_s2_pool2/3x3_s2_0_split_0
I0403 15:14:56.709867 12159 net.cpp:399] inception_3a/1x1 -> inception_3a/1x1
I0403 15:14:56.711447 12159 net.cpp:141] Setting up inception_3a/1x1
I0403 15:14:56.711480 12159 net.cpp:148] Top shape: 24 64 28 28 (1204224)
I0403 15:14:56.711498 12159 net.cpp:156] Memory required for data: 496141344
I0403 15:14:56.711518 12159 layer_factory.hpp:77] Creating layer inception_3a/relu_1x1
I0403 15:14:56.711536 12159 net.cpp:91] Creating Layer inception_3a/relu_1x1
I0403 15:14:56.711552 12159 net.cpp:425] inception_3a/relu_1x1 <- inception_3a/1x1
I0403 15:14:56.711570 12159 net.cpp:386] inception_3a/relu_1x1 -> inception_3a/1x1 (in-place)
I0403 15:14:56.711743 12159 net.cpp:141] Setting up inception_3a/relu_1x1
I0403 15:14:56.711772 12159 net.cpp:148] Top shape: 24 64 28 28 (1204224)
I0403 15:14:56.711788 12159 net.cpp:156] Memory required for data: 500958240
I0403 15:14:56.711804 12159 layer_factory.hpp:77] Creating layer inception_3a/3x3_reduce
I0403 15:14:56.711827 12159 net.cpp:91] Creating Layer inception_3a/3x3_reduce
I0403 15:14:56.711845 12159 net.cpp:425] inception_3a/3x3_reduce <- pool2/3x3_s2_pool2/3x3_s2_0_split_1
I0403 15:14:56.711866 12159 net.cpp:399] inception_3a/3x3_reduce -> inception_3a/3x3_reduce
I0403 15:14:56.713583 12159 net.cpp:141] Setting up inception_3a/3x3_reduce
I0403 15:14:56.713614 12159 net.cpp:148] Top shape: 24 96 28 28 (1806336)
I0403 15:14:56.713630 12159 net.cpp:156] Memory required for data: 508183584
I0403 15:14:56.713655 12159 layer_factory.hpp:77] Creating layer inception_3a/relu_3x3_reduce
I0403 15:14:56.713691 12159 net.cpp:91] Creating Layer inception_3a/relu_3x3_reduce
I0403 15:14:56.713711 12159 net.cpp:425] inception_3a/relu_3x3_reduce <- inception_3a/3x3_reduce
I0403 15:14:56.713733 12159 net.cpp:386] inception_3a/relu_3x3_reduce -> inception_3a/3x3_reduce (in-place)
I0403 15:14:56.713913 12159 net.cpp:141] Setting up inception_3a/relu_3x3_reduce
I0403 15:14:56.713940 12159 net.cpp:148] Top shape: 24 96 28 28 (1806336)
I0403 15:14:56.713955 12159 net.cpp:156] Memory required for data: 515408928
I0403 15:14:56.713970 12159 layer_factory.hpp:77] Creating layer inception_3a/3x3
I0403 15:14:56.713994 12159 net.cpp:91] Creating Layer inception_3a/3x3
I0403 15:14:56.714012 12159 net.cpp:425] inception_3a/3x3 <- inception_3a/3x3_reduce
I0403 15:14:56.714031 12159 net.cpp:399] inception_3a/3x3 -> inception_3a/3x3
I0403 15:14:56.715682 12159 net.cpp:141] Setting up inception_3a/3x3
I0403 15:14:56.715713 12159 net.cpp:148] Top shape: 24 128 28 28 (2408448)
I0403 15:14:56.715730 12159 net.cpp:156] Memory required for data: 525042720
I0403 15:14:56.715749 12159 layer_factory.hpp:77] Creating layer inception_3a/relu_3x3
I0403 15:14:56.715766 12159 net.cpp:91] Creating Layer inception_3a/relu_3x3
I0403 15:14:56.715783 12159 net.cpp:425] inception_3a/relu_3x3 <- inception_3a/3x3
I0403 15:14:56.715802 12159 net.cpp:386] inception_3a/relu_3x3 -> inception_3a/3x3 (in-place)
I0403 15:14:56.716073 12159 net.cpp:141] Setting up inception_3a/relu_3x3
I0403 15:14:56.716104 12159 net.cpp:148] Top shape: 24 128 28 28 (2408448)
I0403 15:14:56.716120 12159 net.cpp:156] Memory required for data: 534676512
I0403 15:14:56.716140 12159 layer_factory.hpp:77] Creating layer inception_3a/5x5_reduce
I0403 15:14:56.716163 12159 net.cpp:91] Creating Layer inception_3a/5x5_reduce
I0403 15:14:56.716181 12159 net.cpp:425] inception_3a/5x5_reduce <- pool2/3x3_s2_pool2/3x3_s2_0_split_2
I0403 15:14:56.716207 12159 net.cpp:399] inception_3a/5x5_reduce -> inception_3a/5x5_reduce
I0403 15:14:56.717197 12159 net.cpp:141] Setting up inception_3a/5x5_reduce
I0403 15:14:56.717227 12159 net.cpp:148] Top shape: 24 16 28 28 (301056)
I0403 15:14:56.717243 12159 net.cpp:156] Memory required for data: 535880736
I0403 15:14:56.717262 12159 layer_factory.hpp:77] Creating layer inception_3a/relu_5x5_reduce
I0403 15:14:56.717281 12159 net.cpp:91] Creating Layer inception_3a/relu_5x5_reduce
I0403 15:14:56.717298 12159 net.cpp:425] inception_3a/relu_5x5_reduce <- inception_3a/5x5_reduce
I0403 15:14:56.717319 12159 net.cpp:386] inception_3a/relu_5x5_reduce -> inception_3a/5x5_reduce (in-place)
I0403 15:14:56.717628 12159 net.cpp:141] Setting up inception_3a/relu_5x5_reduce
I0403 15:14:56.717654 12159 net.cpp:148] Top shape: 24 16 28 28 (301056)
I0403 15:14:56.717670 12159 net.cpp:156] Memory required for data: 537084960
I0403 15:14:56.717686 12159 layer_factory.hpp:77] Creating layer inception_3a/5x5
I0403 15:14:56.717710 12159 net.cpp:91] Creating Layer inception_3a/5x5
I0403 15:14:56.717728 12159 net.cpp:425] inception_3a/5x5 <- inception_3a/5x5_reduce
I0403 15:14:56.717749 12159 net.cpp:399] inception_3a/5x5 -> inception_3a/5x5
I0403 15:14:56.718796 12159 net.cpp:141] Setting up inception_3a/5x5
I0403 15:14:56.718828 12159 net.cpp:148] Top shape: 24 32 28 28 (602112)
I0403 15:14:56.718847 12159 net.cpp:156] Memory required for data: 539493408
I0403 15:14:56.718866 12159 layer_factory.hpp:77] Creating layer inception_3a/relu_5x5
I0403 15:14:56.718884 12159 net.cpp:91] Creating Layer inception_3a/relu_5x5
I0403 15:14:56.718902 12159 net.cpp:425] inception_3a/relu_5x5 <- inception_3a/5x5
I0403 15:14:56.718920 12159 net.cpp:386] inception_3a/relu_5x5 -> inception_3a/5x5 (in-place)
I0403 15:14:56.719094 12159 net.cpp:141] Setting up inception_3a/relu_5x5
I0403 15:14:56.719120 12159 net.cpp:148] Top shape: 24 32 28 28 (602112)
I0403 15:14:56.719141 12159 net.cpp:156] Memory required for data: 541901856
I0403 15:14:56.719156 12159 layer_factory.hpp:77] Creating layer inception_3a/pool
I0403 15:14:56.719173 12159 net.cpp:91] Creating Layer inception_3a/pool
I0403 15:14:56.719203 12159 net.cpp:425] inception_3a/pool <- pool2/3x3_s2_pool2/3x3_s2_0_split_3
I0403 15:14:56.719225 12159 net.cpp:399] inception_3a/pool -> inception_3a/pool
I0403 15:14:56.719286 12159 net.cpp:141] Setting up inception_3a/pool
I0403 15:14:56.719313 12159 net.cpp:148] Top shape: 24 192 28 28 (3612672)
I0403 15:14:56.719331 12159 net.cpp:156] Memory required for data: 556352544
I0403 15:14:56.719346 12159 layer_factory.hpp:77] Creating layer inception_3a/pool_proj
I0403 15:14:56.719369 12159 net.cpp:91] Creating Layer inception_3a/pool_proj
I0403 15:14:56.719388 12159 net.cpp:425] inception_3a/pool_proj <- inception_3a/pool
I0403 15:14:56.719408 12159 net.cpp:399] inception_3a/pool_proj -> inception_3a/pool_proj
I0403 15:14:56.720368 12159 net.cpp:141] Setting up inception_3a/pool_proj
I0403 15:14:56.720397 12159 net.cpp:148] Top shape: 24 32 28 28 (602112)
I0403 15:14:56.720414 12159 net.cpp:156] Memory required for data: 558760992
I0403 15:14:56.720439 12159 layer_factory.hpp:77] Creating layer inception_3a/relu_pool_proj
I0403 15:14:56.720459 12159 net.cpp:91] Creating Layer inception_3a/relu_pool_proj
I0403 15:14:56.720476 12159 net.cpp:425] inception_3a/relu_pool_proj <- inception_3a/pool_proj
I0403 15:14:56.720495 12159 net.cpp:386] inception_3a/relu_pool_proj -> inception_3a/pool_proj (in-place)
I0403 15:14:56.720768 12159 net.cpp:141] Setting up inception_3a/relu_pool_proj
I0403 15:14:56.720799 12159 net.cpp:148] Top shape: 24 32 28 28 (602112)
I0403 15:14:56.720814 12159 net.cpp:156] Memory required for data: 561169440
I0403 15:14:56.720829 12159 layer_factory.hpp:77] Creating layer inception_3a/output
I0403 15:14:56.720849 12159 net.cpp:91] Creating Layer inception_3a/output
I0403 15:14:56.720865 12159 net.cpp:425] inception_3a/output <- inception_3a/1x1
I0403 15:14:56.720880 12159 net.cpp:425] inception_3a/output <- inception_3a/3x3
I0403 15:14:56.720897 12159 net.cpp:425] inception_3a/output <- inception_3a/5x5
I0403 15:14:56.720912 12159 net.cpp:425] inception_3a/output <- inception_3a/pool_proj
I0403 15:14:56.720930 12159 net.cpp:399] inception_3a/output -> inception_3a/output
I0403 15:14:56.720979 12159 net.cpp:141] Setting up inception_3a/output
I0403 15:14:56.721004 12159 net.cpp:148] Top shape: 24 256 28 28 (4816896)
I0403 15:14:56.721019 12159 net.cpp:156] Memory required for data: 580437024
I0403 15:14:56.721034 12159 layer_factory.hpp:77] Creating layer inception_3a/output_inception_3a/output_0_split
I0403 15:14:56.721052 12159 net.cpp:91] Creating Layer inception_3a/output_inception_3a/output_0_split
I0403 15:14:56.721070 12159 net.cpp:425] inception_3a/output_inception_3a/output_0_split <- inception_3a/output
I0403 15:14:56.721086 12159 net.cpp:399] inception_3a/output_inception_3a/output_0_split -> inception_3a/output_inception_3a/output_0_split_0
I0403 15:14:56.721107 12159 net.cpp:399] inception_3a/output_inception_3a/output_0_split -> inception_3a/output_inception_3a/output_0_split_1
I0403 15:14:56.721138 12159 net.cpp:399] inception_3a/output_inception_3a/output_0_split -> inception_3a/output_inception_3a/output_0_split_2
I0403 15:14:56.721161 12159 net.cpp:399] inception_3a/output_inception_3a/output_0_split -> inception_3a/output_inception_3a/output_0_split_3
I0403 15:14:56.721236 12159 net.cpp:141] Setting up inception_3a/output_inception_3a/output_0_split
I0403 15:14:56.721261 12159 net.cpp:148] Top shape: 24 256 28 28 (4816896)
I0403 15:14:56.721277 12159 net.cpp:148] Top shape: 24 256 28 28 (4816896)
I0403 15:14:56.721292 12159 net.cpp:148] Top shape: 24 256 28 28 (4816896)
I0403 15:14:56.721307 12159 net.cpp:148] Top shape: 24 256 28 28 (4816896)
I0403 15:14:56.721321 12159 net.cpp:156] Memory required for data: 657507360
I0403 15:14:56.721335 12159 layer_factory.hpp:77] Creating layer inception_3b/1x1
I0403 15:14:56.721359 12159 net.cpp:91] Creating Layer inception_3b/1x1
I0403 15:14:56.721377 12159 net.cpp:425] inception_3b/1x1 <- inception_3a/output_inception_3a/output_0_split_0
I0403 15:14:56.721396 12159 net.cpp:399] inception_3b/1x1 -> inception_3b/1x1
I0403 15:14:56.722520 12159 net.cpp:141] Setting up inception_3b/1x1
I0403 15:14:56.722561 12159 net.cpp:148] Top shape: 24 128 28 28 (2408448)
I0403 15:14:56.722578 12159 net.cpp:156] Memory required for data: 667141152
I0403 15:14:56.722596 12159 layer_factory.hpp:77] Creating layer inception_3b/relu_1x1
I0403 15:14:56.722617 12159 net.cpp:91] Creating Layer inception_3b/relu_1x1
I0403 15:14:56.722635 12159 net.cpp:425] inception_3b/relu_1x1 <- inception_3b/1x1
I0403 15:14:56.722652 12159 net.cpp:386] inception_3b/relu_1x1 -> inception_3b/1x1 (in-place)
I0403 15:14:56.722831 12159 net.cpp:141] Setting up inception_3b/relu_1x1
I0403 15:14:56.722858 12159 net.cpp:148] Top shape: 24 128 28 28 (2408448)
I0403 15:14:56.722873 12159 net.cpp:156] Memory required for data: 676774944
I0403 15:14:56.722890 12159 layer_factory.hpp:77] Creating layer inception_3b/3x3_reduce
I0403 15:14:56.722913 12159 net.cpp:91] Creating Layer inception_3b/3x3_reduce
I0403 15:14:56.722931 12159 net.cpp:425] inception_3b/3x3_reduce <- inception_3a/output_inception_3a/output_0_split_1
I0403 15:14:56.722952 12159 net.cpp:399] inception_3b/3x3_reduce -> inception_3b/3x3_reduce
I0403 15:14:56.724081 12159 net.cpp:141] Setting up inception_3b/3x3_reduce
I0403 15:14:56.724110 12159 net.cpp:148] Top shape: 24 128 28 28 (2408448)
I0403 15:14:56.724145 12159 net.cpp:156] Memory required for data: 686408736
I0403 15:14:56.724169 12159 layer_factory.hpp:77] Creating layer inception_3b/relu_3x3_reduce
I0403 15:14:56.724202 12159 net.cpp:91] Creating Layer inception_3b/relu_3x3_reduce
I0403 15:14:56.724220 12159 net.cpp:425] inception_3b/relu_3x3_reduce <- inception_3b/3x3_reduce
I0403 15:14:56.724237 12159 net.cpp:386] inception_3b/relu_3x3_reduce -> inception_3b/3x3_reduce (in-place)
I0403 15:14:56.724413 12159 net.cpp:141] Setting up inception_3b/relu_3x3_reduce
I0403 15:14:56.724442 12159 net.cpp:148] Top shape: 24 128 28 28 (2408448)
I0403 15:14:56.724460 12159 net.cpp:156] Memory required for data: 696042528
I0403 15:14:56.724483 12159 layer_factory.hpp:77] Creating layer inception_3b/3x3
I0403 15:14:56.724508 12159 net.cpp:91] Creating Layer inception_3b/3x3
I0403 15:14:56.724527 12159 net.cpp:425] inception_3b/3x3 <- inception_3b/3x3_reduce
I0403 15:14:56.724550 12159 net.cpp:399] inception_3b/3x3 -> inception_3b/3x3
I0403 15:14:56.727522 12159 net.cpp:141] Setting up inception_3b/3x3
I0403 15:14:56.727555 12159 net.cpp:148] Top shape: 24 192 28 28 (3612672)
I0403 15:14:56.727573 12159 net.cpp:156] Memory required for data: 710493216
I0403 15:14:56.727592 12159 layer_factory.hpp:77] Creating layer inception_3b/relu_3x3
I0403 15:14:56.727612 12159 net.cpp:91] Creating Layer inception_3b/relu_3x3
I0403 15:14:56.727630 12159 net.cpp:425] inception_3b/relu_3x3 <- inception_3b/3x3
I0403 15:14:56.727650 12159 net.cpp:386] inception_3b/relu_3x3 -> inception_3b/3x3 (in-place)
I0403 15:14:56.727939 12159 net.cpp:141] Setting up inception_3b/relu_3x3
I0403 15:14:56.727970 12159 net.cpp:148] Top shape: 24 192 28 28 (3612672)
I0403 15:14:56.727987 12159 net.cpp:156] Memory required for data: 724943904
I0403 15:14:56.728003 12159 layer_factory.hpp:77] Creating layer inception_3b/5x5_reduce
I0403 15:14:56.728025 12159 net.cpp:91] Creating Layer inception_3b/5x5_reduce
I0403 15:14:56.728044 12159 net.cpp:425] inception_3b/5x5_reduce <- inception_3a/output_inception_3a/output_0_split_2
I0403 15:14:56.728067 12159 net.cpp:399] inception_3b/5x5_reduce -> inception_3b/5x5_reduce
I0403 15:14:56.729099 12159 net.cpp:141] Setting up inception_3b/5x5_reduce
I0403 15:14:56.729135 12159 net.cpp:148] Top shape: 24 32 28 28 (602112)
I0403 15:14:56.729154 12159 net.cpp:156] Memory required for data: 727352352
I0403 15:14:56.729174 12159 layer_factory.hpp:77] Creating layer inception_3b/relu_5x5_reduce
I0403 15:14:56.729195 12159 net.cpp:91] Creating Layer inception_3b/relu_5x5_reduce
I0403 15:14:56.729213 12159 net.cpp:425] inception_3b/relu_5x5_reduce <- inception_3b/5x5_reduce
I0403 15:14:56.729233 12159 net.cpp:386] inception_3b/relu_5x5_reduce -> inception_3b/5x5_reduce (in-place)
I0403 15:14:56.729436 12159 net.cpp:141] Setting up inception_3b/relu_5x5_reduce
I0403 15:14:56.729463 12159 net.cpp:148] Top shape: 24 32 28 28 (602112)
I0403 15:14:56.729480 12159 net.cpp:156] Memory required for data: 729760800
I0403 15:14:56.729496 12159 layer_factory.hpp:77] Creating layer inception_3b/5x5
I0403 15:14:56.729518 12159 net.cpp:91] Creating Layer inception_3b/5x5
I0403 15:14:56.729537 12159 net.cpp:425] inception_3b/5x5 <- inception_3b/5x5_reduce
I0403 15:14:56.729558 12159 net.cpp:399] inception_3b/5x5 -> inception_3b/5x5
I0403 15:14:56.731566 12159 net.cpp:141] Setting up inception_3b/5x5
I0403 15:14:56.731597 12159 net.cpp:148] Top shape: 24 96 28 28 (1806336)
I0403 15:14:56.731614 12159 net.cpp:156] Memory required for data: 736986144
I0403 15:14:56.731633 12159 layer_factory.hpp:77] Creating layer inception_3b/relu_5x5
I0403 15:14:56.731654 12159 net.cpp:91] Creating Layer inception_3b/relu_5x5
I0403 15:14:56.731673 12159 net.cpp:425] inception_3b/relu_5x5 <- inception_3b/5x5
I0403 15:14:56.731691 12159 net.cpp:386] inception_3b/relu_5x5 -> inception_3b/5x5 (in-place)
I0403 15:14:56.731889 12159 net.cpp:141] Setting up inception_3b/relu_5x5
I0403 15:14:56.731916 12159 net.cpp:148] Top shape: 24 96 28 28 (1806336)
I0403 15:14:56.731932 12159 net.cpp:156] Memory required for data: 744211488
I0403 15:14:56.731948 12159 layer_factory.hpp:77] Creating layer inception_3b/pool
I0403 15:14:56.731966 12159 net.cpp:91] Creating Layer inception_3b/pool
I0403 15:14:56.731983 12159 net.cpp:425] inception_3b/pool <- inception_3a/output_inception_3a/output_0_split_3
I0403 15:14:56.732002 12159 net.cpp:399] inception_3b/pool -> inception_3b/pool
I0403 15:14:56.732059 12159 net.cpp:141] Setting up inception_3b/pool
I0403 15:14:56.732085 12159 net.cpp:148] Top shape: 24 256 28 28 (4816896)
I0403 15:14:56.732101 12159 net.cpp:156] Memory required for data: 763479072
I0403 15:14:56.732117 12159 layer_factory.hpp:77] Creating layer inception_3b/pool_proj
I0403 15:14:56.732146 12159 net.cpp:91] Creating Layer inception_3b/pool_proj
I0403 15:14:56.732164 12159 net.cpp:425] inception_3b/pool_proj <- inception_3b/pool
I0403 15:14:56.732185 12159 net.cpp:399] inception_3b/pool_proj -> inception_3b/pool_proj
I0403 15:14:56.733283 12159 net.cpp:141] Setting up inception_3b/pool_proj
I0403 15:14:56.733314 12159 net.cpp:148] Top shape: 24 64 28 28 (1204224)
I0403 15:14:56.733331 12159 net.cpp:156] Memory required for data: 768295968
I0403 15:14:56.733350 12159 layer_factory.hpp:77] Creating layer inception_3b/relu_pool_proj
I0403 15:14:56.733372 12159 net.cpp:91] Creating Layer inception_3b/relu_pool_proj
I0403 15:14:56.733391 12159 net.cpp:425] inception_3b/relu_pool_proj <- inception_3b/pool_proj
I0403 15:14:56.733408 12159 net.cpp:386] inception_3b/relu_pool_proj -> inception_3b/pool_proj (in-place)
I0403 15:14:56.733810 12159 net.cpp:141] Setting up inception_3b/relu_pool_proj
I0403 15:14:56.733839 12159 net.cpp:148] Top shape: 24 64 28 28 (1204224)
I0403 15:14:56.733855 12159 net.cpp:156] Memory required for data: 773112864
I0403 15:14:56.733871 12159 layer_factory.hpp:77] Creating layer inception_3b/output
I0403 15:14:56.733889 12159 net.cpp:91] Creating Layer inception_3b/output
I0403 15:14:56.733906 12159 net.cpp:425] inception_3b/output <- inception_3b/1x1
I0403 15:14:56.733923 12159 net.cpp:425] inception_3b/output <- inception_3b/3x3
I0403 15:14:56.733940 12159 net.cpp:425] inception_3b/output <- inception_3b/5x5
I0403 15:14:56.733957 12159 net.cpp:425] inception_3b/output <- inception_3b/pool_proj
I0403 15:14:56.733976 12159 net.cpp:399] inception_3b/output -> inception_3b/output
I0403 15:14:56.734024 12159 net.cpp:141] Setting up inception_3b/output
I0403 15:14:56.734050 12159 net.cpp:148] Top shape: 24 480 28 28 (9031680)
I0403 15:14:56.734066 12159 net.cpp:156] Memory required for data: 809239584
I0403 15:14:56.734082 12159 layer_factory.hpp:77] Creating layer pool3/3x3_s2
I0403 15:14:56.734100 12159 net.cpp:91] Creating Layer pool3/3x3_s2
I0403 15:14:56.734117 12159 net.cpp:425] pool3/3x3_s2 <- inception_3b/output
I0403 15:14:56.734158 12159 net.cpp:399] pool3/3x3_s2 -> pool3/3x3_s2
I0403 15:14:56.734221 12159 net.cpp:141] Setting up pool3/3x3_s2
I0403 15:14:56.734246 12159 net.cpp:148] Top shape: 24 480 14 14 (2257920)
I0403 15:14:56.734262 12159 net.cpp:156] Memory required for data: 818271264
I0403 15:14:56.734277 12159 layer_factory.hpp:77] Creating layer pool3/3x3_s2_pool3/3x3_s2_0_split
I0403 15:14:56.734295 12159 net.cpp:91] Creating Layer pool3/3x3_s2_pool3/3x3_s2_0_split
I0403 15:14:56.734313 12159 net.cpp:425] pool3/3x3_s2_pool3/3x3_s2_0_split <- pool3/3x3_s2
I0403 15:14:56.734333 12159 net.cpp:399] pool3/3x3_s2_pool3/3x3_s2_0_split -> pool3/3x3_s2_pool3/3x3_s2_0_split_0
I0403 15:14:56.734354 12159 net.cpp:399] pool3/3x3_s2_pool3/3x3_s2_0_split -> pool3/3x3_s2_pool3/3x3_s2_0_split_1
I0403 15:14:56.734375 12159 net.cpp:399] pool3/3x3_s2_pool3/3x3_s2_0_split -> pool3/3x3_s2_pool3/3x3_s2_0_split_2
I0403 15:14:56.734398 12159 net.cpp:399] pool3/3x3_s2_pool3/3x3_s2_0_split -> pool3/3x3_s2_pool3/3x3_s2_0_split_3
I0403 15:14:56.734477 12159 net.cpp:141] Setting up pool3/3x3_s2_pool3/3x3_s2_0_split
I0403 15:14:56.734503 12159 net.cpp:148] Top shape: 24 480 14 14 (2257920)
I0403 15:14:56.734519 12159 net.cpp:148] Top shape: 24 480 14 14 (2257920)
I0403 15:14:56.734536 12159 net.cpp:148] Top shape: 24 480 14 14 (2257920)
I0403 15:14:56.734551 12159 net.cpp:148] Top shape: 24 480 14 14 (2257920)
I0403 15:14:56.734566 12159 net.cpp:156] Memory required for data: 854397984
I0403 15:14:56.734581 12159 layer_factory.hpp:77] Creating layer inception_4a/1x1
I0403 15:14:56.734604 12159 net.cpp:91] Creating Layer inception_4a/1x1
I0403 15:14:56.734623 12159 net.cpp:425] inception_4a/1x1 <- pool3/3x3_s2_pool3/3x3_s2_0_split_0
I0403 15:14:56.734645 12159 net.cpp:399] inception_4a/1x1 -> inception_4a/1x1
I0403 15:14:56.736284 12159 net.cpp:141] Setting up inception_4a/1x1
I0403 15:14:56.736312 12159 net.cpp:148] Top shape: 24 192 14 14 (903168)
I0403 15:14:56.736330 12159 net.cpp:156] Memory required for data: 858010656
I0403 15:14:56.736348 12159 layer_factory.hpp:77] Creating layer inception_4a/relu_1x1
I0403 15:14:56.736374 12159 net.cpp:91] Creating Layer inception_4a/relu_1x1
I0403 15:14:56.736392 12159 net.cpp:425] inception_4a/relu_1x1 <- inception_4a/1x1
I0403 15:14:56.736409 12159 net.cpp:386] inception_4a/relu_1x1 -> inception_4a/1x1 (in-place)
I0403 15:14:56.736584 12159 net.cpp:141] Setting up inception_4a/relu_1x1
I0403 15:14:56.736611 12159 net.cpp:148] Top shape: 24 192 14 14 (903168)
I0403 15:14:56.736626 12159 net.cpp:156] Memory required for data: 861623328
I0403 15:14:56.736651 12159 layer_factory.hpp:77] Creating layer inception_4a/3x3_reduce
I0403 15:14:56.736676 12159 net.cpp:91] Creating Layer inception_4a/3x3_reduce
I0403 15:14:56.736696 12159 net.cpp:425] inception_4a/3x3_reduce <- pool3/3x3_s2_pool3/3x3_s2_0_split_1
I0403 15:14:56.736714 12159 net.cpp:399] inception_4a/3x3_reduce -> inception_4a/3x3_reduce
I0403 15:14:56.737977 12159 net.cpp:141] Setting up inception_4a/3x3_reduce
I0403 15:14:56.738008 12159 net.cpp:148] Top shape: 24 96 14 14 (451584)
I0403 15:14:56.738023 12159 net.cpp:156] Memory required for data: 863429664
I0403 15:14:56.738049 12159 layer_factory.hpp:77] Creating layer inception_4a/relu_3x3_reduce
I0403 15:14:56.738070 12159 net.cpp:91] Creating Layer inception_4a/relu_3x3_reduce
I0403 15:14:56.738098 12159 net.cpp:425] inception_4a/relu_3x3_reduce <- inception_4a/3x3_reduce
I0403 15:14:56.738119 12159 net.cpp:386] inception_4a/relu_3x3_reduce -> inception_4a/3x3_reduce (in-place)
I0403 15:14:56.738308 12159 net.cpp:141] Setting up inception_4a/relu_3x3_reduce
I0403 15:14:56.738337 12159 net.cpp:148] Top shape: 24 96 14 14 (451584)
I0403 15:14:56.738351 12159 net.cpp:156] Memory required for data: 865236000
I0403 15:14:56.738365 12159 layer_factory.hpp:77] Creating layer inception_4a/3x3
I0403 15:14:56.738399 12159 net.cpp:91] Creating Layer inception_4a/3x3
I0403 15:14:56.738420 12159 net.cpp:425] inception_4a/3x3 <- inception_4a/3x3_reduce
I0403 15:14:56.738440 12159 net.cpp:399] inception_4a/3x3 -> inception_4a/3x3
I0403 15:14:56.741096 12159 net.cpp:141] Setting up inception_4a/3x3
I0403 15:14:56.741129 12159 net.cpp:148] Top shape: 24 208 14 14 (978432)
I0403 15:14:56.741152 12159 net.cpp:156] Memory required for data: 869149728
I0403 15:14:56.741170 12159 layer_factory.hpp:77] Creating layer inception_4a/relu_3x3
I0403 15:14:56.741190 12159 net.cpp:91] Creating Layer inception_4a/relu_3x3
I0403 15:14:56.741206 12159 net.cpp:425] inception_4a/relu_3x3 <- inception_4a/3x3
I0403 15:14:56.741225 12159 net.cpp:386] inception_4a/relu_3x3 -> inception_4a/3x3 (in-place)
I0403 15:14:56.741503 12159 net.cpp:141] Setting up inception_4a/relu_3x3
I0403 15:14:56.741530 12159 net.cpp:148] Top shape: 24 208 14 14 (978432)
I0403 15:14:56.741549 12159 net.cpp:156] Memory required for data: 873063456
I0403 15:14:56.741565 12159 layer_factory.hpp:77] Creating layer inception_4a/5x5_reduce
I0403 15:14:56.741586 12159 net.cpp:91] Creating Layer inception_4a/5x5_reduce
I0403 15:14:56.741602 12159 net.cpp:425] inception_4a/5x5_reduce <- pool3/3x3_s2_pool3/3x3_s2_0_split_2
I0403 15:14:56.741626 12159 net.cpp:399] inception_4a/5x5_reduce -> inception_4a/5x5_reduce
I0403 15:14:56.742642 12159 net.cpp:141] Setting up inception_4a/5x5_reduce
I0403 15:14:56.742673 12159 net.cpp:148] Top shape: 24 16 14 14 (75264)
I0403 15:14:56.742691 12159 net.cpp:156] Memory required for data: 873364512
I0403 15:14:56.742709 12159 layer_factory.hpp:77] Creating layer inception_4a/relu_5x5_reduce
I0403 15:14:56.742727 12159 net.cpp:91] Creating Layer inception_4a/relu_5x5_reduce
I0403 15:14:56.742744 12159 net.cpp:425] inception_4a/relu_5x5_reduce <- inception_4a/5x5_reduce
I0403 15:14:56.742763 12159 net.cpp:386] inception_4a/relu_5x5_reduce -> inception_4a/5x5_reduce (in-place)
I0403 15:14:56.742964 12159 net.cpp:141] Setting up inception_4a/relu_5x5_reduce
I0403 15:14:56.742988 12159 net.cpp:148] Top shape: 24 16 14 14 (75264)
I0403 15:14:56.743005 12159 net.cpp:156] Memory required for data: 873665568
I0403 15:14:56.743026 12159 layer_factory.hpp:77] Creating layer inception_4a/5x5
I0403 15:14:56.743047 12159 net.cpp:91] Creating Layer inception_4a/5x5
I0403 15:14:56.743065 12159 net.cpp:425] inception_4a/5x5 <- inception_4a/5x5_reduce
I0403 15:14:56.743086 12159 net.cpp:399] inception_4a/5x5 -> inception_4a/5x5
I0403 15:14:56.744156 12159 net.cpp:141] Setting up inception_4a/5x5
I0403 15:14:56.744184 12159 net.cpp:148] Top shape: 24 48 14 14 (225792)
I0403 15:14:56.744201 12159 net.cpp:156] Memory required for data: 874568736
I0403 15:14:56.744220 12159 layer_factory.hpp:77] Creating layer inception_4a/relu_5x5
I0403 15:14:56.744237 12159 net.cpp:91] Creating Layer inception_4a/relu_5x5
I0403 15:14:56.744252 12159 net.cpp:425] inception_4a/relu_5x5 <- inception_4a/5x5
I0403 15:14:56.744271 12159 net.cpp:386] inception_4a/relu_5x5 -> inception_4a/5x5 (in-place)
I0403 15:14:56.744442 12159 net.cpp:141] Setting up inception_4a/relu_5x5
I0403 15:14:56.744467 12159 net.cpp:148] Top shape: 24 48 14 14 (225792)
I0403 15:14:56.744482 12159 net.cpp:156] Memory required for data: 875471904
I0403 15:14:56.744498 12159 layer_factory.hpp:77] Creating layer inception_4a/pool
I0403 15:14:56.744516 12159 net.cpp:91] Creating Layer inception_4a/pool
I0403 15:14:56.744534 12159 net.cpp:425] inception_4a/pool <- pool3/3x3_s2_pool3/3x3_s2_0_split_3
I0403 15:14:56.744550 12159 net.cpp:399] inception_4a/pool -> inception_4a/pool
I0403 15:14:56.744611 12159 net.cpp:141] Setting up inception_4a/pool
I0403 15:14:56.744634 12159 net.cpp:148] Top shape: 24 480 14 14 (2257920)
I0403 15:14:56.744649 12159 net.cpp:156] Memory required for data: 884503584
I0403 15:14:56.744663 12159 layer_factory.hpp:77] Creating layer inception_4a/pool_proj
I0403 15:14:56.744684 12159 net.cpp:91] Creating Layer inception_4a/pool_proj
I0403 15:14:56.744704 12159 net.cpp:425] inception_4a/pool_proj <- inception_4a/pool
I0403 15:14:56.744724 12159 net.cpp:399] inception_4a/pool_proj -> inception_4a/pool_proj
I0403 15:14:56.745862 12159 net.cpp:141] Setting up inception_4a/pool_proj
I0403 15:14:56.745889 12159 net.cpp:148] Top shape: 24 64 14 14 (301056)
I0403 15:14:56.745921 12159 net.cpp:156] Memory required for data: 885707808
I0403 15:14:56.745941 12159 layer_factory.hpp:77] Creating layer inception_4a/relu_pool_proj
I0403 15:14:56.745962 12159 net.cpp:91] Creating Layer inception_4a/relu_pool_proj
I0403 15:14:56.745980 12159 net.cpp:425] inception_4a/relu_pool_proj <- inception_4a/pool_proj
I0403 15:14:56.745997 12159 net.cpp:386] inception_4a/relu_pool_proj -> inception_4a/pool_proj (in-place)
I0403 15:14:56.746274 12159 net.cpp:141] Setting up inception_4a/relu_pool_proj
I0403 15:14:56.746301 12159 net.cpp:148] Top shape: 24 64 14 14 (301056)
I0403 15:14:56.746317 12159 net.cpp:156] Memory required for data: 886912032
I0403 15:14:56.746332 12159 layer_factory.hpp:77] Creating layer inception_4a/output
I0403 15:14:56.746350 12159 net.cpp:91] Creating Layer inception_4a/output
I0403 15:14:56.746364 12159 net.cpp:425] inception_4a/output <- inception_4a/1x1
I0403 15:14:56.746381 12159 net.cpp:425] inception_4a/output <- inception_4a/3x3
I0403 15:14:56.746397 12159 net.cpp:425] inception_4a/output <- inception_4a/5x5
I0403 15:14:56.746413 12159 net.cpp:425] inception_4a/output <- inception_4a/pool_proj
I0403 15:14:56.746433 12159 net.cpp:399] inception_4a/output -> inception_4a/output
I0403 15:14:56.746479 12159 net.cpp:141] Setting up inception_4a/output
I0403 15:14:56.746503 12159 net.cpp:148] Top shape: 24 512 14 14 (2408448)
I0403 15:14:56.746518 12159 net.cpp:156] Memory required for data: 896545824
I0403 15:14:56.746533 12159 layer_factory.hpp:77] Creating layer inception_4a/output_inception_4a/output_0_split
I0403 15:14:56.746551 12159 net.cpp:91] Creating Layer inception_4a/output_inception_4a/output_0_split
I0403 15:14:56.746567 12159 net.cpp:425] inception_4a/output_inception_4a/output_0_split <- inception_4a/output
I0403 15:14:56.746587 12159 net.cpp:399] inception_4a/output_inception_4a/output_0_split -> inception_4a/output_inception_4a/output_0_split_0
I0403 15:14:56.746609 12159 net.cpp:399] inception_4a/output_inception_4a/output_0_split -> inception_4a/output_inception_4a/output_0_split_1
I0403 15:14:56.746629 12159 net.cpp:399] inception_4a/output_inception_4a/output_0_split -> inception_4a/output_inception_4a/output_0_split_2
I0403 15:14:56.746650 12159 net.cpp:399] inception_4a/output_inception_4a/output_0_split -> inception_4a/output_inception_4a/output_0_split_3
I0403 15:14:56.746670 12159 net.cpp:399] inception_4a/output_inception_4a/output_0_split -> inception_4a/output_inception_4a/output_0_split_4
I0403 15:14:56.746758 12159 net.cpp:141] Setting up inception_4a/output_inception_4a/output_0_split
I0403 15:14:56.746784 12159 net.cpp:148] Top shape: 24 512 14 14 (2408448)
I0403 15:14:56.746801 12159 net.cpp:148] Top shape: 24 512 14 14 (2408448)
I0403 15:14:56.746816 12159 net.cpp:148] Top shape: 24 512 14 14 (2408448)
I0403 15:14:56.746832 12159 net.cpp:148] Top shape: 24 512 14 14 (2408448)
I0403 15:14:56.746847 12159 net.cpp:148] Top shape: 24 512 14 14 (2408448)
I0403 15:14:56.746860 12159 net.cpp:156] Memory required for data: 944714784
I0403 15:14:56.746875 12159 layer_factory.hpp:77] Creating layer loss1/ave_pool
I0403 15:14:56.746891 12159 net.cpp:91] Creating Layer loss1/ave_pool
I0403 15:14:56.746907 12159 net.cpp:425] loss1/ave_pool <- inception_4a/output_inception_4a/output_0_split_0
I0403 15:14:56.746927 12159 net.cpp:399] loss1/ave_pool -> loss1/ave_pool
I0403 15:14:56.747130 12159 net.cpp:141] Setting up loss1/ave_pool
I0403 15:14:56.747156 12159 net.cpp:148] Top shape: 24 512 4 4 (196608)
I0403 15:14:56.747172 12159 net.cpp:156] Memory required for data: 945501216
I0403 15:14:56.747185 12159 layer_factory.hpp:77] Creating layer loss1/conv
I0403 15:14:56.747208 12159 net.cpp:91] Creating Layer loss1/conv
I0403 15:14:56.747225 12159 net.cpp:425] loss1/conv <- loss1/ave_pool
I0403 15:14:56.747246 12159 net.cpp:399] loss1/conv -> loss1/conv
I0403 15:14:56.748602 12159 net.cpp:141] Setting up loss1/conv
I0403 15:14:56.748634 12159 net.cpp:148] Top shape: 24 128 4 4 (49152)
I0403 15:14:56.748667 12159 net.cpp:156] Memory required for data: 945697824
I0403 15:14:56.748687 12159 layer_factory.hpp:77] Creating layer loss1/relu_conv
I0403 15:14:56.748705 12159 net.cpp:91] Creating Layer loss1/relu_conv
I0403 15:14:56.748721 12159 net.cpp:425] loss1/relu_conv <- loss1/conv
I0403 15:14:56.748739 12159 net.cpp:386] loss1/relu_conv -> loss1/conv (in-place)
I0403 15:14:56.749007 12159 net.cpp:141] Setting up loss1/relu_conv
I0403 15:14:56.749035 12159 net.cpp:148] Top shape: 24 128 4 4 (49152)
I0403 15:14:56.749053 12159 net.cpp:156] Memory required for data: 945894432
I0403 15:14:56.749066 12159 layer_factory.hpp:77] Creating layer loss1/fc
I0403 15:14:56.749089 12159 net.cpp:91] Creating Layer loss1/fc
I0403 15:14:56.749106 12159 net.cpp:425] loss1/fc <- loss1/conv
I0403 15:14:56.749131 12159 net.cpp:399] loss1/fc -> loss1/fc
I0403 15:14:56.766381 12159 net.cpp:141] Setting up loss1/fc
I0403 15:14:56.766417 12159 net.cpp:148] Top shape: 24 1024 (24576)
I0403 15:14:56.766433 12159 net.cpp:156] Memory required for data: 945992736
I0403 15:14:56.766451 12159 layer_factory.hpp:77] Creating layer loss1/relu_fc
I0403 15:14:56.766472 12159 net.cpp:91] Creating Layer loss1/relu_fc
I0403 15:14:56.766490 12159 net.cpp:425] loss1/relu_fc <- loss1/fc
I0403 15:14:56.766510 12159 net.cpp:386] loss1/relu_fc -> loss1/fc (in-place)
I0403 15:14:56.766690 12159 net.cpp:141] Setting up loss1/relu_fc
I0403 15:14:56.766716 12159 net.cpp:148] Top shape: 24 1024 (24576)
I0403 15:14:56.766731 12159 net.cpp:156] Memory required for data: 946091040
I0403 15:14:56.766746 12159 layer_factory.hpp:77] Creating layer loss1/drop_fc
I0403 15:14:56.766773 12159 net.cpp:91] Creating Layer loss1/drop_fc
I0403 15:14:56.766791 12159 net.cpp:425] loss1/drop_fc <- loss1/fc
I0403 15:14:56.766809 12159 net.cpp:386] loss1/drop_fc -> loss1/fc (in-place)
I0403 15:14:56.766861 12159 net.cpp:141] Setting up loss1/drop_fc
I0403 15:14:56.766885 12159 net.cpp:148] Top shape: 24 1024 (24576)
I0403 15:14:56.766899 12159 net.cpp:156] Memory required for data: 946189344
I0403 15:14:56.766916 12159 layer_factory.hpp:77] Creating layer loss1/classifier_plantvillage
I0403 15:14:56.766933 12159 net.cpp:91] Creating Layer loss1/classifier_plantvillage
I0403 15:14:56.766949 12159 net.cpp:425] loss1/classifier_plantvillage <- loss1/fc
I0403 15:14:56.766971 12159 net.cpp:399] loss1/classifier_plantvillage -> loss1/classifier_plantvillage
I0403 15:14:56.767848 12159 net.cpp:141] Setting up loss1/classifier_plantvillage
I0403 15:14:56.767879 12159 net.cpp:148] Top shape: 24 38 (912)
I0403 15:14:56.767895 12159 net.cpp:156] Memory required for data: 946192992
I0403 15:14:56.767915 12159 layer_factory.hpp:77] Creating layer loss1/classifier_plantvillage_loss1/classifier_plantvillage_0_split
I0403 15:14:56.767932 12159 net.cpp:91] Creating Layer loss1/classifier_plantvillage_loss1/classifier_plantvillage_0_split
I0403 15:14:56.767947 12159 net.cpp:425] loss1/classifier_plantvillage_loss1/classifier_plantvillage_0_split <- loss1/classifier_plantvillage
I0403 15:14:56.767964 12159 net.cpp:399] loss1/classifier_plantvillage_loss1/classifier_plantvillage_0_split -> loss1/classifier_plantvillage_loss1/classifier_plantvillage_0_split_0
I0403 15:14:56.767984 12159 net.cpp:399] loss1/classifier_plantvillage_loss1/classifier_plantvillage_0_split -> loss1/classifier_plantvillage_loss1/classifier_plantvillage_0_split_1
I0403 15:14:56.768005 12159 net.cpp:399] loss1/classifier_plantvillage_loss1/classifier_plantvillage_0_split -> loss1/classifier_plantvillage_loss1/classifier_plantvillage_0_split_2
I0403 15:14:56.768072 12159 net.cpp:141] Setting up loss1/classifier_plantvillage_loss1/classifier_plantvillage_0_split
I0403 15:14:56.768096 12159 net.cpp:148] Top shape: 24 38 (912)
I0403 15:14:56.768111 12159 net.cpp:148] Top shape: 24 38 (912)
I0403 15:14:56.768131 12159 net.cpp:148] Top shape: 24 38 (912)
I0403 15:14:56.768146 12159 net.cpp:156] Memory required for data: 946203936
I0403 15:14:56.768160 12159 layer_factory.hpp:77] Creating layer inception_4b/1x1
I0403 15:14:56.768180 12159 net.cpp:91] Creating Layer inception_4b/1x1
I0403 15:14:56.768213 12159 net.cpp:425] inception_4b/1x1 <- inception_4a/output_inception_4a/output_0_split_1
I0403 15:14:56.768236 12159 net.cpp:399] inception_4b/1x1 -> inception_4b/1x1
I0403 15:14:56.769830 12159 net.cpp:141] Setting up inception_4b/1x1
I0403 15:14:56.769861 12159 net.cpp:148] Top shape: 24 160 14 14 (752640)
I0403 15:14:56.769877 12159 net.cpp:156] Memory required for data: 949214496
I0403 15:14:56.769896 12159 layer_factory.hpp:77] Creating layer inception_4b/relu_1x1
I0403 15:14:56.769913 12159 net.cpp:91] Creating Layer inception_4b/relu_1x1
I0403 15:14:56.769929 12159 net.cpp:425] inception_4b/relu_1x1 <- inception_4b/1x1
I0403 15:14:56.769945 12159 net.cpp:386] inception_4b/relu_1x1 -> inception_4b/1x1 (in-place)
I0403 15:14:56.770120 12159 net.cpp:141] Setting up inception_4b/relu_1x1
I0403 15:14:56.770149 12159 net.cpp:148] Top shape: 24 160 14 14 (752640)
I0403 15:14:56.770164 12159 net.cpp:156] Memory required for data: 952225056
I0403 15:14:56.770179 12159 layer_factory.hpp:77] Creating layer inception_4b/3x3_reduce
I0403 15:14:56.770202 12159 net.cpp:91] Creating Layer inception_4b/3x3_reduce
I0403 15:14:56.770220 12159 net.cpp:425] inception_4b/3x3_reduce <- inception_4a/output_inception_4a/output_0_split_2
I0403 15:14:56.770241 12159 net.cpp:399] inception_4b/3x3_reduce -> inception_4b/3x3_reduce
I0403 15:14:56.771553 12159 net.cpp:141] Setting up inception_4b/3x3_reduce
I0403 15:14:56.771584 12159 net.cpp:148] Top shape: 24 112 14 14 (526848)
I0403 15:14:56.771601 12159 net.cpp:156] Memory required for data: 954332448
I0403 15:14:56.771621 12159 layer_factory.hpp:77] Creating layer inception_4b/relu_3x3_reduce
I0403 15:14:56.771639 12159 net.cpp:91] Creating Layer inception_4b/relu_3x3_reduce
I0403 15:14:56.771656 12159 net.cpp:425] inception_4b/relu_3x3_reduce <- inception_4b/3x3_reduce
I0403 15:14:56.771675 12159 net.cpp:386] inception_4b/relu_3x3_reduce -> inception_4b/3x3_reduce (in-place)
I0403 15:14:56.771946 12159 net.cpp:141] Setting up inception_4b/relu_3x3_reduce
I0403 15:14:56.771975 12159 net.cpp:148] Top shape: 24 112 14 14 (526848)
I0403 15:14:56.771992 12159 net.cpp:156] Memory required for data: 956439840
I0403 15:14:56.772007 12159 layer_factory.hpp:77] Creating layer inception_4b/3x3
I0403 15:14:56.772028 12159 net.cpp:91] Creating Layer inception_4b/3x3
I0403 15:14:56.772045 12159 net.cpp:425] inception_4b/3x3 <- inception_4b/3x3_reduce
I0403 15:14:56.772068 12159 net.cpp:399] inception_4b/3x3 -> inception_4b/3x3
I0403 15:14:56.775013 12159 net.cpp:141] Setting up inception_4b/3x3
I0403 15:14:56.775043 12159 net.cpp:148] Top shape: 24 224 14 14 (1053696)
I0403 15:14:56.775061 12159 net.cpp:156] Memory required for data: 960654624
I0403 15:14:56.775079 12159 layer_factory.hpp:77] Creating layer inception_4b/relu_3x3
I0403 15:14:56.775100 12159 net.cpp:91] Creating Layer inception_4b/relu_3x3
I0403 15:14:56.775117 12159 net.cpp:425] inception_4b/relu_3x3 <- inception_4b/3x3
I0403 15:14:56.775141 12159 net.cpp:386] inception_4b/relu_3x3 -> inception_4b/3x3 (in-place)
I0403 15:14:56.775321 12159 net.cpp:141] Setting up inception_4b/relu_3x3
I0403 15:14:56.775349 12159 net.cpp:148] Top shape: 24 224 14 14 (1053696)
I0403 15:14:56.775365 12159 net.cpp:156] Memory required for data: 964869408
I0403 15:14:56.775380 12159 layer_factory.hpp:77] Creating layer inception_4b/5x5_reduce
I0403 15:14:56.775403 12159 net.cpp:91] Creating Layer inception_4b/5x5_reduce
I0403 15:14:56.775420 12159 net.cpp:425] inception_4b/5x5_reduce <- inception_4a/output_inception_4a/output_0_split_3
I0403 15:14:56.775439 12159 net.cpp:399] inception_4b/5x5_reduce -> inception_4b/5x5_reduce
I0403 15:14:56.776515 12159 net.cpp:141] Setting up inception_4b/5x5_reduce
I0403 15:14:56.776547 12159 net.cpp:148] Top shape: 24 24 14 14 (112896)
I0403 15:14:56.776566 12159 net.cpp:156] Memory required for data: 965320992
I0403 15:14:56.776583 12159 layer_factory.hpp:77] Creating layer inception_4b/relu_5x5_reduce
I0403 15:14:56.776603 12159 net.cpp:91] Creating Layer inception_4b/relu_5x5_reduce
I0403 15:14:56.776634 12159 net.cpp:425] inception_4b/relu_5x5_reduce <- inception_4b/5x5_reduce
I0403 15:14:56.776659 12159 net.cpp:386] inception_4b/relu_5x5_reduce -> inception_4b/5x5_reduce (in-place)
I0403 15:14:56.776841 12159 net.cpp:141] Setting up inception_4b/relu_5x5_reduce
I0403 15:14:56.776868 12159 net.cpp:148] Top shape: 24 24 14 14 (112896)
I0403 15:14:56.776883 12159 net.cpp:156] Memory required for data: 965772576
I0403 15:14:56.776898 12159 layer_factory.hpp:77] Creating layer inception_4b/5x5
I0403 15:14:56.776921 12159 net.cpp:91] Creating Layer inception_4b/5x5
I0403 15:14:56.776938 12159 net.cpp:425] inception_4b/5x5 <- inception_4b/5x5_reduce
I0403 15:14:56.776960 12159 net.cpp:399] inception_4b/5x5 -> inception_4b/5x5
I0403 15:14:56.778177 12159 net.cpp:141] Setting up inception_4b/5x5
I0403 15:14:56.778210 12159 net.cpp:148] Top shape: 24 64 14 14 (301056)
I0403 15:14:56.778228 12159 net.cpp:156] Memory required for data: 966976800
I0403 15:14:56.778246 12159 layer_factory.hpp:77] Creating layer inception_4b/relu_5x5
I0403 15:14:56.778264 12159 net.cpp:91] Creating Layer inception_4b/relu_5x5
I0403 15:14:56.778281 12159 net.cpp:425] inception_4b/relu_5x5 <- inception_4b/5x5
I0403 15:14:56.778300 12159 net.cpp:386] inception_4b/relu_5x5 -> inception_4b/5x5 (in-place)
I0403 15:14:56.778578 12159 net.cpp:141] Setting up inception_4b/relu_5x5
I0403 15:14:56.778609 12159 net.cpp:148] Top shape: 24 64 14 14 (301056)
I0403 15:14:56.778625 12159 net.cpp:156] Memory required for data: 968181024
I0403 15:14:56.778640 12159 layer_factory.hpp:77] Creating layer inception_4b/pool
I0403 15:14:56.778657 12159 net.cpp:91] Creating Layer inception_4b/pool
I0403 15:14:56.778672 12159 net.cpp:425] inception_4b/pool <- inception_4a/output_inception_4a/output_0_split_4
I0403 15:14:56.778692 12159 net.cpp:399] inception_4b/pool -> inception_4b/pool
I0403 15:14:56.778760 12159 net.cpp:141] Setting up inception_4b/pool
I0403 15:14:56.778785 12159 net.cpp:148] Top shape: 24 512 14 14 (2408448)
I0403 15:14:56.778800 12159 net.cpp:156] Memory required for data: 977814816
I0403 15:14:56.778816 12159 layer_factory.hpp:77] Creating layer inception_4b/pool_proj
I0403 15:14:56.778838 12159 net.cpp:91] Creating Layer inception_4b/pool_proj
I0403 15:14:56.778856 12159 net.cpp:425] inception_4b/pool_proj <- inception_4b/pool
I0403 15:14:56.778878 12159 net.cpp:399] inception_4b/pool_proj -> inception_4b/pool_proj
I0403 15:14:56.780071 12159 net.cpp:141] Setting up inception_4b/pool_proj
I0403 15:14:56.780102 12159 net.cpp:148] Top shape: 24 64 14 14 (301056)
I0403 15:14:56.780119 12159 net.cpp:156] Memory required for data: 979019040
I0403 15:14:56.780143 12159 layer_factory.hpp:77] Creating layer inception_4b/relu_pool_proj
I0403 15:14:56.780164 12159 net.cpp:91] Creating Layer inception_4b/relu_pool_proj
I0403 15:14:56.780179 12159 net.cpp:425] inception_4b/relu_pool_proj <- inception_4b/pool_proj
I0403 15:14:56.780202 12159 net.cpp:386] inception_4b/relu_pool_proj -> inception_4b/pool_proj (in-place)
I0403 15:14:56.780381 12159 net.cpp:141] Setting up inception_4b/relu_pool_proj
I0403 15:14:56.780408 12159 net.cpp:148] Top shape: 24 64 14 14 (301056)
I0403 15:14:56.780424 12159 net.cpp:156] Memory required for data: 980223264
I0403 15:14:56.780441 12159 layer_factory.hpp:77] Creating layer inception_4b/output
I0403 15:14:56.780457 12159 net.cpp:91] Creating Layer inception_4b/output
I0403 15:14:56.780473 12159 net.cpp:425] inception_4b/output <- inception_4b/1x1
I0403 15:14:56.780489 12159 net.cpp:425] inception_4b/output <- inception_4b/3x3
I0403 15:14:56.780506 12159 net.cpp:425] inception_4b/output <- inception_4b/5x5
I0403 15:14:56.780524 12159 net.cpp:425] inception_4b/output <- inception_4b/pool_proj
I0403 15:14:56.780544 12159 net.cpp:399] inception_4b/output -> inception_4b/output
I0403 15:14:56.780589 12159 net.cpp:141] Setting up inception_4b/output
I0403 15:14:56.780616 12159 net.cpp:148] Top shape: 24 512 14 14 (2408448)
I0403 15:14:56.780633 12159 net.cpp:156] Memory required for data: 989857056
I0403 15:14:56.780663 12159 layer_factory.hpp:77] Creating layer inception_4b/output_inception_4b/output_0_split
I0403 15:14:56.780683 12159 net.cpp:91] Creating Layer inception_4b/output_inception_4b/output_0_split
I0403 15:14:56.780699 12159 net.cpp:425] inception_4b/output_inception_4b/output_0_split <- inception_4b/output
I0403 15:14:56.780719 12159 net.cpp:399] inception_4b/output_inception_4b/output_0_split -> inception_4b/output_inception_4b/output_0_split_0
I0403 15:14:56.780742 12159 net.cpp:399] inception_4b/output_inception_4b/output_0_split -> inception_4b/output_inception_4b/output_0_split_1
I0403 15:14:56.780764 12159 net.cpp:399] inception_4b/output_inception_4b/output_0_split -> inception_4b/output_inception_4b/output_0_split_2
I0403 15:14:56.780784 12159 net.cpp:399] inception_4b/output_inception_4b/output_0_split -> inception_4b/output_inception_4b/output_0_split_3
I0403 15:14:56.780867 12159 net.cpp:141] Setting up inception_4b/output_inception_4b/output_0_split
I0403 15:14:56.780891 12159 net.cpp:148] Top shape: 24 512 14 14 (2408448)
I0403 15:14:56.780913 12159 net.cpp:148] Top shape: 24 512 14 14 (2408448)
I0403 15:14:56.780928 12159 net.cpp:148] Top shape: 24 512 14 14 (2408448)
I0403 15:14:56.780943 12159 net.cpp:148] Top shape: 24 512 14 14 (2408448)
I0403 15:14:56.780956 12159 net.cpp:156] Memory required for data: 1028392224
I0403 15:14:56.780972 12159 layer_factory.hpp:77] Creating layer inception_4c/1x1
I0403 15:14:56.780992 12159 net.cpp:91] Creating Layer inception_4c/1x1
I0403 15:14:56.781008 12159 net.cpp:425] inception_4c/1x1 <- inception_4b/output_inception_4b/output_0_split_0
I0403 15:14:56.781029 12159 net.cpp:399] inception_4c/1x1 -> inception_4c/1x1
I0403 15:14:56.782455 12159 net.cpp:141] Setting up inception_4c/1x1
I0403 15:14:56.782485 12159 net.cpp:148] Top shape: 24 128 14 14 (602112)
I0403 15:14:56.782502 12159 net.cpp:156] Memory required for data: 1030800672
I0403 15:14:56.782521 12159 layer_factory.hpp:77] Creating layer inception_4c/relu_1x1
I0403 15:14:56.782543 12159 net.cpp:91] Creating Layer inception_4c/relu_1x1
I0403 15:14:56.782562 12159 net.cpp:425] inception_4c/relu_1x1 <- inception_4c/1x1
I0403 15:14:56.782580 12159 net.cpp:386] inception_4c/relu_1x1 -> inception_4c/1x1 (in-place)
I0403 15:14:56.782758 12159 net.cpp:141] Setting up inception_4c/relu_1x1
I0403 15:14:56.782784 12159 net.cpp:148] Top shape: 24 128 14 14 (602112)
I0403 15:14:56.782799 12159 net.cpp:156] Memory required for data: 1033209120
I0403 15:14:56.782814 12159 layer_factory.hpp:77] Creating layer inception_4c/3x3_reduce
I0403 15:14:56.782838 12159 net.cpp:91] Creating Layer inception_4c/3x3_reduce
I0403 15:14:56.782857 12159 net.cpp:425] inception_4c/3x3_reduce <- inception_4b/output_inception_4b/output_0_split_1
I0403 15:14:56.782877 12159 net.cpp:399] inception_4c/3x3_reduce -> inception_4c/3x3_reduce
I0403 15:14:56.784804 12159 net.cpp:141] Setting up inception_4c/3x3_reduce
I0403 15:14:56.784834 12159 net.cpp:148] Top shape: 24 128 14 14 (602112)
I0403 15:14:56.784850 12159 net.cpp:156] Memory required for data: 1035617568
I0403 15:14:56.784870 12159 layer_factory.hpp:77] Creating layer inception_4c/relu_3x3_reduce
I0403 15:14:56.784904 12159 net.cpp:91] Creating Layer inception_4c/relu_3x3_reduce
I0403 15:14:56.784922 12159 net.cpp:425] inception_4c/relu_3x3_reduce <- inception_4c/3x3_reduce
I0403 15:14:56.784940 12159 net.cpp:386] inception_4c/relu_3x3_reduce -> inception_4c/3x3_reduce (in-place)
I0403 15:14:56.785248 12159 net.cpp:141] Setting up inception_4c/relu_3x3_reduce
I0403 15:14:56.785275 12159 net.cpp:148] Top shape: 24 128 14 14 (602112)
I0403 15:14:56.785292 12159 net.cpp:156] Memory required for data: 1038026016
I0403 15:14:56.785307 12159 layer_factory.hpp:77] Creating layer inception_4c/3x3
I0403 15:14:56.785332 12159 net.cpp:91] Creating Layer inception_4c/3x3
I0403 15:14:56.785352 12159 net.cpp:425] inception_4c/3x3 <- inception_4c/3x3_reduce
I0403 15:14:56.785374 12159 net.cpp:399] inception_4c/3x3 -> inception_4c/3x3
I0403 15:14:56.788974 12159 net.cpp:141] Setting up inception_4c/3x3
I0403 15:14:56.789017 12159 net.cpp:148] Top shape: 24 256 14 14 (1204224)
I0403 15:14:56.789036 12159 net.cpp:156] Memory required for data: 1042842912
I0403 15:14:56.789067 12159 layer_factory.hpp:77] Creating layer inception_4c/relu_3x3
I0403 15:14:56.789088 12159 net.cpp:91] Creating Layer inception_4c/relu_3x3
I0403 15:14:56.789106 12159 net.cpp:425] inception_4c/relu_3x3 <- inception_4c/3x3
I0403 15:14:56.789129 12159 net.cpp:386] inception_4c/relu_3x3 -> inception_4c/3x3 (in-place)
I0403 15:14:56.789314 12159 net.cpp:141] Setting up inception_4c/relu_3x3
I0403 15:14:56.789342 12159 net.cpp:148] Top shape: 24 256 14 14 (1204224)
I0403 15:14:56.789367 12159 net.cpp:156] Memory required for data: 1047659808
I0403 15:14:56.789382 12159 layer_factory.hpp:77] Creating layer inception_4c/5x5_reduce
I0403 15:14:56.789405 12159 net.cpp:91] Creating Layer inception_4c/5x5_reduce
I0403 15:14:56.789423 12159 net.cpp:425] inception_4c/5x5_reduce <- inception_4b/output_inception_4b/output_0_split_2
I0403 15:14:56.789443 12159 net.cpp:399] inception_4c/5x5_reduce -> inception_4c/5x5_reduce
I0403 15:14:56.790526 12159 net.cpp:141] Setting up inception_4c/5x5_reduce
I0403 15:14:56.790558 12159 net.cpp:148] Top shape: 24 24 14 14 (112896)
I0403 15:14:56.790575 12159 net.cpp:156] Memory required for data: 1048111392
I0403 15:14:56.790594 12159 layer_factory.hpp:77] Creating layer inception_4c/relu_5x5_reduce
I0403 15:14:56.790612 12159 net.cpp:91] Creating Layer inception_4c/relu_5x5_reduce
I0403 15:14:56.790630 12159 net.cpp:425] inception_4c/relu_5x5_reduce <- inception_4c/5x5_reduce
I0403 15:14:56.790652 12159 net.cpp:386] inception_4c/relu_5x5_reduce -> inception_4c/5x5_reduce (in-place)
I0403 15:14:56.790837 12159 net.cpp:141] Setting up inception_4c/relu_5x5_reduce
I0403 15:14:56.790863 12159 net.cpp:148] Top shape: 24 24 14 14 (112896)
I0403 15:14:56.790877 12159 net.cpp:156] Memory required for data: 1048562976
I0403 15:14:56.790892 12159 layer_factory.hpp:77] Creating layer inception_4c/5x5
I0403 15:14:56.790915 12159 net.cpp:91] Creating Layer inception_4c/5x5
I0403 15:14:56.790932 12159 net.cpp:425] inception_4c/5x5 <- inception_4c/5x5_reduce
I0403 15:14:56.790962 12159 net.cpp:399] inception_4c/5x5 -> inception_4c/5x5
I0403 15:14:56.792232 12159 net.cpp:141] Setting up inception_4c/5x5
I0403 15:14:56.792260 12159 net.cpp:148] Top shape: 24 64 14 14 (301056)
I0403 15:14:56.792278 12159 net.cpp:156] Memory required for data: 1049767200
I0403 15:14:56.792295 12159 layer_factory.hpp:77] Creating layer inception_4c/relu_5x5
I0403 15:14:56.792316 12159 net.cpp:91] Creating Layer inception_4c/relu_5x5
I0403 15:14:56.792332 12159 net.cpp:425] inception_4c/relu_5x5 <- inception_4c/5x5
I0403 15:14:56.792348 12159 net.cpp:386] inception_4c/relu_5x5 -> inception_4c/5x5 (in-place)
I0403 15:14:56.792629 12159 net.cpp:141] Setting up inception_4c/relu_5x5
I0403 15:14:56.792655 12159 net.cpp:148] Top shape: 24 64 14 14 (301056)
I0403 15:14:56.792670 12159 net.cpp:156] Memory required for data: 1050971424
I0403 15:14:56.792685 12159 layer_factory.hpp:77] Creating layer inception_4c/pool
I0403 15:14:56.792702 12159 net.cpp:91] Creating Layer inception_4c/pool
I0403 15:14:56.792719 12159 net.cpp:425] inception_4c/pool <- inception_4b/output_inception_4b/output_0_split_3
I0403 15:14:56.792740 12159 net.cpp:399] inception_4c/pool -> inception_4c/pool
I0403 15:14:56.792804 12159 net.cpp:141] Setting up inception_4c/pool
I0403 15:14:56.792829 12159 net.cpp:148] Top shape: 24 512 14 14 (2408448)
I0403 15:14:56.792845 12159 net.cpp:156] Memory required for data: 1060605216
I0403 15:14:56.792860 12159 layer_factory.hpp:77] Creating layer inception_4c/pool_proj
I0403 15:14:56.792881 12159 net.cpp:91] Creating Layer inception_4c/pool_proj
I0403 15:14:56.792899 12159 net.cpp:425] inception_4c/pool_proj <- inception_4c/pool
I0403 15:14:56.792920 12159 net.cpp:399] inception_4c/pool_proj -> inception_4c/pool_proj
I0403 15:14:56.794095 12159 net.cpp:141] Setting up inception_4c/pool_proj
I0403 15:14:56.794129 12159 net.cpp:148] Top shape: 24 64 14 14 (301056)
I0403 15:14:56.794160 12159 net.cpp:156] Memory required for data: 1061809440
I0403 15:14:56.794180 12159 layer_factory.hpp:77] Creating layer inception_4c/relu_pool_proj
I0403 15:14:56.794200 12159 net.cpp:91] Creating Layer inception_4c/relu_pool_proj
I0403 15:14:56.794216 12159 net.cpp:425] inception_4c/relu_pool_proj <- inception_4c/pool_proj
I0403 15:14:56.794234 12159 net.cpp:386] inception_4c/relu_pool_proj -> inception_4c/pool_proj (in-place)
I0403 15:14:56.794414 12159 net.cpp:141] Setting up inception_4c/relu_pool_proj
I0403 15:14:56.794440 12159 net.cpp:148] Top shape: 24 64 14 14 (301056)
I0403 15:14:56.794456 12159 net.cpp:156] Memory required for data: 1063013664
I0403 15:14:56.794471 12159 layer_factory.hpp:77] Creating layer inception_4c/output
I0403 15:14:56.794486 12159 net.cpp:91] Creating Layer inception_4c/output
I0403 15:14:56.794502 12159 net.cpp:425] inception_4c/output <- inception_4c/1x1
I0403 15:14:56.794518 12159 net.cpp:425] inception_4c/output <- inception_4c/3x3
I0403 15:14:56.794534 12159 net.cpp:425] inception_4c/output <- inception_4c/5x5
I0403 15:14:56.794551 12159 net.cpp:425] inception_4c/output <- inception_4c/pool_proj
I0403 15:14:56.794570 12159 net.cpp:399] inception_4c/output -> inception_4c/output
I0403 15:14:56.794616 12159 net.cpp:141] Setting up inception_4c/output
I0403 15:14:56.794643 12159 net.cpp:148] Top shape: 24 512 14 14 (2408448)
I0403 15:14:56.794659 12159 net.cpp:156] Memory required for data: 1072647456
I0403 15:14:56.794674 12159 layer_factory.hpp:77] Creating layer inception_4c/output_inception_4c/output_0_split
I0403 15:14:56.794692 12159 net.cpp:91] Creating Layer inception_4c/output_inception_4c/output_0_split
I0403 15:14:56.794708 12159 net.cpp:425] inception_4c/output_inception_4c/output_0_split <- inception_4c/output
I0403 15:14:56.794726 12159 net.cpp:399] inception_4c/output_inception_4c/output_0_split -> inception_4c/output_inception_4c/output_0_split_0
I0403 15:14:56.794749 12159 net.cpp:399] inception_4c/output_inception_4c/output_0_split -> inception_4c/output_inception_4c/output_0_split_1
I0403 15:14:56.794769 12159 net.cpp:399] inception_4c/output_inception_4c/output_0_split -> inception_4c/output_inception_4c/output_0_split_2
I0403 15:14:56.794788 12159 net.cpp:399] inception_4c/output_inception_4c/output_0_split -> inception_4c/output_inception_4c/output_0_split_3
I0403 15:14:56.794870 12159 net.cpp:141] Setting up inception_4c/output_inception_4c/output_0_split
I0403 15:14:56.794894 12159 net.cpp:148] Top shape: 24 512 14 14 (2408448)
I0403 15:14:56.794911 12159 net.cpp:148] Top shape: 24 512 14 14 (2408448)
I0403 15:14:56.794926 12159 net.cpp:148] Top shape: 24 512 14 14 (2408448)
I0403 15:14:56.794940 12159 net.cpp:148] Top shape: 24 512 14 14 (2408448)
I0403 15:14:56.794955 12159 net.cpp:156] Memory required for data: 1111182624
I0403 15:14:56.794970 12159 layer_factory.hpp:77] Creating layer inception_4d/1x1
I0403 15:14:56.794991 12159 net.cpp:91] Creating Layer inception_4d/1x1
I0403 15:14:56.795009 12159 net.cpp:425] inception_4d/1x1 <- inception_4c/output_inception_4c/output_0_split_0
I0403 15:14:56.795029 12159 net.cpp:399] inception_4d/1x1 -> inception_4d/1x1
I0403 15:14:56.796365 12159 net.cpp:141] Setting up inception_4d/1x1
I0403 15:14:56.796393 12159 net.cpp:148] Top shape: 24 112 14 14 (526848)
I0403 15:14:56.796409 12159 net.cpp:156] Memory required for data: 1113290016
I0403 15:14:56.796428 12159 layer_factory.hpp:77] Creating layer inception_4d/relu_1x1
I0403 15:14:56.796448 12159 net.cpp:91] Creating Layer inception_4d/relu_1x1
I0403 15:14:56.796465 12159 net.cpp:425] inception_4d/relu_1x1 <- inception_4d/1x1
I0403 15:14:56.796483 12159 net.cpp:386] inception_4d/relu_1x1 -> inception_4d/1x1 (in-place)
I0403 15:14:56.796659 12159 net.cpp:141] Setting up inception_4d/relu_1x1
I0403 15:14:56.796687 12159 net.cpp:148] Top shape: 24 112 14 14 (526848)
I0403 15:14:56.796702 12159 net.cpp:156] Memory required for data: 1115397408
I0403 15:14:56.796716 12159 layer_factory.hpp:77] Creating layer inception_4d/3x3_reduce
I0403 15:14:56.796752 12159 net.cpp:91] Creating Layer inception_4d/3x3_reduce
I0403 15:14:56.796772 12159 net.cpp:425] inception_4d/3x3_reduce <- inception_4c/output_inception_4c/output_0_split_1
I0403 15:14:56.796790 12159 net.cpp:399] inception_4d/3x3_reduce -> inception_4d/3x3_reduce
I0403 15:14:56.798254 12159 net.cpp:141] Setting up inception_4d/3x3_reduce
I0403 15:14:56.798282 12159 net.cpp:148] Top shape: 24 144 14 14 (677376)
I0403 15:14:56.798298 12159 net.cpp:156] Memory required for data: 1118106912
I0403 15:14:56.798316 12159 layer_factory.hpp:77] Creating layer inception_4d/relu_3x3_reduce
I0403 15:14:56.798336 12159 net.cpp:91] Creating Layer inception_4d/relu_3x3_reduce
I0403 15:14:56.798353 12159 net.cpp:425] inception_4d/relu_3x3_reduce <- inception_4d/3x3_reduce
I0403 15:14:56.798370 12159 net.cpp:386] inception_4d/relu_3x3_reduce -> inception_4d/3x3_reduce (in-place)
I0403 15:14:56.798650 12159 net.cpp:141] Setting up inception_4d/relu_3x3_reduce
I0403 15:14:56.798676 12159 net.cpp:148] Top shape: 24 144 14 14 (677376)
I0403 15:14:56.798692 12159 net.cpp:156] Memory required for data: 1120816416
I0403 15:14:56.798707 12159 layer_factory.hpp:77] Creating layer inception_4d/3x3
I0403 15:14:56.798729 12159 net.cpp:91] Creating Layer inception_4d/3x3
I0403 15:14:56.798748 12159 net.cpp:425] inception_4d/3x3 <- inception_4d/3x3_reduce
I0403 15:14:56.798768 12159 net.cpp:399] inception_4d/3x3 -> inception_4d/3x3
I0403 15:14:56.802894 12159 net.cpp:141] Setting up inception_4d/3x3
I0403 15:14:56.802924 12159 net.cpp:148] Top shape: 24 288 14 14 (1354752)
I0403 15:14:56.802939 12159 net.cpp:156] Memory required for data: 1126235424
I0403 15:14:56.802958 12159 layer_factory.hpp:77] Creating layer inception_4d/relu_3x3
I0403 15:14:56.802978 12159 net.cpp:91] Creating Layer inception_4d/relu_3x3
I0403 15:14:56.802995 12159 net.cpp:425] inception_4d/relu_3x3 <- inception_4d/3x3
I0403 15:14:56.803014 12159 net.cpp:386] inception_4d/relu_3x3 -> inception_4d/3x3 (in-place)
I0403 15:14:56.803200 12159 net.cpp:141] Setting up inception_4d/relu_3x3
I0403 15:14:56.803226 12159 net.cpp:148] Top shape: 24 288 14 14 (1354752)
I0403 15:14:56.803241 12159 net.cpp:156] Memory required for data: 1131654432
I0403 15:14:56.803256 12159 layer_factory.hpp:77] Creating layer inception_4d/5x5_reduce
I0403 15:14:56.803277 12159 net.cpp:91] Creating Layer inception_4d/5x5_reduce
I0403 15:14:56.803295 12159 net.cpp:425] inception_4d/5x5_reduce <- inception_4c/output_inception_4c/output_0_split_2
I0403 15:14:56.803316 12159 net.cpp:399] inception_4d/5x5_reduce -> inception_4d/5x5_reduce
I0403 15:14:56.804435 12159 net.cpp:141] Setting up inception_4d/5x5_reduce
I0403 15:14:56.804462 12159 net.cpp:148] Top shape: 24 32 14 14 (150528)
I0403 15:14:56.804477 12159 net.cpp:156] Memory required for data: 1132256544
I0403 15:14:56.804497 12159 layer_factory.hpp:77] Creating layer inception_4d/relu_5x5_reduce
I0403 15:14:56.804517 12159 net.cpp:91] Creating Layer inception_4d/relu_5x5_reduce
I0403 15:14:56.804533 12159 net.cpp:425] inception_4d/relu_5x5_reduce <- inception_4d/5x5_reduce
I0403 15:14:56.804550 12159 net.cpp:386] inception_4d/relu_5x5_reduce -> inception_4d/5x5_reduce (in-place)
I0403 15:14:56.804731 12159 net.cpp:141] Setting up inception_4d/relu_5x5_reduce
I0403 15:14:56.804759 12159 net.cpp:148] Top shape: 24 32 14 14 (150528)
I0403 15:14:56.804775 12159 net.cpp:156] Memory required for data: 1132858656
I0403 15:14:56.804790 12159 layer_factory.hpp:77] Creating layer inception_4d/5x5
I0403 15:14:56.804813 12159 net.cpp:91] Creating Layer inception_4d/5x5
I0403 15:14:56.804831 12159 net.cpp:425] inception_4d/5x5 <- inception_4d/5x5_reduce
I0403 15:14:56.804850 12159 net.cpp:399] inception_4d/5x5 -> inception_4d/5x5
I0403 15:14:56.806293 12159 net.cpp:141] Setting up inception_4d/5x5
I0403 15:14:56.806323 12159 net.cpp:148] Top shape: 24 64 14 14 (301056)
I0403 15:14:56.806339 12159 net.cpp:156] Memory required for data: 1134062880
I0403 15:14:56.806360 12159 layer_factory.hpp:77] Creating layer inception_4d/relu_5x5
I0403 15:14:56.806391 12159 net.cpp:91] Creating Layer inception_4d/relu_5x5
I0403 15:14:56.806409 12159 net.cpp:425] inception_4d/relu_5x5 <- inception_4d/5x5
I0403 15:14:56.806428 12159 net.cpp:386] inception_4d/relu_5x5 -> inception_4d/5x5 (in-place)
I0403 15:14:56.806717 12159 net.cpp:141] Setting up inception_4d/relu_5x5
I0403 15:14:56.806746 12159 net.cpp:148] Top shape: 24 64 14 14 (301056)
I0403 15:14:56.806762 12159 net.cpp:156] Memory required for data: 1135267104
I0403 15:14:56.806777 12159 layer_factory.hpp:77] Creating layer inception_4d/pool
I0403 15:14:56.806795 12159 net.cpp:91] Creating Layer inception_4d/pool
I0403 15:14:56.806812 12159 net.cpp:425] inception_4d/pool <- inception_4c/output_inception_4c/output_0_split_3
I0403 15:14:56.806833 12159 net.cpp:399] inception_4d/pool -> inception_4d/pool
I0403 15:14:56.806897 12159 net.cpp:141] Setting up inception_4d/pool
I0403 15:14:56.806924 12159 net.cpp:148] Top shape: 24 512 14 14 (2408448)
I0403 15:14:56.806941 12159 net.cpp:156] Memory required for data: 1144900896
I0403 15:14:56.806954 12159 layer_factory.hpp:77] Creating layer inception_4d/pool_proj
I0403 15:14:56.806977 12159 net.cpp:91] Creating Layer inception_4d/pool_proj
I0403 15:14:56.806993 12159 net.cpp:425] inception_4d/pool_proj <- inception_4d/pool
I0403 15:14:56.807011 12159 net.cpp:399] inception_4d/pool_proj -> inception_4d/pool_proj
I0403 15:14:56.808717 12159 net.cpp:141] Setting up inception_4d/pool_proj
I0403 15:14:56.808749 12159 net.cpp:148] Top shape: 24 64 14 14 (301056)
I0403 15:14:56.808764 12159 net.cpp:156] Memory required for data: 1146105120
I0403 15:14:56.808782 12159 layer_factory.hpp:77] Creating layer inception_4d/relu_pool_proj
I0403 15:14:56.808801 12159 net.cpp:91] Creating Layer inception_4d/relu_pool_proj
I0403 15:14:56.808820 12159 net.cpp:425] inception_4d/relu_pool_proj <- inception_4d/pool_proj
I0403 15:14:56.808837 12159 net.cpp:386] inception_4d/relu_pool_proj -> inception_4d/pool_proj (in-place)
I0403 15:14:56.809020 12159 net.cpp:141] Setting up inception_4d/relu_pool_proj
I0403 15:14:56.809046 12159 net.cpp:148] Top shape: 24 64 14 14 (301056)
I0403 15:14:56.809061 12159 net.cpp:156] Memory required for data: 1147309344
I0403 15:14:56.809074 12159 layer_factory.hpp:77] Creating layer inception_4d/output
I0403 15:14:56.809092 12159 net.cpp:91] Creating Layer inception_4d/output
I0403 15:14:56.809106 12159 net.cpp:425] inception_4d/output <- inception_4d/1x1
I0403 15:14:56.809123 12159 net.cpp:425] inception_4d/output <- inception_4d/3x3
I0403 15:14:56.809144 12159 net.cpp:425] inception_4d/output <- inception_4d/5x5
I0403 15:14:56.809161 12159 net.cpp:425] inception_4d/output <- inception_4d/pool_proj
I0403 15:14:56.809178 12159 net.cpp:399] inception_4d/output -> inception_4d/output
I0403 15:14:56.809229 12159 net.cpp:141] Setting up inception_4d/output
I0403 15:14:56.809254 12159 net.cpp:148] Top shape: 24 528 14 14 (2483712)
I0403 15:14:56.809269 12159 net.cpp:156] Memory required for data: 1157244192
I0403 15:14:56.809284 12159 layer_factory.hpp:77] Creating layer inception_4d/output_inception_4d/output_0_split
I0403 15:14:56.809303 12159 net.cpp:91] Creating Layer inception_4d/output_inception_4d/output_0_split
I0403 15:14:56.809320 12159 net.cpp:425] inception_4d/output_inception_4d/output_0_split <- inception_4d/output
I0403 15:14:56.809337 12159 net.cpp:399] inception_4d/output_inception_4d/output_0_split -> inception_4d/output_inception_4d/output_0_split_0
I0403 15:14:56.809357 12159 net.cpp:399] inception_4d/output_inception_4d/output_0_split -> inception_4d/output_inception_4d/output_0_split_1
I0403 15:14:56.809381 12159 net.cpp:399] inception_4d/output_inception_4d/output_0_split -> inception_4d/output_inception_4d/output_0_split_2
I0403 15:14:56.809404 12159 net.cpp:399] inception_4d/output_inception_4d/output_0_split -> inception_4d/output_inception_4d/output_0_split_3
I0403 15:14:56.809423 12159 net.cpp:399] inception_4d/output_inception_4d/output_0_split -> inception_4d/output_inception_4d/output_0_split_4
I0403 15:14:56.809523 12159 net.cpp:141] Setting up inception_4d/output_inception_4d/output_0_split
I0403 15:14:56.809559 12159 net.cpp:148] Top shape: 24 528 14 14 (2483712)
I0403 15:14:56.809576 12159 net.cpp:148] Top shape: 24 528 14 14 (2483712)
I0403 15:14:56.809592 12159 net.cpp:148] Top shape: 24 528 14 14 (2483712)
I0403 15:14:56.809607 12159 net.cpp:148] Top shape: 24 528 14 14 (2483712)
I0403 15:14:56.809622 12159 net.cpp:148] Top shape: 24 528 14 14 (2483712)
I0403 15:14:56.809634 12159 net.cpp:156] Memory required for data: 1206918432
I0403 15:14:56.809659 12159 layer_factory.hpp:77] Creating layer loss2/ave_pool
I0403 15:14:56.809677 12159 net.cpp:91] Creating Layer loss2/ave_pool
I0403 15:14:56.809695 12159 net.cpp:425] loss2/ave_pool <- inception_4d/output_inception_4d/output_0_split_0
I0403 15:14:56.809713 12159 net.cpp:399] loss2/ave_pool -> loss2/ave_pool
I0403 15:14:56.810017 12159 net.cpp:141] Setting up loss2/ave_pool
I0403 15:14:56.810044 12159 net.cpp:148] Top shape: 24 528 4 4 (202752)
I0403 15:14:56.810058 12159 net.cpp:156] Memory required for data: 1207729440
I0403 15:14:56.810073 12159 layer_factory.hpp:77] Creating layer loss2/conv
I0403 15:14:56.810096 12159 net.cpp:91] Creating Layer loss2/conv
I0403 15:14:56.810114 12159 net.cpp:425] loss2/conv <- loss2/ave_pool
I0403 15:14:56.810153 12159 net.cpp:399] loss2/conv -> loss2/conv
I0403 15:14:56.812052 12159 net.cpp:141] Setting up loss2/conv
I0403 15:14:56.812080 12159 net.cpp:148] Top shape: 24 128 4 4 (49152)
I0403 15:14:56.812095 12159 net.cpp:156] Memory required for data: 1207926048
I0403 15:14:56.812114 12159 layer_factory.hpp:77] Creating layer loss2/relu_conv
I0403 15:14:56.812139 12159 net.cpp:91] Creating Layer loss2/relu_conv
I0403 15:14:56.812156 12159 net.cpp:425] loss2/relu_conv <- loss2/conv
I0403 15:14:56.812177 12159 net.cpp:386] loss2/relu_conv -> loss2/conv (in-place)
I0403 15:14:56.812465 12159 net.cpp:141] Setting up loss2/relu_conv
I0403 15:14:56.812492 12159 net.cpp:148] Top shape: 24 128 4 4 (49152)
I0403 15:14:56.812507 12159 net.cpp:156] Memory required for data: 1208122656
I0403 15:14:56.812523 12159 layer_factory.hpp:77] Creating layer loss2/fc
I0403 15:14:56.812542 12159 net.cpp:91] Creating Layer loss2/fc
I0403 15:14:56.812559 12159 net.cpp:425] loss2/fc <- loss2/conv
I0403 15:14:56.812580 12159 net.cpp:399] loss2/fc -> loss2/fc
I0403 15:14:56.830291 12159 net.cpp:141] Setting up loss2/fc
I0403 15:14:56.830330 12159 net.cpp:148] Top shape: 24 1024 (24576)
I0403 15:14:56.830346 12159 net.cpp:156] Memory required for data: 1208220960
I0403 15:14:56.830365 12159 layer_factory.hpp:77] Creating layer loss2/relu_fc
I0403 15:14:56.830384 12159 net.cpp:91] Creating Layer loss2/relu_fc
I0403 15:14:56.830400 12159 net.cpp:425] loss2/relu_fc <- loss2/fc
I0403 15:14:56.830417 12159 net.cpp:386] loss2/relu_fc -> loss2/fc (in-place)
I0403 15:14:56.830710 12159 net.cpp:141] Setting up loss2/relu_fc
I0403 15:14:56.830739 12159 net.cpp:148] Top shape: 24 1024 (24576)
I0403 15:14:56.830755 12159 net.cpp:156] Memory required for data: 1208319264
I0403 15:14:56.830771 12159 layer_factory.hpp:77] Creating layer loss2/drop_fc
I0403 15:14:56.830788 12159 net.cpp:91] Creating Layer loss2/drop_fc
I0403 15:14:56.830804 12159 net.cpp:425] loss2/drop_fc <- loss2/fc
I0403 15:14:56.830821 12159 net.cpp:386] loss2/drop_fc -> loss2/fc (in-place)
I0403 15:14:56.830871 12159 net.cpp:141] Setting up loss2/drop_fc
I0403 15:14:56.830895 12159 net.cpp:148] Top shape: 24 1024 (24576)
I0403 15:14:56.830910 12159 net.cpp:156] Memory required for data: 1208417568
I0403 15:14:56.830925 12159 layer_factory.hpp:77] Creating layer loss2/classifier_plantvillage
I0403 15:14:56.830945 12159 net.cpp:91] Creating Layer loss2/classifier_plantvillage
I0403 15:14:56.830962 12159 net.cpp:425] loss2/classifier_plantvillage <- loss2/fc
I0403 15:14:56.830981 12159 net.cpp:399] loss2/classifier_plantvillage -> loss2/classifier_plantvillage
I0403 15:14:56.831382 12159 net.cpp:141] Setting up loss2/classifier_plantvillage
I0403 15:14:56.831408 12159 net.cpp:148] Top shape: 24 38 (912)
I0403 15:14:56.831439 12159 net.cpp:156] Memory required for data: 1208421216
I0403 15:14:56.831459 12159 layer_factory.hpp:77] Creating layer loss2/classifier_plantvillage_loss2/classifier_plantvillage_0_split
I0403 15:14:56.831475 12159 net.cpp:91] Creating Layer loss2/classifier_plantvillage_loss2/classifier_plantvillage_0_split
I0403 15:14:56.831491 12159 net.cpp:425] loss2/classifier_plantvillage_loss2/classifier_plantvillage_0_split <- loss2/classifier_plantvillage
I0403 15:14:56.831511 12159 net.cpp:399] loss2/classifier_plantvillage_loss2/classifier_plantvillage_0_split -> loss2/classifier_plantvillage_loss2/classifier_plantvillage_0_split_0
I0403 15:14:56.831533 12159 net.cpp:399] loss2/classifier_plantvillage_loss2/classifier_plantvillage_0_split -> loss2/classifier_plantvillage_loss2/classifier_plantvillage_0_split_1
I0403 15:14:56.831554 12159 net.cpp:399] loss2/classifier_plantvillage_loss2/classifier_plantvillage_0_split -> loss2/classifier_plantvillage_loss2/classifier_plantvillage_0_split_2
I0403 15:14:56.831629 12159 net.cpp:141] Setting up loss2/classifier_plantvillage_loss2/classifier_plantvillage_0_split
I0403 15:14:56.831655 12159 net.cpp:148] Top shape: 24 38 (912)
I0403 15:14:56.831671 12159 net.cpp:148] Top shape: 24 38 (912)
I0403 15:14:56.831686 12159 net.cpp:148] Top shape: 24 38 (912)
I0403 15:14:56.831701 12159 net.cpp:156] Memory required for data: 1208432160
I0403 15:14:56.831714 12159 layer_factory.hpp:77] Creating layer inception_4e/1x1
I0403 15:14:56.831735 12159 net.cpp:91] Creating Layer inception_4e/1x1
I0403 15:14:56.831754 12159 net.cpp:425] inception_4e/1x1 <- inception_4d/output_inception_4d/output_0_split_1
I0403 15:14:56.831773 12159 net.cpp:399] inception_4e/1x1 -> inception_4e/1x1
I0403 15:14:56.833562 12159 net.cpp:141] Setting up inception_4e/1x1
I0403 15:14:56.833591 12159 net.cpp:148] Top shape: 24 256 14 14 (1204224)
I0403 15:14:56.833606 12159 net.cpp:156] Memory required for data: 1213249056
I0403 15:14:56.833624 12159 layer_factory.hpp:77] Creating layer inception_4e/relu_1x1
I0403 15:14:56.833649 12159 net.cpp:91] Creating Layer inception_4e/relu_1x1
I0403 15:14:56.833668 12159 net.cpp:425] inception_4e/relu_1x1 <- inception_4e/1x1
I0403 15:14:56.833685 12159 net.cpp:386] inception_4e/relu_1x1 -> inception_4e/1x1 (in-place)
I0403 15:14:56.833971 12159 net.cpp:141] Setting up inception_4e/relu_1x1
I0403 15:14:56.833998 12159 net.cpp:148] Top shape: 24 256 14 14 (1204224)
I0403 15:14:56.834013 12159 net.cpp:156] Memory required for data: 1218065952
I0403 15:14:56.834028 12159 layer_factory.hpp:77] Creating layer inception_4e/3x3_reduce
I0403 15:14:56.834049 12159 net.cpp:91] Creating Layer inception_4e/3x3_reduce
I0403 15:14:56.834066 12159 net.cpp:425] inception_4e/3x3_reduce <- inception_4d/output_inception_4d/output_0_split_2
I0403 15:14:56.834087 12159 net.cpp:399] inception_4e/3x3_reduce -> inception_4e/3x3_reduce
I0403 15:14:56.836149 12159 net.cpp:141] Setting up inception_4e/3x3_reduce
I0403 15:14:56.836180 12159 net.cpp:148] Top shape: 24 160 14 14 (752640)
I0403 15:14:56.836199 12159 net.cpp:156] Memory required for data: 1221076512
I0403 15:14:56.836215 12159 layer_factory.hpp:77] Creating layer inception_4e/relu_3x3_reduce
I0403 15:14:56.836233 12159 net.cpp:91] Creating Layer inception_4e/relu_3x3_reduce
I0403 15:14:56.836249 12159 net.cpp:425] inception_4e/relu_3x3_reduce <- inception_4e/3x3_reduce
I0403 15:14:56.836269 12159 net.cpp:386] inception_4e/relu_3x3_reduce -> inception_4e/3x3_reduce (in-place)
I0403 15:14:56.836452 12159 net.cpp:141] Setting up inception_4e/relu_3x3_reduce
I0403 15:14:56.836477 12159 net.cpp:148] Top shape: 24 160 14 14 (752640)
I0403 15:14:56.836493 12159 net.cpp:156] Memory required for data: 1224087072
I0403 15:14:56.836506 12159 layer_factory.hpp:77] Creating layer inception_4e/3x3
I0403 15:14:56.836529 12159 net.cpp:91] Creating Layer inception_4e/3x3
I0403 15:14:56.836545 12159 net.cpp:425] inception_4e/3x3 <- inception_4e/3x3_reduce
I0403 15:14:56.836566 12159 net.cpp:399] inception_4e/3x3 -> inception_4e/3x3
I0403 15:14:56.841434 12159 net.cpp:141] Setting up inception_4e/3x3
I0403 15:14:56.841475 12159 net.cpp:148] Top shape: 24 320 14 14 (1505280)
I0403 15:14:56.841492 12159 net.cpp:156] Memory required for data: 1230108192
I0403 15:14:56.841511 12159 layer_factory.hpp:77] Creating layer inception_4e/relu_3x3
I0403 15:14:56.841531 12159 net.cpp:91] Creating Layer inception_4e/relu_3x3
I0403 15:14:56.841548 12159 net.cpp:425] inception_4e/relu_3x3 <- inception_4e/3x3
I0403 15:14:56.841565 12159 net.cpp:386] inception_4e/relu_3x3 -> inception_4e/3x3 (in-place)
I0403 15:14:56.841859 12159 net.cpp:141] Setting up inception_4e/relu_3x3
I0403 15:14:56.841886 12159 net.cpp:148] Top shape: 24 320 14 14 (1505280)
I0403 15:14:56.841900 12159 net.cpp:156] Memory required for data: 1236129312
I0403 15:14:56.841917 12159 layer_factory.hpp:77] Creating layer inception_4e/5x5_reduce
I0403 15:14:56.841938 12159 net.cpp:91] Creating Layer inception_4e/5x5_reduce
I0403 15:14:56.841955 12159 net.cpp:425] inception_4e/5x5_reduce <- inception_4d/output_inception_4d/output_0_split_3
I0403 15:14:56.841977 12159 net.cpp:399] inception_4e/5x5_reduce -> inception_4e/5x5_reduce
I0403 15:14:56.843016 12159 net.cpp:141] Setting up inception_4e/5x5_reduce
I0403 15:14:56.843046 12159 net.cpp:148] Top shape: 24 32 14 14 (150528)
I0403 15:14:56.843063 12159 net.cpp:156] Memory required for data: 1236731424
I0403 15:14:56.843081 12159 layer_factory.hpp:77] Creating layer inception_4e/relu_5x5_reduce
I0403 15:14:56.843099 12159 net.cpp:91] Creating Layer inception_4e/relu_5x5_reduce
I0403 15:14:56.843116 12159 net.cpp:425] inception_4e/relu_5x5_reduce <- inception_4e/5x5_reduce
I0403 15:14:56.843147 12159 net.cpp:386] inception_4e/relu_5x5_reduce -> inception_4e/5x5_reduce (in-place)
I0403 15:14:56.843438 12159 net.cpp:141] Setting up inception_4e/relu_5x5_reduce
I0403 15:14:56.843467 12159 net.cpp:148] Top shape: 24 32 14 14 (150528)
I0403 15:14:56.843484 12159 net.cpp:156] Memory required for data: 1237333536
I0403 15:14:56.843499 12159 layer_factory.hpp:77] Creating layer inception_4e/5x5
I0403 15:14:56.843538 12159 net.cpp:91] Creating Layer inception_4e/5x5
I0403 15:14:56.843557 12159 net.cpp:425] inception_4e/5x5 <- inception_4e/5x5_reduce
I0403 15:14:56.843576 12159 net.cpp:399] inception_4e/5x5 -> inception_4e/5x5
I0403 15:14:56.845363 12159 net.cpp:141] Setting up inception_4e/5x5
I0403 15:14:56.845391 12159 net.cpp:148] Top shape: 24 128 14 14 (602112)
I0403 15:14:56.845407 12159 net.cpp:156] Memory required for data: 1239741984
I0403 15:14:56.845429 12159 layer_factory.hpp:77] Creating layer inception_4e/relu_5x5
I0403 15:14:56.845448 12159 net.cpp:91] Creating Layer inception_4e/relu_5x5
I0403 15:14:56.845465 12159 net.cpp:425] inception_4e/relu_5x5 <- inception_4e/5x5
I0403 15:14:56.845482 12159 net.cpp:386] inception_4e/relu_5x5 -> inception_4e/5x5 (in-place)
I0403 15:14:56.845677 12159 net.cpp:141] Setting up inception_4e/relu_5x5
I0403 15:14:56.845703 12159 net.cpp:148] Top shape: 24 128 14 14 (602112)
I0403 15:14:56.845718 12159 net.cpp:156] Memory required for data: 1242150432
I0403 15:14:56.845732 12159 layer_factory.hpp:77] Creating layer inception_4e/pool
I0403 15:14:56.845751 12159 net.cpp:91] Creating Layer inception_4e/pool
I0403 15:14:56.845767 12159 net.cpp:425] inception_4e/pool <- inception_4d/output_inception_4d/output_0_split_4
I0403 15:14:56.845788 12159 net.cpp:399] inception_4e/pool -> inception_4e/pool
I0403 15:14:56.845859 12159 net.cpp:141] Setting up inception_4e/pool
I0403 15:14:56.845882 12159 net.cpp:148] Top shape: 24 528 14 14 (2483712)
I0403 15:14:56.845897 12159 net.cpp:156] Memory required for data: 1252085280
I0403 15:14:56.845911 12159 layer_factory.hpp:77] Creating layer inception_4e/pool_proj
I0403 15:14:56.845934 12159 net.cpp:91] Creating Layer inception_4e/pool_proj
I0403 15:14:56.845952 12159 net.cpp:425] inception_4e/pool_proj <- inception_4e/pool
I0403 15:14:56.845969 12159 net.cpp:399] inception_4e/pool_proj -> inception_4e/pool_proj
I0403 15:14:56.847440 12159 net.cpp:141] Setting up inception_4e/pool_proj
I0403 15:14:56.847478 12159 net.cpp:148] Top shape: 24 128 14 14 (602112)
I0403 15:14:56.847494 12159 net.cpp:156] Memory required for data: 1254493728
I0403 15:14:56.847512 12159 layer_factory.hpp:77] Creating layer inception_4e/relu_pool_proj
I0403 15:14:56.847532 12159 net.cpp:91] Creating Layer inception_4e/relu_pool_proj
I0403 15:14:56.847549 12159 net.cpp:425] inception_4e/relu_pool_proj <- inception_4e/pool_proj
I0403 15:14:56.847568 12159 net.cpp:386] inception_4e/relu_pool_proj -> inception_4e/pool_proj (in-place)
I0403 15:14:56.847856 12159 net.cpp:141] Setting up inception_4e/relu_pool_proj
I0403 15:14:56.847883 12159 net.cpp:148] Top shape: 24 128 14 14 (602112)
I0403 15:14:56.847898 12159 net.cpp:156] Memory required for data: 1256902176
I0403 15:14:56.847913 12159 layer_factory.hpp:77] Creating layer inception_4e/output
I0403 15:14:56.847934 12159 net.cpp:91] Creating Layer inception_4e/output
I0403 15:14:56.847949 12159 net.cpp:425] inception_4e/output <- inception_4e/1x1
I0403 15:14:56.847966 12159 net.cpp:425] inception_4e/output <- inception_4e/3x3
I0403 15:14:56.847982 12159 net.cpp:425] inception_4e/output <- inception_4e/5x5
I0403 15:14:56.847998 12159 net.cpp:425] inception_4e/output <- inception_4e/pool_proj
I0403 15:14:56.848014 12159 net.cpp:399] inception_4e/output -> inception_4e/output
I0403 15:14:56.848067 12159 net.cpp:141] Setting up inception_4e/output
I0403 15:14:56.848090 12159 net.cpp:148] Top shape: 24 832 14 14 (3913728)
I0403 15:14:56.848105 12159 net.cpp:156] Memory required for data: 1272557088
I0403 15:14:56.848120 12159 layer_factory.hpp:77] Creating layer pool4/3x3_s2
I0403 15:14:56.848142 12159 net.cpp:91] Creating Layer pool4/3x3_s2
I0403 15:14:56.848160 12159 net.cpp:425] pool4/3x3_s2 <- inception_4e/output
I0403 15:14:56.848181 12159 net.cpp:399] pool4/3x3_s2 -> pool4/3x3_s2
I0403 15:14:56.848248 12159 net.cpp:141] Setting up pool4/3x3_s2
I0403 15:14:56.848273 12159 net.cpp:148] Top shape: 24 832 7 7 (978432)
I0403 15:14:56.848287 12159 net.cpp:156] Memory required for data: 1276470816
I0403 15:14:56.848301 12159 layer_factory.hpp:77] Creating layer pool4/3x3_s2_pool4/3x3_s2_0_split
I0403 15:14:56.848320 12159 net.cpp:91] Creating Layer pool4/3x3_s2_pool4/3x3_s2_0_split
I0403 15:14:56.848338 12159 net.cpp:425] pool4/3x3_s2_pool4/3x3_s2_0_split <- pool4/3x3_s2
I0403 15:14:56.848358 12159 net.cpp:399] pool4/3x3_s2_pool4/3x3_s2_0_split -> pool4/3x3_s2_pool4/3x3_s2_0_split_0
I0403 15:14:56.848379 12159 net.cpp:399] pool4/3x3_s2_pool4/3x3_s2_0_split -> pool4/3x3_s2_pool4/3x3_s2_0_split_1
I0403 15:14:56.848400 12159 net.cpp:399] pool4/3x3_s2_pool4/3x3_s2_0_split -> pool4/3x3_s2_pool4/3x3_s2_0_split_2
I0403 15:14:56.848418 12159 net.cpp:399] pool4/3x3_s2_pool4/3x3_s2_0_split -> pool4/3x3_s2_pool4/3x3_s2_0_split_3
I0403 15:14:56.848506 12159 net.cpp:141] Setting up pool4/3x3_s2_pool4/3x3_s2_0_split
I0403 15:14:56.848532 12159 net.cpp:148] Top shape: 24 832 7 7 (978432)
I0403 15:14:56.848551 12159 net.cpp:148] Top shape: 24 832 7 7 (978432)
I0403 15:14:56.848577 12159 net.cpp:148] Top shape: 24 832 7 7 (978432)
I0403 15:14:56.848593 12159 net.cpp:148] Top shape: 24 832 7 7 (978432)
I0403 15:14:56.848608 12159 net.cpp:156] Memory required for data: 1292125728
I0403 15:14:56.848621 12159 layer_factory.hpp:77] Creating layer inception_5a/1x1
I0403 15:14:56.848646 12159 net.cpp:91] Creating Layer inception_5a/1x1
I0403 15:14:56.848664 12159 net.cpp:425] inception_5a/1x1 <- pool4/3x3_s2_pool4/3x3_s2_0_split_0
I0403 15:14:56.848685 12159 net.cpp:399] inception_5a/1x1 -> inception_5a/1x1
I0403 15:14:56.851486 12159 net.cpp:141] Setting up inception_5a/1x1
I0403 15:14:56.851517 12159 net.cpp:148] Top shape: 24 256 7 7 (301056)
I0403 15:14:56.851536 12159 net.cpp:156] Memory required for data: 1293329952
I0403 15:14:56.851553 12159 layer_factory.hpp:77] Creating layer inception_5a/relu_1x1
I0403 15:14:56.851570 12159 net.cpp:91] Creating Layer inception_5a/relu_1x1
I0403 15:14:56.851588 12159 net.cpp:425] inception_5a/relu_1x1 <- inception_5a/1x1
I0403 15:14:56.851606 12159 net.cpp:386] inception_5a/relu_1x1 -> inception_5a/1x1 (in-place)
I0403 15:14:56.851908 12159 net.cpp:141] Setting up inception_5a/relu_1x1
I0403 15:14:56.851938 12159 net.cpp:148] Top shape: 24 256 7 7 (301056)
I0403 15:14:56.851954 12159 net.cpp:156] Memory required for data: 1294534176
I0403 15:14:56.851969 12159 layer_factory.hpp:77] Creating layer inception_5a/3x3_reduce
I0403 15:14:56.851990 12159 net.cpp:91] Creating Layer inception_5a/3x3_reduce
I0403 15:14:56.852008 12159 net.cpp:425] inception_5a/3x3_reduce <- pool4/3x3_s2_pool4/3x3_s2_0_split_1
I0403 15:14:56.852027 12159 net.cpp:399] inception_5a/3x3_reduce -> inception_5a/3x3_reduce
I0403 15:14:56.854439 12159 net.cpp:141] Setting up inception_5a/3x3_reduce
I0403 15:14:56.854468 12159 net.cpp:148] Top shape: 24 160 7 7 (188160)
I0403 15:14:56.854485 12159 net.cpp:156] Memory required for data: 1295286816
I0403 15:14:56.854503 12159 layer_factory.hpp:77] Creating layer inception_5a/relu_3x3_reduce
I0403 15:14:56.854522 12159 net.cpp:91] Creating Layer inception_5a/relu_3x3_reduce
I0403 15:14:56.854540 12159 net.cpp:425] inception_5a/relu_3x3_reduce <- inception_5a/3x3_reduce
I0403 15:14:56.854557 12159 net.cpp:386] inception_5a/relu_3x3_reduce -> inception_5a/3x3_reduce (in-place)
I0403 15:14:56.854740 12159 net.cpp:141] Setting up inception_5a/relu_3x3_reduce
I0403 15:14:56.854768 12159 net.cpp:148] Top shape: 24 160 7 7 (188160)
I0403 15:14:56.854784 12159 net.cpp:156] Memory required for data: 1296039456
I0403 15:14:56.854799 12159 layer_factory.hpp:77] Creating layer inception_5a/3x3
I0403 15:14:56.854821 12159 net.cpp:91] Creating Layer inception_5a/3x3
I0403 15:14:56.854838 12159 net.cpp:425] inception_5a/3x3 <- inception_5a/3x3_reduce
I0403 15:14:56.854857 12159 net.cpp:399] inception_5a/3x3 -> inception_5a/3x3
I0403 15:14:56.859745 12159 net.cpp:141] Setting up inception_5a/3x3
I0403 15:14:56.859776 12159 net.cpp:148] Top shape: 24 320 7 7 (376320)
I0403 15:14:56.859793 12159 net.cpp:156] Memory required for data: 1297544736
I0403 15:14:56.859812 12159 layer_factory.hpp:77] Creating layer inception_5a/relu_3x3
I0403 15:14:56.859832 12159 net.cpp:91] Creating Layer inception_5a/relu_3x3
I0403 15:14:56.859846 12159 net.cpp:425] inception_5a/relu_3x3 <- inception_5a/3x3
I0403 15:14:56.859865 12159 net.cpp:386] inception_5a/relu_3x3 -> inception_5a/3x3 (in-place)
I0403 15:14:56.860157 12159 net.cpp:141] Setting up inception_5a/relu_3x3
I0403 15:14:56.860185 12159 net.cpp:148] Top shape: 24 320 7 7 (376320)
I0403 15:14:56.860203 12159 net.cpp:156] Memory required for data: 1299050016
I0403 15:14:56.860218 12159 layer_factory.hpp:77] Creating layer inception_5a/5x5_reduce
I0403 15:14:56.860240 12159 net.cpp:91] Creating Layer inception_5a/5x5_reduce
I0403 15:14:56.860260 12159 net.cpp:425] inception_5a/5x5_reduce <- pool4/3x3_s2_pool4/3x3_s2_0_split_2
I0403 15:14:56.860280 12159 net.cpp:399] inception_5a/5x5_reduce -> inception_5a/5x5_reduce
I0403 15:14:56.861445 12159 net.cpp:141] Setting up inception_5a/5x5_reduce
I0403 15:14:56.861476 12159 net.cpp:148] Top shape: 24 32 7 7 (37632)
I0403 15:14:56.861495 12159 net.cpp:156] Memory required for data: 1299200544
I0403 15:14:56.861513 12159 layer_factory.hpp:77] Creating layer inception_5a/relu_5x5_reduce
I0403 15:14:56.861531 12159 net.cpp:91] Creating Layer inception_5a/relu_5x5_reduce
I0403 15:14:56.861548 12159 net.cpp:425] inception_5a/relu_5x5_reduce <- inception_5a/5x5_reduce
I0403 15:14:56.861568 12159 net.cpp:386] inception_5a/relu_5x5_reduce -> inception_5a/5x5_reduce (in-place)
I0403 15:14:56.861866 12159 net.cpp:141] Setting up inception_5a/relu_5x5_reduce
I0403 15:14:56.861893 12159 net.cpp:148] Top shape: 24 32 7 7 (37632)
I0403 15:14:56.861908 12159 net.cpp:156] Memory required for data: 1299351072
I0403 15:14:56.861922 12159 layer_factory.hpp:77] Creating layer inception_5a/5x5
I0403 15:14:56.861945 12159 net.cpp:91] Creating Layer inception_5a/5x5
I0403 15:14:56.861963 12159 net.cpp:425] inception_5a/5x5 <- inception_5a/5x5_reduce
I0403 15:14:56.861984 12159 net.cpp:399] inception_5a/5x5 -> inception_5a/5x5
I0403 15:14:56.863731 12159 net.cpp:141] Setting up inception_5a/5x5
I0403 15:14:56.863775 12159 net.cpp:148] Top shape: 24 128 7 7 (150528)
I0403 15:14:56.863793 12159 net.cpp:156] Memory required for data: 1299953184
I0403 15:14:56.863812 12159 layer_factory.hpp:77] Creating layer inception_5a/relu_5x5
I0403 15:14:56.863831 12159 net.cpp:91] Creating Layer inception_5a/relu_5x5
I0403 15:14:56.863847 12159 net.cpp:425] inception_5a/relu_5x5 <- inception_5a/5x5
I0403 15:14:56.863867 12159 net.cpp:386] inception_5a/relu_5x5 -> inception_5a/5x5 (in-place)
I0403 15:14:56.864054 12159 net.cpp:141] Setting up inception_5a/relu_5x5
I0403 15:14:56.864080 12159 net.cpp:148] Top shape: 24 128 7 7 (150528)
I0403 15:14:56.864095 12159 net.cpp:156] Memory required for data: 1300555296
I0403 15:14:56.864109 12159 layer_factory.hpp:77] Creating layer inception_5a/pool
I0403 15:14:56.864130 12159 net.cpp:91] Creating Layer inception_5a/pool
I0403 15:14:56.864148 12159 net.cpp:425] inception_5a/pool <- pool4/3x3_s2_pool4/3x3_s2_0_split_3
I0403 15:14:56.864169 12159 net.cpp:399] inception_5a/pool -> inception_5a/pool
I0403 15:14:56.864240 12159 net.cpp:141] Setting up inception_5a/pool
I0403 15:14:56.864265 12159 net.cpp:148] Top shape: 24 832 7 7 (978432)
I0403 15:14:56.864279 12159 net.cpp:156] Memory required for data: 1304469024
I0403 15:14:56.864295 12159 layer_factory.hpp:77] Creating layer inception_5a/pool_proj
I0403 15:14:56.864317 12159 net.cpp:91] Creating Layer inception_5a/pool_proj
I0403 15:14:56.864334 12159 net.cpp:425] inception_5a/pool_proj <- inception_5a/pool
I0403 15:14:56.864354 12159 net.cpp:399] inception_5a/pool_proj -> inception_5a/pool_proj
I0403 15:14:56.866580 12159 net.cpp:141] Setting up inception_5a/pool_proj
I0403 15:14:56.866611 12159 net.cpp:148] Top shape: 24 128 7 7 (150528)
I0403 15:14:56.866629 12159 net.cpp:156] Memory required for data: 1305071136
I0403 15:14:56.866648 12159 layer_factory.hpp:77] Creating layer inception_5a/relu_pool_proj
I0403 15:14:56.866667 12159 net.cpp:91] Creating Layer inception_5a/relu_pool_proj
I0403 15:14:56.866683 12159 net.cpp:425] inception_5a/relu_pool_proj <- inception_5a/pool_proj
I0403 15:14:56.866699 12159 net.cpp:386] inception_5a/relu_pool_proj -> inception_5a/pool_proj (in-place)
I0403 15:14:56.866991 12159 net.cpp:141] Setting up inception_5a/relu_pool_proj
I0403 15:14:56.867020 12159 net.cpp:148] Top shape: 24 128 7 7 (150528)
I0403 15:14:56.867038 12159 net.cpp:156] Memory required for data: 1305673248
I0403 15:14:56.867053 12159 layer_factory.hpp:77] Creating layer inception_5a/output
I0403 15:14:56.867069 12159 net.cpp:91] Creating Layer inception_5a/output
I0403 15:14:56.867085 12159 net.cpp:425] inception_5a/output <- inception_5a/1x1
I0403 15:14:56.867102 12159 net.cpp:425] inception_5a/output <- inception_5a/3x3
I0403 15:14:56.867120 12159 net.cpp:425] inception_5a/output <- inception_5a/5x5
I0403 15:14:56.867141 12159 net.cpp:425] inception_5a/output <- inception_5a/pool_proj
I0403 15:14:56.867161 12159 net.cpp:399] inception_5a/output -> inception_5a/output
I0403 15:14:56.867213 12159 net.cpp:141] Setting up inception_5a/output
I0403 15:14:56.867238 12159 net.cpp:148] Top shape: 24 832 7 7 (978432)
I0403 15:14:56.867252 12159 net.cpp:156] Memory required for data: 1309586976
I0403 15:14:56.867266 12159 layer_factory.hpp:77] Creating layer inception_5a/output_inception_5a/output_0_split
I0403 15:14:56.867283 12159 net.cpp:91] Creating Layer inception_5a/output_inception_5a/output_0_split
I0403 15:14:56.867300 12159 net.cpp:425] inception_5a/output_inception_5a/output_0_split <- inception_5a/output
I0403 15:14:56.867319 12159 net.cpp:399] inception_5a/output_inception_5a/output_0_split -> inception_5a/output_inception_5a/output_0_split_0
I0403 15:14:56.867341 12159 net.cpp:399] inception_5a/output_inception_5a/output_0_split -> inception_5a/output_inception_5a/output_0_split_1
I0403 15:14:56.867372 12159 net.cpp:399] inception_5a/output_inception_5a/output_0_split -> inception_5a/output_inception_5a/output_0_split_2
I0403 15:14:56.867393 12159 net.cpp:399] inception_5a/output_inception_5a/output_0_split -> inception_5a/output_inception_5a/output_0_split_3
I0403 15:14:56.867504 12159 net.cpp:141] Setting up inception_5a/output_inception_5a/output_0_split
I0403 15:14:56.867529 12159 net.cpp:148] Top shape: 24 832 7 7 (978432)
I0403 15:14:56.867545 12159 net.cpp:148] Top shape: 24 832 7 7 (978432)
I0403 15:14:56.867561 12159 net.cpp:148] Top shape: 24 832 7 7 (978432)
I0403 15:14:56.867576 12159 net.cpp:148] Top shape: 24 832 7 7 (978432)
I0403 15:14:56.867589 12159 net.cpp:156] Memory required for data: 1325241888
I0403 15:14:56.867604 12159 layer_factory.hpp:77] Creating layer inception_5b/1x1
I0403 15:14:56.867625 12159 net.cpp:91] Creating Layer inception_5b/1x1
I0403 15:14:56.867653 12159 net.cpp:425] inception_5b/1x1 <- inception_5a/output_inception_5a/output_0_split_0
I0403 15:14:56.867676 12159 net.cpp:399] inception_5b/1x1 -> inception_5b/1x1
I0403 15:14:56.871429 12159 net.cpp:141] Setting up inception_5b/1x1
I0403 15:14:56.871461 12159 net.cpp:148] Top shape: 24 384 7 7 (451584)
I0403 15:14:56.871477 12159 net.cpp:156] Memory required for data: 1327048224
I0403 15:14:56.871496 12159 layer_factory.hpp:77] Creating layer inception_5b/relu_1x1
I0403 15:14:56.871518 12159 net.cpp:91] Creating Layer inception_5b/relu_1x1
I0403 15:14:56.871536 12159 net.cpp:425] inception_5b/relu_1x1 <- inception_5b/1x1
I0403 15:14:56.871554 12159 net.cpp:386] inception_5b/relu_1x1 -> inception_5b/1x1 (in-place)
I0403 15:14:56.871862 12159 net.cpp:141] Setting up inception_5b/relu_1x1
I0403 15:14:56.871891 12159 net.cpp:148] Top shape: 24 384 7 7 (451584)
I0403 15:14:56.871906 12159 net.cpp:156] Memory required for data: 1328854560
I0403 15:14:56.871922 12159 layer_factory.hpp:77] Creating layer inception_5b/3x3_reduce
I0403 15:14:56.871945 12159 net.cpp:91] Creating Layer inception_5b/3x3_reduce
I0403 15:14:56.871963 12159 net.cpp:425] inception_5b/3x3_reduce <- inception_5a/output_inception_5a/output_0_split_1
I0403 15:14:56.871985 12159 net.cpp:399] inception_5b/3x3_reduce -> inception_5b/3x3_reduce
I0403 15:14:56.874709 12159 net.cpp:141] Setting up inception_5b/3x3_reduce
I0403 15:14:56.874740 12159 net.cpp:148] Top shape: 24 192 7 7 (225792)
I0403 15:14:56.874757 12159 net.cpp:156] Memory required for data: 1329757728
I0403 15:14:56.874776 12159 layer_factory.hpp:77] Creating layer inception_5b/relu_3x3_reduce
I0403 15:14:56.874796 12159 net.cpp:91] Creating Layer inception_5b/relu_3x3_reduce
I0403 15:14:56.874814 12159 net.cpp:425] inception_5b/relu_3x3_reduce <- inception_5b/3x3_reduce
I0403 15:14:56.874832 12159 net.cpp:386] inception_5b/relu_3x3_reduce -> inception_5b/3x3_reduce (in-place)
I0403 15:14:56.875025 12159 net.cpp:141] Setting up inception_5b/relu_3x3_reduce
I0403 15:14:56.875053 12159 net.cpp:148] Top shape: 24 192 7 7 (225792)
I0403 15:14:56.875071 12159 net.cpp:156] Memory required for data: 1330660896
I0403 15:14:56.875085 12159 layer_factory.hpp:77] Creating layer inception_5b/3x3
I0403 15:14:56.875108 12159 net.cpp:91] Creating Layer inception_5b/3x3
I0403 15:14:56.875130 12159 net.cpp:425] inception_5b/3x3 <- inception_5b/3x3_reduce
I0403 15:14:56.875152 12159 net.cpp:399] inception_5b/3x3 -> inception_5b/3x3
I0403 15:14:56.882274 12159 net.cpp:141] Setting up inception_5b/3x3
I0403 15:14:56.882308 12159 net.cpp:148] Top shape: 24 384 7 7 (451584)
I0403 15:14:56.882326 12159 net.cpp:156] Memory required for data: 1332467232
I0403 15:14:56.882346 12159 layer_factory.hpp:77] Creating layer inception_5b/relu_3x3
I0403 15:14:56.882380 12159 net.cpp:91] Creating Layer inception_5b/relu_3x3
I0403 15:14:56.882398 12159 net.cpp:425] inception_5b/relu_3x3 <- inception_5b/3x3
I0403 15:14:56.882418 12159 net.cpp:386] inception_5b/relu_3x3 -> inception_5b/3x3 (in-place)
I0403 15:14:56.882768 12159 net.cpp:141] Setting up inception_5b/relu_3x3
I0403 15:14:56.882799 12159 net.cpp:148] Top shape: 24 384 7 7 (451584)
I0403 15:14:56.882815 12159 net.cpp:156] Memory required for data: 1334273568
I0403 15:14:56.882830 12159 layer_factory.hpp:77] Creating layer inception_5b/5x5_reduce
I0403 15:14:56.882869 12159 net.cpp:91] Creating Layer inception_5b/5x5_reduce
I0403 15:14:56.882887 12159 net.cpp:425] inception_5b/5x5_reduce <- inception_5a/output_inception_5a/output_0_split_2
I0403 15:14:56.882911 12159 net.cpp:399] inception_5b/5x5_reduce -> inception_5b/5x5_reduce
I0403 15:14:56.884302 12159 net.cpp:141] Setting up inception_5b/5x5_reduce
I0403 15:14:56.884332 12159 net.cpp:148] Top shape: 24 48 7 7 (56448)
I0403 15:14:56.884348 12159 net.cpp:156] Memory required for data: 1334499360
I0403 15:14:56.884366 12159 layer_factory.hpp:77] Creating layer inception_5b/relu_5x5_reduce
I0403 15:14:56.884398 12159 net.cpp:91] Creating Layer inception_5b/relu_5x5_reduce
I0403 15:14:56.884418 12159 net.cpp:425] inception_5b/relu_5x5_reduce <- inception_5b/5x5_reduce
I0403 15:14:56.884436 12159 net.cpp:386] inception_5b/relu_5x5_reduce -> inception_5b/5x5_reduce (in-place)
I0403 15:14:56.884829 12159 net.cpp:141] Setting up inception_5b/relu_5x5_reduce
I0403 15:14:56.884856 12159 net.cpp:148] Top shape: 24 48 7 7 (56448)
I0403 15:14:56.884872 12159 net.cpp:156] Memory required for data: 1334725152
I0403 15:14:56.884887 12159 layer_factory.hpp:77] Creating layer inception_5b/5x5
I0403 15:14:56.884908 12159 net.cpp:91] Creating Layer inception_5b/5x5
I0403 15:14:56.884927 12159 net.cpp:425] inception_5b/5x5 <- inception_5b/5x5_reduce
I0403 15:14:56.884948 12159 net.cpp:399] inception_5b/5x5 -> inception_5b/5x5
I0403 15:14:56.887192 12159 net.cpp:141] Setting up inception_5b/5x5
I0403 15:14:56.887238 12159 net.cpp:148] Top shape: 24 128 7 7 (150528)
I0403 15:14:56.887255 12159 net.cpp:156] Memory required for data: 1335327264
I0403 15:14:56.887275 12159 layer_factory.hpp:77] Creating layer inception_5b/relu_5x5
I0403 15:14:56.887293 12159 net.cpp:91] Creating Layer inception_5b/relu_5x5
I0403 15:14:56.887322 12159 net.cpp:425] inception_5b/relu_5x5 <- inception_5b/5x5
I0403 15:14:56.887352 12159 net.cpp:386] inception_5b/relu_5x5 -> inception_5b/5x5 (in-place)
I0403 15:14:56.887552 12159 net.cpp:141] Setting up inception_5b/relu_5x5
I0403 15:14:56.887578 12159 net.cpp:148] Top shape: 24 128 7 7 (150528)
I0403 15:14:56.887606 12159 net.cpp:156] Memory required for data: 1335929376
I0403 15:14:56.887621 12159 layer_factory.hpp:77] Creating layer inception_5b/pool
I0403 15:14:56.887640 12159 net.cpp:91] Creating Layer inception_5b/pool
I0403 15:14:56.887670 12159 net.cpp:425] inception_5b/pool <- inception_5a/output_inception_5a/output_0_split_3
I0403 15:14:56.887691 12159 net.cpp:399] inception_5b/pool -> inception_5b/pool
I0403 15:14:56.887778 12159 net.cpp:141] Setting up inception_5b/pool
I0403 15:14:56.887804 12159 net.cpp:148] Top shape: 24 832 7 7 (978432)
I0403 15:14:56.887820 12159 net.cpp:156] Memory required for data: 1339843104
I0403 15:14:56.887836 12159 layer_factory.hpp:77] Creating layer inception_5b/pool_proj
I0403 15:14:56.887861 12159 net.cpp:91] Creating Layer inception_5b/pool_proj
I0403 15:14:56.887879 12159 net.cpp:425] inception_5b/pool_proj <- inception_5b/pool
I0403 15:14:56.887915 12159 net.cpp:399] inception_5b/pool_proj -> inception_5b/pool_proj
I0403 15:14:56.890347 12159 net.cpp:141] Setting up inception_5b/pool_proj
I0403 15:14:56.890377 12159 net.cpp:148] Top shape: 24 128 7 7 (150528)
I0403 15:14:56.890393 12159 net.cpp:156] Memory required for data: 1340445216
I0403 15:14:56.890413 12159 layer_factory.hpp:77] Creating layer inception_5b/relu_pool_proj
I0403 15:14:56.890432 12159 net.cpp:91] Creating Layer inception_5b/relu_pool_proj
I0403 15:14:56.890450 12159 net.cpp:425] inception_5b/relu_pool_proj <- inception_5b/pool_proj
I0403 15:14:56.890466 12159 net.cpp:386] inception_5b/relu_pool_proj -> inception_5b/pool_proj (in-place)
I0403 15:14:56.890786 12159 net.cpp:141] Setting up inception_5b/relu_pool_proj
I0403 15:14:56.890815 12159 net.cpp:148] Top shape: 24 128 7 7 (150528)
I0403 15:14:56.890830 12159 net.cpp:156] Memory required for data: 1341047328
I0403 15:14:56.890846 12159 layer_factory.hpp:77] Creating layer inception_5b/output
I0403 15:14:56.890864 12159 net.cpp:91] Creating Layer inception_5b/output
I0403 15:14:56.890895 12159 net.cpp:425] inception_5b/output <- inception_5b/1x1
I0403 15:14:56.890913 12159 net.cpp:425] inception_5b/output <- inception_5b/3x3
I0403 15:14:56.890931 12159 net.cpp:425] inception_5b/output <- inception_5b/5x5
I0403 15:14:56.890949 12159 net.cpp:425] inception_5b/output <- inception_5b/pool_proj
I0403 15:14:56.890966 12159 net.cpp:399] inception_5b/output -> inception_5b/output
I0403 15:14:56.891019 12159 net.cpp:141] Setting up inception_5b/output
I0403 15:14:56.891043 12159 net.cpp:148] Top shape: 24 1024 7 7 (1204224)
I0403 15:14:56.891058 12159 net.cpp:156] Memory required for data: 1345864224
I0403 15:14:56.891072 12159 layer_factory.hpp:77] Creating layer pool5/7x7_s1
I0403 15:14:56.891089 12159 net.cpp:91] Creating Layer pool5/7x7_s1
I0403 15:14:56.891105 12159 net.cpp:425] pool5/7x7_s1 <- inception_5b/output
I0403 15:14:56.891129 12159 net.cpp:399] pool5/7x7_s1 -> pool5/7x7_s1
I0403 15:14:56.891376 12159 net.cpp:141] Setting up pool5/7x7_s1
I0403 15:14:56.891405 12159 net.cpp:148] Top shape: 24 1024 1 1 (24576)
I0403 15:14:56.891422 12159 net.cpp:156] Memory required for data: 1345962528
I0403 15:14:56.891438 12159 layer_factory.hpp:77] Creating layer pool5/drop_7x7_s1
I0403 15:14:56.891455 12159 net.cpp:91] Creating Layer pool5/drop_7x7_s1
I0403 15:14:56.891471 12159 net.cpp:425] pool5/drop_7x7_s1 <- pool5/7x7_s1
I0403 15:14:56.891491 12159 net.cpp:386] pool5/drop_7x7_s1 -> pool5/7x7_s1 (in-place)
I0403 15:14:56.891543 12159 net.cpp:141] Setting up pool5/drop_7x7_s1
I0403 15:14:56.891568 12159 net.cpp:148] Top shape: 24 1024 1 1 (24576)
I0403 15:14:56.891583 12159 net.cpp:156] Memory required for data: 1346060832
I0403 15:14:56.891599 12159 layer_factory.hpp:77] Creating layer loss3/classifier_plantvillage
I0403 15:14:56.891621 12159 net.cpp:91] Creating Layer loss3/classifier_plantvillage
I0403 15:14:56.891639 12159 net.cpp:425] loss3/classifier_plantvillage <- pool5/7x7_s1
I0403 15:14:56.891660 12159 net.cpp:399] loss3/classifier_plantvillage -> loss3/classifier_plantvillage
I0403 15:14:56.892148 12159 net.cpp:141] Setting up loss3/classifier_plantvillage
I0403 15:14:56.892174 12159 net.cpp:148] Top shape: 24 38 (912)
I0403 15:14:56.892189 12159 net.cpp:156] Memory required for data: 1346064480
I0403 15:14:56.892207 12159 layer_factory.hpp:77] Creating layer loss3/classifier_plantvillage_loss3/classifier_plantvillage_0_split
I0403 15:14:56.892226 12159 net.cpp:91] Creating Layer loss3/classifier_plantvillage_loss3/classifier_plantvillage_0_split
I0403 15:14:56.892247 12159 net.cpp:425] loss3/classifier_plantvillage_loss3/classifier_plantvillage_0_split <- loss3/classifier_plantvillage
I0403 15:14:56.892266 12159 net.cpp:399] loss3/classifier_plantvillage_loss3/classifier_plantvillage_0_split -> loss3/classifier_plantvillage_loss3/classifier_plantvillage_0_split_0
I0403 15:14:56.892285 12159 net.cpp:399] loss3/classifier_plantvillage_loss3/classifier_plantvillage_0_split -> loss3/classifier_plantvillage_loss3/classifier_plantvillage_0_split_1
I0403 15:14:56.892307 12159 net.cpp:399] loss3/classifier_plantvillage_loss3/classifier_plantvillage_0_split -> loss3/classifier_plantvillage_loss3/classifier_plantvillage_0_split_2
I0403 15:14:56.892326 12159 net.cpp:399] loss3/classifier_plantvillage_loss3/classifier_plantvillage_0_split -> loss3/classifier_plantvillage_loss3/classifier_plantvillage_0_split_3
I0403 15:14:56.892431 12159 net.cpp:141] Setting up loss3/classifier_plantvillage_loss3/classifier_plantvillage_0_split
I0403 15:14:56.892454 12159 net.cpp:148] Top shape: 24 38 (912)
I0403 15:14:56.892472 12159 net.cpp:148] Top shape: 24 38 (912)
I0403 15:14:56.892485 12159 net.cpp:148] Top shape: 24 38 (912)
I0403 15:14:56.892500 12159 net.cpp:148] Top shape: 24 38 (912)
I0403 15:14:56.892514 12159 net.cpp:156] Memory required for data: 1346079072
I0403 15:14:56.892529 12159 layer_factory.hpp:77] Creating layer loss1/loss
I0403 15:14:56.892551 12159 net.cpp:91] Creating Layer loss1/loss
I0403 15:14:56.892570 12159 net.cpp:425] loss1/loss <- loss1/classifier_plantvillage_loss1/classifier_plantvillage_0_split_0
I0403 15:14:56.892601 12159 net.cpp:425] loss1/loss <- label_data_1_split_0
…
