…
I0403 15:13:32.781585 12089 net.cpp:313] The NetState phase (1) differed from the phase (0) specified by a rule in layer data
I0403 15:13:32.782721 12089 net.cpp:49] Initializing net from parameters: 
state {
  phase: TEST
}
layer {
  name: "data"
  type: "Data"
  top: "data"
  top: "label"
  include {
    phase: TEST
  }
  transform_param {
    mirror: false
    crop_size: 224
    mean_file: "/home/mohanty/data/final_dataset/lmdb/grayscale-60-40/mean.binaryproto"
  }
  data_param {
    source: "/home/mohanty/data/final_dataset/lmdb/grayscale-60-40/test_db"
    batch_size: 24
    backend: LMDB
  }
}
layer {
  name: "conv1/7x7_s2"
  type: "Convolution"
  bottom: "data"
  top: "conv1/7x7_s2"
  param {
    lr_mult: 1
    decay_mult: 1
  }
  param {
    lr_mult: 2
    decay_mult: 0
  }
  convolution_param {
    num_output: 64
    pad: 3
    kernel_size: 7
    stride: 2
    weight_filler {
      type: "xavier"
      std: 0.1
    }
    bias_filler {
      type: "constant"
      value: 0.2
    }
  }
}
layer {
  name: "conv1/relu_7x7"
  type: "ReLU"
  bottom: "conv1/7x7_s2"
  top: "conv1/7x7_s2"
}
layer {
  name: "pool1/3x3_s2"
  type: "Pooling"
  bottom: "conv1/7x7_s2"
  top: "pool1/3x3_s2"
  pooling_param {
    pool: MAX
    kernel_size: 3
    stride: 2
  }
}
layer {
  name: "pool1/norm1"
  type: "LRN"
  bottom: "pool1/3x3_s2"
  top: "pool1/norm1"
  lrn_param {
    local_size: 5
    alpha: 0.0001
    beta: 0.75
  }
}
layer {
  name: "conv2/3x3_reduce"
  type: "Convolution"
  bottom: "pool1/norm1"
  top: "conv2/3x3_reduce"
  param {
    lr_mult: 1
    decay_mult: 1
  }
  param {
    lr_mult: 2
    decay_mult: 0
  }
  convolution_param {
    num_output: 64
    kernel_size: 1
    weight_filler {
      type: "xavier"
      std: 0.1
    }
    bias_filler {
      type: "constant"
      value: 0.2
    }
  }
}
layer {
  name: "conv2/relu_3x3_reduce"
  type: "ReLU"
  bottom: "conv2/3x3_reduce"
  top: "conv2/3x3_reduce"
}
layer {
  name: "conv2/3x3"
  type: "Convolution"
  bottom: "conv2/3x3_reduce"
  top: "conv2/3x3"
  param {
    lr_mult: 1
    decay_mult: 1
  }
  param {
    lr_mult: 2
    decay_mult: 0
  }
  convolution_param {
    num_output: 192
    pad: 1
    kernel_size: 3
    weight_filler {
      type: "xavier"
      std: 0.03
    }
    bias_filler {
      type: "constant"
      value: 0.2
    }
  }
}
layer {
  name: "conv2/relu_3x3"
  type: "ReLU"
  bottom: "conv2/3x3"
  top: "conv2/3x3"
}
layer {
  name: "conv2/norm2"
  type: "LRN"
  bottom: "conv2/3x3"
  top: "conv2/norm2"
  lrn_param {
    local_size: 5
    alpha: 0.0001
    beta: 0.75
  }
}
layer {
  name: "pool2/3x3_s2"
  type: "Pooling"
  bottom: "conv2/norm2"
  top: "pool2/3x3_s2"
  pooling_param {
    pool: MAX
    kernel_size: 3
    stride: 2
  }
}
layer {
  name: "inception_3a/1x1"
  type: "Convolution"
  bottom: "pool2/3x3_s2"
  top: "inception_3a/1x1"
  param {
    lr_mult: 1
    decay_mult: 1
  }
  param {
    lr_mult: 2
    decay_mult: 0
  }
  convolution_param {
    num_output: 64
    kernel_size: 1
    weight_filler {
      type: "xavier"
      std: 0.03
    }
    bias_filler {
      type: "constant"
      value: 0.2
    }
  }
}
layer {
  name: "inception_3a/relu_1x1"
  type: "ReLU"
  bottom: "inception_3a/1x1"
  top: "inception_3a/1x1"
}
layer {
  name: "inception_3a/3x3_reduce"
  type: "Convolution"
  bottom: "pool2/3x3_s2"
  top: "inception_3a/3x3_reduce"
  param {
    lr_mult: 1
    decay_mult: 1
  }
  param {
    lr_mult: 2
    decay_mult: 0
  }
  convolution_param {
    num_output: 96
    kernel_size: 1
    weight_filler {
      type: "xavier"
      std: 0.09
    }
    bias_filler {
      type: "constant"
      value: 0.2
    }
  }
}
layer {
  name: "inception_3a/relu_3x3_reduce"
  type: "ReLU"
  bottom: "inception_3a/3x3_reduce"
  top: "inception_3a/3x3_reduce"
}
layer {
  name: "inception_3a/3x3"
  type: "Convolution"
  bottom: "inception_3a/3x3_reduce"
  top: "inception_3a/3x3"
  param {
    lr_mult: 1
    decay_mult: 1
  }
  param {
    lr_mult: 2
    decay_mult: 0
  }
  convolution_param {
    num_output: 128
    pad: 1
    kernel_size: 3
    weight_filler {
      type: "xavier"
      std: 0.03
    }
    bias_filler {
      type: "constant"
      value: 0.2
    }
  }
}
layer {
  name: "inception_3a/relu_3x3"
  type: "ReLU"
  bottom: "inception_3a/3x3"
  top: "inception_3a/3x3"
}
layer {
  name: "inception_3a/5x5_reduce"
  type: "Convolution"
  bottom: "pool2/3x3_s2"
  top: "inception_3a/5x5_reduce"
  param {
    lr_mult: 1
    decay_mult: 1
  }
  param {
    lr_mult: 2
    decay_mult: 0
  }
  convolution_param {
    num_output: 16
    kernel_size: 1
    weight_filler {
      type: "xavier"
      std: 0.2
    }
    bias_filler {
      type: "constant"
      value: 0.2
    }
  }
}
layer {
  name: "inception_3a/relu_5x5_reduce"
  type: "ReLU"
  bottom: "inception_3a/5x5_reduce"
  top: "inception_3a/5x5_reduce"
}
layer {
  name: "inception_3a/5x5"
  type: "Convolution"
  bottom: "inception_3a/5x5_reduce"
  top: "inception_3a/5x5"
  param {
    lr_mult: 1
    decay_mult: 1
  }
  param {
    lr_mult: 2
    decay_mult: 0
  }
  convolution_param {
    num_output: 32
    pad: 2
    kernel_size: 5
    weight_filler {
      type: "xavier"
      std: 0.03
    }
    bias_filler {
      type: "constant"
      value: 0.2
    }
  }
}
layer {
  name: "inception_3a/relu_5x5"
  type: "ReLU"
  bottom: "inception_3a/5x5"
  top: "inception_3a/5x5"
}
layer {
  name: "inception_3a/pool"
  type: "Pooling"
  bottom: "pool2/3x3_s2"
  top: "inception_3a/pool"
  pooling_param {
    pool: MAX
    kernel_size: 3
    stride: 1
    pad: 1
  }
}
layer {
  name: "inception_3a/pool_proj"
  type: "Convolution"
  bottom: "inception_3a/pool"
  top: "inception_3a/pool_proj"
  param {
    lr_mult: 1
    decay_mult: 1
  }
  param {
    lr_mult: 2
    decay_mult: 0
  }
  convolution_param {
    num_output: 32
    kernel_size: 1
    weight_filler {
      type: "xavier"
      std: 0.1
    }
    bias_filler {
      type: "constant"
      value: 0.2
    }
  }
}
layer {
  name: "inception_3a/relu_pool_proj"
  type: "ReLU"
  bottom: "inception_3a/pool_proj"
  top: "inception_3a/pool_proj"
}
layer {
  name: "inception_3a/output"
  type: "Concat"
  bottom: "inception_3a/1x1"
  bottom: "inception_3a/3x3"
  bottom: "inception_3a/5x5"
  bottom: "inception_3a/pool_proj"
  top: "inception_3a/output"
}
layer {
  name: "inception_3b/1x1"
  type: "Convolution"
  bottom: "inception_3a/output"
  top: "inception_3b/1x1"
  param {
    lr_mult: 1
    decay_mult: 1
  }
  param {
    lr_mult: 2
    decay_mult: 0
  }
  convolution_param {
    num_output: 128
    kernel_size: 1
    weight_filler {
      type: "xavier"
      std: 0.03
    }
    bias_filler {
      type: "constant"
      value: 0.2
    }
  }
}
layer {
  name: "inception_3b/relu_1x1"
  type: "ReLU"
  bottom: "inception_3b/1x1"
  top: "inception_3b/1x1"
}
layer {
  name: "inception_3b/3x3_reduce"
  type: "Convolution"
  bottom: "inception_3a/output"
  top: "inception_3b/3x3_reduce"
  param {
    lr_mult: 1
    decay_mult: 1
  }
  param {
    lr_mult: 2
    decay_mult: 0
  }
  convolution_param {
    num_output: 128
    kernel_size: 1
    weight_filler {
      type: "xavier"
      std: 0.09
    }
    bias_filler {
      type: "constant"
      value: 0.2
    }
  }
}
layer {
  name: "inception_3b/relu_3x3_reduce"
  type: "ReLU"
  bottom: "inception_3b/3x3_reduce"
  top: "inception_3b/3x3_reduce"
}
layer {
  name: "inception_3b/3x3"
  type: "Convolution"
  bottom: "inception_3b/3x3_reduce"
  top: "inception_3b/3x3"
  param {
    lr_mult: 1
    decay_mult: 1
  }
  param {
    lr_mult: 2
    decay_mult: 0
  }
  convolution_param {
    num_output: 192
    pad: 1
    kernel_size: 3
    weight_filler {
      type: "xavier"
      std: 0.03
    }
    bias_filler {
      type: "constant"
      value: 0.2
    }
  }
}
layer {
  name: "inception_3b/relu_3x3"
  type: "ReLU"
  bottom: "inception_3b/3x3"
  top: "inception_3b/3x3"
}
layer {
  name: "inception_3b/5x5_reduce"
  type: "Convolution"
  bottom: "inception_3a/output"
  top: "inception_3b/5x5_reduce"
  param {
    lr_mult: 1
    decay_mult: 1
  }
  param {
    lr_mult: 2
    decay_mult: 0
  }
  convolution_param {
    num_output: 32
    kernel_size: 1
    weight_filler {
      type: "xavier"
      std: 0.2
    }
    bias_filler {
      type: "constant"
      value: 0.2
    }
  }
}
layer {
  name: "inception_3b/relu_5x5_reduce"
  type: "ReLU"
  bottom: "inception_3b/5x5_reduce"
  top: "inception_3b/5x5_reduce"
}
layer {
  name: "inception_3b/5x5"
  type: "Convolution"
  bottom: "inception_3b/5x5_reduce"
  top: "inception_3b/5x5"
  param {
    lr_mult: 1
    decay_mult: 1
  }
  param {
    lr_mult: 2
    decay_mult: 0
  }
  convolution_param {
    num_output: 96
    pad: 2
    kernel_size: 5
    weight_filler {
      type: "xavier"
      std: 0.03
    }
    bias_filler {
      type: "constant"
      value: 0.2
    }
  }
}
layer {
  name: "inception_3b/relu_5x5"
  type: "ReLU"
  bottom: "inception_3b/5x5"
  top: "inception_3b/5x5"
}
layer {
  name: "inception_3b/pool"
  type: "Pooling"
  bottom: "inception_3a/output"
  top: "inception_3b/pool"
  pooling_param {
    pool: MAX
    kernel_size: 3
    stride: 1
    pad: 1
  }
}
layer {
  name: "inception_3b/pool_proj"
  type: "Convolution"
  bottom: "inception_3b/pool"
  top: "inception_3b/pool_proj"
  param {
    lr_mult: 1
    decay_mult: 1
  }
  param {
    lr_mult: 2
    decay_mult: 0
  }
  convolution_param {
    num_output: 64
    kernel_size: 1
    weight_filler {
      type: "xavier"
      std: 0.1
    }
    bias_filler {
      type: "constant"
      value: 0.2
    }
  }
}
layer {
  name: "inception_3b/relu_pool_proj"
  type: "ReLU"
  bottom: "inception_3b/pool_proj"
  top: "inception_3b/pool_proj"
}
layer {
  name: "inception_3b/output"
  type: "Concat"
  bottom: "inception_3b/1x1"
  bottom: "inception_3b/3x3"
  bottom: "inception_3b/5x5"
  bottom: "inception_3b/pool_proj"
  top: "inception_3b/output"
}
layer {
  name: "pool3/3x3_s2"
  type: "Pooling"
  bottom: "inception_3b/output"
  top: "pool3/3x3_s2"
  pooling_param {
    pool: MAX
    kernel_size: 3
    stride: 2
  }
}
layer {
  name: "inception_4a/1x1"
  type: "Convolution"
  bottom: "pool3/3x3_s2"
  top: "inception_4a/1x1"
  param {
    lr_mult: 1
    decay_mult: 1
  }
  param {
    lr_mult: 2
    decay_mult: 0
  }
  convolution_param {
    num_output: 192
    kernel_size: 1
    weight_filler {
      type: "xavier"
      std: 0.03
    }
    bias_filler {
      type: "constant"
      value: 0.2
    }
  }
}
layer {
  name: "inception_4a/relu_1x1"
  type: "ReLU"
  bottom: "inception_4a/1x1"
  top: "inception_4a/1x1"
}
layer {
  name: "inception_4a/3x3_reduce"
  type: "Convolution"
  bottom: "pool3/3x3_s2"
  top: "inception_4a/3x3_reduce"
  param {
    lr_mult: 1
    decay_mult: 1
  }
  param {
    lr_mult: 2
    decay_mult: 0
  }
  convolution_param {
    num_output: 96
    kernel_size: 1
    weight_filler {
      type: "xavier"
      std: 0.09
    }
    bias_filler {
      type: "constant"
      value: 0.2
    }
  }
}
layer {
  name: "inception_4a/relu_3x3_reduce"
  type: "ReLU"
  bottom: "inception_4a/3x3_reduce"
  top: "inception_4a/3x3_reduce"
}
layer {
  name: "inception_4a/3x3"
  type: "Convolution"
  bottom: "inception_4a/3x3_reduce"
  top: "inception_4a/3x3"
  param {
    lr_mult: 1
    decay_mult: 1
  }
  param {
    lr_mult: 2
    decay_mult: 0
  }
  convolution_param {
    num_output: 208
    pad: 1
    kernel_size: 3
    weight_filler {
      type: "xavier"
      std: 0.03
    }
    bias_filler {
      type: "constant"
      value: 0.2
    }
  }
}
layer {
  name: "inception_4a/relu_3x3"
  type: "ReLU"
  bottom: "inception_4a/3x3"
  top: "inception_4a/3x3"
}
layer {
  name: "inception_4a/5x5_reduce"
  type: "Convolution"
  bottom: "pool3/3x3_s2"
  top: "inception_4a/5x5_reduce"
  param {
    lr_mult: 1
    decay_mult: 1
  }
  param {
    lr_mult: 2
    decay_mult: 0
  }
  convolution_param {
    num_output: 16
    kernel_size: 1
    weight_filler {
      type: "xavier"
      std: 0.2
    }
    bias_filler {
      type: "constant"
      value: 0.2
    }
  }
}
layer {
  name: "inception_4a/relu_5x5_reduce"
  type: "ReLU"
  bottom: "inception_4a/5x5_reduce"
  top: "inception_4a/5x5_reduce"
}
layer {
  name: "inception_4a/5x5"
  type: "Convolution"
  bottom: "inception_4a/5x5_reduce"
  top: "inception_4a/5x5"
  param {
    lr_mult: 1
    decay_mult: 1
  }
  param {
    lr_mult: 2
    decay_mult: 0
  }
  convolution_param {
    num_output: 48
    pad: 2
    kernel_size: 5
    weight_filler {
      type: "xavier"
      std: 0.03
    }
    bias_filler {
      type: "constant"
      value: 0.2
    }
  }
}
layer {
  name: "inception_4a/relu_5x5"
  type: "ReLU"
  bottom: "inception_4a/5x5"
  top: "inception_4a/5x5"
}
layer {
  name: "inception_4a/pool"
  type: "Pooling"
  bottom: "pool3/3x3_s2"
  top: "inception_4a/pool"
  pooling_param {
    pool: MAX
    kernel_size: 3
    stride: 1
    pad: 1
  }
}
layer {
  name: "inception_4a/pool_proj"
  type: "Convolution"
  bottom: "inception_4a/pool"
  top: "inception_4a/pool_proj"
  param {
    lr_mult: 1
    decay_mult: 1
  }
  param {
    lr_mult: 2
    decay_mult: 0
  }
  convolution_param {
    num_output: 64
    kernel_size: 1
    weight_filler {
      type: "xavier"
      std: 0.1
    }
    bias_filler {
      type: "constant"
      value: 0.2
    }
  }
}
layer {
  name: "inception_4a/relu_pool_proj"
  type: "ReLU"
  bottom: "inception_4a/pool_proj"
  top: "inception_4a/pool_proj"
}
layer {
  name: "inception_4a/output"
  type: "Concat"
  bottom: "inception_4a/1x1"
  bottom: "inception_4a/3x3"
  bottom: "inception_4a/5x5"
  bottom: "inception_4a/pool_proj"
  top: "inception_4a/output"
}
layer {
  name: "loss1/ave_pool"
  type: "Pooling"
  bottom: "inception_4a/output"
  top: "loss1/ave_pool"
  pooling_param {
    pool: AVE
    kernel_size: 5
    stride: 3
  }
}
layer {
  name: "loss1/conv"
  type: "Convolution"
  bottom: "loss1/ave_pool"
  top: "loss1/conv"
  param {
    lr_mult: 1
    decay_mult: 1
  }
  param {
    lr_mult: 2
    decay_mult: 0
  }
  convolution_param {
    num_output: 128
    kernel_size: 1
    weight_filler {
      type: "xavier"
      std: 0.08
    }
    bias_filler {
      type: "constant"
      value: 0.2
    }
  }
}
layer {
  name: "loss1/relu_conv"
  type: "ReLU"
  bottom: "loss1/conv"
  top: "loss1/conv"
}
layer {
  name: "loss1/fc"
  type: "InnerProduct"
  bottom: "loss1/conv"
  top: "loss1/fc"
  param {
    lr_mult: 1
    decay_mult: 1
  }
  param {
    lr_mult: 2
    decay_mult: 0
  }
  inner_product_param {
    num_output: 1024
    weight_filler {
      type: "xavier"
      std: 0.02
    }
    bias_filler {
      type: "constant"
      value: 0.2
    }
  }
}
layer {
  name: "loss1/relu_fc"
  type: "ReLU"
  bottom: "loss1/fc"
  top: "loss1/fc"
}
layer {
  name: "loss1/drop_fc"
  type: "Dropout"
  bottom: "loss1/fc"
  top: "loss1/fc"
  dropout_param {
    dropout_ratio: 0.7
  }
}
layer {
  name: "loss1/classifier_plantvillage"
  type: "InnerProduct"
  bottom: "loss1/fc"
  top: "loss1/classifier_plantvillage"
  param {
    lr_mult: 1
    decay_mult: 1
  }
  param {
    lr_mult: 2
    decay_mult: 0
  }
  inner_product_param {
    num_output: 38
    weight_filler {
      type: "xavier"
      std: 0.0009765625
    }
    bias_filler {
      type: "constant"
      value: 0
    }
  }
}
layer {
  name: "inception_4b/1x1"
  type: "Convolution"
  bottom: "inception_4a/output"
  top: "inception_4b/1x1"
  param {
    lr_mult: 1
    decay_mult: 1
  }
  param {
    lr_mult: 2
    decay_mult: 0
  }
  convolution_param {
    num_output: 160
    kernel_size: 1
    weight_filler {
      type: "xavier"
      std: 0.03
    }
    bias_filler {
      type: "constant"
      value: 0.2
    }
  }
}
layer {
  name: "inception_4b/relu_1x1"
  type: "ReLU"
  bottom: "inception_4b/1x1"
  top: "inception_4b/1x1"
}
layer {
  name: "inception_4b/3x3_reduce"
  type: "Convolution"
  bottom: "inception_4a/output"
  top: "inception_4b/3x3_reduce"
  param {
    lr_mult: 1
    decay_mult: 1
  }
  param {
    lr_mult: 2
    decay_mult: 0
  }
  convolution_param {
    num_output: 112
    kernel_size: 1
    weight_filler {
      type: "xavier"
      std: 0.09
    }
    bias_filler {
      type: "constant"
      value: 0.2
    }
  }
}
layer {
  name: "inception_4b/relu_3x3_reduce"
  type: "ReLU"
  bottom: "inception_4b/3x3_reduce"
  top: "inception_4b/3x3_reduce"
}
layer {
  name: "inception_4b/3x3"
  type: "Convolution"
  bottom: "inception_4b/3x3_reduce"
  top: "inception_4b/3x3"
  param {
    lr_mult: 1
    decay_mult: 1
  }
  param {
    lr_mult: 2
    decay_mult: 0
  }
  convolution_param {
    num_output: 224
    pad: 1
    kernel_size: 3
    weight_filler {
      type: "xavier"
      std: 0.03
    }
    bias_filler {
      type: "constant"
      value: 0.2
    }
  }
}
layer {
  name: "inception_4b/relu_3x3"
  type: "ReLU"
  bottom: "inception_4b/3x3"
  top: "inception_4b/3x3"
}
layer {
  name: "inception_4b/5x5_reduce"
  type: "Convolution"
  bottom: "inception_4a/output"
  top: "inception_4b/5x5_reduce"
  param {
    lr_mult: 1
    decay_mult: 1
  }
  param {
    lr_mult: 2
    decay_mult: 0
  }
  convolution_param {
    num_output: 24
    kernel_size: 1
    weight_filler {
      type: "xavier"
      std: 0.2
    }
    bias_filler {
      type: "constant"
      value: 0.2
    }
  }
}
layer {
  name: "inception_4b/relu_5x5_reduce"
  type: "ReLU"
  bottom: "inception_4b/5x5_reduce"
  top: "inception_4b/5x5_reduce"
}
layer {
  name: "inception_4b/5x5"
  type: "Convolution"
  bottom: "inception_4b/5x5_reduce"
  top: "inception_4b/5x5"
  param {
    lr_mult: 1
    decay_mult: 1
  }
  param {
    lr_mult: 2
    decay_mult: 0
  }
  convolution_param {
    num_output: 64
    pad: 2
    kernel_size: 5
    weight_filler {
      type: "xavier"
      std: 0.03
    }
    bias_filler {
      type: "constant"
      value: 0.2
    }
  }
}
layer {
  name: "inception_4b/relu_5x5"
  type: "ReLU"
  bottom: "inception_4b/5x5"
  top: "inception_4b/5x5"
}
layer {
  name: "inception_4b/pool"
  type: "Pooling"
  bottom: "inception_4a/output"
  top: "inception_4b/pool"
  pooling_param {
    pool: MAX
    kernel_size: 3
    stride: 1
    pad: 1
  }
}
layer {
  name: "inception_4b/pool_proj"
  type: "Convolution"
  bottom: "inception_4b/pool"
  top: "inception_4b/pool_proj"
  param {
    lr_mult: 1
    decay_mult: 1
  }
  param {
    lr_mult: 2
    decay_mult: 0
  }
  convolution_param {
    num_output: 64
    kernel_size: 1
    weight_filler {
      type: "xavier"
      std: 0.1
    }
    bias_filler {
      type: "constant"
      value: 0.2
    }
  }
}
layer {
  name: "inception_4b/relu_pool_proj"
  type: "ReLU"
  bottom: "inception_4b/pool_proj"
  top: "inception_4b/pool_proj"
}
layer {
  name: "inception_4b/output"
  type: "Concat"
  bottom: "inception_4b/1x1"
  bottom: "inception_4b/3x3"
  bottom: "inception_4b/5x5"
  bottom: "inception_4b/pool_proj"
  top: "inception_4b/output"
}
layer {
  name: "inception_4c/1x1"
  type: "Convolution"
  bottom: "inception_4b/output"
  top: "inception_4c/1x1"
  param {
    lr_mult: 1
    decay_mult: 1
  }
  param {
    lr_mult: 2
    decay_mult: 0
  }
  convolution_param {
    num_output: 128
    kernel_size: 1
    weight_filler {
      type: "xavier"
      std: 0.03
    }
    bias_filler {
      type: "constant"
      value: 0.2
    }
  }
}
layer {
  name: "inception_4c/relu_1x1"
  type: "ReLU"
  bottom: "inception_4c/1x1"
  top: "inception_4c/1x1"
}
layer {
  name: "inception_4c/3x3_reduce"
  type: "Convolution"
  bottom: "inception_4b/output"
  top: "inception_4c/3x3_reduce"
  param {
    lr_mult: 1
    decay_mult: 1
  }
  param {
    lr_mult: 2
    decay_mult: 0
  }
  convolution_param {
    num_output: 128
    kernel_size: 1
    weight_filler {
      type: "xavier"
      std: 0.09
    }
    bias_filler {
      type: "constant"
      value: 0.2
    }
  }
}
layer {
  name: "inception_4c/relu_3x3_reduce"
  type: "ReLU"
  bottom: "inception_4c/3x3_reduce"
  top: "inception_4c/3x3_reduce"
}
layer {
  name: "inception_4c/3x3"
  type: "Convolution"
  bottom: "inception_4c/3x3_reduce"
  top: "inception_4c/3x3"
  param {
    lr_mult: 1
    decay_mult: 1
  }
  param {
    lr_mult: 2
    decay_mult: 0
  }
  convolution_param {
    num_output: 256
    pad: 1
    kernel_size: 3
    weight_filler {
      type: "xavier"
      std: 0.03
    }
    bias_filler {
      type: "constant"
      value: 0.2
    }
  }
}
layer {
  name: "inception_4c/relu_3x3"
  type: "ReLU"
  bottom: "inception_4c/3x3"
  top: "inception_4c/3x3"
}
layer {
  name: "inception_4c/5x5_reduce"
  type: "Convolution"
  bottom: "inception_4b/output"
  top: "inception_4c/5x5_reduce"
  param {
    lr_mult: 1
    decay_mult: 1
  }
  param {
    lr_mult: 2
    decay_mult: 0
  }
  convolution_param {
    num_output: 24
    kernel_size: 1
    weight_filler {
      type: "xavier"
      std: 0.2
    }
    bias_filler {
      type: "constant"
      value: 0.2
    }
  }
}
layer {
  name: "inception_4c/relu_5x5_reduce"
  type: "ReLU"
  bottom: "inception_4c/5x5_reduce"
  top: "inception_4c/5x5_reduce"
}
layer {
  name: "inception_4c/5x5"
  type: "Convolution"
  bottom: "inception_4c/5x5_reduce"
  top: "inception_4c/5x5"
  param {
    lr_mult: 1
    decay_mult: 1
  }
  param {
    lr_mult: 2
    decay_mult: 0
  }
  convolution_param {
    num_output: 64
    pad: 2
    kernel_size: 5
    weight_filler {
      type: "xavier"
      std: 0.03
    }
    bias_filler {
      type: "constant"
      value: 0.2
    }
  }
}
layer {
  name: "inception_4c/relu_5x5"
  type: "ReLU"
  bottom: "inception_4c/5x5"
  top: "inception_4c/5x5"
}
layer {
  name: "inception_4c/pool"
  type: "Pooling"
  bottom: "inception_4b/output"
  top: "inception_4c/pool"
  pooling_param {
    pool: MAX
    kernel_size: 3
    stride: 1
    pad: 1
  }
}
layer {
  name: "inception_4c/pool_proj"
  type: "Convolution"
  bottom: "inception_4c/pool"
  top: "inception_4c/pool_proj"
  param {
    lr_mult: 1
    decay_mult: 1
  }
  param {
    lr_mult: 2
    decay_mult: 0
  }
  convolution_param {
    num_output: 64
    kernel_size: 1
    weight_filler {
      type: "xavier"
      std: 0.1
    }
    bias_filler {
      type: "constant"
      value: 0.2
    }
  }
}
layer {
  name: "inception_4c/relu_pool_proj"
  type: "ReLU"
  bottom: "inception_4c/pool_proj"
  top: "inception_4c/pool_proj"
}
layer {
  name: "inception_4c/output"
  type: "Concat"
  bottom: "inception_4c/1x1"
  bottom: "inception_4c/3x3"
  bottom: "inception_4c/5x5"
  bottom: "inception_4c/pool_proj"
  top: "inception_4c/output"
}
layer {
  name: "inception_4d/1x1"
  type: "Convolution"
  bottom: "inception_4c/output"
  top: "inception_4d/1x1"
  param {
    lr_mult: 1
    decay_mult: 1
  }
  param {
    lr_mult: 2
    decay_mult: 0
  }
  convolution_param {
    num_output: 112
    kernel_size: 1
    weight_filler {
      type: "xavier"
      std: 0.03
    }
    bias_filler {
      type: "constant"
      value: 0.2
    }
  }
}
layer {
  name: "inception_4d/relu_1x1"
  type: "ReLU"
  bottom: "inception_4d/1x1"
  top: "inception_4d/1x1"
}
layer {
  name: "inception_4d/3x3_reduce"
  type: "Convolution"
  bottom: "inception_4c/output"
  top: "inception_4d/3x3_reduce"
  param {
    lr_mult: 1
    decay_mult: 1
  }
  param {
    lr_mult: 2
    decay_mult: 0
  }
  convolution_param {
    num_output: 144
    kernel_size: 1
    weight_filler {
      type: "xavier"
      std: 0.09
    }
    bias_filler {
      type: "constant"
      value: 0.2
    }
  }
}
layer {
  name: "inception_4d/relu_3x3_reduce"
  type: "ReLU"
  bottom: "inception_4d/3x3_reduce"
  top: "inception_4d/3x3_reduce"
}
layer {
  name: "inception_4d/3x3"
  type: "Convolution"
  bottom: "inception_4d/3x3_reduce"
  top: "inception_4d/3x3"
  param {
    lr_mult: 1
    decay_mult: 1
  }
  param {
    lr_mult: 2
    decay_mult: 0
  }
  convolution_param {
    num_output: 288
    pad: 1
    kernel_size: 3
    weight_filler {
      type: "xavier"
      std: 0.03
    }
    bias_filler {
      type: "constant"
      value: 0.2
    }
  }
}
layer {
  name: "inception_4d/relu_3x3"
  type: "ReLU"
  bottom: "inception_4d/3x3"
  top: "inception_4d/3x3"
}
layer {
  name: "inception_4d/5x5_reduce"
  type: "Convolution"
  bottom: "inception_4c/output"
  top: "inception_4d/5x5_reduce"
  param {
    lr_mult: 1
    decay_mult: 1
  }
  param {
    lr_mult: 2
    decay_mult: 0
  }
  convolution_param {
    num_output: 32
    kernel_size: 1
    weight_filler {
      type: "xavier"
      std: 0.2
    }
    bias_filler {
      type: "constant"
      value: 0.2
    }
  }
}
layer {
  name: "inception_4d/relu_5x5_reduce"
  type: "ReLU"
  bottom: "inception_4d/5x5_reduce"
  top: "inception_4d/5x5_reduce"
}
layer {
  name: "inception_4d/5x5"
  type: "Convolution"
  bottom: "inception_4d/5x5_reduce"
  top: "inception_4d/5x5"
  param {
    lr_mult: 1
    decay_mult: 1
  }
  param {
    lr_mult: 2
    decay_mult: 0
  }
  convolution_param {
    num_output: 64
    pad: 2
    kernel_size: 5
    weight_filler {
      type: "xavier"
      std: 0.03
    }
    bias_filler {
      type: "constant"
      value: 0.2
    }
  }
}
layer {
  name: "inception_4d/relu_5x5"
  type: "ReLU"
  bottom: "inception_4d/5x5"
  top: "inception_4d/5x5"
}
layer {
  name: "inception_4d/pool"
  type: "Pooling"
  bottom: "inception_4c/output"
  top: "inception_4d/pool"
  pooling_param {
    pool: MAX
    kernel_size: 3
    stride: 1
    pad: 1
  }
}
layer {
  name: "inception_4d/pool_proj"
  type: "Convolution"
  bottom: "inception_4d/pool"
  top: "inception_4d/pool_proj"
  param {
    lr_mult: 1
    decay_mult: 1
  }
  param {
    lr_mult: 2
    decay_mult: 0
  }
  convolution_param {
    num_output: 64
    kernel_size: 1
    weight_filler {
      type: "xavier"
      std: 0.1
    }
    bias_filler {
      type: "constant"
      value: 0.2
    }
  }
}
layer {
  name: "inception_4d/relu_pool_proj"
  type: "ReLU"
  bottom: "inception_4d/pool_proj"
  top: "inception_4d/pool_proj"
}
layer {
  name: "inception_4d/output"
  type: "Concat"
  bottom: "inception_4d/1x1"
  bottom: "inception_4d/3x3"
  bottom: "inception_4d/5x5"
  bottom: "inception_4d/pool_proj"
  top: "inception_4d/output"
}
layer {
  name: "loss2/ave_pool"
  type: "Pooling"
  bottom: "inception_4d/output"
  top: "loss2/ave_pool"
  pooling_param {
    pool: AVE
    kernel_size: 5
    stride: 3
  }
}
layer {
  name: "loss2/conv"
  type: "Convolution"
  bottom: "loss2/ave_pool"
  top: "loss2/conv"
  param {
    lr_mult: 1
    decay_mult: 1
  }
  param {
    lr_mult: 2
    decay_mult: 0
  }
  convolution_param {
    num_output: 128
    kernel_size: 1
    weight_filler {
      type: "xavier"
      std: 0.08
    }
    bias_filler {
      type: "constant"
      value: 0.2
    }
  }
}
layer {
  name: "loss2/relu_conv"
  type: "ReLU"
  bottom: "loss2/conv"
  top: "loss2/conv"
}
layer {
  name: "loss2/fc"
  type: "InnerProduct"
  bottom: "loss2/conv"
  top: "loss2/fc"
  param {
    lr_mult: 1
    decay_mult: 1
  }
  param {
    lr_mult: 2
    decay_mult: 0
  }
  inner_product_param {
    num_output: 1024
    weight_filler {
      type: "xavier"
      std: 0.02
    }
    bias_filler {
      type: "constant"
      value: 0.2
    }
  }
}
layer {
  name: "loss2/relu_fc"
  type: "ReLU"
  bottom: "loss2/fc"
  top: "loss2/fc"
}
layer {
  name: "loss2/drop_fc"
  type: "Dropout"
  bottom: "loss2/fc"
  top: "loss2/fc"
  dropout_param {
    dropout_ratio: 0.7
  }
}
layer {
  name: "loss2/classifier_plantvillage"
  type: "InnerProduct"
  bottom: "loss2/fc"
  top: "loss2/classifier_plantvillage"
  param {
    lr_mult: 1
    decay_mult: 1
  }
  param {
    lr_mult: 2
    decay_mult: 0
  }
  inner_product_param {
    num_output: 38
    weight_filler {
      type: "xavier"
      std: 0.0009765625
    }
    bias_filler {
      type: "constant"
      value: 0
    }
  }
}
layer {
  name: "inception_4e/1x1"
  type: "Convolution"
  bottom: "inception_4d/output"
  top: "inception_4e/1x1"
  param {
    lr_mult: 1
    decay_mult: 1
  }
  param {
    lr_mult: 2
    decay_mult: 0
  }
  convolution_param {
    num_output: 256
    kernel_size: 1
    weight_filler {
      type: "xavier"
      std: 0.03
    }
    bias_filler {
      type: "constant"
      value: 0.2
    }
  }
}
layer {
  name: "inception_4e/relu_1x1"
  type: "ReLU"
  bottom: "inception_4e/1x1"
  top: "inception_4e/1x1"
}
layer {
  name: "inception_4e/3x3_reduce"
  type: "Convolution"
  bottom: "inception_4d/output"
  top: "inception_4e/3x3_reduce"
  param {
    lr_mult: 1
    decay_mult: 1
  }
  param {
    lr_mult: 2
    decay_mult: 0
  }
  convolution_param {
    num_output: 160
    kernel_size: 1
    weight_filler {
      type: "xavier"
      std: 0.09
    }
    bias_filler {
      type: "constant"
      value: 0.2
    }
  }
}
layer {
  name: "inception_4e/relu_3x3_reduce"
  type: "ReLU"
  bottom: "inception_4e/3x3_reduce"
  top: "inception_4e/3x3_reduce"
}
layer {
  name: "inception_4e/3x3"
  type: "Convolution"
  bottom: "inception_4e/3x3_reduce"
  top: "inception_4e/3x3"
  param {
    lr_mult: 1
    decay_mult: 1
  }
  param {
    lr_mult: 2
    decay_mult: 0
  }
  convolution_param {
    num_output: 320
    pad: 1
    kernel_size: 3
    weight_filler {
      type: "xavier"
      std: 0.03
    }
    bias_filler {
      type: "constant"
      value: 0.2
    }
  }
}
layer {
  name: "inception_4e/relu_3x3"
  type: "ReLU"
  bottom: "inception_4e/3x3"
  top: "inception_4e/3x3"
}
layer {
  name: "inception_4e/5x5_reduce"
  type: "Convolution"
  bottom: "inception_4d/output"
  top: "inception_4e/5x5_reduce"
  param {
    lr_mult: 1
    decay_mult: 1
  }
  param {
    lr_mult: 2
    decay_mult: 0
  }
  convolution_param {
    num_output: 32
    kernel_size: 1
    weight_filler {
      type: "xavier"
      std: 0.2
    }
    bias_filler {
      type: "constant"
      value: 0.2
    }
  }
}
layer {
  name: "inception_4e/relu_5x5_reduce"
  type: "ReLU"
  bottom: "inception_4e/5x5_reduce"
  top: "inception_4e/5x5_reduce"
}
layer {
  name: "inception_4e/5x5"
  type: "Convolution"
  bottom: "inception_4e/5x5_reduce"
  top: "inception_4e/
I0403 15:13:32.783977 12089 layer_factory.hpp:77] Creating layer data
I0403 15:13:32.784582 12089 net.cpp:91] Creating Layer data
I0403 15:13:32.784615 12089 net.cpp:399] data -> data
I0403 15:13:32.784667 12089 net.cpp:399] data -> label
I0403 15:13:32.784705 12089 data_transformer.cpp:25] Loading mean file from: /home/mohanty/data/final_dataset/lmdb/grayscale-60-40/mean.binaryproto
I0403 15:13:32.803369 12093 db_lmdb.cpp:38] Opened lmdb /home/mohanty/data/final_dataset/lmdb/grayscale-60-40/test_db
I0403 15:13:32.805558 12089 data_layer.cpp:41] output data size: 24,3,224,224
I0403 15:13:32.833767 12089 net.cpp:141] Setting up data
I0403 15:13:32.833855 12089 net.cpp:148] Top shape: 24 3 224 224 (3612672)
I0403 15:13:32.833879 12089 net.cpp:148] Top shape: 24 (24)
I0403 15:13:32.833895 12089 net.cpp:156] Memory required for data: 14450784
I0403 15:13:32.833923 12089 layer_factory.hpp:77] Creating layer label_data_1_split
I0403 15:13:32.833952 12089 net.cpp:91] Creating Layer label_data_1_split
I0403 15:13:32.833971 12089 net.cpp:425] label_data_1_split <- label
I0403 15:13:32.834004 12089 net.cpp:399] label_data_1_split -> label_data_1_split_0
I0403 15:13:32.834033 12089 net.cpp:399] label_data_1_split -> label_data_1_split_1
I0403 15:13:32.834055 12089 net.cpp:399] label_data_1_split -> label_data_1_split_2
I0403 15:13:32.834077 12089 net.cpp:399] label_data_1_split -> label_data_1_split_3
I0403 15:13:32.834102 12089 net.cpp:399] label_data_1_split -> label_data_1_split_4
I0403 15:13:32.834126 12089 net.cpp:399] label_data_1_split -> label_data_1_split_5
I0403 15:13:32.834147 12089 net.cpp:399] label_data_1_split -> label_data_1_split_6
I0403 15:13:32.834170 12089 net.cpp:399] label_data_1_split -> label_data_1_split_7
I0403 15:13:32.834189 12089 net.cpp:399] label_data_1_split -> label_data_1_split_8
I0403 15:13:32.834211 12089 net.cpp:399] label_data_1_split -> label_data_1_split_9
I0403 15:13:32.834333 12089 net.cpp:141] Setting up label_data_1_split
I0403 15:13:32.834359 12089 net.cpp:148] Top shape: 24 (24)
I0403 15:13:32.834378 12089 net.cpp:148] Top shape: 24 (24)
I0403 15:13:32.834393 12089 net.cpp:148] Top shape: 24 (24)
I0403 15:13:32.834409 12089 net.cpp:148] Top shape: 24 (24)
I0403 15:13:32.834426 12089 net.cpp:148] Top shape: 24 (24)
I0403 15:13:32.834441 12089 net.cpp:148] Top shape: 24 (24)
I0403 15:13:32.834457 12089 net.cpp:148] Top shape: 24 (24)
I0403 15:13:32.834473 12089 net.cpp:148] Top shape: 24 (24)
I0403 15:13:32.834489 12089 net.cpp:148] Top shape: 24 (24)
I0403 15:13:32.834506 12089 net.cpp:148] Top shape: 24 (24)
I0403 15:13:32.834548 12089 net.cpp:156] Memory required for data: 14451744
I0403 15:13:32.834565 12089 layer_factory.hpp:77] Creating layer conv1/7x7_s2
I0403 15:13:32.834599 12089 net.cpp:91] Creating Layer conv1/7x7_s2
I0403 15:13:32.834619 12089 net.cpp:425] conv1/7x7_s2 <- data
I0403 15:13:32.834640 12089 net.cpp:399] conv1/7x7_s2 -> conv1/7x7_s2
I0403 15:13:32.983422 12089 net.cpp:141] Setting up conv1/7x7_s2
I0403 15:13:32.983494 12089 net.cpp:148] Top shape: 24 64 112 112 (19267584)
I0403 15:13:32.983513 12089 net.cpp:156] Memory required for data: 91522080
I0403 15:13:32.983546 12089 layer_factory.hpp:77] Creating layer conv1/relu_7x7
I0403 15:13:32.983575 12089 net.cpp:91] Creating Layer conv1/relu_7x7
I0403 15:13:32.983595 12089 net.cpp:425] conv1/relu_7x7 <- conv1/7x7_s2
I0403 15:13:32.983616 12089 net.cpp:386] conv1/relu_7x7 -> conv1/7x7_s2 (in-place)
I0403 15:13:32.983896 12089 net.cpp:141] Setting up conv1/relu_7x7
I0403 15:13:32.983927 12089 net.cpp:148] Top shape: 24 64 112 112 (19267584)
I0403 15:13:32.983943 12089 net.cpp:156] Memory required for data: 168592416
I0403 15:13:32.983960 12089 layer_factory.hpp:77] Creating layer pool1/3x3_s2
I0403 15:13:32.983989 12089 net.cpp:91] Creating Layer pool1/3x3_s2
I0403 15:13:32.984009 12089 net.cpp:425] pool1/3x3_s2 <- conv1/7x7_s2
I0403 15:13:32.984061 12089 net.cpp:399] pool1/3x3_s2 -> pool1/3x3_s2
I0403 15:13:32.984154 12089 net.cpp:141] Setting up pool1/3x3_s2
I0403 15:13:32.984181 12089 net.cpp:148] Top shape: 24 64 56 56 (4816896)
I0403 15:13:32.984199 12089 net.cpp:156] Memory required for data: 187860000
I0403 15:13:32.984215 12089 layer_factory.hpp:77] Creating layer pool1/norm1
I0403 15:13:32.984242 12089 net.cpp:91] Creating Layer pool1/norm1
I0403 15:13:32.984262 12089 net.cpp:425] pool1/norm1 <- pool1/3x3_s2
I0403 15:13:32.984282 12089 net.cpp:399] pool1/norm1 -> pool1/norm1
I0403 15:13:32.984596 12089 net.cpp:141] Setting up pool1/norm1
I0403 15:13:32.984628 12089 net.cpp:148] Top shape: 24 64 56 56 (4816896)
I0403 15:13:32.984647 12089 net.cpp:156] Memory required for data: 207127584
I0403 15:13:32.984663 12089 layer_factory.hpp:77] Creating layer conv2/3x3_reduce
I0403 15:13:32.984690 12089 net.cpp:91] Creating Layer conv2/3x3_reduce
I0403 15:13:32.984709 12089 net.cpp:425] conv2/3x3_reduce <- pool1/norm1
I0403 15:13:32.984730 12089 net.cpp:399] conv2/3x3_reduce -> conv2/3x3_reduce
I0403 15:13:32.986243 12089 net.cpp:141] Setting up conv2/3x3_reduce
I0403 15:13:32.986274 12089 net.cpp:148] Top shape: 24 64 56 56 (4816896)
I0403 15:13:32.986290 12089 net.cpp:156] Memory required for data: 226395168
I0403 15:13:32.986313 12089 layer_factory.hpp:77] Creating layer conv2/relu_3x3_reduce
I0403 15:13:32.986336 12089 net.cpp:91] Creating Layer conv2/relu_3x3_reduce
I0403 15:13:32.986354 12089 net.cpp:425] conv2/relu_3x3_reduce <- conv2/3x3_reduce
I0403 15:13:32.986374 12089 net.cpp:386] conv2/relu_3x3_reduce -> conv2/3x3_reduce (in-place)
I0403 15:13:32.986655 12089 net.cpp:141] Setting up conv2/relu_3x3_reduce
I0403 15:13:32.986683 12089 net.cpp:148] Top shape: 24 64 56 56 (4816896)
I0403 15:13:32.986699 12089 net.cpp:156] Memory required for data: 245662752
I0403 15:13:32.986716 12089 layer_factory.hpp:77] Creating layer conv2/3x3
I0403 15:13:32.986742 12089 net.cpp:91] Creating Layer conv2/3x3
I0403 15:13:32.986760 12089 net.cpp:425] conv2/3x3 <- conv2/3x3_reduce
I0403 15:13:32.986784 12089 net.cpp:399] conv2/3x3 -> conv2/3x3
I0403 15:13:32.989234 12089 net.cpp:141] Setting up conv2/3x3
I0403 15:13:32.989266 12089 net.cpp:148] Top shape: 24 192 56 56 (14450688)
I0403 15:13:32.989284 12089 net.cpp:156] Memory required for data: 303465504
I0403 15:13:32.989306 12089 layer_factory.hpp:77] Creating layer conv2/relu_3x3
I0403 15:13:32.989328 12089 net.cpp:91] Creating Layer conv2/relu_3x3
I0403 15:13:32.989346 12089 net.cpp:425] conv2/relu_3x3 <- conv2/3x3
I0403 15:13:32.989364 12089 net.cpp:386] conv2/relu_3x3 -> conv2/3x3 (in-place)
I0403 15:13:32.989549 12089 net.cpp:141] Setting up conv2/relu_3x3
I0403 15:13:32.989578 12089 net.cpp:148] Top shape: 24 192 56 56 (14450688)
I0403 15:13:32.989627 12089 net.cpp:156] Memory required for data: 361268256
I0403 15:13:32.989645 12089 layer_factory.hpp:77] Creating layer conv2/norm2
I0403 15:13:32.989665 12089 net.cpp:91] Creating Layer conv2/norm2
I0403 15:13:32.989681 12089 net.cpp:425] conv2/norm2 <- conv2/3x3
I0403 15:13:32.989702 12089 net.cpp:399] conv2/norm2 -> conv2/norm2
I0403 15:13:32.990025 12089 net.cpp:141] Setting up conv2/norm2
I0403 15:13:32.990054 12089 net.cpp:148] Top shape: 24 192 56 56 (14450688)
I0403 15:13:32.990070 12089 net.cpp:156] Memory required for data: 419071008
I0403 15:13:32.990087 12089 layer_factory.hpp:77] Creating layer pool2/3x3_s2
I0403 15:13:32.990111 12089 net.cpp:91] Creating Layer pool2/3x3_s2
I0403 15:13:32.990129 12089 net.cpp:425] pool2/3x3_s2 <- conv2/norm2
I0403 15:13:32.990154 12089 net.cpp:399] pool2/3x3_s2 -> pool2/3x3_s2
I0403 15:13:32.990211 12089 net.cpp:141] Setting up pool2/3x3_s2
I0403 15:13:32.990236 12089 net.cpp:148] Top shape: 24 192 28 28 (3612672)
I0403 15:13:32.990252 12089 net.cpp:156] Memory required for data: 433521696
I0403 15:13:32.990267 12089 layer_factory.hpp:77] Creating layer pool2/3x3_s2_pool2/3x3_s2_0_split
I0403 15:13:32.990286 12089 net.cpp:91] Creating Layer pool2/3x3_s2_pool2/3x3_s2_0_split
I0403 15:13:32.990304 12089 net.cpp:425] pool2/3x3_s2_pool2/3x3_s2_0_split <- pool2/3x3_s2
I0403 15:13:32.990326 12089 net.cpp:399] pool2/3x3_s2_pool2/3x3_s2_0_split -> pool2/3x3_s2_pool2/3x3_s2_0_split_0
I0403 15:13:32.990348 12089 net.cpp:399] pool2/3x3_s2_pool2/3x3_s2_0_split -> pool2/3x3_s2_pool2/3x3_s2_0_split_1
I0403 15:13:32.990370 12089 net.cpp:399] pool2/3x3_s2_pool2/3x3_s2_0_split -> pool2/3x3_s2_pool2/3x3_s2_0_split_2
I0403 15:13:32.990391 12089 net.cpp:399] pool2/3x3_s2_pool2/3x3_s2_0_split -> pool2/3x3_s2_pool2/3x3_s2_0_split_3
I0403 15:13:32.990463 12089 net.cpp:141] Setting up pool2/3x3_s2_pool2/3x3_s2_0_split
I0403 15:13:32.990489 12089 net.cpp:148] Top shape: 24 192 28 28 (3612672)
I0403 15:13:32.990505 12089 net.cpp:148] Top shape: 24 192 28 28 (3612672)
I0403 15:13:32.990522 12089 net.cpp:148] Top shape: 24 192 28 28 (3612672)
I0403 15:13:32.990537 12089 net.cpp:148] Top shape: 24 192 28 28 (3612672)
I0403 15:13:32.990552 12089 net.cpp:156] Memory required for data: 491324448
I0403 15:13:32.990567 12089 layer_factory.hpp:77] Creating layer inception_3a/1x1
I0403 15:13:32.990592 12089 net.cpp:91] Creating Layer inception_3a/1x1
I0403 15:13:32.990609 12089 net.cpp:425] inception_3a/1x1 <- pool2/3x3_s2_pool2/3x3_s2_0_split_0
I0403 15:13:32.990633 12089 net.cpp:399] inception_3a/1x1 -> inception_3a/1x1
I0403 15:13:32.992247 12089 net.cpp:141] Setting up inception_3a/1x1
I0403 15:13:32.992279 12089 net.cpp:148] Top shape: 24 64 28 28 (1204224)
I0403 15:13:32.992295 12089 net.cpp:156] Memory required for data: 496141344
I0403 15:13:32.992316 12089 layer_factory.hpp:77] Creating layer inception_3a/relu_1x1
I0403 15:13:32.992337 12089 net.cpp:91] Creating Layer inception_3a/relu_1x1
I0403 15:13:32.992355 12089 net.cpp:425] inception_3a/relu_1x1 <- inception_3a/1x1
I0403 15:13:32.992374 12089 net.cpp:386] inception_3a/relu_1x1 -> inception_3a/1x1 (in-place)
I0403 15:13:32.992557 12089 net.cpp:141] Setting up inception_3a/relu_1x1
I0403 15:13:32.992583 12089 net.cpp:148] Top shape: 24 64 28 28 (1204224)
I0403 15:13:32.992599 12089 net.cpp:156] Memory required for data: 500958240
I0403 15:13:32.992615 12089 layer_factory.hpp:77] Creating layer inception_3a/3x3_reduce
I0403 15:13:32.992641 12089 net.cpp:91] Creating Layer inception_3a/3x3_reduce
I0403 15:13:32.992660 12089 net.cpp:425] inception_3a/3x3_reduce <- pool2/3x3_s2_pool2/3x3_s2_0_split_1
I0403 15:13:32.992678 12089 net.cpp:399] inception_3a/3x3_reduce -> inception_3a/3x3_reduce
I0403 15:13:32.994441 12089 net.cpp:141] Setting up inception_3a/3x3_reduce
I0403 15:13:32.994473 12089 net.cpp:148] Top shape: 24 96 28 28 (1806336)
I0403 15:13:32.994490 12089 net.cpp:156] Memory required for data: 508183584
I0403 15:13:32.994514 12089 layer_factory.hpp:77] Creating layer inception_3a/relu_3x3_reduce
I0403 15:13:32.994554 12089 net.cpp:91] Creating Layer inception_3a/relu_3x3_reduce
I0403 15:13:32.994575 12089 net.cpp:425] inception_3a/relu_3x3_reduce <- inception_3a/3x3_reduce
I0403 15:13:32.994593 12089 net.cpp:386] inception_3a/relu_3x3_reduce -> inception_3a/3x3_reduce (in-place)
I0403 15:13:32.994789 12089 net.cpp:141] Setting up inception_3a/relu_3x3_reduce
I0403 15:13:32.994817 12089 net.cpp:148] Top shape: 24 96 28 28 (1806336)
I0403 15:13:32.994832 12089 net.cpp:156] Memory required for data: 515408928
I0403 15:13:32.994848 12089 layer_factory.hpp:77] Creating layer inception_3a/3x3
I0403 15:13:32.994870 12089 net.cpp:91] Creating Layer inception_3a/3x3
I0403 15:13:32.994889 12089 net.cpp:425] inception_3a/3x3 <- inception_3a/3x3_reduce
I0403 15:13:32.994912 12089 net.cpp:399] inception_3a/3x3 -> inception_3a/3x3
I0403 15:13:32.996649 12089 net.cpp:141] Setting up inception_3a/3x3
I0403 15:13:32.996680 12089 net.cpp:148] Top shape: 24 128 28 28 (2408448)
I0403 15:13:32.996696 12089 net.cpp:156] Memory required for data: 525042720
I0403 15:13:32.996716 12089 layer_factory.hpp:77] Creating layer inception_3a/relu_3x3
I0403 15:13:32.996737 12089 net.cpp:91] Creating Layer inception_3a/relu_3x3
I0403 15:13:32.996755 12089 net.cpp:425] inception_3a/relu_3x3 <- inception_3a/3x3
I0403 15:13:32.996773 12089 net.cpp:386] inception_3a/relu_3x3 -> inception_3a/3x3 (in-place)
I0403 15:13:32.997061 12089 net.cpp:141] Setting up inception_3a/relu_3x3
I0403 15:13:32.997088 12089 net.cpp:148] Top shape: 24 128 28 28 (2408448)
I0403 15:13:32.997112 12089 net.cpp:156] Memory required for data: 534676512
I0403 15:13:32.997128 12089 layer_factory.hpp:77] Creating layer inception_3a/5x5_reduce
I0403 15:13:32.997153 12089 net.cpp:91] Creating Layer inception_3a/5x5_reduce
I0403 15:13:32.997172 12089 net.cpp:425] inception_3a/5x5_reduce <- pool2/3x3_s2_pool2/3x3_s2_0_split_2
I0403 15:13:32.997195 12089 net.cpp:399] inception_3a/5x5_reduce -> inception_3a/5x5_reduce
I0403 15:13:32.998199 12089 net.cpp:141] Setting up inception_3a/5x5_reduce
I0403 15:13:32.998230 12089 net.cpp:148] Top shape: 24 16 28 28 (301056)
I0403 15:13:32.998250 12089 net.cpp:156] Memory required for data: 535880736
I0403 15:13:32.998270 12089 layer_factory.hpp:77] Creating layer inception_3a/relu_5x5_reduce
I0403 15:13:32.998291 12089 net.cpp:91] Creating Layer inception_3a/relu_5x5_reduce
I0403 15:13:32.998307 12089 net.cpp:425] inception_3a/relu_5x5_reduce <- inception_3a/5x5_reduce
I0403 15:13:32.998325 12089 net.cpp:386] inception_3a/relu_5x5_reduce -> inception_3a/5x5_reduce (in-place)
I0403 15:13:32.998631 12089 net.cpp:141] Setting up inception_3a/relu_5x5_reduce
I0403 15:13:32.998661 12089 net.cpp:148] Top shape: 24 16 28 28 (301056)
I0403 15:13:32.998678 12089 net.cpp:156] Memory required for data: 537084960
I0403 15:13:32.998693 12089 layer_factory.hpp:77] Creating layer inception_3a/5x5
I0403 15:13:32.998716 12089 net.cpp:91] Creating Layer inception_3a/5x5
I0403 15:13:32.998735 12089 net.cpp:425] inception_3a/5x5 <- inception_3a/5x5_reduce
I0403 15:13:32.998755 12089 net.cpp:399] inception_3a/5x5 -> inception_3a/5x5
I0403 15:13:32.999826 12089 net.cpp:141] Setting up inception_3a/5x5
I0403 15:13:32.999861 12089 net.cpp:148] Top shape: 24 32 28 28 (602112)
I0403 15:13:32.999877 12089 net.cpp:156] Memory required for data: 539493408
I0403 15:13:32.999897 12089 layer_factory.hpp:77] Creating layer inception_3a/relu_5x5
I0403 15:13:32.999919 12089 net.cpp:91] Creating Layer inception_3a/relu_5x5
I0403 15:13:32.999936 12089 net.cpp:425] inception_3a/relu_5x5 <- inception_3a/5x5
I0403 15:13:32.999955 12089 net.cpp:386] inception_3a/relu_5x5 -> inception_3a/5x5 (in-place)
I0403 15:13:33.000145 12089 net.cpp:141] Setting up inception_3a/relu_5x5
I0403 15:13:33.000175 12089 net.cpp:148] Top shape: 24 32 28 28 (602112)
I0403 15:13:33.000190 12089 net.cpp:156] Memory required for data: 541901856
I0403 15:13:33.000206 12089 layer_factory.hpp:77] Creating layer inception_3a/pool
I0403 15:13:33.000228 12089 net.cpp:91] Creating Layer inception_3a/pool
I0403 15:13:33.000262 12089 net.cpp:425] inception_3a/pool <- pool2/3x3_s2_pool2/3x3_s2_0_split_3
I0403 15:13:33.000283 12089 net.cpp:399] inception_3a/pool -> inception_3a/pool
I0403 15:13:33.000346 12089 net.cpp:141] Setting up inception_3a/pool
I0403 15:13:33.000372 12089 net.cpp:148] Top shape: 24 192 28 28 (3612672)
I0403 15:13:33.000387 12089 net.cpp:156] Memory required for data: 556352544
I0403 15:13:33.000403 12089 layer_factory.hpp:77] Creating layer inception_3a/pool_proj
I0403 15:13:33.000427 12089 net.cpp:91] Creating Layer inception_3a/pool_proj
I0403 15:13:33.000445 12089 net.cpp:425] inception_3a/pool_proj <- inception_3a/pool
I0403 15:13:33.000468 12089 net.cpp:399] inception_3a/pool_proj -> inception_3a/pool_proj
I0403 15:13:33.001482 12089 net.cpp:141] Setting up inception_3a/pool_proj
I0403 15:13:33.001513 12089 net.cpp:148] Top shape: 24 32 28 28 (602112)
I0403 15:13:33.001531 12089 net.cpp:156] Memory required for data: 558760992
I0403 15:13:33.001557 12089 layer_factory.hpp:77] Creating layer inception_3a/relu_pool_proj
I0403 15:13:33.001579 12089 net.cpp:91] Creating Layer inception_3a/relu_pool_proj
I0403 15:13:33.001597 12089 net.cpp:425] inception_3a/relu_pool_proj <- inception_3a/pool_proj
I0403 15:13:33.001616 12089 net.cpp:386] inception_3a/relu_pool_proj -> inception_3a/pool_proj (in-place)
I0403 15:13:33.001901 12089 net.cpp:141] Setting up inception_3a/relu_pool_proj
I0403 15:13:33.001930 12089 net.cpp:148] Top shape: 24 32 28 28 (602112)
I0403 15:13:33.001947 12089 net.cpp:156] Memory required for data: 561169440
I0403 15:13:33.001963 12089 layer_factory.hpp:77] Creating layer inception_3a/output
I0403 15:13:33.001986 12089 net.cpp:91] Creating Layer inception_3a/output
I0403 15:13:33.002003 12089 net.cpp:425] inception_3a/output <- inception_3a/1x1
I0403 15:13:33.002022 12089 net.cpp:425] inception_3a/output <- inception_3a/3x3
I0403 15:13:33.002038 12089 net.cpp:425] inception_3a/output <- inception_3a/5x5
I0403 15:13:33.002054 12089 net.cpp:425] inception_3a/output <- inception_3a/pool_proj
I0403 15:13:33.002073 12089 net.cpp:399] inception_3a/output -> inception_3a/output
I0403 15:13:33.002127 12089 net.cpp:141] Setting up inception_3a/output
I0403 15:13:33.002152 12089 net.cpp:148] Top shape: 24 256 28 28 (4816896)
I0403 15:13:33.002168 12089 net.cpp:156] Memory required for data: 580437024
I0403 15:13:33.002184 12089 layer_factory.hpp:77] Creating layer inception_3a/output_inception_3a/output_0_split
I0403 15:13:33.002202 12089 net.cpp:91] Creating Layer inception_3a/output_inception_3a/output_0_split
I0403 15:13:33.002218 12089 net.cpp:425] inception_3a/output_inception_3a/output_0_split <- inception_3a/output
I0403 15:13:33.002238 12089 net.cpp:399] inception_3a/output_inception_3a/output_0_split -> inception_3a/output_inception_3a/output_0_split_0
I0403 15:13:33.002261 12089 net.cpp:399] inception_3a/output_inception_3a/output_0_split -> inception_3a/output_inception_3a/output_0_split_1
I0403 15:13:33.002285 12089 net.cpp:399] inception_3a/output_inception_3a/output_0_split -> inception_3a/output_inception_3a/output_0_split_2
I0403 15:13:33.002307 12089 net.cpp:399] inception_3a/output_inception_3a/output_0_split -> inception_3a/output_inception_3a/output_0_split_3
I0403 15:13:33.002387 12089 net.cpp:141] Setting up inception_3a/output_inception_3a/output_0_split
I0403 15:13:33.002410 12089 net.cpp:148] Top shape: 24 256 28 28 (4816896)
I0403 15:13:33.002429 12089 net.cpp:148] Top shape: 24 256 28 28 (4816896)
I0403 15:13:33.002445 12089 net.cpp:148] Top shape: 24 256 28 28 (4816896)
I0403 15:13:33.002461 12089 net.cpp:148] Top shape: 24 256 28 28 (4816896)
I0403 15:13:33.002476 12089 net.cpp:156] Memory required for data: 657507360
I0403 15:13:33.002491 12089 layer_factory.hpp:77] Creating layer inception_3b/1x1
I0403 15:13:33.002514 12089 net.cpp:91] Creating Layer inception_3b/1x1
I0403 15:13:33.002533 12089 net.cpp:425] inception_3b/1x1 <- inception_3a/output_inception_3a/output_0_split_0
I0403 15:13:33.002555 12089 net.cpp:399] inception_3b/1x1 -> inception_3b/1x1
I0403 15:13:33.003761 12089 net.cpp:141] Setting up inception_3b/1x1
I0403 15:13:33.003803 12089 net.cpp:148] Top shape: 24 128 28 28 (2408448)
I0403 15:13:33.003821 12089 net.cpp:156] Memory required for data: 667141152
I0403 15:13:33.003841 12089 layer_factory.hpp:77] Creating layer inception_3b/relu_1x1
I0403 15:13:33.003859 12089 net.cpp:91] Creating Layer inception_3b/relu_1x1
I0403 15:13:33.003876 12089 net.cpp:425] inception_3b/relu_1x1 <- inception_3b/1x1
I0403 15:13:33.003897 12089 net.cpp:386] inception_3b/relu_1x1 -> inception_3b/1x1 (in-place)
I0403 15:13:33.004081 12089 net.cpp:141] Setting up inception_3b/relu_1x1
I0403 15:13:33.004113 12089 net.cpp:148] Top shape: 24 128 28 28 (2408448)
I0403 15:13:33.004130 12089 net.cpp:156] Memory required for data: 676774944
I0403 15:13:33.004148 12089 layer_factory.hpp:77] Creating layer inception_3b/3x3_reduce
I0403 15:13:33.004173 12089 net.cpp:91] Creating Layer inception_3b/3x3_reduce
I0403 15:13:33.004190 12089 net.cpp:425] inception_3b/3x3_reduce <- inception_3a/output_inception_3a/output_0_split_1
I0403 15:13:33.004214 12089 net.cpp:399] inception_3b/3x3_reduce -> inception_3b/3x3_reduce
I0403 15:13:33.005419 12089 net.cpp:141] Setting up inception_3b/3x3_reduce
I0403 15:13:33.005450 12089 net.cpp:148] Top shape: 24 128 28 28 (2408448)
I0403 15:13:33.005465 12089 net.cpp:156] Memory required for data: 686408736
I0403 15:13:33.005486 12089 layer_factory.hpp:77] Creating layer inception_3b/relu_3x3_reduce
I0403 15:13:33.005507 12089 net.cpp:91] Creating Layer inception_3b/relu_3x3_reduce
I0403 15:13:33.005525 12089 net.cpp:425] inception_3b/relu_3x3_reduce <- inception_3b/3x3_reduce
I0403 15:13:33.005543 12089 net.cpp:386] inception_3b/relu_3x3_reduce -> inception_3b/3x3_reduce (in-place)
I0403 15:13:33.005729 12089 net.cpp:141] Setting up inception_3b/relu_3x3_reduce
I0403 15:13:33.005755 12089 net.cpp:148] Top shape: 24 128 28 28 (2408448)
I0403 15:13:33.005770 12089 net.cpp:156] Memory required for data: 696042528
I0403 15:13:33.005786 12089 layer_factory.hpp:77] Creating layer inception_3b/3x3
I0403 15:13:33.005812 12089 net.cpp:91] Creating Layer inception_3b/3x3
I0403 15:13:33.005832 12089 net.cpp:425] inception_3b/3x3 <- inception_3b/3x3_reduce
I0403 15:13:33.005853 12089 net.cpp:399] inception_3b/3x3 -> inception_3b/3x3
I0403 15:13:33.008798 12089 net.cpp:141] Setting up inception_3b/3x3
I0403 15:13:33.008827 12089 net.cpp:148] Top shape: 24 192 28 28 (3612672)
I0403 15:13:33.008842 12089 net.cpp:156] Memory required for data: 710493216
I0403 15:13:33.008860 12089 layer_factory.hpp:77] Creating layer inception_3b/relu_3x3
I0403 15:13:33.008880 12089 net.cpp:91] Creating Layer inception_3b/relu_3x3
I0403 15:13:33.008898 12089 net.cpp:425] inception_3b/relu_3x3 <- inception_3b/3x3
I0403 15:13:33.008915 12089 net.cpp:386] inception_3b/relu_3x3 -> inception_3b/3x3 (in-place)
I0403 15:13:33.009186 12089 net.cpp:141] Setting up inception_3b/relu_3x3
I0403 15:13:33.009212 12089 net.cpp:148] Top shape: 24 192 28 28 (3612672)
I0403 15:13:33.009227 12089 net.cpp:156] Memory required for data: 724943904
I0403 15:13:33.009241 12089 layer_factory.hpp:77] Creating layer inception_3b/5x5_reduce
I0403 15:13:33.009263 12089 net.cpp:91] Creating Layer inception_3b/5x5_reduce
I0403 15:13:33.009280 12089 net.cpp:425] inception_3b/5x5_reduce <- inception_3a/output_inception_3a/output_0_split_2
I0403 15:13:33.009304 12089 net.cpp:399] inception_3b/5x5_reduce -> inception_3b/5x5_reduce
I0403 15:13:33.010268 12089 net.cpp:141] Setting up inception_3b/5x5_reduce
I0403 15:13:33.010296 12089 net.cpp:148] Top shape: 24 32 28 28 (602112)
I0403 15:13:33.010313 12089 net.cpp:156] Memory required for data: 727352352
I0403 15:13:33.010329 12089 layer_factory.hpp:77] Creating layer inception_3b/relu_5x5_reduce
I0403 15:13:33.010351 12089 net.cpp:91] Creating Layer inception_3b/relu_5x5_reduce
I0403 15:13:33.010370 12089 net.cpp:425] inception_3b/relu_5x5_reduce <- inception_3b/5x5_reduce
I0403 15:13:33.010387 12089 net.cpp:386] inception_3b/relu_5x5_reduce -> inception_3b/5x5_reduce (in-place)
I0403 15:13:33.010573 12089 net.cpp:141] Setting up inception_3b/relu_5x5_reduce
I0403 15:13:33.010601 12089 net.cpp:148] Top shape: 24 32 28 28 (602112)
I0403 15:13:33.010617 12089 net.cpp:156] Memory required for data: 729760800
I0403 15:13:33.010630 12089 layer_factory.hpp:77] Creating layer inception_3b/5x5
I0403 15:13:33.010653 12089 net.cpp:91] Creating Layer inception_3b/5x5
I0403 15:13:33.010669 12089 net.cpp:425] inception_3b/5x5 <- inception_3b/5x5_reduce
I0403 15:13:33.010687 12089 net.cpp:399] inception_3b/5x5 -> inception_3b/5x5
I0403 15:13:33.012588 12089 net.cpp:141] Setting up inception_3b/5x5
I0403 15:13:33.012616 12089 net.cpp:148] Top shape: 24 96 28 28 (1806336)
I0403 15:13:33.012631 12089 net.cpp:156] Memory required for data: 736986144
I0403 15:13:33.012650 12089 layer_factory.hpp:77] Creating layer inception_3b/relu_5x5
I0403 15:13:33.012668 12089 net.cpp:91] Creating Layer inception_3b/relu_5x5
I0403 15:13:33.012686 12089 net.cpp:425] inception_3b/relu_5x5 <- inception_3b/5x5
I0403 15:13:33.012704 12089 net.cpp:386] inception_3b/relu_5x5 -> inception_3b/5x5 (in-place)
I0403 15:13:33.012892 12089 net.cpp:141] Setting up inception_3b/relu_5x5
I0403 15:13:33.012917 12089 net.cpp:148] Top shape: 24 96 28 28 (1806336)
I0403 15:13:33.012930 12089 net.cpp:156] Memory required for data: 744211488
I0403 15:13:33.012945 12089 layer_factory.hpp:77] Creating layer inception_3b/pool
I0403 15:13:33.012964 12089 net.cpp:91] Creating Layer inception_3b/pool
I0403 15:13:33.012979 12089 net.cpp:425] inception_3b/pool <- inception_3a/output_inception_3a/output_0_split_3
I0403 15:13:33.012996 12089 net.cpp:399] inception_3b/pool -> inception_3b/pool
I0403 15:13:33.013053 12089 net.cpp:141] Setting up inception_3b/pool
I0403 15:13:33.013077 12089 net.cpp:148] Top shape: 24 256 28 28 (4816896)
I0403 15:13:33.013092 12089 net.cpp:156] Memory required for data: 763479072
I0403 15:13:33.013118 12089 layer_factory.hpp:77] Creating layer inception_3b/pool_proj
I0403 15:13:33.013141 12089 net.cpp:91] Creating Layer inception_3b/pool_proj
I0403 15:13:33.013159 12089 net.cpp:425] inception_3b/pool_proj <- inception_3b/pool
I0403 15:13:33.013180 12089 net.cpp:399] inception_3b/pool_proj -> inception_3b/pool_proj
I0403 15:13:33.014197 12089 net.cpp:141] Setting up inception_3b/pool_proj
I0403 15:13:33.014226 12089 net.cpp:148] Top shape: 24 64 28 28 (1204224)
I0403 15:13:33.014242 12089 net.cpp:156] Memory required for data: 768295968
I0403 15:13:33.014261 12089 layer_factory.hpp:77] Creating layer inception_3b/relu_pool_proj
I0403 15:13:33.014278 12089 net.cpp:91] Creating Layer inception_3b/relu_pool_proj
I0403 15:13:33.014294 12089 net.cpp:425] inception_3b/relu_pool_proj <- inception_3b/pool_proj
I0403 15:13:33.014313 12089 net.cpp:386] inception_3b/relu_pool_proj -> inception_3b/pool_proj (in-place)
I0403 15:13:33.014685 12089 net.cpp:141] Setting up inception_3b/relu_pool_proj
I0403 15:13:33.014714 12089 net.cpp:148] Top shape: 24 64 28 28 (1204224)
I0403 15:13:33.014729 12089 net.cpp:156] Memory required for data: 773112864
I0403 15:13:33.014742 12089 layer_factory.hpp:77] Creating layer inception_3b/output
I0403 15:13:33.014760 12089 net.cpp:91] Creating Layer inception_3b/output
I0403 15:13:33.014775 12089 net.cpp:425] inception_3b/output <- inception_3b/1x1
I0403 15:13:33.014792 12089 net.cpp:425] inception_3b/output <- inception_3b/3x3
I0403 15:13:33.014807 12089 net.cpp:425] inception_3b/output <- inception_3b/5x5
I0403 15:13:33.014822 12089 net.cpp:425] inception_3b/output <- inception_3b/pool_proj
I0403 15:13:33.014838 12089 net.cpp:399] inception_3b/output -> inception_3b/output
I0403 15:13:33.014883 12089 net.cpp:141] Setting up inception_3b/output
I0403 15:13:33.014904 12089 net.cpp:148] Top shape: 24 480 28 28 (9031680)
I0403 15:13:33.014919 12089 net.cpp:156] Memory required for data: 809239584
I0403 15:13:33.014935 12089 layer_factory.hpp:77] Creating layer pool3/3x3_s2
I0403 15:13:33.014955 12089 net.cpp:91] Creating Layer pool3/3x3_s2
I0403 15:13:33.014969 12089 net.cpp:425] pool3/3x3_s2 <- inception_3b/output
I0403 15:13:33.015002 12089 net.cpp:399] pool3/3x3_s2 -> pool3/3x3_s2
I0403 15:13:33.015060 12089 net.cpp:141] Setting up pool3/3x3_s2
I0403 15:13:33.015084 12089 net.cpp:148] Top shape: 24 480 14 14 (2257920)
I0403 15:13:33.015103 12089 net.cpp:156] Memory required for data: 818271264
I0403 15:13:33.015117 12089 layer_factory.hpp:77] Creating layer pool3/3x3_s2_pool3/3x3_s2_0_split
I0403 15:13:33.015135 12089 net.cpp:91] Creating Layer pool3/3x3_s2_pool3/3x3_s2_0_split
I0403 15:13:33.015151 12089 net.cpp:425] pool3/3x3_s2_pool3/3x3_s2_0_split <- pool3/3x3_s2
I0403 15:13:33.015169 12089 net.cpp:399] pool3/3x3_s2_pool3/3x3_s2_0_split -> pool3/3x3_s2_pool3/3x3_s2_0_split_0
I0403 15:13:33.015189 12089 net.cpp:399] pool3/3x3_s2_pool3/3x3_s2_0_split -> pool3/3x3_s2_pool3/3x3_s2_0_split_1
I0403 15:13:33.015209 12089 net.cpp:399] pool3/3x3_s2_pool3/3x3_s2_0_split -> pool3/3x3_s2_pool3/3x3_s2_0_split_2
I0403 15:13:33.015228 12089 net.cpp:399] pool3/3x3_s2_pool3/3x3_s2_0_split -> pool3/3x3_s2_pool3/3x3_s2_0_split_3
I0403 15:13:33.015302 12089 net.cpp:141] Setting up pool3/3x3_s2_pool3/3x3_s2_0_split
I0403 15:13:33.015329 12089 net.cpp:148] Top shape: 24 480 14 14 (2257920)
I0403 15:13:33.015347 12089 net.cpp:148] Top shape: 24 480 14 14 (2257920)
I0403 15:13:33.015362 12089 net.cpp:148] Top shape: 24 480 14 14 (2257920)
I0403 15:13:33.015378 12089 net.cpp:148] Top shape: 24 480 14 14 (2257920)
I0403 15:13:33.015391 12089 net.cpp:156] Memory required for data: 854397984
I0403 15:13:33.015406 12089 layer_factory.hpp:77] Creating layer inception_4a/1x1
I0403 15:13:33.015429 12089 net.cpp:91] Creating Layer inception_4a/1x1
I0403 15:13:33.015445 12089 net.cpp:425] inception_4a/1x1 <- pool3/3x3_s2_pool3/3x3_s2_0_split_0
I0403 15:13:33.015463 12089 net.cpp:399] inception_4a/1x1 -> inception_4a/1x1
I0403 15:13:33.016975 12089 net.cpp:141] Setting up inception_4a/1x1
I0403 15:13:33.017004 12089 net.cpp:148] Top shape: 24 192 14 14 (903168)
I0403 15:13:33.017021 12089 net.cpp:156] Memory required for data: 858010656
I0403 15:13:33.017040 12089 layer_factory.hpp:77] Creating layer inception_4a/relu_1x1
I0403 15:13:33.017058 12089 net.cpp:91] Creating Layer inception_4a/relu_1x1
I0403 15:13:33.017076 12089 net.cpp:425] inception_4a/relu_1x1 <- inception_4a/1x1
I0403 15:13:33.017098 12089 net.cpp:386] inception_4a/relu_1x1 -> inception_4a/1x1 (in-place)
I0403 15:13:33.017271 12089 net.cpp:141] Setting up inception_4a/relu_1x1
I0403 15:13:33.017297 12089 net.cpp:148] Top shape: 24 192 14 14 (903168)
I0403 15:13:33.017310 12089 net.cpp:156] Memory required for data: 861623328
I0403 15:13:33.017324 12089 layer_factory.hpp:77] Creating layer inception_4a/3x3_reduce
I0403 15:13:33.017345 12089 net.cpp:91] Creating Layer inception_4a/3x3_reduce
I0403 15:13:33.017362 12089 net.cpp:425] inception_4a/3x3_reduce <- pool3/3x3_s2_pool3/3x3_s2_0_split_1
I0403 15:13:33.017384 12089 net.cpp:399] inception_4a/3x3_reduce -> inception_4a/3x3_reduce
I0403 15:13:33.018671 12089 net.cpp:141] Setting up inception_4a/3x3_reduce
I0403 15:13:33.018702 12089 net.cpp:148] Top shape: 24 96 14 14 (451584)
I0403 15:13:33.018718 12089 net.cpp:156] Memory required for data: 863429664
I0403 15:13:33.018741 12089 layer_factory.hpp:77] Creating layer inception_4a/relu_3x3_reduce
I0403 15:13:33.018764 12089 net.cpp:91] Creating Layer inception_4a/relu_3x3_reduce
I0403 15:13:33.018780 12089 net.cpp:425] inception_4a/relu_3x3_reduce <- inception_4a/3x3_reduce
I0403 15:13:33.018797 12089 net.cpp:386] inception_4a/relu_3x3_reduce -> inception_4a/3x3_reduce (in-place)
I0403 15:13:33.018975 12089 net.cpp:141] Setting up inception_4a/relu_3x3_reduce
I0403 15:13:33.019001 12089 net.cpp:148] Top shape: 24 96 14 14 (451584)
I0403 15:13:33.019016 12089 net.cpp:156] Memory required for data: 865236000
I0403 15:13:33.019031 12089 layer_factory.hpp:77] Creating layer inception_4a/3x3
I0403 15:13:33.019052 12089 net.cpp:91] Creating Layer inception_4a/3x3
I0403 15:13:33.019071 12089 net.cpp:425] inception_4a/3x3 <- inception_4a/3x3_reduce
I0403 15:13:33.019093 12089 net.cpp:399] inception_4a/3x3 -> inception_4a/3x3
I0403 15:13:33.021754 12089 net.cpp:141] Setting up inception_4a/3x3
I0403 15:13:33.021782 12089 net.cpp:148] Top shape: 24 208 14 14 (978432)
I0403 15:13:33.021798 12089 net.cpp:156] Memory required for data: 869149728
I0403 15:13:33.021817 12089 layer_factory.hpp:77] Creating layer inception_4a/relu_3x3
I0403 15:13:33.021837 12089 net.cpp:91] Creating Layer inception_4a/relu_3x3
I0403 15:13:33.021854 12089 net.cpp:425] inception_4a/relu_3x3 <- inception_4a/3x3
I0403 15:13:33.021872 12089 net.cpp:386] inception_4a/relu_3x3 -> inception_4a/3x3 (in-place)
I0403 15:13:33.022155 12089 net.cpp:141] Setting up inception_4a/relu_3x3
I0403 15:13:33.022181 12089 net.cpp:148] Top shape: 24 208 14 14 (978432)
I0403 15:13:33.022197 12089 net.cpp:156] Memory required for data: 873063456
I0403 15:13:33.022212 12089 layer_factory.hpp:77] Creating layer inception_4a/5x5_reduce
I0403 15:13:33.022234 12089 net.cpp:91] Creating Layer inception_4a/5x5_reduce
I0403 15:13:33.022253 12089 net.cpp:425] inception_4a/5x5_reduce <- pool3/3x3_s2_pool3/3x3_s2_0_split_2
I0403 15:13:33.022274 12089 net.cpp:399] inception_4a/5x5_reduce -> inception_4a/5x5_reduce
I0403 15:13:33.023306 12089 net.cpp:141] Setting up inception_4a/5x5_reduce
I0403 15:13:33.023334 12089 net.cpp:148] Top shape: 24 16 14 14 (75264)
I0403 15:13:33.023351 12089 net.cpp:156] Memory required for data: 873364512
I0403 15:13:33.023370 12089 layer_factory.hpp:77] Creating layer inception_4a/relu_5x5_reduce
I0403 15:13:33.023391 12089 net.cpp:91] Creating Layer inception_4a/relu_5x5_reduce
I0403 15:13:33.023411 12089 net.cpp:425] inception_4a/relu_5x5_reduce <- inception_4a/5x5_reduce
I0403 15:13:33.023427 12089 net.cpp:386] inception_4a/relu_5x5_reduce -> inception_4a/5x5_reduce (in-place)
I0403 15:13:33.023608 12089 net.cpp:141] Setting up inception_4a/relu_5x5_reduce
I0403 15:13:33.023633 12089 net.cpp:148] Top shape: 24 16 14 14 (75264)
I0403 15:13:33.023648 12089 net.cpp:156] Memory required for data: 873665568
I0403 15:13:33.023661 12089 layer_factory.hpp:77] Creating layer inception_4a/5x5
I0403 15:13:33.023689 12089 net.cpp:91] Creating Layer inception_4a/5x5
I0403 15:13:33.023706 12089 net.cpp:425] inception_4a/5x5 <- inception_4a/5x5_reduce
I0403 15:13:33.023725 12089 net.cpp:399] inception_4a/5x5 -> inception_4a/5x5
I0403 15:13:33.024807 12089 net.cpp:141] Setting up inception_4a/5x5
I0403 15:13:33.024837 12089 net.cpp:148] Top shape: 24 48 14 14 (225792)
I0403 15:13:33.024853 12089 net.cpp:156] Memory required for data: 874568736
I0403 15:13:33.024873 12089 layer_factory.hpp:77] Creating layer inception_4a/relu_5x5
I0403 15:13:33.024891 12089 net.cpp:91] Creating Layer inception_4a/relu_5x5
I0403 15:13:33.024907 12089 net.cpp:425] inception_4a/relu_5x5 <- inception_4a/5x5
I0403 15:13:33.024925 12089 net.cpp:386] inception_4a/relu_5x5 -> inception_4a/5x5 (in-place)
I0403 15:13:33.025111 12089 net.cpp:141] Setting up inception_4a/relu_5x5
I0403 15:13:33.025140 12089 net.cpp:148] Top shape: 24 48 14 14 (225792)
I0403 15:13:33.025156 12089 net.cpp:156] Memory required for data: 875471904
I0403 15:13:33.025171 12089 layer_factory.hpp:77] Creating layer inception_4a/pool
I0403 15:13:33.025189 12089 net.cpp:91] Creating Layer inception_4a/pool
I0403 15:13:33.025205 12089 net.cpp:425] inception_4a/pool <- pool3/3x3_s2_pool3/3x3_s2_0_split_3
I0403 15:13:33.025226 12089 net.cpp:399] inception_4a/pool -> inception_4a/pool
I0403 15:13:33.025287 12089 net.cpp:141] Setting up inception_4a/pool
I0403 15:13:33.025315 12089 net.cpp:148] Top shape: 24 480 14 14 (2257920)
I0403 15:13:33.025329 12089 net.cpp:156] Memory required for data: 884503584
I0403 15:13:33.025343 12089 layer_factory.hpp:77] Creating layer inception_4a/pool_proj
I0403 15:13:33.025367 12089 net.cpp:91] Creating Layer inception_4a/pool_proj
I0403 15:13:33.025383 12089 net.cpp:425] inception_4a/pool_proj <- inception_4a/pool
I0403 15:13:33.025403 12089 net.cpp:399] inception_4a/pool_proj -> inception_4a/pool_proj
I0403 15:13:33.026557 12089 net.cpp:141] Setting up inception_4a/pool_proj
I0403 15:13:33.026590 12089 net.cpp:148] Top shape: 24 64 14 14 (301056)
I0403 15:13:33.026621 12089 net.cpp:156] Memory required for data: 885707808
I0403 15:13:33.026641 12089 layer_factory.hpp:77] Creating layer inception_4a/relu_pool_proj
I0403 15:13:33.026660 12089 net.cpp:91] Creating Layer inception_4a/relu_pool_proj
I0403 15:13:33.026675 12089 net.cpp:425] inception_4a/relu_pool_proj <- inception_4a/pool_proj
I0403 15:13:33.026695 12089 net.cpp:386] inception_4a/relu_pool_proj -> inception_4a/pool_proj (in-place)
I0403 15:13:33.026974 12089 net.cpp:141] Setting up inception_4a/relu_pool_proj
I0403 15:13:33.027004 12089 net.cpp:148] Top shape: 24 64 14 14 (301056)
I0403 15:13:33.027019 12089 net.cpp:156] Memory required for data: 886912032
I0403 15:13:33.027034 12089 layer_factory.hpp:77] Creating layer inception_4a/output
I0403 15:13:33.027053 12089 net.cpp:91] Creating Layer inception_4a/output
I0403 15:13:33.027070 12089 net.cpp:425] inception_4a/output <- inception_4a/1x1
I0403 15:13:33.027086 12089 net.cpp:425] inception_4a/output <- inception_4a/3x3
I0403 15:13:33.027108 12089 net.cpp:425] inception_4a/output <- inception_4a/5x5
I0403 15:13:33.027125 12089 net.cpp:425] inception_4a/output <- inception_4a/pool_proj
I0403 15:13:33.027143 12089 net.cpp:399] inception_4a/output -> inception_4a/output
I0403 15:13:33.027191 12089 net.cpp:141] Setting up inception_4a/output
I0403 15:13:33.027216 12089 net.cpp:148] Top shape: 24 512 14 14 (2408448)
I0403 15:13:33.027230 12089 net.cpp:156] Memory required for data: 896545824
I0403 15:13:33.027245 12089 layer_factory.hpp:77] Creating layer inception_4a/output_inception_4a/output_0_split
I0403 15:13:33.027264 12089 net.cpp:91] Creating Layer inception_4a/output_inception_4a/output_0_split
I0403 15:13:33.027282 12089 net.cpp:425] inception_4a/output_inception_4a/output_0_split <- inception_4a/output
I0403 15:13:33.027300 12089 net.cpp:399] inception_4a/output_inception_4a/output_0_split -> inception_4a/output_inception_4a/output_0_split_0
I0403 15:13:33.027321 12089 net.cpp:399] inception_4a/output_inception_4a/output_0_split -> inception_4a/output_inception_4a/output_0_split_1
I0403 15:13:33.027341 12089 net.cpp:399] inception_4a/output_inception_4a/output_0_split -> inception_4a/output_inception_4a/output_0_split_2
I0403 15:13:33.027364 12089 net.cpp:399] inception_4a/output_inception_4a/output_0_split -> inception_4a/output_inception_4a/output_0_split_3
I0403 15:13:33.027385 12089 net.cpp:399] inception_4a/output_inception_4a/output_0_split -> inception_4a/output_inception_4a/output_0_split_4
I0403 15:13:33.027478 12089 net.cpp:141] Setting up inception_4a/output_inception_4a/output_0_split
I0403 15:13:33.027503 12089 net.cpp:148] Top shape: 24 512 14 14 (2408448)
I0403 15:13:33.027519 12089 net.cpp:148] Top shape: 24 512 14 14 (2408448)
I0403 15:13:33.027534 12089 net.cpp:148] Top shape: 24 512 14 14 (2408448)
I0403 15:13:33.027549 12089 net.cpp:148] Top shape: 24 512 14 14 (2408448)
I0403 15:13:33.027564 12089 net.cpp:148] Top shape: 24 512 14 14 (2408448)
I0403 15:13:33.027577 12089 net.cpp:156] Memory required for data: 944714784
I0403 15:13:33.027592 12089 layer_factory.hpp:77] Creating layer loss1/ave_pool
I0403 15:13:33.027612 12089 net.cpp:91] Creating Layer loss1/ave_pool
I0403 15:13:33.027628 12089 net.cpp:425] loss1/ave_pool <- inception_4a/output_inception_4a/output_0_split_0
I0403 15:13:33.027645 12089 net.cpp:399] loss1/ave_pool -> loss1/ave_pool
I0403 15:13:33.027853 12089 net.cpp:141] Setting up loss1/ave_pool
I0403 15:13:33.027880 12089 net.cpp:148] Top shape: 24 512 4 4 (196608)
I0403 15:13:33.027895 12089 net.cpp:156] Memory required for data: 945501216
I0403 15:13:33.027910 12089 layer_factory.hpp:77] Creating layer loss1/conv
I0403 15:13:33.027932 12089 net.cpp:91] Creating Layer loss1/conv
I0403 15:13:33.027951 12089 net.cpp:425] loss1/conv <- loss1/ave_pool
I0403 15:13:33.027971 12089 net.cpp:399] loss1/conv -> loss1/conv
I0403 15:13:33.029386 12089 net.cpp:141] Setting up loss1/conv
I0403 15:13:33.029413 12089 net.cpp:148] Top shape: 24 128 4 4 (49152)
I0403 15:13:33.029444 12089 net.cpp:156] Memory required for data: 945697824
I0403 15:13:33.029465 12089 layer_factory.hpp:77] Creating layer loss1/relu_conv
I0403 15:13:33.029485 12089 net.cpp:91] Creating Layer loss1/relu_conv
I0403 15:13:33.029502 12089 net.cpp:425] loss1/relu_conv <- loss1/conv
I0403 15:13:33.029520 12089 net.cpp:386] loss1/relu_conv -> loss1/conv (in-place)
I0403 15:13:33.029800 12089 net.cpp:141] Setting up loss1/relu_conv
I0403 15:13:33.029827 12089 net.cpp:148] Top shape: 24 128 4 4 (49152)
I0403 15:13:33.029844 12089 net.cpp:156] Memory required for data: 945894432
I0403 15:13:33.029858 12089 layer_factory.hpp:77] Creating layer loss1/fc
I0403 15:13:33.029884 12089 net.cpp:91] Creating Layer loss1/fc
I0403 15:13:33.029903 12089 net.cpp:425] loss1/fc <- loss1/conv
I0403 15:13:33.029922 12089 net.cpp:399] loss1/fc -> loss1/fc
I0403 15:13:33.047421 12089 net.cpp:141] Setting up loss1/fc
I0403 15:13:33.047459 12089 net.cpp:148] Top shape: 24 1024 (24576)
I0403 15:13:33.047474 12089 net.cpp:156] Memory required for data: 945992736
I0403 15:13:33.047492 12089 layer_factory.hpp:77] Creating layer loss1/relu_fc
I0403 15:13:33.047510 12089 net.cpp:91] Creating Layer loss1/relu_fc
I0403 15:13:33.047528 12089 net.cpp:425] loss1/relu_fc <- loss1/fc
I0403 15:13:33.047547 12089 net.cpp:386] loss1/relu_fc -> loss1/fc (in-place)
I0403 15:13:33.047737 12089 net.cpp:141] Setting up loss1/relu_fc
I0403 15:13:33.047762 12089 net.cpp:148] Top shape: 24 1024 (24576)
I0403 15:13:33.047776 12089 net.cpp:156] Memory required for data: 946091040
I0403 15:13:33.047791 12089 layer_factory.hpp:77] Creating layer loss1/drop_fc
I0403 15:13:33.047816 12089 net.cpp:91] Creating Layer loss1/drop_fc
I0403 15:13:33.047837 12089 net.cpp:425] loss1/drop_fc <- loss1/fc
I0403 15:13:33.047853 12089 net.cpp:386] loss1/drop_fc -> loss1/fc (in-place)
I0403 15:13:33.047902 12089 net.cpp:141] Setting up loss1/drop_fc
I0403 15:13:33.047924 12089 net.cpp:148] Top shape: 24 1024 (24576)
I0403 15:13:33.047940 12089 net.cpp:156] Memory required for data: 946189344
I0403 15:13:33.047955 12089 layer_factory.hpp:77] Creating layer loss1/classifier_plantvillage
I0403 15:13:33.047977 12089 net.cpp:91] Creating Layer loss1/classifier_plantvillage
I0403 15:13:33.047994 12089 net.cpp:425] loss1/classifier_plantvillage <- loss1/fc
I0403 15:13:33.048014 12089 net.cpp:399] loss1/classifier_plantvillage -> loss1/classifier_plantvillage
I0403 15:13:33.048894 12089 net.cpp:141] Setting up loss1/classifier_plantvillage
I0403 15:13:33.048923 12089 net.cpp:148] Top shape: 24 38 (912)
I0403 15:13:33.048938 12089 net.cpp:156] Memory required for data: 946192992
I0403 15:13:33.048955 12089 layer_factory.hpp:77] Creating layer loss1/classifier_plantvillage_loss1/classifier_plantvillage_0_split
I0403 15:13:33.048972 12089 net.cpp:91] Creating Layer loss1/classifier_plantvillage_loss1/classifier_plantvillage_0_split
I0403 15:13:33.048988 12089 net.cpp:425] loss1/classifier_plantvillage_loss1/classifier_plantvillage_0_split <- loss1/classifier_plantvillage
I0403 15:13:33.049007 12089 net.cpp:399] loss1/classifier_plantvillage_loss1/classifier_plantvillage_0_split -> loss1/classifier_plantvillage_loss1/classifier_plantvillage_0_split_0
I0403 15:13:33.049028 12089 net.cpp:399] loss1/classifier_plantvillage_loss1/classifier_plantvillage_0_split -> loss1/classifier_plantvillage_loss1/classifier_plantvillage_0_split_1
I0403 15:13:33.049047 12089 net.cpp:399] loss1/classifier_plantvillage_loss1/classifier_plantvillage_0_split -> loss1/classifier_plantvillage_loss1/classifier_plantvillage_0_split_2
I0403 15:13:33.049114 12089 net.cpp:141] Setting up loss1/classifier_plantvillage_loss1/classifier_plantvillage_0_split
I0403 15:13:33.049144 12089 net.cpp:148] Top shape: 24 38 (912)
I0403 15:13:33.049160 12089 net.cpp:148] Top shape: 24 38 (912)
I0403 15:13:33.049177 12089 net.cpp:148] Top shape: 24 38 (912)
I0403 15:13:33.049190 12089 net.cpp:156] Memory required for data: 946203936
I0403 15:13:33.049206 12089 layer_factory.hpp:77] Creating layer inception_4b/1x1
I0403 15:13:33.049226 12089 net.cpp:91] Creating Layer inception_4b/1x1
I0403 15:13:33.049258 12089 net.cpp:425] inception_4b/1x1 <- inception_4a/output_inception_4a/output_0_split_1
I0403 15:13:33.049278 12089 net.cpp:399] inception_4b/1x1 -> inception_4b/1x1
I0403 15:13:33.050896 12089 net.cpp:141] Setting up inception_4b/1x1
I0403 15:13:33.050925 12089 net.cpp:148] Top shape: 24 160 14 14 (752640)
I0403 15:13:33.050940 12089 net.cpp:156] Memory required for data: 949214496
I0403 15:13:33.050956 12089 layer_factory.hpp:77] Creating layer inception_4b/relu_1x1
I0403 15:13:33.050977 12089 net.cpp:91] Creating Layer inception_4b/relu_1x1
I0403 15:13:33.050994 12089 net.cpp:425] inception_4b/relu_1x1 <- inception_4b/1x1
I0403 15:13:33.051012 12089 net.cpp:386] inception_4b/relu_1x1 -> inception_4b/1x1 (in-place)
I0403 15:13:33.051192 12089 net.cpp:141] Setting up inception_4b/relu_1x1
I0403 15:13:33.051218 12089 net.cpp:148] Top shape: 24 160 14 14 (752640)
I0403 15:13:33.051232 12089 net.cpp:156] Memory required for data: 952225056
I0403 15:13:33.051246 12089 layer_factory.hpp:77] Creating layer inception_4b/3x3_reduce
I0403 15:13:33.051270 12089 net.cpp:91] Creating Layer inception_4b/3x3_reduce
I0403 15:13:33.051287 12089 net.cpp:425] inception_4b/3x3_reduce <- inception_4a/output_inception_4a/output_0_split_2
I0403 15:13:33.051306 12089 net.cpp:399] inception_4b/3x3_reduce -> inception_4b/3x3_reduce
I0403 15:13:33.052623 12089 net.cpp:141] Setting up inception_4b/3x3_reduce
I0403 15:13:33.052650 12089 net.cpp:148] Top shape: 24 112 14 14 (526848)
I0403 15:13:33.052665 12089 net.cpp:156] Memory required for data: 954332448
I0403 15:13:33.052683 12089 layer_factory.hpp:77] Creating layer inception_4b/relu_3x3_reduce
I0403 15:13:33.052705 12089 net.cpp:91] Creating Layer inception_4b/relu_3x3_reduce
I0403 15:13:33.052722 12089 net.cpp:425] inception_4b/relu_3x3_reduce <- inception_4b/3x3_reduce
I0403 15:13:33.052741 12089 net.cpp:386] inception_4b/relu_3x3_reduce -> inception_4b/3x3_reduce (in-place)
I0403 15:13:33.053091 12089 net.cpp:141] Setting up inception_4b/relu_3x3_reduce
I0403 15:13:33.053124 12089 net.cpp:148] Top shape: 24 112 14 14 (526848)
I0403 15:13:33.053139 12089 net.cpp:156] Memory required for data: 956439840
I0403 15:13:33.053154 12089 layer_factory.hpp:77] Creating layer inception_4b/3x3
I0403 15:13:33.053179 12089 net.cpp:91] Creating Layer inception_4b/3x3
I0403 15:13:33.053194 12089 net.cpp:425] inception_4b/3x3 <- inception_4b/3x3_reduce
I0403 15:13:33.053213 12089 net.cpp:399] inception_4b/3x3 -> inception_4b/3x3
I0403 15:13:33.056088 12089 net.cpp:141] Setting up inception_4b/3x3
I0403 15:13:33.056123 12089 net.cpp:148] Top shape: 24 224 14 14 (1053696)
I0403 15:13:33.056139 12089 net.cpp:156] Memory required for data: 960654624
I0403 15:13:33.056157 12089 layer_factory.hpp:77] Creating layer inception_4b/relu_3x3
I0403 15:13:33.056175 12089 net.cpp:91] Creating Layer inception_4b/relu_3x3
I0403 15:13:33.056191 12089 net.cpp:425] inception_4b/relu_3x3 <- inception_4b/3x3
I0403 15:13:33.056210 12089 net.cpp:386] inception_4b/relu_3x3 -> inception_4b/3x3 (in-place)
I0403 15:13:33.056386 12089 net.cpp:141] Setting up inception_4b/relu_3x3
I0403 15:13:33.056411 12089 net.cpp:148] Top shape: 24 224 14 14 (1053696)
I0403 15:13:33.056427 12089 net.cpp:156] Memory required for data: 964869408
I0403 15:13:33.056440 12089 layer_factory.hpp:77] Creating layer inception_4b/5x5_reduce
I0403 15:13:33.056463 12089 net.cpp:91] Creating Layer inception_4b/5x5_reduce
I0403 15:13:33.056480 12089 net.cpp:425] inception_4b/5x5_reduce <- inception_4a/output_inception_4a/output_0_split_3
I0403 15:13:33.056501 12089 net.cpp:399] inception_4b/5x5_reduce -> inception_4b/5x5_reduce
I0403 15:13:33.057555 12089 net.cpp:141] Setting up inception_4b/5x5_reduce
I0403 15:13:33.057582 12089 net.cpp:148] Top shape: 24 24 14 14 (112896)
I0403 15:13:33.057598 12089 net.cpp:156] Memory required for data: 965320992
I0403 15:13:33.057617 12089 layer_factory.hpp:77] Creating layer inception_4b/relu_5x5_reduce
I0403 15:13:33.057636 12089 net.cpp:91] Creating Layer inception_4b/relu_5x5_reduce
I0403 15:13:33.057667 12089 net.cpp:425] inception_4b/relu_5x5_reduce <- inception_4b/5x5_reduce
I0403 15:13:33.057685 12089 net.cpp:386] inception_4b/relu_5x5_reduce -> inception_4b/5x5_reduce (in-place)
I0403 15:13:33.057862 12089 net.cpp:141] Setting up inception_4b/relu_5x5_reduce
I0403 15:13:33.057890 12089 net.cpp:148] Top shape: 24 24 14 14 (112896)
I0403 15:13:33.057907 12089 net.cpp:156] Memory required for data: 965772576
I0403 15:13:33.057924 12089 layer_factory.hpp:77] Creating layer inception_4b/5x5
I0403 15:13:33.057945 12089 net.cpp:91] Creating Layer inception_4b/5x5
I0403 15:13:33.057962 12089 net.cpp:425] inception_4b/5x5 <- inception_4b/5x5_reduce
I0403 15:13:33.057981 12089 net.cpp:399] inception_4b/5x5 -> inception_4b/5x5
I0403 15:13:33.059172 12089 net.cpp:141] Setting up inception_4b/5x5
I0403 15:13:33.059201 12089 net.cpp:148] Top shape: 24 64 14 14 (301056)
I0403 15:13:33.059216 12089 net.cpp:156] Memory required for data: 966976800
I0403 15:13:33.059233 12089 layer_factory.hpp:77] Creating layer inception_4b/relu_5x5
I0403 15:13:33.059253 12089 net.cpp:91] Creating Layer inception_4b/relu_5x5
I0403 15:13:33.059270 12089 net.cpp:425] inception_4b/relu_5x5 <- inception_4b/5x5
I0403 15:13:33.059288 12089 net.cpp:386] inception_4b/relu_5x5 -> inception_4b/5x5 (in-place)
I0403 15:13:33.059563 12089 net.cpp:141] Setting up inception_4b/relu_5x5
I0403 15:13:33.059589 12089 net.cpp:148] Top shape: 24 64 14 14 (301056)
I0403 15:13:33.059604 12089 net.cpp:156] Memory required for data: 968181024
I0403 15:13:33.059618 12089 layer_factory.hpp:77] Creating layer inception_4b/pool
I0403 15:13:33.059638 12089 net.cpp:91] Creating Layer inception_4b/pool
I0403 15:13:33.059655 12089 net.cpp:425] inception_4b/pool <- inception_4a/output_inception_4a/output_0_split_4
I0403 15:13:33.059672 12089 net.cpp:399] inception_4b/pool -> inception_4b/pool
I0403 15:13:33.059733 12089 net.cpp:141] Setting up inception_4b/pool
I0403 15:13:33.059757 12089 net.cpp:148] Top shape: 24 512 14 14 (2408448)
I0403 15:13:33.059772 12089 net.cpp:156] Memory required for data: 977814816
I0403 15:13:33.059785 12089 layer_factory.hpp:77] Creating layer inception_4b/pool_proj
I0403 15:13:33.059806 12089 net.cpp:91] Creating Layer inception_4b/pool_proj
I0403 15:13:33.059823 12089 net.cpp:425] inception_4b/pool_proj <- inception_4b/pool
I0403 15:13:33.059844 12089 net.cpp:399] inception_4b/pool_proj -> inception_4b/pool_proj
I0403 15:13:33.061003 12089 net.cpp:141] Setting up inception_4b/pool_proj
I0403 15:13:33.061030 12089 net.cpp:148] Top shape: 24 64 14 14 (301056)
I0403 15:13:33.061045 12089 net.cpp:156] Memory required for data: 979019040
I0403 15:13:33.061063 12089 layer_factory.hpp:77] Creating layer inception_4b/relu_pool_proj
I0403 15:13:33.061084 12089 net.cpp:91] Creating Layer inception_4b/relu_pool_proj
I0403 15:13:33.061106 12089 net.cpp:425] inception_4b/relu_pool_proj <- inception_4b/pool_proj
I0403 15:13:33.061125 12089 net.cpp:386] inception_4b/relu_pool_proj -> inception_4b/pool_proj (in-place)
I0403 15:13:33.061300 12089 net.cpp:141] Setting up inception_4b/relu_pool_proj
I0403 15:13:33.061326 12089 net.cpp:148] Top shape: 24 64 14 14 (301056)
I0403 15:13:33.061342 12089 net.cpp:156] Memory required for data: 980223264
I0403 15:13:33.061357 12089 layer_factory.hpp:77] Creating layer inception_4b/output
I0403 15:13:33.061372 12089 net.cpp:91] Creating Layer inception_4b/output
I0403 15:13:33.061388 12089 net.cpp:425] inception_4b/output <- inception_4b/1x1
I0403 15:13:33.061404 12089 net.cpp:425] inception_4b/output <- inception_4b/3x3
I0403 15:13:33.061419 12089 net.cpp:425] inception_4b/output <- inception_4b/5x5
I0403 15:13:33.061435 12089 net.cpp:425] inception_4b/output <- inception_4b/pool_proj
I0403 15:13:33.061451 12089 net.cpp:399] inception_4b/output -> inception_4b/output
I0403 15:13:33.061499 12089 net.cpp:141] Setting up inception_4b/output
I0403 15:13:33.061522 12089 net.cpp:148] Top shape: 24 512 14 14 (2408448)
I0403 15:13:33.061535 12089 net.cpp:156] Memory required for data: 989857056
I0403 15:13:33.061563 12089 layer_factory.hpp:77] Creating layer inception_4b/output_inception_4b/output_0_split
I0403 15:13:33.061581 12089 net.cpp:91] Creating Layer inception_4b/output_inception_4b/output_0_split
I0403 15:13:33.061596 12089 net.cpp:425] inception_4b/output_inception_4b/output_0_split <- inception_4b/output
I0403 15:13:33.061616 12089 net.cpp:399] inception_4b/output_inception_4b/output_0_split -> inception_4b/output_inception_4b/output_0_split_0
I0403 15:13:33.061636 12089 net.cpp:399] inception_4b/output_inception_4b/output_0_split -> inception_4b/output_inception_4b/output_0_split_1
I0403 15:13:33.061657 12089 net.cpp:399] inception_4b/output_inception_4b/output_0_split -> inception_4b/output_inception_4b/output_0_split_2
I0403 15:13:33.061678 12089 net.cpp:399] inception_4b/output_inception_4b/output_0_split -> inception_4b/output_inception_4b/output_0_split_3
I0403 15:13:33.061760 12089 net.cpp:141] Setting up inception_4b/output_inception_4b/output_0_split
I0403 15:13:33.061784 12089 net.cpp:148] Top shape: 24 512 14 14 (2408448)
I0403 15:13:33.061800 12089 net.cpp:148] Top shape: 24 512 14 14 (2408448)
I0403 15:13:33.061815 12089 net.cpp:148] Top shape: 24 512 14 14 (2408448)
I0403 15:13:33.061830 12089 net.cpp:148] Top shape: 24 512 14 14 (2408448)
I0403 15:13:33.061843 12089 net.cpp:156] Memory required for data: 1028392224
I0403 15:13:33.061857 12089 layer_factory.hpp:77] Creating layer inception_4c/1x1
I0403 15:13:33.061878 12089 net.cpp:91] Creating Layer inception_4c/1x1
I0403 15:13:33.061897 12089 net.cpp:425] inception_4c/1x1 <- inception_4b/output_inception_4b/output_0_split_0
I0403 15:13:33.061916 12089 net.cpp:399] inception_4c/1x1 -> inception_4c/1x1
I0403 15:13:33.063305 12089 net.cpp:141] Setting up inception_4c/1x1
I0403 15:13:33.063338 12089 net.cpp:148] Top shape: 24 128 14 14 (602112)
I0403 15:13:33.063354 12089 net.cpp:156] Memory required for data: 1030800672
I0403 15:13:33.063372 12089 layer_factory.hpp:77] Creating layer inception_4c/relu_1x1
I0403 15:13:33.063390 12089 net.cpp:91] Creating Layer inception_4c/relu_1x1
I0403 15:13:33.063406 12089 net.cpp:425] inception_4c/relu_1x1 <- inception_4c/1x1
I0403 15:13:33.063426 12089 net.cpp:386] inception_4c/relu_1x1 -> inception_4c/1x1 (in-place)
I0403 15:13:33.063599 12089 net.cpp:141] Setting up inception_4c/relu_1x1
I0403 15:13:33.063624 12089 net.cpp:148] Top shape: 24 128 14 14 (602112)
I0403 15:13:33.063639 12089 net.cpp:156] Memory required for data: 1033209120
I0403 15:13:33.063653 12089 layer_factory.hpp:77] Creating layer inception_4c/3x3_reduce
I0403 15:13:33.063676 12089 net.cpp:91] Creating Layer inception_4c/3x3_reduce
I0403 15:13:33.063694 12089 net.cpp:425] inception_4c/3x3_reduce <- inception_4b/output_inception_4b/output_0_split_1
I0403 15:13:33.063715 12089 net.cpp:399] inception_4c/3x3_reduce -> inception_4c/3x3_reduce
I0403 15:13:33.065603 12089 net.cpp:141] Setting up inception_4c/3x3_reduce
I0403 15:13:33.065632 12089 net.cpp:148] Top shape: 24 128 14 14 (602112)
I0403 15:13:33.065649 12089 net.cpp:156] Memory required for data: 1035617568
I0403 15:13:33.065668 12089 layer_factory.hpp:77] Creating layer inception_4c/relu_3x3_reduce
I0403 15:13:33.065688 12089 net.cpp:91] Creating Layer inception_4c/relu_3x3_reduce
I0403 15:13:33.065704 12089 net.cpp:425] inception_4c/relu_3x3_reduce <- inception_4c/3x3_reduce
I0403 15:13:33.065721 12089 net.cpp:386] inception_4c/relu_3x3_reduce -> inception_4c/3x3_reduce (in-place)
I0403 15:13:33.066004 12089 net.cpp:141] Setting up inception_4c/relu_3x3_reduce
I0403 15:13:33.066030 12089 net.cpp:148] Top shape: 24 128 14 14 (602112)
I0403 15:13:33.066043 12089 net.cpp:156] Memory required for data: 1038026016
I0403 15:13:33.066058 12089 layer_factory.hpp:77] Creating layer inception_4c/3x3
I0403 15:13:33.066092 12089 net.cpp:91] Creating Layer inception_4c/3x3
I0403 15:13:33.066115 12089 net.cpp:425] inception_4c/3x3 <- inception_4c/3x3_reduce
I0403 15:13:33.066138 12089 net.cpp:399] inception_4c/3x3 -> inception_4c/3x3
I0403 15:13:33.069744 12089 net.cpp:141] Setting up inception_4c/3x3
I0403 15:13:33.069788 12089 net.cpp:148] Top shape: 24 256 14 14 (1204224)
I0403 15:13:33.069805 12089 net.cpp:156] Memory required for data: 1042842912
I0403 15:13:33.069838 12089 layer_factory.hpp:77] Creating layer inception_4c/relu_3x3
I0403 15:13:33.069859 12089 net.cpp:91] Creating Layer inception_4c/relu_3x3
I0403 15:13:33.069877 12089 net.cpp:425] inception_4c/relu_3x3 <- inception_4c/3x3
I0403 15:13:33.069895 12089 net.cpp:386] inception_4c/relu_3x3 -> inception_4c/3x3 (in-place)
I0403 15:13:33.070077 12089 net.cpp:141] Setting up inception_4c/relu_3x3
I0403 15:13:33.070107 12089 net.cpp:148] Top shape: 24 256 14 14 (1204224)
I0403 15:13:33.070124 12089 net.cpp:156] Memory required for data: 1047659808
I0403 15:13:33.070139 12089 layer_factory.hpp:77] Creating layer inception_4c/5x5_reduce
I0403 15:13:33.070163 12089 net.cpp:91] Creating Layer inception_4c/5x5_reduce
I0403 15:13:33.070181 12089 net.cpp:425] inception_4c/5x5_reduce <- inception_4b/output_inception_4b/output_0_split_2
I0403 15:13:33.070204 12089 net.cpp:399] inception_4c/5x5_reduce -> inception_4c/5x5_reduce
I0403 15:13:33.071305 12089 net.cpp:141] Setting up inception_4c/5x5_reduce
I0403 15:13:33.071332 12089 net.cpp:148] Top shape: 24 24 14 14 (112896)
I0403 15:13:33.071348 12089 net.cpp:156] Memory required for data: 1048111392
I0403 15:13:33.071377 12089 layer_factory.hpp:77] Creating layer inception_4c/relu_5x5_reduce
I0403 15:13:33.071398 12089 net.cpp:91] Creating Layer inception_4c/relu_5x5_reduce
I0403 15:13:33.071414 12089 net.cpp:425] inception_4c/relu_5x5_reduce <- inception_4c/5x5_reduce
I0403 15:13:33.071431 12089 net.cpp:386] inception_4c/relu_5x5_reduce -> inception_4c/5x5_reduce (in-place)
I0403 15:13:33.071612 12089 net.cpp:141] Setting up inception_4c/relu_5x5_reduce
I0403 15:13:33.071648 12089 net.cpp:148] Top shape: 24 24 14 14 (112896)
I0403 15:13:33.071663 12089 net.cpp:156] Memory required for data: 1048562976
I0403 15:13:33.071678 12089 layer_factory.hpp:77] Creating layer inception_4c/5x5
I0403 15:13:33.071701 12089 net.cpp:91] Creating Layer inception_4c/5x5
I0403 15:13:33.071718 12089 net.cpp:425] inception_4c/5x5 <- inception_4c/5x5_reduce
I0403 15:13:33.071737 12089 net.cpp:399] inception_4c/5x5 -> inception_4c/5x5
I0403 15:13:33.072974 12089 net.cpp:141] Setting up inception_4c/5x5
I0403 15:13:33.073004 12089 net.cpp:148] Top shape: 24 64 14 14 (301056)
I0403 15:13:33.073020 12089 net.cpp:156] Memory required for data: 1049767200
I0403 15:13:33.073040 12089 layer_factory.hpp:77] Creating layer inception_4c/relu_5x5
I0403 15:13:33.073057 12089 net.cpp:91] Creating Layer inception_4c/relu_5x5
I0403 15:13:33.073073 12089 net.cpp:425] inception_4c/relu_5x5 <- inception_4c/5x5
I0403 15:13:33.073104 12089 net.cpp:386] inception_4c/relu_5x5 -> inception_4c/5x5 (in-place)
I0403 15:13:33.073398 12089 net.cpp:141] Setting up inception_4c/relu_5x5
I0403 15:13:33.073426 12089 net.cpp:148] Top shape: 24 64 14 14 (301056)
I0403 15:13:33.073442 12089 net.cpp:156] Memory required for data: 1050971424
I0403 15:13:33.073458 12089 layer_factory.hpp:77] Creating layer inception_4c/pool
I0403 15:13:33.073475 12089 net.cpp:91] Creating Layer inception_4c/pool
I0403 15:13:33.073492 12089 net.cpp:425] inception_4c/pool <- inception_4b/output_inception_4b/output_0_split_3
I0403 15:13:33.073513 12089 net.cpp:399] inception_4c/pool -> inception_4c/pool
I0403 15:13:33.073577 12089 net.cpp:141] Setting up inception_4c/pool
I0403 15:13:33.073601 12089 net.cpp:148] Top shape: 24 512 14 14 (2408448)
I0403 15:13:33.073616 12089 net.cpp:156] Memory required for data: 1060605216
I0403 15:13:33.073632 12089 layer_factory.hpp:77] Creating layer inception_4c/pool_proj
I0403 15:13:33.073663 12089 net.cpp:91] Creating Layer inception_4c/pool_proj
I0403 15:13:33.073681 12089 net.cpp:425] inception_4c/pool_proj <- inception_4c/pool
I0403 15:13:33.073701 12089 net.cpp:399] inception_4c/pool_proj -> inception_4c/pool_proj
I0403 15:13:33.074918 12089 net.cpp:141] Setting up inception_4c/pool_proj
I0403 15:13:33.074946 12089 net.cpp:148] Top shape: 24 64 14 14 (301056)
I0403 15:13:33.074976 12089 net.cpp:156] Memory required for data: 1061809440
I0403 15:13:33.074996 12089 layer_factory.hpp:77] Creating layer inception_4c/relu_pool_proj
I0403 15:13:33.075018 12089 net.cpp:91] Creating Layer inception_4c/relu_pool_proj
I0403 15:13:33.075037 12089 net.cpp:425] inception_4c/relu_pool_proj <- inception_4c/pool_proj
I0403 15:13:33.075054 12089 net.cpp:386] inception_4c/relu_pool_proj -> inception_4c/pool_proj (in-place)
I0403 15:13:33.075242 12089 net.cpp:141] Setting up inception_4c/relu_pool_proj
I0403 15:13:33.075268 12089 net.cpp:148] Top shape: 24 64 14 14 (301056)
I0403 15:13:33.075283 12089 net.cpp:156] Memory required for data: 1063013664
I0403 15:13:33.075296 12089 layer_factory.hpp:77] Creating layer inception_4c/output
I0403 15:13:33.075316 12089 net.cpp:91] Creating Layer inception_4c/output
I0403 15:13:33.075333 12089 net.cpp:425] inception_4c/output <- inception_4c/1x1
I0403 15:13:33.075351 12089 net.cpp:425] inception_4c/output <- inception_4c/3x3
I0403 15:13:33.075371 12089 net.cpp:425] inception_4c/output <- inception_4c/5x5
I0403 15:13:33.075387 12089 net.cpp:425] inception_4c/output <- inception_4c/pool_proj
I0403 15:13:33.075403 12089 net.cpp:399] inception_4c/output -> inception_4c/output
I0403 15:13:33.075450 12089 net.cpp:141] Setting up inception_4c/output
I0403 15:13:33.075475 12089 net.cpp:148] Top shape: 24 512 14 14 (2408448)
I0403 15:13:33.075490 12089 net.cpp:156] Memory required for data: 1072647456
I0403 15:13:33.075505 12089 layer_factory.hpp:77] Creating layer inception_4c/output_inception_4c/output_0_split
I0403 15:13:33.075521 12089 net.cpp:91] Creating Layer inception_4c/output_inception_4c/output_0_split
I0403 15:13:33.075537 12089 net.cpp:425] inception_4c/output_inception_4c/output_0_split <- inception_4c/output
I0403 15:13:33.075556 12089 net.cpp:399] inception_4c/output_inception_4c/output_0_split -> inception_4c/output_inception_4c/output_0_split_0
I0403 15:13:33.075577 12089 net.cpp:399] inception_4c/output_inception_4c/output_0_split -> inception_4c/output_inception_4c/output_0_split_1
I0403 15:13:33.075598 12089 net.cpp:399] inception_4c/output_inception_4c/output_0_split -> inception_4c/output_inception_4c/output_0_split_2
I0403 15:13:33.075619 12089 net.cpp:399] inception_4c/output_inception_4c/output_0_split -> inception_4c/output_inception_4c/output_0_split_3
I0403 15:13:33.075717 12089 net.cpp:141] Setting up inception_4c/output_inception_4c/output_0_split
I0403 15:13:33.075742 12089 net.cpp:148] Top shape: 24 512 14 14 (2408448)
I0403 15:13:33.075758 12089 net.cpp:148] Top shape: 24 512 14 14 (2408448)
I0403 15:13:33.075773 12089 net.cpp:148] Top shape: 24 512 14 14 (2408448)
I0403 15:13:33.075788 12089 net.cpp:148] Top shape: 24 512 14 14 (2408448)
I0403 15:13:33.075801 12089 net.cpp:156] Memory required for data: 1111182624
I0403 15:13:33.075816 12089 layer_factory.hpp:77] Creating layer inception_4d/1x1
I0403 15:13:33.075841 12089 net.cpp:91] Creating Layer inception_4d/1x1
I0403 15:13:33.075860 12089 net.cpp:425] inception_4d/1x1 <- inception_4c/output_inception_4c/output_0_split_0
I0403 15:13:33.075880 12089 net.cpp:399] inception_4d/1x1 -> inception_4d/1x1
I0403 15:13:33.077263 12089 net.cpp:141] Setting up inception_4d/1x1
I0403 15:13:33.077291 12089 net.cpp:148] Top shape: 24 112 14 14 (526848)
I0403 15:13:33.077308 12089 net.cpp:156] Memory required for data: 1113290016
I0403 15:13:33.077327 12089 layer_factory.hpp:77] Creating layer inception_4d/relu_1x1
I0403 15:13:33.077344 12089 net.cpp:91] Creating Layer inception_4d/relu_1x1
I0403 15:13:33.077370 12089 net.cpp:425] inception_4d/relu_1x1 <- inception_4d/1x1
I0403 15:13:33.077390 12089 net.cpp:386] inception_4d/relu_1x1 -> inception_4d/1x1 (in-place)
I0403 15:13:33.077572 12089 net.cpp:141] Setting up inception_4d/relu_1x1
I0403 15:13:33.077599 12089 net.cpp:148] Top shape: 24 112 14 14 (526848)
I0403 15:13:33.077613 12089 net.cpp:156] Memory required for data: 1115397408
I0403 15:13:33.077628 12089 layer_factory.hpp:77] Creating layer inception_4d/3x3_reduce
I0403 15:13:33.077671 12089 net.cpp:91] Creating Layer inception_4d/3x3_reduce
I0403 15:13:33.077688 12089 net.cpp:425] inception_4d/3x3_reduce <- inception_4c/output_inception_4c/output_0_split_1
I0403 15:13:33.077710 12089 net.cpp:399] inception_4d/3x3_reduce -> inception_4d/3x3_reduce
I0403 15:13:33.079219 12089 net.cpp:141] Setting up inception_4d/3x3_reduce
I0403 15:13:33.079249 12089 net.cpp:148] Top shape: 24 144 14 14 (677376)
I0403 15:13:33.079267 12089 net.cpp:156] Memory required for data: 1118106912
I0403 15:13:33.079285 12089 layer_factory.hpp:77] Creating layer inception_4d/relu_3x3_reduce
I0403 15:13:33.079303 12089 net.cpp:91] Creating Layer inception_4d/relu_3x3_reduce
I0403 15:13:33.079320 12089 net.cpp:425] inception_4d/relu_3x3_reduce <- inception_4d/3x3_reduce
I0403 15:13:33.079337 12089 net.cpp:386] inception_4d/relu_3x3_reduce -> inception_4d/3x3_reduce (in-place)
I0403 15:13:33.079627 12089 net.cpp:141] Setting up inception_4d/relu_3x3_reduce
I0403 15:13:33.079663 12089 net.cpp:148] Top shape: 24 144 14 14 (677376)
I0403 15:13:33.079679 12089 net.cpp:156] Memory required for data: 1120816416
I0403 15:13:33.079694 12089 layer_factory.hpp:77] Creating layer inception_4d/3x3
I0403 15:13:33.079716 12089 net.cpp:91] Creating Layer inception_4d/3x3
I0403 15:13:33.079735 12089 net.cpp:425] inception_4d/3x3 <- inception_4d/3x3_reduce
I0403 15:13:33.079754 12089 net.cpp:399] inception_4d/3x3 -> inception_4d/3x3
I0403 15:13:33.084022 12089 net.cpp:141] Setting up inception_4d/3x3
I0403 15:13:33.084051 12089 net.cpp:148] Top shape: 24 288 14 14 (1354752)
I0403 15:13:33.084069 12089 net.cpp:156] Memory required for data: 1126235424
I0403 15:13:33.084087 12089 layer_factory.hpp:77] Creating layer inception_4d/relu_3x3
I0403 15:13:33.084110 12089 net.cpp:91] Creating Layer inception_4d/relu_3x3
I0403 15:13:33.084127 12089 net.cpp:425] inception_4d/relu_3x3 <- inception_4d/3x3
I0403 15:13:33.084147 12089 net.cpp:386] inception_4d/relu_3x3 -> inception_4d/3x3 (in-place)
I0403 15:13:33.084336 12089 net.cpp:141] Setting up inception_4d/relu_3x3
I0403 15:13:33.084362 12089 net.cpp:148] Top shape: 24 288 14 14 (1354752)
I0403 15:13:33.084378 12089 net.cpp:156] Memory required for data: 1131654432
I0403 15:13:33.084393 12089 layer_factory.hpp:77] Creating layer inception_4d/5x5_reduce
I0403 15:13:33.084414 12089 net.cpp:91] Creating Layer inception_4d/5x5_reduce
I0403 15:13:33.084432 12089 net.cpp:425] inception_4d/5x5_reduce <- inception_4c/output_inception_4c/output_0_split_2
I0403 15:13:33.084453 12089 net.cpp:399] inception_4d/5x5_reduce -> inception_4d/5x5_reduce
I0403 15:13:33.085683 12089 net.cpp:141] Setting up inception_4d/5x5_reduce
I0403 15:13:33.085711 12089 net.cpp:148] Top shape: 24 32 14 14 (150528)
I0403 15:13:33.085726 12089 net.cpp:156] Memory required for data: 1132256544
I0403 15:13:33.085743 12089 layer_factory.hpp:77] Creating layer inception_4d/relu_5x5_reduce
I0403 15:13:33.085762 12089 net.cpp:91] Creating Layer inception_4d/relu_5x5_reduce
I0403 15:13:33.085780 12089 net.cpp:425] inception_4d/relu_5x5_reduce <- inception_4d/5x5_reduce
I0403 15:13:33.085798 12089 net.cpp:386] inception_4d/relu_5x5_reduce -> inception_4d/5x5_reduce (in-place)
I0403 15:13:33.085979 12089 net.cpp:141] Setting up inception_4d/relu_5x5_reduce
I0403 15:13:33.086004 12089 net.cpp:148] Top shape: 24 32 14 14 (150528)
I0403 15:13:33.086019 12089 net.cpp:156] Memory required for data: 1132858656
I0403 15:13:33.086035 12089 layer_factory.hpp:77] Creating layer inception_4d/5x5
I0403 15:13:33.086055 12089 net.cpp:91] Creating Layer inception_4d/5x5
I0403 15:13:33.086074 12089 net.cpp:425] inception_4d/5x5 <- inception_4d/5x5_reduce
I0403 15:13:33.086098 12089 net.cpp:399] inception_4d/5x5 -> inception_4d/5x5
I0403 15:13:33.087527 12089 net.cpp:141] Setting up inception_4d/5x5
I0403 15:13:33.087554 12089 net.cpp:148] Top shape: 24 64 14 14 (301056)
I0403 15:13:33.087570 12089 net.cpp:156] Memory required for data: 1134062880
I0403 15:13:33.087589 12089 layer_factory.hpp:77] Creating layer inception_4d/relu_5x5
I0403 15:13:33.087623 12089 net.cpp:91] Creating Layer inception_4d/relu_5x5
I0403 15:13:33.087651 12089 net.cpp:425] inception_4d/relu_5x5 <- inception_4d/5x5
I0403 15:13:33.087668 12089 net.cpp:386] inception_4d/relu_5x5 -> inception_4d/5x5 (in-place)
I0403 15:13:33.087960 12089 net.cpp:141] Setting up inception_4d/relu_5x5
I0403 15:13:33.087986 12089 net.cpp:148] Top shape: 24 64 14 14 (301056)
I0403 15:13:33.088001 12089 net.cpp:156] Memory required for data: 1135267104
I0403 15:13:33.088016 12089 layer_factory.hpp:77] Creating layer inception_4d/pool
I0403 15:13:33.088038 12089 net.cpp:91] Creating Layer inception_4d/pool
I0403 15:13:33.088055 12089 net.cpp:425] inception_4d/pool <- inception_4c/output_inception_4c/output_0_split_3
I0403 15:13:33.088073 12089 net.cpp:399] inception_4d/pool -> inception_4d/pool
I0403 15:13:33.088143 12089 net.cpp:141] Setting up inception_4d/pool
I0403 15:13:33.088170 12089 net.cpp:148] Top shape: 24 512 14 14 (2408448)
I0403 15:13:33.088182 12089 net.cpp:156] Memory required for data: 1144900896
I0403 15:13:33.088197 12089 layer_factory.hpp:77] Creating layer inception_4d/pool_proj
I0403 15:13:33.088219 12089 net.cpp:91] Creating Layer inception_4d/pool_proj
I0403 15:13:33.088237 12089 net.cpp:425] inception_4d/pool_proj <- inception_4d/pool
I0403 15:13:33.088256 12089 net.cpp:399] inception_4d/pool_proj -> inception_4d/pool_proj
I0403 15:13:33.089973 12089 net.cpp:141] Setting up inception_4d/pool_proj
I0403 15:13:33.090003 12089 net.cpp:148] Top shape: 24 64 14 14 (301056)
I0403 15:13:33.090018 12089 net.cpp:156] Memory required for data: 1146105120
I0403 15:13:33.090036 12089 layer_factory.hpp:77] Creating layer inception_4d/relu_pool_proj
I0403 15:13:33.090054 12089 net.cpp:91] Creating Layer inception_4d/relu_pool_proj
I0403 15:13:33.090070 12089 net.cpp:425] inception_4d/relu_pool_proj <- inception_4d/pool_proj
I0403 15:13:33.090090 12089 net.cpp:386] inception_4d/relu_pool_proj -> inception_4d/pool_proj (in-place)
I0403 15:13:33.090276 12089 net.cpp:141] Setting up inception_4d/relu_pool_proj
I0403 15:13:33.090301 12089 net.cpp:148] Top shape: 24 64 14 14 (301056)
I0403 15:13:33.090314 12089 net.cpp:156] Memory required for data: 1147309344
I0403 15:13:33.090329 12089 layer_factory.hpp:77] Creating layer inception_4d/output
I0403 15:13:33.090349 12089 net.cpp:91] Creating Layer inception_4d/output
I0403 15:13:33.090366 12089 net.cpp:425] inception_4d/output <- inception_4d/1x1
I0403 15:13:33.090384 12089 net.cpp:425] inception_4d/output <- inception_4d/3x3
I0403 15:13:33.090399 12089 net.cpp:425] inception_4d/output <- inception_4d/5x5
I0403 15:13:33.090415 12089 net.cpp:425] inception_4d/output <- inception_4d/pool_proj
I0403 15:13:33.090430 12089 net.cpp:399] inception_4d/output -> inception_4d/output
I0403 15:13:33.090477 12089 net.cpp:141] Setting up inception_4d/output
I0403 15:13:33.090502 12089 net.cpp:148] Top shape: 24 528 14 14 (2483712)
I0403 15:13:33.090515 12089 net.cpp:156] Memory required for data: 1157244192
I0403 15:13:33.090529 12089 layer_factory.hpp:77] Creating layer inception_4d/output_inception_4d/output_0_split
I0403 15:13:33.090548 12089 net.cpp:91] Creating Layer inception_4d/output_inception_4d/output_0_split
I0403 15:13:33.090561 12089 net.cpp:425] inception_4d/output_inception_4d/output_0_split <- inception_4d/output
I0403 15:13:33.090581 12089 net.cpp:399] inception_4d/output_inception_4d/output_0_split -> inception_4d/output_inception_4d/output_0_split_0
I0403 15:13:33.090602 12089 net.cpp:399] inception_4d/output_inception_4d/output_0_split -> inception_4d/output_inception_4d/output_0_split_1
I0403 15:13:33.090622 12089 net.cpp:399] inception_4d/output_inception_4d/output_0_split -> inception_4d/output_inception_4d/output_0_split_2
I0403 15:13:33.090642 12089 net.cpp:399] inception_4d/output_inception_4d/output_0_split -> inception_4d/output_inception_4d/output_0_split_3
I0403 15:13:33.090662 12089 net.cpp:399] inception_4d/output_inception_4d/output_0_split -> inception_4d/output_inception_4d/output_0_split_4
I0403 15:13:33.090764 12089 net.cpp:141] Setting up inception_4d/output_inception_4d/output_0_split
I0403 15:13:33.090801 12089 net.cpp:148] Top shape: 24 528 14 14 (2483712)
I0403 15:13:33.090819 12089 net.cpp:148] Top shape: 24 528 14 14 (2483712)
I0403 15:13:33.090836 12089 net.cpp:148] Top shape: 24 528 14 14 (2483712)
I0403 15:13:33.090850 12089 net.cpp:148] Top shape: 24 528 14 14 (2483712)
I0403 15:13:33.090865 12089 net.cpp:148] Top shape: 24 528 14 14 (2483712)
I0403 15:13:33.090878 12089 net.cpp:156] Memory required for data: 1206918432
I0403 15:13:33.090893 12089 layer_factory.hpp:77] Creating layer loss2/ave_pool
I0403 15:13:33.090911 12089 net.cpp:91] Creating Layer loss2/ave_pool
I0403 15:13:33.090927 12089 net.cpp:425] loss2/ave_pool <- inception_4d/output_inception_4d/output_0_split_0
I0403 15:13:33.090950 12089 net.cpp:399] loss2/ave_pool -> loss2/ave_pool
I0403 15:13:33.091258 12089 net.cpp:141] Setting up loss2/ave_pool
I0403 15:13:33.091284 12089 net.cpp:148] Top shape: 24 528 4 4 (202752)
I0403 15:13:33.091300 12089 net.cpp:156] Memory required for data: 1207729440
I0403 15:13:33.091315 12089 layer_factory.hpp:77] Creating layer loss2/conv
I0403 15:13:33.091336 12089 net.cpp:91] Creating Layer loss2/conv
I0403 15:13:33.091356 12089 net.cpp:425] loss2/conv <- loss2/ave_pool
I0403 15:13:33.091378 12089 net.cpp:399] loss2/conv -> loss2/conv
I0403 15:13:33.093420 12089 net.cpp:141] Setting up loss2/conv
I0403 15:13:33.093448 12089 net.cpp:148] Top shape: 24 128 4 4 (49152)
I0403 15:13:33.093466 12089 net.cpp:156] Memory required for data: 1207926048
I0403 15:13:33.093483 12089 layer_factory.hpp:77] Creating layer loss2/relu_conv
I0403 15:13:33.093505 12089 net.cpp:91] Creating Layer loss2/relu_conv
I0403 15:13:33.093523 12089 net.cpp:425] loss2/relu_conv <- loss2/conv
I0403 15:13:33.093539 12089 net.cpp:386] loss2/relu_conv -> loss2/conv (in-place)
I0403 15:13:33.093827 12089 net.cpp:141] Setting up loss2/relu_conv
I0403 15:13:33.093854 12089 net.cpp:148] Top shape: 24 128 4 4 (49152)
I0403 15:13:33.093873 12089 net.cpp:156] Memory required for data: 1208122656
I0403 15:13:33.093888 12089 layer_factory.hpp:77] Creating layer loss2/fc
I0403 15:13:33.093906 12089 net.cpp:91] Creating Layer loss2/fc
I0403 15:13:33.093921 12089 net.cpp:425] loss2/fc <- loss2/conv
I0403 15:13:33.093942 12089 net.cpp:399] loss2/fc -> loss2/fc
I0403 15:13:33.111073 12089 net.cpp:141] Setting up loss2/fc
I0403 15:13:33.111111 12089 net.cpp:148] Top shape: 24 1024 (24576)
I0403 15:13:33.111127 12089 net.cpp:156] Memory required for data: 1208220960
I0403 15:13:33.111146 12089 layer_factory.hpp:77] Creating layer loss2/relu_fc
I0403 15:13:33.111166 12089 net.cpp:91] Creating Layer loss2/relu_fc
I0403 15:13:33.111184 12089 net.cpp:425] loss2/relu_fc <- loss2/fc
I0403 15:13:33.111202 12089 net.cpp:386] loss2/relu_fc -> loss2/fc (in-place)
I0403 15:13:33.111495 12089 net.cpp:141] Setting up loss2/relu_fc
I0403 15:13:33.111521 12089 net.cpp:148] Top shape: 24 1024 (24576)
I0403 15:13:33.111536 12089 net.cpp:156] Memory required for data: 1208319264
I0403 15:13:33.111552 12089 layer_factory.hpp:77] Creating layer loss2/drop_fc
I0403 15:13:33.111569 12089 net.cpp:91] Creating Layer loss2/drop_fc
I0403 15:13:33.111588 12089 net.cpp:425] loss2/drop_fc <- loss2/fc
I0403 15:13:33.111605 12089 net.cpp:386] loss2/drop_fc -> loss2/fc (in-place)
I0403 15:13:33.111657 12089 net.cpp:141] Setting up loss2/drop_fc
I0403 15:13:33.111683 12089 net.cpp:148] Top shape: 24 1024 (24576)
I0403 15:13:33.111699 12089 net.cpp:156] Memory required for data: 1208417568
I0403 15:13:33.111714 12089 layer_factory.hpp:77] Creating layer loss2/classifier_plantvillage
I0403 15:13:33.111732 12089 net.cpp:91] Creating Layer loss2/classifier_plantvillage
I0403 15:13:33.111747 12089 net.cpp:425] loss2/classifier_plantvillage <- loss2/fc
I0403 15:13:33.111768 12089 net.cpp:399] loss2/classifier_plantvillage -> loss2/classifier_plantvillage
I0403 15:13:33.112164 12089 net.cpp:141] Setting up loss2/classifier_plantvillage
I0403 15:13:33.112190 12089 net.cpp:148] Top shape: 24 38 (912)
I0403 15:13:33.112222 12089 net.cpp:156] Memory required for data: 1208421216
I0403 15:13:33.112242 12089 layer_factory.hpp:77] Creating layer loss2/classifier_plantvillage_loss2/classifier_plantvillage_0_split
I0403 15:13:33.112260 12089 net.cpp:91] Creating Layer loss2/classifier_plantvillage_loss2/classifier_plantvillage_0_split
I0403 15:13:33.112277 12089 net.cpp:425] loss2/classifier_plantvillage_loss2/classifier_plantvillage_0_split <- loss2/classifier_plantvillage
I0403 15:13:33.112293 12089 net.cpp:399] loss2/classifier_plantvillage_loss2/classifier_plantvillage_0_split -> loss2/classifier_plantvillage_loss2/classifier_plantvillage_0_split_0
I0403 15:13:33.112314 12089 net.cpp:399] loss2/classifier_plantvillage_loss2/classifier_plantvillage_0_split -> loss2/classifier_plantvillage_loss2/classifier_plantvillage_0_split_1
I0403 15:13:33.112337 12089 net.cpp:399] loss2/classifier_plantvillage_loss2/classifier_plantvillage_0_split -> loss2/classifier_plantvillage_loss2/classifier_plantvillage_0_split_2
I0403 15:13:33.112414 12089 net.cpp:141] Setting up loss2/classifier_plantvillage_loss2/classifier_plantvillage_0_split
I0403 15:13:33.112438 12089 net.cpp:148] Top shape: 24 38 (912)
I0403 15:13:33.112453 12089 net.cpp:148] Top shape: 24 38 (912)
I0403 15:13:33.112469 12089 net.cpp:148] Top shape: 24 38 (912)
I0403 15:13:33.112483 12089 net.cpp:156] Memory required for data: 1208432160
I0403 15:13:33.112495 12089 layer_factory.hpp:77] Creating layer inception_4e/1x1
I0403 15:13:33.112517 12089 net.cpp:91] Creating Layer inception_4e/1x1
I0403 15:13:33.112535 12089 net.cpp:425] inception_4e/1x1 <- inception_4d/output_inception_4d/output_0_split_1
I0403 15:13:33.112556 12089 net.cpp:399] inception_4e/1x1 -> inception_4e/1x1
I0403 15:13:33.114347 12089 net.cpp:141] Setting up inception_4e/1x1
I0403 15:13:33.114375 12089 net.cpp:148] Top shape: 24 256 14 14 (1204224)
I0403 15:13:33.114390 12089 net.cpp:156] Memory required for data: 1213249056
I0403 15:13:33.114408 12089 layer_factory.hpp:77] Creating layer inception_4e/relu_1x1
I0403 15:13:33.114429 12089 net.cpp:91] Creating Layer inception_4e/relu_1x1
I0403 15:13:33.114446 12089 net.cpp:425] inception_4e/relu_1x1 <- inception_4e/1x1
I0403 15:13:33.114464 12089 net.cpp:386] inception_4e/relu_1x1 -> inception_4e/1x1 (in-place)
I0403 15:13:33.114753 12089 net.cpp:141] Setting up inception_4e/relu_1x1
I0403 15:13:33.114778 12089 net.cpp:148] Top shape: 24 256 14 14 (1204224)
I0403 15:13:33.114792 12089 net.cpp:156] Memory required for data: 1218065952
I0403 15:13:33.114807 12089 layer_factory.hpp:77] Creating layer inception_4e/3x3_reduce
I0403 15:13:33.114830 12089 net.cpp:91] Creating Layer inception_4e/3x3_reduce
I0403 15:13:33.114848 12089 net.cpp:425] inception_4e/3x3_reduce <- inception_4d/output_inception_4d/output_0_split_2
I0403 15:13:33.114866 12089 net.cpp:399] inception_4e/3x3_reduce -> inception_4e/3x3_reduce
I0403 15:13:33.116935 12089 net.cpp:141] Setting up inception_4e/3x3_reduce
I0403 15:13:33.116963 12089 net.cpp:148] Top shape: 24 160 14 14 (752640)
I0403 15:13:33.116978 12089 net.cpp:156] Memory required for data: 1221076512
I0403 15:13:33.116997 12089 layer_factory.hpp:77] Creating layer inception_4e/relu_3x3_reduce
I0403 15:13:33.117018 12089 net.cpp:91] Creating Layer inception_4e/relu_3x3_reduce
I0403 15:13:33.117034 12089 net.cpp:425] inception_4e/relu_3x3_reduce <- inception_4e/3x3_reduce
I0403 15:13:33.117050 12089 net.cpp:386] inception_4e/relu_3x3_reduce -> inception_4e/3x3_reduce (in-place)
I0403 15:13:33.117236 12089 net.cpp:141] Setting up inception_4e/relu_3x3_reduce
I0403 15:13:33.117264 12089 net.cpp:148] Top shape: 24 160 14 14 (752640)
I0403 15:13:33.117280 12089 net.cpp:156] Memory required for data: 1224087072
I0403 15:13:33.117293 12089 layer_factory.hpp:77] Creating layer inception_4e/3x3
I0403 15:13:33.117316 12089 net.cpp:91] Creating Layer inception_4e/3x3
I0403 15:13:33.117333 12089 net.cpp:425] inception_4e/3x3 <- inception_4e/3x3_reduce
I0403 15:13:33.117352 12089 net.cpp:399] inception_4e/3x3 -> inception_4e/3x3
I0403 15:13:33.122228 12089 net.cpp:141] Setting up inception_4e/3x3
I0403 15:13:33.122272 12089 net.cpp:148] Top shape: 24 320 14 14 (1505280)
I0403 15:13:33.122289 12089 net.cpp:156] Memory required for data: 1230108192
I0403 15:13:33.122308 12089 layer_factory.hpp:77] Creating layer inception_4e/relu_3x3
I0403 15:13:33.122325 12089 net.cpp:91] Creating Layer inception_4e/relu_3x3
I0403 15:13:33.122340 12089 net.cpp:425] inception_4e/relu_3x3 <- inception_4e/3x3
I0403 15:13:33.122360 12089 net.cpp:386] inception_4e/relu_3x3 -> inception_4e/3x3 (in-place)
I0403 15:13:33.122653 12089 net.cpp:141] Setting up inception_4e/relu_3x3
I0403 15:13:33.122680 12089 net.cpp:148] Top shape: 24 320 14 14 (1505280)
I0403 15:13:33.122696 12089 net.cpp:156] Memory required for data: 1236129312
I0403 15:13:33.122711 12089 layer_factory.hpp:77] Creating layer inception_4e/5x5_reduce
I0403 15:13:33.122735 12089 net.cpp:91] Creating Layer inception_4e/5x5_reduce
I0403 15:13:33.122752 12089 net.cpp:425] inception_4e/5x5_reduce <- inception_4d/output_inception_4d/output_0_split_3
I0403 15:13:33.122773 12089 net.cpp:399] inception_4e/5x5_reduce -> inception_4e/5x5_reduce
I0403 15:13:33.123847 12089 net.cpp:141] Setting up inception_4e/5x5_reduce
I0403 15:13:33.123874 12089 net.cpp:148] Top shape: 24 32 14 14 (150528)
I0403 15:13:33.123889 12089 net.cpp:156] Memory required for data: 1236731424
I0403 15:13:33.123908 12089 layer_factory.hpp:77] Creating layer inception_4e/relu_5x5_reduce
I0403 15:13:33.123929 12089 net.cpp:91] Creating Layer inception_4e/relu_5x5_reduce
I0403 15:13:33.123946 12089 net.cpp:425] inception_4e/relu_5x5_reduce <- inception_4e/5x5_reduce
I0403 15:13:33.123965 12089 net.cpp:386] inception_4e/relu_5x5_reduce -> inception_4e/5x5_reduce (in-place)
I0403 15:13:33.124294 12089 net.cpp:141] Setting up inception_4e/relu_5x5_reduce
I0403 15:13:33.124322 12089 net.cpp:148] Top shape: 24 32 14 14 (150528)
I0403 15:13:33.124337 12089 net.cpp:156] Memory required for data: 1237333536
I0403 15:13:33.124353 12089 layer_factory.hpp:77] Creating layer inception_4e/5x5
I0403 15:13:33.124392 12089 net.cpp:91] Creating Layer inception_4e/5x5
I0403 15:13:33.124413 12089 net.cpp:425] inception_4e/5x5 <- inception_4e/5x5_reduce
I0403 15:13:33.124433 12089 net.cpp:399] inception_4e/5x5 -> inception_4e/5x5
I0403 15:13:33.126313 12089 net.cpp:141] Setting up inception_4e/5x5
I0403 15:13:33.126343 12089 net.cpp:148] Top shape: 24 128 14 14 (602112)
I0403 15:13:33.126358 12089 net.cpp:156] Memory required for data: 1239741984
I0403 15:13:33.126376 12089 layer_factory.hpp:77] Creating layer inception_4e/relu_5x5
I0403 15:13:33.126397 12089 net.cpp:91] Creating Layer inception_4e/relu_5x5
I0403 15:13:33.126415 12089 net.cpp:425] inception_4e/relu_5x5 <- inception_4e/5x5
I0403 15:13:33.126433 12089 net.cpp:386] inception_4e/relu_5x5 -> inception_4e/5x5 (in-place)
I0403 15:13:33.126629 12089 net.cpp:141] Setting up inception_4e/relu_5x5
I0403 15:13:33.126657 12089 net.cpp:148] Top shape: 24 128 14 14 (602112)
I0403 15:13:33.126673 12089 net.cpp:156] Memory required for data: 1242150432
I0403 15:13:33.126688 12089 layer_factory.hpp:77] Creating layer inception_4e/pool
I0403 15:13:33.126706 12089 net.cpp:91] Creating Layer inception_4e/pool
I0403 15:13:33.126724 12089 net.cpp:425] inception_4e/pool <- inception_4d/output_inception_4d/output_0_split_4
I0403 15:13:33.126742 12089 net.cpp:399] inception_4e/pool -> inception_4e/pool
I0403 15:13:33.126813 12089 net.cpp:141] Setting up inception_4e/pool
I0403 15:13:33.126838 12089 net.cpp:148] Top shape: 24 528 14 14 (2483712)
I0403 15:13:33.126852 12089 net.cpp:156] Memory required for data: 1252085280
I0403 15:13:33.126868 12089 layer_factory.hpp:77] Creating layer inception_4e/pool_proj
I0403 15:13:33.126888 12089 net.cpp:91] Creating Layer inception_4e/pool_proj
I0403 15:13:33.126907 12089 net.cpp:425] inception_4e/pool_proj <- inception_4e/pool
I0403 15:13:33.126929 12089 net.cpp:399] inception_4e/pool_proj -> inception_4e/pool_proj
I0403 15:13:33.128449 12089 net.cpp:141] Setting up inception_4e/pool_proj
I0403 15:13:33.128492 12089 net.cpp:148] Top shape: 24 128 14 14 (602112)
I0403 15:13:33.128510 12089 net.cpp:156] Memory required for data: 1254493728
I0403 15:13:33.128528 12089 layer_factory.hpp:77] Creating layer inception_4e/relu_pool_proj
I0403 15:13:33.128547 12089 net.cpp:91] Creating Layer inception_4e/relu_pool_proj
I0403 15:13:33.128563 12089 net.cpp:425] inception_4e/relu_pool_proj <- inception_4e/pool_proj
I0403 15:13:33.128583 12089 net.cpp:386] inception_4e/relu_pool_proj -> inception_4e/pool_proj (in-place)
I0403 15:13:33.128881 12089 net.cpp:141] Setting up inception_4e/relu_pool_proj
I0403 15:13:33.128908 12089 net.cpp:148] Top shape: 24 128 14 14 (602112)
I0403 15:13:33.128923 12089 net.cpp:156] Memory required for data: 1256902176
I0403 15:13:33.128938 12089 layer_factory.hpp:77] Creating layer inception_4e/output
I0403 15:13:33.128957 12089 net.cpp:91] Creating Layer inception_4e/output
I0403 15:13:33.128973 12089 net.cpp:425] inception_4e/output <- inception_4e/1x1
I0403 15:13:33.128989 12089 net.cpp:425] inception_4e/output <- inception_4e/3x3
I0403 15:13:33.129004 12089 net.cpp:425] inception_4e/output <- inception_4e/5x5
I0403 15:13:33.129021 12089 net.cpp:425] inception_4e/output <- inception_4e/pool_proj
I0403 15:13:33.129040 12089 net.cpp:399] inception_4e/output -> inception_4e/output
I0403 15:13:33.129089 12089 net.cpp:141] Setting up inception_4e/output
I0403 15:13:33.129120 12089 net.cpp:148] Top shape: 24 832 14 14 (3913728)
I0403 15:13:33.129137 12089 net.cpp:156] Memory required for data: 1272557088
I0403 15:13:33.129153 12089 layer_factory.hpp:77] Creating layer pool4/3x3_s2
I0403 15:13:33.129171 12089 net.cpp:91] Creating Layer pool4/3x3_s2
I0403 15:13:33.129187 12089 net.cpp:425] pool4/3x3_s2 <- inception_4e/output
I0403 15:13:33.129207 12089 net.cpp:399] pool4/3x3_s2 -> pool4/3x3_s2
I0403 15:13:33.129274 12089 net.cpp:141] Setting up pool4/3x3_s2
I0403 15:13:33.129299 12089 net.cpp:148] Top shape: 24 832 7 7 (978432)
I0403 15:13:33.129314 12089 net.cpp:156] Memory required for data: 1276470816
I0403 15:13:33.129329 12089 layer_factory.hpp:77] Creating layer pool4/3x3_s2_pool4/3x3_s2_0_split
I0403 15:13:33.129348 12089 net.cpp:91] Creating Layer pool4/3x3_s2_pool4/3x3_s2_0_split
I0403 15:13:33.129375 12089 net.cpp:425] pool4/3x3_s2_pool4/3x3_s2_0_split <- pool4/3x3_s2
I0403 15:13:33.129392 12089 net.cpp:399] pool4/3x3_s2_pool4/3x3_s2_0_split -> pool4/3x3_s2_pool4/3x3_s2_0_split_0
I0403 15:13:33.129413 12089 net.cpp:399] pool4/3x3_s2_pool4/3x3_s2_0_split -> pool4/3x3_s2_pool4/3x3_s2_0_split_1
I0403 15:13:33.129436 12089 net.cpp:399] pool4/3x3_s2_pool4/3x3_s2_0_split -> pool4/3x3_s2_pool4/3x3_s2_0_split_2
I0403 15:13:33.129458 12089 net.cpp:399] pool4/3x3_s2_pool4/3x3_s2_0_split -> pool4/3x3_s2_pool4/3x3_s2_0_split_3
I0403 15:13:33.129549 12089 net.cpp:141] Setting up pool4/3x3_s2_pool4/3x3_s2_0_split
I0403 15:13:33.129571 12089 net.cpp:148] Top shape: 24 832 7 7 (978432)
I0403 15:13:33.129587 12089 net.cpp:148] Top shape: 24 832 7 7 (978432)
I0403 15:13:33.129603 12089 net.cpp:148] Top shape: 24 832 7 7 (978432)
I0403 15:13:33.129619 12089 net.cpp:148] Top shape: 24 832 7 7 (978432)
I0403 15:13:33.129633 12089 net.cpp:156] Memory required for data: 1292125728
I0403 15:13:33.129653 12089 layer_factory.hpp:77] Creating layer inception_5a/1x1
I0403 15:13:33.129676 12089 net.cpp:91] Creating Layer inception_5a/1x1
I0403 15:13:33.129693 12089 net.cpp:425] inception_5a/1x1 <- pool4/3x3_s2_pool4/3x3_s2_0_split_0
I0403 15:13:33.129715 12089 net.cpp:399] inception_5a/1x1 -> inception_5a/1x1
I0403 15:13:33.132568 12089 net.cpp:141] Setting up inception_5a/1x1
I0403 15:13:33.132598 12089 net.cpp:148] Top shape: 24 256 7 7 (301056)
I0403 15:13:33.132616 12089 net.cpp:156] Memory required for data: 1293329952
I0403 15:13:33.132633 12089 layer_factory.hpp:77] Creating layer inception_5a/relu_1x1
I0403 15:13:33.132654 12089 net.cpp:91] Creating Layer inception_5a/relu_1x1
I0403 15:13:33.132671 12089 net.cpp:425] inception_5a/relu_1x1 <- inception_5a/1x1
I0403 15:13:33.132689 12089 net.cpp:386] inception_5a/relu_1x1 -> inception_5a/1x1 (in-place)
I0403 15:13:33.133004 12089 net.cpp:141] Setting up inception_5a/relu_1x1
I0403 15:13:33.133031 12089 net.cpp:148] Top shape: 24 256 7 7 (301056)
I0403 15:13:33.133046 12089 net.cpp:156] Memory required for data: 1294534176
I0403 15:13:33.133061 12089 layer_factory.hpp:77] Creating layer inception_5a/3x3_reduce
I0403 15:13:33.133083 12089 net.cpp:91] Creating Layer inception_5a/3x3_reduce
I0403 15:13:33.133114 12089 net.cpp:425] inception_5a/3x3_reduce <- pool4/3x3_s2_pool4/3x3_s2_0_split_1
I0403 15:13:33.133139 12089 net.cpp:399] inception_5a/3x3_reduce -> inception_5a/3x3_reduce
I0403 15:13:33.135629 12089 net.cpp:141] Setting up inception_5a/3x3_reduce
I0403 15:13:33.135663 12089 net.cpp:148] Top shape: 24 160 7 7 (188160)
I0403 15:13:33.135679 12089 net.cpp:156] Memory required for data: 1295286816
I0403 15:13:33.135699 12089 layer_factory.hpp:77] Creating layer inception_5a/relu_3x3_reduce
I0403 15:13:33.135716 12089 net.cpp:91] Creating Layer inception_5a/relu_3x3_reduce
I0403 15:13:33.135733 12089 net.cpp:425] inception_5a/relu_3x3_reduce <- inception_5a/3x3_reduce
I0403 15:13:33.135754 12089 net.cpp:386] inception_5a/relu_3x3_reduce -> inception_5a/3x3_reduce (in-place)
I0403 15:13:33.135941 12089 net.cpp:141] Setting up inception_5a/relu_3x3_reduce
I0403 15:13:33.135967 12089 net.cpp:148] Top shape: 24 160 7 7 (188160)
I0403 15:13:33.135982 12089 net.cpp:156] Memory required for data: 1296039456
I0403 15:13:33.135998 12089 layer_factory.hpp:77] Creating layer inception_5a/3x3
I0403 15:13:33.136019 12089 net.cpp:91] Creating Layer inception_5a/3x3
I0403 15:13:33.136037 12089 net.cpp:425] inception_5a/3x3 <- inception_5a/3x3_reduce
I0403 15:13:33.136059 12089 net.cpp:399] inception_5a/3x3 -> inception_5a/3x3
I0403 15:13:33.141098 12089 net.cpp:141] Setting up inception_5a/3x3
I0403 15:13:33.141129 12089 net.cpp:148] Top shape: 24 320 7 7 (376320)
I0403 15:13:33.141144 12089 net.cpp:156] Memory required for data: 1297544736
I0403 15:13:33.141162 12089 layer_factory.hpp:77] Creating layer inception_5a/relu_3x3
I0403 15:13:33.141183 12089 net.cpp:91] Creating Layer inception_5a/relu_3x3
I0403 15:13:33.141201 12089 net.cpp:425] inception_5a/relu_3x3 <- inception_5a/3x3
I0403 15:13:33.141219 12089 net.cpp:386] inception_5a/relu_3x3 -> inception_5a/3x3 (in-place)
I0403 15:13:33.141517 12089 net.cpp:141] Setting up inception_5a/relu_3x3
I0403 15:13:33.141544 12089 net.cpp:148] Top shape: 24 320 7 7 (376320)
I0403 15:13:33.141559 12089 net.cpp:156] Memory required for data: 1299050016
I0403 15:13:33.141573 12089 layer_factory.hpp:77] Creating layer inception_5a/5x5_reduce
I0403 15:13:33.141597 12089 net.cpp:91] Creating Layer inception_5a/5x5_reduce
I0403 15:13:33.141615 12089 net.cpp:425] inception_5a/5x5_reduce <- pool4/3x3_s2_pool4/3x3_s2_0_split_2
I0403 15:13:33.141638 12089 net.cpp:399] inception_5a/5x5_reduce -> inception_5a/5x5_reduce
I0403 15:13:33.142876 12089 net.cpp:141] Setting up inception_5a/5x5_reduce
I0403 15:13:33.142909 12089 net.cpp:148] Top shape: 24 32 7 7 (37632)
I0403 15:13:33.142925 12089 net.cpp:156] Memory required for data: 1299200544
I0403 15:13:33.142946 12089 layer_factory.hpp:77] Creating layer inception_5a/relu_5x5_reduce
I0403 15:13:33.142963 12089 net.cpp:91] Creating Layer inception_5a/relu_5x5_reduce
I0403 15:13:33.142979 12089 net.cpp:425] inception_5a/relu_5x5_reduce <- inception_5a/5x5_reduce
I0403 15:13:33.142997 12089 net.cpp:386] inception_5a/relu_5x5_reduce -> inception_5a/5x5_reduce (in-place)
I0403 15:13:33.143316 12089 net.cpp:141] Setting up inception_5a/relu_5x5_reduce
I0403 15:13:33.143342 12089 net.cpp:148] Top shape: 24 32 7 7 (37632)
I0403 15:13:33.143371 12089 net.cpp:156] Memory required for data: 1299351072
I0403 15:13:33.143388 12089 layer_factory.hpp:77] Creating layer inception_5a/5x5
I0403 15:13:33.143409 12089 net.cpp:91] Creating Layer inception_5a/5x5
I0403 15:13:33.143426 12089 net.cpp:425] inception_5a/5x5 <- inception_5a/5x5_reduce
I0403 15:13:33.143447 12089 net.cpp:399] inception_5a/5x5 -> inception_5a/5x5
I0403 15:13:33.145170 12089 net.cpp:141] Setting up inception_5a/5x5
I0403 15:13:33.145210 12089 net.cpp:148] Top shape: 24 128 7 7 (150528)
I0403 15:13:33.145227 12089 net.cpp:156] Memory required for data: 1299953184
I0403 15:13:33.145246 12089 layer_factory.hpp:77] Creating layer inception_5a/relu_5x5
I0403 15:13:33.145267 12089 net.cpp:91] Creating Layer inception_5a/relu_5x5
I0403 15:13:33.145284 12089 net.cpp:425] inception_5a/relu_5x5 <- inception_5a/5x5
I0403 15:13:33.145301 12089 net.cpp:386] inception_5a/relu_5x5 -> inception_5a/5x5 (in-place)
I0403 15:13:33.145493 12089 net.cpp:141] Setting up inception_5a/relu_5x5
I0403 15:13:33.145520 12089 net.cpp:148] Top shape: 24 128 7 7 (150528)
I0403 15:13:33.145535 12089 net.cpp:156] Memory required for data: 1300555296
I0403 15:13:33.145550 12089 layer_factory.hpp:77] Creating layer inception_5a/pool
I0403 15:13:33.145568 12089 net.cpp:91] Creating Layer inception_5a/pool
I0403 15:13:33.145584 12089 net.cpp:425] inception_5a/pool <- pool4/3x3_s2_pool4/3x3_s2_0_split_3
I0403 15:13:33.145601 12089 net.cpp:399] inception_5a/pool -> inception_5a/pool
I0403 15:13:33.145673 12089 net.cpp:141] Setting up inception_5a/pool
I0403 15:13:33.145695 12089 net.cpp:148] Top shape: 24 832 7 7 (978432)
I0403 15:13:33.145709 12089 net.cpp:156] Memory required for data: 1304469024
I0403 15:13:33.145725 12089 layer_factory.hpp:77] Creating layer inception_5a/pool_proj
I0403 15:13:33.145746 12089 net.cpp:91] Creating Layer inception_5a/pool_proj
I0403 15:13:33.145764 12089 net.cpp:425] inception_5a/pool_proj <- inception_5a/pool
I0403 15:13:33.145787 12089 net.cpp:399] inception_5a/pool_proj -> inception_5a/pool_proj
I0403 15:13:33.148013 12089 net.cpp:141] Setting up inception_5a/pool_proj
I0403 15:13:33.148041 12089 net.cpp:148] Top shape: 24 128 7 7 (150528)
I0403 15:13:33.148057 12089 net.cpp:156] Memory required for data: 1305071136
I0403 15:13:33.148077 12089 layer_factory.hpp:77] Creating layer inception_5a/relu_pool_proj
I0403 15:13:33.148100 12089 net.cpp:91] Creating Layer inception_5a/relu_pool_proj
I0403 15:13:33.148118 12089 net.cpp:425] inception_5a/relu_pool_proj <- inception_5a/pool_proj
I0403 15:13:33.148136 12089 net.cpp:386] inception_5a/relu_pool_proj -> inception_5a/pool_proj (in-place)
I0403 15:13:33.148422 12089 net.cpp:141] Setting up inception_5a/relu_pool_proj
I0403 15:13:33.148449 12089 net.cpp:148] Top shape: 24 128 7 7 (150528)
I0403 15:13:33.148464 12089 net.cpp:156] Memory required for data: 1305673248
I0403 15:13:33.148478 12089 layer_factory.hpp:77] Creating layer inception_5a/output
I0403 15:13:33.148496 12089 net.cpp:91] Creating Layer inception_5a/output
I0403 15:13:33.148511 12089 net.cpp:425] inception_5a/output <- inception_5a/1x1
I0403 15:13:33.148529 12089 net.cpp:425] inception_5a/output <- inception_5a/3x3
I0403 15:13:33.148545 12089 net.cpp:425] inception_5a/output <- inception_5a/5x5
I0403 15:13:33.148561 12089 net.cpp:425] inception_5a/output <- inception_5a/pool_proj
I0403 15:13:33.148579 12089 net.cpp:399] inception_5a/output -> inception_5a/output
I0403 15:13:33.148627 12089 net.cpp:141] Setting up inception_5a/output
I0403 15:13:33.148653 12089 net.cpp:148] Top shape: 24 832 7 7 (978432)
I0403 15:13:33.148668 12089 net.cpp:156] Memory required for data: 1309586976
I0403 15:13:33.148681 12089 layer_factory.hpp:77] Creating layer inception_5a/output_inception_5a/output_0_split
I0403 15:13:33.148699 12089 net.cpp:91] Creating Layer inception_5a/output_inception_5a/output_0_split
I0403 15:13:33.148715 12089 net.cpp:425] inception_5a/output_inception_5a/output_0_split <- inception_5a/output
I0403 15:13:33.148736 12089 net.cpp:399] inception_5a/output_inception_5a/output_0_split -> inception_5a/output_inception_5a/output_0_split_0
I0403 15:13:33.148756 12089 net.cpp:399] inception_5a/output_inception_5a/output_0_split -> inception_5a/output_inception_5a/output_0_split_1
I0403 15:13:33.148777 12089 net.cpp:399] inception_5a/output_inception_5a/output_0_split -> inception_5a/output_inception_5a/output_0_split_2
I0403 15:13:33.148797 12089 net.cpp:399] inception_5a/output_inception_5a/output_0_split -> inception_5a/output_inception_5a/output_0_split_3
I0403 15:13:33.148905 12089 net.cpp:141] Setting up inception_5a/output_inception_5a/output_0_split
I0403 15:13:33.148929 12089 net.cpp:148] Top shape: 24 832 7 7 (978432)
I0403 15:13:33.148946 12089 net.cpp:148] Top shape: 24 832 7 7 (978432)
I0403 15:13:33.148960 12089 net.cpp:148] Top shape: 24 832 7 7 (978432)
I0403 15:13:33.148974 12089 net.cpp:148] Top shape: 24 832 7 7 (978432)
I0403 15:13:33.148988 12089 net.cpp:156] Memory required for data: 1325241888
I0403 15:13:33.149003 12089 layer_factory.hpp:77] Creating layer inception_5b/1x1
I0403 15:13:33.149024 12089 net.cpp:91] Creating Layer inception_5b/1x1
I0403 15:13:33.149042 12089 net.cpp:425] inception_5b/1x1 <- inception_5a/output_inception_5a/output_0_split_0
I0403 15:13:33.149063 12089 net.cpp:399] inception_5b/1x1 -> inception_5b/1x1
I0403 15:13:33.152756 12089 net.cpp:141] Setting up inception_5b/1x1
I0403 15:13:33.152786 12089 net.cpp:148] Top shape: 24 384 7 7 (451584)
I0403 15:13:33.152801 12089 net.cpp:156] Memory required for data: 1327048224
I0403 15:13:33.152819 12089 layer_factory.hpp:77] Creating layer inception_5b/relu_1x1
I0403 15:13:33.152837 12089 net.cpp:91] Creating Layer inception_5b/relu_1x1
I0403 15:13:33.152853 12089 net.cpp:425] inception_5b/relu_1x1 <- inception_5b/1x1
I0403 15:13:33.152871 12089 net.cpp:386] inception_5b/relu_1x1 -> inception_5b/1x1 (in-place)
I0403 15:13:33.153182 12089 net.cpp:141] Setting up inception_5b/relu_1x1
I0403 15:13:33.153208 12089 net.cpp:148] Top shape: 24 384 7 7 (451584)
I0403 15:13:33.153225 12089 net.cpp:156] Memory required for data: 1328854560
I0403 15:13:33.153240 12089 layer_factory.hpp:77] Creating layer inception_5b/3x3_reduce
I0403 15:13:33.153262 12089 net.cpp:91] Creating Layer inception_5b/3x3_reduce
I0403 15:13:33.153281 12089 net.cpp:425] inception_5b/3x3_reduce <- inception_5a/output_inception_5a/output_0_split_1
I0403 15:13:33.153303 12089 net.cpp:399] inception_5b/3x3_reduce -> inception_5b/3x3_reduce
I0403 15:13:33.155932 12089 net.cpp:141] Setting up inception_5b/3x3_reduce
I0403 15:13:33.155961 12089 net.cpp:148] Top shape: 24 192 7 7 (225792)
I0403 15:13:33.155977 12089 net.cpp:156] Memory required for data: 1329757728
I0403 15:13:33.155995 12089 layer_factory.hpp:77] Creating layer inception_5b/relu_3x3_reduce
I0403 15:13:33.156013 12089 net.cpp:91] Creating Layer inception_5b/relu_3x3_reduce
I0403 15:13:33.156033 12089 net.cpp:425] inception_5b/relu_3x3_reduce <- inception_5b/3x3_reduce
I0403 15:13:33.156050 12089 net.cpp:386] inception_5b/relu_3x3_reduce -> inception_5b/3x3_reduce (in-place)
I0403 15:13:33.156242 12089 net.cpp:141] Setting up inception_5b/relu_3x3_reduce
I0403 15:13:33.156267 12089 net.cpp:148] Top shape: 24 192 7 7 (225792)
I0403 15:13:33.156281 12089 net.cpp:156] Memory required for data: 1330660896
I0403 15:13:33.156296 12089 layer_factory.hpp:77] Creating layer inception_5b/3x3
I0403 15:13:33.156318 12089 net.cpp:91] Creating Layer inception_5b/3x3
I0403 15:13:33.156335 12089 net.cpp:425] inception_5b/3x3 <- inception_5b/3x3_reduce
I0403 15:13:33.156358 12089 net.cpp:399] inception_5b/3x3 -> inception_5b/3x3
I0403 15:13:33.162891 12089 net.cpp:141] Setting up inception_5b/3x3
I0403 15:13:33.162919 12089 net.cpp:148] Top shape: 24 384 7 7 (451584)
I0403 15:13:33.162935 12089 net.cpp:156] Memory required for data: 1332467232
I0403 15:13:33.162953 12089 layer_factory.hpp:77] Creating layer inception_5b/relu_3x3
I0403 15:13:33.162973 12089 net.cpp:91] Creating Layer inception_5b/relu_3x3
I0403 15:13:33.162991 12089 net.cpp:425] inception_5b/relu_3x3 <- inception_5b/3x3
I0403 15:13:33.163008 12089 net.cpp:386] inception_5b/relu_3x3 -> inception_5b/3x3 (in-place)
I0403 15:13:33.163308 12089 net.cpp:141] Setting up inception_5b/relu_3x3
I0403 15:13:33.163334 12089 net.cpp:148] Top shape: 24 384 7 7 (451584)
I0403 15:13:33.163350 12089 net.cpp:156] Memory required for data: 1334273568
I0403 15:13:33.163373 12089 layer_factory.hpp:77] Creating layer inception_5b/5x5_reduce
I0403 15:13:33.163410 12089 net.cpp:91] Creating Layer inception_5b/5x5_reduce
I0403 15:13:33.163429 12089 net.cpp:425] inception_5b/5x5_reduce <- inception_5a/output_inception_5a/output_0_split_2
I0403 15:13:33.163451 12089 net.cpp:399] inception_5b/5x5_reduce -> inception_5b/5x5_reduce
I0403 15:13:33.164705 12089 net.cpp:141] Setting up inception_5b/5x5_reduce
I0403 15:13:33.164733 12089 net.cpp:148] Top shape: 24 48 7 7 (56448)
I0403 15:13:33.164748 12089 net.cpp:156] Memory required for data: 1334499360
I0403 15:13:33.164767 12089 layer_factory.hpp:77] Creating layer inception_5b/relu_5x5_reduce
I0403 15:13:33.164785 12089 net.cpp:91] Creating Layer inception_5b/relu_5x5_reduce
I0403 15:13:33.164803 12089 net.cpp:425] inception_5b/relu_5x5_reduce <- inception_5b/5x5_reduce
I0403 15:13:33.164821 12089 net.cpp:386] inception_5b/relu_5x5_reduce -> inception_5b/5x5_reduce (in-place)
I0403 15:13:33.165189 12089 net.cpp:141] Setting up inception_5b/relu_5x5_reduce
I0403 15:13:33.165216 12089 net.cpp:148] Top shape: 24 48 7 7 (56448)
I0403 15:13:33.165232 12089 net.cpp:156] Memory required for data: 1334725152
I0403 15:13:33.165247 12089 layer_factory.hpp:77] Creating layer inception_5b/5x5
I0403 15:13:33.165267 12089 net.cpp:91] Creating Layer inception_5b/5x5
I0403 15:13:33.165284 12089 net.cpp:425] inception_5b/5x5 <- inception_5b/5x5_reduce
I0403 15:13:33.165303 12089 net.cpp:399] inception_5b/5x5 -> inception_5b/5x5
I0403 15:13:33.167320 12089 net.cpp:141] Setting up inception_5b/5x5
I0403 15:13:33.167348 12089 net.cpp:148] Top shape: 24 128 7 7 (150528)
I0403 15:13:33.167371 12089 net.cpp:156] Memory required for data: 1335327264
I0403 15:13:33.167389 12089 layer_factory.hpp:77] Creating layer inception_5b/relu_5x5
I0403 15:13:33.167410 12089 net.cpp:91] Creating Layer inception_5b/relu_5x5
I0403 15:13:33.167428 12089 net.cpp:425] inception_5b/relu_5x5 <- inception_5b/5x5
I0403 15:13:33.167445 12089 net.cpp:386] inception_5b/relu_5x5 -> inception_5b/5x5 (in-place)
I0403 15:13:33.167634 12089 net.cpp:141] Setting up inception_5b/relu_5x5
I0403 15:13:33.167664 12089 net.cpp:148] Top shape: 24 128 7 7 (150528)
I0403 15:13:33.167680 12089 net.cpp:156] Memory required for data: 1335929376
I0403 15:13:33.167695 12089 layer_factory.hpp:77] Creating layer inception_5b/pool
I0403 15:13:33.167712 12089 net.cpp:91] Creating Layer inception_5b/pool
I0403 15:13:33.167728 12089 net.cpp:425] inception_5b/pool <- inception_5a/output_inception_5a/output_0_split_3
I0403 15:13:33.167748 12089 net.cpp:399] inception_5b/pool -> inception_5b/pool
I0403 15:13:33.167819 12089 net.cpp:141] Setting up inception_5b/pool
I0403 15:13:33.167843 12089 net.cpp:148] Top shape: 24 832 7 7 (978432)
I0403 15:13:33.167858 12089 net.cpp:156] Memory required for data: 1339843104
I0403 15:13:33.167872 12089 layer_factory.hpp:77] Creating layer inception_5b/pool_proj
I0403 15:13:33.167894 12089 net.cpp:91] Creating Layer inception_5b/pool_proj
I0403 15:13:33.167912 12089 net.cpp:425] inception_5b/pool_proj <- inception_5b/pool
I0403 15:13:33.167934 12089 net.cpp:399] inception_5b/pool_proj -> inception_5b/pool_proj
I0403 15:13:33.170198 12089 net.cpp:141] Setting up inception_5b/pool_proj
I0403 15:13:33.170227 12089 net.cpp:148] Top shape: 24 128 7 7 (150528)
I0403 15:13:33.170241 12089 net.cpp:156] Memory required for data: 1340445216
I0403 15:13:33.170259 12089 layer_factory.hpp:77] Creating layer inception_5b/relu_pool_proj
I0403 15:13:33.170280 12089 net.cpp:91] Creating Layer inception_5b/relu_pool_proj
I0403 15:13:33.170297 12089 net.cpp:425] inception_5b/relu_pool_proj <- inception_5b/pool_proj
I0403 15:13:33.170315 12089 net.cpp:386] inception_5b/relu_pool_proj -> inception_5b/pool_proj (in-place)
I0403 15:13:33.170608 12089 net.cpp:141] Setting up inception_5b/relu_pool_proj
I0403 15:13:33.170634 12089 net.cpp:148] Top shape: 24 128 7 7 (150528)
I0403 15:13:33.170650 12089 net.cpp:156] Memory required for data: 1341047328
I0403 15:13:33.170665 12089 layer_factory.hpp:77] Creating layer inception_5b/output
I0403 15:13:33.170682 12089 net.cpp:91] Creating Layer inception_5b/output
I0403 15:13:33.170712 12089 net.cpp:425] inception_5b/output <- inception_5b/1x1
I0403 15:13:33.170732 12089 net.cpp:425] inception_5b/output <- inception_5b/3x3
I0403 15:13:33.170747 12089 net.cpp:425] inception_5b/output <- inception_5b/5x5
I0403 15:13:33.170763 12089 net.cpp:425] inception_5b/output <- inception_5b/pool_proj
I0403 15:13:33.170783 12089 net.cpp:399] inception_5b/output -> inception_5b/output
I0403 15:13:33.170835 12089 net.cpp:141] Setting up inception_5b/output
I0403 15:13:33.170861 12089 net.cpp:148] Top shape: 24 1024 7 7 (1204224)
I0403 15:13:33.170877 12089 net.cpp:156] Memory required for data: 1345864224
I0403 15:13:33.170892 12089 layer_factory.hpp:77] Creating layer pool5/7x7_s1
I0403 15:13:33.170908 12089 net.cpp:91] Creating Layer pool5/7x7_s1
I0403 15:13:33.170925 12089 net.cpp:425] pool5/7x7_s1 <- inception_5b/output
I0403 15:13:33.170946 12089 net.cpp:399] pool5/7x7_s1 -> pool5/7x7_s1
I0403 15:13:33.171164 12089 net.cpp:141] Setting up pool5/7x7_s1
I0403 15:13:33.171190 12089 net.cpp:148] Top shape: 24 1024 1 1 (24576)
I0403 15:13:33.171205 12089 net.cpp:156] Memory required for data: 1345962528
I0403 15:13:33.171219 12089 layer_factory.hpp:77] Creating layer pool5/drop_7x7_s1
I0403 15:13:33.171236 12089 net.cpp:91] Creating Layer pool5/drop_7x7_s1
I0403 15:13:33.171252 12089 net.cpp:425] pool5/drop_7x7_s1 <- pool5/7x7_s1
I0403 15:13:33.171272 12089 net.cpp:386] pool5/drop_7x7_s1 -> pool5/7x7_s1 (in-place)
I0403 15:13:33.171322 12089 net.cpp:141] Setting up pool5/drop_7x7_s1
I0403 15:13:33.171345 12089 net.cpp:148] Top shape: 24 1024 1 1 (24576)
I0403 15:13:33.171367 12089 net.cpp:156] Memory required for data: 1346060832
I0403 15:13:33.171381 12089 layer_factory.hpp:77] Creating layer loss3/classifier_plantvillage
I0403 15:13:33.171401 12089 net.cpp:91] Creating Layer loss3/classifier_plantvillage
I0403 15:13:33.171416 12089 net.cpp:425] loss3/classifier_plantvillage <- pool5/7x7_s1
I0403 15:13:33.171434 12089 net.cpp:399] loss3/classifier_plantvillage -> loss3/classifier_plantvillage
I0403 15:13:33.171850 12089 net.cpp:141] Setting up loss3/classifier_plantvillage
I0403 15:13:33.171875 12089 net.cpp:148] Top shape: 24 38 (912)
I0403 15:13:33.171890 12089 net.cpp:156] Memory required for data: 1346064480
I0403 15:13:33.171908 12089 layer_factory.hpp:77] Creating layer loss3/classifier_plantvillage_loss3/classifier_plantvillage_0_split
I0403 15:13:33.171928 12089 net.cpp:91] Creating Layer loss3/classifier_plantvillage_loss3/classifier_plantvillage_0_split
I0403 15:13:33.171946 12089 net.cpp:425] loss3/classifier_plantvillage_loss3/classifier_plantvillage_0_split <- loss3/classifier_plantvillage
I0403 15:13:33.171964 12089 net.cpp:399] loss3/classifier_plantvillage_loss3/classifier_plantvillage_0_split -> loss3/classifier_plantvillage_loss3/classifier_plantvillage_0_split_0
I0403 15:13:33.171985 12089 net.cpp:399] loss3/classifier_plantvillage_loss3/classifier_plantvillage_0_split -> loss3/classifier_plantvillage_loss3/classifier_plantvillage_0_split_1
I0403 15:13:33.172004 12089 net.cpp:399] loss3/classifier_plantvillage_loss3/classifier_plantvillage_0_split -> loss3/classifier_plantvillage_loss3/classifier_plantvillage_0_split_2
I0403 15:13:33.172024 12089 net.cpp:399] loss3/classifier_plantvillage_loss3/classifier_plantvillage_0_split -> loss3/classifier_plantvillage_loss3/classifier_plantvillage_0_split_3
I0403 15:13:33.172144 12089 net.cpp:141] Setting up loss3/classifier_plantvillage_loss3/classifier_plantvillage_0_split
I0403 15:13:33.172169 12089 net.cpp:148] Top shape: 24 38 (912)
I0403 15:13:33.172185 12089 net.cpp:148] Top shape: 24 38 (912)
I0403 15:13:33.172200 12089 net.cpp:148] Top shape: 24 38 (912)
I0403 15:13:33.172216 12089 net.cpp:148] Top shape: 24 38 (912)
I0403 15:13:33.172230 12089 net.cpp:156] Memory required for data: 1346079072
I0403 15:13:33.172245 12089 layer_factory.hpp:77] Creating layer loss1/loss
I0403 15:13:33.172266 12089 net.cpp:91] Creating Layer loss1/loss
I0403 15:13:33.172284 12089 net.cpp:425] loss1/loss <- loss1/classifier_plantvillage_loss1/classifier_plantvillage_0_split_0
I0403 15:13:33.172315 12089 net.cpp:425] loss1/loss <- label_data_1_split_0
…
