…
I0403 14:42:26.443999 11006 net.cpp:313] The NetState phase (1) differed from the phase (0) specified by a rule in layer data
I0403 14:42:26.445232 11006 net.cpp:49] Initializing net from parameters: 
state {
  phase: TEST
}
layer {
  name: "data"
  type: "Data"
  top: "data"
  top: "label"
  include {
    phase: TEST
  }
  transform_param {
    mirror: false
    crop_size: 224
    mean_file: "/home/mohanty/data/final_dataset/lmdb/grayscale-60-40/mean.binaryproto"
  }
  data_param {
    source: "/home/mohanty/data/final_dataset/lmdb/grayscale-60-40/test_db"
    batch_size: 24
    backend: LMDB
  }
}
layer {
  name: "conv1/7x7_s2"
  type: "Convolution"
  bottom: "data"
  top: "conv1/7x7_s2"
  param {
    lr_mult: 1
    decay_mult: 1
  }
  param {
    lr_mult: 2
    decay_mult: 0
  }
  convolution_param {
    num_output: 64
    pad: 3
    kernel_size: 7
    stride: 2
    weight_filler {
      type: "xavier"
      std: 0.1
    }
    bias_filler {
      type: "constant"
      value: 0.2
    }
  }
}
layer {
  name: "conv1/relu_7x7"
  type: "ReLU"
  bottom: "conv1/7x7_s2"
  top: "conv1/7x7_s2"
}
layer {
  name: "pool1/3x3_s2"
  type: "Pooling"
  bottom: "conv1/7x7_s2"
  top: "pool1/3x3_s2"
  pooling_param {
    pool: MAX
    kernel_size: 3
    stride: 2
  }
}
layer {
  name: "pool1/norm1"
  type: "LRN"
  bottom: "pool1/3x3_s2"
  top: "pool1/norm1"
  lrn_param {
    local_size: 5
    alpha: 0.0001
    beta: 0.75
  }
}
layer {
  name: "conv2/3x3_reduce"
  type: "Convolution"
  bottom: "pool1/norm1"
  top: "conv2/3x3_reduce"
  param {
    lr_mult: 1
    decay_mult: 1
  }
  param {
    lr_mult: 2
    decay_mult: 0
  }
  convolution_param {
    num_output: 64
    kernel_size: 1
    weight_filler {
      type: "xavier"
      std: 0.1
    }
    bias_filler {
      type: "constant"
      value: 0.2
    }
  }
}
layer {
  name: "conv2/relu_3x3_reduce"
  type: "ReLU"
  bottom: "conv2/3x3_reduce"
  top: "conv2/3x3_reduce"
}
layer {
  name: "conv2/3x3"
  type: "Convolution"
  bottom: "conv2/3x3_reduce"
  top: "conv2/3x3"
  param {
    lr_mult: 1
    decay_mult: 1
  }
  param {
    lr_mult: 2
    decay_mult: 0
  }
  convolution_param {
    num_output: 192
    pad: 1
    kernel_size: 3
    weight_filler {
      type: "xavier"
      std: 0.03
    }
    bias_filler {
      type: "constant"
      value: 0.2
    }
  }
}
layer {
  name: "conv2/relu_3x3"
  type: "ReLU"
  bottom: "conv2/3x3"
  top: "conv2/3x3"
}
layer {
  name: "conv2/norm2"
  type: "LRN"
  bottom: "conv2/3x3"
  top: "conv2/norm2"
  lrn_param {
    local_size: 5
    alpha: 0.0001
    beta: 0.75
  }
}
layer {
  name: "pool2/3x3_s2"
  type: "Pooling"
  bottom: "conv2/norm2"
  top: "pool2/3x3_s2"
  pooling_param {
    pool: MAX
    kernel_size: 3
    stride: 2
  }
}
layer {
  name: "inception_3a/1x1"
  type: "Convolution"
  bottom: "pool2/3x3_s2"
  top: "inception_3a/1x1"
  param {
    lr_mult: 1
    decay_mult: 1
  }
  param {
    lr_mult: 2
    decay_mult: 0
  }
  convolution_param {
    num_output: 64
    kernel_size: 1
    weight_filler {
      type: "xavier"
      std: 0.03
    }
    bias_filler {
      type: "constant"
      value: 0.2
    }
  }
}
layer {
  name: "inception_3a/relu_1x1"
  type: "ReLU"
  bottom: "inception_3a/1x1"
  top: "inception_3a/1x1"
}
layer {
  name: "inception_3a/3x3_reduce"
  type: "Convolution"
  bottom: "pool2/3x3_s2"
  top: "inception_3a/3x3_reduce"
  param {
    lr_mult: 1
    decay_mult: 1
  }
  param {
    lr_mult: 2
    decay_mult: 0
  }
  convolution_param {
    num_output: 96
    kernel_size: 1
    weight_filler {
      type: "xavier"
      std: 0.09
    }
    bias_filler {
      type: "constant"
      value: 0.2
    }
  }
}
layer {
  name: "inception_3a/relu_3x3_reduce"
  type: "ReLU"
  bottom: "inception_3a/3x3_reduce"
  top: "inception_3a/3x3_reduce"
}
layer {
  name: "inception_3a/3x3"
  type: "Convolution"
  bottom: "inception_3a/3x3_reduce"
  top: "inception_3a/3x3"
  param {
    lr_mult: 1
    decay_mult: 1
  }
  param {
    lr_mult: 2
    decay_mult: 0
  }
  convolution_param {
    num_output: 128
    pad: 1
    kernel_size: 3
    weight_filler {
      type: "xavier"
      std: 0.03
    }
    bias_filler {
      type: "constant"
      value: 0.2
    }
  }
}
layer {
  name: "inception_3a/relu_3x3"
  type: "ReLU"
  bottom: "inception_3a/3x3"
  top: "inception_3a/3x3"
}
layer {
  name: "inception_3a/5x5_reduce"
  type: "Convolution"
  bottom: "pool2/3x3_s2"
  top: "inception_3a/5x5_reduce"
  param {
    lr_mult: 1
    decay_mult: 1
  }
  param {
    lr_mult: 2
    decay_mult: 0
  }
  convolution_param {
    num_output: 16
    kernel_size: 1
    weight_filler {
      type: "xavier"
      std: 0.2
    }
    bias_filler {
      type: "constant"
      value: 0.2
    }
  }
}
layer {
  name: "inception_3a/relu_5x5_reduce"
  type: "ReLU"
  bottom: "inception_3a/5x5_reduce"
  top: "inception_3a/5x5_reduce"
}
layer {
  name: "inception_3a/5x5"
  type: "Convolution"
  bottom: "inception_3a/5x5_reduce"
  top: "inception_3a/5x5"
  param {
    lr_mult: 1
    decay_mult: 1
  }
  param {
    lr_mult: 2
    decay_mult: 0
  }
  convolution_param {
    num_output: 32
    pad: 2
    kernel_size: 5
    weight_filler {
      type: "xavier"
      std: 0.03
    }
    bias_filler {
      type: "constant"
      value: 0.2
    }
  }
}
layer {
  name: "inception_3a/relu_5x5"
  type: "ReLU"
  bottom: "inception_3a/5x5"
  top: "inception_3a/5x5"
}
layer {
  name: "inception_3a/pool"
  type: "Pooling"
  bottom: "pool2/3x3_s2"
  top: "inception_3a/pool"
  pooling_param {
    pool: MAX
    kernel_size: 3
    stride: 1
    pad: 1
  }
}
layer {
  name: "inception_3a/pool_proj"
  type: "Convolution"
  bottom: "inception_3a/pool"
  top: "inception_3a/pool_proj"
  param {
    lr_mult: 1
    decay_mult: 1
  }
  param {
    lr_mult: 2
    decay_mult: 0
  }
  convolution_param {
    num_output: 32
    kernel_size: 1
    weight_filler {
      type: "xavier"
      std: 0.1
    }
    bias_filler {
      type: "constant"
      value: 0.2
    }
  }
}
layer {
  name: "inception_3a/relu_pool_proj"
  type: "ReLU"
  bottom: "inception_3a/pool_proj"
  top: "inception_3a/pool_proj"
}
layer {
  name: "inception_3a/output"
  type: "Concat"
  bottom: "inception_3a/1x1"
  bottom: "inception_3a/3x3"
  bottom: "inception_3a/5x5"
  bottom: "inception_3a/pool_proj"
  top: "inception_3a/output"
}
layer {
  name: "inception_3b/1x1"
  type: "Convolution"
  bottom: "inception_3a/output"
  top: "inception_3b/1x1"
  param {
    lr_mult: 1
    decay_mult: 1
  }
  param {
    lr_mult: 2
    decay_mult: 0
  }
  convolution_param {
    num_output: 128
    kernel_size: 1
    weight_filler {
      type: "xavier"
      std: 0.03
    }
    bias_filler {
      type: "constant"
      value: 0.2
    }
  }
}
layer {
  name: "inception_3b/relu_1x1"
  type: "ReLU"
  bottom: "inception_3b/1x1"
  top: "inception_3b/1x1"
}
layer {
  name: "inception_3b/3x3_reduce"
  type: "Convolution"
  bottom: "inception_3a/output"
  top: "inception_3b/3x3_reduce"
  param {
    lr_mult: 1
    decay_mult: 1
  }
  param {
    lr_mult: 2
    decay_mult: 0
  }
  convolution_param {
    num_output: 128
    kernel_size: 1
    weight_filler {
      type: "xavier"
      std: 0.09
    }
    bias_filler {
      type: "constant"
      value: 0.2
    }
  }
}
layer {
  name: "inception_3b/relu_3x3_reduce"
  type: "ReLU"
  bottom: "inception_3b/3x3_reduce"
  top: "inception_3b/3x3_reduce"
}
layer {
  name: "inception_3b/3x3"
  type: "Convolution"
  bottom: "inception_3b/3x3_reduce"
  top: "inception_3b/3x3"
  param {
    lr_mult: 1
    decay_mult: 1
  }
  param {
    lr_mult: 2
    decay_mult: 0
  }
  convolution_param {
    num_output: 192
    pad: 1
    kernel_size: 3
    weight_filler {
      type: "xavier"
      std: 0.03
    }
    bias_filler {
      type: "constant"
      value: 0.2
    }
  }
}
layer {
  name: "inception_3b/relu_3x3"
  type: "ReLU"
  bottom: "inception_3b/3x3"
  top: "inception_3b/3x3"
}
layer {
  name: "inception_3b/5x5_reduce"
  type: "Convolution"
  bottom: "inception_3a/output"
  top: "inception_3b/5x5_reduce"
  param {
    lr_mult: 1
    decay_mult: 1
  }
  param {
    lr_mult: 2
    decay_mult: 0
  }
  convolution_param {
    num_output: 32
    kernel_size: 1
    weight_filler {
      type: "xavier"
      std: 0.2
    }
    bias_filler {
      type: "constant"
      value: 0.2
    }
  }
}
layer {
  name: "inception_3b/relu_5x5_reduce"
  type: "ReLU"
  bottom: "inception_3b/5x5_reduce"
  top: "inception_3b/5x5_reduce"
}
layer {
  name: "inception_3b/5x5"
  type: "Convolution"
  bottom: "inception_3b/5x5_reduce"
  top: "inception_3b/5x5"
  param {
    lr_mult: 1
    decay_mult: 1
  }
  param {
    lr_mult: 2
    decay_mult: 0
  }
  convolution_param {
    num_output: 96
    pad: 2
    kernel_size: 5
    weight_filler {
      type: "xavier"
      std: 0.03
    }
    bias_filler {
      type: "constant"
      value: 0.2
    }
  }
}
layer {
  name: "inception_3b/relu_5x5"
  type: "ReLU"
  bottom: "inception_3b/5x5"
  top: "inception_3b/5x5"
}
layer {
  name: "inception_3b/pool"
  type: "Pooling"
  bottom: "inception_3a/output"
  top: "inception_3b/pool"
  pooling_param {
    pool: MAX
    kernel_size: 3
    stride: 1
    pad: 1
  }
}
layer {
  name: "inception_3b/pool_proj"
  type: "Convolution"
  bottom: "inception_3b/pool"
  top: "inception_3b/pool_proj"
  param {
    lr_mult: 1
    decay_mult: 1
  }
  param {
    lr_mult: 2
    decay_mult: 0
  }
  convolution_param {
    num_output: 64
    kernel_size: 1
    weight_filler {
      type: "xavier"
      std: 0.1
    }
    bias_filler {
      type: "constant"
      value: 0.2
    }
  }
}
layer {
  name: "inception_3b/relu_pool_proj"
  type: "ReLU"
  bottom: "inception_3b/pool_proj"
  top: "inception_3b/pool_proj"
}
layer {
  name: "inception_3b/output"
  type: "Concat"
  bottom: "inception_3b/1x1"
  bottom: "inception_3b/3x3"
  bottom: "inception_3b/5x5"
  bottom: "inception_3b/pool_proj"
  top: "inception_3b/output"
}
layer {
  name: "pool3/3x3_s2"
  type: "Pooling"
  bottom: "inception_3b/output"
  top: "pool3/3x3_s2"
  pooling_param {
    pool: MAX
    kernel_size: 3
    stride: 2
  }
}
layer {
  name: "inception_4a/1x1"
  type: "Convolution"
  bottom: "pool3/3x3_s2"
  top: "inception_4a/1x1"
  param {
    lr_mult: 1
    decay_mult: 1
  }
  param {
    lr_mult: 2
    decay_mult: 0
  }
  convolution_param {
    num_output: 192
    kernel_size: 1
    weight_filler {
      type: "xavier"
      std: 0.03
    }
    bias_filler {
      type: "constant"
      value: 0.2
    }
  }
}
layer {
  name: "inception_4a/relu_1x1"
  type: "ReLU"
  bottom: "inception_4a/1x1"
  top: "inception_4a/1x1"
}
layer {
  name: "inception_4a/3x3_reduce"
  type: "Convolution"
  bottom: "pool3/3x3_s2"
  top: "inception_4a/3x3_reduce"
  param {
    lr_mult: 1
    decay_mult: 1
  }
  param {
    lr_mult: 2
    decay_mult: 0
  }
  convolution_param {
    num_output: 96
    kernel_size: 1
    weight_filler {
      type: "xavier"
      std: 0.09
    }
    bias_filler {
      type: "constant"
      value: 0.2
    }
  }
}
layer {
  name: "inception_4a/relu_3x3_reduce"
  type: "ReLU"
  bottom: "inception_4a/3x3_reduce"
  top: "inception_4a/3x3_reduce"
}
layer {
  name: "inception_4a/3x3"
  type: "Convolution"
  bottom: "inception_4a/3x3_reduce"
  top: "inception_4a/3x3"
  param {
    lr_mult: 1
    decay_mult: 1
  }
  param {
    lr_mult: 2
    decay_mult: 0
  }
  convolution_param {
    num_output: 208
    pad: 1
    kernel_size: 3
    weight_filler {
      type: "xavier"
      std: 0.03
    }
    bias_filler {
      type: "constant"
      value: 0.2
    }
  }
}
layer {
  name: "inception_4a/relu_3x3"
  type: "ReLU"
  bottom: "inception_4a/3x3"
  top: "inception_4a/3x3"
}
layer {
  name: "inception_4a/5x5_reduce"
  type: "Convolution"
  bottom: "pool3/3x3_s2"
  top: "inception_4a/5x5_reduce"
  param {
    lr_mult: 1
    decay_mult: 1
  }
  param {
    lr_mult: 2
    decay_mult: 0
  }
  convolution_param {
    num_output: 16
    kernel_size: 1
    weight_filler {
      type: "xavier"
      std: 0.2
    }
    bias_filler {
      type: "constant"
      value: 0.2
    }
  }
}
layer {
  name: "inception_4a/relu_5x5_reduce"
  type: "ReLU"
  bottom: "inception_4a/5x5_reduce"
  top: "inception_4a/5x5_reduce"
}
layer {
  name: "inception_4a/5x5"
  type: "Convolution"
  bottom: "inception_4a/5x5_reduce"
  top: "inception_4a/5x5"
  param {
    lr_mult: 1
    decay_mult: 1
  }
  param {
    lr_mult: 2
    decay_mult: 0
  }
  convolution_param {
    num_output: 48
    pad: 2
    kernel_size: 5
    weight_filler {
      type: "xavier"
      std: 0.03
    }
    bias_filler {
      type: "constant"
      value: 0.2
    }
  }
}
layer {
  name: "inception_4a/relu_5x5"
  type: "ReLU"
  bottom: "inception_4a/5x5"
  top: "inception_4a/5x5"
}
layer {
  name: "inception_4a/pool"
  type: "Pooling"
  bottom: "pool3/3x3_s2"
  top: "inception_4a/pool"
  pooling_param {
    pool: MAX
    kernel_size: 3
    stride: 1
    pad: 1
  }
}
layer {
  name: "inception_4a/pool_proj"
  type: "Convolution"
  bottom: "inception_4a/pool"
  top: "inception_4a/pool_proj"
  param {
    lr_mult: 1
    decay_mult: 1
  }
  param {
    lr_mult: 2
    decay_mult: 0
  }
  convolution_param {
    num_output: 64
    kernel_size: 1
    weight_filler {
      type: "xavier"
      std: 0.1
    }
    bias_filler {
      type: "constant"
      value: 0.2
    }
  }
}
layer {
  name: "inception_4a/relu_pool_proj"
  type: "ReLU"
  bottom: "inception_4a/pool_proj"
  top: "inception_4a/pool_proj"
}
layer {
  name: "inception_4a/output"
  type: "Concat"
  bottom: "inception_4a/1x1"
  bottom: "inception_4a/3x3"
  bottom: "inception_4a/5x5"
  bottom: "inception_4a/pool_proj"
  top: "inception_4a/output"
}
layer {
  name: "loss1/ave_pool"
  type: "Pooling"
  bottom: "inception_4a/output"
  top: "loss1/ave_pool"
  pooling_param {
    pool: AVE
    kernel_size: 5
    stride: 3
  }
}
layer {
  name: "loss1/conv"
  type: "Convolution"
  bottom: "loss1/ave_pool"
  top: "loss1/conv"
  param {
    lr_mult: 1
    decay_mult: 1
  }
  param {
    lr_mult: 2
    decay_mult: 0
  }
  convolution_param {
    num_output: 128
    kernel_size: 1
    weight_filler {
      type: "xavier"
      std: 0.08
    }
    bias_filler {
      type: "constant"
      value: 0.2
    }
  }
}
layer {
  name: "loss1/relu_conv"
  type: "ReLU"
  bottom: "loss1/conv"
  top: "loss1/conv"
}
layer {
  name: "loss1/fc"
  type: "InnerProduct"
  bottom: "loss1/conv"
  top: "loss1/fc"
  param {
    lr_mult: 1
    decay_mult: 1
  }
  param {
    lr_mult: 2
    decay_mult: 0
  }
  inner_product_param {
    num_output: 1024
    weight_filler {
      type: "xavier"
      std: 0.02
    }
    bias_filler {
      type: "constant"
      value: 0.2
    }
  }
}
layer {
  name: "loss1/relu_fc"
  type: "ReLU"
  bottom: "loss1/fc"
  top: "loss1/fc"
}
layer {
  name: "loss1/drop_fc"
  type: "Dropout"
  bottom: "loss1/fc"
  top: "loss1/fc"
  dropout_param {
    dropout_ratio: 0.7
  }
}
layer {
  name: "loss1/classifier_plantvillage"
  type: "InnerProduct"
  bottom: "loss1/fc"
  top: "loss1/classifier_plantvillage"
  param {
    lr_mult: 1
    decay_mult: 1
  }
  param {
    lr_mult: 2
    decay_mult: 0
  }
  inner_product_param {
    num_output: 38
    weight_filler {
      type: "xavier"
      std: 0.0009765625
    }
    bias_filler {
      type: "constant"
      value: 0
    }
  }
}
layer {
  name: "inception_4b/1x1"
  type: "Convolution"
  bottom: "inception_4a/output"
  top: "inception_4b/1x1"
  param {
    lr_mult: 1
    decay_mult: 1
  }
  param {
    lr_mult: 2
    decay_mult: 0
  }
  convolution_param {
    num_output: 160
    kernel_size: 1
    weight_filler {
      type: "xavier"
      std: 0.03
    }
    bias_filler {
      type: "constant"
      value: 0.2
    }
  }
}
layer {
  name: "inception_4b/relu_1x1"
  type: "ReLU"
  bottom: "inception_4b/1x1"
  top: "inception_4b/1x1"
}
layer {
  name: "inception_4b/3x3_reduce"
  type: "Convolution"
  bottom: "inception_4a/output"
  top: "inception_4b/3x3_reduce"
  param {
    lr_mult: 1
    decay_mult: 1
  }
  param {
    lr_mult: 2
    decay_mult: 0
  }
  convolution_param {
    num_output: 112
    kernel_size: 1
    weight_filler {
      type: "xavier"
      std: 0.09
    }
    bias_filler {
      type: "constant"
      value: 0.2
    }
  }
}
layer {
  name: "inception_4b/relu_3x3_reduce"
  type: "ReLU"
  bottom: "inception_4b/3x3_reduce"
  top: "inception_4b/3x3_reduce"
}
layer {
  name: "inception_4b/3x3"
  type: "Convolution"
  bottom: "inception_4b/3x3_reduce"
  top: "inception_4b/3x3"
  param {
    lr_mult: 1
    decay_mult: 1
  }
  param {
    lr_mult: 2
    decay_mult: 0
  }
  convolution_param {
    num_output: 224
    pad: 1
    kernel_size: 3
    weight_filler {
      type: "xavier"
      std: 0.03
    }
    bias_filler {
      type: "constant"
      value: 0.2
    }
  }
}
layer {
  name: "inception_4b/relu_3x3"
  type: "ReLU"
  bottom: "inception_4b/3x3"
  top: "inception_4b/3x3"
}
layer {
  name: "inception_4b/5x5_reduce"
  type: "Convolution"
  bottom: "inception_4a/output"
  top: "inception_4b/5x5_reduce"
  param {
    lr_mult: 1
    decay_mult: 1
  }
  param {
    lr_mult: 2
    decay_mult: 0
  }
  convolution_param {
    num_output: 24
    kernel_size: 1
    weight_filler {
      type: "xavier"
      std: 0.2
    }
    bias_filler {
      type: "constant"
      value: 0.2
    }
  }
}
layer {
  name: "inception_4b/relu_5x5_reduce"
  type: "ReLU"
  bottom: "inception_4b/5x5_reduce"
  top: "inception_4b/5x5_reduce"
}
layer {
  name: "inception_4b/5x5"
  type: "Convolution"
  bottom: "inception_4b/5x5_reduce"
  top: "inception_4b/5x5"
  param {
    lr_mult: 1
    decay_mult: 1
  }
  param {
    lr_mult: 2
    decay_mult: 0
  }
  convolution_param {
    num_output: 64
    pad: 2
    kernel_size: 5
    weight_filler {
      type: "xavier"
      std: 0.03
    }
    bias_filler {
      type: "constant"
      value: 0.2
    }
  }
}
layer {
  name: "inception_4b/relu_5x5"
  type: "ReLU"
  bottom: "inception_4b/5x5"
  top: "inception_4b/5x5"
}
layer {
  name: "inception_4b/pool"
  type: "Pooling"
  bottom: "inception_4a/output"
  top: "inception_4b/pool"
  pooling_param {
    pool: MAX
    kernel_size: 3
    stride: 1
    pad: 1
  }
}
layer {
  name: "inception_4b/pool_proj"
  type: "Convolution"
  bottom: "inception_4b/pool"
  top: "inception_4b/pool_proj"
  param {
    lr_mult: 1
    decay_mult: 1
  }
  param {
    lr_mult: 2
    decay_mult: 0
  }
  convolution_param {
    num_output: 64
    kernel_size: 1
    weight_filler {
      type: "xavier"
      std: 0.1
    }
    bias_filler {
      type: "constant"
      value: 0.2
    }
  }
}
layer {
  name: "inception_4b/relu_pool_proj"
  type: "ReLU"
  bottom: "inception_4b/pool_proj"
  top: "inception_4b/pool_proj"
}
layer {
  name: "inception_4b/output"
  type: "Concat"
  bottom: "inception_4b/1x1"
  bottom: "inception_4b/3x3"
  bottom: "inception_4b/5x5"
  bottom: "inception_4b/pool_proj"
  top: "inception_4b/output"
}
layer {
  name: "inception_4c/1x1"
  type: "Convolution"
  bottom: "inception_4b/output"
  top: "inception_4c/1x1"
  param {
    lr_mult: 1
    decay_mult: 1
  }
  param {
    lr_mult: 2
    decay_mult: 0
  }
  convolution_param {
    num_output: 128
    kernel_size: 1
    weight_filler {
      type: "xavier"
      std: 0.03
    }
    bias_filler {
      type: "constant"
      value: 0.2
    }
  }
}
layer {
  name: "inception_4c/relu_1x1"
  type: "ReLU"
  bottom: "inception_4c/1x1"
  top: "inception_4c/1x1"
}
layer {
  name: "inception_4c/3x3_reduce"
  type: "Convolution"
  bottom: "inception_4b/output"
  top: "inception_4c/3x3_reduce"
  param {
    lr_mult: 1
    decay_mult: 1
  }
  param {
    lr_mult: 2
    decay_mult: 0
  }
  convolution_param {
    num_output: 128
    kernel_size: 1
    weight_filler {
      type: "xavier"
      std: 0.09
    }
    bias_filler {
      type: "constant"
      value: 0.2
    }
  }
}
layer {
  name: "inception_4c/relu_3x3_reduce"
  type: "ReLU"
  bottom: "inception_4c/3x3_reduce"
  top: "inception_4c/3x3_reduce"
}
layer {
  name: "inception_4c/3x3"
  type: "Convolution"
  bottom: "inception_4c/3x3_reduce"
  top: "inception_4c/3x3"
  param {
    lr_mult: 1
    decay_mult: 1
  }
  param {
    lr_mult: 2
    decay_mult: 0
  }
  convolution_param {
    num_output: 256
    pad: 1
    kernel_size: 3
    weight_filler {
      type: "xavier"
      std: 0.03
    }
    bias_filler {
      type: "constant"
      value: 0.2
    }
  }
}
layer {
  name: "inception_4c/relu_3x3"
  type: "ReLU"
  bottom: "inception_4c/3x3"
  top: "inception_4c/3x3"
}
layer {
  name: "inception_4c/5x5_reduce"
  type: "Convolution"
  bottom: "inception_4b/output"
  top: "inception_4c/5x5_reduce"
  param {
    lr_mult: 1
    decay_mult: 1
  }
  param {
    lr_mult: 2
    decay_mult: 0
  }
  convolution_param {
    num_output: 24
    kernel_size: 1
    weight_filler {
      type: "xavier"
      std: 0.2
    }
    bias_filler {
      type: "constant"
      value: 0.2
    }
  }
}
layer {
  name: "inception_4c/relu_5x5_reduce"
  type: "ReLU"
  bottom: "inception_4c/5x5_reduce"
  top: "inception_4c/5x5_reduce"
}
layer {
  name: "inception_4c/5x5"
  type: "Convolution"
  bottom: "inception_4c/5x5_reduce"
  top: "inception_4c/5x5"
  param {
    lr_mult: 1
    decay_mult: 1
  }
  param {
    lr_mult: 2
    decay_mult: 0
  }
  convolution_param {
    num_output: 64
    pad: 2
    kernel_size: 5
    weight_filler {
      type: "xavier"
      std: 0.03
    }
    bias_filler {
      type: "constant"
      value: 0.2
    }
  }
}
layer {
  name: "inception_4c/relu_5x5"
  type: "ReLU"
  bottom: "inception_4c/5x5"
  top: "inception_4c/5x5"
}
layer {
  name: "inception_4c/pool"
  type: "Pooling"
  bottom: "inception_4b/output"
  top: "inception_4c/pool"
  pooling_param {
    pool: MAX
    kernel_size: 3
    stride: 1
    pad: 1
  }
}
layer {
  name: "inception_4c/pool_proj"
  type: "Convolution"
  bottom: "inception_4c/pool"
  top: "inception_4c/pool_proj"
  param {
    lr_mult: 1
    decay_mult: 1
  }
  param {
    lr_mult: 2
    decay_mult: 0
  }
  convolution_param {
    num_output: 64
    kernel_size: 1
    weight_filler {
      type: "xavier"
      std: 0.1
    }
    bias_filler {
      type: "constant"
      value: 0.2
    }
  }
}
layer {
  name: "inception_4c/relu_pool_proj"
  type: "ReLU"
  bottom: "inception_4c/pool_proj"
  top: "inception_4c/pool_proj"
}
layer {
  name: "inception_4c/output"
  type: "Concat"
  bottom: "inception_4c/1x1"
  bottom: "inception_4c/3x3"
  bottom: "inception_4c/5x5"
  bottom: "inception_4c/pool_proj"
  top: "inception_4c/output"
}
layer {
  name: "inception_4d/1x1"
  type: "Convolution"
  bottom: "inception_4c/output"
  top: "inception_4d/1x1"
  param {
    lr_mult: 1
    decay_mult: 1
  }
  param {
    lr_mult: 2
    decay_mult: 0
  }
  convolution_param {
    num_output: 112
    kernel_size: 1
    weight_filler {
      type: "xavier"
      std: 0.03
    }
    bias_filler {
      type: "constant"
      value: 0.2
    }
  }
}
layer {
  name: "inception_4d/relu_1x1"
  type: "ReLU"
  bottom: "inception_4d/1x1"
  top: "inception_4d/1x1"
}
layer {
  name: "inception_4d/3x3_reduce"
  type: "Convolution"
  bottom: "inception_4c/output"
  top: "inception_4d/3x3_reduce"
  param {
    lr_mult: 1
    decay_mult: 1
  }
  param {
    lr_mult: 2
    decay_mult: 0
  }
  convolution_param {
    num_output: 144
    kernel_size: 1
    weight_filler {
      type: "xavier"
      std: 0.09
    }
    bias_filler {
      type: "constant"
      value: 0.2
    }
  }
}
layer {
  name: "inception_4d/relu_3x3_reduce"
  type: "ReLU"
  bottom: "inception_4d/3x3_reduce"
  top: "inception_4d/3x3_reduce"
}
layer {
  name: "inception_4d/3x3"
  type: "Convolution"
  bottom: "inception_4d/3x3_reduce"
  top: "inception_4d/3x3"
  param {
    lr_mult: 1
    decay_mult: 1
  }
  param {
    lr_mult: 2
    decay_mult: 0
  }
  convolution_param {
    num_output: 288
    pad: 1
    kernel_size: 3
    weight_filler {
      type: "xavier"
      std: 0.03
    }
    bias_filler {
      type: "constant"
      value: 0.2
    }
  }
}
layer {
  name: "inception_4d/relu_3x3"
  type: "ReLU"
  bottom: "inception_4d/3x3"
  top: "inception_4d/3x3"
}
layer {
  name: "inception_4d/5x5_reduce"
  type: "Convolution"
  bottom: "inception_4c/output"
  top: "inception_4d/5x5_reduce"
  param {
    lr_mult: 1
    decay_mult: 1
  }
  param {
    lr_mult: 2
    decay_mult: 0
  }
  convolution_param {
    num_output: 32
    kernel_size: 1
    weight_filler {
      type: "xavier"
      std: 0.2
    }
    bias_filler {
      type: "constant"
      value: 0.2
    }
  }
}
layer {
  name: "inception_4d/relu_5x5_reduce"
  type: "ReLU"
  bottom: "inception_4d/5x5_reduce"
  top: "inception_4d/5x5_reduce"
}
layer {
  name: "inception_4d/5x5"
  type: "Convolution"
  bottom: "inception_4d/5x5_reduce"
  top: "inception_4d/5x5"
  param {
    lr_mult: 1
    decay_mult: 1
  }
  param {
    lr_mult: 2
    decay_mult: 0
  }
  convolution_param {
    num_output: 64
    pad: 2
    kernel_size: 5
    weight_filler {
      type: "xavier"
      std: 0.03
    }
    bias_filler {
      type: "constant"
      value: 0.2
    }
  }
}
layer {
  name: "inception_4d/relu_5x5"
  type: "ReLU"
  bottom: "inception_4d/5x5"
  top: "inception_4d/5x5"
}
layer {
  name: "inception_4d/pool"
  type: "Pooling"
  bottom: "inception_4c/output"
  top: "inception_4d/pool"
  pooling_param {
    pool: MAX
    kernel_size: 3
    stride: 1
    pad: 1
  }
}
layer {
  name: "inception_4d/pool_proj"
  type: "Convolution"
  bottom: "inception_4d/pool"
  top: "inception_4d/pool_proj"
  param {
    lr_mult: 1
    decay_mult: 1
  }
  param {
    lr_mult: 2
    decay_mult: 0
  }
  convolution_param {
    num_output: 64
    kernel_size: 1
    weight_filler {
      type: "xavier"
      std: 0.1
    }
    bias_filler {
      type: "constant"
      value: 0.2
    }
  }
}
layer {
  name: "inception_4d/relu_pool_proj"
  type: "ReLU"
  bottom: "inception_4d/pool_proj"
  top: "inception_4d/pool_proj"
}
layer {
  name: "inception_4d/output"
  type: "Concat"
  bottom: "inception_4d/1x1"
  bottom: "inception_4d/3x3"
  bottom: "inception_4d/5x5"
  bottom: "inception_4d/pool_proj"
  top: "inception_4d/output"
}
layer {
  name: "loss2/ave_pool"
  type: "Pooling"
  bottom: "inception_4d/output"
  top: "loss2/ave_pool"
  pooling_param {
    pool: AVE
    kernel_size: 5
    stride: 3
  }
}
layer {
  name: "loss2/conv"
  type: "Convolution"
  bottom: "loss2/ave_pool"
  top: "loss2/conv"
  param {
    lr_mult: 1
    decay_mult: 1
  }
  param {
    lr_mult: 2
    decay_mult: 0
  }
  convolution_param {
    num_output: 128
    kernel_size: 1
    weight_filler {
      type: "xavier"
      std: 0.08
    }
    bias_filler {
      type: "constant"
      value: 0.2
    }
  }
}
layer {
  name: "loss2/relu_conv"
  type: "ReLU"
  bottom: "loss2/conv"
  top: "loss2/conv"
}
layer {
  name: "loss2/fc"
  type: "InnerProduct"
  bottom: "loss2/conv"
  top: "loss2/fc"
  param {
    lr_mult: 1
    decay_mult: 1
  }
  param {
    lr_mult: 2
    decay_mult: 0
  }
  inner_product_param {
    num_output: 1024
    weight_filler {
      type: "xavier"
      std: 0.02
    }
    bias_filler {
      type: "constant"
      value: 0.2
    }
  }
}
layer {
  name: "loss2/relu_fc"
  type: "ReLU"
  bottom: "loss2/fc"
  top: "loss2/fc"
}
layer {
  name: "loss2/drop_fc"
  type: "Dropout"
  bottom: "loss2/fc"
  top: "loss2/fc"
  dropout_param {
    dropout_ratio: 0.7
  }
}
layer {
  name: "loss2/classifier_plantvillage"
  type: "InnerProduct"
  bottom: "loss2/fc"
  top: "loss2/classifier_plantvillage"
  param {
    lr_mult: 1
    decay_mult: 1
  }
  param {
    lr_mult: 2
    decay_mult: 0
  }
  inner_product_param {
    num_output: 38
    weight_filler {
      type: "xavier"
      std: 0.0009765625
    }
    bias_filler {
      type: "constant"
      value: 0
    }
  }
}
layer {
  name: "inception_4e/1x1"
  type: "Convolution"
  bottom: "inception_4d/output"
  top: "inception_4e/1x1"
  param {
    lr_mult: 1
    decay_mult: 1
  }
  param {
    lr_mult: 2
    decay_mult: 0
  }
  convolution_param {
    num_output: 256
    kernel_size: 1
    weight_filler {
      type: "xavier"
      std: 0.03
    }
    bias_filler {
      type: "constant"
      value: 0.2
    }
  }
}
layer {
  name: "inception_4e/relu_1x1"
  type: "ReLU"
  bottom: "inception_4e/1x1"
  top: "inception_4e/1x1"
}
layer {
  name: "inception_4e/3x3_reduce"
  type: "Convolution"
  bottom: "inception_4d/output"
  top: "inception_4e/3x3_reduce"
  param {
    lr_mult: 1
    decay_mult: 1
  }
  param {
    lr_mult: 2
    decay_mult: 0
  }
  convolution_param {
    num_output: 160
    kernel_size: 1
    weight_filler {
      type: "xavier"
      std: 0.09
    }
    bias_filler {
      type: "constant"
      value: 0.2
    }
  }
}
layer {
  name: "inception_4e/relu_3x3_reduce"
  type: "ReLU"
  bottom: "inception_4e/3x3_reduce"
  top: "inception_4e/3x3_reduce"
}
layer {
  name: "inception_4e/3x3"
  type: "Convolution"
  bottom: "inception_4e/3x3_reduce"
  top: "inception_4e/3x3"
  param {
    lr_mult: 1
    decay_mult: 1
  }
  param {
    lr_mult: 2
    decay_mult: 0
  }
  convolution_param {
    num_output: 320
    pad: 1
    kernel_size: 3
    weight_filler {
      type: "xavier"
      std: 0.03
    }
    bias_filler {
      type: "constant"
      value: 0.2
    }
  }
}
layer {
  name: "inception_4e/relu_3x3"
  type: "ReLU"
  bottom: "inception_4e/3x3"
  top: "inception_4e/3x3"
}
layer {
  name: "inception_4e/5x5_reduce"
  type: "Convolution"
  bottom: "inception_4d/output"
  top: "inception_4e/5x5_reduce"
  param {
    lr_mult: 1
    decay_mult: 1
  }
  param {
    lr_mult: 2
    decay_mult: 0
  }
  convolution_param {
    num_output: 32
    kernel_size: 1
    weight_filler {
      type: "xavier"
      std: 0.2
    }
    bias_filler {
      type: "constant"
      value: 0.2
    }
  }
}
layer {
  name: "inception_4e/relu_5x5_reduce"
  type: "ReLU"
  bottom: "inception_4e/5x5_reduce"
  top: "inception_4e/5x5_reduce"
}
layer {
  name: "inception_4e/5x5"
  type: "Convolution"
  bottom: "inception_4e/5x5_reduce"
  top: "inception_4e/
I0403 14:42:26.446496 11006 layer_factory.hpp:77] Creating layer data
I0403 14:42:26.447146 11006 net.cpp:91] Creating Layer data
I0403 14:42:26.447182 11006 net.cpp:399] data -> data
I0403 14:42:26.447234 11006 net.cpp:399] data -> label
I0403 14:42:26.447273 11006 data_transformer.cpp:25] Loading mean file from: /home/mohanty/data/final_dataset/lmdb/grayscale-60-40/mean.binaryproto
I0403 14:42:26.450152 11009 db_lmdb.cpp:38] Opened lmdb /home/mohanty/data/final_dataset/lmdb/grayscale-60-40/test_db
I0403 14:42:26.461261 11006 data_layer.cpp:41] output data size: 24,3,224,224
I0403 14:42:26.489246 11006 net.cpp:141] Setting up data
I0403 14:42:26.489351 11006 net.cpp:148] Top shape: 24 3 224 224 (3612672)
I0403 14:42:26.489374 11006 net.cpp:148] Top shape: 24 (24)
I0403 14:42:26.489390 11006 net.cpp:156] Memory required for data: 14450784
I0403 14:42:26.489420 11006 layer_factory.hpp:77] Creating layer label_data_1_split
I0403 14:42:26.489447 11006 net.cpp:91] Creating Layer label_data_1_split
I0403 14:42:26.489466 11006 net.cpp:425] label_data_1_split <- label
I0403 14:42:26.489498 11006 net.cpp:399] label_data_1_split -> label_data_1_split_0
I0403 14:42:26.489527 11006 net.cpp:399] label_data_1_split -> label_data_1_split_1
I0403 14:42:26.489550 11006 net.cpp:399] label_data_1_split -> label_data_1_split_2
I0403 14:42:26.489572 11006 net.cpp:399] label_data_1_split -> label_data_1_split_3
I0403 14:42:26.489591 11006 net.cpp:399] label_data_1_split -> label_data_1_split_4
I0403 14:42:26.489611 11006 net.cpp:399] label_data_1_split -> label_data_1_split_5
I0403 14:42:26.489630 11006 net.cpp:399] label_data_1_split -> label_data_1_split_6
I0403 14:42:26.489652 11006 net.cpp:399] label_data_1_split -> label_data_1_split_7
I0403 14:42:26.489673 11006 net.cpp:399] label_data_1_split -> label_data_1_split_8
I0403 14:42:26.489693 11006 net.cpp:399] label_data_1_split -> label_data_1_split_9
I0403 14:42:26.489814 11006 net.cpp:141] Setting up label_data_1_split
I0403 14:42:26.489838 11006 net.cpp:148] Top shape: 24 (24)
I0403 14:42:26.489856 11006 net.cpp:148] Top shape: 24 (24)
I0403 14:42:26.489871 11006 net.cpp:148] Top shape: 24 (24)
I0403 14:42:26.489888 11006 net.cpp:148] Top shape: 24 (24)
I0403 14:42:26.489904 11006 net.cpp:148] Top shape: 24 (24)
I0403 14:42:26.489920 11006 net.cpp:148] Top shape: 24 (24)
I0403 14:42:26.489935 11006 net.cpp:148] Top shape: 24 (24)
I0403 14:42:26.489951 11006 net.cpp:148] Top shape: 24 (24)
I0403 14:42:26.489969 11006 net.cpp:148] Top shape: 24 (24)
I0403 14:42:26.489985 11006 net.cpp:148] Top shape: 24 (24)
I0403 14:42:26.490031 11006 net.cpp:156] Memory required for data: 14451744
I0403 14:42:26.490048 11006 layer_factory.hpp:77] Creating layer conv1/7x7_s2
I0403 14:42:26.490080 11006 net.cpp:91] Creating Layer conv1/7x7_s2
I0403 14:42:26.490118 11006 net.cpp:425] conv1/7x7_s2 <- data
I0403 14:42:26.490141 11006 net.cpp:399] conv1/7x7_s2 -> conv1/7x7_s2
I0403 14:42:26.636255 11006 net.cpp:141] Setting up conv1/7x7_s2
I0403 14:42:26.636343 11006 net.cpp:148] Top shape: 24 64 112 112 (19267584)
I0403 14:42:26.636361 11006 net.cpp:156] Memory required for data: 91522080
I0403 14:42:26.636394 11006 layer_factory.hpp:77] Creating layer conv1/relu_7x7
I0403 14:42:26.636423 11006 net.cpp:91] Creating Layer conv1/relu_7x7
I0403 14:42:26.636443 11006 net.cpp:425] conv1/relu_7x7 <- conv1/7x7_s2
I0403 14:42:26.636463 11006 net.cpp:386] conv1/relu_7x7 -> conv1/7x7_s2 (in-place)
I0403 14:42:26.636755 11006 net.cpp:141] Setting up conv1/relu_7x7
I0403 14:42:26.636785 11006 net.cpp:148] Top shape: 24 64 112 112 (19267584)
I0403 14:42:26.636801 11006 net.cpp:156] Memory required for data: 168592416
I0403 14:42:26.636817 11006 layer_factory.hpp:77] Creating layer pool1/3x3_s2
I0403 14:42:26.636844 11006 net.cpp:91] Creating Layer pool1/3x3_s2
I0403 14:42:26.636863 11006 net.cpp:425] pool1/3x3_s2 <- conv1/7x7_s2
I0403 14:42:26.636883 11006 net.cpp:399] pool1/3x3_s2 -> pool1/3x3_s2
I0403 14:42:26.636960 11006 net.cpp:141] Setting up pool1/3x3_s2
I0403 14:42:26.636986 11006 net.cpp:148] Top shape: 24 64 56 56 (4816896)
I0403 14:42:26.637001 11006 net.cpp:156] Memory required for data: 187860000
I0403 14:42:26.637015 11006 layer_factory.hpp:77] Creating layer pool1/norm1
I0403 14:42:26.637042 11006 net.cpp:91] Creating Layer pool1/norm1
I0403 14:42:26.637058 11006 net.cpp:425] pool1/norm1 <- pool1/3x3_s2
I0403 14:42:26.637078 11006 net.cpp:399] pool1/norm1 -> pool1/norm1
I0403 14:42:26.637377 11006 net.cpp:141] Setting up pool1/norm1
I0403 14:42:26.637406 11006 net.cpp:148] Top shape: 24 64 56 56 (4816896)
I0403 14:42:26.637423 11006 net.cpp:156] Memory required for data: 207127584
I0403 14:42:26.637439 11006 layer_factory.hpp:77] Creating layer conv2/3x3_reduce
I0403 14:42:26.637465 11006 net.cpp:91] Creating Layer conv2/3x3_reduce
I0403 14:42:26.637483 11006 net.cpp:425] conv2/3x3_reduce <- pool1/norm1
I0403 14:42:26.637503 11006 net.cpp:399] conv2/3x3_reduce -> conv2/3x3_reduce
I0403 14:42:26.638921 11006 net.cpp:141] Setting up conv2/3x3_reduce
I0403 14:42:26.638953 11006 net.cpp:148] Top shape: 24 64 56 56 (4816896)
I0403 14:42:26.638970 11006 net.cpp:156] Memory required for data: 226395168
I0403 14:42:26.638993 11006 layer_factory.hpp:77] Creating layer conv2/relu_3x3_reduce
I0403 14:42:26.639013 11006 net.cpp:91] Creating Layer conv2/relu_3x3_reduce
I0403 14:42:26.639027 11006 net.cpp:425] conv2/relu_3x3_reduce <- conv2/3x3_reduce
I0403 14:42:26.639045 11006 net.cpp:386] conv2/relu_3x3_reduce -> conv2/3x3_reduce (in-place)
I0403 14:42:26.639312 11006 net.cpp:141] Setting up conv2/relu_3x3_reduce
I0403 14:42:26.639339 11006 net.cpp:148] Top shape: 24 64 56 56 (4816896)
I0403 14:42:26.639358 11006 net.cpp:156] Memory required for data: 245662752
I0403 14:42:26.639374 11006 layer_factory.hpp:77] Creating layer conv2/3x3
I0403 14:42:26.639397 11006 net.cpp:91] Creating Layer conv2/3x3
I0403 14:42:26.639416 11006 net.cpp:425] conv2/3x3 <- conv2/3x3_reduce
I0403 14:42:26.639436 11006 net.cpp:399] conv2/3x3 -> conv2/3x3
I0403 14:42:26.641793 11006 net.cpp:141] Setting up conv2/3x3
I0403 14:42:26.641827 11006 net.cpp:148] Top shape: 24 192 56 56 (14450688)
I0403 14:42:26.641844 11006 net.cpp:156] Memory required for data: 303465504
I0403 14:42:26.641866 11006 layer_factory.hpp:77] Creating layer conv2/relu_3x3
I0403 14:42:26.641886 11006 net.cpp:91] Creating Layer conv2/relu_3x3
I0403 14:42:26.641902 11006 net.cpp:425] conv2/relu_3x3 <- conv2/3x3
I0403 14:42:26.641922 11006 net.cpp:386] conv2/relu_3x3 -> conv2/3x3 (in-place)
I0403 14:42:26.642089 11006 net.cpp:141] Setting up conv2/relu_3x3
I0403 14:42:26.642122 11006 net.cpp:148] Top shape: 24 192 56 56 (14450688)
I0403 14:42:26.642170 11006 net.cpp:156] Memory required for data: 361268256
I0403 14:42:26.642189 11006 layer_factory.hpp:77] Creating layer conv2/norm2
I0403 14:42:26.642207 11006 net.cpp:91] Creating Layer conv2/norm2
I0403 14:42:26.642223 11006 net.cpp:425] conv2/norm2 <- conv2/3x3
I0403 14:42:26.642242 11006 net.cpp:399] conv2/norm2 -> conv2/norm2
I0403 14:42:26.642542 11006 net.cpp:141] Setting up conv2/norm2
I0403 14:42:26.642572 11006 net.cpp:148] Top shape: 24 192 56 56 (14450688)
I0403 14:42:26.642588 11006 net.cpp:156] Memory required for data: 419071008
I0403 14:42:26.642604 11006 layer_factory.hpp:77] Creating layer pool2/3x3_s2
I0403 14:42:26.642623 11006 net.cpp:91] Creating Layer pool2/3x3_s2
I0403 14:42:26.642640 11006 net.cpp:425] pool2/3x3_s2 <- conv2/norm2
I0403 14:42:26.642659 11006 net.cpp:399] pool2/3x3_s2 -> pool2/3x3_s2
I0403 14:42:26.642712 11006 net.cpp:141] Setting up pool2/3x3_s2
I0403 14:42:26.642736 11006 net.cpp:148] Top shape: 24 192 28 28 (3612672)
I0403 14:42:26.642752 11006 net.cpp:156] Memory required for data: 433521696
I0403 14:42:26.642767 11006 layer_factory.hpp:77] Creating layer pool2/3x3_s2_pool2/3x3_s2_0_split
I0403 14:42:26.642786 11006 net.cpp:91] Creating Layer pool2/3x3_s2_pool2/3x3_s2_0_split
I0403 14:42:26.642802 11006 net.cpp:425] pool2/3x3_s2_pool2/3x3_s2_0_split <- pool2/3x3_s2
I0403 14:42:26.642819 11006 net.cpp:399] pool2/3x3_s2_pool2/3x3_s2_0_split -> pool2/3x3_s2_pool2/3x3_s2_0_split_0
I0403 14:42:26.642839 11006 net.cpp:399] pool2/3x3_s2_pool2/3x3_s2_0_split -> pool2/3x3_s2_pool2/3x3_s2_0_split_1
I0403 14:42:26.642859 11006 net.cpp:399] pool2/3x3_s2_pool2/3x3_s2_0_split -> pool2/3x3_s2_pool2/3x3_s2_0_split_2
I0403 14:42:26.642879 11006 net.cpp:399] pool2/3x3_s2_pool2/3x3_s2_0_split -> pool2/3x3_s2_pool2/3x3_s2_0_split_3
I0403 14:42:26.642946 11006 net.cpp:141] Setting up pool2/3x3_s2_pool2/3x3_s2_0_split
I0403 14:42:26.642969 11006 net.cpp:148] Top shape: 24 192 28 28 (3612672)
I0403 14:42:26.642987 11006 net.cpp:148] Top shape: 24 192 28 28 (3612672)
I0403 14:42:26.643003 11006 net.cpp:148] Top shape: 24 192 28 28 (3612672)
I0403 14:42:26.643020 11006 net.cpp:148] Top shape: 24 192 28 28 (3612672)
I0403 14:42:26.643034 11006 net.cpp:156] Memory required for data: 491324448
I0403 14:42:26.643049 11006 layer_factory.hpp:77] Creating layer inception_3a/1x1
I0403 14:42:26.643070 11006 net.cpp:91] Creating Layer inception_3a/1x1
I0403 14:42:26.643087 11006 net.cpp:425] inception_3a/1x1 <- pool2/3x3_s2_pool2/3x3_s2_0_split_0
I0403 14:42:26.643124 11006 net.cpp:399] inception_3a/1x1 -> inception_3a/1x1
I0403 14:42:26.644650 11006 net.cpp:141] Setting up inception_3a/1x1
I0403 14:42:26.644682 11006 net.cpp:148] Top shape: 24 64 28 28 (1204224)
I0403 14:42:26.644700 11006 net.cpp:156] Memory required for data: 496141344
I0403 14:42:26.644719 11006 layer_factory.hpp:77] Creating layer inception_3a/relu_1x1
I0403 14:42:26.644738 11006 net.cpp:91] Creating Layer inception_3a/relu_1x1
I0403 14:42:26.644755 11006 net.cpp:425] inception_3a/relu_1x1 <- inception_3a/1x1
I0403 14:42:26.644773 11006 net.cpp:386] inception_3a/relu_1x1 -> inception_3a/1x1 (in-place)
I0403 14:42:26.644937 11006 net.cpp:141] Setting up inception_3a/relu_1x1
I0403 14:42:26.644964 11006 net.cpp:148] Top shape: 24 64 28 28 (1204224)
I0403 14:42:26.644979 11006 net.cpp:156] Memory required for data: 500958240
I0403 14:42:26.644994 11006 layer_factory.hpp:77] Creating layer inception_3a/3x3_reduce
I0403 14:42:26.645015 11006 net.cpp:91] Creating Layer inception_3a/3x3_reduce
I0403 14:42:26.645033 11006 net.cpp:425] inception_3a/3x3_reduce <- pool2/3x3_s2_pool2/3x3_s2_0_split_1
I0403 14:42:26.645053 11006 net.cpp:399] inception_3a/3x3_reduce -> inception_3a/3x3_reduce
I0403 14:42:26.646761 11006 net.cpp:141] Setting up inception_3a/3x3_reduce
I0403 14:42:26.646793 11006 net.cpp:148] Top shape: 24 96 28 28 (1806336)
I0403 14:42:26.646811 11006 net.cpp:156] Memory required for data: 508183584
I0403 14:42:26.646833 11006 layer_factory.hpp:77] Creating layer inception_3a/relu_3x3_reduce
I0403 14:42:26.646875 11006 net.cpp:91] Creating Layer inception_3a/relu_3x3_reduce
I0403 14:42:26.646895 11006 net.cpp:425] inception_3a/relu_3x3_reduce <- inception_3a/3x3_reduce
I0403 14:42:26.646914 11006 net.cpp:386] inception_3a/relu_3x3_reduce -> inception_3a/3x3_reduce (in-place)
I0403 14:42:26.647111 11006 net.cpp:141] Setting up inception_3a/relu_3x3_reduce
I0403 14:42:26.647138 11006 net.cpp:148] Top shape: 24 96 28 28 (1806336)
I0403 14:42:26.647155 11006 net.cpp:156] Memory required for data: 515408928
I0403 14:42:26.647171 11006 layer_factory.hpp:77] Creating layer inception_3a/3x3
I0403 14:42:26.647194 11006 net.cpp:91] Creating Layer inception_3a/3x3
I0403 14:42:26.647213 11006 net.cpp:425] inception_3a/3x3 <- inception_3a/3x3_reduce
I0403 14:42:26.647234 11006 net.cpp:399] inception_3a/3x3 -> inception_3a/3x3
I0403 14:42:26.648954 11006 net.cpp:141] Setting up inception_3a/3x3
I0403 14:42:26.648984 11006 net.cpp:148] Top shape: 24 128 28 28 (2408448)
I0403 14:42:26.649001 11006 net.cpp:156] Memory required for data: 525042720
I0403 14:42:26.649021 11006 layer_factory.hpp:77] Creating layer inception_3a/relu_3x3
I0403 14:42:26.649042 11006 net.cpp:91] Creating Layer inception_3a/relu_3x3
I0403 14:42:26.649060 11006 net.cpp:425] inception_3a/relu_3x3 <- inception_3a/3x3
I0403 14:42:26.649076 11006 net.cpp:386] inception_3a/relu_3x3 -> inception_3a/3x3 (in-place)
I0403 14:42:26.649366 11006 net.cpp:141] Setting up inception_3a/relu_3x3
I0403 14:42:26.649395 11006 net.cpp:148] Top shape: 24 128 28 28 (2408448)
I0403 14:42:26.649411 11006 net.cpp:156] Memory required for data: 534676512
I0403 14:42:26.649427 11006 layer_factory.hpp:77] Creating layer inception_3a/5x5_reduce
I0403 14:42:26.649451 11006 net.cpp:91] Creating Layer inception_3a/5x5_reduce
I0403 14:42:26.649468 11006 net.cpp:425] inception_3a/5x5_reduce <- pool2/3x3_s2_pool2/3x3_s2_0_split_2
I0403 14:42:26.649490 11006 net.cpp:399] inception_3a/5x5_reduce -> inception_3a/5x5_reduce
I0403 14:42:26.650487 11006 net.cpp:141] Setting up inception_3a/5x5_reduce
I0403 14:42:26.650522 11006 net.cpp:148] Top shape: 24 16 28 28 (301056)
I0403 14:42:26.650542 11006 net.cpp:156] Memory required for data: 535880736
I0403 14:42:26.650562 11006 layer_factory.hpp:77] Creating layer inception_3a/relu_5x5_reduce
I0403 14:42:26.650580 11006 net.cpp:91] Creating Layer inception_3a/relu_5x5_reduce
I0403 14:42:26.650596 11006 net.cpp:425] inception_3a/relu_5x5_reduce <- inception_3a/5x5_reduce
I0403 14:42:26.650614 11006 net.cpp:386] inception_3a/relu_5x5_reduce -> inception_3a/5x5_reduce (in-place)
I0403 14:42:26.650918 11006 net.cpp:141] Setting up inception_3a/relu_5x5_reduce
I0403 14:42:26.650949 11006 net.cpp:148] Top shape: 24 16 28 28 (301056)
I0403 14:42:26.650966 11006 net.cpp:156] Memory required for data: 537084960
I0403 14:42:26.650984 11006 layer_factory.hpp:77] Creating layer inception_3a/5x5
I0403 14:42:26.651007 11006 net.cpp:91] Creating Layer inception_3a/5x5
I0403 14:42:26.651026 11006 net.cpp:425] inception_3a/5x5 <- inception_3a/5x5_reduce
I0403 14:42:26.651046 11006 net.cpp:399] inception_3a/5x5 -> inception_3a/5x5
I0403 14:42:26.652109 11006 net.cpp:141] Setting up inception_3a/5x5
I0403 14:42:26.652139 11006 net.cpp:148] Top shape: 24 32 28 28 (602112)
I0403 14:42:26.652155 11006 net.cpp:156] Memory required for data: 539493408
I0403 14:42:26.652174 11006 layer_factory.hpp:77] Creating layer inception_3a/relu_5x5
I0403 14:42:26.652197 11006 net.cpp:91] Creating Layer inception_3a/relu_5x5
I0403 14:42:26.652215 11006 net.cpp:425] inception_3a/relu_5x5 <- inception_3a/5x5
I0403 14:42:26.652232 11006 net.cpp:386] inception_3a/relu_5x5 -> inception_3a/5x5 (in-place)
I0403 14:42:26.652415 11006 net.cpp:141] Setting up inception_3a/relu_5x5
I0403 14:42:26.652441 11006 net.cpp:148] Top shape: 24 32 28 28 (602112)
I0403 14:42:26.652457 11006 net.cpp:156] Memory required for data: 541901856
I0403 14:42:26.652472 11006 layer_factory.hpp:77] Creating layer inception_3a/pool
I0403 14:42:26.652494 11006 net.cpp:91] Creating Layer inception_3a/pool
I0403 14:42:26.652525 11006 net.cpp:425] inception_3a/pool <- pool2/3x3_s2_pool2/3x3_s2_0_split_3
I0403 14:42:26.652546 11006 net.cpp:399] inception_3a/pool -> inception_3a/pool
I0403 14:42:26.652611 11006 net.cpp:141] Setting up inception_3a/pool
I0403 14:42:26.652637 11006 net.cpp:148] Top shape: 24 192 28 28 (3612672)
I0403 14:42:26.652652 11006 net.cpp:156] Memory required for data: 556352544
I0403 14:42:26.652668 11006 layer_factory.hpp:77] Creating layer inception_3a/pool_proj
I0403 14:42:26.652691 11006 net.cpp:91] Creating Layer inception_3a/pool_proj
I0403 14:42:26.652710 11006 net.cpp:425] inception_3a/pool_proj <- inception_3a/pool
I0403 14:42:26.652732 11006 net.cpp:399] inception_3a/pool_proj -> inception_3a/pool_proj
I0403 14:42:26.653748 11006 net.cpp:141] Setting up inception_3a/pool_proj
I0403 14:42:26.653782 11006 net.cpp:148] Top shape: 24 32 28 28 (602112)
I0403 14:42:26.653800 11006 net.cpp:156] Memory required for data: 558760992
I0403 14:42:26.653826 11006 layer_factory.hpp:77] Creating layer inception_3a/relu_pool_proj
I0403 14:42:26.653847 11006 net.cpp:91] Creating Layer inception_3a/relu_pool_proj
I0403 14:42:26.653863 11006 net.cpp:425] inception_3a/relu_pool_proj <- inception_3a/pool_proj
I0403 14:42:26.653882 11006 net.cpp:386] inception_3a/relu_pool_proj -> inception_3a/pool_proj (in-place)
I0403 14:42:26.654171 11006 net.cpp:141] Setting up inception_3a/relu_pool_proj
I0403 14:42:26.654199 11006 net.cpp:148] Top shape: 24 32 28 28 (602112)
I0403 14:42:26.654217 11006 net.cpp:156] Memory required for data: 561169440
I0403 14:42:26.654232 11006 layer_factory.hpp:77] Creating layer inception_3a/output
I0403 14:42:26.654253 11006 net.cpp:91] Creating Layer inception_3a/output
I0403 14:42:26.654270 11006 net.cpp:425] inception_3a/output <- inception_3a/1x1
I0403 14:42:26.654289 11006 net.cpp:425] inception_3a/output <- inception_3a/3x3
I0403 14:42:26.654305 11006 net.cpp:425] inception_3a/output <- inception_3a/5x5
I0403 14:42:26.654321 11006 net.cpp:425] inception_3a/output <- inception_3a/pool_proj
I0403 14:42:26.654340 11006 net.cpp:399] inception_3a/output -> inception_3a/output
I0403 14:42:26.654392 11006 net.cpp:141] Setting up inception_3a/output
I0403 14:42:26.654415 11006 net.cpp:148] Top shape: 24 256 28 28 (4816896)
I0403 14:42:26.654431 11006 net.cpp:156] Memory required for data: 580437024
I0403 14:42:26.654448 11006 layer_factory.hpp:77] Creating layer inception_3a/output_inception_3a/output_0_split
I0403 14:42:26.654465 11006 net.cpp:91] Creating Layer inception_3a/output_inception_3a/output_0_split
I0403 14:42:26.654481 11006 net.cpp:425] inception_3a/output_inception_3a/output_0_split <- inception_3a/output
I0403 14:42:26.654502 11006 net.cpp:399] inception_3a/output_inception_3a/output_0_split -> inception_3a/output_inception_3a/output_0_split_0
I0403 14:42:26.654525 11006 net.cpp:399] inception_3a/output_inception_3a/output_0_split -> inception_3a/output_inception_3a/output_0_split_1
I0403 14:42:26.654547 11006 net.cpp:399] inception_3a/output_inception_3a/output_0_split -> inception_3a/output_inception_3a/output_0_split_2
I0403 14:42:26.654572 11006 net.cpp:399] inception_3a/output_inception_3a/output_0_split -> inception_3a/output_inception_3a/output_0_split_3
I0403 14:42:26.654652 11006 net.cpp:141] Setting up inception_3a/output_inception_3a/output_0_split
I0403 14:42:26.654676 11006 net.cpp:148] Top shape: 24 256 28 28 (4816896)
I0403 14:42:26.654695 11006 net.cpp:148] Top shape: 24 256 28 28 (4816896)
I0403 14:42:26.654711 11006 net.cpp:148] Top shape: 24 256 28 28 (4816896)
I0403 14:42:26.654727 11006 net.cpp:148] Top shape: 24 256 28 28 (4816896)
I0403 14:42:26.654742 11006 net.cpp:156] Memory required for data: 657507360
I0403 14:42:26.654757 11006 layer_factory.hpp:77] Creating layer inception_3b/1x1
I0403 14:42:26.654779 11006 net.cpp:91] Creating Layer inception_3b/1x1
I0403 14:42:26.654798 11006 net.cpp:425] inception_3b/1x1 <- inception_3a/output_inception_3a/output_0_split_0
I0403 14:42:26.654820 11006 net.cpp:399] inception_3b/1x1 -> inception_3b/1x1
I0403 14:42:26.656011 11006 net.cpp:141] Setting up inception_3b/1x1
I0403 14:42:26.656054 11006 net.cpp:148] Top shape: 24 128 28 28 (2408448)
I0403 14:42:26.656069 11006 net.cpp:156] Memory required for data: 667141152
I0403 14:42:26.656088 11006 layer_factory.hpp:77] Creating layer inception_3b/relu_1x1
I0403 14:42:26.656113 11006 net.cpp:91] Creating Layer inception_3b/relu_1x1
I0403 14:42:26.656131 11006 net.cpp:425] inception_3b/relu_1x1 <- inception_3b/1x1
I0403 14:42:26.656152 11006 net.cpp:386] inception_3b/relu_1x1 -> inception_3b/1x1 (in-place)
I0403 14:42:26.656333 11006 net.cpp:141] Setting up inception_3b/relu_1x1
I0403 14:42:26.656363 11006 net.cpp:148] Top shape: 24 128 28 28 (2408448)
I0403 14:42:26.656378 11006 net.cpp:156] Memory required for data: 676774944
I0403 14:42:26.656394 11006 layer_factory.hpp:77] Creating layer inception_3b/3x3_reduce
I0403 14:42:26.656417 11006 net.cpp:91] Creating Layer inception_3b/3x3_reduce
I0403 14:42:26.656436 11006 net.cpp:425] inception_3b/3x3_reduce <- inception_3a/output_inception_3a/output_0_split_1
I0403 14:42:26.656460 11006 net.cpp:399] inception_3b/3x3_reduce -> inception_3b/3x3_reduce
I0403 14:42:26.657668 11006 net.cpp:141] Setting up inception_3b/3x3_reduce
I0403 14:42:26.657699 11006 net.cpp:148] Top shape: 24 128 28 28 (2408448)
I0403 14:42:26.657716 11006 net.cpp:156] Memory required for data: 686408736
I0403 14:42:26.657734 11006 layer_factory.hpp:77] Creating layer inception_3b/relu_3x3_reduce
I0403 14:42:26.657757 11006 net.cpp:91] Creating Layer inception_3b/relu_3x3_reduce
I0403 14:42:26.657774 11006 net.cpp:425] inception_3b/relu_3x3_reduce <- inception_3b/3x3_reduce
I0403 14:42:26.657793 11006 net.cpp:386] inception_3b/relu_3x3_reduce -> inception_3b/3x3_reduce (in-place)
I0403 14:42:26.657974 11006 net.cpp:141] Setting up inception_3b/relu_3x3_reduce
I0403 14:42:26.658001 11006 net.cpp:148] Top shape: 24 128 28 28 (2408448)
I0403 14:42:26.658016 11006 net.cpp:156] Memory required for data: 696042528
I0403 14:42:26.658032 11006 layer_factory.hpp:77] Creating layer inception_3b/3x3
I0403 14:42:26.658061 11006 net.cpp:91] Creating Layer inception_3b/3x3
I0403 14:42:26.658079 11006 net.cpp:425] inception_3b/3x3 <- inception_3b/3x3_reduce
I0403 14:42:26.658104 11006 net.cpp:399] inception_3b/3x3 -> inception_3b/3x3
I0403 14:42:26.661180 11006 net.cpp:141] Setting up inception_3b/3x3
I0403 14:42:26.661211 11006 net.cpp:148] Top shape: 24 192 28 28 (3612672)
I0403 14:42:26.661227 11006 net.cpp:156] Memory required for data: 710493216
I0403 14:42:26.661247 11006 layer_factory.hpp:77] Creating layer inception_3b/relu_3x3
I0403 14:42:26.661267 11006 net.cpp:91] Creating Layer inception_3b/relu_3x3
I0403 14:42:26.661285 11006 net.cpp:425] inception_3b/relu_3x3 <- inception_3b/3x3
I0403 14:42:26.661304 11006 net.cpp:386] inception_3b/relu_3x3 -> inception_3b/3x3 (in-place)
I0403 14:42:26.661598 11006 net.cpp:141] Setting up inception_3b/relu_3x3
I0403 14:42:26.661626 11006 net.cpp:148] Top shape: 24 192 28 28 (3612672)
I0403 14:42:26.661643 11006 net.cpp:156] Memory required for data: 724943904
I0403 14:42:26.661658 11006 layer_factory.hpp:77] Creating layer inception_3b/5x5_reduce
I0403 14:42:26.661681 11006 net.cpp:91] Creating Layer inception_3b/5x5_reduce
I0403 14:42:26.661700 11006 net.cpp:425] inception_3b/5x5_reduce <- inception_3a/output_inception_3a/output_0_split_2
I0403 14:42:26.661723 11006 net.cpp:399] inception_3b/5x5_reduce -> inception_3b/5x5_reduce
I0403 14:42:26.662781 11006 net.cpp:141] Setting up inception_3b/5x5_reduce
I0403 14:42:26.662811 11006 net.cpp:148] Top shape: 24 32 28 28 (602112)
I0403 14:42:26.662828 11006 net.cpp:156] Memory required for data: 727352352
I0403 14:42:26.662847 11006 layer_factory.hpp:77] Creating layer inception_3b/relu_5x5_reduce
I0403 14:42:26.662876 11006 net.cpp:91] Creating Layer inception_3b/relu_5x5_reduce
I0403 14:42:26.662894 11006 net.cpp:425] inception_3b/relu_5x5_reduce <- inception_3b/5x5_reduce
I0403 14:42:26.662911 11006 net.cpp:386] inception_3b/relu_5x5_reduce -> inception_3b/5x5_reduce (in-place)
I0403 14:42:26.663131 11006 net.cpp:141] Setting up inception_3b/relu_5x5_reduce
I0403 14:42:26.663161 11006 net.cpp:148] Top shape: 24 32 28 28 (602112)
I0403 14:42:26.663178 11006 net.cpp:156] Memory required for data: 729760800
I0403 14:42:26.663193 11006 layer_factory.hpp:77] Creating layer inception_3b/5x5
I0403 14:42:26.663218 11006 net.cpp:91] Creating Layer inception_3b/5x5
I0403 14:42:26.663236 11006 net.cpp:425] inception_3b/5x5 <- inception_3b/5x5_reduce
I0403 14:42:26.663265 11006 net.cpp:399] inception_3b/5x5 -> inception_3b/5x5
I0403 14:42:26.665300 11006 net.cpp:141] Setting up inception_3b/5x5
I0403 14:42:26.665331 11006 net.cpp:148] Top shape: 24 96 28 28 (1806336)
I0403 14:42:26.665349 11006 net.cpp:156] Memory required for data: 736986144
I0403 14:42:26.665366 11006 layer_factory.hpp:77] Creating layer inception_3b/relu_5x5
I0403 14:42:26.665385 11006 net.cpp:91] Creating Layer inception_3b/relu_5x5
I0403 14:42:26.665405 11006 net.cpp:425] inception_3b/relu_5x5 <- inception_3b/5x5
I0403 14:42:26.665423 11006 net.cpp:386] inception_3b/relu_5x5 -> inception_3b/5x5 (in-place)
I0403 14:42:26.665616 11006 net.cpp:141] Setting up inception_3b/relu_5x5
I0403 14:42:26.665642 11006 net.cpp:148] Top shape: 24 96 28 28 (1806336)
I0403 14:42:26.665657 11006 net.cpp:156] Memory required for data: 744211488
I0403 14:42:26.665670 11006 layer_factory.hpp:77] Creating layer inception_3b/pool
I0403 14:42:26.665688 11006 net.cpp:91] Creating Layer inception_3b/pool
I0403 14:42:26.665704 11006 net.cpp:425] inception_3b/pool <- inception_3a/output_inception_3a/output_0_split_3
I0403 14:42:26.665724 11006 net.cpp:399] inception_3b/pool -> inception_3b/pool
I0403 14:42:26.665781 11006 net.cpp:141] Setting up inception_3b/pool
I0403 14:42:26.665807 11006 net.cpp:148] Top shape: 24 256 28 28 (4816896)
I0403 14:42:26.665822 11006 net.cpp:156] Memory required for data: 763479072
I0403 14:42:26.665837 11006 layer_factory.hpp:77] Creating layer inception_3b/pool_proj
I0403 14:42:26.665859 11006 net.cpp:91] Creating Layer inception_3b/pool_proj
I0403 14:42:26.665877 11006 net.cpp:425] inception_3b/pool_proj <- inception_3b/pool
I0403 14:42:26.665899 11006 net.cpp:399] inception_3b/pool_proj -> inception_3b/pool_proj
I0403 14:42:26.666970 11006 net.cpp:141] Setting up inception_3b/pool_proj
I0403 14:42:26.667001 11006 net.cpp:148] Top shape: 24 64 28 28 (1204224)
I0403 14:42:26.667019 11006 net.cpp:156] Memory required for data: 768295968
I0403 14:42:26.667038 11006 layer_factory.hpp:77] Creating layer inception_3b/relu_pool_proj
I0403 14:42:26.667057 11006 net.cpp:91] Creating Layer inception_3b/relu_pool_proj
I0403 14:42:26.667073 11006 net.cpp:425] inception_3b/relu_pool_proj <- inception_3b/pool_proj
I0403 14:42:26.667098 11006 net.cpp:386] inception_3b/relu_pool_proj -> inception_3b/pool_proj (in-place)
I0403 14:42:26.667498 11006 net.cpp:141] Setting up inception_3b/relu_pool_proj
I0403 14:42:26.667529 11006 net.cpp:148] Top shape: 24 64 28 28 (1204224)
I0403 14:42:26.667544 11006 net.cpp:156] Memory required for data: 773112864
I0403 14:42:26.667559 11006 layer_factory.hpp:77] Creating layer inception_3b/output
I0403 14:42:26.667577 11006 net.cpp:91] Creating Layer inception_3b/output
I0403 14:42:26.667593 11006 net.cpp:425] inception_3b/output <- inception_3b/1x1
I0403 14:42:26.667610 11006 net.cpp:425] inception_3b/output <- inception_3b/3x3
I0403 14:42:26.667626 11006 net.cpp:425] inception_3b/output <- inception_3b/5x5
I0403 14:42:26.667642 11006 net.cpp:425] inception_3b/output <- inception_3b/pool_proj
I0403 14:42:26.667659 11006 net.cpp:399] inception_3b/output -> inception_3b/output
I0403 14:42:26.667706 11006 net.cpp:141] Setting up inception_3b/output
I0403 14:42:26.667731 11006 net.cpp:148] Top shape: 24 480 28 28 (9031680)
I0403 14:42:26.667745 11006 net.cpp:156] Memory required for data: 809239584
I0403 14:42:26.667760 11006 layer_factory.hpp:77] Creating layer pool3/3x3_s2
I0403 14:42:26.667783 11006 net.cpp:91] Creating Layer pool3/3x3_s2
I0403 14:42:26.667801 11006 net.cpp:425] pool3/3x3_s2 <- inception_3b/output
I0403 14:42:26.667837 11006 net.cpp:399] pool3/3x3_s2 -> pool3/3x3_s2
I0403 14:42:26.667898 11006 net.cpp:141] Setting up pool3/3x3_s2
I0403 14:42:26.667923 11006 net.cpp:148] Top shape: 24 480 14 14 (2257920)
I0403 14:42:26.667938 11006 net.cpp:156] Memory required for data: 818271264
I0403 14:42:26.667953 11006 layer_factory.hpp:77] Creating layer pool3/3x3_s2_pool3/3x3_s2_0_split
I0403 14:42:26.667971 11006 net.cpp:91] Creating Layer pool3/3x3_s2_pool3/3x3_s2_0_split
I0403 14:42:26.667985 11006 net.cpp:425] pool3/3x3_s2_pool3/3x3_s2_0_split <- pool3/3x3_s2
I0403 14:42:26.668004 11006 net.cpp:399] pool3/3x3_s2_pool3/3x3_s2_0_split -> pool3/3x3_s2_pool3/3x3_s2_0_split_0
I0403 14:42:26.668025 11006 net.cpp:399] pool3/3x3_s2_pool3/3x3_s2_0_split -> pool3/3x3_s2_pool3/3x3_s2_0_split_1
I0403 14:42:26.668045 11006 net.cpp:399] pool3/3x3_s2_pool3/3x3_s2_0_split -> pool3/3x3_s2_pool3/3x3_s2_0_split_2
I0403 14:42:26.668064 11006 net.cpp:399] pool3/3x3_s2_pool3/3x3_s2_0_split -> pool3/3x3_s2_pool3/3x3_s2_0_split_3
I0403 14:42:26.668148 11006 net.cpp:141] Setting up pool3/3x3_s2_pool3/3x3_s2_0_split
I0403 14:42:26.668174 11006 net.cpp:148] Top shape: 24 480 14 14 (2257920)
I0403 14:42:26.668192 11006 net.cpp:148] Top shape: 24 480 14 14 (2257920)
I0403 14:42:26.668208 11006 net.cpp:148] Top shape: 24 480 14 14 (2257920)
I0403 14:42:26.668225 11006 net.cpp:148] Top shape: 24 480 14 14 (2257920)
I0403 14:42:26.668238 11006 net.cpp:156] Memory required for data: 854397984
I0403 14:42:26.668253 11006 layer_factory.hpp:77] Creating layer inception_4a/1x1
I0403 14:42:26.668277 11006 net.cpp:91] Creating Layer inception_4a/1x1
I0403 14:42:26.668293 11006 net.cpp:425] inception_4a/1x1 <- pool3/3x3_s2_pool3/3x3_s2_0_split_0
I0403 14:42:26.668313 11006 net.cpp:399] inception_4a/1x1 -> inception_4a/1x1
I0403 14:42:26.669919 11006 net.cpp:141] Setting up inception_4a/1x1
I0403 14:42:26.669951 11006 net.cpp:148] Top shape: 24 192 14 14 (903168)
I0403 14:42:26.669967 11006 net.cpp:156] Memory required for data: 858010656
I0403 14:42:26.669986 11006 layer_factory.hpp:77] Creating layer inception_4a/relu_1x1
I0403 14:42:26.670004 11006 net.cpp:91] Creating Layer inception_4a/relu_1x1
I0403 14:42:26.670019 11006 net.cpp:425] inception_4a/relu_1x1 <- inception_4a/1x1
I0403 14:42:26.670040 11006 net.cpp:386] inception_4a/relu_1x1 -> inception_4a/1x1 (in-place)
I0403 14:42:26.670239 11006 net.cpp:141] Setting up inception_4a/relu_1x1
I0403 14:42:26.670267 11006 net.cpp:148] Top shape: 24 192 14 14 (903168)
I0403 14:42:26.670284 11006 net.cpp:156] Memory required for data: 861623328
I0403 14:42:26.670300 11006 layer_factory.hpp:77] Creating layer inception_4a/3x3_reduce
I0403 14:42:26.670322 11006 net.cpp:91] Creating Layer inception_4a/3x3_reduce
I0403 14:42:26.670341 11006 net.cpp:425] inception_4a/3x3_reduce <- pool3/3x3_s2_pool3/3x3_s2_0_split_1
I0403 14:42:26.670362 11006 net.cpp:399] inception_4a/3x3_reduce -> inception_4a/3x3_reduce
I0403 14:42:26.671679 11006 net.cpp:141] Setting up inception_4a/3x3_reduce
I0403 14:42:26.671711 11006 net.cpp:148] Top shape: 24 96 14 14 (451584)
I0403 14:42:26.671726 11006 net.cpp:156] Memory required for data: 863429664
I0403 14:42:26.671749 11006 layer_factory.hpp:77] Creating layer inception_4a/relu_3x3_reduce
I0403 14:42:26.671772 11006 net.cpp:91] Creating Layer inception_4a/relu_3x3_reduce
I0403 14:42:26.671790 11006 net.cpp:425] inception_4a/relu_3x3_reduce <- inception_4a/3x3_reduce
I0403 14:42:26.671808 11006 net.cpp:386] inception_4a/relu_3x3_reduce -> inception_4a/3x3_reduce (in-place)
I0403 14:42:26.671991 11006 net.cpp:141] Setting up inception_4a/relu_3x3_reduce
I0403 14:42:26.672016 11006 net.cpp:148] Top shape: 24 96 14 14 (451584)
I0403 14:42:26.672031 11006 net.cpp:156] Memory required for data: 865236000
I0403 14:42:26.672049 11006 layer_factory.hpp:77] Creating layer inception_4a/3x3
I0403 14:42:26.672085 11006 net.cpp:91] Creating Layer inception_4a/3x3
I0403 14:42:26.672116 11006 net.cpp:425] inception_4a/3x3 <- inception_4a/3x3_reduce
I0403 14:42:26.672143 11006 net.cpp:399] inception_4a/3x3 -> inception_4a/3x3
I0403 14:42:26.674978 11006 net.cpp:141] Setting up inception_4a/3x3
I0403 14:42:26.675009 11006 net.cpp:148] Top shape: 24 208 14 14 (978432)
I0403 14:42:26.675025 11006 net.cpp:156] Memory required for data: 869149728
I0403 14:42:26.675045 11006 layer_factory.hpp:77] Creating layer inception_4a/relu_3x3
I0403 14:42:26.675066 11006 net.cpp:91] Creating Layer inception_4a/relu_3x3
I0403 14:42:26.675086 11006 net.cpp:425] inception_4a/relu_3x3 <- inception_4a/3x3
I0403 14:42:26.675110 11006 net.cpp:386] inception_4a/relu_3x3 -> inception_4a/3x3 (in-place)
I0403 14:42:26.675407 11006 net.cpp:141] Setting up inception_4a/relu_3x3
I0403 14:42:26.675436 11006 net.cpp:148] Top shape: 24 208 14 14 (978432)
I0403 14:42:26.675452 11006 net.cpp:156] Memory required for data: 873063456
I0403 14:42:26.675468 11006 layer_factory.hpp:77] Creating layer inception_4a/5x5_reduce
I0403 14:42:26.675493 11006 net.cpp:91] Creating Layer inception_4a/5x5_reduce
I0403 14:42:26.675511 11006 net.cpp:425] inception_4a/5x5_reduce <- pool3/3x3_s2_pool3/3x3_s2_0_split_2
I0403 14:42:26.675534 11006 net.cpp:399] inception_4a/5x5_reduce -> inception_4a/5x5_reduce
I0403 14:42:26.679462 11006 net.cpp:141] Setting up inception_4a/5x5_reduce
I0403 14:42:26.679492 11006 net.cpp:148] Top shape: 24 16 14 14 (75264)
I0403 14:42:26.679508 11006 net.cpp:156] Memory required for data: 873364512
I0403 14:42:26.679528 11006 layer_factory.hpp:77] Creating layer inception_4a/relu_5x5_reduce
I0403 14:42:26.679550 11006 net.cpp:91] Creating Layer inception_4a/relu_5x5_reduce
I0403 14:42:26.679569 11006 net.cpp:425] inception_4a/relu_5x5_reduce <- inception_4a/5x5_reduce
I0403 14:42:26.679586 11006 net.cpp:386] inception_4a/relu_5x5_reduce -> inception_4a/5x5_reduce (in-place)
I0403 14:42:26.679780 11006 net.cpp:141] Setting up inception_4a/relu_5x5_reduce
I0403 14:42:26.679806 11006 net.cpp:148] Top shape: 24 16 14 14 (75264)
I0403 14:42:26.679822 11006 net.cpp:156] Memory required for data: 873665568
I0403 14:42:26.679838 11006 layer_factory.hpp:77] Creating layer inception_4a/5x5
I0403 14:42:26.679863 11006 net.cpp:91] Creating Layer inception_4a/5x5
I0403 14:42:26.679883 11006 net.cpp:425] inception_4a/5x5 <- inception_4a/5x5_reduce
I0403 14:42:26.679903 11006 net.cpp:399] inception_4a/5x5 -> inception_4a/5x5
I0403 14:42:26.681046 11006 net.cpp:141] Setting up inception_4a/5x5
I0403 14:42:26.681078 11006 net.cpp:148] Top shape: 24 48 14 14 (225792)
I0403 14:42:26.681099 11006 net.cpp:156] Memory required for data: 874568736
I0403 14:42:26.681123 11006 layer_factory.hpp:77] Creating layer inception_4a/relu_5x5
I0403 14:42:26.681141 11006 net.cpp:91] Creating Layer inception_4a/relu_5x5
I0403 14:42:26.681157 11006 net.cpp:425] inception_4a/relu_5x5 <- inception_4a/5x5
I0403 14:42:26.681175 11006 net.cpp:386] inception_4a/relu_5x5 -> inception_4a/5x5 (in-place)
I0403 14:42:26.681365 11006 net.cpp:141] Setting up inception_4a/relu_5x5
I0403 14:42:26.681392 11006 net.cpp:148] Top shape: 24 48 14 14 (225792)
I0403 14:42:26.681408 11006 net.cpp:156] Memory required for data: 875471904
I0403 14:42:26.681423 11006 layer_factory.hpp:77] Creating layer inception_4a/pool
I0403 14:42:26.681442 11006 net.cpp:91] Creating Layer inception_4a/pool
I0403 14:42:26.681458 11006 net.cpp:425] inception_4a/pool <- pool3/3x3_s2_pool3/3x3_s2_0_split_3
I0403 14:42:26.681479 11006 net.cpp:399] inception_4a/pool -> inception_4a/pool
I0403 14:42:26.681543 11006 net.cpp:141] Setting up inception_4a/pool
I0403 14:42:26.681571 11006 net.cpp:148] Top shape: 24 480 14 14 (2257920)
I0403 14:42:26.681588 11006 net.cpp:156] Memory required for data: 884503584
I0403 14:42:26.681604 11006 layer_factory.hpp:77] Creating layer inception_4a/pool_proj
I0403 14:42:26.681627 11006 net.cpp:91] Creating Layer inception_4a/pool_proj
I0403 14:42:26.681645 11006 net.cpp:425] inception_4a/pool_proj <- inception_4a/pool
I0403 14:42:26.681664 11006 net.cpp:399] inception_4a/pool_proj -> inception_4a/pool_proj
I0403 14:42:26.682888 11006 net.cpp:141] Setting up inception_4a/pool_proj
I0403 14:42:26.682922 11006 net.cpp:148] Top shape: 24 64 14 14 (301056)
I0403 14:42:26.682955 11006 net.cpp:156] Memory required for data: 885707808
I0403 14:42:26.682977 11006 layer_factory.hpp:77] Creating layer inception_4a/relu_pool_proj
I0403 14:42:26.682996 11006 net.cpp:91] Creating Layer inception_4a/relu_pool_proj
I0403 14:42:26.683012 11006 net.cpp:425] inception_4a/relu_pool_proj <- inception_4a/pool_proj
I0403 14:42:26.683033 11006 net.cpp:386] inception_4a/relu_pool_proj -> inception_4a/pool_proj (in-place)
I0403 14:42:26.683346 11006 net.cpp:141] Setting up inception_4a/relu_pool_proj
I0403 14:42:26.683377 11006 net.cpp:148] Top shape: 24 64 14 14 (301056)
I0403 14:42:26.683393 11006 net.cpp:156] Memory required for data: 886912032
I0403 14:42:26.683409 11006 layer_factory.hpp:77] Creating layer inception_4a/output
I0403 14:42:26.683428 11006 net.cpp:91] Creating Layer inception_4a/output
I0403 14:42:26.683444 11006 net.cpp:425] inception_4a/output <- inception_4a/1x1
I0403 14:42:26.683462 11006 net.cpp:425] inception_4a/output <- inception_4a/3x3
I0403 14:42:26.683480 11006 net.cpp:425] inception_4a/output <- inception_4a/5x5
I0403 14:42:26.683496 11006 net.cpp:425] inception_4a/output <- inception_4a/pool_proj
I0403 14:42:26.683513 11006 net.cpp:399] inception_4a/output -> inception_4a/output
I0403 14:42:26.683562 11006 net.cpp:141] Setting up inception_4a/output
I0403 14:42:26.683588 11006 net.cpp:148] Top shape: 24 512 14 14 (2408448)
I0403 14:42:26.683603 11006 net.cpp:156] Memory required for data: 896545824
I0403 14:42:26.683619 11006 layer_factory.hpp:77] Creating layer inception_4a/output_inception_4a/output_0_split
I0403 14:42:26.683639 11006 net.cpp:91] Creating Layer inception_4a/output_inception_4a/output_0_split
I0403 14:42:26.683655 11006 net.cpp:425] inception_4a/output_inception_4a/output_0_split <- inception_4a/output
I0403 14:42:26.683673 11006 net.cpp:399] inception_4a/output_inception_4a/output_0_split -> inception_4a/output_inception_4a/output_0_split_0
I0403 14:42:26.683694 11006 net.cpp:399] inception_4a/output_inception_4a/output_0_split -> inception_4a/output_inception_4a/output_0_split_1
I0403 14:42:26.683717 11006 net.cpp:399] inception_4a/output_inception_4a/output_0_split -> inception_4a/output_inception_4a/output_0_split_2
I0403 14:42:26.683742 11006 net.cpp:399] inception_4a/output_inception_4a/output_0_split -> inception_4a/output_inception_4a/output_0_split_3
I0403 14:42:26.683764 11006 net.cpp:399] inception_4a/output_inception_4a/output_0_split -> inception_4a/output_inception_4a/output_0_split_4
I0403 14:42:26.683861 11006 net.cpp:141] Setting up inception_4a/output_inception_4a/output_0_split
I0403 14:42:26.683886 11006 net.cpp:148] Top shape: 24 512 14 14 (2408448)
I0403 14:42:26.683902 11006 net.cpp:148] Top shape: 24 512 14 14 (2408448)
I0403 14:42:26.683919 11006 net.cpp:148] Top shape: 24 512 14 14 (2408448)
I0403 14:42:26.683934 11006 net.cpp:148] Top shape: 24 512 14 14 (2408448)
I0403 14:42:26.683951 11006 net.cpp:148] Top shape: 24 512 14 14 (2408448)
I0403 14:42:26.683965 11006 net.cpp:156] Memory required for data: 944714784
I0403 14:42:26.683981 11006 layer_factory.hpp:77] Creating layer loss1/ave_pool
I0403 14:42:26.684002 11006 net.cpp:91] Creating Layer loss1/ave_pool
I0403 14:42:26.684020 11006 net.cpp:425] loss1/ave_pool <- inception_4a/output_inception_4a/output_0_split_0
I0403 14:42:26.684039 11006 net.cpp:399] loss1/ave_pool -> loss1/ave_pool
I0403 14:42:26.684262 11006 net.cpp:141] Setting up loss1/ave_pool
I0403 14:42:26.684291 11006 net.cpp:148] Top shape: 24 512 4 4 (196608)
I0403 14:42:26.684309 11006 net.cpp:156] Memory required for data: 945501216
I0403 14:42:26.684324 11006 layer_factory.hpp:77] Creating layer loss1/conv
I0403 14:42:26.684347 11006 net.cpp:91] Creating Layer loss1/conv
I0403 14:42:26.684366 11006 net.cpp:425] loss1/conv <- loss1/ave_pool
I0403 14:42:26.684389 11006 net.cpp:399] loss1/conv -> loss1/conv
I0403 14:42:26.685847 11006 net.cpp:141] Setting up loss1/conv
I0403 14:42:26.685875 11006 net.cpp:148] Top shape: 24 128 4 4 (49152)
I0403 14:42:26.685909 11006 net.cpp:156] Memory required for data: 945697824
I0403 14:42:26.685928 11006 layer_factory.hpp:77] Creating layer loss1/relu_conv
I0403 14:42:26.685950 11006 net.cpp:91] Creating Layer loss1/relu_conv
I0403 14:42:26.685966 11006 net.cpp:425] loss1/relu_conv <- loss1/conv
I0403 14:42:26.685983 11006 net.cpp:386] loss1/relu_conv -> loss1/conv (in-place)
I0403 14:42:26.686277 11006 net.cpp:141] Setting up loss1/relu_conv
I0403 14:42:26.686305 11006 net.cpp:148] Top shape: 24 128 4 4 (49152)
I0403 14:42:26.686321 11006 net.cpp:156] Memory required for data: 945894432
I0403 14:42:26.686337 11006 layer_factory.hpp:77] Creating layer loss1/fc
I0403 14:42:26.686365 11006 net.cpp:91] Creating Layer loss1/fc
I0403 14:42:26.686384 11006 net.cpp:425] loss1/fc <- loss1/conv
I0403 14:42:26.686404 11006 net.cpp:399] loss1/fc -> loss1/fc
I0403 14:42:26.704270 11006 net.cpp:141] Setting up loss1/fc
I0403 14:42:26.704306 11006 net.cpp:148] Top shape: 24 1024 (24576)
I0403 14:42:26.704321 11006 net.cpp:156] Memory required for data: 945992736
I0403 14:42:26.704340 11006 layer_factory.hpp:77] Creating layer loss1/relu_fc
I0403 14:42:26.704360 11006 net.cpp:91] Creating Layer loss1/relu_fc
I0403 14:42:26.704377 11006 net.cpp:425] loss1/relu_fc <- loss1/fc
I0403 14:42:26.704397 11006 net.cpp:386] loss1/relu_fc -> loss1/fc (in-place)
I0403 14:42:26.704591 11006 net.cpp:141] Setting up loss1/relu_fc
I0403 14:42:26.704617 11006 net.cpp:148] Top shape: 24 1024 (24576)
I0403 14:42:26.704630 11006 net.cpp:156] Memory required for data: 946091040
I0403 14:42:26.704645 11006 layer_factory.hpp:77] Creating layer loss1/drop_fc
I0403 14:42:26.704674 11006 net.cpp:91] Creating Layer loss1/drop_fc
I0403 14:42:26.704694 11006 net.cpp:425] loss1/drop_fc <- loss1/fc
I0403 14:42:26.704710 11006 net.cpp:386] loss1/drop_fc -> loss1/fc (in-place)
I0403 14:42:26.704761 11006 net.cpp:141] Setting up loss1/drop_fc
I0403 14:42:26.704782 11006 net.cpp:148] Top shape: 24 1024 (24576)
I0403 14:42:26.704797 11006 net.cpp:156] Memory required for data: 946189344
I0403 14:42:26.704813 11006 layer_factory.hpp:77] Creating layer loss1/classifier_plantvillage
I0403 14:42:26.704834 11006 net.cpp:91] Creating Layer loss1/classifier_plantvillage
I0403 14:42:26.704852 11006 net.cpp:425] loss1/classifier_plantvillage <- loss1/fc
I0403 14:42:26.704872 11006 net.cpp:399] loss1/classifier_plantvillage -> loss1/classifier_plantvillage
I0403 14:42:26.705816 11006 net.cpp:141] Setting up loss1/classifier_plantvillage
I0403 14:42:26.705844 11006 net.cpp:148] Top shape: 24 38 (912)
I0403 14:42:26.705859 11006 net.cpp:156] Memory required for data: 946192992
I0403 14:42:26.705878 11006 layer_factory.hpp:77] Creating layer loss1/classifier_plantvillage_loss1/classifier_plantvillage_0_split
I0403 14:42:26.705895 11006 net.cpp:91] Creating Layer loss1/classifier_plantvillage_loss1/classifier_plantvillage_0_split
I0403 14:42:26.705910 11006 net.cpp:425] loss1/classifier_plantvillage_loss1/classifier_plantvillage_0_split <- loss1/classifier_plantvillage
I0403 14:42:26.705930 11006 net.cpp:399] loss1/classifier_plantvillage_loss1/classifier_plantvillage_0_split -> loss1/classifier_plantvillage_loss1/classifier_plantvillage_0_split_0
I0403 14:42:26.705951 11006 net.cpp:399] loss1/classifier_plantvillage_loss1/classifier_plantvillage_0_split -> loss1/classifier_plantvillage_loss1/classifier_plantvillage_0_split_1
I0403 14:42:26.705972 11006 net.cpp:399] loss1/classifier_plantvillage_loss1/classifier_plantvillage_0_split -> loss1/classifier_plantvillage_loss1/classifier_plantvillage_0_split_2
I0403 14:42:26.706038 11006 net.cpp:141] Setting up loss1/classifier_plantvillage_loss1/classifier_plantvillage_0_split
I0403 14:42:26.706064 11006 net.cpp:148] Top shape: 24 38 (912)
I0403 14:42:26.706081 11006 net.cpp:148] Top shape: 24 38 (912)
I0403 14:42:26.706100 11006 net.cpp:148] Top shape: 24 38 (912)
I0403 14:42:26.706115 11006 net.cpp:156] Memory required for data: 946203936
I0403 14:42:26.706130 11006 layer_factory.hpp:77] Creating layer inception_4b/1x1
I0403 14:42:26.706151 11006 net.cpp:91] Creating Layer inception_4b/1x1
I0403 14:42:26.706187 11006 net.cpp:425] inception_4b/1x1 <- inception_4a/output_inception_4a/output_0_split_1
I0403 14:42:26.706207 11006 net.cpp:399] inception_4b/1x1 -> inception_4b/1x1
I0403 14:42:26.707871 11006 net.cpp:141] Setting up inception_4b/1x1
I0403 14:42:26.707901 11006 net.cpp:148] Top shape: 24 160 14 14 (752640)
I0403 14:42:26.707916 11006 net.cpp:156] Memory required for data: 949214496
I0403 14:42:26.707936 11006 layer_factory.hpp:77] Creating layer inception_4b/relu_1x1
I0403 14:42:26.707955 11006 net.cpp:91] Creating Layer inception_4b/relu_1x1
I0403 14:42:26.707973 11006 net.cpp:425] inception_4b/relu_1x1 <- inception_4b/1x1
I0403 14:42:26.707991 11006 net.cpp:386] inception_4b/relu_1x1 -> inception_4b/1x1 (in-place)
I0403 14:42:26.708174 11006 net.cpp:141] Setting up inception_4b/relu_1x1
I0403 14:42:26.708200 11006 net.cpp:148] Top shape: 24 160 14 14 (752640)
I0403 14:42:26.708215 11006 net.cpp:156] Memory required for data: 952225056
I0403 14:42:26.708230 11006 layer_factory.hpp:77] Creating layer inception_4b/3x3_reduce
I0403 14:42:26.708253 11006 net.cpp:91] Creating Layer inception_4b/3x3_reduce
I0403 14:42:26.708271 11006 net.cpp:425] inception_4b/3x3_reduce <- inception_4a/output_inception_4a/output_0_split_2
I0403 14:42:26.708289 11006 net.cpp:399] inception_4b/3x3_reduce -> inception_4b/3x3_reduce
I0403 14:42:26.709625 11006 net.cpp:141] Setting up inception_4b/3x3_reduce
I0403 14:42:26.709653 11006 net.cpp:148] Top shape: 24 112 14 14 (526848)
I0403 14:42:26.709668 11006 net.cpp:156] Memory required for data: 954332448
I0403 14:42:26.709686 11006 layer_factory.hpp:77] Creating layer inception_4b/relu_3x3_reduce
I0403 14:42:26.709707 11006 net.cpp:91] Creating Layer inception_4b/relu_3x3_reduce
I0403 14:42:26.709725 11006 net.cpp:425] inception_4b/relu_3x3_reduce <- inception_4b/3x3_reduce
I0403 14:42:26.709743 11006 net.cpp:386] inception_4b/relu_3x3_reduce -> inception_4b/3x3_reduce (in-place)
I0403 14:42:26.710017 11006 net.cpp:141] Setting up inception_4b/relu_3x3_reduce
I0403 14:42:26.710044 11006 net.cpp:148] Top shape: 24 112 14 14 (526848)
I0403 14:42:26.710058 11006 net.cpp:156] Memory required for data: 956439840
I0403 14:42:26.710073 11006 layer_factory.hpp:77] Creating layer inception_4b/3x3
I0403 14:42:26.710100 11006 net.cpp:91] Creating Layer inception_4b/3x3
I0403 14:42:26.710119 11006 net.cpp:425] inception_4b/3x3 <- inception_4b/3x3_reduce
I0403 14:42:26.710139 11006 net.cpp:399] inception_4b/3x3 -> inception_4b/3x3
I0403 14:42:26.713069 11006 net.cpp:141] Setting up inception_4b/3x3
I0403 14:42:26.713111 11006 net.cpp:148] Top shape: 24 224 14 14 (1053696)
I0403 14:42:26.713130 11006 net.cpp:156] Memory required for data: 960654624
I0403 14:42:26.713148 11006 layer_factory.hpp:77] Creating layer inception_4b/relu_3x3
I0403 14:42:26.713166 11006 net.cpp:91] Creating Layer inception_4b/relu_3x3
I0403 14:42:26.713182 11006 net.cpp:425] inception_4b/relu_3x3 <- inception_4b/3x3
I0403 14:42:26.713201 11006 net.cpp:386] inception_4b/relu_3x3 -> inception_4b/3x3 (in-place)
I0403 14:42:26.713374 11006 net.cpp:141] Setting up inception_4b/relu_3x3
I0403 14:42:26.713399 11006 net.cpp:148] Top shape: 24 224 14 14 (1053696)
I0403 14:42:26.713413 11006 net.cpp:156] Memory required for data: 964869408
I0403 14:42:26.713428 11006 layer_factory.hpp:77] Creating layer inception_4b/5x5_reduce
I0403 14:42:26.713449 11006 net.cpp:91] Creating Layer inception_4b/5x5_reduce
I0403 14:42:26.713467 11006 net.cpp:425] inception_4b/5x5_reduce <- inception_4a/output_inception_4a/output_0_split_3
I0403 14:42:26.713501 11006 net.cpp:399] inception_4b/5x5_reduce -> inception_4b/5x5_reduce
I0403 14:42:26.714748 11006 net.cpp:141] Setting up inception_4b/5x5_reduce
I0403 14:42:26.714776 11006 net.cpp:148] Top shape: 24 24 14 14 (112896)
I0403 14:42:26.714792 11006 net.cpp:156] Memory required for data: 965320992
I0403 14:42:26.714810 11006 layer_factory.hpp:77] Creating layer inception_4b/relu_5x5_reduce
I0403 14:42:26.714829 11006 net.cpp:91] Creating Layer inception_4b/relu_5x5_reduce
I0403 14:42:26.714860 11006 net.cpp:425] inception_4b/relu_5x5_reduce <- inception_4b/5x5_reduce
I0403 14:42:26.714879 11006 net.cpp:386] inception_4b/relu_5x5_reduce -> inception_4b/5x5_reduce (in-place)
I0403 14:42:26.715057 11006 net.cpp:141] Setting up inception_4b/relu_5x5_reduce
I0403 14:42:26.715102 11006 net.cpp:148] Top shape: 24 24 14 14 (112896)
I0403 14:42:26.715121 11006 net.cpp:156] Memory required for data: 965772576
I0403 14:42:26.715137 11006 layer_factory.hpp:77] Creating layer inception_4b/5x5
I0403 14:42:26.715160 11006 net.cpp:91] Creating Layer inception_4b/5x5
I0403 14:42:26.715178 11006 net.cpp:425] inception_4b/5x5 <- inception_4b/5x5_reduce
I0403 14:42:26.715196 11006 net.cpp:399] inception_4b/5x5 -> inception_4b/5x5
I0403 14:42:26.716410 11006 net.cpp:141] Setting up inception_4b/5x5
I0403 14:42:26.716439 11006 net.cpp:148] Top shape: 24 64 14 14 (301056)
I0403 14:42:26.716454 11006 net.cpp:156] Memory required for data: 966976800
I0403 14:42:26.716472 11006 layer_factory.hpp:77] Creating layer inception_4b/relu_5x5
I0403 14:42:26.716492 11006 net.cpp:91] Creating Layer inception_4b/relu_5x5
I0403 14:42:26.716508 11006 net.cpp:425] inception_4b/relu_5x5 <- inception_4b/5x5
I0403 14:42:26.716526 11006 net.cpp:386] inception_4b/relu_5x5 -> inception_4b/5x5 (in-place)
I0403 14:42:26.716807 11006 net.cpp:141] Setting up inception_4b/relu_5x5
I0403 14:42:26.716836 11006 net.cpp:148] Top shape: 24 64 14 14 (301056)
I0403 14:42:26.716851 11006 net.cpp:156] Memory required for data: 968181024
I0403 14:42:26.716867 11006 layer_factory.hpp:77] Creating layer inception_4b/pool
I0403 14:42:26.716888 11006 net.cpp:91] Creating Layer inception_4b/pool
I0403 14:42:26.716905 11006 net.cpp:425] inception_4b/pool <- inception_4a/output_inception_4a/output_0_split_4
I0403 14:42:26.716923 11006 net.cpp:399] inception_4b/pool -> inception_4b/pool
I0403 14:42:26.716989 11006 net.cpp:141] Setting up inception_4b/pool
I0403 14:42:26.717012 11006 net.cpp:148] Top shape: 24 512 14 14 (2408448)
I0403 14:42:26.717027 11006 net.cpp:156] Memory required for data: 977814816
I0403 14:42:26.717043 11006 layer_factory.hpp:77] Creating layer inception_4b/pool_proj
I0403 14:42:26.717064 11006 net.cpp:91] Creating Layer inception_4b/pool_proj
I0403 14:42:26.717082 11006 net.cpp:425] inception_4b/pool_proj <- inception_4b/pool
I0403 14:42:26.717108 11006 net.cpp:399] inception_4b/pool_proj -> inception_4b/pool_proj
I0403 14:42:26.718308 11006 net.cpp:141] Setting up inception_4b/pool_proj
I0403 14:42:26.718336 11006 net.cpp:148] Top shape: 24 64 14 14 (301056)
I0403 14:42:26.718353 11006 net.cpp:156] Memory required for data: 979019040
I0403 14:42:26.718371 11006 layer_factory.hpp:77] Creating layer inception_4b/relu_pool_proj
I0403 14:42:26.718392 11006 net.cpp:91] Creating Layer inception_4b/relu_pool_proj
I0403 14:42:26.718421 11006 net.cpp:425] inception_4b/relu_pool_proj <- inception_4b/pool_proj
I0403 14:42:26.718438 11006 net.cpp:386] inception_4b/relu_pool_proj -> inception_4b/pool_proj (in-place)
I0403 14:42:26.718621 11006 net.cpp:141] Setting up inception_4b/relu_pool_proj
I0403 14:42:26.718648 11006 net.cpp:148] Top shape: 24 64 14 14 (301056)
I0403 14:42:26.718663 11006 net.cpp:156] Memory required for data: 980223264
I0403 14:42:26.718678 11006 layer_factory.hpp:77] Creating layer inception_4b/output
I0403 14:42:26.718695 11006 net.cpp:91] Creating Layer inception_4b/output
I0403 14:42:26.718710 11006 net.cpp:425] inception_4b/output <- inception_4b/1x1
I0403 14:42:26.718737 11006 net.cpp:425] inception_4b/output <- inception_4b/3x3
I0403 14:42:26.718754 11006 net.cpp:425] inception_4b/output <- inception_4b/5x5
I0403 14:42:26.718770 11006 net.cpp:425] inception_4b/output <- inception_4b/pool_proj
I0403 14:42:26.718786 11006 net.cpp:399] inception_4b/output -> inception_4b/output
I0403 14:42:26.718832 11006 net.cpp:141] Setting up inception_4b/output
I0403 14:42:26.718853 11006 net.cpp:148] Top shape: 24 512 14 14 (2408448)
I0403 14:42:26.718868 11006 net.cpp:156] Memory required for data: 989857056
I0403 14:42:26.718896 11006 layer_factory.hpp:77] Creating layer inception_4b/output_inception_4b/output_0_split
I0403 14:42:26.718914 11006 net.cpp:91] Creating Layer inception_4b/output_inception_4b/output_0_split
I0403 14:42:26.718930 11006 net.cpp:425] inception_4b/output_inception_4b/output_0_split <- inception_4b/output
I0403 14:42:26.718948 11006 net.cpp:399] inception_4b/output_inception_4b/output_0_split -> inception_4b/output_inception_4b/output_0_split_0
I0403 14:42:26.718969 11006 net.cpp:399] inception_4b/output_inception_4b/output_0_split -> inception_4b/output_inception_4b/output_0_split_1
I0403 14:42:26.718988 11006 net.cpp:399] inception_4b/output_inception_4b/output_0_split -> inception_4b/output_inception_4b/output_0_split_2
I0403 14:42:26.719010 11006 net.cpp:399] inception_4b/output_inception_4b/output_0_split -> inception_4b/output_inception_4b/output_0_split_3
I0403 14:42:26.719092 11006 net.cpp:141] Setting up inception_4b/output_inception_4b/output_0_split
I0403 14:42:26.719120 11006 net.cpp:148] Top shape: 24 512 14 14 (2408448)
I0403 14:42:26.719135 11006 net.cpp:148] Top shape: 24 512 14 14 (2408448)
I0403 14:42:26.719151 11006 net.cpp:148] Top shape: 24 512 14 14 (2408448)
I0403 14:42:26.719166 11006 net.cpp:148] Top shape: 24 512 14 14 (2408448)
I0403 14:42:26.719178 11006 net.cpp:156] Memory required for data: 1028392224
I0403 14:42:26.719192 11006 layer_factory.hpp:77] Creating layer inception_4c/1x1
I0403 14:42:26.719213 11006 net.cpp:91] Creating Layer inception_4c/1x1
I0403 14:42:26.719230 11006 net.cpp:425] inception_4c/1x1 <- inception_4b/output_inception_4b/output_0_split_0
I0403 14:42:26.719250 11006 net.cpp:399] inception_4c/1x1 -> inception_4c/1x1
I0403 14:42:26.720669 11006 net.cpp:141] Setting up inception_4c/1x1
I0403 14:42:26.720700 11006 net.cpp:148] Top shape: 24 128 14 14 (602112)
I0403 14:42:26.720716 11006 net.cpp:156] Memory required for data: 1030800672
I0403 14:42:26.720734 11006 layer_factory.hpp:77] Creating layer inception_4c/relu_1x1
I0403 14:42:26.720752 11006 net.cpp:91] Creating Layer inception_4c/relu_1x1
I0403 14:42:26.720767 11006 net.cpp:425] inception_4c/relu_1x1 <- inception_4c/1x1
I0403 14:42:26.720787 11006 net.cpp:386] inception_4c/relu_1x1 -> inception_4c/1x1 (in-place)
I0403 14:42:26.720962 11006 net.cpp:141] Setting up inception_4c/relu_1x1
I0403 14:42:26.720986 11006 net.cpp:148] Top shape: 24 128 14 14 (602112)
I0403 14:42:26.721000 11006 net.cpp:156] Memory required for data: 1033209120
I0403 14:42:26.721014 11006 layer_factory.hpp:77] Creating layer inception_4c/3x3_reduce
I0403 14:42:26.721035 11006 net.cpp:91] Creating Layer inception_4c/3x3_reduce
I0403 14:42:26.721052 11006 net.cpp:425] inception_4c/3x3_reduce <- inception_4b/output_inception_4b/output_0_split_1
I0403 14:42:26.721073 11006 net.cpp:399] inception_4c/3x3_reduce -> inception_4c/3x3_reduce
I0403 14:42:26.723006 11006 net.cpp:141] Setting up inception_4c/3x3_reduce
I0403 14:42:26.723037 11006 net.cpp:148] Top shape: 24 128 14 14 (602112)
I0403 14:42:26.723052 11006 net.cpp:156] Memory required for data: 1035617568
I0403 14:42:26.723070 11006 layer_factory.hpp:77] Creating layer inception_4c/relu_3x3_reduce
I0403 14:42:26.723091 11006 net.cpp:91] Creating Layer inception_4c/relu_3x3_reduce
I0403 14:42:26.723121 11006 net.cpp:425] inception_4c/relu_3x3_reduce <- inception_4c/3x3_reduce
I0403 14:42:26.723140 11006 net.cpp:386] inception_4c/relu_3x3_reduce -> inception_4c/3x3_reduce (in-place)
I0403 14:42:26.723426 11006 net.cpp:141] Setting up inception_4c/relu_3x3_reduce
I0403 14:42:26.723453 11006 net.cpp:148] Top shape: 24 128 14 14 (602112)
I0403 14:42:26.723470 11006 net.cpp:156] Memory required for data: 1038026016
I0403 14:42:26.723486 11006 layer_factory.hpp:77] Creating layer inception_4c/3x3
I0403 14:42:26.723510 11006 net.cpp:91] Creating Layer inception_4c/3x3
I0403 14:42:26.723526 11006 net.cpp:425] inception_4c/3x3 <- inception_4c/3x3_reduce
I0403 14:42:26.723548 11006 net.cpp:399] inception_4c/3x3 -> inception_4c/3x3
I0403 14:42:26.727241 11006 net.cpp:141] Setting up inception_4c/3x3
I0403 14:42:26.727284 11006 net.cpp:148] Top shape: 24 256 14 14 (1204224)
I0403 14:42:26.727301 11006 net.cpp:156] Memory required for data: 1042842912
I0403 14:42:26.727334 11006 layer_factory.hpp:77] Creating layer inception_4c/relu_3x3
I0403 14:42:26.727356 11006 net.cpp:91] Creating Layer inception_4c/relu_3x3
I0403 14:42:26.727375 11006 net.cpp:425] inception_4c/relu_3x3 <- inception_4c/3x3
I0403 14:42:26.727391 11006 net.cpp:386] inception_4c/relu_3x3 -> inception_4c/3x3 (in-place)
I0403 14:42:26.727571 11006 net.cpp:141] Setting up inception_4c/relu_3x3
I0403 14:42:26.727597 11006 net.cpp:148] Top shape: 24 256 14 14 (1204224)
I0403 14:42:26.727612 11006 net.cpp:156] Memory required for data: 1047659808
I0403 14:42:26.727625 11006 layer_factory.hpp:77] Creating layer inception_4c/5x5_reduce
I0403 14:42:26.727648 11006 net.cpp:91] Creating Layer inception_4c/5x5_reduce
I0403 14:42:26.727665 11006 net.cpp:425] inception_4c/5x5_reduce <- inception_4b/output_inception_4b/output_0_split_2
I0403 14:42:26.727689 11006 net.cpp:399] inception_4c/5x5_reduce -> inception_4c/5x5_reduce
I0403 14:42:26.728808 11006 net.cpp:141] Setting up inception_4c/5x5_reduce
I0403 14:42:26.728837 11006 net.cpp:148] Top shape: 24 24 14 14 (112896)
I0403 14:42:26.728854 11006 net.cpp:156] Memory required for data: 1048111392
I0403 14:42:26.728874 11006 layer_factory.hpp:77] Creating layer inception_4c/relu_5x5_reduce
I0403 14:42:26.728895 11006 net.cpp:91] Creating Layer inception_4c/relu_5x5_reduce
I0403 14:42:26.728912 11006 net.cpp:425] inception_4c/relu_5x5_reduce <- inception_4c/5x5_reduce
I0403 14:42:26.728930 11006 net.cpp:386] inception_4c/relu_5x5_reduce -> inception_4c/5x5_reduce (in-place)
I0403 14:42:26.729123 11006 net.cpp:141] Setting up inception_4c/relu_5x5_reduce
I0403 14:42:26.729156 11006 net.cpp:148] Top shape: 24 24 14 14 (112896)
I0403 14:42:26.729172 11006 net.cpp:156] Memory required for data: 1048562976
I0403 14:42:26.729187 11006 layer_factory.hpp:77] Creating layer inception_4c/5x5
I0403 14:42:26.729209 11006 net.cpp:91] Creating Layer inception_4c/5x5
I0403 14:42:26.729228 11006 net.cpp:425] inception_4c/5x5 <- inception_4c/5x5_reduce
I0403 14:42:26.729248 11006 net.cpp:399] inception_4c/5x5 -> inception_4c/5x5
I0403 14:42:26.730521 11006 net.cpp:141] Setting up inception_4c/5x5
I0403 14:42:26.730552 11006 net.cpp:148] Top shape: 24 64 14 14 (301056)
I0403 14:42:26.730571 11006 net.cpp:156] Memory required for data: 1049767200
I0403 14:42:26.730590 11006 layer_factory.hpp:77] Creating layer inception_4c/relu_5x5
I0403 14:42:26.730608 11006 net.cpp:91] Creating Layer inception_4c/relu_5x5
I0403 14:42:26.730624 11006 net.cpp:425] inception_4c/relu_5x5 <- inception_4c/5x5
I0403 14:42:26.730644 11006 net.cpp:386] inception_4c/relu_5x5 -> inception_4c/5x5 (in-place)
I0403 14:42:26.730937 11006 net.cpp:141] Setting up inception_4c/relu_5x5
I0403 14:42:26.730968 11006 net.cpp:148] Top shape: 24 64 14 14 (301056)
I0403 14:42:26.730984 11006 net.cpp:156] Memory required for data: 1050971424
I0403 14:42:26.731000 11006 layer_factory.hpp:77] Creating layer inception_4c/pool
I0403 14:42:26.731017 11006 net.cpp:91] Creating Layer inception_4c/pool
I0403 14:42:26.731035 11006 net.cpp:425] inception_4c/pool <- inception_4b/output_inception_4b/output_0_split_3
I0403 14:42:26.731056 11006 net.cpp:399] inception_4c/pool -> inception_4c/pool
I0403 14:42:26.731133 11006 net.cpp:141] Setting up inception_4c/pool
I0403 14:42:26.731159 11006 net.cpp:148] Top shape: 24 512 14 14 (2408448)
I0403 14:42:26.731173 11006 net.cpp:156] Memory required for data: 1060605216
I0403 14:42:26.731189 11006 layer_factory.hpp:77] Creating layer inception_4c/pool_proj
I0403 14:42:26.731210 11006 net.cpp:91] Creating Layer inception_4c/pool_proj
I0403 14:42:26.731230 11006 net.cpp:425] inception_4c/pool_proj <- inception_4c/pool
I0403 14:42:26.731251 11006 net.cpp:399] inception_4c/pool_proj -> inception_4c/pool_proj
I0403 14:42:26.732503 11006 net.cpp:141] Setting up inception_4c/pool_proj
I0403 14:42:26.732533 11006 net.cpp:148] Top shape: 24 64 14 14 (301056)
I0403 14:42:26.732563 11006 net.cpp:156] Memory required for data: 1061809440
I0403 14:42:26.732583 11006 layer_factory.hpp:77] Creating layer inception_4c/relu_pool_proj
I0403 14:42:26.732606 11006 net.cpp:91] Creating Layer inception_4c/relu_pool_proj
I0403 14:42:26.732623 11006 net.cpp:425] inception_4c/relu_pool_proj <- inception_4c/pool_proj
I0403 14:42:26.732642 11006 net.cpp:386] inception_4c/relu_pool_proj -> inception_4c/pool_proj (in-place)
I0403 14:42:26.732831 11006 net.cpp:141] Setting up inception_4c/relu_pool_proj
I0403 14:42:26.732857 11006 net.cpp:148] Top shape: 24 64 14 14 (301056)
I0403 14:42:26.732872 11006 net.cpp:156] Memory required for data: 1063013664
I0403 14:42:26.732887 11006 layer_factory.hpp:77] Creating layer inception_4c/output
I0403 14:42:26.732910 11006 net.cpp:91] Creating Layer inception_4c/output
I0403 14:42:26.732928 11006 net.cpp:425] inception_4c/output <- inception_4c/1x1
I0403 14:42:26.732946 11006 net.cpp:425] inception_4c/output <- inception_4c/3x3
I0403 14:42:26.732964 11006 net.cpp:425] inception_4c/output <- inception_4c/5x5
I0403 14:42:26.732980 11006 net.cpp:425] inception_4c/output <- inception_4c/pool_proj
I0403 14:42:26.732997 11006 net.cpp:399] inception_4c/output -> inception_4c/output
I0403 14:42:26.733047 11006 net.cpp:141] Setting up inception_4c/output
I0403 14:42:26.733070 11006 net.cpp:148] Top shape: 24 512 14 14 (2408448)
I0403 14:42:26.733086 11006 net.cpp:156] Memory required for data: 1072647456
I0403 14:42:26.733108 11006 layer_factory.hpp:77] Creating layer inception_4c/output_inception_4c/output_0_split
I0403 14:42:26.733127 11006 net.cpp:91] Creating Layer inception_4c/output_inception_4c/output_0_split
I0403 14:42:26.733144 11006 net.cpp:425] inception_4c/output_inception_4c/output_0_split <- inception_4c/output
I0403 14:42:26.733163 11006 net.cpp:399] inception_4c/output_inception_4c/output_0_split -> inception_4c/output_inception_4c/output_0_split_0
I0403 14:42:26.733186 11006 net.cpp:399] inception_4c/output_inception_4c/output_0_split -> inception_4c/output_inception_4c/output_0_split_1
I0403 14:42:26.733207 11006 net.cpp:399] inception_4c/output_inception_4c/output_0_split -> inception_4c/output_inception_4c/output_0_split_2
I0403 14:42:26.733227 11006 net.cpp:399] inception_4c/output_inception_4c/output_0_split -> inception_4c/output_inception_4c/output_0_split_3
I0403 14:42:26.733319 11006 net.cpp:141] Setting up inception_4c/output_inception_4c/output_0_split
I0403 14:42:26.733345 11006 net.cpp:148] Top shape: 24 512 14 14 (2408448)
I0403 14:42:26.733361 11006 net.cpp:148] Top shape: 24 512 14 14 (2408448)
I0403 14:42:26.733388 11006 net.cpp:148] Top shape: 24 512 14 14 (2408448)
I0403 14:42:26.733404 11006 net.cpp:148] Top shape: 24 512 14 14 (2408448)
I0403 14:42:26.733418 11006 net.cpp:156] Memory required for data: 1111182624
I0403 14:42:26.733433 11006 layer_factory.hpp:77] Creating layer inception_4d/1x1
I0403 14:42:26.733453 11006 net.cpp:91] Creating Layer inception_4d/1x1
I0403 14:42:26.733472 11006 net.cpp:425] inception_4d/1x1 <- inception_4c/output_inception_4c/output_0_split_0
I0403 14:42:26.733505 11006 net.cpp:399] inception_4d/1x1 -> inception_4d/1x1
I0403 14:42:26.734905 11006 net.cpp:141] Setting up inception_4d/1x1
I0403 14:42:26.734935 11006 net.cpp:148] Top shape: 24 112 14 14 (526848)
I0403 14:42:26.734951 11006 net.cpp:156] Memory required for data: 1113290016
I0403 14:42:26.734968 11006 layer_factory.hpp:77] Creating layer inception_4d/relu_1x1
I0403 14:42:26.734987 11006 net.cpp:91] Creating Layer inception_4d/relu_1x1
I0403 14:42:26.735002 11006 net.cpp:425] inception_4d/relu_1x1 <- inception_4d/1x1
I0403 14:42:26.735023 11006 net.cpp:386] inception_4d/relu_1x1 -> inception_4d/1x1 (in-place)
I0403 14:42:26.735213 11006 net.cpp:141] Setting up inception_4d/relu_1x1
I0403 14:42:26.735239 11006 net.cpp:148] Top shape: 24 112 14 14 (526848)
I0403 14:42:26.735254 11006 net.cpp:156] Memory required for data: 1115397408
I0403 14:42:26.735268 11006 layer_factory.hpp:77] Creating layer inception_4d/3x3_reduce
I0403 14:42:26.735304 11006 net.cpp:91] Creating Layer inception_4d/3x3_reduce
I0403 14:42:26.735324 11006 net.cpp:425] inception_4d/3x3_reduce <- inception_4c/output_inception_4c/output_0_split_1
I0403 14:42:26.735344 11006 net.cpp:399] inception_4d/3x3_reduce -> inception_4d/3x3_reduce
I0403 14:42:26.736891 11006 net.cpp:141] Setting up inception_4d/3x3_reduce
I0403 14:42:26.736920 11006 net.cpp:148] Top shape: 24 144 14 14 (677376)
I0403 14:42:26.736938 11006 net.cpp:156] Memory required for data: 1118106912
I0403 14:42:26.736958 11006 layer_factory.hpp:77] Creating layer inception_4d/relu_3x3_reduce
I0403 14:42:26.736975 11006 net.cpp:91] Creating Layer inception_4d/relu_3x3_reduce
I0403 14:42:26.736991 11006 net.cpp:425] inception_4d/relu_3x3_reduce <- inception_4d/3x3_reduce
I0403 14:42:26.737009 11006 net.cpp:386] inception_4d/relu_3x3_reduce -> inception_4d/3x3_reduce (in-place)
I0403 14:42:26.737320 11006 net.cpp:141] Setting up inception_4d/relu_3x3_reduce
I0403 14:42:26.737352 11006 net.cpp:148] Top shape: 24 144 14 14 (677376)
I0403 14:42:26.737368 11006 net.cpp:156] Memory required for data: 1120816416
I0403 14:42:26.737383 11006 layer_factory.hpp:77] Creating layer inception_4d/3x3
I0403 14:42:26.737407 11006 net.cpp:91] Creating Layer inception_4d/3x3
I0403 14:42:26.737426 11006 net.cpp:425] inception_4d/3x3 <- inception_4d/3x3_reduce
I0403 14:42:26.737444 11006 net.cpp:399] inception_4d/3x3 -> inception_4d/3x3
I0403 14:42:26.741807 11006 net.cpp:141] Setting up inception_4d/3x3
I0403 14:42:26.741837 11006 net.cpp:148] Top shape: 24 288 14 14 (1354752)
I0403 14:42:26.741852 11006 net.cpp:156] Memory required for data: 1126235424
I0403 14:42:26.741869 11006 layer_factory.hpp:77] Creating layer inception_4d/relu_3x3
I0403 14:42:26.741888 11006 net.cpp:91] Creating Layer inception_4d/relu_3x3
I0403 14:42:26.741904 11006 net.cpp:425] inception_4d/relu_3x3 <- inception_4d/3x3
I0403 14:42:26.741927 11006 net.cpp:386] inception_4d/relu_3x3 -> inception_4d/3x3 (in-place)
I0403 14:42:26.742123 11006 net.cpp:141] Setting up inception_4d/relu_3x3
I0403 14:42:26.742151 11006 net.cpp:148] Top shape: 24 288 14 14 (1354752)
I0403 14:42:26.742166 11006 net.cpp:156] Memory required for data: 1131654432
I0403 14:42:26.742179 11006 layer_factory.hpp:77] Creating layer inception_4d/5x5_reduce
I0403 14:42:26.742202 11006 net.cpp:91] Creating Layer inception_4d/5x5_reduce
I0403 14:42:26.742231 11006 net.cpp:425] inception_4d/5x5_reduce <- inception_4c/output_inception_4c/output_0_split_2
I0403 14:42:26.742254 11006 net.cpp:399] inception_4d/5x5_reduce -> inception_4d/5x5_reduce
I0403 14:42:26.743433 11006 net.cpp:141] Setting up inception_4d/5x5_reduce
I0403 14:42:26.743461 11006 net.cpp:148] Top shape: 24 32 14 14 (150528)
I0403 14:42:26.743477 11006 net.cpp:156] Memory required for data: 1132256544
I0403 14:42:26.743495 11006 layer_factory.hpp:77] Creating layer inception_4d/relu_5x5_reduce
I0403 14:42:26.743513 11006 net.cpp:91] Creating Layer inception_4d/relu_5x5_reduce
I0403 14:42:26.743532 11006 net.cpp:425] inception_4d/relu_5x5_reduce <- inception_4d/5x5_reduce
I0403 14:42:26.743551 11006 net.cpp:386] inception_4d/relu_5x5_reduce -> inception_4d/5x5_reduce (in-place)
I0403 14:42:26.743732 11006 net.cpp:141] Setting up inception_4d/relu_5x5_reduce
I0403 14:42:26.743757 11006 net.cpp:148] Top shape: 24 32 14 14 (150528)
I0403 14:42:26.743770 11006 net.cpp:156] Memory required for data: 1132858656
I0403 14:42:26.743784 11006 layer_factory.hpp:77] Creating layer inception_4d/5x5
I0403 14:42:26.743806 11006 net.cpp:91] Creating Layer inception_4d/5x5
I0403 14:42:26.743824 11006 net.cpp:425] inception_4d/5x5 <- inception_4d/5x5_reduce
I0403 14:42:26.743846 11006 net.cpp:399] inception_4d/5x5 -> inception_4d/5x5
I0403 14:42:26.745319 11006 net.cpp:141] Setting up inception_4d/5x5
I0403 14:42:26.745347 11006 net.cpp:148] Top shape: 24 64 14 14 (301056)
I0403 14:42:26.745362 11006 net.cpp:156] Memory required for data: 1134062880
I0403 14:42:26.745379 11006 layer_factory.hpp:77] Creating layer inception_4d/relu_5x5
I0403 14:42:26.745414 11006 net.cpp:91] Creating Layer inception_4d/relu_5x5
I0403 14:42:26.745431 11006 net.cpp:425] inception_4d/relu_5x5 <- inception_4d/5x5
I0403 14:42:26.745448 11006 net.cpp:386] inception_4d/relu_5x5 -> inception_4d/5x5 (in-place)
I0403 14:42:26.745743 11006 net.cpp:141] Setting up inception_4d/relu_5x5
I0403 14:42:26.745781 11006 net.cpp:148] Top shape: 24 64 14 14 (301056)
I0403 14:42:26.745798 11006 net.cpp:156] Memory required for data: 1135267104
I0403 14:42:26.745815 11006 layer_factory.hpp:77] Creating layer inception_4d/pool
I0403 14:42:26.745834 11006 net.cpp:91] Creating Layer inception_4d/pool
I0403 14:42:26.745852 11006 net.cpp:425] inception_4d/pool <- inception_4c/output_inception_4c/output_0_split_3
I0403 14:42:26.745870 11006 net.cpp:399] inception_4d/pool -> inception_4d/pool
I0403 14:42:26.745939 11006 net.cpp:141] Setting up inception_4d/pool
I0403 14:42:26.745962 11006 net.cpp:148] Top shape: 24 512 14 14 (2408448)
I0403 14:42:26.745977 11006 net.cpp:156] Memory required for data: 1144900896
I0403 14:42:26.745991 11006 layer_factory.hpp:77] Creating layer inception_4d/pool_proj
I0403 14:42:26.746013 11006 net.cpp:91] Creating Layer inception_4d/pool_proj
I0403 14:42:26.746031 11006 net.cpp:425] inception_4d/pool_proj <- inception_4d/pool
I0403 14:42:26.746052 11006 net.cpp:399] inception_4d/pool_proj -> inception_4d/pool_proj
I0403 14:42:26.747910 11006 net.cpp:141] Setting up inception_4d/pool_proj
I0403 14:42:26.747941 11006 net.cpp:148] Top shape: 24 64 14 14 (301056)
I0403 14:42:26.747956 11006 net.cpp:156] Memory required for data: 1146105120
I0403 14:42:26.747975 11006 layer_factory.hpp:77] Creating layer inception_4d/relu_pool_proj
I0403 14:42:26.747994 11006 net.cpp:91] Creating Layer inception_4d/relu_pool_proj
I0403 14:42:26.748010 11006 net.cpp:425] inception_4d/relu_pool_proj <- inception_4d/pool_proj
I0403 14:42:26.748030 11006 net.cpp:386] inception_4d/relu_pool_proj -> inception_4d/pool_proj (in-place)
I0403 14:42:26.748224 11006 net.cpp:141] Setting up inception_4d/relu_pool_proj
I0403 14:42:26.748250 11006 net.cpp:148] Top shape: 24 64 14 14 (301056)
I0403 14:42:26.748265 11006 net.cpp:156] Memory required for data: 1147309344
I0403 14:42:26.748280 11006 layer_factory.hpp:77] Creating layer inception_4d/output
I0403 14:42:26.748299 11006 net.cpp:91] Creating Layer inception_4d/output
I0403 14:42:26.748316 11006 net.cpp:425] inception_4d/output <- inception_4d/1x1
I0403 14:42:26.748332 11006 net.cpp:425] inception_4d/output <- inception_4d/3x3
I0403 14:42:26.748348 11006 net.cpp:425] inception_4d/output <- inception_4d/5x5
I0403 14:42:26.748364 11006 net.cpp:425] inception_4d/output <- inception_4d/pool_proj
I0403 14:42:26.748381 11006 net.cpp:399] inception_4d/output -> inception_4d/output
I0403 14:42:26.748432 11006 net.cpp:141] Setting up inception_4d/output
I0403 14:42:26.748456 11006 net.cpp:148] Top shape: 24 528 14 14 (2483712)
I0403 14:42:26.748471 11006 net.cpp:156] Memory required for data: 1157244192
I0403 14:42:26.748486 11006 layer_factory.hpp:77] Creating layer inception_4d/output_inception_4d/output_0_split
I0403 14:42:26.748503 11006 net.cpp:91] Creating Layer inception_4d/output_inception_4d/output_0_split
I0403 14:42:26.748519 11006 net.cpp:425] inception_4d/output_inception_4d/output_0_split <- inception_4d/output
I0403 14:42:26.748538 11006 net.cpp:399] inception_4d/output_inception_4d/output_0_split -> inception_4d/output_inception_4d/output_0_split_0
I0403 14:42:26.748560 11006 net.cpp:399] inception_4d/output_inception_4d/output_0_split -> inception_4d/output_inception_4d/output_0_split_1
I0403 14:42:26.748581 11006 net.cpp:399] inception_4d/output_inception_4d/output_0_split -> inception_4d/output_inception_4d/output_0_split_2
I0403 14:42:26.748603 11006 net.cpp:399] inception_4d/output_inception_4d/output_0_split -> inception_4d/output_inception_4d/output_0_split_3
I0403 14:42:26.748623 11006 net.cpp:399] inception_4d/output_inception_4d/output_0_split -> inception_4d/output_inception_4d/output_0_split_4
I0403 14:42:26.748723 11006 net.cpp:141] Setting up inception_4d/output_inception_4d/output_0_split
I0403 14:42:26.748759 11006 net.cpp:148] Top shape: 24 528 14 14 (2483712)
I0403 14:42:26.748780 11006 net.cpp:148] Top shape: 24 528 14 14 (2483712)
I0403 14:42:26.748796 11006 net.cpp:148] Top shape: 24 528 14 14 (2483712)
I0403 14:42:26.748812 11006 net.cpp:148] Top shape: 24 528 14 14 (2483712)
I0403 14:42:26.748828 11006 net.cpp:148] Top shape: 24 528 14 14 (2483712)
I0403 14:42:26.748842 11006 net.cpp:156] Memory required for data: 1206918432
I0403 14:42:26.748857 11006 layer_factory.hpp:77] Creating layer loss2/ave_pool
I0403 14:42:26.748874 11006 net.cpp:91] Creating Layer loss2/ave_pool
I0403 14:42:26.748889 11006 net.cpp:425] loss2/ave_pool <- inception_4d/output_inception_4d/output_0_split_0
I0403 14:42:26.748911 11006 net.cpp:399] loss2/ave_pool -> loss2/ave_pool
I0403 14:42:26.749238 11006 net.cpp:141] Setting up loss2/ave_pool
I0403 14:42:26.749264 11006 net.cpp:148] Top shape: 24 528 4 4 (202752)
I0403 14:42:26.749279 11006 net.cpp:156] Memory required for data: 1207729440
I0403 14:42:26.749295 11006 layer_factory.hpp:77] Creating layer loss2/conv
I0403 14:42:26.749317 11006 net.cpp:91] Creating Layer loss2/conv
I0403 14:42:26.749336 11006 net.cpp:425] loss2/conv <- loss2/ave_pool
I0403 14:42:26.749359 11006 net.cpp:399] loss2/conv -> loss2/conv
I0403 14:42:26.751262 11006 net.cpp:141] Setting up loss2/conv
I0403 14:42:26.751291 11006 net.cpp:148] Top shape: 24 128 4 4 (49152)
I0403 14:42:26.751307 11006 net.cpp:156] Memory required for data: 1207926048
I0403 14:42:26.751325 11006 layer_factory.hpp:77] Creating layer loss2/relu_conv
I0403 14:42:26.751346 11006 net.cpp:91] Creating Layer loss2/relu_conv
I0403 14:42:26.751363 11006 net.cpp:425] loss2/relu_conv <- loss2/conv
I0403 14:42:26.751379 11006 net.cpp:386] loss2/relu_conv -> loss2/conv (in-place)
I0403 14:42:26.751677 11006 net.cpp:141] Setting up loss2/relu_conv
I0403 14:42:26.751704 11006 net.cpp:148] Top shape: 24 128 4 4 (49152)
I0403 14:42:26.751723 11006 net.cpp:156] Memory required for data: 1208122656
I0403 14:42:26.751737 11006 layer_factory.hpp:77] Creating layer loss2/fc
I0403 14:42:26.751756 11006 net.cpp:91] Creating Layer loss2/fc
I0403 14:42:26.751771 11006 net.cpp:425] loss2/fc <- loss2/conv
I0403 14:42:26.751791 11006 net.cpp:399] loss2/fc -> loss2/fc
I0403 14:42:26.769372 11006 net.cpp:141] Setting up loss2/fc
I0403 14:42:26.769419 11006 net.cpp:148] Top shape: 24 1024 (24576)
I0403 14:42:26.769436 11006 net.cpp:156] Memory required for data: 1208220960
I0403 14:42:26.769455 11006 layer_factory.hpp:77] Creating layer loss2/relu_fc
I0403 14:42:26.769474 11006 net.cpp:91] Creating Layer loss2/relu_fc
I0403 14:42:26.769495 11006 net.cpp:425] loss2/relu_fc <- loss2/fc
I0403 14:42:26.769512 11006 net.cpp:386] loss2/relu_fc -> loss2/fc (in-place)
I0403 14:42:26.769827 11006 net.cpp:141] Setting up loss2/relu_fc
I0403 14:42:26.769855 11006 net.cpp:148] Top shape: 24 1024 (24576)
I0403 14:42:26.769870 11006 net.cpp:156] Memory required for data: 1208319264
I0403 14:42:26.769884 11006 layer_factory.hpp:77] Creating layer loss2/drop_fc
I0403 14:42:26.769902 11006 net.cpp:91] Creating Layer loss2/drop_fc
I0403 14:42:26.769922 11006 net.cpp:425] loss2/drop_fc <- loss2/fc
I0403 14:42:26.769938 11006 net.cpp:386] loss2/drop_fc -> loss2/fc (in-place)
I0403 14:42:26.769987 11006 net.cpp:141] Setting up loss2/drop_fc
I0403 14:42:26.770014 11006 net.cpp:148] Top shape: 24 1024 (24576)
I0403 14:42:26.770030 11006 net.cpp:156] Memory required for data: 1208417568
I0403 14:42:26.770045 11006 layer_factory.hpp:77] Creating layer loss2/classifier_plantvillage
I0403 14:42:26.770061 11006 net.cpp:91] Creating Layer loss2/classifier_plantvillage
I0403 14:42:26.770077 11006 net.cpp:425] loss2/classifier_plantvillage <- loss2/fc
I0403 14:42:26.770104 11006 net.cpp:399] loss2/classifier_plantvillage -> loss2/classifier_plantvillage
I0403 14:42:26.770535 11006 net.cpp:141] Setting up loss2/classifier_plantvillage
I0403 14:42:26.770576 11006 net.cpp:148] Top shape: 24 38 (912)
I0403 14:42:26.770613 11006 net.cpp:156] Memory required for data: 1208421216
I0403 14:42:26.770632 11006 layer_factory.hpp:77] Creating layer loss2/classifier_plantvillage_loss2/classifier_plantvillage_0_split
I0403 14:42:26.770650 11006 net.cpp:91] Creating Layer loss2/classifier_plantvillage_loss2/classifier_plantvillage_0_split
I0403 14:42:26.770666 11006 net.cpp:425] loss2/classifier_plantvillage_loss2/classifier_plantvillage_0_split <- loss2/classifier_plantvillage
I0403 14:42:26.770684 11006 net.cpp:399] loss2/classifier_plantvillage_loss2/classifier_plantvillage_0_split -> loss2/classifier_plantvillage_loss2/classifier_plantvillage_0_split_0
I0403 14:42:26.770704 11006 net.cpp:399] loss2/classifier_plantvillage_loss2/classifier_plantvillage_0_split -> loss2/classifier_plantvillage_loss2/classifier_plantvillage_0_split_1
I0403 14:42:26.770726 11006 net.cpp:399] loss2/classifier_plantvillage_loss2/classifier_plantvillage_0_split -> loss2/classifier_plantvillage_loss2/classifier_plantvillage_0_split_2
I0403 14:42:26.770805 11006 net.cpp:141] Setting up loss2/classifier_plantvillage_loss2/classifier_plantvillage_0_split
I0403 14:42:26.770830 11006 net.cpp:148] Top shape: 24 38 (912)
I0403 14:42:26.770845 11006 net.cpp:148] Top shape: 24 38 (912)
I0403 14:42:26.770860 11006 net.cpp:148] Top shape: 24 38 (912)
I0403 14:42:26.770874 11006 net.cpp:156] Memory required for data: 1208432160
I0403 14:42:26.770889 11006 layer_factory.hpp:77] Creating layer inception_4e/1x1
I0403 14:42:26.770913 11006 net.cpp:91] Creating Layer inception_4e/1x1
I0403 14:42:26.770932 11006 net.cpp:425] inception_4e/1x1 <- inception_4d/output_inception_4d/output_0_split_1
I0403 14:42:26.770953 11006 net.cpp:399] inception_4e/1x1 -> inception_4e/1x1
I0403 14:42:26.772801 11006 net.cpp:141] Setting up inception_4e/1x1
I0403 14:42:26.772830 11006 net.cpp:148] Top shape: 24 256 14 14 (1204224)
I0403 14:42:26.772846 11006 net.cpp:156] Memory required for data: 1213249056
I0403 14:42:26.772863 11006 layer_factory.hpp:77] Creating layer inception_4e/relu_1x1
I0403 14:42:26.772884 11006 net.cpp:91] Creating Layer inception_4e/relu_1x1
I0403 14:42:26.772900 11006 net.cpp:425] inception_4e/relu_1x1 <- inception_4e/1x1
I0403 14:42:26.772918 11006 net.cpp:386] inception_4e/relu_1x1 -> inception_4e/1x1 (in-place)
I0403 14:42:26.773221 11006 net.cpp:141] Setting up inception_4e/relu_1x1
I0403 14:42:26.773248 11006 net.cpp:148] Top shape: 24 256 14 14 (1204224)
I0403 14:42:26.773263 11006 net.cpp:156] Memory required for data: 1218065952
I0403 14:42:26.773278 11006 layer_factory.hpp:77] Creating layer inception_4e/3x3_reduce
I0403 14:42:26.773303 11006 net.cpp:91] Creating Layer inception_4e/3x3_reduce
I0403 14:42:26.773320 11006 net.cpp:425] inception_4e/3x3_reduce <- inception_4d/output_inception_4d/output_0_split_2
I0403 14:42:26.773340 11006 net.cpp:399] inception_4e/3x3_reduce -> inception_4e/3x3_reduce
I0403 14:42:26.775498 11006 net.cpp:141] Setting up inception_4e/3x3_reduce
I0403 14:42:26.775530 11006 net.cpp:148] Top shape: 24 160 14 14 (752640)
I0403 14:42:26.775547 11006 net.cpp:156] Memory required for data: 1221076512
I0403 14:42:26.775563 11006 layer_factory.hpp:77] Creating layer inception_4e/relu_3x3_reduce
I0403 14:42:26.775583 11006 net.cpp:91] Creating Layer inception_4e/relu_3x3_reduce
I0403 14:42:26.775600 11006 net.cpp:425] inception_4e/relu_3x3_reduce <- inception_4e/3x3_reduce
I0403 14:42:26.775617 11006 net.cpp:386] inception_4e/relu_3x3_reduce -> inception_4e/3x3_reduce (in-place)
I0403 14:42:26.775807 11006 net.cpp:141] Setting up inception_4e/relu_3x3_reduce
I0403 14:42:26.775835 11006 net.cpp:148] Top shape: 24 160 14 14 (752640)
I0403 14:42:26.775849 11006 net.cpp:156] Memory required for data: 1224087072
I0403 14:42:26.775864 11006 layer_factory.hpp:77] Creating layer inception_4e/3x3
I0403 14:42:26.775887 11006 net.cpp:91] Creating Layer inception_4e/3x3
I0403 14:42:26.775903 11006 net.cpp:425] inception_4e/3x3 <- inception_4e/3x3_reduce
I0403 14:42:26.775923 11006 net.cpp:399] inception_4e/3x3 -> inception_4e/3x3
I0403 14:42:26.780926 11006 net.cpp:141] Setting up inception_4e/3x3
I0403 14:42:26.780972 11006 net.cpp:148] Top shape: 24 320 14 14 (1505280)
I0403 14:42:26.780990 11006 net.cpp:156] Memory required for data: 1230108192
I0403 14:42:26.781009 11006 layer_factory.hpp:77] Creating layer inception_4e/relu_3x3
I0403 14:42:26.781026 11006 net.cpp:91] Creating Layer inception_4e/relu_3x3
I0403 14:42:26.781043 11006 net.cpp:425] inception_4e/relu_3x3 <- inception_4e/3x3
I0403 14:42:26.781061 11006 net.cpp:386] inception_4e/relu_3x3 -> inception_4e/3x3 (in-place)
I0403 14:42:26.781409 11006 net.cpp:141] Setting up inception_4e/relu_3x3
I0403 14:42:26.781436 11006 net.cpp:148] Top shape: 24 320 14 14 (1505280)
I0403 14:42:26.781453 11006 net.cpp:156] Memory required for data: 1236129312
I0403 14:42:26.781469 11006 layer_factory.hpp:77] Creating layer inception_4e/5x5_reduce
I0403 14:42:26.781492 11006 net.cpp:91] Creating Layer inception_4e/5x5_reduce
I0403 14:42:26.781512 11006 net.cpp:425] inception_4e/5x5_reduce <- inception_4d/output_inception_4d/output_0_split_3
I0403 14:42:26.781534 11006 net.cpp:399] inception_4e/5x5_reduce -> inception_4e/5x5_reduce
I0403 14:42:26.782644 11006 net.cpp:141] Setting up inception_4e/5x5_reduce
I0403 14:42:26.782675 11006 net.cpp:148] Top shape: 24 32 14 14 (150528)
I0403 14:42:26.782691 11006 net.cpp:156] Memory required for data: 1236731424
I0403 14:42:26.782709 11006 layer_factory.hpp:77] Creating layer inception_4e/relu_5x5_reduce
I0403 14:42:26.782730 11006 net.cpp:91] Creating Layer inception_4e/relu_5x5_reduce
I0403 14:42:26.782747 11006 net.cpp:425] inception_4e/relu_5x5_reduce <- inception_4e/5x5_reduce
I0403 14:42:26.782766 11006 net.cpp:386] inception_4e/relu_5x5_reduce -> inception_4e/5x5_reduce (in-place)
I0403 14:42:26.783072 11006 net.cpp:141] Setting up inception_4e/relu_5x5_reduce
I0403 14:42:26.783107 11006 net.cpp:148] Top shape: 24 32 14 14 (150528)
I0403 14:42:26.783125 11006 net.cpp:156] Memory required for data: 1237333536
I0403 14:42:26.783141 11006 layer_factory.hpp:77] Creating layer inception_4e/5x5
I0403 14:42:26.783181 11006 net.cpp:91] Creating Layer inception_4e/5x5
I0403 14:42:26.783202 11006 net.cpp:425] inception_4e/5x5 <- inception_4e/5x5_reduce
I0403 14:42:26.783222 11006 net.cpp:399] inception_4e/5x5 -> inception_4e/5x5
I0403 14:42:26.785126 11006 net.cpp:141] Setting up inception_4e/5x5
I0403 14:42:26.785156 11006 net.cpp:148] Top shape: 24 128 14 14 (602112)
I0403 14:42:26.785172 11006 net.cpp:156] Memory required for data: 1239741984
I0403 14:42:26.785192 11006 layer_factory.hpp:77] Creating layer inception_4e/relu_5x5
I0403 14:42:26.785212 11006 net.cpp:91] Creating Layer inception_4e/relu_5x5
I0403 14:42:26.785230 11006 net.cpp:425] inception_4e/relu_5x5 <- inception_4e/5x5
I0403 14:42:26.785248 11006 net.cpp:386] inception_4e/relu_5x5 -> inception_4e/5x5 (in-place)
I0403 14:42:26.785450 11006 net.cpp:141] Setting up inception_4e/relu_5x5
I0403 14:42:26.785481 11006 net.cpp:148] Top shape: 24 128 14 14 (602112)
I0403 14:42:26.785497 11006 net.cpp:156] Memory required for data: 1242150432
I0403 14:42:26.785513 11006 layer_factory.hpp:77] Creating layer inception_4e/pool
I0403 14:42:26.785531 11006 net.cpp:91] Creating Layer inception_4e/pool
I0403 14:42:26.785548 11006 net.cpp:425] inception_4e/pool <- inception_4d/output_inception_4d/output_0_split_4
I0403 14:42:26.785565 11006 net.cpp:399] inception_4e/pool -> inception_4e/pool
I0403 14:42:26.785639 11006 net.cpp:141] Setting up inception_4e/pool
I0403 14:42:26.785663 11006 net.cpp:148] Top shape: 24 528 14 14 (2483712)
I0403 14:42:26.785678 11006 net.cpp:156] Memory required for data: 1252085280
I0403 14:42:26.785694 11006 layer_factory.hpp:77] Creating layer inception_4e/pool_proj
I0403 14:42:26.785717 11006 net.cpp:91] Creating Layer inception_4e/pool_proj
I0403 14:42:26.785735 11006 net.cpp:425] inception_4e/pool_proj <- inception_4e/pool
I0403 14:42:26.785758 11006 net.cpp:399] inception_4e/pool_proj -> inception_4e/pool_proj
I0403 14:42:26.787308 11006 net.cpp:141] Setting up inception_4e/pool_proj
I0403 14:42:26.787349 11006 net.cpp:148] Top shape: 24 128 14 14 (602112)
I0403 14:42:26.787366 11006 net.cpp:156] Memory required for data: 1254493728
I0403 14:42:26.787385 11006 layer_factory.hpp:77] Creating layer inception_4e/relu_pool_proj
I0403 14:42:26.787405 11006 net.cpp:91] Creating Layer inception_4e/relu_pool_proj
I0403 14:42:26.787421 11006 net.cpp:425] inception_4e/relu_pool_proj <- inception_4e/pool_proj
I0403 14:42:26.787441 11006 net.cpp:386] inception_4e/relu_pool_proj -> inception_4e/pool_proj (in-place)
I0403 14:42:26.787744 11006 net.cpp:141] Setting up inception_4e/relu_pool_proj
I0403 14:42:26.787771 11006 net.cpp:148] Top shape: 24 128 14 14 (602112)
I0403 14:42:26.787786 11006 net.cpp:156] Memory required for data: 1256902176
I0403 14:42:26.787802 11006 layer_factory.hpp:77] Creating layer inception_4e/output
I0403 14:42:26.787820 11006 net.cpp:91] Creating Layer inception_4e/output
I0403 14:42:26.787835 11006 net.cpp:425] inception_4e/output <- inception_4e/1x1
I0403 14:42:26.787853 11006 net.cpp:425] inception_4e/output <- inception_4e/3x3
I0403 14:42:26.787868 11006 net.cpp:425] inception_4e/output <- inception_4e/5x5
I0403 14:42:26.787888 11006 net.cpp:425] inception_4e/output <- inception_4e/pool_proj
I0403 14:42:26.787906 11006 net.cpp:399] inception_4e/output -> inception_4e/output
I0403 14:42:26.787957 11006 net.cpp:141] Setting up inception_4e/output
I0403 14:42:26.787984 11006 net.cpp:148] Top shape: 24 832 14 14 (3913728)
I0403 14:42:26.788000 11006 net.cpp:156] Memory required for data: 1272557088
I0403 14:42:26.788017 11006 layer_factory.hpp:77] Creating layer pool4/3x3_s2
I0403 14:42:26.788033 11006 net.cpp:91] Creating Layer pool4/3x3_s2
I0403 14:42:26.788050 11006 net.cpp:425] pool4/3x3_s2 <- inception_4e/output
I0403 14:42:26.788071 11006 net.cpp:399] pool4/3x3_s2 -> pool4/3x3_s2
I0403 14:42:26.788148 11006 net.cpp:141] Setting up pool4/3x3_s2
I0403 14:42:26.788174 11006 net.cpp:148] Top shape: 24 832 7 7 (978432)
I0403 14:42:26.788190 11006 net.cpp:156] Memory required for data: 1276470816
I0403 14:42:26.788204 11006 layer_factory.hpp:77] Creating layer pool4/3x3_s2_pool4/3x3_s2_0_split
I0403 14:42:26.788224 11006 net.cpp:91] Creating Layer pool4/3x3_s2_pool4/3x3_s2_0_split
I0403 14:42:26.788242 11006 net.cpp:425] pool4/3x3_s2_pool4/3x3_s2_0_split <- pool4/3x3_s2
I0403 14:42:26.788260 11006 net.cpp:399] pool4/3x3_s2_pool4/3x3_s2_0_split -> pool4/3x3_s2_pool4/3x3_s2_0_split_0
I0403 14:42:26.788280 11006 net.cpp:399] pool4/3x3_s2_pool4/3x3_s2_0_split -> pool4/3x3_s2_pool4/3x3_s2_0_split_1
I0403 14:42:26.788302 11006 net.cpp:399] pool4/3x3_s2_pool4/3x3_s2_0_split -> pool4/3x3_s2_pool4/3x3_s2_0_split_2
I0403 14:42:26.788324 11006 net.cpp:399] pool4/3x3_s2_pool4/3x3_s2_0_split -> pool4/3x3_s2_pool4/3x3_s2_0_split_3
I0403 14:42:26.788417 11006 net.cpp:141] Setting up pool4/3x3_s2_pool4/3x3_s2_0_split
I0403 14:42:26.788442 11006 net.cpp:148] Top shape: 24 832 7 7 (978432)
I0403 14:42:26.788460 11006 net.cpp:148] Top shape: 24 832 7 7 (978432)
I0403 14:42:26.788475 11006 net.cpp:148] Top shape: 24 832 7 7 (978432)
I0403 14:42:26.788491 11006 net.cpp:148] Top shape: 24 832 7 7 (978432)
I0403 14:42:26.788506 11006 net.cpp:156] Memory required for data: 1292125728
I0403 14:42:26.788519 11006 layer_factory.hpp:77] Creating layer inception_5a/1x1
I0403 14:42:26.788542 11006 net.cpp:91] Creating Layer inception_5a/1x1
I0403 14:42:26.788559 11006 net.cpp:425] inception_5a/1x1 <- pool4/3x3_s2_pool4/3x3_s2_0_split_0
I0403 14:42:26.788581 11006 net.cpp:399] inception_5a/1x1 -> inception_5a/1x1
I0403 14:42:26.791532 11006 net.cpp:141] Setting up inception_5a/1x1
I0403 14:42:26.791563 11006 net.cpp:148] Top shape: 24 256 7 7 (301056)
I0403 14:42:26.791580 11006 net.cpp:156] Memory required for data: 1293329952
I0403 14:42:26.791599 11006 layer_factory.hpp:77] Creating layer inception_5a/relu_1x1
I0403 14:42:26.791621 11006 net.cpp:91] Creating Layer inception_5a/relu_1x1
I0403 14:42:26.791640 11006 net.cpp:425] inception_5a/relu_1x1 <- inception_5a/1x1
I0403 14:42:26.791657 11006 net.cpp:386] inception_5a/relu_1x1 -> inception_5a/1x1 (in-place)
I0403 14:42:26.791977 11006 net.cpp:141] Setting up inception_5a/relu_1x1
I0403 14:42:26.792006 11006 net.cpp:148] Top shape: 24 256 7 7 (301056)
I0403 14:42:26.792022 11006 net.cpp:156] Memory required for data: 1294534176
I0403 14:42:26.792037 11006 layer_factory.hpp:77] Creating layer inception_5a/3x3_reduce
I0403 14:42:26.792062 11006 net.cpp:91] Creating Layer inception_5a/3x3_reduce
I0403 14:42:26.792080 11006 net.cpp:425] inception_5a/3x3_reduce <- pool4/3x3_s2_pool4/3x3_s2_0_split_1
I0403 14:42:26.792116 11006 net.cpp:399] inception_5a/3x3_reduce -> inception_5a/3x3_reduce
I0403 14:42:26.794667 11006 net.cpp:141] Setting up inception_5a/3x3_reduce
I0403 14:42:26.794697 11006 net.cpp:148] Top shape: 24 160 7 7 (188160)
I0403 14:42:26.794713 11006 net.cpp:156] Memory required for data: 1295286816
I0403 14:42:26.794733 11006 layer_factory.hpp:77] Creating layer inception_5a/relu_3x3_reduce
I0403 14:42:26.794751 11006 net.cpp:91] Creating Layer inception_5a/relu_3x3_reduce
I0403 14:42:26.794769 11006 net.cpp:425] inception_5a/relu_3x3_reduce <- inception_5a/3x3_reduce
I0403 14:42:26.794788 11006 net.cpp:386] inception_5a/relu_3x3_reduce -> inception_5a/3x3_reduce (in-place)
I0403 14:42:26.794984 11006 net.cpp:141] Setting up inception_5a/relu_3x3_reduce
I0403 14:42:26.795011 11006 net.cpp:148] Top shape: 24 160 7 7 (188160)
I0403 14:42:26.795025 11006 net.cpp:156] Memory required for data: 1296039456
I0403 14:42:26.795040 11006 layer_factory.hpp:77] Creating layer inception_5a/3x3
I0403 14:42:26.795063 11006 net.cpp:91] Creating Layer inception_5a/3x3
I0403 14:42:26.795080 11006 net.cpp:425] inception_5a/3x3 <- inception_5a/3x3_reduce
I0403 14:42:26.795110 11006 net.cpp:399] inception_5a/3x3 -> inception_5a/3x3
I0403 14:42:26.800321 11006 net.cpp:141] Setting up inception_5a/3x3
I0403 14:42:26.800353 11006 net.cpp:148] Top shape: 24 320 7 7 (376320)
I0403 14:42:26.800369 11006 net.cpp:156] Memory required for data: 1297544736
I0403 14:42:26.800386 11006 layer_factory.hpp:77] Creating layer inception_5a/relu_3x3
I0403 14:42:26.800406 11006 net.cpp:91] Creating Layer inception_5a/relu_3x3
I0403 14:42:26.800425 11006 net.cpp:425] inception_5a/relu_3x3 <- inception_5a/3x3
I0403 14:42:26.800441 11006 net.cpp:386] inception_5a/relu_3x3 -> inception_5a/3x3 (in-place)
I0403 14:42:26.800741 11006 net.cpp:141] Setting up inception_5a/relu_3x3
I0403 14:42:26.800768 11006 net.cpp:148] Top shape: 24 320 7 7 (376320)
I0403 14:42:26.800782 11006 net.cpp:156] Memory required for data: 1299050016
I0403 14:42:26.800797 11006 layer_factory.hpp:77] Creating layer inception_5a/5x5_reduce
I0403 14:42:26.800819 11006 net.cpp:91] Creating Layer inception_5a/5x5_reduce
I0403 14:42:26.800837 11006 net.cpp:425] inception_5a/5x5_reduce <- pool4/3x3_s2_pool4/3x3_s2_0_split_2
I0403 14:42:26.800861 11006 net.cpp:399] inception_5a/5x5_reduce -> inception_5a/5x5_reduce
I0403 14:42:26.802034 11006 net.cpp:141] Setting up inception_5a/5x5_reduce
I0403 14:42:26.802067 11006 net.cpp:148] Top shape: 24 32 7 7 (37632)
I0403 14:42:26.802083 11006 net.cpp:156] Memory required for data: 1299200544
I0403 14:42:26.802115 11006 layer_factory.hpp:77] Creating layer inception_5a/relu_5x5_reduce
I0403 14:42:26.802136 11006 net.cpp:91] Creating Layer inception_5a/relu_5x5_reduce
I0403 14:42:26.802152 11006 net.cpp:425] inception_5a/relu_5x5_reduce <- inception_5a/5x5_reduce
I0403 14:42:26.802170 11006 net.cpp:386] inception_5a/relu_5x5_reduce -> inception_5a/5x5_reduce (in-place)
I0403 14:42:26.802474 11006 net.cpp:141] Setting up inception_5a/relu_5x5_reduce
I0403 14:42:26.802501 11006 net.cpp:148] Top shape: 24 32 7 7 (37632)
I0403 14:42:26.802520 11006 net.cpp:156] Memory required for data: 1299351072
I0403 14:42:26.802536 11006 layer_factory.hpp:77] Creating layer inception_5a/5x5
I0403 14:42:26.802556 11006 net.cpp:91] Creating Layer inception_5a/5x5
I0403 14:42:26.802572 11006 net.cpp:425] inception_5a/5x5 <- inception_5a/5x5_reduce
I0403 14:42:26.802594 11006 net.cpp:399] inception_5a/5x5 -> inception_5a/5x5
I0403 14:42:26.804327 11006 net.cpp:141] Setting up inception_5a/5x5
I0403 14:42:26.804368 11006 net.cpp:148] Top shape: 24 128 7 7 (150528)
I0403 14:42:26.804385 11006 net.cpp:156] Memory required for data: 1299953184
I0403 14:42:26.804404 11006 layer_factory.hpp:77] Creating layer inception_5a/relu_5x5
I0403 14:42:26.804425 11006 net.cpp:91] Creating Layer inception_5a/relu_5x5
I0403 14:42:26.804442 11006 net.cpp:425] inception_5a/relu_5x5 <- inception_5a/5x5
I0403 14:42:26.804460 11006 net.cpp:386] inception_5a/relu_5x5 -> inception_5a/5x5 (in-place)
I0403 14:42:26.804653 11006 net.cpp:141] Setting up inception_5a/relu_5x5
I0403 14:42:26.804682 11006 net.cpp:148] Top shape: 24 128 7 7 (150528)
I0403 14:42:26.804697 11006 net.cpp:156] Memory required for data: 1300555296
I0403 14:42:26.804710 11006 layer_factory.hpp:77] Creating layer inception_5a/pool
I0403 14:42:26.804729 11006 net.cpp:91] Creating Layer inception_5a/pool
I0403 14:42:26.804745 11006 net.cpp:425] inception_5a/pool <- pool4/3x3_s2_pool4/3x3_s2_0_split_3
I0403 14:42:26.804762 11006 net.cpp:399] inception_5a/pool -> inception_5a/pool
I0403 14:42:26.804833 11006 net.cpp:141] Setting up inception_5a/pool
I0403 14:42:26.804858 11006 net.cpp:148] Top shape: 24 832 7 7 (978432)
I0403 14:42:26.804872 11006 net.cpp:156] Memory required for data: 1304469024
I0403 14:42:26.804886 11006 layer_factory.hpp:77] Creating layer inception_5a/pool_proj
I0403 14:42:26.804908 11006 net.cpp:91] Creating Layer inception_5a/pool_proj
I0403 14:42:26.804926 11006 net.cpp:425] inception_5a/pool_proj <- inception_5a/pool
I0403 14:42:26.804947 11006 net.cpp:399] inception_5a/pool_proj -> inception_5a/pool_proj
I0403 14:42:26.807250 11006 net.cpp:141] Setting up inception_5a/pool_proj
I0403 14:42:26.807281 11006 net.cpp:148] Top shape: 24 128 7 7 (150528)
I0403 14:42:26.807297 11006 net.cpp:156] Memory required for data: 1305071136
I0403 14:42:26.807315 11006 layer_factory.hpp:77] Creating layer inception_5a/relu_pool_proj
I0403 14:42:26.807337 11006 net.cpp:91] Creating Layer inception_5a/relu_pool_proj
I0403 14:42:26.807354 11006 net.cpp:425] inception_5a/relu_pool_proj <- inception_5a/pool_proj
I0403 14:42:26.807373 11006 net.cpp:386] inception_5a/relu_pool_proj -> inception_5a/pool_proj (in-place)
I0403 14:42:26.807669 11006 net.cpp:141] Setting up inception_5a/relu_pool_proj
I0403 14:42:26.807696 11006 net.cpp:148] Top shape: 24 128 7 7 (150528)
I0403 14:42:26.807713 11006 net.cpp:156] Memory required for data: 1305673248
I0403 14:42:26.807728 11006 layer_factory.hpp:77] Creating layer inception_5a/output
I0403 14:42:26.807744 11006 net.cpp:91] Creating Layer inception_5a/output
I0403 14:42:26.807760 11006 net.cpp:425] inception_5a/output <- inception_5a/1x1
I0403 14:42:26.807775 11006 net.cpp:425] inception_5a/output <- inception_5a/3x3
I0403 14:42:26.807791 11006 net.cpp:425] inception_5a/output <- inception_5a/5x5
I0403 14:42:26.807807 11006 net.cpp:425] inception_5a/output <- inception_5a/pool_proj
I0403 14:42:26.807827 11006 net.cpp:399] inception_5a/output -> inception_5a/output
I0403 14:42:26.807878 11006 net.cpp:141] Setting up inception_5a/output
I0403 14:42:26.807904 11006 net.cpp:148] Top shape: 24 832 7 7 (978432)
I0403 14:42:26.807919 11006 net.cpp:156] Memory required for data: 1309586976
I0403 14:42:26.807934 11006 layer_factory.hpp:77] Creating layer inception_5a/output_inception_5a/output_0_split
I0403 14:42:26.807951 11006 net.cpp:91] Creating Layer inception_5a/output_inception_5a/output_0_split
I0403 14:42:26.807967 11006 net.cpp:425] inception_5a/output_inception_5a/output_0_split <- inception_5a/output
I0403 14:42:26.807987 11006 net.cpp:399] inception_5a/output_inception_5a/output_0_split -> inception_5a/output_inception_5a/output_0_split_0
I0403 14:42:26.808009 11006 net.cpp:399] inception_5a/output_inception_5a/output_0_split -> inception_5a/output_inception_5a/output_0_split_1
I0403 14:42:26.808030 11006 net.cpp:399] inception_5a/output_inception_5a/output_0_split -> inception_5a/output_inception_5a/output_0_split_2
I0403 14:42:26.808050 11006 net.cpp:399] inception_5a/output_inception_5a/output_0_split -> inception_5a/output_inception_5a/output_0_split_3
I0403 14:42:26.808171 11006 net.cpp:141] Setting up inception_5a/output_inception_5a/output_0_split
I0403 14:42:26.808197 11006 net.cpp:148] Top shape: 24 832 7 7 (978432)
I0403 14:42:26.808213 11006 net.cpp:148] Top shape: 24 832 7 7 (978432)
I0403 14:42:26.808228 11006 net.cpp:148] Top shape: 24 832 7 7 (978432)
I0403 14:42:26.808244 11006 net.cpp:148] Top shape: 24 832 7 7 (978432)
I0403 14:42:26.808259 11006 net.cpp:156] Memory required for data: 1325241888
I0403 14:42:26.808272 11006 layer_factory.hpp:77] Creating layer inception_5b/1x1
I0403 14:42:26.808295 11006 net.cpp:91] Creating Layer inception_5b/1x1
I0403 14:42:26.808315 11006 net.cpp:425] inception_5b/1x1 <- inception_5a/output_inception_5a/output_0_split_0
I0403 14:42:26.808334 11006 net.cpp:399] inception_5b/1x1 -> inception_5b/1x1
I0403 14:42:26.812142 11006 net.cpp:141] Setting up inception_5b/1x1
I0403 14:42:26.812173 11006 net.cpp:148] Top shape: 24 384 7 7 (451584)
I0403 14:42:26.812189 11006 net.cpp:156] Memory required for data: 1327048224
I0403 14:42:26.812208 11006 layer_factory.hpp:77] Creating layer inception_5b/relu_1x1
I0403 14:42:26.812227 11006 net.cpp:91] Creating Layer inception_5b/relu_1x1
I0403 14:42:26.812243 11006 net.cpp:425] inception_5b/relu_1x1 <- inception_5b/1x1
I0403 14:42:26.812263 11006 net.cpp:386] inception_5b/relu_1x1 -> inception_5b/1x1 (in-place)
I0403 14:42:26.812577 11006 net.cpp:141] Setting up inception_5b/relu_1x1
I0403 14:42:26.812603 11006 net.cpp:148] Top shape: 24 384 7 7 (451584)
I0403 14:42:26.812618 11006 net.cpp:156] Memory required for data: 1328854560
I0403 14:42:26.812633 11006 layer_factory.hpp:77] Creating layer inception_5b/3x3_reduce
I0403 14:42:26.812655 11006 net.cpp:91] Creating Layer inception_5b/3x3_reduce
I0403 14:42:26.812672 11006 net.cpp:425] inception_5b/3x3_reduce <- inception_5a/output_inception_5a/output_0_split_1
I0403 14:42:26.812695 11006 net.cpp:399] inception_5b/3x3_reduce -> inception_5b/3x3_reduce
I0403 14:42:26.815383 11006 net.cpp:141] Setting up inception_5b/3x3_reduce
I0403 14:42:26.815413 11006 net.cpp:148] Top shape: 24 192 7 7 (225792)
I0403 14:42:26.815429 11006 net.cpp:156] Memory required for data: 1329757728
I0403 14:42:26.815448 11006 layer_factory.hpp:77] Creating layer inception_5b/relu_3x3_reduce
I0403 14:42:26.815466 11006 net.cpp:91] Creating Layer inception_5b/relu_3x3_reduce
I0403 14:42:26.815485 11006 net.cpp:425] inception_5b/relu_3x3_reduce <- inception_5b/3x3_reduce
I0403 14:42:26.815502 11006 net.cpp:386] inception_5b/relu_3x3_reduce -> inception_5b/3x3_reduce (in-place)
I0403 14:42:26.815690 11006 net.cpp:141] Setting up inception_5b/relu_3x3_reduce
I0403 14:42:26.815716 11006 net.cpp:148] Top shape: 24 192 7 7 (225792)
I0403 14:42:26.815732 11006 net.cpp:156] Memory required for data: 1330660896
I0403 14:42:26.815747 11006 layer_factory.hpp:77] Creating layer inception_5b/3x3
I0403 14:42:26.815768 11006 net.cpp:91] Creating Layer inception_5b/3x3
I0403 14:42:26.815786 11006 net.cpp:425] inception_5b/3x3 <- inception_5b/3x3_reduce
I0403 14:42:26.815809 11006 net.cpp:399] inception_5b/3x3 -> inception_5b/3x3
I0403 14:42:26.822569 11006 net.cpp:141] Setting up inception_5b/3x3
I0403 14:42:26.822599 11006 net.cpp:148] Top shape: 24 384 7 7 (451584)
I0403 14:42:26.822616 11006 net.cpp:156] Memory required for data: 1332467232
I0403 14:42:26.822634 11006 layer_factory.hpp:77] Creating layer inception_5b/relu_3x3
I0403 14:42:26.822655 11006 net.cpp:91] Creating Layer inception_5b/relu_3x3
I0403 14:42:26.822672 11006 net.cpp:425] inception_5b/relu_3x3 <- inception_5b/3x3
I0403 14:42:26.822690 11006 net.cpp:386] inception_5b/relu_3x3 -> inception_5b/3x3 (in-place)
I0403 14:42:26.822988 11006 net.cpp:141] Setting up inception_5b/relu_3x3
I0403 14:42:26.823015 11006 net.cpp:148] Top shape: 24 384 7 7 (451584)
I0403 14:42:26.823030 11006 net.cpp:156] Memory required for data: 1334273568
I0403 14:42:26.823045 11006 layer_factory.hpp:77] Creating layer inception_5b/5x5_reduce
I0403 14:42:26.823086 11006 net.cpp:91] Creating Layer inception_5b/5x5_reduce
I0403 14:42:26.823114 11006 net.cpp:425] inception_5b/5x5_reduce <- inception_5a/output_inception_5a/output_0_split_2
I0403 14:42:26.823138 11006 net.cpp:399] inception_5b/5x5_reduce -> inception_5b/5x5_reduce
I0403 14:42:26.824429 11006 net.cpp:141] Setting up inception_5b/5x5_reduce
I0403 14:42:26.824456 11006 net.cpp:148] Top shape: 24 48 7 7 (56448)
I0403 14:42:26.824472 11006 net.cpp:156] Memory required for data: 1334499360
I0403 14:42:26.824491 11006 layer_factory.hpp:77] Creating layer inception_5b/relu_5x5_reduce
I0403 14:42:26.824508 11006 net.cpp:91] Creating Layer inception_5b/relu_5x5_reduce
I0403 14:42:26.824525 11006 net.cpp:425] inception_5b/relu_5x5_reduce <- inception_5b/5x5_reduce
I0403 14:42:26.824547 11006 net.cpp:386] inception_5b/relu_5x5_reduce -> inception_5b/5x5_reduce (in-place)
I0403 14:42:26.824929 11006 net.cpp:141] Setting up inception_5b/relu_5x5_reduce
I0403 14:42:26.824956 11006 net.cpp:148] Top shape: 24 48 7 7 (56448)
I0403 14:42:26.824972 11006 net.cpp:156] Memory required for data: 1334725152
I0403 14:42:26.824987 11006 layer_factory.hpp:77] Creating layer inception_5b/5x5
I0403 14:42:26.825007 11006 net.cpp:91] Creating Layer inception_5b/5x5
I0403 14:42:26.825026 11006 net.cpp:425] inception_5b/5x5 <- inception_5b/5x5_reduce
I0403 14:42:26.825043 11006 net.cpp:399] inception_5b/5x5 -> inception_5b/5x5
I0403 14:42:26.827147 11006 net.cpp:141] Setting up inception_5b/5x5
I0403 14:42:26.827174 11006 net.cpp:148] Top shape: 24 128 7 7 (150528)
I0403 14:42:26.827190 11006 net.cpp:156] Memory required for data: 1335327264
I0403 14:42:26.827208 11006 layer_factory.hpp:77] Creating layer inception_5b/relu_5x5
I0403 14:42:26.827229 11006 net.cpp:91] Creating Layer inception_5b/relu_5x5
I0403 14:42:26.827246 11006 net.cpp:425] inception_5b/relu_5x5 <- inception_5b/5x5
I0403 14:42:26.827263 11006 net.cpp:386] inception_5b/relu_5x5 -> inception_5b/5x5 (in-place)
I0403 14:42:26.827461 11006 net.cpp:141] Setting up inception_5b/relu_5x5
I0403 14:42:26.827488 11006 net.cpp:148] Top shape: 24 128 7 7 (150528)
I0403 14:42:26.827504 11006 net.cpp:156] Memory required for data: 1335929376
I0403 14:42:26.827519 11006 layer_factory.hpp:77] Creating layer inception_5b/pool
I0403 14:42:26.827536 11006 net.cpp:91] Creating Layer inception_5b/pool
I0403 14:42:26.827553 11006 net.cpp:425] inception_5b/pool <- inception_5a/output_inception_5a/output_0_split_3
I0403 14:42:26.827574 11006 net.cpp:399] inception_5b/pool -> inception_5b/pool
I0403 14:42:26.827648 11006 net.cpp:141] Setting up inception_5b/pool
I0403 14:42:26.827673 11006 net.cpp:148] Top shape: 24 832 7 7 (978432)
I0403 14:42:26.827687 11006 net.cpp:156] Memory required for data: 1339843104
I0403 14:42:26.827702 11006 layer_factory.hpp:77] Creating layer inception_5b/pool_proj
I0403 14:42:26.827723 11006 net.cpp:91] Creating Layer inception_5b/pool_proj
I0403 14:42:26.827741 11006 net.cpp:425] inception_5b/pool_proj <- inception_5b/pool
I0403 14:42:26.827761 11006 net.cpp:399] inception_5b/pool_proj -> inception_5b/pool_proj
I0403 14:42:26.830083 11006 net.cpp:141] Setting up inception_5b/pool_proj
I0403 14:42:26.830121 11006 net.cpp:148] Top shape: 24 128 7 7 (150528)
I0403 14:42:26.830137 11006 net.cpp:156] Memory required for data: 1340445216
I0403 14:42:26.830155 11006 layer_factory.hpp:77] Creating layer inception_5b/relu_pool_proj
I0403 14:42:26.830175 11006 net.cpp:91] Creating Layer inception_5b/relu_pool_proj
I0403 14:42:26.830193 11006 net.cpp:425] inception_5b/relu_pool_proj <- inception_5b/pool_proj
I0403 14:42:26.830210 11006 net.cpp:386] inception_5b/relu_pool_proj -> inception_5b/pool_proj (in-place)
I0403 14:42:26.830509 11006 net.cpp:141] Setting up inception_5b/relu_pool_proj
I0403 14:42:26.830536 11006 net.cpp:148] Top shape: 24 128 7 7 (150528)
I0403 14:42:26.830551 11006 net.cpp:156] Memory required for data: 1341047328
I0403 14:42:26.830567 11006 layer_factory.hpp:77] Creating layer inception_5b/output
I0403 14:42:26.830585 11006 net.cpp:91] Creating Layer inception_5b/output
I0403 14:42:26.830615 11006 net.cpp:425] inception_5b/output <- inception_5b/1x1
I0403 14:42:26.830633 11006 net.cpp:425] inception_5b/output <- inception_5b/3x3
I0403 14:42:26.830651 11006 net.cpp:425] inception_5b/output <- inception_5b/5x5
I0403 14:42:26.830668 11006 net.cpp:425] inception_5b/output <- inception_5b/pool_proj
I0403 14:42:26.830688 11006 net.cpp:399] inception_5b/output -> inception_5b/output
I0403 14:42:26.830740 11006 net.cpp:141] Setting up inception_5b/output
I0403 14:42:26.830767 11006 net.cpp:148] Top shape: 24 1024 7 7 (1204224)
I0403 14:42:26.830783 11006 net.cpp:156] Memory required for data: 1345864224
I0403 14:42:26.830797 11006 layer_factory.hpp:77] Creating layer pool5/7x7_s1
I0403 14:42:26.830816 11006 net.cpp:91] Creating Layer pool5/7x7_s1
I0403 14:42:26.830831 11006 net.cpp:425] pool5/7x7_s1 <- inception_5b/output
I0403 14:42:26.830852 11006 net.cpp:399] pool5/7x7_s1 -> pool5/7x7_s1
I0403 14:42:26.831071 11006 net.cpp:141] Setting up pool5/7x7_s1
I0403 14:42:26.831117 11006 net.cpp:148] Top shape: 24 1024 1 1 (24576)
I0403 14:42:26.831135 11006 net.cpp:156] Memory required for data: 1345962528
I0403 14:42:26.831154 11006 layer_factory.hpp:77] Creating layer pool5/drop_7x7_s1
I0403 14:42:26.831177 11006 net.cpp:91] Creating Layer pool5/drop_7x7_s1
I0403 14:42:26.831193 11006 net.cpp:425] pool5/drop_7x7_s1 <- pool5/7x7_s1
I0403 14:42:26.831214 11006 net.cpp:386] pool5/drop_7x7_s1 -> pool5/7x7_s1 (in-place)
I0403 14:42:26.831270 11006 net.cpp:141] Setting up pool5/drop_7x7_s1
I0403 14:42:26.831295 11006 net.cpp:148] Top shape: 24 1024 1 1 (24576)
I0403 14:42:26.831310 11006 net.cpp:156] Memory required for data: 1346060832
I0403 14:42:26.831326 11006 layer_factory.hpp:77] Creating layer loss3/classifier_plantvillage
I0403 14:42:26.831344 11006 net.cpp:91] Creating Layer loss3/classifier_plantvillage
I0403 14:42:26.831362 11006 net.cpp:425] loss3/classifier_plantvillage <- pool5/7x7_s1
I0403 14:42:26.831384 11006 net.cpp:399] loss3/classifier_plantvillage -> loss3/classifier_plantvillage
I0403 14:42:26.831835 11006 net.cpp:141] Setting up loss3/classifier_plantvillage
I0403 14:42:26.831861 11006 net.cpp:148] Top shape: 24 38 (912)
I0403 14:42:26.831876 11006 net.cpp:156] Memory required for data: 1346064480
I0403 14:42:26.831895 11006 layer_factory.hpp:77] Creating layer loss3/classifier_plantvillage_loss3/classifier_plantvillage_0_split
I0403 14:42:26.831917 11006 net.cpp:91] Creating Layer loss3/classifier_plantvillage_loss3/classifier_plantvillage_0_split
I0403 14:42:26.831935 11006 net.cpp:425] loss3/classifier_plantvillage_loss3/classifier_plantvillage_0_split <- loss3/classifier_plantvillage
I0403 14:42:26.831956 11006 net.cpp:399] loss3/classifier_plantvillage_loss3/classifier_plantvillage_0_split -> loss3/classifier_plantvillage_loss3/classifier_plantvillage_0_split_0
I0403 14:42:26.831977 11006 net.cpp:399] loss3/classifier_plantvillage_loss3/classifier_plantvillage_0_split -> loss3/classifier_plantvillage_loss3/classifier_plantvillage_0_split_1
I0403 14:42:26.831998 11006 net.cpp:399] loss3/classifier_plantvillage_loss3/classifier_plantvillage_0_split -> loss3/classifier_plantvillage_loss3/classifier_plantvillage_0_split_2
I0403 14:42:26.832018 11006 net.cpp:399] loss3/classifier_plantvillage_loss3/classifier_plantvillage_0_split -> loss3/classifier_plantvillage_loss3/classifier_plantvillage_0_split_3
I0403 14:42:26.832139 11006 net.cpp:141] Setting up loss3/classifier_plantvillage_loss3/classifier_plantvillage_0_split
I0403 14:42:26.832165 11006 net.cpp:148] Top shape: 24 38 (912)
I0403 14:42:26.832182 11006 net.cpp:148] Top shape: 24 38 (912)
I0403 14:42:26.832197 11006 net.cpp:148] Top shape: 24 38 (912)
I0403 14:42:26.832212 11006 net.cpp:148] Top shape: 24 38 (912)
I0403 14:42:26.832226 11006 net.cpp:156] Memory required for data: 1346079072
I0403 14:42:26.832242 11006 layer_factory.hpp:77] Creating layer loss1/loss
I0403 14:42:26.832263 11006 net.cpp:91] Creating Layer loss1/loss
I0403 14:42:26.832281 11006 net.cpp:425] loss1/loss <- loss1/classifier_plantvillage_loss1/classifier_plantvillage_0_split_0
I0403 14:42:26.832315 11006 net.cpp:425] loss1/loss <- label_data_1_split_0
…
