…
I0403 14:45:16.767576 11073 net.cpp:313] The NetState phase (1) differed from the phase (0) specified by a rule in layer data
I0403 14:45:16.768831 11073 net.cpp:49] Initializing net from parameters: 
state {
  phase: TEST
}
layer {
  name: "data"
  type: "Data"
  top: "data"
  top: "label"
  include {
    phase: TEST
  }
  transform_param {
    mirror: false
    crop_size: 224
    mean_file: "/home/mohanty/data/final_dataset/lmdb/grayscale-60-40/mean.binaryproto"
  }
  data_param {
    source: "/home/mohanty/data/final_dataset/lmdb/grayscale-60-40/test_db"
    batch_size: 24
    backend: LMDB
  }
}
layer {
  name: "conv1/7x7_s2"
  type: "Convolution"
  bottom: "data"
  top: "conv1/7x7_s2"
  param {
    lr_mult: 1
    decay_mult: 1
  }
  param {
    lr_mult: 2
    decay_mult: 0
  }
  convolution_param {
    num_output: 64
    pad: 3
    kernel_size: 7
    stride: 2
    weight_filler {
      type: "xavier"
      std: 0.1
    }
    bias_filler {
      type: "constant"
      value: 0.2
    }
  }
}
layer {
  name: "conv1/relu_7x7"
  type: "ReLU"
  bottom: "conv1/7x7_s2"
  top: "conv1/7x7_s2"
}
layer {
  name: "pool1/3x3_s2"
  type: "Pooling"
  bottom: "conv1/7x7_s2"
  top: "pool1/3x3_s2"
  pooling_param {
    pool: MAX
    kernel_size: 3
    stride: 2
  }
}
layer {
  name: "pool1/norm1"
  type: "LRN"
  bottom: "pool1/3x3_s2"
  top: "pool1/norm1"
  lrn_param {
    local_size: 5
    alpha: 0.0001
    beta: 0.75
  }
}
layer {
  name: "conv2/3x3_reduce"
  type: "Convolution"
  bottom: "pool1/norm1"
  top: "conv2/3x3_reduce"
  param {
    lr_mult: 1
    decay_mult: 1
  }
  param {
    lr_mult: 2
    decay_mult: 0
  }
  convolution_param {
    num_output: 64
    kernel_size: 1
    weight_filler {
      type: "xavier"
      std: 0.1
    }
    bias_filler {
      type: "constant"
      value: 0.2
    }
  }
}
layer {
  name: "conv2/relu_3x3_reduce"
  type: "ReLU"
  bottom: "conv2/3x3_reduce"
  top: "conv2/3x3_reduce"
}
layer {
  name: "conv2/3x3"
  type: "Convolution"
  bottom: "conv2/3x3_reduce"
  top: "conv2/3x3"
  param {
    lr_mult: 1
    decay_mult: 1
  }
  param {
    lr_mult: 2
    decay_mult: 0
  }
  convolution_param {
    num_output: 192
    pad: 1
    kernel_size: 3
    weight_filler {
      type: "xavier"
      std: 0.03
    }
    bias_filler {
      type: "constant"
      value: 0.2
    }
  }
}
layer {
  name: "conv2/relu_3x3"
  type: "ReLU"
  bottom: "conv2/3x3"
  top: "conv2/3x3"
}
layer {
  name: "conv2/norm2"
  type: "LRN"
  bottom: "conv2/3x3"
  top: "conv2/norm2"
  lrn_param {
    local_size: 5
    alpha: 0.0001
    beta: 0.75
  }
}
layer {
  name: "pool2/3x3_s2"
  type: "Pooling"
  bottom: "conv2/norm2"
  top: "pool2/3x3_s2"
  pooling_param {
    pool: MAX
    kernel_size: 3
    stride: 2
  }
}
layer {
  name: "inception_3a/1x1"
  type: "Convolution"
  bottom: "pool2/3x3_s2"
  top: "inception_3a/1x1"
  param {
    lr_mult: 1
    decay_mult: 1
  }
  param {
    lr_mult: 2
    decay_mult: 0
  }
  convolution_param {
    num_output: 64
    kernel_size: 1
    weight_filler {
      type: "xavier"
      std: 0.03
    }
    bias_filler {
      type: "constant"
      value: 0.2
    }
  }
}
layer {
  name: "inception_3a/relu_1x1"
  type: "ReLU"
  bottom: "inception_3a/1x1"
  top: "inception_3a/1x1"
}
layer {
  name: "inception_3a/3x3_reduce"
  type: "Convolution"
  bottom: "pool2/3x3_s2"
  top: "inception_3a/3x3_reduce"
  param {
    lr_mult: 1
    decay_mult: 1
  }
  param {
    lr_mult: 2
    decay_mult: 0
  }
  convolution_param {
    num_output: 96
    kernel_size: 1
    weight_filler {
      type: "xavier"
      std: 0.09
    }
    bias_filler {
      type: "constant"
      value: 0.2
    }
  }
}
layer {
  name: "inception_3a/relu_3x3_reduce"
  type: "ReLU"
  bottom: "inception_3a/3x3_reduce"
  top: "inception_3a/3x3_reduce"
}
layer {
  name: "inception_3a/3x3"
  type: "Convolution"
  bottom: "inception_3a/3x3_reduce"
  top: "inception_3a/3x3"
  param {
    lr_mult: 1
    decay_mult: 1
  }
  param {
    lr_mult: 2
    decay_mult: 0
  }
  convolution_param {
    num_output: 128
    pad: 1
    kernel_size: 3
    weight_filler {
      type: "xavier"
      std: 0.03
    }
    bias_filler {
      type: "constant"
      value: 0.2
    }
  }
}
layer {
  name: "inception_3a/relu_3x3"
  type: "ReLU"
  bottom: "inception_3a/3x3"
  top: "inception_3a/3x3"
}
layer {
  name: "inception_3a/5x5_reduce"
  type: "Convolution"
  bottom: "pool2/3x3_s2"
  top: "inception_3a/5x5_reduce"
  param {
    lr_mult: 1
    decay_mult: 1
  }
  param {
    lr_mult: 2
    decay_mult: 0
  }
  convolution_param {
    num_output: 16
    kernel_size: 1
    weight_filler {
      type: "xavier"
      std: 0.2
    }
    bias_filler {
      type: "constant"
      value: 0.2
    }
  }
}
layer {
  name: "inception_3a/relu_5x5_reduce"
  type: "ReLU"
  bottom: "inception_3a/5x5_reduce"
  top: "inception_3a/5x5_reduce"
}
layer {
  name: "inception_3a/5x5"
  type: "Convolution"
  bottom: "inception_3a/5x5_reduce"
  top: "inception_3a/5x5"
  param {
    lr_mult: 1
    decay_mult: 1
  }
  param {
    lr_mult: 2
    decay_mult: 0
  }
  convolution_param {
    num_output: 32
    pad: 2
    kernel_size: 5
    weight_filler {
      type: "xavier"
      std: 0.03
    }
    bias_filler {
      type: "constant"
      value: 0.2
    }
  }
}
layer {
  name: "inception_3a/relu_5x5"
  type: "ReLU"
  bottom: "inception_3a/5x5"
  top: "inception_3a/5x5"
}
layer {
  name: "inception_3a/pool"
  type: "Pooling"
  bottom: "pool2/3x3_s2"
  top: "inception_3a/pool"
  pooling_param {
    pool: MAX
    kernel_size: 3
    stride: 1
    pad: 1
  }
}
layer {
  name: "inception_3a/pool_proj"
  type: "Convolution"
  bottom: "inception_3a/pool"
  top: "inception_3a/pool_proj"
  param {
    lr_mult: 1
    decay_mult: 1
  }
  param {
    lr_mult: 2
    decay_mult: 0
  }
  convolution_param {
    num_output: 32
    kernel_size: 1
    weight_filler {
      type: "xavier"
      std: 0.1
    }
    bias_filler {
      type: "constant"
      value: 0.2
    }
  }
}
layer {
  name: "inception_3a/relu_pool_proj"
  type: "ReLU"
  bottom: "inception_3a/pool_proj"
  top: "inception_3a/pool_proj"
}
layer {
  name: "inception_3a/output"
  type: "Concat"
  bottom: "inception_3a/1x1"
  bottom: "inception_3a/3x3"
  bottom: "inception_3a/5x5"
  bottom: "inception_3a/pool_proj"
  top: "inception_3a/output"
}
layer {
  name: "inception_3b/1x1"
  type: "Convolution"
  bottom: "inception_3a/output"
  top: "inception_3b/1x1"
  param {
    lr_mult: 1
    decay_mult: 1
  }
  param {
    lr_mult: 2
    decay_mult: 0
  }
  convolution_param {
    num_output: 128
    kernel_size: 1
    weight_filler {
      type: "xavier"
      std: 0.03
    }
    bias_filler {
      type: "constant"
      value: 0.2
    }
  }
}
layer {
  name: "inception_3b/relu_1x1"
  type: "ReLU"
  bottom: "inception_3b/1x1"
  top: "inception_3b/1x1"
}
layer {
  name: "inception_3b/3x3_reduce"
  type: "Convolution"
  bottom: "inception_3a/output"
  top: "inception_3b/3x3_reduce"
  param {
    lr_mult: 1
    decay_mult: 1
  }
  param {
    lr_mult: 2
    decay_mult: 0
  }
  convolution_param {
    num_output: 128
    kernel_size: 1
    weight_filler {
      type: "xavier"
      std: 0.09
    }
    bias_filler {
      type: "constant"
      value: 0.2
    }
  }
}
layer {
  name: "inception_3b/relu_3x3_reduce"
  type: "ReLU"
  bottom: "inception_3b/3x3_reduce"
  top: "inception_3b/3x3_reduce"
}
layer {
  name: "inception_3b/3x3"
  type: "Convolution"
  bottom: "inception_3b/3x3_reduce"
  top: "inception_3b/3x3"
  param {
    lr_mult: 1
    decay_mult: 1
  }
  param {
    lr_mult: 2
    decay_mult: 0
  }
  convolution_param {
    num_output: 192
    pad: 1
    kernel_size: 3
    weight_filler {
      type: "xavier"
      std: 0.03
    }
    bias_filler {
      type: "constant"
      value: 0.2
    }
  }
}
layer {
  name: "inception_3b/relu_3x3"
  type: "ReLU"
  bottom: "inception_3b/3x3"
  top: "inception_3b/3x3"
}
layer {
  name: "inception_3b/5x5_reduce"
  type: "Convolution"
  bottom: "inception_3a/output"
  top: "inception_3b/5x5_reduce"
  param {
    lr_mult: 1
    decay_mult: 1
  }
  param {
    lr_mult: 2
    decay_mult: 0
  }
  convolution_param {
    num_output: 32
    kernel_size: 1
    weight_filler {
      type: "xavier"
      std: 0.2
    }
    bias_filler {
      type: "constant"
      value: 0.2
    }
  }
}
layer {
  name: "inception_3b/relu_5x5_reduce"
  type: "ReLU"
  bottom: "inception_3b/5x5_reduce"
  top: "inception_3b/5x5_reduce"
}
layer {
  name: "inception_3b/5x5"
  type: "Convolution"
  bottom: "inception_3b/5x5_reduce"
  top: "inception_3b/5x5"
  param {
    lr_mult: 1
    decay_mult: 1
  }
  param {
    lr_mult: 2
    decay_mult: 0
  }
  convolution_param {
    num_output: 96
    pad: 2
    kernel_size: 5
    weight_filler {
      type: "xavier"
      std: 0.03
    }
    bias_filler {
      type: "constant"
      value: 0.2
    }
  }
}
layer {
  name: "inception_3b/relu_5x5"
  type: "ReLU"
  bottom: "inception_3b/5x5"
  top: "inception_3b/5x5"
}
layer {
  name: "inception_3b/pool"
  type: "Pooling"
  bottom: "inception_3a/output"
  top: "inception_3b/pool"
  pooling_param {
    pool: MAX
    kernel_size: 3
    stride: 1
    pad: 1
  }
}
layer {
  name: "inception_3b/pool_proj"
  type: "Convolution"
  bottom: "inception_3b/pool"
  top: "inception_3b/pool_proj"
  param {
    lr_mult: 1
    decay_mult: 1
  }
  param {
    lr_mult: 2
    decay_mult: 0
  }
  convolution_param {
    num_output: 64
    kernel_size: 1
    weight_filler {
      type: "xavier"
      std: 0.1
    }
    bias_filler {
      type: "constant"
      value: 0.2
    }
  }
}
layer {
  name: "inception_3b/relu_pool_proj"
  type: "ReLU"
  bottom: "inception_3b/pool_proj"
  top: "inception_3b/pool_proj"
}
layer {
  name: "inception_3b/output"
  type: "Concat"
  bottom: "inception_3b/1x1"
  bottom: "inception_3b/3x3"
  bottom: "inception_3b/5x5"
  bottom: "inception_3b/pool_proj"
  top: "inception_3b/output"
}
layer {
  name: "pool3/3x3_s2"
  type: "Pooling"
  bottom: "inception_3b/output"
  top: "pool3/3x3_s2"
  pooling_param {
    pool: MAX
    kernel_size: 3
    stride: 2
  }
}
layer {
  name: "inception_4a/1x1"
  type: "Convolution"
  bottom: "pool3/3x3_s2"
  top: "inception_4a/1x1"
  param {
    lr_mult: 1
    decay_mult: 1
  }
  param {
    lr_mult: 2
    decay_mult: 0
  }
  convolution_param {
    num_output: 192
    kernel_size: 1
    weight_filler {
      type: "xavier"
      std: 0.03
    }
    bias_filler {
      type: "constant"
      value: 0.2
    }
  }
}
layer {
  name: "inception_4a/relu_1x1"
  type: "ReLU"
  bottom: "inception_4a/1x1"
  top: "inception_4a/1x1"
}
layer {
  name: "inception_4a/3x3_reduce"
  type: "Convolution"
  bottom: "pool3/3x3_s2"
  top: "inception_4a/3x3_reduce"
  param {
    lr_mult: 1
    decay_mult: 1
  }
  param {
    lr_mult: 2
    decay_mult: 0
  }
  convolution_param {
    num_output: 96
    kernel_size: 1
    weight_filler {
      type: "xavier"
      std: 0.09
    }
    bias_filler {
      type: "constant"
      value: 0.2
    }
  }
}
layer {
  name: "inception_4a/relu_3x3_reduce"
  type: "ReLU"
  bottom: "inception_4a/3x3_reduce"
  top: "inception_4a/3x3_reduce"
}
layer {
  name: "inception_4a/3x3"
  type: "Convolution"
  bottom: "inception_4a/3x3_reduce"
  top: "inception_4a/3x3"
  param {
    lr_mult: 1
    decay_mult: 1
  }
  param {
    lr_mult: 2
    decay_mult: 0
  }
  convolution_param {
    num_output: 208
    pad: 1
    kernel_size: 3
    weight_filler {
      type: "xavier"
      std: 0.03
    }
    bias_filler {
      type: "constant"
      value: 0.2
    }
  }
}
layer {
  name: "inception_4a/relu_3x3"
  type: "ReLU"
  bottom: "inception_4a/3x3"
  top: "inception_4a/3x3"
}
layer {
  name: "inception_4a/5x5_reduce"
  type: "Convolution"
  bottom: "pool3/3x3_s2"
  top: "inception_4a/5x5_reduce"
  param {
    lr_mult: 1
    decay_mult: 1
  }
  param {
    lr_mult: 2
    decay_mult: 0
  }
  convolution_param {
    num_output: 16
    kernel_size: 1
    weight_filler {
      type: "xavier"
      std: 0.2
    }
    bias_filler {
      type: "constant"
      value: 0.2
    }
  }
}
layer {
  name: "inception_4a/relu_5x5_reduce"
  type: "ReLU"
  bottom: "inception_4a/5x5_reduce"
  top: "inception_4a/5x5_reduce"
}
layer {
  name: "inception_4a/5x5"
  type: "Convolution"
  bottom: "inception_4a/5x5_reduce"
  top: "inception_4a/5x5"
  param {
    lr_mult: 1
    decay_mult: 1
  }
  param {
    lr_mult: 2
    decay_mult: 0
  }
  convolution_param {
    num_output: 48
    pad: 2
    kernel_size: 5
    weight_filler {
      type: "xavier"
      std: 0.03
    }
    bias_filler {
      type: "constant"
      value: 0.2
    }
  }
}
layer {
  name: "inception_4a/relu_5x5"
  type: "ReLU"
  bottom: "inception_4a/5x5"
  top: "inception_4a/5x5"
}
layer {
  name: "inception_4a/pool"
  type: "Pooling"
  bottom: "pool3/3x3_s2"
  top: "inception_4a/pool"
  pooling_param {
    pool: MAX
    kernel_size: 3
    stride: 1
    pad: 1
  }
}
layer {
  name: "inception_4a/pool_proj"
  type: "Convolution"
  bottom: "inception_4a/pool"
  top: "inception_4a/pool_proj"
  param {
    lr_mult: 1
    decay_mult: 1
  }
  param {
    lr_mult: 2
    decay_mult: 0
  }
  convolution_param {
    num_output: 64
    kernel_size: 1
    weight_filler {
      type: "xavier"
      std: 0.1
    }
    bias_filler {
      type: "constant"
      value: 0.2
    }
  }
}
layer {
  name: "inception_4a/relu_pool_proj"
  type: "ReLU"
  bottom: "inception_4a/pool_proj"
  top: "inception_4a/pool_proj"
}
layer {
  name: "inception_4a/output"
  type: "Concat"
  bottom: "inception_4a/1x1"
  bottom: "inception_4a/3x3"
  bottom: "inception_4a/5x5"
  bottom: "inception_4a/pool_proj"
  top: "inception_4a/output"
}
layer {
  name: "loss1/ave_pool"
  type: "Pooling"
  bottom: "inception_4a/output"
  top: "loss1/ave_pool"
  pooling_param {
    pool: AVE
    kernel_size: 5
    stride: 3
  }
}
layer {
  name: "loss1/conv"
  type: "Convolution"
  bottom: "loss1/ave_pool"
  top: "loss1/conv"
  param {
    lr_mult: 1
    decay_mult: 1
  }
  param {
    lr_mult: 2
    decay_mult: 0
  }
  convolution_param {
    num_output: 128
    kernel_size: 1
    weight_filler {
      type: "xavier"
      std: 0.08
    }
    bias_filler {
      type: "constant"
      value: 0.2
    }
  }
}
layer {
  name: "loss1/relu_conv"
  type: "ReLU"
  bottom: "loss1/conv"
  top: "loss1/conv"
}
layer {
  name: "loss1/fc"
  type: "InnerProduct"
  bottom: "loss1/conv"
  top: "loss1/fc"
  param {
    lr_mult: 1
    decay_mult: 1
  }
  param {
    lr_mult: 2
    decay_mult: 0
  }
  inner_product_param {
    num_output: 1024
    weight_filler {
      type: "xavier"
      std: 0.02
    }
    bias_filler {
      type: "constant"
      value: 0.2
    }
  }
}
layer {
  name: "loss1/relu_fc"
  type: "ReLU"
  bottom: "loss1/fc"
  top: "loss1/fc"
}
layer {
  name: "loss1/drop_fc"
  type: "Dropout"
  bottom: "loss1/fc"
  top: "loss1/fc"
  dropout_param {
    dropout_ratio: 0.7
  }
}
layer {
  name: "loss1/classifier_plantvillage"
  type: "InnerProduct"
  bottom: "loss1/fc"
  top: "loss1/classifier_plantvillage"
  param {
    lr_mult: 1
    decay_mult: 1
  }
  param {
    lr_mult: 2
    decay_mult: 0
  }
  inner_product_param {
    num_output: 38
    weight_filler {
      type: "xavier"
      std: 0.0009765625
    }
    bias_filler {
      type: "constant"
      value: 0
    }
  }
}
layer {
  name: "inception_4b/1x1"
  type: "Convolution"
  bottom: "inception_4a/output"
  top: "inception_4b/1x1"
  param {
    lr_mult: 1
    decay_mult: 1
  }
  param {
    lr_mult: 2
    decay_mult: 0
  }
  convolution_param {
    num_output: 160
    kernel_size: 1
    weight_filler {
      type: "xavier"
      std: 0.03
    }
    bias_filler {
      type: "constant"
      value: 0.2
    }
  }
}
layer {
  name: "inception_4b/relu_1x1"
  type: "ReLU"
  bottom: "inception_4b/1x1"
  top: "inception_4b/1x1"
}
layer {
  name: "inception_4b/3x3_reduce"
  type: "Convolution"
  bottom: "inception_4a/output"
  top: "inception_4b/3x3_reduce"
  param {
    lr_mult: 1
    decay_mult: 1
  }
  param {
    lr_mult: 2
    decay_mult: 0
  }
  convolution_param {
    num_output: 112
    kernel_size: 1
    weight_filler {
      type: "xavier"
      std: 0.09
    }
    bias_filler {
      type: "constant"
      value: 0.2
    }
  }
}
layer {
  name: "inception_4b/relu_3x3_reduce"
  type: "ReLU"
  bottom: "inception_4b/3x3_reduce"
  top: "inception_4b/3x3_reduce"
}
layer {
  name: "inception_4b/3x3"
  type: "Convolution"
  bottom: "inception_4b/3x3_reduce"
  top: "inception_4b/3x3"
  param {
    lr_mult: 1
    decay_mult: 1
  }
  param {
    lr_mult: 2
    decay_mult: 0
  }
  convolution_param {
    num_output: 224
    pad: 1
    kernel_size: 3
    weight_filler {
      type: "xavier"
      std: 0.03
    }
    bias_filler {
      type: "constant"
      value: 0.2
    }
  }
}
layer {
  name: "inception_4b/relu_3x3"
  type: "ReLU"
  bottom: "inception_4b/3x3"
  top: "inception_4b/3x3"
}
layer {
  name: "inception_4b/5x5_reduce"
  type: "Convolution"
  bottom: "inception_4a/output"
  top: "inception_4b/5x5_reduce"
  param {
    lr_mult: 1
    decay_mult: 1
  }
  param {
    lr_mult: 2
    decay_mult: 0
  }
  convolution_param {
    num_output: 24
    kernel_size: 1
    weight_filler {
      type: "xavier"
      std: 0.2
    }
    bias_filler {
      type: "constant"
      value: 0.2
    }
  }
}
layer {
  name: "inception_4b/relu_5x5_reduce"
  type: "ReLU"
  bottom: "inception_4b/5x5_reduce"
  top: "inception_4b/5x5_reduce"
}
layer {
  name: "inception_4b/5x5"
  type: "Convolution"
  bottom: "inception_4b/5x5_reduce"
  top: "inception_4b/5x5"
  param {
    lr_mult: 1
    decay_mult: 1
  }
  param {
    lr_mult: 2
    decay_mult: 0
  }
  convolution_param {
    num_output: 64
    pad: 2
    kernel_size: 5
    weight_filler {
      type: "xavier"
      std: 0.03
    }
    bias_filler {
      type: "constant"
      value: 0.2
    }
  }
}
layer {
  name: "inception_4b/relu_5x5"
  type: "ReLU"
  bottom: "inception_4b/5x5"
  top: "inception_4b/5x5"
}
layer {
  name: "inception_4b/pool"
  type: "Pooling"
  bottom: "inception_4a/output"
  top: "inception_4b/pool"
  pooling_param {
    pool: MAX
    kernel_size: 3
    stride: 1
    pad: 1
  }
}
layer {
  name: "inception_4b/pool_proj"
  type: "Convolution"
  bottom: "inception_4b/pool"
  top: "inception_4b/pool_proj"
  param {
    lr_mult: 1
    decay_mult: 1
  }
  param {
    lr_mult: 2
    decay_mult: 0
  }
  convolution_param {
    num_output: 64
    kernel_size: 1
    weight_filler {
      type: "xavier"
      std: 0.1
    }
    bias_filler {
      type: "constant"
      value: 0.2
    }
  }
}
layer {
  name: "inception_4b/relu_pool_proj"
  type: "ReLU"
  bottom: "inception_4b/pool_proj"
  top: "inception_4b/pool_proj"
}
layer {
  name: "inception_4b/output"
  type: "Concat"
  bottom: "inception_4b/1x1"
  bottom: "inception_4b/3x3"
  bottom: "inception_4b/5x5"
  bottom: "inception_4b/pool_proj"
  top: "inception_4b/output"
}
layer {
  name: "inception_4c/1x1"
  type: "Convolution"
  bottom: "inception_4b/output"
  top: "inception_4c/1x1"
  param {
    lr_mult: 1
    decay_mult: 1
  }
  param {
    lr_mult: 2
    decay_mult: 0
  }
  convolution_param {
    num_output: 128
    kernel_size: 1
    weight_filler {
      type: "xavier"
      std: 0.03
    }
    bias_filler {
      type: "constant"
      value: 0.2
    }
  }
}
layer {
  name: "inception_4c/relu_1x1"
  type: "ReLU"
  bottom: "inception_4c/1x1"
  top: "inception_4c/1x1"
}
layer {
  name: "inception_4c/3x3_reduce"
  type: "Convolution"
  bottom: "inception_4b/output"
  top: "inception_4c/3x3_reduce"
  param {
    lr_mult: 1
    decay_mult: 1
  }
  param {
    lr_mult: 2
    decay_mult: 0
  }
  convolution_param {
    num_output: 128
    kernel_size: 1
    weight_filler {
      type: "xavier"
      std: 0.09
    }
    bias_filler {
      type: "constant"
      value: 0.2
    }
  }
}
layer {
  name: "inception_4c/relu_3x3_reduce"
  type: "ReLU"
  bottom: "inception_4c/3x3_reduce"
  top: "inception_4c/3x3_reduce"
}
layer {
  name: "inception_4c/3x3"
  type: "Convolution"
  bottom: "inception_4c/3x3_reduce"
  top: "inception_4c/3x3"
  param {
    lr_mult: 1
    decay_mult: 1
  }
  param {
    lr_mult: 2
    decay_mult: 0
  }
  convolution_param {
    num_output: 256
    pad: 1
    kernel_size: 3
    weight_filler {
      type: "xavier"
      std: 0.03
    }
    bias_filler {
      type: "constant"
      value: 0.2
    }
  }
}
layer {
  name: "inception_4c/relu_3x3"
  type: "ReLU"
  bottom: "inception_4c/3x3"
  top: "inception_4c/3x3"
}
layer {
  name: "inception_4c/5x5_reduce"
  type: "Convolution"
  bottom: "inception_4b/output"
  top: "inception_4c/5x5_reduce"
  param {
    lr_mult: 1
    decay_mult: 1
  }
  param {
    lr_mult: 2
    decay_mult: 0
  }
  convolution_param {
    num_output: 24
    kernel_size: 1
    weight_filler {
      type: "xavier"
      std: 0.2
    }
    bias_filler {
      type: "constant"
      value: 0.2
    }
  }
}
layer {
  name: "inception_4c/relu_5x5_reduce"
  type: "ReLU"
  bottom: "inception_4c/5x5_reduce"
  top: "inception_4c/5x5_reduce"
}
layer {
  name: "inception_4c/5x5"
  type: "Convolution"
  bottom: "inception_4c/5x5_reduce"
  top: "inception_4c/5x5"
  param {
    lr_mult: 1
    decay_mult: 1
  }
  param {
    lr_mult: 2
    decay_mult: 0
  }
  convolution_param {
    num_output: 64
    pad: 2
    kernel_size: 5
    weight_filler {
      type: "xavier"
      std: 0.03
    }
    bias_filler {
      type: "constant"
      value: 0.2
    }
  }
}
layer {
  name: "inception_4c/relu_5x5"
  type: "ReLU"
  bottom: "inception_4c/5x5"
  top: "inception_4c/5x5"
}
layer {
  name: "inception_4c/pool"
  type: "Pooling"
  bottom: "inception_4b/output"
  top: "inception_4c/pool"
  pooling_param {
    pool: MAX
    kernel_size: 3
    stride: 1
    pad: 1
  }
}
layer {
  name: "inception_4c/pool_proj"
  type: "Convolution"
  bottom: "inception_4c/pool"
  top: "inception_4c/pool_proj"
  param {
    lr_mult: 1
    decay_mult: 1
  }
  param {
    lr_mult: 2
    decay_mult: 0
  }
  convolution_param {
    num_output: 64
    kernel_size: 1
    weight_filler {
      type: "xavier"
      std: 0.1
    }
    bias_filler {
      type: "constant"
      value: 0.2
    }
  }
}
layer {
  name: "inception_4c/relu_pool_proj"
  type: "ReLU"
  bottom: "inception_4c/pool_proj"
  top: "inception_4c/pool_proj"
}
layer {
  name: "inception_4c/output"
  type: "Concat"
  bottom: "inception_4c/1x1"
  bottom: "inception_4c/3x3"
  bottom: "inception_4c/5x5"
  bottom: "inception_4c/pool_proj"
  top: "inception_4c/output"
}
layer {
  name: "inception_4d/1x1"
  type: "Convolution"
  bottom: "inception_4c/output"
  top: "inception_4d/1x1"
  param {
    lr_mult: 1
    decay_mult: 1
  }
  param {
    lr_mult: 2
    decay_mult: 0
  }
  convolution_param {
    num_output: 112
    kernel_size: 1
    weight_filler {
      type: "xavier"
      std: 0.03
    }
    bias_filler {
      type: "constant"
      value: 0.2
    }
  }
}
layer {
  name: "inception_4d/relu_1x1"
  type: "ReLU"
  bottom: "inception_4d/1x1"
  top: "inception_4d/1x1"
}
layer {
  name: "inception_4d/3x3_reduce"
  type: "Convolution"
  bottom: "inception_4c/output"
  top: "inception_4d/3x3_reduce"
  param {
    lr_mult: 1
    decay_mult: 1
  }
  param {
    lr_mult: 2
    decay_mult: 0
  }
  convolution_param {
    num_output: 144
    kernel_size: 1
    weight_filler {
      type: "xavier"
      std: 0.09
    }
    bias_filler {
      type: "constant"
      value: 0.2
    }
  }
}
layer {
  name: "inception_4d/relu_3x3_reduce"
  type: "ReLU"
  bottom: "inception_4d/3x3_reduce"
  top: "inception_4d/3x3_reduce"
}
layer {
  name: "inception_4d/3x3"
  type: "Convolution"
  bottom: "inception_4d/3x3_reduce"
  top: "inception_4d/3x3"
  param {
    lr_mult: 1
    decay_mult: 1
  }
  param {
    lr_mult: 2
    decay_mult: 0
  }
  convolution_param {
    num_output: 288
    pad: 1
    kernel_size: 3
    weight_filler {
      type: "xavier"
      std: 0.03
    }
    bias_filler {
      type: "constant"
      value: 0.2
    }
  }
}
layer {
  name: "inception_4d/relu_3x3"
  type: "ReLU"
  bottom: "inception_4d/3x3"
  top: "inception_4d/3x3"
}
layer {
  name: "inception_4d/5x5_reduce"
  type: "Convolution"
  bottom: "inception_4c/output"
  top: "inception_4d/5x5_reduce"
  param {
    lr_mult: 1
    decay_mult: 1
  }
  param {
    lr_mult: 2
    decay_mult: 0
  }
  convolution_param {
    num_output: 32
    kernel_size: 1
    weight_filler {
      type: "xavier"
      std: 0.2
    }
    bias_filler {
      type: "constant"
      value: 0.2
    }
  }
}
layer {
  name: "inception_4d/relu_5x5_reduce"
  type: "ReLU"
  bottom: "inception_4d/5x5_reduce"
  top: "inception_4d/5x5_reduce"
}
layer {
  name: "inception_4d/5x5"
  type: "Convolution"
  bottom: "inception_4d/5x5_reduce"
  top: "inception_4d/5x5"
  param {
    lr_mult: 1
    decay_mult: 1
  }
  param {
    lr_mult: 2
    decay_mult: 0
  }
  convolution_param {
    num_output: 64
    pad: 2
    kernel_size: 5
    weight_filler {
      type: "xavier"
      std: 0.03
    }
    bias_filler {
      type: "constant"
      value: 0.2
    }
  }
}
layer {
  name: "inception_4d/relu_5x5"
  type: "ReLU"
  bottom: "inception_4d/5x5"
  top: "inception_4d/5x5"
}
layer {
  name: "inception_4d/pool"
  type: "Pooling"
  bottom: "inception_4c/output"
  top: "inception_4d/pool"
  pooling_param {
    pool: MAX
    kernel_size: 3
    stride: 1
    pad: 1
  }
}
layer {
  name: "inception_4d/pool_proj"
  type: "Convolution"
  bottom: "inception_4d/pool"
  top: "inception_4d/pool_proj"
  param {
    lr_mult: 1
    decay_mult: 1
  }
  param {
    lr_mult: 2
    decay_mult: 0
  }
  convolution_param {
    num_output: 64
    kernel_size: 1
    weight_filler {
      type: "xavier"
      std: 0.1
    }
    bias_filler {
      type: "constant"
      value: 0.2
    }
  }
}
layer {
  name: "inception_4d/relu_pool_proj"
  type: "ReLU"
  bottom: "inception_4d/pool_proj"
  top: "inception_4d/pool_proj"
}
layer {
  name: "inception_4d/output"
  type: "Concat"
  bottom: "inception_4d/1x1"
  bottom: "inception_4d/3x3"
  bottom: "inception_4d/5x5"
  bottom: "inception_4d/pool_proj"
  top: "inception_4d/output"
}
layer {
  name: "loss2/ave_pool"
  type: "Pooling"
  bottom: "inception_4d/output"
  top: "loss2/ave_pool"
  pooling_param {
    pool: AVE
    kernel_size: 5
    stride: 3
  }
}
layer {
  name: "loss2/conv"
  type: "Convolution"
  bottom: "loss2/ave_pool"
  top: "loss2/conv"
  param {
    lr_mult: 1
    decay_mult: 1
  }
  param {
    lr_mult: 2
    decay_mult: 0
  }
  convolution_param {
    num_output: 128
    kernel_size: 1
    weight_filler {
      type: "xavier"
      std: 0.08
    }
    bias_filler {
      type: "constant"
      value: 0.2
    }
  }
}
layer {
  name: "loss2/relu_conv"
  type: "ReLU"
  bottom: "loss2/conv"
  top: "loss2/conv"
}
layer {
  name: "loss2/fc"
  type: "InnerProduct"
  bottom: "loss2/conv"
  top: "loss2/fc"
  param {
    lr_mult: 1
    decay_mult: 1
  }
  param {
    lr_mult: 2
    decay_mult: 0
  }
  inner_product_param {
    num_output: 1024
    weight_filler {
      type: "xavier"
      std: 0.02
    }
    bias_filler {
      type: "constant"
      value: 0.2
    }
  }
}
layer {
  name: "loss2/relu_fc"
  type: "ReLU"
  bottom: "loss2/fc"
  top: "loss2/fc"
}
layer {
  name: "loss2/drop_fc"
  type: "Dropout"
  bottom: "loss2/fc"
  top: "loss2/fc"
  dropout_param {
    dropout_ratio: 0.7
  }
}
layer {
  name: "loss2/classifier_plantvillage"
  type: "InnerProduct"
  bottom: "loss2/fc"
  top: "loss2/classifier_plantvillage"
  param {
    lr_mult: 1
    decay_mult: 1
  }
  param {
    lr_mult: 2
    decay_mult: 0
  }
  inner_product_param {
    num_output: 38
    weight_filler {
      type: "xavier"
      std: 0.0009765625
    }
    bias_filler {
      type: "constant"
      value: 0
    }
  }
}
layer {
  name: "inception_4e/1x1"
  type: "Convolution"
  bottom: "inception_4d/output"
  top: "inception_4e/1x1"
  param {
    lr_mult: 1
    decay_mult: 1
  }
  param {
    lr_mult: 2
    decay_mult: 0
  }
  convolution_param {
    num_output: 256
    kernel_size: 1
    weight_filler {
      type: "xavier"
      std: 0.03
    }
    bias_filler {
      type: "constant"
      value: 0.2
    }
  }
}
layer {
  name: "inception_4e/relu_1x1"
  type: "ReLU"
  bottom: "inception_4e/1x1"
  top: "inception_4e/1x1"
}
layer {
  name: "inception_4e/3x3_reduce"
  type: "Convolution"
  bottom: "inception_4d/output"
  top: "inception_4e/3x3_reduce"
  param {
    lr_mult: 1
    decay_mult: 1
  }
  param {
    lr_mult: 2
    decay_mult: 0
  }
  convolution_param {
    num_output: 160
    kernel_size: 1
    weight_filler {
      type: "xavier"
      std: 0.09
    }
    bias_filler {
      type: "constant"
      value: 0.2
    }
  }
}
layer {
  name: "inception_4e/relu_3x3_reduce"
  type: "ReLU"
  bottom: "inception_4e/3x3_reduce"
  top: "inception_4e/3x3_reduce"
}
layer {
  name: "inception_4e/3x3"
  type: "Convolution"
  bottom: "inception_4e/3x3_reduce"
  top: "inception_4e/3x3"
  param {
    lr_mult: 1
    decay_mult: 1
  }
  param {
    lr_mult: 2
    decay_mult: 0
  }
  convolution_param {
    num_output: 320
    pad: 1
    kernel_size: 3
    weight_filler {
      type: "xavier"
      std: 0.03
    }
    bias_filler {
      type: "constant"
      value: 0.2
    }
  }
}
layer {
  name: "inception_4e/relu_3x3"
  type: "ReLU"
  bottom: "inception_4e/3x3"
  top: "inception_4e/3x3"
}
layer {
  name: "inception_4e/5x5_reduce"
  type: "Convolution"
  bottom: "inception_4d/output"
  top: "inception_4e/5x5_reduce"
  param {
    lr_mult: 1
    decay_mult: 1
  }
  param {
    lr_mult: 2
    decay_mult: 0
  }
  convolution_param {
    num_output: 32
    kernel_size: 1
    weight_filler {
      type: "xavier"
      std: 0.2
    }
    bias_filler {
      type: "constant"
      value: 0.2
    }
  }
}
layer {
  name: "inception_4e/relu_5x5_reduce"
  type: "ReLU"
  bottom: "inception_4e/5x5_reduce"
  top: "inception_4e/5x5_reduce"
}
layer {
  name: "inception_4e/5x5"
  type: "Convolution"
  bottom: "inception_4e/5x5_reduce"
  top: "inception_4e/
I0403 14:45:16.770113 11073 layer_factory.hpp:77] Creating layer data
I0403 14:45:16.770733 11073 net.cpp:91] Creating Layer data
I0403 14:45:16.770768 11073 net.cpp:399] data -> data
I0403 14:45:16.770823 11073 net.cpp:399] data -> label
I0403 14:45:16.770861 11073 data_transformer.cpp:25] Loading mean file from: /home/mohanty/data/final_dataset/lmdb/grayscale-60-40/mean.binaryproto
I0403 14:45:16.774006 11075 db_lmdb.cpp:38] Opened lmdb /home/mohanty/data/final_dataset/lmdb/grayscale-60-40/test_db
I0403 14:45:16.784284 11073 data_layer.cpp:41] output data size: 24,3,224,224
I0403 14:45:16.810858 11073 net.cpp:141] Setting up data
I0403 14:45:16.810961 11073 net.cpp:148] Top shape: 24 3 224 224 (3612672)
I0403 14:45:16.810983 11073 net.cpp:148] Top shape: 24 (24)
I0403 14:45:16.810999 11073 net.cpp:156] Memory required for data: 14450784
I0403 14:45:16.811028 11073 layer_factory.hpp:77] Creating layer label_data_1_split
I0403 14:45:16.811055 11073 net.cpp:91] Creating Layer label_data_1_split
I0403 14:45:16.811074 11073 net.cpp:425] label_data_1_split <- label
I0403 14:45:16.811107 11073 net.cpp:399] label_data_1_split -> label_data_1_split_0
I0403 14:45:16.811139 11073 net.cpp:399] label_data_1_split -> label_data_1_split_1
I0403 14:45:16.811163 11073 net.cpp:399] label_data_1_split -> label_data_1_split_2
I0403 14:45:16.811184 11073 net.cpp:399] label_data_1_split -> label_data_1_split_3
I0403 14:45:16.811204 11073 net.cpp:399] label_data_1_split -> label_data_1_split_4
I0403 14:45:16.811225 11073 net.cpp:399] label_data_1_split -> label_data_1_split_5
I0403 14:45:16.811245 11073 net.cpp:399] label_data_1_split -> label_data_1_split_6
I0403 14:45:16.811266 11073 net.cpp:399] label_data_1_split -> label_data_1_split_7
I0403 14:45:16.811287 11073 net.cpp:399] label_data_1_split -> label_data_1_split_8
I0403 14:45:16.811307 11073 net.cpp:399] label_data_1_split -> label_data_1_split_9
I0403 14:45:16.811427 11073 net.cpp:141] Setting up label_data_1_split
I0403 14:45:16.811452 11073 net.cpp:148] Top shape: 24 (24)
I0403 14:45:16.811470 11073 net.cpp:148] Top shape: 24 (24)
I0403 14:45:16.811486 11073 net.cpp:148] Top shape: 24 (24)
I0403 14:45:16.811502 11073 net.cpp:148] Top shape: 24 (24)
I0403 14:45:16.811518 11073 net.cpp:148] Top shape: 24 (24)
I0403 14:45:16.811534 11073 net.cpp:148] Top shape: 24 (24)
I0403 14:45:16.811550 11073 net.cpp:148] Top shape: 24 (24)
I0403 14:45:16.811566 11073 net.cpp:148] Top shape: 24 (24)
I0403 14:45:16.811583 11073 net.cpp:148] Top shape: 24 (24)
I0403 14:45:16.811599 11073 net.cpp:148] Top shape: 24 (24)
I0403 14:45:16.811645 11073 net.cpp:156] Memory required for data: 14451744
I0403 14:45:16.811661 11073 layer_factory.hpp:77] Creating layer conv1/7x7_s2
I0403 14:45:16.811694 11073 net.cpp:91] Creating Layer conv1/7x7_s2
I0403 14:45:16.811714 11073 net.cpp:425] conv1/7x7_s2 <- data
I0403 14:45:16.811734 11073 net.cpp:399] conv1/7x7_s2 -> conv1/7x7_s2
I0403 14:45:16.956293 11073 net.cpp:141] Setting up conv1/7x7_s2
I0403 14:45:16.956385 11073 net.cpp:148] Top shape: 24 64 112 112 (19267584)
I0403 14:45:16.956405 11073 net.cpp:156] Memory required for data: 91522080
I0403 14:45:16.956490 11073 layer_factory.hpp:77] Creating layer conv1/relu_7x7
I0403 14:45:16.956523 11073 net.cpp:91] Creating Layer conv1/relu_7x7
I0403 14:45:16.956543 11073 net.cpp:425] conv1/relu_7x7 <- conv1/7x7_s2
I0403 14:45:16.956564 11073 net.cpp:386] conv1/relu_7x7 -> conv1/7x7_s2 (in-place)
I0403 14:45:16.956840 11073 net.cpp:141] Setting up conv1/relu_7x7
I0403 14:45:16.956871 11073 net.cpp:148] Top shape: 24 64 112 112 (19267584)
I0403 14:45:16.956887 11073 net.cpp:156] Memory required for data: 168592416
I0403 14:45:16.956903 11073 layer_factory.hpp:77] Creating layer pool1/3x3_s2
I0403 14:45:16.956929 11073 net.cpp:91] Creating Layer pool1/3x3_s2
I0403 14:45:16.956948 11073 net.cpp:425] pool1/3x3_s2 <- conv1/7x7_s2
I0403 14:45:16.956969 11073 net.cpp:399] pool1/3x3_s2 -> pool1/3x3_s2
I0403 14:45:16.957048 11073 net.cpp:141] Setting up pool1/3x3_s2
I0403 14:45:16.957075 11073 net.cpp:148] Top shape: 24 64 56 56 (4816896)
I0403 14:45:16.957092 11073 net.cpp:156] Memory required for data: 187860000
I0403 14:45:16.957108 11073 layer_factory.hpp:77] Creating layer pool1/norm1
I0403 14:45:16.957139 11073 net.cpp:91] Creating Layer pool1/norm1
I0403 14:45:16.957159 11073 net.cpp:425] pool1/norm1 <- pool1/3x3_s2
I0403 14:45:16.957178 11073 net.cpp:399] pool1/norm1 -> pool1/norm1
I0403 14:45:16.957482 11073 net.cpp:141] Setting up pool1/norm1
I0403 14:45:16.957511 11073 net.cpp:148] Top shape: 24 64 56 56 (4816896)
I0403 14:45:16.957528 11073 net.cpp:156] Memory required for data: 207127584
I0403 14:45:16.957545 11073 layer_factory.hpp:77] Creating layer conv2/3x3_reduce
I0403 14:45:16.957571 11073 net.cpp:91] Creating Layer conv2/3x3_reduce
I0403 14:45:16.957590 11073 net.cpp:425] conv2/3x3_reduce <- pool1/norm1
I0403 14:45:16.957609 11073 net.cpp:399] conv2/3x3_reduce -> conv2/3x3_reduce
I0403 14:45:16.959034 11073 net.cpp:141] Setting up conv2/3x3_reduce
I0403 14:45:16.959066 11073 net.cpp:148] Top shape: 24 64 56 56 (4816896)
I0403 14:45:16.959084 11073 net.cpp:156] Memory required for data: 226395168
I0403 14:45:16.959108 11073 layer_factory.hpp:77] Creating layer conv2/relu_3x3_reduce
I0403 14:45:16.959131 11073 net.cpp:91] Creating Layer conv2/relu_3x3_reduce
I0403 14:45:16.959151 11073 net.cpp:425] conv2/relu_3x3_reduce <- conv2/3x3_reduce
I0403 14:45:16.959170 11073 net.cpp:386] conv2/relu_3x3_reduce -> conv2/3x3_reduce (in-place)
I0403 14:45:16.959437 11073 net.cpp:141] Setting up conv2/relu_3x3_reduce
I0403 14:45:16.959465 11073 net.cpp:148] Top shape: 24 64 56 56 (4816896)
I0403 14:45:16.959483 11073 net.cpp:156] Memory required for data: 245662752
I0403 14:45:16.959501 11073 layer_factory.hpp:77] Creating layer conv2/3x3
I0403 14:45:16.959523 11073 net.cpp:91] Creating Layer conv2/3x3
I0403 14:45:16.959542 11073 net.cpp:425] conv2/3x3 <- conv2/3x3_reduce
I0403 14:45:16.959563 11073 net.cpp:399] conv2/3x3 -> conv2/3x3
I0403 14:45:16.962041 11073 net.cpp:141] Setting up conv2/3x3
I0403 14:45:16.962077 11073 net.cpp:148] Top shape: 24 192 56 56 (14450688)
I0403 14:45:16.962097 11073 net.cpp:156] Memory required for data: 303465504
I0403 14:45:16.962121 11073 layer_factory.hpp:77] Creating layer conv2/relu_3x3
I0403 14:45:16.962148 11073 net.cpp:91] Creating Layer conv2/relu_3x3
I0403 14:45:16.962169 11073 net.cpp:425] conv2/relu_3x3 <- conv2/3x3
I0403 14:45:16.962188 11073 net.cpp:386] conv2/relu_3x3 -> conv2/3x3 (in-place)
I0403 14:45:16.962379 11073 net.cpp:141] Setting up conv2/relu_3x3
I0403 14:45:16.962407 11073 net.cpp:148] Top shape: 24 192 56 56 (14450688)
I0403 14:45:16.962460 11073 net.cpp:156] Memory required for data: 361268256
I0403 14:45:16.962478 11073 layer_factory.hpp:77] Creating layer conv2/norm2
I0403 14:45:16.962502 11073 net.cpp:91] Creating Layer conv2/norm2
I0403 14:45:16.962520 11073 net.cpp:425] conv2/norm2 <- conv2/3x3
I0403 14:45:16.962539 11073 net.cpp:399] conv2/norm2 -> conv2/norm2
I0403 14:45:16.962860 11073 net.cpp:141] Setting up conv2/norm2
I0403 14:45:16.962889 11073 net.cpp:148] Top shape: 24 192 56 56 (14450688)
I0403 14:45:16.962908 11073 net.cpp:156] Memory required for data: 419071008
I0403 14:45:16.962924 11073 layer_factory.hpp:77] Creating layer pool2/3x3_s2
I0403 14:45:16.962944 11073 net.cpp:91] Creating Layer pool2/3x3_s2
I0403 14:45:16.962962 11073 net.cpp:425] pool2/3x3_s2 <- conv2/norm2
I0403 14:45:16.962982 11073 net.cpp:399] pool2/3x3_s2 -> pool2/3x3_s2
I0403 14:45:16.963040 11073 net.cpp:141] Setting up pool2/3x3_s2
I0403 14:45:16.963065 11073 net.cpp:148] Top shape: 24 192 28 28 (3612672)
I0403 14:45:16.963080 11073 net.cpp:156] Memory required for data: 433521696
I0403 14:45:16.963096 11073 layer_factory.hpp:77] Creating layer pool2/3x3_s2_pool2/3x3_s2_0_split
I0403 14:45:16.963115 11073 net.cpp:91] Creating Layer pool2/3x3_s2_pool2/3x3_s2_0_split
I0403 14:45:16.963145 11073 net.cpp:425] pool2/3x3_s2_pool2/3x3_s2_0_split <- pool2/3x3_s2
I0403 14:45:16.963171 11073 net.cpp:399] pool2/3x3_s2_pool2/3x3_s2_0_split -> pool2/3x3_s2_pool2/3x3_s2_0_split_0
I0403 14:45:16.963194 11073 net.cpp:399] pool2/3x3_s2_pool2/3x3_s2_0_split -> pool2/3x3_s2_pool2/3x3_s2_0_split_1
I0403 14:45:16.963215 11073 net.cpp:399] pool2/3x3_s2_pool2/3x3_s2_0_split -> pool2/3x3_s2_pool2/3x3_s2_0_split_2
I0403 14:45:16.963237 11073 net.cpp:399] pool2/3x3_s2_pool2/3x3_s2_0_split -> pool2/3x3_s2_pool2/3x3_s2_0_split_3
I0403 14:45:16.963313 11073 net.cpp:141] Setting up pool2/3x3_s2_pool2/3x3_s2_0_split
I0403 14:45:16.963341 11073 net.cpp:148] Top shape: 24 192 28 28 (3612672)
I0403 14:45:16.963362 11073 net.cpp:148] Top shape: 24 192 28 28 (3612672)
I0403 14:45:16.963381 11073 net.cpp:148] Top shape: 24 192 28 28 (3612672)
I0403 14:45:16.963398 11073 net.cpp:148] Top shape: 24 192 28 28 (3612672)
I0403 14:45:16.963413 11073 net.cpp:156] Memory required for data: 491324448
I0403 14:45:16.963429 11073 layer_factory.hpp:77] Creating layer inception_3a/1x1
I0403 14:45:16.963454 11073 net.cpp:91] Creating Layer inception_3a/1x1
I0403 14:45:16.963472 11073 net.cpp:425] inception_3a/1x1 <- pool2/3x3_s2_pool2/3x3_s2_0_split_0
I0403 14:45:16.963492 11073 net.cpp:399] inception_3a/1x1 -> inception_3a/1x1
I0403 14:45:16.965189 11073 net.cpp:141] Setting up inception_3a/1x1
I0403 14:45:16.965221 11073 net.cpp:148] Top shape: 24 64 28 28 (1204224)
I0403 14:45:16.965240 11073 net.cpp:156] Memory required for data: 496141344
I0403 14:45:16.965260 11073 layer_factory.hpp:77] Creating layer inception_3a/relu_1x1
I0403 14:45:16.965284 11073 net.cpp:91] Creating Layer inception_3a/relu_1x1
I0403 14:45:16.965304 11073 net.cpp:425] inception_3a/relu_1x1 <- inception_3a/1x1
I0403 14:45:16.965322 11073 net.cpp:386] inception_3a/relu_1x1 -> inception_3a/1x1 (in-place)
I0403 14:45:16.965507 11073 net.cpp:141] Setting up inception_3a/relu_1x1
I0403 14:45:16.965535 11073 net.cpp:148] Top shape: 24 64 28 28 (1204224)
I0403 14:45:16.965551 11073 net.cpp:156] Memory required for data: 500958240
I0403 14:45:16.965567 11073 layer_factory.hpp:77] Creating layer inception_3a/3x3_reduce
I0403 14:45:16.965591 11073 net.cpp:91] Creating Layer inception_3a/3x3_reduce
I0403 14:45:16.965610 11073 net.cpp:425] inception_3a/3x3_reduce <- pool2/3x3_s2_pool2/3x3_s2_0_split_1
I0403 14:45:16.965633 11073 net.cpp:399] inception_3a/3x3_reduce -> inception_3a/3x3_reduce
I0403 14:45:16.967442 11073 net.cpp:141] Setting up inception_3a/3x3_reduce
I0403 14:45:16.967475 11073 net.cpp:148] Top shape: 24 96 28 28 (1806336)
I0403 14:45:16.967494 11073 net.cpp:156] Memory required for data: 508183584
I0403 14:45:16.967516 11073 layer_factory.hpp:77] Creating layer inception_3a/relu_3x3_reduce
I0403 14:45:16.967556 11073 net.cpp:91] Creating Layer inception_3a/relu_3x3_reduce
I0403 14:45:16.967576 11073 net.cpp:425] inception_3a/relu_3x3_reduce <- inception_3a/3x3_reduce
I0403 14:45:16.967600 11073 net.cpp:386] inception_3a/relu_3x3_reduce -> inception_3a/3x3_reduce (in-place)
I0403 14:45:16.967841 11073 net.cpp:141] Setting up inception_3a/relu_3x3_reduce
I0403 14:45:16.967869 11073 net.cpp:148] Top shape: 24 96 28 28 (1806336)
I0403 14:45:16.967885 11073 net.cpp:156] Memory required for data: 515408928
I0403 14:45:16.967901 11073 layer_factory.hpp:77] Creating layer inception_3a/3x3
I0403 14:45:16.967926 11073 net.cpp:91] Creating Layer inception_3a/3x3
I0403 14:45:16.967946 11073 net.cpp:425] inception_3a/3x3 <- inception_3a/3x3_reduce
I0403 14:45:16.967969 11073 net.cpp:399] inception_3a/3x3 -> inception_3a/3x3
I0403 14:45:16.969794 11073 net.cpp:141] Setting up inception_3a/3x3
I0403 14:45:16.969826 11073 net.cpp:148] Top shape: 24 128 28 28 (2408448)
I0403 14:45:16.969846 11073 net.cpp:156] Memory required for data: 525042720
I0403 14:45:16.969866 11073 layer_factory.hpp:77] Creating layer inception_3a/relu_3x3
I0403 14:45:16.969887 11073 net.cpp:91] Creating Layer inception_3a/relu_3x3
I0403 14:45:16.969904 11073 net.cpp:425] inception_3a/relu_3x3 <- inception_3a/3x3
I0403 14:45:16.969925 11073 net.cpp:386] inception_3a/relu_3x3 -> inception_3a/3x3 (in-place)
I0403 14:45:16.970221 11073 net.cpp:141] Setting up inception_3a/relu_3x3
I0403 14:45:16.970253 11073 net.cpp:148] Top shape: 24 128 28 28 (2408448)
I0403 14:45:16.970271 11073 net.cpp:156] Memory required for data: 534676512
I0403 14:45:16.970289 11073 layer_factory.hpp:77] Creating layer inception_3a/5x5_reduce
I0403 14:45:16.970314 11073 net.cpp:91] Creating Layer inception_3a/5x5_reduce
I0403 14:45:16.970334 11073 net.cpp:425] inception_3a/5x5_reduce <- pool2/3x3_s2_pool2/3x3_s2_0_split_2
I0403 14:45:16.970355 11073 net.cpp:399] inception_3a/5x5_reduce -> inception_3a/5x5_reduce
I0403 14:45:16.971390 11073 net.cpp:141] Setting up inception_3a/5x5_reduce
I0403 14:45:16.971421 11073 net.cpp:148] Top shape: 24 16 28 28 (301056)
I0403 14:45:16.971436 11073 net.cpp:156] Memory required for data: 535880736
I0403 14:45:16.971457 11073 layer_factory.hpp:77] Creating layer inception_3a/relu_5x5_reduce
I0403 14:45:16.971475 11073 net.cpp:91] Creating Layer inception_3a/relu_5x5_reduce
I0403 14:45:16.971493 11073 net.cpp:425] inception_3a/relu_5x5_reduce <- inception_3a/5x5_reduce
I0403 14:45:16.971518 11073 net.cpp:386] inception_3a/relu_5x5_reduce -> inception_3a/5x5_reduce (in-place)
I0403 14:45:16.971822 11073 net.cpp:141] Setting up inception_3a/relu_5x5_reduce
I0403 14:45:16.971851 11073 net.cpp:148] Top shape: 24 16 28 28 (301056)
I0403 14:45:16.971868 11073 net.cpp:156] Memory required for data: 537084960
I0403 14:45:16.971884 11073 layer_factory.hpp:77] Creating layer inception_3a/5x5
I0403 14:45:16.971906 11073 net.cpp:91] Creating Layer inception_3a/5x5
I0403 14:45:16.971925 11073 net.cpp:425] inception_3a/5x5 <- inception_3a/5x5_reduce
I0403 14:45:16.971947 11073 net.cpp:399] inception_3a/5x5 -> inception_3a/5x5
I0403 14:45:16.973003 11073 net.cpp:141] Setting up inception_3a/5x5
I0403 14:45:16.973034 11073 net.cpp:148] Top shape: 24 32 28 28 (602112)
I0403 14:45:16.973053 11073 net.cpp:156] Memory required for data: 539493408
I0403 14:45:16.973073 11073 layer_factory.hpp:77] Creating layer inception_3a/relu_5x5
I0403 14:45:16.973091 11073 net.cpp:91] Creating Layer inception_3a/relu_5x5
I0403 14:45:16.973109 11073 net.cpp:425] inception_3a/relu_5x5 <- inception_3a/5x5
I0403 14:45:16.973140 11073 net.cpp:386] inception_3a/relu_5x5 -> inception_3a/5x5 (in-place)
I0403 14:45:16.973327 11073 net.cpp:141] Setting up inception_3a/relu_5x5
I0403 14:45:16.973353 11073 net.cpp:148] Top shape: 24 32 28 28 (602112)
I0403 14:45:16.973371 11073 net.cpp:156] Memory required for data: 541901856
I0403 14:45:16.973388 11073 layer_factory.hpp:77] Creating layer inception_3a/pool
I0403 14:45:16.973407 11073 net.cpp:91] Creating Layer inception_3a/pool
I0403 14:45:16.973439 11073 net.cpp:425] inception_3a/pool <- pool2/3x3_s2_pool2/3x3_s2_0_split_3
I0403 14:45:16.973461 11073 net.cpp:399] inception_3a/pool -> inception_3a/pool
I0403 14:45:16.973522 11073 net.cpp:141] Setting up inception_3a/pool
I0403 14:45:16.973547 11073 net.cpp:148] Top shape: 24 192 28 28 (3612672)
I0403 14:45:16.973562 11073 net.cpp:156] Memory required for data: 556352544
I0403 14:45:16.973578 11073 layer_factory.hpp:77] Creating layer inception_3a/pool_proj
I0403 14:45:16.973604 11073 net.cpp:91] Creating Layer inception_3a/pool_proj
I0403 14:45:16.973623 11073 net.cpp:425] inception_3a/pool_proj <- inception_3a/pool
I0403 14:45:16.973644 11073 net.cpp:399] inception_3a/pool_proj -> inception_3a/pool_proj
I0403 14:45:16.974666 11073 net.cpp:141] Setting up inception_3a/pool_proj
I0403 14:45:16.974695 11073 net.cpp:148] Top shape: 24 32 28 28 (602112)
I0403 14:45:16.974714 11073 net.cpp:156] Memory required for data: 558760992
I0403 14:45:16.974738 11073 layer_factory.hpp:77] Creating layer inception_3a/relu_pool_proj
I0403 14:45:16.974761 11073 net.cpp:91] Creating Layer inception_3a/relu_pool_proj
I0403 14:45:16.974778 11073 net.cpp:425] inception_3a/relu_pool_proj <- inception_3a/pool_proj
I0403 14:45:16.974802 11073 net.cpp:386] inception_3a/relu_pool_proj -> inception_3a/pool_proj (in-place)
I0403 14:45:16.975085 11073 net.cpp:141] Setting up inception_3a/relu_pool_proj
I0403 14:45:16.975116 11073 net.cpp:148] Top shape: 24 32 28 28 (602112)
I0403 14:45:16.975153 11073 net.cpp:156] Memory required for data: 561169440
I0403 14:45:16.975173 11073 layer_factory.hpp:77] Creating layer inception_3a/output
I0403 14:45:16.975193 11073 net.cpp:91] Creating Layer inception_3a/output
I0403 14:45:16.975210 11073 net.cpp:425] inception_3a/output <- inception_3a/1x1
I0403 14:45:16.975229 11073 net.cpp:425] inception_3a/output <- inception_3a/3x3
I0403 14:45:16.975246 11073 net.cpp:425] inception_3a/output <- inception_3a/5x5
I0403 14:45:16.975263 11073 net.cpp:425] inception_3a/output <- inception_3a/pool_proj
I0403 14:45:16.975284 11073 net.cpp:399] inception_3a/output -> inception_3a/output
I0403 14:45:16.975335 11073 net.cpp:141] Setting up inception_3a/output
I0403 14:45:16.975360 11073 net.cpp:148] Top shape: 24 256 28 28 (4816896)
I0403 14:45:16.975376 11073 net.cpp:156] Memory required for data: 580437024
I0403 14:45:16.975392 11073 layer_factory.hpp:77] Creating layer inception_3a/output_inception_3a/output_0_split
I0403 14:45:16.975414 11073 net.cpp:91] Creating Layer inception_3a/output_inception_3a/output_0_split
I0403 14:45:16.975431 11073 net.cpp:425] inception_3a/output_inception_3a/output_0_split <- inception_3a/output
I0403 14:45:16.975450 11073 net.cpp:399] inception_3a/output_inception_3a/output_0_split -> inception_3a/output_inception_3a/output_0_split_0
I0403 14:45:16.975471 11073 net.cpp:399] inception_3a/output_inception_3a/output_0_split -> inception_3a/output_inception_3a/output_0_split_1
I0403 14:45:16.975497 11073 net.cpp:399] inception_3a/output_inception_3a/output_0_split -> inception_3a/output_inception_3a/output_0_split_2
I0403 14:45:16.975522 11073 net.cpp:399] inception_3a/output_inception_3a/output_0_split -> inception_3a/output_inception_3a/output_0_split_3
I0403 14:45:16.975601 11073 net.cpp:141] Setting up inception_3a/output_inception_3a/output_0_split
I0403 14:45:16.975628 11073 net.cpp:148] Top shape: 24 256 28 28 (4816896)
I0403 14:45:16.975647 11073 net.cpp:148] Top shape: 24 256 28 28 (4816896)
I0403 14:45:16.975664 11073 net.cpp:148] Top shape: 24 256 28 28 (4816896)
I0403 14:45:16.975682 11073 net.cpp:148] Top shape: 24 256 28 28 (4816896)
I0403 14:45:16.975697 11073 net.cpp:156] Memory required for data: 657507360
I0403 14:45:16.975713 11073 layer_factory.hpp:77] Creating layer inception_3b/1x1
I0403 14:45:16.975739 11073 net.cpp:91] Creating Layer inception_3b/1x1
I0403 14:45:16.975757 11073 net.cpp:425] inception_3b/1x1 <- inception_3a/output_inception_3a/output_0_split_0
I0403 14:45:16.975778 11073 net.cpp:399] inception_3b/1x1 -> inception_3b/1x1
I0403 14:45:16.976987 11073 net.cpp:141] Setting up inception_3b/1x1
I0403 14:45:16.977030 11073 net.cpp:148] Top shape: 24 128 28 28 (2408448)
I0403 14:45:16.977051 11073 net.cpp:156] Memory required for data: 667141152
I0403 14:45:16.977072 11073 layer_factory.hpp:77] Creating layer inception_3b/relu_1x1
I0403 14:45:16.977092 11073 net.cpp:91] Creating Layer inception_3b/relu_1x1
I0403 14:45:16.977109 11073 net.cpp:425] inception_3b/relu_1x1 <- inception_3b/1x1
I0403 14:45:16.977131 11073 net.cpp:386] inception_3b/relu_1x1 -> inception_3b/1x1 (in-place)
I0403 14:45:16.977321 11073 net.cpp:141] Setting up inception_3b/relu_1x1
I0403 14:45:16.977351 11073 net.cpp:148] Top shape: 24 128 28 28 (2408448)
I0403 14:45:16.977370 11073 net.cpp:156] Memory required for data: 676774944
I0403 14:45:16.977387 11073 layer_factory.hpp:77] Creating layer inception_3b/3x3_reduce
I0403 14:45:16.977411 11073 net.cpp:91] Creating Layer inception_3b/3x3_reduce
I0403 14:45:16.977429 11073 net.cpp:425] inception_3b/3x3_reduce <- inception_3a/output_inception_3a/output_0_split_1
I0403 14:45:16.977450 11073 net.cpp:399] inception_3b/3x3_reduce -> inception_3b/3x3_reduce
I0403 14:45:16.978662 11073 net.cpp:141] Setting up inception_3b/3x3_reduce
I0403 14:45:16.978691 11073 net.cpp:148] Top shape: 24 128 28 28 (2408448)
I0403 14:45:16.978708 11073 net.cpp:156] Memory required for data: 686408736
I0403 14:45:16.978729 11073 layer_factory.hpp:77] Creating layer inception_3b/relu_3x3_reduce
I0403 14:45:16.978754 11073 net.cpp:91] Creating Layer inception_3b/relu_3x3_reduce
I0403 14:45:16.978772 11073 net.cpp:425] inception_3b/relu_3x3_reduce <- inception_3b/3x3_reduce
I0403 14:45:16.978791 11073 net.cpp:386] inception_3b/relu_3x3_reduce -> inception_3b/3x3_reduce (in-place)
I0403 14:45:16.978976 11073 net.cpp:141] Setting up inception_3b/relu_3x3_reduce
I0403 14:45:16.979004 11073 net.cpp:148] Top shape: 24 128 28 28 (2408448)
I0403 14:45:16.979022 11073 net.cpp:156] Memory required for data: 696042528
I0403 14:45:16.979038 11073 layer_factory.hpp:77] Creating layer inception_3b/3x3
I0403 14:45:16.979063 11073 net.cpp:91] Creating Layer inception_3b/3x3
I0403 14:45:16.979084 11073 net.cpp:425] inception_3b/3x3 <- inception_3b/3x3_reduce
I0403 14:45:16.979106 11073 net.cpp:399] inception_3b/3x3 -> inception_3b/3x3
I0403 14:45:16.982179 11073 net.cpp:141] Setting up inception_3b/3x3
I0403 14:45:16.982213 11073 net.cpp:148] Top shape: 24 192 28 28 (3612672)
I0403 14:45:16.982231 11073 net.cpp:156] Memory required for data: 710493216
I0403 14:45:16.982250 11073 layer_factory.hpp:77] Creating layer inception_3b/relu_3x3
I0403 14:45:16.982270 11073 net.cpp:91] Creating Layer inception_3b/relu_3x3
I0403 14:45:16.982288 11073 net.cpp:425] inception_3b/relu_3x3 <- inception_3b/3x3
I0403 14:45:16.982311 11073 net.cpp:386] inception_3b/relu_3x3 -> inception_3b/3x3 (in-place)
I0403 14:45:16.982602 11073 net.cpp:141] Setting up inception_3b/relu_3x3
I0403 14:45:16.982633 11073 net.cpp:148] Top shape: 24 192 28 28 (3612672)
I0403 14:45:16.982651 11073 net.cpp:156] Memory required for data: 724943904
I0403 14:45:16.982667 11073 layer_factory.hpp:77] Creating layer inception_3b/5x5_reduce
I0403 14:45:16.982693 11073 net.cpp:91] Creating Layer inception_3b/5x5_reduce
I0403 14:45:16.982712 11073 net.cpp:425] inception_3b/5x5_reduce <- inception_3a/output_inception_3a/output_0_split_2
I0403 14:45:16.982733 11073 net.cpp:399] inception_3b/5x5_reduce -> inception_3b/5x5_reduce
I0403 14:45:16.983790 11073 net.cpp:141] Setting up inception_3b/5x5_reduce
I0403 14:45:16.983824 11073 net.cpp:148] Top shape: 24 32 28 28 (602112)
I0403 14:45:16.983842 11073 net.cpp:156] Memory required for data: 727352352
I0403 14:45:16.983862 11073 layer_factory.hpp:77] Creating layer inception_3b/relu_5x5_reduce
I0403 14:45:16.983882 11073 net.cpp:91] Creating Layer inception_3b/relu_5x5_reduce
I0403 14:45:16.983899 11073 net.cpp:425] inception_3b/relu_5x5_reduce <- inception_3b/5x5_reduce
I0403 14:45:16.983922 11073 net.cpp:386] inception_3b/relu_5x5_reduce -> inception_3b/5x5_reduce (in-place)
I0403 14:45:16.984122 11073 net.cpp:141] Setting up inception_3b/relu_5x5_reduce
I0403 14:45:16.984154 11073 net.cpp:148] Top shape: 24 32 28 28 (602112)
I0403 14:45:16.984171 11073 net.cpp:156] Memory required for data: 729760800
I0403 14:45:16.984187 11073 layer_factory.hpp:77] Creating layer inception_3b/5x5
I0403 14:45:16.984211 11073 net.cpp:91] Creating Layer inception_3b/5x5
I0403 14:45:16.984231 11073 net.cpp:425] inception_3b/5x5 <- inception_3b/5x5_reduce
I0403 14:45:16.984253 11073 net.cpp:399] inception_3b/5x5 -> inception_3b/5x5
I0403 14:45:16.986330 11073 net.cpp:141] Setting up inception_3b/5x5
I0403 14:45:16.986361 11073 net.cpp:148] Top shape: 24 96 28 28 (1806336)
I0403 14:45:16.986378 11073 net.cpp:156] Memory required for data: 736986144
I0403 14:45:16.986397 11073 layer_factory.hpp:77] Creating layer inception_3b/relu_5x5
I0403 14:45:16.986419 11073 net.cpp:91] Creating Layer inception_3b/relu_5x5
I0403 14:45:16.986439 11073 net.cpp:425] inception_3b/relu_5x5 <- inception_3b/5x5
I0403 14:45:16.986459 11073 net.cpp:386] inception_3b/relu_5x5 -> inception_3b/5x5 (in-place)
I0403 14:45:16.986665 11073 net.cpp:141] Setting up inception_3b/relu_5x5
I0403 14:45:16.986693 11073 net.cpp:148] Top shape: 24 96 28 28 (1806336)
I0403 14:45:16.986711 11073 net.cpp:156] Memory required for data: 744211488
I0403 14:45:16.986726 11073 layer_factory.hpp:77] Creating layer inception_3b/pool
I0403 14:45:16.986745 11073 net.cpp:91] Creating Layer inception_3b/pool
I0403 14:45:16.986763 11073 net.cpp:425] inception_3b/pool <- inception_3a/output_inception_3a/output_0_split_3
I0403 14:45:16.986783 11073 net.cpp:399] inception_3b/pool -> inception_3b/pool
I0403 14:45:16.986842 11073 net.cpp:141] Setting up inception_3b/pool
I0403 14:45:16.986867 11073 net.cpp:148] Top shape: 24 256 28 28 (4816896)
I0403 14:45:16.986883 11073 net.cpp:156] Memory required for data: 763479072
I0403 14:45:16.986901 11073 layer_factory.hpp:77] Creating layer inception_3b/pool_proj
I0403 14:45:16.986925 11073 net.cpp:91] Creating Layer inception_3b/pool_proj
I0403 14:45:16.986944 11073 net.cpp:425] inception_3b/pool_proj <- inception_3b/pool
I0403 14:45:16.986964 11073 net.cpp:399] inception_3b/pool_proj -> inception_3b/pool_proj
I0403 14:45:16.988087 11073 net.cpp:141] Setting up inception_3b/pool_proj
I0403 14:45:16.988117 11073 net.cpp:148] Top shape: 24 64 28 28 (1204224)
I0403 14:45:16.988142 11073 net.cpp:156] Memory required for data: 768295968
I0403 14:45:16.988162 11073 layer_factory.hpp:77] Creating layer inception_3b/relu_pool_proj
I0403 14:45:16.988181 11073 net.cpp:91] Creating Layer inception_3b/relu_pool_proj
I0403 14:45:16.988200 11073 net.cpp:425] inception_3b/relu_pool_proj <- inception_3b/pool_proj
I0403 14:45:16.988224 11073 net.cpp:386] inception_3b/relu_pool_proj -> inception_3b/pool_proj (in-place)
I0403 14:45:16.988648 11073 net.cpp:141] Setting up inception_3b/relu_pool_proj
I0403 14:45:16.988677 11073 net.cpp:148] Top shape: 24 64 28 28 (1204224)
I0403 14:45:16.988693 11073 net.cpp:156] Memory required for data: 773112864
I0403 14:45:16.988709 11073 layer_factory.hpp:77] Creating layer inception_3b/output
I0403 14:45:16.988729 11073 net.cpp:91] Creating Layer inception_3b/output
I0403 14:45:16.988746 11073 net.cpp:425] inception_3b/output <- inception_3b/1x1
I0403 14:45:16.988765 11073 net.cpp:425] inception_3b/output <- inception_3b/3x3
I0403 14:45:16.988804 11073 net.cpp:425] inception_3b/output <- inception_3b/5x5
I0403 14:45:16.988826 11073 net.cpp:425] inception_3b/output <- inception_3b/pool_proj
I0403 14:45:16.988848 11073 net.cpp:399] inception_3b/output -> inception_3b/output
I0403 14:45:16.988896 11073 net.cpp:141] Setting up inception_3b/output
I0403 14:45:16.988924 11073 net.cpp:148] Top shape: 24 480 28 28 (9031680)
I0403 14:45:16.988942 11073 net.cpp:156] Memory required for data: 809239584
I0403 14:45:16.988958 11073 layer_factory.hpp:77] Creating layer pool3/3x3_s2
I0403 14:45:16.988977 11073 net.cpp:91] Creating Layer pool3/3x3_s2
I0403 14:45:16.988996 11073 net.cpp:425] pool3/3x3_s2 <- inception_3b/output
I0403 14:45:16.989037 11073 net.cpp:399] pool3/3x3_s2 -> pool3/3x3_s2
I0403 14:45:16.989101 11073 net.cpp:141] Setting up pool3/3x3_s2
I0403 14:45:16.989130 11073 net.cpp:148] Top shape: 24 480 14 14 (2257920)
I0403 14:45:16.989151 11073 net.cpp:156] Memory required for data: 818271264
I0403 14:45:16.989168 11073 layer_factory.hpp:77] Creating layer pool3/3x3_s2_pool3/3x3_s2_0_split
I0403 14:45:16.989190 11073 net.cpp:91] Creating Layer pool3/3x3_s2_pool3/3x3_s2_0_split
I0403 14:45:16.989208 11073 net.cpp:425] pool3/3x3_s2_pool3/3x3_s2_0_split <- pool3/3x3_s2
I0403 14:45:16.989228 11073 net.cpp:399] pool3/3x3_s2_pool3/3x3_s2_0_split -> pool3/3x3_s2_pool3/3x3_s2_0_split_0
I0403 14:45:16.989249 11073 net.cpp:399] pool3/3x3_s2_pool3/3x3_s2_0_split -> pool3/3x3_s2_pool3/3x3_s2_0_split_1
I0403 14:45:16.989271 11073 net.cpp:399] pool3/3x3_s2_pool3/3x3_s2_0_split -> pool3/3x3_s2_pool3/3x3_s2_0_split_2
I0403 14:45:16.989294 11073 net.cpp:399] pool3/3x3_s2_pool3/3x3_s2_0_split -> pool3/3x3_s2_pool3/3x3_s2_0_split_3
I0403 14:45:16.989374 11073 net.cpp:141] Setting up pool3/3x3_s2_pool3/3x3_s2_0_split
I0403 14:45:16.989399 11073 net.cpp:148] Top shape: 24 480 14 14 (2257920)
I0403 14:45:16.989418 11073 net.cpp:148] Top shape: 24 480 14 14 (2257920)
I0403 14:45:16.989434 11073 net.cpp:148] Top shape: 24 480 14 14 (2257920)
I0403 14:45:16.989450 11073 net.cpp:148] Top shape: 24 480 14 14 (2257920)
I0403 14:45:16.989466 11073 net.cpp:156] Memory required for data: 854397984
I0403 14:45:16.989482 11073 layer_factory.hpp:77] Creating layer inception_4a/1x1
I0403 14:45:16.989506 11073 net.cpp:91] Creating Layer inception_4a/1x1
I0403 14:45:16.989526 11073 net.cpp:425] inception_4a/1x1 <- pool3/3x3_s2_pool3/3x3_s2_0_split_0
I0403 14:45:16.989548 11073 net.cpp:399] inception_4a/1x1 -> inception_4a/1x1
I0403 14:45:16.991207 11073 net.cpp:141] Setting up inception_4a/1x1
I0403 14:45:16.991238 11073 net.cpp:148] Top shape: 24 192 14 14 (903168)
I0403 14:45:16.991255 11073 net.cpp:156] Memory required for data: 858010656
I0403 14:45:16.991276 11073 layer_factory.hpp:77] Creating layer inception_4a/relu_1x1
I0403 14:45:16.991298 11073 net.cpp:91] Creating Layer inception_4a/relu_1x1
I0403 14:45:16.991317 11073 net.cpp:425] inception_4a/relu_1x1 <- inception_4a/1x1
I0403 14:45:16.991335 11073 net.cpp:386] inception_4a/relu_1x1 -> inception_4a/1x1 (in-place)
I0403 14:45:16.991521 11073 net.cpp:141] Setting up inception_4a/relu_1x1
I0403 14:45:16.991552 11073 net.cpp:148] Top shape: 24 192 14 14 (903168)
I0403 14:45:16.991569 11073 net.cpp:156] Memory required for data: 861623328
I0403 14:45:16.991585 11073 layer_factory.hpp:77] Creating layer inception_4a/3x3_reduce
I0403 14:45:16.991610 11073 net.cpp:91] Creating Layer inception_4a/3x3_reduce
I0403 14:45:16.991628 11073 net.cpp:425] inception_4a/3x3_reduce <- pool3/3x3_s2_pool3/3x3_s2_0_split_1
I0403 14:45:16.991650 11073 net.cpp:399] inception_4a/3x3_reduce -> inception_4a/3x3_reduce
I0403 14:45:16.993008 11073 net.cpp:141] Setting up inception_4a/3x3_reduce
I0403 14:45:16.993038 11073 net.cpp:148] Top shape: 24 96 14 14 (451584)
I0403 14:45:16.993055 11073 net.cpp:156] Memory required for data: 863429664
I0403 14:45:16.993083 11073 layer_factory.hpp:77] Creating layer inception_4a/relu_3x3_reduce
I0403 14:45:16.993106 11073 net.cpp:91] Creating Layer inception_4a/relu_3x3_reduce
I0403 14:45:16.993134 11073 net.cpp:425] inception_4a/relu_3x3_reduce <- inception_4a/3x3_reduce
I0403 14:45:16.993160 11073 net.cpp:386] inception_4a/relu_3x3_reduce -> inception_4a/3x3_reduce (in-place)
I0403 14:45:16.993350 11073 net.cpp:141] Setting up inception_4a/relu_3x3_reduce
I0403 14:45:16.993377 11073 net.cpp:148] Top shape: 24 96 14 14 (451584)
I0403 14:45:16.993394 11073 net.cpp:156] Memory required for data: 865236000
I0403 14:45:16.993410 11073 layer_factory.hpp:77] Creating layer inception_4a/3x3
I0403 14:45:16.993434 11073 net.cpp:91] Creating Layer inception_4a/3x3
I0403 14:45:16.993453 11073 net.cpp:425] inception_4a/3x3 <- inception_4a/3x3_reduce
I0403 14:45:16.993479 11073 net.cpp:399] inception_4a/3x3 -> inception_4a/3x3
I0403 14:45:16.996291 11073 net.cpp:141] Setting up inception_4a/3x3
I0403 14:45:16.996322 11073 net.cpp:148] Top shape: 24 208 14 14 (978432)
I0403 14:45:16.996340 11073 net.cpp:156] Memory required for data: 869149728
I0403 14:45:16.996359 11073 layer_factory.hpp:77] Creating layer inception_4a/relu_3x3
I0403 14:45:16.996381 11073 net.cpp:91] Creating Layer inception_4a/relu_3x3
I0403 14:45:16.996399 11073 net.cpp:425] inception_4a/relu_3x3 <- inception_4a/3x3
I0403 14:45:16.996418 11073 net.cpp:386] inception_4a/relu_3x3 -> inception_4a/3x3 (in-place)
I0403 14:45:16.996722 11073 net.cpp:141] Setting up inception_4a/relu_3x3
I0403 14:45:16.996750 11073 net.cpp:148] Top shape: 24 208 14 14 (978432)
I0403 14:45:16.996767 11073 net.cpp:156] Memory required for data: 873063456
I0403 14:45:16.996796 11073 layer_factory.hpp:77] Creating layer inception_4a/5x5_reduce
I0403 14:45:16.996821 11073 net.cpp:91] Creating Layer inception_4a/5x5_reduce
I0403 14:45:16.996841 11073 net.cpp:425] inception_4a/5x5_reduce <- pool3/3x3_s2_pool3/3x3_s2_0_split_2
I0403 14:45:16.996861 11073 net.cpp:399] inception_4a/5x5_reduce -> inception_4a/5x5_reduce
I0403 14:45:16.997939 11073 net.cpp:141] Setting up inception_4a/5x5_reduce
I0403 14:45:16.997972 11073 net.cpp:148] Top shape: 24 16 14 14 (75264)
I0403 14:45:16.997988 11073 net.cpp:156] Memory required for data: 873364512
I0403 14:45:16.998008 11073 layer_factory.hpp:77] Creating layer inception_4a/relu_5x5_reduce
I0403 14:45:16.998026 11073 net.cpp:91] Creating Layer inception_4a/relu_5x5_reduce
I0403 14:45:16.998044 11073 net.cpp:425] inception_4a/relu_5x5_reduce <- inception_4a/5x5_reduce
I0403 14:45:16.998064 11073 net.cpp:386] inception_4a/relu_5x5_reduce -> inception_4a/5x5_reduce (in-place)
I0403 14:45:16.998258 11073 net.cpp:141] Setting up inception_4a/relu_5x5_reduce
I0403 14:45:16.998286 11073 net.cpp:148] Top shape: 24 16 14 14 (75264)
I0403 14:45:16.998301 11073 net.cpp:156] Memory required for data: 873665568
I0403 14:45:16.998317 11073 layer_factory.hpp:77] Creating layer inception_4a/5x5
I0403 14:45:16.998340 11073 net.cpp:91] Creating Layer inception_4a/5x5
I0403 14:45:16.998358 11073 net.cpp:425] inception_4a/5x5 <- inception_4a/5x5_reduce
I0403 14:45:16.998381 11073 net.cpp:399] inception_4a/5x5 -> inception_4a/5x5
I0403 14:45:16.999526 11073 net.cpp:141] Setting up inception_4a/5x5
I0403 14:45:16.999555 11073 net.cpp:148] Top shape: 24 48 14 14 (225792)
I0403 14:45:16.999572 11073 net.cpp:156] Memory required for data: 874568736
I0403 14:45:16.999593 11073 layer_factory.hpp:77] Creating layer inception_4a/relu_5x5
I0403 14:45:16.999614 11073 net.cpp:91] Creating Layer inception_4a/relu_5x5
I0403 14:45:16.999631 11073 net.cpp:425] inception_4a/relu_5x5 <- inception_4a/5x5
I0403 14:45:16.999650 11073 net.cpp:386] inception_4a/relu_5x5 -> inception_4a/5x5 (in-place)
I0403 14:45:16.999832 11073 net.cpp:141] Setting up inception_4a/relu_5x5
I0403 14:45:16.999860 11073 net.cpp:148] Top shape: 24 48 14 14 (225792)
I0403 14:45:16.999876 11073 net.cpp:156] Memory required for data: 875471904
I0403 14:45:16.999891 11073 layer_factory.hpp:77] Creating layer inception_4a/pool
I0403 14:45:16.999912 11073 net.cpp:91] Creating Layer inception_4a/pool
I0403 14:45:16.999932 11073 net.cpp:425] inception_4a/pool <- pool3/3x3_s2_pool3/3x3_s2_0_split_3
I0403 14:45:16.999951 11073 net.cpp:399] inception_4a/pool -> inception_4a/pool
I0403 14:45:17.000016 11073 net.cpp:141] Setting up inception_4a/pool
I0403 14:45:17.000042 11073 net.cpp:148] Top shape: 24 480 14 14 (2257920)
I0403 14:45:17.000059 11073 net.cpp:156] Memory required for data: 884503584
I0403 14:45:17.000077 11073 layer_factory.hpp:77] Creating layer inception_4a/pool_proj
I0403 14:45:17.000100 11073 net.cpp:91] Creating Layer inception_4a/pool_proj
I0403 14:45:17.000119 11073 net.cpp:425] inception_4a/pool_proj <- inception_4a/pool
I0403 14:45:17.000147 11073 net.cpp:399] inception_4a/pool_proj -> inception_4a/pool_proj
I0403 14:45:17.001343 11073 net.cpp:141] Setting up inception_4a/pool_proj
I0403 14:45:17.001373 11073 net.cpp:148] Top shape: 24 64 14 14 (301056)
I0403 14:45:17.001407 11073 net.cpp:156] Memory required for data: 885707808
I0403 14:45:17.001428 11073 layer_factory.hpp:77] Creating layer inception_4a/relu_pool_proj
I0403 14:45:17.001452 11073 net.cpp:91] Creating Layer inception_4a/relu_pool_proj
I0403 14:45:17.001471 11073 net.cpp:425] inception_4a/relu_pool_proj <- inception_4a/pool_proj
I0403 14:45:17.001490 11073 net.cpp:386] inception_4a/relu_pool_proj -> inception_4a/pool_proj (in-place)
I0403 14:45:17.001788 11073 net.cpp:141] Setting up inception_4a/relu_pool_proj
I0403 14:45:17.001816 11073 net.cpp:148] Top shape: 24 64 14 14 (301056)
I0403 14:45:17.001832 11073 net.cpp:156] Memory required for data: 886912032
I0403 14:45:17.001847 11073 layer_factory.hpp:77] Creating layer inception_4a/output
I0403 14:45:17.001866 11073 net.cpp:91] Creating Layer inception_4a/output
I0403 14:45:17.001886 11073 net.cpp:425] inception_4a/output <- inception_4a/1x1
I0403 14:45:17.001905 11073 net.cpp:425] inception_4a/output <- inception_4a/3x3
I0403 14:45:17.001922 11073 net.cpp:425] inception_4a/output <- inception_4a/5x5
I0403 14:45:17.001940 11073 net.cpp:425] inception_4a/output <- inception_4a/pool_proj
I0403 14:45:17.001957 11073 net.cpp:399] inception_4a/output -> inception_4a/output
I0403 14:45:17.002003 11073 net.cpp:141] Setting up inception_4a/output
I0403 14:45:17.002030 11073 net.cpp:148] Top shape: 24 512 14 14 (2408448)
I0403 14:45:17.002046 11073 net.cpp:156] Memory required for data: 896545824
I0403 14:45:17.002061 11073 layer_factory.hpp:77] Creating layer inception_4a/output_inception_4a/output_0_split
I0403 14:45:17.002080 11073 net.cpp:91] Creating Layer inception_4a/output_inception_4a/output_0_split
I0403 14:45:17.002096 11073 net.cpp:425] inception_4a/output_inception_4a/output_0_split <- inception_4a/output
I0403 14:45:17.002118 11073 net.cpp:399] inception_4a/output_inception_4a/output_0_split -> inception_4a/output_inception_4a/output_0_split_0
I0403 14:45:17.002146 11073 net.cpp:399] inception_4a/output_inception_4a/output_0_split -> inception_4a/output_inception_4a/output_0_split_1
I0403 14:45:17.002169 11073 net.cpp:399] inception_4a/output_inception_4a/output_0_split -> inception_4a/output_inception_4a/output_0_split_2
I0403 14:45:17.002190 11073 net.cpp:399] inception_4a/output_inception_4a/output_0_split -> inception_4a/output_inception_4a/output_0_split_3
I0403 14:45:17.002212 11073 net.cpp:399] inception_4a/output_inception_4a/output_0_split -> inception_4a/output_inception_4a/output_0_split_4
I0403 14:45:17.002307 11073 net.cpp:141] Setting up inception_4a/output_inception_4a/output_0_split
I0403 14:45:17.002332 11073 net.cpp:148] Top shape: 24 512 14 14 (2408448)
I0403 14:45:17.002351 11073 net.cpp:148] Top shape: 24 512 14 14 (2408448)
I0403 14:45:17.002368 11073 net.cpp:148] Top shape: 24 512 14 14 (2408448)
I0403 14:45:17.002387 11073 net.cpp:148] Top shape: 24 512 14 14 (2408448)
I0403 14:45:17.002403 11073 net.cpp:148] Top shape: 24 512 14 14 (2408448)
I0403 14:45:17.002418 11073 net.cpp:156] Memory required for data: 944714784
I0403 14:45:17.002434 11073 layer_factory.hpp:77] Creating layer loss1/ave_pool
I0403 14:45:17.002452 11073 net.cpp:91] Creating Layer loss1/ave_pool
I0403 14:45:17.002470 11073 net.cpp:425] loss1/ave_pool <- inception_4a/output_inception_4a/output_0_split_0
I0403 14:45:17.002491 11073 net.cpp:399] loss1/ave_pool -> loss1/ave_pool
I0403 14:45:17.002707 11073 net.cpp:141] Setting up loss1/ave_pool
I0403 14:45:17.002733 11073 net.cpp:148] Top shape: 24 512 4 4 (196608)
I0403 14:45:17.002749 11073 net.cpp:156] Memory required for data: 945501216
I0403 14:45:17.002766 11073 layer_factory.hpp:77] Creating layer loss1/conv
I0403 14:45:17.002789 11073 net.cpp:91] Creating Layer loss1/conv
I0403 14:45:17.002809 11073 net.cpp:425] loss1/conv <- loss1/ave_pool
I0403 14:45:17.002830 11073 net.cpp:399] loss1/conv -> loss1/conv
I0403 14:45:17.004360 11073 net.cpp:141] Setting up loss1/conv
I0403 14:45:17.004391 11073 net.cpp:148] Top shape: 24 128 4 4 (49152)
I0403 14:45:17.004436 11073 net.cpp:156] Memory required for data: 945697824
I0403 14:45:17.004457 11073 layer_factory.hpp:77] Creating layer loss1/relu_conv
I0403 14:45:17.004479 11073 net.cpp:91] Creating Layer loss1/relu_conv
I0403 14:45:17.004498 11073 net.cpp:425] loss1/relu_conv <- loss1/conv
I0403 14:45:17.004516 11073 net.cpp:386] loss1/relu_conv -> loss1/conv (in-place)
I0403 14:45:17.004813 11073 net.cpp:141] Setting up loss1/relu_conv
I0403 14:45:17.004842 11073 net.cpp:148] Top shape: 24 128 4 4 (49152)
I0403 14:45:17.004858 11073 net.cpp:156] Memory required for data: 945894432
I0403 14:45:17.004874 11073 layer_factory.hpp:77] Creating layer loss1/fc
I0403 14:45:17.004901 11073 net.cpp:91] Creating Layer loss1/fc
I0403 14:45:17.004921 11073 net.cpp:425] loss1/fc <- loss1/conv
I0403 14:45:17.004943 11073 net.cpp:399] loss1/fc -> loss1/fc
I0403 14:45:17.023041 11073 net.cpp:141] Setting up loss1/fc
I0403 14:45:17.023077 11073 net.cpp:148] Top shape: 24 1024 (24576)
I0403 14:45:17.023093 11073 net.cpp:156] Memory required for data: 945992736
I0403 14:45:17.023114 11073 layer_factory.hpp:77] Creating layer loss1/relu_fc
I0403 14:45:17.023145 11073 net.cpp:91] Creating Layer loss1/relu_fc
I0403 14:45:17.023166 11073 net.cpp:425] loss1/relu_fc <- loss1/fc
I0403 14:45:17.023187 11073 net.cpp:386] loss1/relu_fc -> loss1/fc (in-place)
I0403 14:45:17.023396 11073 net.cpp:141] Setting up loss1/relu_fc
I0403 14:45:17.023424 11073 net.cpp:148] Top shape: 24 1024 (24576)
I0403 14:45:17.023440 11073 net.cpp:156] Memory required for data: 946091040
I0403 14:45:17.023457 11073 layer_factory.hpp:77] Creating layer loss1/drop_fc
I0403 14:45:17.023485 11073 net.cpp:91] Creating Layer loss1/drop_fc
I0403 14:45:17.023515 11073 net.cpp:425] loss1/drop_fc <- loss1/fc
I0403 14:45:17.023535 11073 net.cpp:386] loss1/drop_fc -> loss1/fc (in-place)
I0403 14:45:17.023592 11073 net.cpp:141] Setting up loss1/drop_fc
I0403 14:45:17.023617 11073 net.cpp:148] Top shape: 24 1024 (24576)
I0403 14:45:17.023633 11073 net.cpp:156] Memory required for data: 946189344
I0403 14:45:17.023649 11073 layer_factory.hpp:77] Creating layer loss1/classifier_plantvillage
I0403 14:45:17.023669 11073 net.cpp:91] Creating Layer loss1/classifier_plantvillage
I0403 14:45:17.023687 11073 net.cpp:425] loss1/classifier_plantvillage <- loss1/fc
I0403 14:45:17.023710 11073 net.cpp:399] loss1/classifier_plantvillage -> loss1/classifier_plantvillage
I0403 14:45:17.024652 11073 net.cpp:141] Setting up loss1/classifier_plantvillage
I0403 14:45:17.024682 11073 net.cpp:148] Top shape: 24 38 (912)
I0403 14:45:17.024698 11073 net.cpp:156] Memory required for data: 946192992
I0403 14:45:17.024715 11073 layer_factory.hpp:77] Creating layer loss1/classifier_plantvillage_loss1/classifier_plantvillage_0_split
I0403 14:45:17.024736 11073 net.cpp:91] Creating Layer loss1/classifier_plantvillage_loss1/classifier_plantvillage_0_split
I0403 14:45:17.024755 11073 net.cpp:425] loss1/classifier_plantvillage_loss1/classifier_plantvillage_0_split <- loss1/classifier_plantvillage
I0403 14:45:17.024772 11073 net.cpp:399] loss1/classifier_plantvillage_loss1/classifier_plantvillage_0_split -> loss1/classifier_plantvillage_loss1/classifier_plantvillage_0_split_0
I0403 14:45:17.024792 11073 net.cpp:399] loss1/classifier_plantvillage_loss1/classifier_plantvillage_0_split -> loss1/classifier_plantvillage_loss1/classifier_plantvillage_0_split_1
I0403 14:45:17.024813 11073 net.cpp:399] loss1/classifier_plantvillage_loss1/classifier_plantvillage_0_split -> loss1/classifier_plantvillage_loss1/classifier_plantvillage_0_split_2
I0403 14:45:17.024884 11073 net.cpp:141] Setting up loss1/classifier_plantvillage_loss1/classifier_plantvillage_0_split
I0403 14:45:17.024909 11073 net.cpp:148] Top shape: 24 38 (912)
I0403 14:45:17.024925 11073 net.cpp:148] Top shape: 24 38 (912)
I0403 14:45:17.024941 11073 net.cpp:148] Top shape: 24 38 (912)
I0403 14:45:17.024956 11073 net.cpp:156] Memory required for data: 946203936
I0403 14:45:17.024971 11073 layer_factory.hpp:77] Creating layer inception_4b/1x1
I0403 14:45:17.024994 11073 net.cpp:91] Creating Layer inception_4b/1x1
I0403 14:45:17.025038 11073 net.cpp:425] inception_4b/1x1 <- inception_4a/output_inception_4a/output_0_split_1
I0403 14:45:17.025060 11073 net.cpp:399] inception_4b/1x1 -> inception_4b/1x1
I0403 14:45:17.026819 11073 net.cpp:141] Setting up inception_4b/1x1
I0403 14:45:17.026849 11073 net.cpp:148] Top shape: 24 160 14 14 (752640)
I0403 14:45:17.026866 11073 net.cpp:156] Memory required for data: 949214496
I0403 14:45:17.026888 11073 layer_factory.hpp:77] Creating layer inception_4b/relu_1x1
I0403 14:45:17.026907 11073 net.cpp:91] Creating Layer inception_4b/relu_1x1
I0403 14:45:17.026924 11073 net.cpp:425] inception_4b/relu_1x1 <- inception_4b/1x1
I0403 14:45:17.026943 11073 net.cpp:386] inception_4b/relu_1x1 -> inception_4b/1x1 (in-place)
I0403 14:45:17.027158 11073 net.cpp:141] Setting up inception_4b/relu_1x1
I0403 14:45:17.027185 11073 net.cpp:148] Top shape: 24 160 14 14 (752640)
I0403 14:45:17.027202 11073 net.cpp:156] Memory required for data: 952225056
I0403 14:45:17.027217 11073 layer_factory.hpp:77] Creating layer inception_4b/3x3_reduce
I0403 14:45:17.027242 11073 net.cpp:91] Creating Layer inception_4b/3x3_reduce
I0403 14:45:17.027262 11073 net.cpp:425] inception_4b/3x3_reduce <- inception_4a/output_inception_4a/output_0_split_2
I0403 14:45:17.027284 11073 net.cpp:399] inception_4b/3x3_reduce -> inception_4b/3x3_reduce
I0403 14:45:17.028672 11073 net.cpp:141] Setting up inception_4b/3x3_reduce
I0403 14:45:17.028702 11073 net.cpp:148] Top shape: 24 112 14 14 (526848)
I0403 14:45:17.028719 11073 net.cpp:156] Memory required for data: 954332448
I0403 14:45:17.028738 11073 layer_factory.hpp:77] Creating layer inception_4b/relu_3x3_reduce
I0403 14:45:17.028759 11073 net.cpp:91] Creating Layer inception_4b/relu_3x3_reduce
I0403 14:45:17.028776 11073 net.cpp:425] inception_4b/relu_3x3_reduce <- inception_4b/3x3_reduce
I0403 14:45:17.028796 11073 net.cpp:386] inception_4b/relu_3x3_reduce -> inception_4b/3x3_reduce (in-place)
I0403 14:45:17.029096 11073 net.cpp:141] Setting up inception_4b/relu_3x3_reduce
I0403 14:45:17.029124 11073 net.cpp:148] Top shape: 24 112 14 14 (526848)
I0403 14:45:17.029145 11073 net.cpp:156] Memory required for data: 956439840
I0403 14:45:17.029162 11073 layer_factory.hpp:77] Creating layer inception_4b/3x3
I0403 14:45:17.029187 11073 net.cpp:91] Creating Layer inception_4b/3x3
I0403 14:45:17.029206 11073 net.cpp:425] inception_4b/3x3 <- inception_4b/3x3_reduce
I0403 14:45:17.029227 11073 net.cpp:399] inception_4b/3x3 -> inception_4b/3x3
I0403 14:45:17.032238 11073 net.cpp:141] Setting up inception_4b/3x3
I0403 14:45:17.032279 11073 net.cpp:148] Top shape: 24 224 14 14 (1053696)
I0403 14:45:17.032299 11073 net.cpp:156] Memory required for data: 960654624
I0403 14:45:17.032318 11073 layer_factory.hpp:77] Creating layer inception_4b/relu_3x3
I0403 14:45:17.032341 11073 net.cpp:91] Creating Layer inception_4b/relu_3x3
I0403 14:45:17.032358 11073 net.cpp:425] inception_4b/relu_3x3 <- inception_4b/3x3
I0403 14:45:17.032377 11073 net.cpp:386] inception_4b/relu_3x3 -> inception_4b/3x3 (in-place)
I0403 14:45:17.032579 11073 net.cpp:141] Setting up inception_4b/relu_3x3
I0403 14:45:17.032608 11073 net.cpp:148] Top shape: 24 224 14 14 (1053696)
I0403 14:45:17.032624 11073 net.cpp:156] Memory required for data: 964869408
I0403 14:45:17.032639 11073 layer_factory.hpp:77] Creating layer inception_4b/5x5_reduce
I0403 14:45:17.032663 11073 net.cpp:91] Creating Layer inception_4b/5x5_reduce
I0403 14:45:17.032682 11073 net.cpp:425] inception_4b/5x5_reduce <- inception_4a/output_inception_4a/output_0_split_3
I0403 14:45:17.032702 11073 net.cpp:399] inception_4b/5x5_reduce -> inception_4b/5x5_reduce
I0403 14:45:17.033812 11073 net.cpp:141] Setting up inception_4b/5x5_reduce
I0403 14:45:17.033843 11073 net.cpp:148] Top shape: 24 24 14 14 (112896)
I0403 14:45:17.033859 11073 net.cpp:156] Memory required for data: 965320992
I0403 14:45:17.033879 11073 layer_factory.hpp:77] Creating layer inception_4b/relu_5x5_reduce
I0403 14:45:17.033900 11073 net.cpp:91] Creating Layer inception_4b/relu_5x5_reduce
I0403 14:45:17.033931 11073 net.cpp:425] inception_4b/relu_5x5_reduce <- inception_4b/5x5_reduce
I0403 14:45:17.033952 11073 net.cpp:386] inception_4b/relu_5x5_reduce -> inception_4b/5x5_reduce (in-place)
I0403 14:45:17.034162 11073 net.cpp:141] Setting up inception_4b/relu_5x5_reduce
I0403 14:45:17.034188 11073 net.cpp:148] Top shape: 24 24 14 14 (112896)
I0403 14:45:17.034204 11073 net.cpp:156] Memory required for data: 965772576
I0403 14:45:17.034219 11073 layer_factory.hpp:77] Creating layer inception_4b/5x5
I0403 14:45:17.034243 11073 net.cpp:91] Creating Layer inception_4b/5x5
I0403 14:45:17.034262 11073 net.cpp:425] inception_4b/5x5 <- inception_4b/5x5_reduce
I0403 14:45:17.034284 11073 net.cpp:399] inception_4b/5x5 -> inception_4b/5x5
I0403 14:45:17.035559 11073 net.cpp:141] Setting up inception_4b/5x5
I0403 14:45:17.035589 11073 net.cpp:148] Top shape: 24 64 14 14 (301056)
I0403 14:45:17.035605 11073 net.cpp:156] Memory required for data: 966976800
I0403 14:45:17.035629 11073 layer_factory.hpp:77] Creating layer inception_4b/relu_5x5
I0403 14:45:17.035648 11073 net.cpp:91] Creating Layer inception_4b/relu_5x5
I0403 14:45:17.035665 11073 net.cpp:425] inception_4b/relu_5x5 <- inception_4b/5x5
I0403 14:45:17.035683 11073 net.cpp:386] inception_4b/relu_5x5 -> inception_4b/5x5 (in-place)
I0403 14:45:17.035981 11073 net.cpp:141] Setting up inception_4b/relu_5x5
I0403 14:45:17.036010 11073 net.cpp:148] Top shape: 24 64 14 14 (301056)
I0403 14:45:17.036026 11073 net.cpp:156] Memory required for data: 968181024
I0403 14:45:17.036042 11073 layer_factory.hpp:77] Creating layer inception_4b/pool
I0403 14:45:17.036064 11073 net.cpp:91] Creating Layer inception_4b/pool
I0403 14:45:17.036083 11073 net.cpp:425] inception_4b/pool <- inception_4a/output_inception_4a/output_0_split_4
I0403 14:45:17.036106 11073 net.cpp:399] inception_4b/pool -> inception_4b/pool
I0403 14:45:17.036178 11073 net.cpp:141] Setting up inception_4b/pool
I0403 14:45:17.036204 11073 net.cpp:148] Top shape: 24 512 14 14 (2408448)
I0403 14:45:17.036221 11073 net.cpp:156] Memory required for data: 977814816
I0403 14:45:17.036236 11073 layer_factory.hpp:77] Creating layer inception_4b/pool_proj
I0403 14:45:17.036259 11073 net.cpp:91] Creating Layer inception_4b/pool_proj
I0403 14:45:17.036278 11073 net.cpp:425] inception_4b/pool_proj <- inception_4b/pool
I0403 14:45:17.036300 11073 net.cpp:399] inception_4b/pool_proj -> inception_4b/pool_proj
I0403 14:45:17.037542 11073 net.cpp:141] Setting up inception_4b/pool_proj
I0403 14:45:17.037575 11073 net.cpp:148] Top shape: 24 64 14 14 (301056)
I0403 14:45:17.037591 11073 net.cpp:156] Memory required for data: 979019040
I0403 14:45:17.037611 11073 layer_factory.hpp:77] Creating layer inception_4b/relu_pool_proj
I0403 14:45:17.037631 11073 net.cpp:91] Creating Layer inception_4b/relu_pool_proj
I0403 14:45:17.037648 11073 net.cpp:425] inception_4b/relu_pool_proj <- inception_4b/pool_proj
I0403 14:45:17.037669 11073 net.cpp:386] inception_4b/relu_pool_proj -> inception_4b/pool_proj (in-place)
I0403 14:45:17.037860 11073 net.cpp:141] Setting up inception_4b/relu_pool_proj
I0403 14:45:17.037886 11073 net.cpp:148] Top shape: 24 64 14 14 (301056)
I0403 14:45:17.037902 11073 net.cpp:156] Memory required for data: 980223264
I0403 14:45:17.037917 11073 layer_factory.hpp:77] Creating layer inception_4b/output
I0403 14:45:17.037936 11073 net.cpp:91] Creating Layer inception_4b/output
I0403 14:45:17.037953 11073 net.cpp:425] inception_4b/output <- inception_4b/1x1
I0403 14:45:17.037972 11073 net.cpp:425] inception_4b/output <- inception_4b/3x3
I0403 14:45:17.037988 11073 net.cpp:425] inception_4b/output <- inception_4b/5x5
I0403 14:45:17.038005 11073 net.cpp:425] inception_4b/output <- inception_4b/pool_proj
I0403 14:45:17.038025 11073 net.cpp:399] inception_4b/output -> inception_4b/output
I0403 14:45:17.038074 11073 net.cpp:141] Setting up inception_4b/output
I0403 14:45:17.038101 11073 net.cpp:148] Top shape: 24 512 14 14 (2408448)
I0403 14:45:17.038117 11073 net.cpp:156] Memory required for data: 989857056
I0403 14:45:17.038153 11073 layer_factory.hpp:77] Creating layer inception_4b/output_inception_4b/output_0_split
I0403 14:45:17.038173 11073 net.cpp:91] Creating Layer inception_4b/output_inception_4b/output_0_split
I0403 14:45:17.038189 11073 net.cpp:425] inception_4b/output_inception_4b/output_0_split <- inception_4b/output
I0403 14:45:17.038208 11073 net.cpp:399] inception_4b/output_inception_4b/output_0_split -> inception_4b/output_inception_4b/output_0_split_0
I0403 14:45:17.038231 11073 net.cpp:399] inception_4b/output_inception_4b/output_0_split -> inception_4b/output_inception_4b/output_0_split_1
I0403 14:45:17.038254 11073 net.cpp:399] inception_4b/output_inception_4b/output_0_split -> inception_4b/output_inception_4b/output_0_split_2
I0403 14:45:17.038275 11073 net.cpp:399] inception_4b/output_inception_4b/output_0_split -> inception_4b/output_inception_4b/output_0_split_3
I0403 14:45:17.038364 11073 net.cpp:141] Setting up inception_4b/output_inception_4b/output_0_split
I0403 14:45:17.038390 11073 net.cpp:148] Top shape: 24 512 14 14 (2408448)
I0403 14:45:17.038408 11073 net.cpp:148] Top shape: 24 512 14 14 (2408448)
I0403 14:45:17.038424 11073 net.cpp:148] Top shape: 24 512 14 14 (2408448)
I0403 14:45:17.038440 11073 net.cpp:148] Top shape: 24 512 14 14 (2408448)
I0403 14:45:17.038455 11073 net.cpp:156] Memory required for data: 1028392224
I0403 14:45:17.038471 11073 layer_factory.hpp:77] Creating layer inception_4c/1x1
I0403 14:45:17.038496 11073 net.cpp:91] Creating Layer inception_4c/1x1
I0403 14:45:17.038514 11073 net.cpp:425] inception_4c/1x1 <- inception_4b/output_inception_4b/output_0_split_0
I0403 14:45:17.038534 11073 net.cpp:399] inception_4c/1x1 -> inception_4c/1x1
I0403 14:45:17.040017 11073 net.cpp:141] Setting up inception_4c/1x1
I0403 14:45:17.040045 11073 net.cpp:148] Top shape: 24 128 14 14 (602112)
I0403 14:45:17.040061 11073 net.cpp:156] Memory required for data: 1030800672
I0403 14:45:17.040081 11073 layer_factory.hpp:77] Creating layer inception_4c/relu_1x1
I0403 14:45:17.040102 11073 net.cpp:91] Creating Layer inception_4c/relu_1x1
I0403 14:45:17.040118 11073 net.cpp:425] inception_4c/relu_1x1 <- inception_4c/1x1
I0403 14:45:17.040140 11073 net.cpp:386] inception_4c/relu_1x1 -> inception_4c/1x1 (in-place)
I0403 14:45:17.040328 11073 net.cpp:141] Setting up inception_4c/relu_1x1
I0403 14:45:17.040354 11073 net.cpp:148] Top shape: 24 128 14 14 (602112)
I0403 14:45:17.040369 11073 net.cpp:156] Memory required for data: 1033209120
I0403 14:45:17.040385 11073 layer_factory.hpp:77] Creating layer inception_4c/3x3_reduce
I0403 14:45:17.040408 11073 net.cpp:91] Creating Layer inception_4c/3x3_reduce
I0403 14:45:17.040427 11073 net.cpp:425] inception_4c/3x3_reduce <- inception_4b/output_inception_4b/output_0_split_1
I0403 14:45:17.040452 11073 net.cpp:399] inception_4c/3x3_reduce -> inception_4c/3x3_reduce
I0403 14:45:17.042434 11073 net.cpp:141] Setting up inception_4c/3x3_reduce
I0403 14:45:17.042466 11073 net.cpp:148] Top shape: 24 128 14 14 (602112)
I0403 14:45:17.042484 11073 net.cpp:156] Memory required for data: 1035617568
I0403 14:45:17.042505 11073 layer_factory.hpp:77] Creating layer inception_4c/relu_3x3_reduce
I0403 14:45:17.042523 11073 net.cpp:91] Creating Layer inception_4c/relu_3x3_reduce
I0403 14:45:17.042541 11073 net.cpp:425] inception_4c/relu_3x3_reduce <- inception_4c/3x3_reduce
I0403 14:45:17.042557 11073 net.cpp:386] inception_4c/relu_3x3_reduce -> inception_4c/3x3_reduce (in-place)
I0403 14:45:17.042846 11073 net.cpp:141] Setting up inception_4c/relu_3x3_reduce
I0403 14:45:17.042876 11073 net.cpp:148] Top shape: 24 128 14 14 (602112)
I0403 14:45:17.042892 11073 net.cpp:156] Memory required for data: 1038026016
I0403 14:45:17.042908 11073 layer_factory.hpp:77] Creating layer inception_4c/3x3
I0403 14:45:17.042932 11073 net.cpp:91] Creating Layer inception_4c/3x3
I0403 14:45:17.042950 11073 net.cpp:425] inception_4c/3x3 <- inception_4c/3x3_reduce
I0403 14:45:17.042970 11073 net.cpp:399] inception_4c/3x3 -> inception_4c/3x3
I0403 14:45:17.046665 11073 net.cpp:141] Setting up inception_4c/3x3
I0403 14:45:17.046710 11073 net.cpp:148] Top shape: 24 256 14 14 (1204224)
I0403 14:45:17.046727 11073 net.cpp:156] Memory required for data: 1042842912
I0403 14:45:17.046759 11073 layer_factory.hpp:77] Creating layer inception_4c/relu_3x3
I0403 14:45:17.046780 11073 net.cpp:91] Creating Layer inception_4c/relu_3x3
I0403 14:45:17.046797 11073 net.cpp:425] inception_4c/relu_3x3 <- inception_4c/3x3
I0403 14:45:17.046818 11073 net.cpp:386] inception_4c/relu_3x3 -> inception_4c/3x3 (in-place)
I0403 14:45:17.046993 11073 net.cpp:141] Setting up inception_4c/relu_3x3
I0403 14:45:17.047020 11073 net.cpp:148] Top shape: 24 256 14 14 (1204224)
I0403 14:45:17.047036 11073 net.cpp:156] Memory required for data: 1047659808
I0403 14:45:17.047051 11073 layer_factory.hpp:77] Creating layer inception_4c/5x5_reduce
I0403 14:45:17.047075 11073 net.cpp:91] Creating Layer inception_4c/5x5_reduce
I0403 14:45:17.047092 11073 net.cpp:425] inception_4c/5x5_reduce <- inception_4b/output_inception_4b/output_0_split_2
I0403 14:45:17.047113 11073 net.cpp:399] inception_4c/5x5_reduce -> inception_4c/5x5_reduce
I0403 14:45:17.048221 11073 net.cpp:141] Setting up inception_4c/5x5_reduce
I0403 14:45:17.048251 11073 net.cpp:148] Top shape: 24 24 14 14 (112896)
I0403 14:45:17.048269 11073 net.cpp:156] Memory required for data: 1048111392
I0403 14:45:17.048286 11073 layer_factory.hpp:77] Creating layer inception_4c/relu_5x5_reduce
I0403 14:45:17.048305 11073 net.cpp:91] Creating Layer inception_4c/relu_5x5_reduce
I0403 14:45:17.048322 11073 net.cpp:425] inception_4c/relu_5x5_reduce <- inception_4c/5x5_reduce
I0403 14:45:17.048339 11073 net.cpp:386] inception_4c/relu_5x5_reduce -> inception_4c/5x5_reduce (in-place)
I0403 14:45:17.048523 11073 net.cpp:141] Setting up inception_4c/relu_5x5_reduce
I0403 14:45:17.048549 11073 net.cpp:148] Top shape: 24 24 14 14 (112896)
I0403 14:45:17.048563 11073 net.cpp:156] Memory required for data: 1048562976
I0403 14:45:17.048579 11073 layer_factory.hpp:77] Creating layer inception_4c/5x5
I0403 14:45:17.048602 11073 net.cpp:91] Creating Layer inception_4c/5x5
I0403 14:45:17.048620 11073 net.cpp:425] inception_4c/5x5 <- inception_4c/5x5_reduce
I0403 14:45:17.048640 11073 net.cpp:399] inception_4c/5x5 -> inception_4c/5x5
I0403 14:45:17.049899 11073 net.cpp:141] Setting up inception_4c/5x5
I0403 14:45:17.049926 11073 net.cpp:148] Top shape: 24 64 14 14 (301056)
I0403 14:45:17.049942 11073 net.cpp:156] Memory required for data: 1049767200
I0403 14:45:17.049959 11073 layer_factory.hpp:77] Creating layer inception_4c/relu_5x5
I0403 14:45:17.049978 11073 net.cpp:91] Creating Layer inception_4c/relu_5x5
I0403 14:45:17.049995 11073 net.cpp:425] inception_4c/relu_5x5 <- inception_4c/5x5
I0403 14:45:17.050015 11073 net.cpp:386] inception_4c/relu_5x5 -> inception_4c/5x5 (in-place)
I0403 14:45:17.050309 11073 net.cpp:141] Setting up inception_4c/relu_5x5
I0403 14:45:17.050335 11073 net.cpp:148] Top shape: 24 64 14 14 (301056)
I0403 14:45:17.050350 11073 net.cpp:156] Memory required for data: 1050971424
I0403 14:45:17.050366 11073 layer_factory.hpp:77] Creating layer inception_4c/pool
I0403 14:45:17.050385 11073 net.cpp:91] Creating Layer inception_4c/pool
I0403 14:45:17.050401 11073 net.cpp:425] inception_4c/pool <- inception_4b/output_inception_4b/output_0_split_3
I0403 14:45:17.050421 11073 net.cpp:399] inception_4c/pool -> inception_4c/pool
I0403 14:45:17.050488 11073 net.cpp:141] Setting up inception_4c/pool
I0403 14:45:17.050513 11073 net.cpp:148] Top shape: 24 512 14 14 (2408448)
I0403 14:45:17.050528 11073 net.cpp:156] Memory required for data: 1060605216
I0403 14:45:17.050542 11073 layer_factory.hpp:77] Creating layer inception_4c/pool_proj
I0403 14:45:17.050565 11073 net.cpp:91] Creating Layer inception_4c/pool_proj
I0403 14:45:17.050585 11073 net.cpp:425] inception_4c/pool_proj <- inception_4c/pool
I0403 14:45:17.050603 11073 net.cpp:399] inception_4c/pool_proj -> inception_4c/pool_proj
I0403 14:45:17.051861 11073 net.cpp:141] Setting up inception_4c/pool_proj
I0403 14:45:17.051890 11073 net.cpp:148] Top shape: 24 64 14 14 (301056)
I0403 14:45:17.051919 11073 net.cpp:156] Memory required for data: 1061809440
I0403 14:45:17.051939 11073 layer_factory.hpp:77] Creating layer inception_4c/relu_pool_proj
I0403 14:45:17.051959 11073 net.cpp:91] Creating Layer inception_4c/relu_pool_proj
I0403 14:45:17.051976 11073 net.cpp:425] inception_4c/relu_pool_proj <- inception_4c/pool_proj
I0403 14:45:17.051995 11073 net.cpp:386] inception_4c/relu_pool_proj -> inception_4c/pool_proj (in-place)
I0403 14:45:17.052181 11073 net.cpp:141] Setting up inception_4c/relu_pool_proj
I0403 14:45:17.052206 11073 net.cpp:148] Top shape: 24 64 14 14 (301056)
I0403 14:45:17.052222 11073 net.cpp:156] Memory required for data: 1063013664
I0403 14:45:17.052237 11073 layer_factory.hpp:77] Creating layer inception_4c/output
I0403 14:45:17.052253 11073 net.cpp:91] Creating Layer inception_4c/output
I0403 14:45:17.052269 11073 net.cpp:425] inception_4c/output <- inception_4c/1x1
I0403 14:45:17.052285 11073 net.cpp:425] inception_4c/output <- inception_4c/3x3
I0403 14:45:17.052314 11073 net.cpp:425] inception_4c/output <- inception_4c/5x5
I0403 14:45:17.052331 11073 net.cpp:425] inception_4c/output <- inception_4c/pool_proj
I0403 14:45:17.052352 11073 net.cpp:399] inception_4c/output -> inception_4c/output
I0403 14:45:17.052402 11073 net.cpp:141] Setting up inception_4c/output
I0403 14:45:17.052430 11073 net.cpp:148] Top shape: 24 512 14 14 (2408448)
I0403 14:45:17.052448 11073 net.cpp:156] Memory required for data: 1072647456
I0403 14:45:17.052462 11073 layer_factory.hpp:77] Creating layer inception_4c/output_inception_4c/output_0_split
I0403 14:45:17.052480 11073 net.cpp:91] Creating Layer inception_4c/output_inception_4c/output_0_split
I0403 14:45:17.052496 11073 net.cpp:425] inception_4c/output_inception_4c/output_0_split <- inception_4c/output
I0403 14:45:17.052515 11073 net.cpp:399] inception_4c/output_inception_4c/output_0_split -> inception_4c/output_inception_4c/output_0_split_0
I0403 14:45:17.052536 11073 net.cpp:399] inception_4c/output_inception_4c/output_0_split -> inception_4c/output_inception_4c/output_0_split_1
I0403 14:45:17.052559 11073 net.cpp:399] inception_4c/output_inception_4c/output_0_split -> inception_4c/output_inception_4c/output_0_split_2
I0403 14:45:17.052580 11073 net.cpp:399] inception_4c/output_inception_4c/output_0_split -> inception_4c/output_inception_4c/output_0_split_3
I0403 14:45:17.052677 11073 net.cpp:141] Setting up inception_4c/output_inception_4c/output_0_split
I0403 14:45:17.052701 11073 net.cpp:148] Top shape: 24 512 14 14 (2408448)
I0403 14:45:17.052717 11073 net.cpp:148] Top shape: 24 512 14 14 (2408448)
I0403 14:45:17.052733 11073 net.cpp:148] Top shape: 24 512 14 14 (2408448)
I0403 14:45:17.052749 11073 net.cpp:148] Top shape: 24 512 14 14 (2408448)
I0403 14:45:17.052763 11073 net.cpp:156] Memory required for data: 1111182624
I0403 14:45:17.052778 11073 layer_factory.hpp:77] Creating layer inception_4d/1x1
I0403 14:45:17.052799 11073 net.cpp:91] Creating Layer inception_4d/1x1
I0403 14:45:17.052819 11073 net.cpp:425] inception_4d/1x1 <- inception_4c/output_inception_4c/output_0_split_0
I0403 14:45:17.052839 11073 net.cpp:399] inception_4d/1x1 -> inception_4d/1x1
I0403 14:45:17.054260 11073 net.cpp:141] Setting up inception_4d/1x1
I0403 14:45:17.054301 11073 net.cpp:148] Top shape: 24 112 14 14 (526848)
I0403 14:45:17.054317 11073 net.cpp:156] Memory required for data: 1113290016
I0403 14:45:17.054335 11073 layer_factory.hpp:77] Creating layer inception_4d/relu_1x1
I0403 14:45:17.054357 11073 net.cpp:91] Creating Layer inception_4d/relu_1x1
I0403 14:45:17.054375 11073 net.cpp:425] inception_4d/relu_1x1 <- inception_4d/1x1
I0403 14:45:17.054394 11073 net.cpp:386] inception_4d/relu_1x1 -> inception_4d/1x1 (in-place)
I0403 14:45:17.054576 11073 net.cpp:141] Setting up inception_4d/relu_1x1
I0403 14:45:17.054605 11073 net.cpp:148] Top shape: 24 112 14 14 (526848)
I0403 14:45:17.054620 11073 net.cpp:156] Memory required for data: 1115397408
I0403 14:45:17.054635 11073 layer_factory.hpp:77] Creating layer inception_4d/3x3_reduce
I0403 14:45:17.054672 11073 net.cpp:91] Creating Layer inception_4d/3x3_reduce
I0403 14:45:17.054690 11073 net.cpp:425] inception_4d/3x3_reduce <- inception_4c/output_inception_4c/output_0_split_1
I0403 14:45:17.054709 11073 net.cpp:399] inception_4d/3x3_reduce -> inception_4d/3x3_reduce
I0403 14:45:17.056236 11073 net.cpp:141] Setting up inception_4d/3x3_reduce
I0403 14:45:17.056262 11073 net.cpp:148] Top shape: 24 144 14 14 (677376)
I0403 14:45:17.056278 11073 net.cpp:156] Memory required for data: 1118106912
I0403 14:45:17.056296 11073 layer_factory.hpp:77] Creating layer inception_4d/relu_3x3_reduce
I0403 14:45:17.056318 11073 net.cpp:91] Creating Layer inception_4d/relu_3x3_reduce
I0403 14:45:17.056336 11073 net.cpp:425] inception_4d/relu_3x3_reduce <- inception_4d/3x3_reduce
I0403 14:45:17.056354 11073 net.cpp:386] inception_4d/relu_3x3_reduce -> inception_4d/3x3_reduce (in-place)
I0403 14:45:17.056656 11073 net.cpp:141] Setting up inception_4d/relu_3x3_reduce
I0403 14:45:17.056684 11073 net.cpp:148] Top shape: 24 144 14 14 (677376)
I0403 14:45:17.056699 11073 net.cpp:156] Memory required for data: 1120816416
I0403 14:45:17.056715 11073 layer_factory.hpp:77] Creating layer inception_4d/3x3
I0403 14:45:17.056748 11073 net.cpp:91] Creating Layer inception_4d/3x3
I0403 14:45:17.056766 11073 net.cpp:425] inception_4d/3x3 <- inception_4d/3x3_reduce
I0403 14:45:17.056788 11073 net.cpp:399] inception_4d/3x3 -> inception_4d/3x3
I0403 14:45:17.061151 11073 net.cpp:141] Setting up inception_4d/3x3
I0403 14:45:17.061184 11073 net.cpp:148] Top shape: 24 288 14 14 (1354752)
I0403 14:45:17.061202 11073 net.cpp:156] Memory required for data: 1126235424
I0403 14:45:17.061220 11073 layer_factory.hpp:77] Creating layer inception_4d/relu_3x3
I0403 14:45:17.061242 11073 net.cpp:91] Creating Layer inception_4d/relu_3x3
I0403 14:45:17.061260 11073 net.cpp:425] inception_4d/relu_3x3 <- inception_4d/3x3
I0403 14:45:17.061280 11073 net.cpp:386] inception_4d/relu_3x3 -> inception_4d/3x3 (in-place)
I0403 14:45:17.061489 11073 net.cpp:141] Setting up inception_4d/relu_3x3
I0403 14:45:17.061517 11073 net.cpp:148] Top shape: 24 288 14 14 (1354752)
I0403 14:45:17.061532 11073 net.cpp:156] Memory required for data: 1131654432
I0403 14:45:17.061547 11073 layer_factory.hpp:77] Creating layer inception_4d/5x5_reduce
I0403 14:45:17.061570 11073 net.cpp:91] Creating Layer inception_4d/5x5_reduce
I0403 14:45:17.061588 11073 net.cpp:425] inception_4d/5x5_reduce <- inception_4c/output_inception_4c/output_0_split_2
I0403 14:45:17.061607 11073 net.cpp:399] inception_4d/5x5_reduce -> inception_4d/5x5_reduce
I0403 14:45:17.062813 11073 net.cpp:141] Setting up inception_4d/5x5_reduce
I0403 14:45:17.062842 11073 net.cpp:148] Top shape: 24 32 14 14 (150528)
I0403 14:45:17.062870 11073 net.cpp:156] Memory required for data: 1132256544
I0403 14:45:17.062888 11073 layer_factory.hpp:77] Creating layer inception_4d/relu_5x5_reduce
I0403 14:45:17.062911 11073 net.cpp:91] Creating Layer inception_4d/relu_5x5_reduce
I0403 14:45:17.062932 11073 net.cpp:425] inception_4d/relu_5x5_reduce <- inception_4d/5x5_reduce
I0403 14:45:17.062950 11073 net.cpp:386] inception_4d/relu_5x5_reduce -> inception_4d/5x5_reduce (in-place)
I0403 14:45:17.063171 11073 net.cpp:141] Setting up inception_4d/relu_5x5_reduce
I0403 14:45:17.063215 11073 net.cpp:148] Top shape: 24 32 14 14 (150528)
I0403 14:45:17.063232 11073 net.cpp:156] Memory required for data: 1132858656
I0403 14:45:17.063249 11073 layer_factory.hpp:77] Creating layer inception_4d/5x5
I0403 14:45:17.063272 11073 net.cpp:91] Creating Layer inception_4d/5x5
I0403 14:45:17.063292 11073 net.cpp:425] inception_4d/5x5 <- inception_4d/5x5_reduce
I0403 14:45:17.063310 11073 net.cpp:399] inception_4d/5x5 -> inception_4d/5x5
I0403 14:45:17.064934 11073 net.cpp:141] Setting up inception_4d/5x5
I0403 14:45:17.064965 11073 net.cpp:148] Top shape: 24 64 14 14 (301056)
I0403 14:45:17.064980 11073 net.cpp:156] Memory required for data: 1134062880
I0403 14:45:17.065001 11073 layer_factory.hpp:77] Creating layer inception_4d/relu_5x5
I0403 14:45:17.065035 11073 net.cpp:91] Creating Layer inception_4d/relu_5x5
I0403 14:45:17.065054 11073 net.cpp:425] inception_4d/relu_5x5 <- inception_4d/5x5
I0403 14:45:17.065076 11073 net.cpp:386] inception_4d/relu_5x5 -> inception_4d/5x5 (in-place)
I0403 14:45:17.065403 11073 net.cpp:141] Setting up inception_4d/relu_5x5
I0403 14:45:17.065431 11073 net.cpp:148] Top shape: 24 64 14 14 (301056)
I0403 14:45:17.065448 11073 net.cpp:156] Memory required for data: 1135267104
I0403 14:45:17.065464 11073 layer_factory.hpp:77] Creating layer inception_4d/pool
I0403 14:45:17.065482 11073 net.cpp:91] Creating Layer inception_4d/pool
I0403 14:45:17.065500 11073 net.cpp:425] inception_4d/pool <- inception_4c/output_inception_4c/output_0_split_3
I0403 14:45:17.065521 11073 net.cpp:399] inception_4d/pool -> inception_4d/pool
I0403 14:45:17.065593 11073 net.cpp:141] Setting up inception_4d/pool
I0403 14:45:17.065618 11073 net.cpp:148] Top shape: 24 512 14 14 (2408448)
I0403 14:45:17.065634 11073 net.cpp:156] Memory required for data: 1144900896
I0403 14:45:17.065649 11073 layer_factory.hpp:77] Creating layer inception_4d/pool_proj
I0403 14:45:17.065675 11073 net.cpp:91] Creating Layer inception_4d/pool_proj
I0403 14:45:17.065693 11073 net.cpp:425] inception_4d/pool_proj <- inception_4d/pool
I0403 14:45:17.065713 11073 net.cpp:399] inception_4d/pool_proj -> inception_4d/pool_proj
I0403 14:45:17.067579 11073 net.cpp:141] Setting up inception_4d/pool_proj
I0403 14:45:17.067620 11073 net.cpp:148] Top shape: 24 64 14 14 (301056)
I0403 14:45:17.067637 11073 net.cpp:156] Memory required for data: 1146105120
I0403 14:45:17.067656 11073 layer_factory.hpp:77] Creating layer inception_4d/relu_pool_proj
I0403 14:45:17.067678 11073 net.cpp:91] Creating Layer inception_4d/relu_pool_proj
I0403 14:45:17.067698 11073 net.cpp:425] inception_4d/relu_pool_proj <- inception_4d/pool_proj
I0403 14:45:17.067715 11073 net.cpp:386] inception_4d/relu_pool_proj -> inception_4d/pool_proj (in-place)
I0403 14:45:17.067911 11073 net.cpp:141] Setting up inception_4d/relu_pool_proj
I0403 14:45:17.067940 11073 net.cpp:148] Top shape: 24 64 14 14 (301056)
I0403 14:45:17.067957 11073 net.cpp:156] Memory required for data: 1147309344
I0403 14:45:17.067973 11073 layer_factory.hpp:77] Creating layer inception_4d/output
I0403 14:45:17.067992 11073 net.cpp:91] Creating Layer inception_4d/output
I0403 14:45:17.068008 11073 net.cpp:425] inception_4d/output <- inception_4d/1x1
I0403 14:45:17.068027 11073 net.cpp:425] inception_4d/output <- inception_4d/3x3
I0403 14:45:17.068042 11073 net.cpp:425] inception_4d/output <- inception_4d/5x5
I0403 14:45:17.068059 11073 net.cpp:425] inception_4d/output <- inception_4d/pool_proj
I0403 14:45:17.068079 11073 net.cpp:399] inception_4d/output -> inception_4d/output
I0403 14:45:17.068133 11073 net.cpp:141] Setting up inception_4d/output
I0403 14:45:17.068158 11073 net.cpp:148] Top shape: 24 528 14 14 (2483712)
I0403 14:45:17.068176 11073 net.cpp:156] Memory required for data: 1157244192
I0403 14:45:17.068192 11073 layer_factory.hpp:77] Creating layer inception_4d/output_inception_4d/output_0_split
I0403 14:45:17.068213 11073 net.cpp:91] Creating Layer inception_4d/output_inception_4d/output_0_split
I0403 14:45:17.068231 11073 net.cpp:425] inception_4d/output_inception_4d/output_0_split <- inception_4d/output
I0403 14:45:17.068250 11073 net.cpp:399] inception_4d/output_inception_4d/output_0_split -> inception_4d/output_inception_4d/output_0_split_0
I0403 14:45:17.068271 11073 net.cpp:399] inception_4d/output_inception_4d/output_0_split -> inception_4d/output_inception_4d/output_0_split_1
I0403 14:45:17.068298 11073 net.cpp:399] inception_4d/output_inception_4d/output_0_split -> inception_4d/output_inception_4d/output_0_split_2
I0403 14:45:17.068321 11073 net.cpp:399] inception_4d/output_inception_4d/output_0_split -> inception_4d/output_inception_4d/output_0_split_3
I0403 14:45:17.068343 11073 net.cpp:399] inception_4d/output_inception_4d/output_0_split -> inception_4d/output_inception_4d/output_0_split_4
I0403 14:45:17.068450 11073 net.cpp:141] Setting up inception_4d/output_inception_4d/output_0_split
I0403 14:45:17.068490 11073 net.cpp:148] Top shape: 24 528 14 14 (2483712)
I0403 14:45:17.068508 11073 net.cpp:148] Top shape: 24 528 14 14 (2483712)
I0403 14:45:17.068526 11073 net.cpp:148] Top shape: 24 528 14 14 (2483712)
I0403 14:45:17.068542 11073 net.cpp:148] Top shape: 24 528 14 14 (2483712)
I0403 14:45:17.068558 11073 net.cpp:148] Top shape: 24 528 14 14 (2483712)
I0403 14:45:17.068573 11073 net.cpp:156] Memory required for data: 1206918432
I0403 14:45:17.068588 11073 layer_factory.hpp:77] Creating layer loss2/ave_pool
I0403 14:45:17.068610 11073 net.cpp:91] Creating Layer loss2/ave_pool
I0403 14:45:17.068629 11073 net.cpp:425] loss2/ave_pool <- inception_4d/output_inception_4d/output_0_split_0
I0403 14:45:17.068650 11073 net.cpp:399] loss2/ave_pool -> loss2/ave_pool
I0403 14:45:17.068974 11073 net.cpp:141] Setting up loss2/ave_pool
I0403 14:45:17.069002 11073 net.cpp:148] Top shape: 24 528 4 4 (202752)
I0403 14:45:17.069021 11073 net.cpp:156] Memory required for data: 1207729440
I0403 14:45:17.069038 11073 layer_factory.hpp:77] Creating layer loss2/conv
I0403 14:45:17.069059 11073 net.cpp:91] Creating Layer loss2/conv
I0403 14:45:17.069078 11073 net.cpp:425] loss2/conv <- loss2/ave_pool
I0403 14:45:17.069102 11073 net.cpp:399] loss2/conv -> loss2/conv
I0403 14:45:17.071097 11073 net.cpp:141] Setting up loss2/conv
I0403 14:45:17.071133 11073 net.cpp:148] Top shape: 24 128 4 4 (49152)
I0403 14:45:17.071153 11073 net.cpp:156] Memory required for data: 1207926048
I0403 14:45:17.071172 11073 layer_factory.hpp:77] Creating layer loss2/relu_conv
I0403 14:45:17.071193 11073 net.cpp:91] Creating Layer loss2/relu_conv
I0403 14:45:17.071211 11073 net.cpp:425] loss2/relu_conv <- loss2/conv
I0403 14:45:17.071233 11073 net.cpp:386] loss2/relu_conv -> loss2/conv (in-place)
I0403 14:45:17.071532 11073 net.cpp:141] Setting up loss2/relu_conv
I0403 14:45:17.071563 11073 net.cpp:148] Top shape: 24 128 4 4 (49152)
I0403 14:45:17.071580 11073 net.cpp:156] Memory required for data: 1208122656
I0403 14:45:17.071596 11073 layer_factory.hpp:77] Creating layer loss2/fc
I0403 14:45:17.071617 11073 net.cpp:91] Creating Layer loss2/fc
I0403 14:45:17.071635 11073 net.cpp:425] loss2/fc <- loss2/conv
I0403 14:45:17.071660 11073 net.cpp:399] loss2/fc -> loss2/fc
I0403 14:45:17.089473 11073 net.cpp:141] Setting up loss2/fc
I0403 14:45:17.089529 11073 net.cpp:148] Top shape: 24 1024 (24576)
I0403 14:45:17.089545 11073 net.cpp:156] Memory required for data: 1208220960
I0403 14:45:17.089565 11073 layer_factory.hpp:77] Creating layer loss2/relu_fc
I0403 14:45:17.089601 11073 net.cpp:91] Creating Layer loss2/relu_fc
I0403 14:45:17.089619 11073 net.cpp:425] loss2/relu_fc <- loss2/fc
I0403 14:45:17.089638 11073 net.cpp:386] loss2/relu_fc -> loss2/fc (in-place)
I0403 14:45:17.090047 11073 net.cpp:141] Setting up loss2/relu_fc
I0403 14:45:17.090085 11073 net.cpp:148] Top shape: 24 1024 (24576)
I0403 14:45:17.090101 11073 net.cpp:156] Memory required for data: 1208319264
I0403 14:45:17.090116 11073 layer_factory.hpp:77] Creating layer loss2/drop_fc
I0403 14:45:17.090142 11073 net.cpp:91] Creating Layer loss2/drop_fc
I0403 14:45:17.090160 11073 net.cpp:425] loss2/drop_fc <- loss2/fc
I0403 14:45:17.090178 11073 net.cpp:386] loss2/drop_fc -> loss2/fc (in-place)
I0403 14:45:17.090230 11073 net.cpp:141] Setting up loss2/drop_fc
I0403 14:45:17.090255 11073 net.cpp:148] Top shape: 24 1024 (24576)
I0403 14:45:17.090268 11073 net.cpp:156] Memory required for data: 1208417568
I0403 14:45:17.090282 11073 layer_factory.hpp:77] Creating layer loss2/classifier_plantvillage
I0403 14:45:17.090306 11073 net.cpp:91] Creating Layer loss2/classifier_plantvillage
I0403 14:45:17.090324 11073 net.cpp:425] loss2/classifier_plantvillage <- loss2/fc
I0403 14:45:17.090342 11073 net.cpp:399] loss2/classifier_plantvillage -> loss2/classifier_plantvillage
I0403 14:45:17.090747 11073 net.cpp:141] Setting up loss2/classifier_plantvillage
I0403 14:45:17.090773 11073 net.cpp:148] Top shape: 24 38 (912)
I0403 14:45:17.090808 11073 net.cpp:156] Memory required for data: 1208421216
I0403 14:45:17.090827 11073 layer_factory.hpp:77] Creating layer loss2/classifier_plantvillage_loss2/classifier_plantvillage_0_split
I0403 14:45:17.090847 11073 net.cpp:91] Creating Layer loss2/classifier_plantvillage_loss2/classifier_plantvillage_0_split
I0403 14:45:17.090862 11073 net.cpp:425] loss2/classifier_plantvillage_loss2/classifier_plantvillage_0_split <- loss2/classifier_plantvillage
I0403 14:45:17.090883 11073 net.cpp:399] loss2/classifier_plantvillage_loss2/classifier_plantvillage_0_split -> loss2/classifier_plantvillage_loss2/classifier_plantvillage_0_split_0
I0403 14:45:17.090903 11073 net.cpp:399] loss2/classifier_plantvillage_loss2/classifier_plantvillage_0_split -> loss2/classifier_plantvillage_loss2/classifier_plantvillage_0_split_1
I0403 14:45:17.090924 11073 net.cpp:399] loss2/classifier_plantvillage_loss2/classifier_plantvillage_0_split -> loss2/classifier_plantvillage_loss2/classifier_plantvillage_0_split_2
I0403 14:45:17.091001 11073 net.cpp:141] Setting up loss2/classifier_plantvillage_loss2/classifier_plantvillage_0_split
I0403 14:45:17.091027 11073 net.cpp:148] Top shape: 24 38 (912)
I0403 14:45:17.091044 11073 net.cpp:148] Top shape: 24 38 (912)
I0403 14:45:17.091060 11073 net.cpp:148] Top shape: 24 38 (912)
I0403 14:45:17.091074 11073 net.cpp:156] Memory required for data: 1208432160
I0403 14:45:17.091089 11073 layer_factory.hpp:77] Creating layer inception_4e/1x1
I0403 14:45:17.091110 11073 net.cpp:91] Creating Layer inception_4e/1x1
I0403 14:45:17.091130 11073 net.cpp:425] inception_4e/1x1 <- inception_4d/output_inception_4d/output_0_split_1
I0403 14:45:17.091151 11073 net.cpp:399] inception_4e/1x1 -> inception_4e/1x1
I0403 14:45:17.093014 11073 net.cpp:141] Setting up inception_4e/1x1
I0403 14:45:17.093041 11073 net.cpp:148] Top shape: 24 256 14 14 (1204224)
I0403 14:45:17.093057 11073 net.cpp:156] Memory required for data: 1213249056
I0403 14:45:17.093076 11073 layer_factory.hpp:77] Creating layer inception_4e/relu_1x1
I0403 14:45:17.093094 11073 net.cpp:91] Creating Layer inception_4e/relu_1x1
I0403 14:45:17.093111 11073 net.cpp:425] inception_4e/relu_1x1 <- inception_4e/1x1
I0403 14:45:17.093142 11073 net.cpp:386] inception_4e/relu_1x1 -> inception_4e/1x1 (in-place)
I0403 14:45:17.093461 11073 net.cpp:141] Setting up inception_4e/relu_1x1
I0403 14:45:17.093487 11073 net.cpp:148] Top shape: 24 256 14 14 (1204224)
I0403 14:45:17.093504 11073 net.cpp:156] Memory required for data: 1218065952
I0403 14:45:17.093519 11073 layer_factory.hpp:77] Creating layer inception_4e/3x3_reduce
I0403 14:45:17.093544 11073 net.cpp:91] Creating Layer inception_4e/3x3_reduce
I0403 14:45:17.093561 11073 net.cpp:425] inception_4e/3x3_reduce <- inception_4d/output_inception_4d/output_0_split_2
I0403 14:45:17.093595 11073 net.cpp:399] inception_4e/3x3_reduce -> inception_4e/3x3_reduce
I0403 14:45:17.095757 11073 net.cpp:141] Setting up inception_4e/3x3_reduce
I0403 14:45:17.095788 11073 net.cpp:148] Top shape: 24 160 14 14 (752640)
I0403 14:45:17.095806 11073 net.cpp:156] Memory required for data: 1221076512
I0403 14:45:17.095825 11073 layer_factory.hpp:77] Creating layer inception_4e/relu_3x3_reduce
I0403 14:45:17.095844 11073 net.cpp:91] Creating Layer inception_4e/relu_3x3_reduce
I0403 14:45:17.095860 11073 net.cpp:425] inception_4e/relu_3x3_reduce <- inception_4e/3x3_reduce
I0403 14:45:17.095878 11073 net.cpp:386] inception_4e/relu_3x3_reduce -> inception_4e/3x3_reduce (in-place)
I0403 14:45:17.096066 11073 net.cpp:141] Setting up inception_4e/relu_3x3_reduce
I0403 14:45:17.096091 11073 net.cpp:148] Top shape: 24 160 14 14 (752640)
I0403 14:45:17.096107 11073 net.cpp:156] Memory required for data: 1224087072
I0403 14:45:17.096120 11073 layer_factory.hpp:77] Creating layer inception_4e/3x3
I0403 14:45:17.096149 11073 net.cpp:91] Creating Layer inception_4e/3x3
I0403 14:45:17.096168 11073 net.cpp:425] inception_4e/3x3 <- inception_4e/3x3_reduce
I0403 14:45:17.096189 11073 net.cpp:399] inception_4e/3x3 -> inception_4e/3x3
I0403 14:45:17.101135 11073 net.cpp:141] Setting up inception_4e/3x3
I0403 14:45:17.101177 11073 net.cpp:148] Top shape: 24 320 14 14 (1505280)
I0403 14:45:17.101194 11073 net.cpp:156] Memory required for data: 1230108192
I0403 14:45:17.101214 11073 layer_factory.hpp:77] Creating layer inception_4e/relu_3x3
I0403 14:45:17.101235 11073 net.cpp:91] Creating Layer inception_4e/relu_3x3
I0403 14:45:17.101254 11073 net.cpp:425] inception_4e/relu_3x3 <- inception_4e/3x3
I0403 14:45:17.101272 11073 net.cpp:386] inception_4e/relu_3x3 -> inception_4e/3x3 (in-place)
I0403 14:45:17.101583 11073 net.cpp:141] Setting up inception_4e/relu_3x3
I0403 14:45:17.101610 11073 net.cpp:148] Top shape: 24 320 14 14 (1505280)
I0403 14:45:17.101626 11073 net.cpp:156] Memory required for data: 1236129312
I0403 14:45:17.101641 11073 layer_factory.hpp:77] Creating layer inception_4e/5x5_reduce
I0403 14:45:17.101666 11073 net.cpp:91] Creating Layer inception_4e/5x5_reduce
I0403 14:45:17.101686 11073 net.cpp:425] inception_4e/5x5_reduce <- inception_4d/output_inception_4d/output_0_split_3
I0403 14:45:17.101711 11073 net.cpp:399] inception_4e/5x5_reduce -> inception_4e/5x5_reduce
I0403 14:45:17.102805 11073 net.cpp:141] Setting up inception_4e/5x5_reduce
I0403 14:45:17.102833 11073 net.cpp:148] Top shape: 24 32 14 14 (150528)
I0403 14:45:17.102850 11073 net.cpp:156] Memory required for data: 1236731424
I0403 14:45:17.102869 11073 layer_factory.hpp:77] Creating layer inception_4e/relu_5x5_reduce
I0403 14:45:17.102888 11073 net.cpp:91] Creating Layer inception_4e/relu_5x5_reduce
I0403 14:45:17.102905 11073 net.cpp:425] inception_4e/relu_5x5_reduce <- inception_4e/5x5_reduce
I0403 14:45:17.102926 11073 net.cpp:386] inception_4e/relu_5x5_reduce -> inception_4e/5x5_reduce (in-place)
I0403 14:45:17.103245 11073 net.cpp:141] Setting up inception_4e/relu_5x5_reduce
I0403 14:45:17.103272 11073 net.cpp:148] Top shape: 24 32 14 14 (150528)
I0403 14:45:17.103287 11073 net.cpp:156] Memory required for data: 1237333536
I0403 14:45:17.103302 11073 layer_factory.hpp:77] Creating layer inception_4e/5x5
I0403 14:45:17.103341 11073 net.cpp:91] Creating Layer inception_4e/5x5
I0403 14:45:17.103361 11073 net.cpp:425] inception_4e/5x5 <- inception_4e/5x5_reduce
I0403 14:45:17.103384 11073 net.cpp:399] inception_4e/5x5 -> inception_4e/5x5
I0403 14:45:17.105296 11073 net.cpp:141] Setting up inception_4e/5x5
I0403 14:45:17.105329 11073 net.cpp:148] Top shape: 24 128 14 14 (602112)
I0403 14:45:17.105347 11073 net.cpp:156] Memory required for data: 1239741984
I0403 14:45:17.105367 11073 layer_factory.hpp:77] Creating layer inception_4e/relu_5x5
I0403 14:45:17.105386 11073 net.cpp:91] Creating Layer inception_4e/relu_5x5
I0403 14:45:17.105403 11073 net.cpp:425] inception_4e/relu_5x5 <- inception_4e/5x5
I0403 14:45:17.105422 11073 net.cpp:386] inception_4e/relu_5x5 -> inception_4e/5x5 (in-place)
I0403 14:45:17.105655 11073 net.cpp:141] Setting up inception_4e/relu_5x5
I0403 14:45:17.105682 11073 net.cpp:148] Top shape: 24 128 14 14 (602112)
I0403 14:45:17.105698 11073 net.cpp:156] Memory required for data: 1242150432
I0403 14:45:17.105715 11073 layer_factory.hpp:77] Creating layer inception_4e/pool
I0403 14:45:17.105734 11073 net.cpp:91] Creating Layer inception_4e/pool
I0403 14:45:17.105751 11073 net.cpp:425] inception_4e/pool <- inception_4d/output_inception_4d/output_0_split_4
I0403 14:45:17.105775 11073 net.cpp:399] inception_4e/pool -> inception_4e/pool
I0403 14:45:17.105861 11073 net.cpp:141] Setting up inception_4e/pool
I0403 14:45:17.105890 11073 net.cpp:148] Top shape: 24 528 14 14 (2483712)
I0403 14:45:17.105906 11073 net.cpp:156] Memory required for data: 1252085280
I0403 14:45:17.105921 11073 layer_factory.hpp:77] Creating layer inception_4e/pool_proj
I0403 14:45:17.105943 11073 net.cpp:91] Creating Layer inception_4e/pool_proj
I0403 14:45:17.105962 11073 net.cpp:425] inception_4e/pool_proj <- inception_4e/pool
I0403 14:45:17.105981 11073 net.cpp:399] inception_4e/pool_proj -> inception_4e/pool_proj
I0403 14:45:17.107547 11073 net.cpp:141] Setting up inception_4e/pool_proj
I0403 14:45:17.107588 11073 net.cpp:148] Top shape: 24 128 14 14 (602112)
I0403 14:45:17.107609 11073 net.cpp:156] Memory required for data: 1254493728
I0403 14:45:17.107627 11073 layer_factory.hpp:77] Creating layer inception_4e/relu_pool_proj
I0403 14:45:17.107646 11073 net.cpp:91] Creating Layer inception_4e/relu_pool_proj
I0403 14:45:17.107661 11073 net.cpp:425] inception_4e/relu_pool_proj <- inception_4e/pool_proj
I0403 14:45:17.107679 11073 net.cpp:386] inception_4e/relu_pool_proj -> inception_4e/pool_proj (in-place)
I0403 14:45:17.107983 11073 net.cpp:141] Setting up inception_4e/relu_pool_proj
I0403 14:45:17.108011 11073 net.cpp:148] Top shape: 24 128 14 14 (602112)
I0403 14:45:17.108029 11073 net.cpp:156] Memory required for data: 1256902176
I0403 14:45:17.108045 11073 layer_factory.hpp:77] Creating layer inception_4e/output
I0403 14:45:17.108063 11073 net.cpp:91] Creating Layer inception_4e/output
I0403 14:45:17.108080 11073 net.cpp:425] inception_4e/output <- inception_4e/1x1
I0403 14:45:17.108098 11073 net.cpp:425] inception_4e/output <- inception_4e/3x3
I0403 14:45:17.108114 11073 net.cpp:425] inception_4e/output <- inception_4e/5x5
I0403 14:45:17.108135 11073 net.cpp:425] inception_4e/output <- inception_4e/pool_proj
I0403 14:45:17.108155 11073 net.cpp:399] inception_4e/output -> inception_4e/output
I0403 14:45:17.108206 11073 net.cpp:141] Setting up inception_4e/output
I0403 14:45:17.108232 11073 net.cpp:148] Top shape: 24 832 14 14 (3913728)
I0403 14:45:17.108247 11073 net.cpp:156] Memory required for data: 1272557088
I0403 14:45:17.108261 11073 layer_factory.hpp:77] Creating layer pool4/3x3_s2
I0403 14:45:17.108283 11073 net.cpp:91] Creating Layer pool4/3x3_s2
I0403 14:45:17.108299 11073 net.cpp:425] pool4/3x3_s2 <- inception_4e/output
I0403 14:45:17.108319 11073 net.cpp:399] pool4/3x3_s2 -> pool4/3x3_s2
I0403 14:45:17.108387 11073 net.cpp:141] Setting up pool4/3x3_s2
I0403 14:45:17.108412 11073 net.cpp:148] Top shape: 24 832 7 7 (978432)
I0403 14:45:17.108428 11073 net.cpp:156] Memory required for data: 1276470816
I0403 14:45:17.108443 11073 layer_factory.hpp:77] Creating layer pool4/3x3_s2_pool4/3x3_s2_0_split
I0403 14:45:17.108461 11073 net.cpp:91] Creating Layer pool4/3x3_s2_pool4/3x3_s2_0_split
I0403 14:45:17.108477 11073 net.cpp:425] pool4/3x3_s2_pool4/3x3_s2_0_split <- pool4/3x3_s2
I0403 14:45:17.108499 11073 net.cpp:399] pool4/3x3_s2_pool4/3x3_s2_0_split -> pool4/3x3_s2_pool4/3x3_s2_0_split_0
I0403 14:45:17.108520 11073 net.cpp:399] pool4/3x3_s2_pool4/3x3_s2_0_split -> pool4/3x3_s2_pool4/3x3_s2_0_split_1
I0403 14:45:17.108541 11073 net.cpp:399] pool4/3x3_s2_pool4/3x3_s2_0_split -> pool4/3x3_s2_pool4/3x3_s2_0_split_2
I0403 14:45:17.108561 11073 net.cpp:399] pool4/3x3_s2_pool4/3x3_s2_0_split -> pool4/3x3_s2_pool4/3x3_s2_0_split_3
I0403 14:45:17.108654 11073 net.cpp:141] Setting up pool4/3x3_s2_pool4/3x3_s2_0_split
I0403 14:45:17.108680 11073 net.cpp:148] Top shape: 24 832 7 7 (978432)
I0403 14:45:17.108696 11073 net.cpp:148] Top shape: 24 832 7 7 (978432)
I0403 14:45:17.108712 11073 net.cpp:148] Top shape: 24 832 7 7 (978432)
I0403 14:45:17.108728 11073 net.cpp:148] Top shape: 24 832 7 7 (978432)
I0403 14:45:17.108746 11073 net.cpp:156] Memory required for data: 1292125728
I0403 14:45:17.108760 11073 layer_factory.hpp:77] Creating layer inception_5a/1x1
I0403 14:45:17.108784 11073 net.cpp:91] Creating Layer inception_5a/1x1
I0403 14:45:17.108803 11073 net.cpp:425] inception_5a/1x1 <- pool4/3x3_s2_pool4/3x3_s2_0_split_0
I0403 14:45:17.108822 11073 net.cpp:399] inception_5a/1x1 -> inception_5a/1x1
I0403 14:45:17.111732 11073 net.cpp:141] Setting up inception_5a/1x1
I0403 14:45:17.111764 11073 net.cpp:148] Top shape: 24 256 7 7 (301056)
I0403 14:45:17.111781 11073 net.cpp:156] Memory required for data: 1293329952
I0403 14:45:17.111800 11073 layer_factory.hpp:77] Creating layer inception_5a/relu_1x1
I0403 14:45:17.111819 11073 net.cpp:91] Creating Layer inception_5a/relu_1x1
I0403 14:45:17.111836 11073 net.cpp:425] inception_5a/relu_1x1 <- inception_5a/1x1
I0403 14:45:17.111857 11073 net.cpp:386] inception_5a/relu_1x1 -> inception_5a/1x1 (in-place)
I0403 14:45:17.112175 11073 net.cpp:141] Setting up inception_5a/relu_1x1
I0403 14:45:17.112205 11073 net.cpp:148] Top shape: 24 256 7 7 (301056)
I0403 14:45:17.112221 11073 net.cpp:156] Memory required for data: 1294534176
I0403 14:45:17.112236 11073 layer_factory.hpp:77] Creating layer inception_5a/3x3_reduce
I0403 14:45:17.112259 11073 net.cpp:91] Creating Layer inception_5a/3x3_reduce
I0403 14:45:17.112278 11073 net.cpp:425] inception_5a/3x3_reduce <- pool4/3x3_s2_pool4/3x3_s2_0_split_1
I0403 14:45:17.112298 11073 net.cpp:399] inception_5a/3x3_reduce -> inception_5a/3x3_reduce
I0403 14:45:17.114815 11073 net.cpp:141] Setting up inception_5a/3x3_reduce
I0403 14:45:17.114845 11073 net.cpp:148] Top shape: 24 160 7 7 (188160)
I0403 14:45:17.114861 11073 net.cpp:156] Memory required for data: 1295286816
I0403 14:45:17.114879 11073 layer_factory.hpp:77] Creating layer inception_5a/relu_3x3_reduce
I0403 14:45:17.114902 11073 net.cpp:91] Creating Layer inception_5a/relu_3x3_reduce
I0403 14:45:17.114919 11073 net.cpp:425] inception_5a/relu_3x3_reduce <- inception_5a/3x3_reduce
I0403 14:45:17.114938 11073 net.cpp:386] inception_5a/relu_3x3_reduce -> inception_5a/3x3_reduce (in-place)
I0403 14:45:17.115136 11073 net.cpp:141] Setting up inception_5a/relu_3x3_reduce
I0403 14:45:17.115164 11073 net.cpp:148] Top shape: 24 160 7 7 (188160)
I0403 14:45:17.115181 11073 net.cpp:156] Memory required for data: 1296039456
I0403 14:45:17.115196 11073 layer_factory.hpp:77] Creating layer inception_5a/3x3
I0403 14:45:17.115219 11073 net.cpp:91] Creating Layer inception_5a/3x3
I0403 14:45:17.115237 11073 net.cpp:425] inception_5a/3x3 <- inception_5a/3x3_reduce
I0403 14:45:17.115260 11073 net.cpp:399] inception_5a/3x3 -> inception_5a/3x3
I0403 14:45:17.120574 11073 net.cpp:141] Setting up inception_5a/3x3
I0403 14:45:17.120609 11073 net.cpp:148] Top shape: 24 320 7 7 (376320)
I0403 14:45:17.120627 11073 net.cpp:156] Memory required for data: 1297544736
I0403 14:45:17.120647 11073 layer_factory.hpp:77] Creating layer inception_5a/relu_3x3
I0403 14:45:17.120666 11073 net.cpp:91] Creating Layer inception_5a/relu_3x3
I0403 14:45:17.120684 11073 net.cpp:425] inception_5a/relu_3x3 <- inception_5a/3x3
I0403 14:45:17.120702 11073 net.cpp:386] inception_5a/relu_3x3 -> inception_5a/3x3 (in-place)
I0403 14:45:17.121012 11073 net.cpp:141] Setting up inception_5a/relu_3x3
I0403 14:45:17.121043 11073 net.cpp:148] Top shape: 24 320 7 7 (376320)
I0403 14:45:17.121060 11073 net.cpp:156] Memory required for data: 1299050016
I0403 14:45:17.121075 11073 layer_factory.hpp:77] Creating layer inception_5a/5x5_reduce
I0403 14:45:17.121099 11073 net.cpp:91] Creating Layer inception_5a/5x5_reduce
I0403 14:45:17.121119 11073 net.cpp:425] inception_5a/5x5_reduce <- pool4/3x3_s2_pool4/3x3_s2_0_split_2
I0403 14:45:17.121145 11073 net.cpp:399] inception_5a/5x5_reduce -> inception_5a/5x5_reduce
I0403 14:45:17.122411 11073 net.cpp:141] Setting up inception_5a/5x5_reduce
I0403 14:45:17.122442 11073 net.cpp:148] Top shape: 24 32 7 7 (37632)
I0403 14:45:17.122460 11073 net.cpp:156] Memory required for data: 1299200544
I0403 14:45:17.122480 11073 layer_factory.hpp:77] Creating layer inception_5a/relu_5x5_reduce
I0403 14:45:17.122503 11073 net.cpp:91] Creating Layer inception_5a/relu_5x5_reduce
I0403 14:45:17.122520 11073 net.cpp:425] inception_5a/relu_5x5_reduce <- inception_5a/5x5_reduce
I0403 14:45:17.122542 11073 net.cpp:386] inception_5a/relu_5x5_reduce -> inception_5a/5x5_reduce (in-place)
I0403 14:45:17.122859 11073 net.cpp:141] Setting up inception_5a/relu_5x5_reduce
I0403 14:45:17.122886 11073 net.cpp:148] Top shape: 24 32 7 7 (37632)
I0403 14:45:17.122902 11073 net.cpp:156] Memory required for data: 1299351072
I0403 14:45:17.122918 11073 layer_factory.hpp:77] Creating layer inception_5a/5x5
I0403 14:45:17.122942 11073 net.cpp:91] Creating Layer inception_5a/5x5
I0403 14:45:17.122962 11073 net.cpp:425] inception_5a/5x5 <- inception_5a/5x5_reduce
I0403 14:45:17.122985 11073 net.cpp:399] inception_5a/5x5 -> inception_5a/5x5
I0403 14:45:17.124801 11073 net.cpp:141] Setting up inception_5a/5x5
I0403 14:45:17.124847 11073 net.cpp:148] Top shape: 24 128 7 7 (150528)
I0403 14:45:17.124866 11073 net.cpp:156] Memory required for data: 1299953184
I0403 14:45:17.124886 11073 layer_factory.hpp:77] Creating layer inception_5a/relu_5x5
I0403 14:45:17.124905 11073 net.cpp:91] Creating Layer inception_5a/relu_5x5
I0403 14:45:17.124924 11073 net.cpp:425] inception_5a/relu_5x5 <- inception_5a/5x5
I0403 14:45:17.124943 11073 net.cpp:386] inception_5a/relu_5x5 -> inception_5a/5x5 (in-place)
I0403 14:45:17.125155 11073 net.cpp:141] Setting up inception_5a/relu_5x5
I0403 14:45:17.125182 11073 net.cpp:148] Top shape: 24 128 7 7 (150528)
I0403 14:45:17.125197 11073 net.cpp:156] Memory required for data: 1300555296
I0403 14:45:17.125213 11073 layer_factory.hpp:77] Creating layer inception_5a/pool
I0403 14:45:17.125233 11073 net.cpp:91] Creating Layer inception_5a/pool
I0403 14:45:17.125252 11073 net.cpp:425] inception_5a/pool <- pool4/3x3_s2_pool4/3x3_s2_0_split_3
I0403 14:45:17.125273 11073 net.cpp:399] inception_5a/pool -> inception_5a/pool
I0403 14:45:17.125347 11073 net.cpp:141] Setting up inception_5a/pool
I0403 14:45:17.125376 11073 net.cpp:148] Top shape: 24 832 7 7 (978432)
I0403 14:45:17.125392 11073 net.cpp:156] Memory required for data: 1304469024
I0403 14:45:17.125408 11073 layer_factory.hpp:77] Creating layer inception_5a/pool_proj
I0403 14:45:17.125432 11073 net.cpp:91] Creating Layer inception_5a/pool_proj
I0403 14:45:17.125450 11073 net.cpp:425] inception_5a/pool_proj <- inception_5a/pool
I0403 14:45:17.125469 11073 net.cpp:399] inception_5a/pool_proj -> inception_5a/pool_proj
I0403 14:45:17.127833 11073 net.cpp:141] Setting up inception_5a/pool_proj
I0403 14:45:17.127863 11073 net.cpp:148] Top shape: 24 128 7 7 (150528)
I0403 14:45:17.127881 11073 net.cpp:156] Memory required for data: 1305071136
I0403 14:45:17.127899 11073 layer_factory.hpp:77] Creating layer inception_5a/relu_pool_proj
I0403 14:45:17.127921 11073 net.cpp:91] Creating Layer inception_5a/relu_pool_proj
I0403 14:45:17.127940 11073 net.cpp:425] inception_5a/relu_pool_proj <- inception_5a/pool_proj
I0403 14:45:17.127959 11073 net.cpp:386] inception_5a/relu_pool_proj -> inception_5a/pool_proj (in-place)
I0403 14:45:17.128288 11073 net.cpp:141] Setting up inception_5a/relu_pool_proj
I0403 14:45:17.128316 11073 net.cpp:148] Top shape: 24 128 7 7 (150528)
I0403 14:45:17.128332 11073 net.cpp:156] Memory required for data: 1305673248
I0403 14:45:17.128350 11073 layer_factory.hpp:77] Creating layer inception_5a/output
I0403 14:45:17.128371 11073 net.cpp:91] Creating Layer inception_5a/output
I0403 14:45:17.128389 11073 net.cpp:425] inception_5a/output <- inception_5a/1x1
I0403 14:45:17.128408 11073 net.cpp:425] inception_5a/output <- inception_5a/3x3
I0403 14:45:17.128427 11073 net.cpp:425] inception_5a/output <- inception_5a/5x5
I0403 14:45:17.128454 11073 net.cpp:425] inception_5a/output <- inception_5a/pool_proj
I0403 14:45:17.128473 11073 net.cpp:399] inception_5a/output -> inception_5a/output
I0403 14:45:17.128527 11073 net.cpp:141] Setting up inception_5a/output
I0403 14:45:17.128552 11073 net.cpp:148] Top shape: 24 832 7 7 (978432)
I0403 14:45:17.128568 11073 net.cpp:156] Memory required for data: 1309586976
I0403 14:45:17.128584 11073 layer_factory.hpp:77] Creating layer inception_5a/output_inception_5a/output_0_split
I0403 14:45:17.128602 11073 net.cpp:91] Creating Layer inception_5a/output_inception_5a/output_0_split
I0403 14:45:17.128619 11073 net.cpp:425] inception_5a/output_inception_5a/output_0_split <- inception_5a/output
I0403 14:45:17.128640 11073 net.cpp:399] inception_5a/output_inception_5a/output_0_split -> inception_5a/output_inception_5a/output_0_split_0
I0403 14:45:17.128664 11073 net.cpp:399] inception_5a/output_inception_5a/output_0_split -> inception_5a/output_inception_5a/output_0_split_1
I0403 14:45:17.128685 11073 net.cpp:399] inception_5a/output_inception_5a/output_0_split -> inception_5a/output_inception_5a/output_0_split_2
I0403 14:45:17.128706 11073 net.cpp:399] inception_5a/output_inception_5a/output_0_split -> inception_5a/output_inception_5a/output_0_split_3
I0403 14:45:17.128828 11073 net.cpp:141] Setting up inception_5a/output_inception_5a/output_0_split
I0403 14:45:17.128855 11073 net.cpp:148] Top shape: 24 832 7 7 (978432)
I0403 14:45:17.128873 11073 net.cpp:148] Top shape: 24 832 7 7 (978432)
I0403 14:45:17.128890 11073 net.cpp:148] Top shape: 24 832 7 7 (978432)
I0403 14:45:17.128906 11073 net.cpp:148] Top shape: 24 832 7 7 (978432)
I0403 14:45:17.128921 11073 net.cpp:156] Memory required for data: 1325241888
I0403 14:45:17.128937 11073 layer_factory.hpp:77] Creating layer inception_5b/1x1
I0403 14:45:17.128960 11073 net.cpp:91] Creating Layer inception_5b/1x1
I0403 14:45:17.128980 11073 net.cpp:425] inception_5b/1x1 <- inception_5a/output_inception_5a/output_0_split_0
I0403 14:45:17.129003 11073 net.cpp:399] inception_5b/1x1 -> inception_5b/1x1
I0403 14:45:17.132901 11073 net.cpp:141] Setting up inception_5b/1x1
I0403 14:45:17.132933 11073 net.cpp:148] Top shape: 24 384 7 7 (451584)
I0403 14:45:17.132949 11073 net.cpp:156] Memory required for data: 1327048224
I0403 14:45:17.132969 11073 layer_factory.hpp:77] Creating layer inception_5b/relu_1x1
I0403 14:45:17.132992 11073 net.cpp:91] Creating Layer inception_5b/relu_1x1
I0403 14:45:17.133010 11073 net.cpp:425] inception_5b/relu_1x1 <- inception_5b/1x1
I0403 14:45:17.133029 11073 net.cpp:386] inception_5b/relu_1x1 -> inception_5b/1x1 (in-place)
I0403 14:45:17.133378 11073 net.cpp:141] Setting up inception_5b/relu_1x1
I0403 14:45:17.133406 11073 net.cpp:148] Top shape: 24 384 7 7 (451584)
I0403 14:45:17.133424 11073 net.cpp:156] Memory required for data: 1328854560
I0403 14:45:17.133440 11073 layer_factory.hpp:77] Creating layer inception_5b/3x3_reduce
I0403 14:45:17.133476 11073 net.cpp:91] Creating Layer inception_5b/3x3_reduce
I0403 14:45:17.133496 11073 net.cpp:425] inception_5b/3x3_reduce <- inception_5a/output_inception_5a/output_0_split_1
I0403 14:45:17.133518 11073 net.cpp:399] inception_5b/3x3_reduce -> inception_5b/3x3_reduce
I0403 14:45:17.136332 11073 net.cpp:141] Setting up inception_5b/3x3_reduce
I0403 14:45:17.136361 11073 net.cpp:148] Top shape: 24 192 7 7 (225792)
I0403 14:45:17.136380 11073 net.cpp:156] Memory required for data: 1329757728
I0403 14:45:17.136399 11073 layer_factory.hpp:77] Creating layer inception_5b/relu_3x3_reduce
I0403 14:45:17.136420 11073 net.cpp:91] Creating Layer inception_5b/relu_3x3_reduce
I0403 14:45:17.136438 11073 net.cpp:425] inception_5b/relu_3x3_reduce <- inception_5b/3x3_reduce
I0403 14:45:17.136456 11073 net.cpp:386] inception_5b/relu_3x3_reduce -> inception_5b/3x3_reduce (in-place)
I0403 14:45:17.136654 11073 net.cpp:141] Setting up inception_5b/relu_3x3_reduce
I0403 14:45:17.136682 11073 net.cpp:148] Top shape: 24 192 7 7 (225792)
I0403 14:45:17.136699 11073 net.cpp:156] Memory required for data: 1330660896
I0403 14:45:17.136715 11073 layer_factory.hpp:77] Creating layer inception_5b/3x3
I0403 14:45:17.136739 11073 net.cpp:91] Creating Layer inception_5b/3x3
I0403 14:45:17.136756 11073 net.cpp:425] inception_5b/3x3 <- inception_5b/3x3_reduce
I0403 14:45:17.136780 11073 net.cpp:399] inception_5b/3x3 -> inception_5b/3x3
I0403 14:45:17.143581 11073 net.cpp:141] Setting up inception_5b/3x3
I0403 14:45:17.143611 11073 net.cpp:148] Top shape: 24 384 7 7 (451584)
I0403 14:45:17.143627 11073 net.cpp:156] Memory required for data: 1332467232
I0403 14:45:17.143646 11073 layer_factory.hpp:77] Creating layer inception_5b/relu_3x3
I0403 14:45:17.143668 11073 net.cpp:91] Creating Layer inception_5b/relu_3x3
I0403 14:45:17.143687 11073 net.cpp:425] inception_5b/relu_3x3 <- inception_5b/3x3
I0403 14:45:17.143705 11073 net.cpp:386] inception_5b/relu_3x3 -> inception_5b/3x3 (in-place)
I0403 14:45:17.144011 11073 net.cpp:141] Setting up inception_5b/relu_3x3
I0403 14:45:17.144037 11073 net.cpp:148] Top shape: 24 384 7 7 (451584)
I0403 14:45:17.144052 11073 net.cpp:156] Memory required for data: 1334273568
I0403 14:45:17.144068 11073 layer_factory.hpp:77] Creating layer inception_5b/5x5_reduce
I0403 14:45:17.144109 11073 net.cpp:91] Creating Layer inception_5b/5x5_reduce
I0403 14:45:17.144134 11073 net.cpp:425] inception_5b/5x5_reduce <- inception_5a/output_inception_5a/output_0_split_2
I0403 14:45:17.144156 11073 net.cpp:399] inception_5b/5x5_reduce -> inception_5b/5x5_reduce
I0403 14:45:17.145457 11073 net.cpp:141] Setting up inception_5b/5x5_reduce
I0403 14:45:17.145486 11073 net.cpp:148] Top shape: 24 48 7 7 (56448)
I0403 14:45:17.145506 11073 net.cpp:156] Memory required for data: 1334499360
I0403 14:45:17.145525 11073 layer_factory.hpp:77] Creating layer inception_5b/relu_5x5_reduce
I0403 14:45:17.145545 11073 net.cpp:91] Creating Layer inception_5b/relu_5x5_reduce
I0403 14:45:17.145562 11073 net.cpp:425] inception_5b/relu_5x5_reduce <- inception_5b/5x5_reduce
I0403 14:45:17.145581 11073 net.cpp:386] inception_5b/relu_5x5_reduce -> inception_5b/5x5_reduce (in-place)
I0403 14:45:17.145959 11073 net.cpp:141] Setting up inception_5b/relu_5x5_reduce
I0403 14:45:17.145987 11073 net.cpp:148] Top shape: 24 48 7 7 (56448)
I0403 14:45:17.146003 11073 net.cpp:156] Memory required for data: 1334725152
I0403 14:45:17.146018 11073 layer_factory.hpp:77] Creating layer inception_5b/5x5
I0403 14:45:17.146039 11073 net.cpp:91] Creating Layer inception_5b/5x5
I0403 14:45:17.146056 11073 net.cpp:425] inception_5b/5x5 <- inception_5b/5x5_reduce
I0403 14:45:17.146076 11073 net.cpp:399] inception_5b/5x5 -> inception_5b/5x5
I0403 14:45:17.148211 11073 net.cpp:141] Setting up inception_5b/5x5
I0403 14:45:17.148242 11073 net.cpp:148] Top shape: 24 128 7 7 (150528)
I0403 14:45:17.148260 11073 net.cpp:156] Memory required for data: 1335327264
I0403 14:45:17.148279 11073 layer_factory.hpp:77] Creating layer inception_5b/relu_5x5
I0403 14:45:17.148298 11073 net.cpp:91] Creating Layer inception_5b/relu_5x5
I0403 14:45:17.148316 11073 net.cpp:425] inception_5b/relu_5x5 <- inception_5b/5x5
I0403 14:45:17.148336 11073 net.cpp:386] inception_5b/relu_5x5 -> inception_5b/5x5 (in-place)
I0403 14:45:17.148540 11073 net.cpp:141] Setting up inception_5b/relu_5x5
I0403 14:45:17.148566 11073 net.cpp:148] Top shape: 24 128 7 7 (150528)
I0403 14:45:17.148581 11073 net.cpp:156] Memory required for data: 1335929376
I0403 14:45:17.148596 11073 layer_factory.hpp:77] Creating layer inception_5b/pool
I0403 14:45:17.148614 11073 net.cpp:91] Creating Layer inception_5b/pool
I0403 14:45:17.148632 11073 net.cpp:425] inception_5b/pool <- inception_5a/output_inception_5a/output_0_split_3
I0403 14:45:17.148653 11073 net.cpp:399] inception_5b/pool -> inception_5b/pool
I0403 14:45:17.148730 11073 net.cpp:141] Setting up inception_5b/pool
I0403 14:45:17.148756 11073 net.cpp:148] Top shape: 24 832 7 7 (978432)
I0403 14:45:17.148771 11073 net.cpp:156] Memory required for data: 1339843104
I0403 14:45:17.148785 11073 layer_factory.hpp:77] Creating layer inception_5b/pool_proj
I0403 14:45:17.148809 11073 net.cpp:91] Creating Layer inception_5b/pool_proj
I0403 14:45:17.148828 11073 net.cpp:425] inception_5b/pool_proj <- inception_5b/pool
I0403 14:45:17.148847 11073 net.cpp:399] inception_5b/pool_proj -> inception_5b/pool_proj
I0403 14:45:17.151216 11073 net.cpp:141] Setting up inception_5b/pool_proj
I0403 14:45:17.151249 11073 net.cpp:148] Top shape: 24 128 7 7 (150528)
I0403 14:45:17.151267 11073 net.cpp:156] Memory required for data: 1340445216
I0403 14:45:17.151286 11073 layer_factory.hpp:77] Creating layer inception_5b/relu_pool_proj
I0403 14:45:17.151305 11073 net.cpp:91] Creating Layer inception_5b/relu_pool_proj
I0403 14:45:17.151324 11073 net.cpp:425] inception_5b/relu_pool_proj <- inception_5b/pool_proj
I0403 14:45:17.151342 11073 net.cpp:386] inception_5b/relu_pool_proj -> inception_5b/pool_proj (in-place)
I0403 14:45:17.151644 11073 net.cpp:141] Setting up inception_5b/relu_pool_proj
I0403 14:45:17.151674 11073 net.cpp:148] Top shape: 24 128 7 7 (150528)
I0403 14:45:17.151690 11073 net.cpp:156] Memory required for data: 1341047328
I0403 14:45:17.151706 11073 layer_factory.hpp:77] Creating layer inception_5b/output
I0403 14:45:17.151726 11073 net.cpp:91] Creating Layer inception_5b/output
I0403 14:45:17.151757 11073 net.cpp:425] inception_5b/output <- inception_5b/1x1
I0403 14:45:17.151778 11073 net.cpp:425] inception_5b/output <- inception_5b/3x3
I0403 14:45:17.151798 11073 net.cpp:425] inception_5b/output <- inception_5b/5x5
I0403 14:45:17.151815 11073 net.cpp:425] inception_5b/output <- inception_5b/pool_proj
I0403 14:45:17.151834 11073 net.cpp:399] inception_5b/output -> inception_5b/output
I0403 14:45:17.151888 11073 net.cpp:141] Setting up inception_5b/output
I0403 14:45:17.151913 11073 net.cpp:148] Top shape: 24 1024 7 7 (1204224)
I0403 14:45:17.151928 11073 net.cpp:156] Memory required for data: 1345864224
I0403 14:45:17.151944 11073 layer_factory.hpp:77] Creating layer pool5/7x7_s1
I0403 14:45:17.151964 11073 net.cpp:91] Creating Layer pool5/7x7_s1
I0403 14:45:17.151983 11073 net.cpp:425] pool5/7x7_s1 <- inception_5b/output
I0403 14:45:17.152001 11073 net.cpp:399] pool5/7x7_s1 -> pool5/7x7_s1
I0403 14:45:17.152228 11073 net.cpp:141] Setting up pool5/7x7_s1
I0403 14:45:17.152257 11073 net.cpp:148] Top shape: 24 1024 1 1 (24576)
I0403 14:45:17.152274 11073 net.cpp:156] Memory required for data: 1345962528
I0403 14:45:17.152290 11073 layer_factory.hpp:77] Creating layer pool5/drop_7x7_s1
I0403 14:45:17.152309 11073 net.cpp:91] Creating Layer pool5/drop_7x7_s1
I0403 14:45:17.152326 11073 net.cpp:425] pool5/drop_7x7_s1 <- pool5/7x7_s1
I0403 14:45:17.152344 11073 net.cpp:386] pool5/drop_7x7_s1 -> pool5/7x7_s1 (in-place)
I0403 14:45:17.152398 11073 net.cpp:141] Setting up pool5/drop_7x7_s1
I0403 14:45:17.152423 11073 net.cpp:148] Top shape: 24 1024 1 1 (24576)
I0403 14:45:17.152438 11073 net.cpp:156] Memory required for data: 1346060832
I0403 14:45:17.152454 11073 layer_factory.hpp:77] Creating layer loss3/classifier_plantvillage
I0403 14:45:17.152477 11073 net.cpp:91] Creating Layer loss3/classifier_plantvillage
I0403 14:45:17.152494 11073 net.cpp:425] loss3/classifier_plantvillage <- pool5/7x7_s1
I0403 14:45:17.152513 11073 net.cpp:399] loss3/classifier_plantvillage -> loss3/classifier_plantvillage
I0403 14:45:17.152945 11073 net.cpp:141] Setting up loss3/classifier_plantvillage
I0403 14:45:17.152971 11073 net.cpp:148] Top shape: 24 38 (912)
I0403 14:45:17.152986 11073 net.cpp:156] Memory required for data: 1346064480
I0403 14:45:17.153004 11073 layer_factory.hpp:77] Creating layer loss3/classifier_plantvillage_loss3/classifier_plantvillage_0_split
I0403 14:45:17.153024 11073 net.cpp:91] Creating Layer loss3/classifier_plantvillage_loss3/classifier_plantvillage_0_split
I0403 14:45:17.153041 11073 net.cpp:425] loss3/classifier_plantvillage_loss3/classifier_plantvillage_0_split <- loss3/classifier_plantvillage
I0403 14:45:17.153062 11073 net.cpp:399] loss3/classifier_plantvillage_loss3/classifier_plantvillage_0_split -> loss3/classifier_plantvillage_loss3/classifier_plantvillage_0_split_0
I0403 14:45:17.153084 11073 net.cpp:399] loss3/classifier_plantvillage_loss3/classifier_plantvillage_0_split -> loss3/classifier_plantvillage_loss3/classifier_plantvillage_0_split_1
I0403 14:45:17.153106 11073 net.cpp:399] loss3/classifier_plantvillage_loss3/classifier_plantvillage_0_split -> loss3/classifier_plantvillage_loss3/classifier_plantvillage_0_split_2
I0403 14:45:17.153136 11073 net.cpp:399] loss3/classifier_plantvillage_loss3/classifier_plantvillage_0_split -> loss3/classifier_plantvillage_loss3/classifier_plantvillage_0_split_3
I0403 14:45:17.153246 11073 net.cpp:141] Setting up loss3/classifier_plantvillage_loss3/classifier_plantvillage_0_split
I0403 14:45:17.153271 11073 net.cpp:148] Top shape: 24 38 (912)
I0403 14:45:17.153287 11073 net.cpp:148] Top shape: 24 38 (912)
I0403 14:45:17.153303 11073 net.cpp:148] Top shape: 24 38 (912)
I0403 14:45:17.153319 11073 net.cpp:148] Top shape: 24 38 (912)
I0403 14:45:17.153334 11073 net.cpp:156] Memory required for data: 1346079072
I0403 14:45:17.153349 11073 layer_factory.hpp:77] Creating layer loss1/loss
I0403 14:45:17.153372 11073 net.cpp:91] Creating Layer loss1/loss
I0403 14:45:17.153391 11073 net.cpp:425] loss1/loss <- loss1/classifier_plantvillage_loss1/classifier_plantvillage_0_split_0
I0403 14:45:17.153424 11073 net.cpp:425] loss1/loss <- label_data_1_split_0
…
