…
I0403 15:09:21.353191 11887 net.cpp:313] The NetState phase (1) differed from the phase (0) specified by a rule in layer data
I0403 15:09:21.354384 11887 net.cpp:49] Initializing net from parameters: 
state {
  phase: TEST
}
layer {
  name: "data"
  type: "Data"
  top: "data"
  top: "label"
  include {
    phase: TEST
  }
  transform_param {
    mirror: false
    crop_size: 224
    mean_file: "/home/mohanty/data/final_dataset/lmdb/grayscale-60-40/mean.binaryproto"
  }
  data_param {
    source: "/home/mohanty/data/final_dataset/lmdb/grayscale-60-40/test_db"
    batch_size: 24
    backend: LMDB
  }
}
layer {
  name: "conv1/7x7_s2"
  type: "Convolution"
  bottom: "data"
  top: "conv1/7x7_s2"
  param {
    lr_mult: 1
    decay_mult: 1
  }
  param {
    lr_mult: 2
    decay_mult: 0
  }
  convolution_param {
    num_output: 64
    pad: 3
    kernel_size: 7
    stride: 2
    weight_filler {
      type: "xavier"
      std: 0.1
    }
    bias_filler {
      type: "constant"
      value: 0.2
    }
  }
}
layer {
  name: "conv1/relu_7x7"
  type: "ReLU"
  bottom: "conv1/7x7_s2"
  top: "conv1/7x7_s2"
}
layer {
  name: "pool1/3x3_s2"
  type: "Pooling"
  bottom: "conv1/7x7_s2"
  top: "pool1/3x3_s2"
  pooling_param {
    pool: MAX
    kernel_size: 3
    stride: 2
  }
}
layer {
  name: "pool1/norm1"
  type: "LRN"
  bottom: "pool1/3x3_s2"
  top: "pool1/norm1"
  lrn_param {
    local_size: 5
    alpha: 0.0001
    beta: 0.75
  }
}
layer {
  name: "conv2/3x3_reduce"
  type: "Convolution"
  bottom: "pool1/norm1"
  top: "conv2/3x3_reduce"
  param {
    lr_mult: 1
    decay_mult: 1
  }
  param {
    lr_mult: 2
    decay_mult: 0
  }
  convolution_param {
    num_output: 64
    kernel_size: 1
    weight_filler {
      type: "xavier"
      std: 0.1
    }
    bias_filler {
      type: "constant"
      value: 0.2
    }
  }
}
layer {
  name: "conv2/relu_3x3_reduce"
  type: "ReLU"
  bottom: "conv2/3x3_reduce"
  top: "conv2/3x3_reduce"
}
layer {
  name: "conv2/3x3"
  type: "Convolution"
  bottom: "conv2/3x3_reduce"
  top: "conv2/3x3"
  param {
    lr_mult: 1
    decay_mult: 1
  }
  param {
    lr_mult: 2
    decay_mult: 0
  }
  convolution_param {
    num_output: 192
    pad: 1
    kernel_size: 3
    weight_filler {
      type: "xavier"
      std: 0.03
    }
    bias_filler {
      type: "constant"
      value: 0.2
    }
  }
}
layer {
  name: "conv2/relu_3x3"
  type: "ReLU"
  bottom: "conv2/3x3"
  top: "conv2/3x3"
}
layer {
  name: "conv2/norm2"
  type: "LRN"
  bottom: "conv2/3x3"
  top: "conv2/norm2"
  lrn_param {
    local_size: 5
    alpha: 0.0001
    beta: 0.75
  }
}
layer {
  name: "pool2/3x3_s2"
  type: "Pooling"
  bottom: "conv2/norm2"
  top: "pool2/3x3_s2"
  pooling_param {
    pool: MAX
    kernel_size: 3
    stride: 2
  }
}
layer {
  name: "inception_3a/1x1"
  type: "Convolution"
  bottom: "pool2/3x3_s2"
  top: "inception_3a/1x1"
  param {
    lr_mult: 1
    decay_mult: 1
  }
  param {
    lr_mult: 2
    decay_mult: 0
  }
  convolution_param {
    num_output: 64
    kernel_size: 1
    weight_filler {
      type: "xavier"
      std: 0.03
    }
    bias_filler {
      type: "constant"
      value: 0.2
    }
  }
}
layer {
  name: "inception_3a/relu_1x1"
  type: "ReLU"
  bottom: "inception_3a/1x1"
  top: "inception_3a/1x1"
}
layer {
  name: "inception_3a/3x3_reduce"
  type: "Convolution"
  bottom: "pool2/3x3_s2"
  top: "inception_3a/3x3_reduce"
  param {
    lr_mult: 1
    decay_mult: 1
  }
  param {
    lr_mult: 2
    decay_mult: 0
  }
  convolution_param {
    num_output: 96
    kernel_size: 1
    weight_filler {
      type: "xavier"
      std: 0.09
    }
    bias_filler {
      type: "constant"
      value: 0.2
    }
  }
}
layer {
  name: "inception_3a/relu_3x3_reduce"
  type: "ReLU"
  bottom: "inception_3a/3x3_reduce"
  top: "inception_3a/3x3_reduce"
}
layer {
  name: "inception_3a/3x3"
  type: "Convolution"
  bottom: "inception_3a/3x3_reduce"
  top: "inception_3a/3x3"
  param {
    lr_mult: 1
    decay_mult: 1
  }
  param {
    lr_mult: 2
    decay_mult: 0
  }
  convolution_param {
    num_output: 128
    pad: 1
    kernel_size: 3
    weight_filler {
      type: "xavier"
      std: 0.03
    }
    bias_filler {
      type: "constant"
      value: 0.2
    }
  }
}
layer {
  name: "inception_3a/relu_3x3"
  type: "ReLU"
  bottom: "inception_3a/3x3"
  top: "inception_3a/3x3"
}
layer {
  name: "inception_3a/5x5_reduce"
  type: "Convolution"
  bottom: "pool2/3x3_s2"
  top: "inception_3a/5x5_reduce"
  param {
    lr_mult: 1
    decay_mult: 1
  }
  param {
    lr_mult: 2
    decay_mult: 0
  }
  convolution_param {
    num_output: 16
    kernel_size: 1
    weight_filler {
      type: "xavier"
      std: 0.2
    }
    bias_filler {
      type: "constant"
      value: 0.2
    }
  }
}
layer {
  name: "inception_3a/relu_5x5_reduce"
  type: "ReLU"
  bottom: "inception_3a/5x5_reduce"
  top: "inception_3a/5x5_reduce"
}
layer {
  name: "inception_3a/5x5"
  type: "Convolution"
  bottom: "inception_3a/5x5_reduce"
  top: "inception_3a/5x5"
  param {
    lr_mult: 1
    decay_mult: 1
  }
  param {
    lr_mult: 2
    decay_mult: 0
  }
  convolution_param {
    num_output: 32
    pad: 2
    kernel_size: 5
    weight_filler {
      type: "xavier"
      std: 0.03
    }
    bias_filler {
      type: "constant"
      value: 0.2
    }
  }
}
layer {
  name: "inception_3a/relu_5x5"
  type: "ReLU"
  bottom: "inception_3a/5x5"
  top: "inception_3a/5x5"
}
layer {
  name: "inception_3a/pool"
  type: "Pooling"
  bottom: "pool2/3x3_s2"
  top: "inception_3a/pool"
  pooling_param {
    pool: MAX
    kernel_size: 3
    stride: 1
    pad: 1
  }
}
layer {
  name: "inception_3a/pool_proj"
  type: "Convolution"
  bottom: "inception_3a/pool"
  top: "inception_3a/pool_proj"
  param {
    lr_mult: 1
    decay_mult: 1
  }
  param {
    lr_mult: 2
    decay_mult: 0
  }
  convolution_param {
    num_output: 32
    kernel_size: 1
    weight_filler {
      type: "xavier"
      std: 0.1
    }
    bias_filler {
      type: "constant"
      value: 0.2
    }
  }
}
layer {
  name: "inception_3a/relu_pool_proj"
  type: "ReLU"
  bottom: "inception_3a/pool_proj"
  top: "inception_3a/pool_proj"
}
layer {
  name: "inception_3a/output"
  type: "Concat"
  bottom: "inception_3a/1x1"
  bottom: "inception_3a/3x3"
  bottom: "inception_3a/5x5"
  bottom: "inception_3a/pool_proj"
  top: "inception_3a/output"
}
layer {
  name: "inception_3b/1x1"
  type: "Convolution"
  bottom: "inception_3a/output"
  top: "inception_3b/1x1"
  param {
    lr_mult: 1
    decay_mult: 1
  }
  param {
    lr_mult: 2
    decay_mult: 0
  }
  convolution_param {
    num_output: 128
    kernel_size: 1
    weight_filler {
      type: "xavier"
      std: 0.03
    }
    bias_filler {
      type: "constant"
      value: 0.2
    }
  }
}
layer {
  name: "inception_3b/relu_1x1"
  type: "ReLU"
  bottom: "inception_3b/1x1"
  top: "inception_3b/1x1"
}
layer {
  name: "inception_3b/3x3_reduce"
  type: "Convolution"
  bottom: "inception_3a/output"
  top: "inception_3b/3x3_reduce"
  param {
    lr_mult: 1
    decay_mult: 1
  }
  param {
    lr_mult: 2
    decay_mult: 0
  }
  convolution_param {
    num_output: 128
    kernel_size: 1
    weight_filler {
      type: "xavier"
      std: 0.09
    }
    bias_filler {
      type: "constant"
      value: 0.2
    }
  }
}
layer {
  name: "inception_3b/relu_3x3_reduce"
  type: "ReLU"
  bottom: "inception_3b/3x3_reduce"
  top: "inception_3b/3x3_reduce"
}
layer {
  name: "inception_3b/3x3"
  type: "Convolution"
  bottom: "inception_3b/3x3_reduce"
  top: "inception_3b/3x3"
  param {
    lr_mult: 1
    decay_mult: 1
  }
  param {
    lr_mult: 2
    decay_mult: 0
  }
  convolution_param {
    num_output: 192
    pad: 1
    kernel_size: 3
    weight_filler {
      type: "xavier"
      std: 0.03
    }
    bias_filler {
      type: "constant"
      value: 0.2
    }
  }
}
layer {
  name: "inception_3b/relu_3x3"
  type: "ReLU"
  bottom: "inception_3b/3x3"
  top: "inception_3b/3x3"
}
layer {
  name: "inception_3b/5x5_reduce"
  type: "Convolution"
  bottom: "inception_3a/output"
  top: "inception_3b/5x5_reduce"
  param {
    lr_mult: 1
    decay_mult: 1
  }
  param {
    lr_mult: 2
    decay_mult: 0
  }
  convolution_param {
    num_output: 32
    kernel_size: 1
    weight_filler {
      type: "xavier"
      std: 0.2
    }
    bias_filler {
      type: "constant"
      value: 0.2
    }
  }
}
layer {
  name: "inception_3b/relu_5x5_reduce"
  type: "ReLU"
  bottom: "inception_3b/5x5_reduce"
  top: "inception_3b/5x5_reduce"
}
layer {
  name: "inception_3b/5x5"
  type: "Convolution"
  bottom: "inception_3b/5x5_reduce"
  top: "inception_3b/5x5"
  param {
    lr_mult: 1
    decay_mult: 1
  }
  param {
    lr_mult: 2
    decay_mult: 0
  }
  convolution_param {
    num_output: 96
    pad: 2
    kernel_size: 5
    weight_filler {
      type: "xavier"
      std: 0.03
    }
    bias_filler {
      type: "constant"
      value: 0.2
    }
  }
}
layer {
  name: "inception_3b/relu_5x5"
  type: "ReLU"
  bottom: "inception_3b/5x5"
  top: "inception_3b/5x5"
}
layer {
  name: "inception_3b/pool"
  type: "Pooling"
  bottom: "inception_3a/output"
  top: "inception_3b/pool"
  pooling_param {
    pool: MAX
    kernel_size: 3
    stride: 1
    pad: 1
  }
}
layer {
  name: "inception_3b/pool_proj"
  type: "Convolution"
  bottom: "inception_3b/pool"
  top: "inception_3b/pool_proj"
  param {
    lr_mult: 1
    decay_mult: 1
  }
  param {
    lr_mult: 2
    decay_mult: 0
  }
  convolution_param {
    num_output: 64
    kernel_size: 1
    weight_filler {
      type: "xavier"
      std: 0.1
    }
    bias_filler {
      type: "constant"
      value: 0.2
    }
  }
}
layer {
  name: "inception_3b/relu_pool_proj"
  type: "ReLU"
  bottom: "inception_3b/pool_proj"
  top: "inception_3b/pool_proj"
}
layer {
  name: "inception_3b/output"
  type: "Concat"
  bottom: "inception_3b/1x1"
  bottom: "inception_3b/3x3"
  bottom: "inception_3b/5x5"
  bottom: "inception_3b/pool_proj"
  top: "inception_3b/output"
}
layer {
  name: "pool3/3x3_s2"
  type: "Pooling"
  bottom: "inception_3b/output"
  top: "pool3/3x3_s2"
  pooling_param {
    pool: MAX
    kernel_size: 3
    stride: 2
  }
}
layer {
  name: "inception_4a/1x1"
  type: "Convolution"
  bottom: "pool3/3x3_s2"
  top: "inception_4a/1x1"
  param {
    lr_mult: 1
    decay_mult: 1
  }
  param {
    lr_mult: 2
    decay_mult: 0
  }
  convolution_param {
    num_output: 192
    kernel_size: 1
    weight_filler {
      type: "xavier"
      std: 0.03
    }
    bias_filler {
      type: "constant"
      value: 0.2
    }
  }
}
layer {
  name: "inception_4a/relu_1x1"
  type: "ReLU"
  bottom: "inception_4a/1x1"
  top: "inception_4a/1x1"
}
layer {
  name: "inception_4a/3x3_reduce"
  type: "Convolution"
  bottom: "pool3/3x3_s2"
  top: "inception_4a/3x3_reduce"
  param {
    lr_mult: 1
    decay_mult: 1
  }
  param {
    lr_mult: 2
    decay_mult: 0
  }
  convolution_param {
    num_output: 96
    kernel_size: 1
    weight_filler {
      type: "xavier"
      std: 0.09
    }
    bias_filler {
      type: "constant"
      value: 0.2
    }
  }
}
layer {
  name: "inception_4a/relu_3x3_reduce"
  type: "ReLU"
  bottom: "inception_4a/3x3_reduce"
  top: "inception_4a/3x3_reduce"
}
layer {
  name: "inception_4a/3x3"
  type: "Convolution"
  bottom: "inception_4a/3x3_reduce"
  top: "inception_4a/3x3"
  param {
    lr_mult: 1
    decay_mult: 1
  }
  param {
    lr_mult: 2
    decay_mult: 0
  }
  convolution_param {
    num_output: 208
    pad: 1
    kernel_size: 3
    weight_filler {
      type: "xavier"
      std: 0.03
    }
    bias_filler {
      type: "constant"
      value: 0.2
    }
  }
}
layer {
  name: "inception_4a/relu_3x3"
  type: "ReLU"
  bottom: "inception_4a/3x3"
  top: "inception_4a/3x3"
}
layer {
  name: "inception_4a/5x5_reduce"
  type: "Convolution"
  bottom: "pool3/3x3_s2"
  top: "inception_4a/5x5_reduce"
  param {
    lr_mult: 1
    decay_mult: 1
  }
  param {
    lr_mult: 2
    decay_mult: 0
  }
  convolution_param {
    num_output: 16
    kernel_size: 1
    weight_filler {
      type: "xavier"
      std: 0.2
    }
    bias_filler {
      type: "constant"
      value: 0.2
    }
  }
}
layer {
  name: "inception_4a/relu_5x5_reduce"
  type: "ReLU"
  bottom: "inception_4a/5x5_reduce"
  top: "inception_4a/5x5_reduce"
}
layer {
  name: "inception_4a/5x5"
  type: "Convolution"
  bottom: "inception_4a/5x5_reduce"
  top: "inception_4a/5x5"
  param {
    lr_mult: 1
    decay_mult: 1
  }
  param {
    lr_mult: 2
    decay_mult: 0
  }
  convolution_param {
    num_output: 48
    pad: 2
    kernel_size: 5
    weight_filler {
      type: "xavier"
      std: 0.03
    }
    bias_filler {
      type: "constant"
      value: 0.2
    }
  }
}
layer {
  name: "inception_4a/relu_5x5"
  type: "ReLU"
  bottom: "inception_4a/5x5"
  top: "inception_4a/5x5"
}
layer {
  name: "inception_4a/pool"
  type: "Pooling"
  bottom: "pool3/3x3_s2"
  top: "inception_4a/pool"
  pooling_param {
    pool: MAX
    kernel_size: 3
    stride: 1
    pad: 1
  }
}
layer {
  name: "inception_4a/pool_proj"
  type: "Convolution"
  bottom: "inception_4a/pool"
  top: "inception_4a/pool_proj"
  param {
    lr_mult: 1
    decay_mult: 1
  }
  param {
    lr_mult: 2
    decay_mult: 0
  }
  convolution_param {
    num_output: 64
    kernel_size: 1
    weight_filler {
      type: "xavier"
      std: 0.1
    }
    bias_filler {
      type: "constant"
      value: 0.2
    }
  }
}
layer {
  name: "inception_4a/relu_pool_proj"
  type: "ReLU"
  bottom: "inception_4a/pool_proj"
  top: "inception_4a/pool_proj"
}
layer {
  name: "inception_4a/output"
  type: "Concat"
  bottom: "inception_4a/1x1"
  bottom: "inception_4a/3x3"
  bottom: "inception_4a/5x5"
  bottom: "inception_4a/pool_proj"
  top: "inception_4a/output"
}
layer {
  name: "loss1/ave_pool"
  type: "Pooling"
  bottom: "inception_4a/output"
  top: "loss1/ave_pool"
  pooling_param {
    pool: AVE
    kernel_size: 5
    stride: 3
  }
}
layer {
  name: "loss1/conv"
  type: "Convolution"
  bottom: "loss1/ave_pool"
  top: "loss1/conv"
  param {
    lr_mult: 1
    decay_mult: 1
  }
  param {
    lr_mult: 2
    decay_mult: 0
  }
  convolution_param {
    num_output: 128
    kernel_size: 1
    weight_filler {
      type: "xavier"
      std: 0.08
    }
    bias_filler {
      type: "constant"
      value: 0.2
    }
  }
}
layer {
  name: "loss1/relu_conv"
  type: "ReLU"
  bottom: "loss1/conv"
  top: "loss1/conv"
}
layer {
  name: "loss1/fc"
  type: "InnerProduct"
  bottom: "loss1/conv"
  top: "loss1/fc"
  param {
    lr_mult: 1
    decay_mult: 1
  }
  param {
    lr_mult: 2
    decay_mult: 0
  }
  inner_product_param {
    num_output: 1024
    weight_filler {
      type: "xavier"
      std: 0.02
    }
    bias_filler {
      type: "constant"
      value: 0.2
    }
  }
}
layer {
  name: "loss1/relu_fc"
  type: "ReLU"
  bottom: "loss1/fc"
  top: "loss1/fc"
}
layer {
  name: "loss1/drop_fc"
  type: "Dropout"
  bottom: "loss1/fc"
  top: "loss1/fc"
  dropout_param {
    dropout_ratio: 0.7
  }
}
layer {
  name: "loss1/classifier_plantvillage"
  type: "InnerProduct"
  bottom: "loss1/fc"
  top: "loss1/classifier_plantvillage"
  param {
    lr_mult: 1
    decay_mult: 1
  }
  param {
    lr_mult: 2
    decay_mult: 0
  }
  inner_product_param {
    num_output: 38
    weight_filler {
      type: "xavier"
      std: 0.0009765625
    }
    bias_filler {
      type: "constant"
      value: 0
    }
  }
}
layer {
  name: "inception_4b/1x1"
  type: "Convolution"
  bottom: "inception_4a/output"
  top: "inception_4b/1x1"
  param {
    lr_mult: 1
    decay_mult: 1
  }
  param {
    lr_mult: 2
    decay_mult: 0
  }
  convolution_param {
    num_output: 160
    kernel_size: 1
    weight_filler {
      type: "xavier"
      std: 0.03
    }
    bias_filler {
      type: "constant"
      value: 0.2
    }
  }
}
layer {
  name: "inception_4b/relu_1x1"
  type: "ReLU"
  bottom: "inception_4b/1x1"
  top: "inception_4b/1x1"
}
layer {
  name: "inception_4b/3x3_reduce"
  type: "Convolution"
  bottom: "inception_4a/output"
  top: "inception_4b/3x3_reduce"
  param {
    lr_mult: 1
    decay_mult: 1
  }
  param {
    lr_mult: 2
    decay_mult: 0
  }
  convolution_param {
    num_output: 112
    kernel_size: 1
    weight_filler {
      type: "xavier"
      std: 0.09
    }
    bias_filler {
      type: "constant"
      value: 0.2
    }
  }
}
layer {
  name: "inception_4b/relu_3x3_reduce"
  type: "ReLU"
  bottom: "inception_4b/3x3_reduce"
  top: "inception_4b/3x3_reduce"
}
layer {
  name: "inception_4b/3x3"
  type: "Convolution"
  bottom: "inception_4b/3x3_reduce"
  top: "inception_4b/3x3"
  param {
    lr_mult: 1
    decay_mult: 1
  }
  param {
    lr_mult: 2
    decay_mult: 0
  }
  convolution_param {
    num_output: 224
    pad: 1
    kernel_size: 3
    weight_filler {
      type: "xavier"
      std: 0.03
    }
    bias_filler {
      type: "constant"
      value: 0.2
    }
  }
}
layer {
  name: "inception_4b/relu_3x3"
  type: "ReLU"
  bottom: "inception_4b/3x3"
  top: "inception_4b/3x3"
}
layer {
  name: "inception_4b/5x5_reduce"
  type: "Convolution"
  bottom: "inception_4a/output"
  top: "inception_4b/5x5_reduce"
  param {
    lr_mult: 1
    decay_mult: 1
  }
  param {
    lr_mult: 2
    decay_mult: 0
  }
  convolution_param {
    num_output: 24
    kernel_size: 1
    weight_filler {
      type: "xavier"
      std: 0.2
    }
    bias_filler {
      type: "constant"
      value: 0.2
    }
  }
}
layer {
  name: "inception_4b/relu_5x5_reduce"
  type: "ReLU"
  bottom: "inception_4b/5x5_reduce"
  top: "inception_4b/5x5_reduce"
}
layer {
  name: "inception_4b/5x5"
  type: "Convolution"
  bottom: "inception_4b/5x5_reduce"
  top: "inception_4b/5x5"
  param {
    lr_mult: 1
    decay_mult: 1
  }
  param {
    lr_mult: 2
    decay_mult: 0
  }
  convolution_param {
    num_output: 64
    pad: 2
    kernel_size: 5
    weight_filler {
      type: "xavier"
      std: 0.03
    }
    bias_filler {
      type: "constant"
      value: 0.2
    }
  }
}
layer {
  name: "inception_4b/relu_5x5"
  type: "ReLU"
  bottom: "inception_4b/5x5"
  top: "inception_4b/5x5"
}
layer {
  name: "inception_4b/pool"
  type: "Pooling"
  bottom: "inception_4a/output"
  top: "inception_4b/pool"
  pooling_param {
    pool: MAX
    kernel_size: 3
    stride: 1
    pad: 1
  }
}
layer {
  name: "inception_4b/pool_proj"
  type: "Convolution"
  bottom: "inception_4b/pool"
  top: "inception_4b/pool_proj"
  param {
    lr_mult: 1
    decay_mult: 1
  }
  param {
    lr_mult: 2
    decay_mult: 0
  }
  convolution_param {
    num_output: 64
    kernel_size: 1
    weight_filler {
      type: "xavier"
      std: 0.1
    }
    bias_filler {
      type: "constant"
      value: 0.2
    }
  }
}
layer {
  name: "inception_4b/relu_pool_proj"
  type: "ReLU"
  bottom: "inception_4b/pool_proj"
  top: "inception_4b/pool_proj"
}
layer {
  name: "inception_4b/output"
  type: "Concat"
  bottom: "inception_4b/1x1"
  bottom: "inception_4b/3x3"
  bottom: "inception_4b/5x5"
  bottom: "inception_4b/pool_proj"
  top: "inception_4b/output"
}
layer {
  name: "inception_4c/1x1"
  type: "Convolution"
  bottom: "inception_4b/output"
  top: "inception_4c/1x1"
  param {
    lr_mult: 1
    decay_mult: 1
  }
  param {
    lr_mult: 2
    decay_mult: 0
  }
  convolution_param {
    num_output: 128
    kernel_size: 1
    weight_filler {
      type: "xavier"
      std: 0.03
    }
    bias_filler {
      type: "constant"
      value: 0.2
    }
  }
}
layer {
  name: "inception_4c/relu_1x1"
  type: "ReLU"
  bottom: "inception_4c/1x1"
  top: "inception_4c/1x1"
}
layer {
  name: "inception_4c/3x3_reduce"
  type: "Convolution"
  bottom: "inception_4b/output"
  top: "inception_4c/3x3_reduce"
  param {
    lr_mult: 1
    decay_mult: 1
  }
  param {
    lr_mult: 2
    decay_mult: 0
  }
  convolution_param {
    num_output: 128
    kernel_size: 1
    weight_filler {
      type: "xavier"
      std: 0.09
    }
    bias_filler {
      type: "constant"
      value: 0.2
    }
  }
}
layer {
  name: "inception_4c/relu_3x3_reduce"
  type: "ReLU"
  bottom: "inception_4c/3x3_reduce"
  top: "inception_4c/3x3_reduce"
}
layer {
  name: "inception_4c/3x3"
  type: "Convolution"
  bottom: "inception_4c/3x3_reduce"
  top: "inception_4c/3x3"
  param {
    lr_mult: 1
    decay_mult: 1
  }
  param {
    lr_mult: 2
    decay_mult: 0
  }
  convolution_param {
    num_output: 256
    pad: 1
    kernel_size: 3
    weight_filler {
      type: "xavier"
      std: 0.03
    }
    bias_filler {
      type: "constant"
      value: 0.2
    }
  }
}
layer {
  name: "inception_4c/relu_3x3"
  type: "ReLU"
  bottom: "inception_4c/3x3"
  top: "inception_4c/3x3"
}
layer {
  name: "inception_4c/5x5_reduce"
  type: "Convolution"
  bottom: "inception_4b/output"
  top: "inception_4c/5x5_reduce"
  param {
    lr_mult: 1
    decay_mult: 1
  }
  param {
    lr_mult: 2
    decay_mult: 0
  }
  convolution_param {
    num_output: 24
    kernel_size: 1
    weight_filler {
      type: "xavier"
      std: 0.2
    }
    bias_filler {
      type: "constant"
      value: 0.2
    }
  }
}
layer {
  name: "inception_4c/relu_5x5_reduce"
  type: "ReLU"
  bottom: "inception_4c/5x5_reduce"
  top: "inception_4c/5x5_reduce"
}
layer {
  name: "inception_4c/5x5"
  type: "Convolution"
  bottom: "inception_4c/5x5_reduce"
  top: "inception_4c/5x5"
  param {
    lr_mult: 1
    decay_mult: 1
  }
  param {
    lr_mult: 2
    decay_mult: 0
  }
  convolution_param {
    num_output: 64
    pad: 2
    kernel_size: 5
    weight_filler {
      type: "xavier"
      std: 0.03
    }
    bias_filler {
      type: "constant"
      value: 0.2
    }
  }
}
layer {
  name: "inception_4c/relu_5x5"
  type: "ReLU"
  bottom: "inception_4c/5x5"
  top: "inception_4c/5x5"
}
layer {
  name: "inception_4c/pool"
  type: "Pooling"
  bottom: "inception_4b/output"
  top: "inception_4c/pool"
  pooling_param {
    pool: MAX
    kernel_size: 3
    stride: 1
    pad: 1
  }
}
layer {
  name: "inception_4c/pool_proj"
  type: "Convolution"
  bottom: "inception_4c/pool"
  top: "inception_4c/pool_proj"
  param {
    lr_mult: 1
    decay_mult: 1
  }
  param {
    lr_mult: 2
    decay_mult: 0
  }
  convolution_param {
    num_output: 64
    kernel_size: 1
    weight_filler {
      type: "xavier"
      std: 0.1
    }
    bias_filler {
      type: "constant"
      value: 0.2
    }
  }
}
layer {
  name: "inception_4c/relu_pool_proj"
  type: "ReLU"
  bottom: "inception_4c/pool_proj"
  top: "inception_4c/pool_proj"
}
layer {
  name: "inception_4c/output"
  type: "Concat"
  bottom: "inception_4c/1x1"
  bottom: "inception_4c/3x3"
  bottom: "inception_4c/5x5"
  bottom: "inception_4c/pool_proj"
  top: "inception_4c/output"
}
layer {
  name: "inception_4d/1x1"
  type: "Convolution"
  bottom: "inception_4c/output"
  top: "inception_4d/1x1"
  param {
    lr_mult: 1
    decay_mult: 1
  }
  param {
    lr_mult: 2
    decay_mult: 0
  }
  convolution_param {
    num_output: 112
    kernel_size: 1
    weight_filler {
      type: "xavier"
      std: 0.03
    }
    bias_filler {
      type: "constant"
      value: 0.2
    }
  }
}
layer {
  name: "inception_4d/relu_1x1"
  type: "ReLU"
  bottom: "inception_4d/1x1"
  top: "inception_4d/1x1"
}
layer {
  name: "inception_4d/3x3_reduce"
  type: "Convolution"
  bottom: "inception_4c/output"
  top: "inception_4d/3x3_reduce"
  param {
    lr_mult: 1
    decay_mult: 1
  }
  param {
    lr_mult: 2
    decay_mult: 0
  }
  convolution_param {
    num_output: 144
    kernel_size: 1
    weight_filler {
      type: "xavier"
      std: 0.09
    }
    bias_filler {
      type: "constant"
      value: 0.2
    }
  }
}
layer {
  name: "inception_4d/relu_3x3_reduce"
  type: "ReLU"
  bottom: "inception_4d/3x3_reduce"
  top: "inception_4d/3x3_reduce"
}
layer {
  name: "inception_4d/3x3"
  type: "Convolution"
  bottom: "inception_4d/3x3_reduce"
  top: "inception_4d/3x3"
  param {
    lr_mult: 1
    decay_mult: 1
  }
  param {
    lr_mult: 2
    decay_mult: 0
  }
  convolution_param {
    num_output: 288
    pad: 1
    kernel_size: 3
    weight_filler {
      type: "xavier"
      std: 0.03
    }
    bias_filler {
      type: "constant"
      value: 0.2
    }
  }
}
layer {
  name: "inception_4d/relu_3x3"
  type: "ReLU"
  bottom: "inception_4d/3x3"
  top: "inception_4d/3x3"
}
layer {
  name: "inception_4d/5x5_reduce"
  type: "Convolution"
  bottom: "inception_4c/output"
  top: "inception_4d/5x5_reduce"
  param {
    lr_mult: 1
    decay_mult: 1
  }
  param {
    lr_mult: 2
    decay_mult: 0
  }
  convolution_param {
    num_output: 32
    kernel_size: 1
    weight_filler {
      type: "xavier"
      std: 0.2
    }
    bias_filler {
      type: "constant"
      value: 0.2
    }
  }
}
layer {
  name: "inception_4d/relu_5x5_reduce"
  type: "ReLU"
  bottom: "inception_4d/5x5_reduce"
  top: "inception_4d/5x5_reduce"
}
layer {
  name: "inception_4d/5x5"
  type: "Convolution"
  bottom: "inception_4d/5x5_reduce"
  top: "inception_4d/5x5"
  param {
    lr_mult: 1
    decay_mult: 1
  }
  param {
    lr_mult: 2
    decay_mult: 0
  }
  convolution_param {
    num_output: 64
    pad: 2
    kernel_size: 5
    weight_filler {
      type: "xavier"
      std: 0.03
    }
    bias_filler {
      type: "constant"
      value: 0.2
    }
  }
}
layer {
  name: "inception_4d/relu_5x5"
  type: "ReLU"
  bottom: "inception_4d/5x5"
  top: "inception_4d/5x5"
}
layer {
  name: "inception_4d/pool"
  type: "Pooling"
  bottom: "inception_4c/output"
  top: "inception_4d/pool"
  pooling_param {
    pool: MAX
    kernel_size: 3
    stride: 1
    pad: 1
  }
}
layer {
  name: "inception_4d/pool_proj"
  type: "Convolution"
  bottom: "inception_4d/pool"
  top: "inception_4d/pool_proj"
  param {
    lr_mult: 1
    decay_mult: 1
  }
  param {
    lr_mult: 2
    decay_mult: 0
  }
  convolution_param {
    num_output: 64
    kernel_size: 1
    weight_filler {
      type: "xavier"
      std: 0.1
    }
    bias_filler {
      type: "constant"
      value: 0.2
    }
  }
}
layer {
  name: "inception_4d/relu_pool_proj"
  type: "ReLU"
  bottom: "inception_4d/pool_proj"
  top: "inception_4d/pool_proj"
}
layer {
  name: "inception_4d/output"
  type: "Concat"
  bottom: "inception_4d/1x1"
  bottom: "inception_4d/3x3"
  bottom: "inception_4d/5x5"
  bottom: "inception_4d/pool_proj"
  top: "inception_4d/output"
}
layer {
  name: "loss2/ave_pool"
  type: "Pooling"
  bottom: "inception_4d/output"
  top: "loss2/ave_pool"
  pooling_param {
    pool: AVE
    kernel_size: 5
    stride: 3
  }
}
layer {
  name: "loss2/conv"
  type: "Convolution"
  bottom: "loss2/ave_pool"
  top: "loss2/conv"
  param {
    lr_mult: 1
    decay_mult: 1
  }
  param {
    lr_mult: 2
    decay_mult: 0
  }
  convolution_param {
    num_output: 128
    kernel_size: 1
    weight_filler {
      type: "xavier"
      std: 0.08
    }
    bias_filler {
      type: "constant"
      value: 0.2
    }
  }
}
layer {
  name: "loss2/relu_conv"
  type: "ReLU"
  bottom: "loss2/conv"
  top: "loss2/conv"
}
layer {
  name: "loss2/fc"
  type: "InnerProduct"
  bottom: "loss2/conv"
  top: "loss2/fc"
  param {
    lr_mult: 1
    decay_mult: 1
  }
  param {
    lr_mult: 2
    decay_mult: 0
  }
  inner_product_param {
    num_output: 1024
    weight_filler {
      type: "xavier"
      std: 0.02
    }
    bias_filler {
      type: "constant"
      value: 0.2
    }
  }
}
layer {
  name: "loss2/relu_fc"
  type: "ReLU"
  bottom: "loss2/fc"
  top: "loss2/fc"
}
layer {
  name: "loss2/drop_fc"
  type: "Dropout"
  bottom: "loss2/fc"
  top: "loss2/fc"
  dropout_param {
    dropout_ratio: 0.7
  }
}
layer {
  name: "loss2/classifier_plantvillage"
  type: "InnerProduct"
  bottom: "loss2/fc"
  top: "loss2/classifier_plantvillage"
  param {
    lr_mult: 1
    decay_mult: 1
  }
  param {
    lr_mult: 2
    decay_mult: 0
  }
  inner_product_param {
    num_output: 38
    weight_filler {
      type: "xavier"
      std: 0.0009765625
    }
    bias_filler {
      type: "constant"
      value: 0
    }
  }
}
layer {
  name: "inception_4e/1x1"
  type: "Convolution"
  bottom: "inception_4d/output"
  top: "inception_4e/1x1"
  param {
    lr_mult: 1
    decay_mult: 1
  }
  param {
    lr_mult: 2
    decay_mult: 0
  }
  convolution_param {
    num_output: 256
    kernel_size: 1
    weight_filler {
      type: "xavier"
      std: 0.03
    }
    bias_filler {
      type: "constant"
      value: 0.2
    }
  }
}
layer {
  name: "inception_4e/relu_1x1"
  type: "ReLU"
  bottom: "inception_4e/1x1"
  top: "inception_4e/1x1"
}
layer {
  name: "inception_4e/3x3_reduce"
  type: "Convolution"
  bottom: "inception_4d/output"
  top: "inception_4e/3x3_reduce"
  param {
    lr_mult: 1
    decay_mult: 1
  }
  param {
    lr_mult: 2
    decay_mult: 0
  }
  convolution_param {
    num_output: 160
    kernel_size: 1
    weight_filler {
      type: "xavier"
      std: 0.09
    }
    bias_filler {
      type: "constant"
      value: 0.2
    }
  }
}
layer {
  name: "inception_4e/relu_3x3_reduce"
  type: "ReLU"
  bottom: "inception_4e/3x3_reduce"
  top: "inception_4e/3x3_reduce"
}
layer {
  name: "inception_4e/3x3"
  type: "Convolution"
  bottom: "inception_4e/3x3_reduce"
  top: "inception_4e/3x3"
  param {
    lr_mult: 1
    decay_mult: 1
  }
  param {
    lr_mult: 2
    decay_mult: 0
  }
  convolution_param {
    num_output: 320
    pad: 1
    kernel_size: 3
    weight_filler {
      type: "xavier"
      std: 0.03
    }
    bias_filler {
      type: "constant"
      value: 0.2
    }
  }
}
layer {
  name: "inception_4e/relu_3x3"
  type: "ReLU"
  bottom: "inception_4e/3x3"
  top: "inception_4e/3x3"
}
layer {
  name: "inception_4e/5x5_reduce"
  type: "Convolution"
  bottom: "inception_4d/output"
  top: "inception_4e/5x5_reduce"
  param {
    lr_mult: 1
    decay_mult: 1
  }
  param {
    lr_mult: 2
    decay_mult: 0
  }
  convolution_param {
    num_output: 32
    kernel_size: 1
    weight_filler {
      type: "xavier"
      std: 0.2
    }
    bias_filler {
      type: "constant"
      value: 0.2
    }
  }
}
layer {
  name: "inception_4e/relu_5x5_reduce"
  type: "ReLU"
  bottom: "inception_4e/5x5_reduce"
  top: "inception_4e/5x5_reduce"
}
layer {
  name: "inception_4e/5x5"
  type: "Convolution"
  bottom: "inception_4e/5x5_reduce"
  top: "inception_4e/
I0403 15:09:21.355622 11887 layer_factory.hpp:77] Creating layer data
I0403 15:09:21.356209 11887 net.cpp:91] Creating Layer data
I0403 15:09:21.356245 11887 net.cpp:399] data -> data
I0403 15:09:21.356298 11887 net.cpp:399] data -> label
I0403 15:09:21.356335 11887 data_transformer.cpp:25] Loading mean file from: /home/mohanty/data/final_dataset/lmdb/grayscale-60-40/mean.binaryproto
I0403 15:09:21.358933 11890 db_lmdb.cpp:38] Opened lmdb /home/mohanty/data/final_dataset/lmdb/grayscale-60-40/test_db
I0403 15:09:21.369648 11887 data_layer.cpp:41] output data size: 24,3,224,224
I0403 15:09:21.396811 11887 net.cpp:141] Setting up data
I0403 15:09:21.396890 11887 net.cpp:148] Top shape: 24 3 224 224 (3612672)
I0403 15:09:21.396914 11887 net.cpp:148] Top shape: 24 (24)
I0403 15:09:21.396929 11887 net.cpp:156] Memory required for data: 14450784
I0403 15:09:21.396957 11887 layer_factory.hpp:77] Creating layer label_data_1_split
I0403 15:09:21.396986 11887 net.cpp:91] Creating Layer label_data_1_split
I0403 15:09:21.397004 11887 net.cpp:425] label_data_1_split <- label
I0403 15:09:21.397035 11887 net.cpp:399] label_data_1_split -> label_data_1_split_0
I0403 15:09:21.397063 11887 net.cpp:399] label_data_1_split -> label_data_1_split_1
I0403 15:09:21.397084 11887 net.cpp:399] label_data_1_split -> label_data_1_split_2
I0403 15:09:21.397105 11887 net.cpp:399] label_data_1_split -> label_data_1_split_3
I0403 15:09:21.397130 11887 net.cpp:399] label_data_1_split -> label_data_1_split_4
I0403 15:09:21.397153 11887 net.cpp:399] label_data_1_split -> label_data_1_split_5
I0403 15:09:21.397174 11887 net.cpp:399] label_data_1_split -> label_data_1_split_6
I0403 15:09:21.397194 11887 net.cpp:399] label_data_1_split -> label_data_1_split_7
I0403 15:09:21.397214 11887 net.cpp:399] label_data_1_split -> label_data_1_split_8
I0403 15:09:21.397234 11887 net.cpp:399] label_data_1_split -> label_data_1_split_9
I0403 15:09:21.397351 11887 net.cpp:141] Setting up label_data_1_split
I0403 15:09:21.397375 11887 net.cpp:148] Top shape: 24 (24)
I0403 15:09:21.397393 11887 net.cpp:148] Top shape: 24 (24)
I0403 15:09:21.397409 11887 net.cpp:148] Top shape: 24 (24)
I0403 15:09:21.397425 11887 net.cpp:148] Top shape: 24 (24)
I0403 15:09:21.397440 11887 net.cpp:148] Top shape: 24 (24)
I0403 15:09:21.397456 11887 net.cpp:148] Top shape: 24 (24)
I0403 15:09:21.397472 11887 net.cpp:148] Top shape: 24 (24)
I0403 15:09:21.397488 11887 net.cpp:148] Top shape: 24 (24)
I0403 15:09:21.397503 11887 net.cpp:148] Top shape: 24 (24)
I0403 15:09:21.397519 11887 net.cpp:148] Top shape: 24 (24)
I0403 15:09:21.397593 11887 net.cpp:156] Memory required for data: 14451744
I0403 15:09:21.397609 11887 layer_factory.hpp:77] Creating layer conv1/7x7_s2
I0403 15:09:21.397641 11887 net.cpp:91] Creating Layer conv1/7x7_s2
I0403 15:09:21.397660 11887 net.cpp:425] conv1/7x7_s2 <- data
I0403 15:09:21.397681 11887 net.cpp:399] conv1/7x7_s2 -> conv1/7x7_s2
I0403 15:09:21.539052 11887 net.cpp:141] Setting up conv1/7x7_s2
I0403 15:09:21.539134 11887 net.cpp:148] Top shape: 24 64 112 112 (19267584)
I0403 15:09:21.539154 11887 net.cpp:156] Memory required for data: 91522080
I0403 15:09:21.539186 11887 layer_factory.hpp:77] Creating layer conv1/relu_7x7
I0403 15:09:21.539213 11887 net.cpp:91] Creating Layer conv1/relu_7x7
I0403 15:09:21.539232 11887 net.cpp:425] conv1/relu_7x7 <- conv1/7x7_s2
I0403 15:09:21.539252 11887 net.cpp:386] conv1/relu_7x7 -> conv1/7x7_s2 (in-place)
I0403 15:09:21.539511 11887 net.cpp:141] Setting up conv1/relu_7x7
I0403 15:09:21.539541 11887 net.cpp:148] Top shape: 24 64 112 112 (19267584)
I0403 15:09:21.539556 11887 net.cpp:156] Memory required for data: 168592416
I0403 15:09:21.539572 11887 layer_factory.hpp:77] Creating layer pool1/3x3_s2
I0403 15:09:21.539597 11887 net.cpp:91] Creating Layer pool1/3x3_s2
I0403 15:09:21.539615 11887 net.cpp:425] pool1/3x3_s2 <- conv1/7x7_s2
I0403 15:09:21.539635 11887 net.cpp:399] pool1/3x3_s2 -> pool1/3x3_s2
I0403 15:09:21.539710 11887 net.cpp:141] Setting up pool1/3x3_s2
I0403 15:09:21.539736 11887 net.cpp:148] Top shape: 24 64 56 56 (4816896)
I0403 15:09:21.539751 11887 net.cpp:156] Memory required for data: 187860000
I0403 15:09:21.539767 11887 layer_factory.hpp:77] Creating layer pool1/norm1
I0403 15:09:21.539790 11887 net.cpp:91] Creating Layer pool1/norm1
I0403 15:09:21.539808 11887 net.cpp:425] pool1/norm1 <- pool1/3x3_s2
I0403 15:09:21.539826 11887 net.cpp:399] pool1/norm1 -> pool1/norm1
I0403 15:09:21.540133 11887 net.cpp:141] Setting up pool1/norm1
I0403 15:09:21.540163 11887 net.cpp:148] Top shape: 24 64 56 56 (4816896)
I0403 15:09:21.540179 11887 net.cpp:156] Memory required for data: 207127584
I0403 15:09:21.540196 11887 layer_factory.hpp:77] Creating layer conv2/3x3_reduce
I0403 15:09:21.540221 11887 net.cpp:91] Creating Layer conv2/3x3_reduce
I0403 15:09:21.540240 11887 net.cpp:425] conv2/3x3_reduce <- pool1/norm1
I0403 15:09:21.540258 11887 net.cpp:399] conv2/3x3_reduce -> conv2/3x3_reduce
I0403 15:09:21.541584 11887 net.cpp:141] Setting up conv2/3x3_reduce
I0403 15:09:21.541615 11887 net.cpp:148] Top shape: 24 64 56 56 (4816896)
I0403 15:09:21.541631 11887 net.cpp:156] Memory required for data: 226395168
I0403 15:09:21.541653 11887 layer_factory.hpp:77] Creating layer conv2/relu_3x3_reduce
I0403 15:09:21.541673 11887 net.cpp:91] Creating Layer conv2/relu_3x3_reduce
I0403 15:09:21.541690 11887 net.cpp:425] conv2/relu_3x3_reduce <- conv2/3x3_reduce
I0403 15:09:21.541708 11887 net.cpp:386] conv2/relu_3x3_reduce -> conv2/3x3_reduce (in-place)
I0403 15:09:21.541967 11887 net.cpp:141] Setting up conv2/relu_3x3_reduce
I0403 15:09:21.541996 11887 net.cpp:148] Top shape: 24 64 56 56 (4816896)
I0403 15:09:21.542012 11887 net.cpp:156] Memory required for data: 245662752
I0403 15:09:21.542027 11887 layer_factory.hpp:77] Creating layer conv2/3x3
I0403 15:09:21.542049 11887 net.cpp:91] Creating Layer conv2/3x3
I0403 15:09:21.542068 11887 net.cpp:425] conv2/3x3 <- conv2/3x3_reduce
I0403 15:09:21.542088 11887 net.cpp:399] conv2/3x3 -> conv2/3x3
I0403 15:09:21.544363 11887 net.cpp:141] Setting up conv2/3x3
I0403 15:09:21.544395 11887 net.cpp:148] Top shape: 24 192 56 56 (14450688)
I0403 15:09:21.544411 11887 net.cpp:156] Memory required for data: 303465504
I0403 15:09:21.544432 11887 layer_factory.hpp:77] Creating layer conv2/relu_3x3
I0403 15:09:21.544452 11887 net.cpp:91] Creating Layer conv2/relu_3x3
I0403 15:09:21.544469 11887 net.cpp:425] conv2/relu_3x3 <- conv2/3x3
I0403 15:09:21.544487 11887 net.cpp:386] conv2/relu_3x3 -> conv2/3x3 (in-place)
I0403 15:09:21.544652 11887 net.cpp:141] Setting up conv2/relu_3x3
I0403 15:09:21.544679 11887 net.cpp:148] Top shape: 24 192 56 56 (14450688)
I0403 15:09:21.544726 11887 net.cpp:156] Memory required for data: 361268256
I0403 15:09:21.544744 11887 layer_factory.hpp:77] Creating layer conv2/norm2
I0403 15:09:21.544762 11887 net.cpp:91] Creating Layer conv2/norm2
I0403 15:09:21.544778 11887 net.cpp:425] conv2/norm2 <- conv2/3x3
I0403 15:09:21.544797 11887 net.cpp:399] conv2/norm2 -> conv2/norm2
I0403 15:09:21.545089 11887 net.cpp:141] Setting up conv2/norm2
I0403 15:09:21.545121 11887 net.cpp:148] Top shape: 24 192 56 56 (14450688)
I0403 15:09:21.545137 11887 net.cpp:156] Memory required for data: 419071008
I0403 15:09:21.545153 11887 layer_factory.hpp:77] Creating layer pool2/3x3_s2
I0403 15:09:21.545172 11887 net.cpp:91] Creating Layer pool2/3x3_s2
I0403 15:09:21.545189 11887 net.cpp:425] pool2/3x3_s2 <- conv2/norm2
I0403 15:09:21.545208 11887 net.cpp:399] pool2/3x3_s2 -> pool2/3x3_s2
I0403 15:09:21.545259 11887 net.cpp:141] Setting up pool2/3x3_s2
I0403 15:09:21.545284 11887 net.cpp:148] Top shape: 24 192 28 28 (3612672)
I0403 15:09:21.545298 11887 net.cpp:156] Memory required for data: 433521696
I0403 15:09:21.545313 11887 layer_factory.hpp:77] Creating layer pool2/3x3_s2_pool2/3x3_s2_0_split
I0403 15:09:21.545331 11887 net.cpp:91] Creating Layer pool2/3x3_s2_pool2/3x3_s2_0_split
I0403 15:09:21.545347 11887 net.cpp:425] pool2/3x3_s2_pool2/3x3_s2_0_split <- pool2/3x3_s2
I0403 15:09:21.545366 11887 net.cpp:399] pool2/3x3_s2_pool2/3x3_s2_0_split -> pool2/3x3_s2_pool2/3x3_s2_0_split_0
I0403 15:09:21.545385 11887 net.cpp:399] pool2/3x3_s2_pool2/3x3_s2_0_split -> pool2/3x3_s2_pool2/3x3_s2_0_split_1
I0403 15:09:21.545406 11887 net.cpp:399] pool2/3x3_s2_pool2/3x3_s2_0_split -> pool2/3x3_s2_pool2/3x3_s2_0_split_2
I0403 15:09:21.545428 11887 net.cpp:399] pool2/3x3_s2_pool2/3x3_s2_0_split -> pool2/3x3_s2_pool2/3x3_s2_0_split_3
I0403 15:09:21.545493 11887 net.cpp:141] Setting up pool2/3x3_s2_pool2/3x3_s2_0_split
I0403 15:09:21.545517 11887 net.cpp:148] Top shape: 24 192 28 28 (3612672)
I0403 15:09:21.545533 11887 net.cpp:148] Top shape: 24 192 28 28 (3612672)
I0403 15:09:21.545549 11887 net.cpp:148] Top shape: 24 192 28 28 (3612672)
I0403 15:09:21.545565 11887 net.cpp:148] Top shape: 24 192 28 28 (3612672)
I0403 15:09:21.545579 11887 net.cpp:156] Memory required for data: 491324448
I0403 15:09:21.545594 11887 layer_factory.hpp:77] Creating layer inception_3a/1x1
I0403 15:09:21.545615 11887 net.cpp:91] Creating Layer inception_3a/1x1
I0403 15:09:21.545632 11887 net.cpp:425] inception_3a/1x1 <- pool2/3x3_s2_pool2/3x3_s2_0_split_0
I0403 15:09:21.545651 11887 net.cpp:399] inception_3a/1x1 -> inception_3a/1x1
I0403 15:09:21.547174 11887 net.cpp:141] Setting up inception_3a/1x1
I0403 15:09:21.547207 11887 net.cpp:148] Top shape: 24 64 28 28 (1204224)
I0403 15:09:21.547224 11887 net.cpp:156] Memory required for data: 496141344
I0403 15:09:21.547242 11887 layer_factory.hpp:77] Creating layer inception_3a/relu_1x1
I0403 15:09:21.547265 11887 net.cpp:91] Creating Layer inception_3a/relu_1x1
I0403 15:09:21.547282 11887 net.cpp:425] inception_3a/relu_1x1 <- inception_3a/1x1
I0403 15:09:21.547300 11887 net.cpp:386] inception_3a/relu_1x1 -> inception_3a/1x1 (in-place)
I0403 15:09:21.547480 11887 net.cpp:141] Setting up inception_3a/relu_1x1
I0403 15:09:21.547507 11887 net.cpp:148] Top shape: 24 64 28 28 (1204224)
I0403 15:09:21.547523 11887 net.cpp:156] Memory required for data: 500958240
I0403 15:09:21.547538 11887 layer_factory.hpp:77] Creating layer inception_3a/3x3_reduce
I0403 15:09:21.547560 11887 net.cpp:91] Creating Layer inception_3a/3x3_reduce
I0403 15:09:21.547581 11887 net.cpp:425] inception_3a/3x3_reduce <- pool2/3x3_s2_pool2/3x3_s2_0_split_1
I0403 15:09:21.547601 11887 net.cpp:399] inception_3a/3x3_reduce -> inception_3a/3x3_reduce
I0403 15:09:21.549331 11887 net.cpp:141] Setting up inception_3a/3x3_reduce
I0403 15:09:21.549362 11887 net.cpp:148] Top shape: 24 96 28 28 (1806336)
I0403 15:09:21.549379 11887 net.cpp:156] Memory required for data: 508183584
I0403 15:09:21.549401 11887 layer_factory.hpp:77] Creating layer inception_3a/relu_3x3_reduce
I0403 15:09:21.549440 11887 net.cpp:91] Creating Layer inception_3a/relu_3x3_reduce
I0403 15:09:21.549460 11887 net.cpp:425] inception_3a/relu_3x3_reduce <- inception_3a/3x3_reduce
I0403 15:09:21.549479 11887 net.cpp:386] inception_3a/relu_3x3_reduce -> inception_3a/3x3_reduce (in-place)
I0403 15:09:21.549672 11887 net.cpp:141] Setting up inception_3a/relu_3x3_reduce
I0403 15:09:21.549700 11887 net.cpp:148] Top shape: 24 96 28 28 (1806336)
I0403 15:09:21.549715 11887 net.cpp:156] Memory required for data: 515408928
I0403 15:09:21.549731 11887 layer_factory.hpp:77] Creating layer inception_3a/3x3
I0403 15:09:21.549754 11887 net.cpp:91] Creating Layer inception_3a/3x3
I0403 15:09:21.549772 11887 net.cpp:425] inception_3a/3x3 <- inception_3a/3x3_reduce
I0403 15:09:21.549795 11887 net.cpp:399] inception_3a/3x3 -> inception_3a/3x3
I0403 15:09:21.551497 11887 net.cpp:141] Setting up inception_3a/3x3
I0403 15:09:21.551527 11887 net.cpp:148] Top shape: 24 128 28 28 (2408448)
I0403 15:09:21.551543 11887 net.cpp:156] Memory required for data: 525042720
I0403 15:09:21.551563 11887 layer_factory.hpp:77] Creating layer inception_3a/relu_3x3
I0403 15:09:21.551584 11887 net.cpp:91] Creating Layer inception_3a/relu_3x3
I0403 15:09:21.551600 11887 net.cpp:425] inception_3a/relu_3x3 <- inception_3a/3x3
I0403 15:09:21.551620 11887 net.cpp:386] inception_3a/relu_3x3 -> inception_3a/3x3 (in-place)
I0403 15:09:21.551903 11887 net.cpp:141] Setting up inception_3a/relu_3x3
I0403 15:09:21.551930 11887 net.cpp:148] Top shape: 24 128 28 28 (2408448)
I0403 15:09:21.551946 11887 net.cpp:156] Memory required for data: 534676512
I0403 15:09:21.551962 11887 layer_factory.hpp:77] Creating layer inception_3a/5x5_reduce
I0403 15:09:21.551985 11887 net.cpp:91] Creating Layer inception_3a/5x5_reduce
I0403 15:09:21.552005 11887 net.cpp:425] inception_3a/5x5_reduce <- pool2/3x3_s2_pool2/3x3_s2_0_split_2
I0403 15:09:21.552026 11887 net.cpp:399] inception_3a/5x5_reduce -> inception_3a/5x5_reduce
I0403 15:09:21.553021 11887 net.cpp:141] Setting up inception_3a/5x5_reduce
I0403 15:09:21.553051 11887 net.cpp:148] Top shape: 24 16 28 28 (301056)
I0403 15:09:21.553067 11887 net.cpp:156] Memory required for data: 535880736
I0403 15:09:21.553086 11887 layer_factory.hpp:77] Creating layer inception_3a/relu_5x5_reduce
I0403 15:09:21.553120 11887 net.cpp:91] Creating Layer inception_3a/relu_5x5_reduce
I0403 15:09:21.553139 11887 net.cpp:425] inception_3a/relu_5x5_reduce <- inception_3a/5x5_reduce
I0403 15:09:21.553158 11887 net.cpp:386] inception_3a/relu_5x5_reduce -> inception_3a/5x5_reduce (in-place)
I0403 15:09:21.553462 11887 net.cpp:141] Setting up inception_3a/relu_5x5_reduce
I0403 15:09:21.553493 11887 net.cpp:148] Top shape: 24 16 28 28 (301056)
I0403 15:09:21.553509 11887 net.cpp:156] Memory required for data: 537084960
I0403 15:09:21.553525 11887 layer_factory.hpp:77] Creating layer inception_3a/5x5
I0403 15:09:21.553547 11887 net.cpp:91] Creating Layer inception_3a/5x5
I0403 15:09:21.553566 11887 net.cpp:425] inception_3a/5x5 <- inception_3a/5x5_reduce
I0403 15:09:21.553586 11887 net.cpp:399] inception_3a/5x5 -> inception_3a/5x5
I0403 15:09:21.554638 11887 net.cpp:141] Setting up inception_3a/5x5
I0403 15:09:21.554668 11887 net.cpp:148] Top shape: 24 32 28 28 (602112)
I0403 15:09:21.554685 11887 net.cpp:156] Memory required for data: 539493408
I0403 15:09:21.554704 11887 layer_factory.hpp:77] Creating layer inception_3a/relu_5x5
I0403 15:09:21.554725 11887 net.cpp:91] Creating Layer inception_3a/relu_5x5
I0403 15:09:21.554744 11887 net.cpp:425] inception_3a/relu_5x5 <- inception_3a/5x5
I0403 15:09:21.554762 11887 net.cpp:386] inception_3a/relu_5x5 -> inception_3a/5x5 (in-place)
I0403 15:09:21.554944 11887 net.cpp:141] Setting up inception_3a/relu_5x5
I0403 15:09:21.554970 11887 net.cpp:148] Top shape: 24 32 28 28 (602112)
I0403 15:09:21.554985 11887 net.cpp:156] Memory required for data: 541901856
I0403 15:09:21.554999 11887 layer_factory.hpp:77] Creating layer inception_3a/pool
I0403 15:09:21.555022 11887 net.cpp:91] Creating Layer inception_3a/pool
I0403 15:09:21.555053 11887 net.cpp:425] inception_3a/pool <- pool2/3x3_s2_pool2/3x3_s2_0_split_3
I0403 15:09:21.555073 11887 net.cpp:399] inception_3a/pool -> inception_3a/pool
I0403 15:09:21.555137 11887 net.cpp:141] Setting up inception_3a/pool
I0403 15:09:21.555162 11887 net.cpp:148] Top shape: 24 192 28 28 (3612672)
I0403 15:09:21.555177 11887 net.cpp:156] Memory required for data: 556352544
I0403 15:09:21.555194 11887 layer_factory.hpp:77] Creating layer inception_3a/pool_proj
I0403 15:09:21.555217 11887 net.cpp:91] Creating Layer inception_3a/pool_proj
I0403 15:09:21.555233 11887 net.cpp:425] inception_3a/pool_proj <- inception_3a/pool
I0403 15:09:21.555256 11887 net.cpp:399] inception_3a/pool_proj -> inception_3a/pool_proj
I0403 15:09:21.556246 11887 net.cpp:141] Setting up inception_3a/pool_proj
I0403 15:09:21.556278 11887 net.cpp:148] Top shape: 24 32 28 28 (602112)
I0403 15:09:21.556296 11887 net.cpp:156] Memory required for data: 558760992
I0403 15:09:21.556318 11887 layer_factory.hpp:77] Creating layer inception_3a/relu_pool_proj
I0403 15:09:21.556342 11887 net.cpp:91] Creating Layer inception_3a/relu_pool_proj
I0403 15:09:21.556360 11887 net.cpp:425] inception_3a/relu_pool_proj <- inception_3a/pool_proj
I0403 15:09:21.556377 11887 net.cpp:386] inception_3a/relu_pool_proj -> inception_3a/pool_proj (in-place)
I0403 15:09:21.556660 11887 net.cpp:141] Setting up inception_3a/relu_pool_proj
I0403 15:09:21.556689 11887 net.cpp:148] Top shape: 24 32 28 28 (602112)
I0403 15:09:21.556705 11887 net.cpp:156] Memory required for data: 561169440
I0403 15:09:21.556720 11887 layer_factory.hpp:77] Creating layer inception_3a/output
I0403 15:09:21.556741 11887 net.cpp:91] Creating Layer inception_3a/output
I0403 15:09:21.556757 11887 net.cpp:425] inception_3a/output <- inception_3a/1x1
I0403 15:09:21.556774 11887 net.cpp:425] inception_3a/output <- inception_3a/3x3
I0403 15:09:21.556792 11887 net.cpp:425] inception_3a/output <- inception_3a/5x5
I0403 15:09:21.556808 11887 net.cpp:425] inception_3a/output <- inception_3a/pool_proj
I0403 15:09:21.556825 11887 net.cpp:399] inception_3a/output -> inception_3a/output
I0403 15:09:21.556874 11887 net.cpp:141] Setting up inception_3a/output
I0403 15:09:21.556898 11887 net.cpp:148] Top shape: 24 256 28 28 (4816896)
I0403 15:09:21.556913 11887 net.cpp:156] Memory required for data: 580437024
I0403 15:09:21.556927 11887 layer_factory.hpp:77] Creating layer inception_3a/output_inception_3a/output_0_split
I0403 15:09:21.556946 11887 net.cpp:91] Creating Layer inception_3a/output_inception_3a/output_0_split
I0403 15:09:21.556960 11887 net.cpp:425] inception_3a/output_inception_3a/output_0_split <- inception_3a/output
I0403 15:09:21.556980 11887 net.cpp:399] inception_3a/output_inception_3a/output_0_split -> inception_3a/output_inception_3a/output_0_split_0
I0403 15:09:21.557003 11887 net.cpp:399] inception_3a/output_inception_3a/output_0_split -> inception_3a/output_inception_3a/output_0_split_1
I0403 15:09:21.557025 11887 net.cpp:399] inception_3a/output_inception_3a/output_0_split -> inception_3a/output_inception_3a/output_0_split_2
I0403 15:09:21.557047 11887 net.cpp:399] inception_3a/output_inception_3a/output_0_split -> inception_3a/output_inception_3a/output_0_split_3
I0403 15:09:21.557127 11887 net.cpp:141] Setting up inception_3a/output_inception_3a/output_0_split
I0403 15:09:21.557152 11887 net.cpp:148] Top shape: 24 256 28 28 (4816896)
I0403 15:09:21.557169 11887 net.cpp:148] Top shape: 24 256 28 28 (4816896)
I0403 15:09:21.557185 11887 net.cpp:148] Top shape: 24 256 28 28 (4816896)
I0403 15:09:21.557202 11887 net.cpp:148] Top shape: 24 256 28 28 (4816896)
I0403 15:09:21.557216 11887 net.cpp:156] Memory required for data: 657507360
I0403 15:09:21.557230 11887 layer_factory.hpp:77] Creating layer inception_3b/1x1
I0403 15:09:21.557255 11887 net.cpp:91] Creating Layer inception_3b/1x1
I0403 15:09:21.557272 11887 net.cpp:425] inception_3b/1x1 <- inception_3a/output_inception_3a/output_0_split_0
I0403 15:09:21.557296 11887 net.cpp:399] inception_3b/1x1 -> inception_3b/1x1
I0403 15:09:21.558459 11887 net.cpp:141] Setting up inception_3b/1x1
I0403 15:09:21.558501 11887 net.cpp:148] Top shape: 24 128 28 28 (2408448)
I0403 15:09:21.558517 11887 net.cpp:156] Memory required for data: 667141152
I0403 15:09:21.558537 11887 layer_factory.hpp:77] Creating layer inception_3b/relu_1x1
I0403 15:09:21.558555 11887 net.cpp:91] Creating Layer inception_3b/relu_1x1
I0403 15:09:21.558571 11887 net.cpp:425] inception_3b/relu_1x1 <- inception_3b/1x1
I0403 15:09:21.558593 11887 net.cpp:386] inception_3b/relu_1x1 -> inception_3b/1x1 (in-place)
I0403 15:09:21.558774 11887 net.cpp:141] Setting up inception_3b/relu_1x1
I0403 15:09:21.558801 11887 net.cpp:148] Top shape: 24 128 28 28 (2408448)
I0403 15:09:21.558816 11887 net.cpp:156] Memory required for data: 676774944
I0403 15:09:21.558831 11887 layer_factory.hpp:77] Creating layer inception_3b/3x3_reduce
I0403 15:09:21.558854 11887 net.cpp:91] Creating Layer inception_3b/3x3_reduce
I0403 15:09:21.558873 11887 net.cpp:425] inception_3b/3x3_reduce <- inception_3a/output_inception_3a/output_0_split_1
I0403 15:09:21.558894 11887 net.cpp:399] inception_3b/3x3_reduce -> inception_3b/3x3_reduce
I0403 15:09:21.560056 11887 net.cpp:141] Setting up inception_3b/3x3_reduce
I0403 15:09:21.560086 11887 net.cpp:148] Top shape: 24 128 28 28 (2408448)
I0403 15:09:21.560107 11887 net.cpp:156] Memory required for data: 686408736
I0403 15:09:21.560127 11887 layer_factory.hpp:77] Creating layer inception_3b/relu_3x3_reduce
I0403 15:09:21.560147 11887 net.cpp:91] Creating Layer inception_3b/relu_3x3_reduce
I0403 15:09:21.560166 11887 net.cpp:425] inception_3b/relu_3x3_reduce <- inception_3b/3x3_reduce
I0403 15:09:21.560185 11887 net.cpp:386] inception_3b/relu_3x3_reduce -> inception_3b/3x3_reduce (in-place)
I0403 15:09:21.560366 11887 net.cpp:141] Setting up inception_3b/relu_3x3_reduce
I0403 15:09:21.560394 11887 net.cpp:148] Top shape: 24 128 28 28 (2408448)
I0403 15:09:21.560408 11887 net.cpp:156] Memory required for data: 696042528
I0403 15:09:21.560423 11887 layer_factory.hpp:77] Creating layer inception_3b/3x3
I0403 15:09:21.560451 11887 net.cpp:91] Creating Layer inception_3b/3x3
I0403 15:09:21.560469 11887 net.cpp:425] inception_3b/3x3 <- inception_3b/3x3_reduce
I0403 15:09:21.560489 11887 net.cpp:399] inception_3b/3x3 -> inception_3b/3x3
I0403 15:09:21.563473 11887 net.cpp:141] Setting up inception_3b/3x3
I0403 15:09:21.563503 11887 net.cpp:148] Top shape: 24 192 28 28 (3612672)
I0403 15:09:21.563519 11887 net.cpp:156] Memory required for data: 710493216
I0403 15:09:21.563539 11887 layer_factory.hpp:77] Creating layer inception_3b/relu_3x3
I0403 15:09:21.563560 11887 net.cpp:91] Creating Layer inception_3b/relu_3x3
I0403 15:09:21.563578 11887 net.cpp:425] inception_3b/relu_3x3 <- inception_3b/3x3
I0403 15:09:21.563596 11887 net.cpp:386] inception_3b/relu_3x3 -> inception_3b/3x3 (in-place)
I0403 15:09:21.563884 11887 net.cpp:141] Setting up inception_3b/relu_3x3
I0403 15:09:21.563911 11887 net.cpp:148] Top shape: 24 192 28 28 (3612672)
I0403 15:09:21.563927 11887 net.cpp:156] Memory required for data: 724943904
I0403 15:09:21.563943 11887 layer_factory.hpp:77] Creating layer inception_3b/5x5_reduce
I0403 15:09:21.563966 11887 net.cpp:91] Creating Layer inception_3b/5x5_reduce
I0403 15:09:21.563984 11887 net.cpp:425] inception_3b/5x5_reduce <- inception_3a/output_inception_3a/output_0_split_2
I0403 15:09:21.564007 11887 net.cpp:399] inception_3b/5x5_reduce -> inception_3b/5x5_reduce
I0403 15:09:21.565043 11887 net.cpp:141] Setting up inception_3b/5x5_reduce
I0403 15:09:21.565073 11887 net.cpp:148] Top shape: 24 32 28 28 (602112)
I0403 15:09:21.565089 11887 net.cpp:156] Memory required for data: 727352352
I0403 15:09:21.565114 11887 layer_factory.hpp:77] Creating layer inception_3b/relu_5x5_reduce
I0403 15:09:21.565137 11887 net.cpp:91] Creating Layer inception_3b/relu_5x5_reduce
I0403 15:09:21.565155 11887 net.cpp:425] inception_3b/relu_5x5_reduce <- inception_3b/5x5_reduce
I0403 15:09:21.565173 11887 net.cpp:386] inception_3b/relu_5x5_reduce -> inception_3b/5x5_reduce (in-place)
I0403 15:09:21.565373 11887 net.cpp:141] Setting up inception_3b/relu_5x5_reduce
I0403 15:09:21.565400 11887 net.cpp:148] Top shape: 24 32 28 28 (602112)
I0403 15:09:21.565417 11887 net.cpp:156] Memory required for data: 729760800
I0403 15:09:21.565431 11887 layer_factory.hpp:77] Creating layer inception_3b/5x5
I0403 15:09:21.565456 11887 net.cpp:91] Creating Layer inception_3b/5x5
I0403 15:09:21.565476 11887 net.cpp:425] inception_3b/5x5 <- inception_3b/5x5_reduce
I0403 15:09:21.565495 11887 net.cpp:399] inception_3b/5x5 -> inception_3b/5x5
I0403 15:09:21.567575 11887 net.cpp:141] Setting up inception_3b/5x5
I0403 15:09:21.567606 11887 net.cpp:148] Top shape: 24 96 28 28 (1806336)
I0403 15:09:21.567625 11887 net.cpp:156] Memory required for data: 736986144
I0403 15:09:21.567644 11887 layer_factory.hpp:77] Creating layer inception_3b/relu_5x5
I0403 15:09:21.567664 11887 net.cpp:91] Creating Layer inception_3b/relu_5x5
I0403 15:09:21.567682 11887 net.cpp:425] inception_3b/relu_5x5 <- inception_3b/5x5
I0403 15:09:21.567703 11887 net.cpp:386] inception_3b/relu_5x5 -> inception_3b/5x5 (in-place)
I0403 15:09:21.567912 11887 net.cpp:141] Setting up inception_3b/relu_5x5
I0403 15:09:21.567940 11887 net.cpp:148] Top shape: 24 96 28 28 (1806336)
I0403 15:09:21.567956 11887 net.cpp:156] Memory required for data: 744211488
I0403 15:09:21.567972 11887 layer_factory.hpp:77] Creating layer inception_3b/pool
I0403 15:09:21.567991 11887 net.cpp:91] Creating Layer inception_3b/pool
I0403 15:09:21.568008 11887 net.cpp:425] inception_3b/pool <- inception_3a/output_inception_3a/output_0_split_3
I0403 15:09:21.568028 11887 net.cpp:399] inception_3b/pool -> inception_3b/pool
I0403 15:09:21.568090 11887 net.cpp:141] Setting up inception_3b/pool
I0403 15:09:21.568120 11887 net.cpp:148] Top shape: 24 256 28 28 (4816896)
I0403 15:09:21.568136 11887 net.cpp:156] Memory required for data: 763479072
I0403 15:09:21.568150 11887 layer_factory.hpp:77] Creating layer inception_3b/pool_proj
I0403 15:09:21.568174 11887 net.cpp:91] Creating Layer inception_3b/pool_proj
I0403 15:09:21.568195 11887 net.cpp:425] inception_3b/pool_proj <- inception_3b/pool
I0403 15:09:21.568218 11887 net.cpp:399] inception_3b/pool_proj -> inception_3b/pool_proj
I0403 15:09:21.569342 11887 net.cpp:141] Setting up inception_3b/pool_proj
I0403 15:09:21.569375 11887 net.cpp:148] Top shape: 24 64 28 28 (1204224)
I0403 15:09:21.569392 11887 net.cpp:156] Memory required for data: 768295968
I0403 15:09:21.569411 11887 layer_factory.hpp:77] Creating layer inception_3b/relu_pool_proj
I0403 15:09:21.569430 11887 net.cpp:91] Creating Layer inception_3b/relu_pool_proj
I0403 15:09:21.569448 11887 net.cpp:425] inception_3b/relu_pool_proj <- inception_3b/pool_proj
I0403 15:09:21.569469 11887 net.cpp:386] inception_3b/relu_pool_proj -> inception_3b/pool_proj (in-place)
I0403 15:09:21.569877 11887 net.cpp:141] Setting up inception_3b/relu_pool_proj
I0403 15:09:21.569910 11887 net.cpp:148] Top shape: 24 64 28 28 (1204224)
I0403 15:09:21.569927 11887 net.cpp:156] Memory required for data: 773112864
I0403 15:09:21.569944 11887 layer_factory.hpp:77] Creating layer inception_3b/output
I0403 15:09:21.569962 11887 net.cpp:91] Creating Layer inception_3b/output
I0403 15:09:21.569978 11887 net.cpp:425] inception_3b/output <- inception_3b/1x1
I0403 15:09:21.569998 11887 net.cpp:425] inception_3b/output <- inception_3b/3x3
I0403 15:09:21.570014 11887 net.cpp:425] inception_3b/output <- inception_3b/5x5
I0403 15:09:21.570031 11887 net.cpp:425] inception_3b/output <- inception_3b/pool_proj
I0403 15:09:21.570050 11887 net.cpp:399] inception_3b/output -> inception_3b/output
I0403 15:09:21.570101 11887 net.cpp:141] Setting up inception_3b/output
I0403 15:09:21.570127 11887 net.cpp:148] Top shape: 24 480 28 28 (9031680)
I0403 15:09:21.570142 11887 net.cpp:156] Memory required for data: 809239584
I0403 15:09:21.570158 11887 layer_factory.hpp:77] Creating layer pool3/3x3_s2
I0403 15:09:21.570179 11887 net.cpp:91] Creating Layer pool3/3x3_s2
I0403 15:09:21.570197 11887 net.cpp:425] pool3/3x3_s2 <- inception_3b/output
I0403 15:09:21.570233 11887 net.cpp:399] pool3/3x3_s2 -> pool3/3x3_s2
I0403 15:09:21.570297 11887 net.cpp:141] Setting up pool3/3x3_s2
I0403 15:09:21.570323 11887 net.cpp:148] Top shape: 24 480 14 14 (2257920)
I0403 15:09:21.570339 11887 net.cpp:156] Memory required for data: 818271264
I0403 15:09:21.570355 11887 layer_factory.hpp:77] Creating layer pool3/3x3_s2_pool3/3x3_s2_0_split
I0403 15:09:21.570372 11887 net.cpp:91] Creating Layer pool3/3x3_s2_pool3/3x3_s2_0_split
I0403 15:09:21.570389 11887 net.cpp:425] pool3/3x3_s2_pool3/3x3_s2_0_split <- pool3/3x3_s2
I0403 15:09:21.570410 11887 net.cpp:399] pool3/3x3_s2_pool3/3x3_s2_0_split -> pool3/3x3_s2_pool3/3x3_s2_0_split_0
I0403 15:09:21.570432 11887 net.cpp:399] pool3/3x3_s2_pool3/3x3_s2_0_split -> pool3/3x3_s2_pool3/3x3_s2_0_split_1
I0403 15:09:21.570454 11887 net.cpp:399] pool3/3x3_s2_pool3/3x3_s2_0_split -> pool3/3x3_s2_pool3/3x3_s2_0_split_2
I0403 15:09:21.570474 11887 net.cpp:399] pool3/3x3_s2_pool3/3x3_s2_0_split -> pool3/3x3_s2_pool3/3x3_s2_0_split_3
I0403 15:09:21.570559 11887 net.cpp:141] Setting up pool3/3x3_s2_pool3/3x3_s2_0_split
I0403 15:09:21.570585 11887 net.cpp:148] Top shape: 24 480 14 14 (2257920)
I0403 15:09:21.570601 11887 net.cpp:148] Top shape: 24 480 14 14 (2257920)
I0403 15:09:21.570618 11887 net.cpp:148] Top shape: 24 480 14 14 (2257920)
I0403 15:09:21.570634 11887 net.cpp:148] Top shape: 24 480 14 14 (2257920)
I0403 15:09:21.570649 11887 net.cpp:156] Memory required for data: 854397984
I0403 15:09:21.570663 11887 layer_factory.hpp:77] Creating layer inception_4a/1x1
I0403 15:09:21.570689 11887 net.cpp:91] Creating Layer inception_4a/1x1
I0403 15:09:21.570708 11887 net.cpp:425] inception_4a/1x1 <- pool3/3x3_s2_pool3/3x3_s2_0_split_0
I0403 15:09:21.570729 11887 net.cpp:399] inception_4a/1x1 -> inception_4a/1x1
I0403 15:09:21.572401 11887 net.cpp:141] Setting up inception_4a/1x1
I0403 15:09:21.572433 11887 net.cpp:148] Top shape: 24 192 14 14 (903168)
I0403 15:09:21.572450 11887 net.cpp:156] Memory required for data: 858010656
I0403 15:09:21.572470 11887 layer_factory.hpp:77] Creating layer inception_4a/relu_1x1
I0403 15:09:21.572489 11887 net.cpp:91] Creating Layer inception_4a/relu_1x1
I0403 15:09:21.572506 11887 net.cpp:425] inception_4a/relu_1x1 <- inception_4a/1x1
I0403 15:09:21.572527 11887 net.cpp:386] inception_4a/relu_1x1 -> inception_4a/1x1 (in-place)
I0403 15:09:21.572716 11887 net.cpp:141] Setting up inception_4a/relu_1x1
I0403 15:09:21.572743 11887 net.cpp:148] Top shape: 24 192 14 14 (903168)
I0403 15:09:21.572759 11887 net.cpp:156] Memory required for data: 861623328
I0403 15:09:21.572774 11887 layer_factory.hpp:77] Creating layer inception_4a/3x3_reduce
I0403 15:09:21.572798 11887 net.cpp:91] Creating Layer inception_4a/3x3_reduce
I0403 15:09:21.572818 11887 net.cpp:425] inception_4a/3x3_reduce <- pool3/3x3_s2_pool3/3x3_s2_0_split_1
I0403 15:09:21.572841 11887 net.cpp:399] inception_4a/3x3_reduce -> inception_4a/3x3_reduce
I0403 15:09:21.574201 11887 net.cpp:141] Setting up inception_4a/3x3_reduce
I0403 15:09:21.574234 11887 net.cpp:148] Top shape: 24 96 14 14 (451584)
I0403 15:09:21.574251 11887 net.cpp:156] Memory required for data: 863429664
I0403 15:09:21.574276 11887 layer_factory.hpp:77] Creating layer inception_4a/relu_3x3_reduce
I0403 15:09:21.574300 11887 net.cpp:91] Creating Layer inception_4a/relu_3x3_reduce
I0403 15:09:21.574318 11887 net.cpp:425] inception_4a/relu_3x3_reduce <- inception_4a/3x3_reduce
I0403 15:09:21.574338 11887 net.cpp:386] inception_4a/relu_3x3_reduce -> inception_4a/3x3_reduce (in-place)
I0403 15:09:21.574527 11887 net.cpp:141] Setting up inception_4a/relu_3x3_reduce
I0403 15:09:21.574553 11887 net.cpp:148] Top shape: 24 96 14 14 (451584)
I0403 15:09:21.574569 11887 net.cpp:156] Memory required for data: 865236000
I0403 15:09:21.574584 11887 layer_factory.hpp:77] Creating layer inception_4a/3x3
I0403 15:09:21.574609 11887 net.cpp:91] Creating Layer inception_4a/3x3
I0403 15:09:21.574627 11887 net.cpp:425] inception_4a/3x3 <- inception_4a/3x3_reduce
I0403 15:09:21.574651 11887 net.cpp:399] inception_4a/3x3 -> inception_4a/3x3
I0403 15:09:21.577476 11887 net.cpp:141] Setting up inception_4a/3x3
I0403 15:09:21.577507 11887 net.cpp:148] Top shape: 24 208 14 14 (978432)
I0403 15:09:21.577525 11887 net.cpp:156] Memory required for data: 869149728
I0403 15:09:21.577545 11887 layer_factory.hpp:77] Creating layer inception_4a/relu_3x3
I0403 15:09:21.577567 11887 net.cpp:91] Creating Layer inception_4a/relu_3x3
I0403 15:09:21.577585 11887 net.cpp:425] inception_4a/relu_3x3 <- inception_4a/3x3
I0403 15:09:21.577603 11887 net.cpp:386] inception_4a/relu_3x3 -> inception_4a/3x3 (in-place)
I0403 15:09:21.577900 11887 net.cpp:141] Setting up inception_4a/relu_3x3
I0403 15:09:21.577929 11887 net.cpp:148] Top shape: 24 208 14 14 (978432)
I0403 15:09:21.577946 11887 net.cpp:156] Memory required for data: 873063456
I0403 15:09:21.577962 11887 layer_factory.hpp:77] Creating layer inception_4a/5x5_reduce
I0403 15:09:21.577987 11887 net.cpp:91] Creating Layer inception_4a/5x5_reduce
I0403 15:09:21.578007 11887 net.cpp:425] inception_4a/5x5_reduce <- pool3/3x3_s2_pool3/3x3_s2_0_split_2
I0403 15:09:21.578030 11887 net.cpp:399] inception_4a/5x5_reduce -> inception_4a/5x5_reduce
I0403 15:09:21.579125 11887 net.cpp:141] Setting up inception_4a/5x5_reduce
I0403 15:09:21.579155 11887 net.cpp:148] Top shape: 24 16 14 14 (75264)
I0403 15:09:21.579171 11887 net.cpp:156] Memory required for data: 873364512
I0403 15:09:21.579190 11887 layer_factory.hpp:77] Creating layer inception_4a/relu_5x5_reduce
I0403 15:09:21.579212 11887 net.cpp:91] Creating Layer inception_4a/relu_5x5_reduce
I0403 15:09:21.579231 11887 net.cpp:425] inception_4a/relu_5x5_reduce <- inception_4a/5x5_reduce
I0403 15:09:21.579249 11887 net.cpp:386] inception_4a/relu_5x5_reduce -> inception_4a/5x5_reduce (in-place)
I0403 15:09:21.579443 11887 net.cpp:141] Setting up inception_4a/relu_5x5_reduce
I0403 15:09:21.579471 11887 net.cpp:148] Top shape: 24 16 14 14 (75264)
I0403 15:09:21.579488 11887 net.cpp:156] Memory required for data: 873665568
I0403 15:09:21.579502 11887 layer_factory.hpp:77] Creating layer inception_4a/5x5
I0403 15:09:21.579527 11887 net.cpp:91] Creating Layer inception_4a/5x5
I0403 15:09:21.579546 11887 net.cpp:425] inception_4a/5x5 <- inception_4a/5x5_reduce
I0403 15:09:21.579567 11887 net.cpp:399] inception_4a/5x5 -> inception_4a/5x5
I0403 15:09:21.580718 11887 net.cpp:141] Setting up inception_4a/5x5
I0403 15:09:21.580750 11887 net.cpp:148] Top shape: 24 48 14 14 (225792)
I0403 15:09:21.580767 11887 net.cpp:156] Memory required for data: 874568736
I0403 15:09:21.580787 11887 layer_factory.hpp:77] Creating layer inception_4a/relu_5x5
I0403 15:09:21.580806 11887 net.cpp:91] Creating Layer inception_4a/relu_5x5
I0403 15:09:21.580824 11887 net.cpp:425] inception_4a/relu_5x5 <- inception_4a/5x5
I0403 15:09:21.580843 11887 net.cpp:386] inception_4a/relu_5x5 -> inception_4a/5x5 (in-place)
I0403 15:09:21.581034 11887 net.cpp:141] Setting up inception_4a/relu_5x5
I0403 15:09:21.581065 11887 net.cpp:148] Top shape: 24 48 14 14 (225792)
I0403 15:09:21.581084 11887 net.cpp:156] Memory required for data: 875471904
I0403 15:09:21.581105 11887 layer_factory.hpp:77] Creating layer inception_4a/pool
I0403 15:09:21.581126 11887 net.cpp:91] Creating Layer inception_4a/pool
I0403 15:09:21.581146 11887 net.cpp:425] inception_4a/pool <- pool3/3x3_s2_pool3/3x3_s2_0_split_3
I0403 15:09:21.581168 11887 net.cpp:399] inception_4a/pool -> inception_4a/pool
I0403 15:09:21.581233 11887 net.cpp:141] Setting up inception_4a/pool
I0403 15:09:21.581260 11887 net.cpp:148] Top shape: 24 480 14 14 (2257920)
I0403 15:09:21.581277 11887 net.cpp:156] Memory required for data: 884503584
I0403 15:09:21.581292 11887 layer_factory.hpp:77] Creating layer inception_4a/pool_proj
I0403 15:09:21.581315 11887 net.cpp:91] Creating Layer inception_4a/pool_proj
I0403 15:09:21.581334 11887 net.cpp:425] inception_4a/pool_proj <- inception_4a/pool
I0403 15:09:21.581353 11887 net.cpp:399] inception_4a/pool_proj -> inception_4a/pool_proj
I0403 15:09:21.582581 11887 net.cpp:141] Setting up inception_4a/pool_proj
I0403 15:09:21.582617 11887 net.cpp:148] Top shape: 24 64 14 14 (301056)
I0403 15:09:21.582649 11887 net.cpp:156] Memory required for data: 885707808
I0403 15:09:21.582670 11887 layer_factory.hpp:77] Creating layer inception_4a/relu_pool_proj
I0403 15:09:21.582690 11887 net.cpp:91] Creating Layer inception_4a/relu_pool_proj
I0403 15:09:21.582707 11887 net.cpp:425] inception_4a/relu_pool_proj <- inception_4a/pool_proj
I0403 15:09:21.582726 11887 net.cpp:386] inception_4a/relu_pool_proj -> inception_4a/pool_proj (in-place)
I0403 15:09:21.583024 11887 net.cpp:141] Setting up inception_4a/relu_pool_proj
I0403 15:09:21.583057 11887 net.cpp:148] Top shape: 24 64 14 14 (301056)
I0403 15:09:21.583076 11887 net.cpp:156] Memory required for data: 886912032
I0403 15:09:21.583091 11887 layer_factory.hpp:77] Creating layer inception_4a/output
I0403 15:09:21.583123 11887 net.cpp:91] Creating Layer inception_4a/output
I0403 15:09:21.583142 11887 net.cpp:425] inception_4a/output <- inception_4a/1x1
I0403 15:09:21.583160 11887 net.cpp:425] inception_4a/output <- inception_4a/3x3
I0403 15:09:21.583178 11887 net.cpp:425] inception_4a/output <- inception_4a/5x5
I0403 15:09:21.583194 11887 net.cpp:425] inception_4a/output <- inception_4a/pool_proj
I0403 15:09:21.583214 11887 net.cpp:399] inception_4a/output -> inception_4a/output
I0403 15:09:21.583261 11887 net.cpp:141] Setting up inception_4a/output
I0403 15:09:21.583287 11887 net.cpp:148] Top shape: 24 512 14 14 (2408448)
I0403 15:09:21.583302 11887 net.cpp:156] Memory required for data: 896545824
I0403 15:09:21.583317 11887 layer_factory.hpp:77] Creating layer inception_4a/output_inception_4a/output_0_split
I0403 15:09:21.583338 11887 net.cpp:91] Creating Layer inception_4a/output_inception_4a/output_0_split
I0403 15:09:21.583358 11887 net.cpp:425] inception_4a/output_inception_4a/output_0_split <- inception_4a/output
I0403 15:09:21.583376 11887 net.cpp:399] inception_4a/output_inception_4a/output_0_split -> inception_4a/output_inception_4a/output_0_split_0
I0403 15:09:21.583397 11887 net.cpp:399] inception_4a/output_inception_4a/output_0_split -> inception_4a/output_inception_4a/output_0_split_1
I0403 15:09:21.583420 11887 net.cpp:399] inception_4a/output_inception_4a/output_0_split -> inception_4a/output_inception_4a/output_0_split_2
I0403 15:09:21.583444 11887 net.cpp:399] inception_4a/output_inception_4a/output_0_split -> inception_4a/output_inception_4a/output_0_split_3
I0403 15:09:21.583466 11887 net.cpp:399] inception_4a/output_inception_4a/output_0_split -> inception_4a/output_inception_4a/output_0_split_4
I0403 15:09:21.583564 11887 net.cpp:141] Setting up inception_4a/output_inception_4a/output_0_split
I0403 15:09:21.583590 11887 net.cpp:148] Top shape: 24 512 14 14 (2408448)
I0403 15:09:21.583606 11887 net.cpp:148] Top shape: 24 512 14 14 (2408448)
I0403 15:09:21.583622 11887 net.cpp:148] Top shape: 24 512 14 14 (2408448)
I0403 15:09:21.583639 11887 net.cpp:148] Top shape: 24 512 14 14 (2408448)
I0403 15:09:21.583655 11887 net.cpp:148] Top shape: 24 512 14 14 (2408448)
I0403 15:09:21.583670 11887 net.cpp:156] Memory required for data: 944714784
I0403 15:09:21.583685 11887 layer_factory.hpp:77] Creating layer loss1/ave_pool
I0403 15:09:21.583706 11887 net.cpp:91] Creating Layer loss1/ave_pool
I0403 15:09:21.583725 11887 net.cpp:425] loss1/ave_pool <- inception_4a/output_inception_4a/output_0_split_0
I0403 15:09:21.583745 11887 net.cpp:399] loss1/ave_pool -> loss1/ave_pool
I0403 15:09:21.583966 11887 net.cpp:141] Setting up loss1/ave_pool
I0403 15:09:21.583997 11887 net.cpp:148] Top shape: 24 512 4 4 (196608)
I0403 15:09:21.584014 11887 net.cpp:156] Memory required for data: 945501216
I0403 15:09:21.584031 11887 layer_factory.hpp:77] Creating layer loss1/conv
I0403 15:09:21.584054 11887 net.cpp:91] Creating Layer loss1/conv
I0403 15:09:21.584074 11887 net.cpp:425] loss1/conv <- loss1/ave_pool
I0403 15:09:21.584097 11887 net.cpp:399] loss1/conv -> loss1/conv
I0403 15:09:21.585602 11887 net.cpp:141] Setting up loss1/conv
I0403 15:09:21.585633 11887 net.cpp:148] Top shape: 24 128 4 4 (49152)
I0403 15:09:21.585664 11887 net.cpp:156] Memory required for data: 945697824
I0403 15:09:21.585685 11887 layer_factory.hpp:77] Creating layer loss1/relu_conv
I0403 15:09:21.585705 11887 net.cpp:91] Creating Layer loss1/relu_conv
I0403 15:09:21.585723 11887 net.cpp:425] loss1/relu_conv <- loss1/conv
I0403 15:09:21.585742 11887 net.cpp:386] loss1/relu_conv -> loss1/conv (in-place)
I0403 15:09:21.586043 11887 net.cpp:141] Setting up loss1/relu_conv
I0403 15:09:21.586071 11887 net.cpp:148] Top shape: 24 128 4 4 (49152)
I0403 15:09:21.586088 11887 net.cpp:156] Memory required for data: 945894432
I0403 15:09:21.586110 11887 layer_factory.hpp:77] Creating layer loss1/fc
I0403 15:09:21.586161 11887 net.cpp:91] Creating Layer loss1/fc
I0403 15:09:21.586181 11887 net.cpp:425] loss1/fc <- loss1/conv
I0403 15:09:21.586200 11887 net.cpp:399] loss1/fc -> loss1/fc
I0403 15:09:21.604387 11887 net.cpp:141] Setting up loss1/fc
I0403 15:09:21.604425 11887 net.cpp:148] Top shape: 24 1024 (24576)
I0403 15:09:21.604441 11887 net.cpp:156] Memory required for data: 945992736
I0403 15:09:21.604460 11887 layer_factory.hpp:77] Creating layer loss1/relu_fc
I0403 15:09:21.604480 11887 net.cpp:91] Creating Layer loss1/relu_fc
I0403 15:09:21.604496 11887 net.cpp:425] loss1/relu_fc <- loss1/fc
I0403 15:09:21.604517 11887 net.cpp:386] loss1/relu_fc -> loss1/fc (in-place)
I0403 15:09:21.604722 11887 net.cpp:141] Setting up loss1/relu_fc
I0403 15:09:21.604748 11887 net.cpp:148] Top shape: 24 1024 (24576)
I0403 15:09:21.604763 11887 net.cpp:156] Memory required for data: 946091040
I0403 15:09:21.604779 11887 layer_factory.hpp:77] Creating layer loss1/drop_fc
I0403 15:09:21.604806 11887 net.cpp:91] Creating Layer loss1/drop_fc
I0403 15:09:21.604825 11887 net.cpp:425] loss1/drop_fc <- loss1/fc
I0403 15:09:21.604846 11887 net.cpp:386] loss1/drop_fc -> loss1/fc (in-place)
I0403 15:09:21.604900 11887 net.cpp:141] Setting up loss1/drop_fc
I0403 15:09:21.604924 11887 net.cpp:148] Top shape: 24 1024 (24576)
I0403 15:09:21.604940 11887 net.cpp:156] Memory required for data: 946189344
I0403 15:09:21.604955 11887 layer_factory.hpp:77] Creating layer loss1/classifier_plantvillage
I0403 15:09:21.604979 11887 net.cpp:91] Creating Layer loss1/classifier_plantvillage
I0403 15:09:21.604998 11887 net.cpp:425] loss1/classifier_plantvillage <- loss1/fc
I0403 15:09:21.605020 11887 net.cpp:399] loss1/classifier_plantvillage -> loss1/classifier_plantvillage
I0403 15:09:21.605947 11887 net.cpp:141] Setting up loss1/classifier_plantvillage
I0403 15:09:21.605978 11887 net.cpp:148] Top shape: 24 38 (912)
I0403 15:09:21.605996 11887 net.cpp:156] Memory required for data: 946192992
I0403 15:09:21.606016 11887 layer_factory.hpp:77] Creating layer loss1/classifier_plantvillage_loss1/classifier_plantvillage_0_split
I0403 15:09:21.606034 11887 net.cpp:91] Creating Layer loss1/classifier_plantvillage_loss1/classifier_plantvillage_0_split
I0403 15:09:21.606051 11887 net.cpp:425] loss1/classifier_plantvillage_loss1/classifier_plantvillage_0_split <- loss1/classifier_plantvillage
I0403 15:09:21.606071 11887 net.cpp:399] loss1/classifier_plantvillage_loss1/classifier_plantvillage_0_split -> loss1/classifier_plantvillage_loss1/classifier_plantvillage_0_split_0
I0403 15:09:21.606098 11887 net.cpp:399] loss1/classifier_plantvillage_loss1/classifier_plantvillage_0_split -> loss1/classifier_plantvillage_loss1/classifier_plantvillage_0_split_1
I0403 15:09:21.606123 11887 net.cpp:399] loss1/classifier_plantvillage_loss1/classifier_plantvillage_0_split -> loss1/classifier_plantvillage_loss1/classifier_plantvillage_0_split_2
I0403 15:09:21.606194 11887 net.cpp:141] Setting up loss1/classifier_plantvillage_loss1/classifier_plantvillage_0_split
I0403 15:09:21.606220 11887 net.cpp:148] Top shape: 24 38 (912)
I0403 15:09:21.606238 11887 net.cpp:148] Top shape: 24 38 (912)
I0403 15:09:21.606254 11887 net.cpp:148] Top shape: 24 38 (912)
I0403 15:09:21.606269 11887 net.cpp:156] Memory required for data: 946203936
I0403 15:09:21.606283 11887 layer_factory.hpp:77] Creating layer inception_4b/1x1
I0403 15:09:21.606304 11887 net.cpp:91] Creating Layer inception_4b/1x1
I0403 15:09:21.606341 11887 net.cpp:425] inception_4b/1x1 <- inception_4a/output_inception_4a/output_0_split_1
I0403 15:09:21.606364 11887 net.cpp:399] inception_4b/1x1 -> inception_4b/1x1
I0403 15:09:21.608068 11887 net.cpp:141] Setting up inception_4b/1x1
I0403 15:09:21.608103 11887 net.cpp:148] Top shape: 24 160 14 14 (752640)
I0403 15:09:21.608120 11887 net.cpp:156] Memory required for data: 949214496
I0403 15:09:21.608139 11887 layer_factory.hpp:77] Creating layer inception_4b/relu_1x1
I0403 15:09:21.608160 11887 net.cpp:91] Creating Layer inception_4b/relu_1x1
I0403 15:09:21.608177 11887 net.cpp:425] inception_4b/relu_1x1 <- inception_4b/1x1
I0403 15:09:21.608196 11887 net.cpp:386] inception_4b/relu_1x1 -> inception_4b/1x1 (in-place)
I0403 15:09:21.608383 11887 net.cpp:141] Setting up inception_4b/relu_1x1
I0403 15:09:21.608410 11887 net.cpp:148] Top shape: 24 160 14 14 (752640)
I0403 15:09:21.608427 11887 net.cpp:156] Memory required for data: 952225056
I0403 15:09:21.608443 11887 layer_factory.hpp:77] Creating layer inception_4b/3x3_reduce
I0403 15:09:21.608466 11887 net.cpp:91] Creating Layer inception_4b/3x3_reduce
I0403 15:09:21.608486 11887 net.cpp:425] inception_4b/3x3_reduce <- inception_4a/output_inception_4a/output_0_split_2
I0403 15:09:21.608506 11887 net.cpp:399] inception_4b/3x3_reduce -> inception_4b/3x3_reduce
I0403 15:09:21.609900 11887 net.cpp:141] Setting up inception_4b/3x3_reduce
I0403 15:09:21.609930 11887 net.cpp:148] Top shape: 24 112 14 14 (526848)
I0403 15:09:21.609946 11887 net.cpp:156] Memory required for data: 954332448
I0403 15:09:21.609966 11887 layer_factory.hpp:77] Creating layer inception_4b/relu_3x3_reduce
I0403 15:09:21.609987 11887 net.cpp:91] Creating Layer inception_4b/relu_3x3_reduce
I0403 15:09:21.610008 11887 net.cpp:425] inception_4b/relu_3x3_reduce <- inception_4b/3x3_reduce
I0403 15:09:21.610028 11887 net.cpp:386] inception_4b/relu_3x3_reduce -> inception_4b/3x3_reduce (in-place)
I0403 15:09:21.610327 11887 net.cpp:141] Setting up inception_4b/relu_3x3_reduce
I0403 15:09:21.610354 11887 net.cpp:148] Top shape: 24 112 14 14 (526848)
I0403 15:09:21.610370 11887 net.cpp:156] Memory required for data: 956439840
I0403 15:09:21.610385 11887 layer_factory.hpp:77] Creating layer inception_4b/3x3
I0403 15:09:21.610409 11887 net.cpp:91] Creating Layer inception_4b/3x3
I0403 15:09:21.610430 11887 net.cpp:425] inception_4b/3x3 <- inception_4b/3x3_reduce
I0403 15:09:21.610448 11887 net.cpp:399] inception_4b/3x3 -> inception_4b/3x3
I0403 15:09:21.613525 11887 net.cpp:141] Setting up inception_4b/3x3
I0403 15:09:21.613559 11887 net.cpp:148] Top shape: 24 224 14 14 (1053696)
I0403 15:09:21.613577 11887 net.cpp:156] Memory required for data: 960654624
I0403 15:09:21.613597 11887 layer_factory.hpp:77] Creating layer inception_4b/relu_3x3
I0403 15:09:21.613615 11887 net.cpp:91] Creating Layer inception_4b/relu_3x3
I0403 15:09:21.613631 11887 net.cpp:425] inception_4b/relu_3x3 <- inception_4b/3x3
I0403 15:09:21.613652 11887 net.cpp:386] inception_4b/relu_3x3 -> inception_4b/3x3 (in-place)
I0403 15:09:21.613843 11887 net.cpp:141] Setting up inception_4b/relu_3x3
I0403 15:09:21.613869 11887 net.cpp:148] Top shape: 24 224 14 14 (1053696)
I0403 15:09:21.613885 11887 net.cpp:156] Memory required for data: 964869408
I0403 15:09:21.613901 11887 layer_factory.hpp:77] Creating layer inception_4b/5x5_reduce
I0403 15:09:21.613924 11887 net.cpp:91] Creating Layer inception_4b/5x5_reduce
I0403 15:09:21.613945 11887 net.cpp:425] inception_4b/5x5_reduce <- inception_4a/output_inception_4a/output_0_split_3
I0403 15:09:21.613967 11887 net.cpp:399] inception_4b/5x5_reduce -> inception_4b/5x5_reduce
I0403 15:09:21.615089 11887 net.cpp:141] Setting up inception_4b/5x5_reduce
I0403 15:09:21.615123 11887 net.cpp:148] Top shape: 24 24 14 14 (112896)
I0403 15:09:21.615140 11887 net.cpp:156] Memory required for data: 965320992
I0403 15:09:21.615159 11887 layer_factory.hpp:77] Creating layer inception_4b/relu_5x5_reduce
I0403 15:09:21.615181 11887 net.cpp:91] Creating Layer inception_4b/relu_5x5_reduce
I0403 15:09:21.615214 11887 net.cpp:425] inception_4b/relu_5x5_reduce <- inception_4b/5x5_reduce
I0403 15:09:21.615236 11887 net.cpp:386] inception_4b/relu_5x5_reduce -> inception_4b/5x5_reduce (in-place)
I0403 15:09:21.615429 11887 net.cpp:141] Setting up inception_4b/relu_5x5_reduce
I0403 15:09:21.615458 11887 net.cpp:148] Top shape: 24 24 14 14 (112896)
I0403 15:09:21.615474 11887 net.cpp:156] Memory required for data: 965772576
I0403 15:09:21.615490 11887 layer_factory.hpp:77] Creating layer inception_4b/5x5
I0403 15:09:21.615514 11887 net.cpp:91] Creating Layer inception_4b/5x5
I0403 15:09:21.615537 11887 net.cpp:425] inception_4b/5x5 <- inception_4b/5x5_reduce
I0403 15:09:21.615559 11887 net.cpp:399] inception_4b/5x5 -> inception_4b/5x5
I0403 15:09:21.616823 11887 net.cpp:141] Setting up inception_4b/5x5
I0403 15:09:21.616852 11887 net.cpp:148] Top shape: 24 64 14 14 (301056)
I0403 15:09:21.616868 11887 net.cpp:156] Memory required for data: 966976800
I0403 15:09:21.616884 11887 layer_factory.hpp:77] Creating layer inception_4b/relu_5x5
I0403 15:09:21.616904 11887 net.cpp:91] Creating Layer inception_4b/relu_5x5
I0403 15:09:21.616922 11887 net.cpp:425] inception_4b/relu_5x5 <- inception_4b/5x5
I0403 15:09:21.616940 11887 net.cpp:386] inception_4b/relu_5x5 -> inception_4b/5x5 (in-place)
I0403 15:09:21.617254 11887 net.cpp:141] Setting up inception_4b/relu_5x5
I0403 15:09:21.617280 11887 net.cpp:148] Top shape: 24 64 14 14 (301056)
I0403 15:09:21.617296 11887 net.cpp:156] Memory required for data: 968181024
I0403 15:09:21.617311 11887 layer_factory.hpp:77] Creating layer inception_4b/pool
I0403 15:09:21.617332 11887 net.cpp:91] Creating Layer inception_4b/pool
I0403 15:09:21.617352 11887 net.cpp:425] inception_4b/pool <- inception_4a/output_inception_4a/output_0_split_4
I0403 15:09:21.617372 11887 net.cpp:399] inception_4b/pool -> inception_4b/pool
I0403 15:09:21.617445 11887 net.cpp:141] Setting up inception_4b/pool
I0403 15:09:21.617470 11887 net.cpp:148] Top shape: 24 512 14 14 (2408448)
I0403 15:09:21.617486 11887 net.cpp:156] Memory required for data: 977814816
I0403 15:09:21.617501 11887 layer_factory.hpp:77] Creating layer inception_4b/pool_proj
I0403 15:09:21.617523 11887 net.cpp:91] Creating Layer inception_4b/pool_proj
I0403 15:09:21.617542 11887 net.cpp:425] inception_4b/pool_proj <- inception_4b/pool
I0403 15:09:21.617564 11887 net.cpp:399] inception_4b/pool_proj -> inception_4b/pool_proj
I0403 15:09:21.618808 11887 net.cpp:141] Setting up inception_4b/pool_proj
I0403 15:09:21.618837 11887 net.cpp:148] Top shape: 24 64 14 14 (301056)
I0403 15:09:21.618854 11887 net.cpp:156] Memory required for data: 979019040
I0403 15:09:21.618873 11887 layer_factory.hpp:77] Creating layer inception_4b/relu_pool_proj
I0403 15:09:21.618894 11887 net.cpp:91] Creating Layer inception_4b/relu_pool_proj
I0403 15:09:21.618912 11887 net.cpp:425] inception_4b/relu_pool_proj <- inception_4b/pool_proj
I0403 15:09:21.618932 11887 net.cpp:386] inception_4b/relu_pool_proj -> inception_4b/pool_proj (in-place)
I0403 15:09:21.619127 11887 net.cpp:141] Setting up inception_4b/relu_pool_proj
I0403 15:09:21.619159 11887 net.cpp:148] Top shape: 24 64 14 14 (301056)
I0403 15:09:21.619175 11887 net.cpp:156] Memory required for data: 980223264
I0403 15:09:21.619192 11887 layer_factory.hpp:77] Creating layer inception_4b/output
I0403 15:09:21.619210 11887 net.cpp:91] Creating Layer inception_4b/output
I0403 15:09:21.619226 11887 net.cpp:425] inception_4b/output <- inception_4b/1x1
I0403 15:09:21.619243 11887 net.cpp:425] inception_4b/output <- inception_4b/3x3
I0403 15:09:21.619259 11887 net.cpp:425] inception_4b/output <- inception_4b/5x5
I0403 15:09:21.619277 11887 net.cpp:425] inception_4b/output <- inception_4b/pool_proj
I0403 15:09:21.619293 11887 net.cpp:399] inception_4b/output -> inception_4b/output
I0403 15:09:21.619343 11887 net.cpp:141] Setting up inception_4b/output
I0403 15:09:21.619376 11887 net.cpp:148] Top shape: 24 512 14 14 (2408448)
I0403 15:09:21.619391 11887 net.cpp:156] Memory required for data: 989857056
I0403 15:09:21.619421 11887 layer_factory.hpp:77] Creating layer inception_4b/output_inception_4b/output_0_split
I0403 15:09:21.619441 11887 net.cpp:91] Creating Layer inception_4b/output_inception_4b/output_0_split
I0403 15:09:21.619457 11887 net.cpp:425] inception_4b/output_inception_4b/output_0_split <- inception_4b/output
I0403 15:09:21.619478 11887 net.cpp:399] inception_4b/output_inception_4b/output_0_split -> inception_4b/output_inception_4b/output_0_split_0
I0403 15:09:21.619501 11887 net.cpp:399] inception_4b/output_inception_4b/output_0_split -> inception_4b/output_inception_4b/output_0_split_1
I0403 15:09:21.619523 11887 net.cpp:399] inception_4b/output_inception_4b/output_0_split -> inception_4b/output_inception_4b/output_0_split_2
I0403 15:09:21.619546 11887 net.cpp:399] inception_4b/output_inception_4b/output_0_split -> inception_4b/output_inception_4b/output_0_split_3
I0403 15:09:21.619645 11887 net.cpp:141] Setting up inception_4b/output_inception_4b/output_0_split
I0403 15:09:21.619670 11887 net.cpp:148] Top shape: 24 512 14 14 (2408448)
I0403 15:09:21.619688 11887 net.cpp:148] Top shape: 24 512 14 14 (2408448)
I0403 15:09:21.619702 11887 net.cpp:148] Top shape: 24 512 14 14 (2408448)
I0403 15:09:21.619717 11887 net.cpp:148] Top shape: 24 512 14 14 (2408448)
I0403 15:09:21.619731 11887 net.cpp:156] Memory required for data: 1028392224
I0403 15:09:21.619746 11887 layer_factory.hpp:77] Creating layer inception_4c/1x1
I0403 15:09:21.619768 11887 net.cpp:91] Creating Layer inception_4c/1x1
I0403 15:09:21.619787 11887 net.cpp:425] inception_4c/1x1 <- inception_4b/output_inception_4b/output_0_split_0
I0403 15:09:21.619809 11887 net.cpp:399] inception_4c/1x1 -> inception_4c/1x1
I0403 15:09:21.621304 11887 net.cpp:141] Setting up inception_4c/1x1
I0403 15:09:21.621335 11887 net.cpp:148] Top shape: 24 128 14 14 (602112)
I0403 15:09:21.621352 11887 net.cpp:156] Memory required for data: 1030800672
I0403 15:09:21.621372 11887 layer_factory.hpp:77] Creating layer inception_4c/relu_1x1
I0403 15:09:21.621398 11887 net.cpp:91] Creating Layer inception_4c/relu_1x1
I0403 15:09:21.621415 11887 net.cpp:425] inception_4c/relu_1x1 <- inception_4c/1x1
I0403 15:09:21.621436 11887 net.cpp:386] inception_4c/relu_1x1 -> inception_4c/1x1 (in-place)
I0403 15:09:21.621628 11887 net.cpp:141] Setting up inception_4c/relu_1x1
I0403 15:09:21.621654 11887 net.cpp:148] Top shape: 24 128 14 14 (602112)
I0403 15:09:21.621670 11887 net.cpp:156] Memory required for data: 1033209120
I0403 15:09:21.621685 11887 layer_factory.hpp:77] Creating layer inception_4c/3x3_reduce
I0403 15:09:21.621706 11887 net.cpp:91] Creating Layer inception_4c/3x3_reduce
I0403 15:09:21.621726 11887 net.cpp:425] inception_4c/3x3_reduce <- inception_4b/output_inception_4b/output_0_split_1
I0403 15:09:21.621747 11887 net.cpp:399] inception_4c/3x3_reduce -> inception_4c/3x3_reduce
I0403 15:09:21.623770 11887 net.cpp:141] Setting up inception_4c/3x3_reduce
I0403 15:09:21.623801 11887 net.cpp:148] Top shape: 24 128 14 14 (602112)
I0403 15:09:21.623816 11887 net.cpp:156] Memory required for data: 1035617568
I0403 15:09:21.623836 11887 layer_factory.hpp:77] Creating layer inception_4c/relu_3x3_reduce
I0403 15:09:21.623854 11887 net.cpp:91] Creating Layer inception_4c/relu_3x3_reduce
I0403 15:09:21.623872 11887 net.cpp:425] inception_4c/relu_3x3_reduce <- inception_4c/3x3_reduce
I0403 15:09:21.623891 11887 net.cpp:386] inception_4c/relu_3x3_reduce -> inception_4c/3x3_reduce (in-place)
I0403 15:09:21.624199 11887 net.cpp:141] Setting up inception_4c/relu_3x3_reduce
I0403 15:09:21.624228 11887 net.cpp:148] Top shape: 24 128 14 14 (602112)
I0403 15:09:21.624243 11887 net.cpp:156] Memory required for data: 1038026016
I0403 15:09:21.624259 11887 layer_factory.hpp:77] Creating layer inception_4c/3x3
I0403 15:09:21.624284 11887 net.cpp:91] Creating Layer inception_4c/3x3
I0403 15:09:21.624303 11887 net.cpp:425] inception_4c/3x3 <- inception_4c/3x3_reduce
I0403 15:09:21.624325 11887 net.cpp:399] inception_4c/3x3 -> inception_4c/3x3
I0403 15:09:21.628033 11887 net.cpp:141] Setting up inception_4c/3x3
I0403 15:09:21.628077 11887 net.cpp:148] Top shape: 24 256 14 14 (1204224)
I0403 15:09:21.628098 11887 net.cpp:156] Memory required for data: 1042842912
I0403 15:09:21.628132 11887 layer_factory.hpp:77] Creating layer inception_4c/relu_3x3
I0403 15:09:21.628159 11887 net.cpp:91] Creating Layer inception_4c/relu_3x3
I0403 15:09:21.628177 11887 net.cpp:425] inception_4c/relu_3x3 <- inception_4c/3x3
I0403 15:09:21.628196 11887 net.cpp:386] inception_4c/relu_3x3 -> inception_4c/3x3 (in-place)
I0403 15:09:21.628389 11887 net.cpp:141] Setting up inception_4c/relu_3x3
I0403 15:09:21.628415 11887 net.cpp:148] Top shape: 24 256 14 14 (1204224)
I0403 15:09:21.628430 11887 net.cpp:156] Memory required for data: 1047659808
I0403 15:09:21.628446 11887 layer_factory.hpp:77] Creating layer inception_4c/5x5_reduce
I0403 15:09:21.628469 11887 net.cpp:91] Creating Layer inception_4c/5x5_reduce
I0403 15:09:21.628489 11887 net.cpp:425] inception_4c/5x5_reduce <- inception_4b/output_inception_4b/output_0_split_2
I0403 15:09:21.628514 11887 net.cpp:399] inception_4c/5x5_reduce -> inception_4c/5x5_reduce
I0403 15:09:21.629642 11887 net.cpp:141] Setting up inception_4c/5x5_reduce
I0403 15:09:21.629672 11887 net.cpp:148] Top shape: 24 24 14 14 (112896)
I0403 15:09:21.629688 11887 net.cpp:156] Memory required for data: 1048111392
I0403 15:09:21.629708 11887 layer_factory.hpp:77] Creating layer inception_4c/relu_5x5_reduce
I0403 15:09:21.629729 11887 net.cpp:91] Creating Layer inception_4c/relu_5x5_reduce
I0403 15:09:21.629746 11887 net.cpp:425] inception_4c/relu_5x5_reduce <- inception_4c/5x5_reduce
I0403 15:09:21.629763 11887 net.cpp:386] inception_4c/relu_5x5_reduce -> inception_4c/5x5_reduce (in-place)
I0403 15:09:21.629954 11887 net.cpp:141] Setting up inception_4c/relu_5x5_reduce
I0403 15:09:21.629983 11887 net.cpp:148] Top shape: 24 24 14 14 (112896)
I0403 15:09:21.630000 11887 net.cpp:156] Memory required for data: 1048562976
I0403 15:09:21.630017 11887 layer_factory.hpp:77] Creating layer inception_4c/5x5
I0403 15:09:21.630039 11887 net.cpp:91] Creating Layer inception_4c/5x5
I0403 15:09:21.630059 11887 net.cpp:425] inception_4c/5x5 <- inception_4c/5x5_reduce
I0403 15:09:21.630079 11887 net.cpp:399] inception_4c/5x5 -> inception_4c/5x5
I0403 15:09:21.631377 11887 net.cpp:141] Setting up inception_4c/5x5
I0403 15:09:21.631407 11887 net.cpp:148] Top shape: 24 64 14 14 (301056)
I0403 15:09:21.631422 11887 net.cpp:156] Memory required for data: 1049767200
I0403 15:09:21.631441 11887 layer_factory.hpp:77] Creating layer inception_4c/relu_5x5
I0403 15:09:21.631465 11887 net.cpp:91] Creating Layer inception_4c/relu_5x5
I0403 15:09:21.631484 11887 net.cpp:425] inception_4c/relu_5x5 <- inception_4c/5x5
I0403 15:09:21.631502 11887 net.cpp:386] inception_4c/relu_5x5 -> inception_4c/5x5 (in-place)
I0403 15:09:21.631801 11887 net.cpp:141] Setting up inception_4c/relu_5x5
I0403 15:09:21.631829 11887 net.cpp:148] Top shape: 24 64 14 14 (301056)
I0403 15:09:21.631845 11887 net.cpp:156] Memory required for data: 1050971424
I0403 15:09:21.631861 11887 layer_factory.hpp:77] Creating layer inception_4c/pool
I0403 15:09:21.631881 11887 net.cpp:91] Creating Layer inception_4c/pool
I0403 15:09:21.631901 11887 net.cpp:425] inception_4c/pool <- inception_4b/output_inception_4b/output_0_split_3
I0403 15:09:21.631922 11887 net.cpp:399] inception_4c/pool -> inception_4c/pool
I0403 15:09:21.631990 11887 net.cpp:141] Setting up inception_4c/pool
I0403 15:09:21.632016 11887 net.cpp:148] Top shape: 24 512 14 14 (2408448)
I0403 15:09:21.632032 11887 net.cpp:156] Memory required for data: 1060605216
I0403 15:09:21.632046 11887 layer_factory.hpp:77] Creating layer inception_4c/pool_proj
I0403 15:09:21.632069 11887 net.cpp:91] Creating Layer inception_4c/pool_proj
I0403 15:09:21.632087 11887 net.cpp:425] inception_4c/pool_proj <- inception_4c/pool
I0403 15:09:21.632115 11887 net.cpp:399] inception_4c/pool_proj -> inception_4c/pool_proj
I0403 15:09:21.633385 11887 net.cpp:141] Setting up inception_4c/pool_proj
I0403 15:09:21.633414 11887 net.cpp:148] Top shape: 24 64 14 14 (301056)
I0403 15:09:21.633445 11887 net.cpp:156] Memory required for data: 1061809440
I0403 15:09:21.633466 11887 layer_factory.hpp:77] Creating layer inception_4c/relu_pool_proj
I0403 15:09:21.633488 11887 net.cpp:91] Creating Layer inception_4c/relu_pool_proj
I0403 15:09:21.633507 11887 net.cpp:425] inception_4c/relu_pool_proj <- inception_4c/pool_proj
I0403 15:09:21.633525 11887 net.cpp:386] inception_4c/relu_pool_proj -> inception_4c/pool_proj (in-place)
I0403 15:09:21.633718 11887 net.cpp:141] Setting up inception_4c/relu_pool_proj
I0403 15:09:21.633744 11887 net.cpp:148] Top shape: 24 64 14 14 (301056)
I0403 15:09:21.633759 11887 net.cpp:156] Memory required for data: 1063013664
I0403 15:09:21.633774 11887 layer_factory.hpp:77] Creating layer inception_4c/output
I0403 15:09:21.633793 11887 net.cpp:91] Creating Layer inception_4c/output
I0403 15:09:21.633810 11887 net.cpp:425] inception_4c/output <- inception_4c/1x1
I0403 15:09:21.633827 11887 net.cpp:425] inception_4c/output <- inception_4c/3x3
I0403 15:09:21.633844 11887 net.cpp:425] inception_4c/output <- inception_4c/5x5
I0403 15:09:21.633862 11887 net.cpp:425] inception_4c/output <- inception_4c/pool_proj
I0403 15:09:21.633878 11887 net.cpp:399] inception_4c/output -> inception_4c/output
I0403 15:09:21.633929 11887 net.cpp:141] Setting up inception_4c/output
I0403 15:09:21.633952 11887 net.cpp:148] Top shape: 24 512 14 14 (2408448)
I0403 15:09:21.633968 11887 net.cpp:156] Memory required for data: 1072647456
I0403 15:09:21.633983 11887 layer_factory.hpp:77] Creating layer inception_4c/output_inception_4c/output_0_split
I0403 15:09:21.634001 11887 net.cpp:91] Creating Layer inception_4c/output_inception_4c/output_0_split
I0403 15:09:21.634016 11887 net.cpp:425] inception_4c/output_inception_4c/output_0_split <- inception_4c/output
I0403 15:09:21.634037 11887 net.cpp:399] inception_4c/output_inception_4c/output_0_split -> inception_4c/output_inception_4c/output_0_split_0
I0403 15:09:21.634059 11887 net.cpp:399] inception_4c/output_inception_4c/output_0_split -> inception_4c/output_inception_4c/output_0_split_1
I0403 15:09:21.634080 11887 net.cpp:399] inception_4c/output_inception_4c/output_0_split -> inception_4c/output_inception_4c/output_0_split_2
I0403 15:09:21.634107 11887 net.cpp:399] inception_4c/output_inception_4c/output_0_split -> inception_4c/output_inception_4c/output_0_split_3
I0403 15:09:21.634202 11887 net.cpp:141] Setting up inception_4c/output_inception_4c/output_0_split
I0403 15:09:21.634227 11887 net.cpp:148] Top shape: 24 512 14 14 (2408448)
I0403 15:09:21.634244 11887 net.cpp:148] Top shape: 24 512 14 14 (2408448)
I0403 15:09:21.634260 11887 net.cpp:148] Top shape: 24 512 14 14 (2408448)
I0403 15:09:21.634276 11887 net.cpp:148] Top shape: 24 512 14 14 (2408448)
I0403 15:09:21.634290 11887 net.cpp:156] Memory required for data: 1111182624
I0403 15:09:21.634306 11887 layer_factory.hpp:77] Creating layer inception_4d/1x1
I0403 15:09:21.634328 11887 net.cpp:91] Creating Layer inception_4d/1x1
I0403 15:09:21.634347 11887 net.cpp:425] inception_4d/1x1 <- inception_4c/output_inception_4c/output_0_split_0
I0403 15:09:21.634371 11887 net.cpp:399] inception_4d/1x1 -> inception_4d/1x1
I0403 15:09:21.635807 11887 net.cpp:141] Setting up inception_4d/1x1
I0403 15:09:21.635845 11887 net.cpp:148] Top shape: 24 112 14 14 (526848)
I0403 15:09:21.635875 11887 net.cpp:156] Memory required for data: 1113290016
I0403 15:09:21.635895 11887 layer_factory.hpp:77] Creating layer inception_4d/relu_1x1
I0403 15:09:21.635912 11887 net.cpp:91] Creating Layer inception_4d/relu_1x1
I0403 15:09:21.635929 11887 net.cpp:425] inception_4d/relu_1x1 <- inception_4d/1x1
I0403 15:09:21.635949 11887 net.cpp:386] inception_4d/relu_1x1 -> inception_4d/1x1 (in-place)
I0403 15:09:21.636145 11887 net.cpp:141] Setting up inception_4d/relu_1x1
I0403 15:09:21.636171 11887 net.cpp:148] Top shape: 24 112 14 14 (526848)
I0403 15:09:21.636186 11887 net.cpp:156] Memory required for data: 1115397408
I0403 15:09:21.636201 11887 layer_factory.hpp:77] Creating layer inception_4d/3x3_reduce
I0403 15:09:21.636239 11887 net.cpp:91] Creating Layer inception_4d/3x3_reduce
I0403 15:09:21.636258 11887 net.cpp:425] inception_4d/3x3_reduce <- inception_4c/output_inception_4c/output_0_split_1
I0403 15:09:21.636281 11887 net.cpp:399] inception_4d/3x3_reduce -> inception_4d/3x3_reduce
I0403 15:09:21.637797 11887 net.cpp:141] Setting up inception_4d/3x3_reduce
I0403 15:09:21.637827 11887 net.cpp:148] Top shape: 24 144 14 14 (677376)
I0403 15:09:21.637843 11887 net.cpp:156] Memory required for data: 1118106912
I0403 15:09:21.637862 11887 layer_factory.hpp:77] Creating layer inception_4d/relu_3x3_reduce
I0403 15:09:21.637881 11887 net.cpp:91] Creating Layer inception_4d/relu_3x3_reduce
I0403 15:09:21.637897 11887 net.cpp:425] inception_4d/relu_3x3_reduce <- inception_4d/3x3_reduce
I0403 15:09:21.637915 11887 net.cpp:386] inception_4d/relu_3x3_reduce -> inception_4d/3x3_reduce (in-place)
I0403 15:09:21.638211 11887 net.cpp:141] Setting up inception_4d/relu_3x3_reduce
I0403 15:09:21.638241 11887 net.cpp:148] Top shape: 24 144 14 14 (677376)
I0403 15:09:21.638257 11887 net.cpp:156] Memory required for data: 1120816416
I0403 15:09:21.638272 11887 layer_factory.hpp:77] Creating layer inception_4d/3x3
I0403 15:09:21.638294 11887 net.cpp:91] Creating Layer inception_4d/3x3
I0403 15:09:21.638312 11887 net.cpp:425] inception_4d/3x3 <- inception_4d/3x3_reduce
I0403 15:09:21.638331 11887 net.cpp:399] inception_4d/3x3 -> inception_4d/3x3
I0403 15:09:21.642604 11887 net.cpp:141] Setting up inception_4d/3x3
I0403 15:09:21.642634 11887 net.cpp:148] Top shape: 24 288 14 14 (1354752)
I0403 15:09:21.642654 11887 net.cpp:156] Memory required for data: 1126235424
I0403 15:09:21.642673 11887 layer_factory.hpp:77] Creating layer inception_4d/relu_3x3
I0403 15:09:21.642690 11887 net.cpp:91] Creating Layer inception_4d/relu_3x3
I0403 15:09:21.642706 11887 net.cpp:425] inception_4d/relu_3x3 <- inception_4d/3x3
I0403 15:09:21.642727 11887 net.cpp:386] inception_4d/relu_3x3 -> inception_4d/3x3 (in-place)
I0403 15:09:21.642920 11887 net.cpp:141] Setting up inception_4d/relu_3x3
I0403 15:09:21.642946 11887 net.cpp:148] Top shape: 24 288 14 14 (1354752)
I0403 15:09:21.642961 11887 net.cpp:156] Memory required for data: 1131654432
I0403 15:09:21.642976 11887 layer_factory.hpp:77] Creating layer inception_4d/5x5_reduce
I0403 15:09:21.642997 11887 net.cpp:91] Creating Layer inception_4d/5x5_reduce
I0403 15:09:21.643016 11887 net.cpp:425] inception_4d/5x5_reduce <- inception_4c/output_inception_4c/output_0_split_2
I0403 15:09:21.643038 11887 net.cpp:399] inception_4d/5x5_reduce -> inception_4d/5x5_reduce
I0403 15:09:21.644222 11887 net.cpp:141] Setting up inception_4d/5x5_reduce
I0403 15:09:21.644251 11887 net.cpp:148] Top shape: 24 32 14 14 (150528)
I0403 15:09:21.644266 11887 net.cpp:156] Memory required for data: 1132256544
I0403 15:09:21.644284 11887 layer_factory.hpp:77] Creating layer inception_4d/relu_5x5_reduce
I0403 15:09:21.644302 11887 net.cpp:91] Creating Layer inception_4d/relu_5x5_reduce
I0403 15:09:21.644318 11887 net.cpp:425] inception_4d/relu_5x5_reduce <- inception_4d/5x5_reduce
I0403 15:09:21.644338 11887 net.cpp:386] inception_4d/relu_5x5_reduce -> inception_4d/5x5_reduce (in-place)
I0403 15:09:21.644532 11887 net.cpp:141] Setting up inception_4d/relu_5x5_reduce
I0403 15:09:21.644558 11887 net.cpp:148] Top shape: 24 32 14 14 (150528)
I0403 15:09:21.644573 11887 net.cpp:156] Memory required for data: 1132858656
I0403 15:09:21.644588 11887 layer_factory.hpp:77] Creating layer inception_4d/5x5
I0403 15:09:21.644610 11887 net.cpp:91] Creating Layer inception_4d/5x5
I0403 15:09:21.644629 11887 net.cpp:425] inception_4d/5x5 <- inception_4d/5x5_reduce
I0403 15:09:21.644649 11887 net.cpp:399] inception_4d/5x5 -> inception_4d/5x5
I0403 15:09:21.646129 11887 net.cpp:141] Setting up inception_4d/5x5
I0403 15:09:21.646158 11887 net.cpp:148] Top shape: 24 64 14 14 (301056)
I0403 15:09:21.646174 11887 net.cpp:156] Memory required for data: 1134062880
I0403 15:09:21.646193 11887 layer_factory.hpp:77] Creating layer inception_4d/relu_5x5
I0403 15:09:21.646229 11887 net.cpp:91] Creating Layer inception_4d/relu_5x5
I0403 15:09:21.646248 11887 net.cpp:425] inception_4d/relu_5x5 <- inception_4d/5x5
I0403 15:09:21.646266 11887 net.cpp:386] inception_4d/relu_5x5 -> inception_4d/5x5 (in-place)
I0403 15:09:21.646574 11887 net.cpp:141] Setting up inception_4d/relu_5x5
I0403 15:09:21.646600 11887 net.cpp:148] Top shape: 24 64 14 14 (301056)
I0403 15:09:21.646615 11887 net.cpp:156] Memory required for data: 1135267104
I0403 15:09:21.646631 11887 layer_factory.hpp:77] Creating layer inception_4d/pool
I0403 15:09:21.646651 11887 net.cpp:91] Creating Layer inception_4d/pool
I0403 15:09:21.646667 11887 net.cpp:425] inception_4d/pool <- inception_4c/output_inception_4c/output_0_split_3
I0403 15:09:21.646687 11887 net.cpp:399] inception_4d/pool -> inception_4d/pool
I0403 15:09:21.646754 11887 net.cpp:141] Setting up inception_4d/pool
I0403 15:09:21.646844 11887 net.cpp:148] Top shape: 24 512 14 14 (2408448)
I0403 15:09:21.646862 11887 net.cpp:156] Memory required for data: 1144900896
I0403 15:09:21.646877 11887 layer_factory.hpp:77] Creating layer inception_4d/pool_proj
I0403 15:09:21.646899 11887 net.cpp:91] Creating Layer inception_4d/pool_proj
I0403 15:09:21.646919 11887 net.cpp:425] inception_4d/pool_proj <- inception_4d/pool
I0403 15:09:21.646939 11887 net.cpp:399] inception_4d/pool_proj -> inception_4d/pool_proj
I0403 15:09:21.648730 11887 net.cpp:141] Setting up inception_4d/pool_proj
I0403 15:09:21.648761 11887 net.cpp:148] Top shape: 24 64 14 14 (301056)
I0403 15:09:21.648777 11887 net.cpp:156] Memory required for data: 1146105120
I0403 15:09:21.648795 11887 layer_factory.hpp:77] Creating layer inception_4d/relu_pool_proj
I0403 15:09:21.648813 11887 net.cpp:91] Creating Layer inception_4d/relu_pool_proj
I0403 15:09:21.648829 11887 net.cpp:425] inception_4d/relu_pool_proj <- inception_4d/pool_proj
I0403 15:09:21.648849 11887 net.cpp:386] inception_4d/relu_pool_proj -> inception_4d/pool_proj (in-place)
I0403 15:09:21.649040 11887 net.cpp:141] Setting up inception_4d/relu_pool_proj
I0403 15:09:21.649066 11887 net.cpp:148] Top shape: 24 64 14 14 (301056)
I0403 15:09:21.649081 11887 net.cpp:156] Memory required for data: 1147309344
I0403 15:09:21.649101 11887 layer_factory.hpp:77] Creating layer inception_4d/output
I0403 15:09:21.649121 11887 net.cpp:91] Creating Layer inception_4d/output
I0403 15:09:21.649138 11887 net.cpp:425] inception_4d/output <- inception_4d/1x1
I0403 15:09:21.649155 11887 net.cpp:425] inception_4d/output <- inception_4d/3x3
I0403 15:09:21.649173 11887 net.cpp:425] inception_4d/output <- inception_4d/5x5
I0403 15:09:21.649188 11887 net.cpp:425] inception_4d/output <- inception_4d/pool_proj
I0403 15:09:21.649205 11887 net.cpp:399] inception_4d/output -> inception_4d/output
I0403 15:09:21.649255 11887 net.cpp:141] Setting up inception_4d/output
I0403 15:09:21.649277 11887 net.cpp:148] Top shape: 24 528 14 14 (2483712)
I0403 15:09:21.649292 11887 net.cpp:156] Memory required for data: 1157244192
I0403 15:09:21.649307 11887 layer_factory.hpp:77] Creating layer inception_4d/output_inception_4d/output_0_split
I0403 15:09:21.649323 11887 net.cpp:91] Creating Layer inception_4d/output_inception_4d/output_0_split
I0403 15:09:21.649338 11887 net.cpp:425] inception_4d/output_inception_4d/output_0_split <- inception_4d/output
I0403 15:09:21.649359 11887 net.cpp:399] inception_4d/output_inception_4d/output_0_split -> inception_4d/output_inception_4d/output_0_split_0
I0403 15:09:21.649381 11887 net.cpp:399] inception_4d/output_inception_4d/output_0_split -> inception_4d/output_inception_4d/output_0_split_1
I0403 15:09:21.649402 11887 net.cpp:399] inception_4d/output_inception_4d/output_0_split -> inception_4d/output_inception_4d/output_0_split_2
I0403 15:09:21.649423 11887 net.cpp:399] inception_4d/output_inception_4d/output_0_split -> inception_4d/output_inception_4d/output_0_split_3
I0403 15:09:21.649443 11887 net.cpp:399] inception_4d/output_inception_4d/output_0_split -> inception_4d/output_inception_4d/output_0_split_4
I0403 15:09:21.649549 11887 net.cpp:141] Setting up inception_4d/output_inception_4d/output_0_split
I0403 15:09:21.649585 11887 net.cpp:148] Top shape: 24 528 14 14 (2483712)
I0403 15:09:21.649607 11887 net.cpp:148] Top shape: 24 528 14 14 (2483712)
I0403 15:09:21.649626 11887 net.cpp:148] Top shape: 24 528 14 14 (2483712)
I0403 15:09:21.649641 11887 net.cpp:148] Top shape: 24 528 14 14 (2483712)
I0403 15:09:21.649657 11887 net.cpp:148] Top shape: 24 528 14 14 (2483712)
I0403 15:09:21.649672 11887 net.cpp:156] Memory required for data: 1206918432
I0403 15:09:21.649687 11887 layer_factory.hpp:77] Creating layer loss2/ave_pool
I0403 15:09:21.649703 11887 net.cpp:91] Creating Layer loss2/ave_pool
I0403 15:09:21.649720 11887 net.cpp:425] loss2/ave_pool <- inception_4d/output_inception_4d/output_0_split_0
I0403 15:09:21.649741 11887 net.cpp:399] loss2/ave_pool -> loss2/ave_pool
I0403 15:09:21.650060 11887 net.cpp:141] Setting up loss2/ave_pool
I0403 15:09:21.650089 11887 net.cpp:148] Top shape: 24 528 4 4 (202752)
I0403 15:09:21.650110 11887 net.cpp:156] Memory required for data: 1207729440
I0403 15:09:21.650125 11887 layer_factory.hpp:77] Creating layer loss2/conv
I0403 15:09:21.650147 11887 net.cpp:91] Creating Layer loss2/conv
I0403 15:09:21.650166 11887 net.cpp:425] loss2/conv <- loss2/ave_pool
I0403 15:09:21.650189 11887 net.cpp:399] loss2/conv -> loss2/conv
I0403 15:09:21.652092 11887 net.cpp:141] Setting up loss2/conv
I0403 15:09:21.652140 11887 net.cpp:148] Top shape: 24 128 4 4 (49152)
I0403 15:09:21.652166 11887 net.cpp:156] Memory required for data: 1207926048
I0403 15:09:21.652185 11887 layer_factory.hpp:77] Creating layer loss2/relu_conv
I0403 15:09:21.652206 11887 net.cpp:91] Creating Layer loss2/relu_conv
I0403 15:09:21.652225 11887 net.cpp:425] loss2/relu_conv <- loss2/conv
I0403 15:09:21.652243 11887 net.cpp:386] loss2/relu_conv -> loss2/conv (in-place)
I0403 15:09:21.652546 11887 net.cpp:141] Setting up loss2/relu_conv
I0403 15:09:21.652575 11887 net.cpp:148] Top shape: 24 128 4 4 (49152)
I0403 15:09:21.652590 11887 net.cpp:156] Memory required for data: 1208122656
I0403 15:09:21.652606 11887 layer_factory.hpp:77] Creating layer loss2/fc
I0403 15:09:21.652626 11887 net.cpp:91] Creating Layer loss2/fc
I0403 15:09:21.652644 11887 net.cpp:425] loss2/fc <- loss2/conv
I0403 15:09:21.652669 11887 net.cpp:399] loss2/fc -> loss2/fc
I0403 15:09:21.670887 11887 net.cpp:141] Setting up loss2/fc
I0403 15:09:21.670922 11887 net.cpp:148] Top shape: 24 1024 (24576)
I0403 15:09:21.670938 11887 net.cpp:156] Memory required for data: 1208220960
I0403 15:09:21.670956 11887 layer_factory.hpp:77] Creating layer loss2/relu_fc
I0403 15:09:21.670975 11887 net.cpp:91] Creating Layer loss2/relu_fc
I0403 15:09:21.670990 11887 net.cpp:425] loss2/relu_fc <- loss2/fc
I0403 15:09:21.671012 11887 net.cpp:386] loss2/relu_fc -> loss2/fc (in-place)
I0403 15:09:21.671329 11887 net.cpp:141] Setting up loss2/relu_fc
I0403 15:09:21.671357 11887 net.cpp:148] Top shape: 24 1024 (24576)
I0403 15:09:21.671372 11887 net.cpp:156] Memory required for data: 1208319264
I0403 15:09:21.671388 11887 layer_factory.hpp:77] Creating layer loss2/drop_fc
I0403 15:09:21.671406 11887 net.cpp:91] Creating Layer loss2/drop_fc
I0403 15:09:21.671422 11887 net.cpp:425] loss2/drop_fc <- loss2/fc
I0403 15:09:21.671442 11887 net.cpp:386] loss2/drop_fc -> loss2/fc (in-place)
I0403 15:09:21.671492 11887 net.cpp:141] Setting up loss2/drop_fc
I0403 15:09:21.671519 11887 net.cpp:148] Top shape: 24 1024 (24576)
I0403 15:09:21.671535 11887 net.cpp:156] Memory required for data: 1208417568
I0403 15:09:21.671550 11887 layer_factory.hpp:77] Creating layer loss2/classifier_plantvillage
I0403 15:09:21.671566 11887 net.cpp:91] Creating Layer loss2/classifier_plantvillage
I0403 15:09:21.671583 11887 net.cpp:425] loss2/classifier_plantvillage <- loss2/fc
I0403 15:09:21.671607 11887 net.cpp:399] loss2/classifier_plantvillage -> loss2/classifier_plantvillage
I0403 15:09:21.672011 11887 net.cpp:141] Setting up loss2/classifier_plantvillage
I0403 15:09:21.672039 11887 net.cpp:148] Top shape: 24 38 (912)
I0403 15:09:21.672072 11887 net.cpp:156] Memory required for data: 1208421216
I0403 15:09:21.672092 11887 layer_factory.hpp:77] Creating layer loss2/classifier_plantvillage_loss2/classifier_plantvillage_0_split
I0403 15:09:21.672116 11887 net.cpp:91] Creating Layer loss2/classifier_plantvillage_loss2/classifier_plantvillage_0_split
I0403 15:09:21.672133 11887 net.cpp:425] loss2/classifier_plantvillage_loss2/classifier_plantvillage_0_split <- loss2/classifier_plantvillage
I0403 15:09:21.672152 11887 net.cpp:399] loss2/classifier_plantvillage_loss2/classifier_plantvillage_0_split -> loss2/classifier_plantvillage_loss2/classifier_plantvillage_0_split_0
I0403 15:09:21.672171 11887 net.cpp:399] loss2/classifier_plantvillage_loss2/classifier_plantvillage_0_split -> loss2/classifier_plantvillage_loss2/classifier_plantvillage_0_split_1
I0403 15:09:21.672194 11887 net.cpp:399] loss2/classifier_plantvillage_loss2/classifier_plantvillage_0_split -> loss2/classifier_plantvillage_loss2/classifier_plantvillage_0_split_2
I0403 15:09:21.672274 11887 net.cpp:141] Setting up loss2/classifier_plantvillage_loss2/classifier_plantvillage_0_split
I0403 15:09:21.672298 11887 net.cpp:148] Top shape: 24 38 (912)
I0403 15:09:21.672314 11887 net.cpp:148] Top shape: 24 38 (912)
I0403 15:09:21.672330 11887 net.cpp:148] Top shape: 24 38 (912)
I0403 15:09:21.672344 11887 net.cpp:156] Memory required for data: 1208432160
I0403 15:09:21.672358 11887 layer_factory.hpp:77] Creating layer inception_4e/1x1
I0403 15:09:21.672379 11887 net.cpp:91] Creating Layer inception_4e/1x1
I0403 15:09:21.672395 11887 net.cpp:425] inception_4e/1x1 <- inception_4d/output_inception_4d/output_0_split_1
I0403 15:09:21.672416 11887 net.cpp:399] inception_4e/1x1 -> inception_4e/1x1
I0403 15:09:21.674443 11887 net.cpp:141] Setting up inception_4e/1x1
I0403 15:09:21.674473 11887 net.cpp:148] Top shape: 24 256 14 14 (1204224)
I0403 15:09:21.674489 11887 net.cpp:156] Memory required for data: 1213249056
I0403 15:09:21.674506 11887 layer_factory.hpp:77] Creating layer inception_4e/relu_1x1
I0403 15:09:21.674527 11887 net.cpp:91] Creating Layer inception_4e/relu_1x1
I0403 15:09:21.674545 11887 net.cpp:425] inception_4e/relu_1x1 <- inception_4e/1x1
I0403 15:09:21.674561 11887 net.cpp:386] inception_4e/relu_1x1 -> inception_4e/1x1 (in-place)
I0403 15:09:21.674865 11887 net.cpp:141] Setting up inception_4e/relu_1x1
I0403 15:09:21.674891 11887 net.cpp:148] Top shape: 24 256 14 14 (1204224)
I0403 15:09:21.674907 11887 net.cpp:156] Memory required for data: 1218065952
I0403 15:09:21.674923 11887 layer_factory.hpp:77] Creating layer inception_4e/3x3_reduce
I0403 15:09:21.674947 11887 net.cpp:91] Creating Layer inception_4e/3x3_reduce
I0403 15:09:21.674965 11887 net.cpp:425] inception_4e/3x3_reduce <- inception_4d/output_inception_4d/output_0_split_2
I0403 15:09:21.674983 11887 net.cpp:399] inception_4e/3x3_reduce -> inception_4e/3x3_reduce
I0403 15:09:21.677151 11887 net.cpp:141] Setting up inception_4e/3x3_reduce
I0403 15:09:21.677181 11887 net.cpp:148] Top shape: 24 160 14 14 (752640)
I0403 15:09:21.677199 11887 net.cpp:156] Memory required for data: 1221076512
I0403 15:09:21.677219 11887 layer_factory.hpp:77] Creating layer inception_4e/relu_3x3_reduce
I0403 15:09:21.677239 11887 net.cpp:91] Creating Layer inception_4e/relu_3x3_reduce
I0403 15:09:21.677255 11887 net.cpp:425] inception_4e/relu_3x3_reduce <- inception_4e/3x3_reduce
I0403 15:09:21.677273 11887 net.cpp:386] inception_4e/relu_3x3_reduce -> inception_4e/3x3_reduce (in-place)
I0403 15:09:21.677466 11887 net.cpp:141] Setting up inception_4e/relu_3x3_reduce
I0403 15:09:21.677495 11887 net.cpp:148] Top shape: 24 160 14 14 (752640)
I0403 15:09:21.677510 11887 net.cpp:156] Memory required for data: 1224087072
I0403 15:09:21.677525 11887 layer_factory.hpp:77] Creating layer inception_4e/3x3
I0403 15:09:21.677548 11887 net.cpp:91] Creating Layer inception_4e/3x3
I0403 15:09:21.677567 11887 net.cpp:425] inception_4e/3x3 <- inception_4e/3x3_reduce
I0403 15:09:21.677587 11887 net.cpp:399] inception_4e/3x3 -> inception_4e/3x3
I0403 15:09:21.682607 11887 net.cpp:141] Setting up inception_4e/3x3
I0403 15:09:21.682652 11887 net.cpp:148] Top shape: 24 320 14 14 (1505280)
I0403 15:09:21.682672 11887 net.cpp:156] Memory required for data: 1230108192
I0403 15:09:21.682692 11887 layer_factory.hpp:77] Creating layer inception_4e/relu_3x3
I0403 15:09:21.682709 11887 net.cpp:91] Creating Layer inception_4e/relu_3x3
I0403 15:09:21.682725 11887 net.cpp:425] inception_4e/relu_3x3 <- inception_4e/3x3
I0403 15:09:21.682744 11887 net.cpp:386] inception_4e/relu_3x3 -> inception_4e/3x3 (in-place)
I0403 15:09:21.683051 11887 net.cpp:141] Setting up inception_4e/relu_3x3
I0403 15:09:21.683079 11887 net.cpp:148] Top shape: 24 320 14 14 (1505280)
I0403 15:09:21.683104 11887 net.cpp:156] Memory required for data: 1236129312
I0403 15:09:21.683123 11887 layer_factory.hpp:77] Creating layer inception_4e/5x5_reduce
I0403 15:09:21.683148 11887 net.cpp:91] Creating Layer inception_4e/5x5_reduce
I0403 15:09:21.683167 11887 net.cpp:425] inception_4e/5x5_reduce <- inception_4d/output_inception_4d/output_0_split_3
I0403 15:09:21.683189 11887 net.cpp:399] inception_4e/5x5_reduce -> inception_4e/5x5_reduce
I0403 15:09:21.684300 11887 net.cpp:141] Setting up inception_4e/5x5_reduce
I0403 15:09:21.684329 11887 net.cpp:148] Top shape: 24 32 14 14 (150528)
I0403 15:09:21.684345 11887 net.cpp:156] Memory required for data: 1236731424
I0403 15:09:21.684362 11887 layer_factory.hpp:77] Creating layer inception_4e/relu_5x5_reduce
I0403 15:09:21.684383 11887 net.cpp:91] Creating Layer inception_4e/relu_5x5_reduce
I0403 15:09:21.684401 11887 net.cpp:425] inception_4e/relu_5x5_reduce <- inception_4e/5x5_reduce
I0403 15:09:21.684419 11887 net.cpp:386] inception_4e/relu_5x5_reduce -> inception_4e/5x5_reduce (in-place)
I0403 15:09:21.684726 11887 net.cpp:141] Setting up inception_4e/relu_5x5_reduce
I0403 15:09:21.684753 11887 net.cpp:148] Top shape: 24 32 14 14 (150528)
I0403 15:09:21.684768 11887 net.cpp:156] Memory required for data: 1237333536
I0403 15:09:21.684783 11887 layer_factory.hpp:77] Creating layer inception_4e/5x5
I0403 15:09:21.684821 11887 net.cpp:91] Creating Layer inception_4e/5x5
I0403 15:09:21.684841 11887 net.cpp:425] inception_4e/5x5 <- inception_4e/5x5_reduce
I0403 15:09:21.684865 11887 net.cpp:399] inception_4e/5x5 -> inception_4e/5x5
I0403 15:09:21.686744 11887 net.cpp:141] Setting up inception_4e/5x5
I0403 15:09:21.686774 11887 net.cpp:148] Top shape: 24 128 14 14 (602112)
I0403 15:09:21.686789 11887 net.cpp:156] Memory required for data: 1239741984
I0403 15:09:21.686807 11887 layer_factory.hpp:77] Creating layer inception_4e/relu_5x5
I0403 15:09:21.686830 11887 net.cpp:91] Creating Layer inception_4e/relu_5x5
I0403 15:09:21.686846 11887 net.cpp:425] inception_4e/relu_5x5 <- inception_4e/5x5
I0403 15:09:21.686864 11887 net.cpp:386] inception_4e/relu_5x5 -> inception_4e/5x5 (in-place)
I0403 15:09:21.687067 11887 net.cpp:141] Setting up inception_4e/relu_5x5
I0403 15:09:21.687091 11887 net.cpp:148] Top shape: 24 128 14 14 (602112)
I0403 15:09:21.687114 11887 net.cpp:156] Memory required for data: 1242150432
I0403 15:09:21.687130 11887 layer_factory.hpp:77] Creating layer inception_4e/pool
I0403 15:09:21.687149 11887 net.cpp:91] Creating Layer inception_4e/pool
I0403 15:09:21.687165 11887 net.cpp:425] inception_4e/pool <- inception_4d/output_inception_4d/output_0_split_4
I0403 15:09:21.687182 11887 net.cpp:399] inception_4e/pool -> inception_4e/pool
I0403 15:09:21.687253 11887 net.cpp:141] Setting up inception_4e/pool
I0403 15:09:21.687278 11887 net.cpp:148] Top shape: 24 528 14 14 (2483712)
I0403 15:09:21.687294 11887 net.cpp:156] Memory required for data: 1252085280
I0403 15:09:21.687309 11887 layer_factory.hpp:77] Creating layer inception_4e/pool_proj
I0403 15:09:21.687330 11887 net.cpp:91] Creating Layer inception_4e/pool_proj
I0403 15:09:21.687348 11887 net.cpp:425] inception_4e/pool_proj <- inception_4e/pool
I0403 15:09:21.687376 11887 net.cpp:399] inception_4e/pool_proj -> inception_4e/pool_proj
I0403 15:09:21.688899 11887 net.cpp:141] Setting up inception_4e/pool_proj
I0403 15:09:21.688940 11887 net.cpp:148] Top shape: 24 128 14 14 (602112)
I0403 15:09:21.688956 11887 net.cpp:156] Memory required for data: 1254493728
I0403 15:09:21.688976 11887 layer_factory.hpp:77] Creating layer inception_4e/relu_pool_proj
I0403 15:09:21.688993 11887 net.cpp:91] Creating Layer inception_4e/relu_pool_proj
I0403 15:09:21.689010 11887 net.cpp:425] inception_4e/relu_pool_proj <- inception_4e/pool_proj
I0403 15:09:21.689030 11887 net.cpp:386] inception_4e/relu_pool_proj -> inception_4e/pool_proj (in-place)
I0403 15:09:21.689342 11887 net.cpp:141] Setting up inception_4e/relu_pool_proj
I0403 15:09:21.689368 11887 net.cpp:148] Top shape: 24 128 14 14 (602112)
I0403 15:09:21.689383 11887 net.cpp:156] Memory required for data: 1256902176
I0403 15:09:21.689404 11887 layer_factory.hpp:77] Creating layer inception_4e/output
I0403 15:09:21.689421 11887 net.cpp:91] Creating Layer inception_4e/output
I0403 15:09:21.689437 11887 net.cpp:425] inception_4e/output <- inception_4e/1x1
I0403 15:09:21.689453 11887 net.cpp:425] inception_4e/output <- inception_4e/3x3
I0403 15:09:21.689471 11887 net.cpp:425] inception_4e/output <- inception_4e/5x5
I0403 15:09:21.689486 11887 net.cpp:425] inception_4e/output <- inception_4e/pool_proj
I0403 15:09:21.689507 11887 net.cpp:399] inception_4e/output -> inception_4e/output
I0403 15:09:21.689555 11887 net.cpp:141] Setting up inception_4e/output
I0403 15:09:21.689582 11887 net.cpp:148] Top shape: 24 832 14 14 (3913728)
I0403 15:09:21.689599 11887 net.cpp:156] Memory required for data: 1272557088
I0403 15:09:21.689613 11887 layer_factory.hpp:77] Creating layer pool4/3x3_s2
I0403 15:09:21.689630 11887 net.cpp:91] Creating Layer pool4/3x3_s2
I0403 15:09:21.689646 11887 net.cpp:425] pool4/3x3_s2 <- inception_4e/output
I0403 15:09:21.689666 11887 net.cpp:399] pool4/3x3_s2 -> pool4/3x3_s2
I0403 15:09:21.689733 11887 net.cpp:141] Setting up pool4/3x3_s2
I0403 15:09:21.689759 11887 net.cpp:148] Top shape: 24 832 7 7 (978432)
I0403 15:09:21.689772 11887 net.cpp:156] Memory required for data: 1276470816
I0403 15:09:21.689787 11887 layer_factory.hpp:77] Creating layer pool4/3x3_s2_pool4/3x3_s2_0_split
I0403 15:09:21.689806 11887 net.cpp:91] Creating Layer pool4/3x3_s2_pool4/3x3_s2_0_split
I0403 15:09:21.689822 11887 net.cpp:425] pool4/3x3_s2_pool4/3x3_s2_0_split <- pool4/3x3_s2
I0403 15:09:21.689841 11887 net.cpp:399] pool4/3x3_s2_pool4/3x3_s2_0_split -> pool4/3x3_s2_pool4/3x3_s2_0_split_0
I0403 15:09:21.689862 11887 net.cpp:399] pool4/3x3_s2_pool4/3x3_s2_0_split -> pool4/3x3_s2_pool4/3x3_s2_0_split_1
I0403 15:09:21.689882 11887 net.cpp:399] pool4/3x3_s2_pool4/3x3_s2_0_split -> pool4/3x3_s2_pool4/3x3_s2_0_split_2
I0403 15:09:21.689905 11887 net.cpp:399] pool4/3x3_s2_pool4/3x3_s2_0_split -> pool4/3x3_s2_pool4/3x3_s2_0_split_3
I0403 15:09:21.689998 11887 net.cpp:141] Setting up pool4/3x3_s2_pool4/3x3_s2_0_split
I0403 15:09:21.690023 11887 net.cpp:148] Top shape: 24 832 7 7 (978432)
I0403 15:09:21.690039 11887 net.cpp:148] Top shape: 24 832 7 7 (978432)
I0403 15:09:21.690055 11887 net.cpp:148] Top shape: 24 832 7 7 (978432)
I0403 15:09:21.690070 11887 net.cpp:148] Top shape: 24 832 7 7 (978432)
I0403 15:09:21.690084 11887 net.cpp:156] Memory required for data: 1292125728
I0403 15:09:21.690104 11887 layer_factory.hpp:77] Creating layer inception_5a/1x1
I0403 15:09:21.690129 11887 net.cpp:91] Creating Layer inception_5a/1x1
I0403 15:09:21.690146 11887 net.cpp:425] inception_5a/1x1 <- pool4/3x3_s2_pool4/3x3_s2_0_split_0
I0403 15:09:21.690167 11887 net.cpp:399] inception_5a/1x1 -> inception_5a/1x1
I0403 15:09:21.693044 11887 net.cpp:141] Setting up inception_5a/1x1
I0403 15:09:21.693073 11887 net.cpp:148] Top shape: 24 256 7 7 (301056)
I0403 15:09:21.693089 11887 net.cpp:156] Memory required for data: 1293329952
I0403 15:09:21.693119 11887 layer_factory.hpp:77] Creating layer inception_5a/relu_1x1
I0403 15:09:21.693142 11887 net.cpp:91] Creating Layer inception_5a/relu_1x1
I0403 15:09:21.693161 11887 net.cpp:425] inception_5a/relu_1x1 <- inception_5a/1x1
I0403 15:09:21.693178 11887 net.cpp:386] inception_5a/relu_1x1 -> inception_5a/1x1 (in-place)
I0403 15:09:21.693498 11887 net.cpp:141] Setting up inception_5a/relu_1x1
I0403 15:09:21.693526 11887 net.cpp:148] Top shape: 24 256 7 7 (301056)
I0403 15:09:21.693542 11887 net.cpp:156] Memory required for data: 1294534176
I0403 15:09:21.693557 11887 layer_factory.hpp:77] Creating layer inception_5a/3x3_reduce
I0403 15:09:21.693578 11887 net.cpp:91] Creating Layer inception_5a/3x3_reduce
I0403 15:09:21.693598 11887 net.cpp:425] inception_5a/3x3_reduce <- pool4/3x3_s2_pool4/3x3_s2_0_split_1
I0403 15:09:21.693619 11887 net.cpp:399] inception_5a/3x3_reduce -> inception_5a/3x3_reduce
I0403 15:09:21.696091 11887 net.cpp:141] Setting up inception_5a/3x3_reduce
I0403 15:09:21.696123 11887 net.cpp:148] Top shape: 24 160 7 7 (188160)
I0403 15:09:21.696149 11887 net.cpp:156] Memory required for data: 1295286816
I0403 15:09:21.696168 11887 layer_factory.hpp:77] Creating layer inception_5a/relu_3x3_reduce
I0403 15:09:21.696187 11887 net.cpp:91] Creating Layer inception_5a/relu_3x3_reduce
I0403 15:09:21.696203 11887 net.cpp:425] inception_5a/relu_3x3_reduce <- inception_5a/3x3_reduce
I0403 15:09:21.696223 11887 net.cpp:386] inception_5a/relu_3x3_reduce -> inception_5a/3x3_reduce (in-place)
I0403 15:09:21.696430 11887 net.cpp:141] Setting up inception_5a/relu_3x3_reduce
I0403 15:09:21.696456 11887 net.cpp:148] Top shape: 24 160 7 7 (188160)
I0403 15:09:21.696470 11887 net.cpp:156] Memory required for data: 1296039456
I0403 15:09:21.696485 11887 layer_factory.hpp:77] Creating layer inception_5a/3x3
I0403 15:09:21.696507 11887 net.cpp:91] Creating Layer inception_5a/3x3
I0403 15:09:21.696524 11887 net.cpp:425] inception_5a/3x3 <- inception_5a/3x3_reduce
I0403 15:09:21.696547 11887 net.cpp:399] inception_5a/3x3 -> inception_5a/3x3
I0403 15:09:21.701823 11887 net.cpp:141] Setting up inception_5a/3x3
I0403 15:09:21.701853 11887 net.cpp:148] Top shape: 24 320 7 7 (376320)
I0403 15:09:21.701870 11887 net.cpp:156] Memory required for data: 1297544736
I0403 15:09:21.701889 11887 layer_factory.hpp:77] Creating layer inception_5a/relu_3x3
I0403 15:09:21.701910 11887 net.cpp:91] Creating Layer inception_5a/relu_3x3
I0403 15:09:21.701928 11887 net.cpp:425] inception_5a/relu_3x3 <- inception_5a/3x3
I0403 15:09:21.701947 11887 net.cpp:386] inception_5a/relu_3x3 -> inception_5a/3x3 (in-place)
I0403 15:09:21.702262 11887 net.cpp:141] Setting up inception_5a/relu_3x3
I0403 15:09:21.702291 11887 net.cpp:148] Top shape: 24 320 7 7 (376320)
I0403 15:09:21.702306 11887 net.cpp:156] Memory required for data: 1299050016
I0403 15:09:21.702322 11887 layer_factory.hpp:77] Creating layer inception_5a/5x5_reduce
I0403 15:09:21.702344 11887 net.cpp:91] Creating Layer inception_5a/5x5_reduce
I0403 15:09:21.702364 11887 net.cpp:425] inception_5a/5x5_reduce <- pool4/3x3_s2_pool4/3x3_s2_0_split_2
I0403 15:09:21.702391 11887 net.cpp:399] inception_5a/5x5_reduce -> inception_5a/5x5_reduce
I0403 15:09:21.703671 11887 net.cpp:141] Setting up inception_5a/5x5_reduce
I0403 15:09:21.703704 11887 net.cpp:148] Top shape: 24 32 7 7 (37632)
I0403 15:09:21.703722 11887 net.cpp:156] Memory required for data: 1299200544
I0403 15:09:21.703742 11887 layer_factory.hpp:77] Creating layer inception_5a/relu_5x5_reduce
I0403 15:09:21.703760 11887 net.cpp:91] Creating Layer inception_5a/relu_5x5_reduce
I0403 15:09:21.703778 11887 net.cpp:425] inception_5a/relu_5x5_reduce <- inception_5a/5x5_reduce
I0403 15:09:21.703795 11887 net.cpp:386] inception_5a/relu_5x5_reduce -> inception_5a/5x5_reduce (in-place)
I0403 15:09:21.704114 11887 net.cpp:141] Setting up inception_5a/relu_5x5_reduce
I0403 15:09:21.704141 11887 net.cpp:148] Top shape: 24 32 7 7 (37632)
I0403 15:09:21.704157 11887 net.cpp:156] Memory required for data: 1299351072
I0403 15:09:21.704172 11887 layer_factory.hpp:77] Creating layer inception_5a/5x5
I0403 15:09:21.704195 11887 net.cpp:91] Creating Layer inception_5a/5x5
I0403 15:09:21.704215 11887 net.cpp:425] inception_5a/5x5 <- inception_5a/5x5_reduce
I0403 15:09:21.704237 11887 net.cpp:399] inception_5a/5x5 -> inception_5a/5x5
I0403 15:09:21.706043 11887 net.cpp:141] Setting up inception_5a/5x5
I0403 15:09:21.706084 11887 net.cpp:148] Top shape: 24 128 7 7 (150528)
I0403 15:09:21.706107 11887 net.cpp:156] Memory required for data: 1299953184
I0403 15:09:21.706127 11887 layer_factory.hpp:77] Creating layer inception_5a/relu_5x5
I0403 15:09:21.706149 11887 net.cpp:91] Creating Layer inception_5a/relu_5x5
I0403 15:09:21.706167 11887 net.cpp:425] inception_5a/relu_5x5 <- inception_5a/5x5
I0403 15:09:21.706185 11887 net.cpp:386] inception_5a/relu_5x5 -> inception_5a/5x5 (in-place)
I0403 15:09:21.706389 11887 net.cpp:141] Setting up inception_5a/relu_5x5
I0403 15:09:21.706418 11887 net.cpp:148] Top shape: 24 128 7 7 (150528)
I0403 15:09:21.706435 11887 net.cpp:156] Memory required for data: 1300555296
I0403 15:09:21.706451 11887 layer_factory.hpp:77] Creating layer inception_5a/pool
I0403 15:09:21.706470 11887 net.cpp:91] Creating Layer inception_5a/pool
I0403 15:09:21.706485 11887 net.cpp:425] inception_5a/pool <- pool4/3x3_s2_pool4/3x3_s2_0_split_3
I0403 15:09:21.706504 11887 net.cpp:399] inception_5a/pool -> inception_5a/pool
I0403 15:09:21.706578 11887 net.cpp:141] Setting up inception_5a/pool
I0403 15:09:21.706604 11887 net.cpp:148] Top shape: 24 832 7 7 (978432)
I0403 15:09:21.706619 11887 net.cpp:156] Memory required for data: 1304469024
I0403 15:09:21.706634 11887 layer_factory.hpp:77] Creating layer inception_5a/pool_proj
I0403 15:09:21.706660 11887 net.cpp:91] Creating Layer inception_5a/pool_proj
I0403 15:09:21.706679 11887 net.cpp:425] inception_5a/pool_proj <- inception_5a/pool
I0403 15:09:21.706701 11887 net.cpp:399] inception_5a/pool_proj -> inception_5a/pool_proj
I0403 15:09:21.709080 11887 net.cpp:141] Setting up inception_5a/pool_proj
I0403 15:09:21.709115 11887 net.cpp:148] Top shape: 24 128 7 7 (150528)
I0403 15:09:21.709133 11887 net.cpp:156] Memory required for data: 1305071136
I0403 15:09:21.709152 11887 layer_factory.hpp:77] Creating layer inception_5a/relu_pool_proj
I0403 15:09:21.709174 11887 net.cpp:91] Creating Layer inception_5a/relu_pool_proj
I0403 15:09:21.709195 11887 net.cpp:425] inception_5a/relu_pool_proj <- inception_5a/pool_proj
I0403 15:09:21.709213 11887 net.cpp:386] inception_5a/relu_pool_proj -> inception_5a/pool_proj (in-place)
I0403 15:09:21.709522 11887 net.cpp:141] Setting up inception_5a/relu_pool_proj
I0403 15:09:21.709549 11887 net.cpp:148] Top shape: 24 128 7 7 (150528)
I0403 15:09:21.709565 11887 net.cpp:156] Memory required for data: 1305673248
I0403 15:09:21.709580 11887 layer_factory.hpp:77] Creating layer inception_5a/output
I0403 15:09:21.709597 11887 net.cpp:91] Creating Layer inception_5a/output
I0403 15:09:21.709614 11887 net.cpp:425] inception_5a/output <- inception_5a/1x1
I0403 15:09:21.709632 11887 net.cpp:425] inception_5a/output <- inception_5a/3x3
I0403 15:09:21.709650 11887 net.cpp:425] inception_5a/output <- inception_5a/5x5
I0403 15:09:21.709666 11887 net.cpp:425] inception_5a/output <- inception_5a/pool_proj
I0403 15:09:21.709686 11887 net.cpp:399] inception_5a/output -> inception_5a/output
I0403 15:09:21.709738 11887 net.cpp:141] Setting up inception_5a/output
I0403 15:09:21.709765 11887 net.cpp:148] Top shape: 24 832 7 7 (978432)
I0403 15:09:21.709781 11887 net.cpp:156] Memory required for data: 1309586976
I0403 15:09:21.709796 11887 layer_factory.hpp:77] Creating layer inception_5a/output_inception_5a/output_0_split
I0403 15:09:21.709815 11887 net.cpp:91] Creating Layer inception_5a/output_inception_5a/output_0_split
I0403 15:09:21.709830 11887 net.cpp:425] inception_5a/output_inception_5a/output_0_split <- inception_5a/output
I0403 15:09:21.709852 11887 net.cpp:399] inception_5a/output_inception_5a/output_0_split -> inception_5a/output_inception_5a/output_0_split_0
I0403 15:09:21.709877 11887 net.cpp:399] inception_5a/output_inception_5a/output_0_split -> inception_5a/output_inception_5a/output_0_split_1
I0403 15:09:21.709897 11887 net.cpp:399] inception_5a/output_inception_5a/output_0_split -> inception_5a/output_inception_5a/output_0_split_2
I0403 15:09:21.709918 11887 net.cpp:399] inception_5a/output_inception_5a/output_0_split -> inception_5a/output_inception_5a/output_0_split_3
I0403 15:09:21.710033 11887 net.cpp:141] Setting up inception_5a/output_inception_5a/output_0_split
I0403 15:09:21.710059 11887 net.cpp:148] Top shape: 24 832 7 7 (978432)
I0403 15:09:21.710077 11887 net.cpp:148] Top shape: 24 832 7 7 (978432)
I0403 15:09:21.710093 11887 net.cpp:148] Top shape: 24 832 7 7 (978432)
I0403 15:09:21.710113 11887 net.cpp:148] Top shape: 24 832 7 7 (978432)
I0403 15:09:21.710127 11887 net.cpp:156] Memory required for data: 1325241888
I0403 15:09:21.710141 11887 layer_factory.hpp:77] Creating layer inception_5b/1x1
I0403 15:09:21.710165 11887 net.cpp:91] Creating Layer inception_5b/1x1
I0403 15:09:21.710185 11887 net.cpp:425] inception_5b/1x1 <- inception_5a/output_inception_5a/output_0_split_0
I0403 15:09:21.710208 11887 net.cpp:399] inception_5b/1x1 -> inception_5b/1x1
I0403 15:09:21.714121 11887 net.cpp:141] Setting up inception_5b/1x1
I0403 15:09:21.714153 11887 net.cpp:148] Top shape: 24 384 7 7 (451584)
I0403 15:09:21.714169 11887 net.cpp:156] Memory required for data: 1327048224
I0403 15:09:21.714187 11887 layer_factory.hpp:77] Creating layer inception_5b/relu_1x1
I0403 15:09:21.714207 11887 net.cpp:91] Creating Layer inception_5b/relu_1x1
I0403 15:09:21.714224 11887 net.cpp:425] inception_5b/relu_1x1 <- inception_5b/1x1
I0403 15:09:21.714246 11887 net.cpp:386] inception_5b/relu_1x1 -> inception_5b/1x1 (in-place)
I0403 15:09:21.714568 11887 net.cpp:141] Setting up inception_5b/relu_1x1
I0403 15:09:21.714597 11887 net.cpp:148] Top shape: 24 384 7 7 (451584)
I0403 15:09:21.714613 11887 net.cpp:156] Memory required for data: 1328854560
I0403 15:09:21.714628 11887 layer_factory.hpp:77] Creating layer inception_5b/3x3_reduce
I0403 15:09:21.714651 11887 net.cpp:91] Creating Layer inception_5b/3x3_reduce
I0403 15:09:21.714671 11887 net.cpp:425] inception_5b/3x3_reduce <- inception_5a/output_inception_5a/output_0_split_1
I0403 15:09:21.714695 11887 net.cpp:399] inception_5b/3x3_reduce -> inception_5b/3x3_reduce
I0403 15:09:21.717511 11887 net.cpp:141] Setting up inception_5b/3x3_reduce
I0403 15:09:21.717542 11887 net.cpp:148] Top shape: 24 192 7 7 (225792)
I0403 15:09:21.717560 11887 net.cpp:156] Memory required for data: 1329757728
I0403 15:09:21.717578 11887 layer_factory.hpp:77] Creating layer inception_5b/relu_3x3_reduce
I0403 15:09:21.717597 11887 net.cpp:91] Creating Layer inception_5b/relu_3x3_reduce
I0403 15:09:21.717613 11887 net.cpp:425] inception_5b/relu_3x3_reduce <- inception_5b/3x3_reduce
I0403 15:09:21.717634 11887 net.cpp:386] inception_5b/relu_3x3_reduce -> inception_5b/3x3_reduce (in-place)
I0403 15:09:21.717839 11887 net.cpp:141] Setting up inception_5b/relu_3x3_reduce
I0403 15:09:21.717866 11887 net.cpp:148] Top shape: 24 192 7 7 (225792)
I0403 15:09:21.717882 11887 net.cpp:156] Memory required for data: 1330660896
I0403 15:09:21.717897 11887 layer_factory.hpp:77] Creating layer inception_5b/3x3
I0403 15:09:21.717921 11887 net.cpp:91] Creating Layer inception_5b/3x3
I0403 15:09:21.717939 11887 net.cpp:425] inception_5b/3x3 <- inception_5b/3x3_reduce
I0403 15:09:21.717962 11887 net.cpp:399] inception_5b/3x3 -> inception_5b/3x3
I0403 15:09:21.724923 11887 net.cpp:141] Setting up inception_5b/3x3
I0403 15:09:21.724953 11887 net.cpp:148] Top shape: 24 384 7 7 (451584)
I0403 15:09:21.724970 11887 net.cpp:156] Memory required for data: 1332467232
I0403 15:09:21.724988 11887 layer_factory.hpp:77] Creating layer inception_5b/relu_3x3
I0403 15:09:21.725010 11887 net.cpp:91] Creating Layer inception_5b/relu_3x3
I0403 15:09:21.725028 11887 net.cpp:425] inception_5b/relu_3x3 <- inception_5b/3x3
I0403 15:09:21.725046 11887 net.cpp:386] inception_5b/relu_3x3 -> inception_5b/3x3 (in-place)
I0403 15:09:21.725360 11887 net.cpp:141] Setting up inception_5b/relu_3x3
I0403 15:09:21.725389 11887 net.cpp:148] Top shape: 24 384 7 7 (451584)
I0403 15:09:21.725404 11887 net.cpp:156] Memory required for data: 1334273568
I0403 15:09:21.725420 11887 layer_factory.hpp:77] Creating layer inception_5b/5x5_reduce
I0403 15:09:21.725461 11887 net.cpp:91] Creating Layer inception_5b/5x5_reduce
I0403 15:09:21.725481 11887 net.cpp:425] inception_5b/5x5_reduce <- inception_5a/output_inception_5a/output_0_split_2
I0403 15:09:21.725507 11887 net.cpp:399] inception_5b/5x5_reduce -> inception_5b/5x5_reduce
I0403 15:09:21.726842 11887 net.cpp:141] Setting up inception_5b/5x5_reduce
I0403 15:09:21.726872 11887 net.cpp:148] Top shape: 24 48 7 7 (56448)
I0403 15:09:21.726888 11887 net.cpp:156] Memory required for data: 1334499360
I0403 15:09:21.726907 11887 layer_factory.hpp:77] Creating layer inception_5b/relu_5x5_reduce
I0403 15:09:21.726927 11887 net.cpp:91] Creating Layer inception_5b/relu_5x5_reduce
I0403 15:09:21.726943 11887 net.cpp:425] inception_5b/relu_5x5_reduce <- inception_5b/5x5_reduce
I0403 15:09:21.726963 11887 net.cpp:386] inception_5b/relu_5x5_reduce -> inception_5b/5x5_reduce (in-place)
I0403 15:09:21.727360 11887 net.cpp:141] Setting up inception_5b/relu_5x5_reduce
I0403 15:09:21.727387 11887 net.cpp:148] Top shape: 24 48 7 7 (56448)
I0403 15:09:21.727403 11887 net.cpp:156] Memory required for data: 1334725152
I0403 15:09:21.727419 11887 layer_factory.hpp:77] Creating layer inception_5b/5x5
I0403 15:09:21.727440 11887 net.cpp:91] Creating Layer inception_5b/5x5
I0403 15:09:21.727458 11887 net.cpp:425] inception_5b/5x5 <- inception_5b/5x5_reduce
I0403 15:09:21.727478 11887 net.cpp:399] inception_5b/5x5 -> inception_5b/5x5
I0403 15:09:21.729637 11887 net.cpp:141] Setting up inception_5b/5x5
I0403 15:09:21.729666 11887 net.cpp:148] Top shape: 24 128 7 7 (150528)
I0403 15:09:21.729682 11887 net.cpp:156] Memory required for data: 1335327264
I0403 15:09:21.729701 11887 layer_factory.hpp:77] Creating layer inception_5b/relu_5x5
I0403 15:09:21.729722 11887 net.cpp:91] Creating Layer inception_5b/relu_5x5
I0403 15:09:21.729742 11887 net.cpp:425] inception_5b/relu_5x5 <- inception_5b/5x5
I0403 15:09:21.729759 11887 net.cpp:386] inception_5b/relu_5x5 -> inception_5b/5x5 (in-place)
I0403 15:09:21.729966 11887 net.cpp:141] Setting up inception_5b/relu_5x5
I0403 15:09:21.729992 11887 net.cpp:148] Top shape: 24 128 7 7 (150528)
I0403 15:09:21.730008 11887 net.cpp:156] Memory required for data: 1335929376
I0403 15:09:21.730025 11887 layer_factory.hpp:77] Creating layer inception_5b/pool
I0403 15:09:21.730044 11887 net.cpp:91] Creating Layer inception_5b/pool
I0403 15:09:21.730063 11887 net.cpp:425] inception_5b/pool <- inception_5a/output_inception_5a/output_0_split_3
I0403 15:09:21.730084 11887 net.cpp:399] inception_5b/pool -> inception_5b/pool
I0403 15:09:21.730165 11887 net.cpp:141] Setting up inception_5b/pool
I0403 15:09:21.730191 11887 net.cpp:148] Top shape: 24 832 7 7 (978432)
I0403 15:09:21.730207 11887 net.cpp:156] Memory required for data: 1339843104
I0403 15:09:21.730222 11887 layer_factory.hpp:77] Creating layer inception_5b/pool_proj
I0403 15:09:21.730247 11887 net.cpp:91] Creating Layer inception_5b/pool_proj
I0403 15:09:21.730268 11887 net.cpp:425] inception_5b/pool_proj <- inception_5b/pool
I0403 15:09:21.730289 11887 net.cpp:399] inception_5b/pool_proj -> inception_5b/pool_proj
I0403 15:09:21.732702 11887 net.cpp:141] Setting up inception_5b/pool_proj
I0403 15:09:21.732733 11887 net.cpp:148] Top shape: 24 128 7 7 (150528)
I0403 15:09:21.732750 11887 net.cpp:156] Memory required for data: 1340445216
I0403 15:09:21.732769 11887 layer_factory.hpp:77] Creating layer inception_5b/relu_pool_proj
I0403 15:09:21.732787 11887 net.cpp:91] Creating Layer inception_5b/relu_pool_proj
I0403 15:09:21.732805 11887 net.cpp:425] inception_5b/relu_pool_proj <- inception_5b/pool_proj
I0403 15:09:21.732825 11887 net.cpp:386] inception_5b/relu_pool_proj -> inception_5b/pool_proj (in-place)
I0403 15:09:21.733151 11887 net.cpp:141] Setting up inception_5b/relu_pool_proj
I0403 15:09:21.733180 11887 net.cpp:148] Top shape: 24 128 7 7 (150528)
I0403 15:09:21.733197 11887 net.cpp:156] Memory required for data: 1341047328
I0403 15:09:21.733213 11887 layer_factory.hpp:77] Creating layer inception_5b/output
I0403 15:09:21.733232 11887 net.cpp:91] Creating Layer inception_5b/output
I0403 15:09:21.733263 11887 net.cpp:425] inception_5b/output <- inception_5b/1x1
I0403 15:09:21.733283 11887 net.cpp:425] inception_5b/output <- inception_5b/3x3
I0403 15:09:21.733301 11887 net.cpp:425] inception_5b/output <- inception_5b/5x5
I0403 15:09:21.733319 11887 net.cpp:425] inception_5b/output <- inception_5b/pool_proj
I0403 15:09:21.733338 11887 net.cpp:399] inception_5b/output -> inception_5b/output
I0403 15:09:21.733392 11887 net.cpp:141] Setting up inception_5b/output
I0403 15:09:21.733419 11887 net.cpp:148] Top shape: 24 1024 7 7 (1204224)
I0403 15:09:21.733436 11887 net.cpp:156] Memory required for data: 1345864224
I0403 15:09:21.733451 11887 layer_factory.hpp:77] Creating layer pool5/7x7_s1
I0403 15:09:21.733470 11887 net.cpp:91] Creating Layer pool5/7x7_s1
I0403 15:09:21.733487 11887 net.cpp:425] pool5/7x7_s1 <- inception_5b/output
I0403 15:09:21.733508 11887 net.cpp:399] pool5/7x7_s1 -> pool5/7x7_s1
I0403 15:09:21.733741 11887 net.cpp:141] Setting up pool5/7x7_s1
I0403 15:09:21.733767 11887 net.cpp:148] Top shape: 24 1024 1 1 (24576)
I0403 15:09:21.733783 11887 net.cpp:156] Memory required for data: 1345962528
I0403 15:09:21.733799 11887 layer_factory.hpp:77] Creating layer pool5/drop_7x7_s1
I0403 15:09:21.733817 11887 net.cpp:91] Creating Layer pool5/drop_7x7_s1
I0403 15:09:21.733834 11887 net.cpp:425] pool5/drop_7x7_s1 <- pool5/7x7_s1
I0403 15:09:21.733855 11887 net.cpp:386] pool5/drop_7x7_s1 -> pool5/7x7_s1 (in-place)
I0403 15:09:21.733909 11887 net.cpp:141] Setting up pool5/drop_7x7_s1
I0403 15:09:21.733934 11887 net.cpp:148] Top shape: 24 1024 1 1 (24576)
I0403 15:09:21.733949 11887 net.cpp:156] Memory required for data: 1346060832
I0403 15:09:21.733964 11887 layer_factory.hpp:77] Creating layer loss3/classifier_plantvillage
I0403 15:09:21.733984 11887 net.cpp:91] Creating Layer loss3/classifier_plantvillage
I0403 15:09:21.734001 11887 net.cpp:425] loss3/classifier_plantvillage <- pool5/7x7_s1
I0403 15:09:21.734024 11887 net.cpp:399] loss3/classifier_plantvillage -> loss3/classifier_plantvillage
I0403 15:09:21.734473 11887 net.cpp:141] Setting up loss3/classifier_plantvillage
I0403 15:09:21.734509 11887 net.cpp:148] Top shape: 24 38 (912)
I0403 15:09:21.734524 11887 net.cpp:156] Memory required for data: 1346064480
I0403 15:09:21.734544 11887 layer_factory.hpp:77] Creating layer loss3/classifier_plantvillage_loss3/classifier_plantvillage_0_split
I0403 15:09:21.734565 11887 net.cpp:91] Creating Layer loss3/classifier_plantvillage_loss3/classifier_plantvillage_0_split
I0403 15:09:21.734583 11887 net.cpp:425] loss3/classifier_plantvillage_loss3/classifier_plantvillage_0_split <- loss3/classifier_plantvillage
I0403 15:09:21.734604 11887 net.cpp:399] loss3/classifier_plantvillage_loss3/classifier_plantvillage_0_split -> loss3/classifier_plantvillage_loss3/classifier_plantvillage_0_split_0
I0403 15:09:21.734627 11887 net.cpp:399] loss3/classifier_plantvillage_loss3/classifier_plantvillage_0_split -> loss3/classifier_plantvillage_loss3/classifier_plantvillage_0_split_1
I0403 15:09:21.734647 11887 net.cpp:399] loss3/classifier_plantvillage_loss3/classifier_plantvillage_0_split -> loss3/classifier_plantvillage_loss3/classifier_plantvillage_0_split_2
I0403 15:09:21.734668 11887 net.cpp:399] loss3/classifier_plantvillage_loss3/classifier_plantvillage_0_split -> loss3/classifier_plantvillage_loss3/classifier_plantvillage_0_split_3
I0403 15:09:21.734794 11887 net.cpp:141] Setting up loss3/classifier_plantvillage_loss3/classifier_plantvillage_0_split
I0403 15:09:21.734818 11887 net.cpp:148] Top shape: 24 38 (912)
I0403 15:09:21.734835 11887 net.cpp:148] Top shape: 24 38 (912)
I0403 15:09:21.734850 11887 net.cpp:148] Top shape: 24 38 (912)
I0403 15:09:21.734866 11887 net.cpp:148] Top shape: 24 38 (912)
I0403 15:09:21.734879 11887 net.cpp:156] Memory required for data: 1346079072
I0403 15:09:21.734894 11887 layer_factory.hpp:77] Creating layer loss1/loss
I0403 15:09:21.734915 11887 net.cpp:91] Creating Layer loss1/loss
I0403 15:09:21.734941 11887 net.cpp:425] loss1/loss <- loss1/classifier_plantvillage_loss1/classifier_plantvillage_0_split_0
I0403 15:09:21.734974 11887 net.cpp:425] loss1/loss <- label_data_1_split_0
…
