…
I0403 14:46:42.562999 11099 net.cpp:313] The NetState phase (1) differed from the phase (0) specified by a rule in layer data
I0403 14:46:42.564221 11099 net.cpp:49] Initializing net from parameters: 
state {
  phase: TEST
}
layer {
  name: "data"
  type: "Data"
  top: "data"
  top: "label"
  include {
    phase: TEST
  }
  transform_param {
    mirror: false
    crop_size: 224
    mean_file: "/home/mohanty/data/final_dataset/lmdb/grayscale-60-40/mean.binaryproto"
  }
  data_param {
    source: "/home/mohanty/data/final_dataset/lmdb/grayscale-60-40/test_db"
    batch_size: 24
    backend: LMDB
  }
}
layer {
  name: "conv1/7x7_s2"
  type: "Convolution"
  bottom: "data"
  top: "conv1/7x7_s2"
  param {
    lr_mult: 1
    decay_mult: 1
  }
  param {
    lr_mult: 2
    decay_mult: 0
  }
  convolution_param {
    num_output: 64
    pad: 3
    kernel_size: 7
    stride: 2
    weight_filler {
      type: "xavier"
      std: 0.1
    }
    bias_filler {
      type: "constant"
      value: 0.2
    }
  }
}
layer {
  name: "conv1/relu_7x7"
  type: "ReLU"
  bottom: "conv1/7x7_s2"
  top: "conv1/7x7_s2"
}
layer {
  name: "pool1/3x3_s2"
  type: "Pooling"
  bottom: "conv1/7x7_s2"
  top: "pool1/3x3_s2"
  pooling_param {
    pool: MAX
    kernel_size: 3
    stride: 2
  }
}
layer {
  name: "pool1/norm1"
  type: "LRN"
  bottom: "pool1/3x3_s2"
  top: "pool1/norm1"
  lrn_param {
    local_size: 5
    alpha: 0.0001
    beta: 0.75
  }
}
layer {
  name: "conv2/3x3_reduce"
  type: "Convolution"
  bottom: "pool1/norm1"
  top: "conv2/3x3_reduce"
  param {
    lr_mult: 1
    decay_mult: 1
  }
  param {
    lr_mult: 2
    decay_mult: 0
  }
  convolution_param {
    num_output: 64
    kernel_size: 1
    weight_filler {
      type: "xavier"
      std: 0.1
    }
    bias_filler {
      type: "constant"
      value: 0.2
    }
  }
}
layer {
  name: "conv2/relu_3x3_reduce"
  type: "ReLU"
  bottom: "conv2/3x3_reduce"
  top: "conv2/3x3_reduce"
}
layer {
  name: "conv2/3x3"
  type: "Convolution"
  bottom: "conv2/3x3_reduce"
  top: "conv2/3x3"
  param {
    lr_mult: 1
    decay_mult: 1
  }
  param {
    lr_mult: 2
    decay_mult: 0
  }
  convolution_param {
    num_output: 192
    pad: 1
    kernel_size: 3
    weight_filler {
      type: "xavier"
      std: 0.03
    }
    bias_filler {
      type: "constant"
      value: 0.2
    }
  }
}
layer {
  name: "conv2/relu_3x3"
  type: "ReLU"
  bottom: "conv2/3x3"
  top: "conv2/3x3"
}
layer {
  name: "conv2/norm2"
  type: "LRN"
  bottom: "conv2/3x3"
  top: "conv2/norm2"
  lrn_param {
    local_size: 5
    alpha: 0.0001
    beta: 0.75
  }
}
layer {
  name: "pool2/3x3_s2"
  type: "Pooling"
  bottom: "conv2/norm2"
  top: "pool2/3x3_s2"
  pooling_param {
    pool: MAX
    kernel_size: 3
    stride: 2
  }
}
layer {
  name: "inception_3a/1x1"
  type: "Convolution"
  bottom: "pool2/3x3_s2"
  top: "inception_3a/1x1"
  param {
    lr_mult: 1
    decay_mult: 1
  }
  param {
    lr_mult: 2
    decay_mult: 0
  }
  convolution_param {
    num_output: 64
    kernel_size: 1
    weight_filler {
      type: "xavier"
      std: 0.03
    }
    bias_filler {
      type: "constant"
      value: 0.2
    }
  }
}
layer {
  name: "inception_3a/relu_1x1"
  type: "ReLU"
  bottom: "inception_3a/1x1"
  top: "inception_3a/1x1"
}
layer {
  name: "inception_3a/3x3_reduce"
  type: "Convolution"
  bottom: "pool2/3x3_s2"
  top: "inception_3a/3x3_reduce"
  param {
    lr_mult: 1
    decay_mult: 1
  }
  param {
    lr_mult: 2
    decay_mult: 0
  }
  convolution_param {
    num_output: 96
    kernel_size: 1
    weight_filler {
      type: "xavier"
      std: 0.09
    }
    bias_filler {
      type: "constant"
      value: 0.2
    }
  }
}
layer {
  name: "inception_3a/relu_3x3_reduce"
  type: "ReLU"
  bottom: "inception_3a/3x3_reduce"
  top: "inception_3a/3x3_reduce"
}
layer {
  name: "inception_3a/3x3"
  type: "Convolution"
  bottom: "inception_3a/3x3_reduce"
  top: "inception_3a/3x3"
  param {
    lr_mult: 1
    decay_mult: 1
  }
  param {
    lr_mult: 2
    decay_mult: 0
  }
  convolution_param {
    num_output: 128
    pad: 1
    kernel_size: 3
    weight_filler {
      type: "xavier"
      std: 0.03
    }
    bias_filler {
      type: "constant"
      value: 0.2
    }
  }
}
layer {
  name: "inception_3a/relu_3x3"
  type: "ReLU"
  bottom: "inception_3a/3x3"
  top: "inception_3a/3x3"
}
layer {
  name: "inception_3a/5x5_reduce"
  type: "Convolution"
  bottom: "pool2/3x3_s2"
  top: "inception_3a/5x5_reduce"
  param {
    lr_mult: 1
    decay_mult: 1
  }
  param {
    lr_mult: 2
    decay_mult: 0
  }
  convolution_param {
    num_output: 16
    kernel_size: 1
    weight_filler {
      type: "xavier"
      std: 0.2
    }
    bias_filler {
      type: "constant"
      value: 0.2
    }
  }
}
layer {
  name: "inception_3a/relu_5x5_reduce"
  type: "ReLU"
  bottom: "inception_3a/5x5_reduce"
  top: "inception_3a/5x5_reduce"
}
layer {
  name: "inception_3a/5x5"
  type: "Convolution"
  bottom: "inception_3a/5x5_reduce"
  top: "inception_3a/5x5"
  param {
    lr_mult: 1
    decay_mult: 1
  }
  param {
    lr_mult: 2
    decay_mult: 0
  }
  convolution_param {
    num_output: 32
    pad: 2
    kernel_size: 5
    weight_filler {
      type: "xavier"
      std: 0.03
    }
    bias_filler {
      type: "constant"
      value: 0.2
    }
  }
}
layer {
  name: "inception_3a/relu_5x5"
  type: "ReLU"
  bottom: "inception_3a/5x5"
  top: "inception_3a/5x5"
}
layer {
  name: "inception_3a/pool"
  type: "Pooling"
  bottom: "pool2/3x3_s2"
  top: "inception_3a/pool"
  pooling_param {
    pool: MAX
    kernel_size: 3
    stride: 1
    pad: 1
  }
}
layer {
  name: "inception_3a/pool_proj"
  type: "Convolution"
  bottom: "inception_3a/pool"
  top: "inception_3a/pool_proj"
  param {
    lr_mult: 1
    decay_mult: 1
  }
  param {
    lr_mult: 2
    decay_mult: 0
  }
  convolution_param {
    num_output: 32
    kernel_size: 1
    weight_filler {
      type: "xavier"
      std: 0.1
    }
    bias_filler {
      type: "constant"
      value: 0.2
    }
  }
}
layer {
  name: "inception_3a/relu_pool_proj"
  type: "ReLU"
  bottom: "inception_3a/pool_proj"
  top: "inception_3a/pool_proj"
}
layer {
  name: "inception_3a/output"
  type: "Concat"
  bottom: "inception_3a/1x1"
  bottom: "inception_3a/3x3"
  bottom: "inception_3a/5x5"
  bottom: "inception_3a/pool_proj"
  top: "inception_3a/output"
}
layer {
  name: "inception_3b/1x1"
  type: "Convolution"
  bottom: "inception_3a/output"
  top: "inception_3b/1x1"
  param {
    lr_mult: 1
    decay_mult: 1
  }
  param {
    lr_mult: 2
    decay_mult: 0
  }
  convolution_param {
    num_output: 128
    kernel_size: 1
    weight_filler {
      type: "xavier"
      std: 0.03
    }
    bias_filler {
      type: "constant"
      value: 0.2
    }
  }
}
layer {
  name: "inception_3b/relu_1x1"
  type: "ReLU"
  bottom: "inception_3b/1x1"
  top: "inception_3b/1x1"
}
layer {
  name: "inception_3b/3x3_reduce"
  type: "Convolution"
  bottom: "inception_3a/output"
  top: "inception_3b/3x3_reduce"
  param {
    lr_mult: 1
    decay_mult: 1
  }
  param {
    lr_mult: 2
    decay_mult: 0
  }
  convolution_param {
    num_output: 128
    kernel_size: 1
    weight_filler {
      type: "xavier"
      std: 0.09
    }
    bias_filler {
      type: "constant"
      value: 0.2
    }
  }
}
layer {
  name: "inception_3b/relu_3x3_reduce"
  type: "ReLU"
  bottom: "inception_3b/3x3_reduce"
  top: "inception_3b/3x3_reduce"
}
layer {
  name: "inception_3b/3x3"
  type: "Convolution"
  bottom: "inception_3b/3x3_reduce"
  top: "inception_3b/3x3"
  param {
    lr_mult: 1
    decay_mult: 1
  }
  param {
    lr_mult: 2
    decay_mult: 0
  }
  convolution_param {
    num_output: 192
    pad: 1
    kernel_size: 3
    weight_filler {
      type: "xavier"
      std: 0.03
    }
    bias_filler {
      type: "constant"
      value: 0.2
    }
  }
}
layer {
  name: "inception_3b/relu_3x3"
  type: "ReLU"
  bottom: "inception_3b/3x3"
  top: "inception_3b/3x3"
}
layer {
  name: "inception_3b/5x5_reduce"
  type: "Convolution"
  bottom: "inception_3a/output"
  top: "inception_3b/5x5_reduce"
  param {
    lr_mult: 1
    decay_mult: 1
  }
  param {
    lr_mult: 2
    decay_mult: 0
  }
  convolution_param {
    num_output: 32
    kernel_size: 1
    weight_filler {
      type: "xavier"
      std: 0.2
    }
    bias_filler {
      type: "constant"
      value: 0.2
    }
  }
}
layer {
  name: "inception_3b/relu_5x5_reduce"
  type: "ReLU"
  bottom: "inception_3b/5x5_reduce"
  top: "inception_3b/5x5_reduce"
}
layer {
  name: "inception_3b/5x5"
  type: "Convolution"
  bottom: "inception_3b/5x5_reduce"
  top: "inception_3b/5x5"
  param {
    lr_mult: 1
    decay_mult: 1
  }
  param {
    lr_mult: 2
    decay_mult: 0
  }
  convolution_param {
    num_output: 96
    pad: 2
    kernel_size: 5
    weight_filler {
      type: "xavier"
      std: 0.03
    }
    bias_filler {
      type: "constant"
      value: 0.2
    }
  }
}
layer {
  name: "inception_3b/relu_5x5"
  type: "ReLU"
  bottom: "inception_3b/5x5"
  top: "inception_3b/5x5"
}
layer {
  name: "inception_3b/pool"
  type: "Pooling"
  bottom: "inception_3a/output"
  top: "inception_3b/pool"
  pooling_param {
    pool: MAX
    kernel_size: 3
    stride: 1
    pad: 1
  }
}
layer {
  name: "inception_3b/pool_proj"
  type: "Convolution"
  bottom: "inception_3b/pool"
  top: "inception_3b/pool_proj"
  param {
    lr_mult: 1
    decay_mult: 1
  }
  param {
    lr_mult: 2
    decay_mult: 0
  }
  convolution_param {
    num_output: 64
    kernel_size: 1
    weight_filler {
      type: "xavier"
      std: 0.1
    }
    bias_filler {
      type: "constant"
      value: 0.2
    }
  }
}
layer {
  name: "inception_3b/relu_pool_proj"
  type: "ReLU"
  bottom: "inception_3b/pool_proj"
  top: "inception_3b/pool_proj"
}
layer {
  name: "inception_3b/output"
  type: "Concat"
  bottom: "inception_3b/1x1"
  bottom: "inception_3b/3x3"
  bottom: "inception_3b/5x5"
  bottom: "inception_3b/pool_proj"
  top: "inception_3b/output"
}
layer {
  name: "pool3/3x3_s2"
  type: "Pooling"
  bottom: "inception_3b/output"
  top: "pool3/3x3_s2"
  pooling_param {
    pool: MAX
    kernel_size: 3
    stride: 2
  }
}
layer {
  name: "inception_4a/1x1"
  type: "Convolution"
  bottom: "pool3/3x3_s2"
  top: "inception_4a/1x1"
  param {
    lr_mult: 1
    decay_mult: 1
  }
  param {
    lr_mult: 2
    decay_mult: 0
  }
  convolution_param {
    num_output: 192
    kernel_size: 1
    weight_filler {
      type: "xavier"
      std: 0.03
    }
    bias_filler {
      type: "constant"
      value: 0.2
    }
  }
}
layer {
  name: "inception_4a/relu_1x1"
  type: "ReLU"
  bottom: "inception_4a/1x1"
  top: "inception_4a/1x1"
}
layer {
  name: "inception_4a/3x3_reduce"
  type: "Convolution"
  bottom: "pool3/3x3_s2"
  top: "inception_4a/3x3_reduce"
  param {
    lr_mult: 1
    decay_mult: 1
  }
  param {
    lr_mult: 2
    decay_mult: 0
  }
  convolution_param {
    num_output: 96
    kernel_size: 1
    weight_filler {
      type: "xavier"
      std: 0.09
    }
    bias_filler {
      type: "constant"
      value: 0.2
    }
  }
}
layer {
  name: "inception_4a/relu_3x3_reduce"
  type: "ReLU"
  bottom: "inception_4a/3x3_reduce"
  top: "inception_4a/3x3_reduce"
}
layer {
  name: "inception_4a/3x3"
  type: "Convolution"
  bottom: "inception_4a/3x3_reduce"
  top: "inception_4a/3x3"
  param {
    lr_mult: 1
    decay_mult: 1
  }
  param {
    lr_mult: 2
    decay_mult: 0
  }
  convolution_param {
    num_output: 208
    pad: 1
    kernel_size: 3
    weight_filler {
      type: "xavier"
      std: 0.03
    }
    bias_filler {
      type: "constant"
      value: 0.2
    }
  }
}
layer {
  name: "inception_4a/relu_3x3"
  type: "ReLU"
  bottom: "inception_4a/3x3"
  top: "inception_4a/3x3"
}
layer {
  name: "inception_4a/5x5_reduce"
  type: "Convolution"
  bottom: "pool3/3x3_s2"
  top: "inception_4a/5x5_reduce"
  param {
    lr_mult: 1
    decay_mult: 1
  }
  param {
    lr_mult: 2
    decay_mult: 0
  }
  convolution_param {
    num_output: 16
    kernel_size: 1
    weight_filler {
      type: "xavier"
      std: 0.2
    }
    bias_filler {
      type: "constant"
      value: 0.2
    }
  }
}
layer {
  name: "inception_4a/relu_5x5_reduce"
  type: "ReLU"
  bottom: "inception_4a/5x5_reduce"
  top: "inception_4a/5x5_reduce"
}
layer {
  name: "inception_4a/5x5"
  type: "Convolution"
  bottom: "inception_4a/5x5_reduce"
  top: "inception_4a/5x5"
  param {
    lr_mult: 1
    decay_mult: 1
  }
  param {
    lr_mult: 2
    decay_mult: 0
  }
  convolution_param {
    num_output: 48
    pad: 2
    kernel_size: 5
    weight_filler {
      type: "xavier"
      std: 0.03
    }
    bias_filler {
      type: "constant"
      value: 0.2
    }
  }
}
layer {
  name: "inception_4a/relu_5x5"
  type: "ReLU"
  bottom: "inception_4a/5x5"
  top: "inception_4a/5x5"
}
layer {
  name: "inception_4a/pool"
  type: "Pooling"
  bottom: "pool3/3x3_s2"
  top: "inception_4a/pool"
  pooling_param {
    pool: MAX
    kernel_size: 3
    stride: 1
    pad: 1
  }
}
layer {
  name: "inception_4a/pool_proj"
  type: "Convolution"
  bottom: "inception_4a/pool"
  top: "inception_4a/pool_proj"
  param {
    lr_mult: 1
    decay_mult: 1
  }
  param {
    lr_mult: 2
    decay_mult: 0
  }
  convolution_param {
    num_output: 64
    kernel_size: 1
    weight_filler {
      type: "xavier"
      std: 0.1
    }
    bias_filler {
      type: "constant"
      value: 0.2
    }
  }
}
layer {
  name: "inception_4a/relu_pool_proj"
  type: "ReLU"
  bottom: "inception_4a/pool_proj"
  top: "inception_4a/pool_proj"
}
layer {
  name: "inception_4a/output"
  type: "Concat"
  bottom: "inception_4a/1x1"
  bottom: "inception_4a/3x3"
  bottom: "inception_4a/5x5"
  bottom: "inception_4a/pool_proj"
  top: "inception_4a/output"
}
layer {
  name: "loss1/ave_pool"
  type: "Pooling"
  bottom: "inception_4a/output"
  top: "loss1/ave_pool"
  pooling_param {
    pool: AVE
    kernel_size: 5
    stride: 3
  }
}
layer {
  name: "loss1/conv"
  type: "Convolution"
  bottom: "loss1/ave_pool"
  top: "loss1/conv"
  param {
    lr_mult: 1
    decay_mult: 1
  }
  param {
    lr_mult: 2
    decay_mult: 0
  }
  convolution_param {
    num_output: 128
    kernel_size: 1
    weight_filler {
      type: "xavier"
      std: 0.08
    }
    bias_filler {
      type: "constant"
      value: 0.2
    }
  }
}
layer {
  name: "loss1/relu_conv"
  type: "ReLU"
  bottom: "loss1/conv"
  top: "loss1/conv"
}
layer {
  name: "loss1/fc"
  type: "InnerProduct"
  bottom: "loss1/conv"
  top: "loss1/fc"
  param {
    lr_mult: 1
    decay_mult: 1
  }
  param {
    lr_mult: 2
    decay_mult: 0
  }
  inner_product_param {
    num_output: 1024
    weight_filler {
      type: "xavier"
      std: 0.02
    }
    bias_filler {
      type: "constant"
      value: 0.2
    }
  }
}
layer {
  name: "loss1/relu_fc"
  type: "ReLU"
  bottom: "loss1/fc"
  top: "loss1/fc"
}
layer {
  name: "loss1/drop_fc"
  type: "Dropout"
  bottom: "loss1/fc"
  top: "loss1/fc"
  dropout_param {
    dropout_ratio: 0.7
  }
}
layer {
  name: "loss1/classifier_plantvillage"
  type: "InnerProduct"
  bottom: "loss1/fc"
  top: "loss1/classifier_plantvillage"
  param {
    lr_mult: 1
    decay_mult: 1
  }
  param {
    lr_mult: 2
    decay_mult: 0
  }
  inner_product_param {
    num_output: 38
    weight_filler {
      type: "xavier"
      std: 0.0009765625
    }
    bias_filler {
      type: "constant"
      value: 0
    }
  }
}
layer {
  name: "inception_4b/1x1"
  type: "Convolution"
  bottom: "inception_4a/output"
  top: "inception_4b/1x1"
  param {
    lr_mult: 1
    decay_mult: 1
  }
  param {
    lr_mult: 2
    decay_mult: 0
  }
  convolution_param {
    num_output: 160
    kernel_size: 1
    weight_filler {
      type: "xavier"
      std: 0.03
    }
    bias_filler {
      type: "constant"
      value: 0.2
    }
  }
}
layer {
  name: "inception_4b/relu_1x1"
  type: "ReLU"
  bottom: "inception_4b/1x1"
  top: "inception_4b/1x1"
}
layer {
  name: "inception_4b/3x3_reduce"
  type: "Convolution"
  bottom: "inception_4a/output"
  top: "inception_4b/3x3_reduce"
  param {
    lr_mult: 1
    decay_mult: 1
  }
  param {
    lr_mult: 2
    decay_mult: 0
  }
  convolution_param {
    num_output: 112
    kernel_size: 1
    weight_filler {
      type: "xavier"
      std: 0.09
    }
    bias_filler {
      type: "constant"
      value: 0.2
    }
  }
}
layer {
  name: "inception_4b/relu_3x3_reduce"
  type: "ReLU"
  bottom: "inception_4b/3x3_reduce"
  top: "inception_4b/3x3_reduce"
}
layer {
  name: "inception_4b/3x3"
  type: "Convolution"
  bottom: "inception_4b/3x3_reduce"
  top: "inception_4b/3x3"
  param {
    lr_mult: 1
    decay_mult: 1
  }
  param {
    lr_mult: 2
    decay_mult: 0
  }
  convolution_param {
    num_output: 224
    pad: 1
    kernel_size: 3
    weight_filler {
      type: "xavier"
      std: 0.03
    }
    bias_filler {
      type: "constant"
      value: 0.2
    }
  }
}
layer {
  name: "inception_4b/relu_3x3"
  type: "ReLU"
  bottom: "inception_4b/3x3"
  top: "inception_4b/3x3"
}
layer {
  name: "inception_4b/5x5_reduce"
  type: "Convolution"
  bottom: "inception_4a/output"
  top: "inception_4b/5x5_reduce"
  param {
    lr_mult: 1
    decay_mult: 1
  }
  param {
    lr_mult: 2
    decay_mult: 0
  }
  convolution_param {
    num_output: 24
    kernel_size: 1
    weight_filler {
      type: "xavier"
      std: 0.2
    }
    bias_filler {
      type: "constant"
      value: 0.2
    }
  }
}
layer {
  name: "inception_4b/relu_5x5_reduce"
  type: "ReLU"
  bottom: "inception_4b/5x5_reduce"
  top: "inception_4b/5x5_reduce"
}
layer {
  name: "inception_4b/5x5"
  type: "Convolution"
  bottom: "inception_4b/5x5_reduce"
  top: "inception_4b/5x5"
  param {
    lr_mult: 1
    decay_mult: 1
  }
  param {
    lr_mult: 2
    decay_mult: 0
  }
  convolution_param {
    num_output: 64
    pad: 2
    kernel_size: 5
    weight_filler {
      type: "xavier"
      std: 0.03
    }
    bias_filler {
      type: "constant"
      value: 0.2
    }
  }
}
layer {
  name: "inception_4b/relu_5x5"
  type: "ReLU"
  bottom: "inception_4b/5x5"
  top: "inception_4b/5x5"
}
layer {
  name: "inception_4b/pool"
  type: "Pooling"
  bottom: "inception_4a/output"
  top: "inception_4b/pool"
  pooling_param {
    pool: MAX
    kernel_size: 3
    stride: 1
    pad: 1
  }
}
layer {
  name: "inception_4b/pool_proj"
  type: "Convolution"
  bottom: "inception_4b/pool"
  top: "inception_4b/pool_proj"
  param {
    lr_mult: 1
    decay_mult: 1
  }
  param {
    lr_mult: 2
    decay_mult: 0
  }
  convolution_param {
    num_output: 64
    kernel_size: 1
    weight_filler {
      type: "xavier"
      std: 0.1
    }
    bias_filler {
      type: "constant"
      value: 0.2
    }
  }
}
layer {
  name: "inception_4b/relu_pool_proj"
  type: "ReLU"
  bottom: "inception_4b/pool_proj"
  top: "inception_4b/pool_proj"
}
layer {
  name: "inception_4b/output"
  type: "Concat"
  bottom: "inception_4b/1x1"
  bottom: "inception_4b/3x3"
  bottom: "inception_4b/5x5"
  bottom: "inception_4b/pool_proj"
  top: "inception_4b/output"
}
layer {
  name: "inception_4c/1x1"
  type: "Convolution"
  bottom: "inception_4b/output"
  top: "inception_4c/1x1"
  param {
    lr_mult: 1
    decay_mult: 1
  }
  param {
    lr_mult: 2
    decay_mult: 0
  }
  convolution_param {
    num_output: 128
    kernel_size: 1
    weight_filler {
      type: "xavier"
      std: 0.03
    }
    bias_filler {
      type: "constant"
      value: 0.2
    }
  }
}
layer {
  name: "inception_4c/relu_1x1"
  type: "ReLU"
  bottom: "inception_4c/1x1"
  top: "inception_4c/1x1"
}
layer {
  name: "inception_4c/3x3_reduce"
  type: "Convolution"
  bottom: "inception_4b/output"
  top: "inception_4c/3x3_reduce"
  param {
    lr_mult: 1
    decay_mult: 1
  }
  param {
    lr_mult: 2
    decay_mult: 0
  }
  convolution_param {
    num_output: 128
    kernel_size: 1
    weight_filler {
      type: "xavier"
      std: 0.09
    }
    bias_filler {
      type: "constant"
      value: 0.2
    }
  }
}
layer {
  name: "inception_4c/relu_3x3_reduce"
  type: "ReLU"
  bottom: "inception_4c/3x3_reduce"
  top: "inception_4c/3x3_reduce"
}
layer {
  name: "inception_4c/3x3"
  type: "Convolution"
  bottom: "inception_4c/3x3_reduce"
  top: "inception_4c/3x3"
  param {
    lr_mult: 1
    decay_mult: 1
  }
  param {
    lr_mult: 2
    decay_mult: 0
  }
  convolution_param {
    num_output: 256
    pad: 1
    kernel_size: 3
    weight_filler {
      type: "xavier"
      std: 0.03
    }
    bias_filler {
      type: "constant"
      value: 0.2
    }
  }
}
layer {
  name: "inception_4c/relu_3x3"
  type: "ReLU"
  bottom: "inception_4c/3x3"
  top: "inception_4c/3x3"
}
layer {
  name: "inception_4c/5x5_reduce"
  type: "Convolution"
  bottom: "inception_4b/output"
  top: "inception_4c/5x5_reduce"
  param {
    lr_mult: 1
    decay_mult: 1
  }
  param {
    lr_mult: 2
    decay_mult: 0
  }
  convolution_param {
    num_output: 24
    kernel_size: 1
    weight_filler {
      type: "xavier"
      std: 0.2
    }
    bias_filler {
      type: "constant"
      value: 0.2
    }
  }
}
layer {
  name: "inception_4c/relu_5x5_reduce"
  type: "ReLU"
  bottom: "inception_4c/5x5_reduce"
  top: "inception_4c/5x5_reduce"
}
layer {
  name: "inception_4c/5x5"
  type: "Convolution"
  bottom: "inception_4c/5x5_reduce"
  top: "inception_4c/5x5"
  param {
    lr_mult: 1
    decay_mult: 1
  }
  param {
    lr_mult: 2
    decay_mult: 0
  }
  convolution_param {
    num_output: 64
    pad: 2
    kernel_size: 5
    weight_filler {
      type: "xavier"
      std: 0.03
    }
    bias_filler {
      type: "constant"
      value: 0.2
    }
  }
}
layer {
  name: "inception_4c/relu_5x5"
  type: "ReLU"
  bottom: "inception_4c/5x5"
  top: "inception_4c/5x5"
}
layer {
  name: "inception_4c/pool"
  type: "Pooling"
  bottom: "inception_4b/output"
  top: "inception_4c/pool"
  pooling_param {
    pool: MAX
    kernel_size: 3
    stride: 1
    pad: 1
  }
}
layer {
  name: "inception_4c/pool_proj"
  type: "Convolution"
  bottom: "inception_4c/pool"
  top: "inception_4c/pool_proj"
  param {
    lr_mult: 1
    decay_mult: 1
  }
  param {
    lr_mult: 2
    decay_mult: 0
  }
  convolution_param {
    num_output: 64
    kernel_size: 1
    weight_filler {
      type: "xavier"
      std: 0.1
    }
    bias_filler {
      type: "constant"
      value: 0.2
    }
  }
}
layer {
  name: "inception_4c/relu_pool_proj"
  type: "ReLU"
  bottom: "inception_4c/pool_proj"
  top: "inception_4c/pool_proj"
}
layer {
  name: "inception_4c/output"
  type: "Concat"
  bottom: "inception_4c/1x1"
  bottom: "inception_4c/3x3"
  bottom: "inception_4c/5x5"
  bottom: "inception_4c/pool_proj"
  top: "inception_4c/output"
}
layer {
  name: "inception_4d/1x1"
  type: "Convolution"
  bottom: "inception_4c/output"
  top: "inception_4d/1x1"
  param {
    lr_mult: 1
    decay_mult: 1
  }
  param {
    lr_mult: 2
    decay_mult: 0
  }
  convolution_param {
    num_output: 112
    kernel_size: 1
    weight_filler {
      type: "xavier"
      std: 0.03
    }
    bias_filler {
      type: "constant"
      value: 0.2
    }
  }
}
layer {
  name: "inception_4d/relu_1x1"
  type: "ReLU"
  bottom: "inception_4d/1x1"
  top: "inception_4d/1x1"
}
layer {
  name: "inception_4d/3x3_reduce"
  type: "Convolution"
  bottom: "inception_4c/output"
  top: "inception_4d/3x3_reduce"
  param {
    lr_mult: 1
    decay_mult: 1
  }
  param {
    lr_mult: 2
    decay_mult: 0
  }
  convolution_param {
    num_output: 144
    kernel_size: 1
    weight_filler {
      type: "xavier"
      std: 0.09
    }
    bias_filler {
      type: "constant"
      value: 0.2
    }
  }
}
layer {
  name: "inception_4d/relu_3x3_reduce"
  type: "ReLU"
  bottom: "inception_4d/3x3_reduce"
  top: "inception_4d/3x3_reduce"
}
layer {
  name: "inception_4d/3x3"
  type: "Convolution"
  bottom: "inception_4d/3x3_reduce"
  top: "inception_4d/3x3"
  param {
    lr_mult: 1
    decay_mult: 1
  }
  param {
    lr_mult: 2
    decay_mult: 0
  }
  convolution_param {
    num_output: 288
    pad: 1
    kernel_size: 3
    weight_filler {
      type: "xavier"
      std: 0.03
    }
    bias_filler {
      type: "constant"
      value: 0.2
    }
  }
}
layer {
  name: "inception_4d/relu_3x3"
  type: "ReLU"
  bottom: "inception_4d/3x3"
  top: "inception_4d/3x3"
}
layer {
  name: "inception_4d/5x5_reduce"
  type: "Convolution"
  bottom: "inception_4c/output"
  top: "inception_4d/5x5_reduce"
  param {
    lr_mult: 1
    decay_mult: 1
  }
  param {
    lr_mult: 2
    decay_mult: 0
  }
  convolution_param {
    num_output: 32
    kernel_size: 1
    weight_filler {
      type: "xavier"
      std: 0.2
    }
    bias_filler {
      type: "constant"
      value: 0.2
    }
  }
}
layer {
  name: "inception_4d/relu_5x5_reduce"
  type: "ReLU"
  bottom: "inception_4d/5x5_reduce"
  top: "inception_4d/5x5_reduce"
}
layer {
  name: "inception_4d/5x5"
  type: "Convolution"
  bottom: "inception_4d/5x5_reduce"
  top: "inception_4d/5x5"
  param {
    lr_mult: 1
    decay_mult: 1
  }
  param {
    lr_mult: 2
    decay_mult: 0
  }
  convolution_param {
    num_output: 64
    pad: 2
    kernel_size: 5
    weight_filler {
      type: "xavier"
      std: 0.03
    }
    bias_filler {
      type: "constant"
      value: 0.2
    }
  }
}
layer {
  name: "inception_4d/relu_5x5"
  type: "ReLU"
  bottom: "inception_4d/5x5"
  top: "inception_4d/5x5"
}
layer {
  name: "inception_4d/pool"
  type: "Pooling"
  bottom: "inception_4c/output"
  top: "inception_4d/pool"
  pooling_param {
    pool: MAX
    kernel_size: 3
    stride: 1
    pad: 1
  }
}
layer {
  name: "inception_4d/pool_proj"
  type: "Convolution"
  bottom: "inception_4d/pool"
  top: "inception_4d/pool_proj"
  param {
    lr_mult: 1
    decay_mult: 1
  }
  param {
    lr_mult: 2
    decay_mult: 0
  }
  convolution_param {
    num_output: 64
    kernel_size: 1
    weight_filler {
      type: "xavier"
      std: 0.1
    }
    bias_filler {
      type: "constant"
      value: 0.2
    }
  }
}
layer {
  name: "inception_4d/relu_pool_proj"
  type: "ReLU"
  bottom: "inception_4d/pool_proj"
  top: "inception_4d/pool_proj"
}
layer {
  name: "inception_4d/output"
  type: "Concat"
  bottom: "inception_4d/1x1"
  bottom: "inception_4d/3x3"
  bottom: "inception_4d/5x5"
  bottom: "inception_4d/pool_proj"
  top: "inception_4d/output"
}
layer {
  name: "loss2/ave_pool"
  type: "Pooling"
  bottom: "inception_4d/output"
  top: "loss2/ave_pool"
  pooling_param {
    pool: AVE
    kernel_size: 5
    stride: 3
  }
}
layer {
  name: "loss2/conv"
  type: "Convolution"
  bottom: "loss2/ave_pool"
  top: "loss2/conv"
  param {
    lr_mult: 1
    decay_mult: 1
  }
  param {
    lr_mult: 2
    decay_mult: 0
  }
  convolution_param {
    num_output: 128
    kernel_size: 1
    weight_filler {
      type: "xavier"
      std: 0.08
    }
    bias_filler {
      type: "constant"
      value: 0.2
    }
  }
}
layer {
  name: "loss2/relu_conv"
  type: "ReLU"
  bottom: "loss2/conv"
  top: "loss2/conv"
}
layer {
  name: "loss2/fc"
  type: "InnerProduct"
  bottom: "loss2/conv"
  top: "loss2/fc"
  param {
    lr_mult: 1
    decay_mult: 1
  }
  param {
    lr_mult: 2
    decay_mult: 0
  }
  inner_product_param {
    num_output: 1024
    weight_filler {
      type: "xavier"
      std: 0.02
    }
    bias_filler {
      type: "constant"
      value: 0.2
    }
  }
}
layer {
  name: "loss2/relu_fc"
  type: "ReLU"
  bottom: "loss2/fc"
  top: "loss2/fc"
}
layer {
  name: "loss2/drop_fc"
  type: "Dropout"
  bottom: "loss2/fc"
  top: "loss2/fc"
  dropout_param {
    dropout_ratio: 0.7
  }
}
layer {
  name: "loss2/classifier_plantvillage"
  type: "InnerProduct"
  bottom: "loss2/fc"
  top: "loss2/classifier_plantvillage"
  param {
    lr_mult: 1
    decay_mult: 1
  }
  param {
    lr_mult: 2
    decay_mult: 0
  }
  inner_product_param {
    num_output: 38
    weight_filler {
      type: "xavier"
      std: 0.0009765625
    }
    bias_filler {
      type: "constant"
      value: 0
    }
  }
}
layer {
  name: "inception_4e/1x1"
  type: "Convolution"
  bottom: "inception_4d/output"
  top: "inception_4e/1x1"
  param {
    lr_mult: 1
    decay_mult: 1
  }
  param {
    lr_mult: 2
    decay_mult: 0
  }
  convolution_param {
    num_output: 256
    kernel_size: 1
    weight_filler {
      type: "xavier"
      std: 0.03
    }
    bias_filler {
      type: "constant"
      value: 0.2
    }
  }
}
layer {
  name: "inception_4e/relu_1x1"
  type: "ReLU"
  bottom: "inception_4e/1x1"
  top: "inception_4e/1x1"
}
layer {
  name: "inception_4e/3x3_reduce"
  type: "Convolution"
  bottom: "inception_4d/output"
  top: "inception_4e/3x3_reduce"
  param {
    lr_mult: 1
    decay_mult: 1
  }
  param {
    lr_mult: 2
    decay_mult: 0
  }
  convolution_param {
    num_output: 160
    kernel_size: 1
    weight_filler {
      type: "xavier"
      std: 0.09
    }
    bias_filler {
      type: "constant"
      value: 0.2
    }
  }
}
layer {
  name: "inception_4e/relu_3x3_reduce"
  type: "ReLU"
  bottom: "inception_4e/3x3_reduce"
  top: "inception_4e/3x3_reduce"
}
layer {
  name: "inception_4e/3x3"
  type: "Convolution"
  bottom: "inception_4e/3x3_reduce"
  top: "inception_4e/3x3"
  param {
    lr_mult: 1
    decay_mult: 1
  }
  param {
    lr_mult: 2
    decay_mult: 0
  }
  convolution_param {
    num_output: 320
    pad: 1
    kernel_size: 3
    weight_filler {
      type: "xavier"
      std: 0.03
    }
    bias_filler {
      type: "constant"
      value: 0.2
    }
  }
}
layer {
  name: "inception_4e/relu_3x3"
  type: "ReLU"
  bottom: "inception_4e/3x3"
  top: "inception_4e/3x3"
}
layer {
  name: "inception_4e/5x5_reduce"
  type: "Convolution"
  bottom: "inception_4d/output"
  top: "inception_4e/5x5_reduce"
  param {
    lr_mult: 1
    decay_mult: 1
  }
  param {
    lr_mult: 2
    decay_mult: 0
  }
  convolution_param {
    num_output: 32
    kernel_size: 1
    weight_filler {
      type: "xavier"
      std: 0.2
    }
    bias_filler {
      type: "constant"
      value: 0.2
    }
  }
}
layer {
  name: "inception_4e/relu_5x5_reduce"
  type: "ReLU"
  bottom: "inception_4e/5x5_reduce"
  top: "inception_4e/5x5_reduce"
}
layer {
  name: "inception_4e/5x5"
  type: "Convolution"
  bottom: "inception_4e/5x5_reduce"
  top: "inception_4e/
I0403 14:46:42.565477 11099 layer_factory.hpp:77] Creating layer data
I0403 14:46:42.566102 11099 net.cpp:91] Creating Layer data
I0403 14:46:42.566146 11099 net.cpp:399] data -> data
I0403 14:46:42.566198 11099 net.cpp:399] data -> label
I0403 14:46:42.566238 11099 data_transformer.cpp:25] Loading mean file from: /home/mohanty/data/final_dataset/lmdb/grayscale-60-40/mean.binaryproto
I0403 14:46:42.569152 11104 db_lmdb.cpp:38] Opened lmdb /home/mohanty/data/final_dataset/lmdb/grayscale-60-40/test_db
I0403 14:46:42.579910 11099 data_layer.cpp:41] output data size: 24,3,224,224
I0403 14:46:42.607800 11099 net.cpp:141] Setting up data
I0403 14:46:42.607858 11099 net.cpp:148] Top shape: 24 3 224 224 (3612672)
I0403 14:46:42.607884 11099 net.cpp:148] Top shape: 24 (24)
I0403 14:46:42.607902 11099 net.cpp:156] Memory required for data: 14450784
I0403 14:46:42.607928 11099 layer_factory.hpp:77] Creating layer label_data_1_split
I0403 14:46:42.607954 11099 net.cpp:91] Creating Layer label_data_1_split
I0403 14:46:42.607972 11099 net.cpp:425] label_data_1_split <- label
I0403 14:46:42.608005 11099 net.cpp:399] label_data_1_split -> label_data_1_split_0
I0403 14:46:42.608031 11099 net.cpp:399] label_data_1_split -> label_data_1_split_1
I0403 14:46:42.608054 11099 net.cpp:399] label_data_1_split -> label_data_1_split_2
I0403 14:46:42.608077 11099 net.cpp:399] label_data_1_split -> label_data_1_split_3
I0403 14:46:42.608098 11099 net.cpp:399] label_data_1_split -> label_data_1_split_4
I0403 14:46:42.608119 11099 net.cpp:399] label_data_1_split -> label_data_1_split_5
I0403 14:46:42.608145 11099 net.cpp:399] label_data_1_split -> label_data_1_split_6
I0403 14:46:42.608170 11099 net.cpp:399] label_data_1_split -> label_data_1_split_7
I0403 14:46:42.608191 11099 net.cpp:399] label_data_1_split -> label_data_1_split_8
I0403 14:46:42.608211 11099 net.cpp:399] label_data_1_split -> label_data_1_split_9
I0403 14:46:42.608331 11099 net.cpp:141] Setting up label_data_1_split
I0403 14:46:42.608360 11099 net.cpp:148] Top shape: 24 (24)
I0403 14:46:42.608378 11099 net.cpp:148] Top shape: 24 (24)
I0403 14:46:42.608395 11099 net.cpp:148] Top shape: 24 (24)
I0403 14:46:42.608413 11099 net.cpp:148] Top shape: 24 (24)
I0403 14:46:42.608430 11099 net.cpp:148] Top shape: 24 (24)
I0403 14:46:42.608446 11099 net.cpp:148] Top shape: 24 (24)
I0403 14:46:42.608464 11099 net.cpp:148] Top shape: 24 (24)
I0403 14:46:42.608481 11099 net.cpp:148] Top shape: 24 (24)
I0403 14:46:42.608499 11099 net.cpp:148] Top shape: 24 (24)
I0403 14:46:42.608515 11099 net.cpp:148] Top shape: 24 (24)
I0403 14:46:42.608549 11099 net.cpp:156] Memory required for data: 14451744
I0403 14:46:42.608566 11099 layer_factory.hpp:77] Creating layer conv1/7x7_s2
I0403 14:46:42.608597 11099 net.cpp:91] Creating Layer conv1/7x7_s2
I0403 14:46:42.608618 11099 net.cpp:425] conv1/7x7_s2 <- data
I0403 14:46:42.608639 11099 net.cpp:399] conv1/7x7_s2 -> conv1/7x7_s2
I0403 14:46:42.750049 11099 net.cpp:141] Setting up conv1/7x7_s2
I0403 14:46:42.750146 11099 net.cpp:148] Top shape: 24 64 112 112 (19267584)
I0403 14:46:42.750165 11099 net.cpp:156] Memory required for data: 91522080
I0403 14:46:42.750198 11099 layer_factory.hpp:77] Creating layer conv1/relu_7x7
I0403 14:46:42.750226 11099 net.cpp:91] Creating Layer conv1/relu_7x7
I0403 14:46:42.750246 11099 net.cpp:425] conv1/relu_7x7 <- conv1/7x7_s2
I0403 14:46:42.750264 11099 net.cpp:386] conv1/relu_7x7 -> conv1/7x7_s2 (in-place)
I0403 14:46:42.750576 11099 net.cpp:141] Setting up conv1/relu_7x7
I0403 14:46:42.750605 11099 net.cpp:148] Top shape: 24 64 112 112 (19267584)
I0403 14:46:42.750622 11099 net.cpp:156] Memory required for data: 168592416
I0403 14:46:42.750639 11099 layer_factory.hpp:77] Creating layer pool1/3x3_s2
I0403 14:46:42.750668 11099 net.cpp:91] Creating Layer pool1/3x3_s2
I0403 14:46:42.750687 11099 net.cpp:425] pool1/3x3_s2 <- conv1/7x7_s2
I0403 14:46:42.750706 11099 net.cpp:399] pool1/3x3_s2 -> pool1/3x3_s2
I0403 14:46:42.750787 11099 net.cpp:141] Setting up pool1/3x3_s2
I0403 14:46:42.750813 11099 net.cpp:148] Top shape: 24 64 56 56 (4816896)
I0403 14:46:42.750828 11099 net.cpp:156] Memory required for data: 187860000
I0403 14:46:42.750844 11099 layer_factory.hpp:77] Creating layer pool1/norm1
I0403 14:46:42.750872 11099 net.cpp:91] Creating Layer pool1/norm1
I0403 14:46:42.750893 11099 net.cpp:425] pool1/norm1 <- pool1/3x3_s2
I0403 14:46:42.750911 11099 net.cpp:399] pool1/norm1 -> pool1/norm1
I0403 14:46:42.751221 11099 net.cpp:141] Setting up pool1/norm1
I0403 14:46:42.751250 11099 net.cpp:148] Top shape: 24 64 56 56 (4816896)
I0403 14:46:42.751266 11099 net.cpp:156] Memory required for data: 207127584
I0403 14:46:42.751282 11099 layer_factory.hpp:77] Creating layer conv2/3x3_reduce
I0403 14:46:42.751312 11099 net.cpp:91] Creating Layer conv2/3x3_reduce
I0403 14:46:42.751330 11099 net.cpp:425] conv2/3x3_reduce <- pool1/norm1
I0403 14:46:42.751349 11099 net.cpp:399] conv2/3x3_reduce -> conv2/3x3_reduce
I0403 14:46:42.752830 11099 net.cpp:141] Setting up conv2/3x3_reduce
I0403 14:46:42.752861 11099 net.cpp:148] Top shape: 24 64 56 56 (4816896)
I0403 14:46:42.752878 11099 net.cpp:156] Memory required for data: 226395168
I0403 14:46:42.752902 11099 layer_factory.hpp:77] Creating layer conv2/relu_3x3_reduce
I0403 14:46:42.752920 11099 net.cpp:91] Creating Layer conv2/relu_3x3_reduce
I0403 14:46:42.752941 11099 net.cpp:425] conv2/relu_3x3_reduce <- conv2/3x3_reduce
I0403 14:46:42.752960 11099 net.cpp:386] conv2/relu_3x3_reduce -> conv2/3x3_reduce (in-place)
I0403 14:46:42.753249 11099 net.cpp:141] Setting up conv2/relu_3x3_reduce
I0403 14:46:42.753278 11099 net.cpp:148] Top shape: 24 64 56 56 (4816896)
I0403 14:46:42.753293 11099 net.cpp:156] Memory required for data: 245662752
I0403 14:46:42.753309 11099 layer_factory.hpp:77] Creating layer conv2/3x3
I0403 14:46:42.753334 11099 net.cpp:91] Creating Layer conv2/3x3
I0403 14:46:42.753355 11099 net.cpp:425] conv2/3x3 <- conv2/3x3_reduce
I0403 14:46:42.753377 11099 net.cpp:399] conv2/3x3 -> conv2/3x3
I0403 14:46:42.755892 11099 net.cpp:141] Setting up conv2/3x3
I0403 14:46:42.755924 11099 net.cpp:148] Top shape: 24 192 56 56 (14450688)
I0403 14:46:42.755941 11099 net.cpp:156] Memory required for data: 303465504
I0403 14:46:42.755964 11099 layer_factory.hpp:77] Creating layer conv2/relu_3x3
I0403 14:46:42.755987 11099 net.cpp:91] Creating Layer conv2/relu_3x3
I0403 14:46:42.756006 11099 net.cpp:425] conv2/relu_3x3 <- conv2/3x3
I0403 14:46:42.756024 11099 net.cpp:386] conv2/relu_3x3 -> conv2/3x3 (in-place)
I0403 14:46:42.756206 11099 net.cpp:141] Setting up conv2/relu_3x3
I0403 14:46:42.756234 11099 net.cpp:148] Top shape: 24 192 56 56 (14450688)
I0403 14:46:42.756289 11099 net.cpp:156] Memory required for data: 361268256
I0403 14:46:42.756305 11099 layer_factory.hpp:77] Creating layer conv2/norm2
I0403 14:46:42.756326 11099 net.cpp:91] Creating Layer conv2/norm2
I0403 14:46:42.756345 11099 net.cpp:425] conv2/norm2 <- conv2/3x3
I0403 14:46:42.756367 11099 net.cpp:399] conv2/norm2 -> conv2/norm2
I0403 14:46:42.756680 11099 net.cpp:141] Setting up conv2/norm2
I0403 14:46:42.756711 11099 net.cpp:148] Top shape: 24 192 56 56 (14450688)
I0403 14:46:42.756727 11099 net.cpp:156] Memory required for data: 419071008
I0403 14:46:42.756743 11099 layer_factory.hpp:77] Creating layer pool2/3x3_s2
I0403 14:46:42.756762 11099 net.cpp:91] Creating Layer pool2/3x3_s2
I0403 14:46:42.756779 11099 net.cpp:425] pool2/3x3_s2 <- conv2/norm2
I0403 14:46:42.756800 11099 net.cpp:399] pool2/3x3_s2 -> pool2/3x3_s2
I0403 14:46:42.756855 11099 net.cpp:141] Setting up pool2/3x3_s2
I0403 14:46:42.756883 11099 net.cpp:148] Top shape: 24 192 28 28 (3612672)
I0403 14:46:42.756899 11099 net.cpp:156] Memory required for data: 433521696
I0403 14:46:42.756913 11099 layer_factory.hpp:77] Creating layer pool2/3x3_s2_pool2/3x3_s2_0_split
I0403 14:46:42.756932 11099 net.cpp:91] Creating Layer pool2/3x3_s2_pool2/3x3_s2_0_split
I0403 14:46:42.756947 11099 net.cpp:425] pool2/3x3_s2_pool2/3x3_s2_0_split <- pool2/3x3_s2
I0403 14:46:42.756965 11099 net.cpp:399] pool2/3x3_s2_pool2/3x3_s2_0_split -> pool2/3x3_s2_pool2/3x3_s2_0_split_0
I0403 14:46:42.756986 11099 net.cpp:399] pool2/3x3_s2_pool2/3x3_s2_0_split -> pool2/3x3_s2_pool2/3x3_s2_0_split_1
I0403 14:46:42.757011 11099 net.cpp:399] pool2/3x3_s2_pool2/3x3_s2_0_split -> pool2/3x3_s2_pool2/3x3_s2_0_split_2
I0403 14:46:42.757035 11099 net.cpp:399] pool2/3x3_s2_pool2/3x3_s2_0_split -> pool2/3x3_s2_pool2/3x3_s2_0_split_3
I0403 14:46:42.757113 11099 net.cpp:141] Setting up pool2/3x3_s2_pool2/3x3_s2_0_split
I0403 14:46:42.757139 11099 net.cpp:148] Top shape: 24 192 28 28 (3612672)
I0403 14:46:42.757156 11099 net.cpp:148] Top shape: 24 192 28 28 (3612672)
I0403 14:46:42.757174 11099 net.cpp:148] Top shape: 24 192 28 28 (3612672)
I0403 14:46:42.757189 11099 net.cpp:148] Top shape: 24 192 28 28 (3612672)
I0403 14:46:42.757205 11099 net.cpp:156] Memory required for data: 491324448
I0403 14:46:42.757220 11099 layer_factory.hpp:77] Creating layer inception_3a/1x1
I0403 14:46:42.757242 11099 net.cpp:91] Creating Layer inception_3a/1x1
I0403 14:46:42.757261 11099 net.cpp:425] inception_3a/1x1 <- pool2/3x3_s2_pool2/3x3_s2_0_split_0
I0403 14:46:42.757283 11099 net.cpp:399] inception_3a/1x1 -> inception_3a/1x1
I0403 14:46:42.758870 11099 net.cpp:141] Setting up inception_3a/1x1
I0403 14:46:42.758901 11099 net.cpp:148] Top shape: 24 64 28 28 (1204224)
I0403 14:46:42.758919 11099 net.cpp:156] Memory required for data: 496141344
I0403 14:46:42.758939 11099 layer_factory.hpp:77] Creating layer inception_3a/relu_1x1
I0403 14:46:42.758958 11099 net.cpp:91] Creating Layer inception_3a/relu_1x1
I0403 14:46:42.758975 11099 net.cpp:425] inception_3a/relu_1x1 <- inception_3a/1x1
I0403 14:46:42.758996 11099 net.cpp:386] inception_3a/relu_1x1 -> inception_3a/1x1 (in-place)
I0403 14:46:42.759181 11099 net.cpp:141] Setting up inception_3a/relu_1x1
I0403 14:46:42.759243 11099 net.cpp:148] Top shape: 24 64 28 28 (1204224)
I0403 14:46:42.759263 11099 net.cpp:156] Memory required for data: 500958240
I0403 14:46:42.759279 11099 layer_factory.hpp:77] Creating layer inception_3a/3x3_reduce
I0403 14:46:42.759305 11099 net.cpp:91] Creating Layer inception_3a/3x3_reduce
I0403 14:46:42.759323 11099 net.cpp:425] inception_3a/3x3_reduce <- pool2/3x3_s2_pool2/3x3_s2_0_split_1
I0403 14:46:42.759346 11099 net.cpp:399] inception_3a/3x3_reduce -> inception_3a/3x3_reduce
I0403 14:46:42.761122 11099 net.cpp:141] Setting up inception_3a/3x3_reduce
I0403 14:46:42.761153 11099 net.cpp:148] Top shape: 24 96 28 28 (1806336)
I0403 14:46:42.761170 11099 net.cpp:156] Memory required for data: 508183584
I0403 14:46:42.761193 11099 layer_factory.hpp:77] Creating layer inception_3a/relu_3x3_reduce
I0403 14:46:42.761237 11099 net.cpp:91] Creating Layer inception_3a/relu_3x3_reduce
I0403 14:46:42.761256 11099 net.cpp:425] inception_3a/relu_3x3_reduce <- inception_3a/3x3_reduce
I0403 14:46:42.761276 11099 net.cpp:386] inception_3a/relu_3x3_reduce -> inception_3a/3x3_reduce (in-place)
I0403 14:46:42.761458 11099 net.cpp:141] Setting up inception_3a/relu_3x3_reduce
I0403 14:46:42.761488 11099 net.cpp:148] Top shape: 24 96 28 28 (1806336)
I0403 14:46:42.761505 11099 net.cpp:156] Memory required for data: 515408928
I0403 14:46:42.761521 11099 layer_factory.hpp:77] Creating layer inception_3a/3x3
I0403 14:46:42.761544 11099 net.cpp:91] Creating Layer inception_3a/3x3
I0403 14:46:42.761564 11099 net.cpp:425] inception_3a/3x3 <- inception_3a/3x3_reduce
I0403 14:46:42.761584 11099 net.cpp:399] inception_3a/3x3 -> inception_3a/3x3
I0403 14:46:42.763320 11099 net.cpp:141] Setting up inception_3a/3x3
I0403 14:46:42.763352 11099 net.cpp:148] Top shape: 24 128 28 28 (2408448)
I0403 14:46:42.763370 11099 net.cpp:156] Memory required for data: 525042720
I0403 14:46:42.763389 11099 layer_factory.hpp:77] Creating layer inception_3a/relu_3x3
I0403 14:46:42.763409 11099 net.cpp:91] Creating Layer inception_3a/relu_3x3
I0403 14:46:42.763427 11099 net.cpp:425] inception_3a/relu_3x3 <- inception_3a/3x3
I0403 14:46:42.763445 11099 net.cpp:386] inception_3a/relu_3x3 -> inception_3a/3x3 (in-place)
I0403 14:46:42.763725 11099 net.cpp:141] Setting up inception_3a/relu_3x3
I0403 14:46:42.763752 11099 net.cpp:148] Top shape: 24 128 28 28 (2408448)
I0403 14:46:42.763767 11099 net.cpp:156] Memory required for data: 534676512
I0403 14:46:42.763784 11099 layer_factory.hpp:77] Creating layer inception_3a/5x5_reduce
I0403 14:46:42.763808 11099 net.cpp:91] Creating Layer inception_3a/5x5_reduce
I0403 14:46:42.763826 11099 net.cpp:425] inception_3a/5x5_reduce <- pool2/3x3_s2_pool2/3x3_s2_0_split_2
I0403 14:46:42.763849 11099 net.cpp:399] inception_3a/5x5_reduce -> inception_3a/5x5_reduce
I0403 14:46:42.764870 11099 net.cpp:141] Setting up inception_3a/5x5_reduce
I0403 14:46:42.764900 11099 net.cpp:148] Top shape: 24 16 28 28 (301056)
I0403 14:46:42.764916 11099 net.cpp:156] Memory required for data: 535880736
I0403 14:46:42.764936 11099 layer_factory.hpp:77] Creating layer inception_3a/relu_5x5_reduce
I0403 14:46:42.764960 11099 net.cpp:91] Creating Layer inception_3a/relu_5x5_reduce
I0403 14:46:42.764978 11099 net.cpp:425] inception_3a/relu_5x5_reduce <- inception_3a/5x5_reduce
I0403 14:46:42.764997 11099 net.cpp:386] inception_3a/relu_5x5_reduce -> inception_3a/5x5_reduce (in-place)
I0403 14:46:42.765303 11099 net.cpp:141] Setting up inception_3a/relu_5x5_reduce
I0403 14:46:42.765331 11099 net.cpp:148] Top shape: 24 16 28 28 (301056)
I0403 14:46:42.765349 11099 net.cpp:156] Memory required for data: 537084960
I0403 14:46:42.765364 11099 layer_factory.hpp:77] Creating layer inception_3a/5x5
I0403 14:46:42.765390 11099 net.cpp:91] Creating Layer inception_3a/5x5
I0403 14:46:42.765409 11099 net.cpp:425] inception_3a/5x5 <- inception_3a/5x5_reduce
I0403 14:46:42.765430 11099 net.cpp:399] inception_3a/5x5 -> inception_3a/5x5
I0403 14:46:42.766533 11099 net.cpp:141] Setting up inception_3a/5x5
I0403 14:46:42.766563 11099 net.cpp:148] Top shape: 24 32 28 28 (602112)
I0403 14:46:42.766579 11099 net.cpp:156] Memory required for data: 539493408
I0403 14:46:42.766598 11099 layer_factory.hpp:77] Creating layer inception_3a/relu_5x5
I0403 14:46:42.766618 11099 net.cpp:91] Creating Layer inception_3a/relu_5x5
I0403 14:46:42.766635 11099 net.cpp:425] inception_3a/relu_5x5 <- inception_3a/5x5
I0403 14:46:42.766656 11099 net.cpp:386] inception_3a/relu_5x5 -> inception_3a/5x5 (in-place)
I0403 14:46:42.766834 11099 net.cpp:141] Setting up inception_3a/relu_5x5
I0403 14:46:42.766860 11099 net.cpp:148] Top shape: 24 32 28 28 (602112)
I0403 14:46:42.766876 11099 net.cpp:156] Memory required for data: 541901856
I0403 14:46:42.766891 11099 layer_factory.hpp:77] Creating layer inception_3a/pool
I0403 14:46:42.766912 11099 net.cpp:91] Creating Layer inception_3a/pool
I0403 14:46:42.766945 11099 net.cpp:425] inception_3a/pool <- pool2/3x3_s2_pool2/3x3_s2_0_split_3
I0403 14:46:42.766966 11099 net.cpp:399] inception_3a/pool -> inception_3a/pool
I0403 14:46:42.767029 11099 net.cpp:141] Setting up inception_3a/pool
I0403 14:46:42.767053 11099 net.cpp:148] Top shape: 24 192 28 28 (3612672)
I0403 14:46:42.767069 11099 net.cpp:156] Memory required for data: 556352544
I0403 14:46:42.767083 11099 layer_factory.hpp:77] Creating layer inception_3a/pool_proj
I0403 14:46:42.767112 11099 net.cpp:91] Creating Layer inception_3a/pool_proj
I0403 14:46:42.767132 11099 net.cpp:425] inception_3a/pool_proj <- inception_3a/pool
I0403 14:46:42.767153 11099 net.cpp:399] inception_3a/pool_proj -> inception_3a/pool_proj
I0403 14:46:42.768151 11099 net.cpp:141] Setting up inception_3a/pool_proj
I0403 14:46:42.768183 11099 net.cpp:148] Top shape: 24 32 28 28 (602112)
I0403 14:46:42.768203 11099 net.cpp:156] Memory required for data: 558760992
I0403 14:46:42.768225 11099 layer_factory.hpp:77] Creating layer inception_3a/relu_pool_proj
I0403 14:46:42.768251 11099 net.cpp:91] Creating Layer inception_3a/relu_pool_proj
I0403 14:46:42.768271 11099 net.cpp:425] inception_3a/relu_pool_proj <- inception_3a/pool_proj
I0403 14:46:42.768291 11099 net.cpp:386] inception_3a/relu_pool_proj -> inception_3a/pool_proj (in-place)
I0403 14:46:42.768579 11099 net.cpp:141] Setting up inception_3a/relu_pool_proj
I0403 14:46:42.768606 11099 net.cpp:148] Top shape: 24 32 28 28 (602112)
I0403 14:46:42.768623 11099 net.cpp:156] Memory required for data: 561169440
I0403 14:46:42.768651 11099 layer_factory.hpp:77] Creating layer inception_3a/output
I0403 14:46:42.768669 11099 net.cpp:91] Creating Layer inception_3a/output
I0403 14:46:42.768687 11099 net.cpp:425] inception_3a/output <- inception_3a/1x1
I0403 14:46:42.768717 11099 net.cpp:425] inception_3a/output <- inception_3a/3x3
I0403 14:46:42.768734 11099 net.cpp:425] inception_3a/output <- inception_3a/5x5
I0403 14:46:42.768750 11099 net.cpp:425] inception_3a/output <- inception_3a/pool_proj
I0403 14:46:42.768771 11099 net.cpp:399] inception_3a/output -> inception_3a/output
I0403 14:46:42.768824 11099 net.cpp:141] Setting up inception_3a/output
I0403 14:46:42.768851 11099 net.cpp:148] Top shape: 24 256 28 28 (4816896)
I0403 14:46:42.768867 11099 net.cpp:156] Memory required for data: 580437024
I0403 14:46:42.768882 11099 layer_factory.hpp:77] Creating layer inception_3a/output_inception_3a/output_0_split
I0403 14:46:42.768903 11099 net.cpp:91] Creating Layer inception_3a/output_inception_3a/output_0_split
I0403 14:46:42.768920 11099 net.cpp:425] inception_3a/output_inception_3a/output_0_split <- inception_3a/output
I0403 14:46:42.768941 11099 net.cpp:399] inception_3a/output_inception_3a/output_0_split -> inception_3a/output_inception_3a/output_0_split_0
I0403 14:46:42.768965 11099 net.cpp:399] inception_3a/output_inception_3a/output_0_split -> inception_3a/output_inception_3a/output_0_split_1
I0403 14:46:42.768990 11099 net.cpp:399] inception_3a/output_inception_3a/output_0_split -> inception_3a/output_inception_3a/output_0_split_2
I0403 14:46:42.769014 11099 net.cpp:399] inception_3a/output_inception_3a/output_0_split -> inception_3a/output_inception_3a/output_0_split_3
I0403 14:46:42.769104 11099 net.cpp:141] Setting up inception_3a/output_inception_3a/output_0_split
I0403 14:46:42.769129 11099 net.cpp:148] Top shape: 24 256 28 28 (4816896)
I0403 14:46:42.769148 11099 net.cpp:148] Top shape: 24 256 28 28 (4816896)
I0403 14:46:42.769165 11099 net.cpp:148] Top shape: 24 256 28 28 (4816896)
I0403 14:46:42.769182 11099 net.cpp:148] Top shape: 24 256 28 28 (4816896)
I0403 14:46:42.769196 11099 net.cpp:156] Memory required for data: 657507360
I0403 14:46:42.769213 11099 layer_factory.hpp:77] Creating layer inception_3b/1x1
I0403 14:46:42.769238 11099 net.cpp:91] Creating Layer inception_3b/1x1
I0403 14:46:42.769258 11099 net.cpp:425] inception_3b/1x1 <- inception_3a/output_inception_3a/output_0_split_0
I0403 14:46:42.769291 11099 net.cpp:399] inception_3b/1x1 -> inception_3b/1x1
I0403 14:46:42.770442 11099 net.cpp:141] Setting up inception_3b/1x1
I0403 14:46:42.770486 11099 net.cpp:148] Top shape: 24 128 28 28 (2408448)
I0403 14:46:42.770504 11099 net.cpp:156] Memory required for data: 667141152
I0403 14:46:42.770524 11099 layer_factory.hpp:77] Creating layer inception_3b/relu_1x1
I0403 14:46:42.770544 11099 net.cpp:91] Creating Layer inception_3b/relu_1x1
I0403 14:46:42.770561 11099 net.cpp:425] inception_3b/relu_1x1 <- inception_3b/1x1
I0403 14:46:42.770582 11099 net.cpp:386] inception_3b/relu_1x1 -> inception_3b/1x1 (in-place)
I0403 14:46:42.770758 11099 net.cpp:141] Setting up inception_3b/relu_1x1
I0403 14:46:42.770786 11099 net.cpp:148] Top shape: 24 128 28 28 (2408448)
I0403 14:46:42.770802 11099 net.cpp:156] Memory required for data: 676774944
I0403 14:46:42.770817 11099 layer_factory.hpp:77] Creating layer inception_3b/3x3_reduce
I0403 14:46:42.770841 11099 net.cpp:91] Creating Layer inception_3b/3x3_reduce
I0403 14:46:42.770860 11099 net.cpp:425] inception_3b/3x3_reduce <- inception_3a/output_inception_3a/output_0_split_1
I0403 14:46:42.770884 11099 net.cpp:399] inception_3b/3x3_reduce -> inception_3b/3x3_reduce
I0403 14:46:42.772042 11099 net.cpp:141] Setting up inception_3b/3x3_reduce
I0403 14:46:42.772071 11099 net.cpp:148] Top shape: 24 128 28 28 (2408448)
I0403 14:46:42.772086 11099 net.cpp:156] Memory required for data: 686408736
I0403 14:46:42.772111 11099 layer_factory.hpp:77] Creating layer inception_3b/relu_3x3_reduce
I0403 14:46:42.772130 11099 net.cpp:91] Creating Layer inception_3b/relu_3x3_reduce
I0403 14:46:42.772147 11099 net.cpp:425] inception_3b/relu_3x3_reduce <- inception_3b/3x3_reduce
I0403 14:46:42.772168 11099 net.cpp:386] inception_3b/relu_3x3_reduce -> inception_3b/3x3_reduce (in-place)
I0403 14:46:42.772344 11099 net.cpp:141] Setting up inception_3b/relu_3x3_reduce
I0403 14:46:42.772372 11099 net.cpp:148] Top shape: 24 128 28 28 (2408448)
I0403 14:46:42.772388 11099 net.cpp:156] Memory required for data: 696042528
I0403 14:46:42.772403 11099 layer_factory.hpp:77] Creating layer inception_3b/3x3
I0403 14:46:42.772430 11099 net.cpp:91] Creating Layer inception_3b/3x3
I0403 14:46:42.772450 11099 net.cpp:425] inception_3b/3x3 <- inception_3b/3x3_reduce
I0403 14:46:42.772471 11099 net.cpp:399] inception_3b/3x3 -> inception_3b/3x3
I0403 14:46:42.775434 11099 net.cpp:141] Setting up inception_3b/3x3
I0403 14:46:42.775463 11099 net.cpp:148] Top shape: 24 192 28 28 (3612672)
I0403 14:46:42.775481 11099 net.cpp:156] Memory required for data: 710493216
I0403 14:46:42.775501 11099 layer_factory.hpp:77] Creating layer inception_3b/relu_3x3
I0403 14:46:42.775521 11099 net.cpp:91] Creating Layer inception_3b/relu_3x3
I0403 14:46:42.775539 11099 net.cpp:425] inception_3b/relu_3x3 <- inception_3b/3x3
I0403 14:46:42.775557 11099 net.cpp:386] inception_3b/relu_3x3 -> inception_3b/3x3 (in-place)
I0403 14:46:42.775840 11099 net.cpp:141] Setting up inception_3b/relu_3x3
I0403 14:46:42.775867 11099 net.cpp:148] Top shape: 24 192 28 28 (3612672)
I0403 14:46:42.775883 11099 net.cpp:156] Memory required for data: 724943904
I0403 14:46:42.775899 11099 layer_factory.hpp:77] Creating layer inception_3b/5x5_reduce
I0403 14:46:42.775924 11099 net.cpp:91] Creating Layer inception_3b/5x5_reduce
I0403 14:46:42.775944 11099 net.cpp:425] inception_3b/5x5_reduce <- inception_3a/output_inception_3a/output_0_split_2
I0403 14:46:42.775966 11099 net.cpp:399] inception_3b/5x5_reduce -> inception_3b/5x5_reduce
I0403 14:46:42.776978 11099 net.cpp:141] Setting up inception_3b/5x5_reduce
I0403 14:46:42.777006 11099 net.cpp:148] Top shape: 24 32 28 28 (602112)
I0403 14:46:42.777022 11099 net.cpp:156] Memory required for data: 727352352
I0403 14:46:42.777042 11099 layer_factory.hpp:77] Creating layer inception_3b/relu_5x5_reduce
I0403 14:46:42.777061 11099 net.cpp:91] Creating Layer inception_3b/relu_5x5_reduce
I0403 14:46:42.777078 11099 net.cpp:425] inception_3b/relu_5x5_reduce <- inception_3b/5x5_reduce
I0403 14:46:42.777102 11099 net.cpp:386] inception_3b/relu_5x5_reduce -> inception_3b/5x5_reduce (in-place)
I0403 14:46:42.777300 11099 net.cpp:141] Setting up inception_3b/relu_5x5_reduce
I0403 14:46:42.777328 11099 net.cpp:148] Top shape: 24 32 28 28 (602112)
I0403 14:46:42.777343 11099 net.cpp:156] Memory required for data: 729760800
I0403 14:46:42.777360 11099 layer_factory.hpp:77] Creating layer inception_3b/5x5
I0403 14:46:42.777384 11099 net.cpp:91] Creating Layer inception_3b/5x5
I0403 14:46:42.777403 11099 net.cpp:425] inception_3b/5x5 <- inception_3b/5x5_reduce
I0403 14:46:42.777426 11099 net.cpp:399] inception_3b/5x5 -> inception_3b/5x5
I0403 14:46:42.779422 11099 net.cpp:141] Setting up inception_3b/5x5
I0403 14:46:42.779453 11099 net.cpp:148] Top shape: 24 96 28 28 (1806336)
I0403 14:46:42.779470 11099 net.cpp:156] Memory required for data: 736986144
I0403 14:46:42.779490 11099 layer_factory.hpp:77] Creating layer inception_3b/relu_5x5
I0403 14:46:42.779510 11099 net.cpp:91] Creating Layer inception_3b/relu_5x5
I0403 14:46:42.779527 11099 net.cpp:425] inception_3b/relu_5x5 <- inception_3b/5x5
I0403 14:46:42.779551 11099 net.cpp:386] inception_3b/relu_5x5 -> inception_3b/5x5 (in-place)
I0403 14:46:42.779745 11099 net.cpp:141] Setting up inception_3b/relu_5x5
I0403 14:46:42.779773 11099 net.cpp:148] Top shape: 24 96 28 28 (1806336)
I0403 14:46:42.779789 11099 net.cpp:156] Memory required for data: 744211488
I0403 14:46:42.779805 11099 layer_factory.hpp:77] Creating layer inception_3b/pool
I0403 14:46:42.779824 11099 net.cpp:91] Creating Layer inception_3b/pool
I0403 14:46:42.779840 11099 net.cpp:425] inception_3b/pool <- inception_3a/output_inception_3a/output_0_split_3
I0403 14:46:42.779860 11099 net.cpp:399] inception_3b/pool -> inception_3b/pool
I0403 14:46:42.779920 11099 net.cpp:141] Setting up inception_3b/pool
I0403 14:46:42.779945 11099 net.cpp:148] Top shape: 24 256 28 28 (4816896)
I0403 14:46:42.779961 11099 net.cpp:156] Memory required for data: 763479072
I0403 14:46:42.779978 11099 layer_factory.hpp:77] Creating layer inception_3b/pool_proj
I0403 14:46:42.780001 11099 net.cpp:91] Creating Layer inception_3b/pool_proj
I0403 14:46:42.780020 11099 net.cpp:425] inception_3b/pool_proj <- inception_3b/pool
I0403 14:46:42.780042 11099 net.cpp:399] inception_3b/pool_proj -> inception_3b/pool_proj
I0403 14:46:42.781118 11099 net.cpp:141] Setting up inception_3b/pool_proj
I0403 14:46:42.781150 11099 net.cpp:148] Top shape: 24 64 28 28 (1204224)
I0403 14:46:42.781167 11099 net.cpp:156] Memory required for data: 768295968
I0403 14:46:42.781188 11099 layer_factory.hpp:77] Creating layer inception_3b/relu_pool_proj
I0403 14:46:42.781208 11099 net.cpp:91] Creating Layer inception_3b/relu_pool_proj
I0403 14:46:42.781225 11099 net.cpp:425] inception_3b/relu_pool_proj <- inception_3b/pool_proj
I0403 14:46:42.781244 11099 net.cpp:386] inception_3b/relu_pool_proj -> inception_3b/pool_proj (in-place)
I0403 14:46:42.781647 11099 net.cpp:141] Setting up inception_3b/relu_pool_proj
I0403 14:46:42.781675 11099 net.cpp:148] Top shape: 24 64 28 28 (1204224)
I0403 14:46:42.781692 11099 net.cpp:156] Memory required for data: 773112864
I0403 14:46:42.781708 11099 layer_factory.hpp:77] Creating layer inception_3b/output
I0403 14:46:42.781728 11099 net.cpp:91] Creating Layer inception_3b/output
I0403 14:46:42.781745 11099 net.cpp:425] inception_3b/output <- inception_3b/1x1
I0403 14:46:42.781764 11099 net.cpp:425] inception_3b/output <- inception_3b/3x3
I0403 14:46:42.781781 11099 net.cpp:425] inception_3b/output <- inception_3b/5x5
I0403 14:46:42.781798 11099 net.cpp:425] inception_3b/output <- inception_3b/pool_proj
I0403 14:46:42.781817 11099 net.cpp:399] inception_3b/output -> inception_3b/output
I0403 14:46:42.781863 11099 net.cpp:141] Setting up inception_3b/output
I0403 14:46:42.781888 11099 net.cpp:148] Top shape: 24 480 28 28 (9031680)
I0403 14:46:42.781904 11099 net.cpp:156] Memory required for data: 809239584
I0403 14:46:42.781919 11099 layer_factory.hpp:77] Creating layer pool3/3x3_s2
I0403 14:46:42.781937 11099 net.cpp:91] Creating Layer pool3/3x3_s2
I0403 14:46:42.781954 11099 net.cpp:425] pool3/3x3_s2 <- inception_3b/output
I0403 14:46:42.781993 11099 net.cpp:399] pool3/3x3_s2 -> pool3/3x3_s2
I0403 14:46:42.782057 11099 net.cpp:141] Setting up pool3/3x3_s2
I0403 14:46:42.782083 11099 net.cpp:148] Top shape: 24 480 14 14 (2257920)
I0403 14:46:42.782104 11099 net.cpp:156] Memory required for data: 818271264
I0403 14:46:42.782120 11099 layer_factory.hpp:77] Creating layer pool3/3x3_s2_pool3/3x3_s2_0_split
I0403 14:46:42.782140 11099 net.cpp:91] Creating Layer pool3/3x3_s2_pool3/3x3_s2_0_split
I0403 14:46:42.782158 11099 net.cpp:425] pool3/3x3_s2_pool3/3x3_s2_0_split <- pool3/3x3_s2
I0403 14:46:42.782178 11099 net.cpp:399] pool3/3x3_s2_pool3/3x3_s2_0_split -> pool3/3x3_s2_pool3/3x3_s2_0_split_0
I0403 14:46:42.782201 11099 net.cpp:399] pool3/3x3_s2_pool3/3x3_s2_0_split -> pool3/3x3_s2_pool3/3x3_s2_0_split_1
I0403 14:46:42.782222 11099 net.cpp:399] pool3/3x3_s2_pool3/3x3_s2_0_split -> pool3/3x3_s2_pool3/3x3_s2_0_split_2
I0403 14:46:42.782243 11099 net.cpp:399] pool3/3x3_s2_pool3/3x3_s2_0_split -> pool3/3x3_s2_pool3/3x3_s2_0_split_3
I0403 14:46:42.782318 11099 net.cpp:141] Setting up pool3/3x3_s2_pool3/3x3_s2_0_split
I0403 14:46:42.782344 11099 net.cpp:148] Top shape: 24 480 14 14 (2257920)
I0403 14:46:42.782366 11099 net.cpp:148] Top shape: 24 480 14 14 (2257920)
I0403 14:46:42.782383 11099 net.cpp:148] Top shape: 24 480 14 14 (2257920)
I0403 14:46:42.782400 11099 net.cpp:148] Top shape: 24 480 14 14 (2257920)
I0403 14:46:42.782415 11099 net.cpp:156] Memory required for data: 854397984
I0403 14:46:42.782430 11099 layer_factory.hpp:77] Creating layer inception_4a/1x1
I0403 14:46:42.782451 11099 net.cpp:91] Creating Layer inception_4a/1x1
I0403 14:46:42.782469 11099 net.cpp:425] inception_4a/1x1 <- pool3/3x3_s2_pool3/3x3_s2_0_split_0
I0403 14:46:42.782490 11099 net.cpp:399] inception_4a/1x1 -> inception_4a/1x1
I0403 14:46:42.784086 11099 net.cpp:141] Setting up inception_4a/1x1
I0403 14:46:42.784123 11099 net.cpp:148] Top shape: 24 192 14 14 (903168)
I0403 14:46:42.784142 11099 net.cpp:156] Memory required for data: 858010656
I0403 14:46:42.784162 11099 layer_factory.hpp:77] Creating layer inception_4a/relu_1x1
I0403 14:46:42.784181 11099 net.cpp:91] Creating Layer inception_4a/relu_1x1
I0403 14:46:42.784198 11099 net.cpp:425] inception_4a/relu_1x1 <- inception_4a/1x1
I0403 14:46:42.784216 11099 net.cpp:386] inception_4a/relu_1x1 -> inception_4a/1x1 (in-place)
I0403 14:46:42.784399 11099 net.cpp:141] Setting up inception_4a/relu_1x1
I0403 14:46:42.784427 11099 net.cpp:148] Top shape: 24 192 14 14 (903168)
I0403 14:46:42.784442 11099 net.cpp:156] Memory required for data: 861623328
I0403 14:46:42.784459 11099 layer_factory.hpp:77] Creating layer inception_4a/3x3_reduce
I0403 14:46:42.784482 11099 net.cpp:91] Creating Layer inception_4a/3x3_reduce
I0403 14:46:42.784502 11099 net.cpp:425] inception_4a/3x3_reduce <- pool3/3x3_s2_pool3/3x3_s2_0_split_1
I0403 14:46:42.784523 11099 net.cpp:399] inception_4a/3x3_reduce -> inception_4a/3x3_reduce
I0403 14:46:42.785833 11099 net.cpp:141] Setting up inception_4a/3x3_reduce
I0403 14:46:42.785863 11099 net.cpp:148] Top shape: 24 96 14 14 (451584)
I0403 14:46:42.785881 11099 net.cpp:156] Memory required for data: 863429664
I0403 14:46:42.785909 11099 layer_factory.hpp:77] Creating layer inception_4a/relu_3x3_reduce
I0403 14:46:42.785931 11099 net.cpp:91] Creating Layer inception_4a/relu_3x3_reduce
I0403 14:46:42.785948 11099 net.cpp:425] inception_4a/relu_3x3_reduce <- inception_4a/3x3_reduce
I0403 14:46:42.785967 11099 net.cpp:386] inception_4a/relu_3x3_reduce -> inception_4a/3x3_reduce (in-place)
I0403 14:46:42.786150 11099 net.cpp:141] Setting up inception_4a/relu_3x3_reduce
I0403 14:46:42.786181 11099 net.cpp:148] Top shape: 24 96 14 14 (451584)
I0403 14:46:42.786200 11099 net.cpp:156] Memory required for data: 865236000
I0403 14:46:42.786216 11099 layer_factory.hpp:77] Creating layer inception_4a/3x3
I0403 14:46:42.786238 11099 net.cpp:91] Creating Layer inception_4a/3x3
I0403 14:46:42.786257 11099 net.cpp:425] inception_4a/3x3 <- inception_4a/3x3_reduce
I0403 14:46:42.786278 11099 net.cpp:399] inception_4a/3x3 -> inception_4a/3x3
I0403 14:46:42.788995 11099 net.cpp:141] Setting up inception_4a/3x3
I0403 14:46:42.789024 11099 net.cpp:148] Top shape: 24 208 14 14 (978432)
I0403 14:46:42.789041 11099 net.cpp:156] Memory required for data: 869149728
I0403 14:46:42.789062 11099 layer_factory.hpp:77] Creating layer inception_4a/relu_3x3
I0403 14:46:42.789082 11099 net.cpp:91] Creating Layer inception_4a/relu_3x3
I0403 14:46:42.789103 11099 net.cpp:425] inception_4a/relu_3x3 <- inception_4a/3x3
I0403 14:46:42.789124 11099 net.cpp:386] inception_4a/relu_3x3 -> inception_4a/3x3 (in-place)
I0403 14:46:42.789417 11099 net.cpp:141] Setting up inception_4a/relu_3x3
I0403 14:46:42.789444 11099 net.cpp:148] Top shape: 24 208 14 14 (978432)
I0403 14:46:42.789460 11099 net.cpp:156] Memory required for data: 873063456
I0403 14:46:42.789476 11099 layer_factory.hpp:77] Creating layer inception_4a/5x5_reduce
I0403 14:46:42.789499 11099 net.cpp:91] Creating Layer inception_4a/5x5_reduce
I0403 14:46:42.789518 11099 net.cpp:425] inception_4a/5x5_reduce <- pool3/3x3_s2_pool3/3x3_s2_0_split_2
I0403 14:46:42.789542 11099 net.cpp:399] inception_4a/5x5_reduce -> inception_4a/5x5_reduce
I0403 14:46:42.790580 11099 net.cpp:141] Setting up inception_4a/5x5_reduce
I0403 14:46:42.790609 11099 net.cpp:148] Top shape: 24 16 14 14 (75264)
I0403 14:46:42.790626 11099 net.cpp:156] Memory required for data: 873364512
I0403 14:46:42.790644 11099 layer_factory.hpp:77] Creating layer inception_4a/relu_5x5_reduce
I0403 14:46:42.790663 11099 net.cpp:91] Creating Layer inception_4a/relu_5x5_reduce
I0403 14:46:42.790680 11099 net.cpp:425] inception_4a/relu_5x5_reduce <- inception_4a/5x5_reduce
I0403 14:46:42.790700 11099 net.cpp:386] inception_4a/relu_5x5_reduce -> inception_4a/5x5_reduce (in-place)
I0403 14:46:42.790885 11099 net.cpp:141] Setting up inception_4a/relu_5x5_reduce
I0403 14:46:42.790913 11099 net.cpp:148] Top shape: 24 16 14 14 (75264)
I0403 14:46:42.790930 11099 net.cpp:156] Memory required for data: 873665568
I0403 14:46:42.790946 11099 layer_factory.hpp:77] Creating layer inception_4a/5x5
I0403 14:46:42.790969 11099 net.cpp:91] Creating Layer inception_4a/5x5
I0403 14:46:42.790988 11099 net.cpp:425] inception_4a/5x5 <- inception_4a/5x5_reduce
I0403 14:46:42.791010 11099 net.cpp:399] inception_4a/5x5 -> inception_4a/5x5
I0403 14:46:42.792122 11099 net.cpp:141] Setting up inception_4a/5x5
I0403 14:46:42.792151 11099 net.cpp:148] Top shape: 24 48 14 14 (225792)
I0403 14:46:42.792168 11099 net.cpp:156] Memory required for data: 874568736
I0403 14:46:42.792188 11099 layer_factory.hpp:77] Creating layer inception_4a/relu_5x5
I0403 14:46:42.792209 11099 net.cpp:91] Creating Layer inception_4a/relu_5x5
I0403 14:46:42.792235 11099 net.cpp:425] inception_4a/relu_5x5 <- inception_4a/5x5
I0403 14:46:42.792263 11099 net.cpp:386] inception_4a/relu_5x5 -> inception_4a/5x5 (in-place)
I0403 14:46:42.792448 11099 net.cpp:141] Setting up inception_4a/relu_5x5
I0403 14:46:42.792477 11099 net.cpp:148] Top shape: 24 48 14 14 (225792)
I0403 14:46:42.792495 11099 net.cpp:156] Memory required for data: 875471904
I0403 14:46:42.792510 11099 layer_factory.hpp:77] Creating layer inception_4a/pool
I0403 14:46:42.792528 11099 net.cpp:91] Creating Layer inception_4a/pool
I0403 14:46:42.792549 11099 net.cpp:425] inception_4a/pool <- pool3/3x3_s2_pool3/3x3_s2_0_split_3
I0403 14:46:42.792570 11099 net.cpp:399] inception_4a/pool -> inception_4a/pool
I0403 14:46:42.792634 11099 net.cpp:141] Setting up inception_4a/pool
I0403 14:46:42.792660 11099 net.cpp:148] Top shape: 24 480 14 14 (2257920)
I0403 14:46:42.792676 11099 net.cpp:156] Memory required for data: 884503584
I0403 14:46:42.792692 11099 layer_factory.hpp:77] Creating layer inception_4a/pool_proj
I0403 14:46:42.792717 11099 net.cpp:91] Creating Layer inception_4a/pool_proj
I0403 14:46:42.792737 11099 net.cpp:425] inception_4a/pool_proj <- inception_4a/pool
I0403 14:46:42.792757 11099 net.cpp:399] inception_4a/pool_proj -> inception_4a/pool_proj
I0403 14:46:42.793952 11099 net.cpp:141] Setting up inception_4a/pool_proj
I0403 14:46:42.793982 11099 net.cpp:148] Top shape: 24 64 14 14 (301056)
I0403 14:46:42.794014 11099 net.cpp:156] Memory required for data: 885707808
I0403 14:46:42.794036 11099 layer_factory.hpp:77] Creating layer inception_4a/relu_pool_proj
I0403 14:46:42.794059 11099 net.cpp:91] Creating Layer inception_4a/relu_pool_proj
I0403 14:46:42.794076 11099 net.cpp:425] inception_4a/relu_pool_proj <- inception_4a/pool_proj
I0403 14:46:42.794100 11099 net.cpp:386] inception_4a/relu_pool_proj -> inception_4a/pool_proj (in-place)
I0403 14:46:42.794394 11099 net.cpp:141] Setting up inception_4a/relu_pool_proj
I0403 14:46:42.794421 11099 net.cpp:148] Top shape: 24 64 14 14 (301056)
I0403 14:46:42.794437 11099 net.cpp:156] Memory required for data: 886912032
I0403 14:46:42.794453 11099 layer_factory.hpp:77] Creating layer inception_4a/output
I0403 14:46:42.794474 11099 net.cpp:91] Creating Layer inception_4a/output
I0403 14:46:42.794492 11099 net.cpp:425] inception_4a/output <- inception_4a/1x1
I0403 14:46:42.794509 11099 net.cpp:425] inception_4a/output <- inception_4a/3x3
I0403 14:46:42.794528 11099 net.cpp:425] inception_4a/output <- inception_4a/5x5
I0403 14:46:42.794545 11099 net.cpp:425] inception_4a/output <- inception_4a/pool_proj
I0403 14:46:42.794564 11099 net.cpp:399] inception_4a/output -> inception_4a/output
I0403 14:46:42.794612 11099 net.cpp:141] Setting up inception_4a/output
I0403 14:46:42.794637 11099 net.cpp:148] Top shape: 24 512 14 14 (2408448)
I0403 14:46:42.794653 11099 net.cpp:156] Memory required for data: 896545824
I0403 14:46:42.794669 11099 layer_factory.hpp:77] Creating layer inception_4a/output_inception_4a/output_0_split
I0403 14:46:42.794688 11099 net.cpp:91] Creating Layer inception_4a/output_inception_4a/output_0_split
I0403 14:46:42.794704 11099 net.cpp:425] inception_4a/output_inception_4a/output_0_split <- inception_4a/output
I0403 14:46:42.794725 11099 net.cpp:399] inception_4a/output_inception_4a/output_0_split -> inception_4a/output_inception_4a/output_0_split_0
I0403 14:46:42.794749 11099 net.cpp:399] inception_4a/output_inception_4a/output_0_split -> inception_4a/output_inception_4a/output_0_split_1
I0403 14:46:42.794771 11099 net.cpp:399] inception_4a/output_inception_4a/output_0_split -> inception_4a/output_inception_4a/output_0_split_2
I0403 14:46:42.794796 11099 net.cpp:399] inception_4a/output_inception_4a/output_0_split -> inception_4a/output_inception_4a/output_0_split_3
I0403 14:46:42.794819 11099 net.cpp:399] inception_4a/output_inception_4a/output_0_split -> inception_4a/output_inception_4a/output_0_split_4
I0403 14:46:42.794914 11099 net.cpp:141] Setting up inception_4a/output_inception_4a/output_0_split
I0403 14:46:42.794940 11099 net.cpp:148] Top shape: 24 512 14 14 (2408448)
I0403 14:46:42.794957 11099 net.cpp:148] Top shape: 24 512 14 14 (2408448)
I0403 14:46:42.794973 11099 net.cpp:148] Top shape: 24 512 14 14 (2408448)
I0403 14:46:42.794989 11099 net.cpp:148] Top shape: 24 512 14 14 (2408448)
I0403 14:46:42.795007 11099 net.cpp:148] Top shape: 24 512 14 14 (2408448)
I0403 14:46:42.795022 11099 net.cpp:156] Memory required for data: 944714784
I0403 14:46:42.795037 11099 layer_factory.hpp:77] Creating layer loss1/ave_pool
I0403 14:46:42.795060 11099 net.cpp:91] Creating Layer loss1/ave_pool
I0403 14:46:42.795078 11099 net.cpp:425] loss1/ave_pool <- inception_4a/output_inception_4a/output_0_split_0
I0403 14:46:42.795104 11099 net.cpp:399] loss1/ave_pool -> loss1/ave_pool
I0403 14:46:42.795321 11099 net.cpp:141] Setting up loss1/ave_pool
I0403 14:46:42.795351 11099 net.cpp:148] Top shape: 24 512 4 4 (196608)
I0403 14:46:42.795368 11099 net.cpp:156] Memory required for data: 945501216
I0403 14:46:42.795384 11099 layer_factory.hpp:77] Creating layer loss1/conv
I0403 14:46:42.795408 11099 net.cpp:91] Creating Layer loss1/conv
I0403 14:46:42.795426 11099 net.cpp:425] loss1/conv <- loss1/ave_pool
I0403 14:46:42.795446 11099 net.cpp:399] loss1/conv -> loss1/conv
I0403 14:46:42.796895 11099 net.cpp:141] Setting up loss1/conv
I0403 14:46:42.796924 11099 net.cpp:148] Top shape: 24 128 4 4 (49152)
I0403 14:46:42.796957 11099 net.cpp:156] Memory required for data: 945697824
I0403 14:46:42.796978 11099 layer_factory.hpp:77] Creating layer loss1/relu_conv
I0403 14:46:42.796998 11099 net.cpp:91] Creating Layer loss1/relu_conv
I0403 14:46:42.797013 11099 net.cpp:425] loss1/relu_conv <- loss1/conv
I0403 14:46:42.797034 11099 net.cpp:386] loss1/relu_conv -> loss1/conv (in-place)
I0403 14:46:42.797329 11099 net.cpp:141] Setting up loss1/relu_conv
I0403 14:46:42.797360 11099 net.cpp:148] Top shape: 24 128 4 4 (49152)
I0403 14:46:42.797376 11099 net.cpp:156] Memory required for data: 945894432
I0403 14:46:42.797392 11099 layer_factory.hpp:77] Creating layer loss1/fc
I0403 14:46:42.797417 11099 net.cpp:91] Creating Layer loss1/fc
I0403 14:46:42.797436 11099 net.cpp:425] loss1/fc <- loss1/conv
I0403 14:46:42.797458 11099 net.cpp:399] loss1/fc -> loss1/fc
I0403 14:46:42.815464 11099 net.cpp:141] Setting up loss1/fc
I0403 14:46:42.815517 11099 net.cpp:148] Top shape: 24 1024 (24576)
I0403 14:46:42.815533 11099 net.cpp:156] Memory required for data: 945992736
I0403 14:46:42.815552 11099 layer_factory.hpp:77] Creating layer loss1/relu_fc
I0403 14:46:42.815572 11099 net.cpp:91] Creating Layer loss1/relu_fc
I0403 14:46:42.815590 11099 net.cpp:425] loss1/relu_fc <- loss1/fc
I0403 14:46:42.815608 11099 net.cpp:386] loss1/relu_fc -> loss1/fc (in-place)
I0403 14:46:42.815807 11099 net.cpp:141] Setting up loss1/relu_fc
I0403 14:46:42.815834 11099 net.cpp:148] Top shape: 24 1024 (24576)
I0403 14:46:42.815848 11099 net.cpp:156] Memory required for data: 946091040
I0403 14:46:42.815863 11099 layer_factory.hpp:77] Creating layer loss1/drop_fc
I0403 14:46:42.815891 11099 net.cpp:91] Creating Layer loss1/drop_fc
I0403 14:46:42.815910 11099 net.cpp:425] loss1/drop_fc <- loss1/fc
I0403 14:46:42.815930 11099 net.cpp:386] loss1/drop_fc -> loss1/fc (in-place)
I0403 14:46:42.815984 11099 net.cpp:141] Setting up loss1/drop_fc
I0403 14:46:42.816009 11099 net.cpp:148] Top shape: 24 1024 (24576)
I0403 14:46:42.816023 11099 net.cpp:156] Memory required for data: 946189344
I0403 14:46:42.816038 11099 layer_factory.hpp:77] Creating layer loss1/classifier_plantvillage
I0403 14:46:42.816061 11099 net.cpp:91] Creating Layer loss1/classifier_plantvillage
I0403 14:46:42.816081 11099 net.cpp:425] loss1/classifier_plantvillage <- loss1/fc
I0403 14:46:42.816102 11099 net.cpp:399] loss1/classifier_plantvillage -> loss1/classifier_plantvillage
I0403 14:46:42.817023 11099 net.cpp:141] Setting up loss1/classifier_plantvillage
I0403 14:46:42.817054 11099 net.cpp:148] Top shape: 24 38 (912)
I0403 14:46:42.817072 11099 net.cpp:156] Memory required for data: 946192992
I0403 14:46:42.817091 11099 layer_factory.hpp:77] Creating layer loss1/classifier_plantvillage_loss1/classifier_plantvillage_0_split
I0403 14:46:42.817116 11099 net.cpp:91] Creating Layer loss1/classifier_plantvillage_loss1/classifier_plantvillage_0_split
I0403 14:46:42.817132 11099 net.cpp:425] loss1/classifier_plantvillage_loss1/classifier_plantvillage_0_split <- loss1/classifier_plantvillage
I0403 14:46:42.817152 11099 net.cpp:399] loss1/classifier_plantvillage_loss1/classifier_plantvillage_0_split -> loss1/classifier_plantvillage_loss1/classifier_plantvillage_0_split_0
I0403 14:46:42.817174 11099 net.cpp:399] loss1/classifier_plantvillage_loss1/classifier_plantvillage_0_split -> loss1/classifier_plantvillage_loss1/classifier_plantvillage_0_split_1
I0403 14:46:42.817196 11099 net.cpp:399] loss1/classifier_plantvillage_loss1/classifier_plantvillage_0_split -> loss1/classifier_plantvillage_loss1/classifier_plantvillage_0_split_2
I0403 14:46:42.817263 11099 net.cpp:141] Setting up loss1/classifier_plantvillage_loss1/classifier_plantvillage_0_split
I0403 14:46:42.817288 11099 net.cpp:148] Top shape: 24 38 (912)
I0403 14:46:42.817304 11099 net.cpp:148] Top shape: 24 38 (912)
I0403 14:46:42.817320 11099 net.cpp:148] Top shape: 24 38 (912)
I0403 14:46:42.817335 11099 net.cpp:156] Memory required for data: 946203936
I0403 14:46:42.817353 11099 layer_factory.hpp:77] Creating layer inception_4b/1x1
I0403 14:46:42.817373 11099 net.cpp:91] Creating Layer inception_4b/1x1
I0403 14:46:42.817414 11099 net.cpp:425] inception_4b/1x1 <- inception_4a/output_inception_4a/output_0_split_1
I0403 14:46:42.817437 11099 net.cpp:399] inception_4b/1x1 -> inception_4b/1x1
I0403 14:46:42.819142 11099 net.cpp:141] Setting up inception_4b/1x1
I0403 14:46:42.819174 11099 net.cpp:148] Top shape: 24 160 14 14 (752640)
I0403 14:46:42.819190 11099 net.cpp:156] Memory required for data: 949214496
I0403 14:46:42.819210 11099 layer_factory.hpp:77] Creating layer inception_4b/relu_1x1
I0403 14:46:42.819228 11099 net.cpp:91] Creating Layer inception_4b/relu_1x1
I0403 14:46:42.819244 11099 net.cpp:425] inception_4b/relu_1x1 <- inception_4b/1x1
I0403 14:46:42.819264 11099 net.cpp:386] inception_4b/relu_1x1 -> inception_4b/1x1 (in-place)
I0403 14:46:42.819460 11099 net.cpp:141] Setting up inception_4b/relu_1x1
I0403 14:46:42.819488 11099 net.cpp:148] Top shape: 24 160 14 14 (752640)
I0403 14:46:42.819502 11099 net.cpp:156] Memory required for data: 952225056
I0403 14:46:42.819517 11099 layer_factory.hpp:77] Creating layer inception_4b/3x3_reduce
I0403 14:46:42.819541 11099 net.cpp:91] Creating Layer inception_4b/3x3_reduce
I0403 14:46:42.819560 11099 net.cpp:425] inception_4b/3x3_reduce <- inception_4a/output_inception_4a/output_0_split_2
I0403 14:46:42.819583 11099 net.cpp:399] inception_4b/3x3_reduce -> inception_4b/3x3_reduce
I0403 14:46:42.820926 11099 net.cpp:141] Setting up inception_4b/3x3_reduce
I0403 14:46:42.820955 11099 net.cpp:148] Top shape: 24 112 14 14 (526848)
I0403 14:46:42.820971 11099 net.cpp:156] Memory required for data: 954332448
I0403 14:46:42.820989 11099 layer_factory.hpp:77] Creating layer inception_4b/relu_3x3_reduce
I0403 14:46:42.821010 11099 net.cpp:91] Creating Layer inception_4b/relu_3x3_reduce
I0403 14:46:42.821028 11099 net.cpp:425] inception_4b/relu_3x3_reduce <- inception_4b/3x3_reduce
I0403 14:46:42.821048 11099 net.cpp:386] inception_4b/relu_3x3_reduce -> inception_4b/3x3_reduce (in-place)
I0403 14:46:42.821333 11099 net.cpp:141] Setting up inception_4b/relu_3x3_reduce
I0403 14:46:42.821362 11099 net.cpp:148] Top shape: 24 112 14 14 (526848)
I0403 14:46:42.821377 11099 net.cpp:156] Memory required for data: 956439840
I0403 14:46:42.821393 11099 layer_factory.hpp:77] Creating layer inception_4b/3x3
I0403 14:46:42.821419 11099 net.cpp:91] Creating Layer inception_4b/3x3
I0403 14:46:42.821437 11099 net.cpp:425] inception_4b/3x3 <- inception_4b/3x3_reduce
I0403 14:46:42.821460 11099 net.cpp:399] inception_4b/3x3 -> inception_4b/3x3
I0403 14:46:42.824434 11099 net.cpp:141] Setting up inception_4b/3x3
I0403 14:46:42.824467 11099 net.cpp:148] Top shape: 24 224 14 14 (1053696)
I0403 14:46:42.824484 11099 net.cpp:156] Memory required for data: 960654624
I0403 14:46:42.824503 11099 layer_factory.hpp:77] Creating layer inception_4b/relu_3x3
I0403 14:46:42.824522 11099 net.cpp:91] Creating Layer inception_4b/relu_3x3
I0403 14:46:42.824538 11099 net.cpp:425] inception_4b/relu_3x3 <- inception_4b/3x3
I0403 14:46:42.824556 11099 net.cpp:386] inception_4b/relu_3x3 -> inception_4b/3x3 (in-place)
I0403 14:46:42.824738 11099 net.cpp:141] Setting up inception_4b/relu_3x3
I0403 14:46:42.824764 11099 net.cpp:148] Top shape: 24 224 14 14 (1053696)
I0403 14:46:42.824779 11099 net.cpp:156] Memory required for data: 964869408
I0403 14:46:42.824795 11099 layer_factory.hpp:77] Creating layer inception_4b/5x5_reduce
I0403 14:46:42.824818 11099 net.cpp:91] Creating Layer inception_4b/5x5_reduce
I0403 14:46:42.824837 11099 net.cpp:425] inception_4b/5x5_reduce <- inception_4a/output_inception_4a/output_0_split_3
I0403 14:46:42.824858 11099 net.cpp:399] inception_4b/5x5_reduce -> inception_4b/5x5_reduce
I0403 14:46:42.825943 11099 net.cpp:141] Setting up inception_4b/5x5_reduce
I0403 14:46:42.825973 11099 net.cpp:148] Top shape: 24 24 14 14 (112896)
I0403 14:46:42.825987 11099 net.cpp:156] Memory required for data: 965320992
I0403 14:46:42.826006 11099 layer_factory.hpp:77] Creating layer inception_4b/relu_5x5_reduce
I0403 14:46:42.826027 11099 net.cpp:91] Creating Layer inception_4b/relu_5x5_reduce
I0403 14:46:42.826061 11099 net.cpp:425] inception_4b/relu_5x5_reduce <- inception_4b/5x5_reduce
I0403 14:46:42.826081 11099 net.cpp:386] inception_4b/relu_5x5_reduce -> inception_4b/5x5_reduce (in-place)
I0403 14:46:42.826268 11099 net.cpp:141] Setting up inception_4b/relu_5x5_reduce
I0403 14:46:42.826293 11099 net.cpp:148] Top shape: 24 24 14 14 (112896)
I0403 14:46:42.826309 11099 net.cpp:156] Memory required for data: 965772576
I0403 14:46:42.826324 11099 layer_factory.hpp:77] Creating layer inception_4b/5x5
I0403 14:46:42.826347 11099 net.cpp:91] Creating Layer inception_4b/5x5
I0403 14:46:42.826366 11099 net.cpp:425] inception_4b/5x5 <- inception_4b/5x5_reduce
I0403 14:46:42.826385 11099 net.cpp:399] inception_4b/5x5 -> inception_4b/5x5
I0403 14:46:42.827601 11099 net.cpp:141] Setting up inception_4b/5x5
I0403 14:46:42.827630 11099 net.cpp:148] Top shape: 24 64 14 14 (301056)
I0403 14:46:42.827646 11099 net.cpp:156] Memory required for data: 966976800
I0403 14:46:42.827664 11099 layer_factory.hpp:77] Creating layer inception_4b/relu_5x5
I0403 14:46:42.827683 11099 net.cpp:91] Creating Layer inception_4b/relu_5x5
I0403 14:46:42.827700 11099 net.cpp:425] inception_4b/relu_5x5 <- inception_4b/5x5
I0403 14:46:42.827720 11099 net.cpp:386] inception_4b/relu_5x5 -> inception_4b/5x5 (in-place)
I0403 14:46:42.828006 11099 net.cpp:141] Setting up inception_4b/relu_5x5
I0403 14:46:42.828034 11099 net.cpp:148] Top shape: 24 64 14 14 (301056)
I0403 14:46:42.828049 11099 net.cpp:156] Memory required for data: 968181024
I0403 14:46:42.828064 11099 layer_factory.hpp:77] Creating layer inception_4b/pool
I0403 14:46:42.828083 11099 net.cpp:91] Creating Layer inception_4b/pool
I0403 14:46:42.828105 11099 net.cpp:425] inception_4b/pool <- inception_4a/output_inception_4a/output_0_split_4
I0403 14:46:42.828127 11099 net.cpp:399] inception_4b/pool -> inception_4b/pool
I0403 14:46:42.828193 11099 net.cpp:141] Setting up inception_4b/pool
I0403 14:46:42.828218 11099 net.cpp:148] Top shape: 24 512 14 14 (2408448)
I0403 14:46:42.828233 11099 net.cpp:156] Memory required for data: 977814816
I0403 14:46:42.828248 11099 layer_factory.hpp:77] Creating layer inception_4b/pool_proj
I0403 14:46:42.828272 11099 net.cpp:91] Creating Layer inception_4b/pool_proj
I0403 14:46:42.828291 11099 net.cpp:425] inception_4b/pool_proj <- inception_4b/pool
I0403 14:46:42.828310 11099 net.cpp:399] inception_4b/pool_proj -> inception_4b/pool_proj
I0403 14:46:42.829516 11099 net.cpp:141] Setting up inception_4b/pool_proj
I0403 14:46:42.829545 11099 net.cpp:148] Top shape: 24 64 14 14 (301056)
I0403 14:46:42.829560 11099 net.cpp:156] Memory required for data: 979019040
I0403 14:46:42.829579 11099 layer_factory.hpp:77] Creating layer inception_4b/relu_pool_proj
I0403 14:46:42.829599 11099 net.cpp:91] Creating Layer inception_4b/relu_pool_proj
I0403 14:46:42.829618 11099 net.cpp:425] inception_4b/relu_pool_proj <- inception_4b/pool_proj
I0403 14:46:42.829637 11099 net.cpp:386] inception_4b/relu_pool_proj -> inception_4b/pool_proj (in-place)
I0403 14:46:42.829820 11099 net.cpp:141] Setting up inception_4b/relu_pool_proj
I0403 14:46:42.829846 11099 net.cpp:148] Top shape: 24 64 14 14 (301056)
I0403 14:46:42.829864 11099 net.cpp:156] Memory required for data: 980223264
I0403 14:46:42.829880 11099 layer_factory.hpp:77] Creating layer inception_4b/output
I0403 14:46:42.829898 11099 net.cpp:91] Creating Layer inception_4b/output
I0403 14:46:42.829915 11099 net.cpp:425] inception_4b/output <- inception_4b/1x1
I0403 14:46:42.829931 11099 net.cpp:425] inception_4b/output <- inception_4b/3x3
I0403 14:46:42.829948 11099 net.cpp:425] inception_4b/output <- inception_4b/5x5
I0403 14:46:42.829965 11099 net.cpp:425] inception_4b/output <- inception_4b/pool_proj
I0403 14:46:42.829982 11099 net.cpp:399] inception_4b/output -> inception_4b/output
I0403 14:46:42.830030 11099 net.cpp:141] Setting up inception_4b/output
I0403 14:46:42.830054 11099 net.cpp:148] Top shape: 24 512 14 14 (2408448)
I0403 14:46:42.830070 11099 net.cpp:156] Memory required for data: 989857056
I0403 14:46:42.830103 11099 layer_factory.hpp:77] Creating layer inception_4b/output_inception_4b/output_0_split
I0403 14:46:42.830123 11099 net.cpp:91] Creating Layer inception_4b/output_inception_4b/output_0_split
I0403 14:46:42.830139 11099 net.cpp:425] inception_4b/output_inception_4b/output_0_split <- inception_4b/output
I0403 14:46:42.830160 11099 net.cpp:399] inception_4b/output_inception_4b/output_0_split -> inception_4b/output_inception_4b/output_0_split_0
I0403 14:46:42.830183 11099 net.cpp:399] inception_4b/output_inception_4b/output_0_split -> inception_4b/output_inception_4b/output_0_split_1
I0403 14:46:42.830204 11099 net.cpp:399] inception_4b/output_inception_4b/output_0_split -> inception_4b/output_inception_4b/output_0_split_2
I0403 14:46:42.830224 11099 net.cpp:399] inception_4b/output_inception_4b/output_0_split -> inception_4b/output_inception_4b/output_0_split_3
I0403 14:46:42.830307 11099 net.cpp:141] Setting up inception_4b/output_inception_4b/output_0_split
I0403 14:46:42.830332 11099 net.cpp:148] Top shape: 24 512 14 14 (2408448)
I0403 14:46:42.830351 11099 net.cpp:148] Top shape: 24 512 14 14 (2408448)
I0403 14:46:42.830368 11099 net.cpp:148] Top shape: 24 512 14 14 (2408448)
I0403 14:46:42.830384 11099 net.cpp:148] Top shape: 24 512 14 14 (2408448)
I0403 14:46:42.830399 11099 net.cpp:156] Memory required for data: 1028392224
I0403 14:46:42.830413 11099 layer_factory.hpp:77] Creating layer inception_4c/1x1
I0403 14:46:42.830435 11099 net.cpp:91] Creating Layer inception_4c/1x1
I0403 14:46:42.830452 11099 net.cpp:425] inception_4c/1x1 <- inception_4b/output_inception_4b/output_0_split_0
I0403 14:46:42.830474 11099 net.cpp:399] inception_4c/1x1 -> inception_4c/1x1
I0403 14:46:42.831902 11099 net.cpp:141] Setting up inception_4c/1x1
I0403 14:46:42.831934 11099 net.cpp:148] Top shape: 24 128 14 14 (602112)
I0403 14:46:42.831950 11099 net.cpp:156] Memory required for data: 1030800672
I0403 14:46:42.831970 11099 layer_factory.hpp:77] Creating layer inception_4c/relu_1x1
I0403 14:46:42.831989 11099 net.cpp:91] Creating Layer inception_4c/relu_1x1
I0403 14:46:42.832005 11099 net.cpp:425] inception_4c/relu_1x1 <- inception_4c/1x1
I0403 14:46:42.832021 11099 net.cpp:386] inception_4c/relu_1x1 -> inception_4c/1x1 (in-place)
I0403 14:46:42.832207 11099 net.cpp:141] Setting up inception_4c/relu_1x1
I0403 14:46:42.832237 11099 net.cpp:148] Top shape: 24 128 14 14 (602112)
I0403 14:46:42.832254 11099 net.cpp:156] Memory required for data: 1033209120
I0403 14:46:42.832268 11099 layer_factory.hpp:77] Creating layer inception_4c/3x3_reduce
I0403 14:46:42.832291 11099 net.cpp:91] Creating Layer inception_4c/3x3_reduce
I0403 14:46:42.832310 11099 net.cpp:425] inception_4c/3x3_reduce <- inception_4b/output_inception_4b/output_0_split_1
I0403 14:46:42.832330 11099 net.cpp:399] inception_4c/3x3_reduce -> inception_4c/3x3_reduce
I0403 14:46:42.834288 11099 net.cpp:141] Setting up inception_4c/3x3_reduce
I0403 14:46:42.834318 11099 net.cpp:148] Top shape: 24 128 14 14 (602112)
I0403 14:46:42.834334 11099 net.cpp:156] Memory required for data: 1035617568
I0403 14:46:42.834353 11099 layer_factory.hpp:77] Creating layer inception_4c/relu_3x3_reduce
I0403 14:46:42.834372 11099 net.cpp:91] Creating Layer inception_4c/relu_3x3_reduce
I0403 14:46:42.834389 11099 net.cpp:425] inception_4c/relu_3x3_reduce <- inception_4c/3x3_reduce
I0403 14:46:42.834409 11099 net.cpp:386] inception_4c/relu_3x3_reduce -> inception_4c/3x3_reduce (in-place)
I0403 14:46:42.834702 11099 net.cpp:141] Setting up inception_4c/relu_3x3_reduce
I0403 14:46:42.834729 11099 net.cpp:148] Top shape: 24 128 14 14 (602112)
I0403 14:46:42.834744 11099 net.cpp:156] Memory required for data: 1038026016
I0403 14:46:42.834759 11099 layer_factory.hpp:77] Creating layer inception_4c/3x3
I0403 14:46:42.834784 11099 net.cpp:91] Creating Layer inception_4c/3x3
I0403 14:46:42.834802 11099 net.cpp:425] inception_4c/3x3 <- inception_4c/3x3_reduce
I0403 14:46:42.834825 11099 net.cpp:399] inception_4c/3x3 -> inception_4c/3x3
I0403 14:46:42.838410 11099 net.cpp:141] Setting up inception_4c/3x3
I0403 14:46:42.838452 11099 net.cpp:148] Top shape: 24 256 14 14 (1204224)
I0403 14:46:42.838470 11099 net.cpp:156] Memory required for data: 1042842912
I0403 14:46:42.838505 11099 layer_factory.hpp:77] Creating layer inception_4c/relu_3x3
I0403 14:46:42.838526 11099 net.cpp:91] Creating Layer inception_4c/relu_3x3
I0403 14:46:42.838543 11099 net.cpp:425] inception_4c/relu_3x3 <- inception_4c/3x3
I0403 14:46:42.838563 11099 net.cpp:386] inception_4c/relu_3x3 -> inception_4c/3x3 (in-place)
I0403 14:46:42.838744 11099 net.cpp:141] Setting up inception_4c/relu_3x3
I0403 14:46:42.838771 11099 net.cpp:148] Top shape: 24 256 14 14 (1204224)
I0403 14:46:42.838786 11099 net.cpp:156] Memory required for data: 1047659808
I0403 14:46:42.838801 11099 layer_factory.hpp:77] Creating layer inception_4c/5x5_reduce
I0403 14:46:42.838825 11099 net.cpp:91] Creating Layer inception_4c/5x5_reduce
I0403 14:46:42.838843 11099 net.cpp:425] inception_4c/5x5_reduce <- inception_4b/output_inception_4b/output_0_split_2
I0403 14:46:42.838865 11099 net.cpp:399] inception_4c/5x5_reduce -> inception_4c/5x5_reduce
I0403 14:46:42.839949 11099 net.cpp:141] Setting up inception_4c/5x5_reduce
I0403 14:46:42.839979 11099 net.cpp:148] Top shape: 24 24 14 14 (112896)
I0403 14:46:42.839995 11099 net.cpp:156] Memory required for data: 1048111392
I0403 14:46:42.840014 11099 layer_factory.hpp:77] Creating layer inception_4c/relu_5x5_reduce
I0403 14:46:42.840035 11099 net.cpp:91] Creating Layer inception_4c/relu_5x5_reduce
I0403 14:46:42.840054 11099 net.cpp:425] inception_4c/relu_5x5_reduce <- inception_4c/5x5_reduce
I0403 14:46:42.840070 11099 net.cpp:386] inception_4c/relu_5x5_reduce -> inception_4c/5x5_reduce (in-place)
I0403 14:46:42.840258 11099 net.cpp:141] Setting up inception_4c/relu_5x5_reduce
I0403 14:46:42.840286 11099 net.cpp:148] Top shape: 24 24 14 14 (112896)
I0403 14:46:42.840301 11099 net.cpp:156] Memory required for data: 1048562976
I0403 14:46:42.840317 11099 layer_factory.hpp:77] Creating layer inception_4c/5x5
I0403 14:46:42.840342 11099 net.cpp:91] Creating Layer inception_4c/5x5
I0403 14:46:42.840363 11099 net.cpp:425] inception_4c/5x5 <- inception_4c/5x5_reduce
I0403 14:46:42.840383 11099 net.cpp:399] inception_4c/5x5 -> inception_4c/5x5
I0403 14:46:42.841612 11099 net.cpp:141] Setting up inception_4c/5x5
I0403 14:46:42.841641 11099 net.cpp:148] Top shape: 24 64 14 14 (301056)
I0403 14:46:42.841657 11099 net.cpp:156] Memory required for data: 1049767200
I0403 14:46:42.841676 11099 layer_factory.hpp:77] Creating layer inception_4c/relu_5x5
I0403 14:46:42.841698 11099 net.cpp:91] Creating Layer inception_4c/relu_5x5
I0403 14:46:42.841716 11099 net.cpp:425] inception_4c/relu_5x5 <- inception_4c/5x5
I0403 14:46:42.841733 11099 net.cpp:386] inception_4c/relu_5x5 -> inception_4c/5x5 (in-place)
I0403 14:46:42.842018 11099 net.cpp:141] Setting up inception_4c/relu_5x5
I0403 14:46:42.842046 11099 net.cpp:148] Top shape: 24 64 14 14 (301056)
I0403 14:46:42.842061 11099 net.cpp:156] Memory required for data: 1050971424
I0403 14:46:42.842077 11099 layer_factory.hpp:77] Creating layer inception_4c/pool
I0403 14:46:42.842102 11099 net.cpp:91] Creating Layer inception_4c/pool
I0403 14:46:42.842121 11099 net.cpp:425] inception_4c/pool <- inception_4b/output_inception_4b/output_0_split_3
I0403 14:46:42.842140 11099 net.cpp:399] inception_4c/pool -> inception_4c/pool
I0403 14:46:42.842208 11099 net.cpp:141] Setting up inception_4c/pool
I0403 14:46:42.842233 11099 net.cpp:148] Top shape: 24 512 14 14 (2408448)
I0403 14:46:42.842248 11099 net.cpp:156] Memory required for data: 1060605216
I0403 14:46:42.842263 11099 layer_factory.hpp:77] Creating layer inception_4c/pool_proj
I0403 14:46:42.842285 11099 net.cpp:91] Creating Layer inception_4c/pool_proj
I0403 14:46:42.842304 11099 net.cpp:425] inception_4c/pool_proj <- inception_4c/pool
I0403 14:46:42.842326 11099 net.cpp:399] inception_4c/pool_proj -> inception_4c/pool_proj
I0403 14:46:42.843560 11099 net.cpp:141] Setting up inception_4c/pool_proj
I0403 14:46:42.843590 11099 net.cpp:148] Top shape: 24 64 14 14 (301056)
I0403 14:46:42.843621 11099 net.cpp:156] Memory required for data: 1061809440
I0403 14:46:42.843641 11099 layer_factory.hpp:77] Creating layer inception_4c/relu_pool_proj
I0403 14:46:42.843660 11099 net.cpp:91] Creating Layer inception_4c/relu_pool_proj
I0403 14:46:42.843677 11099 net.cpp:425] inception_4c/relu_pool_proj <- inception_4c/pool_proj
I0403 14:46:42.843698 11099 net.cpp:386] inception_4c/relu_pool_proj -> inception_4c/pool_proj (in-place)
I0403 14:46:42.843890 11099 net.cpp:141] Setting up inception_4c/relu_pool_proj
I0403 14:46:42.843917 11099 net.cpp:148] Top shape: 24 64 14 14 (301056)
I0403 14:46:42.843932 11099 net.cpp:156] Memory required for data: 1063013664
I0403 14:46:42.843948 11099 layer_factory.hpp:77] Creating layer inception_4c/output
I0403 14:46:42.843968 11099 net.cpp:91] Creating Layer inception_4c/output
I0403 14:46:42.843986 11099 net.cpp:425] inception_4c/output <- inception_4c/1x1
I0403 14:46:42.844002 11099 net.cpp:425] inception_4c/output <- inception_4c/3x3
I0403 14:46:42.844020 11099 net.cpp:425] inception_4c/output <- inception_4c/5x5
I0403 14:46:42.844036 11099 net.cpp:425] inception_4c/output <- inception_4c/pool_proj
I0403 14:46:42.844055 11099 net.cpp:399] inception_4c/output -> inception_4c/output
I0403 14:46:42.844110 11099 net.cpp:141] Setting up inception_4c/output
I0403 14:46:42.844136 11099 net.cpp:148] Top shape: 24 512 14 14 (2408448)
I0403 14:46:42.844151 11099 net.cpp:156] Memory required for data: 1072647456
I0403 14:46:42.844166 11099 layer_factory.hpp:77] Creating layer inception_4c/output_inception_4c/output_0_split
I0403 14:46:42.844184 11099 net.cpp:91] Creating Layer inception_4c/output_inception_4c/output_0_split
I0403 14:46:42.844199 11099 net.cpp:425] inception_4c/output_inception_4c/output_0_split <- inception_4c/output
I0403 14:46:42.844220 11099 net.cpp:399] inception_4c/output_inception_4c/output_0_split -> inception_4c/output_inception_4c/output_0_split_0
I0403 14:46:42.844244 11099 net.cpp:399] inception_4c/output_inception_4c/output_0_split -> inception_4c/output_inception_4c/output_0_split_1
I0403 14:46:42.844265 11099 net.cpp:399] inception_4c/output_inception_4c/output_0_split -> inception_4c/output_inception_4c/output_0_split_2
I0403 14:46:42.844285 11099 net.cpp:399] inception_4c/output_inception_4c/output_0_split -> inception_4c/output_inception_4c/output_0_split_3
I0403 14:46:42.844372 11099 net.cpp:141] Setting up inception_4c/output_inception_4c/output_0_split
I0403 14:46:42.844398 11099 net.cpp:148] Top shape: 24 512 14 14 (2408448)
I0403 14:46:42.844415 11099 net.cpp:148] Top shape: 24 512 14 14 (2408448)
I0403 14:46:42.844431 11099 net.cpp:148] Top shape: 24 512 14 14 (2408448)
I0403 14:46:42.844447 11099 net.cpp:148] Top shape: 24 512 14 14 (2408448)
I0403 14:46:42.844461 11099 net.cpp:156] Memory required for data: 1111182624
I0403 14:46:42.844477 11099 layer_factory.hpp:77] Creating layer inception_4d/1x1
I0403 14:46:42.844501 11099 net.cpp:91] Creating Layer inception_4d/1x1
I0403 14:46:42.844519 11099 net.cpp:425] inception_4d/1x1 <- inception_4c/output_inception_4c/output_0_split_0
I0403 14:46:42.844540 11099 net.cpp:399] inception_4d/1x1 -> inception_4d/1x1
I0403 14:46:42.845926 11099 net.cpp:141] Setting up inception_4d/1x1
I0403 14:46:42.845955 11099 net.cpp:148] Top shape: 24 112 14 14 (526848)
I0403 14:46:42.845973 11099 net.cpp:156] Memory required for data: 1113290016
I0403 14:46:42.845991 11099 layer_factory.hpp:77] Creating layer inception_4d/relu_1x1
I0403 14:46:42.846010 11099 net.cpp:91] Creating Layer inception_4d/relu_1x1
I0403 14:46:42.846027 11099 net.cpp:425] inception_4d/relu_1x1 <- inception_4d/1x1
I0403 14:46:42.846047 11099 net.cpp:386] inception_4d/relu_1x1 -> inception_4d/1x1 (in-place)
I0403 14:46:42.846240 11099 net.cpp:141] Setting up inception_4d/relu_1x1
I0403 14:46:42.846266 11099 net.cpp:148] Top shape: 24 112 14 14 (526848)
I0403 14:46:42.846282 11099 net.cpp:156] Memory required for data: 1115397408
I0403 14:46:42.846297 11099 layer_factory.hpp:77] Creating layer inception_4d/3x3_reduce
I0403 14:46:42.846334 11099 net.cpp:91] Creating Layer inception_4d/3x3_reduce
I0403 14:46:42.846355 11099 net.cpp:425] inception_4d/3x3_reduce <- inception_4c/output_inception_4c/output_0_split_1
I0403 14:46:42.846379 11099 net.cpp:399] inception_4d/3x3_reduce -> inception_4d/3x3_reduce
I0403 14:46:42.847892 11099 net.cpp:141] Setting up inception_4d/3x3_reduce
I0403 14:46:42.847919 11099 net.cpp:148] Top shape: 24 144 14 14 (677376)
I0403 14:46:42.847935 11099 net.cpp:156] Memory required for data: 1118106912
I0403 14:46:42.847954 11099 layer_factory.hpp:77] Creating layer inception_4d/relu_3x3_reduce
I0403 14:46:42.847976 11099 net.cpp:91] Creating Layer inception_4d/relu_3x3_reduce
I0403 14:46:42.847995 11099 net.cpp:425] inception_4d/relu_3x3_reduce <- inception_4d/3x3_reduce
I0403 14:46:42.848014 11099 net.cpp:386] inception_4d/relu_3x3_reduce -> inception_4d/3x3_reduce (in-place)
I0403 14:46:42.848309 11099 net.cpp:141] Setting up inception_4d/relu_3x3_reduce
I0403 14:46:42.848335 11099 net.cpp:148] Top shape: 24 144 14 14 (677376)
I0403 14:46:42.848352 11099 net.cpp:156] Memory required for data: 1120816416
I0403 14:46:42.848367 11099 layer_factory.hpp:77] Creating layer inception_4d/3x3
I0403 14:46:42.848392 11099 net.cpp:91] Creating Layer inception_4d/3x3
I0403 14:46:42.848412 11099 net.cpp:425] inception_4d/3x3 <- inception_4d/3x3_reduce
I0403 14:46:42.848430 11099 net.cpp:399] inception_4d/3x3 -> inception_4d/3x3
I0403 14:46:42.852676 11099 net.cpp:141] Setting up inception_4d/3x3
I0403 14:46:42.852708 11099 net.cpp:148] Top shape: 24 288 14 14 (1354752)
I0403 14:46:42.852725 11099 net.cpp:156] Memory required for data: 1126235424
I0403 14:46:42.852744 11099 layer_factory.hpp:77] Creating layer inception_4d/relu_3x3
I0403 14:46:42.852764 11099 net.cpp:91] Creating Layer inception_4d/relu_3x3
I0403 14:46:42.852780 11099 net.cpp:425] inception_4d/relu_3x3 <- inception_4d/3x3
I0403 14:46:42.852803 11099 net.cpp:386] inception_4d/relu_3x3 -> inception_4d/3x3 (in-place)
I0403 14:46:42.852987 11099 net.cpp:141] Setting up inception_4d/relu_3x3
I0403 14:46:42.853013 11099 net.cpp:148] Top shape: 24 288 14 14 (1354752)
I0403 14:46:42.853029 11099 net.cpp:156] Memory required for data: 1131654432
I0403 14:46:42.853044 11099 layer_factory.hpp:77] Creating layer inception_4d/5x5_reduce
I0403 14:46:42.853067 11099 net.cpp:91] Creating Layer inception_4d/5x5_reduce
I0403 14:46:42.853086 11099 net.cpp:425] inception_4d/5x5_reduce <- inception_4c/output_inception_4c/output_0_split_2
I0403 14:46:42.853121 11099 net.cpp:399] inception_4d/5x5_reduce -> inception_4d/5x5_reduce
I0403 14:46:42.854270 11099 net.cpp:141] Setting up inception_4d/5x5_reduce
I0403 14:46:42.854300 11099 net.cpp:148] Top shape: 24 32 14 14 (150528)
I0403 14:46:42.854315 11099 net.cpp:156] Memory required for data: 1132256544
I0403 14:46:42.854333 11099 layer_factory.hpp:77] Creating layer inception_4d/relu_5x5_reduce
I0403 14:46:42.854353 11099 net.cpp:91] Creating Layer inception_4d/relu_5x5_reduce
I0403 14:46:42.854370 11099 net.cpp:425] inception_4d/relu_5x5_reduce <- inception_4d/5x5_reduce
I0403 14:46:42.854392 11099 net.cpp:386] inception_4d/relu_5x5_reduce -> inception_4d/5x5_reduce (in-place)
I0403 14:46:42.854580 11099 net.cpp:141] Setting up inception_4d/relu_5x5_reduce
I0403 14:46:42.854606 11099 net.cpp:148] Top shape: 24 32 14 14 (150528)
I0403 14:46:42.854621 11099 net.cpp:156] Memory required for data: 1132858656
I0403 14:46:42.854636 11099 layer_factory.hpp:77] Creating layer inception_4d/5x5
I0403 14:46:42.854658 11099 net.cpp:91] Creating Layer inception_4d/5x5
I0403 14:46:42.854678 11099 net.cpp:425] inception_4d/5x5 <- inception_4d/5x5_reduce
I0403 14:46:42.854699 11099 net.cpp:399] inception_4d/5x5 -> inception_4d/5x5
I0403 14:46:42.856189 11099 net.cpp:141] Setting up inception_4d/5x5
I0403 14:46:42.856217 11099 net.cpp:148] Top shape: 24 64 14 14 (301056)
I0403 14:46:42.856233 11099 net.cpp:156] Memory required for data: 1134062880
I0403 14:46:42.856253 11099 layer_factory.hpp:77] Creating layer inception_4d/relu_5x5
I0403 14:46:42.856293 11099 net.cpp:91] Creating Layer inception_4d/relu_5x5
I0403 14:46:42.856312 11099 net.cpp:425] inception_4d/relu_5x5 <- inception_4d/5x5
I0403 14:46:42.856329 11099 net.cpp:386] inception_4d/relu_5x5 -> inception_4d/5x5 (in-place)
I0403 14:46:42.856631 11099 net.cpp:141] Setting up inception_4d/relu_5x5
I0403 14:46:42.856724 11099 net.cpp:148] Top shape: 24 64 14 14 (301056)
I0403 14:46:42.856740 11099 net.cpp:156] Memory required for data: 1135267104
I0403 14:46:42.856756 11099 layer_factory.hpp:77] Creating layer inception_4d/pool
I0403 14:46:42.856776 11099 net.cpp:91] Creating Layer inception_4d/pool
I0403 14:46:42.856796 11099 net.cpp:425] inception_4d/pool <- inception_4c/output_inception_4c/output_0_split_3
I0403 14:46:42.856814 11099 net.cpp:399] inception_4d/pool -> inception_4d/pool
I0403 14:46:42.856884 11099 net.cpp:141] Setting up inception_4d/pool
I0403 14:46:42.856909 11099 net.cpp:148] Top shape: 24 512 14 14 (2408448)
I0403 14:46:42.856925 11099 net.cpp:156] Memory required for data: 1144900896
I0403 14:46:42.856940 11099 layer_factory.hpp:77] Creating layer inception_4d/pool_proj
I0403 14:46:42.856961 11099 net.cpp:91] Creating Layer inception_4d/pool_proj
I0403 14:46:42.856979 11099 net.cpp:425] inception_4d/pool_proj <- inception_4d/pool
I0403 14:46:42.857002 11099 net.cpp:399] inception_4d/pool_proj -> inception_4d/pool_proj
I0403 14:46:42.858763 11099 net.cpp:141] Setting up inception_4d/pool_proj
I0403 14:46:42.858795 11099 net.cpp:148] Top shape: 24 64 14 14 (301056)
I0403 14:46:42.858813 11099 net.cpp:156] Memory required for data: 1146105120
I0403 14:46:42.858832 11099 layer_factory.hpp:77] Creating layer inception_4d/relu_pool_proj
I0403 14:46:42.858851 11099 net.cpp:91] Creating Layer inception_4d/relu_pool_proj
I0403 14:46:42.858868 11099 net.cpp:425] inception_4d/relu_pool_proj <- inception_4d/pool_proj
I0403 14:46:42.858889 11099 net.cpp:386] inception_4d/relu_pool_proj -> inception_4d/pool_proj (in-place)
I0403 14:46:42.859076 11099 net.cpp:141] Setting up inception_4d/relu_pool_proj
I0403 14:46:42.859107 11099 net.cpp:148] Top shape: 24 64 14 14 (301056)
I0403 14:46:42.859124 11099 net.cpp:156] Memory required for data: 1147309344
I0403 14:46:42.859138 11099 layer_factory.hpp:77] Creating layer inception_4d/output
I0403 14:46:42.859156 11099 net.cpp:91] Creating Layer inception_4d/output
I0403 14:46:42.859171 11099 net.cpp:425] inception_4d/output <- inception_4d/1x1
I0403 14:46:42.859189 11099 net.cpp:425] inception_4d/output <- inception_4d/3x3
I0403 14:46:42.859205 11099 net.cpp:425] inception_4d/output <- inception_4d/5x5
I0403 14:46:42.859222 11099 net.cpp:425] inception_4d/output <- inception_4d/pool_proj
I0403 14:46:42.859242 11099 net.cpp:399] inception_4d/output -> inception_4d/output
I0403 14:46:42.859297 11099 net.cpp:141] Setting up inception_4d/output
I0403 14:46:42.859321 11099 net.cpp:148] Top shape: 24 528 14 14 (2483712)
I0403 14:46:42.859338 11099 net.cpp:156] Memory required for data: 1157244192
I0403 14:46:42.859354 11099 layer_factory.hpp:77] Creating layer inception_4d/output_inception_4d/output_0_split
I0403 14:46:42.859372 11099 net.cpp:91] Creating Layer inception_4d/output_inception_4d/output_0_split
I0403 14:46:42.859390 11099 net.cpp:425] inception_4d/output_inception_4d/output_0_split <- inception_4d/output
I0403 14:46:42.859412 11099 net.cpp:399] inception_4d/output_inception_4d/output_0_split -> inception_4d/output_inception_4d/output_0_split_0
I0403 14:46:42.859436 11099 net.cpp:399] inception_4d/output_inception_4d/output_0_split -> inception_4d/output_inception_4d/output_0_split_1
I0403 14:46:42.859458 11099 net.cpp:399] inception_4d/output_inception_4d/output_0_split -> inception_4d/output_inception_4d/output_0_split_2
I0403 14:46:42.859480 11099 net.cpp:399] inception_4d/output_inception_4d/output_0_split -> inception_4d/output_inception_4d/output_0_split_3
I0403 14:46:42.859501 11099 net.cpp:399] inception_4d/output_inception_4d/output_0_split -> inception_4d/output_inception_4d/output_0_split_4
I0403 14:46:42.859602 11099 net.cpp:141] Setting up inception_4d/output_inception_4d/output_0_split
I0403 14:46:42.859644 11099 net.cpp:148] Top shape: 24 528 14 14 (2483712)
I0403 14:46:42.859663 11099 net.cpp:148] Top shape: 24 528 14 14 (2483712)
I0403 14:46:42.859679 11099 net.cpp:148] Top shape: 24 528 14 14 (2483712)
I0403 14:46:42.859695 11099 net.cpp:148] Top shape: 24 528 14 14 (2483712)
I0403 14:46:42.859711 11099 net.cpp:148] Top shape: 24 528 14 14 (2483712)
I0403 14:46:42.859725 11099 net.cpp:156] Memory required for data: 1206918432
I0403 14:46:42.859740 11099 layer_factory.hpp:77] Creating layer loss2/ave_pool
I0403 14:46:42.859758 11099 net.cpp:91] Creating Layer loss2/ave_pool
I0403 14:46:42.859774 11099 net.cpp:425] loss2/ave_pool <- inception_4d/output_inception_4d/output_0_split_0
I0403 14:46:42.859797 11099 net.cpp:399] loss2/ave_pool -> loss2/ave_pool
I0403 14:46:42.860115 11099 net.cpp:141] Setting up loss2/ave_pool
I0403 14:46:42.860143 11099 net.cpp:148] Top shape: 24 528 4 4 (202752)
I0403 14:46:42.860160 11099 net.cpp:156] Memory required for data: 1207729440
I0403 14:46:42.860175 11099 layer_factory.hpp:77] Creating layer loss2/conv
I0403 14:46:42.860198 11099 net.cpp:91] Creating Layer loss2/conv
I0403 14:46:42.860216 11099 net.cpp:425] loss2/conv <- loss2/ave_pool
I0403 14:46:42.860236 11099 net.cpp:399] loss2/conv -> loss2/conv
I0403 14:46:42.862135 11099 net.cpp:141] Setting up loss2/conv
I0403 14:46:42.862165 11099 net.cpp:148] Top shape: 24 128 4 4 (49152)
I0403 14:46:42.862181 11099 net.cpp:156] Memory required for data: 1207926048
I0403 14:46:42.862200 11099 layer_factory.hpp:77] Creating layer loss2/relu_conv
I0403 14:46:42.862222 11099 net.cpp:91] Creating Layer loss2/relu_conv
I0403 14:46:42.862241 11099 net.cpp:425] loss2/relu_conv <- loss2/conv
I0403 14:46:42.862259 11099 net.cpp:386] loss2/relu_conv -> loss2/conv (in-place)
I0403 14:46:42.862555 11099 net.cpp:141] Setting up loss2/relu_conv
I0403 14:46:42.862581 11099 net.cpp:148] Top shape: 24 128 4 4 (49152)
I0403 14:46:42.862598 11099 net.cpp:156] Memory required for data: 1208122656
I0403 14:46:42.862614 11099 layer_factory.hpp:77] Creating layer loss2/fc
I0403 14:46:42.862635 11099 net.cpp:91] Creating Layer loss2/fc
I0403 14:46:42.862654 11099 net.cpp:425] loss2/fc <- loss2/conv
I0403 14:46:42.862674 11099 net.cpp:399] loss2/fc -> loss2/fc
I0403 14:46:42.880492 11099 net.cpp:141] Setting up loss2/fc
I0403 14:46:42.880561 11099 net.cpp:148] Top shape: 24 1024 (24576)
I0403 14:46:42.880578 11099 net.cpp:156] Memory required for data: 1208220960
I0403 14:46:42.880599 11099 layer_factory.hpp:77] Creating layer loss2/relu_fc
I0403 14:46:42.880620 11099 net.cpp:91] Creating Layer loss2/relu_fc
I0403 14:46:42.880638 11099 net.cpp:425] loss2/relu_fc <- loss2/fc
I0403 14:46:42.880659 11099 net.cpp:386] loss2/relu_fc -> loss2/fc (in-place)
I0403 14:46:42.881008 11099 net.cpp:141] Setting up loss2/relu_fc
I0403 14:46:42.881036 11099 net.cpp:148] Top shape: 24 1024 (24576)
I0403 14:46:42.881052 11099 net.cpp:156] Memory required for data: 1208319264
I0403 14:46:42.881067 11099 layer_factory.hpp:77] Creating layer loss2/drop_fc
I0403 14:46:42.881085 11099 net.cpp:91] Creating Layer loss2/drop_fc
I0403 14:46:42.881108 11099 net.cpp:425] loss2/drop_fc <- loss2/fc
I0403 14:46:42.881129 11099 net.cpp:386] loss2/drop_fc -> loss2/fc (in-place)
I0403 14:46:42.881181 11099 net.cpp:141] Setting up loss2/drop_fc
I0403 14:46:42.881208 11099 net.cpp:148] Top shape: 24 1024 (24576)
I0403 14:46:42.881224 11099 net.cpp:156] Memory required for data: 1208417568
I0403 14:46:42.881239 11099 layer_factory.hpp:77] Creating layer loss2/classifier_plantvillage
I0403 14:46:42.881258 11099 net.cpp:91] Creating Layer loss2/classifier_plantvillage
I0403 14:46:42.881275 11099 net.cpp:425] loss2/classifier_plantvillage <- loss2/fc
I0403 14:46:42.881299 11099 net.cpp:399] loss2/classifier_plantvillage -> loss2/classifier_plantvillage
I0403 14:46:42.881714 11099 net.cpp:141] Setting up loss2/classifier_plantvillage
I0403 14:46:42.881741 11099 net.cpp:148] Top shape: 24 38 (912)
I0403 14:46:42.881784 11099 net.cpp:156] Memory required for data: 1208421216
I0403 14:46:42.881805 11099 layer_factory.hpp:77] Creating layer loss2/classifier_plantvillage_loss2/classifier_plantvillage_0_split
I0403 14:46:42.881827 11099 net.cpp:91] Creating Layer loss2/classifier_plantvillage_loss2/classifier_plantvillage_0_split
I0403 14:46:42.881845 11099 net.cpp:425] loss2/classifier_plantvillage_loss2/classifier_plantvillage_0_split <- loss2/classifier_plantvillage
I0403 14:46:42.881865 11099 net.cpp:399] loss2/classifier_plantvillage_loss2/classifier_plantvillage_0_split -> loss2/classifier_plantvillage_loss2/classifier_plantvillage_0_split_0
I0403 14:46:42.881886 11099 net.cpp:399] loss2/classifier_plantvillage_loss2/classifier_plantvillage_0_split -> loss2/classifier_plantvillage_loss2/classifier_plantvillage_0_split_1
I0403 14:46:42.881911 11099 net.cpp:399] loss2/classifier_plantvillage_loss2/classifier_plantvillage_0_split -> loss2/classifier_plantvillage_loss2/classifier_plantvillage_0_split_2
I0403 14:46:42.881992 11099 net.cpp:141] Setting up loss2/classifier_plantvillage_loss2/classifier_plantvillage_0_split
I0403 14:46:42.882019 11099 net.cpp:148] Top shape: 24 38 (912)
I0403 14:46:42.882035 11099 net.cpp:148] Top shape: 24 38 (912)
I0403 14:46:42.882052 11099 net.cpp:148] Top shape: 24 38 (912)
I0403 14:46:42.882066 11099 net.cpp:156] Memory required for data: 1208432160
I0403 14:46:42.882081 11099 layer_factory.hpp:77] Creating layer inception_4e/1x1
I0403 14:46:42.882110 11099 net.cpp:91] Creating Layer inception_4e/1x1
I0403 14:46:42.882130 11099 net.cpp:425] inception_4e/1x1 <- inception_4d/output_inception_4d/output_0_split_1
I0403 14:46:42.882151 11099 net.cpp:399] inception_4e/1x1 -> inception_4e/1x1
I0403 14:46:42.884009 11099 net.cpp:141] Setting up inception_4e/1x1
I0403 14:46:42.884038 11099 net.cpp:148] Top shape: 24 256 14 14 (1204224)
I0403 14:46:42.884055 11099 net.cpp:156] Memory required for data: 1213249056
I0403 14:46:42.884074 11099 layer_factory.hpp:77] Creating layer inception_4e/relu_1x1
I0403 14:46:42.884102 11099 net.cpp:91] Creating Layer inception_4e/relu_1x1
I0403 14:46:42.884121 11099 net.cpp:425] inception_4e/relu_1x1 <- inception_4e/1x1
I0403 14:46:42.884140 11099 net.cpp:386] inception_4e/relu_1x1 -> inception_4e/1x1 (in-place)
I0403 14:46:42.884434 11099 net.cpp:141] Setting up inception_4e/relu_1x1
I0403 14:46:42.884462 11099 net.cpp:148] Top shape: 24 256 14 14 (1204224)
I0403 14:46:42.884479 11099 net.cpp:156] Memory required for data: 1218065952
I0403 14:46:42.884495 11099 layer_factory.hpp:77] Creating layer inception_4e/3x3_reduce
I0403 14:46:42.884517 11099 net.cpp:91] Creating Layer inception_4e/3x3_reduce
I0403 14:46:42.884536 11099 net.cpp:425] inception_4e/3x3_reduce <- inception_4d/output_inception_4d/output_0_split_2
I0403 14:46:42.884559 11099 net.cpp:399] inception_4e/3x3_reduce -> inception_4e/3x3_reduce
I0403 14:46:42.886694 11099 net.cpp:141] Setting up inception_4e/3x3_reduce
I0403 14:46:42.886723 11099 net.cpp:148] Top shape: 24 160 14 14 (752640)
I0403 14:46:42.886739 11099 net.cpp:156] Memory required for data: 1221076512
I0403 14:46:42.886759 11099 layer_factory.hpp:77] Creating layer inception_4e/relu_3x3_reduce
I0403 14:46:42.886780 11099 net.cpp:91] Creating Layer inception_4e/relu_3x3_reduce
I0403 14:46:42.886797 11099 net.cpp:425] inception_4e/relu_3x3_reduce <- inception_4e/3x3_reduce
I0403 14:46:42.886816 11099 net.cpp:386] inception_4e/relu_3x3_reduce -> inception_4e/3x3_reduce (in-place)
I0403 14:46:42.887002 11099 net.cpp:141] Setting up inception_4e/relu_3x3_reduce
I0403 14:46:42.887033 11099 net.cpp:148] Top shape: 24 160 14 14 (752640)
I0403 14:46:42.887050 11099 net.cpp:156] Memory required for data: 1224087072
I0403 14:46:42.887065 11099 layer_factory.hpp:77] Creating layer inception_4e/3x3
I0403 14:46:42.887085 11099 net.cpp:91] Creating Layer inception_4e/3x3
I0403 14:46:42.887109 11099 net.cpp:425] inception_4e/3x3 <- inception_4e/3x3_reduce
I0403 14:46:42.887131 11099 net.cpp:399] inception_4e/3x3 -> inception_4e/3x3
I0403 14:46:42.892130 11099 net.cpp:141] Setting up inception_4e/3x3
I0403 14:46:42.892177 11099 net.cpp:148] Top shape: 24 320 14 14 (1505280)
I0403 14:46:42.892194 11099 net.cpp:156] Memory required for data: 1230108192
I0403 14:46:42.892213 11099 layer_factory.hpp:77] Creating layer inception_4e/relu_3x3
I0403 14:46:42.892232 11099 net.cpp:91] Creating Layer inception_4e/relu_3x3
I0403 14:46:42.892249 11099 net.cpp:425] inception_4e/relu_3x3 <- inception_4e/3x3
I0403 14:46:42.892267 11099 net.cpp:386] inception_4e/relu_3x3 -> inception_4e/3x3 (in-place)
I0403 14:46:42.892576 11099 net.cpp:141] Setting up inception_4e/relu_3x3
I0403 14:46:42.892606 11099 net.cpp:148] Top shape: 24 320 14 14 (1505280)
I0403 14:46:42.892621 11099 net.cpp:156] Memory required for data: 1236129312
I0403 14:46:42.892637 11099 layer_factory.hpp:77] Creating layer inception_4e/5x5_reduce
I0403 14:46:42.892660 11099 net.cpp:91] Creating Layer inception_4e/5x5_reduce
I0403 14:46:42.892680 11099 net.cpp:425] inception_4e/5x5_reduce <- inception_4d/output_inception_4d/output_0_split_3
I0403 14:46:42.892704 11099 net.cpp:399] inception_4e/5x5_reduce -> inception_4e/5x5_reduce
I0403 14:46:42.893781 11099 net.cpp:141] Setting up inception_4e/5x5_reduce
I0403 14:46:42.893810 11099 net.cpp:148] Top shape: 24 32 14 14 (150528)
I0403 14:46:42.893827 11099 net.cpp:156] Memory required for data: 1236731424
I0403 14:46:42.893846 11099 layer_factory.hpp:77] Creating layer inception_4e/relu_5x5_reduce
I0403 14:46:42.893867 11099 net.cpp:91] Creating Layer inception_4e/relu_5x5_reduce
I0403 14:46:42.893885 11099 net.cpp:425] inception_4e/relu_5x5_reduce <- inception_4e/5x5_reduce
I0403 14:46:42.893904 11099 net.cpp:386] inception_4e/relu_5x5_reduce -> inception_4e/5x5_reduce (in-place)
I0403 14:46:42.894209 11099 net.cpp:141] Setting up inception_4e/relu_5x5_reduce
I0403 14:46:42.894237 11099 net.cpp:148] Top shape: 24 32 14 14 (150528)
I0403 14:46:42.894251 11099 net.cpp:156] Memory required for data: 1237333536
I0403 14:46:42.894266 11099 layer_factory.hpp:77] Creating layer inception_4e/5x5
I0403 14:46:42.894306 11099 net.cpp:91] Creating Layer inception_4e/5x5
I0403 14:46:42.894327 11099 net.cpp:425] inception_4e/5x5 <- inception_4e/5x5_reduce
I0403 14:46:42.894347 11099 net.cpp:399] inception_4e/5x5 -> inception_4e/5x5
I0403 14:46:42.896196 11099 net.cpp:141] Setting up inception_4e/5x5
I0403 14:46:42.896224 11099 net.cpp:148] Top shape: 24 128 14 14 (602112)
I0403 14:46:42.896240 11099 net.cpp:156] Memory required for data: 1239741984
I0403 14:46:42.896258 11099 layer_factory.hpp:77] Creating layer inception_4e/relu_5x5
I0403 14:46:42.896278 11099 net.cpp:91] Creating Layer inception_4e/relu_5x5
I0403 14:46:42.896297 11099 net.cpp:425] inception_4e/relu_5x5 <- inception_4e/5x5
I0403 14:46:42.896316 11099 net.cpp:386] inception_4e/relu_5x5 -> inception_4e/5x5 (in-place)
I0403 14:46:42.896512 11099 net.cpp:141] Setting up inception_4e/relu_5x5
I0403 14:46:42.896538 11099 net.cpp:148] Top shape: 24 128 14 14 (602112)
I0403 14:46:42.896553 11099 net.cpp:156] Memory required for data: 1242150432
I0403 14:46:42.896567 11099 layer_factory.hpp:77] Creating layer inception_4e/pool
I0403 14:46:42.896590 11099 net.cpp:91] Creating Layer inception_4e/pool
I0403 14:46:42.896610 11099 net.cpp:425] inception_4e/pool <- inception_4d/output_inception_4d/output_0_split_4
I0403 14:46:42.896628 11099 net.cpp:399] inception_4e/pool -> inception_4e/pool
I0403 14:46:42.896700 11099 net.cpp:141] Setting up inception_4e/pool
I0403 14:46:42.896725 11099 net.cpp:148] Top shape: 24 528 14 14 (2483712)
I0403 14:46:42.896740 11099 net.cpp:156] Memory required for data: 1252085280
I0403 14:46:42.896754 11099 layer_factory.hpp:77] Creating layer inception_4e/pool_proj
I0403 14:46:42.896777 11099 net.cpp:91] Creating Layer inception_4e/pool_proj
I0403 14:46:42.896795 11099 net.cpp:425] inception_4e/pool_proj <- inception_4e/pool
I0403 14:46:42.896817 11099 net.cpp:399] inception_4e/pool_proj -> inception_4e/pool_proj
I0403 14:46:42.898316 11099 net.cpp:141] Setting up inception_4e/pool_proj
I0403 14:46:42.898360 11099 net.cpp:148] Top shape: 24 128 14 14 (602112)
I0403 14:46:42.898377 11099 net.cpp:156] Memory required for data: 1254493728
I0403 14:46:42.898397 11099 layer_factory.hpp:77] Creating layer inception_4e/relu_pool_proj
I0403 14:46:42.898416 11099 net.cpp:91] Creating Layer inception_4e/relu_pool_proj
I0403 14:46:42.898432 11099 net.cpp:425] inception_4e/relu_pool_proj <- inception_4e/pool_proj
I0403 14:46:42.898453 11099 net.cpp:386] inception_4e/relu_pool_proj -> inception_4e/pool_proj (in-place)
I0403 14:46:42.898746 11099 net.cpp:141] Setting up inception_4e/relu_pool_proj
I0403 14:46:42.898774 11099 net.cpp:148] Top shape: 24 128 14 14 (602112)
I0403 14:46:42.898792 11099 net.cpp:156] Memory required for data: 1256902176
I0403 14:46:42.898808 11099 layer_factory.hpp:77] Creating layer inception_4e/output
I0403 14:46:42.898825 11099 net.cpp:91] Creating Layer inception_4e/output
I0403 14:46:42.898841 11099 net.cpp:425] inception_4e/output <- inception_4e/1x1
I0403 14:46:42.898859 11099 net.cpp:425] inception_4e/output <- inception_4e/3x3
I0403 14:46:42.898875 11099 net.cpp:425] inception_4e/output <- inception_4e/5x5
I0403 14:46:42.898892 11099 net.cpp:425] inception_4e/output <- inception_4e/pool_proj
I0403 14:46:42.898911 11099 net.cpp:399] inception_4e/output -> inception_4e/output
I0403 14:46:42.898962 11099 net.cpp:141] Setting up inception_4e/output
I0403 14:46:42.898988 11099 net.cpp:148] Top shape: 24 832 14 14 (3913728)
I0403 14:46:42.899003 11099 net.cpp:156] Memory required for data: 1272557088
I0403 14:46:42.899019 11099 layer_factory.hpp:77] Creating layer pool4/3x3_s2
I0403 14:46:42.899039 11099 net.cpp:91] Creating Layer pool4/3x3_s2
I0403 14:46:42.899057 11099 net.cpp:425] pool4/3x3_s2 <- inception_4e/output
I0403 14:46:42.899076 11099 net.cpp:399] pool4/3x3_s2 -> pool4/3x3_s2
I0403 14:46:42.899149 11099 net.cpp:141] Setting up pool4/3x3_s2
I0403 14:46:42.899175 11099 net.cpp:148] Top shape: 24 832 7 7 (978432)
I0403 14:46:42.899190 11099 net.cpp:156] Memory required for data: 1276470816
I0403 14:46:42.899206 11099 layer_factory.hpp:77] Creating layer pool4/3x3_s2_pool4/3x3_s2_0_split
I0403 14:46:42.899225 11099 net.cpp:91] Creating Layer pool4/3x3_s2_pool4/3x3_s2_0_split
I0403 14:46:42.899242 11099 net.cpp:425] pool4/3x3_s2_pool4/3x3_s2_0_split <- pool4/3x3_s2
I0403 14:46:42.899260 11099 net.cpp:399] pool4/3x3_s2_pool4/3x3_s2_0_split -> pool4/3x3_s2_pool4/3x3_s2_0_split_0
I0403 14:46:42.899281 11099 net.cpp:399] pool4/3x3_s2_pool4/3x3_s2_0_split -> pool4/3x3_s2_pool4/3x3_s2_0_split_1
I0403 14:46:42.899303 11099 net.cpp:399] pool4/3x3_s2_pool4/3x3_s2_0_split -> pool4/3x3_s2_pool4/3x3_s2_0_split_2
I0403 14:46:42.899324 11099 net.cpp:399] pool4/3x3_s2_pool4/3x3_s2_0_split -> pool4/3x3_s2_pool4/3x3_s2_0_split_3
I0403 14:46:42.899415 11099 net.cpp:141] Setting up pool4/3x3_s2_pool4/3x3_s2_0_split
I0403 14:46:42.899441 11099 net.cpp:148] Top shape: 24 832 7 7 (978432)
I0403 14:46:42.899456 11099 net.cpp:148] Top shape: 24 832 7 7 (978432)
I0403 14:46:42.899472 11099 net.cpp:148] Top shape: 24 832 7 7 (978432)
I0403 14:46:42.899488 11099 net.cpp:148] Top shape: 24 832 7 7 (978432)
I0403 14:46:42.899503 11099 net.cpp:156] Memory required for data: 1292125728
I0403 14:46:42.899518 11099 layer_factory.hpp:77] Creating layer inception_5a/1x1
I0403 14:46:42.899541 11099 net.cpp:91] Creating Layer inception_5a/1x1
I0403 14:46:42.899560 11099 net.cpp:425] inception_5a/1x1 <- pool4/3x3_s2_pool4/3x3_s2_0_split_0
I0403 14:46:42.899582 11099 net.cpp:399] inception_5a/1x1 -> inception_5a/1x1
I0403 14:46:42.902436 11099 net.cpp:141] Setting up inception_5a/1x1
I0403 14:46:42.902468 11099 net.cpp:148] Top shape: 24 256 7 7 (301056)
I0403 14:46:42.902484 11099 net.cpp:156] Memory required for data: 1293329952
I0403 14:46:42.902503 11099 layer_factory.hpp:77] Creating layer inception_5a/relu_1x1
I0403 14:46:42.902525 11099 net.cpp:91] Creating Layer inception_5a/relu_1x1
I0403 14:46:42.902542 11099 net.cpp:425] inception_5a/relu_1x1 <- inception_5a/1x1
I0403 14:46:42.902560 11099 net.cpp:386] inception_5a/relu_1x1 -> inception_5a/1x1 (in-place)
I0403 14:46:42.902873 11099 net.cpp:141] Setting up inception_5a/relu_1x1
I0403 14:46:42.902899 11099 net.cpp:148] Top shape: 24 256 7 7 (301056)
I0403 14:46:42.902915 11099 net.cpp:156] Memory required for data: 1294534176
I0403 14:46:42.902930 11099 layer_factory.hpp:77] Creating layer inception_5a/3x3_reduce
I0403 14:46:42.902952 11099 net.cpp:91] Creating Layer inception_5a/3x3_reduce
I0403 14:46:42.902972 11099 net.cpp:425] inception_5a/3x3_reduce <- pool4/3x3_s2_pool4/3x3_s2_0_split_1
I0403 14:46:42.902994 11099 net.cpp:399] inception_5a/3x3_reduce -> inception_5a/3x3_reduce
I0403 14:46:42.905453 11099 net.cpp:141] Setting up inception_5a/3x3_reduce
I0403 14:46:42.905488 11099 net.cpp:148] Top shape: 24 160 7 7 (188160)
I0403 14:46:42.905504 11099 net.cpp:156] Memory required for data: 1295286816
I0403 14:46:42.905524 11099 layer_factory.hpp:77] Creating layer inception_5a/relu_3x3_reduce
I0403 14:46:42.905542 11099 net.cpp:91] Creating Layer inception_5a/relu_3x3_reduce
I0403 14:46:42.905560 11099 net.cpp:425] inception_5a/relu_3x3_reduce <- inception_5a/3x3_reduce
I0403 14:46:42.905580 11099 net.cpp:386] inception_5a/relu_3x3_reduce -> inception_5a/3x3_reduce (in-place)
I0403 14:46:42.905772 11099 net.cpp:141] Setting up inception_5a/relu_3x3_reduce
I0403 14:46:42.905798 11099 net.cpp:148] Top shape: 24 160 7 7 (188160)
I0403 14:46:42.905814 11099 net.cpp:156] Memory required for data: 1296039456
I0403 14:46:42.905830 11099 layer_factory.hpp:77] Creating layer inception_5a/3x3
I0403 14:46:42.905853 11099 net.cpp:91] Creating Layer inception_5a/3x3
I0403 14:46:42.905871 11099 net.cpp:425] inception_5a/3x3 <- inception_5a/3x3_reduce
I0403 14:46:42.905894 11099 net.cpp:399] inception_5a/3x3 -> inception_5a/3x3
I0403 14:46:42.910964 11099 net.cpp:141] Setting up inception_5a/3x3
I0403 14:46:42.910995 11099 net.cpp:148] Top shape: 24 320 7 7 (376320)
I0403 14:46:42.911011 11099 net.cpp:156] Memory required for data: 1297544736
I0403 14:46:42.911029 11099 layer_factory.hpp:77] Creating layer inception_5a/relu_3x3
I0403 14:46:42.911051 11099 net.cpp:91] Creating Layer inception_5a/relu_3x3
I0403 14:46:42.911069 11099 net.cpp:425] inception_5a/relu_3x3 <- inception_5a/3x3
I0403 14:46:42.911088 11099 net.cpp:386] inception_5a/relu_3x3 -> inception_5a/3x3 (in-place)
I0403 14:46:42.911389 11099 net.cpp:141] Setting up inception_5a/relu_3x3
I0403 14:46:42.911417 11099 net.cpp:148] Top shape: 24 320 7 7 (376320)
I0403 14:46:42.911434 11099 net.cpp:156] Memory required for data: 1299050016
I0403 14:46:42.911449 11099 layer_factory.hpp:77] Creating layer inception_5a/5x5_reduce
I0403 14:46:42.911471 11099 net.cpp:91] Creating Layer inception_5a/5x5_reduce
I0403 14:46:42.911490 11099 net.cpp:425] inception_5a/5x5_reduce <- pool4/3x3_s2_pool4/3x3_s2_0_split_2
I0403 14:46:42.911514 11099 net.cpp:399] inception_5a/5x5_reduce -> inception_5a/5x5_reduce
I0403 14:46:42.912678 11099 net.cpp:141] Setting up inception_5a/5x5_reduce
I0403 14:46:42.912708 11099 net.cpp:148] Top shape: 24 32 7 7 (37632)
I0403 14:46:42.912724 11099 net.cpp:156] Memory required for data: 1299200544
I0403 14:46:42.912742 11099 layer_factory.hpp:77] Creating layer inception_5a/relu_5x5_reduce
I0403 14:46:42.912763 11099 net.cpp:91] Creating Layer inception_5a/relu_5x5_reduce
I0403 14:46:42.912781 11099 net.cpp:425] inception_5a/relu_5x5_reduce <- inception_5a/5x5_reduce
I0403 14:46:42.912799 11099 net.cpp:386] inception_5a/relu_5x5_reduce -> inception_5a/5x5_reduce (in-place)
I0403 14:46:42.913110 11099 net.cpp:141] Setting up inception_5a/relu_5x5_reduce
I0403 14:46:42.913137 11099 net.cpp:148] Top shape: 24 32 7 7 (37632)
I0403 14:46:42.913153 11099 net.cpp:156] Memory required for data: 1299351072
I0403 14:46:42.913168 11099 layer_factory.hpp:77] Creating layer inception_5a/5x5
I0403 14:46:42.913192 11099 net.cpp:91] Creating Layer inception_5a/5x5
I0403 14:46:42.913210 11099 net.cpp:425] inception_5a/5x5 <- inception_5a/5x5_reduce
I0403 14:46:42.913231 11099 net.cpp:399] inception_5a/5x5 -> inception_5a/5x5
I0403 14:46:42.914955 11099 net.cpp:141] Setting up inception_5a/5x5
I0403 14:46:42.914997 11099 net.cpp:148] Top shape: 24 128 7 7 (150528)
I0403 14:46:42.915014 11099 net.cpp:156] Memory required for data: 1299953184
I0403 14:46:42.915032 11099 layer_factory.hpp:77] Creating layer inception_5a/relu_5x5
I0403 14:46:42.915053 11099 net.cpp:91] Creating Layer inception_5a/relu_5x5
I0403 14:46:42.915071 11099 net.cpp:425] inception_5a/relu_5x5 <- inception_5a/5x5
I0403 14:46:42.915089 11099 net.cpp:386] inception_5a/relu_5x5 -> inception_5a/5x5 (in-place)
I0403 14:46:42.915289 11099 net.cpp:141] Setting up inception_5a/relu_5x5
I0403 14:46:42.915315 11099 net.cpp:148] Top shape: 24 128 7 7 (150528)
I0403 14:46:42.915330 11099 net.cpp:156] Memory required for data: 1300555296
I0403 14:46:42.915346 11099 layer_factory.hpp:77] Creating layer inception_5a/pool
I0403 14:46:42.915366 11099 net.cpp:91] Creating Layer inception_5a/pool
I0403 14:46:42.915383 11099 net.cpp:425] inception_5a/pool <- pool4/3x3_s2_pool4/3x3_s2_0_split_3
I0403 14:46:42.915402 11099 net.cpp:399] inception_5a/pool -> inception_5a/pool
I0403 14:46:42.915473 11099 net.cpp:141] Setting up inception_5a/pool
I0403 14:46:42.915498 11099 net.cpp:148] Top shape: 24 832 7 7 (978432)
I0403 14:46:42.915513 11099 net.cpp:156] Memory required for data: 1304469024
I0403 14:46:42.915529 11099 layer_factory.hpp:77] Creating layer inception_5a/pool_proj
I0403 14:46:42.915551 11099 net.cpp:91] Creating Layer inception_5a/pool_proj
I0403 14:46:42.915570 11099 net.cpp:425] inception_5a/pool_proj <- inception_5a/pool
I0403 14:46:42.915591 11099 net.cpp:399] inception_5a/pool_proj -> inception_5a/pool_proj
I0403 14:46:42.917870 11099 net.cpp:141] Setting up inception_5a/pool_proj
I0403 14:46:42.917901 11099 net.cpp:148] Top shape: 24 128 7 7 (150528)
I0403 14:46:42.917917 11099 net.cpp:156] Memory required for data: 1305071136
I0403 14:46:42.917935 11099 layer_factory.hpp:77] Creating layer inception_5a/relu_pool_proj
I0403 14:46:42.917953 11099 net.cpp:91] Creating Layer inception_5a/relu_pool_proj
I0403 14:46:42.917970 11099 net.cpp:425] inception_5a/relu_pool_proj <- inception_5a/pool_proj
I0403 14:46:42.917991 11099 net.cpp:386] inception_5a/relu_pool_proj -> inception_5a/pool_proj (in-place)
I0403 14:46:42.918292 11099 net.cpp:141] Setting up inception_5a/relu_pool_proj
I0403 14:46:42.918319 11099 net.cpp:148] Top shape: 24 128 7 7 (150528)
I0403 14:46:42.918334 11099 net.cpp:156] Memory required for data: 1305673248
I0403 14:46:42.918349 11099 layer_factory.hpp:77] Creating layer inception_5a/output
I0403 14:46:42.918367 11099 net.cpp:91] Creating Layer inception_5a/output
I0403 14:46:42.918385 11099 net.cpp:425] inception_5a/output <- inception_5a/1x1
I0403 14:46:42.918401 11099 net.cpp:425] inception_5a/output <- inception_5a/3x3
I0403 14:46:42.918418 11099 net.cpp:425] inception_5a/output <- inception_5a/5x5
I0403 14:46:42.918436 11099 net.cpp:425] inception_5a/output <- inception_5a/pool_proj
I0403 14:46:42.918455 11099 net.cpp:399] inception_5a/output -> inception_5a/output
I0403 14:46:42.918508 11099 net.cpp:141] Setting up inception_5a/output
I0403 14:46:42.918534 11099 net.cpp:148] Top shape: 24 832 7 7 (978432)
I0403 14:46:42.918550 11099 net.cpp:156] Memory required for data: 1309586976
I0403 14:46:42.918568 11099 layer_factory.hpp:77] Creating layer inception_5a/output_inception_5a/output_0_split
I0403 14:46:42.918586 11099 net.cpp:91] Creating Layer inception_5a/output_inception_5a/output_0_split
I0403 14:46:42.918601 11099 net.cpp:425] inception_5a/output_inception_5a/output_0_split <- inception_5a/output
I0403 14:46:42.918619 11099 net.cpp:399] inception_5a/output_inception_5a/output_0_split -> inception_5a/output_inception_5a/output_0_split_0
I0403 14:46:42.918639 11099 net.cpp:399] inception_5a/output_inception_5a/output_0_split -> inception_5a/output_inception_5a/output_0_split_1
I0403 14:46:42.918663 11099 net.cpp:399] inception_5a/output_inception_5a/output_0_split -> inception_5a/output_inception_5a/output_0_split_2
I0403 14:46:42.918684 11099 net.cpp:399] inception_5a/output_inception_5a/output_0_split -> inception_5a/output_inception_5a/output_0_split_3
I0403 14:46:42.918800 11099 net.cpp:141] Setting up inception_5a/output_inception_5a/output_0_split
I0403 14:46:42.918825 11099 net.cpp:148] Top shape: 24 832 7 7 (978432)
I0403 14:46:42.918841 11099 net.cpp:148] Top shape: 24 832 7 7 (978432)
I0403 14:46:42.918858 11099 net.cpp:148] Top shape: 24 832 7 7 (978432)
I0403 14:46:42.918872 11099 net.cpp:148] Top shape: 24 832 7 7 (978432)
I0403 14:46:42.918886 11099 net.cpp:156] Memory required for data: 1325241888
I0403 14:46:42.918900 11099 layer_factory.hpp:77] Creating layer inception_5b/1x1
I0403 14:46:42.918923 11099 net.cpp:91] Creating Layer inception_5b/1x1
I0403 14:46:42.918941 11099 net.cpp:425] inception_5b/1x1 <- inception_5a/output_inception_5a/output_0_split_0
I0403 14:46:42.918962 11099 net.cpp:399] inception_5b/1x1 -> inception_5b/1x1
I0403 14:46:42.922746 11099 net.cpp:141] Setting up inception_5b/1x1
I0403 14:46:42.922777 11099 net.cpp:148] Top shape: 24 384 7 7 (451584)
I0403 14:46:42.922793 11099 net.cpp:156] Memory required for data: 1327048224
I0403 14:46:42.922812 11099 layer_factory.hpp:77] Creating layer inception_5b/relu_1x1
I0403 14:46:42.922832 11099 net.cpp:91] Creating Layer inception_5b/relu_1x1
I0403 14:46:42.922847 11099 net.cpp:425] inception_5b/relu_1x1 <- inception_5b/1x1
I0403 14:46:42.922868 11099 net.cpp:386] inception_5b/relu_1x1 -> inception_5b/1x1 (in-place)
I0403 14:46:42.923185 11099 net.cpp:141] Setting up inception_5b/relu_1x1
I0403 14:46:42.923214 11099 net.cpp:148] Top shape: 24 384 7 7 (451584)
I0403 14:46:42.923230 11099 net.cpp:156] Memory required for data: 1328854560
I0403 14:46:42.923245 11099 layer_factory.hpp:77] Creating layer inception_5b/3x3_reduce
I0403 14:46:42.923269 11099 net.cpp:91] Creating Layer inception_5b/3x3_reduce
I0403 14:46:42.923286 11099 net.cpp:425] inception_5b/3x3_reduce <- inception_5a/output_inception_5a/output_0_split_1
I0403 14:46:42.923305 11099 net.cpp:399] inception_5b/3x3_reduce -> inception_5b/3x3_reduce
I0403 14:46:42.925971 11099 net.cpp:141] Setting up inception_5b/3x3_reduce
I0403 14:46:42.925999 11099 net.cpp:148] Top shape: 24 192 7 7 (225792)
I0403 14:46:42.926014 11099 net.cpp:156] Memory required for data: 1329757728
I0403 14:46:42.926033 11099 layer_factory.hpp:77] Creating layer inception_5b/relu_3x3_reduce
I0403 14:46:42.926051 11099 net.cpp:91] Creating Layer inception_5b/relu_3x3_reduce
I0403 14:46:42.926067 11099 net.cpp:425] inception_5b/relu_3x3_reduce <- inception_5b/3x3_reduce
I0403 14:46:42.926090 11099 net.cpp:386] inception_5b/relu_3x3_reduce -> inception_5b/3x3_reduce (in-place)
I0403 14:46:42.926287 11099 net.cpp:141] Setting up inception_5b/relu_3x3_reduce
I0403 14:46:42.926313 11099 net.cpp:148] Top shape: 24 192 7 7 (225792)
I0403 14:46:42.926328 11099 net.cpp:156] Memory required for data: 1330660896
I0403 14:46:42.926343 11099 layer_factory.hpp:77] Creating layer inception_5b/3x3
I0403 14:46:42.926367 11099 net.cpp:91] Creating Layer inception_5b/3x3
I0403 14:46:42.926384 11099 net.cpp:425] inception_5b/3x3 <- inception_5b/3x3_reduce
I0403 14:46:42.926406 11099 net.cpp:399] inception_5b/3x3 -> inception_5b/3x3
I0403 14:46:42.933140 11099 net.cpp:141] Setting up inception_5b/3x3
I0403 14:46:42.933172 11099 net.cpp:148] Top shape: 24 384 7 7 (451584)
I0403 14:46:42.933188 11099 net.cpp:156] Memory required for data: 1332467232
I0403 14:46:42.933207 11099 layer_factory.hpp:77] Creating layer inception_5b/relu_3x3
I0403 14:46:42.933225 11099 net.cpp:91] Creating Layer inception_5b/relu_3x3
I0403 14:46:42.933243 11099 net.cpp:425] inception_5b/relu_3x3 <- inception_5b/3x3
I0403 14:46:42.933264 11099 net.cpp:386] inception_5b/relu_3x3 -> inception_5b/3x3 (in-place)
I0403 14:46:42.933563 11099 net.cpp:141] Setting up inception_5b/relu_3x3
I0403 14:46:42.933590 11099 net.cpp:148] Top shape: 24 384 7 7 (451584)
I0403 14:46:42.933605 11099 net.cpp:156] Memory required for data: 1334273568
I0403 14:46:42.933620 11099 layer_factory.hpp:77] Creating layer inception_5b/5x5_reduce
I0403 14:46:42.933662 11099 net.cpp:91] Creating Layer inception_5b/5x5_reduce
I0403 14:46:42.933681 11099 net.cpp:425] inception_5b/5x5_reduce <- inception_5a/output_inception_5a/output_0_split_2
I0403 14:46:42.933704 11099 net.cpp:399] inception_5b/5x5_reduce -> inception_5b/5x5_reduce
I0403 14:46:42.934974 11099 net.cpp:141] Setting up inception_5b/5x5_reduce
I0403 14:46:42.935004 11099 net.cpp:148] Top shape: 24 48 7 7 (56448)
I0403 14:46:42.935021 11099 net.cpp:156] Memory required for data: 1334499360
I0403 14:46:42.935040 11099 layer_factory.hpp:77] Creating layer inception_5b/relu_5x5_reduce
I0403 14:46:42.935058 11099 net.cpp:91] Creating Layer inception_5b/relu_5x5_reduce
I0403 14:46:42.935075 11099 net.cpp:425] inception_5b/relu_5x5_reduce <- inception_5b/5x5_reduce
I0403 14:46:42.935101 11099 net.cpp:386] inception_5b/relu_5x5_reduce -> inception_5b/5x5_reduce (in-place)
I0403 14:46:42.935477 11099 net.cpp:141] Setting up inception_5b/relu_5x5_reduce
I0403 14:46:42.935504 11099 net.cpp:148] Top shape: 24 48 7 7 (56448)
I0403 14:46:42.935519 11099 net.cpp:156] Memory required for data: 1334725152
I0403 14:46:42.935534 11099 layer_factory.hpp:77] Creating layer inception_5b/5x5
I0403 14:46:42.935555 11099 net.cpp:91] Creating Layer inception_5b/5x5
I0403 14:46:42.935572 11099 net.cpp:425] inception_5b/5x5 <- inception_5b/5x5_reduce
I0403 14:46:42.935590 11099 net.cpp:399] inception_5b/5x5 -> inception_5b/5x5
I0403 14:46:42.937669 11099 net.cpp:141] Setting up inception_5b/5x5
I0403 14:46:42.937697 11099 net.cpp:148] Top shape: 24 128 7 7 (150528)
I0403 14:46:42.937712 11099 net.cpp:156] Memory required for data: 1335327264
I0403 14:46:42.937731 11099 layer_factory.hpp:77] Creating layer inception_5b/relu_5x5
I0403 14:46:42.937749 11099 net.cpp:91] Creating Layer inception_5b/relu_5x5
I0403 14:46:42.937765 11099 net.cpp:425] inception_5b/relu_5x5 <- inception_5b/5x5
I0403 14:46:42.937785 11099 net.cpp:386] inception_5b/relu_5x5 -> inception_5b/5x5 (in-place)
I0403 14:46:42.937983 11099 net.cpp:141] Setting up inception_5b/relu_5x5
I0403 14:46:42.938009 11099 net.cpp:148] Top shape: 24 128 7 7 (150528)
I0403 14:46:42.938024 11099 net.cpp:156] Memory required for data: 1335929376
I0403 14:46:42.938037 11099 layer_factory.hpp:77] Creating layer inception_5b/pool
I0403 14:46:42.938058 11099 net.cpp:91] Creating Layer inception_5b/pool
I0403 14:46:42.938076 11099 net.cpp:425] inception_5b/pool <- inception_5a/output_inception_5a/output_0_split_3
I0403 14:46:42.938097 11099 net.cpp:399] inception_5b/pool -> inception_5b/pool
I0403 14:46:42.938197 11099 net.cpp:141] Setting up inception_5b/pool
I0403 14:46:42.938222 11099 net.cpp:148] Top shape: 24 832 7 7 (978432)
I0403 14:46:42.938237 11099 net.cpp:156] Memory required for data: 1339843104
I0403 14:46:42.938252 11099 layer_factory.hpp:77] Creating layer inception_5b/pool_proj
I0403 14:46:42.938274 11099 net.cpp:91] Creating Layer inception_5b/pool_proj
I0403 14:46:42.938292 11099 net.cpp:425] inception_5b/pool_proj <- inception_5b/pool
I0403 14:46:42.938314 11099 net.cpp:399] inception_5b/pool_proj -> inception_5b/pool_proj
I0403 14:46:42.940654 11099 net.cpp:141] Setting up inception_5b/pool_proj
I0403 14:46:42.940683 11099 net.cpp:148] Top shape: 24 128 7 7 (150528)
I0403 14:46:42.940698 11099 net.cpp:156] Memory required for data: 1340445216
I0403 14:46:42.940716 11099 layer_factory.hpp:77] Creating layer inception_5b/relu_pool_proj
I0403 14:46:42.940735 11099 net.cpp:91] Creating Layer inception_5b/relu_pool_proj
I0403 14:46:42.940752 11099 net.cpp:425] inception_5b/relu_pool_proj <- inception_5b/pool_proj
I0403 14:46:42.940773 11099 net.cpp:386] inception_5b/relu_pool_proj -> inception_5b/pool_proj (in-place)
I0403 14:46:42.941071 11099 net.cpp:141] Setting up inception_5b/relu_pool_proj
I0403 14:46:42.941102 11099 net.cpp:148] Top shape: 24 128 7 7 (150528)
I0403 14:46:42.941118 11099 net.cpp:156] Memory required for data: 1341047328
I0403 14:46:42.941134 11099 layer_factory.hpp:77] Creating layer inception_5b/output
I0403 14:46:42.941151 11099 net.cpp:91] Creating Layer inception_5b/output
I0403 14:46:42.941184 11099 net.cpp:425] inception_5b/output <- inception_5b/1x1
I0403 14:46:42.941202 11099 net.cpp:425] inception_5b/output <- inception_5b/3x3
I0403 14:46:42.941220 11099 net.cpp:425] inception_5b/output <- inception_5b/5x5
I0403 14:46:42.941236 11099 net.cpp:425] inception_5b/output <- inception_5b/pool_proj
I0403 14:46:42.941256 11099 net.cpp:399] inception_5b/output -> inception_5b/output
I0403 14:46:42.941308 11099 net.cpp:141] Setting up inception_5b/output
I0403 14:46:42.941334 11099 net.cpp:148] Top shape: 24 1024 7 7 (1204224)
I0403 14:46:42.941351 11099 net.cpp:156] Memory required for data: 1345864224
I0403 14:46:42.941367 11099 layer_factory.hpp:77] Creating layer pool5/7x7_s1
I0403 14:46:42.941385 11099 net.cpp:91] Creating Layer pool5/7x7_s1
I0403 14:46:42.941401 11099 net.cpp:425] pool5/7x7_s1 <- inception_5b/output
I0403 14:46:42.941422 11099 net.cpp:399] pool5/7x7_s1 -> pool5/7x7_s1
I0403 14:46:42.941640 11099 net.cpp:141] Setting up pool5/7x7_s1
I0403 14:46:42.941666 11099 net.cpp:148] Top shape: 24 1024 1 1 (24576)
I0403 14:46:42.941680 11099 net.cpp:156] Memory required for data: 1345962528
I0403 14:46:42.941695 11099 layer_factory.hpp:77] Creating layer pool5/drop_7x7_s1
I0403 14:46:42.941714 11099 net.cpp:91] Creating Layer pool5/drop_7x7_s1
I0403 14:46:42.941730 11099 net.cpp:425] pool5/drop_7x7_s1 <- pool5/7x7_s1
I0403 14:46:42.941750 11099 net.cpp:386] pool5/drop_7x7_s1 -> pool5/7x7_s1 (in-place)
I0403 14:46:42.941800 11099 net.cpp:141] Setting up pool5/drop_7x7_s1
I0403 14:46:42.941826 11099 net.cpp:148] Top shape: 24 1024 1 1 (24576)
I0403 14:46:42.941841 11099 net.cpp:156] Memory required for data: 1346060832
I0403 14:46:42.941856 11099 layer_factory.hpp:77] Creating layer loss3/classifier_plantvillage
I0403 14:46:42.941875 11099 net.cpp:91] Creating Layer loss3/classifier_plantvillage
I0403 14:46:42.941891 11099 net.cpp:425] loss3/classifier_plantvillage <- pool5/7x7_s1
I0403 14:46:42.941913 11099 net.cpp:399] loss3/classifier_plantvillage -> loss3/classifier_plantvillage
I0403 14:46:42.942348 11099 net.cpp:141] Setting up loss3/classifier_plantvillage
I0403 14:46:42.942378 11099 net.cpp:148] Top shape: 24 38 (912)
I0403 14:46:42.942394 11099 net.cpp:156] Memory required for data: 1346064480
I0403 14:46:42.942411 11099 layer_factory.hpp:77] Creating layer loss3/classifier_plantvillage_loss3/classifier_plantvillage_0_split
I0403 14:46:42.942430 11099 net.cpp:91] Creating Layer loss3/classifier_plantvillage_loss3/classifier_plantvillage_0_split
I0403 14:46:42.942445 11099 net.cpp:425] loss3/classifier_plantvillage_loss3/classifier_plantvillage_0_split <- loss3/classifier_plantvillage
I0403 14:46:42.942463 11099 net.cpp:399] loss3/classifier_plantvillage_loss3/classifier_plantvillage_0_split -> loss3/classifier_plantvillage_loss3/classifier_plantvillage_0_split_0
I0403 14:46:42.942484 11099 net.cpp:399] loss3/classifier_plantvillage_loss3/classifier_plantvillage_0_split -> loss3/classifier_plantvillage_loss3/classifier_plantvillage_0_split_1
I0403 14:46:42.942507 11099 net.cpp:399] loss3/classifier_plantvillage_loss3/classifier_plantvillage_0_split -> loss3/classifier_plantvillage_loss3/classifier_plantvillage_0_split_2
I0403 14:46:42.942529 11099 net.cpp:399] loss3/classifier_plantvillage_loss3/classifier_plantvillage_0_split -> loss3/classifier_plantvillage_loss3/classifier_plantvillage_0_split_3
I0403 14:46:42.942632 11099 net.cpp:141] Setting up loss3/classifier_plantvillage_loss3/classifier_plantvillage_0_split
I0403 14:46:42.942657 11099 net.cpp:148] Top shape: 24 38 (912)
I0403 14:46:42.942673 11099 net.cpp:148] Top shape: 24 38 (912)
I0403 14:46:42.942689 11099 net.cpp:148] Top shape: 24 38 (912)
I0403 14:46:42.942704 11099 net.cpp:148] Top shape: 24 38 (912)
I0403 14:46:42.942718 11099 net.cpp:156] Memory required for data: 1346079072
I0403 14:46:42.942733 11099 layer_factory.hpp:77] Creating layer loss1/loss
I0403 14:46:42.942756 11099 net.cpp:91] Creating Layer loss1/loss
I0403 14:46:42.942775 11099 net.cpp:425] loss1/loss <- loss1/classifier_plantvillage_loss1/classifier_plantvillage_0_split_0
I0403 14:46:42.942806 11099 net.cpp:425] loss1/loss <- label_data_1_split_0
…
