…
I0403 14:50:57.397131 11199 net.cpp:313] The NetState phase (1) differed from the phase (0) specified by a rule in layer data
I0403 14:50:57.398308 11199 net.cpp:49] Initializing net from parameters: 
state {
  phase: TEST
}
layer {
  name: "data"
  type: "Data"
  top: "data"
  top: "label"
  include {
    phase: TEST
  }
  transform_param {
    mirror: false
    crop_size: 224
    mean_file: "/home/mohanty/data/final_dataset/lmdb/grayscale-60-40/mean.binaryproto"
  }
  data_param {
    source: "/home/mohanty/data/final_dataset/lmdb/grayscale-60-40/test_db"
    batch_size: 24
    backend: LMDB
  }
}
layer {
  name: "conv1/7x7_s2"
  type: "Convolution"
  bottom: "data"
  top: "conv1/7x7_s2"
  param {
    lr_mult: 1
    decay_mult: 1
  }
  param {
    lr_mult: 2
    decay_mult: 0
  }
  convolution_param {
    num_output: 64
    pad: 3
    kernel_size: 7
    stride: 2
    weight_filler {
      type: "xavier"
      std: 0.1
    }
    bias_filler {
      type: "constant"
      value: 0.2
    }
  }
}
layer {
  name: "conv1/relu_7x7"
  type: "ReLU"
  bottom: "conv1/7x7_s2"
  top: "conv1/7x7_s2"
}
layer {
  name: "pool1/3x3_s2"
  type: "Pooling"
  bottom: "conv1/7x7_s2"
  top: "pool1/3x3_s2"
  pooling_param {
    pool: MAX
    kernel_size: 3
    stride: 2
  }
}
layer {
  name: "pool1/norm1"
  type: "LRN"
  bottom: "pool1/3x3_s2"
  top: "pool1/norm1"
  lrn_param {
    local_size: 5
    alpha: 0.0001
    beta: 0.75
  }
}
layer {
  name: "conv2/3x3_reduce"
  type: "Convolution"
  bottom: "pool1/norm1"
  top: "conv2/3x3_reduce"
  param {
    lr_mult: 1
    decay_mult: 1
  }
  param {
    lr_mult: 2
    decay_mult: 0
  }
  convolution_param {
    num_output: 64
    kernel_size: 1
    weight_filler {
      type: "xavier"
      std: 0.1
    }
    bias_filler {
      type: "constant"
      value: 0.2
    }
  }
}
layer {
  name: "conv2/relu_3x3_reduce"
  type: "ReLU"
  bottom: "conv2/3x3_reduce"
  top: "conv2/3x3_reduce"
}
layer {
  name: "conv2/3x3"
  type: "Convolution"
  bottom: "conv2/3x3_reduce"
  top: "conv2/3x3"
  param {
    lr_mult: 1
    decay_mult: 1
  }
  param {
    lr_mult: 2
    decay_mult: 0
  }
  convolution_param {
    num_output: 192
    pad: 1
    kernel_size: 3
    weight_filler {
      type: "xavier"
      std: 0.03
    }
    bias_filler {
      type: "constant"
      value: 0.2
    }
  }
}
layer {
  name: "conv2/relu_3x3"
  type: "ReLU"
  bottom: "conv2/3x3"
  top: "conv2/3x3"
}
layer {
  name: "conv2/norm2"
  type: "LRN"
  bottom: "conv2/3x3"
  top: "conv2/norm2"
  lrn_param {
    local_size: 5
    alpha: 0.0001
    beta: 0.75
  }
}
layer {
  name: "pool2/3x3_s2"
  type: "Pooling"
  bottom: "conv2/norm2"
  top: "pool2/3x3_s2"
  pooling_param {
    pool: MAX
    kernel_size: 3
    stride: 2
  }
}
layer {
  name: "inception_3a/1x1"
  type: "Convolution"
  bottom: "pool2/3x3_s2"
  top: "inception_3a/1x1"
  param {
    lr_mult: 1
    decay_mult: 1
  }
  param {
    lr_mult: 2
    decay_mult: 0
  }
  convolution_param {
    num_output: 64
    kernel_size: 1
    weight_filler {
      type: "xavier"
      std: 0.03
    }
    bias_filler {
      type: "constant"
      value: 0.2
    }
  }
}
layer {
  name: "inception_3a/relu_1x1"
  type: "ReLU"
  bottom: "inception_3a/1x1"
  top: "inception_3a/1x1"
}
layer {
  name: "inception_3a/3x3_reduce"
  type: "Convolution"
  bottom: "pool2/3x3_s2"
  top: "inception_3a/3x3_reduce"
  param {
    lr_mult: 1
    decay_mult: 1
  }
  param {
    lr_mult: 2
    decay_mult: 0
  }
  convolution_param {
    num_output: 96
    kernel_size: 1
    weight_filler {
      type: "xavier"
      std: 0.09
    }
    bias_filler {
      type: "constant"
      value: 0.2
    }
  }
}
layer {
  name: "inception_3a/relu_3x3_reduce"
  type: "ReLU"
  bottom: "inception_3a/3x3_reduce"
  top: "inception_3a/3x3_reduce"
}
layer {
  name: "inception_3a/3x3"
  type: "Convolution"
  bottom: "inception_3a/3x3_reduce"
  top: "inception_3a/3x3"
  param {
    lr_mult: 1
    decay_mult: 1
  }
  param {
    lr_mult: 2
    decay_mult: 0
  }
  convolution_param {
    num_output: 128
    pad: 1
    kernel_size: 3
    weight_filler {
      type: "xavier"
      std: 0.03
    }
    bias_filler {
      type: "constant"
      value: 0.2
    }
  }
}
layer {
  name: "inception_3a/relu_3x3"
  type: "ReLU"
  bottom: "inception_3a/3x3"
  top: "inception_3a/3x3"
}
layer {
  name: "inception_3a/5x5_reduce"
  type: "Convolution"
  bottom: "pool2/3x3_s2"
  top: "inception_3a/5x5_reduce"
  param {
    lr_mult: 1
    decay_mult: 1
  }
  param {
    lr_mult: 2
    decay_mult: 0
  }
  convolution_param {
    num_output: 16
    kernel_size: 1
    weight_filler {
      type: "xavier"
      std: 0.2
    }
    bias_filler {
      type: "constant"
      value: 0.2
    }
  }
}
layer {
  name: "inception_3a/relu_5x5_reduce"
  type: "ReLU"
  bottom: "inception_3a/5x5_reduce"
  top: "inception_3a/5x5_reduce"
}
layer {
  name: "inception_3a/5x5"
  type: "Convolution"
  bottom: "inception_3a/5x5_reduce"
  top: "inception_3a/5x5"
  param {
    lr_mult: 1
    decay_mult: 1
  }
  param {
    lr_mult: 2
    decay_mult: 0
  }
  convolution_param {
    num_output: 32
    pad: 2
    kernel_size: 5
    weight_filler {
      type: "xavier"
      std: 0.03
    }
    bias_filler {
      type: "constant"
      value: 0.2
    }
  }
}
layer {
  name: "inception_3a/relu_5x5"
  type: "ReLU"
  bottom: "inception_3a/5x5"
  top: "inception_3a/5x5"
}
layer {
  name: "inception_3a/pool"
  type: "Pooling"
  bottom: "pool2/3x3_s2"
  top: "inception_3a/pool"
  pooling_param {
    pool: MAX
    kernel_size: 3
    stride: 1
    pad: 1
  }
}
layer {
  name: "inception_3a/pool_proj"
  type: "Convolution"
  bottom: "inception_3a/pool"
  top: "inception_3a/pool_proj"
  param {
    lr_mult: 1
    decay_mult: 1
  }
  param {
    lr_mult: 2
    decay_mult: 0
  }
  convolution_param {
    num_output: 32
    kernel_size: 1
    weight_filler {
      type: "xavier"
      std: 0.1
    }
    bias_filler {
      type: "constant"
      value: 0.2
    }
  }
}
layer {
  name: "inception_3a/relu_pool_proj"
  type: "ReLU"
  bottom: "inception_3a/pool_proj"
  top: "inception_3a/pool_proj"
}
layer {
  name: "inception_3a/output"
  type: "Concat"
  bottom: "inception_3a/1x1"
  bottom: "inception_3a/3x3"
  bottom: "inception_3a/5x5"
  bottom: "inception_3a/pool_proj"
  top: "inception_3a/output"
}
layer {
  name: "inception_3b/1x1"
  type: "Convolution"
  bottom: "inception_3a/output"
  top: "inception_3b/1x1"
  param {
    lr_mult: 1
    decay_mult: 1
  }
  param {
    lr_mult: 2
    decay_mult: 0
  }
  convolution_param {
    num_output: 128
    kernel_size: 1
    weight_filler {
      type: "xavier"
      std: 0.03
    }
    bias_filler {
      type: "constant"
      value: 0.2
    }
  }
}
layer {
  name: "inception_3b/relu_1x1"
  type: "ReLU"
  bottom: "inception_3b/1x1"
  top: "inception_3b/1x1"
}
layer {
  name: "inception_3b/3x3_reduce"
  type: "Convolution"
  bottom: "inception_3a/output"
  top: "inception_3b/3x3_reduce"
  param {
    lr_mult: 1
    decay_mult: 1
  }
  param {
    lr_mult: 2
    decay_mult: 0
  }
  convolution_param {
    num_output: 128
    kernel_size: 1
    weight_filler {
      type: "xavier"
      std: 0.09
    }
    bias_filler {
      type: "constant"
      value: 0.2
    }
  }
}
layer {
  name: "inception_3b/relu_3x3_reduce"
  type: "ReLU"
  bottom: "inception_3b/3x3_reduce"
  top: "inception_3b/3x3_reduce"
}
layer {
  name: "inception_3b/3x3"
  type: "Convolution"
  bottom: "inception_3b/3x3_reduce"
  top: "inception_3b/3x3"
  param {
    lr_mult: 1
    decay_mult: 1
  }
  param {
    lr_mult: 2
    decay_mult: 0
  }
  convolution_param {
    num_output: 192
    pad: 1
    kernel_size: 3
    weight_filler {
      type: "xavier"
      std: 0.03
    }
    bias_filler {
      type: "constant"
      value: 0.2
    }
  }
}
layer {
  name: "inception_3b/relu_3x3"
  type: "ReLU"
  bottom: "inception_3b/3x3"
  top: "inception_3b/3x3"
}
layer {
  name: "inception_3b/5x5_reduce"
  type: "Convolution"
  bottom: "inception_3a/output"
  top: "inception_3b/5x5_reduce"
  param {
    lr_mult: 1
    decay_mult: 1
  }
  param {
    lr_mult: 2
    decay_mult: 0
  }
  convolution_param {
    num_output: 32
    kernel_size: 1
    weight_filler {
      type: "xavier"
      std: 0.2
    }
    bias_filler {
      type: "constant"
      value: 0.2
    }
  }
}
layer {
  name: "inception_3b/relu_5x5_reduce"
  type: "ReLU"
  bottom: "inception_3b/5x5_reduce"
  top: "inception_3b/5x5_reduce"
}
layer {
  name: "inception_3b/5x5"
  type: "Convolution"
  bottom: "inception_3b/5x5_reduce"
  top: "inception_3b/5x5"
  param {
    lr_mult: 1
    decay_mult: 1
  }
  param {
    lr_mult: 2
    decay_mult: 0
  }
  convolution_param {
    num_output: 96
    pad: 2
    kernel_size: 5
    weight_filler {
      type: "xavier"
      std: 0.03
    }
    bias_filler {
      type: "constant"
      value: 0.2
    }
  }
}
layer {
  name: "inception_3b/relu_5x5"
  type: "ReLU"
  bottom: "inception_3b/5x5"
  top: "inception_3b/5x5"
}
layer {
  name: "inception_3b/pool"
  type: "Pooling"
  bottom: "inception_3a/output"
  top: "inception_3b/pool"
  pooling_param {
    pool: MAX
    kernel_size: 3
    stride: 1
    pad: 1
  }
}
layer {
  name: "inception_3b/pool_proj"
  type: "Convolution"
  bottom: "inception_3b/pool"
  top: "inception_3b/pool_proj"
  param {
    lr_mult: 1
    decay_mult: 1
  }
  param {
    lr_mult: 2
    decay_mult: 0
  }
  convolution_param {
    num_output: 64
    kernel_size: 1
    weight_filler {
      type: "xavier"
      std: 0.1
    }
    bias_filler {
      type: "constant"
      value: 0.2
    }
  }
}
layer {
  name: "inception_3b/relu_pool_proj"
  type: "ReLU"
  bottom: "inception_3b/pool_proj"
  top: "inception_3b/pool_proj"
}
layer {
  name: "inception_3b/output"
  type: "Concat"
  bottom: "inception_3b/1x1"
  bottom: "inception_3b/3x3"
  bottom: "inception_3b/5x5"
  bottom: "inception_3b/pool_proj"
  top: "inception_3b/output"
}
layer {
  name: "pool3/3x3_s2"
  type: "Pooling"
  bottom: "inception_3b/output"
  top: "pool3/3x3_s2"
  pooling_param {
    pool: MAX
    kernel_size: 3
    stride: 2
  }
}
layer {
  name: "inception_4a/1x1"
  type: "Convolution"
  bottom: "pool3/3x3_s2"
  top: "inception_4a/1x1"
  param {
    lr_mult: 1
    decay_mult: 1
  }
  param {
    lr_mult: 2
    decay_mult: 0
  }
  convolution_param {
    num_output: 192
    kernel_size: 1
    weight_filler {
      type: "xavier"
      std: 0.03
    }
    bias_filler {
      type: "constant"
      value: 0.2
    }
  }
}
layer {
  name: "inception_4a/relu_1x1"
  type: "ReLU"
  bottom: "inception_4a/1x1"
  top: "inception_4a/1x1"
}
layer {
  name: "inception_4a/3x3_reduce"
  type: "Convolution"
  bottom: "pool3/3x3_s2"
  top: "inception_4a/3x3_reduce"
  param {
    lr_mult: 1
    decay_mult: 1
  }
  param {
    lr_mult: 2
    decay_mult: 0
  }
  convolution_param {
    num_output: 96
    kernel_size: 1
    weight_filler {
      type: "xavier"
      std: 0.09
    }
    bias_filler {
      type: "constant"
      value: 0.2
    }
  }
}
layer {
  name: "inception_4a/relu_3x3_reduce"
  type: "ReLU"
  bottom: "inception_4a/3x3_reduce"
  top: "inception_4a/3x3_reduce"
}
layer {
  name: "inception_4a/3x3"
  type: "Convolution"
  bottom: "inception_4a/3x3_reduce"
  top: "inception_4a/3x3"
  param {
    lr_mult: 1
    decay_mult: 1
  }
  param {
    lr_mult: 2
    decay_mult: 0
  }
  convolution_param {
    num_output: 208
    pad: 1
    kernel_size: 3
    weight_filler {
      type: "xavier"
      std: 0.03
    }
    bias_filler {
      type: "constant"
      value: 0.2
    }
  }
}
layer {
  name: "inception_4a/relu_3x3"
  type: "ReLU"
  bottom: "inception_4a/3x3"
  top: "inception_4a/3x3"
}
layer {
  name: "inception_4a/5x5_reduce"
  type: "Convolution"
  bottom: "pool3/3x3_s2"
  top: "inception_4a/5x5_reduce"
  param {
    lr_mult: 1
    decay_mult: 1
  }
  param {
    lr_mult: 2
    decay_mult: 0
  }
  convolution_param {
    num_output: 16
    kernel_size: 1
    weight_filler {
      type: "xavier"
      std: 0.2
    }
    bias_filler {
      type: "constant"
      value: 0.2
    }
  }
}
layer {
  name: "inception_4a/relu_5x5_reduce"
  type: "ReLU"
  bottom: "inception_4a/5x5_reduce"
  top: "inception_4a/5x5_reduce"
}
layer {
  name: "inception_4a/5x5"
  type: "Convolution"
  bottom: "inception_4a/5x5_reduce"
  top: "inception_4a/5x5"
  param {
    lr_mult: 1
    decay_mult: 1
  }
  param {
    lr_mult: 2
    decay_mult: 0
  }
  convolution_param {
    num_output: 48
    pad: 2
    kernel_size: 5
    weight_filler {
      type: "xavier"
      std: 0.03
    }
    bias_filler {
      type: "constant"
      value: 0.2
    }
  }
}
layer {
  name: "inception_4a/relu_5x5"
  type: "ReLU"
  bottom: "inception_4a/5x5"
  top: "inception_4a/5x5"
}
layer {
  name: "inception_4a/pool"
  type: "Pooling"
  bottom: "pool3/3x3_s2"
  top: "inception_4a/pool"
  pooling_param {
    pool: MAX
    kernel_size: 3
    stride: 1
    pad: 1
  }
}
layer {
  name: "inception_4a/pool_proj"
  type: "Convolution"
  bottom: "inception_4a/pool"
  top: "inception_4a/pool_proj"
  param {
    lr_mult: 1
    decay_mult: 1
  }
  param {
    lr_mult: 2
    decay_mult: 0
  }
  convolution_param {
    num_output: 64
    kernel_size: 1
    weight_filler {
      type: "xavier"
      std: 0.1
    }
    bias_filler {
      type: "constant"
      value: 0.2
    }
  }
}
layer {
  name: "inception_4a/relu_pool_proj"
  type: "ReLU"
  bottom: "inception_4a/pool_proj"
  top: "inception_4a/pool_proj"
}
layer {
  name: "inception_4a/output"
  type: "Concat"
  bottom: "inception_4a/1x1"
  bottom: "inception_4a/3x3"
  bottom: "inception_4a/5x5"
  bottom: "inception_4a/pool_proj"
  top: "inception_4a/output"
}
layer {
  name: "loss1/ave_pool"
  type: "Pooling"
  bottom: "inception_4a/output"
  top: "loss1/ave_pool"
  pooling_param {
    pool: AVE
    kernel_size: 5
    stride: 3
  }
}
layer {
  name: "loss1/conv"
  type: "Convolution"
  bottom: "loss1/ave_pool"
  top: "loss1/conv"
  param {
    lr_mult: 1
    decay_mult: 1
  }
  param {
    lr_mult: 2
    decay_mult: 0
  }
  convolution_param {
    num_output: 128
    kernel_size: 1
    weight_filler {
      type: "xavier"
      std: 0.08
    }
    bias_filler {
      type: "constant"
      value: 0.2
    }
  }
}
layer {
  name: "loss1/relu_conv"
  type: "ReLU"
  bottom: "loss1/conv"
  top: "loss1/conv"
}
layer {
  name: "loss1/fc"
  type: "InnerProduct"
  bottom: "loss1/conv"
  top: "loss1/fc"
  param {
    lr_mult: 1
    decay_mult: 1
  }
  param {
    lr_mult: 2
    decay_mult: 0
  }
  inner_product_param {
    num_output: 1024
    weight_filler {
      type: "xavier"
      std: 0.02
    }
    bias_filler {
      type: "constant"
      value: 0.2
    }
  }
}
layer {
  name: "loss1/relu_fc"
  type: "ReLU"
  bottom: "loss1/fc"
  top: "loss1/fc"
}
layer {
  name: "loss1/drop_fc"
  type: "Dropout"
  bottom: "loss1/fc"
  top: "loss1/fc"
  dropout_param {
    dropout_ratio: 0.7
  }
}
layer {
  name: "loss1/classifier_plantvillage"
  type: "InnerProduct"
  bottom: "loss1/fc"
  top: "loss1/classifier_plantvillage"
  param {
    lr_mult: 1
    decay_mult: 1
  }
  param {
    lr_mult: 2
    decay_mult: 0
  }
  inner_product_param {
    num_output: 38
    weight_filler {
      type: "xavier"
      std: 0.0009765625
    }
    bias_filler {
      type: "constant"
      value: 0
    }
  }
}
layer {
  name: "inception_4b/1x1"
  type: "Convolution"
  bottom: "inception_4a/output"
  top: "inception_4b/1x1"
  param {
    lr_mult: 1
    decay_mult: 1
  }
  param {
    lr_mult: 2
    decay_mult: 0
  }
  convolution_param {
    num_output: 160
    kernel_size: 1
    weight_filler {
      type: "xavier"
      std: 0.03
    }
    bias_filler {
      type: "constant"
      value: 0.2
    }
  }
}
layer {
  name: "inception_4b/relu_1x1"
  type: "ReLU"
  bottom: "inception_4b/1x1"
  top: "inception_4b/1x1"
}
layer {
  name: "inception_4b/3x3_reduce"
  type: "Convolution"
  bottom: "inception_4a/output"
  top: "inception_4b/3x3_reduce"
  param {
    lr_mult: 1
    decay_mult: 1
  }
  param {
    lr_mult: 2
    decay_mult: 0
  }
  convolution_param {
    num_output: 112
    kernel_size: 1
    weight_filler {
      type: "xavier"
      std: 0.09
    }
    bias_filler {
      type: "constant"
      value: 0.2
    }
  }
}
layer {
  name: "inception_4b/relu_3x3_reduce"
  type: "ReLU"
  bottom: "inception_4b/3x3_reduce"
  top: "inception_4b/3x3_reduce"
}
layer {
  name: "inception_4b/3x3"
  type: "Convolution"
  bottom: "inception_4b/3x3_reduce"
  top: "inception_4b/3x3"
  param {
    lr_mult: 1
    decay_mult: 1
  }
  param {
    lr_mult: 2
    decay_mult: 0
  }
  convolution_param {
    num_output: 224
    pad: 1
    kernel_size: 3
    weight_filler {
      type: "xavier"
      std: 0.03
    }
    bias_filler {
      type: "constant"
      value: 0.2
    }
  }
}
layer {
  name: "inception_4b/relu_3x3"
  type: "ReLU"
  bottom: "inception_4b/3x3"
  top: "inception_4b/3x3"
}
layer {
  name: "inception_4b/5x5_reduce"
  type: "Convolution"
  bottom: "inception_4a/output"
  top: "inception_4b/5x5_reduce"
  param {
    lr_mult: 1
    decay_mult: 1
  }
  param {
    lr_mult: 2
    decay_mult: 0
  }
  convolution_param {
    num_output: 24
    kernel_size: 1
    weight_filler {
      type: "xavier"
      std: 0.2
    }
    bias_filler {
      type: "constant"
      value: 0.2
    }
  }
}
layer {
  name: "inception_4b/relu_5x5_reduce"
  type: "ReLU"
  bottom: "inception_4b/5x5_reduce"
  top: "inception_4b/5x5_reduce"
}
layer {
  name: "inception_4b/5x5"
  type: "Convolution"
  bottom: "inception_4b/5x5_reduce"
  top: "inception_4b/5x5"
  param {
    lr_mult: 1
    decay_mult: 1
  }
  param {
    lr_mult: 2
    decay_mult: 0
  }
  convolution_param {
    num_output: 64
    pad: 2
    kernel_size: 5
    weight_filler {
      type: "xavier"
      std: 0.03
    }
    bias_filler {
      type: "constant"
      value: 0.2
    }
  }
}
layer {
  name: "inception_4b/relu_5x5"
  type: "ReLU"
  bottom: "inception_4b/5x5"
  top: "inception_4b/5x5"
}
layer {
  name: "inception_4b/pool"
  type: "Pooling"
  bottom: "inception_4a/output"
  top: "inception_4b/pool"
  pooling_param {
    pool: MAX
    kernel_size: 3
    stride: 1
    pad: 1
  }
}
layer {
  name: "inception_4b/pool_proj"
  type: "Convolution"
  bottom: "inception_4b/pool"
  top: "inception_4b/pool_proj"
  param {
    lr_mult: 1
    decay_mult: 1
  }
  param {
    lr_mult: 2
    decay_mult: 0
  }
  convolution_param {
    num_output: 64
    kernel_size: 1
    weight_filler {
      type: "xavier"
      std: 0.1
    }
    bias_filler {
      type: "constant"
      value: 0.2
    }
  }
}
layer {
  name: "inception_4b/relu_pool_proj"
  type: "ReLU"
  bottom: "inception_4b/pool_proj"
  top: "inception_4b/pool_proj"
}
layer {
  name: "inception_4b/output"
  type: "Concat"
  bottom: "inception_4b/1x1"
  bottom: "inception_4b/3x3"
  bottom: "inception_4b/5x5"
  bottom: "inception_4b/pool_proj"
  top: "inception_4b/output"
}
layer {
  name: "inception_4c/1x1"
  type: "Convolution"
  bottom: "inception_4b/output"
  top: "inception_4c/1x1"
  param {
    lr_mult: 1
    decay_mult: 1
  }
  param {
    lr_mult: 2
    decay_mult: 0
  }
  convolution_param {
    num_output: 128
    kernel_size: 1
    weight_filler {
      type: "xavier"
      std: 0.03
    }
    bias_filler {
      type: "constant"
      value: 0.2
    }
  }
}
layer {
  name: "inception_4c/relu_1x1"
  type: "ReLU"
  bottom: "inception_4c/1x1"
  top: "inception_4c/1x1"
}
layer {
  name: "inception_4c/3x3_reduce"
  type: "Convolution"
  bottom: "inception_4b/output"
  top: "inception_4c/3x3_reduce"
  param {
    lr_mult: 1
    decay_mult: 1
  }
  param {
    lr_mult: 2
    decay_mult: 0
  }
  convolution_param {
    num_output: 128
    kernel_size: 1
    weight_filler {
      type: "xavier"
      std: 0.09
    }
    bias_filler {
      type: "constant"
      value: 0.2
    }
  }
}
layer {
  name: "inception_4c/relu_3x3_reduce"
  type: "ReLU"
  bottom: "inception_4c/3x3_reduce"
  top: "inception_4c/3x3_reduce"
}
layer {
  name: "inception_4c/3x3"
  type: "Convolution"
  bottom: "inception_4c/3x3_reduce"
  top: "inception_4c/3x3"
  param {
    lr_mult: 1
    decay_mult: 1
  }
  param {
    lr_mult: 2
    decay_mult: 0
  }
  convolution_param {
    num_output: 256
    pad: 1
    kernel_size: 3
    weight_filler {
      type: "xavier"
      std: 0.03
    }
    bias_filler {
      type: "constant"
      value: 0.2
    }
  }
}
layer {
  name: "inception_4c/relu_3x3"
  type: "ReLU"
  bottom: "inception_4c/3x3"
  top: "inception_4c/3x3"
}
layer {
  name: "inception_4c/5x5_reduce"
  type: "Convolution"
  bottom: "inception_4b/output"
  top: "inception_4c/5x5_reduce"
  param {
    lr_mult: 1
    decay_mult: 1
  }
  param {
    lr_mult: 2
    decay_mult: 0
  }
  convolution_param {
    num_output: 24
    kernel_size: 1
    weight_filler {
      type: "xavier"
      std: 0.2
    }
    bias_filler {
      type: "constant"
      value: 0.2
    }
  }
}
layer {
  name: "inception_4c/relu_5x5_reduce"
  type: "ReLU"
  bottom: "inception_4c/5x5_reduce"
  top: "inception_4c/5x5_reduce"
}
layer {
  name: "inception_4c/5x5"
  type: "Convolution"
  bottom: "inception_4c/5x5_reduce"
  top: "inception_4c/5x5"
  param {
    lr_mult: 1
    decay_mult: 1
  }
  param {
    lr_mult: 2
    decay_mult: 0
  }
  convolution_param {
    num_output: 64
    pad: 2
    kernel_size: 5
    weight_filler {
      type: "xavier"
      std: 0.03
    }
    bias_filler {
      type: "constant"
      value: 0.2
    }
  }
}
layer {
  name: "inception_4c/relu_5x5"
  type: "ReLU"
  bottom: "inception_4c/5x5"
  top: "inception_4c/5x5"
}
layer {
  name: "inception_4c/pool"
  type: "Pooling"
  bottom: "inception_4b/output"
  top: "inception_4c/pool"
  pooling_param {
    pool: MAX
    kernel_size: 3
    stride: 1
    pad: 1
  }
}
layer {
  name: "inception_4c/pool_proj"
  type: "Convolution"
  bottom: "inception_4c/pool"
  top: "inception_4c/pool_proj"
  param {
    lr_mult: 1
    decay_mult: 1
  }
  param {
    lr_mult: 2
    decay_mult: 0
  }
  convolution_param {
    num_output: 64
    kernel_size: 1
    weight_filler {
      type: "xavier"
      std: 0.1
    }
    bias_filler {
      type: "constant"
      value: 0.2
    }
  }
}
layer {
  name: "inception_4c/relu_pool_proj"
  type: "ReLU"
  bottom: "inception_4c/pool_proj"
  top: "inception_4c/pool_proj"
}
layer {
  name: "inception_4c/output"
  type: "Concat"
  bottom: "inception_4c/1x1"
  bottom: "inception_4c/3x3"
  bottom: "inception_4c/5x5"
  bottom: "inception_4c/pool_proj"
  top: "inception_4c/output"
}
layer {
  name: "inception_4d/1x1"
  type: "Convolution"
  bottom: "inception_4c/output"
  top: "inception_4d/1x1"
  param {
    lr_mult: 1
    decay_mult: 1
  }
  param {
    lr_mult: 2
    decay_mult: 0
  }
  convolution_param {
    num_output: 112
    kernel_size: 1
    weight_filler {
      type: "xavier"
      std: 0.03
    }
    bias_filler {
      type: "constant"
      value: 0.2
    }
  }
}
layer {
  name: "inception_4d/relu_1x1"
  type: "ReLU"
  bottom: "inception_4d/1x1"
  top: "inception_4d/1x1"
}
layer {
  name: "inception_4d/3x3_reduce"
  type: "Convolution"
  bottom: "inception_4c/output"
  top: "inception_4d/3x3_reduce"
  param {
    lr_mult: 1
    decay_mult: 1
  }
  param {
    lr_mult: 2
    decay_mult: 0
  }
  convolution_param {
    num_output: 144
    kernel_size: 1
    weight_filler {
      type: "xavier"
      std: 0.09
    }
    bias_filler {
      type: "constant"
      value: 0.2
    }
  }
}
layer {
  name: "inception_4d/relu_3x3_reduce"
  type: "ReLU"
  bottom: "inception_4d/3x3_reduce"
  top: "inception_4d/3x3_reduce"
}
layer {
  name: "inception_4d/3x3"
  type: "Convolution"
  bottom: "inception_4d/3x3_reduce"
  top: "inception_4d/3x3"
  param {
    lr_mult: 1
    decay_mult: 1
  }
  param {
    lr_mult: 2
    decay_mult: 0
  }
  convolution_param {
    num_output: 288
    pad: 1
    kernel_size: 3
    weight_filler {
      type: "xavier"
      std: 0.03
    }
    bias_filler {
      type: "constant"
      value: 0.2
    }
  }
}
layer {
  name: "inception_4d/relu_3x3"
  type: "ReLU"
  bottom: "inception_4d/3x3"
  top: "inception_4d/3x3"
}
layer {
  name: "inception_4d/5x5_reduce"
  type: "Convolution"
  bottom: "inception_4c/output"
  top: "inception_4d/5x5_reduce"
  param {
    lr_mult: 1
    decay_mult: 1
  }
  param {
    lr_mult: 2
    decay_mult: 0
  }
  convolution_param {
    num_output: 32
    kernel_size: 1
    weight_filler {
      type: "xavier"
      std: 0.2
    }
    bias_filler {
      type: "constant"
      value: 0.2
    }
  }
}
layer {
  name: "inception_4d/relu_5x5_reduce"
  type: "ReLU"
  bottom: "inception_4d/5x5_reduce"
  top: "inception_4d/5x5_reduce"
}
layer {
  name: "inception_4d/5x5"
  type: "Convolution"
  bottom: "inception_4d/5x5_reduce"
  top: "inception_4d/5x5"
  param {
    lr_mult: 1
    decay_mult: 1
  }
  param {
    lr_mult: 2
    decay_mult: 0
  }
  convolution_param {
    num_output: 64
    pad: 2
    kernel_size: 5
    weight_filler {
      type: "xavier"
      std: 0.03
    }
    bias_filler {
      type: "constant"
      value: 0.2
    }
  }
}
layer {
  name: "inception_4d/relu_5x5"
  type: "ReLU"
  bottom: "inception_4d/5x5"
  top: "inception_4d/5x5"
}
layer {
  name: "inception_4d/pool"
  type: "Pooling"
  bottom: "inception_4c/output"
  top: "inception_4d/pool"
  pooling_param {
    pool: MAX
    kernel_size: 3
    stride: 1
    pad: 1
  }
}
layer {
  name: "inception_4d/pool_proj"
  type: "Convolution"
  bottom: "inception_4d/pool"
  top: "inception_4d/pool_proj"
  param {
    lr_mult: 1
    decay_mult: 1
  }
  param {
    lr_mult: 2
    decay_mult: 0
  }
  convolution_param {
    num_output: 64
    kernel_size: 1
    weight_filler {
      type: "xavier"
      std: 0.1
    }
    bias_filler {
      type: "constant"
      value: 0.2
    }
  }
}
layer {
  name: "inception_4d/relu_pool_proj"
  type: "ReLU"
  bottom: "inception_4d/pool_proj"
  top: "inception_4d/pool_proj"
}
layer {
  name: "inception_4d/output"
  type: "Concat"
  bottom: "inception_4d/1x1"
  bottom: "inception_4d/3x3"
  bottom: "inception_4d/5x5"
  bottom: "inception_4d/pool_proj"
  top: "inception_4d/output"
}
layer {
  name: "loss2/ave_pool"
  type: "Pooling"
  bottom: "inception_4d/output"
  top: "loss2/ave_pool"
  pooling_param {
    pool: AVE
    kernel_size: 5
    stride: 3
  }
}
layer {
  name: "loss2/conv"
  type: "Convolution"
  bottom: "loss2/ave_pool"
  top: "loss2/conv"
  param {
    lr_mult: 1
    decay_mult: 1
  }
  param {
    lr_mult: 2
    decay_mult: 0
  }
  convolution_param {
    num_output: 128
    kernel_size: 1
    weight_filler {
      type: "xavier"
      std: 0.08
    }
    bias_filler {
      type: "constant"
      value: 0.2
    }
  }
}
layer {
  name: "loss2/relu_conv"
  type: "ReLU"
  bottom: "loss2/conv"
  top: "loss2/conv"
}
layer {
  name: "loss2/fc"
  type: "InnerProduct"
  bottom: "loss2/conv"
  top: "loss2/fc"
  param {
    lr_mult: 1
    decay_mult: 1
  }
  param {
    lr_mult: 2
    decay_mult: 0
  }
  inner_product_param {
    num_output: 1024
    weight_filler {
      type: "xavier"
      std: 0.02
    }
    bias_filler {
      type: "constant"
      value: 0.2
    }
  }
}
layer {
  name: "loss2/relu_fc"
  type: "ReLU"
  bottom: "loss2/fc"
  top: "loss2/fc"
}
layer {
  name: "loss2/drop_fc"
  type: "Dropout"
  bottom: "loss2/fc"
  top: "loss2/fc"
  dropout_param {
    dropout_ratio: 0.7
  }
}
layer {
  name: "loss2/classifier_plantvillage"
  type: "InnerProduct"
  bottom: "loss2/fc"
  top: "loss2/classifier_plantvillage"
  param {
    lr_mult: 1
    decay_mult: 1
  }
  param {
    lr_mult: 2
    decay_mult: 0
  }
  inner_product_param {
    num_output: 38
    weight_filler {
      type: "xavier"
      std: 0.0009765625
    }
    bias_filler {
      type: "constant"
      value: 0
    }
  }
}
layer {
  name: "inception_4e/1x1"
  type: "Convolution"
  bottom: "inception_4d/output"
  top: "inception_4e/1x1"
  param {
    lr_mult: 1
    decay_mult: 1
  }
  param {
    lr_mult: 2
    decay_mult: 0
  }
  convolution_param {
    num_output: 256
    kernel_size: 1
    weight_filler {
      type: "xavier"
      std: 0.03
    }
    bias_filler {
      type: "constant"
      value: 0.2
    }
  }
}
layer {
  name: "inception_4e/relu_1x1"
  type: "ReLU"
  bottom: "inception_4e/1x1"
  top: "inception_4e/1x1"
}
layer {
  name: "inception_4e/3x3_reduce"
  type: "Convolution"
  bottom: "inception_4d/output"
  top: "inception_4e/3x3_reduce"
  param {
    lr_mult: 1
    decay_mult: 1
  }
  param {
    lr_mult: 2
    decay_mult: 0
  }
  convolution_param {
    num_output: 160
    kernel_size: 1
    weight_filler {
      type: "xavier"
      std: 0.09
    }
    bias_filler {
      type: "constant"
      value: 0.2
    }
  }
}
layer {
  name: "inception_4e/relu_3x3_reduce"
  type: "ReLU"
  bottom: "inception_4e/3x3_reduce"
  top: "inception_4e/3x3_reduce"
}
layer {
  name: "inception_4e/3x3"
  type: "Convolution"
  bottom: "inception_4e/3x3_reduce"
  top: "inception_4e/3x3"
  param {
    lr_mult: 1
    decay_mult: 1
  }
  param {
    lr_mult: 2
    decay_mult: 0
  }
  convolution_param {
    num_output: 320
    pad: 1
    kernel_size: 3
    weight_filler {
      type: "xavier"
      std: 0.03
    }
    bias_filler {
      type: "constant"
      value: 0.2
    }
  }
}
layer {
  name: "inception_4e/relu_3x3"
  type: "ReLU"
  bottom: "inception_4e/3x3"
  top: "inception_4e/3x3"
}
layer {
  name: "inception_4e/5x5_reduce"
  type: "Convolution"
  bottom: "inception_4d/output"
  top: "inception_4e/5x5_reduce"
  param {
    lr_mult: 1
    decay_mult: 1
  }
  param {
    lr_mult: 2
    decay_mult: 0
  }
  convolution_param {
    num_output: 32
    kernel_size: 1
    weight_filler {
      type: "xavier"
      std: 0.2
    }
    bias_filler {
      type: "constant"
      value: 0.2
    }
  }
}
layer {
  name: "inception_4e/relu_5x5_reduce"
  type: "ReLU"
  bottom: "inception_4e/5x5_reduce"
  top: "inception_4e/5x5_reduce"
}
layer {
  name: "inception_4e/5x5"
  type: "Convolution"
  bottom: "inception_4e/5x5_reduce"
  top: "inception_4e/
I0403 14:50:57.399664 11199 layer_factory.hpp:77] Creating layer data
I0403 14:50:57.400280 11199 net.cpp:91] Creating Layer data
I0403 14:50:57.400315 11199 net.cpp:399] data -> data
I0403 14:50:57.400367 11199 net.cpp:399] data -> label
I0403 14:50:57.400405 11199 data_transformer.cpp:25] Loading mean file from: /home/mohanty/data/final_dataset/lmdb/grayscale-60-40/mean.binaryproto
I0403 14:50:57.403353 11202 db_lmdb.cpp:38] Opened lmdb /home/mohanty/data/final_dataset/lmdb/grayscale-60-40/test_db
I0403 14:50:57.413892 11199 data_layer.cpp:41] output data size: 24,3,224,224
I0403 14:50:57.441313 11199 net.cpp:141] Setting up data
I0403 14:50:57.441414 11199 net.cpp:148] Top shape: 24 3 224 224 (3612672)
I0403 14:50:57.441438 11199 net.cpp:148] Top shape: 24 (24)
I0403 14:50:57.441453 11199 net.cpp:156] Memory required for data: 14450784
I0403 14:50:57.441481 11199 layer_factory.hpp:77] Creating layer label_data_1_split
I0403 14:50:57.441509 11199 net.cpp:91] Creating Layer label_data_1_split
I0403 14:50:57.441527 11199 net.cpp:425] label_data_1_split <- label
I0403 14:50:57.441557 11199 net.cpp:399] label_data_1_split -> label_data_1_split_0
I0403 14:50:57.441586 11199 net.cpp:399] label_data_1_split -> label_data_1_split_1
I0403 14:50:57.441608 11199 net.cpp:399] label_data_1_split -> label_data_1_split_2
I0403 14:50:57.441630 11199 net.cpp:399] label_data_1_split -> label_data_1_split_3
I0403 14:50:57.441650 11199 net.cpp:399] label_data_1_split -> label_data_1_split_4
I0403 14:50:57.441669 11199 net.cpp:399] label_data_1_split -> label_data_1_split_5
I0403 14:50:57.441689 11199 net.cpp:399] label_data_1_split -> label_data_1_split_6
I0403 14:50:57.441709 11199 net.cpp:399] label_data_1_split -> label_data_1_split_7
I0403 14:50:57.441727 11199 net.cpp:399] label_data_1_split -> label_data_1_split_8
I0403 14:50:57.441748 11199 net.cpp:399] label_data_1_split -> label_data_1_split_9
I0403 14:50:57.441867 11199 net.cpp:141] Setting up label_data_1_split
I0403 14:50:57.441890 11199 net.cpp:148] Top shape: 24 (24)
I0403 14:50:57.441908 11199 net.cpp:148] Top shape: 24 (24)
I0403 14:50:57.441925 11199 net.cpp:148] Top shape: 24 (24)
I0403 14:50:57.441939 11199 net.cpp:148] Top shape: 24 (24)
I0403 14:50:57.441954 11199 net.cpp:148] Top shape: 24 (24)
I0403 14:50:57.441969 11199 net.cpp:148] Top shape: 24 (24)
I0403 14:50:57.441984 11199 net.cpp:148] Top shape: 24 (24)
I0403 14:50:57.442000 11199 net.cpp:148] Top shape: 24 (24)
I0403 14:50:57.442016 11199 net.cpp:148] Top shape: 24 (24)
I0403 14:50:57.442033 11199 net.cpp:148] Top shape: 24 (24)
I0403 14:50:57.442077 11199 net.cpp:156] Memory required for data: 14451744
I0403 14:50:57.442095 11199 layer_factory.hpp:77] Creating layer conv1/7x7_s2
I0403 14:50:57.442129 11199 net.cpp:91] Creating Layer conv1/7x7_s2
I0403 14:50:57.442149 11199 net.cpp:425] conv1/7x7_s2 <- data
I0403 14:50:57.442169 11199 net.cpp:399] conv1/7x7_s2 -> conv1/7x7_s2
I0403 14:50:57.586572 11199 net.cpp:141] Setting up conv1/7x7_s2
I0403 14:50:57.586653 11199 net.cpp:148] Top shape: 24 64 112 112 (19267584)
I0403 14:50:57.586673 11199 net.cpp:156] Memory required for data: 91522080
I0403 14:50:57.586704 11199 layer_factory.hpp:77] Creating layer conv1/relu_7x7
I0403 14:50:57.586732 11199 net.cpp:91] Creating Layer conv1/relu_7x7
I0403 14:50:57.586752 11199 net.cpp:425] conv1/relu_7x7 <- conv1/7x7_s2
I0403 14:50:57.586773 11199 net.cpp:386] conv1/relu_7x7 -> conv1/7x7_s2 (in-place)
I0403 14:50:57.587057 11199 net.cpp:141] Setting up conv1/relu_7x7
I0403 14:50:57.587086 11199 net.cpp:148] Top shape: 24 64 112 112 (19267584)
I0403 14:50:57.587108 11199 net.cpp:156] Memory required for data: 168592416
I0403 14:50:57.587126 11199 layer_factory.hpp:77] Creating layer pool1/3x3_s2
I0403 14:50:57.587152 11199 net.cpp:91] Creating Layer pool1/3x3_s2
I0403 14:50:57.587172 11199 net.cpp:425] pool1/3x3_s2 <- conv1/7x7_s2
I0403 14:50:57.587191 11199 net.cpp:399] pool1/3x3_s2 -> pool1/3x3_s2
I0403 14:50:57.587267 11199 net.cpp:141] Setting up pool1/3x3_s2
I0403 14:50:57.587293 11199 net.cpp:148] Top shape: 24 64 56 56 (4816896)
I0403 14:50:57.587309 11199 net.cpp:156] Memory required for data: 187860000
I0403 14:50:57.587324 11199 layer_factory.hpp:77] Creating layer pool1/norm1
I0403 14:50:57.587350 11199 net.cpp:91] Creating Layer pool1/norm1
I0403 14:50:57.587368 11199 net.cpp:425] pool1/norm1 <- pool1/3x3_s2
I0403 14:50:57.587389 11199 net.cpp:399] pool1/norm1 -> pool1/norm1
I0403 14:50:57.587687 11199 net.cpp:141] Setting up pool1/norm1
I0403 14:50:57.587715 11199 net.cpp:148] Top shape: 24 64 56 56 (4816896)
I0403 14:50:57.587731 11199 net.cpp:156] Memory required for data: 207127584
I0403 14:50:57.587748 11199 layer_factory.hpp:77] Creating layer conv2/3x3_reduce
I0403 14:50:57.587772 11199 net.cpp:91] Creating Layer conv2/3x3_reduce
I0403 14:50:57.587790 11199 net.cpp:425] conv2/3x3_reduce <- pool1/norm1
I0403 14:50:57.587810 11199 net.cpp:399] conv2/3x3_reduce -> conv2/3x3_reduce
I0403 14:50:57.589215 11199 net.cpp:141] Setting up conv2/3x3_reduce
I0403 14:50:57.589246 11199 net.cpp:148] Top shape: 24 64 56 56 (4816896)
I0403 14:50:57.589263 11199 net.cpp:156] Memory required for data: 226395168
I0403 14:50:57.589285 11199 layer_factory.hpp:77] Creating layer conv2/relu_3x3_reduce
I0403 14:50:57.589308 11199 net.cpp:91] Creating Layer conv2/relu_3x3_reduce
I0403 14:50:57.589325 11199 net.cpp:425] conv2/relu_3x3_reduce <- conv2/3x3_reduce
I0403 14:50:57.589344 11199 net.cpp:386] conv2/relu_3x3_reduce -> conv2/3x3_reduce (in-place)
I0403 14:50:57.589607 11199 net.cpp:141] Setting up conv2/relu_3x3_reduce
I0403 14:50:57.589637 11199 net.cpp:148] Top shape: 24 64 56 56 (4816896)
I0403 14:50:57.589653 11199 net.cpp:156] Memory required for data: 245662752
I0403 14:50:57.589668 11199 layer_factory.hpp:77] Creating layer conv2/3x3
I0403 14:50:57.589690 11199 net.cpp:91] Creating Layer conv2/3x3
I0403 14:50:57.589709 11199 net.cpp:425] conv2/3x3 <- conv2/3x3_reduce
I0403 14:50:57.589728 11199 net.cpp:399] conv2/3x3 -> conv2/3x3
I0403 14:50:57.592073 11199 net.cpp:141] Setting up conv2/3x3
I0403 14:50:57.592113 11199 net.cpp:148] Top shape: 24 192 56 56 (14450688)
I0403 14:50:57.592131 11199 net.cpp:156] Memory required for data: 303465504
I0403 14:50:57.592154 11199 layer_factory.hpp:77] Creating layer conv2/relu_3x3
I0403 14:50:57.592175 11199 net.cpp:91] Creating Layer conv2/relu_3x3
I0403 14:50:57.592190 11199 net.cpp:425] conv2/relu_3x3 <- conv2/3x3
I0403 14:50:57.592208 11199 net.cpp:386] conv2/relu_3x3 -> conv2/3x3 (in-place)
I0403 14:50:57.592377 11199 net.cpp:141] Setting up conv2/relu_3x3
I0403 14:50:57.592404 11199 net.cpp:148] Top shape: 24 192 56 56 (14450688)
I0403 14:50:57.592453 11199 net.cpp:156] Memory required for data: 361268256
I0403 14:50:57.592470 11199 layer_factory.hpp:77] Creating layer conv2/norm2
I0403 14:50:57.592491 11199 net.cpp:91] Creating Layer conv2/norm2
I0403 14:50:57.592509 11199 net.cpp:425] conv2/norm2 <- conv2/3x3
I0403 14:50:57.592527 11199 net.cpp:399] conv2/norm2 -> conv2/norm2
I0403 14:50:57.592834 11199 net.cpp:141] Setting up conv2/norm2
I0403 14:50:57.592864 11199 net.cpp:148] Top shape: 24 192 56 56 (14450688)
I0403 14:50:57.592880 11199 net.cpp:156] Memory required for data: 419071008
I0403 14:50:57.592895 11199 layer_factory.hpp:77] Creating layer pool2/3x3_s2
I0403 14:50:57.592914 11199 net.cpp:91] Creating Layer pool2/3x3_s2
I0403 14:50:57.592931 11199 net.cpp:425] pool2/3x3_s2 <- conv2/norm2
I0403 14:50:57.592950 11199 net.cpp:399] pool2/3x3_s2 -> pool2/3x3_s2
I0403 14:50:57.593001 11199 net.cpp:141] Setting up pool2/3x3_s2
I0403 14:50:57.593026 11199 net.cpp:148] Top shape: 24 192 28 28 (3612672)
I0403 14:50:57.593042 11199 net.cpp:156] Memory required for data: 433521696
I0403 14:50:57.593057 11199 layer_factory.hpp:77] Creating layer pool2/3x3_s2_pool2/3x3_s2_0_split
I0403 14:50:57.593077 11199 net.cpp:91] Creating Layer pool2/3x3_s2_pool2/3x3_s2_0_split
I0403 14:50:57.593113 11199 net.cpp:425] pool2/3x3_s2_pool2/3x3_s2_0_split <- pool2/3x3_s2
I0403 14:50:57.593138 11199 net.cpp:399] pool2/3x3_s2_pool2/3x3_s2_0_split -> pool2/3x3_s2_pool2/3x3_s2_0_split_0
I0403 14:50:57.593160 11199 net.cpp:399] pool2/3x3_s2_pool2/3x3_s2_0_split -> pool2/3x3_s2_pool2/3x3_s2_0_split_1
I0403 14:50:57.593181 11199 net.cpp:399] pool2/3x3_s2_pool2/3x3_s2_0_split -> pool2/3x3_s2_pool2/3x3_s2_0_split_2
I0403 14:50:57.593202 11199 net.cpp:399] pool2/3x3_s2_pool2/3x3_s2_0_split -> pool2/3x3_s2_pool2/3x3_s2_0_split_3
I0403 14:50:57.593271 11199 net.cpp:141] Setting up pool2/3x3_s2_pool2/3x3_s2_0_split
I0403 14:50:57.593293 11199 net.cpp:148] Top shape: 24 192 28 28 (3612672)
I0403 14:50:57.593312 11199 net.cpp:148] Top shape: 24 192 28 28 (3612672)
I0403 14:50:57.593328 11199 net.cpp:148] Top shape: 24 192 28 28 (3612672)
I0403 14:50:57.593344 11199 net.cpp:148] Top shape: 24 192 28 28 (3612672)
I0403 14:50:57.593359 11199 net.cpp:156] Memory required for data: 491324448
I0403 14:50:57.593375 11199 layer_factory.hpp:77] Creating layer inception_3a/1x1
I0403 14:50:57.593403 11199 net.cpp:91] Creating Layer inception_3a/1x1
I0403 14:50:57.593420 11199 net.cpp:425] inception_3a/1x1 <- pool2/3x3_s2_pool2/3x3_s2_0_split_0
I0403 14:50:57.593438 11199 net.cpp:399] inception_3a/1x1 -> inception_3a/1x1
I0403 14:50:57.595019 11199 net.cpp:141] Setting up inception_3a/1x1
I0403 14:50:57.595052 11199 net.cpp:148] Top shape: 24 64 28 28 (1204224)
I0403 14:50:57.595067 11199 net.cpp:156] Memory required for data: 496141344
I0403 14:50:57.595088 11199 layer_factory.hpp:77] Creating layer inception_3a/relu_1x1
I0403 14:50:57.595124 11199 net.cpp:91] Creating Layer inception_3a/relu_1x1
I0403 14:50:57.595144 11199 net.cpp:425] inception_3a/relu_1x1 <- inception_3a/1x1
I0403 14:50:57.595162 11199 net.cpp:386] inception_3a/relu_1x1 -> inception_3a/1x1 (in-place)
I0403 14:50:57.595345 11199 net.cpp:141] Setting up inception_3a/relu_1x1
I0403 14:50:57.595371 11199 net.cpp:148] Top shape: 24 64 28 28 (1204224)
I0403 14:50:57.595396 11199 net.cpp:156] Memory required for data: 500958240
I0403 14:50:57.595412 11199 layer_factory.hpp:77] Creating layer inception_3a/3x3_reduce
I0403 14:50:57.595434 11199 net.cpp:91] Creating Layer inception_3a/3x3_reduce
I0403 14:50:57.595455 11199 net.cpp:425] inception_3a/3x3_reduce <- pool2/3x3_s2_pool2/3x3_s2_0_split_1
I0403 14:50:57.595475 11199 net.cpp:399] inception_3a/3x3_reduce -> inception_3a/3x3_reduce
I0403 14:50:57.597265 11199 net.cpp:141] Setting up inception_3a/3x3_reduce
I0403 14:50:57.597297 11199 net.cpp:148] Top shape: 24 96 28 28 (1806336)
I0403 14:50:57.597316 11199 net.cpp:156] Memory required for data: 508183584
I0403 14:50:57.597337 11199 layer_factory.hpp:77] Creating layer inception_3a/relu_3x3_reduce
I0403 14:50:57.597378 11199 net.cpp:91] Creating Layer inception_3a/relu_3x3_reduce
I0403 14:50:57.597398 11199 net.cpp:425] inception_3a/relu_3x3_reduce <- inception_3a/3x3_reduce
I0403 14:50:57.597420 11199 net.cpp:386] inception_3a/relu_3x3_reduce -> inception_3a/3x3_reduce (in-place)
I0403 14:50:57.597615 11199 net.cpp:141] Setting up inception_3a/relu_3x3_reduce
I0403 14:50:57.597642 11199 net.cpp:148] Top shape: 24 96 28 28 (1806336)
I0403 14:50:57.597657 11199 net.cpp:156] Memory required for data: 515408928
I0403 14:50:57.597673 11199 layer_factory.hpp:77] Creating layer inception_3a/3x3
I0403 14:50:57.597697 11199 net.cpp:91] Creating Layer inception_3a/3x3
I0403 14:50:57.597717 11199 net.cpp:425] inception_3a/3x3 <- inception_3a/3x3_reduce
I0403 14:50:57.597740 11199 net.cpp:399] inception_3a/3x3 -> inception_3a/3x3
I0403 14:50:57.599488 11199 net.cpp:141] Setting up inception_3a/3x3
I0403 14:50:57.599519 11199 net.cpp:148] Top shape: 24 128 28 28 (2408448)
I0403 14:50:57.599535 11199 net.cpp:156] Memory required for data: 525042720
I0403 14:50:57.599555 11199 layer_factory.hpp:77] Creating layer inception_3a/relu_3x3
I0403 14:50:57.599577 11199 net.cpp:91] Creating Layer inception_3a/relu_3x3
I0403 14:50:57.599596 11199 net.cpp:425] inception_3a/relu_3x3 <- inception_3a/3x3
I0403 14:50:57.599616 11199 net.cpp:386] inception_3a/relu_3x3 -> inception_3a/3x3 (in-place)
I0403 14:50:57.599900 11199 net.cpp:141] Setting up inception_3a/relu_3x3
I0403 14:50:57.599928 11199 net.cpp:148] Top shape: 24 128 28 28 (2408448)
I0403 14:50:57.599944 11199 net.cpp:156] Memory required for data: 534676512
I0403 14:50:57.599959 11199 layer_factory.hpp:77] Creating layer inception_3a/5x5_reduce
I0403 14:50:57.599983 11199 net.cpp:91] Creating Layer inception_3a/5x5_reduce
I0403 14:50:57.600002 11199 net.cpp:425] inception_3a/5x5_reduce <- pool2/3x3_s2_pool2/3x3_s2_0_split_2
I0403 14:50:57.600024 11199 net.cpp:399] inception_3a/5x5_reduce -> inception_3a/5x5_reduce
I0403 14:50:57.601022 11199 net.cpp:141] Setting up inception_3a/5x5_reduce
I0403 14:50:57.601052 11199 net.cpp:148] Top shape: 24 16 28 28 (301056)
I0403 14:50:57.601079 11199 net.cpp:156] Memory required for data: 535880736
I0403 14:50:57.601102 11199 layer_factory.hpp:77] Creating layer inception_3a/relu_5x5_reduce
I0403 14:50:57.601128 11199 net.cpp:91] Creating Layer inception_3a/relu_5x5_reduce
I0403 14:50:57.601147 11199 net.cpp:425] inception_3a/relu_5x5_reduce <- inception_3a/5x5_reduce
I0403 14:50:57.601166 11199 net.cpp:386] inception_3a/relu_5x5_reduce -> inception_3a/5x5_reduce (in-place)
I0403 14:50:57.601476 11199 net.cpp:141] Setting up inception_3a/relu_5x5_reduce
I0403 14:50:57.601507 11199 net.cpp:148] Top shape: 24 16 28 28 (301056)
I0403 14:50:57.601526 11199 net.cpp:156] Memory required for data: 537084960
I0403 14:50:57.601541 11199 layer_factory.hpp:77] Creating layer inception_3a/5x5
I0403 14:50:57.601575 11199 net.cpp:91] Creating Layer inception_3a/5x5
I0403 14:50:57.601593 11199 net.cpp:425] inception_3a/5x5 <- inception_3a/5x5_reduce
I0403 14:50:57.601613 11199 net.cpp:399] inception_3a/5x5 -> inception_3a/5x5
I0403 14:50:57.602648 11199 net.cpp:141] Setting up inception_3a/5x5
I0403 14:50:57.602675 11199 net.cpp:148] Top shape: 24 32 28 28 (602112)
I0403 14:50:57.602691 11199 net.cpp:156] Memory required for data: 539493408
I0403 14:50:57.602710 11199 layer_factory.hpp:77] Creating layer inception_3a/relu_5x5
I0403 14:50:57.602731 11199 net.cpp:91] Creating Layer inception_3a/relu_5x5
I0403 14:50:57.602747 11199 net.cpp:425] inception_3a/relu_5x5 <- inception_3a/5x5
I0403 14:50:57.602766 11199 net.cpp:386] inception_3a/relu_5x5 -> inception_3a/5x5 (in-place)
I0403 14:50:57.602944 11199 net.cpp:141] Setting up inception_3a/relu_5x5
I0403 14:50:57.602970 11199 net.cpp:148] Top shape: 24 32 28 28 (602112)
I0403 14:50:57.602998 11199 net.cpp:156] Memory required for data: 541901856
I0403 14:50:57.603013 11199 layer_factory.hpp:77] Creating layer inception_3a/pool
I0403 14:50:57.603035 11199 net.cpp:91] Creating Layer inception_3a/pool
I0403 14:50:57.603068 11199 net.cpp:425] inception_3a/pool <- pool2/3x3_s2_pool2/3x3_s2_0_split_3
I0403 14:50:57.603090 11199 net.cpp:399] inception_3a/pool -> inception_3a/pool
I0403 14:50:57.603165 11199 net.cpp:141] Setting up inception_3a/pool
I0403 14:50:57.603191 11199 net.cpp:148] Top shape: 24 192 28 28 (3612672)
I0403 14:50:57.603207 11199 net.cpp:156] Memory required for data: 556352544
I0403 14:50:57.603222 11199 layer_factory.hpp:77] Creating layer inception_3a/pool_proj
I0403 14:50:57.603246 11199 net.cpp:91] Creating Layer inception_3a/pool_proj
I0403 14:50:57.603265 11199 net.cpp:425] inception_3a/pool_proj <- inception_3a/pool
I0403 14:50:57.603288 11199 net.cpp:399] inception_3a/pool_proj -> inception_3a/pool_proj
I0403 14:50:57.604282 11199 net.cpp:141] Setting up inception_3a/pool_proj
I0403 14:50:57.604313 11199 net.cpp:148] Top shape: 24 32 28 28 (602112)
I0403 14:50:57.604331 11199 net.cpp:156] Memory required for data: 558760992
I0403 14:50:57.604352 11199 layer_factory.hpp:77] Creating layer inception_3a/relu_pool_proj
I0403 14:50:57.604377 11199 net.cpp:91] Creating Layer inception_3a/relu_pool_proj
I0403 14:50:57.604394 11199 net.cpp:425] inception_3a/relu_pool_proj <- inception_3a/pool_proj
I0403 14:50:57.604411 11199 net.cpp:386] inception_3a/relu_pool_proj -> inception_3a/pool_proj (in-place)
I0403 14:50:57.604707 11199 net.cpp:141] Setting up inception_3a/relu_pool_proj
I0403 14:50:57.604735 11199 net.cpp:148] Top shape: 24 32 28 28 (602112)
I0403 14:50:57.604751 11199 net.cpp:156] Memory required for data: 561169440
I0403 14:50:57.604768 11199 layer_factory.hpp:77] Creating layer inception_3a/output
I0403 14:50:57.604789 11199 net.cpp:91] Creating Layer inception_3a/output
I0403 14:50:57.604806 11199 net.cpp:425] inception_3a/output <- inception_3a/1x1
I0403 14:50:57.604826 11199 net.cpp:425] inception_3a/output <- inception_3a/3x3
I0403 14:50:57.604843 11199 net.cpp:425] inception_3a/output <- inception_3a/5x5
I0403 14:50:57.604861 11199 net.cpp:425] inception_3a/output <- inception_3a/pool_proj
I0403 14:50:57.604878 11199 net.cpp:399] inception_3a/output -> inception_3a/output
I0403 14:50:57.604929 11199 net.cpp:141] Setting up inception_3a/output
I0403 14:50:57.604955 11199 net.cpp:148] Top shape: 24 256 28 28 (4816896)
I0403 14:50:57.604971 11199 net.cpp:156] Memory required for data: 580437024
I0403 14:50:57.604987 11199 layer_factory.hpp:77] Creating layer inception_3a/output_inception_3a/output_0_split
I0403 14:50:57.605005 11199 net.cpp:91] Creating Layer inception_3a/output_inception_3a/output_0_split
I0403 14:50:57.605021 11199 net.cpp:425] inception_3a/output_inception_3a/output_0_split <- inception_3a/output
I0403 14:50:57.605041 11199 net.cpp:399] inception_3a/output_inception_3a/output_0_split -> inception_3a/output_inception_3a/output_0_split_0
I0403 14:50:57.605063 11199 net.cpp:399] inception_3a/output_inception_3a/output_0_split -> inception_3a/output_inception_3a/output_0_split_1
I0403 14:50:57.605088 11199 net.cpp:399] inception_3a/output_inception_3a/output_0_split -> inception_3a/output_inception_3a/output_0_split_2
I0403 14:50:57.605140 11199 net.cpp:399] inception_3a/output_inception_3a/output_0_split -> inception_3a/output_inception_3a/output_0_split_3
I0403 14:50:57.605221 11199 net.cpp:141] Setting up inception_3a/output_inception_3a/output_0_split
I0403 14:50:57.605245 11199 net.cpp:148] Top shape: 24 256 28 28 (4816896)
I0403 14:50:57.605262 11199 net.cpp:148] Top shape: 24 256 28 28 (4816896)
I0403 14:50:57.605276 11199 net.cpp:148] Top shape: 24 256 28 28 (4816896)
I0403 14:50:57.605293 11199 net.cpp:148] Top shape: 24 256 28 28 (4816896)
I0403 14:50:57.605307 11199 net.cpp:156] Memory required for data: 657507360
I0403 14:50:57.605322 11199 layer_factory.hpp:77] Creating layer inception_3b/1x1
I0403 14:50:57.605345 11199 net.cpp:91] Creating Layer inception_3b/1x1
I0403 14:50:57.605363 11199 net.cpp:425] inception_3b/1x1 <- inception_3a/output_inception_3a/output_0_split_0
I0403 14:50:57.605384 11199 net.cpp:399] inception_3b/1x1 -> inception_3b/1x1
I0403 14:50:57.606550 11199 net.cpp:141] Setting up inception_3b/1x1
I0403 14:50:57.606590 11199 net.cpp:148] Top shape: 24 128 28 28 (2408448)
I0403 14:50:57.606607 11199 net.cpp:156] Memory required for data: 667141152
I0403 14:50:57.606626 11199 layer_factory.hpp:77] Creating layer inception_3b/relu_1x1
I0403 14:50:57.606645 11199 net.cpp:91] Creating Layer inception_3b/relu_1x1
I0403 14:50:57.606660 11199 net.cpp:425] inception_3b/relu_1x1 <- inception_3b/1x1
I0403 14:50:57.606681 11199 net.cpp:386] inception_3b/relu_1x1 -> inception_3b/1x1 (in-place)
I0403 14:50:57.606873 11199 net.cpp:141] Setting up inception_3b/relu_1x1
I0403 14:50:57.606899 11199 net.cpp:148] Top shape: 24 128 28 28 (2408448)
I0403 14:50:57.606915 11199 net.cpp:156] Memory required for data: 676774944
I0403 14:50:57.606930 11199 layer_factory.hpp:77] Creating layer inception_3b/3x3_reduce
I0403 14:50:57.606955 11199 net.cpp:91] Creating Layer inception_3b/3x3_reduce
I0403 14:50:57.606972 11199 net.cpp:425] inception_3b/3x3_reduce <- inception_3a/output_inception_3a/output_0_split_1
I0403 14:50:57.606994 11199 net.cpp:399] inception_3b/3x3_reduce -> inception_3b/3x3_reduce
I0403 14:50:57.608232 11199 net.cpp:141] Setting up inception_3b/3x3_reduce
I0403 14:50:57.608263 11199 net.cpp:148] Top shape: 24 128 28 28 (2408448)
I0403 14:50:57.608279 11199 net.cpp:156] Memory required for data: 686408736
I0403 14:50:57.608297 11199 layer_factory.hpp:77] Creating layer inception_3b/relu_3x3_reduce
I0403 14:50:57.608316 11199 net.cpp:91] Creating Layer inception_3b/relu_3x3_reduce
I0403 14:50:57.608336 11199 net.cpp:425] inception_3b/relu_3x3_reduce <- inception_3b/3x3_reduce
I0403 14:50:57.608355 11199 net.cpp:386] inception_3b/relu_3x3_reduce -> inception_3b/3x3_reduce (in-place)
I0403 14:50:57.608531 11199 net.cpp:141] Setting up inception_3b/relu_3x3_reduce
I0403 14:50:57.608556 11199 net.cpp:148] Top shape: 24 128 28 28 (2408448)
I0403 14:50:57.608572 11199 net.cpp:156] Memory required for data: 696042528
I0403 14:50:57.608599 11199 layer_factory.hpp:77] Creating layer inception_3b/3x3
I0403 14:50:57.608626 11199 net.cpp:91] Creating Layer inception_3b/3x3
I0403 14:50:57.608647 11199 net.cpp:425] inception_3b/3x3 <- inception_3b/3x3_reduce
I0403 14:50:57.608669 11199 net.cpp:399] inception_3b/3x3 -> inception_3b/3x3
I0403 14:50:57.611686 11199 net.cpp:141] Setting up inception_3b/3x3
I0403 14:50:57.611716 11199 net.cpp:148] Top shape: 24 192 28 28 (3612672)
I0403 14:50:57.611732 11199 net.cpp:156] Memory required for data: 710493216
I0403 14:50:57.611752 11199 layer_factory.hpp:77] Creating layer inception_3b/relu_3x3
I0403 14:50:57.611773 11199 net.cpp:91] Creating Layer inception_3b/relu_3x3
I0403 14:50:57.611790 11199 net.cpp:425] inception_3b/relu_3x3 <- inception_3b/3x3
I0403 14:50:57.611809 11199 net.cpp:386] inception_3b/relu_3x3 -> inception_3b/3x3 (in-place)
I0403 14:50:57.612097 11199 net.cpp:141] Setting up inception_3b/relu_3x3
I0403 14:50:57.612125 11199 net.cpp:148] Top shape: 24 192 28 28 (3612672)
I0403 14:50:57.612140 11199 net.cpp:156] Memory required for data: 724943904
I0403 14:50:57.612155 11199 layer_factory.hpp:77] Creating layer inception_3b/5x5_reduce
I0403 14:50:57.612179 11199 net.cpp:91] Creating Layer inception_3b/5x5_reduce
I0403 14:50:57.612196 11199 net.cpp:425] inception_3b/5x5_reduce <- inception_3a/output_inception_3a/output_0_split_2
I0403 14:50:57.612220 11199 net.cpp:399] inception_3b/5x5_reduce -> inception_3b/5x5_reduce
I0403 14:50:57.613271 11199 net.cpp:141] Setting up inception_3b/5x5_reduce
I0403 14:50:57.613301 11199 net.cpp:148] Top shape: 24 32 28 28 (602112)
I0403 14:50:57.613318 11199 net.cpp:156] Memory required for data: 727352352
I0403 14:50:57.613337 11199 layer_factory.hpp:77] Creating layer inception_3b/relu_5x5_reduce
I0403 14:50:57.613358 11199 net.cpp:91] Creating Layer inception_3b/relu_5x5_reduce
I0403 14:50:57.613376 11199 net.cpp:425] inception_3b/relu_5x5_reduce <- inception_3b/5x5_reduce
I0403 14:50:57.613404 11199 net.cpp:386] inception_3b/relu_5x5_reduce -> inception_3b/5x5_reduce (in-place)
I0403 14:50:57.613602 11199 net.cpp:141] Setting up inception_3b/relu_5x5_reduce
I0403 14:50:57.613628 11199 net.cpp:148] Top shape: 24 32 28 28 (602112)
I0403 14:50:57.613644 11199 net.cpp:156] Memory required for data: 729760800
I0403 14:50:57.613659 11199 layer_factory.hpp:77] Creating layer inception_3b/5x5
I0403 14:50:57.613683 11199 net.cpp:91] Creating Layer inception_3b/5x5
I0403 14:50:57.613701 11199 net.cpp:425] inception_3b/5x5 <- inception_3b/5x5_reduce
I0403 14:50:57.613721 11199 net.cpp:399] inception_3b/5x5 -> inception_3b/5x5
I0403 14:50:57.615783 11199 net.cpp:141] Setting up inception_3b/5x5
I0403 14:50:57.615815 11199 net.cpp:148] Top shape: 24 96 28 28 (1806336)
I0403 14:50:57.615831 11199 net.cpp:156] Memory required for data: 736986144
I0403 14:50:57.615850 11199 layer_factory.hpp:77] Creating layer inception_3b/relu_5x5
I0403 14:50:57.615869 11199 net.cpp:91] Creating Layer inception_3b/relu_5x5
I0403 14:50:57.615886 11199 net.cpp:425] inception_3b/relu_5x5 <- inception_3b/5x5
I0403 14:50:57.615907 11199 net.cpp:386] inception_3b/relu_5x5 -> inception_3b/5x5 (in-place)
I0403 14:50:57.616123 11199 net.cpp:141] Setting up inception_3b/relu_5x5
I0403 14:50:57.616153 11199 net.cpp:148] Top shape: 24 96 28 28 (1806336)
I0403 14:50:57.616169 11199 net.cpp:156] Memory required for data: 744211488
I0403 14:50:57.616185 11199 layer_factory.hpp:77] Creating layer inception_3b/pool
I0403 14:50:57.616205 11199 net.cpp:91] Creating Layer inception_3b/pool
I0403 14:50:57.616222 11199 net.cpp:425] inception_3b/pool <- inception_3a/output_inception_3a/output_0_split_3
I0403 14:50:57.616241 11199 net.cpp:399] inception_3b/pool -> inception_3b/pool
I0403 14:50:57.616302 11199 net.cpp:141] Setting up inception_3b/pool
I0403 14:50:57.616328 11199 net.cpp:148] Top shape: 24 256 28 28 (4816896)
I0403 14:50:57.616344 11199 net.cpp:156] Memory required for data: 763479072
I0403 14:50:57.616359 11199 layer_factory.hpp:77] Creating layer inception_3b/pool_proj
I0403 14:50:57.616382 11199 net.cpp:91] Creating Layer inception_3b/pool_proj
I0403 14:50:57.616405 11199 net.cpp:425] inception_3b/pool_proj <- inception_3b/pool
I0403 14:50:57.616426 11199 net.cpp:399] inception_3b/pool_proj -> inception_3b/pool_proj
I0403 14:50:57.617506 11199 net.cpp:141] Setting up inception_3b/pool_proj
I0403 14:50:57.617538 11199 net.cpp:148] Top shape: 24 64 28 28 (1204224)
I0403 14:50:57.617557 11199 net.cpp:156] Memory required for data: 768295968
I0403 14:50:57.617575 11199 layer_factory.hpp:77] Creating layer inception_3b/relu_pool_proj
I0403 14:50:57.617594 11199 net.cpp:91] Creating Layer inception_3b/relu_pool_proj
I0403 14:50:57.617610 11199 net.cpp:425] inception_3b/relu_pool_proj <- inception_3b/pool_proj
I0403 14:50:57.617631 11199 net.cpp:386] inception_3b/relu_pool_proj -> inception_3b/pool_proj (in-place)
I0403 14:50:57.618044 11199 net.cpp:141] Setting up inception_3b/relu_pool_proj
I0403 14:50:57.618072 11199 net.cpp:148] Top shape: 24 64 28 28 (1204224)
I0403 14:50:57.618091 11199 net.cpp:156] Memory required for data: 773112864
I0403 14:50:57.618113 11199 layer_factory.hpp:77] Creating layer inception_3b/output
I0403 14:50:57.618134 11199 net.cpp:91] Creating Layer inception_3b/output
I0403 14:50:57.618150 11199 net.cpp:425] inception_3b/output <- inception_3b/1x1
I0403 14:50:57.618168 11199 net.cpp:425] inception_3b/output <- inception_3b/3x3
I0403 14:50:57.618185 11199 net.cpp:425] inception_3b/output <- inception_3b/5x5
I0403 14:50:57.618203 11199 net.cpp:425] inception_3b/output <- inception_3b/pool_proj
I0403 14:50:57.618221 11199 net.cpp:399] inception_3b/output -> inception_3b/output
I0403 14:50:57.618268 11199 net.cpp:141] Setting up inception_3b/output
I0403 14:50:57.618294 11199 net.cpp:148] Top shape: 24 480 28 28 (9031680)
I0403 14:50:57.618321 11199 net.cpp:156] Memory required for data: 809239584
I0403 14:50:57.618335 11199 layer_factory.hpp:77] Creating layer pool3/3x3_s2
I0403 14:50:57.618355 11199 net.cpp:91] Creating Layer pool3/3x3_s2
I0403 14:50:57.618372 11199 net.cpp:425] pool3/3x3_s2 <- inception_3b/output
I0403 14:50:57.618407 11199 net.cpp:399] pool3/3x3_s2 -> pool3/3x3_s2
I0403 14:50:57.618468 11199 net.cpp:141] Setting up pool3/3x3_s2
I0403 14:50:57.618492 11199 net.cpp:148] Top shape: 24 480 14 14 (2257920)
I0403 14:50:57.618506 11199 net.cpp:156] Memory required for data: 818271264
I0403 14:50:57.618522 11199 layer_factory.hpp:77] Creating layer pool3/3x3_s2_pool3/3x3_s2_0_split
I0403 14:50:57.618540 11199 net.cpp:91] Creating Layer pool3/3x3_s2_pool3/3x3_s2_0_split
I0403 14:50:57.618556 11199 net.cpp:425] pool3/3x3_s2_pool3/3x3_s2_0_split <- pool3/3x3_s2
I0403 14:50:57.618576 11199 net.cpp:399] pool3/3x3_s2_pool3/3x3_s2_0_split -> pool3/3x3_s2_pool3/3x3_s2_0_split_0
I0403 14:50:57.618597 11199 net.cpp:399] pool3/3x3_s2_pool3/3x3_s2_0_split -> pool3/3x3_s2_pool3/3x3_s2_0_split_1
I0403 14:50:57.618618 11199 net.cpp:399] pool3/3x3_s2_pool3/3x3_s2_0_split -> pool3/3x3_s2_pool3/3x3_s2_0_split_2
I0403 14:50:57.618638 11199 net.cpp:399] pool3/3x3_s2_pool3/3x3_s2_0_split -> pool3/3x3_s2_pool3/3x3_s2_0_split_3
I0403 14:50:57.618716 11199 net.cpp:141] Setting up pool3/3x3_s2_pool3/3x3_s2_0_split
I0403 14:50:57.618739 11199 net.cpp:148] Top shape: 24 480 14 14 (2257920)
I0403 14:50:57.618755 11199 net.cpp:148] Top shape: 24 480 14 14 (2257920)
I0403 14:50:57.618772 11199 net.cpp:148] Top shape: 24 480 14 14 (2257920)
I0403 14:50:57.618787 11199 net.cpp:148] Top shape: 24 480 14 14 (2257920)
I0403 14:50:57.618800 11199 net.cpp:156] Memory required for data: 854397984
I0403 14:50:57.618816 11199 layer_factory.hpp:77] Creating layer inception_4a/1x1
I0403 14:50:57.618840 11199 net.cpp:91] Creating Layer inception_4a/1x1
I0403 14:50:57.618859 11199 net.cpp:425] inception_4a/1x1 <- pool3/3x3_s2_pool3/3x3_s2_0_split_0
I0403 14:50:57.618878 11199 net.cpp:399] inception_4a/1x1 -> inception_4a/1x1
I0403 14:50:57.620586 11199 net.cpp:141] Setting up inception_4a/1x1
I0403 14:50:57.620620 11199 net.cpp:148] Top shape: 24 192 14 14 (903168)
I0403 14:50:57.620637 11199 net.cpp:156] Memory required for data: 858010656
I0403 14:50:57.620656 11199 layer_factory.hpp:77] Creating layer inception_4a/relu_1x1
I0403 14:50:57.620676 11199 net.cpp:91] Creating Layer inception_4a/relu_1x1
I0403 14:50:57.620692 11199 net.cpp:425] inception_4a/relu_1x1 <- inception_4a/1x1
I0403 14:50:57.620713 11199 net.cpp:386] inception_4a/relu_1x1 -> inception_4a/1x1 (in-place)
I0403 14:50:57.620901 11199 net.cpp:141] Setting up inception_4a/relu_1x1
I0403 14:50:57.620928 11199 net.cpp:148] Top shape: 24 192 14 14 (903168)
I0403 14:50:57.620944 11199 net.cpp:156] Memory required for data: 861623328
I0403 14:50:57.620959 11199 layer_factory.hpp:77] Creating layer inception_4a/3x3_reduce
I0403 14:50:57.620983 11199 net.cpp:91] Creating Layer inception_4a/3x3_reduce
I0403 14:50:57.621003 11199 net.cpp:425] inception_4a/3x3_reduce <- pool3/3x3_s2_pool3/3x3_s2_0_split_1
I0403 14:50:57.621026 11199 net.cpp:399] inception_4a/3x3_reduce -> inception_4a/3x3_reduce
I0403 14:50:57.622370 11199 net.cpp:141] Setting up inception_4a/3x3_reduce
I0403 14:50:57.622401 11199 net.cpp:148] Top shape: 24 96 14 14 (451584)
I0403 14:50:57.622419 11199 net.cpp:156] Memory required for data: 863429664
I0403 14:50:57.622442 11199 layer_factory.hpp:77] Creating layer inception_4a/relu_3x3_reduce
I0403 14:50:57.622474 11199 net.cpp:91] Creating Layer inception_4a/relu_3x3_reduce
I0403 14:50:57.622493 11199 net.cpp:425] inception_4a/relu_3x3_reduce <- inception_4a/3x3_reduce
I0403 14:50:57.622511 11199 net.cpp:386] inception_4a/relu_3x3_reduce -> inception_4a/3x3_reduce (in-place)
I0403 14:50:57.622692 11199 net.cpp:141] Setting up inception_4a/relu_3x3_reduce
I0403 14:50:57.622720 11199 net.cpp:148] Top shape: 24 96 14 14 (451584)
I0403 14:50:57.622735 11199 net.cpp:156] Memory required for data: 865236000
I0403 14:50:57.622750 11199 layer_factory.hpp:77] Creating layer inception_4a/3x3
I0403 14:50:57.622772 11199 net.cpp:91] Creating Layer inception_4a/3x3
I0403 14:50:57.622791 11199 net.cpp:425] inception_4a/3x3 <- inception_4a/3x3_reduce
I0403 14:50:57.622812 11199 net.cpp:399] inception_4a/3x3 -> inception_4a/3x3
I0403 14:50:57.625633 11199 net.cpp:141] Setting up inception_4a/3x3
I0403 14:50:57.625663 11199 net.cpp:148] Top shape: 24 208 14 14 (978432)
I0403 14:50:57.625679 11199 net.cpp:156] Memory required for data: 869149728
I0403 14:50:57.625697 11199 layer_factory.hpp:77] Creating layer inception_4a/relu_3x3
I0403 14:50:57.625718 11199 net.cpp:91] Creating Layer inception_4a/relu_3x3
I0403 14:50:57.625736 11199 net.cpp:425] inception_4a/relu_3x3 <- inception_4a/3x3
I0403 14:50:57.625754 11199 net.cpp:386] inception_4a/relu_3x3 -> inception_4a/3x3 (in-place)
I0403 14:50:57.626039 11199 net.cpp:141] Setting up inception_4a/relu_3x3
I0403 14:50:57.626066 11199 net.cpp:148] Top shape: 24 208 14 14 (978432)
I0403 14:50:57.626081 11199 net.cpp:156] Memory required for data: 873063456
I0403 14:50:57.626101 11199 layer_factory.hpp:77] Creating layer inception_4a/5x5_reduce
I0403 14:50:57.626127 11199 net.cpp:91] Creating Layer inception_4a/5x5_reduce
I0403 14:50:57.626147 11199 net.cpp:425] inception_4a/5x5_reduce <- pool3/3x3_s2_pool3/3x3_s2_0_split_2
I0403 14:50:57.626169 11199 net.cpp:399] inception_4a/5x5_reduce -> inception_4a/5x5_reduce
I0403 14:50:57.627226 11199 net.cpp:141] Setting up inception_4a/5x5_reduce
I0403 14:50:57.627257 11199 net.cpp:148] Top shape: 24 16 14 14 (75264)
I0403 14:50:57.627286 11199 net.cpp:156] Memory required for data: 873364512
I0403 14:50:57.627305 11199 layer_factory.hpp:77] Creating layer inception_4a/relu_5x5_reduce
I0403 14:50:57.627326 11199 net.cpp:91] Creating Layer inception_4a/relu_5x5_reduce
I0403 14:50:57.627343 11199 net.cpp:425] inception_4a/relu_5x5_reduce <- inception_4a/5x5_reduce
I0403 14:50:57.627362 11199 net.cpp:386] inception_4a/relu_5x5_reduce -> inception_4a/5x5_reduce (in-place)
I0403 14:50:57.627544 11199 net.cpp:141] Setting up inception_4a/relu_5x5_reduce
I0403 14:50:57.627570 11199 net.cpp:148] Top shape: 24 16 14 14 (75264)
I0403 14:50:57.627588 11199 net.cpp:156] Memory required for data: 873665568
I0403 14:50:57.627601 11199 layer_factory.hpp:77] Creating layer inception_4a/5x5
I0403 14:50:57.627625 11199 net.cpp:91] Creating Layer inception_4a/5x5
I0403 14:50:57.627643 11199 net.cpp:425] inception_4a/5x5 <- inception_4a/5x5_reduce
I0403 14:50:57.627662 11199 net.cpp:399] inception_4a/5x5 -> inception_4a/5x5
I0403 14:50:57.628761 11199 net.cpp:141] Setting up inception_4a/5x5
I0403 14:50:57.628793 11199 net.cpp:148] Top shape: 24 48 14 14 (225792)
I0403 14:50:57.628821 11199 net.cpp:156] Memory required for data: 874568736
I0403 14:50:57.628840 11199 layer_factory.hpp:77] Creating layer inception_4a/relu_5x5
I0403 14:50:57.628859 11199 net.cpp:91] Creating Layer inception_4a/relu_5x5
I0403 14:50:57.628875 11199 net.cpp:425] inception_4a/relu_5x5 <- inception_4a/5x5
I0403 14:50:57.628892 11199 net.cpp:386] inception_4a/relu_5x5 -> inception_4a/5x5 (in-place)
I0403 14:50:57.629089 11199 net.cpp:141] Setting up inception_4a/relu_5x5
I0403 14:50:57.629125 11199 net.cpp:148] Top shape: 24 48 14 14 (225792)
I0403 14:50:57.629143 11199 net.cpp:156] Memory required for data: 875471904
I0403 14:50:57.629159 11199 layer_factory.hpp:77] Creating layer inception_4a/pool
I0403 14:50:57.629179 11199 net.cpp:91] Creating Layer inception_4a/pool
I0403 14:50:57.629195 11199 net.cpp:425] inception_4a/pool <- pool3/3x3_s2_pool3/3x3_s2_0_split_3
I0403 14:50:57.629217 11199 net.cpp:399] inception_4a/pool -> inception_4a/pool
I0403 14:50:57.629292 11199 net.cpp:141] Setting up inception_4a/pool
I0403 14:50:57.629319 11199 net.cpp:148] Top shape: 24 480 14 14 (2257920)
I0403 14:50:57.629334 11199 net.cpp:156] Memory required for data: 884503584
I0403 14:50:57.629349 11199 layer_factory.hpp:77] Creating layer inception_4a/pool_proj
I0403 14:50:57.629369 11199 net.cpp:91] Creating Layer inception_4a/pool_proj
I0403 14:50:57.629387 11199 net.cpp:425] inception_4a/pool_proj <- inception_4a/pool
I0403 14:50:57.629410 11199 net.cpp:399] inception_4a/pool_proj -> inception_4a/pool_proj
I0403 14:50:57.630595 11199 net.cpp:141] Setting up inception_4a/pool_proj
I0403 14:50:57.630630 11199 net.cpp:148] Top shape: 24 64 14 14 (301056)
I0403 14:50:57.630664 11199 net.cpp:156] Memory required for data: 885707808
I0403 14:50:57.630686 11199 layer_factory.hpp:77] Creating layer inception_4a/relu_pool_proj
I0403 14:50:57.630705 11199 net.cpp:91] Creating Layer inception_4a/relu_pool_proj
I0403 14:50:57.630723 11199 net.cpp:425] inception_4a/relu_pool_proj <- inception_4a/pool_proj
I0403 14:50:57.630743 11199 net.cpp:386] inception_4a/relu_pool_proj -> inception_4a/pool_proj (in-place)
I0403 14:50:57.631028 11199 net.cpp:141] Setting up inception_4a/relu_pool_proj
I0403 14:50:57.631058 11199 net.cpp:148] Top shape: 24 64 14 14 (301056)
I0403 14:50:57.631077 11199 net.cpp:156] Memory required for data: 886912032
I0403 14:50:57.631091 11199 layer_factory.hpp:77] Creating layer inception_4a/output
I0403 14:50:57.631115 11199 net.cpp:91] Creating Layer inception_4a/output
I0403 14:50:57.631135 11199 net.cpp:425] inception_4a/output <- inception_4a/1x1
I0403 14:50:57.631152 11199 net.cpp:425] inception_4a/output <- inception_4a/3x3
I0403 14:50:57.631170 11199 net.cpp:425] inception_4a/output <- inception_4a/5x5
I0403 14:50:57.631186 11199 net.cpp:425] inception_4a/output <- inception_4a/pool_proj
I0403 14:50:57.631204 11199 net.cpp:399] inception_4a/output -> inception_4a/output
I0403 14:50:57.631253 11199 net.cpp:141] Setting up inception_4a/output
I0403 14:50:57.631279 11199 net.cpp:148] Top shape: 24 512 14 14 (2408448)
I0403 14:50:57.631295 11199 net.cpp:156] Memory required for data: 896545824
I0403 14:50:57.631309 11199 layer_factory.hpp:77] Creating layer inception_4a/output_inception_4a/output_0_split
I0403 14:50:57.631330 11199 net.cpp:91] Creating Layer inception_4a/output_inception_4a/output_0_split
I0403 14:50:57.631347 11199 net.cpp:425] inception_4a/output_inception_4a/output_0_split <- inception_4a/output
I0403 14:50:57.631364 11199 net.cpp:399] inception_4a/output_inception_4a/output_0_split -> inception_4a/output_inception_4a/output_0_split_0
I0403 14:50:57.631386 11199 net.cpp:399] inception_4a/output_inception_4a/output_0_split -> inception_4a/output_inception_4a/output_0_split_1
I0403 14:50:57.631408 11199 net.cpp:399] inception_4a/output_inception_4a/output_0_split -> inception_4a/output_inception_4a/output_0_split_2
I0403 14:50:57.631431 11199 net.cpp:399] inception_4a/output_inception_4a/output_0_split -> inception_4a/output_inception_4a/output_0_split_3
I0403 14:50:57.631455 11199 net.cpp:399] inception_4a/output_inception_4a/output_0_split -> inception_4a/output_inception_4a/output_0_split_4
I0403 14:50:57.631551 11199 net.cpp:141] Setting up inception_4a/output_inception_4a/output_0_split
I0403 14:50:57.631577 11199 net.cpp:148] Top shape: 24 512 14 14 (2408448)
I0403 14:50:57.631594 11199 net.cpp:148] Top shape: 24 512 14 14 (2408448)
I0403 14:50:57.631611 11199 net.cpp:148] Top shape: 24 512 14 14 (2408448)
I0403 14:50:57.631629 11199 net.cpp:148] Top shape: 24 512 14 14 (2408448)
I0403 14:50:57.631645 11199 net.cpp:148] Top shape: 24 512 14 14 (2408448)
I0403 14:50:57.631660 11199 net.cpp:156] Memory required for data: 944714784
I0403 14:50:57.631675 11199 layer_factory.hpp:77] Creating layer loss1/ave_pool
I0403 14:50:57.631698 11199 net.cpp:91] Creating Layer loss1/ave_pool
I0403 14:50:57.631716 11199 net.cpp:425] loss1/ave_pool <- inception_4a/output_inception_4a/output_0_split_0
I0403 14:50:57.631736 11199 net.cpp:399] loss1/ave_pool -> loss1/ave_pool
I0403 14:50:57.631947 11199 net.cpp:141] Setting up loss1/ave_pool
I0403 14:50:57.631978 11199 net.cpp:148] Top shape: 24 512 4 4 (196608)
I0403 14:50:57.631994 11199 net.cpp:156] Memory required for data: 945501216
I0403 14:50:57.632010 11199 layer_factory.hpp:77] Creating layer loss1/conv
I0403 14:50:57.632033 11199 net.cpp:91] Creating Layer loss1/conv
I0403 14:50:57.632051 11199 net.cpp:425] loss1/conv <- loss1/ave_pool
I0403 14:50:57.632072 11199 net.cpp:399] loss1/conv -> loss1/conv
I0403 14:50:57.633559 11199 net.cpp:141] Setting up loss1/conv
I0403 14:50:57.633590 11199 net.cpp:148] Top shape: 24 128 4 4 (49152)
I0403 14:50:57.633621 11199 net.cpp:156] Memory required for data: 945697824
I0403 14:50:57.633641 11199 layer_factory.hpp:77] Creating layer loss1/relu_conv
I0403 14:50:57.633663 11199 net.cpp:91] Creating Layer loss1/relu_conv
I0403 14:50:57.633680 11199 net.cpp:425] loss1/relu_conv <- loss1/conv
I0403 14:50:57.633699 11199 net.cpp:386] loss1/relu_conv -> loss1/conv (in-place)
I0403 14:50:57.633986 11199 net.cpp:141] Setting up loss1/relu_conv
I0403 14:50:57.634014 11199 net.cpp:148] Top shape: 24 128 4 4 (49152)
I0403 14:50:57.634030 11199 net.cpp:156] Memory required for data: 945894432
I0403 14:50:57.634047 11199 layer_factory.hpp:77] Creating layer loss1/fc
I0403 14:50:57.634074 11199 net.cpp:91] Creating Layer loss1/fc
I0403 14:50:57.634099 11199 net.cpp:425] loss1/fc <- loss1/conv
I0403 14:50:57.634120 11199 net.cpp:399] loss1/fc -> loss1/fc
I0403 14:50:57.652709 11199 net.cpp:141] Setting up loss1/fc
I0403 14:50:57.652773 11199 net.cpp:148] Top shape: 24 1024 (24576)
I0403 14:50:57.652788 11199 net.cpp:156] Memory required for data: 945992736
I0403 14:50:57.652808 11199 layer_factory.hpp:77] Creating layer loss1/relu_fc
I0403 14:50:57.652828 11199 net.cpp:91] Creating Layer loss1/relu_fc
I0403 14:50:57.652845 11199 net.cpp:425] loss1/relu_fc <- loss1/fc
I0403 14:50:57.652866 11199 net.cpp:386] loss1/relu_fc -> loss1/fc (in-place)
I0403 14:50:57.653079 11199 net.cpp:141] Setting up loss1/relu_fc
I0403 14:50:57.653110 11199 net.cpp:148] Top shape: 24 1024 (24576)
I0403 14:50:57.653126 11199 net.cpp:156] Memory required for data: 946091040
I0403 14:50:57.653142 11199 layer_factory.hpp:77] Creating layer loss1/drop_fc
I0403 14:50:57.653172 11199 net.cpp:91] Creating Layer loss1/drop_fc
I0403 14:50:57.653192 11199 net.cpp:425] loss1/drop_fc <- loss1/fc
I0403 14:50:57.653211 11199 net.cpp:386] loss1/drop_fc -> loss1/fc (in-place)
I0403 14:50:57.653265 11199 net.cpp:141] Setting up loss1/drop_fc
I0403 14:50:57.653290 11199 net.cpp:148] Top shape: 24 1024 (24576)
I0403 14:50:57.653306 11199 net.cpp:156] Memory required for data: 946189344
I0403 14:50:57.653321 11199 layer_factory.hpp:77] Creating layer loss1/classifier_plantvillage
I0403 14:50:57.653344 11199 net.cpp:91] Creating Layer loss1/classifier_plantvillage
I0403 14:50:57.653363 11199 net.cpp:425] loss1/classifier_plantvillage <- loss1/fc
I0403 14:50:57.653384 11199 net.cpp:399] loss1/classifier_plantvillage -> loss1/classifier_plantvillage
I0403 14:50:57.654340 11199 net.cpp:141] Setting up loss1/classifier_plantvillage
I0403 14:50:57.654371 11199 net.cpp:148] Top shape: 24 38 (912)
I0403 14:50:57.654387 11199 net.cpp:156] Memory required for data: 946192992
I0403 14:50:57.654407 11199 layer_factory.hpp:77] Creating layer loss1/classifier_plantvillage_loss1/classifier_plantvillage_0_split
I0403 14:50:57.654425 11199 net.cpp:91] Creating Layer loss1/classifier_plantvillage_loss1/classifier_plantvillage_0_split
I0403 14:50:57.654441 11199 net.cpp:425] loss1/classifier_plantvillage_loss1/classifier_plantvillage_0_split <- loss1/classifier_plantvillage
I0403 14:50:57.654461 11199 net.cpp:399] loss1/classifier_plantvillage_loss1/classifier_plantvillage_0_split -> loss1/classifier_plantvillage_loss1/classifier_plantvillage_0_split_0
I0403 14:50:57.654484 11199 net.cpp:399] loss1/classifier_plantvillage_loss1/classifier_plantvillage_0_split -> loss1/classifier_plantvillage_loss1/classifier_plantvillage_0_split_1
I0403 14:50:57.654505 11199 net.cpp:399] loss1/classifier_plantvillage_loss1/classifier_plantvillage_0_split -> loss1/classifier_plantvillage_loss1/classifier_plantvillage_0_split_2
I0403 14:50:57.654573 11199 net.cpp:141] Setting up loss1/classifier_plantvillage_loss1/classifier_plantvillage_0_split
I0403 14:50:57.654598 11199 net.cpp:148] Top shape: 24 38 (912)
I0403 14:50:57.654614 11199 net.cpp:148] Top shape: 24 38 (912)
I0403 14:50:57.654628 11199 net.cpp:148] Top shape: 24 38 (912)
I0403 14:50:57.654644 11199 net.cpp:156] Memory required for data: 946203936
I0403 14:50:57.654659 11199 layer_factory.hpp:77] Creating layer inception_4b/1x1
I0403 14:50:57.654681 11199 net.cpp:91] Creating Layer inception_4b/1x1
I0403 14:50:57.654724 11199 net.cpp:425] inception_4b/1x1 <- inception_4a/output_inception_4a/output_0_split_1
I0403 14:50:57.654747 11199 net.cpp:399] inception_4b/1x1 -> inception_4b/1x1
I0403 14:50:57.656487 11199 net.cpp:141] Setting up inception_4b/1x1
I0403 14:50:57.656518 11199 net.cpp:148] Top shape: 24 160 14 14 (752640)
I0403 14:50:57.656534 11199 net.cpp:156] Memory required for data: 949214496
I0403 14:50:57.656553 11199 layer_factory.hpp:77] Creating layer inception_4b/relu_1x1
I0403 14:50:57.656574 11199 net.cpp:91] Creating Layer inception_4b/relu_1x1
I0403 14:50:57.656592 11199 net.cpp:425] inception_4b/relu_1x1 <- inception_4b/1x1
I0403 14:50:57.656610 11199 net.cpp:386] inception_4b/relu_1x1 -> inception_4b/1x1 (in-place)
I0403 14:50:57.656795 11199 net.cpp:141] Setting up inception_4b/relu_1x1
I0403 14:50:57.656821 11199 net.cpp:148] Top shape: 24 160 14 14 (752640)
I0403 14:50:57.656837 11199 net.cpp:156] Memory required for data: 952225056
I0403 14:50:57.656852 11199 layer_factory.hpp:77] Creating layer inception_4b/3x3_reduce
I0403 14:50:57.656875 11199 net.cpp:91] Creating Layer inception_4b/3x3_reduce
I0403 14:50:57.656894 11199 net.cpp:425] inception_4b/3x3_reduce <- inception_4a/output_inception_4a/output_0_split_2
I0403 14:50:57.656914 11199 net.cpp:399] inception_4b/3x3_reduce -> inception_4b/3x3_reduce
I0403 14:50:57.658304 11199 net.cpp:141] Setting up inception_4b/3x3_reduce
I0403 14:50:57.658334 11199 net.cpp:148] Top shape: 24 112 14 14 (526848)
I0403 14:50:57.658349 11199 net.cpp:156] Memory required for data: 954332448
I0403 14:50:57.658368 11199 layer_factory.hpp:77] Creating layer inception_4b/relu_3x3_reduce
I0403 14:50:57.658390 11199 net.cpp:91] Creating Layer inception_4b/relu_3x3_reduce
I0403 14:50:57.658408 11199 net.cpp:425] inception_4b/relu_3x3_reduce <- inception_4b/3x3_reduce
I0403 14:50:57.658427 11199 net.cpp:386] inception_4b/relu_3x3_reduce -> inception_4b/3x3_reduce (in-place)
I0403 14:50:57.658715 11199 net.cpp:141] Setting up inception_4b/relu_3x3_reduce
I0403 14:50:57.658742 11199 net.cpp:148] Top shape: 24 112 14 14 (526848)
I0403 14:50:57.658758 11199 net.cpp:156] Memory required for data: 956439840
I0403 14:50:57.658773 11199 layer_factory.hpp:77] Creating layer inception_4b/3x3
I0403 14:50:57.658797 11199 net.cpp:91] Creating Layer inception_4b/3x3
I0403 14:50:57.658817 11199 net.cpp:425] inception_4b/3x3 <- inception_4b/3x3_reduce
I0403 14:50:57.658836 11199 net.cpp:399] inception_4b/3x3 -> inception_4b/3x3
I0403 14:50:57.661887 11199 net.cpp:141] Setting up inception_4b/3x3
I0403 14:50:57.661921 11199 net.cpp:148] Top shape: 24 224 14 14 (1053696)
I0403 14:50:57.661937 11199 net.cpp:156] Memory required for data: 960654624
I0403 14:50:57.661957 11199 layer_factory.hpp:77] Creating layer inception_4b/relu_3x3
I0403 14:50:57.661977 11199 net.cpp:91] Creating Layer inception_4b/relu_3x3
I0403 14:50:57.661993 11199 net.cpp:425] inception_4b/relu_3x3 <- inception_4b/3x3
I0403 14:50:57.662012 11199 net.cpp:386] inception_4b/relu_3x3 -> inception_4b/3x3 (in-place)
I0403 14:50:57.662214 11199 net.cpp:141] Setting up inception_4b/relu_3x3
I0403 14:50:57.662241 11199 net.cpp:148] Top shape: 24 224 14 14 (1053696)
I0403 14:50:57.662257 11199 net.cpp:156] Memory required for data: 964869408
I0403 14:50:57.662272 11199 layer_factory.hpp:77] Creating layer inception_4b/5x5_reduce
I0403 14:50:57.662297 11199 net.cpp:91] Creating Layer inception_4b/5x5_reduce
I0403 14:50:57.662317 11199 net.cpp:425] inception_4b/5x5_reduce <- inception_4a/output_inception_4a/output_0_split_3
I0403 14:50:57.662341 11199 net.cpp:399] inception_4b/5x5_reduce -> inception_4b/5x5_reduce
I0403 14:50:57.663452 11199 net.cpp:141] Setting up inception_4b/5x5_reduce
I0403 14:50:57.663482 11199 net.cpp:148] Top shape: 24 24 14 14 (112896)
I0403 14:50:57.663498 11199 net.cpp:156] Memory required for data: 965320992
I0403 14:50:57.663517 11199 layer_factory.hpp:77] Creating layer inception_4b/relu_5x5_reduce
I0403 14:50:57.663538 11199 net.cpp:91] Creating Layer inception_4b/relu_5x5_reduce
I0403 14:50:57.663570 11199 net.cpp:425] inception_4b/relu_5x5_reduce <- inception_4b/5x5_reduce
I0403 14:50:57.663589 11199 net.cpp:386] inception_4b/relu_5x5_reduce -> inception_4b/5x5_reduce (in-place)
I0403 14:50:57.663775 11199 net.cpp:141] Setting up inception_4b/relu_5x5_reduce
I0403 14:50:57.663803 11199 net.cpp:148] Top shape: 24 24 14 14 (112896)
I0403 14:50:57.663820 11199 net.cpp:156] Memory required for data: 965772576
I0403 14:50:57.663836 11199 layer_factory.hpp:77] Creating layer inception_4b/5x5
I0403 14:50:57.663858 11199 net.cpp:91] Creating Layer inception_4b/5x5
I0403 14:50:57.663877 11199 net.cpp:425] inception_4b/5x5 <- inception_4b/5x5_reduce
I0403 14:50:57.663897 11199 net.cpp:399] inception_4b/5x5 -> inception_4b/5x5
I0403 14:50:57.665160 11199 net.cpp:141] Setting up inception_4b/5x5
I0403 14:50:57.665190 11199 net.cpp:148] Top shape: 24 64 14 14 (301056)
I0403 14:50:57.665206 11199 net.cpp:156] Memory required for data: 966976800
I0403 14:50:57.665225 11199 layer_factory.hpp:77] Creating layer inception_4b/relu_5x5
I0403 14:50:57.665246 11199 net.cpp:91] Creating Layer inception_4b/relu_5x5
I0403 14:50:57.665262 11199 net.cpp:425] inception_4b/relu_5x5 <- inception_4b/5x5
I0403 14:50:57.665280 11199 net.cpp:386] inception_4b/relu_5x5 -> inception_4b/5x5 (in-place)
I0403 14:50:57.665572 11199 net.cpp:141] Setting up inception_4b/relu_5x5
I0403 14:50:57.665601 11199 net.cpp:148] Top shape: 24 64 14 14 (301056)
I0403 14:50:57.665616 11199 net.cpp:156] Memory required for data: 968181024
I0403 14:50:57.665630 11199 layer_factory.hpp:77] Creating layer inception_4b/pool
I0403 14:50:57.665652 11199 net.cpp:91] Creating Layer inception_4b/pool
I0403 14:50:57.665669 11199 net.cpp:425] inception_4b/pool <- inception_4a/output_inception_4a/output_0_split_4
I0403 14:50:57.665688 11199 net.cpp:399] inception_4b/pool -> inception_4b/pool
I0403 14:50:57.665755 11199 net.cpp:141] Setting up inception_4b/pool
I0403 14:50:57.665779 11199 net.cpp:148] Top shape: 24 512 14 14 (2408448)
I0403 14:50:57.665796 11199 net.cpp:156] Memory required for data: 977814816
I0403 14:50:57.665809 11199 layer_factory.hpp:77] Creating layer inception_4b/pool_proj
I0403 14:50:57.665834 11199 net.cpp:91] Creating Layer inception_4b/pool_proj
I0403 14:50:57.665854 11199 net.cpp:425] inception_4b/pool_proj <- inception_4b/pool
I0403 14:50:57.665875 11199 net.cpp:399] inception_4b/pool_proj -> inception_4b/pool_proj
I0403 14:50:57.667196 11199 net.cpp:141] Setting up inception_4b/pool_proj
I0403 14:50:57.667225 11199 net.cpp:148] Top shape: 24 64 14 14 (301056)
I0403 14:50:57.667243 11199 net.cpp:156] Memory required for data: 979019040
I0403 14:50:57.667261 11199 layer_factory.hpp:77] Creating layer inception_4b/relu_pool_proj
I0403 14:50:57.667284 11199 net.cpp:91] Creating Layer inception_4b/relu_pool_proj
I0403 14:50:57.667302 11199 net.cpp:425] inception_4b/relu_pool_proj <- inception_4b/pool_proj
I0403 14:50:57.667320 11199 net.cpp:386] inception_4b/relu_pool_proj -> inception_4b/pool_proj (in-place)
I0403 14:50:57.667506 11199 net.cpp:141] Setting up inception_4b/relu_pool_proj
I0403 14:50:57.667532 11199 net.cpp:148] Top shape: 24 64 14 14 (301056)
I0403 14:50:57.667547 11199 net.cpp:156] Memory required for data: 980223264
I0403 14:50:57.667562 11199 layer_factory.hpp:77] Creating layer inception_4b/output
I0403 14:50:57.667582 11199 net.cpp:91] Creating Layer inception_4b/output
I0403 14:50:57.667599 11199 net.cpp:425] inception_4b/output <- inception_4b/1x1
I0403 14:50:57.667618 11199 net.cpp:425] inception_4b/output <- inception_4b/3x3
I0403 14:50:57.667635 11199 net.cpp:425] inception_4b/output <- inception_4b/5x5
I0403 14:50:57.667652 11199 net.cpp:425] inception_4b/output <- inception_4b/pool_proj
I0403 14:50:57.667670 11199 net.cpp:399] inception_4b/output -> inception_4b/output
I0403 14:50:57.667719 11199 net.cpp:141] Setting up inception_4b/output
I0403 14:50:57.667743 11199 net.cpp:148] Top shape: 24 512 14 14 (2408448)
I0403 14:50:57.667759 11199 net.cpp:156] Memory required for data: 989857056
I0403 14:50:57.667789 11199 layer_factory.hpp:77] Creating layer inception_4b/output_inception_4b/output_0_split
I0403 14:50:57.667809 11199 net.cpp:91] Creating Layer inception_4b/output_inception_4b/output_0_split
I0403 14:50:57.667825 11199 net.cpp:425] inception_4b/output_inception_4b/output_0_split <- inception_4b/output
I0403 14:50:57.667846 11199 net.cpp:399] inception_4b/output_inception_4b/output_0_split -> inception_4b/output_inception_4b/output_0_split_0
I0403 14:50:57.667870 11199 net.cpp:399] inception_4b/output_inception_4b/output_0_split -> inception_4b/output_inception_4b/output_0_split_1
I0403 14:50:57.667891 11199 net.cpp:399] inception_4b/output_inception_4b/output_0_split -> inception_4b/output_inception_4b/output_0_split_2
I0403 14:50:57.667912 11199 net.cpp:399] inception_4b/output_inception_4b/output_0_split -> inception_4b/output_inception_4b/output_0_split_3
I0403 14:50:57.668004 11199 net.cpp:141] Setting up inception_4b/output_inception_4b/output_0_split
I0403 14:50:57.668030 11199 net.cpp:148] Top shape: 24 512 14 14 (2408448)
I0403 14:50:57.668045 11199 net.cpp:148] Top shape: 24 512 14 14 (2408448)
I0403 14:50:57.668061 11199 net.cpp:148] Top shape: 24 512 14 14 (2408448)
I0403 14:50:57.668077 11199 net.cpp:148] Top shape: 24 512 14 14 (2408448)
I0403 14:50:57.668092 11199 net.cpp:156] Memory required for data: 1028392224
I0403 14:50:57.668114 11199 layer_factory.hpp:77] Creating layer inception_4c/1x1
I0403 14:50:57.668138 11199 net.cpp:91] Creating Layer inception_4c/1x1
I0403 14:50:57.668156 11199 net.cpp:425] inception_4c/1x1 <- inception_4b/output_inception_4b/output_0_split_0
I0403 14:50:57.668179 11199 net.cpp:399] inception_4c/1x1 -> inception_4c/1x1
I0403 14:50:57.669669 11199 net.cpp:141] Setting up inception_4c/1x1
I0403 14:50:57.669703 11199 net.cpp:148] Top shape: 24 128 14 14 (602112)
I0403 14:50:57.669720 11199 net.cpp:156] Memory required for data: 1030800672
I0403 14:50:57.669739 11199 layer_factory.hpp:77] Creating layer inception_4c/relu_1x1
I0403 14:50:57.669757 11199 net.cpp:91] Creating Layer inception_4c/relu_1x1
I0403 14:50:57.669775 11199 net.cpp:425] inception_4c/relu_1x1 <- inception_4c/1x1
I0403 14:50:57.669795 11199 net.cpp:386] inception_4c/relu_1x1 -> inception_4c/1x1 (in-place)
I0403 14:50:57.669982 11199 net.cpp:141] Setting up inception_4c/relu_1x1
I0403 14:50:57.670009 11199 net.cpp:148] Top shape: 24 128 14 14 (602112)
I0403 14:50:57.670023 11199 net.cpp:156] Memory required for data: 1033209120
I0403 14:50:57.670039 11199 layer_factory.hpp:77] Creating layer inception_4c/3x3_reduce
I0403 14:50:57.670061 11199 net.cpp:91] Creating Layer inception_4c/3x3_reduce
I0403 14:50:57.670080 11199 net.cpp:425] inception_4c/3x3_reduce <- inception_4b/output_inception_4b/output_0_split_1
I0403 14:50:57.670109 11199 net.cpp:399] inception_4c/3x3_reduce -> inception_4c/3x3_reduce
I0403 14:50:57.672138 11199 net.cpp:141] Setting up inception_4c/3x3_reduce
I0403 14:50:57.672169 11199 net.cpp:148] Top shape: 24 128 14 14 (602112)
I0403 14:50:57.672185 11199 net.cpp:156] Memory required for data: 1035617568
I0403 14:50:57.672204 11199 layer_factory.hpp:77] Creating layer inception_4c/relu_3x3_reduce
I0403 14:50:57.672225 11199 net.cpp:91] Creating Layer inception_4c/relu_3x3_reduce
I0403 14:50:57.672242 11199 net.cpp:425] inception_4c/relu_3x3_reduce <- inception_4c/3x3_reduce
I0403 14:50:57.672263 11199 net.cpp:386] inception_4c/relu_3x3_reduce -> inception_4c/3x3_reduce (in-place)
I0403 14:50:57.672562 11199 net.cpp:141] Setting up inception_4c/relu_3x3_reduce
I0403 14:50:57.672590 11199 net.cpp:148] Top shape: 24 128 14 14 (602112)
I0403 14:50:57.672605 11199 net.cpp:156] Memory required for data: 1038026016
I0403 14:50:57.672619 11199 layer_factory.hpp:77] Creating layer inception_4c/3x3
I0403 14:50:57.672643 11199 net.cpp:91] Creating Layer inception_4c/3x3
I0403 14:50:57.672662 11199 net.cpp:425] inception_4c/3x3 <- inception_4c/3x3_reduce
I0403 14:50:57.672685 11199 net.cpp:399] inception_4c/3x3 -> inception_4c/3x3
I0403 14:50:57.676412 11199 net.cpp:141] Setting up inception_4c/3x3
I0403 14:50:57.676456 11199 net.cpp:148] Top shape: 24 256 14 14 (1204224)
I0403 14:50:57.676473 11199 net.cpp:156] Memory required for data: 1042842912
I0403 14:50:57.676506 11199 layer_factory.hpp:77] Creating layer inception_4c/relu_3x3
I0403 14:50:57.676529 11199 net.cpp:91] Creating Layer inception_4c/relu_3x3
I0403 14:50:57.676548 11199 net.cpp:425] inception_4c/relu_3x3 <- inception_4c/3x3
I0403 14:50:57.676565 11199 net.cpp:386] inception_4c/relu_3x3 -> inception_4c/3x3 (in-place)
I0403 14:50:57.676756 11199 net.cpp:141] Setting up inception_4c/relu_3x3
I0403 14:50:57.676782 11199 net.cpp:148] Top shape: 24 256 14 14 (1204224)
I0403 14:50:57.676797 11199 net.cpp:156] Memory required for data: 1047659808
I0403 14:50:57.676812 11199 layer_factory.hpp:77] Creating layer inception_4c/5x5_reduce
I0403 14:50:57.676834 11199 net.cpp:91] Creating Layer inception_4c/5x5_reduce
I0403 14:50:57.676852 11199 net.cpp:425] inception_4c/5x5_reduce <- inception_4b/output_inception_4b/output_0_split_2
I0403 14:50:57.676875 11199 net.cpp:399] inception_4c/5x5_reduce -> inception_4c/5x5_reduce
I0403 14:50:57.677992 11199 net.cpp:141] Setting up inception_4c/5x5_reduce
I0403 14:50:57.678022 11199 net.cpp:148] Top shape: 24 24 14 14 (112896)
I0403 14:50:57.678040 11199 net.cpp:156] Memory required for data: 1048111392
I0403 14:50:57.678058 11199 layer_factory.hpp:77] Creating layer inception_4c/relu_5x5_reduce
I0403 14:50:57.678079 11199 net.cpp:91] Creating Layer inception_4c/relu_5x5_reduce
I0403 14:50:57.678104 11199 net.cpp:425] inception_4c/relu_5x5_reduce <- inception_4c/5x5_reduce
I0403 14:50:57.678124 11199 net.cpp:386] inception_4c/relu_5x5_reduce -> inception_4c/5x5_reduce (in-place)
I0403 14:50:57.678313 11199 net.cpp:141] Setting up inception_4c/relu_5x5_reduce
I0403 14:50:57.678342 11199 net.cpp:148] Top shape: 24 24 14 14 (112896)
I0403 14:50:57.678357 11199 net.cpp:156] Memory required for data: 1048562976
I0403 14:50:57.678372 11199 layer_factory.hpp:77] Creating layer inception_4c/5x5
I0403 14:50:57.678396 11199 net.cpp:91] Creating Layer inception_4c/5x5
I0403 14:50:57.678414 11199 net.cpp:425] inception_4c/5x5 <- inception_4c/5x5_reduce
I0403 14:50:57.678433 11199 net.cpp:399] inception_4c/5x5 -> inception_4c/5x5
I0403 14:50:57.679710 11199 net.cpp:141] Setting up inception_4c/5x5
I0403 14:50:57.679738 11199 net.cpp:148] Top shape: 24 64 14 14 (301056)
I0403 14:50:57.679754 11199 net.cpp:156] Memory required for data: 1049767200
I0403 14:50:57.679772 11199 layer_factory.hpp:77] Creating layer inception_4c/relu_5x5
I0403 14:50:57.679795 11199 net.cpp:91] Creating Layer inception_4c/relu_5x5
I0403 14:50:57.679811 11199 net.cpp:425] inception_4c/relu_5x5 <- inception_4c/5x5
I0403 14:50:57.679829 11199 net.cpp:386] inception_4c/relu_5x5 -> inception_4c/5x5 (in-place)
I0403 14:50:57.680136 11199 net.cpp:141] Setting up inception_4c/relu_5x5
I0403 14:50:57.680166 11199 net.cpp:148] Top shape: 24 64 14 14 (301056)
I0403 14:50:57.680181 11199 net.cpp:156] Memory required for data: 1050971424
I0403 14:50:57.680196 11199 layer_factory.hpp:77] Creating layer inception_4c/pool
I0403 14:50:57.680215 11199 net.cpp:91] Creating Layer inception_4c/pool
I0403 14:50:57.680233 11199 net.cpp:425] inception_4c/pool <- inception_4b/output_inception_4b/output_0_split_3
I0403 14:50:57.680251 11199 net.cpp:399] inception_4c/pool -> inception_4c/pool
I0403 14:50:57.680321 11199 net.cpp:141] Setting up inception_4c/pool
I0403 14:50:57.680346 11199 net.cpp:148] Top shape: 24 512 14 14 (2408448)
I0403 14:50:57.680361 11199 net.cpp:156] Memory required for data: 1060605216
I0403 14:50:57.680376 11199 layer_factory.hpp:77] Creating layer inception_4c/pool_proj
I0403 14:50:57.680397 11199 net.cpp:91] Creating Layer inception_4c/pool_proj
I0403 14:50:57.680415 11199 net.cpp:425] inception_4c/pool_proj <- inception_4c/pool
I0403 14:50:57.680436 11199 net.cpp:399] inception_4c/pool_proj -> inception_4c/pool_proj
I0403 14:50:57.681685 11199 net.cpp:141] Setting up inception_4c/pool_proj
I0403 14:50:57.681715 11199 net.cpp:148] Top shape: 24 64 14 14 (301056)
I0403 14:50:57.681746 11199 net.cpp:156] Memory required for data: 1061809440
I0403 14:50:57.681766 11199 layer_factory.hpp:77] Creating layer inception_4c/relu_pool_proj
I0403 14:50:57.681788 11199 net.cpp:91] Creating Layer inception_4c/relu_pool_proj
I0403 14:50:57.681807 11199 net.cpp:425] inception_4c/relu_pool_proj <- inception_4c/pool_proj
I0403 14:50:57.681826 11199 net.cpp:386] inception_4c/relu_pool_proj -> inception_4c/pool_proj (in-place)
I0403 14:50:57.682015 11199 net.cpp:141] Setting up inception_4c/relu_pool_proj
I0403 14:50:57.682040 11199 net.cpp:148] Top shape: 24 64 14 14 (301056)
I0403 14:50:57.682055 11199 net.cpp:156] Memory required for data: 1063013664
I0403 14:50:57.682070 11199 layer_factory.hpp:77] Creating layer inception_4c/output
I0403 14:50:57.682090 11199 net.cpp:91] Creating Layer inception_4c/output
I0403 14:50:57.682122 11199 net.cpp:425] inception_4c/output <- inception_4c/1x1
I0403 14:50:57.682140 11199 net.cpp:425] inception_4c/output <- inception_4c/3x3
I0403 14:50:57.682157 11199 net.cpp:425] inception_4c/output <- inception_4c/5x5
I0403 14:50:57.682174 11199 net.cpp:425] inception_4c/output <- inception_4c/pool_proj
I0403 14:50:57.682191 11199 net.cpp:399] inception_4c/output -> inception_4c/output
I0403 14:50:57.682242 11199 net.cpp:141] Setting up inception_4c/output
I0403 14:50:57.682268 11199 net.cpp:148] Top shape: 24 512 14 14 (2408448)
I0403 14:50:57.682283 11199 net.cpp:156] Memory required for data: 1072647456
I0403 14:50:57.682298 11199 layer_factory.hpp:77] Creating layer inception_4c/output_inception_4c/output_0_split
I0403 14:50:57.682315 11199 net.cpp:91] Creating Layer inception_4c/output_inception_4c/output_0_split
I0403 14:50:57.682332 11199 net.cpp:425] inception_4c/output_inception_4c/output_0_split <- inception_4c/output
I0403 14:50:57.682350 11199 net.cpp:399] inception_4c/output_inception_4c/output_0_split -> inception_4c/output_inception_4c/output_0_split_0
I0403 14:50:57.682373 11199 net.cpp:399] inception_4c/output_inception_4c/output_0_split -> inception_4c/output_inception_4c/output_0_split_1
I0403 14:50:57.682394 11199 net.cpp:399] inception_4c/output_inception_4c/output_0_split -> inception_4c/output_inception_4c/output_0_split_2
I0403 14:50:57.682415 11199 net.cpp:399] inception_4c/output_inception_4c/output_0_split -> inception_4c/output_inception_4c/output_0_split_3
I0403 14:50:57.682503 11199 net.cpp:141] Setting up inception_4c/output_inception_4c/output_0_split
I0403 14:50:57.682528 11199 net.cpp:148] Top shape: 24 512 14 14 (2408448)
I0403 14:50:57.682544 11199 net.cpp:148] Top shape: 24 512 14 14 (2408448)
I0403 14:50:57.682559 11199 net.cpp:148] Top shape: 24 512 14 14 (2408448)
I0403 14:50:57.682574 11199 net.cpp:148] Top shape: 24 512 14 14 (2408448)
I0403 14:50:57.682590 11199 net.cpp:156] Memory required for data: 1111182624
I0403 14:50:57.682603 11199 layer_factory.hpp:77] Creating layer inception_4d/1x1
I0403 14:50:57.682626 11199 net.cpp:91] Creating Layer inception_4d/1x1
I0403 14:50:57.682646 11199 net.cpp:425] inception_4d/1x1 <- inception_4c/output_inception_4c/output_0_split_0
I0403 14:50:57.682667 11199 net.cpp:399] inception_4d/1x1 -> inception_4d/1x1
I0403 14:50:57.684084 11199 net.cpp:141] Setting up inception_4d/1x1
I0403 14:50:57.684120 11199 net.cpp:148] Top shape: 24 112 14 14 (526848)
I0403 14:50:57.684139 11199 net.cpp:156] Memory required for data: 1113290016
I0403 14:50:57.684157 11199 layer_factory.hpp:77] Creating layer inception_4d/relu_1x1
I0403 14:50:57.684175 11199 net.cpp:91] Creating Layer inception_4d/relu_1x1
I0403 14:50:57.684191 11199 net.cpp:425] inception_4d/relu_1x1 <- inception_4d/1x1
I0403 14:50:57.684212 11199 net.cpp:386] inception_4d/relu_1x1 -> inception_4d/1x1 (in-place)
I0403 14:50:57.684402 11199 net.cpp:141] Setting up inception_4d/relu_1x1
I0403 14:50:57.684428 11199 net.cpp:148] Top shape: 24 112 14 14 (526848)
I0403 14:50:57.684443 11199 net.cpp:156] Memory required for data: 1115397408
I0403 14:50:57.684459 11199 layer_factory.hpp:77] Creating layer inception_4d/3x3_reduce
I0403 14:50:57.684499 11199 net.cpp:91] Creating Layer inception_4d/3x3_reduce
I0403 14:50:57.684519 11199 net.cpp:425] inception_4d/3x3_reduce <- inception_4c/output_inception_4c/output_0_split_1
I0403 14:50:57.684540 11199 net.cpp:399] inception_4d/3x3_reduce -> inception_4d/3x3_reduce
I0403 14:50:57.686106 11199 net.cpp:141] Setting up inception_4d/3x3_reduce
I0403 14:50:57.686137 11199 net.cpp:148] Top shape: 24 144 14 14 (677376)
I0403 14:50:57.686154 11199 net.cpp:156] Memory required for data: 1118106912
I0403 14:50:57.686173 11199 layer_factory.hpp:77] Creating layer inception_4d/relu_3x3_reduce
I0403 14:50:57.686192 11199 net.cpp:91] Creating Layer inception_4d/relu_3x3_reduce
I0403 14:50:57.686206 11199 net.cpp:425] inception_4d/relu_3x3_reduce <- inception_4d/3x3_reduce
I0403 14:50:57.686224 11199 net.cpp:386] inception_4d/relu_3x3_reduce -> inception_4d/3x3_reduce (in-place)
I0403 14:50:57.686527 11199 net.cpp:141] Setting up inception_4d/relu_3x3_reduce
I0403 14:50:57.686558 11199 net.cpp:148] Top shape: 24 144 14 14 (677376)
I0403 14:50:57.686574 11199 net.cpp:156] Memory required for data: 1120816416
I0403 14:50:57.686592 11199 layer_factory.hpp:77] Creating layer inception_4d/3x3
I0403 14:50:57.686615 11199 net.cpp:91] Creating Layer inception_4d/3x3
I0403 14:50:57.686635 11199 net.cpp:425] inception_4d/3x3 <- inception_4d/3x3_reduce
I0403 14:50:57.686653 11199 net.cpp:399] inception_4d/3x3 -> inception_4d/3x3
I0403 14:50:57.691120 11199 net.cpp:141] Setting up inception_4d/3x3
I0403 14:50:57.691160 11199 net.cpp:148] Top shape: 24 288 14 14 (1354752)
I0403 14:50:57.691177 11199 net.cpp:156] Memory required for data: 1126235424
I0403 14:50:57.691196 11199 layer_factory.hpp:77] Creating layer inception_4d/relu_3x3
I0403 14:50:57.691215 11199 net.cpp:91] Creating Layer inception_4d/relu_3x3
I0403 14:50:57.691233 11199 net.cpp:425] inception_4d/relu_3x3 <- inception_4d/3x3
I0403 14:50:57.691253 11199 net.cpp:386] inception_4d/relu_3x3 -> inception_4d/3x3 (in-place)
I0403 14:50:57.691453 11199 net.cpp:141] Setting up inception_4d/relu_3x3
I0403 14:50:57.691479 11199 net.cpp:148] Top shape: 24 288 14 14 (1354752)
I0403 14:50:57.691495 11199 net.cpp:156] Memory required for data: 1131654432
I0403 14:50:57.691510 11199 layer_factory.hpp:77] Creating layer inception_4d/5x5_reduce
I0403 14:50:57.691534 11199 net.cpp:91] Creating Layer inception_4d/5x5_reduce
I0403 14:50:57.691551 11199 net.cpp:425] inception_4d/5x5_reduce <- inception_4c/output_inception_4c/output_0_split_2
I0403 14:50:57.691573 11199 net.cpp:399] inception_4d/5x5_reduce -> inception_4d/5x5_reduce
I0403 14:50:57.692771 11199 net.cpp:141] Setting up inception_4d/5x5_reduce
I0403 14:50:57.692801 11199 net.cpp:148] Top shape: 24 32 14 14 (150528)
I0403 14:50:57.692818 11199 net.cpp:156] Memory required for data: 1132256544
I0403 14:50:57.692836 11199 layer_factory.hpp:77] Creating layer inception_4d/relu_5x5_reduce
I0403 14:50:57.692855 11199 net.cpp:91] Creating Layer inception_4d/relu_5x5_reduce
I0403 14:50:57.692873 11199 net.cpp:425] inception_4d/relu_5x5_reduce <- inception_4d/5x5_reduce
I0403 14:50:57.692893 11199 net.cpp:386] inception_4d/relu_5x5_reduce -> inception_4d/5x5_reduce (in-place)
I0403 14:50:57.693087 11199 net.cpp:141] Setting up inception_4d/relu_5x5_reduce
I0403 14:50:57.693121 11199 net.cpp:148] Top shape: 24 32 14 14 (150528)
I0403 14:50:57.693136 11199 net.cpp:156] Memory required for data: 1132858656
I0403 14:50:57.693151 11199 layer_factory.hpp:77] Creating layer inception_4d/5x5
I0403 14:50:57.693174 11199 net.cpp:91] Creating Layer inception_4d/5x5
I0403 14:50:57.693193 11199 net.cpp:425] inception_4d/5x5 <- inception_4d/5x5_reduce
I0403 14:50:57.693215 11199 net.cpp:399] inception_4d/5x5 -> inception_4d/5x5
I0403 14:50:57.694736 11199 net.cpp:141] Setting up inception_4d/5x5
I0403 14:50:57.694766 11199 net.cpp:148] Top shape: 24 64 14 14 (301056)
I0403 14:50:57.694782 11199 net.cpp:156] Memory required for data: 1134062880
I0403 14:50:57.694802 11199 layer_factory.hpp:77] Creating layer inception_4d/relu_5x5
I0403 14:50:57.694839 11199 net.cpp:91] Creating Layer inception_4d/relu_5x5
I0403 14:50:57.694859 11199 net.cpp:425] inception_4d/relu_5x5 <- inception_4d/5x5
I0403 14:50:57.694876 11199 net.cpp:386] inception_4d/relu_5x5 -> inception_4d/5x5 (in-place)
I0403 14:50:57.695196 11199 net.cpp:141] Setting up inception_4d/relu_5x5
I0403 14:50:57.695225 11199 net.cpp:148] Top shape: 24 64 14 14 (301056)
I0403 14:50:57.695240 11199 net.cpp:156] Memory required for data: 1135267104
I0403 14:50:57.695255 11199 layer_factory.hpp:77] Creating layer inception_4d/pool
I0403 14:50:57.695276 11199 net.cpp:91] Creating Layer inception_4d/pool
I0403 14:50:57.695292 11199 net.cpp:425] inception_4d/pool <- inception_4c/output_inception_4c/output_0_split_3
I0403 14:50:57.695312 11199 net.cpp:399] inception_4d/pool -> inception_4d/pool
I0403 14:50:57.695382 11199 net.cpp:141] Setting up inception_4d/pool
I0403 14:50:57.695408 11199 net.cpp:148] Top shape: 24 512 14 14 (2408448)
I0403 14:50:57.695423 11199 net.cpp:156] Memory required for data: 1144900896
I0403 14:50:57.695438 11199 layer_factory.hpp:77] Creating layer inception_4d/pool_proj
I0403 14:50:57.695461 11199 net.cpp:91] Creating Layer inception_4d/pool_proj
I0403 14:50:57.695478 11199 net.cpp:425] inception_4d/pool_proj <- inception_4d/pool
I0403 14:50:57.695499 11199 net.cpp:399] inception_4d/pool_proj -> inception_4d/pool_proj
I0403 14:50:57.697317 11199 net.cpp:141] Setting up inception_4d/pool_proj
I0403 14:50:57.697347 11199 net.cpp:148] Top shape: 24 64 14 14 (301056)
I0403 14:50:57.697365 11199 net.cpp:156] Memory required for data: 1146105120
I0403 14:50:57.697383 11199 layer_factory.hpp:77] Creating layer inception_4d/relu_pool_proj
I0403 14:50:57.697402 11199 net.cpp:91] Creating Layer inception_4d/relu_pool_proj
I0403 14:50:57.697418 11199 net.cpp:425] inception_4d/relu_pool_proj <- inception_4d/pool_proj
I0403 14:50:57.697439 11199 net.cpp:386] inception_4d/relu_pool_proj -> inception_4d/pool_proj (in-place)
I0403 14:50:57.697628 11199 net.cpp:141] Setting up inception_4d/relu_pool_proj
I0403 14:50:57.697655 11199 net.cpp:148] Top shape: 24 64 14 14 (301056)
I0403 14:50:57.697670 11199 net.cpp:156] Memory required for data: 1147309344
I0403 14:50:57.697685 11199 layer_factory.hpp:77] Creating layer inception_4d/output
I0403 14:50:57.697705 11199 net.cpp:91] Creating Layer inception_4d/output
I0403 14:50:57.697722 11199 net.cpp:425] inception_4d/output <- inception_4d/1x1
I0403 14:50:57.697741 11199 net.cpp:425] inception_4d/output <- inception_4d/3x3
I0403 14:50:57.697757 11199 net.cpp:425] inception_4d/output <- inception_4d/5x5
I0403 14:50:57.697773 11199 net.cpp:425] inception_4d/output <- inception_4d/pool_proj
I0403 14:50:57.697791 11199 net.cpp:399] inception_4d/output -> inception_4d/output
I0403 14:50:57.697844 11199 net.cpp:141] Setting up inception_4d/output
I0403 14:50:57.697868 11199 net.cpp:148] Top shape: 24 528 14 14 (2483712)
I0403 14:50:57.697883 11199 net.cpp:156] Memory required for data: 1157244192
I0403 14:50:57.697898 11199 layer_factory.hpp:77] Creating layer inception_4d/output_inception_4d/output_0_split
I0403 14:50:57.697917 11199 net.cpp:91] Creating Layer inception_4d/output_inception_4d/output_0_split
I0403 14:50:57.697933 11199 net.cpp:425] inception_4d/output_inception_4d/output_0_split <- inception_4d/output
I0403 14:50:57.697955 11199 net.cpp:399] inception_4d/output_inception_4d/output_0_split -> inception_4d/output_inception_4d/output_0_split_0
I0403 14:50:57.697976 11199 net.cpp:399] inception_4d/output_inception_4d/output_0_split -> inception_4d/output_inception_4d/output_0_split_1
I0403 14:50:57.697998 11199 net.cpp:399] inception_4d/output_inception_4d/output_0_split -> inception_4d/output_inception_4d/output_0_split_2
I0403 14:50:57.698019 11199 net.cpp:399] inception_4d/output_inception_4d/output_0_split -> inception_4d/output_inception_4d/output_0_split_3
I0403 14:50:57.698040 11199 net.cpp:399] inception_4d/output_inception_4d/output_0_split -> inception_4d/output_inception_4d/output_0_split_4
I0403 14:50:57.698153 11199 net.cpp:141] Setting up inception_4d/output_inception_4d/output_0_split
I0403 14:50:57.698190 11199 net.cpp:148] Top shape: 24 528 14 14 (2483712)
I0403 14:50:57.698211 11199 net.cpp:148] Top shape: 24 528 14 14 (2483712)
I0403 14:50:57.698230 11199 net.cpp:148] Top shape: 24 528 14 14 (2483712)
I0403 14:50:57.698246 11199 net.cpp:148] Top shape: 24 528 14 14 (2483712)
I0403 14:50:57.698262 11199 net.cpp:148] Top shape: 24 528 14 14 (2483712)
I0403 14:50:57.698276 11199 net.cpp:156] Memory required for data: 1206918432
I0403 14:50:57.698292 11199 layer_factory.hpp:77] Creating layer loss2/ave_pool
I0403 14:50:57.698309 11199 net.cpp:91] Creating Layer loss2/ave_pool
I0403 14:50:57.698326 11199 net.cpp:425] loss2/ave_pool <- inception_4d/output_inception_4d/output_0_split_0
I0403 14:50:57.698348 11199 net.cpp:399] loss2/ave_pool -> loss2/ave_pool
I0403 14:50:57.698673 11199 net.cpp:141] Setting up loss2/ave_pool
I0403 14:50:57.698701 11199 net.cpp:148] Top shape: 24 528 4 4 (202752)
I0403 14:50:57.698717 11199 net.cpp:156] Memory required for data: 1207729440
I0403 14:50:57.698732 11199 layer_factory.hpp:77] Creating layer loss2/conv
I0403 14:50:57.698755 11199 net.cpp:91] Creating Layer loss2/conv
I0403 14:50:57.698776 11199 net.cpp:425] loss2/conv <- loss2/ave_pool
I0403 14:50:57.698797 11199 net.cpp:399] loss2/conv -> loss2/conv
I0403 14:50:57.700846 11199 net.cpp:141] Setting up loss2/conv
I0403 14:50:57.700878 11199 net.cpp:148] Top shape: 24 128 4 4 (49152)
I0403 14:50:57.700896 11199 net.cpp:156] Memory required for data: 1207926048
I0403 14:50:57.700914 11199 layer_factory.hpp:77] Creating layer loss2/relu_conv
I0403 14:50:57.700937 11199 net.cpp:91] Creating Layer loss2/relu_conv
I0403 14:50:57.700954 11199 net.cpp:425] loss2/relu_conv <- loss2/conv
I0403 14:50:57.700973 11199 net.cpp:386] loss2/relu_conv -> loss2/conv (in-place)
I0403 14:50:57.701292 11199 net.cpp:141] Setting up loss2/relu_conv
I0403 14:50:57.701320 11199 net.cpp:148] Top shape: 24 128 4 4 (49152)
I0403 14:50:57.701338 11199 net.cpp:156] Memory required for data: 1208122656
I0403 14:50:57.701354 11199 layer_factory.hpp:77] Creating layer loss2/fc
I0403 14:50:57.701376 11199 net.cpp:91] Creating Layer loss2/fc
I0403 14:50:57.701395 11199 net.cpp:425] loss2/fc <- loss2/conv
I0403 14:50:57.701419 11199 net.cpp:399] loss2/fc -> loss2/fc
I0403 14:50:57.720211 11199 net.cpp:141] Setting up loss2/fc
I0403 14:50:57.720274 11199 net.cpp:148] Top shape: 24 1024 (24576)
I0403 14:50:57.720290 11199 net.cpp:156] Memory required for data: 1208220960
I0403 14:50:57.720311 11199 layer_factory.hpp:77] Creating layer loss2/relu_fc
I0403 14:50:57.720332 11199 net.cpp:91] Creating Layer loss2/relu_fc
I0403 14:50:57.720350 11199 net.cpp:425] loss2/relu_fc <- loss2/fc
I0403 14:50:57.720372 11199 net.cpp:386] loss2/relu_fc -> loss2/fc (in-place)
I0403 14:50:57.720731 11199 net.cpp:141] Setting up loss2/relu_fc
I0403 14:50:57.720760 11199 net.cpp:148] Top shape: 24 1024 (24576)
I0403 14:50:57.720777 11199 net.cpp:156] Memory required for data: 1208319264
I0403 14:50:57.720793 11199 layer_factory.hpp:77] Creating layer loss2/drop_fc
I0403 14:50:57.720811 11199 net.cpp:91] Creating Layer loss2/drop_fc
I0403 14:50:57.720829 11199 net.cpp:425] loss2/drop_fc <- loss2/fc
I0403 14:50:57.720849 11199 net.cpp:386] loss2/drop_fc -> loss2/fc (in-place)
I0403 14:50:57.720903 11199 net.cpp:141] Setting up loss2/drop_fc
I0403 14:50:57.720932 11199 net.cpp:148] Top shape: 24 1024 (24576)
I0403 14:50:57.720947 11199 net.cpp:156] Memory required for data: 1208417568
I0403 14:50:57.720963 11199 layer_factory.hpp:77] Creating layer loss2/classifier_plantvillage
I0403 14:50:57.720983 11199 net.cpp:91] Creating Layer loss2/classifier_plantvillage
I0403 14:50:57.720999 11199 net.cpp:425] loss2/classifier_plantvillage <- loss2/fc
I0403 14:50:57.721021 11199 net.cpp:399] loss2/classifier_plantvillage -> loss2/classifier_plantvillage
I0403 14:50:57.721467 11199 net.cpp:141] Setting up loss2/classifier_plantvillage
I0403 14:50:57.721498 11199 net.cpp:148] Top shape: 24 38 (912)
I0403 14:50:57.721540 11199 net.cpp:156] Memory required for data: 1208421216
I0403 14:50:57.721562 11199 layer_factory.hpp:77] Creating layer loss2/classifier_plantvillage_loss2/classifier_plantvillage_0_split
I0403 14:50:57.721582 11199 net.cpp:91] Creating Layer loss2/classifier_plantvillage_loss2/classifier_plantvillage_0_split
I0403 14:50:57.721598 11199 net.cpp:425] loss2/classifier_plantvillage_loss2/classifier_plantvillage_0_split <- loss2/classifier_plantvillage
I0403 14:50:57.721617 11199 net.cpp:399] loss2/classifier_plantvillage_loss2/classifier_plantvillage_0_split -> loss2/classifier_plantvillage_loss2/classifier_plantvillage_0_split_0
I0403 14:50:57.721638 11199 net.cpp:399] loss2/classifier_plantvillage_loss2/classifier_plantvillage_0_split -> loss2/classifier_plantvillage_loss2/classifier_plantvillage_0_split_1
I0403 14:50:57.721664 11199 net.cpp:399] loss2/classifier_plantvillage_loss2/classifier_plantvillage_0_split -> loss2/classifier_plantvillage_loss2/classifier_plantvillage_0_split_2
I0403 14:50:57.721750 11199 net.cpp:141] Setting up loss2/classifier_plantvillage_loss2/classifier_plantvillage_0_split
I0403 14:50:57.721776 11199 net.cpp:148] Top shape: 24 38 (912)
I0403 14:50:57.721793 11199 net.cpp:148] Top shape: 24 38 (912)
I0403 14:50:57.721810 11199 net.cpp:148] Top shape: 24 38 (912)
I0403 14:50:57.721824 11199 net.cpp:156] Memory required for data: 1208432160
I0403 14:50:57.721839 11199 layer_factory.hpp:77] Creating layer inception_4e/1x1
I0403 14:50:57.721863 11199 net.cpp:91] Creating Layer inception_4e/1x1
I0403 14:50:57.721881 11199 net.cpp:425] inception_4e/1x1 <- inception_4d/output_inception_4d/output_0_split_1
I0403 14:50:57.721904 11199 net.cpp:399] inception_4e/1x1 -> inception_4e/1x1
I0403 14:50:57.723888 11199 net.cpp:141] Setting up inception_4e/1x1
I0403 14:50:57.723919 11199 net.cpp:148] Top shape: 24 256 14 14 (1204224)
I0403 14:50:57.723937 11199 net.cpp:156] Memory required for data: 1213249056
I0403 14:50:57.723954 11199 layer_factory.hpp:77] Creating layer inception_4e/relu_1x1
I0403 14:50:57.723978 11199 net.cpp:91] Creating Layer inception_4e/relu_1x1
I0403 14:50:57.723996 11199 net.cpp:425] inception_4e/relu_1x1 <- inception_4e/1x1
I0403 14:50:57.724016 11199 net.cpp:386] inception_4e/relu_1x1 -> inception_4e/1x1 (in-place)
I0403 14:50:57.724335 11199 net.cpp:141] Setting up inception_4e/relu_1x1
I0403 14:50:57.724364 11199 net.cpp:148] Top shape: 24 256 14 14 (1204224)
I0403 14:50:57.724380 11199 net.cpp:156] Memory required for data: 1218065952
I0403 14:50:57.724396 11199 layer_factory.hpp:77] Creating layer inception_4e/3x3_reduce
I0403 14:50:57.724421 11199 net.cpp:91] Creating Layer inception_4e/3x3_reduce
I0403 14:50:57.724441 11199 net.cpp:425] inception_4e/3x3_reduce <- inception_4d/output_inception_4d/output_0_split_2
I0403 14:50:57.724462 11199 net.cpp:399] inception_4e/3x3_reduce -> inception_4e/3x3_reduce
I0403 14:50:57.726721 11199 net.cpp:141] Setting up inception_4e/3x3_reduce
I0403 14:50:57.726752 11199 net.cpp:148] Top shape: 24 160 14 14 (752640)
I0403 14:50:57.726768 11199 net.cpp:156] Memory required for data: 1221076512
I0403 14:50:57.726788 11199 layer_factory.hpp:77] Creating layer inception_4e/relu_3x3_reduce
I0403 14:50:57.726809 11199 net.cpp:91] Creating Layer inception_4e/relu_3x3_reduce
I0403 14:50:57.726830 11199 net.cpp:425] inception_4e/relu_3x3_reduce <- inception_4e/3x3_reduce
I0403 14:50:57.726850 11199 net.cpp:386] inception_4e/relu_3x3_reduce -> inception_4e/3x3_reduce (in-place)
I0403 14:50:57.727048 11199 net.cpp:141] Setting up inception_4e/relu_3x3_reduce
I0403 14:50:57.727077 11199 net.cpp:148] Top shape: 24 160 14 14 (752640)
I0403 14:50:57.727104 11199 net.cpp:156] Memory required for data: 1224087072
I0403 14:50:57.727124 11199 layer_factory.hpp:77] Creating layer inception_4e/3x3
I0403 14:50:57.727149 11199 net.cpp:91] Creating Layer inception_4e/3x3
I0403 14:50:57.727167 11199 net.cpp:425] inception_4e/3x3 <- inception_4e/3x3_reduce
I0403 14:50:57.727188 11199 net.cpp:399] inception_4e/3x3 -> inception_4e/3x3
I0403 14:50:57.732516 11199 net.cpp:141] Setting up inception_4e/3x3
I0403 14:50:57.732564 11199 net.cpp:148] Top shape: 24 320 14 14 (1505280)
I0403 14:50:57.732583 11199 net.cpp:156] Memory required for data: 1230108192
I0403 14:50:57.732604 11199 layer_factory.hpp:77] Creating layer inception_4e/relu_3x3
I0403 14:50:57.732622 11199 net.cpp:91] Creating Layer inception_4e/relu_3x3
I0403 14:50:57.732638 11199 net.cpp:425] inception_4e/relu_3x3 <- inception_4e/3x3
I0403 14:50:57.732659 11199 net.cpp:386] inception_4e/relu_3x3 -> inception_4e/3x3 (in-place)
I0403 14:50:57.732980 11199 net.cpp:141] Setting up inception_4e/relu_3x3
I0403 14:50:57.733011 11199 net.cpp:148] Top shape: 24 320 14 14 (1505280)
I0403 14:50:57.733028 11199 net.cpp:156] Memory required for data: 1236129312
I0403 14:50:57.733044 11199 layer_factory.hpp:77] Creating layer inception_4e/5x5_reduce
I0403 14:50:57.733068 11199 net.cpp:91] Creating Layer inception_4e/5x5_reduce
I0403 14:50:57.733088 11199 net.cpp:425] inception_4e/5x5_reduce <- inception_4d/output_inception_4d/output_0_split_3
I0403 14:50:57.733119 11199 net.cpp:399] inception_4e/5x5_reduce -> inception_4e/5x5_reduce
I0403 14:50:57.734266 11199 net.cpp:141] Setting up inception_4e/5x5_reduce
I0403 14:50:57.734297 11199 net.cpp:148] Top shape: 24 32 14 14 (150528)
I0403 14:50:57.734314 11199 net.cpp:156] Memory required for data: 1236731424
I0403 14:50:57.734333 11199 layer_factory.hpp:77] Creating layer inception_4e/relu_5x5_reduce
I0403 14:50:57.734355 11199 net.cpp:91] Creating Layer inception_4e/relu_5x5_reduce
I0403 14:50:57.734374 11199 net.cpp:425] inception_4e/relu_5x5_reduce <- inception_4e/5x5_reduce
I0403 14:50:57.734392 11199 net.cpp:386] inception_4e/relu_5x5_reduce -> inception_4e/5x5_reduce (in-place)
I0403 14:50:57.734711 11199 net.cpp:141] Setting up inception_4e/relu_5x5_reduce
I0403 14:50:57.734740 11199 net.cpp:148] Top shape: 24 32 14 14 (150528)
I0403 14:50:57.734756 11199 net.cpp:156] Memory required for data: 1237333536
I0403 14:50:57.734771 11199 layer_factory.hpp:77] Creating layer inception_4e/5x5
I0403 14:50:57.734812 11199 net.cpp:91] Creating Layer inception_4e/5x5
I0403 14:50:57.734833 11199 net.cpp:425] inception_4e/5x5 <- inception_4e/5x5_reduce
I0403 14:50:57.734855 11199 net.cpp:399] inception_4e/5x5 -> inception_4e/5x5
I0403 14:50:57.736825 11199 net.cpp:141] Setting up inception_4e/5x5
I0403 14:50:57.736856 11199 net.cpp:148] Top shape: 24 128 14 14 (602112)
I0403 14:50:57.736873 11199 net.cpp:156] Memory required for data: 1239741984
I0403 14:50:57.736893 11199 layer_factory.hpp:77] Creating layer inception_4e/relu_5x5
I0403 14:50:57.736912 11199 net.cpp:91] Creating Layer inception_4e/relu_5x5
I0403 14:50:57.736928 11199 net.cpp:425] inception_4e/relu_5x5 <- inception_4e/5x5
I0403 14:50:57.736949 11199 net.cpp:386] inception_4e/relu_5x5 -> inception_4e/5x5 (in-place)
I0403 14:50:57.737166 11199 net.cpp:141] Setting up inception_4e/relu_5x5
I0403 14:50:57.737193 11199 net.cpp:148] Top shape: 24 128 14 14 (602112)
I0403 14:50:57.737210 11199 net.cpp:156] Memory required for data: 1242150432
I0403 14:50:57.737224 11199 layer_factory.hpp:77] Creating layer inception_4e/pool
I0403 14:50:57.737247 11199 net.cpp:91] Creating Layer inception_4e/pool
I0403 14:50:57.737267 11199 net.cpp:425] inception_4e/pool <- inception_4d/output_inception_4d/output_0_split_4
I0403 14:50:57.737285 11199 net.cpp:399] inception_4e/pool -> inception_4e/pool
I0403 14:50:57.737360 11199 net.cpp:141] Setting up inception_4e/pool
I0403 14:50:57.737387 11199 net.cpp:148] Top shape: 24 528 14 14 (2483712)
I0403 14:50:57.737402 11199 net.cpp:156] Memory required for data: 1252085280
I0403 14:50:57.737419 11199 layer_factory.hpp:77] Creating layer inception_4e/pool_proj
I0403 14:50:57.737442 11199 net.cpp:91] Creating Layer inception_4e/pool_proj
I0403 14:50:57.737462 11199 net.cpp:425] inception_4e/pool_proj <- inception_4e/pool
I0403 14:50:57.737484 11199 net.cpp:399] inception_4e/pool_proj -> inception_4e/pool_proj
I0403 14:50:57.739084 11199 net.cpp:141] Setting up inception_4e/pool_proj
I0403 14:50:57.739133 11199 net.cpp:148] Top shape: 24 128 14 14 (602112)
I0403 14:50:57.739151 11199 net.cpp:156] Memory required for data: 1254493728
I0403 14:50:57.739171 11199 layer_factory.hpp:77] Creating layer inception_4e/relu_pool_proj
I0403 14:50:57.739190 11199 net.cpp:91] Creating Layer inception_4e/relu_pool_proj
I0403 14:50:57.739207 11199 net.cpp:425] inception_4e/relu_pool_proj <- inception_4e/pool_proj
I0403 14:50:57.739228 11199 net.cpp:386] inception_4e/relu_pool_proj -> inception_4e/pool_proj (in-place)
I0403 14:50:57.739540 11199 net.cpp:141] Setting up inception_4e/relu_pool_proj
I0403 14:50:57.739569 11199 net.cpp:148] Top shape: 24 128 14 14 (602112)
I0403 14:50:57.739588 11199 net.cpp:156] Memory required for data: 1256902176
I0403 14:50:57.739604 11199 layer_factory.hpp:77] Creating layer inception_4e/output
I0403 14:50:57.739624 11199 net.cpp:91] Creating Layer inception_4e/output
I0403 14:50:57.739641 11199 net.cpp:425] inception_4e/output <- inception_4e/1x1
I0403 14:50:57.739660 11199 net.cpp:425] inception_4e/output <- inception_4e/3x3
I0403 14:50:57.739677 11199 net.cpp:425] inception_4e/output <- inception_4e/5x5
I0403 14:50:57.739694 11199 net.cpp:425] inception_4e/output <- inception_4e/pool_proj
I0403 14:50:57.739714 11199 net.cpp:399] inception_4e/output -> inception_4e/output
I0403 14:50:57.739769 11199 net.cpp:141] Setting up inception_4e/output
I0403 14:50:57.739799 11199 net.cpp:148] Top shape: 24 832 14 14 (3913728)
I0403 14:50:57.739816 11199 net.cpp:156] Memory required for data: 1272557088
I0403 14:50:57.739833 11199 layer_factory.hpp:77] Creating layer pool4/3x3_s2
I0403 14:50:57.739855 11199 net.cpp:91] Creating Layer pool4/3x3_s2
I0403 14:50:57.739879 11199 net.cpp:425] pool4/3x3_s2 <- inception_4e/output
I0403 14:50:57.739902 11199 net.cpp:399] pool4/3x3_s2 -> pool4/3x3_s2
I0403 14:50:57.739977 11199 net.cpp:141] Setting up pool4/3x3_s2
I0403 14:50:57.740015 11199 net.cpp:148] Top shape: 24 832 7 7 (978432)
I0403 14:50:57.740031 11199 net.cpp:156] Memory required for data: 1276470816
I0403 14:50:57.740051 11199 layer_factory.hpp:77] Creating layer pool4/3x3_s2_pool4/3x3_s2_0_split
I0403 14:50:57.740078 11199 net.cpp:91] Creating Layer pool4/3x3_s2_pool4/3x3_s2_0_split
I0403 14:50:57.740104 11199 net.cpp:425] pool4/3x3_s2_pool4/3x3_s2_0_split <- pool4/3x3_s2
I0403 14:50:57.740131 11199 net.cpp:399] pool4/3x3_s2_pool4/3x3_s2_0_split -> pool4/3x3_s2_pool4/3x3_s2_0_split_0
I0403 14:50:57.740154 11199 net.cpp:399] pool4/3x3_s2_pool4/3x3_s2_0_split -> pool4/3x3_s2_pool4/3x3_s2_0_split_1
I0403 14:50:57.740176 11199 net.cpp:399] pool4/3x3_s2_pool4/3x3_s2_0_split -> pool4/3x3_s2_pool4/3x3_s2_0_split_2
I0403 14:50:57.740201 11199 net.cpp:399] pool4/3x3_s2_pool4/3x3_s2_0_split -> pool4/3x3_s2_pool4/3x3_s2_0_split_3
I0403 14:50:57.740299 11199 net.cpp:141] Setting up pool4/3x3_s2_pool4/3x3_s2_0_split
I0403 14:50:57.740324 11199 net.cpp:148] Top shape: 24 832 7 7 (978432)
I0403 14:50:57.740341 11199 net.cpp:148] Top shape: 24 832 7 7 (978432)
I0403 14:50:57.740358 11199 net.cpp:148] Top shape: 24 832 7 7 (978432)
I0403 14:50:57.740375 11199 net.cpp:148] Top shape: 24 832 7 7 (978432)
I0403 14:50:57.740388 11199 net.cpp:156] Memory required for data: 1292125728
I0403 14:50:57.740403 11199 layer_factory.hpp:77] Creating layer inception_5a/1x1
I0403 14:50:57.740434 11199 net.cpp:91] Creating Layer inception_5a/1x1
I0403 14:50:57.740453 11199 net.cpp:425] inception_5a/1x1 <- pool4/3x3_s2_pool4/3x3_s2_0_split_0
I0403 14:50:57.740475 11199 net.cpp:399] inception_5a/1x1 -> inception_5a/1x1
I0403 14:50:57.743540 11199 net.cpp:141] Setting up inception_5a/1x1
I0403 14:50:57.743571 11199 net.cpp:148] Top shape: 24 256 7 7 (301056)
I0403 14:50:57.743588 11199 net.cpp:156] Memory required for data: 1293329952
I0403 14:50:57.743607 11199 layer_factory.hpp:77] Creating layer inception_5a/relu_1x1
I0403 14:50:57.743629 11199 net.cpp:91] Creating Layer inception_5a/relu_1x1
I0403 14:50:57.743648 11199 net.cpp:425] inception_5a/relu_1x1 <- inception_5a/1x1
I0403 14:50:57.743667 11199 net.cpp:386] inception_5a/relu_1x1 -> inception_5a/1x1 (in-place)
I0403 14:50:57.744004 11199 net.cpp:141] Setting up inception_5a/relu_1x1
I0403 14:50:57.744032 11199 net.cpp:148] Top shape: 24 256 7 7 (301056)
I0403 14:50:57.744050 11199 net.cpp:156] Memory required for data: 1294534176
I0403 14:50:57.744065 11199 layer_factory.hpp:77] Creating layer inception_5a/3x3_reduce
I0403 14:50:57.744089 11199 net.cpp:91] Creating Layer inception_5a/3x3_reduce
I0403 14:50:57.744117 11199 net.cpp:425] inception_5a/3x3_reduce <- pool4/3x3_s2_pool4/3x3_s2_0_split_1
I0403 14:50:57.744143 11199 net.cpp:399] inception_5a/3x3_reduce -> inception_5a/3x3_reduce
I0403 14:50:57.746804 11199 net.cpp:141] Setting up inception_5a/3x3_reduce
I0403 14:50:57.746836 11199 net.cpp:148] Top shape: 24 160 7 7 (188160)
I0403 14:50:57.746853 11199 net.cpp:156] Memory required for data: 1295286816
I0403 14:50:57.746875 11199 layer_factory.hpp:77] Creating layer inception_5a/relu_3x3_reduce
I0403 14:50:57.746896 11199 net.cpp:91] Creating Layer inception_5a/relu_3x3_reduce
I0403 14:50:57.746917 11199 net.cpp:425] inception_5a/relu_3x3_reduce <- inception_5a/3x3_reduce
I0403 14:50:57.746938 11199 net.cpp:386] inception_5a/relu_3x3_reduce -> inception_5a/3x3_reduce (in-place)
I0403 14:50:57.747158 11199 net.cpp:141] Setting up inception_5a/relu_3x3_reduce
I0403 14:50:57.747186 11199 net.cpp:148] Top shape: 24 160 7 7 (188160)
I0403 14:50:57.747201 11199 net.cpp:156] Memory required for data: 1296039456
I0403 14:50:57.747217 11199 layer_factory.hpp:77] Creating layer inception_5a/3x3
I0403 14:50:57.747241 11199 net.cpp:91] Creating Layer inception_5a/3x3
I0403 14:50:57.747282 11199 net.cpp:425] inception_5a/3x3 <- inception_5a/3x3_reduce
I0403 14:50:57.747308 11199 net.cpp:399] inception_5a/3x3 -> inception_5a/3x3
I0403 14:50:57.752774 11199 net.cpp:141] Setting up inception_5a/3x3
I0403 14:50:57.752807 11199 net.cpp:148] Top shape: 24 320 7 7 (376320)
I0403 14:50:57.752827 11199 net.cpp:156] Memory required for data: 1297544736
I0403 14:50:57.752847 11199 layer_factory.hpp:77] Creating layer inception_5a/relu_3x3
I0403 14:50:57.752869 11199 net.cpp:91] Creating Layer inception_5a/relu_3x3
I0403 14:50:57.752887 11199 net.cpp:425] inception_5a/relu_3x3 <- inception_5a/3x3
I0403 14:50:57.752907 11199 net.cpp:386] inception_5a/relu_3x3 -> inception_5a/3x3 (in-place)
I0403 14:50:57.753227 11199 net.cpp:141] Setting up inception_5a/relu_3x3
I0403 14:50:57.753257 11199 net.cpp:148] Top shape: 24 320 7 7 (376320)
I0403 14:50:57.753274 11199 net.cpp:156] Memory required for data: 1299050016
I0403 14:50:57.753305 11199 layer_factory.hpp:77] Creating layer inception_5a/5x5_reduce
I0403 14:50:57.753335 11199 net.cpp:91] Creating Layer inception_5a/5x5_reduce
I0403 14:50:57.753356 11199 net.cpp:425] inception_5a/5x5_reduce <- pool4/3x3_s2_pool4/3x3_s2_0_split_2
I0403 14:50:57.753381 11199 net.cpp:399] inception_5a/5x5_reduce -> inception_5a/5x5_reduce
I0403 14:50:57.754631 11199 net.cpp:141] Setting up inception_5a/5x5_reduce
I0403 14:50:57.754664 11199 net.cpp:148] Top shape: 24 32 7 7 (37632)
I0403 14:50:57.754683 11199 net.cpp:156] Memory required for data: 1299200544
I0403 14:50:57.754703 11199 layer_factory.hpp:77] Creating layer inception_5a/relu_5x5_reduce
I0403 14:50:57.754722 11199 net.cpp:91] Creating Layer inception_5a/relu_5x5_reduce
I0403 14:50:57.754747 11199 net.cpp:425] inception_5a/relu_5x5_reduce <- inception_5a/5x5_reduce
I0403 14:50:57.754767 11199 net.cpp:386] inception_5a/relu_5x5_reduce -> inception_5a/5x5_reduce (in-place)
I0403 14:50:57.755090 11199 net.cpp:141] Setting up inception_5a/relu_5x5_reduce
I0403 14:50:57.755126 11199 net.cpp:148] Top shape: 24 32 7 7 (37632)
I0403 14:50:57.755143 11199 net.cpp:156] Memory required for data: 1299351072
I0403 14:50:57.755167 11199 layer_factory.hpp:77] Creating layer inception_5a/5x5
I0403 14:50:57.755199 11199 net.cpp:91] Creating Layer inception_5a/5x5
I0403 14:50:57.755228 11199 net.cpp:425] inception_5a/5x5 <- inception_5a/5x5_reduce
I0403 14:50:57.755255 11199 net.cpp:399] inception_5a/5x5 -> inception_5a/5x5
I0403 14:50:57.757105 11199 net.cpp:141] Setting up inception_5a/5x5
I0403 14:50:57.757153 11199 net.cpp:148] Top shape: 24 128 7 7 (150528)
I0403 14:50:57.757174 11199 net.cpp:156] Memory required for data: 1299953184
I0403 14:50:57.757192 11199 layer_factory.hpp:77] Creating layer inception_5a/relu_5x5
I0403 14:50:57.757216 11199 net.cpp:91] Creating Layer inception_5a/relu_5x5
I0403 14:50:57.757239 11199 net.cpp:425] inception_5a/relu_5x5 <- inception_5a/5x5
I0403 14:50:57.757258 11199 net.cpp:386] inception_5a/relu_5x5 -> inception_5a/5x5 (in-place)
I0403 14:50:57.757462 11199 net.cpp:141] Setting up inception_5a/relu_5x5
I0403 14:50:57.757493 11199 net.cpp:148] Top shape: 24 128 7 7 (150528)
I0403 14:50:57.757509 11199 net.cpp:156] Memory required for data: 1300555296
I0403 14:50:57.757529 11199 layer_factory.hpp:77] Creating layer inception_5a/pool
I0403 14:50:57.757551 11199 net.cpp:91] Creating Layer inception_5a/pool
I0403 14:50:57.757568 11199 net.cpp:425] inception_5a/pool <- pool4/3x3_s2_pool4/3x3_s2_0_split_3
I0403 14:50:57.757588 11199 net.cpp:399] inception_5a/pool -> inception_5a/pool
I0403 14:50:57.757668 11199 net.cpp:141] Setting up inception_5a/pool
I0403 14:50:57.757694 11199 net.cpp:148] Top shape: 24 832 7 7 (978432)
I0403 14:50:57.757710 11199 net.cpp:156] Memory required for data: 1304469024
I0403 14:50:57.757726 11199 layer_factory.hpp:77] Creating layer inception_5a/pool_proj
I0403 14:50:57.757751 11199 net.cpp:91] Creating Layer inception_5a/pool_proj
I0403 14:50:57.757774 11199 net.cpp:425] inception_5a/pool_proj <- inception_5a/pool
I0403 14:50:57.757798 11199 net.cpp:399] inception_5a/pool_proj -> inception_5a/pool_proj
I0403 14:50:57.760256 11199 net.cpp:141] Setting up inception_5a/pool_proj
I0403 14:50:57.760290 11199 net.cpp:148] Top shape: 24 128 7 7 (150528)
I0403 14:50:57.760311 11199 net.cpp:156] Memory required for data: 1305071136
I0403 14:50:57.760330 11199 layer_factory.hpp:77] Creating layer inception_5a/relu_pool_proj
I0403 14:50:57.760365 11199 net.cpp:91] Creating Layer inception_5a/relu_pool_proj
I0403 14:50:57.760385 11199 net.cpp:425] inception_5a/relu_pool_proj <- inception_5a/pool_proj
I0403 14:50:57.760406 11199 net.cpp:386] inception_5a/relu_pool_proj -> inception_5a/pool_proj (in-place)
I0403 14:50:57.760727 11199 net.cpp:141] Setting up inception_5a/relu_pool_proj
I0403 14:50:57.760757 11199 net.cpp:148] Top shape: 24 128 7 7 (150528)
I0403 14:50:57.760782 11199 net.cpp:156] Memory required for data: 1305673248
I0403 14:50:57.760797 11199 layer_factory.hpp:77] Creating layer inception_5a/output
I0403 14:50:57.760815 11199 net.cpp:91] Creating Layer inception_5a/output
I0403 14:50:57.760833 11199 net.cpp:425] inception_5a/output <- inception_5a/1x1
I0403 14:50:57.760851 11199 net.cpp:425] inception_5a/output <- inception_5a/3x3
I0403 14:50:57.760869 11199 net.cpp:425] inception_5a/output <- inception_5a/5x5
I0403 14:50:57.760885 11199 net.cpp:425] inception_5a/output <- inception_5a/pool_proj
I0403 14:50:57.760907 11199 net.cpp:399] inception_5a/output -> inception_5a/output
I0403 14:50:57.760960 11199 net.cpp:141] Setting up inception_5a/output
I0403 14:50:57.760994 11199 net.cpp:148] Top shape: 24 832 7 7 (978432)
I0403 14:50:57.761009 11199 net.cpp:156] Memory required for data: 1309586976
I0403 14:50:57.761025 11199 layer_factory.hpp:77] Creating layer inception_5a/output_inception_5a/output_0_split
I0403 14:50:57.761044 11199 net.cpp:91] Creating Layer inception_5a/output_inception_5a/output_0_split
I0403 14:50:57.761061 11199 net.cpp:425] inception_5a/output_inception_5a/output_0_split <- inception_5a/output
I0403 14:50:57.761102 11199 net.cpp:399] inception_5a/output_inception_5a/output_0_split -> inception_5a/output_inception_5a/output_0_split_0
I0403 14:50:57.761137 11199 net.cpp:399] inception_5a/output_inception_5a/output_0_split -> inception_5a/output_inception_5a/output_0_split_1
I0403 14:50:57.761158 11199 net.cpp:399] inception_5a/output_inception_5a/output_0_split -> inception_5a/output_inception_5a/output_0_split_2
I0403 14:50:57.761180 11199 net.cpp:399] inception_5a/output_inception_5a/output_0_split -> inception_5a/output_inception_5a/output_0_split_3
I0403 14:50:57.761298 11199 net.cpp:141] Setting up inception_5a/output_inception_5a/output_0_split
I0403 14:50:57.761324 11199 net.cpp:148] Top shape: 24 832 7 7 (978432)
I0403 14:50:57.761343 11199 net.cpp:148] Top shape: 24 832 7 7 (978432)
I0403 14:50:57.761360 11199 net.cpp:148] Top shape: 24 832 7 7 (978432)
I0403 14:50:57.761376 11199 net.cpp:148] Top shape: 24 832 7 7 (978432)
I0403 14:50:57.761392 11199 net.cpp:156] Memory required for data: 1325241888
I0403 14:50:57.761409 11199 layer_factory.hpp:77] Creating layer inception_5b/1x1
I0403 14:50:57.761432 11199 net.cpp:91] Creating Layer inception_5b/1x1
I0403 14:50:57.761452 11199 net.cpp:425] inception_5b/1x1 <- inception_5a/output_inception_5a/output_0_split_0
I0403 14:50:57.761474 11199 net.cpp:399] inception_5b/1x1 -> inception_5b/1x1
I0403 14:50:57.765525 11199 net.cpp:141] Setting up inception_5b/1x1
I0403 14:50:57.765558 11199 net.cpp:148] Top shape: 24 384 7 7 (451584)
I0403 14:50:57.765574 11199 net.cpp:156] Memory required for data: 1327048224
I0403 14:50:57.765604 11199 layer_factory.hpp:77] Creating layer inception_5b/relu_1x1
I0403 14:50:57.765622 11199 net.cpp:91] Creating Layer inception_5b/relu_1x1
I0403 14:50:57.765640 11199 net.cpp:425] inception_5b/relu_1x1 <- inception_5b/1x1
I0403 14:50:57.765661 11199 net.cpp:386] inception_5b/relu_1x1 -> inception_5b/1x1 (in-place)
I0403 14:50:57.765997 11199 net.cpp:141] Setting up inception_5b/relu_1x1
I0403 14:50:57.766026 11199 net.cpp:148] Top shape: 24 384 7 7 (451584)
I0403 14:50:57.766041 11199 net.cpp:156] Memory required for data: 1328854560
I0403 14:50:57.766060 11199 layer_factory.hpp:77] Creating layer inception_5b/3x3_reduce
I0403 14:50:57.766083 11199 net.cpp:91] Creating Layer inception_5b/3x3_reduce
I0403 14:50:57.766110 11199 net.cpp:425] inception_5b/3x3_reduce <- inception_5a/output_inception_5a/output_0_split_1
I0403 14:50:57.766135 11199 net.cpp:399] inception_5b/3x3_reduce -> inception_5b/3x3_reduce
I0403 14:50:57.768975 11199 net.cpp:141] Setting up inception_5b/3x3_reduce
I0403 14:50:57.769008 11199 net.cpp:148] Top shape: 24 192 7 7 (225792)
I0403 14:50:57.769026 11199 net.cpp:156] Memory required for data: 1329757728
I0403 14:50:57.769044 11199 layer_factory.hpp:77] Creating layer inception_5b/relu_3x3_reduce
I0403 14:50:57.769063 11199 net.cpp:91] Creating Layer inception_5b/relu_3x3_reduce
I0403 14:50:57.769083 11199 net.cpp:425] inception_5b/relu_3x3_reduce <- inception_5b/3x3_reduce
I0403 14:50:57.769111 11199 net.cpp:386] inception_5b/relu_3x3_reduce -> inception_5b/3x3_reduce (in-place)
I0403 14:50:57.769315 11199 net.cpp:141] Setting up inception_5b/relu_3x3_reduce
I0403 14:50:57.769343 11199 net.cpp:148] Top shape: 24 192 7 7 (225792)
I0403 14:50:57.769359 11199 net.cpp:156] Memory required for data: 1330660896
I0403 14:50:57.769376 11199 layer_factory.hpp:77] Creating layer inception_5b/3x3
I0403 14:50:57.769399 11199 net.cpp:91] Creating Layer inception_5b/3x3
I0403 14:50:57.769421 11199 net.cpp:425] inception_5b/3x3 <- inception_5b/3x3_reduce
I0403 14:50:57.769450 11199 net.cpp:399] inception_5b/3x3 -> inception_5b/3x3
I0403 14:50:57.776666 11199 net.cpp:141] Setting up inception_5b/3x3
I0403 14:50:57.776700 11199 net.cpp:148] Top shape: 24 384 7 7 (451584)
I0403 14:50:57.776716 11199 net.cpp:156] Memory required for data: 1332467232
I0403 14:50:57.776736 11199 layer_factory.hpp:77] Creating layer inception_5b/relu_3x3
I0403 14:50:57.776762 11199 net.cpp:91] Creating Layer inception_5b/relu_3x3
I0403 14:50:57.776782 11199 net.cpp:425] inception_5b/relu_3x3 <- inception_5b/3x3
I0403 14:50:57.776801 11199 net.cpp:386] inception_5b/relu_3x3 -> inception_5b/3x3 (in-place)
I0403 14:50:57.777130 11199 net.cpp:141] Setting up inception_5b/relu_3x3
I0403 14:50:57.777160 11199 net.cpp:148] Top shape: 24 384 7 7 (451584)
I0403 14:50:57.777178 11199 net.cpp:156] Memory required for data: 1334273568
I0403 14:50:57.777195 11199 layer_factory.hpp:77] Creating layer inception_5b/5x5_reduce
I0403 14:50:57.777240 11199 net.cpp:91] Creating Layer inception_5b/5x5_reduce
I0403 14:50:57.777262 11199 net.cpp:425] inception_5b/5x5_reduce <- inception_5a/output_inception_5a/output_0_split_2
I0403 14:50:57.777287 11199 net.cpp:399] inception_5b/5x5_reduce -> inception_5b/5x5_reduce
I0403 14:50:57.778655 11199 net.cpp:141] Setting up inception_5b/5x5_reduce
I0403 14:50:57.778686 11199 net.cpp:148] Top shape: 24 48 7 7 (56448)
I0403 14:50:57.778722 11199 net.cpp:156] Memory required for data: 1334499360
I0403 14:50:57.778741 11199 layer_factory.hpp:77] Creating layer inception_5b/relu_5x5_reduce
I0403 14:50:57.778759 11199 net.cpp:91] Creating Layer inception_5b/relu_5x5_reduce
I0403 14:50:57.778776 11199 net.cpp:425] inception_5b/relu_5x5_reduce <- inception_5b/5x5_reduce
I0403 14:50:57.778801 11199 net.cpp:386] inception_5b/relu_5x5_reduce -> inception_5b/5x5_reduce (in-place)
I0403 14:50:57.779222 11199 net.cpp:141] Setting up inception_5b/relu_5x5_reduce
I0403 14:50:57.779250 11199 net.cpp:148] Top shape: 24 48 7 7 (56448)
I0403 14:50:57.779266 11199 net.cpp:156] Memory required for data: 1334725152
I0403 14:50:57.779283 11199 layer_factory.hpp:77] Creating layer inception_5b/5x5
I0403 14:50:57.779304 11199 net.cpp:91] Creating Layer inception_5b/5x5
I0403 14:50:57.779323 11199 net.cpp:425] inception_5b/5x5 <- inception_5b/5x5_reduce
I0403 14:50:57.779343 11199 net.cpp:399] inception_5b/5x5 -> inception_5b/5x5
I0403 14:50:57.781569 11199 net.cpp:141] Setting up inception_5b/5x5
I0403 14:50:57.781599 11199 net.cpp:148] Top shape: 24 128 7 7 (150528)
I0403 14:50:57.781625 11199 net.cpp:156] Memory required for data: 1335327264
I0403 14:50:57.781646 11199 layer_factory.hpp:77] Creating layer inception_5b/relu_5x5
I0403 14:50:57.781666 11199 net.cpp:91] Creating Layer inception_5b/relu_5x5
I0403 14:50:57.781684 11199 net.cpp:425] inception_5b/relu_5x5 <- inception_5b/5x5
I0403 14:50:57.781703 11199 net.cpp:386] inception_5b/relu_5x5 -> inception_5b/5x5 (in-place)
I0403 14:50:57.781911 11199 net.cpp:141] Setting up inception_5b/relu_5x5
I0403 14:50:57.781939 11199 net.cpp:148] Top shape: 24 128 7 7 (150528)
I0403 14:50:57.781955 11199 net.cpp:156] Memory required for data: 1335929376
I0403 14:50:57.781971 11199 layer_factory.hpp:77] Creating layer inception_5b/pool
I0403 14:50:57.782001 11199 net.cpp:91] Creating Layer inception_5b/pool
I0403 14:50:57.782019 11199 net.cpp:425] inception_5b/pool <- inception_5a/output_inception_5a/output_0_split_3
I0403 14:50:57.782042 11199 net.cpp:399] inception_5b/pool -> inception_5b/pool
I0403 14:50:57.782142 11199 net.cpp:141] Setting up inception_5b/pool
I0403 14:50:57.782171 11199 net.cpp:148] Top shape: 24 832 7 7 (978432)
I0403 14:50:57.782187 11199 net.cpp:156] Memory required for data: 1339843104
I0403 14:50:57.782204 11199 layer_factory.hpp:77] Creating layer inception_5b/pool_proj
I0403 14:50:57.782227 11199 net.cpp:91] Creating Layer inception_5b/pool_proj
I0403 14:50:57.782246 11199 net.cpp:425] inception_5b/pool_proj <- inception_5b/pool
I0403 14:50:57.782269 11199 net.cpp:399] inception_5b/pool_proj -> inception_5b/pool_proj
I0403 14:50:57.784749 11199 net.cpp:141] Setting up inception_5b/pool_proj
I0403 14:50:57.784781 11199 net.cpp:148] Top shape: 24 128 7 7 (150528)
I0403 14:50:57.784802 11199 net.cpp:156] Memory required for data: 1340445216
I0403 14:50:57.784827 11199 layer_factory.hpp:77] Creating layer inception_5b/relu_pool_proj
I0403 14:50:57.784857 11199 net.cpp:91] Creating Layer inception_5b/relu_pool_proj
I0403 14:50:57.784891 11199 net.cpp:425] inception_5b/relu_pool_proj <- inception_5b/pool_proj
I0403 14:50:57.784935 11199 net.cpp:386] inception_5b/relu_pool_proj -> inception_5b/pool_proj (in-place)
I0403 14:50:57.785261 11199 net.cpp:141] Setting up inception_5b/relu_pool_proj
I0403 14:50:57.785296 11199 net.cpp:148] Top shape: 24 128 7 7 (150528)
I0403 14:50:57.785316 11199 net.cpp:156] Memory required for data: 1341047328
I0403 14:50:57.785333 11199 layer_factory.hpp:77] Creating layer inception_5b/output
I0403 14:50:57.785352 11199 net.cpp:91] Creating Layer inception_5b/output
I0403 14:50:57.785387 11199 net.cpp:425] inception_5b/output <- inception_5b/1x1
I0403 14:50:57.785406 11199 net.cpp:425] inception_5b/output <- inception_5b/3x3
I0403 14:50:57.785426 11199 net.cpp:425] inception_5b/output <- inception_5b/5x5
I0403 14:50:57.785455 11199 net.cpp:425] inception_5b/output <- inception_5b/pool_proj
I0403 14:50:57.785476 11199 net.cpp:399] inception_5b/output -> inception_5b/output
I0403 14:50:57.785534 11199 net.cpp:141] Setting up inception_5b/output
I0403 14:50:57.785564 11199 net.cpp:148] Top shape: 24 1024 7 7 (1204224)
I0403 14:50:57.785581 11199 net.cpp:156] Memory required for data: 1345864224
I0403 14:50:57.785606 11199 layer_factory.hpp:77] Creating layer pool5/7x7_s1
I0403 14:50:57.785665 11199 net.cpp:91] Creating Layer pool5/7x7_s1
I0403 14:50:57.785704 11199 net.cpp:425] pool5/7x7_s1 <- inception_5b/output
I0403 14:50:57.785749 11199 net.cpp:399] pool5/7x7_s1 -> pool5/7x7_s1
I0403 14:50:57.785982 11199 net.cpp:141] Setting up pool5/7x7_s1
I0403 14:50:57.786011 11199 net.cpp:148] Top shape: 24 1024 1 1 (24576)
I0403 14:50:57.786026 11199 net.cpp:156] Memory required for data: 1345962528
I0403 14:50:57.786042 11199 layer_factory.hpp:77] Creating layer pool5/drop_7x7_s1
I0403 14:50:57.786070 11199 net.cpp:91] Creating Layer pool5/drop_7x7_s1
I0403 14:50:57.786101 11199 net.cpp:425] pool5/drop_7x7_s1 <- pool5/7x7_s1
I0403 14:50:57.786133 11199 net.cpp:386] pool5/drop_7x7_s1 -> pool5/7x7_s1 (in-place)
I0403 14:50:57.786190 11199 net.cpp:141] Setting up pool5/drop_7x7_s1
I0403 14:50:57.786229 11199 net.cpp:148] Top shape: 24 1024 1 1 (24576)
I0403 14:50:57.786253 11199 net.cpp:156] Memory required for data: 1346060832
I0403 14:50:57.786273 11199 layer_factory.hpp:77] Creating layer loss3/classifier_plantvillage
I0403 14:50:57.786295 11199 net.cpp:91] Creating Layer loss3/classifier_plantvillage
I0403 14:50:57.786329 11199 net.cpp:425] loss3/classifier_plantvillage <- pool5/7x7_s1
I0403 14:50:57.786352 11199 net.cpp:399] loss3/classifier_plantvillage -> loss3/classifier_plantvillage
I0403 14:50:57.786814 11199 net.cpp:141] Setting up loss3/classifier_plantvillage
I0403 14:50:57.786841 11199 net.cpp:148] Top shape: 24 38 (912)
I0403 14:50:57.786857 11199 net.cpp:156] Memory required for data: 1346064480
I0403 14:50:57.786876 11199 layer_factory.hpp:77] Creating layer loss3/classifier_plantvillage_loss3/classifier_plantvillage_0_split
I0403 14:50:57.786902 11199 net.cpp:91] Creating Layer loss3/classifier_plantvillage_loss3/classifier_plantvillage_0_split
I0403 14:50:57.786921 11199 net.cpp:425] loss3/classifier_plantvillage_loss3/classifier_plantvillage_0_split <- loss3/classifier_plantvillage
I0403 14:50:57.786942 11199 net.cpp:399] loss3/classifier_plantvillage_loss3/classifier_plantvillage_0_split -> loss3/classifier_plantvillage_loss3/classifier_plantvillage_0_split_0
I0403 14:50:57.786965 11199 net.cpp:399] loss3/classifier_plantvillage_loss3/classifier_plantvillage_0_split -> loss3/classifier_plantvillage_loss3/classifier_plantvillage_0_split_1
I0403 14:50:57.786988 11199 net.cpp:399] loss3/classifier_plantvillage_loss3/classifier_plantvillage_0_split -> loss3/classifier_plantvillage_loss3/classifier_plantvillage_0_split_2
I0403 14:50:57.787010 11199 net.cpp:399] loss3/classifier_plantvillage_loss3/classifier_plantvillage_0_split -> loss3/classifier_plantvillage_loss3/classifier_plantvillage_0_split_3
I0403 14:50:57.787130 11199 net.cpp:141] Setting up loss3/classifier_plantvillage_loss3/classifier_plantvillage_0_split
I0403 14:50:57.787168 11199 net.cpp:148] Top shape: 24 38 (912)
I0403 14:50:57.787189 11199 net.cpp:148] Top shape: 24 38 (912)
I0403 14:50:57.787206 11199 net.cpp:148] Top shape: 24 38 (912)
I0403 14:50:57.787221 11199 net.cpp:148] Top shape: 24 38 (912)
I0403 14:50:57.787235 11199 net.cpp:156] Memory required for data: 1346079072
I0403 14:50:57.787251 11199 layer_factory.hpp:77] Creating layer loss1/loss
I0403 14:50:57.787274 11199 net.cpp:91] Creating Layer loss1/loss
I0403 14:50:57.787298 11199 net.cpp:425] loss1/loss <- loss1/classifier_plantvillage_loss1/classifier_plantvillage_0_split_0
I0403 14:50:57.787335 11199 net.cpp:425] loss1/loss <- label_data_1_split_0
…
