…
I0403 14:38:08.677372 10901 net.cpp:313] The NetState phase (1) differed from the phase (0) specified by a rule in layer data
I0403 14:38:08.678464 10901 net.cpp:49] Initializing net from parameters: 
state {
  phase: TEST
}
layer {
  name: "data"
  type: "Data"
  top: "data"
  top: "label"
  include {
    phase: TEST
  }
  transform_param {
    mirror: false
    crop_size: 224
    mean_file: "/home/mohanty/data/final_dataset/lmdb/grayscale-60-40/mean.binaryproto"
  }
  data_param {
    source: "/home/mohanty/data/final_dataset/lmdb/grayscale-60-40/test_db"
    batch_size: 24
    backend: LMDB
  }
}
layer {
  name: "conv1/7x7_s2"
  type: "Convolution"
  bottom: "data"
  top: "conv1/7x7_s2"
  param {
    lr_mult: 1
    decay_mult: 1
  }
  param {
    lr_mult: 2
    decay_mult: 0
  }
  convolution_param {
    num_output: 64
    pad: 3
    kernel_size: 7
    stride: 2
    weight_filler {
      type: "xavier"
      std: 0.1
    }
    bias_filler {
      type: "constant"
      value: 0.2
    }
  }
}
layer {
  name: "conv1/relu_7x7"
  type: "ReLU"
  bottom: "conv1/7x7_s2"
  top: "conv1/7x7_s2"
}
layer {
  name: "pool1/3x3_s2"
  type: "Pooling"
  bottom: "conv1/7x7_s2"
  top: "pool1/3x3_s2"
  pooling_param {
    pool: MAX
    kernel_size: 3
    stride: 2
  }
}
layer {
  name: "pool1/norm1"
  type: "LRN"
  bottom: "pool1/3x3_s2"
  top: "pool1/norm1"
  lrn_param {
    local_size: 5
    alpha: 0.0001
    beta: 0.75
  }
}
layer {
  name: "conv2/3x3_reduce"
  type: "Convolution"
  bottom: "pool1/norm1"
  top: "conv2/3x3_reduce"
  param {
    lr_mult: 1
    decay_mult: 1
  }
  param {
    lr_mult: 2
    decay_mult: 0
  }
  convolution_param {
    num_output: 64
    kernel_size: 1
    weight_filler {
      type: "xavier"
      std: 0.1
    }
    bias_filler {
      type: "constant"
      value: 0.2
    }
  }
}
layer {
  name: "conv2/relu_3x3_reduce"
  type: "ReLU"
  bottom: "conv2/3x3_reduce"
  top: "conv2/3x3_reduce"
}
layer {
  name: "conv2/3x3"
  type: "Convolution"
  bottom: "conv2/3x3_reduce"
  top: "conv2/3x3"
  param {
    lr_mult: 1
    decay_mult: 1
  }
  param {
    lr_mult: 2
    decay_mult: 0
  }
  convolution_param {
    num_output: 192
    pad: 1
    kernel_size: 3
    weight_filler {
      type: "xavier"
      std: 0.03
    }
    bias_filler {
      type: "constant"
      value: 0.2
    }
  }
}
layer {
  name: "conv2/relu_3x3"
  type: "ReLU"
  bottom: "conv2/3x3"
  top: "conv2/3x3"
}
layer {
  name: "conv2/norm2"
  type: "LRN"
  bottom: "conv2/3x3"
  top: "conv2/norm2"
  lrn_param {
    local_size: 5
    alpha: 0.0001
    beta: 0.75
  }
}
layer {
  name: "pool2/3x3_s2"
  type: "Pooling"
  bottom: "conv2/norm2"
  top: "pool2/3x3_s2"
  pooling_param {
    pool: MAX
    kernel_size: 3
    stride: 2
  }
}
layer {
  name: "inception_3a/1x1"
  type: "Convolution"
  bottom: "pool2/3x3_s2"
  top: "inception_3a/1x1"
  param {
    lr_mult: 1
    decay_mult: 1
  }
  param {
    lr_mult: 2
    decay_mult: 0
  }
  convolution_param {
    num_output: 64
    kernel_size: 1
    weight_filler {
      type: "xavier"
      std: 0.03
    }
    bias_filler {
      type: "constant"
      value: 0.2
    }
  }
}
layer {
  name: "inception_3a/relu_1x1"
  type: "ReLU"
  bottom: "inception_3a/1x1"
  top: "inception_3a/1x1"
}
layer {
  name: "inception_3a/3x3_reduce"
  type: "Convolution"
  bottom: "pool2/3x3_s2"
  top: "inception_3a/3x3_reduce"
  param {
    lr_mult: 1
    decay_mult: 1
  }
  param {
    lr_mult: 2
    decay_mult: 0
  }
  convolution_param {
    num_output: 96
    kernel_size: 1
    weight_filler {
      type: "xavier"
      std: 0.09
    }
    bias_filler {
      type: "constant"
      value: 0.2
    }
  }
}
layer {
  name: "inception_3a/relu_3x3_reduce"
  type: "ReLU"
  bottom: "inception_3a/3x3_reduce"
  top: "inception_3a/3x3_reduce"
}
layer {
  name: "inception_3a/3x3"
  type: "Convolution"
  bottom: "inception_3a/3x3_reduce"
  top: "inception_3a/3x3"
  param {
    lr_mult: 1
    decay_mult: 1
  }
  param {
    lr_mult: 2
    decay_mult: 0
  }
  convolution_param {
    num_output: 128
    pad: 1
    kernel_size: 3
    weight_filler {
      type: "xavier"
      std: 0.03
    }
    bias_filler {
      type: "constant"
      value: 0.2
    }
  }
}
layer {
  name: "inception_3a/relu_3x3"
  type: "ReLU"
  bottom: "inception_3a/3x3"
  top: "inception_3a/3x3"
}
layer {
  name: "inception_3a/5x5_reduce"
  type: "Convolution"
  bottom: "pool2/3x3_s2"
  top: "inception_3a/5x5_reduce"
  param {
    lr_mult: 1
    decay_mult: 1
  }
  param {
    lr_mult: 2
    decay_mult: 0
  }
  convolution_param {
    num_output: 16
    kernel_size: 1
    weight_filler {
      type: "xavier"
      std: 0.2
    }
    bias_filler {
      type: "constant"
      value: 0.2
    }
  }
}
layer {
  name: "inception_3a/relu_5x5_reduce"
  type: "ReLU"
  bottom: "inception_3a/5x5_reduce"
  top: "inception_3a/5x5_reduce"
}
layer {
  name: "inception_3a/5x5"
  type: "Convolution"
  bottom: "inception_3a/5x5_reduce"
  top: "inception_3a/5x5"
  param {
    lr_mult: 1
    decay_mult: 1
  }
  param {
    lr_mult: 2
    decay_mult: 0
  }
  convolution_param {
    num_output: 32
    pad: 2
    kernel_size: 5
    weight_filler {
      type: "xavier"
      std: 0.03
    }
    bias_filler {
      type: "constant"
      value: 0.2
    }
  }
}
layer {
  name: "inception_3a/relu_5x5"
  type: "ReLU"
  bottom: "inception_3a/5x5"
  top: "inception_3a/5x5"
}
layer {
  name: "inception_3a/pool"
  type: "Pooling"
  bottom: "pool2/3x3_s2"
  top: "inception_3a/pool"
  pooling_param {
    pool: MAX
    kernel_size: 3
    stride: 1
    pad: 1
  }
}
layer {
  name: "inception_3a/pool_proj"
  type: "Convolution"
  bottom: "inception_3a/pool"
  top: "inception_3a/pool_proj"
  param {
    lr_mult: 1
    decay_mult: 1
  }
  param {
    lr_mult: 2
    decay_mult: 0
  }
  convolution_param {
    num_output: 32
    kernel_size: 1
    weight_filler {
      type: "xavier"
      std: 0.1
    }
    bias_filler {
      type: "constant"
      value: 0.2
    }
  }
}
layer {
  name: "inception_3a/relu_pool_proj"
  type: "ReLU"
  bottom: "inception_3a/pool_proj"
  top: "inception_3a/pool_proj"
}
layer {
  name: "inception_3a/output"
  type: "Concat"
  bottom: "inception_3a/1x1"
  bottom: "inception_3a/3x3"
  bottom: "inception_3a/5x5"
  bottom: "inception_3a/pool_proj"
  top: "inception_3a/output"
}
layer {
  name: "inception_3b/1x1"
  type: "Convolution"
  bottom: "inception_3a/output"
  top: "inception_3b/1x1"
  param {
    lr_mult: 1
    decay_mult: 1
  }
  param {
    lr_mult: 2
    decay_mult: 0
  }
  convolution_param {
    num_output: 128
    kernel_size: 1
    weight_filler {
      type: "xavier"
      std: 0.03
    }
    bias_filler {
      type: "constant"
      value: 0.2
    }
  }
}
layer {
  name: "inception_3b/relu_1x1"
  type: "ReLU"
  bottom: "inception_3b/1x1"
  top: "inception_3b/1x1"
}
layer {
  name: "inception_3b/3x3_reduce"
  type: "Convolution"
  bottom: "inception_3a/output"
  top: "inception_3b/3x3_reduce"
  param {
    lr_mult: 1
    decay_mult: 1
  }
  param {
    lr_mult: 2
    decay_mult: 0
  }
  convolution_param {
    num_output: 128
    kernel_size: 1
    weight_filler {
      type: "xavier"
      std: 0.09
    }
    bias_filler {
      type: "constant"
      value: 0.2
    }
  }
}
layer {
  name: "inception_3b/relu_3x3_reduce"
  type: "ReLU"
  bottom: "inception_3b/3x3_reduce"
  top: "inception_3b/3x3_reduce"
}
layer {
  name: "inception_3b/3x3"
  type: "Convolution"
  bottom: "inception_3b/3x3_reduce"
  top: "inception_3b/3x3"
  param {
    lr_mult: 1
    decay_mult: 1
  }
  param {
    lr_mult: 2
    decay_mult: 0
  }
  convolution_param {
    num_output: 192
    pad: 1
    kernel_size: 3
    weight_filler {
      type: "xavier"
      std: 0.03
    }
    bias_filler {
      type: "constant"
      value: 0.2
    }
  }
}
layer {
  name: "inception_3b/relu_3x3"
  type: "ReLU"
  bottom: "inception_3b/3x3"
  top: "inception_3b/3x3"
}
layer {
  name: "inception_3b/5x5_reduce"
  type: "Convolution"
  bottom: "inception_3a/output"
  top: "inception_3b/5x5_reduce"
  param {
    lr_mult: 1
    decay_mult: 1
  }
  param {
    lr_mult: 2
    decay_mult: 0
  }
  convolution_param {
    num_output: 32
    kernel_size: 1
    weight_filler {
      type: "xavier"
      std: 0.2
    }
    bias_filler {
      type: "constant"
      value: 0.2
    }
  }
}
layer {
  name: "inception_3b/relu_5x5_reduce"
  type: "ReLU"
  bottom: "inception_3b/5x5_reduce"
  top: "inception_3b/5x5_reduce"
}
layer {
  name: "inception_3b/5x5"
  type: "Convolution"
  bottom: "inception_3b/5x5_reduce"
  top: "inception_3b/5x5"
  param {
    lr_mult: 1
    decay_mult: 1
  }
  param {
    lr_mult: 2
    decay_mult: 0
  }
  convolution_param {
    num_output: 96
    pad: 2
    kernel_size: 5
    weight_filler {
      type: "xavier"
      std: 0.03
    }
    bias_filler {
      type: "constant"
      value: 0.2
    }
  }
}
layer {
  name: "inception_3b/relu_5x5"
  type: "ReLU"
  bottom: "inception_3b/5x5"
  top: "inception_3b/5x5"
}
layer {
  name: "inception_3b/pool"
  type: "Pooling"
  bottom: "inception_3a/output"
  top: "inception_3b/pool"
  pooling_param {
    pool: MAX
    kernel_size: 3
    stride: 1
    pad: 1
  }
}
layer {
  name: "inception_3b/pool_proj"
  type: "Convolution"
  bottom: "inception_3b/pool"
  top: "inception_3b/pool_proj"
  param {
    lr_mult: 1
    decay_mult: 1
  }
  param {
    lr_mult: 2
    decay_mult: 0
  }
  convolution_param {
    num_output: 64
    kernel_size: 1
    weight_filler {
      type: "xavier"
      std: 0.1
    }
    bias_filler {
      type: "constant"
      value: 0.2
    }
  }
}
layer {
  name: "inception_3b/relu_pool_proj"
  type: "ReLU"
  bottom: "inception_3b/pool_proj"
  top: "inception_3b/pool_proj"
}
layer {
  name: "inception_3b/output"
  type: "Concat"
  bottom: "inception_3b/1x1"
  bottom: "inception_3b/3x3"
  bottom: "inception_3b/5x5"
  bottom: "inception_3b/pool_proj"
  top: "inception_3b/output"
}
layer {
  name: "pool3/3x3_s2"
  type: "Pooling"
  bottom: "inception_3b/output"
  top: "pool3/3x3_s2"
  pooling_param {
    pool: MAX
    kernel_size: 3
    stride: 2
  }
}
layer {
  name: "inception_4a/1x1"
  type: "Convolution"
  bottom: "pool3/3x3_s2"
  top: "inception_4a/1x1"
  param {
    lr_mult: 1
    decay_mult: 1
  }
  param {
    lr_mult: 2
    decay_mult: 0
  }
  convolution_param {
    num_output: 192
    kernel_size: 1
    weight_filler {
      type: "xavier"
      std: 0.03
    }
    bias_filler {
      type: "constant"
      value: 0.2
    }
  }
}
layer {
  name: "inception_4a/relu_1x1"
  type: "ReLU"
  bottom: "inception_4a/1x1"
  top: "inception_4a/1x1"
}
layer {
  name: "inception_4a/3x3_reduce"
  type: "Convolution"
  bottom: "pool3/3x3_s2"
  top: "inception_4a/3x3_reduce"
  param {
    lr_mult: 1
    decay_mult: 1
  }
  param {
    lr_mult: 2
    decay_mult: 0
  }
  convolution_param {
    num_output: 96
    kernel_size: 1
    weight_filler {
      type: "xavier"
      std: 0.09
    }
    bias_filler {
      type: "constant"
      value: 0.2
    }
  }
}
layer {
  name: "inception_4a/relu_3x3_reduce"
  type: "ReLU"
  bottom: "inception_4a/3x3_reduce"
  top: "inception_4a/3x3_reduce"
}
layer {
  name: "inception_4a/3x3"
  type: "Convolution"
  bottom: "inception_4a/3x3_reduce"
  top: "inception_4a/3x3"
  param {
    lr_mult: 1
    decay_mult: 1
  }
  param {
    lr_mult: 2
    decay_mult: 0
  }
  convolution_param {
    num_output: 208
    pad: 1
    kernel_size: 3
    weight_filler {
      type: "xavier"
      std: 0.03
    }
    bias_filler {
      type: "constant"
      value: 0.2
    }
  }
}
layer {
  name: "inception_4a/relu_3x3"
  type: "ReLU"
  bottom: "inception_4a/3x3"
  top: "inception_4a/3x3"
}
layer {
  name: "inception_4a/5x5_reduce"
  type: "Convolution"
  bottom: "pool3/3x3_s2"
  top: "inception_4a/5x5_reduce"
  param {
    lr_mult: 1
    decay_mult: 1
  }
  param {
    lr_mult: 2
    decay_mult: 0
  }
  convolution_param {
    num_output: 16
    kernel_size: 1
    weight_filler {
      type: "xavier"
      std: 0.2
    }
    bias_filler {
      type: "constant"
      value: 0.2
    }
  }
}
layer {
  name: "inception_4a/relu_5x5_reduce"
  type: "ReLU"
  bottom: "inception_4a/5x5_reduce"
  top: "inception_4a/5x5_reduce"
}
layer {
  name: "inception_4a/5x5"
  type: "Convolution"
  bottom: "inception_4a/5x5_reduce"
  top: "inception_4a/5x5"
  param {
    lr_mult: 1
    decay_mult: 1
  }
  param {
    lr_mult: 2
    decay_mult: 0
  }
  convolution_param {
    num_output: 48
    pad: 2
    kernel_size: 5
    weight_filler {
      type: "xavier"
      std: 0.03
    }
    bias_filler {
      type: "constant"
      value: 0.2
    }
  }
}
layer {
  name: "inception_4a/relu_5x5"
  type: "ReLU"
  bottom: "inception_4a/5x5"
  top: "inception_4a/5x5"
}
layer {
  name: "inception_4a/pool"
  type: "Pooling"
  bottom: "pool3/3x3_s2"
  top: "inception_4a/pool"
  pooling_param {
    pool: MAX
    kernel_size: 3
    stride: 1
    pad: 1
  }
}
layer {
  name: "inception_4a/pool_proj"
  type: "Convolution"
  bottom: "inception_4a/pool"
  top: "inception_4a/pool_proj"
  param {
    lr_mult: 1
    decay_mult: 1
  }
  param {
    lr_mult: 2
    decay_mult: 0
  }
  convolution_param {
    num_output: 64
    kernel_size: 1
    weight_filler {
      type: "xavier"
      std: 0.1
    }
    bias_filler {
      type: "constant"
      value: 0.2
    }
  }
}
layer {
  name: "inception_4a/relu_pool_proj"
  type: "ReLU"
  bottom: "inception_4a/pool_proj"
  top: "inception_4a/pool_proj"
}
layer {
  name: "inception_4a/output"
  type: "Concat"
  bottom: "inception_4a/1x1"
  bottom: "inception_4a/3x3"
  bottom: "inception_4a/5x5"
  bottom: "inception_4a/pool_proj"
  top: "inception_4a/output"
}
layer {
  name: "loss1/ave_pool"
  type: "Pooling"
  bottom: "inception_4a/output"
  top: "loss1/ave_pool"
  pooling_param {
    pool: AVE
    kernel_size: 5
    stride: 3
  }
}
layer {
  name: "loss1/conv"
  type: "Convolution"
  bottom: "loss1/ave_pool"
  top: "loss1/conv"
  param {
    lr_mult: 1
    decay_mult: 1
  }
  param {
    lr_mult: 2
    decay_mult: 0
  }
  convolution_param {
    num_output: 128
    kernel_size: 1
    weight_filler {
      type: "xavier"
      std: 0.08
    }
    bias_filler {
      type: "constant"
      value: 0.2
    }
  }
}
layer {
  name: "loss1/relu_conv"
  type: "ReLU"
  bottom: "loss1/conv"
  top: "loss1/conv"
}
layer {
  name: "loss1/fc"
  type: "InnerProduct"
  bottom: "loss1/conv"
  top: "loss1/fc"
  param {
    lr_mult: 1
    decay_mult: 1
  }
  param {
    lr_mult: 2
    decay_mult: 0
  }
  inner_product_param {
    num_output: 1024
    weight_filler {
      type: "xavier"
      std: 0.02
    }
    bias_filler {
      type: "constant"
      value: 0.2
    }
  }
}
layer {
  name: "loss1/relu_fc"
  type: "ReLU"
  bottom: "loss1/fc"
  top: "loss1/fc"
}
layer {
  name: "loss1/drop_fc"
  type: "Dropout"
  bottom: "loss1/fc"
  top: "loss1/fc"
  dropout_param {
    dropout_ratio: 0.7
  }
}
layer {
  name: "loss1/classifier_plantvillage"
  type: "InnerProduct"
  bottom: "loss1/fc"
  top: "loss1/classifier_plantvillage"
  param {
    lr_mult: 1
    decay_mult: 1
  }
  param {
    lr_mult: 2
    decay_mult: 0
  }
  inner_product_param {
    num_output: 38
    weight_filler {
      type: "xavier"
      std: 0.0009765625
    }
    bias_filler {
      type: "constant"
      value: 0
    }
  }
}
layer {
  name: "inception_4b/1x1"
  type: "Convolution"
  bottom: "inception_4a/output"
  top: "inception_4b/1x1"
  param {
    lr_mult: 1
    decay_mult: 1
  }
  param {
    lr_mult: 2
    decay_mult: 0
  }
  convolution_param {
    num_output: 160
    kernel_size: 1
    weight_filler {
      type: "xavier"
      std: 0.03
    }
    bias_filler {
      type: "constant"
      value: 0.2
    }
  }
}
layer {
  name: "inception_4b/relu_1x1"
  type: "ReLU"
  bottom: "inception_4b/1x1"
  top: "inception_4b/1x1"
}
layer {
  name: "inception_4b/3x3_reduce"
  type: "Convolution"
  bottom: "inception_4a/output"
  top: "inception_4b/3x3_reduce"
  param {
    lr_mult: 1
    decay_mult: 1
  }
  param {
    lr_mult: 2
    decay_mult: 0
  }
  convolution_param {
    num_output: 112
    kernel_size: 1
    weight_filler {
      type: "xavier"
      std: 0.09
    }
    bias_filler {
      type: "constant"
      value: 0.2
    }
  }
}
layer {
  name: "inception_4b/relu_3x3_reduce"
  type: "ReLU"
  bottom: "inception_4b/3x3_reduce"
  top: "inception_4b/3x3_reduce"
}
layer {
  name: "inception_4b/3x3"
  type: "Convolution"
  bottom: "inception_4b/3x3_reduce"
  top: "inception_4b/3x3"
  param {
    lr_mult: 1
    decay_mult: 1
  }
  param {
    lr_mult: 2
    decay_mult: 0
  }
  convolution_param {
    num_output: 224
    pad: 1
    kernel_size: 3
    weight_filler {
      type: "xavier"
      std: 0.03
    }
    bias_filler {
      type: "constant"
      value: 0.2
    }
  }
}
layer {
  name: "inception_4b/relu_3x3"
  type: "ReLU"
  bottom: "inception_4b/3x3"
  top: "inception_4b/3x3"
}
layer {
  name: "inception_4b/5x5_reduce"
  type: "Convolution"
  bottom: "inception_4a/output"
  top: "inception_4b/5x5_reduce"
  param {
    lr_mult: 1
    decay_mult: 1
  }
  param {
    lr_mult: 2
    decay_mult: 0
  }
  convolution_param {
    num_output: 24
    kernel_size: 1
    weight_filler {
      type: "xavier"
      std: 0.2
    }
    bias_filler {
      type: "constant"
      value: 0.2
    }
  }
}
layer {
  name: "inception_4b/relu_5x5_reduce"
  type: "ReLU"
  bottom: "inception_4b/5x5_reduce"
  top: "inception_4b/5x5_reduce"
}
layer {
  name: "inception_4b/5x5"
  type: "Convolution"
  bottom: "inception_4b/5x5_reduce"
  top: "inception_4b/5x5"
  param {
    lr_mult: 1
    decay_mult: 1
  }
  param {
    lr_mult: 2
    decay_mult: 0
  }
  convolution_param {
    num_output: 64
    pad: 2
    kernel_size: 5
    weight_filler {
      type: "xavier"
      std: 0.03
    }
    bias_filler {
      type: "constant"
      value: 0.2
    }
  }
}
layer {
  name: "inception_4b/relu_5x5"
  type: "ReLU"
  bottom: "inception_4b/5x5"
  top: "inception_4b/5x5"
}
layer {
  name: "inception_4b/pool"
  type: "Pooling"
  bottom: "inception_4a/output"
  top: "inception_4b/pool"
  pooling_param {
    pool: MAX
    kernel_size: 3
    stride: 1
    pad: 1
  }
}
layer {
  name: "inception_4b/pool_proj"
  type: "Convolution"
  bottom: "inception_4b/pool"
  top: "inception_4b/pool_proj"
  param {
    lr_mult: 1
    decay_mult: 1
  }
  param {
    lr_mult: 2
    decay_mult: 0
  }
  convolution_param {
    num_output: 64
    kernel_size: 1
    weight_filler {
      type: "xavier"
      std: 0.1
    }
    bias_filler {
      type: "constant"
      value: 0.2
    }
  }
}
layer {
  name: "inception_4b/relu_pool_proj"
  type: "ReLU"
  bottom: "inception_4b/pool_proj"
  top: "inception_4b/pool_proj"
}
layer {
  name: "inception_4b/output"
  type: "Concat"
  bottom: "inception_4b/1x1"
  bottom: "inception_4b/3x3"
  bottom: "inception_4b/5x5"
  bottom: "inception_4b/pool_proj"
  top: "inception_4b/output"
}
layer {
  name: "inception_4c/1x1"
  type: "Convolution"
  bottom: "inception_4b/output"
  top: "inception_4c/1x1"
  param {
    lr_mult: 1
    decay_mult: 1
  }
  param {
    lr_mult: 2
    decay_mult: 0
  }
  convolution_param {
    num_output: 128
    kernel_size: 1
    weight_filler {
      type: "xavier"
      std: 0.03
    }
    bias_filler {
      type: "constant"
      value: 0.2
    }
  }
}
layer {
  name: "inception_4c/relu_1x1"
  type: "ReLU"
  bottom: "inception_4c/1x1"
  top: "inception_4c/1x1"
}
layer {
  name: "inception_4c/3x3_reduce"
  type: "Convolution"
  bottom: "inception_4b/output"
  top: "inception_4c/3x3_reduce"
  param {
    lr_mult: 1
    decay_mult: 1
  }
  param {
    lr_mult: 2
    decay_mult: 0
  }
  convolution_param {
    num_output: 128
    kernel_size: 1
    weight_filler {
      type: "xavier"
      std: 0.09
    }
    bias_filler {
      type: "constant"
      value: 0.2
    }
  }
}
layer {
  name: "inception_4c/relu_3x3_reduce"
  type: "ReLU"
  bottom: "inception_4c/3x3_reduce"
  top: "inception_4c/3x3_reduce"
}
layer {
  name: "inception_4c/3x3"
  type: "Convolution"
  bottom: "inception_4c/3x3_reduce"
  top: "inception_4c/3x3"
  param {
    lr_mult: 1
    decay_mult: 1
  }
  param {
    lr_mult: 2
    decay_mult: 0
  }
  convolution_param {
    num_output: 256
    pad: 1
    kernel_size: 3
    weight_filler {
      type: "xavier"
      std: 0.03
    }
    bias_filler {
      type: "constant"
      value: 0.2
    }
  }
}
layer {
  name: "inception_4c/relu_3x3"
  type: "ReLU"
  bottom: "inception_4c/3x3"
  top: "inception_4c/3x3"
}
layer {
  name: "inception_4c/5x5_reduce"
  type: "Convolution"
  bottom: "inception_4b/output"
  top: "inception_4c/5x5_reduce"
  param {
    lr_mult: 1
    decay_mult: 1
  }
  param {
    lr_mult: 2
    decay_mult: 0
  }
  convolution_param {
    num_output: 24
    kernel_size: 1
    weight_filler {
      type: "xavier"
      std: 0.2
    }
    bias_filler {
      type: "constant"
      value: 0.2
    }
  }
}
layer {
  name: "inception_4c/relu_5x5_reduce"
  type: "ReLU"
  bottom: "inception_4c/5x5_reduce"
  top: "inception_4c/5x5_reduce"
}
layer {
  name: "inception_4c/5x5"
  type: "Convolution"
  bottom: "inception_4c/5x5_reduce"
  top: "inception_4c/5x5"
  param {
    lr_mult: 1
    decay_mult: 1
  }
  param {
    lr_mult: 2
    decay_mult: 0
  }
  convolution_param {
    num_output: 64
    pad: 2
    kernel_size: 5
    weight_filler {
      type: "xavier"
      std: 0.03
    }
    bias_filler {
      type: "constant"
      value: 0.2
    }
  }
}
layer {
  name: "inception_4c/relu_5x5"
  type: "ReLU"
  bottom: "inception_4c/5x5"
  top: "inception_4c/5x5"
}
layer {
  name: "inception_4c/pool"
  type: "Pooling"
  bottom: "inception_4b/output"
  top: "inception_4c/pool"
  pooling_param {
    pool: MAX
    kernel_size: 3
    stride: 1
    pad: 1
  }
}
layer {
  name: "inception_4c/pool_proj"
  type: "Convolution"
  bottom: "inception_4c/pool"
  top: "inception_4c/pool_proj"
  param {
    lr_mult: 1
    decay_mult: 1
  }
  param {
    lr_mult: 2
    decay_mult: 0
  }
  convolution_param {
    num_output: 64
    kernel_size: 1
    weight_filler {
      type: "xavier"
      std: 0.1
    }
    bias_filler {
      type: "constant"
      value: 0.2
    }
  }
}
layer {
  name: "inception_4c/relu_pool_proj"
  type: "ReLU"
  bottom: "inception_4c/pool_proj"
  top: "inception_4c/pool_proj"
}
layer {
  name: "inception_4c/output"
  type: "Concat"
  bottom: "inception_4c/1x1"
  bottom: "inception_4c/3x3"
  bottom: "inception_4c/5x5"
  bottom: "inception_4c/pool_proj"
  top: "inception_4c/output"
}
layer {
  name: "inception_4d/1x1"
  type: "Convolution"
  bottom: "inception_4c/output"
  top: "inception_4d/1x1"
  param {
    lr_mult: 1
    decay_mult: 1
  }
  param {
    lr_mult: 2
    decay_mult: 0
  }
  convolution_param {
    num_output: 112
    kernel_size: 1
    weight_filler {
      type: "xavier"
      std: 0.03
    }
    bias_filler {
      type: "constant"
      value: 0.2
    }
  }
}
layer {
  name: "inception_4d/relu_1x1"
  type: "ReLU"
  bottom: "inception_4d/1x1"
  top: "inception_4d/1x1"
}
layer {
  name: "inception_4d/3x3_reduce"
  type: "Convolution"
  bottom: "inception_4c/output"
  top: "inception_4d/3x3_reduce"
  param {
    lr_mult: 1
    decay_mult: 1
  }
  param {
    lr_mult: 2
    decay_mult: 0
  }
  convolution_param {
    num_output: 144
    kernel_size: 1
    weight_filler {
      type: "xavier"
      std: 0.09
    }
    bias_filler {
      type: "constant"
      value: 0.2
    }
  }
}
layer {
  name: "inception_4d/relu_3x3_reduce"
  type: "ReLU"
  bottom: "inception_4d/3x3_reduce"
  top: "inception_4d/3x3_reduce"
}
layer {
  name: "inception_4d/3x3"
  type: "Convolution"
  bottom: "inception_4d/3x3_reduce"
  top: "inception_4d/3x3"
  param {
    lr_mult: 1
    decay_mult: 1
  }
  param {
    lr_mult: 2
    decay_mult: 0
  }
  convolution_param {
    num_output: 288
    pad: 1
    kernel_size: 3
    weight_filler {
      type: "xavier"
      std: 0.03
    }
    bias_filler {
      type: "constant"
      value: 0.2
    }
  }
}
layer {
  name: "inception_4d/relu_3x3"
  type: "ReLU"
  bottom: "inception_4d/3x3"
  top: "inception_4d/3x3"
}
layer {
  name: "inception_4d/5x5_reduce"
  type: "Convolution"
  bottom: "inception_4c/output"
  top: "inception_4d/5x5_reduce"
  param {
    lr_mult: 1
    decay_mult: 1
  }
  param {
    lr_mult: 2
    decay_mult: 0
  }
  convolution_param {
    num_output: 32
    kernel_size: 1
    weight_filler {
      type: "xavier"
      std: 0.2
    }
    bias_filler {
      type: "constant"
      value: 0.2
    }
  }
}
layer {
  name: "inception_4d/relu_5x5_reduce"
  type: "ReLU"
  bottom: "inception_4d/5x5_reduce"
  top: "inception_4d/5x5_reduce"
}
layer {
  name: "inception_4d/5x5"
  type: "Convolution"
  bottom: "inception_4d/5x5_reduce"
  top: "inception_4d/5x5"
  param {
    lr_mult: 1
    decay_mult: 1
  }
  param {
    lr_mult: 2
    decay_mult: 0
  }
  convolution_param {
    num_output: 64
    pad: 2
    kernel_size: 5
    weight_filler {
      type: "xavier"
      std: 0.03
    }
    bias_filler {
      type: "constant"
      value: 0.2
    }
  }
}
layer {
  name: "inception_4d/relu_5x5"
  type: "ReLU"
  bottom: "inception_4d/5x5"
  top: "inception_4d/5x5"
}
layer {
  name: "inception_4d/pool"
  type: "Pooling"
  bottom: "inception_4c/output"
  top: "inception_4d/pool"
  pooling_param {
    pool: MAX
    kernel_size: 3
    stride: 1
    pad: 1
  }
}
layer {
  name: "inception_4d/pool_proj"
  type: "Convolution"
  bottom: "inception_4d/pool"
  top: "inception_4d/pool_proj"
  param {
    lr_mult: 1
    decay_mult: 1
  }
  param {
    lr_mult: 2
    decay_mult: 0
  }
  convolution_param {
    num_output: 64
    kernel_size: 1
    weight_filler {
      type: "xavier"
      std: 0.1
    }
    bias_filler {
      type: "constant"
      value: 0.2
    }
  }
}
layer {
  name: "inception_4d/relu_pool_proj"
  type: "ReLU"
  bottom: "inception_4d/pool_proj"
  top: "inception_4d/pool_proj"
}
layer {
  name: "inception_4d/output"
  type: "Concat"
  bottom: "inception_4d/1x1"
  bottom: "inception_4d/3x3"
  bottom: "inception_4d/5x5"
  bottom: "inception_4d/pool_proj"
  top: "inception_4d/output"
}
layer {
  name: "loss2/ave_pool"
  type: "Pooling"
  bottom: "inception_4d/output"
  top: "loss2/ave_pool"
  pooling_param {
    pool: AVE
    kernel_size: 5
    stride: 3
  }
}
layer {
  name: "loss2/conv"
  type: "Convolution"
  bottom: "loss2/ave_pool"
  top: "loss2/conv"
  param {
    lr_mult: 1
    decay_mult: 1
  }
  param {
    lr_mult: 2
    decay_mult: 0
  }
  convolution_param {
    num_output: 128
    kernel_size: 1
    weight_filler {
      type: "xavier"
      std: 0.08
    }
    bias_filler {
      type: "constant"
      value: 0.2
    }
  }
}
layer {
  name: "loss2/relu_conv"
  type: "ReLU"
  bottom: "loss2/conv"
  top: "loss2/conv"
}
layer {
  name: "loss2/fc"
  type: "InnerProduct"
  bottom: "loss2/conv"
  top: "loss2/fc"
  param {
    lr_mult: 1
    decay_mult: 1
  }
  param {
    lr_mult: 2
    decay_mult: 0
  }
  inner_product_param {
    num_output: 1024
    weight_filler {
      type: "xavier"
      std: 0.02
    }
    bias_filler {
      type: "constant"
      value: 0.2
    }
  }
}
layer {
  name: "loss2/relu_fc"
  type: "ReLU"
  bottom: "loss2/fc"
  top: "loss2/fc"
}
layer {
  name: "loss2/drop_fc"
  type: "Dropout"
  bottom: "loss2/fc"
  top: "loss2/fc"
  dropout_param {
    dropout_ratio: 0.7
  }
}
layer {
  name: "loss2/classifier_plantvillage"
  type: "InnerProduct"
  bottom: "loss2/fc"
  top: "loss2/classifier_plantvillage"
  param {
    lr_mult: 1
    decay_mult: 1
  }
  param {
    lr_mult: 2
    decay_mult: 0
  }
  inner_product_param {
    num_output: 38
    weight_filler {
      type: "xavier"
      std: 0.0009765625
    }
    bias_filler {
      type: "constant"
      value: 0
    }
  }
}
layer {
  name: "inception_4e/1x1"
  type: "Convolution"
  bottom: "inception_4d/output"
  top: "inception_4e/1x1"
  param {
    lr_mult: 1
    decay_mult: 1
  }
  param {
    lr_mult: 2
    decay_mult: 0
  }
  convolution_param {
    num_output: 256
    kernel_size: 1
    weight_filler {
      type: "xavier"
      std: 0.03
    }
    bias_filler {
      type: "constant"
      value: 0.2
    }
  }
}
layer {
  name: "inception_4e/relu_1x1"
  type: "ReLU"
  bottom: "inception_4e/1x1"
  top: "inception_4e/1x1"
}
layer {
  name: "inception_4e/3x3_reduce"
  type: "Convolution"
  bottom: "inception_4d/output"
  top: "inception_4e/3x3_reduce"
  param {
    lr_mult: 1
    decay_mult: 1
  }
  param {
    lr_mult: 2
    decay_mult: 0
  }
  convolution_param {
    num_output: 160
    kernel_size: 1
    weight_filler {
      type: "xavier"
      std: 0.09
    }
    bias_filler {
      type: "constant"
      value: 0.2
    }
  }
}
layer {
  name: "inception_4e/relu_3x3_reduce"
  type: "ReLU"
  bottom: "inception_4e/3x3_reduce"
  top: "inception_4e/3x3_reduce"
}
layer {
  name: "inception_4e/3x3"
  type: "Convolution"
  bottom: "inception_4e/3x3_reduce"
  top: "inception_4e/3x3"
  param {
    lr_mult: 1
    decay_mult: 1
  }
  param {
    lr_mult: 2
    decay_mult: 0
  }
  convolution_param {
    num_output: 320
    pad: 1
    kernel_size: 3
    weight_filler {
      type: "xavier"
      std: 0.03
    }
    bias_filler {
      type: "constant"
      value: 0.2
    }
  }
}
layer {
  name: "inception_4e/relu_3x3"
  type: "ReLU"
  bottom: "inception_4e/3x3"
  top: "inception_4e/3x3"
}
layer {
  name: "inception_4e/5x5_reduce"
  type: "Convolution"
  bottom: "inception_4d/output"
  top: "inception_4e/5x5_reduce"
  param {
    lr_mult: 1
    decay_mult: 1
  }
  param {
    lr_mult: 2
    decay_mult: 0
  }
  convolution_param {
    num_output: 32
    kernel_size: 1
    weight_filler {
      type: "xavier"
      std: 0.2
    }
    bias_filler {
      type: "constant"
      value: 0.2
    }
  }
}
layer {
  name: "inception_4e/relu_5x5_reduce"
  type: "ReLU"
  bottom: "inception_4e/5x5_reduce"
  top: "inception_4e/5x5_reduce"
}
layer {
  name: "inception_4e/5x5"
  type: "Convolution"
  bottom: "inception_4e/5x5_reduce"
  top: "inception_4e/
I0403 14:38:08.679779 10901 layer_factory.hpp:77] Creating layer data
I0403 14:38:08.680354 10901 net.cpp:91] Creating Layer data
I0403 14:38:08.680387 10901 net.cpp:399] data -> data
I0403 14:38:08.680438 10901 net.cpp:399] data -> label
I0403 14:38:08.680474 10901 data_transformer.cpp:25] Loading mean file from: /home/mohanty/data/final_dataset/lmdb/grayscale-60-40/mean.binaryproto
I0403 14:38:08.685031 10904 db_lmdb.cpp:38] Opened lmdb /home/mohanty/data/final_dataset/lmdb/grayscale-60-40/test_db
I0403 14:38:08.694074 10901 data_layer.cpp:41] output data size: 24,3,224,224
I0403 14:38:08.721242 10901 net.cpp:141] Setting up data
I0403 14:38:08.721349 10901 net.cpp:148] Top shape: 24 3 224 224 (3612672)
I0403 14:38:08.721372 10901 net.cpp:148] Top shape: 24 (24)
I0403 14:38:08.721387 10901 net.cpp:156] Memory required for data: 14450784
I0403 14:38:08.721415 10901 layer_factory.hpp:77] Creating layer label_data_1_split
I0403 14:38:08.721441 10901 net.cpp:91] Creating Layer label_data_1_split
I0403 14:38:08.721459 10901 net.cpp:425] label_data_1_split <- label
I0403 14:38:08.721492 10901 net.cpp:399] label_data_1_split -> label_data_1_split_0
I0403 14:38:08.721520 10901 net.cpp:399] label_data_1_split -> label_data_1_split_1
I0403 14:38:08.721541 10901 net.cpp:399] label_data_1_split -> label_data_1_split_2
I0403 14:38:08.721563 10901 net.cpp:399] label_data_1_split -> label_data_1_split_3
I0403 14:38:08.721583 10901 net.cpp:399] label_data_1_split -> label_data_1_split_4
I0403 14:38:08.721604 10901 net.cpp:399] label_data_1_split -> label_data_1_split_5
I0403 14:38:08.721635 10901 net.cpp:399] label_data_1_split -> label_data_1_split_6
I0403 14:38:08.721657 10901 net.cpp:399] label_data_1_split -> label_data_1_split_7
I0403 14:38:08.721674 10901 net.cpp:399] label_data_1_split -> label_data_1_split_8
I0403 14:38:08.721694 10901 net.cpp:399] label_data_1_split -> label_data_1_split_9
I0403 14:38:08.721807 10901 net.cpp:141] Setting up label_data_1_split
I0403 14:38:08.721829 10901 net.cpp:148] Top shape: 24 (24)
I0403 14:38:08.721846 10901 net.cpp:148] Top shape: 24 (24)
I0403 14:38:08.721863 10901 net.cpp:148] Top shape: 24 (24)
I0403 14:38:08.721879 10901 net.cpp:148] Top shape: 24 (24)
I0403 14:38:08.721895 10901 net.cpp:148] Top shape: 24 (24)
I0403 14:38:08.721910 10901 net.cpp:148] Top shape: 24 (24)
I0403 14:38:08.721925 10901 net.cpp:148] Top shape: 24 (24)
I0403 14:38:08.721940 10901 net.cpp:148] Top shape: 24 (24)
I0403 14:38:08.721956 10901 net.cpp:148] Top shape: 24 (24)
I0403 14:38:08.721971 10901 net.cpp:148] Top shape: 24 (24)
I0403 14:38:08.722015 10901 net.cpp:156] Memory required for data: 14451744
I0403 14:38:08.722031 10901 layer_factory.hpp:77] Creating layer conv1/7x7_s2
I0403 14:38:08.722061 10901 net.cpp:91] Creating Layer conv1/7x7_s2
I0403 14:38:08.722080 10901 net.cpp:425] conv1/7x7_s2 <- data
I0403 14:38:08.722101 10901 net.cpp:399] conv1/7x7_s2 -> conv1/7x7_s2
I0403 14:38:08.983886 10901 net.cpp:141] Setting up conv1/7x7_s2
I0403 14:38:08.983983 10901 net.cpp:148] Top shape: 24 64 112 112 (19267584)
I0403 14:38:08.984004 10901 net.cpp:156] Memory required for data: 91522080
I0403 14:38:08.984035 10901 layer_factory.hpp:77] Creating layer conv1/relu_7x7
I0403 14:38:08.984066 10901 net.cpp:91] Creating Layer conv1/relu_7x7
I0403 14:38:08.984087 10901 net.cpp:425] conv1/relu_7x7 <- conv1/7x7_s2
I0403 14:38:08.984108 10901 net.cpp:386] conv1/relu_7x7 -> conv1/7x7_s2 (in-place)
I0403 14:38:08.984371 10901 net.cpp:141] Setting up conv1/relu_7x7
I0403 14:38:08.984400 10901 net.cpp:148] Top shape: 24 64 112 112 (19267584)
I0403 14:38:08.984417 10901 net.cpp:156] Memory required for data: 168592416
I0403 14:38:08.984434 10901 layer_factory.hpp:77] Creating layer pool1/3x3_s2
I0403 14:38:08.984462 10901 net.cpp:91] Creating Layer pool1/3x3_s2
I0403 14:38:08.984482 10901 net.cpp:425] pool1/3x3_s2 <- conv1/7x7_s2
I0403 14:38:08.984500 10901 net.cpp:399] pool1/3x3_s2 -> pool1/3x3_s2
I0403 14:38:08.984576 10901 net.cpp:141] Setting up pool1/3x3_s2
I0403 14:38:08.984602 10901 net.cpp:148] Top shape: 24 64 56 56 (4816896)
I0403 14:38:08.984618 10901 net.cpp:156] Memory required for data: 187860000
I0403 14:38:08.984635 10901 layer_factory.hpp:77] Creating layer pool1/norm1
I0403 14:38:08.984660 10901 net.cpp:91] Creating Layer pool1/norm1
I0403 14:38:08.984681 10901 net.cpp:425] pool1/norm1 <- pool1/3x3_s2
I0403 14:38:08.984700 10901 net.cpp:399] pool1/norm1 -> pool1/norm1
I0403 14:38:08.984992 10901 net.cpp:141] Setting up pool1/norm1
I0403 14:38:08.985020 10901 net.cpp:148] Top shape: 24 64 56 56 (4816896)
I0403 14:38:08.985038 10901 net.cpp:156] Memory required for data: 207127584
I0403 14:38:08.985055 10901 layer_factory.hpp:77] Creating layer conv2/3x3_reduce
I0403 14:38:08.985081 10901 net.cpp:91] Creating Layer conv2/3x3_reduce
I0403 14:38:08.985098 10901 net.cpp:425] conv2/3x3_reduce <- pool1/norm1
I0403 14:38:08.985119 10901 net.cpp:399] conv2/3x3_reduce -> conv2/3x3_reduce
I0403 14:38:08.986484 10901 net.cpp:141] Setting up conv2/3x3_reduce
I0403 14:38:08.986516 10901 net.cpp:148] Top shape: 24 64 56 56 (4816896)
I0403 14:38:08.986534 10901 net.cpp:156] Memory required for data: 226395168
I0403 14:38:08.986557 10901 layer_factory.hpp:77] Creating layer conv2/relu_3x3_reduce
I0403 14:38:08.986577 10901 net.cpp:91] Creating Layer conv2/relu_3x3_reduce
I0403 14:38:08.986596 10901 net.cpp:425] conv2/relu_3x3_reduce <- conv2/3x3_reduce
I0403 14:38:08.986615 10901 net.cpp:386] conv2/relu_3x3_reduce -> conv2/3x3_reduce (in-place)
I0403 14:38:08.986874 10901 net.cpp:141] Setting up conv2/relu_3x3_reduce
I0403 14:38:08.986907 10901 net.cpp:148] Top shape: 24 64 56 56 (4816896)
I0403 14:38:08.986924 10901 net.cpp:156] Memory required for data: 245662752
I0403 14:38:08.986940 10901 layer_factory.hpp:77] Creating layer conv2/3x3
I0403 14:38:08.986966 10901 net.cpp:91] Creating Layer conv2/3x3
I0403 14:38:08.986986 10901 net.cpp:425] conv2/3x3 <- conv2/3x3_reduce
I0403 14:38:08.987007 10901 net.cpp:399] conv2/3x3 -> conv2/3x3
I0403 14:38:08.989403 10901 net.cpp:141] Setting up conv2/3x3
I0403 14:38:08.989439 10901 net.cpp:148] Top shape: 24 192 56 56 (14450688)
I0403 14:38:08.989459 10901 net.cpp:156] Memory required for data: 303465504
I0403 14:38:08.989481 10901 layer_factory.hpp:77] Creating layer conv2/relu_3x3
I0403 14:38:08.989503 10901 net.cpp:91] Creating Layer conv2/relu_3x3
I0403 14:38:08.989521 10901 net.cpp:425] conv2/relu_3x3 <- conv2/3x3
I0403 14:38:08.989540 10901 net.cpp:386] conv2/relu_3x3 -> conv2/3x3 (in-place)
I0403 14:38:08.989723 10901 net.cpp:141] Setting up conv2/relu_3x3
I0403 14:38:08.989750 10901 net.cpp:148] Top shape: 24 192 56 56 (14450688)
I0403 14:38:08.989800 10901 net.cpp:156] Memory required for data: 361268256
I0403 14:38:08.989819 10901 layer_factory.hpp:77] Creating layer conv2/norm2
I0403 14:38:08.989841 10901 net.cpp:91] Creating Layer conv2/norm2
I0403 14:38:08.989861 10901 net.cpp:425] conv2/norm2 <- conv2/3x3
I0403 14:38:08.989881 10901 net.cpp:399] conv2/norm2 -> conv2/norm2
I0403 14:38:08.990200 10901 net.cpp:141] Setting up conv2/norm2
I0403 14:38:08.990228 10901 net.cpp:148] Top shape: 24 192 56 56 (14450688)
I0403 14:38:08.990245 10901 net.cpp:156] Memory required for data: 419071008
I0403 14:38:08.990262 10901 layer_factory.hpp:77] Creating layer pool2/3x3_s2
I0403 14:38:08.990284 10901 net.cpp:91] Creating Layer pool2/3x3_s2
I0403 14:38:08.990303 10901 net.cpp:425] pool2/3x3_s2 <- conv2/norm2
I0403 14:38:08.990324 10901 net.cpp:399] pool2/3x3_s2 -> pool2/3x3_s2
I0403 14:38:08.990381 10901 net.cpp:141] Setting up pool2/3x3_s2
I0403 14:38:08.990406 10901 net.cpp:148] Top shape: 24 192 28 28 (3612672)
I0403 14:38:08.990422 10901 net.cpp:156] Memory required for data: 433521696
I0403 14:38:08.990439 10901 layer_factory.hpp:77] Creating layer pool2/3x3_s2_pool2/3x3_s2_0_split
I0403 14:38:08.990459 10901 net.cpp:91] Creating Layer pool2/3x3_s2_pool2/3x3_s2_0_split
I0403 14:38:08.990475 10901 net.cpp:425] pool2/3x3_s2_pool2/3x3_s2_0_split <- pool2/3x3_s2
I0403 14:38:08.990499 10901 net.cpp:399] pool2/3x3_s2_pool2/3x3_s2_0_split -> pool2/3x3_s2_pool2/3x3_s2_0_split_0
I0403 14:38:08.990520 10901 net.cpp:399] pool2/3x3_s2_pool2/3x3_s2_0_split -> pool2/3x3_s2_pool2/3x3_s2_0_split_1
I0403 14:38:08.990542 10901 net.cpp:399] pool2/3x3_s2_pool2/3x3_s2_0_split -> pool2/3x3_s2_pool2/3x3_s2_0_split_2
I0403 14:38:08.990564 10901 net.cpp:399] pool2/3x3_s2_pool2/3x3_s2_0_split -> pool2/3x3_s2_pool2/3x3_s2_0_split_3
I0403 14:38:08.990640 10901 net.cpp:141] Setting up pool2/3x3_s2_pool2/3x3_s2_0_split
I0403 14:38:08.990669 10901 net.cpp:148] Top shape: 24 192 28 28 (3612672)
I0403 14:38:08.990689 10901 net.cpp:148] Top shape: 24 192 28 28 (3612672)
I0403 14:38:08.990706 10901 net.cpp:148] Top shape: 24 192 28 28 (3612672)
I0403 14:38:08.990723 10901 net.cpp:148] Top shape: 24 192 28 28 (3612672)
I0403 14:38:08.990739 10901 net.cpp:156] Memory required for data: 491324448
I0403 14:38:08.990756 10901 layer_factory.hpp:77] Creating layer inception_3a/1x1
I0403 14:38:08.990780 10901 net.cpp:91] Creating Layer inception_3a/1x1
I0403 14:38:08.990799 10901 net.cpp:425] inception_3a/1x1 <- pool2/3x3_s2_pool2/3x3_s2_0_split_0
I0403 14:38:08.990819 10901 net.cpp:399] inception_3a/1x1 -> inception_3a/1x1
I0403 14:38:08.992421 10901 net.cpp:141] Setting up inception_3a/1x1
I0403 14:38:08.992455 10901 net.cpp:148] Top shape: 24 64 28 28 (1204224)
I0403 14:38:08.992472 10901 net.cpp:156] Memory required for data: 496141344
I0403 14:38:08.992493 10901 layer_factory.hpp:77] Creating layer inception_3a/relu_1x1
I0403 14:38:08.992516 10901 net.cpp:91] Creating Layer inception_3a/relu_1x1
I0403 14:38:08.992533 10901 net.cpp:425] inception_3a/relu_1x1 <- inception_3a/1x1
I0403 14:38:08.992553 10901 net.cpp:386] inception_3a/relu_1x1 -> inception_3a/1x1 (in-place)
I0403 14:38:08.992739 10901 net.cpp:141] Setting up inception_3a/relu_1x1
I0403 14:38:08.992769 10901 net.cpp:148] Top shape: 24 64 28 28 (1204224)
I0403 14:38:08.992785 10901 net.cpp:156] Memory required for data: 500958240
I0403 14:38:08.992805 10901 layer_factory.hpp:77] Creating layer inception_3a/3x3_reduce
I0403 14:38:08.992828 10901 net.cpp:91] Creating Layer inception_3a/3x3_reduce
I0403 14:38:08.992848 10901 net.cpp:425] inception_3a/3x3_reduce <- pool2/3x3_s2_pool2/3x3_s2_0_split_1
I0403 14:38:08.992873 10901 net.cpp:399] inception_3a/3x3_reduce -> inception_3a/3x3_reduce
I0403 14:38:08.994648 10901 net.cpp:141] Setting up inception_3a/3x3_reduce
I0403 14:38:08.994684 10901 net.cpp:148] Top shape: 24 96 28 28 (1806336)
I0403 14:38:08.994704 10901 net.cpp:156] Memory required for data: 508183584
I0403 14:38:08.994729 10901 layer_factory.hpp:77] Creating layer inception_3a/relu_3x3_reduce
I0403 14:38:08.994767 10901 net.cpp:91] Creating Layer inception_3a/relu_3x3_reduce
I0403 14:38:08.994786 10901 net.cpp:425] inception_3a/relu_3x3_reduce <- inception_3a/3x3_reduce
I0403 14:38:08.994809 10901 net.cpp:386] inception_3a/relu_3x3_reduce -> inception_3a/3x3_reduce (in-place)
I0403 14:38:08.995000 10901 net.cpp:141] Setting up inception_3a/relu_3x3_reduce
I0403 14:38:08.995030 10901 net.cpp:148] Top shape: 24 96 28 28 (1806336)
I0403 14:38:08.995048 10901 net.cpp:156] Memory required for data: 515408928
I0403 14:38:08.995065 10901 layer_factory.hpp:77] Creating layer inception_3a/3x3
I0403 14:38:08.995091 10901 net.cpp:91] Creating Layer inception_3a/3x3
I0403 14:38:08.995111 10901 net.cpp:425] inception_3a/3x3 <- inception_3a/3x3_reduce
I0403 14:38:08.995141 10901 net.cpp:399] inception_3a/3x3 -> inception_3a/3x3
I0403 14:38:08.996887 10901 net.cpp:141] Setting up inception_3a/3x3
I0403 14:38:08.996922 10901 net.cpp:148] Top shape: 24 128 28 28 (2408448)
I0403 14:38:08.996942 10901 net.cpp:156] Memory required for data: 525042720
I0403 14:38:08.996963 10901 layer_factory.hpp:77] Creating layer inception_3a/relu_3x3
I0403 14:38:08.996984 10901 net.cpp:91] Creating Layer inception_3a/relu_3x3
I0403 14:38:08.997001 10901 net.cpp:425] inception_3a/relu_3x3 <- inception_3a/3x3
I0403 14:38:08.997023 10901 net.cpp:386] inception_3a/relu_3x3 -> inception_3a/3x3 (in-place)
I0403 14:38:08.997313 10901 net.cpp:141] Setting up inception_3a/relu_3x3
I0403 14:38:08.997347 10901 net.cpp:148] Top shape: 24 128 28 28 (2408448)
I0403 14:38:08.997366 10901 net.cpp:156] Memory required for data: 534676512
I0403 14:38:08.997385 10901 layer_factory.hpp:77] Creating layer inception_3a/5x5_reduce
I0403 14:38:08.997411 10901 net.cpp:91] Creating Layer inception_3a/5x5_reduce
I0403 14:38:08.997431 10901 net.cpp:425] inception_3a/5x5_reduce <- pool2/3x3_s2_pool2/3x3_s2_0_split_2
I0403 14:38:08.997452 10901 net.cpp:399] inception_3a/5x5_reduce -> inception_3a/5x5_reduce
I0403 14:38:08.998461 10901 net.cpp:141] Setting up inception_3a/5x5_reduce
I0403 14:38:08.998495 10901 net.cpp:148] Top shape: 24 16 28 28 (301056)
I0403 14:38:08.998514 10901 net.cpp:156] Memory required for data: 535880736
I0403 14:38:08.998535 10901 layer_factory.hpp:77] Creating layer inception_3a/relu_5x5_reduce
I0403 14:38:08.998555 10901 net.cpp:91] Creating Layer inception_3a/relu_5x5_reduce
I0403 14:38:08.998574 10901 net.cpp:425] inception_3a/relu_5x5_reduce <- inception_3a/5x5_reduce
I0403 14:38:08.998597 10901 net.cpp:386] inception_3a/relu_5x5_reduce -> inception_3a/5x5_reduce (in-place)
I0403 14:38:08.998901 10901 net.cpp:141] Setting up inception_3a/relu_5x5_reduce
I0403 14:38:08.998930 10901 net.cpp:148] Top shape: 24 16 28 28 (301056)
I0403 14:38:08.998949 10901 net.cpp:156] Memory required for data: 537084960
I0403 14:38:08.998965 10901 layer_factory.hpp:77] Creating layer inception_3a/5x5
I0403 14:38:08.998988 10901 net.cpp:91] Creating Layer inception_3a/5x5
I0403 14:38:08.999009 10901 net.cpp:425] inception_3a/5x5 <- inception_3a/5x5_reduce
I0403 14:38:08.999033 10901 net.cpp:399] inception_3a/5x5 -> inception_3a/5x5
I0403 14:38:09.000088 10901 net.cpp:141] Setting up inception_3a/5x5
I0403 14:38:09.000121 10901 net.cpp:148] Top shape: 24 32 28 28 (602112)
I0403 14:38:09.000146 10901 net.cpp:156] Memory required for data: 539493408
I0403 14:38:09.000174 10901 layer_factory.hpp:77] Creating layer inception_3a/relu_5x5
I0403 14:38:09.000197 10901 net.cpp:91] Creating Layer inception_3a/relu_5x5
I0403 14:38:09.000216 10901 net.cpp:425] inception_3a/relu_5x5 <- inception_3a/5x5
I0403 14:38:09.000236 10901 net.cpp:386] inception_3a/relu_5x5 -> inception_3a/5x5 (in-place)
I0403 14:38:09.000418 10901 net.cpp:141] Setting up inception_3a/relu_5x5
I0403 14:38:09.000448 10901 net.cpp:148] Top shape: 24 32 28 28 (602112)
I0403 14:38:09.000465 10901 net.cpp:156] Memory required for data: 541901856
I0403 14:38:09.000483 10901 layer_factory.hpp:77] Creating layer inception_3a/pool
I0403 14:38:09.000502 10901 net.cpp:91] Creating Layer inception_3a/pool
I0403 14:38:09.000536 10901 net.cpp:425] inception_3a/pool <- pool2/3x3_s2_pool2/3x3_s2_0_split_3
I0403 14:38:09.000562 10901 net.cpp:399] inception_3a/pool -> inception_3a/pool
I0403 14:38:09.000623 10901 net.cpp:141] Setting up inception_3a/pool
I0403 14:38:09.000651 10901 net.cpp:148] Top shape: 24 192 28 28 (3612672)
I0403 14:38:09.000668 10901 net.cpp:156] Memory required for data: 556352544
I0403 14:38:09.000684 10901 layer_factory.hpp:77] Creating layer inception_3a/pool_proj
I0403 14:38:09.000710 10901 net.cpp:91] Creating Layer inception_3a/pool_proj
I0403 14:38:09.000730 10901 net.cpp:425] inception_3a/pool_proj <- inception_3a/pool
I0403 14:38:09.000751 10901 net.cpp:399] inception_3a/pool_proj -> inception_3a/pool_proj
I0403 14:38:09.001762 10901 net.cpp:141] Setting up inception_3a/pool_proj
I0403 14:38:09.001794 10901 net.cpp:148] Top shape: 24 32 28 28 (602112)
I0403 14:38:09.001811 10901 net.cpp:156] Memory required for data: 558760992
I0403 14:38:09.001838 10901 layer_factory.hpp:77] Creating layer inception_3a/relu_pool_proj
I0403 14:38:09.001860 10901 net.cpp:91] Creating Layer inception_3a/relu_pool_proj
I0403 14:38:09.001879 10901 net.cpp:425] inception_3a/relu_pool_proj <- inception_3a/pool_proj
I0403 14:38:09.001901 10901 net.cpp:386] inception_3a/relu_pool_proj -> inception_3a/pool_proj (in-place)
I0403 14:38:09.002197 10901 net.cpp:141] Setting up inception_3a/relu_pool_proj
I0403 14:38:09.002229 10901 net.cpp:148] Top shape: 24 32 28 28 (602112)
I0403 14:38:09.002249 10901 net.cpp:156] Memory required for data: 561169440
I0403 14:38:09.002265 10901 layer_factory.hpp:77] Creating layer inception_3a/output
I0403 14:38:09.002286 10901 net.cpp:91] Creating Layer inception_3a/output
I0403 14:38:09.002303 10901 net.cpp:425] inception_3a/output <- inception_3a/1x1
I0403 14:38:09.002322 10901 net.cpp:425] inception_3a/output <- inception_3a/3x3
I0403 14:38:09.002341 10901 net.cpp:425] inception_3a/output <- inception_3a/5x5
I0403 14:38:09.002358 10901 net.cpp:425] inception_3a/output <- inception_3a/pool_proj
I0403 14:38:09.002379 10901 net.cpp:399] inception_3a/output -> inception_3a/output
I0403 14:38:09.002429 10901 net.cpp:141] Setting up inception_3a/output
I0403 14:38:09.002456 10901 net.cpp:148] Top shape: 24 256 28 28 (4816896)
I0403 14:38:09.002473 10901 net.cpp:156] Memory required for data: 580437024
I0403 14:38:09.002490 10901 layer_factory.hpp:77] Creating layer inception_3a/output_inception_3a/output_0_split
I0403 14:38:09.002512 10901 net.cpp:91] Creating Layer inception_3a/output_inception_3a/output_0_split
I0403 14:38:09.002532 10901 net.cpp:425] inception_3a/output_inception_3a/output_0_split <- inception_3a/output
I0403 14:38:09.002553 10901 net.cpp:399] inception_3a/output_inception_3a/output_0_split -> inception_3a/output_inception_3a/output_0_split_0
I0403 14:38:09.002575 10901 net.cpp:399] inception_3a/output_inception_3a/output_0_split -> inception_3a/output_inception_3a/output_0_split_1
I0403 14:38:09.002604 10901 net.cpp:399] inception_3a/output_inception_3a/output_0_split -> inception_3a/output_inception_3a/output_0_split_2
I0403 14:38:09.002629 10901 net.cpp:399] inception_3a/output_inception_3a/output_0_split -> inception_3a/output_inception_3a/output_0_split_3
I0403 14:38:09.002710 10901 net.cpp:141] Setting up inception_3a/output_inception_3a/output_0_split
I0403 14:38:09.002735 10901 net.cpp:148] Top shape: 24 256 28 28 (4816896)
I0403 14:38:09.002758 10901 net.cpp:148] Top shape: 24 256 28 28 (4816896)
I0403 14:38:09.002775 10901 net.cpp:148] Top shape: 24 256 28 28 (4816896)
I0403 14:38:09.002794 10901 net.cpp:148] Top shape: 24 256 28 28 (4816896)
I0403 14:38:09.002809 10901 net.cpp:156] Memory required for data: 657507360
I0403 14:38:09.002825 10901 layer_factory.hpp:77] Creating layer inception_3b/1x1
I0403 14:38:09.002851 10901 net.cpp:91] Creating Layer inception_3b/1x1
I0403 14:38:09.002872 10901 net.cpp:425] inception_3b/1x1 <- inception_3a/output_inception_3a/output_0_split_0
I0403 14:38:09.002893 10901 net.cpp:399] inception_3b/1x1 -> inception_3b/1x1
I0403 14:38:09.004101 10901 net.cpp:141] Setting up inception_3b/1x1
I0403 14:38:09.004149 10901 net.cpp:148] Top shape: 24 128 28 28 (2408448)
I0403 14:38:09.004169 10901 net.cpp:156] Memory required for data: 667141152
I0403 14:38:09.004190 10901 layer_factory.hpp:77] Creating layer inception_3b/relu_1x1
I0403 14:38:09.004215 10901 net.cpp:91] Creating Layer inception_3b/relu_1x1
I0403 14:38:09.004236 10901 net.cpp:425] inception_3b/relu_1x1 <- inception_3b/1x1
I0403 14:38:09.004256 10901 net.cpp:386] inception_3b/relu_1x1 -> inception_3b/1x1 (in-place)
I0403 14:38:09.004441 10901 net.cpp:141] Setting up inception_3b/relu_1x1
I0403 14:38:09.004470 10901 net.cpp:148] Top shape: 24 128 28 28 (2408448)
I0403 14:38:09.004488 10901 net.cpp:156] Memory required for data: 676774944
I0403 14:38:09.004504 10901 layer_factory.hpp:77] Creating layer inception_3b/3x3_reduce
I0403 14:38:09.004529 10901 net.cpp:91] Creating Layer inception_3b/3x3_reduce
I0403 14:38:09.004549 10901 net.cpp:425] inception_3b/3x3_reduce <- inception_3a/output_inception_3a/output_0_split_1
I0403 14:38:09.004571 10901 net.cpp:399] inception_3b/3x3_reduce -> inception_3b/3x3_reduce
I0403 14:38:09.005772 10901 net.cpp:141] Setting up inception_3b/3x3_reduce
I0403 14:38:09.005803 10901 net.cpp:148] Top shape: 24 128 28 28 (2408448)
I0403 14:38:09.005821 10901 net.cpp:156] Memory required for data: 686408736
I0403 14:38:09.005841 10901 layer_factory.hpp:77] Creating layer inception_3b/relu_3x3_reduce
I0403 14:38:09.005864 10901 net.cpp:91] Creating Layer inception_3b/relu_3x3_reduce
I0403 14:38:09.005882 10901 net.cpp:425] inception_3b/relu_3x3_reduce <- inception_3b/3x3_reduce
I0403 14:38:09.005903 10901 net.cpp:386] inception_3b/relu_3x3_reduce -> inception_3b/3x3_reduce (in-place)
I0403 14:38:09.006085 10901 net.cpp:141] Setting up inception_3b/relu_3x3_reduce
I0403 14:38:09.006119 10901 net.cpp:148] Top shape: 24 128 28 28 (2408448)
I0403 14:38:09.006141 10901 net.cpp:156] Memory required for data: 696042528
I0403 14:38:09.006161 10901 layer_factory.hpp:77] Creating layer inception_3b/3x3
I0403 14:38:09.006189 10901 net.cpp:91] Creating Layer inception_3b/3x3
I0403 14:38:09.006211 10901 net.cpp:425] inception_3b/3x3 <- inception_3b/3x3_reduce
I0403 14:38:09.006235 10901 net.cpp:399] inception_3b/3x3 -> inception_3b/3x3
I0403 14:38:09.009284 10901 net.cpp:141] Setting up inception_3b/3x3
I0403 14:38:09.009320 10901 net.cpp:148] Top shape: 24 192 28 28 (3612672)
I0403 14:38:09.009341 10901 net.cpp:156] Memory required for data: 710493216
I0403 14:38:09.009362 10901 layer_factory.hpp:77] Creating layer inception_3b/relu_3x3
I0403 14:38:09.009383 10901 net.cpp:91] Creating Layer inception_3b/relu_3x3
I0403 14:38:09.009402 10901 net.cpp:425] inception_3b/relu_3x3 <- inception_3b/3x3
I0403 14:38:09.009426 10901 net.cpp:386] inception_3b/relu_3x3 -> inception_3b/3x3 (in-place)
I0403 14:38:09.009714 10901 net.cpp:141] Setting up inception_3b/relu_3x3
I0403 14:38:09.009747 10901 net.cpp:148] Top shape: 24 192 28 28 (3612672)
I0403 14:38:09.009768 10901 net.cpp:156] Memory required for data: 724943904
I0403 14:38:09.009786 10901 layer_factory.hpp:77] Creating layer inception_3b/5x5_reduce
I0403 14:38:09.009811 10901 net.cpp:91] Creating Layer inception_3b/5x5_reduce
I0403 14:38:09.009832 10901 net.cpp:425] inception_3b/5x5_reduce <- inception_3a/output_inception_3a/output_0_split_2
I0403 14:38:09.009855 10901 net.cpp:399] inception_3b/5x5_reduce -> inception_3b/5x5_reduce
I0403 14:38:09.010893 10901 net.cpp:141] Setting up inception_3b/5x5_reduce
I0403 14:38:09.010929 10901 net.cpp:148] Top shape: 24 32 28 28 (602112)
I0403 14:38:09.010951 10901 net.cpp:156] Memory required for data: 727352352
I0403 14:38:09.010972 10901 layer_factory.hpp:77] Creating layer inception_3b/relu_5x5_reduce
I0403 14:38:09.010994 10901 net.cpp:91] Creating Layer inception_3b/relu_5x5_reduce
I0403 14:38:09.011014 10901 net.cpp:425] inception_3b/relu_5x5_reduce <- inception_3b/5x5_reduce
I0403 14:38:09.011037 10901 net.cpp:386] inception_3b/relu_5x5_reduce -> inception_3b/5x5_reduce (in-place)
I0403 14:38:09.011250 10901 net.cpp:141] Setting up inception_3b/relu_5x5_reduce
I0403 14:38:09.011278 10901 net.cpp:148] Top shape: 24 32 28 28 (602112)
I0403 14:38:09.011296 10901 net.cpp:156] Memory required for data: 729760800
I0403 14:38:09.011314 10901 layer_factory.hpp:77] Creating layer inception_3b/5x5
I0403 14:38:09.011338 10901 net.cpp:91] Creating Layer inception_3b/5x5
I0403 14:38:09.011361 10901 net.cpp:425] inception_3b/5x5 <- inception_3b/5x5_reduce
I0403 14:38:09.011385 10901 net.cpp:399] inception_3b/5x5 -> inception_3b/5x5
I0403 14:38:09.013452 10901 net.cpp:141] Setting up inception_3b/5x5
I0403 14:38:09.013484 10901 net.cpp:148] Top shape: 24 96 28 28 (1806336)
I0403 14:38:09.013502 10901 net.cpp:156] Memory required for data: 736986144
I0403 14:38:09.013523 10901 layer_factory.hpp:77] Creating layer inception_3b/relu_5x5
I0403 14:38:09.013546 10901 net.cpp:91] Creating Layer inception_3b/relu_5x5
I0403 14:38:09.013567 10901 net.cpp:425] inception_3b/relu_5x5 <- inception_3b/5x5
I0403 14:38:09.013589 10901 net.cpp:386] inception_3b/relu_5x5 -> inception_3b/5x5 (in-place)
I0403 14:38:09.013790 10901 net.cpp:141] Setting up inception_3b/relu_5x5
I0403 14:38:09.013820 10901 net.cpp:148] Top shape: 24 96 28 28 (1806336)
I0403 14:38:09.013838 10901 net.cpp:156] Memory required for data: 744211488
I0403 14:38:09.013854 10901 layer_factory.hpp:77] Creating layer inception_3b/pool
I0403 14:38:09.013875 10901 net.cpp:91] Creating Layer inception_3b/pool
I0403 14:38:09.013893 10901 net.cpp:425] inception_3b/pool <- inception_3a/output_inception_3a/output_0_split_3
I0403 14:38:09.013914 10901 net.cpp:399] inception_3b/pool -> inception_3b/pool
I0403 14:38:09.013975 10901 net.cpp:141] Setting up inception_3b/pool
I0403 14:38:09.014003 10901 net.cpp:148] Top shape: 24 256 28 28 (4816896)
I0403 14:38:09.014019 10901 net.cpp:156] Memory required for data: 763479072
I0403 14:38:09.014037 10901 layer_factory.hpp:77] Creating layer inception_3b/pool_proj
I0403 14:38:09.014065 10901 net.cpp:91] Creating Layer inception_3b/pool_proj
I0403 14:38:09.014087 10901 net.cpp:425] inception_3b/pool_proj <- inception_3b/pool
I0403 14:38:09.014109 10901 net.cpp:399] inception_3b/pool_proj -> inception_3b/pool_proj
I0403 14:38:09.015249 10901 net.cpp:141] Setting up inception_3b/pool_proj
I0403 14:38:09.015281 10901 net.cpp:148] Top shape: 24 64 28 28 (1204224)
I0403 14:38:09.015298 10901 net.cpp:156] Memory required for data: 768295968
I0403 14:38:09.015319 10901 layer_factory.hpp:77] Creating layer inception_3b/relu_pool_proj
I0403 14:38:09.015338 10901 net.cpp:91] Creating Layer inception_3b/relu_pool_proj
I0403 14:38:09.015357 10901 net.cpp:425] inception_3b/relu_pool_proj <- inception_3b/pool_proj
I0403 14:38:09.015378 10901 net.cpp:386] inception_3b/relu_pool_proj -> inception_3b/pool_proj (in-place)
I0403 14:38:09.015784 10901 net.cpp:141] Setting up inception_3b/relu_pool_proj
I0403 14:38:09.015813 10901 net.cpp:148] Top shape: 24 64 28 28 (1204224)
I0403 14:38:09.015831 10901 net.cpp:156] Memory required for data: 773112864
I0403 14:38:09.015849 10901 layer_factory.hpp:77] Creating layer inception_3b/output
I0403 14:38:09.015868 10901 net.cpp:91] Creating Layer inception_3b/output
I0403 14:38:09.015885 10901 net.cpp:425] inception_3b/output <- inception_3b/1x1
I0403 14:38:09.015903 10901 net.cpp:425] inception_3b/output <- inception_3b/3x3
I0403 14:38:09.015921 10901 net.cpp:425] inception_3b/output <- inception_3b/5x5
I0403 14:38:09.015938 10901 net.cpp:425] inception_3b/output <- inception_3b/pool_proj
I0403 14:38:09.015959 10901 net.cpp:399] inception_3b/output -> inception_3b/output
I0403 14:38:09.016005 10901 net.cpp:141] Setting up inception_3b/output
I0403 14:38:09.016033 10901 net.cpp:148] Top shape: 24 480 28 28 (9031680)
I0403 14:38:09.016050 10901 net.cpp:156] Memory required for data: 809239584
I0403 14:38:09.016067 10901 layer_factory.hpp:77] Creating layer pool3/3x3_s2
I0403 14:38:09.016088 10901 net.cpp:91] Creating Layer pool3/3x3_s2
I0403 14:38:09.016108 10901 net.cpp:425] pool3/3x3_s2 <- inception_3b/output
I0403 14:38:09.016154 10901 net.cpp:399] pool3/3x3_s2 -> pool3/3x3_s2
I0403 14:38:09.016217 10901 net.cpp:141] Setting up pool3/3x3_s2
I0403 14:38:09.016244 10901 net.cpp:148] Top shape: 24 480 14 14 (2257920)
I0403 14:38:09.016260 10901 net.cpp:156] Memory required for data: 818271264
I0403 14:38:09.016278 10901 layer_factory.hpp:77] Creating layer pool3/3x3_s2_pool3/3x3_s2_0_split
I0403 14:38:09.016299 10901 net.cpp:91] Creating Layer pool3/3x3_s2_pool3/3x3_s2_0_split
I0403 14:38:09.016317 10901 net.cpp:425] pool3/3x3_s2_pool3/3x3_s2_0_split <- pool3/3x3_s2
I0403 14:38:09.016338 10901 net.cpp:399] pool3/3x3_s2_pool3/3x3_s2_0_split -> pool3/3x3_s2_pool3/3x3_s2_0_split_0
I0403 14:38:09.016360 10901 net.cpp:399] pool3/3x3_s2_pool3/3x3_s2_0_split -> pool3/3x3_s2_pool3/3x3_s2_0_split_1
I0403 14:38:09.016381 10901 net.cpp:399] pool3/3x3_s2_pool3/3x3_s2_0_split -> pool3/3x3_s2_pool3/3x3_s2_0_split_2
I0403 14:38:09.016403 10901 net.cpp:399] pool3/3x3_s2_pool3/3x3_s2_0_split -> pool3/3x3_s2_pool3/3x3_s2_0_split_3
I0403 14:38:09.016486 10901 net.cpp:141] Setting up pool3/3x3_s2_pool3/3x3_s2_0_split
I0403 14:38:09.016513 10901 net.cpp:148] Top shape: 24 480 14 14 (2257920)
I0403 14:38:09.016531 10901 net.cpp:148] Top shape: 24 480 14 14 (2257920)
I0403 14:38:09.016549 10901 net.cpp:148] Top shape: 24 480 14 14 (2257920)
I0403 14:38:09.016566 10901 net.cpp:148] Top shape: 24 480 14 14 (2257920)
I0403 14:38:09.016582 10901 net.cpp:156] Memory required for data: 854397984
I0403 14:38:09.016598 10901 layer_factory.hpp:77] Creating layer inception_4a/1x1
I0403 14:38:09.016623 10901 net.cpp:91] Creating Layer inception_4a/1x1
I0403 14:38:09.016643 10901 net.cpp:425] inception_4a/1x1 <- pool3/3x3_s2_pool3/3x3_s2_0_split_0
I0403 14:38:09.016667 10901 net.cpp:399] inception_4a/1x1 -> inception_4a/1x1
I0403 14:38:11.057250 10901 net.cpp:141] Setting up inception_4a/1x1
I0403 14:38:11.057420 10901 net.cpp:148] Top shape: 24 192 14 14 (903168)
I0403 14:38:11.057440 10901 net.cpp:156] Memory required for data: 858010656
I0403 14:38:11.057462 10901 layer_factory.hpp:77] Creating layer inception_4a/relu_1x1
I0403 14:38:11.057517 10901 net.cpp:91] Creating Layer inception_4a/relu_1x1
I0403 14:38:11.057564 10901 net.cpp:425] inception_4a/relu_1x1 <- inception_4a/1x1
I0403 14:38:11.057600 10901 net.cpp:386] inception_4a/relu_1x1 -> inception_4a/1x1 (in-place)
I0403 14:38:11.057845 10901 net.cpp:141] Setting up inception_4a/relu_1x1
I0403 14:38:11.057905 10901 net.cpp:148] Top shape: 24 192 14 14 (903168)
I0403 14:38:11.057945 10901 net.cpp:156] Memory required for data: 861623328
I0403 14:38:11.057960 10901 layer_factory.hpp:77] Creating layer inception_4a/3x3_reduce
I0403 14:38:11.057986 10901 net.cpp:91] Creating Layer inception_4a/3x3_reduce
I0403 14:38:11.058002 10901 net.cpp:425] inception_4a/3x3_reduce <- pool3/3x3_s2_pool3/3x3_s2_0_split_1
I0403 14:38:11.058024 10901 net.cpp:399] inception_4a/3x3_reduce -> inception_4a/3x3_reduce
I0403 14:38:11.059649 10901 net.cpp:141] Setting up inception_4a/3x3_reduce
I0403 14:38:11.059679 10901 net.cpp:148] Top shape: 24 96 14 14 (451584)
I0403 14:38:11.059694 10901 net.cpp:156] Memory required for data: 863429664
I0403 14:38:11.059722 10901 layer_factory.hpp:77] Creating layer inception_4a/relu_3x3_reduce
I0403 14:38:11.059741 10901 net.cpp:91] Creating Layer inception_4a/relu_3x3_reduce
I0403 14:38:11.059757 10901 net.cpp:425] inception_4a/relu_3x3_reduce <- inception_4a/3x3_reduce
I0403 14:38:11.059777 10901 net.cpp:386] inception_4a/relu_3x3_reduce -> inception_4a/3x3_reduce (in-place)
I0403 14:38:11.059960 10901 net.cpp:141] Setting up inception_4a/relu_3x3_reduce
I0403 14:38:11.059986 10901 net.cpp:148] Top shape: 24 96 14 14 (451584)
I0403 14:38:11.060003 10901 net.cpp:156] Memory required for data: 865236000
I0403 14:38:11.060017 10901 layer_factory.hpp:77] Creating layer inception_4a/3x3
I0403 14:38:11.060040 10901 net.cpp:91] Creating Layer inception_4a/3x3
I0403 14:38:11.060058 10901 net.cpp:425] inception_4a/3x3 <- inception_4a/3x3_reduce
I0403 14:38:11.060081 10901 net.cpp:399] inception_4a/3x3 -> inception_4a/3x3
I0403 14:38:11.063397 10901 net.cpp:141] Setting up inception_4a/3x3
I0403 14:38:11.063427 10901 net.cpp:148] Top shape: 24 208 14 14 (978432)
I0403 14:38:11.063443 10901 net.cpp:156] Memory required for data: 869149728
I0403 14:38:11.063462 10901 layer_factory.hpp:77] Creating layer inception_4a/relu_3x3
I0403 14:38:11.063482 10901 net.cpp:91] Creating Layer inception_4a/relu_3x3
I0403 14:38:11.063501 10901 net.cpp:425] inception_4a/relu_3x3 <- inception_4a/3x3
I0403 14:38:11.063519 10901 net.cpp:386] inception_4a/relu_3x3 -> inception_4a/3x3 (in-place)
I0403 14:38:11.063856 10901 net.cpp:141] Setting up inception_4a/relu_3x3
I0403 14:38:11.063882 10901 net.cpp:148] Top shape: 24 208 14 14 (978432)
I0403 14:38:11.063897 10901 net.cpp:156] Memory required for data: 873063456
I0403 14:38:11.063912 10901 layer_factory.hpp:77] Creating layer inception_4a/5x5_reduce
I0403 14:38:11.063937 10901 net.cpp:91] Creating Layer inception_4a/5x5_reduce
I0403 14:38:11.063956 10901 net.cpp:425] inception_4a/5x5_reduce <- pool3/3x3_s2_pool3/3x3_s2_0_split_2
I0403 14:38:11.063976 10901 net.cpp:399] inception_4a/5x5_reduce -> inception_4a/5x5_reduce
I0403 14:38:11.065009 10901 net.cpp:141] Setting up inception_4a/5x5_reduce
I0403 14:38:11.065037 10901 net.cpp:148] Top shape: 24 16 14 14 (75264)
I0403 14:38:11.065053 10901 net.cpp:156] Memory required for data: 873364512
I0403 14:38:11.065074 10901 layer_factory.hpp:77] Creating layer inception_4a/relu_5x5_reduce
I0403 14:38:11.065094 10901 net.cpp:91] Creating Layer inception_4a/relu_5x5_reduce
I0403 14:38:11.065111 10901 net.cpp:425] inception_4a/relu_5x5_reduce <- inception_4a/5x5_reduce
I0403 14:38:11.065132 10901 net.cpp:386] inception_4a/relu_5x5_reduce -> inception_4a/5x5_reduce (in-place)
I0403 14:38:11.065325 10901 net.cpp:141] Setting up inception_4a/relu_5x5_reduce
I0403 14:38:11.065349 10901 net.cpp:148] Top shape: 24 16 14 14 (75264)
I0403 14:38:11.065363 10901 net.cpp:156] Memory required for data: 873665568
I0403 14:38:11.065381 10901 layer_factory.hpp:77] Creating layer inception_4a/5x5
I0403 14:38:11.065402 10901 net.cpp:91] Creating Layer inception_4a/5x5
I0403 14:38:11.065418 10901 net.cpp:425] inception_4a/5x5 <- inception_4a/5x5_reduce
I0403 14:38:11.065439 10901 net.cpp:399] inception_4a/5x5 -> inception_4a/5x5
I0403 14:38:11.072001 10901 net.cpp:141] Setting up inception_4a/5x5
I0403 14:38:11.072099 10901 net.cpp:148] Top shape: 24 48 14 14 (225792)
I0403 14:38:11.072118 10901 net.cpp:156] Memory required for data: 874568736
I0403 14:38:11.072150 10901 layer_factory.hpp:77] Creating layer inception_4a/relu_5x5
I0403 14:38:11.072176 10901 net.cpp:91] Creating Layer inception_4a/relu_5x5
I0403 14:38:11.072196 10901 net.cpp:425] inception_4a/relu_5x5 <- inception_4a/5x5
I0403 14:38:11.072221 10901 net.cpp:386] inception_4a/relu_5x5 -> inception_4a/5x5 (in-place)
I0403 14:38:11.072425 10901 net.cpp:141] Setting up inception_4a/relu_5x5
I0403 14:38:11.072453 10901 net.cpp:148] Top shape: 24 48 14 14 (225792)
I0403 14:38:11.072470 10901 net.cpp:156] Memory required for data: 875471904
I0403 14:38:11.072486 10901 layer_factory.hpp:77] Creating layer inception_4a/pool
I0403 14:38:11.072510 10901 net.cpp:91] Creating Layer inception_4a/pool
I0403 14:38:11.072530 10901 net.cpp:425] inception_4a/pool <- pool3/3x3_s2_pool3/3x3_s2_0_split_3
I0403 14:38:11.072551 10901 net.cpp:399] inception_4a/pool -> inception_4a/pool
I0403 14:38:11.072626 10901 net.cpp:141] Setting up inception_4a/pool
I0403 14:38:11.072654 10901 net.cpp:148] Top shape: 24 480 14 14 (2257920)
I0403 14:38:11.072670 10901 net.cpp:156] Memory required for data: 884503584
I0403 14:38:11.072687 10901 layer_factory.hpp:77] Creating layer inception_4a/pool_proj
I0403 14:38:11.072715 10901 net.cpp:91] Creating Layer inception_4a/pool_proj
I0403 14:38:11.072736 10901 net.cpp:425] inception_4a/pool_proj <- inception_4a/pool
I0403 14:38:11.072758 10901 net.cpp:399] inception_4a/pool_proj -> inception_4a/pool_proj
I0403 14:38:11.078994 10901 net.cpp:141] Setting up inception_4a/pool_proj
I0403 14:38:11.079094 10901 net.cpp:148] Top shape: 24 64 14 14 (301056)
I0403 14:38:11.079156 10901 net.cpp:156] Memory required for data: 885707808
I0403 14:38:11.079182 10901 layer_factory.hpp:77] Creating layer inception_4a/relu_pool_proj
I0403 14:38:11.079210 10901 net.cpp:91] Creating Layer inception_4a/relu_pool_proj
I0403 14:38:11.079232 10901 net.cpp:425] inception_4a/relu_pool_proj <- inception_4a/pool_proj
I0403 14:38:11.079255 10901 net.cpp:386] inception_4a/relu_pool_proj -> inception_4a/pool_proj (in-place)
I0403 14:38:11.084784 10901 net.cpp:141] Setting up inception_4a/relu_pool_proj
I0403 14:38:11.084887 10901 net.cpp:148] Top shape: 24 64 14 14 (301056)
I0403 14:38:11.084904 10901 net.cpp:156] Memory required for data: 886912032
I0403 14:38:11.084924 10901 layer_factory.hpp:77] Creating layer inception_4a/output
I0403 14:38:11.084949 10901 net.cpp:91] Creating Layer inception_4a/output
I0403 14:38:11.084969 10901 net.cpp:425] inception_4a/output <- inception_4a/1x1
I0403 14:38:11.084991 10901 net.cpp:425] inception_4a/output <- inception_4a/3x3
I0403 14:38:11.085014 10901 net.cpp:425] inception_4a/output <- inception_4a/5x5
I0403 14:38:11.085033 10901 net.cpp:425] inception_4a/output <- inception_4a/pool_proj
I0403 14:38:11.085053 10901 net.cpp:399] inception_4a/output -> inception_4a/output
I0403 14:38:11.085124 10901 net.cpp:141] Setting up inception_4a/output
I0403 14:38:11.085175 10901 net.cpp:148] Top shape: 24 512 14 14 (2408448)
I0403 14:38:11.085194 10901 net.cpp:156] Memory required for data: 896545824
I0403 14:38:11.085211 10901 layer_factory.hpp:77] Creating layer inception_4a/output_inception_4a/output_0_split
I0403 14:38:11.085232 10901 net.cpp:91] Creating Layer inception_4a/output_inception_4a/output_0_split
I0403 14:38:11.085248 10901 net.cpp:425] inception_4a/output_inception_4a/output_0_split <- inception_4a/output
I0403 14:38:11.085270 10901 net.cpp:399] inception_4a/output_inception_4a/output_0_split -> inception_4a/output_inception_4a/output_0_split_0
I0403 14:38:11.085295 10901 net.cpp:399] inception_4a/output_inception_4a/output_0_split -> inception_4a/output_inception_4a/output_0_split_1
I0403 14:38:11.085319 10901 net.cpp:399] inception_4a/output_inception_4a/output_0_split -> inception_4a/output_inception_4a/output_0_split_2
I0403 14:38:11.085342 10901 net.cpp:399] inception_4a/output_inception_4a/output_0_split -> inception_4a/output_inception_4a/output_0_split_3
I0403 14:38:11.085366 10901 net.cpp:399] inception_4a/output_inception_4a/output_0_split -> inception_4a/output_inception_4a/output_0_split_4
I0403 14:38:11.085477 10901 net.cpp:141] Setting up inception_4a/output_inception_4a/output_0_split
I0403 14:38:11.085505 10901 net.cpp:148] Top shape: 24 512 14 14 (2408448)
I0403 14:38:11.085525 10901 net.cpp:148] Top shape: 24 512 14 14 (2408448)
I0403 14:38:11.085544 10901 net.cpp:148] Top shape: 24 512 14 14 (2408448)
I0403 14:38:11.085561 10901 net.cpp:148] Top shape: 24 512 14 14 (2408448)
I0403 14:38:11.085578 10901 net.cpp:148] Top shape: 24 512 14 14 (2408448)
I0403 14:38:11.085594 10901 net.cpp:156] Memory required for data: 944714784
I0403 14:38:11.085610 10901 layer_factory.hpp:77] Creating layer loss1/ave_pool
I0403 14:38:11.085631 10901 net.cpp:91] Creating Layer loss1/ave_pool
I0403 14:38:11.085649 10901 net.cpp:425] loss1/ave_pool <- inception_4a/output_inception_4a/output_0_split_0
I0403 14:38:11.085675 10901 net.cpp:399] loss1/ave_pool -> loss1/ave_pool
I0403 14:38:11.085911 10901 net.cpp:141] Setting up loss1/ave_pool
I0403 14:38:11.085939 10901 net.cpp:148] Top shape: 24 512 4 4 (196608)
I0403 14:38:11.085957 10901 net.cpp:156] Memory required for data: 945501216
I0403 14:38:11.085973 10901 layer_factory.hpp:77] Creating layer loss1/conv
I0403 14:38:11.086000 10901 net.cpp:91] Creating Layer loss1/conv
I0403 14:38:11.086020 10901 net.cpp:425] loss1/conv <- loss1/ave_pool
I0403 14:38:11.086045 10901 net.cpp:399] loss1/conv -> loss1/conv
I0403 14:38:11.091714 10901 net.cpp:141] Setting up loss1/conv
I0403 14:38:11.091807 10901 net.cpp:148] Top shape: 24 128 4 4 (49152)
I0403 14:38:11.091858 10901 net.cpp:156] Memory required for data: 945697824
I0403 14:38:11.091882 10901 layer_factory.hpp:77] Creating layer loss1/relu_conv
I0403 14:38:11.091909 10901 net.cpp:91] Creating Layer loss1/relu_conv
I0403 14:38:11.091929 10901 net.cpp:425] loss1/relu_conv <- loss1/conv
I0403 14:38:11.091951 10901 net.cpp:386] loss1/relu_conv -> loss1/conv (in-place)
I0403 14:38:11.097256 10901 net.cpp:141] Setting up loss1/relu_conv
I0403 14:38:11.097355 10901 net.cpp:148] Top shape: 24 128 4 4 (49152)
I0403 14:38:11.097371 10901 net.cpp:156] Memory required for data: 945894432
I0403 14:38:11.097390 10901 layer_factory.hpp:77] Creating layer loss1/fc
I0403 14:38:11.097427 10901 net.cpp:91] Creating Layer loss1/fc
I0403 14:38:11.097448 10901 net.cpp:425] loss1/fc <- loss1/conv
I0403 14:38:11.097472 10901 net.cpp:399] loss1/fc -> loss1/fc
I0403 14:38:11.125401 10901 net.cpp:141] Setting up loss1/fc
I0403 14:38:11.125499 10901 net.cpp:148] Top shape: 24 1024 (24576)
I0403 14:38:11.125516 10901 net.cpp:156] Memory required for data: 945992736
I0403 14:38:11.125538 10901 layer_factory.hpp:77] Creating layer loss1/relu_fc
I0403 14:38:11.125560 10901 net.cpp:91] Creating Layer loss1/relu_fc
I0403 14:38:11.125578 10901 net.cpp:425] loss1/relu_fc <- loss1/fc
I0403 14:38:11.125599 10901 net.cpp:386] loss1/relu_fc -> loss1/fc (in-place)
I0403 14:38:11.125838 10901 net.cpp:141] Setting up loss1/relu_fc
I0403 14:38:11.125866 10901 net.cpp:148] Top shape: 24 1024 (24576)
I0403 14:38:11.125882 10901 net.cpp:156] Memory required for data: 946091040
I0403 14:38:11.125897 10901 layer_factory.hpp:77] Creating layer loss1/drop_fc
I0403 14:38:11.125926 10901 net.cpp:91] Creating Layer loss1/drop_fc
I0403 14:38:11.125943 10901 net.cpp:425] loss1/drop_fc <- loss1/fc
I0403 14:38:11.125960 10901 net.cpp:386] loss1/drop_fc -> loss1/fc (in-place)
I0403 14:38:11.126019 10901 net.cpp:141] Setting up loss1/drop_fc
I0403 14:38:11.126042 10901 net.cpp:148] Top shape: 24 1024 (24576)
I0403 14:38:11.126057 10901 net.cpp:156] Memory required for data: 946189344
I0403 14:38:11.126072 10901 layer_factory.hpp:77] Creating layer loss1/classifier_plantvillage
I0403 14:38:11.126092 10901 net.cpp:91] Creating Layer loss1/classifier_plantvillage
I0403 14:38:11.126108 10901 net.cpp:425] loss1/classifier_plantvillage <- loss1/fc
I0403 14:38:11.126132 10901 net.cpp:399] loss1/classifier_plantvillage -> loss1/classifier_plantvillage
I0403 14:38:11.130589 10901 net.cpp:141] Setting up loss1/classifier_plantvillage
I0403 14:38:11.130687 10901 net.cpp:148] Top shape: 24 38 (912)
I0403 14:38:11.130705 10901 net.cpp:156] Memory required for data: 946192992
I0403 14:38:11.130728 10901 layer_factory.hpp:77] Creating layer loss1/classifier_plantvillage_loss1/classifier_plantvillage_0_split
I0403 14:38:11.130751 10901 net.cpp:91] Creating Layer loss1/classifier_plantvillage_loss1/classifier_plantvillage_0_split
I0403 14:38:11.130770 10901 net.cpp:425] loss1/classifier_plantvillage_loss1/classifier_plantvillage_0_split <- loss1/classifier_plantvillage
I0403 14:38:11.130791 10901 net.cpp:399] loss1/classifier_plantvillage_loss1/classifier_plantvillage_0_split -> loss1/classifier_plantvillage_loss1/classifier_plantvillage_0_split_0
I0403 14:38:11.130813 10901 net.cpp:399] loss1/classifier_plantvillage_loss1/classifier_plantvillage_0_split -> loss1/classifier_plantvillage_loss1/classifier_plantvillage_0_split_1
I0403 14:38:11.130834 10901 net.cpp:399] loss1/classifier_plantvillage_loss1/classifier_plantvillage_0_split -> loss1/classifier_plantvillage_loss1/classifier_plantvillage_0_split_2
I0403 14:38:11.130904 10901 net.cpp:141] Setting up loss1/classifier_plantvillage_loss1/classifier_plantvillage_0_split
I0403 14:38:11.130928 10901 net.cpp:148] Top shape: 24 38 (912)
I0403 14:38:11.130944 10901 net.cpp:148] Top shape: 24 38 (912)
I0403 14:38:11.130959 10901 net.cpp:148] Top shape: 24 38 (912)
I0403 14:38:11.130972 10901 net.cpp:156] Memory required for data: 946203936
I0403 14:38:11.130986 10901 layer_factory.hpp:77] Creating layer inception_4b/1x1
I0403 14:38:11.131013 10901 net.cpp:91] Creating Layer inception_4b/1x1
I0403 14:38:11.131065 10901 net.cpp:425] inception_4b/1x1 <- inception_4a/output_inception_4a/output_0_split_1
I0403 14:38:11.131086 10901 net.cpp:399] inception_4b/1x1 -> inception_4b/1x1
I0403 14:38:11.137306 10901 net.cpp:141] Setting up inception_4b/1x1
I0403 14:38:11.137403 10901 net.cpp:148] Top shape: 24 160 14 14 (752640)
I0403 14:38:11.137419 10901 net.cpp:156] Memory required for data: 949214496
I0403 14:38:11.137442 10901 layer_factory.hpp:77] Creating layer inception_4b/relu_1x1
I0403 14:38:11.137466 10901 net.cpp:91] Creating Layer inception_4b/relu_1x1
I0403 14:38:11.137485 10901 net.cpp:425] inception_4b/relu_1x1 <- inception_4b/1x1
I0403 14:38:11.137506 10901 net.cpp:386] inception_4b/relu_1x1 -> inception_4b/1x1 (in-place)
I0403 14:38:11.137686 10901 net.cpp:141] Setting up inception_4b/relu_1x1
I0403 14:38:11.137712 10901 net.cpp:148] Top shape: 24 160 14 14 (752640)
I0403 14:38:11.137727 10901 net.cpp:156] Memory required for data: 952225056
I0403 14:38:11.137742 10901 layer_factory.hpp:77] Creating layer inception_4b/3x3_reduce
I0403 14:38:11.137769 10901 net.cpp:91] Creating Layer inception_4b/3x3_reduce
I0403 14:38:11.137787 10901 net.cpp:425] inception_4b/3x3_reduce <- inception_4a/output_inception_4a/output_0_split_2
I0403 14:38:11.137811 10901 net.cpp:399] inception_4b/3x3_reduce -> inception_4b/3x3_reduce
I0403 14:38:11.143934 10901 net.cpp:141] Setting up inception_4b/3x3_reduce
I0403 14:38:11.144028 10901 net.cpp:148] Top shape: 24 112 14 14 (526848)
I0403 14:38:11.144047 10901 net.cpp:156] Memory required for data: 954332448
I0403 14:38:11.144069 10901 layer_factory.hpp:77] Creating layer inception_4b/relu_3x3_reduce
I0403 14:38:11.144093 10901 net.cpp:91] Creating Layer inception_4b/relu_3x3_reduce
I0403 14:38:11.144110 10901 net.cpp:425] inception_4b/relu_3x3_reduce <- inception_4b/3x3_reduce
I0403 14:38:11.144137 10901 net.cpp:386] inception_4b/relu_3x3_reduce -> inception_4b/3x3_reduce (in-place)
I0403 14:38:11.144503 10901 net.cpp:141] Setting up inception_4b/relu_3x3_reduce
I0403 14:38:11.144531 10901 net.cpp:148] Top shape: 24 112 14 14 (526848)
I0403 14:38:11.144559 10901 net.cpp:156] Memory required for data: 956439840
I0403 14:38:11.144575 10901 layer_factory.hpp:77] Creating layer inception_4b/3x3
I0403 14:38:11.144603 10901 net.cpp:91] Creating Layer inception_4b/3x3
I0403 14:38:11.144623 10901 net.cpp:425] inception_4b/3x3 <- inception_4b/3x3_reduce
I0403 14:38:11.144645 10901 net.cpp:399] inception_4b/3x3 -> inception_4b/3x3
I0403 14:38:11.157726 10901 net.cpp:141] Setting up inception_4b/3x3
I0403 14:38:11.157822 10901 net.cpp:148] Top shape: 24 224 14 14 (1053696)
I0403 14:38:11.157840 10901 net.cpp:156] Memory required for data: 960654624
I0403 14:38:11.157863 10901 layer_factory.hpp:77] Creating layer inception_4b/relu_3x3
I0403 14:38:11.157889 10901 net.cpp:91] Creating Layer inception_4b/relu_3x3
I0403 14:38:11.157909 10901 net.cpp:425] inception_4b/relu_3x3 <- inception_4b/3x3
I0403 14:38:11.157930 10901 net.cpp:386] inception_4b/relu_3x3 -> inception_4b/3x3 (in-place)
I0403 14:38:11.158115 10901 net.cpp:141] Setting up inception_4b/relu_3x3
I0403 14:38:11.158149 10901 net.cpp:148] Top shape: 24 224 14 14 (1053696)
I0403 14:38:11.158166 10901 net.cpp:156] Memory required for data: 964869408
I0403 14:38:11.158182 10901 layer_factory.hpp:77] Creating layer inception_4b/5x5_reduce
I0403 14:38:11.158210 10901 net.cpp:91] Creating Layer inception_4b/5x5_reduce
I0403 14:38:11.158228 10901 net.cpp:425] inception_4b/5x5_reduce <- inception_4a/output_inception_4a/output_0_split_3
I0403 14:38:11.158249 10901 net.cpp:399] inception_4b/5x5_reduce -> inception_4b/5x5_reduce
I0403 14:38:11.164489 10901 net.cpp:141] Setting up inception_4b/5x5_reduce
I0403 14:38:11.164587 10901 net.cpp:148] Top shape: 24 24 14 14 (112896)
I0403 14:38:11.164605 10901 net.cpp:156] Memory required for data: 965320992
I0403 14:38:11.164628 10901 layer_factory.hpp:77] Creating layer inception_4b/relu_5x5_reduce
I0403 14:38:11.164651 10901 net.cpp:91] Creating Layer inception_4b/relu_5x5_reduce
I0403 14:38:11.164705 10901 net.cpp:425] inception_4b/relu_5x5_reduce <- inception_4b/5x5_reduce
I0403 14:38:11.164727 10901 net.cpp:386] inception_4b/relu_5x5_reduce -> inception_4b/5x5_reduce (in-place)
I0403 14:38:11.164916 10901 net.cpp:141] Setting up inception_4b/relu_5x5_reduce
I0403 14:38:11.164942 10901 net.cpp:148] Top shape: 24 24 14 14 (112896)
I0403 14:38:11.164958 10901 net.cpp:156] Memory required for data: 965772576
I0403 14:38:11.164973 10901 layer_factory.hpp:77] Creating layer inception_4b/5x5
I0403 14:38:11.164999 10901 net.cpp:91] Creating Layer inception_4b/5x5
I0403 14:38:11.165017 10901 net.cpp:425] inception_4b/5x5 <- inception_4b/5x5_reduce
I0403 14:38:11.165040 10901 net.cpp:399] inception_4b/5x5 -> inception_4b/5x5
I0403 14:38:11.171257 10901 net.cpp:141] Setting up inception_4b/5x5
I0403 14:38:11.171355 10901 net.cpp:148] Top shape: 24 64 14 14 (301056)
I0403 14:38:11.171372 10901 net.cpp:156] Memory required for data: 966976800
I0403 14:38:11.171397 10901 layer_factory.hpp:77] Creating layer inception_4b/relu_5x5
I0403 14:38:11.171422 10901 net.cpp:91] Creating Layer inception_4b/relu_5x5
I0403 14:38:11.171444 10901 net.cpp:425] inception_4b/relu_5x5 <- inception_4b/5x5
I0403 14:38:11.171465 10901 net.cpp:386] inception_4b/relu_5x5 -> inception_4b/5x5 (in-place)
I0403 14:38:11.171779 10901 net.cpp:141] Setting up inception_4b/relu_5x5
I0403 14:38:11.171808 10901 net.cpp:148] Top shape: 24 64 14 14 (301056)
I0403 14:38:11.171824 10901 net.cpp:156] Memory required for data: 968181024
I0403 14:38:11.171840 10901 layer_factory.hpp:77] Creating layer inception_4b/pool
I0403 14:38:11.171866 10901 net.cpp:91] Creating Layer inception_4b/pool
I0403 14:38:11.171886 10901 net.cpp:425] inception_4b/pool <- inception_4a/output_inception_4a/output_0_split_4
I0403 14:38:11.171908 10901 net.cpp:399] inception_4b/pool -> inception_4b/pool
I0403 14:38:11.171982 10901 net.cpp:141] Setting up inception_4b/pool
I0403 14:38:11.172008 10901 net.cpp:148] Top shape: 24 512 14 14 (2408448)
I0403 14:38:11.172024 10901 net.cpp:156] Memory required for data: 977814816
I0403 14:38:11.172039 10901 layer_factory.hpp:77] Creating layer inception_4b/pool_proj
I0403 14:38:11.172067 10901 net.cpp:91] Creating Layer inception_4b/pool_proj
I0403 14:38:11.172098 10901 net.cpp:425] inception_4b/pool_proj <- inception_4b/pool
I0403 14:38:11.172119 10901 net.cpp:399] inception_4b/pool_proj -> inception_4b/pool_proj
I0403 14:38:11.177134 10901 net.cpp:141] Setting up inception_4b/pool_proj
I0403 14:38:11.177232 10901 net.cpp:148] Top shape: 24 64 14 14 (301056)
I0403 14:38:11.177251 10901 net.cpp:156] Memory required for data: 979019040
I0403 14:38:11.177274 10901 layer_factory.hpp:77] Creating layer inception_4b/relu_pool_proj
I0403 14:38:11.177297 10901 net.cpp:91] Creating Layer inception_4b/relu_pool_proj
I0403 14:38:11.177315 10901 net.cpp:425] inception_4b/relu_pool_proj <- inception_4b/pool_proj
I0403 14:38:11.177337 10901 net.cpp:386] inception_4b/relu_pool_proj -> inception_4b/pool_proj (in-place)
I0403 14:38:11.177534 10901 net.cpp:141] Setting up inception_4b/relu_pool_proj
I0403 14:38:11.177573 10901 net.cpp:148] Top shape: 24 64 14 14 (301056)
I0403 14:38:11.177590 10901 net.cpp:156] Memory required for data: 980223264
I0403 14:38:11.177606 10901 layer_factory.hpp:77] Creating layer inception_4b/output
I0403 14:38:11.177626 10901 net.cpp:91] Creating Layer inception_4b/output
I0403 14:38:11.177644 10901 net.cpp:425] inception_4b/output <- inception_4b/1x1
I0403 14:38:11.177662 10901 net.cpp:425] inception_4b/output <- inception_4b/3x3
I0403 14:38:11.177680 10901 net.cpp:425] inception_4b/output <- inception_4b/5x5
I0403 14:38:11.177697 10901 net.cpp:425] inception_4b/output <- inception_4b/pool_proj
I0403 14:38:11.177717 10901 net.cpp:399] inception_4b/output -> inception_4b/output
I0403 14:38:11.177773 10901 net.cpp:141] Setting up inception_4b/output
I0403 14:38:11.177808 10901 net.cpp:148] Top shape: 24 512 14 14 (2408448)
I0403 14:38:11.177825 10901 net.cpp:156] Memory required for data: 989857056
I0403 14:38:11.177878 10901 layer_factory.hpp:77] Creating layer inception_4b/output_inception_4b/output_0_split
I0403 14:38:11.177897 10901 net.cpp:91] Creating Layer inception_4b/output_inception_4b/output_0_split
I0403 14:38:11.177913 10901 net.cpp:425] inception_4b/output_inception_4b/output_0_split <- inception_4b/output
I0403 14:38:11.177930 10901 net.cpp:399] inception_4b/output_inception_4b/output_0_split -> inception_4b/output_inception_4b/output_0_split_0
I0403 14:38:11.177953 10901 net.cpp:399] inception_4b/output_inception_4b/output_0_split -> inception_4b/output_inception_4b/output_0_split_1
I0403 14:38:11.177974 10901 net.cpp:399] inception_4b/output_inception_4b/output_0_split -> inception_4b/output_inception_4b/output_0_split_2
I0403 14:38:11.177995 10901 net.cpp:399] inception_4b/output_inception_4b/output_0_split -> inception_4b/output_inception_4b/output_0_split_3
I0403 14:38:11.178081 10901 net.cpp:141] Setting up inception_4b/output_inception_4b/output_0_split
I0403 14:38:11.178103 10901 net.cpp:148] Top shape: 24 512 14 14 (2408448)
I0403 14:38:11.178119 10901 net.cpp:148] Top shape: 24 512 14 14 (2408448)
I0403 14:38:11.178140 10901 net.cpp:148] Top shape: 24 512 14 14 (2408448)
I0403 14:38:11.178155 10901 net.cpp:148] Top shape: 24 512 14 14 (2408448)
I0403 14:38:11.178169 10901 net.cpp:156] Memory required for data: 1028392224
I0403 14:38:11.178184 10901 layer_factory.hpp:77] Creating layer inception_4c/1x1
I0403 14:38:11.178215 10901 net.cpp:91] Creating Layer inception_4c/1x1
I0403 14:38:11.178232 10901 net.cpp:425] inception_4c/1x1 <- inception_4b/output_inception_4b/output_0_split_0
I0403 14:38:11.178251 10901 net.cpp:399] inception_4c/1x1 -> inception_4c/1x1
I0403 14:38:11.181362 10901 net.cpp:141] Setting up inception_4c/1x1
I0403 14:38:11.181453 10901 net.cpp:148] Top shape: 24 128 14 14 (602112)
I0403 14:38:11.181470 10901 net.cpp:156] Memory required for data: 1030800672
I0403 14:38:11.181493 10901 layer_factory.hpp:77] Creating layer inception_4c/relu_1x1
I0403 14:38:11.181516 10901 net.cpp:91] Creating Layer inception_4c/relu_1x1
I0403 14:38:11.181535 10901 net.cpp:425] inception_4c/relu_1x1 <- inception_4c/1x1
I0403 14:38:11.181557 10901 net.cpp:386] inception_4c/relu_1x1 -> inception_4c/1x1 (in-place)
I0403 14:38:11.181736 10901 net.cpp:141] Setting up inception_4c/relu_1x1
I0403 14:38:11.181762 10901 net.cpp:148] Top shape: 24 128 14 14 (602112)
I0403 14:38:11.181777 10901 net.cpp:156] Memory required for data: 1033209120
I0403 14:38:11.181792 10901 layer_factory.hpp:77] Creating layer inception_4c/3x3_reduce
I0403 14:38:11.181819 10901 net.cpp:91] Creating Layer inception_4c/3x3_reduce
I0403 14:38:11.181838 10901 net.cpp:425] inception_4c/3x3_reduce <- inception_4b/output_inception_4b/output_0_split_1
I0403 14:38:11.181861 10901 net.cpp:399] inception_4c/3x3_reduce -> inception_4c/3x3_reduce
I0403 14:38:11.183840 10901 net.cpp:141] Setting up inception_4c/3x3_reduce
I0403 14:38:11.183874 10901 net.cpp:148] Top shape: 24 128 14 14 (602112)
I0403 14:38:11.183892 10901 net.cpp:156] Memory required for data: 1035617568
I0403 14:38:11.183910 10901 layer_factory.hpp:77] Creating layer inception_4c/relu_3x3_reduce
I0403 14:38:11.183928 10901 net.cpp:91] Creating Layer inception_4c/relu_3x3_reduce
I0403 14:38:11.183944 10901 net.cpp:425] inception_4c/relu_3x3_reduce <- inception_4c/3x3_reduce
I0403 14:38:11.183961 10901 net.cpp:386] inception_4c/relu_3x3_reduce -> inception_4c/3x3_reduce (in-place)
I0403 14:38:11.184245 10901 net.cpp:141] Setting up inception_4c/relu_3x3_reduce
I0403 14:38:11.184274 10901 net.cpp:148] Top shape: 24 128 14 14 (602112)
I0403 14:38:11.184290 10901 net.cpp:156] Memory required for data: 1038026016
I0403 14:38:11.184306 10901 layer_factory.hpp:77] Creating layer inception_4c/3x3
I0403 14:38:11.184326 10901 net.cpp:91] Creating Layer inception_4c/3x3
I0403 14:38:11.184342 10901 net.cpp:425] inception_4c/3x3 <- inception_4c/3x3_reduce
I0403 14:38:11.184365 10901 net.cpp:399] inception_4c/3x3 -> inception_4c/3x3
I0403 14:38:11.188133 10901 net.cpp:141] Setting up inception_4c/3x3
I0403 14:38:11.188192 10901 net.cpp:148] Top shape: 24 256 14 14 (1204224)
I0403 14:38:11.188210 10901 net.cpp:156] Memory required for data: 1042842912
I0403 14:38:11.188244 10901 layer_factory.hpp:77] Creating layer inception_4c/relu_3x3
I0403 14:38:11.188264 10901 net.cpp:91] Creating Layer inception_4c/relu_3x3
I0403 14:38:11.188280 10901 net.cpp:425] inception_4c/relu_3x3 <- inception_4c/3x3
I0403 14:38:11.188298 10901 net.cpp:386] inception_4c/relu_3x3 -> inception_4c/3x3 (in-place)
I0403 14:38:11.188477 10901 net.cpp:141] Setting up inception_4c/relu_3x3
I0403 14:38:11.188504 10901 net.cpp:148] Top shape: 24 256 14 14 (1204224)
I0403 14:38:11.188521 10901 net.cpp:156] Memory required for data: 1047659808
I0403 14:38:11.188539 10901 layer_factory.hpp:77] Creating layer inception_4c/5x5_reduce
I0403 14:38:11.188561 10901 net.cpp:91] Creating Layer inception_4c/5x5_reduce
I0403 14:38:11.188580 10901 net.cpp:425] inception_4c/5x5_reduce <- inception_4b/output_inception_4b/output_0_split_2
I0403 14:38:11.188598 10901 net.cpp:399] inception_4c/5x5_reduce -> inception_4c/5x5_reduce
I0403 14:38:11.189664 10901 net.cpp:141] Setting up inception_4c/5x5_reduce
I0403 14:38:11.189695 10901 net.cpp:148] Top shape: 24 24 14 14 (112896)
I0403 14:38:11.189713 10901 net.cpp:156] Memory required for data: 1048111392
I0403 14:38:11.189730 10901 layer_factory.hpp:77] Creating layer inception_4c/relu_5x5_reduce
I0403 14:38:11.189749 10901 net.cpp:91] Creating Layer inception_4c/relu_5x5_reduce
I0403 14:38:11.189764 10901 net.cpp:425] inception_4c/relu_5x5_reduce <- inception_4c/5x5_reduce
I0403 14:38:11.189781 10901 net.cpp:386] inception_4c/relu_5x5_reduce -> inception_4c/5x5_reduce (in-place)
I0403 14:38:11.189961 10901 net.cpp:141] Setting up inception_4c/relu_5x5_reduce
I0403 14:38:11.189986 10901 net.cpp:148] Top shape: 24 24 14 14 (112896)
I0403 14:38:11.190002 10901 net.cpp:156] Memory required for data: 1048562976
I0403 14:38:11.190018 10901 layer_factory.hpp:77] Creating layer inception_4c/5x5
I0403 14:38:11.190039 10901 net.cpp:91] Creating Layer inception_4c/5x5
I0403 14:38:11.190059 10901 net.cpp:425] inception_4c/5x5 <- inception_4c/5x5_reduce
I0403 14:38:11.190081 10901 net.cpp:399] inception_4c/5x5 -> inception_4c/5x5
I0403 14:38:11.191289 10901 net.cpp:141] Setting up inception_4c/5x5
I0403 14:38:11.191318 10901 net.cpp:148] Top shape: 24 64 14 14 (301056)
I0403 14:38:11.191334 10901 net.cpp:156] Memory required for data: 1049767200
I0403 14:38:11.191352 10901 layer_factory.hpp:77] Creating layer inception_4c/relu_5x5
I0403 14:38:11.191370 10901 net.cpp:91] Creating Layer inception_4c/relu_5x5
I0403 14:38:11.191387 10901 net.cpp:425] inception_4c/relu_5x5 <- inception_4c/5x5
I0403 14:38:11.191407 10901 net.cpp:386] inception_4c/relu_5x5 -> inception_4c/5x5 (in-place)
I0403 14:38:11.191691 10901 net.cpp:141] Setting up inception_4c/relu_5x5
I0403 14:38:11.191718 10901 net.cpp:148] Top shape: 24 64 14 14 (301056)
I0403 14:38:11.191732 10901 net.cpp:156] Memory required for data: 1050971424
I0403 14:38:11.191748 10901 layer_factory.hpp:77] Creating layer inception_4c/pool
I0403 14:38:11.191766 10901 net.cpp:91] Creating Layer inception_4c/pool
I0403 14:38:11.191782 10901 net.cpp:425] inception_4c/pool <- inception_4b/output_inception_4b/output_0_split_3
I0403 14:38:11.191802 10901 net.cpp:399] inception_4c/pool -> inception_4c/pool
I0403 14:38:11.191869 10901 net.cpp:141] Setting up inception_4c/pool
I0403 14:38:11.191893 10901 net.cpp:148] Top shape: 24 512 14 14 (2408448)
I0403 14:38:11.191910 10901 net.cpp:156] Memory required for data: 1060605216
I0403 14:38:11.191925 10901 layer_factory.hpp:77] Creating layer inception_4c/pool_proj
I0403 14:38:11.191949 10901 net.cpp:91] Creating Layer inception_4c/pool_proj
I0403 14:38:11.191967 10901 net.cpp:425] inception_4c/pool_proj <- inception_4c/pool
I0403 14:38:11.191987 10901 net.cpp:399] inception_4c/pool_proj -> inception_4c/pool_proj
I0403 14:38:11.193186 10901 net.cpp:141] Setting up inception_4c/pool_proj
I0403 14:38:11.193215 10901 net.cpp:148] Top shape: 24 64 14 14 (301056)
I0403 14:38:11.193246 10901 net.cpp:156] Memory required for data: 1061809440
I0403 14:38:11.193266 10901 layer_factory.hpp:77] Creating layer inception_4c/relu_pool_proj
I0403 14:38:11.193285 10901 net.cpp:91] Creating Layer inception_4c/relu_pool_proj
I0403 14:38:11.193300 10901 net.cpp:425] inception_4c/relu_pool_proj <- inception_4c/pool_proj
I0403 14:38:11.193320 10901 net.cpp:386] inception_4c/relu_pool_proj -> inception_4c/pool_proj (in-place)
I0403 14:38:11.193497 10901 net.cpp:141] Setting up inception_4c/relu_pool_proj
I0403 14:38:11.193523 10901 net.cpp:148] Top shape: 24 64 14 14 (301056)
I0403 14:38:11.193538 10901 net.cpp:156] Memory required for data: 1063013664
I0403 14:38:11.193553 10901 layer_factory.hpp:77] Creating layer inception_4c/output
I0403 14:38:11.193570 10901 net.cpp:91] Creating Layer inception_4c/output
I0403 14:38:11.193585 10901 net.cpp:425] inception_4c/output <- inception_4c/1x1
I0403 14:38:11.193603 10901 net.cpp:425] inception_4c/output <- inception_4c/3x3
I0403 14:38:11.193617 10901 net.cpp:425] inception_4c/output <- inception_4c/5x5
I0403 14:38:11.193634 10901 net.cpp:425] inception_4c/output <- inception_4c/pool_proj
I0403 14:38:11.193653 10901 net.cpp:399] inception_4c/output -> inception_4c/output
I0403 14:38:11.193699 10901 net.cpp:141] Setting up inception_4c/output
I0403 14:38:11.193725 10901 net.cpp:148] Top shape: 24 512 14 14 (2408448)
I0403 14:38:11.193742 10901 net.cpp:156] Memory required for data: 1072647456
I0403 14:38:11.193756 10901 layer_factory.hpp:77] Creating layer inception_4c/output_inception_4c/output_0_split
I0403 14:38:11.193773 10901 net.cpp:91] Creating Layer inception_4c/output_inception_4c/output_0_split
I0403 14:38:11.193789 10901 net.cpp:425] inception_4c/output_inception_4c/output_0_split <- inception_4c/output
I0403 14:38:11.193806 10901 net.cpp:399] inception_4c/output_inception_4c/output_0_split -> inception_4c/output_inception_4c/output_0_split_0
I0403 14:38:11.193830 10901 net.cpp:399] inception_4c/output_inception_4c/output_0_split -> inception_4c/output_inception_4c/output_0_split_1
I0403 14:38:11.193851 10901 net.cpp:399] inception_4c/output_inception_4c/output_0_split -> inception_4c/output_inception_4c/output_0_split_2
I0403 14:38:11.193872 10901 net.cpp:399] inception_4c/output_inception_4c/output_0_split -> inception_4c/output_inception_4c/output_0_split_3
I0403 14:38:11.193959 10901 net.cpp:141] Setting up inception_4c/output_inception_4c/output_0_split
I0403 14:38:11.193984 10901 net.cpp:148] Top shape: 24 512 14 14 (2408448)
I0403 14:38:11.194000 10901 net.cpp:148] Top shape: 24 512 14 14 (2408448)
I0403 14:38:11.194015 10901 net.cpp:148] Top shape: 24 512 14 14 (2408448)
I0403 14:38:11.194031 10901 net.cpp:148] Top shape: 24 512 14 14 (2408448)
I0403 14:38:11.194043 10901 net.cpp:156] Memory required for data: 1111182624
I0403 14:38:11.194058 10901 layer_factory.hpp:77] Creating layer inception_4d/1x1
I0403 14:38:11.194080 10901 net.cpp:91] Creating Layer inception_4d/1x1
I0403 14:38:11.194098 10901 net.cpp:425] inception_4d/1x1 <- inception_4c/output_inception_4c/output_0_split_0
I0403 14:38:11.194119 10901 net.cpp:399] inception_4d/1x1 -> inception_4d/1x1
I0403 14:38:11.195472 10901 net.cpp:141] Setting up inception_4d/1x1
I0403 14:38:11.195499 10901 net.cpp:148] Top shape: 24 112 14 14 (526848)
I0403 14:38:11.195515 10901 net.cpp:156] Memory required for data: 1113290016
I0403 14:38:11.195533 10901 layer_factory.hpp:77] Creating layer inception_4d/relu_1x1
I0403 14:38:11.195554 10901 net.cpp:91] Creating Layer inception_4d/relu_1x1
I0403 14:38:11.195571 10901 net.cpp:425] inception_4d/relu_1x1 <- inception_4d/1x1
I0403 14:38:11.195588 10901 net.cpp:386] inception_4d/relu_1x1 -> inception_4d/1x1 (in-place)
I0403 14:38:11.195765 10901 net.cpp:141] Setting up inception_4d/relu_1x1
I0403 14:38:11.195794 10901 net.cpp:148] Top shape: 24 112 14 14 (526848)
I0403 14:38:11.195811 10901 net.cpp:156] Memory required for data: 1115397408
I0403 14:38:11.195827 10901 layer_factory.hpp:77] Creating layer inception_4d/3x3_reduce
I0403 14:38:11.195865 10901 net.cpp:91] Creating Layer inception_4d/3x3_reduce
I0403 14:38:11.195885 10901 net.cpp:425] inception_4d/3x3_reduce <- inception_4c/output_inception_4c/output_0_split_1
I0403 14:38:11.195904 10901 net.cpp:399] inception_4d/3x3_reduce -> inception_4d/3x3_reduce
I0403 14:38:11.197381 10901 net.cpp:141] Setting up inception_4d/3x3_reduce
I0403 14:38:11.197409 10901 net.cpp:148] Top shape: 24 144 14 14 (677376)
I0403 14:38:11.197425 10901 net.cpp:156] Memory required for data: 1118106912
I0403 14:38:11.197444 10901 layer_factory.hpp:77] Creating layer inception_4d/relu_3x3_reduce
I0403 14:38:11.197465 10901 net.cpp:91] Creating Layer inception_4d/relu_3x3_reduce
I0403 14:38:11.197482 10901 net.cpp:425] inception_4d/relu_3x3_reduce <- inception_4d/3x3_reduce
I0403 14:38:11.197500 10901 net.cpp:386] inception_4d/relu_3x3_reduce -> inception_4d/3x3_reduce (in-place)
I0403 14:38:11.197782 10901 net.cpp:141] Setting up inception_4d/relu_3x3_reduce
I0403 14:38:11.197808 10901 net.cpp:148] Top shape: 24 144 14 14 (677376)
I0403 14:38:11.197823 10901 net.cpp:156] Memory required for data: 1120816416
I0403 14:38:11.197839 10901 layer_factory.hpp:77] Creating layer inception_4d/3x3
I0403 14:38:11.197860 10901 net.cpp:91] Creating Layer inception_4d/3x3
I0403 14:38:11.197878 10901 net.cpp:425] inception_4d/3x3 <- inception_4d/3x3_reduce
I0403 14:38:11.197899 10901 net.cpp:399] inception_4d/3x3 -> inception_4d/3x3
I0403 14:38:11.202165 10901 net.cpp:141] Setting up inception_4d/3x3
I0403 14:38:11.202198 10901 net.cpp:148] Top shape: 24 288 14 14 (1354752)
I0403 14:38:11.202214 10901 net.cpp:156] Memory required for data: 1126235424
I0403 14:38:11.202232 10901 layer_factory.hpp:77] Creating layer inception_4d/relu_3x3
I0403 14:38:11.202252 10901 net.cpp:91] Creating Layer inception_4d/relu_3x3
I0403 14:38:11.202270 10901 net.cpp:425] inception_4d/relu_3x3 <- inception_4d/3x3
I0403 14:38:11.202287 10901 net.cpp:386] inception_4d/relu_3x3 -> inception_4d/3x3 (in-place)
I0403 14:38:11.202461 10901 net.cpp:141] Setting up inception_4d/relu_3x3
I0403 14:38:11.202488 10901 net.cpp:148] Top shape: 24 288 14 14 (1354752)
I0403 14:38:11.202505 10901 net.cpp:156] Memory required for data: 1131654432
I0403 14:38:11.202522 10901 layer_factory.hpp:77] Creating layer inception_4d/5x5_reduce
I0403 14:38:11.202541 10901 net.cpp:91] Creating Layer inception_4d/5x5_reduce
I0403 14:38:11.202558 10901 net.cpp:425] inception_4d/5x5_reduce <- inception_4c/output_inception_4c/output_0_split_2
I0403 14:38:11.202576 10901 net.cpp:399] inception_4d/5x5_reduce -> inception_4d/5x5_reduce
I0403 14:38:11.203706 10901 net.cpp:141] Setting up inception_4d/5x5_reduce
I0403 14:38:11.203734 10901 net.cpp:148] Top shape: 24 32 14 14 (150528)
I0403 14:38:11.203750 10901 net.cpp:156] Memory required for data: 1132256544
I0403 14:38:11.203768 10901 layer_factory.hpp:77] Creating layer inception_4d/relu_5x5_reduce
I0403 14:38:11.203789 10901 net.cpp:91] Creating Layer inception_4d/relu_5x5_reduce
I0403 14:38:11.203806 10901 net.cpp:425] inception_4d/relu_5x5_reduce <- inception_4d/5x5_reduce
I0403 14:38:11.203824 10901 net.cpp:386] inception_4d/relu_5x5_reduce -> inception_4d/5x5_reduce (in-place)
I0403 14:38:11.204002 10901 net.cpp:141] Setting up inception_4d/relu_5x5_reduce
I0403 14:38:11.204031 10901 net.cpp:148] Top shape: 24 32 14 14 (150528)
I0403 14:38:11.204047 10901 net.cpp:156] Memory required for data: 1132858656
I0403 14:38:11.204063 10901 layer_factory.hpp:77] Creating layer inception_4d/5x5
I0403 14:38:11.204085 10901 net.cpp:91] Creating Layer inception_4d/5x5
I0403 14:38:11.204104 10901 net.cpp:425] inception_4d/5x5 <- inception_4d/5x5_reduce
I0403 14:38:11.204123 10901 net.cpp:399] inception_4d/5x5 -> inception_4d/5x5
I0403 14:38:11.205574 10901 net.cpp:141] Setting up inception_4d/5x5
I0403 14:38:11.205601 10901 net.cpp:148] Top shape: 24 64 14 14 (301056)
I0403 14:38:11.205617 10901 net.cpp:156] Memory required for data: 1134062880
I0403 14:38:11.205636 10901 layer_factory.hpp:77] Creating layer inception_4d/relu_5x5
I0403 14:38:11.205669 10901 net.cpp:91] Creating Layer inception_4d/relu_5x5
I0403 14:38:11.205687 10901 net.cpp:425] inception_4d/relu_5x5 <- inception_4d/5x5
I0403 14:38:11.205708 10901 net.cpp:386] inception_4d/relu_5x5 -> inception_4d/5x5 (in-place)
I0403 14:38:11.205997 10901 net.cpp:141] Setting up inception_4d/relu_5x5
I0403 14:38:11.206023 10901 net.cpp:148] Top shape: 24 64 14 14 (301056)
I0403 14:38:11.206038 10901 net.cpp:156] Memory required for data: 1135267104
I0403 14:38:11.206053 10901 layer_factory.hpp:77] Creating layer inception_4d/pool
I0403 14:38:11.206071 10901 net.cpp:91] Creating Layer inception_4d/pool
I0403 14:38:11.206089 10901 net.cpp:425] inception_4d/pool <- inception_4c/output_inception_4c/output_0_split_3
I0403 14:38:11.206110 10901 net.cpp:399] inception_4d/pool -> inception_4d/pool
I0403 14:38:11.206181 10901 net.cpp:141] Setting up inception_4d/pool
I0403 14:38:11.206204 10901 net.cpp:148] Top shape: 24 512 14 14 (2408448)
I0403 14:38:11.206220 10901 net.cpp:156] Memory required for data: 1144900896
I0403 14:38:11.206234 10901 layer_factory.hpp:77] Creating layer inception_4d/pool_proj
I0403 14:38:11.206259 10901 net.cpp:91] Creating Layer inception_4d/pool_proj
I0403 14:38:11.206276 10901 net.cpp:425] inception_4d/pool_proj <- inception_4d/pool
I0403 14:38:11.206296 10901 net.cpp:399] inception_4d/pool_proj -> inception_4d/pool_proj
I0403 14:38:11.208060 10901 net.cpp:141] Setting up inception_4d/pool_proj
I0403 14:38:11.208091 10901 net.cpp:148] Top shape: 24 64 14 14 (301056)
I0403 14:38:11.208107 10901 net.cpp:156] Memory required for data: 1146105120
I0403 14:38:11.208129 10901 layer_factory.hpp:77] Creating layer inception_4d/relu_pool_proj
I0403 14:38:11.208153 10901 net.cpp:91] Creating Layer inception_4d/relu_pool_proj
I0403 14:38:11.208173 10901 net.cpp:425] inception_4d/relu_pool_proj <- inception_4d/pool_proj
I0403 14:38:11.208190 10901 net.cpp:386] inception_4d/relu_pool_proj -> inception_4d/pool_proj (in-place)
I0403 14:38:11.208375 10901 net.cpp:141] Setting up inception_4d/relu_pool_proj
I0403 14:38:11.208405 10901 net.cpp:148] Top shape: 24 64 14 14 (301056)
I0403 14:38:11.208420 10901 net.cpp:156] Memory required for data: 1147309344
I0403 14:38:11.208436 10901 layer_factory.hpp:77] Creating layer inception_4d/output
I0403 14:38:11.208453 10901 net.cpp:91] Creating Layer inception_4d/output
I0403 14:38:11.208469 10901 net.cpp:425] inception_4d/output <- inception_4d/1x1
I0403 14:38:11.208487 10901 net.cpp:425] inception_4d/output <- inception_4d/3x3
I0403 14:38:11.208503 10901 net.cpp:425] inception_4d/output <- inception_4d/5x5
I0403 14:38:11.208519 10901 net.cpp:425] inception_4d/output <- inception_4d/pool_proj
I0403 14:38:11.208539 10901 net.cpp:399] inception_4d/output -> inception_4d/output
I0403 14:38:11.208588 10901 net.cpp:141] Setting up inception_4d/output
I0403 14:38:11.208612 10901 net.cpp:148] Top shape: 24 528 14 14 (2483712)
I0403 14:38:11.208627 10901 net.cpp:156] Memory required for data: 1157244192
I0403 14:38:11.208642 10901 layer_factory.hpp:77] Creating layer inception_4d/output_inception_4d/output_0_split
I0403 14:38:11.208664 10901 net.cpp:91] Creating Layer inception_4d/output_inception_4d/output_0_split
I0403 14:38:11.208680 10901 net.cpp:425] inception_4d/output_inception_4d/output_0_split <- inception_4d/output
I0403 14:38:11.208699 10901 net.cpp:399] inception_4d/output_inception_4d/output_0_split -> inception_4d/output_inception_4d/output_0_split_0
I0403 14:38:11.208720 10901 net.cpp:399] inception_4d/output_inception_4d/output_0_split -> inception_4d/output_inception_4d/output_0_split_1
I0403 14:38:11.208747 10901 net.cpp:399] inception_4d/output_inception_4d/output_0_split -> inception_4d/output_inception_4d/output_0_split_2
I0403 14:38:11.208770 10901 net.cpp:399] inception_4d/output_inception_4d/output_0_split -> inception_4d/output_inception_4d/output_0_split_3
I0403 14:38:11.208791 10901 net.cpp:399] inception_4d/output_inception_4d/output_0_split -> inception_4d/output_inception_4d/output_0_split_4
I0403 14:38:11.208895 10901 net.cpp:141] Setting up inception_4d/output_inception_4d/output_0_split
I0403 14:38:11.208933 10901 net.cpp:148] Top shape: 24 528 14 14 (2483712)
I0403 14:38:11.208951 10901 net.cpp:148] Top shape: 24 528 14 14 (2483712)
I0403 14:38:11.208968 10901 net.cpp:148] Top shape: 24 528 14 14 (2483712)
I0403 14:38:11.208983 10901 net.cpp:148] Top shape: 24 528 14 14 (2483712)
I0403 14:38:11.208998 10901 net.cpp:148] Top shape: 24 528 14 14 (2483712)
I0403 14:38:11.209013 10901 net.cpp:156] Memory required for data: 1206918432
I0403 14:38:11.209028 10901 layer_factory.hpp:77] Creating layer loss2/ave_pool
I0403 14:38:11.209049 10901 net.cpp:91] Creating Layer loss2/ave_pool
I0403 14:38:11.209066 10901 net.cpp:425] loss2/ave_pool <- inception_4d/output_inception_4d/output_0_split_0
I0403 14:38:11.209085 10901 net.cpp:399] loss2/ave_pool -> loss2/ave_pool
I0403 14:38:11.209399 10901 net.cpp:141] Setting up loss2/ave_pool
I0403 14:38:11.209429 10901 net.cpp:148] Top shape: 24 528 4 4 (202752)
I0403 14:38:11.209445 10901 net.cpp:156] Memory required for data: 1207729440
I0403 14:38:11.209460 10901 layer_factory.hpp:77] Creating layer loss2/conv
I0403 14:38:11.209484 10901 net.cpp:91] Creating Layer loss2/conv
I0403 14:38:11.209503 10901 net.cpp:425] loss2/conv <- loss2/ave_pool
I0403 14:38:11.209529 10901 net.cpp:399] loss2/conv -> loss2/conv
I0403 14:38:11.211443 10901 net.cpp:141] Setting up loss2/conv
I0403 14:38:11.211475 10901 net.cpp:148] Top shape: 24 128 4 4 (49152)
I0403 14:38:11.211493 10901 net.cpp:156] Memory required for data: 1207926048
I0403 14:38:11.211513 10901 layer_factory.hpp:77] Creating layer loss2/relu_conv
I0403 14:38:11.211532 10901 net.cpp:91] Creating Layer loss2/relu_conv
I0403 14:38:11.211549 10901 net.cpp:425] loss2/relu_conv <- loss2/conv
I0403 14:38:11.211570 10901 net.cpp:386] loss2/relu_conv -> loss2/conv (in-place)
I0403 14:38:11.211856 10901 net.cpp:141] Setting up loss2/relu_conv
I0403 14:38:11.211885 10901 net.cpp:148] Top shape: 24 128 4 4 (49152)
I0403 14:38:11.211902 10901 net.cpp:156] Memory required for data: 1208122656
I0403 14:38:11.211917 10901 layer_factory.hpp:77] Creating layer loss2/fc
I0403 14:38:11.211937 10901 net.cpp:91] Creating Layer loss2/fc
I0403 14:38:11.211954 10901 net.cpp:425] loss2/fc <- loss2/conv
I0403 14:38:11.211977 10901 net.cpp:399] loss2/fc -> loss2/fc
I0403 14:38:11.229696 10901 net.cpp:141] Setting up loss2/fc
I0403 14:38:11.229780 10901 net.cpp:148] Top shape: 24 1024 (24576)
I0403 14:38:11.229796 10901 net.cpp:156] Memory required for data: 1208220960
I0403 14:38:11.229816 10901 layer_factory.hpp:77] Creating layer loss2/relu_fc
I0403 14:38:11.229840 10901 net.cpp:91] Creating Layer loss2/relu_fc
I0403 14:38:11.229859 10901 net.cpp:425] loss2/relu_fc <- loss2/fc
I0403 14:38:11.229879 10901 net.cpp:386] loss2/relu_fc -> loss2/fc (in-place)
I0403 14:38:11.230262 10901 net.cpp:141] Setting up loss2/relu_fc
I0403 14:38:11.230288 10901 net.cpp:148] Top shape: 24 1024 (24576)
I0403 14:38:11.230304 10901 net.cpp:156] Memory required for data: 1208319264
I0403 14:38:11.230320 10901 layer_factory.hpp:77] Creating layer loss2/drop_fc
I0403 14:38:11.230340 10901 net.cpp:91] Creating Layer loss2/drop_fc
I0403 14:38:11.230358 10901 net.cpp:425] loss2/drop_fc <- loss2/fc
I0403 14:38:11.230376 10901 net.cpp:386] loss2/drop_fc -> loss2/fc (in-place)
I0403 14:38:11.230428 10901 net.cpp:141] Setting up loss2/drop_fc
I0403 14:38:11.230453 10901 net.cpp:148] Top shape: 24 1024 (24576)
I0403 14:38:11.230466 10901 net.cpp:156] Memory required for data: 1208417568
I0403 14:38:11.230480 10901 layer_factory.hpp:77] Creating layer loss2/classifier_plantvillage
I0403 14:38:11.230504 10901 net.cpp:91] Creating Layer loss2/classifier_plantvillage
I0403 14:38:11.230521 10901 net.cpp:425] loss2/classifier_plantvillage <- loss2/fc
I0403 14:38:11.230540 10901 net.cpp:399] loss2/classifier_plantvillage -> loss2/classifier_plantvillage
I0403 14:38:11.230944 10901 net.cpp:141] Setting up loss2/classifier_plantvillage
I0403 14:38:11.230970 10901 net.cpp:148] Top shape: 24 38 (912)
I0403 14:38:11.231008 10901 net.cpp:156] Memory required for data: 1208421216
I0403 14:38:11.231026 10901 layer_factory.hpp:77] Creating layer loss2/classifier_plantvillage_loss2/classifier_plantvillage_0_split
I0403 14:38:11.231045 10901 net.cpp:91] Creating Layer loss2/classifier_plantvillage_loss2/classifier_plantvillage_0_split
I0403 14:38:11.231061 10901 net.cpp:425] loss2/classifier_plantvillage_loss2/classifier_plantvillage_0_split <- loss2/classifier_plantvillage
I0403 14:38:11.231081 10901 net.cpp:399] loss2/classifier_plantvillage_loss2/classifier_plantvillage_0_split -> loss2/classifier_plantvillage_loss2/classifier_plantvillage_0_split_0
I0403 14:38:11.231103 10901 net.cpp:399] loss2/classifier_plantvillage_loss2/classifier_plantvillage_0_split -> loss2/classifier_plantvillage_loss2/classifier_plantvillage_0_split_1
I0403 14:38:11.231130 10901 net.cpp:399] loss2/classifier_plantvillage_loss2/classifier_plantvillage_0_split -> loss2/classifier_plantvillage_loss2/classifier_plantvillage_0_split_2
I0403 14:38:11.231209 10901 net.cpp:141] Setting up loss2/classifier_plantvillage_loss2/classifier_plantvillage_0_split
I0403 14:38:11.231235 10901 net.cpp:148] Top shape: 24 38 (912)
I0403 14:38:11.231252 10901 net.cpp:148] Top shape: 24 38 (912)
I0403 14:38:11.231268 10901 net.cpp:148] Top shape: 24 38 (912)
I0403 14:38:11.231282 10901 net.cpp:156] Memory required for data: 1208432160
I0403 14:38:11.231298 10901 layer_factory.hpp:77] Creating layer inception_4e/1x1
I0403 14:38:11.231320 10901 net.cpp:91] Creating Layer inception_4e/1x1
I0403 14:38:11.231338 10901 net.cpp:425] inception_4e/1x1 <- inception_4d/output_inception_4d/output_0_split_1
I0403 14:38:11.231359 10901 net.cpp:399] inception_4e/1x1 -> inception_4e/1x1
I0403 14:38:11.233227 10901 net.cpp:141] Setting up inception_4e/1x1
I0403 14:38:11.233254 10901 net.cpp:148] Top shape: 24 256 14 14 (1204224)
I0403 14:38:11.233270 10901 net.cpp:156] Memory required for data: 1213249056
I0403 14:38:11.233289 10901 layer_factory.hpp:77] Creating layer inception_4e/relu_1x1
I0403 14:38:11.233306 10901 net.cpp:91] Creating Layer inception_4e/relu_1x1
I0403 14:38:11.233321 10901 net.cpp:425] inception_4e/relu_1x1 <- inception_4e/1x1
I0403 14:38:11.233340 10901 net.cpp:386] inception_4e/relu_1x1 -> inception_4e/1x1 (in-place)
I0403 14:38:11.233629 10901 net.cpp:141] Setting up inception_4e/relu_1x1
I0403 14:38:11.233655 10901 net.cpp:148] Top shape: 24 256 14 14 (1204224)
I0403 14:38:11.233671 10901 net.cpp:156] Memory required for data: 1218065952
I0403 14:38:11.233686 10901 layer_factory.hpp:77] Creating layer inception_4e/3x3_reduce
I0403 14:38:11.233707 10901 net.cpp:91] Creating Layer inception_4e/3x3_reduce
I0403 14:38:11.233726 10901 net.cpp:425] inception_4e/3x3_reduce <- inception_4d/output_inception_4d/output_0_split_2
I0403 14:38:11.233747 10901 net.cpp:399] inception_4e/3x3_reduce -> inception_4e/3x3_reduce
I0403 14:38:11.235844 10901 net.cpp:141] Setting up inception_4e/3x3_reduce
I0403 14:38:11.235875 10901 net.cpp:148] Top shape: 24 160 14 14 (752640)
I0403 14:38:11.235891 10901 net.cpp:156] Memory required for data: 1221076512
I0403 14:38:11.235910 10901 layer_factory.hpp:77] Creating layer inception_4e/relu_3x3_reduce
I0403 14:38:11.235929 10901 net.cpp:91] Creating Layer inception_4e/relu_3x3_reduce
I0403 14:38:11.235945 10901 net.cpp:425] inception_4e/relu_3x3_reduce <- inception_4e/3x3_reduce
I0403 14:38:11.235965 10901 net.cpp:386] inception_4e/relu_3x3_reduce -> inception_4e/3x3_reduce (in-place)
I0403 14:38:11.236148 10901 net.cpp:141] Setting up inception_4e/relu_3x3_reduce
I0403 14:38:11.236176 10901 net.cpp:148] Top shape: 24 160 14 14 (752640)
I0403 14:38:11.236191 10901 net.cpp:156] Memory required for data: 1224087072
I0403 14:38:11.236207 10901 layer_factory.hpp:77] Creating layer inception_4e/3x3
I0403 14:38:11.236228 10901 net.cpp:91] Creating Layer inception_4e/3x3
I0403 14:38:11.236246 10901 net.cpp:425] inception_4e/3x3 <- inception_4e/3x3_reduce
I0403 14:38:11.236269 10901 net.cpp:399] inception_4e/3x3 -> inception_4e/3x3
I0403 14:38:11.241214 10901 net.cpp:141] Setting up inception_4e/3x3
I0403 14:38:11.241261 10901 net.cpp:148] Top shape: 24 320 14 14 (1505280)
I0403 14:38:11.241279 10901 net.cpp:156] Memory required for data: 1230108192
I0403 14:38:11.241298 10901 layer_factory.hpp:77] Creating layer inception_4e/relu_3x3
I0403 14:38:11.241319 10901 net.cpp:91] Creating Layer inception_4e/relu_3x3
I0403 14:38:11.241338 10901 net.cpp:425] inception_4e/relu_3x3 <- inception_4e/3x3
I0403 14:38:11.241355 10901 net.cpp:386] inception_4e/relu_3x3 -> inception_4e/3x3 (in-place)
I0403 14:38:11.241663 10901 net.cpp:141] Setting up inception_4e/relu_3x3
I0403 14:38:11.241690 10901 net.cpp:148] Top shape: 24 320 14 14 (1505280)
I0403 14:38:11.241704 10901 net.cpp:156] Memory required for data: 1236129312
I0403 14:38:11.241719 10901 layer_factory.hpp:77] Creating layer inception_4e/5x5_reduce
I0403 14:38:11.241744 10901 net.cpp:91] Creating Layer inception_4e/5x5_reduce
I0403 14:38:11.241762 10901 net.cpp:425] inception_4e/5x5_reduce <- inception_4d/output_inception_4d/output_0_split_3
I0403 14:38:11.241785 10901 net.cpp:399] inception_4e/5x5_reduce -> inception_4e/5x5_reduce
I0403 14:38:11.242863 10901 net.cpp:141] Setting up inception_4e/5x5_reduce
I0403 14:38:11.242890 10901 net.cpp:148] Top shape: 24 32 14 14 (150528)
I0403 14:38:11.242907 10901 net.cpp:156] Memory required for data: 1236731424
I0403 14:38:11.242924 10901 layer_factory.hpp:77] Creating layer inception_4e/relu_5x5_reduce
I0403 14:38:11.242943 10901 net.cpp:91] Creating Layer inception_4e/relu_5x5_reduce
I0403 14:38:11.242959 10901 net.cpp:425] inception_4e/relu_5x5_reduce <- inception_4e/5x5_reduce
I0403 14:38:11.242977 10901 net.cpp:386] inception_4e/relu_5x5_reduce -> inception_4e/5x5_reduce (in-place)
I0403 14:38:11.243278 10901 net.cpp:141] Setting up inception_4e/relu_5x5_reduce
I0403 14:38:11.243304 10901 net.cpp:148] Top shape: 24 32 14 14 (150528)
I0403 14:38:11.243319 10901 net.cpp:156] Memory required for data: 1237333536
I0403 14:38:11.243335 10901 layer_factory.hpp:77] Creating layer inception_4e/5x5
I0403 14:38:11.243376 10901 net.cpp:91] Creating Layer inception_4e/5x5
I0403 14:38:11.243396 10901 net.cpp:425] inception_4e/5x5 <- inception_4e/5x5_reduce
I0403 14:38:11.243414 10901 net.cpp:399] inception_4e/5x5 -> inception_4e/5x5
I0403 14:38:11.245226 10901 net.cpp:141] Setting up inception_4e/5x5
I0403 14:38:11.245257 10901 net.cpp:148] Top shape: 24 128 14 14 (602112)
I0403 14:38:11.245275 10901 net.cpp:156] Memory required for data: 1239741984
I0403 14:38:11.245293 10901 layer_factory.hpp:77] Creating layer inception_4e/relu_5x5
I0403 14:38:11.245311 10901 net.cpp:91] Creating Layer inception_4e/relu_5x5
I0403 14:38:11.245327 10901 net.cpp:425] inception_4e/relu_5x5 <- inception_4e/5x5
I0403 14:38:11.245345 10901 net.cpp:386] inception_4e/relu_5x5 -> inception_4e/5x5 (in-place)
I0403 14:38:11.245537 10901 net.cpp:141] Setting up inception_4e/relu_5x5
I0403 14:38:11.245563 10901 net.cpp:148] Top shape: 24 128 14 14 (602112)
I0403 14:38:11.245578 10901 net.cpp:156] Memory required for data: 1242150432
I0403 14:38:11.245591 10901 layer_factory.hpp:77] Creating layer inception_4e/pool
I0403 14:38:11.245610 10901 net.cpp:91] Creating Layer inception_4e/pool
I0403 14:38:11.245626 10901 net.cpp:425] inception_4e/pool <- inception_4d/output_inception_4d/output_0_split_4
I0403 14:38:11.245646 10901 net.cpp:399] inception_4e/pool -> inception_4e/pool
I0403 14:38:11.245717 10901 net.cpp:141] Setting up inception_4e/pool
I0403 14:38:11.245743 10901 net.cpp:148] Top shape: 24 528 14 14 (2483712)
I0403 14:38:11.245759 10901 net.cpp:156] Memory required for data: 1252085280
I0403 14:38:11.245776 10901 layer_factory.hpp:77] Creating layer inception_4e/pool_proj
I0403 14:38:11.245798 10901 net.cpp:91] Creating Layer inception_4e/pool_proj
I0403 14:38:11.245816 10901 net.cpp:425] inception_4e/pool_proj <- inception_4e/pool
I0403 14:38:11.245836 10901 net.cpp:399] inception_4e/pool_proj -> inception_4e/pool_proj
I0403 14:38:11.247324 10901 net.cpp:141] Setting up inception_4e/pool_proj
I0403 14:38:11.247365 10901 net.cpp:148] Top shape: 24 128 14 14 (602112)
I0403 14:38:11.247385 10901 net.cpp:156] Memory required for data: 1254493728
I0403 14:38:11.247405 10901 layer_factory.hpp:77] Creating layer inception_4e/relu_pool_proj
I0403 14:38:11.247434 10901 net.cpp:91] Creating Layer inception_4e/relu_pool_proj
I0403 14:38:11.247450 10901 net.cpp:425] inception_4e/relu_pool_proj <- inception_4e/pool_proj
I0403 14:38:11.247468 10901 net.cpp:386] inception_4e/relu_pool_proj -> inception_4e/pool_proj (in-place)
I0403 14:38:11.247762 10901 net.cpp:141] Setting up inception_4e/relu_pool_proj
I0403 14:38:11.247788 10901 net.cpp:148] Top shape: 24 128 14 14 (602112)
I0403 14:38:11.247807 10901 net.cpp:156] Memory required for data: 1256902176
I0403 14:38:11.247822 10901 layer_factory.hpp:77] Creating layer inception_4e/output
I0403 14:38:11.247838 10901 net.cpp:91] Creating Layer inception_4e/output
I0403 14:38:11.247854 10901 net.cpp:425] inception_4e/output <- inception_4e/1x1
I0403 14:38:11.247871 10901 net.cpp:425] inception_4e/output <- inception_4e/3x3
I0403 14:38:11.247889 10901 net.cpp:425] inception_4e/output <- inception_4e/5x5
I0403 14:38:11.247903 10901 net.cpp:425] inception_4e/output <- inception_4e/pool_proj
I0403 14:38:11.247921 10901 net.cpp:399] inception_4e/output -> inception_4e/output
I0403 14:38:11.247972 10901 net.cpp:141] Setting up inception_4e/output
I0403 14:38:11.247995 10901 net.cpp:148] Top shape: 24 832 14 14 (3913728)
I0403 14:38:11.248011 10901 net.cpp:156] Memory required for data: 1272557088
I0403 14:38:11.248026 10901 layer_factory.hpp:77] Creating layer pool4/3x3_s2
I0403 14:38:11.248044 10901 net.cpp:91] Creating Layer pool4/3x3_s2
I0403 14:38:11.248062 10901 net.cpp:425] pool4/3x3_s2 <- inception_4e/output
I0403 14:38:11.248081 10901 net.cpp:399] pool4/3x3_s2 -> pool4/3x3_s2
I0403 14:38:11.248154 10901 net.cpp:141] Setting up pool4/3x3_s2
I0403 14:38:11.248179 10901 net.cpp:148] Top shape: 24 832 7 7 (978432)
I0403 14:38:11.248193 10901 net.cpp:156] Memory required for data: 1276470816
I0403 14:38:11.248208 10901 layer_factory.hpp:77] Creating layer pool4/3x3_s2_pool4/3x3_s2_0_split
I0403 14:38:11.248225 10901 net.cpp:91] Creating Layer pool4/3x3_s2_pool4/3x3_s2_0_split
I0403 14:38:11.248241 10901 net.cpp:425] pool4/3x3_s2_pool4/3x3_s2_0_split <- pool4/3x3_s2
I0403 14:38:11.248261 10901 net.cpp:399] pool4/3x3_s2_pool4/3x3_s2_0_split -> pool4/3x3_s2_pool4/3x3_s2_0_split_0
I0403 14:38:11.248282 10901 net.cpp:399] pool4/3x3_s2_pool4/3x3_s2_0_split -> pool4/3x3_s2_pool4/3x3_s2_0_split_1
I0403 14:38:11.248306 10901 net.cpp:399] pool4/3x3_s2_pool4/3x3_s2_0_split -> pool4/3x3_s2_pool4/3x3_s2_0_split_2
I0403 14:38:11.248327 10901 net.cpp:399] pool4/3x3_s2_pool4/3x3_s2_0_split -> pool4/3x3_s2_pool4/3x3_s2_0_split_3
I0403 14:38:11.248419 10901 net.cpp:141] Setting up pool4/3x3_s2_pool4/3x3_s2_0_split
I0403 14:38:11.248442 10901 net.cpp:148] Top shape: 24 832 7 7 (978432)
I0403 14:38:11.248459 10901 net.cpp:148] Top shape: 24 832 7 7 (978432)
I0403 14:38:11.248474 10901 net.cpp:148] Top shape: 24 832 7 7 (978432)
I0403 14:38:11.248489 10901 net.cpp:148] Top shape: 24 832 7 7 (978432)
I0403 14:38:11.248502 10901 net.cpp:156] Memory required for data: 1292125728
I0403 14:38:11.248517 10901 layer_factory.hpp:77] Creating layer inception_5a/1x1
I0403 14:38:11.248540 10901 net.cpp:91] Creating Layer inception_5a/1x1
I0403 14:38:11.248558 10901 net.cpp:425] inception_5a/1x1 <- pool4/3x3_s2_pool4/3x3_s2_0_split_0
I0403 14:38:11.248577 10901 net.cpp:399] inception_5a/1x1 -> inception_5a/1x1
I0403 14:38:11.251363 10901 net.cpp:141] Setting up inception_5a/1x1
I0403 14:38:11.251392 10901 net.cpp:148] Top shape: 24 256 7 7 (301056)
I0403 14:38:11.251410 10901 net.cpp:156] Memory required for data: 1293329952
I0403 14:38:11.251428 10901 layer_factory.hpp:77] Creating layer inception_5a/relu_1x1
I0403 14:38:11.251446 10901 net.cpp:91] Creating Layer inception_5a/relu_1x1
I0403 14:38:11.251462 10901 net.cpp:425] inception_5a/relu_1x1 <- inception_5a/1x1
I0403 14:38:11.251482 10901 net.cpp:386] inception_5a/relu_1x1 -> inception_5a/1x1 (in-place)
I0403 14:38:11.251783 10901 net.cpp:141] Setting up inception_5a/relu_1x1
I0403 14:38:11.251811 10901 net.cpp:148] Top shape: 24 256 7 7 (301056)
I0403 14:38:11.251827 10901 net.cpp:156] Memory required for data: 1294534176
I0403 14:38:11.251843 10901 layer_factory.hpp:77] Creating layer inception_5a/3x3_reduce
I0403 14:38:11.251868 10901 net.cpp:91] Creating Layer inception_5a/3x3_reduce
I0403 14:38:11.251888 10901 net.cpp:425] inception_5a/3x3_reduce <- pool4/3x3_s2_pool4/3x3_s2_0_split_1
I0403 14:38:11.251909 10901 net.cpp:399] inception_5a/3x3_reduce -> inception_5a/3x3_reduce
I0403 14:38:11.254345 10901 net.cpp:141] Setting up inception_5a/3x3_reduce
I0403 14:38:11.254375 10901 net.cpp:148] Top shape: 24 160 7 7 (188160)
I0403 14:38:11.254390 10901 net.cpp:156] Memory required for data: 1295286816
I0403 14:38:11.254410 10901 layer_factory.hpp:77] Creating layer inception_5a/relu_3x3_reduce
I0403 14:38:11.254429 10901 net.cpp:91] Creating Layer inception_5a/relu_3x3_reduce
I0403 14:38:11.254446 10901 net.cpp:425] inception_5a/relu_3x3_reduce <- inception_5a/3x3_reduce
I0403 14:38:11.254464 10901 net.cpp:386] inception_5a/relu_3x3_reduce -> inception_5a/3x3_reduce (in-place)
I0403 14:38:11.254648 10901 net.cpp:141] Setting up inception_5a/relu_3x3_reduce
I0403 14:38:11.254674 10901 net.cpp:148] Top shape: 24 160 7 7 (188160)
I0403 14:38:11.254691 10901 net.cpp:156] Memory required for data: 1296039456
I0403 14:38:11.254708 10901 layer_factory.hpp:77] Creating layer inception_5a/3x3
I0403 14:38:11.254730 10901 net.cpp:91] Creating Layer inception_5a/3x3
I0403 14:38:11.254748 10901 net.cpp:425] inception_5a/3x3 <- inception_5a/3x3_reduce
I0403 14:38:11.254767 10901 net.cpp:399] inception_5a/3x3 -> inception_5a/3x3
I0403 14:38:11.259785 10901 net.cpp:141] Setting up inception_5a/3x3
I0403 14:38:11.259819 10901 net.cpp:148] Top shape: 24 320 7 7 (376320)
I0403 14:38:11.259835 10901 net.cpp:156] Memory required for data: 1297544736
I0403 14:38:11.259855 10901 layer_factory.hpp:77] Creating layer inception_5a/relu_3x3
I0403 14:38:11.259873 10901 net.cpp:91] Creating Layer inception_5a/relu_3x3
I0403 14:38:11.259891 10901 net.cpp:425] inception_5a/relu_3x3 <- inception_5a/3x3
I0403 14:38:11.259910 10901 net.cpp:386] inception_5a/relu_3x3 -> inception_5a/3x3 (in-place)
I0403 14:38:11.260215 10901 net.cpp:141] Setting up inception_5a/relu_3x3
I0403 14:38:11.260244 10901 net.cpp:148] Top shape: 24 320 7 7 (376320)
I0403 14:38:11.260260 10901 net.cpp:156] Memory required for data: 1299050016
I0403 14:38:11.260277 10901 layer_factory.hpp:77] Creating layer inception_5a/5x5_reduce
I0403 14:38:11.260298 10901 net.cpp:91] Creating Layer inception_5a/5x5_reduce
I0403 14:38:11.260315 10901 net.cpp:425] inception_5a/5x5_reduce <- pool4/3x3_s2_pool4/3x3_s2_0_split_2
I0403 14:38:11.260335 10901 net.cpp:399] inception_5a/5x5_reduce -> inception_5a/5x5_reduce
I0403 14:38:11.261521 10901 net.cpp:141] Setting up inception_5a/5x5_reduce
I0403 14:38:11.261554 10901 net.cpp:148] Top shape: 24 32 7 7 (37632)
I0403 14:38:11.261571 10901 net.cpp:156] Memory required for data: 1299200544
I0403 14:38:11.261591 10901 layer_factory.hpp:77] Creating layer inception_5a/relu_5x5_reduce
I0403 14:38:11.261610 10901 net.cpp:91] Creating Layer inception_5a/relu_5x5_reduce
I0403 14:38:11.261627 10901 net.cpp:425] inception_5a/relu_5x5_reduce <- inception_5a/5x5_reduce
I0403 14:38:11.261647 10901 net.cpp:386] inception_5a/relu_5x5_reduce -> inception_5a/5x5_reduce (in-place)
I0403 14:38:11.261950 10901 net.cpp:141] Setting up inception_5a/relu_5x5_reduce
I0403 14:38:11.261979 10901 net.cpp:148] Top shape: 24 32 7 7 (37632)
I0403 14:38:11.261996 10901 net.cpp:156] Memory required for data: 1299351072
I0403 14:38:11.262012 10901 layer_factory.hpp:77] Creating layer inception_5a/5x5
I0403 14:38:11.262035 10901 net.cpp:91] Creating Layer inception_5a/5x5
I0403 14:38:11.262054 10901 net.cpp:425] inception_5a/5x5 <- inception_5a/5x5_reduce
I0403 14:38:11.262076 10901 net.cpp:399] inception_5a/5x5 -> inception_5a/5x5
I0403 14:38:11.263867 10901 net.cpp:141] Setting up inception_5a/5x5
I0403 14:38:11.263916 10901 net.cpp:148] Top shape: 24 128 7 7 (150528)
I0403 14:38:11.263934 10901 net.cpp:156] Memory required for data: 1299953184
I0403 14:38:11.263952 10901 layer_factory.hpp:77] Creating layer inception_5a/relu_5x5
I0403 14:38:11.263972 10901 net.cpp:91] Creating Layer inception_5a/relu_5x5
I0403 14:38:11.263989 10901 net.cpp:425] inception_5a/relu_5x5 <- inception_5a/5x5
I0403 14:38:11.264008 10901 net.cpp:386] inception_5a/relu_5x5 -> inception_5a/5x5 (in-place)
I0403 14:38:11.264221 10901 net.cpp:141] Setting up inception_5a/relu_5x5
I0403 14:38:11.264247 10901 net.cpp:148] Top shape: 24 128 7 7 (150528)
I0403 14:38:11.264263 10901 net.cpp:156] Memory required for data: 1300555296
I0403 14:38:11.264279 10901 layer_factory.hpp:77] Creating layer inception_5a/pool
I0403 14:38:11.264298 10901 net.cpp:91] Creating Layer inception_5a/pool
I0403 14:38:11.264315 10901 net.cpp:425] inception_5a/pool <- pool4/3x3_s2_pool4/3x3_s2_0_split_3
I0403 14:38:11.264338 10901 net.cpp:399] inception_5a/pool -> inception_5a/pool
I0403 14:38:11.264412 10901 net.cpp:141] Setting up inception_5a/pool
I0403 14:38:11.264452 10901 net.cpp:148] Top shape: 24 832 7 7 (978432)
I0403 14:38:11.264467 10901 net.cpp:156] Memory required for data: 1304469024
I0403 14:38:11.264482 10901 layer_factory.hpp:77] Creating layer inception_5a/pool_proj
I0403 14:38:11.264505 10901 net.cpp:91] Creating Layer inception_5a/pool_proj
I0403 14:38:11.264523 10901 net.cpp:425] inception_5a/pool_proj <- inception_5a/pool
I0403 14:38:11.264541 10901 net.cpp:399] inception_5a/pool_proj -> inception_5a/pool_proj
I0403 14:38:11.266996 10901 net.cpp:141] Setting up inception_5a/pool_proj
I0403 14:38:11.267026 10901 net.cpp:148] Top shape: 24 128 7 7 (150528)
I0403 14:38:11.267042 10901 net.cpp:156] Memory required for data: 1305071136
I0403 14:38:11.267061 10901 layer_factory.hpp:77] Creating layer inception_5a/relu_pool_proj
I0403 14:38:11.267082 10901 net.cpp:91] Creating Layer inception_5a/relu_pool_proj
I0403 14:38:11.267101 10901 net.cpp:425] inception_5a/relu_pool_proj <- inception_5a/pool_proj
I0403 14:38:11.267118 10901 net.cpp:386] inception_5a/relu_pool_proj -> inception_5a/pool_proj (in-place)
I0403 14:38:11.267419 10901 net.cpp:141] Setting up inception_5a/relu_pool_proj
I0403 14:38:11.267446 10901 net.cpp:148] Top shape: 24 128 7 7 (150528)
I0403 14:38:11.267462 10901 net.cpp:156] Memory required for data: 1305673248
I0403 14:38:11.267478 10901 layer_factory.hpp:77] Creating layer inception_5a/output
I0403 14:38:11.267501 10901 net.cpp:91] Creating Layer inception_5a/output
I0403 14:38:11.267519 10901 net.cpp:425] inception_5a/output <- inception_5a/1x1
I0403 14:38:11.267537 10901 net.cpp:425] inception_5a/output <- inception_5a/3x3
I0403 14:38:11.267554 10901 net.cpp:425] inception_5a/output <- inception_5a/5x5
I0403 14:38:11.267570 10901 net.cpp:425] inception_5a/output <- inception_5a/pool_proj
I0403 14:38:11.267587 10901 net.cpp:399] inception_5a/output -> inception_5a/output
I0403 14:38:11.267640 10901 net.cpp:141] Setting up inception_5a/output
I0403 14:38:11.267665 10901 net.cpp:148] Top shape: 24 832 7 7 (978432)
I0403 14:38:11.267680 10901 net.cpp:156] Memory required for data: 1309586976
I0403 14:38:11.267699 10901 layer_factory.hpp:77] Creating layer inception_5a/output_inception_5a/output_0_split
I0403 14:38:11.267716 10901 net.cpp:91] Creating Layer inception_5a/output_inception_5a/output_0_split
I0403 14:38:11.267732 10901 net.cpp:425] inception_5a/output_inception_5a/output_0_split <- inception_5a/output
I0403 14:38:11.267753 10901 net.cpp:399] inception_5a/output_inception_5a/output_0_split -> inception_5a/output_inception_5a/output_0_split_0
I0403 14:38:11.267776 10901 net.cpp:399] inception_5a/output_inception_5a/output_0_split -> inception_5a/output_inception_5a/output_0_split_1
I0403 14:38:11.267797 10901 net.cpp:399] inception_5a/output_inception_5a/output_0_split -> inception_5a/output_inception_5a/output_0_split_2
I0403 14:38:11.267819 10901 net.cpp:399] inception_5a/output_inception_5a/output_0_split -> inception_5a/output_inception_5a/output_0_split_3
I0403 14:38:11.267936 10901 net.cpp:141] Setting up inception_5a/output_inception_5a/output_0_split
I0403 14:38:11.267963 10901 net.cpp:148] Top shape: 24 832 7 7 (978432)
I0403 14:38:11.267982 10901 net.cpp:148] Top shape: 24 832 7 7 (978432)
I0403 14:38:11.267997 10901 net.cpp:148] Top shape: 24 832 7 7 (978432)
I0403 14:38:11.268013 10901 net.cpp:148] Top shape: 24 832 7 7 (978432)
I0403 14:38:11.268028 10901 net.cpp:156] Memory required for data: 1325241888
I0403 14:38:11.268043 10901 layer_factory.hpp:77] Creating layer inception_5b/1x1
I0403 14:38:11.268065 10901 net.cpp:91] Creating Layer inception_5b/1x1
I0403 14:38:11.268084 10901 net.cpp:425] inception_5b/1x1 <- inception_5a/output_inception_5a/output_0_split_0
I0403 14:38:11.268105 10901 net.cpp:399] inception_5b/1x1 -> inception_5b/1x1
I0403 14:38:11.271931 10901 net.cpp:141] Setting up inception_5b/1x1
I0403 14:38:11.271962 10901 net.cpp:148] Top shape: 24 384 7 7 (451584)
I0403 14:38:11.271980 10901 net.cpp:156] Memory required for data: 1327048224
I0403 14:38:11.271998 10901 layer_factory.hpp:77] Creating layer inception_5b/relu_1x1
I0403 14:38:11.272018 10901 net.cpp:91] Creating Layer inception_5b/relu_1x1
I0403 14:38:11.272037 10901 net.cpp:425] inception_5b/relu_1x1 <- inception_5b/1x1
I0403 14:38:11.272054 10901 net.cpp:386] inception_5b/relu_1x1 -> inception_5b/1x1 (in-place)
I0403 14:38:11.272362 10901 net.cpp:141] Setting up inception_5b/relu_1x1
I0403 14:38:11.272389 10901 net.cpp:148] Top shape: 24 384 7 7 (451584)
I0403 14:38:11.272405 10901 net.cpp:156] Memory required for data: 1328854560
I0403 14:38:11.272421 10901 layer_factory.hpp:77] Creating layer inception_5b/3x3_reduce
I0403 14:38:11.272444 10901 net.cpp:91] Creating Layer inception_5b/3x3_reduce
I0403 14:38:11.272464 10901 net.cpp:425] inception_5b/3x3_reduce <- inception_5a/output_inception_5a/output_0_split_1
I0403 14:38:11.272486 10901 net.cpp:399] inception_5b/3x3_reduce -> inception_5b/3x3_reduce
I0403 14:38:11.275219 10901 net.cpp:141] Setting up inception_5b/3x3_reduce
I0403 14:38:11.275249 10901 net.cpp:148] Top shape: 24 192 7 7 (225792)
I0403 14:38:11.275266 10901 net.cpp:156] Memory required for data: 1329757728
I0403 14:38:11.275285 10901 layer_factory.hpp:77] Creating layer inception_5b/relu_3x3_reduce
I0403 14:38:11.275306 10901 net.cpp:91] Creating Layer inception_5b/relu_3x3_reduce
I0403 14:38:11.275324 10901 net.cpp:425] inception_5b/relu_3x3_reduce <- inception_5b/3x3_reduce
I0403 14:38:11.275343 10901 net.cpp:386] inception_5b/relu_3x3_reduce -> inception_5b/3x3_reduce (in-place)
I0403 14:38:11.275535 10901 net.cpp:141] Setting up inception_5b/relu_3x3_reduce
I0403 14:38:11.275563 10901 net.cpp:148] Top shape: 24 192 7 7 (225792)
I0403 14:38:11.275580 10901 net.cpp:156] Memory required for data: 1330660896
I0403 14:38:11.275596 10901 layer_factory.hpp:77] Creating layer inception_5b/3x3
I0403 14:38:11.275620 10901 net.cpp:91] Creating Layer inception_5b/3x3
I0403 14:38:11.275640 10901 net.cpp:425] inception_5b/3x3 <- inception_5b/3x3_reduce
I0403 14:38:11.275658 10901 net.cpp:399] inception_5b/3x3 -> inception_5b/3x3
I0403 14:38:11.282470 10901 net.cpp:141] Setting up inception_5b/3x3
I0403 14:38:11.282507 10901 net.cpp:148] Top shape: 24 384 7 7 (451584)
I0403 14:38:11.282523 10901 net.cpp:156] Memory required for data: 1332467232
I0403 14:38:11.282542 10901 layer_factory.hpp:77] Creating layer inception_5b/relu_3x3
I0403 14:38:11.282562 10901 net.cpp:91] Creating Layer inception_5b/relu_3x3
I0403 14:38:11.282579 10901 net.cpp:425] inception_5b/relu_3x3 <- inception_5b/3x3
I0403 14:38:11.282598 10901 net.cpp:386] inception_5b/relu_3x3 -> inception_5b/3x3 (in-place)
I0403 14:38:11.282891 10901 net.cpp:141] Setting up inception_5b/relu_3x3
I0403 14:38:11.282917 10901 net.cpp:148] Top shape: 24 384 7 7 (451584)
I0403 14:38:11.282932 10901 net.cpp:156] Memory required for data: 1334273568
I0403 14:38:11.282948 10901 layer_factory.hpp:77] Creating layer inception_5b/5x5_reduce
I0403 14:38:11.282994 10901 net.cpp:91] Creating Layer inception_5b/5x5_reduce
I0403 14:38:11.283015 10901 net.cpp:425] inception_5b/5x5_reduce <- inception_5a/output_inception_5a/output_0_split_2
I0403 14:38:11.283035 10901 net.cpp:399] inception_5b/5x5_reduce -> inception_5b/5x5_reduce
I0403 14:38:11.284299 10901 net.cpp:141] Setting up inception_5b/5x5_reduce
I0403 14:38:11.284328 10901 net.cpp:148] Top shape: 24 48 7 7 (56448)
I0403 14:38:11.284343 10901 net.cpp:156] Memory required for data: 1334499360
I0403 14:38:11.284363 10901 layer_factory.hpp:77] Creating layer inception_5b/relu_5x5_reduce
I0403 14:38:11.284384 10901 net.cpp:91] Creating Layer inception_5b/relu_5x5_reduce
I0403 14:38:11.284399 10901 net.cpp:425] inception_5b/relu_5x5_reduce <- inception_5b/5x5_reduce
I0403 14:38:11.284417 10901 net.cpp:386] inception_5b/relu_5x5_reduce -> inception_5b/5x5_reduce (in-place)
I0403 14:38:11.284783 10901 net.cpp:141] Setting up inception_5b/relu_5x5_reduce
I0403 14:38:11.284809 10901 net.cpp:148] Top shape: 24 48 7 7 (56448)
I0403 14:38:11.284826 10901 net.cpp:156] Memory required for data: 1334725152
I0403 14:38:11.284842 10901 layer_factory.hpp:77] Creating layer inception_5b/5x5
I0403 14:38:11.284862 10901 net.cpp:91] Creating Layer inception_5b/5x5
I0403 14:38:11.284878 10901 net.cpp:425] inception_5b/5x5 <- inception_5b/5x5_reduce
I0403 14:38:11.284898 10901 net.cpp:399] inception_5b/5x5 -> inception_5b/5x5
I0403 14:38:11.287204 10901 net.cpp:141] Setting up inception_5b/5x5
I0403 14:38:11.287237 10901 net.cpp:148] Top shape: 24 128 7 7 (150528)
I0403 14:38:11.287256 10901 net.cpp:156] Memory required for data: 1335327264
I0403 14:38:11.287276 10901 layer_factory.hpp:77] Creating layer inception_5b/relu_5x5
I0403 14:38:11.287297 10901 net.cpp:91] Creating Layer inception_5b/relu_5x5
I0403 14:38:11.287323 10901 net.cpp:425] inception_5b/relu_5x5 <- inception_5b/5x5
I0403 14:38:11.287346 10901 net.cpp:386] inception_5b/relu_5x5 -> inception_5b/5x5 (in-place)
I0403 14:38:11.287559 10901 net.cpp:141] Setting up inception_5b/relu_5x5
I0403 14:38:11.287596 10901 net.cpp:148] Top shape: 24 128 7 7 (150528)
I0403 14:38:11.287611 10901 net.cpp:156] Memory required for data: 1335929376
I0403 14:38:11.287627 10901 layer_factory.hpp:77] Creating layer inception_5b/pool
I0403 14:38:11.287647 10901 net.cpp:91] Creating Layer inception_5b/pool
I0403 14:38:11.287664 10901 net.cpp:425] inception_5b/pool <- inception_5a/output_inception_5a/output_0_split_3
I0403 14:38:11.287684 10901 net.cpp:399] inception_5b/pool -> inception_5b/pool
I0403 14:38:11.287760 10901 net.cpp:141] Setting up inception_5b/pool
I0403 14:38:11.287784 10901 net.cpp:148] Top shape: 24 832 7 7 (978432)
I0403 14:38:11.287799 10901 net.cpp:156] Memory required for data: 1339843104
I0403 14:38:11.287813 10901 layer_factory.hpp:77] Creating layer inception_5b/pool_proj
I0403 14:38:11.287837 10901 net.cpp:91] Creating Layer inception_5b/pool_proj
I0403 14:38:11.287855 10901 net.cpp:425] inception_5b/pool_proj <- inception_5b/pool
I0403 14:38:11.287874 10901 net.cpp:399] inception_5b/pool_proj -> inception_5b/pool_proj
I0403 14:38:11.290190 10901 net.cpp:141] Setting up inception_5b/pool_proj
I0403 14:38:11.290221 10901 net.cpp:148] Top shape: 24 128 7 7 (150528)
I0403 14:38:11.290238 10901 net.cpp:156] Memory required for data: 1340445216
I0403 14:38:11.290258 10901 layer_factory.hpp:77] Creating layer inception_5b/relu_pool_proj
I0403 14:38:11.290277 10901 net.cpp:91] Creating Layer inception_5b/relu_pool_proj
I0403 14:38:11.290292 10901 net.cpp:425] inception_5b/relu_pool_proj <- inception_5b/pool_proj
I0403 14:38:11.290309 10901 net.cpp:386] inception_5b/relu_pool_proj -> inception_5b/pool_proj (in-place)
I0403 14:38:11.290602 10901 net.cpp:141] Setting up inception_5b/relu_pool_proj
I0403 14:38:11.290630 10901 net.cpp:148] Top shape: 24 128 7 7 (150528)
I0403 14:38:11.290647 10901 net.cpp:156] Memory required for data: 1341047328
I0403 14:38:11.290663 10901 layer_factory.hpp:77] Creating layer inception_5b/output
I0403 14:38:11.290680 10901 net.cpp:91] Creating Layer inception_5b/output
I0403 14:38:11.290711 10901 net.cpp:425] inception_5b/output <- inception_5b/1x1
I0403 14:38:11.290729 10901 net.cpp:425] inception_5b/output <- inception_5b/3x3
I0403 14:38:11.290745 10901 net.cpp:425] inception_5b/output <- inception_5b/5x5
I0403 14:38:11.290762 10901 net.cpp:425] inception_5b/output <- inception_5b/pool_proj
I0403 14:38:11.290778 10901 net.cpp:399] inception_5b/output -> inception_5b/output
I0403 14:38:11.290830 10901 net.cpp:141] Setting up inception_5b/output
I0403 14:38:11.290854 10901 net.cpp:148] Top shape: 24 1024 7 7 (1204224)
I0403 14:38:11.290869 10901 net.cpp:156] Memory required for data: 1345864224
I0403 14:38:11.290884 10901 layer_factory.hpp:77] Creating layer pool5/7x7_s1
I0403 14:38:11.290902 10901 net.cpp:91] Creating Layer pool5/7x7_s1
I0403 14:38:11.290920 10901 net.cpp:425] pool5/7x7_s1 <- inception_5b/output
I0403 14:38:11.290940 10901 net.cpp:399] pool5/7x7_s1 -> pool5/7x7_s1
I0403 14:38:11.291168 10901 net.cpp:141] Setting up pool5/7x7_s1
I0403 14:38:11.291196 10901 net.cpp:148] Top shape: 24 1024 1 1 (24576)
I0403 14:38:11.291213 10901 net.cpp:156] Memory required for data: 1345962528
I0403 14:38:11.291229 10901 layer_factory.hpp:77] Creating layer pool5/drop_7x7_s1
I0403 14:38:11.291246 10901 net.cpp:91] Creating Layer pool5/drop_7x7_s1
I0403 14:38:11.291263 10901 net.cpp:425] pool5/drop_7x7_s1 <- pool5/7x7_s1
I0403 14:38:11.291280 10901 net.cpp:386] pool5/drop_7x7_s1 -> pool5/7x7_s1 (in-place)
I0403 14:38:11.291333 10901 net.cpp:141] Setting up pool5/drop_7x7_s1
I0403 14:38:11.291357 10901 net.cpp:148] Top shape: 24 1024 1 1 (24576)
I0403 14:38:11.291373 10901 net.cpp:156] Memory required for data: 1346060832
I0403 14:38:11.291388 10901 layer_factory.hpp:77] Creating layer loss3/classifier_plantvillage
I0403 14:38:11.291410 10901 net.cpp:91] Creating Layer loss3/classifier_plantvillage
I0403 14:38:11.291440 10901 net.cpp:425] loss3/classifier_plantvillage <- pool5/7x7_s1
I0403 14:38:11.291457 10901 net.cpp:399] loss3/classifier_plantvillage -> loss3/classifier_plantvillage
I0403 14:38:11.291877 10901 net.cpp:141] Setting up loss3/classifier_plantvillage
I0403 14:38:11.291903 10901 net.cpp:148] Top shape: 24 38 (912)
I0403 14:38:11.291918 10901 net.cpp:156] Memory required for data: 1346064480
I0403 14:38:11.291935 10901 layer_factory.hpp:77] Creating layer loss3/classifier_plantvillage_loss3/classifier_plantvillage_0_split
I0403 14:38:11.291955 10901 net.cpp:91] Creating Layer loss3/classifier_plantvillage_loss3/classifier_plantvillage_0_split
I0403 14:38:11.291971 10901 net.cpp:425] loss3/classifier_plantvillage_loss3/classifier_plantvillage_0_split <- loss3/classifier_plantvillage
I0403 14:38:11.291992 10901 net.cpp:399] loss3/classifier_plantvillage_loss3/classifier_plantvillage_0_split -> loss3/classifier_plantvillage_loss3/classifier_plantvillage_0_split_0
I0403 14:38:11.292014 10901 net.cpp:399] loss3/classifier_plantvillage_loss3/classifier_plantvillage_0_split -> loss3/classifier_plantvillage_loss3/classifier_plantvillage_0_split_1
I0403 14:38:11.292034 10901 net.cpp:399] loss3/classifier_plantvillage_loss3/classifier_plantvillage_0_split -> loss3/classifier_plantvillage_loss3/classifier_plantvillage_0_split_2
I0403 14:38:11.292055 10901 net.cpp:399] loss3/classifier_plantvillage_loss3/classifier_plantvillage_0_split -> loss3/classifier_plantvillage_loss3/classifier_plantvillage_0_split_3
I0403 14:38:11.292168 10901 net.cpp:141] Setting up loss3/classifier_plantvillage_loss3/classifier_plantvillage_0_split
I0403 14:38:11.292192 10901 net.cpp:148] Top shape: 24 38 (912)
I0403 14:38:11.292208 10901 net.cpp:148] Top shape: 24 38 (912)
I0403 14:38:11.292223 10901 net.cpp:148] Top shape: 24 38 (912)
I0403 14:38:11.292238 10901 net.cpp:148] Top shape: 24 38 (912)
I0403 14:38:11.292253 10901 net.cpp:156] Memory required for data: 1346079072
I0403 14:38:11.292268 10901 layer_factory.hpp:77] Creating layer loss1/loss
I0403 14:38:11.292289 10901 net.cpp:91] Creating Layer loss1/loss
I0403 14:38:11.292306 10901 net.cpp:425] loss1/loss <- loss1/classifier_plantvillage_loss1/classifier_plantvillage_0_split_0
I0403 14:38:11.292337 10901 net.cpp:425] loss1/loss <- label_data_1_split_0
…
