…
I0403 14:56:39.017984 11329 net.cpp:313] The NetState phase (1) differed from the phase (0) specified by a rule in layer data
I0403 14:56:39.019181 11329 net.cpp:49] Initializing net from parameters: 
state {
  phase: TEST
}
layer {
  name: "data"
  type: "Data"
  top: "data"
  top: "label"
  include {
    phase: TEST
  }
  transform_param {
    mirror: false
    crop_size: 224
    mean_file: "/home/mohanty/data/final_dataset/lmdb/grayscale-60-40/mean.binaryproto"
  }
  data_param {
    source: "/home/mohanty/data/final_dataset/lmdb/grayscale-60-40/test_db"
    batch_size: 24
    backend: LMDB
  }
}
layer {
  name: "conv1/7x7_s2"
  type: "Convolution"
  bottom: "data"
  top: "conv1/7x7_s2"
  param {
    lr_mult: 1
    decay_mult: 1
  }
  param {
    lr_mult: 2
    decay_mult: 0
  }
  convolution_param {
    num_output: 64
    pad: 3
    kernel_size: 7
    stride: 2
    weight_filler {
      type: "xavier"
      std: 0.1
    }
    bias_filler {
      type: "constant"
      value: 0.2
    }
  }
}
layer {
  name: "conv1/relu_7x7"
  type: "ReLU"
  bottom: "conv1/7x7_s2"
  top: "conv1/7x7_s2"
}
layer {
  name: "pool1/3x3_s2"
  type: "Pooling"
  bottom: "conv1/7x7_s2"
  top: "pool1/3x3_s2"
  pooling_param {
    pool: MAX
    kernel_size: 3
    stride: 2
  }
}
layer {
  name: "pool1/norm1"
  type: "LRN"
  bottom: "pool1/3x3_s2"
  top: "pool1/norm1"
  lrn_param {
    local_size: 5
    alpha: 0.0001
    beta: 0.75
  }
}
layer {
  name: "conv2/3x3_reduce"
  type: "Convolution"
  bottom: "pool1/norm1"
  top: "conv2/3x3_reduce"
  param {
    lr_mult: 1
    decay_mult: 1
  }
  param {
    lr_mult: 2
    decay_mult: 0
  }
  convolution_param {
    num_output: 64
    kernel_size: 1
    weight_filler {
      type: "xavier"
      std: 0.1
    }
    bias_filler {
      type: "constant"
      value: 0.2
    }
  }
}
layer {
  name: "conv2/relu_3x3_reduce"
  type: "ReLU"
  bottom: "conv2/3x3_reduce"
  top: "conv2/3x3_reduce"
}
layer {
  name: "conv2/3x3"
  type: "Convolution"
  bottom: "conv2/3x3_reduce"
  top: "conv2/3x3"
  param {
    lr_mult: 1
    decay_mult: 1
  }
  param {
    lr_mult: 2
    decay_mult: 0
  }
  convolution_param {
    num_output: 192
    pad: 1
    kernel_size: 3
    weight_filler {
      type: "xavier"
      std: 0.03
    }
    bias_filler {
      type: "constant"
      value: 0.2
    }
  }
}
layer {
  name: "conv2/relu_3x3"
  type: "ReLU"
  bottom: "conv2/3x3"
  top: "conv2/3x3"
}
layer {
  name: "conv2/norm2"
  type: "LRN"
  bottom: "conv2/3x3"
  top: "conv2/norm2"
  lrn_param {
    local_size: 5
    alpha: 0.0001
    beta: 0.75
  }
}
layer {
  name: "pool2/3x3_s2"
  type: "Pooling"
  bottom: "conv2/norm2"
  top: "pool2/3x3_s2"
  pooling_param {
    pool: MAX
    kernel_size: 3
    stride: 2
  }
}
layer {
  name: "inception_3a/1x1"
  type: "Convolution"
  bottom: "pool2/3x3_s2"
  top: "inception_3a/1x1"
  param {
    lr_mult: 1
    decay_mult: 1
  }
  param {
    lr_mult: 2
    decay_mult: 0
  }
  convolution_param {
    num_output: 64
    kernel_size: 1
    weight_filler {
      type: "xavier"
      std: 0.03
    }
    bias_filler {
      type: "constant"
      value: 0.2
    }
  }
}
layer {
  name: "inception_3a/relu_1x1"
  type: "ReLU"
  bottom: "inception_3a/1x1"
  top: "inception_3a/1x1"
}
layer {
  name: "inception_3a/3x3_reduce"
  type: "Convolution"
  bottom: "pool2/3x3_s2"
  top: "inception_3a/3x3_reduce"
  param {
    lr_mult: 1
    decay_mult: 1
  }
  param {
    lr_mult: 2
    decay_mult: 0
  }
  convolution_param {
    num_output: 96
    kernel_size: 1
    weight_filler {
      type: "xavier"
      std: 0.09
    }
    bias_filler {
      type: "constant"
      value: 0.2
    }
  }
}
layer {
  name: "inception_3a/relu_3x3_reduce"
  type: "ReLU"
  bottom: "inception_3a/3x3_reduce"
  top: "inception_3a/3x3_reduce"
}
layer {
  name: "inception_3a/3x3"
  type: "Convolution"
  bottom: "inception_3a/3x3_reduce"
  top: "inception_3a/3x3"
  param {
    lr_mult: 1
    decay_mult: 1
  }
  param {
    lr_mult: 2
    decay_mult: 0
  }
  convolution_param {
    num_output: 128
    pad: 1
    kernel_size: 3
    weight_filler {
      type: "xavier"
      std: 0.03
    }
    bias_filler {
      type: "constant"
      value: 0.2
    }
  }
}
layer {
  name: "inception_3a/relu_3x3"
  type: "ReLU"
  bottom: "inception_3a/3x3"
  top: "inception_3a/3x3"
}
layer {
  name: "inception_3a/5x5_reduce"
  type: "Convolution"
  bottom: "pool2/3x3_s2"
  top: "inception_3a/5x5_reduce"
  param {
    lr_mult: 1
    decay_mult: 1
  }
  param {
    lr_mult: 2
    decay_mult: 0
  }
  convolution_param {
    num_output: 16
    kernel_size: 1
    weight_filler {
      type: "xavier"
      std: 0.2
    }
    bias_filler {
      type: "constant"
      value: 0.2
    }
  }
}
layer {
  name: "inception_3a/relu_5x5_reduce"
  type: "ReLU"
  bottom: "inception_3a/5x5_reduce"
  top: "inception_3a/5x5_reduce"
}
layer {
  name: "inception_3a/5x5"
  type: "Convolution"
  bottom: "inception_3a/5x5_reduce"
  top: "inception_3a/5x5"
  param {
    lr_mult: 1
    decay_mult: 1
  }
  param {
    lr_mult: 2
    decay_mult: 0
  }
  convolution_param {
    num_output: 32
    pad: 2
    kernel_size: 5
    weight_filler {
      type: "xavier"
      std: 0.03
    }
    bias_filler {
      type: "constant"
      value: 0.2
    }
  }
}
layer {
  name: "inception_3a/relu_5x5"
  type: "ReLU"
  bottom: "inception_3a/5x5"
  top: "inception_3a/5x5"
}
layer {
  name: "inception_3a/pool"
  type: "Pooling"
  bottom: "pool2/3x3_s2"
  top: "inception_3a/pool"
  pooling_param {
    pool: MAX
    kernel_size: 3
    stride: 1
    pad: 1
  }
}
layer {
  name: "inception_3a/pool_proj"
  type: "Convolution"
  bottom: "inception_3a/pool"
  top: "inception_3a/pool_proj"
  param {
    lr_mult: 1
    decay_mult: 1
  }
  param {
    lr_mult: 2
    decay_mult: 0
  }
  convolution_param {
    num_output: 32
    kernel_size: 1
    weight_filler {
      type: "xavier"
      std: 0.1
    }
    bias_filler {
      type: "constant"
      value: 0.2
    }
  }
}
layer {
  name: "inception_3a/relu_pool_proj"
  type: "ReLU"
  bottom: "inception_3a/pool_proj"
  top: "inception_3a/pool_proj"
}
layer {
  name: "inception_3a/output"
  type: "Concat"
  bottom: "inception_3a/1x1"
  bottom: "inception_3a/3x3"
  bottom: "inception_3a/5x5"
  bottom: "inception_3a/pool_proj"
  top: "inception_3a/output"
}
layer {
  name: "inception_3b/1x1"
  type: "Convolution"
  bottom: "inception_3a/output"
  top: "inception_3b/1x1"
  param {
    lr_mult: 1
    decay_mult: 1
  }
  param {
    lr_mult: 2
    decay_mult: 0
  }
  convolution_param {
    num_output: 128
    kernel_size: 1
    weight_filler {
      type: "xavier"
      std: 0.03
    }
    bias_filler {
      type: "constant"
      value: 0.2
    }
  }
}
layer {
  name: "inception_3b/relu_1x1"
  type: "ReLU"
  bottom: "inception_3b/1x1"
  top: "inception_3b/1x1"
}
layer {
  name: "inception_3b/3x3_reduce"
  type: "Convolution"
  bottom: "inception_3a/output"
  top: "inception_3b/3x3_reduce"
  param {
    lr_mult: 1
    decay_mult: 1
  }
  param {
    lr_mult: 2
    decay_mult: 0
  }
  convolution_param {
    num_output: 128
    kernel_size: 1
    weight_filler {
      type: "xavier"
      std: 0.09
    }
    bias_filler {
      type: "constant"
      value: 0.2
    }
  }
}
layer {
  name: "inception_3b/relu_3x3_reduce"
  type: "ReLU"
  bottom: "inception_3b/3x3_reduce"
  top: "inception_3b/3x3_reduce"
}
layer {
  name: "inception_3b/3x3"
  type: "Convolution"
  bottom: "inception_3b/3x3_reduce"
  top: "inception_3b/3x3"
  param {
    lr_mult: 1
    decay_mult: 1
  }
  param {
    lr_mult: 2
    decay_mult: 0
  }
  convolution_param {
    num_output: 192
    pad: 1
    kernel_size: 3
    weight_filler {
      type: "xavier"
      std: 0.03
    }
    bias_filler {
      type: "constant"
      value: 0.2
    }
  }
}
layer {
  name: "inception_3b/relu_3x3"
  type: "ReLU"
  bottom: "inception_3b/3x3"
  top: "inception_3b/3x3"
}
layer {
  name: "inception_3b/5x5_reduce"
  type: "Convolution"
  bottom: "inception_3a/output"
  top: "inception_3b/5x5_reduce"
  param {
    lr_mult: 1
    decay_mult: 1
  }
  param {
    lr_mult: 2
    decay_mult: 0
  }
  convolution_param {
    num_output: 32
    kernel_size: 1
    weight_filler {
      type: "xavier"
      std: 0.2
    }
    bias_filler {
      type: "constant"
      value: 0.2
    }
  }
}
layer {
  name: "inception_3b/relu_5x5_reduce"
  type: "ReLU"
  bottom: "inception_3b/5x5_reduce"
  top: "inception_3b/5x5_reduce"
}
layer {
  name: "inception_3b/5x5"
  type: "Convolution"
  bottom: "inception_3b/5x5_reduce"
  top: "inception_3b/5x5"
  param {
    lr_mult: 1
    decay_mult: 1
  }
  param {
    lr_mult: 2
    decay_mult: 0
  }
  convolution_param {
    num_output: 96
    pad: 2
    kernel_size: 5
    weight_filler {
      type: "xavier"
      std: 0.03
    }
    bias_filler {
      type: "constant"
      value: 0.2
    }
  }
}
layer {
  name: "inception_3b/relu_5x5"
  type: "ReLU"
  bottom: "inception_3b/5x5"
  top: "inception_3b/5x5"
}
layer {
  name: "inception_3b/pool"
  type: "Pooling"
  bottom: "inception_3a/output"
  top: "inception_3b/pool"
  pooling_param {
    pool: MAX
    kernel_size: 3
    stride: 1
    pad: 1
  }
}
layer {
  name: "inception_3b/pool_proj"
  type: "Convolution"
  bottom: "inception_3b/pool"
  top: "inception_3b/pool_proj"
  param {
    lr_mult: 1
    decay_mult: 1
  }
  param {
    lr_mult: 2
    decay_mult: 0
  }
  convolution_param {
    num_output: 64
    kernel_size: 1
    weight_filler {
      type: "xavier"
      std: 0.1
    }
    bias_filler {
      type: "constant"
      value: 0.2
    }
  }
}
layer {
  name: "inception_3b/relu_pool_proj"
  type: "ReLU"
  bottom: "inception_3b/pool_proj"
  top: "inception_3b/pool_proj"
}
layer {
  name: "inception_3b/output"
  type: "Concat"
  bottom: "inception_3b/1x1"
  bottom: "inception_3b/3x3"
  bottom: "inception_3b/5x5"
  bottom: "inception_3b/pool_proj"
  top: "inception_3b/output"
}
layer {
  name: "pool3/3x3_s2"
  type: "Pooling"
  bottom: "inception_3b/output"
  top: "pool3/3x3_s2"
  pooling_param {
    pool: MAX
    kernel_size: 3
    stride: 2
  }
}
layer {
  name: "inception_4a/1x1"
  type: "Convolution"
  bottom: "pool3/3x3_s2"
  top: "inception_4a/1x1"
  param {
    lr_mult: 1
    decay_mult: 1
  }
  param {
    lr_mult: 2
    decay_mult: 0
  }
  convolution_param {
    num_output: 192
    kernel_size: 1
    weight_filler {
      type: "xavier"
      std: 0.03
    }
    bias_filler {
      type: "constant"
      value: 0.2
    }
  }
}
layer {
  name: "inception_4a/relu_1x1"
  type: "ReLU"
  bottom: "inception_4a/1x1"
  top: "inception_4a/1x1"
}
layer {
  name: "inception_4a/3x3_reduce"
  type: "Convolution"
  bottom: "pool3/3x3_s2"
  top: "inception_4a/3x3_reduce"
  param {
    lr_mult: 1
    decay_mult: 1
  }
  param {
    lr_mult: 2
    decay_mult: 0
  }
  convolution_param {
    num_output: 96
    kernel_size: 1
    weight_filler {
      type: "xavier"
      std: 0.09
    }
    bias_filler {
      type: "constant"
      value: 0.2
    }
  }
}
layer {
  name: "inception_4a/relu_3x3_reduce"
  type: "ReLU"
  bottom: "inception_4a/3x3_reduce"
  top: "inception_4a/3x3_reduce"
}
layer {
  name: "inception_4a/3x3"
  type: "Convolution"
  bottom: "inception_4a/3x3_reduce"
  top: "inception_4a/3x3"
  param {
    lr_mult: 1
    decay_mult: 1
  }
  param {
    lr_mult: 2
    decay_mult: 0
  }
  convolution_param {
    num_output: 208
    pad: 1
    kernel_size: 3
    weight_filler {
      type: "xavier"
      std: 0.03
    }
    bias_filler {
      type: "constant"
      value: 0.2
    }
  }
}
layer {
  name: "inception_4a/relu_3x3"
  type: "ReLU"
  bottom: "inception_4a/3x3"
  top: "inception_4a/3x3"
}
layer {
  name: "inception_4a/5x5_reduce"
  type: "Convolution"
  bottom: "pool3/3x3_s2"
  top: "inception_4a/5x5_reduce"
  param {
    lr_mult: 1
    decay_mult: 1
  }
  param {
    lr_mult: 2
    decay_mult: 0
  }
  convolution_param {
    num_output: 16
    kernel_size: 1
    weight_filler {
      type: "xavier"
      std: 0.2
    }
    bias_filler {
      type: "constant"
      value: 0.2
    }
  }
}
layer {
  name: "inception_4a/relu_5x5_reduce"
  type: "ReLU"
  bottom: "inception_4a/5x5_reduce"
  top: "inception_4a/5x5_reduce"
}
layer {
  name: "inception_4a/5x5"
  type: "Convolution"
  bottom: "inception_4a/5x5_reduce"
  top: "inception_4a/5x5"
  param {
    lr_mult: 1
    decay_mult: 1
  }
  param {
    lr_mult: 2
    decay_mult: 0
  }
  convolution_param {
    num_output: 48
    pad: 2
    kernel_size: 5
    weight_filler {
      type: "xavier"
      std: 0.03
    }
    bias_filler {
      type: "constant"
      value: 0.2
    }
  }
}
layer {
  name: "inception_4a/relu_5x5"
  type: "ReLU"
  bottom: "inception_4a/5x5"
  top: "inception_4a/5x5"
}
layer {
  name: "inception_4a/pool"
  type: "Pooling"
  bottom: "pool3/3x3_s2"
  top: "inception_4a/pool"
  pooling_param {
    pool: MAX
    kernel_size: 3
    stride: 1
    pad: 1
  }
}
layer {
  name: "inception_4a/pool_proj"
  type: "Convolution"
  bottom: "inception_4a/pool"
  top: "inception_4a/pool_proj"
  param {
    lr_mult: 1
    decay_mult: 1
  }
  param {
    lr_mult: 2
    decay_mult: 0
  }
  convolution_param {
    num_output: 64
    kernel_size: 1
    weight_filler {
      type: "xavier"
      std: 0.1
    }
    bias_filler {
      type: "constant"
      value: 0.2
    }
  }
}
layer {
  name: "inception_4a/relu_pool_proj"
  type: "ReLU"
  bottom: "inception_4a/pool_proj"
  top: "inception_4a/pool_proj"
}
layer {
  name: "inception_4a/output"
  type: "Concat"
  bottom: "inception_4a/1x1"
  bottom: "inception_4a/3x3"
  bottom: "inception_4a/5x5"
  bottom: "inception_4a/pool_proj"
  top: "inception_4a/output"
}
layer {
  name: "loss1/ave_pool"
  type: "Pooling"
  bottom: "inception_4a/output"
  top: "loss1/ave_pool"
  pooling_param {
    pool: AVE
    kernel_size: 5
    stride: 3
  }
}
layer {
  name: "loss1/conv"
  type: "Convolution"
  bottom: "loss1/ave_pool"
  top: "loss1/conv"
  param {
    lr_mult: 1
    decay_mult: 1
  }
  param {
    lr_mult: 2
    decay_mult: 0
  }
  convolution_param {
    num_output: 128
    kernel_size: 1
    weight_filler {
      type: "xavier"
      std: 0.08
    }
    bias_filler {
      type: "constant"
      value: 0.2
    }
  }
}
layer {
  name: "loss1/relu_conv"
  type: "ReLU"
  bottom: "loss1/conv"
  top: "loss1/conv"
}
layer {
  name: "loss1/fc"
  type: "InnerProduct"
  bottom: "loss1/conv"
  top: "loss1/fc"
  param {
    lr_mult: 1
    decay_mult: 1
  }
  param {
    lr_mult: 2
    decay_mult: 0
  }
  inner_product_param {
    num_output: 1024
    weight_filler {
      type: "xavier"
      std: 0.02
    }
    bias_filler {
      type: "constant"
      value: 0.2
    }
  }
}
layer {
  name: "loss1/relu_fc"
  type: "ReLU"
  bottom: "loss1/fc"
  top: "loss1/fc"
}
layer {
  name: "loss1/drop_fc"
  type: "Dropout"
  bottom: "loss1/fc"
  top: "loss1/fc"
  dropout_param {
    dropout_ratio: 0.7
  }
}
layer {
  name: "loss1/classifier_plantvillage"
  type: "InnerProduct"
  bottom: "loss1/fc"
  top: "loss1/classifier_plantvillage"
  param {
    lr_mult: 1
    decay_mult: 1
  }
  param {
    lr_mult: 2
    decay_mult: 0
  }
  inner_product_param {
    num_output: 38
    weight_filler {
      type: "xavier"
      std: 0.0009765625
    }
    bias_filler {
      type: "constant"
      value: 0
    }
  }
}
layer {
  name: "inception_4b/1x1"
  type: "Convolution"
  bottom: "inception_4a/output"
  top: "inception_4b/1x1"
  param {
    lr_mult: 1
    decay_mult: 1
  }
  param {
    lr_mult: 2
    decay_mult: 0
  }
  convolution_param {
    num_output: 160
    kernel_size: 1
    weight_filler {
      type: "xavier"
      std: 0.03
    }
    bias_filler {
      type: "constant"
      value: 0.2
    }
  }
}
layer {
  name: "inception_4b/relu_1x1"
  type: "ReLU"
  bottom: "inception_4b/1x1"
  top: "inception_4b/1x1"
}
layer {
  name: "inception_4b/3x3_reduce"
  type: "Convolution"
  bottom: "inception_4a/output"
  top: "inception_4b/3x3_reduce"
  param {
    lr_mult: 1
    decay_mult: 1
  }
  param {
    lr_mult: 2
    decay_mult: 0
  }
  convolution_param {
    num_output: 112
    kernel_size: 1
    weight_filler {
      type: "xavier"
      std: 0.09
    }
    bias_filler {
      type: "constant"
      value: 0.2
    }
  }
}
layer {
  name: "inception_4b/relu_3x3_reduce"
  type: "ReLU"
  bottom: "inception_4b/3x3_reduce"
  top: "inception_4b/3x3_reduce"
}
layer {
  name: "inception_4b/3x3"
  type: "Convolution"
  bottom: "inception_4b/3x3_reduce"
  top: "inception_4b/3x3"
  param {
    lr_mult: 1
    decay_mult: 1
  }
  param {
    lr_mult: 2
    decay_mult: 0
  }
  convolution_param {
    num_output: 224
    pad: 1
    kernel_size: 3
    weight_filler {
      type: "xavier"
      std: 0.03
    }
    bias_filler {
      type: "constant"
      value: 0.2
    }
  }
}
layer {
  name: "inception_4b/relu_3x3"
  type: "ReLU"
  bottom: "inception_4b/3x3"
  top: "inception_4b/3x3"
}
layer {
  name: "inception_4b/5x5_reduce"
  type: "Convolution"
  bottom: "inception_4a/output"
  top: "inception_4b/5x5_reduce"
  param {
    lr_mult: 1
    decay_mult: 1
  }
  param {
    lr_mult: 2
    decay_mult: 0
  }
  convolution_param {
    num_output: 24
    kernel_size: 1
    weight_filler {
      type: "xavier"
      std: 0.2
    }
    bias_filler {
      type: "constant"
      value: 0.2
    }
  }
}
layer {
  name: "inception_4b/relu_5x5_reduce"
  type: "ReLU"
  bottom: "inception_4b/5x5_reduce"
  top: "inception_4b/5x5_reduce"
}
layer {
  name: "inception_4b/5x5"
  type: "Convolution"
  bottom: "inception_4b/5x5_reduce"
  top: "inception_4b/5x5"
  param {
    lr_mult: 1
    decay_mult: 1
  }
  param {
    lr_mult: 2
    decay_mult: 0
  }
  convolution_param {
    num_output: 64
    pad: 2
    kernel_size: 5
    weight_filler {
      type: "xavier"
      std: 0.03
    }
    bias_filler {
      type: "constant"
      value: 0.2
    }
  }
}
layer {
  name: "inception_4b/relu_5x5"
  type: "ReLU"
  bottom: "inception_4b/5x5"
  top: "inception_4b/5x5"
}
layer {
  name: "inception_4b/pool"
  type: "Pooling"
  bottom: "inception_4a/output"
  top: "inception_4b/pool"
  pooling_param {
    pool: MAX
    kernel_size: 3
    stride: 1
    pad: 1
  }
}
layer {
  name: "inception_4b/pool_proj"
  type: "Convolution"
  bottom: "inception_4b/pool"
  top: "inception_4b/pool_proj"
  param {
    lr_mult: 1
    decay_mult: 1
  }
  param {
    lr_mult: 2
    decay_mult: 0
  }
  convolution_param {
    num_output: 64
    kernel_size: 1
    weight_filler {
      type: "xavier"
      std: 0.1
    }
    bias_filler {
      type: "constant"
      value: 0.2
    }
  }
}
layer {
  name: "inception_4b/relu_pool_proj"
  type: "ReLU"
  bottom: "inception_4b/pool_proj"
  top: "inception_4b/pool_proj"
}
layer {
  name: "inception_4b/output"
  type: "Concat"
  bottom: "inception_4b/1x1"
  bottom: "inception_4b/3x3"
  bottom: "inception_4b/5x5"
  bottom: "inception_4b/pool_proj"
  top: "inception_4b/output"
}
layer {
  name: "inception_4c/1x1"
  type: "Convolution"
  bottom: "inception_4b/output"
  top: "inception_4c/1x1"
  param {
    lr_mult: 1
    decay_mult: 1
  }
  param {
    lr_mult: 2
    decay_mult: 0
  }
  convolution_param {
    num_output: 128
    kernel_size: 1
    weight_filler {
      type: "xavier"
      std: 0.03
    }
    bias_filler {
      type: "constant"
      value: 0.2
    }
  }
}
layer {
  name: "inception_4c/relu_1x1"
  type: "ReLU"
  bottom: "inception_4c/1x1"
  top: "inception_4c/1x1"
}
layer {
  name: "inception_4c/3x3_reduce"
  type: "Convolution"
  bottom: "inception_4b/output"
  top: "inception_4c/3x3_reduce"
  param {
    lr_mult: 1
    decay_mult: 1
  }
  param {
    lr_mult: 2
    decay_mult: 0
  }
  convolution_param {
    num_output: 128
    kernel_size: 1
    weight_filler {
      type: "xavier"
      std: 0.09
    }
    bias_filler {
      type: "constant"
      value: 0.2
    }
  }
}
layer {
  name: "inception_4c/relu_3x3_reduce"
  type: "ReLU"
  bottom: "inception_4c/3x3_reduce"
  top: "inception_4c/3x3_reduce"
}
layer {
  name: "inception_4c/3x3"
  type: "Convolution"
  bottom: "inception_4c/3x3_reduce"
  top: "inception_4c/3x3"
  param {
    lr_mult: 1
    decay_mult: 1
  }
  param {
    lr_mult: 2
    decay_mult: 0
  }
  convolution_param {
    num_output: 256
    pad: 1
    kernel_size: 3
    weight_filler {
      type: "xavier"
      std: 0.03
    }
    bias_filler {
      type: "constant"
      value: 0.2
    }
  }
}
layer {
  name: "inception_4c/relu_3x3"
  type: "ReLU"
  bottom: "inception_4c/3x3"
  top: "inception_4c/3x3"
}
layer {
  name: "inception_4c/5x5_reduce"
  type: "Convolution"
  bottom: "inception_4b/output"
  top: "inception_4c/5x5_reduce"
  param {
    lr_mult: 1
    decay_mult: 1
  }
  param {
    lr_mult: 2
    decay_mult: 0
  }
  convolution_param {
    num_output: 24
    kernel_size: 1
    weight_filler {
      type: "xavier"
      std: 0.2
    }
    bias_filler {
      type: "constant"
      value: 0.2
    }
  }
}
layer {
  name: "inception_4c/relu_5x5_reduce"
  type: "ReLU"
  bottom: "inception_4c/5x5_reduce"
  top: "inception_4c/5x5_reduce"
}
layer {
  name: "inception_4c/5x5"
  type: "Convolution"
  bottom: "inception_4c/5x5_reduce"
  top: "inception_4c/5x5"
  param {
    lr_mult: 1
    decay_mult: 1
  }
  param {
    lr_mult: 2
    decay_mult: 0
  }
  convolution_param {
    num_output: 64
    pad: 2
    kernel_size: 5
    weight_filler {
      type: "xavier"
      std: 0.03
    }
    bias_filler {
      type: "constant"
      value: 0.2
    }
  }
}
layer {
  name: "inception_4c/relu_5x5"
  type: "ReLU"
  bottom: "inception_4c/5x5"
  top: "inception_4c/5x5"
}
layer {
  name: "inception_4c/pool"
  type: "Pooling"
  bottom: "inception_4b/output"
  top: "inception_4c/pool"
  pooling_param {
    pool: MAX
    kernel_size: 3
    stride: 1
    pad: 1
  }
}
layer {
  name: "inception_4c/pool_proj"
  type: "Convolution"
  bottom: "inception_4c/pool"
  top: "inception_4c/pool_proj"
  param {
    lr_mult: 1
    decay_mult: 1
  }
  param {
    lr_mult: 2
    decay_mult: 0
  }
  convolution_param {
    num_output: 64
    kernel_size: 1
    weight_filler {
      type: "xavier"
      std: 0.1
    }
    bias_filler {
      type: "constant"
      value: 0.2
    }
  }
}
layer {
  name: "inception_4c/relu_pool_proj"
  type: "ReLU"
  bottom: "inception_4c/pool_proj"
  top: "inception_4c/pool_proj"
}
layer {
  name: "inception_4c/output"
  type: "Concat"
  bottom: "inception_4c/1x1"
  bottom: "inception_4c/3x3"
  bottom: "inception_4c/5x5"
  bottom: "inception_4c/pool_proj"
  top: "inception_4c/output"
}
layer {
  name: "inception_4d/1x1"
  type: "Convolution"
  bottom: "inception_4c/output"
  top: "inception_4d/1x1"
  param {
    lr_mult: 1
    decay_mult: 1
  }
  param {
    lr_mult: 2
    decay_mult: 0
  }
  convolution_param {
    num_output: 112
    kernel_size: 1
    weight_filler {
      type: "xavier"
      std: 0.03
    }
    bias_filler {
      type: "constant"
      value: 0.2
    }
  }
}
layer {
  name: "inception_4d/relu_1x1"
  type: "ReLU"
  bottom: "inception_4d/1x1"
  top: "inception_4d/1x1"
}
layer {
  name: "inception_4d/3x3_reduce"
  type: "Convolution"
  bottom: "inception_4c/output"
  top: "inception_4d/3x3_reduce"
  param {
    lr_mult: 1
    decay_mult: 1
  }
  param {
    lr_mult: 2
    decay_mult: 0
  }
  convolution_param {
    num_output: 144
    kernel_size: 1
    weight_filler {
      type: "xavier"
      std: 0.09
    }
    bias_filler {
      type: "constant"
      value: 0.2
    }
  }
}
layer {
  name: "inception_4d/relu_3x3_reduce"
  type: "ReLU"
  bottom: "inception_4d/3x3_reduce"
  top: "inception_4d/3x3_reduce"
}
layer {
  name: "inception_4d/3x3"
  type: "Convolution"
  bottom: "inception_4d/3x3_reduce"
  top: "inception_4d/3x3"
  param {
    lr_mult: 1
    decay_mult: 1
  }
  param {
    lr_mult: 2
    decay_mult: 0
  }
  convolution_param {
    num_output: 288
    pad: 1
    kernel_size: 3
    weight_filler {
      type: "xavier"
      std: 0.03
    }
    bias_filler {
      type: "constant"
      value: 0.2
    }
  }
}
layer {
  name: "inception_4d/relu_3x3"
  type: "ReLU"
  bottom: "inception_4d/3x3"
  top: "inception_4d/3x3"
}
layer {
  name: "inception_4d/5x5_reduce"
  type: "Convolution"
  bottom: "inception_4c/output"
  top: "inception_4d/5x5_reduce"
  param {
    lr_mult: 1
    decay_mult: 1
  }
  param {
    lr_mult: 2
    decay_mult: 0
  }
  convolution_param {
    num_output: 32
    kernel_size: 1
    weight_filler {
      type: "xavier"
      std: 0.2
    }
    bias_filler {
      type: "constant"
      value: 0.2
    }
  }
}
layer {
  name: "inception_4d/relu_5x5_reduce"
  type: "ReLU"
  bottom: "inception_4d/5x5_reduce"
  top: "inception_4d/5x5_reduce"
}
layer {
  name: "inception_4d/5x5"
  type: "Convolution"
  bottom: "inception_4d/5x5_reduce"
  top: "inception_4d/5x5"
  param {
    lr_mult: 1
    decay_mult: 1
  }
  param {
    lr_mult: 2
    decay_mult: 0
  }
  convolution_param {
    num_output: 64
    pad: 2
    kernel_size: 5
    weight_filler {
      type: "xavier"
      std: 0.03
    }
    bias_filler {
      type: "constant"
      value: 0.2
    }
  }
}
layer {
  name: "inception_4d/relu_5x5"
  type: "ReLU"
  bottom: "inception_4d/5x5"
  top: "inception_4d/5x5"
}
layer {
  name: "inception_4d/pool"
  type: "Pooling"
  bottom: "inception_4c/output"
  top: "inception_4d/pool"
  pooling_param {
    pool: MAX
    kernel_size: 3
    stride: 1
    pad: 1
  }
}
layer {
  name: "inception_4d/pool_proj"
  type: "Convolution"
  bottom: "inception_4d/pool"
  top: "inception_4d/pool_proj"
  param {
    lr_mult: 1
    decay_mult: 1
  }
  param {
    lr_mult: 2
    decay_mult: 0
  }
  convolution_param {
    num_output: 64
    kernel_size: 1
    weight_filler {
      type: "xavier"
      std: 0.1
    }
    bias_filler {
      type: "constant"
      value: 0.2
    }
  }
}
layer {
  name: "inception_4d/relu_pool_proj"
  type: "ReLU"
  bottom: "inception_4d/pool_proj"
  top: "inception_4d/pool_proj"
}
layer {
  name: "inception_4d/output"
  type: "Concat"
  bottom: "inception_4d/1x1"
  bottom: "inception_4d/3x3"
  bottom: "inception_4d/5x5"
  bottom: "inception_4d/pool_proj"
  top: "inception_4d/output"
}
layer {
  name: "loss2/ave_pool"
  type: "Pooling"
  bottom: "inception_4d/output"
  top: "loss2/ave_pool"
  pooling_param {
    pool: AVE
    kernel_size: 5
    stride: 3
  }
}
layer {
  name: "loss2/conv"
  type: "Convolution"
  bottom: "loss2/ave_pool"
  top: "loss2/conv"
  param {
    lr_mult: 1
    decay_mult: 1
  }
  param {
    lr_mult: 2
    decay_mult: 0
  }
  convolution_param {
    num_output: 128
    kernel_size: 1
    weight_filler {
      type: "xavier"
      std: 0.08
    }
    bias_filler {
      type: "constant"
      value: 0.2
    }
  }
}
layer {
  name: "loss2/relu_conv"
  type: "ReLU"
  bottom: "loss2/conv"
  top: "loss2/conv"
}
layer {
  name: "loss2/fc"
  type: "InnerProduct"
  bottom: "loss2/conv"
  top: "loss2/fc"
  param {
    lr_mult: 1
    decay_mult: 1
  }
  param {
    lr_mult: 2
    decay_mult: 0
  }
  inner_product_param {
    num_output: 1024
    weight_filler {
      type: "xavier"
      std: 0.02
    }
    bias_filler {
      type: "constant"
      value: 0.2
    }
  }
}
layer {
  name: "loss2/relu_fc"
  type: "ReLU"
  bottom: "loss2/fc"
  top: "loss2/fc"
}
layer {
  name: "loss2/drop_fc"
  type: "Dropout"
  bottom: "loss2/fc"
  top: "loss2/fc"
  dropout_param {
    dropout_ratio: 0.7
  }
}
layer {
  name: "loss2/classifier_plantvillage"
  type: "InnerProduct"
  bottom: "loss2/fc"
  top: "loss2/classifier_plantvillage"
  param {
    lr_mult: 1
    decay_mult: 1
  }
  param {
    lr_mult: 2
    decay_mult: 0
  }
  inner_product_param {
    num_output: 38
    weight_filler {
      type: "xavier"
      std: 0.0009765625
    }
    bias_filler {
      type: "constant"
      value: 0
    }
  }
}
layer {
  name: "inception_4e/1x1"
  type: "Convolution"
  bottom: "inception_4d/output"
  top: "inception_4e/1x1"
  param {
    lr_mult: 1
    decay_mult: 1
  }
  param {
    lr_mult: 2
    decay_mult: 0
  }
  convolution_param {
    num_output: 256
    kernel_size: 1
    weight_filler {
      type: "xavier"
      std: 0.03
    }
    bias_filler {
      type: "constant"
      value: 0.2
    }
  }
}
layer {
  name: "inception_4e/relu_1x1"
  type: "ReLU"
  bottom: "inception_4e/1x1"
  top: "inception_4e/1x1"
}
layer {
  name: "inception_4e/3x3_reduce"
  type: "Convolution"
  bottom: "inception_4d/output"
  top: "inception_4e/3x3_reduce"
  param {
    lr_mult: 1
    decay_mult: 1
  }
  param {
    lr_mult: 2
    decay_mult: 0
  }
  convolution_param {
    num_output: 160
    kernel_size: 1
    weight_filler {
      type: "xavier"
      std: 0.09
    }
    bias_filler {
      type: "constant"
      value: 0.2
    }
  }
}
layer {
  name: "inception_4e/relu_3x3_reduce"
  type: "ReLU"
  bottom: "inception_4e/3x3_reduce"
  top: "inception_4e/3x3_reduce"
}
layer {
  name: "inception_4e/3x3"
  type: "Convolution"
  bottom: "inception_4e/3x3_reduce"
  top: "inception_4e/3x3"
  param {
    lr_mult: 1
    decay_mult: 1
  }
  param {
    lr_mult: 2
    decay_mult: 0
  }
  convolution_param {
    num_output: 320
    pad: 1
    kernel_size: 3
    weight_filler {
      type: "xavier"
      std: 0.03
    }
    bias_filler {
      type: "constant"
      value: 0.2
    }
  }
}
layer {
  name: "inception_4e/relu_3x3"
  type: "ReLU"
  bottom: "inception_4e/3x3"
  top: "inception_4e/3x3"
}
layer {
  name: "inception_4e/5x5_reduce"
  type: "Convolution"
  bottom: "inception_4d/output"
  top: "inception_4e/5x5_reduce"
  param {
    lr_mult: 1
    decay_mult: 1
  }
  param {
    lr_mult: 2
    decay_mult: 0
  }
  convolution_param {
    num_output: 32
    kernel_size: 1
    weight_filler {
      type: "xavier"
      std: 0.2
    }
    bias_filler {
      type: "constant"
      value: 0.2
    }
  }
}
layer {
  name: "inception_4e/relu_5x5_reduce"
  type: "ReLU"
  bottom: "inception_4e/5x5_reduce"
  top: "inception_4e/5x5_reduce"
}
layer {
  name: "inception_4e/5x5"
  type: "Convolution"
  bottom: "inception_4e/5x5_reduce"
  top: "inception_4e/
I0403 14:56:39.020689 11329 layer_factory.hpp:77] Creating layer data
I0403 14:56:39.021317 11329 net.cpp:91] Creating Layer data
I0403 14:56:39.021353 11329 net.cpp:399] data -> data
I0403 14:56:39.021405 11329 net.cpp:399] data -> label
I0403 14:56:39.021443 11329 data_transformer.cpp:25] Loading mean file from: /home/mohanty/data/final_dataset/lmdb/grayscale-60-40/mean.binaryproto
I0403 14:56:39.023736 11333 db_lmdb.cpp:38] Opened lmdb /home/mohanty/data/final_dataset/lmdb/grayscale-60-40/test_db
I0403 14:56:39.035197 11329 data_layer.cpp:41] output data size: 24,3,224,224
I0403 14:56:39.062898 11329 net.cpp:141] Setting up data
I0403 14:56:39.062997 11329 net.cpp:148] Top shape: 24 3 224 224 (3612672)
I0403 14:56:39.063021 11329 net.cpp:148] Top shape: 24 (24)
I0403 14:56:39.063037 11329 net.cpp:156] Memory required for data: 14450784
I0403 14:56:39.063065 11329 layer_factory.hpp:77] Creating layer label_data_1_split
I0403 14:56:39.063093 11329 net.cpp:91] Creating Layer label_data_1_split
I0403 14:56:39.063112 11329 net.cpp:425] label_data_1_split <- label
I0403 14:56:39.063153 11329 net.cpp:399] label_data_1_split -> label_data_1_split_0
I0403 14:56:39.063184 11329 net.cpp:399] label_data_1_split -> label_data_1_split_1
I0403 14:56:39.063206 11329 net.cpp:399] label_data_1_split -> label_data_1_split_2
I0403 14:56:39.063228 11329 net.cpp:399] label_data_1_split -> label_data_1_split_3
I0403 14:56:39.063247 11329 net.cpp:399] label_data_1_split -> label_data_1_split_4
I0403 14:56:39.063267 11329 net.cpp:399] label_data_1_split -> label_data_1_split_5
I0403 14:56:39.063287 11329 net.cpp:399] label_data_1_split -> label_data_1_split_6
I0403 14:56:39.063309 11329 net.cpp:399] label_data_1_split -> label_data_1_split_7
I0403 14:56:39.063329 11329 net.cpp:399] label_data_1_split -> label_data_1_split_8
I0403 14:56:39.063350 11329 net.cpp:399] label_data_1_split -> label_data_1_split_9
I0403 14:56:39.063470 11329 net.cpp:141] Setting up label_data_1_split
I0403 14:56:39.063495 11329 net.cpp:148] Top shape: 24 (24)
I0403 14:56:39.063513 11329 net.cpp:148] Top shape: 24 (24)
I0403 14:56:39.063529 11329 net.cpp:148] Top shape: 24 (24)
I0403 14:56:39.063545 11329 net.cpp:148] Top shape: 24 (24)
I0403 14:56:39.063561 11329 net.cpp:148] Top shape: 24 (24)
I0403 14:56:39.063576 11329 net.cpp:148] Top shape: 24 (24)
I0403 14:56:39.063593 11329 net.cpp:148] Top shape: 24 (24)
I0403 14:56:39.063609 11329 net.cpp:148] Top shape: 24 (24)
I0403 14:56:39.063624 11329 net.cpp:148] Top shape: 24 (24)
I0403 14:56:39.063639 11329 net.cpp:148] Top shape: 24 (24)
I0403 14:56:39.063686 11329 net.cpp:156] Memory required for data: 14451744
I0403 14:56:39.063702 11329 layer_factory.hpp:77] Creating layer conv1/7x7_s2
I0403 14:56:39.063735 11329 net.cpp:91] Creating Layer conv1/7x7_s2
I0403 14:56:39.063755 11329 net.cpp:425] conv1/7x7_s2 <- data
I0403 14:56:39.063774 11329 net.cpp:399] conv1/7x7_s2 -> conv1/7x7_s2
I0403 14:56:39.206024 11329 net.cpp:141] Setting up conv1/7x7_s2
I0403 14:56:39.206153 11329 net.cpp:148] Top shape: 24 64 112 112 (19267584)
I0403 14:56:39.206176 11329 net.cpp:156] Memory required for data: 91522080
I0403 14:56:39.206207 11329 layer_factory.hpp:77] Creating layer conv1/relu_7x7
I0403 14:56:39.206235 11329 net.cpp:91] Creating Layer conv1/relu_7x7
I0403 14:56:39.206254 11329 net.cpp:425] conv1/relu_7x7 <- conv1/7x7_s2
I0403 14:56:39.206272 11329 net.cpp:386] conv1/relu_7x7 -> conv1/7x7_s2 (in-place)
I0403 14:56:39.206540 11329 net.cpp:141] Setting up conv1/relu_7x7
I0403 14:56:39.206569 11329 net.cpp:148] Top shape: 24 64 112 112 (19267584)
I0403 14:56:39.206588 11329 net.cpp:156] Memory required for data: 168592416
I0403 14:56:39.206604 11329 layer_factory.hpp:77] Creating layer pool1/3x3_s2
I0403 14:56:39.206629 11329 net.cpp:91] Creating Layer pool1/3x3_s2
I0403 14:56:39.206648 11329 net.cpp:425] pool1/3x3_s2 <- conv1/7x7_s2
I0403 14:56:39.206667 11329 net.cpp:399] pool1/3x3_s2 -> pool1/3x3_s2
I0403 14:56:39.206743 11329 net.cpp:141] Setting up pool1/3x3_s2
I0403 14:56:39.206770 11329 net.cpp:148] Top shape: 24 64 56 56 (4816896)
I0403 14:56:39.206786 11329 net.cpp:156] Memory required for data: 187860000
I0403 14:56:39.206802 11329 layer_factory.hpp:77] Creating layer pool1/norm1
I0403 14:56:39.206827 11329 net.cpp:91] Creating Layer pool1/norm1
I0403 14:56:39.206845 11329 net.cpp:425] pool1/norm1 <- pool1/3x3_s2
I0403 14:56:39.206863 11329 net.cpp:399] pool1/norm1 -> pool1/norm1
I0403 14:56:39.207165 11329 net.cpp:141] Setting up pool1/norm1
I0403 14:56:39.207195 11329 net.cpp:148] Top shape: 24 64 56 56 (4816896)
I0403 14:56:39.207211 11329 net.cpp:156] Memory required for data: 207127584
I0403 14:56:39.207226 11329 layer_factory.hpp:77] Creating layer conv2/3x3_reduce
I0403 14:56:39.207250 11329 net.cpp:91] Creating Layer conv2/3x3_reduce
I0403 14:56:39.207267 11329 net.cpp:425] conv2/3x3_reduce <- pool1/norm1
I0403 14:56:39.207285 11329 net.cpp:399] conv2/3x3_reduce -> conv2/3x3_reduce
I0403 14:56:39.208716 11329 net.cpp:141] Setting up conv2/3x3_reduce
I0403 14:56:39.208750 11329 net.cpp:148] Top shape: 24 64 56 56 (4816896)
I0403 14:56:39.208765 11329 net.cpp:156] Memory required for data: 226395168
I0403 14:56:39.208787 11329 layer_factory.hpp:77] Creating layer conv2/relu_3x3_reduce
I0403 14:56:39.208807 11329 net.cpp:91] Creating Layer conv2/relu_3x3_reduce
I0403 14:56:39.208824 11329 net.cpp:425] conv2/relu_3x3_reduce <- conv2/3x3_reduce
I0403 14:56:39.208842 11329 net.cpp:386] conv2/relu_3x3_reduce -> conv2/3x3_reduce (in-place)
I0403 14:56:39.209110 11329 net.cpp:141] Setting up conv2/relu_3x3_reduce
I0403 14:56:39.209142 11329 net.cpp:148] Top shape: 24 64 56 56 (4816896)
I0403 14:56:39.209161 11329 net.cpp:156] Memory required for data: 245662752
I0403 14:56:39.209177 11329 layer_factory.hpp:77] Creating layer conv2/3x3
I0403 14:56:39.209200 11329 net.cpp:91] Creating Layer conv2/3x3
I0403 14:56:39.209218 11329 net.cpp:425] conv2/3x3 <- conv2/3x3_reduce
I0403 14:56:39.209239 11329 net.cpp:399] conv2/3x3 -> conv2/3x3
I0403 14:56:39.211750 11329 net.cpp:141] Setting up conv2/3x3
I0403 14:56:39.211786 11329 net.cpp:148] Top shape: 24 192 56 56 (14450688)
I0403 14:56:39.211807 11329 net.cpp:156] Memory required for data: 303465504
I0403 14:56:39.211829 11329 layer_factory.hpp:77] Creating layer conv2/relu_3x3
I0403 14:56:39.211849 11329 net.cpp:91] Creating Layer conv2/relu_3x3
I0403 14:56:39.211865 11329 net.cpp:425] conv2/relu_3x3 <- conv2/3x3
I0403 14:56:39.211884 11329 net.cpp:386] conv2/relu_3x3 -> conv2/3x3 (in-place)
I0403 14:56:39.212070 11329 net.cpp:141] Setting up conv2/relu_3x3
I0403 14:56:39.212097 11329 net.cpp:148] Top shape: 24 192 56 56 (14450688)
I0403 14:56:39.212152 11329 net.cpp:156] Memory required for data: 361268256
I0403 14:56:39.212169 11329 layer_factory.hpp:77] Creating layer conv2/norm2
I0403 14:56:39.212190 11329 net.cpp:91] Creating Layer conv2/norm2
I0403 14:56:39.212208 11329 net.cpp:425] conv2/norm2 <- conv2/3x3
I0403 14:56:39.212226 11329 net.cpp:399] conv2/norm2 -> conv2/norm2
I0403 14:56:39.212544 11329 net.cpp:141] Setting up conv2/norm2
I0403 14:56:39.212574 11329 net.cpp:148] Top shape: 24 192 56 56 (14450688)
I0403 14:56:39.212590 11329 net.cpp:156] Memory required for data: 419071008
I0403 14:56:39.212606 11329 layer_factory.hpp:77] Creating layer pool2/3x3_s2
I0403 14:56:39.212630 11329 net.cpp:91] Creating Layer pool2/3x3_s2
I0403 14:56:39.212648 11329 net.cpp:425] pool2/3x3_s2 <- conv2/norm2
I0403 14:56:39.212666 11329 net.cpp:399] pool2/3x3_s2 -> pool2/3x3_s2
I0403 14:56:39.212726 11329 net.cpp:141] Setting up pool2/3x3_s2
I0403 14:56:39.212751 11329 net.cpp:148] Top shape: 24 192 28 28 (3612672)
I0403 14:56:39.212767 11329 net.cpp:156] Memory required for data: 433521696
I0403 14:56:39.212781 11329 layer_factory.hpp:77] Creating layer pool2/3x3_s2_pool2/3x3_s2_0_split
I0403 14:56:39.212800 11329 net.cpp:91] Creating Layer pool2/3x3_s2_pool2/3x3_s2_0_split
I0403 14:56:39.212815 11329 net.cpp:425] pool2/3x3_s2_pool2/3x3_s2_0_split <- pool2/3x3_s2
I0403 14:56:39.212836 11329 net.cpp:399] pool2/3x3_s2_pool2/3x3_s2_0_split -> pool2/3x3_s2_pool2/3x3_s2_0_split_0
I0403 14:56:39.212857 11329 net.cpp:399] pool2/3x3_s2_pool2/3x3_s2_0_split -> pool2/3x3_s2_pool2/3x3_s2_0_split_1
I0403 14:56:39.212878 11329 net.cpp:399] pool2/3x3_s2_pool2/3x3_s2_0_split -> pool2/3x3_s2_pool2/3x3_s2_0_split_2
I0403 14:56:39.212898 11329 net.cpp:399] pool2/3x3_s2_pool2/3x3_s2_0_split -> pool2/3x3_s2_pool2/3x3_s2_0_split_3
I0403 14:56:39.212968 11329 net.cpp:141] Setting up pool2/3x3_s2_pool2/3x3_s2_0_split
I0403 14:56:39.212995 11329 net.cpp:148] Top shape: 24 192 28 28 (3612672)
I0403 14:56:39.213012 11329 net.cpp:148] Top shape: 24 192 28 28 (3612672)
I0403 14:56:39.213028 11329 net.cpp:148] Top shape: 24 192 28 28 (3612672)
I0403 14:56:39.213044 11329 net.cpp:148] Top shape: 24 192 28 28 (3612672)
I0403 14:56:39.213057 11329 net.cpp:156] Memory required for data: 491324448
I0403 14:56:39.213073 11329 layer_factory.hpp:77] Creating layer inception_3a/1x1
I0403 14:56:39.213095 11329 net.cpp:91] Creating Layer inception_3a/1x1
I0403 14:56:39.213114 11329 net.cpp:425] inception_3a/1x1 <- pool2/3x3_s2_pool2/3x3_s2_0_split_0
I0403 14:56:39.213148 11329 net.cpp:399] inception_3a/1x1 -> inception_3a/1x1
I0403 14:56:39.214778 11329 net.cpp:141] Setting up inception_3a/1x1
I0403 14:56:39.214810 11329 net.cpp:148] Top shape: 24 64 28 28 (1204224)
I0403 14:56:39.214831 11329 net.cpp:156] Memory required for data: 496141344
I0403 14:56:39.214851 11329 layer_factory.hpp:77] Creating layer inception_3a/relu_1x1
I0403 14:56:39.214870 11329 net.cpp:91] Creating Layer inception_3a/relu_1x1
I0403 14:56:39.214887 11329 net.cpp:425] inception_3a/relu_1x1 <- inception_3a/1x1
I0403 14:56:39.214905 11329 net.cpp:386] inception_3a/relu_1x1 -> inception_3a/1x1 (in-place)
I0403 14:56:39.215090 11329 net.cpp:141] Setting up inception_3a/relu_1x1
I0403 14:56:39.215118 11329 net.cpp:148] Top shape: 24 64 28 28 (1204224)
I0403 14:56:39.215140 11329 net.cpp:156] Memory required for data: 500958240
I0403 14:56:39.215157 11329 layer_factory.hpp:77] Creating layer inception_3a/3x3_reduce
I0403 14:56:39.215181 11329 net.cpp:91] Creating Layer inception_3a/3x3_reduce
I0403 14:56:39.215199 11329 net.cpp:425] inception_3a/3x3_reduce <- pool2/3x3_s2_pool2/3x3_s2_0_split_1
I0403 14:56:39.215219 11329 net.cpp:399] inception_3a/3x3_reduce -> inception_3a/3x3_reduce
I0403 14:56:39.217023 11329 net.cpp:141] Setting up inception_3a/3x3_reduce
I0403 14:56:39.217056 11329 net.cpp:148] Top shape: 24 96 28 28 (1806336)
I0403 14:56:39.217072 11329 net.cpp:156] Memory required for data: 508183584
I0403 14:56:39.217094 11329 layer_factory.hpp:77] Creating layer inception_3a/relu_3x3_reduce
I0403 14:56:39.217139 11329 net.cpp:91] Creating Layer inception_3a/relu_3x3_reduce
I0403 14:56:39.217160 11329 net.cpp:425] inception_3a/relu_3x3_reduce <- inception_3a/3x3_reduce
I0403 14:56:39.217181 11329 net.cpp:386] inception_3a/relu_3x3_reduce -> inception_3a/3x3_reduce (in-place)
I0403 14:56:39.217372 11329 net.cpp:141] Setting up inception_3a/relu_3x3_reduce
I0403 14:56:39.217401 11329 net.cpp:148] Top shape: 24 96 28 28 (1806336)
I0403 14:56:39.217452 11329 net.cpp:156] Memory required for data: 515408928
I0403 14:56:39.217471 11329 layer_factory.hpp:77] Creating layer inception_3a/3x3
I0403 14:56:39.217496 11329 net.cpp:91] Creating Layer inception_3a/3x3
I0403 14:56:39.217515 11329 net.cpp:425] inception_3a/3x3 <- inception_3a/3x3_reduce
I0403 14:56:39.217538 11329 net.cpp:399] inception_3a/3x3 -> inception_3a/3x3
I0403 14:56:39.219290 11329 net.cpp:141] Setting up inception_3a/3x3
I0403 14:56:39.219322 11329 net.cpp:148] Top shape: 24 128 28 28 (2408448)
I0403 14:56:39.219341 11329 net.cpp:156] Memory required for data: 525042720
I0403 14:56:39.219362 11329 layer_factory.hpp:77] Creating layer inception_3a/relu_3x3
I0403 14:56:39.219380 11329 net.cpp:91] Creating Layer inception_3a/relu_3x3
I0403 14:56:39.219398 11329 net.cpp:425] inception_3a/relu_3x3 <- inception_3a/3x3
I0403 14:56:39.219416 11329 net.cpp:386] inception_3a/relu_3x3 -> inception_3a/3x3 (in-place)
I0403 14:56:39.219705 11329 net.cpp:141] Setting up inception_3a/relu_3x3
I0403 14:56:39.219739 11329 net.cpp:148] Top shape: 24 128 28 28 (2408448)
I0403 14:56:39.219754 11329 net.cpp:156] Memory required for data: 534676512
I0403 14:56:39.219769 11329 layer_factory.hpp:77] Creating layer inception_3a/5x5_reduce
I0403 14:56:39.219794 11329 net.cpp:91] Creating Layer inception_3a/5x5_reduce
I0403 14:56:39.219811 11329 net.cpp:425] inception_3a/5x5_reduce <- pool2/3x3_s2_pool2/3x3_s2_0_split_2
I0403 14:56:39.219831 11329 net.cpp:399] inception_3a/5x5_reduce -> inception_3a/5x5_reduce
I0403 14:56:39.220835 11329 net.cpp:141] Setting up inception_3a/5x5_reduce
I0403 14:56:39.220865 11329 net.cpp:148] Top shape: 24 16 28 28 (301056)
I0403 14:56:39.220882 11329 net.cpp:156] Memory required for data: 535880736
I0403 14:56:39.220901 11329 layer_factory.hpp:77] Creating layer inception_3a/relu_5x5_reduce
I0403 14:56:39.220919 11329 net.cpp:91] Creating Layer inception_3a/relu_5x5_reduce
I0403 14:56:39.220935 11329 net.cpp:425] inception_3a/relu_5x5_reduce <- inception_3a/5x5_reduce
I0403 14:56:39.220957 11329 net.cpp:386] inception_3a/relu_5x5_reduce -> inception_3a/5x5_reduce (in-place)
I0403 14:56:39.221271 11329 net.cpp:141] Setting up inception_3a/relu_5x5_reduce
I0403 14:56:39.221300 11329 net.cpp:148] Top shape: 24 16 28 28 (301056)
I0403 14:56:39.221314 11329 net.cpp:156] Memory required for data: 537084960
I0403 14:56:39.221330 11329 layer_factory.hpp:77] Creating layer inception_3a/5x5
I0403 14:56:39.221354 11329 net.cpp:91] Creating Layer inception_3a/5x5
I0403 14:56:39.221372 11329 net.cpp:425] inception_3a/5x5 <- inception_3a/5x5_reduce
I0403 14:56:39.221395 11329 net.cpp:399] inception_3a/5x5 -> inception_3a/5x5
I0403 14:56:39.222463 11329 net.cpp:141] Setting up inception_3a/5x5
I0403 14:56:39.222496 11329 net.cpp:148] Top shape: 24 32 28 28 (602112)
I0403 14:56:39.222513 11329 net.cpp:156] Memory required for data: 539493408
I0403 14:56:39.222533 11329 layer_factory.hpp:77] Creating layer inception_3a/relu_5x5
I0403 14:56:39.222553 11329 net.cpp:91] Creating Layer inception_3a/relu_5x5
I0403 14:56:39.222570 11329 net.cpp:425] inception_3a/relu_5x5 <- inception_3a/5x5
I0403 14:56:39.222589 11329 net.cpp:386] inception_3a/relu_5x5 -> inception_3a/5x5 (in-place)
I0403 14:56:39.222776 11329 net.cpp:141] Setting up inception_3a/relu_5x5
I0403 14:56:39.222803 11329 net.cpp:148] Top shape: 24 32 28 28 (602112)
I0403 14:56:39.222818 11329 net.cpp:156] Memory required for data: 541901856
I0403 14:56:39.222834 11329 layer_factory.hpp:77] Creating layer inception_3a/pool
I0403 14:56:39.222852 11329 net.cpp:91] Creating Layer inception_3a/pool
I0403 14:56:39.222884 11329 net.cpp:425] inception_3a/pool <- pool2/3x3_s2_pool2/3x3_s2_0_split_3
I0403 14:56:39.222908 11329 net.cpp:399] inception_3a/pool -> inception_3a/pool
I0403 14:56:39.222970 11329 net.cpp:141] Setting up inception_3a/pool
I0403 14:56:39.222997 11329 net.cpp:148] Top shape: 24 192 28 28 (3612672)
I0403 14:56:39.223013 11329 net.cpp:156] Memory required for data: 556352544
I0403 14:56:39.223028 11329 layer_factory.hpp:77] Creating layer inception_3a/pool_proj
I0403 14:56:39.223052 11329 net.cpp:91] Creating Layer inception_3a/pool_proj
I0403 14:56:39.223072 11329 net.cpp:425] inception_3a/pool_proj <- inception_3a/pool
I0403 14:56:39.223090 11329 net.cpp:399] inception_3a/pool_proj -> inception_3a/pool_proj
I0403 14:56:39.224107 11329 net.cpp:141] Setting up inception_3a/pool_proj
I0403 14:56:39.224141 11329 net.cpp:148] Top shape: 24 32 28 28 (602112)
I0403 14:56:39.224159 11329 net.cpp:156] Memory required for data: 558760992
I0403 14:56:39.224184 11329 layer_factory.hpp:77] Creating layer inception_3a/relu_pool_proj
I0403 14:56:39.224205 11329 net.cpp:91] Creating Layer inception_3a/relu_pool_proj
I0403 14:56:39.224222 11329 net.cpp:425] inception_3a/relu_pool_proj <- inception_3a/pool_proj
I0403 14:56:39.224243 11329 net.cpp:386] inception_3a/relu_pool_proj -> inception_3a/pool_proj (in-place)
I0403 14:56:39.224531 11329 net.cpp:141] Setting up inception_3a/relu_pool_proj
I0403 14:56:39.224562 11329 net.cpp:148] Top shape: 24 32 28 28 (602112)
I0403 14:56:39.224580 11329 net.cpp:156] Memory required for data: 561169440
I0403 14:56:39.224594 11329 layer_factory.hpp:77] Creating layer inception_3a/output
I0403 14:56:39.224613 11329 net.cpp:91] Creating Layer inception_3a/output
I0403 14:56:39.224630 11329 net.cpp:425] inception_3a/output <- inception_3a/1x1
I0403 14:56:39.224647 11329 net.cpp:425] inception_3a/output <- inception_3a/3x3
I0403 14:56:39.224663 11329 net.cpp:425] inception_3a/output <- inception_3a/5x5
I0403 14:56:39.224679 11329 net.cpp:425] inception_3a/output <- inception_3a/pool_proj
I0403 14:56:39.224696 11329 net.cpp:399] inception_3a/output -> inception_3a/output
I0403 14:56:39.224747 11329 net.cpp:141] Setting up inception_3a/output
I0403 14:56:39.224772 11329 net.cpp:148] Top shape: 24 256 28 28 (4816896)
I0403 14:56:39.224788 11329 net.cpp:156] Memory required for data: 580437024
I0403 14:56:39.224803 11329 layer_factory.hpp:77] Creating layer inception_3a/output_inception_3a/output_0_split
I0403 14:56:39.224823 11329 net.cpp:91] Creating Layer inception_3a/output_inception_3a/output_0_split
I0403 14:56:39.224840 11329 net.cpp:425] inception_3a/output_inception_3a/output_0_split <- inception_3a/output
I0403 14:56:39.224858 11329 net.cpp:399] inception_3a/output_inception_3a/output_0_split -> inception_3a/output_inception_3a/output_0_split_0
I0403 14:56:39.224879 11329 net.cpp:399] inception_3a/output_inception_3a/output_0_split -> inception_3a/output_inception_3a/output_0_split_1
I0403 14:56:39.224905 11329 net.cpp:399] inception_3a/output_inception_3a/output_0_split -> inception_3a/output_inception_3a/output_0_split_2
I0403 14:56:39.224927 11329 net.cpp:399] inception_3a/output_inception_3a/output_0_split -> inception_3a/output_inception_3a/output_0_split_3
I0403 14:56:39.225005 11329 net.cpp:141] Setting up inception_3a/output_inception_3a/output_0_split
I0403 14:56:39.225030 11329 net.cpp:148] Top shape: 24 256 28 28 (4816896)
I0403 14:56:39.225047 11329 net.cpp:148] Top shape: 24 256 28 28 (4816896)
I0403 14:56:39.225064 11329 net.cpp:148] Top shape: 24 256 28 28 (4816896)
I0403 14:56:39.225080 11329 net.cpp:148] Top shape: 24 256 28 28 (4816896)
I0403 14:56:39.225095 11329 net.cpp:156] Memory required for data: 657507360
I0403 14:56:39.225109 11329 layer_factory.hpp:77] Creating layer inception_3b/1x1
I0403 14:56:39.225141 11329 net.cpp:91] Creating Layer inception_3b/1x1
I0403 14:56:39.225160 11329 net.cpp:425] inception_3b/1x1 <- inception_3a/output_inception_3a/output_0_split_0
I0403 14:56:39.225179 11329 net.cpp:399] inception_3b/1x1 -> inception_3b/1x1
I0403 14:56:39.226369 11329 net.cpp:141] Setting up inception_3b/1x1
I0403 14:56:39.226411 11329 net.cpp:148] Top shape: 24 128 28 28 (2408448)
I0403 14:56:39.226428 11329 net.cpp:156] Memory required for data: 667141152
I0403 14:56:39.226447 11329 layer_factory.hpp:77] Creating layer inception_3b/relu_1x1
I0403 14:56:39.226470 11329 net.cpp:91] Creating Layer inception_3b/relu_1x1
I0403 14:56:39.226488 11329 net.cpp:425] inception_3b/relu_1x1 <- inception_3b/1x1
I0403 14:56:39.226506 11329 net.cpp:386] inception_3b/relu_1x1 -> inception_3b/1x1 (in-place)
I0403 14:56:39.226691 11329 net.cpp:141] Setting up inception_3b/relu_1x1
I0403 14:56:39.226718 11329 net.cpp:148] Top shape: 24 128 28 28 (2408448)
I0403 14:56:39.226734 11329 net.cpp:156] Memory required for data: 676774944
I0403 14:56:39.226749 11329 layer_factory.hpp:77] Creating layer inception_3b/3x3_reduce
I0403 14:56:39.226773 11329 net.cpp:91] Creating Layer inception_3b/3x3_reduce
I0403 14:56:39.226793 11329 net.cpp:425] inception_3b/3x3_reduce <- inception_3a/output_inception_3a/output_0_split_1
I0403 14:56:39.226814 11329 net.cpp:399] inception_3b/3x3_reduce -> inception_3b/3x3_reduce
I0403 14:56:39.228000 11329 net.cpp:141] Setting up inception_3b/3x3_reduce
I0403 14:56:39.228030 11329 net.cpp:148] Top shape: 24 128 28 28 (2408448)
I0403 14:56:39.228049 11329 net.cpp:156] Memory required for data: 686408736
I0403 14:56:39.228070 11329 layer_factory.hpp:77] Creating layer inception_3b/relu_3x3_reduce
I0403 14:56:39.228091 11329 net.cpp:91] Creating Layer inception_3b/relu_3x3_reduce
I0403 14:56:39.228108 11329 net.cpp:425] inception_3b/relu_3x3_reduce <- inception_3b/3x3_reduce
I0403 14:56:39.228133 11329 net.cpp:386] inception_3b/relu_3x3_reduce -> inception_3b/3x3_reduce (in-place)
I0403 14:56:39.228319 11329 net.cpp:141] Setting up inception_3b/relu_3x3_reduce
I0403 14:56:39.228348 11329 net.cpp:148] Top shape: 24 128 28 28 (2408448)
I0403 14:56:39.228364 11329 net.cpp:156] Memory required for data: 696042528
I0403 14:56:39.228379 11329 layer_factory.hpp:77] Creating layer inception_3b/3x3
I0403 14:56:39.228404 11329 net.cpp:91] Creating Layer inception_3b/3x3
I0403 14:56:39.228425 11329 net.cpp:425] inception_3b/3x3 <- inception_3b/3x3_reduce
I0403 14:56:39.228446 11329 net.cpp:399] inception_3b/3x3 -> inception_3b/3x3
I0403 14:56:39.231442 11329 net.cpp:141] Setting up inception_3b/3x3
I0403 14:56:39.231474 11329 net.cpp:148] Top shape: 24 192 28 28 (3612672)
I0403 14:56:39.231492 11329 net.cpp:156] Memory required for data: 710493216
I0403 14:56:39.231510 11329 layer_factory.hpp:77] Creating layer inception_3b/relu_3x3
I0403 14:56:39.231529 11329 net.cpp:91] Creating Layer inception_3b/relu_3x3
I0403 14:56:39.231545 11329 net.cpp:425] inception_3b/relu_3x3 <- inception_3b/3x3
I0403 14:56:39.231562 11329 net.cpp:386] inception_3b/relu_3x3 -> inception_3b/3x3 (in-place)
I0403 14:56:39.231842 11329 net.cpp:141] Setting up inception_3b/relu_3x3
I0403 14:56:39.231871 11329 net.cpp:148] Top shape: 24 192 28 28 (3612672)
I0403 14:56:39.231889 11329 net.cpp:156] Memory required for data: 724943904
I0403 14:56:39.231904 11329 layer_factory.hpp:77] Creating layer inception_3b/5x5_reduce
I0403 14:56:39.231927 11329 net.cpp:91] Creating Layer inception_3b/5x5_reduce
I0403 14:56:39.231947 11329 net.cpp:425] inception_3b/5x5_reduce <- inception_3a/output_inception_3a/output_0_split_2
I0403 14:56:39.231966 11329 net.cpp:399] inception_3b/5x5_reduce -> inception_3b/5x5_reduce
I0403 14:56:39.233007 11329 net.cpp:141] Setting up inception_3b/5x5_reduce
I0403 14:56:39.233041 11329 net.cpp:148] Top shape: 24 32 28 28 (602112)
I0403 14:56:39.233057 11329 net.cpp:156] Memory required for data: 727352352
I0403 14:56:39.233075 11329 layer_factory.hpp:77] Creating layer inception_3b/relu_5x5_reduce
I0403 14:56:39.233093 11329 net.cpp:91] Creating Layer inception_3b/relu_5x5_reduce
I0403 14:56:39.233110 11329 net.cpp:425] inception_3b/relu_5x5_reduce <- inception_3b/5x5_reduce
I0403 14:56:39.233134 11329 net.cpp:386] inception_3b/relu_5x5_reduce -> inception_3b/5x5_reduce (in-place)
I0403 14:56:39.233333 11329 net.cpp:141] Setting up inception_3b/relu_5x5_reduce
I0403 14:56:39.233361 11329 net.cpp:148] Top shape: 24 32 28 28 (602112)
I0403 14:56:39.233376 11329 net.cpp:156] Memory required for data: 729760800
I0403 14:56:39.233391 11329 layer_factory.hpp:77] Creating layer inception_3b/5x5
I0403 14:56:39.233413 11329 net.cpp:91] Creating Layer inception_3b/5x5
I0403 14:56:39.233433 11329 net.cpp:425] inception_3b/5x5 <- inception_3b/5x5_reduce
I0403 14:56:39.233453 11329 net.cpp:399] inception_3b/5x5 -> inception_3b/5x5
I0403 14:56:39.235466 11329 net.cpp:141] Setting up inception_3b/5x5
I0403 14:56:39.235508 11329 net.cpp:148] Top shape: 24 96 28 28 (1806336)
I0403 14:56:39.235523 11329 net.cpp:156] Memory required for data: 736986144
I0403 14:56:39.235543 11329 layer_factory.hpp:77] Creating layer inception_3b/relu_5x5
I0403 14:56:39.235563 11329 net.cpp:91] Creating Layer inception_3b/relu_5x5
I0403 14:56:39.235580 11329 net.cpp:425] inception_3b/relu_5x5 <- inception_3b/5x5
I0403 14:56:39.235599 11329 net.cpp:386] inception_3b/relu_5x5 -> inception_3b/5x5 (in-place)
I0403 14:56:39.235793 11329 net.cpp:141] Setting up inception_3b/relu_5x5
I0403 14:56:39.235819 11329 net.cpp:148] Top shape: 24 96 28 28 (1806336)
I0403 14:56:39.235836 11329 net.cpp:156] Memory required for data: 744211488
I0403 14:56:39.235849 11329 layer_factory.hpp:77] Creating layer inception_3b/pool
I0403 14:56:39.235868 11329 net.cpp:91] Creating Layer inception_3b/pool
I0403 14:56:39.235884 11329 net.cpp:425] inception_3b/pool <- inception_3a/output_inception_3a/output_0_split_3
I0403 14:56:39.235903 11329 net.cpp:399] inception_3b/pool -> inception_3b/pool
I0403 14:56:39.235960 11329 net.cpp:141] Setting up inception_3b/pool
I0403 14:56:39.235985 11329 net.cpp:148] Top shape: 24 256 28 28 (4816896)
I0403 14:56:39.236001 11329 net.cpp:156] Memory required for data: 763479072
I0403 14:56:39.236014 11329 layer_factory.hpp:77] Creating layer inception_3b/pool_proj
I0403 14:56:39.236037 11329 net.cpp:91] Creating Layer inception_3b/pool_proj
I0403 14:56:39.236057 11329 net.cpp:425] inception_3b/pool_proj <- inception_3b/pool
I0403 14:56:39.236078 11329 net.cpp:399] inception_3b/pool_proj -> inception_3b/pool_proj
I0403 14:56:39.237190 11329 net.cpp:141] Setting up inception_3b/pool_proj
I0403 14:56:39.237218 11329 net.cpp:148] Top shape: 24 64 28 28 (1204224)
I0403 14:56:39.237234 11329 net.cpp:156] Memory required for data: 768295968
I0403 14:56:39.237253 11329 layer_factory.hpp:77] Creating layer inception_3b/relu_pool_proj
I0403 14:56:39.237274 11329 net.cpp:91] Creating Layer inception_3b/relu_pool_proj
I0403 14:56:39.237292 11329 net.cpp:425] inception_3b/relu_pool_proj <- inception_3b/pool_proj
I0403 14:56:39.237309 11329 net.cpp:386] inception_3b/relu_pool_proj -> inception_3b/pool_proj (in-place)
I0403 14:56:39.237722 11329 net.cpp:141] Setting up inception_3b/relu_pool_proj
I0403 14:56:39.237749 11329 net.cpp:148] Top shape: 24 64 28 28 (1204224)
I0403 14:56:39.237764 11329 net.cpp:156] Memory required for data: 773112864
I0403 14:56:39.237779 11329 layer_factory.hpp:77] Creating layer inception_3b/output
I0403 14:56:39.237797 11329 net.cpp:91] Creating Layer inception_3b/output
I0403 14:56:39.237813 11329 net.cpp:425] inception_3b/output <- inception_3b/1x1
I0403 14:56:39.237830 11329 net.cpp:425] inception_3b/output <- inception_3b/3x3
I0403 14:56:39.237845 11329 net.cpp:425] inception_3b/output <- inception_3b/5x5
I0403 14:56:39.237861 11329 net.cpp:425] inception_3b/output <- inception_3b/pool_proj
I0403 14:56:39.237880 11329 net.cpp:399] inception_3b/output -> inception_3b/output
I0403 14:56:39.237922 11329 net.cpp:141] Setting up inception_3b/output
I0403 14:56:39.237948 11329 net.cpp:148] Top shape: 24 480 28 28 (9031680)
I0403 14:56:39.237964 11329 net.cpp:156] Memory required for data: 809239584
I0403 14:56:39.237978 11329 layer_factory.hpp:77] Creating layer pool3/3x3_s2
I0403 14:56:39.237995 11329 net.cpp:91] Creating Layer pool3/3x3_s2
I0403 14:56:39.238013 11329 net.cpp:425] pool3/3x3_s2 <- inception_3b/output
I0403 14:56:39.238046 11329 net.cpp:399] pool3/3x3_s2 -> pool3/3x3_s2
I0403 14:56:39.238106 11329 net.cpp:141] Setting up pool3/3x3_s2
I0403 14:56:39.238137 11329 net.cpp:148] Top shape: 24 480 14 14 (2257920)
I0403 14:56:39.238152 11329 net.cpp:156] Memory required for data: 818271264
I0403 14:56:39.238167 11329 layer_factory.hpp:77] Creating layer pool3/3x3_s2_pool3/3x3_s2_0_split
I0403 14:56:39.238183 11329 net.cpp:91] Creating Layer pool3/3x3_s2_pool3/3x3_s2_0_split
I0403 14:56:39.238198 11329 net.cpp:425] pool3/3x3_s2_pool3/3x3_s2_0_split <- pool3/3x3_s2
I0403 14:56:39.238217 11329 net.cpp:399] pool3/3x3_s2_pool3/3x3_s2_0_split -> pool3/3x3_s2_pool3/3x3_s2_0_split_0
I0403 14:56:39.238240 11329 net.cpp:399] pool3/3x3_s2_pool3/3x3_s2_0_split -> pool3/3x3_s2_pool3/3x3_s2_0_split_1
I0403 14:56:39.238258 11329 net.cpp:399] pool3/3x3_s2_pool3/3x3_s2_0_split -> pool3/3x3_s2_pool3/3x3_s2_0_split_2
I0403 14:56:39.238278 11329 net.cpp:399] pool3/3x3_s2_pool3/3x3_s2_0_split -> pool3/3x3_s2_pool3/3x3_s2_0_split_3
I0403 14:56:39.238358 11329 net.cpp:141] Setting up pool3/3x3_s2_pool3/3x3_s2_0_split
I0403 14:56:39.238380 11329 net.cpp:148] Top shape: 24 480 14 14 (2257920)
I0403 14:56:39.238397 11329 net.cpp:148] Top shape: 24 480 14 14 (2257920)
I0403 14:56:39.238412 11329 net.cpp:148] Top shape: 24 480 14 14 (2257920)
I0403 14:56:39.238428 11329 net.cpp:148] Top shape: 24 480 14 14 (2257920)
I0403 14:56:39.238441 11329 net.cpp:156] Memory required for data: 854397984
I0403 14:56:39.238456 11329 layer_factory.hpp:77] Creating layer inception_4a/1x1
I0403 14:56:39.238478 11329 net.cpp:91] Creating Layer inception_4a/1x1
I0403 14:56:39.238495 11329 net.cpp:425] inception_4a/1x1 <- pool3/3x3_s2_pool3/3x3_s2_0_split_0
I0403 14:56:39.238517 11329 net.cpp:399] inception_4a/1x1 -> inception_4a/1x1
I0403 14:56:39.240108 11329 net.cpp:141] Setting up inception_4a/1x1
I0403 14:56:39.240144 11329 net.cpp:148] Top shape: 24 192 14 14 (903168)
I0403 14:56:39.240161 11329 net.cpp:156] Memory required for data: 858010656
I0403 14:56:39.240180 11329 layer_factory.hpp:77] Creating layer inception_4a/relu_1x1
I0403 14:56:39.240213 11329 net.cpp:91] Creating Layer inception_4a/relu_1x1
I0403 14:56:39.240231 11329 net.cpp:425] inception_4a/relu_1x1 <- inception_4a/1x1
I0403 14:56:39.240249 11329 net.cpp:386] inception_4a/relu_1x1 -> inception_4a/1x1 (in-place)
I0403 14:56:39.240430 11329 net.cpp:141] Setting up inception_4a/relu_1x1
I0403 14:56:39.240458 11329 net.cpp:148] Top shape: 24 192 14 14 (903168)
I0403 14:56:39.240473 11329 net.cpp:156] Memory required for data: 861623328
I0403 14:56:39.240499 11329 layer_factory.hpp:77] Creating layer inception_4a/3x3_reduce
I0403 14:56:39.240525 11329 net.cpp:91] Creating Layer inception_4a/3x3_reduce
I0403 14:56:39.240542 11329 net.cpp:425] inception_4a/3x3_reduce <- pool3/3x3_s2_pool3/3x3_s2_0_split_1
I0403 14:56:39.240561 11329 net.cpp:399] inception_4a/3x3_reduce -> inception_4a/3x3_reduce
I0403 14:56:39.241852 11329 net.cpp:141] Setting up inception_4a/3x3_reduce
I0403 14:56:39.241881 11329 net.cpp:148] Top shape: 24 96 14 14 (451584)
I0403 14:56:39.241896 11329 net.cpp:156] Memory required for data: 863429664
I0403 14:56:39.241925 11329 layer_factory.hpp:77] Creating layer inception_4a/relu_3x3_reduce
I0403 14:56:39.241947 11329 net.cpp:91] Creating Layer inception_4a/relu_3x3_reduce
I0403 14:56:39.241964 11329 net.cpp:425] inception_4a/relu_3x3_reduce <- inception_4a/3x3_reduce
I0403 14:56:39.241986 11329 net.cpp:386] inception_4a/relu_3x3_reduce -> inception_4a/3x3_reduce (in-place)
I0403 14:56:39.242180 11329 net.cpp:141] Setting up inception_4a/relu_3x3_reduce
I0403 14:56:39.242208 11329 net.cpp:148] Top shape: 24 96 14 14 (451584)
I0403 14:56:39.242223 11329 net.cpp:156] Memory required for data: 865236000
I0403 14:56:39.242236 11329 layer_factory.hpp:77] Creating layer inception_4a/3x3
I0403 14:56:39.242259 11329 net.cpp:91] Creating Layer inception_4a/3x3
I0403 14:56:39.242277 11329 net.cpp:425] inception_4a/3x3 <- inception_4a/3x3_reduce
I0403 14:56:39.242300 11329 net.cpp:399] inception_4a/3x3 -> inception_4a/3x3
I0403 14:56:39.245085 11329 net.cpp:141] Setting up inception_4a/3x3
I0403 14:56:39.245115 11329 net.cpp:148] Top shape: 24 208 14 14 (978432)
I0403 14:56:39.245139 11329 net.cpp:156] Memory required for data: 869149728
I0403 14:56:39.245160 11329 layer_factory.hpp:77] Creating layer inception_4a/relu_3x3
I0403 14:56:39.245182 11329 net.cpp:91] Creating Layer inception_4a/relu_3x3
I0403 14:56:39.245198 11329 net.cpp:425] inception_4a/relu_3x3 <- inception_4a/3x3
I0403 14:56:39.245215 11329 net.cpp:386] inception_4a/relu_3x3 -> inception_4a/3x3 (in-place)
I0403 14:56:39.245497 11329 net.cpp:141] Setting up inception_4a/relu_3x3
I0403 14:56:39.245524 11329 net.cpp:148] Top shape: 24 208 14 14 (978432)
I0403 14:56:39.245540 11329 net.cpp:156] Memory required for data: 873063456
I0403 14:56:39.245555 11329 layer_factory.hpp:77] Creating layer inception_4a/5x5_reduce
I0403 14:56:39.245579 11329 net.cpp:91] Creating Layer inception_4a/5x5_reduce
I0403 14:56:39.245596 11329 net.cpp:425] inception_4a/5x5_reduce <- pool3/3x3_s2_pool3/3x3_s2_0_split_2
I0403 14:56:39.245618 11329 net.cpp:399] inception_4a/5x5_reduce -> inception_4a/5x5_reduce
I0403 14:56:39.246645 11329 net.cpp:141] Setting up inception_4a/5x5_reduce
I0403 14:56:39.246676 11329 net.cpp:148] Top shape: 24 16 14 14 (75264)
I0403 14:56:39.246695 11329 net.cpp:156] Memory required for data: 873364512
I0403 14:56:39.246713 11329 layer_factory.hpp:77] Creating layer inception_4a/relu_5x5_reduce
I0403 14:56:39.246731 11329 net.cpp:91] Creating Layer inception_4a/relu_5x5_reduce
I0403 14:56:39.246748 11329 net.cpp:425] inception_4a/relu_5x5_reduce <- inception_4a/5x5_reduce
I0403 14:56:39.246765 11329 net.cpp:386] inception_4a/relu_5x5_reduce -> inception_4a/5x5_reduce (in-place)
I0403 14:56:39.246948 11329 net.cpp:141] Setting up inception_4a/relu_5x5_reduce
I0403 14:56:39.246973 11329 net.cpp:148] Top shape: 24 16 14 14 (75264)
I0403 14:56:39.246989 11329 net.cpp:156] Memory required for data: 873665568
I0403 14:56:39.247004 11329 layer_factory.hpp:77] Creating layer inception_4a/5x5
I0403 14:56:39.247026 11329 net.cpp:91] Creating Layer inception_4a/5x5
I0403 14:56:39.247045 11329 net.cpp:425] inception_4a/5x5 <- inception_4a/5x5_reduce
I0403 14:56:39.247066 11329 net.cpp:399] inception_4a/5x5 -> inception_4a/5x5
I0403 14:56:39.248183 11329 net.cpp:141] Setting up inception_4a/5x5
I0403 14:56:39.248213 11329 net.cpp:148] Top shape: 24 48 14 14 (225792)
I0403 14:56:39.248229 11329 net.cpp:156] Memory required for data: 874568736
I0403 14:56:39.248247 11329 layer_factory.hpp:77] Creating layer inception_4a/relu_5x5
I0403 14:56:39.248266 11329 net.cpp:91] Creating Layer inception_4a/relu_5x5
I0403 14:56:39.248282 11329 net.cpp:425] inception_4a/relu_5x5 <- inception_4a/5x5
I0403 14:56:39.248302 11329 net.cpp:386] inception_4a/relu_5x5 -> inception_4a/5x5 (in-place)
I0403 14:56:39.248499 11329 net.cpp:141] Setting up inception_4a/relu_5x5
I0403 14:56:39.248525 11329 net.cpp:148] Top shape: 24 48 14 14 (225792)
I0403 14:56:39.248540 11329 net.cpp:156] Memory required for data: 875471904
I0403 14:56:39.248555 11329 layer_factory.hpp:77] Creating layer inception_4a/pool
I0403 14:56:39.248575 11329 net.cpp:91] Creating Layer inception_4a/pool
I0403 14:56:39.248592 11329 net.cpp:425] inception_4a/pool <- pool3/3x3_s2_pool3/3x3_s2_0_split_3
I0403 14:56:39.248610 11329 net.cpp:399] inception_4a/pool -> inception_4a/pool
I0403 14:56:39.248674 11329 net.cpp:141] Setting up inception_4a/pool
I0403 14:56:39.248700 11329 net.cpp:148] Top shape: 24 480 14 14 (2257920)
I0403 14:56:39.248715 11329 net.cpp:156] Memory required for data: 884503584
I0403 14:56:39.248730 11329 layer_factory.hpp:77] Creating layer inception_4a/pool_proj
I0403 14:56:39.248752 11329 net.cpp:91] Creating Layer inception_4a/pool_proj
I0403 14:56:39.248771 11329 net.cpp:425] inception_4a/pool_proj <- inception_4a/pool
I0403 14:56:39.248791 11329 net.cpp:399] inception_4a/pool_proj -> inception_4a/pool_proj
I0403 14:56:39.249971 11329 net.cpp:141] Setting up inception_4a/pool_proj
I0403 14:56:39.250001 11329 net.cpp:148] Top shape: 24 64 14 14 (301056)
I0403 14:56:39.250033 11329 net.cpp:156] Memory required for data: 885707808
I0403 14:56:39.250053 11329 layer_factory.hpp:77] Creating layer inception_4a/relu_pool_proj
I0403 14:56:39.250072 11329 net.cpp:91] Creating Layer inception_4a/relu_pool_proj
I0403 14:56:39.250089 11329 net.cpp:425] inception_4a/relu_pool_proj <- inception_4a/pool_proj
I0403 14:56:39.250110 11329 net.cpp:386] inception_4a/relu_pool_proj -> inception_4a/pool_proj (in-place)
I0403 14:56:39.250404 11329 net.cpp:141] Setting up inception_4a/relu_pool_proj
I0403 14:56:39.250432 11329 net.cpp:148] Top shape: 24 64 14 14 (301056)
I0403 14:56:39.250447 11329 net.cpp:156] Memory required for data: 886912032
I0403 14:56:39.250463 11329 layer_factory.hpp:77] Creating layer inception_4a/output
I0403 14:56:39.250480 11329 net.cpp:91] Creating Layer inception_4a/output
I0403 14:56:39.250496 11329 net.cpp:425] inception_4a/output <- inception_4a/1x1
I0403 14:56:39.250514 11329 net.cpp:425] inception_4a/output <- inception_4a/3x3
I0403 14:56:39.250530 11329 net.cpp:425] inception_4a/output <- inception_4a/5x5
I0403 14:56:39.250546 11329 net.cpp:425] inception_4a/output <- inception_4a/pool_proj
I0403 14:56:39.250566 11329 net.cpp:399] inception_4a/output -> inception_4a/output
I0403 14:56:39.250610 11329 net.cpp:141] Setting up inception_4a/output
I0403 14:56:39.250638 11329 net.cpp:148] Top shape: 24 512 14 14 (2408448)
I0403 14:56:39.250653 11329 net.cpp:156] Memory required for data: 896545824
I0403 14:56:39.250669 11329 layer_factory.hpp:77] Creating layer inception_4a/output_inception_4a/output_0_split
I0403 14:56:39.250685 11329 net.cpp:91] Creating Layer inception_4a/output_inception_4a/output_0_split
I0403 14:56:39.250701 11329 net.cpp:425] inception_4a/output_inception_4a/output_0_split <- inception_4a/output
I0403 14:56:39.250721 11329 net.cpp:399] inception_4a/output_inception_4a/output_0_split -> inception_4a/output_inception_4a/output_0_split_0
I0403 14:56:39.250743 11329 net.cpp:399] inception_4a/output_inception_4a/output_0_split -> inception_4a/output_inception_4a/output_0_split_1
I0403 14:56:39.250764 11329 net.cpp:399] inception_4a/output_inception_4a/output_0_split -> inception_4a/output_inception_4a/output_0_split_2
I0403 14:56:39.250785 11329 net.cpp:399] inception_4a/output_inception_4a/output_0_split -> inception_4a/output_inception_4a/output_0_split_3
I0403 14:56:39.250805 11329 net.cpp:399] inception_4a/output_inception_4a/output_0_split -> inception_4a/output_inception_4a/output_0_split_4
I0403 14:56:39.250898 11329 net.cpp:141] Setting up inception_4a/output_inception_4a/output_0_split
I0403 14:56:39.250924 11329 net.cpp:148] Top shape: 24 512 14 14 (2408448)
I0403 14:56:39.250942 11329 net.cpp:148] Top shape: 24 512 14 14 (2408448)
I0403 14:56:39.250957 11329 net.cpp:148] Top shape: 24 512 14 14 (2408448)
I0403 14:56:39.250973 11329 net.cpp:148] Top shape: 24 512 14 14 (2408448)
I0403 14:56:39.250988 11329 net.cpp:148] Top shape: 24 512 14 14 (2408448)
I0403 14:56:39.251001 11329 net.cpp:156] Memory required for data: 944714784
I0403 14:56:39.251015 11329 layer_factory.hpp:77] Creating layer loss1/ave_pool
I0403 14:56:39.251034 11329 net.cpp:91] Creating Layer loss1/ave_pool
I0403 14:56:39.251049 11329 net.cpp:425] loss1/ave_pool <- inception_4a/output_inception_4a/output_0_split_0
I0403 14:56:39.251067 11329 net.cpp:399] loss1/ave_pool -> loss1/ave_pool
I0403 14:56:39.251301 11329 net.cpp:141] Setting up loss1/ave_pool
I0403 14:56:39.251329 11329 net.cpp:148] Top shape: 24 512 4 4 (196608)
I0403 14:56:39.251345 11329 net.cpp:156] Memory required for data: 945501216
I0403 14:56:39.251361 11329 layer_factory.hpp:77] Creating layer loss1/conv
I0403 14:56:39.251384 11329 net.cpp:91] Creating Layer loss1/conv
I0403 14:56:39.251402 11329 net.cpp:425] loss1/conv <- loss1/ave_pool
I0403 14:56:39.251425 11329 net.cpp:399] loss1/conv -> loss1/conv
I0403 14:56:39.252921 11329 net.cpp:141] Setting up loss1/conv
I0403 14:56:39.252951 11329 net.cpp:148] Top shape: 24 128 4 4 (49152)
I0403 14:56:39.252985 11329 net.cpp:156] Memory required for data: 945697824
I0403 14:56:39.253005 11329 layer_factory.hpp:77] Creating layer loss1/relu_conv
I0403 14:56:39.253024 11329 net.cpp:91] Creating Layer loss1/relu_conv
I0403 14:56:39.253041 11329 net.cpp:425] loss1/relu_conv <- loss1/conv
I0403 14:56:39.253058 11329 net.cpp:386] loss1/relu_conv -> loss1/conv (in-place)
I0403 14:56:39.253355 11329 net.cpp:141] Setting up loss1/relu_conv
I0403 14:56:39.253382 11329 net.cpp:148] Top shape: 24 128 4 4 (49152)
I0403 14:56:39.253401 11329 net.cpp:156] Memory required for data: 945894432
I0403 14:56:39.253417 11329 layer_factory.hpp:77] Creating layer loss1/fc
I0403 14:56:39.253439 11329 net.cpp:91] Creating Layer loss1/fc
I0403 14:56:39.253459 11329 net.cpp:425] loss1/fc <- loss1/conv
I0403 14:56:39.253480 11329 net.cpp:399] loss1/fc -> loss1/fc
I0403 14:56:39.271574 11329 net.cpp:141] Setting up loss1/fc
I0403 14:56:39.271644 11329 net.cpp:148] Top shape: 24 1024 (24576)
I0403 14:56:39.271659 11329 net.cpp:156] Memory required for data: 945992736
I0403 14:56:39.271679 11329 layer_factory.hpp:77] Creating layer loss1/relu_fc
I0403 14:56:39.271702 11329 net.cpp:91] Creating Layer loss1/relu_fc
I0403 14:56:39.271719 11329 net.cpp:425] loss1/relu_fc <- loss1/fc
I0403 14:56:39.271739 11329 net.cpp:386] loss1/relu_fc -> loss1/fc (in-place)
I0403 14:56:39.271944 11329 net.cpp:141] Setting up loss1/relu_fc
I0403 14:56:39.271970 11329 net.cpp:148] Top shape: 24 1024 (24576)
I0403 14:56:39.271983 11329 net.cpp:156] Memory required for data: 946091040
I0403 14:56:39.271997 11329 layer_factory.hpp:77] Creating layer loss1/drop_fc
I0403 14:56:39.272027 11329 net.cpp:91] Creating Layer loss1/drop_fc
I0403 14:56:39.272047 11329 net.cpp:425] loss1/drop_fc <- loss1/fc
I0403 14:56:39.272065 11329 net.cpp:386] loss1/drop_fc -> loss1/fc (in-place)
I0403 14:56:39.272116 11329 net.cpp:141] Setting up loss1/drop_fc
I0403 14:56:39.272155 11329 net.cpp:148] Top shape: 24 1024 (24576)
I0403 14:56:39.272183 11329 net.cpp:156] Memory required for data: 946189344
I0403 14:56:39.272198 11329 layer_factory.hpp:77] Creating layer loss1/classifier_plantvillage
I0403 14:56:39.272217 11329 net.cpp:91] Creating Layer loss1/classifier_plantvillage
I0403 14:56:39.272233 11329 net.cpp:425] loss1/classifier_plantvillage <- loss1/fc
I0403 14:56:39.272254 11329 net.cpp:399] loss1/classifier_plantvillage -> loss1/classifier_plantvillage
I0403 14:56:39.273212 11329 net.cpp:141] Setting up loss1/classifier_plantvillage
I0403 14:56:39.273244 11329 net.cpp:148] Top shape: 24 38 (912)
I0403 14:56:39.273262 11329 net.cpp:156] Memory required for data: 946192992
I0403 14:56:39.273279 11329 layer_factory.hpp:77] Creating layer loss1/classifier_plantvillage_loss1/classifier_plantvillage_0_split
I0403 14:56:39.273298 11329 net.cpp:91] Creating Layer loss1/classifier_plantvillage_loss1/classifier_plantvillage_0_split
I0403 14:56:39.273314 11329 net.cpp:425] loss1/classifier_plantvillage_loss1/classifier_plantvillage_0_split <- loss1/classifier_plantvillage
I0403 14:56:39.273332 11329 net.cpp:399] loss1/classifier_plantvillage_loss1/classifier_plantvillage_0_split -> loss1/classifier_plantvillage_loss1/classifier_plantvillage_0_split_0
I0403 14:56:39.273352 11329 net.cpp:399] loss1/classifier_plantvillage_loss1/classifier_plantvillage_0_split -> loss1/classifier_plantvillage_loss1/classifier_plantvillage_0_split_1
I0403 14:56:39.273373 11329 net.cpp:399] loss1/classifier_plantvillage_loss1/classifier_plantvillage_0_split -> loss1/classifier_plantvillage_loss1/classifier_plantvillage_0_split_2
I0403 14:56:39.273452 11329 net.cpp:141] Setting up loss1/classifier_plantvillage_loss1/classifier_plantvillage_0_split
I0403 14:56:39.273475 11329 net.cpp:148] Top shape: 24 38 (912)
I0403 14:56:39.273491 11329 net.cpp:148] Top shape: 24 38 (912)
I0403 14:56:39.273507 11329 net.cpp:148] Top shape: 24 38 (912)
I0403 14:56:39.273521 11329 net.cpp:156] Memory required for data: 946203936
I0403 14:56:39.273535 11329 layer_factory.hpp:77] Creating layer inception_4b/1x1
I0403 14:56:39.273556 11329 net.cpp:91] Creating Layer inception_4b/1x1
I0403 14:56:39.273597 11329 net.cpp:425] inception_4b/1x1 <- inception_4a/output_inception_4a/output_0_split_1
I0403 14:56:39.273619 11329 net.cpp:399] inception_4b/1x1 -> inception_4b/1x1
I0403 14:56:39.275307 11329 net.cpp:141] Setting up inception_4b/1x1
I0403 14:56:39.275339 11329 net.cpp:148] Top shape: 24 160 14 14 (752640)
I0403 14:56:39.275357 11329 net.cpp:156] Memory required for data: 949214496
I0403 14:56:39.275377 11329 layer_factory.hpp:77] Creating layer inception_4b/relu_1x1
I0403 14:56:39.275403 11329 net.cpp:91] Creating Layer inception_4b/relu_1x1
I0403 14:56:39.275418 11329 net.cpp:425] inception_4b/relu_1x1 <- inception_4b/1x1
I0403 14:56:39.275436 11329 net.cpp:386] inception_4b/relu_1x1 -> inception_4b/1x1 (in-place)
I0403 14:56:39.275627 11329 net.cpp:141] Setting up inception_4b/relu_1x1
I0403 14:56:39.275655 11329 net.cpp:148] Top shape: 24 160 14 14 (752640)
I0403 14:56:39.275671 11329 net.cpp:156] Memory required for data: 952225056
I0403 14:56:39.275686 11329 layer_factory.hpp:77] Creating layer inception_4b/3x3_reduce
I0403 14:56:39.275707 11329 net.cpp:91] Creating Layer inception_4b/3x3_reduce
I0403 14:56:39.275725 11329 net.cpp:425] inception_4b/3x3_reduce <- inception_4a/output_inception_4a/output_0_split_2
I0403 14:56:39.275748 11329 net.cpp:399] inception_4b/3x3_reduce -> inception_4b/3x3_reduce
I0403 14:56:39.277120 11329 net.cpp:141] Setting up inception_4b/3x3_reduce
I0403 14:56:39.277159 11329 net.cpp:148] Top shape: 24 112 14 14 (526848)
I0403 14:56:39.277178 11329 net.cpp:156] Memory required for data: 954332448
I0403 14:56:39.277196 11329 layer_factory.hpp:77] Creating layer inception_4b/relu_3x3_reduce
I0403 14:56:39.277215 11329 net.cpp:91] Creating Layer inception_4b/relu_3x3_reduce
I0403 14:56:39.277230 11329 net.cpp:425] inception_4b/relu_3x3_reduce <- inception_4b/3x3_reduce
I0403 14:56:39.277250 11329 net.cpp:386] inception_4b/relu_3x3_reduce -> inception_4b/3x3_reduce (in-place)
I0403 14:56:39.277529 11329 net.cpp:141] Setting up inception_4b/relu_3x3_reduce
I0403 14:56:39.277557 11329 net.cpp:148] Top shape: 24 112 14 14 (526848)
I0403 14:56:39.277572 11329 net.cpp:156] Memory required for data: 956439840
I0403 14:56:39.277587 11329 layer_factory.hpp:77] Creating layer inception_4b/3x3
I0403 14:56:39.277609 11329 net.cpp:91] Creating Layer inception_4b/3x3
I0403 14:56:39.277628 11329 net.cpp:425] inception_4b/3x3 <- inception_4b/3x3_reduce
I0403 14:56:39.277647 11329 net.cpp:399] inception_4b/3x3 -> inception_4b/3x3
I0403 14:56:39.280661 11329 net.cpp:141] Setting up inception_4b/3x3
I0403 14:56:39.280691 11329 net.cpp:148] Top shape: 24 224 14 14 (1053696)
I0403 14:56:39.280707 11329 net.cpp:156] Memory required for data: 960654624
I0403 14:56:39.280725 11329 layer_factory.hpp:77] Creating layer inception_4b/relu_3x3
I0403 14:56:39.280745 11329 net.cpp:91] Creating Layer inception_4b/relu_3x3
I0403 14:56:39.280762 11329 net.cpp:425] inception_4b/relu_3x3 <- inception_4b/3x3
I0403 14:56:39.280779 11329 net.cpp:386] inception_4b/relu_3x3 -> inception_4b/3x3 (in-place)
I0403 14:56:39.280961 11329 net.cpp:141] Setting up inception_4b/relu_3x3
I0403 14:56:39.280987 11329 net.cpp:148] Top shape: 24 224 14 14 (1053696)
I0403 14:56:39.281000 11329 net.cpp:156] Memory required for data: 964869408
I0403 14:56:39.281014 11329 layer_factory.hpp:77] Creating layer inception_4b/5x5_reduce
I0403 14:56:39.281038 11329 net.cpp:91] Creating Layer inception_4b/5x5_reduce
I0403 14:56:39.281056 11329 net.cpp:425] inception_4b/5x5_reduce <- inception_4a/output_inception_4a/output_0_split_3
I0403 14:56:39.281075 11329 net.cpp:399] inception_4b/5x5_reduce -> inception_4b/5x5_reduce
I0403 14:56:39.282171 11329 net.cpp:141] Setting up inception_4b/5x5_reduce
I0403 14:56:39.282202 11329 net.cpp:148] Top shape: 24 24 14 14 (112896)
I0403 14:56:39.282217 11329 net.cpp:156] Memory required for data: 965320992
I0403 14:56:39.282235 11329 layer_factory.hpp:77] Creating layer inception_4b/relu_5x5_reduce
I0403 14:56:39.282253 11329 net.cpp:91] Creating Layer inception_4b/relu_5x5_reduce
I0403 14:56:39.282284 11329 net.cpp:425] inception_4b/relu_5x5_reduce <- inception_4b/5x5_reduce
I0403 14:56:39.282306 11329 net.cpp:386] inception_4b/relu_5x5_reduce -> inception_4b/5x5_reduce (in-place)
I0403 14:56:39.282490 11329 net.cpp:141] Setting up inception_4b/relu_5x5_reduce
I0403 14:56:39.282515 11329 net.cpp:148] Top shape: 24 24 14 14 (112896)
I0403 14:56:39.282529 11329 net.cpp:156] Memory required for data: 965772576
I0403 14:56:39.282544 11329 layer_factory.hpp:77] Creating layer inception_4b/5x5
I0403 14:56:39.282565 11329 net.cpp:91] Creating Layer inception_4b/5x5
I0403 14:56:39.282583 11329 net.cpp:425] inception_4b/5x5 <- inception_4b/5x5_reduce
I0403 14:56:39.282605 11329 net.cpp:399] inception_4b/5x5 -> inception_4b/5x5
I0403 14:56:39.283856 11329 net.cpp:141] Setting up inception_4b/5x5
I0403 14:56:39.283887 11329 net.cpp:148] Top shape: 24 64 14 14 (301056)
I0403 14:56:39.283903 11329 net.cpp:156] Memory required for data: 966976800
I0403 14:56:39.283921 11329 layer_factory.hpp:77] Creating layer inception_4b/relu_5x5
I0403 14:56:39.283939 11329 net.cpp:91] Creating Layer inception_4b/relu_5x5
I0403 14:56:39.283956 11329 net.cpp:425] inception_4b/relu_5x5 <- inception_4b/5x5
I0403 14:56:39.283972 11329 net.cpp:386] inception_4b/relu_5x5 -> inception_4b/5x5 (in-place)
I0403 14:56:39.284278 11329 net.cpp:141] Setting up inception_4b/relu_5x5
I0403 14:56:39.284307 11329 net.cpp:148] Top shape: 24 64 14 14 (301056)
I0403 14:56:39.284323 11329 net.cpp:156] Memory required for data: 968181024
I0403 14:56:39.284339 11329 layer_factory.hpp:77] Creating layer inception_4b/pool
I0403 14:56:39.284358 11329 net.cpp:91] Creating Layer inception_4b/pool
I0403 14:56:39.284373 11329 net.cpp:425] inception_4b/pool <- inception_4a/output_inception_4a/output_0_split_4
I0403 14:56:39.284392 11329 net.cpp:399] inception_4b/pool -> inception_4b/pool
I0403 14:56:39.284474 11329 net.cpp:141] Setting up inception_4b/pool
I0403 14:56:39.284498 11329 net.cpp:148] Top shape: 24 512 14 14 (2408448)
I0403 14:56:39.284512 11329 net.cpp:156] Memory required for data: 977814816
I0403 14:56:39.284526 11329 layer_factory.hpp:77] Creating layer inception_4b/pool_proj
I0403 14:56:39.284548 11329 net.cpp:91] Creating Layer inception_4b/pool_proj
I0403 14:56:39.284565 11329 net.cpp:425] inception_4b/pool_proj <- inception_4b/pool
I0403 14:56:39.284585 11329 net.cpp:399] inception_4b/pool_proj -> inception_4b/pool_proj
I0403 14:56:39.285776 11329 net.cpp:141] Setting up inception_4b/pool_proj
I0403 14:56:39.285809 11329 net.cpp:148] Top shape: 24 64 14 14 (301056)
I0403 14:56:39.285825 11329 net.cpp:156] Memory required for data: 979019040
I0403 14:56:39.285843 11329 layer_factory.hpp:77] Creating layer inception_4b/relu_pool_proj
I0403 14:56:39.285861 11329 net.cpp:91] Creating Layer inception_4b/relu_pool_proj
I0403 14:56:39.285876 11329 net.cpp:425] inception_4b/relu_pool_proj <- inception_4b/pool_proj
I0403 14:56:39.285894 11329 net.cpp:386] inception_4b/relu_pool_proj -> inception_4b/pool_proj (in-place)
I0403 14:56:39.286074 11329 net.cpp:141] Setting up inception_4b/relu_pool_proj
I0403 14:56:39.286100 11329 net.cpp:148] Top shape: 24 64 14 14 (301056)
I0403 14:56:39.286115 11329 net.cpp:156] Memory required for data: 980223264
I0403 14:56:39.286139 11329 layer_factory.hpp:77] Creating layer inception_4b/output
I0403 14:56:39.286156 11329 net.cpp:91] Creating Layer inception_4b/output
I0403 14:56:39.286171 11329 net.cpp:425] inception_4b/output <- inception_4b/1x1
I0403 14:56:39.286186 11329 net.cpp:425] inception_4b/output <- inception_4b/3x3
I0403 14:56:39.286202 11329 net.cpp:425] inception_4b/output <- inception_4b/5x5
I0403 14:56:39.286217 11329 net.cpp:425] inception_4b/output <- inception_4b/pool_proj
I0403 14:56:39.286237 11329 net.cpp:399] inception_4b/output -> inception_4b/output
I0403 14:56:39.286283 11329 net.cpp:141] Setting up inception_4b/output
I0403 14:56:39.286309 11329 net.cpp:148] Top shape: 24 512 14 14 (2408448)
I0403 14:56:39.286324 11329 net.cpp:156] Memory required for data: 989857056
I0403 14:56:39.286352 11329 layer_factory.hpp:77] Creating layer inception_4b/output_inception_4b/output_0_split
I0403 14:56:39.286370 11329 net.cpp:91] Creating Layer inception_4b/output_inception_4b/output_0_split
I0403 14:56:39.286386 11329 net.cpp:425] inception_4b/output_inception_4b/output_0_split <- inception_4b/output
I0403 14:56:39.286403 11329 net.cpp:399] inception_4b/output_inception_4b/output_0_split -> inception_4b/output_inception_4b/output_0_split_0
I0403 14:56:39.286425 11329 net.cpp:399] inception_4b/output_inception_4b/output_0_split -> inception_4b/output_inception_4b/output_0_split_1
I0403 14:56:39.286445 11329 net.cpp:399] inception_4b/output_inception_4b/output_0_split -> inception_4b/output_inception_4b/output_0_split_2
I0403 14:56:39.286465 11329 net.cpp:399] inception_4b/output_inception_4b/output_0_split -> inception_4b/output_inception_4b/output_0_split_3
I0403 14:56:39.286545 11329 net.cpp:141] Setting up inception_4b/output_inception_4b/output_0_split
I0403 14:56:39.286569 11329 net.cpp:148] Top shape: 24 512 14 14 (2408448)
I0403 14:56:39.286586 11329 net.cpp:148] Top shape: 24 512 14 14 (2408448)
I0403 14:56:39.286602 11329 net.cpp:148] Top shape: 24 512 14 14 (2408448)
I0403 14:56:39.286617 11329 net.cpp:148] Top shape: 24 512 14 14 (2408448)
I0403 14:56:39.286630 11329 net.cpp:156] Memory required for data: 1028392224
I0403 14:56:39.286644 11329 layer_factory.hpp:77] Creating layer inception_4c/1x1
I0403 14:56:39.286666 11329 net.cpp:91] Creating Layer inception_4c/1x1
I0403 14:56:39.286684 11329 net.cpp:425] inception_4c/1x1 <- inception_4b/output_inception_4b/output_0_split_0
I0403 14:56:39.286705 11329 net.cpp:399] inception_4c/1x1 -> inception_4c/1x1
I0403 14:56:39.288192 11329 net.cpp:141] Setting up inception_4c/1x1
I0403 14:56:39.288221 11329 net.cpp:148] Top shape: 24 128 14 14 (602112)
I0403 14:56:39.288238 11329 net.cpp:156] Memory required for data: 1030800672
I0403 14:56:39.288257 11329 layer_factory.hpp:77] Creating layer inception_4c/relu_1x1
I0403 14:56:39.288280 11329 net.cpp:91] Creating Layer inception_4c/relu_1x1
I0403 14:56:39.288297 11329 net.cpp:425] inception_4c/relu_1x1 <- inception_4c/1x1
I0403 14:56:39.288314 11329 net.cpp:386] inception_4c/relu_1x1 -> inception_4c/1x1 (in-place)
I0403 14:56:39.288516 11329 net.cpp:141] Setting up inception_4c/relu_1x1
I0403 14:56:39.288542 11329 net.cpp:148] Top shape: 24 128 14 14 (602112)
I0403 14:56:39.288558 11329 net.cpp:156] Memory required for data: 1033209120
I0403 14:56:39.288573 11329 layer_factory.hpp:77] Creating layer inception_4c/3x3_reduce
I0403 14:56:39.288594 11329 net.cpp:91] Creating Layer inception_4c/3x3_reduce
I0403 14:56:39.288614 11329 net.cpp:425] inception_4c/3x3_reduce <- inception_4b/output_inception_4b/output_0_split_1
I0403 14:56:39.288635 11329 net.cpp:399] inception_4c/3x3_reduce -> inception_4c/3x3_reduce
I0403 14:56:39.290648 11329 net.cpp:141] Setting up inception_4c/3x3_reduce
I0403 14:56:39.290678 11329 net.cpp:148] Top shape: 24 128 14 14 (602112)
I0403 14:56:39.290693 11329 net.cpp:156] Memory required for data: 1035617568
I0403 14:56:39.290714 11329 layer_factory.hpp:77] Creating layer inception_4c/relu_3x3_reduce
I0403 14:56:39.290735 11329 net.cpp:91] Creating Layer inception_4c/relu_3x3_reduce
I0403 14:56:39.290751 11329 net.cpp:425] inception_4c/relu_3x3_reduce <- inception_4c/3x3_reduce
I0403 14:56:39.290768 11329 net.cpp:386] inception_4c/relu_3x3_reduce -> inception_4c/3x3_reduce (in-place)
I0403 14:56:39.291064 11329 net.cpp:141] Setting up inception_4c/relu_3x3_reduce
I0403 14:56:39.291091 11329 net.cpp:148] Top shape: 24 128 14 14 (602112)
I0403 14:56:39.291107 11329 net.cpp:156] Memory required for data: 1038026016
I0403 14:56:39.291123 11329 layer_factory.hpp:77] Creating layer inception_4c/3x3
I0403 14:56:39.291157 11329 net.cpp:91] Creating Layer inception_4c/3x3
I0403 14:56:39.291177 11329 net.cpp:425] inception_4c/3x3 <- inception_4c/3x3_reduce
I0403 14:56:39.291196 11329 net.cpp:399] inception_4c/3x3 -> inception_4c/3x3
I0403 14:56:39.295052 11329 net.cpp:141] Setting up inception_4c/3x3
I0403 14:56:39.295125 11329 net.cpp:148] Top shape: 24 256 14 14 (1204224)
I0403 14:56:39.295147 11329 net.cpp:156] Memory required for data: 1042842912
I0403 14:56:39.295184 11329 layer_factory.hpp:77] Creating layer inception_4c/relu_3x3
I0403 14:56:39.295207 11329 net.cpp:91] Creating Layer inception_4c/relu_3x3
I0403 14:56:39.295224 11329 net.cpp:425] inception_4c/relu_3x3 <- inception_4c/3x3
I0403 14:56:39.295243 11329 net.cpp:386] inception_4c/relu_3x3 -> inception_4c/3x3 (in-place)
I0403 14:56:39.295440 11329 net.cpp:141] Setting up inception_4c/relu_3x3
I0403 14:56:39.295469 11329 net.cpp:148] Top shape: 24 256 14 14 (1204224)
I0403 14:56:39.295486 11329 net.cpp:156] Memory required for data: 1047659808
I0403 14:56:39.295502 11329 layer_factory.hpp:77] Creating layer inception_4c/5x5_reduce
I0403 14:56:39.295526 11329 net.cpp:91] Creating Layer inception_4c/5x5_reduce
I0403 14:56:39.295545 11329 net.cpp:425] inception_4c/5x5_reduce <- inception_4b/output_inception_4b/output_0_split_2
I0403 14:56:39.295565 11329 net.cpp:399] inception_4c/5x5_reduce -> inception_4c/5x5_reduce
I0403 14:56:39.296730 11329 net.cpp:141] Setting up inception_4c/5x5_reduce
I0403 14:56:39.296762 11329 net.cpp:148] Top shape: 24 24 14 14 (112896)
I0403 14:56:39.296780 11329 net.cpp:156] Memory required for data: 1048111392
I0403 14:56:39.296800 11329 layer_factory.hpp:77] Creating layer inception_4c/relu_5x5_reduce
I0403 14:56:39.296820 11329 net.cpp:91] Creating Layer inception_4c/relu_5x5_reduce
I0403 14:56:39.296838 11329 net.cpp:425] inception_4c/relu_5x5_reduce <- inception_4c/5x5_reduce
I0403 14:56:39.296859 11329 net.cpp:386] inception_4c/relu_5x5_reduce -> inception_4c/5x5_reduce (in-place)
I0403 14:56:39.297050 11329 net.cpp:141] Setting up inception_4c/relu_5x5_reduce
I0403 14:56:39.297077 11329 net.cpp:148] Top shape: 24 24 14 14 (112896)
I0403 14:56:39.297092 11329 net.cpp:156] Memory required for data: 1048562976
I0403 14:56:39.297116 11329 layer_factory.hpp:77] Creating layer inception_4c/5x5
I0403 14:56:39.297142 11329 net.cpp:91] Creating Layer inception_4c/5x5
I0403 14:56:39.297161 11329 net.cpp:425] inception_4c/5x5 <- inception_4c/5x5_reduce
I0403 14:56:39.297183 11329 net.cpp:399] inception_4c/5x5 -> inception_4c/5x5
I0403 14:56:39.298511 11329 net.cpp:141] Setting up inception_4c/5x5
I0403 14:56:39.298542 11329 net.cpp:148] Top shape: 24 64 14 14 (301056)
I0403 14:56:39.298558 11329 net.cpp:156] Memory required for data: 1049767200
I0403 14:56:39.298576 11329 layer_factory.hpp:77] Creating layer inception_4c/relu_5x5
I0403 14:56:39.298596 11329 net.cpp:91] Creating Layer inception_4c/relu_5x5
I0403 14:56:39.298620 11329 net.cpp:425] inception_4c/relu_5x5 <- inception_4c/5x5
I0403 14:56:39.298638 11329 net.cpp:386] inception_4c/relu_5x5 -> inception_4c/5x5 (in-place)
I0403 14:56:39.298945 11329 net.cpp:141] Setting up inception_4c/relu_5x5
I0403 14:56:39.298974 11329 net.cpp:148] Top shape: 24 64 14 14 (301056)
I0403 14:56:39.298990 11329 net.cpp:156] Memory required for data: 1050971424
I0403 14:56:39.299005 11329 layer_factory.hpp:77] Creating layer inception_4c/pool
I0403 14:56:39.299022 11329 net.cpp:91] Creating Layer inception_4c/pool
I0403 14:56:39.299039 11329 net.cpp:425] inception_4c/pool <- inception_4b/output_inception_4b/output_0_split_3
I0403 14:56:39.299060 11329 net.cpp:399] inception_4c/pool -> inception_4c/pool
I0403 14:56:39.299139 11329 net.cpp:141] Setting up inception_4c/pool
I0403 14:56:39.299167 11329 net.cpp:148] Top shape: 24 512 14 14 (2408448)
I0403 14:56:39.299183 11329 net.cpp:156] Memory required for data: 1060605216
I0403 14:56:39.299199 11329 layer_factory.hpp:77] Creating layer inception_4c/pool_proj
I0403 14:56:39.299224 11329 net.cpp:91] Creating Layer inception_4c/pool_proj
I0403 14:56:39.299242 11329 net.cpp:425] inception_4c/pool_proj <- inception_4c/pool
I0403 14:56:39.299263 11329 net.cpp:399] inception_4c/pool_proj -> inception_4c/pool_proj
I0403 14:56:39.300562 11329 net.cpp:141] Setting up inception_4c/pool_proj
I0403 14:56:39.300595 11329 net.cpp:148] Top shape: 24 64 14 14 (301056)
I0403 14:56:39.300629 11329 net.cpp:156] Memory required for data: 1061809440
I0403 14:56:39.300650 11329 layer_factory.hpp:77] Creating layer inception_4c/relu_pool_proj
I0403 14:56:39.300669 11329 net.cpp:91] Creating Layer inception_4c/relu_pool_proj
I0403 14:56:39.300686 11329 net.cpp:425] inception_4c/relu_pool_proj <- inception_4c/pool_proj
I0403 14:56:39.300704 11329 net.cpp:386] inception_4c/relu_pool_proj -> inception_4c/pool_proj (in-place)
I0403 14:56:39.300909 11329 net.cpp:141] Setting up inception_4c/relu_pool_proj
I0403 14:56:39.300936 11329 net.cpp:148] Top shape: 24 64 14 14 (301056)
I0403 14:56:39.300951 11329 net.cpp:156] Memory required for data: 1063013664
I0403 14:56:39.300967 11329 layer_factory.hpp:77] Creating layer inception_4c/output
I0403 14:56:39.300986 11329 net.cpp:91] Creating Layer inception_4c/output
I0403 14:56:39.301002 11329 net.cpp:425] inception_4c/output <- inception_4c/1x1
I0403 14:56:39.301019 11329 net.cpp:425] inception_4c/output <- inception_4c/3x3
I0403 14:56:39.301035 11329 net.cpp:425] inception_4c/output <- inception_4c/5x5
I0403 14:56:39.301053 11329 net.cpp:425] inception_4c/output <- inception_4c/pool_proj
I0403 14:56:39.301072 11329 net.cpp:399] inception_4c/output -> inception_4c/output
I0403 14:56:39.301128 11329 net.cpp:141] Setting up inception_4c/output
I0403 14:56:39.301154 11329 net.cpp:148] Top shape: 24 512 14 14 (2408448)
I0403 14:56:39.301169 11329 net.cpp:156] Memory required for data: 1072647456
I0403 14:56:39.301184 11329 layer_factory.hpp:77] Creating layer inception_4c/output_inception_4c/output_0_split
I0403 14:56:39.301204 11329 net.cpp:91] Creating Layer inception_4c/output_inception_4c/output_0_split
I0403 14:56:39.301221 11329 net.cpp:425] inception_4c/output_inception_4c/output_0_split <- inception_4c/output
I0403 14:56:39.301239 11329 net.cpp:399] inception_4c/output_inception_4c/output_0_split -> inception_4c/output_inception_4c/output_0_split_0
I0403 14:56:39.301264 11329 net.cpp:399] inception_4c/output_inception_4c/output_0_split -> inception_4c/output_inception_4c/output_0_split_1
I0403 14:56:39.301285 11329 net.cpp:399] inception_4c/output_inception_4c/output_0_split -> inception_4c/output_inception_4c/output_0_split_2
I0403 14:56:39.301306 11329 net.cpp:399] inception_4c/output_inception_4c/output_0_split -> inception_4c/output_inception_4c/output_0_split_3
I0403 14:56:39.301395 11329 net.cpp:141] Setting up inception_4c/output_inception_4c/output_0_split
I0403 14:56:39.301420 11329 net.cpp:148] Top shape: 24 512 14 14 (2408448)
I0403 14:56:39.301439 11329 net.cpp:148] Top shape: 24 512 14 14 (2408448)
I0403 14:56:39.301455 11329 net.cpp:148] Top shape: 24 512 14 14 (2408448)
I0403 14:56:39.301470 11329 net.cpp:148] Top shape: 24 512 14 14 (2408448)
I0403 14:56:39.301483 11329 net.cpp:156] Memory required for data: 1111182624
I0403 14:56:39.301498 11329 layer_factory.hpp:77] Creating layer inception_4d/1x1
I0403 14:56:39.301522 11329 net.cpp:91] Creating Layer inception_4d/1x1
I0403 14:56:39.301540 11329 net.cpp:425] inception_4d/1x1 <- inception_4c/output_inception_4c/output_0_split_0
I0403 14:56:39.301563 11329 net.cpp:399] inception_4d/1x1 -> inception_4d/1x1
I0403 14:56:39.303045 11329 net.cpp:141] Setting up inception_4d/1x1
I0403 14:56:39.303074 11329 net.cpp:148] Top shape: 24 112 14 14 (526848)
I0403 14:56:39.303092 11329 net.cpp:156] Memory required for data: 1113290016
I0403 14:56:39.303117 11329 layer_factory.hpp:77] Creating layer inception_4d/relu_1x1
I0403 14:56:39.303139 11329 net.cpp:91] Creating Layer inception_4d/relu_1x1
I0403 14:56:39.303158 11329 net.cpp:425] inception_4d/relu_1x1 <- inception_4d/1x1
I0403 14:56:39.303177 11329 net.cpp:386] inception_4d/relu_1x1 -> inception_4d/1x1 (in-place)
I0403 14:56:39.303372 11329 net.cpp:141] Setting up inception_4d/relu_1x1
I0403 14:56:39.303397 11329 net.cpp:148] Top shape: 24 112 14 14 (526848)
I0403 14:56:39.303413 11329 net.cpp:156] Memory required for data: 1115397408
I0403 14:56:39.303428 11329 layer_factory.hpp:77] Creating layer inception_4d/3x3_reduce
I0403 14:56:39.303470 11329 net.cpp:91] Creating Layer inception_4d/3x3_reduce
I0403 14:56:39.303491 11329 net.cpp:425] inception_4d/3x3_reduce <- inception_4c/output_inception_4c/output_0_split_1
I0403 14:56:39.303513 11329 net.cpp:399] inception_4d/3x3_reduce -> inception_4d/3x3_reduce
I0403 14:56:39.305114 11329 net.cpp:141] Setting up inception_4d/3x3_reduce
I0403 14:56:39.305145 11329 net.cpp:148] Top shape: 24 144 14 14 (677376)
I0403 14:56:39.305161 11329 net.cpp:156] Memory required for data: 1118106912
I0403 14:56:39.305181 11329 layer_factory.hpp:77] Creating layer inception_4d/relu_3x3_reduce
I0403 14:56:39.305198 11329 net.cpp:91] Creating Layer inception_4d/relu_3x3_reduce
I0403 14:56:39.305215 11329 net.cpp:425] inception_4d/relu_3x3_reduce <- inception_4d/3x3_reduce
I0403 14:56:39.305238 11329 net.cpp:386] inception_4d/relu_3x3_reduce -> inception_4d/3x3_reduce (in-place)
I0403 14:56:39.305543 11329 net.cpp:141] Setting up inception_4d/relu_3x3_reduce
I0403 14:56:39.305572 11329 net.cpp:148] Top shape: 24 144 14 14 (677376)
I0403 14:56:39.305588 11329 net.cpp:156] Memory required for data: 1120816416
I0403 14:56:39.305603 11329 layer_factory.hpp:77] Creating layer inception_4d/3x3
I0403 14:56:39.305625 11329 net.cpp:91] Creating Layer inception_4d/3x3
I0403 14:56:39.305645 11329 net.cpp:425] inception_4d/3x3 <- inception_4d/3x3_reduce
I0403 14:56:39.305668 11329 net.cpp:399] inception_4d/3x3 -> inception_4d/3x3
I0403 14:56:39.310181 11329 net.cpp:141] Setting up inception_4d/3x3
I0403 14:56:39.310214 11329 net.cpp:148] Top shape: 24 288 14 14 (1354752)
I0403 14:56:39.310230 11329 net.cpp:156] Memory required for data: 1126235424
I0403 14:56:39.310248 11329 layer_factory.hpp:77] Creating layer inception_4d/relu_3x3
I0403 14:56:39.310269 11329 net.cpp:91] Creating Layer inception_4d/relu_3x3
I0403 14:56:39.310287 11329 net.cpp:425] inception_4d/relu_3x3 <- inception_4d/3x3
I0403 14:56:39.310305 11329 net.cpp:386] inception_4d/relu_3x3 -> inception_4d/3x3 (in-place)
I0403 14:56:39.310490 11329 net.cpp:141] Setting up inception_4d/relu_3x3
I0403 14:56:39.310519 11329 net.cpp:148] Top shape: 24 288 14 14 (1354752)
I0403 14:56:39.310534 11329 net.cpp:156] Memory required for data: 1131654432
I0403 14:56:39.310549 11329 layer_factory.hpp:77] Creating layer inception_4d/5x5_reduce
I0403 14:56:39.310572 11329 net.cpp:91] Creating Layer inception_4d/5x5_reduce
I0403 14:56:39.310591 11329 net.cpp:425] inception_4d/5x5_reduce <- inception_4c/output_inception_4c/output_0_split_2
I0403 14:56:39.310611 11329 net.cpp:399] inception_4d/5x5_reduce -> inception_4d/5x5_reduce
I0403 14:56:39.311802 11329 net.cpp:141] Setting up inception_4d/5x5_reduce
I0403 14:56:39.311831 11329 net.cpp:148] Top shape: 24 32 14 14 (150528)
I0403 14:56:39.311846 11329 net.cpp:156] Memory required for data: 1132256544
I0403 14:56:39.311864 11329 layer_factory.hpp:77] Creating layer inception_4d/relu_5x5_reduce
I0403 14:56:39.311885 11329 net.cpp:91] Creating Layer inception_4d/relu_5x5_reduce
I0403 14:56:39.311902 11329 net.cpp:425] inception_4d/relu_5x5_reduce <- inception_4d/5x5_reduce
I0403 14:56:39.311919 11329 net.cpp:386] inception_4d/relu_5x5_reduce -> inception_4d/5x5_reduce (in-place)
I0403 14:56:39.312120 11329 net.cpp:141] Setting up inception_4d/relu_5x5_reduce
I0403 14:56:39.312147 11329 net.cpp:148] Top shape: 24 32 14 14 (150528)
I0403 14:56:39.312165 11329 net.cpp:156] Memory required for data: 1132858656
I0403 14:56:39.312178 11329 layer_factory.hpp:77] Creating layer inception_4d/5x5
I0403 14:56:39.312212 11329 net.cpp:91] Creating Layer inception_4d/5x5
I0403 14:56:39.312230 11329 net.cpp:425] inception_4d/5x5 <- inception_4d/5x5_reduce
I0403 14:56:39.312250 11329 net.cpp:399] inception_4d/5x5 -> inception_4d/5x5
I0403 14:56:39.313791 11329 net.cpp:141] Setting up inception_4d/5x5
I0403 14:56:39.313822 11329 net.cpp:148] Top shape: 24 64 14 14 (301056)
I0403 14:56:39.313838 11329 net.cpp:156] Memory required for data: 1134062880
I0403 14:56:39.313858 11329 layer_factory.hpp:77] Creating layer inception_4d/relu_5x5
I0403 14:56:39.313891 11329 net.cpp:91] Creating Layer inception_4d/relu_5x5
I0403 14:56:39.313908 11329 net.cpp:425] inception_4d/relu_5x5 <- inception_4d/5x5
I0403 14:56:39.313928 11329 net.cpp:386] inception_4d/relu_5x5 -> inception_4d/5x5 (in-place)
I0403 14:56:39.314241 11329 net.cpp:141] Setting up inception_4d/relu_5x5
I0403 14:56:39.314270 11329 net.cpp:148] Top shape: 24 64 14 14 (301056)
I0403 14:56:39.314287 11329 net.cpp:156] Memory required for data: 1135267104
I0403 14:56:39.314301 11329 layer_factory.hpp:77] Creating layer inception_4d/pool
I0403 14:56:39.314319 11329 net.cpp:91] Creating Layer inception_4d/pool
I0403 14:56:39.314335 11329 net.cpp:425] inception_4d/pool <- inception_4c/output_inception_4c/output_0_split_3
I0403 14:56:39.314357 11329 net.cpp:399] inception_4d/pool -> inception_4d/pool
I0403 14:56:39.314422 11329 net.cpp:141] Setting up inception_4d/pool
I0403 14:56:39.314447 11329 net.cpp:148] Top shape: 24 512 14 14 (2408448)
I0403 14:56:39.314461 11329 net.cpp:156] Memory required for data: 1144900896
I0403 14:56:39.314476 11329 layer_factory.hpp:77] Creating layer inception_4d/pool_proj
I0403 14:56:39.314496 11329 net.cpp:91] Creating Layer inception_4d/pool_proj
I0403 14:56:39.314513 11329 net.cpp:425] inception_4d/pool_proj <- inception_4d/pool
I0403 14:56:39.314534 11329 net.cpp:399] inception_4d/pool_proj -> inception_4d/pool_proj
I0403 14:56:39.316347 11329 net.cpp:141] Setting up inception_4d/pool_proj
I0403 14:56:39.316377 11329 net.cpp:148] Top shape: 24 64 14 14 (301056)
I0403 14:56:39.316393 11329 net.cpp:156] Memory required for data: 1146105120
I0403 14:56:39.316411 11329 layer_factory.hpp:77] Creating layer inception_4d/relu_pool_proj
I0403 14:56:39.316432 11329 net.cpp:91] Creating Layer inception_4d/relu_pool_proj
I0403 14:56:39.316449 11329 net.cpp:425] inception_4d/relu_pool_proj <- inception_4d/pool_proj
I0403 14:56:39.316468 11329 net.cpp:386] inception_4d/relu_pool_proj -> inception_4d/pool_proj (in-place)
I0403 14:56:39.316680 11329 net.cpp:141] Setting up inception_4d/relu_pool_proj
I0403 14:56:39.316709 11329 net.cpp:148] Top shape: 24 64 14 14 (301056)
I0403 14:56:39.316726 11329 net.cpp:156] Memory required for data: 1147309344
I0403 14:56:39.316741 11329 layer_factory.hpp:77] Creating layer inception_4d/output
I0403 14:56:39.316759 11329 net.cpp:91] Creating Layer inception_4d/output
I0403 14:56:39.316776 11329 net.cpp:425] inception_4d/output <- inception_4d/1x1
I0403 14:56:39.316793 11329 net.cpp:425] inception_4d/output <- inception_4d/3x3
I0403 14:56:39.316810 11329 net.cpp:425] inception_4d/output <- inception_4d/5x5
I0403 14:56:39.316826 11329 net.cpp:425] inception_4d/output <- inception_4d/pool_proj
I0403 14:56:39.316843 11329 net.cpp:399] inception_4d/output -> inception_4d/output
I0403 14:56:39.316905 11329 net.cpp:141] Setting up inception_4d/output
I0403 14:56:39.316929 11329 net.cpp:148] Top shape: 24 528 14 14 (2483712)
I0403 14:56:39.316943 11329 net.cpp:156] Memory required for data: 1157244192
I0403 14:56:39.316957 11329 layer_factory.hpp:77] Creating layer inception_4d/output_inception_4d/output_0_split
I0403 14:56:39.316977 11329 net.cpp:91] Creating Layer inception_4d/output_inception_4d/output_0_split
I0403 14:56:39.316992 11329 net.cpp:425] inception_4d/output_inception_4d/output_0_split <- inception_4d/output
I0403 14:56:39.317010 11329 net.cpp:399] inception_4d/output_inception_4d/output_0_split -> inception_4d/output_inception_4d/output_0_split_0
I0403 14:56:39.317030 11329 net.cpp:399] inception_4d/output_inception_4d/output_0_split -> inception_4d/output_inception_4d/output_0_split_1
I0403 14:56:39.317050 11329 net.cpp:399] inception_4d/output_inception_4d/output_0_split -> inception_4d/output_inception_4d/output_0_split_2
I0403 14:56:39.317075 11329 net.cpp:399] inception_4d/output_inception_4d/output_0_split -> inception_4d/output_inception_4d/output_0_split_3
I0403 14:56:39.317101 11329 net.cpp:399] inception_4d/output_inception_4d/output_0_split -> inception_4d/output_inception_4d/output_0_split_4
I0403 14:56:39.317205 11329 net.cpp:141] Setting up inception_4d/output_inception_4d/output_0_split
I0403 14:56:39.317242 11329 net.cpp:148] Top shape: 24 528 14 14 (2483712)
I0403 14:56:39.317258 11329 net.cpp:148] Top shape: 24 528 14 14 (2483712)
I0403 14:56:39.317275 11329 net.cpp:148] Top shape: 24 528 14 14 (2483712)
I0403 14:56:39.317289 11329 net.cpp:148] Top shape: 24 528 14 14 (2483712)
I0403 14:56:39.317304 11329 net.cpp:148] Top shape: 24 528 14 14 (2483712)
I0403 14:56:39.317317 11329 net.cpp:156] Memory required for data: 1206918432
I0403 14:56:39.317332 11329 layer_factory.hpp:77] Creating layer loss2/ave_pool
I0403 14:56:39.317351 11329 net.cpp:91] Creating Layer loss2/ave_pool
I0403 14:56:39.317370 11329 net.cpp:425] loss2/ave_pool <- inception_4d/output_inception_4d/output_0_split_0
I0403 14:56:39.317389 11329 net.cpp:399] loss2/ave_pool -> loss2/ave_pool
I0403 14:56:39.317701 11329 net.cpp:141] Setting up loss2/ave_pool
I0403 14:56:39.317728 11329 net.cpp:148] Top shape: 24 528 4 4 (202752)
I0403 14:56:39.317742 11329 net.cpp:156] Memory required for data: 1207729440
I0403 14:56:39.317757 11329 layer_factory.hpp:77] Creating layer loss2/conv
I0403 14:56:39.317778 11329 net.cpp:91] Creating Layer loss2/conv
I0403 14:56:39.317796 11329 net.cpp:425] loss2/conv <- loss2/ave_pool
I0403 14:56:39.317817 11329 net.cpp:399] loss2/conv -> loss2/conv
I0403 14:56:39.319746 11329 net.cpp:141] Setting up loss2/conv
I0403 14:56:39.319775 11329 net.cpp:148] Top shape: 24 128 4 4 (49152)
I0403 14:56:39.319792 11329 net.cpp:156] Memory required for data: 1207926048
I0403 14:56:39.319809 11329 layer_factory.hpp:77] Creating layer loss2/relu_conv
I0403 14:56:39.319828 11329 net.cpp:91] Creating Layer loss2/relu_conv
I0403 14:56:39.319844 11329 net.cpp:425] loss2/relu_conv <- loss2/conv
I0403 14:56:39.319864 11329 net.cpp:386] loss2/relu_conv -> loss2/conv (in-place)
I0403 14:56:39.320174 11329 net.cpp:141] Setting up loss2/relu_conv
I0403 14:56:39.320219 11329 net.cpp:148] Top shape: 24 128 4 4 (49152)
I0403 14:56:39.320235 11329 net.cpp:156] Memory required for data: 1208122656
I0403 14:56:39.320250 11329 layer_factory.hpp:77] Creating layer loss2/fc
I0403 14:56:39.320283 11329 net.cpp:91] Creating Layer loss2/fc
I0403 14:56:39.320300 11329 net.cpp:425] loss2/fc <- loss2/conv
I0403 14:56:39.320322 11329 net.cpp:399] loss2/fc -> loss2/fc
I0403 14:56:39.338644 11329 net.cpp:141] Setting up loss2/fc
I0403 14:56:39.338699 11329 net.cpp:148] Top shape: 24 1024 (24576)
I0403 14:56:39.338716 11329 net.cpp:156] Memory required for data: 1208220960
I0403 14:56:39.338737 11329 layer_factory.hpp:77] Creating layer loss2/relu_fc
I0403 14:56:39.338757 11329 net.cpp:91] Creating Layer loss2/relu_fc
I0403 14:56:39.338774 11329 net.cpp:425] loss2/relu_fc <- loss2/fc
I0403 14:56:39.338793 11329 net.cpp:386] loss2/relu_fc -> loss2/fc (in-place)
I0403 14:56:39.339139 11329 net.cpp:141] Setting up loss2/relu_fc
I0403 14:56:39.339169 11329 net.cpp:148] Top shape: 24 1024 (24576)
I0403 14:56:39.339184 11329 net.cpp:156] Memory required for data: 1208319264
I0403 14:56:39.339211 11329 layer_factory.hpp:77] Creating layer loss2/drop_fc
I0403 14:56:39.339231 11329 net.cpp:91] Creating Layer loss2/drop_fc
I0403 14:56:39.339246 11329 net.cpp:425] loss2/drop_fc <- loss2/fc
I0403 14:56:39.339264 11329 net.cpp:386] loss2/drop_fc -> loss2/fc (in-place)
I0403 14:56:39.339318 11329 net.cpp:141] Setting up loss2/drop_fc
I0403 14:56:39.339342 11329 net.cpp:148] Top shape: 24 1024 (24576)
I0403 14:56:39.339357 11329 net.cpp:156] Memory required for data: 1208417568
I0403 14:56:39.339372 11329 layer_factory.hpp:77] Creating layer loss2/classifier_plantvillage
I0403 14:56:39.339395 11329 net.cpp:91] Creating Layer loss2/classifier_plantvillage
I0403 14:56:39.339412 11329 net.cpp:425] loss2/classifier_plantvillage <- loss2/fc
I0403 14:56:39.339432 11329 net.cpp:399] loss2/classifier_plantvillage -> loss2/classifier_plantvillage
I0403 14:56:39.339891 11329 net.cpp:141] Setting up loss2/classifier_plantvillage
I0403 14:56:39.339917 11329 net.cpp:148] Top shape: 24 38 (912)
I0403 14:56:39.339957 11329 net.cpp:156] Memory required for data: 1208421216
I0403 14:56:39.339977 11329 layer_factory.hpp:77] Creating layer loss2/classifier_plantvillage_loss2/classifier_plantvillage_0_split
I0403 14:56:39.339994 11329 net.cpp:91] Creating Layer loss2/classifier_plantvillage_loss2/classifier_plantvillage_0_split
I0403 14:56:39.340010 11329 net.cpp:425] loss2/classifier_plantvillage_loss2/classifier_plantvillage_0_split <- loss2/classifier_plantvillage
I0403 14:56:39.340029 11329 net.cpp:399] loss2/classifier_plantvillage_loss2/classifier_plantvillage_0_split -> loss2/classifier_plantvillage_loss2/classifier_plantvillage_0_split_0
I0403 14:56:39.340051 11329 net.cpp:399] loss2/classifier_plantvillage_loss2/classifier_plantvillage_0_split -> loss2/classifier_plantvillage_loss2/classifier_plantvillage_0_split_1
I0403 14:56:39.340071 11329 net.cpp:399] loss2/classifier_plantvillage_loss2/classifier_plantvillage_0_split -> loss2/classifier_plantvillage_loss2/classifier_plantvillage_0_split_2
I0403 14:56:39.340154 11329 net.cpp:141] Setting up loss2/classifier_plantvillage_loss2/classifier_plantvillage_0_split
I0403 14:56:39.340181 11329 net.cpp:148] Top shape: 24 38 (912)
I0403 14:56:39.340211 11329 net.cpp:148] Top shape: 24 38 (912)
I0403 14:56:39.340227 11329 net.cpp:148] Top shape: 24 38 (912)
I0403 14:56:39.340240 11329 net.cpp:156] Memory required for data: 1208432160
I0403 14:56:39.340256 11329 layer_factory.hpp:77] Creating layer inception_4e/1x1
I0403 14:56:39.340279 11329 net.cpp:91] Creating Layer inception_4e/1x1
I0403 14:56:39.340298 11329 net.cpp:425] inception_4e/1x1 <- inception_4d/output_inception_4d/output_0_split_1
I0403 14:56:39.340318 11329 net.cpp:399] inception_4e/1x1 -> inception_4e/1x1
I0403 14:56:39.342285 11329 net.cpp:141] Setting up inception_4e/1x1
I0403 14:56:39.342317 11329 net.cpp:148] Top shape: 24 256 14 14 (1204224)
I0403 14:56:39.342335 11329 net.cpp:156] Memory required for data: 1213249056
I0403 14:56:39.342353 11329 layer_factory.hpp:77] Creating layer inception_4e/relu_1x1
I0403 14:56:39.342373 11329 net.cpp:91] Creating Layer inception_4e/relu_1x1
I0403 14:56:39.342391 11329 net.cpp:425] inception_4e/relu_1x1 <- inception_4e/1x1
I0403 14:56:39.342411 11329 net.cpp:386] inception_4e/relu_1x1 -> inception_4e/1x1 (in-place)
I0403 14:56:39.342718 11329 net.cpp:141] Setting up inception_4e/relu_1x1
I0403 14:56:39.342747 11329 net.cpp:148] Top shape: 24 256 14 14 (1204224)
I0403 14:56:39.342764 11329 net.cpp:156] Memory required for data: 1218065952
I0403 14:56:39.342780 11329 layer_factory.hpp:77] Creating layer inception_4e/3x3_reduce
I0403 14:56:39.342803 11329 net.cpp:91] Creating Layer inception_4e/3x3_reduce
I0403 14:56:39.342833 11329 net.cpp:425] inception_4e/3x3_reduce <- inception_4d/output_inception_4d/output_0_split_2
I0403 14:56:39.342855 11329 net.cpp:399] inception_4e/3x3_reduce -> inception_4e/3x3_reduce
I0403 14:56:39.345188 11329 net.cpp:141] Setting up inception_4e/3x3_reduce
I0403 14:56:39.345222 11329 net.cpp:148] Top shape: 24 160 14 14 (752640)
I0403 14:56:39.345240 11329 net.cpp:156] Memory required for data: 1221076512
I0403 14:56:39.345258 11329 layer_factory.hpp:77] Creating layer inception_4e/relu_3x3_reduce
I0403 14:56:39.345278 11329 net.cpp:91] Creating Layer inception_4e/relu_3x3_reduce
I0403 14:56:39.345294 11329 net.cpp:425] inception_4e/relu_3x3_reduce <- inception_4e/3x3_reduce
I0403 14:56:39.345312 11329 net.cpp:386] inception_4e/relu_3x3_reduce -> inception_4e/3x3_reduce (in-place)
I0403 14:56:39.345505 11329 net.cpp:141] Setting up inception_4e/relu_3x3_reduce
I0403 14:56:39.345531 11329 net.cpp:148] Top shape: 24 160 14 14 (752640)
I0403 14:56:39.345546 11329 net.cpp:156] Memory required for data: 1224087072
I0403 14:56:39.345561 11329 layer_factory.hpp:77] Creating layer inception_4e/3x3
I0403 14:56:39.345583 11329 net.cpp:91] Creating Layer inception_4e/3x3
I0403 14:56:39.345602 11329 net.cpp:425] inception_4e/3x3 <- inception_4e/3x3_reduce
I0403 14:56:39.345623 11329 net.cpp:399] inception_4e/3x3 -> inception_4e/3x3
I0403 14:56:39.350960 11329 net.cpp:141] Setting up inception_4e/3x3
I0403 14:56:39.351004 11329 net.cpp:148] Top shape: 24 320 14 14 (1505280)
I0403 14:56:39.351022 11329 net.cpp:156] Memory required for data: 1230108192
I0403 14:56:39.351040 11329 layer_factory.hpp:77] Creating layer inception_4e/relu_3x3
I0403 14:56:39.351060 11329 net.cpp:91] Creating Layer inception_4e/relu_3x3
I0403 14:56:39.351078 11329 net.cpp:425] inception_4e/relu_3x3 <- inception_4e/3x3
I0403 14:56:39.351101 11329 net.cpp:386] inception_4e/relu_3x3 -> inception_4e/3x3 (in-place)
I0403 14:56:39.351408 11329 net.cpp:141] Setting up inception_4e/relu_3x3
I0403 14:56:39.351435 11329 net.cpp:148] Top shape: 24 320 14 14 (1505280)
I0403 14:56:39.351451 11329 net.cpp:156] Memory required for data: 1236129312
I0403 14:56:39.351467 11329 layer_factory.hpp:77] Creating layer inception_4e/5x5_reduce
I0403 14:56:39.351490 11329 net.cpp:91] Creating Layer inception_4e/5x5_reduce
I0403 14:56:39.351510 11329 net.cpp:425] inception_4e/5x5_reduce <- inception_4d/output_inception_4d/output_0_split_3
I0403 14:56:39.351542 11329 net.cpp:399] inception_4e/5x5_reduce -> inception_4e/5x5_reduce
I0403 14:56:39.352704 11329 net.cpp:141] Setting up inception_4e/5x5_reduce
I0403 14:56:39.352735 11329 net.cpp:148] Top shape: 24 32 14 14 (150528)
I0403 14:56:39.352752 11329 net.cpp:156] Memory required for data: 1236731424
I0403 14:56:39.352771 11329 layer_factory.hpp:77] Creating layer inception_4e/relu_5x5_reduce
I0403 14:56:39.352789 11329 net.cpp:91] Creating Layer inception_4e/relu_5x5_reduce
I0403 14:56:39.352805 11329 net.cpp:425] inception_4e/relu_5x5_reduce <- inception_4e/5x5_reduce
I0403 14:56:39.352825 11329 net.cpp:386] inception_4e/relu_5x5_reduce -> inception_4e/5x5_reduce (in-place)
I0403 14:56:39.353135 11329 net.cpp:141] Setting up inception_4e/relu_5x5_reduce
I0403 14:56:39.353164 11329 net.cpp:148] Top shape: 24 32 14 14 (150528)
I0403 14:56:39.353181 11329 net.cpp:156] Memory required for data: 1237333536
I0403 14:56:39.353196 11329 layer_factory.hpp:77] Creating layer inception_4e/5x5
I0403 14:56:39.353240 11329 net.cpp:91] Creating Layer inception_4e/5x5
I0403 14:56:39.353261 11329 net.cpp:425] inception_4e/5x5 <- inception_4e/5x5_reduce
I0403 14:56:39.353281 11329 net.cpp:399] inception_4e/5x5 -> inception_4e/5x5
I0403 14:56:39.355177 11329 net.cpp:141] Setting up inception_4e/5x5
I0403 14:56:39.355206 11329 net.cpp:148] Top shape: 24 128 14 14 (602112)
I0403 14:56:39.355222 11329 net.cpp:156] Memory required for data: 1239741984
I0403 14:56:39.355242 11329 layer_factory.hpp:77] Creating layer inception_4e/relu_5x5
I0403 14:56:39.355262 11329 net.cpp:91] Creating Layer inception_4e/relu_5x5
I0403 14:56:39.355280 11329 net.cpp:425] inception_4e/relu_5x5 <- inception_4e/5x5
I0403 14:56:39.355298 11329 net.cpp:386] inception_4e/relu_5x5 -> inception_4e/5x5 (in-place)
I0403 14:56:39.355499 11329 net.cpp:141] Setting up inception_4e/relu_5x5
I0403 14:56:39.355525 11329 net.cpp:148] Top shape: 24 128 14 14 (602112)
I0403 14:56:39.355540 11329 net.cpp:156] Memory required for data: 1242150432
I0403 14:56:39.355554 11329 layer_factory.hpp:77] Creating layer inception_4e/pool
I0403 14:56:39.355584 11329 net.cpp:91] Creating Layer inception_4e/pool
I0403 14:56:39.355602 11329 net.cpp:425] inception_4e/pool <- inception_4d/output_inception_4d/output_0_split_4
I0403 14:56:39.355620 11329 net.cpp:399] inception_4e/pool -> inception_4e/pool
I0403 14:56:39.355690 11329 net.cpp:141] Setting up inception_4e/pool
I0403 14:56:39.355715 11329 net.cpp:148] Top shape: 24 528 14 14 (2483712)
I0403 14:56:39.355731 11329 net.cpp:156] Memory required for data: 1252085280
I0403 14:56:39.355744 11329 layer_factory.hpp:77] Creating layer inception_4e/pool_proj
I0403 14:56:39.355768 11329 net.cpp:91] Creating Layer inception_4e/pool_proj
I0403 14:56:39.355787 11329 net.cpp:425] inception_4e/pool_proj <- inception_4e/pool
I0403 14:56:39.355804 11329 net.cpp:399] inception_4e/pool_proj -> inception_4e/pool_proj
I0403 14:56:39.357357 11329 net.cpp:141] Setting up inception_4e/pool_proj
I0403 14:56:39.357409 11329 net.cpp:148] Top shape: 24 128 14 14 (602112)
I0403 14:56:39.357425 11329 net.cpp:156] Memory required for data: 1254493728
I0403 14:56:39.357445 11329 layer_factory.hpp:77] Creating layer inception_4e/relu_pool_proj
I0403 14:56:39.357465 11329 net.cpp:91] Creating Layer inception_4e/relu_pool_proj
I0403 14:56:39.357482 11329 net.cpp:425] inception_4e/relu_pool_proj <- inception_4e/pool_proj
I0403 14:56:39.357499 11329 net.cpp:386] inception_4e/relu_pool_proj -> inception_4e/pool_proj (in-place)
I0403 14:56:39.357792 11329 net.cpp:141] Setting up inception_4e/relu_pool_proj
I0403 14:56:39.357820 11329 net.cpp:148] Top shape: 24 128 14 14 (602112)
I0403 14:56:39.357836 11329 net.cpp:156] Memory required for data: 1256902176
I0403 14:56:39.357849 11329 layer_factory.hpp:77] Creating layer inception_4e/output
I0403 14:56:39.357868 11329 net.cpp:91] Creating Layer inception_4e/output
I0403 14:56:39.357885 11329 net.cpp:425] inception_4e/output <- inception_4e/1x1
I0403 14:56:39.357903 11329 net.cpp:425] inception_4e/output <- inception_4e/3x3
I0403 14:56:39.357918 11329 net.cpp:425] inception_4e/output <- inception_4e/5x5
I0403 14:56:39.357934 11329 net.cpp:425] inception_4e/output <- inception_4e/pool_proj
I0403 14:56:39.357951 11329 net.cpp:399] inception_4e/output -> inception_4e/output
I0403 14:56:39.358002 11329 net.cpp:141] Setting up inception_4e/output
I0403 14:56:39.358026 11329 net.cpp:148] Top shape: 24 832 14 14 (3913728)
I0403 14:56:39.358041 11329 net.cpp:156] Memory required for data: 1272557088
I0403 14:56:39.358054 11329 layer_factory.hpp:77] Creating layer pool4/3x3_s2
I0403 14:56:39.358072 11329 net.cpp:91] Creating Layer pool4/3x3_s2
I0403 14:56:39.358088 11329 net.cpp:425] pool4/3x3_s2 <- inception_4e/output
I0403 14:56:39.358116 11329 net.cpp:399] pool4/3x3_s2 -> pool4/3x3_s2
I0403 14:56:39.358186 11329 net.cpp:141] Setting up pool4/3x3_s2
I0403 14:56:39.358211 11329 net.cpp:148] Top shape: 24 832 7 7 (978432)
I0403 14:56:39.358224 11329 net.cpp:156] Memory required for data: 1276470816
I0403 14:56:39.358239 11329 layer_factory.hpp:77] Creating layer pool4/3x3_s2_pool4/3x3_s2_0_split
I0403 14:56:39.358259 11329 net.cpp:91] Creating Layer pool4/3x3_s2_pool4/3x3_s2_0_split
I0403 14:56:39.358276 11329 net.cpp:425] pool4/3x3_s2_pool4/3x3_s2_0_split <- pool4/3x3_s2
I0403 14:56:39.358295 11329 net.cpp:399] pool4/3x3_s2_pool4/3x3_s2_0_split -> pool4/3x3_s2_pool4/3x3_s2_0_split_0
I0403 14:56:39.358317 11329 net.cpp:399] pool4/3x3_s2_pool4/3x3_s2_0_split -> pool4/3x3_s2_pool4/3x3_s2_0_split_1
I0403 14:56:39.358337 11329 net.cpp:399] pool4/3x3_s2_pool4/3x3_s2_0_split -> pool4/3x3_s2_pool4/3x3_s2_0_split_2
I0403 14:56:39.358357 11329 net.cpp:399] pool4/3x3_s2_pool4/3x3_s2_0_split -> pool4/3x3_s2_pool4/3x3_s2_0_split_3
I0403 14:56:39.358446 11329 net.cpp:141] Setting up pool4/3x3_s2_pool4/3x3_s2_0_split
I0403 14:56:39.358471 11329 net.cpp:148] Top shape: 24 832 7 7 (978432)
I0403 14:56:39.358489 11329 net.cpp:148] Top shape: 24 832 7 7 (978432)
I0403 14:56:39.358505 11329 net.cpp:148] Top shape: 24 832 7 7 (978432)
I0403 14:56:39.358518 11329 net.cpp:148] Top shape: 24 832 7 7 (978432)
I0403 14:56:39.358532 11329 net.cpp:156] Memory required for data: 1292125728
I0403 14:56:39.358546 11329 layer_factory.hpp:77] Creating layer inception_5a/1x1
I0403 14:56:39.358566 11329 net.cpp:91] Creating Layer inception_5a/1x1
I0403 14:56:39.358583 11329 net.cpp:425] inception_5a/1x1 <- pool4/3x3_s2_pool4/3x3_s2_0_split_0
I0403 14:56:39.358603 11329 net.cpp:399] inception_5a/1x1 -> inception_5a/1x1
I0403 14:56:39.361690 11329 net.cpp:141] Setting up inception_5a/1x1
I0403 14:56:39.361721 11329 net.cpp:148] Top shape: 24 256 7 7 (301056)
I0403 14:56:39.361737 11329 net.cpp:156] Memory required for data: 1293329952
I0403 14:56:39.361754 11329 layer_factory.hpp:77] Creating layer inception_5a/relu_1x1
I0403 14:56:39.361771 11329 net.cpp:91] Creating Layer inception_5a/relu_1x1
I0403 14:56:39.361788 11329 net.cpp:425] inception_5a/relu_1x1 <- inception_5a/1x1
I0403 14:56:39.361804 11329 net.cpp:386] inception_5a/relu_1x1 -> inception_5a/1x1 (in-place)
I0403 14:56:39.362130 11329 net.cpp:141] Setting up inception_5a/relu_1x1
I0403 14:56:39.362165 11329 net.cpp:148] Top shape: 24 256 7 7 (301056)
I0403 14:56:39.362180 11329 net.cpp:156] Memory required for data: 1294534176
I0403 14:56:39.362195 11329 layer_factory.hpp:77] Creating layer inception_5a/3x3_reduce
I0403 14:56:39.362217 11329 net.cpp:91] Creating Layer inception_5a/3x3_reduce
I0403 14:56:39.362234 11329 net.cpp:425] inception_5a/3x3_reduce <- pool4/3x3_s2_pool4/3x3_s2_0_split_1
I0403 14:56:39.362253 11329 net.cpp:399] inception_5a/3x3_reduce -> inception_5a/3x3_reduce
I0403 14:56:39.364774 11329 net.cpp:141] Setting up inception_5a/3x3_reduce
I0403 14:56:39.364804 11329 net.cpp:148] Top shape: 24 160 7 7 (188160)
I0403 14:56:39.364819 11329 net.cpp:156] Memory required for data: 1295286816
I0403 14:56:39.364835 11329 layer_factory.hpp:77] Creating layer inception_5a/relu_3x3_reduce
I0403 14:56:39.364856 11329 net.cpp:91] Creating Layer inception_5a/relu_3x3_reduce
I0403 14:56:39.364872 11329 net.cpp:425] inception_5a/relu_3x3_reduce <- inception_5a/3x3_reduce
I0403 14:56:39.364889 11329 net.cpp:386] inception_5a/relu_3x3_reduce -> inception_5a/3x3_reduce (in-place)
I0403 14:56:39.365067 11329 net.cpp:141] Setting up inception_5a/relu_3x3_reduce
I0403 14:56:39.365102 11329 net.cpp:148] Top shape: 24 160 7 7 (188160)
I0403 14:56:39.365118 11329 net.cpp:156] Memory required for data: 1296039456
I0403 14:56:39.365134 11329 layer_factory.hpp:77] Creating layer inception_5a/3x3
I0403 14:56:39.365155 11329 net.cpp:91] Creating Layer inception_5a/3x3
I0403 14:56:39.365173 11329 net.cpp:425] inception_5a/3x3 <- inception_5a/3x3_reduce
I0403 14:56:39.365192 11329 net.cpp:399] inception_5a/3x3 -> inception_5a/3x3
I0403 14:56:39.370228 11329 net.cpp:141] Setting up inception_5a/3x3
I0403 14:56:39.370257 11329 net.cpp:148] Top shape: 24 320 7 7 (376320)
I0403 14:56:39.370273 11329 net.cpp:156] Memory required for data: 1297544736
I0403 14:56:39.370291 11329 layer_factory.hpp:77] Creating layer inception_5a/relu_3x3
I0403 14:56:39.370311 11329 net.cpp:91] Creating Layer inception_5a/relu_3x3
I0403 14:56:39.370328 11329 net.cpp:425] inception_5a/relu_3x3 <- inception_5a/3x3
I0403 14:56:39.370347 11329 net.cpp:386] inception_5a/relu_3x3 -> inception_5a/3x3 (in-place)
I0403 14:56:39.370641 11329 net.cpp:141] Setting up inception_5a/relu_3x3
I0403 14:56:39.370667 11329 net.cpp:148] Top shape: 24 320 7 7 (376320)
I0403 14:56:39.370682 11329 net.cpp:156] Memory required for data: 1299050016
I0403 14:56:39.370697 11329 layer_factory.hpp:77] Creating layer inception_5a/5x5_reduce
I0403 14:56:39.370723 11329 net.cpp:91] Creating Layer inception_5a/5x5_reduce
I0403 14:56:39.370740 11329 net.cpp:425] inception_5a/5x5_reduce <- pool4/3x3_s2_pool4/3x3_s2_0_split_2
I0403 14:56:39.370760 11329 net.cpp:399] inception_5a/5x5_reduce -> inception_5a/5x5_reduce
I0403 14:56:39.371996 11329 net.cpp:141] Setting up inception_5a/5x5_reduce
I0403 14:56:39.372028 11329 net.cpp:148] Top shape: 24 32 7 7 (37632)
I0403 14:56:39.372045 11329 net.cpp:156] Memory required for data: 1299200544
I0403 14:56:39.372063 11329 layer_factory.hpp:77] Creating layer inception_5a/relu_5x5_reduce
I0403 14:56:39.372081 11329 net.cpp:91] Creating Layer inception_5a/relu_5x5_reduce
I0403 14:56:39.372109 11329 net.cpp:425] inception_5a/relu_5x5_reduce <- inception_5a/5x5_reduce
I0403 14:56:39.372133 11329 net.cpp:386] inception_5a/relu_5x5_reduce -> inception_5a/5x5_reduce (in-place)
I0403 14:56:39.372438 11329 net.cpp:141] Setting up inception_5a/relu_5x5_reduce
I0403 14:56:39.372467 11329 net.cpp:148] Top shape: 24 32 7 7 (37632)
I0403 14:56:39.372481 11329 net.cpp:156] Memory required for data: 1299351072
I0403 14:56:39.372498 11329 layer_factory.hpp:77] Creating layer inception_5a/5x5
I0403 14:56:39.372519 11329 net.cpp:91] Creating Layer inception_5a/5x5
I0403 14:56:39.372537 11329 net.cpp:425] inception_5a/5x5 <- inception_5a/5x5_reduce
I0403 14:56:39.372558 11329 net.cpp:399] inception_5a/5x5 -> inception_5a/5x5
I0403 14:56:39.374285 11329 net.cpp:141] Setting up inception_5a/5x5
I0403 14:56:39.374326 11329 net.cpp:148] Top shape: 24 128 7 7 (150528)
I0403 14:56:39.374343 11329 net.cpp:156] Memory required for data: 1299953184
I0403 14:56:39.374361 11329 layer_factory.hpp:77] Creating layer inception_5a/relu_5x5
I0403 14:56:39.374382 11329 net.cpp:91] Creating Layer inception_5a/relu_5x5
I0403 14:56:39.374399 11329 net.cpp:425] inception_5a/relu_5x5 <- inception_5a/5x5
I0403 14:56:39.374418 11329 net.cpp:386] inception_5a/relu_5x5 -> inception_5a/5x5 (in-place)
I0403 14:56:39.374608 11329 net.cpp:141] Setting up inception_5a/relu_5x5
I0403 14:56:39.374634 11329 net.cpp:148] Top shape: 24 128 7 7 (150528)
I0403 14:56:39.374649 11329 net.cpp:156] Memory required for data: 1300555296
I0403 14:56:39.374663 11329 layer_factory.hpp:77] Creating layer inception_5a/pool
I0403 14:56:39.374682 11329 net.cpp:91] Creating Layer inception_5a/pool
I0403 14:56:39.374698 11329 net.cpp:425] inception_5a/pool <- pool4/3x3_s2_pool4/3x3_s2_0_split_3
I0403 14:56:39.374717 11329 net.cpp:399] inception_5a/pool -> inception_5a/pool
I0403 14:56:39.374788 11329 net.cpp:141] Setting up inception_5a/pool
I0403 14:56:39.374812 11329 net.cpp:148] Top shape: 24 832 7 7 (978432)
I0403 14:56:39.374827 11329 net.cpp:156] Memory required for data: 1304469024
I0403 14:56:39.374842 11329 layer_factory.hpp:77] Creating layer inception_5a/pool_proj
I0403 14:56:39.374866 11329 net.cpp:91] Creating Layer inception_5a/pool_proj
I0403 14:56:39.374886 11329 net.cpp:425] inception_5a/pool_proj <- inception_5a/pool
I0403 14:56:39.374904 11329 net.cpp:399] inception_5a/pool_proj -> inception_5a/pool_proj
I0403 14:56:39.377192 11329 net.cpp:141] Setting up inception_5a/pool_proj
I0403 14:56:39.377223 11329 net.cpp:148] Top shape: 24 128 7 7 (150528)
I0403 14:56:39.377238 11329 net.cpp:156] Memory required for data: 1305071136
I0403 14:56:39.377256 11329 layer_factory.hpp:77] Creating layer inception_5a/relu_pool_proj
I0403 14:56:39.377277 11329 net.cpp:91] Creating Layer inception_5a/relu_pool_proj
I0403 14:56:39.377295 11329 net.cpp:425] inception_5a/relu_pool_proj <- inception_5a/pool_proj
I0403 14:56:39.377312 11329 net.cpp:386] inception_5a/relu_pool_proj -> inception_5a/pool_proj (in-place)
I0403 14:56:39.377611 11329 net.cpp:141] Setting up inception_5a/relu_pool_proj
I0403 14:56:39.377638 11329 net.cpp:148] Top shape: 24 128 7 7 (150528)
I0403 14:56:39.377653 11329 net.cpp:156] Memory required for data: 1305673248
I0403 14:56:39.377668 11329 layer_factory.hpp:77] Creating layer inception_5a/output
I0403 14:56:39.377686 11329 net.cpp:91] Creating Layer inception_5a/output
I0403 14:56:39.377702 11329 net.cpp:425] inception_5a/output <- inception_5a/1x1
I0403 14:56:39.377719 11329 net.cpp:425] inception_5a/output <- inception_5a/3x3
I0403 14:56:39.377735 11329 net.cpp:425] inception_5a/output <- inception_5a/5x5
I0403 14:56:39.377750 11329 net.cpp:425] inception_5a/output <- inception_5a/pool_proj
I0403 14:56:39.377768 11329 net.cpp:399] inception_5a/output -> inception_5a/output
I0403 14:56:39.377817 11329 net.cpp:141] Setting up inception_5a/output
I0403 14:56:39.377841 11329 net.cpp:148] Top shape: 24 832 7 7 (978432)
I0403 14:56:39.377856 11329 net.cpp:156] Memory required for data: 1309586976
I0403 14:56:39.377871 11329 layer_factory.hpp:77] Creating layer inception_5a/output_inception_5a/output_0_split
I0403 14:56:39.377888 11329 net.cpp:91] Creating Layer inception_5a/output_inception_5a/output_0_split
I0403 14:56:39.377904 11329 net.cpp:425] inception_5a/output_inception_5a/output_0_split <- inception_5a/output
I0403 14:56:39.377924 11329 net.cpp:399] inception_5a/output_inception_5a/output_0_split -> inception_5a/output_inception_5a/output_0_split_0
I0403 14:56:39.377945 11329 net.cpp:399] inception_5a/output_inception_5a/output_0_split -> inception_5a/output_inception_5a/output_0_split_1
I0403 14:56:39.377966 11329 net.cpp:399] inception_5a/output_inception_5a/output_0_split -> inception_5a/output_inception_5a/output_0_split_2
I0403 14:56:39.377986 11329 net.cpp:399] inception_5a/output_inception_5a/output_0_split -> inception_5a/output_inception_5a/output_0_split_3
I0403 14:56:39.378104 11329 net.cpp:141] Setting up inception_5a/output_inception_5a/output_0_split
I0403 14:56:39.378129 11329 net.cpp:148] Top shape: 24 832 7 7 (978432)
I0403 14:56:39.378146 11329 net.cpp:148] Top shape: 24 832 7 7 (978432)
I0403 14:56:39.378161 11329 net.cpp:148] Top shape: 24 832 7 7 (978432)
I0403 14:56:39.378188 11329 net.cpp:148] Top shape: 24 832 7 7 (978432)
I0403 14:56:39.378201 11329 net.cpp:156] Memory required for data: 1325241888
I0403 14:56:39.378216 11329 layer_factory.hpp:77] Creating layer inception_5b/1x1
I0403 14:56:39.378237 11329 net.cpp:91] Creating Layer inception_5b/1x1
I0403 14:56:39.378254 11329 net.cpp:425] inception_5b/1x1 <- inception_5a/output_inception_5a/output_0_split_0
I0403 14:56:39.378276 11329 net.cpp:399] inception_5b/1x1 -> inception_5b/1x1
I0403 14:56:39.381971 11329 net.cpp:141] Setting up inception_5b/1x1
I0403 14:56:39.382000 11329 net.cpp:148] Top shape: 24 384 7 7 (451584)
I0403 14:56:39.382015 11329 net.cpp:156] Memory required for data: 1327048224
I0403 14:56:39.382032 11329 layer_factory.hpp:77] Creating layer inception_5b/relu_1x1
I0403 14:56:39.382052 11329 net.cpp:91] Creating Layer inception_5b/relu_1x1
I0403 14:56:39.382069 11329 net.cpp:425] inception_5b/relu_1x1 <- inception_5b/1x1
I0403 14:56:39.382087 11329 net.cpp:386] inception_5b/relu_1x1 -> inception_5b/1x1 (in-place)
I0403 14:56:39.382400 11329 net.cpp:141] Setting up inception_5b/relu_1x1
I0403 14:56:39.382426 11329 net.cpp:148] Top shape: 24 384 7 7 (451584)
I0403 14:56:39.382441 11329 net.cpp:156] Memory required for data: 1328854560
I0403 14:56:39.382455 11329 layer_factory.hpp:77] Creating layer inception_5b/3x3_reduce
I0403 14:56:39.382477 11329 net.cpp:91] Creating Layer inception_5b/3x3_reduce
I0403 14:56:39.382494 11329 net.cpp:425] inception_5b/3x3_reduce <- inception_5a/output_inception_5a/output_0_split_1
I0403 14:56:39.382519 11329 net.cpp:399] inception_5b/3x3_reduce -> inception_5b/3x3_reduce
I0403 14:56:39.385113 11329 net.cpp:141] Setting up inception_5b/3x3_reduce
I0403 14:56:39.385143 11329 net.cpp:148] Top shape: 24 192 7 7 (225792)
I0403 14:56:39.385159 11329 net.cpp:156] Memory required for data: 1329757728
I0403 14:56:39.385177 11329 layer_factory.hpp:77] Creating layer inception_5b/relu_3x3_reduce
I0403 14:56:39.385197 11329 net.cpp:91] Creating Layer inception_5b/relu_3x3_reduce
I0403 14:56:39.385215 11329 net.cpp:425] inception_5b/relu_3x3_reduce <- inception_5b/3x3_reduce
I0403 14:56:39.385231 11329 net.cpp:386] inception_5b/relu_3x3_reduce -> inception_5b/3x3_reduce (in-place)
I0403 14:56:39.385416 11329 net.cpp:141] Setting up inception_5b/relu_3x3_reduce
I0403 14:56:39.385443 11329 net.cpp:148] Top shape: 24 192 7 7 (225792)
I0403 14:56:39.385457 11329 net.cpp:156] Memory required for data: 1330660896
I0403 14:56:39.385473 11329 layer_factory.hpp:77] Creating layer inception_5b/3x3
I0403 14:56:39.385505 11329 net.cpp:91] Creating Layer inception_5b/3x3
I0403 14:56:39.385521 11329 net.cpp:425] inception_5b/3x3 <- inception_5b/3x3_reduce
I0403 14:56:39.385541 11329 net.cpp:399] inception_5b/3x3 -> inception_5b/3x3
I0403 14:56:39.392310 11329 net.cpp:141] Setting up inception_5b/3x3
I0403 14:56:39.392341 11329 net.cpp:148] Top shape: 24 384 7 7 (451584)
I0403 14:56:39.392359 11329 net.cpp:156] Memory required for data: 1332467232
I0403 14:56:39.392376 11329 layer_factory.hpp:77] Creating layer inception_5b/relu_3x3
I0403 14:56:39.392397 11329 net.cpp:91] Creating Layer inception_5b/relu_3x3
I0403 14:56:39.392416 11329 net.cpp:425] inception_5b/relu_3x3 <- inception_5b/3x3
I0403 14:56:39.392432 11329 net.cpp:386] inception_5b/relu_3x3 -> inception_5b/3x3 (in-place)
I0403 14:56:39.392734 11329 net.cpp:141] Setting up inception_5b/relu_3x3
I0403 14:56:39.392760 11329 net.cpp:148] Top shape: 24 384 7 7 (451584)
I0403 14:56:39.392776 11329 net.cpp:156] Memory required for data: 1334273568
I0403 14:56:39.392791 11329 layer_factory.hpp:77] Creating layer inception_5b/5x5_reduce
I0403 14:56:39.392830 11329 net.cpp:91] Creating Layer inception_5b/5x5_reduce
I0403 14:56:39.392849 11329 net.cpp:425] inception_5b/5x5_reduce <- inception_5a/output_inception_5a/output_0_split_2
I0403 14:56:39.392870 11329 net.cpp:399] inception_5b/5x5_reduce -> inception_5b/5x5_reduce
I0403 14:56:39.394150 11329 net.cpp:141] Setting up inception_5b/5x5_reduce
I0403 14:56:39.394179 11329 net.cpp:148] Top shape: 24 48 7 7 (56448)
I0403 14:56:39.394194 11329 net.cpp:156] Memory required for data: 1334499360
I0403 14:56:39.394213 11329 layer_factory.hpp:77] Creating layer inception_5b/relu_5x5_reduce
I0403 14:56:39.394234 11329 net.cpp:91] Creating Layer inception_5b/relu_5x5_reduce
I0403 14:56:39.394253 11329 net.cpp:425] inception_5b/relu_5x5_reduce <- inception_5b/5x5_reduce
I0403 14:56:39.394270 11329 net.cpp:386] inception_5b/relu_5x5_reduce -> inception_5b/5x5_reduce (in-place)
I0403 14:56:39.394639 11329 net.cpp:141] Setting up inception_5b/relu_5x5_reduce
I0403 14:56:39.394665 11329 net.cpp:148] Top shape: 24 48 7 7 (56448)
I0403 14:56:39.394680 11329 net.cpp:156] Memory required for data: 1334725152
I0403 14:56:39.394695 11329 layer_factory.hpp:77] Creating layer inception_5b/5x5
I0403 14:56:39.394716 11329 net.cpp:91] Creating Layer inception_5b/5x5
I0403 14:56:39.394732 11329 net.cpp:425] inception_5b/5x5 <- inception_5b/5x5_reduce
I0403 14:56:39.394752 11329 net.cpp:399] inception_5b/5x5 -> inception_5b/5x5
I0403 14:56:39.396922 11329 net.cpp:141] Setting up inception_5b/5x5
I0403 14:56:39.396955 11329 net.cpp:148] Top shape: 24 128 7 7 (150528)
I0403 14:56:39.396971 11329 net.cpp:156] Memory required for data: 1335327264
I0403 14:56:39.396991 11329 layer_factory.hpp:77] Creating layer inception_5b/relu_5x5
I0403 14:56:39.397009 11329 net.cpp:91] Creating Layer inception_5b/relu_5x5
I0403 14:56:39.397025 11329 net.cpp:425] inception_5b/relu_5x5 <- inception_5b/5x5
I0403 14:56:39.397042 11329 net.cpp:386] inception_5b/relu_5x5 -> inception_5b/5x5 (in-place)
I0403 14:56:39.397250 11329 net.cpp:141] Setting up inception_5b/relu_5x5
I0403 14:56:39.397276 11329 net.cpp:148] Top shape: 24 128 7 7 (150528)
I0403 14:56:39.397291 11329 net.cpp:156] Memory required for data: 1335929376
I0403 14:56:39.397307 11329 layer_factory.hpp:77] Creating layer inception_5b/pool
I0403 14:56:39.397325 11329 net.cpp:91] Creating Layer inception_5b/pool
I0403 14:56:39.397343 11329 net.cpp:425] inception_5b/pool <- inception_5a/output_inception_5a/output_0_split_3
I0403 14:56:39.397364 11329 net.cpp:399] inception_5b/pool -> inception_5b/pool
I0403 14:56:39.397439 11329 net.cpp:141] Setting up inception_5b/pool
I0403 14:56:39.397467 11329 net.cpp:148] Top shape: 24 832 7 7 (978432)
I0403 14:56:39.397482 11329 net.cpp:156] Memory required for data: 1339843104
I0403 14:56:39.397497 11329 layer_factory.hpp:77] Creating layer inception_5b/pool_proj
I0403 14:56:39.397519 11329 net.cpp:91] Creating Layer inception_5b/pool_proj
I0403 14:56:39.397536 11329 net.cpp:425] inception_5b/pool_proj <- inception_5b/pool
I0403 14:56:39.397555 11329 net.cpp:399] inception_5b/pool_proj -> inception_5b/pool_proj
I0403 14:56:39.399925 11329 net.cpp:141] Setting up inception_5b/pool_proj
I0403 14:56:39.399956 11329 net.cpp:148] Top shape: 24 128 7 7 (150528)
I0403 14:56:39.399973 11329 net.cpp:156] Memory required for data: 1340445216
I0403 14:56:39.399992 11329 layer_factory.hpp:77] Creating layer inception_5b/relu_pool_proj
I0403 14:56:39.400013 11329 net.cpp:91] Creating Layer inception_5b/relu_pool_proj
I0403 14:56:39.400030 11329 net.cpp:425] inception_5b/relu_pool_proj <- inception_5b/pool_proj
I0403 14:56:39.400048 11329 net.cpp:386] inception_5b/relu_pool_proj -> inception_5b/pool_proj (in-place)
I0403 14:56:39.400363 11329 net.cpp:141] Setting up inception_5b/relu_pool_proj
I0403 14:56:39.400393 11329 net.cpp:148] Top shape: 24 128 7 7 (150528)
I0403 14:56:39.400408 11329 net.cpp:156] Memory required for data: 1341047328
I0403 14:56:39.400424 11329 layer_factory.hpp:77] Creating layer inception_5b/output
I0403 14:56:39.400444 11329 net.cpp:91] Creating Layer inception_5b/output
I0403 14:56:39.400478 11329 net.cpp:425] inception_5b/output <- inception_5b/1x1
I0403 14:56:39.400497 11329 net.cpp:425] inception_5b/output <- inception_5b/3x3
I0403 14:56:39.400514 11329 net.cpp:425] inception_5b/output <- inception_5b/5x5
I0403 14:56:39.400532 11329 net.cpp:425] inception_5b/output <- inception_5b/pool_proj
I0403 14:56:39.400548 11329 net.cpp:399] inception_5b/output -> inception_5b/output
I0403 14:56:39.400604 11329 net.cpp:141] Setting up inception_5b/output
I0403 14:56:39.400629 11329 net.cpp:148] Top shape: 24 1024 7 7 (1204224)
I0403 14:56:39.400645 11329 net.cpp:156] Memory required for data: 1345864224
I0403 14:56:39.400660 11329 layer_factory.hpp:77] Creating layer pool5/7x7_s1
I0403 14:56:39.400677 11329 net.cpp:91] Creating Layer pool5/7x7_s1
I0403 14:56:39.400694 11329 net.cpp:425] pool5/7x7_s1 <- inception_5b/output
I0403 14:56:39.400715 11329 net.cpp:399] pool5/7x7_s1 -> pool5/7x7_s1
I0403 14:56:39.400938 11329 net.cpp:141] Setting up pool5/7x7_s1
I0403 14:56:39.400967 11329 net.cpp:148] Top shape: 24 1024 1 1 (24576)
I0403 14:56:39.400984 11329 net.cpp:156] Memory required for data: 1345962528
I0403 14:56:39.401000 11329 layer_factory.hpp:77] Creating layer pool5/drop_7x7_s1
I0403 14:56:39.401017 11329 net.cpp:91] Creating Layer pool5/drop_7x7_s1
I0403 14:56:39.401034 11329 net.cpp:425] pool5/drop_7x7_s1 <- pool5/7x7_s1
I0403 14:56:39.401051 11329 net.cpp:386] pool5/drop_7x7_s1 -> pool5/7x7_s1 (in-place)
I0403 14:56:39.401110 11329 net.cpp:141] Setting up pool5/drop_7x7_s1
I0403 14:56:39.401135 11329 net.cpp:148] Top shape: 24 1024 1 1 (24576)
I0403 14:56:39.401150 11329 net.cpp:156] Memory required for data: 1346060832
I0403 14:56:39.401165 11329 layer_factory.hpp:77] Creating layer loss3/classifier_plantvillage
I0403 14:56:39.401187 11329 net.cpp:91] Creating Layer loss3/classifier_plantvillage
I0403 14:56:39.401204 11329 net.cpp:425] loss3/classifier_plantvillage <- pool5/7x7_s1
I0403 14:56:39.401224 11329 net.cpp:399] loss3/classifier_plantvillage -> loss3/classifier_plantvillage
I0403 14:56:39.401660 11329 net.cpp:141] Setting up loss3/classifier_plantvillage
I0403 14:56:39.401686 11329 net.cpp:148] Top shape: 24 38 (912)
I0403 14:56:39.401701 11329 net.cpp:156] Memory required for data: 1346064480
I0403 14:56:39.401721 11329 layer_factory.hpp:77] Creating layer loss3/classifier_plantvillage_loss3/classifier_plantvillage_0_split
I0403 14:56:39.401739 11329 net.cpp:91] Creating Layer loss3/classifier_plantvillage_loss3/classifier_plantvillage_0_split
I0403 14:56:39.401756 11329 net.cpp:425] loss3/classifier_plantvillage_loss3/classifier_plantvillage_0_split <- loss3/classifier_plantvillage
I0403 14:56:39.401777 11329 net.cpp:399] loss3/classifier_plantvillage_loss3/classifier_plantvillage_0_split -> loss3/classifier_plantvillage_loss3/classifier_plantvillage_0_split_0
I0403 14:56:39.401799 11329 net.cpp:399] loss3/classifier_plantvillage_loss3/classifier_plantvillage_0_split -> loss3/classifier_plantvillage_loss3/classifier_plantvillage_0_split_1
I0403 14:56:39.401821 11329 net.cpp:399] loss3/classifier_plantvillage_loss3/classifier_plantvillage_0_split -> loss3/classifier_plantvillage_loss3/classifier_plantvillage_0_split_2
I0403 14:56:39.401844 11329 net.cpp:399] loss3/classifier_plantvillage_loss3/classifier_plantvillage_0_split -> loss3/classifier_plantvillage_loss3/classifier_plantvillage_0_split_3
I0403 14:56:39.401947 11329 net.cpp:141] Setting up loss3/classifier_plantvillage_loss3/classifier_plantvillage_0_split
I0403 14:56:39.401971 11329 net.cpp:148] Top shape: 24 38 (912)
I0403 14:56:39.401988 11329 net.cpp:148] Top shape: 24 38 (912)
I0403 14:56:39.402004 11329 net.cpp:148] Top shape: 24 38 (912)
I0403 14:56:39.402017 11329 net.cpp:148] Top shape: 24 38 (912)
I0403 14:56:39.402030 11329 net.cpp:156] Memory required for data: 1346079072
I0403 14:56:39.402045 11329 layer_factory.hpp:77] Creating layer loss1/loss
I0403 14:56:39.402067 11329 net.cpp:91] Creating Layer loss1/loss
I0403 14:56:39.402086 11329 net.cpp:425] loss1/loss <- loss1/classifier_plantvillage_loss1/classifier_plantvillage_0_split_0
I0403 14:56:39.402130 11329 net.cpp:425] loss1/loss <- label_data_1_split_0
…
