…
I0403 14:58:04.933607 11360 net.cpp:313] The NetState phase (1) differed from the phase (0) specified by a rule in layer data
I0403 14:58:04.934965 11360 net.cpp:49] Initializing net from parameters: 
state {
  phase: TEST
}
layer {
  name: "data"
  type: "Data"
  top: "data"
  top: "label"
  include {
    phase: TEST
  }
  transform_param {
    mirror: false
    crop_size: 224
    mean_file: "/home/mohanty/data/final_dataset/lmdb/grayscale-60-40/mean.binaryproto"
  }
  data_param {
    source: "/home/mohanty/data/final_dataset/lmdb/grayscale-60-40/test_db"
    batch_size: 24
    backend: LMDB
  }
}
layer {
  name: "conv1/7x7_s2"
  type: "Convolution"
  bottom: "data"
  top: "conv1/7x7_s2"
  param {
    lr_mult: 1
    decay_mult: 1
  }
  param {
    lr_mult: 2
    decay_mult: 0
  }
  convolution_param {
    num_output: 64
    pad: 3
    kernel_size: 7
    stride: 2
    weight_filler {
      type: "xavier"
      std: 0.1
    }
    bias_filler {
      type: "constant"
      value: 0.2
    }
  }
}
layer {
  name: "conv1/relu_7x7"
  type: "ReLU"
  bottom: "conv1/7x7_s2"
  top: "conv1/7x7_s2"
}
layer {
  name: "pool1/3x3_s2"
  type: "Pooling"
  bottom: "conv1/7x7_s2"
  top: "pool1/3x3_s2"
  pooling_param {
    pool: MAX
    kernel_size: 3
    stride: 2
  }
}
layer {
  name: "pool1/norm1"
  type: "LRN"
  bottom: "pool1/3x3_s2"
  top: "pool1/norm1"
  lrn_param {
    local_size: 5
    alpha: 0.0001
    beta: 0.75
  }
}
layer {
  name: "conv2/3x3_reduce"
  type: "Convolution"
  bottom: "pool1/norm1"
  top: "conv2/3x3_reduce"
  param {
    lr_mult: 1
    decay_mult: 1
  }
  param {
    lr_mult: 2
    decay_mult: 0
  }
  convolution_param {
    num_output: 64
    kernel_size: 1
    weight_filler {
      type: "xavier"
      std: 0.1
    }
    bias_filler {
      type: "constant"
      value: 0.2
    }
  }
}
layer {
  name: "conv2/relu_3x3_reduce"
  type: "ReLU"
  bottom: "conv2/3x3_reduce"
  top: "conv2/3x3_reduce"
}
layer {
  name: "conv2/3x3"
  type: "Convolution"
  bottom: "conv2/3x3_reduce"
  top: "conv2/3x3"
  param {
    lr_mult: 1
    decay_mult: 1
  }
  param {
    lr_mult: 2
    decay_mult: 0
  }
  convolution_param {
    num_output: 192
    pad: 1
    kernel_size: 3
    weight_filler {
      type: "xavier"
      std: 0.03
    }
    bias_filler {
      type: "constant"
      value: 0.2
    }
  }
}
layer {
  name: "conv2/relu_3x3"
  type: "ReLU"
  bottom: "conv2/3x3"
  top: "conv2/3x3"
}
layer {
  name: "conv2/norm2"
  type: "LRN"
  bottom: "conv2/3x3"
  top: "conv2/norm2"
  lrn_param {
    local_size: 5
    alpha: 0.0001
    beta: 0.75
  }
}
layer {
  name: "pool2/3x3_s2"
  type: "Pooling"
  bottom: "conv2/norm2"
  top: "pool2/3x3_s2"
  pooling_param {
    pool: MAX
    kernel_size: 3
    stride: 2
  }
}
layer {
  name: "inception_3a/1x1"
  type: "Convolution"
  bottom: "pool2/3x3_s2"
  top: "inception_3a/1x1"
  param {
    lr_mult: 1
    decay_mult: 1
  }
  param {
    lr_mult: 2
    decay_mult: 0
  }
  convolution_param {
    num_output: 64
    kernel_size: 1
    weight_filler {
      type: "xavier"
      std: 0.03
    }
    bias_filler {
      type: "constant"
      value: 0.2
    }
  }
}
layer {
  name: "inception_3a/relu_1x1"
  type: "ReLU"
  bottom: "inception_3a/1x1"
  top: "inception_3a/1x1"
}
layer {
  name: "inception_3a/3x3_reduce"
  type: "Convolution"
  bottom: "pool2/3x3_s2"
  top: "inception_3a/3x3_reduce"
  param {
    lr_mult: 1
    decay_mult: 1
  }
  param {
    lr_mult: 2
    decay_mult: 0
  }
  convolution_param {
    num_output: 96
    kernel_size: 1
    weight_filler {
      type: "xavier"
      std: 0.09
    }
    bias_filler {
      type: "constant"
      value: 0.2
    }
  }
}
layer {
  name: "inception_3a/relu_3x3_reduce"
  type: "ReLU"
  bottom: "inception_3a/3x3_reduce"
  top: "inception_3a/3x3_reduce"
}
layer {
  name: "inception_3a/3x3"
  type: "Convolution"
  bottom: "inception_3a/3x3_reduce"
  top: "inception_3a/3x3"
  param {
    lr_mult: 1
    decay_mult: 1
  }
  param {
    lr_mult: 2
    decay_mult: 0
  }
  convolution_param {
    num_output: 128
    pad: 1
    kernel_size: 3
    weight_filler {
      type: "xavier"
      std: 0.03
    }
    bias_filler {
      type: "constant"
      value: 0.2
    }
  }
}
layer {
  name: "inception_3a/relu_3x3"
  type: "ReLU"
  bottom: "inception_3a/3x3"
  top: "inception_3a/3x3"
}
layer {
  name: "inception_3a/5x5_reduce"
  type: "Convolution"
  bottom: "pool2/3x3_s2"
  top: "inception_3a/5x5_reduce"
  param {
    lr_mult: 1
    decay_mult: 1
  }
  param {
    lr_mult: 2
    decay_mult: 0
  }
  convolution_param {
    num_output: 16
    kernel_size: 1
    weight_filler {
      type: "xavier"
      std: 0.2
    }
    bias_filler {
      type: "constant"
      value: 0.2
    }
  }
}
layer {
  name: "inception_3a/relu_5x5_reduce"
  type: "ReLU"
  bottom: "inception_3a/5x5_reduce"
  top: "inception_3a/5x5_reduce"
}
layer {
  name: "inception_3a/5x5"
  type: "Convolution"
  bottom: "inception_3a/5x5_reduce"
  top: "inception_3a/5x5"
  param {
    lr_mult: 1
    decay_mult: 1
  }
  param {
    lr_mult: 2
    decay_mult: 0
  }
  convolution_param {
    num_output: 32
    pad: 2
    kernel_size: 5
    weight_filler {
      type: "xavier"
      std: 0.03
    }
    bias_filler {
      type: "constant"
      value: 0.2
    }
  }
}
layer {
  name: "inception_3a/relu_5x5"
  type: "ReLU"
  bottom: "inception_3a/5x5"
  top: "inception_3a/5x5"
}
layer {
  name: "inception_3a/pool"
  type: "Pooling"
  bottom: "pool2/3x3_s2"
  top: "inception_3a/pool"
  pooling_param {
    pool: MAX
    kernel_size: 3
    stride: 1
    pad: 1
  }
}
layer {
  name: "inception_3a/pool_proj"
  type: "Convolution"
  bottom: "inception_3a/pool"
  top: "inception_3a/pool_proj"
  param {
    lr_mult: 1
    decay_mult: 1
  }
  param {
    lr_mult: 2
    decay_mult: 0
  }
  convolution_param {
    num_output: 32
    kernel_size: 1
    weight_filler {
      type: "xavier"
      std: 0.1
    }
    bias_filler {
      type: "constant"
      value: 0.2
    }
  }
}
layer {
  name: "inception_3a/relu_pool_proj"
  type: "ReLU"
  bottom: "inception_3a/pool_proj"
  top: "inception_3a/pool_proj"
}
layer {
  name: "inception_3a/output"
  type: "Concat"
  bottom: "inception_3a/1x1"
  bottom: "inception_3a/3x3"
  bottom: "inception_3a/5x5"
  bottom: "inception_3a/pool_proj"
  top: "inception_3a/output"
}
layer {
  name: "inception_3b/1x1"
  type: "Convolution"
  bottom: "inception_3a/output"
  top: "inception_3b/1x1"
  param {
    lr_mult: 1
    decay_mult: 1
  }
  param {
    lr_mult: 2
    decay_mult: 0
  }
  convolution_param {
    num_output: 128
    kernel_size: 1
    weight_filler {
      type: "xavier"
      std: 0.03
    }
    bias_filler {
      type: "constant"
      value: 0.2
    }
  }
}
layer {
  name: "inception_3b/relu_1x1"
  type: "ReLU"
  bottom: "inception_3b/1x1"
  top: "inception_3b/1x1"
}
layer {
  name: "inception_3b/3x3_reduce"
  type: "Convolution"
  bottom: "inception_3a/output"
  top: "inception_3b/3x3_reduce"
  param {
    lr_mult: 1
    decay_mult: 1
  }
  param {
    lr_mult: 2
    decay_mult: 0
  }
  convolution_param {
    num_output: 128
    kernel_size: 1
    weight_filler {
      type: "xavier"
      std: 0.09
    }
    bias_filler {
      type: "constant"
      value: 0.2
    }
  }
}
layer {
  name: "inception_3b/relu_3x3_reduce"
  type: "ReLU"
  bottom: "inception_3b/3x3_reduce"
  top: "inception_3b/3x3_reduce"
}
layer {
  name: "inception_3b/3x3"
  type: "Convolution"
  bottom: "inception_3b/3x3_reduce"
  top: "inception_3b/3x3"
  param {
    lr_mult: 1
    decay_mult: 1
  }
  param {
    lr_mult: 2
    decay_mult: 0
  }
  convolution_param {
    num_output: 192
    pad: 1
    kernel_size: 3
    weight_filler {
      type: "xavier"
      std: 0.03
    }
    bias_filler {
      type: "constant"
      value: 0.2
    }
  }
}
layer {
  name: "inception_3b/relu_3x3"
  type: "ReLU"
  bottom: "inception_3b/3x3"
  top: "inception_3b/3x3"
}
layer {
  name: "inception_3b/5x5_reduce"
  type: "Convolution"
  bottom: "inception_3a/output"
  top: "inception_3b/5x5_reduce"
  param {
    lr_mult: 1
    decay_mult: 1
  }
  param {
    lr_mult: 2
    decay_mult: 0
  }
  convolution_param {
    num_output: 32
    kernel_size: 1
    weight_filler {
      type: "xavier"
      std: 0.2
    }
    bias_filler {
      type: "constant"
      value: 0.2
    }
  }
}
layer {
  name: "inception_3b/relu_5x5_reduce"
  type: "ReLU"
  bottom: "inception_3b/5x5_reduce"
  top: "inception_3b/5x5_reduce"
}
layer {
  name: "inception_3b/5x5"
  type: "Convolution"
  bottom: "inception_3b/5x5_reduce"
  top: "inception_3b/5x5"
  param {
    lr_mult: 1
    decay_mult: 1
  }
  param {
    lr_mult: 2
    decay_mult: 0
  }
  convolution_param {
    num_output: 96
    pad: 2
    kernel_size: 5
    weight_filler {
      type: "xavier"
      std: 0.03
    }
    bias_filler {
      type: "constant"
      value: 0.2
    }
  }
}
layer {
  name: "inception_3b/relu_5x5"
  type: "ReLU"
  bottom: "inception_3b/5x5"
  top: "inception_3b/5x5"
}
layer {
  name: "inception_3b/pool"
  type: "Pooling"
  bottom: "inception_3a/output"
  top: "inception_3b/pool"
  pooling_param {
    pool: MAX
    kernel_size: 3
    stride: 1
    pad: 1
  }
}
layer {
  name: "inception_3b/pool_proj"
  type: "Convolution"
  bottom: "inception_3b/pool"
  top: "inception_3b/pool_proj"
  param {
    lr_mult: 1
    decay_mult: 1
  }
  param {
    lr_mult: 2
    decay_mult: 0
  }
  convolution_param {
    num_output: 64
    kernel_size: 1
    weight_filler {
      type: "xavier"
      std: 0.1
    }
    bias_filler {
      type: "constant"
      value: 0.2
    }
  }
}
layer {
  name: "inception_3b/relu_pool_proj"
  type: "ReLU"
  bottom: "inception_3b/pool_proj"
  top: "inception_3b/pool_proj"
}
layer {
  name: "inception_3b/output"
  type: "Concat"
  bottom: "inception_3b/1x1"
  bottom: "inception_3b/3x3"
  bottom: "inception_3b/5x5"
  bottom: "inception_3b/pool_proj"
  top: "inception_3b/output"
}
layer {
  name: "pool3/3x3_s2"
  type: "Pooling"
  bottom: "inception_3b/output"
  top: "pool3/3x3_s2"
  pooling_param {
    pool: MAX
    kernel_size: 3
    stride: 2
  }
}
layer {
  name: "inception_4a/1x1"
  type: "Convolution"
  bottom: "pool3/3x3_s2"
  top: "inception_4a/1x1"
  param {
    lr_mult: 1
    decay_mult: 1
  }
  param {
    lr_mult: 2
    decay_mult: 0
  }
  convolution_param {
    num_output: 192
    kernel_size: 1
    weight_filler {
      type: "xavier"
      std: 0.03
    }
    bias_filler {
      type: "constant"
      value: 0.2
    }
  }
}
layer {
  name: "inception_4a/relu_1x1"
  type: "ReLU"
  bottom: "inception_4a/1x1"
  top: "inception_4a/1x1"
}
layer {
  name: "inception_4a/3x3_reduce"
  type: "Convolution"
  bottom: "pool3/3x3_s2"
  top: "inception_4a/3x3_reduce"
  param {
    lr_mult: 1
    decay_mult: 1
  }
  param {
    lr_mult: 2
    decay_mult: 0
  }
  convolution_param {
    num_output: 96
    kernel_size: 1
    weight_filler {
      type: "xavier"
      std: 0.09
    }
    bias_filler {
      type: "constant"
      value: 0.2
    }
  }
}
layer {
  name: "inception_4a/relu_3x3_reduce"
  type: "ReLU"
  bottom: "inception_4a/3x3_reduce"
  top: "inception_4a/3x3_reduce"
}
layer {
  name: "inception_4a/3x3"
  type: "Convolution"
  bottom: "inception_4a/3x3_reduce"
  top: "inception_4a/3x3"
  param {
    lr_mult: 1
    decay_mult: 1
  }
  param {
    lr_mult: 2
    decay_mult: 0
  }
  convolution_param {
    num_output: 208
    pad: 1
    kernel_size: 3
    weight_filler {
      type: "xavier"
      std: 0.03
    }
    bias_filler {
      type: "constant"
      value: 0.2
    }
  }
}
layer {
  name: "inception_4a/relu_3x3"
  type: "ReLU"
  bottom: "inception_4a/3x3"
  top: "inception_4a/3x3"
}
layer {
  name: "inception_4a/5x5_reduce"
  type: "Convolution"
  bottom: "pool3/3x3_s2"
  top: "inception_4a/5x5_reduce"
  param {
    lr_mult: 1
    decay_mult: 1
  }
  param {
    lr_mult: 2
    decay_mult: 0
  }
  convolution_param {
    num_output: 16
    kernel_size: 1
    weight_filler {
      type: "xavier"
      std: 0.2
    }
    bias_filler {
      type: "constant"
      value: 0.2
    }
  }
}
layer {
  name: "inception_4a/relu_5x5_reduce"
  type: "ReLU"
  bottom: "inception_4a/5x5_reduce"
  top: "inception_4a/5x5_reduce"
}
layer {
  name: "inception_4a/5x5"
  type: "Convolution"
  bottom: "inception_4a/5x5_reduce"
  top: "inception_4a/5x5"
  param {
    lr_mult: 1
    decay_mult: 1
  }
  param {
    lr_mult: 2
    decay_mult: 0
  }
  convolution_param {
    num_output: 48
    pad: 2
    kernel_size: 5
    weight_filler {
      type: "xavier"
      std: 0.03
    }
    bias_filler {
      type: "constant"
      value: 0.2
    }
  }
}
layer {
  name: "inception_4a/relu_5x5"
  type: "ReLU"
  bottom: "inception_4a/5x5"
  top: "inception_4a/5x5"
}
layer {
  name: "inception_4a/pool"
  type: "Pooling"
  bottom: "pool3/3x3_s2"
  top: "inception_4a/pool"
  pooling_param {
    pool: MAX
    kernel_size: 3
    stride: 1
    pad: 1
  }
}
layer {
  name: "inception_4a/pool_proj"
  type: "Convolution"
  bottom: "inception_4a/pool"
  top: "inception_4a/pool_proj"
  param {
    lr_mult: 1
    decay_mult: 1
  }
  param {
    lr_mult: 2
    decay_mult: 0
  }
  convolution_param {
    num_output: 64
    kernel_size: 1
    weight_filler {
      type: "xavier"
      std: 0.1
    }
    bias_filler {
      type: "constant"
      value: 0.2
    }
  }
}
layer {
  name: "inception_4a/relu_pool_proj"
  type: "ReLU"
  bottom: "inception_4a/pool_proj"
  top: "inception_4a/pool_proj"
}
layer {
  name: "inception_4a/output"
  type: "Concat"
  bottom: "inception_4a/1x1"
  bottom: "inception_4a/3x3"
  bottom: "inception_4a/5x5"
  bottom: "inception_4a/pool_proj"
  top: "inception_4a/output"
}
layer {
  name: "loss1/ave_pool"
  type: "Pooling"
  bottom: "inception_4a/output"
  top: "loss1/ave_pool"
  pooling_param {
    pool: AVE
    kernel_size: 5
    stride: 3
  }
}
layer {
  name: "loss1/conv"
  type: "Convolution"
  bottom: "loss1/ave_pool"
  top: "loss1/conv"
  param {
    lr_mult: 1
    decay_mult: 1
  }
  param {
    lr_mult: 2
    decay_mult: 0
  }
  convolution_param {
    num_output: 128
    kernel_size: 1
    weight_filler {
      type: "xavier"
      std: 0.08
    }
    bias_filler {
      type: "constant"
      value: 0.2
    }
  }
}
layer {
  name: "loss1/relu_conv"
  type: "ReLU"
  bottom: "loss1/conv"
  top: "loss1/conv"
}
layer {
  name: "loss1/fc"
  type: "InnerProduct"
  bottom: "loss1/conv"
  top: "loss1/fc"
  param {
    lr_mult: 1
    decay_mult: 1
  }
  param {
    lr_mult: 2
    decay_mult: 0
  }
  inner_product_param {
    num_output: 1024
    weight_filler {
      type: "xavier"
      std: 0.02
    }
    bias_filler {
      type: "constant"
      value: 0.2
    }
  }
}
layer {
  name: "loss1/relu_fc"
  type: "ReLU"
  bottom: "loss1/fc"
  top: "loss1/fc"
}
layer {
  name: "loss1/drop_fc"
  type: "Dropout"
  bottom: "loss1/fc"
  top: "loss1/fc"
  dropout_param {
    dropout_ratio: 0.7
  }
}
layer {
  name: "loss1/classifier_plantvillage"
  type: "InnerProduct"
  bottom: "loss1/fc"
  top: "loss1/classifier_plantvillage"
  param {
    lr_mult: 1
    decay_mult: 1
  }
  param {
    lr_mult: 2
    decay_mult: 0
  }
  inner_product_param {
    num_output: 38
    weight_filler {
      type: "xavier"
      std: 0.0009765625
    }
    bias_filler {
      type: "constant"
      value: 0
    }
  }
}
layer {
  name: "inception_4b/1x1"
  type: "Convolution"
  bottom: "inception_4a/output"
  top: "inception_4b/1x1"
  param {
    lr_mult: 1
    decay_mult: 1
  }
  param {
    lr_mult: 2
    decay_mult: 0
  }
  convolution_param {
    num_output: 160
    kernel_size: 1
    weight_filler {
      type: "xavier"
      std: 0.03
    }
    bias_filler {
      type: "constant"
      value: 0.2
    }
  }
}
layer {
  name: "inception_4b/relu_1x1"
  type: "ReLU"
  bottom: "inception_4b/1x1"
  top: "inception_4b/1x1"
}
layer {
  name: "inception_4b/3x3_reduce"
  type: "Convolution"
  bottom: "inception_4a/output"
  top: "inception_4b/3x3_reduce"
  param {
    lr_mult: 1
    decay_mult: 1
  }
  param {
    lr_mult: 2
    decay_mult: 0
  }
  convolution_param {
    num_output: 112
    kernel_size: 1
    weight_filler {
      type: "xavier"
      std: 0.09
    }
    bias_filler {
      type: "constant"
      value: 0.2
    }
  }
}
layer {
  name: "inception_4b/relu_3x3_reduce"
  type: "ReLU"
  bottom: "inception_4b/3x3_reduce"
  top: "inception_4b/3x3_reduce"
}
layer {
  name: "inception_4b/3x3"
  type: "Convolution"
  bottom: "inception_4b/3x3_reduce"
  top: "inception_4b/3x3"
  param {
    lr_mult: 1
    decay_mult: 1
  }
  param {
    lr_mult: 2
    decay_mult: 0
  }
  convolution_param {
    num_output: 224
    pad: 1
    kernel_size: 3
    weight_filler {
      type: "xavier"
      std: 0.03
    }
    bias_filler {
      type: "constant"
      value: 0.2
    }
  }
}
layer {
  name: "inception_4b/relu_3x3"
  type: "ReLU"
  bottom: "inception_4b/3x3"
  top: "inception_4b/3x3"
}
layer {
  name: "inception_4b/5x5_reduce"
  type: "Convolution"
  bottom: "inception_4a/output"
  top: "inception_4b/5x5_reduce"
  param {
    lr_mult: 1
    decay_mult: 1
  }
  param {
    lr_mult: 2
    decay_mult: 0
  }
  convolution_param {
    num_output: 24
    kernel_size: 1
    weight_filler {
      type: "xavier"
      std: 0.2
    }
    bias_filler {
      type: "constant"
      value: 0.2
    }
  }
}
layer {
  name: "inception_4b/relu_5x5_reduce"
  type: "ReLU"
  bottom: "inception_4b/5x5_reduce"
  top: "inception_4b/5x5_reduce"
}
layer {
  name: "inception_4b/5x5"
  type: "Convolution"
  bottom: "inception_4b/5x5_reduce"
  top: "inception_4b/5x5"
  param {
    lr_mult: 1
    decay_mult: 1
  }
  param {
    lr_mult: 2
    decay_mult: 0
  }
  convolution_param {
    num_output: 64
    pad: 2
    kernel_size: 5
    weight_filler {
      type: "xavier"
      std: 0.03
    }
    bias_filler {
      type: "constant"
      value: 0.2
    }
  }
}
layer {
  name: "inception_4b/relu_5x5"
  type: "ReLU"
  bottom: "inception_4b/5x5"
  top: "inception_4b/5x5"
}
layer {
  name: "inception_4b/pool"
  type: "Pooling"
  bottom: "inception_4a/output"
  top: "inception_4b/pool"
  pooling_param {
    pool: MAX
    kernel_size: 3
    stride: 1
    pad: 1
  }
}
layer {
  name: "inception_4b/pool_proj"
  type: "Convolution"
  bottom: "inception_4b/pool"
  top: "inception_4b/pool_proj"
  param {
    lr_mult: 1
    decay_mult: 1
  }
  param {
    lr_mult: 2
    decay_mult: 0
  }
  convolution_param {
    num_output: 64
    kernel_size: 1
    weight_filler {
      type: "xavier"
      std: 0.1
    }
    bias_filler {
      type: "constant"
      value: 0.2
    }
  }
}
layer {
  name: "inception_4b/relu_pool_proj"
  type: "ReLU"
  bottom: "inception_4b/pool_proj"
  top: "inception_4b/pool_proj"
}
layer {
  name: "inception_4b/output"
  type: "Concat"
  bottom: "inception_4b/1x1"
  bottom: "inception_4b/3x3"
  bottom: "inception_4b/5x5"
  bottom: "inception_4b/pool_proj"
  top: "inception_4b/output"
}
layer {
  name: "inception_4c/1x1"
  type: "Convolution"
  bottom: "inception_4b/output"
  top: "inception_4c/1x1"
  param {
    lr_mult: 1
    decay_mult: 1
  }
  param {
    lr_mult: 2
    decay_mult: 0
  }
  convolution_param {
    num_output: 128
    kernel_size: 1
    weight_filler {
      type: "xavier"
      std: 0.03
    }
    bias_filler {
      type: "constant"
      value: 0.2
    }
  }
}
layer {
  name: "inception_4c/relu_1x1"
  type: "ReLU"
  bottom: "inception_4c/1x1"
  top: "inception_4c/1x1"
}
layer {
  name: "inception_4c/3x3_reduce"
  type: "Convolution"
  bottom: "inception_4b/output"
  top: "inception_4c/3x3_reduce"
  param {
    lr_mult: 1
    decay_mult: 1
  }
  param {
    lr_mult: 2
    decay_mult: 0
  }
  convolution_param {
    num_output: 128
    kernel_size: 1
    weight_filler {
      type: "xavier"
      std: 0.09
    }
    bias_filler {
      type: "constant"
      value: 0.2
    }
  }
}
layer {
  name: "inception_4c/relu_3x3_reduce"
  type: "ReLU"
  bottom: "inception_4c/3x3_reduce"
  top: "inception_4c/3x3_reduce"
}
layer {
  name: "inception_4c/3x3"
  type: "Convolution"
  bottom: "inception_4c/3x3_reduce"
  top: "inception_4c/3x3"
  param {
    lr_mult: 1
    decay_mult: 1
  }
  param {
    lr_mult: 2
    decay_mult: 0
  }
  convolution_param {
    num_output: 256
    pad: 1
    kernel_size: 3
    weight_filler {
      type: "xavier"
      std: 0.03
    }
    bias_filler {
      type: "constant"
      value: 0.2
    }
  }
}
layer {
  name: "inception_4c/relu_3x3"
  type: "ReLU"
  bottom: "inception_4c/3x3"
  top: "inception_4c/3x3"
}
layer {
  name: "inception_4c/5x5_reduce"
  type: "Convolution"
  bottom: "inception_4b/output"
  top: "inception_4c/5x5_reduce"
  param {
    lr_mult: 1
    decay_mult: 1
  }
  param {
    lr_mult: 2
    decay_mult: 0
  }
  convolution_param {
    num_output: 24
    kernel_size: 1
    weight_filler {
      type: "xavier"
      std: 0.2
    }
    bias_filler {
      type: "constant"
      value: 0.2
    }
  }
}
layer {
  name: "inception_4c/relu_5x5_reduce"
  type: "ReLU"
  bottom: "inception_4c/5x5_reduce"
  top: "inception_4c/5x5_reduce"
}
layer {
  name: "inception_4c/5x5"
  type: "Convolution"
  bottom: "inception_4c/5x5_reduce"
  top: "inception_4c/5x5"
  param {
    lr_mult: 1
    decay_mult: 1
  }
  param {
    lr_mult: 2
    decay_mult: 0
  }
  convolution_param {
    num_output: 64
    pad: 2
    kernel_size: 5
    weight_filler {
      type: "xavier"
      std: 0.03
    }
    bias_filler {
      type: "constant"
      value: 0.2
    }
  }
}
layer {
  name: "inception_4c/relu_5x5"
  type: "ReLU"
  bottom: "inception_4c/5x5"
  top: "inception_4c/5x5"
}
layer {
  name: "inception_4c/pool"
  type: "Pooling"
  bottom: "inception_4b/output"
  top: "inception_4c/pool"
  pooling_param {
    pool: MAX
    kernel_size: 3
    stride: 1
    pad: 1
  }
}
layer {
  name: "inception_4c/pool_proj"
  type: "Convolution"
  bottom: "inception_4c/pool"
  top: "inception_4c/pool_proj"
  param {
    lr_mult: 1
    decay_mult: 1
  }
  param {
    lr_mult: 2
    decay_mult: 0
  }
  convolution_param {
    num_output: 64
    kernel_size: 1
    weight_filler {
      type: "xavier"
      std: 0.1
    }
    bias_filler {
      type: "constant"
      value: 0.2
    }
  }
}
layer {
  name: "inception_4c/relu_pool_proj"
  type: "ReLU"
  bottom: "inception_4c/pool_proj"
  top: "inception_4c/pool_proj"
}
layer {
  name: "inception_4c/output"
  type: "Concat"
  bottom: "inception_4c/1x1"
  bottom: "inception_4c/3x3"
  bottom: "inception_4c/5x5"
  bottom: "inception_4c/pool_proj"
  top: "inception_4c/output"
}
layer {
  name: "inception_4d/1x1"
  type: "Convolution"
  bottom: "inception_4c/output"
  top: "inception_4d/1x1"
  param {
    lr_mult: 1
    decay_mult: 1
  }
  param {
    lr_mult: 2
    decay_mult: 0
  }
  convolution_param {
    num_output: 112
    kernel_size: 1
    weight_filler {
      type: "xavier"
      std: 0.03
    }
    bias_filler {
      type: "constant"
      value: 0.2
    }
  }
}
layer {
  name: "inception_4d/relu_1x1"
  type: "ReLU"
  bottom: "inception_4d/1x1"
  top: "inception_4d/1x1"
}
layer {
  name: "inception_4d/3x3_reduce"
  type: "Convolution"
  bottom: "inception_4c/output"
  top: "inception_4d/3x3_reduce"
  param {
    lr_mult: 1
    decay_mult: 1
  }
  param {
    lr_mult: 2
    decay_mult: 0
  }
  convolution_param {
    num_output: 144
    kernel_size: 1
    weight_filler {
      type: "xavier"
      std: 0.09
    }
    bias_filler {
      type: "constant"
      value: 0.2
    }
  }
}
layer {
  name: "inception_4d/relu_3x3_reduce"
  type: "ReLU"
  bottom: "inception_4d/3x3_reduce"
  top: "inception_4d/3x3_reduce"
}
layer {
  name: "inception_4d/3x3"
  type: "Convolution"
  bottom: "inception_4d/3x3_reduce"
  top: "inception_4d/3x3"
  param {
    lr_mult: 1
    decay_mult: 1
  }
  param {
    lr_mult: 2
    decay_mult: 0
  }
  convolution_param {
    num_output: 288
    pad: 1
    kernel_size: 3
    weight_filler {
      type: "xavier"
      std: 0.03
    }
    bias_filler {
      type: "constant"
      value: 0.2
    }
  }
}
layer {
  name: "inception_4d/relu_3x3"
  type: "ReLU"
  bottom: "inception_4d/3x3"
  top: "inception_4d/3x3"
}
layer {
  name: "inception_4d/5x5_reduce"
  type: "Convolution"
  bottom: "inception_4c/output"
  top: "inception_4d/5x5_reduce"
  param {
    lr_mult: 1
    decay_mult: 1
  }
  param {
    lr_mult: 2
    decay_mult: 0
  }
  convolution_param {
    num_output: 32
    kernel_size: 1
    weight_filler {
      type: "xavier"
      std: 0.2
    }
    bias_filler {
      type: "constant"
      value: 0.2
    }
  }
}
layer {
  name: "inception_4d/relu_5x5_reduce"
  type: "ReLU"
  bottom: "inception_4d/5x5_reduce"
  top: "inception_4d/5x5_reduce"
}
layer {
  name: "inception_4d/5x5"
  type: "Convolution"
  bottom: "inception_4d/5x5_reduce"
  top: "inception_4d/5x5"
  param {
    lr_mult: 1
    decay_mult: 1
  }
  param {
    lr_mult: 2
    decay_mult: 0
  }
  convolution_param {
    num_output: 64
    pad: 2
    kernel_size: 5
    weight_filler {
      type: "xavier"
      std: 0.03
    }
    bias_filler {
      type: "constant"
      value: 0.2
    }
  }
}
layer {
  name: "inception_4d/relu_5x5"
  type: "ReLU"
  bottom: "inception_4d/5x5"
  top: "inception_4d/5x5"
}
layer {
  name: "inception_4d/pool"
  type: "Pooling"
  bottom: "inception_4c/output"
  top: "inception_4d/pool"
  pooling_param {
    pool: MAX
    kernel_size: 3
    stride: 1
    pad: 1
  }
}
layer {
  name: "inception_4d/pool_proj"
  type: "Convolution"
  bottom: "inception_4d/pool"
  top: "inception_4d/pool_proj"
  param {
    lr_mult: 1
    decay_mult: 1
  }
  param {
    lr_mult: 2
    decay_mult: 0
  }
  convolution_param {
    num_output: 64
    kernel_size: 1
    weight_filler {
      type: "xavier"
      std: 0.1
    }
    bias_filler {
      type: "constant"
      value: 0.2
    }
  }
}
layer {
  name: "inception_4d/relu_pool_proj"
  type: "ReLU"
  bottom: "inception_4d/pool_proj"
  top: "inception_4d/pool_proj"
}
layer {
  name: "inception_4d/output"
  type: "Concat"
  bottom: "inception_4d/1x1"
  bottom: "inception_4d/3x3"
  bottom: "inception_4d/5x5"
  bottom: "inception_4d/pool_proj"
  top: "inception_4d/output"
}
layer {
  name: "loss2/ave_pool"
  type: "Pooling"
  bottom: "inception_4d/output"
  top: "loss2/ave_pool"
  pooling_param {
    pool: AVE
    kernel_size: 5
    stride: 3
  }
}
layer {
  name: "loss2/conv"
  type: "Convolution"
  bottom: "loss2/ave_pool"
  top: "loss2/conv"
  param {
    lr_mult: 1
    decay_mult: 1
  }
  param {
    lr_mult: 2
    decay_mult: 0
  }
  convolution_param {
    num_output: 128
    kernel_size: 1
    weight_filler {
      type: "xavier"
      std: 0.08
    }
    bias_filler {
      type: "constant"
      value: 0.2
    }
  }
}
layer {
  name: "loss2/relu_conv"
  type: "ReLU"
  bottom: "loss2/conv"
  top: "loss2/conv"
}
layer {
  name: "loss2/fc"
  type: "InnerProduct"
  bottom: "loss2/conv"
  top: "loss2/fc"
  param {
    lr_mult: 1
    decay_mult: 1
  }
  param {
    lr_mult: 2
    decay_mult: 0
  }
  inner_product_param {
    num_output: 1024
    weight_filler {
      type: "xavier"
      std: 0.02
    }
    bias_filler {
      type: "constant"
      value: 0.2
    }
  }
}
layer {
  name: "loss2/relu_fc"
  type: "ReLU"
  bottom: "loss2/fc"
  top: "loss2/fc"
}
layer {
  name: "loss2/drop_fc"
  type: "Dropout"
  bottom: "loss2/fc"
  top: "loss2/fc"
  dropout_param {
    dropout_ratio: 0.7
  }
}
layer {
  name: "loss2/classifier_plantvillage"
  type: "InnerProduct"
  bottom: "loss2/fc"
  top: "loss2/classifier_plantvillage"
  param {
    lr_mult: 1
    decay_mult: 1
  }
  param {
    lr_mult: 2
    decay_mult: 0
  }
  inner_product_param {
    num_output: 38
    weight_filler {
      type: "xavier"
      std: 0.0009765625
    }
    bias_filler {
      type: "constant"
      value: 0
    }
  }
}
layer {
  name: "inception_4e/1x1"
  type: "Convolution"
  bottom: "inception_4d/output"
  top: "inception_4e/1x1"
  param {
    lr_mult: 1
    decay_mult: 1
  }
  param {
    lr_mult: 2
    decay_mult: 0
  }
  convolution_param {
    num_output: 256
    kernel_size: 1
    weight_filler {
      type: "xavier"
      std: 0.03
    }
    bias_filler {
      type: "constant"
      value: 0.2
    }
  }
}
layer {
  name: "inception_4e/relu_1x1"
  type: "ReLU"
  bottom: "inception_4e/1x1"
  top: "inception_4e/1x1"
}
layer {
  name: "inception_4e/3x3_reduce"
  type: "Convolution"
  bottom: "inception_4d/output"
  top: "inception_4e/3x3_reduce"
  param {
    lr_mult: 1
    decay_mult: 1
  }
  param {
    lr_mult: 2
    decay_mult: 0
  }
  convolution_param {
    num_output: 160
    kernel_size: 1
    weight_filler {
      type: "xavier"
      std: 0.09
    }
    bias_filler {
      type: "constant"
      value: 0.2
    }
  }
}
layer {
  name: "inception_4e/relu_3x3_reduce"
  type: "ReLU"
  bottom: "inception_4e/3x3_reduce"
  top: "inception_4e/3x3_reduce"
}
layer {
  name: "inception_4e/3x3"
  type: "Convolution"
  bottom: "inception_4e/3x3_reduce"
  top: "inception_4e/3x3"
  param {
    lr_mult: 1
    decay_mult: 1
  }
  param {
    lr_mult: 2
    decay_mult: 0
  }
  convolution_param {
    num_output: 320
    pad: 1
    kernel_size: 3
    weight_filler {
      type: "xavier"
      std: 0.03
    }
    bias_filler {
      type: "constant"
      value: 0.2
    }
  }
}
layer {
  name: "inception_4e/relu_3x3"
  type: "ReLU"
  bottom: "inception_4e/3x3"
  top: "inception_4e/3x3"
}
layer {
  name: "inception_4e/5x5_reduce"
  type: "Convolution"
  bottom: "inception_4d/output"
  top: "inception_4e/5x5_reduce"
  param {
    lr_mult: 1
    decay_mult: 1
  }
  param {
    lr_mult: 2
    decay_mult: 0
  }
  convolution_param {
    num_output: 32
    kernel_size: 1
    weight_filler {
      type: "xavier"
      std: 0.2
    }
    bias_filler {
      type: "constant"
      value: 0.2
    }
  }
}
layer {
  name: "inception_4e/relu_5x5_reduce"
  type: "ReLU"
  bottom: "inception_4e/5x5_reduce"
  top: "inception_4e/5x5_reduce"
}
layer {
  name: "inception_4e/5x5"
  type: "Convolution"
  bottom: "inception_4e/5x5_reduce"
  top: "inception_4e/
I0403 14:58:04.936547 11360 layer_factory.hpp:77] Creating layer data
I0403 14:58:04.937260 11360 net.cpp:91] Creating Layer data
I0403 14:58:04.937299 11360 net.cpp:399] data -> data
I0403 14:58:04.937357 11360 net.cpp:399] data -> label
I0403 14:58:04.937402 11360 data_transformer.cpp:25] Loading mean file from: /home/mohanty/data/final_dataset/lmdb/grayscale-60-40/mean.binaryproto
I0403 14:58:04.945026 11365 db_lmdb.cpp:38] Opened lmdb /home/mohanty/data/final_dataset/lmdb/grayscale-60-40/test_db
I0403 14:58:04.953312 11360 data_layer.cpp:41] output data size: 24,3,224,224
I0403 14:58:04.984650 11360 net.cpp:141] Setting up data
I0403 14:58:04.984757 11360 net.cpp:148] Top shape: 24 3 224 224 (3612672)
I0403 14:58:04.984786 11360 net.cpp:148] Top shape: 24 (24)
I0403 14:58:04.984803 11360 net.cpp:156] Memory required for data: 14450784
I0403 14:58:04.984836 11360 layer_factory.hpp:77] Creating layer label_data_1_split
I0403 14:58:04.984868 11360 net.cpp:91] Creating Layer label_data_1_split
I0403 14:58:04.984889 11360 net.cpp:425] label_data_1_split <- label
I0403 14:58:04.984927 11360 net.cpp:399] label_data_1_split -> label_data_1_split_0
I0403 14:58:04.984959 11360 net.cpp:399] label_data_1_split -> label_data_1_split_1
I0403 14:58:04.984985 11360 net.cpp:399] label_data_1_split -> label_data_1_split_2
I0403 14:58:04.985009 11360 net.cpp:399] label_data_1_split -> label_data_1_split_3
I0403 14:58:04.985033 11360 net.cpp:399] label_data_1_split -> label_data_1_split_4
I0403 14:58:04.985056 11360 net.cpp:399] label_data_1_split -> label_data_1_split_5
I0403 14:58:04.985079 11360 net.cpp:399] label_data_1_split -> label_data_1_split_6
I0403 14:58:04.985122 11360 net.cpp:399] label_data_1_split -> label_data_1_split_7
I0403 14:58:04.985149 11360 net.cpp:399] label_data_1_split -> label_data_1_split_8
I0403 14:58:04.985174 11360 net.cpp:399] label_data_1_split -> label_data_1_split_9
I0403 14:58:04.985316 11360 net.cpp:141] Setting up label_data_1_split
I0403 14:58:04.985345 11360 net.cpp:148] Top shape: 24 (24)
I0403 14:58:04.985366 11360 net.cpp:148] Top shape: 24 (24)
I0403 14:58:04.985385 11360 net.cpp:148] Top shape: 24 (24)
I0403 14:58:04.985404 11360 net.cpp:148] Top shape: 24 (24)
I0403 14:58:04.985421 11360 net.cpp:148] Top shape: 24 (24)
I0403 14:58:04.985440 11360 net.cpp:148] Top shape: 24 (24)
I0403 14:58:04.985457 11360 net.cpp:148] Top shape: 24 (24)
I0403 14:58:04.985476 11360 net.cpp:148] Top shape: 24 (24)
I0403 14:58:04.985496 11360 net.cpp:148] Top shape: 24 (24)
I0403 14:58:04.985513 11360 net.cpp:148] Top shape: 24 (24)
I0403 14:58:04.985565 11360 net.cpp:156] Memory required for data: 14451744
I0403 14:58:04.985584 11360 layer_factory.hpp:77] Creating layer conv1/7x7_s2
I0403 14:58:04.985622 11360 net.cpp:91] Creating Layer conv1/7x7_s2
I0403 14:58:04.985646 11360 net.cpp:425] conv1/7x7_s2 <- data
I0403 14:58:04.985668 11360 net.cpp:399] conv1/7x7_s2 -> conv1/7x7_s2
I0403 14:58:05.152158 11360 net.cpp:141] Setting up conv1/7x7_s2
I0403 14:58:05.152257 11360 net.cpp:148] Top shape: 24 64 112 112 (19267584)
I0403 14:58:05.152278 11360 net.cpp:156] Memory required for data: 91522080
I0403 14:58:05.152314 11360 layer_factory.hpp:77] Creating layer conv1/relu_7x7
I0403 14:58:05.152346 11360 net.cpp:91] Creating Layer conv1/relu_7x7
I0403 14:58:05.152369 11360 net.cpp:425] conv1/relu_7x7 <- conv1/7x7_s2
I0403 14:58:05.152390 11360 net.cpp:386] conv1/relu_7x7 -> conv1/7x7_s2 (in-place)
I0403 14:58:05.152694 11360 net.cpp:141] Setting up conv1/relu_7x7
I0403 14:58:05.152727 11360 net.cpp:148] Top shape: 24 64 112 112 (19267584)
I0403 14:58:05.152746 11360 net.cpp:156] Memory required for data: 168592416
I0403 14:58:05.152765 11360 layer_factory.hpp:77] Creating layer pool1/3x3_s2
I0403 14:58:05.152794 11360 net.cpp:91] Creating Layer pool1/3x3_s2
I0403 14:58:05.152817 11360 net.cpp:425] pool1/3x3_s2 <- conv1/7x7_s2
I0403 14:58:05.152838 11360 net.cpp:399] pool1/3x3_s2 -> pool1/3x3_s2
I0403 14:58:05.152927 11360 net.cpp:141] Setting up pool1/3x3_s2
I0403 14:58:05.152959 11360 net.cpp:148] Top shape: 24 64 56 56 (4816896)
I0403 14:58:05.152977 11360 net.cpp:156] Memory required for data: 187860000
I0403 14:58:05.152997 11360 layer_factory.hpp:77] Creating layer pool1/norm1
I0403 14:58:05.153024 11360 net.cpp:91] Creating Layer pool1/norm1
I0403 14:58:05.153046 11360 net.cpp:425] pool1/norm1 <- pool1/3x3_s2
I0403 14:58:05.153067 11360 net.cpp:399] pool1/norm1 -> pool1/norm1
I0403 14:58:05.153417 11360 net.cpp:141] Setting up pool1/norm1
I0403 14:58:05.153451 11360 net.cpp:148] Top shape: 24 64 56 56 (4816896)
I0403 14:58:05.153470 11360 net.cpp:156] Memory required for data: 207127584
I0403 14:58:05.153489 11360 layer_factory.hpp:77] Creating layer conv2/3x3_reduce
I0403 14:58:05.153519 11360 net.cpp:91] Creating Layer conv2/3x3_reduce
I0403 14:58:05.153539 11360 net.cpp:425] conv2/3x3_reduce <- pool1/norm1
I0403 14:58:05.153561 11360 net.cpp:399] conv2/3x3_reduce -> conv2/3x3_reduce
I0403 14:58:05.155223 11360 net.cpp:141] Setting up conv2/3x3_reduce
I0403 14:58:05.155261 11360 net.cpp:148] Top shape: 24 64 56 56 (4816896)
I0403 14:58:05.155280 11360 net.cpp:156] Memory required for data: 226395168
I0403 14:58:05.155306 11360 layer_factory.hpp:77] Creating layer conv2/relu_3x3_reduce
I0403 14:58:05.155329 11360 net.cpp:91] Creating Layer conv2/relu_3x3_reduce
I0403 14:58:05.155351 11360 net.cpp:425] conv2/relu_3x3_reduce <- conv2/3x3_reduce
I0403 14:58:05.155372 11360 net.cpp:386] conv2/relu_3x3_reduce -> conv2/3x3_reduce (in-place)
I0403 14:58:05.155673 11360 net.cpp:141] Setting up conv2/relu_3x3_reduce
I0403 14:58:05.155704 11360 net.cpp:148] Top shape: 24 64 56 56 (4816896)
I0403 14:58:05.155724 11360 net.cpp:156] Memory required for data: 245662752
I0403 14:58:05.155741 11360 layer_factory.hpp:77] Creating layer conv2/3x3
I0403 14:58:05.155767 11360 net.cpp:91] Creating Layer conv2/3x3
I0403 14:58:05.155788 11360 net.cpp:425] conv2/3x3 <- conv2/3x3_reduce
I0403 14:58:05.155812 11360 net.cpp:399] conv2/3x3 -> conv2/3x3
I0403 14:58:05.158571 11360 net.cpp:141] Setting up conv2/3x3
I0403 14:58:05.158612 11360 net.cpp:148] Top shape: 24 192 56 56 (14450688)
I0403 14:58:05.158632 11360 net.cpp:156] Memory required for data: 303465504
I0403 14:58:05.158658 11360 layer_factory.hpp:77] Creating layer conv2/relu_3x3
I0403 14:58:05.158681 11360 net.cpp:91] Creating Layer conv2/relu_3x3
I0403 14:58:05.158753 11360 net.cpp:425] conv2/relu_3x3 <- conv2/3x3
I0403 14:58:05.158787 11360 net.cpp:386] conv2/relu_3x3 -> conv2/3x3 (in-place)
I0403 14:58:05.159006 11360 net.cpp:141] Setting up conv2/relu_3x3
I0403 14:58:05.159039 11360 net.cpp:148] Top shape: 24 192 56 56 (14450688)
I0403 14:58:05.159092 11360 net.cpp:156] Memory required for data: 361268256
I0403 14:58:05.159119 11360 layer_factory.hpp:77] Creating layer conv2/norm2
I0403 14:58:05.159147 11360 net.cpp:91] Creating Layer conv2/norm2
I0403 14:58:05.159169 11360 net.cpp:425] conv2/norm2 <- conv2/3x3
I0403 14:58:05.159190 11360 net.cpp:399] conv2/norm2 -> conv2/norm2
I0403 14:58:05.159554 11360 net.cpp:141] Setting up conv2/norm2
I0403 14:58:05.159587 11360 net.cpp:148] Top shape: 24 192 56 56 (14450688)
I0403 14:58:05.159605 11360 net.cpp:156] Memory required for data: 419071008
I0403 14:58:05.159624 11360 layer_factory.hpp:77] Creating layer pool2/3x3_s2
I0403 14:58:05.159649 11360 net.cpp:91] Creating Layer pool2/3x3_s2
I0403 14:58:05.159669 11360 net.cpp:425] pool2/3x3_s2 <- conv2/norm2
I0403 14:58:05.159692 11360 net.cpp:399] pool2/3x3_s2 -> pool2/3x3_s2
I0403 14:58:05.159759 11360 net.cpp:141] Setting up pool2/3x3_s2
I0403 14:58:05.159788 11360 net.cpp:148] Top shape: 24 192 28 28 (3612672)
I0403 14:58:05.159806 11360 net.cpp:156] Memory required for data: 433521696
I0403 14:58:05.159824 11360 layer_factory.hpp:77] Creating layer pool2/3x3_s2_pool2/3x3_s2_0_split
I0403 14:58:05.159849 11360 net.cpp:91] Creating Layer pool2/3x3_s2_pool2/3x3_s2_0_split
I0403 14:58:05.159868 11360 net.cpp:425] pool2/3x3_s2_pool2/3x3_s2_0_split <- pool2/3x3_s2
I0403 14:58:05.159890 11360 net.cpp:399] pool2/3x3_s2_pool2/3x3_s2_0_split -> pool2/3x3_s2_pool2/3x3_s2_0_split_0
I0403 14:58:05.159914 11360 net.cpp:399] pool2/3x3_s2_pool2/3x3_s2_0_split -> pool2/3x3_s2_pool2/3x3_s2_0_split_1
I0403 14:58:05.159937 11360 net.cpp:399] pool2/3x3_s2_pool2/3x3_s2_0_split -> pool2/3x3_s2_pool2/3x3_s2_0_split_2
I0403 14:58:05.159960 11360 net.cpp:399] pool2/3x3_s2_pool2/3x3_s2_0_split -> pool2/3x3_s2_pool2/3x3_s2_0_split_3
I0403 14:58:05.160048 11360 net.cpp:141] Setting up pool2/3x3_s2_pool2/3x3_s2_0_split
I0403 14:58:05.160076 11360 net.cpp:148] Top shape: 24 192 28 28 (3612672)
I0403 14:58:05.160102 11360 net.cpp:148] Top shape: 24 192 28 28 (3612672)
I0403 14:58:05.160123 11360 net.cpp:148] Top shape: 24 192 28 28 (3612672)
I0403 14:58:05.160142 11360 net.cpp:148] Top shape: 24 192 28 28 (3612672)
I0403 14:58:05.160158 11360 net.cpp:156] Memory required for data: 491324448
I0403 14:58:05.160176 11360 layer_factory.hpp:77] Creating layer inception_3a/1x1
I0403 14:58:05.160204 11360 net.cpp:91] Creating Layer inception_3a/1x1
I0403 14:58:05.160225 11360 net.cpp:425] inception_3a/1x1 <- pool2/3x3_s2_pool2/3x3_s2_0_split_0
I0403 14:58:05.160250 11360 net.cpp:399] inception_3a/1x1 -> inception_3a/1x1
I0403 14:58:05.162179 11360 net.cpp:141] Setting up inception_3a/1x1
I0403 14:58:05.162220 11360 net.cpp:148] Top shape: 24 64 28 28 (1204224)
I0403 14:58:05.162241 11360 net.cpp:156] Memory required for data: 496141344
I0403 14:58:05.162263 11360 layer_factory.hpp:77] Creating layer inception_3a/relu_1x1
I0403 14:58:05.162286 11360 net.cpp:91] Creating Layer inception_3a/relu_1x1
I0403 14:58:05.162305 11360 net.cpp:425] inception_3a/relu_1x1 <- inception_3a/1x1
I0403 14:58:05.162327 11360 net.cpp:386] inception_3a/relu_1x1 -> inception_3a/1x1 (in-place)
I0403 14:58:05.162541 11360 net.cpp:141] Setting up inception_3a/relu_1x1
I0403 14:58:05.162572 11360 net.cpp:148] Top shape: 24 64 28 28 (1204224)
I0403 14:58:05.162591 11360 net.cpp:156] Memory required for data: 500958240
I0403 14:58:05.162608 11360 layer_factory.hpp:77] Creating layer inception_3a/3x3_reduce
I0403 14:58:05.162636 11360 net.cpp:91] Creating Layer inception_3a/3x3_reduce
I0403 14:58:05.162657 11360 net.cpp:425] inception_3a/3x3_reduce <- pool2/3x3_s2_pool2/3x3_s2_0_split_1
I0403 14:58:05.162683 11360 net.cpp:399] inception_3a/3x3_reduce -> inception_3a/3x3_reduce
I0403 14:58:05.164697 11360 net.cpp:141] Setting up inception_3a/3x3_reduce
I0403 14:58:05.164741 11360 net.cpp:148] Top shape: 24 96 28 28 (1806336)
I0403 14:58:05.164762 11360 net.cpp:156] Memory required for data: 508183584
I0403 14:58:05.164789 11360 layer_factory.hpp:77] Creating layer inception_3a/relu_3x3_reduce
I0403 14:58:05.164835 11360 net.cpp:91] Creating Layer inception_3a/relu_3x3_reduce
I0403 14:58:05.164858 11360 net.cpp:425] inception_3a/relu_3x3_reduce <- inception_3a/3x3_reduce
I0403 14:58:05.164880 11360 net.cpp:386] inception_3a/relu_3x3_reduce -> inception_3a/3x3_reduce (in-place)
I0403 14:58:05.165115 11360 net.cpp:141] Setting up inception_3a/relu_3x3_reduce
I0403 14:58:05.165148 11360 net.cpp:148] Top shape: 24 96 28 28 (1806336)
I0403 14:58:05.165166 11360 net.cpp:156] Memory required for data: 515408928
I0403 14:58:05.165184 11360 layer_factory.hpp:77] Creating layer inception_3a/3x3
I0403 14:58:05.165212 11360 net.cpp:91] Creating Layer inception_3a/3x3
I0403 14:58:05.165233 11360 net.cpp:425] inception_3a/3x3 <- inception_3a/3x3_reduce
I0403 14:58:05.165256 11360 net.cpp:399] inception_3a/3x3 -> inception_3a/3x3
I0403 14:58:05.167265 11360 net.cpp:141] Setting up inception_3a/3x3
I0403 14:58:05.167301 11360 net.cpp:148] Top shape: 24 128 28 28 (2408448)
I0403 14:58:05.167320 11360 net.cpp:156] Memory required for data: 525042720
I0403 14:58:05.167342 11360 layer_factory.hpp:77] Creating layer inception_3a/relu_3x3
I0403 14:58:05.167366 11360 net.cpp:91] Creating Layer inception_3a/relu_3x3
I0403 14:58:05.167385 11360 net.cpp:425] inception_3a/relu_3x3 <- inception_3a/3x3
I0403 14:58:05.167410 11360 net.cpp:386] inception_3a/relu_3x3 -> inception_3a/3x3 (in-place)
I0403 14:58:05.167742 11360 net.cpp:141] Setting up inception_3a/relu_3x3
I0403 14:58:05.167774 11360 net.cpp:148] Top shape: 24 128 28 28 (2408448)
I0403 14:58:05.167793 11360 net.cpp:156] Memory required for data: 534676512
I0403 14:58:05.167814 11360 layer_factory.hpp:77] Creating layer inception_3a/5x5_reduce
I0403 14:58:05.167842 11360 net.cpp:91] Creating Layer inception_3a/5x5_reduce
I0403 14:58:05.167865 11360 net.cpp:425] inception_3a/5x5_reduce <- pool2/3x3_s2_pool2/3x3_s2_0_split_2
I0403 14:58:05.167889 11360 net.cpp:399] inception_3a/5x5_reduce -> inception_3a/5x5_reduce
I0403 14:58:05.169049 11360 net.cpp:141] Setting up inception_3a/5x5_reduce
I0403 14:58:05.169083 11360 net.cpp:148] Top shape: 24 16 28 28 (301056)
I0403 14:58:05.169109 11360 net.cpp:156] Memory required for data: 535880736
I0403 14:58:05.169134 11360 layer_factory.hpp:77] Creating layer inception_3a/relu_5x5_reduce
I0403 14:58:05.169157 11360 net.cpp:91] Creating Layer inception_3a/relu_5x5_reduce
I0403 14:58:05.169176 11360 net.cpp:425] inception_3a/relu_5x5_reduce <- inception_3a/5x5_reduce
I0403 14:58:05.169200 11360 net.cpp:386] inception_3a/relu_5x5_reduce -> inception_3a/5x5_reduce (in-place)
I0403 14:58:05.169561 11360 net.cpp:141] Setting up inception_3a/relu_5x5_reduce
I0403 14:58:05.169595 11360 net.cpp:148] Top shape: 24 16 28 28 (301056)
I0403 14:58:05.169612 11360 net.cpp:156] Memory required for data: 537084960
I0403 14:58:05.169630 11360 layer_factory.hpp:77] Creating layer inception_3a/5x5
I0403 14:58:05.169656 11360 net.cpp:91] Creating Layer inception_3a/5x5
I0403 14:58:05.169679 11360 net.cpp:425] inception_3a/5x5 <- inception_3a/5x5_reduce
I0403 14:58:05.169703 11360 net.cpp:399] inception_3a/5x5 -> inception_3a/5x5
I0403 14:58:05.170939 11360 net.cpp:141] Setting up inception_3a/5x5
I0403 14:58:05.170977 11360 net.cpp:148] Top shape: 24 32 28 28 (602112)
I0403 14:58:05.170997 11360 net.cpp:156] Memory required for data: 539493408
I0403 14:58:05.171020 11360 layer_factory.hpp:77] Creating layer inception_3a/relu_5x5
I0403 14:58:05.171041 11360 net.cpp:91] Creating Layer inception_3a/relu_5x5
I0403 14:58:05.171061 11360 net.cpp:425] inception_3a/relu_5x5 <- inception_3a/5x5
I0403 14:58:05.171083 11360 net.cpp:386] inception_3a/relu_5x5 -> inception_3a/5x5 (in-place)
I0403 14:58:05.171308 11360 net.cpp:141] Setting up inception_3a/relu_5x5
I0403 14:58:05.171340 11360 net.cpp:148] Top shape: 24 32 28 28 (602112)
I0403 14:58:05.171360 11360 net.cpp:156] Memory required for data: 541901856
I0403 14:58:05.171380 11360 layer_factory.hpp:77] Creating layer inception_3a/pool
I0403 14:58:05.171406 11360 net.cpp:91] Creating Layer inception_3a/pool
I0403 14:58:05.171442 11360 net.cpp:425] inception_3a/pool <- pool2/3x3_s2_pool2/3x3_s2_0_split_3
I0403 14:58:05.171466 11360 net.cpp:399] inception_3a/pool -> inception_3a/pool
I0403 14:58:05.171537 11360 net.cpp:141] Setting up inception_3a/pool
I0403 14:58:05.171567 11360 net.cpp:148] Top shape: 24 192 28 28 (3612672)
I0403 14:58:05.171586 11360 net.cpp:156] Memory required for data: 556352544
I0403 14:58:05.171603 11360 layer_factory.hpp:77] Creating layer inception_3a/pool_proj
I0403 14:58:05.171628 11360 net.cpp:91] Creating Layer inception_3a/pool_proj
I0403 14:58:05.171650 11360 net.cpp:425] inception_3a/pool_proj <- inception_3a/pool
I0403 14:58:05.171679 11360 net.cpp:399] inception_3a/pool_proj -> inception_3a/pool_proj
I0403 14:58:05.172852 11360 net.cpp:141] Setting up inception_3a/pool_proj
I0403 14:58:05.172886 11360 net.cpp:148] Top shape: 24 32 28 28 (602112)
I0403 14:58:05.172914 11360 net.cpp:156] Memory required for data: 558760992
I0403 14:58:05.172940 11360 layer_factory.hpp:77] Creating layer inception_3a/relu_pool_proj
I0403 14:58:05.172963 11360 net.cpp:91] Creating Layer inception_3a/relu_pool_proj
I0403 14:58:05.172982 11360 net.cpp:425] inception_3a/relu_pool_proj <- inception_3a/pool_proj
I0403 14:58:05.173005 11360 net.cpp:386] inception_3a/relu_pool_proj -> inception_3a/pool_proj (in-place)
I0403 14:58:05.173352 11360 net.cpp:141] Setting up inception_3a/relu_pool_proj
I0403 14:58:05.173385 11360 net.cpp:148] Top shape: 24 32 28 28 (602112)
I0403 14:58:05.173403 11360 net.cpp:156] Memory required for data: 561169440
I0403 14:58:05.173421 11360 layer_factory.hpp:77] Creating layer inception_3a/output
I0403 14:58:05.173442 11360 net.cpp:91] Creating Layer inception_3a/output
I0403 14:58:05.173461 11360 net.cpp:425] inception_3a/output <- inception_3a/1x1
I0403 14:58:05.173482 11360 net.cpp:425] inception_3a/output <- inception_3a/3x3
I0403 14:58:05.173501 11360 net.cpp:425] inception_3a/output <- inception_3a/5x5
I0403 14:58:05.173521 11360 net.cpp:425] inception_3a/output <- inception_3a/pool_proj
I0403 14:58:05.173543 11360 net.cpp:399] inception_3a/output -> inception_3a/output
I0403 14:58:05.173601 11360 net.cpp:141] Setting up inception_3a/output
I0403 14:58:05.173635 11360 net.cpp:148] Top shape: 24 256 28 28 (4816896)
I0403 14:58:05.173653 11360 net.cpp:156] Memory required for data: 580437024
I0403 14:58:05.173672 11360 layer_factory.hpp:77] Creating layer inception_3a/output_inception_3a/output_0_split
I0403 14:58:05.173692 11360 net.cpp:91] Creating Layer inception_3a/output_inception_3a/output_0_split
I0403 14:58:05.173712 11360 net.cpp:425] inception_3a/output_inception_3a/output_0_split <- inception_3a/output
I0403 14:58:05.173732 11360 net.cpp:399] inception_3a/output_inception_3a/output_0_split -> inception_3a/output_inception_3a/output_0_split_0
I0403 14:58:05.173755 11360 net.cpp:399] inception_3a/output_inception_3a/output_0_split -> inception_3a/output_inception_3a/output_0_split_1
I0403 14:58:05.173787 11360 net.cpp:399] inception_3a/output_inception_3a/output_0_split -> inception_3a/output_inception_3a/output_0_split_2
I0403 14:58:05.173815 11360 net.cpp:399] inception_3a/output_inception_3a/output_0_split -> inception_3a/output_inception_3a/output_0_split_3
I0403 14:58:05.173905 11360 net.cpp:141] Setting up inception_3a/output_inception_3a/output_0_split
I0403 14:58:05.173936 11360 net.cpp:148] Top shape: 24 256 28 28 (4816896)
I0403 14:58:05.173957 11360 net.cpp:148] Top shape: 24 256 28 28 (4816896)
I0403 14:58:05.173976 11360 net.cpp:148] Top shape: 24 256 28 28 (4816896)
I0403 14:58:05.173995 11360 net.cpp:148] Top shape: 24 256 28 28 (4816896)
I0403 14:58:05.174011 11360 net.cpp:156] Memory required for data: 657507360
I0403 14:58:05.174028 11360 layer_factory.hpp:77] Creating layer inception_3b/1x1
I0403 14:58:05.174055 11360 net.cpp:91] Creating Layer inception_3b/1x1
I0403 14:58:05.174077 11360 net.cpp:425] inception_3b/1x1 <- inception_3a/output_inception_3a/output_0_split_0
I0403 14:58:05.174105 11360 net.cpp:399] inception_3b/1x1 -> inception_3b/1x1
I0403 14:58:05.175483 11360 net.cpp:141] Setting up inception_3b/1x1
I0403 14:58:05.175534 11360 net.cpp:148] Top shape: 24 128 28 28 (2408448)
I0403 14:58:05.175556 11360 net.cpp:156] Memory required for data: 667141152
I0403 14:58:05.175580 11360 layer_factory.hpp:77] Creating layer inception_3b/relu_1x1
I0403 14:58:05.175602 11360 net.cpp:91] Creating Layer inception_3b/relu_1x1
I0403 14:58:05.175621 11360 net.cpp:425] inception_3b/relu_1x1 <- inception_3b/1x1
I0403 14:58:05.175643 11360 net.cpp:386] inception_3b/relu_1x1 -> inception_3b/1x1 (in-place)
I0403 14:58:05.175858 11360 net.cpp:141] Setting up inception_3b/relu_1x1
I0403 14:58:05.175890 11360 net.cpp:148] Top shape: 24 128 28 28 (2408448)
I0403 14:58:05.175909 11360 net.cpp:156] Memory required for data: 676774944
I0403 14:58:05.175926 11360 layer_factory.hpp:77] Creating layer inception_3b/3x3_reduce
I0403 14:58:05.175953 11360 net.cpp:91] Creating Layer inception_3b/3x3_reduce
I0403 14:58:05.175976 11360 net.cpp:425] inception_3b/3x3_reduce <- inception_3a/output_inception_3a/output_0_split_1
I0403 14:58:05.176002 11360 net.cpp:399] inception_3b/3x3_reduce -> inception_3b/3x3_reduce
I0403 14:58:05.177392 11360 net.cpp:141] Setting up inception_3b/3x3_reduce
I0403 14:58:05.177430 11360 net.cpp:148] Top shape: 24 128 28 28 (2408448)
I0403 14:58:05.177450 11360 net.cpp:156] Memory required for data: 686408736
I0403 14:58:05.177474 11360 layer_factory.hpp:77] Creating layer inception_3b/relu_3x3_reduce
I0403 14:58:05.177495 11360 net.cpp:91] Creating Layer inception_3b/relu_3x3_reduce
I0403 14:58:05.177515 11360 net.cpp:425] inception_3b/relu_3x3_reduce <- inception_3b/3x3_reduce
I0403 14:58:05.177534 11360 net.cpp:386] inception_3b/relu_3x3_reduce -> inception_3b/3x3_reduce (in-place)
I0403 14:58:05.177752 11360 net.cpp:141] Setting up inception_3b/relu_3x3_reduce
I0403 14:58:05.177784 11360 net.cpp:148] Top shape: 24 128 28 28 (2408448)
I0403 14:58:05.177805 11360 net.cpp:156] Memory required for data: 696042528
I0403 14:58:05.177824 11360 layer_factory.hpp:77] Creating layer inception_3b/3x3
I0403 14:58:05.177855 11360 net.cpp:91] Creating Layer inception_3b/3x3
I0403 14:58:05.177876 11360 net.cpp:425] inception_3b/3x3 <- inception_3b/3x3_reduce
I0403 14:58:05.177901 11360 net.cpp:399] inception_3b/3x3 -> inception_3b/3x3
I0403 14:58:05.181427 11360 net.cpp:141] Setting up inception_3b/3x3
I0403 14:58:05.181463 11360 net.cpp:148] Top shape: 24 192 28 28 (3612672)
I0403 14:58:05.181481 11360 net.cpp:156] Memory required for data: 710493216
I0403 14:58:05.181504 11360 layer_factory.hpp:77] Creating layer inception_3b/relu_3x3
I0403 14:58:05.181527 11360 net.cpp:91] Creating Layer inception_3b/relu_3x3
I0403 14:58:05.181547 11360 net.cpp:425] inception_3b/relu_3x3 <- inception_3b/3x3
I0403 14:58:05.181571 11360 net.cpp:386] inception_3b/relu_3x3 -> inception_3b/3x3 (in-place)
I0403 14:58:05.181908 11360 net.cpp:141] Setting up inception_3b/relu_3x3
I0403 14:58:05.181941 11360 net.cpp:148] Top shape: 24 192 28 28 (3612672)
I0403 14:58:05.181959 11360 net.cpp:156] Memory required for data: 724943904
I0403 14:58:05.181977 11360 layer_factory.hpp:77] Creating layer inception_3b/5x5_reduce
I0403 14:58:05.182004 11360 net.cpp:91] Creating Layer inception_3b/5x5_reduce
I0403 14:58:05.182026 11360 net.cpp:425] inception_3b/5x5_reduce <- inception_3a/output_inception_3a/output_0_split_2
I0403 14:58:05.182054 11360 net.cpp:399] inception_3b/5x5_reduce -> inception_3b/5x5_reduce
I0403 14:58:05.183276 11360 net.cpp:141] Setting up inception_3b/5x5_reduce
I0403 14:58:05.183315 11360 net.cpp:148] Top shape: 24 32 28 28 (602112)
I0403 14:58:05.183333 11360 net.cpp:156] Memory required for data: 727352352
I0403 14:58:05.183357 11360 layer_factory.hpp:77] Creating layer inception_3b/relu_5x5_reduce
I0403 14:58:05.183378 11360 net.cpp:91] Creating Layer inception_3b/relu_5x5_reduce
I0403 14:58:05.183398 11360 net.cpp:425] inception_3b/relu_5x5_reduce <- inception_3b/5x5_reduce
I0403 14:58:05.183423 11360 net.cpp:386] inception_3b/relu_5x5_reduce -> inception_3b/5x5_reduce (in-place)
I0403 14:58:05.183657 11360 net.cpp:141] Setting up inception_3b/relu_5x5_reduce
I0403 14:58:05.183689 11360 net.cpp:148] Top shape: 24 32 28 28 (602112)
I0403 14:58:05.183708 11360 net.cpp:156] Memory required for data: 729760800
I0403 14:58:05.183727 11360 layer_factory.hpp:77] Creating layer inception_3b/5x5
I0403 14:58:05.183753 11360 net.cpp:91] Creating Layer inception_3b/5x5
I0403 14:58:05.183775 11360 net.cpp:425] inception_3b/5x5 <- inception_3b/5x5_reduce
I0403 14:58:05.183801 11360 net.cpp:399] inception_3b/5x5 -> inception_3b/5x5
I0403 14:58:05.186184 11360 net.cpp:141] Setting up inception_3b/5x5
I0403 14:58:05.186225 11360 net.cpp:148] Top shape: 24 96 28 28 (1806336)
I0403 14:58:05.186246 11360 net.cpp:156] Memory required for data: 736986144
I0403 14:58:05.186269 11360 layer_factory.hpp:77] Creating layer inception_3b/relu_5x5
I0403 14:58:05.186292 11360 net.cpp:91] Creating Layer inception_3b/relu_5x5
I0403 14:58:05.186312 11360 net.cpp:425] inception_3b/relu_5x5 <- inception_3b/5x5
I0403 14:58:05.186334 11360 net.cpp:386] inception_3b/relu_5x5 -> inception_3b/5x5 (in-place)
I0403 14:58:05.186573 11360 net.cpp:141] Setting up inception_3b/relu_5x5
I0403 14:58:05.186604 11360 net.cpp:148] Top shape: 24 96 28 28 (1806336)
I0403 14:58:05.186622 11360 net.cpp:156] Memory required for data: 744211488
I0403 14:58:05.186640 11360 layer_factory.hpp:77] Creating layer inception_3b/pool
I0403 14:58:05.186661 11360 net.cpp:91] Creating Layer inception_3b/pool
I0403 14:58:05.186681 11360 net.cpp:425] inception_3b/pool <- inception_3a/output_inception_3a/output_0_split_3
I0403 14:58:05.186702 11360 net.cpp:399] inception_3b/pool -> inception_3b/pool
I0403 14:58:05.186771 11360 net.cpp:141] Setting up inception_3b/pool
I0403 14:58:05.186803 11360 net.cpp:148] Top shape: 24 256 28 28 (4816896)
I0403 14:58:05.186822 11360 net.cpp:156] Memory required for data: 763479072
I0403 14:58:05.186841 11360 layer_factory.hpp:77] Creating layer inception_3b/pool_proj
I0403 14:58:05.186867 11360 net.cpp:91] Creating Layer inception_3b/pool_proj
I0403 14:58:05.186889 11360 net.cpp:425] inception_3b/pool_proj <- inception_3b/pool
I0403 14:58:05.186913 11360 net.cpp:399] inception_3b/pool_proj -> inception_3b/pool_proj
I0403 14:58:05.188199 11360 net.cpp:141] Setting up inception_3b/pool_proj
I0403 14:58:05.188235 11360 net.cpp:148] Top shape: 24 64 28 28 (1204224)
I0403 14:58:05.188256 11360 net.cpp:156] Memory required for data: 768295968
I0403 14:58:05.188278 11360 layer_factory.hpp:77] Creating layer inception_3b/relu_pool_proj
I0403 14:58:05.188302 11360 net.cpp:91] Creating Layer inception_3b/relu_pool_proj
I0403 14:58:05.188324 11360 net.cpp:425] inception_3b/relu_pool_proj <- inception_3b/pool_proj
I0403 14:58:05.188346 11360 net.cpp:386] inception_3b/relu_pool_proj -> inception_3b/pool_proj (in-place)
I0403 14:58:05.188817 11360 net.cpp:141] Setting up inception_3b/relu_pool_proj
I0403 14:58:05.188849 11360 net.cpp:148] Top shape: 24 64 28 28 (1204224)
I0403 14:58:05.188868 11360 net.cpp:156] Memory required for data: 773112864
I0403 14:58:05.188885 11360 layer_factory.hpp:77] Creating layer inception_3b/output
I0403 14:58:05.188905 11360 net.cpp:91] Creating Layer inception_3b/output
I0403 14:58:05.188925 11360 net.cpp:425] inception_3b/output <- inception_3b/1x1
I0403 14:58:05.188944 11360 net.cpp:425] inception_3b/output <- inception_3b/3x3
I0403 14:58:05.188966 11360 net.cpp:425] inception_3b/output <- inception_3b/5x5
I0403 14:58:05.188984 11360 net.cpp:425] inception_3b/output <- inception_3b/pool_proj
I0403 14:58:05.189007 11360 net.cpp:399] inception_3b/output -> inception_3b/output
I0403 14:58:05.189062 11360 net.cpp:141] Setting up inception_3b/output
I0403 14:58:05.189100 11360 net.cpp:148] Top shape: 24 480 28 28 (9031680)
I0403 14:58:05.189121 11360 net.cpp:156] Memory required for data: 809239584
I0403 14:58:05.189139 11360 layer_factory.hpp:77] Creating layer pool3/3x3_s2
I0403 14:58:05.189160 11360 net.cpp:91] Creating Layer pool3/3x3_s2
I0403 14:58:05.189180 11360 net.cpp:425] pool3/3x3_s2 <- inception_3b/output
I0403 14:58:05.189226 11360 net.cpp:399] pool3/3x3_s2 -> pool3/3x3_s2
I0403 14:58:05.189301 11360 net.cpp:141] Setting up pool3/3x3_s2
I0403 14:58:05.189332 11360 net.cpp:148] Top shape: 24 480 14 14 (2257920)
I0403 14:58:05.189350 11360 net.cpp:156] Memory required for data: 818271264
I0403 14:58:05.189370 11360 layer_factory.hpp:77] Creating layer pool3/3x3_s2_pool3/3x3_s2_0_split
I0403 14:58:05.189394 11360 net.cpp:91] Creating Layer pool3/3x3_s2_pool3/3x3_s2_0_split
I0403 14:58:05.189412 11360 net.cpp:425] pool3/3x3_s2_pool3/3x3_s2_0_split <- pool3/3x3_s2
I0403 14:58:05.189432 11360 net.cpp:399] pool3/3x3_s2_pool3/3x3_s2_0_split -> pool3/3x3_s2_pool3/3x3_s2_0_split_0
I0403 14:58:05.189457 11360 net.cpp:399] pool3/3x3_s2_pool3/3x3_s2_0_split -> pool3/3x3_s2_pool3/3x3_s2_0_split_1
I0403 14:58:05.189486 11360 net.cpp:399] pool3/3x3_s2_pool3/3x3_s2_0_split -> pool3/3x3_s2_pool3/3x3_s2_0_split_2
I0403 14:58:05.189512 11360 net.cpp:399] pool3/3x3_s2_pool3/3x3_s2_0_split -> pool3/3x3_s2_pool3/3x3_s2_0_split_3
I0403 14:58:05.189604 11360 net.cpp:141] Setting up pool3/3x3_s2_pool3/3x3_s2_0_split
I0403 14:58:05.189632 11360 net.cpp:148] Top shape: 24 480 14 14 (2257920)
I0403 14:58:05.189652 11360 net.cpp:148] Top shape: 24 480 14 14 (2257920)
I0403 14:58:05.189671 11360 net.cpp:148] Top shape: 24 480 14 14 (2257920)
I0403 14:58:05.189690 11360 net.cpp:148] Top shape: 24 480 14 14 (2257920)
I0403 14:58:05.189708 11360 net.cpp:156] Memory required for data: 854397984
I0403 14:58:05.189728 11360 layer_factory.hpp:77] Creating layer inception_4a/1x1
I0403 14:58:05.189755 11360 net.cpp:91] Creating Layer inception_4a/1x1
I0403 14:58:05.189777 11360 net.cpp:425] inception_4a/1x1 <- pool3/3x3_s2_pool3/3x3_s2_0_split_0
I0403 14:58:05.189803 11360 net.cpp:399] inception_4a/1x1 -> inception_4a/1x1
I0403 14:58:05.191714 11360 net.cpp:141] Setting up inception_4a/1x1
I0403 14:58:05.191748 11360 net.cpp:148] Top shape: 24 192 14 14 (903168)
I0403 14:58:05.191767 11360 net.cpp:156] Memory required for data: 858010656
I0403 14:58:05.191790 11360 layer_factory.hpp:77] Creating layer inception_4a/relu_1x1
I0403 14:58:05.191815 11360 net.cpp:91] Creating Layer inception_4a/relu_1x1
I0403 14:58:05.191835 11360 net.cpp:425] inception_4a/relu_1x1 <- inception_4a/1x1
I0403 14:58:05.191856 11360 net.cpp:386] inception_4a/relu_1x1 -> inception_4a/1x1 (in-place)
I0403 14:58:05.192073 11360 net.cpp:141] Setting up inception_4a/relu_1x1
I0403 14:58:05.192113 11360 net.cpp:148] Top shape: 24 192 14 14 (903168)
I0403 14:58:05.192134 11360 net.cpp:156] Memory required for data: 861623328
I0403 14:58:05.192154 11360 layer_factory.hpp:77] Creating layer inception_4a/3x3_reduce
I0403 14:58:05.192183 11360 net.cpp:91] Creating Layer inception_4a/3x3_reduce
I0403 14:58:05.192204 11360 net.cpp:425] inception_4a/3x3_reduce <- pool3/3x3_s2_pool3/3x3_s2_0_split_1
I0403 14:58:05.192227 11360 net.cpp:399] inception_4a/3x3_reduce -> inception_4a/3x3_reduce
I0403 14:58:05.193801 11360 net.cpp:141] Setting up inception_4a/3x3_reduce
I0403 14:58:05.193837 11360 net.cpp:148] Top shape: 24 96 14 14 (451584)
I0403 14:58:05.193858 11360 net.cpp:156] Memory required for data: 863429664
I0403 14:58:05.193891 11360 layer_factory.hpp:77] Creating layer inception_4a/relu_3x3_reduce
I0403 14:58:05.193917 11360 net.cpp:91] Creating Layer inception_4a/relu_3x3_reduce
I0403 14:58:05.193936 11360 net.cpp:425] inception_4a/relu_3x3_reduce <- inception_4a/3x3_reduce
I0403 14:58:05.193956 11360 net.cpp:386] inception_4a/relu_3x3_reduce -> inception_4a/3x3_reduce (in-place)
I0403 14:58:05.194183 11360 net.cpp:141] Setting up inception_4a/relu_3x3_reduce
I0403 14:58:05.194216 11360 net.cpp:148] Top shape: 24 96 14 14 (451584)
I0403 14:58:05.194236 11360 net.cpp:156] Memory required for data: 865236000
I0403 14:58:05.194254 11360 layer_factory.hpp:77] Creating layer inception_4a/3x3
I0403 14:58:05.194284 11360 net.cpp:91] Creating Layer inception_4a/3x3
I0403 14:58:05.194308 11360 net.cpp:425] inception_4a/3x3 <- inception_4a/3x3_reduce
I0403 14:58:05.194330 11360 net.cpp:399] inception_4a/3x3 -> inception_4a/3x3
I0403 14:58:05.197574 11360 net.cpp:141] Setting up inception_4a/3x3
I0403 14:58:05.197615 11360 net.cpp:148] Top shape: 24 208 14 14 (978432)
I0403 14:58:05.197636 11360 net.cpp:156] Memory required for data: 869149728
I0403 14:58:05.197660 11360 layer_factory.hpp:77] Creating layer inception_4a/relu_3x3
I0403 14:58:05.197684 11360 net.cpp:91] Creating Layer inception_4a/relu_3x3
I0403 14:58:05.197703 11360 net.cpp:425] inception_4a/relu_3x3 <- inception_4a/3x3
I0403 14:58:05.197723 11360 net.cpp:386] inception_4a/relu_3x3 -> inception_4a/3x3 (in-place)
I0403 14:58:05.198060 11360 net.cpp:141] Setting up inception_4a/relu_3x3
I0403 14:58:05.198101 11360 net.cpp:148] Top shape: 24 208 14 14 (978432)
I0403 14:58:05.198123 11360 net.cpp:156] Memory required for data: 873063456
I0403 14:58:05.198143 11360 layer_factory.hpp:77] Creating layer inception_4a/5x5_reduce
I0403 14:58:05.198170 11360 net.cpp:91] Creating Layer inception_4a/5x5_reduce
I0403 14:58:05.198191 11360 net.cpp:425] inception_4a/5x5_reduce <- pool3/3x3_s2_pool3/3x3_s2_0_split_2
I0403 14:58:05.198215 11360 net.cpp:399] inception_4a/5x5_reduce -> inception_4a/5x5_reduce
I0403 14:58:05.199465 11360 net.cpp:141] Setting up inception_4a/5x5_reduce
I0403 14:58:05.199502 11360 net.cpp:148] Top shape: 24 16 14 14 (75264)
I0403 14:58:05.199522 11360 net.cpp:156] Memory required for data: 873364512
I0403 14:58:05.199545 11360 layer_factory.hpp:77] Creating layer inception_4a/relu_5x5_reduce
I0403 14:58:05.199568 11360 net.cpp:91] Creating Layer inception_4a/relu_5x5_reduce
I0403 14:58:05.199586 11360 net.cpp:425] inception_4a/relu_5x5_reduce <- inception_4a/5x5_reduce
I0403 14:58:05.199609 11360 net.cpp:386] inception_4a/relu_5x5_reduce -> inception_4a/5x5_reduce (in-place)
I0403 14:58:05.199836 11360 net.cpp:141] Setting up inception_4a/relu_5x5_reduce
I0403 14:58:05.199867 11360 net.cpp:148] Top shape: 24 16 14 14 (75264)
I0403 14:58:05.199887 11360 net.cpp:156] Memory required for data: 873665568
I0403 14:58:05.199904 11360 layer_factory.hpp:77] Creating layer inception_4a/5x5
I0403 14:58:05.199933 11360 net.cpp:91] Creating Layer inception_4a/5x5
I0403 14:58:05.199955 11360 net.cpp:425] inception_4a/5x5 <- inception_4a/5x5_reduce
I0403 14:58:05.199980 11360 net.cpp:399] inception_4a/5x5 -> inception_4a/5x5
I0403 14:58:05.201333 11360 net.cpp:141] Setting up inception_4a/5x5
I0403 14:58:05.201380 11360 net.cpp:148] Top shape: 24 48 14 14 (225792)
I0403 14:58:05.201400 11360 net.cpp:156] Memory required for data: 874568736
I0403 14:58:05.201422 11360 layer_factory.hpp:77] Creating layer inception_4a/relu_5x5
I0403 14:58:05.201447 11360 net.cpp:91] Creating Layer inception_4a/relu_5x5
I0403 14:58:05.201468 11360 net.cpp:425] inception_4a/relu_5x5 <- inception_4a/5x5
I0403 14:58:05.201489 11360 net.cpp:386] inception_4a/relu_5x5 -> inception_4a/5x5 (in-place)
I0403 14:58:05.201712 11360 net.cpp:141] Setting up inception_4a/relu_5x5
I0403 14:58:05.201745 11360 net.cpp:148] Top shape: 24 48 14 14 (225792)
I0403 14:58:05.201767 11360 net.cpp:156] Memory required for data: 875471904
I0403 14:58:05.201786 11360 layer_factory.hpp:77] Creating layer inception_4a/pool
I0403 14:58:05.201807 11360 net.cpp:91] Creating Layer inception_4a/pool
I0403 14:58:05.201827 11360 net.cpp:425] inception_4a/pool <- pool3/3x3_s2_pool3/3x3_s2_0_split_3
I0403 14:58:05.201848 11360 net.cpp:399] inception_4a/pool -> inception_4a/pool
I0403 14:58:05.201925 11360 net.cpp:141] Setting up inception_4a/pool
I0403 14:58:05.201954 11360 net.cpp:148] Top shape: 24 480 14 14 (2257920)
I0403 14:58:05.201972 11360 net.cpp:156] Memory required for data: 884503584
I0403 14:58:05.201992 11360 layer_factory.hpp:77] Creating layer inception_4a/pool_proj
I0403 14:58:05.202018 11360 net.cpp:91] Creating Layer inception_4a/pool_proj
I0403 14:58:05.202041 11360 net.cpp:425] inception_4a/pool_proj <- inception_4a/pool
I0403 14:58:05.202066 11360 net.cpp:399] inception_4a/pool_proj -> inception_4a/pool_proj
I0403 14:58:05.203518 11360 net.cpp:141] Setting up inception_4a/pool_proj
I0403 14:58:05.203554 11360 net.cpp:148] Top shape: 24 64 14 14 (301056)
I0403 14:58:05.203593 11360 net.cpp:156] Memory required for data: 885707808
I0403 14:58:05.203619 11360 layer_factory.hpp:77] Creating layer inception_4a/relu_pool_proj
I0403 14:58:05.203644 11360 net.cpp:91] Creating Layer inception_4a/relu_pool_proj
I0403 14:58:05.203666 11360 net.cpp:425] inception_4a/relu_pool_proj <- inception_4a/pool_proj
I0403 14:58:05.203687 11360 net.cpp:386] inception_4a/relu_pool_proj -> inception_4a/pool_proj (in-place)
I0403 14:58:05.204033 11360 net.cpp:141] Setting up inception_4a/relu_pool_proj
I0403 14:58:05.204066 11360 net.cpp:148] Top shape: 24 64 14 14 (301056)
I0403 14:58:05.204085 11360 net.cpp:156] Memory required for data: 886912032
I0403 14:58:05.204112 11360 layer_factory.hpp:77] Creating layer inception_4a/output
I0403 14:58:05.204138 11360 net.cpp:91] Creating Layer inception_4a/output
I0403 14:58:05.204157 11360 net.cpp:425] inception_4a/output <- inception_4a/1x1
I0403 14:58:05.204177 11360 net.cpp:425] inception_4a/output <- inception_4a/3x3
I0403 14:58:05.204197 11360 net.cpp:425] inception_4a/output <- inception_4a/5x5
I0403 14:58:05.204216 11360 net.cpp:425] inception_4a/output <- inception_4a/pool_proj
I0403 14:58:05.204237 11360 net.cpp:399] inception_4a/output -> inception_4a/output
I0403 14:58:05.204295 11360 net.cpp:141] Setting up inception_4a/output
I0403 14:58:05.204325 11360 net.cpp:148] Top shape: 24 512 14 14 (2408448)
I0403 14:58:05.204344 11360 net.cpp:156] Memory required for data: 896545824
I0403 14:58:05.204361 11360 layer_factory.hpp:77] Creating layer inception_4a/output_inception_4a/output_0_split
I0403 14:58:05.204383 11360 net.cpp:91] Creating Layer inception_4a/output_inception_4a/output_0_split
I0403 14:58:05.204402 11360 net.cpp:425] inception_4a/output_inception_4a/output_0_split <- inception_4a/output
I0403 14:58:05.204428 11360 net.cpp:399] inception_4a/output_inception_4a/output_0_split -> inception_4a/output_inception_4a/output_0_split_0
I0403 14:58:05.204454 11360 net.cpp:399] inception_4a/output_inception_4a/output_0_split -> inception_4a/output_inception_4a/output_0_split_1
I0403 14:58:05.204480 11360 net.cpp:399] inception_4a/output_inception_4a/output_0_split -> inception_4a/output_inception_4a/output_0_split_2
I0403 14:58:05.204507 11360 net.cpp:399] inception_4a/output_inception_4a/output_0_split -> inception_4a/output_inception_4a/output_0_split_3
I0403 14:58:05.204531 11360 net.cpp:399] inception_4a/output_inception_4a/output_0_split -> inception_4a/output_inception_4a/output_0_split_4
I0403 14:58:05.204646 11360 net.cpp:141] Setting up inception_4a/output_inception_4a/output_0_split
I0403 14:58:05.204676 11360 net.cpp:148] Top shape: 24 512 14 14 (2408448)
I0403 14:58:05.204696 11360 net.cpp:148] Top shape: 24 512 14 14 (2408448)
I0403 14:58:05.204716 11360 net.cpp:148] Top shape: 24 512 14 14 (2408448)
I0403 14:58:05.204733 11360 net.cpp:148] Top shape: 24 512 14 14 (2408448)
I0403 14:58:05.204752 11360 net.cpp:148] Top shape: 24 512 14 14 (2408448)
I0403 14:58:05.204771 11360 net.cpp:156] Memory required for data: 944714784
I0403 14:58:05.204788 11360 layer_factory.hpp:77] Creating layer loss1/ave_pool
I0403 14:58:05.204810 11360 net.cpp:91] Creating Layer loss1/ave_pool
I0403 14:58:05.204828 11360 net.cpp:425] loss1/ave_pool <- inception_4a/output_inception_4a/output_0_split_0
I0403 14:58:05.204852 11360 net.cpp:399] loss1/ave_pool -> loss1/ave_pool
I0403 14:58:05.205118 11360 net.cpp:141] Setting up loss1/ave_pool
I0403 14:58:05.205152 11360 net.cpp:148] Top shape: 24 512 4 4 (196608)
I0403 14:58:05.205170 11360 net.cpp:156] Memory required for data: 945501216
I0403 14:58:05.205189 11360 layer_factory.hpp:77] Creating layer loss1/conv
I0403 14:58:05.205217 11360 net.cpp:91] Creating Layer loss1/conv
I0403 14:58:05.205238 11360 net.cpp:425] loss1/conv <- loss1/ave_pool
I0403 14:58:05.205265 11360 net.cpp:399] loss1/conv -> loss1/conv
I0403 14:58:05.206993 11360 net.cpp:141] Setting up loss1/conv
I0403 14:58:05.207031 11360 net.cpp:148] Top shape: 24 128 4 4 (49152)
I0403 14:58:05.207067 11360 net.cpp:156] Memory required for data: 945697824
I0403 14:58:05.207093 11360 layer_factory.hpp:77] Creating layer loss1/relu_conv
I0403 14:58:05.207121 11360 net.cpp:91] Creating Layer loss1/relu_conv
I0403 14:58:05.207140 11360 net.cpp:425] loss1/relu_conv <- loss1/conv
I0403 14:58:05.207160 11360 net.cpp:386] loss1/relu_conv -> loss1/conv (in-place)
I0403 14:58:05.207507 11360 net.cpp:141] Setting up loss1/relu_conv
I0403 14:58:05.207543 11360 net.cpp:148] Top shape: 24 128 4 4 (49152)
I0403 14:58:05.207563 11360 net.cpp:156] Memory required for data: 945894432
I0403 14:58:05.207581 11360 layer_factory.hpp:77] Creating layer loss1/fc
I0403 14:58:05.207610 11360 net.cpp:91] Creating Layer loss1/fc
I0403 14:58:05.207633 11360 net.cpp:425] loss1/fc <- loss1/conv
I0403 14:58:05.207659 11360 net.cpp:399] loss1/fc -> loss1/fc
I0403 14:58:05.229425 11360 net.cpp:141] Setting up loss1/fc
I0403 14:58:05.229495 11360 net.cpp:148] Top shape: 24 1024 (24576)
I0403 14:58:05.229516 11360 net.cpp:156] Memory required for data: 945992736
I0403 14:58:05.229539 11360 layer_factory.hpp:77] Creating layer loss1/relu_fc
I0403 14:58:05.229563 11360 net.cpp:91] Creating Layer loss1/relu_fc
I0403 14:58:05.229583 11360 net.cpp:425] loss1/relu_fc <- loss1/fc
I0403 14:58:05.229604 11360 net.cpp:386] loss1/relu_fc -> loss1/fc (in-place)
I0403 14:58:05.229856 11360 net.cpp:141] Setting up loss1/relu_fc
I0403 14:58:05.229890 11360 net.cpp:148] Top shape: 24 1024 (24576)
I0403 14:58:05.229910 11360 net.cpp:156] Memory required for data: 946091040
I0403 14:58:05.229929 11360 layer_factory.hpp:77] Creating layer loss1/drop_fc
I0403 14:58:05.229964 11360 net.cpp:91] Creating Layer loss1/drop_fc
I0403 14:58:05.229986 11360 net.cpp:425] loss1/drop_fc <- loss1/fc
I0403 14:58:05.230007 11360 net.cpp:386] loss1/drop_fc -> loss1/fc (in-place)
I0403 14:58:05.230077 11360 net.cpp:141] Setting up loss1/drop_fc
I0403 14:58:05.230110 11360 net.cpp:148] Top shape: 24 1024 (24576)
I0403 14:58:05.230130 11360 net.cpp:156] Memory required for data: 946189344
I0403 14:58:05.230149 11360 layer_factory.hpp:77] Creating layer loss1/classifier_plantvillage
I0403 14:58:05.230177 11360 net.cpp:91] Creating Layer loss1/classifier_plantvillage
I0403 14:58:05.230198 11360 net.cpp:425] loss1/classifier_plantvillage <- loss1/fc
I0403 14:58:05.230221 11360 net.cpp:399] loss1/classifier_plantvillage -> loss1/classifier_plantvillage
I0403 14:58:05.231372 11360 net.cpp:141] Setting up loss1/classifier_plantvillage
I0403 14:58:05.231418 11360 net.cpp:148] Top shape: 24 38 (912)
I0403 14:58:05.231438 11360 net.cpp:156] Memory required for data: 946192992
I0403 14:58:05.231462 11360 layer_factory.hpp:77] Creating layer loss1/classifier_plantvillage_loss1/classifier_plantvillage_0_split
I0403 14:58:05.231487 11360 net.cpp:91] Creating Layer loss1/classifier_plantvillage_loss1/classifier_plantvillage_0_split
I0403 14:58:05.231506 11360 net.cpp:425] loss1/classifier_plantvillage_loss1/classifier_plantvillage_0_split <- loss1/classifier_plantvillage
I0403 14:58:05.231528 11360 net.cpp:399] loss1/classifier_plantvillage_loss1/classifier_plantvillage_0_split -> loss1/classifier_plantvillage_loss1/classifier_plantvillage_0_split_0
I0403 14:58:05.231552 11360 net.cpp:399] loss1/classifier_plantvillage_loss1/classifier_plantvillage_0_split -> loss1/classifier_plantvillage_loss1/classifier_plantvillage_0_split_1
I0403 14:58:05.231577 11360 net.cpp:399] loss1/classifier_plantvillage_loss1/classifier_plantvillage_0_split -> loss1/classifier_plantvillage_loss1/classifier_plantvillage_0_split_2
I0403 14:58:05.231659 11360 net.cpp:141] Setting up loss1/classifier_plantvillage_loss1/classifier_plantvillage_0_split
I0403 14:58:05.231688 11360 net.cpp:148] Top shape: 24 38 (912)
I0403 14:58:05.231709 11360 net.cpp:148] Top shape: 24 38 (912)
I0403 14:58:05.231726 11360 net.cpp:148] Top shape: 24 38 (912)
I0403 14:58:05.231744 11360 net.cpp:156] Memory required for data: 946203936
I0403 14:58:05.231761 11360 layer_factory.hpp:77] Creating layer inception_4b/1x1
I0403 14:58:05.231786 11360 net.cpp:91] Creating Layer inception_4b/1x1
I0403 14:58:05.231838 11360 net.cpp:425] inception_4b/1x1 <- inception_4a/output_inception_4a/output_0_split_1
I0403 14:58:05.231865 11360 net.cpp:399] inception_4b/1x1 -> inception_4b/1x1
I0403 14:58:05.233986 11360 net.cpp:141] Setting up inception_4b/1x1
I0403 14:58:05.234026 11360 net.cpp:148] Top shape: 24 160 14 14 (752640)
I0403 14:58:05.234050 11360 net.cpp:156] Memory required for data: 949214496
I0403 14:58:05.234072 11360 layer_factory.hpp:77] Creating layer inception_4b/relu_1x1
I0403 14:58:05.234099 11360 net.cpp:91] Creating Layer inception_4b/relu_1x1
I0403 14:58:05.234120 11360 net.cpp:425] inception_4b/relu_1x1 <- inception_4b/1x1
I0403 14:58:05.234144 11360 net.cpp:386] inception_4b/relu_1x1 -> inception_4b/1x1 (in-place)
I0403 14:58:05.234375 11360 net.cpp:141] Setting up inception_4b/relu_1x1
I0403 14:58:05.234407 11360 net.cpp:148] Top shape: 24 160 14 14 (752640)
I0403 14:58:05.234426 11360 net.cpp:156] Memory required for data: 952225056
I0403 14:58:05.234443 11360 layer_factory.hpp:77] Creating layer inception_4b/3x3_reduce
I0403 14:58:05.234470 11360 net.cpp:91] Creating Layer inception_4b/3x3_reduce
I0403 14:58:05.234493 11360 net.cpp:425] inception_4b/3x3_reduce <- inception_4a/output_inception_4a/output_0_split_2
I0403 14:58:05.234521 11360 net.cpp:399] inception_4b/3x3_reduce -> inception_4b/3x3_reduce
I0403 14:58:05.236220 11360 net.cpp:141] Setting up inception_4b/3x3_reduce
I0403 14:58:05.236255 11360 net.cpp:148] Top shape: 24 112 14 14 (526848)
I0403 14:58:05.236274 11360 net.cpp:156] Memory required for data: 954332448
I0403 14:58:05.236296 11360 layer_factory.hpp:77] Creating layer inception_4b/relu_3x3_reduce
I0403 14:58:05.236321 11360 net.cpp:91] Creating Layer inception_4b/relu_3x3_reduce
I0403 14:58:05.236342 11360 net.cpp:425] inception_4b/relu_3x3_reduce <- inception_4b/3x3_reduce
I0403 14:58:05.236363 11360 net.cpp:386] inception_4b/relu_3x3_reduce -> inception_4b/3x3_reduce (in-place)
I0403 14:58:05.236711 11360 net.cpp:141] Setting up inception_4b/relu_3x3_reduce
I0403 14:58:05.236743 11360 net.cpp:148] Top shape: 24 112 14 14 (526848)
I0403 14:58:05.236764 11360 net.cpp:156] Memory required for data: 956439840
I0403 14:58:05.236783 11360 layer_factory.hpp:77] Creating layer inception_4b/3x3
I0403 14:58:05.236810 11360 net.cpp:91] Creating Layer inception_4b/3x3
I0403 14:58:05.236834 11360 net.cpp:425] inception_4b/3x3 <- inception_4b/3x3_reduce
I0403 14:58:05.236860 11360 net.cpp:399] inception_4b/3x3 -> inception_4b/3x3
I0403 14:58:05.240501 11360 net.cpp:141] Setting up inception_4b/3x3
I0403 14:58:05.240538 11360 net.cpp:148] Top shape: 24 224 14 14 (1053696)
I0403 14:58:05.240558 11360 net.cpp:156] Memory required for data: 960654624
I0403 14:58:05.240581 11360 layer_factory.hpp:77] Creating layer inception_4b/relu_3x3
I0403 14:58:05.240607 11360 net.cpp:91] Creating Layer inception_4b/relu_3x3
I0403 14:58:05.240628 11360 net.cpp:425] inception_4b/relu_3x3 <- inception_4b/3x3
I0403 14:58:05.240648 11360 net.cpp:386] inception_4b/relu_3x3 -> inception_4b/3x3 (in-place)
I0403 14:58:05.240872 11360 net.cpp:141] Setting up inception_4b/relu_3x3
I0403 14:58:05.240908 11360 net.cpp:148] Top shape: 24 224 14 14 (1053696)
I0403 14:58:05.240928 11360 net.cpp:156] Memory required for data: 964869408
I0403 14:58:05.240948 11360 layer_factory.hpp:77] Creating layer inception_4b/5x5_reduce
I0403 14:58:05.240974 11360 net.cpp:91] Creating Layer inception_4b/5x5_reduce
I0403 14:58:05.240998 11360 net.cpp:425] inception_4b/5x5_reduce <- inception_4a/output_inception_4a/output_0_split_3
I0403 14:58:05.241021 11360 net.cpp:399] inception_4b/5x5_reduce -> inception_4b/5x5_reduce
I0403 14:58:05.242359 11360 net.cpp:141] Setting up inception_4b/5x5_reduce
I0403 14:58:05.242398 11360 net.cpp:148] Top shape: 24 24 14 14 (112896)
I0403 14:58:05.242418 11360 net.cpp:156] Memory required for data: 965320992
I0403 14:58:05.242441 11360 layer_factory.hpp:77] Creating layer inception_4b/relu_5x5_reduce
I0403 14:58:05.242463 11360 net.cpp:91] Creating Layer inception_4b/relu_5x5_reduce
I0403 14:58:05.242504 11360 net.cpp:425] inception_4b/relu_5x5_reduce <- inception_4b/5x5_reduce
I0403 14:58:05.242533 11360 net.cpp:386] inception_4b/relu_5x5_reduce -> inception_4b/5x5_reduce (in-place)
I0403 14:58:05.242764 11360 net.cpp:141] Setting up inception_4b/relu_5x5_reduce
I0403 14:58:05.242796 11360 net.cpp:148] Top shape: 24 24 14 14 (112896)
I0403 14:58:05.242815 11360 net.cpp:156] Memory required for data: 965772576
I0403 14:58:05.242831 11360 layer_factory.hpp:77] Creating layer inception_4b/5x5
I0403 14:58:05.242859 11360 net.cpp:91] Creating Layer inception_4b/5x5
I0403 14:58:05.242882 11360 net.cpp:425] inception_4b/5x5 <- inception_4b/5x5_reduce
I0403 14:58:05.242908 11360 net.cpp:399] inception_4b/5x5 -> inception_4b/5x5
I0403 14:58:05.244431 11360 net.cpp:141] Setting up inception_4b/5x5
I0403 14:58:05.244467 11360 net.cpp:148] Top shape: 24 64 14 14 (301056)
I0403 14:58:05.244488 11360 net.cpp:156] Memory required for data: 966976800
I0403 14:58:05.244511 11360 layer_factory.hpp:77] Creating layer inception_4b/relu_5x5
I0403 14:58:05.244534 11360 net.cpp:91] Creating Layer inception_4b/relu_5x5
I0403 14:58:05.244554 11360 net.cpp:425] inception_4b/relu_5x5 <- inception_4b/5x5
I0403 14:58:05.244577 11360 net.cpp:386] inception_4b/relu_5x5 -> inception_4b/5x5 (in-place)
I0403 14:58:05.244928 11360 net.cpp:141] Setting up inception_4b/relu_5x5
I0403 14:58:05.244964 11360 net.cpp:148] Top shape: 24 64 14 14 (301056)
I0403 14:58:05.244982 11360 net.cpp:156] Memory required for data: 968181024
I0403 14:58:05.245002 11360 layer_factory.hpp:77] Creating layer inception_4b/pool
I0403 14:58:05.245023 11360 net.cpp:91] Creating Layer inception_4b/pool
I0403 14:58:05.245043 11360 net.cpp:425] inception_4b/pool <- inception_4a/output_inception_4a/output_0_split_4
I0403 14:58:05.245069 11360 net.cpp:399] inception_4b/pool -> inception_4b/pool
I0403 14:58:05.245152 11360 net.cpp:141] Setting up inception_4b/pool
I0403 14:58:05.245182 11360 net.cpp:148] Top shape: 24 512 14 14 (2408448)
I0403 14:58:05.245201 11360 net.cpp:156] Memory required for data: 977814816
I0403 14:58:05.245218 11360 layer_factory.hpp:77] Creating layer inception_4b/pool_proj
I0403 14:58:05.245247 11360 net.cpp:91] Creating Layer inception_4b/pool_proj
I0403 14:58:05.245272 11360 net.cpp:425] inception_4b/pool_proj <- inception_4b/pool
I0403 14:58:05.245296 11360 net.cpp:399] inception_4b/pool_proj -> inception_4b/pool_proj
I0403 14:58:05.246783 11360 net.cpp:141] Setting up inception_4b/pool_proj
I0403 14:58:05.246819 11360 net.cpp:148] Top shape: 24 64 14 14 (301056)
I0403 14:58:05.246839 11360 net.cpp:156] Memory required for data: 979019040
I0403 14:58:05.246860 11360 layer_factory.hpp:77] Creating layer inception_4b/relu_pool_proj
I0403 14:58:05.246882 11360 net.cpp:91] Creating Layer inception_4b/relu_pool_proj
I0403 14:58:05.246902 11360 net.cpp:425] inception_4b/relu_pool_proj <- inception_4b/pool_proj
I0403 14:58:05.246927 11360 net.cpp:386] inception_4b/relu_pool_proj -> inception_4b/pool_proj (in-place)
I0403 14:58:05.247160 11360 net.cpp:141] Setting up inception_4b/relu_pool_proj
I0403 14:58:05.247194 11360 net.cpp:148] Top shape: 24 64 14 14 (301056)
I0403 14:58:05.247215 11360 net.cpp:156] Memory required for data: 980223264
I0403 14:58:05.247232 11360 layer_factory.hpp:77] Creating layer inception_4b/output
I0403 14:58:05.247256 11360 net.cpp:91] Creating Layer inception_4b/output
I0403 14:58:05.247277 11360 net.cpp:425] inception_4b/output <- inception_4b/1x1
I0403 14:58:05.247298 11360 net.cpp:425] inception_4b/output <- inception_4b/3x3
I0403 14:58:05.247318 11360 net.cpp:425] inception_4b/output <- inception_4b/5x5
I0403 14:58:05.247337 11360 net.cpp:425] inception_4b/output <- inception_4b/pool_proj
I0403 14:58:05.247359 11360 net.cpp:399] inception_4b/output -> inception_4b/output
I0403 14:58:05.247416 11360 net.cpp:141] Setting up inception_4b/output
I0403 14:58:05.247447 11360 net.cpp:148] Top shape: 24 512 14 14 (2408448)
I0403 14:58:05.247467 11360 net.cpp:156] Memory required for data: 989857056
I0403 14:58:05.247505 11360 layer_factory.hpp:77] Creating layer inception_4b/output_inception_4b/output_0_split
I0403 14:58:05.247527 11360 net.cpp:91] Creating Layer inception_4b/output_inception_4b/output_0_split
I0403 14:58:05.247547 11360 net.cpp:425] inception_4b/output_inception_4b/output_0_split <- inception_4b/output
I0403 14:58:05.247571 11360 net.cpp:399] inception_4b/output_inception_4b/output_0_split -> inception_4b/output_inception_4b/output_0_split_0
I0403 14:58:05.247597 11360 net.cpp:399] inception_4b/output_inception_4b/output_0_split -> inception_4b/output_inception_4b/output_0_split_1
I0403 14:58:05.247622 11360 net.cpp:399] inception_4b/output_inception_4b/output_0_split -> inception_4b/output_inception_4b/output_0_split_2
I0403 14:58:05.247648 11360 net.cpp:399] inception_4b/output_inception_4b/output_0_split -> inception_4b/output_inception_4b/output_0_split_3
I0403 14:58:05.247748 11360 net.cpp:141] Setting up inception_4b/output_inception_4b/output_0_split
I0403 14:58:05.247781 11360 net.cpp:148] Top shape: 24 512 14 14 (2408448)
I0403 14:58:05.247802 11360 net.cpp:148] Top shape: 24 512 14 14 (2408448)
I0403 14:58:05.247822 11360 net.cpp:148] Top shape: 24 512 14 14 (2408448)
I0403 14:58:05.247840 11360 net.cpp:148] Top shape: 24 512 14 14 (2408448)
I0403 14:58:05.247856 11360 net.cpp:156] Memory required for data: 1028392224
I0403 14:58:05.247874 11360 layer_factory.hpp:77] Creating layer inception_4c/1x1
I0403 14:58:05.247902 11360 net.cpp:91] Creating Layer inception_4c/1x1
I0403 14:58:05.247923 11360 net.cpp:425] inception_4c/1x1 <- inception_4b/output_inception_4b/output_0_split_0
I0403 14:58:05.247946 11360 net.cpp:399] inception_4c/1x1 -> inception_4c/1x1
I0403 14:58:05.249727 11360 net.cpp:141] Setting up inception_4c/1x1
I0403 14:58:05.249761 11360 net.cpp:148] Top shape: 24 128 14 14 (602112)
I0403 14:58:05.249780 11360 net.cpp:156] Memory required for data: 1030800672
I0403 14:58:05.249804 11360 layer_factory.hpp:77] Creating layer inception_4c/relu_1x1
I0403 14:58:05.249830 11360 net.cpp:91] Creating Layer inception_4c/relu_1x1
I0403 14:58:05.249848 11360 net.cpp:425] inception_4c/relu_1x1 <- inception_4c/1x1
I0403 14:58:05.249867 11360 net.cpp:386] inception_4c/relu_1x1 -> inception_4c/1x1 (in-place)
I0403 14:58:05.250105 11360 net.cpp:141] Setting up inception_4c/relu_1x1
I0403 14:58:05.250140 11360 net.cpp:148] Top shape: 24 128 14 14 (602112)
I0403 14:58:05.250159 11360 net.cpp:156] Memory required for data: 1033209120
I0403 14:58:05.250180 11360 layer_factory.hpp:77] Creating layer inception_4c/3x3_reduce
I0403 14:58:05.250208 11360 net.cpp:91] Creating Layer inception_4c/3x3_reduce
I0403 14:58:05.250231 11360 net.cpp:425] inception_4c/3x3_reduce <- inception_4b/output_inception_4b/output_0_split_1
I0403 14:58:05.250252 11360 net.cpp:399] inception_4c/3x3_reduce -> inception_4c/3x3_reduce
I0403 14:58:05.252691 11360 net.cpp:141] Setting up inception_4c/3x3_reduce
I0403 14:58:05.252730 11360 net.cpp:148] Top shape: 24 128 14 14 (602112)
I0403 14:58:05.252750 11360 net.cpp:156] Memory required for data: 1035617568
I0403 14:58:05.252774 11360 layer_factory.hpp:77] Creating layer inception_4c/relu_3x3_reduce
I0403 14:58:05.252795 11360 net.cpp:91] Creating Layer inception_4c/relu_3x3_reduce
I0403 14:58:05.252815 11360 net.cpp:425] inception_4c/relu_3x3_reduce <- inception_4c/3x3_reduce
I0403 14:58:05.252837 11360 net.cpp:386] inception_4c/relu_3x3_reduce -> inception_4c/3x3_reduce (in-place)
I0403 14:58:05.253199 11360 net.cpp:141] Setting up inception_4c/relu_3x3_reduce
I0403 14:58:05.253235 11360 net.cpp:148] Top shape: 24 128 14 14 (602112)
I0403 14:58:05.253255 11360 net.cpp:156] Memory required for data: 1038026016
I0403 14:58:05.253274 11360 layer_factory.hpp:77] Creating layer inception_4c/3x3
I0403 14:58:05.253304 11360 net.cpp:91] Creating Layer inception_4c/3x3
I0403 14:58:05.253325 11360 net.cpp:425] inception_4c/3x3 <- inception_4c/3x3_reduce
I0403 14:58:05.253348 11360 net.cpp:399] inception_4c/3x3 -> inception_4c/3x3
I0403 14:58:05.257738 11360 net.cpp:141] Setting up inception_4c/3x3
I0403 14:58:05.257794 11360 net.cpp:148] Top shape: 24 256 14 14 (1204224)
I0403 14:58:05.257815 11360 net.cpp:156] Memory required for data: 1042842912
I0403 14:58:05.257856 11360 layer_factory.hpp:77] Creating layer inception_4c/relu_3x3
I0403 14:58:05.257884 11360 net.cpp:91] Creating Layer inception_4c/relu_3x3
I0403 14:58:05.257905 11360 net.cpp:425] inception_4c/relu_3x3 <- inception_4c/3x3
I0403 14:58:05.257927 11360 net.cpp:386] inception_4c/relu_3x3 -> inception_4c/3x3 (in-place)
I0403 14:58:05.258162 11360 net.cpp:141] Setting up inception_4c/relu_3x3
I0403 14:58:05.258195 11360 net.cpp:148] Top shape: 24 256 14 14 (1204224)
I0403 14:58:05.258213 11360 net.cpp:156] Memory required for data: 1047659808
I0403 14:58:05.258232 11360 layer_factory.hpp:77] Creating layer inception_4c/5x5_reduce
I0403 14:58:05.258261 11360 net.cpp:91] Creating Layer inception_4c/5x5_reduce
I0403 14:58:05.258285 11360 net.cpp:425] inception_4c/5x5_reduce <- inception_4b/output_inception_4b/output_0_split_2
I0403 14:58:05.258311 11360 net.cpp:399] inception_4c/5x5_reduce -> inception_4c/5x5_reduce
I0403 14:58:05.259649 11360 net.cpp:141] Setting up inception_4c/5x5_reduce
I0403 14:58:05.259687 11360 net.cpp:148] Top shape: 24 24 14 14 (112896)
I0403 14:58:05.259707 11360 net.cpp:156] Memory required for data: 1048111392
I0403 14:58:05.259728 11360 layer_factory.hpp:77] Creating layer inception_4c/relu_5x5_reduce
I0403 14:58:05.259754 11360 net.cpp:91] Creating Layer inception_4c/relu_5x5_reduce
I0403 14:58:05.259774 11360 net.cpp:425] inception_4c/relu_5x5_reduce <- inception_4c/5x5_reduce
I0403 14:58:05.259799 11360 net.cpp:386] inception_4c/relu_5x5_reduce -> inception_4c/5x5_reduce (in-place)
I0403 14:58:05.260030 11360 net.cpp:141] Setting up inception_4c/relu_5x5_reduce
I0403 14:58:05.260063 11360 net.cpp:148] Top shape: 24 24 14 14 (112896)
I0403 14:58:05.260083 11360 net.cpp:156] Memory required for data: 1048562976
I0403 14:58:05.260109 11360 layer_factory.hpp:77] Creating layer inception_4c/5x5
I0403 14:58:05.260138 11360 net.cpp:91] Creating Layer inception_4c/5x5
I0403 14:58:05.260161 11360 net.cpp:425] inception_4c/5x5 <- inception_4c/5x5_reduce
I0403 14:58:05.260187 11360 net.cpp:399] inception_4c/5x5 -> inception_4c/5x5
I0403 14:58:05.261729 11360 net.cpp:141] Setting up inception_4c/5x5
I0403 14:58:05.261765 11360 net.cpp:148] Top shape: 24 64 14 14 (301056)
I0403 14:58:05.261782 11360 net.cpp:156] Memory required for data: 1049767200
I0403 14:58:05.261806 11360 layer_factory.hpp:77] Creating layer inception_4c/relu_5x5
I0403 14:58:05.261831 11360 net.cpp:91] Creating Layer inception_4c/relu_5x5
I0403 14:58:05.261853 11360 net.cpp:425] inception_4c/relu_5x5 <- inception_4c/5x5
I0403 14:58:05.261874 11360 net.cpp:386] inception_4c/relu_5x5 -> inception_4c/5x5 (in-place)
I0403 14:58:05.262233 11360 net.cpp:141] Setting up inception_4c/relu_5x5
I0403 14:58:05.262267 11360 net.cpp:148] Top shape: 24 64 14 14 (301056)
I0403 14:58:05.262285 11360 net.cpp:156] Memory required for data: 1050971424
I0403 14:58:05.262305 11360 layer_factory.hpp:77] Creating layer inception_4c/pool
I0403 14:58:05.262329 11360 net.cpp:91] Creating Layer inception_4c/pool
I0403 14:58:05.262352 11360 net.cpp:425] inception_4c/pool <- inception_4b/output_inception_4b/output_0_split_3
I0403 14:58:05.262375 11360 net.cpp:399] inception_4c/pool -> inception_4c/pool
I0403 14:58:05.262456 11360 net.cpp:141] Setting up inception_4c/pool
I0403 14:58:05.262487 11360 net.cpp:148] Top shape: 24 512 14 14 (2408448)
I0403 14:58:05.262506 11360 net.cpp:156] Memory required for data: 1060605216
I0403 14:58:05.262522 11360 layer_factory.hpp:77] Creating layer inception_4c/pool_proj
I0403 14:58:05.262549 11360 net.cpp:91] Creating Layer inception_4c/pool_proj
I0403 14:58:05.262573 11360 net.cpp:425] inception_4c/pool_proj <- inception_4c/pool
I0403 14:58:05.262598 11360 net.cpp:399] inception_4c/pool_proj -> inception_4c/pool_proj
I0403 14:58:05.264124 11360 net.cpp:141] Setting up inception_4c/pool_proj
I0403 14:58:05.264163 11360 net.cpp:148] Top shape: 24 64 14 14 (301056)
I0403 14:58:05.264200 11360 net.cpp:156] Memory required for data: 1061809440
I0403 14:58:05.264225 11360 layer_factory.hpp:77] Creating layer inception_4c/relu_pool_proj
I0403 14:58:05.264247 11360 net.cpp:91] Creating Layer inception_4c/relu_pool_proj
I0403 14:58:05.264266 11360 net.cpp:425] inception_4c/relu_pool_proj <- inception_4c/pool_proj
I0403 14:58:05.264293 11360 net.cpp:386] inception_4c/relu_pool_proj -> inception_4c/pool_proj (in-place)
I0403 14:58:05.264521 11360 net.cpp:141] Setting up inception_4c/relu_pool_proj
I0403 14:58:05.264554 11360 net.cpp:148] Top shape: 24 64 14 14 (301056)
I0403 14:58:05.264572 11360 net.cpp:156] Memory required for data: 1063013664
I0403 14:58:05.264590 11360 layer_factory.hpp:77] Creating layer inception_4c/output
I0403 14:58:05.264612 11360 net.cpp:91] Creating Layer inception_4c/output
I0403 14:58:05.264631 11360 net.cpp:425] inception_4c/output <- inception_4c/1x1
I0403 14:58:05.264658 11360 net.cpp:425] inception_4c/output <- inception_4c/3x3
I0403 14:58:05.264680 11360 net.cpp:425] inception_4c/output <- inception_4c/5x5
I0403 14:58:05.264700 11360 net.cpp:425] inception_4c/output <- inception_4c/pool_proj
I0403 14:58:05.264721 11360 net.cpp:399] inception_4c/output -> inception_4c/output
I0403 14:58:05.264778 11360 net.cpp:141] Setting up inception_4c/output
I0403 14:58:05.264811 11360 net.cpp:148] Top shape: 24 512 14 14 (2408448)
I0403 14:58:05.264830 11360 net.cpp:156] Memory required for data: 1072647456
I0403 14:58:05.264849 11360 layer_factory.hpp:77] Creating layer inception_4c/output_inception_4c/output_0_split
I0403 14:58:05.264870 11360 net.cpp:91] Creating Layer inception_4c/output_inception_4c/output_0_split
I0403 14:58:05.264889 11360 net.cpp:425] inception_4c/output_inception_4c/output_0_split <- inception_4c/output
I0403 14:58:05.264914 11360 net.cpp:399] inception_4c/output_inception_4c/output_0_split -> inception_4c/output_inception_4c/output_0_split_0
I0403 14:58:05.264940 11360 net.cpp:399] inception_4c/output_inception_4c/output_0_split -> inception_4c/output_inception_4c/output_0_split_1
I0403 14:58:05.264966 11360 net.cpp:399] inception_4c/output_inception_4c/output_0_split -> inception_4c/output_inception_4c/output_0_split_2
I0403 14:58:05.264991 11360 net.cpp:399] inception_4c/output_inception_4c/output_0_split -> inception_4c/output_inception_4c/output_0_split_3
I0403 14:58:05.265099 11360 net.cpp:141] Setting up inception_4c/output_inception_4c/output_0_split
I0403 14:58:05.265133 11360 net.cpp:148] Top shape: 24 512 14 14 (2408448)
I0403 14:58:05.265156 11360 net.cpp:148] Top shape: 24 512 14 14 (2408448)
I0403 14:58:05.265175 11360 net.cpp:148] Top shape: 24 512 14 14 (2408448)
I0403 14:58:05.265193 11360 net.cpp:148] Top shape: 24 512 14 14 (2408448)
I0403 14:58:05.265213 11360 net.cpp:156] Memory required for data: 1111182624
I0403 14:58:05.265230 11360 layer_factory.hpp:77] Creating layer inception_4d/1x1
I0403 14:58:05.265257 11360 net.cpp:91] Creating Layer inception_4d/1x1
I0403 14:58:05.265280 11360 net.cpp:425] inception_4d/1x1 <- inception_4c/output_inception_4c/output_0_split_0
I0403 14:58:05.265303 11360 net.cpp:399] inception_4d/1x1 -> inception_4d/1x1
I0403 14:58:05.267004 11360 net.cpp:141] Setting up inception_4d/1x1
I0403 14:58:05.267040 11360 net.cpp:148] Top shape: 24 112 14 14 (526848)
I0403 14:58:05.267062 11360 net.cpp:156] Memory required for data: 1113290016
I0403 14:58:05.267086 11360 layer_factory.hpp:77] Creating layer inception_4d/relu_1x1
I0403 14:58:05.267117 11360 net.cpp:91] Creating Layer inception_4d/relu_1x1
I0403 14:58:05.267138 11360 net.cpp:425] inception_4d/relu_1x1 <- inception_4d/1x1
I0403 14:58:05.267158 11360 net.cpp:386] inception_4d/relu_1x1 -> inception_4d/1x1 (in-place)
I0403 14:58:05.267386 11360 net.cpp:141] Setting up inception_4d/relu_1x1
I0403 14:58:05.267423 11360 net.cpp:148] Top shape: 24 112 14 14 (526848)
I0403 14:58:05.267442 11360 net.cpp:156] Memory required for data: 1115397408
I0403 14:58:05.267462 11360 layer_factory.hpp:77] Creating layer inception_4d/3x3_reduce
I0403 14:58:05.267506 11360 net.cpp:91] Creating Layer inception_4d/3x3_reduce
I0403 14:58:05.267529 11360 net.cpp:425] inception_4d/3x3_reduce <- inception_4c/output_inception_4c/output_0_split_1
I0403 14:58:05.267554 11360 net.cpp:399] inception_4d/3x3_reduce -> inception_4d/3x3_reduce
I0403 14:58:05.269444 11360 net.cpp:141] Setting up inception_4d/3x3_reduce
I0403 14:58:05.269480 11360 net.cpp:148] Top shape: 24 144 14 14 (677376)
I0403 14:58:05.269500 11360 net.cpp:156] Memory required for data: 1118106912
I0403 14:58:05.269523 11360 layer_factory.hpp:77] Creating layer inception_4d/relu_3x3_reduce
I0403 14:58:05.269548 11360 net.cpp:91] Creating Layer inception_4d/relu_3x3_reduce
I0403 14:58:05.269568 11360 net.cpp:425] inception_4d/relu_3x3_reduce <- inception_4d/3x3_reduce
I0403 14:58:05.269590 11360 net.cpp:386] inception_4d/relu_3x3_reduce -> inception_4d/3x3_reduce (in-place)
I0403 14:58:05.269945 11360 net.cpp:141] Setting up inception_4d/relu_3x3_reduce
I0403 14:58:05.269979 11360 net.cpp:148] Top shape: 24 144 14 14 (677376)
I0403 14:58:05.269999 11360 net.cpp:156] Memory required for data: 1120816416
I0403 14:58:05.270017 11360 layer_factory.hpp:77] Creating layer inception_4d/3x3
I0403 14:58:05.270045 11360 net.cpp:91] Creating Layer inception_4d/3x3
I0403 14:58:05.270067 11360 net.cpp:425] inception_4d/3x3 <- inception_4d/3x3_reduce
I0403 14:58:05.270100 11360 net.cpp:399] inception_4d/3x3 -> inception_4d/3x3
I0403 14:58:05.275364 11360 net.cpp:141] Setting up inception_4d/3x3
I0403 14:58:05.275401 11360 net.cpp:148] Top shape: 24 288 14 14 (1354752)
I0403 14:58:05.275423 11360 net.cpp:156] Memory required for data: 1126235424
I0403 14:58:05.275445 11360 layer_factory.hpp:77] Creating layer inception_4d/relu_3x3
I0403 14:58:05.275475 11360 net.cpp:91] Creating Layer inception_4d/relu_3x3
I0403 14:58:05.275495 11360 net.cpp:425] inception_4d/relu_3x3 <- inception_4d/3x3
I0403 14:58:05.275516 11360 net.cpp:386] inception_4d/relu_3x3 -> inception_4d/3x3 (in-place)
I0403 14:58:05.275751 11360 net.cpp:141] Setting up inception_4d/relu_3x3
I0403 14:58:05.275784 11360 net.cpp:148] Top shape: 24 288 14 14 (1354752)
I0403 14:58:05.275802 11360 net.cpp:156] Memory required for data: 1131654432
I0403 14:58:05.275822 11360 layer_factory.hpp:77] Creating layer inception_4d/5x5_reduce
I0403 14:58:05.275848 11360 net.cpp:91] Creating Layer inception_4d/5x5_reduce
I0403 14:58:05.275871 11360 net.cpp:425] inception_4d/5x5_reduce <- inception_4c/output_inception_4c/output_0_split_2
I0403 14:58:05.275897 11360 net.cpp:399] inception_4d/5x5_reduce -> inception_4d/5x5_reduce
I0403 14:58:05.277325 11360 net.cpp:141] Setting up inception_4d/5x5_reduce
I0403 14:58:05.277365 11360 net.cpp:148] Top shape: 24 32 14 14 (150528)
I0403 14:58:05.277385 11360 net.cpp:156] Memory required for data: 1132256544
I0403 14:58:05.277410 11360 layer_factory.hpp:77] Creating layer inception_4d/relu_5x5_reduce
I0403 14:58:05.277431 11360 net.cpp:91] Creating Layer inception_4d/relu_5x5_reduce
I0403 14:58:05.277454 11360 net.cpp:425] inception_4d/relu_5x5_reduce <- inception_4d/5x5_reduce
I0403 14:58:05.277477 11360 net.cpp:386] inception_4d/relu_5x5_reduce -> inception_4d/5x5_reduce (in-place)
I0403 14:58:05.277709 11360 net.cpp:141] Setting up inception_4d/relu_5x5_reduce
I0403 14:58:05.277742 11360 net.cpp:148] Top shape: 24 32 14 14 (150528)
I0403 14:58:05.277763 11360 net.cpp:156] Memory required for data: 1132858656
I0403 14:58:05.277783 11360 layer_factory.hpp:77] Creating layer inception_4d/5x5
I0403 14:58:05.277812 11360 net.cpp:91] Creating Layer inception_4d/5x5
I0403 14:58:05.277832 11360 net.cpp:425] inception_4d/5x5 <- inception_4d/5x5_reduce
I0403 14:58:05.277858 11360 net.cpp:399] inception_4d/5x5 -> inception_4d/5x5
I0403 14:58:05.279683 11360 net.cpp:141] Setting up inception_4d/5x5
I0403 14:58:05.279721 11360 net.cpp:148] Top shape: 24 64 14 14 (301056)
I0403 14:58:05.279739 11360 net.cpp:156] Memory required for data: 1134062880
I0403 14:58:05.279762 11360 layer_factory.hpp:77] Creating layer inception_4d/relu_5x5
I0403 14:58:05.279808 11360 net.cpp:91] Creating Layer inception_4d/relu_5x5
I0403 14:58:05.279831 11360 net.cpp:425] inception_4d/relu_5x5 <- inception_4d/5x5
I0403 14:58:05.279853 11360 net.cpp:386] inception_4d/relu_5x5 -> inception_4d/5x5 (in-place)
I0403 14:58:05.280223 11360 net.cpp:141] Setting up inception_4d/relu_5x5
I0403 14:58:05.280257 11360 net.cpp:148] Top shape: 24 64 14 14 (301056)
I0403 14:58:05.280275 11360 net.cpp:156] Memory required for data: 1135267104
I0403 14:58:05.280294 11360 layer_factory.hpp:77] Creating layer inception_4d/pool
I0403 14:58:05.280316 11360 net.cpp:91] Creating Layer inception_4d/pool
I0403 14:58:05.280335 11360 net.cpp:425] inception_4d/pool <- inception_4c/output_inception_4c/output_0_split_3
I0403 14:58:05.280364 11360 net.cpp:399] inception_4d/pool -> inception_4d/pool
I0403 14:58:05.280448 11360 net.cpp:141] Setting up inception_4d/pool
I0403 14:58:05.280483 11360 net.cpp:148] Top shape: 24 512 14 14 (2408448)
I0403 14:58:05.280503 11360 net.cpp:156] Memory required for data: 1144900896
I0403 14:58:05.280521 11360 layer_factory.hpp:77] Creating layer inception_4d/pool_proj
I0403 14:58:05.280550 11360 net.cpp:91] Creating Layer inception_4d/pool_proj
I0403 14:58:05.280572 11360 net.cpp:425] inception_4d/pool_proj <- inception_4d/pool
I0403 14:58:05.280596 11360 net.cpp:399] inception_4d/pool_proj -> inception_4d/pool_proj
I0403 14:58:05.282790 11360 net.cpp:141] Setting up inception_4d/pool_proj
I0403 14:58:05.282829 11360 net.cpp:148] Top shape: 24 64 14 14 (301056)
I0403 14:58:05.282848 11360 net.cpp:156] Memory required for data: 1146105120
I0403 14:58:05.282871 11360 layer_factory.hpp:77] Creating layer inception_4d/relu_pool_proj
I0403 14:58:05.282896 11360 net.cpp:91] Creating Layer inception_4d/relu_pool_proj
I0403 14:58:05.282920 11360 net.cpp:425] inception_4d/relu_pool_proj <- inception_4d/pool_proj
I0403 14:58:05.282943 11360 net.cpp:386] inception_4d/relu_pool_proj -> inception_4d/pool_proj (in-place)
I0403 14:58:05.283188 11360 net.cpp:141] Setting up inception_4d/relu_pool_proj
I0403 14:58:05.283221 11360 net.cpp:148] Top shape: 24 64 14 14 (301056)
I0403 14:58:05.283238 11360 net.cpp:156] Memory required for data: 1147309344
I0403 14:58:05.283257 11360 layer_factory.hpp:77] Creating layer inception_4d/output
I0403 14:58:05.283277 11360 net.cpp:91] Creating Layer inception_4d/output
I0403 14:58:05.283296 11360 net.cpp:425] inception_4d/output <- inception_4d/1x1
I0403 14:58:05.283318 11360 net.cpp:425] inception_4d/output <- inception_4d/3x3
I0403 14:58:05.283339 11360 net.cpp:425] inception_4d/output <- inception_4d/5x5
I0403 14:58:05.283361 11360 net.cpp:425] inception_4d/output <- inception_4d/pool_proj
I0403 14:58:05.283387 11360 net.cpp:399] inception_4d/output -> inception_4d/output
I0403 14:58:05.283452 11360 net.cpp:141] Setting up inception_4d/output
I0403 14:58:05.283485 11360 net.cpp:148] Top shape: 24 528 14 14 (2483712)
I0403 14:58:05.283507 11360 net.cpp:156] Memory required for data: 1157244192
I0403 14:58:05.283526 11360 layer_factory.hpp:77] Creating layer inception_4d/output_inception_4d/output_0_split
I0403 14:58:05.283548 11360 net.cpp:91] Creating Layer inception_4d/output_inception_4d/output_0_split
I0403 14:58:05.283570 11360 net.cpp:425] inception_4d/output_inception_4d/output_0_split <- inception_4d/output
I0403 14:58:05.283591 11360 net.cpp:399] inception_4d/output_inception_4d/output_0_split -> inception_4d/output_inception_4d/output_0_split_0
I0403 14:58:05.283618 11360 net.cpp:399] inception_4d/output_inception_4d/output_0_split -> inception_4d/output_inception_4d/output_0_split_1
I0403 14:58:05.283646 11360 net.cpp:399] inception_4d/output_inception_4d/output_0_split -> inception_4d/output_inception_4d/output_0_split_2
I0403 14:58:05.283675 11360 net.cpp:399] inception_4d/output_inception_4d/output_0_split -> inception_4d/output_inception_4d/output_0_split_3
I0403 14:58:05.283699 11360 net.cpp:399] inception_4d/output_inception_4d/output_0_split -> inception_4d/output_inception_4d/output_0_split_4
I0403 14:58:05.283828 11360 net.cpp:141] Setting up inception_4d/output_inception_4d/output_0_split
I0403 14:58:05.283874 11360 net.cpp:148] Top shape: 24 528 14 14 (2483712)
I0403 14:58:05.283895 11360 net.cpp:148] Top shape: 24 528 14 14 (2483712)
I0403 14:58:05.283915 11360 net.cpp:148] Top shape: 24 528 14 14 (2483712)
I0403 14:58:05.283936 11360 net.cpp:148] Top shape: 24 528 14 14 (2483712)
I0403 14:58:05.283956 11360 net.cpp:148] Top shape: 24 528 14 14 (2483712)
I0403 14:58:05.283972 11360 net.cpp:156] Memory required for data: 1206918432
I0403 14:58:05.283990 11360 layer_factory.hpp:77] Creating layer loss2/ave_pool
I0403 14:58:05.284015 11360 net.cpp:91] Creating Layer loss2/ave_pool
I0403 14:58:05.284037 11360 net.cpp:425] loss2/ave_pool <- inception_4d/output_inception_4d/output_0_split_0
I0403 14:58:05.284061 11360 net.cpp:399] loss2/ave_pool -> loss2/ave_pool
I0403 14:58:05.284448 11360 net.cpp:141] Setting up loss2/ave_pool
I0403 14:58:05.284484 11360 net.cpp:148] Top shape: 24 528 4 4 (202752)
I0403 14:58:05.284504 11360 net.cpp:156] Memory required for data: 1207729440
I0403 14:58:05.284523 11360 layer_factory.hpp:77] Creating layer loss2/conv
I0403 14:58:05.284550 11360 net.cpp:91] Creating Layer loss2/conv
I0403 14:58:05.284574 11360 net.cpp:425] loss2/conv <- loss2/ave_pool
I0403 14:58:05.284597 11360 net.cpp:399] loss2/conv -> loss2/conv
I0403 14:58:05.286911 11360 net.cpp:141] Setting up loss2/conv
I0403 14:58:05.286948 11360 net.cpp:148] Top shape: 24 128 4 4 (49152)
I0403 14:58:05.286968 11360 net.cpp:156] Memory required for data: 1207926048
I0403 14:58:05.286991 11360 layer_factory.hpp:77] Creating layer loss2/relu_conv
I0403 14:58:05.287014 11360 net.cpp:91] Creating Layer loss2/relu_conv
I0403 14:58:05.287035 11360 net.cpp:425] loss2/relu_conv <- loss2/conv
I0403 14:58:05.287060 11360 net.cpp:386] loss2/relu_conv -> loss2/conv (in-place)
I0403 14:58:05.287420 11360 net.cpp:141] Setting up loss2/relu_conv
I0403 14:58:05.287453 11360 net.cpp:148] Top shape: 24 128 4 4 (49152)
I0403 14:58:05.287474 11360 net.cpp:156] Memory required for data: 1208122656
I0403 14:58:05.287492 11360 layer_factory.hpp:77] Creating layer loss2/fc
I0403 14:58:05.287516 11360 net.cpp:91] Creating Layer loss2/fc
I0403 14:58:05.287538 11360 net.cpp:425] loss2/fc <- loss2/conv
I0403 14:58:05.287564 11360 net.cpp:399] loss2/fc -> loss2/fc
I0403 14:58:05.309301 11360 net.cpp:141] Setting up loss2/fc
I0403 14:58:05.309375 11360 net.cpp:148] Top shape: 24 1024 (24576)
I0403 14:58:05.309392 11360 net.cpp:156] Memory required for data: 1208220960
I0403 14:58:05.309418 11360 layer_factory.hpp:77] Creating layer loss2/relu_fc
I0403 14:58:05.309444 11360 net.cpp:91] Creating Layer loss2/relu_fc
I0403 14:58:05.309466 11360 net.cpp:425] loss2/relu_fc <- loss2/fc
I0403 14:58:05.309489 11360 net.cpp:386] loss2/relu_fc -> loss2/fc (in-place)
I0403 14:58:05.309917 11360 net.cpp:141] Setting up loss2/relu_fc
I0403 14:58:05.309953 11360 net.cpp:148] Top shape: 24 1024 (24576)
I0403 14:58:05.309973 11360 net.cpp:156] Memory required for data: 1208319264
I0403 14:58:05.309990 11360 layer_factory.hpp:77] Creating layer loss2/drop_fc
I0403 14:58:05.310014 11360 net.cpp:91] Creating Layer loss2/drop_fc
I0403 14:58:05.310032 11360 net.cpp:425] loss2/drop_fc <- loss2/fc
I0403 14:58:05.310053 11360 net.cpp:386] loss2/drop_fc -> loss2/fc (in-place)
I0403 14:58:05.310125 11360 net.cpp:141] Setting up loss2/drop_fc
I0403 14:58:05.310154 11360 net.cpp:148] Top shape: 24 1024 (24576)
I0403 14:58:05.310173 11360 net.cpp:156] Memory required for data: 1208417568
I0403 14:58:05.310190 11360 layer_factory.hpp:77] Creating layer loss2/classifier_plantvillage
I0403 14:58:05.310215 11360 net.cpp:91] Creating Layer loss2/classifier_plantvillage
I0403 14:58:05.310236 11360 net.cpp:425] loss2/classifier_plantvillage <- loss2/fc
I0403 14:58:05.310258 11360 net.cpp:399] loss2/classifier_plantvillage -> loss2/classifier_plantvillage
I0403 14:58:05.310766 11360 net.cpp:141] Setting up loss2/classifier_plantvillage
I0403 14:58:05.310797 11360 net.cpp:148] Top shape: 24 38 (912)
I0403 14:58:05.310850 11360 net.cpp:156] Memory required for data: 1208421216
I0403 14:58:05.310874 11360 layer_factory.hpp:77] Creating layer loss2/classifier_plantvillage_loss2/classifier_plantvillage_0_split
I0403 14:58:05.310896 11360 net.cpp:91] Creating Layer loss2/classifier_plantvillage_loss2/classifier_plantvillage_0_split
I0403 14:58:05.310916 11360 net.cpp:425] loss2/classifier_plantvillage_loss2/classifier_plantvillage_0_split <- loss2/classifier_plantvillage
I0403 14:58:05.310940 11360 net.cpp:399] loss2/classifier_plantvillage_loss2/classifier_plantvillage_0_split -> loss2/classifier_plantvillage_loss2/classifier_plantvillage_0_split_0
I0403 14:58:05.310966 11360 net.cpp:399] loss2/classifier_plantvillage_loss2/classifier_plantvillage_0_split -> loss2/classifier_plantvillage_loss2/classifier_plantvillage_0_split_1
I0403 14:58:05.310992 11360 net.cpp:399] loss2/classifier_plantvillage_loss2/classifier_plantvillage_0_split -> loss2/classifier_plantvillage_loss2/classifier_plantvillage_0_split_2
I0403 14:58:05.311092 11360 net.cpp:141] Setting up loss2/classifier_plantvillage_loss2/classifier_plantvillage_0_split
I0403 14:58:05.311126 11360 net.cpp:148] Top shape: 24 38 (912)
I0403 14:58:05.311146 11360 net.cpp:148] Top shape: 24 38 (912)
I0403 14:58:05.311166 11360 net.cpp:148] Top shape: 24 38 (912)
I0403 14:58:05.311182 11360 net.cpp:156] Memory required for data: 1208432160
I0403 14:58:05.311199 11360 layer_factory.hpp:77] Creating layer inception_4e/1x1
I0403 14:58:05.311228 11360 net.cpp:91] Creating Layer inception_4e/1x1
I0403 14:58:05.311251 11360 net.cpp:425] inception_4e/1x1 <- inception_4d/output_inception_4d/output_0_split_1
I0403 14:58:05.311275 11360 net.cpp:399] inception_4e/1x1 -> inception_4e/1x1
I0403 14:58:05.313591 11360 net.cpp:141] Setting up inception_4e/1x1
I0403 14:58:05.313627 11360 net.cpp:148] Top shape: 24 256 14 14 (1204224)
I0403 14:58:05.313647 11360 net.cpp:156] Memory required for data: 1213249056
I0403 14:58:05.313671 11360 layer_factory.hpp:77] Creating layer inception_4e/relu_1x1
I0403 14:58:05.313696 11360 net.cpp:91] Creating Layer inception_4e/relu_1x1
I0403 14:58:05.313719 11360 net.cpp:425] inception_4e/relu_1x1 <- inception_4e/1x1
I0403 14:58:05.313740 11360 net.cpp:386] inception_4e/relu_1x1 -> inception_4e/1x1 (in-place)
I0403 14:58:05.314108 11360 net.cpp:141] Setting up inception_4e/relu_1x1
I0403 14:58:05.314143 11360 net.cpp:148] Top shape: 24 256 14 14 (1204224)
I0403 14:58:05.314162 11360 net.cpp:156] Memory required for data: 1218065952
I0403 14:58:05.314182 11360 layer_factory.hpp:77] Creating layer inception_4e/3x3_reduce
I0403 14:58:05.314210 11360 net.cpp:91] Creating Layer inception_4e/3x3_reduce
I0403 14:58:05.314234 11360 net.cpp:425] inception_4e/3x3_reduce <- inception_4d/output_inception_4d/output_0_split_2
I0403 14:58:05.314260 11360 net.cpp:399] inception_4e/3x3_reduce -> inception_4e/3x3_reduce
I0403 14:58:05.316870 11360 net.cpp:141] Setting up inception_4e/3x3_reduce
I0403 14:58:05.316907 11360 net.cpp:148] Top shape: 24 160 14 14 (752640)
I0403 14:58:05.316928 11360 net.cpp:156] Memory required for data: 1221076512
I0403 14:58:05.316952 11360 layer_factory.hpp:77] Creating layer inception_4e/relu_3x3_reduce
I0403 14:58:05.316975 11360 net.cpp:91] Creating Layer inception_4e/relu_3x3_reduce
I0403 14:58:05.316997 11360 net.cpp:425] inception_4e/relu_3x3_reduce <- inception_4e/3x3_reduce
I0403 14:58:05.317019 11360 net.cpp:386] inception_4e/relu_3x3_reduce -> inception_4e/3x3_reduce (in-place)
I0403 14:58:05.317260 11360 net.cpp:141] Setting up inception_4e/relu_3x3_reduce
I0403 14:58:05.317292 11360 net.cpp:148] Top shape: 24 160 14 14 (752640)
I0403 14:58:05.317313 11360 net.cpp:156] Memory required for data: 1224087072
I0403 14:58:05.317332 11360 layer_factory.hpp:77] Creating layer inception_4e/3x3
I0403 14:58:05.317359 11360 net.cpp:91] Creating Layer inception_4e/3x3
I0403 14:58:05.317383 11360 net.cpp:425] inception_4e/3x3 <- inception_4e/3x3_reduce
I0403 14:58:05.317409 11360 net.cpp:399] inception_4e/3x3 -> inception_4e/3x3
I0403 14:58:05.323575 11360 net.cpp:141] Setting up inception_4e/3x3
I0403 14:58:05.323628 11360 net.cpp:148] Top shape: 24 320 14 14 (1505280)
I0403 14:58:05.323649 11360 net.cpp:156] Memory required for data: 1230108192
I0403 14:58:05.323673 11360 layer_factory.hpp:77] Creating layer inception_4e/relu_3x3
I0403 14:58:05.323698 11360 net.cpp:91] Creating Layer inception_4e/relu_3x3
I0403 14:58:05.323719 11360 net.cpp:425] inception_4e/relu_3x3 <- inception_4e/3x3
I0403 14:58:05.323741 11360 net.cpp:386] inception_4e/relu_3x3 -> inception_4e/3x3 (in-place)
I0403 14:58:05.324121 11360 net.cpp:141] Setting up inception_4e/relu_3x3
I0403 14:58:05.324157 11360 net.cpp:148] Top shape: 24 320 14 14 (1505280)
I0403 14:58:05.324179 11360 net.cpp:156] Memory required for data: 1236129312
I0403 14:58:05.324199 11360 layer_factory.hpp:77] Creating layer inception_4e/5x5_reduce
I0403 14:58:05.324225 11360 net.cpp:91] Creating Layer inception_4e/5x5_reduce
I0403 14:58:05.324249 11360 net.cpp:425] inception_4e/5x5_reduce <- inception_4d/output_inception_4d/output_0_split_3
I0403 14:58:05.324275 11360 net.cpp:399] inception_4e/5x5_reduce -> inception_4e/5x5_reduce
I0403 14:58:05.325609 11360 net.cpp:141] Setting up inception_4e/5x5_reduce
I0403 14:58:05.325644 11360 net.cpp:148] Top shape: 24 32 14 14 (150528)
I0403 14:58:05.325664 11360 net.cpp:156] Memory required for data: 1236731424
I0403 14:58:05.325687 11360 layer_factory.hpp:77] Creating layer inception_4e/relu_5x5_reduce
I0403 14:58:05.325709 11360 net.cpp:91] Creating Layer inception_4e/relu_5x5_reduce
I0403 14:58:05.325733 11360 net.cpp:425] inception_4e/relu_5x5_reduce <- inception_4e/5x5_reduce
I0403 14:58:05.325754 11360 net.cpp:386] inception_4e/relu_5x5_reduce -> inception_4e/5x5_reduce (in-place)
I0403 14:58:05.326123 11360 net.cpp:141] Setting up inception_4e/relu_5x5_reduce
I0403 14:58:05.326156 11360 net.cpp:148] Top shape: 24 32 14 14 (150528)
I0403 14:58:05.326175 11360 net.cpp:156] Memory required for data: 1237333536
I0403 14:58:05.326194 11360 layer_factory.hpp:77] Creating layer inception_4e/5x5
I0403 14:58:05.326243 11360 net.cpp:91] Creating Layer inception_4e/5x5
I0403 14:58:05.326270 11360 net.cpp:425] inception_4e/5x5 <- inception_4e/5x5_reduce
I0403 14:58:05.326295 11360 net.cpp:399] inception_4e/5x5 -> inception_4e/5x5
I0403 14:58:05.328562 11360 net.cpp:141] Setting up inception_4e/5x5
I0403 14:58:05.328599 11360 net.cpp:148] Top shape: 24 128 14 14 (602112)
I0403 14:58:05.328620 11360 net.cpp:156] Memory required for data: 1239741984
I0403 14:58:05.328644 11360 layer_factory.hpp:77] Creating layer inception_4e/relu_5x5
I0403 14:58:05.328667 11360 net.cpp:91] Creating Layer inception_4e/relu_5x5
I0403 14:58:05.328688 11360 net.cpp:425] inception_4e/relu_5x5 <- inception_4e/5x5
I0403 14:58:05.328712 11360 net.cpp:386] inception_4e/relu_5x5 -> inception_4e/5x5 (in-place)
I0403 14:58:05.328958 11360 net.cpp:141] Setting up inception_4e/relu_5x5
I0403 14:58:05.328991 11360 net.cpp:148] Top shape: 24 128 14 14 (602112)
I0403 14:58:05.329010 11360 net.cpp:156] Memory required for data: 1242150432
I0403 14:58:05.329028 11360 layer_factory.hpp:77] Creating layer inception_4e/pool
I0403 14:58:05.329051 11360 net.cpp:91] Creating Layer inception_4e/pool
I0403 14:58:05.329071 11360 net.cpp:425] inception_4e/pool <- inception_4d/output_inception_4d/output_0_split_4
I0403 14:58:05.329102 11360 net.cpp:399] inception_4e/pool -> inception_4e/pool
I0403 14:58:05.329195 11360 net.cpp:141] Setting up inception_4e/pool
I0403 14:58:05.329224 11360 net.cpp:148] Top shape: 24 528 14 14 (2483712)
I0403 14:58:05.329243 11360 net.cpp:156] Memory required for data: 1252085280
I0403 14:58:05.329262 11360 layer_factory.hpp:77] Creating layer inception_4e/pool_proj
I0403 14:58:05.329289 11360 net.cpp:91] Creating Layer inception_4e/pool_proj
I0403 14:58:05.329311 11360 net.cpp:425] inception_4e/pool_proj <- inception_4e/pool
I0403 14:58:05.329334 11360 net.cpp:399] inception_4e/pool_proj -> inception_4e/pool_proj
I0403 14:58:05.331198 11360 net.cpp:141] Setting up inception_4e/pool_proj
I0403 14:58:05.331250 11360 net.cpp:148] Top shape: 24 128 14 14 (602112)
I0403 14:58:05.331272 11360 net.cpp:156] Memory required for data: 1254493728
I0403 14:58:05.331295 11360 layer_factory.hpp:77] Creating layer inception_4e/relu_pool_proj
I0403 14:58:05.331317 11360 net.cpp:91] Creating Layer inception_4e/relu_pool_proj
I0403 14:58:05.331336 11360 net.cpp:425] inception_4e/relu_pool_proj <- inception_4e/pool_proj
I0403 14:58:05.331360 11360 net.cpp:386] inception_4e/relu_pool_proj -> inception_4e/pool_proj (in-place)
I0403 14:58:05.331713 11360 net.cpp:141] Setting up inception_4e/relu_pool_proj
I0403 14:58:05.331748 11360 net.cpp:148] Top shape: 24 128 14 14 (602112)
I0403 14:58:05.331768 11360 net.cpp:156] Memory required for data: 1256902176
I0403 14:58:05.331786 11360 layer_factory.hpp:77] Creating layer inception_4e/output
I0403 14:58:05.331809 11360 net.cpp:91] Creating Layer inception_4e/output
I0403 14:58:05.331827 11360 net.cpp:425] inception_4e/output <- inception_4e/1x1
I0403 14:58:05.331847 11360 net.cpp:425] inception_4e/output <- inception_4e/3x3
I0403 14:58:05.331867 11360 net.cpp:425] inception_4e/output <- inception_4e/5x5
I0403 14:58:05.331888 11360 net.cpp:425] inception_4e/output <- inception_4e/pool_proj
I0403 14:58:05.331909 11360 net.cpp:399] inception_4e/output -> inception_4e/output
I0403 14:58:05.331974 11360 net.cpp:141] Setting up inception_4e/output
I0403 14:58:05.332002 11360 net.cpp:148] Top shape: 24 832 14 14 (3913728)
I0403 14:58:05.332020 11360 net.cpp:156] Memory required for data: 1272557088
I0403 14:58:05.332038 11360 layer_factory.hpp:77] Creating layer pool4/3x3_s2
I0403 14:58:05.332062 11360 net.cpp:91] Creating Layer pool4/3x3_s2
I0403 14:58:05.332082 11360 net.cpp:425] pool4/3x3_s2 <- inception_4e/output
I0403 14:58:05.332123 11360 net.cpp:399] pool4/3x3_s2 -> pool4/3x3_s2
I0403 14:58:05.332214 11360 net.cpp:141] Setting up pool4/3x3_s2
I0403 14:58:05.332244 11360 net.cpp:148] Top shape: 24 832 7 7 (978432)
I0403 14:58:05.332263 11360 net.cpp:156] Memory required for data: 1276470816
I0403 14:58:05.332283 11360 layer_factory.hpp:77] Creating layer pool4/3x3_s2_pool4/3x3_s2_0_split
I0403 14:58:05.332305 11360 net.cpp:91] Creating Layer pool4/3x3_s2_pool4/3x3_s2_0_split
I0403 14:58:05.332324 11360 net.cpp:425] pool4/3x3_s2_pool4/3x3_s2_0_split <- pool4/3x3_s2
I0403 14:58:05.332350 11360 net.cpp:399] pool4/3x3_s2_pool4/3x3_s2_0_split -> pool4/3x3_s2_pool4/3x3_s2_0_split_0
I0403 14:58:05.332376 11360 net.cpp:399] pool4/3x3_s2_pool4/3x3_s2_0_split -> pool4/3x3_s2_pool4/3x3_s2_0_split_1
I0403 14:58:05.332401 11360 net.cpp:399] pool4/3x3_s2_pool4/3x3_s2_0_split -> pool4/3x3_s2_pool4/3x3_s2_0_split_2
I0403 14:58:05.332427 11360 net.cpp:399] pool4/3x3_s2_pool4/3x3_s2_0_split -> pool4/3x3_s2_pool4/3x3_s2_0_split_3
I0403 14:58:05.332537 11360 net.cpp:141] Setting up pool4/3x3_s2_pool4/3x3_s2_0_split
I0403 14:58:05.332571 11360 net.cpp:148] Top shape: 24 832 7 7 (978432)
I0403 14:58:05.332592 11360 net.cpp:148] Top shape: 24 832 7 7 (978432)
I0403 14:58:05.332610 11360 net.cpp:148] Top shape: 24 832 7 7 (978432)
I0403 14:58:05.332629 11360 net.cpp:148] Top shape: 24 832 7 7 (978432)
I0403 14:58:05.332646 11360 net.cpp:156] Memory required for data: 1292125728
I0403 14:58:05.332664 11360 layer_factory.hpp:77] Creating layer inception_5a/1x1
I0403 14:58:05.332690 11360 net.cpp:91] Creating Layer inception_5a/1x1
I0403 14:58:05.332712 11360 net.cpp:425] inception_5a/1x1 <- pool4/3x3_s2_pool4/3x3_s2_0_split_0
I0403 14:58:05.332736 11360 net.cpp:399] inception_5a/1x1 -> inception_5a/1x1
I0403 14:58:05.336261 11360 net.cpp:141] Setting up inception_5a/1x1
I0403 14:58:05.336297 11360 net.cpp:148] Top shape: 24 256 7 7 (301056)
I0403 14:58:05.336315 11360 net.cpp:156] Memory required for data: 1293329952
I0403 14:58:05.336338 11360 layer_factory.hpp:77] Creating layer inception_5a/relu_1x1
I0403 14:58:05.336359 11360 net.cpp:91] Creating Layer inception_5a/relu_1x1
I0403 14:58:05.336380 11360 net.cpp:425] inception_5a/relu_1x1 <- inception_5a/1x1
I0403 14:58:05.336405 11360 net.cpp:386] inception_5a/relu_1x1 -> inception_5a/1x1 (in-place)
I0403 14:58:05.336788 11360 net.cpp:141] Setting up inception_5a/relu_1x1
I0403 14:58:05.336819 11360 net.cpp:148] Top shape: 24 256 7 7 (301056)
I0403 14:58:05.336838 11360 net.cpp:156] Memory required for data: 1294534176
I0403 14:58:05.336854 11360 layer_factory.hpp:77] Creating layer inception_5a/3x3_reduce
I0403 14:58:05.336882 11360 net.cpp:91] Creating Layer inception_5a/3x3_reduce
I0403 14:58:05.336905 11360 net.cpp:425] inception_5a/3x3_reduce <- pool4/3x3_s2_pool4/3x3_s2_0_split_1
I0403 14:58:05.336930 11360 net.cpp:399] inception_5a/3x3_reduce -> inception_5a/3x3_reduce
I0403 14:58:05.339956 11360 net.cpp:141] Setting up inception_5a/3x3_reduce
I0403 14:58:05.339992 11360 net.cpp:148] Top shape: 24 160 7 7 (188160)
I0403 14:58:05.340010 11360 net.cpp:156] Memory required for data: 1295286816
I0403 14:58:05.340032 11360 layer_factory.hpp:77] Creating layer inception_5a/relu_3x3_reduce
I0403 14:58:05.340057 11360 net.cpp:91] Creating Layer inception_5a/relu_3x3_reduce
I0403 14:58:05.340078 11360 net.cpp:425] inception_5a/relu_3x3_reduce <- inception_5a/3x3_reduce
I0403 14:58:05.340108 11360 net.cpp:386] inception_5a/relu_3x3_reduce -> inception_5a/3x3_reduce (in-place)
I0403 14:58:05.340348 11360 net.cpp:141] Setting up inception_5a/relu_3x3_reduce
I0403 14:58:05.340380 11360 net.cpp:148] Top shape: 24 160 7 7 (188160)
I0403 14:58:05.340399 11360 net.cpp:156] Memory required for data: 1296039456
I0403 14:58:05.340416 11360 layer_factory.hpp:77] Creating layer inception_5a/3x3
I0403 14:58:05.340445 11360 net.cpp:91] Creating Layer inception_5a/3x3
I0403 14:58:05.340466 11360 net.cpp:425] inception_5a/3x3 <- inception_5a/3x3_reduce
I0403 14:58:05.340492 11360 net.cpp:399] inception_5a/3x3 -> inception_5a/3x3
I0403 14:58:05.346705 11360 net.cpp:141] Setting up inception_5a/3x3
I0403 14:58:05.346746 11360 net.cpp:148] Top shape: 24 320 7 7 (376320)
I0403 14:58:05.346766 11360 net.cpp:156] Memory required for data: 1297544736
I0403 14:58:05.346789 11360 layer_factory.hpp:77] Creating layer inception_5a/relu_3x3
I0403 14:58:05.346812 11360 net.cpp:91] Creating Layer inception_5a/relu_3x3
I0403 14:58:05.346830 11360 net.cpp:425] inception_5a/relu_3x3 <- inception_5a/3x3
I0403 14:58:05.346854 11360 net.cpp:386] inception_5a/relu_3x3 -> inception_5a/3x3 (in-place)
I0403 14:58:05.347223 11360 net.cpp:141] Setting up inception_5a/relu_3x3
I0403 14:58:05.347257 11360 net.cpp:148] Top shape: 24 320 7 7 (376320)
I0403 14:58:05.347278 11360 net.cpp:156] Memory required for data: 1299050016
I0403 14:58:05.347296 11360 layer_factory.hpp:77] Creating layer inception_5a/5x5_reduce
I0403 14:58:05.347324 11360 net.cpp:91] Creating Layer inception_5a/5x5_reduce
I0403 14:58:05.347347 11360 net.cpp:425] inception_5a/5x5_reduce <- pool4/3x3_s2_pool4/3x3_s2_0_split_2
I0403 14:58:05.347373 11360 net.cpp:399] inception_5a/5x5_reduce -> inception_5a/5x5_reduce
I0403 14:58:05.348817 11360 net.cpp:141] Setting up inception_5a/5x5_reduce
I0403 14:58:05.348855 11360 net.cpp:148] Top shape: 24 32 7 7 (37632)
I0403 14:58:05.348872 11360 net.cpp:156] Memory required for data: 1299200544
I0403 14:58:05.348896 11360 layer_factory.hpp:77] Creating layer inception_5a/relu_5x5_reduce
I0403 14:58:05.348917 11360 net.cpp:91] Creating Layer inception_5a/relu_5x5_reduce
I0403 14:58:05.348935 11360 net.cpp:425] inception_5a/relu_5x5_reduce <- inception_5a/5x5_reduce
I0403 14:58:05.348959 11360 net.cpp:386] inception_5a/relu_5x5_reduce -> inception_5a/5x5_reduce (in-place)
I0403 14:58:05.349334 11360 net.cpp:141] Setting up inception_5a/relu_5x5_reduce
I0403 14:58:05.349369 11360 net.cpp:148] Top shape: 24 32 7 7 (37632)
I0403 14:58:05.349387 11360 net.cpp:156] Memory required for data: 1299351072
I0403 14:58:05.349406 11360 layer_factory.hpp:77] Creating layer inception_5a/5x5
I0403 14:58:05.349433 11360 net.cpp:91] Creating Layer inception_5a/5x5
I0403 14:58:05.349454 11360 net.cpp:425] inception_5a/5x5 <- inception_5a/5x5_reduce
I0403 14:58:05.349483 11360 net.cpp:399] inception_5a/5x5 -> inception_5a/5x5
I0403 14:58:05.351624 11360 net.cpp:141] Setting up inception_5a/5x5
I0403 14:58:05.351680 11360 net.cpp:148] Top shape: 24 128 7 7 (150528)
I0403 14:58:05.351701 11360 net.cpp:156] Memory required for data: 1299953184
I0403 14:58:05.351724 11360 layer_factory.hpp:77] Creating layer inception_5a/relu_5x5
I0403 14:58:05.351747 11360 net.cpp:91] Creating Layer inception_5a/relu_5x5
I0403 14:58:05.351768 11360 net.cpp:425] inception_5a/relu_5x5 <- inception_5a/5x5
I0403 14:58:05.351793 11360 net.cpp:386] inception_5a/relu_5x5 -> inception_5a/5x5 (in-place)
I0403 14:58:05.352031 11360 net.cpp:141] Setting up inception_5a/relu_5x5
I0403 14:58:05.352063 11360 net.cpp:148] Top shape: 24 128 7 7 (150528)
I0403 14:58:05.352080 11360 net.cpp:156] Memory required for data: 1300555296
I0403 14:58:05.352113 11360 layer_factory.hpp:77] Creating layer inception_5a/pool
I0403 14:58:05.352141 11360 net.cpp:91] Creating Layer inception_5a/pool
I0403 14:58:05.352161 11360 net.cpp:425] inception_5a/pool <- pool4/3x3_s2_pool4/3x3_s2_0_split_3
I0403 14:58:05.352185 11360 net.cpp:399] inception_5a/pool -> inception_5a/pool
I0403 14:58:05.352274 11360 net.cpp:141] Setting up inception_5a/pool
I0403 14:58:05.352304 11360 net.cpp:148] Top shape: 24 832 7 7 (978432)
I0403 14:58:05.352324 11360 net.cpp:156] Memory required for data: 1304469024
I0403 14:58:05.352342 11360 layer_factory.hpp:77] Creating layer inception_5a/pool_proj
I0403 14:58:05.352372 11360 net.cpp:91] Creating Layer inception_5a/pool_proj
I0403 14:58:05.352393 11360 net.cpp:425] inception_5a/pool_proj <- inception_5a/pool
I0403 14:58:05.352416 11360 net.cpp:399] inception_5a/pool_proj -> inception_5a/pool_proj
I0403 14:58:05.355231 11360 net.cpp:141] Setting up inception_5a/pool_proj
I0403 14:58:05.355269 11360 net.cpp:148] Top shape: 24 128 7 7 (150528)
I0403 14:58:05.355289 11360 net.cpp:156] Memory required for data: 1305071136
I0403 14:58:05.355311 11360 layer_factory.hpp:77] Creating layer inception_5a/relu_pool_proj
I0403 14:58:05.355332 11360 net.cpp:91] Creating Layer inception_5a/relu_pool_proj
I0403 14:58:05.355352 11360 net.cpp:425] inception_5a/relu_pool_proj <- inception_5a/pool_proj
I0403 14:58:05.355372 11360 net.cpp:386] inception_5a/relu_pool_proj -> inception_5a/pool_proj (in-place)
I0403 14:58:05.355733 11360 net.cpp:141] Setting up inception_5a/relu_pool_proj
I0403 14:58:05.355769 11360 net.cpp:148] Top shape: 24 128 7 7 (150528)
I0403 14:58:05.355790 11360 net.cpp:156] Memory required for data: 1305673248
I0403 14:58:05.355811 11360 layer_factory.hpp:77] Creating layer inception_5a/output
I0403 14:58:05.355832 11360 net.cpp:91] Creating Layer inception_5a/output
I0403 14:58:05.355851 11360 net.cpp:425] inception_5a/output <- inception_5a/1x1
I0403 14:58:05.355873 11360 net.cpp:425] inception_5a/output <- inception_5a/3x3
I0403 14:58:05.355895 11360 net.cpp:425] inception_5a/output <- inception_5a/5x5
I0403 14:58:05.355917 11360 net.cpp:425] inception_5a/output <- inception_5a/pool_proj
I0403 14:58:05.355938 11360 net.cpp:399] inception_5a/output -> inception_5a/output
I0403 14:58:05.356003 11360 net.cpp:141] Setting up inception_5a/output
I0403 14:58:05.356032 11360 net.cpp:148] Top shape: 24 832 7 7 (978432)
I0403 14:58:05.356051 11360 net.cpp:156] Memory required for data: 1309586976
I0403 14:58:05.356070 11360 layer_factory.hpp:77] Creating layer inception_5a/output_inception_5a/output_0_split
I0403 14:58:05.356103 11360 net.cpp:91] Creating Layer inception_5a/output_inception_5a/output_0_split
I0403 14:58:05.356127 11360 net.cpp:425] inception_5a/output_inception_5a/output_0_split <- inception_5a/output
I0403 14:58:05.356150 11360 net.cpp:399] inception_5a/output_inception_5a/output_0_split -> inception_5a/output_inception_5a/output_0_split_0
I0403 14:58:05.356176 11360 net.cpp:399] inception_5a/output_inception_5a/output_0_split -> inception_5a/output_inception_5a/output_0_split_1
I0403 14:58:05.356202 11360 net.cpp:399] inception_5a/output_inception_5a/output_0_split -> inception_5a/output_inception_5a/output_0_split_2
I0403 14:58:05.356227 11360 net.cpp:399] inception_5a/output_inception_5a/output_0_split -> inception_5a/output_inception_5a/output_0_split_3
I0403 14:58:05.356370 11360 net.cpp:141] Setting up inception_5a/output_inception_5a/output_0_split
I0403 14:58:05.356400 11360 net.cpp:148] Top shape: 24 832 7 7 (978432)
I0403 14:58:05.356421 11360 net.cpp:148] Top shape: 24 832 7 7 (978432)
I0403 14:58:05.356441 11360 net.cpp:148] Top shape: 24 832 7 7 (978432)
I0403 14:58:05.356458 11360 net.cpp:148] Top shape: 24 832 7 7 (978432)
I0403 14:58:05.356475 11360 net.cpp:156] Memory required for data: 1325241888
I0403 14:58:05.356492 11360 layer_factory.hpp:77] Creating layer inception_5b/1x1
I0403 14:58:05.356518 11360 net.cpp:91] Creating Layer inception_5b/1x1
I0403 14:58:05.356539 11360 net.cpp:425] inception_5b/1x1 <- inception_5a/output_inception_5a/output_0_split_0
I0403 14:58:05.356565 11360 net.cpp:399] inception_5b/1x1 -> inception_5b/1x1
I0403 14:58:05.361208 11360 net.cpp:141] Setting up inception_5b/1x1
I0403 14:58:05.361245 11360 net.cpp:148] Top shape: 24 384 7 7 (451584)
I0403 14:58:05.361265 11360 net.cpp:156] Memory required for data: 1327048224
I0403 14:58:05.361289 11360 layer_factory.hpp:77] Creating layer inception_5b/relu_1x1
I0403 14:58:05.361315 11360 net.cpp:91] Creating Layer inception_5b/relu_1x1
I0403 14:58:05.361335 11360 net.cpp:425] inception_5b/relu_1x1 <- inception_5b/1x1
I0403 14:58:05.361357 11360 net.cpp:386] inception_5b/relu_1x1 -> inception_5b/1x1 (in-place)
I0403 14:58:05.361727 11360 net.cpp:141] Setting up inception_5b/relu_1x1
I0403 14:58:05.361762 11360 net.cpp:148] Top shape: 24 384 7 7 (451584)
I0403 14:58:05.361781 11360 net.cpp:156] Memory required for data: 1328854560
I0403 14:58:05.361800 11360 layer_factory.hpp:77] Creating layer inception_5b/3x3_reduce
I0403 14:58:05.361830 11360 net.cpp:91] Creating Layer inception_5b/3x3_reduce
I0403 14:58:05.361853 11360 net.cpp:425] inception_5b/3x3_reduce <- inception_5a/output_inception_5a/output_0_split_1
I0403 14:58:05.361878 11360 net.cpp:399] inception_5b/3x3_reduce -> inception_5b/3x3_reduce
I0403 14:58:05.365170 11360 net.cpp:141] Setting up inception_5b/3x3_reduce
I0403 14:58:05.365211 11360 net.cpp:148] Top shape: 24 192 7 7 (225792)
I0403 14:58:05.365234 11360 net.cpp:156] Memory required for data: 1329757728
I0403 14:58:05.365258 11360 layer_factory.hpp:77] Creating layer inception_5b/relu_3x3_reduce
I0403 14:58:05.365283 11360 net.cpp:91] Creating Layer inception_5b/relu_3x3_reduce
I0403 14:58:05.365303 11360 net.cpp:425] inception_5b/relu_3x3_reduce <- inception_5b/3x3_reduce
I0403 14:58:05.365325 11360 net.cpp:386] inception_5b/relu_3x3_reduce -> inception_5b/3x3_reduce (in-place)
I0403 14:58:05.365563 11360 net.cpp:141] Setting up inception_5b/relu_3x3_reduce
I0403 14:58:05.365599 11360 net.cpp:148] Top shape: 24 192 7 7 (225792)
I0403 14:58:05.365618 11360 net.cpp:156] Memory required for data: 1330660896
I0403 14:58:05.365638 11360 layer_factory.hpp:77] Creating layer inception_5b/3x3
I0403 14:58:05.365665 11360 net.cpp:91] Creating Layer inception_5b/3x3
I0403 14:58:05.365689 11360 net.cpp:425] inception_5b/3x3 <- inception_5b/3x3_reduce
I0403 14:58:05.365715 11360 net.cpp:399] inception_5b/3x3 -> inception_5b/3x3
I0403 14:58:05.374019 11360 net.cpp:141] Setting up inception_5b/3x3
I0403 14:58:05.374061 11360 net.cpp:148] Top shape: 24 384 7 7 (451584)
I0403 14:58:05.374083 11360 net.cpp:156] Memory required for data: 1332467232
I0403 14:58:05.374111 11360 layer_factory.hpp:77] Creating layer inception_5b/relu_3x3
I0403 14:58:05.374137 11360 net.cpp:91] Creating Layer inception_5b/relu_3x3
I0403 14:58:05.374157 11360 net.cpp:425] inception_5b/relu_3x3 <- inception_5b/3x3
I0403 14:58:05.374179 11360 net.cpp:386] inception_5b/relu_3x3 -> inception_5b/3x3 (in-place)
I0403 14:58:05.374542 11360 net.cpp:141] Setting up inception_5b/relu_3x3
I0403 14:58:05.374579 11360 net.cpp:148] Top shape: 24 384 7 7 (451584)
I0403 14:58:05.374599 11360 net.cpp:156] Memory required for data: 1334273568
I0403 14:58:05.374619 11360 layer_factory.hpp:77] Creating layer inception_5b/5x5_reduce
I0403 14:58:05.374670 11360 net.cpp:91] Creating Layer inception_5b/5x5_reduce
I0403 14:58:05.374694 11360 net.cpp:425] inception_5b/5x5_reduce <- inception_5a/output_inception_5a/output_0_split_2
I0403 14:58:05.374718 11360 net.cpp:399] inception_5b/5x5_reduce -> inception_5b/5x5_reduce
I0403 14:58:05.376312 11360 net.cpp:141] Setting up inception_5b/5x5_reduce
I0403 14:58:05.376348 11360 net.cpp:148] Top shape: 24 48 7 7 (56448)
I0403 14:58:05.376368 11360 net.cpp:156] Memory required for data: 1334499360
I0403 14:58:05.376392 11360 layer_factory.hpp:77] Creating layer inception_5b/relu_5x5_reduce
I0403 14:58:05.376415 11360 net.cpp:91] Creating Layer inception_5b/relu_5x5_reduce
I0403 14:58:05.376433 11360 net.cpp:425] inception_5b/relu_5x5_reduce <- inception_5b/5x5_reduce
I0403 14:58:05.376458 11360 net.cpp:386] inception_5b/relu_5x5_reduce -> inception_5b/5x5_reduce (in-place)
I0403 14:58:05.376919 11360 net.cpp:141] Setting up inception_5b/relu_5x5_reduce
I0403 14:58:05.376952 11360 net.cpp:148] Top shape: 24 48 7 7 (56448)
I0403 14:58:05.376971 11360 net.cpp:156] Memory required for data: 1334725152
I0403 14:58:05.376989 11360 layer_factory.hpp:77] Creating layer inception_5b/5x5
I0403 14:58:05.377013 11360 net.cpp:91] Creating Layer inception_5b/5x5
I0403 14:58:05.377035 11360 net.cpp:425] inception_5b/5x5 <- inception_5b/5x5_reduce
I0403 14:58:05.377060 11360 net.cpp:399] inception_5b/5x5 -> inception_5b/5x5
I0403 14:58:05.379644 11360 net.cpp:141] Setting up inception_5b/5x5
I0403 14:58:05.379679 11360 net.cpp:148] Top shape: 24 128 7 7 (150528)
I0403 14:58:05.379698 11360 net.cpp:156] Memory required for data: 1335327264
I0403 14:58:05.379719 11360 layer_factory.hpp:77] Creating layer inception_5b/relu_5x5
I0403 14:58:05.379740 11360 net.cpp:91] Creating Layer inception_5b/relu_5x5
I0403 14:58:05.379760 11360 net.cpp:425] inception_5b/relu_5x5 <- inception_5b/5x5
I0403 14:58:05.379784 11360 net.cpp:386] inception_5b/relu_5x5 -> inception_5b/5x5 (in-place)
I0403 14:58:05.380029 11360 net.cpp:141] Setting up inception_5b/relu_5x5
I0403 14:58:05.380061 11360 net.cpp:148] Top shape: 24 128 7 7 (150528)
I0403 14:58:05.380079 11360 net.cpp:156] Memory required for data: 1335929376
I0403 14:58:05.380105 11360 layer_factory.hpp:77] Creating layer inception_5b/pool
I0403 14:58:05.380133 11360 net.cpp:91] Creating Layer inception_5b/pool
I0403 14:58:05.380156 11360 net.cpp:425] inception_5b/pool <- inception_5a/output_inception_5a/output_0_split_3
I0403 14:58:05.380177 11360 net.cpp:399] inception_5b/pool -> inception_5b/pool
I0403 14:58:05.380272 11360 net.cpp:141] Setting up inception_5b/pool
I0403 14:58:05.380303 11360 net.cpp:148] Top shape: 24 832 7 7 (978432)
I0403 14:58:05.380323 11360 net.cpp:156] Memory required for data: 1339843104
I0403 14:58:05.380342 11360 layer_factory.hpp:77] Creating layer inception_5b/pool_proj
I0403 14:58:05.380369 11360 net.cpp:91] Creating Layer inception_5b/pool_proj
I0403 14:58:05.380391 11360 net.cpp:425] inception_5b/pool_proj <- inception_5b/pool
I0403 14:58:05.380416 11360 net.cpp:399] inception_5b/pool_proj -> inception_5b/pool_proj
I0403 14:58:05.383288 11360 net.cpp:141] Setting up inception_5b/pool_proj
I0403 14:58:05.383329 11360 net.cpp:148] Top shape: 24 128 7 7 (150528)
I0403 14:58:05.383352 11360 net.cpp:156] Memory required for data: 1340445216
I0403 14:58:05.383375 11360 layer_factory.hpp:77] Creating layer inception_5b/relu_pool_proj
I0403 14:58:05.383399 11360 net.cpp:91] Creating Layer inception_5b/relu_pool_proj
I0403 14:58:05.383419 11360 net.cpp:425] inception_5b/relu_pool_proj <- inception_5b/pool_proj
I0403 14:58:05.383442 11360 net.cpp:386] inception_5b/relu_pool_proj -> inception_5b/pool_proj (in-place)
I0403 14:58:05.383810 11360 net.cpp:141] Setting up inception_5b/relu_pool_proj
I0403 14:58:05.383847 11360 net.cpp:148] Top shape: 24 128 7 7 (150528)
I0403 14:58:05.383867 11360 net.cpp:156] Memory required for data: 1341047328
I0403 14:58:05.383888 11360 layer_factory.hpp:77] Creating layer inception_5b/output
I0403 14:58:05.383908 11360 net.cpp:91] Creating Layer inception_5b/output
I0403 14:58:05.383949 11360 net.cpp:425] inception_5b/output <- inception_5b/1x1
I0403 14:58:05.383971 11360 net.cpp:425] inception_5b/output <- inception_5b/3x3
I0403 14:58:05.383993 11360 net.cpp:425] inception_5b/output <- inception_5b/5x5
I0403 14:58:05.384014 11360 net.cpp:425] inception_5b/output <- inception_5b/pool_proj
I0403 14:58:05.384037 11360 net.cpp:399] inception_5b/output -> inception_5b/output
I0403 14:58:05.384109 11360 net.cpp:141] Setting up inception_5b/output
I0403 14:58:05.384142 11360 net.cpp:148] Top shape: 24 1024 7 7 (1204224)
I0403 14:58:05.384160 11360 net.cpp:156] Memory required for data: 1345864224
I0403 14:58:05.384178 11360 layer_factory.hpp:77] Creating layer pool5/7x7_s1
I0403 14:58:05.384203 11360 net.cpp:91] Creating Layer pool5/7x7_s1
I0403 14:58:05.384225 11360 net.cpp:425] pool5/7x7_s1 <- inception_5b/output
I0403 14:58:05.384249 11360 net.cpp:399] pool5/7x7_s1 -> pool5/7x7_s1
I0403 14:58:05.384521 11360 net.cpp:141] Setting up pool5/7x7_s1
I0403 14:58:05.384555 11360 net.cpp:148] Top shape: 24 1024 1 1 (24576)
I0403 14:58:05.384573 11360 net.cpp:156] Memory required for data: 1345962528
I0403 14:58:05.384593 11360 layer_factory.hpp:77] Creating layer pool5/drop_7x7_s1
I0403 14:58:05.384615 11360 net.cpp:91] Creating Layer pool5/drop_7x7_s1
I0403 14:58:05.384635 11360 net.cpp:425] pool5/drop_7x7_s1 <- pool5/7x7_s1
I0403 14:58:05.384659 11360 net.cpp:386] pool5/drop_7x7_s1 -> pool5/7x7_s1 (in-place)
I0403 14:58:05.384722 11360 net.cpp:141] Setting up pool5/drop_7x7_s1
I0403 14:58:05.384753 11360 net.cpp:148] Top shape: 24 1024 1 1 (24576)
I0403 14:58:05.384771 11360 net.cpp:156] Memory required for data: 1346060832
I0403 14:58:05.384789 11360 layer_factory.hpp:77] Creating layer loss3/classifier_plantvillage
I0403 14:58:05.384815 11360 net.cpp:91] Creating Layer loss3/classifier_plantvillage
I0403 14:58:05.384835 11360 net.cpp:425] loss3/classifier_plantvillage <- pool5/7x7_s1
I0403 14:58:05.384861 11360 net.cpp:399] loss3/classifier_plantvillage -> loss3/classifier_plantvillage
I0403 14:58:05.385399 11360 net.cpp:141] Setting up loss3/classifier_plantvillage
I0403 14:58:05.385432 11360 net.cpp:148] Top shape: 24 38 (912)
I0403 14:58:05.385450 11360 net.cpp:156] Memory required for data: 1346064480
I0403 14:58:05.385474 11360 layer_factory.hpp:77] Creating layer loss3/classifier_plantvillage_loss3/classifier_plantvillage_0_split
I0403 14:58:05.385501 11360 net.cpp:91] Creating Layer loss3/classifier_plantvillage_loss3/classifier_plantvillage_0_split
I0403 14:58:05.385521 11360 net.cpp:425] loss3/classifier_plantvillage_loss3/classifier_plantvillage_0_split <- loss3/classifier_plantvillage
I0403 14:58:05.385545 11360 net.cpp:399] loss3/classifier_plantvillage_loss3/classifier_plantvillage_0_split -> loss3/classifier_plantvillage_loss3/classifier_plantvillage_0_split_0
I0403 14:58:05.385570 11360 net.cpp:399] loss3/classifier_plantvillage_loss3/classifier_plantvillage_0_split -> loss3/classifier_plantvillage_loss3/classifier_plantvillage_0_split_1
I0403 14:58:05.385596 11360 net.cpp:399] loss3/classifier_plantvillage_loss3/classifier_plantvillage_0_split -> loss3/classifier_plantvillage_loss3/classifier_plantvillage_0_split_2
I0403 14:58:05.385622 11360 net.cpp:399] loss3/classifier_plantvillage_loss3/classifier_plantvillage_0_split -> loss3/classifier_plantvillage_loss3/classifier_plantvillage_0_split_3
I0403 14:58:05.385751 11360 net.cpp:141] Setting up loss3/classifier_plantvillage_loss3/classifier_plantvillage_0_split
I0403 14:58:05.385782 11360 net.cpp:148] Top shape: 24 38 (912)
I0403 14:58:05.385802 11360 net.cpp:148] Top shape: 24 38 (912)
I0403 14:58:05.385819 11360 net.cpp:148] Top shape: 24 38 (912)
I0403 14:58:05.385838 11360 net.cpp:148] Top shape: 24 38 (912)
I0403 14:58:05.385855 11360 net.cpp:156] Memory required for data: 1346079072
I0403 14:58:05.385872 11360 layer_factory.hpp:77] Creating layer loss1/loss
I0403 14:58:05.385900 11360 net.cpp:91] Creating Layer loss1/loss
I0403 14:58:05.385923 11360 net.cpp:425] loss1/loss <- loss1/classifier_plantvillage_loss1/classifier_plantvillage_0_split_0
I0403 14:58:05.385963 11360 net.cpp:425] loss1/loss <- label_data_1_split_0
…
