…
I0403 15:16:20.543598 12365 net.cpp:313] The NetState phase (1) differed from the phase (0) specified by a rule in layer data
I0403 15:16:20.544726 12365 net.cpp:49] Initializing net from parameters: 
state {
  phase: TEST
}
layer {
  name: "data"
  type: "Data"
  top: "data"
  top: "label"
  include {
    phase: TEST
  }
  transform_param {
    mirror: false
    crop_size: 224
    mean_file: "/home/mohanty/data/final_dataset/lmdb/grayscale-60-40/mean.binaryproto"
  }
  data_param {
    source: "/home/mohanty/data/final_dataset/lmdb/grayscale-60-40/test_db"
    batch_size: 24
    backend: LMDB
  }
}
layer {
  name: "conv1/7x7_s2"
  type: "Convolution"
  bottom: "data"
  top: "conv1/7x7_s2"
  param {
    lr_mult: 1
    decay_mult: 1
  }
  param {
    lr_mult: 2
    decay_mult: 0
  }
  convolution_param {
    num_output: 64
    pad: 3
    kernel_size: 7
    stride: 2
    weight_filler {
      type: "xavier"
      std: 0.1
    }
    bias_filler {
      type: "constant"
      value: 0.2
    }
  }
}
layer {
  name: "conv1/relu_7x7"
  type: "ReLU"
  bottom: "conv1/7x7_s2"
  top: "conv1/7x7_s2"
}
layer {
  name: "pool1/3x3_s2"
  type: "Pooling"
  bottom: "conv1/7x7_s2"
  top: "pool1/3x3_s2"
  pooling_param {
    pool: MAX
    kernel_size: 3
    stride: 2
  }
}
layer {
  name: "pool1/norm1"
  type: "LRN"
  bottom: "pool1/3x3_s2"
  top: "pool1/norm1"
  lrn_param {
    local_size: 5
    alpha: 0.0001
    beta: 0.75
  }
}
layer {
  name: "conv2/3x3_reduce"
  type: "Convolution"
  bottom: "pool1/norm1"
  top: "conv2/3x3_reduce"
  param {
    lr_mult: 1
    decay_mult: 1
  }
  param {
    lr_mult: 2
    decay_mult: 0
  }
  convolution_param {
    num_output: 64
    kernel_size: 1
    weight_filler {
      type: "xavier"
      std: 0.1
    }
    bias_filler {
      type: "constant"
      value: 0.2
    }
  }
}
layer {
  name: "conv2/relu_3x3_reduce"
  type: "ReLU"
  bottom: "conv2/3x3_reduce"
  top: "conv2/3x3_reduce"
}
layer {
  name: "conv2/3x3"
  type: "Convolution"
  bottom: "conv2/3x3_reduce"
  top: "conv2/3x3"
  param {
    lr_mult: 1
    decay_mult: 1
  }
  param {
    lr_mult: 2
    decay_mult: 0
  }
  convolution_param {
    num_output: 192
    pad: 1
    kernel_size: 3
    weight_filler {
      type: "xavier"
      std: 0.03
    }
    bias_filler {
      type: "constant"
      value: 0.2
    }
  }
}
layer {
  name: "conv2/relu_3x3"
  type: "ReLU"
  bottom: "conv2/3x3"
  top: "conv2/3x3"
}
layer {
  name: "conv2/norm2"
  type: "LRN"
  bottom: "conv2/3x3"
  top: "conv2/norm2"
  lrn_param {
    local_size: 5
    alpha: 0.0001
    beta: 0.75
  }
}
layer {
  name: "pool2/3x3_s2"
  type: "Pooling"
  bottom: "conv2/norm2"
  top: "pool2/3x3_s2"
  pooling_param {
    pool: MAX
    kernel_size: 3
    stride: 2
  }
}
layer {
  name: "inception_3a/1x1"
  type: "Convolution"
  bottom: "pool2/3x3_s2"
  top: "inception_3a/1x1"
  param {
    lr_mult: 1
    decay_mult: 1
  }
  param {
    lr_mult: 2
    decay_mult: 0
  }
  convolution_param {
    num_output: 64
    kernel_size: 1
    weight_filler {
      type: "xavier"
      std: 0.03
    }
    bias_filler {
      type: "constant"
      value: 0.2
    }
  }
}
layer {
  name: "inception_3a/relu_1x1"
  type: "ReLU"
  bottom: "inception_3a/1x1"
  top: "inception_3a/1x1"
}
layer {
  name: "inception_3a/3x3_reduce"
  type: "Convolution"
  bottom: "pool2/3x3_s2"
  top: "inception_3a/3x3_reduce"
  param {
    lr_mult: 1
    decay_mult: 1
  }
  param {
    lr_mult: 2
    decay_mult: 0
  }
  convolution_param {
    num_output: 96
    kernel_size: 1
    weight_filler {
      type: "xavier"
      std: 0.09
    }
    bias_filler {
      type: "constant"
      value: 0.2
    }
  }
}
layer {
  name: "inception_3a/relu_3x3_reduce"
  type: "ReLU"
  bottom: "inception_3a/3x3_reduce"
  top: "inception_3a/3x3_reduce"
}
layer {
  name: "inception_3a/3x3"
  type: "Convolution"
  bottom: "inception_3a/3x3_reduce"
  top: "inception_3a/3x3"
  param {
    lr_mult: 1
    decay_mult: 1
  }
  param {
    lr_mult: 2
    decay_mult: 0
  }
  convolution_param {
    num_output: 128
    pad: 1
    kernel_size: 3
    weight_filler {
      type: "xavier"
      std: 0.03
    }
    bias_filler {
      type: "constant"
      value: 0.2
    }
  }
}
layer {
  name: "inception_3a/relu_3x3"
  type: "ReLU"
  bottom: "inception_3a/3x3"
  top: "inception_3a/3x3"
}
layer {
  name: "inception_3a/5x5_reduce"
  type: "Convolution"
  bottom: "pool2/3x3_s2"
  top: "inception_3a/5x5_reduce"
  param {
    lr_mult: 1
    decay_mult: 1
  }
  param {
    lr_mult: 2
    decay_mult: 0
  }
  convolution_param {
    num_output: 16
    kernel_size: 1
    weight_filler {
      type: "xavier"
      std: 0.2
    }
    bias_filler {
      type: "constant"
      value: 0.2
    }
  }
}
layer {
  name: "inception_3a/relu_5x5_reduce"
  type: "ReLU"
  bottom: "inception_3a/5x5_reduce"
  top: "inception_3a/5x5_reduce"
}
layer {
  name: "inception_3a/5x5"
  type: "Convolution"
  bottom: "inception_3a/5x5_reduce"
  top: "inception_3a/5x5"
  param {
    lr_mult: 1
    decay_mult: 1
  }
  param {
    lr_mult: 2
    decay_mult: 0
  }
  convolution_param {
    num_output: 32
    pad: 2
    kernel_size: 5
    weight_filler {
      type: "xavier"
      std: 0.03
    }
    bias_filler {
      type: "constant"
      value: 0.2
    }
  }
}
layer {
  name: "inception_3a/relu_5x5"
  type: "ReLU"
  bottom: "inception_3a/5x5"
  top: "inception_3a/5x5"
}
layer {
  name: "inception_3a/pool"
  type: "Pooling"
  bottom: "pool2/3x3_s2"
  top: "inception_3a/pool"
  pooling_param {
    pool: MAX
    kernel_size: 3
    stride: 1
    pad: 1
  }
}
layer {
  name: "inception_3a/pool_proj"
  type: "Convolution"
  bottom: "inception_3a/pool"
  top: "inception_3a/pool_proj"
  param {
    lr_mult: 1
    decay_mult: 1
  }
  param {
    lr_mult: 2
    decay_mult: 0
  }
  convolution_param {
    num_output: 32
    kernel_size: 1
    weight_filler {
      type: "xavier"
      std: 0.1
    }
    bias_filler {
      type: "constant"
      value: 0.2
    }
  }
}
layer {
  name: "inception_3a/relu_pool_proj"
  type: "ReLU"
  bottom: "inception_3a/pool_proj"
  top: "inception_3a/pool_proj"
}
layer {
  name: "inception_3a/output"
  type: "Concat"
  bottom: "inception_3a/1x1"
  bottom: "inception_3a/3x3"
  bottom: "inception_3a/5x5"
  bottom: "inception_3a/pool_proj"
  top: "inception_3a/output"
}
layer {
  name: "inception_3b/1x1"
  type: "Convolution"
  bottom: "inception_3a/output"
  top: "inception_3b/1x1"
  param {
    lr_mult: 1
    decay_mult: 1
  }
  param {
    lr_mult: 2
    decay_mult: 0
  }
  convolution_param {
    num_output: 128
    kernel_size: 1
    weight_filler {
      type: "xavier"
      std: 0.03
    }
    bias_filler {
      type: "constant"
      value: 0.2
    }
  }
}
layer {
  name: "inception_3b/relu_1x1"
  type: "ReLU"
  bottom: "inception_3b/1x1"
  top: "inception_3b/1x1"
}
layer {
  name: "inception_3b/3x3_reduce"
  type: "Convolution"
  bottom: "inception_3a/output"
  top: "inception_3b/3x3_reduce"
  param {
    lr_mult: 1
    decay_mult: 1
  }
  param {
    lr_mult: 2
    decay_mult: 0
  }
  convolution_param {
    num_output: 128
    kernel_size: 1
    weight_filler {
      type: "xavier"
      std: 0.09
    }
    bias_filler {
      type: "constant"
      value: 0.2
    }
  }
}
layer {
  name: "inception_3b/relu_3x3_reduce"
  type: "ReLU"
  bottom: "inception_3b/3x3_reduce"
  top: "inception_3b/3x3_reduce"
}
layer {
  name: "inception_3b/3x3"
  type: "Convolution"
  bottom: "inception_3b/3x3_reduce"
  top: "inception_3b/3x3"
  param {
    lr_mult: 1
    decay_mult: 1
  }
  param {
    lr_mult: 2
    decay_mult: 0
  }
  convolution_param {
    num_output: 192
    pad: 1
    kernel_size: 3
    weight_filler {
      type: "xavier"
      std: 0.03
    }
    bias_filler {
      type: "constant"
      value: 0.2
    }
  }
}
layer {
  name: "inception_3b/relu_3x3"
  type: "ReLU"
  bottom: "inception_3b/3x3"
  top: "inception_3b/3x3"
}
layer {
  name: "inception_3b/5x5_reduce"
  type: "Convolution"
  bottom: "inception_3a/output"
  top: "inception_3b/5x5_reduce"
  param {
    lr_mult: 1
    decay_mult: 1
  }
  param {
    lr_mult: 2
    decay_mult: 0
  }
  convolution_param {
    num_output: 32
    kernel_size: 1
    weight_filler {
      type: "xavier"
      std: 0.2
    }
    bias_filler {
      type: "constant"
      value: 0.2
    }
  }
}
layer {
  name: "inception_3b/relu_5x5_reduce"
  type: "ReLU"
  bottom: "inception_3b/5x5_reduce"
  top: "inception_3b/5x5_reduce"
}
layer {
  name: "inception_3b/5x5"
  type: "Convolution"
  bottom: "inception_3b/5x5_reduce"
  top: "inception_3b/5x5"
  param {
    lr_mult: 1
    decay_mult: 1
  }
  param {
    lr_mult: 2
    decay_mult: 0
  }
  convolution_param {
    num_output: 96
    pad: 2
    kernel_size: 5
    weight_filler {
      type: "xavier"
      std: 0.03
    }
    bias_filler {
      type: "constant"
      value: 0.2
    }
  }
}
layer {
  name: "inception_3b/relu_5x5"
  type: "ReLU"
  bottom: "inception_3b/5x5"
  top: "inception_3b/5x5"
}
layer {
  name: "inception_3b/pool"
  type: "Pooling"
  bottom: "inception_3a/output"
  top: "inception_3b/pool"
  pooling_param {
    pool: MAX
    kernel_size: 3
    stride: 1
    pad: 1
  }
}
layer {
  name: "inception_3b/pool_proj"
  type: "Convolution"
  bottom: "inception_3b/pool"
  top: "inception_3b/pool_proj"
  param {
    lr_mult: 1
    decay_mult: 1
  }
  param {
    lr_mult: 2
    decay_mult: 0
  }
  convolution_param {
    num_output: 64
    kernel_size: 1
    weight_filler {
      type: "xavier"
      std: 0.1
    }
    bias_filler {
      type: "constant"
      value: 0.2
    }
  }
}
layer {
  name: "inception_3b/relu_pool_proj"
  type: "ReLU"
  bottom: "inception_3b/pool_proj"
  top: "inception_3b/pool_proj"
}
layer {
  name: "inception_3b/output"
  type: "Concat"
  bottom: "inception_3b/1x1"
  bottom: "inception_3b/3x3"
  bottom: "inception_3b/5x5"
  bottom: "inception_3b/pool_proj"
  top: "inception_3b/output"
}
layer {
  name: "pool3/3x3_s2"
  type: "Pooling"
  bottom: "inception_3b/output"
  top: "pool3/3x3_s2"
  pooling_param {
    pool: MAX
    kernel_size: 3
    stride: 2
  }
}
layer {
  name: "inception_4a/1x1"
  type: "Convolution"
  bottom: "pool3/3x3_s2"
  top: "inception_4a/1x1"
  param {
    lr_mult: 1
    decay_mult: 1
  }
  param {
    lr_mult: 2
    decay_mult: 0
  }
  convolution_param {
    num_output: 192
    kernel_size: 1
    weight_filler {
      type: "xavier"
      std: 0.03
    }
    bias_filler {
      type: "constant"
      value: 0.2
    }
  }
}
layer {
  name: "inception_4a/relu_1x1"
  type: "ReLU"
  bottom: "inception_4a/1x1"
  top: "inception_4a/1x1"
}
layer {
  name: "inception_4a/3x3_reduce"
  type: "Convolution"
  bottom: "pool3/3x3_s2"
  top: "inception_4a/3x3_reduce"
  param {
    lr_mult: 1
    decay_mult: 1
  }
  param {
    lr_mult: 2
    decay_mult: 0
  }
  convolution_param {
    num_output: 96
    kernel_size: 1
    weight_filler {
      type: "xavier"
      std: 0.09
    }
    bias_filler {
      type: "constant"
      value: 0.2
    }
  }
}
layer {
  name: "inception_4a/relu_3x3_reduce"
  type: "ReLU"
  bottom: "inception_4a/3x3_reduce"
  top: "inception_4a/3x3_reduce"
}
layer {
  name: "inception_4a/3x3"
  type: "Convolution"
  bottom: "inception_4a/3x3_reduce"
  top: "inception_4a/3x3"
  param {
    lr_mult: 1
    decay_mult: 1
  }
  param {
    lr_mult: 2
    decay_mult: 0
  }
  convolution_param {
    num_output: 208
    pad: 1
    kernel_size: 3
    weight_filler {
      type: "xavier"
      std: 0.03
    }
    bias_filler {
      type: "constant"
      value: 0.2
    }
  }
}
layer {
  name: "inception_4a/relu_3x3"
  type: "ReLU"
  bottom: "inception_4a/3x3"
  top: "inception_4a/3x3"
}
layer {
  name: "inception_4a/5x5_reduce"
  type: "Convolution"
  bottom: "pool3/3x3_s2"
  top: "inception_4a/5x5_reduce"
  param {
    lr_mult: 1
    decay_mult: 1
  }
  param {
    lr_mult: 2
    decay_mult: 0
  }
  convolution_param {
    num_output: 16
    kernel_size: 1
    weight_filler {
      type: "xavier"
      std: 0.2
    }
    bias_filler {
      type: "constant"
      value: 0.2
    }
  }
}
layer {
  name: "inception_4a/relu_5x5_reduce"
  type: "ReLU"
  bottom: "inception_4a/5x5_reduce"
  top: "inception_4a/5x5_reduce"
}
layer {
  name: "inception_4a/5x5"
  type: "Convolution"
  bottom: "inception_4a/5x5_reduce"
  top: "inception_4a/5x5"
  param {
    lr_mult: 1
    decay_mult: 1
  }
  param {
    lr_mult: 2
    decay_mult: 0
  }
  convolution_param {
    num_output: 48
    pad: 2
    kernel_size: 5
    weight_filler {
      type: "xavier"
      std: 0.03
    }
    bias_filler {
      type: "constant"
      value: 0.2
    }
  }
}
layer {
  name: "inception_4a/relu_5x5"
  type: "ReLU"
  bottom: "inception_4a/5x5"
  top: "inception_4a/5x5"
}
layer {
  name: "inception_4a/pool"
  type: "Pooling"
  bottom: "pool3/3x3_s2"
  top: "inception_4a/pool"
  pooling_param {
    pool: MAX
    kernel_size: 3
    stride: 1
    pad: 1
  }
}
layer {
  name: "inception_4a/pool_proj"
  type: "Convolution"
  bottom: "inception_4a/pool"
  top: "inception_4a/pool_proj"
  param {
    lr_mult: 1
    decay_mult: 1
  }
  param {
    lr_mult: 2
    decay_mult: 0
  }
  convolution_param {
    num_output: 64
    kernel_size: 1
    weight_filler {
      type: "xavier"
      std: 0.1
    }
    bias_filler {
      type: "constant"
      value: 0.2
    }
  }
}
layer {
  name: "inception_4a/relu_pool_proj"
  type: "ReLU"
  bottom: "inception_4a/pool_proj"
  top: "inception_4a/pool_proj"
}
layer {
  name: "inception_4a/output"
  type: "Concat"
  bottom: "inception_4a/1x1"
  bottom: "inception_4a/3x3"
  bottom: "inception_4a/5x5"
  bottom: "inception_4a/pool_proj"
  top: "inception_4a/output"
}
layer {
  name: "loss1/ave_pool"
  type: "Pooling"
  bottom: "inception_4a/output"
  top: "loss1/ave_pool"
  pooling_param {
    pool: AVE
    kernel_size: 5
    stride: 3
  }
}
layer {
  name: "loss1/conv"
  type: "Convolution"
  bottom: "loss1/ave_pool"
  top: "loss1/conv"
  param {
    lr_mult: 1
    decay_mult: 1
  }
  param {
    lr_mult: 2
    decay_mult: 0
  }
  convolution_param {
    num_output: 128
    kernel_size: 1
    weight_filler {
      type: "xavier"
      std: 0.08
    }
    bias_filler {
      type: "constant"
      value: 0.2
    }
  }
}
layer {
  name: "loss1/relu_conv"
  type: "ReLU"
  bottom: "loss1/conv"
  top: "loss1/conv"
}
layer {
  name: "loss1/fc"
  type: "InnerProduct"
  bottom: "loss1/conv"
  top: "loss1/fc"
  param {
    lr_mult: 1
    decay_mult: 1
  }
  param {
    lr_mult: 2
    decay_mult: 0
  }
  inner_product_param {
    num_output: 1024
    weight_filler {
      type: "xavier"
      std: 0.02
    }
    bias_filler {
      type: "constant"
      value: 0.2
    }
  }
}
layer {
  name: "loss1/relu_fc"
  type: "ReLU"
  bottom: "loss1/fc"
  top: "loss1/fc"
}
layer {
  name: "loss1/drop_fc"
  type: "Dropout"
  bottom: "loss1/fc"
  top: "loss1/fc"
  dropout_param {
    dropout_ratio: 0.7
  }
}
layer {
  name: "loss1/classifier_plantvillage"
  type: "InnerProduct"
  bottom: "loss1/fc"
  top: "loss1/classifier_plantvillage"
  param {
    lr_mult: 1
    decay_mult: 1
  }
  param {
    lr_mult: 2
    decay_mult: 0
  }
  inner_product_param {
    num_output: 38
    weight_filler {
      type: "xavier"
      std: 0.0009765625
    }
    bias_filler {
      type: "constant"
      value: 0
    }
  }
}
layer {
  name: "inception_4b/1x1"
  type: "Convolution"
  bottom: "inception_4a/output"
  top: "inception_4b/1x1"
  param {
    lr_mult: 1
    decay_mult: 1
  }
  param {
    lr_mult: 2
    decay_mult: 0
  }
  convolution_param {
    num_output: 160
    kernel_size: 1
    weight_filler {
      type: "xavier"
      std: 0.03
    }
    bias_filler {
      type: "constant"
      value: 0.2
    }
  }
}
layer {
  name: "inception_4b/relu_1x1"
  type: "ReLU"
  bottom: "inception_4b/1x1"
  top: "inception_4b/1x1"
}
layer {
  name: "inception_4b/3x3_reduce"
  type: "Convolution"
  bottom: "inception_4a/output"
  top: "inception_4b/3x3_reduce"
  param {
    lr_mult: 1
    decay_mult: 1
  }
  param {
    lr_mult: 2
    decay_mult: 0
  }
  convolution_param {
    num_output: 112
    kernel_size: 1
    weight_filler {
      type: "xavier"
      std: 0.09
    }
    bias_filler {
      type: "constant"
      value: 0.2
    }
  }
}
layer {
  name: "inception_4b/relu_3x3_reduce"
  type: "ReLU"
  bottom: "inception_4b/3x3_reduce"
  top: "inception_4b/3x3_reduce"
}
layer {
  name: "inception_4b/3x3"
  type: "Convolution"
  bottom: "inception_4b/3x3_reduce"
  top: "inception_4b/3x3"
  param {
    lr_mult: 1
    decay_mult: 1
  }
  param {
    lr_mult: 2
    decay_mult: 0
  }
  convolution_param {
    num_output: 224
    pad: 1
    kernel_size: 3
    weight_filler {
      type: "xavier"
      std: 0.03
    }
    bias_filler {
      type: "constant"
      value: 0.2
    }
  }
}
layer {
  name: "inception_4b/relu_3x3"
  type: "ReLU"
  bottom: "inception_4b/3x3"
  top: "inception_4b/3x3"
}
layer {
  name: "inception_4b/5x5_reduce"
  type: "Convolution"
  bottom: "inception_4a/output"
  top: "inception_4b/5x5_reduce"
  param {
    lr_mult: 1
    decay_mult: 1
  }
  param {
    lr_mult: 2
    decay_mult: 0
  }
  convolution_param {
    num_output: 24
    kernel_size: 1
    weight_filler {
      type: "xavier"
      std: 0.2
    }
    bias_filler {
      type: "constant"
      value: 0.2
    }
  }
}
layer {
  name: "inception_4b/relu_5x5_reduce"
  type: "ReLU"
  bottom: "inception_4b/5x5_reduce"
  top: "inception_4b/5x5_reduce"
}
layer {
  name: "inception_4b/5x5"
  type: "Convolution"
  bottom: "inception_4b/5x5_reduce"
  top: "inception_4b/5x5"
  param {
    lr_mult: 1
    decay_mult: 1
  }
  param {
    lr_mult: 2
    decay_mult: 0
  }
  convolution_param {
    num_output: 64
    pad: 2
    kernel_size: 5
    weight_filler {
      type: "xavier"
      std: 0.03
    }
    bias_filler {
      type: "constant"
      value: 0.2
    }
  }
}
layer {
  name: "inception_4b/relu_5x5"
  type: "ReLU"
  bottom: "inception_4b/5x5"
  top: "inception_4b/5x5"
}
layer {
  name: "inception_4b/pool"
  type: "Pooling"
  bottom: "inception_4a/output"
  top: "inception_4b/pool"
  pooling_param {
    pool: MAX
    kernel_size: 3
    stride: 1
    pad: 1
  }
}
layer {
  name: "inception_4b/pool_proj"
  type: "Convolution"
  bottom: "inception_4b/pool"
  top: "inception_4b/pool_proj"
  param {
    lr_mult: 1
    decay_mult: 1
  }
  param {
    lr_mult: 2
    decay_mult: 0
  }
  convolution_param {
    num_output: 64
    kernel_size: 1
    weight_filler {
      type: "xavier"
      std: 0.1
    }
    bias_filler {
      type: "constant"
      value: 0.2
    }
  }
}
layer {
  name: "inception_4b/relu_pool_proj"
  type: "ReLU"
  bottom: "inception_4b/pool_proj"
  top: "inception_4b/pool_proj"
}
layer {
  name: "inception_4b/output"
  type: "Concat"
  bottom: "inception_4b/1x1"
  bottom: "inception_4b/3x3"
  bottom: "inception_4b/5x5"
  bottom: "inception_4b/pool_proj"
  top: "inception_4b/output"
}
layer {
  name: "inception_4c/1x1"
  type: "Convolution"
  bottom: "inception_4b/output"
  top: "inception_4c/1x1"
  param {
    lr_mult: 1
    decay_mult: 1
  }
  param {
    lr_mult: 2
    decay_mult: 0
  }
  convolution_param {
    num_output: 128
    kernel_size: 1
    weight_filler {
      type: "xavier"
      std: 0.03
    }
    bias_filler {
      type: "constant"
      value: 0.2
    }
  }
}
layer {
  name: "inception_4c/relu_1x1"
  type: "ReLU"
  bottom: "inception_4c/1x1"
  top: "inception_4c/1x1"
}
layer {
  name: "inception_4c/3x3_reduce"
  type: "Convolution"
  bottom: "inception_4b/output"
  top: "inception_4c/3x3_reduce"
  param {
    lr_mult: 1
    decay_mult: 1
  }
  param {
    lr_mult: 2
    decay_mult: 0
  }
  convolution_param {
    num_output: 128
    kernel_size: 1
    weight_filler {
      type: "xavier"
      std: 0.09
    }
    bias_filler {
      type: "constant"
      value: 0.2
    }
  }
}
layer {
  name: "inception_4c/relu_3x3_reduce"
  type: "ReLU"
  bottom: "inception_4c/3x3_reduce"
  top: "inception_4c/3x3_reduce"
}
layer {
  name: "inception_4c/3x3"
  type: "Convolution"
  bottom: "inception_4c/3x3_reduce"
  top: "inception_4c/3x3"
  param {
    lr_mult: 1
    decay_mult: 1
  }
  param {
    lr_mult: 2
    decay_mult: 0
  }
  convolution_param {
    num_output: 256
    pad: 1
    kernel_size: 3
    weight_filler {
      type: "xavier"
      std: 0.03
    }
    bias_filler {
      type: "constant"
      value: 0.2
    }
  }
}
layer {
  name: "inception_4c/relu_3x3"
  type: "ReLU"
  bottom: "inception_4c/3x3"
  top: "inception_4c/3x3"
}
layer {
  name: "inception_4c/5x5_reduce"
  type: "Convolution"
  bottom: "inception_4b/output"
  top: "inception_4c/5x5_reduce"
  param {
    lr_mult: 1
    decay_mult: 1
  }
  param {
    lr_mult: 2
    decay_mult: 0
  }
  convolution_param {
    num_output: 24
    kernel_size: 1
    weight_filler {
      type: "xavier"
      std: 0.2
    }
    bias_filler {
      type: "constant"
      value: 0.2
    }
  }
}
layer {
  name: "inception_4c/relu_5x5_reduce"
  type: "ReLU"
  bottom: "inception_4c/5x5_reduce"
  top: "inception_4c/5x5_reduce"
}
layer {
  name: "inception_4c/5x5"
  type: "Convolution"
  bottom: "inception_4c/5x5_reduce"
  top: "inception_4c/5x5"
  param {
    lr_mult: 1
    decay_mult: 1
  }
  param {
    lr_mult: 2
    decay_mult: 0
  }
  convolution_param {
    num_output: 64
    pad: 2
    kernel_size: 5
    weight_filler {
      type: "xavier"
      std: 0.03
    }
    bias_filler {
      type: "constant"
      value: 0.2
    }
  }
}
layer {
  name: "inception_4c/relu_5x5"
  type: "ReLU"
  bottom: "inception_4c/5x5"
  top: "inception_4c/5x5"
}
layer {
  name: "inception_4c/pool"
  type: "Pooling"
  bottom: "inception_4b/output"
  top: "inception_4c/pool"
  pooling_param {
    pool: MAX
    kernel_size: 3
    stride: 1
    pad: 1
  }
}
layer {
  name: "inception_4c/pool_proj"
  type: "Convolution"
  bottom: "inception_4c/pool"
  top: "inception_4c/pool_proj"
  param {
    lr_mult: 1
    decay_mult: 1
  }
  param {
    lr_mult: 2
    decay_mult: 0
  }
  convolution_param {
    num_output: 64
    kernel_size: 1
    weight_filler {
      type: "xavier"
      std: 0.1
    }
    bias_filler {
      type: "constant"
      value: 0.2
    }
  }
}
layer {
  name: "inception_4c/relu_pool_proj"
  type: "ReLU"
  bottom: "inception_4c/pool_proj"
  top: "inception_4c/pool_proj"
}
layer {
  name: "inception_4c/output"
  type: "Concat"
  bottom: "inception_4c/1x1"
  bottom: "inception_4c/3x3"
  bottom: "inception_4c/5x5"
  bottom: "inception_4c/pool_proj"
  top: "inception_4c/output"
}
layer {
  name: "inception_4d/1x1"
  type: "Convolution"
  bottom: "inception_4c/output"
  top: "inception_4d/1x1"
  param {
    lr_mult: 1
    decay_mult: 1
  }
  param {
    lr_mult: 2
    decay_mult: 0
  }
  convolution_param {
    num_output: 112
    kernel_size: 1
    weight_filler {
      type: "xavier"
      std: 0.03
    }
    bias_filler {
      type: "constant"
      value: 0.2
    }
  }
}
layer {
  name: "inception_4d/relu_1x1"
  type: "ReLU"
  bottom: "inception_4d/1x1"
  top: "inception_4d/1x1"
}
layer {
  name: "inception_4d/3x3_reduce"
  type: "Convolution"
  bottom: "inception_4c/output"
  top: "inception_4d/3x3_reduce"
  param {
    lr_mult: 1
    decay_mult: 1
  }
  param {
    lr_mult: 2
    decay_mult: 0
  }
  convolution_param {
    num_output: 144
    kernel_size: 1
    weight_filler {
      type: "xavier"
      std: 0.09
    }
    bias_filler {
      type: "constant"
      value: 0.2
    }
  }
}
layer {
  name: "inception_4d/relu_3x3_reduce"
  type: "ReLU"
  bottom: "inception_4d/3x3_reduce"
  top: "inception_4d/3x3_reduce"
}
layer {
  name: "inception_4d/3x3"
  type: "Convolution"
  bottom: "inception_4d/3x3_reduce"
  top: "inception_4d/3x3"
  param {
    lr_mult: 1
    decay_mult: 1
  }
  param {
    lr_mult: 2
    decay_mult: 0
  }
  convolution_param {
    num_output: 288
    pad: 1
    kernel_size: 3
    weight_filler {
      type: "xavier"
      std: 0.03
    }
    bias_filler {
      type: "constant"
      value: 0.2
    }
  }
}
layer {
  name: "inception_4d/relu_3x3"
  type: "ReLU"
  bottom: "inception_4d/3x3"
  top: "inception_4d/3x3"
}
layer {
  name: "inception_4d/5x5_reduce"
  type: "Convolution"
  bottom: "inception_4c/output"
  top: "inception_4d/5x5_reduce"
  param {
    lr_mult: 1
    decay_mult: 1
  }
  param {
    lr_mult: 2
    decay_mult: 0
  }
  convolution_param {
    num_output: 32
    kernel_size: 1
    weight_filler {
      type: "xavier"
      std: 0.2
    }
    bias_filler {
      type: "constant"
      value: 0.2
    }
  }
}
layer {
  name: "inception_4d/relu_5x5_reduce"
  type: "ReLU"
  bottom: "inception_4d/5x5_reduce"
  top: "inception_4d/5x5_reduce"
}
layer {
  name: "inception_4d/5x5"
  type: "Convolution"
  bottom: "inception_4d/5x5_reduce"
  top: "inception_4d/5x5"
  param {
    lr_mult: 1
    decay_mult: 1
  }
  param {
    lr_mult: 2
    decay_mult: 0
  }
  convolution_param {
    num_output: 64
    pad: 2
    kernel_size: 5
    weight_filler {
      type: "xavier"
      std: 0.03
    }
    bias_filler {
      type: "constant"
      value: 0.2
    }
  }
}
layer {
  name: "inception_4d/relu_5x5"
  type: "ReLU"
  bottom: "inception_4d/5x5"
  top: "inception_4d/5x5"
}
layer {
  name: "inception_4d/pool"
  type: "Pooling"
  bottom: "inception_4c/output"
  top: "inception_4d/pool"
  pooling_param {
    pool: MAX
    kernel_size: 3
    stride: 1
    pad: 1
  }
}
layer {
  name: "inception_4d/pool_proj"
  type: "Convolution"
  bottom: "inception_4d/pool"
  top: "inception_4d/pool_proj"
  param {
    lr_mult: 1
    decay_mult: 1
  }
  param {
    lr_mult: 2
    decay_mult: 0
  }
  convolution_param {
    num_output: 64
    kernel_size: 1
    weight_filler {
      type: "xavier"
      std: 0.1
    }
    bias_filler {
      type: "constant"
      value: 0.2
    }
  }
}
layer {
  name: "inception_4d/relu_pool_proj"
  type: "ReLU"
  bottom: "inception_4d/pool_proj"
  top: "inception_4d/pool_proj"
}
layer {
  name: "inception_4d/output"
  type: "Concat"
  bottom: "inception_4d/1x1"
  bottom: "inception_4d/3x3"
  bottom: "inception_4d/5x5"
  bottom: "inception_4d/pool_proj"
  top: "inception_4d/output"
}
layer {
  name: "loss2/ave_pool"
  type: "Pooling"
  bottom: "inception_4d/output"
  top: "loss2/ave_pool"
  pooling_param {
    pool: AVE
    kernel_size: 5
    stride: 3
  }
}
layer {
  name: "loss2/conv"
  type: "Convolution"
  bottom: "loss2/ave_pool"
  top: "loss2/conv"
  param {
    lr_mult: 1
    decay_mult: 1
  }
  param {
    lr_mult: 2
    decay_mult: 0
  }
  convolution_param {
    num_output: 128
    kernel_size: 1
    weight_filler {
      type: "xavier"
      std: 0.08
    }
    bias_filler {
      type: "constant"
      value: 0.2
    }
  }
}
layer {
  name: "loss2/relu_conv"
  type: "ReLU"
  bottom: "loss2/conv"
  top: "loss2/conv"
}
layer {
  name: "loss2/fc"
  type: "InnerProduct"
  bottom: "loss2/conv"
  top: "loss2/fc"
  param {
    lr_mult: 1
    decay_mult: 1
  }
  param {
    lr_mult: 2
    decay_mult: 0
  }
  inner_product_param {
    num_output: 1024
    weight_filler {
      type: "xavier"
      std: 0.02
    }
    bias_filler {
      type: "constant"
      value: 0.2
    }
  }
}
layer {
  name: "loss2/relu_fc"
  type: "ReLU"
  bottom: "loss2/fc"
  top: "loss2/fc"
}
layer {
  name: "loss2/drop_fc"
  type: "Dropout"
  bottom: "loss2/fc"
  top: "loss2/fc"
  dropout_param {
    dropout_ratio: 0.7
  }
}
layer {
  name: "loss2/classifier_plantvillage"
  type: "InnerProduct"
  bottom: "loss2/fc"
  top: "loss2/classifier_plantvillage"
  param {
    lr_mult: 1
    decay_mult: 1
  }
  param {
    lr_mult: 2
    decay_mult: 0
  }
  inner_product_param {
    num_output: 38
    weight_filler {
      type: "xavier"
      std: 0.0009765625
    }
    bias_filler {
      type: "constant"
      value: 0
    }
  }
}
layer {
  name: "inception_4e/1x1"
  type: "Convolution"
  bottom: "inception_4d/output"
  top: "inception_4e/1x1"
  param {
    lr_mult: 1
    decay_mult: 1
  }
  param {
    lr_mult: 2
    decay_mult: 0
  }
  convolution_param {
    num_output: 256
    kernel_size: 1
    weight_filler {
      type: "xavier"
      std: 0.03
    }
    bias_filler {
      type: "constant"
      value: 0.2
    }
  }
}
layer {
  name: "inception_4e/relu_1x1"
  type: "ReLU"
  bottom: "inception_4e/1x1"
  top: "inception_4e/1x1"
}
layer {
  name: "inception_4e/3x3_reduce"
  type: "Convolution"
  bottom: "inception_4d/output"
  top: "inception_4e/3x3_reduce"
  param {
    lr_mult: 1
    decay_mult: 1
  }
  param {
    lr_mult: 2
    decay_mult: 0
  }
  convolution_param {
    num_output: 160
    kernel_size: 1
    weight_filler {
      type: "xavier"
      std: 0.09
    }
    bias_filler {
      type: "constant"
      value: 0.2
    }
  }
}
layer {
  name: "inception_4e/relu_3x3_reduce"
  type: "ReLU"
  bottom: "inception_4e/3x3_reduce"
  top: "inception_4e/3x3_reduce"
}
layer {
  name: "inception_4e/3x3"
  type: "Convolution"
  bottom: "inception_4e/3x3_reduce"
  top: "inception_4e/3x3"
  param {
    lr_mult: 1
    decay_mult: 1
  }
  param {
    lr_mult: 2
    decay_mult: 0
  }
  convolution_param {
    num_output: 320
    pad: 1
    kernel_size: 3
    weight_filler {
      type: "xavier"
      std: 0.03
    }
    bias_filler {
      type: "constant"
      value: 0.2
    }
  }
}
layer {
  name: "inception_4e/relu_3x3"
  type: "ReLU"
  bottom: "inception_4e/3x3"
  top: "inception_4e/3x3"
}
layer {
  name: "inception_4e/5x5_reduce"
  type: "Convolution"
  bottom: "inception_4d/output"
  top: "inception_4e/5x5_reduce"
  param {
    lr_mult: 1
    decay_mult: 1
  }
  param {
    lr_mult: 2
    decay_mult: 0
  }
  convolution_param {
    num_output: 32
    kernel_size: 1
    weight_filler {
      type: "xavier"
      std: 0.2
    }
    bias_filler {
      type: "constant"
      value: 0.2
    }
  }
}
layer {
  name: "inception_4e/relu_5x5_reduce"
  type: "ReLU"
  bottom: "inception_4e/5x5_reduce"
  top: "inception_4e/5x5_reduce"
}
layer {
  name: "inception_4e/5x5"
  type: "Convolution"
  bottom: "inception_4e/5x5_reduce"
  top: "inception_4e/
I0403 15:16:20.545950 12365 layer_factory.hpp:77] Creating layer data
I0403 15:16:20.546540 12365 net.cpp:91] Creating Layer data
I0403 15:16:20.546571 12365 net.cpp:399] data -> data
I0403 15:16:20.546625 12365 net.cpp:399] data -> label
I0403 15:16:20.546671 12365 data_transformer.cpp:25] Loading mean file from: /home/mohanty/data/final_dataset/lmdb/grayscale-60-40/mean.binaryproto
I0403 15:16:20.549290 12367 db_lmdb.cpp:38] Opened lmdb /home/mohanty/data/final_dataset/lmdb/grayscale-60-40/test_db
I0403 15:16:20.560346 12365 data_layer.cpp:41] output data size: 24,3,224,224
I0403 15:16:20.588032 12365 net.cpp:141] Setting up data
I0403 15:16:20.588119 12365 net.cpp:148] Top shape: 24 3 224 224 (3612672)
I0403 15:16:20.588148 12365 net.cpp:148] Top shape: 24 (24)
I0403 15:16:20.588166 12365 net.cpp:156] Memory required for data: 14450784
I0403 15:16:20.588196 12365 layer_factory.hpp:77] Creating layer label_data_1_split
I0403 15:16:20.588223 12365 net.cpp:91] Creating Layer label_data_1_split
I0403 15:16:20.588241 12365 net.cpp:425] label_data_1_split <- label
I0403 15:16:20.588273 12365 net.cpp:399] label_data_1_split -> label_data_1_split_0
I0403 15:16:20.588302 12365 net.cpp:399] label_data_1_split -> label_data_1_split_1
I0403 15:16:20.588323 12365 net.cpp:399] label_data_1_split -> label_data_1_split_2
I0403 15:16:20.588343 12365 net.cpp:399] label_data_1_split -> label_data_1_split_3
I0403 15:16:20.588372 12365 net.cpp:399] label_data_1_split -> label_data_1_split_4
I0403 15:16:20.588392 12365 net.cpp:399] label_data_1_split -> label_data_1_split_5
I0403 15:16:20.588412 12365 net.cpp:399] label_data_1_split -> label_data_1_split_6
I0403 15:16:20.588433 12365 net.cpp:399] label_data_1_split -> label_data_1_split_7
I0403 15:16:20.588454 12365 net.cpp:399] label_data_1_split -> label_data_1_split_8
I0403 15:16:20.588472 12365 net.cpp:399] label_data_1_split -> label_data_1_split_9
I0403 15:16:20.588585 12365 net.cpp:141] Setting up label_data_1_split
I0403 15:16:20.588609 12365 net.cpp:148] Top shape: 24 (24)
I0403 15:16:20.588626 12365 net.cpp:148] Top shape: 24 (24)
I0403 15:16:20.588654 12365 net.cpp:148] Top shape: 24 (24)
I0403 15:16:20.588668 12365 net.cpp:148] Top shape: 24 (24)
I0403 15:16:20.588685 12365 net.cpp:148] Top shape: 24 (24)
I0403 15:16:20.588701 12365 net.cpp:148] Top shape: 24 (24)
I0403 15:16:20.588716 12365 net.cpp:148] Top shape: 24 (24)
I0403 15:16:20.588731 12365 net.cpp:148] Top shape: 24 (24)
I0403 15:16:20.588747 12365 net.cpp:148] Top shape: 24 (24)
I0403 15:16:20.588763 12365 net.cpp:148] Top shape: 24 (24)
I0403 15:16:20.588809 12365 net.cpp:156] Memory required for data: 14451744
I0403 15:16:20.588825 12365 layer_factory.hpp:77] Creating layer conv1/7x7_s2
I0403 15:16:20.588857 12365 net.cpp:91] Creating Layer conv1/7x7_s2
I0403 15:16:20.588876 12365 net.cpp:425] conv1/7x7_s2 <- data
I0403 15:16:20.588896 12365 net.cpp:399] conv1/7x7_s2 -> conv1/7x7_s2
I0403 15:16:20.732213 12365 net.cpp:141] Setting up conv1/7x7_s2
I0403 15:16:20.732285 12365 net.cpp:148] Top shape: 24 64 112 112 (19267584)
I0403 15:16:20.732301 12365 net.cpp:156] Memory required for data: 91522080
I0403 15:16:20.732331 12365 layer_factory.hpp:77] Creating layer conv1/relu_7x7
I0403 15:16:20.732359 12365 net.cpp:91] Creating Layer conv1/relu_7x7
I0403 15:16:20.732378 12365 net.cpp:425] conv1/relu_7x7 <- conv1/7x7_s2
I0403 15:16:20.732395 12365 net.cpp:386] conv1/relu_7x7 -> conv1/7x7_s2 (in-place)
I0403 15:16:20.732662 12365 net.cpp:141] Setting up conv1/relu_7x7
I0403 15:16:20.732691 12365 net.cpp:148] Top shape: 24 64 112 112 (19267584)
I0403 15:16:20.732705 12365 net.cpp:156] Memory required for data: 168592416
I0403 15:16:20.732722 12365 layer_factory.hpp:77] Creating layer pool1/3x3_s2
I0403 15:16:20.732745 12365 net.cpp:91] Creating Layer pool1/3x3_s2
I0403 15:16:20.732764 12365 net.cpp:425] pool1/3x3_s2 <- conv1/7x7_s2
I0403 15:16:20.732784 12365 net.cpp:399] pool1/3x3_s2 -> pool1/3x3_s2
I0403 15:16:20.732863 12365 net.cpp:141] Setting up pool1/3x3_s2
I0403 15:16:20.732887 12365 net.cpp:148] Top shape: 24 64 56 56 (4816896)
I0403 15:16:20.732903 12365 net.cpp:156] Memory required for data: 187860000
I0403 15:16:20.732918 12365 layer_factory.hpp:77] Creating layer pool1/norm1
I0403 15:16:20.732944 12365 net.cpp:91] Creating Layer pool1/norm1
I0403 15:16:20.732962 12365 net.cpp:425] pool1/norm1 <- pool1/3x3_s2
I0403 15:16:20.732981 12365 net.cpp:399] pool1/norm1 -> pool1/norm1
I0403 15:16:20.733294 12365 net.cpp:141] Setting up pool1/norm1
I0403 15:16:20.733321 12365 net.cpp:148] Top shape: 24 64 56 56 (4816896)
I0403 15:16:20.733337 12365 net.cpp:156] Memory required for data: 207127584
I0403 15:16:20.733352 12365 layer_factory.hpp:77] Creating layer conv2/3x3_reduce
I0403 15:16:20.733379 12365 net.cpp:91] Creating Layer conv2/3x3_reduce
I0403 15:16:20.733397 12365 net.cpp:425] conv2/3x3_reduce <- pool1/norm1
I0403 15:16:20.733417 12365 net.cpp:399] conv2/3x3_reduce -> conv2/3x3_reduce
I0403 15:16:20.734835 12365 net.cpp:141] Setting up conv2/3x3_reduce
I0403 15:16:20.734869 12365 net.cpp:148] Top shape: 24 64 56 56 (4816896)
I0403 15:16:20.734886 12365 net.cpp:156] Memory required for data: 226395168
I0403 15:16:20.734907 12365 layer_factory.hpp:77] Creating layer conv2/relu_3x3_reduce
I0403 15:16:20.734926 12365 net.cpp:91] Creating Layer conv2/relu_3x3_reduce
I0403 15:16:20.734942 12365 net.cpp:425] conv2/relu_3x3_reduce <- conv2/3x3_reduce
I0403 15:16:20.734959 12365 net.cpp:386] conv2/relu_3x3_reduce -> conv2/3x3_reduce (in-place)
I0403 15:16:20.735242 12365 net.cpp:141] Setting up conv2/relu_3x3_reduce
I0403 15:16:20.735271 12365 net.cpp:148] Top shape: 24 64 56 56 (4816896)
I0403 15:16:20.735288 12365 net.cpp:156] Memory required for data: 245662752
I0403 15:16:20.735303 12365 layer_factory.hpp:77] Creating layer conv2/3x3
I0403 15:16:20.735327 12365 net.cpp:91] Creating Layer conv2/3x3
I0403 15:16:20.735347 12365 net.cpp:425] conv2/3x3 <- conv2/3x3_reduce
I0403 15:16:20.735365 12365 net.cpp:399] conv2/3x3 -> conv2/3x3
I0403 15:16:20.737640 12365 net.cpp:141] Setting up conv2/3x3
I0403 15:16:20.737676 12365 net.cpp:148] Top shape: 24 192 56 56 (14450688)
I0403 15:16:20.737695 12365 net.cpp:156] Memory required for data: 303465504
I0403 15:16:20.737717 12365 layer_factory.hpp:77] Creating layer conv2/relu_3x3
I0403 15:16:20.737736 12365 net.cpp:91] Creating Layer conv2/relu_3x3
I0403 15:16:20.737751 12365 net.cpp:425] conv2/relu_3x3 <- conv2/3x3
I0403 15:16:20.737768 12365 net.cpp:386] conv2/relu_3x3 -> conv2/3x3 (in-place)
I0403 15:16:20.737944 12365 net.cpp:141] Setting up conv2/relu_3x3
I0403 15:16:20.737972 12365 net.cpp:148] Top shape: 24 192 56 56 (14450688)
I0403 15:16:20.738018 12365 net.cpp:156] Memory required for data: 361268256
I0403 15:16:20.738034 12365 layer_factory.hpp:77] Creating layer conv2/norm2
I0403 15:16:20.738057 12365 net.cpp:91] Creating Layer conv2/norm2
I0403 15:16:20.738075 12365 net.cpp:425] conv2/norm2 <- conv2/3x3
I0403 15:16:20.738092 12365 net.cpp:399] conv2/norm2 -> conv2/norm2
I0403 15:16:20.738394 12365 net.cpp:141] Setting up conv2/norm2
I0403 15:16:20.738421 12365 net.cpp:148] Top shape: 24 192 56 56 (14450688)
I0403 15:16:20.738437 12365 net.cpp:156] Memory required for data: 419071008
I0403 15:16:20.738452 12365 layer_factory.hpp:77] Creating layer pool2/3x3_s2
I0403 15:16:20.738473 12365 net.cpp:91] Creating Layer pool2/3x3_s2
I0403 15:16:20.738488 12365 net.cpp:425] pool2/3x3_s2 <- conv2/norm2
I0403 15:16:20.738507 12365 net.cpp:399] pool2/3x3_s2 -> pool2/3x3_s2
I0403 15:16:20.738559 12365 net.cpp:141] Setting up pool2/3x3_s2
I0403 15:16:20.738584 12365 net.cpp:148] Top shape: 24 192 28 28 (3612672)
I0403 15:16:20.738597 12365 net.cpp:156] Memory required for data: 433521696
I0403 15:16:20.738611 12365 layer_factory.hpp:77] Creating layer pool2/3x3_s2_pool2/3x3_s2_0_split
I0403 15:16:20.738628 12365 net.cpp:91] Creating Layer pool2/3x3_s2_pool2/3x3_s2_0_split
I0403 15:16:20.738644 12365 net.cpp:425] pool2/3x3_s2_pool2/3x3_s2_0_split <- pool2/3x3_s2
I0403 15:16:20.738665 12365 net.cpp:399] pool2/3x3_s2_pool2/3x3_s2_0_split -> pool2/3x3_s2_pool2/3x3_s2_0_split_0
I0403 15:16:20.738687 12365 net.cpp:399] pool2/3x3_s2_pool2/3x3_s2_0_split -> pool2/3x3_s2_pool2/3x3_s2_0_split_1
I0403 15:16:20.738705 12365 net.cpp:399] pool2/3x3_s2_pool2/3x3_s2_0_split -> pool2/3x3_s2_pool2/3x3_s2_0_split_2
I0403 15:16:20.738724 12365 net.cpp:399] pool2/3x3_s2_pool2/3x3_s2_0_split -> pool2/3x3_s2_pool2/3x3_s2_0_split_3
I0403 15:16:20.738795 12365 net.cpp:141] Setting up pool2/3x3_s2_pool2/3x3_s2_0_split
I0403 15:16:20.738821 12365 net.cpp:148] Top shape: 24 192 28 28 (3612672)
I0403 15:16:20.738837 12365 net.cpp:148] Top shape: 24 192 28 28 (3612672)
I0403 15:16:20.738852 12365 net.cpp:148] Top shape: 24 192 28 28 (3612672)
I0403 15:16:20.738867 12365 net.cpp:148] Top shape: 24 192 28 28 (3612672)
I0403 15:16:20.738880 12365 net.cpp:156] Memory required for data: 491324448
I0403 15:16:20.738894 12365 layer_factory.hpp:77] Creating layer inception_3a/1x1
I0403 15:16:20.738915 12365 net.cpp:91] Creating Layer inception_3a/1x1
I0403 15:16:20.738931 12365 net.cpp:425] inception_3a/1x1 <- pool2/3x3_s2_pool2/3x3_s2_0_split_0
I0403 15:16:20.738950 12365 net.cpp:399] inception_3a/1x1 -> inception_3a/1x1
I0403 15:16:20.740504 12365 net.cpp:141] Setting up inception_3a/1x1
I0403 15:16:20.740535 12365 net.cpp:148] Top shape: 24 64 28 28 (1204224)
I0403 15:16:20.740551 12365 net.cpp:156] Memory required for data: 496141344
I0403 15:16:20.740571 12365 layer_factory.hpp:77] Creating layer inception_3a/relu_1x1
I0403 15:16:20.740593 12365 net.cpp:91] Creating Layer inception_3a/relu_1x1
I0403 15:16:20.740612 12365 net.cpp:425] inception_3a/relu_1x1 <- inception_3a/1x1
I0403 15:16:20.740629 12365 net.cpp:386] inception_3a/relu_1x1 -> inception_3a/1x1 (in-place)
I0403 15:16:20.740808 12365 net.cpp:141] Setting up inception_3a/relu_1x1
I0403 15:16:20.740833 12365 net.cpp:148] Top shape: 24 64 28 28 (1204224)
I0403 15:16:20.740849 12365 net.cpp:156] Memory required for data: 500958240
I0403 15:16:20.740864 12365 layer_factory.hpp:77] Creating layer inception_3a/3x3_reduce
I0403 15:16:20.740887 12365 net.cpp:91] Creating Layer inception_3a/3x3_reduce
I0403 15:16:20.740906 12365 net.cpp:425] inception_3a/3x3_reduce <- pool2/3x3_s2_pool2/3x3_s2_0_split_1
I0403 15:16:20.740927 12365 net.cpp:399] inception_3a/3x3_reduce -> inception_3a/3x3_reduce
I0403 15:16:20.742640 12365 net.cpp:141] Setting up inception_3a/3x3_reduce
I0403 15:16:20.742674 12365 net.cpp:148] Top shape: 24 96 28 28 (1806336)
I0403 15:16:20.742692 12365 net.cpp:156] Memory required for data: 508183584
I0403 15:16:20.742715 12365 layer_factory.hpp:77] Creating layer inception_3a/relu_3x3_reduce
I0403 15:16:20.742755 12365 net.cpp:91] Creating Layer inception_3a/relu_3x3_reduce
I0403 15:16:20.742774 12365 net.cpp:425] inception_3a/relu_3x3_reduce <- inception_3a/3x3_reduce
I0403 15:16:20.742794 12365 net.cpp:386] inception_3a/relu_3x3_reduce -> inception_3a/3x3_reduce (in-place)
I0403 15:16:20.742980 12365 net.cpp:141] Setting up inception_3a/relu_3x3_reduce
I0403 15:16:20.743007 12365 net.cpp:148] Top shape: 24 96 28 28 (1806336)
I0403 15:16:20.743023 12365 net.cpp:156] Memory required for data: 515408928
I0403 15:16:20.743039 12365 layer_factory.hpp:77] Creating layer inception_3a/3x3
I0403 15:16:20.743062 12365 net.cpp:91] Creating Layer inception_3a/3x3
I0403 15:16:20.743083 12365 net.cpp:425] inception_3a/3x3 <- inception_3a/3x3_reduce
I0403 15:16:20.743104 12365 net.cpp:399] inception_3a/3x3 -> inception_3a/3x3
I0403 15:16:20.744807 12365 net.cpp:141] Setting up inception_3a/3x3
I0403 15:16:20.744840 12365 net.cpp:148] Top shape: 24 128 28 28 (2408448)
I0403 15:16:20.744858 12365 net.cpp:156] Memory required for data: 525042720
I0403 15:16:20.744879 12365 layer_factory.hpp:77] Creating layer inception_3a/relu_3x3
I0403 15:16:20.744897 12365 net.cpp:91] Creating Layer inception_3a/relu_3x3
I0403 15:16:20.744913 12365 net.cpp:425] inception_3a/relu_3x3 <- inception_3a/3x3
I0403 15:16:20.744935 12365 net.cpp:386] inception_3a/relu_3x3 -> inception_3a/3x3 (in-place)
I0403 15:16:20.745215 12365 net.cpp:141] Setting up inception_3a/relu_3x3
I0403 15:16:20.745246 12365 net.cpp:148] Top shape: 24 128 28 28 (2408448)
I0403 15:16:20.745263 12365 net.cpp:156] Memory required for data: 534676512
I0403 15:16:20.745280 12365 layer_factory.hpp:77] Creating layer inception_3a/5x5_reduce
I0403 15:16:20.745303 12365 net.cpp:91] Creating Layer inception_3a/5x5_reduce
I0403 15:16:20.745321 12365 net.cpp:425] inception_3a/5x5_reduce <- pool2/3x3_s2_pool2/3x3_s2_0_split_2
I0403 15:16:20.745338 12365 net.cpp:399] inception_3a/5x5_reduce -> inception_3a/5x5_reduce
I0403 15:16:20.746373 12365 net.cpp:141] Setting up inception_3a/5x5_reduce
I0403 15:16:20.746408 12365 net.cpp:148] Top shape: 24 16 28 28 (301056)
I0403 15:16:20.746426 12365 net.cpp:156] Memory required for data: 535880736
I0403 15:16:20.746448 12365 layer_factory.hpp:77] Creating layer inception_3a/relu_5x5_reduce
I0403 15:16:20.746479 12365 net.cpp:91] Creating Layer inception_3a/relu_5x5_reduce
I0403 15:16:20.746495 12365 net.cpp:425] inception_3a/relu_5x5_reduce <- inception_3a/5x5_reduce
I0403 15:16:20.746516 12365 net.cpp:386] inception_3a/relu_5x5_reduce -> inception_3a/5x5_reduce (in-place)
I0403 15:16:20.746815 12365 net.cpp:141] Setting up inception_3a/relu_5x5_reduce
I0403 15:16:20.746843 12365 net.cpp:148] Top shape: 24 16 28 28 (301056)
I0403 15:16:20.746860 12365 net.cpp:156] Memory required for data: 537084960
I0403 15:16:20.746875 12365 layer_factory.hpp:77] Creating layer inception_3a/5x5
I0403 15:16:20.746897 12365 net.cpp:91] Creating Layer inception_3a/5x5
I0403 15:16:20.746915 12365 net.cpp:425] inception_3a/5x5 <- inception_3a/5x5_reduce
I0403 15:16:20.746937 12365 net.cpp:399] inception_3a/5x5 -> inception_3a/5x5
I0403 15:16:20.748004 12365 net.cpp:141] Setting up inception_3a/5x5
I0403 15:16:20.748036 12365 net.cpp:148] Top shape: 24 32 28 28 (602112)
I0403 15:16:20.748054 12365 net.cpp:156] Memory required for data: 539493408
I0403 15:16:20.748072 12365 layer_factory.hpp:77] Creating layer inception_3a/relu_5x5
I0403 15:16:20.748092 12365 net.cpp:91] Creating Layer inception_3a/relu_5x5
I0403 15:16:20.748108 12365 net.cpp:425] inception_3a/relu_5x5 <- inception_3a/5x5
I0403 15:16:20.748133 12365 net.cpp:386] inception_3a/relu_5x5 -> inception_3a/5x5 (in-place)
I0403 15:16:20.748329 12365 net.cpp:141] Setting up inception_3a/relu_5x5
I0403 15:16:20.748358 12365 net.cpp:148] Top shape: 24 32 28 28 (602112)
I0403 15:16:20.748373 12365 net.cpp:156] Memory required for data: 541901856
I0403 15:16:20.748389 12365 layer_factory.hpp:77] Creating layer inception_3a/pool
I0403 15:16:20.748406 12365 net.cpp:91] Creating Layer inception_3a/pool
I0403 15:16:20.748438 12365 net.cpp:425] inception_3a/pool <- pool2/3x3_s2_pool2/3x3_s2_0_split_3
I0403 15:16:20.748472 12365 net.cpp:399] inception_3a/pool -> inception_3a/pool
I0403 15:16:20.748531 12365 net.cpp:141] Setting up inception_3a/pool
I0403 15:16:20.748556 12365 net.cpp:148] Top shape: 24 192 28 28 (3612672)
I0403 15:16:20.748571 12365 net.cpp:156] Memory required for data: 556352544
I0403 15:16:20.748586 12365 layer_factory.hpp:77] Creating layer inception_3a/pool_proj
I0403 15:16:20.748612 12365 net.cpp:91] Creating Layer inception_3a/pool_proj
I0403 15:16:20.748631 12365 net.cpp:425] inception_3a/pool_proj <- inception_3a/pool
I0403 15:16:20.748649 12365 net.cpp:399] inception_3a/pool_proj -> inception_3a/pool_proj
I0403 15:16:20.749721 12365 net.cpp:141] Setting up inception_3a/pool_proj
I0403 15:16:20.749748 12365 net.cpp:148] Top shape: 24 32 28 28 (602112)
I0403 15:16:20.749764 12365 net.cpp:156] Memory required for data: 558760992
I0403 15:16:20.749793 12365 layer_factory.hpp:77] Creating layer inception_3a/relu_pool_proj
I0403 15:16:20.749812 12365 net.cpp:91] Creating Layer inception_3a/relu_pool_proj
I0403 15:16:20.749828 12365 net.cpp:425] inception_3a/relu_pool_proj <- inception_3a/pool_proj
I0403 15:16:20.749847 12365 net.cpp:386] inception_3a/relu_pool_proj -> inception_3a/pool_proj (in-place)
I0403 15:16:20.750118 12365 net.cpp:141] Setting up inception_3a/relu_pool_proj
I0403 15:16:20.750152 12365 net.cpp:148] Top shape: 24 32 28 28 (602112)
I0403 15:16:20.750181 12365 net.cpp:156] Memory required for data: 561169440
I0403 15:16:20.750198 12365 layer_factory.hpp:77] Creating layer inception_3a/output
I0403 15:16:20.750216 12365 net.cpp:91] Creating Layer inception_3a/output
I0403 15:16:20.750231 12365 net.cpp:425] inception_3a/output <- inception_3a/1x1
I0403 15:16:20.750249 12365 net.cpp:425] inception_3a/output <- inception_3a/3x3
I0403 15:16:20.750265 12365 net.cpp:425] inception_3a/output <- inception_3a/5x5
I0403 15:16:20.750282 12365 net.cpp:425] inception_3a/output <- inception_3a/pool_proj
I0403 15:16:20.750301 12365 net.cpp:399] inception_3a/output -> inception_3a/output
I0403 15:16:20.750347 12365 net.cpp:141] Setting up inception_3a/output
I0403 15:16:20.750371 12365 net.cpp:148] Top shape: 24 256 28 28 (4816896)
I0403 15:16:20.750387 12365 net.cpp:156] Memory required for data: 580437024
I0403 15:16:20.750402 12365 layer_factory.hpp:77] Creating layer inception_3a/output_inception_3a/output_0_split
I0403 15:16:20.750422 12365 net.cpp:91] Creating Layer inception_3a/output_inception_3a/output_0_split
I0403 15:16:20.750439 12365 net.cpp:425] inception_3a/output_inception_3a/output_0_split <- inception_3a/output
I0403 15:16:20.750469 12365 net.cpp:399] inception_3a/output_inception_3a/output_0_split -> inception_3a/output_inception_3a/output_0_split_0
I0403 15:16:20.750489 12365 net.cpp:399] inception_3a/output_inception_3a/output_0_split -> inception_3a/output_inception_3a/output_0_split_1
I0403 15:16:20.750514 12365 net.cpp:399] inception_3a/output_inception_3a/output_0_split -> inception_3a/output_inception_3a/output_0_split_2
I0403 15:16:20.750535 12365 net.cpp:399] inception_3a/output_inception_3a/output_0_split -> inception_3a/output_inception_3a/output_0_split_3
I0403 15:16:20.750607 12365 net.cpp:141] Setting up inception_3a/output_inception_3a/output_0_split
I0403 15:16:20.750633 12365 net.cpp:148] Top shape: 24 256 28 28 (4816896)
I0403 15:16:20.750653 12365 net.cpp:148] Top shape: 24 256 28 28 (4816896)
I0403 15:16:20.750668 12365 net.cpp:148] Top shape: 24 256 28 28 (4816896)
I0403 15:16:20.750684 12365 net.cpp:148] Top shape: 24 256 28 28 (4816896)
I0403 15:16:20.750699 12365 net.cpp:156] Memory required for data: 657507360
I0403 15:16:20.750712 12365 layer_factory.hpp:77] Creating layer inception_3b/1x1
I0403 15:16:20.750735 12365 net.cpp:91] Creating Layer inception_3b/1x1
I0403 15:16:20.750751 12365 net.cpp:425] inception_3b/1x1 <- inception_3a/output_inception_3a/output_0_split_0
I0403 15:16:20.750771 12365 net.cpp:399] inception_3b/1x1 -> inception_3b/1x1
I0403 15:16:20.751921 12365 net.cpp:141] Setting up inception_3b/1x1
I0403 15:16:20.751960 12365 net.cpp:148] Top shape: 24 128 28 28 (2408448)
I0403 15:16:20.751977 12365 net.cpp:156] Memory required for data: 667141152
I0403 15:16:20.751996 12365 layer_factory.hpp:77] Creating layer inception_3b/relu_1x1
I0403 15:16:20.752017 12365 net.cpp:91] Creating Layer inception_3b/relu_1x1
I0403 15:16:20.752032 12365 net.cpp:425] inception_3b/relu_1x1 <- inception_3b/1x1
I0403 15:16:20.752050 12365 net.cpp:386] inception_3b/relu_1x1 -> inception_3b/1x1 (in-place)
I0403 15:16:20.752246 12365 net.cpp:141] Setting up inception_3b/relu_1x1
I0403 15:16:20.752275 12365 net.cpp:148] Top shape: 24 128 28 28 (2408448)
I0403 15:16:20.752291 12365 net.cpp:156] Memory required for data: 676774944
I0403 15:16:20.752307 12365 layer_factory.hpp:77] Creating layer inception_3b/3x3_reduce
I0403 15:16:20.752329 12365 net.cpp:91] Creating Layer inception_3b/3x3_reduce
I0403 15:16:20.752346 12365 net.cpp:425] inception_3b/3x3_reduce <- inception_3a/output_inception_3a/output_0_split_1
I0403 15:16:20.752367 12365 net.cpp:399] inception_3b/3x3_reduce -> inception_3b/3x3_reduce
I0403 15:16:20.753547 12365 net.cpp:141] Setting up inception_3b/3x3_reduce
I0403 15:16:20.753576 12365 net.cpp:148] Top shape: 24 128 28 28 (2408448)
I0403 15:16:20.753592 12365 net.cpp:156] Memory required for data: 686408736
I0403 15:16:20.753610 12365 layer_factory.hpp:77] Creating layer inception_3b/relu_3x3_reduce
I0403 15:16:20.753631 12365 net.cpp:91] Creating Layer inception_3b/relu_3x3_reduce
I0403 15:16:20.753657 12365 net.cpp:425] inception_3b/relu_3x3_reduce <- inception_3b/3x3_reduce
I0403 15:16:20.753674 12365 net.cpp:386] inception_3b/relu_3x3_reduce -> inception_3b/3x3_reduce (in-place)
I0403 15:16:20.753844 12365 net.cpp:141] Setting up inception_3b/relu_3x3_reduce
I0403 15:16:20.753871 12365 net.cpp:148] Top shape: 24 128 28 28 (2408448)
I0403 15:16:20.753886 12365 net.cpp:156] Memory required for data: 696042528
I0403 15:16:20.753901 12365 layer_factory.hpp:77] Creating layer inception_3b/3x3
I0403 15:16:20.753924 12365 net.cpp:91] Creating Layer inception_3b/3x3
I0403 15:16:20.753944 12365 net.cpp:425] inception_3b/3x3 <- inception_3b/3x3_reduce
I0403 15:16:20.753967 12365 net.cpp:399] inception_3b/3x3 -> inception_3b/3x3
I0403 15:16:20.756930 12365 net.cpp:141] Setting up inception_3b/3x3
I0403 15:16:20.756961 12365 net.cpp:148] Top shape: 24 192 28 28 (3612672)
I0403 15:16:20.756979 12365 net.cpp:156] Memory required for data: 710493216
I0403 15:16:20.756997 12365 layer_factory.hpp:77] Creating layer inception_3b/relu_3x3
I0403 15:16:20.757016 12365 net.cpp:91] Creating Layer inception_3b/relu_3x3
I0403 15:16:20.757032 12365 net.cpp:425] inception_3b/relu_3x3 <- inception_3b/3x3
I0403 15:16:20.757052 12365 net.cpp:386] inception_3b/relu_3x3 -> inception_3b/3x3 (in-place)
I0403 15:16:20.757346 12365 net.cpp:141] Setting up inception_3b/relu_3x3
I0403 15:16:20.757386 12365 net.cpp:148] Top shape: 24 192 28 28 (3612672)
I0403 15:16:20.757403 12365 net.cpp:156] Memory required for data: 724943904
I0403 15:16:20.757419 12365 layer_factory.hpp:77] Creating layer inception_3b/5x5_reduce
I0403 15:16:20.757443 12365 net.cpp:91] Creating Layer inception_3b/5x5_reduce
I0403 15:16:20.757472 12365 net.cpp:425] inception_3b/5x5_reduce <- inception_3a/output_inception_3a/output_0_split_2
I0403 15:16:20.757493 12365 net.cpp:399] inception_3b/5x5_reduce -> inception_3b/5x5_reduce
I0403 15:16:20.758467 12365 net.cpp:141] Setting up inception_3b/5x5_reduce
I0403 15:16:20.758498 12365 net.cpp:148] Top shape: 24 32 28 28 (602112)
I0403 15:16:20.758514 12365 net.cpp:156] Memory required for data: 727352352
I0403 15:16:20.758533 12365 layer_factory.hpp:77] Creating layer inception_3b/relu_5x5_reduce
I0403 15:16:20.758553 12365 net.cpp:91] Creating Layer inception_3b/relu_5x5_reduce
I0403 15:16:20.758569 12365 net.cpp:425] inception_3b/relu_5x5_reduce <- inception_3b/5x5_reduce
I0403 15:16:20.758587 12365 net.cpp:386] inception_3b/relu_5x5_reduce -> inception_3b/5x5_reduce (in-place)
I0403 15:16:20.758776 12365 net.cpp:141] Setting up inception_3b/relu_5x5_reduce
I0403 15:16:20.758802 12365 net.cpp:148] Top shape: 24 32 28 28 (602112)
I0403 15:16:20.758817 12365 net.cpp:156] Memory required for data: 729760800
I0403 15:16:20.758833 12365 layer_factory.hpp:77] Creating layer inception_3b/5x5
I0403 15:16:20.758855 12365 net.cpp:91] Creating Layer inception_3b/5x5
I0403 15:16:20.758872 12365 net.cpp:425] inception_3b/5x5 <- inception_3b/5x5_reduce
I0403 15:16:20.758893 12365 net.cpp:399] inception_3b/5x5 -> inception_3b/5x5
I0403 15:16:20.760846 12365 net.cpp:141] Setting up inception_3b/5x5
I0403 15:16:20.760875 12365 net.cpp:148] Top shape: 24 96 28 28 (1806336)
I0403 15:16:20.760890 12365 net.cpp:156] Memory required for data: 736986144
I0403 15:16:20.760910 12365 layer_factory.hpp:77] Creating layer inception_3b/relu_5x5
I0403 15:16:20.760932 12365 net.cpp:91] Creating Layer inception_3b/relu_5x5
I0403 15:16:20.760948 12365 net.cpp:425] inception_3b/relu_5x5 <- inception_3b/5x5
I0403 15:16:20.760965 12365 net.cpp:386] inception_3b/relu_5x5 -> inception_3b/5x5 (in-place)
I0403 15:16:20.761153 12365 net.cpp:141] Setting up inception_3b/relu_5x5
I0403 15:16:20.761179 12365 net.cpp:148] Top shape: 24 96 28 28 (1806336)
I0403 15:16:20.761194 12365 net.cpp:156] Memory required for data: 744211488
I0403 15:16:20.761209 12365 layer_factory.hpp:77] Creating layer inception_3b/pool
I0403 15:16:20.761226 12365 net.cpp:91] Creating Layer inception_3b/pool
I0403 15:16:20.761241 12365 net.cpp:425] inception_3b/pool <- inception_3a/output_inception_3a/output_0_split_3
I0403 15:16:20.761260 12365 net.cpp:399] inception_3b/pool -> inception_3b/pool
I0403 15:16:20.761314 12365 net.cpp:141] Setting up inception_3b/pool
I0403 15:16:20.761337 12365 net.cpp:148] Top shape: 24 256 28 28 (4816896)
I0403 15:16:20.761353 12365 net.cpp:156] Memory required for data: 763479072
I0403 15:16:20.761370 12365 layer_factory.hpp:77] Creating layer inception_3b/pool_proj
I0403 15:16:20.761391 12365 net.cpp:91] Creating Layer inception_3b/pool_proj
I0403 15:16:20.761411 12365 net.cpp:425] inception_3b/pool_proj <- inception_3b/pool
I0403 15:16:20.761430 12365 net.cpp:399] inception_3b/pool_proj -> inception_3b/pool_proj
I0403 15:16:20.762445 12365 net.cpp:141] Setting up inception_3b/pool_proj
I0403 15:16:20.762473 12365 net.cpp:148] Top shape: 24 64 28 28 (1204224)
I0403 15:16:20.762488 12365 net.cpp:156] Memory required for data: 768295968
I0403 15:16:20.762506 12365 layer_factory.hpp:77] Creating layer inception_3b/relu_pool_proj
I0403 15:16:20.762523 12365 net.cpp:91] Creating Layer inception_3b/relu_pool_proj
I0403 15:16:20.762539 12365 net.cpp:425] inception_3b/relu_pool_proj <- inception_3b/pool_proj
I0403 15:16:20.762559 12365 net.cpp:386] inception_3b/relu_pool_proj -> inception_3b/pool_proj (in-place)
I0403 15:16:20.762943 12365 net.cpp:141] Setting up inception_3b/relu_pool_proj
I0403 15:16:20.762969 12365 net.cpp:148] Top shape: 24 64 28 28 (1204224)
I0403 15:16:20.762984 12365 net.cpp:156] Memory required for data: 773112864
I0403 15:16:20.762998 12365 layer_factory.hpp:77] Creating layer inception_3b/output
I0403 15:16:20.763015 12365 net.cpp:91] Creating Layer inception_3b/output
I0403 15:16:20.763031 12365 net.cpp:425] inception_3b/output <- inception_3b/1x1
I0403 15:16:20.763048 12365 net.cpp:425] inception_3b/output <- inception_3b/3x3
I0403 15:16:20.763064 12365 net.cpp:425] inception_3b/output <- inception_3b/5x5
I0403 15:16:20.763079 12365 net.cpp:425] inception_3b/output <- inception_3b/pool_proj
I0403 15:16:20.763098 12365 net.cpp:399] inception_3b/output -> inception_3b/output
I0403 15:16:20.763150 12365 net.cpp:141] Setting up inception_3b/output
I0403 15:16:20.763177 12365 net.cpp:148] Top shape: 24 480 28 28 (9031680)
I0403 15:16:20.763195 12365 net.cpp:156] Memory required for data: 809239584
I0403 15:16:20.763211 12365 layer_factory.hpp:77] Creating layer pool3/3x3_s2
I0403 15:16:20.763228 12365 net.cpp:91] Creating Layer pool3/3x3_s2
I0403 15:16:20.763243 12365 net.cpp:425] pool3/3x3_s2 <- inception_3b/output
I0403 15:16:20.763281 12365 net.cpp:399] pool3/3x3_s2 -> pool3/3x3_s2
I0403 15:16:20.763339 12365 net.cpp:141] Setting up pool3/3x3_s2
I0403 15:16:20.763363 12365 net.cpp:148] Top shape: 24 480 14 14 (2257920)
I0403 15:16:20.763377 12365 net.cpp:156] Memory required for data: 818271264
I0403 15:16:20.763391 12365 layer_factory.hpp:77] Creating layer pool3/3x3_s2_pool3/3x3_s2_0_split
I0403 15:16:20.763411 12365 net.cpp:91] Creating Layer pool3/3x3_s2_pool3/3x3_s2_0_split
I0403 15:16:20.763427 12365 net.cpp:425] pool3/3x3_s2_pool3/3x3_s2_0_split <- pool3/3x3_s2
I0403 15:16:20.763442 12365 net.cpp:399] pool3/3x3_s2_pool3/3x3_s2_0_split -> pool3/3x3_s2_pool3/3x3_s2_0_split_0
I0403 15:16:20.763463 12365 net.cpp:399] pool3/3x3_s2_pool3/3x3_s2_0_split -> pool3/3x3_s2_pool3/3x3_s2_0_split_1
I0403 15:16:20.763481 12365 net.cpp:399] pool3/3x3_s2_pool3/3x3_s2_0_split -> pool3/3x3_s2_pool3/3x3_s2_0_split_2
I0403 15:16:20.763499 12365 net.cpp:399] pool3/3x3_s2_pool3/3x3_s2_0_split -> pool3/3x3_s2_pool3/3x3_s2_0_split_3
I0403 15:16:20.763573 12365 net.cpp:141] Setting up pool3/3x3_s2_pool3/3x3_s2_0_split
I0403 15:16:20.763597 12365 net.cpp:148] Top shape: 24 480 14 14 (2257920)
I0403 15:16:20.763613 12365 net.cpp:148] Top shape: 24 480 14 14 (2257920)
I0403 15:16:20.763628 12365 net.cpp:148] Top shape: 24 480 14 14 (2257920)
I0403 15:16:20.763644 12365 net.cpp:148] Top shape: 24 480 14 14 (2257920)
I0403 15:16:20.763658 12365 net.cpp:156] Memory required for data: 854397984
I0403 15:16:20.763671 12365 layer_factory.hpp:77] Creating layer inception_4a/1x1
I0403 15:16:20.763692 12365 net.cpp:91] Creating Layer inception_4a/1x1
I0403 15:16:20.763710 12365 net.cpp:425] inception_4a/1x1 <- pool3/3x3_s2_pool3/3x3_s2_0_split_0
I0403 15:16:20.763730 12365 net.cpp:399] inception_4a/1x1 -> inception_4a/1x1
I0403 15:16:20.765254 12365 net.cpp:141] Setting up inception_4a/1x1
I0403 15:16:20.765282 12365 net.cpp:148] Top shape: 24 192 14 14 (903168)
I0403 15:16:20.765297 12365 net.cpp:156] Memory required for data: 858010656
I0403 15:16:20.765316 12365 layer_factory.hpp:77] Creating layer inception_4a/relu_1x1
I0403 15:16:20.765336 12365 net.cpp:91] Creating Layer inception_4a/relu_1x1
I0403 15:16:20.765352 12365 net.cpp:425] inception_4a/relu_1x1 <- inception_4a/1x1
I0403 15:16:20.765374 12365 net.cpp:386] inception_4a/relu_1x1 -> inception_4a/1x1 (in-place)
I0403 15:16:20.765544 12365 net.cpp:141] Setting up inception_4a/relu_1x1
I0403 15:16:20.765573 12365 net.cpp:148] Top shape: 24 192 14 14 (903168)
I0403 15:16:20.765589 12365 net.cpp:156] Memory required for data: 861623328
I0403 15:16:20.765604 12365 layer_factory.hpp:77] Creating layer inception_4a/3x3_reduce
I0403 15:16:20.765624 12365 net.cpp:91] Creating Layer inception_4a/3x3_reduce
I0403 15:16:20.765648 12365 net.cpp:425] inception_4a/3x3_reduce <- pool3/3x3_s2_pool3/3x3_s2_0_split_1
I0403 15:16:20.765669 12365 net.cpp:399] inception_4a/3x3_reduce -> inception_4a/3x3_reduce
I0403 15:16:20.766891 12365 net.cpp:141] Setting up inception_4a/3x3_reduce
I0403 15:16:20.766919 12365 net.cpp:148] Top shape: 24 96 14 14 (451584)
I0403 15:16:20.766934 12365 net.cpp:156] Memory required for data: 863429664
I0403 15:16:20.766958 12365 layer_factory.hpp:77] Creating layer inception_4a/relu_3x3_reduce
I0403 15:16:20.766978 12365 net.cpp:91] Creating Layer inception_4a/relu_3x3_reduce
I0403 15:16:20.766995 12365 net.cpp:425] inception_4a/relu_3x3_reduce <- inception_4a/3x3_reduce
I0403 15:16:20.767014 12365 net.cpp:386] inception_4a/relu_3x3_reduce -> inception_4a/3x3_reduce (in-place)
I0403 15:16:20.767187 12365 net.cpp:141] Setting up inception_4a/relu_3x3_reduce
I0403 15:16:20.767213 12365 net.cpp:148] Top shape: 24 96 14 14 (451584)
I0403 15:16:20.767228 12365 net.cpp:156] Memory required for data: 865236000
I0403 15:16:20.767242 12365 layer_factory.hpp:77] Creating layer inception_4a/3x3
I0403 15:16:20.767266 12365 net.cpp:91] Creating Layer inception_4a/3x3
I0403 15:16:20.767282 12365 net.cpp:425] inception_4a/3x3 <- inception_4a/3x3_reduce
I0403 15:16:20.767303 12365 net.cpp:399] inception_4a/3x3 -> inception_4a/3x3
I0403 15:16:20.769883 12365 net.cpp:141] Setting up inception_4a/3x3
I0403 15:16:20.769912 12365 net.cpp:148] Top shape: 24 208 14 14 (978432)
I0403 15:16:20.769927 12365 net.cpp:156] Memory required for data: 869149728
I0403 15:16:20.769944 12365 layer_factory.hpp:77] Creating layer inception_4a/relu_3x3
I0403 15:16:20.769964 12365 net.cpp:91] Creating Layer inception_4a/relu_3x3
I0403 15:16:20.769981 12365 net.cpp:425] inception_4a/relu_3x3 <- inception_4a/3x3
I0403 15:16:20.769999 12365 net.cpp:386] inception_4a/relu_3x3 -> inception_4a/3x3 (in-place)
I0403 15:16:20.770272 12365 net.cpp:141] Setting up inception_4a/relu_3x3
I0403 15:16:20.770298 12365 net.cpp:148] Top shape: 24 208 14 14 (978432)
I0403 15:16:20.770313 12365 net.cpp:156] Memory required for data: 873063456
I0403 15:16:20.770328 12365 layer_factory.hpp:77] Creating layer inception_4a/5x5_reduce
I0403 15:16:20.770352 12365 net.cpp:91] Creating Layer inception_4a/5x5_reduce
I0403 15:16:20.770370 12365 net.cpp:425] inception_4a/5x5_reduce <- pool3/3x3_s2_pool3/3x3_s2_0_split_2
I0403 15:16:20.770388 12365 net.cpp:399] inception_4a/5x5_reduce -> inception_4a/5x5_reduce
I0403 15:16:20.771368 12365 net.cpp:141] Setting up inception_4a/5x5_reduce
I0403 15:16:20.771397 12365 net.cpp:148] Top shape: 24 16 14 14 (75264)
I0403 15:16:20.771414 12365 net.cpp:156] Memory required for data: 873364512
I0403 15:16:20.771433 12365 layer_factory.hpp:77] Creating layer inception_4a/relu_5x5_reduce
I0403 15:16:20.771452 12365 net.cpp:91] Creating Layer inception_4a/relu_5x5_reduce
I0403 15:16:20.771468 12365 net.cpp:425] inception_4a/relu_5x5_reduce <- inception_4a/5x5_reduce
I0403 15:16:20.771486 12365 net.cpp:386] inception_4a/relu_5x5_reduce -> inception_4a/5x5_reduce (in-place)
I0403 15:16:20.771661 12365 net.cpp:141] Setting up inception_4a/relu_5x5_reduce
I0403 15:16:20.771685 12365 net.cpp:148] Top shape: 24 16 14 14 (75264)
I0403 15:16:20.771700 12365 net.cpp:156] Memory required for data: 873665568
I0403 15:16:20.771716 12365 layer_factory.hpp:77] Creating layer inception_4a/5x5
I0403 15:16:20.771739 12365 net.cpp:91] Creating Layer inception_4a/5x5
I0403 15:16:20.771755 12365 net.cpp:425] inception_4a/5x5 <- inception_4a/5x5_reduce
I0403 15:16:20.771775 12365 net.cpp:399] inception_4a/5x5 -> inception_4a/5x5
I0403 15:16:20.772814 12365 net.cpp:141] Setting up inception_4a/5x5
I0403 15:16:20.772841 12365 net.cpp:148] Top shape: 24 48 14 14 (225792)
I0403 15:16:20.772857 12365 net.cpp:156] Memory required for data: 874568736
I0403 15:16:20.772876 12365 layer_factory.hpp:77] Creating layer inception_4a/relu_5x5
I0403 15:16:20.772894 12365 net.cpp:91] Creating Layer inception_4a/relu_5x5
I0403 15:16:20.772940 12365 net.cpp:425] inception_4a/relu_5x5 <- inception_4a/5x5
I0403 15:16:20.772958 12365 net.cpp:386] inception_4a/relu_5x5 -> inception_4a/5x5 (in-place)
I0403 15:16:20.773154 12365 net.cpp:141] Setting up inception_4a/relu_5x5
I0403 15:16:20.773191 12365 net.cpp:148] Top shape: 24 48 14 14 (225792)
I0403 15:16:20.773218 12365 net.cpp:156] Memory required for data: 875471904
I0403 15:16:20.773232 12365 layer_factory.hpp:77] Creating layer inception_4a/pool
I0403 15:16:20.773253 12365 net.cpp:91] Creating Layer inception_4a/pool
I0403 15:16:20.773270 12365 net.cpp:425] inception_4a/pool <- pool3/3x3_s2_pool3/3x3_s2_0_split_3
I0403 15:16:20.773288 12365 net.cpp:399] inception_4a/pool -> inception_4a/pool
I0403 15:16:20.773350 12365 net.cpp:141] Setting up inception_4a/pool
I0403 15:16:20.773373 12365 net.cpp:148] Top shape: 24 480 14 14 (2257920)
I0403 15:16:20.773388 12365 net.cpp:156] Memory required for data: 884503584
I0403 15:16:20.773402 12365 layer_factory.hpp:77] Creating layer inception_4a/pool_proj
I0403 15:16:20.773424 12365 net.cpp:91] Creating Layer inception_4a/pool_proj
I0403 15:16:20.773442 12365 net.cpp:425] inception_4a/pool_proj <- inception_4a/pool
I0403 15:16:20.773466 12365 net.cpp:399] inception_4a/pool_proj -> inception_4a/pool_proj
I0403 15:16:20.774618 12365 net.cpp:141] Setting up inception_4a/pool_proj
I0403 15:16:20.774647 12365 net.cpp:148] Top shape: 24 64 14 14 (301056)
I0403 15:16:20.774680 12365 net.cpp:156] Memory required for data: 885707808
I0403 15:16:20.774700 12365 layer_factory.hpp:77] Creating layer inception_4a/relu_pool_proj
I0403 15:16:20.774720 12365 net.cpp:91] Creating Layer inception_4a/relu_pool_proj
I0403 15:16:20.774739 12365 net.cpp:425] inception_4a/relu_pool_proj <- inception_4a/pool_proj
I0403 15:16:20.774755 12365 net.cpp:386] inception_4a/relu_pool_proj -> inception_4a/pool_proj (in-place)
I0403 15:16:20.775039 12365 net.cpp:141] Setting up inception_4a/relu_pool_proj
I0403 15:16:20.775066 12365 net.cpp:148] Top shape: 24 64 14 14 (301056)
I0403 15:16:20.775081 12365 net.cpp:156] Memory required for data: 886912032
I0403 15:16:20.775096 12365 layer_factory.hpp:77] Creating layer inception_4a/output
I0403 15:16:20.775113 12365 net.cpp:91] Creating Layer inception_4a/output
I0403 15:16:20.775132 12365 net.cpp:425] inception_4a/output <- inception_4a/1x1
I0403 15:16:20.775151 12365 net.cpp:425] inception_4a/output <- inception_4a/3x3
I0403 15:16:20.775171 12365 net.cpp:425] inception_4a/output <- inception_4a/5x5
I0403 15:16:20.775187 12365 net.cpp:425] inception_4a/output <- inception_4a/pool_proj
I0403 15:16:20.775204 12365 net.cpp:399] inception_4a/output -> inception_4a/output
I0403 15:16:20.775248 12365 net.cpp:141] Setting up inception_4a/output
I0403 15:16:20.775274 12365 net.cpp:148] Top shape: 24 512 14 14 (2408448)
I0403 15:16:20.775290 12365 net.cpp:156] Memory required for data: 896545824
I0403 15:16:20.775305 12365 layer_factory.hpp:77] Creating layer inception_4a/output_inception_4a/output_0_split
I0403 15:16:20.775321 12365 net.cpp:91] Creating Layer inception_4a/output_inception_4a/output_0_split
I0403 15:16:20.775337 12365 net.cpp:425] inception_4a/output_inception_4a/output_0_split <- inception_4a/output
I0403 15:16:20.775357 12365 net.cpp:399] inception_4a/output_inception_4a/output_0_split -> inception_4a/output_inception_4a/output_0_split_0
I0403 15:16:20.775379 12365 net.cpp:399] inception_4a/output_inception_4a/output_0_split -> inception_4a/output_inception_4a/output_0_split_1
I0403 15:16:20.775400 12365 net.cpp:399] inception_4a/output_inception_4a/output_0_split -> inception_4a/output_inception_4a/output_0_split_2
I0403 15:16:20.775419 12365 net.cpp:399] inception_4a/output_inception_4a/output_0_split -> inception_4a/output_inception_4a/output_0_split_3
I0403 15:16:20.775439 12365 net.cpp:399] inception_4a/output_inception_4a/output_0_split -> inception_4a/output_inception_4a/output_0_split_4
I0403 15:16:20.775532 12365 net.cpp:141] Setting up inception_4a/output_inception_4a/output_0_split
I0403 15:16:20.775557 12365 net.cpp:148] Top shape: 24 512 14 14 (2408448)
I0403 15:16:20.775575 12365 net.cpp:148] Top shape: 24 512 14 14 (2408448)
I0403 15:16:20.775591 12365 net.cpp:148] Top shape: 24 512 14 14 (2408448)
I0403 15:16:20.775607 12365 net.cpp:148] Top shape: 24 512 14 14 (2408448)
I0403 15:16:20.775624 12365 net.cpp:148] Top shape: 24 512 14 14 (2408448)
I0403 15:16:20.775636 12365 net.cpp:156] Memory required for data: 944714784
I0403 15:16:20.775650 12365 layer_factory.hpp:77] Creating layer loss1/ave_pool
I0403 15:16:20.775667 12365 net.cpp:91] Creating Layer loss1/ave_pool
I0403 15:16:20.775682 12365 net.cpp:425] loss1/ave_pool <- inception_4a/output_inception_4a/output_0_split_0
I0403 15:16:20.775704 12365 net.cpp:399] loss1/ave_pool -> loss1/ave_pool
I0403 15:16:20.775908 12365 net.cpp:141] Setting up loss1/ave_pool
I0403 15:16:20.775935 12365 net.cpp:148] Top shape: 24 512 4 4 (196608)
I0403 15:16:20.775951 12365 net.cpp:156] Memory required for data: 945501216
I0403 15:16:20.775966 12365 layer_factory.hpp:77] Creating layer loss1/conv
I0403 15:16:20.775988 12365 net.cpp:91] Creating Layer loss1/conv
I0403 15:16:20.776006 12365 net.cpp:425] loss1/conv <- loss1/ave_pool
I0403 15:16:20.776026 12365 net.cpp:399] loss1/conv -> loss1/conv
I0403 15:16:20.777448 12365 net.cpp:141] Setting up loss1/conv
I0403 15:16:20.777477 12365 net.cpp:148] Top shape: 24 128 4 4 (49152)
I0403 15:16:20.777508 12365 net.cpp:156] Memory required for data: 945697824
I0403 15:16:20.777528 12365 layer_factory.hpp:77] Creating layer loss1/relu_conv
I0403 15:16:20.777547 12365 net.cpp:91] Creating Layer loss1/relu_conv
I0403 15:16:20.777565 12365 net.cpp:425] loss1/relu_conv <- loss1/conv
I0403 15:16:20.777582 12365 net.cpp:386] loss1/relu_conv -> loss1/conv (in-place)
I0403 15:16:20.777873 12365 net.cpp:141] Setting up loss1/relu_conv
I0403 15:16:20.777899 12365 net.cpp:148] Top shape: 24 128 4 4 (49152)
I0403 15:16:20.777915 12365 net.cpp:156] Memory required for data: 945894432
I0403 15:16:20.777930 12365 layer_factory.hpp:77] Creating layer loss1/fc
I0403 15:16:20.777956 12365 net.cpp:91] Creating Layer loss1/fc
I0403 15:16:20.777973 12365 net.cpp:425] loss1/fc <- loss1/conv
I0403 15:16:20.777994 12365 net.cpp:399] loss1/fc -> loss1/fc
I0403 15:16:20.795629 12365 net.cpp:141] Setting up loss1/fc
I0403 15:16:20.795663 12365 net.cpp:148] Top shape: 24 1024 (24576)
I0403 15:16:20.795680 12365 net.cpp:156] Memory required for data: 945992736
I0403 15:16:20.795697 12365 layer_factory.hpp:77] Creating layer loss1/relu_fc
I0403 15:16:20.795716 12365 net.cpp:91] Creating Layer loss1/relu_fc
I0403 15:16:20.795730 12365 net.cpp:425] loss1/relu_fc <- loss1/fc
I0403 15:16:20.795749 12365 net.cpp:386] loss1/relu_fc -> loss1/fc (in-place)
I0403 15:16:20.795936 12365 net.cpp:141] Setting up loss1/relu_fc
I0403 15:16:20.795964 12365 net.cpp:148] Top shape: 24 1024 (24576)
I0403 15:16:20.795979 12365 net.cpp:156] Memory required for data: 946091040
I0403 15:16:20.795995 12365 layer_factory.hpp:77] Creating layer loss1/drop_fc
I0403 15:16:20.796021 12365 net.cpp:91] Creating Layer loss1/drop_fc
I0403 15:16:20.796039 12365 net.cpp:425] loss1/drop_fc <- loss1/fc
I0403 15:16:20.796056 12365 net.cpp:386] loss1/drop_fc -> loss1/fc (in-place)
I0403 15:16:20.796108 12365 net.cpp:141] Setting up loss1/drop_fc
I0403 15:16:20.796135 12365 net.cpp:148] Top shape: 24 1024 (24576)
I0403 15:16:20.796151 12365 net.cpp:156] Memory required for data: 946189344
I0403 15:16:20.796167 12365 layer_factory.hpp:77] Creating layer loss1/classifier_plantvillage
I0403 15:16:20.796185 12365 net.cpp:91] Creating Layer loss1/classifier_plantvillage
I0403 15:16:20.796200 12365 net.cpp:425] loss1/classifier_plantvillage <- loss1/fc
I0403 15:16:20.796221 12365 net.cpp:399] loss1/classifier_plantvillage -> loss1/classifier_plantvillage
I0403 15:16:20.797094 12365 net.cpp:141] Setting up loss1/classifier_plantvillage
I0403 15:16:20.797123 12365 net.cpp:148] Top shape: 24 38 (912)
I0403 15:16:20.797143 12365 net.cpp:156] Memory required for data: 946192992
I0403 15:16:20.797161 12365 layer_factory.hpp:77] Creating layer loss1/classifier_plantvillage_loss1/classifier_plantvillage_0_split
I0403 15:16:20.797183 12365 net.cpp:91] Creating Layer loss1/classifier_plantvillage_loss1/classifier_plantvillage_0_split
I0403 15:16:20.797199 12365 net.cpp:425] loss1/classifier_plantvillage_loss1/classifier_plantvillage_0_split <- loss1/classifier_plantvillage
I0403 15:16:20.797217 12365 net.cpp:399] loss1/classifier_plantvillage_loss1/classifier_plantvillage_0_split -> loss1/classifier_plantvillage_loss1/classifier_plantvillage_0_split_0
I0403 15:16:20.797237 12365 net.cpp:399] loss1/classifier_plantvillage_loss1/classifier_plantvillage_0_split -> loss1/classifier_plantvillage_loss1/classifier_plantvillage_0_split_1
I0403 15:16:20.797257 12365 net.cpp:399] loss1/classifier_plantvillage_loss1/classifier_plantvillage_0_split -> loss1/classifier_plantvillage_loss1/classifier_plantvillage_0_split_2
I0403 15:16:20.797324 12365 net.cpp:141] Setting up loss1/classifier_plantvillage_loss1/classifier_plantvillage_0_split
I0403 15:16:20.797348 12365 net.cpp:148] Top shape: 24 38 (912)
I0403 15:16:20.797372 12365 net.cpp:148] Top shape: 24 38 (912)
I0403 15:16:20.797389 12365 net.cpp:148] Top shape: 24 38 (912)
I0403 15:16:20.797402 12365 net.cpp:156] Memory required for data: 946203936
I0403 15:16:20.797416 12365 layer_factory.hpp:77] Creating layer inception_4b/1x1
I0403 15:16:20.797438 12365 net.cpp:91] Creating Layer inception_4b/1x1
I0403 15:16:20.797472 12365 net.cpp:425] inception_4b/1x1 <- inception_4a/output_inception_4a/output_0_split_1
I0403 15:16:20.797492 12365 net.cpp:399] inception_4b/1x1 -> inception_4b/1x1
I0403 15:16:20.799088 12365 net.cpp:141] Setting up inception_4b/1x1
I0403 15:16:20.799116 12365 net.cpp:148] Top shape: 24 160 14 14 (752640)
I0403 15:16:20.799139 12365 net.cpp:156] Memory required for data: 949214496
I0403 15:16:20.799157 12365 layer_factory.hpp:77] Creating layer inception_4b/relu_1x1
I0403 15:16:20.799176 12365 net.cpp:91] Creating Layer inception_4b/relu_1x1
I0403 15:16:20.799193 12365 net.cpp:425] inception_4b/relu_1x1 <- inception_4b/1x1
I0403 15:16:20.799211 12365 net.cpp:386] inception_4b/relu_1x1 -> inception_4b/1x1 (in-place)
I0403 15:16:20.799388 12365 net.cpp:141] Setting up inception_4b/relu_1x1
I0403 15:16:20.799413 12365 net.cpp:148] Top shape: 24 160 14 14 (752640)
I0403 15:16:20.799428 12365 net.cpp:156] Memory required for data: 952225056
I0403 15:16:20.799443 12365 layer_factory.hpp:77] Creating layer inception_4b/3x3_reduce
I0403 15:16:20.799463 12365 net.cpp:91] Creating Layer inception_4b/3x3_reduce
I0403 15:16:20.799481 12365 net.cpp:425] inception_4b/3x3_reduce <- inception_4a/output_inception_4a/output_0_split_2
I0403 15:16:20.799502 12365 net.cpp:399] inception_4b/3x3_reduce -> inception_4b/3x3_reduce
I0403 15:16:20.800812 12365 net.cpp:141] Setting up inception_4b/3x3_reduce
I0403 15:16:20.800839 12365 net.cpp:148] Top shape: 24 112 14 14 (526848)
I0403 15:16:20.800855 12365 net.cpp:156] Memory required for data: 954332448
I0403 15:16:20.800873 12365 layer_factory.hpp:77] Creating layer inception_4b/relu_3x3_reduce
I0403 15:16:20.800890 12365 net.cpp:91] Creating Layer inception_4b/relu_3x3_reduce
I0403 15:16:20.800905 12365 net.cpp:425] inception_4b/relu_3x3_reduce <- inception_4b/3x3_reduce
I0403 15:16:20.800925 12365 net.cpp:386] inception_4b/relu_3x3_reduce -> inception_4b/3x3_reduce (in-place)
I0403 15:16:20.801208 12365 net.cpp:141] Setting up inception_4b/relu_3x3_reduce
I0403 15:16:20.801234 12365 net.cpp:148] Top shape: 24 112 14 14 (526848)
I0403 15:16:20.801249 12365 net.cpp:156] Memory required for data: 956439840
I0403 15:16:20.801264 12365 layer_factory.hpp:77] Creating layer inception_4b/3x3
I0403 15:16:20.801285 12365 net.cpp:91] Creating Layer inception_4b/3x3
I0403 15:16:20.801303 12365 net.cpp:425] inception_4b/3x3 <- inception_4b/3x3_reduce
I0403 15:16:20.801326 12365 net.cpp:399] inception_4b/3x3 -> inception_4b/3x3
I0403 15:16:20.804219 12365 net.cpp:141] Setting up inception_4b/3x3
I0403 15:16:20.804247 12365 net.cpp:148] Top shape: 24 224 14 14 (1053696)
I0403 15:16:20.804262 12365 net.cpp:156] Memory required for data: 960654624
I0403 15:16:20.804280 12365 layer_factory.hpp:77] Creating layer inception_4b/relu_3x3
I0403 15:16:20.804301 12365 net.cpp:91] Creating Layer inception_4b/relu_3x3
I0403 15:16:20.804318 12365 net.cpp:425] inception_4b/relu_3x3 <- inception_4b/3x3
I0403 15:16:20.804337 12365 net.cpp:386] inception_4b/relu_3x3 -> inception_4b/3x3 (in-place)
I0403 15:16:20.804512 12365 net.cpp:141] Setting up inception_4b/relu_3x3
I0403 15:16:20.804539 12365 net.cpp:148] Top shape: 24 224 14 14 (1053696)
I0403 15:16:20.804555 12365 net.cpp:156] Memory required for data: 964869408
I0403 15:16:20.804570 12365 layer_factory.hpp:77] Creating layer inception_4b/5x5_reduce
I0403 15:16:20.804592 12365 net.cpp:91] Creating Layer inception_4b/5x5_reduce
I0403 15:16:20.804608 12365 net.cpp:425] inception_4b/5x5_reduce <- inception_4a/output_inception_4a/output_0_split_3
I0403 15:16:20.804627 12365 net.cpp:399] inception_4b/5x5_reduce -> inception_4b/5x5_reduce
I0403 15:16:20.805732 12365 net.cpp:141] Setting up inception_4b/5x5_reduce
I0403 15:16:20.805762 12365 net.cpp:148] Top shape: 24 24 14 14 (112896)
I0403 15:16:20.805778 12365 net.cpp:156] Memory required for data: 965320992
I0403 15:16:20.805795 12365 layer_factory.hpp:77] Creating layer inception_4b/relu_5x5_reduce
I0403 15:16:20.805814 12365 net.cpp:91] Creating Layer inception_4b/relu_5x5_reduce
I0403 15:16:20.805845 12365 net.cpp:425] inception_4b/relu_5x5_reduce <- inception_4b/5x5_reduce
I0403 15:16:20.805865 12365 net.cpp:386] inception_4b/relu_5x5_reduce -> inception_4b/5x5_reduce (in-place)
I0403 15:16:20.806044 12365 net.cpp:141] Setting up inception_4b/relu_5x5_reduce
I0403 15:16:20.806069 12365 net.cpp:148] Top shape: 24 24 14 14 (112896)
I0403 15:16:20.806083 12365 net.cpp:156] Memory required for data: 965772576
I0403 15:16:20.806098 12365 layer_factory.hpp:77] Creating layer inception_4b/5x5
I0403 15:16:20.806120 12365 net.cpp:91] Creating Layer inception_4b/5x5
I0403 15:16:20.806143 12365 net.cpp:425] inception_4b/5x5 <- inception_4b/5x5_reduce
I0403 15:16:20.806164 12365 net.cpp:399] inception_4b/5x5 -> inception_4b/5x5
I0403 15:16:20.807358 12365 net.cpp:141] Setting up inception_4b/5x5
I0403 15:16:20.807386 12365 net.cpp:148] Top shape: 24 64 14 14 (301056)
I0403 15:16:20.807402 12365 net.cpp:156] Memory required for data: 966976800
I0403 15:16:20.807420 12365 layer_factory.hpp:77] Creating layer inception_4b/relu_5x5
I0403 15:16:20.807440 12365 net.cpp:91] Creating Layer inception_4b/relu_5x5
I0403 15:16:20.807456 12365 net.cpp:425] inception_4b/relu_5x5 <- inception_4b/5x5
I0403 15:16:20.807473 12365 net.cpp:386] inception_4b/relu_5x5 -> inception_4b/5x5 (in-place)
I0403 15:16:20.807755 12365 net.cpp:141] Setting up inception_4b/relu_5x5
I0403 15:16:20.807781 12365 net.cpp:148] Top shape: 24 64 14 14 (301056)
I0403 15:16:20.807796 12365 net.cpp:156] Memory required for data: 968181024
I0403 15:16:20.807811 12365 layer_factory.hpp:77] Creating layer inception_4b/pool
I0403 15:16:20.807833 12365 net.cpp:91] Creating Layer inception_4b/pool
I0403 15:16:20.807852 12365 net.cpp:425] inception_4b/pool <- inception_4a/output_inception_4a/output_0_split_4
I0403 15:16:20.807870 12365 net.cpp:399] inception_4b/pool -> inception_4b/pool
I0403 15:16:20.807932 12365 net.cpp:141] Setting up inception_4b/pool
I0403 15:16:20.807956 12365 net.cpp:148] Top shape: 24 512 14 14 (2408448)
I0403 15:16:20.807971 12365 net.cpp:156] Memory required for data: 977814816
I0403 15:16:20.807986 12365 layer_factory.hpp:77] Creating layer inception_4b/pool_proj
I0403 15:16:20.808007 12365 net.cpp:91] Creating Layer inception_4b/pool_proj
I0403 15:16:20.808023 12365 net.cpp:425] inception_4b/pool_proj <- inception_4b/pool
I0403 15:16:20.808044 12365 net.cpp:399] inception_4b/pool_proj -> inception_4b/pool_proj
I0403 15:16:20.809231 12365 net.cpp:141] Setting up inception_4b/pool_proj
I0403 15:16:20.809259 12365 net.cpp:148] Top shape: 24 64 14 14 (301056)
I0403 15:16:20.809276 12365 net.cpp:156] Memory required for data: 979019040
I0403 15:16:20.809294 12365 layer_factory.hpp:77] Creating layer inception_4b/relu_pool_proj
I0403 15:16:20.809312 12365 net.cpp:91] Creating Layer inception_4b/relu_pool_proj
I0403 15:16:20.809326 12365 net.cpp:425] inception_4b/relu_pool_proj <- inception_4b/pool_proj
I0403 15:16:20.809345 12365 net.cpp:386] inception_4b/relu_pool_proj -> inception_4b/pool_proj (in-place)
I0403 15:16:20.809532 12365 net.cpp:141] Setting up inception_4b/relu_pool_proj
I0403 15:16:20.809557 12365 net.cpp:148] Top shape: 24 64 14 14 (301056)
I0403 15:16:20.809571 12365 net.cpp:156] Memory required for data: 980223264
I0403 15:16:20.809587 12365 layer_factory.hpp:77] Creating layer inception_4b/output
I0403 15:16:20.809603 12365 net.cpp:91] Creating Layer inception_4b/output
I0403 15:16:20.809618 12365 net.cpp:425] inception_4b/output <- inception_4b/1x1
I0403 15:16:20.809633 12365 net.cpp:425] inception_4b/output <- inception_4b/3x3
I0403 15:16:20.809659 12365 net.cpp:425] inception_4b/output <- inception_4b/5x5
I0403 15:16:20.809674 12365 net.cpp:425] inception_4b/output <- inception_4b/pool_proj
I0403 15:16:20.809692 12365 net.cpp:399] inception_4b/output -> inception_4b/output
I0403 15:16:20.809736 12365 net.cpp:141] Setting up inception_4b/output
I0403 15:16:20.809763 12365 net.cpp:148] Top shape: 24 512 14 14 (2408448)
I0403 15:16:20.809779 12365 net.cpp:156] Memory required for data: 989857056
I0403 15:16:20.809808 12365 layer_factory.hpp:77] Creating layer inception_4b/output_inception_4b/output_0_split
I0403 15:16:20.809826 12365 net.cpp:91] Creating Layer inception_4b/output_inception_4b/output_0_split
I0403 15:16:20.809842 12365 net.cpp:425] inception_4b/output_inception_4b/output_0_split <- inception_4b/output
I0403 15:16:20.809859 12365 net.cpp:399] inception_4b/output_inception_4b/output_0_split -> inception_4b/output_inception_4b/output_0_split_0
I0403 15:16:20.809880 12365 net.cpp:399] inception_4b/output_inception_4b/output_0_split -> inception_4b/output_inception_4b/output_0_split_1
I0403 15:16:20.809900 12365 net.cpp:399] inception_4b/output_inception_4b/output_0_split -> inception_4b/output_inception_4b/output_0_split_2
I0403 15:16:20.809921 12365 net.cpp:399] inception_4b/output_inception_4b/output_0_split -> inception_4b/output_inception_4b/output_0_split_3
I0403 15:16:20.810003 12365 net.cpp:141] Setting up inception_4b/output_inception_4b/output_0_split
I0403 15:16:20.810026 12365 net.cpp:148] Top shape: 24 512 14 14 (2408448)
I0403 15:16:20.810042 12365 net.cpp:148] Top shape: 24 512 14 14 (2408448)
I0403 15:16:20.810056 12365 net.cpp:148] Top shape: 24 512 14 14 (2408448)
I0403 15:16:20.810071 12365 net.cpp:148] Top shape: 24 512 14 14 (2408448)
I0403 15:16:20.810084 12365 net.cpp:156] Memory required for data: 1028392224
I0403 15:16:20.810098 12365 layer_factory.hpp:77] Creating layer inception_4c/1x1
I0403 15:16:20.810122 12365 net.cpp:91] Creating Layer inception_4c/1x1
I0403 15:16:20.810143 12365 net.cpp:425] inception_4c/1x1 <- inception_4b/output_inception_4b/output_0_split_0
I0403 15:16:20.810163 12365 net.cpp:399] inception_4c/1x1 -> inception_4c/1x1
I0403 15:16:20.811560 12365 net.cpp:141] Setting up inception_4c/1x1
I0403 15:16:20.811588 12365 net.cpp:148] Top shape: 24 128 14 14 (602112)
I0403 15:16:20.811604 12365 net.cpp:156] Memory required for data: 1030800672
I0403 15:16:20.811622 12365 layer_factory.hpp:77] Creating layer inception_4c/relu_1x1
I0403 15:16:20.811640 12365 net.cpp:91] Creating Layer inception_4c/relu_1x1
I0403 15:16:20.811655 12365 net.cpp:425] inception_4c/relu_1x1 <- inception_4c/1x1
I0403 15:16:20.811674 12365 net.cpp:386] inception_4c/relu_1x1 -> inception_4c/1x1 (in-place)
I0403 15:16:20.811851 12365 net.cpp:141] Setting up inception_4c/relu_1x1
I0403 15:16:20.811877 12365 net.cpp:148] Top shape: 24 128 14 14 (602112)
I0403 15:16:20.811890 12365 net.cpp:156] Memory required for data: 1033209120
I0403 15:16:20.811905 12365 layer_factory.hpp:77] Creating layer inception_4c/3x3_reduce
I0403 15:16:20.811929 12365 net.cpp:91] Creating Layer inception_4c/3x3_reduce
I0403 15:16:20.811946 12365 net.cpp:425] inception_4c/3x3_reduce <- inception_4b/output_inception_4b/output_0_split_1
I0403 15:16:20.811967 12365 net.cpp:399] inception_4c/3x3_reduce -> inception_4c/3x3_reduce
I0403 15:16:20.813856 12365 net.cpp:141] Setting up inception_4c/3x3_reduce
I0403 15:16:20.813887 12365 net.cpp:148] Top shape: 24 128 14 14 (602112)
I0403 15:16:20.813905 12365 net.cpp:156] Memory required for data: 1035617568
I0403 15:16:20.813923 12365 layer_factory.hpp:77] Creating layer inception_4c/relu_3x3_reduce
I0403 15:16:20.813941 12365 net.cpp:91] Creating Layer inception_4c/relu_3x3_reduce
I0403 15:16:20.813956 12365 net.cpp:425] inception_4c/relu_3x3_reduce <- inception_4c/3x3_reduce
I0403 15:16:20.813971 12365 net.cpp:386] inception_4c/relu_3x3_reduce -> inception_4c/3x3_reduce (in-place)
I0403 15:16:20.814254 12365 net.cpp:141] Setting up inception_4c/relu_3x3_reduce
I0403 15:16:20.814282 12365 net.cpp:148] Top shape: 24 128 14 14 (602112)
I0403 15:16:20.814301 12365 net.cpp:156] Memory required for data: 1038026016
I0403 15:16:20.814316 12365 layer_factory.hpp:77] Creating layer inception_4c/3x3
I0403 15:16:20.814337 12365 net.cpp:91] Creating Layer inception_4c/3x3
I0403 15:16:20.814354 12365 net.cpp:425] inception_4c/3x3 <- inception_4c/3x3_reduce
I0403 15:16:20.814373 12365 net.cpp:399] inception_4c/3x3 -> inception_4c/3x3
I0403 15:16:20.817863 12365 net.cpp:141] Setting up inception_4c/3x3
I0403 15:16:20.817906 12365 net.cpp:148] Top shape: 24 256 14 14 (1204224)
I0403 15:16:20.817925 12365 net.cpp:156] Memory required for data: 1042842912
I0403 15:16:20.817956 12365 layer_factory.hpp:77] Creating layer inception_4c/relu_3x3
I0403 15:16:20.817977 12365 net.cpp:91] Creating Layer inception_4c/relu_3x3
I0403 15:16:20.817993 12365 net.cpp:425] inception_4c/relu_3x3 <- inception_4c/3x3
I0403 15:16:20.818012 12365 net.cpp:386] inception_4c/relu_3x3 -> inception_4c/3x3 (in-place)
I0403 15:16:20.818193 12365 net.cpp:141] Setting up inception_4c/relu_3x3
I0403 15:16:20.818220 12365 net.cpp:148] Top shape: 24 256 14 14 (1204224)
I0403 15:16:20.818236 12365 net.cpp:156] Memory required for data: 1047659808
I0403 15:16:20.818251 12365 layer_factory.hpp:77] Creating layer inception_4c/5x5_reduce
I0403 15:16:20.818274 12365 net.cpp:91] Creating Layer inception_4c/5x5_reduce
I0403 15:16:20.818291 12365 net.cpp:425] inception_4c/5x5_reduce <- inception_4b/output_inception_4b/output_0_split_2
I0403 15:16:20.818312 12365 net.cpp:399] inception_4c/5x5_reduce -> inception_4c/5x5_reduce
I0403 15:16:20.819370 12365 net.cpp:141] Setting up inception_4c/5x5_reduce
I0403 15:16:20.819401 12365 net.cpp:148] Top shape: 24 24 14 14 (112896)
I0403 15:16:20.819417 12365 net.cpp:156] Memory required for data: 1048111392
I0403 15:16:20.819435 12365 layer_factory.hpp:77] Creating layer inception_4c/relu_5x5_reduce
I0403 15:16:20.819453 12365 net.cpp:91] Creating Layer inception_4c/relu_5x5_reduce
I0403 15:16:20.819469 12365 net.cpp:425] inception_4c/relu_5x5_reduce <- inception_4c/5x5_reduce
I0403 15:16:20.819486 12365 net.cpp:386] inception_4c/relu_5x5_reduce -> inception_4c/5x5_reduce (in-place)
I0403 15:16:20.819670 12365 net.cpp:141] Setting up inception_4c/relu_5x5_reduce
I0403 15:16:20.819695 12365 net.cpp:148] Top shape: 24 24 14 14 (112896)
I0403 15:16:20.819710 12365 net.cpp:156] Memory required for data: 1048562976
I0403 15:16:20.819725 12365 layer_factory.hpp:77] Creating layer inception_4c/5x5
I0403 15:16:20.819746 12365 net.cpp:91] Creating Layer inception_4c/5x5
I0403 15:16:20.819763 12365 net.cpp:425] inception_4c/5x5 <- inception_4c/5x5_reduce
I0403 15:16:20.819784 12365 net.cpp:399] inception_4c/5x5 -> inception_4c/5x5
I0403 15:16:20.820987 12365 net.cpp:141] Setting up inception_4c/5x5
I0403 15:16:20.821014 12365 net.cpp:148] Top shape: 24 64 14 14 (301056)
I0403 15:16:20.821030 12365 net.cpp:156] Memory required for data: 1049767200
I0403 15:16:20.821048 12365 layer_factory.hpp:77] Creating layer inception_4c/relu_5x5
I0403 15:16:20.821066 12365 net.cpp:91] Creating Layer inception_4c/relu_5x5
I0403 15:16:20.821081 12365 net.cpp:425] inception_4c/relu_5x5 <- inception_4c/5x5
I0403 15:16:20.821100 12365 net.cpp:386] inception_4c/relu_5x5 -> inception_4c/5x5 (in-place)
I0403 15:16:20.821394 12365 net.cpp:141] Setting up inception_4c/relu_5x5
I0403 15:16:20.821420 12365 net.cpp:148] Top shape: 24 64 14 14 (301056)
I0403 15:16:20.821435 12365 net.cpp:156] Memory required for data: 1050971424
I0403 15:16:20.821451 12365 layer_factory.hpp:77] Creating layer inception_4c/pool
I0403 15:16:20.821468 12365 net.cpp:91] Creating Layer inception_4c/pool
I0403 15:16:20.821483 12365 net.cpp:425] inception_4c/pool <- inception_4b/output_inception_4b/output_0_split_3
I0403 15:16:20.821503 12365 net.cpp:399] inception_4c/pool -> inception_4c/pool
I0403 15:16:20.821568 12365 net.cpp:141] Setting up inception_4c/pool
I0403 15:16:20.821591 12365 net.cpp:148] Top shape: 24 512 14 14 (2408448)
I0403 15:16:20.821605 12365 net.cpp:156] Memory required for data: 1060605216
I0403 15:16:20.821620 12365 layer_factory.hpp:77] Creating layer inception_4c/pool_proj
I0403 15:16:20.821653 12365 net.cpp:91] Creating Layer inception_4c/pool_proj
I0403 15:16:20.821671 12365 net.cpp:425] inception_4c/pool_proj <- inception_4c/pool
I0403 15:16:20.821688 12365 net.cpp:399] inception_4c/pool_proj -> inception_4c/pool_proj
I0403 15:16:20.822877 12365 net.cpp:141] Setting up inception_4c/pool_proj
I0403 15:16:20.822907 12365 net.cpp:148] Top shape: 24 64 14 14 (301056)
I0403 15:16:20.822937 12365 net.cpp:156] Memory required for data: 1061809440
I0403 15:16:20.822957 12365 layer_factory.hpp:77] Creating layer inception_4c/relu_pool_proj
I0403 15:16:20.822974 12365 net.cpp:91] Creating Layer inception_4c/relu_pool_proj
I0403 15:16:20.822989 12365 net.cpp:425] inception_4c/relu_pool_proj <- inception_4c/pool_proj
I0403 15:16:20.823009 12365 net.cpp:386] inception_4c/relu_pool_proj -> inception_4c/pool_proj (in-place)
I0403 15:16:20.823222 12365 net.cpp:141] Setting up inception_4c/relu_pool_proj
I0403 15:16:20.823249 12365 net.cpp:148] Top shape: 24 64 14 14 (301056)
I0403 15:16:20.823266 12365 net.cpp:156] Memory required for data: 1063013664
I0403 15:16:20.823281 12365 layer_factory.hpp:77] Creating layer inception_4c/output
I0403 15:16:20.823298 12365 net.cpp:91] Creating Layer inception_4c/output
I0403 15:16:20.823313 12365 net.cpp:425] inception_4c/output <- inception_4c/1x1
I0403 15:16:20.823329 12365 net.cpp:425] inception_4c/output <- inception_4c/3x3
I0403 15:16:20.823345 12365 net.cpp:425] inception_4c/output <- inception_4c/5x5
I0403 15:16:20.823362 12365 net.cpp:425] inception_4c/output <- inception_4c/pool_proj
I0403 15:16:20.823384 12365 net.cpp:399] inception_4c/output -> inception_4c/output
I0403 15:16:20.823431 12365 net.cpp:141] Setting up inception_4c/output
I0403 15:16:20.823468 12365 net.cpp:148] Top shape: 24 512 14 14 (2408448)
I0403 15:16:20.823484 12365 net.cpp:156] Memory required for data: 1072647456
I0403 15:16:20.823499 12365 layer_factory.hpp:77] Creating layer inception_4c/output_inception_4c/output_0_split
I0403 15:16:20.823516 12365 net.cpp:91] Creating Layer inception_4c/output_inception_4c/output_0_split
I0403 15:16:20.823531 12365 net.cpp:425] inception_4c/output_inception_4c/output_0_split <- inception_4c/output
I0403 15:16:20.823552 12365 net.cpp:399] inception_4c/output_inception_4c/output_0_split -> inception_4c/output_inception_4c/output_0_split_0
I0403 15:16:20.823575 12365 net.cpp:399] inception_4c/output_inception_4c/output_0_split -> inception_4c/output_inception_4c/output_0_split_1
I0403 15:16:20.823596 12365 net.cpp:399] inception_4c/output_inception_4c/output_0_split -> inception_4c/output_inception_4c/output_0_split_2
I0403 15:16:20.823616 12365 net.cpp:399] inception_4c/output_inception_4c/output_0_split -> inception_4c/output_inception_4c/output_0_split_3
I0403 15:16:20.823700 12365 net.cpp:141] Setting up inception_4c/output_inception_4c/output_0_split
I0403 15:16:20.823725 12365 net.cpp:148] Top shape: 24 512 14 14 (2408448)
I0403 15:16:20.823743 12365 net.cpp:148] Top shape: 24 512 14 14 (2408448)
I0403 15:16:20.823758 12365 net.cpp:148] Top shape: 24 512 14 14 (2408448)
I0403 15:16:20.823773 12365 net.cpp:148] Top shape: 24 512 14 14 (2408448)
I0403 15:16:20.823787 12365 net.cpp:156] Memory required for data: 1111182624
I0403 15:16:20.823802 12365 layer_factory.hpp:77] Creating layer inception_4d/1x1
I0403 15:16:20.823825 12365 net.cpp:91] Creating Layer inception_4d/1x1
I0403 15:16:20.823845 12365 net.cpp:425] inception_4d/1x1 <- inception_4c/output_inception_4c/output_0_split_0
I0403 15:16:20.823864 12365 net.cpp:399] inception_4d/1x1 -> inception_4d/1x1
I0403 15:16:20.825253 12365 net.cpp:141] Setting up inception_4d/1x1
I0403 15:16:20.825284 12365 net.cpp:148] Top shape: 24 112 14 14 (526848)
I0403 15:16:20.825300 12365 net.cpp:156] Memory required for data: 1113290016
I0403 15:16:20.825320 12365 layer_factory.hpp:77] Creating layer inception_4d/relu_1x1
I0403 15:16:20.825338 12365 net.cpp:91] Creating Layer inception_4d/relu_1x1
I0403 15:16:20.825366 12365 net.cpp:425] inception_4d/relu_1x1 <- inception_4d/1x1
I0403 15:16:20.825383 12365 net.cpp:386] inception_4d/relu_1x1 -> inception_4d/1x1 (in-place)
I0403 15:16:20.825567 12365 net.cpp:141] Setting up inception_4d/relu_1x1
I0403 15:16:20.825595 12365 net.cpp:148] Top shape: 24 112 14 14 (526848)
I0403 15:16:20.825613 12365 net.cpp:156] Memory required for data: 1115397408
I0403 15:16:20.825628 12365 layer_factory.hpp:77] Creating layer inception_4d/3x3_reduce
I0403 15:16:20.825672 12365 net.cpp:91] Creating Layer inception_4d/3x3_reduce
I0403 15:16:20.825692 12365 net.cpp:425] inception_4d/3x3_reduce <- inception_4c/output_inception_4c/output_0_split_1
I0403 15:16:20.825711 12365 net.cpp:399] inception_4d/3x3_reduce -> inception_4d/3x3_reduce
I0403 15:16:20.827244 12365 net.cpp:141] Setting up inception_4d/3x3_reduce
I0403 15:16:20.827272 12365 net.cpp:148] Top shape: 24 144 14 14 (677376)
I0403 15:16:20.827289 12365 net.cpp:156] Memory required for data: 1118106912
I0403 15:16:20.827308 12365 layer_factory.hpp:77] Creating layer inception_4d/relu_3x3_reduce
I0403 15:16:20.827329 12365 net.cpp:91] Creating Layer inception_4d/relu_3x3_reduce
I0403 15:16:20.827347 12365 net.cpp:425] inception_4d/relu_3x3_reduce <- inception_4d/3x3_reduce
I0403 15:16:20.827366 12365 net.cpp:386] inception_4d/relu_3x3_reduce -> inception_4d/3x3_reduce (in-place)
I0403 15:16:20.827669 12365 net.cpp:141] Setting up inception_4d/relu_3x3_reduce
I0403 15:16:20.827697 12365 net.cpp:148] Top shape: 24 144 14 14 (677376)
I0403 15:16:20.827711 12365 net.cpp:156] Memory required for data: 1120816416
I0403 15:16:20.827726 12365 layer_factory.hpp:77] Creating layer inception_4d/3x3
I0403 15:16:20.827749 12365 net.cpp:91] Creating Layer inception_4d/3x3
I0403 15:16:20.827766 12365 net.cpp:425] inception_4d/3x3 <- inception_4d/3x3_reduce
I0403 15:16:20.827787 12365 net.cpp:399] inception_4d/3x3 -> inception_4d/3x3
I0403 15:16:20.832041 12365 net.cpp:141] Setting up inception_4d/3x3
I0403 15:16:20.832072 12365 net.cpp:148] Top shape: 24 288 14 14 (1354752)
I0403 15:16:20.832087 12365 net.cpp:156] Memory required for data: 1126235424
I0403 15:16:20.832106 12365 layer_factory.hpp:77] Creating layer inception_4d/relu_3x3
I0403 15:16:20.832130 12365 net.cpp:91] Creating Layer inception_4d/relu_3x3
I0403 15:16:20.832150 12365 net.cpp:425] inception_4d/relu_3x3 <- inception_4d/3x3
I0403 15:16:20.832168 12365 net.cpp:386] inception_4d/relu_3x3 -> inception_4d/3x3 (in-place)
I0403 15:16:20.832373 12365 net.cpp:141] Setting up inception_4d/relu_3x3
I0403 15:16:20.832402 12365 net.cpp:148] Top shape: 24 288 14 14 (1354752)
I0403 15:16:20.832418 12365 net.cpp:156] Memory required for data: 1131654432
I0403 15:16:20.832434 12365 layer_factory.hpp:77] Creating layer inception_4d/5x5_reduce
I0403 15:16:20.832456 12365 net.cpp:91] Creating Layer inception_4d/5x5_reduce
I0403 15:16:20.832475 12365 net.cpp:425] inception_4d/5x5_reduce <- inception_4c/output_inception_4c/output_0_split_2
I0403 15:16:20.832494 12365 net.cpp:399] inception_4d/5x5_reduce -> inception_4d/5x5_reduce
I0403 15:16:20.833755 12365 net.cpp:141] Setting up inception_4d/5x5_reduce
I0403 15:16:20.833784 12365 net.cpp:148] Top shape: 24 32 14 14 (150528)
I0403 15:16:20.833801 12365 net.cpp:156] Memory required for data: 1132256544
I0403 15:16:20.833819 12365 layer_factory.hpp:77] Creating layer inception_4d/relu_5x5_reduce
I0403 15:16:20.833840 12365 net.cpp:91] Creating Layer inception_4d/relu_5x5_reduce
I0403 15:16:20.833858 12365 net.cpp:425] inception_4d/relu_5x5_reduce <- inception_4d/5x5_reduce
I0403 15:16:20.833875 12365 net.cpp:386] inception_4d/relu_5x5_reduce -> inception_4d/5x5_reduce (in-place)
I0403 15:16:20.834064 12365 net.cpp:141] Setting up inception_4d/relu_5x5_reduce
I0403 15:16:20.834094 12365 net.cpp:148] Top shape: 24 32 14 14 (150528)
I0403 15:16:20.834110 12365 net.cpp:156] Memory required for data: 1132858656
I0403 15:16:20.834131 12365 layer_factory.hpp:77] Creating layer inception_4d/5x5
I0403 15:16:20.834154 12365 net.cpp:91] Creating Layer inception_4d/5x5
I0403 15:16:20.834173 12365 net.cpp:425] inception_4d/5x5 <- inception_4d/5x5_reduce
I0403 15:16:20.834193 12365 net.cpp:399] inception_4d/5x5 -> inception_4d/5x5
I0403 15:16:20.838886 12365 net.cpp:141] Setting up inception_4d/5x5
I0403 15:16:20.838915 12365 net.cpp:148] Top shape: 24 64 14 14 (301056)
I0403 15:16:20.838932 12365 net.cpp:156] Memory required for data: 1134062880
I0403 15:16:20.838950 12365 layer_factory.hpp:77] Creating layer inception_4d/relu_5x5
I0403 15:16:20.838984 12365 net.cpp:91] Creating Layer inception_4d/relu_5x5
I0403 15:16:20.839002 12365 net.cpp:425] inception_4d/relu_5x5 <- inception_4d/5x5
I0403 15:16:20.839022 12365 net.cpp:386] inception_4d/relu_5x5 -> inception_4d/5x5 (in-place)
I0403 15:16:20.839337 12365 net.cpp:141] Setting up inception_4d/relu_5x5
I0403 15:16:20.839365 12365 net.cpp:148] Top shape: 24 64 14 14 (301056)
I0403 15:16:20.839380 12365 net.cpp:156] Memory required for data: 1135267104
I0403 15:16:20.839395 12365 layer_factory.hpp:77] Creating layer inception_4d/pool
I0403 15:16:20.839412 12365 net.cpp:91] Creating Layer inception_4d/pool
I0403 15:16:20.839429 12365 net.cpp:425] inception_4d/pool <- inception_4c/output_inception_4c/output_0_split_3
I0403 15:16:20.839449 12365 net.cpp:399] inception_4d/pool -> inception_4d/pool
I0403 15:16:20.839516 12365 net.cpp:141] Setting up inception_4d/pool
I0403 15:16:20.839540 12365 net.cpp:148] Top shape: 24 512 14 14 (2408448)
I0403 15:16:20.839555 12365 net.cpp:156] Memory required for data: 1144900896
I0403 15:16:20.839570 12365 layer_factory.hpp:77] Creating layer inception_4d/pool_proj
I0403 15:16:20.839593 12365 net.cpp:91] Creating Layer inception_4d/pool_proj
I0403 15:16:20.839612 12365 net.cpp:425] inception_4d/pool_proj <- inception_4d/pool
I0403 15:16:20.839630 12365 net.cpp:399] inception_4d/pool_proj -> inception_4d/pool_proj
I0403 15:16:20.841405 12365 net.cpp:141] Setting up inception_4d/pool_proj
I0403 15:16:20.841435 12365 net.cpp:148] Top shape: 24 64 14 14 (301056)
I0403 15:16:20.841464 12365 net.cpp:156] Memory required for data: 1146105120
I0403 15:16:20.841486 12365 layer_factory.hpp:77] Creating layer inception_4d/relu_pool_proj
I0403 15:16:20.841506 12365 net.cpp:91] Creating Layer inception_4d/relu_pool_proj
I0403 15:16:20.841523 12365 net.cpp:425] inception_4d/relu_pool_proj <- inception_4d/pool_proj
I0403 15:16:20.841541 12365 net.cpp:386] inception_4d/relu_pool_proj -> inception_4d/pool_proj (in-place)
I0403 15:16:20.841723 12365 net.cpp:141] Setting up inception_4d/relu_pool_proj
I0403 15:16:20.841752 12365 net.cpp:148] Top shape: 24 64 14 14 (301056)
I0403 15:16:20.841768 12365 net.cpp:156] Memory required for data: 1147309344
I0403 15:16:20.841781 12365 layer_factory.hpp:77] Creating layer inception_4d/output
I0403 15:16:20.841799 12365 net.cpp:91] Creating Layer inception_4d/output
I0403 15:16:20.841814 12365 net.cpp:425] inception_4d/output <- inception_4d/1x1
I0403 15:16:20.841830 12365 net.cpp:425] inception_4d/output <- inception_4d/3x3
I0403 15:16:20.841845 12365 net.cpp:425] inception_4d/output <- inception_4d/5x5
I0403 15:16:20.841861 12365 net.cpp:425] inception_4d/output <- inception_4d/pool_proj
I0403 15:16:20.841882 12365 net.cpp:399] inception_4d/output -> inception_4d/output
I0403 15:16:20.841929 12365 net.cpp:141] Setting up inception_4d/output
I0403 15:16:20.841953 12365 net.cpp:148] Top shape: 24 528 14 14 (2483712)
I0403 15:16:20.841967 12365 net.cpp:156] Memory required for data: 1157244192
I0403 15:16:20.841981 12365 layer_factory.hpp:77] Creating layer inception_4d/output_inception_4d/output_0_split
I0403 15:16:20.842001 12365 net.cpp:91] Creating Layer inception_4d/output_inception_4d/output_0_split
I0403 15:16:20.842018 12365 net.cpp:425] inception_4d/output_inception_4d/output_0_split <- inception_4d/output
I0403 15:16:20.842036 12365 net.cpp:399] inception_4d/output_inception_4d/output_0_split -> inception_4d/output_inception_4d/output_0_split_0
I0403 15:16:20.842056 12365 net.cpp:399] inception_4d/output_inception_4d/output_0_split -> inception_4d/output_inception_4d/output_0_split_1
I0403 15:16:20.842080 12365 net.cpp:399] inception_4d/output_inception_4d/output_0_split -> inception_4d/output_inception_4d/output_0_split_2
I0403 15:16:20.842102 12365 net.cpp:399] inception_4d/output_inception_4d/output_0_split -> inception_4d/output_inception_4d/output_0_split_3
I0403 15:16:20.842121 12365 net.cpp:399] inception_4d/output_inception_4d/output_0_split -> inception_4d/output_inception_4d/output_0_split_4
I0403 15:16:20.842226 12365 net.cpp:141] Setting up inception_4d/output_inception_4d/output_0_split
I0403 15:16:20.842262 12365 net.cpp:148] Top shape: 24 528 14 14 (2483712)
I0403 15:16:20.842279 12365 net.cpp:148] Top shape: 24 528 14 14 (2483712)
I0403 15:16:20.842294 12365 net.cpp:148] Top shape: 24 528 14 14 (2483712)
I0403 15:16:20.842309 12365 net.cpp:148] Top shape: 24 528 14 14 (2483712)
I0403 15:16:20.842324 12365 net.cpp:148] Top shape: 24 528 14 14 (2483712)
I0403 15:16:20.842337 12365 net.cpp:156] Memory required for data: 1206918432
I0403 15:16:20.842352 12365 layer_factory.hpp:77] Creating layer loss2/ave_pool
I0403 15:16:20.842371 12365 net.cpp:91] Creating Layer loss2/ave_pool
I0403 15:16:20.842387 12365 net.cpp:425] loss2/ave_pool <- inception_4d/output_inception_4d/output_0_split_0
I0403 15:16:20.842406 12365 net.cpp:399] loss2/ave_pool -> loss2/ave_pool
I0403 15:16:20.842708 12365 net.cpp:141] Setting up loss2/ave_pool
I0403 15:16:20.842736 12365 net.cpp:148] Top shape: 24 528 4 4 (202752)
I0403 15:16:20.842754 12365 net.cpp:156] Memory required for data: 1207729440
I0403 15:16:20.842769 12365 layer_factory.hpp:77] Creating layer loss2/conv
I0403 15:16:20.842789 12365 net.cpp:91] Creating Layer loss2/conv
I0403 15:16:20.842805 12365 net.cpp:425] loss2/conv <- loss2/ave_pool
I0403 15:16:20.842826 12365 net.cpp:399] loss2/conv -> loss2/conv
I0403 15:16:20.844681 12365 net.cpp:141] Setting up loss2/conv
I0403 15:16:20.844712 12365 net.cpp:148] Top shape: 24 128 4 4 (49152)
I0403 15:16:20.844728 12365 net.cpp:156] Memory required for data: 1207926048
I0403 15:16:20.844748 12365 layer_factory.hpp:77] Creating layer loss2/relu_conv
I0403 15:16:20.844764 12365 net.cpp:91] Creating Layer loss2/relu_conv
I0403 15:16:20.844780 12365 net.cpp:425] loss2/relu_conv <- loss2/conv
I0403 15:16:20.844799 12365 net.cpp:386] loss2/relu_conv -> loss2/conv (in-place)
I0403 15:16:20.845080 12365 net.cpp:141] Setting up loss2/relu_conv
I0403 15:16:20.845109 12365 net.cpp:148] Top shape: 24 128 4 4 (49152)
I0403 15:16:20.845129 12365 net.cpp:156] Memory required for data: 1208122656
I0403 15:16:20.845146 12365 layer_factory.hpp:77] Creating layer loss2/fc
I0403 15:16:20.845166 12365 net.cpp:91] Creating Layer loss2/fc
I0403 15:16:20.845182 12365 net.cpp:425] loss2/fc <- loss2/conv
I0403 15:16:20.845203 12365 net.cpp:399] loss2/fc -> loss2/fc
I0403 15:16:20.862591 12365 net.cpp:141] Setting up loss2/fc
I0403 15:16:20.862624 12365 net.cpp:148] Top shape: 24 1024 (24576)
I0403 15:16:20.862642 12365 net.cpp:156] Memory required for data: 1208220960
I0403 15:16:20.862659 12365 layer_factory.hpp:77] Creating layer loss2/relu_fc
I0403 15:16:20.862680 12365 net.cpp:91] Creating Layer loss2/relu_fc
I0403 15:16:20.862699 12365 net.cpp:425] loss2/relu_fc <- loss2/fc
I0403 15:16:20.862715 12365 net.cpp:386] loss2/relu_fc -> loss2/fc (in-place)
I0403 15:16:20.863008 12365 net.cpp:141] Setting up loss2/relu_fc
I0403 15:16:20.863034 12365 net.cpp:148] Top shape: 24 1024 (24576)
I0403 15:16:20.863049 12365 net.cpp:156] Memory required for data: 1208319264
I0403 15:16:20.863062 12365 layer_factory.hpp:77] Creating layer loss2/drop_fc
I0403 15:16:20.863082 12365 net.cpp:91] Creating Layer loss2/drop_fc
I0403 15:16:20.863100 12365 net.cpp:425] loss2/drop_fc <- loss2/fc
I0403 15:16:20.863117 12365 net.cpp:386] loss2/drop_fc -> loss2/fc (in-place)
I0403 15:16:20.863173 12365 net.cpp:141] Setting up loss2/drop_fc
I0403 15:16:20.863196 12365 net.cpp:148] Top shape: 24 1024 (24576)
I0403 15:16:20.863210 12365 net.cpp:156] Memory required for data: 1208417568
I0403 15:16:20.863224 12365 layer_factory.hpp:77] Creating layer loss2/classifier_plantvillage
I0403 15:16:20.863245 12365 net.cpp:91] Creating Layer loss2/classifier_plantvillage
I0403 15:16:20.863262 12365 net.cpp:425] loss2/classifier_plantvillage <- loss2/fc
I0403 15:16:20.863281 12365 net.cpp:399] loss2/classifier_plantvillage -> loss2/classifier_plantvillage
I0403 15:16:20.863670 12365 net.cpp:141] Setting up loss2/classifier_plantvillage
I0403 15:16:20.863695 12365 net.cpp:148] Top shape: 24 38 (912)
I0403 15:16:20.863726 12365 net.cpp:156] Memory required for data: 1208421216
I0403 15:16:20.863745 12365 layer_factory.hpp:77] Creating layer loss2/classifier_plantvillage_loss2/classifier_plantvillage_0_split
I0403 15:16:20.863762 12365 net.cpp:91] Creating Layer loss2/classifier_plantvillage_loss2/classifier_plantvillage_0_split
I0403 15:16:20.863780 12365 net.cpp:425] loss2/classifier_plantvillage_loss2/classifier_plantvillage_0_split <- loss2/classifier_plantvillage
I0403 15:16:20.863800 12365 net.cpp:399] loss2/classifier_plantvillage_loss2/classifier_plantvillage_0_split -> loss2/classifier_plantvillage_loss2/classifier_plantvillage_0_split_0
I0403 15:16:20.863821 12365 net.cpp:399] loss2/classifier_plantvillage_loss2/classifier_plantvillage_0_split -> loss2/classifier_plantvillage_loss2/classifier_plantvillage_0_split_1
I0403 15:16:20.863842 12365 net.cpp:399] loss2/classifier_plantvillage_loss2/classifier_plantvillage_0_split -> loss2/classifier_plantvillage_loss2/classifier_plantvillage_0_split_2
I0403 15:16:20.863916 12365 net.cpp:141] Setting up loss2/classifier_plantvillage_loss2/classifier_plantvillage_0_split
I0403 15:16:20.863945 12365 net.cpp:148] Top shape: 24 38 (912)
I0403 15:16:20.863963 12365 net.cpp:148] Top shape: 24 38 (912)
I0403 15:16:20.863979 12365 net.cpp:148] Top shape: 24 38 (912)
I0403 15:16:20.863993 12365 net.cpp:156] Memory required for data: 1208432160
I0403 15:16:20.864007 12365 layer_factory.hpp:77] Creating layer inception_4e/1x1
I0403 15:16:20.864027 12365 net.cpp:91] Creating Layer inception_4e/1x1
I0403 15:16:20.864043 12365 net.cpp:425] inception_4e/1x1 <- inception_4d/output_inception_4d/output_0_split_1
I0403 15:16:20.864060 12365 net.cpp:399] inception_4e/1x1 -> inception_4e/1x1
I0403 15:16:20.865846 12365 net.cpp:141] Setting up inception_4e/1x1
I0403 15:16:20.865875 12365 net.cpp:148] Top shape: 24 256 14 14 (1204224)
I0403 15:16:20.865890 12365 net.cpp:156] Memory required for data: 1213249056
I0403 15:16:20.865908 12365 layer_factory.hpp:77] Creating layer inception_4e/relu_1x1
I0403 15:16:20.865926 12365 net.cpp:91] Creating Layer inception_4e/relu_1x1
I0403 15:16:20.865942 12365 net.cpp:425] inception_4e/relu_1x1 <- inception_4e/1x1
I0403 15:16:20.865962 12365 net.cpp:386] inception_4e/relu_1x1 -> inception_4e/1x1 (in-place)
I0403 15:16:20.866257 12365 net.cpp:141] Setting up inception_4e/relu_1x1
I0403 15:16:20.866283 12365 net.cpp:148] Top shape: 24 256 14 14 (1204224)
I0403 15:16:20.866299 12365 net.cpp:156] Memory required for data: 1218065952
I0403 15:16:20.866314 12365 layer_factory.hpp:77] Creating layer inception_4e/3x3_reduce
I0403 15:16:20.866336 12365 net.cpp:91] Creating Layer inception_4e/3x3_reduce
I0403 15:16:20.866353 12365 net.cpp:425] inception_4e/3x3_reduce <- inception_4d/output_inception_4d/output_0_split_2
I0403 15:16:20.866374 12365 net.cpp:399] inception_4e/3x3_reduce -> inception_4e/3x3_reduce
I0403 15:16:20.868444 12365 net.cpp:141] Setting up inception_4e/3x3_reduce
I0403 15:16:20.868474 12365 net.cpp:148] Top shape: 24 160 14 14 (752640)
I0403 15:16:20.868491 12365 net.cpp:156] Memory required for data: 1221076512
I0403 15:16:20.868510 12365 layer_factory.hpp:77] Creating layer inception_4e/relu_3x3_reduce
I0403 15:16:20.868528 12365 net.cpp:91] Creating Layer inception_4e/relu_3x3_reduce
I0403 15:16:20.868544 12365 net.cpp:425] inception_4e/relu_3x3_reduce <- inception_4e/3x3_reduce
I0403 15:16:20.868564 12365 net.cpp:386] inception_4e/relu_3x3_reduce -> inception_4e/3x3_reduce (in-place)
I0403 15:16:20.868747 12365 net.cpp:141] Setting up inception_4e/relu_3x3_reduce
I0403 15:16:20.868773 12365 net.cpp:148] Top shape: 24 160 14 14 (752640)
I0403 15:16:20.868788 12365 net.cpp:156] Memory required for data: 1224087072
I0403 15:16:20.868801 12365 layer_factory.hpp:77] Creating layer inception_4e/3x3
I0403 15:16:20.868823 12365 net.cpp:91] Creating Layer inception_4e/3x3
I0403 15:16:20.868839 12365 net.cpp:425] inception_4e/3x3 <- inception_4e/3x3_reduce
I0403 15:16:20.868860 12365 net.cpp:399] inception_4e/3x3 -> inception_4e/3x3
I0403 15:16:20.873796 12365 net.cpp:141] Setting up inception_4e/3x3
I0403 15:16:20.873837 12365 net.cpp:148] Top shape: 24 320 14 14 (1505280)
I0403 15:16:20.873854 12365 net.cpp:156] Memory required for data: 1230108192
I0403 15:16:20.873872 12365 layer_factory.hpp:77] Creating layer inception_4e/relu_3x3
I0403 15:16:20.873893 12365 net.cpp:91] Creating Layer inception_4e/relu_3x3
I0403 15:16:20.873909 12365 net.cpp:425] inception_4e/relu_3x3 <- inception_4e/3x3
I0403 15:16:20.873926 12365 net.cpp:386] inception_4e/relu_3x3 -> inception_4e/3x3 (in-place)
I0403 15:16:20.874228 12365 net.cpp:141] Setting up inception_4e/relu_3x3
I0403 15:16:20.874253 12365 net.cpp:148] Top shape: 24 320 14 14 (1505280)
I0403 15:16:20.874269 12365 net.cpp:156] Memory required for data: 1236129312
I0403 15:16:20.874284 12365 layer_factory.hpp:77] Creating layer inception_4e/5x5_reduce
I0403 15:16:20.874307 12365 net.cpp:91] Creating Layer inception_4e/5x5_reduce
I0403 15:16:20.874325 12365 net.cpp:425] inception_4e/5x5_reduce <- inception_4d/output_inception_4d/output_0_split_3
I0403 15:16:20.874346 12365 net.cpp:399] inception_4e/5x5_reduce -> inception_4e/5x5_reduce
I0403 15:16:20.875391 12365 net.cpp:141] Setting up inception_4e/5x5_reduce
I0403 15:16:20.875418 12365 net.cpp:148] Top shape: 24 32 14 14 (150528)
I0403 15:16:20.875434 12365 net.cpp:156] Memory required for data: 1236731424
I0403 15:16:20.875452 12365 layer_factory.hpp:77] Creating layer inception_4e/relu_5x5_reduce
I0403 15:16:20.875469 12365 net.cpp:91] Creating Layer inception_4e/relu_5x5_reduce
I0403 15:16:20.875485 12365 net.cpp:425] inception_4e/relu_5x5_reduce <- inception_4e/5x5_reduce
I0403 15:16:20.875504 12365 net.cpp:386] inception_4e/relu_5x5_reduce -> inception_4e/5x5_reduce (in-place)
I0403 15:16:20.875793 12365 net.cpp:141] Setting up inception_4e/relu_5x5_reduce
I0403 15:16:20.875819 12365 net.cpp:148] Top shape: 24 32 14 14 (150528)
I0403 15:16:20.875834 12365 net.cpp:156] Memory required for data: 1237333536
I0403 15:16:20.875849 12365 layer_factory.hpp:77] Creating layer inception_4e/5x5
I0403 15:16:20.875887 12365 net.cpp:91] Creating Layer inception_4e/5x5
I0403 15:16:20.875905 12365 net.cpp:425] inception_4e/5x5 <- inception_4e/5x5_reduce
I0403 15:16:20.875924 12365 net.cpp:399] inception_4e/5x5 -> inception_4e/5x5
I0403 15:16:20.877732 12365 net.cpp:141] Setting up inception_4e/5x5
I0403 15:16:20.877763 12365 net.cpp:148] Top shape: 24 128 14 14 (602112)
I0403 15:16:20.877779 12365 net.cpp:156] Memory required for data: 1239741984
I0403 15:16:20.877797 12365 layer_factory.hpp:77] Creating layer inception_4e/relu_5x5
I0403 15:16:20.877816 12365 net.cpp:91] Creating Layer inception_4e/relu_5x5
I0403 15:16:20.877832 12365 net.cpp:425] inception_4e/relu_5x5 <- inception_4e/5x5
I0403 15:16:20.877848 12365 net.cpp:386] inception_4e/relu_5x5 -> inception_4e/5x5 (in-place)
I0403 15:16:20.878046 12365 net.cpp:141] Setting up inception_4e/relu_5x5
I0403 15:16:20.878072 12365 net.cpp:148] Top shape: 24 128 14 14 (602112)
I0403 15:16:20.878085 12365 net.cpp:156] Memory required for data: 1242150432
I0403 15:16:20.878100 12365 layer_factory.hpp:77] Creating layer inception_4e/pool
I0403 15:16:20.878118 12365 net.cpp:91] Creating Layer inception_4e/pool
I0403 15:16:20.878139 12365 net.cpp:425] inception_4e/pool <- inception_4d/output_inception_4d/output_0_split_4
I0403 15:16:20.878160 12365 net.cpp:399] inception_4e/pool -> inception_4e/pool
I0403 15:16:20.878231 12365 net.cpp:141] Setting up inception_4e/pool
I0403 15:16:20.878257 12365 net.cpp:148] Top shape: 24 528 14 14 (2483712)
I0403 15:16:20.878271 12365 net.cpp:156] Memory required for data: 1252085280
I0403 15:16:20.878286 12365 layer_factory.hpp:77] Creating layer inception_4e/pool_proj
I0403 15:16:20.878309 12365 net.cpp:91] Creating Layer inception_4e/pool_proj
I0403 15:16:20.878326 12365 net.cpp:425] inception_4e/pool_proj <- inception_4e/pool
I0403 15:16:20.878345 12365 net.cpp:399] inception_4e/pool_proj -> inception_4e/pool_proj
I0403 15:16:20.879807 12365 net.cpp:141] Setting up inception_4e/pool_proj
I0403 15:16:20.879848 12365 net.cpp:148] Top shape: 24 128 14 14 (602112)
I0403 15:16:20.879868 12365 net.cpp:156] Memory required for data: 1254493728
I0403 15:16:20.879887 12365 layer_factory.hpp:77] Creating layer inception_4e/relu_pool_proj
I0403 15:16:20.879904 12365 net.cpp:91] Creating Layer inception_4e/relu_pool_proj
I0403 15:16:20.879920 12365 net.cpp:425] inception_4e/relu_pool_proj <- inception_4e/pool_proj
I0403 15:16:20.879935 12365 net.cpp:386] inception_4e/relu_pool_proj -> inception_4e/pool_proj (in-place)
I0403 15:16:20.880230 12365 net.cpp:141] Setting up inception_4e/relu_pool_proj
I0403 15:16:20.880257 12365 net.cpp:148] Top shape: 24 128 14 14 (602112)
I0403 15:16:20.880276 12365 net.cpp:156] Memory required for data: 1256902176
I0403 15:16:20.880292 12365 layer_factory.hpp:77] Creating layer inception_4e/output
I0403 15:16:20.880311 12365 net.cpp:91] Creating Layer inception_4e/output
I0403 15:16:20.880326 12365 net.cpp:425] inception_4e/output <- inception_4e/1x1
I0403 15:16:20.880342 12365 net.cpp:425] inception_4e/output <- inception_4e/3x3
I0403 15:16:20.880357 12365 net.cpp:425] inception_4e/output <- inception_4e/5x5
I0403 15:16:20.880373 12365 net.cpp:425] inception_4e/output <- inception_4e/pool_proj
I0403 15:16:20.880388 12365 net.cpp:399] inception_4e/output -> inception_4e/output
I0403 15:16:20.880437 12365 net.cpp:141] Setting up inception_4e/output
I0403 15:16:20.880461 12365 net.cpp:148] Top shape: 24 832 14 14 (3913728)
I0403 15:16:20.880475 12365 net.cpp:156] Memory required for data: 1272557088
I0403 15:16:20.880491 12365 layer_factory.hpp:77] Creating layer pool4/3x3_s2
I0403 15:16:20.880509 12365 net.cpp:91] Creating Layer pool4/3x3_s2
I0403 15:16:20.880524 12365 net.cpp:425] pool4/3x3_s2 <- inception_4e/output
I0403 15:16:20.880542 12365 net.cpp:399] pool4/3x3_s2 -> pool4/3x3_s2
I0403 15:16:20.880609 12365 net.cpp:141] Setting up pool4/3x3_s2
I0403 15:16:20.880631 12365 net.cpp:148] Top shape: 24 832 7 7 (978432)
I0403 15:16:20.880646 12365 net.cpp:156] Memory required for data: 1276470816
I0403 15:16:20.880661 12365 layer_factory.hpp:77] Creating layer pool4/3x3_s2_pool4/3x3_s2_0_split
I0403 15:16:20.880678 12365 net.cpp:91] Creating Layer pool4/3x3_s2_pool4/3x3_s2_0_split
I0403 15:16:20.880693 12365 net.cpp:425] pool4/3x3_s2_pool4/3x3_s2_0_split <- pool4/3x3_s2
I0403 15:16:20.880712 12365 net.cpp:399] pool4/3x3_s2_pool4/3x3_s2_0_split -> pool4/3x3_s2_pool4/3x3_s2_0_split_0
I0403 15:16:20.880733 12365 net.cpp:399] pool4/3x3_s2_pool4/3x3_s2_0_split -> pool4/3x3_s2_pool4/3x3_s2_0_split_1
I0403 15:16:20.880753 12365 net.cpp:399] pool4/3x3_s2_pool4/3x3_s2_0_split -> pool4/3x3_s2_pool4/3x3_s2_0_split_2
I0403 15:16:20.880772 12365 net.cpp:399] pool4/3x3_s2_pool4/3x3_s2_0_split -> pool4/3x3_s2_pool4/3x3_s2_0_split_3
I0403 15:16:20.880861 12365 net.cpp:141] Setting up pool4/3x3_s2_pool4/3x3_s2_0_split
I0403 15:16:20.880883 12365 net.cpp:148] Top shape: 24 832 7 7 (978432)
I0403 15:16:20.880899 12365 net.cpp:148] Top shape: 24 832 7 7 (978432)
I0403 15:16:20.880914 12365 net.cpp:148] Top shape: 24 832 7 7 (978432)
I0403 15:16:20.880930 12365 net.cpp:148] Top shape: 24 832 7 7 (978432)
I0403 15:16:20.880944 12365 net.cpp:156] Memory required for data: 1292125728
I0403 15:16:20.880959 12365 layer_factory.hpp:77] Creating layer inception_5a/1x1
I0403 15:16:20.880980 12365 net.cpp:91] Creating Layer inception_5a/1x1
I0403 15:16:20.880998 12365 net.cpp:425] inception_5a/1x1 <- pool4/3x3_s2_pool4/3x3_s2_0_split_0
I0403 15:16:20.881017 12365 net.cpp:399] inception_5a/1x1 -> inception_5a/1x1
I0403 15:16:20.883941 12365 net.cpp:141] Setting up inception_5a/1x1
I0403 15:16:20.883972 12365 net.cpp:148] Top shape: 24 256 7 7 (301056)
I0403 15:16:20.883991 12365 net.cpp:156] Memory required for data: 1293329952
I0403 15:16:20.884009 12365 layer_factory.hpp:77] Creating layer inception_5a/relu_1x1
I0403 15:16:20.884027 12365 net.cpp:91] Creating Layer inception_5a/relu_1x1
I0403 15:16:20.884042 12365 net.cpp:425] inception_5a/relu_1x1 <- inception_5a/1x1
I0403 15:16:20.884063 12365 net.cpp:386] inception_5a/relu_1x1 -> inception_5a/1x1 (in-place)
I0403 15:16:20.884383 12365 net.cpp:141] Setting up inception_5a/relu_1x1
I0403 15:16:20.884414 12365 net.cpp:148] Top shape: 24 256 7 7 (301056)
I0403 15:16:20.884431 12365 net.cpp:156] Memory required for data: 1294534176
I0403 15:16:20.884449 12365 layer_factory.hpp:77] Creating layer inception_5a/3x3_reduce
I0403 15:16:20.884470 12365 net.cpp:91] Creating Layer inception_5a/3x3_reduce
I0403 15:16:20.884490 12365 net.cpp:425] inception_5a/3x3_reduce <- pool4/3x3_s2_pool4/3x3_s2_0_split_1
I0403 15:16:20.884507 12365 net.cpp:399] inception_5a/3x3_reduce -> inception_5a/3x3_reduce
I0403 15:16:20.887053 12365 net.cpp:141] Setting up inception_5a/3x3_reduce
I0403 15:16:20.887084 12365 net.cpp:148] Top shape: 24 160 7 7 (188160)
I0403 15:16:20.887100 12365 net.cpp:156] Memory required for data: 1295286816
I0403 15:16:20.887120 12365 layer_factory.hpp:77] Creating layer inception_5a/relu_3x3_reduce
I0403 15:16:20.887147 12365 net.cpp:91] Creating Layer inception_5a/relu_3x3_reduce
I0403 15:16:20.887167 12365 net.cpp:425] inception_5a/relu_3x3_reduce <- inception_5a/3x3_reduce
I0403 15:16:20.887187 12365 net.cpp:386] inception_5a/relu_3x3_reduce -> inception_5a/3x3_reduce (in-place)
I0403 15:16:20.887387 12365 net.cpp:141] Setting up inception_5a/relu_3x3_reduce
I0403 15:16:20.887415 12365 net.cpp:148] Top shape: 24 160 7 7 (188160)
I0403 15:16:20.887431 12365 net.cpp:156] Memory required for data: 1296039456
I0403 15:16:20.887447 12365 layer_factory.hpp:77] Creating layer inception_5a/3x3
I0403 15:16:20.887471 12365 net.cpp:91] Creating Layer inception_5a/3x3
I0403 15:16:20.887490 12365 net.cpp:425] inception_5a/3x3 <- inception_5a/3x3_reduce
I0403 15:16:20.887511 12365 net.cpp:399] inception_5a/3x3 -> inception_5a/3x3
I0403 15:16:20.892655 12365 net.cpp:141] Setting up inception_5a/3x3
I0403 15:16:20.892688 12365 net.cpp:148] Top shape: 24 320 7 7 (376320)
I0403 15:16:20.892705 12365 net.cpp:156] Memory required for data: 1297544736
I0403 15:16:20.892725 12365 layer_factory.hpp:77] Creating layer inception_5a/relu_3x3
I0403 15:16:20.892743 12365 net.cpp:91] Creating Layer inception_5a/relu_3x3
I0403 15:16:20.892758 12365 net.cpp:425] inception_5a/relu_3x3 <- inception_5a/3x3
I0403 15:16:20.892776 12365 net.cpp:386] inception_5a/relu_3x3 -> inception_5a/3x3 (in-place)
I0403 15:16:20.893076 12365 net.cpp:141] Setting up inception_5a/relu_3x3
I0403 15:16:20.893105 12365 net.cpp:148] Top shape: 24 320 7 7 (376320)
I0403 15:16:20.893121 12365 net.cpp:156] Memory required for data: 1299050016
I0403 15:16:20.893151 12365 layer_factory.hpp:77] Creating layer inception_5a/5x5_reduce
I0403 15:16:20.893175 12365 net.cpp:91] Creating Layer inception_5a/5x5_reduce
I0403 15:16:20.893194 12365 net.cpp:425] inception_5a/5x5_reduce <- pool4/3x3_s2_pool4/3x3_s2_0_split_2
I0403 15:16:20.893213 12365 net.cpp:399] inception_5a/5x5_reduce -> inception_5a/5x5_reduce
I0403 15:16:20.894407 12365 net.cpp:141] Setting up inception_5a/5x5_reduce
I0403 15:16:20.894439 12365 net.cpp:148] Top shape: 24 32 7 7 (37632)
I0403 15:16:20.894456 12365 net.cpp:156] Memory required for data: 1299200544
I0403 15:16:20.894476 12365 layer_factory.hpp:77] Creating layer inception_5a/relu_5x5_reduce
I0403 15:16:20.894495 12365 net.cpp:91] Creating Layer inception_5a/relu_5x5_reduce
I0403 15:16:20.894511 12365 net.cpp:425] inception_5a/relu_5x5_reduce <- inception_5a/5x5_reduce
I0403 15:16:20.894531 12365 net.cpp:386] inception_5a/relu_5x5_reduce -> inception_5a/5x5_reduce (in-place)
I0403 15:16:20.894834 12365 net.cpp:141] Setting up inception_5a/relu_5x5_reduce
I0403 15:16:20.894860 12365 net.cpp:148] Top shape: 24 32 7 7 (37632)
I0403 15:16:20.894876 12365 net.cpp:156] Memory required for data: 1299351072
I0403 15:16:20.894891 12365 layer_factory.hpp:77] Creating layer inception_5a/5x5
I0403 15:16:20.894913 12365 net.cpp:91] Creating Layer inception_5a/5x5
I0403 15:16:20.894932 12365 net.cpp:425] inception_5a/5x5 <- inception_5a/5x5_reduce
I0403 15:16:20.894953 12365 net.cpp:399] inception_5a/5x5 -> inception_5a/5x5
I0403 15:16:20.896690 12365 net.cpp:141] Setting up inception_5a/5x5
I0403 15:16:20.896733 12365 net.cpp:148] Top shape: 24 128 7 7 (150528)
I0403 15:16:20.896750 12365 net.cpp:156] Memory required for data: 1299953184
I0403 15:16:20.896769 12365 layer_factory.hpp:77] Creating layer inception_5a/relu_5x5
I0403 15:16:20.896787 12365 net.cpp:91] Creating Layer inception_5a/relu_5x5
I0403 15:16:20.896805 12365 net.cpp:425] inception_5a/relu_5x5 <- inception_5a/5x5
I0403 15:16:20.896821 12365 net.cpp:386] inception_5a/relu_5x5 -> inception_5a/5x5 (in-place)
I0403 15:16:20.897023 12365 net.cpp:141] Setting up inception_5a/relu_5x5
I0403 15:16:20.897049 12365 net.cpp:148] Top shape: 24 128 7 7 (150528)
I0403 15:16:20.897064 12365 net.cpp:156] Memory required for data: 1300555296
I0403 15:16:20.897080 12365 layer_factory.hpp:77] Creating layer inception_5a/pool
I0403 15:16:20.897099 12365 net.cpp:91] Creating Layer inception_5a/pool
I0403 15:16:20.897114 12365 net.cpp:425] inception_5a/pool <- pool4/3x3_s2_pool4/3x3_s2_0_split_3
I0403 15:16:20.897140 12365 net.cpp:399] inception_5a/pool -> inception_5a/pool
I0403 15:16:20.897213 12365 net.cpp:141] Setting up inception_5a/pool
I0403 15:16:20.897250 12365 net.cpp:148] Top shape: 24 832 7 7 (978432)
I0403 15:16:20.897266 12365 net.cpp:156] Memory required for data: 1304469024
I0403 15:16:20.897282 12365 layer_factory.hpp:77] Creating layer inception_5a/pool_proj
I0403 15:16:20.897303 12365 net.cpp:91] Creating Layer inception_5a/pool_proj
I0403 15:16:20.897321 12365 net.cpp:425] inception_5a/pool_proj <- inception_5a/pool
I0403 15:16:20.897341 12365 net.cpp:399] inception_5a/pool_proj -> inception_5a/pool_proj
I0403 15:16:20.899706 12365 net.cpp:141] Setting up inception_5a/pool_proj
I0403 15:16:20.899739 12365 net.cpp:148] Top shape: 24 128 7 7 (150528)
I0403 15:16:20.899755 12365 net.cpp:156] Memory required for data: 1305071136
I0403 15:16:20.899775 12365 layer_factory.hpp:77] Creating layer inception_5a/relu_pool_proj
I0403 15:16:20.899794 12365 net.cpp:91] Creating Layer inception_5a/relu_pool_proj
I0403 15:16:20.899811 12365 net.cpp:425] inception_5a/relu_pool_proj <- inception_5a/pool_proj
I0403 15:16:20.899828 12365 net.cpp:386] inception_5a/relu_pool_proj -> inception_5a/pool_proj (in-place)
I0403 15:16:20.900118 12365 net.cpp:141] Setting up inception_5a/relu_pool_proj
I0403 15:16:20.900148 12365 net.cpp:148] Top shape: 24 128 7 7 (150528)
I0403 15:16:20.900167 12365 net.cpp:156] Memory required for data: 1305673248
I0403 15:16:20.900182 12365 layer_factory.hpp:77] Creating layer inception_5a/output
I0403 15:16:20.900202 12365 net.cpp:91] Creating Layer inception_5a/output
I0403 15:16:20.900218 12365 net.cpp:425] inception_5a/output <- inception_5a/1x1
I0403 15:16:20.900234 12365 net.cpp:425] inception_5a/output <- inception_5a/3x3
I0403 15:16:20.900249 12365 net.cpp:425] inception_5a/output <- inception_5a/5x5
I0403 15:16:20.900265 12365 net.cpp:425] inception_5a/output <- inception_5a/pool_proj
I0403 15:16:20.900281 12365 net.cpp:399] inception_5a/output -> inception_5a/output
I0403 15:16:20.900332 12365 net.cpp:141] Setting up inception_5a/output
I0403 15:16:20.900357 12365 net.cpp:148] Top shape: 24 832 7 7 (978432)
I0403 15:16:20.900370 12365 net.cpp:156] Memory required for data: 1309586976
I0403 15:16:20.900384 12365 layer_factory.hpp:77] Creating layer inception_5a/output_inception_5a/output_0_split
I0403 15:16:20.900401 12365 net.cpp:91] Creating Layer inception_5a/output_inception_5a/output_0_split
I0403 15:16:20.900416 12365 net.cpp:425] inception_5a/output_inception_5a/output_0_split <- inception_5a/output
I0403 15:16:20.900436 12365 net.cpp:399] inception_5a/output_inception_5a/output_0_split -> inception_5a/output_inception_5a/output_0_split_0
I0403 15:16:20.900457 12365 net.cpp:399] inception_5a/output_inception_5a/output_0_split -> inception_5a/output_inception_5a/output_0_split_1
I0403 15:16:20.900477 12365 net.cpp:399] inception_5a/output_inception_5a/output_0_split -> inception_5a/output_inception_5a/output_0_split_2
I0403 15:16:20.900497 12365 net.cpp:399] inception_5a/output_inception_5a/output_0_split -> inception_5a/output_inception_5a/output_0_split_3
I0403 15:16:20.900626 12365 net.cpp:141] Setting up inception_5a/output_inception_5a/output_0_split
I0403 15:16:20.900653 12365 net.cpp:148] Top shape: 24 832 7 7 (978432)
I0403 15:16:20.900671 12365 net.cpp:148] Top shape: 24 832 7 7 (978432)
I0403 15:16:20.900687 12365 net.cpp:148] Top shape: 24 832 7 7 (978432)
I0403 15:16:20.900703 12365 net.cpp:148] Top shape: 24 832 7 7 (978432)
I0403 15:16:20.900717 12365 net.cpp:156] Memory required for data: 1325241888
I0403 15:16:20.900732 12365 layer_factory.hpp:77] Creating layer inception_5b/1x1
I0403 15:16:20.900753 12365 net.cpp:91] Creating Layer inception_5b/1x1
I0403 15:16:20.900770 12365 net.cpp:425] inception_5b/1x1 <- inception_5a/output_inception_5a/output_0_split_0
I0403 15:16:20.900792 12365 net.cpp:399] inception_5b/1x1 -> inception_5b/1x1
I0403 15:16:20.904505 12365 net.cpp:141] Setting up inception_5b/1x1
I0403 15:16:20.904536 12365 net.cpp:148] Top shape: 24 384 7 7 (451584)
I0403 15:16:20.904552 12365 net.cpp:156] Memory required for data: 1327048224
I0403 15:16:20.904572 12365 layer_factory.hpp:77] Creating layer inception_5b/relu_1x1
I0403 15:16:20.904592 12365 net.cpp:91] Creating Layer inception_5b/relu_1x1
I0403 15:16:20.904608 12365 net.cpp:425] inception_5b/relu_1x1 <- inception_5b/1x1
I0403 15:16:20.904625 12365 net.cpp:386] inception_5b/relu_1x1 -> inception_5b/1x1 (in-place)
I0403 15:16:20.904927 12365 net.cpp:141] Setting up inception_5b/relu_1x1
I0403 15:16:20.904953 12365 net.cpp:148] Top shape: 24 384 7 7 (451584)
I0403 15:16:20.904968 12365 net.cpp:156] Memory required for data: 1328854560
I0403 15:16:20.904981 12365 layer_factory.hpp:77] Creating layer inception_5b/3x3_reduce
I0403 15:16:20.905004 12365 net.cpp:91] Creating Layer inception_5b/3x3_reduce
I0403 15:16:20.905022 12365 net.cpp:425] inception_5b/3x3_reduce <- inception_5a/output_inception_5a/output_0_split_1
I0403 15:16:20.905043 12365 net.cpp:399] inception_5b/3x3_reduce -> inception_5b/3x3_reduce
I0403 15:16:20.907665 12365 net.cpp:141] Setting up inception_5b/3x3_reduce
I0403 15:16:20.907696 12365 net.cpp:148] Top shape: 24 192 7 7 (225792)
I0403 15:16:20.907711 12365 net.cpp:156] Memory required for data: 1329757728
I0403 15:16:20.907729 12365 layer_factory.hpp:77] Creating layer inception_5b/relu_3x3_reduce
I0403 15:16:20.907752 12365 net.cpp:91] Creating Layer inception_5b/relu_3x3_reduce
I0403 15:16:20.907769 12365 net.cpp:425] inception_5b/relu_3x3_reduce <- inception_5b/3x3_reduce
I0403 15:16:20.907786 12365 net.cpp:386] inception_5b/relu_3x3_reduce -> inception_5b/3x3_reduce (in-place)
I0403 15:16:20.907974 12365 net.cpp:141] Setting up inception_5b/relu_3x3_reduce
I0403 15:16:20.908000 12365 net.cpp:148] Top shape: 24 192 7 7 (225792)
I0403 15:16:20.908017 12365 net.cpp:156] Memory required for data: 1330660896
I0403 15:16:20.908031 12365 layer_factory.hpp:77] Creating layer inception_5b/3x3
I0403 15:16:20.908053 12365 net.cpp:91] Creating Layer inception_5b/3x3
I0403 15:16:20.908071 12365 net.cpp:425] inception_5b/3x3 <- inception_5b/3x3_reduce
I0403 15:16:20.908093 12365 net.cpp:399] inception_5b/3x3 -> inception_5b/3x3
I0403 15:16:20.914649 12365 net.cpp:141] Setting up inception_5b/3x3
I0403 15:16:20.914679 12365 net.cpp:148] Top shape: 24 384 7 7 (451584)
I0403 15:16:20.914695 12365 net.cpp:156] Memory required for data: 1332467232
I0403 15:16:20.914712 12365 layer_factory.hpp:77] Creating layer inception_5b/relu_3x3
I0403 15:16:20.914732 12365 net.cpp:91] Creating Layer inception_5b/relu_3x3
I0403 15:16:20.914749 12365 net.cpp:425] inception_5b/relu_3x3 <- inception_5b/3x3
I0403 15:16:20.914767 12365 net.cpp:386] inception_5b/relu_3x3 -> inception_5b/3x3 (in-place)
I0403 15:16:20.915067 12365 net.cpp:141] Setting up inception_5b/relu_3x3
I0403 15:16:20.915094 12365 net.cpp:148] Top shape: 24 384 7 7 (451584)
I0403 15:16:20.915108 12365 net.cpp:156] Memory required for data: 1334273568
I0403 15:16:20.915123 12365 layer_factory.hpp:77] Creating layer inception_5b/5x5_reduce
I0403 15:16:20.915168 12365 net.cpp:91] Creating Layer inception_5b/5x5_reduce
I0403 15:16:20.915186 12365 net.cpp:425] inception_5b/5x5_reduce <- inception_5a/output_inception_5a/output_0_split_2
I0403 15:16:20.915205 12365 net.cpp:399] inception_5b/5x5_reduce -> inception_5b/5x5_reduce
I0403 15:16:20.916474 12365 net.cpp:141] Setting up inception_5b/5x5_reduce
I0403 15:16:20.916503 12365 net.cpp:148] Top shape: 24 48 7 7 (56448)
I0403 15:16:20.916522 12365 net.cpp:156] Memory required for data: 1334499360
I0403 15:16:20.916540 12365 layer_factory.hpp:77] Creating layer inception_5b/relu_5x5_reduce
I0403 15:16:20.916558 12365 net.cpp:91] Creating Layer inception_5b/relu_5x5_reduce
I0403 15:16:20.916574 12365 net.cpp:425] inception_5b/relu_5x5_reduce <- inception_5b/5x5_reduce
I0403 15:16:20.916589 12365 net.cpp:386] inception_5b/relu_5x5_reduce -> inception_5b/5x5_reduce (in-place)
I0403 15:16:20.916963 12365 net.cpp:141] Setting up inception_5b/relu_5x5_reduce
I0403 15:16:20.916990 12365 net.cpp:148] Top shape: 24 48 7 7 (56448)
I0403 15:16:20.917004 12365 net.cpp:156] Memory required for data: 1334725152
I0403 15:16:20.917021 12365 layer_factory.hpp:77] Creating layer inception_5b/5x5
I0403 15:16:20.917040 12365 net.cpp:91] Creating Layer inception_5b/5x5
I0403 15:16:20.917057 12365 net.cpp:425] inception_5b/5x5 <- inception_5b/5x5_reduce
I0403 15:16:20.917074 12365 net.cpp:399] inception_5b/5x5 -> inception_5b/5x5
I0403 15:16:20.919090 12365 net.cpp:141] Setting up inception_5b/5x5
I0403 15:16:20.919119 12365 net.cpp:148] Top shape: 24 128 7 7 (150528)
I0403 15:16:20.919142 12365 net.cpp:156] Memory required for data: 1335327264
I0403 15:16:20.919160 12365 layer_factory.hpp:77] Creating layer inception_5b/relu_5x5
I0403 15:16:20.919179 12365 net.cpp:91] Creating Layer inception_5b/relu_5x5
I0403 15:16:20.919195 12365 net.cpp:425] inception_5b/relu_5x5 <- inception_5b/5x5
I0403 15:16:20.919214 12365 net.cpp:386] inception_5b/relu_5x5 -> inception_5b/5x5 (in-place)
I0403 15:16:20.919410 12365 net.cpp:141] Setting up inception_5b/relu_5x5
I0403 15:16:20.919436 12365 net.cpp:148] Top shape: 24 128 7 7 (150528)
I0403 15:16:20.919450 12365 net.cpp:156] Memory required for data: 1335929376
I0403 15:16:20.919464 12365 layer_factory.hpp:77] Creating layer inception_5b/pool
I0403 15:16:20.919482 12365 net.cpp:91] Creating Layer inception_5b/pool
I0403 15:16:20.919498 12365 net.cpp:425] inception_5b/pool <- inception_5a/output_inception_5a/output_0_split_3
I0403 15:16:20.919518 12365 net.cpp:399] inception_5b/pool -> inception_5b/pool
I0403 15:16:20.919591 12365 net.cpp:141] Setting up inception_5b/pool
I0403 15:16:20.919615 12365 net.cpp:148] Top shape: 24 832 7 7 (978432)
I0403 15:16:20.919630 12365 net.cpp:156] Memory required for data: 1339843104
I0403 15:16:20.919643 12365 layer_factory.hpp:77] Creating layer inception_5b/pool_proj
I0403 15:16:20.919667 12365 net.cpp:91] Creating Layer inception_5b/pool_proj
I0403 15:16:20.919685 12365 net.cpp:425] inception_5b/pool_proj <- inception_5b/pool
I0403 15:16:20.919704 12365 net.cpp:399] inception_5b/pool_proj -> inception_5b/pool_proj
I0403 15:16:20.921967 12365 net.cpp:141] Setting up inception_5b/pool_proj
I0403 15:16:20.921998 12365 net.cpp:148] Top shape: 24 128 7 7 (150528)
I0403 15:16:20.922016 12365 net.cpp:156] Memory required for data: 1340445216
I0403 15:16:20.922035 12365 layer_factory.hpp:77] Creating layer inception_5b/relu_pool_proj
I0403 15:16:20.922052 12365 net.cpp:91] Creating Layer inception_5b/relu_pool_proj
I0403 15:16:20.922067 12365 net.cpp:425] inception_5b/relu_pool_proj <- inception_5b/pool_proj
I0403 15:16:20.922085 12365 net.cpp:386] inception_5b/relu_pool_proj -> inception_5b/pool_proj (in-place)
I0403 15:16:20.922384 12365 net.cpp:141] Setting up inception_5b/relu_pool_proj
I0403 15:16:20.922412 12365 net.cpp:148] Top shape: 24 128 7 7 (150528)
I0403 15:16:20.922430 12365 net.cpp:156] Memory required for data: 1341047328
I0403 15:16:20.922444 12365 layer_factory.hpp:77] Creating layer inception_5b/output
I0403 15:16:20.922461 12365 net.cpp:91] Creating Layer inception_5b/output
I0403 15:16:20.922492 12365 net.cpp:425] inception_5b/output <- inception_5b/1x1
I0403 15:16:20.922509 12365 net.cpp:425] inception_5b/output <- inception_5b/3x3
I0403 15:16:20.922524 12365 net.cpp:425] inception_5b/output <- inception_5b/5x5
I0403 15:16:20.922540 12365 net.cpp:425] inception_5b/output <- inception_5b/pool_proj
I0403 15:16:20.922556 12365 net.cpp:399] inception_5b/output -> inception_5b/output
I0403 15:16:20.922608 12365 net.cpp:141] Setting up inception_5b/output
I0403 15:16:20.922632 12365 net.cpp:148] Top shape: 24 1024 7 7 (1204224)
I0403 15:16:20.922646 12365 net.cpp:156] Memory required for data: 1345864224
I0403 15:16:20.922662 12365 layer_factory.hpp:77] Creating layer pool5/7x7_s1
I0403 15:16:20.922680 12365 net.cpp:91] Creating Layer pool5/7x7_s1
I0403 15:16:20.922698 12365 net.cpp:425] pool5/7x7_s1 <- inception_5b/output
I0403 15:16:20.922716 12365 net.cpp:399] pool5/7x7_s1 -> pool5/7x7_s1
I0403 15:16:20.922931 12365 net.cpp:141] Setting up pool5/7x7_s1
I0403 15:16:20.922960 12365 net.cpp:148] Top shape: 24 1024 1 1 (24576)
I0403 15:16:20.922976 12365 net.cpp:156] Memory required for data: 1345962528
I0403 15:16:20.922991 12365 layer_factory.hpp:77] Creating layer pool5/drop_7x7_s1
I0403 15:16:20.923007 12365 net.cpp:91] Creating Layer pool5/drop_7x7_s1
I0403 15:16:20.923022 12365 net.cpp:425] pool5/drop_7x7_s1 <- pool5/7x7_s1
I0403 15:16:20.923038 12365 net.cpp:386] pool5/drop_7x7_s1 -> pool5/7x7_s1 (in-place)
I0403 15:16:20.923089 12365 net.cpp:141] Setting up pool5/drop_7x7_s1
I0403 15:16:20.923112 12365 net.cpp:148] Top shape: 24 1024 1 1 (24576)
I0403 15:16:20.923136 12365 net.cpp:156] Memory required for data: 1346060832
I0403 15:16:20.923156 12365 layer_factory.hpp:77] Creating layer loss3/classifier_plantvillage
I0403 15:16:20.923177 12365 net.cpp:91] Creating Layer loss3/classifier_plantvillage
I0403 15:16:20.923193 12365 net.cpp:425] loss3/classifier_plantvillage <- pool5/7x7_s1
I0403 15:16:20.923212 12365 net.cpp:399] loss3/classifier_plantvillage -> loss3/classifier_plantvillage
I0403 15:16:20.923626 12365 net.cpp:141] Setting up loss3/classifier_plantvillage
I0403 15:16:20.923651 12365 net.cpp:148] Top shape: 24 38 (912)
I0403 15:16:20.923666 12365 net.cpp:156] Memory required for data: 1346064480
I0403 15:16:20.923684 12365 layer_factory.hpp:77] Creating layer loss3/classifier_plantvillage_loss3/classifier_plantvillage_0_split
I0403 15:16:20.923702 12365 net.cpp:91] Creating Layer loss3/classifier_plantvillage_loss3/classifier_plantvillage_0_split
I0403 15:16:20.923717 12365 net.cpp:425] loss3/classifier_plantvillage_loss3/classifier_plantvillage_0_split <- loss3/classifier_plantvillage
I0403 15:16:20.923737 12365 net.cpp:399] loss3/classifier_plantvillage_loss3/classifier_plantvillage_0_split -> loss3/classifier_plantvillage_loss3/classifier_plantvillage_0_split_0
I0403 15:16:20.923758 12365 net.cpp:399] loss3/classifier_plantvillage_loss3/classifier_plantvillage_0_split -> loss3/classifier_plantvillage_loss3/classifier_plantvillage_0_split_1
I0403 15:16:20.923779 12365 net.cpp:399] loss3/classifier_plantvillage_loss3/classifier_plantvillage_0_split -> loss3/classifier_plantvillage_loss3/classifier_plantvillage_0_split_2
I0403 15:16:20.923799 12365 net.cpp:399] loss3/classifier_plantvillage_loss3/classifier_plantvillage_0_split -> loss3/classifier_plantvillage_loss3/classifier_plantvillage_0_split_3
I0403 15:16:20.923900 12365 net.cpp:141] Setting up loss3/classifier_plantvillage_loss3/classifier_plantvillage_0_split
I0403 15:16:20.923924 12365 net.cpp:148] Top shape: 24 38 (912)
I0403 15:16:20.923940 12365 net.cpp:148] Top shape: 24 38 (912)
I0403 15:16:20.923954 12365 net.cpp:148] Top shape: 24 38 (912)
I0403 15:16:20.923969 12365 net.cpp:148] Top shape: 24 38 (912)
I0403 15:16:20.923984 12365 net.cpp:156] Memory required for data: 1346079072
I0403 15:16:20.923997 12365 layer_factory.hpp:77] Creating layer loss1/loss
I0403 15:16:20.924017 12365 net.cpp:91] Creating Layer loss1/loss
I0403 15:16:20.924036 12365 net.cpp:425] loss1/loss <- loss1/classifier_plantvillage_loss1/classifier_plantvillage_0_split_0
I0403 15:16:20.924065 12365 net.cpp:425] loss1/loss <- label_data_1_split_0
…
