…
I0403 14:52:23.266960 11230 net.cpp:313] The NetState phase (1) differed from the phase (0) specified by a rule in layer data
I0403 14:52:23.268124 11230 net.cpp:49] Initializing net from parameters: 
state {
  phase: TEST
}
layer {
  name: "data"
  type: "Data"
  top: "data"
  top: "label"
  include {
    phase: TEST
  }
  transform_param {
    mirror: false
    crop_size: 224
    mean_file: "/home/mohanty/data/final_dataset/lmdb/grayscale-60-40/mean.binaryproto"
  }
  data_param {
    source: "/home/mohanty/data/final_dataset/lmdb/grayscale-60-40/test_db"
    batch_size: 24
    backend: LMDB
  }
}
layer {
  name: "conv1/7x7_s2"
  type: "Convolution"
  bottom: "data"
  top: "conv1/7x7_s2"
  param {
    lr_mult: 1
    decay_mult: 1
  }
  param {
    lr_mult: 2
    decay_mult: 0
  }
  convolution_param {
    num_output: 64
    pad: 3
    kernel_size: 7
    stride: 2
    weight_filler {
      type: "xavier"
      std: 0.1
    }
    bias_filler {
      type: "constant"
      value: 0.2
    }
  }
}
layer {
  name: "conv1/relu_7x7"
  type: "ReLU"
  bottom: "conv1/7x7_s2"
  top: "conv1/7x7_s2"
}
layer {
  name: "pool1/3x3_s2"
  type: "Pooling"
  bottom: "conv1/7x7_s2"
  top: "pool1/3x3_s2"
  pooling_param {
    pool: MAX
    kernel_size: 3
    stride: 2
  }
}
layer {
  name: "pool1/norm1"
  type: "LRN"
  bottom: "pool1/3x3_s2"
  top: "pool1/norm1"
  lrn_param {
    local_size: 5
    alpha: 0.0001
    beta: 0.75
  }
}
layer {
  name: "conv2/3x3_reduce"
  type: "Convolution"
  bottom: "pool1/norm1"
  top: "conv2/3x3_reduce"
  param {
    lr_mult: 1
    decay_mult: 1
  }
  param {
    lr_mult: 2
    decay_mult: 0
  }
  convolution_param {
    num_output: 64
    kernel_size: 1
    weight_filler {
      type: "xavier"
      std: 0.1
    }
    bias_filler {
      type: "constant"
      value: 0.2
    }
  }
}
layer {
  name: "conv2/relu_3x3_reduce"
  type: "ReLU"
  bottom: "conv2/3x3_reduce"
  top: "conv2/3x3_reduce"
}
layer {
  name: "conv2/3x3"
  type: "Convolution"
  bottom: "conv2/3x3_reduce"
  top: "conv2/3x3"
  param {
    lr_mult: 1
    decay_mult: 1
  }
  param {
    lr_mult: 2
    decay_mult: 0
  }
  convolution_param {
    num_output: 192
    pad: 1
    kernel_size: 3
    weight_filler {
      type: "xavier"
      std: 0.03
    }
    bias_filler {
      type: "constant"
      value: 0.2
    }
  }
}
layer {
  name: "conv2/relu_3x3"
  type: "ReLU"
  bottom: "conv2/3x3"
  top: "conv2/3x3"
}
layer {
  name: "conv2/norm2"
  type: "LRN"
  bottom: "conv2/3x3"
  top: "conv2/norm2"
  lrn_param {
    local_size: 5
    alpha: 0.0001
    beta: 0.75
  }
}
layer {
  name: "pool2/3x3_s2"
  type: "Pooling"
  bottom: "conv2/norm2"
  top: "pool2/3x3_s2"
  pooling_param {
    pool: MAX
    kernel_size: 3
    stride: 2
  }
}
layer {
  name: "inception_3a/1x1"
  type: "Convolution"
  bottom: "pool2/3x3_s2"
  top: "inception_3a/1x1"
  param {
    lr_mult: 1
    decay_mult: 1
  }
  param {
    lr_mult: 2
    decay_mult: 0
  }
  convolution_param {
    num_output: 64
    kernel_size: 1
    weight_filler {
      type: "xavier"
      std: 0.03
    }
    bias_filler {
      type: "constant"
      value: 0.2
    }
  }
}
layer {
  name: "inception_3a/relu_1x1"
  type: "ReLU"
  bottom: "inception_3a/1x1"
  top: "inception_3a/1x1"
}
layer {
  name: "inception_3a/3x3_reduce"
  type: "Convolution"
  bottom: "pool2/3x3_s2"
  top: "inception_3a/3x3_reduce"
  param {
    lr_mult: 1
    decay_mult: 1
  }
  param {
    lr_mult: 2
    decay_mult: 0
  }
  convolution_param {
    num_output: 96
    kernel_size: 1
    weight_filler {
      type: "xavier"
      std: 0.09
    }
    bias_filler {
      type: "constant"
      value: 0.2
    }
  }
}
layer {
  name: "inception_3a/relu_3x3_reduce"
  type: "ReLU"
  bottom: "inception_3a/3x3_reduce"
  top: "inception_3a/3x3_reduce"
}
layer {
  name: "inception_3a/3x3"
  type: "Convolution"
  bottom: "inception_3a/3x3_reduce"
  top: "inception_3a/3x3"
  param {
    lr_mult: 1
    decay_mult: 1
  }
  param {
    lr_mult: 2
    decay_mult: 0
  }
  convolution_param {
    num_output: 128
    pad: 1
    kernel_size: 3
    weight_filler {
      type: "xavier"
      std: 0.03
    }
    bias_filler {
      type: "constant"
      value: 0.2
    }
  }
}
layer {
  name: "inception_3a/relu_3x3"
  type: "ReLU"
  bottom: "inception_3a/3x3"
  top: "inception_3a/3x3"
}
layer {
  name: "inception_3a/5x5_reduce"
  type: "Convolution"
  bottom: "pool2/3x3_s2"
  top: "inception_3a/5x5_reduce"
  param {
    lr_mult: 1
    decay_mult: 1
  }
  param {
    lr_mult: 2
    decay_mult: 0
  }
  convolution_param {
    num_output: 16
    kernel_size: 1
    weight_filler {
      type: "xavier"
      std: 0.2
    }
    bias_filler {
      type: "constant"
      value: 0.2
    }
  }
}
layer {
  name: "inception_3a/relu_5x5_reduce"
  type: "ReLU"
  bottom: "inception_3a/5x5_reduce"
  top: "inception_3a/5x5_reduce"
}
layer {
  name: "inception_3a/5x5"
  type: "Convolution"
  bottom: "inception_3a/5x5_reduce"
  top: "inception_3a/5x5"
  param {
    lr_mult: 1
    decay_mult: 1
  }
  param {
    lr_mult: 2
    decay_mult: 0
  }
  convolution_param {
    num_output: 32
    pad: 2
    kernel_size: 5
    weight_filler {
      type: "xavier"
      std: 0.03
    }
    bias_filler {
      type: "constant"
      value: 0.2
    }
  }
}
layer {
  name: "inception_3a/relu_5x5"
  type: "ReLU"
  bottom: "inception_3a/5x5"
  top: "inception_3a/5x5"
}
layer {
  name: "inception_3a/pool"
  type: "Pooling"
  bottom: "pool2/3x3_s2"
  top: "inception_3a/pool"
  pooling_param {
    pool: MAX
    kernel_size: 3
    stride: 1
    pad: 1
  }
}
layer {
  name: "inception_3a/pool_proj"
  type: "Convolution"
  bottom: "inception_3a/pool"
  top: "inception_3a/pool_proj"
  param {
    lr_mult: 1
    decay_mult: 1
  }
  param {
    lr_mult: 2
    decay_mult: 0
  }
  convolution_param {
    num_output: 32
    kernel_size: 1
    weight_filler {
      type: "xavier"
      std: 0.1
    }
    bias_filler {
      type: "constant"
      value: 0.2
    }
  }
}
layer {
  name: "inception_3a/relu_pool_proj"
  type: "ReLU"
  bottom: "inception_3a/pool_proj"
  top: "inception_3a/pool_proj"
}
layer {
  name: "inception_3a/output"
  type: "Concat"
  bottom: "inception_3a/1x1"
  bottom: "inception_3a/3x3"
  bottom: "inception_3a/5x5"
  bottom: "inception_3a/pool_proj"
  top: "inception_3a/output"
}
layer {
  name: "inception_3b/1x1"
  type: "Convolution"
  bottom: "inception_3a/output"
  top: "inception_3b/1x1"
  param {
    lr_mult: 1
    decay_mult: 1
  }
  param {
    lr_mult: 2
    decay_mult: 0
  }
  convolution_param {
    num_output: 128
    kernel_size: 1
    weight_filler {
      type: "xavier"
      std: 0.03
    }
    bias_filler {
      type: "constant"
      value: 0.2
    }
  }
}
layer {
  name: "inception_3b/relu_1x1"
  type: "ReLU"
  bottom: "inception_3b/1x1"
  top: "inception_3b/1x1"
}
layer {
  name: "inception_3b/3x3_reduce"
  type: "Convolution"
  bottom: "inception_3a/output"
  top: "inception_3b/3x3_reduce"
  param {
    lr_mult: 1
    decay_mult: 1
  }
  param {
    lr_mult: 2
    decay_mult: 0
  }
  convolution_param {
    num_output: 128
    kernel_size: 1
    weight_filler {
      type: "xavier"
      std: 0.09
    }
    bias_filler {
      type: "constant"
      value: 0.2
    }
  }
}
layer {
  name: "inception_3b/relu_3x3_reduce"
  type: "ReLU"
  bottom: "inception_3b/3x3_reduce"
  top: "inception_3b/3x3_reduce"
}
layer {
  name: "inception_3b/3x3"
  type: "Convolution"
  bottom: "inception_3b/3x3_reduce"
  top: "inception_3b/3x3"
  param {
    lr_mult: 1
    decay_mult: 1
  }
  param {
    lr_mult: 2
    decay_mult: 0
  }
  convolution_param {
    num_output: 192
    pad: 1
    kernel_size: 3
    weight_filler {
      type: "xavier"
      std: 0.03
    }
    bias_filler {
      type: "constant"
      value: 0.2
    }
  }
}
layer {
  name: "inception_3b/relu_3x3"
  type: "ReLU"
  bottom: "inception_3b/3x3"
  top: "inception_3b/3x3"
}
layer {
  name: "inception_3b/5x5_reduce"
  type: "Convolution"
  bottom: "inception_3a/output"
  top: "inception_3b/5x5_reduce"
  param {
    lr_mult: 1
    decay_mult: 1
  }
  param {
    lr_mult: 2
    decay_mult: 0
  }
  convolution_param {
    num_output: 32
    kernel_size: 1
    weight_filler {
      type: "xavier"
      std: 0.2
    }
    bias_filler {
      type: "constant"
      value: 0.2
    }
  }
}
layer {
  name: "inception_3b/relu_5x5_reduce"
  type: "ReLU"
  bottom: "inception_3b/5x5_reduce"
  top: "inception_3b/5x5_reduce"
}
layer {
  name: "inception_3b/5x5"
  type: "Convolution"
  bottom: "inception_3b/5x5_reduce"
  top: "inception_3b/5x5"
  param {
    lr_mult: 1
    decay_mult: 1
  }
  param {
    lr_mult: 2
    decay_mult: 0
  }
  convolution_param {
    num_output: 96
    pad: 2
    kernel_size: 5
    weight_filler {
      type: "xavier"
      std: 0.03
    }
    bias_filler {
      type: "constant"
      value: 0.2
    }
  }
}
layer {
  name: "inception_3b/relu_5x5"
  type: "ReLU"
  bottom: "inception_3b/5x5"
  top: "inception_3b/5x5"
}
layer {
  name: "inception_3b/pool"
  type: "Pooling"
  bottom: "inception_3a/output"
  top: "inception_3b/pool"
  pooling_param {
    pool: MAX
    kernel_size: 3
    stride: 1
    pad: 1
  }
}
layer {
  name: "inception_3b/pool_proj"
  type: "Convolution"
  bottom: "inception_3b/pool"
  top: "inception_3b/pool_proj"
  param {
    lr_mult: 1
    decay_mult: 1
  }
  param {
    lr_mult: 2
    decay_mult: 0
  }
  convolution_param {
    num_output: 64
    kernel_size: 1
    weight_filler {
      type: "xavier"
      std: 0.1
    }
    bias_filler {
      type: "constant"
      value: 0.2
    }
  }
}
layer {
  name: "inception_3b/relu_pool_proj"
  type: "ReLU"
  bottom: "inception_3b/pool_proj"
  top: "inception_3b/pool_proj"
}
layer {
  name: "inception_3b/output"
  type: "Concat"
  bottom: "inception_3b/1x1"
  bottom: "inception_3b/3x3"
  bottom: "inception_3b/5x5"
  bottom: "inception_3b/pool_proj"
  top: "inception_3b/output"
}
layer {
  name: "pool3/3x3_s2"
  type: "Pooling"
  bottom: "inception_3b/output"
  top: "pool3/3x3_s2"
  pooling_param {
    pool: MAX
    kernel_size: 3
    stride: 2
  }
}
layer {
  name: "inception_4a/1x1"
  type: "Convolution"
  bottom: "pool3/3x3_s2"
  top: "inception_4a/1x1"
  param {
    lr_mult: 1
    decay_mult: 1
  }
  param {
    lr_mult: 2
    decay_mult: 0
  }
  convolution_param {
    num_output: 192
    kernel_size: 1
    weight_filler {
      type: "xavier"
      std: 0.03
    }
    bias_filler {
      type: "constant"
      value: 0.2
    }
  }
}
layer {
  name: "inception_4a/relu_1x1"
  type: "ReLU"
  bottom: "inception_4a/1x1"
  top: "inception_4a/1x1"
}
layer {
  name: "inception_4a/3x3_reduce"
  type: "Convolution"
  bottom: "pool3/3x3_s2"
  top: "inception_4a/3x3_reduce"
  param {
    lr_mult: 1
    decay_mult: 1
  }
  param {
    lr_mult: 2
    decay_mult: 0
  }
  convolution_param {
    num_output: 96
    kernel_size: 1
    weight_filler {
      type: "xavier"
      std: 0.09
    }
    bias_filler {
      type: "constant"
      value: 0.2
    }
  }
}
layer {
  name: "inception_4a/relu_3x3_reduce"
  type: "ReLU"
  bottom: "inception_4a/3x3_reduce"
  top: "inception_4a/3x3_reduce"
}
layer {
  name: "inception_4a/3x3"
  type: "Convolution"
  bottom: "inception_4a/3x3_reduce"
  top: "inception_4a/3x3"
  param {
    lr_mult: 1
    decay_mult: 1
  }
  param {
    lr_mult: 2
    decay_mult: 0
  }
  convolution_param {
    num_output: 208
    pad: 1
    kernel_size: 3
    weight_filler {
      type: "xavier"
      std: 0.03
    }
    bias_filler {
      type: "constant"
      value: 0.2
    }
  }
}
layer {
  name: "inception_4a/relu_3x3"
  type: "ReLU"
  bottom: "inception_4a/3x3"
  top: "inception_4a/3x3"
}
layer {
  name: "inception_4a/5x5_reduce"
  type: "Convolution"
  bottom: "pool3/3x3_s2"
  top: "inception_4a/5x5_reduce"
  param {
    lr_mult: 1
    decay_mult: 1
  }
  param {
    lr_mult: 2
    decay_mult: 0
  }
  convolution_param {
    num_output: 16
    kernel_size: 1
    weight_filler {
      type: "xavier"
      std: 0.2
    }
    bias_filler {
      type: "constant"
      value: 0.2
    }
  }
}
layer {
  name: "inception_4a/relu_5x5_reduce"
  type: "ReLU"
  bottom: "inception_4a/5x5_reduce"
  top: "inception_4a/5x5_reduce"
}
layer {
  name: "inception_4a/5x5"
  type: "Convolution"
  bottom: "inception_4a/5x5_reduce"
  top: "inception_4a/5x5"
  param {
    lr_mult: 1
    decay_mult: 1
  }
  param {
    lr_mult: 2
    decay_mult: 0
  }
  convolution_param {
    num_output: 48
    pad: 2
    kernel_size: 5
    weight_filler {
      type: "xavier"
      std: 0.03
    }
    bias_filler {
      type: "constant"
      value: 0.2
    }
  }
}
layer {
  name: "inception_4a/relu_5x5"
  type: "ReLU"
  bottom: "inception_4a/5x5"
  top: "inception_4a/5x5"
}
layer {
  name: "inception_4a/pool"
  type: "Pooling"
  bottom: "pool3/3x3_s2"
  top: "inception_4a/pool"
  pooling_param {
    pool: MAX
    kernel_size: 3
    stride: 1
    pad: 1
  }
}
layer {
  name: "inception_4a/pool_proj"
  type: "Convolution"
  bottom: "inception_4a/pool"
  top: "inception_4a/pool_proj"
  param {
    lr_mult: 1
    decay_mult: 1
  }
  param {
    lr_mult: 2
    decay_mult: 0
  }
  convolution_param {
    num_output: 64
    kernel_size: 1
    weight_filler {
      type: "xavier"
      std: 0.1
    }
    bias_filler {
      type: "constant"
      value: 0.2
    }
  }
}
layer {
  name: "inception_4a/relu_pool_proj"
  type: "ReLU"
  bottom: "inception_4a/pool_proj"
  top: "inception_4a/pool_proj"
}
layer {
  name: "inception_4a/output"
  type: "Concat"
  bottom: "inception_4a/1x1"
  bottom: "inception_4a/3x3"
  bottom: "inception_4a/5x5"
  bottom: "inception_4a/pool_proj"
  top: "inception_4a/output"
}
layer {
  name: "loss1/ave_pool"
  type: "Pooling"
  bottom: "inception_4a/output"
  top: "loss1/ave_pool"
  pooling_param {
    pool: AVE
    kernel_size: 5
    stride: 3
  }
}
layer {
  name: "loss1/conv"
  type: "Convolution"
  bottom: "loss1/ave_pool"
  top: "loss1/conv"
  param {
    lr_mult: 1
    decay_mult: 1
  }
  param {
    lr_mult: 2
    decay_mult: 0
  }
  convolution_param {
    num_output: 128
    kernel_size: 1
    weight_filler {
      type: "xavier"
      std: 0.08
    }
    bias_filler {
      type: "constant"
      value: 0.2
    }
  }
}
layer {
  name: "loss1/relu_conv"
  type: "ReLU"
  bottom: "loss1/conv"
  top: "loss1/conv"
}
layer {
  name: "loss1/fc"
  type: "InnerProduct"
  bottom: "loss1/conv"
  top: "loss1/fc"
  param {
    lr_mult: 1
    decay_mult: 1
  }
  param {
    lr_mult: 2
    decay_mult: 0
  }
  inner_product_param {
    num_output: 1024
    weight_filler {
      type: "xavier"
      std: 0.02
    }
    bias_filler {
      type: "constant"
      value: 0.2
    }
  }
}
layer {
  name: "loss1/relu_fc"
  type: "ReLU"
  bottom: "loss1/fc"
  top: "loss1/fc"
}
layer {
  name: "loss1/drop_fc"
  type: "Dropout"
  bottom: "loss1/fc"
  top: "loss1/fc"
  dropout_param {
    dropout_ratio: 0.7
  }
}
layer {
  name: "loss1/classifier_plantvillage"
  type: "InnerProduct"
  bottom: "loss1/fc"
  top: "loss1/classifier_plantvillage"
  param {
    lr_mult: 1
    decay_mult: 1
  }
  param {
    lr_mult: 2
    decay_mult: 0
  }
  inner_product_param {
    num_output: 38
    weight_filler {
      type: "xavier"
      std: 0.0009765625
    }
    bias_filler {
      type: "constant"
      value: 0
    }
  }
}
layer {
  name: "inception_4b/1x1"
  type: "Convolution"
  bottom: "inception_4a/output"
  top: "inception_4b/1x1"
  param {
    lr_mult: 1
    decay_mult: 1
  }
  param {
    lr_mult: 2
    decay_mult: 0
  }
  convolution_param {
    num_output: 160
    kernel_size: 1
    weight_filler {
      type: "xavier"
      std: 0.03
    }
    bias_filler {
      type: "constant"
      value: 0.2
    }
  }
}
layer {
  name: "inception_4b/relu_1x1"
  type: "ReLU"
  bottom: "inception_4b/1x1"
  top: "inception_4b/1x1"
}
layer {
  name: "inception_4b/3x3_reduce"
  type: "Convolution"
  bottom: "inception_4a/output"
  top: "inception_4b/3x3_reduce"
  param {
    lr_mult: 1
    decay_mult: 1
  }
  param {
    lr_mult: 2
    decay_mult: 0
  }
  convolution_param {
    num_output: 112
    kernel_size: 1
    weight_filler {
      type: "xavier"
      std: 0.09
    }
    bias_filler {
      type: "constant"
      value: 0.2
    }
  }
}
layer {
  name: "inception_4b/relu_3x3_reduce"
  type: "ReLU"
  bottom: "inception_4b/3x3_reduce"
  top: "inception_4b/3x3_reduce"
}
layer {
  name: "inception_4b/3x3"
  type: "Convolution"
  bottom: "inception_4b/3x3_reduce"
  top: "inception_4b/3x3"
  param {
    lr_mult: 1
    decay_mult: 1
  }
  param {
    lr_mult: 2
    decay_mult: 0
  }
  convolution_param {
    num_output: 224
    pad: 1
    kernel_size: 3
    weight_filler {
      type: "xavier"
      std: 0.03
    }
    bias_filler {
      type: "constant"
      value: 0.2
    }
  }
}
layer {
  name: "inception_4b/relu_3x3"
  type: "ReLU"
  bottom: "inception_4b/3x3"
  top: "inception_4b/3x3"
}
layer {
  name: "inception_4b/5x5_reduce"
  type: "Convolution"
  bottom: "inception_4a/output"
  top: "inception_4b/5x5_reduce"
  param {
    lr_mult: 1
    decay_mult: 1
  }
  param {
    lr_mult: 2
    decay_mult: 0
  }
  convolution_param {
    num_output: 24
    kernel_size: 1
    weight_filler {
      type: "xavier"
      std: 0.2
    }
    bias_filler {
      type: "constant"
      value: 0.2
    }
  }
}
layer {
  name: "inception_4b/relu_5x5_reduce"
  type: "ReLU"
  bottom: "inception_4b/5x5_reduce"
  top: "inception_4b/5x5_reduce"
}
layer {
  name: "inception_4b/5x5"
  type: "Convolution"
  bottom: "inception_4b/5x5_reduce"
  top: "inception_4b/5x5"
  param {
    lr_mult: 1
    decay_mult: 1
  }
  param {
    lr_mult: 2
    decay_mult: 0
  }
  convolution_param {
    num_output: 64
    pad: 2
    kernel_size: 5
    weight_filler {
      type: "xavier"
      std: 0.03
    }
    bias_filler {
      type: "constant"
      value: 0.2
    }
  }
}
layer {
  name: "inception_4b/relu_5x5"
  type: "ReLU"
  bottom: "inception_4b/5x5"
  top: "inception_4b/5x5"
}
layer {
  name: "inception_4b/pool"
  type: "Pooling"
  bottom: "inception_4a/output"
  top: "inception_4b/pool"
  pooling_param {
    pool: MAX
    kernel_size: 3
    stride: 1
    pad: 1
  }
}
layer {
  name: "inception_4b/pool_proj"
  type: "Convolution"
  bottom: "inception_4b/pool"
  top: "inception_4b/pool_proj"
  param {
    lr_mult: 1
    decay_mult: 1
  }
  param {
    lr_mult: 2
    decay_mult: 0
  }
  convolution_param {
    num_output: 64
    kernel_size: 1
    weight_filler {
      type: "xavier"
      std: 0.1
    }
    bias_filler {
      type: "constant"
      value: 0.2
    }
  }
}
layer {
  name: "inception_4b/relu_pool_proj"
  type: "ReLU"
  bottom: "inception_4b/pool_proj"
  top: "inception_4b/pool_proj"
}
layer {
  name: "inception_4b/output"
  type: "Concat"
  bottom: "inception_4b/1x1"
  bottom: "inception_4b/3x3"
  bottom: "inception_4b/5x5"
  bottom: "inception_4b/pool_proj"
  top: "inception_4b/output"
}
layer {
  name: "inception_4c/1x1"
  type: "Convolution"
  bottom: "inception_4b/output"
  top: "inception_4c/1x1"
  param {
    lr_mult: 1
    decay_mult: 1
  }
  param {
    lr_mult: 2
    decay_mult: 0
  }
  convolution_param {
    num_output: 128
    kernel_size: 1
    weight_filler {
      type: "xavier"
      std: 0.03
    }
    bias_filler {
      type: "constant"
      value: 0.2
    }
  }
}
layer {
  name: "inception_4c/relu_1x1"
  type: "ReLU"
  bottom: "inception_4c/1x1"
  top: "inception_4c/1x1"
}
layer {
  name: "inception_4c/3x3_reduce"
  type: "Convolution"
  bottom: "inception_4b/output"
  top: "inception_4c/3x3_reduce"
  param {
    lr_mult: 1
    decay_mult: 1
  }
  param {
    lr_mult: 2
    decay_mult: 0
  }
  convolution_param {
    num_output: 128
    kernel_size: 1
    weight_filler {
      type: "xavier"
      std: 0.09
    }
    bias_filler {
      type: "constant"
      value: 0.2
    }
  }
}
layer {
  name: "inception_4c/relu_3x3_reduce"
  type: "ReLU"
  bottom: "inception_4c/3x3_reduce"
  top: "inception_4c/3x3_reduce"
}
layer {
  name: "inception_4c/3x3"
  type: "Convolution"
  bottom: "inception_4c/3x3_reduce"
  top: "inception_4c/3x3"
  param {
    lr_mult: 1
    decay_mult: 1
  }
  param {
    lr_mult: 2
    decay_mult: 0
  }
  convolution_param {
    num_output: 256
    pad: 1
    kernel_size: 3
    weight_filler {
      type: "xavier"
      std: 0.03
    }
    bias_filler {
      type: "constant"
      value: 0.2
    }
  }
}
layer {
  name: "inception_4c/relu_3x3"
  type: "ReLU"
  bottom: "inception_4c/3x3"
  top: "inception_4c/3x3"
}
layer {
  name: "inception_4c/5x5_reduce"
  type: "Convolution"
  bottom: "inception_4b/output"
  top: "inception_4c/5x5_reduce"
  param {
    lr_mult: 1
    decay_mult: 1
  }
  param {
    lr_mult: 2
    decay_mult: 0
  }
  convolution_param {
    num_output: 24
    kernel_size: 1
    weight_filler {
      type: "xavier"
      std: 0.2
    }
    bias_filler {
      type: "constant"
      value: 0.2
    }
  }
}
layer {
  name: "inception_4c/relu_5x5_reduce"
  type: "ReLU"
  bottom: "inception_4c/5x5_reduce"
  top: "inception_4c/5x5_reduce"
}
layer {
  name: "inception_4c/5x5"
  type: "Convolution"
  bottom: "inception_4c/5x5_reduce"
  top: "inception_4c/5x5"
  param {
    lr_mult: 1
    decay_mult: 1
  }
  param {
    lr_mult: 2
    decay_mult: 0
  }
  convolution_param {
    num_output: 64
    pad: 2
    kernel_size: 5
    weight_filler {
      type: "xavier"
      std: 0.03
    }
    bias_filler {
      type: "constant"
      value: 0.2
    }
  }
}
layer {
  name: "inception_4c/relu_5x5"
  type: "ReLU"
  bottom: "inception_4c/5x5"
  top: "inception_4c/5x5"
}
layer {
  name: "inception_4c/pool"
  type: "Pooling"
  bottom: "inception_4b/output"
  top: "inception_4c/pool"
  pooling_param {
    pool: MAX
    kernel_size: 3
    stride: 1
    pad: 1
  }
}
layer {
  name: "inception_4c/pool_proj"
  type: "Convolution"
  bottom: "inception_4c/pool"
  top: "inception_4c/pool_proj"
  param {
    lr_mult: 1
    decay_mult: 1
  }
  param {
    lr_mult: 2
    decay_mult: 0
  }
  convolution_param {
    num_output: 64
    kernel_size: 1
    weight_filler {
      type: "xavier"
      std: 0.1
    }
    bias_filler {
      type: "constant"
      value: 0.2
    }
  }
}
layer {
  name: "inception_4c/relu_pool_proj"
  type: "ReLU"
  bottom: "inception_4c/pool_proj"
  top: "inception_4c/pool_proj"
}
layer {
  name: "inception_4c/output"
  type: "Concat"
  bottom: "inception_4c/1x1"
  bottom: "inception_4c/3x3"
  bottom: "inception_4c/5x5"
  bottom: "inception_4c/pool_proj"
  top: "inception_4c/output"
}
layer {
  name: "inception_4d/1x1"
  type: "Convolution"
  bottom: "inception_4c/output"
  top: "inception_4d/1x1"
  param {
    lr_mult: 1
    decay_mult: 1
  }
  param {
    lr_mult: 2
    decay_mult: 0
  }
  convolution_param {
    num_output: 112
    kernel_size: 1
    weight_filler {
      type: "xavier"
      std: 0.03
    }
    bias_filler {
      type: "constant"
      value: 0.2
    }
  }
}
layer {
  name: "inception_4d/relu_1x1"
  type: "ReLU"
  bottom: "inception_4d/1x1"
  top: "inception_4d/1x1"
}
layer {
  name: "inception_4d/3x3_reduce"
  type: "Convolution"
  bottom: "inception_4c/output"
  top: "inception_4d/3x3_reduce"
  param {
    lr_mult: 1
    decay_mult: 1
  }
  param {
    lr_mult: 2
    decay_mult: 0
  }
  convolution_param {
    num_output: 144
    kernel_size: 1
    weight_filler {
      type: "xavier"
      std: 0.09
    }
    bias_filler {
      type: "constant"
      value: 0.2
    }
  }
}
layer {
  name: "inception_4d/relu_3x3_reduce"
  type: "ReLU"
  bottom: "inception_4d/3x3_reduce"
  top: "inception_4d/3x3_reduce"
}
layer {
  name: "inception_4d/3x3"
  type: "Convolution"
  bottom: "inception_4d/3x3_reduce"
  top: "inception_4d/3x3"
  param {
    lr_mult: 1
    decay_mult: 1
  }
  param {
    lr_mult: 2
    decay_mult: 0
  }
  convolution_param {
    num_output: 288
    pad: 1
    kernel_size: 3
    weight_filler {
      type: "xavier"
      std: 0.03
    }
    bias_filler {
      type: "constant"
      value: 0.2
    }
  }
}
layer {
  name: "inception_4d/relu_3x3"
  type: "ReLU"
  bottom: "inception_4d/3x3"
  top: "inception_4d/3x3"
}
layer {
  name: "inception_4d/5x5_reduce"
  type: "Convolution"
  bottom: "inception_4c/output"
  top: "inception_4d/5x5_reduce"
  param {
    lr_mult: 1
    decay_mult: 1
  }
  param {
    lr_mult: 2
    decay_mult: 0
  }
  convolution_param {
    num_output: 32
    kernel_size: 1
    weight_filler {
      type: "xavier"
      std: 0.2
    }
    bias_filler {
      type: "constant"
      value: 0.2
    }
  }
}
layer {
  name: "inception_4d/relu_5x5_reduce"
  type: "ReLU"
  bottom: "inception_4d/5x5_reduce"
  top: "inception_4d/5x5_reduce"
}
layer {
  name: "inception_4d/5x5"
  type: "Convolution"
  bottom: "inception_4d/5x5_reduce"
  top: "inception_4d/5x5"
  param {
    lr_mult: 1
    decay_mult: 1
  }
  param {
    lr_mult: 2
    decay_mult: 0
  }
  convolution_param {
    num_output: 64
    pad: 2
    kernel_size: 5
    weight_filler {
      type: "xavier"
      std: 0.03
    }
    bias_filler {
      type: "constant"
      value: 0.2
    }
  }
}
layer {
  name: "inception_4d/relu_5x5"
  type: "ReLU"
  bottom: "inception_4d/5x5"
  top: "inception_4d/5x5"
}
layer {
  name: "inception_4d/pool"
  type: "Pooling"
  bottom: "inception_4c/output"
  top: "inception_4d/pool"
  pooling_param {
    pool: MAX
    kernel_size: 3
    stride: 1
    pad: 1
  }
}
layer {
  name: "inception_4d/pool_proj"
  type: "Convolution"
  bottom: "inception_4d/pool"
  top: "inception_4d/pool_proj"
  param {
    lr_mult: 1
    decay_mult: 1
  }
  param {
    lr_mult: 2
    decay_mult: 0
  }
  convolution_param {
    num_output: 64
    kernel_size: 1
    weight_filler {
      type: "xavier"
      std: 0.1
    }
    bias_filler {
      type: "constant"
      value: 0.2
    }
  }
}
layer {
  name: "inception_4d/relu_pool_proj"
  type: "ReLU"
  bottom: "inception_4d/pool_proj"
  top: "inception_4d/pool_proj"
}
layer {
  name: "inception_4d/output"
  type: "Concat"
  bottom: "inception_4d/1x1"
  bottom: "inception_4d/3x3"
  bottom: "inception_4d/5x5"
  bottom: "inception_4d/pool_proj"
  top: "inception_4d/output"
}
layer {
  name: "loss2/ave_pool"
  type: "Pooling"
  bottom: "inception_4d/output"
  top: "loss2/ave_pool"
  pooling_param {
    pool: AVE
    kernel_size: 5
    stride: 3
  }
}
layer {
  name: "loss2/conv"
  type: "Convolution"
  bottom: "loss2/ave_pool"
  top: "loss2/conv"
  param {
    lr_mult: 1
    decay_mult: 1
  }
  param {
    lr_mult: 2
    decay_mult: 0
  }
  convolution_param {
    num_output: 128
    kernel_size: 1
    weight_filler {
      type: "xavier"
      std: 0.08
    }
    bias_filler {
      type: "constant"
      value: 0.2
    }
  }
}
layer {
  name: "loss2/relu_conv"
  type: "ReLU"
  bottom: "loss2/conv"
  top: "loss2/conv"
}
layer {
  name: "loss2/fc"
  type: "InnerProduct"
  bottom: "loss2/conv"
  top: "loss2/fc"
  param {
    lr_mult: 1
    decay_mult: 1
  }
  param {
    lr_mult: 2
    decay_mult: 0
  }
  inner_product_param {
    num_output: 1024
    weight_filler {
      type: "xavier"
      std: 0.02
    }
    bias_filler {
      type: "constant"
      value: 0.2
    }
  }
}
layer {
  name: "loss2/relu_fc"
  type: "ReLU"
  bottom: "loss2/fc"
  top: "loss2/fc"
}
layer {
  name: "loss2/drop_fc"
  type: "Dropout"
  bottom: "loss2/fc"
  top: "loss2/fc"
  dropout_param {
    dropout_ratio: 0.7
  }
}
layer {
  name: "loss2/classifier_plantvillage"
  type: "InnerProduct"
  bottom: "loss2/fc"
  top: "loss2/classifier_plantvillage"
  param {
    lr_mult: 1
    decay_mult: 1
  }
  param {
    lr_mult: 2
    decay_mult: 0
  }
  inner_product_param {
    num_output: 38
    weight_filler {
      type: "xavier"
      std: 0.0009765625
    }
    bias_filler {
      type: "constant"
      value: 0
    }
  }
}
layer {
  name: "inception_4e/1x1"
  type: "Convolution"
  bottom: "inception_4d/output"
  top: "inception_4e/1x1"
  param {
    lr_mult: 1
    decay_mult: 1
  }
  param {
    lr_mult: 2
    decay_mult: 0
  }
  convolution_param {
    num_output: 256
    kernel_size: 1
    weight_filler {
      type: "xavier"
      std: 0.03
    }
    bias_filler {
      type: "constant"
      value: 0.2
    }
  }
}
layer {
  name: "inception_4e/relu_1x1"
  type: "ReLU"
  bottom: "inception_4e/1x1"
  top: "inception_4e/1x1"
}
layer {
  name: "inception_4e/3x3_reduce"
  type: "Convolution"
  bottom: "inception_4d/output"
  top: "inception_4e/3x3_reduce"
  param {
    lr_mult: 1
    decay_mult: 1
  }
  param {
    lr_mult: 2
    decay_mult: 0
  }
  convolution_param {
    num_output: 160
    kernel_size: 1
    weight_filler {
      type: "xavier"
      std: 0.09
    }
    bias_filler {
      type: "constant"
      value: 0.2
    }
  }
}
layer {
  name: "inception_4e/relu_3x3_reduce"
  type: "ReLU"
  bottom: "inception_4e/3x3_reduce"
  top: "inception_4e/3x3_reduce"
}
layer {
  name: "inception_4e/3x3"
  type: "Convolution"
  bottom: "inception_4e/3x3_reduce"
  top: "inception_4e/3x3"
  param {
    lr_mult: 1
    decay_mult: 1
  }
  param {
    lr_mult: 2
    decay_mult: 0
  }
  convolution_param {
    num_output: 320
    pad: 1
    kernel_size: 3
    weight_filler {
      type: "xavier"
      std: 0.03
    }
    bias_filler {
      type: "constant"
      value: 0.2
    }
  }
}
layer {
  name: "inception_4e/relu_3x3"
  type: "ReLU"
  bottom: "inception_4e/3x3"
  top: "inception_4e/3x3"
}
layer {
  name: "inception_4e/5x5_reduce"
  type: "Convolution"
  bottom: "inception_4d/output"
  top: "inception_4e/5x5_reduce"
  param {
    lr_mult: 1
    decay_mult: 1
  }
  param {
    lr_mult: 2
    decay_mult: 0
  }
  convolution_param {
    num_output: 32
    kernel_size: 1
    weight_filler {
      type: "xavier"
      std: 0.2
    }
    bias_filler {
      type: "constant"
      value: 0.2
    }
  }
}
layer {
  name: "inception_4e/relu_5x5_reduce"
  type: "ReLU"
  bottom: "inception_4e/5x5_reduce"
  top: "inception_4e/5x5_reduce"
}
layer {
  name: "inception_4e/5x5"
  type: "Convolution"
  bottom: "inception_4e/5x5_reduce"
  top: "inception_4e/
I0403 14:52:23.269379 11230 layer_factory.hpp:77] Creating layer data
I0403 14:52:23.269973 11230 net.cpp:91] Creating Layer data
I0403 14:52:23.270007 11230 net.cpp:399] data -> data
I0403 14:52:23.270057 11230 net.cpp:399] data -> label
I0403 14:52:23.270098 11230 data_transformer.cpp:25] Loading mean file from: /home/mohanty/data/final_dataset/lmdb/grayscale-60-40/mean.binaryproto
I0403 14:52:23.272958 11236 db_lmdb.cpp:38] Opened lmdb /home/mohanty/data/final_dataset/lmdb/grayscale-60-40/test_db
I0403 14:52:23.283371 11230 data_layer.cpp:41] output data size: 24,3,224,224
I0403 14:52:23.310117 11230 net.cpp:141] Setting up data
I0403 14:52:23.310216 11230 net.cpp:148] Top shape: 24 3 224 224 (3612672)
I0403 14:52:23.310240 11230 net.cpp:148] Top shape: 24 (24)
I0403 14:52:23.310256 11230 net.cpp:156] Memory required for data: 14450784
I0403 14:52:23.310284 11230 layer_factory.hpp:77] Creating layer label_data_1_split
I0403 14:52:23.310312 11230 net.cpp:91] Creating Layer label_data_1_split
I0403 14:52:23.310331 11230 net.cpp:425] label_data_1_split <- label
I0403 14:52:23.310364 11230 net.cpp:399] label_data_1_split -> label_data_1_split_0
I0403 14:52:23.310392 11230 net.cpp:399] label_data_1_split -> label_data_1_split_1
I0403 14:52:23.310415 11230 net.cpp:399] label_data_1_split -> label_data_1_split_2
I0403 14:52:23.310436 11230 net.cpp:399] label_data_1_split -> label_data_1_split_3
I0403 14:52:23.310456 11230 net.cpp:399] label_data_1_split -> label_data_1_split_4
I0403 14:52:23.310477 11230 net.cpp:399] label_data_1_split -> label_data_1_split_5
I0403 14:52:23.310497 11230 net.cpp:399] label_data_1_split -> label_data_1_split_6
I0403 14:52:23.310516 11230 net.cpp:399] label_data_1_split -> label_data_1_split_7
I0403 14:52:23.310536 11230 net.cpp:399] label_data_1_split -> label_data_1_split_8
I0403 14:52:23.310557 11230 net.cpp:399] label_data_1_split -> label_data_1_split_9
I0403 14:52:23.310675 11230 net.cpp:141] Setting up label_data_1_split
I0403 14:52:23.310700 11230 net.cpp:148] Top shape: 24 (24)
I0403 14:52:23.310717 11230 net.cpp:148] Top shape: 24 (24)
I0403 14:52:23.310734 11230 net.cpp:148] Top shape: 24 (24)
I0403 14:52:23.310750 11230 net.cpp:148] Top shape: 24 (24)
I0403 14:52:23.310765 11230 net.cpp:148] Top shape: 24 (24)
I0403 14:52:23.310782 11230 net.cpp:148] Top shape: 24 (24)
I0403 14:52:23.310798 11230 net.cpp:148] Top shape: 24 (24)
I0403 14:52:23.310814 11230 net.cpp:148] Top shape: 24 (24)
I0403 14:52:23.310830 11230 net.cpp:148] Top shape: 24 (24)
I0403 14:52:23.310847 11230 net.cpp:148] Top shape: 24 (24)
I0403 14:52:23.310891 11230 net.cpp:156] Memory required for data: 14451744
I0403 14:52:23.310909 11230 layer_factory.hpp:77] Creating layer conv1/7x7_s2
I0403 14:52:23.310940 11230 net.cpp:91] Creating Layer conv1/7x7_s2
I0403 14:52:23.310959 11230 net.cpp:425] conv1/7x7_s2 <- data
I0403 14:52:23.310979 11230 net.cpp:399] conv1/7x7_s2 -> conv1/7x7_s2
I0403 14:52:23.452931 11230 net.cpp:141] Setting up conv1/7x7_s2
I0403 14:52:23.453079 11230 net.cpp:148] Top shape: 24 64 112 112 (19267584)
I0403 14:52:23.453125 11230 net.cpp:156] Memory required for data: 91522080
I0403 14:52:23.453160 11230 layer_factory.hpp:77] Creating layer conv1/relu_7x7
I0403 14:52:23.453187 11230 net.cpp:91] Creating Layer conv1/relu_7x7
I0403 14:52:23.453207 11230 net.cpp:425] conv1/relu_7x7 <- conv1/7x7_s2
I0403 14:52:23.453227 11230 net.cpp:386] conv1/relu_7x7 -> conv1/7x7_s2 (in-place)
I0403 14:52:23.453495 11230 net.cpp:141] Setting up conv1/relu_7x7
I0403 14:52:23.453523 11230 net.cpp:148] Top shape: 24 64 112 112 (19267584)
I0403 14:52:23.453541 11230 net.cpp:156] Memory required for data: 168592416
I0403 14:52:23.453557 11230 layer_factory.hpp:77] Creating layer pool1/3x3_s2
I0403 14:52:23.453583 11230 net.cpp:91] Creating Layer pool1/3x3_s2
I0403 14:52:23.453603 11230 net.cpp:425] pool1/3x3_s2 <- conv1/7x7_s2
I0403 14:52:23.453622 11230 net.cpp:399] pool1/3x3_s2 -> pool1/3x3_s2
I0403 14:52:23.453704 11230 net.cpp:141] Setting up pool1/3x3_s2
I0403 14:52:23.453730 11230 net.cpp:148] Top shape: 24 64 56 56 (4816896)
I0403 14:52:23.453747 11230 net.cpp:156] Memory required for data: 187860000
I0403 14:52:23.453763 11230 layer_factory.hpp:77] Creating layer pool1/norm1
I0403 14:52:23.453789 11230 net.cpp:91] Creating Layer pool1/norm1
I0403 14:52:23.453809 11230 net.cpp:425] pool1/norm1 <- pool1/3x3_s2
I0403 14:52:23.453826 11230 net.cpp:399] pool1/norm1 -> pool1/norm1
I0403 14:52:23.454138 11230 net.cpp:141] Setting up pool1/norm1
I0403 14:52:23.454166 11230 net.cpp:148] Top shape: 24 64 56 56 (4816896)
I0403 14:52:23.454182 11230 net.cpp:156] Memory required for data: 207127584
I0403 14:52:23.454198 11230 layer_factory.hpp:77] Creating layer conv2/3x3_reduce
I0403 14:52:23.454226 11230 net.cpp:91] Creating Layer conv2/3x3_reduce
I0403 14:52:23.454244 11230 net.cpp:425] conv2/3x3_reduce <- pool1/norm1
I0403 14:52:23.454267 11230 net.cpp:399] conv2/3x3_reduce -> conv2/3x3_reduce
I0403 14:52:23.455709 11230 net.cpp:141] Setting up conv2/3x3_reduce
I0403 14:52:23.455744 11230 net.cpp:148] Top shape: 24 64 56 56 (4816896)
I0403 14:52:23.455761 11230 net.cpp:156] Memory required for data: 226395168
I0403 14:52:23.455785 11230 layer_factory.hpp:77] Creating layer conv2/relu_3x3_reduce
I0403 14:52:23.455803 11230 net.cpp:91] Creating Layer conv2/relu_3x3_reduce
I0403 14:52:23.455819 11230 net.cpp:425] conv2/relu_3x3_reduce <- conv2/3x3_reduce
I0403 14:52:23.455840 11230 net.cpp:386] conv2/relu_3x3_reduce -> conv2/3x3_reduce (in-place)
I0403 14:52:23.456118 11230 net.cpp:141] Setting up conv2/relu_3x3_reduce
I0403 14:52:23.456151 11230 net.cpp:148] Top shape: 24 64 56 56 (4816896)
I0403 14:52:23.456168 11230 net.cpp:156] Memory required for data: 245662752
I0403 14:52:23.456185 11230 layer_factory.hpp:77] Creating layer conv2/3x3
I0403 14:52:23.456210 11230 net.cpp:91] Creating Layer conv2/3x3
I0403 14:52:23.456228 11230 net.cpp:425] conv2/3x3 <- conv2/3x3_reduce
I0403 14:52:23.456250 11230 net.cpp:399] conv2/3x3 -> conv2/3x3
I0403 14:52:23.458704 11230 net.cpp:141] Setting up conv2/3x3
I0403 14:52:23.458739 11230 net.cpp:148] Top shape: 24 192 56 56 (14450688)
I0403 14:52:23.458756 11230 net.cpp:156] Memory required for data: 303465504
I0403 14:52:23.458780 11230 layer_factory.hpp:77] Creating layer conv2/relu_3x3
I0403 14:52:23.458799 11230 net.cpp:91] Creating Layer conv2/relu_3x3
I0403 14:52:23.458816 11230 net.cpp:425] conv2/relu_3x3 <- conv2/3x3
I0403 14:52:23.458835 11230 net.cpp:386] conv2/relu_3x3 -> conv2/3x3 (in-place)
I0403 14:52:23.459018 11230 net.cpp:141] Setting up conv2/relu_3x3
I0403 14:52:23.459045 11230 net.cpp:148] Top shape: 24 192 56 56 (14450688)
I0403 14:52:23.459091 11230 net.cpp:156] Memory required for data: 361268256
I0403 14:52:23.459115 11230 layer_factory.hpp:77] Creating layer conv2/norm2
I0403 14:52:23.459137 11230 net.cpp:91] Creating Layer conv2/norm2
I0403 14:52:23.459153 11230 net.cpp:425] conv2/norm2 <- conv2/3x3
I0403 14:52:23.459173 11230 net.cpp:399] conv2/norm2 -> conv2/norm2
I0403 14:52:23.459487 11230 net.cpp:141] Setting up conv2/norm2
I0403 14:52:23.459519 11230 net.cpp:148] Top shape: 24 192 56 56 (14450688)
I0403 14:52:23.459537 11230 net.cpp:156] Memory required for data: 419071008
I0403 14:52:23.459553 11230 layer_factory.hpp:77] Creating layer pool2/3x3_s2
I0403 14:52:23.459573 11230 net.cpp:91] Creating Layer pool2/3x3_s2
I0403 14:52:23.459589 11230 net.cpp:425] pool2/3x3_s2 <- conv2/norm2
I0403 14:52:23.459609 11230 net.cpp:399] pool2/3x3_s2 -> pool2/3x3_s2
I0403 14:52:23.459663 11230 net.cpp:141] Setting up pool2/3x3_s2
I0403 14:52:23.459687 11230 net.cpp:148] Top shape: 24 192 28 28 (3612672)
I0403 14:52:23.459703 11230 net.cpp:156] Memory required for data: 433521696
I0403 14:52:23.459719 11230 layer_factory.hpp:77] Creating layer pool2/3x3_s2_pool2/3x3_s2_0_split
I0403 14:52:23.459741 11230 net.cpp:91] Creating Layer pool2/3x3_s2_pool2/3x3_s2_0_split
I0403 14:52:23.459759 11230 net.cpp:425] pool2/3x3_s2_pool2/3x3_s2_0_split <- pool2/3x3_s2
I0403 14:52:23.459777 11230 net.cpp:399] pool2/3x3_s2_pool2/3x3_s2_0_split -> pool2/3x3_s2_pool2/3x3_s2_0_split_0
I0403 14:52:23.459797 11230 net.cpp:399] pool2/3x3_s2_pool2/3x3_s2_0_split -> pool2/3x3_s2_pool2/3x3_s2_0_split_1
I0403 14:52:23.459818 11230 net.cpp:399] pool2/3x3_s2_pool2/3x3_s2_0_split -> pool2/3x3_s2_pool2/3x3_s2_0_split_2
I0403 14:52:23.459839 11230 net.cpp:399] pool2/3x3_s2_pool2/3x3_s2_0_split -> pool2/3x3_s2_pool2/3x3_s2_0_split_3
I0403 14:52:23.459911 11230 net.cpp:141] Setting up pool2/3x3_s2_pool2/3x3_s2_0_split
I0403 14:52:23.459935 11230 net.cpp:148] Top shape: 24 192 28 28 (3612672)
I0403 14:52:23.459951 11230 net.cpp:148] Top shape: 24 192 28 28 (3612672)
I0403 14:52:23.459969 11230 net.cpp:148] Top shape: 24 192 28 28 (3612672)
I0403 14:52:23.459985 11230 net.cpp:148] Top shape: 24 192 28 28 (3612672)
I0403 14:52:23.460000 11230 net.cpp:156] Memory required for data: 491324448
I0403 14:52:23.460014 11230 layer_factory.hpp:77] Creating layer inception_3a/1x1
I0403 14:52:23.460037 11230 net.cpp:91] Creating Layer inception_3a/1x1
I0403 14:52:23.460057 11230 net.cpp:425] inception_3a/1x1 <- pool2/3x3_s2_pool2/3x3_s2_0_split_0
I0403 14:52:23.460078 11230 net.cpp:399] inception_3a/1x1 -> inception_3a/1x1
I0403 14:52:23.461663 11230 net.cpp:141] Setting up inception_3a/1x1
I0403 14:52:23.461695 11230 net.cpp:148] Top shape: 24 64 28 28 (1204224)
I0403 14:52:23.461714 11230 net.cpp:156] Memory required for data: 496141344
I0403 14:52:23.461733 11230 layer_factory.hpp:77] Creating layer inception_3a/relu_1x1
I0403 14:52:23.461753 11230 net.cpp:91] Creating Layer inception_3a/relu_1x1
I0403 14:52:23.461771 11230 net.cpp:425] inception_3a/relu_1x1 <- inception_3a/1x1
I0403 14:52:23.461792 11230 net.cpp:386] inception_3a/relu_1x1 -> inception_3a/1x1 (in-place)
I0403 14:52:23.461971 11230 net.cpp:141] Setting up inception_3a/relu_1x1
I0403 14:52:23.461998 11230 net.cpp:148] Top shape: 24 64 28 28 (1204224)
I0403 14:52:23.462014 11230 net.cpp:156] Memory required for data: 500958240
I0403 14:52:23.462030 11230 layer_factory.hpp:77] Creating layer inception_3a/3x3_reduce
I0403 14:52:23.462056 11230 net.cpp:91] Creating Layer inception_3a/3x3_reduce
I0403 14:52:23.462075 11230 net.cpp:425] inception_3a/3x3_reduce <- pool2/3x3_s2_pool2/3x3_s2_0_split_1
I0403 14:52:23.462101 11230 net.cpp:399] inception_3a/3x3_reduce -> inception_3a/3x3_reduce
I0403 14:52:23.467346 11230 net.cpp:141] Setting up inception_3a/3x3_reduce
I0403 14:52:23.467381 11230 net.cpp:148] Top shape: 24 96 28 28 (1806336)
I0403 14:52:23.467408 11230 net.cpp:156] Memory required for data: 508183584
I0403 14:52:23.467432 11230 layer_factory.hpp:77] Creating layer inception_3a/relu_3x3_reduce
I0403 14:52:23.467479 11230 net.cpp:91] Creating Layer inception_3a/relu_3x3_reduce
I0403 14:52:23.467501 11230 net.cpp:425] inception_3a/relu_3x3_reduce <- inception_3a/3x3_reduce
I0403 14:52:23.467521 11230 net.cpp:386] inception_3a/relu_3x3_reduce -> inception_3a/3x3_reduce (in-place)
I0403 14:52:23.467713 11230 net.cpp:141] Setting up inception_3a/relu_3x3_reduce
I0403 14:52:23.467744 11230 net.cpp:148] Top shape: 24 96 28 28 (1806336)
I0403 14:52:23.467762 11230 net.cpp:156] Memory required for data: 515408928
I0403 14:52:23.467779 11230 layer_factory.hpp:77] Creating layer inception_3a/3x3
I0403 14:52:23.467803 11230 net.cpp:91] Creating Layer inception_3a/3x3
I0403 14:52:23.467823 11230 net.cpp:425] inception_3a/3x3 <- inception_3a/3x3_reduce
I0403 14:52:23.467844 11230 net.cpp:399] inception_3a/3x3 -> inception_3a/3x3
I0403 14:52:23.469594 11230 net.cpp:141] Setting up inception_3a/3x3
I0403 14:52:23.469624 11230 net.cpp:148] Top shape: 24 128 28 28 (2408448)
I0403 14:52:23.469642 11230 net.cpp:156] Memory required for data: 525042720
I0403 14:52:23.469663 11230 layer_factory.hpp:77] Creating layer inception_3a/relu_3x3
I0403 14:52:23.469683 11230 net.cpp:91] Creating Layer inception_3a/relu_3x3
I0403 14:52:23.469701 11230 net.cpp:425] inception_3a/relu_3x3 <- inception_3a/3x3
I0403 14:52:23.469722 11230 net.cpp:386] inception_3a/relu_3x3 -> inception_3a/3x3 (in-place)
I0403 14:52:23.470015 11230 net.cpp:141] Setting up inception_3a/relu_3x3
I0403 14:52:23.470043 11230 net.cpp:148] Top shape: 24 128 28 28 (2408448)
I0403 14:52:23.470060 11230 net.cpp:156] Memory required for data: 534676512
I0403 14:52:23.470078 11230 layer_factory.hpp:77] Creating layer inception_3a/5x5_reduce
I0403 14:52:23.470109 11230 net.cpp:91] Creating Layer inception_3a/5x5_reduce
I0403 14:52:23.470130 11230 net.cpp:425] inception_3a/5x5_reduce <- pool2/3x3_s2_pool2/3x3_s2_0_split_2
I0403 14:52:23.470154 11230 net.cpp:399] inception_3a/5x5_reduce -> inception_3a/5x5_reduce
I0403 14:52:23.471170 11230 net.cpp:141] Setting up inception_3a/5x5_reduce
I0403 14:52:23.471202 11230 net.cpp:148] Top shape: 24 16 28 28 (301056)
I0403 14:52:23.471220 11230 net.cpp:156] Memory required for data: 535880736
I0403 14:52:23.471241 11230 layer_factory.hpp:77] Creating layer inception_3a/relu_5x5_reduce
I0403 14:52:23.471263 11230 net.cpp:91] Creating Layer inception_3a/relu_5x5_reduce
I0403 14:52:23.471283 11230 net.cpp:425] inception_3a/relu_5x5_reduce <- inception_3a/5x5_reduce
I0403 14:52:23.471302 11230 net.cpp:386] inception_3a/relu_5x5_reduce -> inception_3a/5x5_reduce (in-place)
I0403 14:52:23.471614 11230 net.cpp:141] Setting up inception_3a/relu_5x5_reduce
I0403 14:52:23.471644 11230 net.cpp:148] Top shape: 24 16 28 28 (301056)
I0403 14:52:23.471662 11230 net.cpp:156] Memory required for data: 537084960
I0403 14:52:23.471678 11230 layer_factory.hpp:77] Creating layer inception_3a/5x5
I0403 14:52:23.471703 11230 net.cpp:91] Creating Layer inception_3a/5x5
I0403 14:52:23.471722 11230 net.cpp:425] inception_3a/5x5 <- inception_3a/5x5_reduce
I0403 14:52:23.471745 11230 net.cpp:399] inception_3a/5x5 -> inception_3a/5x5
I0403 14:52:23.472832 11230 net.cpp:141] Setting up inception_3a/5x5
I0403 14:52:23.472863 11230 net.cpp:148] Top shape: 24 32 28 28 (602112)
I0403 14:52:23.472882 11230 net.cpp:156] Memory required for data: 539493408
I0403 14:52:23.472901 11230 layer_factory.hpp:77] Creating layer inception_3a/relu_5x5
I0403 14:52:23.472920 11230 net.cpp:91] Creating Layer inception_3a/relu_5x5
I0403 14:52:23.472939 11230 net.cpp:425] inception_3a/relu_5x5 <- inception_3a/5x5
I0403 14:52:23.472959 11230 net.cpp:386] inception_3a/relu_5x5 -> inception_3a/5x5 (in-place)
I0403 14:52:23.473155 11230 net.cpp:141] Setting up inception_3a/relu_5x5
I0403 14:52:23.473181 11230 net.cpp:148] Top shape: 24 32 28 28 (602112)
I0403 14:52:23.473197 11230 net.cpp:156] Memory required for data: 541901856
I0403 14:52:23.473213 11230 layer_factory.hpp:77] Creating layer inception_3a/pool
I0403 14:52:23.473235 11230 net.cpp:91] Creating Layer inception_3a/pool
I0403 14:52:23.473268 11230 net.cpp:425] inception_3a/pool <- pool2/3x3_s2_pool2/3x3_s2_0_split_3
I0403 14:52:23.473289 11230 net.cpp:399] inception_3a/pool -> inception_3a/pool
I0403 14:52:23.473353 11230 net.cpp:141] Setting up inception_3a/pool
I0403 14:52:23.473379 11230 net.cpp:148] Top shape: 24 192 28 28 (3612672)
I0403 14:52:23.473395 11230 net.cpp:156] Memory required for data: 556352544
I0403 14:52:23.473412 11230 layer_factory.hpp:77] Creating layer inception_3a/pool_proj
I0403 14:52:23.473434 11230 net.cpp:91] Creating Layer inception_3a/pool_proj
I0403 14:52:23.473453 11230 net.cpp:425] inception_3a/pool_proj <- inception_3a/pool
I0403 14:52:23.473476 11230 net.cpp:399] inception_3a/pool_proj -> inception_3a/pool_proj
I0403 14:52:23.474493 11230 net.cpp:141] Setting up inception_3a/pool_proj
I0403 14:52:23.474526 11230 net.cpp:148] Top shape: 24 32 28 28 (602112)
I0403 14:52:23.474545 11230 net.cpp:156] Memory required for data: 558760992
I0403 14:52:23.474568 11230 layer_factory.hpp:77] Creating layer inception_3a/relu_pool_proj
I0403 14:52:23.474592 11230 net.cpp:91] Creating Layer inception_3a/relu_pool_proj
I0403 14:52:23.474611 11230 net.cpp:425] inception_3a/relu_pool_proj <- inception_3a/pool_proj
I0403 14:52:23.474630 11230 net.cpp:386] inception_3a/relu_pool_proj -> inception_3a/pool_proj (in-place)
I0403 14:52:23.474920 11230 net.cpp:141] Setting up inception_3a/relu_pool_proj
I0403 14:52:23.474947 11230 net.cpp:148] Top shape: 24 32 28 28 (602112)
I0403 14:52:23.474963 11230 net.cpp:156] Memory required for data: 561169440
I0403 14:52:23.474979 11230 layer_factory.hpp:77] Creating layer inception_3a/output
I0403 14:52:23.474998 11230 net.cpp:91] Creating Layer inception_3a/output
I0403 14:52:23.475015 11230 net.cpp:425] inception_3a/output <- inception_3a/1x1
I0403 14:52:23.475033 11230 net.cpp:425] inception_3a/output <- inception_3a/3x3
I0403 14:52:23.475050 11230 net.cpp:425] inception_3a/output <- inception_3a/5x5
I0403 14:52:23.475067 11230 net.cpp:425] inception_3a/output <- inception_3a/pool_proj
I0403 14:52:23.475087 11230 net.cpp:399] inception_3a/output -> inception_3a/output
I0403 14:52:23.475147 11230 net.cpp:141] Setting up inception_3a/output
I0403 14:52:23.475184 11230 net.cpp:148] Top shape: 24 256 28 28 (4816896)
I0403 14:52:23.475203 11230 net.cpp:156] Memory required for data: 580437024
I0403 14:52:23.475219 11230 layer_factory.hpp:77] Creating layer inception_3a/output_inception_3a/output_0_split
I0403 14:52:23.475237 11230 net.cpp:91] Creating Layer inception_3a/output_inception_3a/output_0_split
I0403 14:52:23.475255 11230 net.cpp:425] inception_3a/output_inception_3a/output_0_split <- inception_3a/output
I0403 14:52:23.475272 11230 net.cpp:399] inception_3a/output_inception_3a/output_0_split -> inception_3a/output_inception_3a/output_0_split_0
I0403 14:52:23.475293 11230 net.cpp:399] inception_3a/output_inception_3a/output_0_split -> inception_3a/output_inception_3a/output_0_split_1
I0403 14:52:23.475320 11230 net.cpp:399] inception_3a/output_inception_3a/output_0_split -> inception_3a/output_inception_3a/output_0_split_2
I0403 14:52:23.475344 11230 net.cpp:399] inception_3a/output_inception_3a/output_0_split -> inception_3a/output_inception_3a/output_0_split_3
I0403 14:52:23.475424 11230 net.cpp:141] Setting up inception_3a/output_inception_3a/output_0_split
I0403 14:52:23.475457 11230 net.cpp:148] Top shape: 24 256 28 28 (4816896)
I0403 14:52:23.475476 11230 net.cpp:148] Top shape: 24 256 28 28 (4816896)
I0403 14:52:23.475492 11230 net.cpp:148] Top shape: 24 256 28 28 (4816896)
I0403 14:52:23.475509 11230 net.cpp:148] Top shape: 24 256 28 28 (4816896)
I0403 14:52:23.475523 11230 net.cpp:156] Memory required for data: 657507360
I0403 14:52:23.475539 11230 layer_factory.hpp:77] Creating layer inception_3b/1x1
I0403 14:52:23.475564 11230 net.cpp:91] Creating Layer inception_3b/1x1
I0403 14:52:23.475581 11230 net.cpp:425] inception_3b/1x1 <- inception_3a/output_inception_3a/output_0_split_0
I0403 14:52:23.475601 11230 net.cpp:399] inception_3b/1x1 -> inception_3b/1x1
I0403 14:52:23.476797 11230 net.cpp:141] Setting up inception_3b/1x1
I0403 14:52:23.476848 11230 net.cpp:148] Top shape: 24 128 28 28 (2408448)
I0403 14:52:23.476867 11230 net.cpp:156] Memory required for data: 667141152
I0403 14:52:23.476887 11230 layer_factory.hpp:77] Creating layer inception_3b/relu_1x1
I0403 14:52:23.476907 11230 net.cpp:91] Creating Layer inception_3b/relu_1x1
I0403 14:52:23.476925 11230 net.cpp:425] inception_3b/relu_1x1 <- inception_3b/1x1
I0403 14:52:23.476946 11230 net.cpp:386] inception_3b/relu_1x1 -> inception_3b/1x1 (in-place)
I0403 14:52:23.477138 11230 net.cpp:141] Setting up inception_3b/relu_1x1
I0403 14:52:23.477165 11230 net.cpp:148] Top shape: 24 128 28 28 (2408448)
I0403 14:52:23.477181 11230 net.cpp:156] Memory required for data: 676774944
I0403 14:52:23.477198 11230 layer_factory.hpp:77] Creating layer inception_3b/3x3_reduce
I0403 14:52:23.477221 11230 net.cpp:91] Creating Layer inception_3b/3x3_reduce
I0403 14:52:23.477241 11230 net.cpp:425] inception_3b/3x3_reduce <- inception_3a/output_inception_3a/output_0_split_1
I0403 14:52:23.477264 11230 net.cpp:399] inception_3b/3x3_reduce -> inception_3b/3x3_reduce
I0403 14:52:23.478456 11230 net.cpp:141] Setting up inception_3b/3x3_reduce
I0403 14:52:23.478490 11230 net.cpp:148] Top shape: 24 128 28 28 (2408448)
I0403 14:52:23.478509 11230 net.cpp:156] Memory required for data: 686408736
I0403 14:52:23.478530 11230 layer_factory.hpp:77] Creating layer inception_3b/relu_3x3_reduce
I0403 14:52:23.478549 11230 net.cpp:91] Creating Layer inception_3b/relu_3x3_reduce
I0403 14:52:23.478567 11230 net.cpp:425] inception_3b/relu_3x3_reduce <- inception_3b/3x3_reduce
I0403 14:52:23.478585 11230 net.cpp:386] inception_3b/relu_3x3_reduce -> inception_3b/3x3_reduce (in-place)
I0403 14:52:23.478770 11230 net.cpp:141] Setting up inception_3b/relu_3x3_reduce
I0403 14:52:23.478798 11230 net.cpp:148] Top shape: 24 128 28 28 (2408448)
I0403 14:52:23.478814 11230 net.cpp:156] Memory required for data: 696042528
I0403 14:52:23.478831 11230 layer_factory.hpp:77] Creating layer inception_3b/3x3
I0403 14:52:23.478857 11230 net.cpp:91] Creating Layer inception_3b/3x3
I0403 14:52:23.478875 11230 net.cpp:425] inception_3b/3x3 <- inception_3b/3x3_reduce
I0403 14:52:23.478899 11230 net.cpp:399] inception_3b/3x3 -> inception_3b/3x3
I0403 14:52:23.481959 11230 net.cpp:141] Setting up inception_3b/3x3
I0403 14:52:23.481992 11230 net.cpp:148] Top shape: 24 192 28 28 (3612672)
I0403 14:52:23.482008 11230 net.cpp:156] Memory required for data: 710493216
I0403 14:52:23.482030 11230 layer_factory.hpp:77] Creating layer inception_3b/relu_3x3
I0403 14:52:23.482050 11230 net.cpp:91] Creating Layer inception_3b/relu_3x3
I0403 14:52:23.482067 11230 net.cpp:425] inception_3b/relu_3x3 <- inception_3b/3x3
I0403 14:52:23.482089 11230 net.cpp:386] inception_3b/relu_3x3 -> inception_3b/3x3 (in-place)
I0403 14:52:23.482394 11230 net.cpp:141] Setting up inception_3b/relu_3x3
I0403 14:52:23.482424 11230 net.cpp:148] Top shape: 24 192 28 28 (3612672)
I0403 14:52:23.482440 11230 net.cpp:156] Memory required for data: 724943904
I0403 14:52:23.482456 11230 layer_factory.hpp:77] Creating layer inception_3b/5x5_reduce
I0403 14:52:23.482481 11230 net.cpp:91] Creating Layer inception_3b/5x5_reduce
I0403 14:52:23.482506 11230 net.cpp:425] inception_3b/5x5_reduce <- inception_3a/output_inception_3a/output_0_split_2
I0403 14:52:23.482530 11230 net.cpp:399] inception_3b/5x5_reduce -> inception_3b/5x5_reduce
I0403 14:52:23.483577 11230 net.cpp:141] Setting up inception_3b/5x5_reduce
I0403 14:52:23.483606 11230 net.cpp:148] Top shape: 24 32 28 28 (602112)
I0403 14:52:23.483623 11230 net.cpp:156] Memory required for data: 727352352
I0403 14:52:23.483642 11230 layer_factory.hpp:77] Creating layer inception_3b/relu_5x5_reduce
I0403 14:52:23.483661 11230 net.cpp:91] Creating Layer inception_3b/relu_5x5_reduce
I0403 14:52:23.483680 11230 net.cpp:425] inception_3b/relu_5x5_reduce <- inception_3b/5x5_reduce
I0403 14:52:23.483700 11230 net.cpp:386] inception_3b/relu_5x5_reduce -> inception_3b/5x5_reduce (in-place)
I0403 14:52:23.483896 11230 net.cpp:141] Setting up inception_3b/relu_5x5_reduce
I0403 14:52:23.483922 11230 net.cpp:148] Top shape: 24 32 28 28 (602112)
I0403 14:52:23.483938 11230 net.cpp:156] Memory required for data: 729760800
I0403 14:52:23.483952 11230 layer_factory.hpp:77] Creating layer inception_3b/5x5
I0403 14:52:23.483976 11230 net.cpp:91] Creating Layer inception_3b/5x5
I0403 14:52:23.483996 11230 net.cpp:425] inception_3b/5x5 <- inception_3b/5x5_reduce
I0403 14:52:23.484021 11230 net.cpp:399] inception_3b/5x5 -> inception_3b/5x5
I0403 14:52:23.486028 11230 net.cpp:141] Setting up inception_3b/5x5
I0403 14:52:23.486063 11230 net.cpp:148] Top shape: 24 96 28 28 (1806336)
I0403 14:52:23.486080 11230 net.cpp:156] Memory required for data: 736986144
I0403 14:52:23.486105 11230 layer_factory.hpp:77] Creating layer inception_3b/relu_5x5
I0403 14:52:23.486127 11230 net.cpp:91] Creating Layer inception_3b/relu_5x5
I0403 14:52:23.486145 11230 net.cpp:425] inception_3b/relu_5x5 <- inception_3b/5x5
I0403 14:52:23.486162 11230 net.cpp:386] inception_3b/relu_5x5 -> inception_3b/5x5 (in-place)
I0403 14:52:23.486359 11230 net.cpp:141] Setting up inception_3b/relu_5x5
I0403 14:52:23.486385 11230 net.cpp:148] Top shape: 24 96 28 28 (1806336)
I0403 14:52:23.486402 11230 net.cpp:156] Memory required for data: 744211488
I0403 14:52:23.486416 11230 layer_factory.hpp:77] Creating layer inception_3b/pool
I0403 14:52:23.486435 11230 net.cpp:91] Creating Layer inception_3b/pool
I0403 14:52:23.486452 11230 net.cpp:425] inception_3b/pool <- inception_3a/output_inception_3a/output_0_split_3
I0403 14:52:23.486471 11230 net.cpp:399] inception_3b/pool -> inception_3b/pool
I0403 14:52:23.486529 11230 net.cpp:141] Setting up inception_3b/pool
I0403 14:52:23.486557 11230 net.cpp:148] Top shape: 24 256 28 28 (4816896)
I0403 14:52:23.486573 11230 net.cpp:156] Memory required for data: 763479072
I0403 14:52:23.486589 11230 layer_factory.hpp:77] Creating layer inception_3b/pool_proj
I0403 14:52:23.486611 11230 net.cpp:91] Creating Layer inception_3b/pool_proj
I0403 14:52:23.486630 11230 net.cpp:425] inception_3b/pool_proj <- inception_3b/pool
I0403 14:52:23.486649 11230 net.cpp:399] inception_3b/pool_proj -> inception_3b/pool_proj
I0403 14:52:23.487766 11230 net.cpp:141] Setting up inception_3b/pool_proj
I0403 14:52:23.487795 11230 net.cpp:148] Top shape: 24 64 28 28 (1204224)
I0403 14:52:23.487812 11230 net.cpp:156] Memory required for data: 768295968
I0403 14:52:23.487830 11230 layer_factory.hpp:77] Creating layer inception_3b/relu_pool_proj
I0403 14:52:23.487853 11230 net.cpp:91] Creating Layer inception_3b/relu_pool_proj
I0403 14:52:23.487870 11230 net.cpp:425] inception_3b/relu_pool_proj <- inception_3b/pool_proj
I0403 14:52:23.487889 11230 net.cpp:386] inception_3b/relu_pool_proj -> inception_3b/pool_proj (in-place)
I0403 14:52:23.488302 11230 net.cpp:141] Setting up inception_3b/relu_pool_proj
I0403 14:52:23.488329 11230 net.cpp:148] Top shape: 24 64 28 28 (1204224)
I0403 14:52:23.488345 11230 net.cpp:156] Memory required for data: 773112864
I0403 14:52:23.488361 11230 layer_factory.hpp:77] Creating layer inception_3b/output
I0403 14:52:23.488379 11230 net.cpp:91] Creating Layer inception_3b/output
I0403 14:52:23.488396 11230 net.cpp:425] inception_3b/output <- inception_3b/1x1
I0403 14:52:23.488415 11230 net.cpp:425] inception_3b/output <- inception_3b/3x3
I0403 14:52:23.488430 11230 net.cpp:425] inception_3b/output <- inception_3b/5x5
I0403 14:52:23.488447 11230 net.cpp:425] inception_3b/output <- inception_3b/pool_proj
I0403 14:52:23.488467 11230 net.cpp:399] inception_3b/output -> inception_3b/output
I0403 14:52:23.488515 11230 net.cpp:141] Setting up inception_3b/output
I0403 14:52:23.488540 11230 net.cpp:148] Top shape: 24 480 28 28 (9031680)
I0403 14:52:23.488556 11230 net.cpp:156] Memory required for data: 809239584
I0403 14:52:23.488572 11230 layer_factory.hpp:77] Creating layer pool3/3x3_s2
I0403 14:52:23.488590 11230 net.cpp:91] Creating Layer pool3/3x3_s2
I0403 14:52:23.488607 11230 net.cpp:425] pool3/3x3_s2 <- inception_3b/output
I0403 14:52:23.488646 11230 net.cpp:399] pool3/3x3_s2 -> pool3/3x3_s2
I0403 14:52:23.488708 11230 net.cpp:141] Setting up pool3/3x3_s2
I0403 14:52:23.488732 11230 net.cpp:148] Top shape: 24 480 14 14 (2257920)
I0403 14:52:23.488747 11230 net.cpp:156] Memory required for data: 818271264
I0403 14:52:23.488762 11230 layer_factory.hpp:77] Creating layer pool3/3x3_s2_pool3/3x3_s2_0_split
I0403 14:52:23.488782 11230 net.cpp:91] Creating Layer pool3/3x3_s2_pool3/3x3_s2_0_split
I0403 14:52:23.488800 11230 net.cpp:425] pool3/3x3_s2_pool3/3x3_s2_0_split <- pool3/3x3_s2
I0403 14:52:23.488817 11230 net.cpp:399] pool3/3x3_s2_pool3/3x3_s2_0_split -> pool3/3x3_s2_pool3/3x3_s2_0_split_0
I0403 14:52:23.488840 11230 net.cpp:399] pool3/3x3_s2_pool3/3x3_s2_0_split -> pool3/3x3_s2_pool3/3x3_s2_0_split_1
I0403 14:52:23.488862 11230 net.cpp:399] pool3/3x3_s2_pool3/3x3_s2_0_split -> pool3/3x3_s2_pool3/3x3_s2_0_split_2
I0403 14:52:23.488883 11230 net.cpp:399] pool3/3x3_s2_pool3/3x3_s2_0_split -> pool3/3x3_s2_pool3/3x3_s2_0_split_3
I0403 14:52:23.488960 11230 net.cpp:141] Setting up pool3/3x3_s2_pool3/3x3_s2_0_split
I0403 14:52:23.488986 11230 net.cpp:148] Top shape: 24 480 14 14 (2257920)
I0403 14:52:23.489004 11230 net.cpp:148] Top shape: 24 480 14 14 (2257920)
I0403 14:52:23.489020 11230 net.cpp:148] Top shape: 24 480 14 14 (2257920)
I0403 14:52:23.489037 11230 net.cpp:148] Top shape: 24 480 14 14 (2257920)
I0403 14:52:23.489051 11230 net.cpp:156] Memory required for data: 854397984
I0403 14:52:23.489068 11230 layer_factory.hpp:77] Creating layer inception_4a/1x1
I0403 14:52:23.489090 11230 net.cpp:91] Creating Layer inception_4a/1x1
I0403 14:52:23.489116 11230 net.cpp:425] inception_4a/1x1 <- pool3/3x3_s2_pool3/3x3_s2_0_split_0
I0403 14:52:23.489138 11230 net.cpp:399] inception_4a/1x1 -> inception_4a/1x1
I0403 14:52:23.490767 11230 net.cpp:141] Setting up inception_4a/1x1
I0403 14:52:23.490797 11230 net.cpp:148] Top shape: 24 192 14 14 (903168)
I0403 14:52:23.490813 11230 net.cpp:156] Memory required for data: 858010656
I0403 14:52:23.490833 11230 layer_factory.hpp:77] Creating layer inception_4a/relu_1x1
I0403 14:52:23.490854 11230 net.cpp:91] Creating Layer inception_4a/relu_1x1
I0403 14:52:23.490875 11230 net.cpp:425] inception_4a/relu_1x1 <- inception_4a/1x1
I0403 14:52:23.490892 11230 net.cpp:386] inception_4a/relu_1x1 -> inception_4a/1x1 (in-place)
I0403 14:52:23.491073 11230 net.cpp:141] Setting up inception_4a/relu_1x1
I0403 14:52:23.491111 11230 net.cpp:148] Top shape: 24 192 14 14 (903168)
I0403 14:52:23.491128 11230 net.cpp:156] Memory required for data: 861623328
I0403 14:52:23.491144 11230 layer_factory.hpp:77] Creating layer inception_4a/3x3_reduce
I0403 14:52:23.491168 11230 net.cpp:91] Creating Layer inception_4a/3x3_reduce
I0403 14:52:23.491188 11230 net.cpp:425] inception_4a/3x3_reduce <- pool3/3x3_s2_pool3/3x3_s2_0_split_1
I0403 14:52:23.491207 11230 net.cpp:399] inception_4a/3x3_reduce -> inception_4a/3x3_reduce
I0403 14:52:23.492522 11230 net.cpp:141] Setting up inception_4a/3x3_reduce
I0403 14:52:23.492552 11230 net.cpp:148] Top shape: 24 96 14 14 (451584)
I0403 14:52:23.492568 11230 net.cpp:156] Memory required for data: 863429664
I0403 14:52:23.492595 11230 layer_factory.hpp:77] Creating layer inception_4a/relu_3x3_reduce
I0403 14:52:23.492619 11230 net.cpp:91] Creating Layer inception_4a/relu_3x3_reduce
I0403 14:52:23.492636 11230 net.cpp:425] inception_4a/relu_3x3_reduce <- inception_4a/3x3_reduce
I0403 14:52:23.492655 11230 net.cpp:386] inception_4a/relu_3x3_reduce -> inception_4a/3x3_reduce (in-place)
I0403 14:52:23.492835 11230 net.cpp:141] Setting up inception_4a/relu_3x3_reduce
I0403 14:52:23.492863 11230 net.cpp:148] Top shape: 24 96 14 14 (451584)
I0403 14:52:23.492879 11230 net.cpp:156] Memory required for data: 865236000
I0403 14:52:23.492895 11230 layer_factory.hpp:77] Creating layer inception_4a/3x3
I0403 14:52:23.492918 11230 net.cpp:91] Creating Layer inception_4a/3x3
I0403 14:52:23.492936 11230 net.cpp:425] inception_4a/3x3 <- inception_4a/3x3_reduce
I0403 14:52:23.492956 11230 net.cpp:399] inception_4a/3x3 -> inception_4a/3x3
I0403 14:52:23.495713 11230 net.cpp:141] Setting up inception_4a/3x3
I0403 14:52:23.495746 11230 net.cpp:148] Top shape: 24 208 14 14 (978432)
I0403 14:52:23.495764 11230 net.cpp:156] Memory required for data: 869149728
I0403 14:52:23.495784 11230 layer_factory.hpp:77] Creating layer inception_4a/relu_3x3
I0403 14:52:23.495802 11230 net.cpp:91] Creating Layer inception_4a/relu_3x3
I0403 14:52:23.495820 11230 net.cpp:425] inception_4a/relu_3x3 <- inception_4a/3x3
I0403 14:52:23.495837 11230 net.cpp:386] inception_4a/relu_3x3 -> inception_4a/3x3 (in-place)
I0403 14:52:23.496131 11230 net.cpp:141] Setting up inception_4a/relu_3x3
I0403 14:52:23.496161 11230 net.cpp:148] Top shape: 24 208 14 14 (978432)
I0403 14:52:23.496178 11230 net.cpp:156] Memory required for data: 873063456
I0403 14:52:23.496196 11230 layer_factory.hpp:77] Creating layer inception_4a/5x5_reduce
I0403 14:52:23.496220 11230 net.cpp:91] Creating Layer inception_4a/5x5_reduce
I0403 14:52:23.496239 11230 net.cpp:425] inception_4a/5x5_reduce <- pool3/3x3_s2_pool3/3x3_s2_0_split_2
I0403 14:52:23.496259 11230 net.cpp:399] inception_4a/5x5_reduce -> inception_4a/5x5_reduce
I0403 14:52:23.497306 11230 net.cpp:141] Setting up inception_4a/5x5_reduce
I0403 14:52:23.497335 11230 net.cpp:148] Top shape: 24 16 14 14 (75264)
I0403 14:52:23.497351 11230 net.cpp:156] Memory required for data: 873364512
I0403 14:52:23.497371 11230 layer_factory.hpp:77] Creating layer inception_4a/relu_5x5_reduce
I0403 14:52:23.497390 11230 net.cpp:91] Creating Layer inception_4a/relu_5x5_reduce
I0403 14:52:23.497407 11230 net.cpp:425] inception_4a/relu_5x5_reduce <- inception_4a/5x5_reduce
I0403 14:52:23.497427 11230 net.cpp:386] inception_4a/relu_5x5_reduce -> inception_4a/5x5_reduce (in-place)
I0403 14:52:23.497611 11230 net.cpp:141] Setting up inception_4a/relu_5x5_reduce
I0403 14:52:23.497637 11230 net.cpp:148] Top shape: 24 16 14 14 (75264)
I0403 14:52:23.497653 11230 net.cpp:156] Memory required for data: 873665568
I0403 14:52:23.497668 11230 layer_factory.hpp:77] Creating layer inception_4a/5x5
I0403 14:52:23.497691 11230 net.cpp:91] Creating Layer inception_4a/5x5
I0403 14:52:23.497710 11230 net.cpp:425] inception_4a/5x5 <- inception_4a/5x5_reduce
I0403 14:52:23.497731 11230 net.cpp:399] inception_4a/5x5 -> inception_4a/5x5
I0403 14:52:23.498854 11230 net.cpp:141] Setting up inception_4a/5x5
I0403 14:52:23.498883 11230 net.cpp:148] Top shape: 24 48 14 14 (225792)
I0403 14:52:23.498899 11230 net.cpp:156] Memory required for data: 874568736
I0403 14:52:23.498919 11230 layer_factory.hpp:77] Creating layer inception_4a/relu_5x5
I0403 14:52:23.498940 11230 net.cpp:91] Creating Layer inception_4a/relu_5x5
I0403 14:52:23.498960 11230 net.cpp:425] inception_4a/relu_5x5 <- inception_4a/5x5
I0403 14:52:23.498978 11230 net.cpp:386] inception_4a/relu_5x5 -> inception_4a/5x5 (in-place)
I0403 14:52:23.499171 11230 net.cpp:141] Setting up inception_4a/relu_5x5
I0403 14:52:23.499200 11230 net.cpp:148] Top shape: 24 48 14 14 (225792)
I0403 14:52:23.499217 11230 net.cpp:156] Memory required for data: 875471904
I0403 14:52:23.499233 11230 layer_factory.hpp:77] Creating layer inception_4a/pool
I0403 14:52:23.499251 11230 net.cpp:91] Creating Layer inception_4a/pool
I0403 14:52:23.499269 11230 net.cpp:425] inception_4a/pool <- pool3/3x3_s2_pool3/3x3_s2_0_split_3
I0403 14:52:23.499289 11230 net.cpp:399] inception_4a/pool -> inception_4a/pool
I0403 14:52:23.499351 11230 net.cpp:141] Setting up inception_4a/pool
I0403 14:52:23.499377 11230 net.cpp:148] Top shape: 24 480 14 14 (2257920)
I0403 14:52:23.499392 11230 net.cpp:156] Memory required for data: 884503584
I0403 14:52:23.499408 11230 layer_factory.hpp:77] Creating layer inception_4a/pool_proj
I0403 14:52:23.499430 11230 net.cpp:91] Creating Layer inception_4a/pool_proj
I0403 14:52:23.499449 11230 net.cpp:425] inception_4a/pool_proj <- inception_4a/pool
I0403 14:52:23.499469 11230 net.cpp:399] inception_4a/pool_proj -> inception_4a/pool_proj
I0403 14:52:23.500705 11230 net.cpp:141] Setting up inception_4a/pool_proj
I0403 14:52:23.500735 11230 net.cpp:148] Top shape: 24 64 14 14 (301056)
I0403 14:52:23.500769 11230 net.cpp:156] Memory required for data: 885707808
I0403 14:52:23.500792 11230 layer_factory.hpp:77] Creating layer inception_4a/relu_pool_proj
I0403 14:52:23.500815 11230 net.cpp:91] Creating Layer inception_4a/relu_pool_proj
I0403 14:52:23.500833 11230 net.cpp:425] inception_4a/relu_pool_proj <- inception_4a/pool_proj
I0403 14:52:23.500851 11230 net.cpp:386] inception_4a/relu_pool_proj -> inception_4a/pool_proj (in-place)
I0403 14:52:23.501154 11230 net.cpp:141] Setting up inception_4a/relu_pool_proj
I0403 14:52:23.501183 11230 net.cpp:148] Top shape: 24 64 14 14 (301056)
I0403 14:52:23.501199 11230 net.cpp:156] Memory required for data: 886912032
I0403 14:52:23.501215 11230 layer_factory.hpp:77] Creating layer inception_4a/output
I0403 14:52:23.501236 11230 net.cpp:91] Creating Layer inception_4a/output
I0403 14:52:23.501253 11230 net.cpp:425] inception_4a/output <- inception_4a/1x1
I0403 14:52:23.501271 11230 net.cpp:425] inception_4a/output <- inception_4a/3x3
I0403 14:52:23.501289 11230 net.cpp:425] inception_4a/output <- inception_4a/5x5
I0403 14:52:23.501305 11230 net.cpp:425] inception_4a/output <- inception_4a/pool_proj
I0403 14:52:23.501323 11230 net.cpp:399] inception_4a/output -> inception_4a/output
I0403 14:52:23.501373 11230 net.cpp:141] Setting up inception_4a/output
I0403 14:52:23.501397 11230 net.cpp:148] Top shape: 24 512 14 14 (2408448)
I0403 14:52:23.501412 11230 net.cpp:156] Memory required for data: 896545824
I0403 14:52:23.501430 11230 layer_factory.hpp:77] Creating layer inception_4a/output_inception_4a/output_0_split
I0403 14:52:23.501447 11230 net.cpp:91] Creating Layer inception_4a/output_inception_4a/output_0_split
I0403 14:52:23.501466 11230 net.cpp:425] inception_4a/output_inception_4a/output_0_split <- inception_4a/output
I0403 14:52:23.501487 11230 net.cpp:399] inception_4a/output_inception_4a/output_0_split -> inception_4a/output_inception_4a/output_0_split_0
I0403 14:52:23.501509 11230 net.cpp:399] inception_4a/output_inception_4a/output_0_split -> inception_4a/output_inception_4a/output_0_split_1
I0403 14:52:23.501533 11230 net.cpp:399] inception_4a/output_inception_4a/output_0_split -> inception_4a/output_inception_4a/output_0_split_2
I0403 14:52:23.501554 11230 net.cpp:399] inception_4a/output_inception_4a/output_0_split -> inception_4a/output_inception_4a/output_0_split_3
I0403 14:52:23.501576 11230 net.cpp:399] inception_4a/output_inception_4a/output_0_split -> inception_4a/output_inception_4a/output_0_split_4
I0403 14:52:23.501678 11230 net.cpp:141] Setting up inception_4a/output_inception_4a/output_0_split
I0403 14:52:23.501704 11230 net.cpp:148] Top shape: 24 512 14 14 (2408448)
I0403 14:52:23.501721 11230 net.cpp:148] Top shape: 24 512 14 14 (2408448)
I0403 14:52:23.501739 11230 net.cpp:148] Top shape: 24 512 14 14 (2408448)
I0403 14:52:23.501754 11230 net.cpp:148] Top shape: 24 512 14 14 (2408448)
I0403 14:52:23.501771 11230 net.cpp:148] Top shape: 24 512 14 14 (2408448)
I0403 14:52:23.501786 11230 net.cpp:156] Memory required for data: 944714784
I0403 14:52:23.501802 11230 layer_factory.hpp:77] Creating layer loss1/ave_pool
I0403 14:52:23.501821 11230 net.cpp:91] Creating Layer loss1/ave_pool
I0403 14:52:23.501838 11230 net.cpp:425] loss1/ave_pool <- inception_4a/output_inception_4a/output_0_split_0
I0403 14:52:23.501860 11230 net.cpp:399] loss1/ave_pool -> loss1/ave_pool
I0403 14:52:23.502084 11230 net.cpp:141] Setting up loss1/ave_pool
I0403 14:52:23.502126 11230 net.cpp:148] Top shape: 24 512 4 4 (196608)
I0403 14:52:23.502146 11230 net.cpp:156] Memory required for data: 945501216
I0403 14:52:23.502161 11230 layer_factory.hpp:77] Creating layer loss1/conv
I0403 14:52:23.502185 11230 net.cpp:91] Creating Layer loss1/conv
I0403 14:52:23.502207 11230 net.cpp:425] loss1/conv <- loss1/ave_pool
I0403 14:52:23.502226 11230 net.cpp:399] loss1/conv -> loss1/conv
I0403 14:52:23.503729 11230 net.cpp:141] Setting up loss1/conv
I0403 14:52:23.503762 11230 net.cpp:148] Top shape: 24 128 4 4 (49152)
I0403 14:52:23.503793 11230 net.cpp:156] Memory required for data: 945697824
I0403 14:52:23.503814 11230 layer_factory.hpp:77] Creating layer loss1/relu_conv
I0403 14:52:23.503834 11230 net.cpp:91] Creating Layer loss1/relu_conv
I0403 14:52:23.503851 11230 net.cpp:425] loss1/relu_conv <- loss1/conv
I0403 14:52:23.503872 11230 net.cpp:386] loss1/relu_conv -> loss1/conv (in-place)
I0403 14:52:23.504181 11230 net.cpp:141] Setting up loss1/relu_conv
I0403 14:52:23.504212 11230 net.cpp:148] Top shape: 24 128 4 4 (49152)
I0403 14:52:23.504230 11230 net.cpp:156] Memory required for data: 945894432
I0403 14:52:23.504245 11230 layer_factory.hpp:77] Creating layer loss1/fc
I0403 14:52:23.504271 11230 net.cpp:91] Creating Layer loss1/fc
I0403 14:52:23.504289 11230 net.cpp:425] loss1/fc <- loss1/conv
I0403 14:52:23.504313 11230 net.cpp:399] loss1/fc -> loss1/fc
I0403 14:52:23.523080 11230 net.cpp:141] Setting up loss1/fc
I0403 14:52:23.523149 11230 net.cpp:148] Top shape: 24 1024 (24576)
I0403 14:52:23.523167 11230 net.cpp:156] Memory required for data: 945992736
I0403 14:52:23.523195 11230 layer_factory.hpp:77] Creating layer loss1/relu_fc
I0403 14:52:23.523216 11230 net.cpp:91] Creating Layer loss1/relu_fc
I0403 14:52:23.523233 11230 net.cpp:425] loss1/relu_fc <- loss1/fc
I0403 14:52:23.523252 11230 net.cpp:386] loss1/relu_fc -> loss1/fc (in-place)
I0403 14:52:23.523470 11230 net.cpp:141] Setting up loss1/relu_fc
I0403 14:52:23.523499 11230 net.cpp:148] Top shape: 24 1024 (24576)
I0403 14:52:23.523514 11230 net.cpp:156] Memory required for data: 946091040
I0403 14:52:23.523530 11230 layer_factory.hpp:77] Creating layer loss1/drop_fc
I0403 14:52:23.523560 11230 net.cpp:91] Creating Layer loss1/drop_fc
I0403 14:52:23.523577 11230 net.cpp:425] loss1/drop_fc <- loss1/fc
I0403 14:52:23.523596 11230 net.cpp:386] loss1/drop_fc -> loss1/fc (in-place)
I0403 14:52:23.523649 11230 net.cpp:141] Setting up loss1/drop_fc
I0403 14:52:23.523674 11230 net.cpp:148] Top shape: 24 1024 (24576)
I0403 14:52:23.523690 11230 net.cpp:156] Memory required for data: 946189344
I0403 14:52:23.523705 11230 layer_factory.hpp:77] Creating layer loss1/classifier_plantvillage
I0403 14:52:23.523730 11230 net.cpp:91] Creating Layer loss1/classifier_plantvillage
I0403 14:52:23.523747 11230 net.cpp:425] loss1/classifier_plantvillage <- loss1/fc
I0403 14:52:23.523766 11230 net.cpp:399] loss1/classifier_plantvillage -> loss1/classifier_plantvillage
I0403 14:52:23.524696 11230 net.cpp:141] Setting up loss1/classifier_plantvillage
I0403 14:52:23.524729 11230 net.cpp:148] Top shape: 24 38 (912)
I0403 14:52:23.524747 11230 net.cpp:156] Memory required for data: 946192992
I0403 14:52:23.524765 11230 layer_factory.hpp:77] Creating layer loss1/classifier_plantvillage_loss1/classifier_plantvillage_0_split
I0403 14:52:23.524785 11230 net.cpp:91] Creating Layer loss1/classifier_plantvillage_loss1/classifier_plantvillage_0_split
I0403 14:52:23.524801 11230 net.cpp:425] loss1/classifier_plantvillage_loss1/classifier_plantvillage_0_split <- loss1/classifier_plantvillage
I0403 14:52:23.524819 11230 net.cpp:399] loss1/classifier_plantvillage_loss1/classifier_plantvillage_0_split -> loss1/classifier_plantvillage_loss1/classifier_plantvillage_0_split_0
I0403 14:52:23.524842 11230 net.cpp:399] loss1/classifier_plantvillage_loss1/classifier_plantvillage_0_split -> loss1/classifier_plantvillage_loss1/classifier_plantvillage_0_split_1
I0403 14:52:23.524865 11230 net.cpp:399] loss1/classifier_plantvillage_loss1/classifier_plantvillage_0_split -> loss1/classifier_plantvillage_loss1/classifier_plantvillage_0_split_2
I0403 14:52:23.524935 11230 net.cpp:141] Setting up loss1/classifier_plantvillage_loss1/classifier_plantvillage_0_split
I0403 14:52:23.524957 11230 net.cpp:148] Top shape: 24 38 (912)
I0403 14:52:23.524974 11230 net.cpp:148] Top shape: 24 38 (912)
I0403 14:52:23.524991 11230 net.cpp:148] Top shape: 24 38 (912)
I0403 14:52:23.525005 11230 net.cpp:156] Memory required for data: 946203936
I0403 14:52:23.525020 11230 layer_factory.hpp:77] Creating layer inception_4b/1x1
I0403 14:52:23.525041 11230 net.cpp:91] Creating Layer inception_4b/1x1
I0403 14:52:23.525084 11230 net.cpp:425] inception_4b/1x1 <- inception_4a/output_inception_4a/output_0_split_1
I0403 14:52:23.525115 11230 net.cpp:399] inception_4b/1x1 -> inception_4b/1x1
I0403 14:52:23.526810 11230 net.cpp:141] Setting up inception_4b/1x1
I0403 14:52:23.526839 11230 net.cpp:148] Top shape: 24 160 14 14 (752640)
I0403 14:52:23.526855 11230 net.cpp:156] Memory required for data: 949214496
I0403 14:52:23.526875 11230 layer_factory.hpp:77] Creating layer inception_4b/relu_1x1
I0403 14:52:23.526893 11230 net.cpp:91] Creating Layer inception_4b/relu_1x1
I0403 14:52:23.526909 11230 net.cpp:425] inception_4b/relu_1x1 <- inception_4b/1x1
I0403 14:52:23.526929 11230 net.cpp:386] inception_4b/relu_1x1 -> inception_4b/1x1 (in-place)
I0403 14:52:23.527118 11230 net.cpp:141] Setting up inception_4b/relu_1x1
I0403 14:52:23.527144 11230 net.cpp:148] Top shape: 24 160 14 14 (752640)
I0403 14:52:23.527160 11230 net.cpp:156] Memory required for data: 952225056
I0403 14:52:23.527175 11230 layer_factory.hpp:77] Creating layer inception_4b/3x3_reduce
I0403 14:52:23.527201 11230 net.cpp:91] Creating Layer inception_4b/3x3_reduce
I0403 14:52:23.527220 11230 net.cpp:425] inception_4b/3x3_reduce <- inception_4a/output_inception_4a/output_0_split_2
I0403 14:52:23.527243 11230 net.cpp:399] inception_4b/3x3_reduce -> inception_4b/3x3_reduce
I0403 14:52:23.528604 11230 net.cpp:141] Setting up inception_4b/3x3_reduce
I0403 14:52:23.528636 11230 net.cpp:148] Top shape: 24 112 14 14 (526848)
I0403 14:52:23.528653 11230 net.cpp:156] Memory required for data: 954332448
I0403 14:52:23.528671 11230 layer_factory.hpp:77] Creating layer inception_4b/relu_3x3_reduce
I0403 14:52:23.528692 11230 net.cpp:91] Creating Layer inception_4b/relu_3x3_reduce
I0403 14:52:23.528710 11230 net.cpp:425] inception_4b/relu_3x3_reduce <- inception_4b/3x3_reduce
I0403 14:52:23.528729 11230 net.cpp:386] inception_4b/relu_3x3_reduce -> inception_4b/3x3_reduce (in-place)
I0403 14:52:23.529012 11230 net.cpp:141] Setting up inception_4b/relu_3x3_reduce
I0403 14:52:23.529039 11230 net.cpp:148] Top shape: 24 112 14 14 (526848)
I0403 14:52:23.529054 11230 net.cpp:156] Memory required for data: 956439840
I0403 14:52:23.529069 11230 layer_factory.hpp:77] Creating layer inception_4b/3x3
I0403 14:52:23.529091 11230 net.cpp:91] Creating Layer inception_4b/3x3
I0403 14:52:23.529117 11230 net.cpp:425] inception_4b/3x3 <- inception_4b/3x3_reduce
I0403 14:52:23.529140 11230 net.cpp:399] inception_4b/3x3 -> inception_4b/3x3
I0403 14:52:23.532119 11230 net.cpp:141] Setting up inception_4b/3x3
I0403 14:52:23.532150 11230 net.cpp:148] Top shape: 24 224 14 14 (1053696)
I0403 14:52:23.532171 11230 net.cpp:156] Memory required for data: 960654624
I0403 14:52:23.532191 11230 layer_factory.hpp:77] Creating layer inception_4b/relu_3x3
I0403 14:52:23.532208 11230 net.cpp:91] Creating Layer inception_4b/relu_3x3
I0403 14:52:23.532224 11230 net.cpp:425] inception_4b/relu_3x3 <- inception_4b/3x3
I0403 14:52:23.532243 11230 net.cpp:386] inception_4b/relu_3x3 -> inception_4b/3x3 (in-place)
I0403 14:52:23.532428 11230 net.cpp:141] Setting up inception_4b/relu_3x3
I0403 14:52:23.532456 11230 net.cpp:148] Top shape: 24 224 14 14 (1053696)
I0403 14:52:23.532474 11230 net.cpp:156] Memory required for data: 964869408
I0403 14:52:23.532490 11230 layer_factory.hpp:77] Creating layer inception_4b/5x5_reduce
I0403 14:52:23.532510 11230 net.cpp:91] Creating Layer inception_4b/5x5_reduce
I0403 14:52:23.532529 11230 net.cpp:425] inception_4b/5x5_reduce <- inception_4a/output_inception_4a/output_0_split_3
I0403 14:52:23.532548 11230 net.cpp:399] inception_4b/5x5_reduce -> inception_4b/5x5_reduce
I0403 14:52:23.533650 11230 net.cpp:141] Setting up inception_4b/5x5_reduce
I0403 14:52:23.533679 11230 net.cpp:148] Top shape: 24 24 14 14 (112896)
I0403 14:52:23.533695 11230 net.cpp:156] Memory required for data: 965320992
I0403 14:52:23.533715 11230 layer_factory.hpp:77] Creating layer inception_4b/relu_5x5_reduce
I0403 14:52:23.533733 11230 net.cpp:91] Creating Layer inception_4b/relu_5x5_reduce
I0403 14:52:23.533769 11230 net.cpp:425] inception_4b/relu_5x5_reduce <- inception_4b/5x5_reduce
I0403 14:52:23.533788 11230 net.cpp:386] inception_4b/relu_5x5_reduce -> inception_4b/5x5_reduce (in-place)
I0403 14:52:23.533975 11230 net.cpp:141] Setting up inception_4b/relu_5x5_reduce
I0403 14:52:23.534003 11230 net.cpp:148] Top shape: 24 24 14 14 (112896)
I0403 14:52:23.534018 11230 net.cpp:156] Memory required for data: 965772576
I0403 14:52:23.534032 11230 layer_factory.hpp:77] Creating layer inception_4b/5x5
I0403 14:52:23.534055 11230 net.cpp:91] Creating Layer inception_4b/5x5
I0403 14:52:23.534075 11230 net.cpp:425] inception_4b/5x5 <- inception_4b/5x5_reduce
I0403 14:52:23.534101 11230 net.cpp:399] inception_4b/5x5 -> inception_4b/5x5
I0403 14:52:23.535331 11230 net.cpp:141] Setting up inception_4b/5x5
I0403 14:52:23.535361 11230 net.cpp:148] Top shape: 24 64 14 14 (301056)
I0403 14:52:23.535377 11230 net.cpp:156] Memory required for data: 966976800
I0403 14:52:23.535395 11230 layer_factory.hpp:77] Creating layer inception_4b/relu_5x5
I0403 14:52:23.535413 11230 net.cpp:91] Creating Layer inception_4b/relu_5x5
I0403 14:52:23.535430 11230 net.cpp:425] inception_4b/relu_5x5 <- inception_4b/5x5
I0403 14:52:23.535450 11230 net.cpp:386] inception_4b/relu_5x5 -> inception_4b/5x5 (in-place)
I0403 14:52:23.535737 11230 net.cpp:141] Setting up inception_4b/relu_5x5
I0403 14:52:23.535765 11230 net.cpp:148] Top shape: 24 64 14 14 (301056)
I0403 14:52:23.535780 11230 net.cpp:156] Memory required for data: 968181024
I0403 14:52:23.535794 11230 layer_factory.hpp:77] Creating layer inception_4b/pool
I0403 14:52:23.535815 11230 net.cpp:91] Creating Layer inception_4b/pool
I0403 14:52:23.535830 11230 net.cpp:425] inception_4b/pool <- inception_4a/output_inception_4a/output_0_split_4
I0403 14:52:23.535851 11230 net.cpp:399] inception_4b/pool -> inception_4b/pool
I0403 14:52:23.535917 11230 net.cpp:141] Setting up inception_4b/pool
I0403 14:52:23.535941 11230 net.cpp:148] Top shape: 24 512 14 14 (2408448)
I0403 14:52:23.535955 11230 net.cpp:156] Memory required for data: 977814816
I0403 14:52:23.535969 11230 layer_factory.hpp:77] Creating layer inception_4b/pool_proj
I0403 14:52:23.535994 11230 net.cpp:91] Creating Layer inception_4b/pool_proj
I0403 14:52:23.536011 11230 net.cpp:425] inception_4b/pool_proj <- inception_4b/pool
I0403 14:52:23.536031 11230 net.cpp:399] inception_4b/pool_proj -> inception_4b/pool_proj
I0403 14:52:23.537240 11230 net.cpp:141] Setting up inception_4b/pool_proj
I0403 14:52:23.537268 11230 net.cpp:148] Top shape: 24 64 14 14 (301056)
I0403 14:52:23.537284 11230 net.cpp:156] Memory required for data: 979019040
I0403 14:52:23.537302 11230 layer_factory.hpp:77] Creating layer inception_4b/relu_pool_proj
I0403 14:52:23.537320 11230 net.cpp:91] Creating Layer inception_4b/relu_pool_proj
I0403 14:52:23.537338 11230 net.cpp:425] inception_4b/relu_pool_proj <- inception_4b/pool_proj
I0403 14:52:23.537359 11230 net.cpp:386] inception_4b/relu_pool_proj -> inception_4b/pool_proj (in-place)
I0403 14:52:23.537542 11230 net.cpp:141] Setting up inception_4b/relu_pool_proj
I0403 14:52:23.537567 11230 net.cpp:148] Top shape: 24 64 14 14 (301056)
I0403 14:52:23.537582 11230 net.cpp:156] Memory required for data: 980223264
I0403 14:52:23.537597 11230 layer_factory.hpp:77] Creating layer inception_4b/output
I0403 14:52:23.537617 11230 net.cpp:91] Creating Layer inception_4b/output
I0403 14:52:23.537633 11230 net.cpp:425] inception_4b/output <- inception_4b/1x1
I0403 14:52:23.537652 11230 net.cpp:425] inception_4b/output <- inception_4b/3x3
I0403 14:52:23.537667 11230 net.cpp:425] inception_4b/output <- inception_4b/5x5
I0403 14:52:23.537683 11230 net.cpp:425] inception_4b/output <- inception_4b/pool_proj
I0403 14:52:23.537700 11230 net.cpp:399] inception_4b/output -> inception_4b/output
I0403 14:52:23.537749 11230 net.cpp:141] Setting up inception_4b/output
I0403 14:52:23.537772 11230 net.cpp:148] Top shape: 24 512 14 14 (2408448)
I0403 14:52:23.537787 11230 net.cpp:156] Memory required for data: 989857056
I0403 14:52:23.537817 11230 layer_factory.hpp:77] Creating layer inception_4b/output_inception_4b/output_0_split
I0403 14:52:23.537837 11230 net.cpp:91] Creating Layer inception_4b/output_inception_4b/output_0_split
I0403 14:52:23.537853 11230 net.cpp:425] inception_4b/output_inception_4b/output_0_split <- inception_4b/output
I0403 14:52:23.537873 11230 net.cpp:399] inception_4b/output_inception_4b/output_0_split -> inception_4b/output_inception_4b/output_0_split_0
I0403 14:52:23.537895 11230 net.cpp:399] inception_4b/output_inception_4b/output_0_split -> inception_4b/output_inception_4b/output_0_split_1
I0403 14:52:23.537915 11230 net.cpp:399] inception_4b/output_inception_4b/output_0_split -> inception_4b/output_inception_4b/output_0_split_2
I0403 14:52:23.537936 11230 net.cpp:399] inception_4b/output_inception_4b/output_0_split -> inception_4b/output_inception_4b/output_0_split_3
I0403 14:52:23.538019 11230 net.cpp:141] Setting up inception_4b/output_inception_4b/output_0_split
I0403 14:52:23.538045 11230 net.cpp:148] Top shape: 24 512 14 14 (2408448)
I0403 14:52:23.538063 11230 net.cpp:148] Top shape: 24 512 14 14 (2408448)
I0403 14:52:23.538079 11230 net.cpp:148] Top shape: 24 512 14 14 (2408448)
I0403 14:52:23.538099 11230 net.cpp:148] Top shape: 24 512 14 14 (2408448)
I0403 14:52:23.538115 11230 net.cpp:156] Memory required for data: 1028392224
I0403 14:52:23.538130 11230 layer_factory.hpp:77] Creating layer inception_4c/1x1
I0403 14:52:23.538153 11230 net.cpp:91] Creating Layer inception_4c/1x1
I0403 14:52:23.538172 11230 net.cpp:425] inception_4c/1x1 <- inception_4b/output_inception_4b/output_0_split_0
I0403 14:52:23.538190 11230 net.cpp:399] inception_4c/1x1 -> inception_4c/1x1
I0403 14:52:23.539623 11230 net.cpp:141] Setting up inception_4c/1x1
I0403 14:52:23.539651 11230 net.cpp:148] Top shape: 24 128 14 14 (602112)
I0403 14:52:23.539667 11230 net.cpp:156] Memory required for data: 1030800672
I0403 14:52:23.539687 11230 layer_factory.hpp:77] Creating layer inception_4c/relu_1x1
I0403 14:52:23.539707 11230 net.cpp:91] Creating Layer inception_4c/relu_1x1
I0403 14:52:23.539726 11230 net.cpp:425] inception_4c/relu_1x1 <- inception_4c/1x1
I0403 14:52:23.539742 11230 net.cpp:386] inception_4c/relu_1x1 -> inception_4c/1x1 (in-place)
I0403 14:52:23.539927 11230 net.cpp:141] Setting up inception_4c/relu_1x1
I0403 14:52:23.539954 11230 net.cpp:148] Top shape: 24 128 14 14 (602112)
I0403 14:52:23.539971 11230 net.cpp:156] Memory required for data: 1033209120
I0403 14:52:23.539986 11230 layer_factory.hpp:77] Creating layer inception_4c/3x3_reduce
I0403 14:52:23.540009 11230 net.cpp:91] Creating Layer inception_4c/3x3_reduce
I0403 14:52:23.540027 11230 net.cpp:425] inception_4c/3x3_reduce <- inception_4b/output_inception_4b/output_0_split_1
I0403 14:52:23.540046 11230 net.cpp:399] inception_4c/3x3_reduce -> inception_4c/3x3_reduce
I0403 14:52:23.541987 11230 net.cpp:141] Setting up inception_4c/3x3_reduce
I0403 14:52:23.542021 11230 net.cpp:148] Top shape: 24 128 14 14 (602112)
I0403 14:52:23.542039 11230 net.cpp:156] Memory required for data: 1035617568
I0403 14:52:23.542059 11230 layer_factory.hpp:77] Creating layer inception_4c/relu_3x3_reduce
I0403 14:52:23.542078 11230 net.cpp:91] Creating Layer inception_4c/relu_3x3_reduce
I0403 14:52:23.542104 11230 net.cpp:425] inception_4c/relu_3x3_reduce <- inception_4c/3x3_reduce
I0403 14:52:23.542129 11230 net.cpp:386] inception_4c/relu_3x3_reduce -> inception_4c/3x3_reduce (in-place)
I0403 14:52:23.542418 11230 net.cpp:141] Setting up inception_4c/relu_3x3_reduce
I0403 14:52:23.542459 11230 net.cpp:148] Top shape: 24 128 14 14 (602112)
I0403 14:52:23.542475 11230 net.cpp:156] Memory required for data: 1038026016
I0403 14:52:23.542490 11230 layer_factory.hpp:77] Creating layer inception_4c/3x3
I0403 14:52:23.542513 11230 net.cpp:91] Creating Layer inception_4c/3x3
I0403 14:52:23.542532 11230 net.cpp:425] inception_4c/3x3 <- inception_4c/3x3_reduce
I0403 14:52:23.542551 11230 net.cpp:399] inception_4c/3x3 -> inception_4c/3x3
I0403 14:52:23.546166 11230 net.cpp:141] Setting up inception_4c/3x3
I0403 14:52:23.546210 11230 net.cpp:148] Top shape: 24 256 14 14 (1204224)
I0403 14:52:23.546226 11230 net.cpp:156] Memory required for data: 1042842912
I0403 14:52:23.546258 11230 layer_factory.hpp:77] Creating layer inception_4c/relu_3x3
I0403 14:52:23.546280 11230 net.cpp:91] Creating Layer inception_4c/relu_3x3
I0403 14:52:23.546298 11230 net.cpp:425] inception_4c/relu_3x3 <- inception_4c/3x3
I0403 14:52:23.546316 11230 net.cpp:386] inception_4c/relu_3x3 -> inception_4c/3x3 (in-place)
I0403 14:52:23.546505 11230 net.cpp:141] Setting up inception_4c/relu_3x3
I0403 14:52:23.546531 11230 net.cpp:148] Top shape: 24 256 14 14 (1204224)
I0403 14:52:23.546547 11230 net.cpp:156] Memory required for data: 1047659808
I0403 14:52:23.546562 11230 layer_factory.hpp:77] Creating layer inception_4c/5x5_reduce
I0403 14:52:23.546586 11230 net.cpp:91] Creating Layer inception_4c/5x5_reduce
I0403 14:52:23.546604 11230 net.cpp:425] inception_4c/5x5_reduce <- inception_4b/output_inception_4b/output_0_split_2
I0403 14:52:23.546627 11230 net.cpp:399] inception_4c/5x5_reduce -> inception_4c/5x5_reduce
I0403 14:52:23.547727 11230 net.cpp:141] Setting up inception_4c/5x5_reduce
I0403 14:52:23.547757 11230 net.cpp:148] Top shape: 24 24 14 14 (112896)
I0403 14:52:23.547772 11230 net.cpp:156] Memory required for data: 1048111392
I0403 14:52:23.547791 11230 layer_factory.hpp:77] Creating layer inception_4c/relu_5x5_reduce
I0403 14:52:23.547811 11230 net.cpp:91] Creating Layer inception_4c/relu_5x5_reduce
I0403 14:52:23.547827 11230 net.cpp:425] inception_4c/relu_5x5_reduce <- inception_4c/5x5_reduce
I0403 14:52:23.547847 11230 net.cpp:386] inception_4c/relu_5x5_reduce -> inception_4c/5x5_reduce (in-place)
I0403 14:52:23.548032 11230 net.cpp:141] Setting up inception_4c/relu_5x5_reduce
I0403 14:52:23.548058 11230 net.cpp:148] Top shape: 24 24 14 14 (112896)
I0403 14:52:23.548072 11230 net.cpp:156] Memory required for data: 1048562976
I0403 14:52:23.548087 11230 layer_factory.hpp:77] Creating layer inception_4c/5x5
I0403 14:52:23.548118 11230 net.cpp:91] Creating Layer inception_4c/5x5
I0403 14:52:23.548138 11230 net.cpp:425] inception_4c/5x5 <- inception_4c/5x5_reduce
I0403 14:52:23.548162 11230 net.cpp:399] inception_4c/5x5 -> inception_4c/5x5
I0403 14:52:23.549419 11230 net.cpp:141] Setting up inception_4c/5x5
I0403 14:52:23.549448 11230 net.cpp:148] Top shape: 24 64 14 14 (301056)
I0403 14:52:23.549463 11230 net.cpp:156] Memory required for data: 1049767200
I0403 14:52:23.549482 11230 layer_factory.hpp:77] Creating layer inception_4c/relu_5x5
I0403 14:52:23.549504 11230 net.cpp:91] Creating Layer inception_4c/relu_5x5
I0403 14:52:23.549521 11230 net.cpp:425] inception_4c/relu_5x5 <- inception_4c/5x5
I0403 14:52:23.549540 11230 net.cpp:386] inception_4c/relu_5x5 -> inception_4c/5x5 (in-place)
I0403 14:52:23.549832 11230 net.cpp:141] Setting up inception_4c/relu_5x5
I0403 14:52:23.549860 11230 net.cpp:148] Top shape: 24 64 14 14 (301056)
I0403 14:52:23.549875 11230 net.cpp:156] Memory required for data: 1050971424
I0403 14:52:23.549890 11230 layer_factory.hpp:77] Creating layer inception_4c/pool
I0403 14:52:23.549911 11230 net.cpp:91] Creating Layer inception_4c/pool
I0403 14:52:23.549929 11230 net.cpp:425] inception_4c/pool <- inception_4b/output_inception_4b/output_0_split_3
I0403 14:52:23.549948 11230 net.cpp:399] inception_4c/pool -> inception_4c/pool
I0403 14:52:23.550015 11230 net.cpp:141] Setting up inception_4c/pool
I0403 14:52:23.550040 11230 net.cpp:148] Top shape: 24 512 14 14 (2408448)
I0403 14:52:23.550055 11230 net.cpp:156] Memory required for data: 1060605216
I0403 14:52:23.550071 11230 layer_factory.hpp:77] Creating layer inception_4c/pool_proj
I0403 14:52:23.550101 11230 net.cpp:91] Creating Layer inception_4c/pool_proj
I0403 14:52:23.550123 11230 net.cpp:425] inception_4c/pool_proj <- inception_4c/pool
I0403 14:52:23.550145 11230 net.cpp:399] inception_4c/pool_proj -> inception_4c/pool_proj
I0403 14:52:23.551405 11230 net.cpp:141] Setting up inception_4c/pool_proj
I0403 14:52:23.551435 11230 net.cpp:148] Top shape: 24 64 14 14 (301056)
I0403 14:52:23.551467 11230 net.cpp:156] Memory required for data: 1061809440
I0403 14:52:23.551488 11230 layer_factory.hpp:77] Creating layer inception_4c/relu_pool_proj
I0403 14:52:23.551507 11230 net.cpp:91] Creating Layer inception_4c/relu_pool_proj
I0403 14:52:23.551524 11230 net.cpp:425] inception_4c/relu_pool_proj <- inception_4c/pool_proj
I0403 14:52:23.551547 11230 net.cpp:386] inception_4c/relu_pool_proj -> inception_4c/pool_proj (in-place)
I0403 14:52:23.551735 11230 net.cpp:141] Setting up inception_4c/relu_pool_proj
I0403 14:52:23.551762 11230 net.cpp:148] Top shape: 24 64 14 14 (301056)
I0403 14:52:23.551779 11230 net.cpp:156] Memory required for data: 1063013664
I0403 14:52:23.551794 11230 layer_factory.hpp:77] Creating layer inception_4c/output
I0403 14:52:23.551815 11230 net.cpp:91] Creating Layer inception_4c/output
I0403 14:52:23.551832 11230 net.cpp:425] inception_4c/output <- inception_4c/1x1
I0403 14:52:23.551851 11230 net.cpp:425] inception_4c/output <- inception_4c/3x3
I0403 14:52:23.551867 11230 net.cpp:425] inception_4c/output <- inception_4c/5x5
I0403 14:52:23.551883 11230 net.cpp:425] inception_4c/output <- inception_4c/pool_proj
I0403 14:52:23.551901 11230 net.cpp:399] inception_4c/output -> inception_4c/output
I0403 14:52:23.551949 11230 net.cpp:141] Setting up inception_4c/output
I0403 14:52:23.551976 11230 net.cpp:148] Top shape: 24 512 14 14 (2408448)
I0403 14:52:23.551993 11230 net.cpp:156] Memory required for data: 1072647456
I0403 14:52:23.552009 11230 layer_factory.hpp:77] Creating layer inception_4c/output_inception_4c/output_0_split
I0403 14:52:23.552027 11230 net.cpp:91] Creating Layer inception_4c/output_inception_4c/output_0_split
I0403 14:52:23.552043 11230 net.cpp:425] inception_4c/output_inception_4c/output_0_split <- inception_4c/output
I0403 14:52:23.552064 11230 net.cpp:399] inception_4c/output_inception_4c/output_0_split -> inception_4c/output_inception_4c/output_0_split_0
I0403 14:52:23.552088 11230 net.cpp:399] inception_4c/output_inception_4c/output_0_split -> inception_4c/output_inception_4c/output_0_split_1
I0403 14:52:23.552124 11230 net.cpp:399] inception_4c/output_inception_4c/output_0_split -> inception_4c/output_inception_4c/output_0_split_2
I0403 14:52:23.552147 11230 net.cpp:399] inception_4c/output_inception_4c/output_0_split -> inception_4c/output_inception_4c/output_0_split_3
I0403 14:52:23.552234 11230 net.cpp:141] Setting up inception_4c/output_inception_4c/output_0_split
I0403 14:52:23.552263 11230 net.cpp:148] Top shape: 24 512 14 14 (2408448)
I0403 14:52:23.552281 11230 net.cpp:148] Top shape: 24 512 14 14 (2408448)
I0403 14:52:23.552299 11230 net.cpp:148] Top shape: 24 512 14 14 (2408448)
I0403 14:52:23.552314 11230 net.cpp:148] Top shape: 24 512 14 14 (2408448)
I0403 14:52:23.552328 11230 net.cpp:156] Memory required for data: 1111182624
I0403 14:52:23.552345 11230 layer_factory.hpp:77] Creating layer inception_4d/1x1
I0403 14:52:23.552367 11230 net.cpp:91] Creating Layer inception_4d/1x1
I0403 14:52:23.552386 11230 net.cpp:425] inception_4d/1x1 <- inception_4c/output_inception_4c/output_0_split_0
I0403 14:52:23.552407 11230 net.cpp:399] inception_4d/1x1 -> inception_4d/1x1
I0403 14:52:23.553841 11230 net.cpp:141] Setting up inception_4d/1x1
I0403 14:52:23.553874 11230 net.cpp:148] Top shape: 24 112 14 14 (526848)
I0403 14:52:23.553891 11230 net.cpp:156] Memory required for data: 1113290016
I0403 14:52:23.553912 11230 layer_factory.hpp:77] Creating layer inception_4d/relu_1x1
I0403 14:52:23.553931 11230 net.cpp:91] Creating Layer inception_4d/relu_1x1
I0403 14:52:23.553948 11230 net.cpp:425] inception_4d/relu_1x1 <- inception_4d/1x1
I0403 14:52:23.553966 11230 net.cpp:386] inception_4d/relu_1x1 -> inception_4d/1x1 (in-place)
I0403 14:52:23.554177 11230 net.cpp:141] Setting up inception_4d/relu_1x1
I0403 14:52:23.554205 11230 net.cpp:148] Top shape: 24 112 14 14 (526848)
I0403 14:52:23.554221 11230 net.cpp:156] Memory required for data: 1115397408
I0403 14:52:23.554235 11230 layer_factory.hpp:77] Creating layer inception_4d/3x3_reduce
I0403 14:52:23.554277 11230 net.cpp:91] Creating Layer inception_4d/3x3_reduce
I0403 14:52:23.554297 11230 net.cpp:425] inception_4d/3x3_reduce <- inception_4c/output_inception_4c/output_0_split_1
I0403 14:52:23.554321 11230 net.cpp:399] inception_4d/3x3_reduce -> inception_4d/3x3_reduce
I0403 14:52:23.555889 11230 net.cpp:141] Setting up inception_4d/3x3_reduce
I0403 14:52:23.555919 11230 net.cpp:148] Top shape: 24 144 14 14 (677376)
I0403 14:52:23.555937 11230 net.cpp:156] Memory required for data: 1118106912
I0403 14:52:23.555956 11230 layer_factory.hpp:77] Creating layer inception_4d/relu_3x3_reduce
I0403 14:52:23.555977 11230 net.cpp:91] Creating Layer inception_4d/relu_3x3_reduce
I0403 14:52:23.555995 11230 net.cpp:425] inception_4d/relu_3x3_reduce <- inception_4d/3x3_reduce
I0403 14:52:23.556013 11230 net.cpp:386] inception_4d/relu_3x3_reduce -> inception_4d/3x3_reduce (in-place)
I0403 14:52:23.556318 11230 net.cpp:141] Setting up inception_4d/relu_3x3_reduce
I0403 14:52:23.556346 11230 net.cpp:148] Top shape: 24 144 14 14 (677376)
I0403 14:52:23.556362 11230 net.cpp:156] Memory required for data: 1120816416
I0403 14:52:23.556377 11230 layer_factory.hpp:77] Creating layer inception_4d/3x3
I0403 14:52:23.556401 11230 net.cpp:91] Creating Layer inception_4d/3x3
I0403 14:52:23.556421 11230 net.cpp:425] inception_4d/3x3 <- inception_4d/3x3_reduce
I0403 14:52:23.556442 11230 net.cpp:399] inception_4d/3x3 -> inception_4d/3x3
I0403 14:52:23.560966 11230 net.cpp:141] Setting up inception_4d/3x3
I0403 14:52:23.561000 11230 net.cpp:148] Top shape: 24 288 14 14 (1354752)
I0403 14:52:23.561019 11230 net.cpp:156] Memory required for data: 1126235424
I0403 14:52:23.561040 11230 layer_factory.hpp:77] Creating layer inception_4d/relu_3x3
I0403 14:52:23.561060 11230 net.cpp:91] Creating Layer inception_4d/relu_3x3
I0403 14:52:23.561077 11230 net.cpp:425] inception_4d/relu_3x3 <- inception_4d/3x3
I0403 14:52:23.561105 11230 net.cpp:386] inception_4d/relu_3x3 -> inception_4d/3x3 (in-place)
I0403 14:52:23.561305 11230 net.cpp:141] Setting up inception_4d/relu_3x3
I0403 14:52:23.561332 11230 net.cpp:148] Top shape: 24 288 14 14 (1354752)
I0403 14:52:23.561349 11230 net.cpp:156] Memory required for data: 1131654432
I0403 14:52:23.561367 11230 layer_factory.hpp:77] Creating layer inception_4d/5x5_reduce
I0403 14:52:23.561389 11230 net.cpp:91] Creating Layer inception_4d/5x5_reduce
I0403 14:52:23.561421 11230 net.cpp:425] inception_4d/5x5_reduce <- inception_4c/output_inception_4c/output_0_split_2
I0403 14:52:23.561444 11230 net.cpp:399] inception_4d/5x5_reduce -> inception_4d/5x5_reduce
I0403 14:52:23.562680 11230 net.cpp:141] Setting up inception_4d/5x5_reduce
I0403 14:52:23.562711 11230 net.cpp:148] Top shape: 24 32 14 14 (150528)
I0403 14:52:23.562728 11230 net.cpp:156] Memory required for data: 1132256544
I0403 14:52:23.562748 11230 layer_factory.hpp:77] Creating layer inception_4d/relu_5x5_reduce
I0403 14:52:23.562767 11230 net.cpp:91] Creating Layer inception_4d/relu_5x5_reduce
I0403 14:52:23.562784 11230 net.cpp:425] inception_4d/relu_5x5_reduce <- inception_4d/5x5_reduce
I0403 14:52:23.562803 11230 net.cpp:386] inception_4d/relu_5x5_reduce -> inception_4d/5x5_reduce (in-place)
I0403 14:52:23.562999 11230 net.cpp:141] Setting up inception_4d/relu_5x5_reduce
I0403 14:52:23.563026 11230 net.cpp:148] Top shape: 24 32 14 14 (150528)
I0403 14:52:23.563042 11230 net.cpp:156] Memory required for data: 1132858656
I0403 14:52:23.563058 11230 layer_factory.hpp:77] Creating layer inception_4d/5x5
I0403 14:52:23.563081 11230 net.cpp:91] Creating Layer inception_4d/5x5
I0403 14:52:23.563107 11230 net.cpp:425] inception_4d/5x5 <- inception_4d/5x5_reduce
I0403 14:52:23.563144 11230 net.cpp:399] inception_4d/5x5 -> inception_4d/5x5
I0403 14:52:23.564740 11230 net.cpp:141] Setting up inception_4d/5x5
I0403 14:52:23.564770 11230 net.cpp:148] Top shape: 24 64 14 14 (301056)
I0403 14:52:23.564787 11230 net.cpp:156] Memory required for data: 1134062880
I0403 14:52:23.564808 11230 layer_factory.hpp:77] Creating layer inception_4d/relu_5x5
I0403 14:52:23.564846 11230 net.cpp:91] Creating Layer inception_4d/relu_5x5
I0403 14:52:23.564865 11230 net.cpp:425] inception_4d/relu_5x5 <- inception_4d/5x5
I0403 14:52:23.564884 11230 net.cpp:386] inception_4d/relu_5x5 -> inception_4d/5x5 (in-place)
I0403 14:52:23.565217 11230 net.cpp:141] Setting up inception_4d/relu_5x5
I0403 14:52:23.565246 11230 net.cpp:148] Top shape: 24 64 14 14 (301056)
I0403 14:52:23.565263 11230 net.cpp:156] Memory required for data: 1135267104
I0403 14:52:23.565279 11230 layer_factory.hpp:77] Creating layer inception_4d/pool
I0403 14:52:23.565299 11230 net.cpp:91] Creating Layer inception_4d/pool
I0403 14:52:23.565315 11230 net.cpp:425] inception_4d/pool <- inception_4c/output_inception_4c/output_0_split_3
I0403 14:52:23.565337 11230 net.cpp:399] inception_4d/pool -> inception_4d/pool
I0403 14:52:23.565423 11230 net.cpp:141] Setting up inception_4d/pool
I0403 14:52:23.565448 11230 net.cpp:148] Top shape: 24 512 14 14 (2408448)
I0403 14:52:23.565464 11230 net.cpp:156] Memory required for data: 1144900896
I0403 14:52:23.565479 11230 layer_factory.hpp:77] Creating layer inception_4d/pool_proj
I0403 14:52:23.565502 11230 net.cpp:91] Creating Layer inception_4d/pool_proj
I0403 14:52:23.565521 11230 net.cpp:425] inception_4d/pool_proj <- inception_4d/pool
I0403 14:52:23.565543 11230 net.cpp:399] inception_4d/pool_proj -> inception_4d/pool_proj
I0403 14:52:23.567433 11230 net.cpp:141] Setting up inception_4d/pool_proj
I0403 14:52:23.567467 11230 net.cpp:148] Top shape: 24 64 14 14 (301056)
I0403 14:52:23.567486 11230 net.cpp:156] Memory required for data: 1146105120
I0403 14:52:23.567505 11230 layer_factory.hpp:77] Creating layer inception_4d/relu_pool_proj
I0403 14:52:23.567524 11230 net.cpp:91] Creating Layer inception_4d/relu_pool_proj
I0403 14:52:23.567543 11230 net.cpp:425] inception_4d/relu_pool_proj <- inception_4d/pool_proj
I0403 14:52:23.567564 11230 net.cpp:386] inception_4d/relu_pool_proj -> inception_4d/pool_proj (in-place)
I0403 14:52:23.567756 11230 net.cpp:141] Setting up inception_4d/relu_pool_proj
I0403 14:52:23.567783 11230 net.cpp:148] Top shape: 24 64 14 14 (301056)
I0403 14:52:23.567800 11230 net.cpp:156] Memory required for data: 1147309344
I0403 14:52:23.567816 11230 layer_factory.hpp:77] Creating layer inception_4d/output
I0403 14:52:23.567834 11230 net.cpp:91] Creating Layer inception_4d/output
I0403 14:52:23.567850 11230 net.cpp:425] inception_4d/output <- inception_4d/1x1
I0403 14:52:23.567867 11230 net.cpp:425] inception_4d/output <- inception_4d/3x3
I0403 14:52:23.567884 11230 net.cpp:425] inception_4d/output <- inception_4d/5x5
I0403 14:52:23.567901 11230 net.cpp:425] inception_4d/output <- inception_4d/pool_proj
I0403 14:52:23.567922 11230 net.cpp:399] inception_4d/output -> inception_4d/output
I0403 14:52:23.567971 11230 net.cpp:141] Setting up inception_4d/output
I0403 14:52:23.568001 11230 net.cpp:148] Top shape: 24 528 14 14 (2483712)
I0403 14:52:23.568017 11230 net.cpp:156] Memory required for data: 1157244192
I0403 14:52:23.568032 11230 layer_factory.hpp:77] Creating layer inception_4d/output_inception_4d/output_0_split
I0403 14:52:23.568051 11230 net.cpp:91] Creating Layer inception_4d/output_inception_4d/output_0_split
I0403 14:52:23.568068 11230 net.cpp:425] inception_4d/output_inception_4d/output_0_split <- inception_4d/output
I0403 14:52:23.568085 11230 net.cpp:399] inception_4d/output_inception_4d/output_0_split -> inception_4d/output_inception_4d/output_0_split_0
I0403 14:52:23.568131 11230 net.cpp:399] inception_4d/output_inception_4d/output_0_split -> inception_4d/output_inception_4d/output_0_split_1
I0403 14:52:23.568156 11230 net.cpp:399] inception_4d/output_inception_4d/output_0_split -> inception_4d/output_inception_4d/output_0_split_2
I0403 14:52:23.568181 11230 net.cpp:399] inception_4d/output_inception_4d/output_0_split -> inception_4d/output_inception_4d/output_0_split_3
I0403 14:52:23.568202 11230 net.cpp:399] inception_4d/output_inception_4d/output_0_split -> inception_4d/output_inception_4d/output_0_split_4
I0403 14:52:23.568315 11230 net.cpp:141] Setting up inception_4d/output_inception_4d/output_0_split
I0403 14:52:23.568353 11230 net.cpp:148] Top shape: 24 528 14 14 (2483712)
I0403 14:52:23.568374 11230 net.cpp:148] Top shape: 24 528 14 14 (2483712)
I0403 14:52:23.568392 11230 net.cpp:148] Top shape: 24 528 14 14 (2483712)
I0403 14:52:23.568420 11230 net.cpp:148] Top shape: 24 528 14 14 (2483712)
I0403 14:52:23.568436 11230 net.cpp:148] Top shape: 24 528 14 14 (2483712)
I0403 14:52:23.568451 11230 net.cpp:156] Memory required for data: 1206918432
I0403 14:52:23.568480 11230 layer_factory.hpp:77] Creating layer loss2/ave_pool
I0403 14:52:23.568498 11230 net.cpp:91] Creating Layer loss2/ave_pool
I0403 14:52:23.568516 11230 net.cpp:425] loss2/ave_pool <- inception_4d/output_inception_4d/output_0_split_0
I0403 14:52:23.568536 11230 net.cpp:399] loss2/ave_pool -> loss2/ave_pool
I0403 14:52:23.568881 11230 net.cpp:141] Setting up loss2/ave_pool
I0403 14:52:23.568912 11230 net.cpp:148] Top shape: 24 528 4 4 (202752)
I0403 14:52:23.568928 11230 net.cpp:156] Memory required for data: 1207729440
I0403 14:52:23.568945 11230 layer_factory.hpp:77] Creating layer loss2/conv
I0403 14:52:23.568969 11230 net.cpp:91] Creating Layer loss2/conv
I0403 14:52:23.568987 11230 net.cpp:425] loss2/conv <- loss2/ave_pool
I0403 14:52:23.569007 11230 net.cpp:399] loss2/conv -> loss2/conv
I0403 14:52:23.570963 11230 net.cpp:141] Setting up loss2/conv
I0403 14:52:23.570993 11230 net.cpp:148] Top shape: 24 128 4 4 (49152)
I0403 14:52:23.571010 11230 net.cpp:156] Memory required for data: 1207926048
I0403 14:52:23.571029 11230 layer_factory.hpp:77] Creating layer loss2/relu_conv
I0403 14:52:23.571048 11230 net.cpp:91] Creating Layer loss2/relu_conv
I0403 14:52:23.571065 11230 net.cpp:425] loss2/relu_conv <- loss2/conv
I0403 14:52:23.571085 11230 net.cpp:386] loss2/relu_conv -> loss2/conv (in-place)
I0403 14:52:23.571379 11230 net.cpp:141] Setting up loss2/relu_conv
I0403 14:52:23.571408 11230 net.cpp:148] Top shape: 24 128 4 4 (49152)
I0403 14:52:23.571422 11230 net.cpp:156] Memory required for data: 1208122656
I0403 14:52:23.571439 11230 layer_factory.hpp:77] Creating layer loss2/fc
I0403 14:52:23.571458 11230 net.cpp:91] Creating Layer loss2/fc
I0403 14:52:23.571475 11230 net.cpp:425] loss2/fc <- loss2/conv
I0403 14:52:23.571496 11230 net.cpp:399] loss2/fc -> loss2/fc
I0403 14:52:23.589182 11230 net.cpp:141] Setting up loss2/fc
I0403 14:52:23.589247 11230 net.cpp:148] Top shape: 24 1024 (24576)
I0403 14:52:23.589263 11230 net.cpp:156] Memory required for data: 1208220960
I0403 14:52:23.589284 11230 layer_factory.hpp:77] Creating layer loss2/relu_fc
I0403 14:52:23.589304 11230 net.cpp:91] Creating Layer loss2/relu_fc
I0403 14:52:23.589323 11230 net.cpp:425] loss2/relu_fc <- loss2/fc
I0403 14:52:23.589342 11230 net.cpp:386] loss2/relu_fc -> loss2/fc (in-place)
I0403 14:52:23.589704 11230 net.cpp:141] Setting up loss2/relu_fc
I0403 14:52:23.589732 11230 net.cpp:148] Top shape: 24 1024 (24576)
I0403 14:52:23.589748 11230 net.cpp:156] Memory required for data: 1208319264
I0403 14:52:23.589764 11230 layer_factory.hpp:77] Creating layer loss2/drop_fc
I0403 14:52:23.589782 11230 net.cpp:91] Creating Layer loss2/drop_fc
I0403 14:52:23.589798 11230 net.cpp:425] loss2/drop_fc <- loss2/fc
I0403 14:52:23.589818 11230 net.cpp:386] loss2/drop_fc -> loss2/fc (in-place)
I0403 14:52:23.589869 11230 net.cpp:141] Setting up loss2/drop_fc
I0403 14:52:23.589892 11230 net.cpp:148] Top shape: 24 1024 (24576)
I0403 14:52:23.589907 11230 net.cpp:156] Memory required for data: 1208417568
I0403 14:52:23.589922 11230 layer_factory.hpp:77] Creating layer loss2/classifier_plantvillage
I0403 14:52:23.589944 11230 net.cpp:91] Creating Layer loss2/classifier_plantvillage
I0403 14:52:23.589962 11230 net.cpp:425] loss2/classifier_plantvillage <- loss2/fc
I0403 14:52:23.589983 11230 net.cpp:399] loss2/classifier_plantvillage -> loss2/classifier_plantvillage
I0403 14:52:23.590404 11230 net.cpp:141] Setting up loss2/classifier_plantvillage
I0403 14:52:23.590431 11230 net.cpp:148] Top shape: 24 38 (912)
I0403 14:52:23.590473 11230 net.cpp:156] Memory required for data: 1208421216
I0403 14:52:23.590493 11230 layer_factory.hpp:77] Creating layer loss2/classifier_plantvillage_loss2/classifier_plantvillage_0_split
I0403 14:52:23.590512 11230 net.cpp:91] Creating Layer loss2/classifier_plantvillage_loss2/classifier_plantvillage_0_split
I0403 14:52:23.590529 11230 net.cpp:425] loss2/classifier_plantvillage_loss2/classifier_plantvillage_0_split <- loss2/classifier_plantvillage
I0403 14:52:23.590549 11230 net.cpp:399] loss2/classifier_plantvillage_loss2/classifier_plantvillage_0_split -> loss2/classifier_plantvillage_loss2/classifier_plantvillage_0_split_0
I0403 14:52:23.590571 11230 net.cpp:399] loss2/classifier_plantvillage_loss2/classifier_plantvillage_0_split -> loss2/classifier_plantvillage_loss2/classifier_plantvillage_0_split_1
I0403 14:52:23.590592 11230 net.cpp:399] loss2/classifier_plantvillage_loss2/classifier_plantvillage_0_split -> loss2/classifier_plantvillage_loss2/classifier_plantvillage_0_split_2
I0403 14:52:23.590672 11230 net.cpp:141] Setting up loss2/classifier_plantvillage_loss2/classifier_plantvillage_0_split
I0403 14:52:23.590698 11230 net.cpp:148] Top shape: 24 38 (912)
I0403 14:52:23.590713 11230 net.cpp:148] Top shape: 24 38 (912)
I0403 14:52:23.590729 11230 net.cpp:148] Top shape: 24 38 (912)
I0403 14:52:23.590742 11230 net.cpp:156] Memory required for data: 1208432160
I0403 14:52:23.590759 11230 layer_factory.hpp:77] Creating layer inception_4e/1x1
I0403 14:52:23.590782 11230 net.cpp:91] Creating Layer inception_4e/1x1
I0403 14:52:23.590801 11230 net.cpp:425] inception_4e/1x1 <- inception_4d/output_inception_4d/output_0_split_1
I0403 14:52:23.590821 11230 net.cpp:399] inception_4e/1x1 -> inception_4e/1x1
I0403 14:52:23.593806 11230 net.cpp:141] Setting up inception_4e/1x1
I0403 14:52:23.593834 11230 net.cpp:148] Top shape: 24 256 14 14 (1204224)
I0403 14:52:23.593850 11230 net.cpp:156] Memory required for data: 1213249056
I0403 14:52:23.593869 11230 layer_factory.hpp:77] Creating layer inception_4e/relu_1x1
I0403 14:52:23.593891 11230 net.cpp:91] Creating Layer inception_4e/relu_1x1
I0403 14:52:23.593909 11230 net.cpp:425] inception_4e/relu_1x1 <- inception_4e/1x1
I0403 14:52:23.593929 11230 net.cpp:386] inception_4e/relu_1x1 -> inception_4e/1x1 (in-place)
I0403 14:52:23.594231 11230 net.cpp:141] Setting up inception_4e/relu_1x1
I0403 14:52:23.594259 11230 net.cpp:148] Top shape: 24 256 14 14 (1204224)
I0403 14:52:23.594274 11230 net.cpp:156] Memory required for data: 1218065952
I0403 14:52:23.594290 11230 layer_factory.hpp:77] Creating layer inception_4e/3x3_reduce
I0403 14:52:23.594313 11230 net.cpp:91] Creating Layer inception_4e/3x3_reduce
I0403 14:52:23.594331 11230 net.cpp:425] inception_4e/3x3_reduce <- inception_4d/output_inception_4d/output_0_split_2
I0403 14:52:23.594353 11230 net.cpp:399] inception_4e/3x3_reduce -> inception_4e/3x3_reduce
I0403 14:52:23.596678 11230 net.cpp:141] Setting up inception_4e/3x3_reduce
I0403 14:52:23.596709 11230 net.cpp:148] Top shape: 24 160 14 14 (752640)
I0403 14:52:23.596726 11230 net.cpp:156] Memory required for data: 1221076512
I0403 14:52:23.596745 11230 layer_factory.hpp:77] Creating layer inception_4e/relu_3x3_reduce
I0403 14:52:23.596765 11230 net.cpp:91] Creating Layer inception_4e/relu_3x3_reduce
I0403 14:52:23.596781 11230 net.cpp:425] inception_4e/relu_3x3_reduce <- inception_4e/3x3_reduce
I0403 14:52:23.596801 11230 net.cpp:386] inception_4e/relu_3x3_reduce -> inception_4e/3x3_reduce (in-place)
I0403 14:52:23.596988 11230 net.cpp:141] Setting up inception_4e/relu_3x3_reduce
I0403 14:52:23.597015 11230 net.cpp:148] Top shape: 24 160 14 14 (752640)
I0403 14:52:23.597030 11230 net.cpp:156] Memory required for data: 1224087072
I0403 14:52:23.597045 11230 layer_factory.hpp:77] Creating layer inception_4e/3x3
I0403 14:52:23.597069 11230 net.cpp:91] Creating Layer inception_4e/3x3
I0403 14:52:23.597087 11230 net.cpp:425] inception_4e/3x3 <- inception_4e/3x3_reduce
I0403 14:52:23.597116 11230 net.cpp:399] inception_4e/3x3 -> inception_4e/3x3
I0403 14:52:23.602118 11230 net.cpp:141] Setting up inception_4e/3x3
I0403 14:52:23.602162 11230 net.cpp:148] Top shape: 24 320 14 14 (1505280)
I0403 14:52:23.602180 11230 net.cpp:156] Memory required for data: 1230108192
I0403 14:52:23.602198 11230 layer_factory.hpp:77] Creating layer inception_4e/relu_3x3
I0403 14:52:23.602221 11230 net.cpp:91] Creating Layer inception_4e/relu_3x3
I0403 14:52:23.602237 11230 net.cpp:425] inception_4e/relu_3x3 <- inception_4e/3x3
I0403 14:52:23.602255 11230 net.cpp:386] inception_4e/relu_3x3 -> inception_4e/3x3 (in-place)
I0403 14:52:23.602557 11230 net.cpp:141] Setting up inception_4e/relu_3x3
I0403 14:52:23.602587 11230 net.cpp:148] Top shape: 24 320 14 14 (1505280)
I0403 14:52:23.602604 11230 net.cpp:156] Memory required for data: 1236129312
I0403 14:52:23.602620 11230 layer_factory.hpp:77] Creating layer inception_4e/5x5_reduce
I0403 14:52:23.602644 11230 net.cpp:91] Creating Layer inception_4e/5x5_reduce
I0403 14:52:23.602663 11230 net.cpp:425] inception_4e/5x5_reduce <- inception_4d/output_inception_4d/output_0_split_3
I0403 14:52:23.602682 11230 net.cpp:399] inception_4e/5x5_reduce -> inception_4e/5x5_reduce
I0403 14:52:23.603772 11230 net.cpp:141] Setting up inception_4e/5x5_reduce
I0403 14:52:23.603801 11230 net.cpp:148] Top shape: 24 32 14 14 (150528)
I0403 14:52:23.603816 11230 net.cpp:156] Memory required for data: 1236731424
I0403 14:52:23.603837 11230 layer_factory.hpp:77] Creating layer inception_4e/relu_5x5_reduce
I0403 14:52:23.603857 11230 net.cpp:91] Creating Layer inception_4e/relu_5x5_reduce
I0403 14:52:23.603874 11230 net.cpp:425] inception_4e/relu_5x5_reduce <- inception_4e/5x5_reduce
I0403 14:52:23.603893 11230 net.cpp:386] inception_4e/relu_5x5_reduce -> inception_4e/5x5_reduce (in-place)
I0403 14:52:23.604197 11230 net.cpp:141] Setting up inception_4e/relu_5x5_reduce
I0403 14:52:23.604224 11230 net.cpp:148] Top shape: 24 32 14 14 (150528)
I0403 14:52:23.604240 11230 net.cpp:156] Memory required for data: 1237333536
I0403 14:52:23.604256 11230 layer_factory.hpp:77] Creating layer inception_4e/5x5
I0403 14:52:23.604298 11230 net.cpp:91] Creating Layer inception_4e/5x5
I0403 14:52:23.604320 11230 net.cpp:425] inception_4e/5x5 <- inception_4e/5x5_reduce
I0403 14:52:23.604341 11230 net.cpp:399] inception_4e/5x5 -> inception_4e/5x5
I0403 14:52:23.606195 11230 net.cpp:141] Setting up inception_4e/5x5
I0403 14:52:23.606226 11230 net.cpp:148] Top shape: 24 128 14 14 (602112)
I0403 14:52:23.606245 11230 net.cpp:156] Memory required for data: 1239741984
I0403 14:52:23.606264 11230 layer_factory.hpp:77] Creating layer inception_4e/relu_5x5
I0403 14:52:23.606282 11230 net.cpp:91] Creating Layer inception_4e/relu_5x5
I0403 14:52:23.606299 11230 net.cpp:425] inception_4e/relu_5x5 <- inception_4e/5x5
I0403 14:52:23.606318 11230 net.cpp:386] inception_4e/relu_5x5 -> inception_4e/5x5 (in-place)
I0403 14:52:23.606518 11230 net.cpp:141] Setting up inception_4e/relu_5x5
I0403 14:52:23.606544 11230 net.cpp:148] Top shape: 24 128 14 14 (602112)
I0403 14:52:23.606559 11230 net.cpp:156] Memory required for data: 1242150432
I0403 14:52:23.606575 11230 layer_factory.hpp:77] Creating layer inception_4e/pool
I0403 14:52:23.606593 11230 net.cpp:91] Creating Layer inception_4e/pool
I0403 14:52:23.606609 11230 net.cpp:425] inception_4e/pool <- inception_4d/output_inception_4d/output_0_split_4
I0403 14:52:23.606629 11230 net.cpp:399] inception_4e/pool -> inception_4e/pool
I0403 14:52:23.606703 11230 net.cpp:141] Setting up inception_4e/pool
I0403 14:52:23.606727 11230 net.cpp:148] Top shape: 24 528 14 14 (2483712)
I0403 14:52:23.606742 11230 net.cpp:156] Memory required for data: 1252085280
I0403 14:52:23.606757 11230 layer_factory.hpp:77] Creating layer inception_4e/pool_proj
I0403 14:52:23.606781 11230 net.cpp:91] Creating Layer inception_4e/pool_proj
I0403 14:52:23.606798 11230 net.cpp:425] inception_4e/pool_proj <- inception_4e/pool
I0403 14:52:23.606818 11230 net.cpp:399] inception_4e/pool_proj -> inception_4e/pool_proj
I0403 14:52:23.608338 11230 net.cpp:141] Setting up inception_4e/pool_proj
I0403 14:52:23.608381 11230 net.cpp:148] Top shape: 24 128 14 14 (602112)
I0403 14:52:23.608399 11230 net.cpp:156] Memory required for data: 1254493728
I0403 14:52:23.608420 11230 layer_factory.hpp:77] Creating layer inception_4e/relu_pool_proj
I0403 14:52:23.608439 11230 net.cpp:91] Creating Layer inception_4e/relu_pool_proj
I0403 14:52:23.608454 11230 net.cpp:425] inception_4e/relu_pool_proj <- inception_4e/pool_proj
I0403 14:52:23.608474 11230 net.cpp:386] inception_4e/relu_pool_proj -> inception_4e/pool_proj (in-place)
I0403 14:52:23.608770 11230 net.cpp:141] Setting up inception_4e/relu_pool_proj
I0403 14:52:23.608800 11230 net.cpp:148] Top shape: 24 128 14 14 (602112)
I0403 14:52:23.608817 11230 net.cpp:156] Memory required for data: 1256902176
I0403 14:52:23.608834 11230 layer_factory.hpp:77] Creating layer inception_4e/output
I0403 14:52:23.608851 11230 net.cpp:91] Creating Layer inception_4e/output
I0403 14:52:23.608868 11230 net.cpp:425] inception_4e/output <- inception_4e/1x1
I0403 14:52:23.608885 11230 net.cpp:425] inception_4e/output <- inception_4e/3x3
I0403 14:52:23.608901 11230 net.cpp:425] inception_4e/output <- inception_4e/5x5
I0403 14:52:23.608917 11230 net.cpp:425] inception_4e/output <- inception_4e/pool_proj
I0403 14:52:23.608939 11230 net.cpp:399] inception_4e/output -> inception_4e/output
I0403 14:52:23.608989 11230 net.cpp:141] Setting up inception_4e/output
I0403 14:52:23.609014 11230 net.cpp:148] Top shape: 24 832 14 14 (3913728)
I0403 14:52:23.609030 11230 net.cpp:156] Memory required for data: 1272557088
I0403 14:52:23.609043 11230 layer_factory.hpp:77] Creating layer pool4/3x3_s2
I0403 14:52:23.609064 11230 net.cpp:91] Creating Layer pool4/3x3_s2
I0403 14:52:23.609081 11230 net.cpp:425] pool4/3x3_s2 <- inception_4e/output
I0403 14:52:23.609104 11230 net.cpp:399] pool4/3x3_s2 -> pool4/3x3_s2
I0403 14:52:23.609179 11230 net.cpp:141] Setting up pool4/3x3_s2
I0403 14:52:23.609203 11230 net.cpp:148] Top shape: 24 832 7 7 (978432)
I0403 14:52:23.609218 11230 net.cpp:156] Memory required for data: 1276470816
I0403 14:52:23.609232 11230 layer_factory.hpp:77] Creating layer pool4/3x3_s2_pool4/3x3_s2_0_split
I0403 14:52:23.609251 11230 net.cpp:91] Creating Layer pool4/3x3_s2_pool4/3x3_s2_0_split
I0403 14:52:23.609266 11230 net.cpp:425] pool4/3x3_s2_pool4/3x3_s2_0_split <- pool4/3x3_s2
I0403 14:52:23.609285 11230 net.cpp:399] pool4/3x3_s2_pool4/3x3_s2_0_split -> pool4/3x3_s2_pool4/3x3_s2_0_split_0
I0403 14:52:23.609308 11230 net.cpp:399] pool4/3x3_s2_pool4/3x3_s2_0_split -> pool4/3x3_s2_pool4/3x3_s2_0_split_1
I0403 14:52:23.609328 11230 net.cpp:399] pool4/3x3_s2_pool4/3x3_s2_0_split -> pool4/3x3_s2_pool4/3x3_s2_0_split_2
I0403 14:52:23.609349 11230 net.cpp:399] pool4/3x3_s2_pool4/3x3_s2_0_split -> pool4/3x3_s2_pool4/3x3_s2_0_split_3
I0403 14:52:23.609441 11230 net.cpp:141] Setting up pool4/3x3_s2_pool4/3x3_s2_0_split
I0403 14:52:23.609467 11230 net.cpp:148] Top shape: 24 832 7 7 (978432)
I0403 14:52:23.609483 11230 net.cpp:148] Top shape: 24 832 7 7 (978432)
I0403 14:52:23.609499 11230 net.cpp:148] Top shape: 24 832 7 7 (978432)
I0403 14:52:23.609515 11230 net.cpp:148] Top shape: 24 832 7 7 (978432)
I0403 14:52:23.609529 11230 net.cpp:156] Memory required for data: 1292125728
I0403 14:52:23.609544 11230 layer_factory.hpp:77] Creating layer inception_5a/1x1
I0403 14:52:23.609566 11230 net.cpp:91] Creating Layer inception_5a/1x1
I0403 14:52:23.609585 11230 net.cpp:425] inception_5a/1x1 <- pool4/3x3_s2_pool4/3x3_s2_0_split_0
I0403 14:52:23.609606 11230 net.cpp:399] inception_5a/1x1 -> inception_5a/1x1
I0403 14:52:23.612576 11230 net.cpp:141] Setting up inception_5a/1x1
I0403 14:52:23.612607 11230 net.cpp:148] Top shape: 24 256 7 7 (301056)
I0403 14:52:23.612623 11230 net.cpp:156] Memory required for data: 1293329952
I0403 14:52:23.612643 11230 layer_factory.hpp:77] Creating layer inception_5a/relu_1x1
I0403 14:52:23.612663 11230 net.cpp:91] Creating Layer inception_5a/relu_1x1
I0403 14:52:23.612679 11230 net.cpp:425] inception_5a/relu_1x1 <- inception_5a/1x1
I0403 14:52:23.612699 11230 net.cpp:386] inception_5a/relu_1x1 -> inception_5a/1x1 (in-place)
I0403 14:52:23.613024 11230 net.cpp:141] Setting up inception_5a/relu_1x1
I0403 14:52:23.613052 11230 net.cpp:148] Top shape: 24 256 7 7 (301056)
I0403 14:52:23.613080 11230 net.cpp:156] Memory required for data: 1294534176
I0403 14:52:23.613108 11230 layer_factory.hpp:77] Creating layer inception_5a/3x3_reduce
I0403 14:52:23.613136 11230 net.cpp:91] Creating Layer inception_5a/3x3_reduce
I0403 14:52:23.613157 11230 net.cpp:425] inception_5a/3x3_reduce <- pool4/3x3_s2_pool4/3x3_s2_0_split_1
I0403 14:52:23.613180 11230 net.cpp:399] inception_5a/3x3_reduce -> inception_5a/3x3_reduce
I0403 14:52:23.615734 11230 net.cpp:141] Setting up inception_5a/3x3_reduce
I0403 14:52:23.615767 11230 net.cpp:148] Top shape: 24 160 7 7 (188160)
I0403 14:52:23.615783 11230 net.cpp:156] Memory required for data: 1295286816
I0403 14:52:23.615803 11230 layer_factory.hpp:77] Creating layer inception_5a/relu_3x3_reduce
I0403 14:52:23.615824 11230 net.cpp:91] Creating Layer inception_5a/relu_3x3_reduce
I0403 14:52:23.615841 11230 net.cpp:425] inception_5a/relu_3x3_reduce <- inception_5a/3x3_reduce
I0403 14:52:23.615859 11230 net.cpp:386] inception_5a/relu_3x3_reduce -> inception_5a/3x3_reduce (in-place)
I0403 14:52:23.616056 11230 net.cpp:141] Setting up inception_5a/relu_3x3_reduce
I0403 14:52:23.616085 11230 net.cpp:148] Top shape: 24 160 7 7 (188160)
I0403 14:52:23.616104 11230 net.cpp:156] Memory required for data: 1296039456
I0403 14:52:23.616120 11230 layer_factory.hpp:77] Creating layer inception_5a/3x3
I0403 14:52:23.616144 11230 net.cpp:91] Creating Layer inception_5a/3x3
I0403 14:52:23.616163 11230 net.cpp:425] inception_5a/3x3 <- inception_5a/3x3_reduce
I0403 14:52:23.616186 11230 net.cpp:399] inception_5a/3x3 -> inception_5a/3x3
I0403 14:52:23.621410 11230 net.cpp:141] Setting up inception_5a/3x3
I0403 14:52:23.621445 11230 net.cpp:148] Top shape: 24 320 7 7 (376320)
I0403 14:52:23.621464 11230 net.cpp:156] Memory required for data: 1297544736
I0403 14:52:23.621484 11230 layer_factory.hpp:77] Creating layer inception_5a/relu_3x3
I0403 14:52:23.621501 11230 net.cpp:91] Creating Layer inception_5a/relu_3x3
I0403 14:52:23.621518 11230 net.cpp:425] inception_5a/relu_3x3 <- inception_5a/3x3
I0403 14:52:23.621538 11230 net.cpp:386] inception_5a/relu_3x3 -> inception_5a/3x3 (in-place)
I0403 14:52:23.621842 11230 net.cpp:141] Setting up inception_5a/relu_3x3
I0403 14:52:23.621872 11230 net.cpp:148] Top shape: 24 320 7 7 (376320)
I0403 14:52:23.621889 11230 net.cpp:156] Memory required for data: 1299050016
I0403 14:52:23.621906 11230 layer_factory.hpp:77] Creating layer inception_5a/5x5_reduce
I0403 14:52:23.621930 11230 net.cpp:91] Creating Layer inception_5a/5x5_reduce
I0403 14:52:23.621949 11230 net.cpp:425] inception_5a/5x5_reduce <- pool4/3x3_s2_pool4/3x3_s2_0_split_2
I0403 14:52:23.621973 11230 net.cpp:399] inception_5a/5x5_reduce -> inception_5a/5x5_reduce
I0403 14:52:23.623208 11230 net.cpp:141] Setting up inception_5a/5x5_reduce
I0403 14:52:23.623239 11230 net.cpp:148] Top shape: 24 32 7 7 (37632)
I0403 14:52:23.623255 11230 net.cpp:156] Memory required for data: 1299200544
I0403 14:52:23.623275 11230 layer_factory.hpp:77] Creating layer inception_5a/relu_5x5_reduce
I0403 14:52:23.623294 11230 net.cpp:91] Creating Layer inception_5a/relu_5x5_reduce
I0403 14:52:23.623311 11230 net.cpp:425] inception_5a/relu_5x5_reduce <- inception_5a/5x5_reduce
I0403 14:52:23.623332 11230 net.cpp:386] inception_5a/relu_5x5_reduce -> inception_5a/5x5_reduce (in-place)
I0403 14:52:23.623651 11230 net.cpp:141] Setting up inception_5a/relu_5x5_reduce
I0403 14:52:23.623679 11230 net.cpp:148] Top shape: 24 32 7 7 (37632)
I0403 14:52:23.623695 11230 net.cpp:156] Memory required for data: 1299351072
I0403 14:52:23.623713 11230 layer_factory.hpp:77] Creating layer inception_5a/5x5
I0403 14:52:23.623735 11230 net.cpp:91] Creating Layer inception_5a/5x5
I0403 14:52:23.623755 11230 net.cpp:425] inception_5a/5x5 <- inception_5a/5x5_reduce
I0403 14:52:23.623778 11230 net.cpp:399] inception_5a/5x5 -> inception_5a/5x5
I0403 14:52:23.625574 11230 net.cpp:141] Setting up inception_5a/5x5
I0403 14:52:23.625620 11230 net.cpp:148] Top shape: 24 128 7 7 (150528)
I0403 14:52:23.625638 11230 net.cpp:156] Memory required for data: 1299953184
I0403 14:52:23.625658 11230 layer_factory.hpp:77] Creating layer inception_5a/relu_5x5
I0403 14:52:23.625677 11230 net.cpp:91] Creating Layer inception_5a/relu_5x5
I0403 14:52:23.625694 11230 net.cpp:425] inception_5a/relu_5x5 <- inception_5a/5x5
I0403 14:52:23.625715 11230 net.cpp:386] inception_5a/relu_5x5 -> inception_5a/5x5 (in-place)
I0403 14:52:23.625912 11230 net.cpp:141] Setting up inception_5a/relu_5x5
I0403 14:52:23.625939 11230 net.cpp:148] Top shape: 24 128 7 7 (150528)
I0403 14:52:23.625955 11230 net.cpp:156] Memory required for data: 1300555296
I0403 14:52:23.625972 11230 layer_factory.hpp:77] Creating layer inception_5a/pool
I0403 14:52:23.625990 11230 net.cpp:91] Creating Layer inception_5a/pool
I0403 14:52:23.626008 11230 net.cpp:425] inception_5a/pool <- pool4/3x3_s2_pool4/3x3_s2_0_split_3
I0403 14:52:23.626029 11230 net.cpp:399] inception_5a/pool -> inception_5a/pool
I0403 14:52:23.626111 11230 net.cpp:141] Setting up inception_5a/pool
I0403 14:52:23.626137 11230 net.cpp:148] Top shape: 24 832 7 7 (978432)
I0403 14:52:23.626153 11230 net.cpp:156] Memory required for data: 1304469024
I0403 14:52:23.626168 11230 layer_factory.hpp:77] Creating layer inception_5a/pool_proj
I0403 14:52:23.626191 11230 net.cpp:91] Creating Layer inception_5a/pool_proj
I0403 14:52:23.626210 11230 net.cpp:425] inception_5a/pool_proj <- inception_5a/pool
I0403 14:52:23.626231 11230 net.cpp:399] inception_5a/pool_proj -> inception_5a/pool_proj
I0403 14:52:23.628633 11230 net.cpp:141] Setting up inception_5a/pool_proj
I0403 14:52:23.628671 11230 net.cpp:148] Top shape: 24 128 7 7 (150528)
I0403 14:52:23.628710 11230 net.cpp:156] Memory required for data: 1305071136
I0403 14:52:23.628734 11230 layer_factory.hpp:77] Creating layer inception_5a/relu_pool_proj
I0403 14:52:23.628754 11230 net.cpp:91] Creating Layer inception_5a/relu_pool_proj
I0403 14:52:23.628783 11230 net.cpp:425] inception_5a/relu_pool_proj <- inception_5a/pool_proj
I0403 14:52:23.628803 11230 net.cpp:386] inception_5a/relu_pool_proj -> inception_5a/pool_proj (in-place)
I0403 14:52:23.629132 11230 net.cpp:141] Setting up inception_5a/relu_pool_proj
I0403 14:52:23.629163 11230 net.cpp:148] Top shape: 24 128 7 7 (150528)
I0403 14:52:23.629180 11230 net.cpp:156] Memory required for data: 1305673248
I0403 14:52:23.629196 11230 layer_factory.hpp:77] Creating layer inception_5a/output
I0403 14:52:23.629215 11230 net.cpp:91] Creating Layer inception_5a/output
I0403 14:52:23.629232 11230 net.cpp:425] inception_5a/output <- inception_5a/1x1
I0403 14:52:23.629250 11230 net.cpp:425] inception_5a/output <- inception_5a/3x3
I0403 14:52:23.629267 11230 net.cpp:425] inception_5a/output <- inception_5a/5x5
I0403 14:52:23.629283 11230 net.cpp:425] inception_5a/output <- inception_5a/pool_proj
I0403 14:52:23.629302 11230 net.cpp:399] inception_5a/output -> inception_5a/output
I0403 14:52:23.629369 11230 net.cpp:141] Setting up inception_5a/output
I0403 14:52:23.629393 11230 net.cpp:148] Top shape: 24 832 7 7 (978432)
I0403 14:52:23.629407 11230 net.cpp:156] Memory required for data: 1309586976
I0403 14:52:23.629421 11230 layer_factory.hpp:77] Creating layer inception_5a/output_inception_5a/output_0_split
I0403 14:52:23.629441 11230 net.cpp:91] Creating Layer inception_5a/output_inception_5a/output_0_split
I0403 14:52:23.629458 11230 net.cpp:425] inception_5a/output_inception_5a/output_0_split <- inception_5a/output
I0403 14:52:23.629477 11230 net.cpp:399] inception_5a/output_inception_5a/output_0_split -> inception_5a/output_inception_5a/output_0_split_0
I0403 14:52:23.629497 11230 net.cpp:399] inception_5a/output_inception_5a/output_0_split -> inception_5a/output_inception_5a/output_0_split_1
I0403 14:52:23.629516 11230 net.cpp:399] inception_5a/output_inception_5a/output_0_split -> inception_5a/output_inception_5a/output_0_split_2
I0403 14:52:23.629539 11230 net.cpp:399] inception_5a/output_inception_5a/output_0_split -> inception_5a/output_inception_5a/output_0_split_3
I0403 14:52:23.629657 11230 net.cpp:141] Setting up inception_5a/output_inception_5a/output_0_split
I0403 14:52:23.629680 11230 net.cpp:148] Top shape: 24 832 7 7 (978432)
I0403 14:52:23.629698 11230 net.cpp:148] Top shape: 24 832 7 7 (978432)
I0403 14:52:23.629714 11230 net.cpp:148] Top shape: 24 832 7 7 (978432)
I0403 14:52:23.629729 11230 net.cpp:148] Top shape: 24 832 7 7 (978432)
I0403 14:52:23.629744 11230 net.cpp:156] Memory required for data: 1325241888
I0403 14:52:23.629757 11230 layer_factory.hpp:77] Creating layer inception_5b/1x1
I0403 14:52:23.629779 11230 net.cpp:91] Creating Layer inception_5b/1x1
I0403 14:52:23.629797 11230 net.cpp:425] inception_5b/1x1 <- inception_5a/output_inception_5a/output_0_split_0
I0403 14:52:23.629819 11230 net.cpp:399] inception_5b/1x1 -> inception_5b/1x1
I0403 14:52:23.633620 11230 net.cpp:141] Setting up inception_5b/1x1
I0403 14:52:23.633651 11230 net.cpp:148] Top shape: 24 384 7 7 (451584)
I0403 14:52:23.633667 11230 net.cpp:156] Memory required for data: 1327048224
I0403 14:52:23.633687 11230 layer_factory.hpp:77] Creating layer inception_5b/relu_1x1
I0403 14:52:23.633708 11230 net.cpp:91] Creating Layer inception_5b/relu_1x1
I0403 14:52:23.633725 11230 net.cpp:425] inception_5b/relu_1x1 <- inception_5b/1x1
I0403 14:52:23.633743 11230 net.cpp:386] inception_5b/relu_1x1 -> inception_5b/1x1 (in-place)
I0403 14:52:23.634047 11230 net.cpp:141] Setting up inception_5b/relu_1x1
I0403 14:52:23.634074 11230 net.cpp:148] Top shape: 24 384 7 7 (451584)
I0403 14:52:23.634090 11230 net.cpp:156] Memory required for data: 1328854560
I0403 14:52:23.634110 11230 layer_factory.hpp:77] Creating layer inception_5b/3x3_reduce
I0403 14:52:23.634140 11230 net.cpp:91] Creating Layer inception_5b/3x3_reduce
I0403 14:52:23.634160 11230 net.cpp:425] inception_5b/3x3_reduce <- inception_5a/output_inception_5a/output_0_split_1
I0403 14:52:23.634179 11230 net.cpp:399] inception_5b/3x3_reduce -> inception_5b/3x3_reduce
I0403 14:52:23.636854 11230 net.cpp:141] Setting up inception_5b/3x3_reduce
I0403 14:52:23.636888 11230 net.cpp:148] Top shape: 24 192 7 7 (225792)
I0403 14:52:23.636904 11230 net.cpp:156] Memory required for data: 1329757728
I0403 14:52:23.636924 11230 layer_factory.hpp:77] Creating layer inception_5b/relu_3x3_reduce
I0403 14:52:23.636942 11230 net.cpp:91] Creating Layer inception_5b/relu_3x3_reduce
I0403 14:52:23.636958 11230 net.cpp:425] inception_5b/relu_3x3_reduce <- inception_5b/3x3_reduce
I0403 14:52:23.636976 11230 net.cpp:386] inception_5b/relu_3x3_reduce -> inception_5b/3x3_reduce (in-place)
I0403 14:52:23.637193 11230 net.cpp:141] Setting up inception_5b/relu_3x3_reduce
I0403 14:52:23.637220 11230 net.cpp:148] Top shape: 24 192 7 7 (225792)
I0403 14:52:23.637235 11230 net.cpp:156] Memory required for data: 1330660896
I0403 14:52:23.637251 11230 layer_factory.hpp:77] Creating layer inception_5b/3x3
I0403 14:52:23.637275 11230 net.cpp:91] Creating Layer inception_5b/3x3
I0403 14:52:23.637293 11230 net.cpp:425] inception_5b/3x3 <- inception_5b/3x3_reduce
I0403 14:52:23.637327 11230 net.cpp:399] inception_5b/3x3 -> inception_5b/3x3
I0403 14:52:23.644062 11230 net.cpp:141] Setting up inception_5b/3x3
I0403 14:52:23.644099 11230 net.cpp:148] Top shape: 24 384 7 7 (451584)
I0403 14:52:23.644117 11230 net.cpp:156] Memory required for data: 1332467232
I0403 14:52:23.644137 11230 layer_factory.hpp:77] Creating layer inception_5b/relu_3x3
I0403 14:52:23.644156 11230 net.cpp:91] Creating Layer inception_5b/relu_3x3
I0403 14:52:23.644172 11230 net.cpp:425] inception_5b/relu_3x3 <- inception_5b/3x3
I0403 14:52:23.644189 11230 net.cpp:386] inception_5b/relu_3x3 -> inception_5b/3x3 (in-place)
I0403 14:52:23.644491 11230 net.cpp:141] Setting up inception_5b/relu_3x3
I0403 14:52:23.644520 11230 net.cpp:148] Top shape: 24 384 7 7 (451584)
I0403 14:52:23.644537 11230 net.cpp:156] Memory required for data: 1334273568
I0403 14:52:23.644553 11230 layer_factory.hpp:77] Creating layer inception_5b/5x5_reduce
I0403 14:52:23.644595 11230 net.cpp:91] Creating Layer inception_5b/5x5_reduce
I0403 14:52:23.644614 11230 net.cpp:425] inception_5b/5x5_reduce <- inception_5a/output_inception_5a/output_0_split_2
I0403 14:52:23.644634 11230 net.cpp:399] inception_5b/5x5_reduce -> inception_5b/5x5_reduce
I0403 14:52:23.645922 11230 net.cpp:141] Setting up inception_5b/5x5_reduce
I0403 14:52:23.645952 11230 net.cpp:148] Top shape: 24 48 7 7 (56448)
I0403 14:52:23.645970 11230 net.cpp:156] Memory required for data: 1334499360
I0403 14:52:23.645990 11230 layer_factory.hpp:77] Creating layer inception_5b/relu_5x5_reduce
I0403 14:52:23.646008 11230 net.cpp:91] Creating Layer inception_5b/relu_5x5_reduce
I0403 14:52:23.646024 11230 net.cpp:425] inception_5b/relu_5x5_reduce <- inception_5b/5x5_reduce
I0403 14:52:23.646044 11230 net.cpp:386] inception_5b/relu_5x5_reduce -> inception_5b/5x5_reduce (in-place)
I0403 14:52:23.646423 11230 net.cpp:141] Setting up inception_5b/relu_5x5_reduce
I0403 14:52:23.646451 11230 net.cpp:148] Top shape: 24 48 7 7 (56448)
I0403 14:52:23.646467 11230 net.cpp:156] Memory required for data: 1334725152
I0403 14:52:23.646482 11230 layer_factory.hpp:77] Creating layer inception_5b/5x5
I0403 14:52:23.646503 11230 net.cpp:91] Creating Layer inception_5b/5x5
I0403 14:52:23.646520 11230 net.cpp:425] inception_5b/5x5 <- inception_5b/5x5_reduce
I0403 14:52:23.646539 11230 net.cpp:399] inception_5b/5x5 -> inception_5b/5x5
I0403 14:52:23.648635 11230 net.cpp:141] Setting up inception_5b/5x5
I0403 14:52:23.648665 11230 net.cpp:148] Top shape: 24 128 7 7 (150528)
I0403 14:52:23.648681 11230 net.cpp:156] Memory required for data: 1335327264
I0403 14:52:23.648700 11230 layer_factory.hpp:77] Creating layer inception_5b/relu_5x5
I0403 14:52:23.648720 11230 net.cpp:91] Creating Layer inception_5b/relu_5x5
I0403 14:52:23.648737 11230 net.cpp:425] inception_5b/relu_5x5 <- inception_5b/5x5
I0403 14:52:23.648756 11230 net.cpp:386] inception_5b/relu_5x5 -> inception_5b/5x5 (in-place)
I0403 14:52:23.648952 11230 net.cpp:141] Setting up inception_5b/relu_5x5
I0403 14:52:23.648978 11230 net.cpp:148] Top shape: 24 128 7 7 (150528)
I0403 14:52:23.648993 11230 net.cpp:156] Memory required for data: 1335929376
I0403 14:52:23.649009 11230 layer_factory.hpp:77] Creating layer inception_5b/pool
I0403 14:52:23.649030 11230 net.cpp:91] Creating Layer inception_5b/pool
I0403 14:52:23.649047 11230 net.cpp:425] inception_5b/pool <- inception_5a/output_inception_5a/output_0_split_3
I0403 14:52:23.649065 11230 net.cpp:399] inception_5b/pool -> inception_5b/pool
I0403 14:52:23.649145 11230 net.cpp:141] Setting up inception_5b/pool
I0403 14:52:23.649170 11230 net.cpp:148] Top shape: 24 832 7 7 (978432)
I0403 14:52:23.649185 11230 net.cpp:156] Memory required for data: 1339843104
I0403 14:52:23.649200 11230 layer_factory.hpp:77] Creating layer inception_5b/pool_proj
I0403 14:52:23.649224 11230 net.cpp:91] Creating Layer inception_5b/pool_proj
I0403 14:52:23.649241 11230 net.cpp:425] inception_5b/pool_proj <- inception_5b/pool
I0403 14:52:23.649262 11230 net.cpp:399] inception_5b/pool_proj -> inception_5b/pool_proj
I0403 14:52:23.651597 11230 net.cpp:141] Setting up inception_5b/pool_proj
I0403 14:52:23.651633 11230 net.cpp:148] Top shape: 24 128 7 7 (150528)
I0403 14:52:23.651650 11230 net.cpp:156] Memory required for data: 1340445216
I0403 14:52:23.651679 11230 layer_factory.hpp:77] Creating layer inception_5b/relu_pool_proj
I0403 14:52:23.651697 11230 net.cpp:91] Creating Layer inception_5b/relu_pool_proj
I0403 14:52:23.651713 11230 net.cpp:425] inception_5b/relu_pool_proj <- inception_5b/pool_proj
I0403 14:52:23.651733 11230 net.cpp:386] inception_5b/relu_pool_proj -> inception_5b/pool_proj (in-place)
I0403 14:52:23.652034 11230 net.cpp:141] Setting up inception_5b/relu_pool_proj
I0403 14:52:23.652063 11230 net.cpp:148] Top shape: 24 128 7 7 (150528)
I0403 14:52:23.652079 11230 net.cpp:156] Memory required for data: 1341047328
I0403 14:52:23.652099 11230 layer_factory.hpp:77] Creating layer inception_5b/output
I0403 14:52:23.652119 11230 net.cpp:91] Creating Layer inception_5b/output
I0403 14:52:23.652151 11230 net.cpp:425] inception_5b/output <- inception_5b/1x1
I0403 14:52:23.652169 11230 net.cpp:425] inception_5b/output <- inception_5b/3x3
I0403 14:52:23.652185 11230 net.cpp:425] inception_5b/output <- inception_5b/5x5
I0403 14:52:23.652202 11230 net.cpp:425] inception_5b/output <- inception_5b/pool_proj
I0403 14:52:23.652222 11230 net.cpp:399] inception_5b/output -> inception_5b/output
I0403 14:52:23.652276 11230 net.cpp:141] Setting up inception_5b/output
I0403 14:52:23.652300 11230 net.cpp:148] Top shape: 24 1024 7 7 (1204224)
I0403 14:52:23.652314 11230 net.cpp:156] Memory required for data: 1345864224
I0403 14:52:23.652329 11230 layer_factory.hpp:77] Creating layer pool5/7x7_s1
I0403 14:52:23.652350 11230 net.cpp:91] Creating Layer pool5/7x7_s1
I0403 14:52:23.652369 11230 net.cpp:425] pool5/7x7_s1 <- inception_5b/output
I0403 14:52:23.652387 11230 net.cpp:399] pool5/7x7_s1 -> pool5/7x7_s1
I0403 14:52:23.652608 11230 net.cpp:141] Setting up pool5/7x7_s1
I0403 14:52:23.652636 11230 net.cpp:148] Top shape: 24 1024 1 1 (24576)
I0403 14:52:23.652649 11230 net.cpp:156] Memory required for data: 1345962528
I0403 14:52:23.652663 11230 layer_factory.hpp:77] Creating layer pool5/drop_7x7_s1
I0403 14:52:23.652681 11230 net.cpp:91] Creating Layer pool5/drop_7x7_s1
I0403 14:52:23.652698 11230 net.cpp:425] pool5/drop_7x7_s1 <- pool5/7x7_s1
I0403 14:52:23.652719 11230 net.cpp:386] pool5/drop_7x7_s1 -> pool5/7x7_s1 (in-place)
I0403 14:52:23.652770 11230 net.cpp:141] Setting up pool5/drop_7x7_s1
I0403 14:52:23.652793 11230 net.cpp:148] Top shape: 24 1024 1 1 (24576)
I0403 14:52:23.652808 11230 net.cpp:156] Memory required for data: 1346060832
I0403 14:52:23.652822 11230 layer_factory.hpp:77] Creating layer loss3/classifier_plantvillage
I0403 14:52:23.652844 11230 net.cpp:91] Creating Layer loss3/classifier_plantvillage
I0403 14:52:23.652863 11230 net.cpp:425] loss3/classifier_plantvillage <- pool5/7x7_s1
I0403 14:52:23.652884 11230 net.cpp:399] loss3/classifier_plantvillage -> loss3/classifier_plantvillage
I0403 14:52:23.653327 11230 net.cpp:141] Setting up loss3/classifier_plantvillage
I0403 14:52:23.653354 11230 net.cpp:148] Top shape: 24 38 (912)
I0403 14:52:23.653369 11230 net.cpp:156] Memory required for data: 1346064480
I0403 14:52:23.653388 11230 layer_factory.hpp:77] Creating layer loss3/classifier_plantvillage_loss3/classifier_plantvillage_0_split
I0403 14:52:23.653409 11230 net.cpp:91] Creating Layer loss3/classifier_plantvillage_loss3/classifier_plantvillage_0_split
I0403 14:52:23.653427 11230 net.cpp:425] loss3/classifier_plantvillage_loss3/classifier_plantvillage_0_split <- loss3/classifier_plantvillage
I0403 14:52:23.653445 11230 net.cpp:399] loss3/classifier_plantvillage_loss3/classifier_plantvillage_0_split -> loss3/classifier_plantvillage_loss3/classifier_plantvillage_0_split_0
I0403 14:52:23.653465 11230 net.cpp:399] loss3/classifier_plantvillage_loss3/classifier_plantvillage_0_split -> loss3/classifier_plantvillage_loss3/classifier_plantvillage_0_split_1
I0403 14:52:23.653483 11230 net.cpp:399] loss3/classifier_plantvillage_loss3/classifier_plantvillage_0_split -> loss3/classifier_plantvillage_loss3/classifier_plantvillage_0_split_2
I0403 14:52:23.653507 11230 net.cpp:399] loss3/classifier_plantvillage_loss3/classifier_plantvillage_0_split -> loss3/classifier_plantvillage_loss3/classifier_plantvillage_0_split_3
I0403 14:52:23.653614 11230 net.cpp:141] Setting up loss3/classifier_plantvillage_loss3/classifier_plantvillage_0_split
I0403 14:52:23.653637 11230 net.cpp:148] Top shape: 24 38 (912)
I0403 14:52:23.653655 11230 net.cpp:148] Top shape: 24 38 (912)
I0403 14:52:23.653678 11230 net.cpp:148] Top shape: 24 38 (912)
I0403 14:52:23.653693 11230 net.cpp:148] Top shape: 24 38 (912)
I0403 14:52:23.653707 11230 net.cpp:156] Memory required for data: 1346079072
I0403 14:52:23.653722 11230 layer_factory.hpp:77] Creating layer loss1/loss
I0403 14:52:23.653743 11230 net.cpp:91] Creating Layer loss1/loss
I0403 14:52:23.653761 11230 net.cpp:425] loss1/loss <- loss1/classifier_plantvillage_loss1/classifier_plantvillage_0_split_0
I0403 14:52:23.653796 11230 net.cpp:425] loss1/loss <- label_data_1_split_0
…
