…
I0403 14:49:33.010471 11169 net.cpp:313] The NetState phase (1) differed from the phase (0) specified by a rule in layer data
I0403 14:49:33.011638 11169 net.cpp:49] Initializing net from parameters: 
state {
  phase: TEST
}
layer {
  name: "data"
  type: "Data"
  top: "data"
  top: "label"
  include {
    phase: TEST
  }
  transform_param {
    mirror: false
    crop_size: 224
    mean_file: "/home/mohanty/data/final_dataset/lmdb/grayscale-60-40/mean.binaryproto"
  }
  data_param {
    source: "/home/mohanty/data/final_dataset/lmdb/grayscale-60-40/test_db"
    batch_size: 24
    backend: LMDB
  }
}
layer {
  name: "conv1/7x7_s2"
  type: "Convolution"
  bottom: "data"
  top: "conv1/7x7_s2"
  param {
    lr_mult: 1
    decay_mult: 1
  }
  param {
    lr_mult: 2
    decay_mult: 0
  }
  convolution_param {
    num_output: 64
    pad: 3
    kernel_size: 7
    stride: 2
    weight_filler {
      type: "xavier"
      std: 0.1
    }
    bias_filler {
      type: "constant"
      value: 0.2
    }
  }
}
layer {
  name: "conv1/relu_7x7"
  type: "ReLU"
  bottom: "conv1/7x7_s2"
  top: "conv1/7x7_s2"
}
layer {
  name: "pool1/3x3_s2"
  type: "Pooling"
  bottom: "conv1/7x7_s2"
  top: "pool1/3x3_s2"
  pooling_param {
    pool: MAX
    kernel_size: 3
    stride: 2
  }
}
layer {
  name: "pool1/norm1"
  type: "LRN"
  bottom: "pool1/3x3_s2"
  top: "pool1/norm1"
  lrn_param {
    local_size: 5
    alpha: 0.0001
    beta: 0.75
  }
}
layer {
  name: "conv2/3x3_reduce"
  type: "Convolution"
  bottom: "pool1/norm1"
  top: "conv2/3x3_reduce"
  param {
    lr_mult: 1
    decay_mult: 1
  }
  param {
    lr_mult: 2
    decay_mult: 0
  }
  convolution_param {
    num_output: 64
    kernel_size: 1
    weight_filler {
      type: "xavier"
      std: 0.1
    }
    bias_filler {
      type: "constant"
      value: 0.2
    }
  }
}
layer {
  name: "conv2/relu_3x3_reduce"
  type: "ReLU"
  bottom: "conv2/3x3_reduce"
  top: "conv2/3x3_reduce"
}
layer {
  name: "conv2/3x3"
  type: "Convolution"
  bottom: "conv2/3x3_reduce"
  top: "conv2/3x3"
  param {
    lr_mult: 1
    decay_mult: 1
  }
  param {
    lr_mult: 2
    decay_mult: 0
  }
  convolution_param {
    num_output: 192
    pad: 1
    kernel_size: 3
    weight_filler {
      type: "xavier"
      std: 0.03
    }
    bias_filler {
      type: "constant"
      value: 0.2
    }
  }
}
layer {
  name: "conv2/relu_3x3"
  type: "ReLU"
  bottom: "conv2/3x3"
  top: "conv2/3x3"
}
layer {
  name: "conv2/norm2"
  type: "LRN"
  bottom: "conv2/3x3"
  top: "conv2/norm2"
  lrn_param {
    local_size: 5
    alpha: 0.0001
    beta: 0.75
  }
}
layer {
  name: "pool2/3x3_s2"
  type: "Pooling"
  bottom: "conv2/norm2"
  top: "pool2/3x3_s2"
  pooling_param {
    pool: MAX
    kernel_size: 3
    stride: 2
  }
}
layer {
  name: "inception_3a/1x1"
  type: "Convolution"
  bottom: "pool2/3x3_s2"
  top: "inception_3a/1x1"
  param {
    lr_mult: 1
    decay_mult: 1
  }
  param {
    lr_mult: 2
    decay_mult: 0
  }
  convolution_param {
    num_output: 64
    kernel_size: 1
    weight_filler {
      type: "xavier"
      std: 0.03
    }
    bias_filler {
      type: "constant"
      value: 0.2
    }
  }
}
layer {
  name: "inception_3a/relu_1x1"
  type: "ReLU"
  bottom: "inception_3a/1x1"
  top: "inception_3a/1x1"
}
layer {
  name: "inception_3a/3x3_reduce"
  type: "Convolution"
  bottom: "pool2/3x3_s2"
  top: "inception_3a/3x3_reduce"
  param {
    lr_mult: 1
    decay_mult: 1
  }
  param {
    lr_mult: 2
    decay_mult: 0
  }
  convolution_param {
    num_output: 96
    kernel_size: 1
    weight_filler {
      type: "xavier"
      std: 0.09
    }
    bias_filler {
      type: "constant"
      value: 0.2
    }
  }
}
layer {
  name: "inception_3a/relu_3x3_reduce"
  type: "ReLU"
  bottom: "inception_3a/3x3_reduce"
  top: "inception_3a/3x3_reduce"
}
layer {
  name: "inception_3a/3x3"
  type: "Convolution"
  bottom: "inception_3a/3x3_reduce"
  top: "inception_3a/3x3"
  param {
    lr_mult: 1
    decay_mult: 1
  }
  param {
    lr_mult: 2
    decay_mult: 0
  }
  convolution_param {
    num_output: 128
    pad: 1
    kernel_size: 3
    weight_filler {
      type: "xavier"
      std: 0.03
    }
    bias_filler {
      type: "constant"
      value: 0.2
    }
  }
}
layer {
  name: "inception_3a/relu_3x3"
  type: "ReLU"
  bottom: "inception_3a/3x3"
  top: "inception_3a/3x3"
}
layer {
  name: "inception_3a/5x5_reduce"
  type: "Convolution"
  bottom: "pool2/3x3_s2"
  top: "inception_3a/5x5_reduce"
  param {
    lr_mult: 1
    decay_mult: 1
  }
  param {
    lr_mult: 2
    decay_mult: 0
  }
  convolution_param {
    num_output: 16
    kernel_size: 1
    weight_filler {
      type: "xavier"
      std: 0.2
    }
    bias_filler {
      type: "constant"
      value: 0.2
    }
  }
}
layer {
  name: "inception_3a/relu_5x5_reduce"
  type: "ReLU"
  bottom: "inception_3a/5x5_reduce"
  top: "inception_3a/5x5_reduce"
}
layer {
  name: "inception_3a/5x5"
  type: "Convolution"
  bottom: "inception_3a/5x5_reduce"
  top: "inception_3a/5x5"
  param {
    lr_mult: 1
    decay_mult: 1
  }
  param {
    lr_mult: 2
    decay_mult: 0
  }
  convolution_param {
    num_output: 32
    pad: 2
    kernel_size: 5
    weight_filler {
      type: "xavier"
      std: 0.03
    }
    bias_filler {
      type: "constant"
      value: 0.2
    }
  }
}
layer {
  name: "inception_3a/relu_5x5"
  type: "ReLU"
  bottom: "inception_3a/5x5"
  top: "inception_3a/5x5"
}
layer {
  name: "inception_3a/pool"
  type: "Pooling"
  bottom: "pool2/3x3_s2"
  top: "inception_3a/pool"
  pooling_param {
    pool: MAX
    kernel_size: 3
    stride: 1
    pad: 1
  }
}
layer {
  name: "inception_3a/pool_proj"
  type: "Convolution"
  bottom: "inception_3a/pool"
  top: "inception_3a/pool_proj"
  param {
    lr_mult: 1
    decay_mult: 1
  }
  param {
    lr_mult: 2
    decay_mult: 0
  }
  convolution_param {
    num_output: 32
    kernel_size: 1
    weight_filler {
      type: "xavier"
      std: 0.1
    }
    bias_filler {
      type: "constant"
      value: 0.2
    }
  }
}
layer {
  name: "inception_3a/relu_pool_proj"
  type: "ReLU"
  bottom: "inception_3a/pool_proj"
  top: "inception_3a/pool_proj"
}
layer {
  name: "inception_3a/output"
  type: "Concat"
  bottom: "inception_3a/1x1"
  bottom: "inception_3a/3x3"
  bottom: "inception_3a/5x5"
  bottom: "inception_3a/pool_proj"
  top: "inception_3a/output"
}
layer {
  name: "inception_3b/1x1"
  type: "Convolution"
  bottom: "inception_3a/output"
  top: "inception_3b/1x1"
  param {
    lr_mult: 1
    decay_mult: 1
  }
  param {
    lr_mult: 2
    decay_mult: 0
  }
  convolution_param {
    num_output: 128
    kernel_size: 1
    weight_filler {
      type: "xavier"
      std: 0.03
    }
    bias_filler {
      type: "constant"
      value: 0.2
    }
  }
}
layer {
  name: "inception_3b/relu_1x1"
  type: "ReLU"
  bottom: "inception_3b/1x1"
  top: "inception_3b/1x1"
}
layer {
  name: "inception_3b/3x3_reduce"
  type: "Convolution"
  bottom: "inception_3a/output"
  top: "inception_3b/3x3_reduce"
  param {
    lr_mult: 1
    decay_mult: 1
  }
  param {
    lr_mult: 2
    decay_mult: 0
  }
  convolution_param {
    num_output: 128
    kernel_size: 1
    weight_filler {
      type: "xavier"
      std: 0.09
    }
    bias_filler {
      type: "constant"
      value: 0.2
    }
  }
}
layer {
  name: "inception_3b/relu_3x3_reduce"
  type: "ReLU"
  bottom: "inception_3b/3x3_reduce"
  top: "inception_3b/3x3_reduce"
}
layer {
  name: "inception_3b/3x3"
  type: "Convolution"
  bottom: "inception_3b/3x3_reduce"
  top: "inception_3b/3x3"
  param {
    lr_mult: 1
    decay_mult: 1
  }
  param {
    lr_mult: 2
    decay_mult: 0
  }
  convolution_param {
    num_output: 192
    pad: 1
    kernel_size: 3
    weight_filler {
      type: "xavier"
      std: 0.03
    }
    bias_filler {
      type: "constant"
      value: 0.2
    }
  }
}
layer {
  name: "inception_3b/relu_3x3"
  type: "ReLU"
  bottom: "inception_3b/3x3"
  top: "inception_3b/3x3"
}
layer {
  name: "inception_3b/5x5_reduce"
  type: "Convolution"
  bottom: "inception_3a/output"
  top: "inception_3b/5x5_reduce"
  param {
    lr_mult: 1
    decay_mult: 1
  }
  param {
    lr_mult: 2
    decay_mult: 0
  }
  convolution_param {
    num_output: 32
    kernel_size: 1
    weight_filler {
      type: "xavier"
      std: 0.2
    }
    bias_filler {
      type: "constant"
      value: 0.2
    }
  }
}
layer {
  name: "inception_3b/relu_5x5_reduce"
  type: "ReLU"
  bottom: "inception_3b/5x5_reduce"
  top: "inception_3b/5x5_reduce"
}
layer {
  name: "inception_3b/5x5"
  type: "Convolution"
  bottom: "inception_3b/5x5_reduce"
  top: "inception_3b/5x5"
  param {
    lr_mult: 1
    decay_mult: 1
  }
  param {
    lr_mult: 2
    decay_mult: 0
  }
  convolution_param {
    num_output: 96
    pad: 2
    kernel_size: 5
    weight_filler {
      type: "xavier"
      std: 0.03
    }
    bias_filler {
      type: "constant"
      value: 0.2
    }
  }
}
layer {
  name: "inception_3b/relu_5x5"
  type: "ReLU"
  bottom: "inception_3b/5x5"
  top: "inception_3b/5x5"
}
layer {
  name: "inception_3b/pool"
  type: "Pooling"
  bottom: "inception_3a/output"
  top: "inception_3b/pool"
  pooling_param {
    pool: MAX
    kernel_size: 3
    stride: 1
    pad: 1
  }
}
layer {
  name: "inception_3b/pool_proj"
  type: "Convolution"
  bottom: "inception_3b/pool"
  top: "inception_3b/pool_proj"
  param {
    lr_mult: 1
    decay_mult: 1
  }
  param {
    lr_mult: 2
    decay_mult: 0
  }
  convolution_param {
    num_output: 64
    kernel_size: 1
    weight_filler {
      type: "xavier"
      std: 0.1
    }
    bias_filler {
      type: "constant"
      value: 0.2
    }
  }
}
layer {
  name: "inception_3b/relu_pool_proj"
  type: "ReLU"
  bottom: "inception_3b/pool_proj"
  top: "inception_3b/pool_proj"
}
layer {
  name: "inception_3b/output"
  type: "Concat"
  bottom: "inception_3b/1x1"
  bottom: "inception_3b/3x3"
  bottom: "inception_3b/5x5"
  bottom: "inception_3b/pool_proj"
  top: "inception_3b/output"
}
layer {
  name: "pool3/3x3_s2"
  type: "Pooling"
  bottom: "inception_3b/output"
  top: "pool3/3x3_s2"
  pooling_param {
    pool: MAX
    kernel_size: 3
    stride: 2
  }
}
layer {
  name: "inception_4a/1x1"
  type: "Convolution"
  bottom: "pool3/3x3_s2"
  top: "inception_4a/1x1"
  param {
    lr_mult: 1
    decay_mult: 1
  }
  param {
    lr_mult: 2
    decay_mult: 0
  }
  convolution_param {
    num_output: 192
    kernel_size: 1
    weight_filler {
      type: "xavier"
      std: 0.03
    }
    bias_filler {
      type: "constant"
      value: 0.2
    }
  }
}
layer {
  name: "inception_4a/relu_1x1"
  type: "ReLU"
  bottom: "inception_4a/1x1"
  top: "inception_4a/1x1"
}
layer {
  name: "inception_4a/3x3_reduce"
  type: "Convolution"
  bottom: "pool3/3x3_s2"
  top: "inception_4a/3x3_reduce"
  param {
    lr_mult: 1
    decay_mult: 1
  }
  param {
    lr_mult: 2
    decay_mult: 0
  }
  convolution_param {
    num_output: 96
    kernel_size: 1
    weight_filler {
      type: "xavier"
      std: 0.09
    }
    bias_filler {
      type: "constant"
      value: 0.2
    }
  }
}
layer {
  name: "inception_4a/relu_3x3_reduce"
  type: "ReLU"
  bottom: "inception_4a/3x3_reduce"
  top: "inception_4a/3x3_reduce"
}
layer {
  name: "inception_4a/3x3"
  type: "Convolution"
  bottom: "inception_4a/3x3_reduce"
  top: "inception_4a/3x3"
  param {
    lr_mult: 1
    decay_mult: 1
  }
  param {
    lr_mult: 2
    decay_mult: 0
  }
  convolution_param {
    num_output: 208
    pad: 1
    kernel_size: 3
    weight_filler {
      type: "xavier"
      std: 0.03
    }
    bias_filler {
      type: "constant"
      value: 0.2
    }
  }
}
layer {
  name: "inception_4a/relu_3x3"
  type: "ReLU"
  bottom: "inception_4a/3x3"
  top: "inception_4a/3x3"
}
layer {
  name: "inception_4a/5x5_reduce"
  type: "Convolution"
  bottom: "pool3/3x3_s2"
  top: "inception_4a/5x5_reduce"
  param {
    lr_mult: 1
    decay_mult: 1
  }
  param {
    lr_mult: 2
    decay_mult: 0
  }
  convolution_param {
    num_output: 16
    kernel_size: 1
    weight_filler {
      type: "xavier"
      std: 0.2
    }
    bias_filler {
      type: "constant"
      value: 0.2
    }
  }
}
layer {
  name: "inception_4a/relu_5x5_reduce"
  type: "ReLU"
  bottom: "inception_4a/5x5_reduce"
  top: "inception_4a/5x5_reduce"
}
layer {
  name: "inception_4a/5x5"
  type: "Convolution"
  bottom: "inception_4a/5x5_reduce"
  top: "inception_4a/5x5"
  param {
    lr_mult: 1
    decay_mult: 1
  }
  param {
    lr_mult: 2
    decay_mult: 0
  }
  convolution_param {
    num_output: 48
    pad: 2
    kernel_size: 5
    weight_filler {
      type: "xavier"
      std: 0.03
    }
    bias_filler {
      type: "constant"
      value: 0.2
    }
  }
}
layer {
  name: "inception_4a/relu_5x5"
  type: "ReLU"
  bottom: "inception_4a/5x5"
  top: "inception_4a/5x5"
}
layer {
  name: "inception_4a/pool"
  type: "Pooling"
  bottom: "pool3/3x3_s2"
  top: "inception_4a/pool"
  pooling_param {
    pool: MAX
    kernel_size: 3
    stride: 1
    pad: 1
  }
}
layer {
  name: "inception_4a/pool_proj"
  type: "Convolution"
  bottom: "inception_4a/pool"
  top: "inception_4a/pool_proj"
  param {
    lr_mult: 1
    decay_mult: 1
  }
  param {
    lr_mult: 2
    decay_mult: 0
  }
  convolution_param {
    num_output: 64
    kernel_size: 1
    weight_filler {
      type: "xavier"
      std: 0.1
    }
    bias_filler {
      type: "constant"
      value: 0.2
    }
  }
}
layer {
  name: "inception_4a/relu_pool_proj"
  type: "ReLU"
  bottom: "inception_4a/pool_proj"
  top: "inception_4a/pool_proj"
}
layer {
  name: "inception_4a/output"
  type: "Concat"
  bottom: "inception_4a/1x1"
  bottom: "inception_4a/3x3"
  bottom: "inception_4a/5x5"
  bottom: "inception_4a/pool_proj"
  top: "inception_4a/output"
}
layer {
  name: "loss1/ave_pool"
  type: "Pooling"
  bottom: "inception_4a/output"
  top: "loss1/ave_pool"
  pooling_param {
    pool: AVE
    kernel_size: 5
    stride: 3
  }
}
layer {
  name: "loss1/conv"
  type: "Convolution"
  bottom: "loss1/ave_pool"
  top: "loss1/conv"
  param {
    lr_mult: 1
    decay_mult: 1
  }
  param {
    lr_mult: 2
    decay_mult: 0
  }
  convolution_param {
    num_output: 128
    kernel_size: 1
    weight_filler {
      type: "xavier"
      std: 0.08
    }
    bias_filler {
      type: "constant"
      value: 0.2
    }
  }
}
layer {
  name: "loss1/relu_conv"
  type: "ReLU"
  bottom: "loss1/conv"
  top: "loss1/conv"
}
layer {
  name: "loss1/fc"
  type: "InnerProduct"
  bottom: "loss1/conv"
  top: "loss1/fc"
  param {
    lr_mult: 1
    decay_mult: 1
  }
  param {
    lr_mult: 2
    decay_mult: 0
  }
  inner_product_param {
    num_output: 1024
    weight_filler {
      type: "xavier"
      std: 0.02
    }
    bias_filler {
      type: "constant"
      value: 0.2
    }
  }
}
layer {
  name: "loss1/relu_fc"
  type: "ReLU"
  bottom: "loss1/fc"
  top: "loss1/fc"
}
layer {
  name: "loss1/drop_fc"
  type: "Dropout"
  bottom: "loss1/fc"
  top: "loss1/fc"
  dropout_param {
    dropout_ratio: 0.7
  }
}
layer {
  name: "loss1/classifier_plantvillage"
  type: "InnerProduct"
  bottom: "loss1/fc"
  top: "loss1/classifier_plantvillage"
  param {
    lr_mult: 1
    decay_mult: 1
  }
  param {
    lr_mult: 2
    decay_mult: 0
  }
  inner_product_param {
    num_output: 38
    weight_filler {
      type: "xavier"
      std: 0.0009765625
    }
    bias_filler {
      type: "constant"
      value: 0
    }
  }
}
layer {
  name: "inception_4b/1x1"
  type: "Convolution"
  bottom: "inception_4a/output"
  top: "inception_4b/1x1"
  param {
    lr_mult: 1
    decay_mult: 1
  }
  param {
    lr_mult: 2
    decay_mult: 0
  }
  convolution_param {
    num_output: 160
    kernel_size: 1
    weight_filler {
      type: "xavier"
      std: 0.03
    }
    bias_filler {
      type: "constant"
      value: 0.2
    }
  }
}
layer {
  name: "inception_4b/relu_1x1"
  type: "ReLU"
  bottom: "inception_4b/1x1"
  top: "inception_4b/1x1"
}
layer {
  name: "inception_4b/3x3_reduce"
  type: "Convolution"
  bottom: "inception_4a/output"
  top: "inception_4b/3x3_reduce"
  param {
    lr_mult: 1
    decay_mult: 1
  }
  param {
    lr_mult: 2
    decay_mult: 0
  }
  convolution_param {
    num_output: 112
    kernel_size: 1
    weight_filler {
      type: "xavier"
      std: 0.09
    }
    bias_filler {
      type: "constant"
      value: 0.2
    }
  }
}
layer {
  name: "inception_4b/relu_3x3_reduce"
  type: "ReLU"
  bottom: "inception_4b/3x3_reduce"
  top: "inception_4b/3x3_reduce"
}
layer {
  name: "inception_4b/3x3"
  type: "Convolution"
  bottom: "inception_4b/3x3_reduce"
  top: "inception_4b/3x3"
  param {
    lr_mult: 1
    decay_mult: 1
  }
  param {
    lr_mult: 2
    decay_mult: 0
  }
  convolution_param {
    num_output: 224
    pad: 1
    kernel_size: 3
    weight_filler {
      type: "xavier"
      std: 0.03
    }
    bias_filler {
      type: "constant"
      value: 0.2
    }
  }
}
layer {
  name: "inception_4b/relu_3x3"
  type: "ReLU"
  bottom: "inception_4b/3x3"
  top: "inception_4b/3x3"
}
layer {
  name: "inception_4b/5x5_reduce"
  type: "Convolution"
  bottom: "inception_4a/output"
  top: "inception_4b/5x5_reduce"
  param {
    lr_mult: 1
    decay_mult: 1
  }
  param {
    lr_mult: 2
    decay_mult: 0
  }
  convolution_param {
    num_output: 24
    kernel_size: 1
    weight_filler {
      type: "xavier"
      std: 0.2
    }
    bias_filler {
      type: "constant"
      value: 0.2
    }
  }
}
layer {
  name: "inception_4b/relu_5x5_reduce"
  type: "ReLU"
  bottom: "inception_4b/5x5_reduce"
  top: "inception_4b/5x5_reduce"
}
layer {
  name: "inception_4b/5x5"
  type: "Convolution"
  bottom: "inception_4b/5x5_reduce"
  top: "inception_4b/5x5"
  param {
    lr_mult: 1
    decay_mult: 1
  }
  param {
    lr_mult: 2
    decay_mult: 0
  }
  convolution_param {
    num_output: 64
    pad: 2
    kernel_size: 5
    weight_filler {
      type: "xavier"
      std: 0.03
    }
    bias_filler {
      type: "constant"
      value: 0.2
    }
  }
}
layer {
  name: "inception_4b/relu_5x5"
  type: "ReLU"
  bottom: "inception_4b/5x5"
  top: "inception_4b/5x5"
}
layer {
  name: "inception_4b/pool"
  type: "Pooling"
  bottom: "inception_4a/output"
  top: "inception_4b/pool"
  pooling_param {
    pool: MAX
    kernel_size: 3
    stride: 1
    pad: 1
  }
}
layer {
  name: "inception_4b/pool_proj"
  type: "Convolution"
  bottom: "inception_4b/pool"
  top: "inception_4b/pool_proj"
  param {
    lr_mult: 1
    decay_mult: 1
  }
  param {
    lr_mult: 2
    decay_mult: 0
  }
  convolution_param {
    num_output: 64
    kernel_size: 1
    weight_filler {
      type: "xavier"
      std: 0.1
    }
    bias_filler {
      type: "constant"
      value: 0.2
    }
  }
}
layer {
  name: "inception_4b/relu_pool_proj"
  type: "ReLU"
  bottom: "inception_4b/pool_proj"
  top: "inception_4b/pool_proj"
}
layer {
  name: "inception_4b/output"
  type: "Concat"
  bottom: "inception_4b/1x1"
  bottom: "inception_4b/3x3"
  bottom: "inception_4b/5x5"
  bottom: "inception_4b/pool_proj"
  top: "inception_4b/output"
}
layer {
  name: "inception_4c/1x1"
  type: "Convolution"
  bottom: "inception_4b/output"
  top: "inception_4c/1x1"
  param {
    lr_mult: 1
    decay_mult: 1
  }
  param {
    lr_mult: 2
    decay_mult: 0
  }
  convolution_param {
    num_output: 128
    kernel_size: 1
    weight_filler {
      type: "xavier"
      std: 0.03
    }
    bias_filler {
      type: "constant"
      value: 0.2
    }
  }
}
layer {
  name: "inception_4c/relu_1x1"
  type: "ReLU"
  bottom: "inception_4c/1x1"
  top: "inception_4c/1x1"
}
layer {
  name: "inception_4c/3x3_reduce"
  type: "Convolution"
  bottom: "inception_4b/output"
  top: "inception_4c/3x3_reduce"
  param {
    lr_mult: 1
    decay_mult: 1
  }
  param {
    lr_mult: 2
    decay_mult: 0
  }
  convolution_param {
    num_output: 128
    kernel_size: 1
    weight_filler {
      type: "xavier"
      std: 0.09
    }
    bias_filler {
      type: "constant"
      value: 0.2
    }
  }
}
layer {
  name: "inception_4c/relu_3x3_reduce"
  type: "ReLU"
  bottom: "inception_4c/3x3_reduce"
  top: "inception_4c/3x3_reduce"
}
layer {
  name: "inception_4c/3x3"
  type: "Convolution"
  bottom: "inception_4c/3x3_reduce"
  top: "inception_4c/3x3"
  param {
    lr_mult: 1
    decay_mult: 1
  }
  param {
    lr_mult: 2
    decay_mult: 0
  }
  convolution_param {
    num_output: 256
    pad: 1
    kernel_size: 3
    weight_filler {
      type: "xavier"
      std: 0.03
    }
    bias_filler {
      type: "constant"
      value: 0.2
    }
  }
}
layer {
  name: "inception_4c/relu_3x3"
  type: "ReLU"
  bottom: "inception_4c/3x3"
  top: "inception_4c/3x3"
}
layer {
  name: "inception_4c/5x5_reduce"
  type: "Convolution"
  bottom: "inception_4b/output"
  top: "inception_4c/5x5_reduce"
  param {
    lr_mult: 1
    decay_mult: 1
  }
  param {
    lr_mult: 2
    decay_mult: 0
  }
  convolution_param {
    num_output: 24
    kernel_size: 1
    weight_filler {
      type: "xavier"
      std: 0.2
    }
    bias_filler {
      type: "constant"
      value: 0.2
    }
  }
}
layer {
  name: "inception_4c/relu_5x5_reduce"
  type: "ReLU"
  bottom: "inception_4c/5x5_reduce"
  top: "inception_4c/5x5_reduce"
}
layer {
  name: "inception_4c/5x5"
  type: "Convolution"
  bottom: "inception_4c/5x5_reduce"
  top: "inception_4c/5x5"
  param {
    lr_mult: 1
    decay_mult: 1
  }
  param {
    lr_mult: 2
    decay_mult: 0
  }
  convolution_param {
    num_output: 64
    pad: 2
    kernel_size: 5
    weight_filler {
      type: "xavier"
      std: 0.03
    }
    bias_filler {
      type: "constant"
      value: 0.2
    }
  }
}
layer {
  name: "inception_4c/relu_5x5"
  type: "ReLU"
  bottom: "inception_4c/5x5"
  top: "inception_4c/5x5"
}
layer {
  name: "inception_4c/pool"
  type: "Pooling"
  bottom: "inception_4b/output"
  top: "inception_4c/pool"
  pooling_param {
    pool: MAX
    kernel_size: 3
    stride: 1
    pad: 1
  }
}
layer {
  name: "inception_4c/pool_proj"
  type: "Convolution"
  bottom: "inception_4c/pool"
  top: "inception_4c/pool_proj"
  param {
    lr_mult: 1
    decay_mult: 1
  }
  param {
    lr_mult: 2
    decay_mult: 0
  }
  convolution_param {
    num_output: 64
    kernel_size: 1
    weight_filler {
      type: "xavier"
      std: 0.1
    }
    bias_filler {
      type: "constant"
      value: 0.2
    }
  }
}
layer {
  name: "inception_4c/relu_pool_proj"
  type: "ReLU"
  bottom: "inception_4c/pool_proj"
  top: "inception_4c/pool_proj"
}
layer {
  name: "inception_4c/output"
  type: "Concat"
  bottom: "inception_4c/1x1"
  bottom: "inception_4c/3x3"
  bottom: "inception_4c/5x5"
  bottom: "inception_4c/pool_proj"
  top: "inception_4c/output"
}
layer {
  name: "inception_4d/1x1"
  type: "Convolution"
  bottom: "inception_4c/output"
  top: "inception_4d/1x1"
  param {
    lr_mult: 1
    decay_mult: 1
  }
  param {
    lr_mult: 2
    decay_mult: 0
  }
  convolution_param {
    num_output: 112
    kernel_size: 1
    weight_filler {
      type: "xavier"
      std: 0.03
    }
    bias_filler {
      type: "constant"
      value: 0.2
    }
  }
}
layer {
  name: "inception_4d/relu_1x1"
  type: "ReLU"
  bottom: "inception_4d/1x1"
  top: "inception_4d/1x1"
}
layer {
  name: "inception_4d/3x3_reduce"
  type: "Convolution"
  bottom: "inception_4c/output"
  top: "inception_4d/3x3_reduce"
  param {
    lr_mult: 1
    decay_mult: 1
  }
  param {
    lr_mult: 2
    decay_mult: 0
  }
  convolution_param {
    num_output: 144
    kernel_size: 1
    weight_filler {
      type: "xavier"
      std: 0.09
    }
    bias_filler {
      type: "constant"
      value: 0.2
    }
  }
}
layer {
  name: "inception_4d/relu_3x3_reduce"
  type: "ReLU"
  bottom: "inception_4d/3x3_reduce"
  top: "inception_4d/3x3_reduce"
}
layer {
  name: "inception_4d/3x3"
  type: "Convolution"
  bottom: "inception_4d/3x3_reduce"
  top: "inception_4d/3x3"
  param {
    lr_mult: 1
    decay_mult: 1
  }
  param {
    lr_mult: 2
    decay_mult: 0
  }
  convolution_param {
    num_output: 288
    pad: 1
    kernel_size: 3
    weight_filler {
      type: "xavier"
      std: 0.03
    }
    bias_filler {
      type: "constant"
      value: 0.2
    }
  }
}
layer {
  name: "inception_4d/relu_3x3"
  type: "ReLU"
  bottom: "inception_4d/3x3"
  top: "inception_4d/3x3"
}
layer {
  name: "inception_4d/5x5_reduce"
  type: "Convolution"
  bottom: "inception_4c/output"
  top: "inception_4d/5x5_reduce"
  param {
    lr_mult: 1
    decay_mult: 1
  }
  param {
    lr_mult: 2
    decay_mult: 0
  }
  convolution_param {
    num_output: 32
    kernel_size: 1
    weight_filler {
      type: "xavier"
      std: 0.2
    }
    bias_filler {
      type: "constant"
      value: 0.2
    }
  }
}
layer {
  name: "inception_4d/relu_5x5_reduce"
  type: "ReLU"
  bottom: "inception_4d/5x5_reduce"
  top: "inception_4d/5x5_reduce"
}
layer {
  name: "inception_4d/5x5"
  type: "Convolution"
  bottom: "inception_4d/5x5_reduce"
  top: "inception_4d/5x5"
  param {
    lr_mult: 1
    decay_mult: 1
  }
  param {
    lr_mult: 2
    decay_mult: 0
  }
  convolution_param {
    num_output: 64
    pad: 2
    kernel_size: 5
    weight_filler {
      type: "xavier"
      std: 0.03
    }
    bias_filler {
      type: "constant"
      value: 0.2
    }
  }
}
layer {
  name: "inception_4d/relu_5x5"
  type: "ReLU"
  bottom: "inception_4d/5x5"
  top: "inception_4d/5x5"
}
layer {
  name: "inception_4d/pool"
  type: "Pooling"
  bottom: "inception_4c/output"
  top: "inception_4d/pool"
  pooling_param {
    pool: MAX
    kernel_size: 3
    stride: 1
    pad: 1
  }
}
layer {
  name: "inception_4d/pool_proj"
  type: "Convolution"
  bottom: "inception_4d/pool"
  top: "inception_4d/pool_proj"
  param {
    lr_mult: 1
    decay_mult: 1
  }
  param {
    lr_mult: 2
    decay_mult: 0
  }
  convolution_param {
    num_output: 64
    kernel_size: 1
    weight_filler {
      type: "xavier"
      std: 0.1
    }
    bias_filler {
      type: "constant"
      value: 0.2
    }
  }
}
layer {
  name: "inception_4d/relu_pool_proj"
  type: "ReLU"
  bottom: "inception_4d/pool_proj"
  top: "inception_4d/pool_proj"
}
layer {
  name: "inception_4d/output"
  type: "Concat"
  bottom: "inception_4d/1x1"
  bottom: "inception_4d/3x3"
  bottom: "inception_4d/5x5"
  bottom: "inception_4d/pool_proj"
  top: "inception_4d/output"
}
layer {
  name: "loss2/ave_pool"
  type: "Pooling"
  bottom: "inception_4d/output"
  top: "loss2/ave_pool"
  pooling_param {
    pool: AVE
    kernel_size: 5
    stride: 3
  }
}
layer {
  name: "loss2/conv"
  type: "Convolution"
  bottom: "loss2/ave_pool"
  top: "loss2/conv"
  param {
    lr_mult: 1
    decay_mult: 1
  }
  param {
    lr_mult: 2
    decay_mult: 0
  }
  convolution_param {
    num_output: 128
    kernel_size: 1
    weight_filler {
      type: "xavier"
      std: 0.08
    }
    bias_filler {
      type: "constant"
      value: 0.2
    }
  }
}
layer {
  name: "loss2/relu_conv"
  type: "ReLU"
  bottom: "loss2/conv"
  top: "loss2/conv"
}
layer {
  name: "loss2/fc"
  type: "InnerProduct"
  bottom: "loss2/conv"
  top: "loss2/fc"
  param {
    lr_mult: 1
    decay_mult: 1
  }
  param {
    lr_mult: 2
    decay_mult: 0
  }
  inner_product_param {
    num_output: 1024
    weight_filler {
      type: "xavier"
      std: 0.02
    }
    bias_filler {
      type: "constant"
      value: 0.2
    }
  }
}
layer {
  name: "loss2/relu_fc"
  type: "ReLU"
  bottom: "loss2/fc"
  top: "loss2/fc"
}
layer {
  name: "loss2/drop_fc"
  type: "Dropout"
  bottom: "loss2/fc"
  top: "loss2/fc"
  dropout_param {
    dropout_ratio: 0.7
  }
}
layer {
  name: "loss2/classifier_plantvillage"
  type: "InnerProduct"
  bottom: "loss2/fc"
  top: "loss2/classifier_plantvillage"
  param {
    lr_mult: 1
    decay_mult: 1
  }
  param {
    lr_mult: 2
    decay_mult: 0
  }
  inner_product_param {
    num_output: 38
    weight_filler {
      type: "xavier"
      std: 0.0009765625
    }
    bias_filler {
      type: "constant"
      value: 0
    }
  }
}
layer {
  name: "inception_4e/1x1"
  type: "Convolution"
  bottom: "inception_4d/output"
  top: "inception_4e/1x1"
  param {
    lr_mult: 1
    decay_mult: 1
  }
  param {
    lr_mult: 2
    decay_mult: 0
  }
  convolution_param {
    num_output: 256
    kernel_size: 1
    weight_filler {
      type: "xavier"
      std: 0.03
    }
    bias_filler {
      type: "constant"
      value: 0.2
    }
  }
}
layer {
  name: "inception_4e/relu_1x1"
  type: "ReLU"
  bottom: "inception_4e/1x1"
  top: "inception_4e/1x1"
}
layer {
  name: "inception_4e/3x3_reduce"
  type: "Convolution"
  bottom: "inception_4d/output"
  top: "inception_4e/3x3_reduce"
  param {
    lr_mult: 1
    decay_mult: 1
  }
  param {
    lr_mult: 2
    decay_mult: 0
  }
  convolution_param {
    num_output: 160
    kernel_size: 1
    weight_filler {
      type: "xavier"
      std: 0.09
    }
    bias_filler {
      type: "constant"
      value: 0.2
    }
  }
}
layer {
  name: "inception_4e/relu_3x3_reduce"
  type: "ReLU"
  bottom: "inception_4e/3x3_reduce"
  top: "inception_4e/3x3_reduce"
}
layer {
  name: "inception_4e/3x3"
  type: "Convolution"
  bottom: "inception_4e/3x3_reduce"
  top: "inception_4e/3x3"
  param {
    lr_mult: 1
    decay_mult: 1
  }
  param {
    lr_mult: 2
    decay_mult: 0
  }
  convolution_param {
    num_output: 320
    pad: 1
    kernel_size: 3
    weight_filler {
      type: "xavier"
      std: 0.03
    }
    bias_filler {
      type: "constant"
      value: 0.2
    }
  }
}
layer {
  name: "inception_4e/relu_3x3"
  type: "ReLU"
  bottom: "inception_4e/3x3"
  top: "inception_4e/3x3"
}
layer {
  name: "inception_4e/5x5_reduce"
  type: "Convolution"
  bottom: "inception_4d/output"
  top: "inception_4e/5x5_reduce"
  param {
    lr_mult: 1
    decay_mult: 1
  }
  param {
    lr_mult: 2
    decay_mult: 0
  }
  convolution_param {
    num_output: 32
    kernel_size: 1
    weight_filler {
      type: "xavier"
      std: 0.2
    }
    bias_filler {
      type: "constant"
      value: 0.2
    }
  }
}
layer {
  name: "inception_4e/relu_5x5_reduce"
  type: "ReLU"
  bottom: "inception_4e/5x5_reduce"
  top: "inception_4e/5x5_reduce"
}
layer {
  name: "inception_4e/5x5"
  type: "Convolution"
  bottom: "inception_4e/5x5_reduce"
  top: "inception_4e/
I0403 14:49:33.012897 11169 layer_factory.hpp:77] Creating layer data
I0403 14:49:33.013525 11169 net.cpp:91] Creating Layer data
I0403 14:49:33.013559 11169 net.cpp:399] data -> data
I0403 14:49:33.013610 11169 net.cpp:399] data -> label
I0403 14:49:33.013648 11169 data_transformer.cpp:25] Loading mean file from: /home/mohanty/data/final_dataset/lmdb/grayscale-60-40/mean.binaryproto
I0403 14:49:33.016576 11174 db_lmdb.cpp:38] Opened lmdb /home/mohanty/data/final_dataset/lmdb/grayscale-60-40/test_db
I0403 14:49:33.027179 11169 data_layer.cpp:41] output data size: 24,3,224,224
I0403 14:49:33.054533 11169 net.cpp:141] Setting up data
I0403 14:49:33.054623 11169 net.cpp:148] Top shape: 24 3 224 224 (3612672)
I0403 14:49:33.054647 11169 net.cpp:148] Top shape: 24 (24)
I0403 14:49:33.054664 11169 net.cpp:156] Memory required for data: 14450784
I0403 14:49:33.054692 11169 layer_factory.hpp:77] Creating layer label_data_1_split
I0403 14:49:33.054718 11169 net.cpp:91] Creating Layer label_data_1_split
I0403 14:49:33.054736 11169 net.cpp:425] label_data_1_split <- label
I0403 14:49:33.054769 11169 net.cpp:399] label_data_1_split -> label_data_1_split_0
I0403 14:49:33.054796 11169 net.cpp:399] label_data_1_split -> label_data_1_split_1
I0403 14:49:33.054821 11169 net.cpp:399] label_data_1_split -> label_data_1_split_2
I0403 14:49:33.054842 11169 net.cpp:399] label_data_1_split -> label_data_1_split_3
I0403 14:49:33.054863 11169 net.cpp:399] label_data_1_split -> label_data_1_split_4
I0403 14:49:33.054884 11169 net.cpp:399] label_data_1_split -> label_data_1_split_5
I0403 14:49:33.054904 11169 net.cpp:399] label_data_1_split -> label_data_1_split_6
I0403 14:49:33.054926 11169 net.cpp:399] label_data_1_split -> label_data_1_split_7
I0403 14:49:33.054949 11169 net.cpp:399] label_data_1_split -> label_data_1_split_8
I0403 14:49:33.054970 11169 net.cpp:399] label_data_1_split -> label_data_1_split_9
I0403 14:49:33.055093 11169 net.cpp:141] Setting up label_data_1_split
I0403 14:49:33.055122 11169 net.cpp:148] Top shape: 24 (24)
I0403 14:49:33.055140 11169 net.cpp:148] Top shape: 24 (24)
I0403 14:49:33.055157 11169 net.cpp:148] Top shape: 24 (24)
I0403 14:49:33.055176 11169 net.cpp:148] Top shape: 24 (24)
I0403 14:49:33.055192 11169 net.cpp:148] Top shape: 24 (24)
I0403 14:49:33.055209 11169 net.cpp:148] Top shape: 24 (24)
I0403 14:49:33.055225 11169 net.cpp:148] Top shape: 24 (24)
I0403 14:49:33.055241 11169 net.cpp:148] Top shape: 24 (24)
I0403 14:49:33.055256 11169 net.cpp:148] Top shape: 24 (24)
I0403 14:49:33.055272 11169 net.cpp:148] Top shape: 24 (24)
I0403 14:49:33.055316 11169 net.cpp:156] Memory required for data: 14451744
I0403 14:49:33.055333 11169 layer_factory.hpp:77] Creating layer conv1/7x7_s2
I0403 14:49:33.055366 11169 net.cpp:91] Creating Layer conv1/7x7_s2
I0403 14:49:33.055385 11169 net.cpp:425] conv1/7x7_s2 <- data
I0403 14:49:33.055404 11169 net.cpp:399] conv1/7x7_s2 -> conv1/7x7_s2
I0403 14:49:33.197157 11169 net.cpp:141] Setting up conv1/7x7_s2
I0403 14:49:33.197247 11169 net.cpp:148] Top shape: 24 64 112 112 (19267584)
I0403 14:49:33.197265 11169 net.cpp:156] Memory required for data: 91522080
I0403 14:49:33.197296 11169 layer_factory.hpp:77] Creating layer conv1/relu_7x7
I0403 14:49:33.197324 11169 net.cpp:91] Creating Layer conv1/relu_7x7
I0403 14:49:33.197343 11169 net.cpp:425] conv1/relu_7x7 <- conv1/7x7_s2
I0403 14:49:33.197362 11169 net.cpp:386] conv1/relu_7x7 -> conv1/7x7_s2 (in-place)
I0403 14:49:33.197630 11169 net.cpp:141] Setting up conv1/relu_7x7
I0403 14:49:33.197659 11169 net.cpp:148] Top shape: 24 64 112 112 (19267584)
I0403 14:49:33.197675 11169 net.cpp:156] Memory required for data: 168592416
I0403 14:49:33.197691 11169 layer_factory.hpp:77] Creating layer pool1/3x3_s2
I0403 14:49:33.197716 11169 net.cpp:91] Creating Layer pool1/3x3_s2
I0403 14:49:33.197736 11169 net.cpp:425] pool1/3x3_s2 <- conv1/7x7_s2
I0403 14:49:33.197756 11169 net.cpp:399] pool1/3x3_s2 -> pool1/3x3_s2
I0403 14:49:33.197834 11169 net.cpp:141] Setting up pool1/3x3_s2
I0403 14:49:33.197860 11169 net.cpp:148] Top shape: 24 64 56 56 (4816896)
I0403 14:49:33.197875 11169 net.cpp:156] Memory required for data: 187860000
I0403 14:49:33.197891 11169 layer_factory.hpp:77] Creating layer pool1/norm1
I0403 14:49:33.197916 11169 net.cpp:91] Creating Layer pool1/norm1
I0403 14:49:33.197934 11169 net.cpp:425] pool1/norm1 <- pool1/3x3_s2
I0403 14:49:33.197953 11169 net.cpp:399] pool1/norm1 -> pool1/norm1
I0403 14:49:33.198252 11169 net.cpp:141] Setting up pool1/norm1
I0403 14:49:33.198282 11169 net.cpp:148] Top shape: 24 64 56 56 (4816896)
I0403 14:49:33.198297 11169 net.cpp:156] Memory required for data: 207127584
I0403 14:49:33.198313 11169 layer_factory.hpp:77] Creating layer conv2/3x3_reduce
I0403 14:49:33.198339 11169 net.cpp:91] Creating Layer conv2/3x3_reduce
I0403 14:49:33.198357 11169 net.cpp:425] conv2/3x3_reduce <- pool1/norm1
I0403 14:49:33.198375 11169 net.cpp:399] conv2/3x3_reduce -> conv2/3x3_reduce
I0403 14:49:33.199746 11169 net.cpp:141] Setting up conv2/3x3_reduce
I0403 14:49:33.199779 11169 net.cpp:148] Top shape: 24 64 56 56 (4816896)
I0403 14:49:33.199796 11169 net.cpp:156] Memory required for data: 226395168
I0403 14:49:33.199820 11169 layer_factory.hpp:77] Creating layer conv2/relu_3x3_reduce
I0403 14:49:33.199841 11169 net.cpp:91] Creating Layer conv2/relu_3x3_reduce
I0403 14:49:33.199856 11169 net.cpp:425] conv2/relu_3x3_reduce <- conv2/3x3_reduce
I0403 14:49:33.199874 11169 net.cpp:386] conv2/relu_3x3_reduce -> conv2/3x3_reduce (in-place)
I0403 14:49:33.200139 11169 net.cpp:141] Setting up conv2/relu_3x3_reduce
I0403 14:49:33.200168 11169 net.cpp:148] Top shape: 24 64 56 56 (4816896)
I0403 14:49:33.200184 11169 net.cpp:156] Memory required for data: 245662752
I0403 14:49:33.200199 11169 layer_factory.hpp:77] Creating layer conv2/3x3
I0403 14:49:33.200222 11169 net.cpp:91] Creating Layer conv2/3x3
I0403 14:49:33.200239 11169 net.cpp:425] conv2/3x3 <- conv2/3x3_reduce
I0403 14:49:33.200258 11169 net.cpp:399] conv2/3x3 -> conv2/3x3
I0403 14:49:33.202577 11169 net.cpp:141] Setting up conv2/3x3
I0403 14:49:33.202612 11169 net.cpp:148] Top shape: 24 192 56 56 (14450688)
I0403 14:49:33.202630 11169 net.cpp:156] Memory required for data: 303465504
I0403 14:49:33.202653 11169 layer_factory.hpp:77] Creating layer conv2/relu_3x3
I0403 14:49:33.202672 11169 net.cpp:91] Creating Layer conv2/relu_3x3
I0403 14:49:33.202689 11169 net.cpp:425] conv2/relu_3x3 <- conv2/3x3
I0403 14:49:33.202707 11169 net.cpp:386] conv2/relu_3x3 -> conv2/3x3 (in-place)
I0403 14:49:33.202873 11169 net.cpp:141] Setting up conv2/relu_3x3
I0403 14:49:33.202900 11169 net.cpp:148] Top shape: 24 192 56 56 (14450688)
I0403 14:49:33.202949 11169 net.cpp:156] Memory required for data: 361268256
I0403 14:49:33.202965 11169 layer_factory.hpp:77] Creating layer conv2/norm2
I0403 14:49:33.202985 11169 net.cpp:91] Creating Layer conv2/norm2
I0403 14:49:33.203001 11169 net.cpp:425] conv2/norm2 <- conv2/3x3
I0403 14:49:33.203018 11169 net.cpp:399] conv2/norm2 -> conv2/norm2
I0403 14:49:33.203327 11169 net.cpp:141] Setting up conv2/norm2
I0403 14:49:33.203356 11169 net.cpp:148] Top shape: 24 192 56 56 (14450688)
I0403 14:49:33.203374 11169 net.cpp:156] Memory required for data: 419071008
I0403 14:49:33.203390 11169 layer_factory.hpp:77] Creating layer pool2/3x3_s2
I0403 14:49:33.203410 11169 net.cpp:91] Creating Layer pool2/3x3_s2
I0403 14:49:33.203426 11169 net.cpp:425] pool2/3x3_s2 <- conv2/norm2
I0403 14:49:33.203444 11169 net.cpp:399] pool2/3x3_s2 -> pool2/3x3_s2
I0403 14:49:33.203496 11169 net.cpp:141] Setting up pool2/3x3_s2
I0403 14:49:33.203521 11169 net.cpp:148] Top shape: 24 192 28 28 (3612672)
I0403 14:49:33.203536 11169 net.cpp:156] Memory required for data: 433521696
I0403 14:49:33.203550 11169 layer_factory.hpp:77] Creating layer pool2/3x3_s2_pool2/3x3_s2_0_split
I0403 14:49:33.203569 11169 net.cpp:91] Creating Layer pool2/3x3_s2_pool2/3x3_s2_0_split
I0403 14:49:33.203586 11169 net.cpp:425] pool2/3x3_s2_pool2/3x3_s2_0_split <- pool2/3x3_s2
I0403 14:49:33.203603 11169 net.cpp:399] pool2/3x3_s2_pool2/3x3_s2_0_split -> pool2/3x3_s2_pool2/3x3_s2_0_split_0
I0403 14:49:33.203624 11169 net.cpp:399] pool2/3x3_s2_pool2/3x3_s2_0_split -> pool2/3x3_s2_pool2/3x3_s2_0_split_1
I0403 14:49:33.203645 11169 net.cpp:399] pool2/3x3_s2_pool2/3x3_s2_0_split -> pool2/3x3_s2_pool2/3x3_s2_0_split_2
I0403 14:49:33.203665 11169 net.cpp:399] pool2/3x3_s2_pool2/3x3_s2_0_split -> pool2/3x3_s2_pool2/3x3_s2_0_split_3
I0403 14:49:33.203732 11169 net.cpp:141] Setting up pool2/3x3_s2_pool2/3x3_s2_0_split
I0403 14:49:33.203757 11169 net.cpp:148] Top shape: 24 192 28 28 (3612672)
I0403 14:49:33.203774 11169 net.cpp:148] Top shape: 24 192 28 28 (3612672)
I0403 14:49:33.203789 11169 net.cpp:148] Top shape: 24 192 28 28 (3612672)
I0403 14:49:33.203805 11169 net.cpp:148] Top shape: 24 192 28 28 (3612672)
I0403 14:49:33.203820 11169 net.cpp:156] Memory required for data: 491324448
I0403 14:49:33.203836 11169 layer_factory.hpp:77] Creating layer inception_3a/1x1
I0403 14:49:33.203857 11169 net.cpp:91] Creating Layer inception_3a/1x1
I0403 14:49:33.203874 11169 net.cpp:425] inception_3a/1x1 <- pool2/3x3_s2_pool2/3x3_s2_0_split_0
I0403 14:49:33.203893 11169 net.cpp:399] inception_3a/1x1 -> inception_3a/1x1
I0403 14:49:33.205478 11169 net.cpp:141] Setting up inception_3a/1x1
I0403 14:49:33.205510 11169 net.cpp:148] Top shape: 24 64 28 28 (1204224)
I0403 14:49:33.205528 11169 net.cpp:156] Memory required for data: 496141344
I0403 14:49:33.205548 11169 layer_factory.hpp:77] Creating layer inception_3a/relu_1x1
I0403 14:49:33.205569 11169 net.cpp:91] Creating Layer inception_3a/relu_1x1
I0403 14:49:33.205585 11169 net.cpp:425] inception_3a/relu_1x1 <- inception_3a/1x1
I0403 14:49:33.205603 11169 net.cpp:386] inception_3a/relu_1x1 -> inception_3a/1x1 (in-place)
I0403 14:49:33.205785 11169 net.cpp:141] Setting up inception_3a/relu_1x1
I0403 14:49:33.205812 11169 net.cpp:148] Top shape: 24 64 28 28 (1204224)
I0403 14:49:33.205828 11169 net.cpp:156] Memory required for data: 500958240
I0403 14:49:33.205844 11169 layer_factory.hpp:77] Creating layer inception_3a/3x3_reduce
I0403 14:49:33.205869 11169 net.cpp:91] Creating Layer inception_3a/3x3_reduce
I0403 14:49:33.205888 11169 net.cpp:425] inception_3a/3x3_reduce <- pool2/3x3_s2_pool2/3x3_s2_0_split_1
I0403 14:49:33.205907 11169 net.cpp:399] inception_3a/3x3_reduce -> inception_3a/3x3_reduce
I0403 14:49:33.207695 11169 net.cpp:141] Setting up inception_3a/3x3_reduce
I0403 14:49:33.207726 11169 net.cpp:148] Top shape: 24 96 28 28 (1806336)
I0403 14:49:33.207744 11169 net.cpp:156] Memory required for data: 508183584
I0403 14:49:33.207767 11169 layer_factory.hpp:77] Creating layer inception_3a/relu_3x3_reduce
I0403 14:49:33.207808 11169 net.cpp:91] Creating Layer inception_3a/relu_3x3_reduce
I0403 14:49:33.207828 11169 net.cpp:425] inception_3a/relu_3x3_reduce <- inception_3a/3x3_reduce
I0403 14:49:33.207847 11169 net.cpp:386] inception_3a/relu_3x3_reduce -> inception_3a/3x3_reduce (in-place)
I0403 14:49:33.208037 11169 net.cpp:141] Setting up inception_3a/relu_3x3_reduce
I0403 14:49:33.208065 11169 net.cpp:148] Top shape: 24 96 28 28 (1806336)
I0403 14:49:33.208081 11169 net.cpp:156] Memory required for data: 515408928
I0403 14:49:33.208101 11169 layer_factory.hpp:77] Creating layer inception_3a/3x3
I0403 14:49:33.208127 11169 net.cpp:91] Creating Layer inception_3a/3x3
I0403 14:49:33.208147 11169 net.cpp:425] inception_3a/3x3 <- inception_3a/3x3_reduce
I0403 14:49:33.208170 11169 net.cpp:399] inception_3a/3x3 -> inception_3a/3x3
I0403 14:49:33.209915 11169 net.cpp:141] Setting up inception_3a/3x3
I0403 14:49:33.209946 11169 net.cpp:148] Top shape: 24 128 28 28 (2408448)
I0403 14:49:33.209964 11169 net.cpp:156] Memory required for data: 525042720
I0403 14:49:33.209983 11169 layer_factory.hpp:77] Creating layer inception_3a/relu_3x3
I0403 14:49:33.210005 11169 net.cpp:91] Creating Layer inception_3a/relu_3x3
I0403 14:49:33.210021 11169 net.cpp:425] inception_3a/relu_3x3 <- inception_3a/3x3
I0403 14:49:33.210041 11169 net.cpp:386] inception_3a/relu_3x3 -> inception_3a/3x3 (in-place)
I0403 14:49:33.210427 11169 net.cpp:141] Setting up inception_3a/relu_3x3
I0403 14:49:33.210458 11169 net.cpp:148] Top shape: 24 128 28 28 (2408448)
I0403 14:49:33.210474 11169 net.cpp:156] Memory required for data: 534676512
I0403 14:49:33.210490 11169 layer_factory.hpp:77] Creating layer inception_3a/5x5_reduce
I0403 14:49:33.210513 11169 net.cpp:91] Creating Layer inception_3a/5x5_reduce
I0403 14:49:33.210532 11169 net.cpp:425] inception_3a/5x5_reduce <- pool2/3x3_s2_pool2/3x3_s2_0_split_2
I0403 14:49:33.210556 11169 net.cpp:399] inception_3a/5x5_reduce -> inception_3a/5x5_reduce
I0403 14:49:33.211558 11169 net.cpp:141] Setting up inception_3a/5x5_reduce
I0403 14:49:33.211588 11169 net.cpp:148] Top shape: 24 16 28 28 (301056)
I0403 14:49:33.211606 11169 net.cpp:156] Memory required for data: 535880736
I0403 14:49:33.211624 11169 layer_factory.hpp:77] Creating layer inception_3a/relu_5x5_reduce
I0403 14:49:33.211647 11169 net.cpp:91] Creating Layer inception_3a/relu_5x5_reduce
I0403 14:49:33.211663 11169 net.cpp:425] inception_3a/relu_5x5_reduce <- inception_3a/5x5_reduce
I0403 14:49:33.211681 11169 net.cpp:386] inception_3a/relu_5x5_reduce -> inception_3a/5x5_reduce (in-place)
I0403 14:49:33.211989 11169 net.cpp:141] Setting up inception_3a/relu_5x5_reduce
I0403 14:49:33.212021 11169 net.cpp:148] Top shape: 24 16 28 28 (301056)
I0403 14:49:33.212064 11169 net.cpp:156] Memory required for data: 537084960
I0403 14:49:33.212087 11169 layer_factory.hpp:77] Creating layer inception_3a/5x5
I0403 14:49:33.212119 11169 net.cpp:91] Creating Layer inception_3a/5x5
I0403 14:49:33.212138 11169 net.cpp:425] inception_3a/5x5 <- inception_3a/5x5_reduce
I0403 14:49:33.212158 11169 net.cpp:399] inception_3a/5x5 -> inception_3a/5x5
I0403 14:49:33.213228 11169 net.cpp:141] Setting up inception_3a/5x5
I0403 14:49:33.213258 11169 net.cpp:148] Top shape: 24 32 28 28 (602112)
I0403 14:49:33.213275 11169 net.cpp:156] Memory required for data: 539493408
I0403 14:49:33.213294 11169 layer_factory.hpp:77] Creating layer inception_3a/relu_5x5
I0403 14:49:33.213317 11169 net.cpp:91] Creating Layer inception_3a/relu_5x5
I0403 14:49:33.213336 11169 net.cpp:425] inception_3a/relu_5x5 <- inception_3a/5x5
I0403 14:49:33.213356 11169 net.cpp:386] inception_3a/relu_5x5 -> inception_3a/5x5 (in-place)
I0403 14:49:33.213538 11169 net.cpp:141] Setting up inception_3a/relu_5x5
I0403 14:49:33.213564 11169 net.cpp:148] Top shape: 24 32 28 28 (602112)
I0403 14:49:33.213580 11169 net.cpp:156] Memory required for data: 541901856
I0403 14:49:33.213596 11169 layer_factory.hpp:77] Creating layer inception_3a/pool
I0403 14:49:33.213619 11169 net.cpp:91] Creating Layer inception_3a/pool
I0403 14:49:33.213651 11169 net.cpp:425] inception_3a/pool <- pool2/3x3_s2_pool2/3x3_s2_0_split_3
I0403 14:49:33.213671 11169 net.cpp:399] inception_3a/pool -> inception_3a/pool
I0403 14:49:33.213733 11169 net.cpp:141] Setting up inception_3a/pool
I0403 14:49:33.213758 11169 net.cpp:148] Top shape: 24 192 28 28 (3612672)
I0403 14:49:33.213773 11169 net.cpp:156] Memory required for data: 556352544
I0403 14:49:33.213788 11169 layer_factory.hpp:77] Creating layer inception_3a/pool_proj
I0403 14:49:33.213811 11169 net.cpp:91] Creating Layer inception_3a/pool_proj
I0403 14:49:33.213829 11169 net.cpp:425] inception_3a/pool_proj <- inception_3a/pool
I0403 14:49:33.213851 11169 net.cpp:399] inception_3a/pool_proj -> inception_3a/pool_proj
I0403 14:49:33.214910 11169 net.cpp:141] Setting up inception_3a/pool_proj
I0403 14:49:33.214942 11169 net.cpp:148] Top shape: 24 32 28 28 (602112)
I0403 14:49:33.214962 11169 net.cpp:156] Memory required for data: 558760992
I0403 14:49:33.214987 11169 layer_factory.hpp:77] Creating layer inception_3a/relu_pool_proj
I0403 14:49:33.215008 11169 net.cpp:91] Creating Layer inception_3a/relu_pool_proj
I0403 14:49:33.215026 11169 net.cpp:425] inception_3a/relu_pool_proj <- inception_3a/pool_proj
I0403 14:49:33.215044 11169 net.cpp:386] inception_3a/relu_pool_proj -> inception_3a/pool_proj (in-place)
I0403 14:49:33.215335 11169 net.cpp:141] Setting up inception_3a/relu_pool_proj
I0403 14:49:33.215363 11169 net.cpp:148] Top shape: 24 32 28 28 (602112)
I0403 14:49:33.215380 11169 net.cpp:156] Memory required for data: 561169440
I0403 14:49:33.215396 11169 layer_factory.hpp:77] Creating layer inception_3a/output
I0403 14:49:33.215417 11169 net.cpp:91] Creating Layer inception_3a/output
I0403 14:49:33.215435 11169 net.cpp:425] inception_3a/output <- inception_3a/1x1
I0403 14:49:33.215454 11169 net.cpp:425] inception_3a/output <- inception_3a/3x3
I0403 14:49:33.215471 11169 net.cpp:425] inception_3a/output <- inception_3a/5x5
I0403 14:49:33.215487 11169 net.cpp:425] inception_3a/output <- inception_3a/pool_proj
I0403 14:49:33.215504 11169 net.cpp:399] inception_3a/output -> inception_3a/output
I0403 14:49:33.215554 11169 net.cpp:141] Setting up inception_3a/output
I0403 14:49:33.215580 11169 net.cpp:148] Top shape: 24 256 28 28 (4816896)
I0403 14:49:33.215596 11169 net.cpp:156] Memory required for data: 580437024
I0403 14:49:33.215611 11169 layer_factory.hpp:77] Creating layer inception_3a/output_inception_3a/output_0_split
I0403 14:49:33.215667 11169 net.cpp:91] Creating Layer inception_3a/output_inception_3a/output_0_split
I0403 14:49:33.215687 11169 net.cpp:425] inception_3a/output_inception_3a/output_0_split <- inception_3a/output
I0403 14:49:33.215708 11169 net.cpp:399] inception_3a/output_inception_3a/output_0_split -> inception_3a/output_inception_3a/output_0_split_0
I0403 14:49:33.215731 11169 net.cpp:399] inception_3a/output_inception_3a/output_0_split -> inception_3a/output_inception_3a/output_0_split_1
I0403 14:49:33.215755 11169 net.cpp:399] inception_3a/output_inception_3a/output_0_split -> inception_3a/output_inception_3a/output_0_split_2
I0403 14:49:33.215780 11169 net.cpp:399] inception_3a/output_inception_3a/output_0_split -> inception_3a/output_inception_3a/output_0_split_3
I0403 14:49:33.215863 11169 net.cpp:141] Setting up inception_3a/output_inception_3a/output_0_split
I0403 14:49:33.215888 11169 net.cpp:148] Top shape: 24 256 28 28 (4816896)
I0403 14:49:33.215906 11169 net.cpp:148] Top shape: 24 256 28 28 (4816896)
I0403 14:49:33.215924 11169 net.cpp:148] Top shape: 24 256 28 28 (4816896)
I0403 14:49:33.215939 11169 net.cpp:148] Top shape: 24 256 28 28 (4816896)
I0403 14:49:33.215952 11169 net.cpp:156] Memory required for data: 657507360
I0403 14:49:33.215967 11169 layer_factory.hpp:77] Creating layer inception_3b/1x1
I0403 14:49:33.215991 11169 net.cpp:91] Creating Layer inception_3b/1x1
I0403 14:49:33.216008 11169 net.cpp:425] inception_3b/1x1 <- inception_3a/output_inception_3a/output_0_split_0
I0403 14:49:33.216032 11169 net.cpp:399] inception_3b/1x1 -> inception_3b/1x1
I0403 14:49:33.217237 11169 net.cpp:141] Setting up inception_3b/1x1
I0403 14:49:33.217279 11169 net.cpp:148] Top shape: 24 128 28 28 (2408448)
I0403 14:49:33.217308 11169 net.cpp:156] Memory required for data: 667141152
I0403 14:49:33.217327 11169 layer_factory.hpp:77] Creating layer inception_3b/relu_1x1
I0403 14:49:33.217345 11169 net.cpp:91] Creating Layer inception_3b/relu_1x1
I0403 14:49:33.217361 11169 net.cpp:425] inception_3b/relu_1x1 <- inception_3b/1x1
I0403 14:49:33.217381 11169 net.cpp:386] inception_3b/relu_1x1 -> inception_3b/1x1 (in-place)
I0403 14:49:33.217560 11169 net.cpp:141] Setting up inception_3b/relu_1x1
I0403 14:49:33.217587 11169 net.cpp:148] Top shape: 24 128 28 28 (2408448)
I0403 14:49:33.217603 11169 net.cpp:156] Memory required for data: 676774944
I0403 14:49:33.217618 11169 layer_factory.hpp:77] Creating layer inception_3b/3x3_reduce
I0403 14:49:33.217641 11169 net.cpp:91] Creating Layer inception_3b/3x3_reduce
I0403 14:49:33.217659 11169 net.cpp:425] inception_3b/3x3_reduce <- inception_3a/output_inception_3a/output_0_split_1
I0403 14:49:33.217681 11169 net.cpp:399] inception_3b/3x3_reduce -> inception_3b/3x3_reduce
I0403 14:49:33.218840 11169 net.cpp:141] Setting up inception_3b/3x3_reduce
I0403 14:49:33.218869 11169 net.cpp:148] Top shape: 24 128 28 28 (2408448)
I0403 14:49:33.218886 11169 net.cpp:156] Memory required for data: 686408736
I0403 14:49:33.218905 11169 layer_factory.hpp:77] Creating layer inception_3b/relu_3x3_reduce
I0403 14:49:33.218926 11169 net.cpp:91] Creating Layer inception_3b/relu_3x3_reduce
I0403 14:49:33.218945 11169 net.cpp:425] inception_3b/relu_3x3_reduce <- inception_3b/3x3_reduce
I0403 14:49:33.218962 11169 net.cpp:386] inception_3b/relu_3x3_reduce -> inception_3b/3x3_reduce (in-place)
I0403 14:49:33.219143 11169 net.cpp:141] Setting up inception_3b/relu_3x3_reduce
I0403 14:49:33.219169 11169 net.cpp:148] Top shape: 24 128 28 28 (2408448)
I0403 14:49:33.219184 11169 net.cpp:156] Memory required for data: 696042528
I0403 14:49:33.219200 11169 layer_factory.hpp:77] Creating layer inception_3b/3x3
I0403 14:49:33.219226 11169 net.cpp:91] Creating Layer inception_3b/3x3
I0403 14:49:33.219245 11169 net.cpp:425] inception_3b/3x3 <- inception_3b/3x3_reduce
I0403 14:49:33.219265 11169 net.cpp:399] inception_3b/3x3 -> inception_3b/3x3
I0403 14:49:33.222353 11169 net.cpp:141] Setting up inception_3b/3x3
I0403 14:49:33.222385 11169 net.cpp:148] Top shape: 24 192 28 28 (3612672)
I0403 14:49:33.222414 11169 net.cpp:156] Memory required for data: 710493216
I0403 14:49:33.222432 11169 layer_factory.hpp:77] Creating layer inception_3b/relu_3x3
I0403 14:49:33.222455 11169 net.cpp:91] Creating Layer inception_3b/relu_3x3
I0403 14:49:33.222472 11169 net.cpp:425] inception_3b/relu_3x3 <- inception_3b/3x3
I0403 14:49:33.222491 11169 net.cpp:386] inception_3b/relu_3x3 -> inception_3b/3x3 (in-place)
I0403 14:49:33.222779 11169 net.cpp:141] Setting up inception_3b/relu_3x3
I0403 14:49:33.222806 11169 net.cpp:148] Top shape: 24 192 28 28 (3612672)
I0403 14:49:33.222821 11169 net.cpp:156] Memory required for data: 724943904
I0403 14:49:33.222836 11169 layer_factory.hpp:77] Creating layer inception_3b/5x5_reduce
I0403 14:49:33.222859 11169 net.cpp:91] Creating Layer inception_3b/5x5_reduce
I0403 14:49:33.222877 11169 net.cpp:425] inception_3b/5x5_reduce <- inception_3a/output_inception_3a/output_0_split_2
I0403 14:49:33.222908 11169 net.cpp:399] inception_3b/5x5_reduce -> inception_3b/5x5_reduce
I0403 14:49:33.223948 11169 net.cpp:141] Setting up inception_3b/5x5_reduce
I0403 14:49:33.223978 11169 net.cpp:148] Top shape: 24 32 28 28 (602112)
I0403 14:49:33.223994 11169 net.cpp:156] Memory required for data: 727352352
I0403 14:49:33.224014 11169 layer_factory.hpp:77] Creating layer inception_3b/relu_5x5_reduce
I0403 14:49:33.224035 11169 net.cpp:91] Creating Layer inception_3b/relu_5x5_reduce
I0403 14:49:33.224051 11169 net.cpp:425] inception_3b/relu_5x5_reduce <- inception_3b/5x5_reduce
I0403 14:49:33.224069 11169 net.cpp:386] inception_3b/relu_5x5_reduce -> inception_3b/5x5_reduce (in-place)
I0403 14:49:33.224270 11169 net.cpp:141] Setting up inception_3b/relu_5x5_reduce
I0403 14:49:33.224298 11169 net.cpp:148] Top shape: 24 32 28 28 (602112)
I0403 14:49:33.224313 11169 net.cpp:156] Memory required for data: 729760800
I0403 14:49:33.224328 11169 layer_factory.hpp:77] Creating layer inception_3b/5x5
I0403 14:49:33.224354 11169 net.cpp:91] Creating Layer inception_3b/5x5
I0403 14:49:33.224370 11169 net.cpp:425] inception_3b/5x5 <- inception_3b/5x5_reduce
I0403 14:49:33.224390 11169 net.cpp:399] inception_3b/5x5 -> inception_3b/5x5
I0403 14:49:33.226389 11169 net.cpp:141] Setting up inception_3b/5x5
I0403 14:49:33.226420 11169 net.cpp:148] Top shape: 24 96 28 28 (1806336)
I0403 14:49:33.226438 11169 net.cpp:156] Memory required for data: 736986144
I0403 14:49:33.226456 11169 layer_factory.hpp:77] Creating layer inception_3b/relu_5x5
I0403 14:49:33.226475 11169 net.cpp:91] Creating Layer inception_3b/relu_5x5
I0403 14:49:33.226521 11169 net.cpp:425] inception_3b/relu_5x5 <- inception_3b/5x5
I0403 14:49:33.226539 11169 net.cpp:386] inception_3b/relu_5x5 -> inception_3b/5x5 (in-place)
I0403 14:49:33.226742 11169 net.cpp:141] Setting up inception_3b/relu_5x5
I0403 14:49:33.226781 11169 net.cpp:148] Top shape: 24 96 28 28 (1806336)
I0403 14:49:33.226796 11169 net.cpp:156] Memory required for data: 744211488
I0403 14:49:33.226811 11169 layer_factory.hpp:77] Creating layer inception_3b/pool
I0403 14:49:33.226830 11169 net.cpp:91] Creating Layer inception_3b/pool
I0403 14:49:33.226846 11169 net.cpp:425] inception_3b/pool <- inception_3a/output_inception_3a/output_0_split_3
I0403 14:49:33.226864 11169 net.cpp:399] inception_3b/pool -> inception_3b/pool
I0403 14:49:33.226923 11169 net.cpp:141] Setting up inception_3b/pool
I0403 14:49:33.226948 11169 net.cpp:148] Top shape: 24 256 28 28 (4816896)
I0403 14:49:33.226963 11169 net.cpp:156] Memory required for data: 763479072
I0403 14:49:33.226979 11169 layer_factory.hpp:77] Creating layer inception_3b/pool_proj
I0403 14:49:33.227000 11169 net.cpp:91] Creating Layer inception_3b/pool_proj
I0403 14:49:33.227018 11169 net.cpp:425] inception_3b/pool_proj <- inception_3b/pool
I0403 14:49:33.227040 11169 net.cpp:399] inception_3b/pool_proj -> inception_3b/pool_proj
I0403 14:49:33.228114 11169 net.cpp:141] Setting up inception_3b/pool_proj
I0403 14:49:33.228147 11169 net.cpp:148] Top shape: 24 64 28 28 (1204224)
I0403 14:49:33.228163 11169 net.cpp:156] Memory required for data: 768295968
I0403 14:49:33.228183 11169 layer_factory.hpp:77] Creating layer inception_3b/relu_pool_proj
I0403 14:49:33.228201 11169 net.cpp:91] Creating Layer inception_3b/relu_pool_proj
I0403 14:49:33.228219 11169 net.cpp:425] inception_3b/relu_pool_proj <- inception_3b/pool_proj
I0403 14:49:33.228238 11169 net.cpp:386] inception_3b/relu_pool_proj -> inception_3b/pool_proj (in-place)
I0403 14:49:33.228641 11169 net.cpp:141] Setting up inception_3b/relu_pool_proj
I0403 14:49:33.228673 11169 net.cpp:148] Top shape: 24 64 28 28 (1204224)
I0403 14:49:33.228689 11169 net.cpp:156] Memory required for data: 773112864
I0403 14:49:33.228705 11169 layer_factory.hpp:77] Creating layer inception_3b/output
I0403 14:49:33.228724 11169 net.cpp:91] Creating Layer inception_3b/output
I0403 14:49:33.228739 11169 net.cpp:425] inception_3b/output <- inception_3b/1x1
I0403 14:49:33.228756 11169 net.cpp:425] inception_3b/output <- inception_3b/3x3
I0403 14:49:33.228773 11169 net.cpp:425] inception_3b/output <- inception_3b/5x5
I0403 14:49:33.228788 11169 net.cpp:425] inception_3b/output <- inception_3b/pool_proj
I0403 14:49:33.228806 11169 net.cpp:399] inception_3b/output -> inception_3b/output
I0403 14:49:33.228855 11169 net.cpp:141] Setting up inception_3b/output
I0403 14:49:33.228880 11169 net.cpp:148] Top shape: 24 480 28 28 (9031680)
I0403 14:49:33.228895 11169 net.cpp:156] Memory required for data: 809239584
I0403 14:49:33.228909 11169 layer_factory.hpp:77] Creating layer pool3/3x3_s2
I0403 14:49:33.228930 11169 net.cpp:91] Creating Layer pool3/3x3_s2
I0403 14:49:33.228948 11169 net.cpp:425] pool3/3x3_s2 <- inception_3b/output
I0403 14:49:33.228984 11169 net.cpp:399] pool3/3x3_s2 -> pool3/3x3_s2
I0403 14:49:33.229046 11169 net.cpp:141] Setting up pool3/3x3_s2
I0403 14:49:33.229071 11169 net.cpp:148] Top shape: 24 480 14 14 (2257920)
I0403 14:49:33.229086 11169 net.cpp:156] Memory required for data: 818271264
I0403 14:49:33.229106 11169 layer_factory.hpp:77] Creating layer pool3/3x3_s2_pool3/3x3_s2_0_split
I0403 14:49:33.229125 11169 net.cpp:91] Creating Layer pool3/3x3_s2_pool3/3x3_s2_0_split
I0403 14:49:33.229140 11169 net.cpp:425] pool3/3x3_s2_pool3/3x3_s2_0_split <- pool3/3x3_s2
I0403 14:49:33.229159 11169 net.cpp:399] pool3/3x3_s2_pool3/3x3_s2_0_split -> pool3/3x3_s2_pool3/3x3_s2_0_split_0
I0403 14:49:33.229181 11169 net.cpp:399] pool3/3x3_s2_pool3/3x3_s2_0_split -> pool3/3x3_s2_pool3/3x3_s2_0_split_1
I0403 14:49:33.229202 11169 net.cpp:399] pool3/3x3_s2_pool3/3x3_s2_0_split -> pool3/3x3_s2_pool3/3x3_s2_0_split_2
I0403 14:49:33.229221 11169 net.cpp:399] pool3/3x3_s2_pool3/3x3_s2_0_split -> pool3/3x3_s2_pool3/3x3_s2_0_split_3
I0403 14:49:33.229300 11169 net.cpp:141] Setting up pool3/3x3_s2_pool3/3x3_s2_0_split
I0403 14:49:33.229326 11169 net.cpp:148] Top shape: 24 480 14 14 (2257920)
I0403 14:49:33.229343 11169 net.cpp:148] Top shape: 24 480 14 14 (2257920)
I0403 14:49:33.229359 11169 net.cpp:148] Top shape: 24 480 14 14 (2257920)
I0403 14:49:33.229375 11169 net.cpp:148] Top shape: 24 480 14 14 (2257920)
I0403 14:49:33.229390 11169 net.cpp:156] Memory required for data: 854397984
I0403 14:49:33.229405 11169 layer_factory.hpp:77] Creating layer inception_4a/1x1
I0403 14:49:33.229429 11169 net.cpp:91] Creating Layer inception_4a/1x1
I0403 14:49:33.229447 11169 net.cpp:425] inception_4a/1x1 <- pool3/3x3_s2_pool3/3x3_s2_0_split_0
I0403 14:49:33.229465 11169 net.cpp:399] inception_4a/1x1 -> inception_4a/1x1
I0403 14:49:33.231137 11169 net.cpp:141] Setting up inception_4a/1x1
I0403 14:49:33.231173 11169 net.cpp:148] Top shape: 24 192 14 14 (903168)
I0403 14:49:33.231190 11169 net.cpp:156] Memory required for data: 858010656
I0403 14:49:33.231209 11169 layer_factory.hpp:77] Creating layer inception_4a/relu_1x1
I0403 14:49:33.231230 11169 net.cpp:91] Creating Layer inception_4a/relu_1x1
I0403 14:49:33.231247 11169 net.cpp:425] inception_4a/relu_1x1 <- inception_4a/1x1
I0403 14:49:33.231267 11169 net.cpp:386] inception_4a/relu_1x1 -> inception_4a/1x1 (in-place)
I0403 14:49:33.231454 11169 net.cpp:141] Setting up inception_4a/relu_1x1
I0403 14:49:33.231480 11169 net.cpp:148] Top shape: 24 192 14 14 (903168)
I0403 14:49:33.231495 11169 net.cpp:156] Memory required for data: 861623328
I0403 14:49:33.231510 11169 layer_factory.hpp:77] Creating layer inception_4a/3x3_reduce
I0403 14:49:33.231534 11169 net.cpp:91] Creating Layer inception_4a/3x3_reduce
I0403 14:49:33.231551 11169 net.cpp:425] inception_4a/3x3_reduce <- pool3/3x3_s2_pool3/3x3_s2_0_split_1
I0403 14:49:33.231572 11169 net.cpp:399] inception_4a/3x3_reduce -> inception_4a/3x3_reduce
I0403 14:49:33.232902 11169 net.cpp:141] Setting up inception_4a/3x3_reduce
I0403 14:49:33.232933 11169 net.cpp:148] Top shape: 24 96 14 14 (451584)
I0403 14:49:33.232949 11169 net.cpp:156] Memory required for data: 863429664
I0403 14:49:33.232975 11169 layer_factory.hpp:77] Creating layer inception_4a/relu_3x3_reduce
I0403 14:49:33.232995 11169 net.cpp:91] Creating Layer inception_4a/relu_3x3_reduce
I0403 14:49:33.233013 11169 net.cpp:425] inception_4a/relu_3x3_reduce <- inception_4a/3x3_reduce
I0403 14:49:33.233031 11169 net.cpp:386] inception_4a/relu_3x3_reduce -> inception_4a/3x3_reduce (in-place)
I0403 14:49:33.233225 11169 net.cpp:141] Setting up inception_4a/relu_3x3_reduce
I0403 14:49:33.233253 11169 net.cpp:148] Top shape: 24 96 14 14 (451584)
I0403 14:49:33.233268 11169 net.cpp:156] Memory required for data: 865236000
I0403 14:49:33.233283 11169 layer_factory.hpp:77] Creating layer inception_4a/3x3
I0403 14:49:33.233306 11169 net.cpp:91] Creating Layer inception_4a/3x3
I0403 14:49:33.233325 11169 net.cpp:425] inception_4a/3x3 <- inception_4a/3x3_reduce
I0403 14:49:33.233346 11169 net.cpp:399] inception_4a/3x3 -> inception_4a/3x3
I0403 14:49:33.236142 11169 net.cpp:141] Setting up inception_4a/3x3
I0403 14:49:33.236174 11169 net.cpp:148] Top shape: 24 208 14 14 (978432)
I0403 14:49:33.236191 11169 net.cpp:156] Memory required for data: 869149728
I0403 14:49:33.236208 11169 layer_factory.hpp:77] Creating layer inception_4a/relu_3x3
I0403 14:49:33.236230 11169 net.cpp:91] Creating Layer inception_4a/relu_3x3
I0403 14:49:33.236254 11169 net.cpp:425] inception_4a/relu_3x3 <- inception_4a/3x3
I0403 14:49:33.236273 11169 net.cpp:386] inception_4a/relu_3x3 -> inception_4a/3x3 (in-place)
I0403 14:49:33.236560 11169 net.cpp:141] Setting up inception_4a/relu_3x3
I0403 14:49:33.236588 11169 net.cpp:148] Top shape: 24 208 14 14 (978432)
I0403 14:49:33.236604 11169 net.cpp:156] Memory required for data: 873063456
I0403 14:49:33.236619 11169 layer_factory.hpp:77] Creating layer inception_4a/5x5_reduce
I0403 14:49:33.236644 11169 net.cpp:91] Creating Layer inception_4a/5x5_reduce
I0403 14:49:33.236661 11169 net.cpp:425] inception_4a/5x5_reduce <- pool3/3x3_s2_pool3/3x3_s2_0_split_2
I0403 14:49:33.236682 11169 net.cpp:399] inception_4a/5x5_reduce -> inception_4a/5x5_reduce
I0403 14:49:33.237742 11169 net.cpp:141] Setting up inception_4a/5x5_reduce
I0403 14:49:33.237771 11169 net.cpp:148] Top shape: 24 16 14 14 (75264)
I0403 14:49:33.237785 11169 net.cpp:156] Memory required for data: 873364512
I0403 14:49:33.237803 11169 layer_factory.hpp:77] Creating layer inception_4a/relu_5x5_reduce
I0403 14:49:33.237824 11169 net.cpp:91] Creating Layer inception_4a/relu_5x5_reduce
I0403 14:49:33.237841 11169 net.cpp:425] inception_4a/relu_5x5_reduce <- inception_4a/5x5_reduce
I0403 14:49:33.237859 11169 net.cpp:386] inception_4a/relu_5x5_reduce -> inception_4a/5x5_reduce (in-place)
I0403 14:49:33.238039 11169 net.cpp:141] Setting up inception_4a/relu_5x5_reduce
I0403 14:49:33.238065 11169 net.cpp:148] Top shape: 24 16 14 14 (75264)
I0403 14:49:33.238078 11169 net.cpp:156] Memory required for data: 873665568
I0403 14:49:33.238092 11169 layer_factory.hpp:77] Creating layer inception_4a/5x5
I0403 14:49:33.238134 11169 net.cpp:91] Creating Layer inception_4a/5x5
I0403 14:49:33.238153 11169 net.cpp:425] inception_4a/5x5 <- inception_4a/5x5_reduce
I0403 14:49:33.238171 11169 net.cpp:399] inception_4a/5x5 -> inception_4a/5x5
I0403 14:49:33.239290 11169 net.cpp:141] Setting up inception_4a/5x5
I0403 14:49:33.239320 11169 net.cpp:148] Top shape: 24 48 14 14 (225792)
I0403 14:49:33.239337 11169 net.cpp:156] Memory required for data: 874568736
I0403 14:49:33.239356 11169 layer_factory.hpp:77] Creating layer inception_4a/relu_5x5
I0403 14:49:33.239374 11169 net.cpp:91] Creating Layer inception_4a/relu_5x5
I0403 14:49:33.239389 11169 net.cpp:425] inception_4a/relu_5x5 <- inception_4a/5x5
I0403 14:49:33.239406 11169 net.cpp:386] inception_4a/relu_5x5 -> inception_4a/5x5 (in-place)
I0403 14:49:33.239591 11169 net.cpp:141] Setting up inception_4a/relu_5x5
I0403 14:49:33.239619 11169 net.cpp:148] Top shape: 24 48 14 14 (225792)
I0403 14:49:33.239636 11169 net.cpp:156] Memory required for data: 875471904
I0403 14:49:33.239650 11169 layer_factory.hpp:77] Creating layer inception_4a/pool
I0403 14:49:33.239668 11169 net.cpp:91] Creating Layer inception_4a/pool
I0403 14:49:33.239683 11169 net.cpp:425] inception_4a/pool <- pool3/3x3_s2_pool3/3x3_s2_0_split_3
I0403 14:49:33.239704 11169 net.cpp:399] inception_4a/pool -> inception_4a/pool
I0403 14:49:33.239765 11169 net.cpp:141] Setting up inception_4a/pool
I0403 14:49:33.239791 11169 net.cpp:148] Top shape: 24 480 14 14 (2257920)
I0403 14:49:33.239806 11169 net.cpp:156] Memory required for data: 884503584
I0403 14:49:33.239820 11169 layer_factory.hpp:77] Creating layer inception_4a/pool_proj
I0403 14:49:33.239842 11169 net.cpp:91] Creating Layer inception_4a/pool_proj
I0403 14:49:33.239859 11169 net.cpp:425] inception_4a/pool_proj <- inception_4a/pool
I0403 14:49:33.239877 11169 net.cpp:399] inception_4a/pool_proj -> inception_4a/pool_proj
I0403 14:49:33.241080 11169 net.cpp:141] Setting up inception_4a/pool_proj
I0403 14:49:33.241117 11169 net.cpp:148] Top shape: 24 64 14 14 (301056)
I0403 14:49:33.241148 11169 net.cpp:156] Memory required for data: 885707808
I0403 14:49:33.241168 11169 layer_factory.hpp:77] Creating layer inception_4a/relu_pool_proj
I0403 14:49:33.241186 11169 net.cpp:91] Creating Layer inception_4a/relu_pool_proj
I0403 14:49:33.241202 11169 net.cpp:425] inception_4a/relu_pool_proj <- inception_4a/pool_proj
I0403 14:49:33.241222 11169 net.cpp:386] inception_4a/relu_pool_proj -> inception_4a/pool_proj (in-place)
I0403 14:49:33.241508 11169 net.cpp:141] Setting up inception_4a/relu_pool_proj
I0403 14:49:33.241536 11169 net.cpp:148] Top shape: 24 64 14 14 (301056)
I0403 14:49:33.241552 11169 net.cpp:156] Memory required for data: 886912032
I0403 14:49:33.241566 11169 layer_factory.hpp:77] Creating layer inception_4a/output
I0403 14:49:33.241585 11169 net.cpp:91] Creating Layer inception_4a/output
I0403 14:49:33.241600 11169 net.cpp:425] inception_4a/output <- inception_4a/1x1
I0403 14:49:33.241616 11169 net.cpp:425] inception_4a/output <- inception_4a/3x3
I0403 14:49:33.241631 11169 net.cpp:425] inception_4a/output <- inception_4a/5x5
I0403 14:49:33.241647 11169 net.cpp:425] inception_4a/output <- inception_4a/pool_proj
I0403 14:49:33.241663 11169 net.cpp:399] inception_4a/output -> inception_4a/output
I0403 14:49:33.241710 11169 net.cpp:141] Setting up inception_4a/output
I0403 14:49:33.241734 11169 net.cpp:148] Top shape: 24 512 14 14 (2408448)
I0403 14:49:33.241750 11169 net.cpp:156] Memory required for data: 896545824
I0403 14:49:33.241765 11169 layer_factory.hpp:77] Creating layer inception_4a/output_inception_4a/output_0_split
I0403 14:49:33.241785 11169 net.cpp:91] Creating Layer inception_4a/output_inception_4a/output_0_split
I0403 14:49:33.241801 11169 net.cpp:425] inception_4a/output_inception_4a/output_0_split <- inception_4a/output
I0403 14:49:33.241818 11169 net.cpp:399] inception_4a/output_inception_4a/output_0_split -> inception_4a/output_inception_4a/output_0_split_0
I0403 14:49:33.241838 11169 net.cpp:399] inception_4a/output_inception_4a/output_0_split -> inception_4a/output_inception_4a/output_0_split_1
I0403 14:49:33.241858 11169 net.cpp:399] inception_4a/output_inception_4a/output_0_split -> inception_4a/output_inception_4a/output_0_split_2
I0403 14:49:33.241881 11169 net.cpp:399] inception_4a/output_inception_4a/output_0_split -> inception_4a/output_inception_4a/output_0_split_3
I0403 14:49:33.241901 11169 net.cpp:399] inception_4a/output_inception_4a/output_0_split -> inception_4a/output_inception_4a/output_0_split_4
I0403 14:49:33.241997 11169 net.cpp:141] Setting up inception_4a/output_inception_4a/output_0_split
I0403 14:49:33.242022 11169 net.cpp:148] Top shape: 24 512 14 14 (2408448)
I0403 14:49:33.242038 11169 net.cpp:148] Top shape: 24 512 14 14 (2408448)
I0403 14:49:33.242053 11169 net.cpp:148] Top shape: 24 512 14 14 (2408448)
I0403 14:49:33.242068 11169 net.cpp:148] Top shape: 24 512 14 14 (2408448)
I0403 14:49:33.242082 11169 net.cpp:148] Top shape: 24 512 14 14 (2408448)
I0403 14:49:33.242100 11169 net.cpp:156] Memory required for data: 944714784
I0403 14:49:33.242116 11169 layer_factory.hpp:77] Creating layer loss1/ave_pool
I0403 14:49:33.242138 11169 net.cpp:91] Creating Layer loss1/ave_pool
I0403 14:49:33.242156 11169 net.cpp:425] loss1/ave_pool <- inception_4a/output_inception_4a/output_0_split_0
I0403 14:49:33.242173 11169 net.cpp:399] loss1/ave_pool -> loss1/ave_pool
I0403 14:49:33.242388 11169 net.cpp:141] Setting up loss1/ave_pool
I0403 14:49:33.242416 11169 net.cpp:148] Top shape: 24 512 4 4 (196608)
I0403 14:49:33.242431 11169 net.cpp:156] Memory required for data: 945501216
I0403 14:49:33.242446 11169 layer_factory.hpp:77] Creating layer loss1/conv
I0403 14:49:33.242468 11169 net.cpp:91] Creating Layer loss1/conv
I0403 14:49:33.242486 11169 net.cpp:425] loss1/conv <- loss1/ave_pool
I0403 14:49:33.242504 11169 net.cpp:399] loss1/conv -> loss1/conv
I0403 14:49:33.243970 11169 net.cpp:141] Setting up loss1/conv
I0403 14:49:33.243999 11169 net.cpp:148] Top shape: 24 128 4 4 (49152)
I0403 14:49:33.244029 11169 net.cpp:156] Memory required for data: 945697824
I0403 14:49:33.244048 11169 layer_factory.hpp:77] Creating layer loss1/relu_conv
I0403 14:49:33.244070 11169 net.cpp:91] Creating Layer loss1/relu_conv
I0403 14:49:33.244087 11169 net.cpp:425] loss1/relu_conv <- loss1/conv
I0403 14:49:33.244109 11169 net.cpp:386] loss1/relu_conv -> loss1/conv (in-place)
I0403 14:49:33.244400 11169 net.cpp:141] Setting up loss1/relu_conv
I0403 14:49:33.244426 11169 net.cpp:148] Top shape: 24 128 4 4 (49152)
I0403 14:49:33.244441 11169 net.cpp:156] Memory required for data: 945894432
I0403 14:49:33.244457 11169 layer_factory.hpp:77] Creating layer loss1/fc
I0403 14:49:33.244482 11169 net.cpp:91] Creating Layer loss1/fc
I0403 14:49:33.244499 11169 net.cpp:425] loss1/fc <- loss1/conv
I0403 14:49:33.244518 11169 net.cpp:399] loss1/fc -> loss1/fc
I0403 14:49:33.262745 11169 net.cpp:141] Setting up loss1/fc
I0403 14:49:33.262810 11169 net.cpp:148] Top shape: 24 1024 (24576)
I0403 14:49:33.262826 11169 net.cpp:156] Memory required for data: 945992736
I0403 14:49:33.262847 11169 layer_factory.hpp:77] Creating layer loss1/relu_fc
I0403 14:49:33.262867 11169 net.cpp:91] Creating Layer loss1/relu_fc
I0403 14:49:33.262884 11169 net.cpp:425] loss1/relu_fc <- loss1/fc
I0403 14:49:33.262907 11169 net.cpp:386] loss1/relu_fc -> loss1/fc (in-place)
I0403 14:49:33.263139 11169 net.cpp:141] Setting up loss1/relu_fc
I0403 14:49:33.263164 11169 net.cpp:148] Top shape: 24 1024 (24576)
I0403 14:49:33.263180 11169 net.cpp:156] Memory required for data: 946091040
I0403 14:49:33.263195 11169 layer_factory.hpp:77] Creating layer loss1/drop_fc
I0403 14:49:33.263223 11169 net.cpp:91] Creating Layer loss1/drop_fc
I0403 14:49:33.263242 11169 net.cpp:425] loss1/drop_fc <- loss1/fc
I0403 14:49:33.263260 11169 net.cpp:386] loss1/drop_fc -> loss1/fc (in-place)
I0403 14:49:33.263315 11169 net.cpp:141] Setting up loss1/drop_fc
I0403 14:49:33.263339 11169 net.cpp:148] Top shape: 24 1024 (24576)
I0403 14:49:33.263353 11169 net.cpp:156] Memory required for data: 946189344
I0403 14:49:33.263368 11169 layer_factory.hpp:77] Creating layer loss1/classifier_plantvillage
I0403 14:49:33.263391 11169 net.cpp:91] Creating Layer loss1/classifier_plantvillage
I0403 14:49:33.263408 11169 net.cpp:425] loss1/classifier_plantvillage <- loss1/fc
I0403 14:49:33.263428 11169 net.cpp:399] loss1/classifier_plantvillage -> loss1/classifier_plantvillage
I0403 14:49:33.264386 11169 net.cpp:141] Setting up loss1/classifier_plantvillage
I0403 14:49:33.264417 11169 net.cpp:148] Top shape: 24 38 (912)
I0403 14:49:33.264433 11169 net.cpp:156] Memory required for data: 946192992
I0403 14:49:33.264451 11169 layer_factory.hpp:77] Creating layer loss1/classifier_plantvillage_loss1/classifier_plantvillage_0_split
I0403 14:49:33.264470 11169 net.cpp:91] Creating Layer loss1/classifier_plantvillage_loss1/classifier_plantvillage_0_split
I0403 14:49:33.264485 11169 net.cpp:425] loss1/classifier_plantvillage_loss1/classifier_plantvillage_0_split <- loss1/classifier_plantvillage
I0403 14:49:33.264505 11169 net.cpp:399] loss1/classifier_plantvillage_loss1/classifier_plantvillage_0_split -> loss1/classifier_plantvillage_loss1/classifier_plantvillage_0_split_0
I0403 14:49:33.264526 11169 net.cpp:399] loss1/classifier_plantvillage_loss1/classifier_plantvillage_0_split -> loss1/classifier_plantvillage_loss1/classifier_plantvillage_0_split_1
I0403 14:49:33.264546 11169 net.cpp:399] loss1/classifier_plantvillage_loss1/classifier_plantvillage_0_split -> loss1/classifier_plantvillage_loss1/classifier_plantvillage_0_split_2
I0403 14:49:33.264613 11169 net.cpp:141] Setting up loss1/classifier_plantvillage_loss1/classifier_plantvillage_0_split
I0403 14:49:33.264641 11169 net.cpp:148] Top shape: 24 38 (912)
I0403 14:49:33.264657 11169 net.cpp:148] Top shape: 24 38 (912)
I0403 14:49:33.264672 11169 net.cpp:148] Top shape: 24 38 (912)
I0403 14:49:33.264686 11169 net.cpp:156] Memory required for data: 946203936
I0403 14:49:33.264700 11169 layer_factory.hpp:77] Creating layer inception_4b/1x1
I0403 14:49:33.264721 11169 net.cpp:91] Creating Layer inception_4b/1x1
I0403 14:49:33.264762 11169 net.cpp:425] inception_4b/1x1 <- inception_4a/output_inception_4a/output_0_split_1
I0403 14:49:33.264782 11169 net.cpp:399] inception_4b/1x1 -> inception_4b/1x1
I0403 14:49:33.266530 11169 net.cpp:141] Setting up inception_4b/1x1
I0403 14:49:33.266558 11169 net.cpp:148] Top shape: 24 160 14 14 (752640)
I0403 14:49:33.266573 11169 net.cpp:156] Memory required for data: 949214496
I0403 14:49:33.266592 11169 layer_factory.hpp:77] Creating layer inception_4b/relu_1x1
I0403 14:49:33.266613 11169 net.cpp:91] Creating Layer inception_4b/relu_1x1
I0403 14:49:33.266629 11169 net.cpp:425] inception_4b/relu_1x1 <- inception_4b/1x1
I0403 14:49:33.266645 11169 net.cpp:386] inception_4b/relu_1x1 -> inception_4b/1x1 (in-place)
I0403 14:49:33.266830 11169 net.cpp:141] Setting up inception_4b/relu_1x1
I0403 14:49:33.266855 11169 net.cpp:148] Top shape: 24 160 14 14 (752640)
I0403 14:49:33.266870 11169 net.cpp:156] Memory required for data: 952225056
I0403 14:49:33.266885 11169 layer_factory.hpp:77] Creating layer inception_4b/3x3_reduce
I0403 14:49:33.266908 11169 net.cpp:91] Creating Layer inception_4b/3x3_reduce
I0403 14:49:33.266926 11169 net.cpp:425] inception_4b/3x3_reduce <- inception_4a/output_inception_4a/output_0_split_2
I0403 14:49:33.266944 11169 net.cpp:399] inception_4b/3x3_reduce -> inception_4b/3x3_reduce
I0403 14:49:33.268353 11169 net.cpp:141] Setting up inception_4b/3x3_reduce
I0403 14:49:33.268383 11169 net.cpp:148] Top shape: 24 112 14 14 (526848)
I0403 14:49:33.268398 11169 net.cpp:156] Memory required for data: 954332448
I0403 14:49:33.268415 11169 layer_factory.hpp:77] Creating layer inception_4b/relu_3x3_reduce
I0403 14:49:33.268436 11169 net.cpp:91] Creating Layer inception_4b/relu_3x3_reduce
I0403 14:49:33.268453 11169 net.cpp:425] inception_4b/relu_3x3_reduce <- inception_4b/3x3_reduce
I0403 14:49:33.268471 11169 net.cpp:386] inception_4b/relu_3x3_reduce -> inception_4b/3x3_reduce (in-place)
I0403 14:49:33.268759 11169 net.cpp:141] Setting up inception_4b/relu_3x3_reduce
I0403 14:49:33.268786 11169 net.cpp:148] Top shape: 24 112 14 14 (526848)
I0403 14:49:33.268800 11169 net.cpp:156] Memory required for data: 956439840
I0403 14:49:33.268815 11169 layer_factory.hpp:77] Creating layer inception_4b/3x3
I0403 14:49:33.268837 11169 net.cpp:91] Creating Layer inception_4b/3x3
I0403 14:49:33.268857 11169 net.cpp:425] inception_4b/3x3 <- inception_4b/3x3_reduce
I0403 14:49:33.268875 11169 net.cpp:399] inception_4b/3x3 -> inception_4b/3x3
I0403 14:49:33.271930 11169 net.cpp:141] Setting up inception_4b/3x3
I0403 14:49:33.271963 11169 net.cpp:148] Top shape: 24 224 14 14 (1053696)
I0403 14:49:33.271980 11169 net.cpp:156] Memory required for data: 960654624
I0403 14:49:33.271998 11169 layer_factory.hpp:77] Creating layer inception_4b/relu_3x3
I0403 14:49:33.272017 11169 net.cpp:91] Creating Layer inception_4b/relu_3x3
I0403 14:49:33.272032 11169 net.cpp:425] inception_4b/relu_3x3 <- inception_4b/3x3
I0403 14:49:33.272053 11169 net.cpp:386] inception_4b/relu_3x3 -> inception_4b/3x3 (in-place)
I0403 14:49:33.272241 11169 net.cpp:141] Setting up inception_4b/relu_3x3
I0403 14:49:33.272267 11169 net.cpp:148] Top shape: 24 224 14 14 (1053696)
I0403 14:49:33.272282 11169 net.cpp:156] Memory required for data: 964869408
I0403 14:49:33.272296 11169 layer_factory.hpp:77] Creating layer inception_4b/5x5_reduce
I0403 14:49:33.272317 11169 net.cpp:91] Creating Layer inception_4b/5x5_reduce
I0403 14:49:33.272336 11169 net.cpp:425] inception_4b/5x5_reduce <- inception_4a/output_inception_4a/output_0_split_3
I0403 14:49:33.272358 11169 net.cpp:399] inception_4b/5x5_reduce -> inception_4b/5x5_reduce
I0403 14:49:33.273483 11169 net.cpp:141] Setting up inception_4b/5x5_reduce
I0403 14:49:33.273514 11169 net.cpp:148] Top shape: 24 24 14 14 (112896)
I0403 14:49:33.273529 11169 net.cpp:156] Memory required for data: 965320992
I0403 14:49:33.273546 11169 layer_factory.hpp:77] Creating layer inception_4b/relu_5x5_reduce
I0403 14:49:33.273567 11169 net.cpp:91] Creating Layer inception_4b/relu_5x5_reduce
I0403 14:49:33.273598 11169 net.cpp:425] inception_4b/relu_5x5_reduce <- inception_4b/5x5_reduce
I0403 14:49:33.273617 11169 net.cpp:386] inception_4b/relu_5x5_reduce -> inception_4b/5x5_reduce (in-place)
I0403 14:49:33.273803 11169 net.cpp:141] Setting up inception_4b/relu_5x5_reduce
I0403 14:49:33.273830 11169 net.cpp:148] Top shape: 24 24 14 14 (112896)
I0403 14:49:33.273846 11169 net.cpp:156] Memory required for data: 965772576
I0403 14:49:33.273860 11169 layer_factory.hpp:77] Creating layer inception_4b/5x5
I0403 14:49:33.273882 11169 net.cpp:91] Creating Layer inception_4b/5x5
I0403 14:49:33.273900 11169 net.cpp:425] inception_4b/5x5 <- inception_4b/5x5_reduce
I0403 14:49:33.273918 11169 net.cpp:399] inception_4b/5x5 -> inception_4b/5x5
I0403 14:49:33.275185 11169 net.cpp:141] Setting up inception_4b/5x5
I0403 14:49:33.275214 11169 net.cpp:148] Top shape: 24 64 14 14 (301056)
I0403 14:49:33.275229 11169 net.cpp:156] Memory required for data: 966976800
I0403 14:49:33.275246 11169 layer_factory.hpp:77] Creating layer inception_4b/relu_5x5
I0403 14:49:33.275269 11169 net.cpp:91] Creating Layer inception_4b/relu_5x5
I0403 14:49:33.275286 11169 net.cpp:425] inception_4b/relu_5x5 <- inception_4b/5x5
I0403 14:49:33.275303 11169 net.cpp:386] inception_4b/relu_5x5 -> inception_4b/5x5 (in-place)
I0403 14:49:33.275593 11169 net.cpp:141] Setting up inception_4b/relu_5x5
I0403 14:49:33.275619 11169 net.cpp:148] Top shape: 24 64 14 14 (301056)
I0403 14:49:33.275635 11169 net.cpp:156] Memory required for data: 968181024
I0403 14:49:33.275650 11169 layer_factory.hpp:77] Creating layer inception_4b/pool
I0403 14:49:33.275671 11169 net.cpp:91] Creating Layer inception_4b/pool
I0403 14:49:33.275687 11169 net.cpp:425] inception_4b/pool <- inception_4a/output_inception_4a/output_0_split_4
I0403 14:49:33.275706 11169 net.cpp:399] inception_4b/pool -> inception_4b/pool
I0403 14:49:33.275771 11169 net.cpp:141] Setting up inception_4b/pool
I0403 14:49:33.275794 11169 net.cpp:148] Top shape: 24 512 14 14 (2408448)
I0403 14:49:33.275809 11169 net.cpp:156] Memory required for data: 977814816
I0403 14:49:33.275822 11169 layer_factory.hpp:77] Creating layer inception_4b/pool_proj
I0403 14:49:33.275845 11169 net.cpp:91] Creating Layer inception_4b/pool_proj
I0403 14:49:33.275861 11169 net.cpp:425] inception_4b/pool_proj <- inception_4b/pool
I0403 14:49:33.275882 11169 net.cpp:399] inception_4b/pool_proj -> inception_4b/pool_proj
I0403 14:49:33.277122 11169 net.cpp:141] Setting up inception_4b/pool_proj
I0403 14:49:33.277150 11169 net.cpp:148] Top shape: 24 64 14 14 (301056)
I0403 14:49:33.277165 11169 net.cpp:156] Memory required for data: 979019040
I0403 14:49:33.277184 11169 layer_factory.hpp:77] Creating layer inception_4b/relu_pool_proj
I0403 14:49:33.277204 11169 net.cpp:91] Creating Layer inception_4b/relu_pool_proj
I0403 14:49:33.277221 11169 net.cpp:425] inception_4b/relu_pool_proj <- inception_4b/pool_proj
I0403 14:49:33.277240 11169 net.cpp:386] inception_4b/relu_pool_proj -> inception_4b/pool_proj (in-place)
I0403 14:49:33.277426 11169 net.cpp:141] Setting up inception_4b/relu_pool_proj
I0403 14:49:33.277454 11169 net.cpp:148] Top shape: 24 64 14 14 (301056)
I0403 14:49:33.277468 11169 net.cpp:156] Memory required for data: 980223264
I0403 14:49:33.277483 11169 layer_factory.hpp:77] Creating layer inception_4b/output
I0403 14:49:33.277500 11169 net.cpp:91] Creating Layer inception_4b/output
I0403 14:49:33.277515 11169 net.cpp:425] inception_4b/output <- inception_4b/1x1
I0403 14:49:33.277532 11169 net.cpp:425] inception_4b/output <- inception_4b/3x3
I0403 14:49:33.277547 11169 net.cpp:425] inception_4b/output <- inception_4b/5x5
I0403 14:49:33.277562 11169 net.cpp:425] inception_4b/output <- inception_4b/pool_proj
I0403 14:49:33.277578 11169 net.cpp:399] inception_4b/output -> inception_4b/output
I0403 14:49:33.277626 11169 net.cpp:141] Setting up inception_4b/output
I0403 14:49:33.277649 11169 net.cpp:148] Top shape: 24 512 14 14 (2408448)
I0403 14:49:33.277663 11169 net.cpp:156] Memory required for data: 989857056
I0403 14:49:33.277693 11169 layer_factory.hpp:77] Creating layer inception_4b/output_inception_4b/output_0_split
I0403 14:49:33.277709 11169 net.cpp:91] Creating Layer inception_4b/output_inception_4b/output_0_split
I0403 14:49:33.277724 11169 net.cpp:425] inception_4b/output_inception_4b/output_0_split <- inception_4b/output
I0403 14:49:33.277743 11169 net.cpp:399] inception_4b/output_inception_4b/output_0_split -> inception_4b/output_inception_4b/output_0_split_0
I0403 14:49:33.277765 11169 net.cpp:399] inception_4b/output_inception_4b/output_0_split -> inception_4b/output_inception_4b/output_0_split_1
I0403 14:49:33.277784 11169 net.cpp:399] inception_4b/output_inception_4b/output_0_split -> inception_4b/output_inception_4b/output_0_split_2
I0403 14:49:33.277806 11169 net.cpp:399] inception_4b/output_inception_4b/output_0_split -> inception_4b/output_inception_4b/output_0_split_3
I0403 14:49:33.277895 11169 net.cpp:141] Setting up inception_4b/output_inception_4b/output_0_split
I0403 14:49:33.277920 11169 net.cpp:148] Top shape: 24 512 14 14 (2408448)
I0403 14:49:33.277935 11169 net.cpp:148] Top shape: 24 512 14 14 (2408448)
I0403 14:49:33.277951 11169 net.cpp:148] Top shape: 24 512 14 14 (2408448)
I0403 14:49:33.277966 11169 net.cpp:148] Top shape: 24 512 14 14 (2408448)
I0403 14:49:33.277978 11169 net.cpp:156] Memory required for data: 1028392224
I0403 14:49:33.277993 11169 layer_factory.hpp:77] Creating layer inception_4c/1x1
I0403 14:49:33.278014 11169 net.cpp:91] Creating Layer inception_4c/1x1
I0403 14:49:33.278033 11169 net.cpp:425] inception_4c/1x1 <- inception_4b/output_inception_4b/output_0_split_0
I0403 14:49:33.278051 11169 net.cpp:399] inception_4c/1x1 -> inception_4c/1x1
I0403 14:49:33.279531 11169 net.cpp:141] Setting up inception_4c/1x1
I0403 14:49:33.279563 11169 net.cpp:148] Top shape: 24 128 14 14 (602112)
I0403 14:49:33.279580 11169 net.cpp:156] Memory required for data: 1030800672
I0403 14:49:33.279598 11169 layer_factory.hpp:77] Creating layer inception_4c/relu_1x1
I0403 14:49:33.279616 11169 net.cpp:91] Creating Layer inception_4c/relu_1x1
I0403 14:49:33.279633 11169 net.cpp:425] inception_4c/relu_1x1 <- inception_4c/1x1
I0403 14:49:33.279651 11169 net.cpp:386] inception_4c/relu_1x1 -> inception_4c/1x1 (in-place)
I0403 14:49:33.279839 11169 net.cpp:141] Setting up inception_4c/relu_1x1
I0403 14:49:33.279865 11169 net.cpp:148] Top shape: 24 128 14 14 (602112)
I0403 14:49:33.279880 11169 net.cpp:156] Memory required for data: 1033209120
I0403 14:49:33.279893 11169 layer_factory.hpp:77] Creating layer inception_4c/3x3_reduce
I0403 14:49:33.279916 11169 net.cpp:91] Creating Layer inception_4c/3x3_reduce
I0403 14:49:33.279933 11169 net.cpp:425] inception_4c/3x3_reduce <- inception_4b/output_inception_4b/output_0_split_1
I0403 14:49:33.279953 11169 net.cpp:399] inception_4c/3x3_reduce -> inception_4c/3x3_reduce
I0403 14:49:33.281958 11169 net.cpp:141] Setting up inception_4c/3x3_reduce
I0403 14:49:33.281988 11169 net.cpp:148] Top shape: 24 128 14 14 (602112)
I0403 14:49:33.282004 11169 net.cpp:156] Memory required for data: 1035617568
I0403 14:49:33.282023 11169 layer_factory.hpp:77] Creating layer inception_4c/relu_3x3_reduce
I0403 14:49:33.282042 11169 net.cpp:91] Creating Layer inception_4c/relu_3x3_reduce
I0403 14:49:33.282057 11169 net.cpp:425] inception_4c/relu_3x3_reduce <- inception_4c/3x3_reduce
I0403 14:49:33.282075 11169 net.cpp:386] inception_4c/relu_3x3_reduce -> inception_4c/3x3_reduce (in-place)
I0403 14:49:33.282380 11169 net.cpp:141] Setting up inception_4c/relu_3x3_reduce
I0403 14:49:33.282407 11169 net.cpp:148] Top shape: 24 128 14 14 (602112)
I0403 14:49:33.282423 11169 net.cpp:156] Memory required for data: 1038026016
I0403 14:49:33.282436 11169 layer_factory.hpp:77] Creating layer inception_4c/3x3
I0403 14:49:33.282460 11169 net.cpp:91] Creating Layer inception_4c/3x3
I0403 14:49:33.282479 11169 net.cpp:425] inception_4c/3x3 <- inception_4c/3x3_reduce
I0403 14:49:33.282498 11169 net.cpp:399] inception_4c/3x3 -> inception_4c/3x3
I0403 14:49:33.286216 11169 net.cpp:141] Setting up inception_4c/3x3
I0403 14:49:33.286260 11169 net.cpp:148] Top shape: 24 256 14 14 (1204224)
I0403 14:49:33.286278 11169 net.cpp:156] Memory required for data: 1042842912
I0403 14:49:33.286310 11169 layer_factory.hpp:77] Creating layer inception_4c/relu_3x3
I0403 14:49:33.286332 11169 net.cpp:91] Creating Layer inception_4c/relu_3x3
I0403 14:49:33.286350 11169 net.cpp:425] inception_4c/relu_3x3 <- inception_4c/3x3
I0403 14:49:33.286367 11169 net.cpp:386] inception_4c/relu_3x3 -> inception_4c/3x3 (in-place)
I0403 14:49:33.286557 11169 net.cpp:141] Setting up inception_4c/relu_3x3
I0403 14:49:33.286582 11169 net.cpp:148] Top shape: 24 256 14 14 (1204224)
I0403 14:49:33.286597 11169 net.cpp:156] Memory required for data: 1047659808
I0403 14:49:33.286612 11169 layer_factory.hpp:77] Creating layer inception_4c/5x5_reduce
I0403 14:49:33.286633 11169 net.cpp:91] Creating Layer inception_4c/5x5_reduce
I0403 14:49:33.286651 11169 net.cpp:425] inception_4c/5x5_reduce <- inception_4b/output_inception_4b/output_0_split_2
I0403 14:49:33.286674 11169 net.cpp:399] inception_4c/5x5_reduce -> inception_4c/5x5_reduce
I0403 14:49:33.287788 11169 net.cpp:141] Setting up inception_4c/5x5_reduce
I0403 14:49:33.287817 11169 net.cpp:148] Top shape: 24 24 14 14 (112896)
I0403 14:49:33.287832 11169 net.cpp:156] Memory required for data: 1048111392
I0403 14:49:33.287853 11169 layer_factory.hpp:77] Creating layer inception_4c/relu_5x5_reduce
I0403 14:49:33.287873 11169 net.cpp:91] Creating Layer inception_4c/relu_5x5_reduce
I0403 14:49:33.287889 11169 net.cpp:425] inception_4c/relu_5x5_reduce <- inception_4c/5x5_reduce
I0403 14:49:33.287906 11169 net.cpp:386] inception_4c/relu_5x5_reduce -> inception_4c/5x5_reduce (in-place)
I0403 14:49:33.288100 11169 net.cpp:141] Setting up inception_4c/relu_5x5_reduce
I0403 14:49:33.288128 11169 net.cpp:148] Top shape: 24 24 14 14 (112896)
I0403 14:49:33.288144 11169 net.cpp:156] Memory required for data: 1048562976
I0403 14:49:33.288158 11169 layer_factory.hpp:77] Creating layer inception_4c/5x5
I0403 14:49:33.288180 11169 net.cpp:91] Creating Layer inception_4c/5x5
I0403 14:49:33.288198 11169 net.cpp:425] inception_4c/5x5 <- inception_4c/5x5_reduce
I0403 14:49:33.288216 11169 net.cpp:399] inception_4c/5x5 -> inception_4c/5x5
I0403 14:49:33.289513 11169 net.cpp:141] Setting up inception_4c/5x5
I0403 14:49:33.289541 11169 net.cpp:148] Top shape: 24 64 14 14 (301056)
I0403 14:49:33.289557 11169 net.cpp:156] Memory required for data: 1049767200
I0403 14:49:33.289577 11169 layer_factory.hpp:77] Creating layer inception_4c/relu_5x5
I0403 14:49:33.289597 11169 net.cpp:91] Creating Layer inception_4c/relu_5x5
I0403 14:49:33.289613 11169 net.cpp:425] inception_4c/relu_5x5 <- inception_4c/5x5
I0403 14:49:33.289630 11169 net.cpp:386] inception_4c/relu_5x5 -> inception_4c/5x5 (in-place)
I0403 14:49:33.289928 11169 net.cpp:141] Setting up inception_4c/relu_5x5
I0403 14:49:33.289955 11169 net.cpp:148] Top shape: 24 64 14 14 (301056)
I0403 14:49:33.289970 11169 net.cpp:156] Memory required for data: 1050971424
I0403 14:49:33.289984 11169 layer_factory.hpp:77] Creating layer inception_4c/pool
I0403 14:49:33.290004 11169 net.cpp:91] Creating Layer inception_4c/pool
I0403 14:49:33.290021 11169 net.cpp:425] inception_4c/pool <- inception_4b/output_inception_4b/output_0_split_3
I0403 14:49:33.290042 11169 net.cpp:399] inception_4c/pool -> inception_4c/pool
I0403 14:49:33.290112 11169 net.cpp:141] Setting up inception_4c/pool
I0403 14:49:33.290137 11169 net.cpp:148] Top shape: 24 512 14 14 (2408448)
I0403 14:49:33.290151 11169 net.cpp:156] Memory required for data: 1060605216
I0403 14:49:33.290166 11169 layer_factory.hpp:77] Creating layer inception_4c/pool_proj
I0403 14:49:33.290187 11169 net.cpp:91] Creating Layer inception_4c/pool_proj
I0403 14:49:33.290205 11169 net.cpp:425] inception_4c/pool_proj <- inception_4c/pool
I0403 14:49:33.290226 11169 net.cpp:399] inception_4c/pool_proj -> inception_4c/pool_proj
I0403 14:49:33.291484 11169 net.cpp:141] Setting up inception_4c/pool_proj
I0403 14:49:33.291512 11169 net.cpp:148] Top shape: 24 64 14 14 (301056)
I0403 14:49:33.291543 11169 net.cpp:156] Memory required for data: 1061809440
I0403 14:49:33.291563 11169 layer_factory.hpp:77] Creating layer inception_4c/relu_pool_proj
I0403 14:49:33.291584 11169 net.cpp:91] Creating Layer inception_4c/relu_pool_proj
I0403 14:49:33.291600 11169 net.cpp:425] inception_4c/relu_pool_proj <- inception_4c/pool_proj
I0403 14:49:33.291617 11169 net.cpp:386] inception_4c/relu_pool_proj -> inception_4c/pool_proj (in-place)
I0403 14:49:33.291805 11169 net.cpp:141] Setting up inception_4c/relu_pool_proj
I0403 14:49:33.291831 11169 net.cpp:148] Top shape: 24 64 14 14 (301056)
I0403 14:49:33.291846 11169 net.cpp:156] Memory required for data: 1063013664
I0403 14:49:33.291860 11169 layer_factory.hpp:77] Creating layer inception_4c/output
I0403 14:49:33.291879 11169 net.cpp:91] Creating Layer inception_4c/output
I0403 14:49:33.291895 11169 net.cpp:425] inception_4c/output <- inception_4c/1x1
I0403 14:49:33.291911 11169 net.cpp:425] inception_4c/output <- inception_4c/3x3
I0403 14:49:33.291928 11169 net.cpp:425] inception_4c/output <- inception_4c/5x5
I0403 14:49:33.291944 11169 net.cpp:425] inception_4c/output <- inception_4c/pool_proj
I0403 14:49:33.291960 11169 net.cpp:399] inception_4c/output -> inception_4c/output
I0403 14:49:33.292009 11169 net.cpp:141] Setting up inception_4c/output
I0403 14:49:33.292033 11169 net.cpp:148] Top shape: 24 512 14 14 (2408448)
I0403 14:49:33.292047 11169 net.cpp:156] Memory required for data: 1072647456
I0403 14:49:33.292062 11169 layer_factory.hpp:77] Creating layer inception_4c/output_inception_4c/output_0_split
I0403 14:49:33.292079 11169 net.cpp:91] Creating Layer inception_4c/output_inception_4c/output_0_split
I0403 14:49:33.292098 11169 net.cpp:425] inception_4c/output_inception_4c/output_0_split <- inception_4c/output
I0403 14:49:33.292119 11169 net.cpp:399] inception_4c/output_inception_4c/output_0_split -> inception_4c/output_inception_4c/output_0_split_0
I0403 14:49:33.292141 11169 net.cpp:399] inception_4c/output_inception_4c/output_0_split -> inception_4c/output_inception_4c/output_0_split_1
I0403 14:49:33.292161 11169 net.cpp:399] inception_4c/output_inception_4c/output_0_split -> inception_4c/output_inception_4c/output_0_split_2
I0403 14:49:33.292181 11169 net.cpp:399] inception_4c/output_inception_4c/output_0_split -> inception_4c/output_inception_4c/output_0_split_3
I0403 14:49:33.292273 11169 net.cpp:141] Setting up inception_4c/output_inception_4c/output_0_split
I0403 14:49:33.292297 11169 net.cpp:148] Top shape: 24 512 14 14 (2408448)
I0403 14:49:33.292314 11169 net.cpp:148] Top shape: 24 512 14 14 (2408448)
I0403 14:49:33.292328 11169 net.cpp:148] Top shape: 24 512 14 14 (2408448)
I0403 14:49:33.292343 11169 net.cpp:148] Top shape: 24 512 14 14 (2408448)
I0403 14:49:33.292357 11169 net.cpp:156] Memory required for data: 1111182624
I0403 14:49:33.292372 11169 layer_factory.hpp:77] Creating layer inception_4d/1x1
I0403 14:49:33.292393 11169 net.cpp:91] Creating Layer inception_4d/1x1
I0403 14:49:33.292412 11169 net.cpp:425] inception_4d/1x1 <- inception_4c/output_inception_4c/output_0_split_0
I0403 14:49:33.292431 11169 net.cpp:399] inception_4d/1x1 -> inception_4d/1x1
I0403 14:49:33.293860 11169 net.cpp:141] Setting up inception_4d/1x1
I0403 14:49:33.293891 11169 net.cpp:148] Top shape: 24 112 14 14 (526848)
I0403 14:49:33.293908 11169 net.cpp:156] Memory required for data: 1113290016
I0403 14:49:33.293927 11169 layer_factory.hpp:77] Creating layer inception_4d/relu_1x1
I0403 14:49:33.293946 11169 net.cpp:91] Creating Layer inception_4d/relu_1x1
I0403 14:49:33.293962 11169 net.cpp:425] inception_4d/relu_1x1 <- inception_4d/1x1
I0403 14:49:33.293980 11169 net.cpp:386] inception_4d/relu_1x1 -> inception_4d/1x1 (in-place)
I0403 14:49:33.294178 11169 net.cpp:141] Setting up inception_4d/relu_1x1
I0403 14:49:33.294203 11169 net.cpp:148] Top shape: 24 112 14 14 (526848)
I0403 14:49:33.294217 11169 net.cpp:156] Memory required for data: 1115397408
I0403 14:49:33.294232 11169 layer_factory.hpp:77] Creating layer inception_4d/3x3_reduce
I0403 14:49:33.294270 11169 net.cpp:91] Creating Layer inception_4d/3x3_reduce
I0403 14:49:33.294288 11169 net.cpp:425] inception_4d/3x3_reduce <- inception_4c/output_inception_4c/output_0_split_1
I0403 14:49:33.294309 11169 net.cpp:399] inception_4d/3x3_reduce -> inception_4d/3x3_reduce
I0403 14:49:33.295877 11169 net.cpp:141] Setting up inception_4d/3x3_reduce
I0403 14:49:33.295907 11169 net.cpp:148] Top shape: 24 144 14 14 (677376)
I0403 14:49:33.295923 11169 net.cpp:156] Memory required for data: 1118106912
I0403 14:49:33.295943 11169 layer_factory.hpp:77] Creating layer inception_4d/relu_3x3_reduce
I0403 14:49:33.295960 11169 net.cpp:91] Creating Layer inception_4d/relu_3x3_reduce
I0403 14:49:33.295976 11169 net.cpp:425] inception_4d/relu_3x3_reduce <- inception_4d/3x3_reduce
I0403 14:49:33.295994 11169 net.cpp:386] inception_4d/relu_3x3_reduce -> inception_4d/3x3_reduce (in-place)
I0403 14:49:33.296304 11169 net.cpp:141] Setting up inception_4d/relu_3x3_reduce
I0403 14:49:33.296334 11169 net.cpp:148] Top shape: 24 144 14 14 (677376)
I0403 14:49:33.296350 11169 net.cpp:156] Memory required for data: 1120816416
I0403 14:49:33.296365 11169 layer_factory.hpp:77] Creating layer inception_4d/3x3
I0403 14:49:33.296387 11169 net.cpp:91] Creating Layer inception_4d/3x3
I0403 14:49:33.296406 11169 net.cpp:425] inception_4d/3x3 <- inception_4d/3x3_reduce
I0403 14:49:33.296424 11169 net.cpp:399] inception_4d/3x3 -> inception_4d/3x3
I0403 14:49:33.300812 11169 net.cpp:141] Setting up inception_4d/3x3
I0403 14:49:33.300843 11169 net.cpp:148] Top shape: 24 288 14 14 (1354752)
I0403 14:49:33.300859 11169 net.cpp:156] Memory required for data: 1126235424
I0403 14:49:33.300878 11169 layer_factory.hpp:77] Creating layer inception_4d/relu_3x3
I0403 14:49:33.300896 11169 net.cpp:91] Creating Layer inception_4d/relu_3x3
I0403 14:49:33.300911 11169 net.cpp:425] inception_4d/relu_3x3 <- inception_4d/3x3
I0403 14:49:33.300931 11169 net.cpp:386] inception_4d/relu_3x3 -> inception_4d/3x3 (in-place)
I0403 14:49:33.301127 11169 net.cpp:141] Setting up inception_4d/relu_3x3
I0403 14:49:33.301152 11169 net.cpp:148] Top shape: 24 288 14 14 (1354752)
I0403 14:49:33.301167 11169 net.cpp:156] Memory required for data: 1131654432
I0403 14:49:33.301182 11169 layer_factory.hpp:77] Creating layer inception_4d/5x5_reduce
I0403 14:49:33.301205 11169 net.cpp:91] Creating Layer inception_4d/5x5_reduce
I0403 14:49:33.301223 11169 net.cpp:425] inception_4d/5x5_reduce <- inception_4c/output_inception_4c/output_0_split_2
I0403 14:49:33.301244 11169 net.cpp:399] inception_4d/5x5_reduce -> inception_4d/5x5_reduce
I0403 14:49:33.302434 11169 net.cpp:141] Setting up inception_4d/5x5_reduce
I0403 14:49:33.302464 11169 net.cpp:148] Top shape: 24 32 14 14 (150528)
I0403 14:49:33.302479 11169 net.cpp:156] Memory required for data: 1132256544
I0403 14:49:33.302497 11169 layer_factory.hpp:77] Creating layer inception_4d/relu_5x5_reduce
I0403 14:49:33.302515 11169 net.cpp:91] Creating Layer inception_4d/relu_5x5_reduce
I0403 14:49:33.302531 11169 net.cpp:425] inception_4d/relu_5x5_reduce <- inception_4d/5x5_reduce
I0403 14:49:33.302551 11169 net.cpp:386] inception_4d/relu_5x5_reduce -> inception_4d/5x5_reduce (in-place)
I0403 14:49:33.302743 11169 net.cpp:141] Setting up inception_4d/relu_5x5_reduce
I0403 14:49:33.302768 11169 net.cpp:148] Top shape: 24 32 14 14 (150528)
I0403 14:49:33.302783 11169 net.cpp:156] Memory required for data: 1132858656
I0403 14:49:33.302798 11169 layer_factory.hpp:77] Creating layer inception_4d/5x5
I0403 14:49:33.302820 11169 net.cpp:91] Creating Layer inception_4d/5x5
I0403 14:49:33.302839 11169 net.cpp:425] inception_4d/5x5 <- inception_4d/5x5_reduce
I0403 14:49:33.302858 11169 net.cpp:399] inception_4d/5x5 -> inception_4d/5x5
I0403 14:49:33.304401 11169 net.cpp:141] Setting up inception_4d/5x5
I0403 14:49:33.304430 11169 net.cpp:148] Top shape: 24 64 14 14 (301056)
I0403 14:49:33.304446 11169 net.cpp:156] Memory required for data: 1134062880
I0403 14:49:33.304464 11169 layer_factory.hpp:77] Creating layer inception_4d/relu_5x5
I0403 14:49:33.304500 11169 net.cpp:91] Creating Layer inception_4d/relu_5x5
I0403 14:49:33.304519 11169 net.cpp:425] inception_4d/relu_5x5 <- inception_4d/5x5
I0403 14:49:33.304536 11169 net.cpp:386] inception_4d/relu_5x5 -> inception_4d/5x5 (in-place)
I0403 14:49:33.304844 11169 net.cpp:141] Setting up inception_4d/relu_5x5
I0403 14:49:33.304870 11169 net.cpp:148] Top shape: 24 64 14 14 (301056)
I0403 14:49:33.304886 11169 net.cpp:156] Memory required for data: 1135267104
I0403 14:49:33.304901 11169 layer_factory.hpp:77] Creating layer inception_4d/pool
I0403 14:49:33.304920 11169 net.cpp:91] Creating Layer inception_4d/pool
I0403 14:49:33.304939 11169 net.cpp:425] inception_4d/pool <- inception_4c/output_inception_4c/output_0_split_3
I0403 14:49:33.304956 11169 net.cpp:399] inception_4d/pool -> inception_4d/pool
I0403 14:49:33.305027 11169 net.cpp:141] Setting up inception_4d/pool
I0403 14:49:33.305050 11169 net.cpp:148] Top shape: 24 512 14 14 (2408448)
I0403 14:49:33.305064 11169 net.cpp:156] Memory required for data: 1144900896
I0403 14:49:33.305079 11169 layer_factory.hpp:77] Creating layer inception_4d/pool_proj
I0403 14:49:33.305105 11169 net.cpp:91] Creating Layer inception_4d/pool_proj
I0403 14:49:33.305124 11169 net.cpp:425] inception_4d/pool_proj <- inception_4d/pool
I0403 14:49:33.305145 11169 net.cpp:399] inception_4d/pool_proj -> inception_4d/pool_proj
I0403 14:49:33.306987 11169 net.cpp:141] Setting up inception_4d/pool_proj
I0403 14:49:33.307016 11169 net.cpp:148] Top shape: 24 64 14 14 (301056)
I0403 14:49:33.307032 11169 net.cpp:156] Memory required for data: 1146105120
I0403 14:49:33.307050 11169 layer_factory.hpp:77] Creating layer inception_4d/relu_pool_proj
I0403 14:49:33.307068 11169 net.cpp:91] Creating Layer inception_4d/relu_pool_proj
I0403 14:49:33.307085 11169 net.cpp:425] inception_4d/relu_pool_proj <- inception_4d/pool_proj
I0403 14:49:33.307109 11169 net.cpp:386] inception_4d/relu_pool_proj -> inception_4d/pool_proj (in-place)
I0403 14:49:33.307302 11169 net.cpp:141] Setting up inception_4d/relu_pool_proj
I0403 14:49:33.307327 11169 net.cpp:148] Top shape: 24 64 14 14 (301056)
I0403 14:49:33.307342 11169 net.cpp:156] Memory required for data: 1147309344
I0403 14:49:33.307356 11169 layer_factory.hpp:77] Creating layer inception_4d/output
I0403 14:49:33.307375 11169 net.cpp:91] Creating Layer inception_4d/output
I0403 14:49:33.307391 11169 net.cpp:425] inception_4d/output <- inception_4d/1x1
I0403 14:49:33.307409 11169 net.cpp:425] inception_4d/output <- inception_4d/3x3
I0403 14:49:33.307423 11169 net.cpp:425] inception_4d/output <- inception_4d/5x5
I0403 14:49:33.307440 11169 net.cpp:425] inception_4d/output <- inception_4d/pool_proj
I0403 14:49:33.307456 11169 net.cpp:399] inception_4d/output -> inception_4d/output
I0403 14:49:33.307507 11169 net.cpp:141] Setting up inception_4d/output
I0403 14:49:33.307530 11169 net.cpp:148] Top shape: 24 528 14 14 (2483712)
I0403 14:49:33.307544 11169 net.cpp:156] Memory required for data: 1157244192
I0403 14:49:33.307559 11169 layer_factory.hpp:77] Creating layer inception_4d/output_inception_4d/output_0_split
I0403 14:49:33.307575 11169 net.cpp:91] Creating Layer inception_4d/output_inception_4d/output_0_split
I0403 14:49:33.307591 11169 net.cpp:425] inception_4d/output_inception_4d/output_0_split <- inception_4d/output
I0403 14:49:33.307610 11169 net.cpp:399] inception_4d/output_inception_4d/output_0_split -> inception_4d/output_inception_4d/output_0_split_0
I0403 14:49:33.307631 11169 net.cpp:399] inception_4d/output_inception_4d/output_0_split -> inception_4d/output_inception_4d/output_0_split_1
I0403 14:49:33.307651 11169 net.cpp:399] inception_4d/output_inception_4d/output_0_split -> inception_4d/output_inception_4d/output_0_split_2
I0403 14:49:33.307672 11169 net.cpp:399] inception_4d/output_inception_4d/output_0_split -> inception_4d/output_inception_4d/output_0_split_3
I0403 14:49:33.307692 11169 net.cpp:399] inception_4d/output_inception_4d/output_0_split -> inception_4d/output_inception_4d/output_0_split_4
I0403 14:49:33.307797 11169 net.cpp:141] Setting up inception_4d/output_inception_4d/output_0_split
I0403 14:49:33.307834 11169 net.cpp:148] Top shape: 24 528 14 14 (2483712)
I0403 14:49:33.307852 11169 net.cpp:148] Top shape: 24 528 14 14 (2483712)
I0403 14:49:33.307868 11169 net.cpp:148] Top shape: 24 528 14 14 (2483712)
I0403 14:49:33.307883 11169 net.cpp:148] Top shape: 24 528 14 14 (2483712)
I0403 14:49:33.307898 11169 net.cpp:148] Top shape: 24 528 14 14 (2483712)
I0403 14:49:33.307911 11169 net.cpp:156] Memory required for data: 1206918432
I0403 14:49:33.307926 11169 layer_factory.hpp:77] Creating layer loss2/ave_pool
I0403 14:49:33.307943 11169 net.cpp:91] Creating Layer loss2/ave_pool
I0403 14:49:33.307960 11169 net.cpp:425] loss2/ave_pool <- inception_4d/output_inception_4d/output_0_split_0
I0403 14:49:33.307979 11169 net.cpp:399] loss2/ave_pool -> loss2/ave_pool
I0403 14:49:33.308310 11169 net.cpp:141] Setting up loss2/ave_pool
I0403 14:49:33.308336 11169 net.cpp:148] Top shape: 24 528 4 4 (202752)
I0403 14:49:33.308352 11169 net.cpp:156] Memory required for data: 1207729440
I0403 14:49:33.308367 11169 layer_factory.hpp:77] Creating layer loss2/conv
I0403 14:49:33.308389 11169 net.cpp:91] Creating Layer loss2/conv
I0403 14:49:33.308408 11169 net.cpp:425] loss2/conv <- loss2/ave_pool
I0403 14:49:33.308429 11169 net.cpp:399] loss2/conv -> loss2/conv
I0403 14:49:33.310380 11169 net.cpp:141] Setting up loss2/conv
I0403 14:49:33.310410 11169 net.cpp:148] Top shape: 24 128 4 4 (49152)
I0403 14:49:33.310425 11169 net.cpp:156] Memory required for data: 1207926048
I0403 14:49:33.310444 11169 layer_factory.hpp:77] Creating layer loss2/relu_conv
I0403 14:49:33.310466 11169 net.cpp:91] Creating Layer loss2/relu_conv
I0403 14:49:33.310482 11169 net.cpp:425] loss2/relu_conv <- loss2/conv
I0403 14:49:33.310500 11169 net.cpp:386] loss2/relu_conv -> loss2/conv (in-place)
I0403 14:49:33.310801 11169 net.cpp:141] Setting up loss2/relu_conv
I0403 14:49:33.310827 11169 net.cpp:148] Top shape: 24 128 4 4 (49152)
I0403 14:49:33.310842 11169 net.cpp:156] Memory required for data: 1208122656
I0403 14:49:33.310858 11169 layer_factory.hpp:77] Creating layer loss2/fc
I0403 14:49:33.310878 11169 net.cpp:91] Creating Layer loss2/fc
I0403 14:49:33.310895 11169 net.cpp:425] loss2/fc <- loss2/conv
I0403 14:49:33.310917 11169 net.cpp:399] loss2/fc -> loss2/fc
I0403 14:49:33.329308 11169 net.cpp:141] Setting up loss2/fc
I0403 14:49:33.329375 11169 net.cpp:148] Top shape: 24 1024 (24576)
I0403 14:49:33.329391 11169 net.cpp:156] Memory required for data: 1208220960
I0403 14:49:33.329411 11169 layer_factory.hpp:77] Creating layer loss2/relu_fc
I0403 14:49:33.329429 11169 net.cpp:91] Creating Layer loss2/relu_fc
I0403 14:49:33.329447 11169 net.cpp:425] loss2/relu_fc <- loss2/fc
I0403 14:49:33.329471 11169 net.cpp:386] loss2/relu_fc -> loss2/fc (in-place)
I0403 14:49:33.329825 11169 net.cpp:141] Setting up loss2/relu_fc
I0403 14:49:33.329852 11169 net.cpp:148] Top shape: 24 1024 (24576)
I0403 14:49:33.329867 11169 net.cpp:156] Memory required for data: 1208319264
I0403 14:49:33.329882 11169 layer_factory.hpp:77] Creating layer loss2/drop_fc
I0403 14:49:33.329901 11169 net.cpp:91] Creating Layer loss2/drop_fc
I0403 14:49:33.329917 11169 net.cpp:425] loss2/drop_fc <- loss2/fc
I0403 14:49:33.329936 11169 net.cpp:386] loss2/drop_fc -> loss2/fc (in-place)
I0403 14:49:33.329988 11169 net.cpp:141] Setting up loss2/drop_fc
I0403 14:49:33.330013 11169 net.cpp:148] Top shape: 24 1024 (24576)
I0403 14:49:33.330027 11169 net.cpp:156] Memory required for data: 1208417568
I0403 14:49:33.330041 11169 layer_factory.hpp:77] Creating layer loss2/classifier_plantvillage
I0403 14:49:33.330060 11169 net.cpp:91] Creating Layer loss2/classifier_plantvillage
I0403 14:49:33.330076 11169 net.cpp:425] loss2/classifier_plantvillage <- loss2/fc
I0403 14:49:33.330103 11169 net.cpp:399] loss2/classifier_plantvillage -> loss2/classifier_plantvillage
I0403 14:49:33.330530 11169 net.cpp:141] Setting up loss2/classifier_plantvillage
I0403 14:49:33.330559 11169 net.cpp:148] Top shape: 24 38 (912)
I0403 14:49:33.330600 11169 net.cpp:156] Memory required for data: 1208421216
I0403 14:49:33.330617 11169 layer_factory.hpp:77] Creating layer loss2/classifier_plantvillage_loss2/classifier_plantvillage_0_split
I0403 14:49:33.330636 11169 net.cpp:91] Creating Layer loss2/classifier_plantvillage_loss2/classifier_plantvillage_0_split
I0403 14:49:33.330651 11169 net.cpp:425] loss2/classifier_plantvillage_loss2/classifier_plantvillage_0_split <- loss2/classifier_plantvillage
I0403 14:49:33.330669 11169 net.cpp:399] loss2/classifier_plantvillage_loss2/classifier_plantvillage_0_split -> loss2/classifier_plantvillage_loss2/classifier_plantvillage_0_split_0
I0403 14:49:33.330689 11169 net.cpp:399] loss2/classifier_plantvillage_loss2/classifier_plantvillage_0_split -> loss2/classifier_plantvillage_loss2/classifier_plantvillage_0_split_1
I0403 14:49:33.330711 11169 net.cpp:399] loss2/classifier_plantvillage_loss2/classifier_plantvillage_0_split -> loss2/classifier_plantvillage_loss2/classifier_plantvillage_0_split_2
I0403 14:49:33.330793 11169 net.cpp:141] Setting up loss2/classifier_plantvillage_loss2/classifier_plantvillage_0_split
I0403 14:49:33.330816 11169 net.cpp:148] Top shape: 24 38 (912)
I0403 14:49:33.330832 11169 net.cpp:148] Top shape: 24 38 (912)
I0403 14:49:33.330847 11169 net.cpp:148] Top shape: 24 38 (912)
I0403 14:49:33.330860 11169 net.cpp:156] Memory required for data: 1208432160
I0403 14:49:33.330874 11169 layer_factory.hpp:77] Creating layer inception_4e/1x1
I0403 14:49:33.330895 11169 net.cpp:91] Creating Layer inception_4e/1x1
I0403 14:49:33.330914 11169 net.cpp:425] inception_4e/1x1 <- inception_4d/output_inception_4d/output_0_split_1
I0403 14:49:33.330935 11169 net.cpp:399] inception_4e/1x1 -> inception_4e/1x1
I0403 14:49:33.332883 11169 net.cpp:141] Setting up inception_4e/1x1
I0403 14:49:33.332912 11169 net.cpp:148] Top shape: 24 256 14 14 (1204224)
I0403 14:49:33.332927 11169 net.cpp:156] Memory required for data: 1213249056
I0403 14:49:33.332945 11169 layer_factory.hpp:77] Creating layer inception_4e/relu_1x1
I0403 14:49:33.332965 11169 net.cpp:91] Creating Layer inception_4e/relu_1x1
I0403 14:49:33.332983 11169 net.cpp:425] inception_4e/relu_1x1 <- inception_4e/1x1
I0403 14:49:33.332999 11169 net.cpp:386] inception_4e/relu_1x1 -> inception_4e/1x1 (in-place)
I0403 14:49:33.333309 11169 net.cpp:141] Setting up inception_4e/relu_1x1
I0403 14:49:33.333336 11169 net.cpp:148] Top shape: 24 256 14 14 (1204224)
I0403 14:49:33.333350 11169 net.cpp:156] Memory required for data: 1218065952
I0403 14:49:33.333365 11169 layer_factory.hpp:77] Creating layer inception_4e/3x3_reduce
I0403 14:49:33.333389 11169 net.cpp:91] Creating Layer inception_4e/3x3_reduce
I0403 14:49:33.333406 11169 net.cpp:425] inception_4e/3x3_reduce <- inception_4d/output_inception_4d/output_0_split_2
I0403 14:49:33.333425 11169 net.cpp:399] inception_4e/3x3_reduce -> inception_4e/3x3_reduce
I0403 14:49:33.335624 11169 net.cpp:141] Setting up inception_4e/3x3_reduce
I0403 14:49:33.335654 11169 net.cpp:148] Top shape: 24 160 14 14 (752640)
I0403 14:49:33.335669 11169 net.cpp:156] Memory required for data: 1221076512
I0403 14:49:33.335687 11169 layer_factory.hpp:77] Creating layer inception_4e/relu_3x3_reduce
I0403 14:49:33.335707 11169 net.cpp:91] Creating Layer inception_4e/relu_3x3_reduce
I0403 14:49:33.335724 11169 net.cpp:425] inception_4e/relu_3x3_reduce <- inception_4e/3x3_reduce
I0403 14:49:33.335741 11169 net.cpp:386] inception_4e/relu_3x3_reduce -> inception_4e/3x3_reduce (in-place)
I0403 14:49:33.335933 11169 net.cpp:141] Setting up inception_4e/relu_3x3_reduce
I0403 14:49:33.335960 11169 net.cpp:148] Top shape: 24 160 14 14 (752640)
I0403 14:49:33.335976 11169 net.cpp:156] Memory required for data: 1224087072
I0403 14:49:33.335991 11169 layer_factory.hpp:77] Creating layer inception_4e/3x3
I0403 14:49:33.336012 11169 net.cpp:91] Creating Layer inception_4e/3x3
I0403 14:49:33.336030 11169 net.cpp:425] inception_4e/3x3 <- inception_4e/3x3_reduce
I0403 14:49:33.336047 11169 net.cpp:399] inception_4e/3x3 -> inception_4e/3x3
I0403 14:49:33.341603 11169 net.cpp:141] Setting up inception_4e/3x3
I0403 14:49:33.341650 11169 net.cpp:148] Top shape: 24 320 14 14 (1505280)
I0403 14:49:33.341668 11169 net.cpp:156] Memory required for data: 1230108192
I0403 14:49:33.341686 11169 layer_factory.hpp:77] Creating layer inception_4e/relu_3x3
I0403 14:49:33.341704 11169 net.cpp:91] Creating Layer inception_4e/relu_3x3
I0403 14:49:33.341722 11169 net.cpp:425] inception_4e/relu_3x3 <- inception_4e/3x3
I0403 14:49:33.341742 11169 net.cpp:386] inception_4e/relu_3x3 -> inception_4e/3x3 (in-place)
I0403 14:49:33.342053 11169 net.cpp:141] Setting up inception_4e/relu_3x3
I0403 14:49:33.342080 11169 net.cpp:148] Top shape: 24 320 14 14 (1505280)
I0403 14:49:33.342108 11169 net.cpp:156] Memory required for data: 1236129312
I0403 14:49:33.342128 11169 layer_factory.hpp:77] Creating layer inception_4e/5x5_reduce
I0403 14:49:33.342151 11169 net.cpp:91] Creating Layer inception_4e/5x5_reduce
I0403 14:49:33.342170 11169 net.cpp:425] inception_4e/5x5_reduce <- inception_4d/output_inception_4d/output_0_split_3
I0403 14:49:33.342190 11169 net.cpp:399] inception_4e/5x5_reduce -> inception_4e/5x5_reduce
I0403 14:49:33.343314 11169 net.cpp:141] Setting up inception_4e/5x5_reduce
I0403 14:49:33.343343 11169 net.cpp:148] Top shape: 24 32 14 14 (150528)
I0403 14:49:33.343358 11169 net.cpp:156] Memory required for data: 1236731424
I0403 14:49:33.343376 11169 layer_factory.hpp:77] Creating layer inception_4e/relu_5x5_reduce
I0403 14:49:33.343396 11169 net.cpp:91] Creating Layer inception_4e/relu_5x5_reduce
I0403 14:49:33.343413 11169 net.cpp:425] inception_4e/relu_5x5_reduce <- inception_4e/5x5_reduce
I0403 14:49:33.343430 11169 net.cpp:386] inception_4e/relu_5x5_reduce -> inception_4e/5x5_reduce (in-place)
I0403 14:49:33.343745 11169 net.cpp:141] Setting up inception_4e/relu_5x5_reduce
I0403 14:49:33.343771 11169 net.cpp:148] Top shape: 24 32 14 14 (150528)
I0403 14:49:33.343787 11169 net.cpp:156] Memory required for data: 1237333536
I0403 14:49:33.343802 11169 layer_factory.hpp:77] Creating layer inception_4e/5x5
I0403 14:49:33.343842 11169 net.cpp:91] Creating Layer inception_4e/5x5
I0403 14:49:33.343860 11169 net.cpp:425] inception_4e/5x5 <- inception_4e/5x5_reduce
I0403 14:49:33.343881 11169 net.cpp:399] inception_4e/5x5 -> inception_4e/5x5
I0403 14:49:33.345803 11169 net.cpp:141] Setting up inception_4e/5x5
I0403 14:49:33.345831 11169 net.cpp:148] Top shape: 24 128 14 14 (602112)
I0403 14:49:33.345847 11169 net.cpp:156] Memory required for data: 1239741984
I0403 14:49:33.345866 11169 layer_factory.hpp:77] Creating layer inception_4e/relu_5x5
I0403 14:49:33.345886 11169 net.cpp:91] Creating Layer inception_4e/relu_5x5
I0403 14:49:33.345903 11169 net.cpp:425] inception_4e/relu_5x5 <- inception_4e/5x5
I0403 14:49:33.345921 11169 net.cpp:386] inception_4e/relu_5x5 -> inception_4e/5x5 (in-place)
I0403 14:49:33.346133 11169 net.cpp:141] Setting up inception_4e/relu_5x5
I0403 14:49:33.346159 11169 net.cpp:148] Top shape: 24 128 14 14 (602112)
I0403 14:49:33.346177 11169 net.cpp:156] Memory required for data: 1242150432
I0403 14:49:33.346192 11169 layer_factory.hpp:77] Creating layer inception_4e/pool
I0403 14:49:33.346211 11169 net.cpp:91] Creating Layer inception_4e/pool
I0403 14:49:33.346227 11169 net.cpp:425] inception_4e/pool <- inception_4d/output_inception_4d/output_0_split_4
I0403 14:49:33.346246 11169 net.cpp:399] inception_4e/pool -> inception_4e/pool
I0403 14:49:33.346319 11169 net.cpp:141] Setting up inception_4e/pool
I0403 14:49:33.346343 11169 net.cpp:148] Top shape: 24 528 14 14 (2483712)
I0403 14:49:33.346357 11169 net.cpp:156] Memory required for data: 1252085280
I0403 14:49:33.346371 11169 layer_factory.hpp:77] Creating layer inception_4e/pool_proj
I0403 14:49:33.346393 11169 net.cpp:91] Creating Layer inception_4e/pool_proj
I0403 14:49:33.346411 11169 net.cpp:425] inception_4e/pool_proj <- inception_4e/pool
I0403 14:49:33.346431 11169 net.cpp:399] inception_4e/pool_proj -> inception_4e/pool_proj
I0403 14:49:33.348026 11169 net.cpp:141] Setting up inception_4e/pool_proj
I0403 14:49:33.348067 11169 net.cpp:148] Top shape: 24 128 14 14 (602112)
I0403 14:49:33.348084 11169 net.cpp:156] Memory required for data: 1254493728
I0403 14:49:33.348109 11169 layer_factory.hpp:77] Creating layer inception_4e/relu_pool_proj
I0403 14:49:33.348129 11169 net.cpp:91] Creating Layer inception_4e/relu_pool_proj
I0403 14:49:33.348145 11169 net.cpp:425] inception_4e/relu_pool_proj <- inception_4e/pool_proj
I0403 14:49:33.348165 11169 net.cpp:386] inception_4e/relu_pool_proj -> inception_4e/pool_proj (in-place)
I0403 14:49:33.348469 11169 net.cpp:141] Setting up inception_4e/relu_pool_proj
I0403 14:49:33.348496 11169 net.cpp:148] Top shape: 24 128 14 14 (602112)
I0403 14:49:33.348511 11169 net.cpp:156] Memory required for data: 1256902176
I0403 14:49:33.348526 11169 layer_factory.hpp:77] Creating layer inception_4e/output
I0403 14:49:33.348543 11169 net.cpp:91] Creating Layer inception_4e/output
I0403 14:49:33.348558 11169 net.cpp:425] inception_4e/output <- inception_4e/1x1
I0403 14:49:33.348574 11169 net.cpp:425] inception_4e/output <- inception_4e/3x3
I0403 14:49:33.348589 11169 net.cpp:425] inception_4e/output <- inception_4e/5x5
I0403 14:49:33.348604 11169 net.cpp:425] inception_4e/output <- inception_4e/pool_proj
I0403 14:49:33.348623 11169 net.cpp:399] inception_4e/output -> inception_4e/output
I0403 14:49:33.348675 11169 net.cpp:141] Setting up inception_4e/output
I0403 14:49:33.348702 11169 net.cpp:148] Top shape: 24 832 14 14 (3913728)
I0403 14:49:33.348717 11169 net.cpp:156] Memory required for data: 1272557088
I0403 14:49:33.348731 11169 layer_factory.hpp:77] Creating layer pool4/3x3_s2
I0403 14:49:33.348749 11169 net.cpp:91] Creating Layer pool4/3x3_s2
I0403 14:49:33.348765 11169 net.cpp:425] pool4/3x3_s2 <- inception_4e/output
I0403 14:49:33.348783 11169 net.cpp:399] pool4/3x3_s2 -> pool4/3x3_s2
I0403 14:49:33.348853 11169 net.cpp:141] Setting up pool4/3x3_s2
I0403 14:49:33.348877 11169 net.cpp:148] Top shape: 24 832 7 7 (978432)
I0403 14:49:33.348891 11169 net.cpp:156] Memory required for data: 1276470816
I0403 14:49:33.348906 11169 layer_factory.hpp:77] Creating layer pool4/3x3_s2_pool4/3x3_s2_0_split
I0403 14:49:33.348925 11169 net.cpp:91] Creating Layer pool4/3x3_s2_pool4/3x3_s2_0_split
I0403 14:49:33.348942 11169 net.cpp:425] pool4/3x3_s2_pool4/3x3_s2_0_split <- pool4/3x3_s2
I0403 14:49:33.348959 11169 net.cpp:399] pool4/3x3_s2_pool4/3x3_s2_0_split -> pool4/3x3_s2_pool4/3x3_s2_0_split_0
I0403 14:49:33.348978 11169 net.cpp:399] pool4/3x3_s2_pool4/3x3_s2_0_split -> pool4/3x3_s2_pool4/3x3_s2_0_split_1
I0403 14:49:33.348999 11169 net.cpp:399] pool4/3x3_s2_pool4/3x3_s2_0_split -> pool4/3x3_s2_pool4/3x3_s2_0_split_2
I0403 14:49:33.349022 11169 net.cpp:399] pool4/3x3_s2_pool4/3x3_s2_0_split -> pool4/3x3_s2_pool4/3x3_s2_0_split_3
I0403 14:49:33.349124 11169 net.cpp:141] Setting up pool4/3x3_s2_pool4/3x3_s2_0_split
I0403 14:49:33.349148 11169 net.cpp:148] Top shape: 24 832 7 7 (978432)
I0403 14:49:33.349165 11169 net.cpp:148] Top shape: 24 832 7 7 (978432)
I0403 14:49:33.349180 11169 net.cpp:148] Top shape: 24 832 7 7 (978432)
I0403 14:49:33.349195 11169 net.cpp:148] Top shape: 24 832 7 7 (978432)
I0403 14:49:33.349210 11169 net.cpp:156] Memory required for data: 1292125728
I0403 14:49:33.349223 11169 layer_factory.hpp:77] Creating layer inception_5a/1x1
I0403 14:49:33.349246 11169 net.cpp:91] Creating Layer inception_5a/1x1
I0403 14:49:33.349262 11169 net.cpp:425] inception_5a/1x1 <- pool4/3x3_s2_pool4/3x3_s2_0_split_0
I0403 14:49:33.349284 11169 net.cpp:399] inception_5a/1x1 -> inception_5a/1x1
I0403 14:49:33.352252 11169 net.cpp:141] Setting up inception_5a/1x1
I0403 14:49:33.352283 11169 net.cpp:148] Top shape: 24 256 7 7 (301056)
I0403 14:49:33.352300 11169 net.cpp:156] Memory required for data: 1293329952
I0403 14:49:33.352319 11169 layer_factory.hpp:77] Creating layer inception_5a/relu_1x1
I0403 14:49:33.352339 11169 net.cpp:91] Creating Layer inception_5a/relu_1x1
I0403 14:49:33.352357 11169 net.cpp:425] inception_5a/relu_1x1 <- inception_5a/1x1
I0403 14:49:33.352375 11169 net.cpp:386] inception_5a/relu_1x1 -> inception_5a/1x1 (in-place)
I0403 14:49:33.352700 11169 net.cpp:141] Setting up inception_5a/relu_1x1
I0403 14:49:33.352726 11169 net.cpp:148] Top shape: 24 256 7 7 (301056)
I0403 14:49:33.352742 11169 net.cpp:156] Memory required for data: 1294534176
I0403 14:49:33.352757 11169 layer_factory.hpp:77] Creating layer inception_5a/3x3_reduce
I0403 14:49:33.352782 11169 net.cpp:91] Creating Layer inception_5a/3x3_reduce
I0403 14:49:33.352799 11169 net.cpp:425] inception_5a/3x3_reduce <- pool4/3x3_s2_pool4/3x3_s2_0_split_1
I0403 14:49:33.352820 11169 net.cpp:399] inception_5a/3x3_reduce -> inception_5a/3x3_reduce
I0403 14:49:33.355370 11169 net.cpp:141] Setting up inception_5a/3x3_reduce
I0403 14:49:33.355402 11169 net.cpp:148] Top shape: 24 160 7 7 (188160)
I0403 14:49:33.355418 11169 net.cpp:156] Memory required for data: 1295286816
I0403 14:49:33.355437 11169 layer_factory.hpp:77] Creating layer inception_5a/relu_3x3_reduce
I0403 14:49:33.355455 11169 net.cpp:91] Creating Layer inception_5a/relu_3x3_reduce
I0403 14:49:33.355471 11169 net.cpp:425] inception_5a/relu_3x3_reduce <- inception_5a/3x3_reduce
I0403 14:49:33.355491 11169 net.cpp:386] inception_5a/relu_3x3_reduce -> inception_5a/3x3_reduce (in-place)
I0403 14:49:33.355689 11169 net.cpp:141] Setting up inception_5a/relu_3x3_reduce
I0403 14:49:33.355715 11169 net.cpp:148] Top shape: 24 160 7 7 (188160)
I0403 14:49:33.355728 11169 net.cpp:156] Memory required for data: 1296039456
I0403 14:49:33.355743 11169 layer_factory.hpp:77] Creating layer inception_5a/3x3
I0403 14:49:33.355765 11169 net.cpp:91] Creating Layer inception_5a/3x3
I0403 14:49:33.355782 11169 net.cpp:425] inception_5a/3x3 <- inception_5a/3x3_reduce
I0403 14:49:33.355805 11169 net.cpp:399] inception_5a/3x3 -> inception_5a/3x3
I0403 14:49:33.360998 11169 net.cpp:141] Setting up inception_5a/3x3
I0403 14:49:33.361029 11169 net.cpp:148] Top shape: 24 320 7 7 (376320)
I0403 14:49:33.361047 11169 net.cpp:156] Memory required for data: 1297544736
I0403 14:49:33.361064 11169 layer_factory.hpp:77] Creating layer inception_5a/relu_3x3
I0403 14:49:33.361085 11169 net.cpp:91] Creating Layer inception_5a/relu_3x3
I0403 14:49:33.361111 11169 net.cpp:425] inception_5a/relu_3x3 <- inception_5a/3x3
I0403 14:49:33.361130 11169 net.cpp:386] inception_5a/relu_3x3 -> inception_5a/3x3 (in-place)
I0403 14:49:33.361438 11169 net.cpp:141] Setting up inception_5a/relu_3x3
I0403 14:49:33.361464 11169 net.cpp:148] Top shape: 24 320 7 7 (376320)
I0403 14:49:33.361480 11169 net.cpp:156] Memory required for data: 1299050016
I0403 14:49:33.361495 11169 layer_factory.hpp:77] Creating layer inception_5a/5x5_reduce
I0403 14:49:33.361517 11169 net.cpp:91] Creating Layer inception_5a/5x5_reduce
I0403 14:49:33.361536 11169 net.cpp:425] inception_5a/5x5_reduce <- pool4/3x3_s2_pool4/3x3_s2_0_split_2
I0403 14:49:33.361559 11169 net.cpp:399] inception_5a/5x5_reduce -> inception_5a/5x5_reduce
I0403 14:49:33.362810 11169 net.cpp:141] Setting up inception_5a/5x5_reduce
I0403 14:49:33.362843 11169 net.cpp:148] Top shape: 24 32 7 7 (37632)
I0403 14:49:33.362859 11169 net.cpp:156] Memory required for data: 1299200544
I0403 14:49:33.362879 11169 layer_factory.hpp:77] Creating layer inception_5a/relu_5x5_reduce
I0403 14:49:33.362896 11169 net.cpp:91] Creating Layer inception_5a/relu_5x5_reduce
I0403 14:49:33.362912 11169 net.cpp:425] inception_5a/relu_5x5_reduce <- inception_5a/5x5_reduce
I0403 14:49:33.362929 11169 net.cpp:386] inception_5a/relu_5x5_reduce -> inception_5a/5x5_reduce (in-place)
I0403 14:49:33.363246 11169 net.cpp:141] Setting up inception_5a/relu_5x5_reduce
I0403 14:49:33.363273 11169 net.cpp:148] Top shape: 24 32 7 7 (37632)
I0403 14:49:33.363288 11169 net.cpp:156] Memory required for data: 1299351072
I0403 14:49:33.363303 11169 layer_factory.hpp:77] Creating layer inception_5a/5x5
I0403 14:49:33.363325 11169 net.cpp:91] Creating Layer inception_5a/5x5
I0403 14:49:33.363343 11169 net.cpp:425] inception_5a/5x5 <- inception_5a/5x5_reduce
I0403 14:49:33.363363 11169 net.cpp:399] inception_5a/5x5 -> inception_5a/5x5
I0403 14:49:33.365161 11169 net.cpp:141] Setting up inception_5a/5x5
I0403 14:49:33.365203 11169 net.cpp:148] Top shape: 24 128 7 7 (150528)
I0403 14:49:33.365219 11169 net.cpp:156] Memory required for data: 1299953184
I0403 14:49:33.365238 11169 layer_factory.hpp:77] Creating layer inception_5a/relu_5x5
I0403 14:49:33.365258 11169 net.cpp:91] Creating Layer inception_5a/relu_5x5
I0403 14:49:33.365275 11169 net.cpp:425] inception_5a/relu_5x5 <- inception_5a/5x5
I0403 14:49:33.365293 11169 net.cpp:386] inception_5a/relu_5x5 -> inception_5a/5x5 (in-place)
I0403 14:49:33.365492 11169 net.cpp:141] Setting up inception_5a/relu_5x5
I0403 14:49:33.365520 11169 net.cpp:148] Top shape: 24 128 7 7 (150528)
I0403 14:49:33.365535 11169 net.cpp:156] Memory required for data: 1300555296
I0403 14:49:33.365550 11169 layer_factory.hpp:77] Creating layer inception_5a/pool
I0403 14:49:33.365569 11169 net.cpp:91] Creating Layer inception_5a/pool
I0403 14:49:33.365586 11169 net.cpp:425] inception_5a/pool <- pool4/3x3_s2_pool4/3x3_s2_0_split_3
I0403 14:49:33.365602 11169 net.cpp:399] inception_5a/pool -> inception_5a/pool
I0403 14:49:33.365676 11169 net.cpp:141] Setting up inception_5a/pool
I0403 14:49:33.365700 11169 net.cpp:148] Top shape: 24 832 7 7 (978432)
I0403 14:49:33.365715 11169 net.cpp:156] Memory required for data: 1304469024
I0403 14:49:33.365731 11169 layer_factory.hpp:77] Creating layer inception_5a/pool_proj
I0403 14:49:33.365753 11169 net.cpp:91] Creating Layer inception_5a/pool_proj
I0403 14:49:33.365772 11169 net.cpp:425] inception_5a/pool_proj <- inception_5a/pool
I0403 14:49:33.365793 11169 net.cpp:399] inception_5a/pool_proj -> inception_5a/pool_proj
I0403 14:49:33.368170 11169 net.cpp:141] Setting up inception_5a/pool_proj
I0403 14:49:33.368201 11169 net.cpp:148] Top shape: 24 128 7 7 (150528)
I0403 14:49:33.368216 11169 net.cpp:156] Memory required for data: 1305071136
I0403 14:49:33.368235 11169 layer_factory.hpp:77] Creating layer inception_5a/relu_pool_proj
I0403 14:49:33.368255 11169 net.cpp:91] Creating Layer inception_5a/relu_pool_proj
I0403 14:49:33.368273 11169 net.cpp:425] inception_5a/relu_pool_proj <- inception_5a/pool_proj
I0403 14:49:33.368289 11169 net.cpp:386] inception_5a/relu_pool_proj -> inception_5a/pool_proj (in-place)
I0403 14:49:33.368592 11169 net.cpp:141] Setting up inception_5a/relu_pool_proj
I0403 14:49:33.368618 11169 net.cpp:148] Top shape: 24 128 7 7 (150528)
I0403 14:49:33.368633 11169 net.cpp:156] Memory required for data: 1305673248
I0403 14:49:33.368649 11169 layer_factory.hpp:77] Creating layer inception_5a/output
I0403 14:49:33.368665 11169 net.cpp:91] Creating Layer inception_5a/output
I0403 14:49:33.368680 11169 net.cpp:425] inception_5a/output <- inception_5a/1x1
I0403 14:49:33.368696 11169 net.cpp:425] inception_5a/output <- inception_5a/3x3
I0403 14:49:33.368712 11169 net.cpp:425] inception_5a/output <- inception_5a/5x5
I0403 14:49:33.368727 11169 net.cpp:425] inception_5a/output <- inception_5a/pool_proj
I0403 14:49:33.368746 11169 net.cpp:399] inception_5a/output -> inception_5a/output
I0403 14:49:33.368798 11169 net.cpp:141] Setting up inception_5a/output
I0403 14:49:33.368826 11169 net.cpp:148] Top shape: 24 832 7 7 (978432)
I0403 14:49:33.368842 11169 net.cpp:156] Memory required for data: 1309586976
I0403 14:49:33.368857 11169 layer_factory.hpp:77] Creating layer inception_5a/output_inception_5a/output_0_split
I0403 14:49:33.368875 11169 net.cpp:91] Creating Layer inception_5a/output_inception_5a/output_0_split
I0403 14:49:33.368890 11169 net.cpp:425] inception_5a/output_inception_5a/output_0_split <- inception_5a/output
I0403 14:49:33.368911 11169 net.cpp:399] inception_5a/output_inception_5a/output_0_split -> inception_5a/output_inception_5a/output_0_split_0
I0403 14:49:33.368933 11169 net.cpp:399] inception_5a/output_inception_5a/output_0_split -> inception_5a/output_inception_5a/output_0_split_1
I0403 14:49:33.368955 11169 net.cpp:399] inception_5a/output_inception_5a/output_0_split -> inception_5a/output_inception_5a/output_0_split_2
I0403 14:49:33.368975 11169 net.cpp:399] inception_5a/output_inception_5a/output_0_split -> inception_5a/output_inception_5a/output_0_split_3
I0403 14:49:33.369089 11169 net.cpp:141] Setting up inception_5a/output_inception_5a/output_0_split
I0403 14:49:33.369122 11169 net.cpp:148] Top shape: 24 832 7 7 (978432)
I0403 14:49:33.369140 11169 net.cpp:148] Top shape: 24 832 7 7 (978432)
I0403 14:49:33.369156 11169 net.cpp:148] Top shape: 24 832 7 7 (978432)
I0403 14:49:33.369173 11169 net.cpp:148] Top shape: 24 832 7 7 (978432)
I0403 14:49:33.369185 11169 net.cpp:156] Memory required for data: 1325241888
I0403 14:49:33.369200 11169 layer_factory.hpp:77] Creating layer inception_5b/1x1
I0403 14:49:33.369222 11169 net.cpp:91] Creating Layer inception_5b/1x1
I0403 14:49:33.369241 11169 net.cpp:425] inception_5b/1x1 <- inception_5a/output_inception_5a/output_0_split_0
I0403 14:49:33.369263 11169 net.cpp:399] inception_5b/1x1 -> inception_5b/1x1
I0403 14:49:33.373189 11169 net.cpp:141] Setting up inception_5b/1x1
I0403 14:49:33.373221 11169 net.cpp:148] Top shape: 24 384 7 7 (451584)
I0403 14:49:33.373237 11169 net.cpp:156] Memory required for data: 1327048224
I0403 14:49:33.373255 11169 layer_factory.hpp:77] Creating layer inception_5b/relu_1x1
I0403 14:49:33.373275 11169 net.cpp:91] Creating Layer inception_5b/relu_1x1
I0403 14:49:33.373291 11169 net.cpp:425] inception_5b/relu_1x1 <- inception_5b/1x1
I0403 14:49:33.373311 11169 net.cpp:386] inception_5b/relu_1x1 -> inception_5b/1x1 (in-place)
I0403 14:49:33.373633 11169 net.cpp:141] Setting up inception_5b/relu_1x1
I0403 14:49:33.373661 11169 net.cpp:148] Top shape: 24 384 7 7 (451584)
I0403 14:49:33.373677 11169 net.cpp:156] Memory required for data: 1328854560
I0403 14:49:33.373692 11169 layer_factory.hpp:77] Creating layer inception_5b/3x3_reduce
I0403 14:49:33.373715 11169 net.cpp:91] Creating Layer inception_5b/3x3_reduce
I0403 14:49:33.373734 11169 net.cpp:425] inception_5b/3x3_reduce <- inception_5a/output_inception_5a/output_0_split_1
I0403 14:49:33.373757 11169 net.cpp:399] inception_5b/3x3_reduce -> inception_5b/3x3_reduce
I0403 14:49:33.376526 11169 net.cpp:141] Setting up inception_5b/3x3_reduce
I0403 14:49:33.376557 11169 net.cpp:148] Top shape: 24 192 7 7 (225792)
I0403 14:49:33.376574 11169 net.cpp:156] Memory required for data: 1329757728
I0403 14:49:33.376593 11169 layer_factory.hpp:77] Creating layer inception_5b/relu_3x3_reduce
I0403 14:49:33.376611 11169 net.cpp:91] Creating Layer inception_5b/relu_3x3_reduce
I0403 14:49:33.376628 11169 net.cpp:425] inception_5b/relu_3x3_reduce <- inception_5b/3x3_reduce
I0403 14:49:33.376647 11169 net.cpp:386] inception_5b/relu_3x3_reduce -> inception_5b/3x3_reduce (in-place)
I0403 14:49:33.376847 11169 net.cpp:141] Setting up inception_5b/relu_3x3_reduce
I0403 14:49:33.376873 11169 net.cpp:148] Top shape: 24 192 7 7 (225792)
I0403 14:49:33.376888 11169 net.cpp:156] Memory required for data: 1330660896
I0403 14:49:33.376904 11169 layer_factory.hpp:77] Creating layer inception_5b/3x3
I0403 14:49:33.376926 11169 net.cpp:91] Creating Layer inception_5b/3x3
I0403 14:49:33.376945 11169 net.cpp:425] inception_5b/3x3 <- inception_5b/3x3_reduce
I0403 14:49:33.376967 11169 net.cpp:399] inception_5b/3x3 -> inception_5b/3x3
I0403 14:49:33.383929 11169 net.cpp:141] Setting up inception_5b/3x3
I0403 14:49:33.383961 11169 net.cpp:148] Top shape: 24 384 7 7 (451584)
I0403 14:49:33.383978 11169 net.cpp:156] Memory required for data: 1332467232
I0403 14:49:33.383996 11169 layer_factory.hpp:77] Creating layer inception_5b/relu_3x3
I0403 14:49:33.384017 11169 net.cpp:91] Creating Layer inception_5b/relu_3x3
I0403 14:49:33.384037 11169 net.cpp:425] inception_5b/relu_3x3 <- inception_5b/3x3
I0403 14:49:33.384054 11169 net.cpp:386] inception_5b/relu_3x3 -> inception_5b/3x3 (in-place)
I0403 14:49:33.384372 11169 net.cpp:141] Setting up inception_5b/relu_3x3
I0403 14:49:33.384400 11169 net.cpp:148] Top shape: 24 384 7 7 (451584)
I0403 14:49:33.384416 11169 net.cpp:156] Memory required for data: 1334273568
I0403 14:49:33.384433 11169 layer_factory.hpp:77] Creating layer inception_5b/5x5_reduce
I0403 14:49:33.384476 11169 net.cpp:91] Creating Layer inception_5b/5x5_reduce
I0403 14:49:33.384496 11169 net.cpp:425] inception_5b/5x5_reduce <- inception_5a/output_inception_5a/output_0_split_2
I0403 14:49:33.384519 11169 net.cpp:399] inception_5b/5x5_reduce -> inception_5b/5x5_reduce
I0403 14:49:33.385848 11169 net.cpp:141] Setting up inception_5b/5x5_reduce
I0403 14:49:33.385877 11169 net.cpp:148] Top shape: 24 48 7 7 (56448)
I0403 14:49:33.385895 11169 net.cpp:156] Memory required for data: 1334499360
I0403 14:49:33.385912 11169 layer_factory.hpp:77] Creating layer inception_5b/relu_5x5_reduce
I0403 14:49:33.385931 11169 net.cpp:91] Creating Layer inception_5b/relu_5x5_reduce
I0403 14:49:33.385948 11169 net.cpp:425] inception_5b/relu_5x5_reduce <- inception_5b/5x5_reduce
I0403 14:49:33.385969 11169 net.cpp:386] inception_5b/relu_5x5_reduce -> inception_5b/5x5_reduce (in-place)
I0403 14:49:33.386364 11169 net.cpp:141] Setting up inception_5b/relu_5x5_reduce
I0403 14:49:33.386392 11169 net.cpp:148] Top shape: 24 48 7 7 (56448)
I0403 14:49:33.386409 11169 net.cpp:156] Memory required for data: 1334725152
I0403 14:49:33.386423 11169 layer_factory.hpp:77] Creating layer inception_5b/5x5
I0403 14:49:33.386445 11169 net.cpp:91] Creating Layer inception_5b/5x5
I0403 14:49:33.386461 11169 net.cpp:425] inception_5b/5x5 <- inception_5b/5x5_reduce
I0403 14:49:33.386481 11169 net.cpp:399] inception_5b/5x5 -> inception_5b/5x5
I0403 14:49:33.388655 11169 net.cpp:141] Setting up inception_5b/5x5
I0403 14:49:33.388684 11169 net.cpp:148] Top shape: 24 128 7 7 (150528)
I0403 14:49:33.388701 11169 net.cpp:156] Memory required for data: 1335327264
I0403 14:49:33.388720 11169 layer_factory.hpp:77] Creating layer inception_5b/relu_5x5
I0403 14:49:33.388741 11169 net.cpp:91] Creating Layer inception_5b/relu_5x5
I0403 14:49:33.388758 11169 net.cpp:425] inception_5b/relu_5x5 <- inception_5b/5x5
I0403 14:49:33.388777 11169 net.cpp:386] inception_5b/relu_5x5 -> inception_5b/5x5 (in-place)
I0403 14:49:33.388980 11169 net.cpp:141] Setting up inception_5b/relu_5x5
I0403 14:49:33.389005 11169 net.cpp:148] Top shape: 24 128 7 7 (150528)
I0403 14:49:33.389020 11169 net.cpp:156] Memory required for data: 1335929376
I0403 14:49:33.389034 11169 layer_factory.hpp:77] Creating layer inception_5b/pool
I0403 14:49:33.389056 11169 net.cpp:91] Creating Layer inception_5b/pool
I0403 14:49:33.389073 11169 net.cpp:425] inception_5b/pool <- inception_5a/output_inception_5a/output_0_split_3
I0403 14:49:33.389101 11169 net.cpp:399] inception_5b/pool -> inception_5b/pool
I0403 14:49:33.389179 11169 net.cpp:141] Setting up inception_5b/pool
I0403 14:49:33.389204 11169 net.cpp:148] Top shape: 24 832 7 7 (978432)
I0403 14:49:33.389219 11169 net.cpp:156] Memory required for data: 1339843104
I0403 14:49:33.389233 11169 layer_factory.hpp:77] Creating layer inception_5b/pool_proj
I0403 14:49:33.389256 11169 net.cpp:91] Creating Layer inception_5b/pool_proj
I0403 14:49:33.389274 11169 net.cpp:425] inception_5b/pool_proj <- inception_5b/pool
I0403 14:49:33.389297 11169 net.cpp:399] inception_5b/pool_proj -> inception_5b/pool_proj
I0403 14:49:33.391685 11169 net.cpp:141] Setting up inception_5b/pool_proj
I0403 14:49:33.391716 11169 net.cpp:148] Top shape: 24 128 7 7 (150528)
I0403 14:49:33.391733 11169 net.cpp:156] Memory required for data: 1340445216
I0403 14:49:33.391752 11169 layer_factory.hpp:77] Creating layer inception_5b/relu_pool_proj
I0403 14:49:33.391772 11169 net.cpp:91] Creating Layer inception_5b/relu_pool_proj
I0403 14:49:33.391788 11169 net.cpp:425] inception_5b/relu_pool_proj <- inception_5b/pool_proj
I0403 14:49:33.391808 11169 net.cpp:386] inception_5b/relu_pool_proj -> inception_5b/pool_proj (in-place)
I0403 14:49:33.392130 11169 net.cpp:141] Setting up inception_5b/relu_pool_proj
I0403 14:49:33.392158 11169 net.cpp:148] Top shape: 24 128 7 7 (150528)
I0403 14:49:33.392174 11169 net.cpp:156] Memory required for data: 1341047328
I0403 14:49:33.392190 11169 layer_factory.hpp:77] Creating layer inception_5b/output
I0403 14:49:33.392207 11169 net.cpp:91] Creating Layer inception_5b/output
I0403 14:49:33.392240 11169 net.cpp:425] inception_5b/output <- inception_5b/1x1
I0403 14:49:33.392257 11169 net.cpp:425] inception_5b/output <- inception_5b/3x3
I0403 14:49:33.392274 11169 net.cpp:425] inception_5b/output <- inception_5b/5x5
I0403 14:49:33.392292 11169 net.cpp:425] inception_5b/output <- inception_5b/pool_proj
I0403 14:49:33.392313 11169 net.cpp:399] inception_5b/output -> inception_5b/output
I0403 14:49:33.392366 11169 net.cpp:141] Setting up inception_5b/output
I0403 14:49:33.392395 11169 net.cpp:148] Top shape: 24 1024 7 7 (1204224)
I0403 14:49:33.392410 11169 net.cpp:156] Memory required for data: 1345864224
I0403 14:49:33.392426 11169 layer_factory.hpp:77] Creating layer pool5/7x7_s1
I0403 14:49:33.392444 11169 net.cpp:91] Creating Layer pool5/7x7_s1
I0403 14:49:33.392462 11169 net.cpp:425] pool5/7x7_s1 <- inception_5b/output
I0403 14:49:33.392482 11169 net.cpp:399] pool5/7x7_s1 -> pool5/7x7_s1
I0403 14:49:33.392709 11169 net.cpp:141] Setting up pool5/7x7_s1
I0403 14:49:33.392735 11169 net.cpp:148] Top shape: 24 1024 1 1 (24576)
I0403 14:49:33.392750 11169 net.cpp:156] Memory required for data: 1345962528
I0403 14:49:33.392765 11169 layer_factory.hpp:77] Creating layer pool5/drop_7x7_s1
I0403 14:49:33.392783 11169 net.cpp:91] Creating Layer pool5/drop_7x7_s1
I0403 14:49:33.392799 11169 net.cpp:425] pool5/drop_7x7_s1 <- pool5/7x7_s1
I0403 14:49:33.392819 11169 net.cpp:386] pool5/drop_7x7_s1 -> pool5/7x7_s1 (in-place)
I0403 14:49:33.392875 11169 net.cpp:141] Setting up pool5/drop_7x7_s1
I0403 14:49:33.392899 11169 net.cpp:148] Top shape: 24 1024 1 1 (24576)
I0403 14:49:33.392915 11169 net.cpp:156] Memory required for data: 1346060832
I0403 14:49:33.392930 11169 layer_factory.hpp:77] Creating layer loss3/classifier_plantvillage
I0403 14:49:33.392952 11169 net.cpp:91] Creating Layer loss3/classifier_plantvillage
I0403 14:49:33.392969 11169 net.cpp:425] loss3/classifier_plantvillage <- pool5/7x7_s1
I0403 14:49:33.392992 11169 net.cpp:399] loss3/classifier_plantvillage -> loss3/classifier_plantvillage
I0403 14:49:33.393452 11169 net.cpp:141] Setting up loss3/classifier_plantvillage
I0403 14:49:33.393479 11169 net.cpp:148] Top shape: 24 38 (912)
I0403 14:49:33.393494 11169 net.cpp:156] Memory required for data: 1346064480
I0403 14:49:33.393513 11169 layer_factory.hpp:77] Creating layer loss3/classifier_plantvillage_loss3/classifier_plantvillage_0_split
I0403 14:49:33.393537 11169 net.cpp:91] Creating Layer loss3/classifier_plantvillage_loss3/classifier_plantvillage_0_split
I0403 14:49:33.393553 11169 net.cpp:425] loss3/classifier_plantvillage_loss3/classifier_plantvillage_0_split <- loss3/classifier_plantvillage
I0403 14:49:33.393574 11169 net.cpp:399] loss3/classifier_plantvillage_loss3/classifier_plantvillage_0_split -> loss3/classifier_plantvillage_loss3/classifier_plantvillage_0_split_0
I0403 14:49:33.393595 11169 net.cpp:399] loss3/classifier_plantvillage_loss3/classifier_plantvillage_0_split -> loss3/classifier_plantvillage_loss3/classifier_plantvillage_0_split_1
I0403 14:49:33.393617 11169 net.cpp:399] loss3/classifier_plantvillage_loss3/classifier_plantvillage_0_split -> loss3/classifier_plantvillage_loss3/classifier_plantvillage_0_split_2
I0403 14:49:33.393640 11169 net.cpp:399] loss3/classifier_plantvillage_loss3/classifier_plantvillage_0_split -> loss3/classifier_plantvillage_loss3/classifier_plantvillage_0_split_3
I0403 14:49:33.393745 11169 net.cpp:141] Setting up loss3/classifier_plantvillage_loss3/classifier_plantvillage_0_split
I0403 14:49:33.393770 11169 net.cpp:148] Top shape: 24 38 (912)
I0403 14:49:33.393786 11169 net.cpp:148] Top shape: 24 38 (912)
I0403 14:49:33.393802 11169 net.cpp:148] Top shape: 24 38 (912)
I0403 14:49:33.393817 11169 net.cpp:148] Top shape: 24 38 (912)
I0403 14:49:33.393831 11169 net.cpp:156] Memory required for data: 1346079072
I0403 14:49:33.393846 11169 layer_factory.hpp:77] Creating layer loss1/loss
I0403 14:49:33.393868 11169 net.cpp:91] Creating Layer loss1/loss
I0403 14:49:33.393887 11169 net.cpp:425] loss1/loss <- loss1/classifier_plantvillage_loss1/classifier_plantvillage_0_split_0
I0403 14:49:33.393920 11169 net.cpp:425] loss1/loss <- label_data_1_split_0
…
